…
I0906 13:11:17.920379 13919 net.cpp:277] The NetState phase (0) differed from the phase (1) specified by a rule in layer loss3/top-1
I0906 13:11:17.920390 13919 net.cpp:277] The NetState phase (0) differed from the phase (1) specified by a rule in layer loss3/top-5
I0906 13:11:17.921784 13919 net.cpp:39] Initializing net from parameters: 
name: "CUBNet"
layers {
  top: "data"
  top: "label"
  name: "data"
  type: DATA
  data_param {
    source: "/tmp/cub_nocrop_train"
    batch_size: 32
    backend: LMDB
  }
  include {
    phase: TRAIN
  }
  transform_param {
    mirror: true
    crop_size: 224
    mean_value: 104
    mean_value: 117
    mean_value: 123
  }
}
layers {
  bottom: "data"
  top: "conv1/7x7_s2"
  name: "conv1/7x7_s2"
  type: CONVOLUTION
  blobs_lr: 1
  blobs_lr: 2
  weight_decay: 1
  weight_decay: 0
  convolution_param {
    num_output: 64
    pad: 3
    kernel_size: 7
    stride: 2
    weight_filler {
      type: "xavier"
      std: 0.1
    }
    bias_filler {
      type: "constant"
      value: 0.2
    }
  }
}
layers {
  bottom: "conv1/7x7_s2"
  top: "conv1/7x7_s2"
  name: "conv1/relu_7x7"
  type: RELU
}
layers {
  bottom: "conv1/7x7_s2"
  top: "pool1/3x3_s2"
  name: "pool1/3x3_s2"
  type: POOLING
  pooling_param {
    pool: MAX
    kernel_size: 3
    stride: 2
  }
}
layers {
  bottom: "pool1/3x3_s2"
  top: "pool1/norm1"
  name: "pool1/norm1"
  type: LRN
  lrn_param {
    local_size: 5
    alpha: 0.0001
    beta: 0.75
  }
}
layers {
  bottom: "pool1/norm1"
  top: "conv2/3x3_reduce"
  name: "conv2/3x3_reduce"
  type: CONVOLUTION
  blobs_lr: 1
  blobs_lr: 2
  weight_decay: 1
  weight_decay: 0
  convolution_param {
    num_output: 64
    kernel_size: 1
    weight_filler {
      type: "xavier"
      std: 0.1
    }
    bias_filler {
      type: "constant"
      value: 0.2
    }
  }
}
layers {
  bottom: "conv2/3x3_reduce"
  top: "conv2/3x3_reduce"
  name: "conv2/relu_3x3_reduce"
  type: RELU
}
layers {
  bottom: "conv2/3x3_reduce"
  top: "conv2/3x3"
  name: "conv2/3x3"
  type: CONVOLUTION
  blobs_lr: 1
  blobs_lr: 2
  weight_decay: 1
  weight_decay: 0
  convolution_param {
    num_output: 192
    pad: 1
    kernel_size: 3
    weight_filler {
      type: "xavier"
      std: 0.03
    }
    bias_filler {
      type: "constant"
      value: 0.2
    }
  }
}
layers {
  bottom: "conv2/3x3"
  top: "conv2/3x3"
  name: "conv2/relu_3x3"
  type: RELU
}
layers {
  bottom: "conv2/3x3"
  top: "conv2/norm2"
  name: "conv2/norm2"
  type: LRN
  lrn_param {
    local_size: 5
    alpha: 0.0001
    beta: 0.75
  }
}
layers {
  bottom: "conv2/norm2"
  top: "pool2/3x3_s2"
  name: "pool2/3x3_s2"
  type: POOLING
  pooling_param {
    pool: MAX
    kernel_size: 3
    stride: 2
  }
}
layers {
  bottom: "pool2/3x3_s2"
  top: "inception_3a/1x1"
  name: "inception_3a/1x1"
  type: CONVOLUTION
  blobs_lr: 1
  blobs_lr: 2
  weight_decay: 1
  weight_decay: 0
  convolution_param {
    num_output: 64
    kernel_size: 1
    weight_filler {
      type: "xavier"
      std: 0.03
    }
    bias_filler {
      type: "constant"
      value: 0.2
    }
  }
}
layers {
  bottom: "inception_3a/1x1"
  top: "inception_3a/1x1"
  name: "inception_3a/relu_1x1"
  type: RELU
}
layers {
  bottom: "pool2/3x3_s2"
  top: "inception_3a/3x3_reduce"
  name: "inception_3a/3x3_reduce"
  type: CONVOLUTION
  blobs_lr: 1
  blobs_lr: 2
  weight_decay: 1
  weight_decay: 0
  convolution_param {
    num_output: 96
    kernel_size: 1
    weight_filler {
      type: "xavier"
      std: 0.09
    }
    bias_filler {
      type: "constant"
      value: 0.2
    }
  }
}
layers {
  bottom: "inception_3a/3x3_reduce"
  top: "inception_3a/3x3_reduce"
  name: "inception_3a/relu_3x3_reduce"
  type: RELU
}
layers {
  bottom: "inception_3a/3x3_reduce"
  top: "inception_3a/3x3"
  name: "inception_3a/3x3"
  type: CONVOLUTION
  blobs_lr: 1
  blobs_lr: 2
  weight_decay: 1
  weight_decay: 0
  convolution_param {
    num_output: 128
    pad: 1
    kernel_size: 3
    weight_filler {
      type: "xavier"
      std: 0.03
    }
    bias_filler {
      type: "constant"
      value: 0.2
    }
  }
}
layers {
  bottom: "inception_3a/3x3"
  top: "inception_3a/3x3"
  name: "inception_3a/relu_3x3"
  type: RELU
}
layers {
  bottom: "pool2/3x3_s2"
  top: "inception_3a/5x5_reduce"
  name: "inception_3a/5x5_reduce"
  type: CONVOLUTION
  blobs_lr: 1
  blobs_lr: 2
  weight_decay: 1
  weight_decay: 0
  convolution_param {
    num_output: 16
    kernel_size: 1
    weight_filler {
      type: "xavier"
      std: 0.2
    }
    bias_filler {
      type: "constant"
      value: 0.2
    }
  }
}
layers {
  bottom: "inception_3a/5x5_reduce"
  top: "inception_3a/5x5_reduce"
  name: "inception_3a/relu_5x5_reduce"
  type: RELU
}
layers {
  bottom: "inception_3a/5x5_reduce"
  top: "inception_3a/5x5"
  name: "inception_3a/5x5"
  type: CONVOLUTION
  blobs_lr: 1
  blobs_lr: 2
  weight_decay: 1
  weight_decay: 0
  convolution_param {
    num_output: 32
    pad: 2
    kernel_size: 5
    weight_filler {
      type: "xavier"
      std: 0.03
    }
    bias_filler {
      type: "constant"
      value: 0.2
    }
  }
}
layers {
  bottom: "inception_3a/5x5"
  top: "inception_3a/5x5"
  name: "inception_3a/relu_5x5"
  type: RELU
}
layers {
  bottom: "pool2/3x3_s2"
  top: "inception_3a/pool"
  name: "inception_3a/pool"
  type: POOLING
  pooling_param {
    pool: MAX
    kernel_size: 3
    stride: 1
    pad: 1
  }
}
layers {
  bottom: "inception_3a/pool"
  top: "inception_3a/pool_proj"
  name: "inception_3a/pool_proj"
  type: CONVOLUTION
  blobs_lr: 1
  blobs_lr: 2
  weight_decay: 1
  weight_decay: 0
  convolution_param {
    num_output: 32
    kernel_size: 1
    weight_filler {
      type: "xavier"
      std: 0.1
    }
    bias_filler {
      type: "constant"
      value: 0.2
    }
  }
}
layers {
  bottom: "inception_3a/pool_proj"
  top: "inception_3a/pool_proj"
  name: "inception_3a/relu_pool_proj"
  type: RELU
}
layers {
  bottom: "inception_3a/1x1"
  bottom: "inception_3a/3x3"
  bottom: "inception_3a/5x5"
  bottom: "inception_3a/pool_proj"
  top: "inception_3a/output"
  name: "inception_3a/output"
  type: CONCAT
}
layers {
  bottom: "inception_3a/output"
  top: "inception_3b/1x1"
  name: "inception_3b/1x1"
  type: CONVOLUTION
  blobs_lr: 1
  blobs_lr: 2
  weight_decay: 1
  weight_decay: 0
  convolution_param {
    num_output: 128
    kernel_size: 1
    weight_filler {
      type: "xavier"
      std: 0.03
    }
    bias_filler {
      type: "constant"
      value: 0.2
    }
  }
}
layers {
  bottom: "inception_3b/1x1"
  top: "inception_3b/1x1"
  name: "inception_3b/relu_1x1"
  type: RELU
}
layers {
  bottom: "inception_3a/output"
  top: "inception_3b/3x3_reduce"
  name: "inception_3b/3x3_reduce"
  type: CONVOLUTION
  blobs_lr: 1
  blobs_lr: 2
  weight_decay: 1
  weight_decay: 0
  convolution_param {
    num_output: 128
    kernel_size: 1
    weight_filler {
      type: "xavier"
      std: 0.09
    }
    bias_filler {
      type: "constant"
      value: 0.2
    }
  }
}
layers {
  bottom: "inception_3b/3x3_reduce"
  top: "inception_3b/3x3_reduce"
  name: "inception_3b/relu_3x3_reduce"
  type: RELU
}
layers {
  bottom: "inception_3b/3x3_reduce"
  top: "inception_3b/3x3"
  name: "inception_3b/3x3"
  type: CONVOLUTION
  blobs_lr: 1
  blobs_lr: 2
  weight_decay: 1
  weight_decay: 0
  convolution_param {
    num_output: 192
    pad: 1
    kernel_size: 3
    weight_filler {
      type: "xavier"
      std: 0.03
    }
    bias_filler {
      type: "constant"
      value: 0.2
    }
  }
}
layers {
  bottom: "inception_3b/3x3"
  top: "inception_3b/3x3"
  name: "inception_3b/relu_3x3"
  type: RELU
}
layers {
  bottom: "inception_3a/output"
  top: "inception_3b/5x5_reduce"
  name: "inception_3b/5x5_reduce"
  type: CONVOLUTION
  blobs_lr: 1
  blobs_lr: 2
  weight_decay: 1
  weight_decay: 0
  convolution_param {
    num_output: 32
    kernel_size: 1
    weight_filler {
      type: "xavier"
      std: 0.2
    }
    bias_filler {
      type: "constant"
      value: 0.2
    }
  }
}
layers {
  bottom: "inception_3b/5x5_reduce"
  top: "inception_3b/5x5_reduce"
  name: "inception_3b/relu_5x5_reduce"
  type: RELU
}
layers {
  bottom: "inception_3b/5x5_reduce"
  top: "inception_3b/5x5"
  name: "inception_3b/5x5"
  type: CONVOLUTION
  blobs_lr: 1
  blobs_lr: 2
  weight_decay: 1
  weight_decay: 0
  convolution_param {
    num_output: 96
    pad: 2
    kernel_size: 5
    weight_filler {
      type: "xavier"
      std: 0.03
    }
    bias_filler {
      type: "constant"
      value: 0.2
    }
  }
}
layers {
  bottom: "inception_3b/5x5"
  top: "inception_3b/5x5"
  name: "inception_3b/relu_5x5"
  type: RELU
}
layers {
  bottom: "inception_3a/output"
  top: "inception_3b/pool"
  name: "inception_3b/pool"
  type: POOLING
  pooling_param {
    pool: MAX
    kernel_size: 3
    stride: 1
    pad: 1
  }
}
layers {
  bottom: "inception_3b/pool"
  top: "inception_3b/pool_proj"
  name: "inception_3b/pool_proj"
  type: CONVOLUTION
  blobs_lr: 1
  blobs_lr: 2
  weight_decay: 1
  weight_decay: 0
  convolution_param {
    num_output: 64
    kernel_size: 1
    weight_filler {
      type: "xavier"
      std: 0.1
    }
    bias_filler {
      type: "constant"
      value: 0.2
    }
  }
}
layers {
  bottom: "inception_3b/pool_proj"
  top: "inception_3b/pool_proj"
  name: "inception_3b/relu_pool_proj"
  type: RELU
}
layers {
  bottom: "inception_3b/1x1"
  bottom: "inception_3b/3x3"
  bottom: "inception_3b/5x5"
  bottom: "inception_3b/pool_proj"
  top: "inception_3b/output"
  name: "inception_3b/output"
  type: CONCAT
}
layers {
  bottom: "inception_3b/output"
  top: "pool3/3x3_s2"
  name: "pool3/3x3_s2"
  type: POOLING
  pooling_param {
    pool: MAX
    kernel_size: 3
    stride: 2
  }
}
layers {
  bottom: "pool3/3x3_s2"
  top: "inception_4a/1x1"
  name: "inception_4a/1x1"
  type: CONVOLUTION
  blobs_lr: 1
  blobs_lr: 2
  weight_decay: 1
  weight_decay: 0
  convolution_param {
    num_output: 192
    kernel_size: 1
    weight_filler {
      type: "xavier"
      std: 0.03
    }
    bias_filler {
      type: "constant"
      value: 0.2
    }
  }
}
layers {
  bottom: "inception_4a/1x1"
  top: "inception_4a/1x1"
  name: "inception_4a/relu_1x1"
  type: RELU
}
layers {
  bottom: "pool3/3x3_s2"
  top: "inception_4a/3x3_reduce"
  name: "inception_4a/3x3_reduce"
  type: CONVOLUTION
  blobs_lr: 1
  blobs_lr: 2
  weight_decay: 1
  weight_decay: 0
  convolution_param {
    num_output: 96
    kernel_size: 1
    weight_filler {
      type: "xavier"
      std: 0.09
    }
    bias_filler {
      type: "constant"
      value: 0.2
    }
  }
}
layers {
  bottom: "inception_4a/3x3_reduce"
  top: "inception_4a/3x3_reduce"
  name: "inception_4a/relu_3x3_reduce"
  type: RELU
}
layers {
  bottom: "inception_4a/3x3_reduce"
  top: "inception_4a/3x3"
  name: "inception_4a/3x3"
  type: CONVOLUTION
  blobs_lr: 1
  blobs_lr: 2
  weight_decay: 1
  weight_decay: 0
  convolution_param {
    num_output: 208
    pad: 1
    kernel_size: 3
    weight_filler {
      type: "xavier"
      std: 0.03
    }
    bias_filler {
      type: "constant"
      value: 0.2
    }
  }
}
layers {
  bottom: "inception_4a/3x3"
  top: "inception_4a/3x3"
  name: "inception_4a/relu_3x3"
  type: RELU
}
layers {
  bottom: "pool3/3x3_s2"
  top: "inception_4a/5x5_reduce"
  name: "inception_4a/5x5_reduce"
  type: CONVOLUTION
  blobs_lr: 1
  blobs_lr: 2
  weight_decay: 1
  weight_decay: 0
  convolution_param {
    num_output: 16
    kernel_size: 1
    weight_filler {
      type: "xavier"
      std: 0.2
    }
    bias_filler {
      type: "constant"
      value: 0.2
    }
  }
}
layers {
  bottom: "inception_4a/5x5_reduce"
  top: "inception_4a/5x5_reduce"
  name: "inception_4a/relu_5x5_reduce"
  type: RELU
}
layers {
  bottom: "inception_4a/5x5_reduce"
  top: "inception_4a/5x5"
  name: "inception_4a/5x5"
  type: CONVOLUTION
  blobs_lr: 1
  blobs_lr: 2
  weight_decay: 1
  weight_decay: 0
  convolution_param {
    num_output: 48
    pad: 2
    kernel_size: 5
    weight_filler {
      type: "xavier"
      std: 0.03
    }
    bias_filler {
      type: "constant"
      value: 0.2
    }
  }
}
layers {
  bottom: "inception_4a/5x5"
  top: "inception_4a/5x5"
  name: "inception_4a/relu_5x5"
  type: RELU
}
layers {
  bottom: "pool3/3x3_s2"
  top: "inception_4a/pool"
  name: "inception_4a/pool"
  type: POOLING
  pooling_param {
    pool: MAX
    kernel_size: 3
    stride: 1
    pad: 1
  }
}
layers {
  bottom: "inception_4a/pool"
  top: "inception_4a/pool_proj"
  name: "inception_4a/pool_proj"
  type: CONVOLUTION
  blobs_lr: 1
  blobs_lr: 2
  weight_decay: 1
  weight_decay: 0
  convolution_param {
    num_output: 64
    kernel_size: 1
    weight_filler {
      type: "xavier"
      std: 0.1
    }
    bias_filler {
      type: "constant"
      value: 0.2
    }
  }
}
layers {
  bottom: "inception_4a/pool_proj"
  top: "inception_4a/pool_proj"
  name: "inception_4a/relu_pool_proj"
  type: RELU
}
layers {
  bottom: "inception_4a/1x1"
  bottom: "inception_4a/3x3"
  bottom: "inception_4a/5x5"
  bottom: "inception_4a/pool_proj"
  top: "inception_4a/output"
  name: "inception_4a/output"
  type: CONCAT
}
layers {
  bottom: "inception_4a/output"
  top: "loss1/ave_pool"
  name: "loss1/ave_pool"
  type: POOLING
  pooling_param {
    pool: AVE
    kernel_size: 5
    stride: 3
  }
}
layers {
  bottom: "loss1/ave_pool"
  top: "loss1/conv"
  name: "loss1/conv"
  type: CONVOLUTION
  blobs_lr: 1
  blobs_lr: 2
  weight_decay: 1
  weight_decay: 0
  convolution_param {
    num_output: 128
    kernel_size: 1
    weight_filler {
      type: "xavier"
      std: 0.08
    }
    bias_filler {
      type: "constant"
      value: 0.2
    }
  }
}
layers {
  bottom: "loss1/conv"
  top: "loss1/conv"
  name: "loss1/relu_conv"
  type: RELU
}
layers {
  bottom: "loss1/conv"
  top: "loss1/fc"
  name: "loss1/fc"
  type: INNER_PRODUCT
  blobs_lr: 1
  blobs_lr: 2
  weight_decay: 1
  weight_decay: 0
  inner_product_param {
    num_output: 1024
    weight_filler {
      type: "xavier"
      std: 0.02
    }
    bias_filler {
      type: "constant"
      value: 0.2
    }
  }
}
layers {
  bottom: "loss1/fc"
  top: "loss1/fc"
  name: "loss1/relu_fc"
  type: RELU
}
layers {
  bottom: "loss1/fc"
  top: "loss1/fc"
  name: "loss1/drop_fc"
  type: DROPOUT
  dropout_param {
    dropout_ratio: 0.7
  }
}
layers {
  bottom: "loss1/fc"
  top: "loss1/classifier"
  name: "loss1/classifier_cub"
  type: INNER_PRODUCT
  blobs_lr: 1
  blobs_lr: 2
  weight_decay: 1
  weight_decay: 0
  inner_product_param {
    num_output: 200
    weight_filler {
      type: "gaussian"
      std: 1e-05
    }
    bias_filler {
      type: "constant"
      value: 0
    }
  }
}
layers {
  bottom: "loss1/classifier"
  bottom: "label"
  top: "loss1/loss1"
  name: "loss1/loss"
  type: SOFTMAX_LOSS
  loss_weight: 0.3
}
layers {
  bottom: "inception_4a/output"
  top: "inception_4b/1x1"
  name: "inception_4b/1x1"
  type: CONVOLUTION
  blobs_lr: 1
  blobs_lr: 2
  weight_decay: 1
  weight_decay: 0
  convolution_param {
    num_output: 160
    kernel_size: 1
    weight_filler {
      type: "xavier"
      std: 0.03
    }
    bias_filler {
      type: "constant"
      value: 0.2
    }
  }
}
layers {
  bottom: "inception_4b/1x1"
  top: "inception_4b/1x1"
  name: "inception_4b/relu_1x1"
  type: RELU
}
layers {
  bottom: "inception_4a/output"
  top: "inception_4b/3x3_reduce"
  name: "inception_4b/3x3_reduce"
  type: CONVOLUTION
  blobs_lr: 1
  blobs_lr: 2
  weight_decay: 1
  weight_decay: 0
  convolution_param {
    num_output: 112
    kernel_size: 1
    weight_filler {
      type: "xavier"
      std: 0.09
    }
    bias_filler {
      type: "constant"
      value: 0.2
    }
  }
}
layers {
  bottom: "inception_4b/3x3_reduce"
  top: "inception_4b/3x3_reduce"
  name: "inception_4b/relu_3x3_reduce"
  type: RELU
}
layers {
  bottom: "inception_4b/3x3_reduce"
  top: "inception_4b/3x3"
  name: "inception_4b/3x3"
  type: CONVOLUTION
  blobs_lr: 1
  blobs_lr: 2
  weight_decay: 1
  weight_decay: 0
  convolution_param {
    num_output: 224
    pad: 1
    kernel_size: 3
    weight_filler {
      type: "xavier"
      std: 0.03
    }
    bias_filler {
      type: "constant"
      value: 0.2
    }
  }
}
layers {
  bottom: "inception_4b/3x3"
  top: "inception_4b/3x3"
  name: "inception_4b/relu_3x3"
  type: RELU
}
layers {
  bottom: "inception_4a/output"
  top: "inception_4b/5x5_reduce"
  name: "inception_4b/5x5_reduce"
  type: CONVOLUTION
  blobs_lr: 1
  blobs_lr: 2
  weight_decay: 1
  weight_decay: 0
  convolution_param {
    num_output: 24
    kernel_size: 1
    weight_filler {
      type: "xavier"
      std: 0.2
    }
    bias_filler {
      type: "constant"
      value: 0.2
    }
  }
}
layers {
  bottom: "inception_4b/5x5_reduce"
  top: "inception_4b/5x5_reduce"
  name: "inception_4b/relu_5x5_reduce"
  type: RELU
}
layers {
  bottom: "inception_4b/5x5_reduce"
  top: "inception_4b/5x5"
  name: "inception_4b/5x5"
  type: CONVOLUTION
  blobs_lr: 1
  blobs_lr: 2
  weight_decay: 1
  weight_decay: 0
  convolution_param {
    num_output: 64
    pad: 2
    kernel_size: 5
    weight_filler {
      type: "xavier"
      std: 0.03
    }
    bias_filler {
      type: "constant"
      value: 0.2
    }
  }
}
layers {
  bottom: "inception_4b/5x5"
  top: "inception_4b/5x5"
  name: "inception_4b/relu_5x5"
  type: RELU
}
layers {
  bottom: "inception_4a/output"
  top: "inception_4b/pool"
  name: "inception_4b/pool"
  type: POOLING
  pooling_param {
    pool: MAX
    kernel_size: 3
    stride: 1
    pad: 1
  }
}
layers {
  bottom: "inception_4b/pool"
  top: "inception_4b/pool_proj"
  name: "inception_4b/pool_proj"
  type: CONVOLUTION
  blobs_lr: 1
  blobs_lr: 2
  weight_decay: 1
  weight_decay: 0
  convolution_param {
    num_output: 64
    kernel_size: 1
    weight_filler {
      type: "xavier"
      std: 0.1
    }
    bias_filler {
      type: "constant"
      value: 0.2
    }
  }
}
layers {
  bottom: "inception_4b/pool_proj"
  top: "inception_4b/pool_proj"
  name: "inception_4b/relu_pool_proj"
  type: RELU
}
layers {
  bottom: "inception_4b/1x1"
  bottom: "inception_4b/3x3"
  bottom: "inception_4b/5x5"
  bottom: "inception_4b/pool_proj"
  top: "inception_4b/output"
  name: "inception_4b/output"
  type: CONCAT
}
layers {
  bottom: "inception_4b/output"
  top: "inception_4c/1x1"
  name: "inception_4c/1x1"
  type: CONVOLUTION
  blobs_lr: 1
  blobs_lr: 2
  weight_decay: 1
  weight_decay: 0
  convolution_param {
    num_output: 128
    kernel_size: 1
    weight_filler {
      type: "xavier"
      std: 0.03
    }
    bias_filler {
      type: "constant"
      value: 0.2
    }
  }
}
layers {
  bottom: "inception_4c/1x1"
  top: "inception_4c/1x1"
  name: "inception_4c/relu_1x1"
  type: RELU
}
layers {
  bottom: "inception_4b/output"
  top: "inception_4c/3x3_reduce"
  name: "inception_4c/3x3_reduce"
  type: CONVOLUTION
  blobs_lr: 1
  blobs_lr: 2
  weight_decay: 1
  weight_decay: 0
  convolution_param {
    num_output: 128
    kernel_size: 1
    weight_filler {
      type: "xavier"
      std: 0.09
    }
    bias_filler {
      type: "constant"
      value: 0.2
    }
  }
}
layers {
  bottom: "inception_4c/3x3_reduce"
  top: "inception_4c/3x3_reduce"
  name: "inception_4c/relu_3x3_reduce"
  type: RELU
}
layers {
  bottom: "inception_4c/3x3_reduce"
  top: "inception_4c/3x3"
  name: "inception_4c/3x3"
  type: CONVOLUTION
  blobs_lr: 1
  blobs_lr: 2
  weight_decay: 1
  weight_decay: 0
  convolution_param {
    num_output: 256
    pad: 1
    kernel_size: 3
    weight_filler {
      type: "xavier"
      std: 0.03
    }
    bias_filler {
      type: "constant"
      value: 0.2
    }
  }
}
layers {
  bottom: "inception_4c/3x3"
  top: "inception_4c/3x3"
  name: "inception_4c/relu_3x3"
  type: RELU
}
layers {
  bottom: "inception_4b/output"
  top: "inception_4c/5x5_reduce"
  name: "inception_4c/5x5_reduce"
  type: CONVOLUTION
  blobs_lr: 1
  blobs_lr: 2
  weight_decay: 1
  weight_decay: 0
  convolution_param {
    num_output: 24
    kernel_size: 1
    weight_filler {
      type: "xavier"
      std: 0.2
    }
    bias_filler {
      type: "constant"
      value: 0.2
    }
  }
}
layers {
  bottom: "inception_4c/5x5_reduce"
  top: "inception_4c/5x5_reduce"
  name: "inception_4c/relu_5x5_reduce"
  type: RELU
}
layers {
  bottom: "inception_4c/5x5_reduce"
  top: "inception_4c/5x5"
  name: "inception_4c/5x5"
  type: CONVOLUTION
  blobs_lr: 1
  blobs_lr: 2
  weight_decay: 1
  weight_decay: 0
  convolution_param {
    num_output: 64
    pad: 2
    kernel_size: 5
    weight_filler {
      type: "xavier"
      std: 0.03
    }
    bias_filler {
      type: "constant"
      value: 0.2
    }
  }
}
layers {
  bottom: "inception_4c/5x5"
  top: "inception_4c/5x5"
  name: "inception_4c/relu_5x5"
  type: RELU
}
layers {
  bottom: "inception_4b/output"
  top: "inception_4c/pool"
  name: "inception_4c/pool"
  type: POOLING
  pooling_param {
    pool: MAX
    kernel_size: 3
    stride: 1
    pad: 1
  }
}
layers {
  bottom: "inception_4c/pool"
  top: "inception_4c/pool_proj"
  name: "inception_4c/pool_proj"
  type: CONVOLUTION
  blobs_lr: 1
  blobs_lr: 2
  weight_decay: 1
  weight_decay: 0
  convolution_param {
    num_output: 64
    kernel_size: 1
    weight_filler {
      type: "xavier"
      std: 0.1
    }
    bias_filler {
      type: "constant"
      value: 0.2
    }
  }
}
layers {
  bottom: "inception_4c/pool_proj"
  top: "inception_4c/pool_proj"
  name: "inception_4c/relu_pool_proj"
  type: RELU
}
layers {
  bottom: "inception_4c/1x1"
  bottom: "inception_4c/3x3"
  bottom: "inception_4c/5x5"
  bottom: "inception_4c/pool_proj"
  top: "inception_4c/output"
  name: "inception_4c/output"
  type: CONCAT
}
layers {
  bottom: "inception_4c/output"
  top: "inception_4d/1x1"
  name: "inception_4d/1x1"
  type: CONVOLUTION
  blobs_lr: 1
  blobs_lr: 2
  weight_decay: 1
  weight_decay: 0
  convolution_param {
    num_output: 112
    kernel_size: 1
    weight_filler {
      type: "xavier"
      std: 0.03
    }
    bias_filler {
      type: "constant"
      value: 0.2
    }
  }
}
layers {
  bottom: "inception_4d/1x1"
  top: "inception_4d/1x1"
  name: "inception_4d/relu_1x1"
  type: RELU
}
layers {
  bottom: "inception_4c/output"
  top: "inception_4d/3x3_reduce"
  name: "inception_4d/3x3_reduce"
  type: CONVOLUTION
  blobs_lr: 1
  blobs_lr: 2
  weight_decay: 1
  weight_decay: 0
  convolution_param {
    num_output: 144
    kernel_size: 1
    weight_filler {
      type: "xavier"
      std: 0.09
    }
    bias_filler {
      type: "constant"
      value: 0.2
    }
  }
}
layers {
  bottom: "inception_4d/3x3_reduce"
  top: "inception_4d/3x3_reduce"
  name: "inception_4d/relu_3x3_reduce"
  type: RELU
}
layers {
  bottom: "inception_4d/3x3_reduce"
  top: "inception_4d/3x3"
  name: "inception_4d/3x3"
  type: CONVOLUTION
  blobs_lr: 1
  blobs_lr: 2
  weight_decay: 1
  weight_decay: 0
  convolution_param {
    num_output: 288
    pad: 1
    kernel_size: 3
    weight_filler {
      type: "xavier"
      std: 0.03
    }
    bias_filler {
      type: "constant"
      value: 0.2
    }
  }
}
layers {
  bottom: "inception_4d/3x3"
  top: "inception_4d/3x3"
  name: "inception_4d/relu_3x3"
  type: RELU
}
layers {
  bottom: "inception_4c/output"
  top: "inception_4d/5x5_reduce"
  name: "inception_4d/5x5_reduce"
  type: CONVOLUTION
  blobs_lr: 1
  blobs_lr: 2
  weight_decay: 1
  weight_decay: 0
  convolution_param {
    num_output: 32
    kernel_size: 1
    weight_filler {
      type: "xavier"
      std: 0.2
    }
    bias_filler {
      type: "constant"
      value: 0.2
    }
  }
}
layers {
  bottom: "inception_4d/5x5_reduce"
  top: "inception_4d/5x5_reduce"
  name: "inception_4d/relu_5x5_reduce"
  type: RELU
}
layers {
  bottom: "inception_4d/5x5_reduce"
  top: "inception_4d/5x5"
  name: "inception_4d/5x5"
  type: CONVOLUTION
  blobs_lr: 1
  blobs_lr: 2
  weight_decay: 1
  weight_decay: 0
  convolution_param {
    num_output: 64
    pad: 2
    kernel_size: 5
    weight_filler {
      type: "xavier"
      std: 0.03
    }
    bias_filler {
      type: "constant"
      value: 0.2
    }
  }
}
layers {
  bottom: "inception_4d/5x5"
  top: "inception_4d/5x5"
  name: "inception_4d/relu_5x5"
  type: RELU
}
layers {
  bottom: "inception_4c/output"
  top: "inception_4d/pool"
  name: "inception_4d/pool"
  type: POOLING
  pooling_param {
    pool: MAX
    kernel_size: 3
    stride: 1
    pad: 1
  }
}
layers {
  bottom: "inception_4d/pool"
  top: "inception_4d/pool_proj"
  name: "inception_4d/pool_proj"
  type: CONVOLUTION
  blobs_lr: 1
  blobs_lr: 2
  weight_decay: 1
  weight_decay: 0
  convolution_param {
    num_output: 64
    kernel_size: 1
    weight_filler {
      type: "xavier"
      std: 0.1
    }
    bias_filler {
      type: "constant"
      value: 0.2
    }
  }
}
layers {
  bottom: "inception_4d/pool_proj"
  top: "inception_4d/pool_proj"
  name: "inception_4d/relu_pool_proj"
  type: RELU
}
layers {
  bottom: "inception_4d/1x1"
  bottom: "inception_4d/3x3"
  bottom: "inception_4d/5x5"
  bottom: "inception_4d/pool_proj"
  top: "inception_4d/output"
  name: "inception_4d/output"
  type: CONCAT
}
layers {
  bottom: "inception_4d/output"
  top: "loss2/ave_pool"
  name: "loss2/ave_pool"
  type: POOLING
  pooling_param {
    pool: AVE
    kernel_size: 5
    stride: 3
  }
}
layers {
  bottom: "loss2/ave_pool"
  top: "loss2/conv"
  name: "loss2/conv"
  type: CONVOLUTION
  blobs_lr: 1
  blobs_lr: 2
  weight_decay: 1
  weight_decay: 0
  convolution_param {
    num_output: 128
    kernel_size: 1
    weight_filler {
      type: "xavier"
      std: 0.08
    }
    bias_filler {
      type: "constant"
      value: 0.2
    }
  }
}
layers {
  bottom: "loss2/conv"
  top: "loss2/conv"
  name: "loss2/relu_conv"
  type: RELU
}
layers {
  bottom: "loss2/conv"
  top: "loss2/fc"
  name: "loss2/fc"
  type: INNER_PRODUCT
  blobs_lr: 1
  blobs_lr: 2
  weight_decay: 1
  weight_decay: 0
  inner_product_param {
    num_output: 1024
    weight_filler {
      type: "xavier"
      std: 0.02
    }
    bias_filler {
      type: "constant"
      value: 0.2
    }
  }
}
layers {
  bottom: "loss2/fc"
  top: "loss2/fc"
  name: "loss2/relu_fc"
  type: RELU
}
layers {
  bottom: "loss2/fc"
  top: "loss2/fc"
  name: "loss2/drop_fc"
  type: DROPOUT
  dropout_param {
    dropout_ratio: 0.7
  }
}
layers {
  bottom: "loss2/fc"
  top: "loss2/classifier"
  name: "loss2/classifier_cub"
  type: INNER_PRODUCT
  blobs_lr: 1
  blobs_lr: 2
  weight_decay: 1
  weight_decay: 0
  inner_product_param {
    num_output: 200
    weight_filler {
      type: "gaussian"
      std: 1e-05
    }
    bias_filler {
      type: "constant"
      value: 0
    }
  }
}
layers {
  bottom: "loss2/classifier"
  bottom: "label"
  top: "loss2/loss1"
  name: "loss2/loss"
  type: SOFTMAX_LOSS
  loss_weight: 0.3
}
layers {
  bottom: "inception_4d/output"
  top: "inception_4e/1x1"
  name: "inception_4e/1x1"
  type: CONVOLUTION
  blobs_lr: 1
  blobs_lr: 2
  weight_decay: 1
  weight_decay: 0
  convolution_param {
    num_output: 256
    kernel_size: 1
    weight_filler {
      type: "xavier"
      std: 0.03
    }
    bias_filler {
      type: "constant"
      value: 0.2
    }
  }
}
layers {
  bottom: "inception_4e/1x1"
  top: "inception_4e/1x1"
  name: "inception_4e/relu_1x1"
  type: RELU
}
layers {
  bottom: "inception_4d/output"
  top: "inception_4e/3x3_reduce"
  name: "inception_4e/3x3_reduce"
  type: CONVOLUTION
  blobs_lr: 1
  blobs_lr: 2
  weight_decay: 1
  weight_decay: 0
  convolution_param {
    num_output: 160
    kernel_size: 1
    weight_filler {
      type: "xavier"
      std: 0.09
    }
    bias_filler {
      type: "constant"
      value: 0.2
    }
  }
}
layers {
  bottom: "inception_4e/3x3_reduce"
  top: "inception_4e/3x3_reduce"
  name: "inception_4e/relu_3x3_reduce"
  type: RELU
}
layers {
  bottom: "inception_4e/3x3_reduce"
  top: "inception_4e/3x3"
  name: "inception_4e/3x3"
  type: CONVOLUTION
  blobs_lr: 1
  blobs_lr: 2
  weight_decay: 1
  weight_decay: 0
  convolution_param {
    num_output: 320
    pad: 1
    kernel_size: 3
    weight_filler {
      type: "xavier"
      std: 0.03
    }
    bias_filler {
      type: "constant"
      value: 0.2
    }
  }
}
layers {
  bottom: "inception_4e/3x3"
  top: "inception_4e/3x3"
  name: "inception_4e/relu_3x3"
  type: RELU
}
layers {
  bottom: "inception_4d/output"
  top: "inception_4e/5x5_reduce"
  name: "inception_4e/5x5_reduce"
  type: CONVOLUTION
  blobs_lr: 1
  blobs_lr: 2
  weight_decay: 1
  weight_decay: 0
  convolution_param {
    num_output: 32
    kernel_size: 1
    weight_filler {
      type: "xavier"
      std: 0.2
    }
    bias_filler {
      type: "constant"
      value: 0.2
    }
  }
}
layers {
  bottom: "inception_4e/5x5_reduce"
  top: "inception_4e/5x5_reduce"
  name: "inception_4e/relu_5x5_reduce"
  type: RELU
}
layers {
  bottom: "inception_4e/5x5_reduce"
  top: "inception_4e/5x5"
  name: "inception_4e/5x5"
  type: CONVOLUTION
  blobs_lr: 1
  blobs_lr: 2
  weight_decay: 1
  weight_decay: 0
  convolution_param {
    num_output: 128
    pad: 2
    kernel_size: 5
    weight_filler {
      type: "xavier"
      std: 0.03
    }
    bias_filler {
      type: "constant"
      value: 0.2
    }
  }
}
layers {
  bottom: "inception_4e/5x5"
  top: "inception_4e/5x5"
  name: "inception_4e/relu_5x5"
  type: RELU
}
layers {
  bottom: "inception_4d/output"
  top: "inception_4e/pool"
  name: "inception_4e/pool"
  type: POOLING
  pooling_param {
    pool: MAX
    kernel_size: 3
    stride: 1
    pad: 1
  }
}
layers {
  bottom: "inception_4e/pool"
  top: "inception_4e/pool_proj"
  name: "inception_4e/pool_proj"
  type: CONVOLUTION
  blobs_lr: 1
  blobs_lr: 2
  weight_decay: 1
  weight_decay: 0
  convolution_param {
    num_output: 128
    kernel_size: 1
    weight_filler {
      type: "xavier"
      std: 0.1
    }
    bias_filler {
      type: "constant"
      value: 0.2
    }
  }
}
layers {
  bottom: "inception_4e/pool_proj"
  top: "inception_4e/pool_proj"
  name: "inception_4e/relu_pool_proj"
  type: RELU
}
layers {
  bottom: "inception_4e/1x1"
  bottom: "inception_4e/3x3"
  bottom: "inception_4e/5x5"
  bottom: "inception_4e/pool_proj"
  top: "inception_4e/output"
  name: "inception_4e/output"
  type: CONCAT
}
layers {
  bottom: "inception_4e/output"
  top: "pool4/3x3_s2"
  name: "pool4/3x3_s2"
  type: POOLING
  pooling_param {
    pool: MAX
    
I0906 13:11:17.923159 13919 layer_factory.hpp:78] Creating layer data
I0906 13:11:17.923192 13919 net.cpp:69] Creating Layer data
I0906 13:11:17.923199 13919 net.cpp:358] data -> data
I0906 13:11:17.923215 13919 net.cpp:358] data -> label
I0906 13:11:17.923223 13919 net.cpp:98] Setting up data
I0906 13:11:17.923228 13919 data_layer.cpp:32] Opening dataset /tmp/cub_nocrop_train
I0906 13:11:17.923574 13919 data_layer.cpp:71] output data size: 32,3,224,224
I0906 13:11:17.929033 13919 net.cpp:105] Top shape: 32 3 224 224 (4816896)
I0906 13:11:17.929064 13919 net.cpp:105] Top shape: 32 1 1 1 (32)
I0906 13:11:17.929070 13919 layer_factory.hpp:78] Creating layer label_data_1_split
I0906 13:11:17.929088 13919 net.cpp:69] Creating Layer label_data_1_split
I0906 13:11:17.929095 13919 net.cpp:396] label_data_1_split <- label
I0906 13:11:17.929106 13919 net.cpp:358] label_data_1_split -> label_data_1_split_0
I0906 13:11:17.929118 13919 net.cpp:358] label_data_1_split -> label_data_1_split_1
I0906 13:11:17.929126 13919 net.cpp:358] label_data_1_split -> label_data_1_split_2
I0906 13:11:17.929133 13919 net.cpp:98] Setting up label_data_1_split
I0906 13:11:17.929139 13919 net.cpp:105] Top shape: 32 1 1 1 (32)
I0906 13:11:17.929143 13919 net.cpp:105] Top shape: 32 1 1 1 (32)
I0906 13:11:17.929188 13919 net.cpp:105] Top shape: 32 1 1 1 (32)
I0906 13:11:17.929193 13919 layer_factory.hpp:78] Creating layer conv1/7x7_s2
I0906 13:11:17.929208 13919 net.cpp:69] Creating Layer conv1/7x7_s2
I0906 13:11:17.929213 13919 net.cpp:396] conv1/7x7_s2 <- data
I0906 13:11:17.929219 13919 net.cpp:358] conv1/7x7_s2 -> conv1/7x7_s2
I0906 13:11:17.929226 13919 net.cpp:98] Setting up conv1/7x7_s2
I0906 13:11:17.929332 13919 net.cpp:105] Top shape: 32 64 112 112 (25690112)
I0906 13:11:17.929347 13919 layer_factory.hpp:78] Creating layer conv1/relu_7x7
I0906 13:11:17.929354 13919 net.cpp:69] Creating Layer conv1/relu_7x7
I0906 13:11:17.929359 13919 net.cpp:396] conv1/relu_7x7 <- conv1/7x7_s2
I0906 13:11:17.929364 13919 net.cpp:347] conv1/relu_7x7 -> conv1/7x7_s2 (in-place)
I0906 13:11:17.929370 13919 net.cpp:98] Setting up conv1/relu_7x7
I0906 13:11:17.929375 13919 net.cpp:105] Top shape: 32 64 112 112 (25690112)
I0906 13:11:17.929379 13919 layer_factory.hpp:78] Creating layer pool1/3x3_s2
I0906 13:11:17.929388 13919 net.cpp:69] Creating Layer pool1/3x3_s2
I0906 13:11:17.929391 13919 net.cpp:396] pool1/3x3_s2 <- conv1/7x7_s2
I0906 13:11:17.929397 13919 net.cpp:358] pool1/3x3_s2 -> pool1/3x3_s2
I0906 13:11:17.929404 13919 net.cpp:98] Setting up pool1/3x3_s2
I0906 13:11:17.929417 13919 net.cpp:105] Top shape: 32 64 56 56 (6422528)
I0906 13:11:17.929422 13919 layer_factory.hpp:78] Creating layer pool1/norm1
I0906 13:11:17.929433 13919 net.cpp:69] Creating Layer pool1/norm1
I0906 13:11:17.929437 13919 net.cpp:396] pool1/norm1 <- pool1/3x3_s2
I0906 13:11:17.929443 13919 net.cpp:358] pool1/norm1 -> pool1/norm1
I0906 13:11:17.929450 13919 net.cpp:98] Setting up pool1/norm1
I0906 13:11:17.929455 13919 net.cpp:105] Top shape: 32 64 56 56 (6422528)
I0906 13:11:17.929458 13919 layer_factory.hpp:78] Creating layer conv2/3x3_reduce
I0906 13:11:17.929466 13919 net.cpp:69] Creating Layer conv2/3x3_reduce
I0906 13:11:17.929469 13919 net.cpp:396] conv2/3x3_reduce <- pool1/norm1
I0906 13:11:17.929476 13919 net.cpp:358] conv2/3x3_reduce -> conv2/3x3_reduce
I0906 13:11:17.929482 13919 net.cpp:98] Setting up conv2/3x3_reduce
I0906 13:11:17.929524 13919 net.cpp:105] Top shape: 32 64 56 56 (6422528)
I0906 13:11:17.929533 13919 layer_factory.hpp:78] Creating layer conv2/relu_3x3_reduce
I0906 13:11:17.929538 13919 net.cpp:69] Creating Layer conv2/relu_3x3_reduce
I0906 13:11:17.929543 13919 net.cpp:396] conv2/relu_3x3_reduce <- conv2/3x3_reduce
I0906 13:11:17.929548 13919 net.cpp:347] conv2/relu_3x3_reduce -> conv2/3x3_reduce (in-place)
I0906 13:11:17.929553 13919 net.cpp:98] Setting up conv2/relu_3x3_reduce
I0906 13:11:17.929558 13919 net.cpp:105] Top shape: 32 64 56 56 (6422528)
I0906 13:11:17.929561 13919 layer_factory.hpp:78] Creating layer conv2/3x3
I0906 13:11:17.929568 13919 net.cpp:69] Creating Layer conv2/3x3
I0906 13:11:17.929571 13919 net.cpp:396] conv2/3x3 <- conv2/3x3_reduce
I0906 13:11:17.929579 13919 net.cpp:358] conv2/3x3 -> conv2/3x3
I0906 13:11:17.929584 13919 net.cpp:98] Setting up conv2/3x3
I0906 13:11:17.930557 13919 net.cpp:105] Top shape: 32 192 56 56 (19267584)
I0906 13:11:17.930577 13919 layer_factory.hpp:78] Creating layer conv2/relu_3x3
I0906 13:11:17.930588 13919 net.cpp:69] Creating Layer conv2/relu_3x3
I0906 13:11:17.930598 13919 net.cpp:396] conv2/relu_3x3 <- conv2/3x3
I0906 13:11:17.930609 13919 net.cpp:347] conv2/relu_3x3 -> conv2/3x3 (in-place)
I0906 13:11:17.930620 13919 net.cpp:98] Setting up conv2/relu_3x3
I0906 13:11:17.930629 13919 net.cpp:105] Top shape: 32 192 56 56 (19267584)
I0906 13:11:17.930636 13919 layer_factory.hpp:78] Creating layer conv2/norm2
I0906 13:11:17.930646 13919 net.cpp:69] Creating Layer conv2/norm2
I0906 13:11:17.930655 13919 net.cpp:396] conv2/norm2 <- conv2/3x3
I0906 13:11:17.930666 13919 net.cpp:358] conv2/norm2 -> conv2/norm2
I0906 13:11:17.930678 13919 net.cpp:98] Setting up conv2/norm2
I0906 13:11:17.930687 13919 net.cpp:105] Top shape: 32 192 56 56 (19267584)
I0906 13:11:17.930696 13919 layer_factory.hpp:78] Creating layer pool2/3x3_s2
I0906 13:11:17.930706 13919 net.cpp:69] Creating Layer pool2/3x3_s2
I0906 13:11:17.930727 13919 net.cpp:396] pool2/3x3_s2 <- conv2/norm2
I0906 13:11:17.930740 13919 net.cpp:358] pool2/3x3_s2 -> pool2/3x3_s2
I0906 13:11:17.930752 13919 net.cpp:98] Setting up pool2/3x3_s2
I0906 13:11:17.930762 13919 net.cpp:105] Top shape: 32 192 28 28 (4816896)
I0906 13:11:17.930770 13919 layer_factory.hpp:78] Creating layer pool2/3x3_s2_pool2/3x3_s2_0_split
I0906 13:11:17.930780 13919 net.cpp:69] Creating Layer pool2/3x3_s2_pool2/3x3_s2_0_split
I0906 13:11:17.930788 13919 net.cpp:396] pool2/3x3_s2_pool2/3x3_s2_0_split <- pool2/3x3_s2
I0906 13:11:17.930799 13919 net.cpp:358] pool2/3x3_s2_pool2/3x3_s2_0_split -> pool2/3x3_s2_pool2/3x3_s2_0_split_0
I0906 13:11:17.930809 13919 net.cpp:358] pool2/3x3_s2_pool2/3x3_s2_0_split -> pool2/3x3_s2_pool2/3x3_s2_0_split_1
I0906 13:11:17.930821 13919 net.cpp:358] pool2/3x3_s2_pool2/3x3_s2_0_split -> pool2/3x3_s2_pool2/3x3_s2_0_split_2
I0906 13:11:17.930835 13919 net.cpp:358] pool2/3x3_s2_pool2/3x3_s2_0_split -> pool2/3x3_s2_pool2/3x3_s2_0_split_3
I0906 13:11:17.930845 13919 net.cpp:98] Setting up pool2/3x3_s2_pool2/3x3_s2_0_split
I0906 13:11:17.930855 13919 net.cpp:105] Top shape: 32 192 28 28 (4816896)
I0906 13:11:17.930865 13919 net.cpp:105] Top shape: 32 192 28 28 (4816896)
I0906 13:11:17.930872 13919 net.cpp:105] Top shape: 32 192 28 28 (4816896)
I0906 13:11:17.930881 13919 net.cpp:105] Top shape: 32 192 28 28 (4816896)
I0906 13:11:17.930888 13919 layer_factory.hpp:78] Creating layer inception_3a/1x1
I0906 13:11:17.930898 13919 net.cpp:69] Creating Layer inception_3a/1x1
I0906 13:11:17.930907 13919 net.cpp:396] inception_3a/1x1 <- pool2/3x3_s2_pool2/3x3_s2_0_split_0
I0906 13:11:17.930933 13919 net.cpp:358] inception_3a/1x1 -> inception_3a/1x1
I0906 13:11:17.930948 13919 net.cpp:98] Setting up inception_3a/1x1
I0906 13:11:17.931062 13919 net.cpp:105] Top shape: 32 64 28 28 (1605632)
I0906 13:11:17.931076 13919 layer_factory.hpp:78] Creating layer inception_3a/relu_1x1
I0906 13:11:17.931087 13919 net.cpp:69] Creating Layer inception_3a/relu_1x1
I0906 13:11:17.931094 13919 net.cpp:396] inception_3a/relu_1x1 <- inception_3a/1x1
I0906 13:11:17.931107 13919 net.cpp:347] inception_3a/relu_1x1 -> inception_3a/1x1 (in-place)
I0906 13:11:17.931118 13919 net.cpp:98] Setting up inception_3a/relu_1x1
I0906 13:11:17.931125 13919 net.cpp:105] Top shape: 32 64 28 28 (1605632)
I0906 13:11:17.931133 13919 layer_factory.hpp:78] Creating layer inception_3a/3x3_reduce
I0906 13:11:17.931143 13919 net.cpp:69] Creating Layer inception_3a/3x3_reduce
I0906 13:11:17.931152 13919 net.cpp:396] inception_3a/3x3_reduce <- pool2/3x3_s2_pool2/3x3_s2_0_split_1
I0906 13:11:17.931165 13919 net.cpp:358] inception_3a/3x3_reduce -> inception_3a/3x3_reduce
I0906 13:11:17.931176 13919 net.cpp:98] Setting up inception_3a/3x3_reduce
I0906 13:11:17.931344 13919 net.cpp:105] Top shape: 32 96 28 28 (2408448)
I0906 13:11:17.931360 13919 layer_factory.hpp:78] Creating layer inception_3a/relu_3x3_reduce
I0906 13:11:17.931370 13919 net.cpp:69] Creating Layer inception_3a/relu_3x3_reduce
I0906 13:11:17.931380 13919 net.cpp:396] inception_3a/relu_3x3_reduce <- inception_3a/3x3_reduce
I0906 13:11:17.931391 13919 net.cpp:347] inception_3a/relu_3x3_reduce -> inception_3a/3x3_reduce (in-place)
I0906 13:11:17.931402 13919 net.cpp:98] Setting up inception_3a/relu_3x3_reduce
I0906 13:11:17.931411 13919 net.cpp:105] Top shape: 32 96 28 28 (2408448)
I0906 13:11:17.931419 13919 layer_factory.hpp:78] Creating layer inception_3a/3x3
I0906 13:11:17.931429 13919 net.cpp:69] Creating Layer inception_3a/3x3
I0906 13:11:17.931438 13919 net.cpp:396] inception_3a/3x3 <- inception_3a/3x3_reduce
I0906 13:11:17.931478 13919 net.cpp:358] inception_3a/3x3 -> inception_3a/3x3
I0906 13:11:17.931489 13919 net.cpp:98] Setting up inception_3a/3x3
I0906 13:11:17.932832 13919 net.cpp:105] Top shape: 32 128 28 28 (3211264)
I0906 13:11:17.932860 13919 layer_factory.hpp:78] Creating layer inception_3a/relu_3x3
I0906 13:11:17.932873 13919 net.cpp:69] Creating Layer inception_3a/relu_3x3
I0906 13:11:17.932881 13919 net.cpp:396] inception_3a/relu_3x3 <- inception_3a/3x3
I0906 13:11:17.932906 13919 net.cpp:347] inception_3a/relu_3x3 -> inception_3a/3x3 (in-place)
I0906 13:11:17.932919 13919 net.cpp:98] Setting up inception_3a/relu_3x3
I0906 13:11:17.932929 13919 net.cpp:105] Top shape: 32 128 28 28 (3211264)
I0906 13:11:17.932936 13919 layer_factory.hpp:78] Creating layer inception_3a/5x5_reduce
I0906 13:11:17.932950 13919 net.cpp:69] Creating Layer inception_3a/5x5_reduce
I0906 13:11:17.932960 13919 net.cpp:396] inception_3a/5x5_reduce <- pool2/3x3_s2_pool2/3x3_s2_0_split_2
I0906 13:11:17.932972 13919 net.cpp:358] inception_3a/5x5_reduce -> inception_3a/5x5_reduce
I0906 13:11:17.932986 13919 net.cpp:98] Setting up inception_3a/5x5_reduce
I0906 13:11:17.933029 13919 net.cpp:105] Top shape: 32 16 28 28 (401408)
I0906 13:11:17.933082 13919 layer_factory.hpp:78] Creating layer inception_3a/relu_5x5_reduce
I0906 13:11:17.933096 13919 net.cpp:69] Creating Layer inception_3a/relu_5x5_reduce
I0906 13:11:17.933106 13919 net.cpp:396] inception_3a/relu_5x5_reduce <- inception_3a/5x5_reduce
I0906 13:11:17.933117 13919 net.cpp:347] inception_3a/relu_5x5_reduce -> inception_3a/5x5_reduce (in-place)
I0906 13:11:17.933128 13919 net.cpp:98] Setting up inception_3a/relu_5x5_reduce
I0906 13:11:17.933137 13919 net.cpp:105] Top shape: 32 16 28 28 (401408)
I0906 13:11:17.933145 13919 layer_factory.hpp:78] Creating layer inception_3a/5x5
I0906 13:11:17.933156 13919 net.cpp:69] Creating Layer inception_3a/5x5
I0906 13:11:17.933164 13919 net.cpp:396] inception_3a/5x5 <- inception_3a/5x5_reduce
I0906 13:11:17.933176 13919 net.cpp:358] inception_3a/5x5 -> inception_3a/5x5
I0906 13:11:17.933188 13919 net.cpp:98] Setting up inception_3a/5x5
I0906 13:11:17.933317 13919 net.cpp:105] Top shape: 32 32 28 28 (802816)
I0906 13:11:17.933332 13919 layer_factory.hpp:78] Creating layer inception_3a/relu_5x5
I0906 13:11:17.933343 13919 net.cpp:69] Creating Layer inception_3a/relu_5x5
I0906 13:11:17.933352 13919 net.cpp:396] inception_3a/relu_5x5 <- inception_3a/5x5
I0906 13:11:17.933362 13919 net.cpp:347] inception_3a/relu_5x5 -> inception_3a/5x5 (in-place)
I0906 13:11:17.933373 13919 net.cpp:98] Setting up inception_3a/relu_5x5
I0906 13:11:17.933382 13919 net.cpp:105] Top shape: 32 32 28 28 (802816)
I0906 13:11:17.933390 13919 layer_factory.hpp:78] Creating layer inception_3a/pool
I0906 13:11:17.933411 13919 net.cpp:69] Creating Layer inception_3a/pool
I0906 13:11:17.933421 13919 net.cpp:396] inception_3a/pool <- pool2/3x3_s2_pool2/3x3_s2_0_split_3
I0906 13:11:17.933432 13919 net.cpp:358] inception_3a/pool -> inception_3a/pool
I0906 13:11:17.933444 13919 net.cpp:98] Setting up inception_3a/pool
I0906 13:11:17.933454 13919 net.cpp:105] Top shape: 32 192 28 28 (4816896)
I0906 13:11:17.933462 13919 layer_factory.hpp:78] Creating layer inception_3a/pool_proj
I0906 13:11:17.933475 13919 net.cpp:69] Creating Layer inception_3a/pool_proj
I0906 13:11:17.933485 13919 net.cpp:396] inception_3a/pool_proj <- inception_3a/pool
I0906 13:11:17.933496 13919 net.cpp:358] inception_3a/pool_proj -> inception_3a/pool_proj
I0906 13:11:17.933507 13919 net.cpp:98] Setting up inception_3a/pool_proj
I0906 13:11:17.933637 13919 net.cpp:105] Top shape: 32 32 28 28 (802816)
I0906 13:11:17.933657 13919 layer_factory.hpp:78] Creating layer inception_3a/relu_pool_proj
I0906 13:11:17.933668 13919 net.cpp:69] Creating Layer inception_3a/relu_pool_proj
I0906 13:11:17.933677 13919 net.cpp:396] inception_3a/relu_pool_proj <- inception_3a/pool_proj
I0906 13:11:17.933688 13919 net.cpp:347] inception_3a/relu_pool_proj -> inception_3a/pool_proj (in-place)
I0906 13:11:17.933699 13919 net.cpp:98] Setting up inception_3a/relu_pool_proj
I0906 13:11:17.933708 13919 net.cpp:105] Top shape: 32 32 28 28 (802816)
I0906 13:11:17.933717 13919 layer_factory.hpp:78] Creating layer inception_3a/output
I0906 13:11:17.933729 13919 net.cpp:69] Creating Layer inception_3a/output
I0906 13:11:17.933739 13919 net.cpp:396] inception_3a/output <- inception_3a/1x1
I0906 13:11:17.933748 13919 net.cpp:396] inception_3a/output <- inception_3a/3x3
I0906 13:11:17.933768 13919 net.cpp:396] inception_3a/output <- inception_3a/5x5
I0906 13:11:17.933779 13919 net.cpp:396] inception_3a/output <- inception_3a/pool_proj
I0906 13:11:17.933789 13919 net.cpp:358] inception_3a/output -> inception_3a/output
I0906 13:11:17.933801 13919 net.cpp:98] Setting up inception_3a/output
I0906 13:11:17.933811 13919 net.cpp:105] Top shape: 32 256 28 28 (6422528)
I0906 13:11:17.933820 13919 layer_factory.hpp:78] Creating layer inception_3a/output_inception_3a/output_0_split
I0906 13:11:17.933830 13919 net.cpp:69] Creating Layer inception_3a/output_inception_3a/output_0_split
I0906 13:11:17.933838 13919 net.cpp:396] inception_3a/output_inception_3a/output_0_split <- inception_3a/output
I0906 13:11:17.933851 13919 net.cpp:358] inception_3a/output_inception_3a/output_0_split -> inception_3a/output_inception_3a/output_0_split_0
I0906 13:11:17.933863 13919 net.cpp:358] inception_3a/output_inception_3a/output_0_split -> inception_3a/output_inception_3a/output_0_split_1
I0906 13:11:17.933876 13919 net.cpp:358] inception_3a/output_inception_3a/output_0_split -> inception_3a/output_inception_3a/output_0_split_2
I0906 13:11:17.933887 13919 net.cpp:358] inception_3a/output_inception_3a/output_0_split -> inception_3a/output_inception_3a/output_0_split_3
I0906 13:11:17.933897 13919 net.cpp:98] Setting up inception_3a/output_inception_3a/output_0_split
I0906 13:11:17.933907 13919 net.cpp:105] Top shape: 32 256 28 28 (6422528)
I0906 13:11:17.933914 13919 net.cpp:105] Top shape: 32 256 28 28 (6422528)
I0906 13:11:17.933923 13919 net.cpp:105] Top shape: 32 256 28 28 (6422528)
I0906 13:11:17.933930 13919 net.cpp:105] Top shape: 32 256 28 28 (6422528)
I0906 13:11:17.933938 13919 layer_factory.hpp:78] Creating layer inception_3b/1x1
I0906 13:11:17.933951 13919 net.cpp:69] Creating Layer inception_3b/1x1
I0906 13:11:17.933960 13919 net.cpp:396] inception_3b/1x1 <- inception_3a/output_inception_3a/output_0_split_0
I0906 13:11:17.933971 13919 net.cpp:358] inception_3b/1x1 -> inception_3b/1x1
I0906 13:11:17.933982 13919 net.cpp:98] Setting up inception_3b/1x1
I0906 13:11:17.934288 13919 net.cpp:105] Top shape: 32 128 28 28 (3211264)
I0906 13:11:17.934304 13919 layer_factory.hpp:78] Creating layer inception_3b/relu_1x1
I0906 13:11:17.934314 13919 net.cpp:69] Creating Layer inception_3b/relu_1x1
I0906 13:11:17.934324 13919 net.cpp:396] inception_3b/relu_1x1 <- inception_3b/1x1
I0906 13:11:17.934336 13919 net.cpp:347] inception_3b/relu_1x1 -> inception_3b/1x1 (in-place)
I0906 13:11:17.934347 13919 net.cpp:98] Setting up inception_3b/relu_1x1
I0906 13:11:17.934355 13919 net.cpp:105] Top shape: 32 128 28 28 (3211264)
I0906 13:11:17.934363 13919 layer_factory.hpp:78] Creating layer inception_3b/3x3_reduce
I0906 13:11:17.934375 13919 net.cpp:69] Creating Layer inception_3b/3x3_reduce
I0906 13:11:17.934383 13919 net.cpp:396] inception_3b/3x3_reduce <- inception_3a/output_inception_3a/output_0_split_1
I0906 13:11:17.934397 13919 net.cpp:358] inception_3b/3x3_reduce -> inception_3b/3x3_reduce
I0906 13:11:17.934409 13919 net.cpp:98] Setting up inception_3b/3x3_reduce
I0906 13:11:17.934700 13919 net.cpp:105] Top shape: 32 128 28 28 (3211264)
I0906 13:11:17.934715 13919 layer_factory.hpp:78] Creating layer inception_3b/relu_3x3_reduce
I0906 13:11:17.934725 13919 net.cpp:69] Creating Layer inception_3b/relu_3x3_reduce
I0906 13:11:17.934736 13919 net.cpp:396] inception_3b/relu_3x3_reduce <- inception_3b/3x3_reduce
I0906 13:11:17.934747 13919 net.cpp:347] inception_3b/relu_3x3_reduce -> inception_3b/3x3_reduce (in-place)
I0906 13:11:17.934758 13919 net.cpp:98] Setting up inception_3b/relu_3x3_reduce
I0906 13:11:17.934767 13919 net.cpp:105] Top shape: 32 128 28 28 (3211264)
I0906 13:11:17.934775 13919 layer_factory.hpp:78] Creating layer inception_3b/3x3
I0906 13:11:17.934790 13919 net.cpp:69] Creating Layer inception_3b/3x3
I0906 13:11:17.934799 13919 net.cpp:396] inception_3b/3x3 <- inception_3b/3x3_reduce
I0906 13:11:17.934810 13919 net.cpp:358] inception_3b/3x3 -> inception_3b/3x3
I0906 13:11:17.934821 13919 net.cpp:98] Setting up inception_3b/3x3
I0906 13:11:17.936777 13919 net.cpp:105] Top shape: 32 192 28 28 (4816896)
I0906 13:11:17.936796 13919 layer_factory.hpp:78] Creating layer inception_3b/relu_3x3
I0906 13:11:17.936807 13919 net.cpp:69] Creating Layer inception_3b/relu_3x3
I0906 13:11:17.936816 13919 net.cpp:396] inception_3b/relu_3x3 <- inception_3b/3x3
I0906 13:11:17.936828 13919 net.cpp:347] inception_3b/relu_3x3 -> inception_3b/3x3 (in-place)
I0906 13:11:17.936839 13919 net.cpp:98] Setting up inception_3b/relu_3x3
I0906 13:11:17.936847 13919 net.cpp:105] Top shape: 32 192 28 28 (4816896)
I0906 13:11:17.936856 13919 layer_factory.hpp:78] Creating layer inception_3b/5x5_reduce
I0906 13:11:17.936866 13919 net.cpp:69] Creating Layer inception_3b/5x5_reduce
I0906 13:11:17.936875 13919 net.cpp:396] inception_3b/5x5_reduce <- inception_3a/output_inception_3a/output_0_split_2
I0906 13:11:17.936888 13919 net.cpp:358] inception_3b/5x5_reduce -> inception_3b/5x5_reduce
I0906 13:11:17.936899 13919 net.cpp:98] Setting up inception_3b/5x5_reduce
I0906 13:11:17.936980 13919 net.cpp:105] Top shape: 32 32 28 28 (802816)
I0906 13:11:17.936992 13919 layer_factory.hpp:78] Creating layer inception_3b/relu_5x5_reduce
I0906 13:11:17.937002 13919 net.cpp:69] Creating Layer inception_3b/relu_5x5_reduce
I0906 13:11:17.937011 13919 net.cpp:396] inception_3b/relu_5x5_reduce <- inception_3b/5x5_reduce
I0906 13:11:17.937021 13919 net.cpp:347] inception_3b/relu_5x5_reduce -> inception_3b/5x5_reduce (in-place)
I0906 13:11:17.937031 13919 net.cpp:98] Setting up inception_3b/relu_5x5_reduce
I0906 13:11:17.937039 13919 net.cpp:105] Top shape: 32 32 28 28 (802816)
I0906 13:11:17.937047 13919 layer_factory.hpp:78] Creating layer inception_3b/5x5
I0906 13:11:17.937060 13919 net.cpp:69] Creating Layer inception_3b/5x5
I0906 13:11:17.937070 13919 net.cpp:396] inception_3b/5x5 <- inception_3b/5x5_reduce
I0906 13:11:17.937083 13919 net.cpp:358] inception_3b/5x5 -> inception_3b/5x5
I0906 13:11:17.937095 13919 net.cpp:98] Setting up inception_3b/5x5
I0906 13:11:17.937732 13919 net.cpp:105] Top shape: 32 96 28 28 (2408448)
I0906 13:11:17.937748 13919 layer_factory.hpp:78] Creating layer inception_3b/relu_5x5
I0906 13:11:17.937759 13919 net.cpp:69] Creating Layer inception_3b/relu_5x5
I0906 13:11:17.937768 13919 net.cpp:396] inception_3b/relu_5x5 <- inception_3b/5x5
I0906 13:11:17.937780 13919 net.cpp:347] inception_3b/relu_5x5 -> inception_3b/5x5 (in-place)
I0906 13:11:17.937791 13919 net.cpp:98] Setting up inception_3b/relu_5x5
I0906 13:11:17.937800 13919 net.cpp:105] Top shape: 32 96 28 28 (2408448)
I0906 13:11:17.937809 13919 layer_factory.hpp:78] Creating layer inception_3b/pool
I0906 13:11:17.937819 13919 net.cpp:69] Creating Layer inception_3b/pool
I0906 13:11:17.937829 13919 net.cpp:396] inception_3b/pool <- inception_3a/output_inception_3a/output_0_split_3
I0906 13:11:17.937839 13919 net.cpp:358] inception_3b/pool -> inception_3b/pool
I0906 13:11:17.937850 13919 net.cpp:98] Setting up inception_3b/pool
I0906 13:11:17.937861 13919 net.cpp:105] Top shape: 32 256 28 28 (6422528)
I0906 13:11:17.937870 13919 layer_factory.hpp:78] Creating layer inception_3b/pool_proj
I0906 13:11:17.937891 13919 net.cpp:69] Creating Layer inception_3b/pool_proj
I0906 13:11:17.937901 13919 net.cpp:396] inception_3b/pool_proj <- inception_3b/pool
I0906 13:11:17.937912 13919 net.cpp:358] inception_3b/pool_proj -> inception_3b/pool_proj
I0906 13:11:17.937930 13919 net.cpp:98] Setting up inception_3b/pool_proj
I0906 13:11:17.938114 13919 net.cpp:105] Top shape: 32 64 28 28 (1605632)
I0906 13:11:17.938132 13919 layer_factory.hpp:78] Creating layer inception_3b/relu_pool_proj
I0906 13:11:17.938144 13919 net.cpp:69] Creating Layer inception_3b/relu_pool_proj
I0906 13:11:17.938155 13919 net.cpp:396] inception_3b/relu_pool_proj <- inception_3b/pool_proj
I0906 13:11:17.938166 13919 net.cpp:347] inception_3b/relu_pool_proj -> inception_3b/pool_proj (in-place)
I0906 13:11:17.938176 13919 net.cpp:98] Setting up inception_3b/relu_pool_proj
I0906 13:11:17.938185 13919 net.cpp:105] Top shape: 32 64 28 28 (1605632)
I0906 13:11:17.938206 13919 layer_factory.hpp:78] Creating layer inception_3b/output
I0906 13:11:17.938216 13919 net.cpp:69] Creating Layer inception_3b/output
I0906 13:11:17.938225 13919 net.cpp:396] inception_3b/output <- inception_3b/1x1
I0906 13:11:17.938246 13919 net.cpp:396] inception_3b/output <- inception_3b/3x3
I0906 13:11:17.938254 13919 net.cpp:396] inception_3b/output <- inception_3b/5x5
I0906 13:11:17.938264 13919 net.cpp:396] inception_3b/output <- inception_3b/pool_proj
I0906 13:11:17.938274 13919 net.cpp:358] inception_3b/output -> inception_3b/output
I0906 13:11:17.938284 13919 net.cpp:98] Setting up inception_3b/output
I0906 13:11:17.938293 13919 net.cpp:105] Top shape: 32 480 28 28 (12042240)
I0906 13:11:17.938302 13919 layer_factory.hpp:78] Creating layer pool3/3x3_s2
I0906 13:11:17.938312 13919 net.cpp:69] Creating Layer pool3/3x3_s2
I0906 13:11:17.938320 13919 net.cpp:396] pool3/3x3_s2 <- inception_3b/output
I0906 13:11:17.938330 13919 net.cpp:358] pool3/3x3_s2 -> pool3/3x3_s2
I0906 13:11:17.938340 13919 net.cpp:98] Setting up pool3/3x3_s2
I0906 13:11:17.938350 13919 net.cpp:105] Top shape: 32 480 14 14 (3010560)
I0906 13:11:17.938359 13919 layer_factory.hpp:78] Creating layer pool3/3x3_s2_pool3/3x3_s2_0_split
I0906 13:11:17.938370 13919 net.cpp:69] Creating Layer pool3/3x3_s2_pool3/3x3_s2_0_split
I0906 13:11:17.938380 13919 net.cpp:396] pool3/3x3_s2_pool3/3x3_s2_0_split <- pool3/3x3_s2
I0906 13:11:17.938390 13919 net.cpp:358] pool3/3x3_s2_pool3/3x3_s2_0_split -> pool3/3x3_s2_pool3/3x3_s2_0_split_0
I0906 13:11:17.938401 13919 net.cpp:358] pool3/3x3_s2_pool3/3x3_s2_0_split -> pool3/3x3_s2_pool3/3x3_s2_0_split_1
I0906 13:11:17.938415 13919 net.cpp:358] pool3/3x3_s2_pool3/3x3_s2_0_split -> pool3/3x3_s2_pool3/3x3_s2_0_split_2
I0906 13:11:17.938426 13919 net.cpp:358] pool3/3x3_s2_pool3/3x3_s2_0_split -> pool3/3x3_s2_pool3/3x3_s2_0_split_3
I0906 13:11:17.938436 13919 net.cpp:98] Setting up pool3/3x3_s2_pool3/3x3_s2_0_split
I0906 13:11:17.938446 13919 net.cpp:105] Top shape: 32 480 14 14 (3010560)
I0906 13:11:17.938454 13919 net.cpp:105] Top shape: 32 480 14 14 (3010560)
I0906 13:11:17.938462 13919 net.cpp:105] Top shape: 32 480 14 14 (3010560)
I0906 13:11:17.938470 13919 net.cpp:105] Top shape: 32 480 14 14 (3010560)
I0906 13:11:17.938478 13919 layer_factory.hpp:78] Creating layer inception_4a/1x1
I0906 13:11:17.938488 13919 net.cpp:69] Creating Layer inception_4a/1x1
I0906 13:11:17.938498 13919 net.cpp:396] inception_4a/1x1 <- pool3/3x3_s2_pool3/3x3_s2_0_split_0
I0906 13:11:17.938509 13919 net.cpp:358] inception_4a/1x1 -> inception_4a/1x1
I0906 13:11:17.938521 13919 net.cpp:98] Setting up inception_4a/1x1
I0906 13:11:17.939406 13919 net.cpp:105] Top shape: 32 192 14 14 (1204224)
I0906 13:11:17.939425 13919 layer_factory.hpp:78] Creating layer inception_4a/relu_1x1
I0906 13:11:17.939436 13919 net.cpp:69] Creating Layer inception_4a/relu_1x1
I0906 13:11:17.939445 13919 net.cpp:396] inception_4a/relu_1x1 <- inception_4a/1x1
I0906 13:11:17.939455 13919 net.cpp:347] inception_4a/relu_1x1 -> inception_4a/1x1 (in-place)
I0906 13:11:17.939465 13919 net.cpp:98] Setting up inception_4a/relu_1x1
I0906 13:11:17.939473 13919 net.cpp:105] Top shape: 32 192 14 14 (1204224)
I0906 13:11:17.939481 13919 layer_factory.hpp:78] Creating layer inception_4a/3x3_reduce
I0906 13:11:17.939494 13919 net.cpp:69] Creating Layer inception_4a/3x3_reduce
I0906 13:11:17.939503 13919 net.cpp:396] inception_4a/3x3_reduce <- pool3/3x3_s2_pool3/3x3_s2_0_split_1
I0906 13:11:17.939517 13919 net.cpp:358] inception_4a/3x3_reduce -> inception_4a/3x3_reduce
I0906 13:11:17.939528 13919 net.cpp:98] Setting up inception_4a/3x3_reduce
I0906 13:11:17.939934 13919 net.cpp:105] Top shape: 32 96 14 14 (602112)
I0906 13:11:17.939965 13919 layer_factory.hpp:78] Creating layer inception_4a/relu_3x3_reduce
I0906 13:11:17.939980 13919 net.cpp:69] Creating Layer inception_4a/relu_3x3_reduce
I0906 13:11:17.939990 13919 net.cpp:396] inception_4a/relu_3x3_reduce <- inception_4a/3x3_reduce
I0906 13:11:17.940001 13919 net.cpp:347] inception_4a/relu_3x3_reduce -> inception_4a/3x3_reduce (in-place)
I0906 13:11:17.940022 13919 net.cpp:98] Setting up inception_4a/relu_3x3_reduce
I0906 13:11:17.940032 13919 net.cpp:105] Top shape: 32 96 14 14 (602112)
I0906 13:11:17.940040 13919 layer_factory.hpp:78] Creating layer inception_4a/3x3
I0906 13:11:17.940052 13919 net.cpp:69] Creating Layer inception_4a/3x3
I0906 13:11:17.940060 13919 net.cpp:396] inception_4a/3x3 <- inception_4a/3x3_reduce
I0906 13:11:17.940079 13919 net.cpp:358] inception_4a/3x3 -> inception_4a/3x3
I0906 13:11:17.940093 13919 net.cpp:98] Setting up inception_4a/3x3
I0906 13:11:17.941972 13919 net.cpp:105] Top shape: 32 208 14 14 (1304576)
I0906 13:11:17.941990 13919 layer_factory.hpp:78] Creating layer inception_4a/relu_3x3
I0906 13:11:17.942000 13919 net.cpp:69] Creating Layer inception_4a/relu_3x3
I0906 13:11:17.942009 13919 net.cpp:396] inception_4a/relu_3x3 <- inception_4a/3x3
I0906 13:11:17.942020 13919 net.cpp:347] inception_4a/relu_3x3 -> inception_4a/3x3 (in-place)
I0906 13:11:17.942033 13919 net.cpp:98] Setting up inception_4a/relu_3x3
I0906 13:11:17.942041 13919 net.cpp:105] Top shape: 32 208 14 14 (1304576)
I0906 13:11:17.942050 13919 layer_factory.hpp:78] Creating layer inception_4a/5x5_reduce
I0906 13:11:17.942061 13919 net.cpp:69] Creating Layer inception_4a/5x5_reduce
I0906 13:11:17.942070 13919 net.cpp:396] inception_4a/5x5_reduce <- pool3/3x3_s2_pool3/3x3_s2_0_split_2
I0906 13:11:17.942081 13919 net.cpp:358] inception_4a/5x5_reduce -> inception_4a/5x5_reduce
I0906 13:11:17.942093 13919 net.cpp:98] Setting up inception_4a/5x5_reduce
I0906 13:11:17.942180 13919 net.cpp:105] Top shape: 32 16 14 14 (100352)
I0906 13:11:17.942195 13919 layer_factory.hpp:78] Creating layer inception_4a/relu_5x5_reduce
I0906 13:11:17.942209 13919 net.cpp:69] Creating Layer inception_4a/relu_5x5_reduce
I0906 13:11:17.942224 13919 net.cpp:396] inception_4a/relu_5x5_reduce <- inception_4a/5x5_reduce
I0906 13:11:17.942236 13919 net.cpp:347] inception_4a/relu_5x5_reduce -> inception_4a/5x5_reduce (in-place)
I0906 13:11:17.942247 13919 net.cpp:98] Setting up inception_4a/relu_5x5_reduce
I0906 13:11:17.942256 13919 net.cpp:105] Top shape: 32 16 14 14 (100352)
I0906 13:11:17.942265 13919 layer_factory.hpp:78] Creating layer inception_4a/5x5
I0906 13:11:17.942275 13919 net.cpp:69] Creating Layer inception_4a/5x5
I0906 13:11:17.942282 13919 net.cpp:396] inception_4a/5x5 <- inception_4a/5x5_reduce
I0906 13:11:17.942294 13919 net.cpp:358] inception_4a/5x5 -> inception_4a/5x5
I0906 13:11:17.942306 13919 net.cpp:98] Setting up inception_4a/5x5
I0906 13:11:17.942476 13919 net.cpp:105] Top shape: 32 48 14 14 (301056)
I0906 13:11:17.942489 13919 layer_factory.hpp:78] Creating layer inception_4a/relu_5x5
I0906 13:11:17.942500 13919 net.cpp:69] Creating Layer inception_4a/relu_5x5
I0906 13:11:17.942509 13919 net.cpp:396] inception_4a/relu_5x5 <- inception_4a/5x5
I0906 13:11:17.942520 13919 net.cpp:347] inception_4a/relu_5x5 -> inception_4a/5x5 (in-place)
I0906 13:11:17.942531 13919 net.cpp:98] Setting up inception_4a/relu_5x5
I0906 13:11:17.942540 13919 net.cpp:105] Top shape: 32 48 14 14 (301056)
I0906 13:11:17.942548 13919 layer_factory.hpp:78] Creating layer inception_4a/pool
I0906 13:11:17.942559 13919 net.cpp:69] Creating Layer inception_4a/pool
I0906 13:11:17.942567 13919 net.cpp:396] inception_4a/pool <- pool3/3x3_s2_pool3/3x3_s2_0_split_3
I0906 13:11:17.942577 13919 net.cpp:358] inception_4a/pool -> inception_4a/pool
I0906 13:11:17.942591 13919 net.cpp:98] Setting up inception_4a/pool
I0906 13:11:17.942601 13919 net.cpp:105] Top shape: 32 480 14 14 (3010560)
I0906 13:11:17.942610 13919 layer_factory.hpp:78] Creating layer inception_4a/pool_proj
I0906 13:11:17.942620 13919 net.cpp:69] Creating Layer inception_4a/pool_proj
I0906 13:11:17.942630 13919 net.cpp:396] inception_4a/pool_proj <- inception_4a/pool
I0906 13:11:17.942641 13919 net.cpp:358] inception_4a/pool_proj -> inception_4a/pool_proj
I0906 13:11:17.942651 13919 net.cpp:98] Setting up inception_4a/pool_proj
I0906 13:11:17.942919 13919 net.cpp:105] Top shape: 32 64 14 14 (401408)
I0906 13:11:17.942946 13919 layer_factory.hpp:78] Creating layer inception_4a/relu_pool_proj
I0906 13:11:17.942957 13919 net.cpp:69] Creating Layer inception_4a/relu_pool_proj
I0906 13:11:17.942966 13919 net.cpp:396] inception_4a/relu_pool_proj <- inception_4a/pool_proj
I0906 13:11:17.942976 13919 net.cpp:347] inception_4a/relu_pool_proj -> inception_4a/pool_proj (in-place)
I0906 13:11:17.942987 13919 net.cpp:98] Setting up inception_4a/relu_pool_proj
I0906 13:11:17.942996 13919 net.cpp:105] Top shape: 32 64 14 14 (401408)
I0906 13:11:17.943004 13919 layer_factory.hpp:78] Creating layer inception_4a/output
I0906 13:11:17.943014 13919 net.cpp:69] Creating Layer inception_4a/output
I0906 13:11:17.943022 13919 net.cpp:396] inception_4a/output <- inception_4a/1x1
I0906 13:11:17.943032 13919 net.cpp:396] inception_4a/output <- inception_4a/3x3
I0906 13:11:17.943040 13919 net.cpp:396] inception_4a/output <- inception_4a/5x5
I0906 13:11:17.943049 13919 net.cpp:396] inception_4a/output <- inception_4a/pool_proj
I0906 13:11:17.943061 13919 net.cpp:358] inception_4a/output -> inception_4a/output
I0906 13:11:17.943073 13919 net.cpp:98] Setting up inception_4a/output
I0906 13:11:17.943081 13919 net.cpp:105] Top shape: 32 512 14 14 (3211264)
I0906 13:11:17.943089 13919 layer_factory.hpp:78] Creating layer inception_4a/output_inception_4a/output_0_split
I0906 13:11:17.943102 13919 net.cpp:69] Creating Layer inception_4a/output_inception_4a/output_0_split
I0906 13:11:17.943111 13919 net.cpp:396] inception_4a/output_inception_4a/output_0_split <- inception_4a/output
I0906 13:11:17.943121 13919 net.cpp:358] inception_4a/output_inception_4a/output_0_split -> inception_4a/output_inception_4a/output_0_split_0
I0906 13:11:17.943136 13919 net.cpp:358] inception_4a/output_inception_4a/output_0_split -> inception_4a/output_inception_4a/output_0_split_1
I0906 13:11:17.943150 13919 net.cpp:358] inception_4a/output_inception_4a/output_0_split -> inception_4a/output_inception_4a/output_0_split_2
I0906 13:11:17.943161 13919 net.cpp:358] inception_4a/output_inception_4a/output_0_split -> inception_4a/output_inception_4a/output_0_split_3
I0906 13:11:17.943172 13919 net.cpp:358] inception_4a/output_inception_4a/output_0_split -> inception_4a/output_inception_4a/output_0_split_4
I0906 13:11:17.943183 13919 net.cpp:98] Setting up inception_4a/output_inception_4a/output_0_split
I0906 13:11:17.943199 13919 net.cpp:105] Top shape: 32 512 14 14 (3211264)
I0906 13:11:17.943207 13919 net.cpp:105] Top shape: 32 512 14 14 (3211264)
I0906 13:11:17.943215 13919 net.cpp:105] Top shape: 32 512 14 14 (3211264)
I0906 13:11:17.943223 13919 net.cpp:105] Top shape: 32 512 14 14 (3211264)
I0906 13:11:17.943231 13919 net.cpp:105] Top shape: 32 512 14 14 (3211264)
I0906 13:11:17.943239 13919 layer_factory.hpp:78] Creating layer loss1/ave_pool
I0906 13:11:17.943248 13919 net.cpp:69] Creating Layer loss1/ave_pool
I0906 13:11:17.943258 13919 net.cpp:396] loss1/ave_pool <- inception_4a/output_inception_4a/output_0_split_0
I0906 13:11:17.943270 13919 net.cpp:358] loss1/ave_pool -> loss1/ave_pool
I0906 13:11:17.943281 13919 net.cpp:98] Setting up loss1/ave_pool
I0906 13:11:17.943290 13919 net.cpp:105] Top shape: 32 512 4 4 (262144)
I0906 13:11:17.943300 13919 layer_factory.hpp:78] Creating layer loss1/conv
I0906 13:11:17.943310 13919 net.cpp:69] Creating Layer loss1/conv
I0906 13:11:17.943317 13919 net.cpp:396] loss1/conv <- loss1/ave_pool
I0906 13:11:17.943331 13919 net.cpp:358] loss1/conv -> loss1/conv
I0906 13:11:17.943341 13919 net.cpp:98] Setting up loss1/conv
I0906 13:11:17.943995 13919 net.cpp:105] Top shape: 32 128 4 4 (65536)
I0906 13:11:17.944013 13919 layer_factory.hpp:78] Creating layer loss1/relu_conv
I0906 13:11:17.944035 13919 net.cpp:69] Creating Layer loss1/relu_conv
I0906 13:11:17.944044 13919 net.cpp:396] loss1/relu_conv <- loss1/conv
I0906 13:11:17.944054 13919 net.cpp:347] loss1/relu_conv -> loss1/conv (in-place)
I0906 13:11:17.944066 13919 net.cpp:98] Setting up loss1/relu_conv
I0906 13:11:17.944073 13919 net.cpp:105] Top shape: 32 128 4 4 (65536)
I0906 13:11:17.944092 13919 layer_factory.hpp:78] Creating layer loss1/fc
I0906 13:11:17.944113 13919 net.cpp:69] Creating Layer loss1/fc
I0906 13:11:17.944123 13919 net.cpp:396] loss1/fc <- loss1/conv
I0906 13:11:17.944133 13919 net.cpp:358] loss1/fc -> loss1/fc
I0906 13:11:17.944144 13919 net.cpp:98] Setting up loss1/fc
I0906 13:11:17.960517 13919 net.cpp:105] Top shape: 32 1024 1 1 (32768)
I0906 13:11:17.960541 13919 layer_factory.hpp:78] Creating layer loss1/relu_fc
I0906 13:11:17.960552 13919 net.cpp:69] Creating Layer loss1/relu_fc
I0906 13:11:17.960561 13919 net.cpp:396] loss1/relu_fc <- loss1/fc
I0906 13:11:17.960573 13919 net.cpp:347] loss1/relu_fc -> loss1/fc (in-place)
I0906 13:11:17.960584 13919 net.cpp:98] Setting up loss1/relu_fc
I0906 13:11:17.960594 13919 net.cpp:105] Top shape: 32 1024 1 1 (32768)
I0906 13:11:17.960603 13919 layer_factory.hpp:78] Creating layer loss1/drop_fc
I0906 13:11:17.960619 13919 net.cpp:69] Creating Layer loss1/drop_fc
I0906 13:11:17.960628 13919 net.cpp:396] loss1/drop_fc <- loss1/fc
I0906 13:11:17.960638 13919 net.cpp:347] loss1/drop_fc -> loss1/fc (in-place)
I0906 13:11:17.960649 13919 net.cpp:98] Setting up loss1/drop_fc
I0906 13:11:17.960657 13919 net.cpp:105] Top shape: 32 1024 1 1 (32768)
I0906 13:11:17.960666 13919 layer_factory.hpp:78] Creating layer loss1/classifier_cub
I0906 13:11:17.960680 13919 net.cpp:69] Creating Layer loss1/classifier_cub
I0906 13:11:17.960688 13919 net.cpp:396] loss1/classifier_cub <- loss1/fc
I0906 13:11:17.960700 13919 net.cpp:358] loss1/classifier_cub -> loss1/classifier
I0906 13:11:17.960710 13919 net.cpp:98] Setting up loss1/classifier_cub
I0906 13:11:17.967252 13919 net.cpp:105] Top shape: 32 200 1 1 (6400)
I0906 13:11:17.967273 13919 layer_factory.hpp:78] Creating layer loss1/loss
I0906 13:11:17.967291 13919 net.cpp:69] Creating Layer loss1/loss
I0906 13:11:17.967301 13919 net.cpp:396] loss1/loss <- loss1/classifier
I0906 13:11:17.967311 13919 net.cpp:396] loss1/loss <- label_data_1_split_0
I0906 13:11:17.967322 13919 net.cpp:358] loss1/loss -> loss1/loss1
I0906 13:11:17.967339 13919 net.cpp:98] Setting up loss1/loss
I0906 13:11:17.967363 13919 net.cpp:105] Top shape: 1 1 1 1 (1)
I0906 13:11:17.967372 13919 net.cpp:111]     with loss weight 0.3
I0906 13:11:17.967403 13919 layer_factory.hpp:78] Creating layer inception_4b/1x1
I0906 13:11:17.967416 13919 net.cpp:69] Creating Layer inception_4b/1x1
I0906 13:11:17.967425 13919 net.cpp:396] inception_4b/1x1 <- inception_4a/output_inception_4a/output_0_split_1
I0906 13:11:17.967435 13919 net.cpp:358] inception_4b/1x1 -> inception_4b/1x1
I0906 13:11:17.967447 13919 net.cpp:98] Setting up inception_4b/1x1
I0906 13:11:17.968101 13919 net.cpp:105] Top shape: 32 160 14 14 (1003520)
I0906 13:11:17.968119 13919 layer_factory.hpp:78] Creating layer inception_4b/relu_1x1
I0906 13:11:17.968132 13919 net.cpp:69] Creating Layer inception_4b/relu_1x1
I0906 13:11:17.968142 13919 net.cpp:396] inception_4b/relu_1x1 <- inception_4b/1x1
I0906 13:11:17.968152 13919 net.cpp:347] inception_4b/relu_1x1 -> inception_4b/1x1 (in-place)
I0906 13:11:17.968163 13919 net.cpp:98] Setting up inception_4b/relu_1x1
I0906 13:11:17.968173 13919 net.cpp:105] Top shape: 32 160 14 14 (1003520)
I0906 13:11:17.968181 13919 layer_factory.hpp:78] Creating layer inception_4b/3x3_reduce
I0906 13:11:17.968194 13919 net.cpp:69] Creating Layer inception_4b/3x3_reduce
I0906 13:11:17.968204 13919 net.cpp:396] inception_4b/3x3_reduce <- inception_4a/output_inception_4a/output_0_split_2
I0906 13:11:17.968214 13919 net.cpp:358] inception_4b/3x3_reduce -> inception_4b/3x3_reduce
I0906 13:11:17.968225 13919 net.cpp:98] Setting up inception_4b/3x3_reduce
I0906 13:11:17.968688 13919 net.cpp:105] Top shape: 32 112 14 14 (702464)
I0906 13:11:17.968708 13919 layer_factory.hpp:78] Creating layer inception_4b/relu_3x3_reduce
I0906 13:11:17.968719 13919 net.cpp:69] Creating Layer inception_4b/relu_3x3_reduce
I0906 13:11:17.968729 13919 net.cpp:396] inception_4b/relu_3x3_reduce <- inception_4b/3x3_reduce
I0906 13:11:17.968740 13919 net.cpp:347] inception_4b/relu_3x3_reduce -> inception_4b/3x3_reduce (in-place)
I0906 13:11:17.968766 13919 net.cpp:98] Setting up inception_4b/relu_3x3_reduce
I0906 13:11:17.968775 13919 net.cpp:105] Top shape: 32 112 14 14 (702464)
I0906 13:11:17.968783 13919 layer_factory.hpp:78] Creating layer inception_4b/3x3
I0906 13:11:17.968794 13919 net.cpp:69] Creating Layer inception_4b/3x3
I0906 13:11:17.968802 13919 net.cpp:396] inception_4b/3x3 <- inception_4b/3x3_reduce
I0906 13:11:17.968816 13919 net.cpp:358] inception_4b/3x3 -> inception_4b/3x3
I0906 13:11:17.968827 13919 net.cpp:98] Setting up inception_4b/3x3
I0906 13:11:17.970608 13919 net.cpp:105] Top shape: 32 224 14 14 (1404928)
I0906 13:11:17.970628 13919 layer_factory.hpp:78] Creating layer inception_4b/relu_3x3
I0906 13:11:17.970639 13919 net.cpp:69] Creating Layer inception_4b/relu_3x3
I0906 13:11:17.970649 13919 net.cpp:396] inception_4b/relu_3x3 <- inception_4b/3x3
I0906 13:11:17.970660 13919 net.cpp:347] inception_4b/relu_3x3 -> inception_4b/3x3 (in-place)
I0906 13:11:17.970671 13919 net.cpp:98] Setting up inception_4b/relu_3x3
I0906 13:11:17.970681 13919 net.cpp:105] Top shape: 32 224 14 14 (1404928)
I0906 13:11:17.970690 13919 layer_factory.hpp:78] Creating layer inception_4b/5x5_reduce
I0906 13:11:17.970700 13919 net.cpp:69] Creating Layer inception_4b/5x5_reduce
I0906 13:11:17.970707 13919 net.cpp:396] inception_4b/5x5_reduce <- inception_4a/output_inception_4a/output_0_split_3
I0906 13:11:17.970718 13919 net.cpp:358] inception_4b/5x5_reduce -> inception_4b/5x5_reduce
I0906 13:11:17.970729 13919 net.cpp:98] Setting up inception_4b/5x5_reduce
I0906 13:11:17.970839 13919 net.cpp:105] Top shape: 32 24 14 14 (150528)
I0906 13:11:17.970852 13919 layer_factory.hpp:78] Creating layer inception_4b/relu_5x5_reduce
I0906 13:11:17.970865 13919 net.cpp:69] Creating Layer inception_4b/relu_5x5_reduce
I0906 13:11:17.970873 13919 net.cpp:396] inception_4b/relu_5x5_reduce <- inception_4b/5x5_reduce
I0906 13:11:17.970883 13919 net.cpp:347] inception_4b/relu_5x5_reduce -> inception_4b/5x5_reduce (in-place)
I0906 13:11:17.970893 13919 net.cpp:98] Setting up inception_4b/relu_5x5_reduce
I0906 13:11:17.970901 13919 net.cpp:105] Top shape: 32 24 14 14 (150528)
I0906 13:11:17.970909 13919 layer_factory.hpp:78] Creating layer inception_4b/5x5
I0906 13:11:17.970919 13919 net.cpp:69] Creating Layer inception_4b/5x5
I0906 13:11:17.970928 13919 net.cpp:396] inception_4b/5x5 <- inception_4b/5x5_reduce
I0906 13:11:17.970940 13919 net.cpp:358] inception_4b/5x5 -> inception_4b/5x5
I0906 13:11:17.970952 13919 net.cpp:98] Setting up inception_4b/5x5
I0906 13:11:17.971267 13919 net.cpp:105] Top shape: 32 64 14 14 (401408)
I0906 13:11:17.971283 13919 layer_factory.hpp:78] Creating layer inception_4b/relu_5x5
I0906 13:11:17.971293 13919 net.cpp:69] Creating Layer inception_4b/relu_5x5
I0906 13:11:17.971302 13919 net.cpp:396] inception_4b/relu_5x5 <- inception_4b/5x5
I0906 13:11:17.971312 13919 net.cpp:347] inception_4b/relu_5x5 -> inception_4b/5x5 (in-place)
I0906 13:11:17.971321 13919 net.cpp:98] Setting up inception_4b/relu_5x5
I0906 13:11:17.971329 13919 net.cpp:105] Top shape: 32 64 14 14 (401408)
I0906 13:11:17.971338 13919 layer_factory.hpp:78] Creating layer inception_4b/pool
I0906 13:11:17.971349 13919 net.cpp:69] Creating Layer inception_4b/pool
I0906 13:11:17.971359 13919 net.cpp:396] inception_4b/pool <- inception_4a/output_inception_4a/output_0_split_4
I0906 13:11:17.971369 13919 net.cpp:358] inception_4b/pool -> inception_4b/pool
I0906 13:11:17.971385 13919 net.cpp:98] Setting up inception_4b/pool
I0906 13:11:17.971397 13919 net.cpp:105] Top shape: 32 512 14 14 (3211264)
I0906 13:11:17.971405 13919 layer_factory.hpp:78] Creating layer inception_4b/pool_proj
I0906 13:11:17.971418 13919 net.cpp:69] Creating Layer inception_4b/pool_proj
I0906 13:11:17.971427 13919 net.cpp:396] inception_4b/pool_proj <- inception_4b/pool
I0906 13:11:17.971437 13919 net.cpp:358] inception_4b/pool_proj -> inception_4b/pool_proj
I0906 13:11:17.971448 13919 net.cpp:98] Setting up inception_4b/pool_proj
I0906 13:11:17.971729 13919 net.cpp:105] Top shape: 32 64 14 14 (401408)
I0906 13:11:17.971745 13919 layer_factory.hpp:78] Creating layer inception_4b/relu_pool_proj
I0906 13:11:17.971755 13919 net.cpp:69] Creating Layer inception_4b/relu_pool_proj
I0906 13:11:17.971763 13919 net.cpp:396] inception_4b/relu_pool_proj <- inception_4b/pool_proj
I0906 13:11:17.971776 13919 net.cpp:347] inception_4b/relu_pool_proj -> inception_4b/pool_proj (in-place)
I0906 13:11:17.971786 13919 net.cpp:98] Setting up inception_4b/relu_pool_proj
I0906 13:11:17.971794 13919 net.cpp:105] Top shape: 32 64 14 14 (401408)
I0906 13:11:17.971802 13919 layer_factory.hpp:78] Creating layer inception_4b/output
I0906 13:11:17.971812 13919 net.cpp:69] Creating Layer inception_4b/output
I0906 13:11:17.971820 13919 net.cpp:396] inception_4b/output <- inception_4b/1x1
I0906 13:11:17.971829 13919 net.cpp:396] inception_4b/output <- inception_4b/3x3
I0906 13:11:17.971838 13919 net.cpp:396] inception_4b/output <- inception_4b/5x5
I0906 13:11:17.971848 13919 net.cpp:396] inception_4b/output <- inception_4b/pool_proj
I0906 13:11:17.971858 13919 net.cpp:358] inception_4b/output -> inception_4b/output
I0906 13:11:17.971868 13919 net.cpp:98] Setting up inception_4b/output
I0906 13:11:17.971876 13919 net.cpp:105] Top shape: 32 512 14 14 (3211264)
I0906 13:11:17.971885 13919 layer_factory.hpp:78] Creating layer inception_4b/output_inception_4b/output_0_split
I0906 13:11:17.971894 13919 net.cpp:69] Creating Layer inception_4b/output_inception_4b/output_0_split
I0906 13:11:17.971904 13919 net.cpp:396] inception_4b/output_inception_4b/output_0_split <- inception_4b/output
I0906 13:11:17.971915 13919 net.cpp:358] inception_4b/output_inception_4b/output_0_split -> inception_4b/output_inception_4b/output_0_split_0
I0906 13:11:17.971927 13919 net.cpp:358] inception_4b/output_inception_4b/output_0_split -> inception_4b/output_inception_4b/output_0_split_1
I0906 13:11:17.971940 13919 net.cpp:358] inception_4b/output_inception_4b/output_0_split -> inception_4b/output_inception_4b/output_0_split_2
I0906 13:11:17.971951 13919 net.cpp:358] inception_4b/output_inception_4b/output_0_split -> inception_4b/output_inception_4b/output_0_split_3
I0906 13:11:17.971962 13919 net.cpp:98] Setting up inception_4b/output_inception_4b/output_0_split
I0906 13:11:17.971972 13919 net.cpp:105] Top shape: 32 512 14 14 (3211264)
I0906 13:11:17.971982 13919 net.cpp:105] Top shape: 32 512 14 14 (3211264)
I0906 13:11:17.971989 13919 net.cpp:105] Top shape: 32 512 14 14 (3211264)
I0906 13:11:17.971997 13919 net.cpp:105] Top shape: 32 512 14 14 (3211264)
I0906 13:11:17.972005 13919 layer_factory.hpp:78] Creating layer inception_4c/1x1
I0906 13:11:17.972018 13919 net.cpp:69] Creating Layer inception_4c/1x1
I0906 13:11:17.972026 13919 net.cpp:396] inception_4c/1x1 <- inception_4b/output_inception_4b/output_0_split_0
I0906 13:11:17.972038 13919 net.cpp:358] inception_4c/1x1 -> inception_4c/1x1
I0906 13:11:17.972048 13919 net.cpp:98] Setting up inception_4c/1x1
I0906 13:11:17.972574 13919 net.cpp:105] Top shape: 32 128 14 14 (802816)
I0906 13:11:17.972592 13919 layer_factory.hpp:78] Creating layer inception_4c/relu_1x1
I0906 13:11:17.972602 13919 net.cpp:69] Creating Layer inception_4c/relu_1x1
I0906 13:11:17.972611 13919 net.cpp:396] inception_4c/relu_1x1 <- inception_4c/1x1
I0906 13:11:17.972621 13919 net.cpp:347] inception_4c/relu_1x1 -> inception_4c/1x1 (in-place)
I0906 13:11:17.972631 13919 net.cpp:98] Setting up inception_4c/relu_1x1
I0906 13:11:17.972640 13919 net.cpp:105] Top shape: 32 128 14 14 (802816)
I0906 13:11:17.972647 13919 layer_factory.hpp:78] Creating layer inception_4c/3x3_reduce
I0906 13:11:17.972657 13919 net.cpp:69] Creating Layer inception_4c/3x3_reduce
I0906 13:11:17.972666 13919 net.cpp:396] inception_4c/3x3_reduce <- inception_4b/output_inception_4b/output_0_split_1
I0906 13:11:17.972679 13919 net.cpp:358] inception_4c/3x3_reduce -> inception_4c/3x3_reduce
I0906 13:11:17.972690 13919 net.cpp:98] Setting up inception_4c/3x3_reduce
I0906 13:11:17.973218 13919 net.cpp:105] Top shape: 32 128 14 14 (802816)
I0906 13:11:17.973244 13919 layer_factory.hpp:78] Creating layer inception_4c/relu_3x3_reduce
I0906 13:11:17.973255 13919 net.cpp:69] Creating Layer inception_4c/relu_3x3_reduce
I0906 13:11:17.973264 13919 net.cpp:396] inception_4c/relu_3x3_reduce <- inception_4c/3x3_reduce
I0906 13:11:17.973276 13919 net.cpp:347] inception_4c/relu_3x3_reduce -> inception_4c/3x3_reduce (in-place)
I0906 13:11:17.973286 13919 net.cpp:98] Setting up inception_4c/relu_3x3_reduce
I0906 13:11:17.973295 13919 net.cpp:105] Top shape: 32 128 14 14 (802816)
I0906 13:11:17.973304 13919 layer_factory.hpp:78] Creating layer inception_4c/3x3
I0906 13:11:17.973314 13919 net.cpp:69] Creating Layer inception_4c/3x3
I0906 13:11:17.973321 13919 net.cpp:396] inception_4c/3x3 <- inception_4c/3x3_reduce
I0906 13:11:17.973333 13919 net.cpp:358] inception_4c/3x3 -> inception_4c/3x3
I0906 13:11:17.973345 13919 net.cpp:98] Setting up inception_4c/3x3
I0906 13:11:17.975661 13919 net.cpp:105] Top shape: 32 256 14 14 (1605632)
I0906 13:11:17.975687 13919 layer_factory.hpp:78] Creating layer inception_4c/relu_3x3
I0906 13:11:17.975697 13919 net.cpp:69] Creating Layer inception_4c/relu_3x3
I0906 13:11:17.975706 13919 net.cpp:396] inception_4c/relu_3x3 <- inception_4c/3x3
I0906 13:11:17.975718 13919 net.cpp:347] inception_4c/relu_3x3 -> inception_4c/3x3 (in-place)
I0906 13:11:17.975729 13919 net.cpp:98] Setting up inception_4c/relu_3x3
I0906 13:11:17.975739 13919 net.cpp:105] Top shape: 32 256 14 14 (1605632)
I0906 13:11:17.975746 13919 layer_factory.hpp:78] Creating layer inception_4c/5x5_reduce
I0906 13:11:17.975756 13919 net.cpp:69] Creating Layer inception_4c/5x5_reduce
I0906 13:11:17.975765 13919 net.cpp:396] inception_4c/5x5_reduce <- inception_4b/output_inception_4b/output_0_split_2
I0906 13:11:17.975777 13919 net.cpp:358] inception_4c/5x5_reduce -> inception_4c/5x5_reduce
I0906 13:11:17.975788 13919 net.cpp:98] Setting up inception_4c/5x5_reduce
I0906 13:11:17.975894 13919 net.cpp:105] Top shape: 32 24 14 14 (150528)
I0906 13:11:17.975908 13919 layer_factory.hpp:78] Creating layer inception_4c/relu_5x5_reduce
I0906 13:11:17.975919 13919 net.cpp:69] Creating Layer inception_4c/relu_5x5_reduce
I0906 13:11:17.975929 13919 net.cpp:396] inception_4c/relu_5x5_reduce <- inception_4c/5x5_reduce
I0906 13:11:17.975937 13919 net.cpp:347] inception_4c/relu_5x5_reduce -> inception_4c/5x5_reduce (in-place)
I0906 13:11:17.975947 13919 net.cpp:98] Setting up inception_4c/relu_5x5_reduce
I0906 13:11:17.975956 13919 net.cpp:105] Top shape: 32 24 14 14 (150528)
I0906 13:11:17.975965 13919 layer_factory.hpp:78] Creating layer inception_4c/5x5
I0906 13:11:17.975975 13919 net.cpp:69] Creating Layer inception_4c/5x5
I0906 13:11:17.975982 13919 net.cpp:396] inception_4c/5x5 <- inception_4c/5x5_reduce
I0906 13:11:17.975996 13919 net.cpp:358] inception_4c/5x5 -> inception_4c/5x5
I0906 13:11:17.976006 13919 net.cpp:98] Setting up inception_4c/5x5
I0906 13:11:17.976325 13919 net.cpp:105] Top shape: 32 64 14 14 (401408)
I0906 13:11:17.976341 13919 layer_factory.hpp:78] Creating layer inception_4c/relu_5x5
I0906 13:11:17.976351 13919 net.cpp:69] Creating Layer inception_4c/relu_5x5
I0906 13:11:17.976359 13919 net.cpp:396] inception_4c/relu_5x5 <- inception_4c/5x5
I0906 13:11:17.976369 13919 net.cpp:347] inception_4c/relu_5x5 -> inception_4c/5x5 (in-place)
I0906 13:11:17.976379 13919 net.cpp:98] Setting up inception_4c/relu_5x5
I0906 13:11:17.976387 13919 net.cpp:105] Top shape: 32 64 14 14 (401408)
I0906 13:11:17.976395 13919 layer_factory.hpp:78] Creating layer inception_4c/pool
I0906 13:11:17.976408 13919 net.cpp:69] Creating Layer inception_4c/pool
I0906 13:11:17.976415 13919 net.cpp:396] inception_4c/pool <- inception_4b/output_inception_4b/output_0_split_3
I0906 13:11:17.976426 13919 net.cpp:358] inception_4c/pool -> inception_4c/pool
I0906 13:11:17.976438 13919 net.cpp:98] Setting up inception_4c/pool
I0906 13:11:17.976446 13919 net.cpp:105] Top shape: 32 512 14 14 (3211264)
I0906 13:11:17.976455 13919 layer_factory.hpp:78] Creating layer inception_4c/pool_proj
I0906 13:11:17.976477 13919 net.cpp:69] Creating Layer inception_4c/pool_proj
I0906 13:11:17.976488 13919 net.cpp:396] inception_4c/pool_proj <- inception_4c/pool
I0906 13:11:17.976498 13919 net.cpp:358] inception_4c/pool_proj -> inception_4c/pool_proj
I0906 13:11:17.976510 13919 net.cpp:98] Setting up inception_4c/pool_proj
I0906 13:11:17.976781 13919 net.cpp:105] Top shape: 32 64 14 14 (401408)
I0906 13:11:17.976796 13919 layer_factory.hpp:78] Creating layer inception_4c/relu_pool_proj
I0906 13:11:17.976806 13919 net.cpp:69] Creating Layer inception_4c/relu_pool_proj
I0906 13:11:17.976815 13919 net.cpp:396] inception_4c/relu_pool_proj <- inception_4c/pool_proj
I0906 13:11:17.976827 13919 net.cpp:347] inception_4c/relu_pool_proj -> inception_4c/pool_proj (in-place)
I0906 13:11:17.976838 13919 net.cpp:98] Setting up inception_4c/relu_pool_proj
I0906 13:11:17.976846 13919 net.cpp:105] Top shape: 32 64 14 14 (401408)
I0906 13:11:17.976855 13919 layer_factory.hpp:78] Creating layer inception_4c/output
I0906 13:11:17.976865 13919 net.cpp:69] Creating Layer inception_4c/output
I0906 13:11:17.976872 13919 net.cpp:396] inception_4c/output <- inception_4c/1x1
I0906 13:11:17.976881 13919 net.cpp:396] inception_4c/output <- inception_4c/3x3
I0906 13:11:17.976891 13919 net.cpp:396] inception_4c/output <- inception_4c/5x5
I0906 13:11:17.976899 13919 net.cpp:396] inception_4c/output <- inception_4c/pool_proj
I0906 13:11:17.976909 13919 net.cpp:358] inception_4c/output -> inception_4c/output
I0906 13:11:17.976920 13919 net.cpp:98] Setting up inception_4c/output
I0906 13:11:17.976928 13919 net.cpp:105] Top shape: 32 512 14 14 (3211264)
I0906 13:11:17.976936 13919 layer_factory.hpp:78] Creating layer inception_4c/output_inception_4c/output_0_split
I0906 13:11:17.976948 13919 net.cpp:69] Creating Layer inception_4c/output_inception_4c/output_0_split
I0906 13:11:17.976958 13919 net.cpp:396] inception_4c/output_inception_4c/output_0_split <- inception_4c/output
I0906 13:11:17.976968 13919 net.cpp:358] inception_4c/output_inception_4c/output_0_split -> inception_4c/output_inception_4c/output_0_split_0
I0906 13:11:17.976979 13919 net.cpp:358] inception_4c/output_inception_4c/output_0_split -> inception_4c/output_inception_4c/output_0_split_1
I0906 13:11:17.976991 13919 net.cpp:358] inception_4c/output_inception_4c/output_0_split -> inception_4c/output_inception_4c/output_0_split_2
I0906 13:11:17.977002 13919 net.cpp:358] inception_4c/output_inception_4c/output_0_split -> inception_4c/output_inception_4c/output_0_split_3
I0906 13:11:17.977015 13919 net.cpp:98] Setting up inception_4c/output_inception_4c/output_0_split
I0906 13:11:17.977025 13919 net.cpp:105] Top shape: 32 512 14 14 (3211264)
I0906 13:11:17.977033 13919 net.cpp:105] Top shape: 32 512 14 14 (3211264)
I0906 13:11:17.977041 13919 net.cpp:105] Top shape: 32 512 14 14 (3211264)
I0906 13:11:17.977048 13919 net.cpp:105] Top shape: 32 512 14 14 (3211264)
I0906 13:11:17.977056 13919 layer_factory.hpp:78] Creating layer inception_4d/1x1
I0906 13:11:17.977066 13919 net.cpp:69] Creating Layer inception_4d/1x1
I0906 13:11:17.977076 13919 net.cpp:396] inception_4d/1x1 <- inception_4c/output_inception_4c/output_0_split_0
I0906 13:11:17.977087 13919 net.cpp:358] inception_4d/1x1 -> inception_4d/1x1
I0906 13:11:17.977098 13919 net.cpp:98] Setting up inception_4d/1x1
I0906 13:11:17.977558 13919 net.cpp:105] Top shape: 32 112 14 14 (702464)
I0906 13:11:17.977576 13919 layer_factory.hpp:78] Creating layer inception_4d/relu_1x1
I0906 13:11:17.977586 13919 net.cpp:69] Creating Layer inception_4d/relu_1x1
I0906 13:11:17.977594 13919 net.cpp:396] inception_4d/relu_1x1 <- inception_4d/1x1
I0906 13:11:17.977603 13919 net.cpp:347] inception_4d/relu_1x1 -> inception_4d/1x1 (in-place)
I0906 13:11:17.977614 13919 net.cpp:98] Setting up inception_4d/relu_1x1
I0906 13:11:17.977622 13919 net.cpp:105] Top shape: 32 112 14 14 (702464)
I0906 13:11:17.977630 13919 layer_factory.hpp:78] Creating layer inception_4d/3x3_reduce
I0906 13:11:17.977643 13919 net.cpp:69] Creating Layer inception_4d/3x3_reduce
I0906 13:11:17.977653 13919 net.cpp:396] inception_4d/3x3_reduce <- inception_4c/output_inception_4c/output_0_split_1
I0906 13:11:17.977674 13919 net.cpp:358] inception_4d/3x3_reduce -> inception_4d/3x3_reduce
I0906 13:11:17.977685 13919 net.cpp:98] Setting up inception_4d/3x3_reduce
I0906 13:11:17.978281 13919 net.cpp:105] Top shape: 32 144 14 14 (903168)
I0906 13:11:17.978297 13919 layer_factory.hpp:78] Creating layer inception_4d/relu_3x3_reduce
I0906 13:11:17.978307 13919 net.cpp:69] Creating Layer inception_4d/relu_3x3_reduce
I0906 13:11:17.978317 13919 net.cpp:396] inception_4d/relu_3x3_reduce <- inception_4d/3x3_reduce
I0906 13:11:17.978328 13919 net.cpp:347] inception_4d/relu_3x3_reduce -> inception_4d/3x3_reduce (in-place)
I0906 13:11:17.978338 13919 net.cpp:98] Setting up inception_4d/relu_3x3_reduce
I0906 13:11:17.978348 13919 net.cpp:105] Top shape: 32 144 14 14 (903168)
I0906 13:11:17.978355 13919 layer_factory.hpp:78] Creating layer inception_4d/3x3
I0906 13:11:17.978365 13919 net.cpp:69] Creating Layer inception_4d/3x3
I0906 13:11:17.978374 13919 net.cpp:396] inception_4d/3x3 <- inception_4d/3x3_reduce
I0906 13:11:17.978386 13919 net.cpp:358] inception_4d/3x3 -> inception_4d/3x3
I0906 13:11:17.978397 13919 net.cpp:98] Setting up inception_4d/3x3
I0906 13:11:17.981318 13919 net.cpp:105] Top shape: 32 288 14 14 (1806336)
I0906 13:11:17.981339 13919 layer_factory.hpp:78] Creating layer inception_4d/relu_3x3
I0906 13:11:17.981349 13919 net.cpp:69] Creating Layer inception_4d/relu_3x3
I0906 13:11:17.981359 13919 net.cpp:396] inception_4d/relu_3x3 <- inception_4d/3x3
I0906 13:11:17.981370 13919 net.cpp:347] inception_4d/relu_3x3 -> inception_4d/3x3 (in-place)
I0906 13:11:17.981381 13919 net.cpp:98] Setting up inception_4d/relu_3x3
I0906 13:11:17.981390 13919 net.cpp:105] Top shape: 32 288 14 14 (1806336)
I0906 13:11:17.981400 13919 layer_factory.hpp:78] Creating layer inception_4d/5x5_reduce
I0906 13:11:17.981408 13919 net.cpp:69] Creating Layer inception_4d/5x5_reduce
I0906 13:11:17.981417 13919 net.cpp:396] inception_4d/5x5_reduce <- inception_4c/output_inception_4c/output_0_split_2
I0906 13:11:17.981431 13919 net.cpp:358] inception_4d/5x5_reduce -> inception_4d/5x5_reduce
I0906 13:11:17.981441 13919 net.cpp:98] Setting up inception_4d/5x5_reduce
I0906 13:11:17.981580 13919 net.cpp:105] Top shape: 32 32 14 14 (200704)
I0906 13:11:17.981595 13919 layer_factory.hpp:78] Creating layer inception_4d/relu_5x5_reduce
I0906 13:11:17.981605 13919 net.cpp:69] Creating Layer inception_4d/relu_5x5_reduce
I0906 13:11:17.981612 13919 net.cpp:396] inception_4d/relu_5x5_reduce <- inception_4d/5x5_reduce
I0906 13:11:17.981622 13919 net.cpp:347] inception_4d/relu_5x5_reduce -> inception_4d/5x5_reduce (in-place)
I0906 13:11:17.981632 13919 net.cpp:98] Setting up inception_4d/relu_5x5_reduce
I0906 13:11:17.981640 13919 net.cpp:105] Top shape: 32 32 14 14 (200704)
I0906 13:11:17.981648 13919 layer_factory.hpp:78] Creating layer inception_4d/5x5
I0906 13:11:17.981658 13919 net.cpp:69] Creating Layer inception_4d/5x5
I0906 13:11:17.981668 13919 net.cpp:396] inception_4d/5x5 <- inception_4d/5x5_reduce
I0906 13:11:17.981681 13919 net.cpp:358] inception_4d/5x5 -> inception_4d/5x5
I0906 13:11:17.981693 13919 net.cpp:98] Setting up inception_4d/5x5
I0906 13:11:17.982112 13919 net.cpp:105] Top shape: 32 64 14 14 (401408)
I0906 13:11:17.982127 13919 layer_factory.hpp:78] Creating layer inception_4d/relu_5x5
I0906 13:11:17.982138 13919 net.cpp:69] Creating Layer inception_4d/relu_5x5
I0906 13:11:17.982146 13919 net.cpp:396] inception_4d/relu_5x5 <- inception_4d/5x5
I0906 13:11:17.982158 13919 net.cpp:347] inception_4d/relu_5x5 -> inception_4d/5x5 (in-place)
I0906 13:11:17.982168 13919 net.cpp:98] Setting up inception_4d/relu_5x5
I0906 13:11:17.982177 13919 net.cpp:105] Top shape: 32 64 14 14 (401408)
I0906 13:11:17.982185 13919 layer_factory.hpp:78] Creating layer inception_4d/pool
I0906 13:11:17.982195 13919 net.cpp:69] Creating Layer inception_4d/pool
I0906 13:11:17.982203 13919 net.cpp:396] inception_4d/pool <- inception_4c/output_inception_4c/output_0_split_3
I0906 13:11:17.982230 13919 net.cpp:358] inception_4d/pool -> inception_4d/pool
I0906 13:11:17.982241 13919 net.cpp:98] Setting up inception_4d/pool
I0906 13:11:17.982251 13919 net.cpp:105] Top shape: 32 512 14 14 (3211264)
I0906 13:11:17.982259 13919 layer_factory.hpp:78] Creating layer inception_4d/pool_proj
I0906 13:11:17.982272 13919 net.cpp:69] Creating Layer inception_4d/pool_proj
I0906 13:11:17.982281 13919 net.cpp:396] inception_4d/pool_proj <- inception_4d/pool
I0906 13:11:17.982291 13919 net.cpp:358] inception_4d/pool_proj -> inception_4d/pool_proj
I0906 13:11:17.982302 13919 net.cpp:98] Setting up inception_4d/pool_proj
I0906 13:11:17.982571 13919 net.cpp:105] Top shape: 32 64 14 14 (401408)
I0906 13:11:17.982588 13919 layer_factory.hpp:78] Creating layer inception_4d/relu_pool_proj
I0906 13:11:17.982599 13919 net.cpp:69] Creating Layer inception_4d/relu_pool_proj
I0906 13:11:17.982609 13919 net.cpp:396] inception_4d/relu_pool_proj <- inception_4d/pool_proj
I0906 13:11:17.982619 13919 net.cpp:347] inception_4d/relu_pool_proj -> inception_4d/pool_proj (in-place)
I0906 13:11:17.982628 13919 net.cpp:98] Setting up inception_4d/relu_pool_proj
I0906 13:11:17.982637 13919 net.cpp:105] Top shape: 32 64 14 14 (401408)
I0906 13:11:17.982645 13919 layer_factory.hpp:78] Creating layer inception_4d/output
I0906 13:11:17.982655 13919 net.cpp:69] Creating Layer inception_4d/output
I0906 13:11:17.982662 13919 net.cpp:396] inception_4d/output <- inception_4d/1x1
I0906 13:11:17.982671 13919 net.cpp:396] inception_4d/output <- inception_4d/3x3
I0906 13:11:17.982681 13919 net.cpp:396] inception_4d/output <- inception_4d/5x5
I0906 13:11:17.982689 13919 net.cpp:396] inception_4d/output <- inception_4d/pool_proj
I0906 13:11:17.982699 13919 net.cpp:358] inception_4d/output -> inception_4d/output
I0906 13:11:17.982709 13919 net.cpp:98] Setting up inception_4d/output
I0906 13:11:17.982718 13919 net.cpp:105] Top shape: 32 528 14 14 (3311616)
I0906 13:11:17.982727 13919 layer_factory.hpp:78] Creating layer inception_4d/output_inception_4d/output_0_split
I0906 13:11:17.982738 13919 net.cpp:69] Creating Layer inception_4d/output_inception_4d/output_0_split
I0906 13:11:17.982748 13919 net.cpp:396] inception_4d/output_inception_4d/output_0_split <- inception_4d/output
I0906 13:11:17.982758 13919 net.cpp:358] inception_4d/output_inception_4d/output_0_split -> inception_4d/output_inception_4d/output_0_split_0
I0906 13:11:17.982769 13919 net.cpp:358] inception_4d/output_inception_4d/output_0_split -> inception_4d/output_inception_4d/output_0_split_1
I0906 13:11:17.982784 13919 net.cpp:358] inception_4d/output_inception_4d/output_0_split -> inception_4d/output_inception_4d/output_0_split_2
I0906 13:11:17.982795 13919 net.cpp:358] inception_4d/output_inception_4d/output_0_split -> inception_4d/output_inception_4d/output_0_split_3
I0906 13:11:17.982807 13919 net.cpp:358] inception_4d/output_inception_4d/output_0_split -> inception_4d/output_inception_4d/output_0_split_4
I0906 13:11:17.982817 13919 net.cpp:98] Setting up inception_4d/output_inception_4d/output_0_split
I0906 13:11:17.982827 13919 net.cpp:105] Top shape: 32 528 14 14 (3311616)
I0906 13:11:17.982836 13919 net.cpp:105] Top shape: 32 528 14 14 (3311616)
I0906 13:11:17.982842 13919 net.cpp:105] Top shape: 32 528 14 14 (3311616)
I0906 13:11:17.982851 13919 net.cpp:105] Top shape: 32 528 14 14 (3311616)
I0906 13:11:17.982858 13919 net.cpp:105] Top shape: 32 528 14 14 (3311616)
I0906 13:11:17.982867 13919 layer_factory.hpp:78] Creating layer loss2/ave_pool
I0906 13:11:17.982877 13919 net.cpp:69] Creating Layer loss2/ave_pool
I0906 13:11:17.982885 13919 net.cpp:396] loss2/ave_pool <- inception_4d/output_inception_4d/output_0_split_0
I0906 13:11:17.982897 13919 net.cpp:358] loss2/ave_pool -> loss2/ave_pool
I0906 13:11:17.982908 13919 net.cpp:98] Setting up loss2/ave_pool
I0906 13:11:17.982918 13919 net.cpp:105] Top shape: 32 528 4 4 (270336)
I0906 13:11:17.982926 13919 layer_factory.hpp:78] Creating layer loss2/conv
I0906 13:11:17.982936 13919 net.cpp:69] Creating Layer loss2/conv
I0906 13:11:17.982954 13919 net.cpp:396] loss2/conv <- loss2/ave_pool
I0906 13:11:17.982966 13919 net.cpp:358] loss2/conv -> loss2/conv
I0906 13:11:17.982977 13919 net.cpp:98] Setting up loss2/conv
I0906 13:11:17.983517 13919 net.cpp:105] Top shape: 32 128 4 4 (65536)
I0906 13:11:17.983535 13919 layer_factory.hpp:78] Creating layer loss2/relu_conv
I0906 13:11:17.983546 13919 net.cpp:69] Creating Layer loss2/relu_conv
I0906 13:11:17.983556 13919 net.cpp:396] loss2/relu_conv <- loss2/conv
I0906 13:11:17.983566 13919 net.cpp:347] loss2/relu_conv -> loss2/conv (in-place)
I0906 13:11:17.983575 13919 net.cpp:98] Setting up loss2/relu_conv
I0906 13:11:17.983587 13919 net.cpp:105] Top shape: 32 128 4 4 (65536)
I0906 13:11:17.983592 13919 layer_factory.hpp:78] Creating layer loss2/fc
I0906 13:11:17.983598 13919 net.cpp:69] Creating Layer loss2/fc
I0906 13:11:17.983604 13919 net.cpp:396] loss2/fc <- loss2/conv
I0906 13:11:17.983609 13919 net.cpp:358] loss2/fc -> loss2/fc
I0906 13:11:17.983615 13919 net.cpp:98] Setting up loss2/fc
I0906 13:11:17.999209 13919 net.cpp:105] Top shape: 32 1024 1 1 (32768)
I0906 13:11:17.999234 13919 layer_factory.hpp:78] Creating layer loss2/relu_fc
I0906 13:11:17.999245 13919 net.cpp:69] Creating Layer loss2/relu_fc
I0906 13:11:17.999254 13919 net.cpp:396] loss2/relu_fc <- loss2/fc
I0906 13:11:17.999266 13919 net.cpp:347] loss2/relu_fc -> loss2/fc (in-place)
I0906 13:11:17.999279 13919 net.cpp:98] Setting up loss2/relu_fc
I0906 13:11:17.999286 13919 net.cpp:105] Top shape: 32 1024 1 1 (32768)
I0906 13:11:17.999296 13919 layer_factory.hpp:78] Creating layer loss2/drop_fc
I0906 13:11:17.999315 13919 net.cpp:69] Creating Layer loss2/drop_fc
I0906 13:11:17.999326 13919 net.cpp:396] loss2/drop_fc <- loss2/fc
I0906 13:11:17.999338 13919 net.cpp:347] loss2/drop_fc -> loss2/fc (in-place)
I0906 13:11:17.999348 13919 net.cpp:98] Setting up loss2/drop_fc
I0906 13:11:17.999357 13919 net.cpp:105] Top shape: 32 1024 1 1 (32768)
I0906 13:11:17.999366 13919 layer_factory.hpp:78] Creating layer loss2/classifier_cub
I0906 13:11:17.999377 13919 net.cpp:69] Creating Layer loss2/classifier_cub
I0906 13:11:17.999384 13919 net.cpp:396] loss2/classifier_cub <- loss2/fc
I0906 13:11:17.999394 13919 net.cpp:358] loss2/classifier_cub -> loss2/classifier
I0906 13:11:17.999405 13919 net.cpp:98] Setting up loss2/classifier_cub
I0906 13:11:18.005944 13919 net.cpp:105] Top shape: 32 200 1 1 (6400)
I0906 13:11:18.005965 13919 layer_factory.hpp:78] Creating layer loss2/loss
I0906 13:11:18.005980 13919 net.cpp:69] Creating Layer loss2/loss
I0906 13:11:18.005990 13919 net.cpp:396] loss2/loss <- loss2/classifier
I0906 13:11:18.005998 13919 net.cpp:396] loss2/loss <- label_data_1_split_1
I0906 13:11:18.006009 13919 net.cpp:358] loss2/loss -> loss2/loss1
I0906 13:11:18.006021 13919 net.cpp:98] Setting up loss2/loss
I0906 13:11:18.006057 13919 net.cpp:105] Top shape: 1 1 1 1 (1)
I0906 13:11:18.006067 13919 net.cpp:111]     with loss weight 0.3
I0906 13:11:18.006084 13919 layer_factory.hpp:78] Creating layer inception_4e/1x1
I0906 13:11:18.006095 13919 net.cpp:69] Creating Layer inception_4e/1x1
I0906 13:11:18.006111 13919 net.cpp:396] inception_4e/1x1 <- inception_4d/output_inception_4d/output_0_split_1
I0906 13:11:18.006125 13919 net.cpp:358] inception_4e/1x1 -> inception_4e/1x1
I0906 13:11:18.006137 13919 net.cpp:98] Setting up inception_4e/1x1
I0906 13:11:18.007217 13919 net.cpp:105] Top shape: 32 256 14 14 (1605632)
I0906 13:11:18.007238 13919 layer_factory.hpp:78] Creating layer inception_4e/relu_1x1
I0906 13:11:18.007249 13919 net.cpp:69] Creating Layer inception_4e/relu_1x1
I0906 13:11:18.007258 13919 net.cpp:396] inception_4e/relu_1x1 <- inception_4e/1x1
I0906 13:11:18.007268 13919 net.cpp:347] inception_4e/relu_1x1 -> inception_4e/1x1 (in-place)
I0906 13:11:18.007278 13919 net.cpp:98] Setting up inception_4e/relu_1x1
I0906 13:11:18.007287 13919 net.cpp:105] Top shape: 32 256 14 14 (1605632)
I0906 13:11:18.007297 13919 layer_factory.hpp:78] Creating layer inception_4e/3x3_reduce
I0906 13:11:18.007318 13919 net.cpp:69] Creating Layer inception_4e/3x3_reduce
I0906 13:11:18.007344 13919 net.cpp:396] inception_4e/3x3_reduce <- inception_4d/output_inception_4d/output_0_split_2
I0906 13:11:18.007359 13919 net.cpp:358] inception_4e/3x3_reduce -> inception_4e/3x3_reduce
I0906 13:11:18.007369 13919 net.cpp:98] Setting up inception_4e/3x3_reduce
I0906 13:11:18.008051 13919 net.cpp:105] Top shape: 32 160 14 14 (1003520)
I0906 13:11:18.008071 13919 layer_factory.hpp:78] Creating layer inception_4e/relu_3x3_reduce
I0906 13:11:18.008082 13919 net.cpp:69] Creating Layer inception_4e/relu_3x3_reduce
I0906 13:11:18.008092 13919 net.cpp:396] inception_4e/relu_3x3_reduce <- inception_4e/3x3_reduce
I0906 13:11:18.008101 13919 net.cpp:347] inception_4e/relu_3x3_reduce -> inception_4e/3x3_reduce (in-place)
I0906 13:11:18.008112 13919 net.cpp:98] Setting up inception_4e/relu_3x3_reduce
I0906 13:11:18.008121 13919 net.cpp:105] Top shape: 32 160 14 14 (1003520)
I0906 13:11:18.008131 13919 layer_factory.hpp:78] Creating layer inception_4e/3x3
I0906 13:11:18.008152 13919 net.cpp:69] Creating Layer inception_4e/3x3
I0906 13:11:18.008162 13919 net.cpp:396] inception_4e/3x3 <- inception_4e/3x3_reduce
I0906 13:11:18.008172 13919 net.cpp:358] inception_4e/3x3 -> inception_4e/3x3
I0906 13:11:18.008183 13919 net.cpp:98] Setting up inception_4e/3x3
I0906 13:11:18.011811 13919 net.cpp:105] Top shape: 32 320 14 14 (2007040)
I0906 13:11:18.011831 13919 layer_factory.hpp:78] Creating layer inception_4e/relu_3x3
I0906 13:11:18.011843 13919 net.cpp:69] Creating Layer inception_4e/relu_3x3
I0906 13:11:18.011853 13919 net.cpp:396] inception_4e/relu_3x3 <- inception_4e/3x3
I0906 13:11:18.011863 13919 net.cpp:347] inception_4e/relu_3x3 -> inception_4e/3x3 (in-place)
I0906 13:11:18.011874 13919 net.cpp:98] Setting up inception_4e/relu_3x3
I0906 13:11:18.011883 13919 net.cpp:105] Top shape: 32 320 14 14 (2007040)
I0906 13:11:18.011891 13919 layer_factory.hpp:78] Creating layer inception_4e/5x5_reduce
I0906 13:11:18.011914 13919 net.cpp:69] Creating Layer inception_4e/5x5_reduce
I0906 13:11:18.011924 13919 net.cpp:396] inception_4e/5x5_reduce <- inception_4d/output_inception_4d/output_0_split_3
I0906 13:11:18.011934 13919 net.cpp:358] inception_4e/5x5_reduce -> inception_4e/5x5_reduce
I0906 13:11:18.011945 13919 net.cpp:98] Setting up inception_4e/5x5_reduce
I0906 13:11:18.012089 13919 net.cpp:105] Top shape: 32 32 14 14 (200704)
I0906 13:11:18.012102 13919 layer_factory.hpp:78] Creating layer inception_4e/relu_5x5_reduce
I0906 13:11:18.012114 13919 net.cpp:69] Creating Layer inception_4e/relu_5x5_reduce
I0906 13:11:18.012121 13919 net.cpp:396] inception_4e/relu_5x5_reduce <- inception_4e/5x5_reduce
I0906 13:11:18.012131 13919 net.cpp:347] inception_4e/relu_5x5_reduce -> inception_4e/5x5_reduce (in-place)
I0906 13:11:18.012141 13919 net.cpp:98] Setting up inception_4e/relu_5x5_reduce
I0906 13:11:18.012150 13919 net.cpp:105] Top shape: 32 32 14 14 (200704)
I0906 13:11:18.012157 13919 layer_factory.hpp:78] Creating layer inception_4e/5x5
I0906 13:11:18.012183 13919 net.cpp:69] Creating Layer inception_4e/5x5
I0906 13:11:18.012192 13919 net.cpp:396] inception_4e/5x5 <- inception_4e/5x5_reduce
I0906 13:11:18.012203 13919 net.cpp:358] inception_4e/5x5 -> inception_4e/5x5
I0906 13:11:18.012214 13919 net.cpp:98] Setting up inception_4e/5x5
I0906 13:11:18.013028 13919 net.cpp:105] Top shape: 32 128 14 14 (802816)
I0906 13:11:18.013046 13919 layer_factory.hpp:78] Creating layer inception_4e/relu_5x5
I0906 13:11:18.013056 13919 net.cpp:69] Creating Layer inception_4e/relu_5x5
I0906 13:11:18.013064 13919 net.cpp:396] inception_4e/relu_5x5 <- inception_4e/5x5
I0906 13:11:18.013077 13919 net.cpp:347] inception_4e/relu_5x5 -> inception_4e/5x5 (in-place)
I0906 13:11:18.013087 13919 net.cpp:98] Setting up inception_4e/relu_5x5
I0906 13:11:18.013095 13919 net.cpp:105] Top shape: 32 128 14 14 (802816)
I0906 13:11:18.013103 13919 layer_factory.hpp:78] Creating layer inception_4e/pool
I0906 13:11:18.013113 13919 net.cpp:69] Creating Layer inception_4e/pool
I0906 13:11:18.013123 13919 net.cpp:396] inception_4e/pool <- inception_4d/output_inception_4d/output_0_split_4
I0906 13:11:18.013144 13919 net.cpp:358] inception_4e/pool -> inception_4e/pool
I0906 13:11:18.013159 13919 net.cpp:98] Setting up inception_4e/pool
I0906 13:11:18.013169 13919 net.cpp:105] Top shape: 32 528 14 14 (3311616)
I0906 13:11:18.013177 13919 layer_factory.hpp:78] Creating layer inception_4e/pool_proj
I0906 13:11:18.013188 13919 net.cpp:69] Creating Layer inception_4e/pool_proj
I0906 13:11:18.013197 13919 net.cpp:396] inception_4e/pool_proj <- inception_4e/pool
I0906 13:11:18.013208 13919 net.cpp:358] inception_4e/pool_proj -> inception_4e/pool_proj
I0906 13:11:18.013219 13919 net.cpp:98] Setting up inception_4e/pool_proj
I0906 13:11:18.013759 13919 net.cpp:105] Top shape: 32 128 14 14 (802816)
I0906 13:11:18.013778 13919 layer_factory.hpp:78] Creating layer inception_4e/relu_pool_proj
I0906 13:11:18.013789 13919 net.cpp:69] Creating Layer inception_4e/relu_pool_proj
I0906 13:11:18.013798 13919 net.cpp:396] inception_4e/relu_pool_proj <- inception_4e/pool_proj
I0906 13:11:18.013808 13919 net.cpp:347] inception_4e/relu_pool_proj -> inception_4e/pool_proj (in-place)
I0906 13:11:18.013818 13919 net.cpp:98] Setting up inception_4e/relu_pool_proj
I0906 13:11:18.013828 13919 net.cpp:105] Top shape: 32 128 14 14 (802816)
I0906 13:11:18.013835 13919 layer_factory.hpp:78] Creating layer inception_4e/output
I0906 13:11:18.013844 13919 net.cpp:69] Creating Layer inception_4e/output
I0906 13:11:18.013854 13919 net.cpp:396] inception_4e/output <- inception_4e/1x1
I0906 13:11:18.013862 13919 net.cpp:396] inception_4e/output <- inception_4e/3x3
I0906 13:11:18.013871 13919 net.cpp:396] inception_4e/output <- inception_4e/5x5
I0906 13:11:18.013880 13919 net.cpp:396] inception_4e/output <- inception_4e/pool_proj
I0906 13:11:18.013892 13919 net.cpp:358] inception_4e/output -> inception_4e/output
I0906 13:11:18.013903 13919 net.cpp:98] Setting up inception_4e/output
I0906 13:11:18.013912 13919 net.cpp:105] Top shape: 32 832 14 14 (5218304)
I0906 13:11:18.013921 13919 layer_factory.hpp:78] Creating layer pool4/3x3_s2
I0906 13:11:18.013931 13919 net.cpp:69] Creating Layer pool4/3x3_s2
I0906 13:11:18.013939 13919 net.cpp:396] pool4/3x3_s2 <- inception_4e/output
I0906 13:11:18.013952 13919 net.cpp:358] pool4/3x3_s2 -> pool4/3x3_s2
I0906 13:11:18.013962 13919 net.cpp:98] Setting up pool4/3x3_s2
I0906 13:11:18.013972 13919 net.cpp:105] Top shape: 32 832 7 7 (1304576)
I0906 13:11:18.013979 13919 layer_factory.hpp:78] Creating layer pool4/3x3_s2_pool4/3x3_s2_0_split
I0906 13:11:18.013989 13919 net.cpp:69] Creating Layer pool4/3x3_s2_pool4/3x3_s2_0_split
I0906 13:11:18.013998 13919 net.cpp:396] pool4/3x3_s2_pool4/3x3_s2_0_split <- pool4/3x3_s2
I0906 13:11:18.014008 13919 net.cpp:358] pool4/3x3_s2_pool4/3x3_s2_0_split -> pool4/3x3_s2_pool4/3x3_s2_0_split_0
I0906 13:11:18.014019 13919 net.cpp:358] pool4/3x3_s2_pool4/3x3_s2_0_split -> pool4/3x3_s2_pool4/3x3_s2_0_split_1
I0906 13:11:18.014030 13919 net.cpp:358] pool4/3x3_s2_pool4/3x3_s2_0_split -> pool4/3x3_s2_pool4/3x3_s2_0_split_2
I0906 13:11:18.014045 13919 net.cpp:358] pool4/3x3_s2_pool4/3x3_s2_0_split -> pool4/3x3_s2_pool4/3x3_s2_0_split_3
I0906 13:11:18.014055 13919 net.cpp:98] Setting up pool4/3x3_s2_pool4/3x3_s2_0_split
I0906 13:11:18.014065 13919 net.cpp:105] Top shape: 32 832 7 7 (1304576)
I0906 13:11:18.014075 13919 net.cpp:105] Top shape: 32 832 7 7 (1304576)
I0906 13:11:18.014082 13919 net.cpp:105] Top shape: 32 832 7 7 (1304576)
I0906 13:11:18.014091 13919 net.cpp:105] Top shape: 32 832 7 7 (1304576)
I0906 13:11:18.014098 13919 layer_factory.hpp:78] Creating layer inception_5a/1x1
I0906 13:11:18.014119 13919 net.cpp:69] Creating Layer inception_5a/1x1
I0906 13:11:18.014128 13919 net.cpp:396] inception_5a/1x1 <- pool4/3x3_s2_pool4/3x3_s2_0_split_0
I0906 13:11:18.014142 13919 net.cpp:358] inception_5a/1x1 -> inception_5a/1x1
I0906 13:11:18.014153 13919 net.cpp:98] Setting up inception_5a/1x1
I0906 13:11:18.015826 13919 net.cpp:105] Top shape: 32 256 7 7 (401408)
I0906 13:11:18.015844 13919 layer_factory.hpp:78] Creating layer inception_5a/relu_1x1
I0906 13:11:18.015866 13919 net.cpp:69] Creating Layer inception_5a/relu_1x1
I0906 13:11:18.015874 13919 net.cpp:396] inception_5a/relu_1x1 <- inception_5a/1x1
I0906 13:11:18.015887 13919 net.cpp:347] inception_5a/relu_1x1 -> inception_5a/1x1 (in-place)
I0906 13:11:18.015897 13919 net.cpp:98] Setting up inception_5a/relu_1x1
I0906 13:11:18.015905 13919 net.cpp:105] Top shape: 32 256 7 7 (401408)
I0906 13:11:18.015913 13919 layer_factory.hpp:78] Creating layer inception_5a/3x3_reduce
I0906 13:11:18.015924 13919 net.cpp:69] Creating Layer inception_5a/3x3_reduce
I0906 13:11:18.015933 13919 net.cpp:396] inception_5a/3x3_reduce <- pool4/3x3_s2_pool4/3x3_s2_0_split_1
I0906 13:11:18.015944 13919 net.cpp:358] inception_5a/3x3_reduce -> inception_5a/3x3_reduce
I0906 13:11:18.015954 13919 net.cpp:98] Setting up inception_5a/3x3_reduce
I0906 13:11:18.017004 13919 net.cpp:105] Top shape: 32 160 7 7 (250880)
I0906 13:11:18.017024 13919 layer_factory.hpp:78] Creating layer inception_5a/relu_3x3_reduce
I0906 13:11:18.017035 13919 net.cpp:69] Creating Layer inception_5a/relu_3x3_reduce
I0906 13:11:18.017047 13919 net.cpp:396] inception_5a/relu_3x3_reduce <- inception_5a/3x3_reduce
I0906 13:11:18.017057 13919 net.cpp:347] inception_5a/relu_3x3_reduce -> inception_5a/3x3_reduce (in-place)
I0906 13:11:18.017067 13919 net.cpp:98] Setting up inception_5a/relu_3x3_reduce
I0906 13:11:18.017076 13919 net.cpp:105] Top shape: 32 160 7 7 (250880)
I0906 13:11:18.017086 13919 layer_factory.hpp:78] Creating layer inception_5a/3x3
I0906 13:11:18.017107 13919 net.cpp:69] Creating Layer inception_5a/3x3
I0906 13:11:18.017115 13919 net.cpp:396] inception_5a/3x3 <- inception_5a/3x3_reduce
I0906 13:11:18.017130 13919 net.cpp:358] inception_5a/3x3 -> inception_5a/3x3
I0906 13:11:18.017141 13919 net.cpp:98] Setting up inception_5a/3x3
I0906 13:11:18.020755 13919 net.cpp:105] Top shape: 32 320 7 7 (501760)
I0906 13:11:18.020774 13919 layer_factory.hpp:78] Creating layer inception_5a/relu_3x3
I0906 13:11:18.020786 13919 net.cpp:69] Creating Layer inception_5a/relu_3x3
I0906 13:11:18.020794 13919 net.cpp:396] inception_5a/relu_3x3 <- inception_5a/3x3
I0906 13:11:18.020804 13919 net.cpp:347] inception_5a/relu_3x3 -> inception_5a/3x3 (in-place)
I0906 13:11:18.020815 13919 net.cpp:98] Setting up inception_5a/relu_3x3
I0906 13:11:18.020824 13919 net.cpp:105] Top shape: 32 320 7 7 (501760)
I0906 13:11:18.020833 13919 layer_factory.hpp:78] Creating layer inception_5a/5x5_reduce
I0906 13:11:18.020853 13919 net.cpp:69] Creating Layer inception_5a/5x5_reduce
I0906 13:11:18.020864 13919 net.cpp:396] inception_5a/5x5_reduce <- pool4/3x3_s2_pool4/3x3_s2_0_split_2
I0906 13:11:18.020874 13919 net.cpp:358] inception_5a/5x5_reduce -> inception_5a/5x5_reduce
I0906 13:11:18.020889 13919 net.cpp:98] Setting up inception_5a/5x5_reduce
I0906 13:11:18.021108 13919 net.cpp:105] Top shape: 32 32 7 7 (50176)
I0906 13:11:18.021123 13919 layer_factory.hpp:78] Creating layer inception_5a/relu_5x5_reduce
I0906 13:11:18.021133 13919 net.cpp:69] Creating Layer inception_5a/relu_5x5_reduce
I0906 13:11:18.021142 13919 net.cpp:396] inception_5a/relu_5x5_reduce <- inception_5a/5x5_reduce
I0906 13:11:18.021152 13919 net.cpp:347] inception_5a/relu_5x5_reduce -> inception_5a/5x5_reduce (in-place)
I0906 13:11:18.021162 13919 net.cpp:98] Setting up inception_5a/relu_5x5_reduce
I0906 13:11:18.021170 13919 net.cpp:105] Top shape: 32 32 7 7 (50176)
I0906 13:11:18.021178 13919 layer_factory.hpp:78] Creating layer inception_5a/5x5
I0906 13:11:18.021190 13919 net.cpp:69] Creating Layer inception_5a/5x5
I0906 13:11:18.021199 13919 net.cpp:396] inception_5a/5x5 <- inception_5a/5x5_reduce
I0906 13:11:18.021211 13919 net.cpp:358] inception_5a/5x5 -> inception_5a/5x5
I0906 13:11:18.021222 13919 net.cpp:98] Setting up inception_5a/5x5
I0906 13:11:18.022034 13919 net.cpp:105] Top shape: 32 128 7 7 (200704)
I0906 13:11:18.022063 13919 layer_factory.hpp:78] Creating layer inception_5a/relu_5x5
I0906 13:11:18.022073 13919 net.cpp:69] Creating Layer inception_5a/relu_5x5
I0906 13:11:18.022083 13919 net.cpp:396] inception_5a/relu_5x5 <- inception_5a/5x5
I0906 13:11:18.022111 13919 net.cpp:347] inception_5a/relu_5x5 -> inception_5a/5x5 (in-place)
I0906 13:11:18.022128 13919 net.cpp:98] Setting up inception_5a/relu_5x5
I0906 13:11:18.022137 13919 net.cpp:105] Top shape: 32 128 7 7 (200704)
I0906 13:11:18.022146 13919 layer_factory.hpp:78] Creating layer inception_5a/pool
I0906 13:11:18.022157 13919 net.cpp:69] Creating Layer inception_5a/pool
I0906 13:11:18.022171 13919 net.cpp:396] inception_5a/pool <- pool4/3x3_s2_pool4/3x3_s2_0_split_3
I0906 13:11:18.022182 13919 net.cpp:358] inception_5a/pool -> inception_5a/pool
I0906 13:11:18.022197 13919 net.cpp:98] Setting up inception_5a/pool
I0906 13:11:18.022212 13919 net.cpp:105] Top shape: 32 832 7 7 (1304576)
I0906 13:11:18.022220 13919 layer_factory.hpp:78] Creating layer inception_5a/pool_proj
I0906 13:11:18.022233 13919 net.cpp:69] Creating Layer inception_5a/pool_proj
I0906 13:11:18.022241 13919 net.cpp:396] inception_5a/pool_proj <- inception_5a/pool
I0906 13:11:18.022253 13919 net.cpp:358] inception_5a/pool_proj -> inception_5a/pool_proj
I0906 13:11:18.022265 13919 net.cpp:98] Setting up inception_5a/pool_proj
I0906 13:11:18.023123 13919 net.cpp:105] Top shape: 32 128 7 7 (200704)
I0906 13:11:18.023152 13919 layer_factory.hpp:78] Creating layer inception_5a/relu_pool_proj
I0906 13:11:18.023164 13919 net.cpp:69] Creating Layer inception_5a/relu_pool_proj
I0906 13:11:18.023172 13919 net.cpp:396] inception_5a/relu_pool_proj <- inception_5a/pool_proj
I0906 13:11:18.023182 13919 net.cpp:347] inception_5a/relu_pool_proj -> inception_5a/pool_proj (in-place)
I0906 13:11:18.023192 13919 net.cpp:98] Setting up inception_5a/relu_pool_proj
I0906 13:11:18.023201 13919 net.cpp:105] Top shape: 32 128 7 7 (200704)
I0906 13:11:18.023211 13919 layer_factory.hpp:78] Creating layer inception_5a/output
I0906 13:11:18.023229 13919 net.cpp:69] Creating Layer inception_5a/output
I0906 13:11:18.023238 13919 net.cpp:396] inception_5a/output <- inception_5a/1x1
I0906 13:11:18.023248 13919 net.cpp:396] inception_5a/output <- inception_5a/3x3
I0906 13:11:18.023257 13919 net.cpp:396] inception_5a/output <- inception_5a/5x5
I0906 13:11:18.023267 13919 net.cpp:396] inception_5a/output <- inception_5a/pool_proj
I0906 13:11:18.023279 13919 net.cpp:358] inception_5a/output -> inception_5a/output
I0906 13:11:18.023290 13919 net.cpp:98] Setting up inception_5a/output
I0906 13:11:18.023299 13919 net.cpp:105] Top shape: 32 832 7 7 (1304576)
I0906 13:11:18.023308 13919 layer_factory.hpp:78] Creating layer inception_5a/output_inception_5a/output_0_split
I0906 13:11:18.023318 13919 net.cpp:69] Creating Layer inception_5a/output_inception_5a/output_0_split
I0906 13:11:18.023325 13919 net.cpp:396] inception_5a/output_inception_5a/output_0_split <- inception_5a/output
I0906 13:11:18.023336 13919 net.cpp:358] inception_5a/output_inception_5a/output_0_split -> inception_5a/output_inception_5a/output_0_split_0
I0906 13:11:18.023347 13919 net.cpp:358] inception_5a/output_inception_5a/output_0_split -> inception_5a/output_inception_5a/output_0_split_1
I0906 13:11:18.023362 13919 net.cpp:358] inception_5a/output_inception_5a/output_0_split -> inception_5a/output_inception_5a/output_0_split_2
I0906 13:11:18.023375 13919 net.cpp:358] inception_5a/output_inception_5a/output_0_split -> inception_5a/output_inception_5a/output_0_split_3
I0906 13:11:18.023386 13919 net.cpp:98] Setting up inception_5a/output_inception_5a/output_0_split
I0906 13:11:18.023396 13919 net.cpp:105] Top shape: 32 832 7 7 (1304576)
I0906 13:11:18.023403 13919 net.cpp:105] Top shape: 32 832 7 7 (1304576)
I0906 13:11:18.023411 13919 net.cpp:105] Top shape: 32 832 7 7 (1304576)
I0906 13:11:18.023419 13919 net.cpp:105] Top shape: 32 832 7 7 (1304576)
I0906 13:11:18.023427 13919 layer_factory.hpp:78] Creating layer inception_5b/1x1
I0906 13:11:18.023437 13919 net.cpp:69] Creating Layer inception_5b/1x1
I0906 13:11:18.023447 13919 net.cpp:396] inception_5b/1x1 <- inception_5a/output_inception_5a/output_0_split_0
I0906 13:11:18.023459 13919 net.cpp:358] inception_5b/1x1 -> inception_5b/1x1
I0906 13:11:18.023481 13919 net.cpp:98] Setting up inception_5b/1x1
I0906 13:11:18.025993 13919 net.cpp:105] Top shape: 32 384 7 7 (602112)
I0906 13:11:18.026021 13919 layer_factory.hpp:78] Creating layer inception_5b/relu_1x1
I0906 13:11:18.026031 13919 net.cpp:69] Creating Layer inception_5b/relu_1x1
I0906 13:11:18.026039 13919 net.cpp:396] inception_5b/relu_1x1 <- inception_5b/1x1
I0906 13:11:18.026052 13919 net.cpp:347] inception_5b/relu_1x1 -> inception_5b/1x1 (in-place)
I0906 13:11:18.026063 13919 net.cpp:98] Setting up inception_5b/relu_1x1
I0906 13:11:18.026072 13919 net.cpp:105] Top shape: 32 384 7 7 (602112)
I0906 13:11:18.026082 13919 layer_factory.hpp:78] Creating layer inception_5b/3x3_reduce
I0906 13:11:18.026099 13919 net.cpp:69] Creating Layer inception_5b/3x3_reduce
I0906 13:11:18.026116 13919 net.cpp:396] inception_5b/3x3_reduce <- inception_5a/output_inception_5a/output_0_split_1
I0906 13:11:18.026130 13919 net.cpp:358] inception_5b/3x3_reduce -> inception_5b/3x3_reduce
I0906 13:11:18.026142 13919 net.cpp:98] Setting up inception_5b/3x3_reduce
I0906 13:11:18.027400 13919 net.cpp:105] Top shape: 32 192 7 7 (301056)
I0906 13:11:18.027420 13919 layer_factory.hpp:78] Creating layer inception_5b/relu_3x3_reduce
I0906 13:11:18.027432 13919 net.cpp:69] Creating Layer inception_5b/relu_3x3_reduce
I0906 13:11:18.027442 13919 net.cpp:396] inception_5b/relu_3x3_reduce <- inception_5b/3x3_reduce
I0906 13:11:18.027452 13919 net.cpp:347] inception_5b/relu_3x3_reduce -> inception_5b/3x3_reduce (in-place)
I0906 13:11:18.027463 13919 net.cpp:98] Setting up inception_5b/relu_3x3_reduce
I0906 13:11:18.027472 13919 net.cpp:105] Top shape: 32 192 7 7 (301056)
I0906 13:11:18.027487 13919 layer_factory.hpp:78] Creating layer inception_5b/3x3
I0906 13:11:18.027499 13919 net.cpp:69] Creating Layer inception_5b/3x3
I0906 13:11:18.027509 13919 net.cpp:396] inception_5b/3x3 <- inception_5b/3x3_reduce
I0906 13:11:18.027519 13919 net.cpp:358] inception_5b/3x3 -> inception_5b/3x3
I0906 13:11:18.027546 13919 net.cpp:98] Setting up inception_5b/3x3
I0906 13:11:18.032755 13919 net.cpp:105] Top shape: 32 384 7 7 (602112)
I0906 13:11:18.032778 13919 layer_factory.hpp:78] Creating layer inception_5b/relu_3x3
I0906 13:11:18.032790 13919 net.cpp:69] Creating Layer inception_5b/relu_3x3
I0906 13:11:18.032799 13919 net.cpp:396] inception_5b/relu_3x3 <- inception_5b/3x3
I0906 13:11:18.032809 13919 net.cpp:347] inception_5b/relu_3x3 -> inception_5b/3x3 (in-place)
I0906 13:11:18.032820 13919 net.cpp:98] Setting up inception_5b/relu_3x3
I0906 13:11:18.032829 13919 net.cpp:105] Top shape: 32 384 7 7 (602112)
I0906 13:11:18.032840 13919 layer_factory.hpp:78] Creating layer inception_5b/5x5_reduce
I0906 13:11:18.032857 13919 net.cpp:69] Creating Layer inception_5b/5x5_reduce
I0906 13:11:18.032868 13919 net.cpp:396] inception_5b/5x5_reduce <- inception_5a/output_inception_5a/output_0_split_2
I0906 13:11:18.032881 13919 net.cpp:358] inception_5b/5x5_reduce -> inception_5b/5x5_reduce
I0906 13:11:18.032892 13919 net.cpp:98] Setting up inception_5b/5x5_reduce
I0906 13:11:18.033215 13919 net.cpp:105] Top shape: 32 48 7 7 (75264)
I0906 13:11:18.033229 13919 layer_factory.hpp:78] Creating layer inception_5b/relu_5x5_reduce
I0906 13:11:18.033241 13919 net.cpp:69] Creating Layer inception_5b/relu_5x5_reduce
I0906 13:11:18.033251 13919 net.cpp:396] inception_5b/relu_5x5_reduce <- inception_5b/5x5_reduce
I0906 13:11:18.033260 13919 net.cpp:347] inception_5b/relu_5x5_reduce -> inception_5b/5x5_reduce (in-place)
I0906 13:11:18.033270 13919 net.cpp:98] Setting up inception_5b/relu_5x5_reduce
I0906 13:11:18.033280 13919 net.cpp:105] Top shape: 32 48 7 7 (75264)
I0906 13:11:18.033289 13919 layer_factory.hpp:78] Creating layer inception_5b/5x5
I0906 13:11:18.033299 13919 net.cpp:69] Creating Layer inception_5b/5x5
I0906 13:11:18.033308 13919 net.cpp:396] inception_5b/5x5 <- inception_5b/5x5_reduce
I0906 13:11:18.033320 13919 net.cpp:358] inception_5b/5x5 -> inception_5b/5x5
I0906 13:11:18.033331 13919 net.cpp:98] Setting up inception_5b/5x5
I0906 13:11:18.034567 13919 net.cpp:105] Top shape: 32 128 7 7 (200704)
I0906 13:11:18.034596 13919 layer_factory.hpp:78] Creating layer inception_5b/relu_5x5
I0906 13:11:18.034607 13919 net.cpp:69] Creating Layer inception_5b/relu_5x5
I0906 13:11:18.034616 13919 net.cpp:396] inception_5b/relu_5x5 <- inception_5b/5x5
I0906 13:11:18.034626 13919 net.cpp:347] inception_5b/relu_5x5 -> inception_5b/5x5 (in-place)
I0906 13:11:18.034636 13919 net.cpp:98] Setting up inception_5b/relu_5x5
I0906 13:11:18.034646 13919 net.cpp:105] Top shape: 32 128 7 7 (200704)
I0906 13:11:18.034654 13919 layer_factory.hpp:78] Creating layer inception_5b/pool
I0906 13:11:18.034673 13919 net.cpp:69] Creating Layer inception_5b/pool
I0906 13:11:18.034684 13919 net.cpp:396] inception_5b/pool <- inception_5a/output_inception_5a/output_0_split_3
I0906 13:11:18.034698 13919 net.cpp:358] inception_5b/pool -> inception_5b/pool
I0906 13:11:18.034709 13919 net.cpp:98] Setting up inception_5b/pool
I0906 13:11:18.034719 13919 net.cpp:105] Top shape: 32 832 7 7 (1304576)
I0906 13:11:18.034728 13919 layer_factory.hpp:78] Creating layer inception_5b/pool_proj
I0906 13:11:18.034737 13919 net.cpp:69] Creating Layer inception_5b/pool_proj
I0906 13:11:18.034746 13919 net.cpp:396] inception_5b/pool_proj <- inception_5b/pool
I0906 13:11:18.034759 13919 net.cpp:358] inception_5b/pool_proj -> inception_5b/pool_proj
I0906 13:11:18.034770 13919 net.cpp:98] Setting up inception_5b/pool_proj
I0906 13:11:18.035614 13919 net.cpp:105] Top shape: 32 128 7 7 (200704)
I0906 13:11:18.035631 13919 layer_factory.hpp:78] Creating layer inception_5b/relu_pool_proj
I0906 13:11:18.035645 13919 net.cpp:69] Creating Layer inception_5b/relu_pool_proj
I0906 13:11:18.035653 13919 net.cpp:396] inception_5b/relu_pool_proj <- inception_5b/pool_proj
I0906 13:11:18.035665 13919 net.cpp:347] inception_5b/relu_pool_proj -> inception_5b/pool_proj (in-place)
I0906 13:11:18.035676 13919 net.cpp:98] Setting up inception_5b/relu_pool_proj
I0906 13:11:18.035683 13919 net.cpp:105] Top shape: 32 128 7 7 (200704)
I0906 13:11:18.035691 13919 layer_factory.hpp:78] Creating layer inception_5b/output
I0906 13:11:18.035703 13919 net.cpp:69] Creating Layer inception_5b/output
I0906 13:11:18.035712 13919 net.cpp:396] inception_5b/output <- inception_5b/1x1
I0906 13:11:18.035722 13919 net.cpp:396] inception_5b/output <- inception_5b/3x3
I0906 13:11:18.035730 13919 net.cpp:396] inception_5b/output <- inception_5b/5x5
I0906 13:11:18.035740 13919 net.cpp:396] inception_5b/output <- inception_5b/pool_proj
I0906 13:11:18.035749 13919 net.cpp:358] inception_5b/output -> inception_5b/output
I0906 13:11:18.035760 13919 net.cpp:98] Setting up inception_5b/output
I0906 13:11:18.035769 13919 net.cpp:105] Top shape: 32 1024 7 7 (1605632)
I0906 13:11:18.035778 13919 layer_factory.hpp:78] Creating layer pool5/7x7_s1
I0906 13:11:18.035787 13919 net.cpp:69] Creating Layer pool5/7x7_s1
I0906 13:11:18.035795 13919 net.cpp:396] pool5/7x7_s1 <- inception_5b/output
I0906 13:11:18.035807 13919 net.cpp:358] pool5/7x7_s1 -> pool5/7x7_s1
I0906 13:11:18.035819 13919 net.cpp:98] Setting up pool5/7x7_s1
I0906 13:11:18.035827 13919 net.cpp:105] Top shape: 32 1024 1 1 (32768)
I0906 13:11:18.035835 13919 layer_factory.hpp:78] Creating layer pool5/drop_7x7_s1
I0906 13:11:18.035847 13919 net.cpp:69] Creating Layer pool5/drop_7x7_s1
I0906 13:11:18.035856 13919 net.cpp:396] pool5/drop_7x7_s1 <- pool5/7x7_s1
I0906 13:11:18.035866 13919 net.cpp:347] pool5/drop_7x7_s1 -> pool5/7x7_s1 (in-place)
I0906 13:11:18.035878 13919 net.cpp:98] Setting up pool5/drop_7x7_s1
I0906 13:11:18.035887 13919 net.cpp:105] Top shape: 32 1024 1 1 (32768)
I0906 13:11:18.035899 13919 layer_factory.hpp:78] Creating layer loss3/classifier_cub
I0906 13:11:18.035910 13919 net.cpp:69] Creating Layer loss3/classifier_cub
I0906 13:11:18.035919 13919 net.cpp:396] loss3/classifier_cub <- pool5/7x7_s1
I0906 13:11:18.035929 13919 net.cpp:358] loss3/classifier_cub -> loss3/classifier
I0906 13:11:18.035940 13919 net.cpp:98] Setting up loss3/classifier_cub
I0906 13:11:18.042484 13919 net.cpp:105] Top shape: 32 200 1 1 (6400)
I0906 13:11:18.042515 13919 layer_factory.hpp:78] Creating layer loss3/loss3
I0906 13:11:18.042529 13919 net.cpp:69] Creating Layer loss3/loss3
I0906 13:11:18.042539 13919 net.cpp:396] loss3/loss3 <- loss3/classifier
I0906 13:11:18.042548 13919 net.cpp:396] loss3/loss3 <- label_data_1_split_2
I0906 13:11:18.042559 13919 net.cpp:358] loss3/loss3 -> loss3/loss3
I0906 13:11:18.042570 13919 net.cpp:98] Setting up loss3/loss3
I0906 13:11:18.042601 13919 net.cpp:105] Top shape: 1 1 1 1 (1)
I0906 13:11:18.042611 13919 net.cpp:111]     with loss weight 1
I0906 13:11:18.042624 13919 net.cpp:172] loss3/loss3 needs backward computation.
I0906 13:11:18.042634 13919 net.cpp:172] loss3/classifier_cub needs backward computation.
I0906 13:11:18.042641 13919 net.cpp:172] pool5/drop_7x7_s1 needs backward computation.
I0906 13:11:18.042649 13919 net.cpp:172] pool5/7x7_s1 needs backward computation.
…
I0906 13:11:18.047313 13919 solver.cpp:153] Creating test net (#0) specified by net file: models/googlenet_cub/train_val.prototxt
I0906 13:11:18.047463 13919 net.cpp:277] The NetState phase (1) differed from the phase (0) specified by a rule in layer data
I0906 13:11:18.048842 13919 net.cpp:39] Initializing net from parameters: 
name: "CUBNet"
layers {
  top: "data"
  top: "label"
  name: "data"
  type: DATA
  data_param {
    source: "/tmp/cub_nocrop_test"
    batch_size: 64
    backend: LMDB
  }
  include {
    phase: TEST
  }
  transform_param {
    mirror: false
    crop_size: 224
    mean_value: 104
    mean_value: 117
    mean_value: 123
  }
}
layers {
  bottom: "data"
  top: "conv1/7x7_s2"
  name: "conv1/7x7_s2"
  type: CONVOLUTION
  blobs_lr: 1
  blobs_lr: 2
  weight_decay: 1
  weight_decay: 0
  convolution_param {
    num_output: 64
    pad: 3
    kernel_size: 7
    stride: 2
    weight_filler {
      type: "xavier"
      std: 0.1
    }
    bias_filler {
      type: "constant"
      value: 0.2
    }
  }
}
layers {
  bottom: "conv1/7x7_s2"
  top: "conv1/7x7_s2"
  name: "conv1/relu_7x7"
  type: RELU
}
layers {
  bottom: "conv1/7x7_s2"
  top: "pool1/3x3_s2"
  name: "pool1/3x3_s2"
  type: POOLING
  pooling_param {
    pool: MAX
    kernel_size: 3
    stride: 2
  }
}
layers {
  bottom: "pool1/3x3_s2"
  top: "pool1/norm1"
  name: "pool1/norm1"
  type: LRN
  lrn_param {
    local_size: 5
    alpha: 0.0001
    beta: 0.75
  }
}
layers {
  bottom: "pool1/norm1"
  top: "conv2/3x3_reduce"
  name: "conv2/3x3_reduce"
  type: CONVOLUTION
  blobs_lr: 1
  blobs_lr: 2
  weight_decay: 1
  weight_decay: 0
  convolution_param {
    num_output: 64
    kernel_size: 1
    weight_filler {
      type: "xavier"
      std: 0.1
    }
    bias_filler {
      type: "constant"
      value: 0.2
    }
  }
}
layers {
  bottom: "conv2/3x3_reduce"
  top: "conv2/3x3_reduce"
  name: "conv2/relu_3x3_reduce"
  type: RELU
}
layers {
  bottom: "conv2/3x3_reduce"
  top: "conv2/3x3"
  name: "conv2/3x3"
  type: CONVOLUTION
  blobs_lr: 1
  blobs_lr: 2
  weight_decay: 1
  weight_decay: 0
  convolution_param {
    num_output: 192
    pad: 1
    kernel_size: 3
    weight_filler {
      type: "xavier"
      std: 0.03
    }
    bias_filler {
      type: "constant"
      value: 0.2
    }
  }
}
layers {
  bottom: "conv2/3x3"
  top: "conv2/3x3"
  name: "conv2/relu_3x3"
  type: RELU
}
layers {
  bottom: "conv2/3x3"
  top: "conv2/norm2"
  name: "conv2/norm2"
  type: LRN
  lrn_param {
    local_size: 5
    alpha: 0.0001
    beta: 0.75
  }
}
layers {
  bottom: "conv2/norm2"
  top: "pool2/3x3_s2"
  name: "pool2/3x3_s2"
  type: POOLING
  pooling_param {
    pool: MAX
    kernel_size: 3
    stride: 2
  }
}
layers {
  bottom: "pool2/3x3_s2"
  top: "inception_3a/1x1"
  name: "inception_3a/1x1"
  type: CONVOLUTION
  blobs_lr: 1
  blobs_lr: 2
  weight_decay: 1
  weight_decay: 0
  convolution_param {
    num_output: 64
    kernel_size: 1
    weight_filler {
      type: "xavier"
      std: 0.03
    }
    bias_filler {
      type: "constant"
      value: 0.2
    }
  }
}
layers {
  bottom: "inception_3a/1x1"
  top: "inception_3a/1x1"
  name: "inception_3a/relu_1x1"
  type: RELU
}
layers {
  bottom: "pool2/3x3_s2"
  top: "inception_3a/3x3_reduce"
  name: "inception_3a/3x3_reduce"
  type: CONVOLUTION
  blobs_lr: 1
  blobs_lr: 2
  weight_decay: 1
  weight_decay: 0
  convolution_param {
    num_output: 96
    kernel_size: 1
    weight_filler {
      type: "xavier"
      std: 0.09
    }
    bias_filler {
      type: "constant"
      value: 0.2
    }
  }
}
layers {
  bottom: "inception_3a/3x3_reduce"
  top: "inception_3a/3x3_reduce"
  name: "inception_3a/relu_3x3_reduce"
  type: RELU
}
layers {
  bottom: "inception_3a/3x3_reduce"
  top: "inception_3a/3x3"
  name: "inception_3a/3x3"
  type: CONVOLUTION
  blobs_lr: 1
  blobs_lr: 2
  weight_decay: 1
  weight_decay: 0
  convolution_param {
    num_output: 128
    pad: 1
    kernel_size: 3
    weight_filler {
      type: "xavier"
      std: 0.03
    }
    bias_filler {
      type: "constant"
      value: 0.2
    }
  }
}
layers {
  bottom: "inception_3a/3x3"
  top: "inception_3a/3x3"
  name: "inception_3a/relu_3x3"
  type: RELU
}
layers {
  bottom: "pool2/3x3_s2"
  top: "inception_3a/5x5_reduce"
  name: "inception_3a/5x5_reduce"
  type: CONVOLUTION
  blobs_lr: 1
  blobs_lr: 2
  weight_decay: 1
  weight_decay: 0
  convolution_param {
    num_output: 16
    kernel_size: 1
    weight_filler {
      type: "xavier"
      std: 0.2
    }
    bias_filler {
      type: "constant"
      value: 0.2
    }
  }
}
layers {
  bottom: "inception_3a/5x5_reduce"
  top: "inception_3a/5x5_reduce"
  name: "inception_3a/relu_5x5_reduce"
  type: RELU
}
layers {
  bottom: "inception_3a/5x5_reduce"
  top: "inception_3a/5x5"
  name: "inception_3a/5x5"
  type: CONVOLUTION
  blobs_lr: 1
  blobs_lr: 2
  weight_decay: 1
  weight_decay: 0
  convolution_param {
    num_output: 32
    pad: 2
    kernel_size: 5
    weight_filler {
      type: "xavier"
      std: 0.03
    }
    bias_filler {
      type: "constant"
      value: 0.2
    }
  }
}
layers {
  bottom: "inception_3a/5x5"
  top: "inception_3a/5x5"
  name: "inception_3a/relu_5x5"
  type: RELU
}
layers {
  bottom: "pool2/3x3_s2"
  top: "inception_3a/pool"
  name: "inception_3a/pool"
  type: POOLING
  pooling_param {
    pool: MAX
    kernel_size: 3
    stride: 1
    pad: 1
  }
}
layers {
  bottom: "inception_3a/pool"
  top: "inception_3a/pool_proj"
  name: "inception_3a/pool_proj"
  type: CONVOLUTION
  blobs_lr: 1
  blobs_lr: 2
  weight_decay: 1
  weight_decay: 0
  convolution_param {
    num_output: 32
    kernel_size: 1
    weight_filler {
      type: "xavier"
      std: 0.1
    }
    bias_filler {
      type: "constant"
      value: 0.2
    }
  }
}
layers {
  bottom: "inception_3a/pool_proj"
  top: "inception_3a/pool_proj"
  name: "inception_3a/relu_pool_proj"
  type: RELU
}
layers {
  bottom: "inception_3a/1x1"
  bottom: "inception_3a/3x3"
  bottom: "inception_3a/5x5"
  bottom: "inception_3a/pool_proj"
  top: "inception_3a/output"
  name: "inception_3a/output"
  type: CONCAT
}
layers {
  bottom: "inception_3a/output"
  top: "inception_3b/1x1"
  name: "inception_3b/1x1"
  type: CONVOLUTION
  blobs_lr: 1
  blobs_lr: 2
  weight_decay: 1
  weight_decay: 0
  convolution_param {
    num_output: 128
    kernel_size: 1
    weight_filler {
      type: "xavier"
      std: 0.03
    }
    bias_filler {
      type: "constant"
      value: 0.2
    }
  }
}
layers {
  bottom: "inception_3b/1x1"
  top: "inception_3b/1x1"
  name: "inception_3b/relu_1x1"
  type: RELU
}
layers {
  bottom: "inception_3a/output"
  top: "inception_3b/3x3_reduce"
  name: "inception_3b/3x3_reduce"
  type: CONVOLUTION
  blobs_lr: 1
  blobs_lr: 2
  weight_decay: 1
  weight_decay: 0
  convolution_param {
    num_output: 128
    kernel_size: 1
    weight_filler {
      type: "xavier"
      std: 0.09
    }
    bias_filler {
      type: "constant"
      value: 0.2
    }
  }
}
layers {
  bottom: "inception_3b/3x3_reduce"
  top: "inception_3b/3x3_reduce"
  name: "inception_3b/relu_3x3_reduce"
  type: RELU
}
layers {
  bottom: "inception_3b/3x3_reduce"
  top: "inception_3b/3x3"
  name: "inception_3b/3x3"
  type: CONVOLUTION
  blobs_lr: 1
  blobs_lr: 2
  weight_decay: 1
  weight_decay: 0
  convolution_param {
    num_output: 192
    pad: 1
    kernel_size: 3
    weight_filler {
      type: "xavier"
      std: 0.03
    }
    bias_filler {
      type: "constant"
      value: 0.2
    }
  }
}
layers {
  bottom: "inception_3b/3x3"
  top: "inception_3b/3x3"
  name: "inception_3b/relu_3x3"
  type: RELU
}
layers {
  bottom: "inception_3a/output"
  top: "inception_3b/5x5_reduce"
  name: "inception_3b/5x5_reduce"
  type: CONVOLUTION
  blobs_lr: 1
  blobs_lr: 2
  weight_decay: 1
  weight_decay: 0
  convolution_param {
    num_output: 32
    kernel_size: 1
    weight_filler {
      type: "xavier"
      std: 0.2
    }
    bias_filler {
      type: "constant"
      value: 0.2
    }
  }
}
layers {
  bottom: "inception_3b/5x5_reduce"
  top: "inception_3b/5x5_reduce"
  name: "inception_3b/relu_5x5_reduce"
  type: RELU
}
layers {
  bottom: "inception_3b/5x5_reduce"
  top: "inception_3b/5x5"
  name: "inception_3b/5x5"
  type: CONVOLUTION
  blobs_lr: 1
  blobs_lr: 2
  weight_decay: 1
  weight_decay: 0
  convolution_param {
    num_output: 96
    pad: 2
    kernel_size: 5
    weight_filler {
      type: "xavier"
      std: 0.03
    }
    bias_filler {
      type: "constant"
      value: 0.2
    }
  }
}
layers {
  bottom: "inception_3b/5x5"
  top: "inception_3b/5x5"
  name: "inception_3b/relu_5x5"
  type: RELU
}
layers {
  bottom: "inception_3a/output"
  top: "inception_3b/pool"
  name: "inception_3b/pool"
  type: POOLING
  pooling_param {
    pool: MAX
    kernel_size: 3
    stride: 1
    pad: 1
  }
}
layers {
  bottom: "inception_3b/pool"
  top: "inception_3b/pool_proj"
  name: "inception_3b/pool_proj"
  type: CONVOLUTION
  blobs_lr: 1
  blobs_lr: 2
  weight_decay: 1
  weight_decay: 0
  convolution_param {
    num_output: 64
    kernel_size: 1
    weight_filler {
      type: "xavier"
      std: 0.1
    }
    bias_filler {
      type: "constant"
      value: 0.2
    }
  }
}
layers {
  bottom: "inception_3b/pool_proj"
  top: "inception_3b/pool_proj"
  name: "inception_3b/relu_pool_proj"
  type: RELU
}
layers {
  bottom: "inception_3b/1x1"
  bottom: "inception_3b/3x3"
  bottom: "inception_3b/5x5"
  bottom: "inception_3b/pool_proj"
  top: "inception_3b/output"
  name: "inception_3b/output"
  type: CONCAT
}
layers {
  bottom: "inception_3b/output"
  top: "pool3/3x3_s2"
  name: "pool3/3x3_s2"
  type: POOLING
  pooling_param {
    pool: MAX
    kernel_size: 3
    stride: 2
  }
}
layers {
  bottom: "pool3/3x3_s2"
  top: "inception_4a/1x1"
  name: "inception_4a/1x1"
  type: CONVOLUTION
  blobs_lr: 1
  blobs_lr: 2
  weight_decay: 1
  weight_decay: 0
  convolution_param {
    num_output: 192
    kernel_size: 1
    weight_filler {
      type: "xavier"
      std: 0.03
    }
    bias_filler {
      type: "constant"
      value: 0.2
    }
  }
}
layers {
  bottom: "inception_4a/1x1"
  top: "inception_4a/1x1"
  name: "inception_4a/relu_1x1"
  type: RELU
}
layers {
  bottom: "pool3/3x3_s2"
  top: "inception_4a/3x3_reduce"
  name: "inception_4a/3x3_reduce"
  type: CONVOLUTION
  blobs_lr: 1
  blobs_lr: 2
  weight_decay: 1
  weight_decay: 0
  convolution_param {
    num_output: 96
    kernel_size: 1
    weight_filler {
      type: "xavier"
      std: 0.09
    }
    bias_filler {
      type: "constant"
      value: 0.2
    }
  }
}
layers {
  bottom: "inception_4a/3x3_reduce"
  top: "inception_4a/3x3_reduce"
  name: "inception_4a/relu_3x3_reduce"
  type: RELU
}
layers {
  bottom: "inception_4a/3x3_reduce"
  top: "inception_4a/3x3"
  name: "inception_4a/3x3"
  type: CONVOLUTION
  blobs_lr: 1
  blobs_lr: 2
  weight_decay: 1
  weight_decay: 0
  convolution_param {
    num_output: 208
    pad: 1
    kernel_size: 3
    weight_filler {
      type: "xavier"
      std: 0.03
    }
    bias_filler {
      type: "constant"
      value: 0.2
    }
  }
}
layers {
  bottom: "inception_4a/3x3"
  top: "inception_4a/3x3"
  name: "inception_4a/relu_3x3"
  type: RELU
}
layers {
  bottom: "pool3/3x3_s2"
  top: "inception_4a/5x5_reduce"
  name: "inception_4a/5x5_reduce"
  type: CONVOLUTION
  blobs_lr: 1
  blobs_lr: 2
  weight_decay: 1
  weight_decay: 0
  convolution_param {
    num_output: 16
    kernel_size: 1
    weight_filler {
      type: "xavier"
      std: 0.2
    }
    bias_filler {
      type: "constant"
      value: 0.2
    }
  }
}
layers {
  bottom: "inception_4a/5x5_reduce"
  top: "inception_4a/5x5_reduce"
  name: "inception_4a/relu_5x5_reduce"
  type: RELU
}
layers {
  bottom: "inception_4a/5x5_reduce"
  top: "inception_4a/5x5"
  name: "inception_4a/5x5"
  type: CONVOLUTION
  blobs_lr: 1
  blobs_lr: 2
  weight_decay: 1
  weight_decay: 0
  convolution_param {
    num_output: 48
    pad: 2
    kernel_size: 5
    weight_filler {
      type: "xavier"
      std: 0.03
    }
    bias_filler {
      type: "constant"
      value: 0.2
    }
  }
}
layers {
  bottom: "inception_4a/5x5"
  top: "inception_4a/5x5"
  name: "inception_4a/relu_5x5"
  type: RELU
}
layers {
  bottom: "pool3/3x3_s2"
  top: "inception_4a/pool"
  name: "inception_4a/pool"
  type: POOLING
  pooling_param {
    pool: MAX
    kernel_size: 3
    stride: 1
    pad: 1
  }
}
layers {
  bottom: "inception_4a/pool"
  top: "inception_4a/pool_proj"
  name: "inception_4a/pool_proj"
  type: CONVOLUTION
  blobs_lr: 1
  blobs_lr: 2
  weight_decay: 1
  weight_decay: 0
  convolution_param {
    num_output: 64
    kernel_size: 1
    weight_filler {
      type: "xavier"
      std: 0.1
    }
    bias_filler {
      type: "constant"
      value: 0.2
    }
  }
}
layers {
  bottom: "inception_4a/pool_proj"
  top: "inception_4a/pool_proj"
  name: "inception_4a/relu_pool_proj"
  type: RELU
}
layers {
  bottom: "inception_4a/1x1"
  bottom: "inception_4a/3x3"
  bottom: "inception_4a/5x5"
  bottom: "inception_4a/pool_proj"
  top: "inception_4a/output"
  name: "inception_4a/output"
  type: CONCAT
}
layers {
  bottom: "inception_4a/output"
  top: "loss1/ave_pool"
  name: "loss1/ave_pool"
  type: POOLING
  pooling_param {
    pool: AVE
    kernel_size: 5
    stride: 3
  }
}
layers {
  bottom: "loss1/ave_pool"
  top: "loss1/conv"
  name: "loss1/conv"
  type: CONVOLUTION
  blobs_lr: 1
  blobs_lr: 2
  weight_decay: 1
  weight_decay: 0
  convolution_param {
    num_output: 128
    kernel_size: 1
    weight_filler {
      type: "xavier"
      std: 0.08
    }
    bias_filler {
      type: "constant"
      value: 0.2
    }
  }
}
layers {
  bottom: "loss1/conv"
  top: "loss1/conv"
  name: "loss1/relu_conv"
  type: RELU
}
layers {
  bottom: "loss1/conv"
  top: "loss1/fc"
  name: "loss1/fc"
  type: INNER_PRODUCT
  blobs_lr: 1
  blobs_lr: 2
  weight_decay: 1
  weight_decay: 0
  inner_product_param {
    num_output: 1024
    weight_filler {
      type: "xavier"
      std: 0.02
    }
    bias_filler {
      type: "constant"
      value: 0.2
    }
  }
}
layers {
  bottom: "loss1/fc"
  top: "loss1/fc"
  name: "loss1/relu_fc"
  type: RELU
}
layers {
  bottom: "loss1/fc"
  top: "loss1/fc"
  name: "loss1/drop_fc"
  type: DROPOUT
  dropout_param {
    dropout_ratio: 0.7
  }
}
layers {
  bottom: "loss1/fc"
  top: "loss1/classifier"
  name: "loss1/classifier_cub"
  type: INNER_PRODUCT
  blobs_lr: 1
  blobs_lr: 2
  weight_decay: 1
  weight_decay: 0
  inner_product_param {
    num_output: 200
    weight_filler {
      type: "gaussian"
      std: 1e-05
    }
    bias_filler {
      type: "constant"
      value: 0
    }
  }
}
layers {
  bottom: "loss1/classifier"
  bottom: "label"
  top: "loss1/loss1"
  name: "loss1/loss"
  type: SOFTMAX_LOSS
  loss_weight: 0.3
}
layers {
  bottom: "loss1/classifier"
  bottom: "label"
  top: "loss1/top-1"
  name: "loss1/top-1"
  type: ACCURACY
  include {
    phase: TEST
  }
}
layers {
  bottom: "loss1/classifier"
  bottom: "label"
  top: "loss1/top-5"
  name: "loss1/top-5"
  type: ACCURACY
  accuracy_param {
    top_k: 5
  }
  include {
    phase: TEST
  }
}
layers {
  bottom: "inception_4a/output"
  top: "inception_4b/1x1"
  name: "inception_4b/1x1"
  type: CONVOLUTION
  blobs_lr: 1
  blobs_lr: 2
  weight_decay: 1
  weight_decay: 0
  convolution_param {
    num_output: 160
    kernel_size: 1
    weight_filler {
      type: "xavier"
      std: 0.03
    }
    bias_filler {
      type: "constant"
      value: 0.2
    }
  }
}
layers {
  bottom: "inception_4b/1x1"
  top: "inception_4b/1x1"
  name: "inception_4b/relu_1x1"
  type: RELU
}
layers {
  bottom: "inception_4a/output"
  top: "inception_4b/3x3_reduce"
  name: "inception_4b/3x3_reduce"
  type: CONVOLUTION
  blobs_lr: 1
  blobs_lr: 2
  weight_decay: 1
  weight_decay: 0
  convolution_param {
    num_output: 112
    kernel_size: 1
    weight_filler {
      type: "xavier"
      std: 0.09
    }
    bias_filler {
      type: "constant"
      value: 0.2
    }
  }
}
layers {
  bottom: "inception_4b/3x3_reduce"
  top: "inception_4b/3x3_reduce"
  name: "inception_4b/relu_3x3_reduce"
  type: RELU
}
layers {
  bottom: "inception_4b/3x3_reduce"
  top: "inception_4b/3x3"
  name: "inception_4b/3x3"
  type: CONVOLUTION
  blobs_lr: 1
  blobs_lr: 2
  weight_decay: 1
  weight_decay: 0
  convolution_param {
    num_output: 224
    pad: 1
    kernel_size: 3
    weight_filler {
      type: "xavier"
      std: 0.03
    }
    bias_filler {
      type: "constant"
      value: 0.2
    }
  }
}
layers {
  bottom: "inception_4b/3x3"
  top: "inception_4b/3x3"
  name: "inception_4b/relu_3x3"
  type: RELU
}
layers {
  bottom: "inception_4a/output"
  top: "inception_4b/5x5_reduce"
  name: "inception_4b/5x5_reduce"
  type: CONVOLUTION
  blobs_lr: 1
  blobs_lr: 2
  weight_decay: 1
  weight_decay: 0
  convolution_param {
    num_output: 24
    kernel_size: 1
    weight_filler {
      type: "xavier"
      std: 0.2
    }
    bias_filler {
      type: "constant"
      value: 0.2
    }
  }
}
layers {
  bottom: "inception_4b/5x5_reduce"
  top: "inception_4b/5x5_reduce"
  name: "inception_4b/relu_5x5_reduce"
  type: RELU
}
layers {
  bottom: "inception_4b/5x5_reduce"
  top: "inception_4b/5x5"
  name: "inception_4b/5x5"
  type: CONVOLUTION
  blobs_lr: 1
  blobs_lr: 2
  weight_decay: 1
  weight_decay: 0
  convolution_param {
    num_output: 64
    pad: 2
    kernel_size: 5
    weight_filler {
      type: "xavier"
      std: 0.03
    }
    bias_filler {
      type: "constant"
      value: 0.2
    }
  }
}
layers {
  bottom: "inception_4b/5x5"
  top: "inception_4b/5x5"
  name: "inception_4b/relu_5x5"
  type: RELU
}
layers {
  bottom: "inception_4a/output"
  top: "inception_4b/pool"
  name: "inception_4b/pool"
  type: POOLING
  pooling_param {
    pool: MAX
    kernel_size: 3
    stride: 1
    pad: 1
  }
}
layers {
  bottom: "inception_4b/pool"
  top: "inception_4b/pool_proj"
  name: "inception_4b/pool_proj"
  type: CONVOLUTION
  blobs_lr: 1
  blobs_lr: 2
  weight_decay: 1
  weight_decay: 0
  convolution_param {
    num_output: 64
    kernel_size: 1
    weight_filler {
      type: "xavier"
      std: 0.1
    }
    bias_filler {
      type: "constant"
      value: 0.2
    }
  }
}
layers {
  bottom: "inception_4b/pool_proj"
  top: "inception_4b/pool_proj"
  name: "inception_4b/relu_pool_proj"
  type: RELU
}
layers {
  bottom: "inception_4b/1x1"
  bottom: "inception_4b/3x3"
  bottom: "inception_4b/5x5"
  bottom: "inception_4b/pool_proj"
  top: "inception_4b/output"
  name: "inception_4b/output"
  type: CONCAT
}
layers {
  bottom: "inception_4b/output"
  top: "inception_4c/1x1"
  name: "inception_4c/1x1"
  type: CONVOLUTION
  blobs_lr: 1
  blobs_lr: 2
  weight_decay: 1
  weight_decay: 0
  convolution_param {
    num_output: 128
    kernel_size: 1
    weight_filler {
      type: "xavier"
      std: 0.03
    }
    bias_filler {
      type: "constant"
      value: 0.2
    }
  }
}
layers {
  bottom: "inception_4c/1x1"
  top: "inception_4c/1x1"
  name: "inception_4c/relu_1x1"
  type: RELU
}
layers {
  bottom: "inception_4b/output"
  top: "inception_4c/3x3_reduce"
  name: "inception_4c/3x3_reduce"
  type: CONVOLUTION
  blobs_lr: 1
  blobs_lr: 2
  weight_decay: 1
  weight_decay: 0
  convolution_param {
    num_output: 128
    kernel_size: 1
    weight_filler {
      type: "xavier"
      std: 0.09
    }
    bias_filler {
      type: "constant"
      value: 0.2
    }
  }
}
layers {
  bottom: "inception_4c/3x3_reduce"
  top: "inception_4c/3x3_reduce"
  name: "inception_4c/relu_3x3_reduce"
  type: RELU
}
layers {
  bottom: "inception_4c/3x3_reduce"
  top: "inception_4c/3x3"
  name: "inception_4c/3x3"
  type: CONVOLUTION
  blobs_lr: 1
  blobs_lr: 2
  weight_decay: 1
  weight_decay: 0
  convolution_param {
    num_output: 256
    pad: 1
    kernel_size: 3
    weight_filler {
      type: "xavier"
      std: 0.03
    }
    bias_filler {
      type: "constant"
      value: 0.2
    }
  }
}
layers {
  bottom: "inception_4c/3x3"
  top: "inception_4c/3x3"
  name: "inception_4c/relu_3x3"
  type: RELU
}
layers {
  bottom: "inception_4b/output"
  top: "inception_4c/5x5_reduce"
  name: "inception_4c/5x5_reduce"
  type: CONVOLUTION
  blobs_lr: 1
  blobs_lr: 2
  weight_decay: 1
  weight_decay: 0
  convolution_param {
    num_output: 24
    kernel_size: 1
    weight_filler {
      type: "xavier"
      std: 0.2
    }
    bias_filler {
      type: "constant"
      value: 0.2
    }
  }
}
layers {
  bottom: "inception_4c/5x5_reduce"
  top: "inception_4c/5x5_reduce"
  name: "inception_4c/relu_5x5_reduce"
  type: RELU
}
layers {
  bottom: "inception_4c/5x5_reduce"
  top: "inception_4c/5x5"
  name: "inception_4c/5x5"
  type: CONVOLUTION
  blobs_lr: 1
  blobs_lr: 2
  weight_decay: 1
  weight_decay: 0
  convolution_param {
    num_output: 64
    pad: 2
    kernel_size: 5
    weight_filler {
      type: "xavier"
      std: 0.03
    }
    bias_filler {
      type: "constant"
      value: 0.2
    }
  }
}
layers {
  bottom: "inception_4c/5x5"
  top: "inception_4c/5x5"
  name: "inception_4c/relu_5x5"
  type: RELU
}
layers {
  bottom: "inception_4b/output"
  top: "inception_4c/pool"
  name: "inception_4c/pool"
  type: POOLING
  pooling_param {
    pool: MAX
    kernel_size: 3
    stride: 1
    pad: 1
  }
}
layers {
  bottom: "inception_4c/pool"
  top: "inception_4c/pool_proj"
  name: "inception_4c/pool_proj"
  type: CONVOLUTION
  blobs_lr: 1
  blobs_lr: 2
  weight_decay: 1
  weight_decay: 0
  convolution_param {
    num_output: 64
    kernel_size: 1
    weight_filler {
      type: "xavier"
      std: 0.1
    }
    bias_filler {
      type: "constant"
      value: 0.2
    }
  }
}
layers {
  bottom: "inception_4c/pool_proj"
  top: "inception_4c/pool_proj"
  name: "inception_4c/relu_pool_proj"
  type: RELU
}
layers {
  bottom: "inception_4c/1x1"
  bottom: "inception_4c/3x3"
  bottom: "inception_4c/5x5"
  bottom: "inception_4c/pool_proj"
  top: "inception_4c/output"
  name: "inception_4c/output"
  type: CONCAT
}
layers {
  bottom: "inception_4c/output"
  top: "inception_4d/1x1"
  name: "inception_4d/1x1"
  type: CONVOLUTION
  blobs_lr: 1
  blobs_lr: 2
  weight_decay: 1
  weight_decay: 0
  convolution_param {
    num_output: 112
    kernel_size: 1
    weight_filler {
      type: "xavier"
      std: 0.03
    }
    bias_filler {
      type: "constant"
      value: 0.2
    }
  }
}
layers {
  bottom: "inception_4d/1x1"
  top: "inception_4d/1x1"
  name: "inception_4d/relu_1x1"
  type: RELU
}
layers {
  bottom: "inception_4c/output"
  top: "inception_4d/3x3_reduce"
  name: "inception_4d/3x3_reduce"
  type: CONVOLUTION
  blobs_lr: 1
  blobs_lr: 2
  weight_decay: 1
  weight_decay: 0
  convolution_param {
    num_output: 144
    kernel_size: 1
    weight_filler {
      type: "xavier"
      std: 0.09
    }
    bias_filler {
      type: "constant"
      value: 0.2
    }
  }
}
layers {
  bottom: "inception_4d/3x3_reduce"
  top: "inception_4d/3x3_reduce"
  name: "inception_4d/relu_3x3_reduce"
  type: RELU
}
layers {
  bottom: "inception_4d/3x3_reduce"
  top: "inception_4d/3x3"
  name: "inception_4d/3x3"
  type: CONVOLUTION
  blobs_lr: 1
  blobs_lr: 2
  weight_decay: 1
  weight_decay: 0
  convolution_param {
    num_output: 288
    pad: 1
    kernel_size: 3
    weight_filler {
      type: "xavier"
      std: 0.03
    }
    bias_filler {
      type: "constant"
      value: 0.2
    }
  }
}
layers {
  bottom: "inception_4d/3x3"
  top: "inception_4d/3x3"
  name: "inception_4d/relu_3x3"
  type: RELU
}
layers {
  bottom: "inception_4c/output"
  top: "inception_4d/5x5_reduce"
  name: "inception_4d/5x5_reduce"
  type: CONVOLUTION
  blobs_lr: 1
  blobs_lr: 2
  weight_decay: 1
  weight_decay: 0
  convolution_param {
    num_output: 32
    kernel_size: 1
    weight_filler {
      type: "xavier"
      std: 0.2
    }
    bias_filler {
      type: "constant"
      value: 0.2
    }
  }
}
layers {
  bottom: "inception_4d/5x5_reduce"
  top: "inception_4d/5x5_reduce"
  name: "inception_4d/relu_5x5_reduce"
  type: RELU
}
layers {
  bottom: "inception_4d/5x5_reduce"
  top: "inception_4d/5x5"
  name: "inception_4d/5x5"
  type: CONVOLUTION
  blobs_lr: 1
  blobs_lr: 2
  weight_decay: 1
  weight_decay: 0
  convolution_param {
    num_output: 64
    pad: 2
    kernel_size: 5
    weight_filler {
      type: "xavier"
      std: 0.03
    }
    bias_filler {
      type: "constant"
      value: 0.2
    }
  }
}
layers {
  bottom: "inception_4d/5x5"
  top: "inception_4d/5x5"
  name: "inception_4d/relu_5x5"
  type: RELU
}
layers {
  bottom: "inception_4c/output"
  top: "inception_4d/pool"
  name: "inception_4d/pool"
  type: POOLING
  pooling_param {
    pool: MAX
    kernel_size: 3
    stride: 1
    pad: 1
  }
}
layers {
  bottom: "inception_4d/pool"
  top: "inception_4d/pool_proj"
  name: "inception_4d/pool_proj"
  type: CONVOLUTION
  blobs_lr: 1
  blobs_lr: 2
  weight_decay: 1
  weight_decay: 0
  convolution_param {
    num_output: 64
    kernel_size: 1
    weight_filler {
      type: "xavier"
      std: 0.1
    }
    bias_filler {
      type: "constant"
      value: 0.2
    }
  }
}
layers {
  bottom: "inception_4d/pool_proj"
  top: "inception_4d/pool_proj"
  name: "inception_4d/relu_pool_proj"
  type: RELU
}
layers {
  bottom: "inception_4d/1x1"
  bottom: "inception_4d/3x3"
  bottom: "inception_4d/5x5"
  bottom: "inception_4d/pool_proj"
  top: "inception_4d/output"
  name: "inception_4d/output"
  type: CONCAT
}
layers {
  bottom: "inception_4d/output"
  top: "loss2/ave_pool"
  name: "loss2/ave_pool"
  type: POOLING
  pooling_param {
    pool: AVE
    kernel_size: 5
    stride: 3
  }
}
layers {
  bottom: "loss2/ave_pool"
  top: "loss2/conv"
  name: "loss2/conv"
  type: CONVOLUTION
  blobs_lr: 1
  blobs_lr: 2
  weight_decay: 1
  weight_decay: 0
  convolution_param {
    num_output: 128
    kernel_size: 1
    weight_filler {
      type: "xavier"
      std: 0.08
    }
    bias_filler {
      type: "constant"
      value: 0.2
    }
  }
}
layers {
  bottom: "loss2/conv"
  top: "loss2/conv"
  name: "loss2/relu_conv"
  type: RELU
}
layers {
  bottom: "loss2/conv"
  top: "loss2/fc"
  name: "loss2/fc"
  type: INNER_PRODUCT
  blobs_lr: 1
  blobs_lr: 2
  weight_decay: 1
  weight_decay: 0
  inner_product_param {
    num_output: 1024
    weight_filler {
      type: "xavier"
      std: 0.02
    }
    bias_filler {
      type: "constant"
      value: 0.2
    }
  }
}
layers {
  bottom: "loss2/fc"
  top: "loss2/fc"
  name: "loss2/relu_fc"
  type: RELU
}
layers {
  bottom: "loss2/fc"
  top: "loss2/fc"
  name: "loss2/drop_fc"
  type: DROPOUT
  dropout_param {
    dropout_ratio: 0.7
  }
}
layers {
  bottom: "loss2/fc"
  top: "loss2/classifier"
  name: "loss2/classifier_cub"
  type: INNER_PRODUCT
  blobs_lr: 1
  blobs_lr: 2
  weight_decay: 1
  weight_decay: 0
  inner_product_param {
    num_output: 200
    weight_filler {
      type: "gaussian"
      std: 1e-05
    }
    bias_filler {
      type: "constant"
      value: 0
    }
  }
}
layers {
  bottom: "loss2/classifier"
  bottom: "label"
  top: "loss2/loss1"
  name: "loss2/loss"
  type: SOFTMAX_LOSS
  loss_weight: 0.3
}
layers {
  bottom: "loss2/classifier"
  bottom: "label"
  top: "loss2/top-1"
  name: "loss2/top-1"
  type: ACCURACY
  include {
    phase: TEST
  }
}
layers {
  bottom: "loss2/classifier"
  bottom: "label"
  top: "loss2/top-5"
  name: "loss2/top-5"
  type: ACCURACY
  accuracy_param {
    top_k: 5
  }
  include {
    phase: TEST
  }
}
layers {
  bottom: "inception_4d/output"
…
I0906 13:11:18.104717 13919 net.cpp:347] inception_4c/relu_3x3_reduce -> inception_4c/3x3_reduce (in-place)
I0906 13:11:18.104727 13919 net.cpp:98] Setting up inception_4c/relu_3x3_reduce
I0906 13:11:18.104735 13919 net.cpp:105] Top shape: 64 128 14 14 (1605632)
I0906 13:11:18.104743 13919 layer_factory.hpp:78] Creating layer inception_4c/3x3
I0906 13:11:18.104755 13919 net.cpp:69] Creating Layer inception_4c/3x3
I0906 13:11:18.104763 13919 net.cpp:396] inception_4c/3x3 <- inception_4c/3x3_reduce
I0906 13:11:18.104773 13919 net.cpp:358] inception_4c/3x3 -> inception_4c/3x3
I0906 13:11:18.104784 13919 net.cpp:98] Setting up inception_4c/3x3
I0906 13:11:18.107090 13919 net.cpp:105] Top shape: 64 256 14 14 (3211264)
I0906 13:11:18.107118 13919 layer_factory.hpp:78] Creating layer inception_4c/relu_3x3
I0906 13:11:18.107130 13919 net.cpp:69] Creating Layer inception_4c/relu_3x3
I0906 13:11:18.107139 13919 net.cpp:396] inception_4c/relu_3x3 <- inception_4c/3x3
I0906 13:11:18.107149 13919 net.cpp:347] inception_4c/relu_3x3 -> inception_4c/3x3 (in-place)
I0906 13:11:18.107161 13919 net.cpp:98] Setting up inception_4c/relu_3x3
I0906 13:11:18.107168 13919 net.cpp:105] Top shape: 64 256 14 14 (3211264)
I0906 13:11:18.107177 13919 layer_factory.hpp:78] Creating layer inception_4c/5x5_reduce
I0906 13:11:18.107189 13919 net.cpp:69] Creating Layer inception_4c/5x5_reduce
I0906 13:11:18.107198 13919 net.cpp:396] inception_4c/5x5_reduce <- inception_4b/output_inception_4b/output_0_split_2
I0906 13:11:18.107208 13919 net.cpp:358] inception_4c/5x5_reduce -> inception_4c/5x5_reduce
I0906 13:11:18.107219 13919 net.cpp:98] Setting up inception_4c/5x5_reduce
I0906 13:11:18.107326 13919 net.cpp:105] Top shape: 64 24 14 14 (301056)
I0906 13:11:18.107338 13919 layer_factory.hpp:78] Creating layer inception_4c/relu_5x5_reduce
I0906 13:11:18.107348 13919 net.cpp:69] Creating Layer inception_4c/relu_5x5_reduce
I0906 13:11:18.107357 13919 net.cpp:396] inception_4c/relu_5x5_reduce <- inception_4c/5x5_reduce
I0906 13:11:18.107380 13919 net.cpp:347] inception_4c/relu_5x5_reduce -> inception_4c/5x5_reduce (in-place)
I0906 13:11:18.107391 13919 net.cpp:98] Setting up inception_4c/relu_5x5_reduce
I0906 13:11:18.107399 13919 net.cpp:105] Top shape: 64 24 14 14 (301056)
I0906 13:11:18.107408 13919 layer_factory.hpp:78] Creating layer inception_4c/5x5
I0906 13:11:18.107417 13919 net.cpp:69] Creating Layer inception_4c/5x5
I0906 13:11:18.107425 13919 net.cpp:396] inception_4c/5x5 <- inception_4c/5x5_reduce
I0906 13:11:18.107435 13919 net.cpp:358] inception_4c/5x5 -> inception_4c/5x5
I0906 13:11:18.107446 13919 net.cpp:98] Setting up inception_4c/5x5
I0906 13:11:18.107763 13919 net.cpp:105] Top shape: 64 64 14 14 (802816)
I0906 13:11:18.107777 13919 layer_factory.hpp:78] Creating layer inception_4c/relu_5x5
I0906 13:11:18.107787 13919 net.cpp:69] Creating Layer inception_4c/relu_5x5
I0906 13:11:18.107796 13919 net.cpp:396] inception_4c/relu_5x5 <- inception_4c/5x5
I0906 13:11:18.107808 13919 net.cpp:347] inception_4c/relu_5x5 -> inception_4c/5x5 (in-place)
I0906 13:11:18.107820 13919 net.cpp:98] Setting up inception_4c/relu_5x5
I0906 13:11:18.107827 13919 net.cpp:105] Top shape: 64 64 14 14 (802816)
I0906 13:11:18.107836 13919 layer_factory.hpp:78] Creating layer inception_4c/pool
I0906 13:11:18.107844 13919 net.cpp:69] Creating Layer inception_4c/pool
I0906 13:11:18.107853 13919 net.cpp:396] inception_4c/pool <- inception_4b/output_inception_4b/output_0_split_3
I0906 13:11:18.107866 13919 net.cpp:358] inception_4c/pool -> inception_4c/pool
I0906 13:11:18.107877 13919 net.cpp:98] Setting up inception_4c/pool
I0906 13:11:18.107887 13919 net.cpp:105] Top shape: 64 512 14 14 (6422528)
I0906 13:11:18.107894 13919 layer_factory.hpp:78] Creating layer inception_4c/pool_proj
I0906 13:11:18.107904 13919 net.cpp:69] Creating Layer inception_4c/pool_proj
I0906 13:11:18.107913 13919 net.cpp:396] inception_4c/pool_proj <- inception_4c/pool
I0906 13:11:18.107925 13919 net.cpp:358] inception_4c/pool_proj -> inception_4c/pool_proj
I0906 13:11:18.107936 13919 net.cpp:98] Setting up inception_4c/pool_proj
I0906 13:11:18.108203 13919 net.cpp:105] Top shape: 64 64 14 14 (802816)
I0906 13:11:18.108219 13919 layer_factory.hpp:78] Creating layer inception_4c/relu_pool_proj
I0906 13:11:18.108229 13919 net.cpp:69] Creating Layer inception_4c/relu_pool_proj
I0906 13:11:18.108238 13919 net.cpp:396] inception_4c/relu_pool_proj <- inception_4c/pool_proj
I0906 13:11:18.108248 13919 net.cpp:347] inception_4c/relu_pool_proj -> inception_4c/pool_proj (in-place)
I0906 13:11:18.108258 13919 net.cpp:98] Setting up inception_4c/relu_pool_proj
I0906 13:11:18.108266 13919 net.cpp:105] Top shape: 64 64 14 14 (802816)
I0906 13:11:18.108274 13919 layer_factory.hpp:78] Creating layer inception_4c/output
I0906 13:11:18.108283 13919 net.cpp:69] Creating Layer inception_4c/output
I0906 13:11:18.108292 13919 net.cpp:396] inception_4c/output <- inception_4c/1x1
I0906 13:11:18.108301 13919 net.cpp:396] inception_4c/output <- inception_4c/3x3
I0906 13:11:18.108310 13919 net.cpp:396] inception_4c/output <- inception_4c/5x5
I0906 13:11:18.108319 13919 net.cpp:396] inception_4c/output <- inception_4c/pool_proj
I0906 13:11:18.108331 13919 net.cpp:358] inception_4c/output -> inception_4c/output
I0906 13:11:18.108342 13919 net.cpp:98] Setting up inception_4c/output
I0906 13:11:18.108351 13919 net.cpp:105] Top shape: 64 512 14 14 (6422528)
I0906 13:11:18.108360 13919 layer_factory.hpp:78] Creating layer inception_4c/output_inception_4c/output_0_split
I0906 13:11:18.108368 13919 net.cpp:69] Creating Layer inception_4c/output_inception_4c/output_0_split
I0906 13:11:18.108377 13919 net.cpp:396] inception_4c/output_inception_4c/output_0_split <- inception_4c/output
I0906 13:11:18.108389 13919 net.cpp:358] inception_4c/output_inception_4c/output_0_split -> inception_4c/output_inception_4c/output_0_split_0
I0906 13:11:18.108402 13919 net.cpp:358] inception_4c/output_inception_4c/output_0_split -> inception_4c/output_inception_4c/output_0_split_1
I0906 13:11:18.108422 13919 net.cpp:358] inception_4c/output_inception_4c/output_0_split -> inception_4c/output_inception_4c/output_0_split_2
I0906 13:11:18.108434 13919 net.cpp:358] inception_4c/output_inception_4c/output_0_split -> inception_4c/output_inception_4c/output_0_split_3
I0906 13:11:18.108445 13919 net.cpp:98] Setting up inception_4c/output_inception_4c/output_0_split
I0906 13:11:18.108454 13919 net.cpp:105] Top shape: 64 512 14 14 (6422528)
I0906 13:11:18.108463 13919 net.cpp:105] Top shape: 64 512 14 14 (6422528)
I0906 13:11:18.108470 13919 net.cpp:105] Top shape: 64 512 14 14 (6422528)
I0906 13:11:18.108479 13919 net.cpp:105] Top shape: 64 512 14 14 (6422528)
I0906 13:11:18.108486 13919 layer_factory.hpp:78] Creating layer inception_4d/1x1
I0906 13:11:18.108500 13919 net.cpp:69] Creating Layer inception_4d/1x1
I0906 13:11:18.108508 13919 net.cpp:396] inception_4d/1x1 <- inception_4c/output_inception_4c/output_0_split_0
I0906 13:11:18.108520 13919 net.cpp:358] inception_4d/1x1 -> inception_4d/1x1
I0906 13:11:18.108530 13919 net.cpp:98] Setting up inception_4d/1x1
I0906 13:11:18.108988 13919 net.cpp:105] Top shape: 64 112 14 14 (1404928)
I0906 13:11:18.109004 13919 layer_factory.hpp:78] Creating layer inception_4d/relu_1x1
I0906 13:11:18.109014 13919 net.cpp:69] Creating Layer inception_4d/relu_1x1
I0906 13:11:18.109022 13919 net.cpp:396] inception_4d/relu_1x1 <- inception_4d/1x1
I0906 13:11:18.109035 13919 net.cpp:347] inception_4d/relu_1x1 -> inception_4d/1x1 (in-place)
I0906 13:11:18.109045 13919 net.cpp:98] Setting up inception_4d/relu_1x1
I0906 13:11:18.109053 13919 net.cpp:105] Top shape: 64 112 14 14 (1404928)
I0906 13:11:18.109061 13919 layer_factory.hpp:78] Creating layer inception_4d/3x3_reduce
I0906 13:11:18.109071 13919 net.cpp:69] Creating Layer inception_4d/3x3_reduce
I0906 13:11:18.109079 13919 net.cpp:396] inception_4d/3x3_reduce <- inception_4c/output_inception_4c/output_0_split_1
I0906 13:11:18.109092 13919 net.cpp:358] inception_4d/3x3_reduce -> inception_4d/3x3_reduce
I0906 13:11:18.109103 13919 net.cpp:98] Setting up inception_4d/3x3_reduce
I0906 13:11:18.109694 13919 net.cpp:105] Top shape: 64 144 14 14 (1806336)
I0906 13:11:18.109709 13919 layer_factory.hpp:78] Creating layer inception_4d/relu_3x3_reduce
I0906 13:11:18.109719 13919 net.cpp:69] Creating Layer inception_4d/relu_3x3_reduce
I0906 13:11:18.109729 13919 net.cpp:396] inception_4d/relu_3x3_reduce <- inception_4d/3x3_reduce
I0906 13:11:18.109738 13919 net.cpp:347] inception_4d/relu_3x3_reduce -> inception_4d/3x3_reduce (in-place)
I0906 13:11:18.109751 13919 net.cpp:98] Setting up inception_4d/relu_3x3_reduce
I0906 13:11:18.109760 13919 net.cpp:105] Top shape: 64 144 14 14 (1806336)
I0906 13:11:18.109767 13919 layer_factory.hpp:78] Creating layer inception_4d/3x3
I0906 13:11:18.109778 13919 net.cpp:69] Creating Layer inception_4d/3x3
I0906 13:11:18.109786 13919 net.cpp:396] inception_4d/3x3 <- inception_4d/3x3_reduce
I0906 13:11:18.109797 13919 net.cpp:358] inception_4d/3x3 -> inception_4d/3x3
I0906 13:11:18.109807 13919 net.cpp:98] Setting up inception_4d/3x3
I0906 13:11:18.112730 13919 net.cpp:105] Top shape: 64 288 14 14 (3612672)
I0906 13:11:18.112751 13919 layer_factory.hpp:78] Creating layer inception_4d/relu_3x3
I0906 13:11:18.112762 13919 net.cpp:69] Creating Layer inception_4d/relu_3x3
I0906 13:11:18.112771 13919 net.cpp:396] inception_4d/relu_3x3 <- inception_4d/3x3
I0906 13:11:18.112782 13919 net.cpp:347] inception_4d/relu_3x3 -> inception_4d/3x3 (in-place)
I0906 13:11:18.112792 13919 net.cpp:98] Setting up inception_4d/relu_3x3
I0906 13:11:18.112799 13919 net.cpp:105] Top shape: 64 288 14 14 (3612672)
I0906 13:11:18.112808 13919 layer_factory.hpp:78] Creating layer inception_4d/5x5_reduce
I0906 13:11:18.112823 13919 net.cpp:69] Creating Layer inception_4d/5x5_reduce
I0906 13:11:18.112833 13919 net.cpp:396] inception_4d/5x5_reduce <- inception_4c/output_inception_4c/output_0_split_2
I0906 13:11:18.112843 13919 net.cpp:358] inception_4d/5x5_reduce -> inception_4d/5x5_reduce
I0906 13:11:18.112854 13919 net.cpp:98] Setting up inception_4d/5x5_reduce
I0906 13:11:18.113006 13919 net.cpp:105] Top shape: 64 32 14 14 (401408)
I0906 13:11:18.113019 13919 layer_factory.hpp:78] Creating layer inception_4d/relu_5x5_reduce
I0906 13:11:18.113030 13919 net.cpp:69] Creating Layer inception_4d/relu_5x5_reduce
I0906 13:11:18.113039 13919 net.cpp:396] inception_4d/relu_5x5_reduce <- inception_4d/5x5_reduce
I0906 13:11:18.113050 13919 net.cpp:347] inception_4d/relu_5x5_reduce -> inception_4d/5x5_reduce (in-place)
I0906 13:11:18.113061 13919 net.cpp:98] Setting up inception_4d/relu_5x5_reduce
I0906 13:11:18.113070 13919 net.cpp:105] Top shape: 64 32 14 14 (401408)
I0906 13:11:18.113077 13919 layer_factory.hpp:78] Creating layer inception_4d/5x5
I0906 13:11:18.113087 13919 net.cpp:69] Creating Layer inception_4d/5x5
I0906 13:11:18.113096 13919 net.cpp:396] inception_4d/5x5 <- inception_4d/5x5_reduce
I0906 13:11:18.113108 13919 net.cpp:358] inception_4d/5x5 -> inception_4d/5x5
I0906 13:11:18.113119 13919 net.cpp:98] Setting up inception_4d/5x5
I0906 13:11:18.113534 13919 net.cpp:105] Top shape: 64 64 14 14 (802816)
I0906 13:11:18.113551 13919 layer_factory.hpp:78] Creating layer inception_4d/relu_5x5
I0906 13:11:18.113564 13919 net.cpp:69] Creating Layer inception_4d/relu_5x5
I0906 13:11:18.113572 13919 net.cpp:396] inception_4d/relu_5x5 <- inception_4d/5x5
I0906 13:11:18.113582 13919 net.cpp:347] inception_4d/relu_5x5 -> inception_4d/5x5 (in-place)
I0906 13:11:18.113592 13919 net.cpp:98] Setting up inception_4d/relu_5x5
I0906 13:11:18.113600 13919 net.cpp:105] Top shape: 64 64 14 14 (802816)
I0906 13:11:18.113608 13919 layer_factory.hpp:78] Creating layer inception_4d/pool
I0906 13:11:18.113620 13919 net.cpp:69] Creating Layer inception_4d/pool
I0906 13:11:18.113629 13919 net.cpp:396] inception_4d/pool <- inception_4c/output_inception_4c/output_0_split_3
I0906 13:11:18.113641 13919 net.cpp:358] inception_4d/pool -> inception_4d/pool
I0906 13:11:18.113651 13919 net.cpp:98] Setting up inception_4d/pool
I0906 13:11:18.113661 13919 net.cpp:105] Top shape: 64 512 14 14 (6422528)
I0906 13:11:18.113668 13919 layer_factory.hpp:78] Creating layer inception_4d/pool_proj
I0906 13:11:18.113678 13919 net.cpp:69] Creating Layer inception_4d/pool_proj
I0906 13:11:18.113687 13919 net.cpp:396] inception_4d/pool_proj <- inception_4d/pool
I0906 13:11:18.113699 13919 net.cpp:358] inception_4d/pool_proj -> inception_4d/pool_proj
I0906 13:11:18.113710 13919 net.cpp:98] Setting up inception_4d/pool_proj
I0906 13:11:18.113981 13919 net.cpp:105] Top shape: 64 64 14 14 (802816)
I0906 13:11:18.113996 13919 layer_factory.hpp:78] Creating layer inception_4d/relu_pool_proj
I0906 13:11:18.114006 13919 net.cpp:69] Creating Layer inception_4d/relu_pool_proj
I0906 13:11:18.114015 13919 net.cpp:396] inception_4d/relu_pool_proj <- inception_4d/pool_proj
I0906 13:11:18.114025 13919 net.cpp:347] inception_4d/relu_pool_proj -> inception_4d/pool_proj (in-place)
I0906 13:11:18.114035 13919 net.cpp:98] Setting up inception_4d/relu_pool_proj
I0906 13:11:18.114043 13919 net.cpp:105] Top shape: 64 64 14 14 (802816)
I0906 13:11:18.114051 13919 layer_factory.hpp:78] Creating layer inception_4d/output
I0906 13:11:18.114063 13919 net.cpp:69] Creating Layer inception_4d/output
I0906 13:11:18.114073 13919 net.cpp:396] inception_4d/output <- inception_4d/1x1
I0906 13:11:18.114081 13919 net.cpp:396] inception_4d/output <- inception_4d/3x3
I0906 13:11:18.114090 13919 net.cpp:396] inception_4d/output <- inception_4d/5x5
I0906 13:11:18.114099 13919 net.cpp:396] inception_4d/output <- inception_4d/pool_proj
I0906 13:11:18.114117 13919 net.cpp:358] inception_4d/output -> inception_4d/output
I0906 13:11:18.114128 13919 net.cpp:98] Setting up inception_4d/output
I0906 13:11:18.114137 13919 net.cpp:105] Top shape: 64 528 14 14 (6623232)
I0906 13:11:18.114145 13919 layer_factory.hpp:78] Creating layer inception_4d/output_inception_4d/output_0_split
I0906 13:11:18.114164 13919 net.cpp:69] Creating Layer inception_4d/output_inception_4d/output_0_split
I0906 13:11:18.114176 13919 net.cpp:396] inception_4d/output_inception_4d/output_0_split <- inception_4d/output
I0906 13:11:18.114197 13919 net.cpp:358] inception_4d/output_inception_4d/output_0_split -> inception_4d/output_inception_4d/output_0_split_0
I0906 13:11:18.114209 13919 net.cpp:358] inception_4d/output_inception_4d/output_0_split -> inception_4d/output_inception_4d/output_0_split_1
I0906 13:11:18.114222 13919 net.cpp:358] inception_4d/output_inception_4d/output_0_split -> inception_4d/output_inception_4d/output_0_split_2
I0906 13:11:18.114233 13919 net.cpp:358] inception_4d/output_inception_4d/output_0_split -> inception_4d/output_inception_4d/output_0_split_3
I0906 13:11:18.114244 13919 net.cpp:358] inception_4d/output_inception_4d/output_0_split -> inception_4d/output_inception_4d/output_0_split_4
I0906 13:11:18.114254 13919 net.cpp:98] Setting up inception_4d/output_inception_4d/output_0_split
I0906 13:11:18.114264 13919 net.cpp:105] Top shape: 64 528 14 14 (6623232)
I0906 13:11:18.114272 13919 net.cpp:105] Top shape: 64 528 14 14 (6623232)
I0906 13:11:18.114280 13919 net.cpp:105] Top shape: 64 528 14 14 (6623232)
I0906 13:11:18.114289 13919 net.cpp:105] Top shape: 64 528 14 14 (6623232)
I0906 13:11:18.114295 13919 net.cpp:105] Top shape: 64 528 14 14 (6623232)
I0906 13:11:18.114303 13919 layer_factory.hpp:78] Creating layer loss2/ave_pool
I0906 13:11:18.114315 13919 net.cpp:69] Creating Layer loss2/ave_pool
I0906 13:11:18.114323 13919 net.cpp:396] loss2/ave_pool <- inception_4d/output_inception_4d/output_0_split_0
I0906 13:11:18.114334 13919 net.cpp:358] loss2/ave_pool -> loss2/ave_pool
I0906 13:11:18.114344 13919 net.cpp:98] Setting up loss2/ave_pool
I0906 13:11:18.114356 13919 net.cpp:105] Top shape: 64 528 4 4 (540672)
I0906 13:11:18.114362 13919 layer_factory.hpp:78] Creating layer loss2/conv
I0906 13:11:18.114370 13919 net.cpp:69] Creating Layer loss2/conv
I0906 13:11:18.114374 13919 net.cpp:396] loss2/conv <- loss2/ave_pool
I0906 13:11:18.114380 13919 net.cpp:358] loss2/conv -> loss2/conv
I0906 13:11:18.114393 13919 net.cpp:98] Setting up loss2/conv
I0906 13:11:18.114933 13919 net.cpp:105] Top shape: 64 128 4 4 (131072)
I0906 13:11:18.114948 13919 layer_factory.hpp:78] Creating layer loss2/relu_conv
I0906 13:11:18.114959 13919 net.cpp:69] Creating Layer loss2/relu_conv
I0906 13:11:18.114967 13919 net.cpp:396] loss2/relu_conv <- loss2/conv
I0906 13:11:18.114979 13919 net.cpp:347] loss2/relu_conv -> loss2/conv (in-place)
I0906 13:11:18.114989 13919 net.cpp:98] Setting up loss2/relu_conv
I0906 13:11:18.114997 13919 net.cpp:105] Top shape: 64 128 4 4 (131072)
I0906 13:11:18.115005 13919 layer_factory.hpp:78] Creating layer loss2/fc
I0906 13:11:18.115015 13919 net.cpp:69] Creating Layer loss2/fc
I0906 13:11:18.115025 13919 net.cpp:396] loss2/fc <- loss2/conv
I0906 13:11:18.115036 13919 net.cpp:358] loss2/fc -> loss2/fc
I0906 13:11:18.115046 13919 net.cpp:98] Setting up loss2/fc
I0906 13:11:18.130400 13919 net.cpp:105] Top shape: 64 1024 1 1 (65536)
I0906 13:11:18.130420 13919 layer_factory.hpp:78] Creating layer loss2/relu_fc
I0906 13:11:18.130431 13919 net.cpp:69] Creating Layer loss2/relu_fc
I0906 13:11:18.130440 13919 net.cpp:396] loss2/relu_fc <- loss2/fc
I0906 13:11:18.130452 13919 net.cpp:347] loss2/relu_fc -> loss2/fc (in-place)
I0906 13:11:18.130463 13919 net.cpp:98] Setting up loss2/relu_fc
I0906 13:11:18.130472 13919 net.cpp:105] Top shape: 64 1024 1 1 (65536)
I0906 13:11:18.130481 13919 layer_factory.hpp:78] Creating layer loss2/drop_fc
I0906 13:11:18.130493 13919 net.cpp:69] Creating Layer loss2/drop_fc
I0906 13:11:18.130502 13919 net.cpp:396] loss2/drop_fc <- loss2/fc
I0906 13:11:18.130514 13919 net.cpp:347] loss2/drop_fc -> loss2/fc (in-place)
I0906 13:11:18.130525 13919 net.cpp:98] Setting up loss2/drop_fc
I0906 13:11:18.130534 13919 net.cpp:105] Top shape: 64 1024 1 1 (65536)
I0906 13:11:18.130542 13919 layer_factory.hpp:78] Creating layer loss2/classifier_cub
I0906 13:11:18.130553 13919 net.cpp:69] Creating Layer loss2/classifier_cub
I0906 13:11:18.130561 13919 net.cpp:396] loss2/classifier_cub <- loss2/fc
I0906 13:11:18.130573 13919 net.cpp:358] loss2/classifier_cub -> loss2/classifier
I0906 13:11:18.130597 13919 net.cpp:98] Setting up loss2/classifier_cub
I0906 13:11:18.137120 13919 net.cpp:105] Top shape: 64 200 1 1 (12800)
I0906 13:11:18.137140 13919 layer_factory.hpp:78] Creating layer loss2/classifier_loss2/classifier_cub_0_split
I0906 13:11:18.137152 13919 net.cpp:69] Creating Layer loss2/classifier_loss2/classifier_cub_0_split
I0906 13:11:18.137161 13919 net.cpp:396] loss2/classifier_loss2/classifier_cub_0_split <- loss2/classifier
I0906 13:11:18.137171 13919 net.cpp:358] loss2/classifier_loss2/classifier_cub_0_split -> loss2/classifier_loss2/classifier_cub_0_split_0
I0906 13:11:18.137187 13919 net.cpp:358] loss2/classifier_loss2/classifier_cub_0_split -> loss2/classifier_loss2/classifier_cub_0_split_1
I0906 13:11:18.137199 13919 net.cpp:358] loss2/classifier_loss2/classifier_cub_0_split -> loss2/classifier_loss2/classifier_cub_0_split_2
I0906 13:11:18.137210 13919 net.cpp:98] Setting up loss2/classifier_loss2/classifier_cub_0_split
I0906 13:11:18.137220 13919 net.cpp:105] Top shape: 64 200 1 1 (12800)
I0906 13:11:18.137228 13919 net.cpp:105] Top shape: 64 200 1 1 (12800)
I0906 13:11:18.137238 13919 net.cpp:105] Top shape: 64 200 1 1 (12800)
I0906 13:11:18.137245 13919 layer_factory.hpp:78] Creating layer loss2/loss
I0906 13:11:18.137258 13919 net.cpp:69] Creating Layer loss2/loss
I0906 13:11:18.137266 13919 net.cpp:396] loss2/loss <- loss2/classifier_loss2/classifier_cub_0_split_0
I0906 13:11:18.137276 13919 net.cpp:396] loss2/loss <- label_data_1_split_3
I0906 13:11:18.137286 13919 net.cpp:358] loss2/loss -> loss2/loss1
I0906 13:11:18.137297 13919 net.cpp:98] Setting up loss2/loss
I0906 13:11:18.137331 13919 net.cpp:105] Top shape: 1 1 1 1 (1)
I0906 13:11:18.137341 13919 net.cpp:111]     with loss weight 0.3
I0906 13:11:18.137356 13919 layer_factory.hpp:78] Creating layer loss2/top-1
I0906 13:11:18.137367 13919 net.cpp:69] Creating Layer loss2/top-1
I0906 13:11:18.137374 13919 net.cpp:396] loss2/top-1 <- loss2/classifier_loss2/classifier_cub_0_split_1
I0906 13:11:18.137384 13919 net.cpp:396] loss2/top-1 <- label_data_1_split_4
I0906 13:11:18.137397 13919 net.cpp:358] loss2/top-1 -> loss2/top-1
I0906 13:11:18.137408 13919 net.cpp:98] Setting up loss2/top-1
I0906 13:11:18.137416 13919 net.cpp:105] Top shape: 1 1 1 1 (1)
I0906 13:11:18.137424 13919 layer_factory.hpp:78] Creating layer loss2/top-5
I0906 13:11:18.137435 13919 net.cpp:69] Creating Layer loss2/top-5
I0906 13:11:18.137444 13919 net.cpp:396] loss2/top-5 <- loss2/classifier_loss2/classifier_cub_0_split_2
I0906 13:11:18.137454 13919 net.cpp:396] loss2/top-5 <- label_data_1_split_5
I0906 13:11:18.137462 13919 net.cpp:358] loss2/top-5 -> loss2/top-5
I0906 13:11:18.137473 13919 net.cpp:98] Setting up loss2/top-5
I0906 13:11:18.137485 13919 net.cpp:105] Top shape: 1 1 1 1 (1)
I0906 13:11:18.137492 13919 layer_factory.hpp:78] Creating layer inception_4e/1x1
I0906 13:11:18.137503 13919 net.cpp:69] Creating Layer inception_4e/1x1
I0906 13:11:18.137512 13919 net.cpp:396] inception_4e/1x1 <- inception_4d/output_inception_4d/output_0_split_1
I0906 13:11:18.137523 13919 net.cpp:358] inception_4e/1x1 -> inception_4e/1x1
I0906 13:11:18.137534 13919 net.cpp:98] Setting up inception_4e/1x1
I0906 13:11:18.138607 13919 net.cpp:105] Top shape: 64 256 14 14 (3211264)
I0906 13:11:18.138628 13919 layer_factory.hpp:78] Creating layer inception_4e/relu_1x1
I0906 13:11:18.138639 13919 net.cpp:69] Creating Layer inception_4e/relu_1x1
I0906 13:11:18.138648 13919 net.cpp:396] inception_4e/relu_1x1 <- inception_4e/1x1
I0906 13:11:18.138659 13919 net.cpp:347] inception_4e/relu_1x1 -> inception_4e/1x1 (in-place)
I0906 13:11:18.138669 13919 net.cpp:98] Setting up inception_4e/relu_1x1
I0906 13:11:18.138677 13919 net.cpp:105] Top shape: 64 256 14 14 (3211264)
I0906 13:11:18.138689 13919 layer_factory.hpp:78] Creating layer inception_4e/3x3_reduce
I0906 13:11:18.138723 13919 net.cpp:69] Creating Layer inception_4e/3x3_reduce
I0906 13:11:18.138736 13919 net.cpp:396] inception_4e/3x3_reduce <- inception_4d/output_inception_4d/output_0_split_2
I0906 13:11:18.138759 13919 net.cpp:358] inception_4e/3x3_reduce -> inception_4e/3x3_reduce
I0906 13:11:18.138772 13919 net.cpp:98] Setting up inception_4e/3x3_reduce
I0906 13:11:18.139443 13919 net.cpp:105] Top shape: 64 160 14 14 (2007040)
I0906 13:11:18.139464 13919 layer_factory.hpp:78] Creating layer inception_4e/relu_3x3_reduce
I0906 13:11:18.139475 13919 net.cpp:69] Creating Layer inception_4e/relu_3x3_reduce
I0906 13:11:18.139485 13919 net.cpp:396] inception_4e/relu_3x3_reduce <- inception_4e/3x3_reduce
I0906 13:11:18.139495 13919 net.cpp:347] inception_4e/relu_3x3_reduce -> inception_4e/3x3_reduce (in-place)
I0906 13:11:18.139508 13919 net.cpp:98] Setting up inception_4e/relu_3x3_reduce
I0906 13:11:18.139518 13919 net.cpp:105] Top shape: 64 160 14 14 (2007040)
I0906 13:11:18.139528 13919 layer_factory.hpp:78] Creating layer inception_4e/3x3
I0906 13:11:18.139544 13919 net.cpp:69] Creating Layer inception_4e/3x3
I0906 13:11:18.139554 13919 net.cpp:396] inception_4e/3x3 <- inception_4e/3x3_reduce
I0906 13:11:18.139564 13919 net.cpp:358] inception_4e/3x3 -> inception_4e/3x3
I0906 13:11:18.139575 13919 net.cpp:98] Setting up inception_4e/3x3
I0906 13:11:18.143216 13919 net.cpp:105] Top shape: 64 320 14 14 (4014080)
I0906 13:11:18.143237 13919 layer_factory.hpp:78] Creating layer inception_4e/relu_3x3
I0906 13:11:18.143249 13919 net.cpp:69] Creating Layer inception_4e/relu_3x3
I0906 13:11:18.143257 13919 net.cpp:396] inception_4e/relu_3x3 <- inception_4e/3x3
I0906 13:11:18.143267 13919 net.cpp:347] inception_4e/relu_3x3 -> inception_4e/3x3 (in-place)
I0906 13:11:18.143277 13919 net.cpp:98] Setting up inception_4e/relu_3x3
I0906 13:11:18.143286 13919 net.cpp:105] Top shape: 64 320 14 14 (4014080)
I0906 13:11:18.143296 13919 layer_factory.hpp:78] Creating layer inception_4e/5x5_reduce
I0906 13:11:18.143316 13919 net.cpp:69] Creating Layer inception_4e/5x5_reduce
I0906 13:11:18.143326 13919 net.cpp:396] inception_4e/5x5_reduce <- inception_4d/output_inception_4d/output_0_split_3
I0906 13:11:18.143337 13919 net.cpp:358] inception_4e/5x5_reduce -> inception_4e/5x5_reduce
I0906 13:11:18.143347 13919 net.cpp:98] Setting up inception_4e/5x5_reduce
I0906 13:11:18.143489 13919 net.cpp:105] Top shape: 64 32 14 14 (401408)
I0906 13:11:18.143502 13919 layer_factory.hpp:78] Creating layer inception_4e/relu_5x5_reduce
I0906 13:11:18.143513 13919 net.cpp:69] Creating Layer inception_4e/relu_5x5_reduce
I0906 13:11:18.143522 13919 net.cpp:396] inception_4e/relu_5x5_reduce <- inception_4e/5x5_reduce
I0906 13:11:18.143533 13919 net.cpp:347] inception_4e/relu_5x5_reduce -> inception_4e/5x5_reduce (in-place)
I0906 13:11:18.143544 13919 net.cpp:98] Setting up inception_4e/relu_5x5_reduce
I0906 13:11:18.143554 13919 net.cpp:105] Top shape: 64 32 14 14 (401408)
I0906 13:11:18.143563 13919 layer_factory.hpp:78] Creating layer inception_4e/5x5
I0906 13:11:18.143573 13919 net.cpp:69] Creating Layer inception_4e/5x5
I0906 13:11:18.143581 13919 net.cpp:396] inception_4e/5x5 <- inception_4e/5x5_reduce
I0906 13:11:18.143594 13919 net.cpp:358] inception_4e/5x5 -> inception_4e/5x5
I0906 13:11:18.143604 13919 net.cpp:98] Setting up inception_4e/5x5
I0906 13:11:18.144423 13919 net.cpp:105] Top shape: 64 128 14 14 (1605632)
I0906 13:11:18.144443 13919 layer_factory.hpp:78] Creating layer inception_4e/relu_5x5
I0906 13:11:18.144454 13919 net.cpp:69] Creating Layer inception_4e/relu_5x5
I0906 13:11:18.144462 13919 net.cpp:396] inception_4e/relu_5x5 <- inception_4e/5x5
I0906 13:11:18.144472 13919 net.cpp:347] inception_4e/relu_5x5 -> inception_4e/5x5 (in-place)
I0906 13:11:18.144482 13919 net.cpp:98] Setting up inception_4e/relu_5x5
I0906 13:11:18.144491 13919 net.cpp:105] Top shape: 64 128 14 14 (1605632)
I0906 13:11:18.144500 13919 layer_factory.hpp:78] Creating layer inception_4e/pool
I0906 13:11:18.144522 13919 net.cpp:69] Creating Layer inception_4e/pool
I0906 13:11:18.144531 13919 net.cpp:396] inception_4e/pool <- inception_4d/output_inception_4d/output_0_split_4
I0906 13:11:18.144542 13919 net.cpp:358] inception_4e/pool -> inception_4e/pool
I0906 13:11:18.144552 13919 net.cpp:98] Setting up inception_4e/pool
I0906 13:11:18.144573 13919 net.cpp:105] Top shape: 64 528 14 14 (6623232)
I0906 13:11:18.144582 13919 layer_factory.hpp:78] Creating layer inception_4e/pool_proj
I0906 13:11:18.144594 13919 net.cpp:69] Creating Layer inception_4e/pool_proj
I0906 13:11:18.144604 13919 net.cpp:396] inception_4e/pool_proj <- inception_4e/pool
I0906 13:11:18.144614 13919 net.cpp:358] inception_4e/pool_proj -> inception_4e/pool_proj
I0906 13:11:18.144625 13919 net.cpp:98] Setting up inception_4e/pool_proj
I0906 13:11:18.145165 13919 net.cpp:105] Top shape: 64 128 14 14 (1605632)
I0906 13:11:18.145185 13919 layer_factory.hpp:78] Creating layer inception_4e/relu_pool_proj
I0906 13:11:18.145196 13919 net.cpp:69] Creating Layer inception_4e/relu_pool_proj
I0906 13:11:18.145205 13919 net.cpp:396] inception_4e/relu_pool_proj <- inception_4e/pool_proj
I0906 13:11:18.145217 13919 net.cpp:347] inception_4e/relu_pool_proj -> inception_4e/pool_proj (in-place)
I0906 13:11:18.145228 13919 net.cpp:98] Setting up inception_4e/relu_pool_proj
I0906 13:11:18.145237 13919 net.cpp:105] Top shape: 64 128 14 14 (1605632)
I0906 13:11:18.145246 13919 layer_factory.hpp:78] Creating layer inception_4e/output
I0906 13:11:18.145256 13919 net.cpp:69] Creating Layer inception_4e/output
I0906 13:11:18.145277 13919 net.cpp:396] inception_4e/output <- inception_4e/1x1
I0906 13:11:18.145285 13919 net.cpp:396] inception_4e/output <- inception_4e/3x3
I0906 13:11:18.145294 13919 net.cpp:396] inception_4e/output <- inception_4e/5x5
I0906 13:11:18.145303 13919 net.cpp:396] inception_4e/output <- inception_4e/pool_proj
I0906 13:11:18.145313 13919 net.cpp:358] inception_4e/output -> inception_4e/output
I0906 13:11:18.145323 13919 net.cpp:98] Setting up inception_4e/output
I0906 13:11:18.145333 13919 net.cpp:105] Top shape: 64 832 14 14 (10436608)
I0906 13:11:18.145341 13919 layer_factory.hpp:78] Creating layer pool4/3x3_s2
I0906 13:11:18.145352 13919 net.cpp:69] Creating Layer pool4/3x3_s2
I0906 13:11:18.145361 13919 net.cpp:396] pool4/3x3_s2 <- inception_4e/output
I0906 13:11:18.145372 13919 net.cpp:358] pool4/3x3_s2 -> pool4/3x3_s2
I0906 13:11:18.145382 13919 net.cpp:98] Setting up pool4/3x3_s2
I0906 13:11:18.145392 13919 net.cpp:105] Top shape: 64 832 7 7 (2609152)
I0906 13:11:18.145401 13919 layer_factory.hpp:78] Creating layer pool4/3x3_s2_pool4/3x3_s2_0_split
I0906 13:11:18.145412 13919 net.cpp:69] Creating Layer pool4/3x3_s2_pool4/3x3_s2_0_split
I0906 13:11:18.145421 13919 net.cpp:396] pool4/3x3_s2_pool4/3x3_s2_0_split <- pool4/3x3_s2
I0906 13:11:18.145431 13919 net.cpp:358] pool4/3x3_s2_pool4/3x3_s2_0_split -> pool4/3x3_s2_pool4/3x3_s2_0_split_0
I0906 13:11:18.145442 13919 net.cpp:358] pool4/3x3_s2_pool4/3x3_s2_0_split -> pool4/3x3_s2_pool4/3x3_s2_0_split_1
I0906 13:11:18.145453 13919 net.cpp:358] pool4/3x3_s2_pool4/3x3_s2_0_split -> pool4/3x3_s2_pool4/3x3_s2_0_split_2
I0906 13:11:18.145479 13919 net.cpp:358] pool4/3x3_s2_pool4/3x3_s2_0_split -> pool4/3x3_s2_pool4/3x3_s2_0_split_3
I0906 13:11:18.145490 13919 net.cpp:98] Setting up pool4/3x3_s2_pool4/3x3_s2_0_split
I0906 13:11:18.145500 13919 net.cpp:105] Top shape: 64 832 7 7 (2609152)
I0906 13:11:18.145509 13919 net.cpp:105] Top shape: 64 832 7 7 (2609152)
I0906 13:11:18.145517 13919 net.cpp:105] Top shape: 64 832 7 7 (2609152)
I0906 13:11:18.145525 13919 net.cpp:105] Top shape: 64 832 7 7 (2609152)
I0906 13:11:18.145534 13919 layer_factory.hpp:78] Creating layer inception_5a/1x1
I0906 13:11:18.145545 13919 net.cpp:69] Creating Layer inception_5a/1x1
I0906 13:11:18.145555 13919 net.cpp:396] inception_5a/1x1 <- pool4/3x3_s2_pool4/3x3_s2_0_split_0
I0906 13:11:18.145565 13919 net.cpp:358] inception_5a/1x1 -> inception_5a/1x1
I0906 13:11:18.145576 13919 net.cpp:98] Setting up inception_5a/1x1
I0906 13:11:18.147253 13919 net.cpp:105] Top shape: 64 256 7 7 (802816)
I0906 13:11:18.147274 13919 layer_factory.hpp:78] Creating layer inception_5a/relu_1x1
I0906 13:11:18.147284 13919 net.cpp:69] Creating Layer inception_5a/relu_1x1
I0906 13:11:18.147292 13919 net.cpp:396] inception_5a/relu_1x1 <- inception_5a/1x1
I0906 13:11:18.147318 13919 net.cpp:347] inception_5a/relu_1x1 -> inception_5a/1x1 (in-place)
I0906 13:11:18.147330 13919 net.cpp:98] Setting up inception_5a/relu_1x1
I0906 13:11:18.147339 13919 net.cpp:105] Top shape: 64 256 7 7 (802816)
I0906 13:11:18.147356 13919 layer_factory.hpp:78] Creating layer inception_5a/3x3_reduce
I0906 13:11:18.147367 13919 net.cpp:69] Creating Layer inception_5a/3x3_reduce
I0906 13:11:18.147377 13919 net.cpp:396] inception_5a/3x3_reduce <- pool4/3x3_s2_pool4/3x3_s2_0_split_1
I0906 13:11:18.147388 13919 net.cpp:358] inception_5a/3x3_reduce -> inception_5a/3x3_reduce
I0906 13:11:18.147400 13919 net.cpp:98] Setting up inception_5a/3x3_reduce
I0906 13:11:18.148454 13919 net.cpp:105] Top shape: 64 160 7 7 (501760)
I0906 13:11:18.148474 13919 layer_factory.hpp:78] Creating layer inception_5a/relu_3x3_reduce
I0906 13:11:18.148488 13919 net.cpp:69] Creating Layer inception_5a/relu_3x3_reduce
I0906 13:11:18.148497 13919 net.cpp:396] inception_5a/relu_3x3_reduce <- inception_5a/3x3_reduce
I0906 13:11:18.148506 13919 net.cpp:347] inception_5a/relu_3x3_reduce -> inception_5a/3x3_reduce (in-place)
I0906 13:11:18.148517 13919 net.cpp:98] Setting up inception_5a/relu_3x3_reduce
I0906 13:11:18.148525 13919 net.cpp:105] Top shape: 64 160 7 7 (501760)
I0906 13:11:18.148535 13919 layer_factory.hpp:78] Creating layer inception_5a/3x3
I0906 13:11:18.148547 13919 net.cpp:69] Creating Layer inception_5a/3x3
I0906 13:11:18.148556 13919 net.cpp:396] inception_5a/3x3 <- inception_5a/3x3_reduce
I0906 13:11:18.148569 13919 net.cpp:358] inception_5a/3x3 -> inception_5a/3x3
I0906 13:11:18.148581 13919 net.cpp:98] Setting up inception_5a/3x3
I0906 13:11:18.152288 13919 net.cpp:105] Top shape: 64 320 7 7 (1003520)
I0906 13:11:18.152309 13919 layer_factory.hpp:78] Creating layer inception_5a/relu_3x3
I0906 13:11:18.152323 13919 net.cpp:69] Creating Layer inception_5a/relu_3x3
I0906 13:11:18.152333 13919 net.cpp:396] inception_5a/relu_3x3 <- inception_5a/3x3
I0906 13:11:18.152343 13919 net.cpp:347] inception_5a/relu_3x3 -> inception_5a/3x3 (in-place)
I0906 13:11:18.152353 13919 net.cpp:98] Setting up inception_5a/relu_3x3
I0906 13:11:18.152361 13919 net.cpp:105] Top shape: 64 320 7 7 (1003520)
I0906 13:11:18.152371 13919 layer_factory.hpp:78] Creating layer inception_5a/5x5_reduce
I0906 13:11:18.152391 13919 net.cpp:69] Creating Layer inception_5a/5x5_reduce
I0906 13:11:18.152401 13919 net.cpp:396] inception_5a/5x5_reduce <- pool4/3x3_s2_pool4/3x3_s2_0_split_2
I0906 13:11:18.152415 13919 net.cpp:358] inception_5a/5x5_reduce -> inception_5a/5x5_reduce
I0906 13:11:18.152426 13919 net.cpp:98] Setting up inception_5a/5x5_reduce
I0906 13:11:18.152642 13919 net.cpp:105] Top shape: 64 32 7 7 (100352)
I0906 13:11:18.152660 13919 layer_factory.hpp:78] Creating layer inception_5a/relu_5x5_reduce
I0906 13:11:18.152670 13919 net.cpp:69] Creating Layer inception_5a/relu_5x5_reduce
I0906 13:11:18.152679 13919 net.cpp:396] inception_5a/relu_5x5_reduce <- inception_5a/5x5_reduce
I0906 13:11:18.152688 13919 net.cpp:347] inception_5a/relu_5x5_reduce -> inception_5a/5x5_reduce (in-place)
I0906 13:11:18.152698 13919 net.cpp:98] Setting up inception_5a/relu_5x5_reduce
I0906 13:11:18.152706 13919 net.cpp:105] Top shape: 64 32 7 7 (100352)
I0906 13:11:18.152715 13919 layer_factory.hpp:78] Creating layer inception_5a/5x5
I0906 13:11:18.152724 13919 net.cpp:69] Creating Layer inception_5a/5x5
I0906 13:11:18.152734 13919 net.cpp:396] inception_5a/5x5 <- inception_5a/5x5_reduce
I0906 13:11:18.152746 13919 net.cpp:358] inception_5a/5x5 -> inception_5a/5x5
I0906 13:11:18.152757 13919 net.cpp:98] Setting up inception_5a/5x5
I0906 13:11:18.153573 13919 net.cpp:105] Top shape: 64 128 7 7 (401408)
I0906 13:11:18.153594 13919 layer_factory.hpp:78] Creating layer inception_5a/relu_5x5
I0906 13:11:18.153604 13919 net.cpp:69] Creating Layer inception_5a/relu_5x5
I0906 13:11:18.153614 13919 net.cpp:396] inception_5a/relu_5x5 <- inception_5a/5x5
I0906 13:11:18.153623 13919 net.cpp:347] inception_5a/relu_5x5 -> inception_5a/5x5 (in-place)
I0906 13:11:18.153645 13919 net.cpp:98] Setting up inception_5a/relu_5x5
I0906 13:11:18.153656 13919 net.cpp:105] Top shape: 64 128 7 7 (401408)
I0906 13:11:18.153664 13919 layer_factory.hpp:78] Creating layer inception_5a/pool
I0906 13:11:18.153686 13919 net.cpp:69] Creating Layer inception_5a/pool
I0906 13:11:18.153697 13919 net.cpp:396] inception_5a/pool <- pool4/3x3_s2_pool4/3x3_s2_0_split_3
I0906 13:11:18.153707 13919 net.cpp:358] inception_5a/pool -> inception_5a/pool
I0906 13:11:18.153717 13919 net.cpp:98] Setting up inception_5a/pool
I0906 13:11:18.153726 13919 net.cpp:105] Top shape: 64 832 7 7 (2609152)
I0906 13:11:18.153735 13919 layer_factory.hpp:78] Creating layer inception_5a/pool_proj
I0906 13:11:18.153748 13919 net.cpp:69] Creating Layer inception_5a/pool_proj
I0906 13:11:18.153758 13919 net.cpp:396] inception_5a/pool_proj <- inception_5a/pool
I0906 13:11:18.153767 13919 net.cpp:358] inception_5a/pool_proj -> inception_5a/pool_proj
I0906 13:11:18.153779 13919 net.cpp:98] Setting up inception_5a/pool_proj
I0906 13:11:18.154633 13919 net.cpp:105] Top shape: 64 128 7 7 (401408)
I0906 13:11:18.154659 13919 layer_factory.hpp:78] Creating layer inception_5a/relu_pool_proj
I0906 13:11:18.154670 13919 net.cpp:69] Creating Layer inception_5a/relu_pool_proj
I0906 13:11:18.154680 13919 net.cpp:396] inception_5a/relu_pool_proj <- inception_5a/pool_proj
I0906 13:11:18.154691 13919 net.cpp:347] inception_5a/relu_pool_proj -> inception_5a/pool_proj (in-place)
I0906 13:11:18.154703 13919 net.cpp:98] Setting up inception_5a/relu_pool_proj
I0906 13:11:18.154712 13919 net.cpp:105] Top shape: 64 128 7 7 (401408)
I0906 13:11:18.154721 13919 layer_factory.hpp:78] Creating layer inception_5a/output
I0906 13:11:18.154741 13919 net.cpp:69] Creating Layer inception_5a/output
I0906 13:11:18.154749 13919 net.cpp:396] inception_5a/output <- inception_5a/1x1
I0906 13:11:18.154758 13919 net.cpp:396] inception_5a/output <- inception_5a/3x3
I0906 13:11:18.154768 13919 net.cpp:396] inception_5a/output <- inception_5a/5x5
I0906 13:11:18.154778 13919 net.cpp:396] inception_5a/output <- inception_5a/pool_proj
I0906 13:11:18.154786 13919 net.cpp:358] inception_5a/output -> inception_5a/output
I0906 13:11:18.154798 13919 net.cpp:98] Setting up inception_5a/output
I0906 13:11:18.154806 13919 net.cpp:105] Top shape: 64 832 7 7 (2609152)
I0906 13:11:18.154814 13919 layer_factory.hpp:78] Creating layer inception_5a/output_inception_5a/output_0_split
I0906 13:11:18.154824 13919 net.cpp:69] Creating Layer inception_5a/output_inception_5a/output_0_split
I0906 13:11:18.154832 13919 net.cpp:396] inception_5a/output_inception_5a/output_0_split <- inception_5a/output
I0906 13:11:18.154844 13919 net.cpp:358] inception_5a/output_inception_5a/output_0_split -> inception_5a/output_inception_5a/output_0_split_0
I0906 13:11:18.154856 13919 net.cpp:358] inception_5a/output_inception_5a/output_0_split -> inception_5a/output_inception_5a/output_0_split_1
I0906 13:11:18.154868 13919 net.cpp:358] inception_5a/output_inception_5a/output_0_split -> inception_5a/output_inception_5a/output_0_split_2
I0906 13:11:18.154881 13919 net.cpp:358] inception_5a/output_inception_5a/output_0_split -> inception_5a/output_inception_5a/output_0_split_3
I0906 13:11:18.154891 13919 net.cpp:98] Setting up inception_5a/output_inception_5a/output_0_split
I0906 13:11:18.154899 13919 net.cpp:105] Top shape: 64 832 7 7 (2609152)
I0906 13:11:18.154907 13919 net.cpp:105] Top shape: 64 832 7 7 (2609152)
I0906 13:11:18.154916 13919 net.cpp:105] Top shape: 64 832 7 7 (2609152)
I0906 13:11:18.154923 13919 net.cpp:105] Top shape: 64 832 7 7 (2609152)
I0906 13:11:18.154932 13919 layer_factory.hpp:78] Creating layer inception_5b/1x1
I0906 13:11:18.154944 13919 net.cpp:69] Creating Layer inception_5b/1x1
I0906 13:11:18.154953 13919 net.cpp:396] inception_5b/1x1 <- inception_5a/output_inception_5a/output_0_split_0
I0906 13:11:18.154964 13919 net.cpp:358] inception_5b/1x1 -> inception_5b/1x1
I0906 13:11:18.154975 13919 net.cpp:98] Setting up inception_5b/1x1
I0906 13:11:18.157475 13919 net.cpp:105] Top shape: 64 384 7 7 (1204224)
I0906 13:11:18.157505 13919 layer_factory.hpp:78] Creating layer inception_5b/relu_1x1
I0906 13:11:18.157516 13919 net.cpp:69] Creating Layer inception_5b/relu_1x1
I0906 13:11:18.157526 13919 net.cpp:396] inception_5b/relu_1x1 <- inception_5b/1x1
I0906 13:11:18.157536 13919 net.cpp:347] inception_5b/relu_1x1 -> inception_5b/1x1 (in-place)
I0906 13:11:18.157546 13919 net.cpp:98] Setting up inception_5b/relu_1x1
I0906 13:11:18.157554 13919 net.cpp:105] Top shape: 64 384 7 7 (1204224)
I0906 13:11:18.157562 13919 layer_factory.hpp:78] Creating layer inception_5b/3x3_reduce
I0906 13:11:18.157573 13919 net.cpp:69] Creating Layer inception_5b/3x3_reduce
I0906 13:11:18.157582 13919 net.cpp:396] inception_5b/3x3_reduce <- inception_5a/output_inception_5a/output_0_split_1
I0906 13:11:18.157604 13919 net.cpp:358] inception_5b/3x3_reduce -> inception_5b/3x3_reduce
I0906 13:11:18.157616 13919 net.cpp:98] Setting up inception_5b/3x3_reduce
I0906 13:11:18.158879 13919 net.cpp:105] Top shape: 64 192 7 7 (602112)
I0906 13:11:18.158905 13919 layer_factory.hpp:78] Creating layer inception_5b/relu_3x3_reduce
I0906 13:11:18.158916 13919 net.cpp:69] Creating Layer inception_5b/relu_3x3_reduce
I0906 13:11:18.158926 13919 net.cpp:396] inception_5b/relu_3x3_reduce <- inception_5b/3x3_reduce
I0906 13:11:18.158937 13919 net.cpp:347] inception_5b/relu_3x3_reduce -> inception_5b/3x3_reduce (in-place)
I0906 13:11:18.158948 13919 net.cpp:98] Setting up inception_5b/relu_3x3_reduce
I0906 13:11:18.158957 13919 net.cpp:105] Top shape: 64 192 7 7 (602112)
I0906 13:11:18.158967 13919 layer_factory.hpp:78] Creating layer inception_5b/3x3
I0906 13:11:18.158987 13919 net.cpp:69] Creating Layer inception_5b/3x3
I0906 13:11:18.158996 13919 net.cpp:396] inception_5b/3x3 <- inception_5b/3x3_reduce
I0906 13:11:18.159008 13919 net.cpp:358] inception_5b/3x3 -> inception_5b/3x3
I0906 13:11:18.159019 13919 net.cpp:98] Setting up inception_5b/3x3
I0906 13:11:18.163931 13919 net.cpp:105] Top shape: 64 384 7 7 (1204224)
I0906 13:11:18.163959 13919 layer_factory.hpp:78] Creating layer inception_5b/relu_3x3
I0906 13:11:18.163969 13919 net.cpp:69] Creating Layer inception_5b/relu_3x3
I0906 13:11:18.163979 13919 net.cpp:396] inception_5b/relu_3x3 <- inception_5b/3x3
I0906 13:11:18.163988 13919 net.cpp:347] inception_5b/relu_3x3 -> inception_5b/3x3 (in-place)
I0906 13:11:18.164001 13919 net.cpp:98] Setting up inception_5b/relu_3x3
I0906 13:11:18.164011 13919 net.cpp:105] Top shape: 64 384 7 7 (1204224)
I0906 13:11:18.164019 13919 layer_factory.hpp:78] Creating layer inception_5b/5x5_reduce
I0906 13:11:18.164038 13919 net.cpp:69] Creating Layer inception_5b/5x5_reduce
I0906 13:11:18.164048 13919 net.cpp:396] inception_5b/5x5_reduce <- inception_5a/output_inception_5a/output_0_split_2
I0906 13:11:18.164059 13919 net.cpp:358] inception_5b/5x5_reduce -> inception_5b/5x5_reduce
I0906 13:11:18.164069 13919 net.cpp:98] Setting up inception_5b/5x5_reduce
I0906 13:11:18.164392 13919 net.cpp:105] Top shape: 64 48 7 7 (150528)
I0906 13:11:18.164408 13919 layer_factory.hpp:78] Creating layer inception_5b/relu_5x5_reduce
I0906 13:11:18.164418 13919 net.cpp:69] Creating Layer inception_5b/relu_5x5_reduce
I0906 13:11:18.164427 13919 net.cpp:396] inception_5b/relu_5x5_reduce <- inception_5b/5x5_reduce
I0906 13:11:18.164439 13919 net.cpp:347] inception_5b/relu_5x5_reduce -> inception_5b/5x5_reduce (in-place)
I0906 13:11:18.164450 13919 net.cpp:98] Setting up inception_5b/relu_5x5_reduce
I0906 13:11:18.164459 13919 net.cpp:105] Top shape: 64 48 7 7 (150528)
I0906 13:11:18.164471 13919 layer_factory.hpp:78] Creating layer inception_5b/5x5
I0906 13:11:18.164481 13919 net.cpp:69] Creating Layer inception_5b/5x5
I0906 13:11:18.164489 13919 net.cpp:396] inception_5b/5x5 <- inception_5b/5x5_reduce
I0906 13:11:18.164500 13919 net.cpp:358] inception_5b/5x5 -> inception_5b/5x5
I0906 13:11:18.164510 13919 net.cpp:98] Setting up inception_5b/5x5
I0906 13:11:18.165720 13919 net.cpp:105] Top shape: 64 128 7 7 (401408)
I0906 13:11:18.165746 13919 layer_factory.hpp:78] Creating layer inception_5b/relu_5x5
I0906 13:11:18.165771 13919 net.cpp:69] Creating Layer inception_5b/relu_5x5
I0906 13:11:18.165781 13919 net.cpp:396] inception_5b/relu_5x5 <- inception_5b/5x5
I0906 13:11:18.165791 13919 net.cpp:347] inception_5b/relu_5x5 -> inception_5b/5x5 (in-place)
I0906 13:11:18.165802 13919 net.cpp:98] Setting up inception_5b/relu_5x5
I0906 13:11:18.165810 13919 net.cpp:105] Top shape: 64 128 7 7 (401408)
I0906 13:11:18.165819 13919 layer_factory.hpp:78] Creating layer inception_5b/pool
I0906 13:11:18.165839 13919 net.cpp:69] Creating Layer inception_5b/pool
I0906 13:11:18.165848 13919 net.cpp:396] inception_5b/pool <- inception_5a/output_inception_5a/output_0_split_3
I0906 13:11:18.165859 13919 net.cpp:358] inception_5b/pool -> inception_5b/pool
I0906 13:11:18.165870 13919 net.cpp:98] Setting up inception_5b/pool
I0906 13:11:18.165879 13919 net.cpp:105] Top shape: 64 832 7 7 (2609152)
I0906 13:11:18.165889 13919 layer_factory.hpp:78] Creating layer inception_5b/pool_proj
I0906 13:11:18.165900 13919 net.cpp:69] Creating Layer inception_5b/pool_proj
I0906 13:11:18.165910 13919 net.cpp:396] inception_5b/pool_proj <- inception_5b/pool
I0906 13:11:18.165922 13919 net.cpp:358] inception_5b/pool_proj -> inception_5b/pool_proj
I0906 13:11:18.165933 13919 net.cpp:98] Setting up inception_5b/pool_proj
I0906 13:11:18.166777 13919 net.cpp:105] Top shape: 64 128 7 7 (401408)
I0906 13:11:18.166797 13919 layer_factory.hpp:78] Creating layer inception_5b/relu_pool_proj
I0906 13:11:18.166808 13919 net.cpp:69] Creating Layer inception_5b/relu_pool_proj
I0906 13:11:18.166817 13919 net.cpp:396] inception_5b/relu_pool_proj <- inception_5b/pool_proj
I0906 13:11:18.166829 13919 net.cpp:347] inception_5b/relu_pool_proj -> inception_5b/pool_proj (in-place)
I0906 13:11:18.166841 13919 net.cpp:98] Setting up inception_5b/relu_pool_proj
I0906 13:11:18.166849 13919 net.cpp:105] Top shape: 64 128 7 7 (401408)
I0906 13:11:18.166857 13919 layer_factory.hpp:78] Creating layer inception_5b/output
I0906 13:11:18.166868 13919 net.cpp:69] Creating Layer inception_5b/output
I0906 13:11:18.166884 13919 net.cpp:396] inception_5b/output <- inception_5b/1x1
I0906 13:11:18.166893 13919 net.cpp:396] inception_5b/output <- inception_5b/3x3
I0906 13:11:18.166903 13919 net.cpp:396] inception_5b/output <- inception_5b/5x5
I0906 13:11:18.166913 13919 net.cpp:396] inception_5b/output <- inception_5b/pool_proj
I0906 13:11:18.166924 13919 net.cpp:358] inception_5b/output -> inception_5b/output
I0906 13:11:18.166935 13919 net.cpp:98] Setting up inception_5b/output
I0906 13:11:18.166944 13919 net.cpp:105] Top shape: 64 1024 7 7 (3211264)
I0906 13:11:18.166952 13919 layer_factory.hpp:78] Creating layer pool5/7x7_s1
I0906 13:11:18.166963 13919 net.cpp:69] Creating Layer pool5/7x7_s1
I0906 13:11:18.166971 13919 net.cpp:396] pool5/7x7_s1 <- inception_5b/output
I0906 13:11:18.166981 13919 net.cpp:358] pool5/7x7_s1 -> pool5/7x7_s1
I0906 13:11:18.166991 13919 net.cpp:98] Setting up pool5/7x7_s1
I0906 13:11:18.167001 13919 net.cpp:105] Top shape: 64 1024 1 1 (65536)
I0906 13:11:18.167008 13919 layer_factory.hpp:78] Creating layer pool5/drop_7x7_s1
I0906 13:11:18.167021 13919 net.cpp:69] Creating Layer pool5/drop_7x7_s1
I0906 13:11:18.167029 13919 net.cpp:396] pool5/drop_7x7_s1 <- pool5/7x7_s1
I0906 13:11:18.167039 13919 net.cpp:347] pool5/drop_7x7_s1 -> pool5/7x7_s1 (in-place)
I0906 13:11:18.167049 13919 net.cpp:98] Setting up pool5/drop_7x7_s1
I0906 13:11:18.167058 13919 net.cpp:105] Top shape: 64 1024 1 1 (65536)
I0906 13:11:18.167067 13919 layer_factory.hpp:78] Creating layer loss3/classifier_cub
I0906 13:11:18.167076 13919 net.cpp:69] Creating Layer loss3/classifier_cub
I0906 13:11:18.167084 13919 net.cpp:396] loss3/classifier_cub <- pool5/7x7_s1
I0906 13:11:18.167096 13919 net.cpp:358] loss3/classifier_cub -> loss3/classifier
I0906 13:11:18.167109 13919 net.cpp:98] Setting up loss3/classifier_cub
I0906 13:11:18.173635 13919 net.cpp:105] Top shape: 64 200 1 1 (12800)
I0906 13:11:18.173662 13919 layer_factory.hpp:78] Creating layer loss3/classifier_loss3/classifier_cub_0_split
I0906 13:11:18.173687 13919 net.cpp:69] Creating Layer loss3/classifier_loss3/classifier_cub_0_split
I0906 13:11:18.173697 13919 net.cpp:396] loss3/classifier_loss3/classifier_cub_0_split <- loss3/classifier
I0906 13:11:18.173710 13919 net.cpp:358] loss3/classifier_loss3/classifier_cub_0_split -> loss3/classifier_loss3/classifier_cub_0_split_0
I0906 13:11:18.173723 13919 net.cpp:358] loss3/classifier_loss3/classifier_cub_0_split -> loss3/classifier_loss3/classifier_cub_0_split_1
I0906 13:11:18.173735 13919 net.cpp:358] loss3/classifier_loss3/classifier_cub_0_split -> loss3/classifier_loss3/classifier_cub_0_split_2
I0906 13:11:18.173754 13919 net.cpp:98] Setting up loss3/classifier_loss3/classifier_cub_0_split
I0906 13:11:18.173764 13919 net.cpp:105] Top shape: 64 200 1 1 (12800)
I0906 13:11:18.173773 13919 net.cpp:105] Top shape: 64 200 1 1 (12800)
I0906 13:11:18.173780 13919 net.cpp:105] Top shape: 64 200 1 1 (12800)
I0906 13:11:18.173789 13919 layer_factory.hpp:78] Creating layer loss3/loss3
I0906 13:11:18.173801 13919 net.cpp:69] Creating Layer loss3/loss3
I0906 13:11:18.173810 13919 net.cpp:396] loss3/loss3 <- loss3/classifier_loss3/classifier_cub_0_split_0
I0906 13:11:18.173820 13919 net.cpp:396] loss3/loss3 <- label_data_1_split_6
I0906 13:11:18.173830 13919 net.cpp:358] loss3/loss3 -> loss3/loss3
I0906 13:11:18.173840 13919 net.cpp:98] Setting up loss3/loss3
I0906 13:11:18.173872 13919 net.cpp:105] Top shape: 1 1 1 1 (1)
I0906 13:11:18.173882 13919 net.cpp:111]     with loss weight 1
I0906 13:11:18.173897 13919 layer_factory.hpp:78] Creating layer loss3/top-1
I0906 13:11:18.173908 13919 net.cpp:69] Creating Layer loss3/top-1
I0906 13:11:18.173918 13919 net.cpp:396] loss3/top-1 <- loss3/classifier_loss3/classifier_cub_0_split_1
I0906 13:11:18.173928 13919 net.cpp:396] loss3/top-1 <- label_data_1_split_7
I0906 13:11:18.173941 13919 net.cpp:358] loss3/top-1 -> loss3/top-1
I0906 13:11:18.173952 13919 net.cpp:98] Setting up loss3/top-1
I0906 13:11:18.173961 13919 net.cpp:105] Top shape: 1 1 1 1 (1)
I0906 13:11:18.173969 13919 layer_factory.hpp:78] Creating layer loss3/top-5
I0906 13:11:18.173979 13919 net.cpp:69] Creating Layer loss3/top-5
I0906 13:11:18.173988 13919 net.cpp:396] loss3/top-5 <- loss3/classifier_loss3/classifier_cub_0_split_2
I0906 13:11:18.173997 13919 net.cpp:396] loss3/top-5 <- label_data_1_split_8
I0906 13:11:18.174007 13919 net.cpp:358] loss3/top-5 -> loss3/top-5
I0906 13:11:18.174018 13919 net.cpp:98] Setting up loss3/top-5
I0906 13:11:18.174026 13919 net.cpp:105] Top shape: 1 1 1 1 (1)
I0906 13:11:18.174034 13919 net.cpp:174] loss3/top-5 does not need backward computation.
I0906 13:11:18.174042 13919 net.cpp:174] loss3/top-1 does not need backward computation.
I0906 13:11:18.174051 13919 net.cpp:172] loss3/loss3 needs backward computation.
I0906 13:11:18.174058 13919 net.cpp:172] loss3/classifier_loss3/classifier_cub_0_split needs backward computation.
I0906 13:11:18.174067 13919 net.cpp:172] loss3/classifier_cub needs backward computation.
…
