…
I0907 00:06:24.958019 92039 net.cpp:339] The NetState phase (0) differed from the phase (1) specified by a rule in layer loss3/top-5
I0907 00:06:24.960232 92039 net.cpp:50] Initializing net from parameters: 
name: "CUBNet"
state {
  phase: TRAIN
}
layer {
  name: "data"
  type: "ImageData"
  top: "data"
  top: "label"
  include {
    phase: TRAIN
  }
  transform_param {
    mirror: true
    crop_size: 224
    mean_value: 104
    mean_value: 117
    mean_value: 123
  }
  image_data_param {
    source: "data/CUB_200_2011/train_files.txt"
    batch_size: 32
    shuffle: true
    new_height: 256
    new_width: 256
  }
}
layer {
  name: "conv1/7x7_s2"
  type: "Convolution"
  bottom: "data"
  top: "conv1/7x7_s2"
  param {
    lr_mult: 1
    decay_mult: 1
  }
  param {
    lr_mult: 2
    decay_mult: 0
  }
  convolution_param {
    num_output: 64
    pad: 3
    kernel_size: 7
    stride: 2
    weight_filler {
      type: "xavier"
      std: 0.1
    }
    bias_filler {
      type: "constant"
      value: 0.2
    }
  }
}
layer {
  name: "conv1/relu_7x7"
  type: "ReLU"
  bottom: "conv1/7x7_s2"
  top: "conv1/7x7_s2"
}
layer {
  name: "pool1/3x3_s2"
  type: "Pooling"
  bottom: "conv1/7x7_s2"
  top: "pool1/3x3_s2"
  pooling_param {
    pool: MAX
    kernel_size: 3
    stride: 2
  }
}
layer {
  name: "pool1/norm1"
  type: "LRN"
  bottom: "pool1/3x3_s2"
  top: "pool1/norm1"
  lrn_param {
    local_size: 5
    alpha: 0.0001
    beta: 0.75
  }
}
layer {
  name: "conv2/3x3_reduce"
  type: "Convolution"
  bottom: "pool1/norm1"
  top: "conv2/3x3_reduce"
  param {
    lr_mult: 1
    decay_mult: 1
  }
  param {
    lr_mult: 2
    decay_mult: 0
  }
  convolution_param {
    num_output: 64
    kernel_size: 1
    weight_filler {
      type: "xavier"
      std: 0.1
    }
    bias_filler {
      type: "constant"
      value: 0.2
    }
  }
}
layer {
  name: "conv2/relu_3x3_reduce"
  type: "ReLU"
  bottom: "conv2/3x3_reduce"
  top: "conv2/3x3_reduce"
}
layer {
  name: "conv2/3x3"
  type: "Convolution"
  bottom: "conv2/3x3_reduce"
  top: "conv2/3x3"
  param {
    lr_mult: 1
    decay_mult: 1
  }
  param {
    lr_mult: 2
    decay_mult: 0
  }
  convolution_param {
    num_output: 192
    pad: 1
    kernel_size: 3
    weight_filler {
      type: "xavier"
      std: 0.03
    }
    bias_filler {
      type: "constant"
      value: 0.2
    }
  }
}
layer {
  name: "conv2/relu_3x3"
  type: "ReLU"
  bottom: "conv2/3x3"
  top: "conv2/3x3"
}
layer {
  name: "conv2/norm2"
  type: "LRN"
  bottom: "conv2/3x3"
  top: "conv2/norm2"
  lrn_param {
    local_size: 5
    alpha: 0.0001
    beta: 0.75
  }
}
layer {
  name: "pool2/3x3_s2"
  type: "Pooling"
  bottom: "conv2/norm2"
  top: "pool2/3x3_s2"
  pooling_param {
    pool: MAX
    kernel_size: 3
    stride: 2
  }
}
layer {
  name: "inception_3a/1x1"
  type: "Convolution"
  bottom: "pool2/3x3_s2"
  top: "inception_3a/1x1"
  param {
    lr_mult: 1
    decay_mult: 1
  }
  param {
    lr_mult: 2
    decay_mult: 0
  }
  convolution_param {
    num_output: 64
    kernel_size: 1
    weight_filler {
      type: "xavier"
      std: 0.03
    }
    bias_filler {
      type: "constant"
      value: 0.2
    }
  }
}
layer {
  name: "inception_3a/relu_1x1"
  type: "ReLU"
  bottom: "inception_3a/1x1"
  top: "inception_3a/1x1"
}
layer {
  name: "inception_3a/3x3_reduce"
  type: "Convolution"
  bottom: "pool2/3x3_s2"
  top: "inception_3a/3x3_reduce"
  param {
    lr_mult: 1
    decay_mult: 1
  }
  param {
    lr_mult: 2
    decay_mult: 0
  }
  convolution_param {
    num_output: 96
    kernel_size: 1
    weight_filler {
      type: "xavier"
      std: 0.09
    }
    bias_filler {
      type: "constant"
      value: 0.2
    }
  }
}
layer {
  name: "inception_3a/relu_3x3_reduce"
  type: "ReLU"
  bottom: "inception_3a/3x3_reduce"
  top: "inception_3a/3x3_reduce"
}
layer {
  name: "inception_3a/3x3"
  type: "Convolution"
  bottom: "inception_3a/3x3_reduce"
  top: "inception_3a/3x3"
  param {
    lr_mult: 1
    decay_mult: 1
  }
  param {
    lr_mult: 2
    decay_mult: 0
  }
  convolution_param {
    num_output: 128
    pad: 1
    kernel_size: 3
    weight_filler {
      type: "xavier"
      std: 0.03
    }
    bias_filler {
      type: "constant"
      value: 0.2
    }
  }
}
layer {
  name: "inception_3a/relu_3x3"
  type: "ReLU"
  bottom: "inception_3a/3x3"
  top: "inception_3a/3x3"
}
layer {
  name: "inception_3a/5x5_reduce"
  type: "Convolution"
  bottom: "pool2/3x3_s2"
  top: "inception_3a/5x5_reduce"
  param {
    lr_mult: 1
    decay_mult: 1
  }
  param {
    lr_mult: 2
    decay_mult: 0
  }
  convolution_param {
    num_output: 16
    kernel_size: 1
    weight_filler {
      type: "xavier"
      std: 0.2
    }
    bias_filler {
      type: "constant"
      value: 0.2
    }
  }
}
layer {
  name: "inception_3a/relu_5x5_reduce"
  type: "ReLU"
  bottom: "inception_3a/5x5_reduce"
  top: "inception_3a/5x5_reduce"
}
layer {
  name: "inception_3a/5x5"
  type: "Convolution"
  bottom: "inception_3a/5x5_reduce"
  top: "inception_3a/5x5"
  param {
    lr_mult: 1
    decay_mult: 1
  }
  param {
    lr_mult: 2
    decay_mult: 0
  }
  convolution_param {
    num_output: 32
    pad: 2
    kernel_size: 5
    weight_filler {
      type: "xavier"
      std: 0.03
    }
    bias_filler {
      type: "constant"
      value: 0.2
    }
  }
}
layer {
  name: "inception_3a/relu_5x5"
  type: "ReLU"
  bottom: "inception_3a/5x5"
  top: "inception_3a/5x5"
}
layer {
  name: "inception_3a/pool"
  type: "Pooling"
  bottom: "pool2/3x3_s2"
  top: "inception_3a/pool"
  pooling_param {
    pool: MAX
    kernel_size: 3
    stride: 1
    pad: 1
  }
}
layer {
  name: "inception_3a/pool_proj"
  type: "Convolution"
  bottom: "inception_3a/pool"
  top: "inception_3a/pool_proj"
  param {
    lr_mult: 1
    decay_mult: 1
  }
  param {
    lr_mult: 2
    decay_mult: 0
  }
  convolution_param {
    num_output: 32
    kernel_size: 1
    weight_filler {
      type: "xavier"
      std: 0.1
    }
    bias_filler {
      type: "constant"
      value: 0.2
    }
  }
}
layer {
  name: "inception_3a/relu_pool_proj"
  type: "ReLU"
  bottom: "inception_3a/pool_proj"
  top: "inception_3a/pool_proj"
}
layer {
  name: "inception_3a/output"
  type: "Concat"
  bottom: "inception_3a/1x1"
  bottom: "inception_3a/3x3"
  bottom: "inception_3a/5x5"
  bottom: "inception_3a/pool_proj"
  top: "inception_3a/output"
}
layer {
  name: "inception_3b/1x1"
  type: "Convolution"
  bottom: "inception_3a/output"
  top: "inception_3b/1x1"
  param {
    lr_mult: 1
    decay_mult: 1
  }
  param {
    lr_mult: 2
    decay_mult: 0
  }
  convolution_param {
    num_output: 128
    kernel_size: 1
    weight_filler {
      type: "xavier"
      std: 0.03
    }
    bias_filler {
      type: "constant"
      value: 0.2
    }
  }
}
layer {
  name: "inception_3b/relu_1x1"
  type: "ReLU"
  bottom: "inception_3b/1x1"
  top: "inception_3b/1x1"
}
layer {
  name: "inception_3b/3x3_reduce"
  type: "Convolution"
  bottom: "inception_3a/output"
  top: "inception_3b/3x3_reduce"
  param {
    lr_mult: 1
    decay_mult: 1
  }
  param {
    lr_mult: 2
    decay_mult: 0
  }
  convolution_param {
    num_output: 128
    kernel_size: 1
    weight_filler {
      type: "xavier"
      std: 0.09
    }
    bias_filler {
      type: "constant"
      value: 0.2
    }
  }
}
layer {
  name: "inception_3b/relu_3x3_reduce"
  type: "ReLU"
  bottom: "inception_3b/3x3_reduce"
  top: "inception_3b/3x3_reduce"
}
layer {
  name: "inception_3b/3x3"
  type: "Convolution"
  bottom: "inception_3b/3x3_reduce"
  top: "inception_3b/3x3"
  param {
    lr_mult: 1
    decay_mult: 1
  }
  param {
    lr_mult: 2
    decay_mult: 0
  }
  convolution_param {
    num_output: 192
    pad: 1
    kernel_size: 3
    weight_filler {
      type: "xavier"
      std: 0.03
    }
    bias_filler {
      type: "constant"
      value: 0.2
    }
  }
}
layer {
  name: "inception_3b/relu_3x3"
  type: "ReLU"
  bottom: "inception_3b/3x3"
  top: "inception_3b/3x3"
}
layer {
  name: "inception_3b/5x5_reduce"
  type: "Convolution"
  bottom: "inception_3a/output"
  top: "inception_3b/5x5_reduce"
  param {
    lr_mult: 1
    decay_mult: 1
  }
  param {
    lr_mult: 2
    decay_mult: 0
  }
  convolution_param {
    num_output: 32
    kernel_size: 1
    weight_filler {
      type: "xavier"
      std: 0.2
    }
    bias_filler {
      type: "constant"
      value: 0.2
    }
  }
}
layer {
  name: "inception_3b/relu_5x5_reduce"
  type: "ReLU"
  bottom: "inception_3b/5x5_reduce"
  top: "inception_3b/5x5_reduce"
}
layer {
  name: "inception_3b/5x5"
  type: "Convolution"
  bottom: "inception_3b/5x5_reduce"
  top: "inception_3b/5x5"
  param {
    lr_mult: 1
    decay_mult: 1
  }
  param {
    lr_mult: 2
    decay_mult: 0
  }
  convolution_param {
    num_output: 96
    pad: 2
    kernel_size: 5
    weight_filler {
      type: "xavier"
      std: 0.03
    }
    bias_filler {
      type: "constant"
      value: 0.2
    }
  }
}
layer {
  name: "inception_3b/relu_5x5"
  type: "ReLU"
  bottom: "inception_3b/5x5"
  top: "inception_3b/5x5"
}
layer {
  name: "inception_3b/pool"
  type: "Pooling"
  bottom: "inception_3a/output"
  top: "inception_3b/pool"
  pooling_param {
    pool: MAX
    kernel_size: 3
    stride: 1
    pad: 1
  }
}
layer {
  name: "inception_3b/pool_proj"
  type: "Convolution"
  bottom: "inception_3b/pool"
  top: "inception_3b/pool_proj"
  param {
    lr_mult: 1
    decay_mult: 1
  }
  param {
    lr_mult: 2
    decay_mult: 0
  }
  convolution_param {
    num_output: 64
    kernel_size: 1
    weight_filler {
      type: "xavier"
      std: 0.1
    }
    bias_filler {
      type: "constant"
      value: 0.2
    }
  }
}
layer {
  name: "inception_3b/relu_pool_proj"
  type: "ReLU"
  bottom: "inception_3b/pool_proj"
  top: "inception_3b/pool_proj"
}
layer {
  name: "inception_3b/output"
  type: "Concat"
  bottom: "inception_3b/1x1"
  bottom: "inception_3b/3x3"
  bottom: "inception_3b/5x5"
  bottom: "inception_3b/pool_proj"
  top: "inception_3b/output"
}
layer {
  name: "pool3/3x3_s2"
  type: "Pooling"
  bottom: "inception_3b/output"
  top: "pool3/3x3_s2"
  pooling_param {
    pool: MAX
    kernel_size: 3
    stride: 2
  }
}
layer {
  name: "inception_4a/1x1"
  type: "Convolution"
  bottom: "pool3/3x3_s2"
  top: "inception_4a/1x1"
  param {
    lr_mult: 1
    decay_mult: 1
  }
  param {
    lr_mult: 2
    decay_mult: 0
  }
  convolution_param {
    num_output: 192
    kernel_size: 1
    weight_filler {
      type: "xavier"
      std: 0.03
    }
    bias_filler {
      type: "constant"
      value: 0.2
    }
  }
}
layer {
  name: "inception_4a/relu_1x1"
  type: "ReLU"
  bottom: "inception_4a/1x1"
  top: "inception_4a/1x1"
}
layer {
  name: "inception_4a/3x3_reduce"
  type: "Convolution"
  bottom: "pool3/3x3_s2"
  top: "inception_4a/3x3_reduce"
  param {
    lr_mult: 1
    decay_mult: 1
  }
  param {
    lr_mult: 2
    decay_mult: 0
  }
  convolution_param {
    num_output: 96
    kernel_size: 1
    weight_filler {
      type: "xavier"
      std: 0.09
    }
    bias_filler {
      type: "constant"
      value: 0.2
    }
  }
}
layer {
  name: "inception_4a/relu_3x3_reduce"
  type: "ReLU"
  bottom: "inception_4a/3x3_reduce"
  top: "inception_4a/3x3_reduce"
}
layer {
  name: "inception_4a/3x3"
  type: "Convolution"
  bottom: "inception_4a/3x3_reduce"
  top: "inception_4a/3x3"
  param {
    lr_mult: 1
    decay_mult: 1
  }
  param {
    lr_mult: 2
    decay_mult: 0
  }
  convolution_param {
    num_output: 208
    pad: 1
    kernel_size: 3
    weight_filler {
      type: "xavier"
      std: 0.03
    }
    bias_filler {
      type: "constant"
      value: 0.2
    }
  }
}
layer {
  name: "inception_4a/relu_3x3"
  type: "ReLU"
  bottom: "inception_4a/3x3"
  top: "inception_4a/3x3"
}
layer {
  name: "inception_4a/5x5_reduce"
  type: "Convolution"
  bottom: "pool3/3x3_s2"
  top: "inception_4a/5x5_reduce"
  param {
    lr_mult: 1
    decay_mult: 1
  }
  param {
    lr_mult: 2
    decay_mult: 0
  }
  convolution_param {
    num_output: 16
    kernel_size: 1
    weight_filler {
      type: "xavier"
      std: 0.2
    }
    bias_filler {
      type: "constant"
      value: 0.2
    }
  }
}
layer {
  name: "inception_4a/relu_5x5_reduce"
  type: "ReLU"
  bottom: "inception_4a/5x5_reduce"
  top: "inception_4a/5x5_reduce"
}
layer {
  name: "inception_4a/5x5"
  type: "Convolution"
  bottom: "inception_4a/5x5_reduce"
  top: "inception_4a/5x5"
  param {
    lr_mult: 1
    decay_mult: 1
  }
  param {
    lr_mult: 2
    decay_mult: 0
  }
  convolution_param {
    num_output: 48
    pad: 2
    kernel_size: 5
    weight_filler {
      type: "xavier"
      std: 0.03
    }
    bias_filler {
      type: "constant"
      value: 0.2
    }
  }
}
layer {
  name: "inception_4a/relu_5x5"
  type: "ReLU"
  bottom: "inception_4a/5x5"
  top: "inception_4a/5x5"
}
layer {
  name: "inception_4a/pool"
  type: "Pooling"
  bottom: "pool3/3x3_s2"
  top: "inception_4a/pool"
  pooling_param {
    pool: MAX
    kernel_size: 3
    stride: 1
    pad: 1
  }
}
layer {
  name: "inception_4a/pool_proj"
  type: "Convolution"
  bottom: "inception_4a/pool"
  top: "inception_4a/pool_proj"
  param {
    lr_mult: 1
    decay_mult: 1
  }
  param {
    lr_mult: 2
    decay_mult: 0
  }
  convolution_param {
    num_output: 64
    kernel_size: 1
    weight_filler {
      type: "xavier"
      std: 0.1
    }
    bias_filler {
      type: "constant"
      value: 0.2
    }
  }
}
layer {
  name: "inception_4a/relu_pool_proj"
  type: "ReLU"
  bottom: "inception_4a/pool_proj"
  top: "inception_4a/pool_proj"
}
layer {
  name: "inception_4a/output"
  type: "Concat"
  bottom: "inception_4a/1x1"
  bottom: "inception_4a/3x3"
  bottom: "inception_4a/5x5"
  bottom: "inception_4a/pool_proj"
  top: "inception_4a/output"
}
layer {
  name: "loss1/ave_pool"
  type: "Pooling"
  bottom: "inception_4a/output"
  top: "loss1/ave_pool"
  pooling_param {
    pool: AVE
    kernel_size: 5
    stride: 3
  }
}
layer {
  name: "loss1/conv"
  type: "Convolution"
  bottom: "loss1/ave_pool"
  top: "loss1/conv"
  param {
    lr_mult: 1
    decay_mult: 1
  }
  param {
    lr_mult: 2
    decay_mult: 0
  }
  convolution_param {
    num_output: 128
    kernel_size: 1
    weight_filler {
      type: "xavier"
      std: 0.08
    }
    bias_filler {
      type: "constant"
      value: 0.2
    }
  }
}
layer {
  name: "loss1/relu_conv"
  type: "ReLU"
  bottom: "loss1/conv"
  top: "loss1/conv"
}
layer {
  name: "loss1/fc"
  type: "InnerProduct"
  bottom: "loss1/conv"
  top: "loss1/fc"
  param {
    lr_mult: 1
    decay_mult: 1
  }
  param {
    lr_mult: 2
    decay_mult: 0
  }
  inner_product_param {
    num_output: 1024
    weight_filler {
      type: "xavier"
      std: 0.02
    }
    bias_filler {
      type: "constant"
      value: 0.2
    }
  }
}
layer {
  name: "loss1/relu_fc"
  type: "ReLU"
  bottom: "loss1/fc"
  top: "loss1/fc"
}
layer {
  name: "loss1/drop_fc"
  type: "Dropout"
  bottom: "loss1/fc"
  top: "loss1/fc"
  dropout_param {
    dropout_ratio: 0.7
  }
}
layer {
  name: "loss1/classifier_cub"
  type: "InnerProduct"
  bottom: "loss1/fc"
  top: "loss1/classifier"
  param {
    lr_mult: 1
    decay_mult: 1
  }
  param {
    lr_mult: 2
    decay_mult: 0
  }
  inner_product_param {
    num_output: 200
    weight_filler {
      type: "gaussian"
      std: 1e-05
    }
    bias_filler {
      type: "constant"
      value: 0
    }
  }
}
layer {
  name: "loss1/loss"
  type: "SoftmaxWithLoss"
  bottom: "loss1/classifier"
  bottom: "label"
  top: "loss1/loss1"
  loss_weight: 0.3
}
layer {
  name: "inception_4b/1x1"
  type: "Convolution"
  bottom: "inception_4a/output"
  top: "inception_4b/1x1"
  param {
    lr_mult: 1
    decay_mult: 1
  }
  param {
    lr_mult: 2
    decay_mult: 0
  }
  convolution_param {
    num_output: 160
    kernel_size: 1
    weight_filler {
      type: "xavier"
      std: 0.03
    }
    bias_filler {
      type: "constant"
      value: 0.2
    }
  }
}
layer {
  name: "inception_4b/relu_1x1"
  type: "ReLU"
  bottom: "inception_4b/1x1"
  top: "inception_4b/1x1"
}
layer {
  name: "inception_4b/3x3_reduce"
  type: "Convolution"
  bottom: "inception_4a/output"
  top: "inception_4b/3x3_reduce"
  param {
    lr_mult: 1
    decay_mult: 1
  }
  param {
    lr_mult: 2
    decay_mult: 0
  }
  convolution_param {
    num_output: 112
    kernel_size: 1
    weight_filler {
      type: "xavier"
      std: 0.09
    }
    bias_filler {
      type: "constant"
      value: 0.2
    }
  }
}
layer {
  name: "inception_4b/relu_3x3_reduce"
  type: "ReLU"
  bottom: "inception_4b/3x3_reduce"
  top: "inception_4b/3x3_reduce"
}
layer {
  name: "inception_4b/3x3"
  type: "Convolution"
  bottom: "inception_4b/3x3_reduce"
  top: "inception_4b/3x3"
  param {
    lr_mult: 1
    decay_mult: 1
  }
  param {
    lr_mult: 2
    decay_mult: 0
  }
  convolution_param {
    num_output: 224
    pad: 1
    kernel_size: 3
    weight_filler {
      type: "xavier"
      std: 0.03
    }
    bias_filler {
      type: "constant"
      value: 0.2
    }
  }
}
layer {
  name: "inception_4b/relu_3x3"
  type: "ReLU"
  bottom: "inception_4b/3x3"
  top: "inception_4b/3x3"
}
layer {
  name: "inception_4b/5x5_reduce"
  type: "Convolution"
  bottom: "inception_4a/output"
  top: "inception_4b/5x5_reduce"
  param {
    lr_mult: 1
    decay_mult: 1
  }
  param {
    lr_mult: 2
    decay_mult: 0
  }
  convolution_param {
    num_output: 24
    kernel_size: 1
    weight_filler {
      type: "xavier"
      std: 0.2
    }
    bias_filler {
      type: "constant"
      value: 0.2
    }
  }
}
layer {
  name: "inception_4b/relu_5x5_reduce"
  type: "ReLU"
  bottom: "inception_4b/5x5_reduce"
  top: "inception_4b/5x5_reduce"
}
layer {
  name: "inception_4b/5x5"
  type: "Convolution"
  bottom: "inception_4b/5x5_reduce"
  top: "inception_4b/5x5"
  param {
    lr_mult: 1
    decay_mult: 1
  }
  param {
    lr_mult: 2
    decay_mult: 0
  }
  convolution_param {
    num_output: 64
    pad: 2
    kernel_size: 5
    weight_filler {
      type: "xavier"
      std: 0.03
    }
    bias_filler {
      type: "constant"
      value: 0.2
    }
  }
}
layer {
  name: "inception_4b/relu_5x5"
  type: "ReLU"
  bottom: "inception_4b/5x5"
  top: "inception_4b/5x5"
}
layer {
  name: "inception_4b/pool"
  type: "Pooling"
  bottom: "inception_4a/output"
  top: "inception_4b/pool"
  pooling_param {
    pool: MAX
    kernel_size: 3
    stride: 1
    pad: 1
  }
}
layer {
  name: "inception_4b/pool_proj"
  type: "Convolution"
  bottom: "inception_4b/pool"
  top: "inception_4b/pool_proj"
  param {
    lr_mult: 1
    decay_mult: 1
  }
  param {
    lr_mult: 2
    decay_mult: 0
  }
  convolution_param {
    num_output: 64
    kernel_size: 1
    weight_filler {
      type: "xavier"
      std: 0.1
    }
    bias_filler {
      type: "constant"
      value: 0.2
    }
  }
}
layer {
  name: "inception_4b/relu_pool_proj"
  type: "ReLU"
  bottom: "inception_4b/pool_proj"
  top: "inception_4b/pool_proj"
}
layer {
  name: "inception_4b/output"
  type: "Concat"
  bottom: "inception_4b/1x1"
  bottom: "inception_4b/3x3"
  bottom: "inception_4b/5x5"
  bottom: "inception_4b/pool_proj"
  top: "inception_4b/output"
}
layer {
  name: "inception_4c/1x1"
  type: "Convolution"
  bottom: "inception_4b/output"
  top: "inception_4c/1x1"
  param {
    lr_mult: 1
    decay_mult: 1
  }
  param {
    lr_mult: 2
    decay_mult: 0
  }
  convolution_param {
    num_output: 128
    kernel_size: 1
    weight_filler {
      type: "xavier"
      std: 0.03
    }
    bias_filler {
      type: "constant"
      value: 0.2
    }
  }
}
layer {
  name: "inception_4c/relu_1x1"
  type: "ReLU"
  bottom: "inception_4c/1x1"
  top: "inception_4c/1x1"
}
layer {
  name: "inception_4c/3x3_reduce"
  type: "Convolution"
  bottom: "inception_4b/output"
  top: "inception_4c/3x3_reduce"
  param {
    lr_mult: 1
    decay_mult: 1
  }
  param {
    lr_mult: 2
    decay_mult: 0
  }
  convolution_param {
    num_output: 128
    kernel_size: 1
    weight_filler {
      type: "xavier"
      std: 0.09
    }
    bias_filler {
      type: "constant"
      value: 0.2
    }
  }
}
layer {
  name: "inception_4c/relu_3x3_reduce"
  type: "ReLU"
  bottom: "inception_4c/3x3_reduce"
  top: "inception_4c/3x3_reduce"
}
layer {
  name: "inception_4c/3x3"
  type: "Convolution"
  bottom: "inception_4c/3x3_reduce"
  top: "inception_4c/3x3"
  param {
    lr_mult: 1
    decay_mult: 1
  }
  param {
    lr_mult: 2
    decay_mult: 0
  }
  convolution_param {
    num_output: 256
    pad: 1
    kernel_size: 3
    weight_filler {
      type: "xavier"
      std: 0.03
    }
    bias_filler {
      type: "constant"
      value: 0.2
    }
  }
}
layer {
  name: "inception_4c/relu_3x3"
  type: "ReLU"
  bottom: "inception_4c/3x3"
  top: "inception_4c/3x3"
}
layer {
  name: "inception_4c/5x5_reduce"
  type: "Convolution"
  bottom: "inception_4b/output"
  top: "inception_4c/5x5_reduce"
  param {
    lr_mult: 1
    decay_mult: 1
  }
  param {
    lr_mult: 2
    decay_mult: 0
  }
  convolution_param {
    num_output: 24
    kernel_size: 1
    weight_filler {
      type: "xavier"
      std: 0.2
    }
    bias_filler {
      type: "constant"
      value: 0.2
    }
  }
}
layer {
  name: "inception_4c/relu_5x5_reduce"
  type: "ReLU"
  bottom: "inception_4c/5x5_reduce"
  top: "inception_4c/5x5_reduce"
}
layer {
  name: "inception_4c/5x5"
  type: "Convolution"
  bottom: "inception_4c/5x5_reduce"
  top: "inception_4c/5x5"
  param {
    lr_mult: 1
    decay_mult: 1
  }
  param {
    lr_mult: 2
    decay_mult: 0
  }
  convolution_param {
    num_output: 64
    pad: 2
    kernel_size: 5
    weight_filler {
      type: "xavier"
      std: 0.03
    }
    bias_filler {
      type: "constant"
      value: 0.2
    }
  }
}
layer {
  name: "inception_4c/relu_5x5"
  type: "ReLU"
  bottom: "inception_4c/5x5"
  top: "inception_4c/5x5"
}
layer {
  name: "inception_4c/pool"
  type: "Pooling"
  bottom: "inception_4b/output"
  top: "inception_4c/pool"
  pooling_param {
    pool: MAX
    kernel_size: 3
    stride: 1
    pad: 1
  }
}
layer {
  name: "inception_4c/pool_proj"
  type: "Convolution"
  bottom: "inception_4c/pool"
  top: "inception_4c/pool_proj"
  param {
    lr_mult: 1
    decay_mult: 1
  }
  param {
    lr_mult: 2
    decay_mult: 0
  }
  convolution_param {
    num_output: 64
    kernel_size: 1
    weight_filler {
      type: "xavier"
      std: 0.1
    }
    bias_filler {
      type: "constant"
      value: 0.2
    }
  }
}
layer {
  name: "inception_4c/relu_pool_proj"
  type: "ReLU"
  bottom: "inception_4c/pool_proj"
  top: "inception_4c/pool_proj"
}
layer {
  name: "inception_4c/output"
  type: "Concat"
  bottom: "inception_4c/1x1"
  bottom: "inception_4c/3x3"
  bottom: "inception_4c/5x5"
  bottom: "inception_4c/pool_proj"
  top: "inception_4c/output"
}
layer {
  name: "inception_4d/1x1"
  type: "Convolution"
  bottom: "inception_4c/output"
  top: "inception_4d/1x1"
  param {
    lr_mult: 1
    decay_mult: 1
  }
  param {
    lr_mult: 2
    decay_mult: 0
  }
  convolution_param {
    num_output: 112
    kernel_size: 1
    weight_filler {
      type: "xavier"
      std: 0.03
    }
    bias_filler {
      type: "constant"
      value: 0.2
    }
  }
}
layer {
  name: "inception_4d/relu_1x1"
  type: "ReLU"
  bottom: "inception_4d/1x1"
  top: "inception_4d/1x1"
}
layer {
  name: "inception_4d/3x3_reduce"
  type: "Convolution"
  bottom: "inception_4c/output"
  top: "inception_4d/3x3_reduce"
  param {
    lr_mult: 1
    decay_mult: 1
  }
  param {
    lr_mult: 2
    decay_mult: 0
  }
  convolution_param {
    num_output: 144
    kernel_size: 1
    weight_filler {
      type: "xavier"
      std: 0.09
    }
    bias_filler {
      type: "constant"
      value: 0.2
    }
  }
}
layer {
  name: "inception_4d/relu_3x3_reduce"
  type: "ReLU"
  bottom: "inception_4d/3x3_reduce"
  top: "inception_4d/3x3_reduce"
}
layer {
  name: "inception_4d/3x3"
  type: "Convolution"
  bottom: "inception_4d/3x3_reduce"
  top: "inception_4d/3x3"
  param {
    lr_mult: 1
    decay_mult: 1
  }
  param {
    lr_mult: 2
    decay_mult: 0
  }
  convolution_param {
    num_output: 288
    pad: 1
    kernel_size: 3
    weight_filler {
      type: "xavier"
      std: 0.03
    }
    bias_filler {
      type: "constant"
      value: 0.2
    }
  }
}
layer {
  name: "inception_4d/relu_3x3"
  type: "ReLU"
  bottom: "inception_4d/3x3"
  top: "inception_4d/3x3"
}
layer {
  name: "inception_4d/5x5_reduce"
  type: "Convolution"
  bottom: "inception_4c/output"
  top: "inception_4d/5x5_reduce"
  param {
    lr_mult: 1
    decay_mult: 1
  }
  param {
    lr_mult: 2
    decay_mult: 0
  }
  convolution_param {
    num_output: 32
    kernel_size: 1
    weight_filler {
      type: "xavier"
      std: 0.2
    }
    bias_filler {
      type: "constant"
      value: 0.2
    }
  }
}
layer {
  name: "inception_4d/relu_5x5_reduce"
  type: "ReLU"
  bottom: "inception_4d/5x5_reduce"
  top: "inception_4d/5x5_reduce"
}
layer {
  name: "inception_4d/5x5"
  type: "Convolution"
  bottom: "inception_4d/5x5_reduce"
  top: "inception_4d/5x5"
  param {
    lr_mult: 1
    decay_mult: 1
  }
  param {
    lr_mult: 2
    decay_mult: 0
  }
  convolution_param {
    num_output: 64
    pad: 2
    kernel_size: 5
    weight_filler {
      type: "xavier"
      std: 0.03
    }
    bias_filler {
      type: "constant"
      value: 0.2
    }
  }
}
layer {
  name: "inception_4d/relu_5x5"
  type: "ReLU"
  bottom: "inception_4d/5x5"
  top: "inception_4d/5x5"
}
layer {
  name: "inception_4d/pool"
  type: "Pooling"
  bottom: "inception_4c/output"
  top: "inception_4d/pool"
  pooling_param {
    pool: MAX
    kernel_size: 3
    stride: 1
    pad: 1
  }
}
layer {
  name: "inception_4d/pool_proj"
  type: "Convolution"
  bottom: "inception_4d/pool"
  top: "inception_4d/pool_proj"
  param {
    lr_mult: 1
    decay_mult: 1
  }
  param {
    lr_mult: 2
    decay_mult: 0
  }
  convolution_param {
    num_output: 64
    kernel_size: 1
    weight_filler {
      type: "xavier"
      std: 0.1
    }
    bias_filler {
      type: "constant"
      value: 0.2
    }
  }
}
layer {
  name: "inception_4d/relu_pool_proj"
  type: "ReLU"
  bottom: "inception_4d/pool_proj"
  top: "inception_4d/pool_proj"
}
layer {
  name: "inception_4d/output"
  type: "Concat"
  bottom: "inception_4d/1x1"
  bottom: "inception_4d/3x3"
  bottom: "inception_4d/5x5"
  bottom: "inception_4d/pool_proj"
  top: "inception_4d/output"
}
layer {
  name: "loss2/ave_pool"
  type: "Pooling"
  bottom: "inception_4d/output"
  top: "loss2/ave_pool"
  pooling_param {
    pool: AVE
    kernel_size: 5
    stride: 3
  }
}
layer {
  name: "loss2/conv"
  type: "Convolution"
  bottom: "loss2/ave_pool"
  top: "loss2/conv"
  param {
    lr_mult: 1
    decay_mult: 1
  }
  param {
    lr_mult: 2
    decay_mult: 0
  }
  convolution_param {
    num_output: 128
    kernel_size: 1
    weight_filler {
      type: "xavier"
      std: 0.08
    }
    bias_filler {
      type: "constant"
      value: 0.2
    }
  }
}
layer {
  name: "loss2/relu_conv"
  type: "ReLU"
  bottom: "loss2/conv"
  top: "loss2/conv"
}
layer {
  name: "loss2/fc"
  type: "InnerProduct"
  bottom: "loss2/conv"
  top: "loss2/fc"
  param {
    lr_mult: 1
    decay_mult: 1
  }
  param {
    lr_mult: 2
    decay_mult: 0
  }
  inner_product_param {
    num_output: 1024
    weight_filler {
      type: "xavier"
      std: 0.02
    }
    bias_filler {
      type: "constant"
      value: 0.2
    }
  }
}
layer {
  name: "loss2/relu_fc"
  type: "ReLU"
  bottom: "loss2/fc"
  top: "loss2/fc"
}
layer {
  name: "loss2/drop_fc"
  type: "Dropout"
  bottom: "loss2/fc"
  top: "loss2/fc"
  dropout_param {
    dropout_ratio: 0.7
  }
}
layer {
  name: "loss2/classifier_cub"
  type: "InnerProduct"
  bottom: "loss2/fc"
  top: "loss2/classifier"
  param {
    lr_mult: 1
    decay_mult: 1
  }
  param {
    lr_mult: 2
    decay_mult: 0
  }
  inner_product_param {
    num_output: 200
    weight_filler {
      type: "gaussian"
      std: 1e-05
    }
    bias_filler {
      type: "constant"
      value: 0
    }
  }
}
layer {
  name: "loss2/loss"
  type: "SoftmaxWithLoss"
  bottom: "loss2/classifier"
  bottom: "label"
  top: "loss2/loss1"
  loss_weight: 0.3
}
layer {
  name: "inception_4e/1x1"
  type: "Convolution"
  bottom: "inception_4d/output"
  top: "inception_4e/1x1"
  param {
    lr_mult: 1
    decay_mult: 1
  }
  param {
    lr_mult: 2
    decay_mult: 0
  }
  convolution_param {
    num_output: 256
    kernel_size: 1
    weight_filler {
      type: "xavier"
      std: 0.03
    }
    bias_filler {
      type: "constant"
      value: 0.2
    }
  }
}
layer {
  name: "inception_4e/relu_1x1"
  type: "ReLU"
  bottom: "inception_4e/1x1"
  top: "inception_4e/1x1"
}
layer {
  name: "inception_4e/3x3_reduce"
  type: "Convolution"
  bottom: "inception_4d/output"
  top: "inception_4e/3x3_reduce"
  param {
    lr_mult: 1
    decay_mult: 1
  }
  param {
    lr_mult: 2
    decay_mult: 0
  }
  convolution_param {
    num_output: 160
    kernel_size: 1
    weight_filler {
      type: "xavier"
      std: 0.09
    }
    bias_filler {
      type: "constant"
      value: 0.2
    }
  }
}
layer {
  name: "inception_4e/relu_3x3_reduce"
  type: "ReLU"
  bottom: "inception_4e/3x3_reduce"
  top: "inception_4e/3x3_reduce"
}
layer {
  name: "inception_4e/3x3"
  type: "Convolution"
  bottom: "inception_4e/3x3_reduce"
  top: "inception_4e/3x3"
  param {
    lr_mult: 1
    decay_mult: 1
  }
  param {
    lr_mult: 2
    decay_mult: 0
  }
  convolution_param {
    num_output: 320
    pad: 1
    kernel_size: 3
    weight_filler {
      type: "xavier"
      std: 0.03
    }
    bias_filler {
      type: "constant"
      value: 0.2
    }
  }
}
layer {
  name: "inception_4e/relu_3x3"
  type: "ReLU"
  bottom: "inception_4e/3x3"
  top: "inception_4e/3x3"
}
layer {
  name: "inception_4e/5x5_reduce"
  type: "Convolution"
  bottom: "inception_4d/output"
  top: "inception_4e/5x5_reduce"
  param {
    lr_mult: 1
    decay_mult: 1
  }
  param {
    lr_mult: 2
    decay_mult: 0
  }
  convolution_param {
    num_output: 32
    kernel_size: 1
    weight_filler {
      type: "xavier"
      std: 0.2
    }
    bias_filler {
      type: "constant"
      value: 0.2
    }
  }
}
l
I0907 00:06:24.961915 92039 layer_factory.hpp:76] Creating layer data
I0907 00:06:24.961990 92039 net.cpp:110] Creating Layer data
I0907 00:06:24.962018 92039 net.cpp:433] data -> data
I0907 00:06:24.962054 92039 net.cpp:433] data -> label
I0907 00:06:24.962893 92039 image_data_layer.cpp:36] Opening file data/CUB_200_2011/train_files.txt
I0907 00:06:24.969645 92039 image_data_layer.cpp:46] Shuffling data
I0907 00:06:24.970559 92039 image_data_layer.cpp:51] A total of 5994 images.
I0907 00:06:24.986454 92039 image_data_layer.cpp:78] output data size: 32,3,224,224
I0907 00:06:25.059018 92039 net.cpp:155] Setting up data
I0907 00:06:25.059083 92039 net.cpp:163] Top shape: 32 3 224 224 (4816896)
I0907 00:06:25.059097 92039 net.cpp:163] Top shape: 32 (32)
I0907 00:06:25.059111 92039 layer_factory.hpp:76] Creating layer label_data_1_split
I0907 00:06:25.059140 92039 net.cpp:110] Creating Layer label_data_1_split
I0907 00:06:25.059151 92039 net.cpp:477] label_data_1_split <- label
I0907 00:06:25.059173 92039 net.cpp:433] label_data_1_split -> label_data_1_split_0
I0907 00:06:25.059247 92039 net.cpp:433] label_data_1_split -> label_data_1_split_1
I0907 00:06:25.059268 92039 net.cpp:433] label_data_1_split -> label_data_1_split_2
I0907 00:06:25.059306 92039 net.cpp:155] Setting up label_data_1_split
I0907 00:06:25.059320 92039 net.cpp:163] Top shape: 32 (32)
I0907 00:06:25.059329 92039 net.cpp:163] Top shape: 32 (32)
I0907 00:06:25.059336 92039 net.cpp:163] Top shape: 32 (32)
I0907 00:06:25.059345 92039 layer_factory.hpp:76] Creating layer conv1/7x7_s2
I0907 00:06:25.059370 92039 net.cpp:110] Creating Layer conv1/7x7_s2
I0907 00:06:25.059383 92039 net.cpp:477] conv1/7x7_s2 <- data
I0907 00:06:25.059396 92039 net.cpp:433] conv1/7x7_s2 -> conv1/7x7_s2
I0907 00:06:25.060822 92039 net.cpp:155] Setting up conv1/7x7_s2
I0907 00:06:25.060849 92039 net.cpp:163] Top shape: 32 64 112 112 (25690112)
I0907 00:06:25.060880 92039 layer_factory.hpp:76] Creating layer conv1/relu_7x7
I0907 00:06:25.060894 92039 net.cpp:110] Creating Layer conv1/relu_7x7
I0907 00:06:25.060902 92039 net.cpp:477] conv1/relu_7x7 <- conv1/7x7_s2
I0907 00:06:25.060914 92039 net.cpp:419] conv1/relu_7x7 -> conv1/7x7_s2 (in-place)
I0907 00:06:25.060930 92039 net.cpp:155] Setting up conv1/relu_7x7
I0907 00:06:25.060940 92039 net.cpp:163] Top shape: 32 64 112 112 (25690112)
I0907 00:06:25.060947 92039 layer_factory.hpp:76] Creating layer pool1/3x3_s2
I0907 00:06:25.060962 92039 net.cpp:110] Creating Layer pool1/3x3_s2
I0907 00:06:25.060969 92039 net.cpp:477] pool1/3x3_s2 <- conv1/7x7_s2
I0907 00:06:25.060981 92039 net.cpp:433] pool1/3x3_s2 -> pool1/3x3_s2
I0907 00:06:25.061013 92039 net.cpp:155] Setting up pool1/3x3_s2
I0907 00:06:25.061028 92039 net.cpp:163] Top shape: 32 64 56 56 (6422528)
I0907 00:06:25.061036 92039 layer_factory.hpp:76] Creating layer pool1/norm1
I0907 00:06:25.061051 92039 net.cpp:110] Creating Layer pool1/norm1
I0907 00:06:25.061058 92039 net.cpp:477] pool1/norm1 <- pool1/3x3_s2
I0907 00:06:25.061069 92039 net.cpp:433] pool1/norm1 -> pool1/norm1
I0907 00:06:25.061089 92039 net.cpp:155] Setting up pool1/norm1
I0907 00:06:25.061099 92039 net.cpp:163] Top shape: 32 64 56 56 (6422528)
I0907 00:06:25.061105 92039 layer_factory.hpp:76] Creating layer conv2/3x3_reduce
I0907 00:06:25.061121 92039 net.cpp:110] Creating Layer conv2/3x3_reduce
I0907 00:06:25.061128 92039 net.cpp:477] conv2/3x3_reduce <- pool1/norm1
I0907 00:06:25.061141 92039 net.cpp:433] conv2/3x3_reduce -> conv2/3x3_reduce
I0907 00:06:25.062456 92039 net.cpp:155] Setting up conv2/3x3_reduce
I0907 00:06:25.062482 92039 net.cpp:163] Top shape: 32 64 56 56 (6422528)
I0907 00:06:25.062504 92039 layer_factory.hpp:76] Creating layer conv2/relu_3x3_reduce
I0907 00:06:25.062520 92039 net.cpp:110] Creating Layer conv2/relu_3x3_reduce
I0907 00:06:25.062527 92039 net.cpp:477] conv2/relu_3x3_reduce <- conv2/3x3_reduce
I0907 00:06:25.062539 92039 net.cpp:419] conv2/relu_3x3_reduce -> conv2/3x3_reduce (in-place)
I0907 00:06:25.062553 92039 net.cpp:155] Setting up conv2/relu_3x3_reduce
I0907 00:06:25.062563 92039 net.cpp:163] Top shape: 32 64 56 56 (6422528)
I0907 00:06:25.062571 92039 layer_factory.hpp:76] Creating layer conv2/3x3
I0907 00:06:25.062589 92039 net.cpp:110] Creating Layer conv2/3x3
I0907 00:06:25.062597 92039 net.cpp:477] conv2/3x3 <- conv2/3x3_reduce
I0907 00:06:25.062609 92039 net.cpp:433] conv2/3x3 -> conv2/3x3
I0907 00:06:25.065562 92039 net.cpp:155] Setting up conv2/3x3
I0907 00:06:25.065588 92039 net.cpp:163] Top shape: 32 192 56 56 (19267584)
I0907 00:06:25.065610 92039 layer_factory.hpp:76] Creating layer conv2/relu_3x3
I0907 00:06:25.065623 92039 net.cpp:110] Creating Layer conv2/relu_3x3
I0907 00:06:25.065630 92039 net.cpp:477] conv2/relu_3x3 <- conv2/3x3
I0907 00:06:25.065641 92039 net.cpp:419] conv2/relu_3x3 -> conv2/3x3 (in-place)
I0907 00:06:25.065655 92039 net.cpp:155] Setting up conv2/relu_3x3
I0907 00:06:25.065665 92039 net.cpp:163] Top shape: 32 192 56 56 (19267584)
I0907 00:06:25.065672 92039 layer_factory.hpp:76] Creating layer conv2/norm2
I0907 00:06:25.065697 92039 net.cpp:110] Creating Layer conv2/norm2
I0907 00:06:25.065727 92039 net.cpp:477] conv2/norm2 <- conv2/3x3
I0907 00:06:25.065740 92039 net.cpp:433] conv2/norm2 -> conv2/norm2
I0907 00:06:25.065757 92039 net.cpp:155] Setting up conv2/norm2
I0907 00:06:25.065784 92039 net.cpp:163] Top shape: 32 192 56 56 (19267584)
I0907 00:06:25.065791 92039 layer_factory.hpp:76] Creating layer pool2/3x3_s2
I0907 00:06:25.065804 92039 net.cpp:110] Creating Layer pool2/3x3_s2
I0907 00:06:25.065810 92039 net.cpp:477] pool2/3x3_s2 <- conv2/norm2
I0907 00:06:25.065820 92039 net.cpp:433] pool2/3x3_s2 -> pool2/3x3_s2
I0907 00:06:25.065836 92039 net.cpp:155] Setting up pool2/3x3_s2
I0907 00:06:25.065845 92039 net.cpp:163] Top shape: 32 192 28 28 (4816896)
I0907 00:06:25.065852 92039 layer_factory.hpp:76] Creating layer pool2/3x3_s2_pool2/3x3_s2_0_split
I0907 00:06:25.065863 92039 net.cpp:110] Creating Layer pool2/3x3_s2_pool2/3x3_s2_0_split
I0907 00:06:25.065871 92039 net.cpp:477] pool2/3x3_s2_pool2/3x3_s2_0_split <- pool2/3x3_s2
I0907 00:06:25.065882 92039 net.cpp:433] pool2/3x3_s2_pool2/3x3_s2_0_split -> pool2/3x3_s2_pool2/3x3_s2_0_split_0
I0907 00:06:25.065896 92039 net.cpp:433] pool2/3x3_s2_pool2/3x3_s2_0_split -> pool2/3x3_s2_pool2/3x3_s2_0_split_1
I0907 00:06:25.065909 92039 net.cpp:433] pool2/3x3_s2_pool2/3x3_s2_0_split -> pool2/3x3_s2_pool2/3x3_s2_0_split_2
I0907 00:06:25.065922 92039 net.cpp:433] pool2/3x3_s2_pool2/3x3_s2_0_split -> pool2/3x3_s2_pool2/3x3_s2_0_split_3
I0907 00:06:25.065935 92039 net.cpp:155] Setting up pool2/3x3_s2_pool2/3x3_s2_0_split
I0907 00:06:25.065956 92039 net.cpp:163] Top shape: 32 192 28 28 (4816896)
I0907 00:06:25.065964 92039 net.cpp:163] Top shape: 32 192 28 28 (4816896)
I0907 00:06:25.065973 92039 net.cpp:163] Top shape: 32 192 28 28 (4816896)
I0907 00:06:25.065980 92039 net.cpp:163] Top shape: 32 192 28 28 (4816896)
I0907 00:06:25.065987 92039 layer_factory.hpp:76] Creating layer inception_3a/1x1
I0907 00:06:25.066001 92039 net.cpp:110] Creating Layer inception_3a/1x1
I0907 00:06:25.066009 92039 net.cpp:477] inception_3a/1x1 <- pool2/3x3_s2_pool2/3x3_s2_0_split_0
I0907 00:06:25.066020 92039 net.cpp:433] inception_3a/1x1 -> inception_3a/1x1
I0907 00:06:25.067180 92039 net.cpp:155] Setting up inception_3a/1x1
I0907 00:06:25.067212 92039 net.cpp:163] Top shape: 32 64 28 28 (1605632)
I0907 00:06:25.067227 92039 layer_factory.hpp:76] Creating layer inception_3a/relu_1x1
I0907 00:06:25.067240 92039 net.cpp:110] Creating Layer inception_3a/relu_1x1
I0907 00:06:25.067248 92039 net.cpp:477] inception_3a/relu_1x1 <- inception_3a/1x1
I0907 00:06:25.067260 92039 net.cpp:419] inception_3a/relu_1x1 -> inception_3a/1x1 (in-place)
I0907 00:06:25.067273 92039 net.cpp:155] Setting up inception_3a/relu_1x1
I0907 00:06:25.067282 92039 net.cpp:163] Top shape: 32 64 28 28 (1605632)
I0907 00:06:25.067291 92039 layer_factory.hpp:76] Creating layer inception_3a/3x3_reduce
I0907 00:06:25.067304 92039 net.cpp:110] Creating Layer inception_3a/3x3_reduce
I0907 00:06:25.067312 92039 net.cpp:477] inception_3a/3x3_reduce <- pool2/3x3_s2_pool2/3x3_s2_0_split_1
I0907 00:06:25.067323 92039 net.cpp:433] inception_3a/3x3_reduce -> inception_3a/3x3_reduce
I0907 00:06:25.068645 92039 net.cpp:155] Setting up inception_3a/3x3_reduce
I0907 00:06:25.068670 92039 net.cpp:163] Top shape: 32 96 28 28 (2408448)
I0907 00:06:25.068691 92039 layer_factory.hpp:76] Creating layer inception_3a/relu_3x3_reduce
I0907 00:06:25.068706 92039 net.cpp:110] Creating Layer inception_3a/relu_3x3_reduce
I0907 00:06:25.068714 92039 net.cpp:477] inception_3a/relu_3x3_reduce <- inception_3a/3x3_reduce
I0907 00:06:25.068727 92039 net.cpp:419] inception_3a/relu_3x3_reduce -> inception_3a/3x3_reduce (in-place)
I0907 00:06:25.068740 92039 net.cpp:155] Setting up inception_3a/relu_3x3_reduce
I0907 00:06:25.068749 92039 net.cpp:163] Top shape: 32 96 28 28 (2408448)
I0907 00:06:25.068756 92039 layer_factory.hpp:76] Creating layer inception_3a/3x3
I0907 00:06:25.068770 92039 net.cpp:110] Creating Layer inception_3a/3x3
I0907 00:06:25.068778 92039 net.cpp:477] inception_3a/3x3 <- inception_3a/3x3_reduce
I0907 00:06:25.068812 92039 net.cpp:433] inception_3a/3x3 -> inception_3a/3x3
I0907 00:06:25.070647 92039 net.cpp:155] Setting up inception_3a/3x3
I0907 00:06:25.070665 92039 net.cpp:163] Top shape: 32 128 28 28 (3211264)
I0907 00:06:25.070679 92039 layer_factory.hpp:76] Creating layer inception_3a/relu_3x3
I0907 00:06:25.070690 92039 net.cpp:110] Creating Layer inception_3a/relu_3x3
I0907 00:06:25.070698 92039 net.cpp:477] inception_3a/relu_3x3 <- inception_3a/3x3
I0907 00:06:25.070708 92039 net.cpp:419] inception_3a/relu_3x3 -> inception_3a/3x3 (in-place)
I0907 00:06:25.070724 92039 net.cpp:155] Setting up inception_3a/relu_3x3
I0907 00:06:25.070734 92039 net.cpp:163] Top shape: 32 128 28 28 (3211264)
I0907 00:06:25.070740 92039 layer_factory.hpp:76] Creating layer inception_3a/5x5_reduce
I0907 00:06:25.070752 92039 net.cpp:110] Creating Layer inception_3a/5x5_reduce
I0907 00:06:25.070760 92039 net.cpp:477] inception_3a/5x5_reduce <- pool2/3x3_s2_pool2/3x3_s2_0_split_2
I0907 00:06:25.070771 92039 net.cpp:433] inception_3a/5x5_reduce -> inception_3a/5x5_reduce
I0907 00:06:25.070919 92039 net.cpp:155] Setting up inception_3a/5x5_reduce
I0907 00:06:25.070933 92039 net.cpp:163] Top shape: 32 16 28 28 (401408)
I0907 00:06:25.070946 92039 layer_factory.hpp:76] Creating layer inception_3a/relu_5x5_reduce
I0907 00:06:25.070956 92039 net.cpp:110] Creating Layer inception_3a/relu_5x5_reduce
I0907 00:06:25.070963 92039 net.cpp:477] inception_3a/relu_5x5_reduce <- inception_3a/5x5_reduce
I0907 00:06:25.070974 92039 net.cpp:419] inception_3a/relu_5x5_reduce -> inception_3a/5x5_reduce (in-place)
I0907 00:06:25.070986 92039 net.cpp:155] Setting up inception_3a/relu_5x5_reduce
I0907 00:06:25.070996 92039 net.cpp:163] Top shape: 32 16 28 28 (401408)
I0907 00:06:25.071002 92039 layer_factory.hpp:76] Creating layer inception_3a/5x5
I0907 00:06:25.071014 92039 net.cpp:110] Creating Layer inception_3a/5x5
I0907 00:06:25.071020 92039 net.cpp:477] inception_3a/5x5 <- inception_3a/5x5_reduce
I0907 00:06:25.071033 92039 net.cpp:433] inception_3a/5x5 -> inception_3a/5x5
I0907 00:06:25.072888 92039 net.cpp:155] Setting up inception_3a/5x5
I0907 00:06:25.072922 92039 net.cpp:163] Top shape: 32 32 28 28 (802816)
I0907 00:06:25.072939 92039 layer_factory.hpp:76] Creating layer inception_3a/relu_5x5
I0907 00:06:25.072954 92039 net.cpp:110] Creating Layer inception_3a/relu_5x5
I0907 00:06:25.072964 92039 net.cpp:477] inception_3a/relu_5x5 <- inception_3a/5x5
I0907 00:06:25.072978 92039 net.cpp:419] inception_3a/relu_5x5 -> inception_3a/5x5 (in-place)
I0907 00:06:25.072994 92039 net.cpp:155] Setting up inception_3a/relu_5x5
I0907 00:06:25.073004 92039 net.cpp:163] Top shape: 32 32 28 28 (802816)
I0907 00:06:25.073012 92039 layer_factory.hpp:76] Creating layer inception_3a/pool
I0907 00:06:25.073024 92039 net.cpp:110] Creating Layer inception_3a/pool
I0907 00:06:25.073032 92039 net.cpp:477] inception_3a/pool <- pool2/3x3_s2_pool2/3x3_s2_0_split_3
I0907 00:06:25.073045 92039 net.cpp:433] inception_3a/pool -> inception_3a/pool
I0907 00:06:25.073062 92039 net.cpp:155] Setting up inception_3a/pool
I0907 00:06:25.073072 92039 net.cpp:163] Top shape: 32 192 28 28 (4816896)
I0907 00:06:25.073079 92039 layer_factory.hpp:76] Creating layer inception_3a/pool_proj
I0907 00:06:25.073094 92039 net.cpp:110] Creating Layer inception_3a/pool_proj
I0907 00:06:25.073101 92039 net.cpp:477] inception_3a/pool_proj <- inception_3a/pool
I0907 00:06:25.073113 92039 net.cpp:433] inception_3a/pool_proj -> inception_3a/pool_proj
I0907 00:06:25.073318 92039 net.cpp:155] Setting up inception_3a/pool_proj
I0907 00:06:25.073335 92039 net.cpp:163] Top shape: 32 32 28 28 (802816)
I0907 00:06:25.073357 92039 layer_factory.hpp:76] Creating layer inception_3a/relu_pool_proj
I0907 00:06:25.073379 92039 net.cpp:110] Creating Layer inception_3a/relu_pool_proj
I0907 00:06:25.073386 92039 net.cpp:477] inception_3a/relu_pool_proj <- inception_3a/pool_proj
I0907 00:06:25.073396 92039 net.cpp:419] inception_3a/relu_pool_proj -> inception_3a/pool_proj (in-place)
I0907 00:06:25.073410 92039 net.cpp:155] Setting up inception_3a/relu_pool_proj
I0907 00:06:25.073451 92039 net.cpp:163] Top shape: 32 32 28 28 (802816)
I0907 00:06:25.073458 92039 layer_factory.hpp:76] Creating layer inception_3a/output
I0907 00:06:25.073475 92039 net.cpp:110] Creating Layer inception_3a/output
I0907 00:06:25.073482 92039 net.cpp:477] inception_3a/output <- inception_3a/1x1
I0907 00:06:25.073493 92039 net.cpp:477] inception_3a/output <- inception_3a/3x3
I0907 00:06:25.073501 92039 net.cpp:477] inception_3a/output <- inception_3a/5x5
I0907 00:06:25.073509 92039 net.cpp:477] inception_3a/output <- inception_3a/pool_proj
I0907 00:06:25.073520 92039 net.cpp:433] inception_3a/output -> inception_3a/output
I0907 00:06:25.073540 92039 net.cpp:155] Setting up inception_3a/output
I0907 00:06:25.073560 92039 net.cpp:163] Top shape: 32 256 28 28 (6422528)
I0907 00:06:25.073567 92039 layer_factory.hpp:76] Creating layer inception_3a/output_inception_3a/output_0_split
I0907 00:06:25.073580 92039 net.cpp:110] Creating Layer inception_3a/output_inception_3a/output_0_split
I0907 00:06:25.073586 92039 net.cpp:477] inception_3a/output_inception_3a/output_0_split <- inception_3a/output
I0907 00:06:25.073598 92039 net.cpp:433] inception_3a/output_inception_3a/output_0_split -> inception_3a/output_inception_3a/output_0_split_0
I0907 00:06:25.073612 92039 net.cpp:433] inception_3a/output_inception_3a/output_0_split -> inception_3a/output_inception_3a/output_0_split_1
I0907 00:06:25.073626 92039 net.cpp:433] inception_3a/output_inception_3a/output_0_split -> inception_3a/output_inception_3a/output_0_split_2
I0907 00:06:25.073638 92039 net.cpp:433] inception_3a/output_inception_3a/output_0_split -> inception_3a/output_inception_3a/output_0_split_3
I0907 00:06:25.073652 92039 net.cpp:155] Setting up inception_3a/output_inception_3a/output_0_split
I0907 00:06:25.073662 92039 net.cpp:163] Top shape: 32 256 28 28 (6422528)
I0907 00:06:25.073669 92039 net.cpp:163] Top shape: 32 256 28 28 (6422528)
I0907 00:06:25.073678 92039 net.cpp:163] Top shape: 32 256 28 28 (6422528)
I0907 00:06:25.073685 92039 net.cpp:163] Top shape: 32 256 28 28 (6422528)
I0907 00:06:25.073693 92039 layer_factory.hpp:76] Creating layer inception_3b/1x1
I0907 00:06:25.073706 92039 net.cpp:110] Creating Layer inception_3b/1x1
I0907 00:06:25.073714 92039 net.cpp:477] inception_3b/1x1 <- inception_3a/output_inception_3a/output_0_split_0
I0907 00:06:25.073725 92039 net.cpp:433] inception_3b/1x1 -> inception_3b/1x1
I0907 00:06:25.074342 92039 net.cpp:155] Setting up inception_3b/1x1
I0907 00:06:25.074357 92039 net.cpp:163] Top shape: 32 128 28 28 (3211264)
I0907 00:06:25.074370 92039 layer_factory.hpp:76] Creating layer inception_3b/relu_1x1
I0907 00:06:25.074381 92039 net.cpp:110] Creating Layer inception_3b/relu_1x1
I0907 00:06:25.074389 92039 net.cpp:477] inception_3b/relu_1x1 <- inception_3b/1x1
I0907 00:06:25.074400 92039 net.cpp:419] inception_3b/relu_1x1 -> inception_3b/1x1 (in-place)
I0907 00:06:25.074414 92039 net.cpp:155] Setting up inception_3b/relu_1x1
I0907 00:06:25.074422 92039 net.cpp:163] Top shape: 32 128 28 28 (3211264)
I0907 00:06:25.074429 92039 layer_factory.hpp:76] Creating layer inception_3b/3x3_reduce
I0907 00:06:25.074442 92039 net.cpp:110] Creating Layer inception_3b/3x3_reduce
I0907 00:06:25.074450 92039 net.cpp:477] inception_3b/3x3_reduce <- inception_3a/output_inception_3a/output_0_split_1
I0907 00:06:25.074461 92039 net.cpp:433] inception_3b/3x3_reduce -> inception_3b/3x3_reduce
I0907 00:06:25.075060 92039 net.cpp:155] Setting up inception_3b/3x3_reduce
I0907 00:06:25.075075 92039 net.cpp:163] Top shape: 32 128 28 28 (3211264)
I0907 00:06:25.075088 92039 layer_factory.hpp:76] Creating layer inception_3b/relu_3x3_reduce
I0907 00:06:25.075098 92039 net.cpp:110] Creating Layer inception_3b/relu_3x3_reduce
I0907 00:06:25.075106 92039 net.cpp:477] inception_3b/relu_3x3_reduce <- inception_3b/3x3_reduce
I0907 00:06:25.075116 92039 net.cpp:419] inception_3b/relu_3x3_reduce -> inception_3b/3x3_reduce (in-place)
I0907 00:06:25.075129 92039 net.cpp:155] Setting up inception_3b/relu_3x3_reduce
I0907 00:06:25.075155 92039 net.cpp:163] Top shape: 32 128 28 28 (3211264)
I0907 00:06:25.075162 92039 layer_factory.hpp:76] Creating layer inception_3b/3x3
I0907 00:06:25.075181 92039 net.cpp:110] Creating Layer inception_3b/3x3
I0907 00:06:25.075188 92039 net.cpp:477] inception_3b/3x3 <- inception_3b/3x3_reduce
I0907 00:06:25.075201 92039 net.cpp:433] inception_3b/3x3 -> inception_3b/3x3
I0907 00:06:25.081856 92039 net.cpp:155] Setting up inception_3b/3x3
I0907 00:06:25.081907 92039 net.cpp:163] Top shape: 32 192 28 28 (4816896)
I0907 00:06:25.081943 92039 layer_factory.hpp:76] Creating layer inception_3b/relu_3x3
I0907 00:06:25.081969 92039 net.cpp:110] Creating Layer inception_3b/relu_3x3
I0907 00:06:25.081987 92039 net.cpp:477] inception_3b/relu_3x3 <- inception_3b/3x3
I0907 00:06:25.082026 92039 net.cpp:419] inception_3b/relu_3x3 -> inception_3b/3x3 (in-place)
I0907 00:06:25.082052 92039 net.cpp:155] Setting up inception_3b/relu_3x3
I0907 00:06:25.082073 92039 net.cpp:163] Top shape: 32 192 28 28 (4816896)
I0907 00:06:25.082082 92039 layer_factory.hpp:76] Creating layer inception_3b/5x5_reduce
I0907 00:06:25.082103 92039 net.cpp:110] Creating Layer inception_3b/5x5_reduce
I0907 00:06:25.082118 92039 net.cpp:477] inception_3b/5x5_reduce <- inception_3a/output_inception_3a/output_0_split_2
I0907 00:06:25.082134 92039 net.cpp:433] inception_3b/5x5_reduce -> inception_3b/5x5_reduce
I0907 00:06:25.082412 92039 net.cpp:155] Setting up inception_3b/5x5_reduce
I0907 00:06:25.082428 92039 net.cpp:163] Top shape: 32 32 28 28 (802816)
I0907 00:06:25.082442 92039 layer_factory.hpp:76] Creating layer inception_3b/relu_5x5_reduce
I0907 00:06:25.082455 92039 net.cpp:110] Creating Layer inception_3b/relu_5x5_reduce
I0907 00:06:25.082463 92039 net.cpp:477] inception_3b/relu_5x5_reduce <- inception_3b/5x5_reduce
I0907 00:06:25.082475 92039 net.cpp:419] inception_3b/relu_5x5_reduce -> inception_3b/5x5_reduce (in-place)
I0907 00:06:25.082489 92039 net.cpp:155] Setting up inception_3b/relu_5x5_reduce
I0907 00:06:25.082497 92039 net.cpp:163] Top shape: 32 32 28 28 (802816)
I0907 00:06:25.082504 92039 layer_factory.hpp:76] Creating layer inception_3b/5x5
I0907 00:06:25.082518 92039 net.cpp:110] Creating Layer inception_3b/5x5
I0907 00:06:25.082525 92039 net.cpp:477] inception_3b/5x5 <- inception_3b/5x5_reduce
I0907 00:06:25.082536 92039 net.cpp:433] inception_3b/5x5 -> inception_3b/5x5
I0907 00:06:25.084794 92039 net.cpp:155] Setting up inception_3b/5x5
I0907 00:06:25.084820 92039 net.cpp:163] Top shape: 32 96 28 28 (2408448)
I0907 00:06:25.084837 92039 layer_factory.hpp:76] Creating layer inception_3b/relu_5x5
I0907 00:06:25.084851 92039 net.cpp:110] Creating Layer inception_3b/relu_5x5
I0907 00:06:25.084859 92039 net.cpp:477] inception_3b/relu_5x5 <- inception_3b/5x5
I0907 00:06:25.084873 92039 net.cpp:419] inception_3b/relu_5x5 -> inception_3b/5x5 (in-place)
I0907 00:06:25.084888 92039 net.cpp:155] Setting up inception_3b/relu_5x5
I0907 00:06:25.084897 92039 net.cpp:163] Top shape: 32 96 28 28 (2408448)
I0907 00:06:25.084904 92039 layer_factory.hpp:76] Creating layer inception_3b/pool
I0907 00:06:25.084918 92039 net.cpp:110] Creating Layer inception_3b/pool
I0907 00:06:25.084926 92039 net.cpp:477] inception_3b/pool <- inception_3a/output_inception_3a/output_0_split_3
I0907 00:06:25.084939 92039 net.cpp:433] inception_3b/pool -> inception_3b/pool
I0907 00:06:25.084957 92039 net.cpp:155] Setting up inception_3b/pool
I0907 00:06:25.084967 92039 net.cpp:163] Top shape: 32 256 28 28 (6422528)
I0907 00:06:25.084974 92039 layer_factory.hpp:76] Creating layer inception_3b/pool_proj
I0907 00:06:25.084988 92039 net.cpp:110] Creating Layer inception_3b/pool_proj
I0907 00:06:25.084995 92039 net.cpp:477] inception_3b/pool_proj <- inception_3b/pool
I0907 00:06:25.085010 92039 net.cpp:433] inception_3b/pool_proj -> inception_3b/pool_proj
I0907 00:06:25.085371 92039 net.cpp:155] Setting up inception_3b/pool_proj
I0907 00:06:25.085386 92039 net.cpp:163] Top shape: 32 64 28 28 (1605632)
I0907 00:06:25.085399 92039 layer_factory.hpp:76] Creating layer inception_3b/relu_pool_proj
I0907 00:06:25.085435 92039 net.cpp:110] Creating Layer inception_3b/relu_pool_proj
I0907 00:06:25.085443 92039 net.cpp:477] inception_3b/relu_pool_proj <- inception_3b/pool_proj
I0907 00:06:25.085455 92039 net.cpp:419] inception_3b/relu_pool_proj -> inception_3b/pool_proj (in-place)
I0907 00:06:25.085469 92039 net.cpp:155] Setting up inception_3b/relu_pool_proj
I0907 00:06:25.085479 92039 net.cpp:163] Top shape: 32 64 28 28 (1605632)
I0907 00:06:25.085486 92039 layer_factory.hpp:76] Creating layer inception_3b/output
I0907 00:06:25.085499 92039 net.cpp:110] Creating Layer inception_3b/output
I0907 00:06:25.085505 92039 net.cpp:477] inception_3b/output <- inception_3b/1x1
I0907 00:06:25.085515 92039 net.cpp:477] inception_3b/output <- inception_3b/3x3
I0907 00:06:25.085525 92039 net.cpp:477] inception_3b/output <- inception_3b/5x5
I0907 00:06:25.085532 92039 net.cpp:477] inception_3b/output <- inception_3b/pool_proj
I0907 00:06:25.085546 92039 net.cpp:433] inception_3b/output -> inception_3b/output
I0907 00:06:25.085561 92039 net.cpp:155] Setting up inception_3b/output
I0907 00:06:25.085571 92039 net.cpp:163] Top shape: 32 480 28 28 (12042240)
I0907 00:06:25.085577 92039 layer_factory.hpp:76] Creating layer pool3/3x3_s2
I0907 00:06:25.085588 92039 net.cpp:110] Creating Layer pool3/3x3_s2
I0907 00:06:25.085595 92039 net.cpp:477] pool3/3x3_s2 <- inception_3b/output
I0907 00:06:25.085607 92039 net.cpp:433] pool3/3x3_s2 -> pool3/3x3_s2
I0907 00:06:25.085623 92039 net.cpp:155] Setting up pool3/3x3_s2
I0907 00:06:25.085631 92039 net.cpp:163] Top shape: 32 480 14 14 (3010560)
I0907 00:06:25.085638 92039 layer_factory.hpp:76] Creating layer pool3/3x3_s2_pool3/3x3_s2_0_split
I0907 00:06:25.085650 92039 net.cpp:110] Creating Layer pool3/3x3_s2_pool3/3x3_s2_0_split
I0907 00:06:25.085657 92039 net.cpp:477] pool3/3x3_s2_pool3/3x3_s2_0_split <- pool3/3x3_s2
I0907 00:06:25.085669 92039 net.cpp:433] pool3/3x3_s2_pool3/3x3_s2_0_split -> pool3/3x3_s2_pool3/3x3_s2_0_split_0
I0907 00:06:25.085681 92039 net.cpp:433] pool3/3x3_s2_pool3/3x3_s2_0_split -> pool3/3x3_s2_pool3/3x3_s2_0_split_1
I0907 00:06:25.085695 92039 net.cpp:433] pool3/3x3_s2_pool3/3x3_s2_0_split -> pool3/3x3_s2_pool3/3x3_s2_0_split_2
I0907 00:06:25.085708 92039 net.cpp:433] pool3/3x3_s2_pool3/3x3_s2_0_split -> pool3/3x3_s2_pool3/3x3_s2_0_split_3
I0907 00:06:25.085722 92039 net.cpp:155] Setting up pool3/3x3_s2_pool3/3x3_s2_0_split
I0907 00:06:25.085747 92039 net.cpp:163] Top shape: 32 480 14 14 (3010560)
I0907 00:06:25.085757 92039 net.cpp:163] Top shape: 32 480 14 14 (3010560)
I0907 00:06:25.085764 92039 net.cpp:163] Top shape: 32 480 14 14 (3010560)
I0907 00:06:25.085772 92039 net.cpp:163] Top shape: 32 480 14 14 (3010560)
I0907 00:06:25.085779 92039 layer_factory.hpp:76] Creating layer inception_4a/1x1
I0907 00:06:25.085794 92039 net.cpp:110] Creating Layer inception_4a/1x1
I0907 00:06:25.085801 92039 net.cpp:477] inception_4a/1x1 <- pool3/3x3_s2_pool3/3x3_s2_0_split_0
I0907 00:06:25.085813 92039 net.cpp:433] inception_4a/1x1 -> inception_4a/1x1
I0907 00:06:25.087350 92039 net.cpp:155] Setting up inception_4a/1x1
I0907 00:06:25.087368 92039 net.cpp:163] Top shape: 32 192 14 14 (1204224)
I0907 00:06:25.087383 92039 layer_factory.hpp:76] Creating layer inception_4a/relu_1x1
I0907 00:06:25.087393 92039 net.cpp:110] Creating Layer inception_4a/relu_1x1
I0907 00:06:25.087400 92039 net.cpp:477] inception_4a/relu_1x1 <- inception_4a/1x1
I0907 00:06:25.087411 92039 net.cpp:419] inception_4a/relu_1x1 -> inception_4a/1x1 (in-place)
I0907 00:06:25.087424 92039 net.cpp:155] Setting up inception_4a/relu_1x1
I0907 00:06:25.087434 92039 net.cpp:163] Top shape: 32 192 14 14 (1204224)
I0907 00:06:25.087440 92039 layer_factory.hpp:76] Creating layer inception_4a/3x3_reduce
I0907 00:06:25.087455 92039 net.cpp:110] Creating Layer inception_4a/3x3_reduce
I0907 00:06:25.087462 92039 net.cpp:477] inception_4a/3x3_reduce <- pool3/3x3_s2_pool3/3x3_s2_0_split_1
I0907 00:06:25.087476 92039 net.cpp:433] inception_4a/3x3_reduce -> inception_4a/3x3_reduce
I0907 00:06:25.088373 92039 net.cpp:155] Setting up inception_4a/3x3_reduce
I0907 00:06:25.088392 92039 net.cpp:163] Top shape: 32 96 14 14 (602112)
I0907 00:06:25.088415 92039 layer_factory.hpp:76] Creating layer inception_4a/relu_3x3_reduce
I0907 00:06:25.088429 92039 net.cpp:110] Creating Layer inception_4a/relu_3x3_reduce
I0907 00:06:25.088436 92039 net.cpp:477] inception_4a/relu_3x3_reduce <- inception_4a/3x3_reduce
I0907 00:06:25.088449 92039 net.cpp:419] inception_4a/relu_3x3_reduce -> inception_4a/3x3_reduce (in-place)
I0907 00:06:25.088464 92039 net.cpp:155] Setting up inception_4a/relu_3x3_reduce
I0907 00:06:25.088472 92039 net.cpp:163] Top shape: 32 96 14 14 (602112)
I0907 00:06:25.088479 92039 layer_factory.hpp:76] Creating layer inception_4a/3x3
I0907 00:06:25.088492 92039 net.cpp:110] Creating Layer inception_4a/3x3
I0907 00:06:25.088500 92039 net.cpp:477] inception_4a/3x3 <- inception_4a/3x3_reduce
I0907 00:06:25.088511 92039 net.cpp:433] inception_4a/3x3 -> inception_4a/3x3
I0907 00:06:25.092325 92039 net.cpp:155] Setting up inception_4a/3x3
I0907 00:06:25.092351 92039 net.cpp:163] Top shape: 32 208 14 14 (1304576)
I0907 00:06:25.092367 92039 layer_factory.hpp:76] Creating layer inception_4a/relu_3x3
I0907 00:06:25.092381 92039 net.cpp:110] Creating Layer inception_4a/relu_3x3
I0907 00:06:25.092388 92039 net.cpp:477] inception_4a/relu_3x3 <- inception_4a/3x3
I0907 00:06:25.092401 92039 net.cpp:419] inception_4a/relu_3x3 -> inception_4a/3x3 (in-place)
I0907 00:06:25.092414 92039 net.cpp:155] Setting up inception_4a/relu_3x3
I0907 00:06:25.092424 92039 net.cpp:163] Top shape: 32 208 14 14 (1304576)
I0907 00:06:25.092432 92039 layer_factory.hpp:76] Creating layer inception_4a/5x5_reduce
I0907 00:06:25.092445 92039 net.cpp:110] Creating Layer inception_4a/5x5_reduce
I0907 00:06:25.092453 92039 net.cpp:477] inception_4a/5x5_reduce <- pool3/3x3_s2_pool3/3x3_s2_0_split_2
I0907 00:06:25.092466 92039 net.cpp:433] inception_4a/5x5_reduce -> inception_4a/5x5_reduce
I0907 00:06:25.092700 92039 net.cpp:155] Setting up inception_4a/5x5_reduce
I0907 00:06:25.092716 92039 net.cpp:163] Top shape: 32 16 14 14 (100352)
I0907 00:06:25.092730 92039 layer_factory.hpp:76] Creating layer inception_4a/relu_5x5_reduce
I0907 00:06:25.092748 92039 net.cpp:110] Creating Layer inception_4a/relu_5x5_reduce
I0907 00:06:25.092756 92039 net.cpp:477] inception_4a/relu_5x5_reduce <- inception_4a/5x5_reduce
I0907 00:06:25.092767 92039 net.cpp:419] inception_4a/relu_5x5_reduce -> inception_4a/5x5_reduce (in-place)
I0907 00:06:25.092778 92039 net.cpp:155] Setting up inception_4a/relu_5x5_reduce
I0907 00:06:25.092788 92039 net.cpp:163] Top shape: 32 16 14 14 (100352)
I0907 00:06:25.092794 92039 layer_factory.hpp:76] Creating layer inception_4a/5x5
I0907 00:06:25.092808 92039 net.cpp:110] Creating Layer inception_4a/5x5
I0907 00:06:25.092815 92039 net.cpp:477] inception_4a/5x5 <- inception_4a/5x5_reduce
I0907 00:06:25.092828 92039 net.cpp:433] inception_4a/5x5 -> inception_4a/5x5
I0907 00:06:25.093225 92039 net.cpp:155] Setting up inception_4a/5x5
I0907 00:06:25.093240 92039 net.cpp:163] Top shape: 32 48 14 14 (301056)
I0907 00:06:25.093255 92039 layer_factory.hpp:76] Creating layer inception_4a/relu_5x5
I0907 00:06:25.093266 92039 net.cpp:110] Creating Layer inception_4a/relu_5x5
I0907 00:06:25.093273 92039 net.cpp:477] inception_4a/relu_5x5 <- inception_4a/5x5
I0907 00:06:25.093284 92039 net.cpp:419] inception_4a/relu_5x5 -> inception_4a/5x5 (in-place)
I0907 00:06:25.093296 92039 net.cpp:155] Setting up inception_4a/relu_5x5
I0907 00:06:25.093304 92039 net.cpp:163] Top shape: 32 48 14 14 (301056)
I0907 00:06:25.093312 92039 layer_factory.hpp:76] Creating layer inception_4a/pool
I0907 00:06:25.093324 92039 net.cpp:110] Creating Layer inception_4a/pool
I0907 00:06:25.093333 92039 net.cpp:477] inception_4a/pool <- pool3/3x3_s2_pool3/3x3_s2_0_split_3
I0907 00:06:25.093343 92039 net.cpp:433] inception_4a/pool -> inception_4a/pool
I0907 00:06:25.093360 92039 net.cpp:155] Setting up inception_4a/pool
I0907 00:06:25.093370 92039 net.cpp:163] Top shape: 32 480 14 14 (3010560)
I0907 00:06:25.093399 92039 layer_factory.hpp:76] Creating layer inception_4a/pool_proj
I0907 00:06:25.093415 92039 net.cpp:110] Creating Layer inception_4a/pool_proj
I0907 00:06:25.093421 92039 net.cpp:477] inception_4a/pool_proj <- inception_4a/pool
I0907 00:06:25.093436 92039 net.cpp:433] inception_4a/pool_proj -> inception_4a/pool_proj
I0907 00:06:25.094018 92039 net.cpp:155] Setting up inception_4a/pool_proj
I0907 00:06:25.094035 92039 net.cpp:163] Top shape: 32 64 14 14 (401408)
I0907 00:06:25.094048 92039 layer_factory.hpp:76] Creating layer inception_4a/relu_pool_proj
I0907 00:06:25.094058 92039 net.cpp:110] Creating Layer inception_4a/relu_pool_proj
I0907 00:06:25.094065 92039 net.cpp:477] inception_4a/relu_pool_proj <- inception_4a/pool_proj
I0907 00:06:25.094076 92039 net.cpp:419] inception_4a/relu_pool_proj -> inception_4a/pool_proj (in-place)
I0907 00:06:25.094089 92039 net.cpp:155] Setting up inception_4a/relu_pool_proj
I0907 00:06:25.094099 92039 net.cpp:163] Top shape: 32 64 14 14 (401408)
I0907 00:06:25.094105 92039 layer_factory.hpp:76] Creating layer inception_4a/output
I0907 00:06:25.094120 92039 net.cpp:110] Creating Layer inception_4a/output
I0907 00:06:25.094126 92039 net.cpp:477] inception_4a/output <- inception_4a/1x1
I0907 00:06:25.094135 92039 net.cpp:477] inception_4a/output <- inception_4a/3x3
I0907 00:06:25.094146 92039 net.cpp:477] inception_4a/output <- inception_4a/5x5
I0907 00:06:25.094153 92039 net.cpp:477] inception_4a/output <- inception_4a/pool_proj
I0907 00:06:25.094164 92039 net.cpp:433] inception_4a/output -> inception_4a/output
I0907 00:06:25.094178 92039 net.cpp:155] Setting up inception_4a/output
I0907 00:06:25.094187 92039 net.cpp:163] Top shape: 32 512 14 14 (3211264)
I0907 00:06:25.094194 92039 layer_factory.hpp:76] Creating layer inception_4a/output_inception_4a/output_0_split
I0907 00:06:25.094208 92039 net.cpp:110] Creating Layer inception_4a/output_inception_4a/output_0_split
I0907 00:06:25.094214 92039 net.cpp:477] inception_4a/output_inception_4a/output_0_split <- inception_4a/output
I0907 00:06:25.094226 92039 net.cpp:433] inception_4a/output_inception_4a/output_0_split -> inception_4a/output_inception_4a/output_0_split_0
I0907 00:06:25.094241 92039 net.cpp:433] inception_4a/output_inception_4a/output_0_split -> inception_4a/output_inception_4a/output_0_split_1
I0907 00:06:25.094255 92039 net.cpp:433] inception_4a/output_inception_4a/output_0_split -> inception_4a/output_inception_4a/output_0_split_2
I0907 00:06:25.094269 92039 net.cpp:433] inception_4a/output_inception_4a/output_0_split -> inception_4a/output_inception_4a/output_0_split_3
I0907 00:06:25.094281 92039 net.cpp:433] inception_4a/output_inception_4a/output_0_split -> inception_4a/output_inception_4a/output_0_split_4
I0907 00:06:25.094313 92039 net.cpp:155] Setting up inception_4a/output_inception_4a/output_0_split
I0907 00:06:25.094323 92039 net.cpp:163] Top shape: 32 512 14 14 (3211264)
I0907 00:06:25.094332 92039 net.cpp:163] Top shape: 32 512 14 14 (3211264)
I0907 00:06:25.094341 92039 net.cpp:163] Top shape: 32 512 14 14 (3211264)
I0907 00:06:25.094348 92039 net.cpp:163] Top shape: 32 512 14 14 (3211264)
I0907 00:06:25.094357 92039 net.cpp:163] Top shape: 32 512 14 14 (3211264)
I0907 00:06:25.094363 92039 layer_factory.hpp:76] Creating layer loss1/ave_pool
I0907 00:06:25.094374 92039 net.cpp:110] Creating Layer loss1/ave_pool
I0907 00:06:25.094383 92039 net.cpp:477] loss1/ave_pool <- inception_4a/output_inception_4a/output_0_split_0
I0907 00:06:25.094394 92039 net.cpp:433] loss1/ave_pool -> loss1/ave_pool
I0907 00:06:25.094409 92039 net.cpp:155] Setting up loss1/ave_pool
I0907 00:06:25.094419 92039 net.cpp:163] Top shape: 32 512 4 4 (262144)
I0907 00:06:25.094426 92039 layer_factory.hpp:76] Creating layer loss1/conv
I0907 00:06:25.094440 92039 net.cpp:110] Creating Layer loss1/conv
I0907 00:06:25.094447 92039 net.cpp:477] loss1/conv <- loss1/ave_pool
I0907 00:06:25.094460 92039 net.cpp:433] loss1/conv -> loss1/conv
I0907 00:06:25.095610 92039 net.cpp:155] Setting up loss1/conv
I0907 00:06:25.095643 92039 net.cpp:163] Top shape: 32 128 4 4 (65536)
I0907 00:06:25.095657 92039 layer_factory.hpp:76] Creating layer loss1/relu_conv
I0907 00:06:25.095679 92039 net.cpp:110] Creating Layer loss1/relu_conv
I0907 00:06:25.095688 92039 net.cpp:477] loss1/relu_conv <- loss1/conv
I0907 00:06:25.095701 92039 net.cpp:419] loss1/relu_conv -> loss1/conv (in-place)
I0907 00:06:25.095715 92039 net.cpp:155] Setting up loss1/relu_conv
I0907 00:06:25.095723 92039 net.cpp:163] Top shape: 32 128 4 4 (65536)
I0907 00:06:25.095731 92039 layer_factory.hpp:76] Creating layer loss1/fc
I0907 00:06:25.095751 92039 net.cpp:110] Creating Layer loss1/fc
I0907 00:06:25.095758 92039 net.cpp:477] loss1/fc <- loss1/conv
I0907 00:06:25.095770 92039 net.cpp:433] loss1/fc -> loss1/fc
I0907 00:06:25.134663 92039 net.cpp:155] Setting up loss1/fc
I0907 00:06:25.134692 92039 net.cpp:163] Top shape: 32 1024 (32768)
I0907 00:06:25.134708 92039 layer_factory.hpp:76] Creating layer loss1/relu_fc
I0907 00:06:25.134723 92039 net.cpp:110] Creating Layer loss1/relu_fc
I0907 00:06:25.134732 92039 net.cpp:477] loss1/relu_fc <- loss1/fc
I0907 00:06:25.134743 92039 net.cpp:419] loss1/relu_fc -> loss1/fc (in-place)
I0907 00:06:25.134758 92039 net.cpp:155] Setting up loss1/relu_fc
I0907 00:06:25.134768 92039 net.cpp:163] Top shape: 32 1024 (32768)
I0907 00:06:25.134775 92039 layer_factory.hpp:76] Creating layer loss1/drop_fc
I0907 00:06:25.134809 92039 net.cpp:110] Creating Layer loss1/drop_fc
I0907 00:06:25.134816 92039 net.cpp:477] loss1/drop_fc <- loss1/fc
I0907 00:06:25.134827 92039 net.cpp:419] loss1/drop_fc -> loss1/fc (in-place)
I0907 00:06:25.134850 92039 net.cpp:155] Setting up loss1/drop_fc
I0907 00:06:25.134871 92039 net.cpp:163] Top shape: 32 1024 (32768)
I0907 00:06:25.134879 92039 layer_factory.hpp:76] Creating layer loss1/classifier_cub
I0907 00:06:25.134896 92039 net.cpp:110] Creating Layer loss1/classifier_cub
I0907 00:06:25.134902 92039 net.cpp:477] loss1/classifier_cub <- loss1/fc
I0907 00:06:25.134914 92039 net.cpp:433] loss1/classifier_cub -> loss1/classifier
I0907 00:06:25.150385 92039 net.cpp:155] Setting up loss1/classifier_cub
I0907 00:06:25.150416 92039 net.cpp:163] Top shape: 32 200 (6400)
I0907 00:06:25.150431 92039 layer_factory.hpp:76] Creating layer loss1/loss
I0907 00:06:25.150451 92039 net.cpp:110] Creating Layer loss1/loss
I0907 00:06:25.150465 92039 net.cpp:477] loss1/loss <- loss1/classifier
I0907 00:06:25.150475 92039 net.cpp:477] loss1/loss <- label_data_1_split_0
I0907 00:06:25.150488 92039 net.cpp:433] loss1/loss -> loss1/loss1
I0907 00:06:25.150513 92039 layer_factory.hpp:76] Creating layer loss1/loss
I0907 00:06:25.150650 92039 net.cpp:155] Setting up loss1/loss
I0907 00:06:25.150665 92039 net.cpp:163] Top shape: (1)
I0907 00:06:25.150672 92039 net.cpp:168]     with loss weight 0.3
I0907 00:06:25.150719 92039 layer_factory.hpp:76] Creating layer inception_4b/1x1
I0907 00:06:25.150738 92039 net.cpp:110] Creating Layer inception_4b/1x1
I0907 00:06:25.150744 92039 net.cpp:477] inception_4b/1x1 <- inception_4a/output_inception_4a/output_0_split_1
I0907 00:06:25.150758 92039 net.cpp:433] inception_4b/1x1 -> inception_4b/1x1
I0907 00:06:25.152164 92039 net.cpp:155] Setting up inception_4b/1x1
I0907 00:06:25.152182 92039 net.cpp:163] Top shape: 32 160 14 14 (1003520)
I0907 00:06:25.152196 92039 layer_factory.hpp:76] Creating layer inception_4b/relu_1x1
I0907 00:06:25.152211 92039 net.cpp:110] Creating Layer inception_4b/relu_1x1
I0907 00:06:25.152220 92039 net.cpp:477] inception_4b/relu_1x1 <- inception_4b/1x1
I0907 00:06:25.152230 92039 net.cpp:419] inception_4b/relu_1x1 -> inception_4b/1x1 (in-place)
I0907 00:06:25.152245 92039 net.cpp:155] Setting up inception_4b/relu_1x1
I0907 00:06:25.152254 92039 net.cpp:163] Top shape: 32 160 14 14 (1003520)
I0907 00:06:25.152261 92039 layer_factory.hpp:76] Creating layer inception_4b/3x3_reduce
I0907 00:06:25.152276 92039 net.cpp:110] Creating Layer inception_4b/3x3_reduce
I0907 00:06:25.152283 92039 net.cpp:477] inception_4b/3x3_reduce <- inception_4a/output_inception_4a/output_0_split_2
I0907 00:06:25.152319 92039 net.cpp:433] inception_4b/3x3_reduce -> inception_4b/3x3_reduce
I0907 00:06:25.154170 92039 net.cpp:155] Setting up inception_4b/3x3_reduce
I0907 00:06:25.154194 92039 net.cpp:163] Top shape: 32 112 14 14 (702464)
I0907 00:06:25.154209 92039 layer_factory.hpp:76] Creating layer inception_4b/relu_3x3_reduce
I0907 00:06:25.154222 92039 net.cpp:110] Creating Layer inception_4b/relu_3x3_reduce
I0907 00:06:25.154229 92039 net.cpp:477] inception_4b/relu_3x3_reduce <- inception_4b/3x3_reduce
I0907 00:06:25.154243 92039 net.cpp:419] inception_4b/relu_3x3_reduce -> inception_4b/3x3_reduce (in-place)
I0907 00:06:25.154258 92039 net.cpp:155] Setting up inception_4b/relu_3x3_reduce
I0907 00:06:25.154268 92039 net.cpp:163] Top shape: 32 112 14 14 (702464)
I0907 00:06:25.154274 92039 layer_factory.hpp:76] Creating layer inception_4b/3x3
I0907 00:06:25.154289 92039 net.cpp:110] Creating Layer inception_4b/3x3
I0907 00:06:25.154296 92039 net.cpp:477] inception_4b/3x3 <- inception_4b/3x3_reduce
I0907 00:06:25.154309 92039 net.cpp:433] inception_4b/3x3 -> inception_4b/3x3
I0907 00:06:25.158807 92039 net.cpp:155] Setting up inception_4b/3x3
I0907 00:06:25.158833 92039 net.cpp:163] Top shape: 32 224 14 14 (1404928)
I0907 00:06:25.158848 92039 layer_factory.hpp:76] Creating layer inception_4b/relu_3x3
I0907 00:06:25.158862 92039 net.cpp:110] Creating Layer inception_4b/relu_3x3
I0907 00:06:25.158870 92039 net.cpp:477] inception_4b/relu_3x3 <- inception_4b/3x3
I0907 00:06:25.158881 92039 net.cpp:419] inception_4b/relu_3x3 -> inception_4b/3x3 (in-place)
I0907 00:06:25.158901 92039 net.cpp:155] Setting up inception_4b/relu_3x3
I0907 00:06:25.158911 92039 net.cpp:163] Top shape: 32 224 14 14 (1404928)
I0907 00:06:25.158920 92039 layer_factory.hpp:76] Creating layer inception_4b/5x5_reduce
I0907 00:06:25.158934 92039 net.cpp:110] Creating Layer inception_4b/5x5_reduce
I0907 00:06:25.158941 92039 net.cpp:477] inception_4b/5x5_reduce <- inception_4a/output_inception_4a/output_0_split_3
I0907 00:06:25.158956 92039 net.cpp:433] inception_4b/5x5_reduce -> inception_4b/5x5_reduce
I0907 00:06:25.159271 92039 net.cpp:155] Setting up inception_4b/5x5_reduce
I0907 00:06:25.159287 92039 net.cpp:163] Top shape: 32 24 14 14 (150528)
I0907 00:06:25.159302 92039 layer_factory.hpp:76] Creating layer inception_4b/relu_5x5_reduce
I0907 00:06:25.159313 92039 net.cpp:110] Creating Layer inception_4b/relu_5x5_reduce
I0907 00:06:25.159322 92039 net.cpp:477] inception_4b/relu_5x5_reduce <- inception_4b/5x5_reduce
I0907 00:06:25.159332 92039 net.cpp:419] inception_4b/relu_5x5_reduce -> inception_4b/5x5_reduce (in-place)
I0907 00:06:25.159344 92039 net.cpp:155] Setting up inception_4b/relu_5x5_reduce
I0907 00:06:25.159353 92039 net.cpp:163] Top shape: 32 24 14 14 (150528)
I0907 00:06:25.159360 92039 layer_factory.hpp:76] Creating layer inception_4b/5x5
I0907 00:06:25.159376 92039 net.cpp:110] Creating Layer inception_4b/5x5
I0907 00:06:25.159384 92039 net.cpp:477] inception_4b/5x5 <- inception_4b/5x5_reduce
I0907 00:06:25.159395 92039 net.cpp:433] inception_4b/5x5 -> inception_4b/5x5
I0907 00:06:25.160105 92039 net.cpp:155] Setting up inception_4b/5x5
I0907 00:06:25.160122 92039 net.cpp:163] Top shape: 32 64 14 14 (401408)
I0907 00:06:25.160135 92039 layer_factory.hpp:76] Creating layer inception_4b/relu_5x5
I0907 00:06:25.160145 92039 net.cpp:110] Creating Layer inception_4b/relu_5x5
I0907 00:06:25.160152 92039 net.cpp:477] inception_4b/relu_5x5 <- inception_4b/5x5
I0907 00:06:25.160164 92039 net.cpp:419] inception_4b/relu_5x5 -> inception_4b/5x5 (in-place)
I0907 00:06:25.160177 92039 net.cpp:155] Setting up inception_4b/relu_5x5
I0907 00:06:25.160187 92039 net.cpp:163] Top shape: 32 64 14 14 (401408)
I0907 00:06:25.160193 92039 layer_factory.hpp:76] Creating layer inception_4b/pool
I0907 00:06:25.160207 92039 net.cpp:110] Creating Layer inception_4b/pool
I0907 00:06:25.160214 92039 net.cpp:477] inception_4b/pool <- inception_4a/output_inception_4a/output_0_split_4
I0907 00:06:25.160226 92039 net.cpp:433] inception_4b/pool -> inception_4b/pool
I0907 00:06:25.160277 92039 net.cpp:155] Setting up inception_4b/pool
I0907 00:06:25.160305 92039 net.cpp:163] Top shape: 32 512 14 14 (3211264)
I0907 00:06:25.160313 92039 layer_factory.hpp:76] Creating layer inception_4b/pool_proj
I0907 00:06:25.160328 92039 net.cpp:110] Creating Layer inception_4b/pool_proj
I0907 00:06:25.160336 92039 net.cpp:477] inception_4b/pool_proj <- inception_4b/pool
I0907 00:06:25.160351 92039 net.cpp:433] inception_4b/pool_proj -> inception_4b/pool_proj
I0907 00:06:25.160971 92039 net.cpp:155] Setting up inception_4b/pool_proj
I0907 00:06:25.160986 92039 net.cpp:163] Top shape: 32 64 14 14 (401408)
I0907 00:06:25.161000 92039 layer_factory.hpp:76] Creating layer inception_4b/relu_pool_proj
I0907 00:06:25.161013 92039 net.cpp:110] Creating Layer inception_4b/relu_pool_proj
I0907 00:06:25.161020 92039 net.cpp:477] inception_4b/relu_pool_proj <- inception_4b/pool_proj
I0907 00:06:25.161032 92039 net.cpp:419] inception_4b/relu_pool_proj -> inception_4b/pool_proj (in-place)
I0907 00:06:25.161046 92039 net.cpp:155] Setting up inception_4b/relu_pool_proj
I0907 00:06:25.161054 92039 net.cpp:163] Top shape: 32 64 14 14 (401408)
I0907 00:06:25.161062 92039 layer_factory.hpp:76] Creating layer inception_4b/output
I0907 00:06:25.161072 92039 net.cpp:110] Creating Layer inception_4b/output
I0907 00:06:25.161079 92039 net.cpp:477] inception_4b/output <- inception_4b/1x1
I0907 00:06:25.161088 92039 net.cpp:477] inception_4b/output <- inception_4b/3x3
I0907 00:06:25.161098 92039 net.cpp:477] inception_4b/output <- inception_4b/5x5
I0907 00:06:25.161105 92039 net.cpp:477] inception_4b/output <- inception_4b/pool_proj
I0907 00:06:25.161116 92039 net.cpp:433] inception_4b/output -> inception_4b/output
I0907 00:06:25.161130 92039 net.cpp:155] Setting up inception_4b/output
I0907 00:06:25.161140 92039 net.cpp:163] Top shape: 32 512 14 14 (3211264)
I0907 00:06:25.161147 92039 layer_factory.hpp:76] Creating layer inception_4b/output_inception_4b/output_0_split
I0907 00:06:25.161159 92039 net.cpp:110] Creating Layer inception_4b/output_inception_4b/output_0_split
I0907 00:06:25.161167 92039 net.cpp:477] inception_4b/output_inception_4b/output_0_split <- inception_4b/output
I0907 00:06:25.161180 92039 net.cpp:433] inception_4b/output_inception_4b/output_0_split -> inception_4b/output_inception_4b/output_0_split_0
I0907 00:06:25.161193 92039 net.cpp:433] inception_4b/output_inception_4b/output_0_split -> inception_4b/output_inception_4b/output_0_split_1
I0907 00:06:25.161206 92039 net.cpp:433] inception_4b/output_inception_4b/output_0_split -> inception_4b/output_inception_4b/output_0_split_2
I0907 00:06:25.161219 92039 net.cpp:433] inception_4b/output_inception_4b/output_0_split -> inception_4b/output_inception_4b/output_0_split_3
I0907 00:06:25.161236 92039 net.cpp:155] Setting up inception_4b/output_inception_4b/output_0_split
I0907 00:06:25.161245 92039 net.cpp:163] Top shape: 32 512 14 14 (3211264)
I0907 00:06:25.161253 92039 net.cpp:163] Top shape: 32 512 14 14 (3211264)
I0907 00:06:25.161262 92039 net.cpp:163] Top shape: 32 512 14 14 (3211264)
I0907 00:06:25.161269 92039 net.cpp:163] Top shape: 32 512 14 14 (3211264)
I0907 00:06:25.161278 92039 layer_factory.hpp:76] Creating layer inception_4c/1x1
I0907 00:06:25.161289 92039 net.cpp:110] Creating Layer inception_4c/1x1
I0907 00:06:25.161296 92039 net.cpp:477] inception_4c/1x1 <- inception_4b/output_inception_4b/output_0_split_0
I0907 00:06:25.161309 92039 net.cpp:433] inception_4c/1x1 -> inception_4c/1x1
I0907 00:06:25.162425 92039 net.cpp:155] Setting up inception_4c/1x1
I0907 00:06:25.162441 92039 net.cpp:163] Top shape: 32 128 14 14 (802816)
I0907 00:06:25.162452 92039 layer_factory.hpp:76] Creating layer inception_4c/relu_1x1
I0907 00:06:25.162463 92039 net.cpp:110] Creating Layer inception_4c/relu_1x1
I0907 00:06:25.162472 92039 net.cpp:477] inception_4c/relu_1x1 <- inception_4c/1x1
I0907 00:06:25.162483 92039 net.cpp:419] inception_4c/relu_1x1 -> inception_4c/1x1 (in-place)
I0907 00:06:25.162497 92039 net.cpp:155] Setting up inception_4c/relu_1x1
I0907 00:06:25.162521 92039 net.cpp:163] Top shape: 32 128 14 14 (802816)
I0907 00:06:25.162529 92039 layer_factory.hpp:76] Creating layer inception_4c/3x3_reduce
I0907 00:06:25.162545 92039 net.cpp:110] Creating Layer inception_4c/3x3_reduce
I0907 00:06:25.162552 92039 net.cpp:477] inception_4c/3x3_reduce <- inception_4b/output_inception_4b/output_0_split_1
I0907 00:06:25.162565 92039 net.cpp:433] inception_4c/3x3_reduce -> inception_4c/3x3_reduce
I0907 00:06:25.163694 92039 net.cpp:155] Setting up inception_4c/3x3_reduce
I0907 00:06:25.163718 92039 net.cpp:163] Top shape: 32 128 14 14 (802816)
I0907 00:06:25.163730 92039 layer_factory.hpp:76] Creating layer inception_4c/relu_3x3_reduce
I0907 00:06:25.163744 92039 net.cpp:110] Creating Layer inception_4c/relu_3x3_reduce
I0907 00:06:25.163753 92039 net.cpp:477] inception_4c/relu_3x3_reduce <- inception_4c/3x3_reduce
I0907 00:06:25.163765 92039 net.cpp:419] inception_4c/relu_3x3_reduce -> inception_4c/3x3_reduce (in-place)
I0907 00:06:25.163779 92039 net.cpp:155] Setting up inception_4c/relu_3x3_reduce
I0907 00:06:25.163787 92039 net.cpp:163] Top shape: 32 128 14 14 (802816)
I0907 00:06:25.163794 92039 layer_factory.hpp:76] Creating layer inception_4c/3x3
I0907 00:06:25.163805 92039 net.cpp:110] Creating Layer inception_4c/3x3
I0907 00:06:25.163812 92039 net.cpp:477] inception_4c/3x3 <- inception_4c/3x3_reduce
I0907 00:06:25.163823 92039 net.cpp:433] inception_4c/3x3 -> inception_4c/3x3
I0907 00:06:25.169466 92039 net.cpp:155] Setting up inception_4c/3x3
I0907 00:06:25.169492 92039 net.cpp:163] Top shape: 32 256 14 14 (1605632)
I0907 00:06:25.169525 92039 layer_factory.hpp:76] Creating layer inception_4c/relu_3x3
I0907 00:06:25.169540 92039 net.cpp:110] Creating Layer inception_4c/relu_3x3
I0907 00:06:25.169549 92039 net.cpp:477] inception_4c/relu_3x3 <- inception_4c/3x3
I0907 00:06:25.169560 92039 net.cpp:419] inception_4c/relu_3x3 -> inception_4c/3x3 (in-place)
I0907 00:06:25.169575 92039 net.cpp:155] Setting up inception_4c/relu_3x3
I0907 00:06:25.169585 92039 net.cpp:163] Top shape: 32 256 14 14 (1605632)
I0907 00:06:25.169592 92039 layer_factory.hpp:76] Creating layer inception_4c/5x5_reduce
I0907 00:06:25.169607 92039 net.cpp:110] Creating Layer inception_4c/5x5_reduce
I0907 00:06:25.169615 92039 net.cpp:477] inception_4c/5x5_reduce <- inception_4b/output_inception_4b/output_0_split_2
I0907 00:06:25.169630 92039 net.cpp:433] inception_4c/5x5_reduce -> inception_4c/5x5_reduce
I0907 00:06:25.169934 92039 net.cpp:155] Setting up inception_4c/5x5_reduce
I0907 00:06:25.169948 92039 net.cpp:163] Top shape: 32 24 14 14 (150528)
I0907 00:06:25.169961 92039 layer_factory.hpp:76] Creating layer inception_4c/relu_5x5_reduce
I0907 00:06:25.169972 92039 net.cpp:110] Creating Layer inception_4c/relu_5x5_reduce
I0907 00:06:25.169981 92039 net.cpp:477] inception_4c/relu_5x5_reduce <- inception_4c/5x5_reduce
I0907 00:06:25.169992 92039 net.cpp:419] inception_4c/relu_5x5_reduce -> inception_4c/5x5_reduce (in-place)
I0907 00:06:25.170004 92039 net.cpp:155] Setting up inception_4c/relu_5x5_reduce
I0907 00:06:25.170013 92039 net.cpp:163] Top shape: 32 24 14 14 (150528)
I0907 00:06:25.170022 92039 layer_factory.hpp:76] Creating layer inception_4c/5x5
I0907 00:06:25.170034 92039 net.cpp:110] Creating Layer inception_4c/5x5
I0907 00:06:25.170042 92039 net.cpp:477] inception_4c/5x5 <- inception_4c/5x5_reduce
I0907 00:06:25.170054 92039 net.cpp:433] inception_4c/5x5 -> inception_4c/5x5
I0907 00:06:25.171597 92039 net.cpp:155] Setting up inception_4c/5x5
I0907 00:06:25.171620 92039 net.cpp:163] Top shape: 32 64 14 14 (401408)
I0907 00:06:25.171634 92039 layer_factory.hpp:76] Creating layer inception_4c/relu_5x5
I0907 00:06:25.171649 92039 net.cpp:110] Creating Layer inception_4c/relu_5x5
I0907 00:06:25.171658 92039 net.cpp:477] inception_4c/relu_5x5 <- inception_4c/5x5
I0907 00:06:25.171679 92039 net.cpp:419] inception_4c/relu_5x5 -> inception_4c/5x5 (in-place)
I0907 00:06:25.171694 92039 net.cpp:155] Setting up inception_4c/relu_5x5
I0907 00:06:25.171707 92039 net.cpp:163] Top shape: 32 64 14 14 (401408)
I0907 00:06:25.171736 92039 layer_factory.hpp:76] Creating layer inception_4c/pool
I0907 00:06:25.171748 92039 net.cpp:110] Creating Layer inception_4c/pool
I0907 00:06:25.171756 92039 net.cpp:477] inception_4c/pool <- inception_4b/output_inception_4b/output_0_split_3
I0907 00:06:25.171771 92039 net.cpp:433] inception_4c/pool -> inception_4c/pool
I0907 00:06:25.171788 92039 net.cpp:155] Setting up inception_4c/pool
I0907 00:06:25.171798 92039 net.cpp:163] Top shape: 32 512 14 14 (3211264)
I0907 00:06:25.171805 92039 layer_factory.hpp:76] Creating layer inception_4c/pool_proj
I0907 00:06:25.171819 92039 net.cpp:110] Creating Layer inception_4c/pool_proj
I0907 00:06:25.171826 92039 net.cpp:477] inception_4c/pool_proj <- inception_4c/pool
I0907 00:06:25.171841 92039 net.cpp:433] inception_4c/pool_proj -> inception_4c/pool_proj
I0907 00:06:25.172456 92039 net.cpp:155] Setting up inception_4c/pool_proj
I0907 00:06:25.172474 92039 net.cpp:163] Top shape: 32 64 14 14 (401408)
I0907 00:06:25.172488 92039 layer_factory.hpp:76] Creating layer inception_4c/relu_pool_proj
I0907 00:06:25.172502 92039 net.cpp:110] Creating Layer inception_4c/relu_pool_proj
I0907 00:06:25.172509 92039 net.cpp:477] inception_4c/relu_pool_proj <- inception_4c/pool_proj
I0907 00:06:25.172519 92039 net.cpp:419] inception_4c/relu_pool_proj -> inception_4c/pool_proj (in-place)
I0907 00:06:25.172533 92039 net.cpp:155] Setting up inception_4c/relu_pool_proj
I0907 00:06:25.172541 92039 net.cpp:163] Top shape: 32 64 14 14 (401408)
I0907 00:06:25.172549 92039 layer_factory.hpp:76] Creating layer inception_4c/output
I0907 00:06:25.172562 92039 net.cpp:110] Creating Layer inception_4c/output
I0907 00:06:25.172569 92039 net.cpp:477] inception_4c/output <- inception_4c/1x1
I0907 00:06:25.172579 92039 net.cpp:477] inception_4c/output <- inception_4c/3x3
I0907 00:06:25.172587 92039 net.cpp:477] inception_4c/output <- inception_4c/5x5
I0907 00:06:25.172595 92039 net.cpp:477] inception_4c/output <- inception_4c/pool_proj
I0907 00:06:25.172607 92039 net.cpp:433] inception_4c/output -> inception_4c/output
I0907 00:06:25.172622 92039 net.cpp:155] Setting up inception_4c/output
I0907 00:06:25.172631 92039 net.cpp:163] Top shape: 32 512 14 14 (3211264)
I0907 00:06:25.172638 92039 layer_factory.hpp:76] Creating layer inception_4c/output_inception_4c/output_0_split
I0907 00:06:25.172649 92039 net.cpp:110] Creating Layer inception_4c/output_inception_4c/output_0_split
I0907 00:06:25.172657 92039 net.cpp:477] inception_4c/output_inception_4c/output_0_split <- inception_4c/output
I0907 00:06:25.172668 92039 net.cpp:433] inception_4c/output_inception_4c/output_0_split -> inception_4c/output_inception_4c/output_0_split_0
I0907 00:06:25.172683 92039 net.cpp:433] inception_4c/output_inception_4c/output_0_split -> inception_4c/output_inception_4c/output_0_split_1
I0907 00:06:25.172695 92039 net.cpp:433] inception_4c/output_inception_4c/output_0_split -> inception_4c/output_inception_4c/output_0_split_2
I0907 00:06:25.172708 92039 net.cpp:433] inception_4c/output_inception_4c/output_0_split -> inception_4c/output_inception_4c/output_0_split_3
I0907 00:06:25.172722 92039 net.cpp:155] Setting up inception_4c/output_inception_4c/output_0_split
I0907 00:06:25.172731 92039 net.cpp:163] Top shape: 32 512 14 14 (3211264)
I0907 00:06:25.172739 92039 net.cpp:163] Top shape: 32 512 14 14 (3211264)
I0907 00:06:25.172749 92039 net.cpp:163] Top shape: 32 512 14 14 (3211264)
I0907 00:06:25.172756 92039 net.cpp:163] Top shape: 32 512 14 14 (3211264)
I0907 00:06:25.172763 92039 layer_factory.hpp:76] Creating layer inception_4d/1x1
I0907 00:06:25.172777 92039 net.cpp:110] Creating Layer inception_4d/1x1
I0907 00:06:25.172785 92039 net.cpp:477] inception_4d/1x1 <- inception_4c/output_inception_4c/output_0_split_0
I0907 00:06:25.172796 92039 net.cpp:433] inception_4d/1x1 -> inception_4d/1x1
I0907 00:06:25.173794 92039 net.cpp:155] Setting up inception_4d/1x1
I0907 00:06:25.173810 92039 net.cpp:163] Top shape: 32 112 14 14 (702464)
I0907 00:06:25.173825 92039 layer_factory.hpp:76] Creating layer inception_4d/relu_1x1
I0907 00:06:25.173852 92039 net.cpp:110] Creating Layer inception_4d/relu_1x1
I0907 00:06:25.173861 92039 net.cpp:477] inception_4d/relu_1x1 <- inception_4d/1x1
I0907 00:06:25.173872 92039 net.cpp:419] inception_4d/relu_1x1 -> inception_4d/1x1 (in-place)
I0907 00:06:25.173884 92039 net.cpp:155] Setting up inception_4d/relu_1x1
I0907 00:06:25.173894 92039 net.cpp:163] Top shape: 32 112 14 14 (702464)
I0907 00:06:25.173902 92039 layer_factory.hpp:76] Creating layer inception_4d/3x3_reduce
I0907 00:06:25.173918 92039 net.cpp:110] Creating Layer inception_4d/3x3_reduce
I0907 00:06:25.173924 92039 net.cpp:477] inception_4d/3x3_reduce <- inception_4c/output_inception_4c/output_0_split_1
I0907 00:06:25.173938 92039 net.cpp:433] inception_4d/3x3_reduce -> inception_4d/3x3_reduce
I0907 00:06:25.175197 92039 net.cpp:155] Setting up inception_4d/3x3_reduce
I0907 00:06:25.175214 92039 net.cpp:163] Top shape: 32 144 14 14 (903168)
I0907 00:06:25.175225 92039 layer_factory.hpp:76] Creating layer inception_4d/relu_3x3_reduce
I0907 00:06:25.175237 92039 net.cpp:110] Creating Layer inception_4d/relu_3x3_reduce
I0907 00:06:25.175246 92039 net.cpp:477] inception_4d/relu_3x3_reduce <- inception_4d/3x3_reduce
I0907 00:06:25.175258 92039 net.cpp:419] inception_4d/relu_3x3_reduce -> inception_4d/3x3_reduce (in-place)
I0907 00:06:25.175271 92039 net.cpp:155] Setting up inception_4d/relu_3x3_reduce
I0907 00:06:25.175279 92039 net.cpp:163] Top shape: 32 144 14 14 (903168)
I0907 00:06:25.175287 92039 layer_factory.hpp:76] Creating layer inception_4d/3x3
I0907 00:06:25.175300 92039 net.cpp:110] Creating Layer inception_4d/3x3
I0907 00:06:25.175307 92039 net.cpp:477] inception_4d/3x3 <- inception_4d/3x3_reduce
I0907 00:06:25.175318 92039 net.cpp:433] inception_4d/3x3 -> inception_4d/3x3
I0907 00:06:25.182446 92039 net.cpp:155] Setting up inception_4d/3x3
I0907 00:06:25.182472 92039 net.cpp:163] Top shape: 32 288 14 14 (1806336)
I0907 00:06:25.182487 92039 layer_factory.hpp:76] Creating layer inception_4d/relu_3x3
I0907 00:06:25.182498 92039 net.cpp:110] Creating Layer inception_4d/relu_3x3
I0907 00:06:25.182507 92039 net.cpp:477] inception_4d/relu_3x3 <- inception_4d/3x3
I0907 00:06:25.182518 92039 net.cpp:419] inception_4d/relu_3x3 -> inception_4d/3x3 (in-place)
I0907 00:06:25.182533 92039 net.cpp:155] Setting up inception_4d/relu_3x3
I0907 00:06:25.182543 92039 net.cpp:163] Top shape: 32 288 14 14 (1806336)
I0907 00:06:25.182550 92039 layer_factory.hpp:76] Creating layer inception_4d/5x5_reduce
I0907 00:06:25.182565 92039 net.cpp:110] Creating Layer inception_4d/5x5_reduce
I0907 00:06:25.182574 92039 net.cpp:477] inception_4d/5x5_reduce <- inception_4c/output_inception_4c/output_0_split_2
I0907 00:06:25.182586 92039 net.cpp:433] inception_4d/5x5_reduce -> inception_4d/5x5_reduce
I0907 00:06:25.182965 92039 net.cpp:155] Setting up inception_4d/5x5_reduce
I0907 00:06:25.182981 92039 net.cpp:163] Top shape: 32 32 14 14 (200704)
I0907 00:06:25.182992 92039 layer_factory.hpp:76] Creating layer inception_4d/relu_5x5_reduce
I0907 00:06:25.183004 92039 net.cpp:110] Creating Layer inception_4d/relu_5x5_reduce
I0907 00:06:25.183012 92039 net.cpp:477] inception_4d/relu_5x5_reduce <- inception_4d/5x5_reduce
I0907 00:06:25.183023 92039 net.cpp:419] inception_4d/relu_5x5_reduce -> inception_4d/5x5_reduce (in-place)
I0907 00:06:25.183037 92039 net.cpp:155] Setting up inception_4d/relu_5x5_reduce
I0907 00:06:25.183045 92039 net.cpp:163] Top shape: 32 32 14 14 (200704)
I0907 00:06:25.183053 92039 layer_factory.hpp:76] Creating layer inception_4d/5x5
I0907 00:06:25.183064 92039 net.cpp:110] Creating Layer inception_4d/5x5
I0907 00:06:25.183070 92039 net.cpp:477] inception_4d/5x5 <- inception_4d/5x5_reduce
I0907 00:06:25.183084 92039 net.cpp:433] inception_4d/5x5 -> inception_4d/5x5
I0907 00:06:25.183993 92039 net.cpp:155] Setting up inception_4d/5x5
I0907 00:06:25.184010 92039 net.cpp:163] Top shape: 32 64 14 14 (401408)
I0907 00:06:25.184028 92039 layer_factory.hpp:76] Creating layer inception_4d/relu_5x5
I0907 00:06:25.184062 92039 net.cpp:110] Creating Layer inception_4d/relu_5x5
I0907 00:06:25.184070 92039 net.cpp:477] inception_4d/relu_5x5 <- inception_4d/5x5
I0907 00:06:25.184082 92039 net.cpp:419] inception_4d/relu_5x5 -> inception_4d/5x5 (in-place)
I0907 00:06:25.184094 92039 net.cpp:155] Setting up inception_4d/relu_5x5
I0907 00:06:25.184103 92039 net.cpp:163] Top shape: 32 64 14 14 (401408)
I0907 00:06:25.184110 92039 layer_factory.hpp:76] Creating layer inception_4d/pool
I0907 00:06:25.184124 92039 net.cpp:110] Creating Layer inception_4d/pool
I0907 00:06:25.184133 92039 net.cpp:477] inception_4d/pool <- inception_4c/output_inception_4c/output_0_split_3
I0907 00:06:25.184144 92039 net.cpp:433] inception_4d/pool -> inception_4d/pool
I0907 00:06:25.184160 92039 net.cpp:155] Setting up inception_4d/pool
I0907 00:06:25.184170 92039 net.cpp:163] Top shape: 32 512 14 14 (3211264)
I0907 00:06:25.184177 92039 layer_factory.hpp:76] Creating layer inception_4d/pool_proj
I0907 00:06:25.184192 92039 net.cpp:110] Creating Layer inception_4d/pool_proj
I0907 00:06:25.184200 92039 net.cpp:477] inception_4d/pool_proj <- inception_4d/pool
I0907 00:06:25.184212 92039 net.cpp:433] inception_4d/pool_proj -> inception_4d/pool_proj
I0907 00:06:25.184828 92039 net.cpp:155] Setting up inception_4d/pool_proj
I0907 00:06:25.184846 92039 net.cpp:163] Top shape: 32 64 14 14 (401408)
I0907 00:06:25.184859 92039 layer_factory.hpp:76] Creating layer inception_4d/relu_pool_proj
I0907 00:06:25.184869 92039 net.cpp:110] Creating Layer inception_4d/relu_pool_proj
I0907 00:06:25.184876 92039 net.cpp:477] inception_4d/relu_pool_proj <- inception_4d/pool_proj
I0907 00:06:25.184886 92039 net.cpp:419] inception_4d/relu_pool_proj -> inception_4d/pool_proj (in-place)
I0907 00:06:25.184900 92039 net.cpp:155] Setting up inception_4d/relu_pool_proj
I0907 00:06:25.184909 92039 net.cpp:163] Top shape: 32 64 14 14 (401408)
I0907 00:06:25.184916 92039 layer_factory.hpp:76] Creating layer inception_4d/output
I0907 00:06:25.184931 92039 net.cpp:110] Creating Layer inception_4d/output
I0907 00:06:25.184937 92039 net.cpp:477] inception_4d/output <- inception_4d/1x1
I0907 00:06:25.184947 92039 net.cpp:477] inception_4d/output <- inception_4d/3x3
I0907 00:06:25.184955 92039 net.cpp:477] inception_4d/output <- inception_4d/5x5
I0907 00:06:25.184963 92039 net.cpp:477] inception_4d/output <- inception_4d/pool_proj
I0907 00:06:25.184974 92039 net.cpp:433] inception_4d/output -> inception_4d/output
I0907 00:06:25.184988 92039 net.cpp:155] Setting up inception_4d/output
I0907 00:06:25.184998 92039 net.cpp:163] Top shape: 32 528 14 14 (3311616)
I0907 00:06:25.185004 92039 layer_factory.hpp:76] Creating layer inception_4d/output_inception_4d/output_0_split
I0907 00:06:25.185015 92039 net.cpp:110] Creating Layer inception_4d/output_inception_4d/output_0_split
I0907 00:06:25.185024 92039 net.cpp:477] inception_4d/output_inception_4d/output_0_split <- inception_4d/output
I0907 00:06:25.185037 92039 net.cpp:433] inception_4d/output_inception_4d/output_0_split -> inception_4d/output_inception_4d/output_0_split_0
I0907 00:06:25.185052 92039 net.cpp:433] inception_4d/output_inception_4d/output_0_split -> inception_4d/output_inception_4d/output_0_split_1
I0907 00:06:25.185065 92039 net.cpp:433] inception_4d/output_inception_4d/output_0_split -> inception_4d/output_inception_4d/output_0_split_2
I0907 00:06:25.185080 92039 net.cpp:433] inception_4d/output_inception_4d/output_0_split -> inception_4d/output_inception_4d/output_0_split_3
I0907 00:06:25.185091 92039 net.cpp:433] inception_4d/output_inception_4d/output_0_split -> inception_4d/output_inception_4d/output_0_split_4
I0907 00:06:25.185106 92039 net.cpp:155] Setting up inception_4d/output_inception_4d/output_0_split
I0907 00:06:25.185132 92039 net.cpp:163] Top shape: 32 528 14 14 (3311616)
I0907 00:06:25.185142 92039 net.cpp:163] Top shape: 32 528 14 14 (3311616)
I0907 00:06:25.185149 92039 net.cpp:163] Top shape: 32 528 14 14 (3311616)
I0907 00:06:25.185158 92039 net.cpp:163] Top shape: 32 528 14 14 (3311616)
I0907 00:06:25.185165 92039 net.cpp:163] Top shape: 32 528 14 14 (3311616)
I0907 00:06:25.185189 92039 layer_factory.hpp:76] Creating layer loss2/ave_pool
I0907 00:06:25.185201 92039 net.cpp:110] Creating Layer loss2/ave_pool
I0907 00:06:25.185209 92039 net.cpp:477] loss2/ave_pool <- inception_4d/output_inception_4d/output_0_split_0
I0907 00:06:25.185222 92039 net.cpp:433] loss2/ave_pool -> loss2/ave_pool
I0907 00:06:25.185240 92039 net.cpp:155] Setting up loss2/ave_pool
I0907 00:06:25.185248 92039 net.cpp:163] Top shape: 32 528 4 4 (270336)
I0907 00:06:25.185256 92039 layer_factory.hpp:76] Creating layer loss2/conv
I0907 00:06:25.185271 92039 net.cpp:110] Creating Layer loss2/conv
I0907 00:06:25.185277 92039 net.cpp:477] loss2/conv <- loss2/ave_pool
I0907 00:06:25.185291 92039 net.cpp:433] loss2/conv -> loss2/conv
I0907 00:06:25.187315 92039 net.cpp:155] Setting up loss2/conv
I0907 00:06:25.187340 92039 net.cpp:163] Top shape: 32 128 4 4 (65536)
I0907 00:06:25.187357 92039 layer_factory.hpp:76] Creating layer loss2/relu_conv
I0907 00:06:25.187369 92039 net.cpp:110] Creating Layer loss2/relu_conv
I0907 00:06:25.187377 92039 net.cpp:477] loss2/relu_conv <- loss2/conv
I0907 00:06:25.187389 92039 net.cpp:419] loss2/relu_conv -> loss2/conv (in-place)
I0907 00:06:25.187403 92039 net.cpp:155] Setting up loss2/relu_conv
I0907 00:06:25.187413 92039 net.cpp:163] Top shape: 32 128 4 4 (65536)
I0907 00:06:25.187422 92039 layer_factory.hpp:76] Creating layer loss2/fc
I0907 00:06:25.187436 92039 net.cpp:110] Creating Layer loss2/fc
I0907 00:06:25.187443 92039 net.cpp:477] loss2/fc <- loss2/conv
I0907 00:06:25.187458 92039 net.cpp:433] loss2/fc -> loss2/fc
I0907 00:06:25.226347 92039 net.cpp:155] Setting up loss2/fc
I0907 00:06:25.226374 92039 net.cpp:163] Top shape: 32 1024 (32768)
I0907 00:06:25.226389 92039 layer_factory.hpp:76] Creating layer loss2/relu_fc
I0907 00:06:25.226402 92039 net.cpp:110] Creating Layer loss2/relu_fc
I0907 00:06:25.226411 92039 net.cpp:477] loss2/relu_fc <- loss2/fc
I0907 00:06:25.226424 92039 net.cpp:419] loss2/relu_fc -> loss2/fc (in-place)
I0907 00:06:25.226438 92039 net.cpp:155] Setting up loss2/relu_fc
I0907 00:06:25.226449 92039 net.cpp:163] Top shape: 32 1024 (32768)
I0907 00:06:25.226455 92039 layer_factory.hpp:76] Creating layer loss2/drop_fc
I0907 00:06:25.226469 92039 net.cpp:110] Creating Layer loss2/drop_fc
I0907 00:06:25.226476 92039 net.cpp:477] loss2/drop_fc <- loss2/fc
I0907 00:06:25.226487 92039 net.cpp:419] loss2/drop_fc -> loss2/fc (in-place)
I0907 00:06:25.226502 92039 net.cpp:155] Setting up loss2/drop_fc
I0907 00:06:25.226511 92039 net.cpp:163] Top shape: 32 1024 (32768)
I0907 00:06:25.226521 92039 layer_factory.hpp:76] Creating layer loss2/classifier_cub
I0907 00:06:25.226533 92039 net.cpp:110] Creating Layer loss2/classifier_cub
I0907 00:06:25.226541 92039 net.cpp:477] loss2/classifier_cub <- loss2/fc
I0907 00:06:25.226552 92039 net.cpp:433] loss2/classifier_cub -> loss2/classifier
I0907 00:06:25.242118 92039 net.cpp:155] Setting up loss2/classifier_cub
I0907 00:06:25.242144 92039 net.cpp:163] Top shape: 32 200 (6400)
I0907 00:06:25.242158 92039 layer_factory.hpp:76] Creating layer loss2/loss
I0907 00:06:25.242174 92039 net.cpp:110] Creating Layer loss2/loss
I0907 00:06:25.242182 92039 net.cpp:477] loss2/loss <- loss2/classifier
I0907 00:06:25.242193 92039 net.cpp:477] loss2/loss <- label_data_1_split_1
I0907 00:06:25.242207 92039 net.cpp:433] loss2/loss -> loss2/loss1
I0907 00:06:25.242223 92039 layer_factory.hpp:76] Creating layer loss2/loss
I0907 00:06:25.242341 92039 net.cpp:155] Setting up loss2/loss
I0907 00:06:25.242357 92039 net.cpp:163] Top shape: (1)
I0907 00:06:25.242363 92039 net.cpp:168]     with loss weight 0.3
I0907 00:06:25.242394 92039 layer_factory.hpp:76] Creating layer inception_4e/1x1
I0907 00:06:25.242411 92039 net.cpp:110] Creating Layer inception_4e/1x1
I0907 00:06:25.242419 92039 net.cpp:477] inception_4e/1x1 <- inception_4d/output_inception_4d/output_0_split_1
I0907 00:06:25.242431 92039 net.cpp:433] inception_4e/1x1 -> inception_4e/1x1
I0907 00:06:25.244654 92039 net.cpp:155] Setting up inception_4e/1x1
I0907 00:06:25.244698 92039 net.cpp:163] Top shape: 32 256 14 14 (1605632)
I0907 00:06:25.244712 92039 layer_factory.hpp:76] Creating layer inception_4e/relu_1x1
I0907 00:06:25.244724 92039 net.cpp:110] Creating Layer inception_4e/relu_1x1
I0907 00:06:25.244732 92039 net.cpp:477] inception_4e/relu_1x1 <- inception_4e/1x1
I0907 00:06:25.244745 92039 net.cpp:419] inception_4e/relu_1x1 -> inception_4e/1x1 (in-place)
I0907 00:06:25.244757 92039 net.cpp:155] Setting up inception_4e/relu_1x1
I0907 00:06:25.244766 92039 net.cpp:163] Top shape: 32 256 14 14 (1605632)
I0907 00:06:25.244776 92039 layer_factory.hpp:76] Creating layer inception_4e/3x3_reduce
I0907 00:06:25.244789 92039 net.cpp:110] Creating Layer inception_4e/3x3_reduce
I0907 00:06:25.244796 92039 net.cpp:477] inception_4e/3x3_reduce <- inception_4d/output_inception_4d/output_0_split_2
I0907 00:06:25.244809 92039 net.cpp:433] inception_4e/3x3_reduce -> inception_4e/3x3_reduce
I0907 00:06:25.247277 92039 net.cpp:155] Setting up inception_4e/3x3_reduce
I0907 00:06:25.247300 92039 net.cpp:163] Top shape: 32 160 14 14 (1003520)
I0907 00:06:25.247314 92039 layer_factory.hpp:76] Creating layer inception_4e/relu_3x3_reduce
I0907 00:06:25.247328 92039 net.cpp:110] Creating Layer inception_4e/relu_3x3_reduce
I0907 00:06:25.247337 92039 net.cpp:477] inception_4e/relu_3x3_reduce <- inception_4e/3x3_reduce
I0907 00:06:25.247351 92039 net.cpp:419] inception_4e/relu_3x3_reduce -> inception_4e/3x3_reduce (in-place)
I0907 00:06:25.247365 92039 net.cpp:155] Setting up inception_4e/relu_3x3_reduce
I0907 00:06:25.247375 92039 net.cpp:163] Top shape: 32 160 14 14 (1003520)
I0907 00:06:25.247382 92039 layer_factory.hpp:76] Creating layer inception_4e/3x3
I0907 00:06:25.247397 92039 net.cpp:110] Creating Layer inception_4e/3x3
I0907 00:06:25.247405 92039 net.cpp:477] inception_4e/3x3 <- inception_4e/3x3_reduce
I0907 00:06:25.247417 92039 net.cpp:433] inception_4e/3x3 -> inception_4e/3x3
I0907 00:06:25.256387 92039 net.cpp:155] Setting up inception_4e/3x3
I0907 00:06:25.256414 92039 net.cpp:163] Top shape: 32 320 14 14 (2007040)
I0907 00:06:25.256429 92039 layer_factory.hpp:76] Creating layer inception_4e/relu_3x3
I0907 00:06:25.256441 92039 net.cpp:110] Creating Layer inception_4e/relu_3x3
I0907 00:06:25.256450 92039 net.cpp:477] inception_4e/relu_3x3 <- inception_4e/3x3
I0907 00:06:25.256470 92039 net.cpp:419] inception_4e/relu_3x3 -> inception_4e/3x3 (in-place)
I0907 00:06:25.256484 92039 net.cpp:155] Setting up inception_4e/relu_3x3
I0907 00:06:25.256494 92039 net.cpp:163] Top shape: 32 320 14 14 (2007040)
I0907 00:06:25.256500 92039 layer_factory.hpp:76] Creating layer inception_4e/5x5_reduce
I0907 00:06:25.256515 92039 net.cpp:110] Creating Layer inception_4e/5x5_reduce
I0907 00:06:25.256523 92039 net.cpp:477] inception_4e/5x5_reduce <- inception_4d/output_inception_4d/output_0_split_3
I0907 00:06:25.256542 92039 net.cpp:433] inception_4e/5x5_reduce -> inception_4e/5x5_reduce
I0907 00:06:25.256929 92039 net.cpp:155] Setting up inception_4e/5x5_reduce
I0907 00:06:25.256947 92039 net.cpp:163] Top shape: 32 32 14 14 (200704)
I0907 00:06:25.256958 92039 layer_factory.hpp:76] Creating layer inception_4e/relu_5x5_reduce
I0907 00:06:25.256973 92039 net.cpp:110] Creating Layer inception_4e/relu_5x5_reduce
I0907 00:06:25.256980 92039 net.cpp:477] inception_4e/relu_5x5_reduce <- inception_4e/5x5_reduce
I0907 00:06:25.256990 92039 net.cpp:419] inception_4e/relu_5x5_reduce -> inception_4e/5x5_reduce (in-place)
I0907 00:06:25.257004 92039 net.cpp:155] Setting up inception_4e/relu_5x5_reduce
I0907 00:06:25.257012 92039 net.cpp:163] Top shape: 32 32 14 14 (200704)
I0907 00:06:25.257019 92039 layer_factory.hpp:76] Creating layer inception_4e/5x5
I0907 00:06:25.257058 92039 net.cpp:110] Creating Layer inception_4e/5x5
I0907 00:06:25.257066 92039 net.cpp:477] inception_4e/5x5 <- inception_4e/5x5_reduce
I0907 00:06:25.257078 92039 net.cpp:433] inception_4e/5x5 -> inception_4e/5x5
I0907 00:06:25.258780 92039 net.cpp:155] Setting up inception_4e/5x5
I0907 00:06:25.258796 92039 net.cpp:163] Top shape: 32 128 14 14 (802816)
I0907 00:06:25.258836 92039 layer_factory.hpp:76] Creating layer inception_4e/relu_5x5
I0907 00:06:25.258855 92039 net.cpp:110] Creating Layer inception_4e/relu_5x5
I0907 00:06:25.258863 92039 net.cpp:477] inception_4e/relu_5x5 <- inception_4e/5x5
I0907 00:06:25.258873 92039 net.cpp:419] inception_4e/relu_5x5 -> inception_4e/5x5 (in-place)
I0907 00:06:25.258888 92039 net.cpp:155] Setting up inception_4e/relu_5x5
I0907 00:06:25.258896 92039 net.cpp:163] Top shape: 32 128 14 14 (802816)
I0907 00:06:25.258906 92039 layer_factory.hpp:76] Creating layer inception_4e/pool
I0907 00:06:25.258919 92039 net.cpp:110] Creating Layer inception_4e/pool
I0907 00:06:25.258927 92039 net.cpp:477] inception_4e/pool <- inception_4d/output_inception_4d/output_0_split_4
I0907 00:06:25.258939 92039 net.cpp:433] inception_4e/pool -> inception_4e/pool
I0907 00:06:25.258955 92039 net.cpp:155] Setting up inception_4e/pool
I0907 00:06:25.258965 92039 net.cpp:163] Top shape: 32 528 14 14 (3311616)
I0907 00:06:25.258971 92039 layer_factory.hpp:76] Creating layer inception_4e/pool_proj
I0907 00:06:25.258987 92039 net.cpp:110] Creating Layer inception_4e/pool_proj
I0907 00:06:25.258996 92039 net.cpp:477] inception_4e/pool_proj <- inception_4e/pool
I0907 00:06:25.259006 92039 net.cpp:433] inception_4e/pool_proj -> inception_4e/pool_proj
I0907 00:06:25.260184 92039 net.cpp:155] Setting up inception_4e/pool_proj
I0907 00:06:25.260201 92039 net.cpp:163] Top shape: 32 128 14 14 (802816)
I0907 00:06:25.260215 92039 layer_factory.hpp:76] Creating layer inception_4e/relu_pool_proj
I0907 00:06:25.260227 92039 net.cpp:110] Creating Layer inception_4e/relu_pool_proj
I0907 00:06:25.260236 92039 net.cpp:477] inception_4e/relu_pool_proj <- inception_4e/pool_proj
I0907 00:06:25.260246 92039 net.cpp:419] inception_4e/relu_pool_proj -> inception_4e/pool_proj (in-place)
I0907 00:06:25.260258 92039 net.cpp:155] Setting up inception_4e/relu_pool_proj
I0907 00:06:25.260267 92039 net.cpp:163] Top shape: 32 128 14 14 (802816)
I0907 00:06:25.260274 92039 layer_factory.hpp:76] Creating layer inception_4e/output
I0907 00:06:25.260288 92039 net.cpp:110] Creating Layer inception_4e/output
I0907 00:06:25.260295 92039 net.cpp:477] inception_4e/output <- inception_4e/1x1
I0907 00:06:25.260304 92039 net.cpp:477] inception_4e/output <- inception_4e/3x3
I0907 00:06:25.260313 92039 net.cpp:477] inception_4e/output <- inception_4e/5x5
I0907 00:06:25.260321 92039 net.cpp:477] inception_4e/output <- inception_4e/pool_proj
I0907 00:06:25.260336 92039 net.cpp:433] inception_4e/output -> inception_4e/output
I0907 00:06:25.260350 92039 net.cpp:155] Setting up inception_4e/output
I0907 00:06:25.260360 92039 net.cpp:163] Top shape: 32 832 14 14 (5218304)
I0907 00:06:25.260368 92039 layer_factory.hpp:76] Creating layer pool4/3x3_s2
I0907 00:06:25.260380 92039 net.cpp:110] Creating Layer pool4/3x3_s2
I0907 00:06:25.260388 92039 net.cpp:477] pool4/3x3_s2 <- inception_4e/output
I0907 00:06:25.260399 92039 net.cpp:433] pool4/3x3_s2 -> pool4/3x3_s2
I0907 00:06:25.260414 92039 net.cpp:155] Setting up pool4/3x3_s2
I0907 00:06:25.260423 92039 net.cpp:163] Top shape: 32 832 7 7 (1304576)
I0907 00:06:25.260431 92039 layer_factory.hpp:76] Creating layer pool4/3x3_s2_pool4/3x3_s2_0_split
I0907 00:06:25.260442 92039 net.cpp:110] Creating Layer pool4/3x3_s2_pool4/3x3_s2_0_split
I0907 00:06:25.260449 92039 net.cpp:477] pool4/3x3_s2_pool4/3x3_s2_0_split <- pool4/3x3_s2
I0907 00:06:25.260463 92039 net.cpp:433] pool4/3x3_s2_pool4/3x3_s2_0_split -> pool4/3x3_s2_pool4/3x3_s2_0_split_0
I0907 00:06:25.260478 92039 net.cpp:433] pool4/3x3_s2_pool4/3x3_s2_0_split -> pool4/3x3_s2_pool4/3x3_s2_0_split_1
I0907 00:06:25.260490 92039 net.cpp:433] pool4/3x3_s2_pool4/3x3_s2_0_split -> pool4/3x3_s2_pool4/3x3_s2_0_split_2
I0907 00:06:25.260504 92039 net.cpp:433] pool4/3x3_s2_pool4/3x3_s2_0_split -> pool4/3x3_s2_pool4/3x3_s2_0_split_3
I0907 00:06:25.260517 92039 net.cpp:155] Setting up pool4/3x3_s2_pool4/3x3_s2_0_split
I0907 00:06:25.260525 92039 net.cpp:163] Top shape: 32 832 7 7 (1304576)
I0907 00:06:25.260562 92039 net.cpp:163] Top shape: 32 832 7 7 (1304576)
I0907 00:06:25.260571 92039 net.cpp:163] Top shape: 32 832 7 7 (1304576)
I0907 00:06:25.260578 92039 net.cpp:163] Top shape: 32 832 7 7 (1304576)
I0907 00:06:25.260586 92039 layer_factory.hpp:76] Creating layer inception_5a/1x1
I0907 00:06:25.260598 92039 net.cpp:110] Creating Layer inception_5a/1x1
I0907 00:06:25.260607 92039 net.cpp:477] inception_5a/1x1 <- pool4/3x3_s2_pool4/3x3_s2_0_split_0
I0907 00:06:25.260618 92039 net.cpp:433] inception_5a/1x1 -> inception_5a/1x1
I0907 00:06:25.265110 92039 net.cpp:155] Setting up inception_5a/1x1
I0907 00:06:25.265136 92039 net.cpp:163] Top shape: 32 256 7 7 (401408)
I0907 00:06:25.265151 92039 layer_factory.hpp:76] Creating layer inception_5a/relu_1x1
I0907 00:06:25.265163 92039 net.cpp:110] Creating Layer inception_5a/relu_1x1
I0907 00:06:25.265172 92039 net.cpp:477] inception_5a/relu_1x1 <- inception_5a/1x1
I0907 00:06:25.265182 92039 net.cpp:419] inception_5a/relu_1x1 -> inception_5a/1x1 (in-place)
I0907 00:06:25.265197 92039 net.cpp:155] Setting up inception_5a/relu_1x1
I0907 00:06:25.265205 92039 net.cpp:163] Top shape: 32 256 7 7 (401408)
I0907 00:06:25.265213 92039 layer_factory.hpp:76] Creating layer inception_5a/3x3_reduce
I0907 00:06:25.265233 92039 net.cpp:110] Creating Layer inception_5a/3x3_reduce
I0907 00:06:25.265240 92039 net.cpp:477] inception_5a/3x3_reduce <- pool4/3x3_s2_pool4/3x3_s2_0_split_1
I0907 00:06:25.265254 92039 net.cpp:433] inception_5a/3x3_reduce -> inception_5a/3x3_reduce
I0907 00:06:25.268483 92039 net.cpp:155] Setting up inception_5a/3x3_reduce
I0907 00:06:25.268508 92039 net.cpp:163] Top shape: 32 160 7 7 (250880)
I0907 00:06:25.268522 92039 layer_factory.hpp:76] Creating layer inception_5a/relu_3x3_reduce
I0907 00:06:25.268537 92039 net.cpp:110] Creating Layer inception_5a/relu_3x3_reduce
I0907 00:06:25.268545 92039 net.cpp:477] inception_5a/relu_3x3_reduce <- inception_5a/3x3_reduce
I0907 00:06:25.268556 92039 net.cpp:419] inception_5a/relu_3x3_reduce -> inception_5a/3x3_reduce (in-place)
I0907 00:06:25.268570 92039 net.cpp:155] Setting up inception_5a/relu_3x3_reduce
I0907 00:06:25.268580 92039 net.cpp:163] Top shape: 32 160 7 7 (250880)
I0907 00:06:25.268587 92039 layer_factory.hpp:76] Creating layer inception_5a/3x3
I0907 00:06:25.268600 92039 net.cpp:110] Creating Layer inception_5a/3x3
I0907 00:06:25.268607 92039 net.cpp:477] inception_5a/3x3 <- inception_5a/3x3_reduce
I0907 00:06:25.268623 92039 net.cpp:433] inception_5a/3x3 -> inception_5a/3x3
I0907 00:06:25.277581 92039 net.cpp:155] Setting up inception_5a/3x3
I0907 00:06:25.277607 92039 net.cpp:163] Top shape: 32 320 7 7 (501760)
I0907 00:06:25.277621 92039 layer_factory.hpp:76] Creating layer inception_5a/relu_3x3
I0907 00:06:25.277633 92039 net.cpp:110] Creating Layer inception_5a/relu_3x3
I0907 00:06:25.277642 92039 net.cpp:477] inception_5a/relu_3x3 <- inception_5a/3x3
I0907 00:06:25.277664 92039 net.cpp:419] inception_5a/relu_3x3 -> inception_5a/3x3 (in-place)
I0907 00:06:25.277678 92039 net.cpp:155] Setting up inception_5a/relu_3x3
I0907 00:06:25.277688 92039 net.cpp:163] Top shape: 32 320 7 7 (501760)
I0907 00:06:25.277695 92039 layer_factory.hpp:76] Creating layer inception_5a/5x5_reduce
I0907 00:06:25.277712 92039 net.cpp:110] Creating Layer inception_5a/5x5_reduce
I0907 00:06:25.277720 92039 net.cpp:477] inception_5a/5x5_reduce <- pool4/3x3_s2_pool4/3x3_s2_0_split_2
I0907 00:06:25.277736 92039 net.cpp:433] inception_5a/5x5_reduce -> inception_5a/5x5_reduce
I0907 00:06:25.278270 92039 net.cpp:155] Setting up inception_5a/5x5_reduce
I0907 00:06:25.278286 92039 net.cpp:163] Top shape: 32 32 7 7 (50176)
I0907 00:06:25.278298 92039 layer_factory.hpp:76] Creating layer inception_5a/relu_5x5_reduce
I0907 00:06:25.278308 92039 net.cpp:110] Creating Layer inception_5a/relu_5x5_reduce
I0907 00:06:25.278317 92039 net.cpp:477] inception_5a/relu_5x5_reduce <- inception_5a/5x5_reduce
I0907 00:06:25.278331 92039 net.cpp:419] inception_5a/relu_5x5_reduce -> inception_5a/5x5_reduce (in-place)
I0907 00:06:25.278344 92039 net.cpp:155] Setting up inception_5a/relu_5x5_reduce
I0907 00:06:25.278379 92039 net.cpp:163] Top shape: 32 32 7 7 (50176)
I0907 00:06:25.278388 92039 layer_factory.hpp:76] Creating layer inception_5a/5x5
I0907 00:06:25.278399 92039 net.cpp:110] Creating Layer inception_5a/5x5
I0907 00:06:25.278406 92039 net.cpp:477] inception_5a/5x5 <- inception_5a/5x5_reduce
I0907 00:06:25.278419 92039 net.cpp:433] inception_5a/5x5 -> inception_5a/5x5
I0907 00:06:25.280130 92039 net.cpp:155] Setting up inception_5a/5x5
I0907 00:06:25.280148 92039 net.cpp:163] Top shape: 32 128 7 7 (200704)
I0907 00:06:25.280161 92039 layer_factory.hpp:76] Creating layer inception_5a/relu_5x5
I0907 00:06:25.280171 92039 net.cpp:110] Creating Layer inception_5a/relu_5x5
I0907 00:06:25.280179 92039 net.cpp:477] inception_5a/relu_5x5 <- inception_5a/5x5
I0907 00:06:25.280192 92039 net.cpp:419] inception_5a/relu_5x5 -> inception_5a/5x5 (in-place)
I0907 00:06:25.280205 92039 net.cpp:155] Setting up inception_5a/relu_5x5
I0907 00:06:25.280215 92039 net.cpp:163] Top shape: 32 128 7 7 (200704)
I0907 00:06:25.280221 92039 layer_factory.hpp:76] Creating layer inception_5a/pool
I0907 00:06:25.280237 92039 net.cpp:110] Creating Layer inception_5a/pool
I0907 00:06:25.280246 92039 net.cpp:477] inception_5a/pool <- pool4/3x3_s2_pool4/3x3_s2_0_split_3
I0907 00:06:25.280256 92039 net.cpp:433] inception_5a/pool -> inception_5a/pool
I0907 00:06:25.280273 92039 net.cpp:155] Setting up inception_5a/pool
I0907 00:06:25.280283 92039 net.cpp:163] Top shape: 32 832 7 7 (1304576)
I0907 00:06:25.280289 92039 layer_factory.hpp:76] Creating layer inception_5a/pool_proj
I0907 00:06:25.280302 92039 net.cpp:110] Creating Layer inception_5a/pool_proj
I0907 00:06:25.280308 92039 net.cpp:477] inception_5a/pool_proj <- inception_5a/pool
I0907 00:06:25.280324 92039 net.cpp:433] inception_5a/pool_proj -> inception_5a/pool_proj
I0907 00:06:25.283121 92039 net.cpp:155] Setting up inception_5a/pool_proj
I0907 00:06:25.283146 92039 net.cpp:163] Top shape: 32 128 7 7 (200704)
I0907 00:06:25.283160 92039 layer_factory.hpp:76] Creating layer inception_5a/relu_pool_proj
I0907 00:06:25.283172 92039 net.cpp:110] Creating Layer inception_5a/relu_pool_proj
I0907 00:06:25.283181 92039 net.cpp:477] inception_5a/relu_pool_proj <- inception_5a/pool_proj
I0907 00:06:25.283202 92039 net.cpp:419] inception_5a/relu_pool_proj -> inception_5a/pool_proj (in-place)
I0907 00:06:25.283217 92039 net.cpp:155] Setting up inception_5a/relu_pool_proj
I0907 00:06:25.283227 92039 net.cpp:163] Top shape: 32 128 7 7 (200704)
I0907 00:06:25.283233 92039 layer_factory.hpp:76] Creating layer inception_5a/output
I0907 00:06:25.283247 92039 net.cpp:110] Creating Layer inception_5a/output
I0907 00:06:25.283256 92039 net.cpp:477] inception_5a/output <- inception_5a/1x1
I0907 00:06:25.283264 92039 net.cpp:477] inception_5a/output <- inception_5a/3x3
I0907 00:06:25.283273 92039 net.cpp:477] inception_5a/output <- inception_5a/5x5
I0907 00:06:25.283282 92039 net.cpp:477] inception_5a/output <- inception_5a/pool_proj
I0907 00:06:25.283293 92039 net.cpp:433] inception_5a/output -> inception_5a/output
I0907 00:06:25.283308 92039 net.cpp:155] Setting up inception_5a/output
I0907 00:06:25.283316 92039 net.cpp:163] Top shape: 32 832 7 7 (1304576)
I0907 00:06:25.283325 92039 layer_factory.hpp:76] Creating layer inception_5a/output_inception_5a/output_0_split
I0907 00:06:25.283336 92039 net.cpp:110] Creating Layer inception_5a/output_inception_5a/output_0_split
I0907 00:06:25.283344 92039 net.cpp:477] inception_5a/output_inception_5a/output_0_split <- inception_5a/output
I0907 00:06:25.283355 92039 net.cpp:433] inception_5a/output_inception_5a/output_0_split -> inception_5a/output_inception_5a/output_0_split_0
I0907 00:06:25.283370 92039 net.cpp:433] inception_5a/output_inception_5a/output_0_split -> inception_5a/output_inception_5a/output_0_split_1
I0907 00:06:25.283383 92039 net.cpp:433] inception_5a/output_inception_5a/output_0_split -> inception_5a/output_inception_5a/output_0_split_2
I0907 00:06:25.283401 92039 net.cpp:433] inception_5a/output_inception_5a/output_0_split -> inception_5a/output_inception_5a/output_0_split_3
I0907 00:06:25.283447 92039 net.cpp:155] Setting up inception_5a/output_inception_5a/output_0_split
I0907 00:06:25.283458 92039 net.cpp:163] Top shape: 32 832 7 7 (1304576)
I0907 00:06:25.283468 92039 net.cpp:163] Top shape: 32 832 7 7 (1304576)
I0907 00:06:25.283475 92039 net.cpp:163] Top shape: 32 832 7 7 (1304576)
I0907 00:06:25.283483 92039 net.cpp:163] Top shape: 32 832 7 7 (1304576)
I0907 00:06:25.283489 92039 layer_factory.hpp:76] Creating layer inception_5b/1x1
I0907 00:06:25.283504 92039 net.cpp:110] Creating Layer inception_5b/1x1
I0907 00:06:25.283511 92039 net.cpp:477] inception_5b/1x1 <- inception_5a/output_inception_5a/output_0_split_0
I0907 00:06:25.283524 92039 net.cpp:433] inception_5b/1x1 -> inception_5b/1x1
I0907 00:06:25.289839 92039 net.cpp:155] Setting up inception_5b/1x1
I0907 00:06:25.289866 92039 net.cpp:163] Top shape: 32 384 7 7 (602112)
I0907 00:06:25.289880 92039 layer_factory.hpp:76] Creating layer inception_5b/relu_1x1
I0907 00:06:25.289892 92039 net.cpp:110] Creating Layer inception_5b/relu_1x1
I0907 00:06:25.289901 92039 net.cpp:477] inception_5b/relu_1x1 <- inception_5b/1x1
I0907 00:06:25.289911 92039 net.cpp:419] inception_5b/relu_1x1 -> inception_5b/1x1 (in-place)
I0907 00:06:25.289927 92039 net.cpp:155] Setting up inception_5b/relu_1x1
I0907 00:06:25.289935 92039 net.cpp:163] Top shape: 32 384 7 7 (602112)
I0907 00:06:25.289942 92039 layer_factory.hpp:76] Creating layer inception_5b/3x3_reduce
I0907 00:06:25.289959 92039 net.cpp:110] Creating Layer inception_5b/3x3_reduce
I0907 00:06:25.289968 92039 net.cpp:477] inception_5b/3x3_reduce <- inception_5a/output_inception_5a/output_0_split_1
I0907 00:06:25.289979 92039 net.cpp:433] inception_5b/3x3_reduce -> inception_5b/3x3_reduce
I0907 00:06:25.293622 92039 net.cpp:155] Setting up inception_5b/3x3_reduce
I0907 00:06:25.293653 92039 net.cpp:163] Top shape: 32 192 7 7 (301056)
I0907 00:06:25.293668 92039 layer_factory.hpp:76] Creating layer inception_5b/relu_3x3_reduce
I0907 00:06:25.293684 92039 net.cpp:110] Creating Layer inception_5b/relu_3x3_reduce
I0907 00:06:25.293691 92039 net.cpp:477] inception_5b/relu_3x3_reduce <- inception_5b/3x3_reduce
I0907 00:06:25.293702 92039 net.cpp:419] inception_5b/relu_3x3_reduce -> inception_5b/3x3_reduce (in-place)
I0907 00:06:25.293717 92039 net.cpp:155] Setting up inception_5b/relu_3x3_reduce
I0907 00:06:25.293727 92039 net.cpp:163] Top shape: 32 192 7 7 (301056)
I0907 00:06:25.293735 92039 layer_factory.hpp:76] Creating layer inception_5b/3x3
I0907 00:06:25.293747 92039 net.cpp:110] Creating Layer inception_5b/3x3
I0907 00:06:25.293754 92039 net.cpp:477] inception_5b/3x3 <- inception_5b/3x3_reduce
I0907 00:06:25.293766 92039 net.cpp:433] inception_5b/3x3 -> inception_5b/3x3
I0907 00:06:25.306541 92039 net.cpp:155] Setting up inception_5b/3x3
I0907 00:06:25.306579 92039 net.cpp:163] Top shape: 32 384 7 7 (602112)
I0907 00:06:25.306593 92039 layer_factory.hpp:76] Creating layer inception_5b/relu_3x3
I0907 00:06:25.306607 92039 net.cpp:110] Creating Layer inception_5b/relu_3x3
I0907 00:06:25.306614 92039 net.cpp:477] inception_5b/relu_3x3 <- inception_5b/3x3
I0907 00:06:25.306627 92039 net.cpp:419] inception_5b/relu_3x3 -> inception_5b/3x3 (in-place)
I0907 00:06:25.306641 92039 net.cpp:155] Setting up inception_5b/relu_3x3
I0907 00:06:25.306650 92039 net.cpp:163] Top shape: 32 384 7 7 (602112)
I0907 00:06:25.306656 92039 layer_factory.hpp:76] Creating layer inception_5b/5x5_reduce
I0907 00:06:25.306669 92039 net.cpp:110] Creating Layer inception_5b/5x5_reduce
I0907 00:06:25.306677 92039 net.cpp:477] inception_5b/5x5_reduce <- inception_5a/output_inception_5a/output_0_split_2
I0907 00:06:25.306694 92039 net.cpp:433] inception_5b/5x5_reduce -> inception_5b/5x5_reduce
I0907 00:06:25.308471 92039 net.cpp:155] Setting up inception_5b/5x5_reduce
I0907 00:06:25.308496 92039 net.cpp:163] Top shape: 32 48 7 7 (75264)
I0907 00:06:25.308511 92039 layer_factory.hpp:76] Creating layer inception_5b/relu_5x5_reduce
I0907 00:06:25.308547 92039 net.cpp:110] Creating Layer inception_5b/relu_5x5_reduce
I0907 00:06:25.308557 92039 net.cpp:477] inception_5b/relu_5x5_reduce <- inception_5b/5x5_reduce
I0907 00:06:25.308569 92039 net.cpp:419] inception_5b/relu_5x5_reduce -> inception_5b/5x5_reduce (in-place)
I0907 00:06:25.308584 92039 net.cpp:155] Setting up inception_5b/relu_5x5_reduce
I0907 00:06:25.308593 92039 net.cpp:163] Top shape: 32 48 7 7 (75264)
I0907 00:06:25.308601 92039 layer_factory.hpp:76] Creating layer inception_5b/5x5
I0907 00:06:25.308614 92039 net.cpp:110] Creating Layer inception_5b/5x5
I0907 00:06:25.308621 92039 net.cpp:477] inception_5b/5x5 <- inception_5b/5x5_reduce
I0907 00:06:25.308632 92039 net.cpp:433] inception_5b/5x5 -> inception_5b/5x5
I0907 00:06:25.311152 92039 net.cpp:155] Setting up inception_5b/5x5
I0907 00:06:25.311172 92039 net.cpp:163] Top shape: 32 128 7 7 (200704)
I0907 00:06:25.311185 92039 layer_factory.hpp:76] Creating layer inception_5b/relu_5x5
I0907 00:06:25.311197 92039 net.cpp:110] Creating Layer inception_5b/relu_5x5
I0907 00:06:25.311204 92039 net.cpp:477] inception_5b/relu_5x5 <- inception_5b/5x5
I0907 00:06:25.311215 92039 net.cpp:419] inception_5b/relu_5x5 -> inception_5b/5x5 (in-place)
I0907 00:06:25.311228 92039 net.cpp:155] Setting up inception_5b/relu_5x5
I0907 00:06:25.311236 92039 net.cpp:163] Top shape: 32 128 7 7 (200704)
I0907 00:06:25.311245 92039 layer_factory.hpp:76] Creating layer inception_5b/pool
I0907 00:06:25.311261 92039 net.cpp:110] Creating Layer inception_5b/pool
I0907 00:06:25.311269 92039 net.cpp:477] inception_5b/pool <- inception_5a/output_inception_5a/output_0_split_3
I0907 00:06:25.311280 92039 net.cpp:433] inception_5b/pool -> inception_5b/pool
I0907 00:06:25.311298 92039 net.cpp:155] Setting up inception_5b/pool
I0907 00:06:25.311307 92039 net.cpp:163] Top shape: 32 832 7 7 (1304576)
I0907 00:06:25.311314 92039 layer_factory.hpp:76] Creating layer inception_5b/pool_proj
I0907 00:06:25.311332 92039 net.cpp:110] Creating Layer inception_5b/pool_proj
I0907 00:06:25.311341 92039 net.cpp:477] inception_5b/pool_proj <- inception_5b/pool
I0907 00:06:25.311352 92039 net.cpp:433] inception_5b/pool_proj -> inception_5b/pool_proj
I0907 00:06:25.314159 92039 net.cpp:155] Setting up inception_5b/pool_proj
I0907 00:06:25.314184 92039 net.cpp:163] Top shape: 32 128 7 7 (200704)
I0907 00:06:25.314198 92039 layer_factory.hpp:76] Creating layer inception_5b/relu_pool_proj
I0907 00:06:25.314214 92039 net.cpp:110] Creating Layer inception_5b/relu_pool_proj
I0907 00:06:25.314224 92039 net.cpp:477] inception_5b/relu_pool_proj <- inception_5b/pool_proj
I0907 00:06:25.314234 92039 net.cpp:419] inception_5b/relu_pool_proj -> inception_5b/pool_proj (in-place)
I0907 00:06:25.314249 92039 net.cpp:155] Setting up inception_5b/relu_pool_proj
I0907 00:06:25.314259 92039 net.cpp:163] Top shape: 32 128 7 7 (200704)
I0907 00:06:25.314266 92039 layer_factory.hpp:76] Creating layer inception_5b/output
I0907 00:06:25.314277 92039 net.cpp:110] Creating Layer inception_5b/output
I0907 00:06:25.314285 92039 net.cpp:477] inception_5b/output <- inception_5b/1x1
I0907 00:06:25.314293 92039 net.cpp:477] inception_5b/output <- inception_5b/3x3
I0907 00:06:25.314302 92039 net.cpp:477] inception_5b/output <- inception_5b/5x5
I0907 00:06:25.314311 92039 net.cpp:477] inception_5b/output <- inception_5b/pool_proj
I0907 00:06:25.314321 92039 net.cpp:433] inception_5b/output -> inception_5b/output
I0907 00:06:25.314337 92039 net.cpp:155] Setting up inception_5b/output
I0907 00:06:25.314345 92039 net.cpp:163] Top shape: 32 1024 7 7 (1605632)
I0907 00:06:25.314352 92039 layer_factory.hpp:76] Creating layer pool5/7x7_s1
I0907 00:06:25.314365 92039 net.cpp:110] Creating Layer pool5/7x7_s1
I0907 00:06:25.314373 92039 net.cpp:477] pool5/7x7_s1 <- inception_5b/output
I0907 00:06:25.314388 92039 net.cpp:433] pool5/7x7_s1 -> pool5/7x7_s1
I0907 00:06:25.314404 92039 net.cpp:155] Setting up pool5/7x7_s1
I0907 00:06:25.314414 92039 net.cpp:163] Top shape: 32 1024 1 1 (32768)
I0907 00:06:25.314419 92039 layer_factory.hpp:76] Creating layer pool5/drop_7x7_s1
I0907 00:06:25.314472 92039 net.cpp:110] Creating Layer pool5/drop_7x7_s1
I0907 00:06:25.314481 92039 net.cpp:477] pool5/drop_7x7_s1 <- pool5/7x7_s1
I0907 00:06:25.314491 92039 net.cpp:419] pool5/drop_7x7_s1 -> pool5/7x7_s1 (in-place)
I0907 00:06:25.314507 92039 net.cpp:155] Setting up pool5/drop_7x7_s1
I0907 00:06:25.314517 92039 net.cpp:163] Top shape: 32 1024 1 1 (32768)
I0907 00:06:25.314523 92039 layer_factory.hpp:76] Creating layer loss3/classifier_cub
I0907 00:06:25.314537 92039 net.cpp:110] Creating Layer loss3/classifier_cub
I0907 00:06:25.314543 92039 net.cpp:477] loss3/classifier_cub <- pool5/7x7_s1
I0907 00:06:25.314554 92039 net.cpp:433] loss3/classifier_cub -> loss3/classifier
I0907 00:06:25.330147 92039 net.cpp:155] Setting up loss3/classifier_cub
I0907 00:06:25.330173 92039 net.cpp:163] Top shape: 32 200 (6400)
I0907 00:06:25.330191 92039 layer_factory.hpp:76] Creating layer loss3/loss3
I0907 00:06:25.330204 92039 net.cpp:110] Creating Layer loss3/loss3
I0907 00:06:25.330212 92039 net.cpp:477] loss3/loss3 <- loss3/classifier
I0907 00:06:25.330222 92039 net.cpp:477] loss3/loss3 <- label_data_1_split_2
I0907 00:06:25.330241 92039 net.cpp:433] loss3/loss3 -> loss3/loss3
I0907 00:06:25.330260 92039 layer_factory.hpp:76] Creating layer loss3/loss3
…
I0907 00:06:25.343014 92039 net.cpp:339] The NetState phase (1) differed from the phase (0) specified by a rule in layer data
I0907 00:06:25.345429 92039 net.cpp:50] Initializing net from parameters: 
name: "CUBNet"
state {
  phase: TEST
}
layer {
  name: "data"
  type: "ImageData"
  top: "data"
  top: "label"
  include {
    phase: TEST
  }
  transform_param {
    mirror: false
    crop_size: 224
    mean_value: 104
    mean_value: 117
    mean_value: 123
  }
  image_data_param {
    source: "data/CUB_200_2011/val_files.txt"
    batch_size: 32
    new_height: 256
    new_width: 256
  }
}
layer {
  name: "conv1/7x7_s2"
  type: "Convolution"
  bottom: "data"
  top: "conv1/7x7_s2"
  param {
    lr_mult: 1
    decay_mult: 1
  }
  param {
    lr_mult: 2
    decay_mult: 0
  }
  convolution_param {
    num_output: 64
    pad: 3
    kernel_size: 7
    stride: 2
    weight_filler {
      type: "xavier"
      std: 0.1
    }
    bias_filler {
      type: "constant"
      value: 0.2
    }
  }
}
layer {
  name: "conv1/relu_7x7"
  type: "ReLU"
  bottom: "conv1/7x7_s2"
  top: "conv1/7x7_s2"
}
layer {
  name: "pool1/3x3_s2"
  type: "Pooling"
  bottom: "conv1/7x7_s2"
  top: "pool1/3x3_s2"
  pooling_param {
    pool: MAX
    kernel_size: 3
    stride: 2
  }
}
layer {
  name: "pool1/norm1"
  type: "LRN"
  bottom: "pool1/3x3_s2"
  top: "pool1/norm1"
  lrn_param {
    local_size: 5
    alpha: 0.0001
    beta: 0.75
  }
}
layer {
  name: "conv2/3x3_reduce"
  type: "Convolution"
  bottom: "pool1/norm1"
  top: "conv2/3x3_reduce"
  param {
    lr_mult: 1
    decay_mult: 1
  }
  param {
    lr_mult: 2
    decay_mult: 0
  }
  convolution_param {
    num_output: 64
    kernel_size: 1
    weight_filler {
      type: "xavier"
      std: 0.1
    }
    bias_filler {
      type: "constant"
      value: 0.2
    }
  }
}
layer {
  name: "conv2/relu_3x3_reduce"
  type: "ReLU"
  bottom: "conv2/3x3_reduce"
  top: "conv2/3x3_reduce"
}
layer {
  name: "conv2/3x3"
  type: "Convolution"
  bottom: "conv2/3x3_reduce"
  top: "conv2/3x3"
  param {
    lr_mult: 1
    decay_mult: 1
  }
  param {
    lr_mult: 2
    decay_mult: 0
  }
  convolution_param {
    num_output: 192
    pad: 1
    kernel_size: 3
    weight_filler {
      type: "xavier"
      std: 0.03
    }
    bias_filler {
      type: "constant"
      value: 0.2
    }
  }
}
layer {
  name: "conv2/relu_3x3"
  type: "ReLU"
  bottom: "conv2/3x3"
  top: "conv2/3x3"
}
layer {
  name: "conv2/norm2"
  type: "LRN"
  bottom: "conv2/3x3"
  top: "conv2/norm2"
  lrn_param {
    local_size: 5
    alpha: 0.0001
    beta: 0.75
  }
}
layer {
  name: "pool2/3x3_s2"
  type: "Pooling"
  bottom: "conv2/norm2"
  top: "pool2/3x3_s2"
  pooling_param {
    pool: MAX
    kernel_size: 3
    stride: 2
  }
}
layer {
  name: "inception_3a/1x1"
  type: "Convolution"
  bottom: "pool2/3x3_s2"
  top: "inception_3a/1x1"
  param {
    lr_mult: 1
    decay_mult: 1
  }
  param {
    lr_mult: 2
    decay_mult: 0
  }
  convolution_param {
    num_output: 64
    kernel_size: 1
    weight_filler {
      type: "xavier"
      std: 0.03
    }
    bias_filler {
      type: "constant"
      value: 0.2
    }
  }
}
layer {
  name: "inception_3a/relu_1x1"
  type: "ReLU"
  bottom: "inception_3a/1x1"
  top: "inception_3a/1x1"
}
layer {
  name: "inception_3a/3x3_reduce"
  type: "Convolution"
  bottom: "pool2/3x3_s2"
  top: "inception_3a/3x3_reduce"
  param {
    lr_mult: 1
    decay_mult: 1
  }
  param {
    lr_mult: 2
    decay_mult: 0
  }
  convolution_param {
    num_output: 96
    kernel_size: 1
    weight_filler {
      type: "xavier"
      std: 0.09
    }
    bias_filler {
      type: "constant"
      value: 0.2
    }
  }
}
layer {
  name: "inception_3a/relu_3x3_reduce"
  type: "ReLU"
  bottom: "inception_3a/3x3_reduce"
  top: "inception_3a/3x3_reduce"
}
layer {
  name: "inception_3a/3x3"
  type: "Convolution"
  bottom: "inception_3a/3x3_reduce"
  top: "inception_3a/3x3"
  param {
    lr_mult: 1
    decay_mult: 1
  }
  param {
    lr_mult: 2
    decay_mult: 0
  }
  convolution_param {
    num_output: 128
    pad: 1
    kernel_size: 3
    weight_filler {
      type: "xavier"
      std: 0.03
    }
    bias_filler {
      type: "constant"
      value: 0.2
    }
  }
}
layer {
  name: "inception_3a/relu_3x3"
  type: "ReLU"
  bottom: "inception_3a/3x3"
  top: "inception_3a/3x3"
}
layer {
  name: "inception_3a/5x5_reduce"
  type: "Convolution"
  bottom: "pool2/3x3_s2"
  top: "inception_3a/5x5_reduce"
  param {
    lr_mult: 1
    decay_mult: 1
  }
  param {
    lr_mult: 2
    decay_mult: 0
  }
  convolution_param {
    num_output: 16
    kernel_size: 1
    weight_filler {
      type: "xavier"
      std: 0.2
    }
    bias_filler {
      type: "constant"
      value: 0.2
    }
  }
}
layer {
  name: "inception_3a/relu_5x5_reduce"
  type: "ReLU"
  bottom: "inception_3a/5x5_reduce"
  top: "inception_3a/5x5_reduce"
}
layer {
  name: "inception_3a/5x5"
  type: "Convolution"
  bottom: "inception_3a/5x5_reduce"
  top: "inception_3a/5x5"
  param {
    lr_mult: 1
    decay_mult: 1
  }
  param {
    lr_mult: 2
    decay_mult: 0
  }
  convolution_param {
    num_output: 32
    pad: 2
    kernel_size: 5
    weight_filler {
      type: "xavier"
      std: 0.03
    }
    bias_filler {
      type: "constant"
      value: 0.2
    }
  }
}
layer {
  name: "inception_3a/relu_5x5"
  type: "ReLU"
  bottom: "inception_3a/5x5"
  top: "inception_3a/5x5"
}
layer {
  name: "inception_3a/pool"
  type: "Pooling"
  bottom: "pool2/3x3_s2"
  top: "inception_3a/pool"
  pooling_param {
    pool: MAX
    kernel_size: 3
    stride: 1
    pad: 1
  }
}
layer {
  name: "inception_3a/pool_proj"
  type: "Convolution"
  bottom: "inception_3a/pool"
  top: "inception_3a/pool_proj"
  param {
    lr_mult: 1
    decay_mult: 1
  }
  param {
    lr_mult: 2
    decay_mult: 0
  }
  convolution_param {
    num_output: 32
    kernel_size: 1
    weight_filler {
      type: "xavier"
      std: 0.1
    }
    bias_filler {
      type: "constant"
      value: 0.2
    }
  }
}
layer {
  name: "inception_3a/relu_pool_proj"
  type: "ReLU"
  bottom: "inception_3a/pool_proj"
  top: "inception_3a/pool_proj"
}
layer {
  name: "inception_3a/output"
  type: "Concat"
  bottom: "inception_3a/1x1"
  bottom: "inception_3a/3x3"
  bottom: "inception_3a/5x5"
  bottom: "inception_3a/pool_proj"
  top: "inception_3a/output"
}
layer {
  name: "inception_3b/1x1"
  type: "Convolution"
  bottom: "inception_3a/output"
  top: "inception_3b/1x1"
  param {
    lr_mult: 1
    decay_mult: 1
  }
  param {
    lr_mult: 2
    decay_mult: 0
  }
  convolution_param {
    num_output: 128
    kernel_size: 1
    weight_filler {
      type: "xavier"
      std: 0.03
    }
    bias_filler {
      type: "constant"
      value: 0.2
    }
  }
}
layer {
  name: "inception_3b/relu_1x1"
  type: "ReLU"
  bottom: "inception_3b/1x1"
  top: "inception_3b/1x1"
}
layer {
  name: "inception_3b/3x3_reduce"
  type: "Convolution"
  bottom: "inception_3a/output"
  top: "inception_3b/3x3_reduce"
  param {
    lr_mult: 1
    decay_mult: 1
  }
  param {
    lr_mult: 2
    decay_mult: 0
  }
  convolution_param {
    num_output: 128
    kernel_size: 1
    weight_filler {
      type: "xavier"
      std: 0.09
    }
    bias_filler {
      type: "constant"
      value: 0.2
    }
  }
}
layer {
  name: "inception_3b/relu_3x3_reduce"
  type: "ReLU"
  bottom: "inception_3b/3x3_reduce"
  top: "inception_3b/3x3_reduce"
}
layer {
  name: "inception_3b/3x3"
  type: "Convolution"
  bottom: "inception_3b/3x3_reduce"
  top: "inception_3b/3x3"
  param {
    lr_mult: 1
    decay_mult: 1
  }
  param {
    lr_mult: 2
    decay_mult: 0
  }
  convolution_param {
    num_output: 192
    pad: 1
    kernel_size: 3
    weight_filler {
      type: "xavier"
      std: 0.03
    }
    bias_filler {
      type: "constant"
      value: 0.2
    }
  }
}
layer {
  name: "inception_3b/relu_3x3"
  type: "ReLU"
  bottom: "inception_3b/3x3"
  top: "inception_3b/3x3"
}
layer {
  name: "inception_3b/5x5_reduce"
  type: "Convolution"
  bottom: "inception_3a/output"
  top: "inception_3b/5x5_reduce"
  param {
    lr_mult: 1
    decay_mult: 1
  }
  param {
    lr_mult: 2
    decay_mult: 0
  }
  convolution_param {
    num_output: 32
    kernel_size: 1
    weight_filler {
      type: "xavier"
      std: 0.2
    }
    bias_filler {
      type: "constant"
      value: 0.2
    }
  }
}
layer {
  name: "inception_3b/relu_5x5_reduce"
  type: "ReLU"
  bottom: "inception_3b/5x5_reduce"
  top: "inception_3b/5x5_reduce"
}
layer {
  name: "inception_3b/5x5"
  type: "Convolution"
  bottom: "inception_3b/5x5_reduce"
  top: "inception_3b/5x5"
  param {
    lr_mult: 1
    decay_mult: 1
  }
  param {
    lr_mult: 2
    decay_mult: 0
  }
  convolution_param {
    num_output: 96
    pad: 2
    kernel_size: 5
    weight_filler {
      type: "xavier"
      std: 0.03
    }
    bias_filler {
      type: "constant"
      value: 0.2
    }
  }
}
layer {
  name: "inception_3b/relu_5x5"
  type: "ReLU"
  bottom: "inception_3b/5x5"
  top: "inception_3b/5x5"
}
layer {
  name: "inception_3b/pool"
  type: "Pooling"
  bottom: "inception_3a/output"
  top: "inception_3b/pool"
  pooling_param {
    pool: MAX
    kernel_size: 3
    stride: 1
    pad: 1
  }
}
layer {
  name: "inception_3b/pool_proj"
  type: "Convolution"
  bottom: "inception_3b/pool"
  top: "inception_3b/pool_proj"
  param {
    lr_mult: 1
    decay_mult: 1
  }
  param {
    lr_mult: 2
    decay_mult: 0
  }
  convolution_param {
    num_output: 64
    kernel_size: 1
    weight_filler {
      type: "xavier"
      std: 0.1
    }
    bias_filler {
      type: "constant"
      value: 0.2
    }
  }
}
layer {
  name: "inception_3b/relu_pool_proj"
  type: "ReLU"
  bottom: "inception_3b/pool_proj"
  top: "inception_3b/pool_proj"
}
layer {
  name: "inception_3b/output"
  type: "Concat"
  bottom: "inception_3b/1x1"
  bottom: "inception_3b/3x3"
  bottom: "inception_3b/5x5"
  bottom: "inception_3b/pool_proj"
  top: "inception_3b/output"
}
layer {
  name: "pool3/3x3_s2"
  type: "Pooling"
  bottom: "inception_3b/output"
  top: "pool3/3x3_s2"
  pooling_param {
    pool: MAX
    kernel_size: 3
    stride: 2
  }
}
layer {
  name: "inception_4a/1x1"
  type: "Convolution"
  bottom: "pool3/3x3_s2"
  top: "inception_4a/1x1"
  param {
    lr_mult: 1
    decay_mult: 1
  }
  param {
    lr_mult: 2
    decay_mult: 0
  }
  convolution_param {
    num_output: 192
    kernel_size: 1
    weight_filler {
      type: "xavier"
      std: 0.03
    }
    bias_filler {
      type: "constant"
      value: 0.2
    }
  }
}
layer {
  name: "inception_4a/relu_1x1"
  type: "ReLU"
  bottom: "inception_4a/1x1"
  top: "inception_4a/1x1"
}
layer {
  name: "inception_4a/3x3_reduce"
  type: "Convolution"
  bottom: "pool3/3x3_s2"
  top: "inception_4a/3x3_reduce"
  param {
    lr_mult: 1
    decay_mult: 1
  }
  param {
    lr_mult: 2
    decay_mult: 0
  }
  convolution_param {
    num_output: 96
    kernel_size: 1
    weight_filler {
      type: "xavier"
      std: 0.09
    }
    bias_filler {
      type: "constant"
      value: 0.2
    }
  }
}
layer {
  name: "inception_4a/relu_3x3_reduce"
  type: "ReLU"
  bottom: "inception_4a/3x3_reduce"
  top: "inception_4a/3x3_reduce"
}
layer {
  name: "inception_4a/3x3"
  type: "Convolution"
  bottom: "inception_4a/3x3_reduce"
  top: "inception_4a/3x3"
  param {
    lr_mult: 1
    decay_mult: 1
  }
  param {
    lr_mult: 2
    decay_mult: 0
  }
  convolution_param {
    num_output: 208
    pad: 1
    kernel_size: 3
    weight_filler {
      type: "xavier"
      std: 0.03
    }
    bias_filler {
      type: "constant"
      value: 0.2
    }
  }
}
layer {
  name: "inception_4a/relu_3x3"
  type: "ReLU"
  bottom: "inception_4a/3x3"
  top: "inception_4a/3x3"
}
layer {
  name: "inception_4a/5x5_reduce"
  type: "Convolution"
  bottom: "pool3/3x3_s2"
  top: "inception_4a/5x5_reduce"
  param {
    lr_mult: 1
    decay_mult: 1
  }
  param {
    lr_mult: 2
    decay_mult: 0
  }
  convolution_param {
    num_output: 16
    kernel_size: 1
    weight_filler {
      type: "xavier"
      std: 0.2
    }
    bias_filler {
      type: "constant"
      value: 0.2
    }
  }
}
layer {
  name: "inception_4a/relu_5x5_reduce"
  type: "ReLU"
  bottom: "inception_4a/5x5_reduce"
  top: "inception_4a/5x5_reduce"
}
layer {
  name: "inception_4a/5x5"
  type: "Convolution"
  bottom: "inception_4a/5x5_reduce"
  top: "inception_4a/5x5"
  param {
    lr_mult: 1
    decay_mult: 1
  }
  param {
    lr_mult: 2
    decay_mult: 0
  }
  convolution_param {
    num_output: 48
    pad: 2
    kernel_size: 5
    weight_filler {
      type: "xavier"
      std: 0.03
    }
    bias_filler {
      type: "constant"
      value: 0.2
    }
  }
}
layer {
  name: "inception_4a/relu_5x5"
  type: "ReLU"
  bottom: "inception_4a/5x5"
  top: "inception_4a/5x5"
}
layer {
  name: "inception_4a/pool"
  type: "Pooling"
  bottom: "pool3/3x3_s2"
  top: "inception_4a/pool"
  pooling_param {
    pool: MAX
    kernel_size: 3
    stride: 1
    pad: 1
  }
}
layer {
  name: "inception_4a/pool_proj"
  type: "Convolution"
  bottom: "inception_4a/pool"
  top: "inception_4a/pool_proj"
  param {
    lr_mult: 1
    decay_mult: 1
  }
  param {
    lr_mult: 2
    decay_mult: 0
  }
  convolution_param {
    num_output: 64
    kernel_size: 1
    weight_filler {
      type: "xavier"
      std: 0.1
    }
    bias_filler {
      type: "constant"
      value: 0.2
    }
  }
}
layer {
  name: "inception_4a/relu_pool_proj"
  type: "ReLU"
  bottom: "inception_4a/pool_proj"
  top: "inception_4a/pool_proj"
}
layer {
  name: "inception_4a/output"
  type: "Concat"
  bottom: "inception_4a/1x1"
  bottom: "inception_4a/3x3"
  bottom: "inception_4a/5x5"
  bottom: "inception_4a/pool_proj"
  top: "inception_4a/output"
}
layer {
  name: "loss1/ave_pool"
  type: "Pooling"
  bottom: "inception_4a/output"
  top: "loss1/ave_pool"
  pooling_param {
    pool: AVE
    kernel_size: 5
    stride: 3
  }
}
layer {
  name: "loss1/conv"
  type: "Convolution"
  bottom: "loss1/ave_pool"
  top: "loss1/conv"
  param {
    lr_mult: 1
    decay_mult: 1
  }
  param {
    lr_mult: 2
    decay_mult: 0
  }
  convolution_param {
    num_output: 128
    kernel_size: 1
    weight_filler {
      type: "xavier"
      std: 0.08
    }
    bias_filler {
      type: "constant"
      value: 0.2
    }
  }
}
layer {
  name: "loss1/relu_conv"
  type: "ReLU"
  bottom: "loss1/conv"
  top: "loss1/conv"
}
layer {
  name: "loss1/fc"
  type: "InnerProduct"
  bottom: "loss1/conv"
  top: "loss1/fc"
  param {
    lr_mult: 1
    decay_mult: 1
  }
  param {
    lr_mult: 2
    decay_mult: 0
  }
  inner_product_param {
    num_output: 1024
    weight_filler {
      type: "xavier"
      std: 0.02
    }
    bias_filler {
      type: "constant"
      value: 0.2
    }
  }
}
layer {
  name: "loss1/relu_fc"
  type: "ReLU"
  bottom: "loss1/fc"
  top: "loss1/fc"
}
layer {
  name: "loss1/drop_fc"
  type: "Dropout"
  bottom: "loss1/fc"
  top: "loss1/fc"
  dropout_param {
    dropout_ratio: 0.7
  }
}
layer {
  name: "loss1/classifier_cub"
  type: "InnerProduct"
  bottom: "loss1/fc"
  top: "loss1/classifier"
  param {
    lr_mult: 1
    decay_mult: 1
  }
  param {
    lr_mult: 2
    decay_mult: 0
  }
  inner_product_param {
    num_output: 200
    weight_filler {
      type: "gaussian"
      std: 1e-05
    }
    bias_filler {
      type: "constant"
      value: 0
    }
  }
}
layer {
  name: "loss1/loss"
  type: "SoftmaxWithLoss"
  bottom: "loss1/classifier"
  bottom: "label"
  top: "loss1/loss1"
  loss_weight: 0.3
}
layer {
  name: "loss1/top-1"
  type: "Accuracy"
  bottom: "loss1/classifier"
  bottom: "label"
  top: "loss1/top-1"
  include {
    phase: TEST
  }
}
layer {
  name: "loss1/top-5"
  type: "Accuracy"
  bottom: "loss1/classifier"
  bottom: "label"
  top: "loss1/top-5"
  include {
    phase: TEST
  }
  accuracy_param {
    top_k: 5
  }
}
layer {
  name: "inception_4b/1x1"
  type: "Convolution"
  bottom: "inception_4a/output"
  top: "inception_4b/1x1"
  param {
    lr_mult: 1
    decay_mult: 1
  }
  param {
    lr_mult: 2
    decay_mult: 0
  }
  convolution_param {
    num_output: 160
    kernel_size: 1
    weight_filler {
      type: "xavier"
      std: 0.03
    }
    bias_filler {
      type: "constant"
      value: 0.2
    }
  }
}
layer {
  name: "inception_4b/relu_1x1"
  type: "ReLU"
  bottom: "inception_4b/1x1"
  top: "inception_4b/1x1"
}
layer {
  name: "inception_4b/3x3_reduce"
  type: "Convolution"
  bottom: "inception_4a/output"
  top: "inception_4b/3x3_reduce"
  param {
    lr_mult: 1
    decay_mult: 1
  }
  param {
    lr_mult: 2
    decay_mult: 0
  }
  convolution_param {
    num_output: 112
    kernel_size: 1
    weight_filler {
      type: "xavier"
      std: 0.09
    }
    bias_filler {
      type: "constant"
      value: 0.2
    }
  }
}
layer {
  name: "inception_4b/relu_3x3_reduce"
  type: "ReLU"
  bottom: "inception_4b/3x3_reduce"
  top: "inception_4b/3x3_reduce"
}
layer {
  name: "inception_4b/3x3"
  type: "Convolution"
  bottom: "inception_4b/3x3_reduce"
  top: "inception_4b/3x3"
  param {
    lr_mult: 1
    decay_mult: 1
  }
  param {
    lr_mult: 2
    decay_mult: 0
  }
  convolution_param {
    num_output: 224
    pad: 1
    kernel_size: 3
    weight_filler {
      type: "xavier"
      std: 0.03
    }
    bias_filler {
      type: "constant"
      value: 0.2
    }
  }
}
layer {
  name: "inception_4b/relu_3x3"
  type: "ReLU"
  bottom: "inception_4b/3x3"
  top: "inception_4b/3x3"
}
layer {
  name: "inception_4b/5x5_reduce"
  type: "Convolution"
  bottom: "inception_4a/output"
  top: "inception_4b/5x5_reduce"
  param {
    lr_mult: 1
    decay_mult: 1
  }
  param {
    lr_mult: 2
    decay_mult: 0
  }
  convolution_param {
    num_output: 24
    kernel_size: 1
    weight_filler {
      type: "xavier"
      std: 0.2
    }
    bias_filler {
      type: "constant"
      value: 0.2
    }
  }
}
layer {
  name: "inception_4b/relu_5x5_reduce"
  type: "ReLU"
  bottom: "inception_4b/5x5_reduce"
  top: "inception_4b/5x5_reduce"
}
layer {
  name: "inception_4b/5x5"
  type: "Convolution"
  bottom: "inception_4b/5x5_reduce"
  top: "inception_4b/5x5"
  param {
    lr_mult: 1
    decay_mult: 1
  }
  param {
    lr_mult: 2
    decay_mult: 0
  }
  convolution_param {
    num_output: 64
    pad: 2
    kernel_size: 5
    weight_filler {
      type: "xavier"
      std: 0.03
    }
    bias_filler {
      type: "constant"
      value: 0.2
    }
  }
}
layer {
  name: "inception_4b/relu_5x5"
  type: "ReLU"
  bottom: "inception_4b/5x5"
  top: "inception_4b/5x5"
}
layer {
  name: "inception_4b/pool"
  type: "Pooling"
  bottom: "inception_4a/output"
  top: "inception_4b/pool"
  pooling_param {
    pool: MAX
    kernel_size: 3
    stride: 1
    pad: 1
  }
}
layer {
  name: "inception_4b/pool_proj"
  type: "Convolution"
  bottom: "inception_4b/pool"
  top: "inception_4b/pool_proj"
  param {
    lr_mult: 1
    decay_mult: 1
  }
  param {
    lr_mult: 2
    decay_mult: 0
  }
  convolution_param {
    num_output: 64
    kernel_size: 1
    weight_filler {
      type: "xavier"
      std: 0.1
    }
    bias_filler {
      type: "constant"
      value: 0.2
    }
  }
}
layer {
  name: "inception_4b/relu_pool_proj"
  type: "ReLU"
  bottom: "inception_4b/pool_proj"
  top: "inception_4b/pool_proj"
}
layer {
  name: "inception_4b/output"
  type: "Concat"
  bottom: "inception_4b/1x1"
  bottom: "inception_4b/3x3"
  bottom: "inception_4b/5x5"
  bottom: "inception_4b/pool_proj"
  top: "inception_4b/output"
}
layer {
  name: "inception_4c/1x1"
  type: "Convolution"
  bottom: "inception_4b/output"
  top: "inception_4c/1x1"
  param {
    lr_mult: 1
    decay_mult: 1
  }
  param {
    lr_mult: 2
    decay_mult: 0
  }
  convolution_param {
    num_output: 128
    kernel_size: 1
    weight_filler {
      type: "xavier"
      std: 0.03
    }
    bias_filler {
      type: "constant"
      value: 0.2
    }
  }
}
layer {
  name: "inception_4c/relu_1x1"
  type: "ReLU"
  bottom: "inception_4c/1x1"
  top: "inception_4c/1x1"
}
layer {
  name: "inception_4c/3x3_reduce"
  type: "Convolution"
  bottom: "inception_4b/output"
  top: "inception_4c/3x3_reduce"
  param {
    lr_mult: 1
    decay_mult: 1
  }
  param {
    lr_mult: 2
    decay_mult: 0
  }
  convolution_param {
    num_output: 128
    kernel_size: 1
    weight_filler {
      type: "xavier"
      std: 0.09
    }
    bias_filler {
      type: "constant"
      value: 0.2
    }
  }
}
layer {
  name: "inception_4c/relu_3x3_reduce"
  type: "ReLU"
  bottom: "inception_4c/3x3_reduce"
  top: "inception_4c/3x3_reduce"
}
layer {
  name: "inception_4c/3x3"
  type: "Convolution"
  bottom: "inception_4c/3x3_reduce"
  top: "inception_4c/3x3"
  param {
    lr_mult: 1
    decay_mult: 1
  }
  param {
    lr_mult: 2
    decay_mult: 0
  }
  convolution_param {
    num_output: 256
    pad: 1
    kernel_size: 3
    weight_filler {
      type: "xavier"
      std: 0.03
    }
    bias_filler {
      type: "constant"
      value: 0.2
    }
  }
}
layer {
  name: "inception_4c/relu_3x3"
  type: "ReLU"
  bottom: "inception_4c/3x3"
  top: "inception_4c/3x3"
}
layer {
  name: "inception_4c/5x5_reduce"
  type: "Convolution"
  bottom: "inception_4b/output"
  top: "inception_4c/5x5_reduce"
  param {
    lr_mult: 1
    decay_mult: 1
  }
  param {
    lr_mult: 2
    decay_mult: 0
  }
  convolution_param {
    num_output: 24
    kernel_size: 1
    weight_filler {
      type: "xavier"
      std: 0.2
    }
    bias_filler {
      type: "constant"
      value: 0.2
    }
  }
}
layer {
  name: "inception_4c/relu_5x5_reduce"
  type: "ReLU"
  bottom: "inception_4c/5x5_reduce"
  top: "inception_4c/5x5_reduce"
}
layer {
  name: "inception_4c/5x5"
  type: "Convolution"
  bottom: "inception_4c/5x5_reduce"
  top: "inception_4c/5x5"
  param {
    lr_mult: 1
    decay_mult: 1
  }
  param {
    lr_mult: 2
    decay_mult: 0
  }
  convolution_param {
    num_output: 64
    pad: 2
    kernel_size: 5
    weight_filler {
      type: "xavier"
      std: 0.03
    }
    bias_filler {
      type: "constant"
      value: 0.2
    }
  }
}
layer {
  name: "inception_4c/relu_5x5"
  type: "ReLU"
  bottom: "inception_4c/5x5"
  top: "inception_4c/5x5"
}
layer {
  name: "inception_4c/pool"
  type: "Pooling"
  bottom: "inception_4b/output"
  top: "inception_4c/pool"
  pooling_param {
    pool: MAX
    kernel_size: 3
    stride: 1
    pad: 1
  }
}
layer {
  name: "inception_4c/pool_proj"
  type: "Convolution"
  bottom: "inception_4c/pool"
  top: "inception_4c/pool_proj"
  param {
    lr_mult: 1
    decay_mult: 1
  }
  param {
    lr_mult: 2
    decay_mult: 0
  }
  convolution_param {
    num_output: 64
    kernel_size: 1
    weight_filler {
      type: "xavier"
      std: 0.1
    }
    bias_filler {
      type: "constant"
      value: 0.2
    }
  }
}
layer {
  name: "inception_4c/relu_pool_proj"
  type: "ReLU"
  bottom: "inception_4c/pool_proj"
  top: "inception_4c/pool_proj"
}
layer {
  name: "inception_4c/output"
  type: "Concat"
  bottom: "inception_4c/1x1"
  bottom: "inception_4c/3x3"
  bottom: "inception_4c/5x5"
  bottom: "inception_4c/pool_proj"
  top: "inception_4c/output"
}
layer {
  name: "inception_4d/1x1"
  type: "Convolution"
  bottom: "inception_4c/output"
  top: "inception_4d/1x1"
  param {
    lr_mult: 1
    decay_mult: 1
  }
  param {
    lr_mult: 2
    decay_mult: 0
  }
  convolution_param {
    num_output: 112
    kernel_size: 1
    weight_filler {
      type: "xavier"
      std: 0.03
    }
    bias_filler {
      type: "constant"
      value: 0.2
    }
  }
}
layer {
  name: "inception_4d/relu_1x1"
  type: "ReLU"
  bottom: "inception_4d/1x1"
  top: "inception_4d/1x1"
}
layer {
  name: "inception_4d/3x3_reduce"
  type: "Convolution"
  bottom: "inception_4c/output"
  top: "inception_4d/3x3_reduce"
  param {
    lr_mult: 1
    decay_mult: 1
  }
  param {
    lr_mult: 2
    decay_mult: 0
  }
  convolution_param {
    num_output: 144
    kernel_size: 1
    weight_filler {
      type: "xavier"
      std: 0.09
    }
    bias_filler {
      type: "constant"
      value: 0.2
    }
  }
}
layer {
  name: "inception_4d/relu_3x3_reduce"
  type: "ReLU"
  bottom: "inception_4d/3x3_reduce"
  top: "inception_4d/3x3_reduce"
}
layer {
  name: "inception_4d/3x3"
  type: "Convolution"
  bottom: "inception_4d/3x3_reduce"
  top: "inception_4d/3x3"
  param {
    lr_mult: 1
    decay_mult: 1
  }
  param {
    lr_mult: 2
    decay_mult: 0
  }
  convolution_param {
    num_output: 288
    pad: 1
    kernel_size: 3
    weight_filler {
      type: "xavier"
      std: 0.03
    }
    bias_filler {
      type: "constant"
      value: 0.2
    }
  }
}
layer {
  name: "inception_4d/relu_3x3"
  type: "ReLU"
  bottom: "inception_4d/3x3"
  top: "inception_4d/3x3"
}
layer {
  name: "inception_4d/5x5_reduce"
  type: "Convolution"
  bottom: "inception_4c/output"
  top: "inception_4d/5x5_reduce"
  param {
    lr_mult: 1
    decay_mult: 1
  }
  param {
    lr_mult: 2
    decay_mult: 0
  }
  convolution_param {
    num_output: 32
    kernel_size: 1
    weight_filler {
      type: "xavier"
      std: 0.2
    }
    bias_filler {
      type: "constant"
      value: 0.2
    }
  }
}
layer {
  name: "inception_4d/relu_5x5_reduce"
  type: "ReLU"
  bottom: "inception_4d/5x5_reduce"
  top: "inception_4d/5x5_reduce"
}
layer {
  name: "inception_4d/5x5"
  type: "Convolution"
  bottom: "inception_4d/5x5_reduce"
  top: "inception_4d/5x5"
  param {
    lr_mult: 1
    decay_mult: 1
  }
  param {
    lr_mult: 2
    decay_mult: 0
  }
  convolution_param {
    num_output: 64
    pad: 2
    kernel_size: 5
    weight_filler {
      type: "xavier"
      std: 0.03
    }
    bias_filler {
      type: "constant"
      value: 0.2
    }
  }
}
layer {
  name: "inception_4d/relu_5x5"
  type: "ReLU"
  bottom: "inception_4d/5x5"
  top: "inception_4d/5x5"
}
layer {
  name: "inception_4d/pool"
  type: "Pooling"
  bottom: "inception_4c/output"
  top: "inception_4d/pool"
  pooling_param {
    pool: MAX
    kernel_size: 3
    stride: 1
    pad: 1
  }
}
layer {
  name: "inception_4d/pool_proj"
  type: "Convolution"
  bottom: "inception_4d/pool"
  top: "inception_4d/pool_proj"
  param {
    lr_mult: 1
    decay_mult: 1
  }
  param {
    lr_mult: 2
    decay_mult: 0
  }
  convolution_param {
    num_output: 64
    kernel_size: 1
    weight_filler {
      type: "xavier"
      std: 0.1
    }
    bias_filler {
      type: "constant"
      value: 0.2
    }
  }
}
layer {
  name: "inception_4d/relu_pool_proj"
  type: "ReLU"
  bottom: "inception_4d/pool_proj"
  top: "inception_4d/pool_proj"
}
layer {
  name: "inception_4d/output"
  type: "Concat"
  bottom: "inception_4d/1x1"
  bottom: "inception_4d/3x3"
  bottom: "inception_4d/5x5"
  bottom: "inception_4d/pool_proj"
  top: "inception_4d/output"
}
layer {
  name: "loss2/ave_pool"
  type: "Pooling"
  bottom: "inception_4d/output"
  top: "loss2/ave_pool"
  pooling_param {
    pool: AVE
    kernel_size: 5
    stride: 3
  }
}
layer {
  name: "loss2/conv"
  type: "Convolution"
  bottom: "loss2/ave_pool"
  top: "loss2/conv"
  param {
    lr_mult: 1
    decay_mult: 1
  }
  param {
    lr_mult: 2
    decay_mult: 0
  }
  convolution_param {
    num_output: 128
    kernel_size: 1
    weight_filler {
      type: "xavier"
      std: 0.08
    }
    bias_filler {
      type: "constant"
      value: 0.2
    }
  }
}
layer {
  name: "loss2/relu_conv"
  type: "ReLU"
  bottom: "loss2/conv"
  top: "loss2/conv"
}
layer {
  name: "loss2/fc"
  type: "InnerProduct"
  bottom: "loss2/conv"
  top: "loss2/fc"
  param {
…
I0907 00:06:25.515214 92039 net.cpp:433] inception_4b/output_inception_4b/output_0_split -> inception_4b/output_inception_4b/output_0_split_1
I0907 00:06:25.515228 92039 net.cpp:433] inception_4b/output_inception_4b/output_0_split -> inception_4b/output_inception_4b/output_0_split_2
I0907 00:06:25.515243 92039 net.cpp:433] inception_4b/output_inception_4b/output_0_split -> inception_4b/output_inception_4b/output_0_split_3
I0907 00:06:25.515257 92039 net.cpp:155] Setting up inception_4b/output_inception_4b/output_0_split
I0907 00:06:25.515266 92039 net.cpp:163] Top shape: 32 512 14 14 (3211264)
I0907 00:06:25.515275 92039 net.cpp:163] Top shape: 32 512 14 14 (3211264)
I0907 00:06:25.515283 92039 net.cpp:163] Top shape: 32 512 14 14 (3211264)
I0907 00:06:25.515291 92039 net.cpp:163] Top shape: 32 512 14 14 (3211264)
I0907 00:06:25.515298 92039 layer_factory.hpp:76] Creating layer inception_4c/1x1
I0907 00:06:25.515311 92039 net.cpp:110] Creating Layer inception_4c/1x1
I0907 00:06:25.515318 92039 net.cpp:477] inception_4c/1x1 <- inception_4b/output_inception_4b/output_0_split_0
I0907 00:06:25.515331 92039 net.cpp:433] inception_4c/1x1 -> inception_4c/1x1
I0907 00:06:25.516480 92039 net.cpp:155] Setting up inception_4c/1x1
I0907 00:06:25.516499 92039 net.cpp:163] Top shape: 32 128 14 14 (802816)
I0907 00:06:25.516511 92039 layer_factory.hpp:76] Creating layer inception_4c/relu_1x1
I0907 00:06:25.516522 92039 net.cpp:110] Creating Layer inception_4c/relu_1x1
I0907 00:06:25.516530 92039 net.cpp:477] inception_4c/relu_1x1 <- inception_4c/1x1
I0907 00:06:25.516541 92039 net.cpp:419] inception_4c/relu_1x1 -> inception_4c/1x1 (in-place)
I0907 00:06:25.516553 92039 net.cpp:155] Setting up inception_4c/relu_1x1
I0907 00:06:25.516562 92039 net.cpp:163] Top shape: 32 128 14 14 (802816)
I0907 00:06:25.516569 92039 layer_factory.hpp:76] Creating layer inception_4c/3x3_reduce
I0907 00:06:25.516582 92039 net.cpp:110] Creating Layer inception_4c/3x3_reduce
I0907 00:06:25.516589 92039 net.cpp:477] inception_4c/3x3_reduce <- inception_4b/output_inception_4b/output_0_split_1
I0907 00:06:25.516602 92039 net.cpp:433] inception_4c/3x3_reduce -> inception_4c/3x3_reduce
I0907 00:06:25.518569 92039 net.cpp:155] Setting up inception_4c/3x3_reduce
I0907 00:06:25.518594 92039 net.cpp:163] Top shape: 32 128 14 14 (802816)
I0907 00:06:25.518609 92039 layer_factory.hpp:76] Creating layer inception_4c/relu_3x3_reduce
I0907 00:06:25.518620 92039 net.cpp:110] Creating Layer inception_4c/relu_3x3_reduce
I0907 00:06:25.518628 92039 net.cpp:477] inception_4c/relu_3x3_reduce <- inception_4c/3x3_reduce
I0907 00:06:25.518640 92039 net.cpp:419] inception_4c/relu_3x3_reduce -> inception_4c/3x3_reduce (in-place)
I0907 00:06:25.518656 92039 net.cpp:155] Setting up inception_4c/relu_3x3_reduce
I0907 00:06:25.518664 92039 net.cpp:163] Top shape: 32 128 14 14 (802816)
I0907 00:06:25.518671 92039 layer_factory.hpp:76] Creating layer inception_4c/3x3
I0907 00:06:25.518685 92039 net.cpp:110] Creating Layer inception_4c/3x3
I0907 00:06:25.518692 92039 net.cpp:477] inception_4c/3x3 <- inception_4c/3x3_reduce
I0907 00:06:25.518704 92039 net.cpp:433] inception_4c/3x3 -> inception_4c/3x3
I0907 00:06:25.524356 92039 net.cpp:155] Setting up inception_4c/3x3
I0907 00:06:25.524404 92039 net.cpp:163] Top shape: 32 256 14 14 (1605632)
I0907 00:06:25.524440 92039 layer_factory.hpp:76] Creating layer inception_4c/relu_3x3
I0907 00:06:25.524453 92039 net.cpp:110] Creating Layer inception_4c/relu_3x3
I0907 00:06:25.524462 92039 net.cpp:477] inception_4c/relu_3x3 <- inception_4c/3x3
I0907 00:06:25.524473 92039 net.cpp:419] inception_4c/relu_3x3 -> inception_4c/3x3 (in-place)
I0907 00:06:25.524488 92039 net.cpp:155] Setting up inception_4c/relu_3x3
I0907 00:06:25.524498 92039 net.cpp:163] Top shape: 32 256 14 14 (1605632)
I0907 00:06:25.524505 92039 layer_factory.hpp:76] Creating layer inception_4c/5x5_reduce
I0907 00:06:25.524519 92039 net.cpp:110] Creating Layer inception_4c/5x5_reduce
I0907 00:06:25.524526 92039 net.cpp:477] inception_4c/5x5_reduce <- inception_4b/output_inception_4b/output_0_split_2
I0907 00:06:25.524541 92039 net.cpp:433] inception_4c/5x5_reduce -> inception_4c/5x5_reduce
I0907 00:06:25.524845 92039 net.cpp:155] Setting up inception_4c/5x5_reduce
I0907 00:06:25.524863 92039 net.cpp:163] Top shape: 32 24 14 14 (150528)
I0907 00:06:25.524874 92039 layer_factory.hpp:76] Creating layer inception_4c/relu_5x5_reduce
I0907 00:06:25.524885 92039 net.cpp:110] Creating Layer inception_4c/relu_5x5_reduce
I0907 00:06:25.524893 92039 net.cpp:477] inception_4c/relu_5x5_reduce <- inception_4c/5x5_reduce
I0907 00:06:25.524904 92039 net.cpp:419] inception_4c/relu_5x5_reduce -> inception_4c/5x5_reduce (in-place)
I0907 00:06:25.524917 92039 net.cpp:155] Setting up inception_4c/relu_5x5_reduce
I0907 00:06:25.524926 92039 net.cpp:163] Top shape: 32 24 14 14 (150528)
I0907 00:06:25.524934 92039 layer_factory.hpp:76] Creating layer inception_4c/5x5
I0907 00:06:25.524945 92039 net.cpp:110] Creating Layer inception_4c/5x5
I0907 00:06:25.524952 92039 net.cpp:477] inception_4c/5x5 <- inception_4c/5x5_reduce
I0907 00:06:25.524966 92039 net.cpp:433] inception_4c/5x5 -> inception_4c/5x5
I0907 00:06:25.525676 92039 net.cpp:155] Setting up inception_4c/5x5
I0907 00:06:25.525692 92039 net.cpp:163] Top shape: 32 64 14 14 (401408)
I0907 00:06:25.525704 92039 layer_factory.hpp:76] Creating layer inception_4c/relu_5x5
I0907 00:06:25.525720 92039 net.cpp:110] Creating Layer inception_4c/relu_5x5
I0907 00:06:25.525728 92039 net.cpp:477] inception_4c/relu_5x5 <- inception_4c/5x5
I0907 00:06:25.525738 92039 net.cpp:419] inception_4c/relu_5x5 -> inception_4c/5x5 (in-place)
I0907 00:06:25.525751 92039 net.cpp:155] Setting up inception_4c/relu_5x5
I0907 00:06:25.525760 92039 net.cpp:163] Top shape: 32 64 14 14 (401408)
I0907 00:06:25.525768 92039 layer_factory.hpp:76] Creating layer inception_4c/pool
I0907 00:06:25.525779 92039 net.cpp:110] Creating Layer inception_4c/pool
I0907 00:06:25.525786 92039 net.cpp:477] inception_4c/pool <- inception_4b/output_inception_4b/output_0_split_3
I0907 00:06:25.525799 92039 net.cpp:433] inception_4c/pool -> inception_4c/pool
I0907 00:06:25.525816 92039 net.cpp:155] Setting up inception_4c/pool
I0907 00:06:25.525825 92039 net.cpp:163] Top shape: 32 512 14 14 (3211264)
I0907 00:06:25.525832 92039 layer_factory.hpp:76] Creating layer inception_4c/pool_proj
I0907 00:06:25.525845 92039 net.cpp:110] Creating Layer inception_4c/pool_proj
I0907 00:06:25.525852 92039 net.cpp:477] inception_4c/pool_proj <- inception_4c/pool
I0907 00:06:25.525866 92039 net.cpp:433] inception_4c/pool_proj -> inception_4c/pool_proj
I0907 00:06:25.526495 92039 net.cpp:155] Setting up inception_4c/pool_proj
I0907 00:06:25.526512 92039 net.cpp:163] Top shape: 32 64 14 14 (401408)
I0907 00:06:25.526525 92039 layer_factory.hpp:76] Creating layer inception_4c/relu_pool_proj
I0907 00:06:25.526535 92039 net.cpp:110] Creating Layer inception_4c/relu_pool_proj
I0907 00:06:25.526543 92039 net.cpp:477] inception_4c/relu_pool_proj <- inception_4c/pool_proj
I0907 00:06:25.526561 92039 net.cpp:419] inception_4c/relu_pool_proj -> inception_4c/pool_proj (in-place)
I0907 00:06:25.526572 92039 net.cpp:155] Setting up inception_4c/relu_pool_proj
I0907 00:06:25.526582 92039 net.cpp:163] Top shape: 32 64 14 14 (401408)
I0907 00:06:25.526605 92039 layer_factory.hpp:76] Creating layer inception_4c/output
I0907 00:06:25.526618 92039 net.cpp:110] Creating Layer inception_4c/output
I0907 00:06:25.526625 92039 net.cpp:477] inception_4c/output <- inception_4c/1x1
I0907 00:06:25.526635 92039 net.cpp:477] inception_4c/output <- inception_4c/3x3
I0907 00:06:25.526644 92039 net.cpp:477] inception_4c/output <- inception_4c/5x5
I0907 00:06:25.526654 92039 net.cpp:477] inception_4c/output <- inception_4c/pool_proj
I0907 00:06:25.526664 92039 net.cpp:433] inception_4c/output -> inception_4c/output
I0907 00:06:25.526679 92039 net.cpp:155] Setting up inception_4c/output
I0907 00:06:25.526690 92039 net.cpp:163] Top shape: 32 512 14 14 (3211264)
I0907 00:06:25.526696 92039 layer_factory.hpp:76] Creating layer inception_4c/output_inception_4c/output_0_split
I0907 00:06:25.526707 92039 net.cpp:110] Creating Layer inception_4c/output_inception_4c/output_0_split
I0907 00:06:25.526715 92039 net.cpp:477] inception_4c/output_inception_4c/output_0_split <- inception_4c/output
I0907 00:06:25.526727 92039 net.cpp:433] inception_4c/output_inception_4c/output_0_split -> inception_4c/output_inception_4c/output_0_split_0
I0907 00:06:25.526741 92039 net.cpp:433] inception_4c/output_inception_4c/output_0_split -> inception_4c/output_inception_4c/output_0_split_1
I0907 00:06:25.526756 92039 net.cpp:433] inception_4c/output_inception_4c/output_0_split -> inception_4c/output_inception_4c/output_0_split_2
I0907 00:06:25.526768 92039 net.cpp:433] inception_4c/output_inception_4c/output_0_split -> inception_4c/output_inception_4c/output_0_split_3
I0907 00:06:25.526782 92039 net.cpp:155] Setting up inception_4c/output_inception_4c/output_0_split
I0907 00:06:25.526792 92039 net.cpp:163] Top shape: 32 512 14 14 (3211264)
I0907 00:06:25.526799 92039 net.cpp:163] Top shape: 32 512 14 14 (3211264)
I0907 00:06:25.526808 92039 net.cpp:163] Top shape: 32 512 14 14 (3211264)
I0907 00:06:25.526815 92039 net.cpp:163] Top shape: 32 512 14 14 (3211264)
I0907 00:06:25.526823 92039 layer_factory.hpp:76] Creating layer inception_4d/1x1
I0907 00:06:25.526835 92039 net.cpp:110] Creating Layer inception_4d/1x1
I0907 00:06:25.526842 92039 net.cpp:477] inception_4d/1x1 <- inception_4c/output_inception_4c/output_0_split_0
I0907 00:06:25.526855 92039 net.cpp:433] inception_4d/1x1 -> inception_4d/1x1
I0907 00:06:25.527879 92039 net.cpp:155] Setting up inception_4d/1x1
I0907 00:06:25.527897 92039 net.cpp:163] Top shape: 32 112 14 14 (702464)
I0907 00:06:25.527910 92039 layer_factory.hpp:76] Creating layer inception_4d/relu_1x1
I0907 00:06:25.527921 92039 net.cpp:110] Creating Layer inception_4d/relu_1x1
I0907 00:06:25.527930 92039 net.cpp:477] inception_4d/relu_1x1 <- inception_4d/1x1
I0907 00:06:25.527940 92039 net.cpp:419] inception_4d/relu_1x1 -> inception_4d/1x1 (in-place)
I0907 00:06:25.527953 92039 net.cpp:155] Setting up inception_4d/relu_1x1
I0907 00:06:25.527963 92039 net.cpp:163] Top shape: 32 112 14 14 (702464)
I0907 00:06:25.527969 92039 layer_factory.hpp:76] Creating layer inception_4d/3x3_reduce
I0907 00:06:25.527983 92039 net.cpp:110] Creating Layer inception_4d/3x3_reduce
I0907 00:06:25.527990 92039 net.cpp:477] inception_4d/3x3_reduce <- inception_4c/output_inception_4c/output_0_split_1
I0907 00:06:25.528003 92039 net.cpp:433] inception_4d/3x3_reduce -> inception_4d/3x3_reduce
I0907 00:06:25.529290 92039 net.cpp:155] Setting up inception_4d/3x3_reduce
I0907 00:06:25.529306 92039 net.cpp:163] Top shape: 32 144 14 14 (903168)
I0907 00:06:25.529319 92039 layer_factory.hpp:76] Creating layer inception_4d/relu_3x3_reduce
I0907 00:06:25.529330 92039 net.cpp:110] Creating Layer inception_4d/relu_3x3_reduce
I0907 00:06:25.529336 92039 net.cpp:477] inception_4d/relu_3x3_reduce <- inception_4d/3x3_reduce
I0907 00:06:25.529347 92039 net.cpp:419] inception_4d/relu_3x3_reduce -> inception_4d/3x3_reduce (in-place)
I0907 00:06:25.529361 92039 net.cpp:155] Setting up inception_4d/relu_3x3_reduce
I0907 00:06:25.529369 92039 net.cpp:163] Top shape: 32 144 14 14 (903168)
I0907 00:06:25.529376 92039 layer_factory.hpp:76] Creating layer inception_4d/3x3
I0907 00:06:25.529407 92039 net.cpp:110] Creating Layer inception_4d/3x3
I0907 00:06:25.529414 92039 net.cpp:477] inception_4d/3x3 <- inception_4d/3x3_reduce
I0907 00:06:25.529428 92039 net.cpp:433] inception_4d/3x3 -> inception_4d/3x3
I0907 00:06:25.536535 92039 net.cpp:155] Setting up inception_4d/3x3
I0907 00:06:25.536561 92039 net.cpp:163] Top shape: 32 288 14 14 (1806336)
I0907 00:06:25.536576 92039 layer_factory.hpp:76] Creating layer inception_4d/relu_3x3
I0907 00:06:25.536588 92039 net.cpp:110] Creating Layer inception_4d/relu_3x3
I0907 00:06:25.536597 92039 net.cpp:477] inception_4d/relu_3x3 <- inception_4d/3x3
I0907 00:06:25.536609 92039 net.cpp:419] inception_4d/relu_3x3 -> inception_4d/3x3 (in-place)
I0907 00:06:25.536624 92039 net.cpp:155] Setting up inception_4d/relu_3x3
I0907 00:06:25.536633 92039 net.cpp:163] Top shape: 32 288 14 14 (1806336)
I0907 00:06:25.536640 92039 layer_factory.hpp:76] Creating layer inception_4d/5x5_reduce
I0907 00:06:25.536654 92039 net.cpp:110] Creating Layer inception_4d/5x5_reduce
I0907 00:06:25.536661 92039 net.cpp:477] inception_4d/5x5_reduce <- inception_4c/output_inception_4c/output_0_split_2
I0907 00:06:25.536674 92039 net.cpp:433] inception_4d/5x5_reduce -> inception_4d/5x5_reduce
I0907 00:06:25.537909 92039 net.cpp:155] Setting up inception_4d/5x5_reduce
I0907 00:06:25.537936 92039 net.cpp:163] Top shape: 32 32 14 14 (200704)
I0907 00:06:25.537950 92039 layer_factory.hpp:76] Creating layer inception_4d/relu_5x5_reduce
I0907 00:06:25.537967 92039 net.cpp:110] Creating Layer inception_4d/relu_5x5_reduce
I0907 00:06:25.537976 92039 net.cpp:477] inception_4d/relu_5x5_reduce <- inception_4d/5x5_reduce
I0907 00:06:25.537986 92039 net.cpp:419] inception_4d/relu_5x5_reduce -> inception_4d/5x5_reduce (in-place)
I0907 00:06:25.538000 92039 net.cpp:155] Setting up inception_4d/relu_5x5_reduce
I0907 00:06:25.538010 92039 net.cpp:163] Top shape: 32 32 14 14 (200704)
I0907 00:06:25.538017 92039 layer_factory.hpp:76] Creating layer inception_4d/5x5
I0907 00:06:25.538030 92039 net.cpp:110] Creating Layer inception_4d/5x5
I0907 00:06:25.538038 92039 net.cpp:477] inception_4d/5x5 <- inception_4d/5x5_reduce
I0907 00:06:25.538050 92039 net.cpp:433] inception_4d/5x5 -> inception_4d/5x5
I0907 00:06:25.538976 92039 net.cpp:155] Setting up inception_4d/5x5
I0907 00:06:25.538995 92039 net.cpp:163] Top shape: 32 64 14 14 (401408)
I0907 00:06:25.539006 92039 layer_factory.hpp:76] Creating layer inception_4d/relu_5x5
I0907 00:06:25.539022 92039 net.cpp:110] Creating Layer inception_4d/relu_5x5
I0907 00:06:25.539031 92039 net.cpp:477] inception_4d/relu_5x5 <- inception_4d/5x5
I0907 00:06:25.539041 92039 net.cpp:419] inception_4d/relu_5x5 -> inception_4d/5x5 (in-place)
I0907 00:06:25.539054 92039 net.cpp:155] Setting up inception_4d/relu_5x5
I0907 00:06:25.539063 92039 net.cpp:163] Top shape: 32 64 14 14 (401408)
I0907 00:06:25.539070 92039 layer_factory.hpp:76] Creating layer inception_4d/pool
I0907 00:06:25.539083 92039 net.cpp:110] Creating Layer inception_4d/pool
I0907 00:06:25.539089 92039 net.cpp:477] inception_4d/pool <- inception_4c/output_inception_4c/output_0_split_3
I0907 00:06:25.539103 92039 net.cpp:433] inception_4d/pool -> inception_4d/pool
I0907 00:06:25.539119 92039 net.cpp:155] Setting up inception_4d/pool
I0907 00:06:25.539129 92039 net.cpp:163] Top shape: 32 512 14 14 (3211264)
I0907 00:06:25.539135 92039 layer_factory.hpp:76] Creating layer inception_4d/pool_proj
I0907 00:06:25.539149 92039 net.cpp:110] Creating Layer inception_4d/pool_proj
I0907 00:06:25.539156 92039 net.cpp:477] inception_4d/pool_proj <- inception_4d/pool
I0907 00:06:25.539170 92039 net.cpp:433] inception_4d/pool_proj -> inception_4d/pool_proj
I0907 00:06:25.539834 92039 net.cpp:155] Setting up inception_4d/pool_proj
I0907 00:06:25.539852 92039 net.cpp:163] Top shape: 32 64 14 14 (401408)
I0907 00:06:25.539865 92039 layer_factory.hpp:76] Creating layer inception_4d/relu_pool_proj
I0907 00:06:25.539876 92039 net.cpp:110] Creating Layer inception_4d/relu_pool_proj
I0907 00:06:25.539906 92039 net.cpp:477] inception_4d/relu_pool_proj <- inception_4d/pool_proj
I0907 00:06:25.539918 92039 net.cpp:419] inception_4d/relu_pool_proj -> inception_4d/pool_proj (in-place)
I0907 00:06:25.539932 92039 net.cpp:155] Setting up inception_4d/relu_pool_proj
I0907 00:06:25.539942 92039 net.cpp:163] Top shape: 32 64 14 14 (401408)
I0907 00:06:25.539948 92039 layer_factory.hpp:76] Creating layer inception_4d/output
I0907 00:06:25.539959 92039 net.cpp:110] Creating Layer inception_4d/output
I0907 00:06:25.539968 92039 net.cpp:477] inception_4d/output <- inception_4d/1x1
I0907 00:06:25.539976 92039 net.cpp:477] inception_4d/output <- inception_4d/3x3
I0907 00:06:25.539985 92039 net.cpp:477] inception_4d/output <- inception_4d/5x5
I0907 00:06:25.539994 92039 net.cpp:477] inception_4d/output <- inception_4d/pool_proj
I0907 00:06:25.540005 92039 net.cpp:433] inception_4d/output -> inception_4d/output
I0907 00:06:25.540020 92039 net.cpp:155] Setting up inception_4d/output
I0907 00:06:25.540030 92039 net.cpp:163] Top shape: 32 528 14 14 (3311616)
I0907 00:06:25.540036 92039 layer_factory.hpp:76] Creating layer inception_4d/output_inception_4d/output_0_split
I0907 00:06:25.540048 92039 net.cpp:110] Creating Layer inception_4d/output_inception_4d/output_0_split
I0907 00:06:25.540055 92039 net.cpp:477] inception_4d/output_inception_4d/output_0_split <- inception_4d/output
I0907 00:06:25.540067 92039 net.cpp:433] inception_4d/output_inception_4d/output_0_split -> inception_4d/output_inception_4d/output_0_split_0
I0907 00:06:25.540082 92039 net.cpp:433] inception_4d/output_inception_4d/output_0_split -> inception_4d/output_inception_4d/output_0_split_1
I0907 00:06:25.540096 92039 net.cpp:433] inception_4d/output_inception_4d/output_0_split -> inception_4d/output_inception_4d/output_0_split_2
I0907 00:06:25.540110 92039 net.cpp:433] inception_4d/output_inception_4d/output_0_split -> inception_4d/output_inception_4d/output_0_split_3
I0907 00:06:25.540122 92039 net.cpp:433] inception_4d/output_inception_4d/output_0_split -> inception_4d/output_inception_4d/output_0_split_4
I0907 00:06:25.540138 92039 net.cpp:155] Setting up inception_4d/output_inception_4d/output_0_split
I0907 00:06:25.540146 92039 net.cpp:163] Top shape: 32 528 14 14 (3311616)
I0907 00:06:25.540155 92039 net.cpp:163] Top shape: 32 528 14 14 (3311616)
I0907 00:06:25.540163 92039 net.cpp:163] Top shape: 32 528 14 14 (3311616)
I0907 00:06:25.540171 92039 net.cpp:163] Top shape: 32 528 14 14 (3311616)
I0907 00:06:25.540179 92039 net.cpp:163] Top shape: 32 528 14 14 (3311616)
I0907 00:06:25.540185 92039 layer_factory.hpp:76] Creating layer loss2/ave_pool
I0907 00:06:25.540197 92039 net.cpp:110] Creating Layer loss2/ave_pool
I0907 00:06:25.540205 92039 net.cpp:477] loss2/ave_pool <- inception_4d/output_inception_4d/output_0_split_0
I0907 00:06:25.540216 92039 net.cpp:433] loss2/ave_pool -> loss2/ave_pool
I0907 00:06:25.540231 92039 net.cpp:155] Setting up loss2/ave_pool
I0907 00:06:25.540241 92039 net.cpp:163] Top shape: 32 528 4 4 (270336)
I0907 00:06:25.540248 92039 layer_factory.hpp:76] Creating layer loss2/conv
I0907 00:06:25.540261 92039 net.cpp:110] Creating Layer loss2/conv
I0907 00:06:25.540269 92039 net.cpp:477] loss2/conv <- loss2/ave_pool
I0907 00:06:25.540282 92039 net.cpp:433] loss2/conv -> loss2/conv
I0907 00:06:25.542291 92039 net.cpp:155] Setting up loss2/conv
I0907 00:06:25.542316 92039 net.cpp:163] Top shape: 32 128 4 4 (65536)
I0907 00:06:25.542331 92039 layer_factory.hpp:76] Creating layer loss2/relu_conv
I0907 00:06:25.542343 92039 net.cpp:110] Creating Layer loss2/relu_conv
I0907 00:06:25.542352 92039 net.cpp:477] loss2/relu_conv <- loss2/conv
I0907 00:06:25.542363 92039 net.cpp:419] loss2/relu_conv -> loss2/conv (in-place)
I0907 00:06:25.542377 92039 net.cpp:155] Setting up loss2/relu_conv
I0907 00:06:25.542387 92039 net.cpp:163] Top shape: 32 128 4 4 (65536)
I0907 00:06:25.542394 92039 layer_factory.hpp:76] Creating layer loss2/fc
I0907 00:06:25.542409 92039 net.cpp:110] Creating Layer loss2/fc
I0907 00:06:25.542417 92039 net.cpp:477] loss2/fc <- loss2/conv
I0907 00:06:25.542448 92039 net.cpp:433] loss2/fc -> loss2/fc
I0907 00:06:25.581549 92039 net.cpp:155] Setting up loss2/fc
I0907 00:06:25.581580 92039 net.cpp:163] Top shape: 32 1024 (32768)
I0907 00:06:25.581596 92039 layer_factory.hpp:76] Creating layer loss2/relu_fc
I0907 00:06:25.581610 92039 net.cpp:110] Creating Layer loss2/relu_fc
I0907 00:06:25.581624 92039 net.cpp:477] loss2/relu_fc <- loss2/fc
I0907 00:06:25.581636 92039 net.cpp:419] loss2/relu_fc -> loss2/fc (in-place)
I0907 00:06:25.581652 92039 net.cpp:155] Setting up loss2/relu_fc
I0907 00:06:25.581661 92039 net.cpp:163] Top shape: 32 1024 (32768)
I0907 00:06:25.581668 92039 layer_factory.hpp:76] Creating layer loss2/drop_fc
I0907 00:06:25.581681 92039 net.cpp:110] Creating Layer loss2/drop_fc
I0907 00:06:25.581688 92039 net.cpp:477] loss2/drop_fc <- loss2/fc
I0907 00:06:25.581698 92039 net.cpp:419] loss2/drop_fc -> loss2/fc (in-place)
I0907 00:06:25.581714 92039 net.cpp:155] Setting up loss2/drop_fc
I0907 00:06:25.581723 92039 net.cpp:163] Top shape: 32 1024 (32768)
I0907 00:06:25.581730 92039 layer_factory.hpp:76] Creating layer loss2/classifier_cub
I0907 00:06:25.581744 92039 net.cpp:110] Creating Layer loss2/classifier_cub
I0907 00:06:25.581751 92039 net.cpp:477] loss2/classifier_cub <- loss2/fc
I0907 00:06:25.581763 92039 net.cpp:433] loss2/classifier_cub -> loss2/classifier
I0907 00:06:25.597404 92039 net.cpp:155] Setting up loss2/classifier_cub
I0907 00:06:25.597429 92039 net.cpp:163] Top shape: 32 200 (6400)
I0907 00:06:25.597445 92039 layer_factory.hpp:76] Creating layer loss2/classifier_loss2/classifier_cub_0_split
I0907 00:06:25.597463 92039 net.cpp:110] Creating Layer loss2/classifier_loss2/classifier_cub_0_split
I0907 00:06:25.597472 92039 net.cpp:477] loss2/classifier_loss2/classifier_cub_0_split <- loss2/classifier
I0907 00:06:25.597486 92039 net.cpp:433] loss2/classifier_loss2/classifier_cub_0_split -> loss2/classifier_loss2/classifier_cub_0_split_0
I0907 00:06:25.597501 92039 net.cpp:433] loss2/classifier_loss2/classifier_cub_0_split -> loss2/classifier_loss2/classifier_cub_0_split_1
I0907 00:06:25.597517 92039 net.cpp:433] loss2/classifier_loss2/classifier_cub_0_split -> loss2/classifier_loss2/classifier_cub_0_split_2
I0907 00:06:25.597532 92039 net.cpp:155] Setting up loss2/classifier_loss2/classifier_cub_0_split
I0907 00:06:25.597542 92039 net.cpp:163] Top shape: 32 200 (6400)
I0907 00:06:25.597549 92039 net.cpp:163] Top shape: 32 200 (6400)
I0907 00:06:25.597558 92039 net.cpp:163] Top shape: 32 200 (6400)
I0907 00:06:25.597564 92039 layer_factory.hpp:76] Creating layer loss2/loss
I0907 00:06:25.597578 92039 net.cpp:110] Creating Layer loss2/loss
I0907 00:06:25.597584 92039 net.cpp:477] loss2/loss <- loss2/classifier_loss2/classifier_cub_0_split_0
I0907 00:06:25.597596 92039 net.cpp:477] loss2/loss <- label_data_1_split_3
I0907 00:06:25.597609 92039 net.cpp:433] loss2/loss -> loss2/loss1
…
I0907 00:06:25.597918 92039 net.cpp:433] loss2/top-5 -> loss2/top-5
I0907 00:06:25.597957 92039 net.cpp:155] Setting up loss2/top-5
I0907 00:06:25.597968 92039 net.cpp:163] Top shape: (1)
I0907 00:06:25.597975 92039 layer_factory.hpp:76] Creating layer inception_4e/1x1
I0907 00:06:25.597990 92039 net.cpp:110] Creating Layer inception_4e/1x1
I0907 00:06:25.598000 92039 net.cpp:477] inception_4e/1x1 <- inception_4d/output_inception_4d/output_0_split_1
I0907 00:06:25.598012 92039 net.cpp:433] inception_4e/1x1 -> inception_4e/1x1
I0907 00:06:25.600273 92039 net.cpp:155] Setting up inception_4e/1x1
I0907 00:06:25.600291 92039 net.cpp:163] Top shape: 32 256 14 14 (1605632)
I0907 00:06:25.600306 92039 layer_factory.hpp:76] Creating layer inception_4e/relu_1x1
I0907 00:06:25.600317 92039 net.cpp:110] Creating Layer inception_4e/relu_1x1
I0907 00:06:25.600324 92039 net.cpp:477] inception_4e/relu_1x1 <- inception_4e/1x1
I0907 00:06:25.600337 92039 net.cpp:419] inception_4e/relu_1x1 -> inception_4e/1x1 (in-place)
I0907 00:06:25.600349 92039 net.cpp:155] Setting up inception_4e/relu_1x1
I0907 00:06:25.600358 92039 net.cpp:163] Top shape: 32 256 14 14 (1605632)
I0907 00:06:25.600365 92039 layer_factory.hpp:76] Creating layer inception_4e/3x3_reduce
I0907 00:06:25.600407 92039 net.cpp:110] Creating Layer inception_4e/3x3_reduce
I0907 00:06:25.600415 92039 net.cpp:477] inception_4e/3x3_reduce <- inception_4d/output_inception_4d/output_0_split_2
I0907 00:06:25.600428 92039 net.cpp:433] inception_4e/3x3_reduce -> inception_4e/3x3_reduce
I0907 00:06:25.602952 92039 net.cpp:155] Setting up inception_4e/3x3_reduce
I0907 00:06:25.602977 92039 net.cpp:163] Top shape: 32 160 14 14 (1003520)
I0907 00:06:25.602993 92039 layer_factory.hpp:76] Creating layer inception_4e/relu_3x3_reduce
I0907 00:06:25.603006 92039 net.cpp:110] Creating Layer inception_4e/relu_3x3_reduce
I0907 00:06:25.603015 92039 net.cpp:477] inception_4e/relu_3x3_reduce <- inception_4e/3x3_reduce
I0907 00:06:25.603027 92039 net.cpp:419] inception_4e/relu_3x3_reduce -> inception_4e/3x3_reduce (in-place)
I0907 00:06:25.603042 92039 net.cpp:155] Setting up inception_4e/relu_3x3_reduce
I0907 00:06:25.603052 92039 net.cpp:163] Top shape: 32 160 14 14 (1003520)
I0907 00:06:25.603060 92039 layer_factory.hpp:76] Creating layer inception_4e/3x3
I0907 00:06:25.603073 92039 net.cpp:110] Creating Layer inception_4e/3x3
I0907 00:06:25.603080 92039 net.cpp:477] inception_4e/3x3 <- inception_4e/3x3_reduce
I0907 00:06:25.603092 92039 net.cpp:433] inception_4e/3x3 -> inception_4e/3x3
I0907 00:06:25.612085 92039 net.cpp:155] Setting up inception_4e/3x3
I0907 00:06:25.612110 92039 net.cpp:163] Top shape: 32 320 14 14 (2007040)
I0907 00:06:25.612124 92039 layer_factory.hpp:76] Creating layer inception_4e/relu_3x3
I0907 00:06:25.612138 92039 net.cpp:110] Creating Layer inception_4e/relu_3x3
I0907 00:06:25.612145 92039 net.cpp:477] inception_4e/relu_3x3 <- inception_4e/3x3
I0907 00:06:25.612157 92039 net.cpp:419] inception_4e/relu_3x3 -> inception_4e/3x3 (in-place)
I0907 00:06:25.612171 92039 net.cpp:155] Setting up inception_4e/relu_3x3
I0907 00:06:25.612180 92039 net.cpp:163] Top shape: 32 320 14 14 (2007040)
I0907 00:06:25.612187 92039 layer_factory.hpp:76] Creating layer inception_4e/5x5_reduce
I0907 00:06:25.612201 92039 net.cpp:110] Creating Layer inception_4e/5x5_reduce
I0907 00:06:25.612208 92039 net.cpp:477] inception_4e/5x5_reduce <- inception_4d/output_inception_4d/output_0_split_3
I0907 00:06:25.612223 92039 net.cpp:433] inception_4e/5x5_reduce -> inception_4e/5x5_reduce
I0907 00:06:25.612598 92039 net.cpp:155] Setting up inception_4e/5x5_reduce
I0907 00:06:25.612614 92039 net.cpp:163] Top shape: 32 32 14 14 (200704)
I0907 00:06:25.612627 92039 layer_factory.hpp:76] Creating layer inception_4e/relu_5x5_reduce
I0907 00:06:25.612637 92039 net.cpp:110] Creating Layer inception_4e/relu_5x5_reduce
I0907 00:06:25.612645 92039 net.cpp:477] inception_4e/relu_5x5_reduce <- inception_4e/5x5_reduce
I0907 00:06:25.612656 92039 net.cpp:419] inception_4e/relu_5x5_reduce -> inception_4e/5x5_reduce (in-place)
I0907 00:06:25.612668 92039 net.cpp:155] Setting up inception_4e/relu_5x5_reduce
I0907 00:06:25.612701 92039 net.cpp:163] Top shape: 32 32 14 14 (200704)
I0907 00:06:25.612709 92039 layer_factory.hpp:76] Creating layer inception_4e/5x5
I0907 00:06:25.612722 92039 net.cpp:110] Creating Layer inception_4e/5x5
I0907 00:06:25.612730 92039 net.cpp:477] inception_4e/5x5 <- inception_4e/5x5_reduce
I0907 00:06:25.612747 92039 net.cpp:433] inception_4e/5x5 -> inception_4e/5x5
I0907 00:06:25.614454 92039 net.cpp:155] Setting up inception_4e/5x5
I0907 00:06:25.614472 92039 net.cpp:163] Top shape: 32 128 14 14 (802816)
I0907 00:06:25.614485 92039 layer_factory.hpp:76] Creating layer inception_4e/relu_5x5
I0907 00:06:25.614498 92039 net.cpp:110] Creating Layer inception_4e/relu_5x5
I0907 00:06:25.614506 92039 net.cpp:477] inception_4e/relu_5x5 <- inception_4e/5x5
I0907 00:06:25.614516 92039 net.cpp:419] inception_4e/relu_5x5 -> inception_4e/5x5 (in-place)
I0907 00:06:25.614528 92039 net.cpp:155] Setting up inception_4e/relu_5x5
I0907 00:06:25.614537 92039 net.cpp:163] Top shape: 32 128 14 14 (802816)
I0907 00:06:25.614544 92039 layer_factory.hpp:76] Creating layer inception_4e/pool
I0907 00:06:25.614557 92039 net.cpp:110] Creating Layer inception_4e/pool
I0907 00:06:25.614564 92039 net.cpp:477] inception_4e/pool <- inception_4d/output_inception_4d/output_0_split_4
I0907 00:06:25.614576 92039 net.cpp:433] inception_4e/pool -> inception_4e/pool
I0907 00:06:25.614593 92039 net.cpp:155] Setting up inception_4e/pool
I0907 00:06:25.614603 92039 net.cpp:163] Top shape: 32 528 14 14 (3311616)
I0907 00:06:25.614609 92039 layer_factory.hpp:76] Creating layer inception_4e/pool_proj
I0907 00:06:25.614622 92039 net.cpp:110] Creating Layer inception_4e/pool_proj
I0907 00:06:25.614629 92039 net.cpp:477] inception_4e/pool_proj <- inception_4e/pool
I0907 00:06:25.614641 92039 net.cpp:433] inception_4e/pool_proj -> inception_4e/pool_proj
I0907 00:06:25.615810 92039 net.cpp:155] Setting up inception_4e/pool_proj
I0907 00:06:25.615828 92039 net.cpp:163] Top shape: 32 128 14 14 (802816)
I0907 00:06:25.615841 92039 layer_factory.hpp:76] Creating layer inception_4e/relu_pool_proj
I0907 00:06:25.615857 92039 net.cpp:110] Creating Layer inception_4e/relu_pool_proj
I0907 00:06:25.615866 92039 net.cpp:477] inception_4e/relu_pool_proj <- inception_4e/pool_proj
I0907 00:06:25.615878 92039 net.cpp:419] inception_4e/relu_pool_proj -> inception_4e/pool_proj (in-place)
I0907 00:06:25.615890 92039 net.cpp:155] Setting up inception_4e/relu_pool_proj
I0907 00:06:25.615901 92039 net.cpp:163] Top shape: 32 128 14 14 (802816)
I0907 00:06:25.615908 92039 layer_factory.hpp:76] Creating layer inception_4e/output
I0907 00:06:25.615921 92039 net.cpp:110] Creating Layer inception_4e/output
I0907 00:06:25.615928 92039 net.cpp:477] inception_4e/output <- inception_4e/1x1
I0907 00:06:25.615937 92039 net.cpp:477] inception_4e/output <- inception_4e/3x3
I0907 00:06:25.615947 92039 net.cpp:477] inception_4e/output <- inception_4e/5x5
I0907 00:06:25.615955 92039 net.cpp:477] inception_4e/output <- inception_4e/pool_proj
I0907 00:06:25.615967 92039 net.cpp:433] inception_4e/output -> inception_4e/output
I0907 00:06:25.615981 92039 net.cpp:155] Setting up inception_4e/output
I0907 00:06:25.615991 92039 net.cpp:163] Top shape: 32 832 14 14 (5218304)
I0907 00:06:25.615998 92039 layer_factory.hpp:76] Creating layer pool4/3x3_s2
I0907 00:06:25.616009 92039 net.cpp:110] Creating Layer pool4/3x3_s2
I0907 00:06:25.616016 92039 net.cpp:477] pool4/3x3_s2 <- inception_4e/output
I0907 00:06:25.616027 92039 net.cpp:433] pool4/3x3_s2 -> pool4/3x3_s2
I0907 00:06:25.616044 92039 net.cpp:155] Setting up pool4/3x3_s2
I0907 00:06:25.616052 92039 net.cpp:163] Top shape: 32 832 7 7 (1304576)
I0907 00:06:25.616060 92039 layer_factory.hpp:76] Creating layer pool4/3x3_s2_pool4/3x3_s2_0_split
I0907 00:06:25.616071 92039 net.cpp:110] Creating Layer pool4/3x3_s2_pool4/3x3_s2_0_split
I0907 00:06:25.616078 92039 net.cpp:477] pool4/3x3_s2_pool4/3x3_s2_0_split <- pool4/3x3_s2
I0907 00:06:25.616091 92039 net.cpp:433] pool4/3x3_s2_pool4/3x3_s2_0_split -> pool4/3x3_s2_pool4/3x3_s2_0_split_0
I0907 00:06:25.616124 92039 net.cpp:433] pool4/3x3_s2_pool4/3x3_s2_0_split -> pool4/3x3_s2_pool4/3x3_s2_0_split_1
I0907 00:06:25.616138 92039 net.cpp:433] pool4/3x3_s2_pool4/3x3_s2_0_split -> pool4/3x3_s2_pool4/3x3_s2_0_split_2
I0907 00:06:25.616178 92039 net.cpp:433] pool4/3x3_s2_pool4/3x3_s2_0_split -> pool4/3x3_s2_pool4/3x3_s2_0_split_3
I0907 00:06:25.616194 92039 net.cpp:155] Setting up pool4/3x3_s2_pool4/3x3_s2_0_split
I0907 00:06:25.616204 92039 net.cpp:163] Top shape: 32 832 7 7 (1304576)
I0907 00:06:25.616212 92039 net.cpp:163] Top shape: 32 832 7 7 (1304576)
I0907 00:06:25.616222 92039 net.cpp:163] Top shape: 32 832 7 7 (1304576)
I0907 00:06:25.616231 92039 net.cpp:163] Top shape: 32 832 7 7 (1304576)
I0907 00:06:25.616238 92039 layer_factory.hpp:76] Creating layer inception_5a/1x1
I0907 00:06:25.616255 92039 net.cpp:110] Creating Layer inception_5a/1x1
I0907 00:06:25.616262 92039 net.cpp:477] inception_5a/1x1 <- pool4/3x3_s2_pool4/3x3_s2_0_split_0
I0907 00:06:25.616276 92039 net.cpp:433] inception_5a/1x1 -> inception_5a/1x1
I0907 00:06:25.620815 92039 net.cpp:155] Setting up inception_5a/1x1
I0907 00:06:25.620841 92039 net.cpp:163] Top shape: 32 256 7 7 (401408)
I0907 00:06:25.620856 92039 layer_factory.hpp:76] Creating layer inception_5a/relu_1x1
I0907 00:06:25.620868 92039 net.cpp:110] Creating Layer inception_5a/relu_1x1
I0907 00:06:25.620877 92039 net.cpp:477] inception_5a/relu_1x1 <- inception_5a/1x1
I0907 00:06:25.620888 92039 net.cpp:419] inception_5a/relu_1x1 -> inception_5a/1x1 (in-place)
I0907 00:06:25.620903 92039 net.cpp:155] Setting up inception_5a/relu_1x1
I0907 00:06:25.620913 92039 net.cpp:163] Top shape: 32 256 7 7 (401408)
I0907 00:06:25.620919 92039 layer_factory.hpp:76] Creating layer inception_5a/3x3_reduce
I0907 00:06:25.620934 92039 net.cpp:110] Creating Layer inception_5a/3x3_reduce
I0907 00:06:25.620941 92039 net.cpp:477] inception_5a/3x3_reduce <- pool4/3x3_s2_pool4/3x3_s2_0_split_1
I0907 00:06:25.620954 92039 net.cpp:433] inception_5a/3x3_reduce -> inception_5a/3x3_reduce
I0907 00:06:25.624198 92039 net.cpp:155] Setting up inception_5a/3x3_reduce
I0907 00:06:25.624224 92039 net.cpp:163] Top shape: 32 160 7 7 (250880)
I0907 00:06:25.624239 92039 layer_factory.hpp:76] Creating layer inception_5a/relu_3x3_reduce
I0907 00:06:25.624253 92039 net.cpp:110] Creating Layer inception_5a/relu_3x3_reduce
I0907 00:06:25.624260 92039 net.cpp:477] inception_5a/relu_3x3_reduce <- inception_5a/3x3_reduce
I0907 00:06:25.624272 92039 net.cpp:419] inception_5a/relu_3x3_reduce -> inception_5a/3x3_reduce (in-place)
I0907 00:06:25.624286 92039 net.cpp:155] Setting up inception_5a/relu_3x3_reduce
I0907 00:06:25.624295 92039 net.cpp:163] Top shape: 32 160 7 7 (250880)
I0907 00:06:25.624302 92039 layer_factory.hpp:76] Creating layer inception_5a/3x3
I0907 00:06:25.624316 92039 net.cpp:110] Creating Layer inception_5a/3x3
I0907 00:06:25.624323 92039 net.cpp:477] inception_5a/3x3 <- inception_5a/3x3_reduce
I0907 00:06:25.624336 92039 net.cpp:433] inception_5a/3x3 -> inception_5a/3x3
I0907 00:06:25.632395 92039 net.cpp:155] Setting up inception_5a/3x3
I0907 00:06:25.632412 92039 net.cpp:163] Top shape: 32 320 7 7 (501760)
I0907 00:06:25.632422 92039 layer_factory.hpp:76] Creating layer inception_5a/relu_3x3
I0907 00:06:25.632431 92039 net.cpp:110] Creating Layer inception_5a/relu_3x3
I0907 00:06:25.632436 92039 net.cpp:477] inception_5a/relu_3x3 <- inception_5a/3x3
I0907 00:06:25.632442 92039 net.cpp:419] inception_5a/relu_3x3 -> inception_5a/3x3 (in-place)
I0907 00:06:25.632457 92039 net.cpp:155] Setting up inception_5a/relu_3x3
I0907 00:06:25.632462 92039 net.cpp:163] Top shape: 32 320 7 7 (501760)
I0907 00:06:25.632467 92039 layer_factory.hpp:76] Creating layer inception_5a/5x5_reduce
I0907 00:06:25.632475 92039 net.cpp:110] Creating Layer inception_5a/5x5_reduce
I0907 00:06:25.632479 92039 net.cpp:477] inception_5a/5x5_reduce <- pool4/3x3_s2_pool4/3x3_s2_0_split_2
I0907 00:06:25.632488 92039 net.cpp:433] inception_5a/5x5_reduce -> inception_5a/5x5_reduce
I0907 00:06:25.633512 92039 net.cpp:155] Setting up inception_5a/5x5_reduce
I0907 00:06:25.633543 92039 net.cpp:163] Top shape: 32 32 7 7 (50176)
I0907 00:06:25.633553 92039 layer_factory.hpp:76] Creating layer inception_5a/relu_5x5_reduce
I0907 00:06:25.633561 92039 net.cpp:110] Creating Layer inception_5a/relu_5x5_reduce
I0907 00:06:25.633566 92039 net.cpp:477] inception_5a/relu_5x5_reduce <- inception_5a/5x5_reduce
I0907 00:06:25.633574 92039 net.cpp:419] inception_5a/relu_5x5_reduce -> inception_5a/5x5_reduce (in-place)
I0907 00:06:25.633582 92039 net.cpp:155] Setting up inception_5a/relu_5x5_reduce
I0907 00:06:25.633589 92039 net.cpp:163] Top shape: 32 32 7 7 (50176)
I0907 00:06:25.633592 92039 layer_factory.hpp:76] Creating layer inception_5a/5x5
I0907 00:06:25.633601 92039 net.cpp:110] Creating Layer inception_5a/5x5
I0907 00:06:25.633605 92039 net.cpp:477] inception_5a/5x5 <- inception_5a/5x5_reduce
I0907 00:06:25.633613 92039 net.cpp:433] inception_5a/5x5 -> inception_5a/5x5
I0907 00:06:25.634595 92039 net.cpp:155] Setting up inception_5a/5x5
I0907 00:06:25.634606 92039 net.cpp:163] Top shape: 32 128 7 7 (200704)
I0907 00:06:25.634613 92039 layer_factory.hpp:76] Creating layer inception_5a/relu_5x5
I0907 00:06:25.634620 92039 net.cpp:110] Creating Layer inception_5a/relu_5x5
I0907 00:06:25.634625 92039 net.cpp:477] inception_5a/relu_5x5 <- inception_5a/5x5
I0907 00:06:25.634631 92039 net.cpp:419] inception_5a/relu_5x5 -> inception_5a/5x5 (in-place)
I0907 00:06:25.634640 92039 net.cpp:155] Setting up inception_5a/relu_5x5
I0907 00:06:25.634645 92039 net.cpp:163] Top shape: 32 128 7 7 (200704)
I0907 00:06:25.634649 92039 layer_factory.hpp:76] Creating layer inception_5a/pool
I0907 00:06:25.634657 92039 net.cpp:110] Creating Layer inception_5a/pool
I0907 00:06:25.634662 92039 net.cpp:477] inception_5a/pool <- pool4/3x3_s2_pool4/3x3_s2_0_split_3
I0907 00:06:25.634670 92039 net.cpp:433] inception_5a/pool -> inception_5a/pool
I0907 00:06:25.634680 92039 net.cpp:155] Setting up inception_5a/pool
I0907 00:06:25.634685 92039 net.cpp:163] Top shape: 32 832 7 7 (1304576)
I0907 00:06:25.634690 92039 layer_factory.hpp:76] Creating layer inception_5a/pool_proj
I0907 00:06:25.634698 92039 net.cpp:110] Creating Layer inception_5a/pool_proj
I0907 00:06:25.634702 92039 net.cpp:477] inception_5a/pool_proj <- inception_5a/pool
I0907 00:06:25.634709 92039 net.cpp:433] inception_5a/pool_proj -> inception_5a/pool_proj
I0907 00:06:25.636436 92039 net.cpp:155] Setting up inception_5a/pool_proj
I0907 00:06:25.636452 92039 net.cpp:163] Top shape: 32 128 7 7 (200704)
I0907 00:06:25.636461 92039 layer_factory.hpp:76] Creating layer inception_5a/relu_pool_proj
I0907 00:06:25.636468 92039 net.cpp:110] Creating Layer inception_5a/relu_pool_proj
I0907 00:06:25.636473 92039 net.cpp:477] inception_5a/relu_pool_proj <- inception_5a/pool_proj
I0907 00:06:25.636481 92039 net.cpp:419] inception_5a/relu_pool_proj -> inception_5a/pool_proj (in-place)
I0907 00:06:25.636489 92039 net.cpp:155] Setting up inception_5a/relu_pool_proj
I0907 00:06:25.636494 92039 net.cpp:163] Top shape: 32 128 7 7 (200704)
I0907 00:06:25.636498 92039 layer_factory.hpp:76] Creating layer inception_5a/output
I0907 00:06:25.636507 92039 net.cpp:110] Creating Layer inception_5a/output
I0907 00:06:25.636510 92039 net.cpp:477] inception_5a/output <- inception_5a/1x1
I0907 00:06:25.636517 92039 net.cpp:477] inception_5a/output <- inception_5a/3x3
I0907 00:06:25.636521 92039 net.cpp:477] inception_5a/output <- inception_5a/5x5
I0907 00:06:25.636526 92039 net.cpp:477] inception_5a/output <- inception_5a/pool_proj
I0907 00:06:25.636533 92039 net.cpp:433] inception_5a/output -> inception_5a/output
I0907 00:06:25.636543 92039 net.cpp:155] Setting up inception_5a/output
I0907 00:06:25.636548 92039 net.cpp:163] Top shape: 32 832 7 7 (1304576)
I0907 00:06:25.636553 92039 layer_factory.hpp:76] Creating layer inception_5a/output_inception_5a/output_0_split
I0907 00:06:25.636560 92039 net.cpp:110] Creating Layer inception_5a/output_inception_5a/output_0_split
I0907 00:06:25.636565 92039 net.cpp:477] inception_5a/output_inception_5a/output_0_split <- inception_5a/output
I0907 00:06:25.636586 92039 net.cpp:433] inception_5a/output_inception_5a/output_0_split -> inception_5a/output_inception_5a/output_0_split_0
I0907 00:06:25.636596 92039 net.cpp:433] inception_5a/output_inception_5a/output_0_split -> inception_5a/output_inception_5a/output_0_split_1
I0907 00:06:25.636605 92039 net.cpp:433] inception_5a/output_inception_5a/output_0_split -> inception_5a/output_inception_5a/output_0_split_2
I0907 00:06:25.636615 92039 net.cpp:433] inception_5a/output_inception_5a/output_0_split -> inception_5a/output_inception_5a/output_0_split_3
I0907 00:06:25.636622 92039 net.cpp:155] Setting up inception_5a/output_inception_5a/output_0_split
I0907 00:06:25.636628 92039 net.cpp:163] Top shape: 32 832 7 7 (1304576)
I0907 00:06:25.636633 92039 net.cpp:163] Top shape: 32 832 7 7 (1304576)
I0907 00:06:25.636637 92039 net.cpp:163] Top shape: 32 832 7 7 (1304576)
I0907 00:06:25.636642 92039 net.cpp:163] Top shape: 32 832 7 7 (1304576)
I0907 00:06:25.636646 92039 layer_factory.hpp:76] Creating layer inception_5b/1x1
I0907 00:06:25.636656 92039 net.cpp:110] Creating Layer inception_5b/1x1
I0907 00:06:25.636661 92039 net.cpp:477] inception_5b/1x1 <- inception_5a/output_inception_5a/output_0_split_0
I0907 00:06:25.636668 92039 net.cpp:433] inception_5b/1x1 -> inception_5b/1x1
I0907 00:06:25.640420 92039 net.cpp:155] Setting up inception_5b/1x1
I0907 00:06:25.640436 92039 net.cpp:163] Top shape: 32 384 7 7 (602112)
I0907 00:06:25.640445 92039 layer_factory.hpp:76] Creating layer inception_5b/relu_1x1
I0907 00:06:25.640454 92039 net.cpp:110] Creating Layer inception_5b/relu_1x1
I0907 00:06:25.640458 92039 net.cpp:477] inception_5b/relu_1x1 <- inception_5b/1x1
I0907 00:06:25.640468 92039 net.cpp:419] inception_5b/relu_1x1 -> inception_5b/1x1 (in-place)
I0907 00:06:25.640476 92039 net.cpp:155] Setting up inception_5b/relu_1x1
I0907 00:06:25.640482 92039 net.cpp:163] Top shape: 32 384 7 7 (602112)
I0907 00:06:25.640486 92039 layer_factory.hpp:76] Creating layer inception_5b/3x3_reduce
I0907 00:06:25.640496 92039 net.cpp:110] Creating Layer inception_5b/3x3_reduce
I0907 00:06:25.640501 92039 net.cpp:477] inception_5b/3x3_reduce <- inception_5a/output_inception_5a/output_0_split_1
I0907 00:06:25.640508 92039 net.cpp:433] inception_5b/3x3_reduce -> inception_5b/3x3_reduce
I0907 00:06:25.642725 92039 net.cpp:155] Setting up inception_5b/3x3_reduce
I0907 00:06:25.642741 92039 net.cpp:163] Top shape: 32 192 7 7 (301056)
I0907 00:06:25.642750 92039 layer_factory.hpp:76] Creating layer inception_5b/relu_3x3_reduce
I0907 00:06:25.642758 92039 net.cpp:110] Creating Layer inception_5b/relu_3x3_reduce
I0907 00:06:25.642763 92039 net.cpp:477] inception_5b/relu_3x3_reduce <- inception_5b/3x3_reduce
I0907 00:06:25.642771 92039 net.cpp:419] inception_5b/relu_3x3_reduce -> inception_5b/3x3_reduce (in-place)
I0907 00:06:25.642781 92039 net.cpp:155] Setting up inception_5b/relu_3x3_reduce
I0907 00:06:25.642786 92039 net.cpp:163] Top shape: 32 192 7 7 (301056)
I0907 00:06:25.642791 92039 layer_factory.hpp:76] Creating layer inception_5b/3x3
I0907 00:06:25.642799 92039 net.cpp:110] Creating Layer inception_5b/3x3
I0907 00:06:25.642803 92039 net.cpp:477] inception_5b/3x3 <- inception_5b/3x3_reduce
I0907 00:06:25.642812 92039 net.cpp:433] inception_5b/3x3 -> inception_5b/3x3
I0907 00:06:25.650346 92039 net.cpp:155] Setting up inception_5b/3x3
I0907 00:06:25.650363 92039 net.cpp:163] Top shape: 32 384 7 7 (602112)
I0907 00:06:25.650372 92039 layer_factory.hpp:76] Creating layer inception_5b/relu_3x3
I0907 00:06:25.650380 92039 net.cpp:110] Creating Layer inception_5b/relu_3x3
I0907 00:06:25.650385 92039 net.cpp:477] inception_5b/relu_3x3 <- inception_5b/3x3
I0907 00:06:25.650393 92039 net.cpp:419] inception_5b/relu_3x3 -> inception_5b/3x3 (in-place)
I0907 00:06:25.650401 92039 net.cpp:155] Setting up inception_5b/relu_3x3
I0907 00:06:25.650406 92039 net.cpp:163] Top shape: 32 384 7 7 (602112)
I0907 00:06:25.650410 92039 layer_factory.hpp:76] Creating layer inception_5b/5x5_reduce
I0907 00:06:25.650420 92039 net.cpp:110] Creating Layer inception_5b/5x5_reduce
I0907 00:06:25.650439 92039 net.cpp:477] inception_5b/5x5_reduce <- inception_5a/output_inception_5a/output_0_split_2
I0907 00:06:25.650449 92039 net.cpp:433] inception_5b/5x5_reduce -> inception_5b/5x5_reduce
I0907 00:06:25.650887 92039 net.cpp:155] Setting up inception_5b/5x5_reduce
I0907 00:06:25.650899 92039 net.cpp:163] Top shape: 32 48 7 7 (75264)
I0907 00:06:25.650907 92039 layer_factory.hpp:76] Creating layer inception_5b/relu_5x5_reduce
I0907 00:06:25.650914 92039 net.cpp:110] Creating Layer inception_5b/relu_5x5_reduce
I0907 00:06:25.650918 92039 net.cpp:477] inception_5b/relu_5x5_reduce <- inception_5b/5x5_reduce
I0907 00:06:25.650925 92039 net.cpp:419] inception_5b/relu_5x5_reduce -> inception_5b/5x5_reduce (in-place)
I0907 00:06:25.650933 92039 net.cpp:155] Setting up inception_5b/relu_5x5_reduce
I0907 00:06:25.650938 92039 net.cpp:163] Top shape: 32 48 7 7 (75264)
I0907 00:06:25.650943 92039 layer_factory.hpp:76] Creating layer inception_5b/5x5
I0907 00:06:25.650952 92039 net.cpp:110] Creating Layer inception_5b/5x5
I0907 00:06:25.650956 92039 net.cpp:477] inception_5b/5x5 <- inception_5b/5x5_reduce
I0907 00:06:25.650964 92039 net.cpp:433] inception_5b/5x5 -> inception_5b/5x5
I0907 00:06:25.652422 92039 net.cpp:155] Setting up inception_5b/5x5
I0907 00:06:25.652434 92039 net.cpp:163] Top shape: 32 128 7 7 (200704)
I0907 00:06:25.652442 92039 layer_factory.hpp:76] Creating layer inception_5b/relu_5x5
I0907 00:06:25.652449 92039 net.cpp:110] Creating Layer inception_5b/relu_5x5
I0907 00:06:25.652454 92039 net.cpp:477] inception_5b/relu_5x5 <- inception_5b/5x5
I0907 00:06:25.652462 92039 net.cpp:419] inception_5b/relu_5x5 -> inception_5b/5x5 (in-place)
I0907 00:06:25.652468 92039 net.cpp:155] Setting up inception_5b/relu_5x5
I0907 00:06:25.652474 92039 net.cpp:163] Top shape: 32 128 7 7 (200704)
I0907 00:06:25.652477 92039 layer_factory.hpp:76] Creating layer inception_5b/pool
I0907 00:06:25.652485 92039 net.cpp:110] Creating Layer inception_5b/pool
I0907 00:06:25.652490 92039 net.cpp:477] inception_5b/pool <- inception_5a/output_inception_5a/output_0_split_3
I0907 00:06:25.652498 92039 net.cpp:433] inception_5b/pool -> inception_5b/pool
I0907 00:06:25.652508 92039 net.cpp:155] Setting up inception_5b/pool
I0907 00:06:25.652513 92039 net.cpp:163] Top shape: 32 832 7 7 (1304576)
I0907 00:06:25.652518 92039 layer_factory.hpp:76] Creating layer inception_5b/pool_proj
I0907 00:06:25.652526 92039 net.cpp:110] Creating Layer inception_5b/pool_proj
I0907 00:06:25.652530 92039 net.cpp:477] inception_5b/pool_proj <- inception_5b/pool
I0907 00:06:25.652537 92039 net.cpp:433] inception_5b/pool_proj -> inception_5b/pool_proj
I0907 00:06:25.654330 92039 net.cpp:155] Setting up inception_5b/pool_proj
I0907 00:06:25.654346 92039 net.cpp:163] Top shape: 32 128 7 7 (200704)
I0907 00:06:25.654355 92039 layer_factory.hpp:76] Creating layer inception_5b/relu_pool_proj
I0907 00:06:25.654362 92039 net.cpp:110] Creating Layer inception_5b/relu_pool_proj
I0907 00:06:25.654367 92039 net.cpp:477] inception_5b/relu_pool_proj <- inception_5b/pool_proj
I0907 00:06:25.654374 92039 net.cpp:419] inception_5b/relu_pool_proj -> inception_5b/pool_proj (in-place)
I0907 00:06:25.654382 92039 net.cpp:155] Setting up inception_5b/relu_pool_proj
I0907 00:06:25.654388 92039 net.cpp:163] Top shape: 32 128 7 7 (200704)
I0907 00:06:25.654392 92039 layer_factory.hpp:76] Creating layer inception_5b/output
I0907 00:06:25.654400 92039 net.cpp:110] Creating Layer inception_5b/output
I0907 00:06:25.654404 92039 net.cpp:477] inception_5b/output <- inception_5b/1x1
I0907 00:06:25.654410 92039 net.cpp:477] inception_5b/output <- inception_5b/3x3
I0907 00:06:25.654415 92039 net.cpp:477] inception_5b/output <- inception_5b/5x5
I0907 00:06:25.654420 92039 net.cpp:477] inception_5b/output <- inception_5b/pool_proj
I0907 00:06:25.654428 92039 net.cpp:433] inception_5b/output -> inception_5b/output
I0907 00:06:25.654436 92039 net.cpp:155] Setting up inception_5b/output
I0907 00:06:25.654441 92039 net.cpp:163] Top shape: 32 1024 7 7 (1605632)
I0907 00:06:25.654459 92039 layer_factory.hpp:76] Creating layer pool5/7x7_s1
I0907 00:06:25.654467 92039 net.cpp:110] Creating Layer pool5/7x7_s1
I0907 00:06:25.654472 92039 net.cpp:477] pool5/7x7_s1 <- inception_5b/output
I0907 00:06:25.654479 92039 net.cpp:433] pool5/7x7_s1 -> pool5/7x7_s1
I0907 00:06:25.654489 92039 net.cpp:155] Setting up pool5/7x7_s1
I0907 00:06:25.654495 92039 net.cpp:163] Top shape: 32 1024 1 1 (32768)
I0907 00:06:25.654500 92039 layer_factory.hpp:76] Creating layer pool5/drop_7x7_s1
I0907 00:06:25.654512 92039 net.cpp:110] Creating Layer pool5/drop_7x7_s1
I0907 00:06:25.654516 92039 net.cpp:477] pool5/drop_7x7_s1 <- pool5/7x7_s1
I0907 00:06:25.654523 92039 net.cpp:419] pool5/drop_7x7_s1 -> pool5/7x7_s1 (in-place)
I0907 00:06:25.654532 92039 net.cpp:155] Setting up pool5/drop_7x7_s1
I0907 00:06:25.654537 92039 net.cpp:163] Top shape: 32 1024 1 1 (32768)
I0907 00:06:25.654541 92039 layer_factory.hpp:76] Creating layer loss3/classifier_cub
I0907 00:06:25.654551 92039 net.cpp:110] Creating Layer loss3/classifier_cub
I0907 00:06:25.654556 92039 net.cpp:477] loss3/classifier_cub <- pool5/7x7_s1
I0907 00:06:25.654564 92039 net.cpp:433] loss3/classifier_cub -> loss3/classifier
I0907 00:06:25.663566 92039 net.cpp:155] Setting up loss3/classifier_cub
I0907 00:06:25.663583 92039 net.cpp:163] Top shape: 32 200 (6400)
I0907 00:06:25.663593 92039 layer_factory.hpp:76] Creating layer loss3/classifier_loss3/classifier_cub_0_split
I0907 00:06:25.663601 92039 net.cpp:110] Creating Layer loss3/classifier_loss3/classifier_cub_0_split
I0907 00:06:25.663606 92039 net.cpp:477] loss3/classifier_loss3/classifier_cub_0_split <- loss3/classifier
I0907 00:06:25.663614 92039 net.cpp:433] loss3/classifier_loss3/classifier_cub_0_split -> loss3/classifier_loss3/classifier_cub_0_split_0
I0907 00:06:25.663625 92039 net.cpp:433] loss3/classifier_loss3/classifier_cub_0_split -> loss3/classifier_loss3/classifier_cub_0_split_1
I0907 00:06:25.663632 92039 net.cpp:433] loss3/classifier_loss3/classifier_cub_0_split -> loss3/classifier_loss3/classifier_cub_0_split_2
I0907 00:06:25.663641 92039 net.cpp:155] Setting up loss3/classifier_loss3/classifier_cub_0_split
I0907 00:06:25.663647 92039 net.cpp:163] Top shape: 32 200 (6400)
I0907 00:06:25.663651 92039 net.cpp:163] Top shape: 32 200 (6400)
I0907 00:06:25.663656 92039 net.cpp:163] Top shape: 32 200 (6400)
I0907 00:06:25.663661 92039 layer_factory.hpp:76] Creating layer loss3/loss3
I0907 00:06:25.663673 92039 net.cpp:110] Creating Layer loss3/loss3
I0907 00:06:25.663678 92039 net.cpp:477] loss3/loss3 <- loss3/classifier_loss3/classifier_cub_0_split_0
I0907 00:06:25.663686 92039 net.cpp:477] loss3/loss3 <- label_data_1_split_6
I0907 00:06:25.663692 92039 net.cpp:433] loss3/loss3 -> loss3/loss3
…
