…
I0902 14:26:38.982898 52488 net.cpp:339] The NetState phase (0) differed from the phase (1) specified by a rule in layer loss2/top-5
I0902 14:26:38.984163 52488 net.cpp:50] Initializing net from parameters: 
name: "CUB_GoogleNet"
state {
  phase: TRAIN
}
layer {
  name: "data"
  type: "ImageData"
  top: "data"
  top: "label"
  include {
    phase: TRAIN
  }
  transform_param {
    mirror: true
    crop_size: 224
    mean_value: 104
    mean_value: 117
    mean_value: 123
  }
  image_data_param {
    source: "data/CUB_200_2011/train_files.txt"
    batch_size: 32
    shuffle: true
    new_height: 256
    new_width: 256
  }
}
layer {
  name: "conv1/7x7_s2"
  type: "Convolution"
  bottom: "data"
  top: "conv1/7x7_s2"
  param {
    lr_mult: 1
    decay_mult: 1
  }
  param {
    lr_mult: 2
    decay_mult: 0
  }
  convolution_param {
    num_output: 64
    pad: 3
    kernel_size: 7
    stride: 2
    weight_filler {
      type: "xavier"
    }
    bias_filler {
      type: "constant"
      value: 0.2
    }
  }
}
layer {
  name: "conv1/relu_7x7"
  type: "ReLU"
  bottom: "conv1/7x7_s2"
  top: "conv1/7x7_s2"
}
layer {
  name: "pool1/3x3_s2"
  type: "Pooling"
  bottom: "conv1/7x7_s2"
  top: "pool1/3x3_s2"
  pooling_param {
    pool: MAX
    kernel_size: 3
    stride: 2
  }
}
layer {
  name: "pool1/norm1"
  type: "LRN"
  bottom: "pool1/3x3_s2"
  top: "pool1/norm1"
  lrn_param {
    local_size: 5
    alpha: 0.0001
    beta: 0.75
  }
}
layer {
  name: "conv2/3x3_reduce"
  type: "Convolution"
  bottom: "pool1/norm1"
  top: "conv2/3x3_reduce"
  param {
    lr_mult: 1
    decay_mult: 1
  }
  param {
    lr_mult: 2
    decay_mult: 0
  }
  convolution_param {
    num_output: 64
    kernel_size: 1
    weight_filler {
      type: "xavier"
    }
    bias_filler {
      type: "constant"
      value: 0.2
    }
  }
}
layer {
  name: "conv2/relu_3x3_reduce"
  type: "ReLU"
  bottom: "conv2/3x3_reduce"
  top: "conv2/3x3_reduce"
}
layer {
  name: "conv2/3x3"
  type: "Convolution"
  bottom: "conv2/3x3_reduce"
  top: "conv2/3x3"
  param {
    lr_mult: 1
    decay_mult: 1
  }
  param {
    lr_mult: 2
    decay_mult: 0
  }
  convolution_param {
    num_output: 192
    pad: 1
    kernel_size: 3
    weight_filler {
      type: "xavier"
    }
    bias_filler {
      type: "constant"
      value: 0.2
    }
  }
}
layer {
  name: "conv2/relu_3x3"
  type: "ReLU"
  bottom: "conv2/3x3"
  top: "conv2/3x3"
}
layer {
  name: "conv2/norm2"
  type: "LRN"
  bottom: "conv2/3x3"
  top: "conv2/norm2"
  lrn_param {
    local_size: 5
    alpha: 0.0001
    beta: 0.75
  }
}
layer {
  name: "pool2/3x3_s2"
  type: "Pooling"
  bottom: "conv2/norm2"
  top: "pool2/3x3_s2"
  pooling_param {
    pool: MAX
    kernel_size: 3
    stride: 2
  }
}
layer {
  name: "inception_3a/1x1"
  type: "Convolution"
  bottom: "pool2/3x3_s2"
  top: "inception_3a/1x1"
  param {
    lr_mult: 1
    decay_mult: 1
  }
  param {
    lr_mult: 2
    decay_mult: 0
  }
  convolution_param {
    num_output: 64
    kernel_size: 1
    weight_filler {
      type: "xavier"
    }
    bias_filler {
      type: "constant"
      value: 0.2
    }
  }
}
layer {
  name: "inception_3a/relu_1x1"
  type: "ReLU"
  bottom: "inception_3a/1x1"
  top: "inception_3a/1x1"
}
layer {
  name: "inception_3a/3x3_reduce"
  type: "Convolution"
  bottom: "pool2/3x3_s2"
  top: "inception_3a/3x3_reduce"
  param {
    lr_mult: 1
    decay_mult: 1
  }
  param {
    lr_mult: 2
    decay_mult: 0
  }
  convolution_param {
    num_output: 96
    kernel_size: 1
    weight_filler {
      type: "xavier"
    }
    bias_filler {
      type: "constant"
      value: 0.2
    }
  }
}
layer {
  name: "inception_3a/relu_3x3_reduce"
  type: "ReLU"
  bottom: "inception_3a/3x3_reduce"
  top: "inception_3a/3x3_reduce"
}
layer {
  name: "inception_3a/3x3"
  type: "Convolution"
  bottom: "inception_3a/3x3_reduce"
  top: "inception_3a/3x3"
  param {
    lr_mult: 1
    decay_mult: 1
  }
  param {
    lr_mult: 2
    decay_mult: 0
  }
  convolution_param {
    num_output: 128
    pad: 1
    kernel_size: 3
    weight_filler {
      type: "xavier"
    }
    bias_filler {
      type: "constant"
      value: 0.2
    }
  }
}
layer {
  name: "inception_3a/relu_3x3"
  type: "ReLU"
  bottom: "inception_3a/3x3"
  top: "inception_3a/3x3"
}
layer {
  name: "inception_3a/5x5_reduce"
  type: "Convolution"
  bottom: "pool2/3x3_s2"
  top: "inception_3a/5x5_reduce"
  param {
    lr_mult: 1
    decay_mult: 1
  }
  param {
    lr_mult: 2
    decay_mult: 0
  }
  convolution_param {
    num_output: 16
    kernel_size: 1
    weight_filler {
      type: "xavier"
    }
    bias_filler {
      type: "constant"
      value: 0.2
    }
  }
}
layer {
  name: "inception_3a/relu_5x5_reduce"
  type: "ReLU"
  bottom: "inception_3a/5x5_reduce"
  top: "inception_3a/5x5_reduce"
}
layer {
  name: "inception_3a/5x5"
  type: "Convolution"
  bottom: "inception_3a/5x5_reduce"
  top: "inception_3a/5x5"
  param {
    lr_mult: 1
    decay_mult: 1
  }
  param {
    lr_mult: 2
    decay_mult: 0
  }
  convolution_param {
    num_output: 32
    pad: 2
    kernel_size: 5
    weight_filler {
      type: "xavier"
    }
    bias_filler {
      type: "constant"
      value: 0.2
    }
  }
}
layer {
  name: "inception_3a/relu_5x5"
  type: "ReLU"
  bottom: "inception_3a/5x5"
  top: "inception_3a/5x5"
}
layer {
  name: "inception_3a/pool"
  type: "Pooling"
  bottom: "pool2/3x3_s2"
  top: "inception_3a/pool"
  pooling_param {
    pool: MAX
    kernel_size: 3
    stride: 1
    pad: 1
  }
}
layer {
  name: "inception_3a/pool_proj"
  type: "Convolution"
  bottom: "inception_3a/pool"
  top: "inception_3a/pool_proj"
  param {
    lr_mult: 1
    decay_mult: 1
  }
  param {
    lr_mult: 2
    decay_mult: 0
  }
  convolution_param {
    num_output: 32
    kernel_size: 1
    weight_filler {
      type: "xavier"
    }
    bias_filler {
      type: "constant"
      value: 0.2
    }
  }
}
layer {
  name: "inception_3a/relu_pool_proj"
  type: "ReLU"
  bottom: "inception_3a/pool_proj"
  top: "inception_3a/pool_proj"
}
layer {
  name: "inception_3a/output"
  type: "Concat"
  bottom: "inception_3a/1x1"
  bottom: "inception_3a/3x3"
  bottom: "inception_3a/5x5"
  bottom: "inception_3a/pool_proj"
  top: "inception_3a/output"
}
layer {
  name: "inception_3b/1x1"
  type: "Convolution"
  bottom: "inception_3a/output"
  top: "inception_3b/1x1"
  param {
    lr_mult: 1
    decay_mult: 1
  }
  param {
    lr_mult: 2
    decay_mult: 0
  }
  convolution_param {
    num_output: 128
    kernel_size: 1
    weight_filler {
      type: "xavier"
    }
    bias_filler {
      type: "constant"
      value: 0.2
    }
  }
}
layer {
  name: "inception_3b/relu_1x1"
  type: "ReLU"
  bottom: "inception_3b/1x1"
  top: "inception_3b/1x1"
}
layer {
  name: "inception_3b/3x3_reduce"
  type: "Convolution"
  bottom: "inception_3a/output"
  top: "inception_3b/3x3_reduce"
  param {
    lr_mult: 1
    decay_mult: 1
  }
  param {
    lr_mult: 2
    decay_mult: 0
  }
  convolution_param {
    num_output: 128
    kernel_size: 1
    weight_filler {
      type: "xavier"
    }
    bias_filler {
      type: "constant"
      value: 0.2
    }
  }
}
layer {
  name: "inception_3b/relu_3x3_reduce"
  type: "ReLU"
  bottom: "inception_3b/3x3_reduce"
  top: "inception_3b/3x3_reduce"
}
layer {
  name: "inception_3b/3x3"
  type: "Convolution"
  bottom: "inception_3b/3x3_reduce"
  top: "inception_3b/3x3"
  param {
    lr_mult: 1
    decay_mult: 1
  }
  param {
    lr_mult: 2
    decay_mult: 0
  }
  convolution_param {
    num_output: 192
    pad: 1
    kernel_size: 3
    weight_filler {
      type: "xavier"
    }
    bias_filler {
      type: "constant"
      value: 0.2
    }
  }
}
layer {
  name: "inception_3b/relu_3x3"
  type: "ReLU"
  bottom: "inception_3b/3x3"
  top: "inception_3b/3x3"
}
layer {
  name: "inception_3b/5x5_reduce"
  type: "Convolution"
  bottom: "inception_3a/output"
  top: "inception_3b/5x5_reduce"
  param {
    lr_mult: 1
    decay_mult: 1
  }
  param {
    lr_mult: 2
    decay_mult: 0
  }
  convolution_param {
    num_output: 32
    kernel_size: 1
    weight_filler {
      type: "xavier"
    }
    bias_filler {
      type: "constant"
      value: 0.2
    }
  }
}
layer {
  name: "inception_3b/relu_5x5_reduce"
  type: "ReLU"
  bottom: "inception_3b/5x5_reduce"
  top: "inception_3b/5x5_reduce"
}
layer {
  name: "inception_3b/5x5"
  type: "Convolution"
  bottom: "inception_3b/5x5_reduce"
  top: "inception_3b/5x5"
  param {
    lr_mult: 1
    decay_mult: 1
  }
  param {
    lr_mult: 2
    decay_mult: 0
  }
  convolution_param {
    num_output: 96
    pad: 2
    kernel_size: 5
    weight_filler {
      type: "xavier"
    }
    bias_filler {
      type: "constant"
      value: 0.2
    }
  }
}
layer {
  name: "inception_3b/relu_5x5"
  type: "ReLU"
  bottom: "inception_3b/5x5"
  top: "inception_3b/5x5"
}
layer {
  name: "inception_3b/pool"
  type: "Pooling"
  bottom: "inception_3a/output"
  top: "inception_3b/pool"
  pooling_param {
    pool: MAX
    kernel_size: 3
    stride: 1
    pad: 1
  }
}
layer {
  name: "inception_3b/pool_proj"
  type: "Convolution"
  bottom: "inception_3b/pool"
  top: "inception_3b/pool_proj"
  param {
    lr_mult: 1
    decay_mult: 1
  }
  param {
    lr_mult: 2
    decay_mult: 0
  }
  convolution_param {
    num_output: 64
    kernel_size: 1
    weight_filler {
      type: "xavier"
    }
    bias_filler {
      type: "constant"
      value: 0.2
    }
  }
}
layer {
  name: "inception_3b/relu_pool_proj"
  type: "ReLU"
  bottom: "inception_3b/pool_proj"
  top: "inception_3b/pool_proj"
}
layer {
  name: "inception_3b/output"
  type: "Concat"
  bottom: "inception_3b/1x1"
  bottom: "inception_3b/3x3"
  bottom: "inception_3b/5x5"
  bottom: "inception_3b/pool_proj"
  top: "inception_3b/output"
}
layer {
  name: "pool3/3x3_s2"
  type: "Pooling"
  bottom: "inception_3b/output"
  top: "pool3/3x3_s2"
  pooling_param {
    pool: MAX
    kernel_size: 3
    stride: 2
  }
}
layer {
  name: "inception_4a/1x1"
  type: "Convolution"
  bottom: "pool3/3x3_s2"
  top: "inception_4a/1x1"
  param {
    lr_mult: 1
    decay_mult: 1
  }
  param {
    lr_mult: 2
    decay_mult: 0
  }
  convolution_param {
    num_output: 192
    kernel_size: 1
    weight_filler {
      type: "xavier"
    }
    bias_filler {
      type: "constant"
      value: 0.2
    }
  }
}
layer {
  name: "inception_4a/relu_1x1"
  type: "ReLU"
  bottom: "inception_4a/1x1"
  top: "inception_4a/1x1"
}
layer {
  name: "inception_4a/3x3_reduce"
  type: "Convolution"
  bottom: "pool3/3x3_s2"
  top: "inception_4a/3x3_reduce"
  param {
    lr_mult: 1
    decay_mult: 1
  }
  param {
    lr_mult: 2
    decay_mult: 0
  }
  convolution_param {
    num_output: 96
    kernel_size: 1
    weight_filler {
      type: "xavier"
    }
    bias_filler {
      type: "constant"
      value: 0.2
    }
  }
}
layer {
  name: "inception_4a/relu_3x3_reduce"
  type: "ReLU"
  bottom: "inception_4a/3x3_reduce"
  top: "inception_4a/3x3_reduce"
}
layer {
  name: "inception_4a/3x3"
  type: "Convolution"
  bottom: "inception_4a/3x3_reduce"
  top: "inception_4a/3x3"
  param {
    lr_mult: 1
    decay_mult: 1
  }
  param {
    lr_mult: 2
    decay_mult: 0
  }
  convolution_param {
    num_output: 208
    pad: 1
    kernel_size: 3
    weight_filler {
      type: "xavier"
    }
    bias_filler {
      type: "constant"
      value: 0.2
    }
  }
}
layer {
  name: "inception_4a/relu_3x3"
  type: "ReLU"
  bottom: "inception_4a/3x3"
  top: "inception_4a/3x3"
}
layer {
  name: "inception_4a/5x5_reduce"
  type: "Convolution"
  bottom: "pool3/3x3_s2"
  top: "inception_4a/5x5_reduce"
  param {
    lr_mult: 1
    decay_mult: 1
  }
  param {
    lr_mult: 2
    decay_mult: 0
  }
  convolution_param {
    num_output: 16
    kernel_size: 1
    weight_filler {
      type: "xavier"
    }
    bias_filler {
      type: "constant"
      value: 0.2
    }
  }
}
layer {
  name: "inception_4a/relu_5x5_reduce"
  type: "ReLU"
  bottom: "inception_4a/5x5_reduce"
  top: "inception_4a/5x5_reduce"
}
layer {
  name: "inception_4a/5x5"
  type: "Convolution"
  bottom: "inception_4a/5x5_reduce"
  top: "inception_4a/5x5"
  param {
    lr_mult: 1
    decay_mult: 1
  }
  param {
    lr_mult: 2
    decay_mult: 0
  }
  convolution_param {
    num_output: 48
    pad: 2
    kernel_size: 5
    weight_filler {
      type: "xavier"
    }
    bias_filler {
      type: "constant"
      value: 0.2
    }
  }
}
layer {
  name: "inception_4a/relu_5x5"
  type: "ReLU"
  bottom: "inception_4a/5x5"
  top: "inception_4a/5x5"
}
layer {
  name: "inception_4a/pool"
  type: "Pooling"
  bottom: "pool3/3x3_s2"
  top: "inception_4a/pool"
  pooling_param {
    pool: MAX
    kernel_size: 3
    stride: 1
    pad: 1
  }
}
layer {
  name: "inception_4a/pool_proj"
  type: "Convolution"
  bottom: "inception_4a/pool"
  top: "inception_4a/pool_proj"
  param {
    lr_mult: 1
    decay_mult: 1
  }
  param {
    lr_mult: 2
    decay_mult: 0
  }
  convolution_param {
    num_output: 64
    kernel_size: 1
    weight_filler {
      type: "xavier"
    }
    bias_filler {
      type: "constant"
      value: 0.2
    }
  }
}
layer {
  name: "inception_4a/relu_pool_proj"
  type: "ReLU"
  bottom: "inception_4a/pool_proj"
  top: "inception_4a/pool_proj"
}
layer {
  name: "inception_4a/output"
  type: "Concat"
  bottom: "inception_4a/1x1"
  bottom: "inception_4a/3x3"
  bottom: "inception_4a/5x5"
  bottom: "inception_4a/pool_proj"
  top: "inception_4a/output"
}
layer {
  name: "loss1/ave_pool"
  type: "Pooling"
  bottom: "inception_4a/output"
  top: "loss1/ave_pool"
  pooling_param {
    pool: AVE
    kernel_size: 5
    stride: 3
  }
}
layer {
  name: "loss1/conv"
  type: "Convolution"
  bottom: "loss1/ave_pool"
  top: "loss1/conv"
  convolution_param {
    num_output: 128
    kernel_size: 1
    weight_filler {
      type: "xavier"
    }
    bias_filler {
      type: "constant"
      value: 0.2
    }
  }
}
layer {
  name: "loss1/relu_conv"
  type: "ReLU"
  bottom: "loss1/conv"
  top: "loss1/conv"
}
layer {
  name: "loss1/fc"
  type: "InnerProduct"
  bottom: "loss1/conv"
  top: "loss1/fc"
  inner_product_param {
    num_output: 1024
    weight_filler {
      type: "xavier"
    }
    bias_filler {
      type: "constant"
      value: 0.2
    }
  }
}
layer {
  name: "loss1/relu_fc"
  type: "ReLU"
  bottom: "loss1/fc"
  top: "loss1/fc"
}
layer {
  name: "loss1/drop_fc"
  type: "Dropout"
  bottom: "loss1/fc"
  top: "loss1/fc"
  dropout_param {
    dropout_ratio: 0.7
  }
}
layer {
  name: "cub/loss1/classifier"
  type: "InnerProduct"
  bottom: "loss1/fc"
  top: "loss1/classifier"
  inner_product_param {
    num_output: 200
    weight_filler {
      type: "xavier"
    }
    bias_filler {
      type: "constant"
      value: 0
    }
  }
}
layer {
  name: "loss1/loss"
  type: "SoftmaxWithLoss"
  bottom: "loss1/classifier"
  bottom: "label"
  top: "loss1/loss1"
  loss_weight: 0.3
}
layer {
  name: "inception_4b/1x1"
  type: "Convolution"
  bottom: "inception_4a/output"
  top: "inception_4b/1x1"
  param {
    lr_mult: 1
    decay_mult: 1
  }
  param {
    lr_mult: 2
    decay_mult: 0
  }
  convolution_param {
    num_output: 160
    kernel_size: 1
    weight_filler {
      type: "xavier"
    }
    bias_filler {
      type: "constant"
      value: 0.2
    }
  }
}
layer {
  name: "inception_4b/relu_1x1"
  type: "ReLU"
  bottom: "inception_4b/1x1"
  top: "inception_4b/1x1"
}
layer {
  name: "inception_4b/3x3_reduce"
  type: "Convolution"
  bottom: "inception_4a/output"
  top: "inception_4b/3x3_reduce"
  param {
    lr_mult: 1
    decay_mult: 1
  }
  param {
    lr_mult: 2
    decay_mult: 0
  }
  convolution_param {
    num_output: 112
    kernel_size: 1
    weight_filler {
      type: "xavier"
    }
    bias_filler {
      type: "constant"
      value: 0.2
    }
  }
}
layer {
  name: "inception_4b/relu_3x3_reduce"
  type: "ReLU"
  bottom: "inception_4b/3x3_reduce"
  top: "inception_4b/3x3_reduce"
}
layer {
  name: "inception_4b/3x3"
  type: "Convolution"
  bottom: "inception_4b/3x3_reduce"
  top: "inception_4b/3x3"
  param {
    lr_mult: 1
    decay_mult: 1
  }
  param {
    lr_mult: 2
    decay_mult: 0
  }
  convolution_param {
    num_output: 224
    pad: 1
    kernel_size: 3
    weight_filler {
      type: "xavier"
    }
    bias_filler {
      type: "constant"
      value: 0.2
    }
  }
}
layer {
  name: "inception_4b/relu_3x3"
  type: "ReLU"
  bottom: "inception_4b/3x3"
  top: "inception_4b/3x3"
}
layer {
  name: "inception_4b/5x5_reduce"
  type: "Convolution"
  bottom: "inception_4a/output"
  top: "inception_4b/5x5_reduce"
  param {
    lr_mult: 1
    decay_mult: 1
  }
  param {
    lr_mult: 2
    decay_mult: 0
  }
  convolution_param {
    num_output: 24
    kernel_size: 1
    weight_filler {
      type: "xavier"
    }
    bias_filler {
      type: "constant"
      value: 0.2
    }
  }
}
layer {
  name: "inception_4b/relu_5x5_reduce"
  type: "ReLU"
  bottom: "inception_4b/5x5_reduce"
  top: "inception_4b/5x5_reduce"
}
layer {
  name: "inception_4b/5x5"
  type: "Convolution"
  bottom: "inception_4b/5x5_reduce"
  top: "inception_4b/5x5"
  param {
    lr_mult: 1
    decay_mult: 1
  }
  param {
    lr_mult: 2
    decay_mult: 0
  }
  convolution_param {
    num_output: 64
    pad: 2
    kernel_size: 5
    weight_filler {
      type: "xavier"
    }
    bias_filler {
      type: "constant"
      value: 0.2
    }
  }
}
layer {
  name: "inception_4b/relu_5x5"
  type: "ReLU"
  bottom: "inception_4b/5x5"
  top: "inception_4b/5x5"
}
layer {
  name: "inception_4b/pool"
  type: "Pooling"
  bottom: "inception_4a/output"
  top: "inception_4b/pool"
  pooling_param {
    pool: MAX
    kernel_size: 3
    stride: 1
    pad: 1
  }
}
layer {
  name: "inception_4b/pool_proj"
  type: "Convolution"
  bottom: "inception_4b/pool"
  top: "inception_4b/pool_proj"
  param {
    lr_mult: 1
    decay_mult: 1
  }
  param {
    lr_mult: 2
    decay_mult: 0
  }
  convolution_param {
    num_output: 64
    kernel_size: 1
    weight_filler {
      type: "xavier"
    }
    bias_filler {
      type: "constant"
      value: 0.2
    }
  }
}
layer {
  name: "inception_4b/relu_pool_proj"
  type: "ReLU"
  bottom: "inception_4b/pool_proj"
  top: "inception_4b/pool_proj"
}
layer {
  name: "inception_4b/output"
  type: "Concat"
  bottom: "inception_4b/1x1"
  bottom: "inception_4b/3x3"
  bottom: "inception_4b/5x5"
  bottom: "inception_4b/pool_proj"
  top: "inception_4b/output"
}
layer {
  name: "inception_4c/1x1"
  type: "Convolution"
  bottom: "inception_4b/output"
  top: "inception_4c/1x1"
  param {
    lr_mult: 1
    decay_mult: 1
  }
  param {
    lr_mult: 2
    decay_mult: 0
  }
  convolution_param {
    num_output: 128
    kernel_size: 1
    weight_filler {
      type: "xavier"
    }
    bias_filler {
      type: "constant"
      value: 0.2
    }
  }
}
layer {
  name: "inception_4c/relu_1x1"
  type: "ReLU"
  bottom: "inception_4c/1x1"
  top: "inception_4c/1x1"
}
layer {
  name: "inception_4c/3x3_reduce"
  type: "Convolution"
  bottom: "inception_4b/output"
  top: "inception_4c/3x3_reduce"
  param {
    lr_mult: 1
    decay_mult: 1
  }
  param {
    lr_mult: 2
    decay_mult: 0
  }
  convolution_param {
    num_output: 128
    kernel_size: 1
    weight_filler {
      type: "xavier"
    }
    bias_filler {
      type: "constant"
      value: 0.2
    }
  }
}
layer {
  name: "inception_4c/relu_3x3_reduce"
  type: "ReLU"
  bottom: "inception_4c/3x3_reduce"
  top: "inception_4c/3x3_reduce"
}
layer {
  name: "inception_4c/3x3"
  type: "Convolution"
  bottom: "inception_4c/3x3_reduce"
  top: "inception_4c/3x3"
  param {
    lr_mult: 1
    decay_mult: 1
  }
  param {
    lr_mult: 2
    decay_mult: 0
  }
  convolution_param {
    num_output: 256
    pad: 1
    kernel_size: 3
    weight_filler {
      type: "xavier"
    }
    bias_filler {
      type: "constant"
      value: 0.2
    }
  }
}
layer {
  name: "inception_4c/relu_3x3"
  type: "ReLU"
  bottom: "inception_4c/3x3"
  top: "inception_4c/3x3"
}
layer {
  name: "inception_4c/5x5_reduce"
  type: "Convolution"
  bottom: "inception_4b/output"
  top: "inception_4c/5x5_reduce"
  param {
    lr_mult: 1
    decay_mult: 1
  }
  param {
    lr_mult: 2
    decay_mult: 0
  }
  convolution_param {
    num_output: 24
    kernel_size: 1
    weight_filler {
      type: "xavier"
    }
    bias_filler {
      type: "constant"
      value: 0.2
    }
  }
}
layer {
  name: "inception_4c/relu_5x5_reduce"
  type: "ReLU"
  bottom: "inception_4c/5x5_reduce"
  top: "inception_4c/5x5_reduce"
}
layer {
  name: "inception_4c/5x5"
  type: "Convolution"
  bottom: "inception_4c/5x5_reduce"
  top: "inception_4c/5x5"
  param {
    lr_mult: 1
    decay_mult: 1
  }
  param {
    lr_mult: 2
    decay_mult: 0
  }
  convolution_param {
    num_output: 64
    pad: 2
    kernel_size: 5
    weight_filler {
      type: "xavier"
    }
    bias_filler {
      type: "constant"
      value: 0.2
    }
  }
}
layer {
  name: "inception_4c/relu_5x5"
  type: "ReLU"
  bottom: "inception_4c/5x5"
  top: "inception_4c/5x5"
}
layer {
  name: "inception_4c/pool"
  type: "Pooling"
  bottom: "inception_4b/output"
  top: "inception_4c/pool"
  pooling_param {
    pool: MAX
    kernel_size: 3
    stride: 1
    pad: 1
  }
}
layer {
  name: "inception_4c/pool_proj"
  type: "Convolution"
  bottom: "inception_4c/pool"
  top: "inception_4c/pool_proj"
  param {
    lr_mult: 1
    decay_mult: 1
  }
  param {
    lr_mult: 2
    decay_mult: 0
  }
  convolution_param {
    num_output: 64
    kernel_size: 1
    weight_filler {
      type: "xavier"
    }
    bias_filler {
      type: "constant"
      value: 0.2
    }
  }
}
layer {
  name: "inception_4c/relu_pool_proj"
  type: "ReLU"
  bottom: "inception_4c/pool_proj"
  top: "inception_4c/pool_proj"
}
layer {
  name: "inception_4c/output"
  type: "Concat"
  bottom: "inception_4c/1x1"
  bottom: "inception_4c/3x3"
  bottom: "inception_4c/5x5"
  bottom: "inception_4c/pool_proj"
  top: "inception_4c/output"
}
layer {
  name: "inception_4d/1x1"
  type: "Convolution"
  bottom: "inception_4c/output"
  top: "inception_4d/1x1"
  param {
    lr_mult: 1
    decay_mult: 1
  }
  param {
    lr_mult: 2
    decay_mult: 0
  }
  convolution_param {
    num_output: 112
    kernel_size: 1
    weight_filler {
      type: "xavier"
    }
    bias_filler {
      type: "constant"
      value: 0.2
    }
  }
}
layer {
  name: "inception_4d/relu_1x1"
  type: "ReLU"
  bottom: "inception_4d/1x1"
  top: "inception_4d/1x1"
}
layer {
  name: "inception_4d/3x3_reduce"
  type: "Convolution"
  bottom: "inception_4c/output"
  top: "inception_4d/3x3_reduce"
  param {
    lr_mult: 1
    decay_mult: 1
  }
  param {
    lr_mult: 2
    decay_mult: 0
  }
  convolution_param {
    num_output: 144
    kernel_size: 1
    weight_filler {
      type: "xavier"
    }
    bias_filler {
      type: "constant"
      value: 0.2
    }
  }
}
layer {
  name: "inception_4d/relu_3x3_reduce"
  type: "ReLU"
  bottom: "inception_4d/3x3_reduce"
  top: "inception_4d/3x3_reduce"
}
layer {
  name: "inception_4d/3x3"
  type: "Convolution"
  bottom: "inception_4d/3x3_reduce"
  top: "inception_4d/3x3"
  param {
    lr_mult: 1
    decay_mult: 1
  }
  param {
    lr_mult: 2
    decay_mult: 0
  }
  convolution_param {
    num_output: 288
    pad: 1
    kernel_size: 3
    weight_filler {
      type: "xavier"
    }
    bias_filler {
      type: "constant"
      value: 0.2
    }
  }
}
layer {
  name: "inception_4d/relu_3x3"
  type: "ReLU"
  bottom: "inception_4d/3x3"
  top: "inception_4d/3x3"
}
layer {
  name: "inception_4d/5x5_reduce"
  type: "Convolution"
  bottom: "inception_4c/output"
  top: "inception_4d/5x5_reduce"
  param {
    lr_mult: 1
    decay_mult: 1
  }
  param {
    lr_mult: 2
    decay_mult: 0
  }
  convolution_param {
    num_output: 32
    kernel_size: 1
    weight_filler {
      type: "xavier"
    }
    bias_filler {
      type: "constant"
      value: 0.2
    }
  }
}
layer {
  name: "inception_4d/relu_5x5_reduce"
  type: "ReLU"
  bottom: "inception_4d/5x5_reduce"
  top: "inception_4d/5x5_reduce"
}
layer {
  name: "inception_4d/5x5"
  type: "Convolution"
  bottom: "inception_4d/5x5_reduce"
  top: "inception_4d/5x5"
  param {
    lr_mult: 1
    decay_mult: 1
  }
  param {
    lr_mult: 2
    decay_mult: 0
  }
  convolution_param {
    num_output: 64
    pad: 2
    kernel_size: 5
    weight_filler {
      type: "xavier"
    }
    bias_filler {
      type: "constant"
      value: 0.2
    }
  }
}
layer {
  name: "inception_4d/relu_5x5"
  type: "ReLU"
  bottom: "inception_4d/5x5"
  top: "inception_4d/5x5"
}
layer {
  name: "inception_4d/pool"
  type: "Pooling"
  bottom: "inception_4c/output"
  top: "inception_4d/pool"
  pooling_param {
    pool: MAX
    kernel_size: 3
    stride: 1
    pad: 1
  }
}
layer {
  name: "inception_4d/pool_proj"
  type: "Convolution"
  bottom: "inception_4d/pool"
  top: "inception_4d/pool_proj"
  param {
    lr_mult: 1
    decay_mult: 1
  }
  param {
    lr_mult: 2
    decay_mult: 0
  }
  convolution_param {
    num_output: 64
    kernel_size: 1
    weight_filler {
      type: "xavier"
    }
    bias_filler {
      type: "constant"
      value: 0.2
    }
  }
}
layer {
  name: "inception_4d/relu_pool_proj"
  type: "ReLU"
  bottom: "inception_4d/pool_proj"
  top: "inception_4d/pool_proj"
}
layer {
  name: "inception_4d/output"
  type: "Concat"
  bottom: "inception_4d/1x1"
  bottom: "inception_4d/3x3"
  bottom: "inception_4d/5x5"
  bottom: "inception_4d/pool_proj"
  top: "inception_4d/output"
}
layer {
  name: "loss2/ave_pool"
  type: "Pooling"
  bottom: "inception_4d/output"
  top: "loss2/ave_pool"
  pooling_param {
    pool: AVE
    kernel_size: 5
    stride: 3
  }
}
layer {
  name: "loss2/conv"
  type: "Convolution"
  bottom: "loss2/ave_pool"
  top: "loss2/conv"
  convolution_param {
    num_output: 128
    kernel_size: 1
    weight_filler {
      type: "xavier"
    }
    bias_filler {
      type: "constant"
      value: 0.2
    }
  }
}
layer {
  name: "loss2/relu_conv"
  type: "ReLU"
  bottom: "loss2/conv"
  top: "loss2/conv"
}
layer {
  name: "loss2/fc"
  type: "InnerProduct"
  bottom: "loss2/conv"
  top: "loss2/fc"
  inner_product_param {
    num_output: 1024
    weight_filler {
      type: "xavier"
    }
    bias_filler {
      type: "constant"
      value: 0.2
    }
  }
}
layer {
  name: "loss2/relu_fc"
  type: "ReLU"
  bottom: "loss2/fc"
  top: "loss2/fc"
}
layer {
  name: "loss2/drop_fc"
  type: "Dropout"
  bottom: "loss2/fc"
  top: "loss2/fc"
  dropout_param {
    dropout_ratio: 0.7
  }
}
layer {
  name: "cub/loss2/classifier"
  type: "InnerProduct"
  bottom: "loss2/fc"
  top: "loss2/classifier"
  inner_product_param {
    num_output: 200
    weight_filler {
      type: "xavier"
    }
    bias_filler {
      type: "constant"
      value: 0
    }
  }
}
layer {
  name: "loss2/loss"
  type: "SoftmaxWithLoss"
  bottom: "loss2/classifier"
  bottom: "label"
  top: "loss2/loss1"
  loss_weight: 0.3
}
layer {
  name: "inception_4e/1x1"
  type: "Convolution"
  bottom: "inception_4d/output"
  top: "inception_4e/1x1"
  param {
    lr_mult: 1
    decay_mult: 1
  }
  param {
    lr_mult: 2
    decay_mult: 0
  }
  convolution_param {
    num_output: 256
    kernel_size: 1
    weight_filler {
      type: "xavier"
    }
    bias_filler {
      type: "constant"
      value: 0.2
    }
  }
}
layer {
  name: "inception_4e/relu_1x1"
  type: "ReLU"
  bottom: "inception_4e/1x1"
  top: "inception_4e/1x1"
}
layer {
  name: "inception_4e/3x3_reduce"
  type: "Convolution"
  bottom: "inception_4d/output"
  top: "inception_4e/3x3_reduce"
  param {
    lr_mult: 1
    decay_mult: 1
  }
  param {
    lr_mult: 2
    decay_mult: 0
  }
  convolution_param {
    num_output: 160
    kernel_size: 1
    weight_filler {
      type: "xavier"
    }
    bias_filler {
      type: "constant"
      value: 0.2
    }
  }
}
layer {
  name: "inception_4e/relu_3x3_reduce"
  type: "ReLU"
  bottom: "inception_4e/3x3_reduce"
  top: "inception_4e/3x3_reduce"
}
layer {
  name: "inception_4e/3x3"
  type: "Convolution"
  bottom: "inception_4e/3x3_reduce"
  top: "inception_4e/3x3"
  param {
    lr_mult: 1
    decay_mult: 1
  }
  param {
    lr_mult: 2
    decay_mult: 0
  }
  convolution_param {
    num_output: 320
    pad: 1
    kernel_size: 3
    weight_filler {
      type: "xavier"
    }
    bias_filler {
      type: "constant"
      value: 0.2
    }
  }
}
layer {
  name: "inception_4e/relu_3x3"
  type: "ReLU"
  bottom: "inception_4e/3x3"
  top: "inception_4e/3x3"
}
layer {
  name: "inception_4e/5x5_reduce"
  type: "Convolution"
  bottom: "inception_4d/output"
  top: "inception_4e/5x5_reduce"
  param {
    lr_mult: 1
    decay_mult: 1
  }
  param {
    lr_mult: 2
    decay_mult: 0
  }
  convolution_param {
    num_output: 32
    kernel_size: 1
    weight_filler {
      type: "xavier"
    }
    bias_filler {
      type: "constant"
      value: 0.2
    }
  }
}
layer {
  name: "inception_4e/relu_5x5_reduce"
  type: "ReLU"
  bottom: "inception_4e/5x5_reduce"
  top: "inception_4e/5x5_reduce"
}
layer {
  name: "inception_4e/5x5"
  type: "Convolution"
  bottom: "inception_4e/5x5_reduce"
  top: "inception_4e/5x5"
  param {
    lr_mult: 1
    decay_mult: 1
  }
  param {
    lr_mult: 2
    decay_mult: 0
  }
  convolution_param {
    num_output: 128
    pad: 2
    kernel_size: 5
    weight_filler {
      type: "xavier"
    }
    bias_filler {
      type: "constant"
      value: 0.2
    }
  }
}
layer {
  name: "inception_4e/relu_5x5"
  type: "ReLU"
  bottom: "inception_4e/5x5"
  top: "inception_4e/5x5"
}
layer {
  name: "inception_4e/pool"
  type: "Pooling"
  bottom: "inception_4d/output"
  top: "inception_4e/pool"
  pooling_param {
    pool: MAX
    kernel_size: 3
    stride: 1
    pad: 1
  }
}
layer {
  name: "inception_4e/pool_proj"
  type: "Convolution"
  bottom: "inception_4e/pool"
  top: "inception_4e/pool_proj"
  param {
    lr_mult: 1
    decay_mult: 1
  }
  param {
    lr_mult: 2
    decay_mult: 0
  }
  convolution_param {
    num_output: 128
    kernel_size: 1
    weight_filler {
      type: "xavier"
    }
    bias_filler {
      type: "constant"
      value: 0.2
    }
  }
}
layer {
  name: "inception_4e/relu_pool_proj"
  type: "ReLU"
  bottom: "inception_4e/pool_proj
I0902 14:26:38.985280 52488 layer_factory.hpp:76] Creating layer data
I0902 14:26:38.985342 52488 net.cpp:110] Creating Layer data
I0902 14:26:38.985357 52488 net.cpp:433] data -> data
I0902 14:26:38.985402 52488 net.cpp:433] data -> label
I0902 14:26:38.985975 52488 image_data_layer.cpp:36] Opening file data/CUB_200_2011/train_files.txt
I0902 14:26:38.990226 52488 image_data_layer.cpp:46] Shuffling data
I0902 14:26:38.990780 52488 image_data_layer.cpp:51] A total of 5994 images.
I0902 14:26:39.000103 52488 image_data_layer.cpp:78] output data size: 32,3,224,224
I0902 14:26:39.357692 52488 net.cpp:155] Setting up data
I0902 14:26:39.357779 52488 net.cpp:163] Top shape: 32 3 224 224 (4816896)
I0902 14:26:39.357795 52488 net.cpp:163] Top shape: 32 (32)
I0902 14:26:39.357826 52488 layer_factory.hpp:76] Creating layer label_data_1_split
I0902 14:26:39.357864 52488 net.cpp:110] Creating Layer label_data_1_split
I0902 14:26:39.357880 52488 net.cpp:477] label_data_1_split <- label
I0902 14:26:39.357910 52488 net.cpp:433] label_data_1_split -> label_data_1_split_0
I0902 14:26:39.357936 52488 net.cpp:433] label_data_1_split -> label_data_1_split_1
I0902 14:26:39.357952 52488 net.cpp:433] label_data_1_split -> label_data_1_split_2
I0902 14:26:39.357969 52488 net.cpp:433] label_data_1_split -> label_data_1_split_3
I0902 14:26:39.358003 52488 net.cpp:433] label_data_1_split -> label_data_1_split_4
I0902 14:26:39.358036 52488 net.cpp:155] Setting up label_data_1_split
I0902 14:26:39.358057 52488 net.cpp:163] Top shape: 32 (32)
I0902 14:26:39.358068 52488 net.cpp:163] Top shape: 32 (32)
I0902 14:26:39.358122 52488 net.cpp:163] Top shape: 32 (32)
I0902 14:26:39.358134 52488 net.cpp:163] Top shape: 32 (32)
I0902 14:26:39.358144 52488 net.cpp:163] Top shape: 32 (32)
I0902 14:26:39.358153 52488 layer_factory.hpp:76] Creating layer conv1/7x7_s2
I0902 14:26:39.358183 52488 net.cpp:110] Creating Layer conv1/7x7_s2
I0902 14:26:39.358193 52488 net.cpp:477] conv1/7x7_s2 <- data
I0902 14:26:39.358211 52488 net.cpp:433] conv1/7x7_s2 -> conv1/7x7_s2
I0902 14:26:39.994920 52488 net.cpp:155] Setting up conv1/7x7_s2
I0902 14:26:39.995003 52488 net.cpp:163] Top shape: 32 64 112 112 (25690112)
I0902 14:26:39.995048 52488 layer_factory.hpp:76] Creating layer conv1/relu_7x7
I0902 14:26:39.995129 52488 net.cpp:110] Creating Layer conv1/relu_7x7
I0902 14:26:39.995142 52488 net.cpp:477] conv1/relu_7x7 <- conv1/7x7_s2
I0902 14:26:39.995156 52488 net.cpp:419] conv1/relu_7x7 -> conv1/7x7_s2 (in-place)
I0902 14:26:39.996829 52488 net.cpp:155] Setting up conv1/relu_7x7
I0902 14:26:39.996847 52488 net.cpp:163] Top shape: 32 64 112 112 (25690112)
I0902 14:26:39.996856 52488 layer_factory.hpp:76] Creating layer pool1/3x3_s2
I0902 14:26:39.996886 52488 net.cpp:110] Creating Layer pool1/3x3_s2
I0902 14:26:39.996892 52488 net.cpp:477] pool1/3x3_s2 <- conv1/7x7_s2
I0902 14:26:39.996901 52488 net.cpp:433] pool1/3x3_s2 -> pool1/3x3_s2
I0902 14:26:40.020764 52488 net.cpp:155] Setting up pool1/3x3_s2
I0902 14:26:40.020786 52488 net.cpp:163] Top shape: 32 64 56 56 (6422528)
I0902 14:26:40.020794 52488 layer_factory.hpp:76] Creating layer pool1/norm1
I0902 14:26:40.020809 52488 net.cpp:110] Creating Layer pool1/norm1
I0902 14:26:40.020815 52488 net.cpp:477] pool1/norm1 <- pool1/3x3_s2
I0902 14:26:40.020825 52488 net.cpp:433] pool1/norm1 -> pool1/norm1
I0902 14:26:40.020843 52488 net.cpp:155] Setting up pool1/norm1
I0902 14:26:40.020849 52488 net.cpp:163] Top shape: 32 64 56 56 (6422528)
I0902 14:26:40.020856 52488 layer_factory.hpp:76] Creating layer conv2/3x3_reduce
I0902 14:26:40.020877 52488 net.cpp:110] Creating Layer conv2/3x3_reduce
I0902 14:26:40.020884 52488 net.cpp:477] conv2/3x3_reduce <- pool1/norm1
I0902 14:26:40.020891 52488 net.cpp:433] conv2/3x3_reduce -> conv2/3x3_reduce
I0902 14:26:40.045925 52488 net.cpp:155] Setting up conv2/3x3_reduce
I0902 14:26:40.045944 52488 net.cpp:163] Top shape: 32 64 56 56 (6422528)
I0902 14:26:40.045959 52488 layer_factory.hpp:76] Creating layer conv2/relu_3x3_reduce
I0902 14:26:40.045969 52488 net.cpp:110] Creating Layer conv2/relu_3x3_reduce
I0902 14:26:40.045975 52488 net.cpp:477] conv2/relu_3x3_reduce <- conv2/3x3_reduce
I0902 14:26:40.045984 52488 net.cpp:419] conv2/relu_3x3_reduce -> conv2/3x3_reduce (in-place)
I0902 14:26:40.048012 52488 net.cpp:155] Setting up conv2/relu_3x3_reduce
I0902 14:26:40.048029 52488 net.cpp:163] Top shape: 32 64 56 56 (6422528)
I0902 14:26:40.048038 52488 layer_factory.hpp:76] Creating layer conv2/3x3
I0902 14:26:40.048053 52488 net.cpp:110] Creating Layer conv2/3x3
I0902 14:26:40.048058 52488 net.cpp:477] conv2/3x3 <- conv2/3x3_reduce
I0902 14:26:40.048069 52488 net.cpp:433] conv2/3x3 -> conv2/3x3
I0902 14:26:40.100561 52488 net.cpp:155] Setting up conv2/3x3
I0902 14:26:40.100585 52488 net.cpp:163] Top shape: 32 192 56 56 (19267584)
I0902 14:26:40.100603 52488 layer_factory.hpp:76] Creating layer conv2/relu_3x3
I0902 14:26:40.100617 52488 net.cpp:110] Creating Layer conv2/relu_3x3
I0902 14:26:40.100623 52488 net.cpp:477] conv2/relu_3x3 <- conv2/3x3
I0902 14:26:40.100631 52488 net.cpp:419] conv2/relu_3x3 -> conv2/3x3 (in-place)
I0902 14:26:40.101475 52488 net.cpp:155] Setting up conv2/relu_3x3
I0902 14:26:40.101493 52488 net.cpp:163] Top shape: 32 192 56 56 (19267584)
I0902 14:26:40.101500 52488 layer_factory.hpp:76] Creating layer conv2/norm2
I0902 14:26:40.101513 52488 net.cpp:110] Creating Layer conv2/norm2
I0902 14:26:40.101521 52488 net.cpp:477] conv2/norm2 <- conv2/3x3
I0902 14:26:40.101531 52488 net.cpp:433] conv2/norm2 -> conv2/norm2
I0902 14:26:40.101542 52488 net.cpp:155] Setting up conv2/norm2
I0902 14:26:40.101548 52488 net.cpp:163] Top shape: 32 192 56 56 (19267584)
I0902 14:26:40.101575 52488 layer_factory.hpp:76] Creating layer pool2/3x3_s2
I0902 14:26:40.101584 52488 net.cpp:110] Creating Layer pool2/3x3_s2
I0902 14:26:40.101589 52488 net.cpp:477] pool2/3x3_s2 <- conv2/norm2
I0902 14:26:40.101600 52488 net.cpp:433] pool2/3x3_s2 -> pool2/3x3_s2
I0902 14:26:40.102610 52488 net.cpp:155] Setting up pool2/3x3_s2
I0902 14:26:40.102628 52488 net.cpp:163] Top shape: 32 192 28 28 (4816896)
I0902 14:26:40.102635 52488 layer_factory.hpp:76] Creating layer pool2/3x3_s2_pool2/3x3_s2_0_split
I0902 14:26:40.102644 52488 net.cpp:110] Creating Layer pool2/3x3_s2_pool2/3x3_s2_0_split
I0902 14:26:40.102650 52488 net.cpp:477] pool2/3x3_s2_pool2/3x3_s2_0_split <- pool2/3x3_s2
I0902 14:26:40.102658 52488 net.cpp:433] pool2/3x3_s2_pool2/3x3_s2_0_split -> pool2/3x3_s2_pool2/3x3_s2_0_split_0
I0902 14:26:40.102669 52488 net.cpp:433] pool2/3x3_s2_pool2/3x3_s2_0_split -> pool2/3x3_s2_pool2/3x3_s2_0_split_1
I0902 14:26:40.102679 52488 net.cpp:433] pool2/3x3_s2_pool2/3x3_s2_0_split -> pool2/3x3_s2_pool2/3x3_s2_0_split_2
I0902 14:26:40.102689 52488 net.cpp:433] pool2/3x3_s2_pool2/3x3_s2_0_split -> pool2/3x3_s2_pool2/3x3_s2_0_split_3
I0902 14:26:40.102699 52488 net.cpp:155] Setting up pool2/3x3_s2_pool2/3x3_s2_0_split
I0902 14:26:40.102705 52488 net.cpp:163] Top shape: 32 192 28 28 (4816896)
I0902 14:26:40.102710 52488 net.cpp:163] Top shape: 32 192 28 28 (4816896)
I0902 14:26:40.102718 52488 net.cpp:163] Top shape: 32 192 28 28 (4816896)
I0902 14:26:40.102725 52488 net.cpp:163] Top shape: 32 192 28 28 (4816896)
I0902 14:26:40.102730 52488 layer_factory.hpp:76] Creating layer inception_3a/1x1
I0902 14:26:40.102741 52488 net.cpp:110] Creating Layer inception_3a/1x1
I0902 14:26:40.102746 52488 net.cpp:477] inception_3a/1x1 <- pool2/3x3_s2_pool2/3x3_s2_0_split_0
I0902 14:26:40.102757 52488 net.cpp:433] inception_3a/1x1 -> inception_3a/1x1
I0902 14:26:40.128620 52488 net.cpp:155] Setting up inception_3a/1x1
I0902 14:26:40.128640 52488 net.cpp:163] Top shape: 32 64 28 28 (1605632)
I0902 14:26:40.128651 52488 layer_factory.hpp:76] Creating layer inception_3a/relu_1x1
I0902 14:26:40.128664 52488 net.cpp:110] Creating Layer inception_3a/relu_1x1
I0902 14:26:40.128671 52488 net.cpp:477] inception_3a/relu_1x1 <- inception_3a/1x1
I0902 14:26:40.128679 52488 net.cpp:419] inception_3a/relu_1x1 -> inception_3a/1x1 (in-place)
I0902 14:26:40.129524 52488 net.cpp:155] Setting up inception_3a/relu_1x1
I0902 14:26:40.129541 52488 net.cpp:163] Top shape: 32 64 28 28 (1605632)
I0902 14:26:40.129549 52488 layer_factory.hpp:76] Creating layer inception_3a/3x3_reduce
I0902 14:26:40.129559 52488 net.cpp:110] Creating Layer inception_3a/3x3_reduce
I0902 14:26:40.129565 52488 net.cpp:477] inception_3a/3x3_reduce <- pool2/3x3_s2_pool2/3x3_s2_0_split_1
I0902 14:26:40.129578 52488 net.cpp:433] inception_3a/3x3_reduce -> inception_3a/3x3_reduce
I0902 14:26:40.132954 52488 net.cpp:155] Setting up inception_3a/3x3_reduce
I0902 14:26:40.132973 52488 net.cpp:163] Top shape: 32 96 28 28 (2408448)
I0902 14:26:40.132988 52488 layer_factory.hpp:76] Creating layer inception_3a/relu_3x3_reduce
I0902 14:26:40.133002 52488 net.cpp:110] Creating Layer inception_3a/relu_3x3_reduce
I0902 14:26:40.133008 52488 net.cpp:477] inception_3a/relu_3x3_reduce <- inception_3a/3x3_reduce
I0902 14:26:40.133014 52488 net.cpp:419] inception_3a/relu_3x3_reduce -> inception_3a/3x3_reduce (in-place)
I0902 14:26:40.133978 52488 net.cpp:155] Setting up inception_3a/relu_3x3_reduce
I0902 14:26:40.133999 52488 net.cpp:163] Top shape: 32 96 28 28 (2408448)
I0902 14:26:40.134006 52488 layer_factory.hpp:76] Creating layer inception_3a/3x3
I0902 14:26:40.134016 52488 net.cpp:110] Creating Layer inception_3a/3x3
I0902 14:26:40.134021 52488 net.cpp:477] inception_3a/3x3 <- inception_3a/3x3_reduce
I0902 14:26:40.134034 52488 net.cpp:433] inception_3a/3x3 -> inception_3a/3x3
I0902 14:26:40.137581 52488 net.cpp:155] Setting up inception_3a/3x3
I0902 14:26:40.137599 52488 net.cpp:163] Top shape: 32 128 28 28 (3211264)
I0902 14:26:40.137611 52488 layer_factory.hpp:76] Creating layer inception_3a/relu_3x3
I0902 14:26:40.137636 52488 net.cpp:110] Creating Layer inception_3a/relu_3x3
I0902 14:26:40.137644 52488 net.cpp:477] inception_3a/relu_3x3 <- inception_3a/3x3
I0902 14:26:40.137653 52488 net.cpp:419] inception_3a/relu_3x3 -> inception_3a/3x3 (in-place)
I0902 14:26:40.138547 52488 net.cpp:155] Setting up inception_3a/relu_3x3
I0902 14:26:40.138566 52488 net.cpp:163] Top shape: 32 128 28 28 (3211264)
I0902 14:26:40.138572 52488 layer_factory.hpp:76] Creating layer inception_3a/5x5_reduce
I0902 14:26:40.138586 52488 net.cpp:110] Creating Layer inception_3a/5x5_reduce
I0902 14:26:40.138592 52488 net.cpp:477] inception_3a/5x5_reduce <- pool2/3x3_s2_pool2/3x3_s2_0_split_2
I0902 14:26:40.138602 52488 net.cpp:433] inception_3a/5x5_reduce -> inception_3a/5x5_reduce
I0902 14:26:40.141366 52488 net.cpp:155] Setting up inception_3a/5x5_reduce
I0902 14:26:40.141384 52488 net.cpp:163] Top shape: 32 16 28 28 (401408)
I0902 14:26:40.141396 52488 layer_factory.hpp:76] Creating layer inception_3a/relu_5x5_reduce
I0902 14:26:40.141407 52488 net.cpp:110] Creating Layer inception_3a/relu_5x5_reduce
I0902 14:26:40.141412 52488 net.cpp:477] inception_3a/relu_5x5_reduce <- inception_3a/5x5_reduce
I0902 14:26:40.141419 52488 net.cpp:419] inception_3a/relu_5x5_reduce -> inception_3a/5x5_reduce (in-place)
I0902 14:26:40.142721 52488 net.cpp:155] Setting up inception_3a/relu_5x5_reduce
I0902 14:26:40.142740 52488 net.cpp:163] Top shape: 32 16 28 28 (401408)
I0902 14:26:40.142747 52488 layer_factory.hpp:76] Creating layer inception_3a/5x5
I0902 14:26:40.142761 52488 net.cpp:110] Creating Layer inception_3a/5x5
I0902 14:26:40.142767 52488 net.cpp:477] inception_3a/5x5 <- inception_3a/5x5_reduce
I0902 14:26:40.142778 52488 net.cpp:433] inception_3a/5x5 -> inception_3a/5x5
I0902 14:26:40.149960 52488 net.cpp:155] Setting up inception_3a/5x5
I0902 14:26:40.149978 52488 net.cpp:163] Top shape: 32 32 28 28 (802816)
I0902 14:26:40.149988 52488 layer_factory.hpp:76] Creating layer inception_3a/relu_5x5
I0902 14:26:40.149999 52488 net.cpp:110] Creating Layer inception_3a/relu_5x5
I0902 14:26:40.150005 52488 net.cpp:477] inception_3a/relu_5x5 <- inception_3a/5x5
I0902 14:26:40.150017 52488 net.cpp:419] inception_3a/relu_5x5 -> inception_3a/5x5 (in-place)
I0902 14:26:40.153260 52488 net.cpp:155] Setting up inception_3a/relu_5x5
I0902 14:26:40.153280 52488 net.cpp:163] Top shape: 32 32 28 28 (802816)
I0902 14:26:40.153286 52488 layer_factory.hpp:76] Creating layer inception_3a/pool
I0902 14:26:40.153292 52488 layer_factory.cpp:60] CUDNN does not support padding or multiple tops. Using Caffe's own pooling layer.
I0902 14:26:40.153301 52488 net.cpp:110] Creating Layer inception_3a/pool
I0902 14:26:40.153307 52488 net.cpp:477] inception_3a/pool <- pool2/3x3_s2_pool2/3x3_s2_0_split_3
I0902 14:26:40.153316 52488 net.cpp:433] inception_3a/pool -> inception_3a/pool
I0902 14:26:40.153327 52488 net.cpp:155] Setting up inception_3a/pool
I0902 14:26:40.153334 52488 net.cpp:163] Top shape: 32 192 28 28 (4816896)
I0902 14:26:40.153339 52488 layer_factory.hpp:76] Creating layer inception_3a/pool_proj
I0902 14:26:40.153352 52488 net.cpp:110] Creating Layer inception_3a/pool_proj
I0902 14:26:40.153357 52488 net.cpp:477] inception_3a/pool_proj <- inception_3a/pool
I0902 14:26:40.153367 52488 net.cpp:433] inception_3a/pool_proj -> inception_3a/pool_proj
I0902 14:26:40.162106 52488 net.cpp:155] Setting up inception_3a/pool_proj
I0902 14:26:40.162124 52488 net.cpp:163] Top shape: 32 32 28 28 (802816)
I0902 14:26:40.162139 52488 layer_factory.hpp:76] Creating layer inception_3a/relu_pool_proj
I0902 14:26:40.162152 52488 net.cpp:110] Creating Layer inception_3a/relu_pool_proj
I0902 14:26:40.162158 52488 net.cpp:477] inception_3a/relu_pool_proj <- inception_3a/pool_proj
I0902 14:26:40.162165 52488 net.cpp:419] inception_3a/relu_pool_proj -> inception_3a/pool_proj (in-place)
I0902 14:26:40.166952 52488 net.cpp:155] Setting up inception_3a/relu_pool_proj
I0902 14:26:40.166973 52488 net.cpp:163] Top shape: 32 32 28 28 (802816)
I0902 14:26:40.166982 52488 layer_factory.hpp:76] Creating layer inception_3a/output
I0902 14:26:40.167009 52488 net.cpp:110] Creating Layer inception_3a/output
I0902 14:26:40.167016 52488 net.cpp:477] inception_3a/output <- inception_3a/1x1
I0902 14:26:40.167022 52488 net.cpp:477] inception_3a/output <- inception_3a/3x3
I0902 14:26:40.167028 52488 net.cpp:477] inception_3a/output <- inception_3a/5x5
I0902 14:26:40.167034 52488 net.cpp:477] inception_3a/output <- inception_3a/pool_proj
I0902 14:26:40.167043 52488 net.cpp:433] inception_3a/output -> inception_3a/output
I0902 14:26:40.167059 52488 net.cpp:155] Setting up inception_3a/output
I0902 14:26:40.167068 52488 net.cpp:163] Top shape: 32 256 28 28 (6422528)
I0902 14:26:40.167073 52488 layer_factory.hpp:76] Creating layer inception_3a/output_inception_3a/output_0_split
I0902 14:26:40.167080 52488 net.cpp:110] Creating Layer inception_3a/output_inception_3a/output_0_split
I0902 14:26:40.167084 52488 net.cpp:477] inception_3a/output_inception_3a/output_0_split <- inception_3a/output
I0902 14:26:40.167093 52488 net.cpp:433] inception_3a/output_inception_3a/output_0_split -> inception_3a/output_inception_3a/output_0_split_0
I0902 14:26:40.167100 52488 net.cpp:433] inception_3a/output_inception_3a/output_0_split -> inception_3a/output_inception_3a/output_0_split_1
I0902 14:26:40.167109 52488 net.cpp:433] inception_3a/output_inception_3a/output_0_split -> inception_3a/output_inception_3a/output_0_split_2
I0902 14:26:40.167119 52488 net.cpp:433] inception_3a/output_inception_3a/output_0_split -> inception_3a/output_inception_3a/output_0_split_3
I0902 14:26:40.167127 52488 net.cpp:155] Setting up inception_3a/output_inception_3a/output_0_split
I0902 14:26:40.167134 52488 net.cpp:163] Top shape: 32 256 28 28 (6422528)
I0902 14:26:40.167140 52488 net.cpp:163] Top shape: 32 256 28 28 (6422528)
I0902 14:26:40.167145 52488 net.cpp:163] Top shape: 32 256 28 28 (6422528)
I0902 14:26:40.167150 52488 net.cpp:163] Top shape: 32 256 28 28 (6422528)
I0902 14:26:40.167155 52488 layer_factory.hpp:76] Creating layer inception_3b/1x1
I0902 14:26:40.167170 52488 net.cpp:110] Creating Layer inception_3b/1x1
I0902 14:26:40.167174 52488 net.cpp:477] inception_3b/1x1 <- inception_3a/output_inception_3a/output_0_split_0
I0902 14:26:40.167182 52488 net.cpp:433] inception_3b/1x1 -> inception_3b/1x1
I0902 14:26:40.184308 52488 net.cpp:155] Setting up inception_3b/1x1
I0902 14:26:40.184326 52488 net.cpp:163] Top shape: 32 128 28 28 (3211264)
I0902 14:26:40.184337 52488 layer_factory.hpp:76] Creating layer inception_3b/relu_1x1
I0902 14:26:40.184346 52488 net.cpp:110] Creating Layer inception_3b/relu_1x1
I0902 14:26:40.184355 52488 net.cpp:477] inception_3b/relu_1x1 <- inception_3b/1x1
I0902 14:26:40.184362 52488 net.cpp:419] inception_3b/relu_1x1 -> inception_3b/1x1 (in-place)
I0902 14:26:40.190714 52488 net.cpp:155] Setting up inception_3b/relu_1x1
I0902 14:26:40.190732 52488 net.cpp:163] Top shape: 32 128 28 28 (3211264)
I0902 14:26:40.190740 52488 layer_factory.hpp:76] Creating layer inception_3b/3x3_reduce
I0902 14:26:40.190753 52488 net.cpp:110] Creating Layer inception_3b/3x3_reduce
I0902 14:26:40.190759 52488 net.cpp:477] inception_3b/3x3_reduce <- inception_3a/output_inception_3a/output_0_split_1
I0902 14:26:40.190771 52488 net.cpp:433] inception_3b/3x3_reduce -> inception_3b/3x3_reduce
I0902 14:26:40.198632 52488 net.cpp:155] Setting up inception_3b/3x3_reduce
I0902 14:26:40.198650 52488 net.cpp:163] Top shape: 32 128 28 28 (3211264)
I0902 14:26:40.198662 52488 layer_factory.hpp:76] Creating layer inception_3b/relu_3x3_reduce
I0902 14:26:40.198673 52488 net.cpp:110] Creating Layer inception_3b/relu_3x3_reduce
I0902 14:26:40.198678 52488 net.cpp:477] inception_3b/relu_3x3_reduce <- inception_3b/3x3_reduce
I0902 14:26:40.198689 52488 net.cpp:419] inception_3b/relu_3x3_reduce -> inception_3b/3x3_reduce (in-place)
I0902 14:26:40.200346 52488 net.cpp:155] Setting up inception_3b/relu_3x3_reduce
I0902 14:26:40.200364 52488 net.cpp:163] Top shape: 32 128 28 28 (3211264)
I0902 14:26:40.200371 52488 layer_factory.hpp:76] Creating layer inception_3b/3x3
I0902 14:26:40.200405 52488 net.cpp:110] Creating Layer inception_3b/3x3
I0902 14:26:40.200412 52488 net.cpp:477] inception_3b/3x3 <- inception_3b/3x3_reduce
I0902 14:26:40.200420 52488 net.cpp:433] inception_3b/3x3 -> inception_3b/3x3
I0902 14:26:40.249274 52488 net.cpp:155] Setting up inception_3b/3x3
I0902 14:26:40.249295 52488 net.cpp:163] Top shape: 32 192 28 28 (4816896)
I0902 14:26:40.249305 52488 layer_factory.hpp:76] Creating layer inception_3b/relu_3x3
I0902 14:26:40.249315 52488 net.cpp:110] Creating Layer inception_3b/relu_3x3
I0902 14:26:40.249320 52488 net.cpp:477] inception_3b/relu_3x3 <- inception_3b/3x3
I0902 14:26:40.249330 52488 net.cpp:419] inception_3b/relu_3x3 -> inception_3b/3x3 (in-place)
I0902 14:26:40.250502 52488 net.cpp:155] Setting up inception_3b/relu_3x3
I0902 14:26:40.250521 52488 net.cpp:163] Top shape: 32 192 28 28 (4816896)
I0902 14:26:40.250530 52488 layer_factory.hpp:76] Creating layer inception_3b/5x5_reduce
I0902 14:26:40.250541 52488 net.cpp:110] Creating Layer inception_3b/5x5_reduce
I0902 14:26:40.250548 52488 net.cpp:477] inception_3b/5x5_reduce <- inception_3a/output_inception_3a/output_0_split_2
I0902 14:26:40.250560 52488 net.cpp:433] inception_3b/5x5_reduce -> inception_3b/5x5_reduce
I0902 14:26:40.256395 52488 net.cpp:155] Setting up inception_3b/5x5_reduce
I0902 14:26:40.256414 52488 net.cpp:163] Top shape: 32 32 28 28 (802816)
I0902 14:26:40.256424 52488 layer_factory.hpp:76] Creating layer inception_3b/relu_5x5_reduce
I0902 14:26:40.256435 52488 net.cpp:110] Creating Layer inception_3b/relu_5x5_reduce
I0902 14:26:40.256441 52488 net.cpp:477] inception_3b/relu_5x5_reduce <- inception_3b/5x5_reduce
I0902 14:26:40.256449 52488 net.cpp:419] inception_3b/relu_5x5_reduce -> inception_3b/5x5_reduce (in-place)
I0902 14:26:40.282832 52488 net.cpp:155] Setting up inception_3b/relu_5x5_reduce
I0902 14:26:40.282850 52488 net.cpp:163] Top shape: 32 32 28 28 (802816)
I0902 14:26:40.282857 52488 layer_factory.hpp:76] Creating layer inception_3b/5x5
I0902 14:26:40.282872 52488 net.cpp:110] Creating Layer inception_3b/5x5
I0902 14:26:40.282878 52488 net.cpp:477] inception_3b/5x5 <- inception_3b/5x5_reduce
I0902 14:26:40.282889 52488 net.cpp:433] inception_3b/5x5 -> inception_3b/5x5
I0902 14:26:40.287032 52488 net.cpp:155] Setting up inception_3b/5x5
I0902 14:26:40.287051 52488 net.cpp:163] Top shape: 32 96 28 28 (2408448)
I0902 14:26:40.287062 52488 layer_factory.hpp:76] Creating layer inception_3b/relu_5x5
I0902 14:26:40.287075 52488 net.cpp:110] Creating Layer inception_3b/relu_5x5
I0902 14:26:40.287081 52488 net.cpp:477] inception_3b/relu_5x5 <- inception_3b/5x5
I0902 14:26:40.287088 52488 net.cpp:419] inception_3b/relu_5x5 -> inception_3b/5x5 (in-place)
I0902 14:26:40.287966 52488 net.cpp:155] Setting up inception_3b/relu_5x5
I0902 14:26:40.287982 52488 net.cpp:163] Top shape: 32 96 28 28 (2408448)
I0902 14:26:40.287988 52488 layer_factory.hpp:76] Creating layer inception_3b/pool
I0902 14:26:40.287997 52488 layer_factory.cpp:60] CUDNN does not support padding or multiple tops. Using Caffe's own pooling layer.
I0902 14:26:40.288004 52488 net.cpp:110] Creating Layer inception_3b/pool
I0902 14:26:40.288010 52488 net.cpp:477] inception_3b/pool <- inception_3a/output_inception_3a/output_0_split_3
I0902 14:26:40.288022 52488 net.cpp:433] inception_3b/pool -> inception_3b/pool
I0902 14:26:40.288033 52488 net.cpp:155] Setting up inception_3b/pool
I0902 14:26:40.288040 52488 net.cpp:163] Top shape: 32 256 28 28 (6422528)
I0902 14:26:40.288045 52488 layer_factory.hpp:76] Creating layer inception_3b/pool_proj
I0902 14:26:40.288056 52488 net.cpp:110] Creating Layer inception_3b/pool_proj
I0902 14:26:40.288063 52488 net.cpp:477] inception_3b/pool_proj <- inception_3b/pool
I0902 14:26:40.288069 52488 net.cpp:433] inception_3b/pool_proj -> inception_3b/pool_proj
I0902 14:26:40.291097 52488 net.cpp:155] Setting up inception_3b/pool_proj
I0902 14:26:40.291116 52488 net.cpp:163] Top shape: 32 64 28 28 (1605632)
I0902 14:26:40.291126 52488 layer_factory.hpp:76] Creating layer inception_3b/relu_pool_proj
I0902 14:26:40.291152 52488 net.cpp:110] Creating Layer inception_3b/relu_pool_proj
I0902 14:26:40.291159 52488 net.cpp:477] inception_3b/relu_pool_proj <- inception_3b/pool_proj
I0902 14:26:40.291167 52488 net.cpp:419] inception_3b/relu_pool_proj -> inception_3b/pool_proj (in-place)
I0902 14:26:40.292116 52488 net.cpp:155] Setting up inception_3b/relu_pool_proj
I0902 14:26:40.292135 52488 net.cpp:163] Top shape: 32 64 28 28 (1605632)
I0902 14:26:40.292142 52488 layer_factory.hpp:76] Creating layer inception_3b/output
I0902 14:26:40.292151 52488 net.cpp:110] Creating Layer inception_3b/output
I0902 14:26:40.292157 52488 net.cpp:477] inception_3b/output <- inception_3b/1x1
I0902 14:26:40.292165 52488 net.cpp:477] inception_3b/output <- inception_3b/3x3
I0902 14:26:40.292171 52488 net.cpp:477] inception_3b/output <- inception_3b/5x5
I0902 14:26:40.292176 52488 net.cpp:477] inception_3b/output <- inception_3b/pool_proj
I0902 14:26:40.292186 52488 net.cpp:433] inception_3b/output -> inception_3b/output
I0902 14:26:40.292197 52488 net.cpp:155] Setting up inception_3b/output
I0902 14:26:40.292204 52488 net.cpp:163] Top shape: 32 480 28 28 (12042240)
I0902 14:26:40.292209 52488 layer_factory.hpp:76] Creating layer pool3/3x3_s2
I0902 14:26:40.292217 52488 net.cpp:110] Creating Layer pool3/3x3_s2
I0902 14:26:40.292222 52488 net.cpp:477] pool3/3x3_s2 <- inception_3b/output
I0902 14:26:40.292228 52488 net.cpp:433] pool3/3x3_s2 -> pool3/3x3_s2
I0902 14:26:40.293345 52488 net.cpp:155] Setting up pool3/3x3_s2
I0902 14:26:40.293364 52488 net.cpp:163] Top shape: 32 480 14 14 (3010560)
I0902 14:26:40.293371 52488 layer_factory.hpp:76] Creating layer pool3/3x3_s2_pool3/3x3_s2_0_split
I0902 14:26:40.293385 52488 net.cpp:110] Creating Layer pool3/3x3_s2_pool3/3x3_s2_0_split
I0902 14:26:40.293390 52488 net.cpp:477] pool3/3x3_s2_pool3/3x3_s2_0_split <- pool3/3x3_s2
I0902 14:26:40.293401 52488 net.cpp:433] pool3/3x3_s2_pool3/3x3_s2_0_split -> pool3/3x3_s2_pool3/3x3_s2_0_split_0
I0902 14:26:40.293409 52488 net.cpp:433] pool3/3x3_s2_pool3/3x3_s2_0_split -> pool3/3x3_s2_pool3/3x3_s2_0_split_1
I0902 14:26:40.293421 52488 net.cpp:433] pool3/3x3_s2_pool3/3x3_s2_0_split -> pool3/3x3_s2_pool3/3x3_s2_0_split_2
I0902 14:26:40.293428 52488 net.cpp:433] pool3/3x3_s2_pool3/3x3_s2_0_split -> pool3/3x3_s2_pool3/3x3_s2_0_split_3
I0902 14:26:40.293437 52488 net.cpp:155] Setting up pool3/3x3_s2_pool3/3x3_s2_0_split
I0902 14:26:40.293443 52488 net.cpp:163] Top shape: 32 480 14 14 (3010560)
I0902 14:26:40.293449 52488 net.cpp:163] Top shape: 32 480 14 14 (3010560)
I0902 14:26:40.293454 52488 net.cpp:163] Top shape: 32 480 14 14 (3010560)
I0902 14:26:40.293460 52488 net.cpp:163] Top shape: 32 480 14 14 (3010560)
I0902 14:26:40.293464 52488 layer_factory.hpp:76] Creating layer inception_4a/1x1
I0902 14:26:40.293478 52488 net.cpp:110] Creating Layer inception_4a/1x1
I0902 14:26:40.293483 52488 net.cpp:477] inception_4a/1x1 <- pool3/3x3_s2_pool3/3x3_s2_0_split_0
I0902 14:26:40.293491 52488 net.cpp:433] inception_4a/1x1 -> inception_4a/1x1
I0902 14:26:40.297238 52488 net.cpp:155] Setting up inception_4a/1x1
I0902 14:26:40.297257 52488 net.cpp:163] Top shape: 32 192 14 14 (1204224)
I0902 14:26:40.297268 52488 layer_factory.hpp:76] Creating layer inception_4a/relu_1x1
I0902 14:26:40.297279 52488 net.cpp:110] Creating Layer inception_4a/relu_1x1
I0902 14:26:40.297286 52488 net.cpp:477] inception_4a/relu_1x1 <- inception_4a/1x1
I0902 14:26:40.297296 52488 net.cpp:419] inception_4a/relu_1x1 -> inception_4a/1x1 (in-place)
I0902 14:26:40.298223 52488 net.cpp:155] Setting up inception_4a/relu_1x1
I0902 14:26:40.298240 52488 net.cpp:163] Top shape: 32 192 14 14 (1204224)
I0902 14:26:40.298248 52488 layer_factory.hpp:76] Creating layer inception_4a/3x3_reduce
I0902 14:26:40.298262 52488 net.cpp:110] Creating Layer inception_4a/3x3_reduce
I0902 14:26:40.298269 52488 net.cpp:477] inception_4a/3x3_reduce <- pool3/3x3_s2_pool3/3x3_s2_0_split_1
I0902 14:26:40.298280 52488 net.cpp:433] inception_4a/3x3_reduce -> inception_4a/3x3_reduce
I0902 14:26:40.301556 52488 net.cpp:155] Setting up inception_4a/3x3_reduce
I0902 14:26:40.301592 52488 net.cpp:163] Top shape: 32 96 14 14 (602112)
I0902 14:26:40.301612 52488 layer_factory.hpp:76] Creating layer inception_4a/relu_3x3_reduce
I0902 14:26:40.301623 52488 net.cpp:110] Creating Layer inception_4a/relu_3x3_reduce
I0902 14:26:40.301630 52488 net.cpp:477] inception_4a/relu_3x3_reduce <- inception_4a/3x3_reduce
I0902 14:26:40.301637 52488 net.cpp:419] inception_4a/relu_3x3_reduce -> inception_4a/3x3_reduce (in-place)
I0902 14:26:40.302665 52488 net.cpp:155] Setting up inception_4a/relu_3x3_reduce
I0902 14:26:40.302685 52488 net.cpp:163] Top shape: 32 96 14 14 (602112)
I0902 14:26:40.302691 52488 layer_factory.hpp:76] Creating layer inception_4a/3x3
I0902 14:26:40.302703 52488 net.cpp:110] Creating Layer inception_4a/3x3
I0902 14:26:40.302709 52488 net.cpp:477] inception_4a/3x3 <- inception_4a/3x3_reduce
I0902 14:26:40.302718 52488 net.cpp:433] inception_4a/3x3 -> inception_4a/3x3
I0902 14:26:40.307690 52488 net.cpp:155] Setting up inception_4a/3x3
I0902 14:26:40.307710 52488 net.cpp:163] Top shape: 32 208 14 14 (1304576)
I0902 14:26:40.307720 52488 layer_factory.hpp:76] Creating layer inception_4a/relu_3x3
I0902 14:26:40.307729 52488 net.cpp:110] Creating Layer inception_4a/relu_3x3
I0902 14:26:40.307735 52488 net.cpp:477] inception_4a/relu_3x3 <- inception_4a/3x3
I0902 14:26:40.307744 52488 net.cpp:419] inception_4a/relu_3x3 -> inception_4a/3x3 (in-place)
I0902 14:26:40.308658 52488 net.cpp:155] Setting up inception_4a/relu_3x3
I0902 14:26:40.308676 52488 net.cpp:163] Top shape: 32 208 14 14 (1304576)
I0902 14:26:40.308682 52488 layer_factory.hpp:76] Creating layer inception_4a/5x5_reduce
I0902 14:26:40.308697 52488 net.cpp:110] Creating Layer inception_4a/5x5_reduce
I0902 14:26:40.308703 52488 net.cpp:477] inception_4a/5x5_reduce <- pool3/3x3_s2_pool3/3x3_s2_0_split_2
I0902 14:26:40.308713 52488 net.cpp:433] inception_4a/5x5_reduce -> inception_4a/5x5_reduce
I0902 14:26:40.311717 52488 net.cpp:155] Setting up inception_4a/5x5_reduce
I0902 14:26:40.311738 52488 net.cpp:163] Top shape: 32 16 14 14 (100352)
I0902 14:26:40.311748 52488 layer_factory.hpp:76] Creating layer inception_4a/relu_5x5_reduce
I0902 14:26:40.311758 52488 net.cpp:110] Creating Layer inception_4a/relu_5x5_reduce
I0902 14:26:40.311764 52488 net.cpp:477] inception_4a/relu_5x5_reduce <- inception_4a/5x5_reduce
I0902 14:26:40.311774 52488 net.cpp:419] inception_4a/relu_5x5_reduce -> inception_4a/5x5_reduce (in-place)
I0902 14:26:40.312695 52488 net.cpp:155] Setting up inception_4a/relu_5x5_reduce
I0902 14:26:40.312716 52488 net.cpp:163] Top shape: 32 16 14 14 (100352)
I0902 14:26:40.312722 52488 layer_factory.hpp:76] Creating layer inception_4a/5x5
I0902 14:26:40.312732 52488 net.cpp:110] Creating Layer inception_4a/5x5
I0902 14:26:40.312738 52488 net.cpp:477] inception_4a/5x5 <- inception_4a/5x5_reduce
I0902 14:26:40.312749 52488 net.cpp:433] inception_4a/5x5 -> inception_4a/5x5
I0902 14:26:40.315896 52488 net.cpp:155] Setting up inception_4a/5x5
I0902 14:26:40.315914 52488 net.cpp:163] Top shape: 32 48 14 14 (301056)
I0902 14:26:40.315924 52488 layer_factory.hpp:76] Creating layer inception_4a/relu_5x5
I0902 14:26:40.315935 52488 net.cpp:110] Creating Layer inception_4a/relu_5x5
I0902 14:26:40.315942 52488 net.cpp:477] inception_4a/relu_5x5 <- inception_4a/5x5
I0902 14:26:40.315949 52488 net.cpp:419] inception_4a/relu_5x5 -> inception_4a/5x5 (in-place)
I0902 14:26:40.316903 52488 net.cpp:155] Setting up inception_4a/relu_5x5
I0902 14:26:40.316921 52488 net.cpp:163] Top shape: 32 48 14 14 (301056)
I0902 14:26:40.316927 52488 layer_factory.hpp:76] Creating layer inception_4a/pool
I0902 14:26:40.316933 52488 layer_factory.cpp:60] CUDNN does not support padding or multiple tops. Using Caffe's own pooling layer.
I0902 14:26:40.316943 52488 net.cpp:110] Creating Layer inception_4a/pool
I0902 14:26:40.316949 52488 net.cpp:477] inception_4a/pool <- pool3/3x3_s2_pool3/3x3_s2_0_split_3
I0902 14:26:40.316957 52488 net.cpp:433] inception_4a/pool -> inception_4a/pool
I0902 14:26:40.316985 52488 net.cpp:155] Setting up inception_4a/pool
I0902 14:26:40.316992 52488 net.cpp:163] Top shape: 32 480 14 14 (3010560)
I0902 14:26:40.316999 52488 layer_factory.hpp:76] Creating layer inception_4a/pool_proj
I0902 14:26:40.317021 52488 net.cpp:110] Creating Layer inception_4a/pool_proj
I0902 14:26:40.317031 52488 net.cpp:477] inception_4a/pool_proj <- inception_4a/pool
I0902 14:26:40.317046 52488 net.cpp:433] inception_4a/pool_proj -> inception_4a/pool_proj
I0902 14:26:40.320214 52488 net.cpp:155] Setting up inception_4a/pool_proj
I0902 14:26:40.320232 52488 net.cpp:163] Top shape: 32 64 14 14 (401408)
I0902 14:26:40.320243 52488 layer_factory.hpp:76] Creating layer inception_4a/relu_pool_proj
I0902 14:26:40.320256 52488 net.cpp:110] Creating Layer inception_4a/relu_pool_proj
I0902 14:26:40.320262 52488 net.cpp:477] inception_4a/relu_pool_proj <- inception_4a/pool_proj
I0902 14:26:40.320271 52488 net.cpp:419] inception_4a/relu_pool_proj -> inception_4a/pool_proj (in-place)
I0902 14:26:40.321193 52488 net.cpp:155] Setting up inception_4a/relu_pool_proj
I0902 14:26:40.321212 52488 net.cpp:163] Top shape: 32 64 14 14 (401408)
I0902 14:26:40.321218 52488 layer_factory.hpp:76] Creating layer inception_4a/output
I0902 14:26:40.321226 52488 net.cpp:110] Creating Layer inception_4a/output
I0902 14:26:40.321233 52488 net.cpp:477] inception_4a/output <- inception_4a/1x1
I0902 14:26:40.321240 52488 net.cpp:477] inception_4a/output <- inception_4a/3x3
I0902 14:26:40.321246 52488 net.cpp:477] inception_4a/output <- inception_4a/5x5
I0902 14:26:40.321251 52488 net.cpp:477] inception_4a/output <- inception_4a/pool_proj
I0902 14:26:40.321259 52488 net.cpp:433] inception_4a/output -> inception_4a/output
I0902 14:26:40.321269 52488 net.cpp:155] Setting up inception_4a/output
I0902 14:26:40.321276 52488 net.cpp:163] Top shape: 32 512 14 14 (3211264)
I0902 14:26:40.321281 52488 layer_factory.hpp:76] Creating layer inception_4a/output_inception_4a/output_0_split
I0902 14:26:40.321291 52488 net.cpp:110] Creating Layer inception_4a/output_inception_4a/output_0_split
I0902 14:26:40.321296 52488 net.cpp:477] inception_4a/output_inception_4a/output_0_split <- inception_4a/output
I0902 14:26:40.321303 52488 net.cpp:433] inception_4a/output_inception_4a/output_0_split -> inception_4a/output_inception_4a/output_0_split_0
I0902 14:26:40.321316 52488 net.cpp:433] inception_4a/output_inception_4a/output_0_split -> inception_4a/output_inception_4a/output_0_split_1
I0902 14:26:40.321323 52488 net.cpp:433] inception_4a/output_inception_4a/output_0_split -> inception_4a/output_inception_4a/output_0_split_2
I0902 14:26:40.321331 52488 net.cpp:433] inception_4a/output_inception_4a/output_0_split -> inception_4a/output_inception_4a/output_0_split_3
I0902 14:26:40.321339 52488 net.cpp:433] inception_4a/output_inception_4a/output_0_split -> inception_4a/output_inception_4a/output_0_split_4
I0902 14:26:40.321348 52488 net.cpp:155] Setting up inception_4a/output_inception_4a/output_0_split
I0902 14:26:40.321354 52488 net.cpp:163] Top shape: 32 512 14 14 (3211264)
I0902 14:26:40.321360 52488 net.cpp:163] Top shape: 32 512 14 14 (3211264)
I0902 14:26:40.321365 52488 net.cpp:163] Top shape: 32 512 14 14 (3211264)
I0902 14:26:40.321370 52488 net.cpp:163] Top shape: 32 512 14 14 (3211264)
I0902 14:26:40.321375 52488 net.cpp:163] Top shape: 32 512 14 14 (3211264)
I0902 14:26:40.321380 52488 layer_factory.hpp:76] Creating layer loss1/ave_pool
I0902 14:26:40.321393 52488 net.cpp:110] Creating Layer loss1/ave_pool
I0902 14:26:40.321398 52488 net.cpp:477] loss1/ave_pool <- inception_4a/output_inception_4a/output_0_split_0
I0902 14:26:40.321404 52488 net.cpp:433] loss1/ave_pool -> loss1/ave_pool
I0902 14:26:40.322479 52488 net.cpp:155] Setting up loss1/ave_pool
I0902 14:26:40.322499 52488 net.cpp:163] Top shape: 32 512 4 4 (262144)
I0902 14:26:40.322505 52488 layer_factory.hpp:76] Creating layer loss1/conv
I0902 14:26:40.322515 52488 net.cpp:110] Creating Layer loss1/conv
I0902 14:26:40.322525 52488 net.cpp:477] loss1/conv <- loss1/ave_pool
I0902 14:26:40.322548 52488 net.cpp:433] loss1/conv -> loss1/conv
I0902 14:26:40.328441 52488 net.cpp:155] Setting up loss1/conv
I0902 14:26:40.328487 52488 net.cpp:163] Top shape: 32 128 4 4 (65536)
I0902 14:26:40.328511 52488 layer_factory.hpp:76] Creating layer loss1/relu_conv
I0902 14:26:40.328552 52488 net.cpp:110] Creating Layer loss1/relu_conv
I0902 14:26:40.328567 52488 net.cpp:477] loss1/relu_conv <- loss1/conv
I0902 14:26:40.328586 52488 net.cpp:419] loss1/relu_conv -> loss1/conv (in-place)
I0902 14:26:40.331328 52488 net.cpp:155] Setting up loss1/relu_conv
I0902 14:26:40.331373 52488 net.cpp:163] Top shape: 32 128 4 4 (65536)
I0902 14:26:40.331387 52488 layer_factory.hpp:76] Creating layer loss1/fc
I0902 14:26:40.331414 52488 net.cpp:110] Creating Layer loss1/fc
I0902 14:26:40.331425 52488 net.cpp:477] loss1/fc <- loss1/conv
I0902 14:26:40.331440 52488 net.cpp:433] loss1/fc -> loss1/fc
I0902 14:26:40.370620 52488 net.cpp:155] Setting up loss1/fc
I0902 14:26:40.370656 52488 net.cpp:163] Top shape: 32 1024 (32768)
I0902 14:26:40.370676 52488 layer_factory.hpp:76] Creating layer loss1/relu_fc
I0902 14:26:40.370715 52488 net.cpp:110] Creating Layer loss1/relu_fc
I0902 14:26:40.370726 52488 net.cpp:477] loss1/relu_fc <- loss1/fc
I0902 14:26:40.370739 52488 net.cpp:419] loss1/relu_fc -> loss1/fc (in-place)
I0902 14:26:40.372459 52488 net.cpp:155] Setting up loss1/relu_fc
I0902 14:26:40.372493 52488 net.cpp:163] Top shape: 32 1024 (32768)
I0902 14:26:40.372506 52488 layer_factory.hpp:76] Creating layer loss1/drop_fc
I0902 14:26:40.372550 52488 net.cpp:110] Creating Layer loss1/drop_fc
I0902 14:26:40.372561 52488 net.cpp:477] loss1/drop_fc <- loss1/fc
I0902 14:26:40.372580 52488 net.cpp:419] loss1/drop_fc -> loss1/fc (in-place)
I0902 14:26:40.372609 52488 net.cpp:155] Setting up loss1/drop_fc
I0902 14:26:40.372622 52488 net.cpp:163] Top shape: 32 1024 (32768)
I0902 14:26:40.372652 52488 layer_factory.hpp:76] Creating layer cub/loss1/classifier
I0902 14:26:40.372687 52488 net.cpp:110] Creating Layer cub/loss1/classifier
I0902 14:26:40.372697 52488 net.cpp:477] cub/loss1/classifier <- loss1/fc
I0902 14:26:40.372714 52488 net.cpp:433] cub/loss1/classifier -> loss1/classifier
I0902 14:26:40.377151 52488 net.cpp:155] Setting up cub/loss1/classifier
I0902 14:26:40.377183 52488 net.cpp:163] Top shape: 32 200 (6400)
I0902 14:26:40.377202 52488 layer_factory.hpp:76] Creating layer loss1/loss
I0902 14:26:40.377223 52488 net.cpp:110] Creating Layer loss1/loss
I0902 14:26:40.377234 52488 net.cpp:477] loss1/loss <- loss1/classifier
I0902 14:26:40.377248 52488 net.cpp:477] loss1/loss <- label_data_1_split_0
I0902 14:26:40.377266 52488 net.cpp:433] loss1/loss -> loss1/loss1
I0902 14:26:40.377300 52488 layer_factory.hpp:76] Creating layer loss1/loss
I0902 14:26:40.379333 52488 net.cpp:155] Setting up loss1/loss
I0902 14:26:40.379366 52488 net.cpp:163] Top shape: (1)
I0902 14:26:40.379376 52488 net.cpp:168]     with loss weight 0.3
I0902 14:26:40.379448 52488 layer_factory.hpp:76] Creating layer inception_4b/1x1
I0902 14:26:40.379487 52488 net.cpp:110] Creating Layer inception_4b/1x1
I0902 14:26:40.379509 52488 net.cpp:477] inception_4b/1x1 <- inception_4a/output_inception_4a/output_0_split_1
I0902 14:26:40.379528 52488 net.cpp:433] inception_4b/1x1 -> inception_4b/1x1
I0902 14:26:40.386247 52488 net.cpp:155] Setting up inception_4b/1x1
I0902 14:26:40.386283 52488 net.cpp:163] Top shape: 32 160 14 14 (1003520)
I0902 14:26:40.386302 52488 layer_factory.hpp:76] Creating layer inception_4b/relu_1x1
I0902 14:26:40.386335 52488 net.cpp:110] Creating Layer inception_4b/relu_1x1
I0902 14:26:40.386348 52488 net.cpp:477] inception_4b/relu_1x1 <- inception_4b/1x1
I0902 14:26:40.386365 52488 net.cpp:419] inception_4b/relu_1x1 -> inception_4b/1x1 (in-place)
I0902 14:26:40.388005 52488 net.cpp:155] Setting up inception_4b/relu_1x1
I0902 14:26:40.388037 52488 net.cpp:163] Top shape: 32 160 14 14 (1003520)
I0902 14:26:40.388049 52488 layer_factory.hpp:76] Creating layer inception_4b/3x3_reduce
I0902 14:26:40.388072 52488 net.cpp:110] Creating Layer inception_4b/3x3_reduce
I0902 14:26:40.388118 52488 net.cpp:477] inception_4b/3x3_reduce <- inception_4a/output_inception_4a/output_0_split_2
I0902 14:26:40.388139 52488 net.cpp:433] inception_4b/3x3_reduce -> inception_4b/3x3_reduce
I0902 14:26:40.395328 52488 net.cpp:155] Setting up inception_4b/3x3_reduce
I0902 14:26:40.395364 52488 net.cpp:163] Top shape: 32 112 14 14 (702464)
I0902 14:26:40.395382 52488 layer_factory.hpp:76] Creating layer inception_4b/relu_3x3_reduce
I0902 14:26:40.395398 52488 net.cpp:110] Creating Layer inception_4b/relu_3x3_reduce
I0902 14:26:40.395409 52488 net.cpp:477] inception_4b/relu_3x3_reduce <- inception_4b/3x3_reduce
I0902 14:26:40.395432 52488 net.cpp:419] inception_4b/relu_3x3_reduce -> inception_4b/3x3_reduce (in-place)
I0902 14:26:40.397053 52488 net.cpp:155] Setting up inception_4b/relu_3x3_reduce
I0902 14:26:40.397088 52488 net.cpp:163] Top shape: 32 112 14 14 (702464)
I0902 14:26:40.397114 52488 layer_factory.hpp:76] Creating layer inception_4b/3x3
I0902 14:26:40.397132 52488 net.cpp:110] Creating Layer inception_4b/3x3
I0902 14:26:40.397143 52488 net.cpp:477] inception_4b/3x3 <- inception_4b/3x3_reduce
I0902 14:26:40.397162 52488 net.cpp:433] inception_4b/3x3 -> inception_4b/3x3
I0902 14:26:40.407089 52488 net.cpp:155] Setting up inception_4b/3x3
I0902 14:26:40.407125 52488 net.cpp:163] Top shape: 32 224 14 14 (1404928)
I0902 14:26:40.407150 52488 layer_factory.hpp:76] Creating layer inception_4b/relu_3x3
I0902 14:26:40.407183 52488 net.cpp:110] Creating Layer inception_4b/relu_3x3
I0902 14:26:40.407196 52488 net.cpp:477] inception_4b/relu_3x3 <- inception_4b/3x3
I0902 14:26:40.407212 52488 net.cpp:419] inception_4b/relu_3x3 -> inception_4b/3x3 (in-place)
I0902 14:26:40.408882 52488 net.cpp:155] Setting up inception_4b/relu_3x3
I0902 14:26:40.408915 52488 net.cpp:163] Top shape: 32 224 14 14 (1404928)
I0902 14:26:40.408926 52488 layer_factory.hpp:76] Creating layer inception_4b/5x5_reduce
I0902 14:26:40.408947 52488 net.cpp:110] Creating Layer inception_4b/5x5_reduce
I0902 14:26:40.408958 52488 net.cpp:477] inception_4b/5x5_reduce <- inception_4a/output_inception_4a/output_0_split_3
I0902 14:26:40.408978 52488 net.cpp:433] inception_4b/5x5_reduce -> inception_4b/5x5_reduce
I0902 14:26:40.414410 52488 net.cpp:155] Setting up inception_4b/5x5_reduce
I0902 14:26:40.414446 52488 net.cpp:163] Top shape: 32 24 14 14 (150528)
I0902 14:26:40.414465 52488 layer_factory.hpp:76] Creating layer inception_4b/relu_5x5_reduce
I0902 14:26:40.414485 52488 net.cpp:110] Creating Layer inception_4b/relu_5x5_reduce
I0902 14:26:40.414496 52488 net.cpp:477] inception_4b/relu_5x5_reduce <- inception_4b/5x5_reduce
I0902 14:26:40.414510 52488 net.cpp:419] inception_4b/relu_5x5_reduce -> inception_4b/5x5_reduce (in-place)
I0902 14:26:40.416426 52488 net.cpp:155] Setting up inception_4b/relu_5x5_reduce
I0902 14:26:40.416463 52488 net.cpp:163] Top shape: 32 24 14 14 (150528)
I0902 14:26:40.416476 52488 layer_factory.hpp:76] Creating layer inception_4b/5x5
I0902 14:26:40.416520 52488 net.cpp:110] Creating Layer inception_4b/5x5
I0902 14:26:40.416532 52488 net.cpp:477] inception_4b/5x5 <- inception_4b/5x5_reduce
I0902 14:26:40.416553 52488 net.cpp:433] inception_4b/5x5 -> inception_4b/5x5
I0902 14:26:40.423164 52488 net.cpp:155] Setting up inception_4b/5x5
I0902 14:26:40.423203 52488 net.cpp:163] Top shape: 32 64 14 14 (401408)
I0902 14:26:40.423223 52488 layer_factory.hpp:76] Creating layer inception_4b/relu_5x5
I0902 14:26:40.423239 52488 net.cpp:110] Creating Layer inception_4b/relu_5x5
I0902 14:26:40.423250 52488 net.cpp:477] inception_4b/relu_5x5 <- inception_4b/5x5
I0902 14:26:40.423264 52488 net.cpp:419] inception_4b/relu_5x5 -> inception_4b/5x5 (in-place)
I0902 14:26:40.424965 52488 net.cpp:155] Setting up inception_4b/relu_5x5
I0902 14:26:40.424998 52488 net.cpp:163] Top shape: 32 64 14 14 (401408)
I0902 14:26:40.425009 52488 layer_factory.hpp:76] Creating layer inception_4b/pool
I0902 14:26:40.425021 52488 layer_factory.cpp:60] CUDNN does not support padding or multiple tops. Using Caffe's own pooling layer.
I0902 14:26:40.425062 52488 net.cpp:110] Creating Layer inception_4b/pool
I0902 14:26:40.425074 52488 net.cpp:477] inception_4b/pool <- inception_4a/output_inception_4a/output_0_split_4
I0902 14:26:40.425094 52488 net.cpp:433] inception_4b/pool -> inception_4b/pool
I0902 14:26:40.425117 52488 net.cpp:155] Setting up inception_4b/pool
I0902 14:26:40.425130 52488 net.cpp:163] Top shape: 32 512 14 14 (3211264)
I0902 14:26:40.425139 52488 layer_factory.hpp:76] Creating layer inception_4b/pool_proj
I0902 14:26:40.425174 52488 net.cpp:110] Creating Layer inception_4b/pool_proj
I0902 14:26:40.425184 52488 net.cpp:477] inception_4b/pool_proj <- inception_4b/pool
I0902 14:26:40.425199 52488 net.cpp:433] inception_4b/pool_proj -> inception_4b/pool_proj
I0902 14:26:40.431349 52488 net.cpp:155] Setting up inception_4b/pool_proj
I0902 14:26:40.431386 52488 net.cpp:163] Top shape: 32 64 14 14 (401408)
I0902 14:26:40.431406 52488 layer_factory.hpp:76] Creating layer inception_4b/relu_pool_proj
I0902 14:26:40.431437 52488 net.cpp:110] Creating Layer inception_4b/relu_pool_proj
I0902 14:26:40.431448 52488 net.cpp:477] inception_4b/relu_pool_proj <- inception_4b/pool_proj
I0902 14:26:40.431474 52488 net.cpp:419] inception_4b/relu_pool_proj -> inception_4b/pool_proj (in-place)
I0902 14:26:40.433203 52488 net.cpp:155] Setting up inception_4b/relu_pool_proj
I0902 14:26:40.433238 52488 net.cpp:163] Top shape: 32 64 14 14 (401408)
I0902 14:26:40.433250 52488 layer_factory.hpp:76] Creating layer inception_4b/output
I0902 14:26:40.433266 52488 net.cpp:110] Creating Layer inception_4b/output
I0902 14:26:40.433276 52488 net.cpp:477] inception_4b/output <- inception_4b/1x1
I0902 14:26:40.433290 52488 net.cpp:477] inception_4b/output <- inception_4b/3x3
I0902 14:26:40.433300 52488 net.cpp:477] inception_4b/output <- inception_4b/5x5
I0902 14:26:40.433310 52488 net.cpp:477] inception_4b/output <- inception_4b/pool_proj
I0902 14:26:40.433323 52488 net.cpp:433] inception_4b/output -> inception_4b/output
I0902 14:26:40.433346 52488 net.cpp:155] Setting up inception_4b/output
I0902 14:26:40.433357 52488 net.cpp:163] Top shape: 32 512 14 14 (3211264)
I0902 14:26:40.433367 52488 layer_factory.hpp:76] Creating layer inception_4b/output_inception_4b/output_0_split
I0902 14:26:40.433387 52488 net.cpp:110] Creating Layer inception_4b/output_inception_4b/output_0_split
I0902 14:26:40.433398 52488 net.cpp:477] inception_4b/output_inception_4b/output_0_split <- inception_4b/output
I0902 14:26:40.433411 52488 net.cpp:433] inception_4b/output_inception_4b/output_0_split -> inception_4b/output_inception_4b/output_0_split_0
I0902 14:26:40.433428 52488 net.cpp:433] inception_4b/output_inception_4b/output_0_split -> inception_4b/output_inception_4b/output_0_split_1
I0902 14:26:40.433447 52488 net.cpp:433] inception_4b/output_inception_4b/output_0_split -> inception_4b/output_inception_4b/output_0_split_2
I0902 14:26:40.433462 52488 net.cpp:433] inception_4b/output_inception_4b/output_0_split -> inception_4b/output_inception_4b/output_0_split_3
I0902 14:26:40.433480 52488 net.cpp:155] Setting up inception_4b/output_inception_4b/output_0_split
I0902 14:26:40.433490 52488 net.cpp:163] Top shape: 32 512 14 14 (3211264)
I0902 14:26:40.433501 52488 net.cpp:163] Top shape: 32 512 14 14 (3211264)
I0902 14:26:40.433511 52488 net.cpp:163] Top shape: 32 512 14 14 (3211264)
I0902 14:26:40.433521 52488 net.cpp:163] Top shape: 32 512 14 14 (3211264)
I0902 14:26:40.433529 52488 layer_factory.hpp:76] Creating layer inception_4c/1x1
I0902 14:26:40.433559 52488 net.cpp:110] Creating Layer inception_4c/1x1
I0902 14:26:40.433569 52488 net.cpp:477] inception_4c/1x1 <- inception_4b/output_inception_4b/output_0_split_0
I0902 14:26:40.433588 52488 net.cpp:433] inception_4c/1x1 -> inception_4c/1x1
I0902 14:26:40.440290 52488 net.cpp:155] Setting up inception_4c/1x1
I0902 14:26:40.440327 52488 net.cpp:163] Top shape: 32 128 14 14 (802816)
I0902 14:26:40.440347 52488 layer_factory.hpp:76] Creating layer inception_4c/relu_1x1
I0902 14:26:40.440382 52488 net.cpp:110] Creating Layer inception_4c/relu_1x1
I0902 14:26:40.440419 52488 net.cpp:477] inception_4c/relu_1x1 <- inception_4c/1x1
I0902 14:26:40.440436 52488 net.cpp:419] inception_4c/relu_1x1 -> inception_4c/1x1 (in-place)
I0902 14:26:40.442231 52488 net.cpp:155] Setting up inception_4c/relu_1x1
I0902 14:26:40.442266 52488 net.cpp:163] Top shape: 32 128 14 14 (802816)
I0902 14:26:40.442278 52488 layer_factory.hpp:76] Creating layer inception_4c/3x3_reduce
I0902 14:26:40.442297 52488 net.cpp:110] Creating Layer inception_4c/3x3_reduce
I0902 14:26:40.442309 52488 net.cpp:477] inception_4c/3x3_reduce <- inception_4b/output_inception_4b/output_0_split_1
I0902 14:26:40.442330 52488 net.cpp:433] inception_4c/3x3_reduce -> inception_4c/3x3_reduce
I0902 14:26:40.449172 52488 net.cpp:155] Setting up inception_4c/3x3_reduce
I0902 14:26:40.449211 52488 net.cpp:163] Top shape: 32 128 14 14 (802816)
I0902 14:26:40.449231 52488 layer_factory.hpp:76] Creating layer inception_4c/relu_3x3_reduce
I0902 14:26:40.449267 52488 net.cpp:110] Creating Layer inception_4c/relu_3x3_reduce
I0902 14:26:40.449280 52488 net.cpp:477] inception_4c/relu_3x3_reduce <- inception_4c/3x3_reduce
I0902 14:26:40.449295 52488 net.cpp:419] inception_4c/relu_3x3_reduce -> inception_4c/3x3_reduce (in-place)
I0902 14:26:40.450953 52488 net.cpp:155] Setting up inception_4c/relu_3x3_reduce
I0902 14:26:40.450989 52488 net.cpp:163] Top shape: 32 128 14 14 (802816)
I0902 14:26:40.451001 52488 layer_factory.hpp:76] Creating layer inception_4c/3x3
I0902 14:26:40.451023 52488 net.cpp:110] Creating Layer inception_4c/3x3
I0902 14:26:40.451035 52488 net.cpp:477] inception_4c/3x3 <- inception_4c/3x3_reduce
I0902 14:26:40.451056 52488 net.cpp:433] inception_4c/3x3 -> inception_4c/3x3
I0902 14:26:40.463194 52488 net.cpp:155] Setting up inception_4c/3x3
I0902 14:26:40.463240 52488 net.cpp:163] Top shape: 32 256 14 14 (1605632)
I0902 14:26:40.463297 52488 layer_factory.hpp:76] Creating layer inception_4c/relu_3x3
I0902 14:26:40.463320 52488 net.cpp:110] Creating Layer inception_4c/relu_3x3
I0902 14:26:40.463332 52488 net.cpp:477] inception_4c/relu_3x3 <- inception_4c/3x3
I0902 14:26:40.463347 52488 net.cpp:419] inception_4c/relu_3x3 -> inception_4c/3x3 (in-place)
I0902 14:26:40.465044 52488 net.cpp:155] Setting up inception_4c/relu_3x3
I0902 14:26:40.465081 52488 net.cpp:163] Top shape: 32 256 14 14 (1605632)
I0902 14:26:40.465111 52488 layer_factory.hpp:76] Creating layer inception_4c/5x5_reduce
I0902 14:26:40.465143 52488 net.cpp:110] Creating Layer inception_4c/5x5_reduce
I0902 14:26:40.465155 52488 net.cpp:477] inception_4c/5x5_reduce <- inception_4b/output_inception_4b/output_0_split_2
I0902 14:26:40.465190 52488 net.cpp:433] inception_4c/5x5_reduce -> inception_4c/5x5_reduce
I0902 14:26:40.490309 52488 net.cpp:155] Setting up inception_4c/5x5_reduce
I0902 14:26:40.490345 52488 net.cpp:163] Top shape: 32 24 14 14 (150528)
I0902 14:26:40.490365 52488 layer_factory.hpp:76] Creating layer inception_4c/relu_5x5_reduce
I0902 14:26:40.490386 52488 net.cpp:110] Creating Layer inception_4c/relu_5x5_reduce
I0902 14:26:40.490396 52488 net.cpp:477] inception_4c/relu_5x5_reduce <- inception_4c/5x5_reduce
I0902 14:26:40.490411 52488 net.cpp:419] inception_4c/relu_5x5_reduce -> inception_4c/5x5_reduce (in-place)
I0902 14:26:40.492174 52488 net.cpp:155] Setting up inception_4c/relu_5x5_reduce
I0902 14:26:40.492208 52488 net.cpp:163] Top shape: 32 24 14 14 (150528)
I0902 14:26:40.492219 52488 layer_factory.hpp:76] Creating layer inception_4c/5x5
I0902 14:26:40.492240 52488 net.cpp:110] Creating Layer inception_4c/5x5
I0902 14:26:40.492252 52488 net.cpp:477] inception_4c/5x5 <- inception_4c/5x5_reduce
I0902 14:26:40.492275 52488 net.cpp:433] inception_4c/5x5 -> inception_4c/5x5
I0902 14:26:40.519340 52488 net.cpp:155] Setting up inception_4c/5x5
I0902 14:26:40.519386 52488 net.cpp:163] Top shape: 32 64 14 14 (401408)
I0902 14:26:40.519405 52488 layer_factory.hpp:76] Creating layer inception_4c/relu_5x5
I0902 14:26:40.519438 52488 net.cpp:110] Creating Layer inception_4c/relu_5x5
I0902 14:26:40.519449 52488 net.cpp:477] inception_4c/relu_5x5 <- inception_4c/5x5
I0902 14:26:40.519513 52488 net.cpp:419] inception_4c/relu_5x5 -> inception_4c/5x5 (in-place)
I0902 14:26:40.521307 52488 net.cpp:155] Setting up inception_4c/relu_5x5
I0902 14:26:40.521340 52488 net.cpp:163] Top shape: 32 64 14 14 (401408)
I0902 14:26:40.521366 52488 layer_factory.hpp:76] Creating layer inception_4c/pool
I0902 14:26:40.521379 52488 layer_factory.cpp:60] CUDNN does not support padding or multiple tops. Using Caffe's own pooling layer.
I0902 14:26:40.521397 52488 net.cpp:110] Creating Layer inception_4c/pool
I0902 14:26:40.521409 52488 net.cpp:477] inception_4c/pool <- inception_4b/output_inception_4b/output_0_split_3
I0902 14:26:40.521425 52488 net.cpp:433] inception_4c/pool -> inception_4c/pool
I0902 14:26:40.521447 52488 net.cpp:155] Setting up inception_4c/pool
I0902 14:26:40.521464 52488 net.cpp:163] Top shape: 32 512 14 14 (3211264)
I0902 14:26:40.521473 52488 layer_factory.hpp:76] Creating layer inception_4c/pool_proj
I0902 14:26:40.521488 52488 net.cpp:110] Creating Layer inception_4c/pool_proj
I0902 14:26:40.521498 52488 net.cpp:477] inception_4c/pool_proj <- inception_4c/pool
I0902 14:26:40.521517 52488 net.cpp:433] inception_4c/pool_proj -> inception_4c/pool_proj
I0902 14:26:40.565678 52488 net.cpp:155] Setting up inception_4c/pool_proj
I0902 14:26:40.565721 52488 net.cpp:163] Top shape: 32 64 14 14 (401408)
I0902 14:26:40.565740 52488 layer_factory.hpp:76] Creating layer inception_4c/relu_pool_proj
I0902 14:26:40.565788 52488 net.cpp:110] Creating Layer inception_4c/relu_pool_proj
I0902 14:26:40.565801 52488 net.cpp:477] inception_4c/relu_pool_proj <- inception_4c/pool_proj
I0902 14:26:40.565842 52488 net.cpp:419] inception_4c/relu_pool_proj -> inception_4c/pool_proj (in-place)
I0902 14:26:40.567657 52488 net.cpp:155] Setting up inception_4c/relu_pool_proj
I0902 14:26:40.567692 52488 net.cpp:163] Top shape: 32 64 14 14 (401408)
I0902 14:26:40.567703 52488 layer_factory.hpp:76] Creating layer inception_4c/output
I0902 14:26:40.567719 52488 net.cpp:110] Creating Layer inception_4c/output
I0902 14:26:40.567736 52488 net.cpp:477] inception_4c/output <- inception_4c/1x1
I0902 14:26:40.567749 52488 net.cpp:477] inception_4c/output <- inception_4c/3x3
I0902 14:26:40.567760 52488 net.cpp:477] inception_4c/output <- inception_4c/5x5
I0902 14:26:40.567771 52488 net.cpp:477] inception_4c/output <- inception_4c/pool_proj
I0902 14:26:40.567788 52488 net.cpp:433] inception_4c/output -> inception_4c/output
I0902 14:26:40.567811 52488 net.cpp:155] Setting up inception_4c/output
I0902 14:26:40.567823 52488 net.cpp:163] Top shape: 32 512 14 14 (3211264)
I0902 14:26:40.567847 52488 layer_factory.hpp:76] Creating layer inception_4c/output_inception_4c/output_0_split
I0902 14:26:40.567873 52488 net.cpp:110] Creating Layer inception_4c/output_inception_4c/output_0_split
I0902 14:26:40.567883 52488 net.cpp:477] inception_4c/output_inception_4c/output_0_split <- inception_4c/output
I0902 14:26:40.567898 52488 net.cpp:433] inception_4c/output_inception_4c/output_0_split -> inception_4c/output_inception_4c/output_0_split_0
I0902 14:26:40.567919 52488 net.cpp:433] inception_4c/output_inception_4c/output_0_split -> inception_4c/output_inception_4c/output_0_split_1
I0902 14:26:40.567935 52488 net.cpp:433] inception_4c/output_inception_4c/output_0_split -> inception_4c/output_inception_4c/output_0_split_2
I0902 14:26:40.567950 52488 net.cpp:433] inception_4c/output_inception_4c/output_0_split -> inception_4c/output_inception_4c/output_0_split_3
I0902 14:26:40.567966 52488 net.cpp:155] Setting up inception_4c/output_inception_4c/output_0_split
I0902 14:26:40.567978 52488 net.cpp:163] Top shape: 32 512 14 14 (3211264)
I0902 14:26:40.567988 52488 net.cpp:163] Top shape: 32 512 14 14 (3211264)
I0902 14:26:40.567998 52488 net.cpp:163] Top shape: 32 512 14 14 (3211264)
I0902 14:26:40.568008 52488 net.cpp:163] Top shape: 32 512 14 14 (3211264)
I0902 14:26:40.568017 52488 layer_factory.hpp:76] Creating layer inception_4d/1x1
I0902 14:26:40.568037 52488 net.cpp:110] Creating Layer inception_4d/1x1
I0902 14:26:40.568086 52488 net.cpp:477] inception_4d/1x1 <- inception_4c/output_inception_4c/output_0_split_0
I0902 14:26:40.568104 52488 net.cpp:433] inception_4d/1x1 -> inception_4d/1x1
I0902 14:26:40.575850 52488 net.cpp:155] Setting up inception_4d/1x1
I0902 14:26:40.575886 52488 net.cpp:163] Top shape: 32 112 14 14 (702464)
I0902 14:26:40.575906 52488 layer_factory.hpp:76] Creating layer inception_4d/relu_1x1
I0902 14:26:40.575930 52488 net.cpp:110] Creating Layer inception_4d/relu_1x1
I0902 14:26:40.575942 52488 net.cpp:477] inception_4d/relu_1x1 <- inception_4d/1x1
I0902 14:26:40.575973 52488 net.cpp:419] inception_4d/relu_1x1 -> inception_4d/1x1 (in-place)
I0902 14:26:40.578037 52488 net.cpp:155] Setting up inception_4d/relu_1x1
I0902 14:26:40.578071 52488 net.cpp:163] Top shape: 32 112 14 14 (702464)
I0902 14:26:40.578088 52488 layer_factory.hpp:76] Creating layer inception_4d/3x3_reduce
I0902 14:26:40.578120 52488 net.cpp:110] Creating Layer inception_4d/3x3_reduce
I0902 14:26:40.578131 52488 net.cpp:477] inception_4d/3x3_reduce <- inception_4c/output_inception_4c/output_0_split_1
I0902 14:26:40.578155 52488 net.cpp:433] inception_4d/3x3_reduce -> inception_4d/3x3_reduce
I0902 14:26:40.585377 52488 net.cpp:155] Setting up inception_4d/3x3_reduce
I0902 14:26:40.585429 52488 net.cpp:163] Top shape: 32 144 14 14 (903168)
I0902 14:26:40.585448 52488 layer_factory.hpp:76] Creating layer inception_4d/relu_3x3_reduce
I0902 14:26:40.585464 52488 net.cpp:110] Creating Layer inception_4d/relu_3x3_reduce
I0902 14:26:40.585475 52488 net.cpp:477] inception_4d/relu_3x3_reduce <- inception_4d/3x3_reduce
I0902 14:26:40.585489 52488 net.cpp:419] inception_4d/relu_3x3_reduce -> inception_4d/3x3_reduce (in-place)
I0902 14:26:40.587352 52488 net.cpp:155] Setting up inception_4d/relu_3x3_reduce
I0902 14:26:40.587388 52488 net.cpp:163] Top shape: 32 144 14 14 (903168)
I0902 14:26:40.587400 52488 layer_factory.hpp:76] Creating layer inception_4d/3x3
I0902 14:26:40.587422 52488 net.cpp:110] Creating Layer inception_4d/3x3
I0902 14:26:40.587435 52488 net.cpp:477] inception_4d/3x3 <- inception_4d/3x3_reduce
I0902 14:26:40.587450 52488 net.cpp:433] inception_4d/3x3 -> inception_4d/3x3
I0902 14:26:40.601435 52488 net.cpp:155] Setting up inception_4d/3x3
I0902 14:26:40.601472 52488 net.cpp:163] Top shape: 32 288 14 14 (1806336)
I0902 14:26:40.601491 52488 layer_factory.hpp:76] Creating layer inception_4d/relu_3x3
I0902 14:26:40.601522 52488 net.cpp:110] Creating Layer inception_4d/relu_3x3
I0902 14:26:40.601536 52488 net.cpp:477] inception_4d/relu_3x3 <- inception_4d/3x3
I0902 14:26:40.601553 52488 net.cpp:419] inception_4d/relu_3x3 -> inception_4d/3x3 (in-place)
I0902 14:26:40.604001 52488 net.cpp:155] Setting up inception_4d/relu_3x3
I0902 14:26:40.604035 52488 net.cpp:163] Top shape: 32 288 14 14 (1806336)
I0902 14:26:40.604048 52488 layer_factory.hpp:76] Creating layer inception_4d/5x5_reduce
I0902 14:26:40.604073 52488 net.cpp:110] Creating Layer inception_4d/5x5_reduce
I0902 14:26:40.604084 52488 net.cpp:477] inception_4d/5x5_reduce <- inception_4c/output_inception_4c/output_0_split_2
I0902 14:26:40.604101 52488 net.cpp:433] inception_4d/5x5_reduce -> inception_4d/5x5_reduce
I0902 14:26:40.664362 52488 net.cpp:155] Setting up inception_4d/5x5_reduce
I0902 14:26:40.664413 52488 net.cpp:163] Top shape: 32 32 14 14 (200704)
I0902 14:26:40.664458 52488 layer_factory.hpp:76] Creating layer inception_4d/relu_5x5_reduce
I0902 14:26:40.664475 52488 net.cpp:110] Creating Layer inception_4d/relu_5x5_reduce
I0902 14:26:40.664486 52488 net.cpp:477] inception_4d/relu_5x5_reduce <- inception_4d/5x5_reduce
I0902 14:26:40.664500 52488 net.cpp:419] inception_4d/relu_5x5_reduce -> inception_4d/5x5_reduce (in-place)
I0902 14:26:40.666447 52488 net.cpp:155] Setting up inception_4d/relu_5x5_reduce
I0902 14:26:40.666482 52488 net.cpp:163] Top shape: 32 32 14 14 (200704)
I0902 14:26:40.666494 52488 layer_factory.hpp:76] Creating layer inception_4d/5x5
I0902 14:26:40.666542 52488 net.cpp:110] Creating Layer inception_4d/5x5
I0902 14:26:40.666553 52488 net.cpp:477] inception_4d/5x5 <- inception_4d/5x5_reduce
I0902 14:26:40.666596 52488 net.cpp:433] inception_4d/5x5 -> inception_4d/5x5
I0902 14:26:40.725177 52488 net.cpp:155] Setting up inception_4d/5x5
I0902 14:26:40.725211 52488 net.cpp:163] Top shape: 32 64 14 14 (401408)
I0902 14:26:40.725230 52488 layer_factory.hpp:76] Creating layer inception_4d/relu_5x5
I0902 14:26:40.725253 52488 net.cpp:110] Creating Layer inception_4d/relu_5x5
I0902 14:26:40.725265 52488 net.cpp:477] inception_4d/relu_5x5 <- inception_4d/5x5
I0902 14:26:40.725282 52488 net.cpp:419] inception_4d/relu_5x5 -> inception_4d/5x5 (in-place)
I0902 14:26:40.729127 52488 net.cpp:155] Setting up inception_4d/relu_5x5
I0902 14:26:40.729162 52488 net.cpp:163] Top shape: 32 64 14 14 (401408)
I0902 14:26:40.729174 52488 layer_factory.hpp:76] Creating layer inception_4d/pool
I0902 14:26:40.729185 52488 layer_factory.cpp:60] CUDNN does not support padding or multiple tops. Using Caffe's own pooling layer.
I0902 14:26:40.729199 52488 net.cpp:110] Creating Layer inception_4d/pool
I0902 14:26:40.729210 52488 net.cpp:477] inception_4d/pool <- inception_4c/output_inception_4c/output_0_split_3
I0902 14:26:40.729229 52488 net.cpp:433] inception_4d/pool -> inception_4d/pool
I0902 14:26:40.729251 52488 net.cpp:155] Setting up inception_4d/pool
I0902 14:26:40.729264 52488 net.cpp:163] Top shape: 32 512 14 14 (3211264)
I0902 14:26:40.729290 52488 layer_factory.hpp:76] Creating layer inception_4d/pool_proj
I0902 14:26:40.729326 52488 net.cpp:110] Creating Layer inception_4d/pool_proj
I0902 14:26:40.729358 52488 net.cpp:477] inception_4d/pool_proj <- inception_4d/pool
I0902 14:26:40.729373 52488 net.cpp:433] inception_4d/pool_proj -> inception_4d/pool_proj
I0902 14:26:40.788008 52488 net.cpp:155] Setting up inception_4d/pool_proj
I0902 14:26:40.788045 52488 net.cpp:163] Top shape: 32 64 14 14 (401408)
I0902 14:26:40.788064 52488 layer_factory.hpp:76] Creating layer inception_4d/relu_pool_proj
I0902 14:26:40.788079 52488 net.cpp:110] Creating Layer inception_4d/relu_pool_proj
I0902 14:26:40.788091 52488 net.cpp:477] inception_4d/relu_pool_proj <- inception_4d/pool_proj
I0902 14:26:40.788105 52488 net.cpp:419] inception_4d/relu_pool_proj -> inception_4d/pool_proj (in-place)
I0902 14:26:40.840618 52488 net.cpp:155] Setting up inception_4d/relu_pool_proj
I0902 14:26:40.840652 52488 net.cpp:163] Top shape: 32 64 14 14 (401408)
I0902 14:26:40.840664 52488 layer_factory.hpp:76] Creating layer inception_4d/output
I0902 14:26:40.840687 52488 net.cpp:110] Creating Layer inception_4d/output
I0902 14:26:40.840699 52488 net.cpp:477] inception_4d/output <- inception_4d/1x1
I0902 14:26:40.840713 52488 net.cpp:477] inception_4d/output <- inception_4d/3x3
I0902 14:26:40.840723 52488 net.cpp:477] inception_4d/output <- inception_4d/5x5
I0902 14:26:40.840734 52488 net.cpp:477] inception_4d/output <- inception_4d/pool_proj
I0902 14:26:40.840746 52488 net.cpp:433] inception_4d/output -> inception_4d/output
I0902 14:26:40.840766 52488 net.cpp:155] Setting up inception_4d/output
I0902 14:26:40.840778 52488 net.cpp:163] Top shape: 32 528 14 14 (3311616)
I0902 14:26:40.840787 52488 layer_factory.hpp:76] Creating layer inception_4d/output_inception_4d/output_0_split
I0902 14:26:40.840801 52488 net.cpp:110] Creating Layer inception_4d/output_inception_4d/output_0_split
I0902 14:26:40.840811 52488 net.cpp:477] inception_4d/output_inception_4d/output_0_split <- inception_4d/output
I0902 14:26:40.840827 52488 net.cpp:433] inception_4d/output_inception_4d/output_0_split -> inception_4d/output_inception_4d/output_0_split_0
I0902 14:26:40.840845 52488 net.cpp:433] inception_4d/output_inception_4d/output_0_split -> inception_4d/output_inception_4d/output_0_split_1
I0902 14:26:40.840860 52488 net.cpp:433] inception_4d/output_inception_4d/output_0_split -> inception_4d/output_inception_4d/output_0_split_2
I0902 14:26:40.840883 52488 net.cpp:433] inception_4d/output_inception_4d/output_0_split -> inception_4d/output_inception_4d/output_0_split_3
I0902 14:26:40.840896 52488 net.cpp:433] inception_4d/output_inception_4d/output_0_split -> inception_4d/output_inception_4d/output_0_split_4
I0902 14:26:40.840958 52488 net.cpp:155] Setting up inception_4d/output_inception_4d/output_0_split
I0902 14:26:40.840976 52488 net.cpp:163] Top shape: 32 528 14 14 (3311616)
I0902 14:26:40.840987 52488 net.cpp:163] Top shape: 32 528 14 14 (3311616)
I0902 14:26:40.840997 52488 net.cpp:163] Top shape: 32 528 14 14 (3311616)
I0902 14:26:40.841007 52488 net.cpp:163] Top shape: 32 528 14 14 (3311616)
I0902 14:26:40.841017 52488 net.cpp:163] Top shape: 32 528 14 14 (3311616)
I0902 14:26:40.841025 52488 layer_factory.hpp:76] Creating layer loss2/ave_pool
I0902 14:26:40.841056 52488 net.cpp:110] Creating Layer loss2/ave_pool
I0902 14:26:40.841068 52488 net.cpp:477] loss2/ave_pool <- inception_4d/output_inception_4d/output_0_split_0
I0902 14:26:40.841083 52488 net.cpp:433] loss2/ave_pool -> loss2/ave_pool
I0902 14:26:40.844676 52488 net.cpp:155] Setting up loss2/ave_pool
I0902 14:26:40.844715 52488 net.cpp:163] Top shape: 32 528 4 4 (270336)
I0902 14:26:40.844741 52488 layer_factory.hpp:76] Creating layer loss2/conv
I0902 14:26:40.844760 52488 net.cpp:110] Creating Layer loss2/conv
I0902 14:26:40.844771 52488 net.cpp:477] loss2/conv <- loss2/ave_pool
I0902 14:26:40.844791 52488 net.cpp:433] loss2/conv -> loss2/conv
I0902 14:26:40.853195 52488 net.cpp:155] Setting up loss2/conv
I0902 14:26:40.853243 52488 net.cpp:163] Top shape: 32 128 4 4 (65536)
I0902 14:26:40.853263 52488 layer_factory.hpp:76] Creating layer loss2/relu_conv
I0902 14:26:40.853284 52488 net.cpp:110] Creating Layer loss2/relu_conv
I0902 14:26:40.853296 52488 net.cpp:477] loss2/relu_conv <- loss2/conv
I0902 14:26:40.853309 52488 net.cpp:419] loss2/relu_conv -> loss2/conv (in-place)
I0902 14:26:40.855499 52488 net.cpp:155] Setting up loss2/relu_conv
I0902 14:26:40.855535 52488 net.cpp:163] Top shape: 32 128 4 4 (65536)
I0902 14:26:40.855546 52488 layer_factory.hpp:76] Creating layer loss2/fc
I0902 14:26:40.855567 52488 net.cpp:110] Creating Layer loss2/fc
I0902 14:26:40.855577 52488 net.cpp:477] loss2/fc <- loss2/conv
I0902 14:26:40.855607 52488 net.cpp:433] loss2/fc -> loss2/fc
I0902 14:26:40.895823 52488 net.cpp:155] Setting up loss2/fc
I0902 14:26:40.895864 52488 net.cpp:163] Top shape: 32 1024 (32768)
I0902 14:26:40.895884 52488 layer_factory.hpp:76] Creating layer loss2/relu_fc
I0902 14:26:40.895915 52488 net.cpp:110] Creating Layer loss2/relu_fc
I0902 14:26:40.895926 52488 net.cpp:477] loss2/relu_fc <- loss2/fc
I0902 14:26:40.895943 52488 net.cpp:419] loss2/relu_fc -> loss2/fc (in-place)
I0902 14:26:40.897876 52488 net.cpp:155] Setting up loss2/relu_fc
I0902 14:26:40.897913 52488 net.cpp:163] Top shape: 32 1024 (32768)
I0902 14:26:40.897939 52488 layer_factory.hpp:76] Creating layer loss2/drop_fc
I0902 14:26:40.897958 52488 net.cpp:110] Creating Layer loss2/drop_fc
I0902 14:26:40.897968 52488 net.cpp:477] loss2/drop_fc <- loss2/fc
I0902 14:26:40.897980 52488 net.cpp:419] loss2/drop_fc -> loss2/fc (in-place)
I0902 14:26:40.898000 52488 net.cpp:155] Setting up loss2/drop_fc
I0902 14:26:40.898011 52488 net.cpp:163] Top shape: 32 1024 (32768)
I0902 14:26:40.898020 52488 layer_factory.hpp:76] Creating layer cub/loss2/classifier
I0902 14:26:40.898041 52488 net.cpp:110] Creating Layer cub/loss2/classifier
I0902 14:26:40.898049 52488 net.cpp:477] cub/loss2/classifier <- loss2/fc
I0902 14:26:40.898062 52488 net.cpp:433] cub/loss2/classifier -> loss2/classifier
I0902 14:26:40.902611 52488 net.cpp:155] Setting up cub/loss2/classifier
I0902 14:26:40.902643 52488 net.cpp:163] Top shape: 32 200 (6400)
I0902 14:26:40.902662 52488 layer_factory.hpp:76] Creating layer loss2/loss
I0902 14:26:40.902703 52488 net.cpp:110] Creating Layer loss2/loss
I0902 14:26:40.902715 52488 net.cpp:477] loss2/loss <- loss2/classifier
I0902 14:26:40.902729 52488 net.cpp:477] loss2/loss <- label_data_1_split_1
I0902 14:26:40.902743 52488 net.cpp:433] loss2/loss -> loss2/loss1
I0902 14:26:40.902765 52488 layer_factory.hpp:76] Creating layer loss2/loss
I0902 14:26:40.907629 52488 net.cpp:155] Setting up loss2/loss
I0902 14:26:40.907663 52488 net.cpp:163] Top shape: (1)
I0902 14:26:40.907701 52488 net.cpp:168]     with loss weight 0.3
I0902 14:26:40.907728 52488 layer_factory.hpp:76] Creating layer inception_4e/1x1
I0902 14:26:40.907781 52488 net.cpp:110] Creating Layer inception_4e/1x1
I0902 14:26:40.907793 52488 net.cpp:477] inception_4e/1x1 <- inception_4d/output_inception_4d/output_0_split_1
I0902 14:26:40.907811 52488 net.cpp:433] inception_4e/1x1 -> inception_4e/1x1
I0902 14:26:40.926715 52488 net.cpp:155] Setting up inception_4e/1x1
I0902 14:26:40.926744 52488 net.cpp:163] Top shape: 32 256 14 14 (1605632)
I0902 14:26:40.926762 52488 layer_factory.hpp:76] Creating layer inception_4e/relu_1x1
I0902 14:26:40.926772 52488 net.cpp:110] Creating Layer inception_4e/relu_1x1
I0902 14:26:40.926780 52488 net.cpp:477] inception_4e/relu_1x1 <- inception_4e/1x1
I0902 14:26:40.926789 52488 net.cpp:419] inception_4e/relu_1x1 -> inception_4e/1x1 (in-place)
I0902 14:26:40.928196 52488 net.cpp:155] Setting up inception_4e/relu_1x1
I0902 14:26:40.928220 52488 net.cpp:163] Top shape: 32 256 14 14 (1605632)
I0902 14:26:40.928227 52488 layer_factory.hpp:76] Creating layer inception_4e/3x3_reduce
I0902 14:26:40.928251 52488 net.cpp:110] Creating Layer inception_4e/3x3_reduce
I0902 14:26:40.928258 52488 net.cpp:477] inception_4e/3x3_reduce <- inception_4d/output_inception_4d/output_0_split_2
I0902 14:26:40.928268 52488 net.cpp:433] inception_4e/3x3_reduce -> inception_4e/3x3_reduce
I0902 14:26:40.933868 52488 net.cpp:155] Setting up inception_4e/3x3_reduce
I0902 14:26:40.933893 52488 net.cpp:163] Top shape: 32 160 14 14 (1003520)
I0902 14:26:40.933905 52488 layer_factory.hpp:76] Creating layer inception_4e/relu_3x3_reduce
I0902 14:26:40.933926 52488 net.cpp:110] Creating Layer inception_4e/relu_3x3_reduce
I0902 14:26:40.933934 52488 net.cpp:477] inception_4e/relu_3x3_reduce <- inception_4e/3x3_reduce
I0902 14:26:40.933946 52488 net.cpp:419] inception_4e/relu_3x3_reduce -> inception_4e/3x3_reduce (in-place)
I0902 14:26:40.935356 52488 net.cpp:155] Setting up inception_4e/relu_3x3_reduce
I0902 14:26:40.935382 52488 net.cpp:163] Top shape: 32 160 14 14 (1003520)
I0902 14:26:40.935390 52488 layer_factory.hpp:76] Creating layer inception_4e/3x3
I0902 14:26:40.935411 52488 net.cpp:110] Creating Layer inception_4e/3x3
I0902 14:26:40.935420 52488 net.cpp:477] inception_4e/3x3 <- inception_4e/3x3_reduce
I0902 14:26:40.935432 52488 net.cpp:433] inception_4e/3x3 -> inception_4e/3x3
I0902 14:26:40.945024 52488 net.cpp:155] Setting up inception_4e/3x3
I0902 14:26:40.945050 52488 net.cpp:163] Top shape: 32 320 14 14 (2007040)
I0902 14:26:40.945061 52488 layer_factory.hpp:76] Creating layer inception_4e/relu_3x3
I0902 14:26:40.945083 52488 net.cpp:110] Creating Layer inception_4e/relu_3x3
I0902 14:26:40.945091 52488 net.cpp:477] inception_4e/relu_3x3 <- inception_4e/3x3
I0902 14:26:40.945098 52488 net.cpp:419] inception_4e/relu_3x3 -> inception_4e/3x3 (in-place)
I0902 14:26:40.946353 52488 net.cpp:155] Setting up inception_4e/relu_3x3
I0902 14:26:40.946380 52488 net.cpp:163] Top shape: 32 320 14 14 (2007040)
I0902 14:26:40.946388 52488 layer_factory.hpp:76] Creating layer inception_4e/5x5_reduce
I0902 14:26:40.946403 52488 net.cpp:110] Creating Layer inception_4e/5x5_reduce
I0902 14:26:40.946410 52488 net.cpp:477] inception_4e/5x5_reduce <- inception_4d/output_inception_4d/output_0_split_3
I0902 14:26:40.946420 52488 net.cpp:433] inception_4e/5x5_reduce -> inception_4e/5x5_reduce
I0902 14:26:40.950528 52488 net.cpp:155] Setting up inception_4e/5x5_reduce
I0902 14:26:40.950552 52488 net.cpp:163] Top shape: 32 32 14 14 (200704)
I0902 14:26:40.950563 52488 layer_factory.hpp:76] Creating layer inception_4e/relu_5x5_reduce
I0902 14:26:40.950587 52488 net.cpp:110] Creating Layer inception_4e/relu_5x5_reduce
I0902 14:26:40.950593 52488 net.cpp:477] inception_4e/relu_5x5_reduce <- inception_4e/5x5_reduce
I0902 14:26:40.950604 52488 net.cpp:419] inception_4e/relu_5x5_reduce -> inception_4e/5x5_reduce (in-place)
I0902 14:26:40.951814 52488 net.cpp:155] Setting up inception_4e/relu_5x5_reduce
I0902 14:26:40.951854 52488 net.cpp:163] Top shape: 32 32 14 14 (200704)
I0902 14:26:40.951863 52488 layer_factory.hpp:76] Creating layer inception_4e/5x5
I0902 14:26:40.951901 52488 net.cpp:110] Creating Layer inception_4e/5x5
I0902 14:26:40.951910 52488 net.cpp:477] inception_4e/5x5 <- inception_4e/5x5_reduce
I0902 14:26:40.951920 52488 net.cpp:433] inception_4e/5x5 -> inception_4e/5x5
I0902 14:26:40.956712 52488 net.cpp:155] Setting up inception_4e/5x5
I0902 14:26:40.956739 52488 net.cpp:163] Top shape: 32 128 14 14 (802816)
I0902 14:26:40.956761 52488 layer_factory.hpp:76] Creating layer inception_4e/relu_5x5
I0902 14:26:40.956773 52488 net.cpp:110] Creating Layer inception_4e/relu_5x5
I0902 14:26:40.956779 52488 net.cpp:477] inception_4e/relu_5x5 <- inception_4e/5x5
I0902 14:26:40.956787 52488 net.cpp:419] inception_4e/relu_5x5 -> inception_4e/5x5 (in-place)
I0902 14:26:40.958168 52488 net.cpp:155] Setting up inception_4e/relu_5x5
I0902 14:26:40.958191 52488 net.cpp:163] Top shape: 32 128 14 14 (802816)
I0902 14:26:40.958199 52488 layer_factory.hpp:76] Creating layer inception_4e/pool
I0902 14:26:40.958214 52488 layer_factory.cpp:60] CUDNN does not support padding or multiple tops. Using Caffe's own pooling layer.
I0902 14:26:40.958225 52488 net.cpp:110] Creating Layer inception_4e/pool
I0902 14:26:40.958230 52488 net.cpp:477] inception_4e/pool <- inception_4d/output_inception_4d/output_0_split_4
I0902 14:26:40.958242 52488 net.cpp:433] inception_4e/pool -> inception_4e/pool
I0902 14:26:40.958256 52488 net.cpp:155] Setting up inception_4e/pool
I0902 14:26:40.958264 52488 net.cpp:163] Top shape: 32 528 14 14 (3311616)
I0902 14:26:40.958269 52488 layer_factory.hpp:76] Creating layer inception_4e/pool_proj
I0902 14:26:40.958279 52488 net.cpp:110] Creating Layer inception_4e/pool_proj
I0902 14:26:40.958287 52488 net.cpp:477] inception_4e/pool_proj <- inception_4e/pool
I0902 14:26:40.958295 52488 net.cpp:433] inception_4e/pool_proj -> inception_4e/pool_proj
I0902 14:26:40.962679 52488 net.cpp:155] Setting up inception_4e/pool_proj
I0902 14:26:40.962702 52488 net.cpp:163] Top shape: 32 128 14 14 (802816)
I0902 14:26:40.962714 52488 layer_factory.hpp:76] Creating layer inception_4e/relu_pool_proj
I0902 14:26:40.962740 52488 net.cpp:110] Creating Layer inception_4e/relu_pool_proj
I0902 14:26:40.962749 52488 net.cpp:477] inception_4e/relu_pool_proj <- inception_4e/pool_proj
I0902 14:26:40.962756 52488 net.cpp:419] inception_4e/relu_pool_proj -> inception_4e/pool_proj (in-place)
I0902 14:26:40.963945 52488 net.cpp:155] Setting up inception_4e/relu_pool_proj
I0902 14:26:40.963966 52488 net.cpp:163] Top shape: 32 128 14 14 (802816)
I0902 14:26:40.963982 52488 layer_factory.hpp:76] Creating layer inception_4e/output
I0902 14:26:40.963994 52488 net.cpp:110] Creating Layer inception_4e/output
I0902 14:26:40.963999 52488 net.cpp:477] inception_4e/output <- inception_4e/1x1
I0902 14:26:40.964007 52488 net.cpp:477] inception_4e/output <- inception_4e/3x3
I0902 14:26:40.964014 52488 net.cpp:477] inception_4e/output <- inception_4e/5x5
I0902 14:26:40.964020 52488 net.cpp:477] inception_4e/output <- inception_4e/pool_proj
I0902 14:26:40.964035 52488 net.cpp:433] inception_4e/output -> inception_4e/output
I0902 14:26:40.964047 52488 net.cpp:155] Setting up inception_4e/output
I0902 14:26:40.964054 52488 net.cpp:163] Top shape: 32 832 14 14 (5218304)
I0902 14:26:40.964061 52488 layer_factory.hpp:76] Creating layer pool4/3x3_s2
I0902 14:26:40.964076 52488 net.cpp:110] Creating Layer pool4/3x3_s2
I0902 14:26:40.964082 52488 net.cpp:477] pool4/3x3_s2 <- inception_4e/output
I0902 14:26:40.964095 52488 net.cpp:433] pool4/3x3_s2 -> pool4/3x3_s2
I0902 14:26:40.965307 52488 net.cpp:155] Setting up pool4/3x3_s2
I0902 14:26:40.965328 52488 net.cpp:163] Top shape: 32 832 7 7 (1304576)
I0902 14:26:40.965334 52488 layer_factory.hpp:76] Creating layer pool4/3x3_s2_pool4/3x3_s2_0_split
I0902 14:26:40.965348 52488 net.cpp:110] Creating Layer pool4/3x3_s2_pool4/3x3_s2_0_split
I0902 14:26:40.965356 52488 net.cpp:477] pool4/3x3_s2_pool4/3x3_s2_0_split <- pool4/3x3_s2
I0902 14:26:40.965387 52488 net.cpp:433] pool4/3x3_s2_pool4/3x3_s2_0_split -> pool4/3x3_s2_pool4/3x3_s2_0_split_0
I0902 14:26:40.965399 52488 net.cpp:433] pool4/3x3_s2_pool4/3x3_s2_0_split -> pool4/3x3_s2_pool4/3x3_s2_0_split_1
I0902 14:26:40.965409 52488 net.cpp:433] pool4/3x3_s2_pool4/3x3_s2_0_split -> pool4/3x3_s2_pool4/3x3_s2_0_split_2
I0902 14:26:40.965417 52488 net.cpp:433] pool4/3x3_s2_pool4/3x3_s2_0_split -> pool4/3x3_s2_pool4/3x3_s2_0_split_3
I0902 14:26:40.965427 52488 net.cpp:155] Setting up pool4/3x3_s2_pool4/3x3_s2_0_split
I0902 14:26:40.965435 52488 net.cpp:163] Top shape: 32 832 7 7 (1304576)
I0902 14:26:40.965440 52488 net.cpp:163] Top shape: 32 832 7 7 (1304576)
I0902 14:26:40.965446 52488 net.cpp:163] Top shape: 32 832 7 7 (1304576)
I0902 14:26:40.965451 52488 net.cpp:163] Top shape: 32 832 7 7 (1304576)
I0902 14:26:40.965456 52488 layer_factory.hpp:76] Creating layer inception_5a/1x1
I0902 14:26:40.965482 52488 net.cpp:110] Creating Layer inception_5a/1x1
I0902 14:26:40.965488 52488 net.cpp:477] inception_5a/1x1 <- pool4/3x3_s2_pool4/3x3_s2_0_split_0
I0902 14:26:40.965500 52488 net.cpp:433] inception_5a/1x1 -> inception_5a/1x1
I0902 14:26:40.972221 52488 net.cpp:155] Setting up inception_5a/1x1
I0902 14:26:40.972254 52488 net.cpp:163] Top shape: 32 256 7 7 (401408)
I0902 14:26:40.972275 52488 layer_factory.hpp:76] Creating layer inception_5a/relu_1x1
I0902 14:26:40.972286 52488 net.cpp:110] Creating Layer inception_5a/relu_1x1
I0902 14:26:40.972292 52488 net.cpp:477] inception_5a/relu_1x1 <- inception_5a/1x1
I0902 14:26:40.972301 52488 net.cpp:419] inception_5a/relu_1x1 -> inception_5a/1x1 (in-place)
I0902 14:26:40.973467 52488 net.cpp:155] Setting up inception_5a/relu_1x1
I0902 14:26:40.973489 52488 net.cpp:163] Top shape: 32 256 7 7 (401408)
I0902 14:26:40.973496 52488 layer_factory.hpp:76] Creating layer inception_5a/3x3_reduce
I0902 14:26:40.973508 52488 net.cpp:110] Creating Layer inception_5a/3x3_reduce
I0902 14:26:40.973515 52488 net.cpp:477] inception_5a/3x3_reduce <- pool4/3x3_s2_pool4/3x3_s2_0_split_1
I0902 14:26:40.973526 52488 net.cpp:433] inception_5a/3x3_reduce -> inception_5a/3x3_reduce
I0902 14:26:40.980191 52488 net.cpp:155] Setting up inception_5a/3x3_reduce
I0902 14:26:40.980221 52488 net.cpp:163] Top shape: 32 160 7 7 (250880)
I0902 14:26:40.980232 52488 layer_factory.hpp:76] Creating layer inception_5a/relu_3x3_reduce
I0902 14:26:40.980254 52488 net.cpp:110] Creating Layer inception_5a/relu_3x3_reduce
I0902 14:26:40.980262 52488 net.cpp:477] inception_5a/relu_3x3_reduce <- inception_5a/3x3_reduce
I0902 14:26:40.980270 52488 net.cpp:419] inception_5a/relu_3x3_reduce -> inception_5a/3x3_reduce (in-place)
I0902 14:26:40.981461 52488 net.cpp:155] Setting up inception_5a/relu_3x3_reduce
I0902 14:26:40.981482 52488 net.cpp:163] Top shape: 32 160 7 7 (250880)
I0902 14:26:40.981488 52488 layer_factory.hpp:76] Creating layer inception_5a/3x3
I0902 14:26:40.981499 52488 net.cpp:110] Creating Layer inception_5a/3x3
I0902 14:26:40.981505 52488 net.cpp:477] inception_5a/3x3 <- inception_5a/3x3_reduce
I0902 14:26:40.981518 52488 net.cpp:433] inception_5a/3x3 -> inception_5a/3x3
I0902 14:26:40.991289 52488 net.cpp:155] Setting up inception_5a/3x3
I0902 14:26:40.991312 52488 net.cpp:163] Top shape: 32 320 7 7 (501760)
I0902 14:26:40.991333 52488 layer_factory.hpp:76] Creating layer inception_5a/relu_3x3
I0902 14:26:40.991345 52488 net.cpp:110] Creating Layer inception_5a/relu_3x3
I0902 14:26:40.991351 52488 net.cpp:477] inception_5a/relu_3x3 <- inception_5a/3x3
I0902 14:26:40.991359 52488 net.cpp:419] inception_5a/relu_3x3 -> inception_5a/3x3 (in-place)
I0902 14:26:41.000454 52488 net.cpp:155] Setting up inception_5a/relu_3x3
I0902 14:26:41.000476 52488 net.cpp:163] Top shape: 32 320 7 7 (501760)
I0902 14:26:41.000483 52488 layer_factory.hpp:76] Creating layer inception_5a/5x5_reduce
I0902 14:26:41.000497 52488 net.cpp:110] Creating Layer inception_5a/5x5_reduce
I0902 14:26:41.000504 52488 net.cpp:477] inception_5a/5x5_reduce <- pool4/3x3_s2_pool4/3x3_s2_0_split_2
I0902 14:26:41.000514 52488 net.cpp:433] inception_5a/5x5_reduce -> inception_5a/5x5_reduce
I0902 14:26:41.011766 52488 net.cpp:155] Setting up inception_5a/5x5_reduce
I0902 14:26:41.011796 52488 net.cpp:163] Top shape: 32 32 7 7 (50176)
I0902 14:26:41.011806 52488 layer_factory.hpp:76] Creating layer inception_5a/relu_5x5_reduce
I0902 14:26:41.011826 52488 net.cpp:110] Creating Layer inception_5a/relu_5x5_reduce
I0902 14:26:41.011833 52488 net.cpp:477] inception_5a/relu_5x5_reduce <- inception_5a/5x5_reduce
I0902 14:26:41.011844 52488 net.cpp:419] inception_5a/relu_5x5_reduce -> inception_5a/5x5_reduce (in-place)
I0902 14:26:41.020666 52488 net.cpp:155] Setting up inception_5a/relu_5x5_reduce
I0902 14:26:41.020709 52488 net.cpp:163] Top shape: 32 32 7 7 (50176)
I0902 14:26:41.020722 52488 layer_factory.hpp:76] Creating layer inception_5a/5x5
I0902 14:26:41.020746 52488 net.cpp:110] Creating Layer inception_5a/5x5
I0902 14:26:41.020761 52488 net.cpp:477] inception_5a/5x5 <- inception_5a/5x5_reduce
I0902 14:26:41.020781 52488 net.cpp:433] inception_5a/5x5 -> inception_5a/5x5
I0902 14:26:41.039090 52488 net.cpp:155] Setting up inception_5a/5x5
I0902 14:26:41.039125 52488 net.cpp:163] Top shape: 32 128 7 7 (200704)
I0902 14:26:41.039149 52488 layer_factory.hpp:76] Creating layer inception_5a/relu_5x5
I0902 14:26:41.039168 52488 net.cpp:110] Creating Layer inception_5a/relu_5x5
I0902 14:26:41.039180 52488 net.cpp:477] inception_5a/relu_5x5 <- inception_5a/5x5
I0902 14:26:41.039193 52488 net.cpp:419] inception_5a/relu_5x5 -> inception_5a/5x5 (in-place)
I0902 14:26:41.041005 52488 net.cpp:155] Setting up inception_5a/relu_5x5
I0902 14:26:41.041038 52488 net.cpp:163] Top shape: 32 128 7 7 (200704)
I0902 14:26:41.041049 52488 layer_factory.hpp:76] Creating layer inception_5a/pool
I0902 14:26:41.041064 52488 layer_factory.cpp:60] CUDNN does not support padding or multiple tops. Using Caffe's own pooling layer.
I0902 14:26:41.041076 52488 net.cpp:110] Creating Layer inception_5a/pool
I0902 14:26:41.041088 52488 net.cpp:477] inception_5a/pool <- pool4/3x3_s2_pool4/3x3_s2_0_split_3
I0902 14:26:41.041107 52488 net.cpp:433] inception_5a/pool -> inception_5a/pool
I0902 14:26:41.041131 52488 net.cpp:155] Setting up inception_5a/pool
I0902 14:26:41.041143 52488 net.cpp:163] Top shape: 32 832 7 7 (1304576)
I0902 14:26:41.041152 52488 layer_factory.hpp:76] Creating layer inception_5a/pool_proj
I0902 14:26:41.041172 52488 net.cpp:110] Creating Layer inception_5a/pool_proj
I0902 14:26:41.041182 52488 net.cpp:477] inception_5a/pool_proj <- inception_5a/pool
I0902 14:26:41.041195 52488 net.cpp:433] inception_5a/pool_proj -> inception_5a/pool_proj
I0902 14:26:41.049733 52488 net.cpp:155] Setting up inception_5a/pool_proj
I0902 14:26:41.049768 52488 net.cpp:163] Top shape: 32 128 7 7 (200704)
I0902 14:26:41.049787 52488 layer_factory.hpp:76] Creating layer inception_5a/relu_pool_proj
I0902 14:26:41.049818 52488 net.cpp:110] Creating Layer inception_5a/relu_pool_proj
I0902 14:26:41.049830 52488 net.cpp:477] inception_5a/relu_pool_proj <- inception_5a/pool_proj
I0902 14:26:41.049844 52488 net.cpp:419] inception_5a/relu_pool_proj -> inception_5a/pool_proj (in-place)
I0902 14:26:41.051641 52488 net.cpp:155] Setting up inception_5a/relu_pool_proj
I0902 14:26:41.051676 52488 net.cpp:163] Top shape: 32 128 7 7 (200704)
I0902 14:26:41.051692 52488 layer_factory.hpp:76] Creating layer inception_5a/output
I0902 14:26:41.051709 52488 net.cpp:110] Creating Layer inception_5a/output
I0902 14:26:41.051719 52488 net.cpp:477] inception_5a/output <- inception_5a/1x1
I0902 14:26:41.051733 52488 net.cpp:477] inception_5a/output <- inception_5a/3x3
I0902 14:26:41.051743 52488 net.cpp:477] inception_5a/output <- inception_5a/5x5
I0902 14:26:41.051754 52488 net.cpp:477] inception_5a/output <- inception_5a/pool_proj
I0902 14:26:41.051767 52488 net.cpp:433] inception_5a/output -> inception_5a/output
I0902 14:26:41.051786 52488 net.cpp:155] Setting up inception_5a/output
I0902 14:26:41.051800 52488 net.cpp:163] Top shape: 32 832 7 7 (1304576)
I0902 14:26:41.051807 52488 layer_factory.hpp:76] Creating layer inception_5a/output_inception_5a/output_0_split
I0902 14:26:41.051851 52488 net.cpp:110] Creating Layer inception_5a/output_inception_5a/output_0_split
I0902 14:26:41.051862 52488 net.cpp:477] inception_5a/output_inception_5a/output_0_split <- inception_5a/output
I0902 14:26:41.051880 52488 net.cpp:433] inception_5a/output_inception_5a/output_0_split -> inception_5a/output_inception_5a/output_0_split_0
I0902 14:26:41.051898 52488 net.cpp:433] inception_5a/output_inception_5a/output_0_split -> inception_5a/output_inception_5a/output_0_split_1
I0902 14:26:41.051913 52488 net.cpp:433] inception_5a/output_inception_5a/output_0_split -> inception_5a/output_inception_5a/output_0_split_2
I0902 14:26:41.051928 52488 net.cpp:433] inception_5a/output_inception_5a/output_0_split -> inception_5a/output_inception_5a/output_0_split_3
I0902 14:26:41.051949 52488 net.cpp:155] Setting up inception_5a/output_inception_5a/output_0_split
I0902 14:26:41.051960 52488 net.cpp:163] Top shape: 32 832 7 7 (1304576)
I0902 14:26:41.051970 52488 net.cpp:163] Top shape: 32 832 7 7 (1304576)
I0902 14:26:41.051981 52488 net.cpp:163] Top shape: 32 832 7 7 (1304576)
I0902 14:26:41.051990 52488 net.cpp:163] Top shape: 32 832 7 7 (1304576)
I0902 14:26:41.052000 52488 layer_factory.hpp:76] Creating layer inception_5b/1x1
I0902 14:26:41.052014 52488 net.cpp:110] Creating Layer inception_5b/1x1
I0902 14:26:41.052023 52488 net.cpp:477] inception_5b/1x1 <- inception_5a/output_inception_5a/output_0_split_0
I0902 14:26:41.052042 52488 net.cpp:433] inception_5b/1x1 -> inception_5b/1x1
I0902 14:26:41.064136 52488 net.cpp:155] Setting up inception_5b/1x1
I0902 14:26:41.064175 52488 net.cpp:163] Top shape: 32 384 7 7 (602112)
I0902 14:26:41.064194 52488 layer_factory.hpp:76] Creating layer inception_5b/relu_1x1
I0902 14:26:41.064210 52488 net.cpp:110] Creating Layer inception_5b/relu_1x1
I0902 14:26:41.064220 52488 net.cpp:477] inception_5b/relu_1x1 <- inception_5b/1x1
I0902 14:26:41.064234 52488 net.cpp:419] inception_5b/relu_1x1 -> inception_5b/1x1 (in-place)
I0902 14:26:41.066303 52488 net.cpp:155] Setting up inception_5b/relu_1x1
I0902 14:26:41.066334 52488 net.cpp:163] Top shape: 32 384 7 7 (602112)
I0902 14:26:41.066349 52488 layer_factory.hpp:76] Creating layer inception_5b/3x3_reduce
I0902 14:26:41.066372 52488 net.cpp:110] Creating Layer inception_5b/3x3_reduce
I0902 14:26:41.066383 52488 net.cpp:477] inception_5b/3x3_reduce <- inception_5a/output_inception_5a/output_0_split_1
I0902 14:26:41.066400 52488 net.cpp:433] inception_5b/3x3_reduce -> inception_5b/3x3_reduce
I0902 14:26:41.075603 52488 net.cpp:155] Setting up inception_5b/3x3_reduce
I0902 14:26:41.075635 52488 net.cpp:163] Top shape: 32 192 7 7 (301056)
I0902 14:26:41.075654 52488 layer_factory.hpp:76] Creating layer inception_5b/relu_3x3_reduce
I0902 14:26:41.075670 52488 net.cpp:110] Creating Layer inception_5b/relu_3x3_reduce
I0902 14:26:41.075681 52488 net.cpp:477] inception_5b/relu_3x3_reduce <- inception_5b/3x3_reduce
I0902 14:26:41.075698 52488 net.cpp:419] inception_5b/relu_3x3_reduce -> inception_5b/3x3_reduce (in-place)
I0902 14:26:41.077509 52488 net.cpp:155] Setting up inception_5b/relu_3x3_reduce
I0902 14:26:41.077539 52488 net.cpp:163] Top shape: 32 192 7 7 (301056)
I0902 14:26:41.077554 52488 layer_factory.hpp:76] Creating layer inception_5b/3x3
I0902 14:26:41.077572 52488 net.cpp:110] Creating Layer inception_5b/3x3
I0902 14:26:41.077582 52488 net.cpp:477] inception_5b/3x3 <- inception_5b/3x3_reduce
I0902 14:26:41.077601 52488 net.cpp:433] inception_5b/3x3 -> inception_5b/3x3
I0902 14:26:41.095999 52488 net.cpp:155] Setting up inception_5b/3x3
I0902 14:26:41.096034 52488 net.cpp:163] Top shape: 32 384 7 7 (602112)
I0902 14:26:41.096052 52488 layer_factory.hpp:76] Creating layer inception_5b/relu_3x3
I0902 14:26:41.096074 52488 net.cpp:110] Creating Layer inception_5b/relu_3x3
I0902 14:26:41.096086 52488 net.cpp:477] inception_5b/relu_3x3 <- inception_5b/3x3
I0902 14:26:41.096102 52488 net.cpp:419] inception_5b/relu_3x3 -> inception_5b/3x3 (in-place)
I0902 14:26:41.098053 52488 net.cpp:155] Setting up inception_5b/relu_3x3
I0902 14:26:41.098085 52488 net.cpp:163] Top shape: 32 384 7 7 (602112)
I0902 14:26:41.098098 52488 layer_factory.hpp:76] Creating layer inception_5b/5x5_reduce
I0902 14:26:41.098119 52488 net.cpp:110] Creating Layer inception_5b/5x5_reduce
I0902 14:26:41.098129 52488 net.cpp:477] inception_5b/5x5_reduce <- inception_5a/output_inception_5a/output_0_split_2
I0902 14:26:41.098148 52488 net.cpp:433] inception_5b/5x5_reduce -> inception_5b/5x5_reduce
I0902 14:26:41.108064 52488 net.cpp:155] Setting up inception_5b/5x5_reduce
I0902 14:26:41.108098 52488 net.cpp:163] Top shape: 32 48 7 7 (75264)
I0902 14:26:41.108121 52488 layer_factory.hpp:76] Creating layer inception_5b/relu_5x5_reduce
I0902 14:26:41.108136 52488 net.cpp:110] Creating Layer inception_5b/relu_5x5_reduce
I0902 14:26:41.108147 52488 net.cpp:477] inception_5b/relu_5x5_reduce <- inception_5b/5x5_reduce
I0902 14:26:41.108160 52488 net.cpp:419] inception_5b/relu_5x5_reduce -> inception_5b/5x5_reduce (in-place)
I0902 14:26:41.112534 52488 net.cpp:155] Setting up inception_5b/relu_5x5_reduce
I0902 14:26:41.112565 52488 net.cpp:163] Top shape: 32 48 7 7 (75264)
I0902 14:26:41.112577 52488 layer_factory.hpp:76] Creating layer inception_5b/5x5
I0902 14:26:41.112602 52488 net.cpp:110] Creating Layer inception_5b/5x5
I0902 14:26:41.112613 52488 net.cpp:477] inception_5b/5x5 <- inception_5b/5x5_reduce
I0902 14:26:41.112629 52488 net.cpp:433] inception_5b/5x5 -> inception_5b/5x5
I0902 14:26:41.172965 52488 net.cpp:155] Setting up inception_5b/5x5
I0902 14:26:41.172998 52488 net.cpp:163] Top shape: 32 128 7 7 (200704)
I0902 14:26:41.173017 52488 layer_factory.hpp:76] Creating layer inception_5b/relu_5x5
I0902 14:26:41.173037 52488 net.cpp:110] Creating Layer inception_5b/relu_5x5
I0902 14:26:41.173048 52488 net.cpp:477] inception_5b/relu_5x5 <- inception_5b/5x5
I0902 14:26:41.173064 52488 net.cpp:419] inception_5b/relu_5x5 -> inception_5b/5x5 (in-place)
I0902 14:26:41.175549 52488 net.cpp:155] Setting up inception_5b/relu_5x5
I0902 14:26:41.175581 52488 net.cpp:163] Top shape: 32 128 7 7 (200704)
I0902 14:26:41.175593 52488 layer_factory.hpp:76] Creating layer inception_5b/pool
I0902 14:26:41.175604 52488 layer_factory.cpp:60] CUDNN does not support padding or multiple tops. Using Caffe's own pooling layer.
I0902 14:26:41.175617 52488 net.cpp:110] Creating Layer inception_5b/pool
I0902 14:26:41.175628 52488 net.cpp:477] inception_5b/pool <- inception_5a/output_inception_5a/output_0_split_3
I0902 14:26:41.175647 52488 net.cpp:433] inception_5b/pool -> inception_5b/pool
I0902 14:26:41.175668 52488 net.cpp:155] Setting up inception_5b/pool
I0902 14:26:41.175679 52488 net.cpp:163] Top shape: 32 832 7 7 (1304576)
I0902 14:26:41.175688 52488 layer_factory.hpp:76] Creating layer inception_5b/pool_proj
I0902 14:26:41.175704 52488 net.cpp:110] Creating Layer inception_5b/pool_proj
I0902 14:26:41.175714 52488 net.cpp:477] inception_5b/pool_proj <- inception_5b/pool
I0902 14:26:41.175730 52488 net.cpp:433] inception_5b/pool_proj -> inception_5b/pool_proj
I0902 14:26:41.237537 52488 net.cpp:155] Setting up inception_5b/pool_proj
I0902 14:26:41.237571 52488 net.cpp:163] Top shape: 32 128 7 7 (200704)
I0902 14:26:41.237589 52488 layer_factory.hpp:76] Creating layer inception_5b/relu_pool_proj
I0902 14:26:41.237612 52488 net.cpp:110] Creating Layer inception_5b/relu_pool_proj
I0902 14:26:41.237623 52488 net.cpp:477] inception_5b/relu_pool_proj <- inception_5b/pool_proj
I0902 14:26:41.237637 52488 net.cpp:419] inception_5b/relu_pool_proj -> inception_5b/pool_proj (in-place)
I0902 14:26:41.239521 52488 net.cpp:155] Setting up inception_5b/relu_pool_proj
I0902 14:26:41.239553 52488 net.cpp:163] Top shape: 32 128 7 7 (200704)
I0902 14:26:41.239565 52488 layer_factory.hpp:76] Creating layer inception_5b/output
I0902 14:26:41.239580 52488 net.cpp:110] Creating Layer inception_5b/output
I0902 14:26:41.239590 52488 net.cpp:477] inception_5b/output <- inception_5b/1x1
I0902 14:26:41.239603 52488 net.cpp:477] inception_5b/output <- inception_5b/3x3
I0902 14:26:41.239639 52488 net.cpp:477] inception_5b/output <- inception_5b/5x5
I0902 14:26:41.239651 52488 net.cpp:477] inception_5b/output <- inception_5b/pool_proj
I0902 14:26:41.239668 52488 net.cpp:433] inception_5b/output -> inception_5b/output
I0902 14:26:41.239688 52488 net.cpp:155] Setting up inception_5b/output
I0902 14:26:41.239701 52488 net.cpp:163] Top shape: 32 1024 7 7 (1605632)
I0902 14:26:41.239711 52488 layer_factory.hpp:76] Creating layer pool5/7x7_s1
I0902 14:26:41.239724 52488 net.cpp:110] Creating Layer pool5/7x7_s1
I0902 14:26:41.239734 52488 net.cpp:477] pool5/7x7_s1 <- inception_5b/output
I0902 14:26:41.239750 52488 net.cpp:433] pool5/7x7_s1 -> pool5/7x7_s1
I0902 14:26:41.292413 52488 net.cpp:155] Setting up pool5/7x7_s1
I0902 14:26:41.292445 52488 net.cpp:163] Top shape: 32 1024 1 1 (32768)
I0902 14:26:41.292457 52488 layer_factory.hpp:76] Creating layer pool5/drop_7x7_s1
I0902 14:26:41.292481 52488 net.cpp:110] Creating Layer pool5/drop_7x7_s1
I0902 14:26:41.292492 52488 net.cpp:477] pool5/drop_7x7_s1 <- pool5/7x7_s1
I0902 14:26:41.292505 52488 net.cpp:419] pool5/drop_7x7_s1 -> pool5/7x7_s1 (in-place)
I0902 14:26:41.292527 52488 net.cpp:155] Setting up pool5/drop_7x7_s1
I0902 14:26:41.292539 52488 net.cpp:163] Top shape: 32 1024 1 1 (32768)
I0902 14:26:41.292548 52488 layer_factory.hpp:76] Creating layer cub/loss3/classifier
I0902 14:26:41.292563 52488 net.cpp:110] Creating Layer cub/loss3/classifier
I0902 14:26:41.292572 52488 net.cpp:477] cub/loss3/classifier <- pool5/7x7_s1
I0902 14:26:41.292584 52488 net.cpp:433] cub/loss3/classifier -> loss3/classifier
I0902 14:26:41.297034 52488 net.cpp:155] Setting up cub/loss3/classifier
I0902 14:26:41.297065 52488 net.cpp:163] Top shape: 32 200 (6400)
I0902 14:26:41.297082 52488 layer_factory.hpp:76] Creating layer loss3/classifier_cub/loss3/classifier_0_split
I0902 14:26:41.297097 52488 net.cpp:110] Creating Layer loss3/classifier_cub/loss3/classifier_0_split
I0902 14:26:41.297107 52488 net.cpp:477] loss3/classifier_cub/loss3/classifier_0_split <- loss3/classifier
I0902 14:26:41.297122 52488 net.cpp:433] loss3/classifier_cub/loss3/classifier_0_split -> loss3/classifier_cub/loss3/classifier_0_split_0
I0902 14:26:41.297142 52488 net.cpp:433] loss3/classifier_cub/loss3/classifier_0_split -> loss3/classifier_cub/loss3/classifier_0_split_1
I0902 14:26:41.297158 52488 net.cpp:433] loss3/classifier_cub/loss3/classifier_0_split -> loss3/classifier_cub/loss3/classifier_0_split_2
I0902 14:26:41.297174 52488 net.cpp:155] Setting up loss3/classifier_cub/loss3/classifier_0_split
I0902 14:26:41.297185 52488 net.cpp:163] Top shape: 32 200 (6400)
I0902 14:26:41.297195 52488 net.cpp:163] Top shape: 32 200 (6400)
I0902 14:26:41.297205 52488 net.cpp:163] Top shape: 32 200 (6400)
I0902 14:26:41.297214 52488 layer_factory.hpp:76] Creating layer loss3/loss3
I0902 14:26:41.297227 52488 net.cpp:110] Creating Layer loss3/loss3
I0902 14:26:41.297236 52488 net.cpp:477] loss3/loss3 <- loss3/classifier_cub/loss3/classifier_0_split_0
I0902 14:26:41.297247 52488 net.cpp:477] loss3/loss3 <- label_data_1_split_2
I0902 14:26:41.297263 52488 net.cpp:433] loss3/loss3 -> loss3/loss3
…
I0902 14:26:41.312165 52488 net.cpp:339] The NetState phase (1) differed from the phase (0) specified by a rule in layer data
I0902 14:26:41.314430 52488 net.cpp:50] Initializing net from parameters: 
name: "CUB_GoogleNet"
state {
  phase: TEST
}
layer {
  name: "data"
  type: "ImageData"
  top: "data"
  top: "label"
  include {
    phase: TEST
  }
  transform_param {
    mirror: false
    crop_size: 224
    mean_value: 104
    mean_value: 117
    mean_value: 123
  }
  image_data_param {
    source: "data/CUB_200_2011/val_files.txt"
    batch_size: 32
    new_height: 256
    new_width: 256
  }
}
layer {
  name: "conv1/7x7_s2"
  type: "Convolution"
  bottom: "data"
  top: "conv1/7x7_s2"
  param {
    lr_mult: 1
    decay_mult: 1
  }
  param {
    lr_mult: 2
    decay_mult: 0
  }
  convolution_param {
    num_output: 64
    pad: 3
    kernel_size: 7
    stride: 2
    weight_filler {
      type: "xavier"
    }
    bias_filler {
      type: "constant"
      value: 0.2
    }
  }
}
layer {
  name: "conv1/relu_7x7"
  type: "ReLU"
  bottom: "conv1/7x7_s2"
  top: "conv1/7x7_s2"
}
layer {
  name: "pool1/3x3_s2"
  type: "Pooling"
  bottom: "conv1/7x7_s2"
  top: "pool1/3x3_s2"
  pooling_param {
    pool: MAX
    kernel_size: 3
    stride: 2
  }
}
layer {
  name: "pool1/norm1"
  type: "LRN"
  bottom: "pool1/3x3_s2"
  top: "pool1/norm1"
  lrn_param {
    local_size: 5
    alpha: 0.0001
    beta: 0.75
  }
}
layer {
  name: "conv2/3x3_reduce"
  type: "Convolution"
  bottom: "pool1/norm1"
  top: "conv2/3x3_reduce"
  param {
    lr_mult: 1
    decay_mult: 1
  }
  param {
    lr_mult: 2
    decay_mult: 0
  }
  convolution_param {
    num_output: 64
    kernel_size: 1
    weight_filler {
      type: "xavier"
    }
    bias_filler {
      type: "constant"
      value: 0.2
    }
  }
}
layer {
  name: "conv2/relu_3x3_reduce"
  type: "ReLU"
  bottom: "conv2/3x3_reduce"
  top: "conv2/3x3_reduce"
}
layer {
  name: "conv2/3x3"
  type: "Convolution"
  bottom: "conv2/3x3_reduce"
  top: "conv2/3x3"
  param {
    lr_mult: 1
    decay_mult: 1
  }
  param {
    lr_mult: 2
    decay_mult: 0
  }
  convolution_param {
    num_output: 192
    pad: 1
    kernel_size: 3
    weight_filler {
      type: "xavier"
    }
    bias_filler {
      type: "constant"
      value: 0.2
    }
  }
}
layer {
  name: "conv2/relu_3x3"
  type: "ReLU"
  bottom: "conv2/3x3"
  top: "conv2/3x3"
}
layer {
  name: "conv2/norm2"
  type: "LRN"
  bottom: "conv2/3x3"
  top: "conv2/norm2"
  lrn_param {
    local_size: 5
    alpha: 0.0001
    beta: 0.75
  }
}
layer {
  name: "pool2/3x3_s2"
  type: "Pooling"
  bottom: "conv2/norm2"
  top: "pool2/3x3_s2"
  pooling_param {
    pool: MAX
    kernel_size: 3
    stride: 2
  }
}
layer {
  name: "inception_3a/1x1"
  type: "Convolution"
  bottom: "pool2/3x3_s2"
  top: "inception_3a/1x1"
  param {
    lr_mult: 1
    decay_mult: 1
  }
  param {
    lr_mult: 2
    decay_mult: 0
  }
  convolution_param {
    num_output: 64
    kernel_size: 1
    weight_filler {
      type: "xavier"
    }
    bias_filler {
      type: "constant"
      value: 0.2
    }
  }
}
layer {
  name: "inception_3a/relu_1x1"
  type: "ReLU"
  bottom: "inception_3a/1x1"
  top: "inception_3a/1x1"
}
layer {
  name: "inception_3a/3x3_reduce"
  type: "Convolution"
  bottom: "pool2/3x3_s2"
  top: "inception_3a/3x3_reduce"
  param {
    lr_mult: 1
    decay_mult: 1
  }
  param {
    lr_mult: 2
    decay_mult: 0
  }
  convolution_param {
    num_output: 96
    kernel_size: 1
    weight_filler {
      type: "xavier"
    }
    bias_filler {
      type: "constant"
      value: 0.2
    }
  }
}
layer {
  name: "inception_3a/relu_3x3_reduce"
  type: "ReLU"
  bottom: "inception_3a/3x3_reduce"
  top: "inception_3a/3x3_reduce"
}
layer {
  name: "inception_3a/3x3"
  type: "Convolution"
  bottom: "inception_3a/3x3_reduce"
  top: "inception_3a/3x3"
  param {
    lr_mult: 1
    decay_mult: 1
  }
  param {
    lr_mult: 2
    decay_mult: 0
  }
  convolution_param {
    num_output: 128
    pad: 1
    kernel_size: 3
    weight_filler {
      type: "xavier"
    }
    bias_filler {
      type: "constant"
      value: 0.2
    }
  }
}
layer {
  name: "inception_3a/relu_3x3"
  type: "ReLU"
  bottom: "inception_3a/3x3"
  top: "inception_3a/3x3"
}
layer {
  name: "inception_3a/5x5_reduce"
  type: "Convolution"
  bottom: "pool2/3x3_s2"
  top: "inception_3a/5x5_reduce"
  param {
    lr_mult: 1
    decay_mult: 1
  }
  param {
    lr_mult: 2
    decay_mult: 0
  }
  convolution_param {
    num_output: 16
    kernel_size: 1
    weight_filler {
      type: "xavier"
    }
    bias_filler {
      type: "constant"
      value: 0.2
    }
  }
}
layer {
  name: "inception_3a/relu_5x5_reduce"
  type: "ReLU"
  bottom: "inception_3a/5x5_reduce"
  top: "inception_3a/5x5_reduce"
}
layer {
  name: "inception_3a/5x5"
  type: "Convolution"
  bottom: "inception_3a/5x5_reduce"
  top: "inception_3a/5x5"
  param {
    lr_mult: 1
    decay_mult: 1
  }
  param {
    lr_mult: 2
    decay_mult: 0
  }
  convolution_param {
    num_output: 32
    pad: 2
    kernel_size: 5
    weight_filler {
      type: "xavier"
    }
    bias_filler {
      type: "constant"
      value: 0.2
    }
  }
}
layer {
  name: "inception_3a/relu_5x5"
  type: "ReLU"
  bottom: "inception_3a/5x5"
  top: "inception_3a/5x5"
}
layer {
  name: "inception_3a/pool"
  type: "Pooling"
  bottom: "pool2/3x3_s2"
  top: "inception_3a/pool"
  pooling_param {
    pool: MAX
    kernel_size: 3
    stride: 1
    pad: 1
  }
}
layer {
  name: "inception_3a/pool_proj"
  type: "Convolution"
  bottom: "inception_3a/pool"
  top: "inception_3a/pool_proj"
  param {
    lr_mult: 1
    decay_mult: 1
  }
  param {
    lr_mult: 2
    decay_mult: 0
  }
  convolution_param {
    num_output: 32
    kernel_size: 1
    weight_filler {
      type: "xavier"
    }
    bias_filler {
      type: "constant"
      value: 0.2
    }
  }
}
layer {
  name: "inception_3a/relu_pool_proj"
  type: "ReLU"
  bottom: "inception_3a/pool_proj"
  top: "inception_3a/pool_proj"
}
layer {
  name: "inception_3a/output"
  type: "Concat"
  bottom: "inception_3a/1x1"
  bottom: "inception_3a/3x3"
  bottom: "inception_3a/5x5"
  bottom: "inception_3a/pool_proj"
  top: "inception_3a/output"
}
layer {
  name: "inception_3b/1x1"
  type: "Convolution"
  bottom: "inception_3a/output"
  top: "inception_3b/1x1"
  param {
    lr_mult: 1
    decay_mult: 1
  }
  param {
    lr_mult: 2
    decay_mult: 0
  }
  convolution_param {
    num_output: 128
    kernel_size: 1
    weight_filler {
      type: "xavier"
    }
    bias_filler {
      type: "constant"
      value: 0.2
    }
  }
}
layer {
  name: "inception_3b/relu_1x1"
  type: "ReLU"
  bottom: "inception_3b/1x1"
  top: "inception_3b/1x1"
}
layer {
  name: "inception_3b/3x3_reduce"
  type: "Convolution"
  bottom: "inception_3a/output"
  top: "inception_3b/3x3_reduce"
  param {
    lr_mult: 1
    decay_mult: 1
  }
  param {
    lr_mult: 2
    decay_mult: 0
  }
  convolution_param {
    num_output: 128
    kernel_size: 1
    weight_filler {
      type: "xavier"
    }
    bias_filler {
      type: "constant"
      value: 0.2
    }
  }
}
layer {
  name: "inception_3b/relu_3x3_reduce"
  type: "ReLU"
  bottom: "inception_3b/3x3_reduce"
  top: "inception_3b/3x3_reduce"
}
layer {
  name: "inception_3b/3x3"
  type: "Convolution"
  bottom: "inception_3b/3x3_reduce"
  top: "inception_3b/3x3"
  param {
    lr_mult: 1
    decay_mult: 1
  }
  param {
    lr_mult: 2
    decay_mult: 0
  }
  convolution_param {
    num_output: 192
    pad: 1
    kernel_size: 3
    weight_filler {
      type: "xavier"
    }
    bias_filler {
      type: "constant"
      value: 0.2
    }
  }
}
layer {
  name: "inception_3b/relu_3x3"
  type: "ReLU"
  bottom: "inception_3b/3x3"
  top: "inception_3b/3x3"
}
layer {
  name: "inception_3b/5x5_reduce"
  type: "Convolution"
  bottom: "inception_3a/output"
  top: "inception_3b/5x5_reduce"
  param {
    lr_mult: 1
    decay_mult: 1
  }
  param {
    lr_mult: 2
    decay_mult: 0
  }
  convolution_param {
    num_output: 32
    kernel_size: 1
    weight_filler {
      type: "xavier"
    }
    bias_filler {
      type: "constant"
      value: 0.2
    }
  }
}
layer {
  name: "inception_3b/relu_5x5_reduce"
  type: "ReLU"
  bottom: "inception_3b/5x5_reduce"
  top: "inception_3b/5x5_reduce"
}
layer {
  name: "inception_3b/5x5"
  type: "Convolution"
  bottom: "inception_3b/5x5_reduce"
  top: "inception_3b/5x5"
  param {
    lr_mult: 1
    decay_mult: 1
  }
  param {
    lr_mult: 2
    decay_mult: 0
  }
  convolution_param {
    num_output: 96
    pad: 2
    kernel_size: 5
    weight_filler {
      type: "xavier"
    }
    bias_filler {
      type: "constant"
      value: 0.2
    }
  }
}
layer {
  name: "inception_3b/relu_5x5"
  type: "ReLU"
  bottom: "inception_3b/5x5"
  top: "inception_3b/5x5"
}
layer {
  name: "inception_3b/pool"
  type: "Pooling"
  bottom: "inception_3a/output"
  top: "inception_3b/pool"
  pooling_param {
    pool: MAX
    kernel_size: 3
    stride: 1
    pad: 1
  }
}
layer {
  name: "inception_3b/pool_proj"
  type: "Convolution"
  bottom: "inception_3b/pool"
  top: "inception_3b/pool_proj"
  param {
    lr_mult: 1
    decay_mult: 1
  }
  param {
    lr_mult: 2
    decay_mult: 0
  }
  convolution_param {
    num_output: 64
    kernel_size: 1
    weight_filler {
      type: "xavier"
    }
    bias_filler {
      type: "constant"
      value: 0.2
    }
  }
}
layer {
  name: "inception_3b/relu_pool_proj"
  type: "ReLU"
  bottom: "inception_3b/pool_proj"
  top: "inception_3b/pool_proj"
}
layer {
  name: "inception_3b/output"
  type: "Concat"
  bottom: "inception_3b/1x1"
  bottom: "inception_3b/3x3"
  bottom: "inception_3b/5x5"
  bottom: "inception_3b/pool_proj"
  top: "inception_3b/output"
}
layer {
  name: "pool3/3x3_s2"
  type: "Pooling"
  bottom: "inception_3b/output"
  top: "pool3/3x3_s2"
  pooling_param {
    pool: MAX
    kernel_size: 3
    stride: 2
  }
}
layer {
  name: "inception_4a/1x1"
  type: "Convolution"
  bottom: "pool3/3x3_s2"
  top: "inception_4a/1x1"
  param {
    lr_mult: 1
    decay_mult: 1
  }
  param {
    lr_mult: 2
    decay_mult: 0
  }
  convolution_param {
    num_output: 192
    kernel_size: 1
    weight_filler {
      type: "xavier"
    }
    bias_filler {
      type: "constant"
      value: 0.2
    }
  }
}
layer {
  name: "inception_4a/relu_1x1"
  type: "ReLU"
  bottom: "inception_4a/1x1"
  top: "inception_4a/1x1"
}
layer {
  name: "inception_4a/3x3_reduce"
  type: "Convolution"
  bottom: "pool3/3x3_s2"
  top: "inception_4a/3x3_reduce"
  param {
    lr_mult: 1
    decay_mult: 1
  }
  param {
    lr_mult: 2
    decay_mult: 0
  }
  convolution_param {
    num_output: 96
    kernel_size: 1
    weight_filler {
      type: "xavier"
    }
    bias_filler {
      type: "constant"
      value: 0.2
    }
  }
}
layer {
  name: "inception_4a/relu_3x3_reduce"
  type: "ReLU"
  bottom: "inception_4a/3x3_reduce"
  top: "inception_4a/3x3_reduce"
}
layer {
  name: "inception_4a/3x3"
  type: "Convolution"
  bottom: "inception_4a/3x3_reduce"
  top: "inception_4a/3x3"
  param {
    lr_mult: 1
    decay_mult: 1
  }
  param {
    lr_mult: 2
    decay_mult: 0
  }
  convolution_param {
    num_output: 208
    pad: 1
    kernel_size: 3
    weight_filler {
      type: "xavier"
    }
    bias_filler {
      type: "constant"
      value: 0.2
    }
  }
}
layer {
  name: "inception_4a/relu_3x3"
  type: "ReLU"
  bottom: "inception_4a/3x3"
  top: "inception_4a/3x3"
}
layer {
  name: "inception_4a/5x5_reduce"
  type: "Convolution"
  bottom: "pool3/3x3_s2"
  top: "inception_4a/5x5_reduce"
  param {
    lr_mult: 1
    decay_mult: 1
  }
  param {
    lr_mult: 2
    decay_mult: 0
  }
  convolution_param {
    num_output: 16
    kernel_size: 1
    weight_filler {
      type: "xavier"
    }
    bias_filler {
      type: "constant"
      value: 0.2
    }
  }
}
layer {
  name: "inception_4a/relu_5x5_reduce"
  type: "ReLU"
  bottom: "inception_4a/5x5_reduce"
  top: "inception_4a/5x5_reduce"
}
layer {
  name: "inception_4a/5x5"
  type: "Convolution"
  bottom: "inception_4a/5x5_reduce"
  top: "inception_4a/5x5"
  param {
    lr_mult: 1
    decay_mult: 1
  }
  param {
    lr_mult: 2
    decay_mult: 0
  }
  convolution_param {
    num_output: 48
    pad: 2
    kernel_size: 5
    weight_filler {
      type: "xavier"
    }
    bias_filler {
      type: "constant"
      value: 0.2
    }
  }
}
layer {
  name: "inception_4a/relu_5x5"
  type: "ReLU"
  bottom: "inception_4a/5x5"
  top: "inception_4a/5x5"
}
layer {
  name: "inception_4a/pool"
  type: "Pooling"
  bottom: "pool3/3x3_s2"
  top: "inception_4a/pool"
  pooling_param {
    pool: MAX
    kernel_size: 3
    stride: 1
    pad: 1
  }
}
layer {
  name: "inception_4a/pool_proj"
  type: "Convolution"
  bottom: "inception_4a/pool"
  top: "inception_4a/pool_proj"
  param {
    lr_mult: 1
    decay_mult: 1
  }
  param {
    lr_mult: 2
    decay_mult: 0
  }
  convolution_param {
    num_output: 64
    kernel_size: 1
    weight_filler {
      type: "xavier"
    }
    bias_filler {
      type: "constant"
      value: 0.2
    }
  }
}
layer {
  name: "inception_4a/relu_pool_proj"
  type: "ReLU"
  bottom: "inception_4a/pool_proj"
  top: "inception_4a/pool_proj"
}
layer {
  name: "inception_4a/output"
  type: "Concat"
  bottom: "inception_4a/1x1"
  bottom: "inception_4a/3x3"
  bottom: "inception_4a/5x5"
  bottom: "inception_4a/pool_proj"
  top: "inception_4a/output"
}
layer {
  name: "loss1/ave_pool"
  type: "Pooling"
  bottom: "inception_4a/output"
  top: "loss1/ave_pool"
  pooling_param {
    pool: AVE
    kernel_size: 5
    stride: 3
  }
}
layer {
  name: "loss1/conv"
  type: "Convolution"
  bottom: "loss1/ave_pool"
  top: "loss1/conv"
  convolution_param {
    num_output: 128
    kernel_size: 1
    weight_filler {
      type: "xavier"
    }
    bias_filler {
      type: "constant"
      value: 0.2
    }
  }
}
layer {
  name: "loss1/relu_conv"
  type: "ReLU"
  bottom: "loss1/conv"
  top: "loss1/conv"
}
layer {
  name: "loss1/fc"
  type: "InnerProduct"
  bottom: "loss1/conv"
  top: "loss1/fc"
  inner_product_param {
    num_output: 1024
    weight_filler {
      type: "xavier"
    }
    bias_filler {
      type: "constant"
      value: 0.2
    }
  }
}
layer {
  name: "loss1/relu_fc"
  type: "ReLU"
  bottom: "loss1/fc"
  top: "loss1/fc"
}
layer {
  name: "loss1/drop_fc"
  type: "Dropout"
  bottom: "loss1/fc"
  top: "loss1/fc"
  dropout_param {
    dropout_ratio: 0.7
  }
}
layer {
  name: "cub/loss1/classifier"
  type: "InnerProduct"
  bottom: "loss1/fc"
  top: "loss1/classifier"
  inner_product_param {
    num_output: 200
    weight_filler {
      type: "xavier"
    }
    bias_filler {
      type: "constant"
      value: 0
    }
  }
}
layer {
  name: "loss1/loss"
  type: "SoftmaxWithLoss"
  bottom: "loss1/classifier"
  bottom: "label"
  top: "loss1/loss1"
  loss_weight: 0.3
}
layer {
  name: "loss1/top-1"
  type: "Accuracy"
  bottom: "loss1/classifier"
  bottom: "label"
  top: "loss1/top-1"
  include {
    phase: TEST
  }
}
layer {
  name: "loss1/top-5"
  type: "Accuracy"
  bottom: "loss1/classifier"
  bottom: "label"
  top: "loss1/top-5"
  include {
    phase: TEST
  }
  accuracy_param {
    top_k: 5
  }
}
layer {
  name: "inception_4b/1x1"
  type: "Convolution"
  bottom: "inception_4a/output"
  top: "inception_4b/1x1"
  param {
    lr_mult: 1
    decay_mult: 1
  }
  param {
    lr_mult: 2
    decay_mult: 0
  }
  convolution_param {
    num_output: 160
    kernel_size: 1
    weight_filler {
      type: "xavier"
    }
    bias_filler {
      type: "constant"
      value: 0.2
    }
  }
}
layer {
  name: "inception_4b/relu_1x1"
  type: "ReLU"
  bottom: "inception_4b/1x1"
  top: "inception_4b/1x1"
}
layer {
  name: "inception_4b/3x3_reduce"
  type: "Convolution"
  bottom: "inception_4a/output"
  top: "inception_4b/3x3_reduce"
  param {
    lr_mult: 1
    decay_mult: 1
  }
  param {
    lr_mult: 2
    decay_mult: 0
  }
  convolution_param {
    num_output: 112
    kernel_size: 1
    weight_filler {
      type: "xavier"
    }
    bias_filler {
      type: "constant"
      value: 0.2
    }
  }
}
layer {
  name: "inception_4b/relu_3x3_reduce"
  type: "ReLU"
  bottom: "inception_4b/3x3_reduce"
  top: "inception_4b/3x3_reduce"
}
layer {
  name: "inception_4b/3x3"
  type: "Convolution"
  bottom: "inception_4b/3x3_reduce"
  top: "inception_4b/3x3"
  param {
    lr_mult: 1
    decay_mult: 1
  }
  param {
    lr_mult: 2
    decay_mult: 0
  }
  convolution_param {
    num_output: 224
    pad: 1
    kernel_size: 3
    weight_filler {
      type: "xavier"
    }
    bias_filler {
      type: "constant"
      value: 0.2
    }
  }
}
layer {
  name: "inception_4b/relu_3x3"
  type: "ReLU"
  bottom: "inception_4b/3x3"
  top: "inception_4b/3x3"
}
layer {
  name: "inception_4b/5x5_reduce"
  type: "Convolution"
  bottom: "inception_4a/output"
  top: "inception_4b/5x5_reduce"
  param {
    lr_mult: 1
    decay_mult: 1
  }
  param {
    lr_mult: 2
    decay_mult: 0
  }
  convolution_param {
    num_output: 24
    kernel_size: 1
    weight_filler {
      type: "xavier"
    }
    bias_filler {
      type: "constant"
      value: 0.2
    }
  }
}
layer {
  name: "inception_4b/relu_5x5_reduce"
  type: "ReLU"
  bottom: "inception_4b/5x5_reduce"
  top: "inception_4b/5x5_reduce"
}
layer {
  name: "inception_4b/5x5"
  type: "Convolution"
  bottom: "inception_4b/5x5_reduce"
  top: "inception_4b/5x5"
  param {
    lr_mult: 1
    decay_mult: 1
  }
  param {
    lr_mult: 2
    decay_mult: 0
  }
  convolution_param {
    num_output: 64
    pad: 2
    kernel_size: 5
    weight_filler {
      type: "xavier"
    }
    bias_filler {
      type: "constant"
      value: 0.2
    }
  }
}
layer {
  name: "inception_4b/relu_5x5"
  type: "ReLU"
  bottom: "inception_4b/5x5"
  top: "inception_4b/5x5"
}
layer {
  name: "inception_4b/pool"
  type: "Pooling"
  bottom: "inception_4a/output"
  top: "inception_4b/pool"
  pooling_param {
    pool: MAX
    kernel_size: 3
    stride: 1
    pad: 1
  }
}
layer {
  name: "inception_4b/pool_proj"
  type: "Convolution"
  bottom: "inception_4b/pool"
  top: "inception_4b/pool_proj"
  param {
    lr_mult: 1
    decay_mult: 1
  }
  param {
    lr_mult: 2
    decay_mult: 0
  }
  convolution_param {
    num_output: 64
    kernel_size: 1
    weight_filler {
      type: "xavier"
    }
    bias_filler {
      type: "constant"
      value: 0.2
    }
  }
}
layer {
  name: "inception_4b/relu_pool_proj"
  type: "ReLU"
  bottom: "inception_4b/pool_proj"
  top: "inception_4b/pool_proj"
}
layer {
  name: "inception_4b/output"
  type: "Concat"
  bottom: "inception_4b/1x1"
  bottom: "inception_4b/3x3"
  bottom: "inception_4b/5x5"
  bottom: "inception_4b/pool_proj"
  top: "inception_4b/output"
}
layer {
  name: "inception_4c/1x1"
  type: "Convolution"
  bottom: "inception_4b/output"
  top: "inception_4c/1x1"
  param {
    lr_mult: 1
    decay_mult: 1
  }
  param {
    lr_mult: 2
    decay_mult: 0
  }
  convolution_param {
    num_output: 128
    kernel_size: 1
    weight_filler {
      type: "xavier"
    }
    bias_filler {
      type: "constant"
      value: 0.2
    }
  }
}
layer {
  name: "inception_4c/relu_1x1"
  type: "ReLU"
  bottom: "inception_4c/1x1"
  top: "inception_4c/1x1"
}
layer {
  name: "inception_4c/3x3_reduce"
  type: "Convolution"
  bottom: "inception_4b/output"
  top: "inception_4c/3x3_reduce"
  param {
    lr_mult: 1
    decay_mult: 1
  }
  param {
    lr_mult: 2
    decay_mult: 0
  }
  convolution_param {
    num_output: 128
    kernel_size: 1
    weight_filler {
      type: "xavier"
    }
    bias_filler {
      type: "constant"
      value: 0.2
    }
  }
}
layer {
  name: "inception_4c/relu_3x3_reduce"
  type: "ReLU"
  bottom: "inception_4c/3x3_reduce"
  top: "inception_4c/3x3_reduce"
}
layer {
  name: "inception_4c/3x3"
  type: "Convolution"
  bottom: "inception_4c/3x3_reduce"
  top: "inception_4c/3x3"
  param {
    lr_mult: 1
    decay_mult: 1
  }
  param {
    lr_mult: 2
    decay_mult: 0
  }
  convolution_param {
    num_output: 256
    pad: 1
    kernel_size: 3
    weight_filler {
      type: "xavier"
    }
    bias_filler {
      type: "constant"
      value: 0.2
    }
  }
}
layer {
  name: "inception_4c/relu_3x3"
  type: "ReLU"
  bottom: "inception_4c/3x3"
  top: "inception_4c/3x3"
}
layer {
  name: "inception_4c/5x5_reduce"
  type: "Convolution"
  bottom: "inception_4b/output"
  top: "inception_4c/5x5_reduce"
  param {
    lr_mult: 1
    decay_mult: 1
  }
  param {
    lr_mult: 2
    decay_mult: 0
  }
  convolution_param {
    num_output: 24
    kernel_size: 1
    weight_filler {
      type: "xavier"
    }
    bias_filler {
      type: "constant"
      value: 0.2
    }
  }
}
layer {
  name: "inception_4c/relu_5x5_reduce"
  type: "ReLU"
  bottom: "inception_4c/5x5_reduce"
  top: "inception_4c/5x5_reduce"
}
layer {
  name: "inception_4c/5x5"
  type: "Convolution"
  bottom: "inception_4c/5x5_reduce"
  top: "inception_4c/5x5"
  param {
    lr_mult: 1
    decay_mult: 1
  }
  param {
    lr_mult: 2
    decay_mult: 0
  }
  convolution_param {
    num_output: 64
    pad: 2
    kernel_size: 5
    weight_filler {
      type: "xavier"
    }
    bias_filler {
      type: "constant"
      value: 0.2
    }
  }
}
layer {
  name: "inception_4c/relu_5x5"
  type: "ReLU"
  bottom: "inception_4c/5x5"
  top: "inception_4c/5x5"
}
layer {
  name: "inception_4c/pool"
  type: "Pooling"
  bottom: "inception_4b/output"
  top: "inception_4c/pool"
  pooling_param {
    pool: MAX
    kernel_size: 3
    stride: 1
    pad: 1
  }
}
layer {
  name: "inception_4c/pool_proj"
  type: "Convolution"
  bottom: "inception_4c/pool"
  top: "inception_4c/pool_proj"
  param {
    lr_mult: 1
    decay_mult: 1
  }
  param {
    lr_mult: 2
    decay_mult: 0
  }
  convolution_param {
    num_output: 64
    kernel_size: 1
    weight_filler {
      type: "xavier"
    }
    bias_filler {
      type: "constant"
      value: 0.2
    }
  }
}
layer {
  name: "inception_4c/relu_pool_proj"
  type: "ReLU"
  bottom: "inception_4c/pool_proj"
  top: "inception_4c/pool_proj"
}
layer {
  name: "inception_4c/output"
  type: "Concat"
  bottom: "inception_4c/1x1"
  bottom: "inception_4c/3x3"
  bottom: "inception_4c/5x5"
  bottom: "inception_4c/pool_proj"
  top: "inception_4c/output"
}
layer {
  name: "inception_4d/1x1"
  type: "Convolution"
  bottom: "inception_4c/output"
  top: "inception_4d/1x1"
  param {
    lr_mult: 1
    decay_mult: 1
  }
  param {
    lr_mult: 2
    decay_mult: 0
  }
  convolution_param {
    num_output: 112
    kernel_size: 1
    weight_filler {
      type: "xavier"
    }
    bias_filler {
      type: "constant"
      value: 0.2
    }
  }
}
layer {
  name: "inception_4d/relu_1x1"
  type: "ReLU"
  bottom: "inception_4d/1x1"
  top: "inception_4d/1x1"
}
layer {
  name: "inception_4d/3x3_reduce"
  type: "Convolution"
  bottom: "inception_4c/output"
  top: "inception_4d/3x3_reduce"
  param {
    lr_mult: 1
    decay_mult: 1
  }
  param {
    lr_mult: 2
    decay_mult: 0
  }
  convolution_param {
    num_output: 144
    kernel_size: 1
    weight_filler {
      type: "xavier"
    }
    bias_filler {
      type: "constant"
      value: 0.2
    }
  }
}
layer {
  name: "inception_4d/relu_3x3_reduce"
  type: "ReLU"
  bottom: "inception_4d/3x3_reduce"
  top: "inception_4d/3x3_reduce"
}
layer {
  name: "inception_4d/3x3"
  type: "Convolution"
  bottom: "inception_4d/3x3_reduce"
  top: "inception_4d/3x3"
  param {
    lr_mult: 1
    decay_mult: 1
  }
  param {
    lr_mult: 2
    decay_mult: 0
  }
  convolution_param {
    num_output: 288
    pad: 1
    kernel_size: 3
    weight_filler {
      type: "xavier"
    }
    bias_filler {
      type: "constant"
      value: 0.2
    }
  }
}
layer {
  name: "inception_4d/relu_3x3"
  type: "ReLU"
  bottom: "inception_4d/3x3"
  top: "inception_4d/3x3"
}
layer {
  name: "inception_4d/5x5_reduce"
  type: "Convolution"
  bottom: "inception_4c/output"
  top: "inception_4d/5x5_reduce"
  param {
    lr_mult: 1
    decay_mult: 1
  }
  param {
    lr_mult: 2
    decay_mult: 0
  }
  convolution_param {
    num_output: 32
    kernel_size: 1
    weight_filler {
      type: "xavier"
    }
    bias_filler {
      type: "constant"
      value: 0.2
    }
  }
}
layer {
  name: "inception_4d/relu_5x5_reduce"
  type: "ReLU"
  bottom: "inception_4d/5x5_reduce"
  top: "inception_4d/5x5_reduce"
}
layer {
  name: "inception_4d/5x5"
  type: "Convolution"
  bottom: "inception_4d/5x5_reduce"
  top: "inception_4d/5x5"
  param {
    lr_mult: 1
    decay_mult: 1
  }
  param {
    lr_mult: 2
    decay_mult: 0
  }
  convolution_param {
    num_output: 64
    pad: 2
    kernel_size: 5
    weight_filler {
      type: "xavier"
    }
    bias_filler {
      type: "constant"
      value: 0.2
    }
  }
}
layer {
  name: "inception_4d/relu_5x5"
  type: "ReLU"
  bottom: "inception_4d/5x5"
  top: "inception_4d/5x5"
}
layer {
  name: "inception_4d/pool"
  type: "Pooling"
  bottom: "inception_4c/output"
  top: "inception_4d/pool"
  pooling_param {
    pool: MAX
    kernel_size: 3
…
I0902 14:26:42.015774 52488 net.cpp:163] Top shape: 32 512 14 14 (3211264)
I0902 14:26:42.015782 52488 net.cpp:163] Top shape: 32 512 14 14 (3211264)
I0902 14:26:42.015789 52488 layer_factory.hpp:76] Creating layer inception_4c/1x1
I0902 14:26:42.015806 52488 net.cpp:110] Creating Layer inception_4c/1x1
I0902 14:26:42.015815 52488 net.cpp:477] inception_4c/1x1 <- inception_4b/output_inception_4b/output_0_split_0
I0902 14:26:42.015828 52488 net.cpp:433] inception_4c/1x1 -> inception_4c/1x1
I0902 14:26:42.079190 52488 net.cpp:155] Setting up inception_4c/1x1
I0902 14:26:42.079221 52488 net.cpp:163] Top shape: 32 128 14 14 (802816)
I0902 14:26:42.079237 52488 layer_factory.hpp:76] Creating layer inception_4c/relu_1x1
I0902 14:26:42.079252 52488 net.cpp:110] Creating Layer inception_4c/relu_1x1
I0902 14:26:42.079260 52488 net.cpp:477] inception_4c/relu_1x1 <- inception_4c/1x1
I0902 14:26:42.079275 52488 net.cpp:419] inception_4c/relu_1x1 -> inception_4c/1x1 (in-place)
I0902 14:26:42.081087 52488 net.cpp:155] Setting up inception_4c/relu_1x1
I0902 14:26:42.081115 52488 net.cpp:163] Top shape: 32 128 14 14 (802816)
I0902 14:26:42.081128 52488 layer_factory.hpp:76] Creating layer inception_4c/3x3_reduce
I0902 14:26:42.081147 52488 net.cpp:110] Creating Layer inception_4c/3x3_reduce
I0902 14:26:42.081157 52488 net.cpp:477] inception_4c/3x3_reduce <- inception_4b/output_inception_4b/output_0_split_1
I0902 14:26:42.081173 52488 net.cpp:433] inception_4c/3x3_reduce -> inception_4c/3x3_reduce
I0902 14:26:42.141185 52488 net.cpp:155] Setting up inception_4c/3x3_reduce
I0902 14:26:42.141216 52488 net.cpp:163] Top shape: 32 128 14 14 (802816)
I0902 14:26:42.141233 52488 layer_factory.hpp:76] Creating layer inception_4c/relu_3x3_reduce
I0902 14:26:42.141250 52488 net.cpp:110] Creating Layer inception_4c/relu_3x3_reduce
I0902 14:26:42.141260 52488 net.cpp:477] inception_4c/relu_3x3_reduce <- inception_4c/3x3_reduce
I0902 14:26:42.141273 52488 net.cpp:419] inception_4c/relu_3x3_reduce -> inception_4c/3x3_reduce (in-place)
I0902 14:26:42.192378 52488 net.cpp:155] Setting up inception_4c/relu_3x3_reduce
I0902 14:26:42.192405 52488 net.cpp:163] Top shape: 32 128 14 14 (802816)
I0902 14:26:42.192416 52488 layer_factory.hpp:76] Creating layer inception_4c/3x3
I0902 14:26:42.192436 52488 net.cpp:110] Creating Layer inception_4c/3x3
I0902 14:26:42.192446 52488 net.cpp:477] inception_4c/3x3 <- inception_4c/3x3_reduce
I0902 14:26:42.192463 52488 net.cpp:433] inception_4c/3x3 -> inception_4c/3x3
I0902 14:26:42.252434 52488 net.cpp:155] Setting up inception_4c/3x3
I0902 14:26:42.252467 52488 net.cpp:163] Top shape: 32 256 14 14 (1605632)
I0902 14:26:42.252511 52488 layer_factory.hpp:76] Creating layer inception_4c/relu_3x3
I0902 14:26:42.252524 52488 net.cpp:110] Creating Layer inception_4c/relu_3x3
I0902 14:26:42.252534 52488 net.cpp:477] inception_4c/relu_3x3 <- inception_4c/3x3
I0902 14:26:42.252547 52488 net.cpp:419] inception_4c/relu_3x3 -> inception_4c/3x3 (in-place)
I0902 14:26:42.254979 52488 net.cpp:155] Setting up inception_4c/relu_3x3
I0902 14:26:42.255008 52488 net.cpp:163] Top shape: 32 256 14 14 (1605632)
I0902 14:26:42.255020 52488 layer_factory.hpp:76] Creating layer inception_4c/5x5_reduce
I0902 14:26:42.255040 52488 net.cpp:110] Creating Layer inception_4c/5x5_reduce
I0902 14:26:42.255053 52488 net.cpp:477] inception_4c/5x5_reduce <- inception_4b/output_inception_4b/output_0_split_2
I0902 14:26:42.255067 52488 net.cpp:433] inception_4c/5x5_reduce -> inception_4c/5x5_reduce
I0902 14:26:42.261929 52488 net.cpp:155] Setting up inception_4c/5x5_reduce
I0902 14:26:42.261958 52488 net.cpp:163] Top shape: 32 24 14 14 (150528)
I0902 14:26:42.261975 52488 layer_factory.hpp:76] Creating layer inception_4c/relu_5x5_reduce
I0902 14:26:42.261992 52488 net.cpp:110] Creating Layer inception_4c/relu_5x5_reduce
I0902 14:26:42.262002 52488 net.cpp:477] inception_4c/relu_5x5_reduce <- inception_4c/5x5_reduce
I0902 14:26:42.262015 52488 net.cpp:419] inception_4c/relu_5x5_reduce -> inception_4c/5x5_reduce (in-place)
I0902 14:26:42.264427 52488 net.cpp:155] Setting up inception_4c/relu_5x5_reduce
I0902 14:26:42.264454 52488 net.cpp:163] Top shape: 32 24 14 14 (150528)
I0902 14:26:42.264464 52488 layer_factory.hpp:76] Creating layer inception_4c/5x5
I0902 14:26:42.264484 52488 net.cpp:110] Creating Layer inception_4c/5x5
I0902 14:26:42.264497 52488 net.cpp:477] inception_4c/5x5 <- inception_4c/5x5_reduce
I0902 14:26:42.264511 52488 net.cpp:433] inception_4c/5x5 -> inception_4c/5x5
I0902 14:26:42.271019 52488 net.cpp:155] Setting up inception_4c/5x5
I0902 14:26:42.271049 52488 net.cpp:163] Top shape: 32 64 14 14 (401408)
I0902 14:26:42.271071 52488 layer_factory.hpp:76] Creating layer inception_4c/relu_5x5
I0902 14:26:42.271085 52488 net.cpp:110] Creating Layer inception_4c/relu_5x5
I0902 14:26:42.271095 52488 net.cpp:477] inception_4c/relu_5x5 <- inception_4c/5x5
I0902 14:26:42.271108 52488 net.cpp:419] inception_4c/relu_5x5 -> inception_4c/5x5 (in-place)
I0902 14:26:42.274124 52488 net.cpp:155] Setting up inception_4c/relu_5x5
I0902 14:26:42.274153 52488 net.cpp:163] Top shape: 32 64 14 14 (401408)
I0902 14:26:42.274165 52488 layer_factory.hpp:76] Creating layer inception_4c/pool
I0902 14:26:42.274176 52488 layer_factory.cpp:60] CUDNN does not support padding or multiple tops. Using Caffe's own pooling layer.
I0902 14:26:42.274188 52488 net.cpp:110] Creating Layer inception_4c/pool
I0902 14:26:42.274196 52488 net.cpp:477] inception_4c/pool <- inception_4b/output_inception_4b/output_0_split_3
I0902 14:26:42.274212 52488 net.cpp:433] inception_4c/pool -> inception_4c/pool
I0902 14:26:42.274233 52488 net.cpp:155] Setting up inception_4c/pool
I0902 14:26:42.274243 52488 net.cpp:163] Top shape: 32 512 14 14 (3211264)
I0902 14:26:42.274251 52488 layer_factory.hpp:76] Creating layer inception_4c/pool_proj
I0902 14:26:42.274266 52488 net.cpp:110] Creating Layer inception_4c/pool_proj
I0902 14:26:42.274273 52488 net.cpp:477] inception_4c/pool_proj <- inception_4c/pool
I0902 14:26:42.274288 52488 net.cpp:433] inception_4c/pool_proj -> inception_4c/pool_proj
I0902 14:26:42.281656 52488 net.cpp:155] Setting up inception_4c/pool_proj
I0902 14:26:42.281685 52488 net.cpp:163] Top shape: 32 64 14 14 (401408)
I0902 14:26:42.281702 52488 layer_factory.hpp:76] Creating layer inception_4c/relu_pool_proj
I0902 14:26:42.281716 52488 net.cpp:110] Creating Layer inception_4c/relu_pool_proj
I0902 14:26:42.281726 52488 net.cpp:477] inception_4c/relu_pool_proj <- inception_4c/pool_proj
I0902 14:26:42.281741 52488 net.cpp:419] inception_4c/relu_pool_proj -> inception_4c/pool_proj (in-place)
I0902 14:26:42.284608 52488 net.cpp:155] Setting up inception_4c/relu_pool_proj
I0902 14:26:42.284639 52488 net.cpp:163] Top shape: 32 64 14 14 (401408)
I0902 14:26:42.284651 52488 layer_factory.hpp:76] Creating layer inception_4c/output
I0902 14:26:42.284664 52488 net.cpp:110] Creating Layer inception_4c/output
I0902 14:26:42.284673 52488 net.cpp:477] inception_4c/output <- inception_4c/1x1
I0902 14:26:42.284684 52488 net.cpp:477] inception_4c/output <- inception_4c/3x3
I0902 14:26:42.284715 52488 net.cpp:477] inception_4c/output <- inception_4c/5x5
I0902 14:26:42.284725 52488 net.cpp:477] inception_4c/output <- inception_4c/pool_proj
I0902 14:26:42.284736 52488 net.cpp:433] inception_4c/output -> inception_4c/output
I0902 14:26:42.284754 52488 net.cpp:155] Setting up inception_4c/output
I0902 14:26:42.284765 52488 net.cpp:163] Top shape: 32 512 14 14 (3211264)
I0902 14:26:42.284775 52488 layer_factory.hpp:76] Creating layer inception_4c/output_inception_4c/output_0_split
I0902 14:26:42.284791 52488 net.cpp:110] Creating Layer inception_4c/output_inception_4c/output_0_split
I0902 14:26:42.284800 52488 net.cpp:477] inception_4c/output_inception_4c/output_0_split <- inception_4c/output
I0902 14:26:42.284811 52488 net.cpp:433] inception_4c/output_inception_4c/output_0_split -> inception_4c/output_inception_4c/output_0_split_0
I0902 14:26:42.284826 52488 net.cpp:433] inception_4c/output_inception_4c/output_0_split -> inception_4c/output_inception_4c/output_0_split_1
I0902 14:26:42.284838 52488 net.cpp:433] inception_4c/output_inception_4c/output_0_split -> inception_4c/output_inception_4c/output_0_split_2
I0902 14:26:42.284850 52488 net.cpp:433] inception_4c/output_inception_4c/output_0_split -> inception_4c/output_inception_4c/output_0_split_3
I0902 14:26:42.284868 52488 net.cpp:155] Setting up inception_4c/output_inception_4c/output_0_split
I0902 14:26:42.284878 52488 net.cpp:163] Top shape: 32 512 14 14 (3211264)
I0902 14:26:42.284888 52488 net.cpp:163] Top shape: 32 512 14 14 (3211264)
I0902 14:26:42.284896 52488 net.cpp:163] Top shape: 32 512 14 14 (3211264)
I0902 14:26:42.284904 52488 net.cpp:163] Top shape: 32 512 14 14 (3211264)
I0902 14:26:42.284917 52488 layer_factory.hpp:76] Creating layer inception_4d/1x1
I0902 14:26:42.284932 52488 net.cpp:110] Creating Layer inception_4d/1x1
I0902 14:26:42.284941 52488 net.cpp:477] inception_4d/1x1 <- inception_4c/output_inception_4c/output_0_split_0
I0902 14:26:42.284992 52488 net.cpp:433] inception_4d/1x1 -> inception_4d/1x1
I0902 14:26:42.292665 52488 net.cpp:155] Setting up inception_4d/1x1
I0902 14:26:42.292693 52488 net.cpp:163] Top shape: 32 112 14 14 (702464)
I0902 14:26:42.292711 52488 layer_factory.hpp:76] Creating layer inception_4d/relu_1x1
I0902 14:26:42.292723 52488 net.cpp:110] Creating Layer inception_4d/relu_1x1
I0902 14:26:42.292733 52488 net.cpp:477] inception_4d/relu_1x1 <- inception_4d/1x1
I0902 14:26:42.292748 52488 net.cpp:419] inception_4d/relu_1x1 -> inception_4d/1x1 (in-place)
I0902 14:26:42.294661 52488 net.cpp:155] Setting up inception_4d/relu_1x1
I0902 14:26:42.294688 52488 net.cpp:163] Top shape: 32 112 14 14 (702464)
I0902 14:26:42.294703 52488 layer_factory.hpp:76] Creating layer inception_4d/3x3_reduce
I0902 14:26:42.294721 52488 net.cpp:110] Creating Layer inception_4d/3x3_reduce
I0902 14:26:42.294731 52488 net.cpp:477] inception_4d/3x3_reduce <- inception_4c/output_inception_4c/output_0_split_1
I0902 14:26:42.294747 52488 net.cpp:433] inception_4d/3x3_reduce -> inception_4d/3x3_reduce
I0902 14:26:42.307057 52488 net.cpp:155] Setting up inception_4d/3x3_reduce
I0902 14:26:42.307087 52488 net.cpp:163] Top shape: 32 144 14 14 (903168)
I0902 14:26:42.307106 52488 layer_factory.hpp:76] Creating layer inception_4d/relu_3x3_reduce
I0902 14:26:42.307121 52488 net.cpp:110] Creating Layer inception_4d/relu_3x3_reduce
I0902 14:26:42.307129 52488 net.cpp:477] inception_4d/relu_3x3_reduce <- inception_4d/3x3_reduce
I0902 14:26:42.307144 52488 net.cpp:419] inception_4d/relu_3x3_reduce -> inception_4d/3x3_reduce (in-place)
I0902 14:26:42.314610 52488 net.cpp:155] Setting up inception_4d/relu_3x3_reduce
I0902 14:26:42.314640 52488 net.cpp:163] Top shape: 32 144 14 14 (903168)
I0902 14:26:42.314651 52488 layer_factory.hpp:76] Creating layer inception_4d/3x3
I0902 14:26:42.314666 52488 net.cpp:110] Creating Layer inception_4d/3x3
I0902 14:26:42.314676 52488 net.cpp:477] inception_4d/3x3 <- inception_4d/3x3_reduce
I0902 14:26:42.314692 52488 net.cpp:433] inception_4d/3x3 -> inception_4d/3x3
I0902 14:26:42.334144 52488 net.cpp:155] Setting up inception_4d/3x3
I0902 14:26:42.334174 52488 net.cpp:163] Top shape: 32 288 14 14 (1806336)
I0902 14:26:42.334192 52488 layer_factory.hpp:76] Creating layer inception_4d/relu_3x3
I0902 14:26:42.334205 52488 net.cpp:110] Creating Layer inception_4d/relu_3x3
I0902 14:26:42.334215 52488 net.cpp:477] inception_4d/relu_3x3 <- inception_4d/3x3
I0902 14:26:42.334231 52488 net.cpp:419] inception_4d/relu_3x3 -> inception_4d/3x3 (in-place)
I0902 14:26:42.336364 52488 net.cpp:155] Setting up inception_4d/relu_3x3
I0902 14:26:42.336391 52488 net.cpp:163] Top shape: 32 288 14 14 (1806336)
I0902 14:26:42.336405 52488 layer_factory.hpp:76] Creating layer inception_4d/5x5_reduce
I0902 14:26:42.336423 52488 net.cpp:110] Creating Layer inception_4d/5x5_reduce
I0902 14:26:42.336433 52488 net.cpp:477] inception_4d/5x5_reduce <- inception_4c/output_inception_4c/output_0_split_2
I0902 14:26:42.336451 52488 net.cpp:433] inception_4d/5x5_reduce -> inception_4d/5x5_reduce
I0902 14:26:42.343549 52488 net.cpp:155] Setting up inception_4d/5x5_reduce
I0902 14:26:42.343579 52488 net.cpp:163] Top shape: 32 32 14 14 (200704)
I0902 14:26:42.343600 52488 layer_factory.hpp:76] Creating layer inception_4d/relu_5x5_reduce
I0902 14:26:42.343622 52488 net.cpp:110] Creating Layer inception_4d/relu_5x5_reduce
I0902 14:26:42.343632 52488 net.cpp:477] inception_4d/relu_5x5_reduce <- inception_4d/5x5_reduce
I0902 14:26:42.343647 52488 net.cpp:419] inception_4d/relu_5x5_reduce -> inception_4d/5x5_reduce (in-place)
I0902 14:26:42.345504 52488 net.cpp:155] Setting up inception_4d/relu_5x5_reduce
I0902 14:26:42.345532 52488 net.cpp:163] Top shape: 32 32 14 14 (200704)
I0902 14:26:42.345542 52488 layer_factory.hpp:76] Creating layer inception_4d/5x5
I0902 14:26:42.345561 52488 net.cpp:110] Creating Layer inception_4d/5x5
I0902 14:26:42.345571 52488 net.cpp:477] inception_4d/5x5 <- inception_4d/5x5_reduce
I0902 14:26:42.345587 52488 net.cpp:433] inception_4d/5x5 -> inception_4d/5x5
I0902 14:26:42.352516 52488 net.cpp:155] Setting up inception_4d/5x5
I0902 14:26:42.352545 52488 net.cpp:163] Top shape: 32 64 14 14 (401408)
I0902 14:26:42.352561 52488 layer_factory.hpp:76] Creating layer inception_4d/relu_5x5
I0902 14:26:42.352574 52488 net.cpp:110] Creating Layer inception_4d/relu_5x5
I0902 14:26:42.352588 52488 net.cpp:477] inception_4d/relu_5x5 <- inception_4d/5x5
I0902 14:26:42.352601 52488 net.cpp:419] inception_4d/relu_5x5 -> inception_4d/5x5 (in-place)
I0902 14:26:42.354495 52488 net.cpp:155] Setting up inception_4d/relu_5x5
I0902 14:26:42.354522 52488 net.cpp:163] Top shape: 32 64 14 14 (401408)
I0902 14:26:42.354532 52488 layer_factory.hpp:76] Creating layer inception_4d/pool
I0902 14:26:42.354542 52488 layer_factory.cpp:60] CUDNN does not support padding or multiple tops. Using Caffe's own pooling layer.
I0902 14:26:42.354560 52488 net.cpp:110] Creating Layer inception_4d/pool
I0902 14:26:42.354570 52488 net.cpp:477] inception_4d/pool <- inception_4c/output_inception_4c/output_0_split_3
I0902 14:26:42.354583 52488 net.cpp:433] inception_4d/pool -> inception_4d/pool
I0902 14:26:42.354601 52488 net.cpp:155] Setting up inception_4d/pool
I0902 14:26:42.354615 52488 net.cpp:163] Top shape: 32 512 14 14 (3211264)
I0902 14:26:42.354622 52488 layer_factory.hpp:76] Creating layer inception_4d/pool_proj
I0902 14:26:42.354636 52488 net.cpp:110] Creating Layer inception_4d/pool_proj
I0902 14:26:42.354645 52488 net.cpp:477] inception_4d/pool_proj <- inception_4d/pool
I0902 14:26:42.354660 52488 net.cpp:433] inception_4d/pool_proj -> inception_4d/pool_proj
I0902 14:26:42.361361 52488 net.cpp:155] Setting up inception_4d/pool_proj
I0902 14:26:42.361389 52488 net.cpp:163] Top shape: 32 64 14 14 (401408)
I0902 14:26:42.361413 52488 layer_factory.hpp:76] Creating layer inception_4d/relu_pool_proj
I0902 14:26:42.361433 52488 net.cpp:110] Creating Layer inception_4d/relu_pool_proj
I0902 14:26:42.361443 52488 net.cpp:477] inception_4d/relu_pool_proj <- inception_4d/pool_proj
I0902 14:26:42.361455 52488 net.cpp:419] inception_4d/relu_pool_proj -> inception_4d/pool_proj (in-place)
I0902 14:26:42.363648 52488 net.cpp:155] Setting up inception_4d/relu_pool_proj
I0902 14:26:42.363677 52488 net.cpp:163] Top shape: 32 64 14 14 (401408)
I0902 14:26:42.363687 52488 layer_factory.hpp:76] Creating layer inception_4d/output
I0902 14:26:42.363700 52488 net.cpp:110] Creating Layer inception_4d/output
I0902 14:26:42.363710 52488 net.cpp:477] inception_4d/output <- inception_4d/1x1
I0902 14:26:42.363721 52488 net.cpp:477] inception_4d/output <- inception_4d/3x3
I0902 14:26:42.363731 52488 net.cpp:477] inception_4d/output <- inception_4d/5x5
I0902 14:26:42.363740 52488 net.cpp:477] inception_4d/output <- inception_4d/pool_proj
I0902 14:26:42.363751 52488 net.cpp:433] inception_4d/output -> inception_4d/output
I0902 14:26:42.363768 52488 net.cpp:155] Setting up inception_4d/output
I0902 14:26:42.363778 52488 net.cpp:163] Top shape: 32 528 14 14 (3311616)
I0902 14:26:42.363786 52488 layer_factory.hpp:76] Creating layer inception_4d/output_inception_4d/output_0_split
I0902 14:26:42.363801 52488 net.cpp:110] Creating Layer inception_4d/output_inception_4d/output_0_split
I0902 14:26:42.363811 52488 net.cpp:477] inception_4d/output_inception_4d/output_0_split <- inception_4d/output
I0902 14:26:42.363822 52488 net.cpp:433] inception_4d/output_inception_4d/output_0_split -> inception_4d/output_inception_4d/output_0_split_0
I0902 14:26:42.363839 52488 net.cpp:433] inception_4d/output_inception_4d/output_0_split -> inception_4d/output_inception_4d/output_0_split_1
I0902 14:26:42.363853 52488 net.cpp:433] inception_4d/output_inception_4d/output_0_split -> inception_4d/output_inception_4d/output_0_split_2
I0902 14:26:42.363867 52488 net.cpp:433] inception_4d/output_inception_4d/output_0_split -> inception_4d/output_inception_4d/output_0_split_3
I0902 14:26:42.363878 52488 net.cpp:433] inception_4d/output_inception_4d/output_0_split -> inception_4d/output_inception_4d/output_0_split_4
I0902 14:26:42.363893 52488 net.cpp:155] Setting up inception_4d/output_inception_4d/output_0_split
I0902 14:26:42.363903 52488 net.cpp:163] Top shape: 32 528 14 14 (3311616)
I0902 14:26:42.363911 52488 net.cpp:163] Top shape: 32 528 14 14 (3311616)
I0902 14:26:42.363919 52488 net.cpp:163] Top shape: 32 528 14 14 (3311616)
I0902 14:26:42.363929 52488 net.cpp:163] Top shape: 32 528 14 14 (3311616)
I0902 14:26:42.363937 52488 net.cpp:163] Top shape: 32 528 14 14 (3311616)
I0902 14:26:42.363945 52488 layer_factory.hpp:76] Creating layer loss2/ave_pool
I0902 14:26:42.363960 52488 net.cpp:110] Creating Layer loss2/ave_pool
I0902 14:26:42.363967 52488 net.cpp:477] loss2/ave_pool <- inception_4d/output_inception_4d/output_0_split_0
I0902 14:26:42.363979 52488 net.cpp:433] loss2/ave_pool -> loss2/ave_pool
I0902 14:26:42.365892 52488 net.cpp:155] Setting up loss2/ave_pool
I0902 14:26:42.365921 52488 net.cpp:163] Top shape: 32 528 4 4 (270336)
I0902 14:26:42.365933 52488 layer_factory.hpp:76] Creating layer loss2/conv
I0902 14:26:42.365952 52488 net.cpp:110] Creating Layer loss2/conv
I0902 14:26:42.365962 52488 net.cpp:477] loss2/conv <- loss2/ave_pool
I0902 14:26:42.365974 52488 net.cpp:433] loss2/conv -> loss2/conv
I0902 14:26:42.373759 52488 net.cpp:155] Setting up loss2/conv
I0902 14:26:42.373788 52488 net.cpp:163] Top shape: 32 128 4 4 (65536)
I0902 14:26:42.373818 52488 layer_factory.hpp:76] Creating layer loss2/relu_conv
I0902 14:26:42.373842 52488 net.cpp:110] Creating Layer loss2/relu_conv
I0902 14:26:42.373852 52488 net.cpp:477] loss2/relu_conv <- loss2/conv
I0902 14:26:42.373867 52488 net.cpp:419] loss2/relu_conv -> loss2/conv (in-place)
I0902 14:26:42.375996 52488 net.cpp:155] Setting up loss2/relu_conv
I0902 14:26:42.376024 52488 net.cpp:163] Top shape: 32 128 4 4 (65536)
I0902 14:26:42.376034 52488 layer_factory.hpp:76] Creating layer loss2/fc
I0902 14:26:42.376049 52488 net.cpp:110] Creating Layer loss2/fc
I0902 14:26:42.376058 52488 net.cpp:477] loss2/fc <- loss2/conv
I0902 14:26:42.376073 52488 net.cpp:433] loss2/fc -> loss2/fc
I0902 14:26:42.409693 52488 net.cpp:155] Setting up loss2/fc
I0902 14:26:42.409741 52488 net.cpp:163] Top shape: 32 1024 (32768)
I0902 14:26:42.409759 52488 layer_factory.hpp:76] Creating layer loss2/relu_fc
I0902 14:26:42.409775 52488 net.cpp:110] Creating Layer loss2/relu_fc
I0902 14:26:42.409785 52488 net.cpp:477] loss2/relu_fc <- loss2/fc
I0902 14:26:42.409795 52488 net.cpp:419] loss2/relu_fc -> loss2/fc (in-place)
I0902 14:26:42.411697 52488 net.cpp:155] Setting up loss2/relu_fc
I0902 14:26:42.411726 52488 net.cpp:163] Top shape: 32 1024 (32768)
I0902 14:26:42.411739 52488 layer_factory.hpp:76] Creating layer loss2/drop_fc
I0902 14:26:42.411758 52488 net.cpp:110] Creating Layer loss2/drop_fc
I0902 14:26:42.411767 52488 net.cpp:477] loss2/drop_fc <- loss2/fc
I0902 14:26:42.411782 52488 net.cpp:419] loss2/drop_fc -> loss2/fc (in-place)
I0902 14:26:42.411798 52488 net.cpp:155] Setting up loss2/drop_fc
I0902 14:26:42.411808 52488 net.cpp:163] Top shape: 32 1024 (32768)
I0902 14:26:42.411816 52488 layer_factory.hpp:76] Creating layer cub/loss2/classifier
I0902 14:26:42.411829 52488 net.cpp:110] Creating Layer cub/loss2/classifier
I0902 14:26:42.411836 52488 net.cpp:477] cub/loss2/classifier <- loss2/fc
I0902 14:26:42.411847 52488 net.cpp:433] cub/loss2/classifier -> loss2/classifier
I0902 14:26:42.415846 52488 net.cpp:155] Setting up cub/loss2/classifier
I0902 14:26:42.415874 52488 net.cpp:163] Top shape: 32 200 (6400)
I0902 14:26:42.415889 52488 layer_factory.hpp:76] Creating layer loss2/classifier_cub/loss2/classifier_0_split
I0902 14:26:42.415904 52488 net.cpp:110] Creating Layer loss2/classifier_cub/loss2/classifier_0_split
I0902 14:26:42.415912 52488 net.cpp:477] loss2/classifier_cub/loss2/classifier_0_split <- loss2/classifier
I0902 14:26:42.415925 52488 net.cpp:433] loss2/classifier_cub/loss2/classifier_0_split -> loss2/classifier_cub/loss2/classifier_0_split_0
I0902 14:26:42.415940 52488 net.cpp:433] loss2/classifier_cub/loss2/classifier_0_split -> loss2/classifier_cub/loss2/classifier_0_split_1
I0902 14:26:42.415953 52488 net.cpp:433] loss2/classifier_cub/loss2/classifier_0_split -> loss2/classifier_cub/loss2/classifier_0_split_2
I0902 14:26:42.415971 52488 net.cpp:155] Setting up loss2/classifier_cub/loss2/classifier_0_split
I0902 14:26:42.415980 52488 net.cpp:163] Top shape: 32 200 (6400)
I0902 14:26:42.415989 52488 net.cpp:163] Top shape: 32 200 (6400)
I0902 14:26:42.415997 52488 net.cpp:163] Top shape: 32 200 (6400)
I0902 14:26:42.416005 52488 layer_factory.hpp:76] Creating layer loss2/loss
I0902 14:26:42.416018 52488 net.cpp:110] Creating Layer loss2/loss
I0902 14:26:42.416024 52488 net.cpp:477] loss2/loss <- loss2/classifier_cub/loss2/classifier_0_split_0
I0902 14:26:42.416035 52488 net.cpp:477] loss2/loss <- label_data_1_split_3
I0902 14:26:42.416049 52488 net.cpp:433] loss2/loss -> loss2/loss1
…
I0902 14:26:42.418503 52488 net.cpp:433] loss2/top-5 -> loss2/top-5
I0902 14:26:42.418517 52488 net.cpp:155] Setting up loss2/top-5
I0902 14:26:42.418526 52488 net.cpp:163] Top shape: (1)
I0902 14:26:42.418534 52488 layer_factory.hpp:76] Creating layer inception_4e/1x1
I0902 14:26:42.418572 52488 net.cpp:110] Creating Layer inception_4e/1x1
I0902 14:26:42.418582 52488 net.cpp:477] inception_4e/1x1 <- inception_4d/output_inception_4d/output_0_split_1
I0902 14:26:42.418596 52488 net.cpp:433] inception_4e/1x1 -> inception_4e/1x1
I0902 14:26:42.428928 52488 net.cpp:155] Setting up inception_4e/1x1
I0902 14:26:42.428949 52488 net.cpp:163] Top shape: 32 256 14 14 (1605632)
I0902 14:26:42.428961 52488 layer_factory.hpp:76] Creating layer inception_4e/relu_1x1
I0902 14:26:42.428969 52488 net.cpp:110] Creating Layer inception_4e/relu_1x1
I0902 14:26:42.428979 52488 net.cpp:477] inception_4e/relu_1x1 <- inception_4e/1x1
I0902 14:26:42.428987 52488 net.cpp:419] inception_4e/relu_1x1 -> inception_4e/1x1 (in-place)
I0902 14:26:42.436803 52488 net.cpp:155] Setting up inception_4e/relu_1x1
I0902 14:26:42.436822 52488 net.cpp:163] Top shape: 32 256 14 14 (1605632)
I0902 14:26:42.436831 52488 layer_factory.hpp:76] Creating layer inception_4e/3x3_reduce
I0902 14:26:42.436866 52488 net.cpp:110] Creating Layer inception_4e/3x3_reduce
I0902 14:26:42.436879 52488 net.cpp:477] inception_4e/3x3_reduce <- inception_4d/output_inception_4d/output_0_split_2
I0902 14:26:42.436889 52488 net.cpp:433] inception_4e/3x3_reduce -> inception_4e/3x3_reduce
I0902 14:26:42.449908 52488 net.cpp:155] Setting up inception_4e/3x3_reduce
I0902 14:26:42.449928 52488 net.cpp:163] Top shape: 32 160 14 14 (1003520)
I0902 14:26:42.449939 52488 layer_factory.hpp:76] Creating layer inception_4e/relu_3x3_reduce
I0902 14:26:42.449949 52488 net.cpp:110] Creating Layer inception_4e/relu_3x3_reduce
I0902 14:26:42.449955 52488 net.cpp:477] inception_4e/relu_3x3_reduce <- inception_4e/3x3_reduce
I0902 14:26:42.449964 52488 net.cpp:419] inception_4e/relu_3x3_reduce -> inception_4e/3x3_reduce (in-place)
I0902 14:26:42.452019 52488 net.cpp:155] Setting up inception_4e/relu_3x3_reduce
I0902 14:26:42.452039 52488 net.cpp:163] Top shape: 32 160 14 14 (1003520)
I0902 14:26:42.452044 52488 layer_factory.hpp:76] Creating layer inception_4e/3x3
I0902 14:26:42.452057 52488 net.cpp:110] Creating Layer inception_4e/3x3
I0902 14:26:42.452065 52488 net.cpp:477] inception_4e/3x3 <- inception_4e/3x3_reduce
I0902 14:26:42.452075 52488 net.cpp:433] inception_4e/3x3 -> inception_4e/3x3
I0902 14:26:42.461025 52488 net.cpp:155] Setting up inception_4e/3x3
I0902 14:26:42.461045 52488 net.cpp:163] Top shape: 32 320 14 14 (2007040)
I0902 14:26:42.461055 52488 layer_factory.hpp:76] Creating layer inception_4e/relu_3x3
I0902 14:26:42.461065 52488 net.cpp:110] Creating Layer inception_4e/relu_3x3
I0902 14:26:42.461071 52488 net.cpp:477] inception_4e/relu_3x3 <- inception_4e/3x3
I0902 14:26:42.461081 52488 net.cpp:419] inception_4e/relu_3x3 -> inception_4e/3x3 (in-place)
I0902 14:26:42.462338 52488 net.cpp:155] Setting up inception_4e/relu_3x3
I0902 14:26:42.462359 52488 net.cpp:163] Top shape: 32 320 14 14 (2007040)
I0902 14:26:42.462368 52488 layer_factory.hpp:76] Creating layer inception_4e/5x5_reduce
I0902 14:26:42.462378 52488 net.cpp:110] Creating Layer inception_4e/5x5_reduce
I0902 14:26:42.462384 52488 net.cpp:477] inception_4e/5x5_reduce <- inception_4d/output_inception_4d/output_0_split_3
I0902 14:26:42.462395 52488 net.cpp:433] inception_4e/5x5_reduce -> inception_4e/5x5_reduce
I0902 14:26:42.470073 52488 net.cpp:155] Setting up inception_4e/5x5_reduce
I0902 14:26:42.470093 52488 net.cpp:163] Top shape: 32 32 14 14 (200704)
I0902 14:26:42.470103 52488 layer_factory.hpp:76] Creating layer inception_4e/relu_5x5_reduce
I0902 14:26:42.470113 52488 net.cpp:110] Creating Layer inception_4e/relu_5x5_reduce
I0902 14:26:42.470118 52488 net.cpp:477] inception_4e/relu_5x5_reduce <- inception_4e/5x5_reduce
I0902 14:26:42.470129 52488 net.cpp:419] inception_4e/relu_5x5_reduce -> inception_4e/5x5_reduce (in-place)
I0902 14:26:42.472386 52488 net.cpp:155] Setting up inception_4e/relu_5x5_reduce
I0902 14:26:42.472407 52488 net.cpp:163] Top shape: 32 32 14 14 (200704)
I0902 14:26:42.472414 52488 layer_factory.hpp:76] Creating layer inception_4e/5x5
I0902 14:26:42.472437 52488 net.cpp:110] Creating Layer inception_4e/5x5
I0902 14:26:42.472445 52488 net.cpp:477] inception_4e/5x5 <- inception_4e/5x5_reduce
I0902 14:26:42.472455 52488 net.cpp:433] inception_4e/5x5 -> inception_4e/5x5
I0902 14:26:42.481046 52488 net.cpp:155] Setting up inception_4e/5x5
I0902 14:26:42.481065 52488 net.cpp:163] Top shape: 32 128 14 14 (802816)
I0902 14:26:42.481077 52488 layer_factory.hpp:76] Creating layer inception_4e/relu_5x5
I0902 14:26:42.481086 52488 net.cpp:110] Creating Layer inception_4e/relu_5x5
I0902 14:26:42.481092 52488 net.cpp:477] inception_4e/relu_5x5 <- inception_4e/5x5
I0902 14:26:42.481101 52488 net.cpp:419] inception_4e/relu_5x5 -> inception_4e/5x5 (in-place)
I0902 14:26:42.483166 52488 net.cpp:155] Setting up inception_4e/relu_5x5
I0902 14:26:42.483186 52488 net.cpp:163] Top shape: 32 128 14 14 (802816)
I0902 14:26:42.483193 52488 layer_factory.hpp:76] Creating layer inception_4e/pool
I0902 14:26:42.483199 52488 layer_factory.cpp:60] CUDNN does not support padding or multiple tops. Using Caffe's own pooling layer.
I0902 14:26:42.483206 52488 net.cpp:110] Creating Layer inception_4e/pool
I0902 14:26:42.483212 52488 net.cpp:477] inception_4e/pool <- inception_4d/output_inception_4d/output_0_split_4
I0902 14:26:42.483222 52488 net.cpp:433] inception_4e/pool -> inception_4e/pool
I0902 14:26:42.483234 52488 net.cpp:155] Setting up inception_4e/pool
I0902 14:26:42.483240 52488 net.cpp:163] Top shape: 32 528 14 14 (3311616)
I0902 14:26:42.483245 52488 layer_factory.hpp:76] Creating layer inception_4e/pool_proj
I0902 14:26:42.483255 52488 net.cpp:110] Creating Layer inception_4e/pool_proj
I0902 14:26:42.483260 52488 net.cpp:477] inception_4e/pool_proj <- inception_4e/pool
I0902 14:26:42.483270 52488 net.cpp:433] inception_4e/pool_proj -> inception_4e/pool_proj
I0902 14:26:42.489892 52488 net.cpp:155] Setting up inception_4e/pool_proj
I0902 14:26:42.489910 52488 net.cpp:163] Top shape: 32 128 14 14 (802816)
I0902 14:26:42.489920 52488 layer_factory.hpp:76] Creating layer inception_4e/relu_pool_proj
I0902 14:26:42.489928 52488 net.cpp:110] Creating Layer inception_4e/relu_pool_proj
I0902 14:26:42.489934 52488 net.cpp:477] inception_4e/relu_pool_proj <- inception_4e/pool_proj
I0902 14:26:42.489943 52488 net.cpp:419] inception_4e/relu_pool_proj -> inception_4e/pool_proj (in-place)
I0902 14:26:42.491999 52488 net.cpp:155] Setting up inception_4e/relu_pool_proj
I0902 14:26:42.492017 52488 net.cpp:163] Top shape: 32 128 14 14 (802816)
I0902 14:26:42.492023 52488 layer_factory.hpp:76] Creating layer inception_4e/output
I0902 14:26:42.492032 52488 net.cpp:110] Creating Layer inception_4e/output
I0902 14:26:42.492038 52488 net.cpp:477] inception_4e/output <- inception_4e/1x1
I0902 14:26:42.492044 52488 net.cpp:477] inception_4e/output <- inception_4e/3x3
I0902 14:26:42.492050 52488 net.cpp:477] inception_4e/output <- inception_4e/5x5
I0902 14:26:42.492056 52488 net.cpp:477] inception_4e/output <- inception_4e/pool_proj
I0902 14:26:42.492065 52488 net.cpp:433] inception_4e/output -> inception_4e/output
I0902 14:26:42.492076 52488 net.cpp:155] Setting up inception_4e/output
I0902 14:26:42.492084 52488 net.cpp:163] Top shape: 32 832 14 14 (5218304)
I0902 14:26:42.492089 52488 layer_factory.hpp:76] Creating layer pool4/3x3_s2
I0902 14:26:42.492095 52488 net.cpp:110] Creating Layer pool4/3x3_s2
I0902 14:26:42.492101 52488 net.cpp:477] pool4/3x3_s2 <- inception_4e/output
I0902 14:26:42.492110 52488 net.cpp:433] pool4/3x3_s2 -> pool4/3x3_s2
I0902 14:26:42.494412 52488 net.cpp:155] Setting up pool4/3x3_s2
I0902 14:26:42.494431 52488 net.cpp:163] Top shape: 32 832 7 7 (1304576)
I0902 14:26:42.494436 52488 layer_factory.hpp:76] Creating layer pool4/3x3_s2_pool4/3x3_s2_0_split
I0902 14:26:42.494447 52488 net.cpp:110] Creating Layer pool4/3x3_s2_pool4/3x3_s2_0_split
I0902 14:26:42.494452 52488 net.cpp:477] pool4/3x3_s2_pool4/3x3_s2_0_split <- pool4/3x3_s2
I0902 14:26:42.494460 52488 net.cpp:433] pool4/3x3_s2_pool4/3x3_s2_0_split -> pool4/3x3_s2_pool4/3x3_s2_0_split_0
I0902 14:26:42.494483 52488 net.cpp:433] pool4/3x3_s2_pool4/3x3_s2_0_split -> pool4/3x3_s2_pool4/3x3_s2_0_split_1
I0902 14:26:42.494494 52488 net.cpp:433] pool4/3x3_s2_pool4/3x3_s2_0_split -> pool4/3x3_s2_pool4/3x3_s2_0_split_2
I0902 14:26:42.494523 52488 net.cpp:433] pool4/3x3_s2_pool4/3x3_s2_0_split -> pool4/3x3_s2_pool4/3x3_s2_0_split_3
I0902 14:26:42.494532 52488 net.cpp:155] Setting up pool4/3x3_s2_pool4/3x3_s2_0_split
I0902 14:26:42.494539 52488 net.cpp:163] Top shape: 32 832 7 7 (1304576)
I0902 14:26:42.494544 52488 net.cpp:163] Top shape: 32 832 7 7 (1304576)
I0902 14:26:42.494550 52488 net.cpp:163] Top shape: 32 832 7 7 (1304576)
I0902 14:26:42.494556 52488 net.cpp:163] Top shape: 32 832 7 7 (1304576)
I0902 14:26:42.494560 52488 layer_factory.hpp:76] Creating layer inception_5a/1x1
I0902 14:26:42.494570 52488 net.cpp:110] Creating Layer inception_5a/1x1
I0902 14:26:42.494575 52488 net.cpp:477] inception_5a/1x1 <- pool4/3x3_s2_pool4/3x3_s2_0_split_0
I0902 14:26:42.494585 52488 net.cpp:433] inception_5a/1x1 -> inception_5a/1x1
I0902 14:26:42.501058 52488 net.cpp:155] Setting up inception_5a/1x1
I0902 14:26:42.501077 52488 net.cpp:163] Top shape: 32 256 7 7 (401408)
I0902 14:26:42.501091 52488 layer_factory.hpp:76] Creating layer inception_5a/relu_1x1
I0902 14:26:42.501102 52488 net.cpp:110] Creating Layer inception_5a/relu_1x1
I0902 14:26:42.501108 52488 net.cpp:477] inception_5a/relu_1x1 <- inception_5a/1x1
I0902 14:26:42.501116 52488 net.cpp:419] inception_5a/relu_1x1 -> inception_5a/1x1 (in-place)
I0902 14:26:42.503331 52488 net.cpp:155] Setting up inception_5a/relu_1x1
I0902 14:26:42.503350 52488 net.cpp:163] Top shape: 32 256 7 7 (401408)
I0902 14:26:42.503357 52488 layer_factory.hpp:76] Creating layer inception_5a/3x3_reduce
I0902 14:26:42.503370 52488 net.cpp:110] Creating Layer inception_5a/3x3_reduce
I0902 14:26:42.503376 52488 net.cpp:477] inception_5a/3x3_reduce <- pool4/3x3_s2_pool4/3x3_s2_0_split_1
I0902 14:26:42.503384 52488 net.cpp:433] inception_5a/3x3_reduce -> inception_5a/3x3_reduce
I0902 14:26:42.510047 52488 net.cpp:155] Setting up inception_5a/3x3_reduce
I0902 14:26:42.510066 52488 net.cpp:163] Top shape: 32 160 7 7 (250880)
I0902 14:26:42.510076 52488 layer_factory.hpp:76] Creating layer inception_5a/relu_3x3_reduce
I0902 14:26:42.510087 52488 net.cpp:110] Creating Layer inception_5a/relu_3x3_reduce
I0902 14:26:42.510092 52488 net.cpp:477] inception_5a/relu_3x3_reduce <- inception_5a/3x3_reduce
I0902 14:26:42.510100 52488 net.cpp:419] inception_5a/relu_3x3_reduce -> inception_5a/3x3_reduce (in-place)
I0902 14:26:42.511611 52488 net.cpp:155] Setting up inception_5a/relu_3x3_reduce
I0902 14:26:42.511629 52488 net.cpp:163] Top shape: 32 160 7 7 (250880)
I0902 14:26:42.511636 52488 layer_factory.hpp:76] Creating layer inception_5a/3x3
I0902 14:26:42.511647 52488 net.cpp:110] Creating Layer inception_5a/3x3
I0902 14:26:42.511653 52488 net.cpp:477] inception_5a/3x3 <- inception_5a/3x3_reduce
I0902 14:26:42.511662 52488 net.cpp:433] inception_5a/3x3 -> inception_5a/3x3
I0902 14:26:42.521759 52488 net.cpp:155] Setting up inception_5a/3x3
I0902 14:26:42.521777 52488 net.cpp:163] Top shape: 32 320 7 7 (501760)
I0902 14:26:42.521787 52488 layer_factory.hpp:76] Creating layer inception_5a/relu_3x3
I0902 14:26:42.521795 52488 net.cpp:110] Creating Layer inception_5a/relu_3x3
I0902 14:26:42.521801 52488 net.cpp:477] inception_5a/relu_3x3 <- inception_5a/3x3
I0902 14:26:42.521823 52488 net.cpp:419] inception_5a/relu_3x3 -> inception_5a/3x3 (in-place)
I0902 14:26:42.574961 52488 net.cpp:155] Setting up inception_5a/relu_3x3
I0902 14:26:42.574980 52488 net.cpp:163] Top shape: 32 320 7 7 (501760)
I0902 14:26:42.574986 52488 layer_factory.hpp:76] Creating layer inception_5a/5x5_reduce
I0902 14:26:42.575000 52488 net.cpp:110] Creating Layer inception_5a/5x5_reduce
I0902 14:26:42.575006 52488 net.cpp:477] inception_5a/5x5_reduce <- pool4/3x3_s2_pool4/3x3_s2_0_split_2
I0902 14:26:42.575016 52488 net.cpp:433] inception_5a/5x5_reduce -> inception_5a/5x5_reduce
I0902 14:26:42.634696 52488 net.cpp:155] Setting up inception_5a/5x5_reduce
I0902 14:26:42.634730 52488 net.cpp:163] Top shape: 32 32 7 7 (50176)
I0902 14:26:42.634742 52488 layer_factory.hpp:76] Creating layer inception_5a/relu_5x5_reduce
I0902 14:26:42.634749 52488 net.cpp:110] Creating Layer inception_5a/relu_5x5_reduce
I0902 14:26:42.634757 52488 net.cpp:477] inception_5a/relu_5x5_reduce <- inception_5a/5x5_reduce
I0902 14:26:42.634766 52488 net.cpp:419] inception_5a/relu_5x5_reduce -> inception_5a/5x5_reduce (in-place)
I0902 14:26:42.638605 52488 net.cpp:155] Setting up inception_5a/relu_5x5_reduce
I0902 14:26:42.638623 52488 net.cpp:163] Top shape: 32 32 7 7 (50176)
I0902 14:26:42.638629 52488 layer_factory.hpp:76] Creating layer inception_5a/5x5
I0902 14:26:42.638641 52488 net.cpp:110] Creating Layer inception_5a/5x5
I0902 14:26:42.638648 52488 net.cpp:477] inception_5a/5x5 <- inception_5a/5x5_reduce
I0902 14:26:42.638659 52488 net.cpp:433] inception_5a/5x5 -> inception_5a/5x5
I0902 14:26:42.698850 52488 net.cpp:155] Setting up inception_5a/5x5
I0902 14:26:42.698869 52488 net.cpp:163] Top shape: 32 128 7 7 (200704)
I0902 14:26:42.698880 52488 layer_factory.hpp:76] Creating layer inception_5a/relu_5x5
I0902 14:26:42.698889 52488 net.cpp:110] Creating Layer inception_5a/relu_5x5
I0902 14:26:42.698895 52488 net.cpp:477] inception_5a/relu_5x5 <- inception_5a/5x5
I0902 14:26:42.698904 52488 net.cpp:419] inception_5a/relu_5x5 -> inception_5a/5x5 (in-place)
I0902 14:26:42.702781 52488 net.cpp:155] Setting up inception_5a/relu_5x5
I0902 14:26:42.702800 52488 net.cpp:163] Top shape: 32 128 7 7 (200704)
I0902 14:26:42.702806 52488 layer_factory.hpp:76] Creating layer inception_5a/pool
I0902 14:26:42.702812 52488 layer_factory.cpp:60] CUDNN does not support padding or multiple tops. Using Caffe's own pooling layer.
I0902 14:26:42.702821 52488 net.cpp:110] Creating Layer inception_5a/pool
I0902 14:26:42.702827 52488 net.cpp:477] inception_5a/pool <- pool4/3x3_s2_pool4/3x3_s2_0_split_3
I0902 14:26:42.702836 52488 net.cpp:433] inception_5a/pool -> inception_5a/pool
I0902 14:26:42.702847 52488 net.cpp:155] Setting up inception_5a/pool
I0902 14:26:42.702855 52488 net.cpp:163] Top shape: 32 832 7 7 (1304576)
I0902 14:26:42.702860 52488 layer_factory.hpp:76] Creating layer inception_5a/pool_proj
I0902 14:26:42.702869 52488 net.cpp:110] Creating Layer inception_5a/pool_proj
I0902 14:26:42.702874 52488 net.cpp:477] inception_5a/pool_proj <- inception_5a/pool
I0902 14:26:42.702883 52488 net.cpp:433] inception_5a/pool_proj -> inception_5a/pool_proj
I0902 14:26:42.764271 52488 net.cpp:155] Setting up inception_5a/pool_proj
I0902 14:26:42.764289 52488 net.cpp:163] Top shape: 32 128 7 7 (200704)
I0902 14:26:42.764299 52488 layer_factory.hpp:76] Creating layer inception_5a/relu_pool_proj
I0902 14:26:42.764312 52488 net.cpp:110] Creating Layer inception_5a/relu_pool_proj
I0902 14:26:42.764317 52488 net.cpp:477] inception_5a/relu_pool_proj <- inception_5a/pool_proj
I0902 14:26:42.764328 52488 net.cpp:419] inception_5a/relu_pool_proj -> inception_5a/pool_proj (in-place)
I0902 14:26:42.817929 52488 net.cpp:155] Setting up inception_5a/relu_pool_proj
I0902 14:26:42.817947 52488 net.cpp:163] Top shape: 32 128 7 7 (200704)
I0902 14:26:42.817953 52488 layer_factory.hpp:76] Creating layer inception_5a/output
I0902 14:26:42.817962 52488 net.cpp:110] Creating Layer inception_5a/output
I0902 14:26:42.817968 52488 net.cpp:477] inception_5a/output <- inception_5a/1x1
I0902 14:26:42.817977 52488 net.cpp:477] inception_5a/output <- inception_5a/3x3
I0902 14:26:42.817983 52488 net.cpp:477] inception_5a/output <- inception_5a/5x5
I0902 14:26:42.817989 52488 net.cpp:477] inception_5a/output <- inception_5a/pool_proj
I0902 14:26:42.817996 52488 net.cpp:433] inception_5a/output -> inception_5a/output
I0902 14:26:42.818006 52488 net.cpp:155] Setting up inception_5a/output
I0902 14:26:42.818013 52488 net.cpp:163] Top shape: 32 832 7 7 (1304576)
I0902 14:26:42.818017 52488 layer_factory.hpp:76] Creating layer inception_5a/output_inception_5a/output_0_split
I0902 14:26:42.818025 52488 net.cpp:110] Creating Layer inception_5a/output_inception_5a/output_0_split
I0902 14:26:42.818047 52488 net.cpp:477] inception_5a/output_inception_5a/output_0_split <- inception_5a/output
I0902 14:26:42.818056 52488 net.cpp:433] inception_5a/output_inception_5a/output_0_split -> inception_5a/output_inception_5a/output_0_split_0
I0902 14:26:42.818065 52488 net.cpp:433] inception_5a/output_inception_5a/output_0_split -> inception_5a/output_inception_5a/output_0_split_1
I0902 14:26:42.818073 52488 net.cpp:433] inception_5a/output_inception_5a/output_0_split -> inception_5a/output_inception_5a/output_0_split_2
I0902 14:26:42.818081 52488 net.cpp:433] inception_5a/output_inception_5a/output_0_split -> inception_5a/output_inception_5a/output_0_split_3
I0902 14:26:42.818090 52488 net.cpp:155] Setting up inception_5a/output_inception_5a/output_0_split
I0902 14:26:42.818096 52488 net.cpp:163] Top shape: 32 832 7 7 (1304576)
I0902 14:26:42.818101 52488 net.cpp:163] Top shape: 32 832 7 7 (1304576)
I0902 14:26:42.818107 52488 net.cpp:163] Top shape: 32 832 7 7 (1304576)
I0902 14:26:42.818112 52488 net.cpp:163] Top shape: 32 832 7 7 (1304576)
I0902 14:26:42.818116 52488 layer_factory.hpp:76] Creating layer inception_5b/1x1
I0902 14:26:42.818128 52488 net.cpp:110] Creating Layer inception_5b/1x1
I0902 14:26:42.818135 52488 net.cpp:477] inception_5b/1x1 <- inception_5a/output_inception_5a/output_0_split_0
I0902 14:26:42.818143 52488 net.cpp:433] inception_5b/1x1 -> inception_5b/1x1
I0902 14:26:42.826325 52488 net.cpp:155] Setting up inception_5b/1x1
I0902 14:26:42.826346 52488 net.cpp:163] Top shape: 32 384 7 7 (602112)
I0902 14:26:42.826356 52488 layer_factory.hpp:76] Creating layer inception_5b/relu_1x1
I0902 14:26:42.826365 52488 net.cpp:110] Creating Layer inception_5b/relu_1x1
I0902 14:26:42.826371 52488 net.cpp:477] inception_5b/relu_1x1 <- inception_5b/1x1
I0902 14:26:42.826380 52488 net.cpp:419] inception_5b/relu_1x1 -> inception_5b/1x1 (in-place)
I0902 14:26:42.828441 52488 net.cpp:155] Setting up inception_5b/relu_1x1
I0902 14:26:42.828459 52488 net.cpp:163] Top shape: 32 384 7 7 (602112)
I0902 14:26:42.828465 52488 layer_factory.hpp:76] Creating layer inception_5b/3x3_reduce
I0902 14:26:42.828477 52488 net.cpp:110] Creating Layer inception_5b/3x3_reduce
I0902 14:26:42.828483 52488 net.cpp:477] inception_5b/3x3_reduce <- inception_5a/output_inception_5a/output_0_split_1
I0902 14:26:42.828492 52488 net.cpp:433] inception_5b/3x3_reduce -> inception_5b/3x3_reduce
I0902 14:26:42.836247 52488 net.cpp:155] Setting up inception_5b/3x3_reduce
I0902 14:26:42.836266 52488 net.cpp:163] Top shape: 32 192 7 7 (301056)
I0902 14:26:42.836277 52488 layer_factory.hpp:76] Creating layer inception_5b/relu_3x3_reduce
I0902 14:26:42.836284 52488 net.cpp:110] Creating Layer inception_5b/relu_3x3_reduce
I0902 14:26:42.836292 52488 net.cpp:477] inception_5b/relu_3x3_reduce <- inception_5b/3x3_reduce
I0902 14:26:42.836298 52488 net.cpp:419] inception_5b/relu_3x3_reduce -> inception_5b/3x3_reduce (in-place)
I0902 14:26:42.838573 52488 net.cpp:155] Setting up inception_5b/relu_3x3_reduce
I0902 14:26:42.838592 52488 net.cpp:163] Top shape: 32 192 7 7 (301056)
I0902 14:26:42.838598 52488 layer_factory.hpp:76] Creating layer inception_5b/3x3
I0902 14:26:42.838610 52488 net.cpp:110] Creating Layer inception_5b/3x3
I0902 14:26:42.838616 52488 net.cpp:477] inception_5b/3x3 <- inception_5b/3x3_reduce
I0902 14:26:42.838628 52488 net.cpp:433] inception_5b/3x3 -> inception_5b/3x3
I0902 14:26:42.850375 52488 net.cpp:155] Setting up inception_5b/3x3
I0902 14:26:42.850394 52488 net.cpp:163] Top shape: 32 384 7 7 (602112)
I0902 14:26:42.850404 52488 layer_factory.hpp:76] Creating layer inception_5b/relu_3x3
I0902 14:26:42.850412 52488 net.cpp:110] Creating Layer inception_5b/relu_3x3
I0902 14:26:42.850419 52488 net.cpp:477] inception_5b/relu_3x3 <- inception_5b/3x3
I0902 14:26:42.850428 52488 net.cpp:419] inception_5b/relu_3x3 -> inception_5b/3x3 (in-place)
I0902 14:26:42.852494 52488 net.cpp:155] Setting up inception_5b/relu_3x3
I0902 14:26:42.852511 52488 net.cpp:163] Top shape: 32 384 7 7 (602112)
I0902 14:26:42.852530 52488 layer_factory.hpp:76] Creating layer inception_5b/5x5_reduce
I0902 14:26:42.852543 52488 net.cpp:110] Creating Layer inception_5b/5x5_reduce
I0902 14:26:42.852550 52488 net.cpp:477] inception_5b/5x5_reduce <- inception_5a/output_inception_5a/output_0_split_2
I0902 14:26:42.852560 52488 net.cpp:433] inception_5b/5x5_reduce -> inception_5b/5x5_reduce
I0902 14:26:42.859246 52488 net.cpp:155] Setting up inception_5b/5x5_reduce
I0902 14:26:42.859263 52488 net.cpp:163] Top shape: 32 48 7 7 (75264)
I0902 14:26:42.859273 52488 layer_factory.hpp:76] Creating layer inception_5b/relu_5x5_reduce
I0902 14:26:42.859284 52488 net.cpp:110] Creating Layer inception_5b/relu_5x5_reduce
I0902 14:26:42.859290 52488 net.cpp:477] inception_5b/relu_5x5_reduce <- inception_5b/5x5_reduce
I0902 14:26:42.859298 52488 net.cpp:419] inception_5b/relu_5x5_reduce -> inception_5b/5x5_reduce (in-place)
I0902 14:26:42.861354 52488 net.cpp:155] Setting up inception_5b/relu_5x5_reduce
I0902 14:26:42.861371 52488 net.cpp:163] Top shape: 32 48 7 7 (75264)
I0902 14:26:42.861378 52488 layer_factory.hpp:76] Creating layer inception_5b/5x5
I0902 14:26:42.861392 52488 net.cpp:110] Creating Layer inception_5b/5x5
I0902 14:26:42.861399 52488 net.cpp:477] inception_5b/5x5 <- inception_5b/5x5_reduce
I0902 14:26:42.861407 52488 net.cpp:433] inception_5b/5x5 -> inception_5b/5x5
I0902 14:26:42.868113 52488 net.cpp:155] Setting up inception_5b/5x5
I0902 14:26:42.868130 52488 net.cpp:163] Top shape: 32 128 7 7 (200704)
I0902 14:26:42.868140 52488 layer_factory.hpp:76] Creating layer inception_5b/relu_5x5
I0902 14:26:42.868152 52488 net.cpp:110] Creating Layer inception_5b/relu_5x5
I0902 14:26:42.868158 52488 net.cpp:477] inception_5b/relu_5x5 <- inception_5b/5x5
I0902 14:26:42.868165 52488 net.cpp:419] inception_5b/relu_5x5 -> inception_5b/5x5 (in-place)
I0902 14:26:42.870240 52488 net.cpp:155] Setting up inception_5b/relu_5x5
I0902 14:26:42.870259 52488 net.cpp:163] Top shape: 32 128 7 7 (200704)
I0902 14:26:42.870265 52488 layer_factory.hpp:76] Creating layer inception_5b/pool
I0902 14:26:42.870271 52488 layer_factory.cpp:60] CUDNN does not support padding or multiple tops. Using Caffe's own pooling layer.
I0902 14:26:42.870277 52488 net.cpp:110] Creating Layer inception_5b/pool
I0902 14:26:42.870283 52488 net.cpp:477] inception_5b/pool <- inception_5a/output_inception_5a/output_0_split_3
I0902 14:26:42.870293 52488 net.cpp:433] inception_5b/pool -> inception_5b/pool
I0902 14:26:42.870306 52488 net.cpp:155] Setting up inception_5b/pool
I0902 14:26:42.870312 52488 net.cpp:163] Top shape: 32 832 7 7 (1304576)
I0902 14:26:42.870316 52488 layer_factory.hpp:76] Creating layer inception_5b/pool_proj
I0902 14:26:42.870328 52488 net.cpp:110] Creating Layer inception_5b/pool_proj
I0902 14:26:42.870333 52488 net.cpp:477] inception_5b/pool_proj <- inception_5b/pool
I0902 14:26:42.870342 52488 net.cpp:433] inception_5b/pool_proj -> inception_5b/pool_proj
I0902 14:26:42.876989 52488 net.cpp:155] Setting up inception_5b/pool_proj
I0902 14:26:42.877008 52488 net.cpp:163] Top shape: 32 128 7 7 (200704)
I0902 14:26:42.877018 52488 layer_factory.hpp:76] Creating layer inception_5b/relu_pool_proj
I0902 14:26:42.877027 52488 net.cpp:110] Creating Layer inception_5b/relu_pool_proj
I0902 14:26:42.877032 52488 net.cpp:477] inception_5b/relu_pool_proj <- inception_5b/pool_proj
I0902 14:26:42.877043 52488 net.cpp:419] inception_5b/relu_pool_proj -> inception_5b/pool_proj (in-place)
I0902 14:26:42.879106 52488 net.cpp:155] Setting up inception_5b/relu_pool_proj
I0902 14:26:42.879123 52488 net.cpp:163] Top shape: 32 128 7 7 (200704)
I0902 14:26:42.879132 52488 layer_factory.hpp:76] Creating layer inception_5b/output
I0902 14:26:42.879140 52488 net.cpp:110] Creating Layer inception_5b/output
I0902 14:26:42.879147 52488 net.cpp:477] inception_5b/output <- inception_5b/1x1
I0902 14:26:42.879153 52488 net.cpp:477] inception_5b/output <- inception_5b/3x3
I0902 14:26:42.879159 52488 net.cpp:477] inception_5b/output <- inception_5b/5x5
I0902 14:26:42.879164 52488 net.cpp:477] inception_5b/output <- inception_5b/pool_proj
I0902 14:26:42.879185 52488 net.cpp:433] inception_5b/output -> inception_5b/output
I0902 14:26:42.879196 52488 net.cpp:155] Setting up inception_5b/output
I0902 14:26:42.879204 52488 net.cpp:163] Top shape: 32 1024 7 7 (1605632)
I0902 14:26:42.879209 52488 layer_factory.hpp:76] Creating layer pool5/7x7_s1
I0902 14:26:42.879217 52488 net.cpp:110] Creating Layer pool5/7x7_s1
I0902 14:26:42.879223 52488 net.cpp:477] pool5/7x7_s1 <- inception_5b/output
I0902 14:26:42.879230 52488 net.cpp:433] pool5/7x7_s1 -> pool5/7x7_s1
I0902 14:26:42.881301 52488 net.cpp:155] Setting up pool5/7x7_s1
I0902 14:26:42.881319 52488 net.cpp:163] Top shape: 32 1024 1 1 (32768)
I0902 14:26:42.881325 52488 layer_factory.hpp:76] Creating layer pool5/drop_7x7_s1
I0902 14:26:42.881335 52488 net.cpp:110] Creating Layer pool5/drop_7x7_s1
I0902 14:26:42.881341 52488 net.cpp:477] pool5/drop_7x7_s1 <- pool5/7x7_s1
I0902 14:26:42.881350 52488 net.cpp:419] pool5/drop_7x7_s1 -> pool5/7x7_s1 (in-place)
I0902 14:26:42.881361 52488 net.cpp:155] Setting up pool5/drop_7x7_s1
I0902 14:26:42.881367 52488 net.cpp:163] Top shape: 32 1024 1 1 (32768)
I0902 14:26:42.881372 52488 layer_factory.hpp:76] Creating layer cub/loss3/classifier
I0902 14:26:42.881381 52488 net.cpp:110] Creating Layer cub/loss3/classifier
I0902 14:26:42.881386 52488 net.cpp:477] cub/loss3/classifier <- pool5/7x7_s1
I0902 14:26:42.881394 52488 net.cpp:433] cub/loss3/classifier -> loss3/classifier
I0902 14:26:42.883962 52488 net.cpp:155] Setting up cub/loss3/classifier
I0902 14:26:42.883980 52488 net.cpp:163] Top shape: 32 200 (6400)
I0902 14:26:42.883991 52488 layer_factory.hpp:76] Creating layer loss3/classifier_cub/loss3/classifier_0_split
I0902 14:26:42.883998 52488 net.cpp:110] Creating Layer loss3/classifier_cub/loss3/classifier_0_split
I0902 14:26:42.884006 52488 net.cpp:477] loss3/classifier_cub/loss3/classifier_0_split <- loss3/classifier
I0902 14:26:42.884013 52488 net.cpp:433] loss3/classifier_cub/loss3/classifier_0_split -> loss3/classifier_cub/loss3/classifier_0_split_0
I0902 14:26:42.884022 52488 net.cpp:433] loss3/classifier_cub/loss3/classifier_0_split -> loss3/classifier_cub/loss3/classifier_0_split_1
I0902 14:26:42.884030 52488 net.cpp:433] loss3/classifier_cub/loss3/classifier_0_split -> loss3/classifier_cub/loss3/classifier_0_split_2
I0902 14:26:42.884039 52488 net.cpp:155] Setting up loss3/classifier_cub/loss3/classifier_0_split
I0902 14:26:42.884045 52488 net.cpp:163] Top shape: 32 200 (6400)
I0902 14:26:42.884050 52488 net.cpp:163] Top shape: 32 200 (6400)
I0902 14:26:42.884055 52488 net.cpp:163] Top shape: 32 200 (6400)
I0902 14:26:42.884060 52488 layer_factory.hpp:76] Creating layer loss3/loss3
I0902 14:26:42.884069 52488 net.cpp:110] Creating Layer loss3/loss3
I0902 14:26:42.884074 52488 net.cpp:477] loss3/loss3 <- loss3/classifier_cub/loss3/classifier_0_split_0
I0902 14:26:42.884080 52488 net.cpp:477] loss3/loss3 <- label_data_1_split_6
I0902 14:26:42.884088 52488 net.cpp:433] loss3/loss3 -> loss3/loss3
…
