…
I0907 21:53:30.692211 100997 net.cpp:339] The NetState phase (0) differed from the phase (1) specified by a rule in layer data
I0907 21:53:30.695385 100997 net.cpp:50] Initializing net from parameters: 
name: "CUB_GoogleNet_ST"
state {
  phase: TRAIN
}
layer {
  name: "data"
  type: "ImageData"
  top: "data"
  top: "label"
  include {
    phase: TRAIN
  }
  transform_param {
    mirror: true
    crop_size: 224
    mean_value: 104
    mean_value: 117
    mean_value: 123
  }
  image_data_param {
    source: "data/CUB_200_2011/train_files.txt"
    batch_size: 16
    shuffle: true
    new_height: 256
    new_width: 256
  }
}
layer {
  name: "st/conv1/7x7_s2"
  type: "Convolution"
  bottom: "data"
  top: "st/conv1/7x7_s2"
  param {
    lr_mult: 1
    decay_mult: 1
  }
  param {
    lr_mult: 2
    decay_mult: 0
  }
  convolution_param {
    num_output: 64
    pad: 3
    kernel_size: 7
    stride: 2
    weight_filler {
      type: "msra"
    }
    bias_filler {
      type: "constant"
      value: 0.2
    }
  }
}
layer {
  name: "st/conv1/relu_7x7"
  type: "ReLU"
  bottom: "st/conv1/7x7_s2"
  top: "st/conv1/7x7_s2"
}
layer {
  name: "st/pool1/3x3_s2"
  type: "Pooling"
  bottom: "st/conv1/7x7_s2"
  top: "st/pool1/3x3_s2"
  pooling_param {
    pool: MAX
    kernel_size: 3
    stride: 2
  }
}
layer {
  name: "st/pool1/norm1"
  type: "LRN"
  bottom: "st/pool1/3x3_s2"
  top: "st/pool1/norm1"
  lrn_param {
    local_size: 5
    alpha: 0.0001
    beta: 0.75
  }
}
layer {
  name: "st/conv2/3x3_reduce"
  type: "Convolution"
  bottom: "st/pool1/norm1"
  top: "st/conv2/3x3_reduce"
  param {
    lr_mult: 1
    decay_mult: 1
  }
  param {
    lr_mult: 2
    decay_mult: 0
  }
  convolution_param {
    num_output: 64
    kernel_size: 1
    weight_filler {
      type: "msra"
    }
    bias_filler {
      type: "constant"
      value: 0.2
    }
  }
}
layer {
  name: "st/conv2/relu_3x3_reduce"
  type: "ReLU"
  bottom: "st/conv2/3x3_reduce"
  top: "st/conv2/3x3_reduce"
}
layer {
  name: "st/conv2/3x3"
  type: "Convolution"
  bottom: "st/conv2/3x3_reduce"
  top: "st/conv2/3x3"
  param {
    lr_mult: 1
    decay_mult: 1
  }
  param {
    lr_mult: 2
    decay_mult: 0
  }
  convolution_param {
    num_output: 192
    pad: 1
    kernel_size: 3
    weight_filler {
      type: "msra"
    }
    bias_filler {
      type: "constant"
      value: 0.2
    }
  }
}
layer {
  name: "st/conv2/relu_3x3"
  type: "ReLU"
  bottom: "st/conv2/3x3"
  top: "st/conv2/3x3"
}
layer {
  name: "st/conv2/norm2"
  type: "LRN"
  bottom: "st/conv2/3x3"
  top: "st/conv2/norm2"
  lrn_param {
    local_size: 5
    alpha: 0.0001
    beta: 0.75
  }
}
layer {
  name: "st/pool2/3x3_s2"
  type: "Pooling"
  bottom: "st/conv2/norm2"
  top: "st/pool2/3x3_s2"
  pooling_param {
    pool: MAX
    kernel_size: 3
    stride: 2
  }
}
layer {
  name: "st/inception_3a/1x1"
  type: "Convolution"
  bottom: "st/pool2/3x3_s2"
  top: "st/inception_3a/1x1"
  param {
    lr_mult: 1
    decay_mult: 1
  }
  param {
    lr_mult: 2
    decay_mult: 0
  }
  convolution_param {
    num_output: 64
    kernel_size: 1
    weight_filler {
      type: "msra"
    }
    bias_filler {
      type: "constant"
      value: 0.2
    }
  }
}
layer {
  name: "st/inception_3a/relu_1x1"
  type: "ReLU"
  bottom: "st/inception_3a/1x1"
  top: "st/inception_3a/1x1"
}
layer {
  name: "st/inception_3a/3x3_reduce"
  type: "Convolution"
  bottom: "st/pool2/3x3_s2"
  top: "st/inception_3a/3x3_reduce"
  param {
    lr_mult: 1
    decay_mult: 1
  }
  param {
    lr_mult: 2
    decay_mult: 0
  }
  convolution_param {
    num_output: 96
    kernel_size: 1
    weight_filler {
      type: "msra"
    }
    bias_filler {
      type: "constant"
      value: 0.2
    }
  }
}
layer {
  name: "st/inception_3a/relu_3x3_reduce"
  type: "ReLU"
  bottom: "st/inception_3a/3x3_reduce"
  top: "st/inception_3a/3x3_reduce"
}
layer {
  name: "st/inception_3a/3x3"
  type: "Convolution"
  bottom: "st/inception_3a/3x3_reduce"
  top: "st/inception_3a/3x3"
  param {
    lr_mult: 1
    decay_mult: 1
  }
  param {
    lr_mult: 2
    decay_mult: 0
  }
  convolution_param {
    num_output: 128
    pad: 1
    kernel_size: 3
    weight_filler {
      type: "msra"
    }
    bias_filler {
      type: "constant"
      value: 0.2
    }
  }
}
layer {
  name: "st/inception_3a/relu_3x3"
  type: "ReLU"
  bottom: "st/inception_3a/3x3"
  top: "st/inception_3a/3x3"
}
layer {
  name: "st/inception_3a/5x5_reduce"
  type: "Convolution"
  bottom: "st/pool2/3x3_s2"
  top: "st/inception_3a/5x5_reduce"
  param {
    lr_mult: 1
    decay_mult: 1
  }
  param {
    lr_mult: 2
    decay_mult: 0
  }
  convolution_param {
    num_output: 16
    kernel_size: 1
    weight_filler {
      type: "msra"
    }
    bias_filler {
      type: "constant"
      value: 0.2
    }
  }
}
layer {
  name: "st/inception_3a/relu_5x5_reduce"
  type: "ReLU"
  bottom: "st/inception_3a/5x5_reduce"
  top: "st/inception_3a/5x5_reduce"
}
layer {
  name: "st/inception_3a/5x5"
  type: "Convolution"
  bottom: "st/inception_3a/5x5_reduce"
  top: "st/inception_3a/5x5"
  param {
    lr_mult: 1
    decay_mult: 1
  }
  param {
    lr_mult: 2
    decay_mult: 0
  }
  convolution_param {
    num_output: 32
    pad: 2
    kernel_size: 5
    weight_filler {
      type: "msra"
    }
    bias_filler {
      type: "constant"
      value: 0.2
    }
  }
}
layer {
  name: "st/inception_3a/relu_5x5"
  type: "ReLU"
  bottom: "st/inception_3a/5x5"
  top: "st/inception_3a/5x5"
}
layer {
  name: "st/inception_3a/pool"
  type: "Pooling"
  bottom: "st/pool2/3x3_s2"
  top: "st/inception_3a/pool"
  pooling_param {
    pool: MAX
    kernel_size: 3
    stride: 1
    pad: 1
  }
}
layer {
  name: "st/inception_3a/pool_proj"
  type: "Convolution"
  bottom: "st/inception_3a/pool"
  top: "st/inception_3a/pool_proj"
  param {
    lr_mult: 1
    decay_mult: 1
  }
  param {
    lr_mult: 2
    decay_mult: 0
  }
  convolution_param {
    num_output: 32
    kernel_size: 1
    weight_filler {
      type: "msra"
    }
    bias_filler {
      type: "constant"
      value: 0.2
    }
  }
}
layer {
  name: "st/inception_3a/relu_pool_proj"
  type: "ReLU"
  bottom: "st/inception_3a/pool_proj"
  top: "st/inception_3a/pool_proj"
}
layer {
  name: "st/inception_3a/output"
  type: "Concat"
  bottom: "st/inception_3a/1x1"
  bottom: "st/inception_3a/3x3"
  bottom: "st/inception_3a/5x5"
  bottom: "st/inception_3a/pool_proj"
  top: "st/inception_3a/output"
}
layer {
  name: "st/inception_3b/1x1"
  type: "Convolution"
  bottom: "st/inception_3a/output"
  top: "st/inception_3b/1x1"
  param {
    lr_mult: 1
    decay_mult: 1
  }
  param {
    lr_mult: 2
    decay_mult: 0
  }
  convolution_param {
    num_output: 128
    kernel_size: 1
    weight_filler {
      type: "msra"
    }
    bias_filler {
      type: "constant"
      value: 0.2
    }
  }
}
layer {
  name: "st/inception_3b/relu_1x1"
  type: "ReLU"
  bottom: "st/inception_3b/1x1"
  top: "st/inception_3b/1x1"
}
layer {
  name: "st/inception_3b/3x3_reduce"
  type: "Convolution"
  bottom: "st/inception_3a/output"
  top: "st/inception_3b/3x3_reduce"
  param {
    lr_mult: 1
    decay_mult: 1
  }
  param {
    lr_mult: 2
    decay_mult: 0
  }
  convolution_param {
    num_output: 128
    kernel_size: 1
    weight_filler {
      type: "msra"
    }
    bias_filler {
      type: "constant"
      value: 0.2
    }
  }
}
layer {
  name: "st/inception_3b/relu_3x3_reduce"
  type: "ReLU"
  bottom: "st/inception_3b/3x3_reduce"
  top: "st/inception_3b/3x3_reduce"
}
layer {
  name: "st/inception_3b/3x3"
  type: "Convolution"
  bottom: "st/inception_3b/3x3_reduce"
  top: "st/inception_3b/3x3"
  param {
    lr_mult: 1
    decay_mult: 1
  }
  param {
    lr_mult: 2
    decay_mult: 0
  }
  convolution_param {
    num_output: 192
    pad: 1
    kernel_size: 3
    weight_filler {
      type: "msra"
    }
    bias_filler {
      type: "constant"
      value: 0.2
    }
  }
}
layer {
  name: "st/inception_3b/relu_3x3"
  type: "ReLU"
  bottom: "st/inception_3b/3x3"
  top: "st/inception_3b/3x3"
}
layer {
  name: "st/inception_3b/5x5_reduce"
  type: "Convolution"
  bottom: "st/inception_3a/output"
  top: "st/inception_3b/5x5_reduce"
  param {
    lr_mult: 1
    decay_mult: 1
  }
  param {
    lr_mult: 2
    decay_mult: 0
  }
  convolution_param {
    num_output: 32
    kernel_size: 1
    weight_filler {
      type: "msra"
    }
    bias_filler {
      type: "constant"
      value: 0.2
    }
  }
}
layer {
  name: "st/inception_3b/relu_5x5_reduce"
  type: "ReLU"
  bottom: "st/inception_3b/5x5_reduce"
  top: "st/inception_3b/5x5_reduce"
}
layer {
  name: "st/inception_3b/5x5"
  type: "Convolution"
  bottom: "st/inception_3b/5x5_reduce"
  top: "st/inception_3b/5x5"
  param {
    lr_mult: 1
    decay_mult: 1
  }
  param {
    lr_mult: 2
    decay_mult: 0
  }
  convolution_param {
    num_output: 96
    pad: 2
    kernel_size: 5
    weight_filler {
      type: "msra"
    }
    bias_filler {
      type: "constant"
      value: 0.2
    }
  }
}
layer {
  name: "st/inception_3b/relu_5x5"
  type: "ReLU"
  bottom: "st/inception_3b/5x5"
  top: "st/inception_3b/5x5"
}
layer {
  name: "st/inception_3b/pool"
  type: "Pooling"
  bottom: "st/inception_3a/output"
  top: "st/inception_3b/pool"
  pooling_param {
    pool: MAX
    kernel_size: 3
    stride: 1
    pad: 1
  }
}
layer {
  name: "st/inception_3b/pool_proj"
  type: "Convolution"
  bottom: "st/inception_3b/pool"
  top: "st/inception_3b/pool_proj"
  param {
    lr_mult: 1
    decay_mult: 1
  }
  param {
    lr_mult: 2
    decay_mult: 0
  }
  convolution_param {
    num_output: 64
    kernel_size: 1
    weight_filler {
      type: "msra"
    }
    bias_filler {
      type: "constant"
      value: 0.2
    }
  }
}
layer {
  name: "st/inception_3b/relu_pool_proj"
  type: "ReLU"
  bottom: "st/inception_3b/pool_proj"
  top: "st/inception_3b/pool_proj"
}
layer {
  name: "st/inception_3b/output"
  type: "Concat"
  bottom: "st/inception_3b/1x1"
  bottom: "st/inception_3b/3x3"
  bottom: "st/inception_3b/5x5"
  bottom: "st/inception_3b/pool_proj"
  top: "st/inception_3b/output"
}
layer {
  name: "st/pool3/3x3_s2"
  type: "Pooling"
  bottom: "st/inception_3b/output"
  top: "st/pool3/3x3_s2"
  pooling_param {
    pool: MAX
    kernel_size: 3
    stride: 2
  }
}
layer {
  name: "st/inception_4a/1x1"
  type: "Convolution"
  bottom: "st/pool3/3x3_s2"
  top: "st/inception_4a/1x1"
  param {
    lr_mult: 1
    decay_mult: 1
  }
  param {
    lr_mult: 2
    decay_mult: 0
  }
  convolution_param {
    num_output: 192
    kernel_size: 1
    weight_filler {
      type: "msra"
    }
    bias_filler {
      type: "constant"
      value: 0.2
    }
  }
}
layer {
  name: "st/inception_4a/relu_1x1"
  type: "ReLU"
  bottom: "st/inception_4a/1x1"
  top: "st/inception_4a/1x1"
}
layer {
  name: "st/inception_4a/3x3_reduce"
  type: "Convolution"
  bottom: "st/pool3/3x3_s2"
  top: "st/inception_4a/3x3_reduce"
  param {
    lr_mult: 1
    decay_mult: 1
  }
  param {
    lr_mult: 2
    decay_mult: 0
  }
  convolution_param {
    num_output: 96
    kernel_size: 1
    weight_filler {
      type: "msra"
    }
    bias_filler {
      type: "constant"
      value: 0.2
    }
  }
}
layer {
  name: "st/inception_4a/relu_3x3_reduce"
  type: "ReLU"
  bottom: "st/inception_4a/3x3_reduce"
  top: "st/inception_4a/3x3_reduce"
}
layer {
  name: "st/inception_4a/3x3"
  type: "Convolution"
  bottom: "st/inception_4a/3x3_reduce"
  top: "st/inception_4a/3x3"
  param {
    lr_mult: 1
    decay_mult: 1
  }
  param {
    lr_mult: 2
    decay_mult: 0
  }
  convolution_param {
    num_output: 208
    pad: 1
    kernel_size: 3
    weight_filler {
      type: "msra"
    }
    bias_filler {
      type: "constant"
      value: 0.2
    }
  }
}
layer {
  name: "st/inception_4a/relu_3x3"
  type: "ReLU"
  bottom: "st/inception_4a/3x3"
  top: "st/inception_4a/3x3"
}
layer {
  name: "st/inception_4a/5x5_reduce"
  type: "Convolution"
  bottom: "st/pool3/3x3_s2"
  top: "st/inception_4a/5x5_reduce"
  param {
    lr_mult: 1
    decay_mult: 1
  }
  param {
    lr_mult: 2
    decay_mult: 0
  }
  convolution_param {
    num_output: 16
    kernel_size: 1
    weight_filler {
      type: "msra"
    }
    bias_filler {
      type: "constant"
      value: 0.2
    }
  }
}
layer {
  name: "st/inception_4a/relu_5x5_reduce"
  type: "ReLU"
  bottom: "st/inception_4a/5x5_reduce"
  top: "st/inception_4a/5x5_reduce"
}
layer {
  name: "st/inception_4a/5x5"
  type: "Convolution"
  bottom: "st/inception_4a/5x5_reduce"
  top: "st/inception_4a/5x5"
  param {
    lr_mult: 1
    decay_mult: 1
  }
  param {
    lr_mult: 2
    decay_mult: 0
  }
  convolution_param {
    num_output: 48
    pad: 2
    kernel_size: 5
    weight_filler {
      type: "msra"
    }
    bias_filler {
      type: "constant"
      value: 0.2
    }
  }
}
layer {
  name: "st/inception_4a/relu_5x5"
  type: "ReLU"
  bottom: "st/inception_4a/5x5"
  top: "st/inception_4a/5x5"
}
layer {
  name: "st/inception_4a/pool"
  type: "Pooling"
  bottom: "st/pool3/3x3_s2"
  top: "st/inception_4a/pool"
  pooling_param {
    pool: MAX
    kernel_size: 3
    stride: 1
    pad: 1
  }
}
layer {
  name: "st/inception_4a/pool_proj"
  type: "Convolution"
  bottom: "st/inception_4a/pool"
  top: "st/inception_4a/pool_proj"
  param {
    lr_mult: 1
    decay_mult: 1
  }
  param {
    lr_mult: 2
    decay_mult: 0
  }
  convolution_param {
    num_output: 64
    kernel_size: 1
    weight_filler {
      type: "msra"
    }
    bias_filler {
      type: "constant"
      value: 0.2
    }
  }
}
layer {
  name: "st/inception_4a/relu_pool_proj"
  type: "ReLU"
  bottom: "st/inception_4a/pool_proj"
  top: "st/inception_4a/pool_proj"
}
layer {
  name: "st/inception_4a/output"
  type: "Concat"
  bottom: "st/inception_4a/1x1"
  bottom: "st/inception_4a/3x3"
  bottom: "st/inception_4a/5x5"
  bottom: "st/inception_4a/pool_proj"
  top: "st/inception_4a/output"
}
layer {
  name: "st/inception_4b/1x1"
  type: "Convolution"
  bottom: "st/inception_4a/output"
  top: "st/inception_4b/1x1"
  param {
    lr_mult: 1
    decay_mult: 1
  }
  param {
    lr_mult: 2
    decay_mult: 0
  }
  convolution_param {
    num_output: 160
    kernel_size: 1
    weight_filler {
      type: "msra"
    }
    bias_filler {
      type: "constant"
      value: 0.2
    }
  }
}
layer {
  name: "st/inception_4b/relu_1x1"
  type: "ReLU"
  bottom: "st/inception_4b/1x1"
  top: "st/inception_4b/1x1"
}
layer {
  name: "st/inception_4b/3x3_reduce"
  type: "Convolution"
  bottom: "st/inception_4a/output"
  top: "st/inception_4b/3x3_reduce"
  param {
    lr_mult: 1
    decay_mult: 1
  }
  param {
    lr_mult: 2
    decay_mult: 0
  }
  convolution_param {
    num_output: 112
    kernel_size: 1
    weight_filler {
      type: "msra"
    }
    bias_filler {
      type: "constant"
      value: 0.2
    }
  }
}
layer {
  name: "st/inception_4b/relu_3x3_reduce"
  type: "ReLU"
  bottom: "st/inception_4b/3x3_reduce"
  top: "st/inception_4b/3x3_reduce"
}
layer {
  name: "st/inception_4b/3x3"
  type: "Convolution"
  bottom: "st/inception_4b/3x3_reduce"
  top: "st/inception_4b/3x3"
  param {
    lr_mult: 1
    decay_mult: 1
  }
  param {
    lr_mult: 2
    decay_mult: 0
  }
  convolution_param {
    num_output: 224
    pad: 1
    kernel_size: 3
    weight_filler {
      type: "msra"
    }
    bias_filler {
      type: "constant"
      value: 0.2
    }
  }
}
layer {
  name: "st/inception_4b/relu_3x3"
  type: "ReLU"
  bottom: "st/inception_4b/3x3"
  top: "st/inception_4b/3x3"
}
layer {
  name: "st/inception_4b/5x5_reduce"
  type: "Convolution"
  bottom: "st/inception_4a/output"
  top: "st/inception_4b/5x5_reduce"
  param {
    lr_mult: 1
    decay_mult: 1
  }
  param {
    lr_mult: 2
    decay_mult: 0
  }
  convolution_param {
    num_output: 24
    kernel_size: 1
    weight_filler {
      type: "msra"
    }
    bias_filler {
      type: "constant"
      value: 0.2
    }
  }
}
layer {
  name: "st/inception_4b/relu_5x5_reduce"
  type: "ReLU"
  bottom: "st/inception_4b/5x5_reduce"
  top: "st/inception_4b/5x5_reduce"
}
layer {
  name: "st/inception_4b/5x5"
  type: "Convolution"
  bottom: "st/inception_4b/5x5_reduce"
  top: "st/inception_4b/5x5"
  param {
    lr_mult: 1
    decay_mult: 1
  }
  param {
    lr_mult: 2
    decay_mult: 0
  }
  convolution_param {
    num_output: 64
    pad: 2
    kernel_size: 5
    weight_filler {
      type: "msra"
    }
    bias_filler {
      type: "constant"
      value: 0.2
    }
  }
}
layer {
  name: "st/inception_4b/relu_5x5"
  type: "ReLU"
  bottom: "st/inception_4b/5x5"
  top: "st/inception_4b/5x5"
}
layer {
  name: "st/inception_4b/pool"
  type: "Pooling"
  bottom: "st/inception_4a/output"
  top: "st/inception_4b/pool"
  pooling_param {
    pool: MAX
    kernel_size: 3
    stride: 1
    pad: 1
  }
}
layer {
  name: "st/inception_4b/pool_proj"
  type: "Convolution"
  bottom: "st/inception_4b/pool"
  top: "st/inception_4b/pool_proj"
  param {
    lr_mult: 1
    decay_mult: 1
  }
  param {
    lr_mult: 2
    decay_mult: 0
  }
  convolution_param {
    num_output: 64
    kernel_size: 1
    weight_filler {
      type: "msra"
    }
    bias_filler {
      type: "constant"
      value: 0.2
    }
  }
}
layer {
  name: "st/inception_4b/relu_pool_proj"
  type: "ReLU"
  bottom: "st/inception_4b/pool_proj"
  top: "st/inception_4b/pool_proj"
}
layer {
  name: "st/inception_4b/output"
  type: "Concat"
  bottom: "st/inception_4b/1x1"
  bottom: "st/inception_4b/3x3"
  bottom: "st/inception_4b/5x5"
  bottom: "st/inception_4b/pool_proj"
  top: "st/inception_4b/output"
}
layer {
  name: "st/inception_4c/1x1"
  type: "Convolution"
  bottom: "st/inception_4b/output"
  top: "st/inception_4c/1x1"
  param {
    lr_mult: 1
    decay_mult: 1
  }
  param {
    lr_mult: 2
    decay_mult: 0
  }
  convolution_param {
    num_output: 128
    kernel_size: 1
    weight_filler {
      type: "msra"
    }
    bias_filler {
      type: "constant"
      value: 0.2
    }
  }
}
layer {
  name: "st/inception_4c/relu_1x1"
  type: "ReLU"
  bottom: "st/inception_4c/1x1"
  top: "st/inception_4c/1x1"
}
layer {
  name: "st/inception_4c/3x3_reduce"
  type: "Convolution"
  bottom: "st/inception_4b/output"
  top: "st/inception_4c/3x3_reduce"
  param {
    lr_mult: 1
    decay_mult: 1
  }
  param {
    lr_mult: 2
    decay_mult: 0
  }
  convolution_param {
    num_output: 128
    kernel_size: 1
    weight_filler {
      type: "msra"
    }
    bias_filler {
      type: "constant"
      value: 0.2
    }
  }
}
layer {
  name: "st/inception_4c/relu_3x3_reduce"
  type: "ReLU"
  bottom: "st/inception_4c/3x3_reduce"
  top: "st/inception_4c/3x3_reduce"
}
layer {
  name: "st/inception_4c/3x3"
  type: "Convolution"
  bottom: "st/inception_4c/3x3_reduce"
  top: "st/inception_4c/3x3"
  param {
    lr_mult: 1
    decay_mult: 1
  }
  param {
    lr_mult: 2
    decay_mult: 0
  }
  convolution_param {
    num_output: 256
    pad: 1
    kernel_size: 3
    weight_filler {
      type: "msra"
    }
    bias_filler {
      type: "constant"
      value: 0.2
    }
  }
}
layer {
  name: "st/inception_4c/relu_3x3"
  type: "ReLU"
  bottom: "st/inception_4c/3x3"
  top: "st/inception_4c/3x3"
}
layer {
  name: "st/inception_4c/5x5_reduce"
  type: "Convolution"
  bottom: "st/inception_4b/output"
  top: "st/inception_4c/5x5_reduce"
  param {
    lr_mult: 1
    decay_mult: 1
  }
  param {
    lr_mult: 2
    decay_mult: 0
  }
  convolution_param {
    num_output: 24
    kernel_size: 1
    weight_filler {
      type: "msra"
    }
    bias_filler {
      type: "constant"
      value: 0.2
    }
  }
}
layer {
  name: "st/inception_4c/relu_5x5_reduce"
  type: "ReLU"
  bottom: "st/inception_4c/5x5_reduce"
  top: "st/inception_4c/5x5_reduce"
}
layer {
  name: "st/inception_4c/5x5"
  type: "Convolution"
  bottom: "st/inception_4c/5x5_reduce"
  top: "st/inception_4c/5x5"
  param {
    lr_mult: 1
    decay_mult: 1
  }
  param {
    lr_mult: 2
    decay_mult: 0
  }
  convolution_param {
    num_output: 64
    pad: 2
    kernel_size: 5
    weight_filler {
      type: "msra"
    }
    bias_filler {
      type: "constant"
      value: 0.2
    }
  }
}
layer {
  name: "st/inception_4c/relu_5x5"
  type: "ReLU"
  bottom: "st/inception_4c/5x5"
  top: "st/inception_4c/5x5"
}
layer {
  name: "st/inception_4c/pool"
  type: "Pooling"
  bottom: "st/inception_4b/output"
  top: "st/inception_4c/pool"
  pooling_param {
    pool: MAX
    kernel_size: 3
    stride: 1
    pad: 1
  }
}
layer {
  name: "st/inception_4c/pool_proj"
  type: "Convolution"
  bottom: "st/inception_4c/pool"
  top: "st/inception_4c/pool_proj"
  param {
    lr_mult: 1
    decay_mult: 1
  }
  param {
    lr_mult: 2
    decay_mult: 0
  }
  convolution_param {
    num_output: 64
    kernel_size: 1
    weight_filler {
      type: "msra"
    }
    bias_filler {
      type: "constant"
      value: 0.2
    }
  }
}
layer {
  name: "st/inception_4c/relu_pool_proj"
  type: "ReLU"
  bottom: "st/inception_4c/pool_proj"
  top: "st/inception_4c/pool_proj"
}
layer {
  name: "st/inception_4c/output"
  type: "Concat"
  bottom: "st/inception_4c/1x1"
  bottom: "st/inception_4c/3x3"
  bottom: "st/inception_4c/5x5"
  bottom: "st/inception_4c/pool_proj"
  top: "st/inception_4c/output"
}
layer {
  name: "st/inception_4d/1x1"
  type: "Convolution"
  bottom: "st/inception_4c/output"
  top: "st/inception_4d/1x1"
  param {
    lr_mult: 1
    decay_mult: 1
  }
  param {
    lr_mult: 2
    decay_mult: 0
  }
  convolution_param {
    num_output: 112
    kernel_size: 1
    weight_filler {
      type: "msra"
    }
    bias_filler {
      type: "constant"
      value: 0.2
    }
  }
}
layer {
  name: "st/inception_4d/relu_1x1"
  type: "ReLU"
  bottom: "st/inception_4d/1x1"
  top: "st/inception_4d/1x1"
}
layer {
  name: "st/inception_4d/3x3_reduce"
  type: "Convolution"
  bottom: "st/inception_4c/output"
  top: "st/inception_4d/3x3_reduce"
  param {
    lr_mult: 1
    decay_mult: 1
  }
  param {
    lr_mult: 2
    decay_mult: 0
  }
  convolution_param {
    num_output: 144
    kernel_size: 1
    weight_filler {
      type: "msra"
    }
    bias_filler {
      type: "constant"
      value: 0.2
    }
  }
}
layer {
  name: "st/inception_4d/relu_3x3_reduce"
  type: "ReLU"
  bottom: "st/inception_4d/3x3_reduce"
  top: "st/inception_4d/3x3_reduce"
}
layer {
  name: "st/inception_4d/3x3"
  type: "Convolution"
  bottom: "st/inception_4d/3x3_reduce"
  top: "st/inception_4d/3x3"
  param {
    lr_mult: 1
    decay_mult: 1
  }
  param {
    lr_mult: 2
    decay_mult: 0
  }
  convolution_param {
    num_output: 288
    pad: 1
    kernel_size: 3
    weight_filler {
      type: "msra"
    }
    bias_filler {
      type: "constant"
      value: 0.2
    }
  }
}
layer {
  name: "st/inception_4d/relu_3x3"
  type: "ReLU"
  bottom: "st/inception_4d/3x3"
  top: "st/inception_4d/3x3"
}
layer {
  name: "st/inception_4d/5x5_reduce"
  type: "Convolution"
  bottom: "st/inception_4c/output"
  top: "st/inception_4d/5x5_reduce"
  param {
    lr_mult: 1
    decay_mult: 1
  }
  param {
    lr_mult: 2
    decay_mult: 0
  }
  convolution_param {
    num_output: 32
    kernel_size: 1
    weight_filler {
      type: "msra"
    }
    bias_filler {
      type: "constant"
      value: 0.2
    }
  }
}
layer {
  name: "st/inception_4d/relu_5x5_reduce"
  type: "ReLU"
  bottom: "st/inception_4d/5x5_reduce"
  top: "st/inception_4d/5x5_reduce"
}
layer {
  name: "st/inception_4d/5x5"
  type: "Convolution"
  bottom: "st/inception_4d/5x5_reduce"
  top: "st/inception_4d/5x5"
  param {
    lr_mult: 1
    decay_mult: 1
  }
  param {
    lr_mult: 2
    decay_mult: 0
  }
  convolution_param {
    num_output: 64
    pad: 2
    kernel_size: 5
    weight_filler {
      type: "msra"
    }
    bias_filler {
      type: "constant"
      value: 0.2
    }
  }
}
layer {
  name: "st/inception_4d/relu_5x5"
  type: "ReLU"
  bottom: "st/inception_4d/5x5"
  top: "st/inception_4d/5x5"
}
layer {
  name: "st/inception_4d/pool"
  type: "Pooling"
  bottom: "st/inception_4c/output"
  top: "st/inception_4d/pool"
  pooling_param {
    pool: MAX
    kernel_size: 3
    stride: 1
    pad: 1
  }
}
layer {
  name: "st/inception_4d/pool_proj"
  type: "Convolution"
  bottom: "st/inception_4d/pool"
  top: "st/inception_4d/pool_proj"
  param {
    lr_mult: 1
    decay_mult: 1
  }
  param {
    lr_mult: 2
    decay_mult: 0
  }
  convolution_param {
    num_output: 64
    kernel_size: 1
    weight_filler {
      type: "msra"
    }
    bias_filler {
      type: "constant"
      value: 0.2
    }
  }
}
layer {
  name: "st/inception_4d/relu_pool_proj"
  type: "ReLU"
  bottom: "st/inception_4d/pool_proj"
  top: "st/inception_4d/pool_proj"
}
layer {
  name: "st/inception_4d/output"
  type: "Concat"
  bottom: "st/inception_4d/1x1"
  bottom: "st/inception_4d/3x3"
  bottom: "st/inception_4d/5x5"
  bottom: "st/inception_4d/pool_proj"
  top: "st/inception_4d/output"
}
layer {
  name: "st/inception_4e/1x1"
  type: "Convolution"
  bottom: "st/inception_4d/output"
  top: "st/inception_4e/1x1"
  param {
    lr_mult: 1
    decay_mult: 1
  }
  param {
    lr_mult: 2
    decay_mult: 0
  }
  convolution_param {
    num_output: 256
    kernel_size: 1
    weight_filler {
      type: "msra"
    }
    bias_filler {
      type: "constant"
      value: 0.2
    }
  }
}
layer {
  name: "st/inception_4e/relu_1x1"
  type: "ReLU"
  bottom: "st/inception_4e/1x1"
  top: "st/inception_4e/1x1"
}
layer {
  name: "st/inception_4e/3x3_reduce"
  type: "Convolution"
  bottom: "st/inception_4d/output"
  top: "st/inception_4e/3x3_reduce"
  param {
    lr_mult: 1
    decay_mult: 1
  }
  param {
    lr_mult: 2
    decay_mult: 0
  }
  convolution_param {
    num_output: 160
    kernel_size: 1
    weight_filler {
      type: "msra"
    }
    bias_filler {
      type: "constant"
      value: 0.2
    }
  }
}
layer {
  name: "st/inception_4e/relu_3x3_reduce"
  type: "ReLU"
  bottom: "st/inception_4e/3x3_reduce"
  top: "st/inception_4e/3x3_reduce"
}
layer {
  name: "st/inception_4e/3x3"
  type: "Convolution"
  bottom: "st/inception_4e/3x3_reduce"
  top: "st/inception_4e/3x3"
  param {
    lr_mult: 1
    decay_mult: 1
  }
  param {
    lr_mult: 2
    decay_mult: 0
  }
  convolution_param {
    num_output: 320
    pad: 1
    kernel_size: 3
    weight_filler {
      type: "msra"
    }
    bias_filler {
      type: "constant"
      value: 0.2
    }
  }
}
layer {
  name: "st/inception_4e/relu_3x3"
  type: "ReLU"
  bottom: "st/inception_4e/3x3"
  top: "st/inception_4e/3x3"
}
layer {
  name: "st/inception_4e/5x5_reduce"
  type: "Convolution"
  bottom: "st/inception_4d/output"
  top: "st/inception_4e/5x5_reduce"
  param {
    lr_mult: 1
    decay_mult: 1
  }
  param {
    lr_mult: 2
    decay_mult: 0
  }
  convolution_param {
    num_output: 32
    kernel_size: 1
    weight_filler {
      type: "msra"
    }
    bias_filler {
      type: "constant"
      value: 0.2
    }
  }
}
layer {
  name: "st/inception_4e/relu_5x5_reduce"
  type: "ReLU"
  bottom: "st/inception_4e/5x5_reduce"
  top: "st/inception_4e/5x5_reduce"
}
layer {
  name: "st/inception_4e/5x5"
  type: "Convolution"
  bottom: "st/inception_4e/5x5_reduce"
  top: "st/inception_4e/5x5"
  param {
    lr_mult: 1
    decay_mult: 1
  }
  param {
    lr_mult: 2
    decay_mult: 0
  }
  convolution_param {
    num_output: 128
    pad: 2
    kernel_size: 5
    weight_filler {
      type: "msra"
    }
    bias_filler {
      type: "constant"
      value: 0.2
    }
  }
}
layer {
  name: "st/inception_4e/relu_5x5"
  type: "ReLU"
  bottom: "st/inception_4e/5x5"
  top: "st/inception_4e/5x5"
}
layer {
  name: "st/inception_4e/pool"
  type: "Pooling"
  bottom: "st/inception_4d/output"
  top: "st/inception_4e/pool"
  pooling_param {
    pool: MAX
    kernel_size: 3
    stride: 1
    pad: 1
  }
}
layer {
  name: "st/inception_4e/pool_proj"
  type: "Convolution"
  bottom: "st/inception_4e/pool"
  top: "st/inception_4e/pool_proj"
  param {
    lr_mult: 1
    decay_mult: 1
  }
  param {
    lr_mult: 2
    decay_mult: 0
  }
  convolution_param {
    num_output: 128
    kernel_size: 1
    weight_filler {
      type: "msra"
    }
    bias_filler {
      type: "constant"
      value: 0.2
    }
  }
}
layer {
  name: "st/inception_4e/relu_pool_proj"
  type: "ReLU"
  bottom: "st/inception_4e/pool_proj"
  top: "st/inception_4e/pool_proj"
}
layer {
  name: "st/inception_4e/output"
  type: "Concat"
  bottom: "st/inception_4e/1x1"
  bottom: "st/inception_4e/3x3"
  bottom: "st/inception_4e/5x5"
  bottom: "st/inception_4e/pool_proj"
  top: "st/inception_4e/output"
}
layer {
  name: "st/pool4/3x3_s2"
  type: "Pooling"
  bottom: "st/inception_4e/output"
  top: "st/pool4/3x3_s2"
  pooling_param {
    pool: MAX
    kernel_size: 3
    stride: 2
  }
}
layer {
  name: "st/inception_5a/1x1"
  type: "Convolution"
  bottom: "st/pool4/3x3_s2"
  top: "st/inception_5a/1x1"
  param {
    lr_mult: 1
    decay_mult: 1
  }
  param {
    lr_mult: 2
    decay_mult: 0
  }
  convolution_param {
    num_output: 256
    kernel_size: 1
    weight_filler {
      type: "msra"
    }
    bias_filler {
      type: "constant"
      value: 0.2
    }
  }
}
layer {
  name: "st/inception_5a/relu_1x1"
  type: "ReLU"
  bottom: "st/inception_5a/1x1"
  top: "st/inception_5a/1x1"
}
layer {
  name: "st/inception_5a/3x3_reduce"
  type: "Convolution"
  bottom: "st/pool4/3x3_s2"
  top: "st/inception_5a/3x3_reduce"
  param {
    lr_mult: 1
    decay_mult: 1
  }
  param {
    lr_mult: 2
    decay_mult: 0
  }
  convolution_param {
    num_output: 160
    kernel_size: 1
    weight_filler {
      type: "msra"
    }
    bias_filler {
      type: "constant"
      value: 0.2
    }
  }
}
layer {
  name: "st/inception_5a/relu_3x3_reduce"
  type: "ReLU"
  bottom: "st/inception_5a/3x3_reduce"
  top: "st/inception_5a/3x3_reduce"
}
layer {
  name: "st/inception_5a/3x3"
  type: "Convolution"
  bottom: "st/inception_5a/3x3_reduce"
  top: "st/inception_5a/3x3"
  param {
    lr_mult: 1
    decay_mult: 1
  }
  param {
    lr_mult: 2
    decay_mult: 0
  }
  convolution_param {
    num_output: 320
    pad: 1
    kernel_size: 3
    weight_filler {
      type: "msra"
    }
    bias_filler {
      type: "constant"
      value: 0.2
    }
  }
}
layer {
  name: "st/inception_5a
I0907 21:53:30.697960 100997 layer_factory.hpp:76] Creating layer data
I0907 21:53:30.698007 100997 net.cpp:110] Creating Layer data
I0907 21:53:30.698017 100997 net.cpp:433] data -> data
I0907 21:53:30.698045 100997 net.cpp:433] data -> label
I0907 21:53:30.698523 100997 image_data_layer.cpp:36] Opening file data/CUB_200_2011/train_files.txt
I0907 21:53:30.787101 100997 image_data_layer.cpp:46] Shuffling data
I0907 21:53:30.787602 100997 image_data_layer.cpp:51] A total of 5994 images.
I0907 21:53:30.796898 100997 image_data_layer.cpp:78] output data size: 16,3,224,224
I0907 21:53:30.853664 100997 net.cpp:155] Setting up data
I0907 21:53:30.853799 100997 net.cpp:163] Top shape: 16 3 224 224 (2408448)
I0907 21:53:30.853811 100997 net.cpp:163] Top shape: 16 (16)
I0907 21:53:30.853821 100997 layer_factory.hpp:76] Creating layer data_data_0_split
I0907 21:53:30.853837 100997 net.cpp:110] Creating Layer data_data_0_split
I0907 21:53:30.853844 100997 net.cpp:477] data_data_0_split <- data
I0907 21:53:30.853858 100997 net.cpp:433] data_data_0_split -> data_data_0_split_0
I0907 21:53:30.853871 100997 net.cpp:433] data_data_0_split -> data_data_0_split_1
I0907 21:53:30.853879 100997 net.cpp:433] data_data_0_split -> data_data_0_split_2
I0907 21:53:30.853894 100997 net.cpp:155] Setting up data_data_0_split
I0907 21:53:30.853900 100997 net.cpp:163] Top shape: 16 3 224 224 (2408448)
I0907 21:53:30.853905 100997 net.cpp:163] Top shape: 16 3 224 224 (2408448)
I0907 21:53:30.853909 100997 net.cpp:163] Top shape: 16 3 224 224 (2408448)
I0907 21:53:30.853914 100997 layer_factory.hpp:76] Creating layer label_data_1_split
I0907 21:53:30.853921 100997 net.cpp:110] Creating Layer label_data_1_split
I0907 21:53:30.853925 100997 net.cpp:477] label_data_1_split <- label
I0907 21:53:30.853932 100997 net.cpp:433] label_data_1_split -> label_data_1_split_0
I0907 21:53:30.853940 100997 net.cpp:433] label_data_1_split -> label_data_1_split_1
I0907 21:53:30.853945 100997 net.cpp:433] label_data_1_split -> label_data_1_split_2
I0907 21:53:30.853952 100997 net.cpp:155] Setting up label_data_1_split
I0907 21:53:30.853978 100997 net.cpp:163] Top shape: 16 (16)
I0907 21:53:30.853983 100997 net.cpp:163] Top shape: 16 (16)
I0907 21:53:30.853987 100997 net.cpp:163] Top shape: 16 (16)
I0907 21:53:30.853991 100997 layer_factory.hpp:76] Creating layer st/conv1/7x7_s2
I0907 21:53:30.854007 100997 net.cpp:110] Creating Layer st/conv1/7x7_s2
I0907 21:53:30.854012 100997 net.cpp:477] st/conv1/7x7_s2 <- data_data_0_split_0
I0907 21:53:30.854018 100997 net.cpp:433] st/conv1/7x7_s2 -> st/conv1/7x7_s2
I0907 21:53:30.855140 100997 net.cpp:155] Setting up st/conv1/7x7_s2
I0907 21:53:30.855156 100997 net.cpp:163] Top shape: 16 64 112 112 (12845056)
I0907 21:53:30.855173 100997 layer_factory.hpp:76] Creating layer st/conv1/relu_7x7
I0907 21:53:30.855187 100997 net.cpp:110] Creating Layer st/conv1/relu_7x7
I0907 21:53:30.855191 100997 net.cpp:477] st/conv1/relu_7x7 <- st/conv1/7x7_s2
I0907 21:53:30.855198 100997 net.cpp:419] st/conv1/relu_7x7 -> st/conv1/7x7_s2 (in-place)
I0907 21:53:30.855207 100997 net.cpp:155] Setting up st/conv1/relu_7x7
I0907 21:53:30.855212 100997 net.cpp:163] Top shape: 16 64 112 112 (12845056)
I0907 21:53:30.855216 100997 layer_factory.hpp:76] Creating layer st/pool1/3x3_s2
I0907 21:53:30.855226 100997 net.cpp:110] Creating Layer st/pool1/3x3_s2
I0907 21:53:30.855229 100997 net.cpp:477] st/pool1/3x3_s2 <- st/conv1/7x7_s2
I0907 21:53:30.855236 100997 net.cpp:433] st/pool1/3x3_s2 -> st/pool1/3x3_s2
I0907 21:53:30.855255 100997 net.cpp:155] Setting up st/pool1/3x3_s2
I0907 21:53:30.855262 100997 net.cpp:163] Top shape: 16 64 56 56 (3211264)
I0907 21:53:30.855264 100997 layer_factory.hpp:76] Creating layer st/pool1/norm1
I0907 21:53:30.855274 100997 net.cpp:110] Creating Layer st/pool1/norm1
I0907 21:53:30.855278 100997 net.cpp:477] st/pool1/norm1 <- st/pool1/3x3_s2
I0907 21:53:30.855284 100997 net.cpp:433] st/pool1/norm1 -> st/pool1/norm1
I0907 21:53:30.855296 100997 net.cpp:155] Setting up st/pool1/norm1
I0907 21:53:30.855301 100997 net.cpp:163] Top shape: 16 64 56 56 (3211264)
I0907 21:53:30.855305 100997 layer_factory.hpp:76] Creating layer st/conv2/3x3_reduce
I0907 21:53:30.855314 100997 net.cpp:110] Creating Layer st/conv2/3x3_reduce
I0907 21:53:30.855317 100997 net.cpp:477] st/conv2/3x3_reduce <- st/pool1/norm1
I0907 21:53:30.855324 100997 net.cpp:433] st/conv2/3x3_reduce -> st/conv2/3x3_reduce
I0907 21:53:30.856190 100997 net.cpp:155] Setting up st/conv2/3x3_reduce
I0907 21:53:30.856205 100997 net.cpp:163] Top shape: 16 64 56 56 (3211264)
I0907 21:53:30.856217 100997 layer_factory.hpp:76] Creating layer st/conv2/relu_3x3_reduce
I0907 21:53:30.856226 100997 net.cpp:110] Creating Layer st/conv2/relu_3x3_reduce
I0907 21:53:30.856231 100997 net.cpp:477] st/conv2/relu_3x3_reduce <- st/conv2/3x3_reduce
I0907 21:53:30.856238 100997 net.cpp:419] st/conv2/relu_3x3_reduce -> st/conv2/3x3_reduce (in-place)
I0907 21:53:30.856245 100997 net.cpp:155] Setting up st/conv2/relu_3x3_reduce
I0907 21:53:30.856251 100997 net.cpp:163] Top shape: 16 64 56 56 (3211264)
I0907 21:53:30.856254 100997 layer_factory.hpp:76] Creating layer st/conv2/3x3
I0907 21:53:30.856263 100997 net.cpp:110] Creating Layer st/conv2/3x3
I0907 21:53:30.856266 100997 net.cpp:477] st/conv2/3x3 <- st/conv2/3x3_reduce
I0907 21:53:30.856273 100997 net.cpp:433] st/conv2/3x3 -> st/conv2/3x3
I0907 21:53:30.861049 100997 net.cpp:155] Setting up st/conv2/3x3
I0907 21:53:30.861065 100997 net.cpp:163] Top shape: 16 192 56 56 (9633792)
I0907 21:53:30.861078 100997 layer_factory.hpp:76] Creating layer st/conv2/relu_3x3
I0907 21:53:30.861086 100997 net.cpp:110] Creating Layer st/conv2/relu_3x3
I0907 21:53:30.861090 100997 net.cpp:477] st/conv2/relu_3x3 <- st/conv2/3x3
I0907 21:53:30.861098 100997 net.cpp:419] st/conv2/relu_3x3 -> st/conv2/3x3 (in-place)
I0907 21:53:30.861105 100997 net.cpp:155] Setting up st/conv2/relu_3x3
I0907 21:53:30.861110 100997 net.cpp:163] Top shape: 16 192 56 56 (9633792)
I0907 21:53:30.861114 100997 layer_factory.hpp:76] Creating layer st/conv2/norm2
I0907 21:53:30.861121 100997 net.cpp:110] Creating Layer st/conv2/norm2
I0907 21:53:30.861140 100997 net.cpp:477] st/conv2/norm2 <- st/conv2/3x3
I0907 21:53:30.861148 100997 net.cpp:433] st/conv2/norm2 -> st/conv2/norm2
I0907 21:53:30.861156 100997 net.cpp:155] Setting up st/conv2/norm2
I0907 21:53:30.861162 100997 net.cpp:163] Top shape: 16 192 56 56 (9633792)
I0907 21:53:30.861166 100997 layer_factory.hpp:76] Creating layer st/pool2/3x3_s2
I0907 21:53:30.861173 100997 net.cpp:110] Creating Layer st/pool2/3x3_s2
I0907 21:53:30.861176 100997 net.cpp:477] st/pool2/3x3_s2 <- st/conv2/norm2
I0907 21:53:30.861182 100997 net.cpp:433] st/pool2/3x3_s2 -> st/pool2/3x3_s2
I0907 21:53:30.861191 100997 net.cpp:155] Setting up st/pool2/3x3_s2
I0907 21:53:30.861196 100997 net.cpp:163] Top shape: 16 192 28 28 (2408448)
I0907 21:53:30.861199 100997 layer_factory.hpp:76] Creating layer st/pool2/3x3_s2_st/pool2/3x3_s2_0_split
I0907 21:53:30.861207 100997 net.cpp:110] Creating Layer st/pool2/3x3_s2_st/pool2/3x3_s2_0_split
I0907 21:53:30.861210 100997 net.cpp:477] st/pool2/3x3_s2_st/pool2/3x3_s2_0_split <- st/pool2/3x3_s2
I0907 21:53:30.861215 100997 net.cpp:433] st/pool2/3x3_s2_st/pool2/3x3_s2_0_split -> st/pool2/3x3_s2_st/pool2/3x3_s2_0_split_0
I0907 21:53:30.861222 100997 net.cpp:433] st/pool2/3x3_s2_st/pool2/3x3_s2_0_split -> st/pool2/3x3_s2_st/pool2/3x3_s2_0_split_1
I0907 21:53:30.861232 100997 net.cpp:433] st/pool2/3x3_s2_st/pool2/3x3_s2_0_split -> st/pool2/3x3_s2_st/pool2/3x3_s2_0_split_2
I0907 21:53:30.861238 100997 net.cpp:433] st/pool2/3x3_s2_st/pool2/3x3_s2_0_split -> st/pool2/3x3_s2_st/pool2/3x3_s2_0_split_3
I0907 21:53:30.861246 100997 net.cpp:155] Setting up st/pool2/3x3_s2_st/pool2/3x3_s2_0_split
I0907 21:53:30.861250 100997 net.cpp:163] Top shape: 16 192 28 28 (2408448)
I0907 21:53:30.861255 100997 net.cpp:163] Top shape: 16 192 28 28 (2408448)
I0907 21:53:30.861259 100997 net.cpp:163] Top shape: 16 192 28 28 (2408448)
I0907 21:53:30.861263 100997 net.cpp:163] Top shape: 16 192 28 28 (2408448)
I0907 21:53:30.861268 100997 layer_factory.hpp:76] Creating layer st/inception_3a/1x1
I0907 21:53:30.861276 100997 net.cpp:110] Creating Layer st/inception_3a/1x1
I0907 21:53:30.861280 100997 net.cpp:477] st/inception_3a/1x1 <- st/pool2/3x3_s2_st/pool2/3x3_s2_0_split_0
I0907 21:53:30.861286 100997 net.cpp:433] st/inception_3a/1x1 -> st/inception_3a/1x1
I0907 21:53:30.862460 100997 net.cpp:155] Setting up st/inception_3a/1x1
I0907 21:53:30.862476 100997 net.cpp:163] Top shape: 16 64 28 28 (802816)
I0907 21:53:30.862485 100997 layer_factory.hpp:76] Creating layer st/inception_3a/relu_1x1
I0907 21:53:30.862493 100997 net.cpp:110] Creating Layer st/inception_3a/relu_1x1
I0907 21:53:30.862498 100997 net.cpp:477] st/inception_3a/relu_1x1 <- st/inception_3a/1x1
I0907 21:53:30.862504 100997 net.cpp:419] st/inception_3a/relu_1x1 -> st/inception_3a/1x1 (in-place)
I0907 21:53:30.862511 100997 net.cpp:155] Setting up st/inception_3a/relu_1x1
I0907 21:53:30.862516 100997 net.cpp:163] Top shape: 16 64 28 28 (802816)
I0907 21:53:30.862519 100997 layer_factory.hpp:76] Creating layer st/inception_3a/3x3_reduce
I0907 21:53:30.862531 100997 net.cpp:110] Creating Layer st/inception_3a/3x3_reduce
I0907 21:53:30.862534 100997 net.cpp:477] st/inception_3a/3x3_reduce <- st/pool2/3x3_s2_st/pool2/3x3_s2_0_split_1
I0907 21:53:30.862542 100997 net.cpp:433] st/inception_3a/3x3_reduce -> st/inception_3a/3x3_reduce
I0907 21:53:30.863951 100997 net.cpp:155] Setting up st/inception_3a/3x3_reduce
I0907 21:53:30.863966 100997 net.cpp:163] Top shape: 16 96 28 28 (1204224)
I0907 21:53:30.863979 100997 layer_factory.hpp:76] Creating layer st/inception_3a/relu_3x3_reduce
I0907 21:53:30.863986 100997 net.cpp:110] Creating Layer st/inception_3a/relu_3x3_reduce
I0907 21:53:30.863991 100997 net.cpp:477] st/inception_3a/relu_3x3_reduce <- st/inception_3a/3x3_reduce
I0907 21:53:30.863997 100997 net.cpp:419] st/inception_3a/relu_3x3_reduce -> st/inception_3a/3x3_reduce (in-place)
I0907 21:53:30.864004 100997 net.cpp:155] Setting up st/inception_3a/relu_3x3_reduce
I0907 21:53:30.864009 100997 net.cpp:163] Top shape: 16 96 28 28 (1204224)
I0907 21:53:30.864027 100997 layer_factory.hpp:76] Creating layer st/inception_3a/3x3
I0907 21:53:30.864037 100997 net.cpp:110] Creating Layer st/inception_3a/3x3
I0907 21:53:30.864040 100997 net.cpp:477] st/inception_3a/3x3 <- st/inception_3a/3x3_reduce
I0907 21:53:30.864048 100997 net.cpp:433] st/inception_3a/3x3 -> st/inception_3a/3x3
I0907 21:53:30.868188 100997 net.cpp:155] Setting up st/inception_3a/3x3
I0907 21:53:30.868202 100997 net.cpp:163] Top shape: 16 128 28 28 (1605632)
I0907 21:53:30.868212 100997 layer_factory.hpp:76] Creating layer st/inception_3a/relu_3x3
I0907 21:53:30.868219 100997 net.cpp:110] Creating Layer st/inception_3a/relu_3x3
I0907 21:53:30.868224 100997 net.cpp:477] st/inception_3a/relu_3x3 <- st/inception_3a/3x3
I0907 21:53:30.868230 100997 net.cpp:419] st/inception_3a/relu_3x3 -> st/inception_3a/3x3 (in-place)
I0907 21:53:30.868237 100997 net.cpp:155] Setting up st/inception_3a/relu_3x3
I0907 21:53:30.868242 100997 net.cpp:163] Top shape: 16 128 28 28 (1605632)
I0907 21:53:30.868245 100997 layer_factory.hpp:76] Creating layer st/inception_3a/5x5_reduce
I0907 21:53:30.868255 100997 net.cpp:110] Creating Layer st/inception_3a/5x5_reduce
I0907 21:53:30.868259 100997 net.cpp:477] st/inception_3a/5x5_reduce <- st/pool2/3x3_s2_st/pool2/3x3_s2_0_split_2
I0907 21:53:30.868268 100997 net.cpp:433] st/inception_3a/5x5_reduce -> st/inception_3a/5x5_reduce
I0907 21:53:30.868441 100997 net.cpp:155] Setting up st/inception_3a/5x5_reduce
I0907 21:53:30.868451 100997 net.cpp:163] Top shape: 16 16 28 28 (200704)
I0907 21:53:30.868458 100997 layer_factory.hpp:76] Creating layer st/inception_3a/relu_5x5_reduce
I0907 21:53:30.868465 100997 net.cpp:110] Creating Layer st/inception_3a/relu_5x5_reduce
I0907 21:53:30.868469 100997 net.cpp:477] st/inception_3a/relu_5x5_reduce <- st/inception_3a/5x5_reduce
I0907 21:53:30.868475 100997 net.cpp:419] st/inception_3a/relu_5x5_reduce -> st/inception_3a/5x5_reduce (in-place)
I0907 21:53:30.868481 100997 net.cpp:155] Setting up st/inception_3a/relu_5x5_reduce
I0907 21:53:30.868486 100997 net.cpp:163] Top shape: 16 16 28 28 (200704)
I0907 21:53:30.868489 100997 layer_factory.hpp:76] Creating layer st/inception_3a/5x5
I0907 21:53:30.868499 100997 net.cpp:110] Creating Layer st/inception_3a/5x5
I0907 21:53:30.868501 100997 net.cpp:477] st/inception_3a/5x5 <- st/inception_3a/5x5_reduce
I0907 21:53:30.868508 100997 net.cpp:433] st/inception_3a/5x5 -> st/inception_3a/5x5
I0907 21:53:30.869036 100997 net.cpp:155] Setting up st/inception_3a/5x5
I0907 21:53:30.869046 100997 net.cpp:163] Top shape: 16 32 28 28 (401408)
I0907 21:53:30.869053 100997 layer_factory.hpp:76] Creating layer st/inception_3a/relu_5x5
I0907 21:53:30.869060 100997 net.cpp:110] Creating Layer st/inception_3a/relu_5x5
I0907 21:53:30.869065 100997 net.cpp:477] st/inception_3a/relu_5x5 <- st/inception_3a/5x5
I0907 21:53:30.869071 100997 net.cpp:419] st/inception_3a/relu_5x5 -> st/inception_3a/5x5 (in-place)
I0907 21:53:30.869077 100997 net.cpp:155] Setting up st/inception_3a/relu_5x5
I0907 21:53:30.869082 100997 net.cpp:163] Top shape: 16 32 28 28 (401408)
I0907 21:53:30.869086 100997 layer_factory.hpp:76] Creating layer st/inception_3a/pool
I0907 21:53:30.869092 100997 net.cpp:110] Creating Layer st/inception_3a/pool
I0907 21:53:30.869096 100997 net.cpp:477] st/inception_3a/pool <- st/pool2/3x3_s2_st/pool2/3x3_s2_0_split_3
I0907 21:53:30.869103 100997 net.cpp:433] st/inception_3a/pool -> st/inception_3a/pool
I0907 21:53:30.869112 100997 net.cpp:155] Setting up st/inception_3a/pool
I0907 21:53:30.869118 100997 net.cpp:163] Top shape: 16 192 28 28 (2408448)
I0907 21:53:30.869122 100997 layer_factory.hpp:76] Creating layer st/inception_3a/pool_proj
I0907 21:53:30.869130 100997 net.cpp:110] Creating Layer st/inception_3a/pool_proj
I0907 21:53:30.869134 100997 net.cpp:477] st/inception_3a/pool_proj <- st/inception_3a/pool
I0907 21:53:30.869140 100997 net.cpp:433] st/inception_3a/pool_proj -> st/inception_3a/pool_proj
I0907 21:53:30.869423 100997 net.cpp:155] Setting up st/inception_3a/pool_proj
I0907 21:53:30.869432 100997 net.cpp:163] Top shape: 16 32 28 28 (401408)
I0907 21:53:30.869459 100997 layer_factory.hpp:76] Creating layer st/inception_3a/relu_pool_proj
I0907 21:53:30.869467 100997 net.cpp:110] Creating Layer st/inception_3a/relu_pool_proj
I0907 21:53:30.869472 100997 net.cpp:477] st/inception_3a/relu_pool_proj <- st/inception_3a/pool_proj
I0907 21:53:30.869478 100997 net.cpp:419] st/inception_3a/relu_pool_proj -> st/inception_3a/pool_proj (in-place)
I0907 21:53:30.869484 100997 net.cpp:155] Setting up st/inception_3a/relu_pool_proj
I0907 21:53:30.869489 100997 net.cpp:163] Top shape: 16 32 28 28 (401408)
I0907 21:53:30.869493 100997 layer_factory.hpp:76] Creating layer st/inception_3a/output
I0907 21:53:30.869503 100997 net.cpp:110] Creating Layer st/inception_3a/output
I0907 21:53:30.869508 100997 net.cpp:477] st/inception_3a/output <- st/inception_3a/1x1
I0907 21:53:30.869511 100997 net.cpp:477] st/inception_3a/output <- st/inception_3a/3x3
I0907 21:53:30.869516 100997 net.cpp:477] st/inception_3a/output <- st/inception_3a/5x5
I0907 21:53:30.869520 100997 net.cpp:477] st/inception_3a/output <- st/inception_3a/pool_proj
I0907 21:53:30.869525 100997 net.cpp:433] st/inception_3a/output -> st/inception_3a/output
I0907 21:53:30.869536 100997 net.cpp:155] Setting up st/inception_3a/output
I0907 21:53:30.869540 100997 net.cpp:163] Top shape: 16 256 28 28 (3211264)
I0907 21:53:30.869544 100997 layer_factory.hpp:76] Creating layer st/inception_3a/output_st/inception_3a/output_0_split
I0907 21:53:30.869551 100997 net.cpp:110] Creating Layer st/inception_3a/output_st/inception_3a/output_0_split
I0907 21:53:30.869555 100997 net.cpp:477] st/inception_3a/output_st/inception_3a/output_0_split <- st/inception_3a/output
I0907 21:53:30.869561 100997 net.cpp:433] st/inception_3a/output_st/inception_3a/output_0_split -> st/inception_3a/output_st/inception_3a/output_0_split_0
I0907 21:53:30.869570 100997 net.cpp:433] st/inception_3a/output_st/inception_3a/output_0_split -> st/inception_3a/output_st/inception_3a/output_0_split_1
I0907 21:53:30.869576 100997 net.cpp:433] st/inception_3a/output_st/inception_3a/output_0_split -> st/inception_3a/output_st/inception_3a/output_0_split_2
I0907 21:53:30.869583 100997 net.cpp:433] st/inception_3a/output_st/inception_3a/output_0_split -> st/inception_3a/output_st/inception_3a/output_0_split_3
I0907 21:53:30.869590 100997 net.cpp:155] Setting up st/inception_3a/output_st/inception_3a/output_0_split
I0907 21:53:30.869596 100997 net.cpp:163] Top shape: 16 256 28 28 (3211264)
I0907 21:53:30.869599 100997 net.cpp:163] Top shape: 16 256 28 28 (3211264)
I0907 21:53:30.869603 100997 net.cpp:163] Top shape: 16 256 28 28 (3211264)
I0907 21:53:30.869607 100997 net.cpp:163] Top shape: 16 256 28 28 (3211264)
I0907 21:53:30.869611 100997 layer_factory.hpp:76] Creating layer st/inception_3b/1x1
I0907 21:53:30.869621 100997 net.cpp:110] Creating Layer st/inception_3b/1x1
I0907 21:53:30.869624 100997 net.cpp:477] st/inception_3b/1x1 <- st/inception_3a/output_st/inception_3a/output_0_split_0
I0907 21:53:30.869632 100997 net.cpp:433] st/inception_3b/1x1 -> st/inception_3b/1x1
I0907 21:53:30.870896 100997 net.cpp:155] Setting up st/inception_3b/1x1
I0907 21:53:30.870908 100997 net.cpp:163] Top shape: 16 128 28 28 (1605632)
I0907 21:53:30.870914 100997 layer_factory.hpp:76] Creating layer st/inception_3b/relu_1x1
I0907 21:53:30.870921 100997 net.cpp:110] Creating Layer st/inception_3b/relu_1x1
I0907 21:53:30.870925 100997 net.cpp:477] st/inception_3b/relu_1x1 <- st/inception_3b/1x1
I0907 21:53:30.870931 100997 net.cpp:419] st/inception_3b/relu_1x1 -> st/inception_3b/1x1 (in-place)
I0907 21:53:30.870939 100997 net.cpp:155] Setting up st/inception_3b/relu_1x1
I0907 21:53:30.870944 100997 net.cpp:163] Top shape: 16 128 28 28 (1605632)
I0907 21:53:30.870946 100997 layer_factory.hpp:76] Creating layer st/inception_3b/3x3_reduce
I0907 21:53:30.870955 100997 net.cpp:110] Creating Layer st/inception_3b/3x3_reduce
I0907 21:53:30.870959 100997 net.cpp:477] st/inception_3b/3x3_reduce <- st/inception_3a/output_st/inception_3a/output_0_split_1
I0907 21:53:30.870978 100997 net.cpp:433] st/inception_3b/3x3_reduce -> st/inception_3b/3x3_reduce
I0907 21:53:30.872247 100997 net.cpp:155] Setting up st/inception_3b/3x3_reduce
I0907 21:53:30.872259 100997 net.cpp:163] Top shape: 16 128 28 28 (1605632)
I0907 21:53:30.872267 100997 layer_factory.hpp:76] Creating layer st/inception_3b/relu_3x3_reduce
I0907 21:53:30.872277 100997 net.cpp:110] Creating Layer st/inception_3b/relu_3x3_reduce
I0907 21:53:30.872282 100997 net.cpp:477] st/inception_3b/relu_3x3_reduce <- st/inception_3b/3x3_reduce
I0907 21:53:30.872288 100997 net.cpp:419] st/inception_3b/relu_3x3_reduce -> st/inception_3b/3x3_reduce (in-place)
I0907 21:53:30.872297 100997 net.cpp:155] Setting up st/inception_3b/relu_3x3_reduce
I0907 21:53:30.872300 100997 net.cpp:163] Top shape: 16 128 28 28 (1605632)
I0907 21:53:30.872304 100997 layer_factory.hpp:76] Creating layer st/inception_3b/3x3
I0907 21:53:30.872313 100997 net.cpp:110] Creating Layer st/inception_3b/3x3
I0907 21:53:30.872316 100997 net.cpp:477] st/inception_3b/3x3 <- st/inception_3b/3x3_reduce
I0907 21:53:30.872323 100997 net.cpp:433] st/inception_3b/3x3 -> st/inception_3b/3x3
I0907 21:53:30.881230 100997 net.cpp:155] Setting up st/inception_3b/3x3
I0907 21:53:30.881247 100997 net.cpp:163] Top shape: 16 192 28 28 (2408448)
I0907 21:53:30.881255 100997 layer_factory.hpp:76] Creating layer st/inception_3b/relu_3x3
I0907 21:53:30.881263 100997 net.cpp:110] Creating Layer st/inception_3b/relu_3x3
I0907 21:53:30.881268 100997 net.cpp:477] st/inception_3b/relu_3x3 <- st/inception_3b/3x3
I0907 21:53:30.881274 100997 net.cpp:419] st/inception_3b/relu_3x3 -> st/inception_3b/3x3 (in-place)
I0907 21:53:30.881281 100997 net.cpp:155] Setting up st/inception_3b/relu_3x3
I0907 21:53:30.881286 100997 net.cpp:163] Top shape: 16 192 28 28 (2408448)
I0907 21:53:30.881289 100997 layer_factory.hpp:76] Creating layer st/inception_3b/5x5_reduce
I0907 21:53:30.881299 100997 net.cpp:110] Creating Layer st/inception_3b/5x5_reduce
I0907 21:53:30.881302 100997 net.cpp:477] st/inception_3b/5x5_reduce <- st/inception_3a/output_st/inception_3a/output_0_split_2
I0907 21:53:30.881311 100997 net.cpp:433] st/inception_3b/5x5_reduce -> st/inception_3b/5x5_reduce
I0907 21:53:30.881676 100997 net.cpp:155] Setting up st/inception_3b/5x5_reduce
I0907 21:53:30.881686 100997 net.cpp:163] Top shape: 16 32 28 28 (401408)
I0907 21:53:30.881695 100997 layer_factory.hpp:76] Creating layer st/inception_3b/relu_5x5_reduce
I0907 21:53:30.881702 100997 net.cpp:110] Creating Layer st/inception_3b/relu_5x5_reduce
I0907 21:53:30.881706 100997 net.cpp:477] st/inception_3b/relu_5x5_reduce <- st/inception_3b/5x5_reduce
I0907 21:53:30.881712 100997 net.cpp:419] st/inception_3b/relu_5x5_reduce -> st/inception_3b/5x5_reduce (in-place)
I0907 21:53:30.881718 100997 net.cpp:155] Setting up st/inception_3b/relu_5x5_reduce
I0907 21:53:30.881723 100997 net.cpp:163] Top shape: 16 32 28 28 (401408)
I0907 21:53:30.881727 100997 layer_factory.hpp:76] Creating layer st/inception_3b/5x5
I0907 21:53:30.881736 100997 net.cpp:110] Creating Layer st/inception_3b/5x5
I0907 21:53:30.881739 100997 net.cpp:477] st/inception_3b/5x5 <- st/inception_3b/5x5_reduce
I0907 21:53:30.881747 100997 net.cpp:433] st/inception_3b/5x5 -> st/inception_3b/5x5
I0907 21:53:30.885334 100997 net.cpp:155] Setting up st/inception_3b/5x5
I0907 21:53:30.885349 100997 net.cpp:163] Top shape: 16 96 28 28 (1204224)
I0907 21:53:30.885357 100997 layer_factory.hpp:76] Creating layer st/inception_3b/relu_5x5
I0907 21:53:30.885365 100997 net.cpp:110] Creating Layer st/inception_3b/relu_5x5
I0907 21:53:30.885370 100997 net.cpp:477] st/inception_3b/relu_5x5 <- st/inception_3b/5x5
I0907 21:53:30.885376 100997 net.cpp:419] st/inception_3b/relu_5x5 -> st/inception_3b/5x5 (in-place)
I0907 21:53:30.885383 100997 net.cpp:155] Setting up st/inception_3b/relu_5x5
I0907 21:53:30.885388 100997 net.cpp:163] Top shape: 16 96 28 28 (1204224)
I0907 21:53:30.885392 100997 layer_factory.hpp:76] Creating layer st/inception_3b/pool
I0907 21:53:30.885399 100997 net.cpp:110] Creating Layer st/inception_3b/pool
I0907 21:53:30.885418 100997 net.cpp:477] st/inception_3b/pool <- st/inception_3a/output_st/inception_3a/output_0_split_3
I0907 21:53:30.885426 100997 net.cpp:433] st/inception_3b/pool -> st/inception_3b/pool
I0907 21:53:30.885437 100997 net.cpp:155] Setting up st/inception_3b/pool
I0907 21:53:30.885442 100997 net.cpp:163] Top shape: 16 256 28 28 (3211264)
I0907 21:53:30.885444 100997 layer_factory.hpp:76] Creating layer st/inception_3b/pool_proj
I0907 21:53:30.885454 100997 net.cpp:110] Creating Layer st/inception_3b/pool_proj
I0907 21:53:30.885458 100997 net.cpp:477] st/inception_3b/pool_proj <- st/inception_3b/pool
I0907 21:53:30.885465 100997 net.cpp:433] st/inception_3b/pool_proj -> st/inception_3b/pool_proj
I0907 21:53:30.886135 100997 net.cpp:155] Setting up st/inception_3b/pool_proj
I0907 21:53:30.886147 100997 net.cpp:163] Top shape: 16 64 28 28 (802816)
I0907 21:53:30.886153 100997 layer_factory.hpp:76] Creating layer st/inception_3b/relu_pool_proj
I0907 21:53:30.886159 100997 net.cpp:110] Creating Layer st/inception_3b/relu_pool_proj
I0907 21:53:30.886164 100997 net.cpp:477] st/inception_3b/relu_pool_proj <- st/inception_3b/pool_proj
I0907 21:53:30.886170 100997 net.cpp:419] st/inception_3b/relu_pool_proj -> st/inception_3b/pool_proj (in-place)
I0907 21:53:30.886176 100997 net.cpp:155] Setting up st/inception_3b/relu_pool_proj
I0907 21:53:30.886181 100997 net.cpp:163] Top shape: 16 64 28 28 (802816)
I0907 21:53:30.886184 100997 layer_factory.hpp:76] Creating layer st/inception_3b/output
I0907 21:53:30.886193 100997 net.cpp:110] Creating Layer st/inception_3b/output
I0907 21:53:30.886195 100997 net.cpp:477] st/inception_3b/output <- st/inception_3b/1x1
I0907 21:53:30.886200 100997 net.cpp:477] st/inception_3b/output <- st/inception_3b/3x3
I0907 21:53:30.886204 100997 net.cpp:477] st/inception_3b/output <- st/inception_3b/5x5
I0907 21:53:30.886209 100997 net.cpp:477] st/inception_3b/output <- st/inception_3b/pool_proj
I0907 21:53:30.886214 100997 net.cpp:433] st/inception_3b/output -> st/inception_3b/output
I0907 21:53:30.886222 100997 net.cpp:155] Setting up st/inception_3b/output
I0907 21:53:30.886227 100997 net.cpp:163] Top shape: 16 480 28 28 (6021120)
I0907 21:53:30.886231 100997 layer_factory.hpp:76] Creating layer st/pool3/3x3_s2
I0907 21:53:30.886239 100997 net.cpp:110] Creating Layer st/pool3/3x3_s2
I0907 21:53:30.886242 100997 net.cpp:477] st/pool3/3x3_s2 <- st/inception_3b/output
I0907 21:53:30.886248 100997 net.cpp:433] st/pool3/3x3_s2 -> st/pool3/3x3_s2
I0907 21:53:30.886256 100997 net.cpp:155] Setting up st/pool3/3x3_s2
I0907 21:53:30.886261 100997 net.cpp:163] Top shape: 16 480 14 14 (1505280)
I0907 21:53:30.886265 100997 layer_factory.hpp:76] Creating layer st/pool3/3x3_s2_st/pool3/3x3_s2_0_split
I0907 21:53:30.886272 100997 net.cpp:110] Creating Layer st/pool3/3x3_s2_st/pool3/3x3_s2_0_split
I0907 21:53:30.886276 100997 net.cpp:477] st/pool3/3x3_s2_st/pool3/3x3_s2_0_split <- st/pool3/3x3_s2
I0907 21:53:30.886281 100997 net.cpp:433] st/pool3/3x3_s2_st/pool3/3x3_s2_0_split -> st/pool3/3x3_s2_st/pool3/3x3_s2_0_split_0
I0907 21:53:30.886288 100997 net.cpp:433] st/pool3/3x3_s2_st/pool3/3x3_s2_0_split -> st/pool3/3x3_s2_st/pool3/3x3_s2_0_split_1
I0907 21:53:30.886296 100997 net.cpp:433] st/pool3/3x3_s2_st/pool3/3x3_s2_0_split -> st/pool3/3x3_s2_st/pool3/3x3_s2_0_split_2
I0907 21:53:30.886302 100997 net.cpp:433] st/pool3/3x3_s2_st/pool3/3x3_s2_0_split -> st/pool3/3x3_s2_st/pool3/3x3_s2_0_split_3
I0907 21:53:30.886309 100997 net.cpp:155] Setting up st/pool3/3x3_s2_st/pool3/3x3_s2_0_split
I0907 21:53:30.886313 100997 net.cpp:163] Top shape: 16 480 14 14 (1505280)
I0907 21:53:30.886317 100997 net.cpp:163] Top shape: 16 480 14 14 (1505280)
I0907 21:53:30.886322 100997 net.cpp:163] Top shape: 16 480 14 14 (1505280)
I0907 21:53:30.886327 100997 net.cpp:163] Top shape: 16 480 14 14 (1505280)
I0907 21:53:30.886329 100997 layer_factory.hpp:76] Creating layer st/inception_4a/1x1
I0907 21:53:30.886337 100997 net.cpp:110] Creating Layer st/inception_4a/1x1
I0907 21:53:30.886342 100997 net.cpp:477] st/inception_4a/1x1 <- st/pool3/3x3_s2_st/pool3/3x3_s2_0_split_0
I0907 21:53:30.886359 100997 net.cpp:433] st/inception_4a/1x1 -> st/inception_4a/1x1
I0907 21:53:30.889812 100997 net.cpp:155] Setting up st/inception_4a/1x1
I0907 21:53:30.889824 100997 net.cpp:163] Top shape: 16 192 14 14 (602112)
I0907 21:53:30.889832 100997 layer_factory.hpp:76] Creating layer st/inception_4a/relu_1x1
I0907 21:53:30.889839 100997 net.cpp:110] Creating Layer st/inception_4a/relu_1x1
I0907 21:53:30.889843 100997 net.cpp:477] st/inception_4a/relu_1x1 <- st/inception_4a/1x1
I0907 21:53:30.889850 100997 net.cpp:419] st/inception_4a/relu_1x1 -> st/inception_4a/1x1 (in-place)
I0907 21:53:30.889857 100997 net.cpp:155] Setting up st/inception_4a/relu_1x1
I0907 21:53:30.889861 100997 net.cpp:163] Top shape: 16 192 14 14 (602112)
I0907 21:53:30.889865 100997 layer_factory.hpp:76] Creating layer st/inception_4a/3x3_reduce
I0907 21:53:30.889874 100997 net.cpp:110] Creating Layer st/inception_4a/3x3_reduce
I0907 21:53:30.889878 100997 net.cpp:477] st/inception_4a/3x3_reduce <- st/pool3/3x3_s2_st/pool3/3x3_s2_0_split_1
I0907 21:53:30.889885 100997 net.cpp:433] st/inception_4a/3x3_reduce -> st/inception_4a/3x3_reduce
I0907 21:53:30.891654 100997 net.cpp:155] Setting up st/inception_4a/3x3_reduce
I0907 21:53:30.891664 100997 net.cpp:163] Top shape: 16 96 14 14 (301056)
I0907 21:53:30.891691 100997 layer_factory.hpp:76] Creating layer st/inception_4a/relu_3x3_reduce
I0907 21:53:30.891700 100997 net.cpp:110] Creating Layer st/inception_4a/relu_3x3_reduce
I0907 21:53:30.891705 100997 net.cpp:477] st/inception_4a/relu_3x3_reduce <- st/inception_4a/3x3_reduce
I0907 21:53:30.891710 100997 net.cpp:419] st/inception_4a/relu_3x3_reduce -> st/inception_4a/3x3_reduce (in-place)
I0907 21:53:30.891718 100997 net.cpp:155] Setting up st/inception_4a/relu_3x3_reduce
I0907 21:53:30.891723 100997 net.cpp:163] Top shape: 16 96 14 14 (301056)
I0907 21:53:30.891726 100997 layer_factory.hpp:76] Creating layer st/inception_4a/3x3
I0907 21:53:30.891736 100997 net.cpp:110] Creating Layer st/inception_4a/3x3
I0907 21:53:30.891739 100997 net.cpp:477] st/inception_4a/3x3 <- st/inception_4a/3x3_reduce
I0907 21:53:30.891746 100997 net.cpp:433] st/inception_4a/3x3 -> st/inception_4a/3x3
I0907 21:53:30.899143 100997 net.cpp:155] Setting up st/inception_4a/3x3
I0907 21:53:30.899160 100997 net.cpp:163] Top shape: 16 208 14 14 (652288)
I0907 21:53:30.899168 100997 layer_factory.hpp:76] Creating layer st/inception_4a/relu_3x3
I0907 21:53:30.899176 100997 net.cpp:110] Creating Layer st/inception_4a/relu_3x3
I0907 21:53:30.899181 100997 net.cpp:477] st/inception_4a/relu_3x3 <- st/inception_4a/3x3
I0907 21:53:30.899188 100997 net.cpp:419] st/inception_4a/relu_3x3 -> st/inception_4a/3x3 (in-place)
I0907 21:53:30.899194 100997 net.cpp:155] Setting up st/inception_4a/relu_3x3
I0907 21:53:30.899199 100997 net.cpp:163] Top shape: 16 208 14 14 (652288)
I0907 21:53:30.899204 100997 layer_factory.hpp:76] Creating layer st/inception_4a/5x5_reduce
I0907 21:53:30.899212 100997 net.cpp:110] Creating Layer st/inception_4a/5x5_reduce
I0907 21:53:30.899216 100997 net.cpp:477] st/inception_4a/5x5_reduce <- st/pool3/3x3_s2_st/pool3/3x3_s2_0_split_2
I0907 21:53:30.899224 100997 net.cpp:433] st/inception_4a/5x5_reduce -> st/inception_4a/5x5_reduce
I0907 21:53:30.899569 100997 net.cpp:155] Setting up st/inception_4a/5x5_reduce
I0907 21:53:30.899580 100997 net.cpp:163] Top shape: 16 16 14 14 (50176)
I0907 21:53:30.899586 100997 layer_factory.hpp:76] Creating layer st/inception_4a/relu_5x5_reduce
I0907 21:53:30.899593 100997 net.cpp:110] Creating Layer st/inception_4a/relu_5x5_reduce
I0907 21:53:30.899597 100997 net.cpp:477] st/inception_4a/relu_5x5_reduce <- st/inception_4a/5x5_reduce
I0907 21:53:30.899603 100997 net.cpp:419] st/inception_4a/relu_5x5_reduce -> st/inception_4a/5x5_reduce (in-place)
I0907 21:53:30.899610 100997 net.cpp:155] Setting up st/inception_4a/relu_5x5_reduce
I0907 21:53:30.899616 100997 net.cpp:163] Top shape: 16 16 14 14 (50176)
I0907 21:53:30.899618 100997 layer_factory.hpp:76] Creating layer st/inception_4a/5x5
I0907 21:53:30.899642 100997 net.cpp:110] Creating Layer st/inception_4a/5x5
I0907 21:53:30.899646 100997 net.cpp:477] st/inception_4a/5x5 <- st/inception_4a/5x5_reduce
I0907 21:53:30.899653 100997 net.cpp:433] st/inception_4a/5x5 -> st/inception_4a/5x5
I0907 21:53:30.900434 100997 net.cpp:155] Setting up st/inception_4a/5x5
I0907 21:53:30.900445 100997 net.cpp:163] Top shape: 16 48 14 14 (150528)
I0907 21:53:30.900452 100997 layer_factory.hpp:76] Creating layer st/inception_4a/relu_5x5
I0907 21:53:30.900460 100997 net.cpp:110] Creating Layer st/inception_4a/relu_5x5
I0907 21:53:30.900463 100997 net.cpp:477] st/inception_4a/relu_5x5 <- st/inception_4a/5x5
I0907 21:53:30.900470 100997 net.cpp:419] st/inception_4a/relu_5x5 -> st/inception_4a/5x5 (in-place)
I0907 21:53:30.900477 100997 net.cpp:155] Setting up st/inception_4a/relu_5x5
I0907 21:53:30.900481 100997 net.cpp:163] Top shape: 16 48 14 14 (150528)
I0907 21:53:30.900485 100997 layer_factory.hpp:76] Creating layer st/inception_4a/pool
I0907 21:53:30.900493 100997 net.cpp:110] Creating Layer st/inception_4a/pool
I0907 21:53:30.900497 100997 net.cpp:477] st/inception_4a/pool <- st/pool3/3x3_s2_st/pool3/3x3_s2_0_split_3
I0907 21:53:30.900504 100997 net.cpp:433] st/inception_4a/pool -> st/inception_4a/pool
I0907 21:53:30.900512 100997 net.cpp:155] Setting up st/inception_4a/pool
I0907 21:53:30.900517 100997 net.cpp:163] Top shape: 16 480 14 14 (1505280)
I0907 21:53:30.900521 100997 layer_factory.hpp:76] Creating layer st/inception_4a/pool_proj
I0907 21:53:30.900531 100997 net.cpp:110] Creating Layer st/inception_4a/pool_proj
I0907 21:53:30.900533 100997 net.cpp:477] st/inception_4a/pool_proj <- st/inception_4a/pool
I0907 21:53:30.900540 100997 net.cpp:433] st/inception_4a/pool_proj -> st/inception_4a/pool_proj
I0907 21:53:30.901729 100997 net.cpp:155] Setting up st/inception_4a/pool_proj
I0907 21:53:30.901741 100997 net.cpp:163] Top shape: 16 64 14 14 (200704)
I0907 21:53:30.901746 100997 layer_factory.hpp:76] Creating layer st/inception_4a/relu_pool_proj
I0907 21:53:30.901753 100997 net.cpp:110] Creating Layer st/inception_4a/relu_pool_proj
I0907 21:53:30.901757 100997 net.cpp:477] st/inception_4a/relu_pool_proj <- st/inception_4a/pool_proj
I0907 21:53:30.901764 100997 net.cpp:419] st/inception_4a/relu_pool_proj -> st/inception_4a/pool_proj (in-place)
I0907 21:53:30.901770 100997 net.cpp:155] Setting up st/inception_4a/relu_pool_proj
I0907 21:53:30.901775 100997 net.cpp:163] Top shape: 16 64 14 14 (200704)
I0907 21:53:30.901779 100997 layer_factory.hpp:76] Creating layer st/inception_4a/output
I0907 21:53:30.901787 100997 net.cpp:110] Creating Layer st/inception_4a/output
I0907 21:53:30.901789 100997 net.cpp:477] st/inception_4a/output <- st/inception_4a/1x1
I0907 21:53:30.901794 100997 net.cpp:477] st/inception_4a/output <- st/inception_4a/3x3
I0907 21:53:30.901798 100997 net.cpp:477] st/inception_4a/output <- st/inception_4a/5x5
I0907 21:53:30.901803 100997 net.cpp:477] st/inception_4a/output <- st/inception_4a/pool_proj
I0907 21:53:30.901808 100997 net.cpp:433] st/inception_4a/output -> st/inception_4a/output
I0907 21:53:30.901816 100997 net.cpp:155] Setting up st/inception_4a/output
I0907 21:53:30.901820 100997 net.cpp:163] Top shape: 16 512 14 14 (1605632)
I0907 21:53:30.901824 100997 layer_factory.hpp:76] Creating layer st/inception_4a/output_st/inception_4a/output_0_split
I0907 21:53:30.901831 100997 net.cpp:110] Creating Layer st/inception_4a/output_st/inception_4a/output_0_split
I0907 21:53:30.901835 100997 net.cpp:477] st/inception_4a/output_st/inception_4a/output_0_split <- st/inception_4a/output
I0907 21:53:30.901842 100997 net.cpp:433] st/inception_4a/output_st/inception_4a/output_0_split -> st/inception_4a/output_st/inception_4a/output_0_split_0
I0907 21:53:30.901849 100997 net.cpp:433] st/inception_4a/output_st/inception_4a/output_0_split -> st/inception_4a/output_st/inception_4a/output_0_split_1
I0907 21:53:30.901856 100997 net.cpp:433] st/inception_4a/output_st/inception_4a/output_0_split -> st/inception_4a/output_st/inception_4a/output_0_split_2
I0907 21:53:30.901876 100997 net.cpp:433] st/inception_4a/output_st/inception_4a/output_0_split -> st/inception_4a/output_st/inception_4a/output_0_split_3
I0907 21:53:30.901885 100997 net.cpp:155] Setting up st/inception_4a/output_st/inception_4a/output_0_split
I0907 21:53:30.901890 100997 net.cpp:163] Top shape: 16 512 14 14 (1605632)
I0907 21:53:30.901893 100997 net.cpp:163] Top shape: 16 512 14 14 (1605632)
I0907 21:53:30.901897 100997 net.cpp:163] Top shape: 16 512 14 14 (1605632)
I0907 21:53:30.901901 100997 net.cpp:163] Top shape: 16 512 14 14 (1605632)
I0907 21:53:30.901904 100997 layer_factory.hpp:76] Creating layer st/inception_4b/1x1
I0907 21:53:30.901913 100997 net.cpp:110] Creating Layer st/inception_4b/1x1
I0907 21:53:30.901917 100997 net.cpp:477] st/inception_4b/1x1 <- st/inception_4a/output_st/inception_4a/output_0_split_0
I0907 21:53:30.901923 100997 net.cpp:433] st/inception_4b/1x1 -> st/inception_4b/1x1
I0907 21:53:30.904994 100997 net.cpp:155] Setting up st/inception_4b/1x1
I0907 21:53:30.905004 100997 net.cpp:163] Top shape: 16 160 14 14 (501760)
I0907 21:53:30.905012 100997 layer_factory.hpp:76] Creating layer st/inception_4b/relu_1x1
I0907 21:53:30.905019 100997 net.cpp:110] Creating Layer st/inception_4b/relu_1x1
I0907 21:53:30.905024 100997 net.cpp:477] st/inception_4b/relu_1x1 <- st/inception_4b/1x1
I0907 21:53:30.905030 100997 net.cpp:419] st/inception_4b/relu_1x1 -> st/inception_4b/1x1 (in-place)
I0907 21:53:30.905035 100997 net.cpp:155] Setting up st/inception_4b/relu_1x1
I0907 21:53:30.905040 100997 net.cpp:163] Top shape: 16 160 14 14 (501760)
I0907 21:53:30.905043 100997 layer_factory.hpp:76] Creating layer st/inception_4b/3x3_reduce
I0907 21:53:30.905053 100997 net.cpp:110] Creating Layer st/inception_4b/3x3_reduce
I0907 21:53:30.905056 100997 net.cpp:477] st/inception_4b/3x3_reduce <- st/inception_4a/output_st/inception_4a/output_0_split_1
I0907 21:53:30.905064 100997 net.cpp:433] st/inception_4b/3x3_reduce -> st/inception_4b/3x3_reduce
I0907 21:53:30.907241 100997 net.cpp:155] Setting up st/inception_4b/3x3_reduce
I0907 21:53:30.907251 100997 net.cpp:163] Top shape: 16 112 14 14 (351232)
I0907 21:53:30.907259 100997 layer_factory.hpp:76] Creating layer st/inception_4b/relu_3x3_reduce
I0907 21:53:30.907266 100997 net.cpp:110] Creating Layer st/inception_4b/relu_3x3_reduce
I0907 21:53:30.907270 100997 net.cpp:477] st/inception_4b/relu_3x3_reduce <- st/inception_4b/3x3_reduce
I0907 21:53:30.907277 100997 net.cpp:419] st/inception_4b/relu_3x3_reduce -> st/inception_4b/3x3_reduce (in-place)
I0907 21:53:30.907284 100997 net.cpp:155] Setting up st/inception_4b/relu_3x3_reduce
I0907 21:53:30.907289 100997 net.cpp:163] Top shape: 16 112 14 14 (351232)
I0907 21:53:30.907291 100997 layer_factory.hpp:76] Creating layer st/inception_4b/3x3
I0907 21:53:30.907307 100997 net.cpp:110] Creating Layer st/inception_4b/3x3
I0907 21:53:30.907311 100997 net.cpp:477] st/inception_4b/3x3 <- st/inception_4b/3x3_reduce
I0907 21:53:30.907318 100997 net.cpp:433] st/inception_4b/3x3 -> st/inception_4b/3x3
I0907 21:53:30.916368 100997 net.cpp:155] Setting up st/inception_4b/3x3
I0907 21:53:30.916383 100997 net.cpp:163] Top shape: 16 224 14 14 (702464)
I0907 21:53:30.916393 100997 layer_factory.hpp:76] Creating layer st/inception_4b/relu_3x3
I0907 21:53:30.916401 100997 net.cpp:110] Creating Layer st/inception_4b/relu_3x3
I0907 21:53:30.916406 100997 net.cpp:477] st/inception_4b/relu_3x3 <- st/inception_4b/3x3
I0907 21:53:30.916412 100997 net.cpp:419] st/inception_4b/relu_3x3 -> st/inception_4b/3x3 (in-place)
I0907 21:53:30.916419 100997 net.cpp:155] Setting up st/inception_4b/relu_3x3
I0907 21:53:30.916424 100997 net.cpp:163] Top shape: 16 224 14 14 (702464)
I0907 21:53:30.916427 100997 layer_factory.hpp:76] Creating layer st/inception_4b/5x5_reduce
I0907 21:53:30.916436 100997 net.cpp:110] Creating Layer st/inception_4b/5x5_reduce
I0907 21:53:30.916440 100997 net.cpp:477] st/inception_4b/5x5_reduce <- st/inception_4a/output_st/inception_4a/output_0_split_2
I0907 21:53:30.916448 100997 net.cpp:433] st/inception_4b/5x5_reduce -> st/inception_4b/5x5_reduce
I0907 21:53:30.916987 100997 net.cpp:155] Setting up st/inception_4b/5x5_reduce
I0907 21:53:30.916998 100997 net.cpp:163] Top shape: 16 24 14 14 (75264)
I0907 21:53:30.917006 100997 layer_factory.hpp:76] Creating layer st/inception_4b/relu_5x5_reduce
I0907 21:53:30.917013 100997 net.cpp:110] Creating Layer st/inception_4b/relu_5x5_reduce
I0907 21:53:30.917017 100997 net.cpp:477] st/inception_4b/relu_5x5_reduce <- st/inception_4b/5x5_reduce
I0907 21:53:30.917023 100997 net.cpp:419] st/inception_4b/relu_5x5_reduce -> st/inception_4b/5x5_reduce (in-place)
I0907 21:53:30.917029 100997 net.cpp:155] Setting up st/inception_4b/relu_5x5_reduce
I0907 21:53:30.917034 100997 net.cpp:163] Top shape: 16 24 14 14 (75264)
I0907 21:53:30.917038 100997 layer_factory.hpp:76] Creating layer st/inception_4b/5x5
I0907 21:53:30.917047 100997 net.cpp:110] Creating Layer st/inception_4b/5x5
I0907 21:53:30.917050 100997 net.cpp:477] st/inception_4b/5x5 <- st/inception_4b/5x5_reduce
I0907 21:53:30.917057 100997 net.cpp:433] st/inception_4b/5x5 -> st/inception_4b/5x5
I0907 21:53:30.919127 100997 net.cpp:155] Setting up st/inception_4b/5x5
I0907 21:53:30.919142 100997 net.cpp:163] Top shape: 16 64 14 14 (200704)
I0907 21:53:30.919152 100997 layer_factory.hpp:76] Creating layer st/inception_4b/relu_5x5
I0907 21:53:30.919159 100997 net.cpp:110] Creating Layer st/inception_4b/relu_5x5
I0907 21:53:30.919163 100997 net.cpp:477] st/inception_4b/relu_5x5 <- st/inception_4b/5x5
I0907 21:53:30.919170 100997 net.cpp:419] st/inception_4b/relu_5x5 -> st/inception_4b/5x5 (in-place)
I0907 21:53:30.919178 100997 net.cpp:155] Setting up st/inception_4b/relu_5x5
I0907 21:53:30.919183 100997 net.cpp:163] Top shape: 16 64 14 14 (200704)
I0907 21:53:30.919185 100997 layer_factory.hpp:76] Creating layer st/inception_4b/pool
I0907 21:53:30.919193 100997 net.cpp:110] Creating Layer st/inception_4b/pool
I0907 21:53:30.919198 100997 net.cpp:477] st/inception_4b/pool <- st/inception_4a/output_st/inception_4a/output_0_split_3
I0907 21:53:30.919204 100997 net.cpp:433] st/inception_4b/pool -> st/inception_4b/pool
I0907 21:53:30.919214 100997 net.cpp:155] Setting up st/inception_4b/pool
I0907 21:53:30.919219 100997 net.cpp:163] Top shape: 16 512 14 14 (1605632)
I0907 21:53:30.919221 100997 layer_factory.hpp:76] Creating layer st/inception_4b/pool_proj
I0907 21:53:30.919230 100997 net.cpp:110] Creating Layer st/inception_4b/pool_proj
I0907 21:53:30.919234 100997 net.cpp:477] st/inception_4b/pool_proj <- st/inception_4b/pool
I0907 21:53:30.919241 100997 net.cpp:433] st/inception_4b/pool_proj -> st/inception_4b/pool_proj
I0907 21:53:30.920513 100997 net.cpp:155] Setting up st/inception_4b/pool_proj
I0907 21:53:30.920526 100997 net.cpp:163] Top shape: 16 64 14 14 (200704)
I0907 21:53:30.920533 100997 layer_factory.hpp:76] Creating layer st/inception_4b/relu_pool_proj
I0907 21:53:30.920541 100997 net.cpp:110] Creating Layer st/inception_4b/relu_pool_proj
I0907 21:53:30.920544 100997 net.cpp:477] st/inception_4b/relu_pool_proj <- st/inception_4b/pool_proj
I0907 21:53:30.920550 100997 net.cpp:419] st/inception_4b/relu_pool_proj -> st/inception_4b/pool_proj (in-place)
I0907 21:53:30.920557 100997 net.cpp:155] Setting up st/inception_4b/relu_pool_proj
I0907 21:53:30.920562 100997 net.cpp:163] Top shape: 16 64 14 14 (200704)
I0907 21:53:30.920565 100997 layer_factory.hpp:76] Creating layer st/inception_4b/output
I0907 21:53:30.920573 100997 net.cpp:110] Creating Layer st/inception_4b/output
I0907 21:53:30.920578 100997 net.cpp:477] st/inception_4b/output <- st/inception_4b/1x1
I0907 21:53:30.920583 100997 net.cpp:477] st/inception_4b/output <- st/inception_4b/3x3
I0907 21:53:30.920586 100997 net.cpp:477] st/inception_4b/output <- st/inception_4b/5x5
I0907 21:53:30.920590 100997 net.cpp:477] st/inception_4b/output <- st/inception_4b/pool_proj
I0907 21:53:30.920596 100997 net.cpp:433] st/inception_4b/output -> st/inception_4b/output
I0907 21:53:30.920604 100997 net.cpp:155] Setting up st/inception_4b/output
I0907 21:53:30.920609 100997 net.cpp:163] Top shape: 16 512 14 14 (1605632)
I0907 21:53:30.920625 100997 layer_factory.hpp:76] Creating layer st/inception_4b/output_st/inception_4b/output_0_split
I0907 21:53:30.920634 100997 net.cpp:110] Creating Layer st/inception_4b/output_st/inception_4b/output_0_split
I0907 21:53:30.920637 100997 net.cpp:477] st/inception_4b/output_st/inception_4b/output_0_split <- st/inception_4b/output
I0907 21:53:30.920644 100997 net.cpp:433] st/inception_4b/output_st/inception_4b/output_0_split -> st/inception_4b/output_st/inception_4b/output_0_split_0
I0907 21:53:30.920660 100997 net.cpp:433] st/inception_4b/output_st/inception_4b/output_0_split -> st/inception_4b/output_st/inception_4b/output_0_split_1
I0907 21:53:30.920668 100997 net.cpp:433] st/inception_4b/output_st/inception_4b/output_0_split -> st/inception_4b/output_st/inception_4b/output_0_split_2
I0907 21:53:30.920675 100997 net.cpp:433] st/inception_4b/output_st/inception_4b/output_0_split -> st/inception_4b/output_st/inception_4b/output_0_split_3
I0907 21:53:30.920683 100997 net.cpp:155] Setting up st/inception_4b/output_st/inception_4b/output_0_split
I0907 21:53:30.920689 100997 net.cpp:163] Top shape: 16 512 14 14 (1605632)
I0907 21:53:30.920693 100997 net.cpp:163] Top shape: 16 512 14 14 (1605632)
I0907 21:53:30.920697 100997 net.cpp:163] Top shape: 16 512 14 14 (1605632)
I0907 21:53:30.920701 100997 net.cpp:163] Top shape: 16 512 14 14 (1605632)
I0907 21:53:30.920704 100997 layer_factory.hpp:76] Creating layer st/inception_4c/1x1
I0907 21:53:30.920713 100997 net.cpp:110] Creating Layer st/inception_4c/1x1
I0907 21:53:30.920717 100997 net.cpp:477] st/inception_4c/1x1 <- st/inception_4b/output_st/inception_4b/output_0_split_0
I0907 21:53:30.920723 100997 net.cpp:433] st/inception_4c/1x1 -> st/inception_4c/1x1
I0907 21:53:30.923182 100997 net.cpp:155] Setting up st/inception_4c/1x1
I0907 21:53:30.923192 100997 net.cpp:163] Top shape: 16 128 14 14 (401408)
I0907 21:53:30.923199 100997 layer_factory.hpp:76] Creating layer st/inception_4c/relu_1x1
I0907 21:53:30.923207 100997 net.cpp:110] Creating Layer st/inception_4c/relu_1x1
I0907 21:53:30.923212 100997 net.cpp:477] st/inception_4c/relu_1x1 <- st/inception_4c/1x1
I0907 21:53:30.923218 100997 net.cpp:419] st/inception_4c/relu_1x1 -> st/inception_4c/1x1 (in-place)
I0907 21:53:30.923224 100997 net.cpp:155] Setting up st/inception_4c/relu_1x1
I0907 21:53:30.923229 100997 net.cpp:163] Top shape: 16 128 14 14 (401408)
I0907 21:53:30.923233 100997 layer_factory.hpp:76] Creating layer st/inception_4c/3x3_reduce
I0907 21:53:30.923243 100997 net.cpp:110] Creating Layer st/inception_4c/3x3_reduce
I0907 21:53:30.923245 100997 net.cpp:477] st/inception_4c/3x3_reduce <- st/inception_4b/output_st/inception_4b/output_0_split_1
I0907 21:53:30.923254 100997 net.cpp:433] st/inception_4c/3x3_reduce -> st/inception_4c/3x3_reduce
I0907 21:53:30.925715 100997 net.cpp:155] Setting up st/inception_4c/3x3_reduce
I0907 21:53:30.925726 100997 net.cpp:163] Top shape: 16 128 14 14 (401408)
I0907 21:53:30.925734 100997 layer_factory.hpp:76] Creating layer st/inception_4c/relu_3x3_reduce
I0907 21:53:30.925741 100997 net.cpp:110] Creating Layer st/inception_4c/relu_3x3_reduce
I0907 21:53:30.925745 100997 net.cpp:477] st/inception_4c/relu_3x3_reduce <- st/inception_4c/3x3_reduce
I0907 21:53:30.925751 100997 net.cpp:419] st/inception_4c/relu_3x3_reduce -> st/inception_4c/3x3_reduce (in-place)
I0907 21:53:30.925758 100997 net.cpp:155] Setting up st/inception_4c/relu_3x3_reduce
I0907 21:53:30.925762 100997 net.cpp:163] Top shape: 16 128 14 14 (401408)
I0907 21:53:30.925766 100997 layer_factory.hpp:76] Creating layer st/inception_4c/3x3
I0907 21:53:30.925776 100997 net.cpp:110] Creating Layer st/inception_4c/3x3
I0907 21:53:30.925778 100997 net.cpp:477] st/inception_4c/3x3 <- st/inception_4c/3x3_reduce
I0907 21:53:30.925786 100997 net.cpp:433] st/inception_4c/3x3 -> st/inception_4c/3x3
I0907 21:53:30.937309 100997 net.cpp:155] Setting up st/inception_4c/3x3
I0907 21:53:30.937324 100997 net.cpp:163] Top shape: 16 256 14 14 (802816)
I0907 21:53:30.937345 100997 layer_factory.hpp:76] Creating layer st/inception_4c/relu_3x3
I0907 21:53:30.937353 100997 net.cpp:110] Creating Layer st/inception_4c/relu_3x3
I0907 21:53:30.937357 100997 net.cpp:477] st/inception_4c/relu_3x3 <- st/inception_4c/3x3
I0907 21:53:30.937363 100997 net.cpp:419] st/inception_4c/relu_3x3 -> st/inception_4c/3x3 (in-place)
I0907 21:53:30.937371 100997 net.cpp:155] Setting up st/inception_4c/relu_3x3
I0907 21:53:30.937376 100997 net.cpp:163] Top shape: 16 256 14 14 (802816)
I0907 21:53:30.937379 100997 layer_factory.hpp:76] Creating layer st/inception_4c/5x5_reduce
I0907 21:53:30.937388 100997 net.cpp:110] Creating Layer st/inception_4c/5x5_reduce
I0907 21:53:30.937393 100997 net.cpp:477] st/inception_4c/5x5_reduce <- st/inception_4b/output_st/inception_4b/output_0_split_2
I0907 21:53:30.937400 100997 net.cpp:433] st/inception_4c/5x5_reduce -> st/inception_4c/5x5_reduce
I0907 21:53:30.937921 100997 net.cpp:155] Setting up st/inception_4c/5x5_reduce
I0907 21:53:30.937932 100997 net.cpp:163] Top shape: 16 24 14 14 (75264)
I0907 21:53:30.937938 100997 layer_factory.hpp:76] Creating layer st/inception_4c/relu_5x5_reduce
I0907 21:53:30.937947 100997 net.cpp:110] Creating Layer st/inception_4c/relu_5x5_reduce
I0907 21:53:30.937950 100997 net.cpp:477] st/inception_4c/relu_5x5_reduce <- st/inception_4c/5x5_reduce
I0907 21:53:30.937957 100997 net.cpp:419] st/inception_4c/relu_5x5_reduce -> st/inception_4c/5x5_reduce (in-place)
I0907 21:53:30.937963 100997 net.cpp:155] Setting up st/inception_4c/relu_5x5_reduce
I0907 21:53:30.937968 100997 net.cpp:163] Top shape: 16 24 14 14 (75264)
I0907 21:53:30.937971 100997 layer_factory.hpp:76] Creating layer st/inception_4c/5x5
I0907 21:53:30.937980 100997 net.cpp:110] Creating Layer st/inception_4c/5x5
I0907 21:53:30.937984 100997 net.cpp:477] st/inception_4c/5x5 <- st/inception_4c/5x5_reduce
I0907 21:53:30.937990 100997 net.cpp:433] st/inception_4c/5x5 -> st/inception_4c/5x5
I0907 21:53:30.939457 100997 net.cpp:155] Setting up st/inception_4c/5x5
I0907 21:53:30.939468 100997 net.cpp:163] Top shape: 16 64 14 14 (200704)
I0907 21:53:30.939476 100997 layer_factory.hpp:76] Creating layer st/inception_4c/relu_5x5
I0907 21:53:30.939482 100997 net.cpp:110] Creating Layer st/inception_4c/relu_5x5
I0907 21:53:30.939486 100997 net.cpp:477] st/inception_4c/relu_5x5 <- st/inception_4c/5x5
I0907 21:53:30.939492 100997 net.cpp:419] st/inception_4c/relu_5x5 -> st/inception_4c/5x5 (in-place)
I0907 21:53:30.939498 100997 net.cpp:155] Setting up st/inception_4c/relu_5x5
I0907 21:53:30.939503 100997 net.cpp:163] Top shape: 16 64 14 14 (200704)
I0907 21:53:30.939507 100997 layer_factory.hpp:76] Creating layer st/inception_4c/pool
I0907 21:53:30.939514 100997 net.cpp:110] Creating Layer st/inception_4c/pool
I0907 21:53:30.939518 100997 net.cpp:477] st/inception_4c/pool <- st/inception_4b/output_st/inception_4b/output_0_split_3
I0907 21:53:30.939524 100997 net.cpp:433] st/inception_4c/pool -> st/inception_4c/pool
I0907 21:53:30.939532 100997 net.cpp:155] Setting up st/inception_4c/pool
I0907 21:53:30.939538 100997 net.cpp:163] Top shape: 16 512 14 14 (1605632)
I0907 21:53:30.939540 100997 layer_factory.hpp:76] Creating layer st/inception_4c/pool_proj
I0907 21:53:30.939549 100997 net.cpp:110] Creating Layer st/inception_4c/pool_proj
I0907 21:53:30.939553 100997 net.cpp:477] st/inception_4c/pool_proj <- st/inception_4c/pool
I0907 21:53:30.939560 100997 net.cpp:433] st/inception_4c/pool_proj -> st/inception_4c/pool_proj
I0907 21:53:30.941400 100997 net.cpp:155] Setting up st/inception_4c/pool_proj
I0907 21:53:30.941416 100997 net.cpp:163] Top shape: 16 64 14 14 (200704)
I0907 21:53:30.941437 100997 layer_factory.hpp:76] Creating layer st/inception_4c/relu_pool_proj
I0907 21:53:30.941444 100997 net.cpp:110] Creating Layer st/inception_4c/relu_pool_proj
I0907 21:53:30.941449 100997 net.cpp:477] st/inception_4c/relu_pool_proj <- st/inception_4c/pool_proj
I0907 21:53:30.941455 100997 net.cpp:419] st/inception_4c/relu_pool_proj -> st/inception_4c/pool_proj (in-place)
I0907 21:53:30.941462 100997 net.cpp:155] Setting up st/inception_4c/relu_pool_proj
I0907 21:53:30.941480 100997 net.cpp:163] Top shape: 16 64 14 14 (200704)
I0907 21:53:30.941484 100997 layer_factory.hpp:76] Creating layer st/inception_4c/output
I0907 21:53:30.941491 100997 net.cpp:110] Creating Layer st/inception_4c/output
I0907 21:53:30.941495 100997 net.cpp:477] st/inception_4c/output <- st/inception_4c/1x1
I0907 21:53:30.941500 100997 net.cpp:477] st/inception_4c/output <- st/inception_4c/3x3
I0907 21:53:30.941504 100997 net.cpp:477] st/inception_4c/output <- st/inception_4c/5x5
I0907 21:53:30.941509 100997 net.cpp:477] st/inception_4c/output <- st/inception_4c/pool_proj
I0907 21:53:30.941515 100997 net.cpp:433] st/inception_4c/output -> st/inception_4c/output
I0907 21:53:30.941524 100997 net.cpp:155] Setting up st/inception_4c/output
I0907 21:53:30.941529 100997 net.cpp:163] Top shape: 16 512 14 14 (1605632)
I0907 21:53:30.941532 100997 layer_factory.hpp:76] Creating layer st/inception_4c/output_st/inception_4c/output_0_split
I0907 21:53:30.941540 100997 net.cpp:110] Creating Layer st/inception_4c/output_st/inception_4c/output_0_split
I0907 21:53:30.941543 100997 net.cpp:477] st/inception_4c/output_st/inception_4c/output_0_split <- st/inception_4c/output
I0907 21:53:30.941550 100997 net.cpp:433] st/inception_4c/output_st/inception_4c/output_0_split -> st/inception_4c/output_st/inception_4c/output_0_split_0
I0907 21:53:30.941557 100997 net.cpp:433] st/inception_4c/output_st/inception_4c/output_0_split -> st/inception_4c/output_st/inception_4c/output_0_split_1
I0907 21:53:30.941565 100997 net.cpp:433] st/inception_4c/output_st/inception_4c/output_0_split -> st/inception_4c/output_st/inception_4c/output_0_split_2
I0907 21:53:30.941571 100997 net.cpp:433] st/inception_4c/output_st/inception_4c/output_0_split -> st/inception_4c/output_st/inception_4c/output_0_split_3
I0907 21:53:30.941578 100997 net.cpp:155] Setting up st/inception_4c/output_st/inception_4c/output_0_split
I0907 21:53:30.941583 100997 net.cpp:163] Top shape: 16 512 14 14 (1605632)
I0907 21:53:30.941587 100997 net.cpp:163] Top shape: 16 512 14 14 (1605632)
I0907 21:53:30.941591 100997 net.cpp:163] Top shape: 16 512 14 14 (1605632)
I0907 21:53:30.941596 100997 net.cpp:163] Top shape: 16 512 14 14 (1605632)
I0907 21:53:30.941598 100997 layer_factory.hpp:76] Creating layer st/inception_4d/1x1
I0907 21:53:30.941607 100997 net.cpp:110] Creating Layer st/inception_4d/1x1
I0907 21:53:30.941611 100997 net.cpp:477] st/inception_4d/1x1 <- st/inception_4c/output_st/inception_4c/output_0_split_0
I0907 21:53:30.941617 100997 net.cpp:433] st/inception_4d/1x1 -> st/inception_4d/1x1
I0907 21:53:30.943794 100997 net.cpp:155] Setting up st/inception_4d/1x1
I0907 21:53:30.943806 100997 net.cpp:163] Top shape: 16 112 14 14 (351232)
I0907 21:53:30.943814 100997 layer_factory.hpp:76] Creating layer st/inception_4d/relu_1x1
I0907 21:53:30.943821 100997 net.cpp:110] Creating Layer st/inception_4d/relu_1x1
I0907 21:53:30.943825 100997 net.cpp:477] st/inception_4d/relu_1x1 <- st/inception_4d/1x1
I0907 21:53:30.943831 100997 net.cpp:419] st/inception_4d/relu_1x1 -> st/inception_4d/1x1 (in-place)
I0907 21:53:30.943838 100997 net.cpp:155] Setting up st/inception_4d/relu_1x1
I0907 21:53:30.943843 100997 net.cpp:163] Top shape: 16 112 14 14 (351232)
I0907 21:53:30.943846 100997 layer_factory.hpp:76] Creating layer st/inception_4d/3x3_reduce
I0907 21:53:30.943855 100997 net.cpp:110] Creating Layer st/inception_4d/3x3_reduce
I0907 21:53:30.943858 100997 net.cpp:477] st/inception_4d/3x3_reduce <- st/inception_4c/output_st/inception_4c/output_0_split_1
I0907 21:53:30.943866 100997 net.cpp:433] st/inception_4d/3x3_reduce -> st/inception_4d/3x3_reduce
I0907 21:53:30.946666 100997 net.cpp:155] Setting up st/inception_4d/3x3_reduce
I0907 21:53:30.946677 100997 net.cpp:163] Top shape: 16 144 14 14 (451584)
I0907 21:53:30.946684 100997 layer_factory.hpp:76] Creating layer st/inception_4d/relu_3x3_reduce
I0907 21:53:30.946692 100997 net.cpp:110] Creating Layer st/inception_4d/relu_3x3_reduce
I0907 21:53:30.946697 100997 net.cpp:477] st/inception_4d/relu_3x3_reduce <- st/inception_4d/3x3_reduce
I0907 21:53:30.946714 100997 net.cpp:419] st/inception_4d/relu_3x3_reduce -> st/inception_4d/3x3_reduce (in-place)
I0907 21:53:30.946722 100997 net.cpp:155] Setting up st/inception_4d/relu_3x3_reduce
I0907 21:53:30.946727 100997 net.cpp:163] Top shape: 16 144 14 14 (451584)
I0907 21:53:30.946732 100997 layer_factory.hpp:76] Creating layer st/inception_4d/3x3
I0907 21:53:30.946740 100997 net.cpp:110] Creating Layer st/inception_4d/3x3
I0907 21:53:30.946743 100997 net.cpp:477] st/inception_4d/3x3 <- st/inception_4d/3x3_reduce
I0907 21:53:30.946751 100997 net.cpp:433] st/inception_4d/3x3 -> st/inception_4d/3x3
I0907 21:53:30.961248 100997 net.cpp:155] Setting up st/inception_4d/3x3
I0907 21:53:30.961264 100997 net.cpp:163] Top shape: 16 288 14 14 (903168)
I0907 21:53:30.961273 100997 layer_factory.hpp:76] Creating layer st/inception_4d/relu_3x3
I0907 21:53:30.961282 100997 net.cpp:110] Creating Layer st/inception_4d/relu_3x3
I0907 21:53:30.961285 100997 net.cpp:477] st/inception_4d/relu_3x3 <- st/inception_4d/3x3
I0907 21:53:30.961292 100997 net.cpp:419] st/inception_4d/relu_3x3 -> st/inception_4d/3x3 (in-place)
I0907 21:53:30.961299 100997 net.cpp:155] Setting up st/inception_4d/relu_3x3
I0907 21:53:30.961304 100997 net.cpp:163] Top shape: 16 288 14 14 (903168)
I0907 21:53:30.961308 100997 layer_factory.hpp:76] Creating layer st/inception_4d/5x5_reduce
I0907 21:53:30.961318 100997 net.cpp:110] Creating Layer st/inception_4d/5x5_reduce
I0907 21:53:30.961321 100997 net.cpp:477] st/inception_4d/5x5_reduce <- st/inception_4c/output_st/inception_4c/output_0_split_2
I0907 21:53:30.961328 100997 net.cpp:433] st/inception_4d/5x5_reduce -> st/inception_4d/5x5_reduce
I0907 21:53:30.962007 100997 net.cpp:155] Setting up st/inception_4d/5x5_reduce
I0907 21:53:30.962018 100997 net.cpp:163] Top shape: 16 32 14 14 (100352)
I0907 21:53:30.962024 100997 layer_factory.hpp:76] Creating layer st/inception_4d/relu_5x5_reduce
I0907 21:53:30.962030 100997 net.cpp:110] Creating Layer st/inception_4d/relu_5x5_reduce
I0907 21:53:30.962035 100997 net.cpp:477] st/inception_4d/relu_5x5_reduce <- st/inception_4d/5x5_reduce
I0907 21:53:30.962041 100997 net.cpp:419] st/inception_4d/relu_5x5_reduce -> st/inception_4d/5x5_reduce (in-place)
I0907 21:53:30.962048 100997 net.cpp:155] Setting up st/inception_4d/relu_5x5_reduce
I0907 21:53:30.962052 100997 net.cpp:163] Top shape: 16 32 14 14 (100352)
I0907 21:53:30.962056 100997 layer_factory.hpp:76] Creating layer st/inception_4d/5x5
I0907 21:53:30.962064 100997 net.cpp:110] Creating Layer st/inception_4d/5x5
I0907 21:53:30.962067 100997 net.cpp:477] st/inception_4d/5x5 <- st/inception_4d/5x5_reduce
I0907 21:53:30.962075 100997 net.cpp:433] st/inception_4d/5x5 -> st/inception_4d/5x5
I0907 21:53:30.964026 100997 net.cpp:155] Setting up st/inception_4d/5x5
I0907 21:53:30.964038 100997 net.cpp:163] Top shape: 16 64 14 14 (200704)
I0907 21:53:30.964046 100997 layer_factory.hpp:76] Creating layer st/inception_4d/relu_5x5
I0907 21:53:30.964052 100997 net.cpp:110] Creating Layer st/inception_4d/relu_5x5
I0907 21:53:30.964056 100997 net.cpp:477] st/inception_4d/relu_5x5 <- st/inception_4d/5x5
I0907 21:53:30.964062 100997 net.cpp:419] st/inception_4d/relu_5x5 -> st/inception_4d/5x5 (in-place)
I0907 21:53:30.964068 100997 net.cpp:155] Setting up st/inception_4d/relu_5x5
I0907 21:53:30.964073 100997 net.cpp:163] Top shape: 16 64 14 14 (200704)
I0907 21:53:30.964076 100997 layer_factory.hpp:76] Creating layer st/inception_4d/pool
I0907 21:53:30.964083 100997 net.cpp:110] Creating Layer st/inception_4d/pool
I0907 21:53:30.964087 100997 net.cpp:477] st/inception_4d/pool <- st/inception_4c/output_st/inception_4c/output_0_split_3
I0907 21:53:30.964095 100997 net.cpp:433] st/inception_4d/pool -> st/inception_4d/pool
I0907 21:53:30.964104 100997 net.cpp:155] Setting up st/inception_4d/pool
I0907 21:53:30.964108 100997 net.cpp:163] Top shape: 16 512 14 14 (1605632)
I0907 21:53:30.964112 100997 layer_factory.hpp:76] Creating layer st/inception_4d/pool_proj
I0907 21:53:30.964133 100997 net.cpp:110] Creating Layer st/inception_4d/pool_proj
I0907 21:53:30.964138 100997 net.cpp:477] st/inception_4d/pool_proj <- st/inception_4d/pool
I0907 21:53:30.964145 100997 net.cpp:433] st/inception_4d/pool_proj -> st/inception_4d/pool_proj
I0907 21:53:30.965410 100997 net.cpp:155] Setting up st/inception_4d/pool_proj
I0907 21:53:30.965421 100997 net.cpp:163] Top shape: 16 64 14 14 (200704)
I0907 21:53:30.965428 100997 layer_factory.hpp:76] Creating layer st/inception_4d/relu_pool_proj
I0907 21:53:30.965437 100997 net.cpp:110] Creating Layer st/inception_4d/relu_pool_proj
I0907 21:53:30.965441 100997 net.cpp:477] st/inception_4d/relu_pool_proj <- st/inception_4d/pool_proj
I0907 21:53:30.965448 100997 net.cpp:419] st/inception_4d/relu_pool_proj -> st/inception_4d/pool_proj (in-place)
I0907 21:53:30.965454 100997 net.cpp:155] Setting up st/inception_4d/relu_pool_proj
I0907 21:53:30.965459 100997 net.cpp:163] Top shape: 16 64 14 14 (200704)
I0907 21:53:30.965463 100997 layer_factory.hpp:76] Creating layer st/inception_4d/output
I0907 21:53:30.965471 100997 net.cpp:110] Creating Layer st/inception_4d/output
I0907 21:53:30.965473 100997 net.cpp:477] st/inception_4d/output <- st/inception_4d/1x1
I0907 21:53:30.965478 100997 net.cpp:477] st/inception_4d/output <- st/inception_4d/3x3
I0907 21:53:30.965482 100997 net.cpp:477] st/inception_4d/output <- st/inception_4d/5x5
I0907 21:53:30.965487 100997 net.cpp:477] st/inception_4d/output <- st/inception_4d/pool_proj
I0907 21:53:30.965492 100997 net.cpp:433] st/inception_4d/output -> st/inception_4d/output
I0907 21:53:30.965500 100997 net.cpp:155] Setting up st/inception_4d/output
I0907 21:53:30.965505 100997 net.cpp:163] Top shape: 16 528 14 14 (1655808)
I0907 21:53:30.965509 100997 layer_factory.hpp:76] Creating layer st/inception_4d/output_st/inception_4d/output_0_split
I0907 21:53:30.965515 100997 net.cpp:110] Creating Layer st/inception_4d/output_st/inception_4d/output_0_split
I0907 21:53:30.965519 100997 net.cpp:477] st/inception_4d/output_st/inception_4d/output_0_split <- st/inception_4d/output
I0907 21:53:30.965525 100997 net.cpp:433] st/inception_4d/output_st/inception_4d/output_0_split -> st/inception_4d/output_st/inception_4d/output_0_split_0
I0907 21:53:30.965534 100997 net.cpp:433] st/inception_4d/output_st/inception_4d/output_0_split -> st/inception_4d/output_st/inception_4d/output_0_split_1
I0907 21:53:30.965541 100997 net.cpp:433] st/inception_4d/output_st/inception_4d/output_0_split -> st/inception_4d/output_st/inception_4d/output_0_split_2
I0907 21:53:30.965548 100997 net.cpp:433] st/inception_4d/output_st/inception_4d/output_0_split -> st/inception_4d/output_st/inception_4d/output_0_split_3
I0907 21:53:30.965555 100997 net.cpp:155] Setting up st/inception_4d/output_st/inception_4d/output_0_split
I0907 21:53:30.965560 100997 net.cpp:163] Top shape: 16 528 14 14 (1655808)
I0907 21:53:30.965564 100997 net.cpp:163] Top shape: 16 528 14 14 (1655808)
I0907 21:53:30.965569 100997 net.cpp:163] Top shape: 16 528 14 14 (1655808)
I0907 21:53:30.965572 100997 net.cpp:163] Top shape: 16 528 14 14 (1655808)
I0907 21:53:30.965576 100997 layer_factory.hpp:76] Creating layer st/inception_4e/1x1
I0907 21:53:30.965584 100997 net.cpp:110] Creating Layer st/inception_4e/1x1
I0907 21:53:30.965589 100997 net.cpp:477] st/inception_4e/1x1 <- st/inception_4d/output_st/inception_4d/output_0_split_0
I0907 21:53:30.965595 100997 net.cpp:433] st/inception_4e/1x1 -> st/inception_4e/1x1
I0907 21:53:30.971180 100997 net.cpp:155] Setting up st/inception_4e/1x1
I0907 21:53:30.971196 100997 net.cpp:163] Top shape: 16 256 14 14 (802816)
I0907 21:53:30.971204 100997 layer_factory.hpp:76] Creating layer st/inception_4e/relu_1x1
I0907 21:53:30.971211 100997 net.cpp:110] Creating Layer st/inception_4e/relu_1x1
I0907 21:53:30.971216 100997 net.cpp:477] st/inception_4e/relu_1x1 <- st/inception_4e/1x1
I0907 21:53:30.971222 100997 net.cpp:419] st/inception_4e/relu_1x1 -> st/inception_4e/1x1 (in-place)
I0907 21:53:30.971230 100997 net.cpp:155] Setting up st/inception_4e/relu_1x1
I0907 21:53:30.971246 100997 net.cpp:163] Top shape: 16 256 14 14 (802816)
I0907 21:53:30.971251 100997 layer_factory.hpp:76] Creating layer st/inception_4e/3x3_reduce
I0907 21:53:30.971261 100997 net.cpp:110] Creating Layer st/inception_4e/3x3_reduce
I0907 21:53:30.971266 100997 net.cpp:477] st/inception_4e/3x3_reduce <- st/inception_4d/output_st/inception_4d/output_0_split_1
I0907 21:53:30.971271 100997 net.cpp:433] st/inception_4e/3x3_reduce -> st/inception_4e/3x3_reduce
I0907 21:53:30.974448 100997 net.cpp:155] Setting up st/inception_4e/3x3_reduce
I0907 21:53:30.974460 100997 net.cpp:163] Top shape: 16 160 14 14 (501760)
I0907 21:53:30.974468 100997 layer_factory.hpp:76] Creating layer st/inception_4e/relu_3x3_reduce
I0907 21:53:30.974474 100997 net.cpp:110] Creating Layer st/inception_4e/relu_3x3_reduce
I0907 21:53:30.974479 100997 net.cpp:477] st/inception_4e/relu_3x3_reduce <- st/inception_4e/3x3_reduce
I0907 21:53:30.974484 100997 net.cpp:419] st/inception_4e/relu_3x3_reduce -> st/inception_4e/3x3_reduce (in-place)
I0907 21:53:30.974491 100997 net.cpp:155] Setting up st/inception_4e/relu_3x3_reduce
I0907 21:53:30.974496 100997 net.cpp:163] Top shape: 16 160 14 14 (501760)
I0907 21:53:30.974499 100997 layer_factory.hpp:76] Creating layer st/inception_4e/3x3
I0907 21:53:30.974509 100997 net.cpp:110] Creating Layer st/inception_4e/3x3
I0907 21:53:30.974513 100997 net.cpp:477] st/inception_4e/3x3 <- st/inception_4e/3x3_reduce
I0907 21:53:30.974519 100997 net.cpp:433] st/inception_4e/3x3 -> st/inception_4e/3x3
I0907 21:53:30.992395 100997 net.cpp:155] Setting up st/inception_4e/3x3
I0907 21:53:30.992411 100997 net.cpp:163] Top shape: 16 320 14 14 (1003520)
I0907 21:53:30.992420 100997 layer_factory.hpp:76] Creating layer st/inception_4e/relu_3x3
I0907 21:53:30.992427 100997 net.cpp:110] Creating Layer st/inception_4e/relu_3x3
I0907 21:53:30.992432 100997 net.cpp:477] st/inception_4e/relu_3x3 <- st/inception_4e/3x3
I0907 21:53:30.992439 100997 net.cpp:419] st/inception_4e/relu_3x3 -> st/inception_4e/3x3 (in-place)
I0907 21:53:30.992445 100997 net.cpp:155] Setting up st/inception_4e/relu_3x3
I0907 21:53:30.992450 100997 net.cpp:163] Top shape: 16 320 14 14 (1003520)
I0907 21:53:30.992454 100997 layer_factory.hpp:76] Creating layer st/inception_4e/5x5_reduce
I0907 21:53:30.992462 100997 net.cpp:110] Creating Layer st/inception_4e/5x5_reduce
I0907 21:53:30.992466 100997 net.cpp:477] st/inception_4e/5x5_reduce <- st/inception_4d/output_st/inception_4d/output_0_split_2
I0907 21:53:30.992475 100997 net.cpp:433] st/inception_4e/5x5_reduce -> st/inception_4e/5x5_reduce
I0907 21:53:30.993160 100997 net.cpp:155] Setting up st/inception_4e/5x5_reduce
I0907 21:53:30.993170 100997 net.cpp:163] Top shape: 16 32 14 14 (100352)
I0907 21:53:30.993178 100997 layer_factory.hpp:76] Creating layer st/inception_4e/relu_5x5_reduce
I0907 21:53:30.993185 100997 net.cpp:110] Creating Layer st/inception_4e/relu_5x5_reduce
I0907 21:53:30.993188 100997 net.cpp:477] st/inception_4e/relu_5x5_reduce <- st/inception_4e/5x5_reduce
I0907 21:53:30.993194 100997 net.cpp:419] st/inception_4e/relu_5x5_reduce -> st/inception_4e/5x5_reduce (in-place)
I0907 21:53:30.993201 100997 net.cpp:155] Setting up st/inception_4e/relu_5x5_reduce
I0907 21:53:30.993206 100997 net.cpp:163] Top shape: 16 32 14 14 (100352)
I0907 21:53:30.993208 100997 layer_factory.hpp:76] Creating layer st/inception_4e/5x5
I0907 21:53:30.993216 100997 net.cpp:110] Creating Layer st/inception_4e/5x5
I0907 21:53:30.993219 100997 net.cpp:477] st/inception_4e/5x5 <- st/inception_4e/5x5_reduce
I0907 21:53:30.993227 100997 net.cpp:433] st/inception_4e/5x5 -> st/inception_4e/5x5
I0907 21:53:30.997612 100997 net.cpp:155] Setting up st/inception_4e/5x5
I0907 21:53:30.997627 100997 net.cpp:163] Top shape: 16 128 14 14 (401408)
I0907 21:53:30.997635 100997 layer_factory.hpp:76] Creating layer st/inception_4e/relu_5x5
I0907 21:53:30.997642 100997 net.cpp:110] Creating Layer st/inception_4e/relu_5x5
I0907 21:53:30.997648 100997 net.cpp:477] st/inception_4e/relu_5x5 <- st/inception_4e/5x5
I0907 21:53:30.997668 100997 net.cpp:419] st/inception_4e/relu_5x5 -> st/inception_4e/5x5 (in-place)
I0907 21:53:30.997676 100997 net.cpp:155] Setting up st/inception_4e/relu_5x5
I0907 21:53:30.997681 100997 net.cpp:163] Top shape: 16 128 14 14 (401408)
I0907 21:53:30.997685 100997 layer_factory.hpp:76] Creating layer st/inception_4e/pool
I0907 21:53:30.997691 100997 net.cpp:110] Creating Layer st/inception_4e/pool
I0907 21:53:30.997695 100997 net.cpp:477] st/inception_4e/pool <- st/inception_4d/output_st/inception_4d/output_0_split_3
I0907 21:53:30.997701 100997 net.cpp:433] st/inception_4e/pool -> st/inception_4e/pool
I0907 21:53:30.997710 100997 net.cpp:155] Setting up st/inception_4e/pool
I0907 21:53:30.997714 100997 net.cpp:163] Top shape: 16 528 14 14 (1655808)
I0907 21:53:30.997719 100997 layer_factory.hpp:76] Creating layer st/inception_4e/pool_proj
I0907 21:53:30.997726 100997 net.cpp:110] Creating Layer st/inception_4e/pool_proj
I0907 21:53:30.997730 100997 net.cpp:477] st/inception_4e/pool_proj <- st/inception_4e/pool
I0907 21:53:30.997738 100997 net.cpp:433] st/inception_4e/pool_proj -> st/inception_4e/pool_proj
I0907 21:53:31.000283 100997 net.cpp:155] Setting up st/inception_4e/pool_proj
I0907 21:53:31.000293 100997 net.cpp:163] Top shape: 16 128 14 14 (401408)
I0907 21:53:31.000301 100997 layer_factory.hpp:76] Creating layer st/inception_4e/relu_pool_proj
I0907 21:53:31.000308 100997 net.cpp:110] Creating Layer st/inception_4e/relu_pool_proj
I0907 21:53:31.000313 100997 net.cpp:477] st/inception_4e/relu_pool_proj <- st/inception_4e/pool_proj
I0907 21:53:31.000318 100997 net.cpp:419] st/inception_4e/relu_pool_proj -> st/inception_4e/pool_proj (in-place)
I0907 21:53:31.000324 100997 net.cpp:155] Setting up st/inception_4e/relu_pool_proj
I0907 21:53:31.000329 100997 net.cpp:163] Top shape: 16 128 14 14 (401408)
I0907 21:53:31.000332 100997 layer_factory.hpp:76] Creating layer st/inception_4e/output
I0907 21:53:31.000339 100997 net.cpp:110] Creating Layer st/inception_4e/output
I0907 21:53:31.000342 100997 net.cpp:477] st/inception_4e/output <- st/inception_4e/1x1
I0907 21:53:31.000347 100997 net.cpp:477] st/inception_4e/output <- st/inception_4e/3x3
I0907 21:53:31.000351 100997 net.cpp:477] st/inception_4e/output <- st/inception_4e/5x5
I0907 21:53:31.000355 100997 net.cpp:477] st/inception_4e/output <- st/inception_4e/pool_proj
I0907 21:53:31.000360 100997 net.cpp:433] st/inception_4e/output -> st/inception_4e/output
I0907 21:53:31.000368 100997 net.cpp:155] Setting up st/inception_4e/output
I0907 21:53:31.000373 100997 net.cpp:163] Top shape: 16 832 14 14 (2609152)
I0907 21:53:31.000376 100997 layer_factory.hpp:76] Creating layer st/pool4/3x3_s2
I0907 21:53:31.000385 100997 net.cpp:110] Creating Layer st/pool4/3x3_s2
I0907 21:53:31.000390 100997 net.cpp:477] st/pool4/3x3_s2 <- st/inception_4e/output
I0907 21:53:31.000396 100997 net.cpp:433] st/pool4/3x3_s2 -> st/pool4/3x3_s2
I0907 21:53:31.000403 100997 net.cpp:155] Setting up st/pool4/3x3_s2
I0907 21:53:31.000408 100997 net.cpp:163] Top shape: 16 832 7 7 (652288)
I0907 21:53:31.000411 100997 layer_factory.hpp:76] Creating layer st/pool4/3x3_s2_st/pool4/3x3_s2_0_split
I0907 21:53:31.000418 100997 net.cpp:110] Creating Layer st/pool4/3x3_s2_st/pool4/3x3_s2_0_split
I0907 21:53:31.000422 100997 net.cpp:477] st/pool4/3x3_s2_st/pool4/3x3_s2_0_split <- st/pool4/3x3_s2
I0907 21:53:31.000427 100997 net.cpp:433] st/pool4/3x3_s2_st/pool4/3x3_s2_0_split -> st/pool4/3x3_s2_st/pool4/3x3_s2_0_split_0
I0907 21:53:31.000434 100997 net.cpp:433] st/pool4/3x3_s2_st/pool4/3x3_s2_0_split -> st/pool4/3x3_s2_st/pool4/3x3_s2_0_split_1
I0907 21:53:31.000440 100997 net.cpp:433] st/pool4/3x3_s2_st/pool4/3x3_s2_0_split -> st/pool4/3x3_s2_st/pool4/3x3_s2_0_split_2
I0907 21:53:31.000447 100997 net.cpp:433] st/pool4/3x3_s2_st/pool4/3x3_s2_0_split -> st/pool4/3x3_s2_st/pool4/3x3_s2_0_split_3
I0907 21:53:31.000455 100997 net.cpp:155] Setting up st/pool4/3x3_s2_st/pool4/3x3_s2_0_split
I0907 21:53:31.000460 100997 net.cpp:163] Top shape: 16 832 7 7 (652288)
I0907 21:53:31.000464 100997 net.cpp:163] Top shape: 16 832 7 7 (652288)
I0907 21:53:31.000479 100997 net.cpp:163] Top shape: 16 832 7 7 (652288)
I0907 21:53:31.000483 100997 net.cpp:163] Top shape: 16 832 7 7 (652288)
I0907 21:53:31.000488 100997 layer_factory.hpp:76] Creating layer st/inception_5a/1x1
I0907 21:53:31.000495 100997 net.cpp:110] Creating Layer st/inception_5a/1x1
I0907 21:53:31.000499 100997 net.cpp:477] st/inception_5a/1x1 <- st/pool4/3x3_s2_st/pool4/3x3_s2_0_split_0
I0907 21:53:31.000505 100997 net.cpp:433] st/inception_5a/1x1 -> st/inception_5a/1x1
I0907 21:53:31.008991 100997 net.cpp:155] Setting up st/inception_5a/1x1
I0907 21:53:31.009008 100997 net.cpp:163] Top shape: 16 256 7 7 (200704)
I0907 21:53:31.009016 100997 layer_factory.hpp:76] Creating layer st/inception_5a/relu_1x1
I0907 21:53:31.009024 100997 net.cpp:110] Creating Layer st/inception_5a/relu_1x1
I0907 21:53:31.009028 100997 net.cpp:477] st/inception_5a/relu_1x1 <- st/inception_5a/1x1
I0907 21:53:31.009034 100997 net.cpp:419] st/inception_5a/relu_1x1 -> st/inception_5a/1x1 (in-place)
I0907 21:53:31.009042 100997 net.cpp:155] Setting up st/inception_5a/relu_1x1
I0907 21:53:31.009047 100997 net.cpp:163] Top shape: 16 256 7 7 (200704)
I0907 21:53:31.009050 100997 layer_factory.hpp:76] Creating layer st/inception_5a/3x3_reduce
I0907 21:53:31.009058 100997 net.cpp:110] Creating Layer st/inception_5a/3x3_reduce
I0907 21:53:31.009063 100997 net.cpp:477] st/inception_5a/3x3_reduce <- st/pool4/3x3_s2_st/pool4/3x3_s2_0_split_1
I0907 21:53:31.009074 100997 net.cpp:433] st/inception_5a/3x3_reduce -> st/inception_5a/3x3_reduce
I0907 21:53:31.014603 100997 net.cpp:155] Setting up st/inception_5a/3x3_reduce
I0907 21:53:31.014619 100997 net.cpp:163] Top shape: 16 160 7 7 (125440)
I0907 21:53:31.014627 100997 layer_factory.hpp:76] Creating layer st/inception_5a/relu_3x3_reduce
I0907 21:53:31.014637 100997 net.cpp:110] Creating Layer st/inception_5a/relu_3x3_reduce
I0907 21:53:31.014642 100997 net.cpp:477] st/inception_5a/relu_3x3_reduce <- st/inception_5a/3x3_reduce
I0907 21:53:31.014647 100997 net.cpp:419] st/inception_5a/relu_3x3_reduce -> st/inception_5a/3x3_reduce (in-place)
I0907 21:53:31.014655 100997 net.cpp:155] Setting up st/inception_5a/relu_3x3_reduce
I0907 21:53:31.014660 100997 net.cpp:163] Top shape: 16 160 7 7 (125440)
I0907 21:53:31.014663 100997 layer_factory.hpp:76] Creating layer st/inception_5a/3x3
I0907 21:53:31.014672 100997 net.cpp:110] Creating Layer st/inception_5a/3x3
I0907 21:53:31.014675 100997 net.cpp:477] st/inception_5a/3x3 <- st/inception_5a/3x3_reduce
I0907 21:53:31.014681 100997 net.cpp:433] st/inception_5a/3x3 -> st/inception_5a/3x3
I0907 21:53:31.032575 100997 net.cpp:155] Setting up st/inception_5a/3x3
I0907 21:53:31.032591 100997 net.cpp:163] Top shape: 16 320 7 7 (250880)
I0907 21:53:31.032600 100997 layer_factory.hpp:76] Creating layer st/inception_5a/relu_3x3
I0907 21:53:31.032608 100997 net.cpp:110] Creating Layer st/inception_5a/relu_3x3
I0907 21:53:31.032613 100997 net.cpp:477] st/inception_5a/relu_3x3 <- st/inception_5a/3x3
I0907 21:53:31.032618 100997 net.cpp:419] st/inception_5a/relu_3x3 -> st/inception_5a/3x3 (in-place)
I0907 21:53:31.032625 100997 net.cpp:155] Setting up st/inception_5a/relu_3x3
I0907 21:53:31.032629 100997 net.cpp:163] Top shape: 16 320 7 7 (250880)
I0907 21:53:31.032634 100997 layer_factory.hpp:76] Creating layer st/inception_5a/5x5_reduce
I0907 21:53:31.032644 100997 net.cpp:110] Creating Layer st/inception_5a/5x5_reduce
I0907 21:53:31.032649 100997 net.cpp:477] st/inception_5a/5x5_reduce <- st/pool4/3x3_s2_st/pool4/3x3_s2_0_split_2
I0907 21:53:31.032656 100997 net.cpp:433] st/inception_5a/5x5_reduce -> st/inception_5a/5x5_reduce
I0907 21:53:31.033709 100997 net.cpp:155] Setting up st/inception_5a/5x5_reduce
I0907 21:53:31.033720 100997 net.cpp:163] Top shape: 16 32 7 7 (25088)
I0907 21:53:31.033726 100997 layer_factory.hpp:76] Creating layer st/inception_5a/relu_5x5_reduce
I0907 21:53:31.033756 100997 net.cpp:110] Creating Layer st/inception_5a/relu_5x5_reduce
I0907 21:53:31.033759 100997 net.cpp:477] st/inception_5a/relu_5x5_reduce <- st/inception_5a/5x5_reduce
I0907 21:53:31.033778 100997 net.cpp:419] st/inception_5a/relu_5x5_reduce -> st/inception_5a/5x5_reduce (in-place)
I0907 21:53:31.033787 100997 net.cpp:155] Setting up st/inception_5a/relu_5x5_reduce
I0907 21:53:31.033792 100997 net.cpp:163] Top shape: 16 32 7 7 (25088)
I0907 21:53:31.033797 100997 layer_factory.hpp:76] Creating layer st/inception_5a/5x5
I0907 21:53:31.033807 100997 net.cpp:110] Creating Layer st/inception_5a/5x5
I0907 21:53:31.033810 100997 net.cpp:477] st/inception_5a/5x5 <- st/inception_5a/5x5_reduce
I0907 21:53:31.033817 100997 net.cpp:433] st/inception_5a/5x5 -> st/inception_5a/5x5
I0907 21:53:31.037650 100997 net.cpp:155] Setting up st/inception_5a/5x5
I0907 21:53:31.037662 100997 net.cpp:163] Top shape: 16 128 7 7 (100352)
I0907 21:53:31.037669 100997 layer_factory.hpp:76] Creating layer st/inception_5a/relu_5x5
I0907 21:53:31.037677 100997 net.cpp:110] Creating Layer st/inception_5a/relu_5x5
I0907 21:53:31.037680 100997 net.cpp:477] st/inception_5a/relu_5x5 <- st/inception_5a/5x5
I0907 21:53:31.037686 100997 net.cpp:419] st/inception_5a/relu_5x5 -> st/inception_5a/5x5 (in-place)
I0907 21:53:31.037693 100997 net.cpp:155] Setting up st/inception_5a/relu_5x5
I0907 21:53:31.037698 100997 net.cpp:163] Top shape: 16 128 7 7 (100352)
I0907 21:53:31.037700 100997 layer_factory.hpp:76] Creating layer st/inception_5a/pool
I0907 21:53:31.037708 100997 net.cpp:110] Creating Layer st/inception_5a/pool
I0907 21:53:31.037711 100997 net.cpp:477] st/inception_5a/pool <- st/pool4/3x3_s2_st/pool4/3x3_s2_0_split_3
I0907 21:53:31.037719 100997 net.cpp:433] st/inception_5a/pool -> st/inception_5a/pool
I0907 21:53:31.037729 100997 net.cpp:155] Setting up st/inception_5a/pool
I0907 21:53:31.037732 100997 net.cpp:163] Top shape: 16 832 7 7 (652288)
I0907 21:53:31.037736 100997 layer_factory.hpp:76] Creating layer st/inception_5a/pool_proj
I0907 21:53:31.037745 100997 net.cpp:110] Creating Layer st/inception_5a/pool_proj
I0907 21:53:31.037750 100997 net.cpp:477] st/inception_5a/pool_proj <- st/inception_5a/pool
I0907 21:53:31.037755 100997 net.cpp:433] st/inception_5a/pool_proj -> st/inception_5a/pool_proj
I0907 21:53:31.042301 100997 net.cpp:155] Setting up st/inception_5a/pool_proj
I0907 21:53:31.042317 100997 net.cpp:163] Top shape: 16 128 7 7 (100352)
I0907 21:53:31.042326 100997 layer_factory.hpp:76] Creating layer st/inception_5a/relu_pool_proj
I0907 21:53:31.042335 100997 net.cpp:110] Creating Layer st/inception_5a/relu_pool_proj
I0907 21:53:31.042338 100997 net.cpp:477] st/inception_5a/relu_pool_proj <- st/inception_5a/pool_proj
I0907 21:53:31.042345 100997 net.cpp:419] st/inception_5a/relu_pool_proj -> st/inception_5a/pool_proj (in-place)
I0907 21:53:31.042351 100997 net.cpp:155] Setting up st/inception_5a/relu_pool_proj
I0907 21:53:31.042356 100997 net.cpp:163] Top shape: 16 128 7 7 (100352)
I0907 21:53:31.042361 100997 layer_factory.hpp:76] Creating layer st/inception_5a/output
I0907 21:53:31.042367 100997 net.cpp:110] Creating Layer st/inception_5a/output
I0907 21:53:31.042371 100997 net.cpp:477] st/inception_5a/output <- st/inception_5a/1x1
I0907 21:53:31.042376 100997 net.cpp:477] st/inception_5a/output <- st/inception_5a/3x3
I0907 21:53:31.042379 100997 net.cpp:477] st/inception_5a/output <- st/inception_5a/5x5
I0907 21:53:31.042383 100997 net.cpp:477] st/inception_5a/output <- st/inception_5a/pool_proj
I0907 21:53:31.042392 100997 net.cpp:433] st/inception_5a/output -> st/inception_5a/output
I0907 21:53:31.042399 100997 net.cpp:155] Setting up st/inception_5a/output
I0907 21:53:31.042404 100997 net.cpp:163] Top shape: 16 832 7 7 (652288)
I0907 21:53:31.042408 100997 layer_factory.hpp:76] Creating layer st/inception_5a/output_st/inception_5a/output_0_split
I0907 21:53:31.042414 100997 net.cpp:110] Creating Layer st/inception_5a/output_st/inception_5a/output_0_split
I0907 21:53:31.042418 100997 net.cpp:477] st/inception_5a/output_st/inception_5a/output_0_split <- st/inception_5a/output
I0907 21:53:31.042423 100997 net.cpp:433] st/inception_5a/output_st/inception_5a/output_0_split -> st/inception_5a/output_st/inception_5a/output_0_split_0
I0907 21:53:31.042443 100997 net.cpp:433] st/inception_5a/output_st/inception_5a/output_0_split -> st/inception_5a/output_st/inception_5a/output_0_split_1
I0907 21:53:31.042451 100997 net.cpp:433] st/inception_5a/output_st/inception_5a/output_0_split -> st/inception_5a/output_st/inception_5a/output_0_split_2
I0907 21:53:31.042457 100997 net.cpp:433] st/inception_5a/output_st/inception_5a/output_0_split -> st/inception_5a/output_st/inception_5a/output_0_split_3
I0907 21:53:31.042465 100997 net.cpp:155] Setting up st/inception_5a/output_st/inception_5a/output_0_split
I0907 21:53:31.042470 100997 net.cpp:163] Top shape: 16 832 7 7 (652288)
I0907 21:53:31.042474 100997 net.cpp:163] Top shape: 16 832 7 7 (652288)
I0907 21:53:31.042479 100997 net.cpp:163] Top shape: 16 832 7 7 (652288)
I0907 21:53:31.042482 100997 net.cpp:163] Top shape: 16 832 7 7 (652288)
I0907 21:53:31.042485 100997 layer_factory.hpp:76] Creating layer st/inception_5b/1x1
I0907 21:53:31.042496 100997 net.cpp:110] Creating Layer st/inception_5b/1x1
I0907 21:53:31.042500 100997 net.cpp:477] st/inception_5b/1x1 <- st/inception_5a/output_st/inception_5a/output_0_split_0
I0907 21:53:31.042505 100997 net.cpp:433] st/inception_5b/1x1 -> st/inception_5b/1x1
I0907 21:53:31.054980 100997 net.cpp:155] Setting up st/inception_5b/1x1
I0907 21:53:31.054996 100997 net.cpp:163] Top shape: 16 384 7 7 (301056)
I0907 21:53:31.055004 100997 layer_factory.hpp:76] Creating layer st/inception_5b/relu_1x1
I0907 21:53:31.055011 100997 net.cpp:110] Creating Layer st/inception_5b/relu_1x1
I0907 21:53:31.055016 100997 net.cpp:477] st/inception_5b/relu_1x1 <- st/inception_5b/1x1
I0907 21:53:31.055022 100997 net.cpp:419] st/inception_5b/relu_1x1 -> st/inception_5b/1x1 (in-place)
I0907 21:53:31.055029 100997 net.cpp:155] Setting up st/inception_5b/relu_1x1
I0907 21:53:31.055033 100997 net.cpp:163] Top shape: 16 384 7 7 (301056)
I0907 21:53:31.055037 100997 layer_factory.hpp:76] Creating layer st/inception_5b/3x3_reduce
I0907 21:53:31.055045 100997 net.cpp:110] Creating Layer st/inception_5b/3x3_reduce
I0907 21:53:31.055049 100997 net.cpp:477] st/inception_5b/3x3_reduce <- st/inception_5a/output_st/inception_5a/output_0_split_1
I0907 21:53:31.055055 100997 net.cpp:433] st/inception_5b/3x3_reduce -> st/inception_5b/3x3_reduce
I0907 21:53:31.061555 100997 net.cpp:155] Setting up st/inception_5b/3x3_reduce
I0907 21:53:31.061570 100997 net.cpp:163] Top shape: 16 192 7 7 (150528)
I0907 21:53:31.061578 100997 layer_factory.hpp:76] Creating layer st/inception_5b/relu_3x3_reduce
I0907 21:53:31.061585 100997 net.cpp:110] Creating Layer st/inception_5b/relu_3x3_reduce
I0907 21:53:31.061590 100997 net.cpp:477] st/inception_5b/relu_3x3_reduce <- st/inception_5b/3x3_reduce
I0907 21:53:31.061596 100997 net.cpp:419] st/inception_5b/relu_3x3_reduce -> st/inception_5b/3x3_reduce (in-place)
I0907 21:53:31.061604 100997 net.cpp:155] Setting up st/inception_5b/relu_3x3_reduce
I0907 21:53:31.061607 100997 net.cpp:163] Top shape: 16 192 7 7 (150528)
I0907 21:53:31.061611 100997 layer_factory.hpp:76] Creating layer st/inception_5b/3x3
I0907 21:53:31.061621 100997 net.cpp:110] Creating Layer st/inception_5b/3x3
I0907 21:53:31.061625 100997 net.cpp:477] st/inception_5b/3x3 <- st/inception_5b/3x3_reduce
I0907 21:53:31.061631 100997 net.cpp:433] st/inception_5b/3x3 -> st/inception_5b/3x3
I0907 21:53:31.087281 100997 net.cpp:155] Setting up st/inception_5b/3x3
I0907 21:53:31.087297 100997 net.cpp:163] Top shape: 16 384 7 7 (301056)
I0907 21:53:31.087307 100997 layer_factory.hpp:76] Creating layer st/inception_5b/relu_3x3
I0907 21:53:31.087314 100997 net.cpp:110] Creating Layer st/inception_5b/relu_3x3
I0907 21:53:31.087318 100997 net.cpp:477] st/inception_5b/relu_3x3 <- st/inception_5b/3x3
I0907 21:53:31.087324 100997 net.cpp:419] st/inception_5b/relu_3x3 -> st/inception_5b/3x3 (in-place)
I0907 21:53:31.087332 100997 net.cpp:155] Setting up st/inception_5b/relu_3x3
I0907 21:53:31.087337 100997 net.cpp:163] Top shape: 16 384 7 7 (301056)
I0907 21:53:31.087353 100997 layer_factory.hpp:76] Creating layer st/inception_5b/5x5_reduce
I0907 21:53:31.087363 100997 net.cpp:110] Creating Layer st/inception_5b/5x5_reduce
I0907 21:53:31.087366 100997 net.cpp:477] st/inception_5b/5x5_reduce <- st/inception_5a/output_st/inception_5a/output_0_split_2
I0907 21:53:31.087373 100997 net.cpp:433] st/inception_5b/5x5_reduce -> st/inception_5b/5x5_reduce
I0907 21:53:31.088924 100997 net.cpp:155] Setting up st/inception_5b/5x5_reduce
I0907 21:53:31.088937 100997 net.cpp:163] Top shape: 16 48 7 7 (37632)
I0907 21:53:31.088944 100997 layer_factory.hpp:76] Creating layer st/inception_5b/relu_5x5_reduce
I0907 21:53:31.088950 100997 net.cpp:110] Creating Layer st/inception_5b/relu_5x5_reduce
I0907 21:53:31.088955 100997 net.cpp:477] st/inception_5b/relu_5x5_reduce <- st/inception_5b/5x5_reduce
I0907 21:53:31.088960 100997 net.cpp:419] st/inception_5b/relu_5x5_reduce -> st/inception_5b/5x5_reduce (in-place)
I0907 21:53:31.088968 100997 net.cpp:155] Setting up st/inception_5b/relu_5x5_reduce
I0907 21:53:31.088973 100997 net.cpp:163] Top shape: 16 48 7 7 (37632)
I0907 21:53:31.088975 100997 layer_factory.hpp:76] Creating layer st/inception_5b/5x5
I0907 21:53:31.088984 100997 net.cpp:110] Creating Layer st/inception_5b/5x5
I0907 21:53:31.088987 100997 net.cpp:477] st/inception_5b/5x5 <- st/inception_5b/5x5_reduce
I0907 21:53:31.088995 100997 net.cpp:433] st/inception_5b/5x5 -> st/inception_5b/5x5
I0907 21:53:31.094707 100997 net.cpp:155] Setting up st/inception_5b/5x5
I0907 21:53:31.094717 100997 net.cpp:163] Top shape: 16 128 7 7 (100352)
I0907 21:53:31.094725 100997 layer_factory.hpp:76] Creating layer st/inception_5b/relu_5x5
I0907 21:53:31.094732 100997 net.cpp:110] Creating Layer st/inception_5b/relu_5x5
I0907 21:53:31.094735 100997 net.cpp:477] st/inception_5b/relu_5x5 <- st/inception_5b/5x5
I0907 21:53:31.094741 100997 net.cpp:419] st/inception_5b/relu_5x5 -> st/inception_5b/5x5 (in-place)
I0907 21:53:31.094748 100997 net.cpp:155] Setting up st/inception_5b/relu_5x5
I0907 21:53:31.094753 100997 net.cpp:163] Top shape: 16 128 7 7 (100352)
I0907 21:53:31.094756 100997 layer_factory.hpp:76] Creating layer st/inception_5b/pool
I0907 21:53:31.094763 100997 net.cpp:110] Creating Layer st/inception_5b/pool
I0907 21:53:31.094768 100997 net.cpp:477] st/inception_5b/pool <- st/inception_5a/output_st/inception_5a/output_0_split_3
I0907 21:53:31.094774 100997 net.cpp:433] st/inception_5b/pool -> st/inception_5b/pool
I0907 21:53:31.094781 100997 net.cpp:155] Setting up st/inception_5b/pool
I0907 21:53:31.094786 100997 net.cpp:163] Top shape: 16 832 7 7 (652288)
I0907 21:53:31.094790 100997 layer_factory.hpp:76] Creating layer st/inception_5b/pool_proj
I0907 21:53:31.094800 100997 net.cpp:110] Creating Layer st/inception_5b/pool_proj
I0907 21:53:31.094805 100997 net.cpp:477] st/inception_5b/pool_proj <- st/inception_5b/pool
I0907 21:53:31.094810 100997 net.cpp:433] st/inception_5b/pool_proj -> st/inception_5b/pool_proj
I0907 21:53:31.099352 100997 net.cpp:155] Setting up st/inception_5b/pool_proj
I0907 21:53:31.099367 100997 net.cpp:163] Top shape: 16 128 7 7 (100352)
I0907 21:53:31.099375 100997 layer_factory.hpp:76] Creating layer st/inception_5b/relu_pool_proj
I0907 21:53:31.099383 100997 net.cpp:110] Creating Layer st/inception_5b/relu_pool_proj
I0907 21:53:31.099387 100997 net.cpp:477] st/inception_5b/relu_pool_proj <- st/inception_5b/pool_proj
I0907 21:53:31.099393 100997 net.cpp:419] st/inception_5b/relu_pool_proj -> st/inception_5b/pool_proj (in-place)
I0907 21:53:31.099400 100997 net.cpp:155] Setting up st/inception_5b/relu_pool_proj
I0907 21:53:31.099406 100997 net.cpp:163] Top shape: 16 128 7 7 (100352)
I0907 21:53:31.099408 100997 layer_factory.hpp:76] Creating layer st/inception_5b/output
I0907 21:53:31.099416 100997 net.cpp:110] Creating Layer st/inception_5b/output
I0907 21:53:31.099419 100997 net.cpp:477] st/inception_5b/output <- st/inception_5b/1x1
I0907 21:53:31.099424 100997 net.cpp:477] st/inception_5b/output <- st/inception_5b/3x3
I0907 21:53:31.099428 100997 net.cpp:477] st/inception_5b/output <- st/inception_5b/5x5
I0907 21:53:31.099445 100997 net.cpp:477] st/inception_5b/output <- st/inception_5b/pool_proj
I0907 21:53:31.099452 100997 net.cpp:433] st/inception_5b/output -> st/inception_5b/output
I0907 21:53:31.099460 100997 net.cpp:155] Setting up st/inception_5b/output
I0907 21:53:31.099465 100997 net.cpp:163] Top shape: 16 1024 7 7 (802816)
I0907 21:53:31.099469 100997 layer_factory.hpp:76] Creating layer st/final_conv
I0907 21:53:31.099479 100997 net.cpp:110] Creating Layer st/final_conv
I0907 21:53:31.099483 100997 net.cpp:477] st/final_conv <- st/inception_5b/output
I0907 21:53:31.099490 100997 net.cpp:433] st/final_conv -> st/final_conv
I0907 21:53:31.104368 100997 net.cpp:155] Setting up st/final_conv
I0907 21:53:31.104380 100997 net.cpp:163] Top shape: 16 128 7 7 (100352)
I0907 21:53:31.104389 100997 layer_factory.hpp:76] Creating layer st/final_conv/relu
I0907 21:53:31.104396 100997 net.cpp:110] Creating Layer st/final_conv/relu
I0907 21:53:31.104400 100997 net.cpp:477] st/final_conv/relu <- st/final_conv
I0907 21:53:31.104405 100997 net.cpp:419] st/final_conv/relu -> st/final_conv (in-place)
I0907 21:53:31.104411 100997 net.cpp:155] Setting up st/final_conv/relu
I0907 21:53:31.104416 100997 net.cpp:163] Top shape: 16 128 7 7 (100352)
I0907 21:53:31.104419 100997 layer_factory.hpp:76] Creating layer st/final_ip
I0907 21:53:31.104432 100997 net.cpp:110] Creating Layer st/final_ip
I0907 21:53:31.104436 100997 net.cpp:477] st/final_ip <- st/final_conv
I0907 21:53:31.104444 100997 net.cpp:433] st/final_ip -> st/final_ip
I0907 21:53:31.135433 100997 net.cpp:155] Setting up st/final_ip
I0907 21:53:31.135449 100997 net.cpp:163] Top shape: 16 128 (2048)
I0907 21:53:31.135458 100997 layer_factory.hpp:76] Creating layer st/final_ip/relu
I0907 21:53:31.135465 100997 net.cpp:110] Creating Layer st/final_ip/relu
I0907 21:53:31.135470 100997 net.cpp:477] st/final_ip/relu <- st/final_ip
I0907 21:53:31.135480 100997 net.cpp:419] st/final_ip/relu -> st/final_ip (in-place)
I0907 21:53:31.135488 100997 net.cpp:155] Setting up st/final_ip/relu
I0907 21:53:31.135493 100997 net.cpp:163] Top shape: 16 128 (2048)
I0907 21:53:31.135498 100997 layer_factory.hpp:76] Creating layer st/final_ip_st/final_ip/relu_0_split
I0907 21:53:31.135504 100997 net.cpp:110] Creating Layer st/final_ip_st/final_ip/relu_0_split
I0907 21:53:31.135507 100997 net.cpp:477] st/final_ip_st/final_ip/relu_0_split <- st/final_ip
I0907 21:53:31.135512 100997 net.cpp:433] st/final_ip_st/final_ip/relu_0_split -> st/final_ip_st/final_ip/relu_0_split_0
I0907 21:53:31.135519 100997 net.cpp:433] st/final_ip_st/final_ip/relu_0_split -> st/final_ip_st/final_ip/relu_0_split_1
I0907 21:53:31.135550 100997 net.cpp:155] Setting up st/final_ip_st/final_ip/relu_0_split
I0907 21:53:31.135555 100997 net.cpp:163] Top shape: 16 128 (2048)
I0907 21:53:31.135560 100997 net.cpp:163] Top shape: 16 128 (2048)
I0907 21:53:31.135563 100997 layer_factory.hpp:76] Creating layer st/theta_1
I0907 21:53:31.135572 100997 net.cpp:110] Creating Layer st/theta_1
I0907 21:53:31.135576 100997 net.cpp:477] st/theta_1 <- st/final_ip_st/final_ip/relu_0_split_0
I0907 21:53:31.135584 100997 net.cpp:433] st/theta_1 -> st/theta_1
Setting 0th position to 0.5
Setting 1th position to 0
Setting 2th position to -0.5
Setting 3th position to 0
Setting 4th position to 0.5
Setting 5th position to 0
I0907 21:53:31.146765 100997 net.cpp:155] Setting up st/theta_1
I0907 21:53:31.146775 100997 net.cpp:163] Top shape: 16 6 (96)
I0907 21:53:31.146783 100997 layer_factory.hpp:76] Creating layer st_1
I0907 21:53:31.161933 100997 net.cpp:110] Creating Layer st_1
I0907 21:53:31.161952 100997 net.cpp:477] st_1 <- data_data_0_split_1
I0907 21:53:31.161959 100997 net.cpp:477] st_1 <- st/theta_1
I0907 21:53:31.161967 100997 net.cpp:433] st_1 -> inc1/data
		Spatial Transformer Layer:: LayerSetUp: 	Getting output_H_ and output_W_
		Spatial Transformer Layer:: LayerSetUp: 	output_H_ = 224, output_W_ = 224
		Spatial Transformer Layer:: LayerSetUp: 	Initializing the matrix for output grid
		Spatial Transformer Layer:: LayerSetUp: 	Initializing the matrix for input grid
		Spatial Transformer Layer:: LayerSetUp: 	Initialization finished.
I0907 21:53:31.164003 100997 net.cpp:155] Setting up st_1
I0907 21:53:31.164016 100997 net.cpp:163] Top shape: 16 3 224 224 (2408448)
I0907 21:53:31.164019 100997 layer_factory.hpp:76] Creating layer st/theta_2
I0907 21:53:31.164031 100997 net.cpp:110] Creating Layer st/theta_2
I0907 21:53:31.164036 100997 net.cpp:477] st/theta_2 <- st/final_ip_st/final_ip/relu_0_split_1
I0907 21:53:31.164047 100997 net.cpp:433] st/theta_2 -> st/theta_2
Setting 0th position to 0.5
Setting 1th position to 0
Setting 2th position to 0.5
Setting 3th position to 0
Setting 4th position to 0.5
Setting 5th position to 0
I0907 21:53:31.172758 100997 net.cpp:155] Setting up st/theta_2
I0907 21:53:31.172771 100997 net.cpp:163] Top shape: 16 6 (96)
I0907 21:53:31.172780 100997 layer_factory.hpp:76] Creating layer st_2
I0907 21:53:31.172788 100997 net.cpp:110] Creating Layer st_2
I0907 21:53:31.172792 100997 net.cpp:477] st_2 <- data_data_0_split_2
I0907 21:53:31.172799 100997 net.cpp:477] st_2 <- st/theta_2
I0907 21:53:31.172806 100997 net.cpp:433] st_2 -> inc2/data
		Spatial Transformer Layer:: LayerSetUp: 	Getting output_H_ and output_W_
		Spatial Transformer Layer:: LayerSetUp: 	output_H_ = 224, output_W_ = 224
		Spatial Transformer Layer:: LayerSetUp: 	Initializing the matrix for output grid
		Spatial Transformer Layer:: LayerSetUp: 	Initializing the matrix for input grid
		Spatial Transformer Layer:: LayerSetUp: 	Initialization finished.
I0907 21:53:31.174803 100997 net.cpp:155] Setting up st_2
I0907 21:53:31.174813 100997 net.cpp:163] Top shape: 16 3 224 224 (2408448)
I0907 21:53:31.174818 100997 layer_factory.hpp:76] Creating layer inc1/conv1/7x7_s2
I0907 21:53:31.174834 100997 net.cpp:110] Creating Layer inc1/conv1/7x7_s2
I0907 21:53:31.174837 100997 net.cpp:477] inc1/conv1/7x7_s2 <- inc1/data
I0907 21:53:31.174845 100997 net.cpp:433] inc1/conv1/7x7_s2 -> inc1/conv1/7x7_s2
I0907 21:53:31.175289 100997 net.cpp:155] Setting up inc1/conv1/7x7_s2
I0907 21:53:31.175300 100997 net.cpp:163] Top shape: 16 64 112 112 (12845056)
I0907 21:53:31.175309 100997 layer_factory.hpp:76] Creating layer inc1/conv1/relu_7x7
I0907 21:53:31.175315 100997 net.cpp:110] Creating Layer inc1/conv1/relu_7x7
I0907 21:53:31.175319 100997 net.cpp:477] inc1/conv1/relu_7x7 <- inc1/conv1/7x7_s2
I0907 21:53:31.175326 100997 net.cpp:419] inc1/conv1/relu_7x7 -> inc1/conv1/7x7_s2 (in-place)
I0907 21:53:31.175333 100997 net.cpp:155] Setting up inc1/conv1/relu_7x7
I0907 21:53:31.175338 100997 net.cpp:163] Top shape: 16 64 112 112 (12845056)
I0907 21:53:31.175341 100997 layer_factory.hpp:76] Creating layer inc1/pool1/3x3_s2
I0907 21:53:31.175351 100997 net.cpp:110] Creating Layer inc1/pool1/3x3_s2
I0907 21:53:31.175355 100997 net.cpp:477] inc1/pool1/3x3_s2 <- inc1/conv1/7x7_s2
I0907 21:53:31.175360 100997 net.cpp:433] inc1/pool1/3x3_s2 -> inc1/pool1/3x3_s2
I0907 21:53:31.175369 100997 net.cpp:155] Setting up inc1/pool1/3x3_s2
I0907 21:53:31.175376 100997 net.cpp:163] Top shape: 16 64 56 56 (3211264)
I0907 21:53:31.175380 100997 layer_factory.hpp:76] Creating layer inc1/pool1/norm1
I0907 21:53:31.175387 100997 net.cpp:110] Creating Layer inc1/pool1/norm1
I0907 21:53:31.175391 100997 net.cpp:477] inc1/pool1/norm1 <- inc1/pool1/3x3_s2
I0907 21:53:31.175396 100997 net.cpp:433] inc1/pool1/norm1 -> inc1/pool1/norm1
I0907 21:53:31.175405 100997 net.cpp:155] Setting up inc1/pool1/norm1
I0907 21:53:31.175410 100997 net.cpp:163] Top shape: 16 64 56 56 (3211264)
I0907 21:53:31.175413 100997 layer_factory.hpp:76] Creating layer inc1/conv2/3x3_reduce
I0907 21:53:31.175423 100997 net.cpp:110] Creating Layer inc1/conv2/3x3_reduce
I0907 21:53:31.175426 100997 net.cpp:477] inc1/conv2/3x3_reduce <- inc1/pool1/norm1
I0907 21:53:31.175432 100997 net.cpp:433] inc1/conv2/3x3_reduce -> inc1/conv2/3x3_reduce
I0907 21:53:31.175647 100997 net.cpp:155] Setting up inc1/conv2/3x3_reduce
I0907 21:53:31.175657 100997 net.cpp:163] Top shape: 16 64 56 56 (3211264)
I0907 21:53:31.175664 100997 layer_factory.hpp:76] Creating layer inc1/conv2/relu_3x3_reduce
I0907 21:53:31.175679 100997 net.cpp:110] Creating Layer inc1/conv2/relu_3x3_reduce
I0907 21:53:31.175684 100997 net.cpp:477] inc1/conv2/relu_3x3_reduce <- inc1/conv2/3x3_reduce
I0907 21:53:31.175693 100997 net.cpp:419] inc1/conv2/relu_3x3_reduce -> inc1/conv2/3x3_reduce (in-place)
I0907 21:53:31.175699 100997 net.cpp:155] Setting up inc1/conv2/relu_3x3_reduce
I0907 21:53:31.175704 100997 net.cpp:163] Top shape: 16 64 56 56 (3211264)
I0907 21:53:31.175707 100997 layer_factory.hpp:76] Creating layer inc1/conv2/3x3
I0907 21:53:31.175716 100997 net.cpp:110] Creating Layer inc1/conv2/3x3
I0907 21:53:31.175719 100997 net.cpp:477] inc1/conv2/3x3 <- inc1/conv2/3x3_reduce
I0907 21:53:31.175726 100997 net.cpp:433] inc1/conv2/3x3 -> inc1/conv2/3x3
I0907 21:53:31.179869 100997 net.cpp:155] Setting up inc1/conv2/3x3
I0907 21:53:31.179880 100997 net.cpp:163] Top shape: 16 192 56 56 (9633792)
I0907 21:53:31.179888 100997 layer_factory.hpp:76] Creating layer inc1/conv2/relu_3x3
I0907 21:53:31.179894 100997 net.cpp:110] Creating Layer inc1/conv2/relu_3x3
I0907 21:53:31.179913 100997 net.cpp:477] inc1/conv2/relu_3x3 <- inc1/conv2/3x3
I0907 21:53:31.179922 100997 net.cpp:419] inc1/conv2/relu_3x3 -> inc1/conv2/3x3 (in-place)
I0907 21:53:31.179929 100997 net.cpp:155] Setting up inc1/conv2/relu_3x3
I0907 21:53:31.179934 100997 net.cpp:163] Top shape: 16 192 56 56 (9633792)
I0907 21:53:31.179939 100997 layer_factory.hpp:76] Creating layer inc1/conv2/norm2
I0907 21:53:31.179944 100997 net.cpp:110] Creating Layer inc1/conv2/norm2
I0907 21:53:31.179949 100997 net.cpp:477] inc1/conv2/norm2 <- inc1/conv2/3x3
I0907 21:53:31.179955 100997 net.cpp:433] inc1/conv2/norm2 -> inc1/conv2/norm2
I0907 21:53:31.179962 100997 net.cpp:155] Setting up inc1/conv2/norm2
I0907 21:53:31.179967 100997 net.cpp:163] Top shape: 16 192 56 56 (9633792)
I0907 21:53:31.179970 100997 layer_factory.hpp:76] Creating layer inc1/pool2/3x3_s2
I0907 21:53:31.179977 100997 net.cpp:110] Creating Layer inc1/pool2/3x3_s2
I0907 21:53:31.179980 100997 net.cpp:477] inc1/pool2/3x3_s2 <- inc1/conv2/norm2
I0907 21:53:31.179987 100997 net.cpp:433] inc1/pool2/3x3_s2 -> inc1/pool2/3x3_s2
I0907 21:53:31.179996 100997 net.cpp:155] Setting up inc1/pool2/3x3_s2
I0907 21:53:31.180001 100997 net.cpp:163] Top shape: 16 192 28 28 (2408448)
I0907 21:53:31.180003 100997 layer_factory.hpp:76] Creating layer inc1/pool2/3x3_s2_inc1/pool2/3x3_s2_0_split
I0907 21:53:31.180011 100997 net.cpp:110] Creating Layer inc1/pool2/3x3_s2_inc1/pool2/3x3_s2_0_split
I0907 21:53:31.180014 100997 net.cpp:477] inc1/pool2/3x3_s2_inc1/pool2/3x3_s2_0_split <- inc1/pool2/3x3_s2
I0907 21:53:31.180019 100997 net.cpp:433] inc1/pool2/3x3_s2_inc1/pool2/3x3_s2_0_split -> inc1/pool2/3x3_s2_inc1/pool2/3x3_s2_0_split_0
I0907 21:53:31.180027 100997 net.cpp:433] inc1/pool2/3x3_s2_inc1/pool2/3x3_s2_0_split -> inc1/pool2/3x3_s2_inc1/pool2/3x3_s2_0_split_1
I0907 21:53:31.180033 100997 net.cpp:433] inc1/pool2/3x3_s2_inc1/pool2/3x3_s2_0_split -> inc1/pool2/3x3_s2_inc1/pool2/3x3_s2_0_split_2
I0907 21:53:31.180040 100997 net.cpp:433] inc1/pool2/3x3_s2_inc1/pool2/3x3_s2_0_split -> inc1/pool2/3x3_s2_inc1/pool2/3x3_s2_0_split_3
I0907 21:53:31.180047 100997 net.cpp:155] Setting up inc1/pool2/3x3_s2_inc1/pool2/3x3_s2_0_split
I0907 21:53:31.180052 100997 net.cpp:163] Top shape: 16 192 28 28 (2408448)
I0907 21:53:31.180057 100997 net.cpp:163] Top shape: 16 192 28 28 (2408448)
I0907 21:53:31.180060 100997 net.cpp:163] Top shape: 16 192 28 28 (2408448)
I0907 21:53:31.180064 100997 net.cpp:163] Top shape: 16 192 28 28 (2408448)
I0907 21:53:31.180068 100997 layer_factory.hpp:76] Creating layer inc1/inception_3a/1x1
I0907 21:53:31.180078 100997 net.cpp:110] Creating Layer inc1/inception_3a/1x1
I0907 21:53:31.180081 100997 net.cpp:477] inc1/inception_3a/1x1 <- inc1/pool2/3x3_s2_inc1/pool2/3x3_s2_0_split_0
I0907 21:53:31.180088 100997 net.cpp:433] inc1/inception_3a/1x1 -> inc1/inception_3a/1x1
I0907 21:53:31.180603 100997 net.cpp:155] Setting up inc1/inception_3a/1x1
I0907 21:53:31.180613 100997 net.cpp:163] Top shape: 16 64 28 28 (802816)
I0907 21:53:31.180649 100997 layer_factory.hpp:76] Creating layer inc1/inception_3a/relu_1x1
I0907 21:53:31.180657 100997 net.cpp:110] Creating Layer inc1/inception_3a/relu_1x1
I0907 21:53:31.180661 100997 net.cpp:477] inc1/inception_3a/relu_1x1 <- inc1/inception_3a/1x1
I0907 21:53:31.180667 100997 net.cpp:419] inc1/inception_3a/relu_1x1 -> inc1/inception_3a/1x1 (in-place)
I0907 21:53:31.180675 100997 net.cpp:155] Setting up inc1/inception_3a/relu_1x1
I0907 21:53:31.180678 100997 net.cpp:163] Top shape: 16 64 28 28 (802816)
I0907 21:53:31.180682 100997 layer_factory.hpp:76] Creating layer inc1/inception_3a/3x3_reduce
I0907 21:53:31.180690 100997 net.cpp:110] Creating Layer inc1/inception_3a/3x3_reduce
I0907 21:53:31.180693 100997 net.cpp:477] inc1/inception_3a/3x3_reduce <- inc1/pool2/3x3_s2_inc1/pool2/3x3_s2_0_split_1
I0907 21:53:31.180701 100997 net.cpp:433] inc1/inception_3a/3x3_reduce -> inc1/inception_3a/3x3_reduce
I0907 21:53:31.181457 100997 net.cpp:155] Setting up inc1/inception_3a/3x3_reduce
I0907 21:53:31.181466 100997 net.cpp:163] Top shape: 16 96 28 28 (1204224)
I0907 21:53:31.181483 100997 layer_factory.hpp:76] Creating layer inc1/inception_3a/relu_3x3_reduce
I0907 21:53:31.181490 100997 net.cpp:110] Creating Layer inc1/inception_3a/relu_3x3_reduce
I0907 21:53:31.181494 100997 net.cpp:477] inc1/inception_3a/relu_3x3_reduce <- inc1/inception_3a/3x3_reduce
I0907 21:53:31.181500 100997 net.cpp:419] inc1/inception_3a/relu_3x3_reduce -> inc1/inception_3a/3x3_reduce (in-place)
I0907 21:53:31.181506 100997 net.cpp:155] Setting up inc1/inception_3a/relu_3x3_reduce
I0907 21:53:31.181511 100997 net.cpp:163] Top shape: 16 96 28 28 (1204224)
I0907 21:53:31.181515 100997 layer_factory.hpp:76] Creating layer inc1/inception_3a/3x3
I0907 21:53:31.181525 100997 net.cpp:110] Creating Layer inc1/inception_3a/3x3
I0907 21:53:31.181529 100997 net.cpp:477] inc1/inception_3a/3x3 <- inc1/inception_3a/3x3_reduce
I0907 21:53:31.181535 100997 net.cpp:433] inc1/inception_3a/3x3 -> inc1/inception_3a/3x3
I0907 21:53:31.185693 100997 net.cpp:155] Setting up inc1/inception_3a/3x3
I0907 21:53:31.185705 100997 net.cpp:163] Top shape: 16 128 28 28 (1605632)
I0907 21:53:31.185713 100997 layer_factory.hpp:76] Creating layer inc1/inception_3a/relu_3x3
I0907 21:53:31.185719 100997 net.cpp:110] Creating Layer inc1/inception_3a/relu_3x3
I0907 21:53:31.185722 100997 net.cpp:477] inc1/inception_3a/relu_3x3 <- inc1/inception_3a/3x3
I0907 21:53:31.185729 100997 net.cpp:419] inc1/inception_3a/relu_3x3 -> inc1/inception_3a/3x3 (in-place)
I0907 21:53:31.185735 100997 net.cpp:155] Setting up inc1/inception_3a/relu_3x3
I0907 21:53:31.185740 100997 net.cpp:163] Top shape: 16 128 28 28 (1605632)
I0907 21:53:31.185744 100997 layer_factory.hpp:76] Creating layer inc1/inception_3a/5x5_reduce
I0907 21:53:31.185753 100997 net.cpp:110] Creating Layer inc1/inception_3a/5x5_reduce
I0907 21:53:31.185757 100997 net.cpp:477] inc1/inception_3a/5x5_reduce <- inc1/pool2/3x3_s2_inc1/pool2/3x3_s2_0_split_2
I0907 21:53:31.185763 100997 net.cpp:433] inc1/inception_3a/5x5_reduce -> inc1/inception_3a/5x5_reduce
I0907 21:53:31.185943 100997 net.cpp:155] Setting up inc1/inception_3a/5x5_reduce
I0907 21:53:31.185952 100997 net.cpp:163] Top shape: 16 16 28 28 (200704)
I0907 21:53:31.185959 100997 layer_factory.hpp:76] Creating layer inc1/inception_3a/relu_5x5_reduce
I0907 21:53:31.185966 100997 net.cpp:110] Creating Layer inc1/inception_3a/relu_5x5_reduce
I0907 21:53:31.185969 100997 net.cpp:477] inc1/inception_3a/relu_5x5_reduce <- inc1/inception_3a/5x5_reduce
I0907 21:53:31.185976 100997 net.cpp:419] inc1/inception_3a/relu_5x5_reduce -> inc1/inception_3a/5x5_reduce (in-place)
I0907 21:53:31.185982 100997 net.cpp:155] Setting up inc1/inception_3a/relu_5x5_reduce
I0907 21:53:31.185987 100997 net.cpp:163] Top shape: 16 16 28 28 (200704)
I0907 21:53:31.185992 100997 layer_factory.hpp:76] Creating layer inc1/inception_3a/5x5
I0907 21:53:31.185998 100997 net.cpp:110] Creating Layer inc1/inception_3a/5x5
I0907 21:53:31.186002 100997 net.cpp:477] inc1/inception_3a/5x5 <- inc1/inception_3a/5x5_reduce
I0907 21:53:31.186007 100997 net.cpp:433] inc1/inception_3a/5x5 -> inc1/inception_3a/5x5
I0907 21:53:31.186547 100997 net.cpp:155] Setting up inc1/inception_3a/5x5
I0907 21:53:31.186556 100997 net.cpp:163] Top shape: 16 32 28 28 (401408)
I0907 21:53:31.186563 100997 layer_factory.hpp:76] Creating layer inc1/inception_3a/relu_5x5
I0907 21:53:31.186571 100997 net.cpp:110] Creating Layer inc1/inception_3a/relu_5x5
I0907 21:53:31.186575 100997 net.cpp:477] inc1/inception_3a/relu_5x5 <- inc1/inception_3a/5x5
I0907 21:53:31.186580 100997 net.cpp:419] inc1/inception_3a/relu_5x5 -> inc1/inception_3a/5x5 (in-place)
I0907 21:53:31.186586 100997 net.cpp:155] Setting up inc1/inception_3a/relu_5x5
I0907 21:53:31.186591 100997 net.cpp:163] Top shape: 16 32 28 28 (401408)
I0907 21:53:31.186594 100997 layer_factory.hpp:76] Creating layer inc1/inception_3a/pool
I0907 21:53:31.186601 100997 net.cpp:110] Creating Layer inc1/inception_3a/pool
I0907 21:53:31.186604 100997 net.cpp:477] inc1/inception_3a/pool <- inc1/pool2/3x3_s2_inc1/pool2/3x3_s2_0_split_3
I0907 21:53:31.186621 100997 net.cpp:433] inc1/inception_3a/pool -> inc1/inception_3a/pool
I0907 21:53:31.186631 100997 net.cpp:155] Setting up inc1/inception_3a/pool
I0907 21:53:31.186636 100997 net.cpp:163] Top shape: 16 192 28 28 (2408448)
I0907 21:53:31.186640 100997 layer_factory.hpp:76] Creating layer inc1/inception_3a/pool_proj
I0907 21:53:31.186650 100997 net.cpp:110] Creating Layer inc1/inception_3a/pool_proj
I0907 21:53:31.186653 100997 net.cpp:477] inc1/inception_3a/pool_proj <- inc1/inception_3a/pool
I0907 21:53:31.186660 100997 net.cpp:433] inc1/inception_3a/pool_proj -> inc1/inception_3a/pool_proj
I0907 21:53:31.186951 100997 net.cpp:155] Setting up inc1/inception_3a/pool_proj
I0907 21:53:31.186960 100997 net.cpp:163] Top shape: 16 32 28 28 (401408)
I0907 21:53:31.186967 100997 layer_factory.hpp:76] Creating layer inc1/inception_3a/relu_pool_proj
I0907 21:53:31.186975 100997 net.cpp:110] Creating Layer inc1/inception_3a/relu_pool_proj
I0907 21:53:31.186978 100997 net.cpp:477] inc1/inception_3a/relu_pool_proj <- inc1/inception_3a/pool_proj
I0907 21:53:31.186983 100997 net.cpp:419] inc1/inception_3a/relu_pool_proj -> inc1/inception_3a/pool_proj (in-place)
I0907 21:53:31.186990 100997 net.cpp:155] Setting up inc1/inception_3a/relu_pool_proj
I0907 21:53:31.186995 100997 net.cpp:163] Top shape: 16 32 28 28 (401408)
I0907 21:53:31.186998 100997 layer_factory.hpp:76] Creating layer inc1/inception_3a/output
I0907 21:53:31.187007 100997 net.cpp:110] Creating Layer inc1/inception_3a/output
I0907 21:53:31.187011 100997 net.cpp:477] inc1/inception_3a/output <- inc1/inception_3a/1x1
I0907 21:53:31.187016 100997 net.cpp:477] inc1/inception_3a/output <- inc1/inception_3a/3x3
I0907 21:53:31.187021 100997 net.cpp:477] inc1/inception_3a/output <- inc1/inception_3a/5x5
I0907 21:53:31.187024 100997 net.cpp:477] inc1/inception_3a/output <- inc1/inception_3a/pool_proj
I0907 21:53:31.187031 100997 net.cpp:433] inc1/inception_3a/output -> inc1/inception_3a/output
I0907 21:53:31.187039 100997 net.cpp:155] Setting up inc1/inception_3a/output
I0907 21:53:31.187043 100997 net.cpp:163] Top shape: 16 256 28 28 (3211264)
I0907 21:53:31.187047 100997 layer_factory.hpp:76] Creating layer inc1/inception_3a/output_inc1/inception_3a/output_0_split
I0907 21:53:31.187053 100997 net.cpp:110] Creating Layer inc1/inception_3a/output_inc1/inception_3a/output_0_split
I0907 21:53:31.187057 100997 net.cpp:477] inc1/inception_3a/output_inc1/inception_3a/output_0_split <- inc1/inception_3a/output
I0907 21:53:31.187063 100997 net.cpp:433] inc1/inception_3a/output_inc1/inception_3a/output_0_split -> inc1/inception_3a/output_inc1/inception_3a/output_0_split_0
I0907 21:53:31.187070 100997 net.cpp:433] inc1/inception_3a/output_inc1/inception_3a/output_0_split -> inc1/inception_3a/output_inc1/inception_3a/output_0_split_1
I0907 21:53:31.187077 100997 net.cpp:433] inc1/inception_3a/output_inc1/inception_3a/output_0_split -> inc1/inception_3a/output_inc1/inception_3a/output_0_split_2
I0907 21:53:31.187083 100997 net.cpp:433] inc1/inception_3a/output_inc1/inception_3a/output_0_split -> inc1/inception_3a/output_inc1/inception_3a/output_0_split_3
I0907 21:53:31.187090 100997 net.cpp:155] Setting up inc1/inception_3a/output_inc1/inception_3a/output_0_split
I0907 21:53:31.187094 100997 net.cpp:163] Top shape: 16 256 28 28 (3211264)
I0907 21:53:31.187099 100997 net.cpp:163] Top shape: 16 256 28 28 (3211264)
I0907 21:53:31.187103 100997 net.cpp:163] Top shape: 16 256 28 28 (3211264)
I0907 21:53:31.187108 100997 net.cpp:163] Top shape: 16 256 28 28 (3211264)
I0907 21:53:31.187110 100997 layer_factory.hpp:76] Creating layer inc1/inception_3b/1x1
I0907 21:53:31.187124 100997 net.cpp:110] Creating Layer inc1/inception_3b/1x1
I0907 21:53:31.187127 100997 net.cpp:477] inc1/inception_3b/1x1 <- inc1/inception_3a/output_inc1/inception_3a/output_0_split_0
I0907 21:53:31.187134 100997 net.cpp:433] inc1/inception_3b/1x1 -> inc1/inception_3b/1x1
I0907 21:53:31.188974 100997 net.cpp:155] Setting up inc1/inception_3b/1x1
I0907 21:53:31.188989 100997 net.cpp:163] Top shape: 16 128 28 28 (1605632)
I0907 21:53:31.189010 100997 layer_factory.hpp:76] Creating layer inc1/inception_3b/relu_1x1
I0907 21:53:31.189018 100997 net.cpp:110] Creating Layer inc1/inception_3b/relu_1x1
I0907 21:53:31.189023 100997 net.cpp:477] inc1/inception_3b/relu_1x1 <- inc1/inception_3b/1x1
I0907 21:53:31.189028 100997 net.cpp:419] inc1/inception_3b/relu_1x1 -> inc1/inception_3b/1x1 (in-place)
I0907 21:53:31.189036 100997 net.cpp:155] Setting up inc1/inception_3b/relu_1x1
I0907 21:53:31.189041 100997 net.cpp:163] Top shape: 16 128 28 28 (1605632)
I0907 21:53:31.189045 100997 layer_factory.hpp:76] Creating layer inc1/inception_3b/3x3_reduce
I0907 21:53:31.189054 100997 net.cpp:110] Creating Layer inc1/inception_3b/3x3_reduce
I0907 21:53:31.189057 100997 net.cpp:477] inc1/inception_3b/3x3_reduce <- inc1/inception_3a/output_inc1/inception_3a/output_0_split_1
I0907 21:53:31.189065 100997 net.cpp:433] inc1/inception_3b/3x3_reduce -> inc1/inception_3b/3x3_reduce
I0907 21:53:31.190330 100997 net.cpp:155] Setting up inc1/inception_3b/3x3_reduce
I0907 21:53:31.190340 100997 net.cpp:163] Top shape: 16 128 28 28 (1605632)
I0907 21:53:31.190347 100997 layer_factory.hpp:76] Creating layer inc1/inception_3b/relu_3x3_reduce
I0907 21:53:31.190353 100997 net.cpp:110] Creating Layer inc1/inception_3b/relu_3x3_reduce
I0907 21:53:31.190358 100997 net.cpp:477] inc1/inception_3b/relu_3x3_reduce <- inc1/inception_3b/3x3_reduce
I0907 21:53:31.190364 100997 net.cpp:419] inc1/inception_3b/relu_3x3_reduce -> inc1/inception_3b/3x3_reduce (in-place)
I0907 21:53:31.190371 100997 net.cpp:155] Setting up inc1/inception_3b/relu_3x3_reduce
I0907 21:53:31.190376 100997 net.cpp:163] Top shape: 16 128 28 28 (1605632)
I0907 21:53:31.190379 100997 layer_factory.hpp:76] Creating layer inc1/inception_3b/3x3
I0907 21:53:31.190387 100997 net.cpp:110] Creating Layer inc1/inception_3b/3x3
I0907 21:53:31.190390 100997 net.cpp:477] inc1/inception_3b/3x3 <- inc1/inception_3b/3x3_reduce
I0907 21:53:31.190397 100997 net.cpp:433] inc1/inception_3b/3x3 -> inc1/inception_3b/3x3
I0907 21:53:31.199162 100997 net.cpp:155] Setting up inc1/inception_3b/3x3
I0907 21:53:31.199177 100997 net.cpp:163] Top shape: 16 192 28 28 (2408448)
I0907 21:53:31.199185 100997 layer_factory.hpp:76] Creating layer inc1/inception_3b/relu_3x3
I0907 21:53:31.199193 100997 net.cpp:110] Creating Layer inc1/inception_3b/relu_3x3
I0907 21:53:31.199198 100997 net.cpp:477] inc1/inception_3b/relu_3x3 <- inc1/inception_3b/3x3
I0907 21:53:31.199205 100997 net.cpp:419] inc1/inception_3b/relu_3x3 -> inc1/inception_3b/3x3 (in-place)
I0907 21:53:31.199213 100997 net.cpp:155] Setting up inc1/inception_3b/relu_3x3
I0907 21:53:31.199218 100997 net.cpp:163] Top shape: 16 192 28 28 (2408448)
I0907 21:53:31.199221 100997 layer_factory.hpp:76] Creating layer inc1/inception_3b/5x5_reduce
I0907 21:53:31.199229 100997 net.cpp:110] Creating Layer inc1/inception_3b/5x5_reduce
I0907 21:53:31.199234 100997 net.cpp:477] inc1/inception_3b/5x5_reduce <- inc1/inception_3a/output_inc1/inception_3a/output_0_split_2
I0907 21:53:31.199239 100997 net.cpp:433] inc1/inception_3b/5x5_reduce -> inc1/inception_3b/5x5_reduce
I0907 21:53:31.199614 100997 net.cpp:155] Setting up inc1/inception_3b/5x5_reduce
I0907 21:53:31.199625 100997 net.cpp:163] Top shape: 16 32 28 28 (401408)
I0907 21:53:31.199631 100997 layer_factory.hpp:76] Creating layer inc1/inception_3b/relu_5x5_reduce
I0907 21:53:31.199637 100997 net.cpp:110] Creating Layer inc1/inception_3b/relu_5x5_reduce
I0907 21:53:31.199642 100997 net.cpp:477] inc1/inception_3b/relu_5x5_reduce <- inc1/inception_3b/5x5_reduce
I0907 21:53:31.199650 100997 net.cpp:419] inc1/inception_3b/relu_5x5_reduce -> inc1/inception_3b/5x5_reduce (in-place)
I0907 21:53:31.199656 100997 net.cpp:155] Setting up inc1/inception_3b/relu_5x5_reduce
I0907 21:53:31.199661 100997 net.cpp:163] Top shape: 16 32 28 28 (401408)
I0907 21:53:31.199664 100997 layer_factory.hpp:76] Creating layer inc1/inception_3b/5x5
I0907 21:53:31.199677 100997 net.cpp:110] Creating Layer inc1/inception_3b/5x5
I0907 21:53:31.199681 100997 net.cpp:477] inc1/inception_3b/5x5 <- inc1/inception_3b/5x5_reduce
I0907 21:53:31.199700 100997 net.cpp:433] inc1/inception_3b/5x5 -> inc1/inception_3b/5x5
I0907 21:53:31.202615 100997 net.cpp:155] Setting up inc1/inception_3b/5x5
I0907 21:53:31.202626 100997 net.cpp:163] Top shape: 16 96 28 28 (1204224)
I0907 21:53:31.202635 100997 layer_factory.hpp:76] Creating layer inc1/inception_3b/relu_5x5
I0907 21:53:31.202641 100997 net.cpp:110] Creating Layer inc1/inception_3b/relu_5x5
I0907 21:53:31.202644 100997 net.cpp:477] inc1/inception_3b/relu_5x5 <- inc1/inception_3b/5x5
I0907 21:53:31.202651 100997 net.cpp:419] inc1/inception_3b/relu_5x5 -> inc1/inception_3b/5x5 (in-place)
I0907 21:53:31.202656 100997 net.cpp:155] Setting up inc1/inception_3b/relu_5x5
I0907 21:53:31.202661 100997 net.cpp:163] Top shape: 16 96 28 28 (1204224)
I0907 21:53:31.202666 100997 layer_factory.hpp:76] Creating layer inc1/inception_3b/pool
I0907 21:53:31.202672 100997 net.cpp:110] Creating Layer inc1/inception_3b/pool
I0907 21:53:31.202675 100997 net.cpp:477] inc1/inception_3b/pool <- inc1/inception_3a/output_inc1/inception_3a/output_0_split_3
I0907 21:53:31.202682 100997 net.cpp:433] inc1/inception_3b/pool -> inc1/inception_3b/pool
I0907 21:53:31.202690 100997 net.cpp:155] Setting up inc1/inception_3b/pool
I0907 21:53:31.202695 100997 net.cpp:163] Top shape: 16 256 28 28 (3211264)
I0907 21:53:31.202698 100997 layer_factory.hpp:76] Creating layer inc1/inception_3b/pool_proj
I0907 21:53:31.202708 100997 net.cpp:110] Creating Layer inc1/inception_3b/pool_proj
I0907 21:53:31.202713 100997 net.cpp:477] inc1/inception_3b/pool_proj <- inc1/inception_3b/pool
I0907 21:53:31.202718 100997 net.cpp:433] inc1/inception_3b/pool_proj -> inc1/inception_3b/pool_proj
I0907 21:53:31.203392 100997 net.cpp:155] Setting up inc1/inception_3b/pool_proj
I0907 21:53:31.203403 100997 net.cpp:163] Top shape: 16 64 28 28 (802816)
I0907 21:53:31.203410 100997 layer_factory.hpp:76] Creating layer inc1/inception_3b/relu_pool_proj
I0907 21:53:31.203416 100997 net.cpp:110] Creating Layer inc1/inception_3b/relu_pool_proj
I0907 21:53:31.203420 100997 net.cpp:477] inc1/inception_3b/relu_pool_proj <- inc1/inception_3b/pool_proj
I0907 21:53:31.203426 100997 net.cpp:419] inc1/inception_3b/relu_pool_proj -> inc1/inception_3b/pool_proj (in-place)
I0907 21:53:31.203433 100997 net.cpp:155] Setting up inc1/inception_3b/relu_pool_proj
I0907 21:53:31.203438 100997 net.cpp:163] Top shape: 16 64 28 28 (802816)
I0907 21:53:31.203440 100997 layer_factory.hpp:76] Creating layer inc1/inception_3b/output
I0907 21:53:31.203450 100997 net.cpp:110] Creating Layer inc1/inception_3b/output
I0907 21:53:31.203454 100997 net.cpp:477] inc1/inception_3b/output <- inc1/inception_3b/1x1
I0907 21:53:31.203459 100997 net.cpp:477] inc1/inception_3b/output <- inc1/inception_3b/3x3
I0907 21:53:31.203464 100997 net.cpp:477] inc1/inception_3b/output <- inc1/inception_3b/5x5
I0907 21:53:31.203467 100997 net.cpp:477] inc1/inception_3b/output <- inc1/inception_3b/pool_proj
I0907 21:53:31.203472 100997 net.cpp:433] inc1/inception_3b/output -> inc1/inception_3b/output
I0907 21:53:31.203480 100997 net.cpp:155] Setting up inc1/inception_3b/output
I0907 21:53:31.203485 100997 net.cpp:163] Top shape: 16 480 28 28 (6021120)
I0907 21:53:31.203488 100997 layer_factory.hpp:76] Creating layer inc1/pool3/3x3_s2
I0907 21:53:31.203495 100997 net.cpp:110] Creating Layer inc1/pool3/3x3_s2
I0907 21:53:31.203498 100997 net.cpp:477] inc1/pool3/3x3_s2 <- inc1/inception_3b/output
I0907 21:53:31.203505 100997 net.cpp:433] inc1/pool3/3x3_s2 -> inc1/pool3/3x3_s2
I0907 21:53:31.203512 100997 net.cpp:155] Setting up inc1/pool3/3x3_s2
I0907 21:53:31.203516 100997 net.cpp:163] Top shape: 16 480 14 14 (1505280)
I0907 21:53:31.203521 100997 layer_factory.hpp:76] Creating layer inc1/pool3/3x3_s2_inc1/pool3/3x3_s2_0_split
I0907 21:53:31.203526 100997 net.cpp:110] Creating Layer inc1/pool3/3x3_s2_inc1/pool3/3x3_s2_0_split
I0907 21:53:31.203531 100997 net.cpp:477] inc1/pool3/3x3_s2_inc1/pool3/3x3_s2_0_split <- inc1/pool3/3x3_s2
I0907 21:53:31.203537 100997 net.cpp:433] inc1/pool3/3x3_s2_inc1/pool3/3x3_s2_0_split -> inc1/pool3/3x3_s2_inc1/pool3/3x3_s2_0_split_0
I0907 21:53:31.203555 100997 net.cpp:433] inc1/pool3/3x3_s2_inc1/pool3/3x3_s2_0_split -> inc1/pool3/3x3_s2_inc1/pool3/3x3_s2_0_split_1
I0907 21:53:31.203563 100997 net.cpp:433] inc1/pool3/3x3_s2_inc1/pool3/3x3_s2_0_split -> inc1/pool3/3x3_s2_inc1/pool3/3x3_s2_0_split_2
I0907 21:53:31.203569 100997 net.cpp:433] inc1/pool3/3x3_s2_inc1/pool3/3x3_s2_0_split -> inc1/pool3/3x3_s2_inc1/pool3/3x3_s2_0_split_3
I0907 21:53:31.203577 100997 net.cpp:155] Setting up inc1/pool3/3x3_s2_inc1/pool3/3x3_s2_0_split
I0907 21:53:31.203582 100997 net.cpp:163] Top shape: 16 480 14 14 (1505280)
I0907 21:53:31.203586 100997 net.cpp:163] Top shape: 16 480 14 14 (1505280)
I0907 21:53:31.203590 100997 net.cpp:163] Top shape: 16 480 14 14 (1505280)
I0907 21:53:31.203594 100997 net.cpp:163] Top shape: 16 480 14 14 (1505280)
I0907 21:53:31.203598 100997 layer_factory.hpp:76] Creating layer inc1/inception_4a/1x1
I0907 21:53:31.203605 100997 net.cpp:110] Creating Layer inc1/inception_4a/1x1
I0907 21:53:31.203609 100997 net.cpp:477] inc1/inception_4a/1x1 <- inc1/pool3/3x3_s2_inc1/pool3/3x3_s2_0_split_0
I0907 21:53:31.203618 100997 net.cpp:433] inc1/inception_4a/1x1 -> inc1/inception_4a/1x1
I0907 21:53:31.207092 100997 net.cpp:155] Setting up inc1/inception_4a/1x1
I0907 21:53:31.207103 100997 net.cpp:163] Top shape: 16 192 14 14 (602112)
I0907 21:53:31.207111 100997 layer_factory.hpp:76] Creating layer inc1/inception_4a/relu_1x1
I0907 21:53:31.207118 100997 net.cpp:110] Creating Layer inc1/inception_4a/relu_1x1
I0907 21:53:31.207123 100997 net.cpp:477] inc1/inception_4a/relu_1x1 <- inc1/inception_4a/1x1
I0907 21:53:31.207128 100997 net.cpp:419] inc1/inception_4a/relu_1x1 -> inc1/inception_4a/1x1 (in-place)
I0907 21:53:31.207134 100997 net.cpp:155] Setting up inc1/inception_4a/relu_1x1
I0907 21:53:31.207139 100997 net.cpp:163] Top shape: 16 192 14 14 (602112)
…
I0907 21:53:31.470844 100997 net.cpp:477] inc2/inception_4b/output <- inc2/inception_4b/1x1
I0907 21:53:31.470849 100997 net.cpp:477] inc2/inception_4b/output <- inc2/inception_4b/3x3
I0907 21:53:31.470852 100997 net.cpp:477] inc2/inception_4b/output <- inc2/inception_4b/5x5
I0907 21:53:31.470856 100997 net.cpp:477] inc2/inception_4b/output <- inc2/inception_4b/pool_proj
I0907 21:53:31.470860 100997 net.cpp:433] inc2/inception_4b/output -> inc2/inception_4b/output
I0907 21:53:31.470868 100997 net.cpp:155] Setting up inc2/inception_4b/output
I0907 21:53:31.470873 100997 net.cpp:163] Top shape: 16 512 14 14 (1605632)
I0907 21:53:31.470876 100997 layer_factory.hpp:76] Creating layer inc2/inception_4b/output_inc2/inception_4b/output_0_split
I0907 21:53:31.470882 100997 net.cpp:110] Creating Layer inc2/inception_4b/output_inc2/inception_4b/output_0_split
I0907 21:53:31.470885 100997 net.cpp:477] inc2/inception_4b/output_inc2/inception_4b/output_0_split <- inc2/inception_4b/output
I0907 21:53:31.470890 100997 net.cpp:433] inc2/inception_4b/output_inc2/inception_4b/output_0_split -> inc2/inception_4b/output_inc2/inception_4b/output_0_split_0
I0907 21:53:31.470901 100997 net.cpp:433] inc2/inception_4b/output_inc2/inception_4b/output_0_split -> inc2/inception_4b/output_inc2/inception_4b/output_0_split_1
I0907 21:53:31.470907 100997 net.cpp:433] inc2/inception_4b/output_inc2/inception_4b/output_0_split -> inc2/inception_4b/output_inc2/inception_4b/output_0_split_2
I0907 21:53:31.470913 100997 net.cpp:433] inc2/inception_4b/output_inc2/inception_4b/output_0_split -> inc2/inception_4b/output_inc2/inception_4b/output_0_split_3
I0907 21:53:31.470921 100997 net.cpp:155] Setting up inc2/inception_4b/output_inc2/inception_4b/output_0_split
I0907 21:53:31.470924 100997 net.cpp:163] Top shape: 16 512 14 14 (1605632)
I0907 21:53:31.470928 100997 net.cpp:163] Top shape: 16 512 14 14 (1605632)
I0907 21:53:31.470932 100997 net.cpp:163] Top shape: 16 512 14 14 (1605632)
I0907 21:53:31.470935 100997 net.cpp:163] Top shape: 16 512 14 14 (1605632)
I0907 21:53:31.470938 100997 layer_factory.hpp:76] Creating layer inc2/inception_4c/1x1
I0907 21:53:31.470945 100997 net.cpp:110] Creating Layer inc2/inception_4c/1x1
I0907 21:53:31.470948 100997 net.cpp:477] inc2/inception_4c/1x1 <- inc2/inception_4b/output_inc2/inception_4b/output_0_split_0
I0907 21:53:31.470954 100997 net.cpp:433] inc2/inception_4c/1x1 -> inc2/inception_4c/1x1
I0907 21:53:31.473091 100997 net.cpp:155] Setting up inc2/inception_4c/1x1
I0907 21:53:31.473101 100997 net.cpp:163] Top shape: 16 128 14 14 (401408)
I0907 21:53:31.473119 100997 layer_factory.hpp:76] Creating layer inc2/inception_4c/relu_1x1
I0907 21:53:31.473127 100997 net.cpp:110] Creating Layer inc2/inception_4c/relu_1x1
I0907 21:53:31.473132 100997 net.cpp:477] inc2/inception_4c/relu_1x1 <- inc2/inception_4c/1x1
I0907 21:53:31.473137 100997 net.cpp:419] inc2/inception_4c/relu_1x1 -> inc2/inception_4c/1x1 (in-place)
I0907 21:53:31.473143 100997 net.cpp:155] Setting up inc2/inception_4c/relu_1x1
I0907 21:53:31.473147 100997 net.cpp:163] Top shape: 16 128 14 14 (401408)
I0907 21:53:31.473151 100997 layer_factory.hpp:76] Creating layer inc2/inception_4c/3x3_reduce
I0907 21:53:31.473158 100997 net.cpp:110] Creating Layer inc2/inception_4c/3x3_reduce
I0907 21:53:31.473161 100997 net.cpp:477] inc2/inception_4c/3x3_reduce <- inc2/inception_4b/output_inc2/inception_4b/output_0_split_1
I0907 21:53:31.473167 100997 net.cpp:433] inc2/inception_4c/3x3_reduce -> inc2/inception_4c/3x3_reduce
I0907 21:53:31.475296 100997 net.cpp:155] Setting up inc2/inception_4c/3x3_reduce
I0907 21:53:31.475306 100997 net.cpp:163] Top shape: 16 128 14 14 (401408)
I0907 21:53:31.475323 100997 layer_factory.hpp:76] Creating layer inc2/inception_4c/relu_3x3_reduce
I0907 21:53:31.475332 100997 net.cpp:110] Creating Layer inc2/inception_4c/relu_3x3_reduce
I0907 21:53:31.475335 100997 net.cpp:477] inc2/inception_4c/relu_3x3_reduce <- inc2/inception_4c/3x3_reduce
I0907 21:53:31.475349 100997 net.cpp:419] inc2/inception_4c/relu_3x3_reduce -> inc2/inception_4c/3x3_reduce (in-place)
I0907 21:53:31.475356 100997 net.cpp:155] Setting up inc2/inception_4c/relu_3x3_reduce
I0907 21:53:31.475361 100997 net.cpp:163] Top shape: 16 128 14 14 (401408)
I0907 21:53:31.475364 100997 layer_factory.hpp:76] Creating layer inc2/inception_4c/3x3
I0907 21:53:31.475371 100997 net.cpp:110] Creating Layer inc2/inception_4c/3x3
I0907 21:53:31.475374 100997 net.cpp:477] inc2/inception_4c/3x3 <- inc2/inception_4c/3x3_reduce
I0907 21:53:31.475379 100997 net.cpp:433] inc2/inception_4c/3x3 -> inc2/inception_4c/3x3
I0907 21:53:31.485285 100997 net.cpp:155] Setting up inc2/inception_4c/3x3
I0907 21:53:31.485298 100997 net.cpp:163] Top shape: 16 256 14 14 (802816)
I0907 21:53:31.485317 100997 layer_factory.hpp:76] Creating layer inc2/inception_4c/relu_3x3
I0907 21:53:31.485323 100997 net.cpp:110] Creating Layer inc2/inception_4c/relu_3x3
I0907 21:53:31.485328 100997 net.cpp:477] inc2/inception_4c/relu_3x3 <- inc2/inception_4c/3x3
I0907 21:53:31.485334 100997 net.cpp:419] inc2/inception_4c/relu_3x3 -> inc2/inception_4c/3x3 (in-place)
I0907 21:53:31.485340 100997 net.cpp:155] Setting up inc2/inception_4c/relu_3x3
I0907 21:53:31.485344 100997 net.cpp:163] Top shape: 16 256 14 14 (802816)
I0907 21:53:31.485347 100997 layer_factory.hpp:76] Creating layer inc2/inception_4c/5x5_reduce
I0907 21:53:31.485360 100997 net.cpp:110] Creating Layer inc2/inception_4c/5x5_reduce
I0907 21:53:31.485363 100997 net.cpp:477] inc2/inception_4c/5x5_reduce <- inc2/inception_4b/output_inc2/inception_4b/output_0_split_2
I0907 21:53:31.485369 100997 net.cpp:433] inc2/inception_4c/5x5_reduce -> inc2/inception_4c/5x5_reduce
I0907 21:53:31.485837 100997 net.cpp:155] Setting up inc2/inception_4c/5x5_reduce
I0907 21:53:31.485846 100997 net.cpp:163] Top shape: 16 24 14 14 (75264)
I0907 21:53:31.485864 100997 layer_factory.hpp:76] Creating layer inc2/inception_4c/relu_5x5_reduce
I0907 21:53:31.485870 100997 net.cpp:110] Creating Layer inc2/inception_4c/relu_5x5_reduce
I0907 21:53:31.485873 100997 net.cpp:477] inc2/inception_4c/relu_5x5_reduce <- inc2/inception_4c/5x5_reduce
I0907 21:53:31.485878 100997 net.cpp:419] inc2/inception_4c/relu_5x5_reduce -> inc2/inception_4c/5x5_reduce (in-place)
I0907 21:53:31.485884 100997 net.cpp:155] Setting up inc2/inception_4c/relu_5x5_reduce
I0907 21:53:31.485888 100997 net.cpp:163] Top shape: 16 24 14 14 (75264)
I0907 21:53:31.485891 100997 layer_factory.hpp:76] Creating layer inc2/inception_4c/5x5
I0907 21:53:31.485900 100997 net.cpp:110] Creating Layer inc2/inception_4c/5x5
I0907 21:53:31.485903 100997 net.cpp:477] inc2/inception_4c/5x5 <- inc2/inception_4c/5x5_reduce
I0907 21:53:31.485908 100997 net.cpp:433] inc2/inception_4c/5x5 -> inc2/inception_4c/5x5
I0907 21:53:31.487190 100997 net.cpp:155] Setting up inc2/inception_4c/5x5
I0907 21:53:31.487197 100997 net.cpp:163] Top shape: 16 64 14 14 (200704)
I0907 21:53:31.487215 100997 layer_factory.hpp:76] Creating layer inc2/inception_4c/relu_5x5
I0907 21:53:31.487221 100997 net.cpp:110] Creating Layer inc2/inception_4c/relu_5x5
I0907 21:53:31.487224 100997 net.cpp:477] inc2/inception_4c/relu_5x5 <- inc2/inception_4c/5x5
I0907 21:53:31.487232 100997 net.cpp:419] inc2/inception_4c/relu_5x5 -> inc2/inception_4c/5x5 (in-place)
I0907 21:53:31.487237 100997 net.cpp:155] Setting up inc2/inception_4c/relu_5x5
I0907 21:53:31.487242 100997 net.cpp:163] Top shape: 16 64 14 14 (200704)
I0907 21:53:31.487246 100997 layer_factory.hpp:76] Creating layer inc2/inception_4c/pool
I0907 21:53:31.487251 100997 net.cpp:110] Creating Layer inc2/inception_4c/pool
I0907 21:53:31.487254 100997 net.cpp:477] inc2/inception_4c/pool <- inc2/inception_4b/output_inc2/inception_4b/output_0_split_3
I0907 21:53:31.487259 100997 net.cpp:433] inc2/inception_4c/pool -> inc2/inception_4c/pool
I0907 21:53:31.487267 100997 net.cpp:155] Setting up inc2/inception_4c/pool
I0907 21:53:31.487272 100997 net.cpp:163] Top shape: 16 512 14 14 (1605632)
I0907 21:53:31.487275 100997 layer_factory.hpp:76] Creating layer inc2/inception_4c/pool_proj
I0907 21:53:31.487295 100997 net.cpp:110] Creating Layer inc2/inception_4c/pool_proj
I0907 21:53:31.487299 100997 net.cpp:477] inc2/inception_4c/pool_proj <- inc2/inception_4c/pool
I0907 21:53:31.487306 100997 net.cpp:433] inc2/inception_4c/pool_proj -> inc2/inception_4c/pool_proj
I0907 21:53:31.488422 100997 net.cpp:155] Setting up inc2/inception_4c/pool_proj
I0907 21:53:31.488433 100997 net.cpp:163] Top shape: 16 64 14 14 (200704)
I0907 21:53:31.488451 100997 layer_factory.hpp:76] Creating layer inc2/inception_4c/relu_pool_proj
I0907 21:53:31.488457 100997 net.cpp:110] Creating Layer inc2/inception_4c/relu_pool_proj
I0907 21:53:31.488461 100997 net.cpp:477] inc2/inception_4c/relu_pool_proj <- inc2/inception_4c/pool_proj
I0907 21:53:31.488466 100997 net.cpp:419] inc2/inception_4c/relu_pool_proj -> inc2/inception_4c/pool_proj (in-place)
I0907 21:53:31.488471 100997 net.cpp:155] Setting up inc2/inception_4c/relu_pool_proj
I0907 21:53:31.488476 100997 net.cpp:163] Top shape: 16 64 14 14 (200704)
I0907 21:53:31.488478 100997 layer_factory.hpp:76] Creating layer inc2/inception_4c/output
I0907 21:53:31.488484 100997 net.cpp:110] Creating Layer inc2/inception_4c/output
I0907 21:53:31.488487 100997 net.cpp:477] inc2/inception_4c/output <- inc2/inception_4c/1x1
I0907 21:53:31.488492 100997 net.cpp:477] inc2/inception_4c/output <- inc2/inception_4c/3x3
I0907 21:53:31.488495 100997 net.cpp:477] inc2/inception_4c/output <- inc2/inception_4c/5x5
I0907 21:53:31.488499 100997 net.cpp:477] inc2/inception_4c/output <- inc2/inception_4c/pool_proj
I0907 21:53:31.488503 100997 net.cpp:433] inc2/inception_4c/output -> inc2/inception_4c/output
I0907 21:53:31.488510 100997 net.cpp:155] Setting up inc2/inception_4c/output
I0907 21:53:31.488514 100997 net.cpp:163] Top shape: 16 512 14 14 (1605632)
I0907 21:53:31.488518 100997 layer_factory.hpp:76] Creating layer inc2/inception_4c/output_inc2/inception_4c/output_0_split
I0907 21:53:31.488526 100997 net.cpp:110] Creating Layer inc2/inception_4c/output_inc2/inception_4c/output_0_split
I0907 21:53:31.488529 100997 net.cpp:477] inc2/inception_4c/output_inc2/inception_4c/output_0_split <- inc2/inception_4c/output
I0907 21:53:31.488534 100997 net.cpp:433] inc2/inception_4c/output_inc2/inception_4c/output_0_split -> inc2/inception_4c/output_inc2/inception_4c/output_0_split_0
I0907 21:53:31.488540 100997 net.cpp:433] inc2/inception_4c/output_inc2/inception_4c/output_0_split -> inc2/inception_4c/output_inc2/inception_4c/output_0_split_1
I0907 21:53:31.488548 100997 net.cpp:433] inc2/inception_4c/output_inc2/inception_4c/output_0_split -> inc2/inception_4c/output_inc2/inception_4c/output_0_split_2
I0907 21:53:31.488554 100997 net.cpp:433] inc2/inception_4c/output_inc2/inception_4c/output_0_split -> inc2/inception_4c/output_inc2/inception_4c/output_0_split_3
I0907 21:53:31.488559 100997 net.cpp:155] Setting up inc2/inception_4c/output_inc2/inception_4c/output_0_split
I0907 21:53:31.488564 100997 net.cpp:163] Top shape: 16 512 14 14 (1605632)
I0907 21:53:31.488567 100997 net.cpp:163] Top shape: 16 512 14 14 (1605632)
I0907 21:53:31.488570 100997 net.cpp:163] Top shape: 16 512 14 14 (1605632)
I0907 21:53:31.488574 100997 net.cpp:163] Top shape: 16 512 14 14 (1605632)
I0907 21:53:31.488577 100997 layer_factory.hpp:76] Creating layer inc2/inception_4d/1x1
I0907 21:53:31.488584 100997 net.cpp:110] Creating Layer inc2/inception_4d/1x1
I0907 21:53:31.488589 100997 net.cpp:477] inc2/inception_4d/1x1 <- inc2/inception_4c/output_inc2/inception_4c/output_0_split_0
I0907 21:53:31.488595 100997 net.cpp:433] inc2/inception_4d/1x1 -> inc2/inception_4d/1x1
I0907 21:53:31.490988 100997 net.cpp:155] Setting up inc2/inception_4d/1x1
I0907 21:53:31.491001 100997 net.cpp:163] Top shape: 16 112 14 14 (351232)
I0907 21:53:31.491008 100997 layer_factory.hpp:76] Creating layer inc2/inception_4d/relu_1x1
I0907 21:53:31.491015 100997 net.cpp:110] Creating Layer inc2/inception_4d/relu_1x1
I0907 21:53:31.491019 100997 net.cpp:477] inc2/inception_4d/relu_1x1 <- inc2/inception_4d/1x1
I0907 21:53:31.491037 100997 net.cpp:419] inc2/inception_4d/relu_1x1 -> inc2/inception_4d/1x1 (in-place)
I0907 21:53:31.491045 100997 net.cpp:155] Setting up inc2/inception_4d/relu_1x1
I0907 21:53:31.491050 100997 net.cpp:163] Top shape: 16 112 14 14 (351232)
I0907 21:53:31.491053 100997 layer_factory.hpp:76] Creating layer inc2/inception_4d/3x3_reduce
I0907 21:53:31.491060 100997 net.cpp:110] Creating Layer inc2/inception_4d/3x3_reduce
I0907 21:53:31.491065 100997 net.cpp:477] inc2/inception_4d/3x3_reduce <- inc2/inception_4c/output_inc2/inception_4c/output_0_split_1
I0907 21:53:31.491070 100997 net.cpp:433] inc2/inception_4d/3x3_reduce -> inc2/inception_4d/3x3_reduce
I0907 21:53:31.493474 100997 net.cpp:155] Setting up inc2/inception_4d/3x3_reduce
I0907 21:53:31.493484 100997 net.cpp:163] Top shape: 16 144 14 14 (451584)
I0907 21:53:31.493502 100997 layer_factory.hpp:76] Creating layer inc2/inception_4d/relu_3x3_reduce
I0907 21:53:31.493508 100997 net.cpp:110] Creating Layer inc2/inception_4d/relu_3x3_reduce
I0907 21:53:31.493512 100997 net.cpp:477] inc2/inception_4d/relu_3x3_reduce <- inc2/inception_4d/3x3_reduce
I0907 21:53:31.493516 100997 net.cpp:419] inc2/inception_4d/relu_3x3_reduce -> inc2/inception_4d/3x3_reduce (in-place)
I0907 21:53:31.493522 100997 net.cpp:155] Setting up inc2/inception_4d/relu_3x3_reduce
I0907 21:53:31.493526 100997 net.cpp:163] Top shape: 16 144 14 14 (451584)
I0907 21:53:31.493530 100997 layer_factory.hpp:76] Creating layer inc2/inception_4d/3x3
I0907 21:53:31.493536 100997 net.cpp:110] Creating Layer inc2/inception_4d/3x3
I0907 21:53:31.493540 100997 net.cpp:477] inc2/inception_4d/3x3 <- inc2/inception_4d/3x3_reduce
I0907 21:53:31.493544 100997 net.cpp:433] inc2/inception_4d/3x3 -> inc2/inception_4d/3x3
I0907 21:53:31.506016 100997 net.cpp:155] Setting up inc2/inception_4d/3x3
I0907 21:53:31.506029 100997 net.cpp:163] Top shape: 16 288 14 14 (903168)
I0907 21:53:31.506048 100997 layer_factory.hpp:76] Creating layer inc2/inception_4d/relu_3x3
I0907 21:53:31.506055 100997 net.cpp:110] Creating Layer inc2/inception_4d/relu_3x3
I0907 21:53:31.506059 100997 net.cpp:477] inc2/inception_4d/relu_3x3 <- inc2/inception_4d/3x3
I0907 21:53:31.506065 100997 net.cpp:419] inc2/inception_4d/relu_3x3 -> inc2/inception_4d/3x3 (in-place)
I0907 21:53:31.506072 100997 net.cpp:155] Setting up inc2/inception_4d/relu_3x3
I0907 21:53:31.506075 100997 net.cpp:163] Top shape: 16 288 14 14 (903168)
I0907 21:53:31.506078 100997 layer_factory.hpp:76] Creating layer inc2/inception_4d/5x5_reduce
I0907 21:53:31.506093 100997 net.cpp:110] Creating Layer inc2/inception_4d/5x5_reduce
I0907 21:53:31.506098 100997 net.cpp:477] inc2/inception_4d/5x5_reduce <- inc2/inception_4c/output_inc2/inception_4c/output_0_split_2
I0907 21:53:31.506103 100997 net.cpp:433] inc2/inception_4d/5x5_reduce -> inc2/inception_4d/5x5_reduce
I0907 21:53:31.506703 100997 net.cpp:155] Setting up inc2/inception_4d/5x5_reduce
I0907 21:53:31.506712 100997 net.cpp:163] Top shape: 16 32 14 14 (100352)
I0907 21:53:31.506731 100997 layer_factory.hpp:76] Creating layer inc2/inception_4d/relu_5x5_reduce
I0907 21:53:31.506736 100997 net.cpp:110] Creating Layer inc2/inception_4d/relu_5x5_reduce
I0907 21:53:31.506741 100997 net.cpp:477] inc2/inception_4d/relu_5x5_reduce <- inc2/inception_4d/5x5_reduce
I0907 21:53:31.506747 100997 net.cpp:419] inc2/inception_4d/relu_5x5_reduce -> inc2/inception_4d/5x5_reduce (in-place)
I0907 21:53:31.506752 100997 net.cpp:155] Setting up inc2/inception_4d/relu_5x5_reduce
I0907 21:53:31.506757 100997 net.cpp:163] Top shape: 16 32 14 14 (100352)
I0907 21:53:31.506759 100997 layer_factory.hpp:76] Creating layer inc2/inception_4d/5x5
I0907 21:53:31.506767 100997 net.cpp:110] Creating Layer inc2/inception_4d/5x5
I0907 21:53:31.506769 100997 net.cpp:477] inc2/inception_4d/5x5 <- inc2/inception_4d/5x5_reduce
I0907 21:53:31.506774 100997 net.cpp:433] inc2/inception_4d/5x5 -> inc2/inception_4d/5x5
I0907 21:53:31.508466 100997 net.cpp:155] Setting up inc2/inception_4d/5x5
I0907 21:53:31.508476 100997 net.cpp:163] Top shape: 16 64 14 14 (200704)
I0907 21:53:31.508504 100997 layer_factory.hpp:76] Creating layer inc2/inception_4d/relu_5x5
I0907 21:53:31.508513 100997 net.cpp:110] Creating Layer inc2/inception_4d/relu_5x5
I0907 21:53:31.508517 100997 net.cpp:477] inc2/inception_4d/relu_5x5 <- inc2/inception_4d/5x5
I0907 21:53:31.508522 100997 net.cpp:419] inc2/inception_4d/relu_5x5 -> inc2/inception_4d/5x5 (in-place)
I0907 21:53:31.508528 100997 net.cpp:155] Setting up inc2/inception_4d/relu_5x5
I0907 21:53:31.508533 100997 net.cpp:163] Top shape: 16 64 14 14 (200704)
I0907 21:53:31.508535 100997 layer_factory.hpp:76] Creating layer inc2/inception_4d/pool
I0907 21:53:31.508541 100997 net.cpp:110] Creating Layer inc2/inception_4d/pool
I0907 21:53:31.508545 100997 net.cpp:477] inc2/inception_4d/pool <- inc2/inception_4c/output_inc2/inception_4c/output_0_split_3
I0907 21:53:31.508551 100997 net.cpp:433] inc2/inception_4d/pool -> inc2/inception_4d/pool
I0907 21:53:31.508558 100997 net.cpp:155] Setting up inc2/inception_4d/pool
I0907 21:53:31.508563 100997 net.cpp:163] Top shape: 16 512 14 14 (1605632)
I0907 21:53:31.508566 100997 layer_factory.hpp:76] Creating layer inc2/inception_4d/pool_proj
I0907 21:53:31.508574 100997 net.cpp:110] Creating Layer inc2/inception_4d/pool_proj
I0907 21:53:31.508576 100997 net.cpp:477] inc2/inception_4d/pool_proj <- inc2/inception_4d/pool
I0907 21:53:31.508584 100997 net.cpp:433] inc2/inception_4d/pool_proj -> inc2/inception_4d/pool_proj
I0907 21:53:31.509696 100997 net.cpp:155] Setting up inc2/inception_4d/pool_proj
I0907 21:53:31.509706 100997 net.cpp:163] Top shape: 16 64 14 14 (200704)
I0907 21:53:31.509723 100997 layer_factory.hpp:76] Creating layer inc2/inception_4d/relu_pool_proj
I0907 21:53:31.509729 100997 net.cpp:110] Creating Layer inc2/inception_4d/relu_pool_proj
I0907 21:53:31.509732 100997 net.cpp:477] inc2/inception_4d/relu_pool_proj <- inc2/inception_4d/pool_proj
I0907 21:53:31.509737 100997 net.cpp:419] inc2/inception_4d/relu_pool_proj -> inc2/inception_4d/pool_proj (in-place)
I0907 21:53:31.509743 100997 net.cpp:155] Setting up inc2/inception_4d/relu_pool_proj
I0907 21:53:31.509747 100997 net.cpp:163] Top shape: 16 64 14 14 (200704)
I0907 21:53:31.509750 100997 layer_factory.hpp:76] Creating layer inc2/inception_4d/output
I0907 21:53:31.509758 100997 net.cpp:110] Creating Layer inc2/inception_4d/output
I0907 21:53:31.509762 100997 net.cpp:477] inc2/inception_4d/output <- inc2/inception_4d/1x1
I0907 21:53:31.509765 100997 net.cpp:477] inc2/inception_4d/output <- inc2/inception_4d/3x3
I0907 21:53:31.509769 100997 net.cpp:477] inc2/inception_4d/output <- inc2/inception_4d/5x5
I0907 21:53:31.509773 100997 net.cpp:477] inc2/inception_4d/output <- inc2/inception_4d/pool_proj
I0907 21:53:31.509778 100997 net.cpp:433] inc2/inception_4d/output -> inc2/inception_4d/output
I0907 21:53:31.509785 100997 net.cpp:155] Setting up inc2/inception_4d/output
I0907 21:53:31.509790 100997 net.cpp:163] Top shape: 16 528 14 14 (1655808)
I0907 21:53:31.509793 100997 layer_factory.hpp:76] Creating layer inc2/inception_4d/output_inc2/inception_4d/output_0_split
I0907 21:53:31.509799 100997 net.cpp:110] Creating Layer inc2/inception_4d/output_inc2/inception_4d/output_0_split
I0907 21:53:31.509802 100997 net.cpp:477] inc2/inception_4d/output_inc2/inception_4d/output_0_split <- inc2/inception_4d/output
I0907 21:53:31.509807 100997 net.cpp:433] inc2/inception_4d/output_inc2/inception_4d/output_0_split -> inc2/inception_4d/output_inc2/inception_4d/output_0_split_0
I0907 21:53:31.509814 100997 net.cpp:433] inc2/inception_4d/output_inc2/inception_4d/output_0_split -> inc2/inception_4d/output_inc2/inception_4d/output_0_split_1
I0907 21:53:31.509820 100997 net.cpp:433] inc2/inception_4d/output_inc2/inception_4d/output_0_split -> inc2/inception_4d/output_inc2/inception_4d/output_0_split_2
I0907 21:53:31.509826 100997 net.cpp:433] inc2/inception_4d/output_inc2/inception_4d/output_0_split -> inc2/inception_4d/output_inc2/inception_4d/output_0_split_3
I0907 21:53:31.509832 100997 net.cpp:155] Setting up inc2/inception_4d/output_inc2/inception_4d/output_0_split
I0907 21:53:31.509845 100997 net.cpp:163] Top shape: 16 528 14 14 (1655808)
I0907 21:53:31.509850 100997 net.cpp:163] Top shape: 16 528 14 14 (1655808)
I0907 21:53:31.509853 100997 net.cpp:163] Top shape: 16 528 14 14 (1655808)
I0907 21:53:31.509856 100997 net.cpp:163] Top shape: 16 528 14 14 (1655808)
I0907 21:53:31.509860 100997 layer_factory.hpp:76] Creating layer inc2/inception_4e/1x1
I0907 21:53:31.509870 100997 net.cpp:110] Creating Layer inc2/inception_4e/1x1
I0907 21:53:31.509873 100997 net.cpp:477] inc2/inception_4e/1x1 <- inc2/inception_4d/output_inc2/inception_4d/output_0_split_0
I0907 21:53:31.509878 100997 net.cpp:433] inc2/inception_4e/1x1 -> inc2/inception_4e/1x1
I0907 21:53:31.514699 100997 net.cpp:155] Setting up inc2/inception_4e/1x1
I0907 21:53:31.514713 100997 net.cpp:163] Top shape: 16 256 14 14 (802816)
I0907 21:53:31.514732 100997 layer_factory.hpp:76] Creating layer inc2/inception_4e/relu_1x1
I0907 21:53:31.514739 100997 net.cpp:110] Creating Layer inc2/inception_4e/relu_1x1
I0907 21:53:31.514744 100997 net.cpp:477] inc2/inception_4e/relu_1x1 <- inc2/inception_4e/1x1
I0907 21:53:31.514749 100997 net.cpp:419] inc2/inception_4e/relu_1x1 -> inc2/inception_4e/1x1 (in-place)
I0907 21:53:31.514755 100997 net.cpp:155] Setting up inc2/inception_4e/relu_1x1
I0907 21:53:31.514760 100997 net.cpp:163] Top shape: 16 256 14 14 (802816)
I0907 21:53:31.514762 100997 layer_factory.hpp:76] Creating layer inc2/inception_4e/3x3_reduce
I0907 21:53:31.514770 100997 net.cpp:110] Creating Layer inc2/inception_4e/3x3_reduce
I0907 21:53:31.514773 100997 net.cpp:477] inc2/inception_4e/3x3_reduce <- inc2/inception_4d/output_inc2/inception_4d/output_0_split_1
I0907 21:53:31.514778 100997 net.cpp:433] inc2/inception_4e/3x3_reduce -> inc2/inception_4e/3x3_reduce
I0907 21:53:31.517513 100997 net.cpp:155] Setting up inc2/inception_4e/3x3_reduce
I0907 21:53:31.517524 100997 net.cpp:163] Top shape: 16 160 14 14 (501760)
I0907 21:53:31.517541 100997 layer_factory.hpp:76] Creating layer inc2/inception_4e/relu_3x3_reduce
I0907 21:53:31.517547 100997 net.cpp:110] Creating Layer inc2/inception_4e/relu_3x3_reduce
I0907 21:53:31.517551 100997 net.cpp:477] inc2/inception_4e/relu_3x3_reduce <- inc2/inception_4e/3x3_reduce
I0907 21:53:31.517556 100997 net.cpp:419] inc2/inception_4e/relu_3x3_reduce -> inc2/inception_4e/3x3_reduce (in-place)
I0907 21:53:31.517562 100997 net.cpp:155] Setting up inc2/inception_4e/relu_3x3_reduce
I0907 21:53:31.517566 100997 net.cpp:163] Top shape: 16 160 14 14 (501760)
I0907 21:53:31.517570 100997 layer_factory.hpp:76] Creating layer inc2/inception_4e/3x3
I0907 21:53:31.517576 100997 net.cpp:110] Creating Layer inc2/inception_4e/3x3
I0907 21:53:31.517580 100997 net.cpp:477] inc2/inception_4e/3x3 <- inc2/inception_4e/3x3_reduce
I0907 21:53:31.517586 100997 net.cpp:433] inc2/inception_4e/3x3 -> inc2/inception_4e/3x3
I0907 21:53:31.532881 100997 net.cpp:155] Setting up inc2/inception_4e/3x3
I0907 21:53:31.532904 100997 net.cpp:163] Top shape: 16 320 14 14 (1003520)
I0907 21:53:31.532912 100997 layer_factory.hpp:76] Creating layer inc2/inception_4e/relu_3x3
I0907 21:53:31.532919 100997 net.cpp:110] Creating Layer inc2/inception_4e/relu_3x3
I0907 21:53:31.532923 100997 net.cpp:477] inc2/inception_4e/relu_3x3 <- inc2/inception_4e/3x3
I0907 21:53:31.532930 100997 net.cpp:419] inc2/inception_4e/relu_3x3 -> inc2/inception_4e/3x3 (in-place)
I0907 21:53:31.532938 100997 net.cpp:155] Setting up inc2/inception_4e/relu_3x3
I0907 21:53:31.532941 100997 net.cpp:163] Top shape: 16 320 14 14 (1003520)
I0907 21:53:31.532945 100997 layer_factory.hpp:76] Creating layer inc2/inception_4e/5x5_reduce
I0907 21:53:31.532956 100997 net.cpp:110] Creating Layer inc2/inception_4e/5x5_reduce
I0907 21:53:31.532960 100997 net.cpp:477] inc2/inception_4e/5x5_reduce <- inc2/inception_4d/output_inc2/inception_4d/output_0_split_2
I0907 21:53:31.532965 100997 net.cpp:433] inc2/inception_4e/5x5_reduce -> inc2/inception_4e/5x5_reduce
I0907 21:53:31.533579 100997 net.cpp:155] Setting up inc2/inception_4e/5x5_reduce
I0907 21:53:31.533588 100997 net.cpp:163] Top shape: 16 32 14 14 (100352)
I0907 21:53:31.533618 100997 layer_factory.hpp:76] Creating layer inc2/inception_4e/relu_5x5_reduce
I0907 21:53:31.533627 100997 net.cpp:110] Creating Layer inc2/inception_4e/relu_5x5_reduce
I0907 21:53:31.533632 100997 net.cpp:477] inc2/inception_4e/relu_5x5_reduce <- inc2/inception_4e/5x5_reduce
I0907 21:53:31.533637 100997 net.cpp:419] inc2/inception_4e/relu_5x5_reduce -> inc2/inception_4e/5x5_reduce (in-place)
I0907 21:53:31.533643 100997 net.cpp:155] Setting up inc2/inception_4e/relu_5x5_reduce
I0907 21:53:31.533646 100997 net.cpp:163] Top shape: 16 32 14 14 (100352)
I0907 21:53:31.533649 100997 layer_factory.hpp:76] Creating layer inc2/inception_4e/5x5
I0907 21:53:31.533656 100997 net.cpp:110] Creating Layer inc2/inception_4e/5x5
I0907 21:53:31.533659 100997 net.cpp:477] inc2/inception_4e/5x5 <- inc2/inception_4e/5x5_reduce
I0907 21:53:31.533664 100997 net.cpp:433] inc2/inception_4e/5x5 -> inc2/inception_4e/5x5
I0907 21:53:31.537469 100997 net.cpp:155] Setting up inc2/inception_4e/5x5
I0907 21:53:31.537482 100997 net.cpp:163] Top shape: 16 128 14 14 (401408)
I0907 21:53:31.537503 100997 layer_factory.hpp:76] Creating layer inc2/inception_4e/relu_5x5
I0907 21:53:31.537509 100997 net.cpp:110] Creating Layer inc2/inception_4e/relu_5x5
I0907 21:53:31.537514 100997 net.cpp:477] inc2/inception_4e/relu_5x5 <- inc2/inception_4e/5x5
I0907 21:53:31.537519 100997 net.cpp:419] inc2/inception_4e/relu_5x5 -> inc2/inception_4e/5x5 (in-place)
I0907 21:53:31.537525 100997 net.cpp:155] Setting up inc2/inception_4e/relu_5x5
I0907 21:53:31.537529 100997 net.cpp:163] Top shape: 16 128 14 14 (401408)
I0907 21:53:31.537533 100997 layer_factory.hpp:76] Creating layer inc2/inception_4e/pool
I0907 21:53:31.537539 100997 net.cpp:110] Creating Layer inc2/inception_4e/pool
I0907 21:53:31.537542 100997 net.cpp:477] inc2/inception_4e/pool <- inc2/inception_4d/output_inc2/inception_4d/output_0_split_3
I0907 21:53:31.537549 100997 net.cpp:433] inc2/inception_4e/pool -> inc2/inception_4e/pool
I0907 21:53:31.537557 100997 net.cpp:155] Setting up inc2/inception_4e/pool
I0907 21:53:31.537562 100997 net.cpp:163] Top shape: 16 528 14 14 (1655808)
I0907 21:53:31.537565 100997 layer_factory.hpp:76] Creating layer inc2/inception_4e/pool_proj
I0907 21:53:31.537572 100997 net.cpp:110] Creating Layer inc2/inception_4e/pool_proj
I0907 21:53:31.537576 100997 net.cpp:477] inc2/inception_4e/pool_proj <- inc2/inception_4e/pool
I0907 21:53:31.537581 100997 net.cpp:433] inc2/inception_4e/pool_proj -> inc2/inception_4e/pool_proj
I0907 21:53:31.539780 100997 net.cpp:155] Setting up inc2/inception_4e/pool_proj
I0907 21:53:31.539790 100997 net.cpp:163] Top shape: 16 128 14 14 (401408)
I0907 21:53:31.539809 100997 layer_factory.hpp:76] Creating layer inc2/inception_4e/relu_pool_proj
I0907 21:53:31.539816 100997 net.cpp:110] Creating Layer inc2/inception_4e/relu_pool_proj
I0907 21:53:31.539821 100997 net.cpp:477] inc2/inception_4e/relu_pool_proj <- inc2/inception_4e/pool_proj
I0907 21:53:31.539826 100997 net.cpp:419] inc2/inception_4e/relu_pool_proj -> inc2/inception_4e/pool_proj (in-place)
I0907 21:53:31.539831 100997 net.cpp:155] Setting up inc2/inception_4e/relu_pool_proj
I0907 21:53:31.539835 100997 net.cpp:163] Top shape: 16 128 14 14 (401408)
I0907 21:53:31.539839 100997 layer_factory.hpp:76] Creating layer inc2/inception_4e/output
I0907 21:53:31.539844 100997 net.cpp:110] Creating Layer inc2/inception_4e/output
I0907 21:53:31.539849 100997 net.cpp:477] inc2/inception_4e/output <- inc2/inception_4e/1x1
I0907 21:53:31.539852 100997 net.cpp:477] inc2/inception_4e/output <- inc2/inception_4e/3x3
I0907 21:53:31.539856 100997 net.cpp:477] inc2/inception_4e/output <- inc2/inception_4e/5x5
I0907 21:53:31.539860 100997 net.cpp:477] inc2/inception_4e/output <- inc2/inception_4e/pool_proj
I0907 21:53:31.539865 100997 net.cpp:433] inc2/inception_4e/output -> inc2/inception_4e/output
I0907 21:53:31.539871 100997 net.cpp:155] Setting up inc2/inception_4e/output
I0907 21:53:31.539875 100997 net.cpp:163] Top shape: 16 832 14 14 (2609152)
I0907 21:53:31.539891 100997 layer_factory.hpp:76] Creating layer inc2/pool4/3x3_s2
I0907 21:53:31.539896 100997 net.cpp:110] Creating Layer inc2/pool4/3x3_s2
I0907 21:53:31.539901 100997 net.cpp:477] inc2/pool4/3x3_s2 <- inc2/inception_4e/output
I0907 21:53:31.539906 100997 net.cpp:433] inc2/pool4/3x3_s2 -> inc2/pool4/3x3_s2
I0907 21:53:31.539913 100997 net.cpp:155] Setting up inc2/pool4/3x3_s2
I0907 21:53:31.539917 100997 net.cpp:163] Top shape: 16 832 7 7 (652288)
I0907 21:53:31.539921 100997 layer_factory.hpp:76] Creating layer inc2/pool4/3x3_s2_inc2/pool4/3x3_s2_0_split
I0907 21:53:31.539932 100997 net.cpp:110] Creating Layer inc2/pool4/3x3_s2_inc2/pool4/3x3_s2_0_split
I0907 21:53:31.539934 100997 net.cpp:477] inc2/pool4/3x3_s2_inc2/pool4/3x3_s2_0_split <- inc2/pool4/3x3_s2
I0907 21:53:31.539939 100997 net.cpp:433] inc2/pool4/3x3_s2_inc2/pool4/3x3_s2_0_split -> inc2/pool4/3x3_s2_inc2/pool4/3x3_s2_0_split_0
I0907 21:53:31.539947 100997 net.cpp:433] inc2/pool4/3x3_s2_inc2/pool4/3x3_s2_0_split -> inc2/pool4/3x3_s2_inc2/pool4/3x3_s2_0_split_1
I0907 21:53:31.539952 100997 net.cpp:433] inc2/pool4/3x3_s2_inc2/pool4/3x3_s2_0_split -> inc2/pool4/3x3_s2_inc2/pool4/3x3_s2_0_split_2
I0907 21:53:31.539958 100997 net.cpp:433] inc2/pool4/3x3_s2_inc2/pool4/3x3_s2_0_split -> inc2/pool4/3x3_s2_inc2/pool4/3x3_s2_0_split_3
I0907 21:53:31.539964 100997 net.cpp:155] Setting up inc2/pool4/3x3_s2_inc2/pool4/3x3_s2_0_split
I0907 21:53:31.539968 100997 net.cpp:163] Top shape: 16 832 7 7 (652288)
I0907 21:53:31.539971 100997 net.cpp:163] Top shape: 16 832 7 7 (652288)
I0907 21:53:31.539975 100997 net.cpp:163] Top shape: 16 832 7 7 (652288)
I0907 21:53:31.539978 100997 net.cpp:163] Top shape: 16 832 7 7 (652288)
I0907 21:53:31.539983 100997 layer_factory.hpp:76] Creating layer inc2/inception_5a/1x1
I0907 21:53:31.539990 100997 net.cpp:110] Creating Layer inc2/inception_5a/1x1
I0907 21:53:31.539994 100997 net.cpp:477] inc2/inception_5a/1x1 <- inc2/pool4/3x3_s2_inc2/pool4/3x3_s2_0_split_0
I0907 21:53:31.539999 100997 net.cpp:433] inc2/inception_5a/1x1 -> inc2/inception_5a/1x1
I0907 21:53:31.547260 100997 net.cpp:155] Setting up inc2/inception_5a/1x1
I0907 21:53:31.547286 100997 net.cpp:163] Top shape: 16 256 7 7 (200704)
I0907 21:53:31.547293 100997 layer_factory.hpp:76] Creating layer inc2/inception_5a/relu_1x1
I0907 21:53:31.547302 100997 net.cpp:110] Creating Layer inc2/inception_5a/relu_1x1
I0907 21:53:31.547307 100997 net.cpp:477] inc2/inception_5a/relu_1x1 <- inc2/inception_5a/1x1
I0907 21:53:31.547312 100997 net.cpp:419] inc2/inception_5a/relu_1x1 -> inc2/inception_5a/1x1 (in-place)
I0907 21:53:31.547318 100997 net.cpp:155] Setting up inc2/inception_5a/relu_1x1
I0907 21:53:31.547322 100997 net.cpp:163] Top shape: 16 256 7 7 (200704)
I0907 21:53:31.547325 100997 layer_factory.hpp:76] Creating layer inc2/inception_5a/3x3_reduce
I0907 21:53:31.547336 100997 net.cpp:110] Creating Layer inc2/inception_5a/3x3_reduce
I0907 21:53:31.547339 100997 net.cpp:477] inc2/inception_5a/3x3_reduce <- inc2/pool4/3x3_s2_inc2/pool4/3x3_s2_0_split_1
I0907 21:53:31.547345 100997 net.cpp:433] inc2/inception_5a/3x3_reduce -> inc2/inception_5a/3x3_reduce
I0907 21:53:31.552106 100997 net.cpp:155] Setting up inc2/inception_5a/3x3_reduce
I0907 21:53:31.552132 100997 net.cpp:163] Top shape: 16 160 7 7 (125440)
I0907 21:53:31.552139 100997 layer_factory.hpp:76] Creating layer inc2/inception_5a/relu_3x3_reduce
I0907 21:53:31.552146 100997 net.cpp:110] Creating Layer inc2/inception_5a/relu_3x3_reduce
I0907 21:53:31.552150 100997 net.cpp:477] inc2/inception_5a/relu_3x3_reduce <- inc2/inception_5a/3x3_reduce
I0907 21:53:31.552155 100997 net.cpp:419] inc2/inception_5a/relu_3x3_reduce -> inc2/inception_5a/3x3_reduce (in-place)
I0907 21:53:31.552162 100997 net.cpp:155] Setting up inc2/inception_5a/relu_3x3_reduce
I0907 21:53:31.552166 100997 net.cpp:163] Top shape: 16 160 7 7 (125440)
I0907 21:53:31.552170 100997 layer_factory.hpp:76] Creating layer inc2/inception_5a/3x3
I0907 21:53:31.552184 100997 net.cpp:110] Creating Layer inc2/inception_5a/3x3
I0907 21:53:31.552187 100997 net.cpp:477] inc2/inception_5a/3x3 <- inc2/inception_5a/3x3_reduce
I0907 21:53:31.552204 100997 net.cpp:433] inc2/inception_5a/3x3 -> inc2/inception_5a/3x3
I0907 21:53:31.567554 100997 net.cpp:155] Setting up inc2/inception_5a/3x3
I0907 21:53:31.567581 100997 net.cpp:163] Top shape: 16 320 7 7 (250880)
I0907 21:53:31.567589 100997 layer_factory.hpp:76] Creating layer inc2/inception_5a/relu_3x3
I0907 21:53:31.567595 100997 net.cpp:110] Creating Layer inc2/inception_5a/relu_3x3
I0907 21:53:31.567600 100997 net.cpp:477] inc2/inception_5a/relu_3x3 <- inc2/inception_5a/3x3
I0907 21:53:31.567605 100997 net.cpp:419] inc2/inception_5a/relu_3x3 -> inc2/inception_5a/3x3 (in-place)
I0907 21:53:31.567612 100997 net.cpp:155] Setting up inc2/inception_5a/relu_3x3
I0907 21:53:31.567616 100997 net.cpp:163] Top shape: 16 320 7 7 (250880)
I0907 21:53:31.567620 100997 layer_factory.hpp:76] Creating layer inc2/inception_5a/5x5_reduce
I0907 21:53:31.567627 100997 net.cpp:110] Creating Layer inc2/inception_5a/5x5_reduce
I0907 21:53:31.567631 100997 net.cpp:477] inc2/inception_5a/5x5_reduce <- inc2/pool4/3x3_s2_inc2/pool4/3x3_s2_0_split_2
I0907 21:53:31.567638 100997 net.cpp:433] inc2/inception_5a/5x5_reduce -> inc2/inception_5a/5x5_reduce
I0907 21:53:31.568563 100997 net.cpp:155] Setting up inc2/inception_5a/5x5_reduce
I0907 21:53:31.568573 100997 net.cpp:163] Top shape: 16 32 7 7 (25088)
I0907 21:53:31.568591 100997 layer_factory.hpp:76] Creating layer inc2/inception_5a/relu_5x5_reduce
I0907 21:53:31.568598 100997 net.cpp:110] Creating Layer inc2/inception_5a/relu_5x5_reduce
I0907 21:53:31.568601 100997 net.cpp:477] inc2/inception_5a/relu_5x5_reduce <- inc2/inception_5a/5x5_reduce
I0907 21:53:31.568606 100997 net.cpp:419] inc2/inception_5a/relu_5x5_reduce -> inc2/inception_5a/5x5_reduce (in-place)
I0907 21:53:31.568613 100997 net.cpp:155] Setting up inc2/inception_5a/relu_5x5_reduce
I0907 21:53:31.568616 100997 net.cpp:163] Top shape: 16 32 7 7 (25088)
I0907 21:53:31.568619 100997 layer_factory.hpp:76] Creating layer inc2/inception_5a/5x5
I0907 21:53:31.568627 100997 net.cpp:110] Creating Layer inc2/inception_5a/5x5
I0907 21:53:31.568629 100997 net.cpp:477] inc2/inception_5a/5x5 <- inc2/inception_5a/5x5_reduce
I0907 21:53:31.568637 100997 net.cpp:433] inc2/inception_5a/5x5 -> inc2/inception_5a/5x5
I0907 21:53:31.571926 100997 net.cpp:155] Setting up inc2/inception_5a/5x5
I0907 21:53:31.571936 100997 net.cpp:163] Top shape: 16 128 7 7 (100352)
I0907 21:53:31.571954 100997 layer_factory.hpp:76] Creating layer inc2/inception_5a/relu_5x5
I0907 21:53:31.571959 100997 net.cpp:110] Creating Layer inc2/inception_5a/relu_5x5
I0907 21:53:31.571964 100997 net.cpp:477] inc2/inception_5a/relu_5x5 <- inc2/inception_5a/5x5
I0907 21:53:31.571969 100997 net.cpp:419] inc2/inception_5a/relu_5x5 -> inc2/inception_5a/5x5 (in-place)
I0907 21:53:31.571974 100997 net.cpp:155] Setting up inc2/inception_5a/relu_5x5
I0907 21:53:31.571979 100997 net.cpp:163] Top shape: 16 128 7 7 (100352)
I0907 21:53:31.571981 100997 layer_factory.hpp:76] Creating layer inc2/inception_5a/pool
I0907 21:53:31.571986 100997 net.cpp:110] Creating Layer inc2/inception_5a/pool
I0907 21:53:31.571990 100997 net.cpp:477] inc2/inception_5a/pool <- inc2/pool4/3x3_s2_inc2/pool4/3x3_s2_0_split_3
I0907 21:53:31.571995 100997 net.cpp:433] inc2/inception_5a/pool -> inc2/inception_5a/pool
I0907 21:53:31.572003 100997 net.cpp:155] Setting up inc2/inception_5a/pool
I0907 21:53:31.572007 100997 net.cpp:163] Top shape: 16 832 7 7 (652288)
I0907 21:53:31.572010 100997 layer_factory.hpp:76] Creating layer inc2/inception_5a/pool_proj
I0907 21:53:31.572020 100997 net.cpp:110] Creating Layer inc2/inception_5a/pool_proj
I0907 21:53:31.572023 100997 net.cpp:477] inc2/inception_5a/pool_proj <- inc2/inception_5a/pool
I0907 21:53:31.572029 100997 net.cpp:433] inc2/inception_5a/pool_proj -> inc2/inception_5a/pool_proj
I0907 21:53:31.575966 100997 net.cpp:155] Setting up inc2/inception_5a/pool_proj
I0907 21:53:31.575990 100997 net.cpp:163] Top shape: 16 128 7 7 (100352)
I0907 21:53:31.575999 100997 layer_factory.hpp:76] Creating layer inc2/inception_5a/relu_pool_proj
I0907 21:53:31.576016 100997 net.cpp:110] Creating Layer inc2/inception_5a/relu_pool_proj
I0907 21:53:31.576021 100997 net.cpp:477] inc2/inception_5a/relu_pool_proj <- inc2/inception_5a/pool_proj
I0907 21:53:31.576026 100997 net.cpp:419] inc2/inception_5a/relu_pool_proj -> inc2/inception_5a/pool_proj (in-place)
I0907 21:53:31.576033 100997 net.cpp:155] Setting up inc2/inception_5a/relu_pool_proj
I0907 21:53:31.576037 100997 net.cpp:163] Top shape: 16 128 7 7 (100352)
I0907 21:53:31.576041 100997 layer_factory.hpp:76] Creating layer inc2/inception_5a/output
I0907 21:53:31.576046 100997 net.cpp:110] Creating Layer inc2/inception_5a/output
I0907 21:53:31.576050 100997 net.cpp:477] inc2/inception_5a/output <- inc2/inception_5a/1x1
I0907 21:53:31.576055 100997 net.cpp:477] inc2/inception_5a/output <- inc2/inception_5a/3x3
I0907 21:53:31.576058 100997 net.cpp:477] inc2/inception_5a/output <- inc2/inception_5a/5x5
I0907 21:53:31.576062 100997 net.cpp:477] inc2/inception_5a/output <- inc2/inception_5a/pool_proj
I0907 21:53:31.576067 100997 net.cpp:433] inc2/inception_5a/output -> inc2/inception_5a/output
I0907 21:53:31.576074 100997 net.cpp:155] Setting up inc2/inception_5a/output
I0907 21:53:31.576078 100997 net.cpp:163] Top shape: 16 832 7 7 (652288)
I0907 21:53:31.576082 100997 layer_factory.hpp:76] Creating layer inc2/inception_5a/output_inc2/inception_5a/output_0_split
I0907 21:53:31.576091 100997 net.cpp:110] Creating Layer inc2/inception_5a/output_inc2/inception_5a/output_0_split
I0907 21:53:31.576094 100997 net.cpp:477] inc2/inception_5a/output_inc2/inception_5a/output_0_split <- inc2/inception_5a/output
I0907 21:53:31.576099 100997 net.cpp:433] inc2/inception_5a/output_inc2/inception_5a/output_0_split -> inc2/inception_5a/output_inc2/inception_5a/output_0_split_0
I0907 21:53:31.576105 100997 net.cpp:433] inc2/inception_5a/output_inc2/inception_5a/output_0_split -> inc2/inception_5a/output_inc2/inception_5a/output_0_split_1
I0907 21:53:31.576112 100997 net.cpp:433] inc2/inception_5a/output_inc2/inception_5a/output_0_split -> inc2/inception_5a/output_inc2/inception_5a/output_0_split_2
I0907 21:53:31.576118 100997 net.cpp:433] inc2/inception_5a/output_inc2/inception_5a/output_0_split -> inc2/inception_5a/output_inc2/inception_5a/output_0_split_3
I0907 21:53:31.576124 100997 net.cpp:155] Setting up inc2/inception_5a/output_inc2/inception_5a/output_0_split
I0907 21:53:31.576128 100997 net.cpp:163] Top shape: 16 832 7 7 (652288)
I0907 21:53:31.576133 100997 net.cpp:163] Top shape: 16 832 7 7 (652288)
I0907 21:53:31.576135 100997 net.cpp:163] Top shape: 16 832 7 7 (652288)
I0907 21:53:31.576139 100997 net.cpp:163] Top shape: 16 832 7 7 (652288)
I0907 21:53:31.576143 100997 layer_factory.hpp:76] Creating layer inc2/inception_5b/1x1
I0907 21:53:31.576149 100997 net.cpp:110] Creating Layer inc2/inception_5b/1x1
I0907 21:53:31.576153 100997 net.cpp:477] inc2/inception_5b/1x1 <- inc2/inception_5a/output_inc2/inception_5a/output_0_split_0
I0907 21:53:31.576159 100997 net.cpp:433] inc2/inception_5b/1x1 -> inc2/inception_5b/1x1
I0907 21:53:31.586851 100997 net.cpp:155] Setting up inc2/inception_5b/1x1
I0907 21:53:31.586865 100997 net.cpp:163] Top shape: 16 384 7 7 (301056)
I0907 21:53:31.586884 100997 layer_factory.hpp:76] Creating layer inc2/inception_5b/relu_1x1
I0907 21:53:31.586890 100997 net.cpp:110] Creating Layer inc2/inception_5b/relu_1x1
I0907 21:53:31.586895 100997 net.cpp:477] inc2/inception_5b/relu_1x1 <- inc2/inception_5b/1x1
I0907 21:53:31.586902 100997 net.cpp:419] inc2/inception_5b/relu_1x1 -> inc2/inception_5b/1x1 (in-place)
I0907 21:53:31.586910 100997 net.cpp:155] Setting up inc2/inception_5b/relu_1x1
I0907 21:53:31.586913 100997 net.cpp:163] Top shape: 16 384 7 7 (301056)
I0907 21:53:31.586917 100997 layer_factory.hpp:76] Creating layer inc2/inception_5b/3x3_reduce
I0907 21:53:31.586925 100997 net.cpp:110] Creating Layer inc2/inception_5b/3x3_reduce
I0907 21:53:31.586928 100997 net.cpp:477] inc2/inception_5b/3x3_reduce <- inc2/inception_5a/output_inc2/inception_5a/output_0_split_1
I0907 21:53:31.586946 100997 net.cpp:433] inc2/inception_5b/3x3_reduce -> inc2/inception_5b/3x3_reduce
I0907 21:53:31.592612 100997 net.cpp:155] Setting up inc2/inception_5b/3x3_reduce
I0907 21:53:31.592638 100997 net.cpp:163] Top shape: 16 192 7 7 (150528)
I0907 21:53:31.592645 100997 layer_factory.hpp:76] Creating layer inc2/inception_5b/relu_3x3_reduce
I0907 21:53:31.592651 100997 net.cpp:110] Creating Layer inc2/inception_5b/relu_3x3_reduce
I0907 21:53:31.592656 100997 net.cpp:477] inc2/inception_5b/relu_3x3_reduce <- inc2/inception_5b/3x3_reduce
I0907 21:53:31.592661 100997 net.cpp:419] inc2/inception_5b/relu_3x3_reduce -> inc2/inception_5b/3x3_reduce (in-place)
I0907 21:53:31.592667 100997 net.cpp:155] Setting up inc2/inception_5b/relu_3x3_reduce
I0907 21:53:31.592672 100997 net.cpp:163] Top shape: 16 192 7 7 (150528)
I0907 21:53:31.592675 100997 layer_factory.hpp:76] Creating layer inc2/inception_5b/3x3
I0907 21:53:31.592692 100997 net.cpp:110] Creating Layer inc2/inception_5b/3x3
I0907 21:53:31.592696 100997 net.cpp:477] inc2/inception_5b/3x3 <- inc2/inception_5b/3x3_reduce
I0907 21:53:31.592701 100997 net.cpp:433] inc2/inception_5b/3x3 -> inc2/inception_5b/3x3
I0907 21:53:31.614667 100997 net.cpp:155] Setting up inc2/inception_5b/3x3
I0907 21:53:31.614681 100997 net.cpp:163] Top shape: 16 384 7 7 (301056)
I0907 21:53:31.614701 100997 layer_factory.hpp:76] Creating layer inc2/inception_5b/relu_3x3
I0907 21:53:31.614709 100997 net.cpp:110] Creating Layer inc2/inception_5b/relu_3x3
I0907 21:53:31.614713 100997 net.cpp:477] inc2/inception_5b/relu_3x3 <- inc2/inception_5b/3x3
I0907 21:53:31.614718 100997 net.cpp:419] inc2/inception_5b/relu_3x3 -> inc2/inception_5b/3x3 (in-place)
I0907 21:53:31.614725 100997 net.cpp:155] Setting up inc2/inception_5b/relu_3x3
I0907 21:53:31.614729 100997 net.cpp:163] Top shape: 16 384 7 7 (301056)
I0907 21:53:31.614732 100997 layer_factory.hpp:76] Creating layer inc2/inception_5b/5x5_reduce
I0907 21:53:31.614743 100997 net.cpp:110] Creating Layer inc2/inception_5b/5x5_reduce
I0907 21:53:31.614747 100997 net.cpp:477] inc2/inception_5b/5x5_reduce <- inc2/inception_5a/output_inc2/inception_5a/output_0_split_2
I0907 21:53:31.614753 100997 net.cpp:433] inc2/inception_5b/5x5_reduce -> inc2/inception_5b/5x5_reduce
I0907 21:53:31.616103 100997 net.cpp:155] Setting up inc2/inception_5b/5x5_reduce
I0907 21:53:31.616113 100997 net.cpp:163] Top shape: 16 48 7 7 (37632)
I0907 21:53:31.616132 100997 layer_factory.hpp:76] Creating layer inc2/inception_5b/relu_5x5_reduce
I0907 21:53:31.616137 100997 net.cpp:110] Creating Layer inc2/inception_5b/relu_5x5_reduce
I0907 21:53:31.616142 100997 net.cpp:477] inc2/inception_5b/relu_5x5_reduce <- inc2/inception_5b/5x5_reduce
I0907 21:53:31.616147 100997 net.cpp:419] inc2/inception_5b/relu_5x5_reduce -> inc2/inception_5b/5x5_reduce (in-place)
I0907 21:53:31.616153 100997 net.cpp:155] Setting up inc2/inception_5b/relu_5x5_reduce
I0907 21:53:31.616156 100997 net.cpp:163] Top shape: 16 48 7 7 (37632)
I0907 21:53:31.616159 100997 layer_factory.hpp:76] Creating layer inc2/inception_5b/5x5
I0907 21:53:31.616166 100997 net.cpp:110] Creating Layer inc2/inception_5b/5x5
I0907 21:53:31.616169 100997 net.cpp:477] inc2/inception_5b/5x5 <- inc2/inception_5b/5x5_reduce
I0907 21:53:31.616174 100997 net.cpp:433] inc2/inception_5b/5x5 -> inc2/inception_5b/5x5
I0907 21:53:31.621078 100997 net.cpp:155] Setting up inc2/inception_5b/5x5
I0907 21:53:31.621088 100997 net.cpp:163] Top shape: 16 128 7 7 (100352)
I0907 21:53:31.621104 100997 layer_factory.hpp:76] Creating layer inc2/inception_5b/relu_5x5
I0907 21:53:31.621110 100997 net.cpp:110] Creating Layer inc2/inception_5b/relu_5x5
I0907 21:53:31.621114 100997 net.cpp:477] inc2/inception_5b/relu_5x5 <- inc2/inception_5b/5x5
I0907 21:53:31.621119 100997 net.cpp:419] inc2/inception_5b/relu_5x5 -> inc2/inception_5b/5x5 (in-place)
I0907 21:53:31.621124 100997 net.cpp:155] Setting up inc2/inception_5b/relu_5x5
I0907 21:53:31.621129 100997 net.cpp:163] Top shape: 16 128 7 7 (100352)
I0907 21:53:31.621132 100997 layer_factory.hpp:76] Creating layer inc2/inception_5b/pool
I0907 21:53:31.621155 100997 net.cpp:110] Creating Layer inc2/inception_5b/pool
I0907 21:53:31.621160 100997 net.cpp:477] inc2/inception_5b/pool <- inc2/inception_5a/output_inc2/inception_5a/output_0_split_3
I0907 21:53:31.621165 100997 net.cpp:433] inc2/inception_5b/pool -> inc2/inception_5b/pool
I0907 21:53:31.621173 100997 net.cpp:155] Setting up inc2/inception_5b/pool
I0907 21:53:31.621178 100997 net.cpp:163] Top shape: 16 832 7 7 (652288)
I0907 21:53:31.621181 100997 layer_factory.hpp:76] Creating layer inc2/inception_5b/pool_proj
I0907 21:53:31.621191 100997 net.cpp:110] Creating Layer inc2/inception_5b/pool_proj
I0907 21:53:31.621194 100997 net.cpp:477] inc2/inception_5b/pool_proj <- inc2/inception_5b/pool
I0907 21:53:31.621199 100997 net.cpp:433] inc2/inception_5b/pool_proj -> inc2/inception_5b/pool_proj
I0907 21:53:31.625118 100997 net.cpp:155] Setting up inc2/inception_5b/pool_proj
I0907 21:53:31.625144 100997 net.cpp:163] Top shape: 16 128 7 7 (100352)
I0907 21:53:31.625151 100997 layer_factory.hpp:76] Creating layer inc2/inception_5b/relu_pool_proj
I0907 21:53:31.625157 100997 net.cpp:110] Creating Layer inc2/inception_5b/relu_pool_proj
I0907 21:53:31.625161 100997 net.cpp:477] inc2/inception_5b/relu_pool_proj <- inc2/inception_5b/pool_proj
I0907 21:53:31.625167 100997 net.cpp:419] inc2/inception_5b/relu_pool_proj -> inc2/inception_5b/pool_proj (in-place)
I0907 21:53:31.625174 100997 net.cpp:155] Setting up inc2/inception_5b/relu_pool_proj
I0907 21:53:31.625177 100997 net.cpp:163] Top shape: 16 128 7 7 (100352)
I0907 21:53:31.625180 100997 layer_factory.hpp:76] Creating layer inc2/inception_5b/output
I0907 21:53:31.625191 100997 net.cpp:110] Creating Layer inc2/inception_5b/output
I0907 21:53:31.625195 100997 net.cpp:477] inc2/inception_5b/output <- inc2/inception_5b/1x1
I0907 21:53:31.625200 100997 net.cpp:477] inc2/inception_5b/output <- inc2/inception_5b/3x3
I0907 21:53:31.625203 100997 net.cpp:477] inc2/inception_5b/output <- inc2/inception_5b/5x5
I0907 21:53:31.625207 100997 net.cpp:477] inc2/inception_5b/output <- inc2/inception_5b/pool_proj
I0907 21:53:31.625212 100997 net.cpp:433] inc2/inception_5b/output -> inc2/inception_5b/output
I0907 21:53:31.625219 100997 net.cpp:155] Setting up inc2/inception_5b/output
I0907 21:53:31.625223 100997 net.cpp:163] Top shape: 16 1024 7 7 (802816)
I0907 21:53:31.625226 100997 layer_factory.hpp:76] Creating layer inc2/pool5/7x7_s1
I0907 21:53:31.625232 100997 net.cpp:110] Creating Layer inc2/pool5/7x7_s1
I0907 21:53:31.625236 100997 net.cpp:477] inc2/pool5/7x7_s1 <- inc2/inception_5b/output
I0907 21:53:31.625243 100997 net.cpp:433] inc2/pool5/7x7_s1 -> inc2/pool5/7x7_s1
I0907 21:53:31.625250 100997 net.cpp:155] Setting up inc2/pool5/7x7_s1
I0907 21:53:31.625254 100997 net.cpp:163] Top shape: 16 1024 1 1 (16384)
I0907 21:53:31.625257 100997 layer_factory.hpp:76] Creating layer final/concat
I0907 21:53:31.625263 100997 net.cpp:110] Creating Layer final/concat
I0907 21:53:31.625267 100997 net.cpp:477] final/concat <- inc1/pool5/7x7_s1
I0907 21:53:31.625272 100997 net.cpp:477] final/concat <- inc2/pool5/7x7_s1
I0907 21:53:31.625277 100997 net.cpp:433] final/concat -> final/concat/output
I0907 21:53:31.625283 100997 net.cpp:155] Setting up final/concat
I0907 21:53:31.625288 100997 net.cpp:163] Top shape: 16 2048 1 1 (32768)
I0907 21:53:31.625290 100997 layer_factory.hpp:76] Creating layer final/res
I0907 21:53:31.625298 100997 net.cpp:110] Creating Layer final/res
I0907 21:53:31.625301 100997 net.cpp:477] final/res <- final/concat/output
I0907 21:53:31.625306 100997 net.cpp:433] final/res -> final/res
I0907 21:53:31.638957 100997 net.cpp:155] Setting up final/res
I0907 21:53:31.638970 100997 net.cpp:163] Top shape: 16 200 (3200)
I0907 21:53:31.638989 100997 layer_factory.hpp:76] Creating layer final/res_final/res_0_split
I0907 21:53:31.638996 100997 net.cpp:110] Creating Layer final/res_final/res_0_split
I0907 21:53:31.639000 100997 net.cpp:477] final/res_final/res_0_split <- final/res
I0907 21:53:31.639006 100997 net.cpp:433] final/res_final/res_0_split -> final/res_final/res_0_split_0
I0907 21:53:31.639026 100997 net.cpp:433] final/res_final/res_0_split -> final/res_final/res_0_split_1
I0907 21:53:31.639034 100997 net.cpp:433] final/res_final/res_0_split -> final/res_final/res_0_split_2
I0907 21:53:31.639041 100997 net.cpp:155] Setting up final/res_final/res_0_split
I0907 21:53:31.639045 100997 net.cpp:163] Top shape: 16 200 (3200)
I0907 21:53:31.639050 100997 net.cpp:163] Top shape: 16 200 (3200)
I0907 21:53:31.639053 100997 net.cpp:163] Top shape: 16 200 (3200)
I0907 21:53:31.639056 100997 layer_factory.hpp:76] Creating layer accuracy
I0907 21:53:31.639066 100997 net.cpp:110] Creating Layer accuracy
I0907 21:53:31.639070 100997 net.cpp:477] accuracy <- final/res_final/res_0_split_0
I0907 21:53:31.639075 100997 net.cpp:477] accuracy <- label_data_1_split_0
I0907 21:53:31.639080 100997 net.cpp:433] accuracy -> accuracy/top1
I0907 21:53:31.639088 100997 net.cpp:155] Setting up accuracy
…
