…
I0902 17:38:06.693214 54235 net.cpp:339] The NetState phase (0) differed from the phase (1) specified by a rule in layer loss3/top-5
I0902 17:38:06.695499 54235 net.cpp:50] Initializing net from parameters: 
name: "CUBNet"
state {
  phase: TRAIN
}
layer {
  name: "data"
  type: "ImageData"
  top: "data"
  top: "label"
  include {
    phase: TRAIN
  }
  transform_param {
    mirror: true
    crop_size: 224
    mean_value: 104
    mean_value: 117
    mean_value: 123
  }
  image_data_param {
    source: "data/CUB_200_2011/train_files.txt"
    batch_size: 32
    shuffle: true
    new_height: 256
    new_width: 256
  }
}
layer {
  name: "conv1/7x7_s2"
  type: "Convolution"
  bottom: "data"
  top: "conv1/7x7_s2"
  param {
    lr_mult: 1
    decay_mult: 1
  }
  param {
    lr_mult: 2
    decay_mult: 0
  }
  convolution_param {
    num_output: 64
    pad: 3
    kernel_size: 7
    stride: 2
    weight_filler {
      type: "xavier"
      std: 0.1
    }
    bias_filler {
      type: "constant"
      value: 0.2
    }
  }
}
layer {
  name: "conv1/relu_7x7"
  type: "ReLU"
  bottom: "conv1/7x7_s2"
  top: "conv1/7x7_s2"
}
layer {
  name: "pool1/3x3_s2"
  type: "Pooling"
  bottom: "conv1/7x7_s2"
  top: "pool1/3x3_s2"
  pooling_param {
    pool: MAX
    kernel_size: 3
    stride: 2
  }
}
layer {
  name: "pool1/norm1"
  type: "LRN"
  bottom: "pool1/3x3_s2"
  top: "pool1/norm1"
  lrn_param {
    local_size: 5
    alpha: 0.0001
    beta: 0.75
  }
}
layer {
  name: "conv2/3x3_reduce"
  type: "Convolution"
  bottom: "pool1/norm1"
  top: "conv2/3x3_reduce"
  param {
    lr_mult: 1
    decay_mult: 1
  }
  param {
    lr_mult: 2
    decay_mult: 0
  }
  convolution_param {
    num_output: 64
    kernel_size: 1
    weight_filler {
      type: "xavier"
      std: 0.1
    }
    bias_filler {
      type: "constant"
      value: 0.2
    }
  }
}
layer {
  name: "conv2/relu_3x3_reduce"
  type: "ReLU"
  bottom: "conv2/3x3_reduce"
  top: "conv2/3x3_reduce"
}
layer {
  name: "conv2/3x3"
  type: "Convolution"
  bottom: "conv2/3x3_reduce"
  top: "conv2/3x3"
  param {
    lr_mult: 1
    decay_mult: 1
  }
  param {
    lr_mult: 2
    decay_mult: 0
  }
  convolution_param {
    num_output: 192
    pad: 1
    kernel_size: 3
    weight_filler {
      type: "xavier"
      std: 0.03
    }
    bias_filler {
      type: "constant"
      value: 0.2
    }
  }
}
layer {
  name: "conv2/relu_3x3"
  type: "ReLU"
  bottom: "conv2/3x3"
  top: "conv2/3x3"
}
layer {
  name: "conv2/norm2"
  type: "LRN"
  bottom: "conv2/3x3"
  top: "conv2/norm2"
  lrn_param {
    local_size: 5
    alpha: 0.0001
    beta: 0.75
  }
}
layer {
  name: "pool2/3x3_s2"
  type: "Pooling"
  bottom: "conv2/norm2"
  top: "pool2/3x3_s2"
  pooling_param {
    pool: MAX
    kernel_size: 3
    stride: 2
  }
}
layer {
  name: "inception_3a/1x1"
  type: "Convolution"
  bottom: "pool2/3x3_s2"
  top: "inception_3a/1x1"
  param {
    lr_mult: 1
    decay_mult: 1
  }
  param {
    lr_mult: 2
    decay_mult: 0
  }
  convolution_param {
    num_output: 64
    kernel_size: 1
    weight_filler {
      type: "xavier"
      std: 0.03
    }
    bias_filler {
      type: "constant"
      value: 0.2
    }
  }
}
layer {
  name: "inception_3a/relu_1x1"
  type: "ReLU"
  bottom: "inception_3a/1x1"
  top: "inception_3a/1x1"
}
layer {
  name: "inception_3a/3x3_reduce"
  type: "Convolution"
  bottom: "pool2/3x3_s2"
  top: "inception_3a/3x3_reduce"
  param {
    lr_mult: 1
    decay_mult: 1
  }
  param {
    lr_mult: 2
    decay_mult: 0
  }
  convolution_param {
    num_output: 96
    kernel_size: 1
    weight_filler {
      type: "xavier"
      std: 0.09
    }
    bias_filler {
      type: "constant"
      value: 0.2
    }
  }
}
layer {
  name: "inception_3a/relu_3x3_reduce"
  type: "ReLU"
  bottom: "inception_3a/3x3_reduce"
  top: "inception_3a/3x3_reduce"
}
layer {
  name: "inception_3a/3x3"
  type: "Convolution"
  bottom: "inception_3a/3x3_reduce"
  top: "inception_3a/3x3"
  param {
    lr_mult: 1
    decay_mult: 1
  }
  param {
    lr_mult: 2
    decay_mult: 0
  }
  convolution_param {
    num_output: 128
    pad: 1
    kernel_size: 3
    weight_filler {
      type: "xavier"
      std: 0.03
    }
    bias_filler {
      type: "constant"
      value: 0.2
    }
  }
}
layer {
  name: "inception_3a/relu_3x3"
  type: "ReLU"
  bottom: "inception_3a/3x3"
  top: "inception_3a/3x3"
}
layer {
  name: "inception_3a/5x5_reduce"
  type: "Convolution"
  bottom: "pool2/3x3_s2"
  top: "inception_3a/5x5_reduce"
  param {
    lr_mult: 1
    decay_mult: 1
  }
  param {
    lr_mult: 2
    decay_mult: 0
  }
  convolution_param {
    num_output: 16
    kernel_size: 1
    weight_filler {
      type: "xavier"
      std: 0.2
    }
    bias_filler {
      type: "constant"
      value: 0.2
    }
  }
}
layer {
  name: "inception_3a/relu_5x5_reduce"
  type: "ReLU"
  bottom: "inception_3a/5x5_reduce"
  top: "inception_3a/5x5_reduce"
}
layer {
  name: "inception_3a/5x5"
  type: "Convolution"
  bottom: "inception_3a/5x5_reduce"
  top: "inception_3a/5x5"
  param {
    lr_mult: 1
    decay_mult: 1
  }
  param {
    lr_mult: 2
    decay_mult: 0
  }
  convolution_param {
    num_output: 32
    pad: 2
    kernel_size: 5
    weight_filler {
      type: "xavier"
      std: 0.03
    }
    bias_filler {
      type: "constant"
      value: 0.2
    }
  }
}
layer {
  name: "inception_3a/relu_5x5"
  type: "ReLU"
  bottom: "inception_3a/5x5"
  top: "inception_3a/5x5"
}
layer {
  name: "inception_3a/pool"
  type: "Pooling"
  bottom: "pool2/3x3_s2"
  top: "inception_3a/pool"
  pooling_param {
    pool: MAX
    kernel_size: 3
    stride: 1
    pad: 1
  }
}
layer {
  name: "inception_3a/pool_proj"
  type: "Convolution"
  bottom: "inception_3a/pool"
  top: "inception_3a/pool_proj"
  param {
    lr_mult: 1
    decay_mult: 1
  }
  param {
    lr_mult: 2
    decay_mult: 0
  }
  convolution_param {
    num_output: 32
    kernel_size: 1
    weight_filler {
      type: "xavier"
      std: 0.1
    }
    bias_filler {
      type: "constant"
      value: 0.2
    }
  }
}
layer {
  name: "inception_3a/relu_pool_proj"
  type: "ReLU"
  bottom: "inception_3a/pool_proj"
  top: "inception_3a/pool_proj"
}
layer {
  name: "inception_3a/output"
  type: "Concat"
  bottom: "inception_3a/1x1"
  bottom: "inception_3a/3x3"
  bottom: "inception_3a/5x5"
  bottom: "inception_3a/pool_proj"
  top: "inception_3a/output"
}
layer {
  name: "inception_3b/1x1"
  type: "Convolution"
  bottom: "inception_3a/output"
  top: "inception_3b/1x1"
  param {
    lr_mult: 1
    decay_mult: 1
  }
  param {
    lr_mult: 2
    decay_mult: 0
  }
  convolution_param {
    num_output: 128
    kernel_size: 1
    weight_filler {
      type: "xavier"
      std: 0.03
    }
    bias_filler {
      type: "constant"
      value: 0.2
    }
  }
}
layer {
  name: "inception_3b/relu_1x1"
  type: "ReLU"
  bottom: "inception_3b/1x1"
  top: "inception_3b/1x1"
}
layer {
  name: "inception_3b/3x3_reduce"
  type: "Convolution"
  bottom: "inception_3a/output"
  top: "inception_3b/3x3_reduce"
  param {
    lr_mult: 1
    decay_mult: 1
  }
  param {
    lr_mult: 2
    decay_mult: 0
  }
  convolution_param {
    num_output: 128
    kernel_size: 1
    weight_filler {
      type: "xavier"
      std: 0.09
    }
    bias_filler {
      type: "constant"
      value: 0.2
    }
  }
}
layer {
  name: "inception_3b/relu_3x3_reduce"
  type: "ReLU"
  bottom: "inception_3b/3x3_reduce"
  top: "inception_3b/3x3_reduce"
}
layer {
  name: "inception_3b/3x3"
  type: "Convolution"
  bottom: "inception_3b/3x3_reduce"
  top: "inception_3b/3x3"
  param {
    lr_mult: 1
    decay_mult: 1
  }
  param {
    lr_mult: 2
    decay_mult: 0
  }
  convolution_param {
    num_output: 192
    pad: 1
    kernel_size: 3
    weight_filler {
      type: "xavier"
      std: 0.03
    }
    bias_filler {
      type: "constant"
      value: 0.2
    }
  }
}
layer {
  name: "inception_3b/relu_3x3"
  type: "ReLU"
  bottom: "inception_3b/3x3"
  top: "inception_3b/3x3"
}
layer {
  name: "inception_3b/5x5_reduce"
  type: "Convolution"
  bottom: "inception_3a/output"
  top: "inception_3b/5x5_reduce"
  param {
    lr_mult: 1
    decay_mult: 1
  }
  param {
    lr_mult: 2
    decay_mult: 0
  }
  convolution_param {
    num_output: 32
    kernel_size: 1
    weight_filler {
      type: "xavier"
      std: 0.2
    }
    bias_filler {
      type: "constant"
      value: 0.2
    }
  }
}
layer {
  name: "inception_3b/relu_5x5_reduce"
  type: "ReLU"
  bottom: "inception_3b/5x5_reduce"
  top: "inception_3b/5x5_reduce"
}
layer {
  name: "inception_3b/5x5"
  type: "Convolution"
  bottom: "inception_3b/5x5_reduce"
  top: "inception_3b/5x5"
  param {
    lr_mult: 1
    decay_mult: 1
  }
  param {
    lr_mult: 2
    decay_mult: 0
  }
  convolution_param {
    num_output: 96
    pad: 2
    kernel_size: 5
    weight_filler {
      type: "xavier"
      std: 0.03
    }
    bias_filler {
      type: "constant"
      value: 0.2
    }
  }
}
layer {
  name: "inception_3b/relu_5x5"
  type: "ReLU"
  bottom: "inception_3b/5x5"
  top: "inception_3b/5x5"
}
layer {
  name: "inception_3b/pool"
  type: "Pooling"
  bottom: "inception_3a/output"
  top: "inception_3b/pool"
  pooling_param {
    pool: MAX
    kernel_size: 3
    stride: 1
    pad: 1
  }
}
layer {
  name: "inception_3b/pool_proj"
  type: "Convolution"
  bottom: "inception_3b/pool"
  top: "inception_3b/pool_proj"
  param {
    lr_mult: 1
    decay_mult: 1
  }
  param {
    lr_mult: 2
    decay_mult: 0
  }
  convolution_param {
    num_output: 64
    kernel_size: 1
    weight_filler {
      type: "xavier"
      std: 0.1
    }
    bias_filler {
      type: "constant"
      value: 0.2
    }
  }
}
layer {
  name: "inception_3b/relu_pool_proj"
  type: "ReLU"
  bottom: "inception_3b/pool_proj"
  top: "inception_3b/pool_proj"
}
layer {
  name: "inception_3b/output"
  type: "Concat"
  bottom: "inception_3b/1x1"
  bottom: "inception_3b/3x3"
  bottom: "inception_3b/5x5"
  bottom: "inception_3b/pool_proj"
  top: "inception_3b/output"
}
layer {
  name: "pool3/3x3_s2"
  type: "Pooling"
  bottom: "inception_3b/output"
  top: "pool3/3x3_s2"
  pooling_param {
    pool: MAX
    kernel_size: 3
    stride: 2
  }
}
layer {
  name: "inception_4a/1x1"
  type: "Convolution"
  bottom: "pool3/3x3_s2"
  top: "inception_4a/1x1"
  param {
    lr_mult: 1
    decay_mult: 1
  }
  param {
    lr_mult: 2
    decay_mult: 0
  }
  convolution_param {
    num_output: 192
    kernel_size: 1
    weight_filler {
      type: "xavier"
      std: 0.03
    }
    bias_filler {
      type: "constant"
      value: 0.2
    }
  }
}
layer {
  name: "inception_4a/relu_1x1"
  type: "ReLU"
  bottom: "inception_4a/1x1"
  top: "inception_4a/1x1"
}
layer {
  name: "inception_4a/3x3_reduce"
  type: "Convolution"
  bottom: "pool3/3x3_s2"
  top: "inception_4a/3x3_reduce"
  param {
    lr_mult: 1
    decay_mult: 1
  }
  param {
    lr_mult: 2
    decay_mult: 0
  }
  convolution_param {
    num_output: 96
    kernel_size: 1
    weight_filler {
      type: "xavier"
      std: 0.09
    }
    bias_filler {
      type: "constant"
      value: 0.2
    }
  }
}
layer {
  name: "inception_4a/relu_3x3_reduce"
  type: "ReLU"
  bottom: "inception_4a/3x3_reduce"
  top: "inception_4a/3x3_reduce"
}
layer {
  name: "inception_4a/3x3"
  type: "Convolution"
  bottom: "inception_4a/3x3_reduce"
  top: "inception_4a/3x3"
  param {
    lr_mult: 1
    decay_mult: 1
  }
  param {
    lr_mult: 2
    decay_mult: 0
  }
  convolution_param {
    num_output: 208
    pad: 1
    kernel_size: 3
    weight_filler {
      type: "xavier"
      std: 0.03
    }
    bias_filler {
      type: "constant"
      value: 0.2
    }
  }
}
layer {
  name: "inception_4a/relu_3x3"
  type: "ReLU"
  bottom: "inception_4a/3x3"
  top: "inception_4a/3x3"
}
layer {
  name: "inception_4a/5x5_reduce"
  type: "Convolution"
  bottom: "pool3/3x3_s2"
  top: "inception_4a/5x5_reduce"
  param {
    lr_mult: 1
    decay_mult: 1
  }
  param {
    lr_mult: 2
    decay_mult: 0
  }
  convolution_param {
    num_output: 16
    kernel_size: 1
    weight_filler {
      type: "xavier"
      std: 0.2
    }
    bias_filler {
      type: "constant"
      value: 0.2
    }
  }
}
layer {
  name: "inception_4a/relu_5x5_reduce"
  type: "ReLU"
  bottom: "inception_4a/5x5_reduce"
  top: "inception_4a/5x5_reduce"
}
layer {
  name: "inception_4a/5x5"
  type: "Convolution"
  bottom: "inception_4a/5x5_reduce"
  top: "inception_4a/5x5"
  param {
    lr_mult: 1
    decay_mult: 1
  }
  param {
    lr_mult: 2
    decay_mult: 0
  }
  convolution_param {
    num_output: 48
    pad: 2
    kernel_size: 5
    weight_filler {
      type: "xavier"
      std: 0.03
    }
    bias_filler {
      type: "constant"
      value: 0.2
    }
  }
}
layer {
  name: "inception_4a/relu_5x5"
  type: "ReLU"
  bottom: "inception_4a/5x5"
  top: "inception_4a/5x5"
}
layer {
  name: "inception_4a/pool"
  type: "Pooling"
  bottom: "pool3/3x3_s2"
  top: "inception_4a/pool"
  pooling_param {
    pool: MAX
    kernel_size: 3
    stride: 1
    pad: 1
  }
}
layer {
  name: "inception_4a/pool_proj"
  type: "Convolution"
  bottom: "inception_4a/pool"
  top: "inception_4a/pool_proj"
  param {
    lr_mult: 1
    decay_mult: 1
  }
  param {
    lr_mult: 2
    decay_mult: 0
  }
  convolution_param {
    num_output: 64
    kernel_size: 1
    weight_filler {
      type: "xavier"
      std: 0.1
    }
    bias_filler {
      type: "constant"
      value: 0.2
    }
  }
}
layer {
  name: "inception_4a/relu_pool_proj"
  type: "ReLU"
  bottom: "inception_4a/pool_proj"
  top: "inception_4a/pool_proj"
}
layer {
  name: "inception_4a/output"
  type: "Concat"
  bottom: "inception_4a/1x1"
  bottom: "inception_4a/3x3"
  bottom: "inception_4a/5x5"
  bottom: "inception_4a/pool_proj"
  top: "inception_4a/output"
}
layer {
  name: "loss1/ave_pool"
  type: "Pooling"
  bottom: "inception_4a/output"
  top: "loss1/ave_pool"
  pooling_param {
    pool: AVE
    kernel_size: 5
    stride: 3
  }
}
layer {
  name: "loss1/conv"
  type: "Convolution"
  bottom: "loss1/ave_pool"
  top: "loss1/conv"
  param {
    lr_mult: 1
    decay_mult: 1
  }
  param {
    lr_mult: 2
    decay_mult: 0
  }
  convolution_param {
    num_output: 128
    kernel_size: 1
    weight_filler {
      type: "xavier"
      std: 0.08
    }
    bias_filler {
      type: "constant"
      value: 0.2
    }
  }
}
layer {
  name: "loss1/relu_conv"
  type: "ReLU"
  bottom: "loss1/conv"
  top: "loss1/conv"
}
layer {
  name: "loss1/fc"
  type: "InnerProduct"
  bottom: "loss1/conv"
  top: "loss1/fc"
  param {
    lr_mult: 1
    decay_mult: 1
  }
  param {
    lr_mult: 2
    decay_mult: 0
  }
  inner_product_param {
    num_output: 1024
    weight_filler {
      type: "xavier"
      std: 0.02
    }
    bias_filler {
      type: "constant"
      value: 0.2
    }
  }
}
layer {
  name: "loss1/relu_fc"
  type: "ReLU"
  bottom: "loss1/fc"
  top: "loss1/fc"
}
layer {
  name: "loss1/drop_fc"
  type: "Dropout"
  bottom: "loss1/fc"
  top: "loss1/fc"
  dropout_param {
    dropout_ratio: 0.7
  }
}
layer {
  name: "loss1/classifier_cub"
  type: "InnerProduct"
  bottom: "loss1/fc"
  top: "loss1/classifier"
  param {
    lr_mult: 1
    decay_mult: 1
  }
  param {
    lr_mult: 2
    decay_mult: 0
  }
  inner_product_param {
    num_output: 200
    weight_filler {
      type: "gaussian"
      std: 1e-05
    }
    bias_filler {
      type: "constant"
      value: 0
    }
  }
}
layer {
  name: "loss1/loss"
  type: "SoftmaxWithLoss"
  bottom: "loss1/classifier"
  bottom: "label"
  top: "loss1/loss1"
  loss_weight: 0.3
}
layer {
  name: "inception_4b/1x1"
  type: "Convolution"
  bottom: "inception_4a/output"
  top: "inception_4b/1x1"
  param {
    lr_mult: 1
    decay_mult: 1
  }
  param {
    lr_mult: 2
    decay_mult: 0
  }
  convolution_param {
    num_output: 160
    kernel_size: 1
    weight_filler {
      type: "xavier"
      std: 0.03
    }
    bias_filler {
      type: "constant"
      value: 0.2
    }
  }
}
layer {
  name: "inception_4b/relu_1x1"
  type: "ReLU"
  bottom: "inception_4b/1x1"
  top: "inception_4b/1x1"
}
layer {
  name: "inception_4b/3x3_reduce"
  type: "Convolution"
  bottom: "inception_4a/output"
  top: "inception_4b/3x3_reduce"
  param {
    lr_mult: 1
    decay_mult: 1
  }
  param {
    lr_mult: 2
    decay_mult: 0
  }
  convolution_param {
    num_output: 112
    kernel_size: 1
    weight_filler {
      type: "xavier"
      std: 0.09
    }
    bias_filler {
      type: "constant"
      value: 0.2
    }
  }
}
layer {
  name: "inception_4b/relu_3x3_reduce"
  type: "ReLU"
  bottom: "inception_4b/3x3_reduce"
  top: "inception_4b/3x3_reduce"
}
layer {
  name: "inception_4b/3x3"
  type: "Convolution"
  bottom: "inception_4b/3x3_reduce"
  top: "inception_4b/3x3"
  param {
    lr_mult: 1
    decay_mult: 1
  }
  param {
    lr_mult: 2
    decay_mult: 0
  }
  convolution_param {
    num_output: 224
    pad: 1
    kernel_size: 3
    weight_filler {
      type: "xavier"
      std: 0.03
    }
    bias_filler {
      type: "constant"
      value: 0.2
    }
  }
}
layer {
  name: "inception_4b/relu_3x3"
  type: "ReLU"
  bottom: "inception_4b/3x3"
  top: "inception_4b/3x3"
}
layer {
  name: "inception_4b/5x5_reduce"
  type: "Convolution"
  bottom: "inception_4a/output"
  top: "inception_4b/5x5_reduce"
  param {
    lr_mult: 1
    decay_mult: 1
  }
  param {
    lr_mult: 2
    decay_mult: 0
  }
  convolution_param {
    num_output: 24
    kernel_size: 1
    weight_filler {
      type: "xavier"
      std: 0.2
    }
    bias_filler {
      type: "constant"
      value: 0.2
    }
  }
}
layer {
  name: "inception_4b/relu_5x5_reduce"
  type: "ReLU"
  bottom: "inception_4b/5x5_reduce"
  top: "inception_4b/5x5_reduce"
}
layer {
  name: "inception_4b/5x5"
  type: "Convolution"
  bottom: "inception_4b/5x5_reduce"
  top: "inception_4b/5x5"
  param {
    lr_mult: 1
    decay_mult: 1
  }
  param {
    lr_mult: 2
    decay_mult: 0
  }
  convolution_param {
    num_output: 64
    pad: 2
    kernel_size: 5
    weight_filler {
      type: "xavier"
      std: 0.03
    }
    bias_filler {
      type: "constant"
      value: 0.2
    }
  }
}
layer {
  name: "inception_4b/relu_5x5"
  type: "ReLU"
  bottom: "inception_4b/5x5"
  top: "inception_4b/5x5"
}
layer {
  name: "inception_4b/pool"
  type: "Pooling"
  bottom: "inception_4a/output"
  top: "inception_4b/pool"
  pooling_param {
    pool: MAX
    kernel_size: 3
    stride: 1
    pad: 1
  }
}
layer {
  name: "inception_4b/pool_proj"
  type: "Convolution"
  bottom: "inception_4b/pool"
  top: "inception_4b/pool_proj"
  param {
    lr_mult: 1
    decay_mult: 1
  }
  param {
    lr_mult: 2
    decay_mult: 0
  }
  convolution_param {
    num_output: 64
    kernel_size: 1
    weight_filler {
      type: "xavier"
      std: 0.1
    }
    bias_filler {
      type: "constant"
      value: 0.2
    }
  }
}
layer {
  name: "inception_4b/relu_pool_proj"
  type: "ReLU"
  bottom: "inception_4b/pool_proj"
  top: "inception_4b/pool_proj"
}
layer {
  name: "inception_4b/output"
  type: "Concat"
  bottom: "inception_4b/1x1"
  bottom: "inception_4b/3x3"
  bottom: "inception_4b/5x5"
  bottom: "inception_4b/pool_proj"
  top: "inception_4b/output"
}
layer {
  name: "inception_4c/1x1"
  type: "Convolution"
  bottom: "inception_4b/output"
  top: "inception_4c/1x1"
  param {
    lr_mult: 1
    decay_mult: 1
  }
  param {
    lr_mult: 2
    decay_mult: 0
  }
  convolution_param {
    num_output: 128
    kernel_size: 1
    weight_filler {
      type: "xavier"
      std: 0.03
    }
    bias_filler {
      type: "constant"
      value: 0.2
    }
  }
}
layer {
  name: "inception_4c/relu_1x1"
  type: "ReLU"
  bottom: "inception_4c/1x1"
  top: "inception_4c/1x1"
}
layer {
  name: "inception_4c/3x3_reduce"
  type: "Convolution"
  bottom: "inception_4b/output"
  top: "inception_4c/3x3_reduce"
  param {
    lr_mult: 1
    decay_mult: 1
  }
  param {
    lr_mult: 2
    decay_mult: 0
  }
  convolution_param {
    num_output: 128
    kernel_size: 1
    weight_filler {
      type: "xavier"
      std: 0.09
    }
    bias_filler {
      type: "constant"
      value: 0.2
    }
  }
}
layer {
  name: "inception_4c/relu_3x3_reduce"
  type: "ReLU"
  bottom: "inception_4c/3x3_reduce"
  top: "inception_4c/3x3_reduce"
}
layer {
  name: "inception_4c/3x3"
  type: "Convolution"
  bottom: "inception_4c/3x3_reduce"
  top: "inception_4c/3x3"
  param {
    lr_mult: 1
    decay_mult: 1
  }
  param {
    lr_mult: 2
    decay_mult: 0
  }
  convolution_param {
    num_output: 256
    pad: 1
    kernel_size: 3
    weight_filler {
      type: "xavier"
      std: 0.03
    }
    bias_filler {
      type: "constant"
      value: 0.2
    }
  }
}
layer {
  name: "inception_4c/relu_3x3"
  type: "ReLU"
  bottom: "inception_4c/3x3"
  top: "inception_4c/3x3"
}
layer {
  name: "inception_4c/5x5_reduce"
  type: "Convolution"
  bottom: "inception_4b/output"
  top: "inception_4c/5x5_reduce"
  param {
    lr_mult: 1
    decay_mult: 1
  }
  param {
    lr_mult: 2
    decay_mult: 0
  }
  convolution_param {
    num_output: 24
    kernel_size: 1
    weight_filler {
      type: "xavier"
      std: 0.2
    }
    bias_filler {
      type: "constant"
      value: 0.2
    }
  }
}
layer {
  name: "inception_4c/relu_5x5_reduce"
  type: "ReLU"
  bottom: "inception_4c/5x5_reduce"
  top: "inception_4c/5x5_reduce"
}
layer {
  name: "inception_4c/5x5"
  type: "Convolution"
  bottom: "inception_4c/5x5_reduce"
  top: "inception_4c/5x5"
  param {
    lr_mult: 1
    decay_mult: 1
  }
  param {
    lr_mult: 2
    decay_mult: 0
  }
  convolution_param {
    num_output: 64
    pad: 2
    kernel_size: 5
    weight_filler {
      type: "xavier"
      std: 0.03
    }
    bias_filler {
      type: "constant"
      value: 0.2
    }
  }
}
layer {
  name: "inception_4c/relu_5x5"
  type: "ReLU"
  bottom: "inception_4c/5x5"
  top: "inception_4c/5x5"
}
layer {
  name: "inception_4c/pool"
  type: "Pooling"
  bottom: "inception_4b/output"
  top: "inception_4c/pool"
  pooling_param {
    pool: MAX
    kernel_size: 3
    stride: 1
    pad: 1
  }
}
layer {
  name: "inception_4c/pool_proj"
  type: "Convolution"
  bottom: "inception_4c/pool"
  top: "inception_4c/pool_proj"
  param {
    lr_mult: 1
    decay_mult: 1
  }
  param {
    lr_mult: 2
    decay_mult: 0
  }
  convolution_param {
    num_output: 64
    kernel_size: 1
    weight_filler {
      type: "xavier"
      std: 0.1
    }
    bias_filler {
      type: "constant"
      value: 0.2
    }
  }
}
layer {
  name: "inception_4c/relu_pool_proj"
  type: "ReLU"
  bottom: "inception_4c/pool_proj"
  top: "inception_4c/pool_proj"
}
layer {
  name: "inception_4c/output"
  type: "Concat"
  bottom: "inception_4c/1x1"
  bottom: "inception_4c/3x3"
  bottom: "inception_4c/5x5"
  bottom: "inception_4c/pool_proj"
  top: "inception_4c/output"
}
layer {
  name: "inception_4d/1x1"
  type: "Convolution"
  bottom: "inception_4c/output"
  top: "inception_4d/1x1"
  param {
    lr_mult: 1
    decay_mult: 1
  }
  param {
    lr_mult: 2
    decay_mult: 0
  }
  convolution_param {
    num_output: 112
    kernel_size: 1
    weight_filler {
      type: "xavier"
      std: 0.03
    }
    bias_filler {
      type: "constant"
      value: 0.2
    }
  }
}
layer {
  name: "inception_4d/relu_1x1"
  type: "ReLU"
  bottom: "inception_4d/1x1"
  top: "inception_4d/1x1"
}
layer {
  name: "inception_4d/3x3_reduce"
  type: "Convolution"
  bottom: "inception_4c/output"
  top: "inception_4d/3x3_reduce"
  param {
    lr_mult: 1
    decay_mult: 1
  }
  param {
    lr_mult: 2
    decay_mult: 0
  }
  convolution_param {
    num_output: 144
    kernel_size: 1
    weight_filler {
      type: "xavier"
      std: 0.09
    }
    bias_filler {
      type: "constant"
      value: 0.2
    }
  }
}
layer {
  name: "inception_4d/relu_3x3_reduce"
  type: "ReLU"
  bottom: "inception_4d/3x3_reduce"
  top: "inception_4d/3x3_reduce"
}
layer {
  name: "inception_4d/3x3"
  type: "Convolution"
  bottom: "inception_4d/3x3_reduce"
  top: "inception_4d/3x3"
  param {
    lr_mult: 1
    decay_mult: 1
  }
  param {
    lr_mult: 2
    decay_mult: 0
  }
  convolution_param {
    num_output: 288
    pad: 1
    kernel_size: 3
    weight_filler {
      type: "xavier"
      std: 0.03
    }
    bias_filler {
      type: "constant"
      value: 0.2
    }
  }
}
layer {
  name: "inception_4d/relu_3x3"
  type: "ReLU"
  bottom: "inception_4d/3x3"
  top: "inception_4d/3x3"
}
layer {
  name: "inception_4d/5x5_reduce"
  type: "Convolution"
  bottom: "inception_4c/output"
  top: "inception_4d/5x5_reduce"
  param {
    lr_mult: 1
    decay_mult: 1
  }
  param {
    lr_mult: 2
    decay_mult: 0
  }
  convolution_param {
    num_output: 32
    kernel_size: 1
    weight_filler {
      type: "xavier"
      std: 0.2
    }
    bias_filler {
      type: "constant"
      value: 0.2
    }
  }
}
layer {
  name: "inception_4d/relu_5x5_reduce"
  type: "ReLU"
  bottom: "inception_4d/5x5_reduce"
  top: "inception_4d/5x5_reduce"
}
layer {
  name: "inception_4d/5x5"
  type: "Convolution"
  bottom: "inception_4d/5x5_reduce"
  top: "inception_4d/5x5"
  param {
    lr_mult: 1
    decay_mult: 1
  }
  param {
    lr_mult: 2
    decay_mult: 0
  }
  convolution_param {
    num_output: 64
    pad: 2
    kernel_size: 5
    weight_filler {
      type: "xavier"
      std: 0.03
    }
    bias_filler {
      type: "constant"
      value: 0.2
    }
  }
}
layer {
  name: "inception_4d/relu_5x5"
  type: "ReLU"
  bottom: "inception_4d/5x5"
  top: "inception_4d/5x5"
}
layer {
  name: "inception_4d/pool"
  type: "Pooling"
  bottom: "inception_4c/output"
  top: "inception_4d/pool"
  pooling_param {
    pool: MAX
    kernel_size: 3
    stride: 1
    pad: 1
  }
}
layer {
  name: "inception_4d/pool_proj"
  type: "Convolution"
  bottom: "inception_4d/pool"
  top: "inception_4d/pool_proj"
  param {
    lr_mult: 1
    decay_mult: 1
  }
  param {
    lr_mult: 2
    decay_mult: 0
  }
  convolution_param {
    num_output: 64
    kernel_size: 1
    weight_filler {
      type: "xavier"
      std: 0.1
    }
    bias_filler {
      type: "constant"
      value: 0.2
    }
  }
}
layer {
  name: "inception_4d/relu_pool_proj"
  type: "ReLU"
  bottom: "inception_4d/pool_proj"
  top: "inception_4d/pool_proj"
}
layer {
  name: "inception_4d/output"
  type: "Concat"
  bottom: "inception_4d/1x1"
  bottom: "inception_4d/3x3"
  bottom: "inception_4d/5x5"
  bottom: "inception_4d/pool_proj"
  top: "inception_4d/output"
}
layer {
  name: "loss2/ave_pool"
  type: "Pooling"
  bottom: "inception_4d/output"
  top: "loss2/ave_pool"
  pooling_param {
    pool: AVE
    kernel_size: 5
    stride: 3
  }
}
layer {
  name: "loss2/conv"
  type: "Convolution"
  bottom: "loss2/ave_pool"
  top: "loss2/conv"
  param {
    lr_mult: 1
    decay_mult: 1
  }
  param {
    lr_mult: 2
    decay_mult: 0
  }
  convolution_param {
    num_output: 128
    kernel_size: 1
    weight_filler {
      type: "xavier"
      std: 0.08
    }
    bias_filler {
      type: "constant"
      value: 0.2
    }
  }
}
layer {
  name: "loss2/relu_conv"
  type: "ReLU"
  bottom: "loss2/conv"
  top: "loss2/conv"
}
layer {
  name: "loss2/fc"
  type: "InnerProduct"
  bottom: "loss2/conv"
  top: "loss2/fc"
  param {
    lr_mult: 1
    decay_mult: 1
  }
  param {
    lr_mult: 2
    decay_mult: 0
  }
  inner_product_param {
    num_output: 1024
    weight_filler {
      type: "xavier"
      std: 0.02
    }
    bias_filler {
      type: "constant"
      value: 0.2
    }
  }
}
layer {
  name: "loss2/relu_fc"
  type: "ReLU"
  bottom: "loss2/fc"
  top: "loss2/fc"
}
layer {
  name: "loss2/drop_fc"
  type: "Dropout"
  bottom: "loss2/fc"
  top: "loss2/fc"
  dropout_param {
    dropout_ratio: 0.7
  }
}
layer {
  name: "loss2/classifier_cub"
  type: "InnerProduct"
  bottom: "loss2/fc"
  top: "loss2/classifier"
  param {
    lr_mult: 1
    decay_mult: 1
  }
  param {
    lr_mult: 2
    decay_mult: 0
  }
  inner_product_param {
    num_output: 200
    weight_filler {
      type: "gaussian"
      std: 1e-05
    }
    bias_filler {
      type: "constant"
      value: 0
    }
  }
}
layer {
  name: "loss2/loss"
  type: "SoftmaxWithLoss"
  bottom: "loss2/classifier"
  bottom: "label"
  top: "loss2/loss1"
  loss_weight: 0.3
}
layer {
  name: "inception_4e/1x1"
  type: "Convolution"
  bottom: "inception_4d/output"
  top: "inception_4e/1x1"
  param {
    lr_mult: 1
    decay_mult: 1
  }
  param {
    lr_mult: 2
    decay_mult: 0
  }
  convolution_param {
    num_output: 256
    kernel_size: 1
    weight_filler {
      type: "xavier"
      std: 0.03
    }
    bias_filler {
      type: "constant"
      value: 0.2
    }
  }
}
layer {
  name: "inception_4e/relu_1x1"
  type: "ReLU"
  bottom: "inception_4e/1x1"
  top: "inception_4e/1x1"
}
layer {
  name: "inception_4e/3x3_reduce"
  type: "Convolution"
  bottom: "inception_4d/output"
  top: "inception_4e/3x3_reduce"
  param {
    lr_mult: 1
    decay_mult: 1
  }
  param {
    lr_mult: 2
    decay_mult: 0
  }
  convolution_param {
    num_output: 160
    kernel_size: 1
    weight_filler {
      type: "xavier"
      std: 0.09
    }
    bias_filler {
      type: "constant"
      value: 0.2
    }
  }
}
layer {
  name: "inception_4e/relu_3x3_reduce"
  type: "ReLU"
  bottom: "inception_4e/3x3_reduce"
  top: "inception_4e/3x3_reduce"
}
layer {
  name: "inception_4e/3x3"
  type: "Convolution"
  bottom: "inception_4e/3x3_reduce"
  top: "inception_4e/3x3"
  param {
    lr_mult: 1
    decay_mult: 1
  }
  param {
    lr_mult: 2
    decay_mult: 0
  }
  convolution_param {
    num_output: 320
    pad: 1
    kernel_size: 3
    weight_filler {
      type: "xavier"
      std: 0.03
    }
    bias_filler {
      type: "constant"
      value: 0.2
    }
  }
}
layer {
  name: "inception_4e/relu_3x3"
  type: "ReLU"
  bottom: "inception_4e/3x3"
  top: "inception_4e/3x3"
}
layer {
  name: "inception_4e/5x5_reduce"
  type: "Convolution"
  bottom: "inception_4d/output"
  top: "inception_4e/5x5_reduce"
  param {
    lr_mult: 1
    decay_mult: 1
  }
  param {
    lr_mult: 2
    decay_mult: 0
  }
  convolution_param {
    num_output: 32
    kernel_size: 1
    weight_filler {
      type: "xavier"
      std: 0.2
    }
    bias_filler {
      type: "constant"
      value: 0.2
    }
  }
}
l
I0902 17:38:06.697290 54235 layer_factory.hpp:76] Creating layer data
I0902 17:38:06.697373 54235 net.cpp:110] Creating Layer data
I0902 17:38:06.697396 54235 net.cpp:433] data -> data
I0902 17:38:06.697443 54235 net.cpp:433] data -> label
I0902 17:38:06.698359 54235 image_data_layer.cpp:36] Opening file data/CUB_200_2011/train_files.txt
I0902 17:38:06.705510 54235 image_data_layer.cpp:46] Shuffling data
I0902 17:38:06.706464 54235 image_data_layer.cpp:51] A total of 5994 images.
I0902 17:38:06.720090 54235 image_data_layer.cpp:78] output data size: 32,3,224,224
I0902 17:38:06.825686 54235 net.cpp:155] Setting up data
I0902 17:38:06.825741 54235 net.cpp:163] Top shape: 32 3 224 224 (4816896)
I0902 17:38:06.825752 54235 net.cpp:163] Top shape: 32 (32)
I0902 17:38:06.825765 54235 layer_factory.hpp:76] Creating layer label_data_1_split
I0902 17:38:06.825788 54235 net.cpp:110] Creating Layer label_data_1_split
I0902 17:38:06.825796 54235 net.cpp:477] label_data_1_split <- label
I0902 17:38:06.825821 54235 net.cpp:433] label_data_1_split -> label_data_1_split_0
I0902 17:38:06.825867 54235 net.cpp:433] label_data_1_split -> label_data_1_split_1
I0902 17:38:06.825878 54235 net.cpp:433] label_data_1_split -> label_data_1_split_2
I0902 17:38:06.825898 54235 net.cpp:155] Setting up label_data_1_split
I0902 17:38:06.825907 54235 net.cpp:163] Top shape: 32 (32)
I0902 17:38:06.825913 54235 net.cpp:163] Top shape: 32 (32)
I0902 17:38:06.825919 54235 net.cpp:163] Top shape: 32 (32)
I0902 17:38:06.825925 54235 layer_factory.hpp:76] Creating layer conv1/7x7_s2
I0902 17:38:06.825945 54235 net.cpp:110] Creating Layer conv1/7x7_s2
I0902 17:38:06.825953 54235 net.cpp:477] conv1/7x7_s2 <- data
I0902 17:38:06.825964 54235 net.cpp:433] conv1/7x7_s2 -> conv1/7x7_s2
I0902 17:38:07.419916 54235 net.cpp:155] Setting up conv1/7x7_s2
I0902 17:38:07.419962 54235 net.cpp:163] Top shape: 32 64 112 112 (25690112)
I0902 17:38:07.419988 54235 layer_factory.hpp:76] Creating layer conv1/relu_7x7
I0902 17:38:07.420006 54235 net.cpp:110] Creating Layer conv1/relu_7x7
I0902 17:38:07.420013 54235 net.cpp:477] conv1/relu_7x7 <- conv1/7x7_s2
I0902 17:38:07.420022 54235 net.cpp:419] conv1/relu_7x7 -> conv1/7x7_s2 (in-place)
I0902 17:38:07.422057 54235 net.cpp:155] Setting up conv1/relu_7x7
I0902 17:38:07.422081 54235 net.cpp:163] Top shape: 32 64 112 112 (25690112)
I0902 17:38:07.422088 54235 layer_factory.hpp:76] Creating layer pool1/3x3_s2
I0902 17:38:07.422103 54235 net.cpp:110] Creating Layer pool1/3x3_s2
I0902 17:38:07.422109 54235 net.cpp:477] pool1/3x3_s2 <- conv1/7x7_s2
I0902 17:38:07.422117 54235 net.cpp:433] pool1/3x3_s2 -> pool1/3x3_s2
I0902 17:38:07.424284 54235 net.cpp:155] Setting up pool1/3x3_s2
I0902 17:38:07.424304 54235 net.cpp:163] Top shape: 32 64 56 56 (6422528)
I0902 17:38:07.424311 54235 layer_factory.hpp:76] Creating layer pool1/norm1
I0902 17:38:07.424329 54235 net.cpp:110] Creating Layer pool1/norm1
I0902 17:38:07.424335 54235 net.cpp:477] pool1/norm1 <- pool1/3x3_s2
I0902 17:38:07.424342 54235 net.cpp:433] pool1/norm1 -> pool1/norm1
I0902 17:38:07.424357 54235 net.cpp:155] Setting up pool1/norm1
I0902 17:38:07.424367 54235 net.cpp:163] Top shape: 32 64 56 56 (6422528)
I0902 17:38:07.424372 54235 layer_factory.hpp:76] Creating layer conv2/3x3_reduce
I0902 17:38:07.424384 54235 net.cpp:110] Creating Layer conv2/3x3_reduce
I0902 17:38:07.424389 54235 net.cpp:477] conv2/3x3_reduce <- pool1/norm1
I0902 17:38:07.424401 54235 net.cpp:433] conv2/3x3_reduce -> conv2/3x3_reduce
I0902 17:38:07.430922 54235 net.cpp:155] Setting up conv2/3x3_reduce
I0902 17:38:07.430944 54235 net.cpp:163] Top shape: 32 64 56 56 (6422528)
I0902 17:38:07.430959 54235 layer_factory.hpp:76] Creating layer conv2/relu_3x3_reduce
I0902 17:38:07.430971 54235 net.cpp:110] Creating Layer conv2/relu_3x3_reduce
I0902 17:38:07.430977 54235 net.cpp:477] conv2/relu_3x3_reduce <- conv2/3x3_reduce
I0902 17:38:07.430985 54235 net.cpp:419] conv2/relu_3x3_reduce -> conv2/3x3_reduce (in-place)
I0902 17:38:07.433104 54235 net.cpp:155] Setting up conv2/relu_3x3_reduce
I0902 17:38:07.433123 54235 net.cpp:163] Top shape: 32 64 56 56 (6422528)
I0902 17:38:07.433130 54235 layer_factory.hpp:76] Creating layer conv2/3x3
I0902 17:38:07.433147 54235 net.cpp:110] Creating Layer conv2/3x3
I0902 17:38:07.433153 54235 net.cpp:477] conv2/3x3 <- conv2/3x3_reduce
I0902 17:38:07.433161 54235 net.cpp:433] conv2/3x3 -> conv2/3x3
I0902 17:38:07.439757 54235 net.cpp:155] Setting up conv2/3x3
I0902 17:38:07.439782 54235 net.cpp:163] Top shape: 32 192 56 56 (19267584)
I0902 17:38:07.439797 54235 layer_factory.hpp:76] Creating layer conv2/relu_3x3
I0902 17:38:07.439808 54235 net.cpp:110] Creating Layer conv2/relu_3x3
I0902 17:38:07.439813 54235 net.cpp:477] conv2/relu_3x3 <- conv2/3x3
I0902 17:38:07.439821 54235 net.cpp:419] conv2/relu_3x3 -> conv2/3x3 (in-place)
I0902 17:38:07.441941 54235 net.cpp:155] Setting up conv2/relu_3x3
I0902 17:38:07.441962 54235 net.cpp:163] Top shape: 32 192 56 56 (19267584)
I0902 17:38:07.441968 54235 layer_factory.hpp:76] Creating layer conv2/norm2
I0902 17:38:07.441982 54235 net.cpp:110] Creating Layer conv2/norm2
I0902 17:38:07.442011 54235 net.cpp:477] conv2/norm2 <- conv2/3x3
I0902 17:38:07.442020 54235 net.cpp:433] conv2/norm2 -> conv2/norm2
I0902 17:38:07.442033 54235 net.cpp:155] Setting up conv2/norm2
I0902 17:38:07.442040 54235 net.cpp:163] Top shape: 32 192 56 56 (19267584)
I0902 17:38:07.442045 54235 layer_factory.hpp:76] Creating layer pool2/3x3_s2
I0902 17:38:07.442056 54235 net.cpp:110] Creating Layer pool2/3x3_s2
I0902 17:38:07.442062 54235 net.cpp:477] pool2/3x3_s2 <- conv2/norm2
I0902 17:38:07.442069 54235 net.cpp:433] pool2/3x3_s2 -> pool2/3x3_s2
I0902 17:38:07.444141 54235 net.cpp:155] Setting up pool2/3x3_s2
I0902 17:38:07.444161 54235 net.cpp:163] Top shape: 32 192 28 28 (4816896)
I0902 17:38:07.444167 54235 layer_factory.hpp:76] Creating layer pool2/3x3_s2_pool2/3x3_s2_0_split
I0902 17:38:07.444180 54235 net.cpp:110] Creating Layer pool2/3x3_s2_pool2/3x3_s2_0_split
I0902 17:38:07.444186 54235 net.cpp:477] pool2/3x3_s2_pool2/3x3_s2_0_split <- pool2/3x3_s2
I0902 17:38:07.444195 54235 net.cpp:433] pool2/3x3_s2_pool2/3x3_s2_0_split -> pool2/3x3_s2_pool2/3x3_s2_0_split_0
I0902 17:38:07.444205 54235 net.cpp:433] pool2/3x3_s2_pool2/3x3_s2_0_split -> pool2/3x3_s2_pool2/3x3_s2_0_split_1
I0902 17:38:07.444212 54235 net.cpp:433] pool2/3x3_s2_pool2/3x3_s2_0_split -> pool2/3x3_s2_pool2/3x3_s2_0_split_2
I0902 17:38:07.444223 54235 net.cpp:433] pool2/3x3_s2_pool2/3x3_s2_0_split -> pool2/3x3_s2_pool2/3x3_s2_0_split_3
I0902 17:38:07.444233 54235 net.cpp:155] Setting up pool2/3x3_s2_pool2/3x3_s2_0_split
I0902 17:38:07.444241 54235 net.cpp:163] Top shape: 32 192 28 28 (4816896)
I0902 17:38:07.444246 54235 net.cpp:163] Top shape: 32 192 28 28 (4816896)
I0902 17:38:07.444252 54235 net.cpp:163] Top shape: 32 192 28 28 (4816896)
I0902 17:38:07.444257 54235 net.cpp:163] Top shape: 32 192 28 28 (4816896)
I0902 17:38:07.444262 54235 layer_factory.hpp:76] Creating layer inception_3a/1x1
I0902 17:38:07.444270 54235 net.cpp:110] Creating Layer inception_3a/1x1
I0902 17:38:07.444275 54235 net.cpp:477] inception_3a/1x1 <- pool2/3x3_s2_pool2/3x3_s2_0_split_0
I0902 17:38:07.444285 54235 net.cpp:433] inception_3a/1x1 -> inception_3a/1x1
I0902 17:38:07.452821 54235 net.cpp:155] Setting up inception_3a/1x1
I0902 17:38:07.452843 54235 net.cpp:163] Top shape: 32 64 28 28 (1605632)
I0902 17:38:07.452855 54235 layer_factory.hpp:76] Creating layer inception_3a/relu_1x1
I0902 17:38:07.452865 54235 net.cpp:110] Creating Layer inception_3a/relu_1x1
I0902 17:38:07.452872 54235 net.cpp:477] inception_3a/relu_1x1 <- inception_3a/1x1
I0902 17:38:07.452882 54235 net.cpp:419] inception_3a/relu_1x1 -> inception_3a/1x1 (in-place)
I0902 17:38:07.456218 54235 net.cpp:155] Setting up inception_3a/relu_1x1
I0902 17:38:07.456238 54235 net.cpp:163] Top shape: 32 64 28 28 (1605632)
I0902 17:38:07.456245 54235 layer_factory.hpp:76] Creating layer inception_3a/3x3_reduce
I0902 17:38:07.456259 54235 net.cpp:110] Creating Layer inception_3a/3x3_reduce
I0902 17:38:07.456264 54235 net.cpp:477] inception_3a/3x3_reduce <- pool2/3x3_s2_pool2/3x3_s2_0_split_1
I0902 17:38:07.456275 54235 net.cpp:433] inception_3a/3x3_reduce -> inception_3a/3x3_reduce
I0902 17:38:07.515954 54235 net.cpp:155] Setting up inception_3a/3x3_reduce
I0902 17:38:07.515974 54235 net.cpp:163] Top shape: 32 96 28 28 (2408448)
I0902 17:38:07.515998 54235 layer_factory.hpp:76] Creating layer inception_3a/relu_3x3_reduce
I0902 17:38:07.516010 54235 net.cpp:110] Creating Layer inception_3a/relu_3x3_reduce
I0902 17:38:07.516016 54235 net.cpp:477] inception_3a/relu_3x3_reduce <- inception_3a/3x3_reduce
I0902 17:38:07.516023 54235 net.cpp:419] inception_3a/relu_3x3_reduce -> inception_3a/3x3_reduce (in-place)
I0902 17:38:07.518569 54235 net.cpp:155] Setting up inception_3a/relu_3x3_reduce
I0902 17:38:07.518590 54235 net.cpp:163] Top shape: 32 96 28 28 (2408448)
I0902 17:38:07.518597 54235 layer_factory.hpp:76] Creating layer inception_3a/3x3
I0902 17:38:07.518610 54235 net.cpp:110] Creating Layer inception_3a/3x3
I0902 17:38:07.518617 54235 net.cpp:477] inception_3a/3x3 <- inception_3a/3x3_reduce
I0902 17:38:07.518642 54235 net.cpp:433] inception_3a/3x3 -> inception_3a/3x3
I0902 17:38:07.581899 54235 net.cpp:155] Setting up inception_3a/3x3
I0902 17:38:07.581923 54235 net.cpp:163] Top shape: 32 128 28 28 (3211264)
I0902 17:38:07.581936 54235 layer_factory.hpp:76] Creating layer inception_3a/relu_3x3
I0902 17:38:07.581945 54235 net.cpp:110] Creating Layer inception_3a/relu_3x3
I0902 17:38:07.581951 54235 net.cpp:477] inception_3a/relu_3x3 <- inception_3a/3x3
I0902 17:38:07.581959 54235 net.cpp:419] inception_3a/relu_3x3 -> inception_3a/3x3 (in-place)
I0902 17:38:07.636658 54235 net.cpp:155] Setting up inception_3a/relu_3x3
I0902 17:38:07.636679 54235 net.cpp:163] Top shape: 32 128 28 28 (3211264)
I0902 17:38:07.636687 54235 layer_factory.hpp:76] Creating layer inception_3a/5x5_reduce
I0902 17:38:07.636700 54235 net.cpp:110] Creating Layer inception_3a/5x5_reduce
I0902 17:38:07.636706 54235 net.cpp:477] inception_3a/5x5_reduce <- pool2/3x3_s2_pool2/3x3_s2_0_split_2
I0902 17:38:07.636715 54235 net.cpp:433] inception_3a/5x5_reduce -> inception_3a/5x5_reduce
I0902 17:38:07.698261 54235 net.cpp:155] Setting up inception_3a/5x5_reduce
I0902 17:38:07.698282 54235 net.cpp:163] Top shape: 32 16 28 28 (401408)
I0902 17:38:07.698293 54235 layer_factory.hpp:76] Creating layer inception_3a/relu_5x5_reduce
I0902 17:38:07.698302 54235 net.cpp:110] Creating Layer inception_3a/relu_5x5_reduce
I0902 17:38:07.698309 54235 net.cpp:477] inception_3a/relu_5x5_reduce <- inception_3a/5x5_reduce
I0902 17:38:07.698318 54235 net.cpp:419] inception_3a/relu_5x5_reduce -> inception_3a/5x5_reduce (in-place)
I0902 17:38:07.702252 54235 net.cpp:155] Setting up inception_3a/relu_5x5_reduce
I0902 17:38:07.702272 54235 net.cpp:163] Top shape: 32 16 28 28 (401408)
I0902 17:38:07.702280 54235 layer_factory.hpp:76] Creating layer inception_3a/5x5
I0902 17:38:07.702293 54235 net.cpp:110] Creating Layer inception_3a/5x5
I0902 17:38:07.702301 54235 net.cpp:477] inception_3a/5x5 <- inception_3a/5x5_reduce
I0902 17:38:07.702309 54235 net.cpp:433] inception_3a/5x5 -> inception_3a/5x5
I0902 17:38:07.762328 54235 net.cpp:155] Setting up inception_3a/5x5
I0902 17:38:07.762349 54235 net.cpp:163] Top shape: 32 32 28 28 (802816)
I0902 17:38:07.762362 54235 layer_factory.hpp:76] Creating layer inception_3a/relu_5x5
I0902 17:38:07.762373 54235 net.cpp:110] Creating Layer inception_3a/relu_5x5
I0902 17:38:07.762379 54235 net.cpp:477] inception_3a/relu_5x5 <- inception_3a/5x5
I0902 17:38:07.762387 54235 net.cpp:419] inception_3a/relu_5x5 -> inception_3a/5x5 (in-place)
I0902 17:38:07.764482 54235 net.cpp:155] Setting up inception_3a/relu_5x5
I0902 17:38:07.764502 54235 net.cpp:163] Top shape: 32 32 28 28 (802816)
I0902 17:38:07.764508 54235 layer_factory.hpp:76] Creating layer inception_3a/pool
I0902 17:38:07.764515 54235 layer_factory.cpp:60] CUDNN does not support padding or multiple tops. Using Caffe's own pooling layer.
I0902 17:38:07.764523 54235 net.cpp:110] Creating Layer inception_3a/pool
I0902 17:38:07.764529 54235 net.cpp:477] inception_3a/pool <- pool2/3x3_s2_pool2/3x3_s2_0_split_3
I0902 17:38:07.764539 54235 net.cpp:433] inception_3a/pool -> inception_3a/pool
I0902 17:38:07.764554 54235 net.cpp:155] Setting up inception_3a/pool
I0902 17:38:07.764560 54235 net.cpp:163] Top shape: 32 192 28 28 (4816896)
I0902 17:38:07.764565 54235 layer_factory.hpp:76] Creating layer inception_3a/pool_proj
I0902 17:38:07.764578 54235 net.cpp:110] Creating Layer inception_3a/pool_proj
I0902 17:38:07.764583 54235 net.cpp:477] inception_3a/pool_proj <- inception_3a/pool
I0902 17:38:07.764591 54235 net.cpp:433] inception_3a/pool_proj -> inception_3a/pool_proj
I0902 17:38:07.771178 54235 net.cpp:155] Setting up inception_3a/pool_proj
I0902 17:38:07.771199 54235 net.cpp:163] Top shape: 32 32 28 28 (802816)
I0902 17:38:07.771219 54235 layer_factory.hpp:76] Creating layer inception_3a/relu_pool_proj
I0902 17:38:07.771231 54235 net.cpp:110] Creating Layer inception_3a/relu_pool_proj
I0902 17:38:07.771237 54235 net.cpp:477] inception_3a/relu_pool_proj <- inception_3a/pool_proj
I0902 17:38:07.771260 54235 net.cpp:419] inception_3a/relu_pool_proj -> inception_3a/pool_proj (in-place)
I0902 17:38:07.773360 54235 net.cpp:155] Setting up inception_3a/relu_pool_proj
I0902 17:38:07.773378 54235 net.cpp:163] Top shape: 32 32 28 28 (802816)
I0902 17:38:07.773386 54235 layer_factory.hpp:76] Creating layer inception_3a/output
I0902 17:38:07.773401 54235 net.cpp:110] Creating Layer inception_3a/output
I0902 17:38:07.773408 54235 net.cpp:477] inception_3a/output <- inception_3a/1x1
I0902 17:38:07.773416 54235 net.cpp:477] inception_3a/output <- inception_3a/3x3
I0902 17:38:07.773422 54235 net.cpp:477] inception_3a/output <- inception_3a/5x5
I0902 17:38:07.773427 54235 net.cpp:477] inception_3a/output <- inception_3a/pool_proj
I0902 17:38:07.773433 54235 net.cpp:433] inception_3a/output -> inception_3a/output
I0902 17:38:07.773449 54235 net.cpp:155] Setting up inception_3a/output
I0902 17:38:07.773457 54235 net.cpp:163] Top shape: 32 256 28 28 (6422528)
I0902 17:38:07.773461 54235 layer_factory.hpp:76] Creating layer inception_3a/output_inception_3a/output_0_split
I0902 17:38:07.773468 54235 net.cpp:110] Creating Layer inception_3a/output_inception_3a/output_0_split
I0902 17:38:07.773473 54235 net.cpp:477] inception_3a/output_inception_3a/output_0_split <- inception_3a/output
I0902 17:38:07.773488 54235 net.cpp:433] inception_3a/output_inception_3a/output_0_split -> inception_3a/output_inception_3a/output_0_split_0
I0902 17:38:07.773497 54235 net.cpp:433] inception_3a/output_inception_3a/output_0_split -> inception_3a/output_inception_3a/output_0_split_1
I0902 17:38:07.773505 54235 net.cpp:433] inception_3a/output_inception_3a/output_0_split -> inception_3a/output_inception_3a/output_0_split_2
I0902 17:38:07.773514 54235 net.cpp:433] inception_3a/output_inception_3a/output_0_split -> inception_3a/output_inception_3a/output_0_split_3
I0902 17:38:07.773522 54235 net.cpp:155] Setting up inception_3a/output_inception_3a/output_0_split
I0902 17:38:07.773530 54235 net.cpp:163] Top shape: 32 256 28 28 (6422528)
I0902 17:38:07.773536 54235 net.cpp:163] Top shape: 32 256 28 28 (6422528)
I0902 17:38:07.773542 54235 net.cpp:163] Top shape: 32 256 28 28 (6422528)
I0902 17:38:07.773547 54235 net.cpp:163] Top shape: 32 256 28 28 (6422528)
I0902 17:38:07.773552 54235 layer_factory.hpp:76] Creating layer inception_3b/1x1
I0902 17:38:07.773561 54235 net.cpp:110] Creating Layer inception_3b/1x1
I0902 17:38:07.773566 54235 net.cpp:477] inception_3b/1x1 <- inception_3a/output_inception_3a/output_0_split_0
I0902 17:38:07.773576 54235 net.cpp:433] inception_3b/1x1 -> inception_3b/1x1
I0902 17:38:07.780107 54235 net.cpp:155] Setting up inception_3b/1x1
I0902 17:38:07.780164 54235 net.cpp:163] Top shape: 32 128 28 28 (3211264)
I0902 17:38:07.780187 54235 layer_factory.hpp:76] Creating layer inception_3b/relu_1x1
I0902 17:38:07.780207 54235 net.cpp:110] Creating Layer inception_3b/relu_1x1
I0902 17:38:07.780220 54235 net.cpp:477] inception_3b/relu_1x1 <- inception_3b/1x1
I0902 17:38:07.780235 54235 net.cpp:419] inception_3b/relu_1x1 -> inception_3b/1x1 (in-place)
I0902 17:38:07.782269 54235 net.cpp:155] Setting up inception_3b/relu_1x1
I0902 17:38:07.782302 54235 net.cpp:163] Top shape: 32 128 28 28 (3211264)
I0902 17:38:07.782315 54235 layer_factory.hpp:76] Creating layer inception_3b/3x3_reduce
I0902 17:38:07.782342 54235 net.cpp:110] Creating Layer inception_3b/3x3_reduce
I0902 17:38:07.782353 54235 net.cpp:477] inception_3b/3x3_reduce <- inception_3a/output_inception_3a/output_0_split_1
I0902 17:38:07.782369 54235 net.cpp:433] inception_3b/3x3_reduce -> inception_3b/3x3_reduce
I0902 17:38:07.788976 54235 net.cpp:155] Setting up inception_3b/3x3_reduce
I0902 17:38:07.789016 54235 net.cpp:163] Top shape: 32 128 28 28 (3211264)
I0902 17:38:07.789036 54235 layer_factory.hpp:76] Creating layer inception_3b/relu_3x3_reduce
I0902 17:38:07.789053 54235 net.cpp:110] Creating Layer inception_3b/relu_3x3_reduce
I0902 17:38:07.789063 54235 net.cpp:477] inception_3b/relu_3x3_reduce <- inception_3b/3x3_reduce
I0902 17:38:07.789113 54235 net.cpp:419] inception_3b/relu_3x3_reduce -> inception_3b/3x3_reduce (in-place)
I0902 17:38:07.791141 54235 net.cpp:155] Setting up inception_3b/relu_3x3_reduce
I0902 17:38:07.791174 54235 net.cpp:163] Top shape: 32 128 28 28 (3211264)
I0902 17:38:07.791187 54235 layer_factory.hpp:76] Creating layer inception_3b/3x3
I0902 17:38:07.791262 54235 net.cpp:110] Creating Layer inception_3b/3x3
I0902 17:38:07.791295 54235 net.cpp:477] inception_3b/3x3 <- inception_3b/3x3_reduce
I0902 17:38:07.791316 54235 net.cpp:433] inception_3b/3x3 -> inception_3b/3x3
I0902 17:38:07.801005 54235 net.cpp:155] Setting up inception_3b/3x3
I0902 17:38:07.801043 54235 net.cpp:163] Top shape: 32 192 28 28 (4816896)
I0902 17:38:07.801061 54235 layer_factory.hpp:76] Creating layer inception_3b/relu_3x3
I0902 17:38:07.801084 54235 net.cpp:110] Creating Layer inception_3b/relu_3x3
I0902 17:38:07.801095 54235 net.cpp:477] inception_3b/relu_3x3 <- inception_3b/3x3
I0902 17:38:07.801108 54235 net.cpp:419] inception_3b/relu_3x3 -> inception_3b/3x3 (in-place)
I0902 17:38:07.803333 54235 net.cpp:155] Setting up inception_3b/relu_3x3
I0902 17:38:07.803366 54235 net.cpp:163] Top shape: 32 192 28 28 (4816896)
I0902 17:38:07.803380 54235 layer_factory.hpp:76] Creating layer inception_3b/5x5_reduce
I0902 17:38:07.803398 54235 net.cpp:110] Creating Layer inception_3b/5x5_reduce
I0902 17:38:07.803410 54235 net.cpp:477] inception_3b/5x5_reduce <- inception_3a/output_inception_3a/output_0_split_2
I0902 17:38:07.803429 54235 net.cpp:433] inception_3b/5x5_reduce -> inception_3b/5x5_reduce
I0902 17:38:07.809885 54235 net.cpp:155] Setting up inception_3b/5x5_reduce
I0902 17:38:07.809918 54235 net.cpp:163] Top shape: 32 32 28 28 (802816)
I0902 17:38:07.809937 54235 layer_factory.hpp:76] Creating layer inception_3b/relu_5x5_reduce
I0902 17:38:07.809954 54235 net.cpp:110] Creating Layer inception_3b/relu_5x5_reduce
I0902 17:38:07.809964 54235 net.cpp:477] inception_3b/relu_5x5_reduce <- inception_3b/5x5_reduce
I0902 17:38:07.809985 54235 net.cpp:419] inception_3b/relu_5x5_reduce -> inception_3b/5x5_reduce (in-place)
I0902 17:38:07.812062 54235 net.cpp:155] Setting up inception_3b/relu_5x5_reduce
I0902 17:38:07.812093 54235 net.cpp:163] Top shape: 32 32 28 28 (802816)
I0902 17:38:07.812104 54235 layer_factory.hpp:76] Creating layer inception_3b/5x5
I0902 17:38:07.812127 54235 net.cpp:110] Creating Layer inception_3b/5x5
I0902 17:38:07.812139 54235 net.cpp:477] inception_3b/5x5 <- inception_3b/5x5_reduce
I0902 17:38:07.812157 54235 net.cpp:433] inception_3b/5x5 -> inception_3b/5x5
I0902 17:38:07.819766 54235 net.cpp:155] Setting up inception_3b/5x5
I0902 17:38:07.819802 54235 net.cpp:163] Top shape: 32 96 28 28 (2408448)
I0902 17:38:07.819821 54235 layer_factory.hpp:76] Creating layer inception_3b/relu_5x5
I0902 17:38:07.819838 54235 net.cpp:110] Creating Layer inception_3b/relu_5x5
I0902 17:38:07.819852 54235 net.cpp:477] inception_3b/relu_5x5 <- inception_3b/5x5
I0902 17:38:07.819866 54235 net.cpp:419] inception_3b/relu_5x5 -> inception_3b/5x5 (in-place)
I0902 17:38:07.821668 54235 net.cpp:155] Setting up inception_3b/relu_5x5
I0902 17:38:07.821699 54235 net.cpp:163] Top shape: 32 96 28 28 (2408448)
I0902 17:38:07.821712 54235 layer_factory.hpp:76] Creating layer inception_3b/pool
I0902 17:38:07.821724 54235 layer_factory.cpp:60] CUDNN does not support padding or multiple tops. Using Caffe's own pooling layer.
I0902 17:38:07.821743 54235 net.cpp:110] Creating Layer inception_3b/pool
I0902 17:38:07.821754 54235 net.cpp:477] inception_3b/pool <- inception_3a/output_inception_3a/output_0_split_3
I0902 17:38:07.821768 54235 net.cpp:433] inception_3b/pool -> inception_3b/pool
I0902 17:38:07.821792 54235 net.cpp:155] Setting up inception_3b/pool
I0902 17:38:07.821822 54235 net.cpp:163] Top shape: 32 256 28 28 (6422528)
I0902 17:38:07.821832 54235 layer_factory.hpp:76] Creating layer inception_3b/pool_proj
I0902 17:38:07.821848 54235 net.cpp:110] Creating Layer inception_3b/pool_proj
I0902 17:38:07.821858 54235 net.cpp:477] inception_3b/pool_proj <- inception_3b/pool
I0902 17:38:07.821902 54235 net.cpp:433] inception_3b/pool_proj -> inception_3b/pool_proj
I0902 17:38:07.849678 54235 net.cpp:155] Setting up inception_3b/pool_proj
I0902 17:38:07.849711 54235 net.cpp:163] Top shape: 32 64 28 28 (1605632)
I0902 17:38:07.849730 54235 layer_factory.hpp:76] Creating layer inception_3b/relu_pool_proj
I0902 17:38:07.849751 54235 net.cpp:110] Creating Layer inception_3b/relu_pool_proj
I0902 17:38:07.849763 54235 net.cpp:477] inception_3b/relu_pool_proj <- inception_3b/pool_proj
I0902 17:38:07.849777 54235 net.cpp:419] inception_3b/relu_pool_proj -> inception_3b/pool_proj (in-place)
I0902 17:38:07.851305 54235 net.cpp:155] Setting up inception_3b/relu_pool_proj
I0902 17:38:07.851341 54235 net.cpp:163] Top shape: 32 64 28 28 (1605632)
I0902 17:38:07.851352 54235 layer_factory.hpp:76] Creating layer inception_3b/output
I0902 17:38:07.851368 54235 net.cpp:110] Creating Layer inception_3b/output
I0902 17:38:07.851379 54235 net.cpp:477] inception_3b/output <- inception_3b/1x1
I0902 17:38:07.851392 54235 net.cpp:477] inception_3b/output <- inception_3b/3x3
I0902 17:38:07.851402 54235 net.cpp:477] inception_3b/output <- inception_3b/5x5
I0902 17:38:07.851413 54235 net.cpp:477] inception_3b/output <- inception_3b/pool_proj
I0902 17:38:07.851425 54235 net.cpp:433] inception_3b/output -> inception_3b/output
I0902 17:38:07.851446 54235 net.cpp:155] Setting up inception_3b/output
I0902 17:38:07.851459 54235 net.cpp:163] Top shape: 32 480 28 28 (12042240)
I0902 17:38:07.851467 54235 layer_factory.hpp:76] Creating layer pool3/3x3_s2
I0902 17:38:07.851486 54235 net.cpp:110] Creating Layer pool3/3x3_s2
I0902 17:38:07.851496 54235 net.cpp:477] pool3/3x3_s2 <- inception_3b/output
I0902 17:38:07.851510 54235 net.cpp:433] pool3/3x3_s2 -> pool3/3x3_s2
I0902 17:38:07.873245 54235 net.cpp:155] Setting up pool3/3x3_s2
I0902 17:38:07.873276 54235 net.cpp:163] Top shape: 32 480 14 14 (3010560)
I0902 17:38:07.873288 54235 layer_factory.hpp:76] Creating layer pool3/3x3_s2_pool3/3x3_s2_0_split
I0902 17:38:07.873306 54235 net.cpp:110] Creating Layer pool3/3x3_s2_pool3/3x3_s2_0_split
I0902 17:38:07.873317 54235 net.cpp:477] pool3/3x3_s2_pool3/3x3_s2_0_split <- pool3/3x3_s2
I0902 17:38:07.873337 54235 net.cpp:433] pool3/3x3_s2_pool3/3x3_s2_0_split -> pool3/3x3_s2_pool3/3x3_s2_0_split_0
I0902 17:38:07.873354 54235 net.cpp:433] pool3/3x3_s2_pool3/3x3_s2_0_split -> pool3/3x3_s2_pool3/3x3_s2_0_split_1
I0902 17:38:07.873370 54235 net.cpp:433] pool3/3x3_s2_pool3/3x3_s2_0_split -> pool3/3x3_s2_pool3/3x3_s2_0_split_2
I0902 17:38:07.873384 54235 net.cpp:433] pool3/3x3_s2_pool3/3x3_s2_0_split -> pool3/3x3_s2_pool3/3x3_s2_0_split_3
I0902 17:38:07.873401 54235 net.cpp:155] Setting up pool3/3x3_s2_pool3/3x3_s2_0_split
I0902 17:38:07.873412 54235 net.cpp:163] Top shape: 32 480 14 14 (3010560)
I0902 17:38:07.873422 54235 net.cpp:163] Top shape: 32 480 14 14 (3010560)
I0902 17:38:07.873432 54235 net.cpp:163] Top shape: 32 480 14 14 (3010560)
I0902 17:38:07.873442 54235 net.cpp:163] Top shape: 32 480 14 14 (3010560)
I0902 17:38:07.873451 54235 layer_factory.hpp:76] Creating layer inception_4a/1x1
I0902 17:38:07.873473 54235 net.cpp:110] Creating Layer inception_4a/1x1
I0902 17:38:07.873482 54235 net.cpp:477] inception_4a/1x1 <- pool3/3x3_s2_pool3/3x3_s2_0_split_0
I0902 17:38:07.873500 54235 net.cpp:433] inception_4a/1x1 -> inception_4a/1x1
I0902 17:38:07.900917 54235 net.cpp:155] Setting up inception_4a/1x1
I0902 17:38:07.900949 54235 net.cpp:163] Top shape: 32 192 14 14 (1204224)
I0902 17:38:07.900969 54235 layer_factory.hpp:76] Creating layer inception_4a/relu_1x1
I0902 17:38:07.900988 54235 net.cpp:110] Creating Layer inception_4a/relu_1x1
I0902 17:38:07.900998 54235 net.cpp:477] inception_4a/relu_1x1 <- inception_4a/1x1
I0902 17:38:07.901012 54235 net.cpp:419] inception_4a/relu_1x1 -> inception_4a/1x1 (in-place)
I0902 17:38:07.902935 54235 net.cpp:155] Setting up inception_4a/relu_1x1
I0902 17:38:07.902966 54235 net.cpp:163] Top shape: 32 192 14 14 (1204224)
I0902 17:38:07.902978 54235 layer_factory.hpp:76] Creating layer inception_4a/3x3_reduce
I0902 17:38:07.903025 54235 net.cpp:110] Creating Layer inception_4a/3x3_reduce
I0902 17:38:07.903038 54235 net.cpp:477] inception_4a/3x3_reduce <- pool3/3x3_s2_pool3/3x3_s2_0_split_1
I0902 17:38:07.903058 54235 net.cpp:433] inception_4a/3x3_reduce -> inception_4a/3x3_reduce
I0902 17:38:07.928256 54235 net.cpp:155] Setting up inception_4a/3x3_reduce
I0902 17:38:07.928289 54235 net.cpp:163] Top shape: 32 96 14 14 (602112)
I0902 17:38:07.928328 54235 layer_factory.hpp:76] Creating layer inception_4a/relu_3x3_reduce
I0902 17:38:07.928344 54235 net.cpp:110] Creating Layer inception_4a/relu_3x3_reduce
I0902 17:38:07.928355 54235 net.cpp:477] inception_4a/relu_3x3_reduce <- inception_4a/3x3_reduce
I0902 17:38:07.928369 54235 net.cpp:419] inception_4a/relu_3x3_reduce -> inception_4a/3x3_reduce (in-place)
I0902 17:38:07.950042 54235 net.cpp:155] Setting up inception_4a/relu_3x3_reduce
I0902 17:38:07.950073 54235 net.cpp:163] Top shape: 32 96 14 14 (602112)
I0902 17:38:07.950085 54235 layer_factory.hpp:76] Creating layer inception_4a/3x3
I0902 17:38:07.950108 54235 net.cpp:110] Creating Layer inception_4a/3x3
I0902 17:38:07.950119 54235 net.cpp:477] inception_4a/3x3 <- inception_4a/3x3_reduce
I0902 17:38:07.950137 54235 net.cpp:433] inception_4a/3x3 -> inception_4a/3x3
I0902 17:38:07.958652 54235 net.cpp:155] Setting up inception_4a/3x3
I0902 17:38:07.958684 54235 net.cpp:163] Top shape: 32 208 14 14 (1304576)
I0902 17:38:07.958703 54235 layer_factory.hpp:76] Creating layer inception_4a/relu_3x3
I0902 17:38:07.958724 54235 net.cpp:110] Creating Layer inception_4a/relu_3x3
I0902 17:38:07.958735 54235 net.cpp:477] inception_4a/relu_3x3 <- inception_4a/3x3
I0902 17:38:07.958750 54235 net.cpp:419] inception_4a/relu_3x3 -> inception_4a/3x3 (in-place)
I0902 17:38:07.960309 54235 net.cpp:155] Setting up inception_4a/relu_3x3
I0902 17:38:07.960340 54235 net.cpp:163] Top shape: 32 208 14 14 (1304576)
I0902 17:38:07.960351 54235 layer_factory.hpp:76] Creating layer inception_4a/5x5_reduce
I0902 17:38:07.960369 54235 net.cpp:110] Creating Layer inception_4a/5x5_reduce
I0902 17:38:07.960379 54235 net.cpp:477] inception_4a/5x5_reduce <- pool3/3x3_s2_pool3/3x3_s2_0_split_2
I0902 17:38:07.960400 54235 net.cpp:433] inception_4a/5x5_reduce -> inception_4a/5x5_reduce
I0902 17:38:07.965508 54235 net.cpp:155] Setting up inception_4a/5x5_reduce
I0902 17:38:07.965543 54235 net.cpp:163] Top shape: 32 16 14 14 (100352)
I0902 17:38:07.965561 54235 layer_factory.hpp:76] Creating layer inception_4a/relu_5x5_reduce
I0902 17:38:07.965581 54235 net.cpp:110] Creating Layer inception_4a/relu_5x5_reduce
I0902 17:38:07.965594 54235 net.cpp:477] inception_4a/relu_5x5_reduce <- inception_4a/5x5_reduce
I0902 17:38:07.965606 54235 net.cpp:419] inception_4a/relu_5x5_reduce -> inception_4a/5x5_reduce (in-place)
I0902 17:38:07.967157 54235 net.cpp:155] Setting up inception_4a/relu_5x5_reduce
I0902 17:38:07.967190 54235 net.cpp:163] Top shape: 32 16 14 14 (100352)
I0902 17:38:07.967201 54235 layer_factory.hpp:76] Creating layer inception_4a/5x5
I0902 17:38:07.967226 54235 net.cpp:110] Creating Layer inception_4a/5x5
I0902 17:38:07.967236 54235 net.cpp:477] inception_4a/5x5 <- inception_4a/5x5_reduce
I0902 17:38:07.967255 54235 net.cpp:433] inception_4a/5x5 -> inception_4a/5x5
I0902 17:38:07.973165 54235 net.cpp:155] Setting up inception_4a/5x5
I0902 17:38:07.973198 54235 net.cpp:163] Top shape: 32 48 14 14 (301056)
I0902 17:38:07.973217 54235 layer_factory.hpp:76] Creating layer inception_4a/relu_5x5
I0902 17:38:07.973237 54235 net.cpp:110] Creating Layer inception_4a/relu_5x5
I0902 17:38:07.973248 54235 net.cpp:477] inception_4a/relu_5x5 <- inception_4a/5x5
I0902 17:38:07.973263 54235 net.cpp:419] inception_4a/relu_5x5 -> inception_4a/5x5 (in-place)
I0902 17:38:07.974846 54235 net.cpp:155] Setting up inception_4a/relu_5x5
I0902 17:38:07.974879 54235 net.cpp:163] Top shape: 32 48 14 14 (301056)
I0902 17:38:07.974890 54235 layer_factory.hpp:76] Creating layer inception_4a/pool
I0902 17:38:07.974903 54235 layer_factory.cpp:60] CUDNN does not support padding or multiple tops. Using Caffe's own pooling layer.
I0902 17:38:07.974941 54235 net.cpp:110] Creating Layer inception_4a/pool
I0902 17:38:07.974953 54235 net.cpp:477] inception_4a/pool <- pool3/3x3_s2_pool3/3x3_s2_0_split_3
I0902 17:38:07.974974 54235 net.cpp:433] inception_4a/pool -> inception_4a/pool
I0902 17:38:07.974998 54235 net.cpp:155] Setting up inception_4a/pool
I0902 17:38:07.975011 54235 net.cpp:163] Top shape: 32 480 14 14 (3010560)
I0902 17:38:07.975020 54235 layer_factory.hpp:76] Creating layer inception_4a/pool_proj
I0902 17:38:07.975041 54235 net.cpp:110] Creating Layer inception_4a/pool_proj
I0902 17:38:07.975050 54235 net.cpp:477] inception_4a/pool_proj <- inception_4a/pool
I0902 17:38:07.975065 54235 net.cpp:433] inception_4a/pool_proj -> inception_4a/pool_proj
I0902 17:38:07.981348 54235 net.cpp:155] Setting up inception_4a/pool_proj
I0902 17:38:07.981380 54235 net.cpp:163] Top shape: 32 64 14 14 (401408)
I0902 17:38:07.981398 54235 layer_factory.hpp:76] Creating layer inception_4a/relu_pool_proj
I0902 17:38:07.981415 54235 net.cpp:110] Creating Layer inception_4a/relu_pool_proj
I0902 17:38:07.981426 54235 net.cpp:477] inception_4a/relu_pool_proj <- inception_4a/pool_proj
I0902 17:38:07.981443 54235 net.cpp:419] inception_4a/relu_pool_proj -> inception_4a/pool_proj (in-place)
I0902 17:38:07.986984 54235 net.cpp:155] Setting up inception_4a/relu_pool_proj
I0902 17:38:07.987016 54235 net.cpp:163] Top shape: 32 64 14 14 (401408)
I0902 17:38:07.987028 54235 layer_factory.hpp:76] Creating layer inception_4a/output
I0902 17:38:07.987048 54235 net.cpp:110] Creating Layer inception_4a/output
I0902 17:38:07.987059 54235 net.cpp:477] inception_4a/output <- inception_4a/1x1
I0902 17:38:07.987071 54235 net.cpp:477] inception_4a/output <- inception_4a/3x3
I0902 17:38:07.987082 54235 net.cpp:477] inception_4a/output <- inception_4a/5x5
I0902 17:38:07.987092 54235 net.cpp:477] inception_4a/output <- inception_4a/pool_proj
I0902 17:38:07.987105 54235 net.cpp:433] inception_4a/output -> inception_4a/output
I0902 17:38:07.987125 54235 net.cpp:155] Setting up inception_4a/output
I0902 17:38:07.987138 54235 net.cpp:163] Top shape: 32 512 14 14 (3211264)
I0902 17:38:07.987146 54235 layer_factory.hpp:76] Creating layer inception_4a/output_inception_4a/output_0_split
I0902 17:38:07.987164 54235 net.cpp:110] Creating Layer inception_4a/output_inception_4a/output_0_split
I0902 17:38:07.987174 54235 net.cpp:477] inception_4a/output_inception_4a/output_0_split <- inception_4a/output
I0902 17:38:07.987188 54235 net.cpp:433] inception_4a/output_inception_4a/output_0_split -> inception_4a/output_inception_4a/output_0_split_0
I0902 17:38:07.987205 54235 net.cpp:433] inception_4a/output_inception_4a/output_0_split -> inception_4a/output_inception_4a/output_0_split_1
I0902 17:38:07.987220 54235 net.cpp:433] inception_4a/output_inception_4a/output_0_split -> inception_4a/output_inception_4a/output_0_split_2
I0902 17:38:07.987234 54235 net.cpp:433] inception_4a/output_inception_4a/output_0_split -> inception_4a/output_inception_4a/output_0_split_3
I0902 17:38:07.987248 54235 net.cpp:433] inception_4a/output_inception_4a/output_0_split -> inception_4a/output_inception_4a/output_0_split_4
I0902 17:38:07.987265 54235 net.cpp:155] Setting up inception_4a/output_inception_4a/output_0_split
I0902 17:38:07.987280 54235 net.cpp:163] Top shape: 32 512 14 14 (3211264)
I0902 17:38:07.987293 54235 net.cpp:163] Top shape: 32 512 14 14 (3211264)
I0902 17:38:07.987303 54235 net.cpp:163] Top shape: 32 512 14 14 (3211264)
I0902 17:38:07.987313 54235 net.cpp:163] Top shape: 32 512 14 14 (3211264)
I0902 17:38:07.987321 54235 net.cpp:163] Top shape: 32 512 14 14 (3211264)
I0902 17:38:07.987330 54235 layer_factory.hpp:76] Creating layer loss1/ave_pool
I0902 17:38:07.987344 54235 net.cpp:110] Creating Layer loss1/ave_pool
I0902 17:38:07.987354 54235 net.cpp:477] loss1/ave_pool <- inception_4a/output_inception_4a/output_0_split_0
I0902 17:38:07.987370 54235 net.cpp:433] loss1/ave_pool -> loss1/ave_pool
I0902 17:38:07.991849 54235 net.cpp:155] Setting up loss1/ave_pool
I0902 17:38:07.991905 54235 net.cpp:163] Top shape: 32 512 4 4 (262144)
I0902 17:38:07.991919 54235 layer_factory.hpp:76] Creating layer loss1/conv
I0902 17:38:07.991940 54235 net.cpp:110] Creating Layer loss1/conv
I0902 17:38:07.991951 54235 net.cpp:477] loss1/conv <- loss1/ave_pool
I0902 17:38:07.991971 54235 net.cpp:433] loss1/conv -> loss1/conv
I0902 17:38:08.009212 54235 net.cpp:155] Setting up loss1/conv
I0902 17:38:08.009245 54235 net.cpp:163] Top shape: 32 128 4 4 (65536)
I0902 17:38:08.009264 54235 layer_factory.hpp:76] Creating layer loss1/relu_conv
I0902 17:38:08.009284 54235 net.cpp:110] Creating Layer loss1/relu_conv
I0902 17:38:08.009295 54235 net.cpp:477] loss1/relu_conv <- loss1/conv
I0902 17:38:08.009309 54235 net.cpp:419] loss1/relu_conv -> loss1/conv (in-place)
I0902 17:38:08.015604 54235 net.cpp:155] Setting up loss1/relu_conv
I0902 17:38:08.015636 54235 net.cpp:163] Top shape: 32 128 4 4 (65536)
I0902 17:38:08.015648 54235 layer_factory.hpp:76] Creating layer loss1/fc
I0902 17:38:08.015678 54235 net.cpp:110] Creating Layer loss1/fc
I0902 17:38:08.015689 54235 net.cpp:477] loss1/fc <- loss1/conv
I0902 17:38:08.015704 54235 net.cpp:433] loss1/fc -> loss1/fc
I0902 17:38:08.054400 54235 net.cpp:155] Setting up loss1/fc
I0902 17:38:08.054433 54235 net.cpp:163] Top shape: 32 1024 (32768)
I0902 17:38:08.054452 54235 layer_factory.hpp:76] Creating layer loss1/relu_fc
I0902 17:38:08.054471 54235 net.cpp:110] Creating Layer loss1/relu_fc
I0902 17:38:08.054482 54235 net.cpp:477] loss1/relu_fc <- loss1/fc
I0902 17:38:08.054496 54235 net.cpp:419] loss1/relu_fc -> loss1/fc (in-place)
I0902 17:38:08.056097 54235 net.cpp:155] Setting up loss1/relu_fc
I0902 17:38:08.056128 54235 net.cpp:163] Top shape: 32 1024 (32768)
I0902 17:38:08.056141 54235 layer_factory.hpp:76] Creating layer loss1/drop_fc
I0902 17:38:08.056180 54235 net.cpp:110] Creating Layer loss1/drop_fc
I0902 17:38:08.056191 54235 net.cpp:477] loss1/drop_fc <- loss1/fc
I0902 17:38:08.056212 54235 net.cpp:419] loss1/drop_fc -> loss1/fc (in-place)
I0902 17:38:08.056242 54235 net.cpp:155] Setting up loss1/drop_fc
I0902 17:38:08.056255 54235 net.cpp:163] Top shape: 32 1024 (32768)
I0902 17:38:08.056265 54235 layer_factory.hpp:76] Creating layer loss1/classifier_cub
I0902 17:38:08.056282 54235 net.cpp:110] Creating Layer loss1/classifier_cub
I0902 17:38:08.056289 54235 net.cpp:477] loss1/classifier_cub <- loss1/fc
I0902 17:38:08.056308 54235 net.cpp:433] loss1/classifier_cub -> loss1/classifier
I0902 17:38:08.071832 54235 net.cpp:155] Setting up loss1/classifier_cub
I0902 17:38:08.071862 54235 net.cpp:163] Top shape: 32 200 (6400)
I0902 17:38:08.071882 54235 layer_factory.hpp:76] Creating layer loss1/loss
I0902 17:38:08.071902 54235 net.cpp:110] Creating Layer loss1/loss
I0902 17:38:08.071913 54235 net.cpp:477] loss1/loss <- loss1/classifier
I0902 17:38:08.071925 54235 net.cpp:477] loss1/loss <- label_data_1_split_0
I0902 17:38:08.071939 54235 net.cpp:433] loss1/loss -> loss1/loss1
I0902 17:38:08.071970 54235 layer_factory.hpp:76] Creating layer loss1/loss
I0902 17:38:08.080452 54235 net.cpp:155] Setting up loss1/loss
I0902 17:38:08.080484 54235 net.cpp:163] Top shape: (1)
I0902 17:38:08.080494 54235 net.cpp:168]     with loss weight 0.3
I0902 17:38:08.080538 54235 layer_factory.hpp:76] Creating layer inception_4b/1x1
I0902 17:38:08.080560 54235 net.cpp:110] Creating Layer inception_4b/1x1
I0902 17:38:08.080571 54235 net.cpp:477] inception_4b/1x1 <- inception_4a/output_inception_4a/output_0_split_1
I0902 17:38:08.080587 54235 net.cpp:433] inception_4b/1x1 -> inception_4b/1x1
I0902 17:38:08.087388 54235 net.cpp:155] Setting up inception_4b/1x1
I0902 17:38:08.087421 54235 net.cpp:163] Top shape: 32 160 14 14 (1003520)
I0902 17:38:08.087441 54235 layer_factory.hpp:76] Creating layer inception_4b/relu_1x1
I0902 17:38:08.087458 54235 net.cpp:110] Creating Layer inception_4b/relu_1x1
I0902 17:38:08.087468 54235 net.cpp:477] inception_4b/relu_1x1 <- inception_4b/1x1
I0902 17:38:08.087482 54235 net.cpp:419] inception_4b/relu_1x1 -> inception_4b/1x1 (in-place)
I0902 17:38:08.113801 54235 net.cpp:155] Setting up inception_4b/relu_1x1
I0902 17:38:08.113842 54235 net.cpp:163] Top shape: 32 160 14 14 (1003520)
I0902 17:38:08.113853 54235 layer_factory.hpp:76] Creating layer inception_4b/3x3_reduce
I0902 17:38:08.113878 54235 net.cpp:110] Creating Layer inception_4b/3x3_reduce
I0902 17:38:08.113888 54235 net.cpp:477] inception_4b/3x3_reduce <- inception_4a/output_inception_4a/output_0_split_2
I0902 17:38:08.113903 54235 net.cpp:433] inception_4b/3x3_reduce -> inception_4b/3x3_reduce
I0902 17:38:08.120937 54235 net.cpp:155] Setting up inception_4b/3x3_reduce
I0902 17:38:08.120972 54235 net.cpp:163] Top shape: 32 112 14 14 (702464)
I0902 17:38:08.120991 54235 layer_factory.hpp:76] Creating layer inception_4b/relu_3x3_reduce
I0902 17:38:08.121007 54235 net.cpp:110] Creating Layer inception_4b/relu_3x3_reduce
I0902 17:38:08.121018 54235 net.cpp:477] inception_4b/relu_3x3_reduce <- inception_4b/3x3_reduce
I0902 17:38:08.121037 54235 net.cpp:419] inception_4b/relu_3x3_reduce -> inception_4b/3x3_reduce (in-place)
I0902 17:38:08.122540 54235 net.cpp:155] Setting up inception_4b/relu_3x3_reduce
I0902 17:38:08.122566 54235 net.cpp:163] Top shape: 32 112 14 14 (702464)
I0902 17:38:08.122575 54235 layer_factory.hpp:76] Creating layer inception_4b/3x3
I0902 17:38:08.122589 54235 net.cpp:110] Creating Layer inception_4b/3x3
I0902 17:38:08.122597 54235 net.cpp:477] inception_4b/3x3 <- inception_4b/3x3_reduce
I0902 17:38:08.122609 54235 net.cpp:433] inception_4b/3x3 -> inception_4b/3x3
I0902 17:38:08.128213 54235 net.cpp:155] Setting up inception_4b/3x3
I0902 17:38:08.128237 54235 net.cpp:163] Top shape: 32 224 14 14 (1404928)
I0902 17:38:08.128247 54235 layer_factory.hpp:76] Creating layer inception_4b/relu_3x3
I0902 17:38:08.128257 54235 net.cpp:110] Creating Layer inception_4b/relu_3x3
I0902 17:38:08.128263 54235 net.cpp:477] inception_4b/relu_3x3 <- inception_4b/3x3
I0902 17:38:08.128271 54235 net.cpp:419] inception_4b/relu_3x3 -> inception_4b/3x3 (in-place)
I0902 17:38:08.129200 54235 net.cpp:155] Setting up inception_4b/relu_3x3
I0902 17:38:08.129218 54235 net.cpp:163] Top shape: 32 224 14 14 (1404928)
I0902 17:38:08.129225 54235 layer_factory.hpp:76] Creating layer inception_4b/5x5_reduce
I0902 17:38:08.129238 54235 net.cpp:110] Creating Layer inception_4b/5x5_reduce
I0902 17:38:08.129246 54235 net.cpp:477] inception_4b/5x5_reduce <- inception_4a/output_inception_4a/output_0_split_3
I0902 17:38:08.129254 54235 net.cpp:433] inception_4b/5x5_reduce -> inception_4b/5x5_reduce
I0902 17:38:08.132257 54235 net.cpp:155] Setting up inception_4b/5x5_reduce
I0902 17:38:08.132277 54235 net.cpp:163] Top shape: 32 24 14 14 (150528)
I0902 17:38:08.132287 54235 layer_factory.hpp:76] Creating layer inception_4b/relu_5x5_reduce
I0902 17:38:08.132299 54235 net.cpp:110] Creating Layer inception_4b/relu_5x5_reduce
I0902 17:38:08.132307 54235 net.cpp:477] inception_4b/relu_5x5_reduce <- inception_4b/5x5_reduce
I0902 17:38:08.132313 54235 net.cpp:419] inception_4b/relu_5x5_reduce -> inception_4b/5x5_reduce (in-place)
I0902 17:38:08.133371 54235 net.cpp:155] Setting up inception_4b/relu_5x5_reduce
I0902 17:38:08.133388 54235 net.cpp:163] Top shape: 32 24 14 14 (150528)
I0902 17:38:08.133395 54235 layer_factory.hpp:76] Creating layer inception_4b/5x5
I0902 17:38:08.133407 54235 net.cpp:110] Creating Layer inception_4b/5x5
I0902 17:38:08.133414 54235 net.cpp:477] inception_4b/5x5 <- inception_4b/5x5_reduce
I0902 17:38:08.133424 54235 net.cpp:433] inception_4b/5x5 -> inception_4b/5x5
I0902 17:38:08.136662 54235 net.cpp:155] Setting up inception_4b/5x5
I0902 17:38:08.136680 54235 net.cpp:163] Top shape: 32 64 14 14 (401408)
I0902 17:38:08.136693 54235 layer_factory.hpp:76] Creating layer inception_4b/relu_5x5
I0902 17:38:08.136703 54235 net.cpp:110] Creating Layer inception_4b/relu_5x5
I0902 17:38:08.136709 54235 net.cpp:477] inception_4b/relu_5x5 <- inception_4b/5x5
I0902 17:38:08.136716 54235 net.cpp:419] inception_4b/relu_5x5 -> inception_4b/5x5 (in-place)
I0902 17:38:08.137651 54235 net.cpp:155] Setting up inception_4b/relu_5x5
I0902 17:38:08.137688 54235 net.cpp:163] Top shape: 32 64 14 14 (401408)
I0902 17:38:08.137696 54235 layer_factory.hpp:76] Creating layer inception_4b/pool
I0902 17:38:08.137701 54235 layer_factory.cpp:60] CUDNN does not support padding or multiple tops. Using Caffe's own pooling layer.
I0902 17:38:08.137708 54235 net.cpp:110] Creating Layer inception_4b/pool
I0902 17:38:08.137714 54235 net.cpp:477] inception_4b/pool <- inception_4a/output_inception_4a/output_0_split_4
I0902 17:38:08.137727 54235 net.cpp:433] inception_4b/pool -> inception_4b/pool
I0902 17:38:08.137750 54235 net.cpp:155] Setting up inception_4b/pool
I0902 17:38:08.137761 54235 net.cpp:163] Top shape: 32 512 14 14 (3211264)
I0902 17:38:08.137768 54235 layer_factory.hpp:76] Creating layer inception_4b/pool_proj
I0902 17:38:08.137778 54235 net.cpp:110] Creating Layer inception_4b/pool_proj
I0902 17:38:08.137784 54235 net.cpp:477] inception_4b/pool_proj <- inception_4b/pool
I0902 17:38:08.137791 54235 net.cpp:433] inception_4b/pool_proj -> inception_4b/pool_proj
I0902 17:38:08.141175 54235 net.cpp:155] Setting up inception_4b/pool_proj
I0902 17:38:08.141193 54235 net.cpp:163] Top shape: 32 64 14 14 (401408)
I0902 17:38:08.141204 54235 layer_factory.hpp:76] Creating layer inception_4b/relu_pool_proj
I0902 17:38:08.141212 54235 net.cpp:110] Creating Layer inception_4b/relu_pool_proj
I0902 17:38:08.141221 54235 net.cpp:477] inception_4b/relu_pool_proj <- inception_4b/pool_proj
I0902 17:38:08.141230 54235 net.cpp:419] inception_4b/relu_pool_proj -> inception_4b/pool_proj (in-place)
I0902 17:38:08.142194 54235 net.cpp:155] Setting up inception_4b/relu_pool_proj
I0902 17:38:08.142212 54235 net.cpp:163] Top shape: 32 64 14 14 (401408)
I0902 17:38:08.142220 54235 layer_factory.hpp:76] Creating layer inception_4b/output
I0902 17:38:08.142230 54235 net.cpp:110] Creating Layer inception_4b/output
I0902 17:38:08.142236 54235 net.cpp:477] inception_4b/output <- inception_4b/1x1
I0902 17:38:08.142243 54235 net.cpp:477] inception_4b/output <- inception_4b/3x3
I0902 17:38:08.142249 54235 net.cpp:477] inception_4b/output <- inception_4b/5x5
I0902 17:38:08.142256 54235 net.cpp:477] inception_4b/output <- inception_4b/pool_proj
I0902 17:38:08.142261 54235 net.cpp:433] inception_4b/output -> inception_4b/output
I0902 17:38:08.142272 54235 net.cpp:155] Setting up inception_4b/output
I0902 17:38:08.142279 54235 net.cpp:163] Top shape: 32 512 14 14 (3211264)
I0902 17:38:08.142284 54235 layer_factory.hpp:76] Creating layer inception_4b/output_inception_4b/output_0_split
I0902 17:38:08.142294 54235 net.cpp:110] Creating Layer inception_4b/output_inception_4b/output_0_split
I0902 17:38:08.142299 54235 net.cpp:477] inception_4b/output_inception_4b/output_0_split <- inception_4b/output
I0902 17:38:08.142307 54235 net.cpp:433] inception_4b/output_inception_4b/output_0_split -> inception_4b/output_inception_4b/output_0_split_0
I0902 17:38:08.142315 54235 net.cpp:433] inception_4b/output_inception_4b/output_0_split -> inception_4b/output_inception_4b/output_0_split_1
I0902 17:38:08.142323 54235 net.cpp:433] inception_4b/output_inception_4b/output_0_split -> inception_4b/output_inception_4b/output_0_split_2
I0902 17:38:08.142331 54235 net.cpp:433] inception_4b/output_inception_4b/output_0_split -> inception_4b/output_inception_4b/output_0_split_3
I0902 17:38:08.142339 54235 net.cpp:155] Setting up inception_4b/output_inception_4b/output_0_split
I0902 17:38:08.142345 54235 net.cpp:163] Top shape: 32 512 14 14 (3211264)
I0902 17:38:08.142350 54235 net.cpp:163] Top shape: 32 512 14 14 (3211264)
I0902 17:38:08.142355 54235 net.cpp:163] Top shape: 32 512 14 14 (3211264)
I0902 17:38:08.142360 54235 net.cpp:163] Top shape: 32 512 14 14 (3211264)
I0902 17:38:08.142365 54235 layer_factory.hpp:76] Creating layer inception_4c/1x1
I0902 17:38:08.142376 54235 net.cpp:110] Creating Layer inception_4c/1x1
I0902 17:38:08.142381 54235 net.cpp:477] inception_4c/1x1 <- inception_4b/output_inception_4b/output_0_split_0
I0902 17:38:08.142391 54235 net.cpp:433] inception_4c/1x1 -> inception_4c/1x1
I0902 17:38:08.146044 54235 net.cpp:155] Setting up inception_4c/1x1
I0902 17:38:08.146064 54235 net.cpp:163] Top shape: 32 128 14 14 (802816)
I0902 17:38:08.146073 54235 layer_factory.hpp:76] Creating layer inception_4c/relu_1x1
I0902 17:38:08.146085 54235 net.cpp:110] Creating Layer inception_4c/relu_1x1
I0902 17:38:08.146091 54235 net.cpp:477] inception_4c/relu_1x1 <- inception_4c/1x1
I0902 17:38:08.146098 54235 net.cpp:419] inception_4c/relu_1x1 -> inception_4c/1x1 (in-place)
I0902 17:38:08.147047 54235 net.cpp:155] Setting up inception_4c/relu_1x1
I0902 17:38:08.147064 54235 net.cpp:163] Top shape: 32 128 14 14 (802816)
I0902 17:38:08.147070 54235 layer_factory.hpp:76] Creating layer inception_4c/3x3_reduce
I0902 17:38:08.147083 54235 net.cpp:110] Creating Layer inception_4c/3x3_reduce
I0902 17:38:08.147091 54235 net.cpp:477] inception_4c/3x3_reduce <- inception_4b/output_inception_4b/output_0_split_1
I0902 17:38:08.147101 54235 net.cpp:433] inception_4c/3x3_reduce -> inception_4c/3x3_reduce
I0902 17:38:08.150830 54235 net.cpp:155] Setting up inception_4c/3x3_reduce
I0902 17:38:08.150849 54235 net.cpp:163] Top shape: 32 128 14 14 (802816)
I0902 17:38:08.150861 54235 layer_factory.hpp:76] Creating layer inception_4c/relu_3x3_reduce
I0902 17:38:08.150869 54235 net.cpp:110] Creating Layer inception_4c/relu_3x3_reduce
I0902 17:38:08.150877 54235 net.cpp:477] inception_4c/relu_3x3_reduce <- inception_4c/3x3_reduce
I0902 17:38:08.150884 54235 net.cpp:419] inception_4c/relu_3x3_reduce -> inception_4c/3x3_reduce (in-place)
I0902 17:38:08.151752 54235 net.cpp:155] Setting up inception_4c/relu_3x3_reduce
I0902 17:38:08.151770 54235 net.cpp:163] Top shape: 32 128 14 14 (802816)
I0902 17:38:08.151777 54235 layer_factory.hpp:76] Creating layer inception_4c/3x3
I0902 17:38:08.151789 54235 net.cpp:110] Creating Layer inception_4c/3x3
I0902 17:38:08.151795 54235 net.cpp:477] inception_4c/3x3 <- inception_4c/3x3_reduce
I0902 17:38:08.151803 54235 net.cpp:433] inception_4c/3x3 -> inception_4c/3x3
I0902 17:38:08.158279 54235 net.cpp:155] Setting up inception_4c/3x3
I0902 17:38:08.158299 54235 net.cpp:163] Top shape: 32 256 14 14 (1605632)
I0902 17:38:08.158330 54235 layer_factory.hpp:76] Creating layer inception_4c/relu_3x3
I0902 17:38:08.158340 54235 net.cpp:110] Creating Layer inception_4c/relu_3x3
I0902 17:38:08.158346 54235 net.cpp:477] inception_4c/relu_3x3 <- inception_4c/3x3
I0902 17:38:08.158354 54235 net.cpp:419] inception_4c/relu_3x3 -> inception_4c/3x3 (in-place)
I0902 17:38:08.159312 54235 net.cpp:155] Setting up inception_4c/relu_3x3
I0902 17:38:08.159330 54235 net.cpp:163] Top shape: 32 256 14 14 (1605632)
I0902 17:38:08.159337 54235 layer_factory.hpp:76] Creating layer inception_4c/5x5_reduce
I0902 17:38:08.159350 54235 net.cpp:110] Creating Layer inception_4c/5x5_reduce
I0902 17:38:08.159356 54235 net.cpp:477] inception_4c/5x5_reduce <- inception_4b/output_inception_4b/output_0_split_2
I0902 17:38:08.159368 54235 net.cpp:433] inception_4c/5x5_reduce -> inception_4c/5x5_reduce
I0902 17:38:08.162608 54235 net.cpp:155] Setting up inception_4c/5x5_reduce
I0902 17:38:08.162627 54235 net.cpp:163] Top shape: 32 24 14 14 (150528)
I0902 17:38:08.162638 54235 layer_factory.hpp:76] Creating layer inception_4c/relu_5x5_reduce
I0902 17:38:08.162649 54235 net.cpp:110] Creating Layer inception_4c/relu_5x5_reduce
I0902 17:38:08.162657 54235 net.cpp:477] inception_4c/relu_5x5_reduce <- inception_4c/5x5_reduce
I0902 17:38:08.162663 54235 net.cpp:419] inception_4c/relu_5x5_reduce -> inception_4c/5x5_reduce (in-place)
I0902 17:38:08.163636 54235 net.cpp:155] Setting up inception_4c/relu_5x5_reduce
I0902 17:38:08.163653 54235 net.cpp:163] Top shape: 32 24 14 14 (150528)
I0902 17:38:08.163661 54235 layer_factory.hpp:76] Creating layer inception_4c/5x5
I0902 17:38:08.163673 54235 net.cpp:110] Creating Layer inception_4c/5x5
I0902 17:38:08.163679 54235 net.cpp:477] inception_4c/5x5 <- inception_4c/5x5_reduce
I0902 17:38:08.163687 54235 net.cpp:433] inception_4c/5x5 -> inception_4c/5x5
I0902 17:38:08.167806 54235 net.cpp:155] Setting up inception_4c/5x5
I0902 17:38:08.167840 54235 net.cpp:163] Top shape: 32 64 14 14 (401408)
I0902 17:38:08.167851 54235 layer_factory.hpp:76] Creating layer inception_4c/relu_5x5
I0902 17:38:08.167860 54235 net.cpp:110] Creating Layer inception_4c/relu_5x5
I0902 17:38:08.167866 54235 net.cpp:477] inception_4c/relu_5x5 <- inception_4c/5x5
I0902 17:38:08.167873 54235 net.cpp:419] inception_4c/relu_5x5 -> inception_4c/5x5 (in-place)
I0902 17:38:08.168843 54235 net.cpp:155] Setting up inception_4c/relu_5x5
I0902 17:38:08.168859 54235 net.cpp:163] Top shape: 32 64 14 14 (401408)
I0902 17:38:08.168866 54235 layer_factory.hpp:76] Creating layer inception_4c/pool
I0902 17:38:08.168872 54235 layer_factory.cpp:60] CUDNN does not support padding or multiple tops. Using Caffe's own pooling layer.
I0902 17:38:08.168882 54235 net.cpp:110] Creating Layer inception_4c/pool
I0902 17:38:08.168889 54235 net.cpp:477] inception_4c/pool <- inception_4b/output_inception_4b/output_0_split_3
I0902 17:38:08.168896 54235 net.cpp:433] inception_4c/pool -> inception_4c/pool
I0902 17:38:08.168908 54235 net.cpp:155] Setting up inception_4c/pool
I0902 17:38:08.168915 54235 net.cpp:163] Top shape: 32 512 14 14 (3211264)
I0902 17:38:08.168920 54235 layer_factory.hpp:76] Creating layer inception_4c/pool_proj
I0902 17:38:08.168931 54235 net.cpp:110] Creating Layer inception_4c/pool_proj
I0902 17:38:08.168936 54235 net.cpp:477] inception_4c/pool_proj <- inception_4c/pool
I0902 17:38:08.168946 54235 net.cpp:433] inception_4c/pool_proj -> inception_4c/pool_proj
I0902 17:38:08.172245 54235 net.cpp:155] Setting up inception_4c/pool_proj
I0902 17:38:08.172263 54235 net.cpp:163] Top shape: 32 64 14 14 (401408)
I0902 17:38:08.172273 54235 layer_factory.hpp:76] Creating layer inception_4c/relu_pool_proj
I0902 17:38:08.172286 54235 net.cpp:110] Creating Layer inception_4c/relu_pool_proj
I0902 17:38:08.172291 54235 net.cpp:477] inception_4c/relu_pool_proj <- inception_4c/pool_proj
I0902 17:38:08.172299 54235 net.cpp:419] inception_4c/relu_pool_proj -> inception_4c/pool_proj (in-place)
I0902 17:38:08.173276 54235 net.cpp:155] Setting up inception_4c/relu_pool_proj
I0902 17:38:08.173293 54235 net.cpp:163] Top shape: 32 64 14 14 (401408)
I0902 17:38:08.173300 54235 layer_factory.hpp:76] Creating layer inception_4c/output
I0902 17:38:08.173308 54235 net.cpp:110] Creating Layer inception_4c/output
I0902 17:38:08.173315 54235 net.cpp:477] inception_4c/output <- inception_4c/1x1
I0902 17:38:08.173321 54235 net.cpp:477] inception_4c/output <- inception_4c/3x3
I0902 17:38:08.173327 54235 net.cpp:477] inception_4c/output <- inception_4c/5x5
I0902 17:38:08.173332 54235 net.cpp:477] inception_4c/output <- inception_4c/pool_proj
I0902 17:38:08.173339 54235 net.cpp:433] inception_4c/output -> inception_4c/output
I0902 17:38:08.173349 54235 net.cpp:155] Setting up inception_4c/output
I0902 17:38:08.173357 54235 net.cpp:163] Top shape: 32 512 14 14 (3211264)
I0902 17:38:08.173362 54235 layer_factory.hpp:76] Creating layer inception_4c/output_inception_4c/output_0_split
I0902 17:38:08.173372 54235 net.cpp:110] Creating Layer inception_4c/output_inception_4c/output_0_split
I0902 17:38:08.173377 54235 net.cpp:477] inception_4c/output_inception_4c/output_0_split <- inception_4c/output
I0902 17:38:08.173384 54235 net.cpp:433] inception_4c/output_inception_4c/output_0_split -> inception_4c/output_inception_4c/output_0_split_0
I0902 17:38:08.173395 54235 net.cpp:433] inception_4c/output_inception_4c/output_0_split -> inception_4c/output_inception_4c/output_0_split_1
I0902 17:38:08.173404 54235 net.cpp:433] inception_4c/output_inception_4c/output_0_split -> inception_4c/output_inception_4c/output_0_split_2
I0902 17:38:08.173413 54235 net.cpp:433] inception_4c/output_inception_4c/output_0_split -> inception_4c/output_inception_4c/output_0_split_3
I0902 17:38:08.173420 54235 net.cpp:155] Setting up inception_4c/output_inception_4c/output_0_split
I0902 17:38:08.173426 54235 net.cpp:163] Top shape: 32 512 14 14 (3211264)
I0902 17:38:08.173431 54235 net.cpp:163] Top shape: 32 512 14 14 (3211264)
I0902 17:38:08.173451 54235 net.cpp:163] Top shape: 32 512 14 14 (3211264)
I0902 17:38:08.173457 54235 net.cpp:163] Top shape: 32 512 14 14 (3211264)
I0902 17:38:08.173462 54235 layer_factory.hpp:76] Creating layer inception_4d/1x1
I0902 17:38:08.173475 54235 net.cpp:110] Creating Layer inception_4d/1x1
I0902 17:38:08.173481 54235 net.cpp:477] inception_4d/1x1 <- inception_4c/output_inception_4c/output_0_split_0
I0902 17:38:08.173488 54235 net.cpp:433] inception_4d/1x1 -> inception_4d/1x1
I0902 17:38:08.177142 54235 net.cpp:155] Setting up inception_4d/1x1
I0902 17:38:08.177162 54235 net.cpp:163] Top shape: 32 112 14 14 (702464)
I0902 17:38:08.177172 54235 layer_factory.hpp:76] Creating layer inception_4d/relu_1x1
I0902 17:38:08.177184 54235 net.cpp:110] Creating Layer inception_4d/relu_1x1
I0902 17:38:08.177191 54235 net.cpp:477] inception_4d/relu_1x1 <- inception_4d/1x1
I0902 17:38:08.177201 54235 net.cpp:419] inception_4d/relu_1x1 -> inception_4d/1x1 (in-place)
I0902 17:38:08.178199 54235 net.cpp:155] Setting up inception_4d/relu_1x1
I0902 17:38:08.178217 54235 net.cpp:163] Top shape: 32 112 14 14 (702464)
I0902 17:38:08.178223 54235 layer_factory.hpp:76] Creating layer inception_4d/3x3_reduce
I0902 17:38:08.178236 54235 net.cpp:110] Creating Layer inception_4d/3x3_reduce
I0902 17:38:08.178244 54235 net.cpp:477] inception_4d/3x3_reduce <- inception_4c/output_inception_4c/output_0_split_1
I0902 17:38:08.178256 54235 net.cpp:433] inception_4d/3x3_reduce -> inception_4d/3x3_reduce
I0902 17:38:08.182090 54235 net.cpp:155] Setting up inception_4d/3x3_reduce
I0902 17:38:08.182109 54235 net.cpp:163] Top shape: 32 144 14 14 (903168)
I0902 17:38:08.182119 54235 layer_factory.hpp:76] Creating layer inception_4d/relu_3x3_reduce
I0902 17:38:08.182134 54235 net.cpp:110] Creating Layer inception_4d/relu_3x3_reduce
I0902 17:38:08.182142 54235 net.cpp:477] inception_4d/relu_3x3_reduce <- inception_4d/3x3_reduce
I0902 17:38:08.182149 54235 net.cpp:419] inception_4d/relu_3x3_reduce -> inception_4d/3x3_reduce (in-place)
I0902 17:38:08.183125 54235 net.cpp:155] Setting up inception_4d/relu_3x3_reduce
I0902 17:38:08.183142 54235 net.cpp:163] Top shape: 32 144 14 14 (903168)
I0902 17:38:08.183148 54235 layer_factory.hpp:76] Creating layer inception_4d/3x3
I0902 17:38:08.183161 54235 net.cpp:110] Creating Layer inception_4d/3x3
I0902 17:38:08.183167 54235 net.cpp:477] inception_4d/3x3 <- inception_4d/3x3_reduce
I0902 17:38:08.183176 54235 net.cpp:433] inception_4d/3x3 -> inception_4d/3x3
I0902 17:38:08.190215 54235 net.cpp:155] Setting up inception_4d/3x3
I0902 17:38:08.190234 54235 net.cpp:163] Top shape: 32 288 14 14 (1806336)
I0902 17:38:08.190244 54235 layer_factory.hpp:76] Creating layer inception_4d/relu_3x3
I0902 17:38:08.190256 54235 net.cpp:110] Creating Layer inception_4d/relu_3x3
I0902 17:38:08.190263 54235 net.cpp:477] inception_4d/relu_3x3 <- inception_4d/3x3
I0902 17:38:08.190270 54235 net.cpp:419] inception_4d/relu_3x3 -> inception_4d/3x3 (in-place)
I0902 17:38:08.191395 54235 net.cpp:155] Setting up inception_4d/relu_3x3
I0902 17:38:08.191412 54235 net.cpp:163] Top shape: 32 288 14 14 (1806336)
I0902 17:38:08.191419 54235 layer_factory.hpp:76] Creating layer inception_4d/5x5_reduce
I0902 17:38:08.191432 54235 net.cpp:110] Creating Layer inception_4d/5x5_reduce
I0902 17:38:08.191440 54235 net.cpp:477] inception_4d/5x5_reduce <- inception_4c/output_inception_4c/output_0_split_2
I0902 17:38:08.191448 54235 net.cpp:433] inception_4d/5x5_reduce -> inception_4d/5x5_reduce
I0902 17:38:08.194712 54235 net.cpp:155] Setting up inception_4d/5x5_reduce
I0902 17:38:08.194732 54235 net.cpp:163] Top shape: 32 32 14 14 (200704)
I0902 17:38:08.194742 54235 layer_factory.hpp:76] Creating layer inception_4d/relu_5x5_reduce
I0902 17:38:08.194753 54235 net.cpp:110] Creating Layer inception_4d/relu_5x5_reduce
I0902 17:38:08.194761 54235 net.cpp:477] inception_4d/relu_5x5_reduce <- inception_4d/5x5_reduce
I0902 17:38:08.194767 54235 net.cpp:419] inception_4d/relu_5x5_reduce -> inception_4d/5x5_reduce (in-place)
I0902 17:38:08.195757 54235 net.cpp:155] Setting up inception_4d/relu_5x5_reduce
I0902 17:38:08.195790 54235 net.cpp:163] Top shape: 32 32 14 14 (200704)
I0902 17:38:08.195797 54235 layer_factory.hpp:76] Creating layer inception_4d/5x5
I0902 17:38:08.195807 54235 net.cpp:110] Creating Layer inception_4d/5x5
I0902 17:38:08.195813 54235 net.cpp:477] inception_4d/5x5 <- inception_4d/5x5_reduce
I0902 17:38:08.195826 54235 net.cpp:433] inception_4d/5x5 -> inception_4d/5x5
I0902 17:38:08.199681 54235 net.cpp:155] Setting up inception_4d/5x5
I0902 17:38:08.199699 54235 net.cpp:163] Top shape: 32 64 14 14 (401408)
I0902 17:38:08.199710 54235 layer_factory.hpp:76] Creating layer inception_4d/relu_5x5
I0902 17:38:08.199722 54235 net.cpp:110] Creating Layer inception_4d/relu_5x5
I0902 17:38:08.199728 54235 net.cpp:477] inception_4d/relu_5x5 <- inception_4d/5x5
I0902 17:38:08.199735 54235 net.cpp:419] inception_4d/relu_5x5 -> inception_4d/5x5 (in-place)
I0902 17:38:08.200738 54235 net.cpp:155] Setting up inception_4d/relu_5x5
I0902 17:38:08.200755 54235 net.cpp:163] Top shape: 32 64 14 14 (401408)
I0902 17:38:08.200762 54235 layer_factory.hpp:76] Creating layer inception_4d/pool
I0902 17:38:08.200768 54235 layer_factory.cpp:60] CUDNN does not support padding or multiple tops. Using Caffe's own pooling layer.
I0902 17:38:08.200778 54235 net.cpp:110] Creating Layer inception_4d/pool
I0902 17:38:08.200785 54235 net.cpp:477] inception_4d/pool <- inception_4c/output_inception_4c/output_0_split_3
I0902 17:38:08.200795 54235 net.cpp:433] inception_4d/pool -> inception_4d/pool
I0902 17:38:08.200808 54235 net.cpp:155] Setting up inception_4d/pool
I0902 17:38:08.200814 54235 net.cpp:163] Top shape: 32 512 14 14 (3211264)
I0902 17:38:08.200819 54235 layer_factory.hpp:76] Creating layer inception_4d/pool_proj
I0902 17:38:08.200829 54235 net.cpp:110] Creating Layer inception_4d/pool_proj
I0902 17:38:08.200834 54235 net.cpp:477] inception_4d/pool_proj <- inception_4d/pool
I0902 17:38:08.200844 54235 net.cpp:433] inception_4d/pool_proj -> inception_4d/pool_proj
I0902 17:38:08.204386 54235 net.cpp:155] Setting up inception_4d/pool_proj
I0902 17:38:08.204406 54235 net.cpp:163] Top shape: 32 64 14 14 (401408)
I0902 17:38:08.204416 54235 layer_factory.hpp:76] Creating layer inception_4d/relu_pool_proj
I0902 17:38:08.204429 54235 net.cpp:110] Creating Layer inception_4d/relu_pool_proj
I0902 17:38:08.204437 54235 net.cpp:477] inception_4d/relu_pool_proj <- inception_4d/pool_proj
I0902 17:38:08.204443 54235 net.cpp:419] inception_4d/relu_pool_proj -> inception_4d/pool_proj (in-place)
I0902 17:38:08.205445 54235 net.cpp:155] Setting up inception_4d/relu_pool_proj
I0902 17:38:08.205462 54235 net.cpp:163] Top shape: 32 64 14 14 (401408)
I0902 17:38:08.205469 54235 layer_factory.hpp:76] Creating layer inception_4d/output
I0902 17:38:08.205477 54235 net.cpp:110] Creating Layer inception_4d/output
I0902 17:38:08.205483 54235 net.cpp:477] inception_4d/output <- inception_4d/1x1
I0902 17:38:08.205492 54235 net.cpp:477] inception_4d/output <- inception_4d/3x3
I0902 17:38:08.205497 54235 net.cpp:477] inception_4d/output <- inception_4d/5x5
I0902 17:38:08.205502 54235 net.cpp:477] inception_4d/output <- inception_4d/pool_proj
I0902 17:38:08.205514 54235 net.cpp:433] inception_4d/output -> inception_4d/output
I0902 17:38:08.205525 54235 net.cpp:155] Setting up inception_4d/output
I0902 17:38:08.205531 54235 net.cpp:163] Top shape: 32 528 14 14 (3311616)
I0902 17:38:08.205536 54235 layer_factory.hpp:76] Creating layer inception_4d/output_inception_4d/output_0_split
I0902 17:38:08.205544 54235 net.cpp:110] Creating Layer inception_4d/output_inception_4d/output_0_split
I0902 17:38:08.205549 54235 net.cpp:477] inception_4d/output_inception_4d/output_0_split <- inception_4d/output
I0902 17:38:08.205559 54235 net.cpp:433] inception_4d/output_inception_4d/output_0_split -> inception_4d/output_inception_4d/output_0_split_0
I0902 17:38:08.205569 54235 net.cpp:433] inception_4d/output_inception_4d/output_0_split -> inception_4d/output_inception_4d/output_0_split_1
I0902 17:38:08.205576 54235 net.cpp:433] inception_4d/output_inception_4d/output_0_split -> inception_4d/output_inception_4d/output_0_split_2
I0902 17:38:08.205600 54235 net.cpp:433] inception_4d/output_inception_4d/output_0_split -> inception_4d/output_inception_4d/output_0_split_3
I0902 17:38:08.205608 54235 net.cpp:433] inception_4d/output_inception_4d/output_0_split -> inception_4d/output_inception_4d/output_0_split_4
I0902 17:38:08.205617 54235 net.cpp:155] Setting up inception_4d/output_inception_4d/output_0_split
I0902 17:38:08.205624 54235 net.cpp:163] Top shape: 32 528 14 14 (3311616)
I0902 17:38:08.205629 54235 net.cpp:163] Top shape: 32 528 14 14 (3311616)
I0902 17:38:08.205634 54235 net.cpp:163] Top shape: 32 528 14 14 (3311616)
I0902 17:38:08.205639 54235 net.cpp:163] Top shape: 32 528 14 14 (3311616)
I0902 17:38:08.205644 54235 net.cpp:163] Top shape: 32 528 14 14 (3311616)
I0902 17:38:08.205649 54235 layer_factory.hpp:76] Creating layer loss2/ave_pool
I0902 17:38:08.205660 54235 net.cpp:110] Creating Layer loss2/ave_pool
I0902 17:38:08.205665 54235 net.cpp:477] loss2/ave_pool <- inception_4d/output_inception_4d/output_0_split_0
I0902 17:38:08.205672 54235 net.cpp:433] loss2/ave_pool -> loss2/ave_pool
I0902 17:38:08.206701 54235 net.cpp:155] Setting up loss2/ave_pool
I0902 17:38:08.206719 54235 net.cpp:163] Top shape: 32 528 4 4 (270336)
I0902 17:38:08.206727 54235 layer_factory.hpp:76] Creating layer loss2/conv
I0902 17:38:08.206739 54235 net.cpp:110] Creating Layer loss2/conv
I0902 17:38:08.206746 54235 net.cpp:477] loss2/conv <- loss2/ave_pool
I0902 17:38:08.206758 54235 net.cpp:433] loss2/conv -> loss2/conv
I0902 17:38:08.211254 54235 net.cpp:155] Setting up loss2/conv
I0902 17:38:08.211274 54235 net.cpp:163] Top shape: 32 128 4 4 (65536)
I0902 17:38:08.211285 54235 layer_factory.hpp:76] Creating layer loss2/relu_conv
I0902 17:38:08.211297 54235 net.cpp:110] Creating Layer loss2/relu_conv
I0902 17:38:08.211302 54235 net.cpp:477] loss2/relu_conv <- loss2/conv
I0902 17:38:08.211310 54235 net.cpp:419] loss2/relu_conv -> loss2/conv (in-place)
I0902 17:38:08.212307 54235 net.cpp:155] Setting up loss2/relu_conv
I0902 17:38:08.212326 54235 net.cpp:163] Top shape: 32 128 4 4 (65536)
I0902 17:38:08.212332 54235 layer_factory.hpp:76] Creating layer loss2/fc
I0902 17:38:08.212345 54235 net.cpp:110] Creating Layer loss2/fc
I0902 17:38:08.212352 54235 net.cpp:477] loss2/fc <- loss2/conv
I0902 17:38:08.212363 54235 net.cpp:433] loss2/fc -> loss2/fc
I0902 17:38:08.233851 54235 net.cpp:155] Setting up loss2/fc
I0902 17:38:08.233868 54235 net.cpp:163] Top shape: 32 1024 (32768)
I0902 17:38:08.233880 54235 layer_factory.hpp:76] Creating layer loss2/relu_fc
I0902 17:38:08.233887 54235 net.cpp:110] Creating Layer loss2/relu_fc
I0902 17:38:08.233893 54235 net.cpp:477] loss2/relu_fc <- loss2/fc
I0902 17:38:08.233903 54235 net.cpp:419] loss2/relu_fc -> loss2/fc (in-place)
I0902 17:38:08.234915 54235 net.cpp:155] Setting up loss2/relu_fc
I0902 17:38:08.234931 54235 net.cpp:163] Top shape: 32 1024 (32768)
I0902 17:38:08.234938 54235 layer_factory.hpp:76] Creating layer loss2/drop_fc
I0902 17:38:08.234951 54235 net.cpp:110] Creating Layer loss2/drop_fc
I0902 17:38:08.234956 54235 net.cpp:477] loss2/drop_fc <- loss2/fc
I0902 17:38:08.234963 54235 net.cpp:419] loss2/drop_fc -> loss2/fc (in-place)
I0902 17:38:08.234974 54235 net.cpp:155] Setting up loss2/drop_fc
I0902 17:38:08.234980 54235 net.cpp:163] Top shape: 32 1024 (32768)
I0902 17:38:08.234985 54235 layer_factory.hpp:76] Creating layer loss2/classifier_cub
I0902 17:38:08.234997 54235 net.cpp:110] Creating Layer loss2/classifier_cub
I0902 17:38:08.235002 54235 net.cpp:477] loss2/classifier_cub <- loss2/fc
I0902 17:38:08.235008 54235 net.cpp:433] loss2/classifier_cub -> loss2/classifier
I0902 17:38:08.243350 54235 net.cpp:155] Setting up loss2/classifier_cub
I0902 17:38:08.243369 54235 net.cpp:163] Top shape: 32 200 (6400)
I0902 17:38:08.243381 54235 layer_factory.hpp:76] Creating layer loss2/loss
I0902 17:38:08.243389 54235 net.cpp:110] Creating Layer loss2/loss
I0902 17:38:08.243396 54235 net.cpp:477] loss2/loss <- loss2/classifier
I0902 17:38:08.243417 54235 net.cpp:477] loss2/loss <- label_data_1_split_1
I0902 17:38:08.243425 54235 net.cpp:433] loss2/loss -> loss2/loss1
I0902 17:38:08.243438 54235 layer_factory.hpp:76] Creating layer loss2/loss
I0902 17:38:08.244626 54235 net.cpp:155] Setting up loss2/loss
I0902 17:38:08.244644 54235 net.cpp:163] Top shape: (1)
I0902 17:38:08.244649 54235 net.cpp:168]     with loss weight 0.3
I0902 17:38:08.244663 54235 layer_factory.hpp:76] Creating layer inception_4e/1x1
I0902 17:38:08.244676 54235 net.cpp:110] Creating Layer inception_4e/1x1
I0902 17:38:08.244683 54235 net.cpp:477] inception_4e/1x1 <- inception_4d/output_inception_4d/output_0_split_1
I0902 17:38:08.244693 54235 net.cpp:433] inception_4e/1x1 -> inception_4e/1x1
I0902 17:38:08.249089 54235 net.cpp:155] Setting up inception_4e/1x1
I0902 17:38:08.249109 54235 net.cpp:163] Top shape: 32 256 14 14 (1605632)
I0902 17:38:08.249119 54235 layer_factory.hpp:76] Creating layer inception_4e/relu_1x1
I0902 17:38:08.249130 54235 net.cpp:110] Creating Layer inception_4e/relu_1x1
I0902 17:38:08.249137 54235 net.cpp:477] inception_4e/relu_1x1 <- inception_4e/1x1
I0902 17:38:08.249145 54235 net.cpp:419] inception_4e/relu_1x1 -> inception_4e/1x1 (in-place)
I0902 17:38:08.250177 54235 net.cpp:155] Setting up inception_4e/relu_1x1
I0902 17:38:08.250197 54235 net.cpp:163] Top shape: 32 256 14 14 (1605632)
I0902 17:38:08.250203 54235 layer_factory.hpp:76] Creating layer inception_4e/3x3_reduce
I0902 17:38:08.250216 54235 net.cpp:110] Creating Layer inception_4e/3x3_reduce
I0902 17:38:08.250222 54235 net.cpp:477] inception_4e/3x3_reduce <- inception_4d/output_inception_4d/output_0_split_2
I0902 17:38:08.250233 54235 net.cpp:433] inception_4e/3x3_reduce -> inception_4e/3x3_reduce
I0902 17:38:08.254757 54235 net.cpp:155] Setting up inception_4e/3x3_reduce
I0902 17:38:08.254776 54235 net.cpp:163] Top shape: 32 160 14 14 (1003520)
I0902 17:38:08.254786 54235 layer_factory.hpp:76] Creating layer inception_4e/relu_3x3_reduce
I0902 17:38:08.254798 54235 net.cpp:110] Creating Layer inception_4e/relu_3x3_reduce
I0902 17:38:08.254806 54235 net.cpp:477] inception_4e/relu_3x3_reduce <- inception_4e/3x3_reduce
I0902 17:38:08.254812 54235 net.cpp:419] inception_4e/relu_3x3_reduce -> inception_4e/3x3_reduce (in-place)
I0902 17:38:08.255821 54235 net.cpp:155] Setting up inception_4e/relu_3x3_reduce
I0902 17:38:08.255839 54235 net.cpp:163] Top shape: 32 160 14 14 (1003520)
I0902 17:38:08.255846 54235 layer_factory.hpp:76] Creating layer inception_4e/3x3
I0902 17:38:08.255858 54235 net.cpp:110] Creating Layer inception_4e/3x3
I0902 17:38:08.255867 54235 net.cpp:477] inception_4e/3x3 <- inception_4e/3x3_reduce
I0902 17:38:08.255877 54235 net.cpp:433] inception_4e/3x3 -> inception_4e/3x3
I0902 17:38:08.264075 54235 net.cpp:155] Setting up inception_4e/3x3
I0902 17:38:08.264097 54235 net.cpp:163] Top shape: 32 320 14 14 (2007040)
I0902 17:38:08.264108 54235 layer_factory.hpp:76] Creating layer inception_4e/relu_3x3
I0902 17:38:08.264117 54235 net.cpp:110] Creating Layer inception_4e/relu_3x3
I0902 17:38:08.264123 54235 net.cpp:477] inception_4e/relu_3x3 <- inception_4e/3x3
I0902 17:38:08.264130 54235 net.cpp:419] inception_4e/relu_3x3 -> inception_4e/3x3 (in-place)
I0902 17:38:08.265142 54235 net.cpp:155] Setting up inception_4e/relu_3x3
I0902 17:38:08.265161 54235 net.cpp:163] Top shape: 32 320 14 14 (2007040)
I0902 17:38:08.265167 54235 layer_factory.hpp:76] Creating layer inception_4e/5x5_reduce
I0902 17:38:08.265180 54235 net.cpp:110] Creating Layer inception_4e/5x5_reduce
I0902 17:38:08.265187 54235 net.cpp:477] inception_4e/5x5_reduce <- inception_4d/output_inception_4d/output_0_split_3
I0902 17:38:08.265195 54235 net.cpp:433] inception_4e/5x5_reduce -> inception_4e/5x5_reduce
I0902 17:38:08.268698 54235 net.cpp:155] Setting up inception_4e/5x5_reduce
I0902 17:38:08.268718 54235 net.cpp:163] Top shape: 32 32 14 14 (200704)
I0902 17:38:08.268728 54235 layer_factory.hpp:76] Creating layer inception_4e/relu_5x5_reduce
I0902 17:38:08.268738 54235 net.cpp:110] Creating Layer inception_4e/relu_5x5_reduce
I0902 17:38:08.268759 54235 net.cpp:477] inception_4e/relu_5x5_reduce <- inception_4e/5x5_reduce
I0902 17:38:08.268767 54235 net.cpp:419] inception_4e/relu_5x5_reduce -> inception_4e/5x5_reduce (in-place)
I0902 17:38:08.269793 54235 net.cpp:155] Setting up inception_4e/relu_5x5_reduce
I0902 17:38:08.269830 54235 net.cpp:163] Top shape: 32 32 14 14 (200704)
I0902 17:38:08.269837 54235 layer_factory.hpp:76] Creating layer inception_4e/5x5
I0902 17:38:08.269878 54235 net.cpp:110] Creating Layer inception_4e/5x5
I0902 17:38:08.269886 54235 net.cpp:477] inception_4e/5x5 <- inception_4e/5x5_reduce
I0902 17:38:08.269894 54235 net.cpp:433] inception_4e/5x5 -> inception_4e/5x5
I0902 17:38:08.274101 54235 net.cpp:155] Setting up inception_4e/5x5
I0902 17:38:08.274121 54235 net.cpp:163] Top shape: 32 128 14 14 (802816)
I0902 17:38:08.274134 54235 layer_factory.hpp:76] Creating layer inception_4e/relu_5x5
I0902 17:38:08.274143 54235 net.cpp:110] Creating Layer inception_4e/relu_5x5
I0902 17:38:08.274149 54235 net.cpp:477] inception_4e/relu_5x5 <- inception_4e/5x5
I0902 17:38:08.274157 54235 net.cpp:419] inception_4e/relu_5x5 -> inception_4e/5x5 (in-place)
I0902 17:38:08.275370 54235 net.cpp:155] Setting up inception_4e/relu_5x5
I0902 17:38:08.275388 54235 net.cpp:163] Top shape: 32 128 14 14 (802816)
I0902 17:38:08.275395 54235 layer_factory.hpp:76] Creating layer inception_4e/pool
I0902 17:38:08.275403 54235 layer_factory.cpp:60] CUDNN does not support padding or multiple tops. Using Caffe's own pooling layer.
I0902 17:38:08.275409 54235 net.cpp:110] Creating Layer inception_4e/pool
I0902 17:38:08.275415 54235 net.cpp:477] inception_4e/pool <- inception_4d/output_inception_4d/output_0_split_4
I0902 17:38:08.275427 54235 net.cpp:433] inception_4e/pool -> inception_4e/pool
I0902 17:38:08.275440 54235 net.cpp:155] Setting up inception_4e/pool
I0902 17:38:08.275447 54235 net.cpp:163] Top shape: 32 528 14 14 (3311616)
I0902 17:38:08.275451 54235 layer_factory.hpp:76] Creating layer inception_4e/pool_proj
I0902 17:38:08.275460 54235 net.cpp:110] Creating Layer inception_4e/pool_proj
I0902 17:38:08.275466 54235 net.cpp:477] inception_4e/pool_proj <- inception_4e/pool
I0902 17:38:08.275475 54235 net.cpp:433] inception_4e/pool_proj -> inception_4e/pool_proj
I0902 17:38:08.279237 54235 net.cpp:155] Setting up inception_4e/pool_proj
I0902 17:38:08.279259 54235 net.cpp:163] Top shape: 32 128 14 14 (802816)
I0902 17:38:08.279269 54235 layer_factory.hpp:76] Creating layer inception_4e/relu_pool_proj
I0902 17:38:08.279278 54235 net.cpp:110] Creating Layer inception_4e/relu_pool_proj
I0902 17:38:08.279284 54235 net.cpp:477] inception_4e/relu_pool_proj <- inception_4e/pool_proj
I0902 17:38:08.279292 54235 net.cpp:419] inception_4e/relu_pool_proj -> inception_4e/pool_proj (in-place)
I0902 17:38:08.280319 54235 net.cpp:155] Setting up inception_4e/relu_pool_proj
I0902 17:38:08.280338 54235 net.cpp:163] Top shape: 32 128 14 14 (802816)
I0902 17:38:08.280344 54235 layer_factory.hpp:76] Creating layer inception_4e/output
I0902 17:38:08.280354 54235 net.cpp:110] Creating Layer inception_4e/output
I0902 17:38:08.280359 54235 net.cpp:477] inception_4e/output <- inception_4e/1x1
I0902 17:38:08.280365 54235 net.cpp:477] inception_4e/output <- inception_4e/3x3
I0902 17:38:08.280375 54235 net.cpp:477] inception_4e/output <- inception_4e/5x5
I0902 17:38:08.280381 54235 net.cpp:477] inception_4e/output <- inception_4e/pool_proj
I0902 17:38:08.280387 54235 net.cpp:433] inception_4e/output -> inception_4e/output
I0902 17:38:08.280400 54235 net.cpp:155] Setting up inception_4e/output
I0902 17:38:08.280405 54235 net.cpp:163] Top shape: 32 832 14 14 (5218304)
I0902 17:38:08.280411 54235 layer_factory.hpp:76] Creating layer pool4/3x3_s2
I0902 17:38:08.280418 54235 net.cpp:110] Creating Layer pool4/3x3_s2
I0902 17:38:08.280423 54235 net.cpp:477] pool4/3x3_s2 <- inception_4e/output
I0902 17:38:08.280433 54235 net.cpp:433] pool4/3x3_s2 -> pool4/3x3_s2
I0902 17:38:08.281463 54235 net.cpp:155] Setting up pool4/3x3_s2
I0902 17:38:08.281481 54235 net.cpp:163] Top shape: 32 832 7 7 (1304576)
I0902 17:38:08.281502 54235 layer_factory.hpp:76] Creating layer pool4/3x3_s2_pool4/3x3_s2_0_split
I0902 17:38:08.281512 54235 net.cpp:110] Creating Layer pool4/3x3_s2_pool4/3x3_s2_0_split
I0902 17:38:08.281518 54235 net.cpp:477] pool4/3x3_s2_pool4/3x3_s2_0_split <- pool4/3x3_s2
I0902 17:38:08.281527 54235 net.cpp:433] pool4/3x3_s2_pool4/3x3_s2_0_split -> pool4/3x3_s2_pool4/3x3_s2_0_split_0
I0902 17:38:08.281538 54235 net.cpp:433] pool4/3x3_s2_pool4/3x3_s2_0_split -> pool4/3x3_s2_pool4/3x3_s2_0_split_1
I0902 17:38:08.281548 54235 net.cpp:433] pool4/3x3_s2_pool4/3x3_s2_0_split -> pool4/3x3_s2_pool4/3x3_s2_0_split_2
I0902 17:38:08.281555 54235 net.cpp:433] pool4/3x3_s2_pool4/3x3_s2_0_split -> pool4/3x3_s2_pool4/3x3_s2_0_split_3
I0902 17:38:08.281564 54235 net.cpp:155] Setting up pool4/3x3_s2_pool4/3x3_s2_0_split
I0902 17:38:08.281570 54235 net.cpp:163] Top shape: 32 832 7 7 (1304576)
I0902 17:38:08.281576 54235 net.cpp:163] Top shape: 32 832 7 7 (1304576)
I0902 17:38:08.281581 54235 net.cpp:163] Top shape: 32 832 7 7 (1304576)
I0902 17:38:08.281586 54235 net.cpp:163] Top shape: 32 832 7 7 (1304576)
I0902 17:38:08.281591 54235 layer_factory.hpp:76] Creating layer inception_5a/1x1
I0902 17:38:08.281602 54235 net.cpp:110] Creating Layer inception_5a/1x1
I0902 17:38:08.281607 54235 net.cpp:477] inception_5a/1x1 <- pool4/3x3_s2_pool4/3x3_s2_0_split_0
I0902 17:38:08.281615 54235 net.cpp:433] inception_5a/1x1 -> inception_5a/1x1
I0902 17:38:08.287418 54235 net.cpp:155] Setting up inception_5a/1x1
I0902 17:38:08.287439 54235 net.cpp:163] Top shape: 32 256 7 7 (401408)
I0902 17:38:08.287449 54235 layer_factory.hpp:76] Creating layer inception_5a/relu_1x1
I0902 17:38:08.287462 54235 net.cpp:110] Creating Layer inception_5a/relu_1x1
I0902 17:38:08.287468 54235 net.cpp:477] inception_5a/relu_1x1 <- inception_5a/1x1
I0902 17:38:08.287475 54235 net.cpp:419] inception_5a/relu_1x1 -> inception_5a/1x1 (in-place)
I0902 17:38:08.288506 54235 net.cpp:155] Setting up inception_5a/relu_1x1
I0902 17:38:08.288524 54235 net.cpp:163] Top shape: 32 256 7 7 (401408)
I0902 17:38:08.288532 54235 layer_factory.hpp:76] Creating layer inception_5a/3x3_reduce
I0902 17:38:08.288544 54235 net.cpp:110] Creating Layer inception_5a/3x3_reduce
I0902 17:38:08.288552 54235 net.cpp:477] inception_5a/3x3_reduce <- pool4/3x3_s2_pool4/3x3_s2_0_split_1
I0902 17:38:08.288560 54235 net.cpp:433] inception_5a/3x3_reduce -> inception_5a/3x3_reduce
I0902 17:38:08.293750 54235 net.cpp:155] Setting up inception_5a/3x3_reduce
I0902 17:38:08.293769 54235 net.cpp:163] Top shape: 32 160 7 7 (250880)
I0902 17:38:08.293779 54235 layer_factory.hpp:76] Creating layer inception_5a/relu_3x3_reduce
I0902 17:38:08.293790 54235 net.cpp:110] Creating Layer inception_5a/relu_3x3_reduce
I0902 17:38:08.293797 54235 net.cpp:477] inception_5a/relu_3x3_reduce <- inception_5a/3x3_reduce
I0902 17:38:08.293812 54235 net.cpp:419] inception_5a/relu_3x3_reduce -> inception_5a/3x3_reduce (in-place)
I0902 17:38:08.294847 54235 net.cpp:155] Setting up inception_5a/relu_3x3_reduce
I0902 17:38:08.294867 54235 net.cpp:163] Top shape: 32 160 7 7 (250880)
I0902 17:38:08.294874 54235 layer_factory.hpp:76] Creating layer inception_5a/3x3
I0902 17:38:08.294886 54235 net.cpp:110] Creating Layer inception_5a/3x3
I0902 17:38:08.294893 54235 net.cpp:477] inception_5a/3x3 <- inception_5a/3x3_reduce
I0902 17:38:08.294901 54235 net.cpp:433] inception_5a/3x3 -> inception_5a/3x3
I0902 17:38:08.319975 54235 net.cpp:155] Setting up inception_5a/3x3
I0902 17:38:08.319994 54235 net.cpp:163] Top shape: 32 320 7 7 (501760)
I0902 17:38:08.320005 54235 layer_factory.hpp:76] Creating layer inception_5a/relu_3x3
I0902 17:38:08.320018 54235 net.cpp:110] Creating Layer inception_5a/relu_3x3
I0902 17:38:08.320024 54235 net.cpp:477] inception_5a/relu_3x3 <- inception_5a/3x3
I0902 17:38:08.320030 54235 net.cpp:419] inception_5a/relu_3x3 -> inception_5a/3x3 (in-place)
I0902 17:38:08.321311 54235 net.cpp:155] Setting up inception_5a/relu_3x3
I0902 17:38:08.321329 54235 net.cpp:163] Top shape: 32 320 7 7 (501760)
I0902 17:38:08.321352 54235 layer_factory.hpp:76] Creating layer inception_5a/5x5_reduce
I0902 17:38:08.321362 54235 net.cpp:110] Creating Layer inception_5a/5x5_reduce
I0902 17:38:08.321368 54235 net.cpp:477] inception_5a/5x5_reduce <- pool4/3x3_s2_pool4/3x3_s2_0_split_2
I0902 17:38:08.321380 54235 net.cpp:433] inception_5a/5x5_reduce -> inception_5a/5x5_reduce
I0902 17:38:08.347420 54235 net.cpp:155] Setting up inception_5a/5x5_reduce
I0902 17:38:08.347440 54235 net.cpp:163] Top shape: 32 32 7 7 (50176)
I0902 17:38:08.347450 54235 layer_factory.hpp:76] Creating layer inception_5a/relu_5x5_reduce
I0902 17:38:08.347458 54235 net.cpp:110] Creating Layer inception_5a/relu_5x5_reduce
I0902 17:38:08.347465 54235 net.cpp:477] inception_5a/relu_5x5_reduce <- inception_5a/5x5_reduce
I0902 17:38:08.347475 54235 net.cpp:419] inception_5a/relu_5x5_reduce -> inception_5a/5x5_reduce (in-place)
I0902 17:38:08.348626 54235 net.cpp:155] Setting up inception_5a/relu_5x5_reduce
I0902 17:38:08.348647 54235 net.cpp:163] Top shape: 32 32 7 7 (50176)
I0902 17:38:08.348654 54235 layer_factory.hpp:76] Creating layer inception_5a/5x5
I0902 17:38:08.348664 54235 net.cpp:110] Creating Layer inception_5a/5x5
I0902 17:38:08.348670 54235 net.cpp:477] inception_5a/5x5 <- inception_5a/5x5_reduce
I0902 17:38:08.348681 54235 net.cpp:433] inception_5a/5x5 -> inception_5a/5x5
I0902 17:38:08.394592 54235 net.cpp:155] Setting up inception_5a/5x5
I0902 17:38:08.394611 54235 net.cpp:163] Top shape: 32 128 7 7 (200704)
I0902 17:38:08.394625 54235 layer_factory.hpp:76] Creating layer inception_5a/relu_5x5
I0902 17:38:08.394634 54235 net.cpp:110] Creating Layer inception_5a/relu_5x5
I0902 17:38:08.394639 54235 net.cpp:477] inception_5a/relu_5x5 <- inception_5a/5x5
I0902 17:38:08.394646 54235 net.cpp:419] inception_5a/relu_5x5 -> inception_5a/5x5 (in-place)
I0902 17:38:08.396589 54235 net.cpp:155] Setting up inception_5a/relu_5x5
I0902 17:38:08.396606 54235 net.cpp:163] Top shape: 32 128 7 7 (200704)
I0902 17:38:08.396613 54235 layer_factory.hpp:76] Creating layer inception_5a/pool
I0902 17:38:08.396620 54235 layer_factory.cpp:60] CUDNN does not support padding or multiple tops. Using Caffe's own pooling layer.
I0902 17:38:08.396626 54235 net.cpp:110] Creating Layer inception_5a/pool
I0902 17:38:08.396633 54235 net.cpp:477] inception_5a/pool <- pool4/3x3_s2_pool4/3x3_s2_0_split_3
I0902 17:38:08.396648 54235 net.cpp:433] inception_5a/pool -> inception_5a/pool
I0902 17:38:08.396661 54235 net.cpp:155] Setting up inception_5a/pool
I0902 17:38:08.396668 54235 net.cpp:163] Top shape: 32 832 7 7 (1304576)
I0902 17:38:08.396672 54235 layer_factory.hpp:76] Creating layer inception_5a/pool_proj
I0902 17:38:08.396682 54235 net.cpp:110] Creating Layer inception_5a/pool_proj
I0902 17:38:08.396687 54235 net.cpp:477] inception_5a/pool_proj <- inception_5a/pool
I0902 17:38:08.396697 54235 net.cpp:433] inception_5a/pool_proj -> inception_5a/pool_proj
I0902 17:38:08.403673 54235 net.cpp:155] Setting up inception_5a/pool_proj
I0902 17:38:08.403693 54235 net.cpp:163] Top shape: 32 128 7 7 (200704)
I0902 17:38:08.403703 54235 layer_factory.hpp:76] Creating layer inception_5a/relu_pool_proj
I0902 17:38:08.403715 54235 net.cpp:110] Creating Layer inception_5a/relu_pool_proj
I0902 17:38:08.403722 54235 net.cpp:477] inception_5a/relu_pool_proj <- inception_5a/pool_proj
I0902 17:38:08.403729 54235 net.cpp:419] inception_5a/relu_pool_proj -> inception_5a/pool_proj (in-place)
I0902 17:38:08.405899 54235 net.cpp:155] Setting up inception_5a/relu_pool_proj
I0902 17:38:08.405916 54235 net.cpp:163] Top shape: 32 128 7 7 (200704)
I0902 17:38:08.405922 54235 layer_factory.hpp:76] Creating layer inception_5a/output
I0902 17:38:08.405935 54235 net.cpp:110] Creating Layer inception_5a/output
I0902 17:38:08.405941 54235 net.cpp:477] inception_5a/output <- inception_5a/1x1
I0902 17:38:08.405947 54235 net.cpp:477] inception_5a/output <- inception_5a/3x3
I0902 17:38:08.405953 54235 net.cpp:477] inception_5a/output <- inception_5a/5x5
I0902 17:38:08.405958 54235 net.cpp:477] inception_5a/output <- inception_5a/pool_proj
I0902 17:38:08.405984 54235 net.cpp:433] inception_5a/output -> inception_5a/output
I0902 17:38:08.405995 54235 net.cpp:155] Setting up inception_5a/output
I0902 17:38:08.406002 54235 net.cpp:163] Top shape: 32 832 7 7 (1304576)
I0902 17:38:08.406008 54235 layer_factory.hpp:76] Creating layer inception_5a/output_inception_5a/output_0_split
I0902 17:38:08.406018 54235 net.cpp:110] Creating Layer inception_5a/output_inception_5a/output_0_split
I0902 17:38:08.406023 54235 net.cpp:477] inception_5a/output_inception_5a/output_0_split <- inception_5a/output
I0902 17:38:08.406030 54235 net.cpp:433] inception_5a/output_inception_5a/output_0_split -> inception_5a/output_inception_5a/output_0_split_0
I0902 17:38:08.406039 54235 net.cpp:433] inception_5a/output_inception_5a/output_0_split -> inception_5a/output_inception_5a/output_0_split_1
I0902 17:38:08.406047 54235 net.cpp:433] inception_5a/output_inception_5a/output_0_split -> inception_5a/output_inception_5a/output_0_split_2
I0902 17:38:08.406055 54235 net.cpp:433] inception_5a/output_inception_5a/output_0_split -> inception_5a/output_inception_5a/output_0_split_3
I0902 17:38:08.406064 54235 net.cpp:155] Setting up inception_5a/output_inception_5a/output_0_split
I0902 17:38:08.406069 54235 net.cpp:163] Top shape: 32 832 7 7 (1304576)
I0902 17:38:08.406075 54235 net.cpp:163] Top shape: 32 832 7 7 (1304576)
I0902 17:38:08.406080 54235 net.cpp:163] Top shape: 32 832 7 7 (1304576)
I0902 17:38:08.406085 54235 net.cpp:163] Top shape: 32 832 7 7 (1304576)
I0902 17:38:08.406090 54235 layer_factory.hpp:76] Creating layer inception_5b/1x1
I0902 17:38:08.406101 54235 net.cpp:110] Creating Layer inception_5b/1x1
I0902 17:38:08.406106 54235 net.cpp:477] inception_5b/1x1 <- inception_5a/output_inception_5a/output_0_split_0
I0902 17:38:08.406116 54235 net.cpp:433] inception_5b/1x1 -> inception_5b/1x1
I0902 17:38:08.414921 54235 net.cpp:155] Setting up inception_5b/1x1
I0902 17:38:08.414940 54235 net.cpp:163] Top shape: 32 384 7 7 (602112)
I0902 17:38:08.414952 54235 layer_factory.hpp:76] Creating layer inception_5b/relu_1x1
I0902 17:38:08.414960 54235 net.cpp:110] Creating Layer inception_5b/relu_1x1
I0902 17:38:08.414968 54235 net.cpp:477] inception_5b/relu_1x1 <- inception_5b/1x1
I0902 17:38:08.414978 54235 net.cpp:419] inception_5b/relu_1x1 -> inception_5b/1x1 (in-place)
I0902 17:38:08.417121 54235 net.cpp:155] Setting up inception_5b/relu_1x1
I0902 17:38:08.417140 54235 net.cpp:163] Top shape: 32 384 7 7 (602112)
I0902 17:38:08.417147 54235 layer_factory.hpp:76] Creating layer inception_5b/3x3_reduce
I0902 17:38:08.417160 54235 net.cpp:110] Creating Layer inception_5b/3x3_reduce
I0902 17:38:08.417166 54235 net.cpp:477] inception_5b/3x3_reduce <- inception_5a/output_inception_5a/output_0_split_1
I0902 17:38:08.417178 54235 net.cpp:433] inception_5b/3x3_reduce -> inception_5b/3x3_reduce
I0902 17:38:08.424029 54235 net.cpp:155] Setting up inception_5b/3x3_reduce
I0902 17:38:08.424048 54235 net.cpp:163] Top shape: 32 192 7 7 (301056)
I0902 17:38:08.424059 54235 layer_factory.hpp:76] Creating layer inception_5b/relu_3x3_reduce
I0902 17:38:08.424070 54235 net.cpp:110] Creating Layer inception_5b/relu_3x3_reduce
I0902 17:38:08.424077 54235 net.cpp:477] inception_5b/relu_3x3_reduce <- inception_5b/3x3_reduce
I0902 17:38:08.424084 54235 net.cpp:419] inception_5b/relu_3x3_reduce -> inception_5b/3x3_reduce (in-place)
I0902 17:38:08.426260 54235 net.cpp:155] Setting up inception_5b/relu_3x3_reduce
I0902 17:38:08.426278 54235 net.cpp:163] Top shape: 32 192 7 7 (301056)
I0902 17:38:08.426285 54235 layer_factory.hpp:76] Creating layer inception_5b/3x3
I0902 17:38:08.426298 54235 net.cpp:110] Creating Layer inception_5b/3x3
I0902 17:38:08.426306 54235 net.cpp:477] inception_5b/3x3 <- inception_5b/3x3_reduce
I0902 17:38:08.426316 54235 net.cpp:433] inception_5b/3x3 -> inception_5b/3x3
I0902 17:38:08.488226 54235 net.cpp:155] Setting up inception_5b/3x3
I0902 17:38:08.488250 54235 net.cpp:163] Top shape: 32 384 7 7 (602112)
I0902 17:38:08.488260 54235 layer_factory.hpp:76] Creating layer inception_5b/relu_3x3
I0902 17:38:08.488283 54235 net.cpp:110] Creating Layer inception_5b/relu_3x3
I0902 17:38:08.488291 54235 net.cpp:477] inception_5b/relu_3x3 <- inception_5b/3x3
I0902 17:38:08.488298 54235 net.cpp:419] inception_5b/relu_3x3 -> inception_5b/3x3 (in-place)
I0902 17:38:08.492754 54235 net.cpp:155] Setting up inception_5b/relu_3x3
I0902 17:38:08.492774 54235 net.cpp:163] Top shape: 32 384 7 7 (602112)
I0902 17:38:08.492780 54235 layer_factory.hpp:76] Creating layer inception_5b/5x5_reduce
I0902 17:38:08.492794 54235 net.cpp:110] Creating Layer inception_5b/5x5_reduce
I0902 17:38:08.492799 54235 net.cpp:477] inception_5b/5x5_reduce <- inception_5a/output_inception_5a/output_0_split_2
I0902 17:38:08.492811 54235 net.cpp:433] inception_5b/5x5_reduce -> inception_5b/5x5_reduce
I0902 17:38:08.499361 54235 net.cpp:155] Setting up inception_5b/5x5_reduce
I0902 17:38:08.499382 54235 net.cpp:163] Top shape: 32 48 7 7 (75264)
I0902 17:38:08.499392 54235 layer_factory.hpp:76] Creating layer inception_5b/relu_5x5_reduce
I0902 17:38:08.499403 54235 net.cpp:110] Creating Layer inception_5b/relu_5x5_reduce
I0902 17:38:08.499410 54235 net.cpp:477] inception_5b/relu_5x5_reduce <- inception_5b/5x5_reduce
I0902 17:38:08.499418 54235 net.cpp:419] inception_5b/relu_5x5_reduce -> inception_5b/5x5_reduce (in-place)
I0902 17:38:08.553026 54235 net.cpp:155] Setting up inception_5b/relu_5x5_reduce
I0902 17:38:08.553045 54235 net.cpp:163] Top shape: 32 48 7 7 (75264)
I0902 17:38:08.553052 54235 layer_factory.hpp:76] Creating layer inception_5b/5x5
I0902 17:38:08.553066 54235 net.cpp:110] Creating Layer inception_5b/5x5
I0902 17:38:08.553073 54235 net.cpp:477] inception_5b/5x5 <- inception_5b/5x5_reduce
I0902 17:38:08.553081 54235 net.cpp:433] inception_5b/5x5 -> inception_5b/5x5
I0902 17:38:08.614141 54235 net.cpp:155] Setting up inception_5b/5x5
I0902 17:38:08.614161 54235 net.cpp:163] Top shape: 32 128 7 7 (200704)
I0902 17:38:08.614171 54235 layer_factory.hpp:76] Creating layer inception_5b/relu_5x5
I0902 17:38:08.614181 54235 net.cpp:110] Creating Layer inception_5b/relu_5x5
I0902 17:38:08.614187 54235 net.cpp:477] inception_5b/relu_5x5 <- inception_5b/5x5
I0902 17:38:08.614193 54235 net.cpp:419] inception_5b/relu_5x5 -> inception_5b/5x5 (in-place)
I0902 17:38:08.618093 54235 net.cpp:155] Setting up inception_5b/relu_5x5
I0902 17:38:08.618111 54235 net.cpp:163] Top shape: 32 128 7 7 (200704)
I0902 17:38:08.618119 54235 layer_factory.hpp:76] Creating layer inception_5b/pool
I0902 17:38:08.618124 54235 layer_factory.cpp:60] CUDNN does not support padding or multiple tops. Using Caffe's own pooling layer.
I0902 17:38:08.618131 54235 net.cpp:110] Creating Layer inception_5b/pool
I0902 17:38:08.618137 54235 net.cpp:477] inception_5b/pool <- inception_5a/output_inception_5a/output_0_split_3
I0902 17:38:08.618149 54235 net.cpp:433] inception_5b/pool -> inception_5b/pool
I0902 17:38:08.618160 54235 net.cpp:155] Setting up inception_5b/pool
I0902 17:38:08.618167 54235 net.cpp:163] Top shape: 32 832 7 7 (1304576)
I0902 17:38:08.618172 54235 layer_factory.hpp:76] Creating layer inception_5b/pool_proj
I0902 17:38:08.618183 54235 net.cpp:110] Creating Layer inception_5b/pool_proj
I0902 17:38:08.618190 54235 net.cpp:477] inception_5b/pool_proj <- inception_5b/pool
I0902 17:38:08.618196 54235 net.cpp:433] inception_5b/pool_proj -> inception_5b/pool_proj
I0902 17:38:08.678076 54235 net.cpp:155] Setting up inception_5b/pool_proj
I0902 17:38:08.678097 54235 net.cpp:163] Top shape: 32 128 7 7 (200704)
I0902 17:38:08.678108 54235 layer_factory.hpp:76] Creating layer inception_5b/relu_pool_proj
I0902 17:38:08.678117 54235 net.cpp:110] Creating Layer inception_5b/relu_pool_proj
I0902 17:38:08.678123 54235 net.cpp:477] inception_5b/relu_pool_proj <- inception_5b/pool_proj
I0902 17:38:08.678130 54235 net.cpp:419] inception_5b/relu_pool_proj -> inception_5b/pool_proj (in-place)
I0902 17:38:08.680097 54235 net.cpp:155] Setting up inception_5b/relu_pool_proj
I0902 17:38:08.680116 54235 net.cpp:163] Top shape: 32 128 7 7 (200704)
I0902 17:38:08.680137 54235 layer_factory.hpp:76] Creating layer inception_5b/output
I0902 17:38:08.680150 54235 net.cpp:110] Creating Layer inception_5b/output
I0902 17:38:08.680155 54235 net.cpp:477] inception_5b/output <- inception_5b/1x1
I0902 17:38:08.680162 54235 net.cpp:477] inception_5b/output <- inception_5b/3x3
I0902 17:38:08.680168 54235 net.cpp:477] inception_5b/output <- inception_5b/5x5
I0902 17:38:08.680174 54235 net.cpp:477] inception_5b/output <- inception_5b/pool_proj
I0902 17:38:08.680181 54235 net.cpp:433] inception_5b/output -> inception_5b/output
I0902 17:38:08.680191 54235 net.cpp:155] Setting up inception_5b/output
I0902 17:38:08.680198 54235 net.cpp:163] Top shape: 32 1024 7 7 (1605632)
I0902 17:38:08.680203 54235 layer_factory.hpp:76] Creating layer pool5/7x7_s1
I0902 17:38:08.680210 54235 net.cpp:110] Creating Layer pool5/7x7_s1
I0902 17:38:08.680215 54235 net.cpp:477] pool5/7x7_s1 <- inception_5b/output
I0902 17:38:08.680227 54235 net.cpp:433] pool5/7x7_s1 -> pool5/7x7_s1
I0902 17:38:08.682471 54235 net.cpp:155] Setting up pool5/7x7_s1
I0902 17:38:08.682489 54235 net.cpp:163] Top shape: 32 1024 1 1 (32768)
I0902 17:38:08.682495 54235 layer_factory.hpp:76] Creating layer pool5/drop_7x7_s1
I0902 17:38:08.682504 54235 net.cpp:110] Creating Layer pool5/drop_7x7_s1
I0902 17:38:08.682510 54235 net.cpp:477] pool5/drop_7x7_s1 <- pool5/7x7_s1
I0902 17:38:08.682518 54235 net.cpp:419] pool5/drop_7x7_s1 -> pool5/7x7_s1 (in-place)
I0902 17:38:08.682528 54235 net.cpp:155] Setting up pool5/drop_7x7_s1
I0902 17:38:08.682534 54235 net.cpp:163] Top shape: 32 1024 1 1 (32768)
I0902 17:38:08.682539 54235 layer_factory.hpp:76] Creating layer loss3/classifier_cub
I0902 17:38:08.682551 54235 net.cpp:110] Creating Layer loss3/classifier_cub
I0902 17:38:08.682556 54235 net.cpp:477] loss3/classifier_cub <- pool5/7x7_s1
I0902 17:38:08.682566 54235 net.cpp:433] loss3/classifier_cub -> loss3/classifier
I0902 17:38:08.690933 54235 net.cpp:155] Setting up loss3/classifier_cub
I0902 17:38:08.690950 54235 net.cpp:163] Top shape: 32 200 (6400)
I0902 17:38:08.690961 54235 layer_factory.hpp:76] Creating layer loss3/loss3
I0902 17:38:08.690970 54235 net.cpp:110] Creating Layer loss3/loss3
I0902 17:38:08.690976 54235 net.cpp:477] loss3/loss3 <- loss3/classifier
I0902 17:38:08.690982 54235 net.cpp:477] loss3/loss3 <- label_data_1_split_2
I0902 17:38:08.690994 54235 net.cpp:433] loss3/loss3 -> loss3/loss3
I0902 17:38:08.691004 54235 layer_factory.hpp:76] Creating layer loss3/loss3
…
I0902 17:38:08.700557 54235 net.cpp:339] The NetState phase (1) differed from the phase (0) specified by a rule in layer data
I0902 17:38:08.701935 54235 net.cpp:50] Initializing net from parameters: 
name: "CUBNet"
state {
  phase: TEST
}
layer {
  name: "data"
  type: "ImageData"
  top: "data"
  top: "label"
  include {
    phase: TEST
  }
  transform_param {
    mirror: false
    crop_size: 224
    mean_value: 104
    mean_value: 117
    mean_value: 123
  }
  image_data_param {
    source: "data/CUB_200_2011/val_files.txt"
    batch_size: 32
    new_height: 256
    new_width: 256
  }
}
layer {
  name: "conv1/7x7_s2"
  type: "Convolution"
  bottom: "data"
  top: "conv1/7x7_s2"
  param {
    lr_mult: 1
    decay_mult: 1
  }
  param {
    lr_mult: 2
    decay_mult: 0
  }
  convolution_param {
    num_output: 64
    pad: 3
    kernel_size: 7
    stride: 2
    weight_filler {
      type: "xavier"
      std: 0.1
    }
    bias_filler {
      type: "constant"
      value: 0.2
    }
  }
}
layer {
  name: "conv1/relu_7x7"
  type: "ReLU"
  bottom: "conv1/7x7_s2"
  top: "conv1/7x7_s2"
}
layer {
  name: "pool1/3x3_s2"
  type: "Pooling"
  bottom: "conv1/7x7_s2"
  top: "pool1/3x3_s2"
  pooling_param {
    pool: MAX
    kernel_size: 3
    stride: 2
  }
}
layer {
  name: "pool1/norm1"
  type: "LRN"
  bottom: "pool1/3x3_s2"
  top: "pool1/norm1"
  lrn_param {
    local_size: 5
    alpha: 0.0001
    beta: 0.75
  }
}
layer {
  name: "conv2/3x3_reduce"
  type: "Convolution"
  bottom: "pool1/norm1"
  top: "conv2/3x3_reduce"
  param {
    lr_mult: 1
    decay_mult: 1
  }
  param {
    lr_mult: 2
    decay_mult: 0
  }
  convolution_param {
    num_output: 64
    kernel_size: 1
    weight_filler {
      type: "xavier"
      std: 0.1
    }
    bias_filler {
      type: "constant"
      value: 0.2
    }
  }
}
layer {
  name: "conv2/relu_3x3_reduce"
  type: "ReLU"
  bottom: "conv2/3x3_reduce"
  top: "conv2/3x3_reduce"
}
layer {
  name: "conv2/3x3"
  type: "Convolution"
  bottom: "conv2/3x3_reduce"
  top: "conv2/3x3"
  param {
    lr_mult: 1
    decay_mult: 1
  }
  param {
    lr_mult: 2
    decay_mult: 0
  }
  convolution_param {
    num_output: 192
    pad: 1
    kernel_size: 3
    weight_filler {
      type: "xavier"
      std: 0.03
    }
    bias_filler {
      type: "constant"
      value: 0.2
    }
  }
}
layer {
  name: "conv2/relu_3x3"
  type: "ReLU"
  bottom: "conv2/3x3"
  top: "conv2/3x3"
}
layer {
  name: "conv2/norm2"
  type: "LRN"
  bottom: "conv2/3x3"
  top: "conv2/norm2"
  lrn_param {
    local_size: 5
    alpha: 0.0001
    beta: 0.75
  }
}
layer {
  name: "pool2/3x3_s2"
  type: "Pooling"
  bottom: "conv2/norm2"
  top: "pool2/3x3_s2"
  pooling_param {
    pool: MAX
    kernel_size: 3
    stride: 2
  }
}
layer {
  name: "inception_3a/1x1"
  type: "Convolution"
  bottom: "pool2/3x3_s2"
  top: "inception_3a/1x1"
  param {
    lr_mult: 1
    decay_mult: 1
  }
  param {
    lr_mult: 2
    decay_mult: 0
  }
  convolution_param {
    num_output: 64
    kernel_size: 1
    weight_filler {
      type: "xavier"
      std: 0.03
    }
    bias_filler {
      type: "constant"
      value: 0.2
    }
  }
}
layer {
  name: "inception_3a/relu_1x1"
  type: "ReLU"
  bottom: "inception_3a/1x1"
  top: "inception_3a/1x1"
}
layer {
  name: "inception_3a/3x3_reduce"
  type: "Convolution"
  bottom: "pool2/3x3_s2"
  top: "inception_3a/3x3_reduce"
  param {
    lr_mult: 1
    decay_mult: 1
  }
  param {
    lr_mult: 2
    decay_mult: 0
  }
  convolution_param {
    num_output: 96
    kernel_size: 1
    weight_filler {
      type: "xavier"
      std: 0.09
    }
    bias_filler {
      type: "constant"
      value: 0.2
    }
  }
}
layer {
  name: "inception_3a/relu_3x3_reduce"
  type: "ReLU"
  bottom: "inception_3a/3x3_reduce"
  top: "inception_3a/3x3_reduce"
}
layer {
  name: "inception_3a/3x3"
  type: "Convolution"
  bottom: "inception_3a/3x3_reduce"
  top: "inception_3a/3x3"
  param {
    lr_mult: 1
    decay_mult: 1
  }
  param {
    lr_mult: 2
    decay_mult: 0
  }
  convolution_param {
    num_output: 128
    pad: 1
    kernel_size: 3
    weight_filler {
      type: "xavier"
      std: 0.03
    }
    bias_filler {
      type: "constant"
      value: 0.2
    }
  }
}
layer {
  name: "inception_3a/relu_3x3"
  type: "ReLU"
  bottom: "inception_3a/3x3"
  top: "inception_3a/3x3"
}
layer {
  name: "inception_3a/5x5_reduce"
  type: "Convolution"
  bottom: "pool2/3x3_s2"
  top: "inception_3a/5x5_reduce"
  param {
    lr_mult: 1
    decay_mult: 1
  }
  param {
    lr_mult: 2
    decay_mult: 0
  }
  convolution_param {
    num_output: 16
    kernel_size: 1
    weight_filler {
      type: "xavier"
      std: 0.2
    }
    bias_filler {
      type: "constant"
      value: 0.2
    }
  }
}
layer {
  name: "inception_3a/relu_5x5_reduce"
  type: "ReLU"
  bottom: "inception_3a/5x5_reduce"
  top: "inception_3a/5x5_reduce"
}
layer {
  name: "inception_3a/5x5"
  type: "Convolution"
  bottom: "inception_3a/5x5_reduce"
  top: "inception_3a/5x5"
  param {
    lr_mult: 1
    decay_mult: 1
  }
  param {
    lr_mult: 2
    decay_mult: 0
  }
  convolution_param {
    num_output: 32
    pad: 2
    kernel_size: 5
    weight_filler {
      type: "xavier"
      std: 0.03
    }
    bias_filler {
      type: "constant"
      value: 0.2
    }
  }
}
layer {
  name: "inception_3a/relu_5x5"
  type: "ReLU"
  bottom: "inception_3a/5x5"
  top: "inception_3a/5x5"
}
layer {
  name: "inception_3a/pool"
  type: "Pooling"
  bottom: "pool2/3x3_s2"
  top: "inception_3a/pool"
  pooling_param {
    pool: MAX
    kernel_size: 3
    stride: 1
    pad: 1
  }
}
layer {
  name: "inception_3a/pool_proj"
  type: "Convolution"
  bottom: "inception_3a/pool"
  top: "inception_3a/pool_proj"
  param {
    lr_mult: 1
    decay_mult: 1
  }
  param {
    lr_mult: 2
    decay_mult: 0
  }
  convolution_param {
    num_output: 32
    kernel_size: 1
    weight_filler {
      type: "xavier"
      std: 0.1
    }
    bias_filler {
      type: "constant"
      value: 0.2
    }
  }
}
layer {
  name: "inception_3a/relu_pool_proj"
  type: "ReLU"
  bottom: "inception_3a/pool_proj"
  top: "inception_3a/pool_proj"
}
layer {
  name: "inception_3a/output"
  type: "Concat"
  bottom: "inception_3a/1x1"
  bottom: "inception_3a/3x3"
  bottom: "inception_3a/5x5"
  bottom: "inception_3a/pool_proj"
  top: "inception_3a/output"
}
layer {
  name: "inception_3b/1x1"
  type: "Convolution"
  bottom: "inception_3a/output"
  top: "inception_3b/1x1"
  param {
    lr_mult: 1
    decay_mult: 1
  }
  param {
    lr_mult: 2
    decay_mult: 0
  }
  convolution_param {
    num_output: 128
    kernel_size: 1
    weight_filler {
      type: "xavier"
      std: 0.03
    }
    bias_filler {
      type: "constant"
      value: 0.2
    }
  }
}
layer {
  name: "inception_3b/relu_1x1"
  type: "ReLU"
  bottom: "inception_3b/1x1"
  top: "inception_3b/1x1"
}
layer {
  name: "inception_3b/3x3_reduce"
  type: "Convolution"
  bottom: "inception_3a/output"
  top: "inception_3b/3x3_reduce"
  param {
    lr_mult: 1
    decay_mult: 1
  }
  param {
    lr_mult: 2
    decay_mult: 0
  }
  convolution_param {
    num_output: 128
    kernel_size: 1
    weight_filler {
      type: "xavier"
      std: 0.09
    }
    bias_filler {
      type: "constant"
      value: 0.2
    }
  }
}
layer {
  name: "inception_3b/relu_3x3_reduce"
  type: "ReLU"
  bottom: "inception_3b/3x3_reduce"
  top: "inception_3b/3x3_reduce"
}
layer {
  name: "inception_3b/3x3"
  type: "Convolution"
  bottom: "inception_3b/3x3_reduce"
  top: "inception_3b/3x3"
  param {
    lr_mult: 1
    decay_mult: 1
  }
  param {
    lr_mult: 2
    decay_mult: 0
  }
  convolution_param {
    num_output: 192
    pad: 1
    kernel_size: 3
    weight_filler {
      type: "xavier"
      std: 0.03
    }
    bias_filler {
      type: "constant"
      value: 0.2
    }
  }
}
layer {
  name: "inception_3b/relu_3x3"
  type: "ReLU"
  bottom: "inception_3b/3x3"
  top: "inception_3b/3x3"
}
layer {
  name: "inception_3b/5x5_reduce"
  type: "Convolution"
  bottom: "inception_3a/output"
  top: "inception_3b/5x5_reduce"
  param {
    lr_mult: 1
    decay_mult: 1
  }
  param {
    lr_mult: 2
    decay_mult: 0
  }
  convolution_param {
    num_output: 32
    kernel_size: 1
    weight_filler {
      type: "xavier"
      std: 0.2
    }
    bias_filler {
      type: "constant"
      value: 0.2
    }
  }
}
layer {
  name: "inception_3b/relu_5x5_reduce"
  type: "ReLU"
  bottom: "inception_3b/5x5_reduce"
  top: "inception_3b/5x5_reduce"
}
layer {
  name: "inception_3b/5x5"
  type: "Convolution"
  bottom: "inception_3b/5x5_reduce"
  top: "inception_3b/5x5"
  param {
    lr_mult: 1
    decay_mult: 1
  }
  param {
    lr_mult: 2
    decay_mult: 0
  }
  convolution_param {
    num_output: 96
    pad: 2
    kernel_size: 5
    weight_filler {
      type: "xavier"
      std: 0.03
    }
    bias_filler {
      type: "constant"
      value: 0.2
    }
  }
}
layer {
  name: "inception_3b/relu_5x5"
  type: "ReLU"
  bottom: "inception_3b/5x5"
  top: "inception_3b/5x5"
}
layer {
  name: "inception_3b/pool"
  type: "Pooling"
  bottom: "inception_3a/output"
  top: "inception_3b/pool"
  pooling_param {
    pool: MAX
    kernel_size: 3
    stride: 1
    pad: 1
  }
}
layer {
  name: "inception_3b/pool_proj"
  type: "Convolution"
  bottom: "inception_3b/pool"
  top: "inception_3b/pool_proj"
  param {
    lr_mult: 1
    decay_mult: 1
  }
  param {
    lr_mult: 2
    decay_mult: 0
  }
  convolution_param {
    num_output: 64
    kernel_size: 1
    weight_filler {
      type: "xavier"
      std: 0.1
    }
    bias_filler {
      type: "constant"
      value: 0.2
    }
  }
}
layer {
  name: "inception_3b/relu_pool_proj"
  type: "ReLU"
  bottom: "inception_3b/pool_proj"
  top: "inception_3b/pool_proj"
}
layer {
  name: "inception_3b/output"
  type: "Concat"
  bottom: "inception_3b/1x1"
  bottom: "inception_3b/3x3"
  bottom: "inception_3b/5x5"
  bottom: "inception_3b/pool_proj"
  top: "inception_3b/output"
}
layer {
  name: "pool3/3x3_s2"
  type: "Pooling"
  bottom: "inception_3b/output"
  top: "pool3/3x3_s2"
  pooling_param {
    pool: MAX
    kernel_size: 3
    stride: 2
  }
}
layer {
  name: "inception_4a/1x1"
  type: "Convolution"
  bottom: "pool3/3x3_s2"
  top: "inception_4a/1x1"
  param {
    lr_mult: 1
    decay_mult: 1
  }
  param {
    lr_mult: 2
    decay_mult: 0
  }
  convolution_param {
    num_output: 192
    kernel_size: 1
    weight_filler {
      type: "xavier"
      std: 0.03
    }
    bias_filler {
      type: "constant"
      value: 0.2
    }
  }
}
layer {
  name: "inception_4a/relu_1x1"
  type: "ReLU"
  bottom: "inception_4a/1x1"
  top: "inception_4a/1x1"
}
layer {
  name: "inception_4a/3x3_reduce"
  type: "Convolution"
  bottom: "pool3/3x3_s2"
  top: "inception_4a/3x3_reduce"
  param {
    lr_mult: 1
    decay_mult: 1
  }
  param {
    lr_mult: 2
    decay_mult: 0
  }
  convolution_param {
    num_output: 96
    kernel_size: 1
    weight_filler {
      type: "xavier"
      std: 0.09
    }
    bias_filler {
      type: "constant"
      value: 0.2
    }
  }
}
layer {
  name: "inception_4a/relu_3x3_reduce"
  type: "ReLU"
  bottom: "inception_4a/3x3_reduce"
  top: "inception_4a/3x3_reduce"
}
layer {
  name: "inception_4a/3x3"
  type: "Convolution"
  bottom: "inception_4a/3x3_reduce"
  top: "inception_4a/3x3"
  param {
    lr_mult: 1
    decay_mult: 1
  }
  param {
    lr_mult: 2
    decay_mult: 0
  }
  convolution_param {
    num_output: 208
    pad: 1
    kernel_size: 3
    weight_filler {
      type: "xavier"
      std: 0.03
    }
    bias_filler {
      type: "constant"
      value: 0.2
    }
  }
}
layer {
  name: "inception_4a/relu_3x3"
  type: "ReLU"
  bottom: "inception_4a/3x3"
  top: "inception_4a/3x3"
}
layer {
  name: "inception_4a/5x5_reduce"
  type: "Convolution"
  bottom: "pool3/3x3_s2"
  top: "inception_4a/5x5_reduce"
  param {
    lr_mult: 1
    decay_mult: 1
  }
  param {
    lr_mult: 2
    decay_mult: 0
  }
  convolution_param {
    num_output: 16
    kernel_size: 1
    weight_filler {
      type: "xavier"
      std: 0.2
    }
    bias_filler {
      type: "constant"
      value: 0.2
    }
  }
}
layer {
  name: "inception_4a/relu_5x5_reduce"
  type: "ReLU"
  bottom: "inception_4a/5x5_reduce"
  top: "inception_4a/5x5_reduce"
}
layer {
  name: "inception_4a/5x5"
  type: "Convolution"
  bottom: "inception_4a/5x5_reduce"
  top: "inception_4a/5x5"
  param {
    lr_mult: 1
    decay_mult: 1
  }
  param {
    lr_mult: 2
    decay_mult: 0
  }
  convolution_param {
    num_output: 48
    pad: 2
    kernel_size: 5
    weight_filler {
      type: "xavier"
      std: 0.03
    }
    bias_filler {
      type: "constant"
      value: 0.2
    }
  }
}
layer {
  name: "inception_4a/relu_5x5"
  type: "ReLU"
  bottom: "inception_4a/5x5"
  top: "inception_4a/5x5"
}
layer {
  name: "inception_4a/pool"
  type: "Pooling"
  bottom: "pool3/3x3_s2"
  top: "inception_4a/pool"
  pooling_param {
    pool: MAX
    kernel_size: 3
    stride: 1
    pad: 1
  }
}
layer {
  name: "inception_4a/pool_proj"
  type: "Convolution"
  bottom: "inception_4a/pool"
  top: "inception_4a/pool_proj"
  param {
    lr_mult: 1
    decay_mult: 1
  }
  param {
    lr_mult: 2
    decay_mult: 0
  }
  convolution_param {
    num_output: 64
    kernel_size: 1
    weight_filler {
      type: "xavier"
      std: 0.1
    }
    bias_filler {
      type: "constant"
      value: 0.2
    }
  }
}
layer {
  name: "inception_4a/relu_pool_proj"
  type: "ReLU"
  bottom: "inception_4a/pool_proj"
  top: "inception_4a/pool_proj"
}
layer {
  name: "inception_4a/output"
  type: "Concat"
  bottom: "inception_4a/1x1"
  bottom: "inception_4a/3x3"
  bottom: "inception_4a/5x5"
  bottom: "inception_4a/pool_proj"
  top: "inception_4a/output"
}
layer {
  name: "loss1/ave_pool"
  type: "Pooling"
  bottom: "inception_4a/output"
  top: "loss1/ave_pool"
  pooling_param {
    pool: AVE
    kernel_size: 5
    stride: 3
  }
}
layer {
  name: "loss1/conv"
  type: "Convolution"
  bottom: "loss1/ave_pool"
  top: "loss1/conv"
  param {
    lr_mult: 1
    decay_mult: 1
  }
  param {
    lr_mult: 2
    decay_mult: 0
  }
  convolution_param {
    num_output: 128
    kernel_size: 1
    weight_filler {
      type: "xavier"
      std: 0.08
    }
    bias_filler {
      type: "constant"
      value: 0.2
    }
  }
}
layer {
  name: "loss1/relu_conv"
  type: "ReLU"
  bottom: "loss1/conv"
  top: "loss1/conv"
}
layer {
  name: "loss1/fc"
  type: "InnerProduct"
  bottom: "loss1/conv"
  top: "loss1/fc"
  param {
    lr_mult: 1
    decay_mult: 1
  }
  param {
    lr_mult: 2
    decay_mult: 0
  }
  inner_product_param {
    num_output: 1024
    weight_filler {
      type: "xavier"
      std: 0.02
    }
    bias_filler {
      type: "constant"
      value: 0.2
    }
  }
}
layer {
  name: "loss1/relu_fc"
  type: "ReLU"
  bottom: "loss1/fc"
  top: "loss1/fc"
}
layer {
  name: "loss1/drop_fc"
  type: "Dropout"
  bottom: "loss1/fc"
  top: "loss1/fc"
  dropout_param {
    dropout_ratio: 0.7
  }
}
layer {
  name: "loss1/classifier_cub"
  type: "InnerProduct"
  bottom: "loss1/fc"
  top: "loss1/classifier"
  param {
    lr_mult: 1
    decay_mult: 1
  }
  param {
    lr_mult: 2
    decay_mult: 0
  }
  inner_product_param {
    num_output: 200
    weight_filler {
      type: "gaussian"
      std: 1e-05
    }
    bias_filler {
      type: "constant"
      value: 0
    }
  }
}
layer {
  name: "loss1/loss"
  type: "SoftmaxWithLoss"
  bottom: "loss1/classifier"
  bottom: "label"
  top: "loss1/loss1"
  loss_weight: 0.3
}
layer {
  name: "loss1/top-1"
  type: "Accuracy"
  bottom: "loss1/classifier"
  bottom: "label"
  top: "loss1/top-1"
  include {
    phase: TEST
  }
}
layer {
  name: "loss1/top-5"
  type: "Accuracy"
  bottom: "loss1/classifier"
  bottom: "label"
  top: "loss1/top-5"
  include {
    phase: TEST
  }
  accuracy_param {
    top_k: 5
  }
}
layer {
  name: "inception_4b/1x1"
  type: "Convolution"
  bottom: "inception_4a/output"
  top: "inception_4b/1x1"
  param {
    lr_mult: 1
    decay_mult: 1
  }
  param {
    lr_mult: 2
    decay_mult: 0
  }
  convolution_param {
    num_output: 160
    kernel_size: 1
    weight_filler {
      type: "xavier"
      std: 0.03
    }
    bias_filler {
      type: "constant"
      value: 0.2
    }
  }
}
layer {
  name: "inception_4b/relu_1x1"
  type: "ReLU"
  bottom: "inception_4b/1x1"
  top: "inception_4b/1x1"
}
layer {
  name: "inception_4b/3x3_reduce"
  type: "Convolution"
  bottom: "inception_4a/output"
  top: "inception_4b/3x3_reduce"
  param {
    lr_mult: 1
    decay_mult: 1
  }
  param {
    lr_mult: 2
    decay_mult: 0
  }
  convolution_param {
    num_output: 112
    kernel_size: 1
    weight_filler {
      type: "xavier"
      std: 0.09
    }
    bias_filler {
      type: "constant"
      value: 0.2
    }
  }
}
layer {
  name: "inception_4b/relu_3x3_reduce"
  type: "ReLU"
  bottom: "inception_4b/3x3_reduce"
  top: "inception_4b/3x3_reduce"
}
layer {
  name: "inception_4b/3x3"
  type: "Convolution"
  bottom: "inception_4b/3x3_reduce"
  top: "inception_4b/3x3"
  param {
    lr_mult: 1
    decay_mult: 1
  }
  param {
    lr_mult: 2
    decay_mult: 0
  }
  convolution_param {
    num_output: 224
    pad: 1
    kernel_size: 3
    weight_filler {
      type: "xavier"
      std: 0.03
    }
    bias_filler {
      type: "constant"
      value: 0.2
    }
  }
}
layer {
  name: "inception_4b/relu_3x3"
  type: "ReLU"
  bottom: "inception_4b/3x3"
  top: "inception_4b/3x3"
}
layer {
  name: "inception_4b/5x5_reduce"
  type: "Convolution"
  bottom: "inception_4a/output"
  top: "inception_4b/5x5_reduce"
  param {
    lr_mult: 1
    decay_mult: 1
  }
  param {
    lr_mult: 2
    decay_mult: 0
  }
  convolution_param {
    num_output: 24
    kernel_size: 1
    weight_filler {
      type: "xavier"
      std: 0.2
    }
    bias_filler {
      type: "constant"
      value: 0.2
    }
  }
}
layer {
  name: "inception_4b/relu_5x5_reduce"
  type: "ReLU"
  bottom: "inception_4b/5x5_reduce"
  top: "inception_4b/5x5_reduce"
}
layer {
  name: "inception_4b/5x5"
  type: "Convolution"
  bottom: "inception_4b/5x5_reduce"
  top: "inception_4b/5x5"
  param {
    lr_mult: 1
    decay_mult: 1
  }
  param {
    lr_mult: 2
    decay_mult: 0
  }
  convolution_param {
    num_output: 64
    pad: 2
    kernel_size: 5
    weight_filler {
      type: "xavier"
      std: 0.03
    }
    bias_filler {
      type: "constant"
      value: 0.2
    }
  }
}
layer {
  name: "inception_4b/relu_5x5"
  type: "ReLU"
  bottom: "inception_4b/5x5"
  top: "inception_4b/5x5"
}
layer {
  name: "inception_4b/pool"
  type: "Pooling"
  bottom: "inception_4a/output"
  top: "inception_4b/pool"
  pooling_param {
    pool: MAX
    kernel_size: 3
    stride: 1
    pad: 1
  }
}
layer {
  name: "inception_4b/pool_proj"
  type: "Convolution"
  bottom: "inception_4b/pool"
  top: "inception_4b/pool_proj"
  param {
    lr_mult: 1
    decay_mult: 1
  }
  param {
    lr_mult: 2
    decay_mult: 0
  }
  convolution_param {
    num_output: 64
    kernel_size: 1
    weight_filler {
      type: "xavier"
      std: 0.1
    }
    bias_filler {
      type: "constant"
      value: 0.2
    }
  }
}
layer {
  name: "inception_4b/relu_pool_proj"
  type: "ReLU"
  bottom: "inception_4b/pool_proj"
  top: "inception_4b/pool_proj"
}
layer {
  name: "inception_4b/output"
  type: "Concat"
  bottom: "inception_4b/1x1"
  bottom: "inception_4b/3x3"
  bottom: "inception_4b/5x5"
  bottom: "inception_4b/pool_proj"
  top: "inception_4b/output"
}
layer {
  name: "inception_4c/1x1"
  type: "Convolution"
  bottom: "inception_4b/output"
  top: "inception_4c/1x1"
  param {
    lr_mult: 1
    decay_mult: 1
  }
  param {
    lr_mult: 2
    decay_mult: 0
  }
  convolution_param {
    num_output: 128
    kernel_size: 1
    weight_filler {
      type: "xavier"
      std: 0.03
    }
    bias_filler {
      type: "constant"
      value: 0.2
    }
  }
}
layer {
  name: "inception_4c/relu_1x1"
  type: "ReLU"
  bottom: "inception_4c/1x1"
  top: "inception_4c/1x1"
}
layer {
  name: "inception_4c/3x3_reduce"
  type: "Convolution"
  bottom: "inception_4b/output"
  top: "inception_4c/3x3_reduce"
  param {
    lr_mult: 1
    decay_mult: 1
  }
  param {
    lr_mult: 2
    decay_mult: 0
  }
  convolution_param {
    num_output: 128
    kernel_size: 1
    weight_filler {
      type: "xavier"
      std: 0.09
    }
    bias_filler {
      type: "constant"
      value: 0.2
    }
  }
}
layer {
  name: "inception_4c/relu_3x3_reduce"
  type: "ReLU"
  bottom: "inception_4c/3x3_reduce"
  top: "inception_4c/3x3_reduce"
}
layer {
  name: "inception_4c/3x3"
  type: "Convolution"
  bottom: "inception_4c/3x3_reduce"
  top: "inception_4c/3x3"
  param {
    lr_mult: 1
    decay_mult: 1
  }
  param {
    lr_mult: 2
    decay_mult: 0
  }
  convolution_param {
    num_output: 256
    pad: 1
    kernel_size: 3
    weight_filler {
      type: "xavier"
      std: 0.03
    }
    bias_filler {
      type: "constant"
      value: 0.2
    }
  }
}
layer {
  name: "inception_4c/relu_3x3"
  type: "ReLU"
  bottom: "inception_4c/3x3"
  top: "inception_4c/3x3"
}
layer {
  name: "inception_4c/5x5_reduce"
  type: "Convolution"
  bottom: "inception_4b/output"
  top: "inception_4c/5x5_reduce"
  param {
    lr_mult: 1
    decay_mult: 1
  }
  param {
    lr_mult: 2
    decay_mult: 0
  }
  convolution_param {
    num_output: 24
    kernel_size: 1
    weight_filler {
      type: "xavier"
      std: 0.2
    }
    bias_filler {
      type: "constant"
      value: 0.2
    }
  }
}
layer {
  name: "inception_4c/relu_5x5_reduce"
  type: "ReLU"
  bottom: "inception_4c/5x5_reduce"
  top: "inception_4c/5x5_reduce"
}
layer {
  name: "inception_4c/5x5"
  type: "Convolution"
  bottom: "inception_4c/5x5_reduce"
  top: "inception_4c/5x5"
  param {
    lr_mult: 1
    decay_mult: 1
  }
  param {
    lr_mult: 2
    decay_mult: 0
  }
  convolution_param {
    num_output: 64
    pad: 2
    kernel_size: 5
    weight_filler {
      type: "xavier"
      std: 0.03
    }
    bias_filler {
      type: "constant"
      value: 0.2
    }
  }
}
layer {
  name: "inception_4c/relu_5x5"
  type: "ReLU"
  bottom: "inception_4c/5x5"
  top: "inception_4c/5x5"
}
layer {
  name: "inception_4c/pool"
  type: "Pooling"
  bottom: "inception_4b/output"
  top: "inception_4c/pool"
  pooling_param {
    pool: MAX
    kernel_size: 3
    stride: 1
    pad: 1
  }
}
layer {
  name: "inception_4c/pool_proj"
  type: "Convolution"
  bottom: "inception_4c/pool"
  top: "inception_4c/pool_proj"
  param {
    lr_mult: 1
    decay_mult: 1
  }
  param {
    lr_mult: 2
    decay_mult: 0
  }
  convolution_param {
    num_output: 64
    kernel_size: 1
    weight_filler {
      type: "xavier"
      std: 0.1
    }
    bias_filler {
      type: "constant"
      value: 0.2
    }
  }
}
layer {
  name: "inception_4c/relu_pool_proj"
  type: "ReLU"
  bottom: "inception_4c/pool_proj"
  top: "inception_4c/pool_proj"
}
layer {
  name: "inception_4c/output"
  type: "Concat"
  bottom: "inception_4c/1x1"
  bottom: "inception_4c/3x3"
  bottom: "inception_4c/5x5"
  bottom: "inception_4c/pool_proj"
  top: "inception_4c/output"
}
layer {
  name: "inception_4d/1x1"
  type: "Convolution"
  bottom: "inception_4c/output"
  top: "inception_4d/1x1"
  param {
    lr_mult: 1
    decay_mult: 1
  }
  param {
    lr_mult: 2
    decay_mult: 0
  }
  convolution_param {
    num_output: 112
    kernel_size: 1
    weight_filler {
      type: "xavier"
      std: 0.03
    }
    bias_filler {
      type: "constant"
      value: 0.2
    }
  }
}
layer {
  name: "inception_4d/relu_1x1"
  type: "ReLU"
  bottom: "inception_4d/1x1"
  top: "inception_4d/1x1"
}
layer {
  name: "inception_4d/3x3_reduce"
  type: "Convolution"
  bottom: "inception_4c/output"
  top: "inception_4d/3x3_reduce"
  param {
    lr_mult: 1
    decay_mult: 1
  }
  param {
    lr_mult: 2
    decay_mult: 0
  }
  convolution_param {
    num_output: 144
    kernel_size: 1
    weight_filler {
      type: "xavier"
      std: 0.09
    }
    bias_filler {
      type: "constant"
      value: 0.2
    }
  }
}
layer {
  name: "inception_4d/relu_3x3_reduce"
  type: "ReLU"
  bottom: "inception_4d/3x3_reduce"
  top: "inception_4d/3x3_reduce"
}
layer {
  name: "inception_4d/3x3"
  type: "Convolution"
  bottom: "inception_4d/3x3_reduce"
  top: "inception_4d/3x3"
  param {
    lr_mult: 1
    decay_mult: 1
  }
  param {
    lr_mult: 2
    decay_mult: 0
  }
  convolution_param {
    num_output: 288
    pad: 1
    kernel_size: 3
    weight_filler {
      type: "xavier"
      std: 0.03
    }
    bias_filler {
      type: "constant"
      value: 0.2
    }
  }
}
layer {
  name: "inception_4d/relu_3x3"
  type: "ReLU"
  bottom: "inception_4d/3x3"
  top: "inception_4d/3x3"
}
layer {
  name: "inception_4d/5x5_reduce"
  type: "Convolution"
  bottom: "inception_4c/output"
  top: "inception_4d/5x5_reduce"
  param {
    lr_mult: 1
    decay_mult: 1
  }
  param {
    lr_mult: 2
    decay_mult: 0
  }
  convolution_param {
    num_output: 32
    kernel_size: 1
    weight_filler {
      type: "xavier"
      std: 0.2
    }
    bias_filler {
      type: "constant"
      value: 0.2
    }
  }
}
layer {
  name: "inception_4d/relu_5x5_reduce"
  type: "ReLU"
  bottom: "inception_4d/5x5_reduce"
  top: "inception_4d/5x5_reduce"
}
layer {
  name: "inception_4d/5x5"
  type: "Convolution"
  bottom: "inception_4d/5x5_reduce"
  top: "inception_4d/5x5"
  param {
    lr_mult: 1
    decay_mult: 1
  }
  param {
    lr_mult: 2
    decay_mult: 0
  }
  convolution_param {
    num_output: 64
    pad: 2
    kernel_size: 5
    weight_filler {
      type: "xavier"
      std: 0.03
    }
    bias_filler {
      type: "constant"
      value: 0.2
    }
  }
}
layer {
  name: "inception_4d/relu_5x5"
  type: "ReLU"
  bottom: "inception_4d/5x5"
  top: "inception_4d/5x5"
}
layer {
  name: "inception_4d/pool"
  type: "Pooling"
  bottom: "inception_4c/output"
  top: "inception_4d/pool"
  pooling_param {
    pool: MAX
    kernel_size: 3
    stride: 1
    pad: 1
  }
}
layer {
  name: "inception_4d/pool_proj"
  type: "Convolution"
  bottom: "inception_4d/pool"
  top: "inception_4d/pool_proj"
  param {
    lr_mult: 1
    decay_mult: 1
  }
  param {
    lr_mult: 2
    decay_mult: 0
  }
  convolution_param {
    num_output: 64
    kernel_size: 1
    weight_filler {
      type: "xavier"
…
I0902 17:38:09.391923 54235 net.cpp:163] Top shape: 32 512 14 14 (3211264)
I0902 17:38:09.391927 54235 net.cpp:163] Top shape: 32 512 14 14 (3211264)
I0902 17:38:09.391932 54235 layer_factory.hpp:76] Creating layer inception_4c/1x1
I0902 17:38:09.391942 54235 net.cpp:110] Creating Layer inception_4c/1x1
I0902 17:38:09.391947 54235 net.cpp:477] inception_4c/1x1 <- inception_4b/output_inception_4b/output_0_split_0
I0902 17:38:09.391954 54235 net.cpp:433] inception_4c/1x1 -> inception_4c/1x1
I0902 17:38:09.418107 54235 net.cpp:155] Setting up inception_4c/1x1
I0902 17:38:09.418123 54235 net.cpp:163] Top shape: 32 128 14 14 (802816)
I0902 17:38:09.418131 54235 layer_factory.hpp:76] Creating layer inception_4c/relu_1x1
I0902 17:38:09.418153 54235 net.cpp:110] Creating Layer inception_4c/relu_1x1
I0902 17:38:09.418157 54235 net.cpp:477] inception_4c/relu_1x1 <- inception_4c/1x1
I0902 17:38:09.418185 54235 net.cpp:419] inception_4c/relu_1x1 -> inception_4c/1x1 (in-place)
I0902 17:38:09.440397 54235 net.cpp:155] Setting up inception_4c/relu_1x1
I0902 17:38:09.440412 54235 net.cpp:163] Top shape: 32 128 14 14 (802816)
I0902 17:38:09.440417 54235 layer_factory.hpp:76] Creating layer inception_4c/3x3_reduce
I0902 17:38:09.440426 54235 net.cpp:110] Creating Layer inception_4c/3x3_reduce
I0902 17:38:09.440431 54235 net.cpp:477] inception_4c/3x3_reduce <- inception_4b/output_inception_4b/output_0_split_1
I0902 17:38:09.440439 54235 net.cpp:433] inception_4c/3x3_reduce -> inception_4c/3x3_reduce
I0902 17:38:09.445703 54235 net.cpp:155] Setting up inception_4c/3x3_reduce
I0902 17:38:09.445718 54235 net.cpp:163] Top shape: 32 128 14 14 (802816)
I0902 17:38:09.445725 54235 layer_factory.hpp:76] Creating layer inception_4c/relu_3x3_reduce
I0902 17:38:09.445732 54235 net.cpp:110] Creating Layer inception_4c/relu_3x3_reduce
I0902 17:38:09.445737 54235 net.cpp:477] inception_4c/relu_3x3_reduce <- inception_4c/3x3_reduce
I0902 17:38:09.445745 54235 net.cpp:419] inception_4c/relu_3x3_reduce -> inception_4c/3x3_reduce (in-place)
I0902 17:38:09.446756 54235 net.cpp:155] Setting up inception_4c/relu_3x3_reduce
I0902 17:38:09.446770 54235 net.cpp:163] Top shape: 32 128 14 14 (802816)
I0902 17:38:09.446776 54235 layer_factory.hpp:76] Creating layer inception_4c/3x3
I0902 17:38:09.446786 54235 net.cpp:110] Creating Layer inception_4c/3x3
I0902 17:38:09.446802 54235 net.cpp:477] inception_4c/3x3 <- inception_4c/3x3_reduce
I0902 17:38:09.446811 54235 net.cpp:433] inception_4c/3x3 -> inception_4c/3x3
I0902 17:38:09.454543 54235 net.cpp:155] Setting up inception_4c/3x3
I0902 17:38:09.454558 54235 net.cpp:163] Top shape: 32 256 14 14 (1605632)
I0902 17:38:09.454581 54235 layer_factory.hpp:76] Creating layer inception_4c/relu_3x3
I0902 17:38:09.454601 54235 net.cpp:110] Creating Layer inception_4c/relu_3x3
I0902 17:38:09.454605 54235 net.cpp:477] inception_4c/relu_3x3 <- inception_4c/3x3
I0902 17:38:09.454612 54235 net.cpp:419] inception_4c/relu_3x3 -> inception_4c/3x3 (in-place)
I0902 17:38:09.455613 54235 net.cpp:155] Setting up inception_4c/relu_3x3
I0902 17:38:09.455628 54235 net.cpp:163] Top shape: 32 256 14 14 (1605632)
I0902 17:38:09.455633 54235 layer_factory.hpp:76] Creating layer inception_4c/5x5_reduce
I0902 17:38:09.455643 54235 net.cpp:110] Creating Layer inception_4c/5x5_reduce
I0902 17:38:09.455659 54235 net.cpp:477] inception_4c/5x5_reduce <- inception_4b/output_inception_4b/output_0_split_2
I0902 17:38:09.455667 54235 net.cpp:433] inception_4c/5x5_reduce -> inception_4c/5x5_reduce
I0902 17:38:09.459122 54235 net.cpp:155] Setting up inception_4c/5x5_reduce
I0902 17:38:09.459137 54235 net.cpp:163] Top shape: 32 24 14 14 (150528)
I0902 17:38:09.459146 54235 layer_factory.hpp:76] Creating layer inception_4c/relu_5x5_reduce
I0902 17:38:09.459156 54235 net.cpp:110] Creating Layer inception_4c/relu_5x5_reduce
I0902 17:38:09.459161 54235 net.cpp:477] inception_4c/relu_5x5_reduce <- inception_4c/5x5_reduce
I0902 17:38:09.459178 54235 net.cpp:419] inception_4c/relu_5x5_reduce -> inception_4c/5x5_reduce (in-place)
I0902 17:38:09.460343 54235 net.cpp:155] Setting up inception_4c/relu_5x5_reduce
I0902 17:38:09.460358 54235 net.cpp:163] Top shape: 32 24 14 14 (150528)
I0902 17:38:09.460364 54235 layer_factory.hpp:76] Creating layer inception_4c/5x5
I0902 17:38:09.460376 54235 net.cpp:110] Creating Layer inception_4c/5x5
I0902 17:38:09.460391 54235 net.cpp:477] inception_4c/5x5 <- inception_4c/5x5_reduce
I0902 17:38:09.460398 54235 net.cpp:433] inception_4c/5x5 -> inception_4c/5x5
I0902 17:38:09.464210 54235 net.cpp:155] Setting up inception_4c/5x5
I0902 17:38:09.464226 54235 net.cpp:163] Top shape: 32 64 14 14 (401408)
I0902 17:38:09.464234 54235 layer_factory.hpp:76] Creating layer inception_4c/relu_5x5
I0902 17:38:09.464241 54235 net.cpp:110] Creating Layer inception_4c/relu_5x5
I0902 17:38:09.464246 54235 net.cpp:477] inception_4c/relu_5x5 <- inception_4c/5x5
I0902 17:38:09.464264 54235 net.cpp:419] inception_4c/relu_5x5 -> inception_4c/5x5 (in-place)
I0902 17:38:09.465939 54235 net.cpp:155] Setting up inception_4c/relu_5x5
I0902 17:38:09.465955 54235 net.cpp:163] Top shape: 32 64 14 14 (401408)
I0902 17:38:09.465960 54235 layer_factory.hpp:76] Creating layer inception_4c/pool
I0902 17:38:09.465965 54235 layer_factory.cpp:60] CUDNN does not support padding or multiple tops. Using Caffe's own pooling layer.
I0902 17:38:09.465972 54235 net.cpp:110] Creating Layer inception_4c/pool
I0902 17:38:09.465989 54235 net.cpp:477] inception_4c/pool <- inception_4b/output_inception_4b/output_0_split_3
I0902 17:38:09.465996 54235 net.cpp:433] inception_4c/pool -> inception_4c/pool
I0902 17:38:09.466006 54235 net.cpp:155] Setting up inception_4c/pool
I0902 17:38:09.466012 54235 net.cpp:163] Top shape: 32 512 14 14 (3211264)
I0902 17:38:09.466015 54235 layer_factory.hpp:76] Creating layer inception_4c/pool_proj
I0902 17:38:09.466025 54235 net.cpp:110] Creating Layer inception_4c/pool_proj
I0902 17:38:09.466030 54235 net.cpp:477] inception_4c/pool_proj <- inception_4c/pool
I0902 17:38:09.466038 54235 net.cpp:433] inception_4c/pool_proj -> inception_4c/pool_proj
I0902 17:38:09.474941 54235 net.cpp:155] Setting up inception_4c/pool_proj
I0902 17:38:09.474956 54235 net.cpp:163] Top shape: 32 64 14 14 (401408)
I0902 17:38:09.474966 54235 layer_factory.hpp:76] Creating layer inception_4c/relu_pool_proj
I0902 17:38:09.474972 54235 net.cpp:110] Creating Layer inception_4c/relu_pool_proj
I0902 17:38:09.474977 54235 net.cpp:477] inception_4c/relu_pool_proj <- inception_4c/pool_proj
I0902 17:38:09.474997 54235 net.cpp:419] inception_4c/relu_pool_proj -> inception_4c/pool_proj (in-place)
I0902 17:38:09.476378 54235 net.cpp:155] Setting up inception_4c/relu_pool_proj
I0902 17:38:09.476403 54235 net.cpp:163] Top shape: 32 64 14 14 (401408)
I0902 17:38:09.476408 54235 layer_factory.hpp:76] Creating layer inception_4c/output
I0902 17:38:09.476415 54235 net.cpp:110] Creating Layer inception_4c/output
I0902 17:38:09.476420 54235 net.cpp:477] inception_4c/output <- inception_4c/1x1
I0902 17:38:09.476436 54235 net.cpp:477] inception_4c/output <- inception_4c/3x3
I0902 17:38:09.476441 54235 net.cpp:477] inception_4c/output <- inception_4c/5x5
I0902 17:38:09.476447 54235 net.cpp:477] inception_4c/output <- inception_4c/pool_proj
I0902 17:38:09.476454 54235 net.cpp:433] inception_4c/output -> inception_4c/output
I0902 17:38:09.476461 54235 net.cpp:155] Setting up inception_4c/output
I0902 17:38:09.476467 54235 net.cpp:163] Top shape: 32 512 14 14 (3211264)
I0902 17:38:09.476471 54235 layer_factory.hpp:76] Creating layer inception_4c/output_inception_4c/output_0_split
I0902 17:38:09.476480 54235 net.cpp:110] Creating Layer inception_4c/output_inception_4c/output_0_split
I0902 17:38:09.476485 54235 net.cpp:477] inception_4c/output_inception_4c/output_0_split <- inception_4c/output
I0902 17:38:09.476490 54235 net.cpp:433] inception_4c/output_inception_4c/output_0_split -> inception_4c/output_inception_4c/output_0_split_0
I0902 17:38:09.476496 54235 net.cpp:433] inception_4c/output_inception_4c/output_0_split -> inception_4c/output_inception_4c/output_0_split_1
I0902 17:38:09.476505 54235 net.cpp:433] inception_4c/output_inception_4c/output_0_split -> inception_4c/output_inception_4c/output_0_split_2
I0902 17:38:09.476512 54235 net.cpp:433] inception_4c/output_inception_4c/output_0_split -> inception_4c/output_inception_4c/output_0_split_3
I0902 17:38:09.476519 54235 net.cpp:155] Setting up inception_4c/output_inception_4c/output_0_split
I0902 17:38:09.476526 54235 net.cpp:163] Top shape: 32 512 14 14 (3211264)
I0902 17:38:09.476529 54235 net.cpp:163] Top shape: 32 512 14 14 (3211264)
I0902 17:38:09.476533 54235 net.cpp:163] Top shape: 32 512 14 14 (3211264)
I0902 17:38:09.476537 54235 net.cpp:163] Top shape: 32 512 14 14 (3211264)
I0902 17:38:09.476541 54235 layer_factory.hpp:76] Creating layer inception_4d/1x1
I0902 17:38:09.476548 54235 net.cpp:110] Creating Layer inception_4d/1x1
I0902 17:38:09.476552 54235 net.cpp:477] inception_4d/1x1 <- inception_4c/output_inception_4c/output_0_split_0
I0902 17:38:09.476573 54235 net.cpp:433] inception_4d/1x1 -> inception_4d/1x1
I0902 17:38:09.488615 54235 net.cpp:155] Setting up inception_4d/1x1
I0902 17:38:09.488631 54235 net.cpp:163] Top shape: 32 112 14 14 (702464)
I0902 17:38:09.488638 54235 layer_factory.hpp:76] Creating layer inception_4d/relu_1x1
I0902 17:38:09.488646 54235 net.cpp:110] Creating Layer inception_4d/relu_1x1
I0902 17:38:09.488649 54235 net.cpp:477] inception_4d/relu_1x1 <- inception_4d/1x1
I0902 17:38:09.488658 54235 net.cpp:419] inception_4d/relu_1x1 -> inception_4d/1x1 (in-place)
I0902 17:38:09.489755 54235 net.cpp:155] Setting up inception_4d/relu_1x1
I0902 17:38:09.489770 54235 net.cpp:163] Top shape: 32 112 14 14 (702464)
I0902 17:38:09.489776 54235 layer_factory.hpp:76] Creating layer inception_4d/3x3_reduce
I0902 17:38:09.489784 54235 net.cpp:110] Creating Layer inception_4d/3x3_reduce
I0902 17:38:09.489789 54235 net.cpp:477] inception_4d/3x3_reduce <- inception_4c/output_inception_4c/output_0_split_1
I0902 17:38:09.489826 54235 net.cpp:433] inception_4d/3x3_reduce -> inception_4d/3x3_reduce
I0902 17:38:09.512857 54235 net.cpp:155] Setting up inception_4d/3x3_reduce
I0902 17:38:09.512872 54235 net.cpp:163] Top shape: 32 144 14 14 (903168)
I0902 17:38:09.512881 54235 layer_factory.hpp:76] Creating layer inception_4d/relu_3x3_reduce
I0902 17:38:09.512889 54235 net.cpp:110] Creating Layer inception_4d/relu_3x3_reduce
I0902 17:38:09.512894 54235 net.cpp:477] inception_4d/relu_3x3_reduce <- inception_4d/3x3_reduce
I0902 17:38:09.512900 54235 net.cpp:419] inception_4d/relu_3x3_reduce -> inception_4d/3x3_reduce (in-place)
I0902 17:38:09.514972 54235 net.cpp:155] Setting up inception_4d/relu_3x3_reduce
I0902 17:38:09.514987 54235 net.cpp:163] Top shape: 32 144 14 14 (903168)
I0902 17:38:09.514992 54235 layer_factory.hpp:76] Creating layer inception_4d/3x3
I0902 17:38:09.515000 54235 net.cpp:110] Creating Layer inception_4d/3x3
I0902 17:38:09.515004 54235 net.cpp:477] inception_4d/3x3 <- inception_4d/3x3_reduce
I0902 17:38:09.515024 54235 net.cpp:433] inception_4d/3x3 -> inception_4d/3x3
I0902 17:38:09.522501 54235 net.cpp:155] Setting up inception_4d/3x3
I0902 17:38:09.522516 54235 net.cpp:163] Top shape: 32 288 14 14 (1806336)
I0902 17:38:09.522526 54235 layer_factory.hpp:76] Creating layer inception_4d/relu_3x3
I0902 17:38:09.522536 54235 net.cpp:110] Creating Layer inception_4d/relu_3x3
I0902 17:38:09.522541 54235 net.cpp:477] inception_4d/relu_3x3 <- inception_4d/3x3
I0902 17:38:09.522557 54235 net.cpp:419] inception_4d/relu_3x3 -> inception_4d/3x3 (in-place)
I0902 17:38:09.524628 54235 net.cpp:155] Setting up inception_4d/relu_3x3
I0902 17:38:09.524641 54235 net.cpp:163] Top shape: 32 288 14 14 (1806336)
I0902 17:38:09.524646 54235 layer_factory.hpp:76] Creating layer inception_4d/5x5_reduce
I0902 17:38:09.524657 54235 net.cpp:110] Creating Layer inception_4d/5x5_reduce
I0902 17:38:09.524662 54235 net.cpp:477] inception_4d/5x5_reduce <- inception_4c/output_inception_4c/output_0_split_2
I0902 17:38:09.524682 54235 net.cpp:433] inception_4d/5x5_reduce -> inception_4d/5x5_reduce
I0902 17:38:09.572644 54235 net.cpp:155] Setting up inception_4d/5x5_reduce
I0902 17:38:09.572659 54235 net.cpp:163] Top shape: 32 32 14 14 (200704)
I0902 17:38:09.572667 54235 layer_factory.hpp:76] Creating layer inception_4d/relu_5x5_reduce
I0902 17:38:09.572674 54235 net.cpp:110] Creating Layer inception_4d/relu_5x5_reduce
I0902 17:38:09.572679 54235 net.cpp:477] inception_4d/relu_5x5_reduce <- inception_4d/5x5_reduce
I0902 17:38:09.572687 54235 net.cpp:419] inception_4d/relu_5x5_reduce -> inception_4d/5x5_reduce (in-place)
I0902 17:38:09.574610 54235 net.cpp:155] Setting up inception_4d/relu_5x5_reduce
I0902 17:38:09.574625 54235 net.cpp:163] Top shape: 32 32 14 14 (200704)
I0902 17:38:09.574631 54235 layer_factory.hpp:76] Creating layer inception_4d/5x5
I0902 17:38:09.574641 54235 net.cpp:110] Creating Layer inception_4d/5x5
I0902 17:38:09.574646 54235 net.cpp:477] inception_4d/5x5 <- inception_4d/5x5_reduce
I0902 17:38:09.574666 54235 net.cpp:433] inception_4d/5x5 -> inception_4d/5x5
I0902 17:38:09.604965 54235 net.cpp:155] Setting up inception_4d/5x5
I0902 17:38:09.604981 54235 net.cpp:163] Top shape: 32 64 14 14 (401408)
I0902 17:38:09.604990 54235 layer_factory.hpp:76] Creating layer inception_4d/relu_5x5
I0902 17:38:09.604998 54235 net.cpp:110] Creating Layer inception_4d/relu_5x5
I0902 17:38:09.605002 54235 net.cpp:477] inception_4d/relu_5x5 <- inception_4d/5x5
I0902 17:38:09.605008 54235 net.cpp:419] inception_4d/relu_5x5 -> inception_4d/5x5 (in-place)
I0902 17:38:09.606045 54235 net.cpp:155] Setting up inception_4d/relu_5x5
I0902 17:38:09.606060 54235 net.cpp:163] Top shape: 32 64 14 14 (401408)
I0902 17:38:09.606065 54235 layer_factory.hpp:76] Creating layer inception_4d/pool
I0902 17:38:09.606070 54235 layer_factory.cpp:60] CUDNN does not support padding or multiple tops. Using Caffe's own pooling layer.
I0902 17:38:09.606078 54235 net.cpp:110] Creating Layer inception_4d/pool
I0902 17:38:09.606094 54235 net.cpp:477] inception_4d/pool <- inception_4c/output_inception_4c/output_0_split_3
I0902 17:38:09.606103 54235 net.cpp:433] inception_4d/pool -> inception_4d/pool
I0902 17:38:09.606113 54235 net.cpp:155] Setting up inception_4d/pool
I0902 17:38:09.606118 54235 net.cpp:163] Top shape: 32 512 14 14 (3211264)
I0902 17:38:09.606123 54235 layer_factory.hpp:76] Creating layer inception_4d/pool_proj
I0902 17:38:09.606130 54235 net.cpp:110] Creating Layer inception_4d/pool_proj
I0902 17:38:09.606134 54235 net.cpp:477] inception_4d/pool_proj <- inception_4d/pool
I0902 17:38:09.606142 54235 net.cpp:433] inception_4d/pool_proj -> inception_4d/pool_proj
I0902 17:38:09.609724 54235 net.cpp:155] Setting up inception_4d/pool_proj
I0902 17:38:09.609741 54235 net.cpp:163] Top shape: 32 64 14 14 (401408)
I0902 17:38:09.609750 54235 layer_factory.hpp:76] Creating layer inception_4d/relu_pool_proj
I0902 17:38:09.609755 54235 net.cpp:110] Creating Layer inception_4d/relu_pool_proj
I0902 17:38:09.609760 54235 net.cpp:477] inception_4d/relu_pool_proj <- inception_4d/pool_proj
I0902 17:38:09.609777 54235 net.cpp:419] inception_4d/relu_pool_proj -> inception_4d/pool_proj (in-place)
I0902 17:38:09.610991 54235 net.cpp:155] Setting up inception_4d/relu_pool_proj
I0902 17:38:09.611004 54235 net.cpp:163] Top shape: 32 64 14 14 (401408)
I0902 17:38:09.611011 54235 layer_factory.hpp:76] Creating layer inception_4d/output
I0902 17:38:09.611017 54235 net.cpp:110] Creating Layer inception_4d/output
I0902 17:38:09.611021 54235 net.cpp:477] inception_4d/output <- inception_4d/1x1
I0902 17:38:09.611027 54235 net.cpp:477] inception_4d/output <- inception_4d/3x3
I0902 17:38:09.611032 54235 net.cpp:477] inception_4d/output <- inception_4d/5x5
I0902 17:38:09.611035 54235 net.cpp:477] inception_4d/output <- inception_4d/pool_proj
I0902 17:38:09.611057 54235 net.cpp:433] inception_4d/output -> inception_4d/output
I0902 17:38:09.611065 54235 net.cpp:155] Setting up inception_4d/output
I0902 17:38:09.611071 54235 net.cpp:163] Top shape: 32 528 14 14 (3311616)
I0902 17:38:09.611075 54235 layer_factory.hpp:76] Creating layer inception_4d/output_inception_4d/output_0_split
I0902 17:38:09.611081 54235 net.cpp:110] Creating Layer inception_4d/output_inception_4d/output_0_split
I0902 17:38:09.611085 54235 net.cpp:477] inception_4d/output_inception_4d/output_0_split <- inception_4d/output
I0902 17:38:09.611093 54235 net.cpp:433] inception_4d/output_inception_4d/output_0_split -> inception_4d/output_inception_4d/output_0_split_0
I0902 17:38:09.611100 54235 net.cpp:433] inception_4d/output_inception_4d/output_0_split -> inception_4d/output_inception_4d/output_0_split_1
I0902 17:38:09.611107 54235 net.cpp:433] inception_4d/output_inception_4d/output_0_split -> inception_4d/output_inception_4d/output_0_split_2
I0902 17:38:09.611114 54235 net.cpp:433] inception_4d/output_inception_4d/output_0_split -> inception_4d/output_inception_4d/output_0_split_3
I0902 17:38:09.611119 54235 net.cpp:433] inception_4d/output_inception_4d/output_0_split -> inception_4d/output_inception_4d/output_0_split_4
I0902 17:38:09.611143 54235 net.cpp:155] Setting up inception_4d/output_inception_4d/output_0_split
I0902 17:38:09.611150 54235 net.cpp:163] Top shape: 32 528 14 14 (3311616)
I0902 17:38:09.611155 54235 net.cpp:163] Top shape: 32 528 14 14 (3311616)
I0902 17:38:09.611160 54235 net.cpp:163] Top shape: 32 528 14 14 (3311616)
I0902 17:38:09.611163 54235 net.cpp:163] Top shape: 32 528 14 14 (3311616)
I0902 17:38:09.611167 54235 net.cpp:163] Top shape: 32 528 14 14 (3311616)
I0902 17:38:09.611171 54235 layer_factory.hpp:76] Creating layer loss2/ave_pool
I0902 17:38:09.611181 54235 net.cpp:110] Creating Layer loss2/ave_pool
I0902 17:38:09.611186 54235 net.cpp:477] loss2/ave_pool <- inception_4d/output_inception_4d/output_0_split_0
I0902 17:38:09.611191 54235 net.cpp:433] loss2/ave_pool -> loss2/ave_pool
I0902 17:38:09.612243 54235 net.cpp:155] Setting up loss2/ave_pool
I0902 17:38:09.612257 54235 net.cpp:163] Top shape: 32 528 4 4 (270336)
I0902 17:38:09.612263 54235 layer_factory.hpp:76] Creating layer loss2/conv
I0902 17:38:09.612273 54235 net.cpp:110] Creating Layer loss2/conv
I0902 17:38:09.612278 54235 net.cpp:477] loss2/conv <- loss2/ave_pool
I0902 17:38:09.612287 54235 net.cpp:433] loss2/conv -> loss2/conv
I0902 17:38:09.616492 54235 net.cpp:155] Setting up loss2/conv
I0902 17:38:09.616508 54235 net.cpp:163] Top shape: 32 128 4 4 (65536)
I0902 17:38:09.616516 54235 layer_factory.hpp:76] Creating layer loss2/relu_conv
I0902 17:38:09.616523 54235 net.cpp:110] Creating Layer loss2/relu_conv
I0902 17:38:09.616541 54235 net.cpp:477] loss2/relu_conv <- loss2/conv
I0902 17:38:09.616549 54235 net.cpp:419] loss2/relu_conv -> loss2/conv (in-place)
I0902 17:38:09.617729 54235 net.cpp:155] Setting up loss2/relu_conv
I0902 17:38:09.617744 54235 net.cpp:163] Top shape: 32 128 4 4 (65536)
I0902 17:38:09.617749 54235 layer_factory.hpp:76] Creating layer loss2/fc
I0902 17:38:09.617760 54235 net.cpp:110] Creating Layer loss2/fc
I0902 17:38:09.617776 54235 net.cpp:477] loss2/fc <- loss2/conv
I0902 17:38:09.617784 54235 net.cpp:433] loss2/fc -> loss2/fc
I0902 17:38:09.634909 54235 net.cpp:155] Setting up loss2/fc
I0902 17:38:09.634924 54235 net.cpp:163] Top shape: 32 1024 (32768)
I0902 17:38:09.634932 54235 layer_factory.hpp:76] Creating layer loss2/relu_fc
I0902 17:38:09.634939 54235 net.cpp:110] Creating Layer loss2/relu_fc
I0902 17:38:09.634943 54235 net.cpp:477] loss2/relu_fc <- loss2/fc
I0902 17:38:09.634949 54235 net.cpp:419] loss2/relu_fc -> loss2/fc (in-place)
I0902 17:38:09.635999 54235 net.cpp:155] Setting up loss2/relu_fc
I0902 17:38:09.636013 54235 net.cpp:163] Top shape: 32 1024 (32768)
I0902 17:38:09.636018 54235 layer_factory.hpp:76] Creating layer loss2/drop_fc
I0902 17:38:09.636028 54235 net.cpp:110] Creating Layer loss2/drop_fc
I0902 17:38:09.636032 54235 net.cpp:477] loss2/drop_fc <- loss2/fc
I0902 17:38:09.636049 54235 net.cpp:419] loss2/drop_fc -> loss2/fc (in-place)
I0902 17:38:09.636057 54235 net.cpp:155] Setting up loss2/drop_fc
I0902 17:38:09.636062 54235 net.cpp:163] Top shape: 32 1024 (32768)
I0902 17:38:09.636066 54235 layer_factory.hpp:76] Creating layer loss2/classifier_cub
I0902 17:38:09.636075 54235 net.cpp:110] Creating Layer loss2/classifier_cub
I0902 17:38:09.636078 54235 net.cpp:477] loss2/classifier_cub <- loss2/fc
I0902 17:38:09.636086 54235 net.cpp:433] loss2/classifier_cub -> loss2/classifier
I0902 17:38:09.642774 54235 net.cpp:155] Setting up loss2/classifier_cub
I0902 17:38:09.642788 54235 net.cpp:163] Top shape: 32 200 (6400)
I0902 17:38:09.642796 54235 layer_factory.hpp:76] Creating layer loss2/classifier_loss2/classifier_cub_0_split
I0902 17:38:09.642803 54235 net.cpp:110] Creating Layer loss2/classifier_loss2/classifier_cub_0_split
I0902 17:38:09.642808 54235 net.cpp:477] loss2/classifier_loss2/classifier_cub_0_split <- loss2/classifier
I0902 17:38:09.642827 54235 net.cpp:433] loss2/classifier_loss2/classifier_cub_0_split -> loss2/classifier_loss2/classifier_cub_0_split_0
I0902 17:38:09.642837 54235 net.cpp:433] loss2/classifier_loss2/classifier_cub_0_split -> loss2/classifier_loss2/classifier_cub_0_split_1
I0902 17:38:09.642858 54235 net.cpp:433] loss2/classifier_loss2/classifier_cub_0_split -> loss2/classifier_loss2/classifier_cub_0_split_2
I0902 17:38:09.642865 54235 net.cpp:155] Setting up loss2/classifier_loss2/classifier_cub_0_split
I0902 17:38:09.642870 54235 net.cpp:163] Top shape: 32 200 (6400)
I0902 17:38:09.642875 54235 net.cpp:163] Top shape: 32 200 (6400)
I0902 17:38:09.642879 54235 net.cpp:163] Top shape: 32 200 (6400)
I0902 17:38:09.642884 54235 layer_factory.hpp:76] Creating layer loss2/loss
I0902 17:38:09.642892 54235 net.cpp:110] Creating Layer loss2/loss
I0902 17:38:09.642896 54235 net.cpp:477] loss2/loss <- loss2/classifier_loss2/classifier_cub_0_split_0
I0902 17:38:09.642901 54235 net.cpp:477] loss2/loss <- label_data_1_split_3
I0902 17:38:09.642907 54235 net.cpp:433] loss2/loss -> loss2/loss1
…
I0902 17:38:09.644220 54235 net.cpp:433] loss2/top-5 -> loss2/top-5
I0902 17:38:09.644227 54235 net.cpp:155] Setting up loss2/top-5
I0902 17:38:09.644232 54235 net.cpp:163] Top shape: (1)
I0902 17:38:09.644237 54235 layer_factory.hpp:76] Creating layer inception_4e/1x1
I0902 17:38:09.644244 54235 net.cpp:110] Creating Layer inception_4e/1x1
I0902 17:38:09.644248 54235 net.cpp:477] inception_4e/1x1 <- inception_4d/output_inception_4d/output_0_split_1
I0902 17:38:09.644258 54235 net.cpp:433] inception_4e/1x1 -> inception_4e/1x1
I0902 17:38:09.648324 54235 net.cpp:155] Setting up inception_4e/1x1
I0902 17:38:09.648340 54235 net.cpp:163] Top shape: 32 256 14 14 (1605632)
I0902 17:38:09.648350 54235 layer_factory.hpp:76] Creating layer inception_4e/relu_1x1
I0902 17:38:09.648356 54235 net.cpp:110] Creating Layer inception_4e/relu_1x1
I0902 17:38:09.648361 54235 net.cpp:477] inception_4e/relu_1x1 <- inception_4e/1x1
I0902 17:38:09.648378 54235 net.cpp:419] inception_4e/relu_1x1 -> inception_4e/1x1 (in-place)
I0902 17:38:09.649575 54235 net.cpp:155] Setting up inception_4e/relu_1x1
I0902 17:38:09.649590 54235 net.cpp:163] Top shape: 32 256 14 14 (1605632)
I0902 17:38:09.649596 54235 layer_factory.hpp:76] Creating layer inception_4e/3x3_reduce
I0902 17:38:09.649636 54235 net.cpp:110] Creating Layer inception_4e/3x3_reduce
I0902 17:38:09.649641 54235 net.cpp:477] inception_4e/3x3_reduce <- inception_4d/output_inception_4d/output_0_split_2
I0902 17:38:09.649648 54235 net.cpp:433] inception_4e/3x3_reduce -> inception_4e/3x3_reduce
I0902 17:38:09.654072 54235 net.cpp:155] Setting up inception_4e/3x3_reduce
I0902 17:38:09.654088 54235 net.cpp:163] Top shape: 32 160 14 14 (1003520)
I0902 17:38:09.654096 54235 layer_factory.hpp:76] Creating layer inception_4e/relu_3x3_reduce
I0902 17:38:09.654103 54235 net.cpp:110] Creating Layer inception_4e/relu_3x3_reduce
I0902 17:38:09.654108 54235 net.cpp:477] inception_4e/relu_3x3_reduce <- inception_4e/3x3_reduce
I0902 17:38:09.654124 54235 net.cpp:419] inception_4e/relu_3x3_reduce -> inception_4e/3x3_reduce (in-place)
I0902 17:38:09.655174 54235 net.cpp:155] Setting up inception_4e/relu_3x3_reduce
I0902 17:38:09.655200 54235 net.cpp:163] Top shape: 32 160 14 14 (1003520)
I0902 17:38:09.655206 54235 layer_factory.hpp:76] Creating layer inception_4e/3x3
I0902 17:38:09.655216 54235 net.cpp:110] Creating Layer inception_4e/3x3
I0902 17:38:09.655232 54235 net.cpp:477] inception_4e/3x3 <- inception_4e/3x3_reduce
I0902 17:38:09.655239 54235 net.cpp:433] inception_4e/3x3 -> inception_4e/3x3
I0902 17:38:09.662483 54235 net.cpp:155] Setting up inception_4e/3x3
I0902 17:38:09.662499 54235 net.cpp:163] Top shape: 32 320 14 14 (2007040)
I0902 17:38:09.662508 54235 layer_factory.hpp:76] Creating layer inception_4e/relu_3x3
I0902 17:38:09.662516 54235 net.cpp:110] Creating Layer inception_4e/relu_3x3
I0902 17:38:09.662521 54235 net.cpp:477] inception_4e/relu_3x3 <- inception_4e/3x3
I0902 17:38:09.662528 54235 net.cpp:419] inception_4e/relu_3x3 -> inception_4e/3x3 (in-place)
I0902 17:38:09.663584 54235 net.cpp:155] Setting up inception_4e/relu_3x3
I0902 17:38:09.663599 54235 net.cpp:163] Top shape: 32 320 14 14 (2007040)
I0902 17:38:09.663604 54235 layer_factory.hpp:76] Creating layer inception_4e/5x5_reduce
I0902 17:38:09.663614 54235 net.cpp:110] Creating Layer inception_4e/5x5_reduce
I0902 17:38:09.663630 54235 net.cpp:477] inception_4e/5x5_reduce <- inception_4d/output_inception_4d/output_0_split_3
I0902 17:38:09.663648 54235 net.cpp:433] inception_4e/5x5_reduce -> inception_4e/5x5_reduce
I0902 17:38:09.667110 54235 net.cpp:155] Setting up inception_4e/5x5_reduce
I0902 17:38:09.667125 54235 net.cpp:163] Top shape: 32 32 14 14 (200704)
I0902 17:38:09.667134 54235 layer_factory.hpp:76] Creating layer inception_4e/relu_5x5_reduce
I0902 17:38:09.667141 54235 net.cpp:110] Creating Layer inception_4e/relu_5x5_reduce
I0902 17:38:09.667157 54235 net.cpp:477] inception_4e/relu_5x5_reduce <- inception_4e/5x5_reduce
I0902 17:38:09.667163 54235 net.cpp:419] inception_4e/relu_5x5_reduce -> inception_4e/5x5_reduce (in-place)
I0902 17:38:09.668215 54235 net.cpp:155] Setting up inception_4e/relu_5x5_reduce
I0902 17:38:09.668228 54235 net.cpp:163] Top shape: 32 32 14 14 (200704)
I0902 17:38:09.668234 54235 layer_factory.hpp:76] Creating layer inception_4e/5x5
I0902 17:38:09.668244 54235 net.cpp:110] Creating Layer inception_4e/5x5
I0902 17:38:09.668261 54235 net.cpp:477] inception_4e/5x5 <- inception_4e/5x5_reduce
I0902 17:38:09.668267 54235 net.cpp:433] inception_4e/5x5 -> inception_4e/5x5
I0902 17:38:09.672132 54235 net.cpp:155] Setting up inception_4e/5x5
I0902 17:38:09.672147 54235 net.cpp:163] Top shape: 32 128 14 14 (802816)
I0902 17:38:09.672155 54235 layer_factory.hpp:76] Creating layer inception_4e/relu_5x5
I0902 17:38:09.672164 54235 net.cpp:110] Creating Layer inception_4e/relu_5x5
I0902 17:38:09.672169 54235 net.cpp:477] inception_4e/relu_5x5 <- inception_4e/5x5
I0902 17:38:09.672186 54235 net.cpp:419] inception_4e/relu_5x5 -> inception_4e/5x5 (in-place)
I0902 17:38:09.673387 54235 net.cpp:155] Setting up inception_4e/relu_5x5
I0902 17:38:09.673400 54235 net.cpp:163] Top shape: 32 128 14 14 (802816)
I0902 17:38:09.673408 54235 layer_factory.hpp:76] Creating layer inception_4e/pool
I0902 17:38:09.673413 54235 layer_factory.cpp:60] CUDNN does not support padding or multiple tops. Using Caffe's own pooling layer.
I0902 17:38:09.673419 54235 net.cpp:110] Creating Layer inception_4e/pool
I0902 17:38:09.673424 54235 net.cpp:477] inception_4e/pool <- inception_4d/output_inception_4d/output_0_split_4
I0902 17:38:09.673441 54235 net.cpp:433] inception_4e/pool -> inception_4e/pool
I0902 17:38:09.673451 54235 net.cpp:155] Setting up inception_4e/pool
I0902 17:38:09.673457 54235 net.cpp:163] Top shape: 32 528 14 14 (3311616)
I0902 17:38:09.673460 54235 layer_factory.hpp:76] Creating layer inception_4e/pool_proj
I0902 17:38:09.673471 54235 net.cpp:110] Creating Layer inception_4e/pool_proj
I0902 17:38:09.673475 54235 net.cpp:477] inception_4e/pool_proj <- inception_4e/pool
I0902 17:38:09.673483 54235 net.cpp:433] inception_4e/pool_proj -> inception_4e/pool_proj
I0902 17:38:09.677222 54235 net.cpp:155] Setting up inception_4e/pool_proj
I0902 17:38:09.677248 54235 net.cpp:163] Top shape: 32 128 14 14 (802816)
I0902 17:38:09.677258 54235 layer_factory.hpp:76] Creating layer inception_4e/relu_pool_proj
I0902 17:38:09.677264 54235 net.cpp:110] Creating Layer inception_4e/relu_pool_proj
I0902 17:38:09.677269 54235 net.cpp:477] inception_4e/relu_pool_proj <- inception_4e/pool_proj
I0902 17:38:09.677291 54235 net.cpp:419] inception_4e/relu_pool_proj -> inception_4e/pool_proj (in-place)
I0902 17:38:09.678375 54235 net.cpp:155] Setting up inception_4e/relu_pool_proj
I0902 17:38:09.678390 54235 net.cpp:163] Top shape: 32 128 14 14 (802816)
I0902 17:38:09.678395 54235 layer_factory.hpp:76] Creating layer inception_4e/output
I0902 17:38:09.678406 54235 net.cpp:110] Creating Layer inception_4e/output
I0902 17:38:09.678421 54235 net.cpp:477] inception_4e/output <- inception_4e/1x1
I0902 17:38:09.678427 54235 net.cpp:477] inception_4e/output <- inception_4e/3x3
I0902 17:38:09.678432 54235 net.cpp:477] inception_4e/output <- inception_4e/5x5
I0902 17:38:09.678436 54235 net.cpp:477] inception_4e/output <- inception_4e/pool_proj
I0902 17:38:09.678442 54235 net.cpp:433] inception_4e/output -> inception_4e/output
I0902 17:38:09.678452 54235 net.cpp:155] Setting up inception_4e/output
I0902 17:38:09.678457 54235 net.cpp:163] Top shape: 32 832 14 14 (5218304)
I0902 17:38:09.678460 54235 layer_factory.hpp:76] Creating layer pool4/3x3_s2
I0902 17:38:09.678467 54235 net.cpp:110] Creating Layer pool4/3x3_s2
I0902 17:38:09.678470 54235 net.cpp:477] pool4/3x3_s2 <- inception_4e/output
I0902 17:38:09.678479 54235 net.cpp:433] pool4/3x3_s2 -> pool4/3x3_s2
I0902 17:38:09.679693 54235 net.cpp:155] Setting up pool4/3x3_s2
I0902 17:38:09.679708 54235 net.cpp:163] Top shape: 32 832 7 7 (1304576)
I0902 17:38:09.679713 54235 layer_factory.hpp:76] Creating layer pool4/3x3_s2_pool4/3x3_s2_0_split
I0902 17:38:09.679720 54235 net.cpp:110] Creating Layer pool4/3x3_s2_pool4/3x3_s2_0_split
I0902 17:38:09.679724 54235 net.cpp:477] pool4/3x3_s2_pool4/3x3_s2_0_split <- pool4/3x3_s2
I0902 17:38:09.679744 54235 net.cpp:433] pool4/3x3_s2_pool4/3x3_s2_0_split -> pool4/3x3_s2_pool4/3x3_s2_0_split_0
I0902 17:38:09.679751 54235 net.cpp:433] pool4/3x3_s2_pool4/3x3_s2_0_split -> pool4/3x3_s2_pool4/3x3_s2_0_split_1
I0902 17:38:09.679759 54235 net.cpp:433] pool4/3x3_s2_pool4/3x3_s2_0_split -> pool4/3x3_s2_pool4/3x3_s2_0_split_2
I0902 17:38:09.679783 54235 net.cpp:433] pool4/3x3_s2_pool4/3x3_s2_0_split -> pool4/3x3_s2_pool4/3x3_s2_0_split_3
I0902 17:38:09.679792 54235 net.cpp:155] Setting up pool4/3x3_s2_pool4/3x3_s2_0_split
I0902 17:38:09.679797 54235 net.cpp:163] Top shape: 32 832 7 7 (1304576)
I0902 17:38:09.679801 54235 net.cpp:163] Top shape: 32 832 7 7 (1304576)
I0902 17:38:09.679807 54235 net.cpp:163] Top shape: 32 832 7 7 (1304576)
I0902 17:38:09.679811 54235 net.cpp:163] Top shape: 32 832 7 7 (1304576)
I0902 17:38:09.679816 54235 layer_factory.hpp:76] Creating layer inception_5a/1x1
I0902 17:38:09.679832 54235 net.cpp:110] Creating Layer inception_5a/1x1
I0902 17:38:09.679837 54235 net.cpp:477] inception_5a/1x1 <- pool4/3x3_s2_pool4/3x3_s2_0_split_0
I0902 17:38:09.679848 54235 net.cpp:433] inception_5a/1x1 -> inception_5a/1x1
I0902 17:38:09.685294 54235 net.cpp:155] Setting up inception_5a/1x1
I0902 17:38:09.685309 54235 net.cpp:163] Top shape: 32 256 7 7 (401408)
I0902 17:38:09.685318 54235 layer_factory.hpp:76] Creating layer inception_5a/relu_1x1
I0902 17:38:09.685325 54235 net.cpp:110] Creating Layer inception_5a/relu_1x1
I0902 17:38:09.685330 54235 net.cpp:477] inception_5a/relu_1x1 <- inception_5a/1x1
I0902 17:38:09.685349 54235 net.cpp:419] inception_5a/relu_1x1 -> inception_5a/1x1 (in-place)
I0902 17:38:09.686395 54235 net.cpp:155] Setting up inception_5a/relu_1x1
I0902 17:38:09.686410 54235 net.cpp:163] Top shape: 32 256 7 7 (401408)
I0902 17:38:09.686415 54235 layer_factory.hpp:76] Creating layer inception_5a/3x3_reduce
I0902 17:38:09.686426 54235 net.cpp:110] Creating Layer inception_5a/3x3_reduce
I0902 17:38:09.686431 54235 net.cpp:477] inception_5a/3x3_reduce <- pool4/3x3_s2_pool4/3x3_s2_0_split_1
I0902 17:38:09.686463 54235 net.cpp:433] inception_5a/3x3_reduce -> inception_5a/3x3_reduce
I0902 17:38:09.691342 54235 net.cpp:155] Setting up inception_5a/3x3_reduce
I0902 17:38:09.691357 54235 net.cpp:163] Top shape: 32 160 7 7 (250880)
I0902 17:38:09.691365 54235 layer_factory.hpp:76] Creating layer inception_5a/relu_3x3_reduce
I0902 17:38:09.691372 54235 net.cpp:110] Creating Layer inception_5a/relu_3x3_reduce
I0902 17:38:09.691377 54235 net.cpp:477] inception_5a/relu_3x3_reduce <- inception_5a/3x3_reduce
I0902 17:38:09.691400 54235 net.cpp:419] inception_5a/relu_3x3_reduce -> inception_5a/3x3_reduce (in-place)
I0902 17:38:09.692440 54235 net.cpp:155] Setting up inception_5a/relu_3x3_reduce
I0902 17:38:09.692455 54235 net.cpp:163] Top shape: 32 160 7 7 (250880)
I0902 17:38:09.692459 54235 layer_factory.hpp:76] Creating layer inception_5a/3x3
I0902 17:38:09.692467 54235 net.cpp:110] Creating Layer inception_5a/3x3
I0902 17:38:09.692472 54235 net.cpp:477] inception_5a/3x3 <- inception_5a/3x3_reduce
I0902 17:38:09.692492 54235 net.cpp:433] inception_5a/3x3 -> inception_5a/3x3
I0902 17:38:09.699587 54235 net.cpp:155] Setting up inception_5a/3x3
I0902 17:38:09.699602 54235 net.cpp:163] Top shape: 32 320 7 7 (501760)
I0902 17:38:09.699611 54235 layer_factory.hpp:76] Creating layer inception_5a/relu_3x3
I0902 17:38:09.699620 54235 net.cpp:110] Creating Layer inception_5a/relu_3x3
I0902 17:38:09.699625 54235 net.cpp:477] inception_5a/relu_3x3 <- inception_5a/3x3
I0902 17:38:09.699631 54235 net.cpp:419] inception_5a/relu_3x3 -> inception_5a/3x3 (in-place)
I0902 17:38:09.700875 54235 net.cpp:155] Setting up inception_5a/relu_3x3
I0902 17:38:09.700889 54235 net.cpp:163] Top shape: 32 320 7 7 (501760)
I0902 17:38:09.700894 54235 layer_factory.hpp:76] Creating layer inception_5a/5x5_reduce
I0902 17:38:09.700906 54235 net.cpp:110] Creating Layer inception_5a/5x5_reduce
I0902 17:38:09.700909 54235 net.cpp:477] inception_5a/5x5_reduce <- pool4/3x3_s2_pool4/3x3_s2_0_split_2
I0902 17:38:09.700928 54235 net.cpp:433] inception_5a/5x5_reduce -> inception_5a/5x5_reduce
I0902 17:38:09.704906 54235 net.cpp:155] Setting up inception_5a/5x5_reduce
I0902 17:38:09.704922 54235 net.cpp:163] Top shape: 32 32 7 7 (50176)
I0902 17:38:09.704931 54235 layer_factory.hpp:76] Creating layer inception_5a/relu_5x5_reduce
I0902 17:38:09.704939 54235 net.cpp:110] Creating Layer inception_5a/relu_5x5_reduce
I0902 17:38:09.704957 54235 net.cpp:477] inception_5a/relu_5x5_reduce <- inception_5a/5x5_reduce
I0902 17:38:09.704962 54235 net.cpp:419] inception_5a/relu_5x5_reduce -> inception_5a/5x5_reduce (in-place)
I0902 17:38:09.706032 54235 net.cpp:155] Setting up inception_5a/relu_5x5_reduce
I0902 17:38:09.706048 54235 net.cpp:163] Top shape: 32 32 7 7 (50176)
I0902 17:38:09.706053 54235 layer_factory.hpp:76] Creating layer inception_5a/5x5
I0902 17:38:09.706063 54235 net.cpp:110] Creating Layer inception_5a/5x5
I0902 17:38:09.706068 54235 net.cpp:477] inception_5a/5x5 <- inception_5a/5x5_reduce
I0902 17:38:09.706087 54235 net.cpp:433] inception_5a/5x5 -> inception_5a/5x5
I0902 17:38:09.710202 54235 net.cpp:155] Setting up inception_5a/5x5
I0902 17:38:09.710218 54235 net.cpp:163] Top shape: 32 128 7 7 (200704)
I0902 17:38:09.710227 54235 layer_factory.hpp:76] Creating layer inception_5a/relu_5x5
I0902 17:38:09.710237 54235 net.cpp:110] Creating Layer inception_5a/relu_5x5
I0902 17:38:09.710242 54235 net.cpp:477] inception_5a/relu_5x5 <- inception_5a/5x5
I0902 17:38:09.710258 54235 net.cpp:419] inception_5a/relu_5x5 -> inception_5a/5x5 (in-place)
I0902 17:38:09.711316 54235 net.cpp:155] Setting up inception_5a/relu_5x5
I0902 17:38:09.711330 54235 net.cpp:163] Top shape: 32 128 7 7 (200704)
I0902 17:38:09.711336 54235 layer_factory.hpp:76] Creating layer inception_5a/pool
I0902 17:38:09.711340 54235 layer_factory.cpp:60] CUDNN does not support padding or multiple tops. Using Caffe's own pooling layer.
I0902 17:38:09.711349 54235 net.cpp:110] Creating Layer inception_5a/pool
I0902 17:38:09.711365 54235 net.cpp:477] inception_5a/pool <- pool4/3x3_s2_pool4/3x3_s2_0_split_3
I0902 17:38:09.711386 54235 net.cpp:433] inception_5a/pool -> inception_5a/pool
I0902 17:38:09.711397 54235 net.cpp:155] Setting up inception_5a/pool
I0902 17:38:09.711403 54235 net.cpp:163] Top shape: 32 832 7 7 (1304576)
I0902 17:38:09.711407 54235 layer_factory.hpp:76] Creating layer inception_5a/pool_proj
I0902 17:38:09.711415 54235 net.cpp:110] Creating Layer inception_5a/pool_proj
I0902 17:38:09.711418 54235 net.cpp:477] inception_5a/pool_proj <- inception_5a/pool
I0902 17:38:09.711426 54235 net.cpp:433] inception_5a/pool_proj -> inception_5a/pool_proj
I0902 17:38:09.716177 54235 net.cpp:155] Setting up inception_5a/pool_proj
I0902 17:38:09.716193 54235 net.cpp:163] Top shape: 32 128 7 7 (200704)
I0902 17:38:09.716202 54235 layer_factory.hpp:76] Creating layer inception_5a/relu_pool_proj
I0902 17:38:09.716212 54235 net.cpp:110] Creating Layer inception_5a/relu_pool_proj
I0902 17:38:09.716217 54235 net.cpp:477] inception_5a/relu_pool_proj <- inception_5a/pool_proj
I0902 17:38:09.716233 54235 net.cpp:419] inception_5a/relu_pool_proj -> inception_5a/pool_proj (in-place)
I0902 17:38:09.717284 54235 net.cpp:155] Setting up inception_5a/relu_pool_proj
I0902 17:38:09.717299 54235 net.cpp:163] Top shape: 32 128 7 7 (200704)
I0902 17:38:09.717304 54235 layer_factory.hpp:76] Creating layer inception_5a/output
I0902 17:38:09.717314 54235 net.cpp:110] Creating Layer inception_5a/output
I0902 17:38:09.717319 54235 net.cpp:477] inception_5a/output <- inception_5a/1x1
I0902 17:38:09.717334 54235 net.cpp:477] inception_5a/output <- inception_5a/3x3
I0902 17:38:09.717339 54235 net.cpp:477] inception_5a/output <- inception_5a/5x5
I0902 17:38:09.717344 54235 net.cpp:477] inception_5a/output <- inception_5a/pool_proj
I0902 17:38:09.717350 54235 net.cpp:433] inception_5a/output -> inception_5a/output
I0902 17:38:09.717360 54235 net.cpp:155] Setting up inception_5a/output
I0902 17:38:09.717366 54235 net.cpp:163] Top shape: 32 832 7 7 (1304576)
I0902 17:38:09.717370 54235 layer_factory.hpp:76] Creating layer inception_5a/output_inception_5a/output_0_split
I0902 17:38:09.717376 54235 net.cpp:110] Creating Layer inception_5a/output_inception_5a/output_0_split
I0902 17:38:09.717381 54235 net.cpp:477] inception_5a/output_inception_5a/output_0_split <- inception_5a/output
I0902 17:38:09.717386 54235 net.cpp:433] inception_5a/output_inception_5a/output_0_split -> inception_5a/output_inception_5a/output_0_split_0
I0902 17:38:09.717393 54235 net.cpp:433] inception_5a/output_inception_5a/output_0_split -> inception_5a/output_inception_5a/output_0_split_1
I0902 17:38:09.717401 54235 net.cpp:433] inception_5a/output_inception_5a/output_0_split -> inception_5a/output_inception_5a/output_0_split_2
I0902 17:38:09.717406 54235 net.cpp:433] inception_5a/output_inception_5a/output_0_split -> inception_5a/output_inception_5a/output_0_split_3
I0902 17:38:09.717416 54235 net.cpp:155] Setting up inception_5a/output_inception_5a/output_0_split
I0902 17:38:09.717420 54235 net.cpp:163] Top shape: 32 832 7 7 (1304576)
I0902 17:38:09.717425 54235 net.cpp:163] Top shape: 32 832 7 7 (1304576)
I0902 17:38:09.717429 54235 net.cpp:163] Top shape: 32 832 7 7 (1304576)
I0902 17:38:09.717433 54235 net.cpp:163] Top shape: 32 832 7 7 (1304576)
I0902 17:38:09.717437 54235 layer_factory.hpp:76] Creating layer inception_5b/1x1
I0902 17:38:09.717447 54235 net.cpp:110] Creating Layer inception_5b/1x1
I0902 17:38:09.717450 54235 net.cpp:477] inception_5b/1x1 <- inception_5a/output_inception_5a/output_0_split_0
I0902 17:38:09.717456 54235 net.cpp:433] inception_5b/1x1 -> inception_5b/1x1
I0902 17:38:09.723726 54235 net.cpp:155] Setting up inception_5b/1x1
I0902 17:38:09.723740 54235 net.cpp:163] Top shape: 32 384 7 7 (602112)
I0902 17:38:09.723749 54235 layer_factory.hpp:76] Creating layer inception_5b/relu_1x1
I0902 17:38:09.723757 54235 net.cpp:110] Creating Layer inception_5b/relu_1x1
I0902 17:38:09.723762 54235 net.cpp:477] inception_5b/relu_1x1 <- inception_5b/1x1
I0902 17:38:09.723779 54235 net.cpp:419] inception_5b/relu_1x1 -> inception_5b/1x1 (in-place)
I0902 17:38:09.725064 54235 net.cpp:155] Setting up inception_5b/relu_1x1
I0902 17:38:09.725080 54235 net.cpp:163] Top shape: 32 384 7 7 (602112)
I0902 17:38:09.725085 54235 layer_factory.hpp:76] Creating layer inception_5b/3x3_reduce
I0902 17:38:09.725105 54235 net.cpp:110] Creating Layer inception_5b/3x3_reduce
I0902 17:38:09.725109 54235 net.cpp:477] inception_5b/3x3_reduce <- inception_5a/output_inception_5a/output_0_split_1
I0902 17:38:09.725118 54235 net.cpp:433] inception_5b/3x3_reduce -> inception_5b/3x3_reduce
I0902 17:38:09.730002 54235 net.cpp:155] Setting up inception_5b/3x3_reduce
I0902 17:38:09.730018 54235 net.cpp:163] Top shape: 32 192 7 7 (301056)
I0902 17:38:09.730027 54235 layer_factory.hpp:76] Creating layer inception_5b/relu_3x3_reduce
I0902 17:38:09.730046 54235 net.cpp:110] Creating Layer inception_5b/relu_3x3_reduce
I0902 17:38:09.730051 54235 net.cpp:477] inception_5b/relu_3x3_reduce <- inception_5b/3x3_reduce
I0902 17:38:09.730059 54235 net.cpp:419] inception_5b/relu_3x3_reduce -> inception_5b/3x3_reduce (in-place)
I0902 17:38:09.731319 54235 net.cpp:155] Setting up inception_5b/relu_3x3_reduce
I0902 17:38:09.731334 54235 net.cpp:163] Top shape: 32 192 7 7 (301056)
I0902 17:38:09.731340 54235 layer_factory.hpp:76] Creating layer inception_5b/3x3
I0902 17:38:09.731362 54235 net.cpp:110] Creating Layer inception_5b/3x3
I0902 17:38:09.731367 54235 net.cpp:477] inception_5b/3x3 <- inception_5b/3x3_reduce
I0902 17:38:09.731376 54235 net.cpp:433] inception_5b/3x3 -> inception_5b/3x3
I0902 17:38:09.740321 54235 net.cpp:155] Setting up inception_5b/3x3
I0902 17:38:09.740337 54235 net.cpp:163] Top shape: 32 384 7 7 (602112)
I0902 17:38:09.740348 54235 layer_factory.hpp:76] Creating layer inception_5b/relu_3x3
I0902 17:38:09.740367 54235 net.cpp:110] Creating Layer inception_5b/relu_3x3
I0902 17:38:09.740372 54235 net.cpp:477] inception_5b/relu_3x3 <- inception_5b/3x3
I0902 17:38:09.740378 54235 net.cpp:419] inception_5b/relu_3x3 -> inception_5b/3x3 (in-place)
I0902 17:38:09.741444 54235 net.cpp:155] Setting up inception_5b/relu_3x3
I0902 17:38:09.741458 54235 net.cpp:163] Top shape: 32 384 7 7 (602112)
I0902 17:38:09.741464 54235 layer_factory.hpp:76] Creating layer inception_5b/5x5_reduce
I0902 17:38:09.741487 54235 net.cpp:110] Creating Layer inception_5b/5x5_reduce
I0902 17:38:09.741492 54235 net.cpp:477] inception_5b/5x5_reduce <- inception_5a/output_inception_5a/output_0_split_2
I0902 17:38:09.741499 54235 net.cpp:433] inception_5b/5x5_reduce -> inception_5b/5x5_reduce
I0902 17:38:09.745317 54235 net.cpp:155] Setting up inception_5b/5x5_reduce
I0902 17:38:09.745335 54235 net.cpp:163] Top shape: 32 48 7 7 (75264)
I0902 17:38:09.745343 54235 layer_factory.hpp:76] Creating layer inception_5b/relu_5x5_reduce
I0902 17:38:09.745362 54235 net.cpp:110] Creating Layer inception_5b/relu_5x5_reduce
I0902 17:38:09.745367 54235 net.cpp:477] inception_5b/relu_5x5_reduce <- inception_5b/5x5_reduce
I0902 17:38:09.745373 54235 net.cpp:419] inception_5b/relu_5x5_reduce -> inception_5b/5x5_reduce (in-place)
I0902 17:38:09.746440 54235 net.cpp:155] Setting up inception_5b/relu_5x5_reduce
I0902 17:38:09.746456 54235 net.cpp:163] Top shape: 32 48 7 7 (75264)
I0902 17:38:09.746461 54235 layer_factory.hpp:76] Creating layer inception_5b/5x5
I0902 17:38:09.746482 54235 net.cpp:110] Creating Layer inception_5b/5x5
I0902 17:38:09.746487 54235 net.cpp:477] inception_5b/5x5 <- inception_5b/5x5_reduce
I0902 17:38:09.746495 54235 net.cpp:433] inception_5b/5x5 -> inception_5b/5x5
I0902 17:38:09.750756 54235 net.cpp:155] Setting up inception_5b/5x5
I0902 17:38:09.750771 54235 net.cpp:163] Top shape: 32 128 7 7 (200704)
I0902 17:38:09.750779 54235 layer_factory.hpp:76] Creating layer inception_5b/relu_5x5
I0902 17:38:09.750798 54235 net.cpp:110] Creating Layer inception_5b/relu_5x5
I0902 17:38:09.750803 54235 net.cpp:477] inception_5b/relu_5x5 <- inception_5b/5x5
I0902 17:38:09.750812 54235 net.cpp:419] inception_5b/relu_5x5 -> inception_5b/5x5 (in-place)
I0902 17:38:09.751865 54235 net.cpp:155] Setting up inception_5b/relu_5x5
I0902 17:38:09.751893 54235 net.cpp:163] Top shape: 32 128 7 7 (200704)
I0902 17:38:09.751899 54235 layer_factory.hpp:76] Creating layer inception_5b/pool
I0902 17:38:09.751915 54235 layer_factory.cpp:60] CUDNN does not support padding or multiple tops. Using Caffe's own pooling layer.
I0902 17:38:09.751924 54235 net.cpp:110] Creating Layer inception_5b/pool
I0902 17:38:09.751929 54235 net.cpp:477] inception_5b/pool <- inception_5a/output_inception_5a/output_0_split_3
I0902 17:38:09.751936 54235 net.cpp:433] inception_5b/pool -> inception_5b/pool
I0902 17:38:09.751945 54235 net.cpp:155] Setting up inception_5b/pool
I0902 17:38:09.751953 54235 net.cpp:163] Top shape: 32 832 7 7 (1304576)
I0902 17:38:09.751958 54235 layer_factory.hpp:76] Creating layer inception_5b/pool_proj
I0902 17:38:09.751965 54235 net.cpp:110] Creating Layer inception_5b/pool_proj
I0902 17:38:09.751970 54235 net.cpp:477] inception_5b/pool_proj <- inception_5b/pool
I0902 17:38:09.751978 54235 net.cpp:433] inception_5b/pool_proj -> inception_5b/pool_proj
I0902 17:38:09.756755 54235 net.cpp:155] Setting up inception_5b/pool_proj
I0902 17:38:09.756772 54235 net.cpp:163] Top shape: 32 128 7 7 (200704)
I0902 17:38:09.756780 54235 layer_factory.hpp:76] Creating layer inception_5b/relu_pool_proj
I0902 17:38:09.756801 54235 net.cpp:110] Creating Layer inception_5b/relu_pool_proj
I0902 17:38:09.756806 54235 net.cpp:477] inception_5b/relu_pool_proj <- inception_5b/pool_proj
I0902 17:38:09.756813 54235 net.cpp:419] inception_5b/relu_pool_proj -> inception_5b/pool_proj (in-place)
I0902 17:38:09.757915 54235 net.cpp:155] Setting up inception_5b/relu_pool_proj
I0902 17:38:09.757930 54235 net.cpp:163] Top shape: 32 128 7 7 (200704)
I0902 17:38:09.757936 54235 layer_factory.hpp:76] Creating layer inception_5b/output
I0902 17:38:09.757953 54235 net.cpp:110] Creating Layer inception_5b/output
I0902 17:38:09.757958 54235 net.cpp:477] inception_5b/output <- inception_5b/1x1
I0902 17:38:09.757963 54235 net.cpp:477] inception_5b/output <- inception_5b/3x3
I0902 17:38:09.757968 54235 net.cpp:477] inception_5b/output <- inception_5b/5x5
I0902 17:38:09.757973 54235 net.cpp:477] inception_5b/output <- inception_5b/pool_proj
I0902 17:38:09.757979 54235 net.cpp:433] inception_5b/output -> inception_5b/output
I0902 17:38:09.757987 54235 net.cpp:155] Setting up inception_5b/output
I0902 17:38:09.757993 54235 net.cpp:163] Top shape: 32 1024 7 7 (1605632)
I0902 17:38:09.757997 54235 layer_factory.hpp:76] Creating layer pool5/7x7_s1
I0902 17:38:09.758005 54235 net.cpp:110] Creating Layer pool5/7x7_s1
I0902 17:38:09.758009 54235 net.cpp:477] pool5/7x7_s1 <- inception_5b/output
I0902 17:38:09.758015 54235 net.cpp:433] pool5/7x7_s1 -> pool5/7x7_s1
I0902 17:38:09.759119 54235 net.cpp:155] Setting up pool5/7x7_s1
I0902 17:38:09.759135 54235 net.cpp:163] Top shape: 32 1024 1 1 (32768)
I0902 17:38:09.759140 54235 layer_factory.hpp:76] Creating layer pool5/drop_7x7_s1
I0902 17:38:09.759150 54235 net.cpp:110] Creating Layer pool5/drop_7x7_s1
I0902 17:38:09.759155 54235 net.cpp:477] pool5/drop_7x7_s1 <- pool5/7x7_s1
I0902 17:38:09.759160 54235 net.cpp:419] pool5/drop_7x7_s1 -> pool5/7x7_s1 (in-place)
I0902 17:38:09.759169 54235 net.cpp:155] Setting up pool5/drop_7x7_s1
I0902 17:38:09.759174 54235 net.cpp:163] Top shape: 32 1024 1 1 (32768)
I0902 17:38:09.759178 54235 layer_factory.hpp:76] Creating layer loss3/classifier_cub
I0902 17:38:09.759188 54235 net.cpp:110] Creating Layer loss3/classifier_cub
I0902 17:38:09.759192 54235 net.cpp:477] loss3/classifier_cub <- pool5/7x7_s1
I0902 17:38:09.759198 54235 net.cpp:433] loss3/classifier_cub -> loss3/classifier
I0902 17:38:09.765810 54235 net.cpp:155] Setting up loss3/classifier_cub
I0902 17:38:09.765825 54235 net.cpp:163] Top shape: 32 200 (6400)
I0902 17:38:09.765833 54235 layer_factory.hpp:76] Creating layer loss3/classifier_loss3/classifier_cub_0_split
I0902 17:38:09.765851 54235 net.cpp:110] Creating Layer loss3/classifier_loss3/classifier_cub_0_split
I0902 17:38:09.765856 54235 net.cpp:477] loss3/classifier_loss3/classifier_cub_0_split <- loss3/classifier
I0902 17:38:09.765874 54235 net.cpp:433] loss3/classifier_loss3/classifier_cub_0_split -> loss3/classifier_loss3/classifier_cub_0_split_0
I0902 17:38:09.765883 54235 net.cpp:433] loss3/classifier_loss3/classifier_cub_0_split -> loss3/classifier_loss3/classifier_cub_0_split_1
I0902 17:38:09.765893 54235 net.cpp:433] loss3/classifier_loss3/classifier_cub_0_split -> loss3/classifier_loss3/classifier_cub_0_split_2
I0902 17:38:09.765902 54235 net.cpp:155] Setting up loss3/classifier_loss3/classifier_cub_0_split
I0902 17:38:09.765907 54235 net.cpp:163] Top shape: 32 200 (6400)
I0902 17:38:09.765911 54235 net.cpp:163] Top shape: 32 200 (6400)
I0902 17:38:09.765915 54235 net.cpp:163] Top shape: 32 200 (6400)
I0902 17:38:09.765919 54235 layer_factory.hpp:76] Creating layer loss3/loss3
I0902 17:38:09.765925 54235 net.cpp:110] Creating Layer loss3/loss3
I0902 17:38:09.765929 54235 net.cpp:477] loss3/loss3 <- loss3/classifier_loss3/classifier_cub_0_split_0
I0902 17:38:09.765934 54235 net.cpp:477] loss3/loss3 <- label_data_1_split_6
I0902 17:38:09.765943 54235 net.cpp:433] loss3/loss3 -> loss3/loss3
…
