…
I0907 14:20:02.405854 96963 net.cpp:339] The NetState phase (0) differed from the phase (1) specified by a rule in layer loss3/top-5
I0907 14:20:02.406924 96963 net.cpp:50] Initializing net from parameters: 
name: "CUBNet"
state {
  phase: TRAIN
}
layer {
  name: "data"
  type: "ImageData"
  top: "data"
  top: "label"
  include {
    phase: TRAIN
  }
  transform_param {
    mirror: true
    crop_size: 224
    mean_value: 104
    mean_value: 117
    mean_value: 123
  }
  image_data_param {
    source: "data/CUB_200_2011/train_files.txt"
    batch_size: 32
    shuffle: true
    new_height: 256
    new_width: 256
  }
}
layer {
  name: "conv1/7x7_s2"
  type: "Convolution"
  bottom: "data"
  top: "conv1/7x7_s2"
  param {
    lr_mult: 1
    decay_mult: 1
  }
  param {
    lr_mult: 2
    decay_mult: 0
  }
  convolution_param {
    num_output: 64
    pad: 3
    kernel_size: 7
    stride: 2
    weight_filler {
      type: "xavier"
      std: 0.1
    }
    bias_filler {
      type: "constant"
      value: 0.2
    }
  }
}
layer {
  name: "conv1/relu_7x7"
  type: "ReLU"
  bottom: "conv1/7x7_s2"
  top: "conv1/7x7_s2"
}
layer {
  name: "pool1/3x3_s2"
  type: "Pooling"
  bottom: "conv1/7x7_s2"
  top: "pool1/3x3_s2"
  pooling_param {
    pool: MAX
    kernel_size: 3
    stride: 2
  }
}
layer {
  name: "pool1/norm1"
  type: "LRN"
  bottom: "pool1/3x3_s2"
  top: "pool1/norm1"
  lrn_param {
    local_size: 5
    alpha: 0.0001
    beta: 0.75
  }
}
layer {
  name: "conv2/3x3_reduce"
  type: "Convolution"
  bottom: "pool1/norm1"
  top: "conv2/3x3_reduce"
  param {
    lr_mult: 1
    decay_mult: 1
  }
  param {
    lr_mult: 2
    decay_mult: 0
  }
  convolution_param {
    num_output: 64
    kernel_size: 1
    weight_filler {
      type: "xavier"
      std: 0.1
    }
    bias_filler {
      type: "constant"
      value: 0.2
    }
  }
}
layer {
  name: "conv2/relu_3x3_reduce"
  type: "ReLU"
  bottom: "conv2/3x3_reduce"
  top: "conv2/3x3_reduce"
}
layer {
  name: "conv2/3x3"
  type: "Convolution"
  bottom: "conv2/3x3_reduce"
  top: "conv2/3x3"
  param {
    lr_mult: 1
    decay_mult: 1
  }
  param {
    lr_mult: 2
    decay_mult: 0
  }
  convolution_param {
    num_output: 192
    pad: 1
    kernel_size: 3
    weight_filler {
      type: "xavier"
      std: 0.03
    }
    bias_filler {
      type: "constant"
      value: 0.2
    }
  }
}
layer {
  name: "conv2/relu_3x3"
  type: "ReLU"
  bottom: "conv2/3x3"
  top: "conv2/3x3"
}
layer {
  name: "conv2/norm2"
  type: "LRN"
  bottom: "conv2/3x3"
  top: "conv2/norm2"
  lrn_param {
    local_size: 5
    alpha: 0.0001
    beta: 0.75
  }
}
layer {
  name: "pool2/3x3_s2"
  type: "Pooling"
  bottom: "conv2/norm2"
  top: "pool2/3x3_s2"
  pooling_param {
    pool: MAX
    kernel_size: 3
    stride: 2
  }
}
layer {
  name: "inception_3a/1x1"
  type: "Convolution"
  bottom: "pool2/3x3_s2"
  top: "inception_3a/1x1"
  param {
    lr_mult: 1
    decay_mult: 1
  }
  param {
    lr_mult: 2
    decay_mult: 0
  }
  convolution_param {
    num_output: 64
    kernel_size: 1
    weight_filler {
      type: "xavier"
      std: 0.03
    }
    bias_filler {
      type: "constant"
      value: 0.2
    }
  }
}
layer {
  name: "inception_3a/relu_1x1"
  type: "ReLU"
  bottom: "inception_3a/1x1"
  top: "inception_3a/1x1"
}
layer {
  name: "inception_3a/3x3_reduce"
  type: "Convolution"
  bottom: "pool2/3x3_s2"
  top: "inception_3a/3x3_reduce"
  param {
    lr_mult: 1
    decay_mult: 1
  }
  param {
    lr_mult: 2
    decay_mult: 0
  }
  convolution_param {
    num_output: 96
    kernel_size: 1
    weight_filler {
      type: "xavier"
      std: 0.09
    }
    bias_filler {
      type: "constant"
      value: 0.2
    }
  }
}
layer {
  name: "inception_3a/relu_3x3_reduce"
  type: "ReLU"
  bottom: "inception_3a/3x3_reduce"
  top: "inception_3a/3x3_reduce"
}
layer {
  name: "inception_3a/3x3"
  type: "Convolution"
  bottom: "inception_3a/3x3_reduce"
  top: "inception_3a/3x3"
  param {
    lr_mult: 1
    decay_mult: 1
  }
  param {
    lr_mult: 2
    decay_mult: 0
  }
  convolution_param {
    num_output: 128
    pad: 1
    kernel_size: 3
    weight_filler {
      type: "xavier"
      std: 0.03
    }
    bias_filler {
      type: "constant"
      value: 0.2
    }
  }
}
layer {
  name: "inception_3a/relu_3x3"
  type: "ReLU"
  bottom: "inception_3a/3x3"
  top: "inception_3a/3x3"
}
layer {
  name: "inception_3a/5x5_reduce"
  type: "Convolution"
  bottom: "pool2/3x3_s2"
  top: "inception_3a/5x5_reduce"
  param {
    lr_mult: 1
    decay_mult: 1
  }
  param {
    lr_mult: 2
    decay_mult: 0
  }
  convolution_param {
    num_output: 16
    kernel_size: 1
    weight_filler {
      type: "xavier"
      std: 0.2
    }
    bias_filler {
      type: "constant"
      value: 0.2
    }
  }
}
layer {
  name: "inception_3a/relu_5x5_reduce"
  type: "ReLU"
  bottom: "inception_3a/5x5_reduce"
  top: "inception_3a/5x5_reduce"
}
layer {
  name: "inception_3a/5x5"
  type: "Convolution"
  bottom: "inception_3a/5x5_reduce"
  top: "inception_3a/5x5"
  param {
    lr_mult: 1
    decay_mult: 1
  }
  param {
    lr_mult: 2
    decay_mult: 0
  }
  convolution_param {
    num_output: 32
    pad: 2
    kernel_size: 5
    weight_filler {
      type: "xavier"
      std: 0.03
    }
    bias_filler {
      type: "constant"
      value: 0.2
    }
  }
}
layer {
  name: "inception_3a/relu_5x5"
  type: "ReLU"
  bottom: "inception_3a/5x5"
  top: "inception_3a/5x5"
}
layer {
  name: "inception_3a/pool"
  type: "Pooling"
  bottom: "pool2/3x3_s2"
  top: "inception_3a/pool"
  pooling_param {
    pool: MAX
    kernel_size: 3
    stride: 1
    pad: 1
  }
}
layer {
  name: "inception_3a/pool_proj"
  type: "Convolution"
  bottom: "inception_3a/pool"
  top: "inception_3a/pool_proj"
  param {
    lr_mult: 1
    decay_mult: 1
  }
  param {
    lr_mult: 2
    decay_mult: 0
  }
  convolution_param {
    num_output: 32
    kernel_size: 1
    weight_filler {
      type: "xavier"
      std: 0.1
    }
    bias_filler {
      type: "constant"
      value: 0.2
    }
  }
}
layer {
  name: "inception_3a/relu_pool_proj"
  type: "ReLU"
  bottom: "inception_3a/pool_proj"
  top: "inception_3a/pool_proj"
}
layer {
  name: "inception_3a/output"
  type: "Concat"
  bottom: "inception_3a/1x1"
  bottom: "inception_3a/3x3"
  bottom: "inception_3a/5x5"
  bottom: "inception_3a/pool_proj"
  top: "inception_3a/output"
}
layer {
  name: "inception_3b/1x1"
  type: "Convolution"
  bottom: "inception_3a/output"
  top: "inception_3b/1x1"
  param {
    lr_mult: 1
    decay_mult: 1
  }
  param {
    lr_mult: 2
    decay_mult: 0
  }
  convolution_param {
    num_output: 128
    kernel_size: 1
    weight_filler {
      type: "xavier"
      std: 0.03
    }
    bias_filler {
      type: "constant"
      value: 0.2
    }
  }
}
layer {
  name: "inception_3b/relu_1x1"
  type: "ReLU"
  bottom: "inception_3b/1x1"
  top: "inception_3b/1x1"
}
layer {
  name: "inception_3b/3x3_reduce"
  type: "Convolution"
  bottom: "inception_3a/output"
  top: "inception_3b/3x3_reduce"
  param {
    lr_mult: 1
    decay_mult: 1
  }
  param {
    lr_mult: 2
    decay_mult: 0
  }
  convolution_param {
    num_output: 128
    kernel_size: 1
    weight_filler {
      type: "xavier"
      std: 0.09
    }
    bias_filler {
      type: "constant"
      value: 0.2
    }
  }
}
layer {
  name: "inception_3b/relu_3x3_reduce"
  type: "ReLU"
  bottom: "inception_3b/3x3_reduce"
  top: "inception_3b/3x3_reduce"
}
layer {
  name: "inception_3b/3x3"
  type: "Convolution"
  bottom: "inception_3b/3x3_reduce"
  top: "inception_3b/3x3"
  param {
    lr_mult: 1
    decay_mult: 1
  }
  param {
    lr_mult: 2
    decay_mult: 0
  }
  convolution_param {
    num_output: 192
    pad: 1
    kernel_size: 3
    weight_filler {
      type: "xavier"
      std: 0.03
    }
    bias_filler {
      type: "constant"
      value: 0.2
    }
  }
}
layer {
  name: "inception_3b/relu_3x3"
  type: "ReLU"
  bottom: "inception_3b/3x3"
  top: "inception_3b/3x3"
}
layer {
  name: "inception_3b/5x5_reduce"
  type: "Convolution"
  bottom: "inception_3a/output"
  top: "inception_3b/5x5_reduce"
  param {
    lr_mult: 1
    decay_mult: 1
  }
  param {
    lr_mult: 2
    decay_mult: 0
  }
  convolution_param {
    num_output: 32
    kernel_size: 1
    weight_filler {
      type: "xavier"
      std: 0.2
    }
    bias_filler {
      type: "constant"
      value: 0.2
    }
  }
}
layer {
  name: "inception_3b/relu_5x5_reduce"
  type: "ReLU"
  bottom: "inception_3b/5x5_reduce"
  top: "inception_3b/5x5_reduce"
}
layer {
  name: "inception_3b/5x5"
  type: "Convolution"
  bottom: "inception_3b/5x5_reduce"
  top: "inception_3b/5x5"
  param {
    lr_mult: 1
    decay_mult: 1
  }
  param {
    lr_mult: 2
    decay_mult: 0
  }
  convolution_param {
    num_output: 96
    pad: 2
    kernel_size: 5
    weight_filler {
      type: "xavier"
      std: 0.03
    }
    bias_filler {
      type: "constant"
      value: 0.2
    }
  }
}
layer {
  name: "inception_3b/relu_5x5"
  type: "ReLU"
  bottom: "inception_3b/5x5"
  top: "inception_3b/5x5"
}
layer {
  name: "inception_3b/pool"
  type: "Pooling"
  bottom: "inception_3a/output"
  top: "inception_3b/pool"
  pooling_param {
    pool: MAX
    kernel_size: 3
    stride: 1
    pad: 1
  }
}
layer {
  name: "inception_3b/pool_proj"
  type: "Convolution"
  bottom: "inception_3b/pool"
  top: "inception_3b/pool_proj"
  param {
    lr_mult: 1
    decay_mult: 1
  }
  param {
    lr_mult: 2
    decay_mult: 0
  }
  convolution_param {
    num_output: 64
    kernel_size: 1
    weight_filler {
      type: "xavier"
      std: 0.1
    }
    bias_filler {
      type: "constant"
      value: 0.2
    }
  }
}
layer {
  name: "inception_3b/relu_pool_proj"
  type: "ReLU"
  bottom: "inception_3b/pool_proj"
  top: "inception_3b/pool_proj"
}
layer {
  name: "inception_3b/output"
  type: "Concat"
  bottom: "inception_3b/1x1"
  bottom: "inception_3b/3x3"
  bottom: "inception_3b/5x5"
  bottom: "inception_3b/pool_proj"
  top: "inception_3b/output"
}
layer {
  name: "pool3/3x3_s2"
  type: "Pooling"
  bottom: "inception_3b/output"
  top: "pool3/3x3_s2"
  pooling_param {
    pool: MAX
    kernel_size: 3
    stride: 2
  }
}
layer {
  name: "inception_4a/1x1"
  type: "Convolution"
  bottom: "pool3/3x3_s2"
  top: "inception_4a/1x1"
  param {
    lr_mult: 1
    decay_mult: 1
  }
  param {
    lr_mult: 2
    decay_mult: 0
  }
  convolution_param {
    num_output: 192
    kernel_size: 1
    weight_filler {
      type: "xavier"
      std: 0.03
    }
    bias_filler {
      type: "constant"
      value: 0.2
    }
  }
}
layer {
  name: "inception_4a/relu_1x1"
  type: "ReLU"
  bottom: "inception_4a/1x1"
  top: "inception_4a/1x1"
}
layer {
  name: "inception_4a/3x3_reduce"
  type: "Convolution"
  bottom: "pool3/3x3_s2"
  top: "inception_4a/3x3_reduce"
  param {
    lr_mult: 1
    decay_mult: 1
  }
  param {
    lr_mult: 2
    decay_mult: 0
  }
  convolution_param {
    num_output: 96
    kernel_size: 1
    weight_filler {
      type: "xavier"
      std: 0.09
    }
    bias_filler {
      type: "constant"
      value: 0.2
    }
  }
}
layer {
  name: "inception_4a/relu_3x3_reduce"
  type: "ReLU"
  bottom: "inception_4a/3x3_reduce"
  top: "inception_4a/3x3_reduce"
}
layer {
  name: "inception_4a/3x3"
  type: "Convolution"
  bottom: "inception_4a/3x3_reduce"
  top: "inception_4a/3x3"
  param {
    lr_mult: 1
    decay_mult: 1
  }
  param {
    lr_mult: 2
    decay_mult: 0
  }
  convolution_param {
    num_output: 208
    pad: 1
    kernel_size: 3
    weight_filler {
      type: "xavier"
      std: 0.03
    }
    bias_filler {
      type: "constant"
      value: 0.2
    }
  }
}
layer {
  name: "inception_4a/relu_3x3"
  type: "ReLU"
  bottom: "inception_4a/3x3"
  top: "inception_4a/3x3"
}
layer {
  name: "inception_4a/5x5_reduce"
  type: "Convolution"
  bottom: "pool3/3x3_s2"
  top: "inception_4a/5x5_reduce"
  param {
    lr_mult: 1
    decay_mult: 1
  }
  param {
    lr_mult: 2
    decay_mult: 0
  }
  convolution_param {
    num_output: 16
    kernel_size: 1
    weight_filler {
      type: "xavier"
      std: 0.2
    }
    bias_filler {
      type: "constant"
      value: 0.2
    }
  }
}
layer {
  name: "inception_4a/relu_5x5_reduce"
  type: "ReLU"
  bottom: "inception_4a/5x5_reduce"
  top: "inception_4a/5x5_reduce"
}
layer {
  name: "inception_4a/5x5"
  type: "Convolution"
  bottom: "inception_4a/5x5_reduce"
  top: "inception_4a/5x5"
  param {
    lr_mult: 1
    decay_mult: 1
  }
  param {
    lr_mult: 2
    decay_mult: 0
  }
  convolution_param {
    num_output: 48
    pad: 2
    kernel_size: 5
    weight_filler {
      type: "xavier"
      std: 0.03
    }
    bias_filler {
      type: "constant"
      value: 0.2
    }
  }
}
layer {
  name: "inception_4a/relu_5x5"
  type: "ReLU"
  bottom: "inception_4a/5x5"
  top: "inception_4a/5x5"
}
layer {
  name: "inception_4a/pool"
  type: "Pooling"
  bottom: "pool3/3x3_s2"
  top: "inception_4a/pool"
  pooling_param {
    pool: MAX
    kernel_size: 3
    stride: 1
    pad: 1
  }
}
layer {
  name: "inception_4a/pool_proj"
  type: "Convolution"
  bottom: "inception_4a/pool"
  top: "inception_4a/pool_proj"
  param {
    lr_mult: 1
    decay_mult: 1
  }
  param {
    lr_mult: 2
    decay_mult: 0
  }
  convolution_param {
    num_output: 64
    kernel_size: 1
    weight_filler {
      type: "xavier"
      std: 0.1
    }
    bias_filler {
      type: "constant"
      value: 0.2
    }
  }
}
layer {
  name: "inception_4a/relu_pool_proj"
  type: "ReLU"
  bottom: "inception_4a/pool_proj"
  top: "inception_4a/pool_proj"
}
layer {
  name: "inception_4a/output"
  type: "Concat"
  bottom: "inception_4a/1x1"
  bottom: "inception_4a/3x3"
  bottom: "inception_4a/5x5"
  bottom: "inception_4a/pool_proj"
  top: "inception_4a/output"
}
layer {
  name: "loss1/ave_pool"
  type: "Pooling"
  bottom: "inception_4a/output"
  top: "loss1/ave_pool"
  pooling_param {
    pool: AVE
    kernel_size: 5
    stride: 3
  }
}
layer {
  name: "loss1/conv"
  type: "Convolution"
  bottom: "loss1/ave_pool"
  top: "loss1/conv"
  param {
    lr_mult: 1
    decay_mult: 1
  }
  param {
    lr_mult: 2
    decay_mult: 0
  }
  convolution_param {
    num_output: 128
    kernel_size: 1
    weight_filler {
      type: "xavier"
      std: 0.08
    }
    bias_filler {
      type: "constant"
      value: 0.2
    }
  }
}
layer {
  name: "loss1/relu_conv"
  type: "ReLU"
  bottom: "loss1/conv"
  top: "loss1/conv"
}
layer {
  name: "loss1/fc"
  type: "InnerProduct"
  bottom: "loss1/conv"
  top: "loss1/fc"
  param {
    lr_mult: 1
    decay_mult: 1
  }
  param {
    lr_mult: 2
    decay_mult: 0
  }
  inner_product_param {
    num_output: 1024
    weight_filler {
      type: "xavier"
      std: 0.02
    }
    bias_filler {
      type: "constant"
      value: 0.2
    }
  }
}
layer {
  name: "loss1/relu_fc"
  type: "ReLU"
  bottom: "loss1/fc"
  top: "loss1/fc"
}
layer {
  name: "loss1/drop_fc"
  type: "Dropout"
  bottom: "loss1/fc"
  top: "loss1/fc"
  dropout_param {
    dropout_ratio: 0.7
  }
}
layer {
  name: "loss1/classifier_cub"
  type: "InnerProduct"
  bottom: "loss1/fc"
  top: "loss1/classifier"
  param {
    lr_mult: 1
    decay_mult: 1
  }
  param {
    lr_mult: 2
    decay_mult: 0
  }
  inner_product_param {
    num_output: 200
    weight_filler {
      type: "gaussian"
      std: 1e-05
    }
    bias_filler {
      type: "constant"
      value: 0
    }
  }
}
layer {
  name: "loss1/loss"
  type: "SoftmaxWithLoss"
  bottom: "loss1/classifier"
  bottom: "label"
  top: "loss1/loss1"
  loss_weight: 0.3
}
layer {
  name: "inception_4b/1x1"
  type: "Convolution"
  bottom: "inception_4a/output"
  top: "inception_4b/1x1"
  param {
    lr_mult: 1
    decay_mult: 1
  }
  param {
    lr_mult: 2
    decay_mult: 0
  }
  convolution_param {
    num_output: 160
    kernel_size: 1
    weight_filler {
      type: "xavier"
      std: 0.03
    }
    bias_filler {
      type: "constant"
      value: 0.2
    }
  }
}
layer {
  name: "inception_4b/relu_1x1"
  type: "ReLU"
  bottom: "inception_4b/1x1"
  top: "inception_4b/1x1"
}
layer {
  name: "inception_4b/3x3_reduce"
  type: "Convolution"
  bottom: "inception_4a/output"
  top: "inception_4b/3x3_reduce"
  param {
    lr_mult: 1
    decay_mult: 1
  }
  param {
    lr_mult: 2
    decay_mult: 0
  }
  convolution_param {
    num_output: 112
    kernel_size: 1
    weight_filler {
      type: "xavier"
      std: 0.09
    }
    bias_filler {
      type: "constant"
      value: 0.2
    }
  }
}
layer {
  name: "inception_4b/relu_3x3_reduce"
  type: "ReLU"
  bottom: "inception_4b/3x3_reduce"
  top: "inception_4b/3x3_reduce"
}
layer {
  name: "inception_4b/3x3"
  type: "Convolution"
  bottom: "inception_4b/3x3_reduce"
  top: "inception_4b/3x3"
  param {
    lr_mult: 1
    decay_mult: 1
  }
  param {
    lr_mult: 2
    decay_mult: 0
  }
  convolution_param {
    num_output: 224
    pad: 1
    kernel_size: 3
    weight_filler {
      type: "xavier"
      std: 0.03
    }
    bias_filler {
      type: "constant"
      value: 0.2
    }
  }
}
layer {
  name: "inception_4b/relu_3x3"
  type: "ReLU"
  bottom: "inception_4b/3x3"
  top: "inception_4b/3x3"
}
layer {
  name: "inception_4b/5x5_reduce"
  type: "Convolution"
  bottom: "inception_4a/output"
  top: "inception_4b/5x5_reduce"
  param {
    lr_mult: 1
    decay_mult: 1
  }
  param {
    lr_mult: 2
    decay_mult: 0
  }
  convolution_param {
    num_output: 24
    kernel_size: 1
    weight_filler {
      type: "xavier"
      std: 0.2
    }
    bias_filler {
      type: "constant"
      value: 0.2
    }
  }
}
layer {
  name: "inception_4b/relu_5x5_reduce"
  type: "ReLU"
  bottom: "inception_4b/5x5_reduce"
  top: "inception_4b/5x5_reduce"
}
layer {
  name: "inception_4b/5x5"
  type: "Convolution"
  bottom: "inception_4b/5x5_reduce"
  top: "inception_4b/5x5"
  param {
    lr_mult: 1
    decay_mult: 1
  }
  param {
    lr_mult: 2
    decay_mult: 0
  }
  convolution_param {
    num_output: 64
    pad: 2
    kernel_size: 5
    weight_filler {
      type: "xavier"
      std: 0.03
    }
    bias_filler {
      type: "constant"
      value: 0.2
    }
  }
}
layer {
  name: "inception_4b/relu_5x5"
  type: "ReLU"
  bottom: "inception_4b/5x5"
  top: "inception_4b/5x5"
}
layer {
  name: "inception_4b/pool"
  type: "Pooling"
  bottom: "inception_4a/output"
  top: "inception_4b/pool"
  pooling_param {
    pool: MAX
    kernel_size: 3
    stride: 1
    pad: 1
  }
}
layer {
  name: "inception_4b/pool_proj"
  type: "Convolution"
  bottom: "inception_4b/pool"
  top: "inception_4b/pool_proj"
  param {
    lr_mult: 1
    decay_mult: 1
  }
  param {
    lr_mult: 2
    decay_mult: 0
  }
  convolution_param {
    num_output: 64
    kernel_size: 1
    weight_filler {
      type: "xavier"
      std: 0.1
    }
    bias_filler {
      type: "constant"
      value: 0.2
    }
  }
}
layer {
  name: "inception_4b/relu_pool_proj"
  type: "ReLU"
  bottom: "inception_4b/pool_proj"
  top: "inception_4b/pool_proj"
}
layer {
  name: "inception_4b/output"
  type: "Concat"
  bottom: "inception_4b/1x1"
  bottom: "inception_4b/3x3"
  bottom: "inception_4b/5x5"
  bottom: "inception_4b/pool_proj"
  top: "inception_4b/output"
}
layer {
  name: "inception_4c/1x1"
  type: "Convolution"
  bottom: "inception_4b/output"
  top: "inception_4c/1x1"
  param {
    lr_mult: 1
    decay_mult: 1
  }
  param {
    lr_mult: 2
    decay_mult: 0
  }
  convolution_param {
    num_output: 128
    kernel_size: 1
    weight_filler {
      type: "xavier"
      std: 0.03
    }
    bias_filler {
      type: "constant"
      value: 0.2
    }
  }
}
layer {
  name: "inception_4c/relu_1x1"
  type: "ReLU"
  bottom: "inception_4c/1x1"
  top: "inception_4c/1x1"
}
layer {
  name: "inception_4c/3x3_reduce"
  type: "Convolution"
  bottom: "inception_4b/output"
  top: "inception_4c/3x3_reduce"
  param {
    lr_mult: 1
    decay_mult: 1
  }
  param {
    lr_mult: 2
    decay_mult: 0
  }
  convolution_param {
    num_output: 128
    kernel_size: 1
    weight_filler {
      type: "xavier"
      std: 0.09
    }
    bias_filler {
      type: "constant"
      value: 0.2
    }
  }
}
layer {
  name: "inception_4c/relu_3x3_reduce"
  type: "ReLU"
  bottom: "inception_4c/3x3_reduce"
  top: "inception_4c/3x3_reduce"
}
layer {
  name: "inception_4c/3x3"
  type: "Convolution"
  bottom: "inception_4c/3x3_reduce"
  top: "inception_4c/3x3"
  param {
    lr_mult: 1
    decay_mult: 1
  }
  param {
    lr_mult: 2
    decay_mult: 0
  }
  convolution_param {
    num_output: 256
    pad: 1
    kernel_size: 3
    weight_filler {
      type: "xavier"
      std: 0.03
    }
    bias_filler {
      type: "constant"
      value: 0.2
    }
  }
}
layer {
  name: "inception_4c/relu_3x3"
  type: "ReLU"
  bottom: "inception_4c/3x3"
  top: "inception_4c/3x3"
}
layer {
  name: "inception_4c/5x5_reduce"
  type: "Convolution"
  bottom: "inception_4b/output"
  top: "inception_4c/5x5_reduce"
  param {
    lr_mult: 1
    decay_mult: 1
  }
  param {
    lr_mult: 2
    decay_mult: 0
  }
  convolution_param {
    num_output: 24
    kernel_size: 1
    weight_filler {
      type: "xavier"
      std: 0.2
    }
    bias_filler {
      type: "constant"
      value: 0.2
    }
  }
}
layer {
  name: "inception_4c/relu_5x5_reduce"
  type: "ReLU"
  bottom: "inception_4c/5x5_reduce"
  top: "inception_4c/5x5_reduce"
}
layer {
  name: "inception_4c/5x5"
  type: "Convolution"
  bottom: "inception_4c/5x5_reduce"
  top: "inception_4c/5x5"
  param {
    lr_mult: 1
    decay_mult: 1
  }
  param {
    lr_mult: 2
    decay_mult: 0
  }
  convolution_param {
    num_output: 64
    pad: 2
    kernel_size: 5
    weight_filler {
      type: "xavier"
      std: 0.03
    }
    bias_filler {
      type: "constant"
      value: 0.2
    }
  }
}
layer {
  name: "inception_4c/relu_5x5"
  type: "ReLU"
  bottom: "inception_4c/5x5"
  top: "inception_4c/5x5"
}
layer {
  name: "inception_4c/pool"
  type: "Pooling"
  bottom: "inception_4b/output"
  top: "inception_4c/pool"
  pooling_param {
    pool: MAX
    kernel_size: 3
    stride: 1
    pad: 1
  }
}
layer {
  name: "inception_4c/pool_proj"
  type: "Convolution"
  bottom: "inception_4c/pool"
  top: "inception_4c/pool_proj"
  param {
    lr_mult: 1
    decay_mult: 1
  }
  param {
    lr_mult: 2
    decay_mult: 0
  }
  convolution_param {
    num_output: 64
    kernel_size: 1
    weight_filler {
      type: "xavier"
      std: 0.1
    }
    bias_filler {
      type: "constant"
      value: 0.2
    }
  }
}
layer {
  name: "inception_4c/relu_pool_proj"
  type: "ReLU"
  bottom: "inception_4c/pool_proj"
  top: "inception_4c/pool_proj"
}
layer {
  name: "inception_4c/output"
  type: "Concat"
  bottom: "inception_4c/1x1"
  bottom: "inception_4c/3x3"
  bottom: "inception_4c/5x5"
  bottom: "inception_4c/pool_proj"
  top: "inception_4c/output"
}
layer {
  name: "inception_4d/1x1"
  type: "Convolution"
  bottom: "inception_4c/output"
  top: "inception_4d/1x1"
  param {
    lr_mult: 1
    decay_mult: 1
  }
  param {
    lr_mult: 2
    decay_mult: 0
  }
  convolution_param {
    num_output: 112
    kernel_size: 1
    weight_filler {
      type: "xavier"
      std: 0.03
    }
    bias_filler {
      type: "constant"
      value: 0.2
    }
  }
}
layer {
  name: "inception_4d/relu_1x1"
  type: "ReLU"
  bottom: "inception_4d/1x1"
  top: "inception_4d/1x1"
}
layer {
  name: "inception_4d/3x3_reduce"
  type: "Convolution"
  bottom: "inception_4c/output"
  top: "inception_4d/3x3_reduce"
  param {
    lr_mult: 1
    decay_mult: 1
  }
  param {
    lr_mult: 2
    decay_mult: 0
  }
  convolution_param {
    num_output: 144
    kernel_size: 1
    weight_filler {
      type: "xavier"
      std: 0.09
    }
    bias_filler {
      type: "constant"
      value: 0.2
    }
  }
}
layer {
  name: "inception_4d/relu_3x3_reduce"
  type: "ReLU"
  bottom: "inception_4d/3x3_reduce"
  top: "inception_4d/3x3_reduce"
}
layer {
  name: "inception_4d/3x3"
  type: "Convolution"
  bottom: "inception_4d/3x3_reduce"
  top: "inception_4d/3x3"
  param {
    lr_mult: 1
    decay_mult: 1
  }
  param {
    lr_mult: 2
    decay_mult: 0
  }
  convolution_param {
    num_output: 288
    pad: 1
    kernel_size: 3
    weight_filler {
      type: "xavier"
      std: 0.03
    }
    bias_filler {
      type: "constant"
      value: 0.2
    }
  }
}
layer {
  name: "inception_4d/relu_3x3"
  type: "ReLU"
  bottom: "inception_4d/3x3"
  top: "inception_4d/3x3"
}
layer {
  name: "inception_4d/5x5_reduce"
  type: "Convolution"
  bottom: "inception_4c/output"
  top: "inception_4d/5x5_reduce"
  param {
    lr_mult: 1
    decay_mult: 1
  }
  param {
    lr_mult: 2
    decay_mult: 0
  }
  convolution_param {
    num_output: 32
    kernel_size: 1
    weight_filler {
      type: "xavier"
      std: 0.2
    }
    bias_filler {
      type: "constant"
      value: 0.2
    }
  }
}
layer {
  name: "inception_4d/relu_5x5_reduce"
  type: "ReLU"
  bottom: "inception_4d/5x5_reduce"
  top: "inception_4d/5x5_reduce"
}
layer {
  name: "inception_4d/5x5"
  type: "Convolution"
  bottom: "inception_4d/5x5_reduce"
  top: "inception_4d/5x5"
  param {
    lr_mult: 1
    decay_mult: 1
  }
  param {
    lr_mult: 2
    decay_mult: 0
  }
  convolution_param {
    num_output: 64
    pad: 2
    kernel_size: 5
    weight_filler {
      type: "xavier"
      std: 0.03
    }
    bias_filler {
      type: "constant"
      value: 0.2
    }
  }
}
layer {
  name: "inception_4d/relu_5x5"
  type: "ReLU"
  bottom: "inception_4d/5x5"
  top: "inception_4d/5x5"
}
layer {
  name: "inception_4d/pool"
  type: "Pooling"
  bottom: "inception_4c/output"
  top: "inception_4d/pool"
  pooling_param {
    pool: MAX
    kernel_size: 3
    stride: 1
    pad: 1
  }
}
layer {
  name: "inception_4d/pool_proj"
  type: "Convolution"
  bottom: "inception_4d/pool"
  top: "inception_4d/pool_proj"
  param {
    lr_mult: 1
    decay_mult: 1
  }
  param {
    lr_mult: 2
    decay_mult: 0
  }
  convolution_param {
    num_output: 64
    kernel_size: 1
    weight_filler {
      type: "xavier"
      std: 0.1
    }
    bias_filler {
      type: "constant"
      value: 0.2
    }
  }
}
layer {
  name: "inception_4d/relu_pool_proj"
  type: "ReLU"
  bottom: "inception_4d/pool_proj"
  top: "inception_4d/pool_proj"
}
layer {
  name: "inception_4d/output"
  type: "Concat"
  bottom: "inception_4d/1x1"
  bottom: "inception_4d/3x3"
  bottom: "inception_4d/5x5"
  bottom: "inception_4d/pool_proj"
  top: "inception_4d/output"
}
layer {
  name: "loss2/ave_pool"
  type: "Pooling"
  bottom: "inception_4d/output"
  top: "loss2/ave_pool"
  pooling_param {
    pool: AVE
    kernel_size: 5
    stride: 3
  }
}
layer {
  name: "loss2/conv"
  type: "Convolution"
  bottom: "loss2/ave_pool"
  top: "loss2/conv"
  param {
    lr_mult: 1
    decay_mult: 1
  }
  param {
    lr_mult: 2
    decay_mult: 0
  }
  convolution_param {
    num_output: 128
    kernel_size: 1
    weight_filler {
      type: "xavier"
      std: 0.08
    }
    bias_filler {
      type: "constant"
      value: 0.2
    }
  }
}
layer {
  name: "loss2/relu_conv"
  type: "ReLU"
  bottom: "loss2/conv"
  top: "loss2/conv"
}
layer {
  name: "loss2/fc"
  type: "InnerProduct"
  bottom: "loss2/conv"
  top: "loss2/fc"
  param {
    lr_mult: 1
    decay_mult: 1
  }
  param {
    lr_mult: 2
    decay_mult: 0
  }
  inner_product_param {
    num_output: 1024
    weight_filler {
      type: "xavier"
      std: 0.02
    }
    bias_filler {
      type: "constant"
      value: 0.2
    }
  }
}
layer {
  name: "loss2/relu_fc"
  type: "ReLU"
  bottom: "loss2/fc"
  top: "loss2/fc"
}
layer {
  name: "loss2/drop_fc"
  type: "Dropout"
  bottom: "loss2/fc"
  top: "loss2/fc"
  dropout_param {
    dropout_ratio: 0.7
  }
}
layer {
  name: "loss2/classifier_cub"
  type: "InnerProduct"
  bottom: "loss2/fc"
  top: "loss2/classifier"
  param {
    lr_mult: 1
    decay_mult: 1
  }
  param {
    lr_mult: 2
    decay_mult: 0
  }
  inner_product_param {
    num_output: 200
    weight_filler {
      type: "gaussian"
      std: 1e-05
    }
    bias_filler {
      type: "constant"
      value: 0
    }
  }
}
layer {
  name: "loss2/loss"
  type: "SoftmaxWithLoss"
  bottom: "loss2/classifier"
  bottom: "label"
  top: "loss2/loss1"
  loss_weight: 0.3
}
layer {
  name: "inception_4e/1x1"
  type: "Convolution"
  bottom: "inception_4d/output"
  top: "inception_4e/1x1"
  param {
    lr_mult: 1
    decay_mult: 1
  }
  param {
    lr_mult: 2
    decay_mult: 0
  }
  convolution_param {
    num_output: 256
    kernel_size: 1
    weight_filler {
      type: "xavier"
      std: 0.03
    }
    bias_filler {
      type: "constant"
      value: 0.2
    }
  }
}
layer {
  name: "inception_4e/relu_1x1"
  type: "ReLU"
  bottom: "inception_4e/1x1"
  top: "inception_4e/1x1"
}
layer {
  name: "inception_4e/3x3_reduce"
  type: "Convolution"
  bottom: "inception_4d/output"
  top: "inception_4e/3x3_reduce"
  param {
    lr_mult: 1
    decay_mult: 1
  }
  param {
    lr_mult: 2
    decay_mult: 0
  }
  convolution_param {
    num_output: 160
    kernel_size: 1
    weight_filler {
      type: "xavier"
      std: 0.09
    }
    bias_filler {
      type: "constant"
      value: 0.2
    }
  }
}
layer {
  name: "inception_4e/relu_3x3_reduce"
  type: "ReLU"
  bottom: "inception_4e/3x3_reduce"
  top: "inception_4e/3x3_reduce"
}
layer {
  name: "inception_4e/3x3"
  type: "Convolution"
  bottom: "inception_4e/3x3_reduce"
  top: "inception_4e/3x3"
  param {
    lr_mult: 1
    decay_mult: 1
  }
  param {
    lr_mult: 2
    decay_mult: 0
  }
  convolution_param {
    num_output: 320
    pad: 1
    kernel_size: 3
    weight_filler {
      type: "xavier"
      std: 0.03
    }
    bias_filler {
      type: "constant"
      value: 0.2
    }
  }
}
layer {
  name: "inception_4e/relu_3x3"
  type: "ReLU"
  bottom: "inception_4e/3x3"
  top: "inception_4e/3x3"
}
layer {
  name: "inception_4e/5x5_reduce"
  type: "Convolution"
  bottom: "inception_4d/output"
  top: "inception_4e/5x5_reduce"
  param {
    lr_mult: 1
    decay_mult: 1
  }
  param {
    lr_mult: 2
    decay_mult: 0
  }
  convolution_param {
    num_output: 32
    kernel_size: 1
    weight_filler {
      type: "xavier"
      std: 0.2
    }
    bias_filler {
      type: "constant"
      value: 0.2
    }
  }
}
l
I0907 14:20:02.407799 96963 layer_factory.hpp:76] Creating layer data
I0907 14:20:02.407838 96963 net.cpp:110] Creating Layer data
I0907 14:20:02.407847 96963 net.cpp:433] data -> data
I0907 14:20:02.407867 96963 net.cpp:433] data -> label
I0907 14:20:02.427058 96963 image_data_layer.cpp:36] Opening file data/CUB_200_2011/train_files.txt
I0907 14:20:02.430817 96963 image_data_layer.cpp:46] Shuffling data
I0907 14:20:02.431277 96963 image_data_layer.cpp:51] A total of 5994 images.
I0907 14:20:02.476356 96963 image_data_layer.cpp:78] output data size: 32,3,224,224
I0907 14:20:02.517227 96963 net.cpp:155] Setting up data
I0907 14:20:02.517287 96963 net.cpp:163] Top shape: 32 3 224 224 (4816896)
I0907 14:20:02.517294 96963 net.cpp:163] Top shape: 32 (32)
I0907 14:20:02.517303 96963 layer_factory.hpp:76] Creating layer label_data_1_split
I0907 14:20:02.517318 96963 net.cpp:110] Creating Layer label_data_1_split
I0907 14:20:02.517324 96963 net.cpp:477] label_data_1_split <- label
I0907 14:20:02.517339 96963 net.cpp:433] label_data_1_split -> label_data_1_split_0
I0907 14:20:02.517374 96963 net.cpp:433] label_data_1_split -> label_data_1_split_1
I0907 14:20:02.517381 96963 net.cpp:433] label_data_1_split -> label_data_1_split_2
I0907 14:20:02.517395 96963 net.cpp:155] Setting up label_data_1_split
I0907 14:20:02.517401 96963 net.cpp:163] Top shape: 32 (32)
I0907 14:20:02.517405 96963 net.cpp:163] Top shape: 32 (32)
I0907 14:20:02.517410 96963 net.cpp:163] Top shape: 32 (32)
I0907 14:20:02.517412 96963 layer_factory.hpp:76] Creating layer conv1/7x7_s2
I0907 14:20:02.517428 96963 net.cpp:110] Creating Layer conv1/7x7_s2
I0907 14:20:02.517432 96963 net.cpp:477] conv1/7x7_s2 <- data
I0907 14:20:02.517441 96963 net.cpp:433] conv1/7x7_s2 -> conv1/7x7_s2
I0907 14:20:02.518323 96963 net.cpp:155] Setting up conv1/7x7_s2
I0907 14:20:02.518338 96963 net.cpp:163] Top shape: 32 64 112 112 (25690112)
I0907 14:20:02.518357 96963 layer_factory.hpp:76] Creating layer conv1/relu_7x7
I0907 14:20:02.518364 96963 net.cpp:110] Creating Layer conv1/relu_7x7
I0907 14:20:02.518368 96963 net.cpp:477] conv1/relu_7x7 <- conv1/7x7_s2
I0907 14:20:02.518374 96963 net.cpp:419] conv1/relu_7x7 -> conv1/7x7_s2 (in-place)
I0907 14:20:02.518383 96963 net.cpp:155] Setting up conv1/relu_7x7
I0907 14:20:02.518388 96963 net.cpp:163] Top shape: 32 64 112 112 (25690112)
I0907 14:20:02.518391 96963 layer_factory.hpp:76] Creating layer pool1/3x3_s2
I0907 14:20:02.518400 96963 net.cpp:110] Creating Layer pool1/3x3_s2
I0907 14:20:02.518404 96963 net.cpp:477] pool1/3x3_s2 <- conv1/7x7_s2
I0907 14:20:02.518410 96963 net.cpp:433] pool1/3x3_s2 -> pool1/3x3_s2
I0907 14:20:02.518429 96963 net.cpp:155] Setting up pool1/3x3_s2
I0907 14:20:02.518435 96963 net.cpp:163] Top shape: 32 64 56 56 (6422528)
I0907 14:20:02.518437 96963 layer_factory.hpp:76] Creating layer pool1/norm1
I0907 14:20:02.518446 96963 net.cpp:110] Creating Layer pool1/norm1
I0907 14:20:02.518450 96963 net.cpp:477] pool1/norm1 <- pool1/3x3_s2
I0907 14:20:02.518455 96963 net.cpp:433] pool1/norm1 -> pool1/norm1
I0907 14:20:02.518466 96963 net.cpp:155] Setting up pool1/norm1
I0907 14:20:02.518471 96963 net.cpp:163] Top shape: 32 64 56 56 (6422528)
I0907 14:20:02.518474 96963 layer_factory.hpp:76] Creating layer conv2/3x3_reduce
I0907 14:20:02.518481 96963 net.cpp:110] Creating Layer conv2/3x3_reduce
I0907 14:20:02.518486 96963 net.cpp:477] conv2/3x3_reduce <- pool1/norm1
I0907 14:20:02.518491 96963 net.cpp:433] conv2/3x3_reduce -> conv2/3x3_reduce
I0907 14:20:02.519296 96963 net.cpp:155] Setting up conv2/3x3_reduce
I0907 14:20:02.519311 96963 net.cpp:163] Top shape: 32 64 56 56 (6422528)
I0907 14:20:02.519322 96963 layer_factory.hpp:76] Creating layer conv2/relu_3x3_reduce
I0907 14:20:02.519330 96963 net.cpp:110] Creating Layer conv2/relu_3x3_reduce
I0907 14:20:02.519333 96963 net.cpp:477] conv2/relu_3x3_reduce <- conv2/3x3_reduce
I0907 14:20:02.519341 96963 net.cpp:419] conv2/relu_3x3_reduce -> conv2/3x3_reduce (in-place)
I0907 14:20:02.519348 96963 net.cpp:155] Setting up conv2/relu_3x3_reduce
I0907 14:20:02.519353 96963 net.cpp:163] Top shape: 32 64 56 56 (6422528)
I0907 14:20:02.519357 96963 layer_factory.hpp:76] Creating layer conv2/3x3
I0907 14:20:02.519367 96963 net.cpp:110] Creating Layer conv2/3x3
I0907 14:20:02.519371 96963 net.cpp:477] conv2/3x3 <- conv2/3x3_reduce
I0907 14:20:02.519376 96963 net.cpp:433] conv2/3x3 -> conv2/3x3
I0907 14:20:02.520963 96963 net.cpp:155] Setting up conv2/3x3
I0907 14:20:02.520978 96963 net.cpp:163] Top shape: 32 192 56 56 (19267584)
I0907 14:20:02.520990 96963 layer_factory.hpp:76] Creating layer conv2/relu_3x3
I0907 14:20:02.520998 96963 net.cpp:110] Creating Layer conv2/relu_3x3
I0907 14:20:02.521001 96963 net.cpp:477] conv2/relu_3x3 <- conv2/3x3
I0907 14:20:02.521008 96963 net.cpp:419] conv2/relu_3x3 -> conv2/3x3 (in-place)
I0907 14:20:02.521014 96963 net.cpp:155] Setting up conv2/relu_3x3
I0907 14:20:02.521019 96963 net.cpp:163] Top shape: 32 192 56 56 (19267584)
I0907 14:20:02.521023 96963 layer_factory.hpp:76] Creating layer conv2/norm2
I0907 14:20:02.521029 96963 net.cpp:110] Creating Layer conv2/norm2
I0907 14:20:02.521046 96963 net.cpp:477] conv2/norm2 <- conv2/3x3
I0907 14:20:02.521054 96963 net.cpp:433] conv2/norm2 -> conv2/norm2
I0907 14:20:02.521062 96963 net.cpp:155] Setting up conv2/norm2
I0907 14:20:02.521067 96963 net.cpp:163] Top shape: 32 192 56 56 (19267584)
I0907 14:20:02.521070 96963 layer_factory.hpp:76] Creating layer pool2/3x3_s2
I0907 14:20:02.521077 96963 net.cpp:110] Creating Layer pool2/3x3_s2
I0907 14:20:02.521080 96963 net.cpp:477] pool2/3x3_s2 <- conv2/norm2
I0907 14:20:02.521085 96963 net.cpp:433] pool2/3x3_s2 -> pool2/3x3_s2
I0907 14:20:02.521092 96963 net.cpp:155] Setting up pool2/3x3_s2
I0907 14:20:02.521097 96963 net.cpp:163] Top shape: 32 192 28 28 (4816896)
I0907 14:20:02.521100 96963 layer_factory.hpp:76] Creating layer pool2/3x3_s2_pool2/3x3_s2_0_split
I0907 14:20:02.521106 96963 net.cpp:110] Creating Layer pool2/3x3_s2_pool2/3x3_s2_0_split
I0907 14:20:02.521111 96963 net.cpp:477] pool2/3x3_s2_pool2/3x3_s2_0_split <- pool2/3x3_s2
I0907 14:20:02.521116 96963 net.cpp:433] pool2/3x3_s2_pool2/3x3_s2_0_split -> pool2/3x3_s2_pool2/3x3_s2_0_split_0
I0907 14:20:02.521121 96963 net.cpp:433] pool2/3x3_s2_pool2/3x3_s2_0_split -> pool2/3x3_s2_pool2/3x3_s2_0_split_1
I0907 14:20:02.521128 96963 net.cpp:433] pool2/3x3_s2_pool2/3x3_s2_0_split -> pool2/3x3_s2_pool2/3x3_s2_0_split_2
I0907 14:20:02.521133 96963 net.cpp:433] pool2/3x3_s2_pool2/3x3_s2_0_split -> pool2/3x3_s2_pool2/3x3_s2_0_split_3
I0907 14:20:02.521141 96963 net.cpp:155] Setting up pool2/3x3_s2_pool2/3x3_s2_0_split
I0907 14:20:02.521145 96963 net.cpp:163] Top shape: 32 192 28 28 (4816896)
I0907 14:20:02.521148 96963 net.cpp:163] Top shape: 32 192 28 28 (4816896)
I0907 14:20:02.521152 96963 net.cpp:163] Top shape: 32 192 28 28 (4816896)
I0907 14:20:02.521157 96963 net.cpp:163] Top shape: 32 192 28 28 (4816896)
I0907 14:20:02.521159 96963 layer_factory.hpp:76] Creating layer inception_3a/1x1
I0907 14:20:02.521167 96963 net.cpp:110] Creating Layer inception_3a/1x1
I0907 14:20:02.521169 96963 net.cpp:477] inception_3a/1x1 <- pool2/3x3_s2_pool2/3x3_s2_0_split_0
I0907 14:20:02.521177 96963 net.cpp:433] inception_3a/1x1 -> inception_3a/1x1
I0907 14:20:02.521984 96963 net.cpp:155] Setting up inception_3a/1x1
I0907 14:20:02.521998 96963 net.cpp:163] Top shape: 32 64 28 28 (1605632)
I0907 14:20:02.522006 96963 layer_factory.hpp:76] Creating layer inception_3a/relu_1x1
I0907 14:20:02.522014 96963 net.cpp:110] Creating Layer inception_3a/relu_1x1
I0907 14:20:02.522018 96963 net.cpp:477] inception_3a/relu_1x1 <- inception_3a/1x1
I0907 14:20:02.522024 96963 net.cpp:419] inception_3a/relu_1x1 -> inception_3a/1x1 (in-place)
I0907 14:20:02.522032 96963 net.cpp:155] Setting up inception_3a/relu_1x1
I0907 14:20:02.522037 96963 net.cpp:163] Top shape: 32 64 28 28 (1605632)
I0907 14:20:02.522039 96963 layer_factory.hpp:76] Creating layer inception_3a/3x3_reduce
I0907 14:20:02.522047 96963 net.cpp:110] Creating Layer inception_3a/3x3_reduce
I0907 14:20:02.522050 96963 net.cpp:477] inception_3a/3x3_reduce <- pool2/3x3_s2_pool2/3x3_s2_0_split_1
I0907 14:20:02.522058 96963 net.cpp:433] inception_3a/3x3_reduce -> inception_3a/3x3_reduce
I0907 14:20:02.522904 96963 net.cpp:155] Setting up inception_3a/3x3_reduce
I0907 14:20:02.522918 96963 net.cpp:163] Top shape: 32 96 28 28 (2408448)
I0907 14:20:02.522930 96963 layer_factory.hpp:76] Creating layer inception_3a/relu_3x3_reduce
I0907 14:20:02.522939 96963 net.cpp:110] Creating Layer inception_3a/relu_3x3_reduce
I0907 14:20:02.522943 96963 net.cpp:477] inception_3a/relu_3x3_reduce <- inception_3a/3x3_reduce
I0907 14:20:02.522949 96963 net.cpp:419] inception_3a/relu_3x3_reduce -> inception_3a/3x3_reduce (in-place)
I0907 14:20:02.522956 96963 net.cpp:155] Setting up inception_3a/relu_3x3_reduce
I0907 14:20:02.522961 96963 net.cpp:163] Top shape: 32 96 28 28 (2408448)
I0907 14:20:02.522964 96963 layer_factory.hpp:76] Creating layer inception_3a/3x3
I0907 14:20:02.522972 96963 net.cpp:110] Creating Layer inception_3a/3x3
I0907 14:20:02.522975 96963 net.cpp:477] inception_3a/3x3 <- inception_3a/3x3_reduce
I0907 14:20:02.522994 96963 net.cpp:433] inception_3a/3x3 -> inception_3a/3x3
I0907 14:20:02.523859 96963 net.cpp:155] Setting up inception_3a/3x3
I0907 14:20:02.523871 96963 net.cpp:163] Top shape: 32 128 28 28 (3211264)
I0907 14:20:02.523879 96963 layer_factory.hpp:76] Creating layer inception_3a/relu_3x3
I0907 14:20:02.523885 96963 net.cpp:110] Creating Layer inception_3a/relu_3x3
I0907 14:20:02.523888 96963 net.cpp:477] inception_3a/relu_3x3 <- inception_3a/3x3
I0907 14:20:02.523895 96963 net.cpp:419] inception_3a/relu_3x3 -> inception_3a/3x3 (in-place)
I0907 14:20:02.523901 96963 net.cpp:155] Setting up inception_3a/relu_3x3
I0907 14:20:02.523905 96963 net.cpp:163] Top shape: 32 128 28 28 (3211264)
I0907 14:20:02.523908 96963 layer_factory.hpp:76] Creating layer inception_3a/5x5_reduce
I0907 14:20:02.523916 96963 net.cpp:110] Creating Layer inception_3a/5x5_reduce
I0907 14:20:02.523919 96963 net.cpp:477] inception_3a/5x5_reduce <- pool2/3x3_s2_pool2/3x3_s2_0_split_2
I0907 14:20:02.523926 96963 net.cpp:433] inception_3a/5x5_reduce -> inception_3a/5x5_reduce
I0907 14:20:02.524004 96963 net.cpp:155] Setting up inception_3a/5x5_reduce
I0907 14:20:02.524029 96963 net.cpp:163] Top shape: 32 16 28 28 (401408)
I0907 14:20:02.524034 96963 layer_factory.hpp:76] Creating layer inception_3a/relu_5x5_reduce
I0907 14:20:02.524040 96963 net.cpp:110] Creating Layer inception_3a/relu_5x5_reduce
I0907 14:20:02.524044 96963 net.cpp:477] inception_3a/relu_5x5_reduce <- inception_3a/5x5_reduce
I0907 14:20:02.524050 96963 net.cpp:419] inception_3a/relu_5x5_reduce -> inception_3a/5x5_reduce (in-place)
I0907 14:20:02.524056 96963 net.cpp:155] Setting up inception_3a/relu_5x5_reduce
I0907 14:20:02.524060 96963 net.cpp:163] Top shape: 32 16 28 28 (401408)
I0907 14:20:02.524065 96963 layer_factory.hpp:76] Creating layer inception_3a/5x5
I0907 14:20:02.524071 96963 net.cpp:110] Creating Layer inception_3a/5x5
I0907 14:20:02.524075 96963 net.cpp:477] inception_3a/5x5 <- inception_3a/5x5_reduce
I0907 14:20:02.524080 96963 net.cpp:433] inception_3a/5x5 -> inception_3a/5x5
I0907 14:20:02.524225 96963 net.cpp:155] Setting up inception_3a/5x5
I0907 14:20:02.524235 96963 net.cpp:163] Top shape: 32 32 28 28 (802816)
I0907 14:20:02.524240 96963 layer_factory.hpp:76] Creating layer inception_3a/relu_5x5
I0907 14:20:02.524246 96963 net.cpp:110] Creating Layer inception_3a/relu_5x5
I0907 14:20:02.524250 96963 net.cpp:477] inception_3a/relu_5x5 <- inception_3a/5x5
I0907 14:20:02.524256 96963 net.cpp:419] inception_3a/relu_5x5 -> inception_3a/5x5 (in-place)
I0907 14:20:02.524261 96963 net.cpp:155] Setting up inception_3a/relu_5x5
I0907 14:20:02.524266 96963 net.cpp:163] Top shape: 32 32 28 28 (802816)
I0907 14:20:02.524269 96963 layer_factory.hpp:76] Creating layer inception_3a/pool
I0907 14:20:02.524276 96963 net.cpp:110] Creating Layer inception_3a/pool
I0907 14:20:02.524279 96963 net.cpp:477] inception_3a/pool <- pool2/3x3_s2_pool2/3x3_s2_0_split_3
I0907 14:20:02.524286 96963 net.cpp:433] inception_3a/pool -> inception_3a/pool
I0907 14:20:02.524293 96963 net.cpp:155] Setting up inception_3a/pool
I0907 14:20:02.524297 96963 net.cpp:163] Top shape: 32 192 28 28 (4816896)
I0907 14:20:02.524302 96963 layer_factory.hpp:76] Creating layer inception_3a/pool_proj
I0907 14:20:02.524308 96963 net.cpp:110] Creating Layer inception_3a/pool_proj
I0907 14:20:02.524312 96963 net.cpp:477] inception_3a/pool_proj <- inception_3a/pool
I0907 14:20:02.524317 96963 net.cpp:433] inception_3a/pool_proj -> inception_3a/pool_proj
I0907 14:20:02.524412 96963 net.cpp:155] Setting up inception_3a/pool_proj
I0907 14:20:02.524421 96963 net.cpp:163] Top shape: 32 32 28 28 (802816)
I0907 14:20:02.524432 96963 layer_factory.hpp:76] Creating layer inception_3a/relu_pool_proj
I0907 14:20:02.524438 96963 net.cpp:110] Creating Layer inception_3a/relu_pool_proj
I0907 14:20:02.524442 96963 net.cpp:477] inception_3a/relu_pool_proj <- inception_3a/pool_proj
I0907 14:20:02.524447 96963 net.cpp:419] inception_3a/relu_pool_proj -> inception_3a/pool_proj (in-place)
I0907 14:20:02.524453 96963 net.cpp:155] Setting up inception_3a/relu_pool_proj
I0907 14:20:02.524469 96963 net.cpp:163] Top shape: 32 32 28 28 (802816)
I0907 14:20:02.524473 96963 layer_factory.hpp:76] Creating layer inception_3a/output
I0907 14:20:02.524482 96963 net.cpp:110] Creating Layer inception_3a/output
I0907 14:20:02.524487 96963 net.cpp:477] inception_3a/output <- inception_3a/1x1
I0907 14:20:02.524490 96963 net.cpp:477] inception_3a/output <- inception_3a/3x3
I0907 14:20:02.524494 96963 net.cpp:477] inception_3a/output <- inception_3a/5x5
I0907 14:20:02.524498 96963 net.cpp:477] inception_3a/output <- inception_3a/pool_proj
I0907 14:20:02.524503 96963 net.cpp:433] inception_3a/output -> inception_3a/output
I0907 14:20:02.524514 96963 net.cpp:155] Setting up inception_3a/output
I0907 14:20:02.524518 96963 net.cpp:163] Top shape: 32 256 28 28 (6422528)
I0907 14:20:02.524523 96963 layer_factory.hpp:76] Creating layer inception_3a/output_inception_3a/output_0_split
I0907 14:20:02.524528 96963 net.cpp:110] Creating Layer inception_3a/output_inception_3a/output_0_split
I0907 14:20:02.524531 96963 net.cpp:477] inception_3a/output_inception_3a/output_0_split <- inception_3a/output
I0907 14:20:02.524538 96963 net.cpp:433] inception_3a/output_inception_3a/output_0_split -> inception_3a/output_inception_3a/output_0_split_0
I0907 14:20:02.524544 96963 net.cpp:433] inception_3a/output_inception_3a/output_0_split -> inception_3a/output_inception_3a/output_0_split_1
I0907 14:20:02.524550 96963 net.cpp:433] inception_3a/output_inception_3a/output_0_split -> inception_3a/output_inception_3a/output_0_split_2
I0907 14:20:02.524556 96963 net.cpp:433] inception_3a/output_inception_3a/output_0_split -> inception_3a/output_inception_3a/output_0_split_3
I0907 14:20:02.524562 96963 net.cpp:155] Setting up inception_3a/output_inception_3a/output_0_split
I0907 14:20:02.524567 96963 net.cpp:163] Top shape: 32 256 28 28 (6422528)
I0907 14:20:02.524570 96963 net.cpp:163] Top shape: 32 256 28 28 (6422528)
I0907 14:20:02.524574 96963 net.cpp:163] Top shape: 32 256 28 28 (6422528)
I0907 14:20:02.524579 96963 net.cpp:163] Top shape: 32 256 28 28 (6422528)
I0907 14:20:02.524581 96963 layer_factory.hpp:76] Creating layer inception_3b/1x1
I0907 14:20:02.524588 96963 net.cpp:110] Creating Layer inception_3b/1x1
I0907 14:20:02.524591 96963 net.cpp:477] inception_3b/1x1 <- inception_3a/output_inception_3a/output_0_split_0
I0907 14:20:02.524597 96963 net.cpp:433] inception_3b/1x1 -> inception_3b/1x1
I0907 14:20:02.524888 96963 net.cpp:155] Setting up inception_3b/1x1
I0907 14:20:02.524898 96963 net.cpp:163] Top shape: 32 128 28 28 (3211264)
I0907 14:20:02.524904 96963 layer_factory.hpp:76] Creating layer inception_3b/relu_1x1
I0907 14:20:02.524910 96963 net.cpp:110] Creating Layer inception_3b/relu_1x1
I0907 14:20:02.524914 96963 net.cpp:477] inception_3b/relu_1x1 <- inception_3b/1x1
I0907 14:20:02.524920 96963 net.cpp:419] inception_3b/relu_1x1 -> inception_3b/1x1 (in-place)
I0907 14:20:02.524926 96963 net.cpp:155] Setting up inception_3b/relu_1x1
I0907 14:20:02.524930 96963 net.cpp:163] Top shape: 32 128 28 28 (3211264)
I0907 14:20:02.524935 96963 layer_factory.hpp:76] Creating layer inception_3b/3x3_reduce
I0907 14:20:02.524941 96963 net.cpp:110] Creating Layer inception_3b/3x3_reduce
I0907 14:20:02.524945 96963 net.cpp:477] inception_3b/3x3_reduce <- inception_3a/output_inception_3a/output_0_split_1
I0907 14:20:02.524950 96963 net.cpp:433] inception_3b/3x3_reduce -> inception_3b/3x3_reduce
I0907 14:20:02.526638 96963 net.cpp:155] Setting up inception_3b/3x3_reduce
I0907 14:20:02.526657 96963 net.cpp:163] Top shape: 32 128 28 28 (3211264)
I0907 14:20:02.526666 96963 layer_factory.hpp:76] Creating layer inception_3b/relu_3x3_reduce
I0907 14:20:02.526676 96963 net.cpp:110] Creating Layer inception_3b/relu_3x3_reduce
I0907 14:20:02.526684 96963 net.cpp:477] inception_3b/relu_3x3_reduce <- inception_3b/3x3_reduce
I0907 14:20:02.526690 96963 net.cpp:419] inception_3b/relu_3x3_reduce -> inception_3b/3x3_reduce (in-place)
I0907 14:20:02.526698 96963 net.cpp:155] Setting up inception_3b/relu_3x3_reduce
I0907 14:20:02.526721 96963 net.cpp:163] Top shape: 32 128 28 28 (3211264)
I0907 14:20:02.526726 96963 layer_factory.hpp:76] Creating layer inception_3b/3x3
I0907 14:20:02.526737 96963 net.cpp:110] Creating Layer inception_3b/3x3
I0907 14:20:02.526741 96963 net.cpp:477] inception_3b/3x3 <- inception_3b/3x3_reduce
I0907 14:20:02.526749 96963 net.cpp:433] inception_3b/3x3 -> inception_3b/3x3
I0907 14:20:02.529052 96963 net.cpp:155] Setting up inception_3b/3x3
I0907 14:20:02.529067 96963 net.cpp:163] Top shape: 32 192 28 28 (4816896)
I0907 14:20:02.529088 96963 layer_factory.hpp:76] Creating layer inception_3b/relu_3x3
I0907 14:20:02.529095 96963 net.cpp:110] Creating Layer inception_3b/relu_3x3
I0907 14:20:02.529099 96963 net.cpp:477] inception_3b/relu_3x3 <- inception_3b/3x3
I0907 14:20:02.529106 96963 net.cpp:419] inception_3b/relu_3x3 -> inception_3b/3x3 (in-place)
I0907 14:20:02.529114 96963 net.cpp:155] Setting up inception_3b/relu_3x3
I0907 14:20:02.529119 96963 net.cpp:163] Top shape: 32 192 28 28 (4816896)
I0907 14:20:02.529121 96963 layer_factory.hpp:76] Creating layer inception_3b/5x5_reduce
I0907 14:20:02.529129 96963 net.cpp:110] Creating Layer inception_3b/5x5_reduce
I0907 14:20:02.529134 96963 net.cpp:477] inception_3b/5x5_reduce <- inception_3a/output_inception_3a/output_0_split_2
I0907 14:20:02.529139 96963 net.cpp:433] inception_3b/5x5_reduce -> inception_3b/5x5_reduce
I0907 14:20:02.529258 96963 net.cpp:155] Setting up inception_3b/5x5_reduce
I0907 14:20:02.529268 96963 net.cpp:163] Top shape: 32 32 28 28 (802816)
I0907 14:20:02.529275 96963 layer_factory.hpp:76] Creating layer inception_3b/relu_5x5_reduce
I0907 14:20:02.529281 96963 net.cpp:110] Creating Layer inception_3b/relu_5x5_reduce
I0907 14:20:02.529285 96963 net.cpp:477] inception_3b/relu_5x5_reduce <- inception_3b/5x5_reduce
I0907 14:20:02.529290 96963 net.cpp:419] inception_3b/relu_5x5_reduce -> inception_3b/5x5_reduce (in-place)
I0907 14:20:02.529296 96963 net.cpp:155] Setting up inception_3b/relu_5x5_reduce
I0907 14:20:02.529301 96963 net.cpp:163] Top shape: 32 32 28 28 (802816)
I0907 14:20:02.529304 96963 layer_factory.hpp:76] Creating layer inception_3b/5x5
I0907 14:20:02.529312 96963 net.cpp:110] Creating Layer inception_3b/5x5
I0907 14:20:02.529315 96963 net.cpp:477] inception_3b/5x5 <- inception_3b/5x5_reduce
I0907 14:20:02.529321 96963 net.cpp:433] inception_3b/5x5 -> inception_3b/5x5
I0907 14:20:02.530570 96963 net.cpp:155] Setting up inception_3b/5x5
I0907 14:20:02.530583 96963 net.cpp:163] Top shape: 32 96 28 28 (2408448)
I0907 14:20:02.530604 96963 layer_factory.hpp:76] Creating layer inception_3b/relu_5x5
I0907 14:20:02.530611 96963 net.cpp:110] Creating Layer inception_3b/relu_5x5
I0907 14:20:02.530616 96963 net.cpp:477] inception_3b/relu_5x5 <- inception_3b/5x5
I0907 14:20:02.530622 96963 net.cpp:419] inception_3b/relu_5x5 -> inception_3b/5x5 (in-place)
I0907 14:20:02.530630 96963 net.cpp:155] Setting up inception_3b/relu_5x5
I0907 14:20:02.530634 96963 net.cpp:163] Top shape: 32 96 28 28 (2408448)
I0907 14:20:02.530637 96963 layer_factory.hpp:76] Creating layer inception_3b/pool
I0907 14:20:02.530644 96963 net.cpp:110] Creating Layer inception_3b/pool
I0907 14:20:02.530648 96963 net.cpp:477] inception_3b/pool <- inception_3a/output_inception_3a/output_0_split_3
I0907 14:20:02.530654 96963 net.cpp:433] inception_3b/pool -> inception_3b/pool
I0907 14:20:02.530663 96963 net.cpp:155] Setting up inception_3b/pool
I0907 14:20:02.530668 96963 net.cpp:163] Top shape: 32 256 28 28 (6422528)
I0907 14:20:02.530671 96963 layer_factory.hpp:76] Creating layer inception_3b/pool_proj
I0907 14:20:02.530678 96963 net.cpp:110] Creating Layer inception_3b/pool_proj
I0907 14:20:02.530683 96963 net.cpp:477] inception_3b/pool_proj <- inception_3b/pool
I0907 14:20:02.530689 96963 net.cpp:433] inception_3b/pool_proj -> inception_3b/pool_proj
I0907 14:20:02.530865 96963 net.cpp:155] Setting up inception_3b/pool_proj
I0907 14:20:02.530875 96963 net.cpp:163] Top shape: 32 64 28 28 (1605632)
I0907 14:20:02.530882 96963 layer_factory.hpp:76] Creating layer inception_3b/relu_pool_proj
I0907 14:20:02.530902 96963 net.cpp:110] Creating Layer inception_3b/relu_pool_proj
I0907 14:20:02.530906 96963 net.cpp:477] inception_3b/relu_pool_proj <- inception_3b/pool_proj
I0907 14:20:02.530912 96963 net.cpp:419] inception_3b/relu_pool_proj -> inception_3b/pool_proj (in-place)
I0907 14:20:02.530920 96963 net.cpp:155] Setting up inception_3b/relu_pool_proj
I0907 14:20:02.530925 96963 net.cpp:163] Top shape: 32 64 28 28 (1605632)
I0907 14:20:02.530927 96963 layer_factory.hpp:76] Creating layer inception_3b/output
I0907 14:20:02.530935 96963 net.cpp:110] Creating Layer inception_3b/output
I0907 14:20:02.530938 96963 net.cpp:477] inception_3b/output <- inception_3b/1x1
I0907 14:20:02.530942 96963 net.cpp:477] inception_3b/output <- inception_3b/3x3
I0907 14:20:02.530946 96963 net.cpp:477] inception_3b/output <- inception_3b/5x5
I0907 14:20:02.530951 96963 net.cpp:477] inception_3b/output <- inception_3b/pool_proj
I0907 14:20:02.530956 96963 net.cpp:433] inception_3b/output -> inception_3b/output
I0907 14:20:02.530964 96963 net.cpp:155] Setting up inception_3b/output
I0907 14:20:02.530968 96963 net.cpp:163] Top shape: 32 480 28 28 (12042240)
I0907 14:20:02.530972 96963 layer_factory.hpp:76] Creating layer pool3/3x3_s2
I0907 14:20:02.530978 96963 net.cpp:110] Creating Layer pool3/3x3_s2
I0907 14:20:02.530982 96963 net.cpp:477] pool3/3x3_s2 <- inception_3b/output
I0907 14:20:02.530987 96963 net.cpp:433] pool3/3x3_s2 -> pool3/3x3_s2
I0907 14:20:02.530995 96963 net.cpp:155] Setting up pool3/3x3_s2
I0907 14:20:02.531000 96963 net.cpp:163] Top shape: 32 480 14 14 (3010560)
I0907 14:20:02.531004 96963 layer_factory.hpp:76] Creating layer pool3/3x3_s2_pool3/3x3_s2_0_split
I0907 14:20:02.531010 96963 net.cpp:110] Creating Layer pool3/3x3_s2_pool3/3x3_s2_0_split
I0907 14:20:02.531013 96963 net.cpp:477] pool3/3x3_s2_pool3/3x3_s2_0_split <- pool3/3x3_s2
I0907 14:20:02.531019 96963 net.cpp:433] pool3/3x3_s2_pool3/3x3_s2_0_split -> pool3/3x3_s2_pool3/3x3_s2_0_split_0
I0907 14:20:02.531026 96963 net.cpp:433] pool3/3x3_s2_pool3/3x3_s2_0_split -> pool3/3x3_s2_pool3/3x3_s2_0_split_1
I0907 14:20:02.531033 96963 net.cpp:433] pool3/3x3_s2_pool3/3x3_s2_0_split -> pool3/3x3_s2_pool3/3x3_s2_0_split_2
I0907 14:20:02.531038 96963 net.cpp:433] pool3/3x3_s2_pool3/3x3_s2_0_split -> pool3/3x3_s2_pool3/3x3_s2_0_split_3
I0907 14:20:02.531045 96963 net.cpp:155] Setting up pool3/3x3_s2_pool3/3x3_s2_0_split
I0907 14:20:02.531049 96963 net.cpp:163] Top shape: 32 480 14 14 (3010560)
I0907 14:20:02.531054 96963 net.cpp:163] Top shape: 32 480 14 14 (3010560)
I0907 14:20:02.531057 96963 net.cpp:163] Top shape: 32 480 14 14 (3010560)
I0907 14:20:02.531060 96963 net.cpp:163] Top shape: 32 480 14 14 (3010560)
I0907 14:20:02.531064 96963 layer_factory.hpp:76] Creating layer inception_4a/1x1
I0907 14:20:02.531071 96963 net.cpp:110] Creating Layer inception_4a/1x1
I0907 14:20:02.531075 96963 net.cpp:477] inception_4a/1x1 <- pool3/3x3_s2_pool3/3x3_s2_0_split_0
I0907 14:20:02.531080 96963 net.cpp:433] inception_4a/1x1 -> inception_4a/1x1
I0907 14:20:02.531821 96963 net.cpp:155] Setting up inception_4a/1x1
I0907 14:20:02.531832 96963 net.cpp:163] Top shape: 32 192 14 14 (1204224)
I0907 14:20:02.531841 96963 layer_factory.hpp:76] Creating layer inception_4a/relu_1x1
I0907 14:20:02.531847 96963 net.cpp:110] Creating Layer inception_4a/relu_1x1
I0907 14:20:02.531849 96963 net.cpp:477] inception_4a/relu_1x1 <- inception_4a/1x1
I0907 14:20:02.531855 96963 net.cpp:419] inception_4a/relu_1x1 -> inception_4a/1x1 (in-place)
I0907 14:20:02.531863 96963 net.cpp:155] Setting up inception_4a/relu_1x1
I0907 14:20:02.531868 96963 net.cpp:163] Top shape: 32 192 14 14 (1204224)
I0907 14:20:02.531872 96963 layer_factory.hpp:76] Creating layer inception_4a/3x3_reduce
I0907 14:20:02.531879 96963 net.cpp:110] Creating Layer inception_4a/3x3_reduce
I0907 14:20:02.531883 96963 net.cpp:477] inception_4a/3x3_reduce <- pool3/3x3_s2_pool3/3x3_s2_0_split_1
I0907 14:20:02.531889 96963 net.cpp:433] inception_4a/3x3_reduce -> inception_4a/3x3_reduce
I0907 14:20:02.532302 96963 net.cpp:155] Setting up inception_4a/3x3_reduce
I0907 14:20:02.532313 96963 net.cpp:163] Top shape: 32 96 14 14 (602112)
I0907 14:20:02.532326 96963 layer_factory.hpp:76] Creating layer inception_4a/relu_3x3_reduce
I0907 14:20:02.532332 96963 net.cpp:110] Creating Layer inception_4a/relu_3x3_reduce
I0907 14:20:02.532336 96963 net.cpp:477] inception_4a/relu_3x3_reduce <- inception_4a/3x3_reduce
I0907 14:20:02.532343 96963 net.cpp:419] inception_4a/relu_3x3_reduce -> inception_4a/3x3_reduce (in-place)
I0907 14:20:02.532351 96963 net.cpp:155] Setting up inception_4a/relu_3x3_reduce
I0907 14:20:02.532354 96963 net.cpp:163] Top shape: 32 96 14 14 (602112)
I0907 14:20:02.532357 96963 layer_factory.hpp:76] Creating layer inception_4a/3x3
I0907 14:20:02.532366 96963 net.cpp:110] Creating Layer inception_4a/3x3
I0907 14:20:02.532368 96963 net.cpp:477] inception_4a/3x3 <- inception_4a/3x3_reduce
I0907 14:20:02.532374 96963 net.cpp:433] inception_4a/3x3 -> inception_4a/3x3
I0907 14:20:02.534356 96963 net.cpp:155] Setting up inception_4a/3x3
I0907 14:20:02.534369 96963 net.cpp:163] Top shape: 32 208 14 14 (1304576)
I0907 14:20:02.534389 96963 layer_factory.hpp:76] Creating layer inception_4a/relu_3x3
I0907 14:20:02.534396 96963 net.cpp:110] Creating Layer inception_4a/relu_3x3
I0907 14:20:02.534400 96963 net.cpp:477] inception_4a/relu_3x3 <- inception_4a/3x3
I0907 14:20:02.534405 96963 net.cpp:419] inception_4a/relu_3x3 -> inception_4a/3x3 (in-place)
I0907 14:20:02.534412 96963 net.cpp:155] Setting up inception_4a/relu_3x3
I0907 14:20:02.534417 96963 net.cpp:163] Top shape: 32 208 14 14 (1304576)
I0907 14:20:02.534420 96963 layer_factory.hpp:76] Creating layer inception_4a/5x5_reduce
I0907 14:20:02.534440 96963 net.cpp:110] Creating Layer inception_4a/5x5_reduce
I0907 14:20:02.534443 96963 net.cpp:477] inception_4a/5x5_reduce <- pool3/3x3_s2_pool3/3x3_s2_0_split_2
I0907 14:20:02.534449 96963 net.cpp:433] inception_4a/5x5_reduce -> inception_4a/5x5_reduce
I0907 14:20:02.534560 96963 net.cpp:155] Setting up inception_4a/5x5_reduce
I0907 14:20:02.534569 96963 net.cpp:163] Top shape: 32 16 14 14 (100352)
I0907 14:20:02.534576 96963 layer_factory.hpp:76] Creating layer inception_4a/relu_5x5_reduce
I0907 14:20:02.534582 96963 net.cpp:110] Creating Layer inception_4a/relu_5x5_reduce
I0907 14:20:02.534586 96963 net.cpp:477] inception_4a/relu_5x5_reduce <- inception_4a/5x5_reduce
I0907 14:20:02.534591 96963 net.cpp:419] inception_4a/relu_5x5_reduce -> inception_4a/5x5_reduce (in-place)
I0907 14:20:02.534597 96963 net.cpp:155] Setting up inception_4a/relu_5x5_reduce
I0907 14:20:02.534601 96963 net.cpp:163] Top shape: 32 16 14 14 (100352)
I0907 14:20:02.534605 96963 layer_factory.hpp:76] Creating layer inception_4a/5x5
I0907 14:20:02.534612 96963 net.cpp:110] Creating Layer inception_4a/5x5
I0907 14:20:02.534615 96963 net.cpp:477] inception_4a/5x5 <- inception_4a/5x5_reduce
I0907 14:20:02.534621 96963 net.cpp:433] inception_4a/5x5 -> inception_4a/5x5
I0907 14:20:02.534813 96963 net.cpp:155] Setting up inception_4a/5x5
I0907 14:20:02.534822 96963 net.cpp:163] Top shape: 32 48 14 14 (301056)
I0907 14:20:02.534829 96963 layer_factory.hpp:76] Creating layer inception_4a/relu_5x5
I0907 14:20:02.534836 96963 net.cpp:110] Creating Layer inception_4a/relu_5x5
I0907 14:20:02.534839 96963 net.cpp:477] inception_4a/relu_5x5 <- inception_4a/5x5
I0907 14:20:02.534844 96963 net.cpp:419] inception_4a/relu_5x5 -> inception_4a/5x5 (in-place)
I0907 14:20:02.534852 96963 net.cpp:155] Setting up inception_4a/relu_5x5
I0907 14:20:02.534855 96963 net.cpp:163] Top shape: 32 48 14 14 (301056)
I0907 14:20:02.534858 96963 layer_factory.hpp:76] Creating layer inception_4a/pool
I0907 14:20:02.534865 96963 net.cpp:110] Creating Layer inception_4a/pool
I0907 14:20:02.534868 96963 net.cpp:477] inception_4a/pool <- pool3/3x3_s2_pool3/3x3_s2_0_split_3
I0907 14:20:02.534874 96963 net.cpp:433] inception_4a/pool -> inception_4a/pool
I0907 14:20:02.534883 96963 net.cpp:155] Setting up inception_4a/pool
I0907 14:20:02.534888 96963 net.cpp:163] Top shape: 32 480 14 14 (3010560)
I0907 14:20:02.534903 96963 layer_factory.hpp:76] Creating layer inception_4a/pool_proj
I0907 14:20:02.534910 96963 net.cpp:110] Creating Layer inception_4a/pool_proj
I0907 14:20:02.534914 96963 net.cpp:477] inception_4a/pool_proj <- inception_4a/pool
I0907 14:20:02.534921 96963 net.cpp:433] inception_4a/pool_proj -> inception_4a/pool_proj
I0907 14:20:02.535197 96963 net.cpp:155] Setting up inception_4a/pool_proj
I0907 14:20:02.535207 96963 net.cpp:163] Top shape: 32 64 14 14 (401408)
I0907 14:20:02.535214 96963 layer_factory.hpp:76] Creating layer inception_4a/relu_pool_proj
I0907 14:20:02.535220 96963 net.cpp:110] Creating Layer inception_4a/relu_pool_proj
I0907 14:20:02.535224 96963 net.cpp:477] inception_4a/relu_pool_proj <- inception_4a/pool_proj
I0907 14:20:02.535229 96963 net.cpp:419] inception_4a/relu_pool_proj -> inception_4a/pool_proj (in-place)
I0907 14:20:02.535236 96963 net.cpp:155] Setting up inception_4a/relu_pool_proj
I0907 14:20:02.535240 96963 net.cpp:163] Top shape: 32 64 14 14 (401408)
I0907 14:20:02.535243 96963 layer_factory.hpp:76] Creating layer inception_4a/output
I0907 14:20:02.535249 96963 net.cpp:110] Creating Layer inception_4a/output
I0907 14:20:02.535253 96963 net.cpp:477] inception_4a/output <- inception_4a/1x1
I0907 14:20:02.535257 96963 net.cpp:477] inception_4a/output <- inception_4a/3x3
I0907 14:20:02.535261 96963 net.cpp:477] inception_4a/output <- inception_4a/5x5
I0907 14:20:02.535264 96963 net.cpp:477] inception_4a/output <- inception_4a/pool_proj
I0907 14:20:02.535270 96963 net.cpp:433] inception_4a/output -> inception_4a/output
I0907 14:20:02.535277 96963 net.cpp:155] Setting up inception_4a/output
I0907 14:20:02.535281 96963 net.cpp:163] Top shape: 32 512 14 14 (3211264)
I0907 14:20:02.535284 96963 layer_factory.hpp:76] Creating layer inception_4a/output_inception_4a/output_0_split
I0907 14:20:02.535290 96963 net.cpp:110] Creating Layer inception_4a/output_inception_4a/output_0_split
I0907 14:20:02.535295 96963 net.cpp:477] inception_4a/output_inception_4a/output_0_split <- inception_4a/output
I0907 14:20:02.535300 96963 net.cpp:433] inception_4a/output_inception_4a/output_0_split -> inception_4a/output_inception_4a/output_0_split_0
I0907 14:20:02.535306 96963 net.cpp:433] inception_4a/output_inception_4a/output_0_split -> inception_4a/output_inception_4a/output_0_split_1
I0907 14:20:02.535313 96963 net.cpp:433] inception_4a/output_inception_4a/output_0_split -> inception_4a/output_inception_4a/output_0_split_2
I0907 14:20:02.535320 96963 net.cpp:433] inception_4a/output_inception_4a/output_0_split -> inception_4a/output_inception_4a/output_0_split_3
I0907 14:20:02.535326 96963 net.cpp:433] inception_4a/output_inception_4a/output_0_split -> inception_4a/output_inception_4a/output_0_split_4
I0907 14:20:02.535333 96963 net.cpp:155] Setting up inception_4a/output_inception_4a/output_0_split
I0907 14:20:02.535337 96963 net.cpp:163] Top shape: 32 512 14 14 (3211264)
I0907 14:20:02.535341 96963 net.cpp:163] Top shape: 32 512 14 14 (3211264)
I0907 14:20:02.535344 96963 net.cpp:163] Top shape: 32 512 14 14 (3211264)
I0907 14:20:02.535348 96963 net.cpp:163] Top shape: 32 512 14 14 (3211264)
I0907 14:20:02.535351 96963 net.cpp:163] Top shape: 32 512 14 14 (3211264)
I0907 14:20:02.535354 96963 layer_factory.hpp:76] Creating layer loss1/ave_pool
I0907 14:20:02.535361 96963 net.cpp:110] Creating Layer loss1/ave_pool
I0907 14:20:02.535363 96963 net.cpp:477] loss1/ave_pool <- inception_4a/output_inception_4a/output_0_split_0
I0907 14:20:02.535369 96963 net.cpp:433] loss1/ave_pool -> loss1/ave_pool
I0907 14:20:02.535377 96963 net.cpp:155] Setting up loss1/ave_pool
I0907 14:20:02.535382 96963 net.cpp:163] Top shape: 32 512 4 4 (262144)
I0907 14:20:02.535384 96963 layer_factory.hpp:76] Creating layer loss1/conv
I0907 14:20:02.535392 96963 net.cpp:110] Creating Layer loss1/conv
I0907 14:20:02.535395 96963 net.cpp:477] loss1/conv <- loss1/ave_pool
I0907 14:20:02.535401 96963 net.cpp:433] loss1/conv -> loss1/conv
I0907 14:20:02.535933 96963 net.cpp:155] Setting up loss1/conv
I0907 14:20:02.535956 96963 net.cpp:163] Top shape: 32 128 4 4 (65536)
I0907 14:20:02.535964 96963 layer_factory.hpp:76] Creating layer loss1/relu_conv
I0907 14:20:02.535971 96963 net.cpp:110] Creating Layer loss1/relu_conv
I0907 14:20:02.535975 96963 net.cpp:477] loss1/relu_conv <- loss1/conv
I0907 14:20:02.535981 96963 net.cpp:419] loss1/relu_conv -> loss1/conv (in-place)
I0907 14:20:02.535989 96963 net.cpp:155] Setting up loss1/relu_conv
I0907 14:20:02.535994 96963 net.cpp:163] Top shape: 32 128 4 4 (65536)
I0907 14:20:02.535996 96963 layer_factory.hpp:76] Creating layer loss1/fc
I0907 14:20:02.536007 96963 net.cpp:110] Creating Layer loss1/fc
I0907 14:20:02.536011 96963 net.cpp:477] loss1/fc <- loss1/conv
I0907 14:20:02.536018 96963 net.cpp:433] loss1/fc -> loss1/fc
I0907 14:20:02.554644 96963 net.cpp:155] Setting up loss1/fc
I0907 14:20:02.554661 96963 net.cpp:163] Top shape: 32 1024 (32768)
I0907 14:20:02.554682 96963 layer_factory.hpp:76] Creating layer loss1/relu_fc
I0907 14:20:02.554689 96963 net.cpp:110] Creating Layer loss1/relu_fc
I0907 14:20:02.554693 96963 net.cpp:477] loss1/relu_fc <- loss1/fc
I0907 14:20:02.554700 96963 net.cpp:419] loss1/relu_fc -> loss1/fc (in-place)
I0907 14:20:02.554708 96963 net.cpp:155] Setting up loss1/relu_fc
I0907 14:20:02.554713 96963 net.cpp:163] Top shape: 32 1024 (32768)
I0907 14:20:02.554715 96963 layer_factory.hpp:76] Creating layer loss1/drop_fc
I0907 14:20:02.554733 96963 net.cpp:110] Creating Layer loss1/drop_fc
I0907 14:20:02.554736 96963 net.cpp:477] loss1/drop_fc <- loss1/fc
I0907 14:20:02.554743 96963 net.cpp:419] loss1/drop_fc -> loss1/fc (in-place)
I0907 14:20:02.554755 96963 net.cpp:155] Setting up loss1/drop_fc
I0907 14:20:02.554760 96963 net.cpp:163] Top shape: 32 1024 (32768)
I0907 14:20:02.554764 96963 layer_factory.hpp:76] Creating layer loss1/classifier_cub
I0907 14:20:02.554771 96963 net.cpp:110] Creating Layer loss1/classifier_cub
I0907 14:20:02.554775 96963 net.cpp:477] loss1/classifier_cub <- loss1/fc
I0907 14:20:02.554780 96963 net.cpp:433] loss1/classifier_cub -> loss1/classifier
I0907 14:20:02.561930 96963 net.cpp:155] Setting up loss1/classifier_cub
I0907 14:20:02.561956 96963 net.cpp:163] Top shape: 32 200 (6400)
I0907 14:20:02.561965 96963 layer_factory.hpp:76] Creating layer loss1/loss
I0907 14:20:02.561976 96963 net.cpp:110] Creating Layer loss1/loss
I0907 14:20:02.561981 96963 net.cpp:477] loss1/loss <- loss1/classifier
I0907 14:20:02.561986 96963 net.cpp:477] loss1/loss <- label_data_1_split_0
I0907 14:20:02.561992 96963 net.cpp:433] loss1/loss -> loss1/loss1
I0907 14:20:02.562005 96963 layer_factory.hpp:76] Creating layer loss1/loss
I0907 14:20:02.562073 96963 net.cpp:155] Setting up loss1/loss
I0907 14:20:02.562088 96963 net.cpp:163] Top shape: (1)
I0907 14:20:02.562090 96963 net.cpp:168]     with loss weight 0.3
I0907 14:20:02.562124 96963 layer_factory.hpp:76] Creating layer inception_4b/1x1
I0907 14:20:02.562134 96963 net.cpp:110] Creating Layer inception_4b/1x1
I0907 14:20:02.562139 96963 net.cpp:477] inception_4b/1x1 <- inception_4a/output_inception_4a/output_0_split_1
I0907 14:20:02.562146 96963 net.cpp:433] inception_4b/1x1 -> inception_4b/1x1
I0907 14:20:02.562799 96963 net.cpp:155] Setting up inception_4b/1x1
I0907 14:20:02.562810 96963 net.cpp:163] Top shape: 32 160 14 14 (1003520)
I0907 14:20:02.562818 96963 layer_factory.hpp:76] Creating layer inception_4b/relu_1x1
I0907 14:20:02.562824 96963 net.cpp:110] Creating Layer inception_4b/relu_1x1
I0907 14:20:02.562827 96963 net.cpp:477] inception_4b/relu_1x1 <- inception_4b/1x1
I0907 14:20:02.562834 96963 net.cpp:419] inception_4b/relu_1x1 -> inception_4b/1x1 (in-place)
I0907 14:20:02.562840 96963 net.cpp:155] Setting up inception_4b/relu_1x1
I0907 14:20:02.562845 96963 net.cpp:163] Top shape: 32 160 14 14 (1003520)
I0907 14:20:02.562849 96963 layer_factory.hpp:76] Creating layer inception_4b/3x3_reduce
I0907 14:20:02.562856 96963 net.cpp:110] Creating Layer inception_4b/3x3_reduce
I0907 14:20:02.562860 96963 net.cpp:477] inception_4b/3x3_reduce <- inception_4a/output_inception_4a/output_0_split_2
I0907 14:20:02.562880 96963 net.cpp:433] inception_4b/3x3_reduce -> inception_4b/3x3_reduce
I0907 14:20:02.563935 96963 net.cpp:155] Setting up inception_4b/3x3_reduce
I0907 14:20:02.563951 96963 net.cpp:163] Top shape: 32 112 14 14 (702464)
I0907 14:20:02.563958 96963 layer_factory.hpp:76] Creating layer inception_4b/relu_3x3_reduce
I0907 14:20:02.563966 96963 net.cpp:110] Creating Layer inception_4b/relu_3x3_reduce
I0907 14:20:02.563969 96963 net.cpp:477] inception_4b/relu_3x3_reduce <- inception_4b/3x3_reduce
I0907 14:20:02.563977 96963 net.cpp:419] inception_4b/relu_3x3_reduce -> inception_4b/3x3_reduce (in-place)
I0907 14:20:02.563983 96963 net.cpp:155] Setting up inception_4b/relu_3x3_reduce
I0907 14:20:02.563988 96963 net.cpp:163] Top shape: 32 112 14 14 (702464)
I0907 14:20:02.563992 96963 layer_factory.hpp:76] Creating layer inception_4b/3x3
I0907 14:20:02.563999 96963 net.cpp:110] Creating Layer inception_4b/3x3
I0907 14:20:02.564003 96963 net.cpp:477] inception_4b/3x3 <- inception_4b/3x3_reduce
I0907 14:20:02.564009 96963 net.cpp:433] inception_4b/3x3 -> inception_4b/3x3
I0907 14:20:02.566308 96963 net.cpp:155] Setting up inception_4b/3x3
I0907 14:20:02.566321 96963 net.cpp:163] Top shape: 32 224 14 14 (1404928)
I0907 14:20:02.566342 96963 layer_factory.hpp:76] Creating layer inception_4b/relu_3x3
I0907 14:20:02.566349 96963 net.cpp:110] Creating Layer inception_4b/relu_3x3
I0907 14:20:02.566354 96963 net.cpp:477] inception_4b/relu_3x3 <- inception_4b/3x3
I0907 14:20:02.566359 96963 net.cpp:419] inception_4b/relu_3x3 -> inception_4b/3x3 (in-place)
I0907 14:20:02.566366 96963 net.cpp:155] Setting up inception_4b/relu_3x3
I0907 14:20:02.566370 96963 net.cpp:163] Top shape: 32 224 14 14 (1404928)
I0907 14:20:02.566375 96963 layer_factory.hpp:76] Creating layer inception_4b/5x5_reduce
I0907 14:20:02.566381 96963 net.cpp:110] Creating Layer inception_4b/5x5_reduce
I0907 14:20:02.566385 96963 net.cpp:477] inception_4b/5x5_reduce <- inception_4a/output_inception_4a/output_0_split_3
I0907 14:20:02.566392 96963 net.cpp:433] inception_4b/5x5_reduce -> inception_4b/5x5_reduce
I0907 14:20:02.566541 96963 net.cpp:155] Setting up inception_4b/5x5_reduce
I0907 14:20:02.566551 96963 net.cpp:163] Top shape: 32 24 14 14 (150528)
I0907 14:20:02.566558 96963 layer_factory.hpp:76] Creating layer inception_4b/relu_5x5_reduce
I0907 14:20:02.566565 96963 net.cpp:110] Creating Layer inception_4b/relu_5x5_reduce
I0907 14:20:02.566568 96963 net.cpp:477] inception_4b/relu_5x5_reduce <- inception_4b/5x5_reduce
I0907 14:20:02.566573 96963 net.cpp:419] inception_4b/relu_5x5_reduce -> inception_4b/5x5_reduce (in-place)
I0907 14:20:02.566579 96963 net.cpp:155] Setting up inception_4b/relu_5x5_reduce
I0907 14:20:02.566583 96963 net.cpp:163] Top shape: 32 24 14 14 (150528)
I0907 14:20:02.566586 96963 layer_factory.hpp:76] Creating layer inception_4b/5x5
I0907 14:20:02.566593 96963 net.cpp:110] Creating Layer inception_4b/5x5
I0907 14:20:02.566597 96963 net.cpp:477] inception_4b/5x5 <- inception_4b/5x5_reduce
I0907 14:20:02.566603 96963 net.cpp:433] inception_4b/5x5 -> inception_4b/5x5
I0907 14:20:02.566946 96963 net.cpp:155] Setting up inception_4b/5x5
I0907 14:20:02.566956 96963 net.cpp:163] Top shape: 32 64 14 14 (401408)
I0907 14:20:02.566974 96963 layer_factory.hpp:76] Creating layer inception_4b/relu_5x5
I0907 14:20:02.566982 96963 net.cpp:110] Creating Layer inception_4b/relu_5x5
I0907 14:20:02.566984 96963 net.cpp:477] inception_4b/relu_5x5 <- inception_4b/5x5
I0907 14:20:02.566990 96963 net.cpp:419] inception_4b/relu_5x5 -> inception_4b/5x5 (in-place)
I0907 14:20:02.566997 96963 net.cpp:155] Setting up inception_4b/relu_5x5
I0907 14:20:02.567000 96963 net.cpp:163] Top shape: 32 64 14 14 (401408)
I0907 14:20:02.567003 96963 layer_factory.hpp:76] Creating layer inception_4b/pool
I0907 14:20:02.567009 96963 net.cpp:110] Creating Layer inception_4b/pool
I0907 14:20:02.567013 96963 net.cpp:477] inception_4b/pool <- inception_4a/output_inception_4a/output_0_split_4
I0907 14:20:02.567019 96963 net.cpp:433] inception_4b/pool -> inception_4b/pool
I0907 14:20:02.567047 96963 net.cpp:155] Setting up inception_4b/pool
I0907 14:20:02.567054 96963 net.cpp:163] Top shape: 32 512 14 14 (3211264)
I0907 14:20:02.567057 96963 layer_factory.hpp:76] Creating layer inception_4b/pool_proj
I0907 14:20:02.567065 96963 net.cpp:110] Creating Layer inception_4b/pool_proj
I0907 14:20:02.567070 96963 net.cpp:477] inception_4b/pool_proj <- inception_4b/pool
I0907 14:20:02.567076 96963 net.cpp:433] inception_4b/pool_proj -> inception_4b/pool_proj
I0907 14:20:02.567371 96963 net.cpp:155] Setting up inception_4b/pool_proj
I0907 14:20:02.567383 96963 net.cpp:163] Top shape: 32 64 14 14 (401408)
I0907 14:20:02.567389 96963 layer_factory.hpp:76] Creating layer inception_4b/relu_pool_proj
I0907 14:20:02.567395 96963 net.cpp:110] Creating Layer inception_4b/relu_pool_proj
I0907 14:20:02.567399 96963 net.cpp:477] inception_4b/relu_pool_proj <- inception_4b/pool_proj
I0907 14:20:02.567405 96963 net.cpp:419] inception_4b/relu_pool_proj -> inception_4b/pool_proj (in-place)
I0907 14:20:02.567411 96963 net.cpp:155] Setting up inception_4b/relu_pool_proj
I0907 14:20:02.567416 96963 net.cpp:163] Top shape: 32 64 14 14 (401408)
I0907 14:20:02.567420 96963 layer_factory.hpp:76] Creating layer inception_4b/output
I0907 14:20:02.567425 96963 net.cpp:110] Creating Layer inception_4b/output
I0907 14:20:02.567430 96963 net.cpp:477] inception_4b/output <- inception_4b/1x1
I0907 14:20:02.567433 96963 net.cpp:477] inception_4b/output <- inception_4b/3x3
I0907 14:20:02.567437 96963 net.cpp:477] inception_4b/output <- inception_4b/5x5
I0907 14:20:02.567441 96963 net.cpp:477] inception_4b/output <- inception_4b/pool_proj
I0907 14:20:02.567446 96963 net.cpp:433] inception_4b/output -> inception_4b/output
I0907 14:20:02.567453 96963 net.cpp:155] Setting up inception_4b/output
I0907 14:20:02.567458 96963 net.cpp:163] Top shape: 32 512 14 14 (3211264)
I0907 14:20:02.567461 96963 layer_factory.hpp:76] Creating layer inception_4b/output_inception_4b/output_0_split
I0907 14:20:02.567467 96963 net.cpp:110] Creating Layer inception_4b/output_inception_4b/output_0_split
I0907 14:20:02.567471 96963 net.cpp:477] inception_4b/output_inception_4b/output_0_split <- inception_4b/output
I0907 14:20:02.567476 96963 net.cpp:433] inception_4b/output_inception_4b/output_0_split -> inception_4b/output_inception_4b/output_0_split_0
I0907 14:20:02.567483 96963 net.cpp:433] inception_4b/output_inception_4b/output_0_split -> inception_4b/output_inception_4b/output_0_split_1
I0907 14:20:02.567490 96963 net.cpp:433] inception_4b/output_inception_4b/output_0_split -> inception_4b/output_inception_4b/output_0_split_2
I0907 14:20:02.567497 96963 net.cpp:433] inception_4b/output_inception_4b/output_0_split -> inception_4b/output_inception_4b/output_0_split_3
I0907 14:20:02.567503 96963 net.cpp:155] Setting up inception_4b/output_inception_4b/output_0_split
I0907 14:20:02.567507 96963 net.cpp:163] Top shape: 32 512 14 14 (3211264)
I0907 14:20:02.567512 96963 net.cpp:163] Top shape: 32 512 14 14 (3211264)
I0907 14:20:02.567515 96963 net.cpp:163] Top shape: 32 512 14 14 (3211264)
I0907 14:20:02.567518 96963 net.cpp:163] Top shape: 32 512 14 14 (3211264)
I0907 14:20:02.567522 96963 layer_factory.hpp:76] Creating layer inception_4c/1x1
I0907 14:20:02.567529 96963 net.cpp:110] Creating Layer inception_4c/1x1
I0907 14:20:02.567533 96963 net.cpp:477] inception_4c/1x1 <- inception_4b/output_inception_4b/output_0_split_0
I0907 14:20:02.567538 96963 net.cpp:433] inception_4c/1x1 -> inception_4c/1x1
I0907 14:20:02.568076 96963 net.cpp:155] Setting up inception_4c/1x1
I0907 14:20:02.568089 96963 net.cpp:163] Top shape: 32 128 14 14 (802816)
I0907 14:20:02.568107 96963 layer_factory.hpp:76] Creating layer inception_4c/relu_1x1
I0907 14:20:02.568114 96963 net.cpp:110] Creating Layer inception_4c/relu_1x1
I0907 14:20:02.568117 96963 net.cpp:477] inception_4c/relu_1x1 <- inception_4c/1x1
I0907 14:20:02.568123 96963 net.cpp:419] inception_4c/relu_1x1 -> inception_4c/1x1 (in-place)
I0907 14:20:02.568130 96963 net.cpp:155] Setting up inception_4c/relu_1x1
I0907 14:20:02.568145 96963 net.cpp:163] Top shape: 32 128 14 14 (802816)
I0907 14:20:02.568148 96963 layer_factory.hpp:76] Creating layer inception_4c/3x3_reduce
I0907 14:20:02.568156 96963 net.cpp:110] Creating Layer inception_4c/3x3_reduce
I0907 14:20:02.568161 96963 net.cpp:477] inception_4c/3x3_reduce <- inception_4b/output_inception_4b/output_0_split_1
I0907 14:20:02.568167 96963 net.cpp:433] inception_4c/3x3_reduce -> inception_4c/3x3_reduce
I0907 14:20:02.568699 96963 net.cpp:155] Setting up inception_4c/3x3_reduce
I0907 14:20:02.568709 96963 net.cpp:163] Top shape: 32 128 14 14 (802816)
I0907 14:20:02.568728 96963 layer_factory.hpp:76] Creating layer inception_4c/relu_3x3_reduce
I0907 14:20:02.568735 96963 net.cpp:110] Creating Layer inception_4c/relu_3x3_reduce
I0907 14:20:02.568739 96963 net.cpp:477] inception_4c/relu_3x3_reduce <- inception_4c/3x3_reduce
I0907 14:20:02.568744 96963 net.cpp:419] inception_4c/relu_3x3_reduce -> inception_4c/3x3_reduce (in-place)
I0907 14:20:02.568750 96963 net.cpp:155] Setting up inception_4c/relu_3x3_reduce
I0907 14:20:02.568754 96963 net.cpp:163] Top shape: 32 128 14 14 (802816)
I0907 14:20:02.568758 96963 layer_factory.hpp:76] Creating layer inception_4c/3x3
I0907 14:20:02.568765 96963 net.cpp:110] Creating Layer inception_4c/3x3
I0907 14:20:02.568768 96963 net.cpp:477] inception_4c/3x3 <- inception_4c/3x3_reduce
I0907 14:20:02.568774 96963 net.cpp:433] inception_4c/3x3 -> inception_4c/3x3
I0907 14:20:02.571471 96963 net.cpp:155] Setting up inception_4c/3x3
I0907 14:20:02.571496 96963 net.cpp:163] Top shape: 32 256 14 14 (1605632)
I0907 14:20:02.571516 96963 layer_factory.hpp:76] Creating layer inception_4c/relu_3x3
I0907 14:20:02.571523 96963 net.cpp:110] Creating Layer inception_4c/relu_3x3
I0907 14:20:02.571527 96963 net.cpp:477] inception_4c/relu_3x3 <- inception_4c/3x3
I0907 14:20:02.571533 96963 net.cpp:419] inception_4c/relu_3x3 -> inception_4c/3x3 (in-place)
I0907 14:20:02.571540 96963 net.cpp:155] Setting up inception_4c/relu_3x3
I0907 14:20:02.571544 96963 net.cpp:163] Top shape: 32 256 14 14 (1605632)
I0907 14:20:02.571548 96963 layer_factory.hpp:76] Creating layer inception_4c/5x5_reduce
I0907 14:20:02.571557 96963 net.cpp:110] Creating Layer inception_4c/5x5_reduce
I0907 14:20:02.571559 96963 net.cpp:477] inception_4c/5x5_reduce <- inception_4b/output_inception_4b/output_0_split_2
I0907 14:20:02.571568 96963 net.cpp:433] inception_4c/5x5_reduce -> inception_4c/5x5_reduce
I0907 14:20:02.571724 96963 net.cpp:155] Setting up inception_4c/5x5_reduce
I0907 14:20:02.571735 96963 net.cpp:163] Top shape: 32 24 14 14 (150528)
I0907 14:20:02.571743 96963 layer_factory.hpp:76] Creating layer inception_4c/relu_5x5_reduce
I0907 14:20:02.571748 96963 net.cpp:110] Creating Layer inception_4c/relu_5x5_reduce
I0907 14:20:02.571753 96963 net.cpp:477] inception_4c/relu_5x5_reduce <- inception_4c/5x5_reduce
I0907 14:20:02.571758 96963 net.cpp:419] inception_4c/relu_5x5_reduce -> inception_4c/5x5_reduce (in-place)
I0907 14:20:02.571764 96963 net.cpp:155] Setting up inception_4c/relu_5x5_reduce
I0907 14:20:02.571768 96963 net.cpp:163] Top shape: 32 24 14 14 (150528)
I0907 14:20:02.571773 96963 layer_factory.hpp:76] Creating layer inception_4c/5x5
I0907 14:20:02.571779 96963 net.cpp:110] Creating Layer inception_4c/5x5
I0907 14:20:02.571782 96963 net.cpp:477] inception_4c/5x5 <- inception_4c/5x5_reduce
I0907 14:20:02.571789 96963 net.cpp:433] inception_4c/5x5 -> inception_4c/5x5
I0907 14:20:02.572633 96963 net.cpp:155] Setting up inception_4c/5x5
I0907 14:20:02.572646 96963 net.cpp:163] Top shape: 32 64 14 14 (401408)
I0907 14:20:02.572665 96963 layer_factory.hpp:76] Creating layer inception_4c/relu_5x5
I0907 14:20:02.572672 96963 net.cpp:110] Creating Layer inception_4c/relu_5x5
I0907 14:20:02.572676 96963 net.cpp:477] inception_4c/relu_5x5 <- inception_4c/5x5
I0907 14:20:02.572686 96963 net.cpp:419] inception_4c/relu_5x5 -> inception_4c/5x5 (in-place)
I0907 14:20:02.572693 96963 net.cpp:155] Setting up inception_4c/relu_5x5
I0907 14:20:02.572698 96963 net.cpp:163] Top shape: 32 64 14 14 (401408)
I0907 14:20:02.572712 96963 layer_factory.hpp:76] Creating layer inception_4c/pool
I0907 14:20:02.572720 96963 net.cpp:110] Creating Layer inception_4c/pool
I0907 14:20:02.572723 96963 net.cpp:477] inception_4c/pool <- inception_4b/output_inception_4b/output_0_split_3
I0907 14:20:02.572729 96963 net.cpp:433] inception_4c/pool -> inception_4c/pool
I0907 14:20:02.572738 96963 net.cpp:155] Setting up inception_4c/pool
I0907 14:20:02.572743 96963 net.cpp:163] Top shape: 32 512 14 14 (3211264)
I0907 14:20:02.572747 96963 layer_factory.hpp:76] Creating layer inception_4c/pool_proj
I0907 14:20:02.572754 96963 net.cpp:110] Creating Layer inception_4c/pool_proj
I0907 14:20:02.572758 96963 net.cpp:477] inception_4c/pool_proj <- inception_4c/pool
I0907 14:20:02.572767 96963 net.cpp:433] inception_4c/pool_proj -> inception_4c/pool_proj
I0907 14:20:02.573063 96963 net.cpp:155] Setting up inception_4c/pool_proj
I0907 14:20:02.573074 96963 net.cpp:163] Top shape: 32 64 14 14 (401408)
I0907 14:20:02.573081 96963 layer_factory.hpp:76] Creating layer inception_4c/relu_pool_proj
I0907 14:20:02.573087 96963 net.cpp:110] Creating Layer inception_4c/relu_pool_proj
I0907 14:20:02.573091 96963 net.cpp:477] inception_4c/relu_pool_proj <- inception_4c/pool_proj
I0907 14:20:02.573096 96963 net.cpp:419] inception_4c/relu_pool_proj -> inception_4c/pool_proj (in-place)
I0907 14:20:02.573103 96963 net.cpp:155] Setting up inception_4c/relu_pool_proj
I0907 14:20:02.573107 96963 net.cpp:163] Top shape: 32 64 14 14 (401408)
I0907 14:20:02.573112 96963 layer_factory.hpp:76] Creating layer inception_4c/output
I0907 14:20:02.573117 96963 net.cpp:110] Creating Layer inception_4c/output
I0907 14:20:02.573120 96963 net.cpp:477] inception_4c/output <- inception_4c/1x1
I0907 14:20:02.573124 96963 net.cpp:477] inception_4c/output <- inception_4c/3x3
I0907 14:20:02.573129 96963 net.cpp:477] inception_4c/output <- inception_4c/5x5
I0907 14:20:02.573132 96963 net.cpp:477] inception_4c/output <- inception_4c/pool_proj
I0907 14:20:02.573140 96963 net.cpp:433] inception_4c/output -> inception_4c/output
I0907 14:20:02.573148 96963 net.cpp:155] Setting up inception_4c/output
I0907 14:20:02.573153 96963 net.cpp:163] Top shape: 32 512 14 14 (3211264)
I0907 14:20:02.573155 96963 layer_factory.hpp:76] Creating layer inception_4c/output_inception_4c/output_0_split
I0907 14:20:02.573161 96963 net.cpp:110] Creating Layer inception_4c/output_inception_4c/output_0_split
I0907 14:20:02.573165 96963 net.cpp:477] inception_4c/output_inception_4c/output_0_split <- inception_4c/output
I0907 14:20:02.573171 96963 net.cpp:433] inception_4c/output_inception_4c/output_0_split -> inception_4c/output_inception_4c/output_0_split_0
I0907 14:20:02.573178 96963 net.cpp:433] inception_4c/output_inception_4c/output_0_split -> inception_4c/output_inception_4c/output_0_split_1
I0907 14:20:02.573184 96963 net.cpp:433] inception_4c/output_inception_4c/output_0_split -> inception_4c/output_inception_4c/output_0_split_2
I0907 14:20:02.573189 96963 net.cpp:433] inception_4c/output_inception_4c/output_0_split -> inception_4c/output_inception_4c/output_0_split_3
I0907 14:20:02.573196 96963 net.cpp:155] Setting up inception_4c/output_inception_4c/output_0_split
I0907 14:20:02.573200 96963 net.cpp:163] Top shape: 32 512 14 14 (3211264)
I0907 14:20:02.573204 96963 net.cpp:163] Top shape: 32 512 14 14 (3211264)
I0907 14:20:02.573209 96963 net.cpp:163] Top shape: 32 512 14 14 (3211264)
I0907 14:20:02.573211 96963 net.cpp:163] Top shape: 32 512 14 14 (3211264)
I0907 14:20:02.573215 96963 layer_factory.hpp:76] Creating layer inception_4d/1x1
I0907 14:20:02.573223 96963 net.cpp:110] Creating Layer inception_4d/1x1
I0907 14:20:02.573226 96963 net.cpp:477] inception_4d/1x1 <- inception_4c/output_inception_4c/output_0_split_0
I0907 14:20:02.573233 96963 net.cpp:433] inception_4d/1x1 -> inception_4d/1x1
I0907 14:20:02.573716 96963 net.cpp:155] Setting up inception_4d/1x1
I0907 14:20:02.573727 96963 net.cpp:163] Top shape: 32 112 14 14 (702464)
I0907 14:20:02.573746 96963 layer_factory.hpp:76] Creating layer inception_4d/relu_1x1
I0907 14:20:02.573762 96963 net.cpp:110] Creating Layer inception_4d/relu_1x1
I0907 14:20:02.573766 96963 net.cpp:477] inception_4d/relu_1x1 <- inception_4d/1x1
I0907 14:20:02.573775 96963 net.cpp:419] inception_4d/relu_1x1 -> inception_4d/1x1 (in-place)
I0907 14:20:02.573781 96963 net.cpp:155] Setting up inception_4d/relu_1x1
I0907 14:20:02.573786 96963 net.cpp:163] Top shape: 32 112 14 14 (702464)
I0907 14:20:02.573788 96963 layer_factory.hpp:76] Creating layer inception_4d/3x3_reduce
I0907 14:20:02.573796 96963 net.cpp:110] Creating Layer inception_4d/3x3_reduce
I0907 14:20:02.573799 96963 net.cpp:477] inception_4d/3x3_reduce <- inception_4c/output_inception_4c/output_0_split_1
I0907 14:20:02.573806 96963 net.cpp:433] inception_4d/3x3_reduce -> inception_4d/3x3_reduce
I0907 14:20:02.574419 96963 net.cpp:155] Setting up inception_4d/3x3_reduce
I0907 14:20:02.574429 96963 net.cpp:163] Top shape: 32 144 14 14 (903168)
I0907 14:20:02.574447 96963 layer_factory.hpp:76] Creating layer inception_4d/relu_3x3_reduce
I0907 14:20:02.574453 96963 net.cpp:110] Creating Layer inception_4d/relu_3x3_reduce
I0907 14:20:02.574457 96963 net.cpp:477] inception_4d/relu_3x3_reduce <- inception_4d/3x3_reduce
I0907 14:20:02.574465 96963 net.cpp:419] inception_4d/relu_3x3_reduce -> inception_4d/3x3_reduce (in-place)
I0907 14:20:02.574472 96963 net.cpp:155] Setting up inception_4d/relu_3x3_reduce
I0907 14:20:02.574476 96963 net.cpp:163] Top shape: 32 144 14 14 (903168)
I0907 14:20:02.574481 96963 layer_factory.hpp:76] Creating layer inception_4d/3x3
I0907 14:20:02.574486 96963 net.cpp:110] Creating Layer inception_4d/3x3
I0907 14:20:02.574489 96963 net.cpp:477] inception_4d/3x3 <- inception_4d/3x3_reduce
I0907 14:20:02.574494 96963 net.cpp:433] inception_4d/3x3 -> inception_4d/3x3
I0907 14:20:02.577875 96963 net.cpp:155] Setting up inception_4d/3x3
I0907 14:20:02.577901 96963 net.cpp:163] Top shape: 32 288 14 14 (1806336)
I0907 14:20:02.577910 96963 layer_factory.hpp:76] Creating layer inception_4d/relu_3x3
I0907 14:20:02.577918 96963 net.cpp:110] Creating Layer inception_4d/relu_3x3
I0907 14:20:02.577921 96963 net.cpp:477] inception_4d/relu_3x3 <- inception_4d/3x3
I0907 14:20:02.577926 96963 net.cpp:419] inception_4d/relu_3x3 -> inception_4d/3x3 (in-place)
I0907 14:20:02.577934 96963 net.cpp:155] Setting up inception_4d/relu_3x3
I0907 14:20:02.577939 96963 net.cpp:163] Top shape: 32 288 14 14 (1806336)
I0907 14:20:02.577941 96963 layer_factory.hpp:76] Creating layer inception_4d/5x5_reduce
I0907 14:20:02.577949 96963 net.cpp:110] Creating Layer inception_4d/5x5_reduce
I0907 14:20:02.577951 96963 net.cpp:477] inception_4d/5x5_reduce <- inception_4c/output_inception_4c/output_0_split_2
I0907 14:20:02.577960 96963 net.cpp:433] inception_4d/5x5_reduce -> inception_4d/5x5_reduce
I0907 14:20:02.578143 96963 net.cpp:155] Setting up inception_4d/5x5_reduce
I0907 14:20:02.578153 96963 net.cpp:163] Top shape: 32 32 14 14 (200704)
I0907 14:20:02.578160 96963 layer_factory.hpp:76] Creating layer inception_4d/relu_5x5_reduce
I0907 14:20:02.578166 96963 net.cpp:110] Creating Layer inception_4d/relu_5x5_reduce
I0907 14:20:02.578169 96963 net.cpp:477] inception_4d/relu_5x5_reduce <- inception_4d/5x5_reduce
I0907 14:20:02.578174 96963 net.cpp:419] inception_4d/relu_5x5_reduce -> inception_4d/5x5_reduce (in-place)
I0907 14:20:02.578181 96963 net.cpp:155] Setting up inception_4d/relu_5x5_reduce
I0907 14:20:02.578186 96963 net.cpp:163] Top shape: 32 32 14 14 (200704)
I0907 14:20:02.578188 96963 layer_factory.hpp:76] Creating layer inception_4d/5x5
I0907 14:20:02.578197 96963 net.cpp:110] Creating Layer inception_4d/5x5
I0907 14:20:02.578200 96963 net.cpp:477] inception_4d/5x5 <- inception_4d/5x5_reduce
I0907 14:20:02.578207 96963 net.cpp:433] inception_4d/5x5 -> inception_4d/5x5
I0907 14:20:02.578640 96963 net.cpp:155] Setting up inception_4d/5x5
I0907 14:20:02.578650 96963 net.cpp:163] Top shape: 32 64 14 14 (401408)
I0907 14:20:02.578668 96963 layer_factory.hpp:76] Creating layer inception_4d/relu_5x5
I0907 14:20:02.578686 96963 net.cpp:110] Creating Layer inception_4d/relu_5x5
I0907 14:20:02.578691 96963 net.cpp:477] inception_4d/relu_5x5 <- inception_4d/5x5
I0907 14:20:02.578696 96963 net.cpp:419] inception_4d/relu_5x5 -> inception_4d/5x5 (in-place)
I0907 14:20:02.578702 96963 net.cpp:155] Setting up inception_4d/relu_5x5
I0907 14:20:02.578706 96963 net.cpp:163] Top shape: 32 64 14 14 (401408)
I0907 14:20:02.578711 96963 layer_factory.hpp:76] Creating layer inception_4d/pool
I0907 14:20:02.578718 96963 net.cpp:110] Creating Layer inception_4d/pool
I0907 14:20:02.578722 96963 net.cpp:477] inception_4d/pool <- inception_4c/output_inception_4c/output_0_split_3
I0907 14:20:02.578728 96963 net.cpp:433] inception_4d/pool -> inception_4d/pool
I0907 14:20:02.578737 96963 net.cpp:155] Setting up inception_4d/pool
I0907 14:20:02.578742 96963 net.cpp:163] Top shape: 32 512 14 14 (3211264)
I0907 14:20:02.578744 96963 layer_factory.hpp:76] Creating layer inception_4d/pool_proj
I0907 14:20:02.578752 96963 net.cpp:110] Creating Layer inception_4d/pool_proj
I0907 14:20:02.578754 96963 net.cpp:477] inception_4d/pool_proj <- inception_4d/pool
I0907 14:20:02.578760 96963 net.cpp:433] inception_4d/pool_proj -> inception_4d/pool_proj
I0907 14:20:02.579053 96963 net.cpp:155] Setting up inception_4d/pool_proj
I0907 14:20:02.579064 96963 net.cpp:163] Top shape: 32 64 14 14 (401408)
I0907 14:20:02.579071 96963 layer_factory.hpp:76] Creating layer inception_4d/relu_pool_proj
I0907 14:20:02.579077 96963 net.cpp:110] Creating Layer inception_4d/relu_pool_proj
I0907 14:20:02.579080 96963 net.cpp:477] inception_4d/relu_pool_proj <- inception_4d/pool_proj
I0907 14:20:02.579085 96963 net.cpp:419] inception_4d/relu_pool_proj -> inception_4d/pool_proj (in-place)
I0907 14:20:02.579092 96963 net.cpp:155] Setting up inception_4d/relu_pool_proj
I0907 14:20:02.579097 96963 net.cpp:163] Top shape: 32 64 14 14 (401408)
I0907 14:20:02.579099 96963 layer_factory.hpp:76] Creating layer inception_4d/output
I0907 14:20:02.579105 96963 net.cpp:110] Creating Layer inception_4d/output
I0907 14:20:02.579108 96963 net.cpp:477] inception_4d/output <- inception_4d/1x1
I0907 14:20:02.579113 96963 net.cpp:477] inception_4d/output <- inception_4d/3x3
I0907 14:20:02.579118 96963 net.cpp:477] inception_4d/output <- inception_4d/5x5
I0907 14:20:02.579120 96963 net.cpp:477] inception_4d/output <- inception_4d/pool_proj
I0907 14:20:02.579125 96963 net.cpp:433] inception_4d/output -> inception_4d/output
I0907 14:20:02.579133 96963 net.cpp:155] Setting up inception_4d/output
I0907 14:20:02.579138 96963 net.cpp:163] Top shape: 32 528 14 14 (3311616)
I0907 14:20:02.579140 96963 layer_factory.hpp:76] Creating layer inception_4d/output_inception_4d/output_0_split
I0907 14:20:02.579149 96963 net.cpp:110] Creating Layer inception_4d/output_inception_4d/output_0_split
I0907 14:20:02.579151 96963 net.cpp:477] inception_4d/output_inception_4d/output_0_split <- inception_4d/output
I0907 14:20:02.579157 96963 net.cpp:433] inception_4d/output_inception_4d/output_0_split -> inception_4d/output_inception_4d/output_0_split_0
I0907 14:20:02.579164 96963 net.cpp:433] inception_4d/output_inception_4d/output_0_split -> inception_4d/output_inception_4d/output_0_split_1
I0907 14:20:02.579170 96963 net.cpp:433] inception_4d/output_inception_4d/output_0_split -> inception_4d/output_inception_4d/output_0_split_2
I0907 14:20:02.579177 96963 net.cpp:433] inception_4d/output_inception_4d/output_0_split -> inception_4d/output_inception_4d/output_0_split_3
I0907 14:20:02.579183 96963 net.cpp:433] inception_4d/output_inception_4d/output_0_split -> inception_4d/output_inception_4d/output_0_split_4
I0907 14:20:02.579191 96963 net.cpp:155] Setting up inception_4d/output_inception_4d/output_0_split
I0907 14:20:02.579195 96963 net.cpp:163] Top shape: 32 528 14 14 (3311616)
I0907 14:20:02.579200 96963 net.cpp:163] Top shape: 32 528 14 14 (3311616)
I0907 14:20:02.579202 96963 net.cpp:163] Top shape: 32 528 14 14 (3311616)
I0907 14:20:02.579206 96963 net.cpp:163] Top shape: 32 528 14 14 (3311616)
I0907 14:20:02.579210 96963 net.cpp:163] Top shape: 32 528 14 14 (3311616)
I0907 14:20:02.579222 96963 layer_factory.hpp:76] Creating layer loss2/ave_pool
I0907 14:20:02.579228 96963 net.cpp:110] Creating Layer loss2/ave_pool
I0907 14:20:02.579231 96963 net.cpp:477] loss2/ave_pool <- inception_4d/output_inception_4d/output_0_split_0
I0907 14:20:02.579239 96963 net.cpp:433] loss2/ave_pool -> loss2/ave_pool
I0907 14:20:02.579247 96963 net.cpp:155] Setting up loss2/ave_pool
I0907 14:20:02.579252 96963 net.cpp:163] Top shape: 32 528 4 4 (270336)
I0907 14:20:02.579255 96963 layer_factory.hpp:76] Creating layer loss2/conv
I0907 14:20:02.579262 96963 net.cpp:110] Creating Layer loss2/conv
I0907 14:20:02.579265 96963 net.cpp:477] loss2/conv <- loss2/ave_pool
I0907 14:20:02.579272 96963 net.cpp:433] loss2/conv -> loss2/conv
I0907 14:20:02.580432 96963 net.cpp:155] Setting up loss2/conv
I0907 14:20:02.580458 96963 net.cpp:163] Top shape: 32 128 4 4 (65536)
I0907 14:20:02.580467 96963 layer_factory.hpp:76] Creating layer loss2/relu_conv
I0907 14:20:02.580474 96963 net.cpp:110] Creating Layer loss2/relu_conv
I0907 14:20:02.580478 96963 net.cpp:477] loss2/relu_conv <- loss2/conv
I0907 14:20:02.580484 96963 net.cpp:419] loss2/relu_conv -> loss2/conv (in-place)
I0907 14:20:02.580492 96963 net.cpp:155] Setting up loss2/relu_conv
I0907 14:20:02.580495 96963 net.cpp:163] Top shape: 32 128 4 4 (65536)
I0907 14:20:02.580498 96963 layer_factory.hpp:76] Creating layer loss2/fc
I0907 14:20:02.580507 96963 net.cpp:110] Creating Layer loss2/fc
I0907 14:20:02.580509 96963 net.cpp:477] loss2/fc <- loss2/conv
I0907 14:20:02.580518 96963 net.cpp:433] loss2/fc -> loss2/fc
I0907 14:20:02.599365 96963 net.cpp:155] Setting up loss2/fc
I0907 14:20:02.599392 96963 net.cpp:163] Top shape: 32 1024 (32768)
I0907 14:20:02.599401 96963 layer_factory.hpp:76] Creating layer loss2/relu_fc
I0907 14:20:02.599408 96963 net.cpp:110] Creating Layer loss2/relu_fc
I0907 14:20:02.599413 96963 net.cpp:477] loss2/relu_fc <- loss2/fc
I0907 14:20:02.599422 96963 net.cpp:419] loss2/relu_fc -> loss2/fc (in-place)
I0907 14:20:02.599429 96963 net.cpp:155] Setting up loss2/relu_fc
I0907 14:20:02.599434 96963 net.cpp:163] Top shape: 32 1024 (32768)
I0907 14:20:02.599441 96963 layer_factory.hpp:76] Creating layer loss2/drop_fc
I0907 14:20:02.599447 96963 net.cpp:110] Creating Layer loss2/drop_fc
I0907 14:20:02.599449 96963 net.cpp:477] loss2/drop_fc <- loss2/fc
I0907 14:20:02.599454 96963 net.cpp:419] loss2/drop_fc -> loss2/fc (in-place)
I0907 14:20:02.599462 96963 net.cpp:155] Setting up loss2/drop_fc
I0907 14:20:02.599467 96963 net.cpp:163] Top shape: 32 1024 (32768)
I0907 14:20:02.599470 96963 layer_factory.hpp:76] Creating layer loss2/classifier_cub
I0907 14:20:02.599478 96963 net.cpp:110] Creating Layer loss2/classifier_cub
I0907 14:20:02.599480 96963 net.cpp:477] loss2/classifier_cub <- loss2/fc
I0907 14:20:02.599488 96963 net.cpp:433] loss2/classifier_cub -> loss2/classifier
I0907 14:20:02.607250 96963 net.cpp:155] Setting up loss2/classifier_cub
I0907 14:20:02.607277 96963 net.cpp:163] Top shape: 32 200 (6400)
I0907 14:20:02.607286 96963 layer_factory.hpp:76] Creating layer loss2/loss
I0907 14:20:02.607293 96963 net.cpp:110] Creating Layer loss2/loss
I0907 14:20:02.607297 96963 net.cpp:477] loss2/loss <- loss2/classifier
I0907 14:20:02.607303 96963 net.cpp:477] loss2/loss <- label_data_1_split_1
I0907 14:20:02.607308 96963 net.cpp:433] loss2/loss -> loss2/loss1
I0907 14:20:02.607317 96963 layer_factory.hpp:76] Creating layer loss2/loss
I0907 14:20:02.607383 96963 net.cpp:155] Setting up loss2/loss
I0907 14:20:02.607389 96963 net.cpp:163] Top shape: (1)
I0907 14:20:02.607393 96963 net.cpp:168]     with loss weight 0.3
I0907 14:20:02.607403 96963 layer_factory.hpp:76] Creating layer inception_4e/1x1
I0907 14:20:02.607410 96963 net.cpp:110] Creating Layer inception_4e/1x1
I0907 14:20:02.607414 96963 net.cpp:477] inception_4e/1x1 <- inception_4d/output_inception_4d/output_0_split_1
I0907 14:20:02.607424 96963 net.cpp:433] inception_4e/1x1 -> inception_4e/1x1
I0907 14:20:02.608453 96963 net.cpp:155] Setting up inception_4e/1x1
I0907 14:20:02.608477 96963 net.cpp:163] Top shape: 32 256 14 14 (1605632)
I0907 14:20:02.608499 96963 layer_factory.hpp:76] Creating layer inception_4e/relu_1x1
I0907 14:20:02.608505 96963 net.cpp:110] Creating Layer inception_4e/relu_1x1
I0907 14:20:02.608510 96963 net.cpp:477] inception_4e/relu_1x1 <- inception_4e/1x1
I0907 14:20:02.608515 96963 net.cpp:419] inception_4e/relu_1x1 -> inception_4e/1x1 (in-place)
I0907 14:20:02.608521 96963 net.cpp:155] Setting up inception_4e/relu_1x1
I0907 14:20:02.608526 96963 net.cpp:163] Top shape: 32 256 14 14 (1605632)
I0907 14:20:02.608530 96963 layer_factory.hpp:76] Creating layer inception_4e/3x3_reduce
I0907 14:20:02.608536 96963 net.cpp:110] Creating Layer inception_4e/3x3_reduce
I0907 14:20:02.608539 96963 net.cpp:477] inception_4e/3x3_reduce <- inception_4d/output_inception_4d/output_0_split_2
I0907 14:20:02.608548 96963 net.cpp:433] inception_4e/3x3_reduce -> inception_4e/3x3_reduce
I0907 14:20:02.609856 96963 net.cpp:155] Setting up inception_4e/3x3_reduce
I0907 14:20:02.609882 96963 net.cpp:163] Top shape: 32 160 14 14 (1003520)
I0907 14:20:02.609891 96963 layer_factory.hpp:76] Creating layer inception_4e/relu_3x3_reduce
I0907 14:20:02.609899 96963 net.cpp:110] Creating Layer inception_4e/relu_3x3_reduce
I0907 14:20:02.609902 96963 net.cpp:477] inception_4e/relu_3x3_reduce <- inception_4e/3x3_reduce
I0907 14:20:02.609910 96963 net.cpp:419] inception_4e/relu_3x3_reduce -> inception_4e/3x3_reduce (in-place)
I0907 14:20:02.609917 96963 net.cpp:155] Setting up inception_4e/relu_3x3_reduce
I0907 14:20:02.609922 96963 net.cpp:163] Top shape: 32 160 14 14 (1003520)
I0907 14:20:02.609925 96963 layer_factory.hpp:76] Creating layer inception_4e/3x3
I0907 14:20:02.609932 96963 net.cpp:110] Creating Layer inception_4e/3x3
I0907 14:20:02.609936 96963 net.cpp:477] inception_4e/3x3 <- inception_4e/3x3_reduce
I0907 14:20:02.609941 96963 net.cpp:433] inception_4e/3x3 -> inception_4e/3x3
I0907 14:20:02.614251 96963 net.cpp:155] Setting up inception_4e/3x3
I0907 14:20:02.614265 96963 net.cpp:163] Top shape: 32 320 14 14 (2007040)
I0907 14:20:02.614286 96963 layer_factory.hpp:76] Creating layer inception_4e/relu_3x3
I0907 14:20:02.614294 96963 net.cpp:110] Creating Layer inception_4e/relu_3x3
I0907 14:20:02.614297 96963 net.cpp:477] inception_4e/relu_3x3 <- inception_4e/3x3
I0907 14:20:02.614303 96963 net.cpp:419] inception_4e/relu_3x3 -> inception_4e/3x3 (in-place)
I0907 14:20:02.614310 96963 net.cpp:155] Setting up inception_4e/relu_3x3
I0907 14:20:02.614315 96963 net.cpp:163] Top shape: 32 320 14 14 (2007040)
I0907 14:20:02.614318 96963 layer_factory.hpp:76] Creating layer inception_4e/5x5_reduce
I0907 14:20:02.614326 96963 net.cpp:110] Creating Layer inception_4e/5x5_reduce
I0907 14:20:02.614328 96963 net.cpp:477] inception_4e/5x5_reduce <- inception_4d/output_inception_4d/output_0_split_3
I0907 14:20:02.614338 96963 net.cpp:433] inception_4e/5x5_reduce -> inception_4e/5x5_reduce
I0907 14:20:02.614524 96963 net.cpp:155] Setting up inception_4e/5x5_reduce
I0907 14:20:02.614536 96963 net.cpp:163] Top shape: 32 32 14 14 (200704)
I0907 14:20:02.614542 96963 layer_factory.hpp:76] Creating layer inception_4e/relu_5x5_reduce
I0907 14:20:02.614547 96963 net.cpp:110] Creating Layer inception_4e/relu_5x5_reduce
I0907 14:20:02.614552 96963 net.cpp:477] inception_4e/relu_5x5_reduce <- inception_4e/5x5_reduce
I0907 14:20:02.614557 96963 net.cpp:419] inception_4e/relu_5x5_reduce -> inception_4e/5x5_reduce (in-place)
I0907 14:20:02.614562 96963 net.cpp:155] Setting up inception_4e/relu_5x5_reduce
I0907 14:20:02.614567 96963 net.cpp:163] Top shape: 32 32 14 14 (200704)
I0907 14:20:02.614570 96963 layer_factory.hpp:76] Creating layer inception_4e/5x5
I0907 14:20:02.614593 96963 net.cpp:110] Creating Layer inception_4e/5x5
I0907 14:20:02.614598 96963 net.cpp:477] inception_4e/5x5 <- inception_4e/5x5_reduce
I0907 14:20:02.614606 96963 net.cpp:433] inception_4e/5x5 -> inception_4e/5x5
I0907 14:20:02.615396 96963 net.cpp:155] Setting up inception_4e/5x5
I0907 14:20:02.615406 96963 net.cpp:163] Top shape: 32 128 14 14 (802816)
I0907 14:20:02.615438 96963 layer_factory.hpp:76] Creating layer inception_4e/relu_5x5
I0907 14:20:02.615445 96963 net.cpp:110] Creating Layer inception_4e/relu_5x5
I0907 14:20:02.615449 96963 net.cpp:477] inception_4e/relu_5x5 <- inception_4e/5x5
I0907 14:20:02.615454 96963 net.cpp:419] inception_4e/relu_5x5 -> inception_4e/5x5 (in-place)
I0907 14:20:02.615460 96963 net.cpp:155] Setting up inception_4e/relu_5x5
I0907 14:20:02.615465 96963 net.cpp:163] Top shape: 32 128 14 14 (802816)
I0907 14:20:02.615468 96963 layer_factory.hpp:76] Creating layer inception_4e/pool
I0907 14:20:02.615474 96963 net.cpp:110] Creating Layer inception_4e/pool
I0907 14:20:02.615478 96963 net.cpp:477] inception_4e/pool <- inception_4d/output_inception_4d/output_0_split_4
I0907 14:20:02.615483 96963 net.cpp:433] inception_4e/pool -> inception_4e/pool
I0907 14:20:02.615491 96963 net.cpp:155] Setting up inception_4e/pool
I0907 14:20:02.615496 96963 net.cpp:163] Top shape: 32 528 14 14 (3311616)
I0907 14:20:02.615499 96963 layer_factory.hpp:76] Creating layer inception_4e/pool_proj
I0907 14:20:02.615509 96963 net.cpp:110] Creating Layer inception_4e/pool_proj
I0907 14:20:02.615514 96963 net.cpp:477] inception_4e/pool_proj <- inception_4e/pool
I0907 14:20:02.615521 96963 net.cpp:433] inception_4e/pool_proj -> inception_4e/pool_proj
I0907 14:20:02.616077 96963 net.cpp:155] Setting up inception_4e/pool_proj
I0907 14:20:02.616088 96963 net.cpp:163] Top shape: 32 128 14 14 (802816)
I0907 14:20:02.616107 96963 layer_factory.hpp:76] Creating layer inception_4e/relu_pool_proj
I0907 14:20:02.616113 96963 net.cpp:110] Creating Layer inception_4e/relu_pool_proj
I0907 14:20:02.616117 96963 net.cpp:477] inception_4e/relu_pool_proj <- inception_4e/pool_proj
I0907 14:20:02.616123 96963 net.cpp:419] inception_4e/relu_pool_proj -> inception_4e/pool_proj (in-place)
I0907 14:20:02.616129 96963 net.cpp:155] Setting up inception_4e/relu_pool_proj
I0907 14:20:02.616133 96963 net.cpp:163] Top shape: 32 128 14 14 (802816)
I0907 14:20:02.616137 96963 layer_factory.hpp:76] Creating layer inception_4e/output
I0907 14:20:02.616145 96963 net.cpp:110] Creating Layer inception_4e/output
I0907 14:20:02.616149 96963 net.cpp:477] inception_4e/output <- inception_4e/1x1
I0907 14:20:02.616153 96963 net.cpp:477] inception_4e/output <- inception_4e/3x3
I0907 14:20:02.616158 96963 net.cpp:477] inception_4e/output <- inception_4e/5x5
I0907 14:20:02.616161 96963 net.cpp:477] inception_4e/output <- inception_4e/pool_proj
I0907 14:20:02.616166 96963 net.cpp:433] inception_4e/output -> inception_4e/output
I0907 14:20:02.616173 96963 net.cpp:155] Setting up inception_4e/output
I0907 14:20:02.616178 96963 net.cpp:163] Top shape: 32 832 14 14 (5218304)
I0907 14:20:02.616181 96963 layer_factory.hpp:76] Creating layer pool4/3x3_s2
I0907 14:20:02.616188 96963 net.cpp:110] Creating Layer pool4/3x3_s2
I0907 14:20:02.616190 96963 net.cpp:477] pool4/3x3_s2 <- inception_4e/output
I0907 14:20:02.616195 96963 net.cpp:433] pool4/3x3_s2 -> pool4/3x3_s2
I0907 14:20:02.616204 96963 net.cpp:155] Setting up pool4/3x3_s2
I0907 14:20:02.616207 96963 net.cpp:163] Top shape: 32 832 7 7 (1304576)
I0907 14:20:02.616210 96963 layer_factory.hpp:76] Creating layer pool4/3x3_s2_pool4/3x3_s2_0_split
I0907 14:20:02.616216 96963 net.cpp:110] Creating Layer pool4/3x3_s2_pool4/3x3_s2_0_split
I0907 14:20:02.616220 96963 net.cpp:477] pool4/3x3_s2_pool4/3x3_s2_0_split <- pool4/3x3_s2
I0907 14:20:02.616230 96963 net.cpp:433] pool4/3x3_s2_pool4/3x3_s2_0_split -> pool4/3x3_s2_pool4/3x3_s2_0_split_0
I0907 14:20:02.616236 96963 net.cpp:433] pool4/3x3_s2_pool4/3x3_s2_0_split -> pool4/3x3_s2_pool4/3x3_s2_0_split_1
I0907 14:20:02.616242 96963 net.cpp:433] pool4/3x3_s2_pool4/3x3_s2_0_split -> pool4/3x3_s2_pool4/3x3_s2_0_split_2
I0907 14:20:02.616248 96963 net.cpp:433] pool4/3x3_s2_pool4/3x3_s2_0_split -> pool4/3x3_s2_pool4/3x3_s2_0_split_3
I0907 14:20:02.616255 96963 net.cpp:155] Setting up pool4/3x3_s2_pool4/3x3_s2_0_split
I0907 14:20:02.616260 96963 net.cpp:163] Top shape: 32 832 7 7 (1304576)
I0907 14:20:02.616274 96963 net.cpp:163] Top shape: 32 832 7 7 (1304576)
I0907 14:20:02.616278 96963 net.cpp:163] Top shape: 32 832 7 7 (1304576)
I0907 14:20:02.616282 96963 net.cpp:163] Top shape: 32 832 7 7 (1304576)
I0907 14:20:02.616286 96963 layer_factory.hpp:76] Creating layer inception_5a/1x1
I0907 14:20:02.616292 96963 net.cpp:110] Creating Layer inception_5a/1x1
I0907 14:20:02.616296 96963 net.cpp:477] inception_5a/1x1 <- pool4/3x3_s2_pool4/3x3_s2_0_split_0
I0907 14:20:02.616304 96963 net.cpp:433] inception_5a/1x1 -> inception_5a/1x1
I0907 14:20:02.618511 96963 net.cpp:155] Setting up inception_5a/1x1
I0907 14:20:02.618525 96963 net.cpp:163] Top shape: 32 256 7 7 (401408)
I0907 14:20:02.618546 96963 layer_factory.hpp:76] Creating layer inception_5a/relu_1x1
I0907 14:20:02.618553 96963 net.cpp:110] Creating Layer inception_5a/relu_1x1
I0907 14:20:02.618557 96963 net.cpp:477] inception_5a/relu_1x1 <- inception_5a/1x1
I0907 14:20:02.618562 96963 net.cpp:419] inception_5a/relu_1x1 -> inception_5a/1x1 (in-place)
I0907 14:20:02.618569 96963 net.cpp:155] Setting up inception_5a/relu_1x1
I0907 14:20:02.618574 96963 net.cpp:163] Top shape: 32 256 7 7 (401408)
I0907 14:20:02.618577 96963 layer_factory.hpp:76] Creating layer inception_5a/3x3_reduce
I0907 14:20:02.618587 96963 net.cpp:110] Creating Layer inception_5a/3x3_reduce
I0907 14:20:02.618592 96963 net.cpp:477] inception_5a/3x3_reduce <- pool4/3x3_s2_pool4/3x3_s2_0_split_1
I0907 14:20:02.618597 96963 net.cpp:433] inception_5a/3x3_reduce -> inception_5a/3x3_reduce
I0907 14:20:02.620275 96963 net.cpp:155] Setting up inception_5a/3x3_reduce
I0907 14:20:02.620301 96963 net.cpp:163] Top shape: 32 160 7 7 (250880)
I0907 14:20:02.620309 96963 layer_factory.hpp:76] Creating layer inception_5a/relu_3x3_reduce
I0907 14:20:02.620316 96963 net.cpp:110] Creating Layer inception_5a/relu_3x3_reduce
I0907 14:20:02.620319 96963 net.cpp:477] inception_5a/relu_3x3_reduce <- inception_5a/3x3_reduce
I0907 14:20:02.620326 96963 net.cpp:419] inception_5a/relu_3x3_reduce -> inception_5a/3x3_reduce (in-place)
I0907 14:20:02.620332 96963 net.cpp:155] Setting up inception_5a/relu_3x3_reduce
I0907 14:20:02.620337 96963 net.cpp:163] Top shape: 32 160 7 7 (250880)
I0907 14:20:02.620339 96963 layer_factory.hpp:76] Creating layer inception_5a/3x3
I0907 14:20:02.620347 96963 net.cpp:110] Creating Layer inception_5a/3x3
I0907 14:20:02.620349 96963 net.cpp:477] inception_5a/3x3 <- inception_5a/3x3_reduce
I0907 14:20:02.620359 96963 net.cpp:433] inception_5a/3x3 -> inception_5a/3x3
I0907 14:20:02.624577 96963 net.cpp:155] Setting up inception_5a/3x3
I0907 14:20:02.624590 96963 net.cpp:163] Top shape: 32 320 7 7 (501760)
I0907 14:20:02.624610 96963 layer_factory.hpp:76] Creating layer inception_5a/relu_3x3
I0907 14:20:02.624618 96963 net.cpp:110] Creating Layer inception_5a/relu_3x3
I0907 14:20:02.624621 96963 net.cpp:477] inception_5a/relu_3x3 <- inception_5a/3x3
I0907 14:20:02.624630 96963 net.cpp:419] inception_5a/relu_3x3 -> inception_5a/3x3 (in-place)
I0907 14:20:02.624637 96963 net.cpp:155] Setting up inception_5a/relu_3x3
I0907 14:20:02.624641 96963 net.cpp:163] Top shape: 32 320 7 7 (501760)
I0907 14:20:02.624645 96963 layer_factory.hpp:76] Creating layer inception_5a/5x5_reduce
I0907 14:20:02.624652 96963 net.cpp:110] Creating Layer inception_5a/5x5_reduce
I0907 14:20:02.624655 96963 net.cpp:477] inception_5a/5x5_reduce <- pool4/3x3_s2_pool4/3x3_s2_0_split_2
I0907 14:20:02.624661 96963 net.cpp:433] inception_5a/5x5_reduce -> inception_5a/5x5_reduce
I0907 14:20:02.624922 96963 net.cpp:155] Setting up inception_5a/5x5_reduce
I0907 14:20:02.624932 96963 net.cpp:163] Top shape: 32 32 7 7 (50176)
I0907 14:20:02.624938 96963 layer_factory.hpp:76] Creating layer inception_5a/relu_5x5_reduce
I0907 14:20:02.624949 96963 net.cpp:110] Creating Layer inception_5a/relu_5x5_reduce
I0907 14:20:02.624954 96963 net.cpp:477] inception_5a/relu_5x5_reduce <- inception_5a/5x5_reduce
I0907 14:20:02.624959 96963 net.cpp:419] inception_5a/relu_5x5_reduce -> inception_5a/5x5_reduce (in-place)
I0907 14:20:02.624966 96963 net.cpp:155] Setting up inception_5a/relu_5x5_reduce
I0907 14:20:02.624984 96963 net.cpp:163] Top shape: 32 32 7 7 (50176)
I0907 14:20:02.624986 96963 layer_factory.hpp:76] Creating layer inception_5a/5x5
I0907 14:20:02.624994 96963 net.cpp:110] Creating Layer inception_5a/5x5
I0907 14:20:02.624997 96963 net.cpp:477] inception_5a/5x5 <- inception_5a/5x5_reduce
I0907 14:20:02.625004 96963 net.cpp:433] inception_5a/5x5 -> inception_5a/5x5
I0907 14:20:02.625797 96963 net.cpp:155] Setting up inception_5a/5x5
I0907 14:20:02.625808 96963 net.cpp:163] Top shape: 32 128 7 7 (200704)
I0907 14:20:02.625826 96963 layer_factory.hpp:76] Creating layer inception_5a/relu_5x5
I0907 14:20:02.625835 96963 net.cpp:110] Creating Layer inception_5a/relu_5x5
I0907 14:20:02.625840 96963 net.cpp:477] inception_5a/relu_5x5 <- inception_5a/5x5
I0907 14:20:02.625845 96963 net.cpp:419] inception_5a/relu_5x5 -> inception_5a/5x5 (in-place)
I0907 14:20:02.625851 96963 net.cpp:155] Setting up inception_5a/relu_5x5
I0907 14:20:02.625856 96963 net.cpp:163] Top shape: 32 128 7 7 (200704)
I0907 14:20:02.625859 96963 layer_factory.hpp:76] Creating layer inception_5a/pool
I0907 14:20:02.625865 96963 net.cpp:110] Creating Layer inception_5a/pool
I0907 14:20:02.625869 96963 net.cpp:477] inception_5a/pool <- pool4/3x3_s2_pool4/3x3_s2_0_split_3
I0907 14:20:02.625874 96963 net.cpp:433] inception_5a/pool -> inception_5a/pool
I0907 14:20:02.625882 96963 net.cpp:155] Setting up inception_5a/pool
I0907 14:20:02.625887 96963 net.cpp:163] Top shape: 32 832 7 7 (1304576)
I0907 14:20:02.625890 96963 layer_factory.hpp:76] Creating layer inception_5a/pool_proj
I0907 14:20:02.625900 96963 net.cpp:110] Creating Layer inception_5a/pool_proj
I0907 14:20:02.625903 96963 net.cpp:477] inception_5a/pool_proj <- inception_5a/pool
I0907 14:20:02.625910 96963 net.cpp:433] inception_5a/pool_proj -> inception_5a/pool_proj
I0907 14:20:02.627362 96963 net.cpp:155] Setting up inception_5a/pool_proj
I0907 14:20:02.627374 96963 net.cpp:163] Top shape: 32 128 7 7 (200704)
I0907 14:20:02.627395 96963 layer_factory.hpp:76] Creating layer inception_5a/relu_pool_proj
I0907 14:20:02.627404 96963 net.cpp:110] Creating Layer inception_5a/relu_pool_proj
I0907 14:20:02.627409 96963 net.cpp:477] inception_5a/relu_pool_proj <- inception_5a/pool_proj
I0907 14:20:02.627414 96963 net.cpp:419] inception_5a/relu_pool_proj -> inception_5a/pool_proj (in-place)
I0907 14:20:02.627421 96963 net.cpp:155] Setting up inception_5a/relu_pool_proj
I0907 14:20:02.627426 96963 net.cpp:163] Top shape: 32 128 7 7 (200704)
I0907 14:20:02.627429 96963 layer_factory.hpp:76] Creating layer inception_5a/output
I0907 14:20:02.627435 96963 net.cpp:110] Creating Layer inception_5a/output
I0907 14:20:02.627439 96963 net.cpp:477] inception_5a/output <- inception_5a/1x1
I0907 14:20:02.627442 96963 net.cpp:477] inception_5a/output <- inception_5a/3x3
I0907 14:20:02.627446 96963 net.cpp:477] inception_5a/output <- inception_5a/5x5
I0907 14:20:02.627450 96963 net.cpp:477] inception_5a/output <- inception_5a/pool_proj
I0907 14:20:02.627455 96963 net.cpp:433] inception_5a/output -> inception_5a/output
I0907 14:20:02.627463 96963 net.cpp:155] Setting up inception_5a/output
I0907 14:20:02.627467 96963 net.cpp:163] Top shape: 32 832 7 7 (1304576)
I0907 14:20:02.627471 96963 layer_factory.hpp:76] Creating layer inception_5a/output_inception_5a/output_0_split
I0907 14:20:02.627477 96963 net.cpp:110] Creating Layer inception_5a/output_inception_5a/output_0_split
I0907 14:20:02.627480 96963 net.cpp:477] inception_5a/output_inception_5a/output_0_split <- inception_5a/output
I0907 14:20:02.627485 96963 net.cpp:433] inception_5a/output_inception_5a/output_0_split -> inception_5a/output_inception_5a/output_0_split_0
I0907 14:20:02.627496 96963 net.cpp:433] inception_5a/output_inception_5a/output_0_split -> inception_5a/output_inception_5a/output_0_split_1
I0907 14:20:02.627502 96963 net.cpp:433] inception_5a/output_inception_5a/output_0_split -> inception_5a/output_inception_5a/output_0_split_2
I0907 14:20:02.627509 96963 net.cpp:433] inception_5a/output_inception_5a/output_0_split -> inception_5a/output_inception_5a/output_0_split_3
I0907 14:20:02.627528 96963 net.cpp:155] Setting up inception_5a/output_inception_5a/output_0_split
I0907 14:20:02.627533 96963 net.cpp:163] Top shape: 32 832 7 7 (1304576)
I0907 14:20:02.627537 96963 net.cpp:163] Top shape: 32 832 7 7 (1304576)
I0907 14:20:02.627542 96963 net.cpp:163] Top shape: 32 832 7 7 (1304576)
I0907 14:20:02.627544 96963 net.cpp:163] Top shape: 32 832 7 7 (1304576)
I0907 14:20:02.627548 96963 layer_factory.hpp:76] Creating layer inception_5b/1x1
I0907 14:20:02.627555 96963 net.cpp:110] Creating Layer inception_5b/1x1
I0907 14:20:02.627558 96963 net.cpp:477] inception_5b/1x1 <- inception_5a/output_inception_5a/output_0_split_0
I0907 14:20:02.627564 96963 net.cpp:433] inception_5b/1x1 -> inception_5b/1x1
I0907 14:20:02.630714 96963 net.cpp:155] Setting up inception_5b/1x1
I0907 14:20:02.630741 96963 net.cpp:163] Top shape: 32 384 7 7 (602112)
I0907 14:20:02.630750 96963 layer_factory.hpp:76] Creating layer inception_5b/relu_1x1
I0907 14:20:02.630758 96963 net.cpp:110] Creating Layer inception_5b/relu_1x1
I0907 14:20:02.630761 96963 net.cpp:477] inception_5b/relu_1x1 <- inception_5b/1x1
I0907 14:20:02.630767 96963 net.cpp:419] inception_5b/relu_1x1 -> inception_5b/1x1 (in-place)
I0907 14:20:02.630774 96963 net.cpp:155] Setting up inception_5b/relu_1x1
I0907 14:20:02.630779 96963 net.cpp:163] Top shape: 32 384 7 7 (602112)
I0907 14:20:02.630782 96963 layer_factory.hpp:76] Creating layer inception_5b/3x3_reduce
I0907 14:20:02.630792 96963 net.cpp:110] Creating Layer inception_5b/3x3_reduce
I0907 14:20:02.630796 96963 net.cpp:477] inception_5b/3x3_reduce <- inception_5a/output_inception_5a/output_0_split_1
I0907 14:20:02.630801 96963 net.cpp:433] inception_5b/3x3_reduce -> inception_5b/3x3_reduce
I0907 14:20:02.632622 96963 net.cpp:155] Setting up inception_5b/3x3_reduce
I0907 14:20:02.632635 96963 net.cpp:163] Top shape: 32 192 7 7 (301056)
I0907 14:20:02.632655 96963 layer_factory.hpp:76] Creating layer inception_5b/relu_3x3_reduce
I0907 14:20:02.632663 96963 net.cpp:110] Creating Layer inception_5b/relu_3x3_reduce
I0907 14:20:02.632668 96963 net.cpp:477] inception_5b/relu_3x3_reduce <- inception_5b/3x3_reduce
I0907 14:20:02.632673 96963 net.cpp:419] inception_5b/relu_3x3_reduce -> inception_5b/3x3_reduce (in-place)
I0907 14:20:02.632679 96963 net.cpp:155] Setting up inception_5b/relu_3x3_reduce
I0907 14:20:02.632684 96963 net.cpp:163] Top shape: 32 192 7 7 (301056)
I0907 14:20:02.632688 96963 layer_factory.hpp:76] Creating layer inception_5b/3x3
I0907 14:20:02.632707 96963 net.cpp:110] Creating Layer inception_5b/3x3
I0907 14:20:02.632711 96963 net.cpp:477] inception_5b/3x3 <- inception_5b/3x3_reduce
I0907 14:20:02.632719 96963 net.cpp:433] inception_5b/3x3 -> inception_5b/3x3
I0907 14:20:02.638633 96963 net.cpp:155] Setting up inception_5b/3x3
I0907 14:20:02.638663 96963 net.cpp:163] Top shape: 32 384 7 7 (602112)
I0907 14:20:02.638670 96963 layer_factory.hpp:76] Creating layer inception_5b/relu_3x3
I0907 14:20:02.638677 96963 net.cpp:110] Creating Layer inception_5b/relu_3x3
I0907 14:20:02.638681 96963 net.cpp:477] inception_5b/relu_3x3 <- inception_5b/3x3
I0907 14:20:02.638687 96963 net.cpp:419] inception_5b/relu_3x3 -> inception_5b/3x3 (in-place)
I0907 14:20:02.638695 96963 net.cpp:155] Setting up inception_5b/relu_3x3
I0907 14:20:02.638698 96963 net.cpp:163] Top shape: 32 384 7 7 (602112)
I0907 14:20:02.638702 96963 layer_factory.hpp:76] Creating layer inception_5b/5x5_reduce
I0907 14:20:02.638711 96963 net.cpp:110] Creating Layer inception_5b/5x5_reduce
I0907 14:20:02.638715 96963 net.cpp:477] inception_5b/5x5_reduce <- inception_5a/output_inception_5a/output_0_split_2
I0907 14:20:02.638721 96963 net.cpp:433] inception_5b/5x5_reduce -> inception_5b/5x5_reduce
I0907 14:20:02.639600 96963 net.cpp:155] Setting up inception_5b/5x5_reduce
I0907 14:20:02.639627 96963 net.cpp:163] Top shape: 32 48 7 7 (75264)
I0907 14:20:02.639636 96963 layer_factory.hpp:76] Creating layer inception_5b/relu_5x5_reduce
I0907 14:20:02.639653 96963 net.cpp:110] Creating Layer inception_5b/relu_5x5_reduce
I0907 14:20:02.639658 96963 net.cpp:477] inception_5b/relu_5x5_reduce <- inception_5b/5x5_reduce
I0907 14:20:02.639667 96963 net.cpp:419] inception_5b/relu_5x5_reduce -> inception_5b/5x5_reduce (in-place)
I0907 14:20:02.639679 96963 net.cpp:155] Setting up inception_5b/relu_5x5_reduce
I0907 14:20:02.639684 96963 net.cpp:163] Top shape: 32 48 7 7 (75264)
I0907 14:20:02.639688 96963 layer_factory.hpp:76] Creating layer inception_5b/5x5
I0907 14:20:02.639695 96963 net.cpp:110] Creating Layer inception_5b/5x5
I0907 14:20:02.639699 96963 net.cpp:477] inception_5b/5x5 <- inception_5b/5x5_reduce
I0907 14:20:02.639708 96963 net.cpp:433] inception_5b/5x5 -> inception_5b/5x5
I0907 14:20:02.640864 96963 net.cpp:155] Setting up inception_5b/5x5
I0907 14:20:02.640874 96963 net.cpp:163] Top shape: 32 128 7 7 (200704)
I0907 14:20:02.640894 96963 layer_factory.hpp:76] Creating layer inception_5b/relu_5x5
I0907 14:20:02.640900 96963 net.cpp:110] Creating Layer inception_5b/relu_5x5
I0907 14:20:02.640904 96963 net.cpp:477] inception_5b/relu_5x5 <- inception_5b/5x5
I0907 14:20:02.640909 96963 net.cpp:419] inception_5b/relu_5x5 -> inception_5b/5x5 (in-place)
I0907 14:20:02.640915 96963 net.cpp:155] Setting up inception_5b/relu_5x5
I0907 14:20:02.640919 96963 net.cpp:163] Top shape: 32 128 7 7 (200704)
I0907 14:20:02.640923 96963 layer_factory.hpp:76] Creating layer inception_5b/pool
I0907 14:20:02.640928 96963 net.cpp:110] Creating Layer inception_5b/pool
I0907 14:20:02.640933 96963 net.cpp:477] inception_5b/pool <- inception_5a/output_inception_5a/output_0_split_3
I0907 14:20:02.640938 96963 net.cpp:433] inception_5b/pool -> inception_5b/pool
I0907 14:20:02.640945 96963 net.cpp:155] Setting up inception_5b/pool
I0907 14:20:02.640950 96963 net.cpp:163] Top shape: 32 832 7 7 (1304576)
I0907 14:20:02.640954 96963 layer_factory.hpp:76] Creating layer inception_5b/pool_proj
I0907 14:20:02.640962 96963 net.cpp:110] Creating Layer inception_5b/pool_proj
I0907 14:20:02.640966 96963 net.cpp:477] inception_5b/pool_proj <- inception_5b/pool
I0907 14:20:02.640974 96963 net.cpp:433] inception_5b/pool_proj -> inception_5b/pool_proj
I0907 14:20:02.642309 96963 net.cpp:155] Setting up inception_5b/pool_proj
I0907 14:20:02.642323 96963 net.cpp:163] Top shape: 32 128 7 7 (200704)
I0907 14:20:02.642343 96963 layer_factory.hpp:76] Creating layer inception_5b/relu_pool_proj
I0907 14:20:02.642349 96963 net.cpp:110] Creating Layer inception_5b/relu_pool_proj
I0907 14:20:02.642354 96963 net.cpp:477] inception_5b/relu_pool_proj <- inception_5b/pool_proj
I0907 14:20:02.642359 96963 net.cpp:419] inception_5b/relu_pool_proj -> inception_5b/pool_proj (in-place)
I0907 14:20:02.642365 96963 net.cpp:155] Setting up inception_5b/relu_pool_proj
I0907 14:20:02.642370 96963 net.cpp:163] Top shape: 32 128 7 7 (200704)
I0907 14:20:02.642374 96963 layer_factory.hpp:76] Creating layer inception_5b/output
I0907 14:20:02.642379 96963 net.cpp:110] Creating Layer inception_5b/output
I0907 14:20:02.642382 96963 net.cpp:477] inception_5b/output <- inception_5b/1x1
I0907 14:20:02.642387 96963 net.cpp:477] inception_5b/output <- inception_5b/3x3
I0907 14:20:02.642391 96963 net.cpp:477] inception_5b/output <- inception_5b/5x5
I0907 14:20:02.642395 96963 net.cpp:477] inception_5b/output <- inception_5b/pool_proj
I0907 14:20:02.642400 96963 net.cpp:433] inception_5b/output -> inception_5b/output
I0907 14:20:02.642407 96963 net.cpp:155] Setting up inception_5b/output
I0907 14:20:02.642411 96963 net.cpp:163] Top shape: 32 1024 7 7 (1605632)
I0907 14:20:02.642416 96963 layer_factory.hpp:76] Creating layer pool5/7x7_s1
I0907 14:20:02.642421 96963 net.cpp:110] Creating Layer pool5/7x7_s1
I0907 14:20:02.642424 96963 net.cpp:477] pool5/7x7_s1 <- inception_5b/output
I0907 14:20:02.642441 96963 net.cpp:433] pool5/7x7_s1 -> pool5/7x7_s1
I0907 14:20:02.642448 96963 net.cpp:155] Setting up pool5/7x7_s1
I0907 14:20:02.642453 96963 net.cpp:163] Top shape: 32 1024 1 1 (32768)
I0907 14:20:02.642457 96963 layer_factory.hpp:76] Creating layer pool5/drop_7x7_s1
I0907 14:20:02.642473 96963 net.cpp:110] Creating Layer pool5/drop_7x7_s1
I0907 14:20:02.642477 96963 net.cpp:477] pool5/drop_7x7_s1 <- pool5/7x7_s1
I0907 14:20:02.642482 96963 net.cpp:419] pool5/drop_7x7_s1 -> pool5/7x7_s1 (in-place)
I0907 14:20:02.642489 96963 net.cpp:155] Setting up pool5/drop_7x7_s1
I0907 14:20:02.642494 96963 net.cpp:163] Top shape: 32 1024 1 1 (32768)
I0907 14:20:02.642498 96963 layer_factory.hpp:76] Creating layer loss3/classifier_cub
I0907 14:20:02.642505 96963 net.cpp:110] Creating Layer loss3/classifier_cub
I0907 14:20:02.642508 96963 net.cpp:477] loss3/classifier_cub <- pool5/7x7_s1
I0907 14:20:02.642516 96963 net.cpp:433] loss3/classifier_cub -> loss3/classifier
I0907 14:20:02.649513 96963 net.cpp:155] Setting up loss3/classifier_cub
I0907 14:20:02.649528 96963 net.cpp:163] Top shape: 32 200 (6400)
I0907 14:20:02.649549 96963 layer_factory.hpp:76] Creating layer loss3/loss3
I0907 14:20:02.649555 96963 net.cpp:110] Creating Layer loss3/loss3
I0907 14:20:02.649559 96963 net.cpp:477] loss3/loss3 <- loss3/classifier
I0907 14:20:02.649564 96963 net.cpp:477] loss3/loss3 <- label_data_1_split_2
I0907 14:20:02.649572 96963 net.cpp:433] loss3/loss3 -> loss3/loss3
I0907 14:20:02.649581 96963 layer_factory.hpp:76] Creating layer loss3/loss3
…
I0907 14:20:02.655639 96963 net.cpp:339] The NetState phase (1) differed from the phase (0) specified by a rule in layer data
I0907 14:20:02.656792 96963 net.cpp:50] Initializing net from parameters: 
name: "CUBNet"
state {
  phase: TEST
}
layer {
  name: "data"
  type: "ImageData"
  top: "data"
  top: "label"
  include {
    phase: TEST
  }
  transform_param {
    mirror: false
    crop_size: 224
    mean_value: 104
    mean_value: 117
    mean_value: 123
  }
  image_data_param {
    source: "data/CUB_200_2011/val_files.txt"
    batch_size: 32
    new_height: 256
    new_width: 256
  }
}
layer {
  name: "conv1/7x7_s2"
  type: "Convolution"
  bottom: "data"
  top: "conv1/7x7_s2"
  param {
    lr_mult: 1
    decay_mult: 1
  }
  param {
    lr_mult: 2
    decay_mult: 0
  }
  convolution_param {
    num_output: 64
    pad: 3
    kernel_size: 7
    stride: 2
    weight_filler {
      type: "xavier"
      std: 0.1
    }
    bias_filler {
      type: "constant"
      value: 0.2
    }
  }
}
layer {
  name: "conv1/relu_7x7"
  type: "ReLU"
  bottom: "conv1/7x7_s2"
  top: "conv1/7x7_s2"
}
layer {
  name: "pool1/3x3_s2"
  type: "Pooling"
  bottom: "conv1/7x7_s2"
  top: "pool1/3x3_s2"
  pooling_param {
    pool: MAX
    kernel_size: 3
    stride: 2
  }
}
layer {
  name: "pool1/norm1"
  type: "LRN"
  bottom: "pool1/3x3_s2"
  top: "pool1/norm1"
  lrn_param {
    local_size: 5
    alpha: 0.0001
    beta: 0.75
  }
}
layer {
  name: "conv2/3x3_reduce"
  type: "Convolution"
  bottom: "pool1/norm1"
  top: "conv2/3x3_reduce"
  param {
    lr_mult: 1
    decay_mult: 1
  }
  param {
    lr_mult: 2
    decay_mult: 0
  }
  convolution_param {
    num_output: 64
    kernel_size: 1
    weight_filler {
      type: "xavier"
      std: 0.1
    }
    bias_filler {
      type: "constant"
      value: 0.2
    }
  }
}
layer {
  name: "conv2/relu_3x3_reduce"
  type: "ReLU"
  bottom: "conv2/3x3_reduce"
  top: "conv2/3x3_reduce"
}
layer {
  name: "conv2/3x3"
  type: "Convolution"
  bottom: "conv2/3x3_reduce"
  top: "conv2/3x3"
  param {
    lr_mult: 1
    decay_mult: 1
  }
  param {
    lr_mult: 2
    decay_mult: 0
  }
  convolution_param {
    num_output: 192
    pad: 1
    kernel_size: 3
    weight_filler {
      type: "xavier"
      std: 0.03
    }
    bias_filler {
      type: "constant"
      value: 0.2
    }
  }
}
layer {
  name: "conv2/relu_3x3"
  type: "ReLU"
  bottom: "conv2/3x3"
  top: "conv2/3x3"
}
layer {
  name: "conv2/norm2"
  type: "LRN"
  bottom: "conv2/3x3"
  top: "conv2/norm2"
  lrn_param {
    local_size: 5
    alpha: 0.0001
    beta: 0.75
  }
}
layer {
  name: "pool2/3x3_s2"
  type: "Pooling"
  bottom: "conv2/norm2"
  top: "pool2/3x3_s2"
  pooling_param {
    pool: MAX
    kernel_size: 3
    stride: 2
  }
}
layer {
  name: "inception_3a/1x1"
  type: "Convolution"
  bottom: "pool2/3x3_s2"
  top: "inception_3a/1x1"
  param {
    lr_mult: 1
    decay_mult: 1
  }
  param {
    lr_mult: 2
    decay_mult: 0
  }
  convolution_param {
    num_output: 64
    kernel_size: 1
    weight_filler {
      type: "xavier"
      std: 0.03
    }
    bias_filler {
      type: "constant"
      value: 0.2
    }
  }
}
layer {
  name: "inception_3a/relu_1x1"
  type: "ReLU"
  bottom: "inception_3a/1x1"
  top: "inception_3a/1x1"
}
layer {
  name: "inception_3a/3x3_reduce"
  type: "Convolution"
  bottom: "pool2/3x3_s2"
  top: "inception_3a/3x3_reduce"
  param {
    lr_mult: 1
    decay_mult: 1
  }
  param {
    lr_mult: 2
    decay_mult: 0
  }
  convolution_param {
    num_output: 96
    kernel_size: 1
    weight_filler {
      type: "xavier"
      std: 0.09
    }
    bias_filler {
      type: "constant"
      value: 0.2
    }
  }
}
layer {
  name: "inception_3a/relu_3x3_reduce"
  type: "ReLU"
  bottom: "inception_3a/3x3_reduce"
  top: "inception_3a/3x3_reduce"
}
layer {
  name: "inception_3a/3x3"
  type: "Convolution"
  bottom: "inception_3a/3x3_reduce"
  top: "inception_3a/3x3"
  param {
    lr_mult: 1
    decay_mult: 1
  }
  param {
    lr_mult: 2
    decay_mult: 0
  }
  convolution_param {
    num_output: 128
    pad: 1
    kernel_size: 3
    weight_filler {
      type: "xavier"
      std: 0.03
    }
    bias_filler {
      type: "constant"
      value: 0.2
    }
  }
}
layer {
  name: "inception_3a/relu_3x3"
  type: "ReLU"
  bottom: "inception_3a/3x3"
  top: "inception_3a/3x3"
}
layer {
  name: "inception_3a/5x5_reduce"
  type: "Convolution"
  bottom: "pool2/3x3_s2"
  top: "inception_3a/5x5_reduce"
  param {
    lr_mult: 1
    decay_mult: 1
  }
  param {
    lr_mult: 2
    decay_mult: 0
  }
  convolution_param {
    num_output: 16
    kernel_size: 1
    weight_filler {
      type: "xavier"
      std: 0.2
    }
    bias_filler {
      type: "constant"
      value: 0.2
    }
  }
}
layer {
  name: "inception_3a/relu_5x5_reduce"
  type: "ReLU"
  bottom: "inception_3a/5x5_reduce"
  top: "inception_3a/5x5_reduce"
}
layer {
  name: "inception_3a/5x5"
  type: "Convolution"
  bottom: "inception_3a/5x5_reduce"
  top: "inception_3a/5x5"
  param {
    lr_mult: 1
    decay_mult: 1
  }
  param {
    lr_mult: 2
    decay_mult: 0
  }
  convolution_param {
    num_output: 32
    pad: 2
    kernel_size: 5
    weight_filler {
      type: "xavier"
      std: 0.03
    }
    bias_filler {
      type: "constant"
      value: 0.2
    }
  }
}
layer {
  name: "inception_3a/relu_5x5"
  type: "ReLU"
  bottom: "inception_3a/5x5"
  top: "inception_3a/5x5"
}
layer {
  name: "inception_3a/pool"
  type: "Pooling"
  bottom: "pool2/3x3_s2"
  top: "inception_3a/pool"
  pooling_param {
    pool: MAX
    kernel_size: 3
    stride: 1
    pad: 1
  }
}
layer {
  name: "inception_3a/pool_proj"
  type: "Convolution"
  bottom: "inception_3a/pool"
  top: "inception_3a/pool_proj"
  param {
    lr_mult: 1
    decay_mult: 1
  }
  param {
    lr_mult: 2
    decay_mult: 0
  }
  convolution_param {
    num_output: 32
    kernel_size: 1
    weight_filler {
      type: "xavier"
      std: 0.1
    }
    bias_filler {
      type: "constant"
      value: 0.2
    }
  }
}
layer {
  name: "inception_3a/relu_pool_proj"
  type: "ReLU"
  bottom: "inception_3a/pool_proj"
  top: "inception_3a/pool_proj"
}
layer {
  name: "inception_3a/output"
  type: "Concat"
  bottom: "inception_3a/1x1"
  bottom: "inception_3a/3x3"
  bottom: "inception_3a/5x5"
  bottom: "inception_3a/pool_proj"
  top: "inception_3a/output"
}
layer {
  name: "inception_3b/1x1"
  type: "Convolution"
  bottom: "inception_3a/output"
  top: "inception_3b/1x1"
  param {
    lr_mult: 1
    decay_mult: 1
  }
  param {
    lr_mult: 2
    decay_mult: 0
  }
  convolution_param {
    num_output: 128
    kernel_size: 1
    weight_filler {
      type: "xavier"
      std: 0.03
    }
    bias_filler {
      type: "constant"
      value: 0.2
    }
  }
}
layer {
  name: "inception_3b/relu_1x1"
  type: "ReLU"
  bottom: "inception_3b/1x1"
  top: "inception_3b/1x1"
}
layer {
  name: "inception_3b/3x3_reduce"
  type: "Convolution"
  bottom: "inception_3a/output"
  top: "inception_3b/3x3_reduce"
  param {
    lr_mult: 1
    decay_mult: 1
  }
  param {
    lr_mult: 2
    decay_mult: 0
  }
  convolution_param {
    num_output: 128
    kernel_size: 1
    weight_filler {
      type: "xavier"
      std: 0.09
    }
    bias_filler {
      type: "constant"
      value: 0.2
    }
  }
}
layer {
  name: "inception_3b/relu_3x3_reduce"
  type: "ReLU"
  bottom: "inception_3b/3x3_reduce"
  top: "inception_3b/3x3_reduce"
}
layer {
  name: "inception_3b/3x3"
  type: "Convolution"
  bottom: "inception_3b/3x3_reduce"
  top: "inception_3b/3x3"
  param {
    lr_mult: 1
    decay_mult: 1
  }
  param {
    lr_mult: 2
    decay_mult: 0
  }
  convolution_param {
    num_output: 192
    pad: 1
    kernel_size: 3
    weight_filler {
      type: "xavier"
      std: 0.03
    }
    bias_filler {
      type: "constant"
      value: 0.2
    }
  }
}
layer {
  name: "inception_3b/relu_3x3"
  type: "ReLU"
  bottom: "inception_3b/3x3"
  top: "inception_3b/3x3"
}
layer {
  name: "inception_3b/5x5_reduce"
  type: "Convolution"
  bottom: "inception_3a/output"
  top: "inception_3b/5x5_reduce"
  param {
    lr_mult: 1
    decay_mult: 1
  }
  param {
    lr_mult: 2
    decay_mult: 0
  }
  convolution_param {
    num_output: 32
    kernel_size: 1
    weight_filler {
      type: "xavier"
      std: 0.2
    }
    bias_filler {
      type: "constant"
      value: 0.2
    }
  }
}
layer {
  name: "inception_3b/relu_5x5_reduce"
  type: "ReLU"
  bottom: "inception_3b/5x5_reduce"
  top: "inception_3b/5x5_reduce"
}
layer {
  name: "inception_3b/5x5"
  type: "Convolution"
  bottom: "inception_3b/5x5_reduce"
  top: "inception_3b/5x5"
  param {
    lr_mult: 1
    decay_mult: 1
  }
  param {
    lr_mult: 2
    decay_mult: 0
  }
  convolution_param {
    num_output: 96
    pad: 2
    kernel_size: 5
    weight_filler {
      type: "xavier"
      std: 0.03
    }
    bias_filler {
      type: "constant"
      value: 0.2
    }
  }
}
layer {
  name: "inception_3b/relu_5x5"
  type: "ReLU"
  bottom: "inception_3b/5x5"
  top: "inception_3b/5x5"
}
layer {
  name: "inception_3b/pool"
  type: "Pooling"
  bottom: "inception_3a/output"
  top: "inception_3b/pool"
  pooling_param {
    pool: MAX
    kernel_size: 3
    stride: 1
    pad: 1
  }
}
layer {
  name: "inception_3b/pool_proj"
  type: "Convolution"
  bottom: "inception_3b/pool"
  top: "inception_3b/pool_proj"
  param {
    lr_mult: 1
    decay_mult: 1
  }
  param {
    lr_mult: 2
    decay_mult: 0
  }
  convolution_param {
    num_output: 64
    kernel_size: 1
    weight_filler {
      type: "xavier"
      std: 0.1
    }
    bias_filler {
      type: "constant"
      value: 0.2
    }
  }
}
layer {
  name: "inception_3b/relu_pool_proj"
  type: "ReLU"
  bottom: "inception_3b/pool_proj"
  top: "inception_3b/pool_proj"
}
layer {
  name: "inception_3b/output"
  type: "Concat"
  bottom: "inception_3b/1x1"
  bottom: "inception_3b/3x3"
  bottom: "inception_3b/5x5"
  bottom: "inception_3b/pool_proj"
  top: "inception_3b/output"
}
layer {
  name: "pool3/3x3_s2"
  type: "Pooling"
  bottom: "inception_3b/output"
  top: "pool3/3x3_s2"
  pooling_param {
    pool: MAX
    kernel_size: 3
    stride: 2
  }
}
layer {
  name: "inception_4a/1x1"
  type: "Convolution"
  bottom: "pool3/3x3_s2"
  top: "inception_4a/1x1"
  param {
    lr_mult: 1
    decay_mult: 1
  }
  param {
    lr_mult: 2
    decay_mult: 0
  }
  convolution_param {
    num_output: 192
    kernel_size: 1
    weight_filler {
      type: "xavier"
      std: 0.03
    }
    bias_filler {
      type: "constant"
      value: 0.2
    }
  }
}
layer {
  name: "inception_4a/relu_1x1"
  type: "ReLU"
  bottom: "inception_4a/1x1"
  top: "inception_4a/1x1"
}
layer {
  name: "inception_4a/3x3_reduce"
  type: "Convolution"
  bottom: "pool3/3x3_s2"
  top: "inception_4a/3x3_reduce"
  param {
    lr_mult: 1
    decay_mult: 1
  }
  param {
    lr_mult: 2
    decay_mult: 0
  }
  convolution_param {
    num_output: 96
    kernel_size: 1
    weight_filler {
      type: "xavier"
      std: 0.09
    }
    bias_filler {
      type: "constant"
      value: 0.2
    }
  }
}
layer {
  name: "inception_4a/relu_3x3_reduce"
  type: "ReLU"
  bottom: "inception_4a/3x3_reduce"
  top: "inception_4a/3x3_reduce"
}
layer {
  name: "inception_4a/3x3"
  type: "Convolution"
  bottom: "inception_4a/3x3_reduce"
  top: "inception_4a/3x3"
  param {
    lr_mult: 1
    decay_mult: 1
  }
  param {
    lr_mult: 2
    decay_mult: 0
  }
  convolution_param {
    num_output: 208
    pad: 1
    kernel_size: 3
    weight_filler {
      type: "xavier"
      std: 0.03
    }
    bias_filler {
      type: "constant"
      value: 0.2
    }
  }
}
layer {
  name: "inception_4a/relu_3x3"
  type: "ReLU"
  bottom: "inception_4a/3x3"
  top: "inception_4a/3x3"
}
layer {
  name: "inception_4a/5x5_reduce"
  type: "Convolution"
  bottom: "pool3/3x3_s2"
  top: "inception_4a/5x5_reduce"
  param {
    lr_mult: 1
    decay_mult: 1
  }
  param {
    lr_mult: 2
    decay_mult: 0
  }
  convolution_param {
    num_output: 16
    kernel_size: 1
    weight_filler {
      type: "xavier"
      std: 0.2
    }
    bias_filler {
      type: "constant"
      value: 0.2
    }
  }
}
layer {
  name: "inception_4a/relu_5x5_reduce"
  type: "ReLU"
  bottom: "inception_4a/5x5_reduce"
  top: "inception_4a/5x5_reduce"
}
layer {
  name: "inception_4a/5x5"
  type: "Convolution"
  bottom: "inception_4a/5x5_reduce"
  top: "inception_4a/5x5"
  param {
    lr_mult: 1
    decay_mult: 1
  }
  param {
    lr_mult: 2
    decay_mult: 0
  }
  convolution_param {
    num_output: 48
    pad: 2
    kernel_size: 5
    weight_filler {
      type: "xavier"
      std: 0.03
    }
    bias_filler {
      type: "constant"
      value: 0.2
    }
  }
}
layer {
  name: "inception_4a/relu_5x5"
  type: "ReLU"
  bottom: "inception_4a/5x5"
  top: "inception_4a/5x5"
}
layer {
  name: "inception_4a/pool"
  type: "Pooling"
  bottom: "pool3/3x3_s2"
  top: "inception_4a/pool"
  pooling_param {
    pool: MAX
    kernel_size: 3
    stride: 1
    pad: 1
  }
}
layer {
  name: "inception_4a/pool_proj"
  type: "Convolution"
  bottom: "inception_4a/pool"
  top: "inception_4a/pool_proj"
  param {
    lr_mult: 1
    decay_mult: 1
  }
  param {
    lr_mult: 2
    decay_mult: 0
  }
  convolution_param {
    num_output: 64
    kernel_size: 1
    weight_filler {
      type: "xavier"
      std: 0.1
    }
    bias_filler {
      type: "constant"
      value: 0.2
    }
  }
}
layer {
  name: "inception_4a/relu_pool_proj"
  type: "ReLU"
  bottom: "inception_4a/pool_proj"
  top: "inception_4a/pool_proj"
}
layer {
  name: "inception_4a/output"
  type: "Concat"
  bottom: "inception_4a/1x1"
  bottom: "inception_4a/3x3"
  bottom: "inception_4a/5x5"
  bottom: "inception_4a/pool_proj"
  top: "inception_4a/output"
}
layer {
  name: "loss1/ave_pool"
  type: "Pooling"
  bottom: "inception_4a/output"
  top: "loss1/ave_pool"
  pooling_param {
    pool: AVE
    kernel_size: 5
    stride: 3
  }
}
layer {
  name: "loss1/conv"
  type: "Convolution"
  bottom: "loss1/ave_pool"
  top: "loss1/conv"
  param {
    lr_mult: 1
    decay_mult: 1
  }
  param {
    lr_mult: 2
    decay_mult: 0
  }
  convolution_param {
    num_output: 128
    kernel_size: 1
    weight_filler {
      type: "xavier"
      std: 0.08
    }
    bias_filler {
      type: "constant"
      value: 0.2
    }
  }
}
layer {
  name: "loss1/relu_conv"
  type: "ReLU"
  bottom: "loss1/conv"
  top: "loss1/conv"
}
layer {
  name: "loss1/fc"
  type: "InnerProduct"
  bottom: "loss1/conv"
  top: "loss1/fc"
  param {
    lr_mult: 1
    decay_mult: 1
  }
  param {
    lr_mult: 2
    decay_mult: 0
  }
  inner_product_param {
    num_output: 1024
    weight_filler {
      type: "xavier"
      std: 0.02
    }
    bias_filler {
      type: "constant"
      value: 0.2
    }
  }
}
layer {
  name: "loss1/relu_fc"
  type: "ReLU"
  bottom: "loss1/fc"
  top: "loss1/fc"
}
layer {
  name: "loss1/drop_fc"
  type: "Dropout"
  bottom: "loss1/fc"
  top: "loss1/fc"
  dropout_param {
    dropout_ratio: 0.7
  }
}
layer {
  name: "loss1/classifier_cub"
  type: "InnerProduct"
  bottom: "loss1/fc"
  top: "loss1/classifier"
  param {
    lr_mult: 1
    decay_mult: 1
  }
  param {
    lr_mult: 2
    decay_mult: 0
  }
  inner_product_param {
    num_output: 200
    weight_filler {
      type: "gaussian"
      std: 1e-05
    }
    bias_filler {
      type: "constant"
      value: 0
    }
  }
}
layer {
  name: "loss1/loss"
  type: "SoftmaxWithLoss"
  bottom: "loss1/classifier"
  bottom: "label"
  top: "loss1/loss1"
  loss_weight: 0.3
}
layer {
  name: "loss1/top-1"
  type: "Accuracy"
  bottom: "loss1/classifier"
  bottom: "label"
  top: "loss1/top-1"
  include {
    phase: TEST
  }
}
layer {
  name: "loss1/top-5"
  type: "Accuracy"
  bottom: "loss1/classifier"
  bottom: "label"
  top: "loss1/top-5"
  include {
    phase: TEST
  }
  accuracy_param {
    top_k: 5
  }
}
layer {
  name: "inception_4b/1x1"
  type: "Convolution"
  bottom: "inception_4a/output"
  top: "inception_4b/1x1"
  param {
    lr_mult: 1
    decay_mult: 1
  }
  param {
    lr_mult: 2
    decay_mult: 0
  }
  convolution_param {
    num_output: 160
    kernel_size: 1
    weight_filler {
      type: "xavier"
      std: 0.03
    }
    bias_filler {
      type: "constant"
      value: 0.2
    }
  }
}
layer {
  name: "inception_4b/relu_1x1"
  type: "ReLU"
  bottom: "inception_4b/1x1"
  top: "inception_4b/1x1"
}
layer {
  name: "inception_4b/3x3_reduce"
  type: "Convolution"
  bottom: "inception_4a/output"
  top: "inception_4b/3x3_reduce"
  param {
    lr_mult: 1
    decay_mult: 1
  }
  param {
    lr_mult: 2
    decay_mult: 0
  }
  convolution_param {
    num_output: 112
    kernel_size: 1
    weight_filler {
      type: "xavier"
      std: 0.09
    }
    bias_filler {
      type: "constant"
      value: 0.2
    }
  }
}
layer {
  name: "inception_4b/relu_3x3_reduce"
  type: "ReLU"
  bottom: "inception_4b/3x3_reduce"
  top: "inception_4b/3x3_reduce"
}
layer {
  name: "inception_4b/3x3"
  type: "Convolution"
  bottom: "inception_4b/3x3_reduce"
  top: "inception_4b/3x3"
  param {
    lr_mult: 1
    decay_mult: 1
  }
  param {
    lr_mult: 2
    decay_mult: 0
  }
  convolution_param {
    num_output: 224
    pad: 1
    kernel_size: 3
    weight_filler {
      type: "xavier"
      std: 0.03
    }
    bias_filler {
      type: "constant"
      value: 0.2
    }
  }
}
layer {
  name: "inception_4b/relu_3x3"
  type: "ReLU"
  bottom: "inception_4b/3x3"
  top: "inception_4b/3x3"
}
layer {
  name: "inception_4b/5x5_reduce"
  type: "Convolution"
  bottom: "inception_4a/output"
  top: "inception_4b/5x5_reduce"
  param {
    lr_mult: 1
    decay_mult: 1
  }
  param {
    lr_mult: 2
    decay_mult: 0
  }
  convolution_param {
    num_output: 24
    kernel_size: 1
    weight_filler {
      type: "xavier"
      std: 0.2
    }
    bias_filler {
      type: "constant"
      value: 0.2
    }
  }
}
layer {
  name: "inception_4b/relu_5x5_reduce"
  type: "ReLU"
  bottom: "inception_4b/5x5_reduce"
  top: "inception_4b/5x5_reduce"
}
layer {
  name: "inception_4b/5x5"
  type: "Convolution"
  bottom: "inception_4b/5x5_reduce"
  top: "inception_4b/5x5"
  param {
    lr_mult: 1
    decay_mult: 1
  }
  param {
    lr_mult: 2
    decay_mult: 0
  }
  convolution_param {
    num_output: 64
    pad: 2
    kernel_size: 5
    weight_filler {
      type: "xavier"
      std: 0.03
    }
    bias_filler {
      type: "constant"
      value: 0.2
    }
  }
}
layer {
  name: "inception_4b/relu_5x5"
  type: "ReLU"
  bottom: "inception_4b/5x5"
  top: "inception_4b/5x5"
}
layer {
  name: "inception_4b/pool"
  type: "Pooling"
  bottom: "inception_4a/output"
  top: "inception_4b/pool"
  pooling_param {
    pool: MAX
    kernel_size: 3
    stride: 1
    pad: 1
  }
}
layer {
  name: "inception_4b/pool_proj"
  type: "Convolution"
  bottom: "inception_4b/pool"
  top: "inception_4b/pool_proj"
  param {
    lr_mult: 1
    decay_mult: 1
  }
  param {
    lr_mult: 2
    decay_mult: 0
  }
  convolution_param {
    num_output: 64
    kernel_size: 1
    weight_filler {
      type: "xavier"
      std: 0.1
    }
    bias_filler {
      type: "constant"
      value: 0.2
    }
  }
}
layer {
  name: "inception_4b/relu_pool_proj"
  type: "ReLU"
  bottom: "inception_4b/pool_proj"
  top: "inception_4b/pool_proj"
}
layer {
  name: "inception_4b/output"
  type: "Concat"
  bottom: "inception_4b/1x1"
  bottom: "inception_4b/3x3"
  bottom: "inception_4b/5x5"
  bottom: "inception_4b/pool_proj"
  top: "inception_4b/output"
}
layer {
  name: "inception_4c/1x1"
  type: "Convolution"
  bottom: "inception_4b/output"
  top: "inception_4c/1x1"
  param {
    lr_mult: 1
    decay_mult: 1
  }
  param {
    lr_mult: 2
    decay_mult: 0
  }
  convolution_param {
    num_output: 128
    kernel_size: 1
    weight_filler {
      type: "xavier"
      std: 0.03
    }
    bias_filler {
      type: "constant"
      value: 0.2
    }
  }
}
layer {
  name: "inception_4c/relu_1x1"
  type: "ReLU"
  bottom: "inception_4c/1x1"
  top: "inception_4c/1x1"
}
layer {
  name: "inception_4c/3x3_reduce"
  type: "Convolution"
  bottom: "inception_4b/output"
  top: "inception_4c/3x3_reduce"
  param {
    lr_mult: 1
    decay_mult: 1
  }
  param {
    lr_mult: 2
    decay_mult: 0
  }
  convolution_param {
    num_output: 128
    kernel_size: 1
    weight_filler {
      type: "xavier"
      std: 0.09
    }
    bias_filler {
      type: "constant"
      value: 0.2
    }
  }
}
layer {
  name: "inception_4c/relu_3x3_reduce"
  type: "ReLU"
  bottom: "inception_4c/3x3_reduce"
  top: "inception_4c/3x3_reduce"
}
layer {
  name: "inception_4c/3x3"
  type: "Convolution"
  bottom: "inception_4c/3x3_reduce"
  top: "inception_4c/3x3"
  param {
    lr_mult: 1
    decay_mult: 1
  }
  param {
    lr_mult: 2
    decay_mult: 0
  }
  convolution_param {
    num_output: 256
    pad: 1
    kernel_size: 3
    weight_filler {
      type: "xavier"
      std: 0.03
    }
    bias_filler {
      type: "constant"
      value: 0.2
    }
  }
}
layer {
  name: "inception_4c/relu_3x3"
  type: "ReLU"
  bottom: "inception_4c/3x3"
  top: "inception_4c/3x3"
}
layer {
  name: "inception_4c/5x5_reduce"
  type: "Convolution"
  bottom: "inception_4b/output"
  top: "inception_4c/5x5_reduce"
  param {
    lr_mult: 1
    decay_mult: 1
  }
  param {
    lr_mult: 2
    decay_mult: 0
  }
  convolution_param {
    num_output: 24
    kernel_size: 1
    weight_filler {
      type: "xavier"
      std: 0.2
    }
    bias_filler {
      type: "constant"
      value: 0.2
    }
  }
}
layer {
  name: "inception_4c/relu_5x5_reduce"
  type: "ReLU"
  bottom: "inception_4c/5x5_reduce"
  top: "inception_4c/5x5_reduce"
}
layer {
  name: "inception_4c/5x5"
  type: "Convolution"
  bottom: "inception_4c/5x5_reduce"
  top: "inception_4c/5x5"
  param {
    lr_mult: 1
    decay_mult: 1
  }
  param {
    lr_mult: 2
    decay_mult: 0
  }
  convolution_param {
    num_output: 64
    pad: 2
    kernel_size: 5
    weight_filler {
      type: "xavier"
      std: 0.03
    }
    bias_filler {
      type: "constant"
      value: 0.2
    }
  }
}
layer {
  name: "inception_4c/relu_5x5"
  type: "ReLU"
  bottom: "inception_4c/5x5"
  top: "inception_4c/5x5"
}
layer {
  name: "inception_4c/pool"
  type: "Pooling"
  bottom: "inception_4b/output"
  top: "inception_4c/pool"
  pooling_param {
    pool: MAX
    kernel_size: 3
    stride: 1
    pad: 1
  }
}
layer {
  name: "inception_4c/pool_proj"
  type: "Convolution"
  bottom: "inception_4c/pool"
  top: "inception_4c/pool_proj"
  param {
    lr_mult: 1
    decay_mult: 1
  }
  param {
    lr_mult: 2
    decay_mult: 0
  }
  convolution_param {
    num_output: 64
    kernel_size: 1
    weight_filler {
      type: "xavier"
      std: 0.1
    }
    bias_filler {
      type: "constant"
      value: 0.2
    }
  }
}
layer {
  name: "inception_4c/relu_pool_proj"
  type: "ReLU"
  bottom: "inception_4c/pool_proj"
  top: "inception_4c/pool_proj"
}
layer {
  name: "inception_4c/output"
  type: "Concat"
  bottom: "inception_4c/1x1"
  bottom: "inception_4c/3x3"
  bottom: "inception_4c/5x5"
  bottom: "inception_4c/pool_proj"
  top: "inception_4c/output"
}
layer {
  name: "inception_4d/1x1"
  type: "Convolution"
  bottom: "inception_4c/output"
  top: "inception_4d/1x1"
  param {
    lr_mult: 1
    decay_mult: 1
  }
  param {
    lr_mult: 2
    decay_mult: 0
  }
  convolution_param {
    num_output: 112
    kernel_size: 1
    weight_filler {
      type: "xavier"
      std: 0.03
    }
    bias_filler {
      type: "constant"
      value: 0.2
    }
  }
}
layer {
  name: "inception_4d/relu_1x1"
  type: "ReLU"
  bottom: "inception_4d/1x1"
  top: "inception_4d/1x1"
}
layer {
  name: "inception_4d/3x3_reduce"
  type: "Convolution"
  bottom: "inception_4c/output"
  top: "inception_4d/3x3_reduce"
  param {
    lr_mult: 1
    decay_mult: 1
  }
  param {
    lr_mult: 2
    decay_mult: 0
  }
  convolution_param {
    num_output: 144
    kernel_size: 1
    weight_filler {
      type: "xavier"
      std: 0.09
    }
    bias_filler {
      type: "constant"
      value: 0.2
    }
  }
}
layer {
  name: "inception_4d/relu_3x3_reduce"
  type: "ReLU"
  bottom: "inception_4d/3x3_reduce"
  top: "inception_4d/3x3_reduce"
}
layer {
  name: "inception_4d/3x3"
  type: "Convolution"
  bottom: "inception_4d/3x3_reduce"
  top: "inception_4d/3x3"
  param {
    lr_mult: 1
    decay_mult: 1
  }
  param {
    lr_mult: 2
    decay_mult: 0
  }
  convolution_param {
    num_output: 288
    pad: 1
    kernel_size: 3
    weight_filler {
      type: "xavier"
      std: 0.03
    }
    bias_filler {
      type: "constant"
      value: 0.2
    }
  }
}
layer {
  name: "inception_4d/relu_3x3"
  type: "ReLU"
  bottom: "inception_4d/3x3"
  top: "inception_4d/3x3"
}
layer {
  name: "inception_4d/5x5_reduce"
  type: "Convolution"
  bottom: "inception_4c/output"
  top: "inception_4d/5x5_reduce"
  param {
    lr_mult: 1
    decay_mult: 1
  }
  param {
    lr_mult: 2
    decay_mult: 0
  }
  convolution_param {
    num_output: 32
    kernel_size: 1
    weight_filler {
      type: "xavier"
      std: 0.2
    }
    bias_filler {
      type: "constant"
      value: 0.2
    }
  }
}
layer {
  name: "inception_4d/relu_5x5_reduce"
  type: "ReLU"
  bottom: "inception_4d/5x5_reduce"
  top: "inception_4d/5x5_reduce"
}
layer {
  name: "inception_4d/5x5"
  type: "Convolution"
  bottom: "inception_4d/5x5_reduce"
  top: "inception_4d/5x5"
  param {
    lr_mult: 1
    decay_mult: 1
  }
  param {
    lr_mult: 2
    decay_mult: 0
  }
  convolution_param {
    num_output: 64
    pad: 2
    kernel_size: 5
    weight_filler {
      type: "xavier"
      std: 0.03
    }
    bias_filler {
      type: "constant"
      value: 0.2
    }
  }
}
layer {
  name: "inception_4d/relu_5x5"
  type: "ReLU"
  bottom: "inception_4d/5x5"
  top: "inception_4d/5x5"
}
layer {
  name: "inception_4d/pool"
  type: "Pooling"
  bottom: "inception_4c/output"
  top: "inception_4d/pool"
  pooling_param {
    pool: MAX
    kernel_size: 3
    stride: 1
    pad: 1
  }
}
layer {
  name: "inception_4d/pool_proj"
  type: "Convolution"
  bottom: "inception_4d/pool"
  top: "inception_4d/pool_proj"
  param {
    lr_mult: 1
    decay_mult: 1
  }
  param {
    lr_mult: 2
    decay_mult: 0
  }
  convolution_param {
    num_output: 64
    kernel_size: 1
    weight_filler {
      type: "xavier"
      std: 0.1
    }
    bias_filler {
      type: "constant"
      value: 0.2
    }
  }
}
layer {
  name: "inception_4d/relu_pool_proj"
  type: "ReLU"
  bottom: "inception_4d/pool_proj"
  top: "inception_4d/pool_proj"
}
layer {
  name: "inception_4d/output"
  type: "Concat"
  bottom: "inception_4d/1x1"
  bottom: "inception_4d/3x3"
  bottom: "inception_4d/5x5"
  bottom: "inception_4d/pool_proj"
  top: "inception_4d/output"
}
layer {
  name: "loss2/ave_pool"
  type: "Pooling"
  bottom: "inception_4d/output"
  top: "loss2/ave_pool"
  pooling_param {
    pool: AVE
    kernel_size: 5
    stride: 3
  }
}
layer {
  name: "loss2/conv"
  type: "Convolution"
  bottom: "loss2/ave_pool"
  top: "loss2/conv"
  param {
    lr_mult: 1
    decay_mult: 1
  }
  param {
    lr_mult: 2
    decay_mult: 0
  }
  convolution_param {
    num_output: 128
    kernel_size: 1
    weight_filler {
      type: "xavier"
      std: 0.08
    }
    bias_filler {
      type: "constant"
      value: 0.2
    }
  }
}
layer {
  name: "loss2/relu_conv"
  type: "ReLU"
  bottom: "loss2/conv"
  top: "loss2/conv"
}
layer {
  name: "loss2/fc"
  type: "InnerProduct"
  bottom: "loss2/conv"
  top: "loss2/fc"
  param {
…
I0907 14:20:02.752583 96963 net.cpp:433] inception_4b/output_inception_4b/output_0_split -> inception_4b/output_inception_4b/output_0_split_1
I0907 14:20:02.752589 96963 net.cpp:433] inception_4b/output_inception_4b/output_0_split -> inception_4b/output_inception_4b/output_0_split_2
I0907 14:20:02.752595 96963 net.cpp:433] inception_4b/output_inception_4b/output_0_split -> inception_4b/output_inception_4b/output_0_split_3
I0907 14:20:02.752602 96963 net.cpp:155] Setting up inception_4b/output_inception_4b/output_0_split
I0907 14:20:02.752606 96963 net.cpp:163] Top shape: 32 512 14 14 (3211264)
I0907 14:20:02.752610 96963 net.cpp:163] Top shape: 32 512 14 14 (3211264)
I0907 14:20:02.752614 96963 net.cpp:163] Top shape: 32 512 14 14 (3211264)
I0907 14:20:02.752617 96963 net.cpp:163] Top shape: 32 512 14 14 (3211264)
I0907 14:20:02.752621 96963 layer_factory.hpp:76] Creating layer inception_4c/1x1
I0907 14:20:02.752629 96963 net.cpp:110] Creating Layer inception_4c/1x1
I0907 14:20:02.752632 96963 net.cpp:477] inception_4c/1x1 <- inception_4b/output_inception_4b/output_0_split_0
I0907 14:20:02.752638 96963 net.cpp:433] inception_4c/1x1 -> inception_4c/1x1
I0907 14:20:02.753195 96963 net.cpp:155] Setting up inception_4c/1x1
I0907 14:20:02.753204 96963 net.cpp:163] Top shape: 32 128 14 14 (802816)
I0907 14:20:02.753223 96963 layer_factory.hpp:76] Creating layer inception_4c/relu_1x1
I0907 14:20:02.753231 96963 net.cpp:110] Creating Layer inception_4c/relu_1x1
I0907 14:20:02.753234 96963 net.cpp:477] inception_4c/relu_1x1 <- inception_4c/1x1
I0907 14:20:02.753240 96963 net.cpp:419] inception_4c/relu_1x1 -> inception_4c/1x1 (in-place)
I0907 14:20:02.753247 96963 net.cpp:155] Setting up inception_4c/relu_1x1
I0907 14:20:02.753250 96963 net.cpp:163] Top shape: 32 128 14 14 (802816)
I0907 14:20:02.753253 96963 layer_factory.hpp:76] Creating layer inception_4c/3x3_reduce
I0907 14:20:02.753262 96963 net.cpp:110] Creating Layer inception_4c/3x3_reduce
I0907 14:20:02.753264 96963 net.cpp:477] inception_4c/3x3_reduce <- inception_4b/output_inception_4b/output_0_split_1
I0907 14:20:02.753270 96963 net.cpp:433] inception_4c/3x3_reduce -> inception_4c/3x3_reduce
I0907 14:20:02.754345 96963 net.cpp:155] Setting up inception_4c/3x3_reduce
I0907 14:20:02.754370 96963 net.cpp:163] Top shape: 32 128 14 14 (802816)
I0907 14:20:02.754379 96963 layer_factory.hpp:76] Creating layer inception_4c/relu_3x3_reduce
I0907 14:20:02.754386 96963 net.cpp:110] Creating Layer inception_4c/relu_3x3_reduce
I0907 14:20:02.754390 96963 net.cpp:477] inception_4c/relu_3x3_reduce <- inception_4c/3x3_reduce
I0907 14:20:02.754397 96963 net.cpp:419] inception_4c/relu_3x3_reduce -> inception_4c/3x3_reduce (in-place)
I0907 14:20:02.754405 96963 net.cpp:155] Setting up inception_4c/relu_3x3_reduce
I0907 14:20:02.754408 96963 net.cpp:163] Top shape: 32 128 14 14 (802816)
I0907 14:20:02.754412 96963 layer_factory.hpp:76] Creating layer inception_4c/3x3
I0907 14:20:02.754420 96963 net.cpp:110] Creating Layer inception_4c/3x3
I0907 14:20:02.754423 96963 net.cpp:477] inception_4c/3x3 <- inception_4c/3x3_reduce
I0907 14:20:02.754429 96963 net.cpp:433] inception_4c/3x3 -> inception_4c/3x3
I0907 14:20:02.757086 96963 net.cpp:155] Setting up inception_4c/3x3
I0907 14:20:02.757122 96963 net.cpp:163] Top shape: 32 256 14 14 (1605632)
I0907 14:20:02.757141 96963 layer_factory.hpp:76] Creating layer inception_4c/relu_3x3
I0907 14:20:02.757149 96963 net.cpp:110] Creating Layer inception_4c/relu_3x3
I0907 14:20:02.757153 96963 net.cpp:477] inception_4c/relu_3x3 <- inception_4c/3x3
I0907 14:20:02.757159 96963 net.cpp:419] inception_4c/relu_3x3 -> inception_4c/3x3 (in-place)
I0907 14:20:02.757165 96963 net.cpp:155] Setting up inception_4c/relu_3x3
I0907 14:20:02.757169 96963 net.cpp:163] Top shape: 32 256 14 14 (1605632)
I0907 14:20:02.757174 96963 layer_factory.hpp:76] Creating layer inception_4c/5x5_reduce
I0907 14:20:02.757181 96963 net.cpp:110] Creating Layer inception_4c/5x5_reduce
I0907 14:20:02.757184 96963 net.cpp:477] inception_4c/5x5_reduce <- inception_4b/output_inception_4b/output_0_split_2
I0907 14:20:02.757196 96963 net.cpp:433] inception_4c/5x5_reduce -> inception_4c/5x5_reduce
I0907 14:20:02.757343 96963 net.cpp:155] Setting up inception_4c/5x5_reduce
I0907 14:20:02.757352 96963 net.cpp:163] Top shape: 32 24 14 14 (150528)
I0907 14:20:02.757359 96963 layer_factory.hpp:76] Creating layer inception_4c/relu_5x5_reduce
I0907 14:20:02.757365 96963 net.cpp:110] Creating Layer inception_4c/relu_5x5_reduce
I0907 14:20:02.757369 96963 net.cpp:477] inception_4c/relu_5x5_reduce <- inception_4c/5x5_reduce
I0907 14:20:02.757375 96963 net.cpp:419] inception_4c/relu_5x5_reduce -> inception_4c/5x5_reduce (in-place)
I0907 14:20:02.757380 96963 net.cpp:155] Setting up inception_4c/relu_5x5_reduce
I0907 14:20:02.757385 96963 net.cpp:163] Top shape: 32 24 14 14 (150528)
I0907 14:20:02.757387 96963 layer_factory.hpp:76] Creating layer inception_4c/5x5
I0907 14:20:02.757395 96963 net.cpp:110] Creating Layer inception_4c/5x5
I0907 14:20:02.757397 96963 net.cpp:477] inception_4c/5x5 <- inception_4c/5x5_reduce
I0907 14:20:02.757405 96963 net.cpp:433] inception_4c/5x5 -> inception_4c/5x5
I0907 14:20:02.757760 96963 net.cpp:155] Setting up inception_4c/5x5
I0907 14:20:02.757768 96963 net.cpp:163] Top shape: 32 64 14 14 (401408)
I0907 14:20:02.757787 96963 layer_factory.hpp:76] Creating layer inception_4c/relu_5x5
I0907 14:20:02.757793 96963 net.cpp:110] Creating Layer inception_4c/relu_5x5
I0907 14:20:02.757797 96963 net.cpp:477] inception_4c/relu_5x5 <- inception_4c/5x5
I0907 14:20:02.757803 96963 net.cpp:419] inception_4c/relu_5x5 -> inception_4c/5x5 (in-place)
I0907 14:20:02.757809 96963 net.cpp:155] Setting up inception_4c/relu_5x5
I0907 14:20:02.757813 96963 net.cpp:163] Top shape: 32 64 14 14 (401408)
I0907 14:20:02.757817 96963 layer_factory.hpp:76] Creating layer inception_4c/pool
I0907 14:20:02.757822 96963 net.cpp:110] Creating Layer inception_4c/pool
I0907 14:20:02.757827 96963 net.cpp:477] inception_4c/pool <- inception_4b/output_inception_4b/output_0_split_3
I0907 14:20:02.757833 96963 net.cpp:433] inception_4c/pool -> inception_4c/pool
I0907 14:20:02.757841 96963 net.cpp:155] Setting up inception_4c/pool
I0907 14:20:02.757845 96963 net.cpp:163] Top shape: 32 512 14 14 (3211264)
I0907 14:20:02.757848 96963 layer_factory.hpp:76] Creating layer inception_4c/pool_proj
I0907 14:20:02.757856 96963 net.cpp:110] Creating Layer inception_4c/pool_proj
I0907 14:20:02.757860 96963 net.cpp:477] inception_4c/pool_proj <- inception_4c/pool
I0907 14:20:02.757866 96963 net.cpp:433] inception_4c/pool_proj -> inception_4c/pool_proj
I0907 14:20:02.758160 96963 net.cpp:155] Setting up inception_4c/pool_proj
I0907 14:20:02.758170 96963 net.cpp:163] Top shape: 32 64 14 14 (401408)
I0907 14:20:02.758177 96963 layer_factory.hpp:76] Creating layer inception_4c/relu_pool_proj
I0907 14:20:02.758183 96963 net.cpp:110] Creating Layer inception_4c/relu_pool_proj
I0907 14:20:02.758186 96963 net.cpp:477] inception_4c/relu_pool_proj <- inception_4c/pool_proj
I0907 14:20:02.758193 96963 net.cpp:419] inception_4c/relu_pool_proj -> inception_4c/pool_proj (in-place)
I0907 14:20:02.758198 96963 net.cpp:155] Setting up inception_4c/relu_pool_proj
I0907 14:20:02.758203 96963 net.cpp:163] Top shape: 32 64 14 14 (401408)
I0907 14:20:02.758218 96963 layer_factory.hpp:76] Creating layer inception_4c/output
I0907 14:20:02.758224 96963 net.cpp:110] Creating Layer inception_4c/output
I0907 14:20:02.758227 96963 net.cpp:477] inception_4c/output <- inception_4c/1x1
I0907 14:20:02.758232 96963 net.cpp:477] inception_4c/output <- inception_4c/3x3
I0907 14:20:02.758236 96963 net.cpp:477] inception_4c/output <- inception_4c/5x5
I0907 14:20:02.758240 96963 net.cpp:477] inception_4c/output <- inception_4c/pool_proj
I0907 14:20:02.758246 96963 net.cpp:433] inception_4c/output -> inception_4c/output
I0907 14:20:02.758254 96963 net.cpp:155] Setting up inception_4c/output
I0907 14:20:02.758258 96963 net.cpp:163] Top shape: 32 512 14 14 (3211264)
I0907 14:20:02.758261 96963 layer_factory.hpp:76] Creating layer inception_4c/output_inception_4c/output_0_split
I0907 14:20:02.758267 96963 net.cpp:110] Creating Layer inception_4c/output_inception_4c/output_0_split
I0907 14:20:02.758271 96963 net.cpp:477] inception_4c/output_inception_4c/output_0_split <- inception_4c/output
I0907 14:20:02.758277 96963 net.cpp:433] inception_4c/output_inception_4c/output_0_split -> inception_4c/output_inception_4c/output_0_split_0
I0907 14:20:02.758283 96963 net.cpp:433] inception_4c/output_inception_4c/output_0_split -> inception_4c/output_inception_4c/output_0_split_1
I0907 14:20:02.758291 96963 net.cpp:433] inception_4c/output_inception_4c/output_0_split -> inception_4c/output_inception_4c/output_0_split_2
I0907 14:20:02.758297 96963 net.cpp:433] inception_4c/output_inception_4c/output_0_split -> inception_4c/output_inception_4c/output_0_split_3
I0907 14:20:02.758303 96963 net.cpp:155] Setting up inception_4c/output_inception_4c/output_0_split
I0907 14:20:02.758307 96963 net.cpp:163] Top shape: 32 512 14 14 (3211264)
I0907 14:20:02.758311 96963 net.cpp:163] Top shape: 32 512 14 14 (3211264)
I0907 14:20:02.758316 96963 net.cpp:163] Top shape: 32 512 14 14 (3211264)
I0907 14:20:02.758318 96963 net.cpp:163] Top shape: 32 512 14 14 (3211264)
I0907 14:20:02.758322 96963 layer_factory.hpp:76] Creating layer inception_4d/1x1
I0907 14:20:02.758329 96963 net.cpp:110] Creating Layer inception_4d/1x1
I0907 14:20:02.758332 96963 net.cpp:477] inception_4d/1x1 <- inception_4c/output_inception_4c/output_0_split_0
I0907 14:20:02.758338 96963 net.cpp:433] inception_4d/1x1 -> inception_4d/1x1
I0907 14:20:02.758826 96963 net.cpp:155] Setting up inception_4d/1x1
I0907 14:20:02.758836 96963 net.cpp:163] Top shape: 32 112 14 14 (702464)
I0907 14:20:02.758854 96963 layer_factory.hpp:76] Creating layer inception_4d/relu_1x1
I0907 14:20:02.758862 96963 net.cpp:110] Creating Layer inception_4d/relu_1x1
I0907 14:20:02.758865 96963 net.cpp:477] inception_4d/relu_1x1 <- inception_4d/1x1
I0907 14:20:02.758872 96963 net.cpp:419] inception_4d/relu_1x1 -> inception_4d/1x1 (in-place)
I0907 14:20:02.758877 96963 net.cpp:155] Setting up inception_4d/relu_1x1
I0907 14:20:02.758882 96963 net.cpp:163] Top shape: 32 112 14 14 (702464)
I0907 14:20:02.758884 96963 layer_factory.hpp:76] Creating layer inception_4d/3x3_reduce
I0907 14:20:02.758891 96963 net.cpp:110] Creating Layer inception_4d/3x3_reduce
I0907 14:20:02.758895 96963 net.cpp:477] inception_4d/3x3_reduce <- inception_4c/output_inception_4c/output_0_split_1
I0907 14:20:02.758903 96963 net.cpp:433] inception_4d/3x3_reduce -> inception_4d/3x3_reduce
I0907 14:20:02.759524 96963 net.cpp:155] Setting up inception_4d/3x3_reduce
I0907 14:20:02.759534 96963 net.cpp:163] Top shape: 32 144 14 14 (903168)
I0907 14:20:02.759553 96963 layer_factory.hpp:76] Creating layer inception_4d/relu_3x3_reduce
I0907 14:20:02.759560 96963 net.cpp:110] Creating Layer inception_4d/relu_3x3_reduce
I0907 14:20:02.759564 96963 net.cpp:477] inception_4d/relu_3x3_reduce <- inception_4d/3x3_reduce
I0907 14:20:02.759570 96963 net.cpp:419] inception_4d/relu_3x3_reduce -> inception_4d/3x3_reduce (in-place)
I0907 14:20:02.759577 96963 net.cpp:155] Setting up inception_4d/relu_3x3_reduce
I0907 14:20:02.759580 96963 net.cpp:163] Top shape: 32 144 14 14 (903168)
I0907 14:20:02.759583 96963 layer_factory.hpp:76] Creating layer inception_4d/3x3
I0907 14:20:02.759599 96963 net.cpp:110] Creating Layer inception_4d/3x3
I0907 14:20:02.759603 96963 net.cpp:477] inception_4d/3x3 <- inception_4d/3x3_reduce
I0907 14:20:02.759610 96963 net.cpp:433] inception_4d/3x3 -> inception_4d/3x3
I0907 14:20:02.763062 96963 net.cpp:155] Setting up inception_4d/3x3
I0907 14:20:02.763077 96963 net.cpp:163] Top shape: 32 288 14 14 (1806336)
I0907 14:20:02.763085 96963 layer_factory.hpp:76] Creating layer inception_4d/relu_3x3
I0907 14:20:02.763092 96963 net.cpp:110] Creating Layer inception_4d/relu_3x3
I0907 14:20:02.763097 96963 net.cpp:477] inception_4d/relu_3x3 <- inception_4d/3x3
I0907 14:20:02.763103 96963 net.cpp:419] inception_4d/relu_3x3 -> inception_4d/3x3 (in-place)
I0907 14:20:02.763110 96963 net.cpp:155] Setting up inception_4d/relu_3x3
I0907 14:20:02.763115 96963 net.cpp:163] Top shape: 32 288 14 14 (1806336)
I0907 14:20:02.763118 96963 layer_factory.hpp:76] Creating layer inception_4d/5x5_reduce
I0907 14:20:02.763131 96963 net.cpp:110] Creating Layer inception_4d/5x5_reduce
I0907 14:20:02.763135 96963 net.cpp:477] inception_4d/5x5_reduce <- inception_4c/output_inception_4c/output_0_split_2
I0907 14:20:02.763141 96963 net.cpp:433] inception_4d/5x5_reduce -> inception_4d/5x5_reduce
I0907 14:20:02.763854 96963 net.cpp:155] Setting up inception_4d/5x5_reduce
I0907 14:20:02.763870 96963 net.cpp:163] Top shape: 32 32 14 14 (200704)
I0907 14:20:02.763877 96963 layer_factory.hpp:76] Creating layer inception_4d/relu_5x5_reduce
I0907 14:20:02.763885 96963 net.cpp:110] Creating Layer inception_4d/relu_5x5_reduce
I0907 14:20:02.763890 96963 net.cpp:477] inception_4d/relu_5x5_reduce <- inception_4d/5x5_reduce
I0907 14:20:02.763895 96963 net.cpp:419] inception_4d/relu_5x5_reduce -> inception_4d/5x5_reduce (in-place)
I0907 14:20:02.763902 96963 net.cpp:155] Setting up inception_4d/relu_5x5_reduce
I0907 14:20:02.763906 96963 net.cpp:163] Top shape: 32 32 14 14 (200704)
I0907 14:20:02.763911 96963 layer_factory.hpp:76] Creating layer inception_4d/5x5
I0907 14:20:02.763917 96963 net.cpp:110] Creating Layer inception_4d/5x5
I0907 14:20:02.763921 96963 net.cpp:477] inception_4d/5x5 <- inception_4d/5x5_reduce
I0907 14:20:02.763927 96963 net.cpp:433] inception_4d/5x5 -> inception_4d/5x5
I0907 14:20:02.764361 96963 net.cpp:155] Setting up inception_4d/5x5
I0907 14:20:02.764371 96963 net.cpp:163] Top shape: 32 64 14 14 (401408)
I0907 14:20:02.764379 96963 layer_factory.hpp:76] Creating layer inception_4d/relu_5x5
I0907 14:20:02.764385 96963 net.cpp:110] Creating Layer inception_4d/relu_5x5
I0907 14:20:02.764389 96963 net.cpp:477] inception_4d/relu_5x5 <- inception_4d/5x5
I0907 14:20:02.764395 96963 net.cpp:419] inception_4d/relu_5x5 -> inception_4d/5x5 (in-place)
I0907 14:20:02.764402 96963 net.cpp:155] Setting up inception_4d/relu_5x5
I0907 14:20:02.764407 96963 net.cpp:163] Top shape: 32 64 14 14 (401408)
I0907 14:20:02.764410 96963 layer_factory.hpp:76] Creating layer inception_4d/pool
I0907 14:20:02.764417 96963 net.cpp:110] Creating Layer inception_4d/pool
I0907 14:20:02.764420 96963 net.cpp:477] inception_4d/pool <- inception_4c/output_inception_4c/output_0_split_3
I0907 14:20:02.764427 96963 net.cpp:433] inception_4d/pool -> inception_4d/pool
I0907 14:20:02.764436 96963 net.cpp:155] Setting up inception_4d/pool
I0907 14:20:02.764442 96963 net.cpp:163] Top shape: 32 512 14 14 (3211264)
I0907 14:20:02.764446 96963 layer_factory.hpp:76] Creating layer inception_4d/pool_proj
I0907 14:20:02.764453 96963 net.cpp:110] Creating Layer inception_4d/pool_proj
I0907 14:20:02.764457 96963 net.cpp:477] inception_4d/pool_proj <- inception_4d/pool
I0907 14:20:02.764463 96963 net.cpp:433] inception_4d/pool_proj -> inception_4d/pool_proj
I0907 14:20:02.764771 96963 net.cpp:155] Setting up inception_4d/pool_proj
I0907 14:20:02.764782 96963 net.cpp:163] Top shape: 32 64 14 14 (401408)
I0907 14:20:02.764788 96963 layer_factory.hpp:76] Creating layer inception_4d/relu_pool_proj
I0907 14:20:02.764796 96963 net.cpp:110] Creating Layer inception_4d/relu_pool_proj
I0907 14:20:02.764811 96963 net.cpp:477] inception_4d/relu_pool_proj <- inception_4d/pool_proj
I0907 14:20:02.764818 96963 net.cpp:419] inception_4d/relu_pool_proj -> inception_4d/pool_proj (in-place)
I0907 14:20:02.764824 96963 net.cpp:155] Setting up inception_4d/relu_pool_proj
I0907 14:20:02.764829 96963 net.cpp:163] Top shape: 32 64 14 14 (401408)
I0907 14:20:02.764832 96963 layer_factory.hpp:76] Creating layer inception_4d/output
I0907 14:20:02.764839 96963 net.cpp:110] Creating Layer inception_4d/output
I0907 14:20:02.764842 96963 net.cpp:477] inception_4d/output <- inception_4d/1x1
I0907 14:20:02.764847 96963 net.cpp:477] inception_4d/output <- inception_4d/3x3
I0907 14:20:02.764852 96963 net.cpp:477] inception_4d/output <- inception_4d/5x5
I0907 14:20:02.764855 96963 net.cpp:477] inception_4d/output <- inception_4d/pool_proj
I0907 14:20:02.764860 96963 net.cpp:433] inception_4d/output -> inception_4d/output
I0907 14:20:02.764868 96963 net.cpp:155] Setting up inception_4d/output
I0907 14:20:02.764873 96963 net.cpp:163] Top shape: 32 528 14 14 (3311616)
I0907 14:20:02.764876 96963 layer_factory.hpp:76] Creating layer inception_4d/output_inception_4d/output_0_split
I0907 14:20:02.764883 96963 net.cpp:110] Creating Layer inception_4d/output_inception_4d/output_0_split
I0907 14:20:02.764886 96963 net.cpp:477] inception_4d/output_inception_4d/output_0_split <- inception_4d/output
I0907 14:20:02.764892 96963 net.cpp:433] inception_4d/output_inception_4d/output_0_split -> inception_4d/output_inception_4d/output_0_split_0
I0907 14:20:02.764901 96963 net.cpp:433] inception_4d/output_inception_4d/output_0_split -> inception_4d/output_inception_4d/output_0_split_1
I0907 14:20:02.764907 96963 net.cpp:433] inception_4d/output_inception_4d/output_0_split -> inception_4d/output_inception_4d/output_0_split_2
I0907 14:20:02.764914 96963 net.cpp:433] inception_4d/output_inception_4d/output_0_split -> inception_4d/output_inception_4d/output_0_split_3
I0907 14:20:02.764920 96963 net.cpp:433] inception_4d/output_inception_4d/output_0_split -> inception_4d/output_inception_4d/output_0_split_4
I0907 14:20:02.764928 96963 net.cpp:155] Setting up inception_4d/output_inception_4d/output_0_split
I0907 14:20:02.764932 96963 net.cpp:163] Top shape: 32 528 14 14 (3311616)
I0907 14:20:02.764935 96963 net.cpp:163] Top shape: 32 528 14 14 (3311616)
I0907 14:20:02.764940 96963 net.cpp:163] Top shape: 32 528 14 14 (3311616)
I0907 14:20:02.764943 96963 net.cpp:163] Top shape: 32 528 14 14 (3311616)
I0907 14:20:02.764947 96963 net.cpp:163] Top shape: 32 528 14 14 (3311616)
I0907 14:20:02.764950 96963 layer_factory.hpp:76] Creating layer loss2/ave_pool
I0907 14:20:02.764956 96963 net.cpp:110] Creating Layer loss2/ave_pool
I0907 14:20:02.764960 96963 net.cpp:477] loss2/ave_pool <- inception_4d/output_inception_4d/output_0_split_0
I0907 14:20:02.764966 96963 net.cpp:433] loss2/ave_pool -> loss2/ave_pool
I0907 14:20:02.764972 96963 net.cpp:155] Setting up loss2/ave_pool
I0907 14:20:02.764976 96963 net.cpp:163] Top shape: 32 528 4 4 (270336)
I0907 14:20:02.764981 96963 layer_factory.hpp:76] Creating layer loss2/conv
I0907 14:20:02.764988 96963 net.cpp:110] Creating Layer loss2/conv
I0907 14:20:02.764991 96963 net.cpp:477] loss2/conv <- loss2/ave_pool
I0907 14:20:02.764998 96963 net.cpp:433] loss2/conv -> loss2/conv
I0907 14:20:02.766202 96963 net.cpp:155] Setting up loss2/conv
I0907 14:20:02.766217 96963 net.cpp:163] Top shape: 32 128 4 4 (65536)
I0907 14:20:02.766226 96963 layer_factory.hpp:76] Creating layer loss2/relu_conv
I0907 14:20:02.766232 96963 net.cpp:110] Creating Layer loss2/relu_conv
I0907 14:20:02.766237 96963 net.cpp:477] loss2/relu_conv <- loss2/conv
I0907 14:20:02.766243 96963 net.cpp:419] loss2/relu_conv -> loss2/conv (in-place)
I0907 14:20:02.766250 96963 net.cpp:155] Setting up loss2/relu_conv
I0907 14:20:02.766255 96963 net.cpp:163] Top shape: 32 128 4 4 (65536)
I0907 14:20:02.766258 96963 layer_factory.hpp:76] Creating layer loss2/fc
I0907 14:20:02.766266 96963 net.cpp:110] Creating Layer loss2/fc
I0907 14:20:02.766270 96963 net.cpp:477] loss2/fc <- loss2/conv
I0907 14:20:02.766288 96963 net.cpp:433] loss2/fc -> loss2/fc
I0907 14:20:02.784970 96963 net.cpp:155] Setting up loss2/fc
I0907 14:20:02.784986 96963 net.cpp:163] Top shape: 32 1024 (32768)
I0907 14:20:02.784996 96963 layer_factory.hpp:76] Creating layer loss2/relu_fc
I0907 14:20:02.785003 96963 net.cpp:110] Creating Layer loss2/relu_fc
I0907 14:20:02.785008 96963 net.cpp:477] loss2/relu_fc <- loss2/fc
I0907 14:20:02.785017 96963 net.cpp:419] loss2/relu_fc -> loss2/fc (in-place)
I0907 14:20:02.785024 96963 net.cpp:155] Setting up loss2/relu_fc
I0907 14:20:02.785029 96963 net.cpp:163] Top shape: 32 1024 (32768)
I0907 14:20:02.785032 96963 layer_factory.hpp:76] Creating layer loss2/drop_fc
I0907 14:20:02.785039 96963 net.cpp:110] Creating Layer loss2/drop_fc
I0907 14:20:02.785043 96963 net.cpp:477] loss2/drop_fc <- loss2/fc
I0907 14:20:02.785048 96963 net.cpp:419] loss2/drop_fc -> loss2/fc (in-place)
I0907 14:20:02.785056 96963 net.cpp:155] Setting up loss2/drop_fc
I0907 14:20:02.785060 96963 net.cpp:163] Top shape: 32 1024 (32768)
I0907 14:20:02.785063 96963 layer_factory.hpp:76] Creating layer loss2/classifier_cub
I0907 14:20:02.785071 96963 net.cpp:110] Creating Layer loss2/classifier_cub
I0907 14:20:02.785074 96963 net.cpp:477] loss2/classifier_cub <- loss2/fc
I0907 14:20:02.785080 96963 net.cpp:433] loss2/classifier_cub -> loss2/classifier
I0907 14:20:02.792265 96963 net.cpp:155] Setting up loss2/classifier_cub
I0907 14:20:02.792280 96963 net.cpp:163] Top shape: 32 200 (6400)
I0907 14:20:02.792289 96963 layer_factory.hpp:76] Creating layer loss2/classifier_loss2/classifier_cub_0_split
I0907 14:20:02.792295 96963 net.cpp:110] Creating Layer loss2/classifier_loss2/classifier_cub_0_split
I0907 14:20:02.792300 96963 net.cpp:477] loss2/classifier_loss2/classifier_cub_0_split <- loss2/classifier
I0907 14:20:02.792306 96963 net.cpp:433] loss2/classifier_loss2/classifier_cub_0_split -> loss2/classifier_loss2/classifier_cub_0_split_0
I0907 14:20:02.792315 96963 net.cpp:433] loss2/classifier_loss2/classifier_cub_0_split -> loss2/classifier_loss2/classifier_cub_0_split_1
I0907 14:20:02.792322 96963 net.cpp:433] loss2/classifier_loss2/classifier_cub_0_split -> loss2/classifier_loss2/classifier_cub_0_split_2
I0907 14:20:02.792330 96963 net.cpp:155] Setting up loss2/classifier_loss2/classifier_cub_0_split
I0907 14:20:02.792335 96963 net.cpp:163] Top shape: 32 200 (6400)
I0907 14:20:02.792338 96963 net.cpp:163] Top shape: 32 200 (6400)
I0907 14:20:02.792342 96963 net.cpp:163] Top shape: 32 200 (6400)
I0907 14:20:02.792346 96963 layer_factory.hpp:76] Creating layer loss2/loss
I0907 14:20:02.792351 96963 net.cpp:110] Creating Layer loss2/loss
I0907 14:20:02.792356 96963 net.cpp:477] loss2/loss <- loss2/classifier_loss2/classifier_cub_0_split_0
I0907 14:20:02.792361 96963 net.cpp:477] loss2/loss <- label_data_1_split_3
I0907 14:20:02.792366 96963 net.cpp:433] loss2/loss -> loss2/loss1
…
I0907 14:20:02.792526 96963 net.cpp:433] loss2/top-5 -> loss2/top-5
I0907 14:20:02.792546 96963 net.cpp:155] Setting up loss2/top-5
I0907 14:20:02.792551 96963 net.cpp:163] Top shape: (1)
I0907 14:20:02.792553 96963 layer_factory.hpp:76] Creating layer inception_4e/1x1
I0907 14:20:02.792562 96963 net.cpp:110] Creating Layer inception_4e/1x1
I0907 14:20:02.792567 96963 net.cpp:477] inception_4e/1x1 <- inception_4d/output_inception_4d/output_0_split_1
I0907 14:20:02.792573 96963 net.cpp:433] inception_4e/1x1 -> inception_4e/1x1
I0907 14:20:02.793634 96963 net.cpp:155] Setting up inception_4e/1x1
I0907 14:20:02.793647 96963 net.cpp:163] Top shape: 32 256 14 14 (1605632)
I0907 14:20:02.793653 96963 layer_factory.hpp:76] Creating layer inception_4e/relu_1x1
I0907 14:20:02.793659 96963 net.cpp:110] Creating Layer inception_4e/relu_1x1
I0907 14:20:02.793663 96963 net.cpp:477] inception_4e/relu_1x1 <- inception_4e/1x1
I0907 14:20:02.793669 96963 net.cpp:419] inception_4e/relu_1x1 -> inception_4e/1x1 (in-place)
I0907 14:20:02.793676 96963 net.cpp:155] Setting up inception_4e/relu_1x1
I0907 14:20:02.793681 96963 net.cpp:163] Top shape: 32 256 14 14 (1605632)
I0907 14:20:02.793684 96963 layer_factory.hpp:76] Creating layer inception_4e/3x3_reduce
I0907 14:20:02.793706 96963 net.cpp:110] Creating Layer inception_4e/3x3_reduce
I0907 14:20:02.793710 96963 net.cpp:477] inception_4e/3x3_reduce <- inception_4d/output_inception_4d/output_0_split_2
I0907 14:20:02.793717 96963 net.cpp:433] inception_4e/3x3_reduce -> inception_4e/3x3_reduce
I0907 14:20:02.794926 96963 net.cpp:155] Setting up inception_4e/3x3_reduce
I0907 14:20:02.794940 96963 net.cpp:163] Top shape: 32 160 14 14 (1003520)
I0907 14:20:02.794950 96963 layer_factory.hpp:76] Creating layer inception_4e/relu_3x3_reduce
I0907 14:20:02.794956 96963 net.cpp:110] Creating Layer inception_4e/relu_3x3_reduce
I0907 14:20:02.794960 96963 net.cpp:477] inception_4e/relu_3x3_reduce <- inception_4e/3x3_reduce
I0907 14:20:02.794966 96963 net.cpp:419] inception_4e/relu_3x3_reduce -> inception_4e/3x3_reduce (in-place)
I0907 14:20:02.794975 96963 net.cpp:155] Setting up inception_4e/relu_3x3_reduce
I0907 14:20:02.794978 96963 net.cpp:163] Top shape: 32 160 14 14 (1003520)
I0907 14:20:02.794981 96963 layer_factory.hpp:76] Creating layer inception_4e/3x3
I0907 14:20:02.794989 96963 net.cpp:110] Creating Layer inception_4e/3x3
I0907 14:20:02.794993 96963 net.cpp:477] inception_4e/3x3 <- inception_4e/3x3_reduce
I0907 14:20:02.794998 96963 net.cpp:433] inception_4e/3x3 -> inception_4e/3x3
I0907 14:20:02.799175 96963 net.cpp:155] Setting up inception_4e/3x3
I0907 14:20:02.799190 96963 net.cpp:163] Top shape: 32 320 14 14 (2007040)
I0907 14:20:02.799211 96963 layer_factory.hpp:76] Creating layer inception_4e/relu_3x3
I0907 14:20:02.799217 96963 net.cpp:110] Creating Layer inception_4e/relu_3x3
I0907 14:20:02.799222 96963 net.cpp:477] inception_4e/relu_3x3 <- inception_4e/3x3
I0907 14:20:02.799228 96963 net.cpp:419] inception_4e/relu_3x3 -> inception_4e/3x3 (in-place)
I0907 14:20:02.799235 96963 net.cpp:155] Setting up inception_4e/relu_3x3
I0907 14:20:02.799239 96963 net.cpp:163] Top shape: 32 320 14 14 (2007040)
I0907 14:20:02.799242 96963 layer_factory.hpp:76] Creating layer inception_4e/5x5_reduce
I0907 14:20:02.799250 96963 net.cpp:110] Creating Layer inception_4e/5x5_reduce
I0907 14:20:02.799254 96963 net.cpp:477] inception_4e/5x5_reduce <- inception_4d/output_inception_4d/output_0_split_3
I0907 14:20:02.799263 96963 net.cpp:433] inception_4e/5x5_reduce -> inception_4e/5x5_reduce
I0907 14:20:02.799446 96963 net.cpp:155] Setting up inception_4e/5x5_reduce
I0907 14:20:02.799458 96963 net.cpp:163] Top shape: 32 32 14 14 (200704)
I0907 14:20:02.799464 96963 layer_factory.hpp:76] Creating layer inception_4e/relu_5x5_reduce
I0907 14:20:02.799470 96963 net.cpp:110] Creating Layer inception_4e/relu_5x5_reduce
I0907 14:20:02.799474 96963 net.cpp:477] inception_4e/relu_5x5_reduce <- inception_4e/5x5_reduce
I0907 14:20:02.799480 96963 net.cpp:419] inception_4e/relu_5x5_reduce -> inception_4e/5x5_reduce (in-place)
I0907 14:20:02.799485 96963 net.cpp:155] Setting up inception_4e/relu_5x5_reduce
I0907 14:20:02.799502 96963 net.cpp:163] Top shape: 32 32 14 14 (200704)
I0907 14:20:02.799506 96963 layer_factory.hpp:76] Creating layer inception_4e/5x5
I0907 14:20:02.799513 96963 net.cpp:110] Creating Layer inception_4e/5x5
I0907 14:20:02.799517 96963 net.cpp:477] inception_4e/5x5 <- inception_4e/5x5_reduce
I0907 14:20:02.799525 96963 net.cpp:433] inception_4e/5x5 -> inception_4e/5x5
I0907 14:20:02.800328 96963 net.cpp:155] Setting up inception_4e/5x5
I0907 14:20:02.800340 96963 net.cpp:163] Top shape: 32 128 14 14 (802816)
I0907 14:20:02.800359 96963 layer_factory.hpp:76] Creating layer inception_4e/relu_5x5
I0907 14:20:02.800365 96963 net.cpp:110] Creating Layer inception_4e/relu_5x5
I0907 14:20:02.800371 96963 net.cpp:477] inception_4e/relu_5x5 <- inception_4e/5x5
I0907 14:20:02.800377 96963 net.cpp:419] inception_4e/relu_5x5 -> inception_4e/5x5 (in-place)
I0907 14:20:02.800384 96963 net.cpp:155] Setting up inception_4e/relu_5x5
I0907 14:20:02.800387 96963 net.cpp:163] Top shape: 32 128 14 14 (802816)
I0907 14:20:02.800390 96963 layer_factory.hpp:76] Creating layer inception_4e/pool
I0907 14:20:02.800397 96963 net.cpp:110] Creating Layer inception_4e/pool
I0907 14:20:02.800400 96963 net.cpp:477] inception_4e/pool <- inception_4d/output_inception_4d/output_0_split_4
I0907 14:20:02.800407 96963 net.cpp:433] inception_4e/pool -> inception_4e/pool
I0907 14:20:02.800415 96963 net.cpp:155] Setting up inception_4e/pool
I0907 14:20:02.800420 96963 net.cpp:163] Top shape: 32 528 14 14 (3311616)
I0907 14:20:02.800423 96963 layer_factory.hpp:76] Creating layer inception_4e/pool_proj
I0907 14:20:02.800431 96963 net.cpp:110] Creating Layer inception_4e/pool_proj
I0907 14:20:02.800434 96963 net.cpp:477] inception_4e/pool_proj <- inception_4e/pool
I0907 14:20:02.800441 96963 net.cpp:433] inception_4e/pool_proj -> inception_4e/pool_proj
I0907 14:20:02.801008 96963 net.cpp:155] Setting up inception_4e/pool_proj
I0907 14:20:02.801019 96963 net.cpp:163] Top shape: 32 128 14 14 (802816)
I0907 14:20:02.801026 96963 layer_factory.hpp:76] Creating layer inception_4e/relu_pool_proj
I0907 14:20:02.801033 96963 net.cpp:110] Creating Layer inception_4e/relu_pool_proj
I0907 14:20:02.801036 96963 net.cpp:477] inception_4e/relu_pool_proj <- inception_4e/pool_proj
I0907 14:20:02.801043 96963 net.cpp:419] inception_4e/relu_pool_proj -> inception_4e/pool_proj (in-place)
I0907 14:20:02.801049 96963 net.cpp:155] Setting up inception_4e/relu_pool_proj
I0907 14:20:02.801054 96963 net.cpp:163] Top shape: 32 128 14 14 (802816)
I0907 14:20:02.801058 96963 layer_factory.hpp:76] Creating layer inception_4e/output
I0907 14:20:02.801064 96963 net.cpp:110] Creating Layer inception_4e/output
I0907 14:20:02.801067 96963 net.cpp:477] inception_4e/output <- inception_4e/1x1
I0907 14:20:02.801071 96963 net.cpp:477] inception_4e/output <- inception_4e/3x3
I0907 14:20:02.801076 96963 net.cpp:477] inception_4e/output <- inception_4e/5x5
I0907 14:20:02.801080 96963 net.cpp:477] inception_4e/output <- inception_4e/pool_proj
I0907 14:20:02.801085 96963 net.cpp:433] inception_4e/output -> inception_4e/output
I0907 14:20:02.801093 96963 net.cpp:155] Setting up inception_4e/output
I0907 14:20:02.801097 96963 net.cpp:163] Top shape: 32 832 14 14 (5218304)
I0907 14:20:02.801101 96963 layer_factory.hpp:76] Creating layer pool4/3x3_s2
I0907 14:20:02.801108 96963 net.cpp:110] Creating Layer pool4/3x3_s2
I0907 14:20:02.801111 96963 net.cpp:477] pool4/3x3_s2 <- inception_4e/output
I0907 14:20:02.801117 96963 net.cpp:433] pool4/3x3_s2 -> pool4/3x3_s2
I0907 14:20:02.801126 96963 net.cpp:155] Setting up pool4/3x3_s2
I0907 14:20:02.801129 96963 net.cpp:163] Top shape: 32 832 7 7 (1304576)
I0907 14:20:02.801133 96963 layer_factory.hpp:76] Creating layer pool4/3x3_s2_pool4/3x3_s2_0_split
I0907 14:20:02.801139 96963 net.cpp:110] Creating Layer pool4/3x3_s2_pool4/3x3_s2_0_split
I0907 14:20:02.801142 96963 net.cpp:477] pool4/3x3_s2_pool4/3x3_s2_0_split <- pool4/3x3_s2
I0907 14:20:02.801148 96963 net.cpp:433] pool4/3x3_s2_pool4/3x3_s2_0_split -> pool4/3x3_s2_pool4/3x3_s2_0_split_0
I0907 14:20:02.801167 96963 net.cpp:433] pool4/3x3_s2_pool4/3x3_s2_0_split -> pool4/3x3_s2_pool4/3x3_s2_0_split_1
I0907 14:20:02.801173 96963 net.cpp:433] pool4/3x3_s2_pool4/3x3_s2_0_split -> pool4/3x3_s2_pool4/3x3_s2_0_split_2
I0907 14:20:02.801197 96963 net.cpp:433] pool4/3x3_s2_pool4/3x3_s2_0_split -> pool4/3x3_s2_pool4/3x3_s2_0_split_3
I0907 14:20:02.801204 96963 net.cpp:155] Setting up pool4/3x3_s2_pool4/3x3_s2_0_split
I0907 14:20:02.801208 96963 net.cpp:163] Top shape: 32 832 7 7 (1304576)
I0907 14:20:02.801213 96963 net.cpp:163] Top shape: 32 832 7 7 (1304576)
I0907 14:20:02.801218 96963 net.cpp:163] Top shape: 32 832 7 7 (1304576)
I0907 14:20:02.801221 96963 net.cpp:163] Top shape: 32 832 7 7 (1304576)
I0907 14:20:02.801224 96963 layer_factory.hpp:76] Creating layer inception_5a/1x1
I0907 14:20:02.801233 96963 net.cpp:110] Creating Layer inception_5a/1x1
I0907 14:20:02.801236 96963 net.cpp:477] inception_5a/1x1 <- pool4/3x3_s2_pool4/3x3_s2_0_split_0
I0907 14:20:02.801244 96963 net.cpp:433] inception_5a/1x1 -> inception_5a/1x1
I0907 14:20:02.803383 96963 net.cpp:155] Setting up inception_5a/1x1
I0907 14:20:02.803397 96963 net.cpp:163] Top shape: 32 256 7 7 (401408)
I0907 14:20:02.803406 96963 layer_factory.hpp:76] Creating layer inception_5a/relu_1x1
I0907 14:20:02.803412 96963 net.cpp:110] Creating Layer inception_5a/relu_1x1
I0907 14:20:02.803416 96963 net.cpp:477] inception_5a/relu_1x1 <- inception_5a/1x1
I0907 14:20:02.803422 96963 net.cpp:419] inception_5a/relu_1x1 -> inception_5a/1x1 (in-place)
I0907 14:20:02.803429 96963 net.cpp:155] Setting up inception_5a/relu_1x1
I0907 14:20:02.803434 96963 net.cpp:163] Top shape: 32 256 7 7 (401408)
I0907 14:20:02.803437 96963 layer_factory.hpp:76] Creating layer inception_5a/3x3_reduce
I0907 14:20:02.803445 96963 net.cpp:110] Creating Layer inception_5a/3x3_reduce
I0907 14:20:02.803449 96963 net.cpp:477] inception_5a/3x3_reduce <- pool4/3x3_s2_pool4/3x3_s2_0_split_1
I0907 14:20:02.803457 96963 net.cpp:433] inception_5a/3x3_reduce -> inception_5a/3x3_reduce
I0907 14:20:02.805040 96963 net.cpp:155] Setting up inception_5a/3x3_reduce
I0907 14:20:02.805057 96963 net.cpp:163] Top shape: 32 160 7 7 (250880)
I0907 14:20:02.805064 96963 layer_factory.hpp:76] Creating layer inception_5a/relu_3x3_reduce
I0907 14:20:02.805071 96963 net.cpp:110] Creating Layer inception_5a/relu_3x3_reduce
I0907 14:20:02.805075 96963 net.cpp:477] inception_5a/relu_3x3_reduce <- inception_5a/3x3_reduce
I0907 14:20:02.805081 96963 net.cpp:419] inception_5a/relu_3x3_reduce -> inception_5a/3x3_reduce (in-place)
I0907 14:20:02.805089 96963 net.cpp:155] Setting up inception_5a/relu_3x3_reduce
I0907 14:20:02.805094 96963 net.cpp:163] Top shape: 32 160 7 7 (250880)
I0907 14:20:02.805097 96963 layer_factory.hpp:76] Creating layer inception_5a/3x3
I0907 14:20:02.805105 96963 net.cpp:110] Creating Layer inception_5a/3x3
I0907 14:20:02.805109 96963 net.cpp:477] inception_5a/3x3 <- inception_5a/3x3_reduce
I0907 14:20:02.805114 96963 net.cpp:433] inception_5a/3x3 -> inception_5a/3x3
I0907 14:20:02.809360 96963 net.cpp:155] Setting up inception_5a/3x3
I0907 14:20:02.809386 96963 net.cpp:163] Top shape: 32 320 7 7 (501760)
I0907 14:20:02.809396 96963 layer_factory.hpp:76] Creating layer inception_5a/relu_3x3
I0907 14:20:02.809403 96963 net.cpp:110] Creating Layer inception_5a/relu_3x3
I0907 14:20:02.809407 96963 net.cpp:477] inception_5a/relu_3x3 <- inception_5a/3x3
I0907 14:20:02.809413 96963 net.cpp:419] inception_5a/relu_3x3 -> inception_5a/3x3 (in-place)
I0907 14:20:02.809420 96963 net.cpp:155] Setting up inception_5a/relu_3x3
I0907 14:20:02.809425 96963 net.cpp:163] Top shape: 32 320 7 7 (501760)
I0907 14:20:02.809428 96963 layer_factory.hpp:76] Creating layer inception_5a/5x5_reduce
I0907 14:20:02.809437 96963 net.cpp:110] Creating Layer inception_5a/5x5_reduce
I0907 14:20:02.809440 96963 net.cpp:477] inception_5a/5x5_reduce <- pool4/3x3_s2_pool4/3x3_s2_0_split_2
I0907 14:20:02.809448 96963 net.cpp:433] inception_5a/5x5_reduce -> inception_5a/5x5_reduce
I0907 14:20:02.810261 96963 net.cpp:155] Setting up inception_5a/5x5_reduce
I0907 14:20:02.810286 96963 net.cpp:163] Top shape: 32 32 7 7 (50176)
I0907 14:20:02.810295 96963 layer_factory.hpp:76] Creating layer inception_5a/relu_5x5_reduce
I0907 14:20:02.810303 96963 net.cpp:110] Creating Layer inception_5a/relu_5x5_reduce
I0907 14:20:02.810307 96963 net.cpp:477] inception_5a/relu_5x5_reduce <- inception_5a/5x5_reduce
I0907 14:20:02.810313 96963 net.cpp:419] inception_5a/relu_5x5_reduce -> inception_5a/5x5_reduce (in-place)
I0907 14:20:02.810322 96963 net.cpp:155] Setting up inception_5a/relu_5x5_reduce
I0907 14:20:02.810325 96963 net.cpp:163] Top shape: 32 32 7 7 (50176)
I0907 14:20:02.810329 96963 layer_factory.hpp:76] Creating layer inception_5a/5x5
I0907 14:20:02.810336 96963 net.cpp:110] Creating Layer inception_5a/5x5
I0907 14:20:02.810340 96963 net.cpp:477] inception_5a/5x5 <- inception_5a/5x5_reduce
I0907 14:20:02.810346 96963 net.cpp:433] inception_5a/5x5 -> inception_5a/5x5
I0907 14:20:02.811148 96963 net.cpp:155] Setting up inception_5a/5x5
I0907 14:20:02.811158 96963 net.cpp:163] Top shape: 32 128 7 7 (200704)
I0907 14:20:02.811164 96963 layer_factory.hpp:76] Creating layer inception_5a/relu_5x5
I0907 14:20:02.811172 96963 net.cpp:110] Creating Layer inception_5a/relu_5x5
I0907 14:20:02.811175 96963 net.cpp:477] inception_5a/relu_5x5 <- inception_5a/5x5
I0907 14:20:02.811180 96963 net.cpp:419] inception_5a/relu_5x5 -> inception_5a/5x5 (in-place)
I0907 14:20:02.811187 96963 net.cpp:155] Setting up inception_5a/relu_5x5
I0907 14:20:02.811190 96963 net.cpp:163] Top shape: 32 128 7 7 (200704)
I0907 14:20:02.811194 96963 layer_factory.hpp:76] Creating layer inception_5a/pool
I0907 14:20:02.811200 96963 net.cpp:110] Creating Layer inception_5a/pool
I0907 14:20:02.811203 96963 net.cpp:477] inception_5a/pool <- pool4/3x3_s2_pool4/3x3_s2_0_split_3
I0907 14:20:02.811210 96963 net.cpp:433] inception_5a/pool -> inception_5a/pool
I0907 14:20:02.811218 96963 net.cpp:155] Setting up inception_5a/pool
I0907 14:20:02.811223 96963 net.cpp:163] Top shape: 32 832 7 7 (1304576)
I0907 14:20:02.811226 96963 layer_factory.hpp:76] Creating layer inception_5a/pool_proj
I0907 14:20:02.811234 96963 net.cpp:110] Creating Layer inception_5a/pool_proj
I0907 14:20:02.811238 96963 net.cpp:477] inception_5a/pool_proj <- inception_5a/pool
I0907 14:20:02.811244 96963 net.cpp:433] inception_5a/pool_proj -> inception_5a/pool_proj
I0907 14:20:02.812607 96963 net.cpp:155] Setting up inception_5a/pool_proj
I0907 14:20:02.812621 96963 net.cpp:163] Top shape: 32 128 7 7 (200704)
I0907 14:20:02.812629 96963 layer_factory.hpp:76] Creating layer inception_5a/relu_pool_proj
I0907 14:20:02.812636 96963 net.cpp:110] Creating Layer inception_5a/relu_pool_proj
I0907 14:20:02.812641 96963 net.cpp:477] inception_5a/relu_pool_proj <- inception_5a/pool_proj
I0907 14:20:02.812647 96963 net.cpp:419] inception_5a/relu_pool_proj -> inception_5a/pool_proj (in-place)
I0907 14:20:02.812654 96963 net.cpp:155] Setting up inception_5a/relu_pool_proj
I0907 14:20:02.812659 96963 net.cpp:163] Top shape: 32 128 7 7 (200704)
I0907 14:20:02.812661 96963 layer_factory.hpp:76] Creating layer inception_5a/output
I0907 14:20:02.812669 96963 net.cpp:110] Creating Layer inception_5a/output
I0907 14:20:02.812672 96963 net.cpp:477] inception_5a/output <- inception_5a/1x1
I0907 14:20:02.812676 96963 net.cpp:477] inception_5a/output <- inception_5a/3x3
I0907 14:20:02.812680 96963 net.cpp:477] inception_5a/output <- inception_5a/5x5
I0907 14:20:02.812685 96963 net.cpp:477] inception_5a/output <- inception_5a/pool_proj
I0907 14:20:02.812690 96963 net.cpp:433] inception_5a/output -> inception_5a/output
I0907 14:20:02.812697 96963 net.cpp:155] Setting up inception_5a/output
I0907 14:20:02.812702 96963 net.cpp:163] Top shape: 32 832 7 7 (1304576)
I0907 14:20:02.812705 96963 layer_factory.hpp:76] Creating layer inception_5a/output_inception_5a/output_0_split
I0907 14:20:02.812712 96963 net.cpp:110] Creating Layer inception_5a/output_inception_5a/output_0_split
I0907 14:20:02.812716 96963 net.cpp:477] inception_5a/output_inception_5a/output_0_split <- inception_5a/output
I0907 14:20:02.812733 96963 net.cpp:433] inception_5a/output_inception_5a/output_0_split -> inception_5a/output_inception_5a/output_0_split_0
I0907 14:20:02.812742 96963 net.cpp:433] inception_5a/output_inception_5a/output_0_split -> inception_5a/output_inception_5a/output_0_split_1
I0907 14:20:02.812748 96963 net.cpp:433] inception_5a/output_inception_5a/output_0_split -> inception_5a/output_inception_5a/output_0_split_2
I0907 14:20:02.812755 96963 net.cpp:433] inception_5a/output_inception_5a/output_0_split -> inception_5a/output_inception_5a/output_0_split_3
I0907 14:20:02.812762 96963 net.cpp:155] Setting up inception_5a/output_inception_5a/output_0_split
I0907 14:20:02.812767 96963 net.cpp:163] Top shape: 32 832 7 7 (1304576)
I0907 14:20:02.812770 96963 net.cpp:163] Top shape: 32 832 7 7 (1304576)
I0907 14:20:02.812774 96963 net.cpp:163] Top shape: 32 832 7 7 (1304576)
I0907 14:20:02.812777 96963 net.cpp:163] Top shape: 32 832 7 7 (1304576)
I0907 14:20:02.812782 96963 layer_factory.hpp:76] Creating layer inception_5b/1x1
I0907 14:20:02.812788 96963 net.cpp:110] Creating Layer inception_5b/1x1
I0907 14:20:02.812793 96963 net.cpp:477] inception_5b/1x1 <- inception_5a/output_inception_5a/output_0_split_0
I0907 14:20:02.812798 96963 net.cpp:433] inception_5b/1x1 -> inception_5b/1x1
I0907 14:20:02.818146 96963 net.cpp:155] Setting up inception_5b/1x1
I0907 14:20:02.818176 96963 net.cpp:163] Top shape: 32 384 7 7 (602112)
I0907 14:20:02.818193 96963 layer_factory.hpp:76] Creating layer inception_5b/relu_1x1
I0907 14:20:02.818210 96963 net.cpp:110] Creating Layer inception_5b/relu_1x1
I0907 14:20:02.818223 96963 net.cpp:477] inception_5b/relu_1x1 <- inception_5b/1x1
I0907 14:20:02.818234 96963 net.cpp:419] inception_5b/relu_1x1 -> inception_5b/1x1 (in-place)
I0907 14:20:02.818243 96963 net.cpp:155] Setting up inception_5b/relu_1x1
I0907 14:20:02.818249 96963 net.cpp:163] Top shape: 32 384 7 7 (602112)
I0907 14:20:02.818253 96963 layer_factory.hpp:76] Creating layer inception_5b/3x3_reduce
I0907 14:20:02.818265 96963 net.cpp:110] Creating Layer inception_5b/3x3_reduce
I0907 14:20:02.818270 96963 net.cpp:477] inception_5b/3x3_reduce <- inception_5a/output_inception_5a/output_0_split_1
I0907 14:20:02.818280 96963 net.cpp:433] inception_5b/3x3_reduce -> inception_5b/3x3_reduce
I0907 14:20:02.820317 96963 net.cpp:155] Setting up inception_5b/3x3_reduce
I0907 14:20:02.820335 96963 net.cpp:163] Top shape: 32 192 7 7 (301056)
I0907 14:20:02.820343 96963 layer_factory.hpp:76] Creating layer inception_5b/relu_3x3_reduce
I0907 14:20:02.820353 96963 net.cpp:110] Creating Layer inception_5b/relu_3x3_reduce
I0907 14:20:02.820358 96963 net.cpp:477] inception_5b/relu_3x3_reduce <- inception_5b/3x3_reduce
I0907 14:20:02.820364 96963 net.cpp:419] inception_5b/relu_3x3_reduce -> inception_5b/3x3_reduce (in-place)
I0907 14:20:02.820372 96963 net.cpp:155] Setting up inception_5b/relu_3x3_reduce
I0907 14:20:02.820379 96963 net.cpp:163] Top shape: 32 192 7 7 (301056)
I0907 14:20:02.820382 96963 layer_factory.hpp:76] Creating layer inception_5b/3x3
I0907 14:20:02.820392 96963 net.cpp:110] Creating Layer inception_5b/3x3
I0907 14:20:02.820395 96963 net.cpp:477] inception_5b/3x3 <- inception_5b/3x3_reduce
I0907 14:20:02.820404 96963 net.cpp:433] inception_5b/3x3 -> inception_5b/3x3
I0907 14:20:02.826434 96963 net.cpp:155] Setting up inception_5b/3x3
I0907 14:20:02.826449 96963 net.cpp:163] Top shape: 32 384 7 7 (602112)
I0907 14:20:02.826469 96963 layer_factory.hpp:76] Creating layer inception_5b/relu_3x3
I0907 14:20:02.826478 96963 net.cpp:110] Creating Layer inception_5b/relu_3x3
I0907 14:20:02.826483 96963 net.cpp:477] inception_5b/relu_3x3 <- inception_5b/3x3
I0907 14:20:02.826491 96963 net.cpp:419] inception_5b/relu_3x3 -> inception_5b/3x3 (in-place)
I0907 14:20:02.826498 96963 net.cpp:155] Setting up inception_5b/relu_3x3
I0907 14:20:02.826503 96963 net.cpp:163] Top shape: 32 384 7 7 (602112)
I0907 14:20:02.826506 96963 layer_factory.hpp:76] Creating layer inception_5b/5x5_reduce
I0907 14:20:02.826515 96963 net.cpp:110] Creating Layer inception_5b/5x5_reduce
I0907 14:20:02.826532 96963 net.cpp:477] inception_5b/5x5_reduce <- inception_5a/output_inception_5a/output_0_split_2
I0907 14:20:02.826541 96963 net.cpp:433] inception_5b/5x5_reduce -> inception_5b/5x5_reduce
I0907 14:20:02.826941 96963 net.cpp:155] Setting up inception_5b/5x5_reduce
I0907 14:20:02.826952 96963 net.cpp:163] Top shape: 32 48 7 7 (75264)
I0907 14:20:02.826972 96963 layer_factory.hpp:76] Creating layer inception_5b/relu_5x5_reduce
I0907 14:20:02.826980 96963 net.cpp:110] Creating Layer inception_5b/relu_5x5_reduce
I0907 14:20:02.826984 96963 net.cpp:477] inception_5b/relu_5x5_reduce <- inception_5b/5x5_reduce
I0907 14:20:02.826989 96963 net.cpp:419] inception_5b/relu_5x5_reduce -> inception_5b/5x5_reduce (in-place)
I0907 14:20:02.826995 96963 net.cpp:155] Setting up inception_5b/relu_5x5_reduce
I0907 14:20:02.826999 96963 net.cpp:163] Top shape: 32 48 7 7 (75264)
I0907 14:20:02.827003 96963 layer_factory.hpp:76] Creating layer inception_5b/5x5
I0907 14:20:02.827010 96963 net.cpp:110] Creating Layer inception_5b/5x5
I0907 14:20:02.827014 96963 net.cpp:477] inception_5b/5x5 <- inception_5b/5x5_reduce
I0907 14:20:02.827020 96963 net.cpp:433] inception_5b/5x5 -> inception_5b/5x5
I0907 14:20:02.828218 96963 net.cpp:155] Setting up inception_5b/5x5
I0907 14:20:02.828243 96963 net.cpp:163] Top shape: 32 128 7 7 (200704)
I0907 14:20:02.828253 96963 layer_factory.hpp:76] Creating layer inception_5b/relu_5x5
I0907 14:20:02.828259 96963 net.cpp:110] Creating Layer inception_5b/relu_5x5
I0907 14:20:02.828263 96963 net.cpp:477] inception_5b/relu_5x5 <- inception_5b/5x5
I0907 14:20:02.828269 96963 net.cpp:419] inception_5b/relu_5x5 -> inception_5b/5x5 (in-place)
I0907 14:20:02.828276 96963 net.cpp:155] Setting up inception_5b/relu_5x5
I0907 14:20:02.828280 96963 net.cpp:163] Top shape: 32 128 7 7 (200704)
I0907 14:20:02.828284 96963 layer_factory.hpp:76] Creating layer inception_5b/pool
I0907 14:20:02.828291 96963 net.cpp:110] Creating Layer inception_5b/pool
I0907 14:20:02.828295 96963 net.cpp:477] inception_5b/pool <- inception_5a/output_inception_5a/output_0_split_3
I0907 14:20:02.828306 96963 net.cpp:433] inception_5b/pool -> inception_5b/pool
I0907 14:20:02.828315 96963 net.cpp:155] Setting up inception_5b/pool
I0907 14:20:02.828320 96963 net.cpp:163] Top shape: 32 832 7 7 (1304576)
I0907 14:20:02.828323 96963 layer_factory.hpp:76] Creating layer inception_5b/pool_proj
I0907 14:20:02.828331 96963 net.cpp:110] Creating Layer inception_5b/pool_proj
I0907 14:20:02.828336 96963 net.cpp:477] inception_5b/pool_proj <- inception_5b/pool
I0907 14:20:02.828341 96963 net.cpp:433] inception_5b/pool_proj -> inception_5b/pool_proj
I0907 14:20:02.829643 96963 net.cpp:155] Setting up inception_5b/pool_proj
I0907 14:20:02.829669 96963 net.cpp:163] Top shape: 32 128 7 7 (200704)
I0907 14:20:02.829679 96963 layer_factory.hpp:76] Creating layer inception_5b/relu_pool_proj
I0907 14:20:02.829685 96963 net.cpp:110] Creating Layer inception_5b/relu_pool_proj
I0907 14:20:02.829690 96963 net.cpp:477] inception_5b/relu_pool_proj <- inception_5b/pool_proj
I0907 14:20:02.829695 96963 net.cpp:419] inception_5b/relu_pool_proj -> inception_5b/pool_proj (in-place)
I0907 14:20:02.829702 96963 net.cpp:155] Setting up inception_5b/relu_pool_proj
I0907 14:20:02.829707 96963 net.cpp:163] Top shape: 32 128 7 7 (200704)
I0907 14:20:02.829710 96963 layer_factory.hpp:76] Creating layer inception_5b/output
I0907 14:20:02.829717 96963 net.cpp:110] Creating Layer inception_5b/output
I0907 14:20:02.829720 96963 net.cpp:477] inception_5b/output <- inception_5b/1x1
I0907 14:20:02.829725 96963 net.cpp:477] inception_5b/output <- inception_5b/3x3
I0907 14:20:02.829728 96963 net.cpp:477] inception_5b/output <- inception_5b/5x5
I0907 14:20:02.829732 96963 net.cpp:477] inception_5b/output <- inception_5b/pool_proj
I0907 14:20:02.829740 96963 net.cpp:433] inception_5b/output -> inception_5b/output
I0907 14:20:02.829747 96963 net.cpp:155] Setting up inception_5b/output
I0907 14:20:02.829752 96963 net.cpp:163] Top shape: 32 1024 7 7 (1605632)
I0907 14:20:02.829766 96963 layer_factory.hpp:76] Creating layer pool5/7x7_s1
I0907 14:20:02.829773 96963 net.cpp:110] Creating Layer pool5/7x7_s1
I0907 14:20:02.829777 96963 net.cpp:477] pool5/7x7_s1 <- inception_5b/output
I0907 14:20:02.829793 96963 net.cpp:433] pool5/7x7_s1 -> pool5/7x7_s1
I0907 14:20:02.829804 96963 net.cpp:155] Setting up pool5/7x7_s1
I0907 14:20:02.829809 96963 net.cpp:163] Top shape: 32 1024 1 1 (32768)
I0907 14:20:02.829813 96963 layer_factory.hpp:76] Creating layer pool5/drop_7x7_s1
I0907 14:20:02.829820 96963 net.cpp:110] Creating Layer pool5/drop_7x7_s1
I0907 14:20:02.829823 96963 net.cpp:477] pool5/drop_7x7_s1 <- pool5/7x7_s1
I0907 14:20:02.829828 96963 net.cpp:419] pool5/drop_7x7_s1 -> pool5/7x7_s1 (in-place)
I0907 14:20:02.829835 96963 net.cpp:155] Setting up pool5/drop_7x7_s1
I0907 14:20:02.829840 96963 net.cpp:163] Top shape: 32 1024 1 1 (32768)
I0907 14:20:02.829843 96963 layer_factory.hpp:76] Creating layer loss3/classifier_cub
I0907 14:20:02.829854 96963 net.cpp:110] Creating Layer loss3/classifier_cub
I0907 14:20:02.829859 96963 net.cpp:477] loss3/classifier_cub <- pool5/7x7_s1
I0907 14:20:02.829866 96963 net.cpp:433] loss3/classifier_cub -> loss3/classifier
I0907 14:20:02.836875 96963 net.cpp:155] Setting up loss3/classifier_cub
I0907 14:20:02.836901 96963 net.cpp:163] Top shape: 32 200 (6400)
I0907 14:20:02.836911 96963 layer_factory.hpp:76] Creating layer loss3/classifier_loss3/classifier_cub_0_split
I0907 14:20:02.836920 96963 net.cpp:110] Creating Layer loss3/classifier_loss3/classifier_cub_0_split
I0907 14:20:02.836925 96963 net.cpp:477] loss3/classifier_loss3/classifier_cub_0_split <- loss3/classifier
I0907 14:20:02.836932 96963 net.cpp:433] loss3/classifier_loss3/classifier_cub_0_split -> loss3/classifier_loss3/classifier_cub_0_split_0
I0907 14:20:02.836941 96963 net.cpp:433] loss3/classifier_loss3/classifier_cub_0_split -> loss3/classifier_loss3/classifier_cub_0_split_1
I0907 14:20:02.836948 96963 net.cpp:433] loss3/classifier_loss3/classifier_cub_0_split -> loss3/classifier_loss3/classifier_cub_0_split_2
I0907 14:20:02.836956 96963 net.cpp:155] Setting up loss3/classifier_loss3/classifier_cub_0_split
I0907 14:20:02.836961 96963 net.cpp:163] Top shape: 32 200 (6400)
I0907 14:20:02.836964 96963 net.cpp:163] Top shape: 32 200 (6400)
I0907 14:20:02.836968 96963 net.cpp:163] Top shape: 32 200 (6400)
I0907 14:20:02.836972 96963 layer_factory.hpp:76] Creating layer loss3/loss3
I0907 14:20:02.836979 96963 net.cpp:110] Creating Layer loss3/loss3
I0907 14:20:02.836982 96963 net.cpp:477] loss3/loss3 <- loss3/classifier_loss3/classifier_cub_0_split_0
I0907 14:20:02.836987 96963 net.cpp:477] loss3/loss3 <- label_data_1_split_6
I0907 14:20:02.836998 96963 net.cpp:433] loss3/loss3 -> loss3/loss3
…
