…
I0906 15:25:27.142773 89616 net.cpp:339] The NetState phase (0) differed from the phase (1) specified by a rule in layer loss3/top-5
I0906 15:25:27.144994 89616 net.cpp:50] Initializing net from parameters: 
name: "CUBNet"
state {
  phase: TRAIN
}
layer {
  name: "data"
  type: "ImageData"
  top: "data"
  top: "label"
  include {
    phase: TRAIN
  }
  transform_param {
    mirror: true
    crop_size: 224
    mean_value: 104
    mean_value: 117
    mean_value: 123
  }
  image_data_param {
    source: "data/CUB_200_2011/train_files.txt"
    batch_size: 32
    shuffle: true
    new_height: 256
    new_width: 256
  }
}
layer {
  name: "conv1/7x7_s2"
  type: "Convolution"
  bottom: "data"
  top: "conv1/7x7_s2"
  param {
    lr_mult: 1
    decay_mult: 1
  }
  param {
    lr_mult: 2
    decay_mult: 0
  }
  convolution_param {
    num_output: 64
    pad: 3
    kernel_size: 7
    stride: 2
    weight_filler {
      type: "xavier"
      std: 0.1
    }
    bias_filler {
      type: "constant"
      value: 0.2
    }
  }
}
layer {
  name: "conv1/relu_7x7"
  type: "ReLU"
  bottom: "conv1/7x7_s2"
  top: "conv1/7x7_s2"
}
layer {
  name: "pool1/3x3_s2"
  type: "Pooling"
  bottom: "conv1/7x7_s2"
  top: "pool1/3x3_s2"
  pooling_param {
    pool: MAX
    kernel_size: 3
    stride: 2
  }
}
layer {
  name: "pool1/norm1"
  type: "LRN"
  bottom: "pool1/3x3_s2"
  top: "pool1/norm1"
  lrn_param {
    local_size: 5
    alpha: 0.0001
    beta: 0.75
  }
}
layer {
  name: "conv2/3x3_reduce"
  type: "Convolution"
  bottom: "pool1/norm1"
  top: "conv2/3x3_reduce"
  param {
    lr_mult: 1
    decay_mult: 1
  }
  param {
    lr_mult: 2
    decay_mult: 0
  }
  convolution_param {
    num_output: 64
    kernel_size: 1
    weight_filler {
      type: "xavier"
      std: 0.1
    }
    bias_filler {
      type: "constant"
      value: 0.2
    }
  }
}
layer {
  name: "conv2/relu_3x3_reduce"
  type: "ReLU"
  bottom: "conv2/3x3_reduce"
  top: "conv2/3x3_reduce"
}
layer {
  name: "conv2/3x3"
  type: "Convolution"
  bottom: "conv2/3x3_reduce"
  top: "conv2/3x3"
  param {
    lr_mult: 1
    decay_mult: 1
  }
  param {
    lr_mult: 2
    decay_mult: 0
  }
  convolution_param {
    num_output: 192
    pad: 1
    kernel_size: 3
    weight_filler {
      type: "xavier"
      std: 0.03
    }
    bias_filler {
      type: "constant"
      value: 0.2
    }
  }
}
layer {
  name: "conv2/relu_3x3"
  type: "ReLU"
  bottom: "conv2/3x3"
  top: "conv2/3x3"
}
layer {
  name: "conv2/norm2"
  type: "LRN"
  bottom: "conv2/3x3"
  top: "conv2/norm2"
  lrn_param {
    local_size: 5
    alpha: 0.0001
    beta: 0.75
  }
}
layer {
  name: "pool2/3x3_s2"
  type: "Pooling"
  bottom: "conv2/norm2"
  top: "pool2/3x3_s2"
  pooling_param {
    pool: MAX
    kernel_size: 3
    stride: 2
  }
}
layer {
  name: "inception_3a/1x1"
  type: "Convolution"
  bottom: "pool2/3x3_s2"
  top: "inception_3a/1x1"
  param {
    lr_mult: 1
    decay_mult: 1
  }
  param {
    lr_mult: 2
    decay_mult: 0
  }
  convolution_param {
    num_output: 64
    kernel_size: 1
    weight_filler {
      type: "xavier"
      std: 0.03
    }
    bias_filler {
      type: "constant"
      value: 0.2
    }
  }
}
layer {
  name: "inception_3a/relu_1x1"
  type: "ReLU"
  bottom: "inception_3a/1x1"
  top: "inception_3a/1x1"
}
layer {
  name: "inception_3a/3x3_reduce"
  type: "Convolution"
  bottom: "pool2/3x3_s2"
  top: "inception_3a/3x3_reduce"
  param {
    lr_mult: 1
    decay_mult: 1
  }
  param {
    lr_mult: 2
    decay_mult: 0
  }
  convolution_param {
    num_output: 96
    kernel_size: 1
    weight_filler {
      type: "xavier"
      std: 0.09
    }
    bias_filler {
      type: "constant"
      value: 0.2
    }
  }
}
layer {
  name: "inception_3a/relu_3x3_reduce"
  type: "ReLU"
  bottom: "inception_3a/3x3_reduce"
  top: "inception_3a/3x3_reduce"
}
layer {
  name: "inception_3a/3x3"
  type: "Convolution"
  bottom: "inception_3a/3x3_reduce"
  top: "inception_3a/3x3"
  param {
    lr_mult: 1
    decay_mult: 1
  }
  param {
    lr_mult: 2
    decay_mult: 0
  }
  convolution_param {
    num_output: 128
    pad: 1
    kernel_size: 3
    weight_filler {
      type: "xavier"
      std: 0.03
    }
    bias_filler {
      type: "constant"
      value: 0.2
    }
  }
}
layer {
  name: "inception_3a/relu_3x3"
  type: "ReLU"
  bottom: "inception_3a/3x3"
  top: "inception_3a/3x3"
}
layer {
  name: "inception_3a/5x5_reduce"
  type: "Convolution"
  bottom: "pool2/3x3_s2"
  top: "inception_3a/5x5_reduce"
  param {
    lr_mult: 1
    decay_mult: 1
  }
  param {
    lr_mult: 2
    decay_mult: 0
  }
  convolution_param {
    num_output: 16
    kernel_size: 1
    weight_filler {
      type: "xavier"
      std: 0.2
    }
    bias_filler {
      type: "constant"
      value: 0.2
    }
  }
}
layer {
  name: "inception_3a/relu_5x5_reduce"
  type: "ReLU"
  bottom: "inception_3a/5x5_reduce"
  top: "inception_3a/5x5_reduce"
}
layer {
  name: "inception_3a/5x5"
  type: "Convolution"
  bottom: "inception_3a/5x5_reduce"
  top: "inception_3a/5x5"
  param {
    lr_mult: 1
    decay_mult: 1
  }
  param {
    lr_mult: 2
    decay_mult: 0
  }
  convolution_param {
    num_output: 32
    pad: 2
    kernel_size: 5
    weight_filler {
      type: "xavier"
      std: 0.03
    }
    bias_filler {
      type: "constant"
      value: 0.2
    }
  }
}
layer {
  name: "inception_3a/relu_5x5"
  type: "ReLU"
  bottom: "inception_3a/5x5"
  top: "inception_3a/5x5"
}
layer {
  name: "inception_3a/pool"
  type: "Pooling"
  bottom: "pool2/3x3_s2"
  top: "inception_3a/pool"
  pooling_param {
    pool: MAX
    kernel_size: 3
    stride: 1
    pad: 1
  }
}
layer {
  name: "inception_3a/pool_proj"
  type: "Convolution"
  bottom: "inception_3a/pool"
  top: "inception_3a/pool_proj"
  param {
    lr_mult: 1
    decay_mult: 1
  }
  param {
    lr_mult: 2
    decay_mult: 0
  }
  convolution_param {
    num_output: 32
    kernel_size: 1
    weight_filler {
      type: "xavier"
      std: 0.1
    }
    bias_filler {
      type: "constant"
      value: 0.2
    }
  }
}
layer {
  name: "inception_3a/relu_pool_proj"
  type: "ReLU"
  bottom: "inception_3a/pool_proj"
  top: "inception_3a/pool_proj"
}
layer {
  name: "inception_3a/output"
  type: "Concat"
  bottom: "inception_3a/1x1"
  bottom: "inception_3a/3x3"
  bottom: "inception_3a/5x5"
  bottom: "inception_3a/pool_proj"
  top: "inception_3a/output"
}
layer {
  name: "inception_3b/1x1"
  type: "Convolution"
  bottom: "inception_3a/output"
  top: "inception_3b/1x1"
  param {
    lr_mult: 1
    decay_mult: 1
  }
  param {
    lr_mult: 2
    decay_mult: 0
  }
  convolution_param {
    num_output: 128
    kernel_size: 1
    weight_filler {
      type: "xavier"
      std: 0.03
    }
    bias_filler {
      type: "constant"
      value: 0.2
    }
  }
}
layer {
  name: "inception_3b/relu_1x1"
  type: "ReLU"
  bottom: "inception_3b/1x1"
  top: "inception_3b/1x1"
}
layer {
  name: "inception_3b/3x3_reduce"
  type: "Convolution"
  bottom: "inception_3a/output"
  top: "inception_3b/3x3_reduce"
  param {
    lr_mult: 1
    decay_mult: 1
  }
  param {
    lr_mult: 2
    decay_mult: 0
  }
  convolution_param {
    num_output: 128
    kernel_size: 1
    weight_filler {
      type: "xavier"
      std: 0.09
    }
    bias_filler {
      type: "constant"
      value: 0.2
    }
  }
}
layer {
  name: "inception_3b/relu_3x3_reduce"
  type: "ReLU"
  bottom: "inception_3b/3x3_reduce"
  top: "inception_3b/3x3_reduce"
}
layer {
  name: "inception_3b/3x3"
  type: "Convolution"
  bottom: "inception_3b/3x3_reduce"
  top: "inception_3b/3x3"
  param {
    lr_mult: 1
    decay_mult: 1
  }
  param {
    lr_mult: 2
    decay_mult: 0
  }
  convolution_param {
    num_output: 192
    pad: 1
    kernel_size: 3
    weight_filler {
      type: "xavier"
      std: 0.03
    }
    bias_filler {
      type: "constant"
      value: 0.2
    }
  }
}
layer {
  name: "inception_3b/relu_3x3"
  type: "ReLU"
  bottom: "inception_3b/3x3"
  top: "inception_3b/3x3"
}
layer {
  name: "inception_3b/5x5_reduce"
  type: "Convolution"
  bottom: "inception_3a/output"
  top: "inception_3b/5x5_reduce"
  param {
    lr_mult: 1
    decay_mult: 1
  }
  param {
    lr_mult: 2
    decay_mult: 0
  }
  convolution_param {
    num_output: 32
    kernel_size: 1
    weight_filler {
      type: "xavier"
      std: 0.2
    }
    bias_filler {
      type: "constant"
      value: 0.2
    }
  }
}
layer {
  name: "inception_3b/relu_5x5_reduce"
  type: "ReLU"
  bottom: "inception_3b/5x5_reduce"
  top: "inception_3b/5x5_reduce"
}
layer {
  name: "inception_3b/5x5"
  type: "Convolution"
  bottom: "inception_3b/5x5_reduce"
  top: "inception_3b/5x5"
  param {
    lr_mult: 1
    decay_mult: 1
  }
  param {
    lr_mult: 2
    decay_mult: 0
  }
  convolution_param {
    num_output: 96
    pad: 2
    kernel_size: 5
    weight_filler {
      type: "xavier"
      std: 0.03
    }
    bias_filler {
      type: "constant"
      value: 0.2
    }
  }
}
layer {
  name: "inception_3b/relu_5x5"
  type: "ReLU"
  bottom: "inception_3b/5x5"
  top: "inception_3b/5x5"
}
layer {
  name: "inception_3b/pool"
  type: "Pooling"
  bottom: "inception_3a/output"
  top: "inception_3b/pool"
  pooling_param {
    pool: MAX
    kernel_size: 3
    stride: 1
    pad: 1
  }
}
layer {
  name: "inception_3b/pool_proj"
  type: "Convolution"
  bottom: "inception_3b/pool"
  top: "inception_3b/pool_proj"
  param {
    lr_mult: 1
    decay_mult: 1
  }
  param {
    lr_mult: 2
    decay_mult: 0
  }
  convolution_param {
    num_output: 64
    kernel_size: 1
    weight_filler {
      type: "xavier"
      std: 0.1
    }
    bias_filler {
      type: "constant"
      value: 0.2
    }
  }
}
layer {
  name: "inception_3b/relu_pool_proj"
  type: "ReLU"
  bottom: "inception_3b/pool_proj"
  top: "inception_3b/pool_proj"
}
layer {
  name: "inception_3b/output"
  type: "Concat"
  bottom: "inception_3b/1x1"
  bottom: "inception_3b/3x3"
  bottom: "inception_3b/5x5"
  bottom: "inception_3b/pool_proj"
  top: "inception_3b/output"
}
layer {
  name: "pool3/3x3_s2"
  type: "Pooling"
  bottom: "inception_3b/output"
  top: "pool3/3x3_s2"
  pooling_param {
    pool: MAX
    kernel_size: 3
    stride: 2
  }
}
layer {
  name: "inception_4a/1x1"
  type: "Convolution"
  bottom: "pool3/3x3_s2"
  top: "inception_4a/1x1"
  param {
    lr_mult: 1
    decay_mult: 1
  }
  param {
    lr_mult: 2
    decay_mult: 0
  }
  convolution_param {
    num_output: 192
    kernel_size: 1
    weight_filler {
      type: "xavier"
      std: 0.03
    }
    bias_filler {
      type: "constant"
      value: 0.2
    }
  }
}
layer {
  name: "inception_4a/relu_1x1"
  type: "ReLU"
  bottom: "inception_4a/1x1"
  top: "inception_4a/1x1"
}
layer {
  name: "inception_4a/3x3_reduce"
  type: "Convolution"
  bottom: "pool3/3x3_s2"
  top: "inception_4a/3x3_reduce"
  param {
    lr_mult: 1
    decay_mult: 1
  }
  param {
    lr_mult: 2
    decay_mult: 0
  }
  convolution_param {
    num_output: 96
    kernel_size: 1
    weight_filler {
      type: "xavier"
      std: 0.09
    }
    bias_filler {
      type: "constant"
      value: 0.2
    }
  }
}
layer {
  name: "inception_4a/relu_3x3_reduce"
  type: "ReLU"
  bottom: "inception_4a/3x3_reduce"
  top: "inception_4a/3x3_reduce"
}
layer {
  name: "inception_4a/3x3"
  type: "Convolution"
  bottom: "inception_4a/3x3_reduce"
  top: "inception_4a/3x3"
  param {
    lr_mult: 1
    decay_mult: 1
  }
  param {
    lr_mult: 2
    decay_mult: 0
  }
  convolution_param {
    num_output: 208
    pad: 1
    kernel_size: 3
    weight_filler {
      type: "xavier"
      std: 0.03
    }
    bias_filler {
      type: "constant"
      value: 0.2
    }
  }
}
layer {
  name: "inception_4a/relu_3x3"
  type: "ReLU"
  bottom: "inception_4a/3x3"
  top: "inception_4a/3x3"
}
layer {
  name: "inception_4a/5x5_reduce"
  type: "Convolution"
  bottom: "pool3/3x3_s2"
  top: "inception_4a/5x5_reduce"
  param {
    lr_mult: 1
    decay_mult: 1
  }
  param {
    lr_mult: 2
    decay_mult: 0
  }
  convolution_param {
    num_output: 16
    kernel_size: 1
    weight_filler {
      type: "xavier"
      std: 0.2
    }
    bias_filler {
      type: "constant"
      value: 0.2
    }
  }
}
layer {
  name: "inception_4a/relu_5x5_reduce"
  type: "ReLU"
  bottom: "inception_4a/5x5_reduce"
  top: "inception_4a/5x5_reduce"
}
layer {
  name: "inception_4a/5x5"
  type: "Convolution"
  bottom: "inception_4a/5x5_reduce"
  top: "inception_4a/5x5"
  param {
    lr_mult: 1
    decay_mult: 1
  }
  param {
    lr_mult: 2
    decay_mult: 0
  }
  convolution_param {
    num_output: 48
    pad: 2
    kernel_size: 5
    weight_filler {
      type: "xavier"
      std: 0.03
    }
    bias_filler {
      type: "constant"
      value: 0.2
    }
  }
}
layer {
  name: "inception_4a/relu_5x5"
  type: "ReLU"
  bottom: "inception_4a/5x5"
  top: "inception_4a/5x5"
}
layer {
  name: "inception_4a/pool"
  type: "Pooling"
  bottom: "pool3/3x3_s2"
  top: "inception_4a/pool"
  pooling_param {
    pool: MAX
    kernel_size: 3
    stride: 1
    pad: 1
  }
}
layer {
  name: "inception_4a/pool_proj"
  type: "Convolution"
  bottom: "inception_4a/pool"
  top: "inception_4a/pool_proj"
  param {
    lr_mult: 1
    decay_mult: 1
  }
  param {
    lr_mult: 2
    decay_mult: 0
  }
  convolution_param {
    num_output: 64
    kernel_size: 1
    weight_filler {
      type: "xavier"
      std: 0.1
    }
    bias_filler {
      type: "constant"
      value: 0.2
    }
  }
}
layer {
  name: "inception_4a/relu_pool_proj"
  type: "ReLU"
  bottom: "inception_4a/pool_proj"
  top: "inception_4a/pool_proj"
}
layer {
  name: "inception_4a/output"
  type: "Concat"
  bottom: "inception_4a/1x1"
  bottom: "inception_4a/3x3"
  bottom: "inception_4a/5x5"
  bottom: "inception_4a/pool_proj"
  top: "inception_4a/output"
}
layer {
  name: "loss1/ave_pool"
  type: "Pooling"
  bottom: "inception_4a/output"
  top: "loss1/ave_pool"
  pooling_param {
    pool: AVE
    kernel_size: 5
    stride: 3
  }
}
layer {
  name: "loss1/conv"
  type: "Convolution"
  bottom: "loss1/ave_pool"
  top: "loss1/conv"
  param {
    lr_mult: 1
    decay_mult: 1
  }
  param {
    lr_mult: 2
    decay_mult: 0
  }
  convolution_param {
    num_output: 128
    kernel_size: 1
    weight_filler {
      type: "xavier"
      std: 0.08
    }
    bias_filler {
      type: "constant"
      value: 0.2
    }
  }
}
layer {
  name: "loss1/relu_conv"
  type: "ReLU"
  bottom: "loss1/conv"
  top: "loss1/conv"
}
layer {
  name: "loss1/fc"
  type: "InnerProduct"
  bottom: "loss1/conv"
  top: "loss1/fc"
  param {
    lr_mult: 1
    decay_mult: 1
  }
  param {
    lr_mult: 2
    decay_mult: 0
  }
  inner_product_param {
    num_output: 1024
    weight_filler {
      type: "xavier"
      std: 0.02
    }
    bias_filler {
      type: "constant"
      value: 0.2
    }
  }
}
layer {
  name: "loss1/relu_fc"
  type: "ReLU"
  bottom: "loss1/fc"
  top: "loss1/fc"
}
layer {
  name: "loss1/drop_fc"
  type: "Dropout"
  bottom: "loss1/fc"
  top: "loss1/fc"
  dropout_param {
    dropout_ratio: 0.7
  }
}
layer {
  name: "loss1/classifier_cub"
  type: "InnerProduct"
  bottom: "loss1/fc"
  top: "loss1/classifier"
  param {
    lr_mult: 1
    decay_mult: 1
  }
  param {
    lr_mult: 2
    decay_mult: 0
  }
  inner_product_param {
    num_output: 200
    weight_filler {
      type: "gaussian"
      std: 1e-05
    }
    bias_filler {
      type: "constant"
      value: 0
    }
  }
}
layer {
  name: "loss1/loss"
  type: "SoftmaxWithLoss"
  bottom: "loss1/classifier"
  bottom: "label"
  top: "loss1/loss1"
  loss_weight: 0.3
}
layer {
  name: "inception_4b/1x1"
  type: "Convolution"
  bottom: "inception_4a/output"
  top: "inception_4b/1x1"
  param {
    lr_mult: 1
    decay_mult: 1
  }
  param {
    lr_mult: 2
    decay_mult: 0
  }
  convolution_param {
    num_output: 160
    kernel_size: 1
    weight_filler {
      type: "xavier"
      std: 0.03
    }
    bias_filler {
      type: "constant"
      value: 0.2
    }
  }
}
layer {
  name: "inception_4b/relu_1x1"
  type: "ReLU"
  bottom: "inception_4b/1x1"
  top: "inception_4b/1x1"
}
layer {
  name: "inception_4b/3x3_reduce"
  type: "Convolution"
  bottom: "inception_4a/output"
  top: "inception_4b/3x3_reduce"
  param {
    lr_mult: 1
    decay_mult: 1
  }
  param {
    lr_mult: 2
    decay_mult: 0
  }
  convolution_param {
    num_output: 112
    kernel_size: 1
    weight_filler {
      type: "xavier"
      std: 0.09
    }
    bias_filler {
      type: "constant"
      value: 0.2
    }
  }
}
layer {
  name: "inception_4b/relu_3x3_reduce"
  type: "ReLU"
  bottom: "inception_4b/3x3_reduce"
  top: "inception_4b/3x3_reduce"
}
layer {
  name: "inception_4b/3x3"
  type: "Convolution"
  bottom: "inception_4b/3x3_reduce"
  top: "inception_4b/3x3"
  param {
    lr_mult: 1
    decay_mult: 1
  }
  param {
    lr_mult: 2
    decay_mult: 0
  }
  convolution_param {
    num_output: 224
    pad: 1
    kernel_size: 3
    weight_filler {
      type: "xavier"
      std: 0.03
    }
    bias_filler {
      type: "constant"
      value: 0.2
    }
  }
}
layer {
  name: "inception_4b/relu_3x3"
  type: "ReLU"
  bottom: "inception_4b/3x3"
  top: "inception_4b/3x3"
}
layer {
  name: "inception_4b/5x5_reduce"
  type: "Convolution"
  bottom: "inception_4a/output"
  top: "inception_4b/5x5_reduce"
  param {
    lr_mult: 1
    decay_mult: 1
  }
  param {
    lr_mult: 2
    decay_mult: 0
  }
  convolution_param {
    num_output: 24
    kernel_size: 1
    weight_filler {
      type: "xavier"
      std: 0.2
    }
    bias_filler {
      type: "constant"
      value: 0.2
    }
  }
}
layer {
  name: "inception_4b/relu_5x5_reduce"
  type: "ReLU"
  bottom: "inception_4b/5x5_reduce"
  top: "inception_4b/5x5_reduce"
}
layer {
  name: "inception_4b/5x5"
  type: "Convolution"
  bottom: "inception_4b/5x5_reduce"
  top: "inception_4b/5x5"
  param {
    lr_mult: 1
    decay_mult: 1
  }
  param {
    lr_mult: 2
    decay_mult: 0
  }
  convolution_param {
    num_output: 64
    pad: 2
    kernel_size: 5
    weight_filler {
      type: "xavier"
      std: 0.03
    }
    bias_filler {
      type: "constant"
      value: 0.2
    }
  }
}
layer {
  name: "inception_4b/relu_5x5"
  type: "ReLU"
  bottom: "inception_4b/5x5"
  top: "inception_4b/5x5"
}
layer {
  name: "inception_4b/pool"
  type: "Pooling"
  bottom: "inception_4a/output"
  top: "inception_4b/pool"
  pooling_param {
    pool: MAX
    kernel_size: 3
    stride: 1
    pad: 1
  }
}
layer {
  name: "inception_4b/pool_proj"
  type: "Convolution"
  bottom: "inception_4b/pool"
  top: "inception_4b/pool_proj"
  param {
    lr_mult: 1
    decay_mult: 1
  }
  param {
    lr_mult: 2
    decay_mult: 0
  }
  convolution_param {
    num_output: 64
    kernel_size: 1
    weight_filler {
      type: "xavier"
      std: 0.1
    }
    bias_filler {
      type: "constant"
      value: 0.2
    }
  }
}
layer {
  name: "inception_4b/relu_pool_proj"
  type: "ReLU"
  bottom: "inception_4b/pool_proj"
  top: "inception_4b/pool_proj"
}
layer {
  name: "inception_4b/output"
  type: "Concat"
  bottom: "inception_4b/1x1"
  bottom: "inception_4b/3x3"
  bottom: "inception_4b/5x5"
  bottom: "inception_4b/pool_proj"
  top: "inception_4b/output"
}
layer {
  name: "inception_4c/1x1"
  type: "Convolution"
  bottom: "inception_4b/output"
  top: "inception_4c/1x1"
  param {
    lr_mult: 1
    decay_mult: 1
  }
  param {
    lr_mult: 2
    decay_mult: 0
  }
  convolution_param {
    num_output: 128
    kernel_size: 1
    weight_filler {
      type: "xavier"
      std: 0.03
    }
    bias_filler {
      type: "constant"
      value: 0.2
    }
  }
}
layer {
  name: "inception_4c/relu_1x1"
  type: "ReLU"
  bottom: "inception_4c/1x1"
  top: "inception_4c/1x1"
}
layer {
  name: "inception_4c/3x3_reduce"
  type: "Convolution"
  bottom: "inception_4b/output"
  top: "inception_4c/3x3_reduce"
  param {
    lr_mult: 1
    decay_mult: 1
  }
  param {
    lr_mult: 2
    decay_mult: 0
  }
  convolution_param {
    num_output: 128
    kernel_size: 1
    weight_filler {
      type: "xavier"
      std: 0.09
    }
    bias_filler {
      type: "constant"
      value: 0.2
    }
  }
}
layer {
  name: "inception_4c/relu_3x3_reduce"
  type: "ReLU"
  bottom: "inception_4c/3x3_reduce"
  top: "inception_4c/3x3_reduce"
}
layer {
  name: "inception_4c/3x3"
  type: "Convolution"
  bottom: "inception_4c/3x3_reduce"
  top: "inception_4c/3x3"
  param {
    lr_mult: 1
    decay_mult: 1
  }
  param {
    lr_mult: 2
    decay_mult: 0
  }
  convolution_param {
    num_output: 256
    pad: 1
    kernel_size: 3
    weight_filler {
      type: "xavier"
      std: 0.03
    }
    bias_filler {
      type: "constant"
      value: 0.2
    }
  }
}
layer {
  name: "inception_4c/relu_3x3"
  type: "ReLU"
  bottom: "inception_4c/3x3"
  top: "inception_4c/3x3"
}
layer {
  name: "inception_4c/5x5_reduce"
  type: "Convolution"
  bottom: "inception_4b/output"
  top: "inception_4c/5x5_reduce"
  param {
    lr_mult: 1
    decay_mult: 1
  }
  param {
    lr_mult: 2
    decay_mult: 0
  }
  convolution_param {
    num_output: 24
    kernel_size: 1
    weight_filler {
      type: "xavier"
      std: 0.2
    }
    bias_filler {
      type: "constant"
      value: 0.2
    }
  }
}
layer {
  name: "inception_4c/relu_5x5_reduce"
  type: "ReLU"
  bottom: "inception_4c/5x5_reduce"
  top: "inception_4c/5x5_reduce"
}
layer {
  name: "inception_4c/5x5"
  type: "Convolution"
  bottom: "inception_4c/5x5_reduce"
  top: "inception_4c/5x5"
  param {
    lr_mult: 1
    decay_mult: 1
  }
  param {
    lr_mult: 2
    decay_mult: 0
  }
  convolution_param {
    num_output: 64
    pad: 2
    kernel_size: 5
    weight_filler {
      type: "xavier"
      std: 0.03
    }
    bias_filler {
      type: "constant"
      value: 0.2
    }
  }
}
layer {
  name: "inception_4c/relu_5x5"
  type: "ReLU"
  bottom: "inception_4c/5x5"
  top: "inception_4c/5x5"
}
layer {
  name: "inception_4c/pool"
  type: "Pooling"
  bottom: "inception_4b/output"
  top: "inception_4c/pool"
  pooling_param {
    pool: MAX
    kernel_size: 3
    stride: 1
    pad: 1
  }
}
layer {
  name: "inception_4c/pool_proj"
  type: "Convolution"
  bottom: "inception_4c/pool"
  top: "inception_4c/pool_proj"
  param {
    lr_mult: 1
    decay_mult: 1
  }
  param {
    lr_mult: 2
    decay_mult: 0
  }
  convolution_param {
    num_output: 64
    kernel_size: 1
    weight_filler {
      type: "xavier"
      std: 0.1
    }
    bias_filler {
      type: "constant"
      value: 0.2
    }
  }
}
layer {
  name: "inception_4c/relu_pool_proj"
  type: "ReLU"
  bottom: "inception_4c/pool_proj"
  top: "inception_4c/pool_proj"
}
layer {
  name: "inception_4c/output"
  type: "Concat"
  bottom: "inception_4c/1x1"
  bottom: "inception_4c/3x3"
  bottom: "inception_4c/5x5"
  bottom: "inception_4c/pool_proj"
  top: "inception_4c/output"
}
layer {
  name: "inception_4d/1x1"
  type: "Convolution"
  bottom: "inception_4c/output"
  top: "inception_4d/1x1"
  param {
    lr_mult: 1
    decay_mult: 1
  }
  param {
    lr_mult: 2
    decay_mult: 0
  }
  convolution_param {
    num_output: 112
    kernel_size: 1
    weight_filler {
      type: "xavier"
      std: 0.03
    }
    bias_filler {
      type: "constant"
      value: 0.2
    }
  }
}
layer {
  name: "inception_4d/relu_1x1"
  type: "ReLU"
  bottom: "inception_4d/1x1"
  top: "inception_4d/1x1"
}
layer {
  name: "inception_4d/3x3_reduce"
  type: "Convolution"
  bottom: "inception_4c/output"
  top: "inception_4d/3x3_reduce"
  param {
    lr_mult: 1
    decay_mult: 1
  }
  param {
    lr_mult: 2
    decay_mult: 0
  }
  convolution_param {
    num_output: 144
    kernel_size: 1
    weight_filler {
      type: "xavier"
      std: 0.09
    }
    bias_filler {
      type: "constant"
      value: 0.2
    }
  }
}
layer {
  name: "inception_4d/relu_3x3_reduce"
  type: "ReLU"
  bottom: "inception_4d/3x3_reduce"
  top: "inception_4d/3x3_reduce"
}
layer {
  name: "inception_4d/3x3"
  type: "Convolution"
  bottom: "inception_4d/3x3_reduce"
  top: "inception_4d/3x3"
  param {
    lr_mult: 1
    decay_mult: 1
  }
  param {
    lr_mult: 2
    decay_mult: 0
  }
  convolution_param {
    num_output: 288
    pad: 1
    kernel_size: 3
    weight_filler {
      type: "xavier"
      std: 0.03
    }
    bias_filler {
      type: "constant"
      value: 0.2
    }
  }
}
layer {
  name: "inception_4d/relu_3x3"
  type: "ReLU"
  bottom: "inception_4d/3x3"
  top: "inception_4d/3x3"
}
layer {
  name: "inception_4d/5x5_reduce"
  type: "Convolution"
  bottom: "inception_4c/output"
  top: "inception_4d/5x5_reduce"
  param {
    lr_mult: 1
    decay_mult: 1
  }
  param {
    lr_mult: 2
    decay_mult: 0
  }
  convolution_param {
    num_output: 32
    kernel_size: 1
    weight_filler {
      type: "xavier"
      std: 0.2
    }
    bias_filler {
      type: "constant"
      value: 0.2
    }
  }
}
layer {
  name: "inception_4d/relu_5x5_reduce"
  type: "ReLU"
  bottom: "inception_4d/5x5_reduce"
  top: "inception_4d/5x5_reduce"
}
layer {
  name: "inception_4d/5x5"
  type: "Convolution"
  bottom: "inception_4d/5x5_reduce"
  top: "inception_4d/5x5"
  param {
    lr_mult: 1
    decay_mult: 1
  }
  param {
    lr_mult: 2
    decay_mult: 0
  }
  convolution_param {
    num_output: 64
    pad: 2
    kernel_size: 5
    weight_filler {
      type: "xavier"
      std: 0.03
    }
    bias_filler {
      type: "constant"
      value: 0.2
    }
  }
}
layer {
  name: "inception_4d/relu_5x5"
  type: "ReLU"
  bottom: "inception_4d/5x5"
  top: "inception_4d/5x5"
}
layer {
  name: "inception_4d/pool"
  type: "Pooling"
  bottom: "inception_4c/output"
  top: "inception_4d/pool"
  pooling_param {
    pool: MAX
    kernel_size: 3
    stride: 1
    pad: 1
  }
}
layer {
  name: "inception_4d/pool_proj"
  type: "Convolution"
  bottom: "inception_4d/pool"
  top: "inception_4d/pool_proj"
  param {
    lr_mult: 1
    decay_mult: 1
  }
  param {
    lr_mult: 2
    decay_mult: 0
  }
  convolution_param {
    num_output: 64
    kernel_size: 1
    weight_filler {
      type: "xavier"
      std: 0.1
    }
    bias_filler {
      type: "constant"
      value: 0.2
    }
  }
}
layer {
  name: "inception_4d/relu_pool_proj"
  type: "ReLU"
  bottom: "inception_4d/pool_proj"
  top: "inception_4d/pool_proj"
}
layer {
  name: "inception_4d/output"
  type: "Concat"
  bottom: "inception_4d/1x1"
  bottom: "inception_4d/3x3"
  bottom: "inception_4d/5x5"
  bottom: "inception_4d/pool_proj"
  top: "inception_4d/output"
}
layer {
  name: "loss2/ave_pool"
  type: "Pooling"
  bottom: "inception_4d/output"
  top: "loss2/ave_pool"
  pooling_param {
    pool: AVE
    kernel_size: 5
    stride: 3
  }
}
layer {
  name: "loss2/conv"
  type: "Convolution"
  bottom: "loss2/ave_pool"
  top: "loss2/conv"
  param {
    lr_mult: 1
    decay_mult: 1
  }
  param {
    lr_mult: 2
    decay_mult: 0
  }
  convolution_param {
    num_output: 128
    kernel_size: 1
    weight_filler {
      type: "xavier"
      std: 0.08
    }
    bias_filler {
      type: "constant"
      value: 0.2
    }
  }
}
layer {
  name: "loss2/relu_conv"
  type: "ReLU"
  bottom: "loss2/conv"
  top: "loss2/conv"
}
layer {
  name: "loss2/fc"
  type: "InnerProduct"
  bottom: "loss2/conv"
  top: "loss2/fc"
  param {
    lr_mult: 1
    decay_mult: 1
  }
  param {
    lr_mult: 2
    decay_mult: 0
  }
  inner_product_param {
    num_output: 1024
    weight_filler {
      type: "xavier"
      std: 0.02
    }
    bias_filler {
      type: "constant"
      value: 0.2
    }
  }
}
layer {
  name: "loss2/relu_fc"
  type: "ReLU"
  bottom: "loss2/fc"
  top: "loss2/fc"
}
layer {
  name: "loss2/drop_fc"
  type: "Dropout"
  bottom: "loss2/fc"
  top: "loss2/fc"
  dropout_param {
    dropout_ratio: 0.7
  }
}
layer {
  name: "loss2/classifier_cub"
  type: "InnerProduct"
  bottom: "loss2/fc"
  top: "loss2/classifier"
  param {
    lr_mult: 1
    decay_mult: 1
  }
  param {
    lr_mult: 2
    decay_mult: 0
  }
  inner_product_param {
    num_output: 200
    weight_filler {
      type: "gaussian"
      std: 1e-05
    }
    bias_filler {
      type: "constant"
      value: 0
    }
  }
}
layer {
  name: "loss2/loss"
  type: "SoftmaxWithLoss"
  bottom: "loss2/classifier"
  bottom: "label"
  top: "loss2/loss1"
  loss_weight: 0.3
}
layer {
  name: "inception_4e/1x1"
  type: "Convolution"
  bottom: "inception_4d/output"
  top: "inception_4e/1x1"
  param {
    lr_mult: 1
    decay_mult: 1
  }
  param {
    lr_mult: 2
    decay_mult: 0
  }
  convolution_param {
    num_output: 256
    kernel_size: 1
    weight_filler {
      type: "xavier"
      std: 0.03
    }
    bias_filler {
      type: "constant"
      value: 0.2
    }
  }
}
layer {
  name: "inception_4e/relu_1x1"
  type: "ReLU"
  bottom: "inception_4e/1x1"
  top: "inception_4e/1x1"
}
layer {
  name: "inception_4e/3x3_reduce"
  type: "Convolution"
  bottom: "inception_4d/output"
  top: "inception_4e/3x3_reduce"
  param {
    lr_mult: 1
    decay_mult: 1
  }
  param {
    lr_mult: 2
    decay_mult: 0
  }
  convolution_param {
    num_output: 160
    kernel_size: 1
    weight_filler {
      type: "xavier"
      std: 0.09
    }
    bias_filler {
      type: "constant"
      value: 0.2
    }
  }
}
layer {
  name: "inception_4e/relu_3x3_reduce"
  type: "ReLU"
  bottom: "inception_4e/3x3_reduce"
  top: "inception_4e/3x3_reduce"
}
layer {
  name: "inception_4e/3x3"
  type: "Convolution"
  bottom: "inception_4e/3x3_reduce"
  top: "inception_4e/3x3"
  param {
    lr_mult: 1
    decay_mult: 1
  }
  param {
    lr_mult: 2
    decay_mult: 0
  }
  convolution_param {
    num_output: 320
    pad: 1
    kernel_size: 3
    weight_filler {
      type: "xavier"
      std: 0.03
    }
    bias_filler {
      type: "constant"
      value: 0.2
    }
  }
}
layer {
  name: "inception_4e/relu_3x3"
  type: "ReLU"
  bottom: "inception_4e/3x3"
  top: "inception_4e/3x3"
}
layer {
  name: "inception_4e/5x5_reduce"
  type: "Convolution"
  bottom: "inception_4d/output"
  top: "inception_4e/5x5_reduce"
  param {
    lr_mult: 1
    decay_mult: 1
  }
  param {
    lr_mult: 2
    decay_mult: 0
  }
  convolution_param {
    num_output: 32
    kernel_size: 1
    weight_filler {
      type: "xavier"
      std: 0.2
    }
    bias_filler {
      type: "constant"
      value: 0.2
    }
  }
}
l
I0906 15:25:27.147742 89616 layer_factory.hpp:76] Creating layer data
I0906 15:25:27.147830 89616 net.cpp:110] Creating Layer data
I0906 15:25:27.147855 89616 net.cpp:433] data -> data
I0906 15:25:27.147905 89616 net.cpp:433] data -> label
I0906 15:25:27.149296 89616 image_data_layer.cpp:36] Opening file data/CUB_200_2011/train_files.txt
I0906 15:25:27.158850 89616 image_data_layer.cpp:46] Shuffling data
I0906 15:25:27.159786 89616 image_data_layer.cpp:51] A total of 5994 images.
I0906 15:25:27.179388 89616 image_data_layer.cpp:78] output data size: 32,3,224,224
I0906 15:25:27.246520 89616 net.cpp:155] Setting up data
I0906 15:25:27.246587 89616 net.cpp:163] Top shape: 32 3 224 224 (4816896)
I0906 15:25:27.246599 89616 net.cpp:163] Top shape: 32 (32)
I0906 15:25:27.246623 89616 layer_factory.hpp:76] Creating layer label_data_1_split
I0906 15:25:27.246656 89616 net.cpp:110] Creating Layer label_data_1_split
I0906 15:25:27.246682 89616 net.cpp:477] label_data_1_split <- label
I0906 15:25:27.246714 89616 net.cpp:433] label_data_1_split -> label_data_1_split_0
I0906 15:25:27.246768 89616 net.cpp:433] label_data_1_split -> label_data_1_split_1
I0906 15:25:27.246783 89616 net.cpp:433] label_data_1_split -> label_data_1_split_2
I0906 15:25:27.246808 89616 net.cpp:155] Setting up label_data_1_split
I0906 15:25:27.246835 89616 net.cpp:163] Top shape: 32 (32)
I0906 15:25:27.246845 89616 net.cpp:163] Top shape: 32 (32)
I0906 15:25:27.246852 89616 net.cpp:163] Top shape: 32 (32)
I0906 15:25:27.246860 89616 layer_factory.hpp:76] Creating layer conv1/7x7_s2
I0906 15:25:27.246891 89616 net.cpp:110] Creating Layer conv1/7x7_s2
I0906 15:25:27.246902 89616 net.cpp:477] conv1/7x7_s2 <- data
I0906 15:25:27.246920 89616 net.cpp:433] conv1/7x7_s2 -> conv1/7x7_s2
I0906 15:25:27.248314 89616 net.cpp:155] Setting up conv1/7x7_s2
I0906 15:25:27.248342 89616 net.cpp:163] Top shape: 32 64 112 112 (25690112)
I0906 15:25:27.248373 89616 layer_factory.hpp:76] Creating layer conv1/relu_7x7
I0906 15:25:27.248392 89616 net.cpp:110] Creating Layer conv1/relu_7x7
I0906 15:25:27.248399 89616 net.cpp:477] conv1/relu_7x7 <- conv1/7x7_s2
I0906 15:25:27.248410 89616 net.cpp:419] conv1/relu_7x7 -> conv1/7x7_s2 (in-place)
I0906 15:25:27.248426 89616 net.cpp:155] Setting up conv1/relu_7x7
I0906 15:25:27.248435 89616 net.cpp:163] Top shape: 32 64 112 112 (25690112)
I0906 15:25:27.248445 89616 layer_factory.hpp:76] Creating layer pool1/3x3_s2
I0906 15:25:27.248459 89616 net.cpp:110] Creating Layer pool1/3x3_s2
I0906 15:25:27.248466 89616 net.cpp:477] pool1/3x3_s2 <- conv1/7x7_s2
I0906 15:25:27.248481 89616 net.cpp:433] pool1/3x3_s2 -> pool1/3x3_s2
I0906 15:25:27.248513 89616 net.cpp:155] Setting up pool1/3x3_s2
I0906 15:25:27.248527 89616 net.cpp:163] Top shape: 32 64 56 56 (6422528)
I0906 15:25:27.248533 89616 layer_factory.hpp:76] Creating layer pool1/norm1
I0906 15:25:27.248551 89616 net.cpp:110] Creating Layer pool1/norm1
I0906 15:25:27.248558 89616 net.cpp:477] pool1/norm1 <- pool1/3x3_s2
I0906 15:25:27.248569 89616 net.cpp:433] pool1/norm1 -> pool1/norm1
I0906 15:25:27.248620 89616 net.cpp:155] Setting up pool1/norm1
I0906 15:25:27.248636 89616 net.cpp:163] Top shape: 32 64 56 56 (6422528)
I0906 15:25:27.248642 89616 layer_factory.hpp:76] Creating layer conv2/3x3_reduce
I0906 15:25:27.248658 89616 net.cpp:110] Creating Layer conv2/3x3_reduce
I0906 15:25:27.248666 89616 net.cpp:477] conv2/3x3_reduce <- pool1/norm1
I0906 15:25:27.248679 89616 net.cpp:433] conv2/3x3_reduce -> conv2/3x3_reduce
I0906 15:25:27.249908 89616 net.cpp:155] Setting up conv2/3x3_reduce
I0906 15:25:27.249936 89616 net.cpp:163] Top shape: 32 64 56 56 (6422528)
I0906 15:25:27.249959 89616 layer_factory.hpp:76] Creating layer conv2/relu_3x3_reduce
I0906 15:25:27.250017 89616 net.cpp:110] Creating Layer conv2/relu_3x3_reduce
I0906 15:25:27.250031 89616 net.cpp:477] conv2/relu_3x3_reduce <- conv2/3x3_reduce
I0906 15:25:27.250046 89616 net.cpp:419] conv2/relu_3x3_reduce -> conv2/3x3_reduce (in-place)
I0906 15:25:27.250061 89616 net.cpp:155] Setting up conv2/relu_3x3_reduce
I0906 15:25:27.250071 89616 net.cpp:163] Top shape: 32 64 56 56 (6422528)
I0906 15:25:27.250079 89616 layer_factory.hpp:76] Creating layer conv2/3x3
I0906 15:25:27.250095 89616 net.cpp:110] Creating Layer conv2/3x3
I0906 15:25:27.250103 89616 net.cpp:477] conv2/3x3 <- conv2/3x3_reduce
I0906 15:25:27.250115 89616 net.cpp:433] conv2/3x3 -> conv2/3x3
I0906 15:25:27.253031 89616 net.cpp:155] Setting up conv2/3x3
I0906 15:25:27.253057 89616 net.cpp:163] Top shape: 32 192 56 56 (19267584)
I0906 15:25:27.253077 89616 layer_factory.hpp:76] Creating layer conv2/relu_3x3
I0906 15:25:27.253090 89616 net.cpp:110] Creating Layer conv2/relu_3x3
I0906 15:25:27.253098 89616 net.cpp:477] conv2/relu_3x3 <- conv2/3x3
I0906 15:25:27.253109 89616 net.cpp:419] conv2/relu_3x3 -> conv2/3x3 (in-place)
I0906 15:25:27.253123 89616 net.cpp:155] Setting up conv2/relu_3x3
I0906 15:25:27.253132 89616 net.cpp:163] Top shape: 32 192 56 56 (19267584)
I0906 15:25:27.253140 89616 layer_factory.hpp:76] Creating layer conv2/norm2
I0906 15:25:27.253151 89616 net.cpp:110] Creating Layer conv2/norm2
I0906 15:25:27.253190 89616 net.cpp:477] conv2/norm2 <- conv2/3x3
I0906 15:25:27.253206 89616 net.cpp:433] conv2/norm2 -> conv2/norm2
I0906 15:25:27.253221 89616 net.cpp:155] Setting up conv2/norm2
I0906 15:25:27.253239 89616 net.cpp:163] Top shape: 32 192 56 56 (19267584)
I0906 15:25:27.253247 89616 layer_factory.hpp:76] Creating layer pool2/3x3_s2
I0906 15:25:27.253259 89616 net.cpp:110] Creating Layer pool2/3x3_s2
I0906 15:25:27.253267 89616 net.cpp:477] pool2/3x3_s2 <- conv2/norm2
I0906 15:25:27.253275 89616 net.cpp:433] pool2/3x3_s2 -> pool2/3x3_s2
I0906 15:25:27.253293 89616 net.cpp:155] Setting up pool2/3x3_s2
I0906 15:25:27.253301 89616 net.cpp:163] Top shape: 32 192 28 28 (4816896)
I0906 15:25:27.253307 89616 layer_factory.hpp:76] Creating layer pool2/3x3_s2_pool2/3x3_s2_0_split
I0906 15:25:27.253319 89616 net.cpp:110] Creating Layer pool2/3x3_s2_pool2/3x3_s2_0_split
I0906 15:25:27.253324 89616 net.cpp:477] pool2/3x3_s2_pool2/3x3_s2_0_split <- pool2/3x3_s2
I0906 15:25:27.253336 89616 net.cpp:433] pool2/3x3_s2_pool2/3x3_s2_0_split -> pool2/3x3_s2_pool2/3x3_s2_0_split_0
I0906 15:25:27.253350 89616 net.cpp:433] pool2/3x3_s2_pool2/3x3_s2_0_split -> pool2/3x3_s2_pool2/3x3_s2_0_split_1
I0906 15:25:27.253361 89616 net.cpp:433] pool2/3x3_s2_pool2/3x3_s2_0_split -> pool2/3x3_s2_pool2/3x3_s2_0_split_2
I0906 15:25:27.253373 89616 net.cpp:433] pool2/3x3_s2_pool2/3x3_s2_0_split -> pool2/3x3_s2_pool2/3x3_s2_0_split_3
I0906 15:25:27.253386 89616 net.cpp:155] Setting up pool2/3x3_s2_pool2/3x3_s2_0_split
I0906 15:25:27.253393 89616 net.cpp:163] Top shape: 32 192 28 28 (4816896)
I0906 15:25:27.253401 89616 net.cpp:163] Top shape: 32 192 28 28 (4816896)
I0906 15:25:27.253409 89616 net.cpp:163] Top shape: 32 192 28 28 (4816896)
I0906 15:25:27.253417 89616 net.cpp:163] Top shape: 32 192 28 28 (4816896)
I0906 15:25:27.253423 89616 layer_factory.hpp:76] Creating layer inception_3a/1x1
I0906 15:25:27.253439 89616 net.cpp:110] Creating Layer inception_3a/1x1
I0906 15:25:27.253445 89616 net.cpp:477] inception_3a/1x1 <- pool2/3x3_s2_pool2/3x3_s2_0_split_0
I0906 15:25:27.253456 89616 net.cpp:433] inception_3a/1x1 -> inception_3a/1x1
I0906 15:25:27.254747 89616 net.cpp:155] Setting up inception_3a/1x1
I0906 15:25:27.254772 89616 net.cpp:163] Top shape: 32 64 28 28 (1605632)
I0906 15:25:27.254787 89616 layer_factory.hpp:76] Creating layer inception_3a/relu_1x1
I0906 15:25:27.254799 89616 net.cpp:110] Creating Layer inception_3a/relu_1x1
I0906 15:25:27.254806 89616 net.cpp:477] inception_3a/relu_1x1 <- inception_3a/1x1
I0906 15:25:27.254817 89616 net.cpp:419] inception_3a/relu_1x1 -> inception_3a/1x1 (in-place)
I0906 15:25:27.254829 89616 net.cpp:155] Setting up inception_3a/relu_1x1
I0906 15:25:27.254837 89616 net.cpp:163] Top shape: 32 64 28 28 (1605632)
I0906 15:25:27.254844 89616 layer_factory.hpp:76] Creating layer inception_3a/3x3_reduce
I0906 15:25:27.254859 89616 net.cpp:110] Creating Layer inception_3a/3x3_reduce
I0906 15:25:27.254866 89616 net.cpp:477] inception_3a/3x3_reduce <- pool2/3x3_s2_pool2/3x3_s2_0_split_1
I0906 15:25:27.254878 89616 net.cpp:433] inception_3a/3x3_reduce -> inception_3a/3x3_reduce
I0906 15:25:27.256286 89616 net.cpp:155] Setting up inception_3a/3x3_reduce
I0906 15:25:27.256311 89616 net.cpp:163] Top shape: 32 96 28 28 (2408448)
I0906 15:25:27.256332 89616 layer_factory.hpp:76] Creating layer inception_3a/relu_3x3_reduce
I0906 15:25:27.256351 89616 net.cpp:110] Creating Layer inception_3a/relu_3x3_reduce
I0906 15:25:27.256359 89616 net.cpp:477] inception_3a/relu_3x3_reduce <- inception_3a/3x3_reduce
I0906 15:25:27.256371 89616 net.cpp:419] inception_3a/relu_3x3_reduce -> inception_3a/3x3_reduce (in-place)
I0906 15:25:27.256384 89616 net.cpp:155] Setting up inception_3a/relu_3x3_reduce
I0906 15:25:27.256393 89616 net.cpp:163] Top shape: 32 96 28 28 (2408448)
I0906 15:25:27.256400 89616 layer_factory.hpp:76] Creating layer inception_3a/3x3
I0906 15:25:27.256413 89616 net.cpp:110] Creating Layer inception_3a/3x3
I0906 15:25:27.256420 89616 net.cpp:477] inception_3a/3x3 <- inception_3a/3x3_reduce
I0906 15:25:27.256455 89616 net.cpp:433] inception_3a/3x3 -> inception_3a/3x3
I0906 15:25:27.258302 89616 net.cpp:155] Setting up inception_3a/3x3
I0906 15:25:27.258321 89616 net.cpp:163] Top shape: 32 128 28 28 (3211264)
I0906 15:25:27.258333 89616 layer_factory.hpp:76] Creating layer inception_3a/relu_3x3
I0906 15:25:27.258344 89616 net.cpp:110] Creating Layer inception_3a/relu_3x3
I0906 15:25:27.258352 89616 net.cpp:477] inception_3a/relu_3x3 <- inception_3a/3x3
I0906 15:25:27.258361 89616 net.cpp:419] inception_3a/relu_3x3 -> inception_3a/3x3 (in-place)
I0906 15:25:27.258379 89616 net.cpp:155] Setting up inception_3a/relu_3x3
I0906 15:25:27.258388 89616 net.cpp:163] Top shape: 32 128 28 28 (3211264)
I0906 15:25:27.258394 89616 layer_factory.hpp:76] Creating layer inception_3a/5x5_reduce
I0906 15:25:27.258410 89616 net.cpp:110] Creating Layer inception_3a/5x5_reduce
I0906 15:25:27.258419 89616 net.cpp:477] inception_3a/5x5_reduce <- pool2/3x3_s2_pool2/3x3_s2_0_split_2
I0906 15:25:27.258430 89616 net.cpp:433] inception_3a/5x5_reduce -> inception_3a/5x5_reduce
I0906 15:25:27.258576 89616 net.cpp:155] Setting up inception_3a/5x5_reduce
I0906 15:25:27.258592 89616 net.cpp:163] Top shape: 32 16 28 28 (401408)
I0906 15:25:27.258604 89616 layer_factory.hpp:76] Creating layer inception_3a/relu_5x5_reduce
I0906 15:25:27.258615 89616 net.cpp:110] Creating Layer inception_3a/relu_5x5_reduce
I0906 15:25:27.258622 89616 net.cpp:477] inception_3a/relu_5x5_reduce <- inception_3a/5x5_reduce
I0906 15:25:27.258632 89616 net.cpp:419] inception_3a/relu_5x5_reduce -> inception_3a/5x5_reduce (in-place)
I0906 15:25:27.258644 89616 net.cpp:155] Setting up inception_3a/relu_5x5_reduce
I0906 15:25:27.258653 89616 net.cpp:163] Top shape: 32 16 28 28 (401408)
I0906 15:25:27.258659 89616 layer_factory.hpp:76] Creating layer inception_3a/5x5
I0906 15:25:27.258671 89616 net.cpp:110] Creating Layer inception_3a/5x5
I0906 15:25:27.258678 89616 net.cpp:477] inception_3a/5x5 <- inception_3a/5x5_reduce
I0906 15:25:27.258692 89616 net.cpp:433] inception_3a/5x5 -> inception_3a/5x5
I0906 15:25:27.258987 89616 net.cpp:155] Setting up inception_3a/5x5
I0906 15:25:27.259002 89616 net.cpp:163] Top shape: 32 32 28 28 (802816)
I0906 15:25:27.259013 89616 layer_factory.hpp:76] Creating layer inception_3a/relu_5x5
I0906 15:25:27.259023 89616 net.cpp:110] Creating Layer inception_3a/relu_5x5
I0906 15:25:27.259030 89616 net.cpp:477] inception_3a/relu_5x5 <- inception_3a/5x5
I0906 15:25:27.259040 89616 net.cpp:419] inception_3a/relu_5x5 -> inception_3a/5x5 (in-place)
I0906 15:25:27.259052 89616 net.cpp:155] Setting up inception_3a/relu_5x5
I0906 15:25:27.259059 89616 net.cpp:163] Top shape: 32 32 28 28 (802816)
I0906 15:25:27.259065 89616 layer_factory.hpp:76] Creating layer inception_3a/pool
I0906 15:25:27.259079 89616 net.cpp:110] Creating Layer inception_3a/pool
I0906 15:25:27.259086 89616 net.cpp:477] inception_3a/pool <- pool2/3x3_s2_pool2/3x3_s2_0_split_3
I0906 15:25:27.259099 89616 net.cpp:433] inception_3a/pool -> inception_3a/pool
I0906 15:25:27.259114 89616 net.cpp:155] Setting up inception_3a/pool
I0906 15:25:27.259124 89616 net.cpp:163] Top shape: 32 192 28 28 (4816896)
I0906 15:25:27.259130 89616 layer_factory.hpp:76] Creating layer inception_3a/pool_proj
I0906 15:25:27.259142 89616 net.cpp:110] Creating Layer inception_3a/pool_proj
I0906 15:25:27.259150 89616 net.cpp:477] inception_3a/pool_proj <- inception_3a/pool
I0906 15:25:27.259181 89616 net.cpp:433] inception_3a/pool_proj -> inception_3a/pool_proj
I0906 15:25:27.259398 89616 net.cpp:155] Setting up inception_3a/pool_proj
I0906 15:25:27.259414 89616 net.cpp:163] Top shape: 32 32 28 28 (802816)
I0906 15:25:27.259435 89616 layer_factory.hpp:76] Creating layer inception_3a/relu_pool_proj
I0906 15:25:27.259456 89616 net.cpp:110] Creating Layer inception_3a/relu_pool_proj
I0906 15:25:27.259464 89616 net.cpp:477] inception_3a/relu_pool_proj <- inception_3a/pool_proj
I0906 15:25:27.259474 89616 net.cpp:419] inception_3a/relu_pool_proj -> inception_3a/pool_proj (in-place)
I0906 15:25:27.259485 89616 net.cpp:155] Setting up inception_3a/relu_pool_proj
I0906 15:25:27.259515 89616 net.cpp:163] Top shape: 32 32 28 28 (802816)
I0906 15:25:27.259522 89616 layer_factory.hpp:76] Creating layer inception_3a/output
I0906 15:25:27.259537 89616 net.cpp:110] Creating Layer inception_3a/output
I0906 15:25:27.259543 89616 net.cpp:477] inception_3a/output <- inception_3a/1x1
I0906 15:25:27.259552 89616 net.cpp:477] inception_3a/output <- inception_3a/3x3
I0906 15:25:27.259560 89616 net.cpp:477] inception_3a/output <- inception_3a/5x5
I0906 15:25:27.259568 89616 net.cpp:477] inception_3a/output <- inception_3a/pool_proj
I0906 15:25:27.259578 89616 net.cpp:433] inception_3a/output -> inception_3a/output
I0906 15:25:27.259598 89616 net.cpp:155] Setting up inception_3a/output
I0906 15:25:27.259618 89616 net.cpp:163] Top shape: 32 256 28 28 (6422528)
I0906 15:25:27.259624 89616 layer_factory.hpp:76] Creating layer inception_3a/output_inception_3a/output_0_split
I0906 15:25:27.259635 89616 net.cpp:110] Creating Layer inception_3a/output_inception_3a/output_0_split
I0906 15:25:27.259644 89616 net.cpp:477] inception_3a/output_inception_3a/output_0_split <- inception_3a/output
I0906 15:25:27.259656 89616 net.cpp:433] inception_3a/output_inception_3a/output_0_split -> inception_3a/output_inception_3a/output_0_split_0
I0906 15:25:27.259680 89616 net.cpp:433] inception_3a/output_inception_3a/output_0_split -> inception_3a/output_inception_3a/output_0_split_1
I0906 15:25:27.259696 89616 net.cpp:433] inception_3a/output_inception_3a/output_0_split -> inception_3a/output_inception_3a/output_0_split_2
I0906 15:25:27.259708 89616 net.cpp:433] inception_3a/output_inception_3a/output_0_split -> inception_3a/output_inception_3a/output_0_split_3
I0906 15:25:27.259723 89616 net.cpp:155] Setting up inception_3a/output_inception_3a/output_0_split
I0906 15:25:27.259732 89616 net.cpp:163] Top shape: 32 256 28 28 (6422528)
I0906 15:25:27.259740 89616 net.cpp:163] Top shape: 32 256 28 28 (6422528)
I0906 15:25:27.259748 89616 net.cpp:163] Top shape: 32 256 28 28 (6422528)
I0906 15:25:27.259755 89616 net.cpp:163] Top shape: 32 256 28 28 (6422528)
I0906 15:25:27.259763 89616 layer_factory.hpp:76] Creating layer inception_3b/1x1
I0906 15:25:27.259778 89616 net.cpp:110] Creating Layer inception_3b/1x1
I0906 15:25:27.259784 89616 net.cpp:477] inception_3b/1x1 <- inception_3a/output_inception_3a/output_0_split_0
I0906 15:25:27.259798 89616 net.cpp:433] inception_3b/1x1 -> inception_3b/1x1
I0906 15:25:27.260411 89616 net.cpp:155] Setting up inception_3b/1x1
I0906 15:25:27.260426 89616 net.cpp:163] Top shape: 32 128 28 28 (3211264)
I0906 15:25:27.260438 89616 layer_factory.hpp:76] Creating layer inception_3b/relu_1x1
I0906 15:25:27.260450 89616 net.cpp:110] Creating Layer inception_3b/relu_1x1
I0906 15:25:27.260457 89616 net.cpp:477] inception_3b/relu_1x1 <- inception_3b/1x1
I0906 15:25:27.260468 89616 net.cpp:419] inception_3b/relu_1x1 -> inception_3b/1x1 (in-place)
I0906 15:25:27.260479 89616 net.cpp:155] Setting up inception_3b/relu_1x1
I0906 15:25:27.260488 89616 net.cpp:163] Top shape: 32 128 28 28 (3211264)
I0906 15:25:27.260495 89616 layer_factory.hpp:76] Creating layer inception_3b/3x3_reduce
I0906 15:25:27.260507 89616 net.cpp:110] Creating Layer inception_3b/3x3_reduce
I0906 15:25:27.260514 89616 net.cpp:477] inception_3b/3x3_reduce <- inception_3a/output_inception_3a/output_0_split_1
I0906 15:25:27.260526 89616 net.cpp:433] inception_3b/3x3_reduce -> inception_3b/3x3_reduce
I0906 15:25:27.261121 89616 net.cpp:155] Setting up inception_3b/3x3_reduce
I0906 15:25:27.261135 89616 net.cpp:163] Top shape: 32 128 28 28 (3211264)
I0906 15:25:27.261147 89616 layer_factory.hpp:76] Creating layer inception_3b/relu_3x3_reduce
I0906 15:25:27.261158 89616 net.cpp:110] Creating Layer inception_3b/relu_3x3_reduce
I0906 15:25:27.261167 89616 net.cpp:477] inception_3b/relu_3x3_reduce <- inception_3b/3x3_reduce
I0906 15:25:27.261176 89616 net.cpp:419] inception_3b/relu_3x3_reduce -> inception_3b/3x3_reduce (in-place)
I0906 15:25:27.261186 89616 net.cpp:155] Setting up inception_3b/relu_3x3_reduce
I0906 15:25:27.261216 89616 net.cpp:163] Top shape: 32 128 28 28 (3211264)
I0906 15:25:27.261225 89616 layer_factory.hpp:76] Creating layer inception_3b/3x3
I0906 15:25:27.261246 89616 net.cpp:110] Creating Layer inception_3b/3x3
I0906 15:25:27.261253 89616 net.cpp:477] inception_3b/3x3 <- inception_3b/3x3_reduce
I0906 15:25:27.261267 89616 net.cpp:433] inception_3b/3x3 -> inception_3b/3x3
I0906 15:25:27.265852 89616 net.cpp:155] Setting up inception_3b/3x3
I0906 15:25:27.265879 89616 net.cpp:163] Top shape: 32 192 28 28 (4816896)
I0906 15:25:27.265893 89616 layer_factory.hpp:76] Creating layer inception_3b/relu_3x3
I0906 15:25:27.265905 89616 net.cpp:110] Creating Layer inception_3b/relu_3x3
I0906 15:25:27.265913 89616 net.cpp:477] inception_3b/relu_3x3 <- inception_3b/3x3
I0906 15:25:27.265924 89616 net.cpp:419] inception_3b/relu_3x3 -> inception_3b/3x3 (in-place)
I0906 15:25:27.265938 89616 net.cpp:155] Setting up inception_3b/relu_3x3
I0906 15:25:27.265945 89616 net.cpp:163] Top shape: 32 192 28 28 (4816896)
I0906 15:25:27.265952 89616 layer_factory.hpp:76] Creating layer inception_3b/5x5_reduce
I0906 15:25:27.265967 89616 net.cpp:110] Creating Layer inception_3b/5x5_reduce
I0906 15:25:27.265974 89616 net.cpp:477] inception_3b/5x5_reduce <- inception_3a/output_inception_3a/output_0_split_2
I0906 15:25:27.265985 89616 net.cpp:433] inception_3b/5x5_reduce -> inception_3b/5x5_reduce
I0906 15:25:27.266217 89616 net.cpp:155] Setting up inception_3b/5x5_reduce
I0906 15:25:27.266232 89616 net.cpp:163] Top shape: 32 32 28 28 (802816)
I0906 15:25:27.266244 89616 layer_factory.hpp:76] Creating layer inception_3b/relu_5x5_reduce
I0906 15:25:27.266254 89616 net.cpp:110] Creating Layer inception_3b/relu_5x5_reduce
I0906 15:25:27.266261 89616 net.cpp:477] inception_3b/relu_5x5_reduce <- inception_3b/5x5_reduce
I0906 15:25:27.266271 89616 net.cpp:419] inception_3b/relu_5x5_reduce -> inception_3b/5x5_reduce (in-place)
I0906 15:25:27.266283 89616 net.cpp:155] Setting up inception_3b/relu_5x5_reduce
I0906 15:25:27.266291 89616 net.cpp:163] Top shape: 32 32 28 28 (802816)
I0906 15:25:27.266301 89616 layer_factory.hpp:76] Creating layer inception_3b/5x5
I0906 15:25:27.266314 89616 net.cpp:110] Creating Layer inception_3b/5x5
I0906 15:25:27.266320 89616 net.cpp:477] inception_3b/5x5 <- inception_3b/5x5_reduce
I0906 15:25:27.266332 89616 net.cpp:433] inception_3b/5x5 -> inception_3b/5x5
I0906 15:25:27.268682 89616 net.cpp:155] Setting up inception_3b/5x5
I0906 15:25:27.268709 89616 net.cpp:163] Top shape: 32 96 28 28 (2408448)
I0906 15:25:27.268723 89616 layer_factory.hpp:76] Creating layer inception_3b/relu_5x5
I0906 15:25:27.268733 89616 net.cpp:110] Creating Layer inception_3b/relu_5x5
I0906 15:25:27.268741 89616 net.cpp:477] inception_3b/relu_5x5 <- inception_3b/5x5
I0906 15:25:27.268753 89616 net.cpp:419] inception_3b/relu_5x5 -> inception_3b/5x5 (in-place)
I0906 15:25:27.268771 89616 net.cpp:155] Setting up inception_3b/relu_5x5
I0906 15:25:27.268779 89616 net.cpp:163] Top shape: 32 96 28 28 (2408448)
I0906 15:25:27.268786 89616 layer_factory.hpp:76] Creating layer inception_3b/pool
I0906 15:25:27.268800 89616 net.cpp:110] Creating Layer inception_3b/pool
I0906 15:25:27.268805 89616 net.cpp:477] inception_3b/pool <- inception_3a/output_inception_3a/output_0_split_3
I0906 15:25:27.268818 89616 net.cpp:433] inception_3b/pool -> inception_3b/pool
I0906 15:25:27.268836 89616 net.cpp:155] Setting up inception_3b/pool
I0906 15:25:27.268844 89616 net.cpp:163] Top shape: 32 256 28 28 (6422528)
I0906 15:25:27.268851 89616 layer_factory.hpp:76] Creating layer inception_3b/pool_proj
I0906 15:25:27.268864 89616 net.cpp:110] Creating Layer inception_3b/pool_proj
I0906 15:25:27.268872 89616 net.cpp:477] inception_3b/pool_proj <- inception_3b/pool
I0906 15:25:27.268883 89616 net.cpp:433] inception_3b/pool_proj -> inception_3b/pool_proj
I0906 15:25:27.269243 89616 net.cpp:155] Setting up inception_3b/pool_proj
I0906 15:25:27.269258 89616 net.cpp:163] Top shape: 32 64 28 28 (1605632)
I0906 15:25:27.269270 89616 layer_factory.hpp:76] Creating layer inception_3b/relu_pool_proj
I0906 15:25:27.269309 89616 net.cpp:110] Creating Layer inception_3b/relu_pool_proj
I0906 15:25:27.269316 89616 net.cpp:477] inception_3b/relu_pool_proj <- inception_3b/pool_proj
I0906 15:25:27.269327 89616 net.cpp:419] inception_3b/relu_pool_proj -> inception_3b/pool_proj (in-place)
I0906 15:25:27.269340 89616 net.cpp:155] Setting up inception_3b/relu_pool_proj
I0906 15:25:27.269351 89616 net.cpp:163] Top shape: 32 64 28 28 (1605632)
I0906 15:25:27.269357 89616 layer_factory.hpp:76] Creating layer inception_3b/output
I0906 15:25:27.269369 89616 net.cpp:110] Creating Layer inception_3b/output
I0906 15:25:27.269376 89616 net.cpp:477] inception_3b/output <- inception_3b/1x1
I0906 15:25:27.269386 89616 net.cpp:477] inception_3b/output <- inception_3b/3x3
I0906 15:25:27.269392 89616 net.cpp:477] inception_3b/output <- inception_3b/5x5
I0906 15:25:27.269400 89616 net.cpp:477] inception_3b/output <- inception_3b/pool_proj
I0906 15:25:27.269410 89616 net.cpp:433] inception_3b/output -> inception_3b/output
I0906 15:25:27.269424 89616 net.cpp:155] Setting up inception_3b/output
I0906 15:25:27.269433 89616 net.cpp:163] Top shape: 32 480 28 28 (12042240)
I0906 15:25:27.269440 89616 layer_factory.hpp:76] Creating layer pool3/3x3_s2
I0906 15:25:27.269454 89616 net.cpp:110] Creating Layer pool3/3x3_s2
I0906 15:25:27.269460 89616 net.cpp:477] pool3/3x3_s2 <- inception_3b/output
I0906 15:25:27.269471 89616 net.cpp:433] pool3/3x3_s2 -> pool3/3x3_s2
I0906 15:25:27.269485 89616 net.cpp:155] Setting up pool3/3x3_s2
I0906 15:25:27.269495 89616 net.cpp:163] Top shape: 32 480 14 14 (3010560)
I0906 15:25:27.269500 89616 layer_factory.hpp:76] Creating layer pool3/3x3_s2_pool3/3x3_s2_0_split
I0906 15:25:27.269511 89616 net.cpp:110] Creating Layer pool3/3x3_s2_pool3/3x3_s2_0_split
I0906 15:25:27.269518 89616 net.cpp:477] pool3/3x3_s2_pool3/3x3_s2_0_split <- pool3/3x3_s2
I0906 15:25:27.269531 89616 net.cpp:433] pool3/3x3_s2_pool3/3x3_s2_0_split -> pool3/3x3_s2_pool3/3x3_s2_0_split_0
I0906 15:25:27.269542 89616 net.cpp:433] pool3/3x3_s2_pool3/3x3_s2_0_split -> pool3/3x3_s2_pool3/3x3_s2_0_split_1
I0906 15:25:27.269556 89616 net.cpp:433] pool3/3x3_s2_pool3/3x3_s2_0_split -> pool3/3x3_s2_pool3/3x3_s2_0_split_2
I0906 15:25:27.269567 89616 net.cpp:433] pool3/3x3_s2_pool3/3x3_s2_0_split -> pool3/3x3_s2_pool3/3x3_s2_0_split_3
I0906 15:25:27.269579 89616 net.cpp:155] Setting up pool3/3x3_s2_pool3/3x3_s2_0_split
I0906 15:25:27.269588 89616 net.cpp:163] Top shape: 32 480 14 14 (3010560)
I0906 15:25:27.269597 89616 net.cpp:163] Top shape: 32 480 14 14 (3010560)
I0906 15:25:27.269603 89616 net.cpp:163] Top shape: 32 480 14 14 (3010560)
I0906 15:25:27.269611 89616 net.cpp:163] Top shape: 32 480 14 14 (3010560)
I0906 15:25:27.269619 89616 layer_factory.hpp:76] Creating layer inception_4a/1x1
I0906 15:25:27.269631 89616 net.cpp:110] Creating Layer inception_4a/1x1
I0906 15:25:27.269637 89616 net.cpp:477] inception_4a/1x1 <- pool3/3x3_s2_pool3/3x3_s2_0_split_0
I0906 15:25:27.269650 89616 net.cpp:433] inception_4a/1x1 -> inception_4a/1x1
I0906 15:25:27.271186 89616 net.cpp:155] Setting up inception_4a/1x1
I0906 15:25:27.271203 89616 net.cpp:163] Top shape: 32 192 14 14 (1204224)
I0906 15:25:27.271216 89616 layer_factory.hpp:76] Creating layer inception_4a/relu_1x1
I0906 15:25:27.271227 89616 net.cpp:110] Creating Layer inception_4a/relu_1x1
I0906 15:25:27.271235 89616 net.cpp:477] inception_4a/relu_1x1 <- inception_4a/1x1
I0906 15:25:27.271245 89616 net.cpp:419] inception_4a/relu_1x1 -> inception_4a/1x1 (in-place)
I0906 15:25:27.271256 89616 net.cpp:155] Setting up inception_4a/relu_1x1
I0906 15:25:27.271265 89616 net.cpp:163] Top shape: 32 192 14 14 (1204224)
I0906 15:25:27.271271 89616 layer_factory.hpp:76] Creating layer inception_4a/3x3_reduce
I0906 15:25:27.271283 89616 net.cpp:110] Creating Layer inception_4a/3x3_reduce
I0906 15:25:27.271291 89616 net.cpp:477] inception_4a/3x3_reduce <- pool3/3x3_s2_pool3/3x3_s2_0_split_1
I0906 15:25:27.271303 89616 net.cpp:433] inception_4a/3x3_reduce -> inception_4a/3x3_reduce
I0906 15:25:27.272166 89616 net.cpp:155] Setting up inception_4a/3x3_reduce
I0906 15:25:27.272186 89616 net.cpp:163] Top shape: 32 96 14 14 (602112)
I0906 15:25:27.272208 89616 layer_factory.hpp:76] Creating layer inception_4a/relu_3x3_reduce
I0906 15:25:27.272222 89616 net.cpp:110] Creating Layer inception_4a/relu_3x3_reduce
I0906 15:25:27.272229 89616 net.cpp:477] inception_4a/relu_3x3_reduce <- inception_4a/3x3_reduce
I0906 15:25:27.272240 89616 net.cpp:419] inception_4a/relu_3x3_reduce -> inception_4a/3x3_reduce (in-place)
I0906 15:25:27.272253 89616 net.cpp:155] Setting up inception_4a/relu_3x3_reduce
I0906 15:25:27.272260 89616 net.cpp:163] Top shape: 32 96 14 14 (602112)
I0906 15:25:27.272269 89616 layer_factory.hpp:76] Creating layer inception_4a/3x3
I0906 15:25:27.272280 89616 net.cpp:110] Creating Layer inception_4a/3x3
I0906 15:25:27.272287 89616 net.cpp:477] inception_4a/3x3 <- inception_4a/3x3_reduce
I0906 15:25:27.272299 89616 net.cpp:433] inception_4a/3x3 -> inception_4a/3x3
I0906 15:25:27.276245 89616 net.cpp:155] Setting up inception_4a/3x3
I0906 15:25:27.276271 89616 net.cpp:163] Top shape: 32 208 14 14 (1304576)
I0906 15:25:27.276285 89616 layer_factory.hpp:76] Creating layer inception_4a/relu_3x3
I0906 15:25:27.276298 89616 net.cpp:110] Creating Layer inception_4a/relu_3x3
I0906 15:25:27.276305 89616 net.cpp:477] inception_4a/relu_3x3 <- inception_4a/3x3
I0906 15:25:27.276316 89616 net.cpp:419] inception_4a/relu_3x3 -> inception_4a/3x3 (in-place)
I0906 15:25:27.276332 89616 net.cpp:155] Setting up inception_4a/relu_3x3
I0906 15:25:27.276341 89616 net.cpp:163] Top shape: 32 208 14 14 (1304576)
I0906 15:25:27.276347 89616 layer_factory.hpp:76] Creating layer inception_4a/5x5_reduce
I0906 15:25:27.276362 89616 net.cpp:110] Creating Layer inception_4a/5x5_reduce
I0906 15:25:27.276371 89616 net.cpp:477] inception_4a/5x5_reduce <- pool3/3x3_s2_pool3/3x3_s2_0_split_2
I0906 15:25:27.276382 89616 net.cpp:433] inception_4a/5x5_reduce -> inception_4a/5x5_reduce
I0906 15:25:27.276610 89616 net.cpp:155] Setting up inception_4a/5x5_reduce
I0906 15:25:27.276628 89616 net.cpp:163] Top shape: 32 16 14 14 (100352)
I0906 15:25:27.276638 89616 layer_factory.hpp:76] Creating layer inception_4a/relu_5x5_reduce
I0906 15:25:27.276648 89616 net.cpp:110] Creating Layer inception_4a/relu_5x5_reduce
I0906 15:25:27.276656 89616 net.cpp:477] inception_4a/relu_5x5_reduce <- inception_4a/5x5_reduce
I0906 15:25:27.276667 89616 net.cpp:419] inception_4a/relu_5x5_reduce -> inception_4a/5x5_reduce (in-place)
I0906 15:25:27.276679 89616 net.cpp:155] Setting up inception_4a/relu_5x5_reduce
I0906 15:25:27.276687 89616 net.cpp:163] Top shape: 32 16 14 14 (100352)
I0906 15:25:27.276695 89616 layer_factory.hpp:76] Creating layer inception_4a/5x5
I0906 15:25:27.276708 89616 net.cpp:110] Creating Layer inception_4a/5x5
I0906 15:25:27.276715 89616 net.cpp:477] inception_4a/5x5 <- inception_4a/5x5_reduce
I0906 15:25:27.276726 89616 net.cpp:433] inception_4a/5x5 -> inception_4a/5x5
I0906 15:25:27.277123 89616 net.cpp:155] Setting up inception_4a/5x5
I0906 15:25:27.277138 89616 net.cpp:163] Top shape: 32 48 14 14 (301056)
I0906 15:25:27.277153 89616 layer_factory.hpp:76] Creating layer inception_4a/relu_5x5
I0906 15:25:27.277163 89616 net.cpp:110] Creating Layer inception_4a/relu_5x5
I0906 15:25:27.277170 89616 net.cpp:477] inception_4a/relu_5x5 <- inception_4a/5x5
I0906 15:25:27.277181 89616 net.cpp:419] inception_4a/relu_5x5 -> inception_4a/5x5 (in-place)
I0906 15:25:27.277192 89616 net.cpp:155] Setting up inception_4a/relu_5x5
I0906 15:25:27.277201 89616 net.cpp:163] Top shape: 32 48 14 14 (301056)
I0906 15:25:27.277207 89616 layer_factory.hpp:76] Creating layer inception_4a/pool
I0906 15:25:27.277220 89616 net.cpp:110] Creating Layer inception_4a/pool
I0906 15:25:27.277226 89616 net.cpp:477] inception_4a/pool <- pool3/3x3_s2_pool3/3x3_s2_0_split_3
I0906 15:25:27.277237 89616 net.cpp:433] inception_4a/pool -> inception_4a/pool
I0906 15:25:27.277253 89616 net.cpp:155] Setting up inception_4a/pool
I0906 15:25:27.277262 89616 net.cpp:163] Top shape: 32 480 14 14 (3010560)
I0906 15:25:27.277292 89616 layer_factory.hpp:76] Creating layer inception_4a/pool_proj
I0906 15:25:27.277307 89616 net.cpp:110] Creating Layer inception_4a/pool_proj
I0906 15:25:27.277313 89616 net.cpp:477] inception_4a/pool_proj <- inception_4a/pool
I0906 15:25:27.277328 89616 net.cpp:433] inception_4a/pool_proj -> inception_4a/pool_proj
I0906 15:25:27.277918 89616 net.cpp:155] Setting up inception_4a/pool_proj
I0906 15:25:27.277935 89616 net.cpp:163] Top shape: 32 64 14 14 (401408)
I0906 15:25:27.277947 89616 layer_factory.hpp:76] Creating layer inception_4a/relu_pool_proj
I0906 15:25:27.277959 89616 net.cpp:110] Creating Layer inception_4a/relu_pool_proj
I0906 15:25:27.277967 89616 net.cpp:477] inception_4a/relu_pool_proj <- inception_4a/pool_proj
I0906 15:25:27.277977 89616 net.cpp:419] inception_4a/relu_pool_proj -> inception_4a/pool_proj (in-place)
I0906 15:25:27.277989 89616 net.cpp:155] Setting up inception_4a/relu_pool_proj
I0906 15:25:27.277997 89616 net.cpp:163] Top shape: 32 64 14 14 (401408)
I0906 15:25:27.278003 89616 layer_factory.hpp:76] Creating layer inception_4a/output
I0906 15:25:27.278015 89616 net.cpp:110] Creating Layer inception_4a/output
I0906 15:25:27.278023 89616 net.cpp:477] inception_4a/output <- inception_4a/1x1
I0906 15:25:27.278030 89616 net.cpp:477] inception_4a/output <- inception_4a/3x3
I0906 15:25:27.278038 89616 net.cpp:477] inception_4a/output <- inception_4a/5x5
I0906 15:25:27.278046 89616 net.cpp:477] inception_4a/output <- inception_4a/pool_proj
I0906 15:25:27.278059 89616 net.cpp:433] inception_4a/output -> inception_4a/output
I0906 15:25:27.278071 89616 net.cpp:155] Setting up inception_4a/output
I0906 15:25:27.278080 89616 net.cpp:163] Top shape: 32 512 14 14 (3211264)
I0906 15:25:27.278086 89616 layer_factory.hpp:76] Creating layer inception_4a/output_inception_4a/output_0_split
I0906 15:25:27.278098 89616 net.cpp:110] Creating Layer inception_4a/output_inception_4a/output_0_split
I0906 15:25:27.278105 89616 net.cpp:477] inception_4a/output_inception_4a/output_0_split <- inception_4a/output
I0906 15:25:27.278115 89616 net.cpp:433] inception_4a/output_inception_4a/output_0_split -> inception_4a/output_inception_4a/output_0_split_0
I0906 15:25:27.278129 89616 net.cpp:433] inception_4a/output_inception_4a/output_0_split -> inception_4a/output_inception_4a/output_0_split_1
I0906 15:25:27.278141 89616 net.cpp:433] inception_4a/output_inception_4a/output_0_split -> inception_4a/output_inception_4a/output_0_split_2
I0906 15:25:27.278154 89616 net.cpp:433] inception_4a/output_inception_4a/output_0_split -> inception_4a/output_inception_4a/output_0_split_3
I0906 15:25:27.278165 89616 net.cpp:433] inception_4a/output_inception_4a/output_0_split -> inception_4a/output_inception_4a/output_0_split_4
I0906 15:25:27.278180 89616 net.cpp:155] Setting up inception_4a/output_inception_4a/output_0_split
I0906 15:25:27.278188 89616 net.cpp:163] Top shape: 32 512 14 14 (3211264)
I0906 15:25:27.278197 89616 net.cpp:163] Top shape: 32 512 14 14 (3211264)
I0906 15:25:27.278204 89616 net.cpp:163] Top shape: 32 512 14 14 (3211264)
I0906 15:25:27.278211 89616 net.cpp:163] Top shape: 32 512 14 14 (3211264)
I0906 15:25:27.278219 89616 net.cpp:163] Top shape: 32 512 14 14 (3211264)
I0906 15:25:27.278225 89616 layer_factory.hpp:76] Creating layer loss1/ave_pool
I0906 15:25:27.278237 89616 net.cpp:110] Creating Layer loss1/ave_pool
I0906 15:25:27.278244 89616 net.cpp:477] loss1/ave_pool <- inception_4a/output_inception_4a/output_0_split_0
I0906 15:25:27.278254 89616 net.cpp:433] loss1/ave_pool -> loss1/ave_pool
I0906 15:25:27.278267 89616 net.cpp:155] Setting up loss1/ave_pool
I0906 15:25:27.278276 89616 net.cpp:163] Top shape: 32 512 4 4 (262144)
I0906 15:25:27.278282 89616 layer_factory.hpp:76] Creating layer loss1/conv
I0906 15:25:27.278295 89616 net.cpp:110] Creating Layer loss1/conv
I0906 15:25:27.278301 89616 net.cpp:477] loss1/conv <- loss1/ave_pool
I0906 15:25:27.278313 89616 net.cpp:433] loss1/conv -> loss1/conv
I0906 15:25:27.279434 89616 net.cpp:155] Setting up loss1/conv
I0906 15:25:27.279476 89616 net.cpp:163] Top shape: 32 128 4 4 (65536)
I0906 15:25:27.279492 89616 layer_factory.hpp:76] Creating layer loss1/relu_conv
I0906 15:25:27.279505 89616 net.cpp:110] Creating Layer loss1/relu_conv
I0906 15:25:27.279512 89616 net.cpp:477] loss1/relu_conv <- loss1/conv
I0906 15:25:27.279522 89616 net.cpp:419] loss1/relu_conv -> loss1/conv (in-place)
I0906 15:25:27.279534 89616 net.cpp:155] Setting up loss1/relu_conv
I0906 15:25:27.279543 89616 net.cpp:163] Top shape: 32 128 4 4 (65536)
I0906 15:25:27.279549 89616 layer_factory.hpp:76] Creating layer loss1/fc
I0906 15:25:27.279567 89616 net.cpp:110] Creating Layer loss1/fc
I0906 15:25:27.279573 89616 net.cpp:477] loss1/fc <- loss1/conv
I0906 15:25:27.279585 89616 net.cpp:433] loss1/fc -> loss1/fc
I0906 15:25:27.318291 89616 net.cpp:155] Setting up loss1/fc
I0906 15:25:27.318320 89616 net.cpp:163] Top shape: 32 1024 (32768)
I0906 15:25:27.318334 89616 layer_factory.hpp:76] Creating layer loss1/relu_fc
I0906 15:25:27.318348 89616 net.cpp:110] Creating Layer loss1/relu_fc
I0906 15:25:27.318356 89616 net.cpp:477] loss1/relu_fc <- loss1/fc
I0906 15:25:27.318367 89616 net.cpp:419] loss1/relu_fc -> loss1/fc (in-place)
I0906 15:25:27.318380 89616 net.cpp:155] Setting up loss1/relu_fc
I0906 15:25:27.318388 89616 net.cpp:163] Top shape: 32 1024 (32768)
I0906 15:25:27.318394 89616 layer_factory.hpp:76] Creating layer loss1/drop_fc
I0906 15:25:27.318423 89616 net.cpp:110] Creating Layer loss1/drop_fc
I0906 15:25:27.318430 89616 net.cpp:477] loss1/drop_fc <- loss1/fc
I0906 15:25:27.318440 89616 net.cpp:419] loss1/drop_fc -> loss1/fc (in-place)
I0906 15:25:27.318462 89616 net.cpp:155] Setting up loss1/drop_fc
I0906 15:25:27.318470 89616 net.cpp:163] Top shape: 32 1024 (32768)
I0906 15:25:27.318480 89616 layer_factory.hpp:76] Creating layer loss1/classifier_cub
I0906 15:25:27.318495 89616 net.cpp:110] Creating Layer loss1/classifier_cub
I0906 15:25:27.318500 89616 net.cpp:477] loss1/classifier_cub <- loss1/fc
I0906 15:25:27.318524 89616 net.cpp:433] loss1/classifier_cub -> loss1/classifier
I0906 15:25:27.333955 89616 net.cpp:155] Setting up loss1/classifier_cub
I0906 15:25:27.333981 89616 net.cpp:163] Top shape: 32 200 (6400)
I0906 15:25:27.333994 89616 layer_factory.hpp:76] Creating layer loss1/loss
I0906 15:25:27.334012 89616 net.cpp:110] Creating Layer loss1/loss
I0906 15:25:27.334020 89616 net.cpp:477] loss1/loss <- loss1/classifier
I0906 15:25:27.334030 89616 net.cpp:477] loss1/loss <- label_data_1_split_0
I0906 15:25:27.334043 89616 net.cpp:433] loss1/loss -> loss1/loss1
I0906 15:25:27.334066 89616 layer_factory.hpp:76] Creating layer loss1/loss
I0906 15:25:27.334185 89616 net.cpp:155] Setting up loss1/loss
I0906 15:25:27.334202 89616 net.cpp:163] Top shape: (1)
I0906 15:25:27.334208 89616 net.cpp:168]     with loss weight 0.3
I0906 15:25:27.334247 89616 layer_factory.hpp:76] Creating layer inception_4b/1x1
I0906 15:25:27.334264 89616 net.cpp:110] Creating Layer inception_4b/1x1
I0906 15:25:27.334272 89616 net.cpp:477] inception_4b/1x1 <- inception_4a/output_inception_4a/output_0_split_1
I0906 15:25:27.334286 89616 net.cpp:433] inception_4b/1x1 -> inception_4b/1x1
I0906 15:25:27.335686 89616 net.cpp:155] Setting up inception_4b/1x1
I0906 15:25:27.335711 89616 net.cpp:163] Top shape: 32 160 14 14 (1003520)
I0906 15:25:27.335723 89616 layer_factory.hpp:76] Creating layer inception_4b/relu_1x1
I0906 15:25:27.335737 89616 net.cpp:110] Creating Layer inception_4b/relu_1x1
I0906 15:25:27.335744 89616 net.cpp:477] inception_4b/relu_1x1 <- inception_4b/1x1
I0906 15:25:27.335755 89616 net.cpp:419] inception_4b/relu_1x1 -> inception_4b/1x1 (in-place)
I0906 15:25:27.335767 89616 net.cpp:155] Setting up inception_4b/relu_1x1
I0906 15:25:27.335777 89616 net.cpp:163] Top shape: 32 160 14 14 (1003520)
I0906 15:25:27.335783 89616 layer_factory.hpp:76] Creating layer inception_4b/3x3_reduce
I0906 15:25:27.335796 89616 net.cpp:110] Creating Layer inception_4b/3x3_reduce
I0906 15:25:27.335803 89616 net.cpp:477] inception_4b/3x3_reduce <- inception_4a/output_inception_4a/output_0_split_2
I0906 15:25:27.335839 89616 net.cpp:433] inception_4b/3x3_reduce -> inception_4b/3x3_reduce
I0906 15:25:27.337707 89616 net.cpp:155] Setting up inception_4b/3x3_reduce
I0906 15:25:27.337730 89616 net.cpp:163] Top shape: 32 112 14 14 (702464)
I0906 15:25:27.337744 89616 layer_factory.hpp:76] Creating layer inception_4b/relu_3x3_reduce
I0906 15:25:27.337757 89616 net.cpp:110] Creating Layer inception_4b/relu_3x3_reduce
I0906 15:25:27.337765 89616 net.cpp:477] inception_4b/relu_3x3_reduce <- inception_4b/3x3_reduce
I0906 15:25:27.337777 89616 net.cpp:419] inception_4b/relu_3x3_reduce -> inception_4b/3x3_reduce (in-place)
I0906 15:25:27.337790 89616 net.cpp:155] Setting up inception_4b/relu_3x3_reduce
I0906 15:25:27.337798 89616 net.cpp:163] Top shape: 32 112 14 14 (702464)
I0906 15:25:27.337805 89616 layer_factory.hpp:76] Creating layer inception_4b/3x3
I0906 15:25:27.337820 89616 net.cpp:110] Creating Layer inception_4b/3x3
I0906 15:25:27.337826 89616 net.cpp:477] inception_4b/3x3 <- inception_4b/3x3_reduce
I0906 15:25:27.337837 89616 net.cpp:433] inception_4b/3x3 -> inception_4b/3x3
I0906 15:25:27.342360 89616 net.cpp:155] Setting up inception_4b/3x3
I0906 15:25:27.342386 89616 net.cpp:163] Top shape: 32 224 14 14 (1404928)
I0906 15:25:27.342401 89616 layer_factory.hpp:76] Creating layer inception_4b/relu_3x3
I0906 15:25:27.342412 89616 net.cpp:110] Creating Layer inception_4b/relu_3x3
I0906 15:25:27.342420 89616 net.cpp:477] inception_4b/relu_3x3 <- inception_4b/3x3
I0906 15:25:27.342432 89616 net.cpp:419] inception_4b/relu_3x3 -> inception_4b/3x3 (in-place)
I0906 15:25:27.342443 89616 net.cpp:155] Setting up inception_4b/relu_3x3
I0906 15:25:27.342453 89616 net.cpp:163] Top shape: 32 224 14 14 (1404928)
I0906 15:25:27.342460 89616 layer_factory.hpp:76] Creating layer inception_4b/5x5_reduce
I0906 15:25:27.342474 89616 net.cpp:110] Creating Layer inception_4b/5x5_reduce
I0906 15:25:27.342480 89616 net.cpp:477] inception_4b/5x5_reduce <- inception_4a/output_inception_4a/output_0_split_3
I0906 15:25:27.342494 89616 net.cpp:433] inception_4b/5x5_reduce -> inception_4b/5x5_reduce
I0906 15:25:27.342794 89616 net.cpp:155] Setting up inception_4b/5x5_reduce
I0906 15:25:27.342809 89616 net.cpp:163] Top shape: 32 24 14 14 (150528)
I0906 15:25:27.342821 89616 layer_factory.hpp:76] Creating layer inception_4b/relu_5x5_reduce
I0906 15:25:27.342835 89616 net.cpp:110] Creating Layer inception_4b/relu_5x5_reduce
I0906 15:25:27.342842 89616 net.cpp:477] inception_4b/relu_5x5_reduce <- inception_4b/5x5_reduce
I0906 15:25:27.342854 89616 net.cpp:419] inception_4b/relu_5x5_reduce -> inception_4b/5x5_reduce (in-place)
I0906 15:25:27.342864 89616 net.cpp:155] Setting up inception_4b/relu_5x5_reduce
I0906 15:25:27.342874 89616 net.cpp:163] Top shape: 32 24 14 14 (150528)
I0906 15:25:27.342880 89616 layer_factory.hpp:76] Creating layer inception_4b/5x5
I0906 15:25:27.342890 89616 net.cpp:110] Creating Layer inception_4b/5x5
I0906 15:25:27.342897 89616 net.cpp:477] inception_4b/5x5 <- inception_4b/5x5_reduce
I0906 15:25:27.342908 89616 net.cpp:433] inception_4b/5x5 -> inception_4b/5x5
I0906 15:25:27.343605 89616 net.cpp:155] Setting up inception_4b/5x5
I0906 15:25:27.343619 89616 net.cpp:163] Top shape: 32 64 14 14 (401408)
I0906 15:25:27.343636 89616 layer_factory.hpp:76] Creating layer inception_4b/relu_5x5
I0906 15:25:27.343647 89616 net.cpp:110] Creating Layer inception_4b/relu_5x5
I0906 15:25:27.343654 89616 net.cpp:477] inception_4b/relu_5x5 <- inception_4b/5x5
I0906 15:25:27.343664 89616 net.cpp:419] inception_4b/relu_5x5 -> inception_4b/5x5 (in-place)
I0906 15:25:27.343689 89616 net.cpp:155] Setting up inception_4b/relu_5x5
I0906 15:25:27.343698 89616 net.cpp:163] Top shape: 32 64 14 14 (401408)
I0906 15:25:27.343706 89616 layer_factory.hpp:76] Creating layer inception_4b/pool
I0906 15:25:27.343719 89616 net.cpp:110] Creating Layer inception_4b/pool
I0906 15:25:27.343725 89616 net.cpp:477] inception_4b/pool <- inception_4a/output_inception_4a/output_0_split_4
I0906 15:25:27.343736 89616 net.cpp:433] inception_4b/pool -> inception_4b/pool
I0906 15:25:27.343791 89616 net.cpp:155] Setting up inception_4b/pool
I0906 15:25:27.343822 89616 net.cpp:163] Top shape: 32 512 14 14 (3211264)
I0906 15:25:27.343829 89616 layer_factory.hpp:76] Creating layer inception_4b/pool_proj
I0906 15:25:27.343847 89616 net.cpp:110] Creating Layer inception_4b/pool_proj
I0906 15:25:27.343854 89616 net.cpp:477] inception_4b/pool_proj <- inception_4b/pool
I0906 15:25:27.343866 89616 net.cpp:433] inception_4b/pool_proj -> inception_4b/pool_proj
I0906 15:25:27.344483 89616 net.cpp:155] Setting up inception_4b/pool_proj
I0906 15:25:27.344499 89616 net.cpp:163] Top shape: 32 64 14 14 (401408)
I0906 15:25:27.344511 89616 layer_factory.hpp:76] Creating layer inception_4b/relu_pool_proj
I0906 15:25:27.344522 89616 net.cpp:110] Creating Layer inception_4b/relu_pool_proj
I0906 15:25:27.344530 89616 net.cpp:477] inception_4b/relu_pool_proj <- inception_4b/pool_proj
I0906 15:25:27.344540 89616 net.cpp:419] inception_4b/relu_pool_proj -> inception_4b/pool_proj (in-place)
I0906 15:25:27.344552 89616 net.cpp:155] Setting up inception_4b/relu_pool_proj
I0906 15:25:27.344560 89616 net.cpp:163] Top shape: 32 64 14 14 (401408)
I0906 15:25:27.344566 89616 layer_factory.hpp:76] Creating layer inception_4b/output
I0906 15:25:27.344578 89616 net.cpp:110] Creating Layer inception_4b/output
I0906 15:25:27.344583 89616 net.cpp:477] inception_4b/output <- inception_4b/1x1
I0906 15:25:27.344593 89616 net.cpp:477] inception_4b/output <- inception_4b/3x3
I0906 15:25:27.344599 89616 net.cpp:477] inception_4b/output <- inception_4b/5x5
I0906 15:25:27.344607 89616 net.cpp:477] inception_4b/output <- inception_4b/pool_proj
I0906 15:25:27.344617 89616 net.cpp:433] inception_4b/output -> inception_4b/output
I0906 15:25:27.344630 89616 net.cpp:155] Setting up inception_4b/output
I0906 15:25:27.344640 89616 net.cpp:163] Top shape: 32 512 14 14 (3211264)
I0906 15:25:27.344647 89616 layer_factory.hpp:76] Creating layer inception_4b/output_inception_4b/output_0_split
I0906 15:25:27.344657 89616 net.cpp:110] Creating Layer inception_4b/output_inception_4b/output_0_split
I0906 15:25:27.344665 89616 net.cpp:477] inception_4b/output_inception_4b/output_0_split <- inception_4b/output
I0906 15:25:27.344676 89616 net.cpp:433] inception_4b/output_inception_4b/output_0_split -> inception_4b/output_inception_4b/output_0_split_0
I0906 15:25:27.344689 89616 net.cpp:433] inception_4b/output_inception_4b/output_0_split -> inception_4b/output_inception_4b/output_0_split_1
I0906 15:25:27.344702 89616 net.cpp:433] inception_4b/output_inception_4b/output_0_split -> inception_4b/output_inception_4b/output_0_split_2
I0906 15:25:27.344715 89616 net.cpp:433] inception_4b/output_inception_4b/output_0_split -> inception_4b/output_inception_4b/output_0_split_3
I0906 15:25:27.344728 89616 net.cpp:155] Setting up inception_4b/output_inception_4b/output_0_split
I0906 15:25:27.344738 89616 net.cpp:163] Top shape: 32 512 14 14 (3211264)
I0906 15:25:27.344745 89616 net.cpp:163] Top shape: 32 512 14 14 (3211264)
I0906 15:25:27.344753 89616 net.cpp:163] Top shape: 32 512 14 14 (3211264)
I0906 15:25:27.344760 89616 net.cpp:163] Top shape: 32 512 14 14 (3211264)
I0906 15:25:27.344766 89616 layer_factory.hpp:76] Creating layer inception_4c/1x1
I0906 15:25:27.344779 89616 net.cpp:110] Creating Layer inception_4c/1x1
I0906 15:25:27.344785 89616 net.cpp:477] inception_4c/1x1 <- inception_4b/output_inception_4b/output_0_split_0
I0906 15:25:27.344796 89616 net.cpp:433] inception_4c/1x1 -> inception_4c/1x1
I0906 15:25:27.345912 89616 net.cpp:155] Setting up inception_4c/1x1
I0906 15:25:27.345927 89616 net.cpp:163] Top shape: 32 128 14 14 (802816)
I0906 15:25:27.345942 89616 layer_factory.hpp:76] Creating layer inception_4c/relu_1x1
I0906 15:25:27.345955 89616 net.cpp:110] Creating Layer inception_4c/relu_1x1
I0906 15:25:27.345963 89616 net.cpp:477] inception_4c/relu_1x1 <- inception_4c/1x1
I0906 15:25:27.345973 89616 net.cpp:419] inception_4c/relu_1x1 -> inception_4c/1x1 (in-place)
I0906 15:25:27.345984 89616 net.cpp:155] Setting up inception_4c/relu_1x1
I0906 15:25:27.346010 89616 net.cpp:163] Top shape: 32 128 14 14 (802816)
I0906 15:25:27.346019 89616 layer_factory.hpp:76] Creating layer inception_4c/3x3_reduce
I0906 15:25:27.346034 89616 net.cpp:110] Creating Layer inception_4c/3x3_reduce
I0906 15:25:27.346040 89616 net.cpp:477] inception_4c/3x3_reduce <- inception_4b/output_inception_4b/output_0_split_1
I0906 15:25:27.346052 89616 net.cpp:433] inception_4c/3x3_reduce -> inception_4c/3x3_reduce
I0906 15:25:27.347175 89616 net.cpp:155] Setting up inception_4c/3x3_reduce
I0906 15:25:27.347192 89616 net.cpp:163] Top shape: 32 128 14 14 (802816)
I0906 15:25:27.347208 89616 layer_factory.hpp:76] Creating layer inception_4c/relu_3x3_reduce
I0906 15:25:27.347218 89616 net.cpp:110] Creating Layer inception_4c/relu_3x3_reduce
I0906 15:25:27.347225 89616 net.cpp:477] inception_4c/relu_3x3_reduce <- inception_4c/3x3_reduce
I0906 15:25:27.347235 89616 net.cpp:419] inception_4c/relu_3x3_reduce -> inception_4c/3x3_reduce (in-place)
I0906 15:25:27.347246 89616 net.cpp:155] Setting up inception_4c/relu_3x3_reduce
I0906 15:25:27.347255 89616 net.cpp:163] Top shape: 32 128 14 14 (802816)
I0906 15:25:27.347261 89616 layer_factory.hpp:76] Creating layer inception_4c/3x3
I0906 15:25:27.347275 89616 net.cpp:110] Creating Layer inception_4c/3x3
I0906 15:25:27.347280 89616 net.cpp:477] inception_4c/3x3 <- inception_4c/3x3_reduce
I0906 15:25:27.347291 89616 net.cpp:433] inception_4c/3x3 -> inception_4c/3x3
I0906 15:25:27.352941 89616 net.cpp:155] Setting up inception_4c/3x3
I0906 15:25:27.352967 89616 net.cpp:163] Top shape: 32 256 14 14 (1605632)
I0906 15:25:27.352999 89616 layer_factory.hpp:76] Creating layer inception_4c/relu_3x3
I0906 15:25:27.353013 89616 net.cpp:110] Creating Layer inception_4c/relu_3x3
I0906 15:25:27.353020 89616 net.cpp:477] inception_4c/relu_3x3 <- inception_4c/3x3
I0906 15:25:27.353031 89616 net.cpp:419] inception_4c/relu_3x3 -> inception_4c/3x3 (in-place)
I0906 15:25:27.353044 89616 net.cpp:155] Setting up inception_4c/relu_3x3
I0906 15:25:27.353052 89616 net.cpp:163] Top shape: 32 256 14 14 (1605632)
I0906 15:25:27.353060 89616 layer_factory.hpp:76] Creating layer inception_4c/5x5_reduce
I0906 15:25:27.353073 89616 net.cpp:110] Creating Layer inception_4c/5x5_reduce
I0906 15:25:27.353080 89616 net.cpp:477] inception_4c/5x5_reduce <- inception_4b/output_inception_4b/output_0_split_2
I0906 15:25:27.353094 89616 net.cpp:433] inception_4c/5x5_reduce -> inception_4c/5x5_reduce
I0906 15:25:27.353397 89616 net.cpp:155] Setting up inception_4c/5x5_reduce
I0906 15:25:27.353412 89616 net.cpp:163] Top shape: 32 24 14 14 (150528)
I0906 15:25:27.353426 89616 layer_factory.hpp:76] Creating layer inception_4c/relu_5x5_reduce
I0906 15:25:27.353440 89616 net.cpp:110] Creating Layer inception_4c/relu_5x5_reduce
I0906 15:25:27.353448 89616 net.cpp:477] inception_4c/relu_5x5_reduce <- inception_4c/5x5_reduce
I0906 15:25:27.353458 89616 net.cpp:419] inception_4c/relu_5x5_reduce -> inception_4c/5x5_reduce (in-place)
I0906 15:25:27.353471 89616 net.cpp:155] Setting up inception_4c/relu_5x5_reduce
I0906 15:25:27.353478 89616 net.cpp:163] Top shape: 32 24 14 14 (150528)
I0906 15:25:27.353485 89616 layer_factory.hpp:76] Creating layer inception_4c/5x5
I0906 15:25:27.353500 89616 net.cpp:110] Creating Layer inception_4c/5x5
I0906 15:25:27.353507 89616 net.cpp:477] inception_4c/5x5 <- inception_4c/5x5_reduce
I0906 15:25:27.353518 89616 net.cpp:433] inception_4c/5x5 -> inception_4c/5x5
I0906 15:25:27.355062 89616 net.cpp:155] Setting up inception_4c/5x5
I0906 15:25:27.355087 89616 net.cpp:163] Top shape: 32 64 14 14 (401408)
I0906 15:25:27.355101 89616 layer_factory.hpp:76] Creating layer inception_4c/relu_5x5
I0906 15:25:27.355116 89616 net.cpp:110] Creating Layer inception_4c/relu_5x5
I0906 15:25:27.355124 89616 net.cpp:477] inception_4c/relu_5x5 <- inception_4c/5x5
I0906 15:25:27.355135 89616 net.cpp:419] inception_4c/relu_5x5 -> inception_4c/5x5 (in-place)
I0906 15:25:27.355147 89616 net.cpp:155] Setting up inception_4c/relu_5x5
I0906 15:25:27.355155 89616 net.cpp:163] Top shape: 32 64 14 14 (401408)
I0906 15:25:27.355185 89616 layer_factory.hpp:76] Creating layer inception_4c/pool
I0906 15:25:27.355200 89616 net.cpp:110] Creating Layer inception_4c/pool
I0906 15:25:27.355207 89616 net.cpp:477] inception_4c/pool <- inception_4b/output_inception_4b/output_0_split_3
I0906 15:25:27.355219 89616 net.cpp:433] inception_4c/pool -> inception_4c/pool
I0906 15:25:27.355236 89616 net.cpp:155] Setting up inception_4c/pool
I0906 15:25:27.355245 89616 net.cpp:163] Top shape: 32 512 14 14 (3211264)
I0906 15:25:27.355253 89616 layer_factory.hpp:76] Creating layer inception_4c/pool_proj
I0906 15:25:27.355268 89616 net.cpp:110] Creating Layer inception_4c/pool_proj
I0906 15:25:27.355275 89616 net.cpp:477] inception_4c/pool_proj <- inception_4c/pool
I0906 15:25:27.355288 89616 net.cpp:433] inception_4c/pool_proj -> inception_4c/pool_proj
I0906 15:25:27.355916 89616 net.cpp:155] Setting up inception_4c/pool_proj
I0906 15:25:27.355933 89616 net.cpp:163] Top shape: 32 64 14 14 (401408)
I0906 15:25:27.355945 89616 layer_factory.hpp:76] Creating layer inception_4c/relu_pool_proj
I0906 15:25:27.355959 89616 net.cpp:110] Creating Layer inception_4c/relu_pool_proj
I0906 15:25:27.355967 89616 net.cpp:477] inception_4c/relu_pool_proj <- inception_4c/pool_proj
I0906 15:25:27.355978 89616 net.cpp:419] inception_4c/relu_pool_proj -> inception_4c/pool_proj (in-place)
I0906 15:25:27.355988 89616 net.cpp:155] Setting up inception_4c/relu_pool_proj
I0906 15:25:27.355998 89616 net.cpp:163] Top shape: 32 64 14 14 (401408)
I0906 15:25:27.356003 89616 layer_factory.hpp:76] Creating layer inception_4c/output
I0906 15:25:27.356015 89616 net.cpp:110] Creating Layer inception_4c/output
I0906 15:25:27.356022 89616 net.cpp:477] inception_4c/output <- inception_4c/1x1
I0906 15:25:27.356031 89616 net.cpp:477] inception_4c/output <- inception_4c/3x3
I0906 15:25:27.356040 89616 net.cpp:477] inception_4c/output <- inception_4c/5x5
I0906 15:25:27.356047 89616 net.cpp:477] inception_4c/output <- inception_4c/pool_proj
I0906 15:25:27.356057 89616 net.cpp:433] inception_4c/output -> inception_4c/output
I0906 15:25:27.356071 89616 net.cpp:155] Setting up inception_4c/output
I0906 15:25:27.356079 89616 net.cpp:163] Top shape: 32 512 14 14 (3211264)
I0906 15:25:27.356086 89616 layer_factory.hpp:76] Creating layer inception_4c/output_inception_4c/output_0_split
I0906 15:25:27.356098 89616 net.cpp:110] Creating Layer inception_4c/output_inception_4c/output_0_split
I0906 15:25:27.356106 89616 net.cpp:477] inception_4c/output_inception_4c/output_0_split <- inception_4c/output
I0906 15:25:27.356117 89616 net.cpp:433] inception_4c/output_inception_4c/output_0_split -> inception_4c/output_inception_4c/output_0_split_0
I0906 15:25:27.356130 89616 net.cpp:433] inception_4c/output_inception_4c/output_0_split -> inception_4c/output_inception_4c/output_0_split_1
I0906 15:25:27.356142 89616 net.cpp:433] inception_4c/output_inception_4c/output_0_split -> inception_4c/output_inception_4c/output_0_split_2
I0906 15:25:27.356155 89616 net.cpp:433] inception_4c/output_inception_4c/output_0_split -> inception_4c/output_inception_4c/output_0_split_3
I0906 15:25:27.356168 89616 net.cpp:155] Setting up inception_4c/output_inception_4c/output_0_split
I0906 15:25:27.356176 89616 net.cpp:163] Top shape: 32 512 14 14 (3211264)
I0906 15:25:27.356184 89616 net.cpp:163] Top shape: 32 512 14 14 (3211264)
I0906 15:25:27.356192 89616 net.cpp:163] Top shape: 32 512 14 14 (3211264)
I0906 15:25:27.356200 89616 net.cpp:163] Top shape: 32 512 14 14 (3211264)
I0906 15:25:27.356207 89616 layer_factory.hpp:76] Creating layer inception_4d/1x1
I0906 15:25:27.356221 89616 net.cpp:110] Creating Layer inception_4d/1x1
I0906 15:25:27.356228 89616 net.cpp:477] inception_4d/1x1 <- inception_4c/output_inception_4c/output_0_split_0
I0906 15:25:27.356240 89616 net.cpp:433] inception_4d/1x1 -> inception_4d/1x1
I0906 15:25:27.357237 89616 net.cpp:155] Setting up inception_4d/1x1
I0906 15:25:27.357254 89616 net.cpp:163] Top shape: 32 112 14 14 (702464)
I0906 15:25:27.357265 89616 layer_factory.hpp:76] Creating layer inception_4d/relu_1x1
I0906 15:25:27.357296 89616 net.cpp:110] Creating Layer inception_4d/relu_1x1
I0906 15:25:27.357305 89616 net.cpp:477] inception_4d/relu_1x1 <- inception_4d/1x1
I0906 15:25:27.357317 89616 net.cpp:419] inception_4d/relu_1x1 -> inception_4d/1x1 (in-place)
I0906 15:25:27.357329 89616 net.cpp:155] Setting up inception_4d/relu_1x1
I0906 15:25:27.357338 89616 net.cpp:163] Top shape: 32 112 14 14 (702464)
I0906 15:25:27.357345 89616 layer_factory.hpp:76] Creating layer inception_4d/3x3_reduce
I0906 15:25:27.357359 89616 net.cpp:110] Creating Layer inception_4d/3x3_reduce
I0906 15:25:27.357367 89616 net.cpp:477] inception_4d/3x3_reduce <- inception_4c/output_inception_4c/output_0_split_1
I0906 15:25:27.357378 89616 net.cpp:433] inception_4d/3x3_reduce -> inception_4d/3x3_reduce
I0906 15:25:27.358649 89616 net.cpp:155] Setting up inception_4d/3x3_reduce
I0906 15:25:27.358665 89616 net.cpp:163] Top shape: 32 144 14 14 (903168)
I0906 15:25:27.358677 89616 layer_factory.hpp:76] Creating layer inception_4d/relu_3x3_reduce
I0906 15:25:27.358688 89616 net.cpp:110] Creating Layer inception_4d/relu_3x3_reduce
I0906 15:25:27.358696 89616 net.cpp:477] inception_4d/relu_3x3_reduce <- inception_4d/3x3_reduce
I0906 15:25:27.358706 89616 net.cpp:419] inception_4d/relu_3x3_reduce -> inception_4d/3x3_reduce (in-place)
I0906 15:25:27.358717 89616 net.cpp:155] Setting up inception_4d/relu_3x3_reduce
I0906 15:25:27.358726 89616 net.cpp:163] Top shape: 32 144 14 14 (903168)
I0906 15:25:27.358733 89616 layer_factory.hpp:76] Creating layer inception_4d/3x3
I0906 15:25:27.358744 89616 net.cpp:110] Creating Layer inception_4d/3x3
I0906 15:25:27.358752 89616 net.cpp:477] inception_4d/3x3 <- inception_4d/3x3_reduce
I0906 15:25:27.358762 89616 net.cpp:433] inception_4d/3x3 -> inception_4d/3x3
I0906 15:25:27.365814 89616 net.cpp:155] Setting up inception_4d/3x3
I0906 15:25:27.365840 89616 net.cpp:163] Top shape: 32 288 14 14 (1806336)
I0906 15:25:27.365854 89616 layer_factory.hpp:76] Creating layer inception_4d/relu_3x3
I0906 15:25:27.365866 89616 net.cpp:110] Creating Layer inception_4d/relu_3x3
I0906 15:25:27.365875 89616 net.cpp:477] inception_4d/relu_3x3 <- inception_4d/3x3
I0906 15:25:27.365885 89616 net.cpp:419] inception_4d/relu_3x3 -> inception_4d/3x3 (in-place)
I0906 15:25:27.365898 89616 net.cpp:155] Setting up inception_4d/relu_3x3
I0906 15:25:27.365906 89616 net.cpp:163] Top shape: 32 288 14 14 (1806336)
I0906 15:25:27.365913 89616 layer_factory.hpp:76] Creating layer inception_4d/5x5_reduce
I0906 15:25:27.365928 89616 net.cpp:110] Creating Layer inception_4d/5x5_reduce
I0906 15:25:27.365936 89616 net.cpp:477] inception_4d/5x5_reduce <- inception_4c/output_inception_4c/output_0_split_2
I0906 15:25:27.365947 89616 net.cpp:433] inception_4d/5x5_reduce -> inception_4d/5x5_reduce
I0906 15:25:27.366320 89616 net.cpp:155] Setting up inception_4d/5x5_reduce
I0906 15:25:27.366336 89616 net.cpp:163] Top shape: 32 32 14 14 (200704)
I0906 15:25:27.366348 89616 layer_factory.hpp:76] Creating layer inception_4d/relu_5x5_reduce
I0906 15:25:27.366358 89616 net.cpp:110] Creating Layer inception_4d/relu_5x5_reduce
I0906 15:25:27.366366 89616 net.cpp:477] inception_4d/relu_5x5_reduce <- inception_4d/5x5_reduce
I0906 15:25:27.366376 89616 net.cpp:419] inception_4d/relu_5x5_reduce -> inception_4d/5x5_reduce (in-place)
I0906 15:25:27.366389 89616 net.cpp:155] Setting up inception_4d/relu_5x5_reduce
I0906 15:25:27.366396 89616 net.cpp:163] Top shape: 32 32 14 14 (200704)
I0906 15:25:27.366405 89616 layer_factory.hpp:76] Creating layer inception_4d/5x5
I0906 15:25:27.366420 89616 net.cpp:110] Creating Layer inception_4d/5x5
I0906 15:25:27.366425 89616 net.cpp:477] inception_4d/5x5 <- inception_4d/5x5_reduce
I0906 15:25:27.366436 89616 net.cpp:433] inception_4d/5x5 -> inception_4d/5x5
I0906 15:25:27.367336 89616 net.cpp:155] Setting up inception_4d/5x5
I0906 15:25:27.367352 89616 net.cpp:163] Top shape: 32 64 14 14 (401408)
I0906 15:25:27.367362 89616 layer_factory.hpp:76] Creating layer inception_4d/relu_5x5
I0906 15:25:27.367395 89616 net.cpp:110] Creating Layer inception_4d/relu_5x5
I0906 15:25:27.367403 89616 net.cpp:477] inception_4d/relu_5x5 <- inception_4d/5x5
I0906 15:25:27.367416 89616 net.cpp:419] inception_4d/relu_5x5 -> inception_4d/5x5 (in-place)
I0906 15:25:27.367429 89616 net.cpp:155] Setting up inception_4d/relu_5x5
I0906 15:25:27.367437 89616 net.cpp:163] Top shape: 32 64 14 14 (401408)
I0906 15:25:27.367444 89616 layer_factory.hpp:76] Creating layer inception_4d/pool
I0906 15:25:27.367456 89616 net.cpp:110] Creating Layer inception_4d/pool
I0906 15:25:27.367465 89616 net.cpp:477] inception_4d/pool <- inception_4c/output_inception_4c/output_0_split_3
I0906 15:25:27.367475 89616 net.cpp:433] inception_4d/pool -> inception_4d/pool
I0906 15:25:27.367491 89616 net.cpp:155] Setting up inception_4d/pool
I0906 15:25:27.367499 89616 net.cpp:163] Top shape: 32 512 14 14 (3211264)
I0906 15:25:27.367506 89616 layer_factory.hpp:76] Creating layer inception_4d/pool_proj
I0906 15:25:27.367518 89616 net.cpp:110] Creating Layer inception_4d/pool_proj
I0906 15:25:27.367525 89616 net.cpp:477] inception_4d/pool_proj <- inception_4d/pool
I0906 15:25:27.367538 89616 net.cpp:433] inception_4d/pool_proj -> inception_4d/pool_proj
I0906 15:25:27.368163 89616 net.cpp:155] Setting up inception_4d/pool_proj
I0906 15:25:27.368180 89616 net.cpp:163] Top shape: 32 64 14 14 (401408)
I0906 15:25:27.368194 89616 layer_factory.hpp:76] Creating layer inception_4d/relu_pool_proj
I0906 15:25:27.368206 89616 net.cpp:110] Creating Layer inception_4d/relu_pool_proj
I0906 15:25:27.368213 89616 net.cpp:477] inception_4d/relu_pool_proj <- inception_4d/pool_proj
I0906 15:25:27.368223 89616 net.cpp:419] inception_4d/relu_pool_proj -> inception_4d/pool_proj (in-place)
I0906 15:25:27.368234 89616 net.cpp:155] Setting up inception_4d/relu_pool_proj
I0906 15:25:27.368243 89616 net.cpp:163] Top shape: 32 64 14 14 (401408)
I0906 15:25:27.368249 89616 layer_factory.hpp:76] Creating layer inception_4d/output
I0906 15:25:27.368260 89616 net.cpp:110] Creating Layer inception_4d/output
I0906 15:25:27.368268 89616 net.cpp:477] inception_4d/output <- inception_4d/1x1
I0906 15:25:27.368275 89616 net.cpp:477] inception_4d/output <- inception_4d/3x3
I0906 15:25:27.368283 89616 net.cpp:477] inception_4d/output <- inception_4d/5x5
I0906 15:25:27.368291 89616 net.cpp:477] inception_4d/output <- inception_4d/pool_proj
I0906 15:25:27.368302 89616 net.cpp:433] inception_4d/output -> inception_4d/output
I0906 15:25:27.368316 89616 net.cpp:155] Setting up inception_4d/output
I0906 15:25:27.368325 89616 net.cpp:163] Top shape: 32 528 14 14 (3311616)
I0906 15:25:27.368331 89616 layer_factory.hpp:76] Creating layer inception_4d/output_inception_4d/output_0_split
I0906 15:25:27.368343 89616 net.cpp:110] Creating Layer inception_4d/output_inception_4d/output_0_split
I0906 15:25:27.368350 89616 net.cpp:477] inception_4d/output_inception_4d/output_0_split <- inception_4d/output
I0906 15:25:27.368361 89616 net.cpp:433] inception_4d/output_inception_4d/output_0_split -> inception_4d/output_inception_4d/output_0_split_0
I0906 15:25:27.368374 89616 net.cpp:433] inception_4d/output_inception_4d/output_0_split -> inception_4d/output_inception_4d/output_0_split_1
I0906 15:25:27.368387 89616 net.cpp:433] inception_4d/output_inception_4d/output_0_split -> inception_4d/output_inception_4d/output_0_split_2
I0906 15:25:27.368401 89616 net.cpp:433] inception_4d/output_inception_4d/output_0_split -> inception_4d/output_inception_4d/output_0_split_3
I0906 15:25:27.368412 89616 net.cpp:433] inception_4d/output_inception_4d/output_0_split -> inception_4d/output_inception_4d/output_0_split_4
I0906 15:25:27.368427 89616 net.cpp:155] Setting up inception_4d/output_inception_4d/output_0_split
I0906 15:25:27.368434 89616 net.cpp:163] Top shape: 32 528 14 14 (3311616)
I0906 15:25:27.368443 89616 net.cpp:163] Top shape: 32 528 14 14 (3311616)
I0906 15:25:27.368451 89616 net.cpp:163] Top shape: 32 528 14 14 (3311616)
I0906 15:25:27.368458 89616 net.cpp:163] Top shape: 32 528 14 14 (3311616)
I0906 15:25:27.368466 89616 net.cpp:163] Top shape: 32 528 14 14 (3311616)
I0906 15:25:27.368491 89616 layer_factory.hpp:76] Creating layer loss2/ave_pool
I0906 15:25:27.368506 89616 net.cpp:110] Creating Layer loss2/ave_pool
I0906 15:25:27.368513 89616 net.cpp:477] loss2/ave_pool <- inception_4d/output_inception_4d/output_0_split_0
I0906 15:25:27.368525 89616 net.cpp:433] loss2/ave_pool -> loss2/ave_pool
I0906 15:25:27.368541 89616 net.cpp:155] Setting up loss2/ave_pool
I0906 15:25:27.368549 89616 net.cpp:163] Top shape: 32 528 4 4 (270336)
I0906 15:25:27.368558 89616 layer_factory.hpp:76] Creating layer loss2/conv
I0906 15:25:27.368571 89616 net.cpp:110] Creating Layer loss2/conv
I0906 15:25:27.368577 89616 net.cpp:477] loss2/conv <- loss2/ave_pool
I0906 15:25:27.368588 89616 net.cpp:433] loss2/conv -> loss2/conv
I0906 15:25:27.370601 89616 net.cpp:155] Setting up loss2/conv
I0906 15:25:27.370626 89616 net.cpp:163] Top shape: 32 128 4 4 (65536)
I0906 15:25:27.370640 89616 layer_factory.hpp:76] Creating layer loss2/relu_conv
I0906 15:25:27.370653 89616 net.cpp:110] Creating Layer loss2/relu_conv
I0906 15:25:27.370661 89616 net.cpp:477] loss2/relu_conv <- loss2/conv
I0906 15:25:27.370672 89616 net.cpp:419] loss2/relu_conv -> loss2/conv (in-place)
I0906 15:25:27.370685 89616 net.cpp:155] Setting up loss2/relu_conv
I0906 15:25:27.370693 89616 net.cpp:163] Top shape: 32 128 4 4 (65536)
I0906 15:25:27.370700 89616 layer_factory.hpp:76] Creating layer loss2/fc
I0906 15:25:27.370715 89616 net.cpp:110] Creating Layer loss2/fc
I0906 15:25:27.370723 89616 net.cpp:477] loss2/fc <- loss2/conv
I0906 15:25:27.370733 89616 net.cpp:433] loss2/fc -> loss2/fc
I0906 15:25:27.408829 89616 net.cpp:155] Setting up loss2/fc
I0906 15:25:27.408856 89616 net.cpp:163] Top shape: 32 1024 (32768)
I0906 15:25:27.408871 89616 layer_factory.hpp:76] Creating layer loss2/relu_fc
I0906 15:25:27.408886 89616 net.cpp:110] Creating Layer loss2/relu_fc
I0906 15:25:27.408895 89616 net.cpp:477] loss2/relu_fc <- loss2/fc
I0906 15:25:27.408905 89616 net.cpp:419] loss2/relu_fc -> loss2/fc (in-place)
I0906 15:25:27.408918 89616 net.cpp:155] Setting up loss2/relu_fc
I0906 15:25:27.408926 89616 net.cpp:163] Top shape: 32 1024 (32768)
I0906 15:25:27.408934 89616 layer_factory.hpp:76] Creating layer loss2/drop_fc
I0906 15:25:27.408946 89616 net.cpp:110] Creating Layer loss2/drop_fc
I0906 15:25:27.408952 89616 net.cpp:477] loss2/drop_fc <- loss2/fc
I0906 15:25:27.408962 89616 net.cpp:419] loss2/drop_fc -> loss2/fc (in-place)
I0906 15:25:27.408977 89616 net.cpp:155] Setting up loss2/drop_fc
I0906 15:25:27.408984 89616 net.cpp:163] Top shape: 32 1024 (32768)
I0906 15:25:27.408992 89616 layer_factory.hpp:76] Creating layer loss2/classifier_cub
I0906 15:25:27.409005 89616 net.cpp:110] Creating Layer loss2/classifier_cub
I0906 15:25:27.409013 89616 net.cpp:477] loss2/classifier_cub <- loss2/fc
I0906 15:25:27.409024 89616 net.cpp:433] loss2/classifier_cub -> loss2/classifier
I0906 15:25:27.424432 89616 net.cpp:155] Setting up loss2/classifier_cub
I0906 15:25:27.424455 89616 net.cpp:163] Top shape: 32 200 (6400)
I0906 15:25:27.424469 89616 layer_factory.hpp:76] Creating layer loss2/loss
I0906 15:25:27.424482 89616 net.cpp:110] Creating Layer loss2/loss
I0906 15:25:27.424490 89616 net.cpp:477] loss2/loss <- loss2/classifier
I0906 15:25:27.424500 89616 net.cpp:477] loss2/loss <- label_data_1_split_1
I0906 15:25:27.424515 89616 net.cpp:433] loss2/loss -> loss2/loss1
I0906 15:25:27.424531 89616 layer_factory.hpp:76] Creating layer loss2/loss
I0906 15:25:27.424646 89616 net.cpp:155] Setting up loss2/loss
I0906 15:25:27.424661 89616 net.cpp:163] Top shape: (1)
I0906 15:25:27.424667 89616 net.cpp:168]     with loss weight 0.3
I0906 15:25:27.424684 89616 layer_factory.hpp:76] Creating layer inception_4e/1x1
I0906 15:25:27.424700 89616 net.cpp:110] Creating Layer inception_4e/1x1
I0906 15:25:27.424708 89616 net.cpp:477] inception_4e/1x1 <- inception_4d/output_inception_4d/output_0_split_1
I0906 15:25:27.424723 89616 net.cpp:433] inception_4e/1x1 -> inception_4e/1x1
I0906 15:25:27.426942 89616 net.cpp:155] Setting up inception_4e/1x1
I0906 15:25:27.426983 89616 net.cpp:163] Top shape: 32 256 14 14 (1605632)
I0906 15:25:27.427000 89616 layer_factory.hpp:76] Creating layer inception_4e/relu_1x1
I0906 15:25:27.427011 89616 net.cpp:110] Creating Layer inception_4e/relu_1x1
I0906 15:25:27.427019 89616 net.cpp:477] inception_4e/relu_1x1 <- inception_4e/1x1
I0906 15:25:27.427031 89616 net.cpp:419] inception_4e/relu_1x1 -> inception_4e/1x1 (in-place)
I0906 15:25:27.427042 89616 net.cpp:155] Setting up inception_4e/relu_1x1
I0906 15:25:27.427050 89616 net.cpp:163] Top shape: 32 256 14 14 (1605632)
I0906 15:25:27.427057 89616 layer_factory.hpp:76] Creating layer inception_4e/3x3_reduce
I0906 15:25:27.427070 89616 net.cpp:110] Creating Layer inception_4e/3x3_reduce
I0906 15:25:27.427078 89616 net.cpp:477] inception_4e/3x3_reduce <- inception_4d/output_inception_4d/output_0_split_2
I0906 15:25:27.427090 89616 net.cpp:433] inception_4e/3x3_reduce -> inception_4e/3x3_reduce
I0906 15:25:27.429384 89616 net.cpp:155] Setting up inception_4e/3x3_reduce
I0906 15:25:27.429409 89616 net.cpp:163] Top shape: 32 160 14 14 (1003520)
I0906 15:25:27.429424 89616 layer_factory.hpp:76] Creating layer inception_4e/relu_3x3_reduce
I0906 15:25:27.429437 89616 net.cpp:110] Creating Layer inception_4e/relu_3x3_reduce
I0906 15:25:27.429446 89616 net.cpp:477] inception_4e/relu_3x3_reduce <- inception_4e/3x3_reduce
I0906 15:25:27.429458 89616 net.cpp:419] inception_4e/relu_3x3_reduce -> inception_4e/3x3_reduce (in-place)
I0906 15:25:27.429471 89616 net.cpp:155] Setting up inception_4e/relu_3x3_reduce
I0906 15:25:27.429479 89616 net.cpp:163] Top shape: 32 160 14 14 (1003520)
I0906 15:25:27.429486 89616 layer_factory.hpp:76] Creating layer inception_4e/3x3
I0906 15:25:27.429498 89616 net.cpp:110] Creating Layer inception_4e/3x3
I0906 15:25:27.429505 89616 net.cpp:477] inception_4e/3x3 <- inception_4e/3x3_reduce
I0906 15:25:27.429517 89616 net.cpp:433] inception_4e/3x3 -> inception_4e/3x3
I0906 15:25:27.438170 89616 net.cpp:155] Setting up inception_4e/3x3
I0906 15:25:27.438196 89616 net.cpp:163] Top shape: 32 320 14 14 (2007040)
I0906 15:25:27.438210 89616 layer_factory.hpp:76] Creating layer inception_4e/relu_3x3
I0906 15:25:27.438225 89616 net.cpp:110] Creating Layer inception_4e/relu_3x3
I0906 15:25:27.438233 89616 net.cpp:477] inception_4e/relu_3x3 <- inception_4e/3x3
I0906 15:25:27.438244 89616 net.cpp:419] inception_4e/relu_3x3 -> inception_4e/3x3 (in-place)
I0906 15:25:27.438262 89616 net.cpp:155] Setting up inception_4e/relu_3x3
I0906 15:25:27.438271 89616 net.cpp:163] Top shape: 32 320 14 14 (2007040)
I0906 15:25:27.438277 89616 layer_factory.hpp:76] Creating layer inception_4e/5x5_reduce
I0906 15:25:27.438290 89616 net.cpp:110] Creating Layer inception_4e/5x5_reduce
I0906 15:25:27.438297 89616 net.cpp:477] inception_4e/5x5_reduce <- inception_4d/output_inception_4d/output_0_split_3
I0906 15:25:27.438312 89616 net.cpp:433] inception_4e/5x5_reduce -> inception_4e/5x5_reduce
I0906 15:25:27.438684 89616 net.cpp:155] Setting up inception_4e/5x5_reduce
I0906 15:25:27.438700 89616 net.cpp:163] Top shape: 32 32 14 14 (200704)
I0906 15:25:27.438712 89616 layer_factory.hpp:76] Creating layer inception_4e/relu_5x5_reduce
I0906 15:25:27.438722 89616 net.cpp:110] Creating Layer inception_4e/relu_5x5_reduce
I0906 15:25:27.438730 89616 net.cpp:477] inception_4e/relu_5x5_reduce <- inception_4e/5x5_reduce
I0906 15:25:27.438740 89616 net.cpp:419] inception_4e/relu_5x5_reduce -> inception_4e/5x5_reduce (in-place)
I0906 15:25:27.438751 89616 net.cpp:155] Setting up inception_4e/relu_5x5_reduce
I0906 15:25:27.438760 89616 net.cpp:163] Top shape: 32 32 14 14 (200704)
I0906 15:25:27.438766 89616 layer_factory.hpp:76] Creating layer inception_4e/5x5
I0906 15:25:27.438801 89616 net.cpp:110] Creating Layer inception_4e/5x5
I0906 15:25:27.438807 89616 net.cpp:477] inception_4e/5x5 <- inception_4e/5x5_reduce
I0906 15:25:27.438822 89616 net.cpp:433] inception_4e/5x5 -> inception_4e/5x5
I0906 15:25:27.440526 89616 net.cpp:155] Setting up inception_4e/5x5
I0906 15:25:27.440543 89616 net.cpp:163] Top shape: 32 128 14 14 (802816)
I0906 15:25:27.440582 89616 layer_factory.hpp:76] Creating layer inception_4e/relu_5x5
I0906 15:25:27.440598 89616 net.cpp:110] Creating Layer inception_4e/relu_5x5
I0906 15:25:27.440605 89616 net.cpp:477] inception_4e/relu_5x5 <- inception_4e/5x5
I0906 15:25:27.440615 89616 net.cpp:419] inception_4e/relu_5x5 -> inception_4e/5x5 (in-place)
I0906 15:25:27.440628 89616 net.cpp:155] Setting up inception_4e/relu_5x5
I0906 15:25:27.440636 89616 net.cpp:163] Top shape: 32 128 14 14 (802816)
I0906 15:25:27.440642 89616 layer_factory.hpp:76] Creating layer inception_4e/pool
I0906 15:25:27.440654 89616 net.cpp:110] Creating Layer inception_4e/pool
I0906 15:25:27.440661 89616 net.cpp:477] inception_4e/pool <- inception_4d/output_inception_4d/output_0_split_4
I0906 15:25:27.440672 89616 net.cpp:433] inception_4e/pool -> inception_4e/pool
I0906 15:25:27.440688 89616 net.cpp:155] Setting up inception_4e/pool
I0906 15:25:27.440697 89616 net.cpp:163] Top shape: 32 528 14 14 (3311616)
I0906 15:25:27.440704 89616 layer_factory.hpp:76] Creating layer inception_4e/pool_proj
I0906 15:25:27.440718 89616 net.cpp:110] Creating Layer inception_4e/pool_proj
I0906 15:25:27.440726 89616 net.cpp:477] inception_4e/pool_proj <- inception_4e/pool
I0906 15:25:27.440738 89616 net.cpp:433] inception_4e/pool_proj -> inception_4e/pool_proj
I0906 15:25:27.441887 89616 net.cpp:155] Setting up inception_4e/pool_proj
I0906 15:25:27.441905 89616 net.cpp:163] Top shape: 32 128 14 14 (802816)
I0906 15:25:27.441916 89616 layer_factory.hpp:76] Creating layer inception_4e/relu_pool_proj
I0906 15:25:27.441927 89616 net.cpp:110] Creating Layer inception_4e/relu_pool_proj
I0906 15:25:27.441936 89616 net.cpp:477] inception_4e/relu_pool_proj <- inception_4e/pool_proj
I0906 15:25:27.441946 89616 net.cpp:419] inception_4e/relu_pool_proj -> inception_4e/pool_proj (in-place)
I0906 15:25:27.441957 89616 net.cpp:155] Setting up inception_4e/relu_pool_proj
I0906 15:25:27.441965 89616 net.cpp:163] Top shape: 32 128 14 14 (802816)
I0906 15:25:27.441972 89616 layer_factory.hpp:76] Creating layer inception_4e/output
I0906 15:25:27.441985 89616 net.cpp:110] Creating Layer inception_4e/output
I0906 15:25:27.441992 89616 net.cpp:477] inception_4e/output <- inception_4e/1x1
I0906 15:25:27.442000 89616 net.cpp:477] inception_4e/output <- inception_4e/3x3
I0906 15:25:27.442008 89616 net.cpp:477] inception_4e/output <- inception_4e/5x5
I0906 15:25:27.442016 89616 net.cpp:477] inception_4e/output <- inception_4e/pool_proj
I0906 15:25:27.442025 89616 net.cpp:433] inception_4e/output -> inception_4e/output
I0906 15:25:27.442039 89616 net.cpp:155] Setting up inception_4e/output
I0906 15:25:27.442049 89616 net.cpp:163] Top shape: 32 832 14 14 (5218304)
I0906 15:25:27.442055 89616 layer_factory.hpp:76] Creating layer pool4/3x3_s2
I0906 15:25:27.442065 89616 net.cpp:110] Creating Layer pool4/3x3_s2
I0906 15:25:27.442072 89616 net.cpp:477] pool4/3x3_s2 <- inception_4e/output
I0906 15:25:27.442083 89616 net.cpp:433] pool4/3x3_s2 -> pool4/3x3_s2
I0906 15:25:27.442097 89616 net.cpp:155] Setting up pool4/3x3_s2
I0906 15:25:27.442106 89616 net.cpp:163] Top shape: 32 832 7 7 (1304576)
I0906 15:25:27.442112 89616 layer_factory.hpp:76] Creating layer pool4/3x3_s2_pool4/3x3_s2_0_split
I0906 15:25:27.442126 89616 net.cpp:110] Creating Layer pool4/3x3_s2_pool4/3x3_s2_0_split
I0906 15:25:27.442131 89616 net.cpp:477] pool4/3x3_s2_pool4/3x3_s2_0_split <- pool4/3x3_s2
I0906 15:25:27.442142 89616 net.cpp:433] pool4/3x3_s2_pool4/3x3_s2_0_split -> pool4/3x3_s2_pool4/3x3_s2_0_split_0
I0906 15:25:27.442154 89616 net.cpp:433] pool4/3x3_s2_pool4/3x3_s2_0_split -> pool4/3x3_s2_pool4/3x3_s2_0_split_1
I0906 15:25:27.442167 89616 net.cpp:433] pool4/3x3_s2_pool4/3x3_s2_0_split -> pool4/3x3_s2_pool4/3x3_s2_0_split_2
I0906 15:25:27.442179 89616 net.cpp:433] pool4/3x3_s2_pool4/3x3_s2_0_split -> pool4/3x3_s2_pool4/3x3_s2_0_split_3
I0906 15:25:27.442193 89616 net.cpp:155] Setting up pool4/3x3_s2_pool4/3x3_s2_0_split
I0906 15:25:27.442200 89616 net.cpp:163] Top shape: 32 832 7 7 (1304576)
I0906 15:25:27.442237 89616 net.cpp:163] Top shape: 32 832 7 7 (1304576)
I0906 15:25:27.442246 89616 net.cpp:163] Top shape: 32 832 7 7 (1304576)
I0906 15:25:27.442255 89616 net.cpp:163] Top shape: 32 832 7 7 (1304576)
I0906 15:25:27.442260 89616 layer_factory.hpp:76] Creating layer inception_5a/1x1
I0906 15:25:27.442273 89616 net.cpp:110] Creating Layer inception_5a/1x1
I0906 15:25:27.442281 89616 net.cpp:477] inception_5a/1x1 <- pool4/3x3_s2_pool4/3x3_s2_0_split_0
I0906 15:25:27.442296 89616 net.cpp:433] inception_5a/1x1 -> inception_5a/1x1
I0906 15:25:27.446614 89616 net.cpp:155] Setting up inception_5a/1x1
I0906 15:25:27.446640 89616 net.cpp:163] Top shape: 32 256 7 7 (401408)
I0906 15:25:27.446653 89616 layer_factory.hpp:76] Creating layer inception_5a/relu_1x1
I0906 15:25:27.446668 89616 net.cpp:110] Creating Layer inception_5a/relu_1x1
I0906 15:25:27.446676 89616 net.cpp:477] inception_5a/relu_1x1 <- inception_5a/1x1
I0906 15:25:27.446689 89616 net.cpp:419] inception_5a/relu_1x1 -> inception_5a/1x1 (in-place)
I0906 15:25:27.446702 89616 net.cpp:155] Setting up inception_5a/relu_1x1
I0906 15:25:27.446710 89616 net.cpp:163] Top shape: 32 256 7 7 (401408)
I0906 15:25:27.446718 89616 layer_factory.hpp:76] Creating layer inception_5a/3x3_reduce
I0906 15:25:27.446732 89616 net.cpp:110] Creating Layer inception_5a/3x3_reduce
I0906 15:25:27.446739 89616 net.cpp:477] inception_5a/3x3_reduce <- pool4/3x3_s2_pool4/3x3_s2_0_split_1
I0906 15:25:27.446751 89616 net.cpp:433] inception_5a/3x3_reduce -> inception_5a/3x3_reduce
I0906 15:25:27.449798 89616 net.cpp:155] Setting up inception_5a/3x3_reduce
I0906 15:25:27.449823 89616 net.cpp:163] Top shape: 32 160 7 7 (250880)
I0906 15:25:27.449837 89616 layer_factory.hpp:76] Creating layer inception_5a/relu_3x3_reduce
I0906 15:25:27.449849 89616 net.cpp:110] Creating Layer inception_5a/relu_3x3_reduce
I0906 15:25:27.449857 89616 net.cpp:477] inception_5a/relu_3x3_reduce <- inception_5a/3x3_reduce
I0906 15:25:27.449868 89616 net.cpp:419] inception_5a/relu_3x3_reduce -> inception_5a/3x3_reduce (in-place)
I0906 15:25:27.449882 89616 net.cpp:155] Setting up inception_5a/relu_3x3_reduce
I0906 15:25:27.449890 89616 net.cpp:163] Top shape: 32 160 7 7 (250880)
I0906 15:25:27.449898 89616 layer_factory.hpp:76] Creating layer inception_5a/3x3
I0906 15:25:27.449911 89616 net.cpp:110] Creating Layer inception_5a/3x3
I0906 15:25:27.449918 89616 net.cpp:477] inception_5a/3x3 <- inception_5a/3x3_reduce
I0906 15:25:27.449930 89616 net.cpp:433] inception_5a/3x3 -> inception_5a/3x3
I0906 15:25:27.455690 89616 net.cpp:155] Setting up inception_5a/3x3
I0906 15:25:27.455708 89616 net.cpp:163] Top shape: 32 320 7 7 (501760)
I0906 15:25:27.455724 89616 layer_factory.hpp:76] Creating layer inception_5a/relu_3x3
I0906 15:25:27.455732 89616 net.cpp:110] Creating Layer inception_5a/relu_3x3
I0906 15:25:27.455739 89616 net.cpp:477] inception_5a/relu_3x3 <- inception_5a/3x3
I0906 15:25:27.455745 89616 net.cpp:419] inception_5a/relu_3x3 -> inception_5a/3x3 (in-place)
I0906 15:25:27.455754 89616 net.cpp:155] Setting up inception_5a/relu_3x3
I0906 15:25:27.455759 89616 net.cpp:163] Top shape: 32 320 7 7 (501760)
I0906 15:25:27.455762 89616 layer_factory.hpp:76] Creating layer inception_5a/5x5_reduce
I0906 15:25:27.455771 89616 net.cpp:110] Creating Layer inception_5a/5x5_reduce
I0906 15:25:27.455775 89616 net.cpp:477] inception_5a/5x5_reduce <- pool4/3x3_s2_pool4/3x3_s2_0_split_2
I0906 15:25:27.455783 89616 net.cpp:433] inception_5a/5x5_reduce -> inception_5a/5x5_reduce
I0906 15:25:27.456095 89616 net.cpp:155] Setting up inception_5a/5x5_reduce
I0906 15:25:27.456110 89616 net.cpp:163] Top shape: 32 32 7 7 (50176)
I0906 15:25:27.456117 89616 layer_factory.hpp:76] Creating layer inception_5a/relu_5x5_reduce
I0906 15:25:27.456123 89616 net.cpp:110] Creating Layer inception_5a/relu_5x5_reduce
I0906 15:25:27.456128 89616 net.cpp:477] inception_5a/relu_5x5_reduce <- inception_5a/5x5_reduce
I0906 15:25:27.456135 89616 net.cpp:419] inception_5a/relu_5x5_reduce -> inception_5a/5x5_reduce (in-place)
I0906 15:25:27.456141 89616 net.cpp:155] Setting up inception_5a/relu_5x5_reduce
I0906 15:25:27.456161 89616 net.cpp:163] Top shape: 32 32 7 7 (50176)
I0906 15:25:27.456166 89616 layer_factory.hpp:76] Creating layer inception_5a/5x5
I0906 15:25:27.456174 89616 net.cpp:110] Creating Layer inception_5a/5x5
I0906 15:25:27.456178 89616 net.cpp:477] inception_5a/5x5 <- inception_5a/5x5_reduce
I0906 15:25:27.456187 89616 net.cpp:433] inception_5a/5x5 -> inception_5a/5x5
I0906 15:25:27.457164 89616 net.cpp:155] Setting up inception_5a/5x5
I0906 15:25:27.457175 89616 net.cpp:163] Top shape: 32 128 7 7 (200704)
I0906 15:25:27.457181 89616 layer_factory.hpp:76] Creating layer inception_5a/relu_5x5
I0906 15:25:27.457190 89616 net.cpp:110] Creating Layer inception_5a/relu_5x5
I0906 15:25:27.457195 89616 net.cpp:477] inception_5a/relu_5x5 <- inception_5a/5x5
I0906 15:25:27.457201 89616 net.cpp:419] inception_5a/relu_5x5 -> inception_5a/5x5 (in-place)
I0906 15:25:27.457207 89616 net.cpp:155] Setting up inception_5a/relu_5x5
I0906 15:25:27.457212 89616 net.cpp:163] Top shape: 32 128 7 7 (200704)
I0906 15:25:27.457216 89616 layer_factory.hpp:76] Creating layer inception_5a/pool
I0906 15:25:27.457222 89616 net.cpp:110] Creating Layer inception_5a/pool
I0906 15:25:27.457227 89616 net.cpp:477] inception_5a/pool <- pool4/3x3_s2_pool4/3x3_s2_0_split_3
I0906 15:25:27.457233 89616 net.cpp:433] inception_5a/pool -> inception_5a/pool
I0906 15:25:27.457243 89616 net.cpp:155] Setting up inception_5a/pool
I0906 15:25:27.457248 89616 net.cpp:163] Top shape: 32 832 7 7 (1304576)
I0906 15:25:27.457252 89616 layer_factory.hpp:76] Creating layer inception_5a/pool_proj
I0906 15:25:27.457262 89616 net.cpp:110] Creating Layer inception_5a/pool_proj
I0906 15:25:27.457265 89616 net.cpp:477] inception_5a/pool_proj <- inception_5a/pool
I0906 15:25:27.457273 89616 net.cpp:433] inception_5a/pool_proj -> inception_5a/pool_proj
I0906 15:25:27.458920 89616 net.cpp:155] Setting up inception_5a/pool_proj
I0906 15:25:27.458936 89616 net.cpp:163] Top shape: 32 128 7 7 (200704)
I0906 15:25:27.458945 89616 layer_factory.hpp:76] Creating layer inception_5a/relu_pool_proj
I0906 15:25:27.458952 89616 net.cpp:110] Creating Layer inception_5a/relu_pool_proj
I0906 15:25:27.458957 89616 net.cpp:477] inception_5a/relu_pool_proj <- inception_5a/pool_proj
I0906 15:25:27.458963 89616 net.cpp:419] inception_5a/relu_pool_proj -> inception_5a/pool_proj (in-place)
I0906 15:25:27.458971 89616 net.cpp:155] Setting up inception_5a/relu_pool_proj
I0906 15:25:27.458976 89616 net.cpp:163] Top shape: 32 128 7 7 (200704)
I0906 15:25:27.458981 89616 layer_factory.hpp:76] Creating layer inception_5a/output
I0906 15:25:27.458989 89616 net.cpp:110] Creating Layer inception_5a/output
I0906 15:25:27.458993 89616 net.cpp:477] inception_5a/output <- inception_5a/1x1
I0906 15:25:27.458998 89616 net.cpp:477] inception_5a/output <- inception_5a/3x3
I0906 15:25:27.459003 89616 net.cpp:477] inception_5a/output <- inception_5a/5x5
I0906 15:25:27.459007 89616 net.cpp:477] inception_5a/output <- inception_5a/pool_proj
I0906 15:25:27.459013 89616 net.cpp:433] inception_5a/output -> inception_5a/output
I0906 15:25:27.459022 89616 net.cpp:155] Setting up inception_5a/output
I0906 15:25:27.459028 89616 net.cpp:163] Top shape: 32 832 7 7 (1304576)
I0906 15:25:27.459030 89616 layer_factory.hpp:76] Creating layer inception_5a/output_inception_5a/output_0_split
I0906 15:25:27.459038 89616 net.cpp:110] Creating Layer inception_5a/output_inception_5a/output_0_split
I0906 15:25:27.459041 89616 net.cpp:477] inception_5a/output_inception_5a/output_0_split <- inception_5a/output
I0906 15:25:27.459048 89616 net.cpp:433] inception_5a/output_inception_5a/output_0_split -> inception_5a/output_inception_5a/output_0_split_0
I0906 15:25:27.459056 89616 net.cpp:433] inception_5a/output_inception_5a/output_0_split -> inception_5a/output_inception_5a/output_0_split_1
I0906 15:25:27.459064 89616 net.cpp:433] inception_5a/output_inception_5a/output_0_split -> inception_5a/output_inception_5a/output_0_split_2
I0906 15:25:27.459071 89616 net.cpp:433] inception_5a/output_inception_5a/output_0_split -> inception_5a/output_inception_5a/output_0_split_3
I0906 15:25:27.459094 89616 net.cpp:155] Setting up inception_5a/output_inception_5a/output_0_split
I0906 15:25:27.459100 89616 net.cpp:163] Top shape: 32 832 7 7 (1304576)
I0906 15:25:27.459103 89616 net.cpp:163] Top shape: 32 832 7 7 (1304576)
I0906 15:25:27.459108 89616 net.cpp:163] Top shape: 32 832 7 7 (1304576)
I0906 15:25:27.459112 89616 net.cpp:163] Top shape: 32 832 7 7 (1304576)
I0906 15:25:27.459116 89616 layer_factory.hpp:76] Creating layer inception_5b/1x1
I0906 15:25:27.459125 89616 net.cpp:110] Creating Layer inception_5b/1x1
I0906 15:25:27.459130 89616 net.cpp:477] inception_5b/1x1 <- inception_5a/output_inception_5a/output_0_split_0
I0906 15:25:27.459137 89616 net.cpp:433] inception_5b/1x1 -> inception_5b/1x1
I0906 15:25:27.462756 89616 net.cpp:155] Setting up inception_5b/1x1
I0906 15:25:27.462772 89616 net.cpp:163] Top shape: 32 384 7 7 (602112)
I0906 15:25:27.462781 89616 layer_factory.hpp:76] Creating layer inception_5b/relu_1x1
I0906 15:25:27.462788 89616 net.cpp:110] Creating Layer inception_5b/relu_1x1
I0906 15:25:27.462793 89616 net.cpp:477] inception_5b/relu_1x1 <- inception_5b/1x1
I0906 15:25:27.462800 89616 net.cpp:419] inception_5b/relu_1x1 -> inception_5b/1x1 (in-place)
I0906 15:25:27.462810 89616 net.cpp:155] Setting up inception_5b/relu_1x1
I0906 15:25:27.462815 89616 net.cpp:163] Top shape: 32 384 7 7 (602112)
I0906 15:25:27.462818 89616 layer_factory.hpp:76] Creating layer inception_5b/3x3_reduce
I0906 15:25:27.462828 89616 net.cpp:110] Creating Layer inception_5b/3x3_reduce
I0906 15:25:27.462832 89616 net.cpp:477] inception_5b/3x3_reduce <- inception_5a/output_inception_5a/output_0_split_1
I0906 15:25:27.462839 89616 net.cpp:433] inception_5b/3x3_reduce -> inception_5b/3x3_reduce
I0906 15:25:27.464917 89616 net.cpp:155] Setting up inception_5b/3x3_reduce
I0906 15:25:27.464932 89616 net.cpp:163] Top shape: 32 192 7 7 (301056)
I0906 15:25:27.464941 89616 layer_factory.hpp:76] Creating layer inception_5b/relu_3x3_reduce
I0906 15:25:27.464949 89616 net.cpp:110] Creating Layer inception_5b/relu_3x3_reduce
I0906 15:25:27.464954 89616 net.cpp:477] inception_5b/relu_3x3_reduce <- inception_5b/3x3_reduce
I0906 15:25:27.464961 89616 net.cpp:419] inception_5b/relu_3x3_reduce -> inception_5b/3x3_reduce (in-place)
I0906 15:25:27.464968 89616 net.cpp:155] Setting up inception_5b/relu_3x3_reduce
I0906 15:25:27.464973 89616 net.cpp:163] Top shape: 32 192 7 7 (301056)
I0906 15:25:27.464977 89616 layer_factory.hpp:76] Creating layer inception_5b/3x3
I0906 15:25:27.464985 89616 net.cpp:110] Creating Layer inception_5b/3x3
I0906 15:25:27.464988 89616 net.cpp:477] inception_5b/3x3 <- inception_5b/3x3_reduce
I0906 15:25:27.464998 89616 net.cpp:433] inception_5b/3x3 -> inception_5b/3x3
I0906 15:25:27.472326 89616 net.cpp:155] Setting up inception_5b/3x3
I0906 15:25:27.472344 89616 net.cpp:163] Top shape: 32 384 7 7 (602112)
I0906 15:25:27.472352 89616 layer_factory.hpp:76] Creating layer inception_5b/relu_3x3
I0906 15:25:27.472359 89616 net.cpp:110] Creating Layer inception_5b/relu_3x3
I0906 15:25:27.472364 89616 net.cpp:477] inception_5b/relu_3x3 <- inception_5b/3x3
I0906 15:25:27.472373 89616 net.cpp:419] inception_5b/relu_3x3 -> inception_5b/3x3 (in-place)
I0906 15:25:27.472381 89616 net.cpp:155] Setting up inception_5b/relu_3x3
I0906 15:25:27.472386 89616 net.cpp:163] Top shape: 32 384 7 7 (602112)
I0906 15:25:27.472390 89616 layer_factory.hpp:76] Creating layer inception_5b/5x5_reduce
I0906 15:25:27.472399 89616 net.cpp:110] Creating Layer inception_5b/5x5_reduce
I0906 15:25:27.472404 89616 net.cpp:477] inception_5b/5x5_reduce <- inception_5a/output_inception_5a/output_0_split_2
I0906 15:25:27.472411 89616 net.cpp:433] inception_5b/5x5_reduce -> inception_5b/5x5_reduce
I0906 15:25:27.473433 89616 net.cpp:155] Setting up inception_5b/5x5_reduce
I0906 15:25:27.473448 89616 net.cpp:163] Top shape: 32 48 7 7 (75264)
I0906 15:25:27.473458 89616 layer_factory.hpp:76] Creating layer inception_5b/relu_5x5_reduce
I0906 15:25:27.473479 89616 net.cpp:110] Creating Layer inception_5b/relu_5x5_reduce
I0906 15:25:27.473484 89616 net.cpp:477] inception_5b/relu_5x5_reduce <- inception_5b/5x5_reduce
I0906 15:25:27.473491 89616 net.cpp:419] inception_5b/relu_5x5_reduce -> inception_5b/5x5_reduce (in-place)
I0906 15:25:27.473500 89616 net.cpp:155] Setting up inception_5b/relu_5x5_reduce
I0906 15:25:27.473505 89616 net.cpp:163] Top shape: 32 48 7 7 (75264)
I0906 15:25:27.473510 89616 layer_factory.hpp:76] Creating layer inception_5b/5x5
I0906 15:25:27.473517 89616 net.cpp:110] Creating Layer inception_5b/5x5
I0906 15:25:27.473521 89616 net.cpp:477] inception_5b/5x5 <- inception_5b/5x5_reduce
I0906 15:25:27.473531 89616 net.cpp:433] inception_5b/5x5 -> inception_5b/5x5
I0906 15:25:27.474967 89616 net.cpp:155] Setting up inception_5b/5x5
I0906 15:25:27.474977 89616 net.cpp:163] Top shape: 32 128 7 7 (200704)
I0906 15:25:27.474985 89616 layer_factory.hpp:76] Creating layer inception_5b/relu_5x5
I0906 15:25:27.474992 89616 net.cpp:110] Creating Layer inception_5b/relu_5x5
I0906 15:25:27.474997 89616 net.cpp:477] inception_5b/relu_5x5 <- inception_5b/5x5
I0906 15:25:27.475003 89616 net.cpp:419] inception_5b/relu_5x5 -> inception_5b/5x5 (in-place)
I0906 15:25:27.475009 89616 net.cpp:155] Setting up inception_5b/relu_5x5
I0906 15:25:27.475014 89616 net.cpp:163] Top shape: 32 128 7 7 (200704)
I0906 15:25:27.475018 89616 layer_factory.hpp:76] Creating layer inception_5b/pool
I0906 15:25:27.475025 89616 net.cpp:110] Creating Layer inception_5b/pool
I0906 15:25:27.475029 89616 net.cpp:477] inception_5b/pool <- inception_5a/output_inception_5a/output_0_split_3
I0906 15:25:27.475035 89616 net.cpp:433] inception_5b/pool -> inception_5b/pool
I0906 15:25:27.475045 89616 net.cpp:155] Setting up inception_5b/pool
I0906 15:25:27.475050 89616 net.cpp:163] Top shape: 32 832 7 7 (1304576)
I0906 15:25:27.475054 89616 layer_factory.hpp:76] Creating layer inception_5b/pool_proj
I0906 15:25:27.475064 89616 net.cpp:110] Creating Layer inception_5b/pool_proj
I0906 15:25:27.475067 89616 net.cpp:477] inception_5b/pool_proj <- inception_5b/pool
I0906 15:25:27.475075 89616 net.cpp:433] inception_5b/pool_proj -> inception_5b/pool_proj
I0906 15:25:27.476681 89616 net.cpp:155] Setting up inception_5b/pool_proj
I0906 15:25:27.476697 89616 net.cpp:163] Top shape: 32 128 7 7 (200704)
I0906 15:25:27.476706 89616 layer_factory.hpp:76] Creating layer inception_5b/relu_pool_proj
I0906 15:25:27.476713 89616 net.cpp:110] Creating Layer inception_5b/relu_pool_proj
I0906 15:25:27.476717 89616 net.cpp:477] inception_5b/relu_pool_proj <- inception_5b/pool_proj
I0906 15:25:27.476727 89616 net.cpp:419] inception_5b/relu_pool_proj -> inception_5b/pool_proj (in-place)
I0906 15:25:27.476734 89616 net.cpp:155] Setting up inception_5b/relu_pool_proj
I0906 15:25:27.476739 89616 net.cpp:163] Top shape: 32 128 7 7 (200704)
I0906 15:25:27.476743 89616 layer_factory.hpp:76] Creating layer inception_5b/output
I0906 15:25:27.476752 89616 net.cpp:110] Creating Layer inception_5b/output
I0906 15:25:27.476755 89616 net.cpp:477] inception_5b/output <- inception_5b/1x1
I0906 15:25:27.476760 89616 net.cpp:477] inception_5b/output <- inception_5b/3x3
I0906 15:25:27.476765 89616 net.cpp:477] inception_5b/output <- inception_5b/5x5
I0906 15:25:27.476769 89616 net.cpp:477] inception_5b/output <- inception_5b/pool_proj
I0906 15:25:27.476775 89616 net.cpp:433] inception_5b/output -> inception_5b/output
I0906 15:25:27.476783 89616 net.cpp:155] Setting up inception_5b/output
I0906 15:25:27.476788 89616 net.cpp:163] Top shape: 32 1024 7 7 (1605632)
I0906 15:25:27.476793 89616 layer_factory.hpp:76] Creating layer pool5/7x7_s1
I0906 15:25:27.476801 89616 net.cpp:110] Creating Layer pool5/7x7_s1
I0906 15:25:27.476806 89616 net.cpp:477] pool5/7x7_s1 <- inception_5b/output
I0906 15:25:27.476812 89616 net.cpp:433] pool5/7x7_s1 -> pool5/7x7_s1
I0906 15:25:27.476820 89616 net.cpp:155] Setting up pool5/7x7_s1
I0906 15:25:27.476825 89616 net.cpp:163] Top shape: 32 1024 1 1 (32768)
I0906 15:25:27.476830 89616 layer_factory.hpp:76] Creating layer pool5/drop_7x7_s1
I0906 15:25:27.476850 89616 net.cpp:110] Creating Layer pool5/drop_7x7_s1
I0906 15:25:27.476855 89616 net.cpp:477] pool5/drop_7x7_s1 <- pool5/7x7_s1
I0906 15:25:27.476861 89616 net.cpp:419] pool5/drop_7x7_s1 -> pool5/7x7_s1 (in-place)
I0906 15:25:27.476869 89616 net.cpp:155] Setting up pool5/drop_7x7_s1
I0906 15:25:27.476874 89616 net.cpp:163] Top shape: 32 1024 1 1 (32768)
I0906 15:25:27.476879 89616 layer_factory.hpp:76] Creating layer loss3/classifier_cub
I0906 15:25:27.476887 89616 net.cpp:110] Creating Layer loss3/classifier_cub
I0906 15:25:27.476891 89616 net.cpp:477] loss3/classifier_cub <- pool5/7x7_s1
I0906 15:25:27.476899 89616 net.cpp:433] loss3/classifier_cub -> loss3/classifier
I0906 15:25:27.485806 89616 net.cpp:155] Setting up loss3/classifier_cub
I0906 15:25:27.485821 89616 net.cpp:163] Top shape: 32 200 (6400)
I0906 15:25:27.485831 89616 layer_factory.hpp:76] Creating layer loss3/loss3
I0906 15:25:27.485841 89616 net.cpp:110] Creating Layer loss3/loss3
I0906 15:25:27.485846 89616 net.cpp:477] loss3/loss3 <- loss3/classifier
I0906 15:25:27.485853 89616 net.cpp:477] loss3/loss3 <- label_data_1_split_2
I0906 15:25:27.485859 89616 net.cpp:433] loss3/loss3 -> loss3/loss3
I0906 15:25:27.485869 89616 layer_factory.hpp:76] Creating layer loss3/loss3
…
I0906 15:25:27.493247 89616 net.cpp:339] The NetState phase (1) differed from the phase (0) specified by a rule in layer data
I0906 15:25:27.494649 89616 net.cpp:50] Initializing net from parameters: 
name: "CUBNet"
state {
  phase: TEST
}
layer {
  name: "data"
  type: "ImageData"
  top: "data"
  top: "label"
  include {
    phase: TEST
  }
  transform_param {
    mirror: false
    crop_size: 224
    mean_value: 104
    mean_value: 117
    mean_value: 123
  }
  image_data_param {
    source: "data/CUB_200_2011/val_files.txt"
    batch_size: 32
    new_height: 256
    new_width: 256
  }
}
layer {
  name: "conv1/7x7_s2"
  type: "Convolution"
  bottom: "data"
  top: "conv1/7x7_s2"
  param {
    lr_mult: 1
    decay_mult: 1
  }
  param {
    lr_mult: 2
    decay_mult: 0
  }
  convolution_param {
    num_output: 64
    pad: 3
    kernel_size: 7
    stride: 2
    weight_filler {
      type: "xavier"
      std: 0.1
    }
    bias_filler {
      type: "constant"
      value: 0.2
    }
  }
}
layer {
  name: "conv1/relu_7x7"
  type: "ReLU"
  bottom: "conv1/7x7_s2"
  top: "conv1/7x7_s2"
}
layer {
  name: "pool1/3x3_s2"
  type: "Pooling"
  bottom: "conv1/7x7_s2"
  top: "pool1/3x3_s2"
  pooling_param {
    pool: MAX
    kernel_size: 3
    stride: 2
  }
}
layer {
  name: "pool1/norm1"
  type: "LRN"
  bottom: "pool1/3x3_s2"
  top: "pool1/norm1"
  lrn_param {
    local_size: 5
    alpha: 0.0001
    beta: 0.75
  }
}
layer {
  name: "conv2/3x3_reduce"
  type: "Convolution"
  bottom: "pool1/norm1"
  top: "conv2/3x3_reduce"
  param {
    lr_mult: 1
    decay_mult: 1
  }
  param {
    lr_mult: 2
    decay_mult: 0
  }
  convolution_param {
    num_output: 64
    kernel_size: 1
    weight_filler {
      type: "xavier"
      std: 0.1
    }
    bias_filler {
      type: "constant"
      value: 0.2
    }
  }
}
layer {
  name: "conv2/relu_3x3_reduce"
  type: "ReLU"
  bottom: "conv2/3x3_reduce"
  top: "conv2/3x3_reduce"
}
layer {
  name: "conv2/3x3"
  type: "Convolution"
  bottom: "conv2/3x3_reduce"
  top: "conv2/3x3"
  param {
    lr_mult: 1
    decay_mult: 1
  }
  param {
    lr_mult: 2
    decay_mult: 0
  }
  convolution_param {
    num_output: 192
    pad: 1
    kernel_size: 3
    weight_filler {
      type: "xavier"
      std: 0.03
    }
    bias_filler {
      type: "constant"
      value: 0.2
    }
  }
}
layer {
  name: "conv2/relu_3x3"
  type: "ReLU"
  bottom: "conv2/3x3"
  top: "conv2/3x3"
}
layer {
  name: "conv2/norm2"
  type: "LRN"
  bottom: "conv2/3x3"
  top: "conv2/norm2"
  lrn_param {
    local_size: 5
    alpha: 0.0001
    beta: 0.75
  }
}
layer {
  name: "pool2/3x3_s2"
  type: "Pooling"
  bottom: "conv2/norm2"
  top: "pool2/3x3_s2"
  pooling_param {
    pool: MAX
    kernel_size: 3
    stride: 2
  }
}
layer {
  name: "inception_3a/1x1"
  type: "Convolution"
  bottom: "pool2/3x3_s2"
  top: "inception_3a/1x1"
  param {
    lr_mult: 1
    decay_mult: 1
  }
  param {
    lr_mult: 2
    decay_mult: 0
  }
  convolution_param {
    num_output: 64
    kernel_size: 1
    weight_filler {
      type: "xavier"
      std: 0.03
    }
    bias_filler {
      type: "constant"
      value: 0.2
    }
  }
}
layer {
  name: "inception_3a/relu_1x1"
  type: "ReLU"
  bottom: "inception_3a/1x1"
  top: "inception_3a/1x1"
}
layer {
  name: "inception_3a/3x3_reduce"
  type: "Convolution"
  bottom: "pool2/3x3_s2"
  top: "inception_3a/3x3_reduce"
  param {
    lr_mult: 1
    decay_mult: 1
  }
  param {
    lr_mult: 2
    decay_mult: 0
  }
  convolution_param {
    num_output: 96
    kernel_size: 1
    weight_filler {
      type: "xavier"
      std: 0.09
    }
    bias_filler {
      type: "constant"
      value: 0.2
    }
  }
}
layer {
  name: "inception_3a/relu_3x3_reduce"
  type: "ReLU"
  bottom: "inception_3a/3x3_reduce"
  top: "inception_3a/3x3_reduce"
}
layer {
  name: "inception_3a/3x3"
  type: "Convolution"
  bottom: "inception_3a/3x3_reduce"
  top: "inception_3a/3x3"
  param {
    lr_mult: 1
    decay_mult: 1
  }
  param {
    lr_mult: 2
    decay_mult: 0
  }
  convolution_param {
    num_output: 128
    pad: 1
    kernel_size: 3
    weight_filler {
      type: "xavier"
      std: 0.03
    }
    bias_filler {
      type: "constant"
      value: 0.2
    }
  }
}
layer {
  name: "inception_3a/relu_3x3"
  type: "ReLU"
  bottom: "inception_3a/3x3"
  top: "inception_3a/3x3"
}
layer {
  name: "inception_3a/5x5_reduce"
  type: "Convolution"
  bottom: "pool2/3x3_s2"
  top: "inception_3a/5x5_reduce"
  param {
    lr_mult: 1
    decay_mult: 1
  }
  param {
    lr_mult: 2
    decay_mult: 0
  }
  convolution_param {
    num_output: 16
    kernel_size: 1
    weight_filler {
      type: "xavier"
      std: 0.2
    }
    bias_filler {
      type: "constant"
      value: 0.2
    }
  }
}
layer {
  name: "inception_3a/relu_5x5_reduce"
  type: "ReLU"
  bottom: "inception_3a/5x5_reduce"
  top: "inception_3a/5x5_reduce"
}
layer {
  name: "inception_3a/5x5"
  type: "Convolution"
  bottom: "inception_3a/5x5_reduce"
  top: "inception_3a/5x5"
  param {
    lr_mult: 1
    decay_mult: 1
  }
  param {
    lr_mult: 2
    decay_mult: 0
  }
  convolution_param {
    num_output: 32
    pad: 2
    kernel_size: 5
    weight_filler {
      type: "xavier"
      std: 0.03
    }
    bias_filler {
      type: "constant"
      value: 0.2
    }
  }
}
layer {
  name: "inception_3a/relu_5x5"
  type: "ReLU"
  bottom: "inception_3a/5x5"
  top: "inception_3a/5x5"
}
layer {
  name: "inception_3a/pool"
  type: "Pooling"
  bottom: "pool2/3x3_s2"
  top: "inception_3a/pool"
  pooling_param {
    pool: MAX
    kernel_size: 3
    stride: 1
    pad: 1
  }
}
layer {
  name: "inception_3a/pool_proj"
  type: "Convolution"
  bottom: "inception_3a/pool"
  top: "inception_3a/pool_proj"
  param {
    lr_mult: 1
    decay_mult: 1
  }
  param {
    lr_mult: 2
    decay_mult: 0
  }
  convolution_param {
    num_output: 32
    kernel_size: 1
    weight_filler {
      type: "xavier"
      std: 0.1
    }
    bias_filler {
      type: "constant"
      value: 0.2
    }
  }
}
layer {
  name: "inception_3a/relu_pool_proj"
  type: "ReLU"
  bottom: "inception_3a/pool_proj"
  top: "inception_3a/pool_proj"
}
layer {
  name: "inception_3a/output"
  type: "Concat"
  bottom: "inception_3a/1x1"
  bottom: "inception_3a/3x3"
  bottom: "inception_3a/5x5"
  bottom: "inception_3a/pool_proj"
  top: "inception_3a/output"
}
layer {
  name: "inception_3b/1x1"
  type: "Convolution"
  bottom: "inception_3a/output"
  top: "inception_3b/1x1"
  param {
    lr_mult: 1
    decay_mult: 1
  }
  param {
    lr_mult: 2
    decay_mult: 0
  }
  convolution_param {
    num_output: 128
    kernel_size: 1
    weight_filler {
      type: "xavier"
      std: 0.03
    }
    bias_filler {
      type: "constant"
      value: 0.2
    }
  }
}
layer {
  name: "inception_3b/relu_1x1"
  type: "ReLU"
  bottom: "inception_3b/1x1"
  top: "inception_3b/1x1"
}
layer {
  name: "inception_3b/3x3_reduce"
  type: "Convolution"
  bottom: "inception_3a/output"
  top: "inception_3b/3x3_reduce"
  param {
    lr_mult: 1
    decay_mult: 1
  }
  param {
    lr_mult: 2
    decay_mult: 0
  }
  convolution_param {
    num_output: 128
    kernel_size: 1
    weight_filler {
      type: "xavier"
      std: 0.09
    }
    bias_filler {
      type: "constant"
      value: 0.2
    }
  }
}
layer {
  name: "inception_3b/relu_3x3_reduce"
  type: "ReLU"
  bottom: "inception_3b/3x3_reduce"
  top: "inception_3b/3x3_reduce"
}
layer {
  name: "inception_3b/3x3"
  type: "Convolution"
  bottom: "inception_3b/3x3_reduce"
  top: "inception_3b/3x3"
  param {
    lr_mult: 1
    decay_mult: 1
  }
  param {
    lr_mult: 2
    decay_mult: 0
  }
  convolution_param {
    num_output: 192
    pad: 1
    kernel_size: 3
    weight_filler {
      type: "xavier"
      std: 0.03
    }
    bias_filler {
      type: "constant"
      value: 0.2
    }
  }
}
layer {
  name: "inception_3b/relu_3x3"
  type: "ReLU"
  bottom: "inception_3b/3x3"
  top: "inception_3b/3x3"
}
layer {
  name: "inception_3b/5x5_reduce"
  type: "Convolution"
  bottom: "inception_3a/output"
  top: "inception_3b/5x5_reduce"
  param {
    lr_mult: 1
    decay_mult: 1
  }
  param {
    lr_mult: 2
    decay_mult: 0
  }
  convolution_param {
    num_output: 32
    kernel_size: 1
    weight_filler {
      type: "xavier"
      std: 0.2
    }
    bias_filler {
      type: "constant"
      value: 0.2
    }
  }
}
layer {
  name: "inception_3b/relu_5x5_reduce"
  type: "ReLU"
  bottom: "inception_3b/5x5_reduce"
  top: "inception_3b/5x5_reduce"
}
layer {
  name: "inception_3b/5x5"
  type: "Convolution"
  bottom: "inception_3b/5x5_reduce"
  top: "inception_3b/5x5"
  param {
    lr_mult: 1
    decay_mult: 1
  }
  param {
    lr_mult: 2
    decay_mult: 0
  }
  convolution_param {
    num_output: 96
    pad: 2
    kernel_size: 5
    weight_filler {
      type: "xavier"
      std: 0.03
    }
    bias_filler {
      type: "constant"
      value: 0.2
    }
  }
}
layer {
  name: "inception_3b/relu_5x5"
  type: "ReLU"
  bottom: "inception_3b/5x5"
  top: "inception_3b/5x5"
}
layer {
  name: "inception_3b/pool"
  type: "Pooling"
  bottom: "inception_3a/output"
  top: "inception_3b/pool"
  pooling_param {
    pool: MAX
    kernel_size: 3
    stride: 1
    pad: 1
  }
}
layer {
  name: "inception_3b/pool_proj"
  type: "Convolution"
  bottom: "inception_3b/pool"
  top: "inception_3b/pool_proj"
  param {
    lr_mult: 1
    decay_mult: 1
  }
  param {
    lr_mult: 2
    decay_mult: 0
  }
  convolution_param {
    num_output: 64
    kernel_size: 1
    weight_filler {
      type: "xavier"
      std: 0.1
    }
    bias_filler {
      type: "constant"
      value: 0.2
    }
  }
}
layer {
  name: "inception_3b/relu_pool_proj"
  type: "ReLU"
  bottom: "inception_3b/pool_proj"
  top: "inception_3b/pool_proj"
}
layer {
  name: "inception_3b/output"
  type: "Concat"
  bottom: "inception_3b/1x1"
  bottom: "inception_3b/3x3"
  bottom: "inception_3b/5x5"
  bottom: "inception_3b/pool_proj"
  top: "inception_3b/output"
}
layer {
  name: "pool3/3x3_s2"
  type: "Pooling"
  bottom: "inception_3b/output"
  top: "pool3/3x3_s2"
  pooling_param {
    pool: MAX
    kernel_size: 3
    stride: 2
  }
}
layer {
  name: "inception_4a/1x1"
  type: "Convolution"
  bottom: "pool3/3x3_s2"
  top: "inception_4a/1x1"
  param {
    lr_mult: 1
    decay_mult: 1
  }
  param {
    lr_mult: 2
    decay_mult: 0
  }
  convolution_param {
    num_output: 192
    kernel_size: 1
    weight_filler {
      type: "xavier"
      std: 0.03
    }
    bias_filler {
      type: "constant"
      value: 0.2
    }
  }
}
layer {
  name: "inception_4a/relu_1x1"
  type: "ReLU"
  bottom: "inception_4a/1x1"
  top: "inception_4a/1x1"
}
layer {
  name: "inception_4a/3x3_reduce"
  type: "Convolution"
  bottom: "pool3/3x3_s2"
  top: "inception_4a/3x3_reduce"
  param {
    lr_mult: 1
    decay_mult: 1
  }
  param {
    lr_mult: 2
    decay_mult: 0
  }
  convolution_param {
    num_output: 96
    kernel_size: 1
    weight_filler {
      type: "xavier"
      std: 0.09
    }
    bias_filler {
      type: "constant"
      value: 0.2
    }
  }
}
layer {
  name: "inception_4a/relu_3x3_reduce"
  type: "ReLU"
  bottom: "inception_4a/3x3_reduce"
  top: "inception_4a/3x3_reduce"
}
layer {
  name: "inception_4a/3x3"
  type: "Convolution"
  bottom: "inception_4a/3x3_reduce"
  top: "inception_4a/3x3"
  param {
    lr_mult: 1
    decay_mult: 1
  }
  param {
    lr_mult: 2
    decay_mult: 0
  }
  convolution_param {
    num_output: 208
    pad: 1
    kernel_size: 3
    weight_filler {
      type: "xavier"
      std: 0.03
    }
    bias_filler {
      type: "constant"
      value: 0.2
    }
  }
}
layer {
  name: "inception_4a/relu_3x3"
  type: "ReLU"
  bottom: "inception_4a/3x3"
  top: "inception_4a/3x3"
}
layer {
  name: "inception_4a/5x5_reduce"
  type: "Convolution"
  bottom: "pool3/3x3_s2"
  top: "inception_4a/5x5_reduce"
  param {
    lr_mult: 1
    decay_mult: 1
  }
  param {
    lr_mult: 2
    decay_mult: 0
  }
  convolution_param {
    num_output: 16
    kernel_size: 1
    weight_filler {
      type: "xavier"
      std: 0.2
    }
    bias_filler {
      type: "constant"
      value: 0.2
    }
  }
}
layer {
  name: "inception_4a/relu_5x5_reduce"
  type: "ReLU"
  bottom: "inception_4a/5x5_reduce"
  top: "inception_4a/5x5_reduce"
}
layer {
  name: "inception_4a/5x5"
  type: "Convolution"
  bottom: "inception_4a/5x5_reduce"
  top: "inception_4a/5x5"
  param {
    lr_mult: 1
    decay_mult: 1
  }
  param {
    lr_mult: 2
    decay_mult: 0
  }
  convolution_param {
    num_output: 48
    pad: 2
    kernel_size: 5
    weight_filler {
      type: "xavier"
      std: 0.03
    }
    bias_filler {
      type: "constant"
      value: 0.2
    }
  }
}
layer {
  name: "inception_4a/relu_5x5"
  type: "ReLU"
  bottom: "inception_4a/5x5"
  top: "inception_4a/5x5"
}
layer {
  name: "inception_4a/pool"
  type: "Pooling"
  bottom: "pool3/3x3_s2"
  top: "inception_4a/pool"
  pooling_param {
    pool: MAX
    kernel_size: 3
    stride: 1
    pad: 1
  }
}
layer {
  name: "inception_4a/pool_proj"
  type: "Convolution"
  bottom: "inception_4a/pool"
  top: "inception_4a/pool_proj"
  param {
    lr_mult: 1
    decay_mult: 1
  }
  param {
    lr_mult: 2
    decay_mult: 0
  }
  convolution_param {
    num_output: 64
    kernel_size: 1
    weight_filler {
      type: "xavier"
      std: 0.1
    }
    bias_filler {
      type: "constant"
      value: 0.2
    }
  }
}
layer {
  name: "inception_4a/relu_pool_proj"
  type: "ReLU"
  bottom: "inception_4a/pool_proj"
  top: "inception_4a/pool_proj"
}
layer {
  name: "inception_4a/output"
  type: "Concat"
  bottom: "inception_4a/1x1"
  bottom: "inception_4a/3x3"
  bottom: "inception_4a/5x5"
  bottom: "inception_4a/pool_proj"
  top: "inception_4a/output"
}
layer {
  name: "loss1/ave_pool"
  type: "Pooling"
  bottom: "inception_4a/output"
  top: "loss1/ave_pool"
  pooling_param {
    pool: AVE
    kernel_size: 5
    stride: 3
  }
}
layer {
  name: "loss1/conv"
  type: "Convolution"
  bottom: "loss1/ave_pool"
  top: "loss1/conv"
  param {
    lr_mult: 1
    decay_mult: 1
  }
  param {
    lr_mult: 2
    decay_mult: 0
  }
  convolution_param {
    num_output: 128
    kernel_size: 1
    weight_filler {
      type: "xavier"
      std: 0.08
    }
    bias_filler {
      type: "constant"
      value: 0.2
    }
  }
}
layer {
  name: "loss1/relu_conv"
  type: "ReLU"
  bottom: "loss1/conv"
  top: "loss1/conv"
}
layer {
  name: "loss1/fc"
  type: "InnerProduct"
  bottom: "loss1/conv"
  top: "loss1/fc"
  param {
    lr_mult: 1
    decay_mult: 1
  }
  param {
    lr_mult: 2
    decay_mult: 0
  }
  inner_product_param {
    num_output: 1024
    weight_filler {
      type: "xavier"
      std: 0.02
    }
    bias_filler {
      type: "constant"
      value: 0.2
    }
  }
}
layer {
  name: "loss1/relu_fc"
  type: "ReLU"
  bottom: "loss1/fc"
  top: "loss1/fc"
}
layer {
  name: "loss1/drop_fc"
  type: "Dropout"
  bottom: "loss1/fc"
  top: "loss1/fc"
  dropout_param {
    dropout_ratio: 0.7
  }
}
layer {
  name: "loss1/classifier_cub"
  type: "InnerProduct"
  bottom: "loss1/fc"
  top: "loss1/classifier"
  param {
    lr_mult: 1
    decay_mult: 1
  }
  param {
    lr_mult: 2
    decay_mult: 0
  }
  inner_product_param {
    num_output: 200
    weight_filler {
      type: "gaussian"
      std: 1e-05
    }
    bias_filler {
      type: "constant"
      value: 0
    }
  }
}
layer {
  name: "loss1/loss"
  type: "SoftmaxWithLoss"
  bottom: "loss1/classifier"
  bottom: "label"
  top: "loss1/loss1"
  loss_weight: 0.3
}
layer {
  name: "loss1/top-1"
  type: "Accuracy"
  bottom: "loss1/classifier"
  bottom: "label"
  top: "loss1/top-1"
  include {
    phase: TEST
  }
}
layer {
  name: "loss1/top-5"
  type: "Accuracy"
  bottom: "loss1/classifier"
  bottom: "label"
  top: "loss1/top-5"
  include {
    phase: TEST
  }
  accuracy_param {
    top_k: 5
  }
}
layer {
  name: "inception_4b/1x1"
  type: "Convolution"
  bottom: "inception_4a/output"
  top: "inception_4b/1x1"
  param {
    lr_mult: 1
    decay_mult: 1
  }
  param {
    lr_mult: 2
    decay_mult: 0
  }
  convolution_param {
    num_output: 160
    kernel_size: 1
    weight_filler {
      type: "xavier"
      std: 0.03
    }
    bias_filler {
      type: "constant"
      value: 0.2
    }
  }
}
layer {
  name: "inception_4b/relu_1x1"
  type: "ReLU"
  bottom: "inception_4b/1x1"
  top: "inception_4b/1x1"
}
layer {
  name: "inception_4b/3x3_reduce"
  type: "Convolution"
  bottom: "inception_4a/output"
  top: "inception_4b/3x3_reduce"
  param {
    lr_mult: 1
    decay_mult: 1
  }
  param {
    lr_mult: 2
    decay_mult: 0
  }
  convolution_param {
    num_output: 112
    kernel_size: 1
    weight_filler {
      type: "xavier"
      std: 0.09
    }
    bias_filler {
      type: "constant"
      value: 0.2
    }
  }
}
layer {
  name: "inception_4b/relu_3x3_reduce"
  type: "ReLU"
  bottom: "inception_4b/3x3_reduce"
  top: "inception_4b/3x3_reduce"
}
layer {
  name: "inception_4b/3x3"
  type: "Convolution"
  bottom: "inception_4b/3x3_reduce"
  top: "inception_4b/3x3"
  param {
    lr_mult: 1
    decay_mult: 1
  }
  param {
    lr_mult: 2
    decay_mult: 0
  }
  convolution_param {
    num_output: 224
    pad: 1
    kernel_size: 3
    weight_filler {
      type: "xavier"
      std: 0.03
    }
    bias_filler {
      type: "constant"
      value: 0.2
    }
  }
}
layer {
  name: "inception_4b/relu_3x3"
  type: "ReLU"
  bottom: "inception_4b/3x3"
  top: "inception_4b/3x3"
}
layer {
  name: "inception_4b/5x5_reduce"
  type: "Convolution"
  bottom: "inception_4a/output"
  top: "inception_4b/5x5_reduce"
  param {
    lr_mult: 1
    decay_mult: 1
  }
  param {
    lr_mult: 2
    decay_mult: 0
  }
  convolution_param {
    num_output: 24
    kernel_size: 1
    weight_filler {
      type: "xavier"
      std: 0.2
    }
    bias_filler {
      type: "constant"
      value: 0.2
    }
  }
}
layer {
  name: "inception_4b/relu_5x5_reduce"
  type: "ReLU"
  bottom: "inception_4b/5x5_reduce"
  top: "inception_4b/5x5_reduce"
}
layer {
  name: "inception_4b/5x5"
  type: "Convolution"
  bottom: "inception_4b/5x5_reduce"
  top: "inception_4b/5x5"
  param {
    lr_mult: 1
    decay_mult: 1
  }
  param {
    lr_mult: 2
    decay_mult: 0
  }
  convolution_param {
    num_output: 64
    pad: 2
    kernel_size: 5
    weight_filler {
      type: "xavier"
      std: 0.03
    }
    bias_filler {
      type: "constant"
      value: 0.2
    }
  }
}
layer {
  name: "inception_4b/relu_5x5"
  type: "ReLU"
  bottom: "inception_4b/5x5"
  top: "inception_4b/5x5"
}
layer {
  name: "inception_4b/pool"
  type: "Pooling"
  bottom: "inception_4a/output"
  top: "inception_4b/pool"
  pooling_param {
    pool: MAX
    kernel_size: 3
    stride: 1
    pad: 1
  }
}
layer {
  name: "inception_4b/pool_proj"
  type: "Convolution"
  bottom: "inception_4b/pool"
  top: "inception_4b/pool_proj"
  param {
    lr_mult: 1
    decay_mult: 1
  }
  param {
    lr_mult: 2
    decay_mult: 0
  }
  convolution_param {
    num_output: 64
    kernel_size: 1
    weight_filler {
      type: "xavier"
      std: 0.1
    }
    bias_filler {
      type: "constant"
      value: 0.2
    }
  }
}
layer {
  name: "inception_4b/relu_pool_proj"
  type: "ReLU"
  bottom: "inception_4b/pool_proj"
  top: "inception_4b/pool_proj"
}
layer {
  name: "inception_4b/output"
  type: "Concat"
  bottom: "inception_4b/1x1"
  bottom: "inception_4b/3x3"
  bottom: "inception_4b/5x5"
  bottom: "inception_4b/pool_proj"
  top: "inception_4b/output"
}
layer {
  name: "inception_4c/1x1"
  type: "Convolution"
  bottom: "inception_4b/output"
  top: "inception_4c/1x1"
  param {
    lr_mult: 1
    decay_mult: 1
  }
  param {
    lr_mult: 2
    decay_mult: 0
  }
  convolution_param {
    num_output: 128
    kernel_size: 1
    weight_filler {
      type: "xavier"
      std: 0.03
    }
    bias_filler {
      type: "constant"
      value: 0.2
    }
  }
}
layer {
  name: "inception_4c/relu_1x1"
  type: "ReLU"
  bottom: "inception_4c/1x1"
  top: "inception_4c/1x1"
}
layer {
  name: "inception_4c/3x3_reduce"
  type: "Convolution"
  bottom: "inception_4b/output"
  top: "inception_4c/3x3_reduce"
  param {
    lr_mult: 1
    decay_mult: 1
  }
  param {
    lr_mult: 2
    decay_mult: 0
  }
  convolution_param {
    num_output: 128
    kernel_size: 1
    weight_filler {
      type: "xavier"
      std: 0.09
    }
    bias_filler {
      type: "constant"
      value: 0.2
    }
  }
}
layer {
  name: "inception_4c/relu_3x3_reduce"
  type: "ReLU"
  bottom: "inception_4c/3x3_reduce"
  top: "inception_4c/3x3_reduce"
}
layer {
  name: "inception_4c/3x3"
  type: "Convolution"
  bottom: "inception_4c/3x3_reduce"
  top: "inception_4c/3x3"
  param {
    lr_mult: 1
    decay_mult: 1
  }
  param {
    lr_mult: 2
    decay_mult: 0
  }
  convolution_param {
    num_output: 256
    pad: 1
    kernel_size: 3
    weight_filler {
      type: "xavier"
      std: 0.03
    }
    bias_filler {
      type: "constant"
      value: 0.2
    }
  }
}
layer {
  name: "inception_4c/relu_3x3"
  type: "ReLU"
  bottom: "inception_4c/3x3"
  top: "inception_4c/3x3"
}
layer {
  name: "inception_4c/5x5_reduce"
  type: "Convolution"
  bottom: "inception_4b/output"
  top: "inception_4c/5x5_reduce"
  param {
    lr_mult: 1
    decay_mult: 1
  }
  param {
    lr_mult: 2
    decay_mult: 0
  }
  convolution_param {
    num_output: 24
    kernel_size: 1
    weight_filler {
      type: "xavier"
      std: 0.2
    }
    bias_filler {
      type: "constant"
      value: 0.2
    }
  }
}
layer {
  name: "inception_4c/relu_5x5_reduce"
  type: "ReLU"
  bottom: "inception_4c/5x5_reduce"
  top: "inception_4c/5x5_reduce"
}
layer {
  name: "inception_4c/5x5"
  type: "Convolution"
  bottom: "inception_4c/5x5_reduce"
  top: "inception_4c/5x5"
  param {
    lr_mult: 1
    decay_mult: 1
  }
  param {
    lr_mult: 2
    decay_mult: 0
  }
  convolution_param {
    num_output: 64
    pad: 2
    kernel_size: 5
    weight_filler {
      type: "xavier"
      std: 0.03
    }
    bias_filler {
      type: "constant"
      value: 0.2
    }
  }
}
layer {
  name: "inception_4c/relu_5x5"
  type: "ReLU"
  bottom: "inception_4c/5x5"
  top: "inception_4c/5x5"
}
layer {
  name: "inception_4c/pool"
  type: "Pooling"
  bottom: "inception_4b/output"
  top: "inception_4c/pool"
  pooling_param {
    pool: MAX
    kernel_size: 3
    stride: 1
    pad: 1
  }
}
layer {
  name: "inception_4c/pool_proj"
  type: "Convolution"
  bottom: "inception_4c/pool"
  top: "inception_4c/pool_proj"
  param {
    lr_mult: 1
    decay_mult: 1
  }
  param {
    lr_mult: 2
    decay_mult: 0
  }
  convolution_param {
    num_output: 64
    kernel_size: 1
    weight_filler {
      type: "xavier"
      std: 0.1
    }
    bias_filler {
      type: "constant"
      value: 0.2
    }
  }
}
layer {
  name: "inception_4c/relu_pool_proj"
  type: "ReLU"
  bottom: "inception_4c/pool_proj"
  top: "inception_4c/pool_proj"
}
layer {
  name: "inception_4c/output"
  type: "Concat"
  bottom: "inception_4c/1x1"
  bottom: "inception_4c/3x3"
  bottom: "inception_4c/5x5"
  bottom: "inception_4c/pool_proj"
  top: "inception_4c/output"
}
layer {
  name: "inception_4d/1x1"
  type: "Convolution"
  bottom: "inception_4c/output"
  top: "inception_4d/1x1"
  param {
    lr_mult: 1
    decay_mult: 1
  }
  param {
    lr_mult: 2
    decay_mult: 0
  }
  convolution_param {
    num_output: 112
    kernel_size: 1
    weight_filler {
      type: "xavier"
      std: 0.03
    }
    bias_filler {
      type: "constant"
      value: 0.2
    }
  }
}
layer {
  name: "inception_4d/relu_1x1"
  type: "ReLU"
  bottom: "inception_4d/1x1"
  top: "inception_4d/1x1"
}
layer {
  name: "inception_4d/3x3_reduce"
  type: "Convolution"
  bottom: "inception_4c/output"
  top: "inception_4d/3x3_reduce"
  param {
    lr_mult: 1
    decay_mult: 1
  }
  param {
    lr_mult: 2
    decay_mult: 0
  }
  convolution_param {
    num_output: 144
    kernel_size: 1
    weight_filler {
      type: "xavier"
      std: 0.09
    }
    bias_filler {
      type: "constant"
      value: 0.2
    }
  }
}
layer {
  name: "inception_4d/relu_3x3_reduce"
  type: "ReLU"
  bottom: "inception_4d/3x3_reduce"
  top: "inception_4d/3x3_reduce"
}
layer {
  name: "inception_4d/3x3"
  type: "Convolution"
  bottom: "inception_4d/3x3_reduce"
  top: "inception_4d/3x3"
  param {
    lr_mult: 1
    decay_mult: 1
  }
  param {
    lr_mult: 2
    decay_mult: 0
  }
  convolution_param {
    num_output: 288
    pad: 1
    kernel_size: 3
    weight_filler {
      type: "xavier"
      std: 0.03
    }
    bias_filler {
      type: "constant"
      value: 0.2
    }
  }
}
layer {
  name: "inception_4d/relu_3x3"
  type: "ReLU"
  bottom: "inception_4d/3x3"
  top: "inception_4d/3x3"
}
layer {
  name: "inception_4d/5x5_reduce"
  type: "Convolution"
  bottom: "inception_4c/output"
  top: "inception_4d/5x5_reduce"
  param {
    lr_mult: 1
    decay_mult: 1
  }
  param {
    lr_mult: 2
    decay_mult: 0
  }
  convolution_param {
    num_output: 32
    kernel_size: 1
    weight_filler {
      type: "xavier"
      std: 0.2
    }
    bias_filler {
      type: "constant"
      value: 0.2
    }
  }
}
layer {
  name: "inception_4d/relu_5x5_reduce"
  type: "ReLU"
  bottom: "inception_4d/5x5_reduce"
  top: "inception_4d/5x5_reduce"
}
layer {
  name: "inception_4d/5x5"
  type: "Convolution"
  bottom: "inception_4d/5x5_reduce"
  top: "inception_4d/5x5"
  param {
    lr_mult: 1
    decay_mult: 1
  }
  param {
    lr_mult: 2
    decay_mult: 0
  }
  convolution_param {
    num_output: 64
    pad: 2
    kernel_size: 5
    weight_filler {
      type: "xavier"
      std: 0.03
    }
    bias_filler {
      type: "constant"
      value: 0.2
    }
  }
}
layer {
  name: "inception_4d/relu_5x5"
  type: "ReLU"
  bottom: "inception_4d/5x5"
  top: "inception_4d/5x5"
}
layer {
  name: "inception_4d/pool"
  type: "Pooling"
  bottom: "inception_4c/output"
  top: "inception_4d/pool"
  pooling_param {
    pool: MAX
    kernel_size: 3
    stride: 1
    pad: 1
  }
}
layer {
  name: "inception_4d/pool_proj"
  type: "Convolution"
  bottom: "inception_4d/pool"
  top: "inception_4d/pool_proj"
  param {
    lr_mult: 1
    decay_mult: 1
  }
  param {
    lr_mult: 2
    decay_mult: 0
  }
  convolution_param {
    num_output: 64
    kernel_size: 1
    weight_filler {
      type: "xavier"
      std: 0.1
    }
    bias_filler {
      type: "constant"
      value: 0.2
    }
  }
}
layer {
  name: "inception_4d/relu_pool_proj"
  type: "ReLU"
  bottom: "inception_4d/pool_proj"
  top: "inception_4d/pool_proj"
}
layer {
  name: "inception_4d/output"
  type: "Concat"
  bottom: "inception_4d/1x1"
  bottom: "inception_4d/3x3"
  bottom: "inception_4d/5x5"
  bottom: "inception_4d/pool_proj"
  top: "inception_4d/output"
}
layer {
  name: "loss2/ave_pool"
  type: "Pooling"
  bottom: "inception_4d/output"
  top: "loss2/ave_pool"
  pooling_param {
    pool: AVE
    kernel_size: 5
    stride: 3
  }
}
layer {
  name: "loss2/conv"
  type: "Convolution"
  bottom: "loss2/ave_pool"
  top: "loss2/conv"
  param {
    lr_mult: 1
    decay_mult: 1
  }
  param {
    lr_mult: 2
    decay_mult: 0
  }
  convolution_param {
    num_output: 128
    kernel_size: 1
    weight_filler {
      type: "xavier"
      std: 0.08
    }
    bias_filler {
      type: "constant"
      value: 0.2
    }
  }
}
layer {
  name: "loss2/relu_conv"
  type: "ReLU"
  bottom: "loss2/conv"
  top: "loss2/conv"
}
layer {
  name: "loss2/fc"
  type: "InnerProduct"
  bottom: "loss2/conv"
  top: "loss2/fc"
  param {
…
I0906 15:25:27.596145 89616 net.cpp:433] inception_4b/output_inception_4b/output_0_split -> inception_4b/output_inception_4b/output_0_split_1
I0906 15:25:27.596153 89616 net.cpp:433] inception_4b/output_inception_4b/output_0_split -> inception_4b/output_inception_4b/output_0_split_2
I0906 15:25:27.596160 89616 net.cpp:433] inception_4b/output_inception_4b/output_0_split -> inception_4b/output_inception_4b/output_0_split_3
I0906 15:25:27.596168 89616 net.cpp:155] Setting up inception_4b/output_inception_4b/output_0_split
I0906 15:25:27.596174 89616 net.cpp:163] Top shape: 32 512 14 14 (3211264)
I0906 15:25:27.596177 89616 net.cpp:163] Top shape: 32 512 14 14 (3211264)
I0906 15:25:27.596182 89616 net.cpp:163] Top shape: 32 512 14 14 (3211264)
I0906 15:25:27.596186 89616 net.cpp:163] Top shape: 32 512 14 14 (3211264)
I0906 15:25:27.596190 89616 layer_factory.hpp:76] Creating layer inception_4c/1x1
I0906 15:25:27.596199 89616 net.cpp:110] Creating Layer inception_4c/1x1
I0906 15:25:27.596202 89616 net.cpp:477] inception_4c/1x1 <- inception_4b/output_inception_4b/output_0_split_0
I0906 15:25:27.596209 89616 net.cpp:433] inception_4c/1x1 -> inception_4c/1x1
I0906 15:25:27.596863 89616 net.cpp:155] Setting up inception_4c/1x1
I0906 15:25:27.596873 89616 net.cpp:163] Top shape: 32 128 14 14 (802816)
I0906 15:25:27.596880 89616 layer_factory.hpp:76] Creating layer inception_4c/relu_1x1
I0906 15:25:27.596886 89616 net.cpp:110] Creating Layer inception_4c/relu_1x1
I0906 15:25:27.596890 89616 net.cpp:477] inception_4c/relu_1x1 <- inception_4c/1x1
I0906 15:25:27.596897 89616 net.cpp:419] inception_4c/relu_1x1 -> inception_4c/1x1 (in-place)
I0906 15:25:27.596904 89616 net.cpp:155] Setting up inception_4c/relu_1x1
I0906 15:25:27.596909 89616 net.cpp:163] Top shape: 32 128 14 14 (802816)
I0906 15:25:27.596912 89616 layer_factory.hpp:76] Creating layer inception_4c/3x3_reduce
I0906 15:25:27.596920 89616 net.cpp:110] Creating Layer inception_4c/3x3_reduce
I0906 15:25:27.596925 89616 net.cpp:477] inception_4c/3x3_reduce <- inception_4b/output_inception_4b/output_0_split_1
I0906 15:25:27.596931 89616 net.cpp:433] inception_4c/3x3_reduce -> inception_4c/3x3_reduce
I0906 15:25:27.598181 89616 net.cpp:155] Setting up inception_4c/3x3_reduce
I0906 15:25:27.598196 89616 net.cpp:163] Top shape: 32 128 14 14 (802816)
I0906 15:25:27.598204 89616 layer_factory.hpp:76] Creating layer inception_4c/relu_3x3_reduce
I0906 15:25:27.598212 89616 net.cpp:110] Creating Layer inception_4c/relu_3x3_reduce
I0906 15:25:27.598217 89616 net.cpp:477] inception_4c/relu_3x3_reduce <- inception_4c/3x3_reduce
I0906 15:25:27.598223 89616 net.cpp:419] inception_4c/relu_3x3_reduce -> inception_4c/3x3_reduce (in-place)
I0906 15:25:27.598230 89616 net.cpp:155] Setting up inception_4c/relu_3x3_reduce
I0906 15:25:27.598237 89616 net.cpp:163] Top shape: 32 128 14 14 (802816)
I0906 15:25:27.598239 89616 layer_factory.hpp:76] Creating layer inception_4c/3x3
I0906 15:25:27.598248 89616 net.cpp:110] Creating Layer inception_4c/3x3
I0906 15:25:27.598251 89616 net.cpp:477] inception_4c/3x3 <- inception_4c/3x3_reduce
I0906 15:25:27.598258 89616 net.cpp:433] inception_4c/3x3 -> inception_4c/3x3
I0906 15:25:27.601608 89616 net.cpp:155] Setting up inception_4c/3x3
I0906 15:25:27.601644 89616 net.cpp:163] Top shape: 32 256 14 14 (1605632)
I0906 15:25:27.601665 89616 layer_factory.hpp:76] Creating layer inception_4c/relu_3x3
I0906 15:25:27.601673 89616 net.cpp:110] Creating Layer inception_4c/relu_3x3
I0906 15:25:27.601677 89616 net.cpp:477] inception_4c/relu_3x3 <- inception_4c/3x3
I0906 15:25:27.601685 89616 net.cpp:419] inception_4c/relu_3x3 -> inception_4c/3x3 (in-place)
I0906 15:25:27.601692 89616 net.cpp:155] Setting up inception_4c/relu_3x3
I0906 15:25:27.601697 89616 net.cpp:163] Top shape: 32 256 14 14 (1605632)
I0906 15:25:27.601701 89616 layer_factory.hpp:76] Creating layer inception_4c/5x5_reduce
I0906 15:25:27.601709 89616 net.cpp:110] Creating Layer inception_4c/5x5_reduce
I0906 15:25:27.601713 89616 net.cpp:477] inception_4c/5x5_reduce <- inception_4b/output_inception_4b/output_0_split_2
I0906 15:25:27.601722 89616 net.cpp:433] inception_4c/5x5_reduce -> inception_4c/5x5_reduce
I0906 15:25:27.601902 89616 net.cpp:155] Setting up inception_4c/5x5_reduce
I0906 15:25:27.601913 89616 net.cpp:163] Top shape: 32 24 14 14 (150528)
I0906 15:25:27.601920 89616 layer_factory.hpp:76] Creating layer inception_4c/relu_5x5_reduce
I0906 15:25:27.601927 89616 net.cpp:110] Creating Layer inception_4c/relu_5x5_reduce
I0906 15:25:27.601932 89616 net.cpp:477] inception_4c/relu_5x5_reduce <- inception_4c/5x5_reduce
I0906 15:25:27.601938 89616 net.cpp:419] inception_4c/relu_5x5_reduce -> inception_4c/5x5_reduce (in-place)
I0906 15:25:27.601944 89616 net.cpp:155] Setting up inception_4c/relu_5x5_reduce
I0906 15:25:27.601949 89616 net.cpp:163] Top shape: 32 24 14 14 (150528)
I0906 15:25:27.601953 89616 layer_factory.hpp:76] Creating layer inception_4c/5x5
I0906 15:25:27.601961 89616 net.cpp:110] Creating Layer inception_4c/5x5
I0906 15:25:27.601964 89616 net.cpp:477] inception_4c/5x5 <- inception_4c/5x5_reduce
I0906 15:25:27.601972 89616 net.cpp:433] inception_4c/5x5 -> inception_4c/5x5
I0906 15:25:27.602380 89616 net.cpp:155] Setting up inception_4c/5x5
I0906 15:25:27.602391 89616 net.cpp:163] Top shape: 32 64 14 14 (401408)
I0906 15:25:27.602397 89616 layer_factory.hpp:76] Creating layer inception_4c/relu_5x5
I0906 15:25:27.602403 89616 net.cpp:110] Creating Layer inception_4c/relu_5x5
I0906 15:25:27.602408 89616 net.cpp:477] inception_4c/relu_5x5 <- inception_4c/5x5
I0906 15:25:27.602414 89616 net.cpp:419] inception_4c/relu_5x5 -> inception_4c/5x5 (in-place)
I0906 15:25:27.602421 89616 net.cpp:155] Setting up inception_4c/relu_5x5
I0906 15:25:27.602426 89616 net.cpp:163] Top shape: 32 64 14 14 (401408)
I0906 15:25:27.602429 89616 layer_factory.hpp:76] Creating layer inception_4c/pool
I0906 15:25:27.602437 89616 net.cpp:110] Creating Layer inception_4c/pool
I0906 15:25:27.602440 89616 net.cpp:477] inception_4c/pool <- inception_4b/output_inception_4b/output_0_split_3
I0906 15:25:27.602447 89616 net.cpp:433] inception_4c/pool -> inception_4c/pool
I0906 15:25:27.602457 89616 net.cpp:155] Setting up inception_4c/pool
I0906 15:25:27.602462 89616 net.cpp:163] Top shape: 32 512 14 14 (3211264)
I0906 15:25:27.602464 89616 layer_factory.hpp:76] Creating layer inception_4c/pool_proj
I0906 15:25:27.602471 89616 net.cpp:110] Creating Layer inception_4c/pool_proj
I0906 15:25:27.602475 89616 net.cpp:477] inception_4c/pool_proj <- inception_4c/pool
I0906 15:25:27.602483 89616 net.cpp:433] inception_4c/pool_proj -> inception_4c/pool_proj
I0906 15:25:27.602840 89616 net.cpp:155] Setting up inception_4c/pool_proj
I0906 15:25:27.602850 89616 net.cpp:163] Top shape: 32 64 14 14 (401408)
I0906 15:25:27.602864 89616 layer_factory.hpp:76] Creating layer inception_4c/relu_pool_proj
I0906 15:25:27.602870 89616 net.cpp:110] Creating Layer inception_4c/relu_pool_proj
I0906 15:25:27.602880 89616 net.cpp:477] inception_4c/relu_pool_proj <- inception_4c/pool_proj
I0906 15:25:27.602885 89616 net.cpp:419] inception_4c/relu_pool_proj -> inception_4c/pool_proj (in-place)
I0906 15:25:27.602892 89616 net.cpp:155] Setting up inception_4c/relu_pool_proj
I0906 15:25:27.602897 89616 net.cpp:163] Top shape: 32 64 14 14 (401408)
I0906 15:25:27.602911 89616 layer_factory.hpp:76] Creating layer inception_4c/output
I0906 15:25:27.602919 89616 net.cpp:110] Creating Layer inception_4c/output
I0906 15:25:27.602924 89616 net.cpp:477] inception_4c/output <- inception_4c/1x1
I0906 15:25:27.602929 89616 net.cpp:477] inception_4c/output <- inception_4c/3x3
I0906 15:25:27.602934 89616 net.cpp:477] inception_4c/output <- inception_4c/5x5
I0906 15:25:27.602938 89616 net.cpp:477] inception_4c/output <- inception_4c/pool_proj
I0906 15:25:27.602946 89616 net.cpp:433] inception_4c/output -> inception_4c/output
I0906 15:25:27.602953 89616 net.cpp:155] Setting up inception_4c/output
I0906 15:25:27.602958 89616 net.cpp:163] Top shape: 32 512 14 14 (3211264)
I0906 15:25:27.602962 89616 layer_factory.hpp:76] Creating layer inception_4c/output_inception_4c/output_0_split
I0906 15:25:27.602969 89616 net.cpp:110] Creating Layer inception_4c/output_inception_4c/output_0_split
I0906 15:25:27.602973 89616 net.cpp:477] inception_4c/output_inception_4c/output_0_split <- inception_4c/output
I0906 15:25:27.602980 89616 net.cpp:433] inception_4c/output_inception_4c/output_0_split -> inception_4c/output_inception_4c/output_0_split_0
I0906 15:25:27.602988 89616 net.cpp:433] inception_4c/output_inception_4c/output_0_split -> inception_4c/output_inception_4c/output_0_split_1
I0906 15:25:27.602995 89616 net.cpp:433] inception_4c/output_inception_4c/output_0_split -> inception_4c/output_inception_4c/output_0_split_2
I0906 15:25:27.603003 89616 net.cpp:433] inception_4c/output_inception_4c/output_0_split -> inception_4c/output_inception_4c/output_0_split_3
I0906 15:25:27.603009 89616 net.cpp:155] Setting up inception_4c/output_inception_4c/output_0_split
I0906 15:25:27.603014 89616 net.cpp:163] Top shape: 32 512 14 14 (3211264)
I0906 15:25:27.603018 89616 net.cpp:163] Top shape: 32 512 14 14 (3211264)
I0906 15:25:27.603023 89616 net.cpp:163] Top shape: 32 512 14 14 (3211264)
I0906 15:25:27.603027 89616 net.cpp:163] Top shape: 32 512 14 14 (3211264)
I0906 15:25:27.603030 89616 layer_factory.hpp:76] Creating layer inception_4d/1x1
I0906 15:25:27.603037 89616 net.cpp:110] Creating Layer inception_4d/1x1
I0906 15:25:27.603041 89616 net.cpp:477] inception_4d/1x1 <- inception_4c/output_inception_4c/output_0_split_0
I0906 15:25:27.603049 89616 net.cpp:433] inception_4d/1x1 -> inception_4d/1x1
I0906 15:25:27.603631 89616 net.cpp:155] Setting up inception_4d/1x1
I0906 15:25:27.603641 89616 net.cpp:163] Top shape: 32 112 14 14 (702464)
I0906 15:25:27.603654 89616 layer_factory.hpp:76] Creating layer inception_4d/relu_1x1
I0906 15:25:27.603660 89616 net.cpp:110] Creating Layer inception_4d/relu_1x1
I0906 15:25:27.603664 89616 net.cpp:477] inception_4d/relu_1x1 <- inception_4d/1x1
I0906 15:25:27.603677 89616 net.cpp:419] inception_4d/relu_1x1 -> inception_4d/1x1 (in-place)
I0906 15:25:27.603691 89616 net.cpp:155] Setting up inception_4d/relu_1x1
I0906 15:25:27.603698 89616 net.cpp:163] Top shape: 32 112 14 14 (702464)
I0906 15:25:27.603701 89616 layer_factory.hpp:76] Creating layer inception_4d/3x3_reduce
I0906 15:25:27.603709 89616 net.cpp:110] Creating Layer inception_4d/3x3_reduce
I0906 15:25:27.603713 89616 net.cpp:477] inception_4d/3x3_reduce <- inception_4c/output_inception_4c/output_0_split_1
I0906 15:25:27.603720 89616 net.cpp:433] inception_4d/3x3_reduce -> inception_4d/3x3_reduce
I0906 15:25:27.604468 89616 net.cpp:155] Setting up inception_4d/3x3_reduce
I0906 15:25:27.604478 89616 net.cpp:163] Top shape: 32 144 14 14 (903168)
I0906 15:25:27.604490 89616 layer_factory.hpp:76] Creating layer inception_4d/relu_3x3_reduce
I0906 15:25:27.604496 89616 net.cpp:110] Creating Layer inception_4d/relu_3x3_reduce
I0906 15:25:27.604501 89616 net.cpp:477] inception_4d/relu_3x3_reduce <- inception_4d/3x3_reduce
I0906 15:25:27.604507 89616 net.cpp:419] inception_4d/relu_3x3_reduce -> inception_4d/3x3_reduce (in-place)
I0906 15:25:27.604514 89616 net.cpp:155] Setting up inception_4d/relu_3x3_reduce
I0906 15:25:27.604519 89616 net.cpp:163] Top shape: 32 144 14 14 (903168)
I0906 15:25:27.604522 89616 layer_factory.hpp:76] Creating layer inception_4d/3x3
I0906 15:25:27.604543 89616 net.cpp:110] Creating Layer inception_4d/3x3
I0906 15:25:27.604547 89616 net.cpp:477] inception_4d/3x3 <- inception_4d/3x3_reduce
I0906 15:25:27.604554 89616 net.cpp:433] inception_4d/3x3 -> inception_4d/3x3
I0906 15:25:27.608738 89616 net.cpp:155] Setting up inception_4d/3x3
I0906 15:25:27.608755 89616 net.cpp:163] Top shape: 32 288 14 14 (1806336)
I0906 15:25:27.608767 89616 layer_factory.hpp:76] Creating layer inception_4d/relu_3x3
I0906 15:25:27.608774 89616 net.cpp:110] Creating Layer inception_4d/relu_3x3
I0906 15:25:27.608778 89616 net.cpp:477] inception_4d/relu_3x3 <- inception_4d/3x3
I0906 15:25:27.608785 89616 net.cpp:419] inception_4d/relu_3x3 -> inception_4d/3x3 (in-place)
I0906 15:25:27.608793 89616 net.cpp:155] Setting up inception_4d/relu_3x3
I0906 15:25:27.608798 89616 net.cpp:163] Top shape: 32 288 14 14 (1806336)
I0906 15:25:27.608803 89616 layer_factory.hpp:76] Creating layer inception_4d/5x5_reduce
I0906 15:25:27.608810 89616 net.cpp:110] Creating Layer inception_4d/5x5_reduce
I0906 15:25:27.608814 89616 net.cpp:477] inception_4d/5x5_reduce <- inception_4c/output_inception_4c/output_0_split_2
I0906 15:25:27.608821 89616 net.cpp:433] inception_4d/5x5_reduce -> inception_4d/5x5_reduce
I0906 15:25:27.609642 89616 net.cpp:155] Setting up inception_4d/5x5_reduce
I0906 15:25:27.609657 89616 net.cpp:163] Top shape: 32 32 14 14 (200704)
I0906 15:25:27.609665 89616 layer_factory.hpp:76] Creating layer inception_4d/relu_5x5_reduce
I0906 15:25:27.609673 89616 net.cpp:110] Creating Layer inception_4d/relu_5x5_reduce
I0906 15:25:27.609678 89616 net.cpp:477] inception_4d/relu_5x5_reduce <- inception_4d/5x5_reduce
I0906 15:25:27.609684 89616 net.cpp:419] inception_4d/relu_5x5_reduce -> inception_4d/5x5_reduce (in-place)
I0906 15:25:27.609691 89616 net.cpp:155] Setting up inception_4d/relu_5x5_reduce
I0906 15:25:27.609696 89616 net.cpp:163] Top shape: 32 32 14 14 (200704)
I0906 15:25:27.609700 89616 layer_factory.hpp:76] Creating layer inception_4d/5x5
I0906 15:25:27.609709 89616 net.cpp:110] Creating Layer inception_4d/5x5
I0906 15:25:27.609712 89616 net.cpp:477] inception_4d/5x5 <- inception_4d/5x5_reduce
I0906 15:25:27.609719 89616 net.cpp:433] inception_4d/5x5 -> inception_4d/5x5
I0906 15:25:27.610244 89616 net.cpp:155] Setting up inception_4d/5x5
I0906 15:25:27.610254 89616 net.cpp:163] Top shape: 32 64 14 14 (401408)
I0906 15:25:27.610260 89616 layer_factory.hpp:76] Creating layer inception_4d/relu_5x5
I0906 15:25:27.610266 89616 net.cpp:110] Creating Layer inception_4d/relu_5x5
I0906 15:25:27.610270 89616 net.cpp:477] inception_4d/relu_5x5 <- inception_4d/5x5
I0906 15:25:27.610276 89616 net.cpp:419] inception_4d/relu_5x5 -> inception_4d/5x5 (in-place)
I0906 15:25:27.610283 89616 net.cpp:155] Setting up inception_4d/relu_5x5
I0906 15:25:27.610288 89616 net.cpp:163] Top shape: 32 64 14 14 (401408)
I0906 15:25:27.610291 89616 layer_factory.hpp:76] Creating layer inception_4d/pool
I0906 15:25:27.610299 89616 net.cpp:110] Creating Layer inception_4d/pool
I0906 15:25:27.610303 89616 net.cpp:477] inception_4d/pool <- inception_4c/output_inception_4c/output_0_split_3
I0906 15:25:27.610309 89616 net.cpp:433] inception_4d/pool -> inception_4d/pool
I0906 15:25:27.610319 89616 net.cpp:155] Setting up inception_4d/pool
I0906 15:25:27.610324 89616 net.cpp:163] Top shape: 32 512 14 14 (3211264)
I0906 15:25:27.610327 89616 layer_factory.hpp:76] Creating layer inception_4d/pool_proj
I0906 15:25:27.610335 89616 net.cpp:110] Creating Layer inception_4d/pool_proj
I0906 15:25:27.610339 89616 net.cpp:477] inception_4d/pool_proj <- inception_4d/pool
I0906 15:25:27.610347 89616 net.cpp:433] inception_4d/pool_proj -> inception_4d/pool_proj
I0906 15:25:27.610716 89616 net.cpp:155] Setting up inception_4d/pool_proj
I0906 15:25:27.610730 89616 net.cpp:163] Top shape: 32 64 14 14 (401408)
I0906 15:25:27.610738 89616 layer_factory.hpp:76] Creating layer inception_4d/relu_pool_proj
I0906 15:25:27.610743 89616 net.cpp:110] Creating Layer inception_4d/relu_pool_proj
I0906 15:25:27.610761 89616 net.cpp:477] inception_4d/relu_pool_proj <- inception_4d/pool_proj
I0906 15:25:27.610769 89616 net.cpp:419] inception_4d/relu_pool_proj -> inception_4d/pool_proj (in-place)
I0906 15:25:27.610776 89616 net.cpp:155] Setting up inception_4d/relu_pool_proj
I0906 15:25:27.610781 89616 net.cpp:163] Top shape: 32 64 14 14 (401408)
I0906 15:25:27.610785 89616 layer_factory.hpp:76] Creating layer inception_4d/output
I0906 15:25:27.610792 89616 net.cpp:110] Creating Layer inception_4d/output
I0906 15:25:27.610796 89616 net.cpp:477] inception_4d/output <- inception_4d/1x1
I0906 15:25:27.610801 89616 net.cpp:477] inception_4d/output <- inception_4d/3x3
I0906 15:25:27.610806 89616 net.cpp:477] inception_4d/output <- inception_4d/5x5
I0906 15:25:27.610810 89616 net.cpp:477] inception_4d/output <- inception_4d/pool_proj
I0906 15:25:27.610816 89616 net.cpp:433] inception_4d/output -> inception_4d/output
I0906 15:25:27.610826 89616 net.cpp:155] Setting up inception_4d/output
I0906 15:25:27.610831 89616 net.cpp:163] Top shape: 32 528 14 14 (3311616)
I0906 15:25:27.610834 89616 layer_factory.hpp:76] Creating layer inception_4d/output_inception_4d/output_0_split
I0906 15:25:27.610841 89616 net.cpp:110] Creating Layer inception_4d/output_inception_4d/output_0_split
I0906 15:25:27.610844 89616 net.cpp:477] inception_4d/output_inception_4d/output_0_split <- inception_4d/output
I0906 15:25:27.610852 89616 net.cpp:433] inception_4d/output_inception_4d/output_0_split -> inception_4d/output_inception_4d/output_0_split_0
I0906 15:25:27.610859 89616 net.cpp:433] inception_4d/output_inception_4d/output_0_split -> inception_4d/output_inception_4d/output_0_split_1
I0906 15:25:27.610867 89616 net.cpp:433] inception_4d/output_inception_4d/output_0_split -> inception_4d/output_inception_4d/output_0_split_2
I0906 15:25:27.610873 89616 net.cpp:433] inception_4d/output_inception_4d/output_0_split -> inception_4d/output_inception_4d/output_0_split_3
I0906 15:25:27.610879 89616 net.cpp:433] inception_4d/output_inception_4d/output_0_split -> inception_4d/output_inception_4d/output_0_split_4
I0906 15:25:27.610888 89616 net.cpp:155] Setting up inception_4d/output_inception_4d/output_0_split
I0906 15:25:27.610893 89616 net.cpp:163] Top shape: 32 528 14 14 (3311616)
I0906 15:25:27.610898 89616 net.cpp:163] Top shape: 32 528 14 14 (3311616)
I0906 15:25:27.610901 89616 net.cpp:163] Top shape: 32 528 14 14 (3311616)
I0906 15:25:27.610905 89616 net.cpp:163] Top shape: 32 528 14 14 (3311616)
I0906 15:25:27.610910 89616 net.cpp:163] Top shape: 32 528 14 14 (3311616)
I0906 15:25:27.610914 89616 layer_factory.hpp:76] Creating layer loss2/ave_pool
I0906 15:25:27.610920 89616 net.cpp:110] Creating Layer loss2/ave_pool
I0906 15:25:27.610924 89616 net.cpp:477] loss2/ave_pool <- inception_4d/output_inception_4d/output_0_split_0
I0906 15:25:27.610930 89616 net.cpp:433] loss2/ave_pool -> loss2/ave_pool
I0906 15:25:27.610939 89616 net.cpp:155] Setting up loss2/ave_pool
I0906 15:25:27.610944 89616 net.cpp:163] Top shape: 32 528 4 4 (270336)
I0906 15:25:27.610947 89616 layer_factory.hpp:76] Creating layer loss2/conv
I0906 15:25:27.610955 89616 net.cpp:110] Creating Layer loss2/conv
I0906 15:25:27.610960 89616 net.cpp:477] loss2/conv <- loss2/ave_pool
I0906 15:25:27.610966 89616 net.cpp:433] loss2/conv -> loss2/conv
I0906 15:25:27.612236 89616 net.cpp:155] Setting up loss2/conv
I0906 15:25:27.612252 89616 net.cpp:163] Top shape: 32 128 4 4 (65536)
I0906 15:25:27.612262 89616 layer_factory.hpp:76] Creating layer loss2/relu_conv
I0906 15:25:27.612268 89616 net.cpp:110] Creating Layer loss2/relu_conv
I0906 15:25:27.612273 89616 net.cpp:477] loss2/relu_conv <- loss2/conv
I0906 15:25:27.612280 89616 net.cpp:419] loss2/relu_conv -> loss2/conv (in-place)
I0906 15:25:27.612288 89616 net.cpp:155] Setting up loss2/relu_conv
I0906 15:25:27.612293 89616 net.cpp:163] Top shape: 32 128 4 4 (65536)
I0906 15:25:27.612296 89616 layer_factory.hpp:76] Creating layer loss2/fc
I0906 15:25:27.612305 89616 net.cpp:110] Creating Layer loss2/fc
I0906 15:25:27.612309 89616 net.cpp:477] loss2/fc <- loss2/conv
I0906 15:25:27.612329 89616 net.cpp:433] loss2/fc -> loss2/fc
I0906 15:25:27.634822 89616 net.cpp:155] Setting up loss2/fc
I0906 15:25:27.634840 89616 net.cpp:163] Top shape: 32 1024 (32768)
I0906 15:25:27.634848 89616 layer_factory.hpp:76] Creating layer loss2/relu_fc
I0906 15:25:27.634856 89616 net.cpp:110] Creating Layer loss2/relu_fc
I0906 15:25:27.634861 89616 net.cpp:477] loss2/relu_fc <- loss2/fc
I0906 15:25:27.634868 89616 net.cpp:419] loss2/relu_fc -> loss2/fc (in-place)
I0906 15:25:27.634877 89616 net.cpp:155] Setting up loss2/relu_fc
I0906 15:25:27.634882 89616 net.cpp:163] Top shape: 32 1024 (32768)
I0906 15:25:27.634886 89616 layer_factory.hpp:76] Creating layer loss2/drop_fc
I0906 15:25:27.634893 89616 net.cpp:110] Creating Layer loss2/drop_fc
I0906 15:25:27.634897 89616 net.cpp:477] loss2/drop_fc <- loss2/fc
I0906 15:25:27.634903 89616 net.cpp:419] loss2/drop_fc -> loss2/fc (in-place)
I0906 15:25:27.634912 89616 net.cpp:155] Setting up loss2/drop_fc
I0906 15:25:27.634917 89616 net.cpp:163] Top shape: 32 1024 (32768)
I0906 15:25:27.634920 89616 layer_factory.hpp:76] Creating layer loss2/classifier_cub
I0906 15:25:27.634928 89616 net.cpp:110] Creating Layer loss2/classifier_cub
I0906 15:25:27.634932 89616 net.cpp:477] loss2/classifier_cub <- loss2/fc
I0906 15:25:27.634938 89616 net.cpp:433] loss2/classifier_cub -> loss2/classifier
I0906 15:25:27.643860 89616 net.cpp:155] Setting up loss2/classifier_cub
I0906 15:25:27.643877 89616 net.cpp:163] Top shape: 32 200 (6400)
I0906 15:25:27.643885 89616 layer_factory.hpp:76] Creating layer loss2/classifier_loss2/classifier_cub_0_split
I0906 15:25:27.643893 89616 net.cpp:110] Creating Layer loss2/classifier_loss2/classifier_cub_0_split
I0906 15:25:27.643898 89616 net.cpp:477] loss2/classifier_loss2/classifier_cub_0_split <- loss2/classifier
I0906 15:25:27.643905 89616 net.cpp:433] loss2/classifier_loss2/classifier_cub_0_split -> loss2/classifier_loss2/classifier_cub_0_split_0
I0906 15:25:27.643915 89616 net.cpp:433] loss2/classifier_loss2/classifier_cub_0_split -> loss2/classifier_loss2/classifier_cub_0_split_1
I0906 15:25:27.643924 89616 net.cpp:433] loss2/classifier_loss2/classifier_cub_0_split -> loss2/classifier_loss2/classifier_cub_0_split_2
I0906 15:25:27.643934 89616 net.cpp:155] Setting up loss2/classifier_loss2/classifier_cub_0_split
I0906 15:25:27.643939 89616 net.cpp:163] Top shape: 32 200 (6400)
I0906 15:25:27.643944 89616 net.cpp:163] Top shape: 32 200 (6400)
I0906 15:25:27.643947 89616 net.cpp:163] Top shape: 32 200 (6400)
I0906 15:25:27.643951 89616 layer_factory.hpp:76] Creating layer loss2/loss
I0906 15:25:27.643960 89616 net.cpp:110] Creating Layer loss2/loss
I0906 15:25:27.643965 89616 net.cpp:477] loss2/loss <- loss2/classifier_loss2/classifier_cub_0_split_0
I0906 15:25:27.643970 89616 net.cpp:477] loss2/loss <- label_data_1_split_3
I0906 15:25:27.643978 89616 net.cpp:433] loss2/loss -> loss2/loss1
…
I0906 15:25:27.644170 89616 net.cpp:433] loss2/top-5 -> loss2/top-5
I0906 15:25:27.644193 89616 net.cpp:155] Setting up loss2/top-5
I0906 15:25:27.644199 89616 net.cpp:163] Top shape: (1)
I0906 15:25:27.644203 89616 layer_factory.hpp:76] Creating layer inception_4e/1x1
I0906 15:25:27.644212 89616 net.cpp:110] Creating Layer inception_4e/1x1
I0906 15:25:27.644217 89616 net.cpp:477] inception_4e/1x1 <- inception_4d/output_inception_4d/output_0_split_1
I0906 15:25:27.644225 89616 net.cpp:433] inception_4e/1x1 -> inception_4e/1x1
I0906 15:25:27.645499 89616 net.cpp:155] Setting up inception_4e/1x1
I0906 15:25:27.645510 89616 net.cpp:163] Top shape: 32 256 14 14 (1605632)
I0906 15:25:27.645519 89616 layer_factory.hpp:76] Creating layer inception_4e/relu_1x1
I0906 15:25:27.645525 89616 net.cpp:110] Creating Layer inception_4e/relu_1x1
I0906 15:25:27.645529 89616 net.cpp:477] inception_4e/relu_1x1 <- inception_4e/1x1
I0906 15:25:27.645535 89616 net.cpp:419] inception_4e/relu_1x1 -> inception_4e/1x1 (in-place)
I0906 15:25:27.645544 89616 net.cpp:155] Setting up inception_4e/relu_1x1
I0906 15:25:27.645548 89616 net.cpp:163] Top shape: 32 256 14 14 (1605632)
I0906 15:25:27.645552 89616 layer_factory.hpp:76] Creating layer inception_4e/3x3_reduce
I0906 15:25:27.645575 89616 net.cpp:110] Creating Layer inception_4e/3x3_reduce
I0906 15:25:27.645580 89616 net.cpp:477] inception_4e/3x3_reduce <- inception_4d/output_inception_4d/output_0_split_2
I0906 15:25:27.645586 89616 net.cpp:433] inception_4e/3x3_reduce -> inception_4e/3x3_reduce
I0906 15:25:27.647008 89616 net.cpp:155] Setting up inception_4e/3x3_reduce
I0906 15:25:27.647024 89616 net.cpp:163] Top shape: 32 160 14 14 (1003520)
I0906 15:25:27.647033 89616 layer_factory.hpp:76] Creating layer inception_4e/relu_3x3_reduce
I0906 15:25:27.647040 89616 net.cpp:110] Creating Layer inception_4e/relu_3x3_reduce
I0906 15:25:27.647045 89616 net.cpp:477] inception_4e/relu_3x3_reduce <- inception_4e/3x3_reduce
I0906 15:25:27.647053 89616 net.cpp:419] inception_4e/relu_3x3_reduce -> inception_4e/3x3_reduce (in-place)
I0906 15:25:27.647060 89616 net.cpp:155] Setting up inception_4e/relu_3x3_reduce
I0906 15:25:27.647065 89616 net.cpp:163] Top shape: 32 160 14 14 (1003520)
I0906 15:25:27.647068 89616 layer_factory.hpp:76] Creating layer inception_4e/3x3
I0906 15:25:27.647078 89616 net.cpp:110] Creating Layer inception_4e/3x3
I0906 15:25:27.647081 89616 net.cpp:477] inception_4e/3x3 <- inception_4e/3x3_reduce
I0906 15:25:27.647089 89616 net.cpp:433] inception_4e/3x3 -> inception_4e/3x3
I0906 15:25:27.652197 89616 net.cpp:155] Setting up inception_4e/3x3
I0906 15:25:27.652215 89616 net.cpp:163] Top shape: 32 320 14 14 (2007040)
I0906 15:25:27.652223 89616 layer_factory.hpp:76] Creating layer inception_4e/relu_3x3
I0906 15:25:27.652231 89616 net.cpp:110] Creating Layer inception_4e/relu_3x3
I0906 15:25:27.652235 89616 net.cpp:477] inception_4e/relu_3x3 <- inception_4e/3x3
I0906 15:25:27.652242 89616 net.cpp:419] inception_4e/relu_3x3 -> inception_4e/3x3 (in-place)
I0906 15:25:27.652251 89616 net.cpp:155] Setting up inception_4e/relu_3x3
I0906 15:25:27.652256 89616 net.cpp:163] Top shape: 32 320 14 14 (2007040)
I0906 15:25:27.652259 89616 layer_factory.hpp:76] Creating layer inception_4e/5x5_reduce
I0906 15:25:27.652267 89616 net.cpp:110] Creating Layer inception_4e/5x5_reduce
I0906 15:25:27.652271 89616 net.cpp:477] inception_4e/5x5_reduce <- inception_4d/output_inception_4d/output_0_split_3
I0906 15:25:27.652279 89616 net.cpp:433] inception_4e/5x5_reduce -> inception_4e/5x5_reduce
I0906 15:25:27.652506 89616 net.cpp:155] Setting up inception_4e/5x5_reduce
I0906 15:25:27.652518 89616 net.cpp:163] Top shape: 32 32 14 14 (200704)
I0906 15:25:27.652524 89616 layer_factory.hpp:76] Creating layer inception_4e/relu_5x5_reduce
I0906 15:25:27.652531 89616 net.cpp:110] Creating Layer inception_4e/relu_5x5_reduce
I0906 15:25:27.652535 89616 net.cpp:477] inception_4e/relu_5x5_reduce <- inception_4e/5x5_reduce
I0906 15:25:27.652541 89616 net.cpp:419] inception_4e/relu_5x5_reduce -> inception_4e/5x5_reduce (in-place)
I0906 15:25:27.652549 89616 net.cpp:155] Setting up inception_4e/relu_5x5_reduce
I0906 15:25:27.652567 89616 net.cpp:163] Top shape: 32 32 14 14 (200704)
I0906 15:25:27.652572 89616 layer_factory.hpp:76] Creating layer inception_4e/5x5
I0906 15:25:27.652580 89616 net.cpp:110] Creating Layer inception_4e/5x5
I0906 15:25:27.652585 89616 net.cpp:477] inception_4e/5x5 <- inception_4e/5x5_reduce
I0906 15:25:27.652591 89616 net.cpp:433] inception_4e/5x5 -> inception_4e/5x5
I0906 15:25:27.653568 89616 net.cpp:155] Setting up inception_4e/5x5
I0906 15:25:27.653579 89616 net.cpp:163] Top shape: 32 128 14 14 (802816)
I0906 15:25:27.653586 89616 layer_factory.hpp:76] Creating layer inception_4e/relu_5x5
I0906 15:25:27.653592 89616 net.cpp:110] Creating Layer inception_4e/relu_5x5
I0906 15:25:27.653597 89616 net.cpp:477] inception_4e/relu_5x5 <- inception_4e/5x5
I0906 15:25:27.653604 89616 net.cpp:419] inception_4e/relu_5x5 -> inception_4e/5x5 (in-place)
I0906 15:25:27.653610 89616 net.cpp:155] Setting up inception_4e/relu_5x5
I0906 15:25:27.653615 89616 net.cpp:163] Top shape: 32 128 14 14 (802816)
I0906 15:25:27.653619 89616 layer_factory.hpp:76] Creating layer inception_4e/pool
I0906 15:25:27.653630 89616 net.cpp:110] Creating Layer inception_4e/pool
I0906 15:25:27.653633 89616 net.cpp:477] inception_4e/pool <- inception_4d/output_inception_4d/output_0_split_4
I0906 15:25:27.653640 89616 net.cpp:433] inception_4e/pool -> inception_4e/pool
I0906 15:25:27.653650 89616 net.cpp:155] Setting up inception_4e/pool
I0906 15:25:27.653656 89616 net.cpp:163] Top shape: 32 528 14 14 (3311616)
I0906 15:25:27.653659 89616 layer_factory.hpp:76] Creating layer inception_4e/pool_proj
I0906 15:25:27.653666 89616 net.cpp:110] Creating Layer inception_4e/pool_proj
I0906 15:25:27.653671 89616 net.cpp:477] inception_4e/pool_proj <- inception_4e/pool
I0906 15:25:27.653677 89616 net.cpp:433] inception_4e/pool_proj -> inception_4e/pool_proj
I0906 15:25:27.654342 89616 net.cpp:155] Setting up inception_4e/pool_proj
I0906 15:25:27.654352 89616 net.cpp:163] Top shape: 32 128 14 14 (802816)
I0906 15:25:27.654359 89616 layer_factory.hpp:76] Creating layer inception_4e/relu_pool_proj
I0906 15:25:27.654366 89616 net.cpp:110] Creating Layer inception_4e/relu_pool_proj
I0906 15:25:27.654369 89616 net.cpp:477] inception_4e/relu_pool_proj <- inception_4e/pool_proj
I0906 15:25:27.654376 89616 net.cpp:419] inception_4e/relu_pool_proj -> inception_4e/pool_proj (in-place)
I0906 15:25:27.654382 89616 net.cpp:155] Setting up inception_4e/relu_pool_proj
I0906 15:25:27.654387 89616 net.cpp:163] Top shape: 32 128 14 14 (802816)
I0906 15:25:27.654392 89616 layer_factory.hpp:76] Creating layer inception_4e/output
I0906 15:25:27.654398 89616 net.cpp:110] Creating Layer inception_4e/output
I0906 15:25:27.654402 89616 net.cpp:477] inception_4e/output <- inception_4e/1x1
I0906 15:25:27.654407 89616 net.cpp:477] inception_4e/output <- inception_4e/3x3
I0906 15:25:27.654412 89616 net.cpp:477] inception_4e/output <- inception_4e/5x5
I0906 15:25:27.654417 89616 net.cpp:477] inception_4e/output <- inception_4e/pool_proj
I0906 15:25:27.654423 89616 net.cpp:433] inception_4e/output -> inception_4e/output
I0906 15:25:27.654433 89616 net.cpp:155] Setting up inception_4e/output
I0906 15:25:27.654438 89616 net.cpp:163] Top shape: 32 832 14 14 (5218304)
I0906 15:25:27.654441 89616 layer_factory.hpp:76] Creating layer pool4/3x3_s2
I0906 15:25:27.654448 89616 net.cpp:110] Creating Layer pool4/3x3_s2
I0906 15:25:27.654453 89616 net.cpp:477] pool4/3x3_s2 <- inception_4e/output
I0906 15:25:27.654459 89616 net.cpp:433] pool4/3x3_s2 -> pool4/3x3_s2
I0906 15:25:27.654469 89616 net.cpp:155] Setting up pool4/3x3_s2
I0906 15:25:27.654472 89616 net.cpp:163] Top shape: 32 832 7 7 (1304576)
I0906 15:25:27.654476 89616 layer_factory.hpp:76] Creating layer pool4/3x3_s2_pool4/3x3_s2_0_split
I0906 15:25:27.654484 89616 net.cpp:110] Creating Layer pool4/3x3_s2_pool4/3x3_s2_0_split
I0906 15:25:27.654487 89616 net.cpp:477] pool4/3x3_s2_pool4/3x3_s2_0_split <- pool4/3x3_s2
I0906 15:25:27.654495 89616 net.cpp:433] pool4/3x3_s2_pool4/3x3_s2_0_split -> pool4/3x3_s2_pool4/3x3_s2_0_split_0
I0906 15:25:27.654513 89616 net.cpp:433] pool4/3x3_s2_pool4/3x3_s2_0_split -> pool4/3x3_s2_pool4/3x3_s2_0_split_1
I0906 15:25:27.654521 89616 net.cpp:433] pool4/3x3_s2_pool4/3x3_s2_0_split -> pool4/3x3_s2_pool4/3x3_s2_0_split_2
I0906 15:25:27.654547 89616 net.cpp:433] pool4/3x3_s2_pool4/3x3_s2_0_split -> pool4/3x3_s2_pool4/3x3_s2_0_split_3
I0906 15:25:27.654556 89616 net.cpp:155] Setting up pool4/3x3_s2_pool4/3x3_s2_0_split
I0906 15:25:27.654561 89616 net.cpp:163] Top shape: 32 832 7 7 (1304576)
I0906 15:25:27.654567 89616 net.cpp:163] Top shape: 32 832 7 7 (1304576)
I0906 15:25:27.654572 89616 net.cpp:163] Top shape: 32 832 7 7 (1304576)
I0906 15:25:27.654577 89616 net.cpp:163] Top shape: 32 832 7 7 (1304576)
I0906 15:25:27.654580 89616 layer_factory.hpp:76] Creating layer inception_5a/1x1
I0906 15:25:27.654589 89616 net.cpp:110] Creating Layer inception_5a/1x1
I0906 15:25:27.654593 89616 net.cpp:477] inception_5a/1x1 <- pool4/3x3_s2_pool4/3x3_s2_0_split_0
I0906 15:25:27.654602 89616 net.cpp:433] inception_5a/1x1 -> inception_5a/1x1
I0906 15:25:27.657179 89616 net.cpp:155] Setting up inception_5a/1x1
I0906 15:25:27.657196 89616 net.cpp:163] Top shape: 32 256 7 7 (401408)
I0906 15:25:27.657204 89616 layer_factory.hpp:76] Creating layer inception_5a/relu_1x1
I0906 15:25:27.657212 89616 net.cpp:110] Creating Layer inception_5a/relu_1x1
I0906 15:25:27.657217 89616 net.cpp:477] inception_5a/relu_1x1 <- inception_5a/1x1
I0906 15:25:27.657223 89616 net.cpp:419] inception_5a/relu_1x1 -> inception_5a/1x1 (in-place)
I0906 15:25:27.657232 89616 net.cpp:155] Setting up inception_5a/relu_1x1
I0906 15:25:27.657238 89616 net.cpp:163] Top shape: 32 256 7 7 (401408)
I0906 15:25:27.657240 89616 layer_factory.hpp:76] Creating layer inception_5a/3x3_reduce
I0906 15:25:27.657254 89616 net.cpp:110] Creating Layer inception_5a/3x3_reduce
I0906 15:25:27.657259 89616 net.cpp:477] inception_5a/3x3_reduce <- pool4/3x3_s2_pool4/3x3_s2_0_split_1
I0906 15:25:27.657266 89616 net.cpp:433] inception_5a/3x3_reduce -> inception_5a/3x3_reduce
I0906 15:25:27.659179 89616 net.cpp:155] Setting up inception_5a/3x3_reduce
I0906 15:25:27.659194 89616 net.cpp:163] Top shape: 32 160 7 7 (250880)
I0906 15:25:27.659204 89616 layer_factory.hpp:76] Creating layer inception_5a/relu_3x3_reduce
I0906 15:25:27.659212 89616 net.cpp:110] Creating Layer inception_5a/relu_3x3_reduce
I0906 15:25:27.659217 89616 net.cpp:477] inception_5a/relu_3x3_reduce <- inception_5a/3x3_reduce
I0906 15:25:27.659225 89616 net.cpp:419] inception_5a/relu_3x3_reduce -> inception_5a/3x3_reduce (in-place)
I0906 15:25:27.659234 89616 net.cpp:155] Setting up inception_5a/relu_3x3_reduce
I0906 15:25:27.659239 89616 net.cpp:163] Top shape: 32 160 7 7 (250880)
I0906 15:25:27.659242 89616 layer_factory.hpp:76] Creating layer inception_5a/3x3
I0906 15:25:27.659250 89616 net.cpp:110] Creating Layer inception_5a/3x3
I0906 15:25:27.659255 89616 net.cpp:477] inception_5a/3x3 <- inception_5a/3x3_reduce
I0906 15:25:27.659261 89616 net.cpp:433] inception_5a/3x3 -> inception_5a/3x3
I0906 15:25:27.664400 89616 net.cpp:155] Setting up inception_5a/3x3
I0906 15:25:27.664417 89616 net.cpp:163] Top shape: 32 320 7 7 (501760)
I0906 15:25:27.664430 89616 layer_factory.hpp:76] Creating layer inception_5a/relu_3x3
I0906 15:25:27.664438 89616 net.cpp:110] Creating Layer inception_5a/relu_3x3
I0906 15:25:27.664443 89616 net.cpp:477] inception_5a/relu_3x3 <- inception_5a/3x3
I0906 15:25:27.664450 89616 net.cpp:419] inception_5a/relu_3x3 -> inception_5a/3x3 (in-place)
I0906 15:25:27.664458 89616 net.cpp:155] Setting up inception_5a/relu_3x3
I0906 15:25:27.664463 89616 net.cpp:163] Top shape: 32 320 7 7 (501760)
I0906 15:25:27.664466 89616 layer_factory.hpp:76] Creating layer inception_5a/5x5_reduce
I0906 15:25:27.664474 89616 net.cpp:110] Creating Layer inception_5a/5x5_reduce
I0906 15:25:27.664479 89616 net.cpp:477] inception_5a/5x5_reduce <- pool4/3x3_s2_pool4/3x3_s2_0_split_2
I0906 15:25:27.664486 89616 net.cpp:433] inception_5a/5x5_reduce -> inception_5a/5x5_reduce
I0906 15:25:27.665393 89616 net.cpp:155] Setting up inception_5a/5x5_reduce
I0906 15:25:27.665422 89616 net.cpp:163] Top shape: 32 32 7 7 (50176)
I0906 15:25:27.665432 89616 layer_factory.hpp:76] Creating layer inception_5a/relu_5x5_reduce
I0906 15:25:27.665439 89616 net.cpp:110] Creating Layer inception_5a/relu_5x5_reduce
I0906 15:25:27.665444 89616 net.cpp:477] inception_5a/relu_5x5_reduce <- inception_5a/5x5_reduce
I0906 15:25:27.665453 89616 net.cpp:419] inception_5a/relu_5x5_reduce -> inception_5a/5x5_reduce (in-place)
I0906 15:25:27.665460 89616 net.cpp:155] Setting up inception_5a/relu_5x5_reduce
I0906 15:25:27.665467 89616 net.cpp:163] Top shape: 32 32 7 7 (50176)
I0906 15:25:27.665469 89616 layer_factory.hpp:76] Creating layer inception_5a/5x5
I0906 15:25:27.665477 89616 net.cpp:110] Creating Layer inception_5a/5x5
I0906 15:25:27.665482 89616 net.cpp:477] inception_5a/5x5 <- inception_5a/5x5_reduce
I0906 15:25:27.665488 89616 net.cpp:433] inception_5a/5x5 -> inception_5a/5x5
I0906 15:25:27.666470 89616 net.cpp:155] Setting up inception_5a/5x5
I0906 15:25:27.666483 89616 net.cpp:163] Top shape: 32 128 7 7 (200704)
I0906 15:25:27.666491 89616 layer_factory.hpp:76] Creating layer inception_5a/relu_5x5
I0906 15:25:27.666496 89616 net.cpp:110] Creating Layer inception_5a/relu_5x5
I0906 15:25:27.666501 89616 net.cpp:477] inception_5a/relu_5x5 <- inception_5a/5x5
I0906 15:25:27.666507 89616 net.cpp:419] inception_5a/relu_5x5 -> inception_5a/5x5 (in-place)
I0906 15:25:27.666514 89616 net.cpp:155] Setting up inception_5a/relu_5x5
I0906 15:25:27.666519 89616 net.cpp:163] Top shape: 32 128 7 7 (200704)
I0906 15:25:27.666522 89616 layer_factory.hpp:76] Creating layer inception_5a/pool
I0906 15:25:27.666529 89616 net.cpp:110] Creating Layer inception_5a/pool
I0906 15:25:27.666534 89616 net.cpp:477] inception_5a/pool <- pool4/3x3_s2_pool4/3x3_s2_0_split_3
I0906 15:25:27.666542 89616 net.cpp:433] inception_5a/pool -> inception_5a/pool
I0906 15:25:27.666550 89616 net.cpp:155] Setting up inception_5a/pool
I0906 15:25:27.666555 89616 net.cpp:163] Top shape: 32 832 7 7 (1304576)
I0906 15:25:27.666559 89616 layer_factory.hpp:76] Creating layer inception_5a/pool_proj
I0906 15:25:27.666568 89616 net.cpp:110] Creating Layer inception_5a/pool_proj
I0906 15:25:27.666573 89616 net.cpp:477] inception_5a/pool_proj <- inception_5a/pool
I0906 15:25:27.666579 89616 net.cpp:433] inception_5a/pool_proj -> inception_5a/pool_proj
I0906 15:25:27.668207 89616 net.cpp:155] Setting up inception_5a/pool_proj
I0906 15:25:27.668223 89616 net.cpp:163] Top shape: 32 128 7 7 (200704)
I0906 15:25:27.668231 89616 layer_factory.hpp:76] Creating layer inception_5a/relu_pool_proj
I0906 15:25:27.668238 89616 net.cpp:110] Creating Layer inception_5a/relu_pool_proj
I0906 15:25:27.668243 89616 net.cpp:477] inception_5a/relu_pool_proj <- inception_5a/pool_proj
I0906 15:25:27.668249 89616 net.cpp:419] inception_5a/relu_pool_proj -> inception_5a/pool_proj (in-place)
I0906 15:25:27.668257 89616 net.cpp:155] Setting up inception_5a/relu_pool_proj
I0906 15:25:27.668262 89616 net.cpp:163] Top shape: 32 128 7 7 (200704)
I0906 15:25:27.668267 89616 layer_factory.hpp:76] Creating layer inception_5a/output
I0906 15:25:27.668273 89616 net.cpp:110] Creating Layer inception_5a/output
I0906 15:25:27.668277 89616 net.cpp:477] inception_5a/output <- inception_5a/1x1
I0906 15:25:27.668282 89616 net.cpp:477] inception_5a/output <- inception_5a/3x3
I0906 15:25:27.668287 89616 net.cpp:477] inception_5a/output <- inception_5a/5x5
I0906 15:25:27.668292 89616 net.cpp:477] inception_5a/output <- inception_5a/pool_proj
I0906 15:25:27.668304 89616 net.cpp:433] inception_5a/output -> inception_5a/output
I0906 15:25:27.668313 89616 net.cpp:155] Setting up inception_5a/output
I0906 15:25:27.668318 89616 net.cpp:163] Top shape: 32 832 7 7 (1304576)
I0906 15:25:27.668321 89616 layer_factory.hpp:76] Creating layer inception_5a/output_inception_5a/output_0_split
I0906 15:25:27.668329 89616 net.cpp:110] Creating Layer inception_5a/output_inception_5a/output_0_split
I0906 15:25:27.668333 89616 net.cpp:477] inception_5a/output_inception_5a/output_0_split <- inception_5a/output
I0906 15:25:27.668352 89616 net.cpp:433] inception_5a/output_inception_5a/output_0_split -> inception_5a/output_inception_5a/output_0_split_0
I0906 15:25:27.668362 89616 net.cpp:433] inception_5a/output_inception_5a/output_0_split -> inception_5a/output_inception_5a/output_0_split_1
I0906 15:25:27.668370 89616 net.cpp:433] inception_5a/output_inception_5a/output_0_split -> inception_5a/output_inception_5a/output_0_split_2
I0906 15:25:27.668377 89616 net.cpp:433] inception_5a/output_inception_5a/output_0_split -> inception_5a/output_inception_5a/output_0_split_3
I0906 15:25:27.668385 89616 net.cpp:155] Setting up inception_5a/output_inception_5a/output_0_split
I0906 15:25:27.668391 89616 net.cpp:163] Top shape: 32 832 7 7 (1304576)
I0906 15:25:27.668395 89616 net.cpp:163] Top shape: 32 832 7 7 (1304576)
I0906 15:25:27.668401 89616 net.cpp:163] Top shape: 32 832 7 7 (1304576)
I0906 15:25:27.668404 89616 net.cpp:163] Top shape: 32 832 7 7 (1304576)
I0906 15:25:27.668408 89616 layer_factory.hpp:76] Creating layer inception_5b/1x1
I0906 15:25:27.668417 89616 net.cpp:110] Creating Layer inception_5b/1x1
I0906 15:25:27.668421 89616 net.cpp:477] inception_5b/1x1 <- inception_5a/output_inception_5a/output_0_split_0
I0906 15:25:27.668427 89616 net.cpp:433] inception_5b/1x1 -> inception_5b/1x1
I0906 15:25:27.672058 89616 net.cpp:155] Setting up inception_5b/1x1
I0906 15:25:27.672075 89616 net.cpp:163] Top shape: 32 384 7 7 (602112)
I0906 15:25:27.672085 89616 layer_factory.hpp:76] Creating layer inception_5b/relu_1x1
I0906 15:25:27.672092 89616 net.cpp:110] Creating Layer inception_5b/relu_1x1
I0906 15:25:27.672096 89616 net.cpp:477] inception_5b/relu_1x1 <- inception_5b/1x1
I0906 15:25:27.672103 89616 net.cpp:419] inception_5b/relu_1x1 -> inception_5b/1x1 (in-place)
I0906 15:25:27.672111 89616 net.cpp:155] Setting up inception_5b/relu_1x1
I0906 15:25:27.672116 89616 net.cpp:163] Top shape: 32 384 7 7 (602112)
I0906 15:25:27.672121 89616 layer_factory.hpp:76] Creating layer inception_5b/3x3_reduce
I0906 15:25:27.672128 89616 net.cpp:110] Creating Layer inception_5b/3x3_reduce
I0906 15:25:27.672132 89616 net.cpp:477] inception_5b/3x3_reduce <- inception_5a/output_inception_5a/output_0_split_1
I0906 15:25:27.672140 89616 net.cpp:433] inception_5b/3x3_reduce -> inception_5b/3x3_reduce
I0906 15:25:27.674265 89616 net.cpp:155] Setting up inception_5b/3x3_reduce
I0906 15:25:27.674281 89616 net.cpp:163] Top shape: 32 192 7 7 (301056)
I0906 15:25:27.674293 89616 layer_factory.hpp:76] Creating layer inception_5b/relu_3x3_reduce
I0906 15:25:27.674305 89616 net.cpp:110] Creating Layer inception_5b/relu_3x3_reduce
I0906 15:25:27.674311 89616 net.cpp:477] inception_5b/relu_3x3_reduce <- inception_5b/3x3_reduce
I0906 15:25:27.674319 89616 net.cpp:419] inception_5b/relu_3x3_reduce -> inception_5b/3x3_reduce (in-place)
I0906 15:25:27.674326 89616 net.cpp:155] Setting up inception_5b/relu_3x3_reduce
I0906 15:25:27.674331 89616 net.cpp:163] Top shape: 32 192 7 7 (301056)
I0906 15:25:27.674335 89616 layer_factory.hpp:76] Creating layer inception_5b/3x3
I0906 15:25:27.674342 89616 net.cpp:110] Creating Layer inception_5b/3x3
I0906 15:25:27.674346 89616 net.cpp:477] inception_5b/3x3 <- inception_5b/3x3_reduce
I0906 15:25:27.674355 89616 net.cpp:433] inception_5b/3x3 -> inception_5b/3x3
I0906 15:25:27.681624 89616 net.cpp:155] Setting up inception_5b/3x3
I0906 15:25:27.681640 89616 net.cpp:163] Top shape: 32 384 7 7 (602112)
I0906 15:25:27.681650 89616 layer_factory.hpp:76] Creating layer inception_5b/relu_3x3
I0906 15:25:27.681658 89616 net.cpp:110] Creating Layer inception_5b/relu_3x3
I0906 15:25:27.681663 89616 net.cpp:477] inception_5b/relu_3x3 <- inception_5b/3x3
I0906 15:25:27.681669 89616 net.cpp:419] inception_5b/relu_3x3 -> inception_5b/3x3 (in-place)
I0906 15:25:27.681677 89616 net.cpp:155] Setting up inception_5b/relu_3x3
I0906 15:25:27.681682 89616 net.cpp:163] Top shape: 32 384 7 7 (602112)
I0906 15:25:27.681686 89616 layer_factory.hpp:76] Creating layer inception_5b/5x5_reduce
I0906 15:25:27.681712 89616 net.cpp:110] Creating Layer inception_5b/5x5_reduce
I0906 15:25:27.681718 89616 net.cpp:477] inception_5b/5x5_reduce <- inception_5a/output_inception_5a/output_0_split_2
I0906 15:25:27.681726 89616 net.cpp:433] inception_5b/5x5_reduce -> inception_5b/5x5_reduce
I0906 15:25:27.682163 89616 net.cpp:155] Setting up inception_5b/5x5_reduce
I0906 15:25:27.682173 89616 net.cpp:163] Top shape: 32 48 7 7 (75264)
I0906 15:25:27.682181 89616 layer_factory.hpp:76] Creating layer inception_5b/relu_5x5_reduce
I0906 15:25:27.682188 89616 net.cpp:110] Creating Layer inception_5b/relu_5x5_reduce
I0906 15:25:27.682193 89616 net.cpp:477] inception_5b/relu_5x5_reduce <- inception_5b/5x5_reduce
I0906 15:25:27.682199 89616 net.cpp:419] inception_5b/relu_5x5_reduce -> inception_5b/5x5_reduce (in-place)
I0906 15:25:27.682205 89616 net.cpp:155] Setting up inception_5b/relu_5x5_reduce
I0906 15:25:27.682210 89616 net.cpp:163] Top shape: 32 48 7 7 (75264)
I0906 15:25:27.682214 89616 layer_factory.hpp:76] Creating layer inception_5b/5x5
I0906 15:25:27.682227 89616 net.cpp:110] Creating Layer inception_5b/5x5
I0906 15:25:27.682231 89616 net.cpp:477] inception_5b/5x5 <- inception_5b/5x5_reduce
I0906 15:25:27.682238 89616 net.cpp:433] inception_5b/5x5 -> inception_5b/5x5
I0906 15:25:27.683689 89616 net.cpp:155] Setting up inception_5b/5x5
I0906 15:25:27.683701 89616 net.cpp:163] Top shape: 32 128 7 7 (200704)
I0906 15:25:27.683712 89616 layer_factory.hpp:76] Creating layer inception_5b/relu_5x5
I0906 15:25:27.683717 89616 net.cpp:110] Creating Layer inception_5b/relu_5x5
I0906 15:25:27.683722 89616 net.cpp:477] inception_5b/relu_5x5 <- inception_5b/5x5
I0906 15:25:27.683728 89616 net.cpp:419] inception_5b/relu_5x5 -> inception_5b/5x5 (in-place)
I0906 15:25:27.683734 89616 net.cpp:155] Setting up inception_5b/relu_5x5
I0906 15:25:27.683739 89616 net.cpp:163] Top shape: 32 128 7 7 (200704)
I0906 15:25:27.683743 89616 layer_factory.hpp:76] Creating layer inception_5b/pool
I0906 15:25:27.683750 89616 net.cpp:110] Creating Layer inception_5b/pool
I0906 15:25:27.683754 89616 net.cpp:477] inception_5b/pool <- inception_5a/output_inception_5a/output_0_split_3
I0906 15:25:27.683761 89616 net.cpp:433] inception_5b/pool -> inception_5b/pool
I0906 15:25:27.683771 89616 net.cpp:155] Setting up inception_5b/pool
I0906 15:25:27.683776 89616 net.cpp:163] Top shape: 32 832 7 7 (1304576)
I0906 15:25:27.683780 89616 layer_factory.hpp:76] Creating layer inception_5b/pool_proj
I0906 15:25:27.683787 89616 net.cpp:110] Creating Layer inception_5b/pool_proj
I0906 15:25:27.683791 89616 net.cpp:477] inception_5b/pool_proj <- inception_5b/pool
I0906 15:25:27.683799 89616 net.cpp:433] inception_5b/pool_proj -> inception_5b/pool_proj
I0906 15:25:27.685415 89616 net.cpp:155] Setting up inception_5b/pool_proj
I0906 15:25:27.685430 89616 net.cpp:163] Top shape: 32 128 7 7 (200704)
I0906 15:25:27.685437 89616 layer_factory.hpp:76] Creating layer inception_5b/relu_pool_proj
I0906 15:25:27.685444 89616 net.cpp:110] Creating Layer inception_5b/relu_pool_proj
I0906 15:25:27.685449 89616 net.cpp:477] inception_5b/relu_pool_proj <- inception_5b/pool_proj
I0906 15:25:27.685456 89616 net.cpp:419] inception_5b/relu_pool_proj -> inception_5b/pool_proj (in-place)
I0906 15:25:27.685463 89616 net.cpp:155] Setting up inception_5b/relu_pool_proj
I0906 15:25:27.685468 89616 net.cpp:163] Top shape: 32 128 7 7 (200704)
I0906 15:25:27.685472 89616 layer_factory.hpp:76] Creating layer inception_5b/output
I0906 15:25:27.685479 89616 net.cpp:110] Creating Layer inception_5b/output
I0906 15:25:27.685483 89616 net.cpp:477] inception_5b/output <- inception_5b/1x1
I0906 15:25:27.685488 89616 net.cpp:477] inception_5b/output <- inception_5b/3x3
I0906 15:25:27.685493 89616 net.cpp:477] inception_5b/output <- inception_5b/5x5
I0906 15:25:27.685497 89616 net.cpp:477] inception_5b/output <- inception_5b/pool_proj
I0906 15:25:27.685503 89616 net.cpp:433] inception_5b/output -> inception_5b/output
I0906 15:25:27.685513 89616 net.cpp:155] Setting up inception_5b/output
I0906 15:25:27.685518 89616 net.cpp:163] Top shape: 32 1024 7 7 (1605632)
I0906 15:25:27.685534 89616 layer_factory.hpp:76] Creating layer pool5/7x7_s1
I0906 15:25:27.685542 89616 net.cpp:110] Creating Layer pool5/7x7_s1
I0906 15:25:27.685546 89616 net.cpp:477] pool5/7x7_s1 <- inception_5b/output
I0906 15:25:27.685554 89616 net.cpp:433] pool5/7x7_s1 -> pool5/7x7_s1
I0906 15:25:27.685562 89616 net.cpp:155] Setting up pool5/7x7_s1
I0906 15:25:27.685569 89616 net.cpp:163] Top shape: 32 1024 1 1 (32768)
I0906 15:25:27.685572 89616 layer_factory.hpp:76] Creating layer pool5/drop_7x7_s1
I0906 15:25:27.685580 89616 net.cpp:110] Creating Layer pool5/drop_7x7_s1
I0906 15:25:27.685583 89616 net.cpp:477] pool5/drop_7x7_s1 <- pool5/7x7_s1
I0906 15:25:27.685590 89616 net.cpp:419] pool5/drop_7x7_s1 -> pool5/7x7_s1 (in-place)
I0906 15:25:27.685596 89616 net.cpp:155] Setting up pool5/drop_7x7_s1
I0906 15:25:27.685601 89616 net.cpp:163] Top shape: 32 1024 1 1 (32768)
I0906 15:25:27.685606 89616 layer_factory.hpp:76] Creating layer loss3/classifier_cub
I0906 15:25:27.685614 89616 net.cpp:110] Creating Layer loss3/classifier_cub
I0906 15:25:27.685618 89616 net.cpp:477] loss3/classifier_cub <- pool5/7x7_s1
I0906 15:25:27.685626 89616 net.cpp:433] loss3/classifier_cub -> loss3/classifier
I0906 15:25:27.694576 89616 net.cpp:155] Setting up loss3/classifier_cub
I0906 15:25:27.694591 89616 net.cpp:163] Top shape: 32 200 (6400)
I0906 15:25:27.694600 89616 layer_factory.hpp:76] Creating layer loss3/classifier_loss3/classifier_cub_0_split
I0906 15:25:27.694608 89616 net.cpp:110] Creating Layer loss3/classifier_loss3/classifier_cub_0_split
I0906 15:25:27.694612 89616 net.cpp:477] loss3/classifier_loss3/classifier_cub_0_split <- loss3/classifier
I0906 15:25:27.694620 89616 net.cpp:433] loss3/classifier_loss3/classifier_cub_0_split -> loss3/classifier_loss3/classifier_cub_0_split_0
I0906 15:25:27.694629 89616 net.cpp:433] loss3/classifier_loss3/classifier_cub_0_split -> loss3/classifier_loss3/classifier_cub_0_split_1
I0906 15:25:27.694636 89616 net.cpp:433] loss3/classifier_loss3/classifier_cub_0_split -> loss3/classifier_loss3/classifier_cub_0_split_2
I0906 15:25:27.694644 89616 net.cpp:155] Setting up loss3/classifier_loss3/classifier_cub_0_split
I0906 15:25:27.694649 89616 net.cpp:163] Top shape: 32 200 (6400)
I0906 15:25:27.694654 89616 net.cpp:163] Top shape: 32 200 (6400)
I0906 15:25:27.694658 89616 net.cpp:163] Top shape: 32 200 (6400)
I0906 15:25:27.694663 89616 layer_factory.hpp:76] Creating layer loss3/loss3
I0906 15:25:27.694669 89616 net.cpp:110] Creating Layer loss3/loss3
I0906 15:25:27.694672 89616 net.cpp:477] loss3/loss3 <- loss3/classifier_loss3/classifier_cub_0_split_0
I0906 15:25:27.694679 89616 net.cpp:477] loss3/loss3 <- label_data_1_split_6
I0906 15:25:27.694685 89616 net.cpp:433] loss3/loss3 -> loss3/loss3
…
