…
I0906 12:01:15.215211 88016 net.cpp:339] The NetState phase (0) differed from the phase (1) specified by a rule in layer loss3/top-5
I0906 12:01:15.216151 88016 net.cpp:50] Initializing net from parameters: 
name: "CUBNet"
state {
  phase: TRAIN
}
layer {
  name: "data"
  type: "ImageData"
  top: "data"
  top: "label"
  include {
    phase: TRAIN
  }
  transform_param {
    mirror: true
    crop_size: 224
    mean_value: 104
    mean_value: 117
    mean_value: 123
  }
  image_data_param {
    source: "data/CUB_200_2011/train_files.txt"
    batch_size: 32
    shuffle: true
    new_height: 256
    new_width: 256
  }
}
layer {
  name: "conv1/7x7_s2"
  type: "Convolution"
  bottom: "data"
  top: "conv1/7x7_s2"
  param {
    lr_mult: 1
    decay_mult: 1
  }
  param {
    lr_mult: 2
    decay_mult: 0
  }
  convolution_param {
    num_output: 64
    pad: 3
    kernel_size: 7
    stride: 2
    weight_filler {
      type: "xavier"
      std: 0.1
    }
    bias_filler {
      type: "constant"
      value: 0.2
    }
  }
}
layer {
  name: "conv1/relu_7x7"
  type: "ReLU"
  bottom: "conv1/7x7_s2"
  top: "conv1/7x7_s2"
}
layer {
  name: "pool1/3x3_s2"
  type: "Pooling"
  bottom: "conv1/7x7_s2"
  top: "pool1/3x3_s2"
  pooling_param {
    pool: MAX
    kernel_size: 3
    stride: 2
  }
}
layer {
  name: "pool1/norm1"
  type: "LRN"
  bottom: "pool1/3x3_s2"
  top: "pool1/norm1"
  lrn_param {
    local_size: 5
    alpha: 0.0001
    beta: 0.75
  }
}
layer {
  name: "conv2/3x3_reduce"
  type: "Convolution"
  bottom: "pool1/norm1"
  top: "conv2/3x3_reduce"
  param {
    lr_mult: 1
    decay_mult: 1
  }
  param {
    lr_mult: 2
    decay_mult: 0
  }
  convolution_param {
    num_output: 64
    kernel_size: 1
    weight_filler {
      type: "xavier"
      std: 0.1
    }
    bias_filler {
      type: "constant"
      value: 0.2
    }
  }
}
layer {
  name: "conv2/relu_3x3_reduce"
  type: "ReLU"
  bottom: "conv2/3x3_reduce"
  top: "conv2/3x3_reduce"
}
layer {
  name: "conv2/3x3"
  type: "Convolution"
  bottom: "conv2/3x3_reduce"
  top: "conv2/3x3"
  param {
    lr_mult: 1
    decay_mult: 1
  }
  param {
    lr_mult: 2
    decay_mult: 0
  }
  convolution_param {
    num_output: 192
    pad: 1
    kernel_size: 3
    weight_filler {
      type: "xavier"
      std: 0.03
    }
    bias_filler {
      type: "constant"
      value: 0.2
    }
  }
}
layer {
  name: "conv2/relu_3x3"
  type: "ReLU"
  bottom: "conv2/3x3"
  top: "conv2/3x3"
}
layer {
  name: "conv2/norm2"
  type: "LRN"
  bottom: "conv2/3x3"
  top: "conv2/norm2"
  lrn_param {
    local_size: 5
    alpha: 0.0001
    beta: 0.75
  }
}
layer {
  name: "pool2/3x3_s2"
  type: "Pooling"
  bottom: "conv2/norm2"
  top: "pool2/3x3_s2"
  pooling_param {
    pool: MAX
    kernel_size: 3
    stride: 2
  }
}
layer {
  name: "inception_3a/1x1"
  type: "Convolution"
  bottom: "pool2/3x3_s2"
  top: "inception_3a/1x1"
  param {
    lr_mult: 1
    decay_mult: 1
  }
  param {
    lr_mult: 2
    decay_mult: 0
  }
  convolution_param {
    num_output: 64
    kernel_size: 1
    weight_filler {
      type: "xavier"
      std: 0.03
    }
    bias_filler {
      type: "constant"
      value: 0.2
    }
  }
}
layer {
  name: "inception_3a/relu_1x1"
  type: "ReLU"
  bottom: "inception_3a/1x1"
  top: "inception_3a/1x1"
}
layer {
  name: "inception_3a/3x3_reduce"
  type: "Convolution"
  bottom: "pool2/3x3_s2"
  top: "inception_3a/3x3_reduce"
  param {
    lr_mult: 1
    decay_mult: 1
  }
  param {
    lr_mult: 2
    decay_mult: 0
  }
  convolution_param {
    num_output: 96
    kernel_size: 1
    weight_filler {
      type: "xavier"
      std: 0.09
    }
    bias_filler {
      type: "constant"
      value: 0.2
    }
  }
}
layer {
  name: "inception_3a/relu_3x3_reduce"
  type: "ReLU"
  bottom: "inception_3a/3x3_reduce"
  top: "inception_3a/3x3_reduce"
}
layer {
  name: "inception_3a/3x3"
  type: "Convolution"
  bottom: "inception_3a/3x3_reduce"
  top: "inception_3a/3x3"
  param {
    lr_mult: 1
    decay_mult: 1
  }
  param {
    lr_mult: 2
    decay_mult: 0
  }
  convolution_param {
    num_output: 128
    pad: 1
    kernel_size: 3
    weight_filler {
      type: "xavier"
      std: 0.03
    }
    bias_filler {
      type: "constant"
      value: 0.2
    }
  }
}
layer {
  name: "inception_3a/relu_3x3"
  type: "ReLU"
  bottom: "inception_3a/3x3"
  top: "inception_3a/3x3"
}
layer {
  name: "inception_3a/5x5_reduce"
  type: "Convolution"
  bottom: "pool2/3x3_s2"
  top: "inception_3a/5x5_reduce"
  param {
    lr_mult: 1
    decay_mult: 1
  }
  param {
    lr_mult: 2
    decay_mult: 0
  }
  convolution_param {
    num_output: 16
    kernel_size: 1
    weight_filler {
      type: "xavier"
      std: 0.2
    }
    bias_filler {
      type: "constant"
      value: 0.2
    }
  }
}
layer {
  name: "inception_3a/relu_5x5_reduce"
  type: "ReLU"
  bottom: "inception_3a/5x5_reduce"
  top: "inception_3a/5x5_reduce"
}
layer {
  name: "inception_3a/5x5"
  type: "Convolution"
  bottom: "inception_3a/5x5_reduce"
  top: "inception_3a/5x5"
  param {
    lr_mult: 1
    decay_mult: 1
  }
  param {
    lr_mult: 2
    decay_mult: 0
  }
  convolution_param {
    num_output: 32
    pad: 2
    kernel_size: 5
    weight_filler {
      type: "xavier"
      std: 0.03
    }
    bias_filler {
      type: "constant"
      value: 0.2
    }
  }
}
layer {
  name: "inception_3a/relu_5x5"
  type: "ReLU"
  bottom: "inception_3a/5x5"
  top: "inception_3a/5x5"
}
layer {
  name: "inception_3a/pool"
  type: "Pooling"
  bottom: "pool2/3x3_s2"
  top: "inception_3a/pool"
  pooling_param {
    pool: MAX
    kernel_size: 3
    stride: 1
    pad: 1
  }
}
layer {
  name: "inception_3a/pool_proj"
  type: "Convolution"
  bottom: "inception_3a/pool"
  top: "inception_3a/pool_proj"
  param {
    lr_mult: 1
    decay_mult: 1
  }
  param {
    lr_mult: 2
    decay_mult: 0
  }
  convolution_param {
    num_output: 32
    kernel_size: 1
    weight_filler {
      type: "xavier"
      std: 0.1
    }
    bias_filler {
      type: "constant"
      value: 0.2
    }
  }
}
layer {
  name: "inception_3a/relu_pool_proj"
  type: "ReLU"
  bottom: "inception_3a/pool_proj"
  top: "inception_3a/pool_proj"
}
layer {
  name: "inception_3a/output"
  type: "Concat"
  bottom: "inception_3a/1x1"
  bottom: "inception_3a/3x3"
  bottom: "inception_3a/5x5"
  bottom: "inception_3a/pool_proj"
  top: "inception_3a/output"
}
layer {
  name: "inception_3b/1x1"
  type: "Convolution"
  bottom: "inception_3a/output"
  top: "inception_3b/1x1"
  param {
    lr_mult: 1
    decay_mult: 1
  }
  param {
    lr_mult: 2
    decay_mult: 0
  }
  convolution_param {
    num_output: 128
    kernel_size: 1
    weight_filler {
      type: "xavier"
      std: 0.03
    }
    bias_filler {
      type: "constant"
      value: 0.2
    }
  }
}
layer {
  name: "inception_3b/relu_1x1"
  type: "ReLU"
  bottom: "inception_3b/1x1"
  top: "inception_3b/1x1"
}
layer {
  name: "inception_3b/3x3_reduce"
  type: "Convolution"
  bottom: "inception_3a/output"
  top: "inception_3b/3x3_reduce"
  param {
    lr_mult: 1
    decay_mult: 1
  }
  param {
    lr_mult: 2
    decay_mult: 0
  }
  convolution_param {
    num_output: 128
    kernel_size: 1
    weight_filler {
      type: "xavier"
      std: 0.09
    }
    bias_filler {
      type: "constant"
      value: 0.2
    }
  }
}
layer {
  name: "inception_3b/relu_3x3_reduce"
  type: "ReLU"
  bottom: "inception_3b/3x3_reduce"
  top: "inception_3b/3x3_reduce"
}
layer {
  name: "inception_3b/3x3"
  type: "Convolution"
  bottom: "inception_3b/3x3_reduce"
  top: "inception_3b/3x3"
  param {
    lr_mult: 1
    decay_mult: 1
  }
  param {
    lr_mult: 2
    decay_mult: 0
  }
  convolution_param {
    num_output: 192
    pad: 1
    kernel_size: 3
    weight_filler {
      type: "xavier"
      std: 0.03
    }
    bias_filler {
      type: "constant"
      value: 0.2
    }
  }
}
layer {
  name: "inception_3b/relu_3x3"
  type: "ReLU"
  bottom: "inception_3b/3x3"
  top: "inception_3b/3x3"
}
layer {
  name: "inception_3b/5x5_reduce"
  type: "Convolution"
  bottom: "inception_3a/output"
  top: "inception_3b/5x5_reduce"
  param {
    lr_mult: 1
    decay_mult: 1
  }
  param {
    lr_mult: 2
    decay_mult: 0
  }
  convolution_param {
    num_output: 32
    kernel_size: 1
    weight_filler {
      type: "xavier"
      std: 0.2
    }
    bias_filler {
      type: "constant"
      value: 0.2
    }
  }
}
layer {
  name: "inception_3b/relu_5x5_reduce"
  type: "ReLU"
  bottom: "inception_3b/5x5_reduce"
  top: "inception_3b/5x5_reduce"
}
layer {
  name: "inception_3b/5x5"
  type: "Convolution"
  bottom: "inception_3b/5x5_reduce"
  top: "inception_3b/5x5"
  param {
    lr_mult: 1
    decay_mult: 1
  }
  param {
    lr_mult: 2
    decay_mult: 0
  }
  convolution_param {
    num_output: 96
    pad: 2
    kernel_size: 5
    weight_filler {
      type: "xavier"
      std: 0.03
    }
    bias_filler {
      type: "constant"
      value: 0.2
    }
  }
}
layer {
  name: "inception_3b/relu_5x5"
  type: "ReLU"
  bottom: "inception_3b/5x5"
  top: "inception_3b/5x5"
}
layer {
  name: "inception_3b/pool"
  type: "Pooling"
  bottom: "inception_3a/output"
  top: "inception_3b/pool"
  pooling_param {
    pool: MAX
    kernel_size: 3
    stride: 1
    pad: 1
  }
}
layer {
  name: "inception_3b/pool_proj"
  type: "Convolution"
  bottom: "inception_3b/pool"
  top: "inception_3b/pool_proj"
  param {
    lr_mult: 1
    decay_mult: 1
  }
  param {
    lr_mult: 2
    decay_mult: 0
  }
  convolution_param {
    num_output: 64
    kernel_size: 1
    weight_filler {
      type: "xavier"
      std: 0.1
    }
    bias_filler {
      type: "constant"
      value: 0.2
    }
  }
}
layer {
  name: "inception_3b/relu_pool_proj"
  type: "ReLU"
  bottom: "inception_3b/pool_proj"
  top: "inception_3b/pool_proj"
}
layer {
  name: "inception_3b/output"
  type: "Concat"
  bottom: "inception_3b/1x1"
  bottom: "inception_3b/3x3"
  bottom: "inception_3b/5x5"
  bottom: "inception_3b/pool_proj"
  top: "inception_3b/output"
}
layer {
  name: "pool3/3x3_s2"
  type: "Pooling"
  bottom: "inception_3b/output"
  top: "pool3/3x3_s2"
  pooling_param {
    pool: MAX
    kernel_size: 3
    stride: 2
  }
}
layer {
  name: "inception_4a/1x1"
  type: "Convolution"
  bottom: "pool3/3x3_s2"
  top: "inception_4a/1x1"
  param {
    lr_mult: 1
    decay_mult: 1
  }
  param {
    lr_mult: 2
    decay_mult: 0
  }
  convolution_param {
    num_output: 192
    kernel_size: 1
    weight_filler {
      type: "xavier"
      std: 0.03
    }
    bias_filler {
      type: "constant"
      value: 0.2
    }
  }
}
layer {
  name: "inception_4a/relu_1x1"
  type: "ReLU"
  bottom: "inception_4a/1x1"
  top: "inception_4a/1x1"
}
layer {
  name: "inception_4a/3x3_reduce"
  type: "Convolution"
  bottom: "pool3/3x3_s2"
  top: "inception_4a/3x3_reduce"
  param {
    lr_mult: 1
    decay_mult: 1
  }
  param {
    lr_mult: 2
    decay_mult: 0
  }
  convolution_param {
    num_output: 96
    kernel_size: 1
    weight_filler {
      type: "xavier"
      std: 0.09
    }
    bias_filler {
      type: "constant"
      value: 0.2
    }
  }
}
layer {
  name: "inception_4a/relu_3x3_reduce"
  type: "ReLU"
  bottom: "inception_4a/3x3_reduce"
  top: "inception_4a/3x3_reduce"
}
layer {
  name: "inception_4a/3x3"
  type: "Convolution"
  bottom: "inception_4a/3x3_reduce"
  top: "inception_4a/3x3"
  param {
    lr_mult: 1
    decay_mult: 1
  }
  param {
    lr_mult: 2
    decay_mult: 0
  }
  convolution_param {
    num_output: 208
    pad: 1
    kernel_size: 3
    weight_filler {
      type: "xavier"
      std: 0.03
    }
    bias_filler {
      type: "constant"
      value: 0.2
    }
  }
}
layer {
  name: "inception_4a/relu_3x3"
  type: "ReLU"
  bottom: "inception_4a/3x3"
  top: "inception_4a/3x3"
}
layer {
  name: "inception_4a/5x5_reduce"
  type: "Convolution"
  bottom: "pool3/3x3_s2"
  top: "inception_4a/5x5_reduce"
  param {
    lr_mult: 1
    decay_mult: 1
  }
  param {
    lr_mult: 2
    decay_mult: 0
  }
  convolution_param {
    num_output: 16
    kernel_size: 1
    weight_filler {
      type: "xavier"
      std: 0.2
    }
    bias_filler {
      type: "constant"
      value: 0.2
    }
  }
}
layer {
  name: "inception_4a/relu_5x5_reduce"
  type: "ReLU"
  bottom: "inception_4a/5x5_reduce"
  top: "inception_4a/5x5_reduce"
}
layer {
  name: "inception_4a/5x5"
  type: "Convolution"
  bottom: "inception_4a/5x5_reduce"
  top: "inception_4a/5x5"
  param {
    lr_mult: 1
    decay_mult: 1
  }
  param {
    lr_mult: 2
    decay_mult: 0
  }
  convolution_param {
    num_output: 48
    pad: 2
    kernel_size: 5
    weight_filler {
      type: "xavier"
      std: 0.03
    }
    bias_filler {
      type: "constant"
      value: 0.2
    }
  }
}
layer {
  name: "inception_4a/relu_5x5"
  type: "ReLU"
  bottom: "inception_4a/5x5"
  top: "inception_4a/5x5"
}
layer {
  name: "inception_4a/pool"
  type: "Pooling"
  bottom: "pool3/3x3_s2"
  top: "inception_4a/pool"
  pooling_param {
    pool: MAX
    kernel_size: 3
    stride: 1
    pad: 1
  }
}
layer {
  name: "inception_4a/pool_proj"
  type: "Convolution"
  bottom: "inception_4a/pool"
  top: "inception_4a/pool_proj"
  param {
    lr_mult: 1
    decay_mult: 1
  }
  param {
    lr_mult: 2
    decay_mult: 0
  }
  convolution_param {
    num_output: 64
    kernel_size: 1
    weight_filler {
      type: "xavier"
      std: 0.1
    }
    bias_filler {
      type: "constant"
      value: 0.2
    }
  }
}
layer {
  name: "inception_4a/relu_pool_proj"
  type: "ReLU"
  bottom: "inception_4a/pool_proj"
  top: "inception_4a/pool_proj"
}
layer {
  name: "inception_4a/output"
  type: "Concat"
  bottom: "inception_4a/1x1"
  bottom: "inception_4a/3x3"
  bottom: "inception_4a/5x5"
  bottom: "inception_4a/pool_proj"
  top: "inception_4a/output"
}
layer {
  name: "loss1/ave_pool"
  type: "Pooling"
  bottom: "inception_4a/output"
  top: "loss1/ave_pool"
  pooling_param {
    pool: AVE
    kernel_size: 5
    stride: 3
  }
}
layer {
  name: "loss1/conv"
  type: "Convolution"
  bottom: "loss1/ave_pool"
  top: "loss1/conv"
  param {
    lr_mult: 1
    decay_mult: 1
  }
  param {
    lr_mult: 2
    decay_mult: 0
  }
  convolution_param {
    num_output: 128
    kernel_size: 1
    weight_filler {
      type: "xavier"
      std: 0.08
    }
    bias_filler {
      type: "constant"
      value: 0.2
    }
  }
}
layer {
  name: "loss1/relu_conv"
  type: "ReLU"
  bottom: "loss1/conv"
  top: "loss1/conv"
}
layer {
  name: "loss1/fc"
  type: "InnerProduct"
  bottom: "loss1/conv"
  top: "loss1/fc"
  param {
    lr_mult: 1
    decay_mult: 1
  }
  param {
    lr_mult: 2
    decay_mult: 0
  }
  inner_product_param {
    num_output: 1024
    weight_filler {
      type: "xavier"
      std: 0.02
    }
    bias_filler {
      type: "constant"
      value: 0.2
    }
  }
}
layer {
  name: "loss1/relu_fc"
  type: "ReLU"
  bottom: "loss1/fc"
  top: "loss1/fc"
}
layer {
  name: "loss1/drop_fc"
  type: "Dropout"
  bottom: "loss1/fc"
  top: "loss1/fc"
  dropout_param {
    dropout_ratio: 0.7
  }
}
layer {
  name: "loss1/classifier_cub"
  type: "InnerProduct"
  bottom: "loss1/fc"
  top: "loss1/classifier"
  param {
    lr_mult: 1
    decay_mult: 1
  }
  param {
    lr_mult: 2
    decay_mult: 0
  }
  inner_product_param {
    num_output: 200
    weight_filler {
      type: "gaussian"
      std: 1e-05
    }
    bias_filler {
      type: "constant"
      value: 0
    }
  }
}
layer {
  name: "loss1/loss"
  type: "SoftmaxWithLoss"
  bottom: "loss1/classifier"
  bottom: "label"
  top: "loss1/loss1"
  loss_weight: 0.3
}
layer {
  name: "inception_4b/1x1"
  type: "Convolution"
  bottom: "inception_4a/output"
  top: "inception_4b/1x1"
  param {
    lr_mult: 1
    decay_mult: 1
  }
  param {
    lr_mult: 2
    decay_mult: 0
  }
  convolution_param {
    num_output: 160
    kernel_size: 1
    weight_filler {
      type: "xavier"
      std: 0.03
    }
    bias_filler {
      type: "constant"
      value: 0.2
    }
  }
}
layer {
  name: "inception_4b/relu_1x1"
  type: "ReLU"
  bottom: "inception_4b/1x1"
  top: "inception_4b/1x1"
}
layer {
  name: "inception_4b/3x3_reduce"
  type: "Convolution"
  bottom: "inception_4a/output"
  top: "inception_4b/3x3_reduce"
  param {
    lr_mult: 1
    decay_mult: 1
  }
  param {
    lr_mult: 2
    decay_mult: 0
  }
  convolution_param {
    num_output: 112
    kernel_size: 1
    weight_filler {
      type: "xavier"
      std: 0.09
    }
    bias_filler {
      type: "constant"
      value: 0.2
    }
  }
}
layer {
  name: "inception_4b/relu_3x3_reduce"
  type: "ReLU"
  bottom: "inception_4b/3x3_reduce"
  top: "inception_4b/3x3_reduce"
}
layer {
  name: "inception_4b/3x3"
  type: "Convolution"
  bottom: "inception_4b/3x3_reduce"
  top: "inception_4b/3x3"
  param {
    lr_mult: 1
    decay_mult: 1
  }
  param {
    lr_mult: 2
    decay_mult: 0
  }
  convolution_param {
    num_output: 224
    pad: 1
    kernel_size: 3
    weight_filler {
      type: "xavier"
      std: 0.03
    }
    bias_filler {
      type: "constant"
      value: 0.2
    }
  }
}
layer {
  name: "inception_4b/relu_3x3"
  type: "ReLU"
  bottom: "inception_4b/3x3"
  top: "inception_4b/3x3"
}
layer {
  name: "inception_4b/5x5_reduce"
  type: "Convolution"
  bottom: "inception_4a/output"
  top: "inception_4b/5x5_reduce"
  param {
    lr_mult: 1
    decay_mult: 1
  }
  param {
    lr_mult: 2
    decay_mult: 0
  }
  convolution_param {
    num_output: 24
    kernel_size: 1
    weight_filler {
      type: "xavier"
      std: 0.2
    }
    bias_filler {
      type: "constant"
      value: 0.2
    }
  }
}
layer {
  name: "inception_4b/relu_5x5_reduce"
  type: "ReLU"
  bottom: "inception_4b/5x5_reduce"
  top: "inception_4b/5x5_reduce"
}
layer {
  name: "inception_4b/5x5"
  type: "Convolution"
  bottom: "inception_4b/5x5_reduce"
  top: "inception_4b/5x5"
  param {
    lr_mult: 1
    decay_mult: 1
  }
  param {
    lr_mult: 2
    decay_mult: 0
  }
  convolution_param {
    num_output: 64
    pad: 2
    kernel_size: 5
    weight_filler {
      type: "xavier"
      std: 0.03
    }
    bias_filler {
      type: "constant"
      value: 0.2
    }
  }
}
layer {
  name: "inception_4b/relu_5x5"
  type: "ReLU"
  bottom: "inception_4b/5x5"
  top: "inception_4b/5x5"
}
layer {
  name: "inception_4b/pool"
  type: "Pooling"
  bottom: "inception_4a/output"
  top: "inception_4b/pool"
  pooling_param {
    pool: MAX
    kernel_size: 3
    stride: 1
    pad: 1
  }
}
layer {
  name: "inception_4b/pool_proj"
  type: "Convolution"
  bottom: "inception_4b/pool"
  top: "inception_4b/pool_proj"
  param {
    lr_mult: 1
    decay_mult: 1
  }
  param {
    lr_mult: 2
    decay_mult: 0
  }
  convolution_param {
    num_output: 64
    kernel_size: 1
    weight_filler {
      type: "xavier"
      std: 0.1
    }
    bias_filler {
      type: "constant"
      value: 0.2
    }
  }
}
layer {
  name: "inception_4b/relu_pool_proj"
  type: "ReLU"
  bottom: "inception_4b/pool_proj"
  top: "inception_4b/pool_proj"
}
layer {
  name: "inception_4b/output"
  type: "Concat"
  bottom: "inception_4b/1x1"
  bottom: "inception_4b/3x3"
  bottom: "inception_4b/5x5"
  bottom: "inception_4b/pool_proj"
  top: "inception_4b/output"
}
layer {
  name: "inception_4c/1x1"
  type: "Convolution"
  bottom: "inception_4b/output"
  top: "inception_4c/1x1"
  param {
    lr_mult: 1
    decay_mult: 1
  }
  param {
    lr_mult: 2
    decay_mult: 0
  }
  convolution_param {
    num_output: 128
    kernel_size: 1
    weight_filler {
      type: "xavier"
      std: 0.03
    }
    bias_filler {
      type: "constant"
      value: 0.2
    }
  }
}
layer {
  name: "inception_4c/relu_1x1"
  type: "ReLU"
  bottom: "inception_4c/1x1"
  top: "inception_4c/1x1"
}
layer {
  name: "inception_4c/3x3_reduce"
  type: "Convolution"
  bottom: "inception_4b/output"
  top: "inception_4c/3x3_reduce"
  param {
    lr_mult: 1
    decay_mult: 1
  }
  param {
    lr_mult: 2
    decay_mult: 0
  }
  convolution_param {
    num_output: 128
    kernel_size: 1
    weight_filler {
      type: "xavier"
      std: 0.09
    }
    bias_filler {
      type: "constant"
      value: 0.2
    }
  }
}
layer {
  name: "inception_4c/relu_3x3_reduce"
  type: "ReLU"
  bottom: "inception_4c/3x3_reduce"
  top: "inception_4c/3x3_reduce"
}
layer {
  name: "inception_4c/3x3"
  type: "Convolution"
  bottom: "inception_4c/3x3_reduce"
  top: "inception_4c/3x3"
  param {
    lr_mult: 1
    decay_mult: 1
  }
  param {
    lr_mult: 2
    decay_mult: 0
  }
  convolution_param {
    num_output: 256
    pad: 1
    kernel_size: 3
    weight_filler {
      type: "xavier"
      std: 0.03
    }
    bias_filler {
      type: "constant"
      value: 0.2
    }
  }
}
layer {
  name: "inception_4c/relu_3x3"
  type: "ReLU"
  bottom: "inception_4c/3x3"
  top: "inception_4c/3x3"
}
layer {
  name: "inception_4c/5x5_reduce"
  type: "Convolution"
  bottom: "inception_4b/output"
  top: "inception_4c/5x5_reduce"
  param {
    lr_mult: 1
    decay_mult: 1
  }
  param {
    lr_mult: 2
    decay_mult: 0
  }
  convolution_param {
    num_output: 24
    kernel_size: 1
    weight_filler {
      type: "xavier"
      std: 0.2
    }
    bias_filler {
      type: "constant"
      value: 0.2
    }
  }
}
layer {
  name: "inception_4c/relu_5x5_reduce"
  type: "ReLU"
  bottom: "inception_4c/5x5_reduce"
  top: "inception_4c/5x5_reduce"
}
layer {
  name: "inception_4c/5x5"
  type: "Convolution"
  bottom: "inception_4c/5x5_reduce"
  top: "inception_4c/5x5"
  param {
    lr_mult: 1
    decay_mult: 1
  }
  param {
    lr_mult: 2
    decay_mult: 0
  }
  convolution_param {
    num_output: 64
    pad: 2
    kernel_size: 5
    weight_filler {
      type: "xavier"
      std: 0.03
    }
    bias_filler {
      type: "constant"
      value: 0.2
    }
  }
}
layer {
  name: "inception_4c/relu_5x5"
  type: "ReLU"
  bottom: "inception_4c/5x5"
  top: "inception_4c/5x5"
}
layer {
  name: "inception_4c/pool"
  type: "Pooling"
  bottom: "inception_4b/output"
  top: "inception_4c/pool"
  pooling_param {
    pool: MAX
    kernel_size: 3
    stride: 1
    pad: 1
  }
}
layer {
  name: "inception_4c/pool_proj"
  type: "Convolution"
  bottom: "inception_4c/pool"
  top: "inception_4c/pool_proj"
  param {
    lr_mult: 1
    decay_mult: 1
  }
  param {
    lr_mult: 2
    decay_mult: 0
  }
  convolution_param {
    num_output: 64
    kernel_size: 1
    weight_filler {
      type: "xavier"
      std: 0.1
    }
    bias_filler {
      type: "constant"
      value: 0.2
    }
  }
}
layer {
  name: "inception_4c/relu_pool_proj"
  type: "ReLU"
  bottom: "inception_4c/pool_proj"
  top: "inception_4c/pool_proj"
}
layer {
  name: "inception_4c/output"
  type: "Concat"
  bottom: "inception_4c/1x1"
  bottom: "inception_4c/3x3"
  bottom: "inception_4c/5x5"
  bottom: "inception_4c/pool_proj"
  top: "inception_4c/output"
}
layer {
  name: "inception_4d/1x1"
  type: "Convolution"
  bottom: "inception_4c/output"
  top: "inception_4d/1x1"
  param {
    lr_mult: 1
    decay_mult: 1
  }
  param {
    lr_mult: 2
    decay_mult: 0
  }
  convolution_param {
    num_output: 112
    kernel_size: 1
    weight_filler {
      type: "xavier"
      std: 0.03
    }
    bias_filler {
      type: "constant"
      value: 0.2
    }
  }
}
layer {
  name: "inception_4d/relu_1x1"
  type: "ReLU"
  bottom: "inception_4d/1x1"
  top: "inception_4d/1x1"
}
layer {
  name: "inception_4d/3x3_reduce"
  type: "Convolution"
  bottom: "inception_4c/output"
  top: "inception_4d/3x3_reduce"
  param {
    lr_mult: 1
    decay_mult: 1
  }
  param {
    lr_mult: 2
    decay_mult: 0
  }
  convolution_param {
    num_output: 144
    kernel_size: 1
    weight_filler {
      type: "xavier"
      std: 0.09
    }
    bias_filler {
      type: "constant"
      value: 0.2
    }
  }
}
layer {
  name: "inception_4d/relu_3x3_reduce"
  type: "ReLU"
  bottom: "inception_4d/3x3_reduce"
  top: "inception_4d/3x3_reduce"
}
layer {
  name: "inception_4d/3x3"
  type: "Convolution"
  bottom: "inception_4d/3x3_reduce"
  top: "inception_4d/3x3"
  param {
    lr_mult: 1
    decay_mult: 1
  }
  param {
    lr_mult: 2
    decay_mult: 0
  }
  convolution_param {
    num_output: 288
    pad: 1
    kernel_size: 3
    weight_filler {
      type: "xavier"
      std: 0.03
    }
    bias_filler {
      type: "constant"
      value: 0.2
    }
  }
}
layer {
  name: "inception_4d/relu_3x3"
  type: "ReLU"
  bottom: "inception_4d/3x3"
  top: "inception_4d/3x3"
}
layer {
  name: "inception_4d/5x5_reduce"
  type: "Convolution"
  bottom: "inception_4c/output"
  top: "inception_4d/5x5_reduce"
  param {
    lr_mult: 1
    decay_mult: 1
  }
  param {
    lr_mult: 2
    decay_mult: 0
  }
  convolution_param {
    num_output: 32
    kernel_size: 1
    weight_filler {
      type: "xavier"
      std: 0.2
    }
    bias_filler {
      type: "constant"
      value: 0.2
    }
  }
}
layer {
  name: "inception_4d/relu_5x5_reduce"
  type: "ReLU"
  bottom: "inception_4d/5x5_reduce"
  top: "inception_4d/5x5_reduce"
}
layer {
  name: "inception_4d/5x5"
  type: "Convolution"
  bottom: "inception_4d/5x5_reduce"
  top: "inception_4d/5x5"
  param {
    lr_mult: 1
    decay_mult: 1
  }
  param {
    lr_mult: 2
    decay_mult: 0
  }
  convolution_param {
    num_output: 64
    pad: 2
    kernel_size: 5
    weight_filler {
      type: "xavier"
      std: 0.03
    }
    bias_filler {
      type: "constant"
      value: 0.2
    }
  }
}
layer {
  name: "inception_4d/relu_5x5"
  type: "ReLU"
  bottom: "inception_4d/5x5"
  top: "inception_4d/5x5"
}
layer {
  name: "inception_4d/pool"
  type: "Pooling"
  bottom: "inception_4c/output"
  top: "inception_4d/pool"
  pooling_param {
    pool: MAX
    kernel_size: 3
    stride: 1
    pad: 1
  }
}
layer {
  name: "inception_4d/pool_proj"
  type: "Convolution"
  bottom: "inception_4d/pool"
  top: "inception_4d/pool_proj"
  param {
    lr_mult: 1
    decay_mult: 1
  }
  param {
    lr_mult: 2
    decay_mult: 0
  }
  convolution_param {
    num_output: 64
    kernel_size: 1
    weight_filler {
      type: "xavier"
      std: 0.1
    }
    bias_filler {
      type: "constant"
      value: 0.2
    }
  }
}
layer {
  name: "inception_4d/relu_pool_proj"
  type: "ReLU"
  bottom: "inception_4d/pool_proj"
  top: "inception_4d/pool_proj"
}
layer {
  name: "inception_4d/output"
  type: "Concat"
  bottom: "inception_4d/1x1"
  bottom: "inception_4d/3x3"
  bottom: "inception_4d/5x5"
  bottom: "inception_4d/pool_proj"
  top: "inception_4d/output"
}
layer {
  name: "loss2/ave_pool"
  type: "Pooling"
  bottom: "inception_4d/output"
  top: "loss2/ave_pool"
  pooling_param {
    pool: AVE
    kernel_size: 5
    stride: 3
  }
}
layer {
  name: "loss2/conv"
  type: "Convolution"
  bottom: "loss2/ave_pool"
  top: "loss2/conv"
  param {
    lr_mult: 1
    decay_mult: 1
  }
  param {
    lr_mult: 2
    decay_mult: 0
  }
  convolution_param {
    num_output: 128
    kernel_size: 1
    weight_filler {
      type: "xavier"
      std: 0.08
    }
    bias_filler {
      type: "constant"
      value: 0.2
    }
  }
}
layer {
  name: "loss2/relu_conv"
  type: "ReLU"
  bottom: "loss2/conv"
  top: "loss2/conv"
}
layer {
  name: "loss2/fc"
  type: "InnerProduct"
  bottom: "loss2/conv"
  top: "loss2/fc"
  param {
    lr_mult: 1
    decay_mult: 1
  }
  param {
    lr_mult: 2
    decay_mult: 0
  }
  inner_product_param {
    num_output: 1024
    weight_filler {
      type: "xavier"
      std: 0.02
    }
    bias_filler {
      type: "constant"
      value: 0.2
    }
  }
}
layer {
  name: "loss2/relu_fc"
  type: "ReLU"
  bottom: "loss2/fc"
  top: "loss2/fc"
}
layer {
  name: "loss2/drop_fc"
  type: "Dropout"
  bottom: "loss2/fc"
  top: "loss2/fc"
  dropout_param {
    dropout_ratio: 0.7
  }
}
layer {
  name: "loss2/classifier_cub"
  type: "InnerProduct"
  bottom: "loss2/fc"
  top: "loss2/classifier"
  param {
    lr_mult: 1
    decay_mult: 1
  }
  param {
    lr_mult: 2
    decay_mult: 0
  }
  inner_product_param {
    num_output: 200
    weight_filler {
      type: "gaussian"
      std: 1e-05
    }
    bias_filler {
      type: "constant"
      value: 0
    }
  }
}
layer {
  name: "loss2/loss"
  type: "SoftmaxWithLoss"
  bottom: "loss2/classifier"
  bottom: "label"
  top: "loss2/loss1"
  loss_weight: 0.3
}
layer {
  name: "inception_4e/1x1"
  type: "Convolution"
  bottom: "inception_4d/output"
  top: "inception_4e/1x1"
  param {
    lr_mult: 1
    decay_mult: 1
  }
  param {
    lr_mult: 2
    decay_mult: 0
  }
  convolution_param {
    num_output: 256
    kernel_size: 1
    weight_filler {
      type: "xavier"
      std: 0.03
    }
    bias_filler {
      type: "constant"
      value: 0.2
    }
  }
}
layer {
  name: "inception_4e/relu_1x1"
  type: "ReLU"
  bottom: "inception_4e/1x1"
  top: "inception_4e/1x1"
}
layer {
  name: "inception_4e/3x3_reduce"
  type: "Convolution"
  bottom: "inception_4d/output"
  top: "inception_4e/3x3_reduce"
  param {
    lr_mult: 1
    decay_mult: 1
  }
  param {
    lr_mult: 2
    decay_mult: 0
  }
  convolution_param {
    num_output: 160
    kernel_size: 1
    weight_filler {
      type: "xavier"
      std: 0.09
    }
    bias_filler {
      type: "constant"
      value: 0.2
    }
  }
}
layer {
  name: "inception_4e/relu_3x3_reduce"
  type: "ReLU"
  bottom: "inception_4e/3x3_reduce"
  top: "inception_4e/3x3_reduce"
}
layer {
  name: "inception_4e/3x3"
  type: "Convolution"
  bottom: "inception_4e/3x3_reduce"
  top: "inception_4e/3x3"
  param {
    lr_mult: 1
    decay_mult: 1
  }
  param {
    lr_mult: 2
    decay_mult: 0
  }
  convolution_param {
    num_output: 320
    pad: 1
    kernel_size: 3
    weight_filler {
      type: "xavier"
      std: 0.03
    }
    bias_filler {
      type: "constant"
      value: 0.2
    }
  }
}
layer {
  name: "inception_4e/relu_3x3"
  type: "ReLU"
  bottom: "inception_4e/3x3"
  top: "inception_4e/3x3"
}
layer {
  name: "inception_4e/5x5_reduce"
  type: "Convolution"
  bottom: "inception_4d/output"
  top: "inception_4e/5x5_reduce"
  param {
    lr_mult: 1
    decay_mult: 1
  }
  param {
    lr_mult: 2
    decay_mult: 0
  }
  convolution_param {
    num_output: 32
    kernel_size: 1
    weight_filler {
      type: "xavier"
      std: 0.2
    }
    bias_filler {
      type: "constant"
      value: 0.2
    }
  }
}
l
I0906 12:01:15.216910 88016 layer_factory.hpp:76] Creating layer data
I0906 12:01:15.216950 88016 net.cpp:110] Creating Layer data
I0906 12:01:15.216958 88016 net.cpp:433] data -> data
I0906 12:01:15.216977 88016 net.cpp:433] data -> label
I0906 12:01:15.217386 88016 image_data_layer.cpp:36] Opening file data/CUB_200_2011/train_files.txt
I0906 12:01:15.251327 88016 image_data_layer.cpp:46] Shuffling data
I0906 12:01:15.251744 88016 image_data_layer.cpp:51] A total of 5994 images.
I0906 12:01:15.259347 88016 image_data_layer.cpp:78] output data size: 32,3,224,224
I0906 12:01:15.301489 88016 net.cpp:155] Setting up data
I0906 12:01:15.301648 88016 net.cpp:163] Top shape: 32 3 224 224 (4816896)
I0906 12:01:15.301687 88016 net.cpp:163] Top shape: 32 (32)
I0906 12:01:15.301704 88016 layer_factory.hpp:76] Creating layer label_data_1_split
I0906 12:01:15.301729 88016 net.cpp:110] Creating Layer label_data_1_split
I0906 12:01:15.301743 88016 net.cpp:477] label_data_1_split <- label
I0906 12:01:15.301774 88016 net.cpp:433] label_data_1_split -> label_data_1_split_0
I0906 12:01:15.301832 88016 net.cpp:433] label_data_1_split -> label_data_1_split_1
I0906 12:01:15.301846 88016 net.cpp:433] label_data_1_split -> label_data_1_split_2
I0906 12:01:15.301875 88016 net.cpp:155] Setting up label_data_1_split
I0906 12:01:15.301895 88016 net.cpp:163] Top shape: 32 (32)
I0906 12:01:15.301904 88016 net.cpp:163] Top shape: 32 (32)
I0906 12:01:15.301913 88016 net.cpp:163] Top shape: 32 (32)
I0906 12:01:15.301920 88016 layer_factory.hpp:76] Creating layer conv1/7x7_s2
I0906 12:01:15.301949 88016 net.cpp:110] Creating Layer conv1/7x7_s2
I0906 12:01:15.301959 88016 net.cpp:477] conv1/7x7_s2 <- data
I0906 12:01:15.301972 88016 net.cpp:433] conv1/7x7_s2 -> conv1/7x7_s2
I0906 12:01:15.303318 88016 net.cpp:155] Setting up conv1/7x7_s2
I0906 12:01:15.303344 88016 net.cpp:163] Top shape: 32 64 112 112 (25690112)
I0906 12:01:15.303376 88016 layer_factory.hpp:76] Creating layer conv1/relu_7x7
I0906 12:01:15.303390 88016 net.cpp:110] Creating Layer conv1/relu_7x7
I0906 12:01:15.303397 88016 net.cpp:477] conv1/relu_7x7 <- conv1/7x7_s2
I0906 12:01:15.303410 88016 net.cpp:419] conv1/relu_7x7 -> conv1/7x7_s2 (in-place)
I0906 12:01:15.303426 88016 net.cpp:155] Setting up conv1/relu_7x7
I0906 12:01:15.303436 88016 net.cpp:163] Top shape: 32 64 112 112 (25690112)
I0906 12:01:15.303442 88016 layer_factory.hpp:76] Creating layer pool1/3x3_s2
I0906 12:01:15.303457 88016 net.cpp:110] Creating Layer pool1/3x3_s2
I0906 12:01:15.303463 88016 net.cpp:477] pool1/3x3_s2 <- conv1/7x7_s2
I0906 12:01:15.303475 88016 net.cpp:433] pool1/3x3_s2 -> pool1/3x3_s2
I0906 12:01:15.303531 88016 net.cpp:155] Setting up pool1/3x3_s2
I0906 12:01:15.303546 88016 net.cpp:163] Top shape: 32 64 56 56 (6422528)
I0906 12:01:15.303555 88016 layer_factory.hpp:76] Creating layer pool1/norm1
I0906 12:01:15.303571 88016 net.cpp:110] Creating Layer pool1/norm1
I0906 12:01:15.303578 88016 net.cpp:477] pool1/norm1 <- pool1/3x3_s2
I0906 12:01:15.303589 88016 net.cpp:433] pool1/norm1 -> pool1/norm1
I0906 12:01:15.303609 88016 net.cpp:155] Setting up pool1/norm1
I0906 12:01:15.303628 88016 net.cpp:163] Top shape: 32 64 56 56 (6422528)
I0906 12:01:15.303634 88016 layer_factory.hpp:76] Creating layer conv2/3x3_reduce
I0906 12:01:15.303650 88016 net.cpp:110] Creating Layer conv2/3x3_reduce
I0906 12:01:15.303658 88016 net.cpp:477] conv2/3x3_reduce <- pool1/norm1
I0906 12:01:15.303684 88016 net.cpp:433] conv2/3x3_reduce -> conv2/3x3_reduce
I0906 12:01:15.304863 88016 net.cpp:155] Setting up conv2/3x3_reduce
I0906 12:01:15.304890 88016 net.cpp:163] Top shape: 32 64 56 56 (6422528)
I0906 12:01:15.304911 88016 layer_factory.hpp:76] Creating layer conv2/relu_3x3_reduce
I0906 12:01:15.304936 88016 net.cpp:110] Creating Layer conv2/relu_3x3_reduce
I0906 12:01:15.304944 88016 net.cpp:477] conv2/relu_3x3_reduce <- conv2/3x3_reduce
I0906 12:01:15.304956 88016 net.cpp:419] conv2/relu_3x3_reduce -> conv2/3x3_reduce (in-place)
I0906 12:01:15.304970 88016 net.cpp:155] Setting up conv2/relu_3x3_reduce
I0906 12:01:15.304980 88016 net.cpp:163] Top shape: 32 64 56 56 (6422528)
I0906 12:01:15.304986 88016 layer_factory.hpp:76] Creating layer conv2/3x3
I0906 12:01:15.305004 88016 net.cpp:110] Creating Layer conv2/3x3
I0906 12:01:15.305012 88016 net.cpp:477] conv2/3x3 <- conv2/3x3_reduce
I0906 12:01:15.305025 88016 net.cpp:433] conv2/3x3 -> conv2/3x3
I0906 12:01:15.307884 88016 net.cpp:155] Setting up conv2/3x3
I0906 12:01:15.307910 88016 net.cpp:163] Top shape: 32 192 56 56 (19267584)
I0906 12:01:15.307931 88016 layer_factory.hpp:76] Creating layer conv2/relu_3x3
I0906 12:01:15.307945 88016 net.cpp:110] Creating Layer conv2/relu_3x3
I0906 12:01:15.307951 88016 net.cpp:477] conv2/relu_3x3 <- conv2/3x3
I0906 12:01:15.307963 88016 net.cpp:419] conv2/relu_3x3 -> conv2/3x3 (in-place)
I0906 12:01:15.307976 88016 net.cpp:155] Setting up conv2/relu_3x3
I0906 12:01:15.307986 88016 net.cpp:163] Top shape: 32 192 56 56 (19267584)
I0906 12:01:15.307992 88016 layer_factory.hpp:76] Creating layer conv2/norm2
I0906 12:01:15.308004 88016 net.cpp:110] Creating Layer conv2/norm2
I0906 12:01:15.308033 88016 net.cpp:477] conv2/norm2 <- conv2/3x3
I0906 12:01:15.308048 88016 net.cpp:433] conv2/norm2 -> conv2/norm2
I0906 12:01:15.308063 88016 net.cpp:155] Setting up conv2/norm2
I0906 12:01:15.308073 88016 net.cpp:163] Top shape: 32 192 56 56 (19267584)
I0906 12:01:15.308079 88016 layer_factory.hpp:76] Creating layer pool2/3x3_s2
I0906 12:01:15.308091 88016 net.cpp:110] Creating Layer pool2/3x3_s2
I0906 12:01:15.308097 88016 net.cpp:477] pool2/3x3_s2 <- conv2/norm2
I0906 12:01:15.308107 88016 net.cpp:433] pool2/3x3_s2 -> pool2/3x3_s2
I0906 12:01:15.308123 88016 net.cpp:155] Setting up pool2/3x3_s2
I0906 12:01:15.308131 88016 net.cpp:163] Top shape: 32 192 28 28 (4816896)
I0906 12:01:15.308138 88016 layer_factory.hpp:76] Creating layer pool2/3x3_s2_pool2/3x3_s2_0_split
I0906 12:01:15.308150 88016 net.cpp:110] Creating Layer pool2/3x3_s2_pool2/3x3_s2_0_split
I0906 12:01:15.308156 88016 net.cpp:477] pool2/3x3_s2_pool2/3x3_s2_0_split <- pool2/3x3_s2
I0906 12:01:15.308167 88016 net.cpp:433] pool2/3x3_s2_pool2/3x3_s2_0_split -> pool2/3x3_s2_pool2/3x3_s2_0_split_0
I0906 12:01:15.308181 88016 net.cpp:433] pool2/3x3_s2_pool2/3x3_s2_0_split -> pool2/3x3_s2_pool2/3x3_s2_0_split_1
I0906 12:01:15.308192 88016 net.cpp:433] pool2/3x3_s2_pool2/3x3_s2_0_split -> pool2/3x3_s2_pool2/3x3_s2_0_split_2
I0906 12:01:15.308203 88016 net.cpp:433] pool2/3x3_s2_pool2/3x3_s2_0_split -> pool2/3x3_s2_pool2/3x3_s2_0_split_3
I0906 12:01:15.308217 88016 net.cpp:155] Setting up pool2/3x3_s2_pool2/3x3_s2_0_split
I0906 12:01:15.308224 88016 net.cpp:163] Top shape: 32 192 28 28 (4816896)
I0906 12:01:15.308233 88016 net.cpp:163] Top shape: 32 192 28 28 (4816896)
I0906 12:01:15.308239 88016 net.cpp:163] Top shape: 32 192 28 28 (4816896)
I0906 12:01:15.308248 88016 net.cpp:163] Top shape: 32 192 28 28 (4816896)
I0906 12:01:15.308254 88016 layer_factory.hpp:76] Creating layer inception_3a/1x1
I0906 12:01:15.308269 88016 net.cpp:110] Creating Layer inception_3a/1x1
I0906 12:01:15.308274 88016 net.cpp:477] inception_3a/1x1 <- pool2/3x3_s2_pool2/3x3_s2_0_split_0
I0906 12:01:15.308285 88016 net.cpp:433] inception_3a/1x1 -> inception_3a/1x1
I0906 12:01:15.309497 88016 net.cpp:155] Setting up inception_3a/1x1
I0906 12:01:15.309523 88016 net.cpp:163] Top shape: 32 64 28 28 (1605632)
I0906 12:01:15.309537 88016 layer_factory.hpp:76] Creating layer inception_3a/relu_1x1
I0906 12:01:15.309551 88016 net.cpp:110] Creating Layer inception_3a/relu_1x1
I0906 12:01:15.309558 88016 net.cpp:477] inception_3a/relu_1x1 <- inception_3a/1x1
I0906 12:01:15.309571 88016 net.cpp:419] inception_3a/relu_1x1 -> inception_3a/1x1 (in-place)
I0906 12:01:15.309583 88016 net.cpp:155] Setting up inception_3a/relu_1x1
I0906 12:01:15.309592 88016 net.cpp:163] Top shape: 32 64 28 28 (1605632)
I0906 12:01:15.309598 88016 layer_factory.hpp:76] Creating layer inception_3a/3x3_reduce
I0906 12:01:15.309612 88016 net.cpp:110] Creating Layer inception_3a/3x3_reduce
I0906 12:01:15.309619 88016 net.cpp:477] inception_3a/3x3_reduce <- pool2/3x3_s2_pool2/3x3_s2_0_split_1
I0906 12:01:15.309631 88016 net.cpp:433] inception_3a/3x3_reduce -> inception_3a/3x3_reduce
I0906 12:01:15.310943 88016 net.cpp:155] Setting up inception_3a/3x3_reduce
I0906 12:01:15.310967 88016 net.cpp:163] Top shape: 32 96 28 28 (2408448)
I0906 12:01:15.310988 88016 layer_factory.hpp:76] Creating layer inception_3a/relu_3x3_reduce
I0906 12:01:15.311004 88016 net.cpp:110] Creating Layer inception_3a/relu_3x3_reduce
I0906 12:01:15.311012 88016 net.cpp:477] inception_3a/relu_3x3_reduce <- inception_3a/3x3_reduce
I0906 12:01:15.311023 88016 net.cpp:419] inception_3a/relu_3x3_reduce -> inception_3a/3x3_reduce (in-place)
I0906 12:01:15.311038 88016 net.cpp:155] Setting up inception_3a/relu_3x3_reduce
I0906 12:01:15.311046 88016 net.cpp:163] Top shape: 32 96 28 28 (2408448)
I0906 12:01:15.311053 88016 layer_factory.hpp:76] Creating layer inception_3a/3x3
I0906 12:01:15.311066 88016 net.cpp:110] Creating Layer inception_3a/3x3
I0906 12:01:15.311074 88016 net.cpp:477] inception_3a/3x3 <- inception_3a/3x3_reduce
I0906 12:01:15.311106 88016 net.cpp:433] inception_3a/3x3 -> inception_3a/3x3
I0906 12:01:15.312969 88016 net.cpp:155] Setting up inception_3a/3x3
I0906 12:01:15.312988 88016 net.cpp:163] Top shape: 32 128 28 28 (3211264)
I0906 12:01:15.313001 88016 layer_factory.hpp:76] Creating layer inception_3a/relu_3x3
I0906 12:01:15.313012 88016 net.cpp:110] Creating Layer inception_3a/relu_3x3
I0906 12:01:15.313020 88016 net.cpp:477] inception_3a/relu_3x3 <- inception_3a/3x3
I0906 12:01:15.313031 88016 net.cpp:419] inception_3a/relu_3x3 -> inception_3a/3x3 (in-place)
I0906 12:01:15.313042 88016 net.cpp:155] Setting up inception_3a/relu_3x3
I0906 12:01:15.313051 88016 net.cpp:163] Top shape: 32 128 28 28 (3211264)
I0906 12:01:15.313058 88016 layer_factory.hpp:76] Creating layer inception_3a/5x5_reduce
I0906 12:01:15.313071 88016 net.cpp:110] Creating Layer inception_3a/5x5_reduce
I0906 12:01:15.313078 88016 net.cpp:477] inception_3a/5x5_reduce <- pool2/3x3_s2_pool2/3x3_s2_0_split_2
I0906 12:01:15.313091 88016 net.cpp:433] inception_3a/5x5_reduce -> inception_3a/5x5_reduce
I0906 12:01:15.313241 88016 net.cpp:155] Setting up inception_3a/5x5_reduce
I0906 12:01:15.313256 88016 net.cpp:163] Top shape: 32 16 28 28 (401408)
I0906 12:01:15.313267 88016 layer_factory.hpp:76] Creating layer inception_3a/relu_5x5_reduce
I0906 12:01:15.313278 88016 net.cpp:110] Creating Layer inception_3a/relu_5x5_reduce
I0906 12:01:15.313285 88016 net.cpp:477] inception_3a/relu_5x5_reduce <- inception_3a/5x5_reduce
I0906 12:01:15.313297 88016 net.cpp:419] inception_3a/relu_5x5_reduce -> inception_3a/5x5_reduce (in-place)
I0906 12:01:15.313308 88016 net.cpp:155] Setting up inception_3a/relu_5x5_reduce
I0906 12:01:15.313318 88016 net.cpp:163] Top shape: 32 16 28 28 (401408)
I0906 12:01:15.313324 88016 layer_factory.hpp:76] Creating layer inception_3a/5x5
I0906 12:01:15.313336 88016 net.cpp:110] Creating Layer inception_3a/5x5
I0906 12:01:15.313344 88016 net.cpp:477] inception_3a/5x5 <- inception_3a/5x5_reduce
I0906 12:01:15.313354 88016 net.cpp:433] inception_3a/5x5 -> inception_3a/5x5
I0906 12:01:15.313648 88016 net.cpp:155] Setting up inception_3a/5x5
I0906 12:01:15.313663 88016 net.cpp:163] Top shape: 32 32 28 28 (802816)
I0906 12:01:15.313675 88016 layer_factory.hpp:76] Creating layer inception_3a/relu_5x5
I0906 12:01:15.313685 88016 net.cpp:110] Creating Layer inception_3a/relu_5x5
I0906 12:01:15.313694 88016 net.cpp:477] inception_3a/relu_5x5 <- inception_3a/5x5
I0906 12:01:15.313704 88016 net.cpp:419] inception_3a/relu_5x5 -> inception_3a/5x5 (in-place)
I0906 12:01:15.313714 88016 net.cpp:155] Setting up inception_3a/relu_5x5
I0906 12:01:15.313724 88016 net.cpp:163] Top shape: 32 32 28 28 (802816)
I0906 12:01:15.313730 88016 layer_factory.hpp:76] Creating layer inception_3a/pool
I0906 12:01:15.313741 88016 net.cpp:110] Creating Layer inception_3a/pool
I0906 12:01:15.313748 88016 net.cpp:477] inception_3a/pool <- pool2/3x3_s2_pool2/3x3_s2_0_split_3
I0906 12:01:15.313760 88016 net.cpp:433] inception_3a/pool -> inception_3a/pool
I0906 12:01:15.313776 88016 net.cpp:155] Setting up inception_3a/pool
I0906 12:01:15.313784 88016 net.cpp:163] Top shape: 32 192 28 28 (4816896)
I0906 12:01:15.313791 88016 layer_factory.hpp:76] Creating layer inception_3a/pool_proj
I0906 12:01:15.313804 88016 net.cpp:110] Creating Layer inception_3a/pool_proj
I0906 12:01:15.313812 88016 net.cpp:477] inception_3a/pool_proj <- inception_3a/pool
I0906 12:01:15.313822 88016 net.cpp:433] inception_3a/pool_proj -> inception_3a/pool_proj
I0906 12:01:15.314016 88016 net.cpp:155] Setting up inception_3a/pool_proj
I0906 12:01:15.314030 88016 net.cpp:163] Top shape: 32 32 28 28 (802816)
I0906 12:01:15.314050 88016 layer_factory.hpp:76] Creating layer inception_3a/relu_pool_proj
I0906 12:01:15.314070 88016 net.cpp:110] Creating Layer inception_3a/relu_pool_proj
I0906 12:01:15.314077 88016 net.cpp:477] inception_3a/relu_pool_proj <- inception_3a/pool_proj
I0906 12:01:15.314088 88016 net.cpp:419] inception_3a/relu_pool_proj -> inception_3a/pool_proj (in-place)
I0906 12:01:15.314100 88016 net.cpp:155] Setting up inception_3a/relu_pool_proj
I0906 12:01:15.314127 88016 net.cpp:163] Top shape: 32 32 28 28 (802816)
I0906 12:01:15.314136 88016 layer_factory.hpp:76] Creating layer inception_3a/output
I0906 12:01:15.314152 88016 net.cpp:110] Creating Layer inception_3a/output
I0906 12:01:15.314158 88016 net.cpp:477] inception_3a/output <- inception_3a/1x1
I0906 12:01:15.314167 88016 net.cpp:477] inception_3a/output <- inception_3a/3x3
I0906 12:01:15.314177 88016 net.cpp:477] inception_3a/output <- inception_3a/5x5
I0906 12:01:15.314183 88016 net.cpp:477] inception_3a/output <- inception_3a/pool_proj
I0906 12:01:15.314193 88016 net.cpp:433] inception_3a/output -> inception_3a/output
I0906 12:01:15.314214 88016 net.cpp:155] Setting up inception_3a/output
I0906 12:01:15.314234 88016 net.cpp:163] Top shape: 32 256 28 28 (6422528)
I0906 12:01:15.314241 88016 layer_factory.hpp:76] Creating layer inception_3a/output_inception_3a/output_0_split
I0906 12:01:15.314254 88016 net.cpp:110] Creating Layer inception_3a/output_inception_3a/output_0_split
I0906 12:01:15.314260 88016 net.cpp:477] inception_3a/output_inception_3a/output_0_split <- inception_3a/output
I0906 12:01:15.314272 88016 net.cpp:433] inception_3a/output_inception_3a/output_0_split -> inception_3a/output_inception_3a/output_0_split_0
I0906 12:01:15.314285 88016 net.cpp:433] inception_3a/output_inception_3a/output_0_split -> inception_3a/output_inception_3a/output_0_split_1
I0906 12:01:15.314298 88016 net.cpp:433] inception_3a/output_inception_3a/output_0_split -> inception_3a/output_inception_3a/output_0_split_2
I0906 12:01:15.314311 88016 net.cpp:433] inception_3a/output_inception_3a/output_0_split -> inception_3a/output_inception_3a/output_0_split_3
I0906 12:01:15.314323 88016 net.cpp:155] Setting up inception_3a/output_inception_3a/output_0_split
I0906 12:01:15.314332 88016 net.cpp:163] Top shape: 32 256 28 28 (6422528)
I0906 12:01:15.314340 88016 net.cpp:163] Top shape: 32 256 28 28 (6422528)
I0906 12:01:15.314348 88016 net.cpp:163] Top shape: 32 256 28 28 (6422528)
I0906 12:01:15.314357 88016 net.cpp:163] Top shape: 32 256 28 28 (6422528)
I0906 12:01:15.314363 88016 layer_factory.hpp:76] Creating layer inception_3b/1x1
I0906 12:01:15.314378 88016 net.cpp:110] Creating Layer inception_3b/1x1
I0906 12:01:15.314383 88016 net.cpp:477] inception_3b/1x1 <- inception_3a/output_inception_3a/output_0_split_0
I0906 12:01:15.314396 88016 net.cpp:433] inception_3b/1x1 -> inception_3b/1x1
I0906 12:01:15.315011 88016 net.cpp:155] Setting up inception_3b/1x1
I0906 12:01:15.315026 88016 net.cpp:163] Top shape: 32 128 28 28 (3211264)
I0906 12:01:15.315038 88016 layer_factory.hpp:76] Creating layer inception_3b/relu_1x1
I0906 12:01:15.315050 88016 net.cpp:110] Creating Layer inception_3b/relu_1x1
I0906 12:01:15.315057 88016 net.cpp:477] inception_3b/relu_1x1 <- inception_3b/1x1
I0906 12:01:15.315073 88016 net.cpp:419] inception_3b/relu_1x1 -> inception_3b/1x1 (in-place)
I0906 12:01:15.315083 88016 net.cpp:155] Setting up inception_3b/relu_1x1
I0906 12:01:15.315093 88016 net.cpp:163] Top shape: 32 128 28 28 (3211264)
I0906 12:01:15.315099 88016 layer_factory.hpp:76] Creating layer inception_3b/3x3_reduce
I0906 12:01:15.315112 88016 net.cpp:110] Creating Layer inception_3b/3x3_reduce
I0906 12:01:15.315119 88016 net.cpp:477] inception_3b/3x3_reduce <- inception_3a/output_inception_3a/output_0_split_1
I0906 12:01:15.315131 88016 net.cpp:433] inception_3b/3x3_reduce -> inception_3b/3x3_reduce
I0906 12:01:15.315752 88016 net.cpp:155] Setting up inception_3b/3x3_reduce
I0906 12:01:15.315770 88016 net.cpp:163] Top shape: 32 128 28 28 (3211264)
I0906 12:01:15.315783 88016 layer_factory.hpp:76] Creating layer inception_3b/relu_3x3_reduce
I0906 12:01:15.315794 88016 net.cpp:110] Creating Layer inception_3b/relu_3x3_reduce
I0906 12:01:15.315801 88016 net.cpp:477] inception_3b/relu_3x3_reduce <- inception_3b/3x3_reduce
I0906 12:01:15.315812 88016 net.cpp:419] inception_3b/relu_3x3_reduce -> inception_3b/3x3_reduce (in-place)
I0906 12:01:15.315824 88016 net.cpp:155] Setting up inception_3b/relu_3x3_reduce
I0906 12:01:15.315851 88016 net.cpp:163] Top shape: 32 128 28 28 (3211264)
I0906 12:01:15.315858 88016 layer_factory.hpp:76] Creating layer inception_3b/3x3
I0906 12:01:15.315877 88016 net.cpp:110] Creating Layer inception_3b/3x3
I0906 12:01:15.315884 88016 net.cpp:477] inception_3b/3x3 <- inception_3b/3x3_reduce
I0906 12:01:15.315898 88016 net.cpp:433] inception_3b/3x3 -> inception_3b/3x3
I0906 12:01:15.320389 88016 net.cpp:155] Setting up inception_3b/3x3
I0906 12:01:15.320413 88016 net.cpp:163] Top shape: 32 192 28 28 (4816896)
I0906 12:01:15.320427 88016 layer_factory.hpp:76] Creating layer inception_3b/relu_3x3
I0906 12:01:15.320441 88016 net.cpp:110] Creating Layer inception_3b/relu_3x3
I0906 12:01:15.320449 88016 net.cpp:477] inception_3b/relu_3x3 <- inception_3b/3x3
I0906 12:01:15.320461 88016 net.cpp:419] inception_3b/relu_3x3 -> inception_3b/3x3 (in-place)
I0906 12:01:15.320473 88016 net.cpp:155] Setting up inception_3b/relu_3x3
I0906 12:01:15.320482 88016 net.cpp:163] Top shape: 32 192 28 28 (4816896)
I0906 12:01:15.320488 88016 layer_factory.hpp:76] Creating layer inception_3b/5x5_reduce
I0906 12:01:15.320502 88016 net.cpp:110] Creating Layer inception_3b/5x5_reduce
I0906 12:01:15.320509 88016 net.cpp:477] inception_3b/5x5_reduce <- inception_3a/output_inception_3a/output_0_split_2
I0906 12:01:15.320521 88016 net.cpp:433] inception_3b/5x5_reduce -> inception_3b/5x5_reduce
I0906 12:01:15.320751 88016 net.cpp:155] Setting up inception_3b/5x5_reduce
I0906 12:01:15.320767 88016 net.cpp:163] Top shape: 32 32 28 28 (802816)
I0906 12:01:15.320780 88016 layer_factory.hpp:76] Creating layer inception_3b/relu_5x5_reduce
I0906 12:01:15.320790 88016 net.cpp:110] Creating Layer inception_3b/relu_5x5_reduce
I0906 12:01:15.320796 88016 net.cpp:477] inception_3b/relu_5x5_reduce <- inception_3b/5x5_reduce
I0906 12:01:15.320808 88016 net.cpp:419] inception_3b/relu_5x5_reduce -> inception_3b/5x5_reduce (in-place)
I0906 12:01:15.320821 88016 net.cpp:155] Setting up inception_3b/relu_5x5_reduce
I0906 12:01:15.320829 88016 net.cpp:163] Top shape: 32 32 28 28 (802816)
I0906 12:01:15.320837 88016 layer_factory.hpp:76] Creating layer inception_3b/5x5
I0906 12:01:15.320848 88016 net.cpp:110] Creating Layer inception_3b/5x5
I0906 12:01:15.320855 88016 net.cpp:477] inception_3b/5x5 <- inception_3b/5x5_reduce
I0906 12:01:15.320866 88016 net.cpp:433] inception_3b/5x5 -> inception_3b/5x5
I0906 12:01:15.323106 88016 net.cpp:155] Setting up inception_3b/5x5
I0906 12:01:15.323130 88016 net.cpp:163] Top shape: 32 96 28 28 (2408448)
I0906 12:01:15.323144 88016 layer_factory.hpp:76] Creating layer inception_3b/relu_5x5
I0906 12:01:15.323156 88016 net.cpp:110] Creating Layer inception_3b/relu_5x5
I0906 12:01:15.323164 88016 net.cpp:477] inception_3b/relu_5x5 <- inception_3b/5x5
I0906 12:01:15.323175 88016 net.cpp:419] inception_3b/relu_5x5 -> inception_3b/5x5 (in-place)
I0906 12:01:15.323189 88016 net.cpp:155] Setting up inception_3b/relu_5x5
I0906 12:01:15.323197 88016 net.cpp:163] Top shape: 32 96 28 28 (2408448)
I0906 12:01:15.323204 88016 layer_factory.hpp:76] Creating layer inception_3b/pool
I0906 12:01:15.323215 88016 net.cpp:110] Creating Layer inception_3b/pool
I0906 12:01:15.323223 88016 net.cpp:477] inception_3b/pool <- inception_3a/output_inception_3a/output_0_split_3
I0906 12:01:15.323235 88016 net.cpp:433] inception_3b/pool -> inception_3b/pool
I0906 12:01:15.323251 88016 net.cpp:155] Setting up inception_3b/pool
I0906 12:01:15.323261 88016 net.cpp:163] Top shape: 32 256 28 28 (6422528)
I0906 12:01:15.323266 88016 layer_factory.hpp:76] Creating layer inception_3b/pool_proj
I0906 12:01:15.323282 88016 net.cpp:110] Creating Layer inception_3b/pool_proj
I0906 12:01:15.323288 88016 net.cpp:477] inception_3b/pool_proj <- inception_3b/pool
I0906 12:01:15.323300 88016 net.cpp:433] inception_3b/pool_proj -> inception_3b/pool_proj
I0906 12:01:15.323662 88016 net.cpp:155] Setting up inception_3b/pool_proj
I0906 12:01:15.323688 88016 net.cpp:163] Top shape: 32 64 28 28 (1605632)
I0906 12:01:15.323700 88016 layer_factory.hpp:76] Creating layer inception_3b/relu_pool_proj
I0906 12:01:15.323737 88016 net.cpp:110] Creating Layer inception_3b/relu_pool_proj
I0906 12:01:15.323746 88016 net.cpp:477] inception_3b/relu_pool_proj <- inception_3b/pool_proj
I0906 12:01:15.323757 88016 net.cpp:419] inception_3b/relu_pool_proj -> inception_3b/pool_proj (in-place)
I0906 12:01:15.323770 88016 net.cpp:155] Setting up inception_3b/relu_pool_proj
I0906 12:01:15.323779 88016 net.cpp:163] Top shape: 32 64 28 28 (1605632)
I0906 12:01:15.323786 88016 layer_factory.hpp:76] Creating layer inception_3b/output
I0906 12:01:15.323799 88016 net.cpp:110] Creating Layer inception_3b/output
I0906 12:01:15.323807 88016 net.cpp:477] inception_3b/output <- inception_3b/1x1
I0906 12:01:15.323815 88016 net.cpp:477] inception_3b/output <- inception_3b/3x3
I0906 12:01:15.323823 88016 net.cpp:477] inception_3b/output <- inception_3b/5x5
I0906 12:01:15.323832 88016 net.cpp:477] inception_3b/output <- inception_3b/pool_proj
I0906 12:01:15.323843 88016 net.cpp:433] inception_3b/output -> inception_3b/output
I0906 12:01:15.323855 88016 net.cpp:155] Setting up inception_3b/output
I0906 12:01:15.323864 88016 net.cpp:163] Top shape: 32 480 28 28 (12042240)
I0906 12:01:15.323871 88016 layer_factory.hpp:76] Creating layer pool3/3x3_s2
I0906 12:01:15.323884 88016 net.cpp:110] Creating Layer pool3/3x3_s2
I0906 12:01:15.323890 88016 net.cpp:477] pool3/3x3_s2 <- inception_3b/output
I0906 12:01:15.323902 88016 net.cpp:433] pool3/3x3_s2 -> pool3/3x3_s2
I0906 12:01:15.323916 88016 net.cpp:155] Setting up pool3/3x3_s2
I0906 12:01:15.323925 88016 net.cpp:163] Top shape: 32 480 14 14 (3010560)
I0906 12:01:15.323930 88016 layer_factory.hpp:76] Creating layer pool3/3x3_s2_pool3/3x3_s2_0_split
I0906 12:01:15.323942 88016 net.cpp:110] Creating Layer pool3/3x3_s2_pool3/3x3_s2_0_split
I0906 12:01:15.323948 88016 net.cpp:477] pool3/3x3_s2_pool3/3x3_s2_0_split <- pool3/3x3_s2
I0906 12:01:15.323959 88016 net.cpp:433] pool3/3x3_s2_pool3/3x3_s2_0_split -> pool3/3x3_s2_pool3/3x3_s2_0_split_0
I0906 12:01:15.323971 88016 net.cpp:433] pool3/3x3_s2_pool3/3x3_s2_0_split -> pool3/3x3_s2_pool3/3x3_s2_0_split_1
I0906 12:01:15.323984 88016 net.cpp:433] pool3/3x3_s2_pool3/3x3_s2_0_split -> pool3/3x3_s2_pool3/3x3_s2_0_split_2
I0906 12:01:15.323995 88016 net.cpp:433] pool3/3x3_s2_pool3/3x3_s2_0_split -> pool3/3x3_s2_pool3/3x3_s2_0_split_3
I0906 12:01:15.324008 88016 net.cpp:155] Setting up pool3/3x3_s2_pool3/3x3_s2_0_split
I0906 12:01:15.324017 88016 net.cpp:163] Top shape: 32 480 14 14 (3010560)
I0906 12:01:15.324024 88016 net.cpp:163] Top shape: 32 480 14 14 (3010560)
I0906 12:01:15.324033 88016 net.cpp:163] Top shape: 32 480 14 14 (3010560)
I0906 12:01:15.324041 88016 net.cpp:163] Top shape: 32 480 14 14 (3010560)
I0906 12:01:15.324048 88016 layer_factory.hpp:76] Creating layer inception_4a/1x1
I0906 12:01:15.324061 88016 net.cpp:110] Creating Layer inception_4a/1x1
I0906 12:01:15.324069 88016 net.cpp:477] inception_4a/1x1 <- pool3/3x3_s2_pool3/3x3_s2_0_split_0
I0906 12:01:15.324080 88016 net.cpp:433] inception_4a/1x1 -> inception_4a/1x1
I0906 12:01:15.325637 88016 net.cpp:155] Setting up inception_4a/1x1
I0906 12:01:15.325655 88016 net.cpp:163] Top shape: 32 192 14 14 (1204224)
I0906 12:01:15.325667 88016 layer_factory.hpp:76] Creating layer inception_4a/relu_1x1
I0906 12:01:15.325678 88016 net.cpp:110] Creating Layer inception_4a/relu_1x1
I0906 12:01:15.325686 88016 net.cpp:477] inception_4a/relu_1x1 <- inception_4a/1x1
I0906 12:01:15.325697 88016 net.cpp:419] inception_4a/relu_1x1 -> inception_4a/1x1 (in-place)
I0906 12:01:15.325708 88016 net.cpp:155] Setting up inception_4a/relu_1x1
I0906 12:01:15.325717 88016 net.cpp:163] Top shape: 32 192 14 14 (1204224)
I0906 12:01:15.325723 88016 layer_factory.hpp:76] Creating layer inception_4a/3x3_reduce
I0906 12:01:15.325737 88016 net.cpp:110] Creating Layer inception_4a/3x3_reduce
I0906 12:01:15.325743 88016 net.cpp:477] inception_4a/3x3_reduce <- pool3/3x3_s2_pool3/3x3_s2_0_split_1
I0906 12:01:15.325757 88016 net.cpp:433] inception_4a/3x3_reduce -> inception_4a/3x3_reduce
I0906 12:01:15.326596 88016 net.cpp:155] Setting up inception_4a/3x3_reduce
I0906 12:01:15.326613 88016 net.cpp:163] Top shape: 32 96 14 14 (602112)
I0906 12:01:15.326637 88016 layer_factory.hpp:76] Creating layer inception_4a/relu_3x3_reduce
I0906 12:01:15.326647 88016 net.cpp:110] Creating Layer inception_4a/relu_3x3_reduce
I0906 12:01:15.326655 88016 net.cpp:477] inception_4a/relu_3x3_reduce <- inception_4a/3x3_reduce
I0906 12:01:15.326668 88016 net.cpp:419] inception_4a/relu_3x3_reduce -> inception_4a/3x3_reduce (in-place)
I0906 12:01:15.326679 88016 net.cpp:155] Setting up inception_4a/relu_3x3_reduce
I0906 12:01:15.326688 88016 net.cpp:163] Top shape: 32 96 14 14 (602112)
I0906 12:01:15.326694 88016 layer_factory.hpp:76] Creating layer inception_4a/3x3
I0906 12:01:15.326707 88016 net.cpp:110] Creating Layer inception_4a/3x3
I0906 12:01:15.326714 88016 net.cpp:477] inception_4a/3x3 <- inception_4a/3x3_reduce
I0906 12:01:15.326726 88016 net.cpp:433] inception_4a/3x3 -> inception_4a/3x3
I0906 12:01:15.330577 88016 net.cpp:155] Setting up inception_4a/3x3
I0906 12:01:15.330602 88016 net.cpp:163] Top shape: 32 208 14 14 (1304576)
I0906 12:01:15.330617 88016 layer_factory.hpp:76] Creating layer inception_4a/relu_3x3
I0906 12:01:15.330631 88016 net.cpp:110] Creating Layer inception_4a/relu_3x3
I0906 12:01:15.330638 88016 net.cpp:477] inception_4a/relu_3x3 <- inception_4a/3x3
I0906 12:01:15.330649 88016 net.cpp:419] inception_4a/relu_3x3 -> inception_4a/3x3 (in-place)
I0906 12:01:15.330663 88016 net.cpp:155] Setting up inception_4a/relu_3x3
I0906 12:01:15.330672 88016 net.cpp:163] Top shape: 32 208 14 14 (1304576)
I0906 12:01:15.330678 88016 layer_factory.hpp:76] Creating layer inception_4a/5x5_reduce
I0906 12:01:15.330693 88016 net.cpp:110] Creating Layer inception_4a/5x5_reduce
I0906 12:01:15.330699 88016 net.cpp:477] inception_4a/5x5_reduce <- pool3/3x3_s2_pool3/3x3_s2_0_split_2
I0906 12:01:15.330713 88016 net.cpp:433] inception_4a/5x5_reduce -> inception_4a/5x5_reduce
I0906 12:01:15.330930 88016 net.cpp:155] Setting up inception_4a/5x5_reduce
I0906 12:01:15.330947 88016 net.cpp:163] Top shape: 32 16 14 14 (100352)
I0906 12:01:15.330958 88016 layer_factory.hpp:76] Creating layer inception_4a/relu_5x5_reduce
I0906 12:01:15.330970 88016 net.cpp:110] Creating Layer inception_4a/relu_5x5_reduce
I0906 12:01:15.330976 88016 net.cpp:477] inception_4a/relu_5x5_reduce <- inception_4a/5x5_reduce
I0906 12:01:15.330987 88016 net.cpp:419] inception_4a/relu_5x5_reduce -> inception_4a/5x5_reduce (in-place)
I0906 12:01:15.331006 88016 net.cpp:155] Setting up inception_4a/relu_5x5_reduce
I0906 12:01:15.331014 88016 net.cpp:163] Top shape: 32 16 14 14 (100352)
I0906 12:01:15.331022 88016 layer_factory.hpp:76] Creating layer inception_4a/5x5
I0906 12:01:15.331034 88016 net.cpp:110] Creating Layer inception_4a/5x5
I0906 12:01:15.331042 88016 net.cpp:477] inception_4a/5x5 <- inception_4a/5x5_reduce
I0906 12:01:15.331054 88016 net.cpp:433] inception_4a/5x5 -> inception_4a/5x5
I0906 12:01:15.331456 88016 net.cpp:155] Setting up inception_4a/5x5
I0906 12:01:15.331471 88016 net.cpp:163] Top shape: 32 48 14 14 (301056)
I0906 12:01:15.331482 88016 layer_factory.hpp:76] Creating layer inception_4a/relu_5x5
I0906 12:01:15.331493 88016 net.cpp:110] Creating Layer inception_4a/relu_5x5
I0906 12:01:15.331501 88016 net.cpp:477] inception_4a/relu_5x5 <- inception_4a/5x5
I0906 12:01:15.331511 88016 net.cpp:419] inception_4a/relu_5x5 -> inception_4a/5x5 (in-place)
I0906 12:01:15.331522 88016 net.cpp:155] Setting up inception_4a/relu_5x5
I0906 12:01:15.331532 88016 net.cpp:163] Top shape: 32 48 14 14 (301056)
I0906 12:01:15.331538 88016 layer_factory.hpp:76] Creating layer inception_4a/pool
I0906 12:01:15.331550 88016 net.cpp:110] Creating Layer inception_4a/pool
I0906 12:01:15.331558 88016 net.cpp:477] inception_4a/pool <- pool3/3x3_s2_pool3/3x3_s2_0_split_3
I0906 12:01:15.331569 88016 net.cpp:433] inception_4a/pool -> inception_4a/pool
I0906 12:01:15.331585 88016 net.cpp:155] Setting up inception_4a/pool
I0906 12:01:15.331594 88016 net.cpp:163] Top shape: 32 480 14 14 (3010560)
I0906 12:01:15.331622 88016 layer_factory.hpp:76] Creating layer inception_4a/pool_proj
I0906 12:01:15.331637 88016 net.cpp:110] Creating Layer inception_4a/pool_proj
I0906 12:01:15.331645 88016 net.cpp:477] inception_4a/pool_proj <- inception_4a/pool
I0906 12:01:15.331656 88016 net.cpp:433] inception_4a/pool_proj -> inception_4a/pool_proj
I0906 12:01:15.332249 88016 net.cpp:155] Setting up inception_4a/pool_proj
I0906 12:01:15.332267 88016 net.cpp:163] Top shape: 32 64 14 14 (401408)
I0906 12:01:15.332279 88016 layer_factory.hpp:76] Creating layer inception_4a/relu_pool_proj
I0906 12:01:15.332290 88016 net.cpp:110] Creating Layer inception_4a/relu_pool_proj
I0906 12:01:15.332298 88016 net.cpp:477] inception_4a/relu_pool_proj <- inception_4a/pool_proj
I0906 12:01:15.332309 88016 net.cpp:419] inception_4a/relu_pool_proj -> inception_4a/pool_proj (in-place)
I0906 12:01:15.332321 88016 net.cpp:155] Setting up inception_4a/relu_pool_proj
I0906 12:01:15.332329 88016 net.cpp:163] Top shape: 32 64 14 14 (401408)
I0906 12:01:15.332336 88016 layer_factory.hpp:76] Creating layer inception_4a/output
I0906 12:01:15.332347 88016 net.cpp:110] Creating Layer inception_4a/output
I0906 12:01:15.332355 88016 net.cpp:477] inception_4a/output <- inception_4a/1x1
I0906 12:01:15.332363 88016 net.cpp:477] inception_4a/output <- inception_4a/3x3
I0906 12:01:15.332370 88016 net.cpp:477] inception_4a/output <- inception_4a/5x5
I0906 12:01:15.332378 88016 net.cpp:477] inception_4a/output <- inception_4a/pool_proj
I0906 12:01:15.332389 88016 net.cpp:433] inception_4a/output -> inception_4a/output
I0906 12:01:15.332402 88016 net.cpp:155] Setting up inception_4a/output
I0906 12:01:15.332412 88016 net.cpp:163] Top shape: 32 512 14 14 (3211264)
I0906 12:01:15.332418 88016 layer_factory.hpp:76] Creating layer inception_4a/output_inception_4a/output_0_split
I0906 12:01:15.332429 88016 net.cpp:110] Creating Layer inception_4a/output_inception_4a/output_0_split
I0906 12:01:15.332437 88016 net.cpp:477] inception_4a/output_inception_4a/output_0_split <- inception_4a/output
I0906 12:01:15.332448 88016 net.cpp:433] inception_4a/output_inception_4a/output_0_split -> inception_4a/output_inception_4a/output_0_split_0
I0906 12:01:15.332461 88016 net.cpp:433] inception_4a/output_inception_4a/output_0_split -> inception_4a/output_inception_4a/output_0_split_1
I0906 12:01:15.332475 88016 net.cpp:433] inception_4a/output_inception_4a/output_0_split -> inception_4a/output_inception_4a/output_0_split_2
I0906 12:01:15.332489 88016 net.cpp:433] inception_4a/output_inception_4a/output_0_split -> inception_4a/output_inception_4a/output_0_split_3
I0906 12:01:15.332499 88016 net.cpp:433] inception_4a/output_inception_4a/output_0_split -> inception_4a/output_inception_4a/output_0_split_4
I0906 12:01:15.332515 88016 net.cpp:155] Setting up inception_4a/output_inception_4a/output_0_split
I0906 12:01:15.332522 88016 net.cpp:163] Top shape: 32 512 14 14 (3211264)
I0906 12:01:15.332530 88016 net.cpp:163] Top shape: 32 512 14 14 (3211264)
I0906 12:01:15.332538 88016 net.cpp:163] Top shape: 32 512 14 14 (3211264)
I0906 12:01:15.332545 88016 net.cpp:163] Top shape: 32 512 14 14 (3211264)
I0906 12:01:15.332553 88016 net.cpp:163] Top shape: 32 512 14 14 (3211264)
I0906 12:01:15.332561 88016 layer_factory.hpp:76] Creating layer loss1/ave_pool
I0906 12:01:15.332571 88016 net.cpp:110] Creating Layer loss1/ave_pool
I0906 12:01:15.332577 88016 net.cpp:477] loss1/ave_pool <- inception_4a/output_inception_4a/output_0_split_0
I0906 12:01:15.332588 88016 net.cpp:433] loss1/ave_pool -> loss1/ave_pool
I0906 12:01:15.332602 88016 net.cpp:155] Setting up loss1/ave_pool
I0906 12:01:15.332612 88016 net.cpp:163] Top shape: 32 512 4 4 (262144)
I0906 12:01:15.332618 88016 layer_factory.hpp:76] Creating layer loss1/conv
I0906 12:01:15.332631 88016 net.cpp:110] Creating Layer loss1/conv
I0906 12:01:15.332638 88016 net.cpp:477] loss1/conv <- loss1/ave_pool
I0906 12:01:15.332650 88016 net.cpp:433] loss1/conv -> loss1/conv
I0906 12:01:15.333768 88016 net.cpp:155] Setting up loss1/conv
I0906 12:01:15.333804 88016 net.cpp:163] Top shape: 32 128 4 4 (65536)
I0906 12:01:15.333817 88016 layer_factory.hpp:76] Creating layer loss1/relu_conv
I0906 12:01:15.333829 88016 net.cpp:110] Creating Layer loss1/relu_conv
I0906 12:01:15.333837 88016 net.cpp:477] loss1/relu_conv <- loss1/conv
I0906 12:01:15.333848 88016 net.cpp:419] loss1/relu_conv -> loss1/conv (in-place)
I0906 12:01:15.333860 88016 net.cpp:155] Setting up loss1/relu_conv
I0906 12:01:15.333868 88016 net.cpp:163] Top shape: 32 128 4 4 (65536)
I0906 12:01:15.333875 88016 layer_factory.hpp:76] Creating layer loss1/fc
I0906 12:01:15.333896 88016 net.cpp:110] Creating Layer loss1/fc
I0906 12:01:15.333904 88016 net.cpp:477] loss1/fc <- loss1/conv
I0906 12:01:15.333917 88016 net.cpp:433] loss1/fc -> loss1/fc
I0906 12:01:15.372913 88016 net.cpp:155] Setting up loss1/fc
I0906 12:01:15.372946 88016 net.cpp:163] Top shape: 32 1024 (32768)
I0906 12:01:15.372963 88016 layer_factory.hpp:76] Creating layer loss1/relu_fc
I0906 12:01:15.372978 88016 net.cpp:110] Creating Layer loss1/relu_fc
I0906 12:01:15.372987 88016 net.cpp:477] loss1/relu_fc <- loss1/fc
I0906 12:01:15.372999 88016 net.cpp:419] loss1/relu_fc -> loss1/fc (in-place)
I0906 12:01:15.373013 88016 net.cpp:155] Setting up loss1/relu_fc
I0906 12:01:15.373021 88016 net.cpp:163] Top shape: 32 1024 (32768)
I0906 12:01:15.373028 88016 layer_factory.hpp:76] Creating layer loss1/drop_fc
I0906 12:01:15.373061 88016 net.cpp:110] Creating Layer loss1/drop_fc
I0906 12:01:15.373070 88016 net.cpp:477] loss1/drop_fc <- loss1/fc
I0906 12:01:15.373080 88016 net.cpp:419] loss1/drop_fc -> loss1/fc (in-place)
I0906 12:01:15.373106 88016 net.cpp:155] Setting up loss1/drop_fc
I0906 12:01:15.373123 88016 net.cpp:163] Top shape: 32 1024 (32768)
I0906 12:01:15.373131 88016 layer_factory.hpp:76] Creating layer loss1/classifier_cub
I0906 12:01:15.373145 88016 net.cpp:110] Creating Layer loss1/classifier_cub
I0906 12:01:15.373152 88016 net.cpp:477] loss1/classifier_cub <- loss1/fc
I0906 12:01:15.373165 88016 net.cpp:433] loss1/classifier_cub -> loss1/classifier
I0906 12:01:15.388753 88016 net.cpp:155] Setting up loss1/classifier_cub
I0906 12:01:15.388780 88016 net.cpp:163] Top shape: 32 200 (6400)
I0906 12:01:15.388795 88016 layer_factory.hpp:76] Creating layer loss1/loss
I0906 12:01:15.388815 88016 net.cpp:110] Creating Layer loss1/loss
I0906 12:01:15.388823 88016 net.cpp:477] loss1/loss <- loss1/classifier
I0906 12:01:15.388833 88016 net.cpp:477] loss1/loss <- label_data_1_split_0
I0906 12:01:15.388846 88016 net.cpp:433] loss1/loss -> loss1/loss1
I0906 12:01:15.388871 88016 layer_factory.hpp:76] Creating layer loss1/loss
I0906 12:01:15.388998 88016 net.cpp:155] Setting up loss1/loss
I0906 12:01:15.389014 88016 net.cpp:163] Top shape: (1)
I0906 12:01:15.389020 88016 net.cpp:168]     with loss weight 0.3
I0906 12:01:15.389061 88016 layer_factory.hpp:76] Creating layer inception_4b/1x1
I0906 12:01:15.389080 88016 net.cpp:110] Creating Layer inception_4b/1x1
I0906 12:01:15.389086 88016 net.cpp:477] inception_4b/1x1 <- inception_4a/output_inception_4a/output_0_split_1
I0906 12:01:15.389101 88016 net.cpp:433] inception_4b/1x1 -> inception_4b/1x1
I0906 12:01:15.390494 88016 net.cpp:155] Setting up inception_4b/1x1
I0906 12:01:15.390512 88016 net.cpp:163] Top shape: 32 160 14 14 (1003520)
I0906 12:01:15.390527 88016 layer_factory.hpp:76] Creating layer inception_4b/relu_1x1
I0906 12:01:15.390538 88016 net.cpp:110] Creating Layer inception_4b/relu_1x1
I0906 12:01:15.390547 88016 net.cpp:477] inception_4b/relu_1x1 <- inception_4b/1x1
I0906 12:01:15.390558 88016 net.cpp:419] inception_4b/relu_1x1 -> inception_4b/1x1 (in-place)
I0906 12:01:15.390570 88016 net.cpp:155] Setting up inception_4b/relu_1x1
I0906 12:01:15.390579 88016 net.cpp:163] Top shape: 32 160 14 14 (1003520)
I0906 12:01:15.390585 88016 layer_factory.hpp:76] Creating layer inception_4b/3x3_reduce
I0906 12:01:15.390600 88016 net.cpp:110] Creating Layer inception_4b/3x3_reduce
I0906 12:01:15.390607 88016 net.cpp:477] inception_4b/3x3_reduce <- inception_4a/output_inception_4a/output_0_split_2
I0906 12:01:15.390645 88016 net.cpp:433] inception_4b/3x3_reduce -> inception_4b/3x3_reduce
I0906 12:01:15.392665 88016 net.cpp:155] Setting up inception_4b/3x3_reduce
I0906 12:01:15.392691 88016 net.cpp:163] Top shape: 32 112 14 14 (702464)
I0906 12:01:15.392706 88016 layer_factory.hpp:76] Creating layer inception_4b/relu_3x3_reduce
I0906 12:01:15.392721 88016 net.cpp:110] Creating Layer inception_4b/relu_3x3_reduce
I0906 12:01:15.392729 88016 net.cpp:477] inception_4b/relu_3x3_reduce <- inception_4b/3x3_reduce
I0906 12:01:15.392742 88016 net.cpp:419] inception_4b/relu_3x3_reduce -> inception_4b/3x3_reduce (in-place)
I0906 12:01:15.392755 88016 net.cpp:155] Setting up inception_4b/relu_3x3_reduce
I0906 12:01:15.392765 88016 net.cpp:163] Top shape: 32 112 14 14 (702464)
I0906 12:01:15.392771 88016 layer_factory.hpp:76] Creating layer inception_4b/3x3
I0906 12:01:15.392786 88016 net.cpp:110] Creating Layer inception_4b/3x3
I0906 12:01:15.392792 88016 net.cpp:477] inception_4b/3x3 <- inception_4b/3x3_reduce
I0906 12:01:15.392807 88016 net.cpp:433] inception_4b/3x3 -> inception_4b/3x3
I0906 12:01:15.397471 88016 net.cpp:155] Setting up inception_4b/3x3
I0906 12:01:15.397497 88016 net.cpp:163] Top shape: 32 224 14 14 (1404928)
I0906 12:01:15.397512 88016 layer_factory.hpp:76] Creating layer inception_4b/relu_3x3
I0906 12:01:15.397526 88016 net.cpp:110] Creating Layer inception_4b/relu_3x3
I0906 12:01:15.397534 88016 net.cpp:477] inception_4b/relu_3x3 <- inception_4b/3x3
I0906 12:01:15.397547 88016 net.cpp:419] inception_4b/relu_3x3 -> inception_4b/3x3 (in-place)
I0906 12:01:15.397559 88016 net.cpp:155] Setting up inception_4b/relu_3x3
I0906 12:01:15.397568 88016 net.cpp:163] Top shape: 32 224 14 14 (1404928)
I0906 12:01:15.397575 88016 layer_factory.hpp:76] Creating layer inception_4b/5x5_reduce
I0906 12:01:15.397590 88016 net.cpp:110] Creating Layer inception_4b/5x5_reduce
I0906 12:01:15.397596 88016 net.cpp:477] inception_4b/5x5_reduce <- inception_4a/output_inception_4a/output_0_split_3
I0906 12:01:15.397610 88016 net.cpp:433] inception_4b/5x5_reduce -> inception_4b/5x5_reduce
I0906 12:01:15.397913 88016 net.cpp:155] Setting up inception_4b/5x5_reduce
I0906 12:01:15.397929 88016 net.cpp:163] Top shape: 32 24 14 14 (150528)
I0906 12:01:15.397943 88016 layer_factory.hpp:76] Creating layer inception_4b/relu_5x5_reduce
I0906 12:01:15.397953 88016 net.cpp:110] Creating Layer inception_4b/relu_5x5_reduce
I0906 12:01:15.397960 88016 net.cpp:477] inception_4b/relu_5x5_reduce <- inception_4b/5x5_reduce
I0906 12:01:15.397971 88016 net.cpp:419] inception_4b/relu_5x5_reduce -> inception_4b/5x5_reduce (in-place)
I0906 12:01:15.397984 88016 net.cpp:155] Setting up inception_4b/relu_5x5_reduce
I0906 12:01:15.397992 88016 net.cpp:163] Top shape: 32 24 14 14 (150528)
I0906 12:01:15.398000 88016 layer_factory.hpp:76] Creating layer inception_4b/5x5
I0906 12:01:15.398012 88016 net.cpp:110] Creating Layer inception_4b/5x5
I0906 12:01:15.398018 88016 net.cpp:477] inception_4b/5x5 <- inception_4b/5x5_reduce
I0906 12:01:15.398031 88016 net.cpp:433] inception_4b/5x5 -> inception_4b/5x5
I0906 12:01:15.398736 88016 net.cpp:155] Setting up inception_4b/5x5
I0906 12:01:15.398751 88016 net.cpp:163] Top shape: 32 64 14 14 (401408)
I0906 12:01:15.398763 88016 layer_factory.hpp:76] Creating layer inception_4b/relu_5x5
I0906 12:01:15.398774 88016 net.cpp:110] Creating Layer inception_4b/relu_5x5
I0906 12:01:15.398782 88016 net.cpp:477] inception_4b/relu_5x5 <- inception_4b/5x5
I0906 12:01:15.398792 88016 net.cpp:419] inception_4b/relu_5x5 -> inception_4b/5x5 (in-place)
I0906 12:01:15.398803 88016 net.cpp:155] Setting up inception_4b/relu_5x5
I0906 12:01:15.398813 88016 net.cpp:163] Top shape: 32 64 14 14 (401408)
I0906 12:01:15.398818 88016 layer_factory.hpp:76] Creating layer inception_4b/pool
I0906 12:01:15.398831 88016 net.cpp:110] Creating Layer inception_4b/pool
I0906 12:01:15.398839 88016 net.cpp:477] inception_4b/pool <- inception_4a/output_inception_4a/output_0_split_4
I0906 12:01:15.398850 88016 net.cpp:433] inception_4b/pool -> inception_4b/pool
I0906 12:01:15.398908 88016 net.cpp:155] Setting up inception_4b/pool
I0906 12:01:15.398927 88016 net.cpp:163] Top shape: 32 512 14 14 (3211264)
I0906 12:01:15.398934 88016 layer_factory.hpp:76] Creating layer inception_4b/pool_proj
I0906 12:01:15.398949 88016 net.cpp:110] Creating Layer inception_4b/pool_proj
I0906 12:01:15.398957 88016 net.cpp:477] inception_4b/pool_proj <- inception_4b/pool
I0906 12:01:15.398970 88016 net.cpp:433] inception_4b/pool_proj -> inception_4b/pool_proj
I0906 12:01:15.399588 88016 net.cpp:155] Setting up inception_4b/pool_proj
I0906 12:01:15.399605 88016 net.cpp:163] Top shape: 32 64 14 14 (401408)
I0906 12:01:15.399617 88016 layer_factory.hpp:76] Creating layer inception_4b/relu_pool_proj
I0906 12:01:15.399628 88016 net.cpp:110] Creating Layer inception_4b/relu_pool_proj
I0906 12:01:15.399636 88016 net.cpp:477] inception_4b/relu_pool_proj <- inception_4b/pool_proj
I0906 12:01:15.399646 88016 net.cpp:419] inception_4b/relu_pool_proj -> inception_4b/pool_proj (in-place)
I0906 12:01:15.399657 88016 net.cpp:155] Setting up inception_4b/relu_pool_proj
I0906 12:01:15.399667 88016 net.cpp:163] Top shape: 32 64 14 14 (401408)
I0906 12:01:15.399683 88016 layer_factory.hpp:76] Creating layer inception_4b/output
I0906 12:01:15.399696 88016 net.cpp:110] Creating Layer inception_4b/output
I0906 12:01:15.399703 88016 net.cpp:477] inception_4b/output <- inception_4b/1x1
I0906 12:01:15.399713 88016 net.cpp:477] inception_4b/output <- inception_4b/3x3
I0906 12:01:15.399720 88016 net.cpp:477] inception_4b/output <- inception_4b/5x5
I0906 12:01:15.399729 88016 net.cpp:477] inception_4b/output <- inception_4b/pool_proj
I0906 12:01:15.399739 88016 net.cpp:433] inception_4b/output -> inception_4b/output
I0906 12:01:15.399755 88016 net.cpp:155] Setting up inception_4b/output
I0906 12:01:15.399763 88016 net.cpp:163] Top shape: 32 512 14 14 (3211264)
I0906 12:01:15.399770 88016 layer_factory.hpp:76] Creating layer inception_4b/output_inception_4b/output_0_split
I0906 12:01:15.399782 88016 net.cpp:110] Creating Layer inception_4b/output_inception_4b/output_0_split
I0906 12:01:15.399790 88016 net.cpp:477] inception_4b/output_inception_4b/output_0_split <- inception_4b/output
I0906 12:01:15.399801 88016 net.cpp:433] inception_4b/output_inception_4b/output_0_split -> inception_4b/output_inception_4b/output_0_split_0
I0906 12:01:15.399814 88016 net.cpp:433] inception_4b/output_inception_4b/output_0_split -> inception_4b/output_inception_4b/output_0_split_1
I0906 12:01:15.399828 88016 net.cpp:433] inception_4b/output_inception_4b/output_0_split -> inception_4b/output_inception_4b/output_0_split_2
I0906 12:01:15.399842 88016 net.cpp:433] inception_4b/output_inception_4b/output_0_split -> inception_4b/output_inception_4b/output_0_split_3
I0906 12:01:15.399855 88016 net.cpp:155] Setting up inception_4b/output_inception_4b/output_0_split
I0906 12:01:15.399864 88016 net.cpp:163] Top shape: 32 512 14 14 (3211264)
I0906 12:01:15.399873 88016 net.cpp:163] Top shape: 32 512 14 14 (3211264)
I0906 12:01:15.399880 88016 net.cpp:163] Top shape: 32 512 14 14 (3211264)
I0906 12:01:15.399888 88016 net.cpp:163] Top shape: 32 512 14 14 (3211264)
I0906 12:01:15.399894 88016 layer_factory.hpp:76] Creating layer inception_4c/1x1
I0906 12:01:15.399909 88016 net.cpp:110] Creating Layer inception_4c/1x1
I0906 12:01:15.399916 88016 net.cpp:477] inception_4c/1x1 <- inception_4b/output_inception_4b/output_0_split_0
I0906 12:01:15.399929 88016 net.cpp:433] inception_4c/1x1 -> inception_4c/1x1
I0906 12:01:15.401054 88016 net.cpp:155] Setting up inception_4c/1x1
I0906 12:01:15.401072 88016 net.cpp:163] Top shape: 32 128 14 14 (802816)
I0906 12:01:15.401084 88016 layer_factory.hpp:76] Creating layer inception_4c/relu_1x1
I0906 12:01:15.401095 88016 net.cpp:110] Creating Layer inception_4c/relu_1x1
I0906 12:01:15.401103 88016 net.cpp:477] inception_4c/relu_1x1 <- inception_4c/1x1
I0906 12:01:15.401114 88016 net.cpp:419] inception_4c/relu_1x1 -> inception_4c/1x1 (in-place)
I0906 12:01:15.401126 88016 net.cpp:155] Setting up inception_4c/relu_1x1
I0906 12:01:15.401155 88016 net.cpp:163] Top shape: 32 128 14 14 (802816)
I0906 12:01:15.401162 88016 layer_factory.hpp:76] Creating layer inception_4c/3x3_reduce
I0906 12:01:15.401177 88016 net.cpp:110] Creating Layer inception_4c/3x3_reduce
I0906 12:01:15.401185 88016 net.cpp:477] inception_4c/3x3_reduce <- inception_4b/output_inception_4b/output_0_split_1
I0906 12:01:15.401198 88016 net.cpp:433] inception_4c/3x3_reduce -> inception_4c/3x3_reduce
I0906 12:01:15.402343 88016 net.cpp:155] Setting up inception_4c/3x3_reduce
I0906 12:01:15.402359 88016 net.cpp:163] Top shape: 32 128 14 14 (802816)
I0906 12:01:15.402372 88016 layer_factory.hpp:76] Creating layer inception_4c/relu_3x3_reduce
I0906 12:01:15.402384 88016 net.cpp:110] Creating Layer inception_4c/relu_3x3_reduce
I0906 12:01:15.402391 88016 net.cpp:477] inception_4c/relu_3x3_reduce <- inception_4c/3x3_reduce
I0906 12:01:15.402403 88016 net.cpp:419] inception_4c/relu_3x3_reduce -> inception_4c/3x3_reduce (in-place)
I0906 12:01:15.402415 88016 net.cpp:155] Setting up inception_4c/relu_3x3_reduce
I0906 12:01:15.402423 88016 net.cpp:163] Top shape: 32 128 14 14 (802816)
I0906 12:01:15.402431 88016 layer_factory.hpp:76] Creating layer inception_4c/3x3
I0906 12:01:15.402443 88016 net.cpp:110] Creating Layer inception_4c/3x3
I0906 12:01:15.402451 88016 net.cpp:477] inception_4c/3x3 <- inception_4c/3x3_reduce
I0906 12:01:15.402462 88016 net.cpp:433] inception_4c/3x3 -> inception_4c/3x3
I0906 12:01:15.408300 88016 net.cpp:155] Setting up inception_4c/3x3
I0906 12:01:15.408326 88016 net.cpp:163] Top shape: 32 256 14 14 (1605632)
I0906 12:01:15.408363 88016 layer_factory.hpp:76] Creating layer inception_4c/relu_3x3
I0906 12:01:15.408377 88016 net.cpp:110] Creating Layer inception_4c/relu_3x3
I0906 12:01:15.408385 88016 net.cpp:477] inception_4c/relu_3x3 <- inception_4c/3x3
I0906 12:01:15.408396 88016 net.cpp:419] inception_4c/relu_3x3 -> inception_4c/3x3 (in-place)
I0906 12:01:15.408411 88016 net.cpp:155] Setting up inception_4c/relu_3x3
I0906 12:01:15.408421 88016 net.cpp:163] Top shape: 32 256 14 14 (1605632)
I0906 12:01:15.408427 88016 layer_factory.hpp:76] Creating layer inception_4c/5x5_reduce
I0906 12:01:15.408442 88016 net.cpp:110] Creating Layer inception_4c/5x5_reduce
I0906 12:01:15.408449 88016 net.cpp:477] inception_4c/5x5_reduce <- inception_4b/output_inception_4b/output_0_split_2
I0906 12:01:15.408463 88016 net.cpp:433] inception_4c/5x5_reduce -> inception_4c/5x5_reduce
I0906 12:01:15.408769 88016 net.cpp:155] Setting up inception_4c/5x5_reduce
I0906 12:01:15.408787 88016 net.cpp:163] Top shape: 32 24 14 14 (150528)
I0906 12:01:15.408799 88016 layer_factory.hpp:76] Creating layer inception_4c/relu_5x5_reduce
I0906 12:01:15.408810 88016 net.cpp:110] Creating Layer inception_4c/relu_5x5_reduce
I0906 12:01:15.408818 88016 net.cpp:477] inception_4c/relu_5x5_reduce <- inception_4c/5x5_reduce
I0906 12:01:15.408830 88016 net.cpp:419] inception_4c/relu_5x5_reduce -> inception_4c/5x5_reduce (in-place)
I0906 12:01:15.408843 88016 net.cpp:155] Setting up inception_4c/relu_5x5_reduce
I0906 12:01:15.408850 88016 net.cpp:163] Top shape: 32 24 14 14 (150528)
I0906 12:01:15.408857 88016 layer_factory.hpp:76] Creating layer inception_4c/5x5
I0906 12:01:15.408870 88016 net.cpp:110] Creating Layer inception_4c/5x5
I0906 12:01:15.408877 88016 net.cpp:477] inception_4c/5x5 <- inception_4c/5x5_reduce
I0906 12:01:15.408890 88016 net.cpp:433] inception_4c/5x5 -> inception_4c/5x5
I0906 12:01:15.410583 88016 net.cpp:155] Setting up inception_4c/5x5
I0906 12:01:15.410608 88016 net.cpp:163] Top shape: 32 64 14 14 (401408)
I0906 12:01:15.410621 88016 layer_factory.hpp:76] Creating layer inception_4c/relu_5x5
I0906 12:01:15.410634 88016 net.cpp:110] Creating Layer inception_4c/relu_5x5
I0906 12:01:15.410642 88016 net.cpp:477] inception_4c/relu_5x5 <- inception_4c/5x5
I0906 12:01:15.410655 88016 net.cpp:419] inception_4c/relu_5x5 -> inception_4c/5x5 (in-place)
I0906 12:01:15.410667 88016 net.cpp:155] Setting up inception_4c/relu_5x5
I0906 12:01:15.410676 88016 net.cpp:163] Top shape: 32 64 14 14 (401408)
I0906 12:01:15.410711 88016 layer_factory.hpp:76] Creating layer inception_4c/pool
I0906 12:01:15.410725 88016 net.cpp:110] Creating Layer inception_4c/pool
I0906 12:01:15.410732 88016 net.cpp:477] inception_4c/pool <- inception_4b/output_inception_4b/output_0_split_3
I0906 12:01:15.410747 88016 net.cpp:433] inception_4c/pool -> inception_4c/pool
I0906 12:01:15.410763 88016 net.cpp:155] Setting up inception_4c/pool
I0906 12:01:15.410774 88016 net.cpp:163] Top shape: 32 512 14 14 (3211264)
I0906 12:01:15.410781 88016 layer_factory.hpp:76] Creating layer inception_4c/pool_proj
I0906 12:01:15.410797 88016 net.cpp:110] Creating Layer inception_4c/pool_proj
I0906 12:01:15.410804 88016 net.cpp:477] inception_4c/pool_proj <- inception_4c/pool
I0906 12:01:15.410816 88016 net.cpp:433] inception_4c/pool_proj -> inception_4c/pool_proj
I0906 12:01:15.411437 88016 net.cpp:155] Setting up inception_4c/pool_proj
I0906 12:01:15.411455 88016 net.cpp:163] Top shape: 32 64 14 14 (401408)
I0906 12:01:15.411468 88016 layer_factory.hpp:76] Creating layer inception_4c/relu_pool_proj
I0906 12:01:15.411478 88016 net.cpp:110] Creating Layer inception_4c/relu_pool_proj
I0906 12:01:15.411486 88016 net.cpp:477] inception_4c/relu_pool_proj <- inception_4c/pool_proj
I0906 12:01:15.411497 88016 net.cpp:419] inception_4c/relu_pool_proj -> inception_4c/pool_proj (in-place)
I0906 12:01:15.411509 88016 net.cpp:155] Setting up inception_4c/relu_pool_proj
I0906 12:01:15.411519 88016 net.cpp:163] Top shape: 32 64 14 14 (401408)
I0906 12:01:15.411525 88016 layer_factory.hpp:76] Creating layer inception_4c/output
I0906 12:01:15.411537 88016 net.cpp:110] Creating Layer inception_4c/output
I0906 12:01:15.411545 88016 net.cpp:477] inception_4c/output <- inception_4c/1x1
I0906 12:01:15.411553 88016 net.cpp:477] inception_4c/output <- inception_4c/3x3
I0906 12:01:15.411562 88016 net.cpp:477] inception_4c/output <- inception_4c/5x5
I0906 12:01:15.411569 88016 net.cpp:477] inception_4c/output <- inception_4c/pool_proj
I0906 12:01:15.411581 88016 net.cpp:433] inception_4c/output -> inception_4c/output
I0906 12:01:15.411595 88016 net.cpp:155] Setting up inception_4c/output
I0906 12:01:15.411604 88016 net.cpp:163] Top shape: 32 512 14 14 (3211264)
I0906 12:01:15.411612 88016 layer_factory.hpp:76] Creating layer inception_4c/output_inception_4c/output_0_split
I0906 12:01:15.411624 88016 net.cpp:110] Creating Layer inception_4c/output_inception_4c/output_0_split
I0906 12:01:15.411631 88016 net.cpp:477] inception_4c/output_inception_4c/output_0_split <- inception_4c/output
I0906 12:01:15.411644 88016 net.cpp:433] inception_4c/output_inception_4c/output_0_split -> inception_4c/output_inception_4c/output_0_split_0
I0906 12:01:15.411658 88016 net.cpp:433] inception_4c/output_inception_4c/output_0_split -> inception_4c/output_inception_4c/output_0_split_1
I0906 12:01:15.411680 88016 net.cpp:433] inception_4c/output_inception_4c/output_0_split -> inception_4c/output_inception_4c/output_0_split_2
I0906 12:01:15.411695 88016 net.cpp:433] inception_4c/output_inception_4c/output_0_split -> inception_4c/output_inception_4c/output_0_split_3
I0906 12:01:15.411708 88016 net.cpp:155] Setting up inception_4c/output_inception_4c/output_0_split
I0906 12:01:15.411717 88016 net.cpp:163] Top shape: 32 512 14 14 (3211264)
I0906 12:01:15.411725 88016 net.cpp:163] Top shape: 32 512 14 14 (3211264)
I0906 12:01:15.411732 88016 net.cpp:163] Top shape: 32 512 14 14 (3211264)
I0906 12:01:15.411741 88016 net.cpp:163] Top shape: 32 512 14 14 (3211264)
I0906 12:01:15.411746 88016 layer_factory.hpp:76] Creating layer inception_4d/1x1
I0906 12:01:15.411761 88016 net.cpp:110] Creating Layer inception_4d/1x1
I0906 12:01:15.411768 88016 net.cpp:477] inception_4d/1x1 <- inception_4c/output_inception_4c/output_0_split_0
I0906 12:01:15.411782 88016 net.cpp:433] inception_4d/1x1 -> inception_4d/1x1
I0906 12:01:15.412786 88016 net.cpp:155] Setting up inception_4d/1x1
I0906 12:01:15.412802 88016 net.cpp:163] Top shape: 32 112 14 14 (702464)
I0906 12:01:15.412816 88016 layer_factory.hpp:76] Creating layer inception_4d/relu_1x1
I0906 12:01:15.412847 88016 net.cpp:110] Creating Layer inception_4d/relu_1x1
I0906 12:01:15.412855 88016 net.cpp:477] inception_4d/relu_1x1 <- inception_4d/1x1
I0906 12:01:15.412866 88016 net.cpp:419] inception_4d/relu_1x1 -> inception_4d/1x1 (in-place)
I0906 12:01:15.412879 88016 net.cpp:155] Setting up inception_4d/relu_1x1
I0906 12:01:15.412889 88016 net.cpp:163] Top shape: 32 112 14 14 (702464)
I0906 12:01:15.412896 88016 layer_factory.hpp:76] Creating layer inception_4d/3x3_reduce
I0906 12:01:15.412910 88016 net.cpp:110] Creating Layer inception_4d/3x3_reduce
I0906 12:01:15.412919 88016 net.cpp:477] inception_4d/3x3_reduce <- inception_4c/output_inception_4c/output_0_split_1
I0906 12:01:15.412930 88016 net.cpp:433] inception_4d/3x3_reduce -> inception_4d/3x3_reduce
I0906 12:01:15.414207 88016 net.cpp:155] Setting up inception_4d/3x3_reduce
I0906 12:01:15.414224 88016 net.cpp:163] Top shape: 32 144 14 14 (903168)
I0906 12:01:15.414237 88016 layer_factory.hpp:76] Creating layer inception_4d/relu_3x3_reduce
I0906 12:01:15.414247 88016 net.cpp:110] Creating Layer inception_4d/relu_3x3_reduce
I0906 12:01:15.414255 88016 net.cpp:477] inception_4d/relu_3x3_reduce <- inception_4d/3x3_reduce
I0906 12:01:15.414268 88016 net.cpp:419] inception_4d/relu_3x3_reduce -> inception_4d/3x3_reduce (in-place)
I0906 12:01:15.414279 88016 net.cpp:155] Setting up inception_4d/relu_3x3_reduce
I0906 12:01:15.414288 88016 net.cpp:163] Top shape: 32 144 14 14 (903168)
I0906 12:01:15.414294 88016 layer_factory.hpp:76] Creating layer inception_4d/3x3
I0906 12:01:15.414309 88016 net.cpp:110] Creating Layer inception_4d/3x3
I0906 12:01:15.414315 88016 net.cpp:477] inception_4d/3x3 <- inception_4d/3x3_reduce
I0906 12:01:15.414327 88016 net.cpp:433] inception_4d/3x3 -> inception_4d/3x3
I0906 12:01:15.421659 88016 net.cpp:155] Setting up inception_4d/3x3
I0906 12:01:15.421687 88016 net.cpp:163] Top shape: 32 288 14 14 (1806336)
I0906 12:01:15.421702 88016 layer_factory.hpp:76] Creating layer inception_4d/relu_3x3
I0906 12:01:15.421716 88016 net.cpp:110] Creating Layer inception_4d/relu_3x3
I0906 12:01:15.421725 88016 net.cpp:477] inception_4d/relu_3x3 <- inception_4d/3x3
I0906 12:01:15.421736 88016 net.cpp:419] inception_4d/relu_3x3 -> inception_4d/3x3 (in-place)
I0906 12:01:15.421749 88016 net.cpp:155] Setting up inception_4d/relu_3x3
I0906 12:01:15.421758 88016 net.cpp:163] Top shape: 32 288 14 14 (1806336)
I0906 12:01:15.421766 88016 layer_factory.hpp:76] Creating layer inception_4d/5x5_reduce
I0906 12:01:15.421779 88016 net.cpp:110] Creating Layer inception_4d/5x5_reduce
I0906 12:01:15.421787 88016 net.cpp:477] inception_4d/5x5_reduce <- inception_4c/output_inception_4c/output_0_split_2
I0906 12:01:15.421798 88016 net.cpp:433] inception_4d/5x5_reduce -> inception_4d/5x5_reduce
I0906 12:01:15.422180 88016 net.cpp:155] Setting up inception_4d/5x5_reduce
I0906 12:01:15.422197 88016 net.cpp:163] Top shape: 32 32 14 14 (200704)
I0906 12:01:15.422209 88016 layer_factory.hpp:76] Creating layer inception_4d/relu_5x5_reduce
I0906 12:01:15.422220 88016 net.cpp:110] Creating Layer inception_4d/relu_5x5_reduce
I0906 12:01:15.422227 88016 net.cpp:477] inception_4d/relu_5x5_reduce <- inception_4d/5x5_reduce
I0906 12:01:15.422240 88016 net.cpp:419] inception_4d/relu_5x5_reduce -> inception_4d/5x5_reduce (in-place)
I0906 12:01:15.422251 88016 net.cpp:155] Setting up inception_4d/relu_5x5_reduce
I0906 12:01:15.422260 88016 net.cpp:163] Top shape: 32 32 14 14 (200704)
I0906 12:01:15.422267 88016 layer_factory.hpp:76] Creating layer inception_4d/5x5
I0906 12:01:15.422281 88016 net.cpp:110] Creating Layer inception_4d/5x5
I0906 12:01:15.422288 88016 net.cpp:477] inception_4d/5x5 <- inception_4d/5x5_reduce
I0906 12:01:15.422300 88016 net.cpp:433] inception_4d/5x5 -> inception_4d/5x5
I0906 12:01:15.423208 88016 net.cpp:155] Setting up inception_4d/5x5
I0906 12:01:15.423225 88016 net.cpp:163] Top shape: 32 64 14 14 (401408)
I0906 12:01:15.423238 88016 layer_factory.hpp:76] Creating layer inception_4d/relu_5x5
I0906 12:01:15.423274 88016 net.cpp:110] Creating Layer inception_4d/relu_5x5
I0906 12:01:15.423281 88016 net.cpp:477] inception_4d/relu_5x5 <- inception_4d/5x5
I0906 12:01:15.423293 88016 net.cpp:419] inception_4d/relu_5x5 -> inception_4d/5x5 (in-place)
I0906 12:01:15.423306 88016 net.cpp:155] Setting up inception_4d/relu_5x5
I0906 12:01:15.423316 88016 net.cpp:163] Top shape: 32 64 14 14 (401408)
I0906 12:01:15.423322 88016 layer_factory.hpp:76] Creating layer inception_4d/pool
I0906 12:01:15.423336 88016 net.cpp:110] Creating Layer inception_4d/pool
I0906 12:01:15.423343 88016 net.cpp:477] inception_4d/pool <- inception_4c/output_inception_4c/output_0_split_3
I0906 12:01:15.423355 88016 net.cpp:433] inception_4d/pool -> inception_4d/pool
I0906 12:01:15.423372 88016 net.cpp:155] Setting up inception_4d/pool
I0906 12:01:15.423382 88016 net.cpp:163] Top shape: 32 512 14 14 (3211264)
I0906 12:01:15.423388 88016 layer_factory.hpp:76] Creating layer inception_4d/pool_proj
I0906 12:01:15.423403 88016 net.cpp:110] Creating Layer inception_4d/pool_proj
I0906 12:01:15.423409 88016 net.cpp:477] inception_4d/pool_proj <- inception_4d/pool
I0906 12:01:15.423424 88016 net.cpp:433] inception_4d/pool_proj -> inception_4d/pool_proj
I0906 12:01:15.424058 88016 net.cpp:155] Setting up inception_4d/pool_proj
I0906 12:01:15.424077 88016 net.cpp:163] Top shape: 32 64 14 14 (401408)
I0906 12:01:15.424089 88016 layer_factory.hpp:76] Creating layer inception_4d/relu_pool_proj
I0906 12:01:15.424101 88016 net.cpp:110] Creating Layer inception_4d/relu_pool_proj
I0906 12:01:15.424109 88016 net.cpp:477] inception_4d/relu_pool_proj <- inception_4d/pool_proj
I0906 12:01:15.424120 88016 net.cpp:419] inception_4d/relu_pool_proj -> inception_4d/pool_proj (in-place)
I0906 12:01:15.424134 88016 net.cpp:155] Setting up inception_4d/relu_pool_proj
I0906 12:01:15.424141 88016 net.cpp:163] Top shape: 32 64 14 14 (401408)
I0906 12:01:15.424147 88016 layer_factory.hpp:76] Creating layer inception_4d/output
I0906 12:01:15.424160 88016 net.cpp:110] Creating Layer inception_4d/output
I0906 12:01:15.424167 88016 net.cpp:477] inception_4d/output <- inception_4d/1x1
I0906 12:01:15.424176 88016 net.cpp:477] inception_4d/output <- inception_4d/3x3
I0906 12:01:15.424185 88016 net.cpp:477] inception_4d/output <- inception_4d/5x5
I0906 12:01:15.424192 88016 net.cpp:477] inception_4d/output <- inception_4d/pool_proj
I0906 12:01:15.424202 88016 net.cpp:433] inception_4d/output -> inception_4d/output
I0906 12:01:15.424217 88016 net.cpp:155] Setting up inception_4d/output
I0906 12:01:15.424226 88016 net.cpp:163] Top shape: 32 528 14 14 (3311616)
I0906 12:01:15.424233 88016 layer_factory.hpp:76] Creating layer inception_4d/output_inception_4d/output_0_split
I0906 12:01:15.424247 88016 net.cpp:110] Creating Layer inception_4d/output_inception_4d/output_0_split
I0906 12:01:15.424253 88016 net.cpp:477] inception_4d/output_inception_4d/output_0_split <- inception_4d/output
I0906 12:01:15.424265 88016 net.cpp:433] inception_4d/output_inception_4d/output_0_split -> inception_4d/output_inception_4d/output_0_split_0
I0906 12:01:15.424279 88016 net.cpp:433] inception_4d/output_inception_4d/output_0_split -> inception_4d/output_inception_4d/output_0_split_1
I0906 12:01:15.424293 88016 net.cpp:433] inception_4d/output_inception_4d/output_0_split -> inception_4d/output_inception_4d/output_0_split_2
I0906 12:01:15.424305 88016 net.cpp:433] inception_4d/output_inception_4d/output_0_split -> inception_4d/output_inception_4d/output_0_split_3
I0906 12:01:15.424317 88016 net.cpp:433] inception_4d/output_inception_4d/output_0_split -> inception_4d/output_inception_4d/output_0_split_4
I0906 12:01:15.424332 88016 net.cpp:155] Setting up inception_4d/output_inception_4d/output_0_split
I0906 12:01:15.424341 88016 net.cpp:163] Top shape: 32 528 14 14 (3311616)
I0906 12:01:15.424350 88016 net.cpp:163] Top shape: 32 528 14 14 (3311616)
I0906 12:01:15.424357 88016 net.cpp:163] Top shape: 32 528 14 14 (3311616)
I0906 12:01:15.424365 88016 net.cpp:163] Top shape: 32 528 14 14 (3311616)
I0906 12:01:15.424372 88016 net.cpp:163] Top shape: 32 528 14 14 (3311616)
I0906 12:01:15.424399 88016 layer_factory.hpp:76] Creating layer loss2/ave_pool
I0906 12:01:15.424412 88016 net.cpp:110] Creating Layer loss2/ave_pool
I0906 12:01:15.424419 88016 net.cpp:477] loss2/ave_pool <- inception_4d/output_inception_4d/output_0_split_0
I0906 12:01:15.424432 88016 net.cpp:433] loss2/ave_pool -> loss2/ave_pool
I0906 12:01:15.424448 88016 net.cpp:155] Setting up loss2/ave_pool
I0906 12:01:15.424458 88016 net.cpp:163] Top shape: 32 528 4 4 (270336)
I0906 12:01:15.424464 88016 layer_factory.hpp:76] Creating layer loss2/conv
I0906 12:01:15.424479 88016 net.cpp:110] Creating Layer loss2/conv
I0906 12:01:15.424487 88016 net.cpp:477] loss2/conv <- loss2/ave_pool
I0906 12:01:15.424500 88016 net.cpp:433] loss2/conv -> loss2/conv
I0906 12:01:15.426713 88016 net.cpp:155] Setting up loss2/conv
I0906 12:01:15.426741 88016 net.cpp:163] Top shape: 32 128 4 4 (65536)
I0906 12:01:15.426755 88016 layer_factory.hpp:76] Creating layer loss2/relu_conv
I0906 12:01:15.426769 88016 net.cpp:110] Creating Layer loss2/relu_conv
I0906 12:01:15.426777 88016 net.cpp:477] loss2/relu_conv <- loss2/conv
I0906 12:01:15.426789 88016 net.cpp:419] loss2/relu_conv -> loss2/conv (in-place)
I0906 12:01:15.426803 88016 net.cpp:155] Setting up loss2/relu_conv
I0906 12:01:15.426812 88016 net.cpp:163] Top shape: 32 128 4 4 (65536)
I0906 12:01:15.426818 88016 layer_factory.hpp:76] Creating layer loss2/fc
I0906 12:01:15.426836 88016 net.cpp:110] Creating Layer loss2/fc
I0906 12:01:15.426842 88016 net.cpp:477] loss2/fc <- loss2/conv
I0906 12:01:15.426854 88016 net.cpp:433] loss2/fc -> loss2/fc
I0906 12:01:15.466460 88016 net.cpp:155] Setting up loss2/fc
I0906 12:01:15.466492 88016 net.cpp:163] Top shape: 32 1024 (32768)
I0906 12:01:15.466509 88016 layer_factory.hpp:76] Creating layer loss2/relu_fc
I0906 12:01:15.466526 88016 net.cpp:110] Creating Layer loss2/relu_fc
I0906 12:01:15.466536 88016 net.cpp:477] loss2/relu_fc <- loss2/fc
I0906 12:01:15.466548 88016 net.cpp:419] loss2/relu_fc -> loss2/fc (in-place)
I0906 12:01:15.466563 88016 net.cpp:155] Setting up loss2/relu_fc
I0906 12:01:15.466572 88016 net.cpp:163] Top shape: 32 1024 (32768)
I0906 12:01:15.466578 88016 layer_factory.hpp:76] Creating layer loss2/drop_fc
I0906 12:01:15.466593 88016 net.cpp:110] Creating Layer loss2/drop_fc
I0906 12:01:15.466600 88016 net.cpp:477] loss2/drop_fc <- loss2/fc
I0906 12:01:15.466611 88016 net.cpp:419] loss2/drop_fc -> loss2/fc (in-place)
I0906 12:01:15.466626 88016 net.cpp:155] Setting up loss2/drop_fc
I0906 12:01:15.466635 88016 net.cpp:163] Top shape: 32 1024 (32768)
I0906 12:01:15.466642 88016 layer_factory.hpp:76] Creating layer loss2/classifier_cub
I0906 12:01:15.466657 88016 net.cpp:110] Creating Layer loss2/classifier_cub
I0906 12:01:15.466663 88016 net.cpp:477] loss2/classifier_cub <- loss2/fc
I0906 12:01:15.466676 88016 net.cpp:433] loss2/classifier_cub -> loss2/classifier
I0906 12:01:15.482384 88016 net.cpp:155] Setting up loss2/classifier_cub
I0906 12:01:15.482414 88016 net.cpp:163] Top shape: 32 200 (6400)
I0906 12:01:15.482430 88016 layer_factory.hpp:76] Creating layer loss2/loss
I0906 12:01:15.482447 88016 net.cpp:110] Creating Layer loss2/loss
I0906 12:01:15.482456 88016 net.cpp:477] loss2/loss <- loss2/classifier
I0906 12:01:15.482467 88016 net.cpp:477] loss2/loss <- label_data_1_split_1
I0906 12:01:15.482481 88016 net.cpp:433] loss2/loss -> loss2/loss1
I0906 12:01:15.482501 88016 layer_factory.hpp:76] Creating layer loss2/loss
I0906 12:01:15.482635 88016 net.cpp:155] Setting up loss2/loss
I0906 12:01:15.482652 88016 net.cpp:163] Top shape: (1)
I0906 12:01:15.482658 88016 net.cpp:168]     with loss weight 0.3
I0906 12:01:15.482691 88016 layer_factory.hpp:76] Creating layer inception_4e/1x1
I0906 12:01:15.482708 88016 net.cpp:110] Creating Layer inception_4e/1x1
I0906 12:01:15.482717 88016 net.cpp:477] inception_4e/1x1 <- inception_4d/output_inception_4d/output_0_split_1
I0906 12:01:15.482740 88016 net.cpp:433] inception_4e/1x1 -> inception_4e/1x1
I0906 12:01:15.485007 88016 net.cpp:155] Setting up inception_4e/1x1
I0906 12:01:15.485054 88016 net.cpp:163] Top shape: 32 256 14 14 (1605632)
I0906 12:01:15.485070 88016 layer_factory.hpp:76] Creating layer inception_4e/relu_1x1
I0906 12:01:15.485083 88016 net.cpp:110] Creating Layer inception_4e/relu_1x1
I0906 12:01:15.485091 88016 net.cpp:477] inception_4e/relu_1x1 <- inception_4e/1x1
I0906 12:01:15.485103 88016 net.cpp:419] inception_4e/relu_1x1 -> inception_4e/1x1 (in-place)
I0906 12:01:15.485117 88016 net.cpp:155] Setting up inception_4e/relu_1x1
I0906 12:01:15.485126 88016 net.cpp:163] Top shape: 32 256 14 14 (1605632)
I0906 12:01:15.485133 88016 layer_factory.hpp:76] Creating layer inception_4e/3x3_reduce
I0906 12:01:15.485148 88016 net.cpp:110] Creating Layer inception_4e/3x3_reduce
I0906 12:01:15.485155 88016 net.cpp:477] inception_4e/3x3_reduce <- inception_4d/output_inception_4d/output_0_split_2
I0906 12:01:15.485174 88016 net.cpp:433] inception_4e/3x3_reduce -> inception_4e/3x3_reduce
I0906 12:01:15.487717 88016 net.cpp:155] Setting up inception_4e/3x3_reduce
I0906 12:01:15.487746 88016 net.cpp:163] Top shape: 32 160 14 14 (1003520)
I0906 12:01:15.487761 88016 layer_factory.hpp:76] Creating layer inception_4e/relu_3x3_reduce
I0906 12:01:15.487778 88016 net.cpp:110] Creating Layer inception_4e/relu_3x3_reduce
I0906 12:01:15.487788 88016 net.cpp:477] inception_4e/relu_3x3_reduce <- inception_4e/3x3_reduce
I0906 12:01:15.487802 88016 net.cpp:419] inception_4e/relu_3x3_reduce -> inception_4e/3x3_reduce (in-place)
I0906 12:01:15.487815 88016 net.cpp:155] Setting up inception_4e/relu_3x3_reduce
I0906 12:01:15.487824 88016 net.cpp:163] Top shape: 32 160 14 14 (1003520)
I0906 12:01:15.487831 88016 layer_factory.hpp:76] Creating layer inception_4e/3x3
I0906 12:01:15.487846 88016 net.cpp:110] Creating Layer inception_4e/3x3
I0906 12:01:15.487854 88016 net.cpp:477] inception_4e/3x3 <- inception_4e/3x3_reduce
I0906 12:01:15.487865 88016 net.cpp:433] inception_4e/3x3 -> inception_4e/3x3
I0906 12:01:15.496973 88016 net.cpp:155] Setting up inception_4e/3x3
I0906 12:01:15.497002 88016 net.cpp:163] Top shape: 32 320 14 14 (2007040)
I0906 12:01:15.497019 88016 layer_factory.hpp:76] Creating layer inception_4e/relu_3x3
I0906 12:01:15.497035 88016 net.cpp:110] Creating Layer inception_4e/relu_3x3
I0906 12:01:15.497043 88016 net.cpp:477] inception_4e/relu_3x3 <- inception_4e/3x3
I0906 12:01:15.497056 88016 net.cpp:419] inception_4e/relu_3x3 -> inception_4e/3x3 (in-place)
I0906 12:01:15.497071 88016 net.cpp:155] Setting up inception_4e/relu_3x3
I0906 12:01:15.497078 88016 net.cpp:163] Top shape: 32 320 14 14 (2007040)
I0906 12:01:15.497087 88016 layer_factory.hpp:76] Creating layer inception_4e/5x5_reduce
I0906 12:01:15.497100 88016 net.cpp:110] Creating Layer inception_4e/5x5_reduce
I0906 12:01:15.497107 88016 net.cpp:477] inception_4e/5x5_reduce <- inception_4d/output_inception_4d/output_0_split_3
I0906 12:01:15.497125 88016 net.cpp:433] inception_4e/5x5_reduce -> inception_4e/5x5_reduce
I0906 12:01:15.497517 88016 net.cpp:155] Setting up inception_4e/5x5_reduce
I0906 12:01:15.497536 88016 net.cpp:163] Top shape: 32 32 14 14 (200704)
I0906 12:01:15.497548 88016 layer_factory.hpp:76] Creating layer inception_4e/relu_5x5_reduce
I0906 12:01:15.497560 88016 net.cpp:110] Creating Layer inception_4e/relu_5x5_reduce
I0906 12:01:15.497568 88016 net.cpp:477] inception_4e/relu_5x5_reduce <- inception_4e/5x5_reduce
I0906 12:01:15.497578 88016 net.cpp:419] inception_4e/relu_5x5_reduce -> inception_4e/5x5_reduce (in-place)
I0906 12:01:15.497591 88016 net.cpp:155] Setting up inception_4e/relu_5x5_reduce
I0906 12:01:15.497599 88016 net.cpp:163] Top shape: 32 32 14 14 (200704)
I0906 12:01:15.497606 88016 layer_factory.hpp:76] Creating layer inception_4e/5x5
I0906 12:01:15.497656 88016 net.cpp:110] Creating Layer inception_4e/5x5
I0906 12:01:15.497681 88016 net.cpp:477] inception_4e/5x5 <- inception_4e/5x5_reduce
I0906 12:01:15.497699 88016 net.cpp:433] inception_4e/5x5 -> inception_4e/5x5
I0906 12:01:15.499413 88016 net.cpp:155] Setting up inception_4e/5x5
I0906 12:01:15.499431 88016 net.cpp:163] Top shape: 32 128 14 14 (802816)
I0906 12:01:15.499471 88016 layer_factory.hpp:76] Creating layer inception_4e/relu_5x5
I0906 12:01:15.499485 88016 net.cpp:110] Creating Layer inception_4e/relu_5x5
I0906 12:01:15.499492 88016 net.cpp:477] inception_4e/relu_5x5 <- inception_4e/5x5
I0906 12:01:15.499503 88016 net.cpp:419] inception_4e/relu_5x5 -> inception_4e/5x5 (in-place)
I0906 12:01:15.499516 88016 net.cpp:155] Setting up inception_4e/relu_5x5
I0906 12:01:15.499526 88016 net.cpp:163] Top shape: 32 128 14 14 (802816)
I0906 12:01:15.499532 88016 layer_factory.hpp:76] Creating layer inception_4e/pool
I0906 12:01:15.499544 88016 net.cpp:110] Creating Layer inception_4e/pool
I0906 12:01:15.499552 88016 net.cpp:477] inception_4e/pool <- inception_4d/output_inception_4d/output_0_split_4
I0906 12:01:15.499563 88016 net.cpp:433] inception_4e/pool -> inception_4e/pool
I0906 12:01:15.499580 88016 net.cpp:155] Setting up inception_4e/pool
I0906 12:01:15.499590 88016 net.cpp:163] Top shape: 32 528 14 14 (3311616)
I0906 12:01:15.499598 88016 layer_factory.hpp:76] Creating layer inception_4e/pool_proj
I0906 12:01:15.499615 88016 net.cpp:110] Creating Layer inception_4e/pool_proj
I0906 12:01:15.499624 88016 net.cpp:477] inception_4e/pool_proj <- inception_4e/pool
I0906 12:01:15.499639 88016 net.cpp:433] inception_4e/pool_proj -> inception_4e/pool_proj
I0906 12:01:15.500818 88016 net.cpp:155] Setting up inception_4e/pool_proj
I0906 12:01:15.500839 88016 net.cpp:163] Top shape: 32 128 14 14 (802816)
I0906 12:01:15.500854 88016 layer_factory.hpp:76] Creating layer inception_4e/relu_pool_proj
I0906 12:01:15.500865 88016 net.cpp:110] Creating Layer inception_4e/relu_pool_proj
I0906 12:01:15.500874 88016 net.cpp:477] inception_4e/relu_pool_proj <- inception_4e/pool_proj
I0906 12:01:15.500890 88016 net.cpp:419] inception_4e/relu_pool_proj -> inception_4e/pool_proj (in-place)
I0906 12:01:15.500902 88016 net.cpp:155] Setting up inception_4e/relu_pool_proj
I0906 12:01:15.500911 88016 net.cpp:163] Top shape: 32 128 14 14 (802816)
I0906 12:01:15.500918 88016 layer_factory.hpp:76] Creating layer inception_4e/output
I0906 12:01:15.500931 88016 net.cpp:110] Creating Layer inception_4e/output
I0906 12:01:15.500938 88016 net.cpp:477] inception_4e/output <- inception_4e/1x1
I0906 12:01:15.500947 88016 net.cpp:477] inception_4e/output <- inception_4e/3x3
I0906 12:01:15.500955 88016 net.cpp:477] inception_4e/output <- inception_4e/5x5
I0906 12:01:15.500964 88016 net.cpp:477] inception_4e/output <- inception_4e/pool_proj
I0906 12:01:15.500974 88016 net.cpp:433] inception_4e/output -> inception_4e/output
I0906 12:01:15.500989 88016 net.cpp:155] Setting up inception_4e/output
I0906 12:01:15.500998 88016 net.cpp:163] Top shape: 32 832 14 14 (5218304)
I0906 12:01:15.501005 88016 layer_factory.hpp:76] Creating layer pool4/3x3_s2
I0906 12:01:15.501018 88016 net.cpp:110] Creating Layer pool4/3x3_s2
I0906 12:01:15.501024 88016 net.cpp:477] pool4/3x3_s2 <- inception_4e/output
I0906 12:01:15.501036 88016 net.cpp:433] pool4/3x3_s2 -> pool4/3x3_s2
I0906 12:01:15.501052 88016 net.cpp:155] Setting up pool4/3x3_s2
I0906 12:01:15.501060 88016 net.cpp:163] Top shape: 32 832 7 7 (1304576)
I0906 12:01:15.501067 88016 layer_factory.hpp:76] Creating layer pool4/3x3_s2_pool4/3x3_s2_0_split
I0906 12:01:15.501085 88016 net.cpp:110] Creating Layer pool4/3x3_s2_pool4/3x3_s2_0_split
I0906 12:01:15.501091 88016 net.cpp:477] pool4/3x3_s2_pool4/3x3_s2_0_split <- pool4/3x3_s2
I0906 12:01:15.501101 88016 net.cpp:433] pool4/3x3_s2_pool4/3x3_s2_0_split -> pool4/3x3_s2_pool4/3x3_s2_0_split_0
I0906 12:01:15.501114 88016 net.cpp:433] pool4/3x3_s2_pool4/3x3_s2_0_split -> pool4/3x3_s2_pool4/3x3_s2_0_split_1
I0906 12:01:15.501127 88016 net.cpp:433] pool4/3x3_s2_pool4/3x3_s2_0_split -> pool4/3x3_s2_pool4/3x3_s2_0_split_2
I0906 12:01:15.501139 88016 net.cpp:433] pool4/3x3_s2_pool4/3x3_s2_0_split -> pool4/3x3_s2_pool4/3x3_s2_0_split_3
I0906 12:01:15.501153 88016 net.cpp:155] Setting up pool4/3x3_s2_pool4/3x3_s2_0_split
I0906 12:01:15.501183 88016 net.cpp:163] Top shape: 32 832 7 7 (1304576)
I0906 12:01:15.501219 88016 net.cpp:163] Top shape: 32 832 7 7 (1304576)
I0906 12:01:15.501229 88016 net.cpp:163] Top shape: 32 832 7 7 (1304576)
I0906 12:01:15.501235 88016 net.cpp:163] Top shape: 32 832 7 7 (1304576)
I0906 12:01:15.501243 88016 layer_factory.hpp:76] Creating layer inception_5a/1x1
I0906 12:01:15.501258 88016 net.cpp:110] Creating Layer inception_5a/1x1
I0906 12:01:15.501266 88016 net.cpp:477] inception_5a/1x1 <- pool4/3x3_s2_pool4/3x3_s2_0_split_0
I0906 12:01:15.501282 88016 net.cpp:433] inception_5a/1x1 -> inception_5a/1x1
I0906 12:01:15.505887 88016 net.cpp:155] Setting up inception_5a/1x1
I0906 12:01:15.505914 88016 net.cpp:163] Top shape: 32 256 7 7 (401408)
I0906 12:01:15.505930 88016 layer_factory.hpp:76] Creating layer inception_5a/relu_1x1
I0906 12:01:15.505944 88016 net.cpp:110] Creating Layer inception_5a/relu_1x1
I0906 12:01:15.505952 88016 net.cpp:477] inception_5a/relu_1x1 <- inception_5a/1x1
I0906 12:01:15.505969 88016 net.cpp:419] inception_5a/relu_1x1 -> inception_5a/1x1 (in-place)
I0906 12:01:15.505983 88016 net.cpp:155] Setting up inception_5a/relu_1x1
I0906 12:01:15.505995 88016 net.cpp:163] Top shape: 32 256 7 7 (401408)
I0906 12:01:15.506000 88016 layer_factory.hpp:76] Creating layer inception_5a/3x3_reduce
I0906 12:01:15.506014 88016 net.cpp:110] Creating Layer inception_5a/3x3_reduce
I0906 12:01:15.506022 88016 net.cpp:477] inception_5a/3x3_reduce <- pool4/3x3_s2_pool4/3x3_s2_0_split_1
I0906 12:01:15.506034 88016 net.cpp:433] inception_5a/3x3_reduce -> inception_5a/3x3_reduce
I0906 12:01:15.509321 88016 net.cpp:155] Setting up inception_5a/3x3_reduce
I0906 12:01:15.509349 88016 net.cpp:163] Top shape: 32 160 7 7 (250880)
I0906 12:01:15.509364 88016 layer_factory.hpp:76] Creating layer inception_5a/relu_3x3_reduce
I0906 12:01:15.509378 88016 net.cpp:110] Creating Layer inception_5a/relu_3x3_reduce
I0906 12:01:15.509387 88016 net.cpp:477] inception_5a/relu_3x3_reduce <- inception_5a/3x3_reduce
I0906 12:01:15.509397 88016 net.cpp:419] inception_5a/relu_3x3_reduce -> inception_5a/3x3_reduce (in-place)
I0906 12:01:15.509412 88016 net.cpp:155] Setting up inception_5a/relu_3x3_reduce
I0906 12:01:15.509420 88016 net.cpp:163] Top shape: 32 160 7 7 (250880)
I0906 12:01:15.509428 88016 layer_factory.hpp:76] Creating layer inception_5a/3x3
I0906 12:01:15.509441 88016 net.cpp:110] Creating Layer inception_5a/3x3
I0906 12:01:15.509449 88016 net.cpp:477] inception_5a/3x3 <- inception_5a/3x3_reduce
I0906 12:01:15.509464 88016 net.cpp:433] inception_5a/3x3 -> inception_5a/3x3
I0906 12:01:15.518540 88016 net.cpp:155] Setting up inception_5a/3x3
I0906 12:01:15.518568 88016 net.cpp:163] Top shape: 32 320 7 7 (501760)
I0906 12:01:15.518584 88016 layer_factory.hpp:76] Creating layer inception_5a/relu_3x3
I0906 12:01:15.518601 88016 net.cpp:110] Creating Layer inception_5a/relu_3x3
I0906 12:01:15.518610 88016 net.cpp:477] inception_5a/relu_3x3 <- inception_5a/3x3
I0906 12:01:15.518620 88016 net.cpp:419] inception_5a/relu_3x3 -> inception_5a/3x3 (in-place)
I0906 12:01:15.518635 88016 net.cpp:155] Setting up inception_5a/relu_3x3
I0906 12:01:15.518643 88016 net.cpp:163] Top shape: 32 320 7 7 (501760)
I0906 12:01:15.518651 88016 layer_factory.hpp:76] Creating layer inception_5a/5x5_reduce
I0906 12:01:15.518664 88016 net.cpp:110] Creating Layer inception_5a/5x5_reduce
I0906 12:01:15.518671 88016 net.cpp:477] inception_5a/5x5_reduce <- pool4/3x3_s2_pool4/3x3_s2_0_split_2
I0906 12:01:15.518683 88016 net.cpp:433] inception_5a/5x5_reduce -> inception_5a/5x5_reduce
I0906 12:01:15.519232 88016 net.cpp:155] Setting up inception_5a/5x5_reduce
I0906 12:01:15.519255 88016 net.cpp:163] Top shape: 32 32 7 7 (50176)
I0906 12:01:15.519269 88016 layer_factory.hpp:76] Creating layer inception_5a/relu_5x5_reduce
I0906 12:01:15.519281 88016 net.cpp:110] Creating Layer inception_5a/relu_5x5_reduce
I0906 12:01:15.519289 88016 net.cpp:477] inception_5a/relu_5x5_reduce <- inception_5a/5x5_reduce
I0906 12:01:15.519299 88016 net.cpp:419] inception_5a/relu_5x5_reduce -> inception_5a/5x5_reduce (in-place)
I0906 12:01:15.519312 88016 net.cpp:155] Setting up inception_5a/relu_5x5_reduce
I0906 12:01:15.519346 88016 net.cpp:163] Top shape: 32 32 7 7 (50176)
I0906 12:01:15.519354 88016 layer_factory.hpp:76] Creating layer inception_5a/5x5
I0906 12:01:15.519369 88016 net.cpp:110] Creating Layer inception_5a/5x5
I0906 12:01:15.519376 88016 net.cpp:477] inception_5a/5x5 <- inception_5a/5x5_reduce
I0906 12:01:15.519392 88016 net.cpp:433] inception_5a/5x5 -> inception_5a/5x5
I0906 12:01:15.521126 88016 net.cpp:155] Setting up inception_5a/5x5
I0906 12:01:15.521147 88016 net.cpp:163] Top shape: 32 128 7 7 (200704)
I0906 12:01:15.521162 88016 layer_factory.hpp:76] Creating layer inception_5a/relu_5x5
I0906 12:01:15.521173 88016 net.cpp:110] Creating Layer inception_5a/relu_5x5
I0906 12:01:15.521180 88016 net.cpp:477] inception_5a/relu_5x5 <- inception_5a/5x5
I0906 12:01:15.521191 88016 net.cpp:419] inception_5a/relu_5x5 -> inception_5a/5x5 (in-place)
I0906 12:01:15.521203 88016 net.cpp:155] Setting up inception_5a/relu_5x5
I0906 12:01:15.521212 88016 net.cpp:163] Top shape: 32 128 7 7 (200704)
I0906 12:01:15.521219 88016 layer_factory.hpp:76] Creating layer inception_5a/pool
I0906 12:01:15.521231 88016 net.cpp:110] Creating Layer inception_5a/pool
I0906 12:01:15.521239 88016 net.cpp:477] inception_5a/pool <- pool4/3x3_s2_pool4/3x3_s2_0_split_3
I0906 12:01:15.521250 88016 net.cpp:433] inception_5a/pool -> inception_5a/pool
I0906 12:01:15.521267 88016 net.cpp:155] Setting up inception_5a/pool
I0906 12:01:15.521276 88016 net.cpp:163] Top shape: 32 832 7 7 (1304576)
I0906 12:01:15.521282 88016 layer_factory.hpp:76] Creating layer inception_5a/pool_proj
I0906 12:01:15.521299 88016 net.cpp:110] Creating Layer inception_5a/pool_proj
I0906 12:01:15.521307 88016 net.cpp:477] inception_5a/pool_proj <- inception_5a/pool
I0906 12:01:15.521318 88016 net.cpp:433] inception_5a/pool_proj -> inception_5a/pool_proj
I0906 12:01:15.524201 88016 net.cpp:155] Setting up inception_5a/pool_proj
I0906 12:01:15.524230 88016 net.cpp:163] Top shape: 32 128 7 7 (200704)
I0906 12:01:15.524245 88016 layer_factory.hpp:76] Creating layer inception_5a/relu_pool_proj
I0906 12:01:15.524260 88016 net.cpp:110] Creating Layer inception_5a/relu_pool_proj
I0906 12:01:15.524269 88016 net.cpp:477] inception_5a/relu_pool_proj <- inception_5a/pool_proj
I0906 12:01:15.524281 88016 net.cpp:419] inception_5a/relu_pool_proj -> inception_5a/pool_proj (in-place)
I0906 12:01:15.524294 88016 net.cpp:155] Setting up inception_5a/relu_pool_proj
I0906 12:01:15.524303 88016 net.cpp:163] Top shape: 32 128 7 7 (200704)
I0906 12:01:15.524310 88016 layer_factory.hpp:76] Creating layer inception_5a/output
I0906 12:01:15.524322 88016 net.cpp:110] Creating Layer inception_5a/output
I0906 12:01:15.524329 88016 net.cpp:477] inception_5a/output <- inception_5a/1x1
I0906 12:01:15.524338 88016 net.cpp:477] inception_5a/output <- inception_5a/3x3
I0906 12:01:15.524348 88016 net.cpp:477] inception_5a/output <- inception_5a/5x5
I0906 12:01:15.524355 88016 net.cpp:477] inception_5a/output <- inception_5a/pool_proj
I0906 12:01:15.524365 88016 net.cpp:433] inception_5a/output -> inception_5a/output
I0906 12:01:15.524380 88016 net.cpp:155] Setting up inception_5a/output
I0906 12:01:15.524389 88016 net.cpp:163] Top shape: 32 832 7 7 (1304576)
I0906 12:01:15.524396 88016 layer_factory.hpp:76] Creating layer inception_5a/output_inception_5a/output_0_split
I0906 12:01:15.524410 88016 net.cpp:110] Creating Layer inception_5a/output_inception_5a/output_0_split
I0906 12:01:15.524417 88016 net.cpp:477] inception_5a/output_inception_5a/output_0_split <- inception_5a/output
I0906 12:01:15.524432 88016 net.cpp:433] inception_5a/output_inception_5a/output_0_split -> inception_5a/output_inception_5a/output_0_split_0
I0906 12:01:15.524447 88016 net.cpp:433] inception_5a/output_inception_5a/output_0_split -> inception_5a/output_inception_5a/output_0_split_1
I0906 12:01:15.524461 88016 net.cpp:433] inception_5a/output_inception_5a/output_0_split -> inception_5a/output_inception_5a/output_0_split_2
I0906 12:01:15.524473 88016 net.cpp:433] inception_5a/output_inception_5a/output_0_split -> inception_5a/output_inception_5a/output_0_split_3
I0906 12:01:15.524524 88016 net.cpp:155] Setting up inception_5a/output_inception_5a/output_0_split
I0906 12:01:15.524536 88016 net.cpp:163] Top shape: 32 832 7 7 (1304576)
I0906 12:01:15.524545 88016 net.cpp:163] Top shape: 32 832 7 7 (1304576)
I0906 12:01:15.524552 88016 net.cpp:163] Top shape: 32 832 7 7 (1304576)
I0906 12:01:15.524560 88016 net.cpp:163] Top shape: 32 832 7 7 (1304576)
I0906 12:01:15.524567 88016 layer_factory.hpp:76] Creating layer inception_5b/1x1
I0906 12:01:15.524582 88016 net.cpp:110] Creating Layer inception_5b/1x1
I0906 12:01:15.524590 88016 net.cpp:477] inception_5b/1x1 <- inception_5a/output_inception_5a/output_0_split_0
I0906 12:01:15.524612 88016 net.cpp:433] inception_5b/1x1 -> inception_5b/1x1
I0906 12:01:15.531090 88016 net.cpp:155] Setting up inception_5b/1x1
I0906 12:01:15.531119 88016 net.cpp:163] Top shape: 32 384 7 7 (602112)
I0906 12:01:15.531136 88016 layer_factory.hpp:76] Creating layer inception_5b/relu_1x1
I0906 12:01:15.531149 88016 net.cpp:110] Creating Layer inception_5b/relu_1x1
I0906 12:01:15.531157 88016 net.cpp:477] inception_5b/relu_1x1 <- inception_5b/1x1
I0906 12:01:15.531184 88016 net.cpp:419] inception_5b/relu_1x1 -> inception_5b/1x1 (in-place)
I0906 12:01:15.531199 88016 net.cpp:155] Setting up inception_5b/relu_1x1
I0906 12:01:15.531209 88016 net.cpp:163] Top shape: 32 384 7 7 (602112)
I0906 12:01:15.531216 88016 layer_factory.hpp:76] Creating layer inception_5b/3x3_reduce
I0906 12:01:15.531231 88016 net.cpp:110] Creating Layer inception_5b/3x3_reduce
I0906 12:01:15.531239 88016 net.cpp:477] inception_5b/3x3_reduce <- inception_5a/output_inception_5a/output_0_split_1
I0906 12:01:15.531251 88016 net.cpp:433] inception_5b/3x3_reduce -> inception_5b/3x3_reduce
I0906 12:01:15.534975 88016 net.cpp:155] Setting up inception_5b/3x3_reduce
I0906 12:01:15.535004 88016 net.cpp:163] Top shape: 32 192 7 7 (301056)
I0906 12:01:15.535019 88016 layer_factory.hpp:76] Creating layer inception_5b/relu_3x3_reduce
I0906 12:01:15.535034 88016 net.cpp:110] Creating Layer inception_5b/relu_3x3_reduce
I0906 12:01:15.535043 88016 net.cpp:477] inception_5b/relu_3x3_reduce <- inception_5b/3x3_reduce
I0906 12:01:15.535053 88016 net.cpp:419] inception_5b/relu_3x3_reduce -> inception_5b/3x3_reduce (in-place)
I0906 12:01:15.535068 88016 net.cpp:155] Setting up inception_5b/relu_3x3_reduce
I0906 12:01:15.535078 88016 net.cpp:163] Top shape: 32 192 7 7 (301056)
I0906 12:01:15.535084 88016 layer_factory.hpp:76] Creating layer inception_5b/3x3
I0906 12:01:15.535097 88016 net.cpp:110] Creating Layer inception_5b/3x3
I0906 12:01:15.535104 88016 net.cpp:477] inception_5b/3x3 <- inception_5b/3x3_reduce
I0906 12:01:15.535120 88016 net.cpp:433] inception_5b/3x3 -> inception_5b/3x3
I0906 12:01:15.548146 88016 net.cpp:155] Setting up inception_5b/3x3
I0906 12:01:15.548178 88016 net.cpp:163] Top shape: 32 384 7 7 (602112)
I0906 12:01:15.548194 88016 layer_factory.hpp:76] Creating layer inception_5b/relu_3x3
I0906 12:01:15.548207 88016 net.cpp:110] Creating Layer inception_5b/relu_3x3
I0906 12:01:15.548216 88016 net.cpp:477] inception_5b/relu_3x3 <- inception_5b/3x3
I0906 12:01:15.548233 88016 net.cpp:419] inception_5b/relu_3x3 -> inception_5b/3x3 (in-place)
I0906 12:01:15.548249 88016 net.cpp:155] Setting up inception_5b/relu_3x3
I0906 12:01:15.548257 88016 net.cpp:163] Top shape: 32 384 7 7 (602112)
I0906 12:01:15.548264 88016 layer_factory.hpp:76] Creating layer inception_5b/5x5_reduce
I0906 12:01:15.548279 88016 net.cpp:110] Creating Layer inception_5b/5x5_reduce
I0906 12:01:15.548286 88016 net.cpp:477] inception_5b/5x5_reduce <- inception_5a/output_inception_5a/output_0_split_2
I0906 12:01:15.548298 88016 net.cpp:433] inception_5b/5x5_reduce -> inception_5b/5x5_reduce
I0906 12:01:15.550139 88016 net.cpp:155] Setting up inception_5b/5x5_reduce
I0906 12:01:15.550168 88016 net.cpp:163] Top shape: 32 48 7 7 (75264)
I0906 12:01:15.550184 88016 layer_factory.hpp:76] Creating layer inception_5b/relu_5x5_reduce
I0906 12:01:15.550222 88016 net.cpp:110] Creating Layer inception_5b/relu_5x5_reduce
I0906 12:01:15.550232 88016 net.cpp:477] inception_5b/relu_5x5_reduce <- inception_5b/5x5_reduce
I0906 12:01:15.550248 88016 net.cpp:419] inception_5b/relu_5x5_reduce -> inception_5b/5x5_reduce (in-place)
I0906 12:01:15.550263 88016 net.cpp:155] Setting up inception_5b/relu_5x5_reduce
I0906 12:01:15.550274 88016 net.cpp:163] Top shape: 32 48 7 7 (75264)
I0906 12:01:15.550282 88016 layer_factory.hpp:76] Creating layer inception_5b/5x5
I0906 12:01:15.550297 88016 net.cpp:110] Creating Layer inception_5b/5x5
I0906 12:01:15.550303 88016 net.cpp:477] inception_5b/5x5 <- inception_5b/5x5_reduce
I0906 12:01:15.550318 88016 net.cpp:433] inception_5b/5x5 -> inception_5b/5x5
I0906 12:01:15.552878 88016 net.cpp:155] Setting up inception_5b/5x5
I0906 12:01:15.552901 88016 net.cpp:163] Top shape: 32 128 7 7 (200704)
I0906 12:01:15.552916 88016 layer_factory.hpp:76] Creating layer inception_5b/relu_5x5
I0906 12:01:15.552927 88016 net.cpp:110] Creating Layer inception_5b/relu_5x5
I0906 12:01:15.552937 88016 net.cpp:477] inception_5b/relu_5x5 <- inception_5b/5x5
I0906 12:01:15.552947 88016 net.cpp:419] inception_5b/relu_5x5 -> inception_5b/5x5 (in-place)
I0906 12:01:15.552958 88016 net.cpp:155] Setting up inception_5b/relu_5x5
I0906 12:01:15.552968 88016 net.cpp:163] Top shape: 32 128 7 7 (200704)
I0906 12:01:15.552974 88016 layer_factory.hpp:76] Creating layer inception_5b/pool
I0906 12:01:15.552988 88016 net.cpp:110] Creating Layer inception_5b/pool
I0906 12:01:15.552994 88016 net.cpp:477] inception_5b/pool <- inception_5a/output_inception_5a/output_0_split_3
I0906 12:01:15.553006 88016 net.cpp:433] inception_5b/pool -> inception_5b/pool
I0906 12:01:15.553024 88016 net.cpp:155] Setting up inception_5b/pool
I0906 12:01:15.553032 88016 net.cpp:163] Top shape: 32 832 7 7 (1304576)
I0906 12:01:15.553040 88016 layer_factory.hpp:76] Creating layer inception_5b/pool_proj
I0906 12:01:15.553057 88016 net.cpp:110] Creating Layer inception_5b/pool_proj
I0906 12:01:15.553066 88016 net.cpp:477] inception_5b/pool_proj <- inception_5b/pool
I0906 12:01:15.553079 88016 net.cpp:433] inception_5b/pool_proj -> inception_5b/pool_proj
I0906 12:01:15.555963 88016 net.cpp:155] Setting up inception_5b/pool_proj
I0906 12:01:15.555991 88016 net.cpp:163] Top shape: 32 128 7 7 (200704)
I0906 12:01:15.556006 88016 layer_factory.hpp:76] Creating layer inception_5b/relu_pool_proj
I0906 12:01:15.556020 88016 net.cpp:110] Creating Layer inception_5b/relu_pool_proj
I0906 12:01:15.556028 88016 net.cpp:477] inception_5b/relu_pool_proj <- inception_5b/pool_proj
I0906 12:01:15.556040 88016 net.cpp:419] inception_5b/relu_pool_proj -> inception_5b/pool_proj (in-place)
I0906 12:01:15.556052 88016 net.cpp:155] Setting up inception_5b/relu_pool_proj
I0906 12:01:15.556062 88016 net.cpp:163] Top shape: 32 128 7 7 (200704)
I0906 12:01:15.556068 88016 layer_factory.hpp:76] Creating layer inception_5b/output
I0906 12:01:15.556082 88016 net.cpp:110] Creating Layer inception_5b/output
I0906 12:01:15.556088 88016 net.cpp:477] inception_5b/output <- inception_5b/1x1
I0906 12:01:15.556097 88016 net.cpp:477] inception_5b/output <- inception_5b/3x3
I0906 12:01:15.556107 88016 net.cpp:477] inception_5b/output <- inception_5b/5x5
I0906 12:01:15.556114 88016 net.cpp:477] inception_5b/output <- inception_5b/pool_proj
I0906 12:01:15.556124 88016 net.cpp:433] inception_5b/output -> inception_5b/output
I0906 12:01:15.556139 88016 net.cpp:155] Setting up inception_5b/output
I0906 12:01:15.556149 88016 net.cpp:163] Top shape: 32 1024 7 7 (1605632)
I0906 12:01:15.556156 88016 layer_factory.hpp:76] Creating layer pool5/7x7_s1
I0906 12:01:15.556172 88016 net.cpp:110] Creating Layer pool5/7x7_s1
I0906 12:01:15.556180 88016 net.cpp:477] pool5/7x7_s1 <- inception_5b/output
I0906 12:01:15.556191 88016 net.cpp:433] pool5/7x7_s1 -> pool5/7x7_s1
I0906 12:01:15.556206 88016 net.cpp:155] Setting up pool5/7x7_s1
I0906 12:01:15.556218 88016 net.cpp:163] Top shape: 32 1024 1 1 (32768)
I0906 12:01:15.556226 88016 layer_factory.hpp:76] Creating layer pool5/drop_7x7_s1
I0906 12:01:15.556275 88016 net.cpp:110] Creating Layer pool5/drop_7x7_s1
I0906 12:01:15.556285 88016 net.cpp:477] pool5/drop_7x7_s1 <- pool5/7x7_s1
I0906 12:01:15.556296 88016 net.cpp:419] pool5/drop_7x7_s1 -> pool5/7x7_s1 (in-place)
I0906 12:01:15.556311 88016 net.cpp:155] Setting up pool5/drop_7x7_s1
I0906 12:01:15.556321 88016 net.cpp:163] Top shape: 32 1024 1 1 (32768)
I0906 12:01:15.556329 88016 layer_factory.hpp:76] Creating layer loss3/classifier_cub
I0906 12:01:15.556344 88016 net.cpp:110] Creating Layer loss3/classifier_cub
I0906 12:01:15.556351 88016 net.cpp:477] loss3/classifier_cub <- pool5/7x7_s1
I0906 12:01:15.556368 88016 net.cpp:433] loss3/classifier_cub -> loss3/classifier
I0906 12:01:15.572046 88016 net.cpp:155] Setting up loss3/classifier_cub
I0906 12:01:15.572074 88016 net.cpp:163] Top shape: 32 200 (6400)
I0906 12:01:15.572091 88016 layer_factory.hpp:76] Creating layer loss3/loss3
I0906 12:01:15.572111 88016 net.cpp:110] Creating Layer loss3/loss3
I0906 12:01:15.572120 88016 net.cpp:477] loss3/loss3 <- loss3/classifier
I0906 12:01:15.572131 88016 net.cpp:477] loss3/loss3 <- label_data_1_split_2
I0906 12:01:15.572142 88016 net.cpp:433] loss3/loss3 -> loss3/loss3
I0906 12:01:15.572160 88016 layer_factory.hpp:76] Creating layer loss3/loss3
…
I0906 12:01:15.585923 88016 net.cpp:339] The NetState phase (1) differed from the phase (0) specified by a rule in layer data
I0906 12:01:15.588407 88016 net.cpp:50] Initializing net from parameters: 
name: "CUBNet"
state {
  phase: TEST
}
layer {
  name: "data"
  type: "ImageData"
  top: "data"
  top: "label"
  include {
    phase: TEST
  }
  transform_param {
    mirror: false
    crop_size: 224
    mean_value: 104
    mean_value: 117
    mean_value: 123
  }
  image_data_param {
    source: "data/CUB_200_2011/val_files.txt"
    batch_size: 32
    new_height: 256
    new_width: 256
  }
}
layer {
  name: "conv1/7x7_s2"
  type: "Convolution"
  bottom: "data"
  top: "conv1/7x7_s2"
  param {
    lr_mult: 1
    decay_mult: 1
  }
  param {
    lr_mult: 2
    decay_mult: 0
  }
  convolution_param {
    num_output: 64
    pad: 3
    kernel_size: 7
    stride: 2
    weight_filler {
      type: "xavier"
      std: 0.1
    }
    bias_filler {
      type: "constant"
      value: 0.2
    }
  }
}
layer {
  name: "conv1/relu_7x7"
  type: "ReLU"
  bottom: "conv1/7x7_s2"
  top: "conv1/7x7_s2"
}
layer {
  name: "pool1/3x3_s2"
  type: "Pooling"
  bottom: "conv1/7x7_s2"
  top: "pool1/3x3_s2"
  pooling_param {
    pool: MAX
    kernel_size: 3
    stride: 2
  }
}
layer {
  name: "pool1/norm1"
  type: "LRN"
  bottom: "pool1/3x3_s2"
  top: "pool1/norm1"
  lrn_param {
    local_size: 5
    alpha: 0.0001
    beta: 0.75
  }
}
layer {
  name: "conv2/3x3_reduce"
  type: "Convolution"
  bottom: "pool1/norm1"
  top: "conv2/3x3_reduce"
  param {
    lr_mult: 1
    decay_mult: 1
  }
  param {
    lr_mult: 2
    decay_mult: 0
  }
  convolution_param {
    num_output: 64
    kernel_size: 1
    weight_filler {
      type: "xavier"
      std: 0.1
    }
    bias_filler {
      type: "constant"
      value: 0.2
    }
  }
}
layer {
  name: "conv2/relu_3x3_reduce"
  type: "ReLU"
  bottom: "conv2/3x3_reduce"
  top: "conv2/3x3_reduce"
}
layer {
  name: "conv2/3x3"
  type: "Convolution"
  bottom: "conv2/3x3_reduce"
  top: "conv2/3x3"
  param {
    lr_mult: 1
    decay_mult: 1
  }
  param {
    lr_mult: 2
    decay_mult: 0
  }
  convolution_param {
    num_output: 192
    pad: 1
    kernel_size: 3
    weight_filler {
      type: "xavier"
      std: 0.03
    }
    bias_filler {
      type: "constant"
      value: 0.2
    }
  }
}
layer {
  name: "conv2/relu_3x3"
  type: "ReLU"
  bottom: "conv2/3x3"
  top: "conv2/3x3"
}
layer {
  name: "conv2/norm2"
  type: "LRN"
  bottom: "conv2/3x3"
  top: "conv2/norm2"
  lrn_param {
    local_size: 5
    alpha: 0.0001
    beta: 0.75
  }
}
layer {
  name: "pool2/3x3_s2"
  type: "Pooling"
  bottom: "conv2/norm2"
  top: "pool2/3x3_s2"
  pooling_param {
    pool: MAX
    kernel_size: 3
    stride: 2
  }
}
layer {
  name: "inception_3a/1x1"
  type: "Convolution"
  bottom: "pool2/3x3_s2"
  top: "inception_3a/1x1"
  param {
    lr_mult: 1
    decay_mult: 1
  }
  param {
    lr_mult: 2
    decay_mult: 0
  }
  convolution_param {
    num_output: 64
    kernel_size: 1
    weight_filler {
      type: "xavier"
      std: 0.03
    }
    bias_filler {
      type: "constant"
      value: 0.2
    }
  }
}
layer {
  name: "inception_3a/relu_1x1"
  type: "ReLU"
  bottom: "inception_3a/1x1"
  top: "inception_3a/1x1"
}
layer {
  name: "inception_3a/3x3_reduce"
  type: "Convolution"
  bottom: "pool2/3x3_s2"
  top: "inception_3a/3x3_reduce"
  param {
    lr_mult: 1
    decay_mult: 1
  }
  param {
    lr_mult: 2
    decay_mult: 0
  }
  convolution_param {
    num_output: 96
    kernel_size: 1
    weight_filler {
      type: "xavier"
      std: 0.09
    }
    bias_filler {
      type: "constant"
      value: 0.2
    }
  }
}
layer {
  name: "inception_3a/relu_3x3_reduce"
  type: "ReLU"
  bottom: "inception_3a/3x3_reduce"
  top: "inception_3a/3x3_reduce"
}
layer {
  name: "inception_3a/3x3"
  type: "Convolution"
  bottom: "inception_3a/3x3_reduce"
  top: "inception_3a/3x3"
  param {
    lr_mult: 1
    decay_mult: 1
  }
  param {
    lr_mult: 2
    decay_mult: 0
  }
  convolution_param {
    num_output: 128
    pad: 1
    kernel_size: 3
    weight_filler {
      type: "xavier"
      std: 0.03
    }
    bias_filler {
      type: "constant"
      value: 0.2
    }
  }
}
layer {
  name: "inception_3a/relu_3x3"
  type: "ReLU"
  bottom: "inception_3a/3x3"
  top: "inception_3a/3x3"
}
layer {
  name: "inception_3a/5x5_reduce"
  type: "Convolution"
  bottom: "pool2/3x3_s2"
  top: "inception_3a/5x5_reduce"
  param {
    lr_mult: 1
    decay_mult: 1
  }
  param {
    lr_mult: 2
    decay_mult: 0
  }
  convolution_param {
    num_output: 16
    kernel_size: 1
    weight_filler {
      type: "xavier"
      std: 0.2
    }
    bias_filler {
      type: "constant"
      value: 0.2
    }
  }
}
layer {
  name: "inception_3a/relu_5x5_reduce"
  type: "ReLU"
  bottom: "inception_3a/5x5_reduce"
  top: "inception_3a/5x5_reduce"
}
layer {
  name: "inception_3a/5x5"
  type: "Convolution"
  bottom: "inception_3a/5x5_reduce"
  top: "inception_3a/5x5"
  param {
    lr_mult: 1
    decay_mult: 1
  }
  param {
    lr_mult: 2
    decay_mult: 0
  }
  convolution_param {
    num_output: 32
    pad: 2
    kernel_size: 5
    weight_filler {
      type: "xavier"
      std: 0.03
    }
    bias_filler {
      type: "constant"
      value: 0.2
    }
  }
}
layer {
  name: "inception_3a/relu_5x5"
  type: "ReLU"
  bottom: "inception_3a/5x5"
  top: "inception_3a/5x5"
}
layer {
  name: "inception_3a/pool"
  type: "Pooling"
  bottom: "pool2/3x3_s2"
  top: "inception_3a/pool"
  pooling_param {
    pool: MAX
    kernel_size: 3
    stride: 1
    pad: 1
  }
}
layer {
  name: "inception_3a/pool_proj"
  type: "Convolution"
  bottom: "inception_3a/pool"
  top: "inception_3a/pool_proj"
  param {
    lr_mult: 1
    decay_mult: 1
  }
  param {
    lr_mult: 2
    decay_mult: 0
  }
  convolution_param {
    num_output: 32
    kernel_size: 1
    weight_filler {
      type: "xavier"
      std: 0.1
    }
    bias_filler {
      type: "constant"
      value: 0.2
    }
  }
}
layer {
  name: "inception_3a/relu_pool_proj"
  type: "ReLU"
  bottom: "inception_3a/pool_proj"
  top: "inception_3a/pool_proj"
}
layer {
  name: "inception_3a/output"
  type: "Concat"
  bottom: "inception_3a/1x1"
  bottom: "inception_3a/3x3"
  bottom: "inception_3a/5x5"
  bottom: "inception_3a/pool_proj"
  top: "inception_3a/output"
}
layer {
  name: "inception_3b/1x1"
  type: "Convolution"
  bottom: "inception_3a/output"
  top: "inception_3b/1x1"
  param {
    lr_mult: 1
    decay_mult: 1
  }
  param {
    lr_mult: 2
    decay_mult: 0
  }
  convolution_param {
    num_output: 128
    kernel_size: 1
    weight_filler {
      type: "xavier"
      std: 0.03
    }
    bias_filler {
      type: "constant"
      value: 0.2
    }
  }
}
layer {
  name: "inception_3b/relu_1x1"
  type: "ReLU"
  bottom: "inception_3b/1x1"
  top: "inception_3b/1x1"
}
layer {
  name: "inception_3b/3x3_reduce"
  type: "Convolution"
  bottom: "inception_3a/output"
  top: "inception_3b/3x3_reduce"
  param {
    lr_mult: 1
    decay_mult: 1
  }
  param {
    lr_mult: 2
    decay_mult: 0
  }
  convolution_param {
    num_output: 128
    kernel_size: 1
    weight_filler {
      type: "xavier"
      std: 0.09
    }
    bias_filler {
      type: "constant"
      value: 0.2
    }
  }
}
layer {
  name: "inception_3b/relu_3x3_reduce"
  type: "ReLU"
  bottom: "inception_3b/3x3_reduce"
  top: "inception_3b/3x3_reduce"
}
layer {
  name: "inception_3b/3x3"
  type: "Convolution"
  bottom: "inception_3b/3x3_reduce"
  top: "inception_3b/3x3"
  param {
    lr_mult: 1
    decay_mult: 1
  }
  param {
    lr_mult: 2
    decay_mult: 0
  }
  convolution_param {
    num_output: 192
    pad: 1
    kernel_size: 3
    weight_filler {
      type: "xavier"
      std: 0.03
    }
    bias_filler {
      type: "constant"
      value: 0.2
    }
  }
}
layer {
  name: "inception_3b/relu_3x3"
  type: "ReLU"
  bottom: "inception_3b/3x3"
  top: "inception_3b/3x3"
}
layer {
  name: "inception_3b/5x5_reduce"
  type: "Convolution"
  bottom: "inception_3a/output"
  top: "inception_3b/5x5_reduce"
  param {
    lr_mult: 1
    decay_mult: 1
  }
  param {
    lr_mult: 2
    decay_mult: 0
  }
  convolution_param {
    num_output: 32
    kernel_size: 1
    weight_filler {
      type: "xavier"
      std: 0.2
    }
    bias_filler {
      type: "constant"
      value: 0.2
    }
  }
}
layer {
  name: "inception_3b/relu_5x5_reduce"
  type: "ReLU"
  bottom: "inception_3b/5x5_reduce"
  top: "inception_3b/5x5_reduce"
}
layer {
  name: "inception_3b/5x5"
  type: "Convolution"
  bottom: "inception_3b/5x5_reduce"
  top: "inception_3b/5x5"
  param {
    lr_mult: 1
    decay_mult: 1
  }
  param {
    lr_mult: 2
    decay_mult: 0
  }
  convolution_param {
    num_output: 96
    pad: 2
    kernel_size: 5
    weight_filler {
      type: "xavier"
      std: 0.03
    }
    bias_filler {
      type: "constant"
      value: 0.2
    }
  }
}
layer {
  name: "inception_3b/relu_5x5"
  type: "ReLU"
  bottom: "inception_3b/5x5"
  top: "inception_3b/5x5"
}
layer {
  name: "inception_3b/pool"
  type: "Pooling"
  bottom: "inception_3a/output"
  top: "inception_3b/pool"
  pooling_param {
    pool: MAX
    kernel_size: 3
    stride: 1
    pad: 1
  }
}
layer {
  name: "inception_3b/pool_proj"
  type: "Convolution"
  bottom: "inception_3b/pool"
  top: "inception_3b/pool_proj"
  param {
    lr_mult: 1
    decay_mult: 1
  }
  param {
    lr_mult: 2
    decay_mult: 0
  }
  convolution_param {
    num_output: 64
    kernel_size: 1
    weight_filler {
      type: "xavier"
      std: 0.1
    }
    bias_filler {
      type: "constant"
      value: 0.2
    }
  }
}
layer {
  name: "inception_3b/relu_pool_proj"
  type: "ReLU"
  bottom: "inception_3b/pool_proj"
  top: "inception_3b/pool_proj"
}
layer {
  name: "inception_3b/output"
  type: "Concat"
  bottom: "inception_3b/1x1"
  bottom: "inception_3b/3x3"
  bottom: "inception_3b/5x5"
  bottom: "inception_3b/pool_proj"
  top: "inception_3b/output"
}
layer {
  name: "pool3/3x3_s2"
  type: "Pooling"
  bottom: "inception_3b/output"
  top: "pool3/3x3_s2"
  pooling_param {
    pool: MAX
    kernel_size: 3
    stride: 2
  }
}
layer {
  name: "inception_4a/1x1"
  type: "Convolution"
  bottom: "pool3/3x3_s2"
  top: "inception_4a/1x1"
  param {
    lr_mult: 1
    decay_mult: 1
  }
  param {
    lr_mult: 2
    decay_mult: 0
  }
  convolution_param {
    num_output: 192
    kernel_size: 1
    weight_filler {
      type: "xavier"
      std: 0.03
    }
    bias_filler {
      type: "constant"
      value: 0.2
    }
  }
}
layer {
  name: "inception_4a/relu_1x1"
  type: "ReLU"
  bottom: "inception_4a/1x1"
  top: "inception_4a/1x1"
}
layer {
  name: "inception_4a/3x3_reduce"
  type: "Convolution"
  bottom: "pool3/3x3_s2"
  top: "inception_4a/3x3_reduce"
  param {
    lr_mult: 1
    decay_mult: 1
  }
  param {
    lr_mult: 2
    decay_mult: 0
  }
  convolution_param {
    num_output: 96
    kernel_size: 1
    weight_filler {
      type: "xavier"
      std: 0.09
    }
    bias_filler {
      type: "constant"
      value: 0.2
    }
  }
}
layer {
  name: "inception_4a/relu_3x3_reduce"
  type: "ReLU"
  bottom: "inception_4a/3x3_reduce"
  top: "inception_4a/3x3_reduce"
}
layer {
  name: "inception_4a/3x3"
  type: "Convolution"
  bottom: "inception_4a/3x3_reduce"
  top: "inception_4a/3x3"
  param {
    lr_mult: 1
    decay_mult: 1
  }
  param {
    lr_mult: 2
    decay_mult: 0
  }
  convolution_param {
    num_output: 208
    pad: 1
    kernel_size: 3
    weight_filler {
      type: "xavier"
      std: 0.03
    }
    bias_filler {
      type: "constant"
      value: 0.2
    }
  }
}
layer {
  name: "inception_4a/relu_3x3"
  type: "ReLU"
  bottom: "inception_4a/3x3"
  top: "inception_4a/3x3"
}
layer {
  name: "inception_4a/5x5_reduce"
  type: "Convolution"
  bottom: "pool3/3x3_s2"
  top: "inception_4a/5x5_reduce"
  param {
    lr_mult: 1
    decay_mult: 1
  }
  param {
    lr_mult: 2
    decay_mult: 0
  }
  convolution_param {
    num_output: 16
    kernel_size: 1
    weight_filler {
      type: "xavier"
      std: 0.2
    }
    bias_filler {
      type: "constant"
      value: 0.2
    }
  }
}
layer {
  name: "inception_4a/relu_5x5_reduce"
  type: "ReLU"
  bottom: "inception_4a/5x5_reduce"
  top: "inception_4a/5x5_reduce"
}
layer {
  name: "inception_4a/5x5"
  type: "Convolution"
  bottom: "inception_4a/5x5_reduce"
  top: "inception_4a/5x5"
  param {
    lr_mult: 1
    decay_mult: 1
  }
  param {
    lr_mult: 2
    decay_mult: 0
  }
  convolution_param {
    num_output: 48
    pad: 2
    kernel_size: 5
    weight_filler {
      type: "xavier"
      std: 0.03
    }
    bias_filler {
      type: "constant"
      value: 0.2
    }
  }
}
layer {
  name: "inception_4a/relu_5x5"
  type: "ReLU"
  bottom: "inception_4a/5x5"
  top: "inception_4a/5x5"
}
layer {
  name: "inception_4a/pool"
  type: "Pooling"
  bottom: "pool3/3x3_s2"
  top: "inception_4a/pool"
  pooling_param {
    pool: MAX
    kernel_size: 3
    stride: 1
    pad: 1
  }
}
layer {
  name: "inception_4a/pool_proj"
  type: "Convolution"
  bottom: "inception_4a/pool"
  top: "inception_4a/pool_proj"
  param {
    lr_mult: 1
    decay_mult: 1
  }
  param {
    lr_mult: 2
    decay_mult: 0
  }
  convolution_param {
    num_output: 64
    kernel_size: 1
    weight_filler {
      type: "xavier"
      std: 0.1
    }
    bias_filler {
      type: "constant"
      value: 0.2
    }
  }
}
layer {
  name: "inception_4a/relu_pool_proj"
  type: "ReLU"
  bottom: "inception_4a/pool_proj"
  top: "inception_4a/pool_proj"
}
layer {
  name: "inception_4a/output"
  type: "Concat"
  bottom: "inception_4a/1x1"
  bottom: "inception_4a/3x3"
  bottom: "inception_4a/5x5"
  bottom: "inception_4a/pool_proj"
  top: "inception_4a/output"
}
layer {
  name: "loss1/ave_pool"
  type: "Pooling"
  bottom: "inception_4a/output"
  top: "loss1/ave_pool"
  pooling_param {
    pool: AVE
    kernel_size: 5
    stride: 3
  }
}
layer {
  name: "loss1/conv"
  type: "Convolution"
  bottom: "loss1/ave_pool"
  top: "loss1/conv"
  param {
    lr_mult: 1
    decay_mult: 1
  }
  param {
    lr_mult: 2
    decay_mult: 0
  }
  convolution_param {
    num_output: 128
    kernel_size: 1
    weight_filler {
      type: "xavier"
      std: 0.08
    }
    bias_filler {
      type: "constant"
      value: 0.2
    }
  }
}
layer {
  name: "loss1/relu_conv"
  type: "ReLU"
  bottom: "loss1/conv"
  top: "loss1/conv"
}
layer {
  name: "loss1/fc"
  type: "InnerProduct"
  bottom: "loss1/conv"
  top: "loss1/fc"
  param {
    lr_mult: 1
    decay_mult: 1
  }
  param {
    lr_mult: 2
    decay_mult: 0
  }
  inner_product_param {
    num_output: 1024
    weight_filler {
      type: "xavier"
      std: 0.02
    }
    bias_filler {
      type: "constant"
      value: 0.2
    }
  }
}
layer {
  name: "loss1/relu_fc"
  type: "ReLU"
  bottom: "loss1/fc"
  top: "loss1/fc"
}
layer {
  name: "loss1/drop_fc"
  type: "Dropout"
  bottom: "loss1/fc"
  top: "loss1/fc"
  dropout_param {
    dropout_ratio: 0.7
  }
}
layer {
  name: "loss1/classifier_cub"
  type: "InnerProduct"
  bottom: "loss1/fc"
  top: "loss1/classifier"
  param {
    lr_mult: 1
    decay_mult: 1
  }
  param {
    lr_mult: 2
    decay_mult: 0
  }
  inner_product_param {
    num_output: 200
    weight_filler {
      type: "gaussian"
      std: 1e-05
    }
    bias_filler {
      type: "constant"
      value: 0
    }
  }
}
layer {
  name: "loss1/loss"
  type: "SoftmaxWithLoss"
  bottom: "loss1/classifier"
  bottom: "label"
  top: "loss1/loss1"
  loss_weight: 0.3
}
layer {
  name: "loss1/top-1"
  type: "Accuracy"
  bottom: "loss1/classifier"
  bottom: "label"
  top: "loss1/top-1"
  include {
    phase: TEST
  }
}
layer {
  name: "loss1/top-5"
  type: "Accuracy"
  bottom: "loss1/classifier"
  bottom: "label"
  top: "loss1/top-5"
  include {
    phase: TEST
  }
  accuracy_param {
    top_k: 5
  }
}
layer {
  name: "inception_4b/1x1"
  type: "Convolution"
  bottom: "inception_4a/output"
  top: "inception_4b/1x1"
  param {
    lr_mult: 1
    decay_mult: 1
  }
  param {
    lr_mult: 2
    decay_mult: 0
  }
  convolution_param {
    num_output: 160
    kernel_size: 1
    weight_filler {
      type: "xavier"
      std: 0.03
    }
    bias_filler {
      type: "constant"
      value: 0.2
    }
  }
}
layer {
  name: "inception_4b/relu_1x1"
  type: "ReLU"
  bottom: "inception_4b/1x1"
  top: "inception_4b/1x1"
}
layer {
  name: "inception_4b/3x3_reduce"
  type: "Convolution"
  bottom: "inception_4a/output"
  top: "inception_4b/3x3_reduce"
  param {
    lr_mult: 1
    decay_mult: 1
  }
  param {
    lr_mult: 2
    decay_mult: 0
  }
  convolution_param {
    num_output: 112
    kernel_size: 1
    weight_filler {
      type: "xavier"
      std: 0.09
    }
    bias_filler {
      type: "constant"
      value: 0.2
    }
  }
}
layer {
  name: "inception_4b/relu_3x3_reduce"
  type: "ReLU"
  bottom: "inception_4b/3x3_reduce"
  top: "inception_4b/3x3_reduce"
}
layer {
  name: "inception_4b/3x3"
  type: "Convolution"
  bottom: "inception_4b/3x3_reduce"
  top: "inception_4b/3x3"
  param {
    lr_mult: 1
    decay_mult: 1
  }
  param {
    lr_mult: 2
    decay_mult: 0
  }
  convolution_param {
    num_output: 224
    pad: 1
    kernel_size: 3
    weight_filler {
      type: "xavier"
      std: 0.03
    }
    bias_filler {
      type: "constant"
      value: 0.2
    }
  }
}
layer {
  name: "inception_4b/relu_3x3"
  type: "ReLU"
  bottom: "inception_4b/3x3"
  top: "inception_4b/3x3"
}
layer {
  name: "inception_4b/5x5_reduce"
  type: "Convolution"
  bottom: "inception_4a/output"
  top: "inception_4b/5x5_reduce"
  param {
    lr_mult: 1
    decay_mult: 1
  }
  param {
    lr_mult: 2
    decay_mult: 0
  }
  convolution_param {
    num_output: 24
    kernel_size: 1
    weight_filler {
      type: "xavier"
      std: 0.2
    }
    bias_filler {
      type: "constant"
      value: 0.2
    }
  }
}
layer {
  name: "inception_4b/relu_5x5_reduce"
  type: "ReLU"
  bottom: "inception_4b/5x5_reduce"
  top: "inception_4b/5x5_reduce"
}
layer {
  name: "inception_4b/5x5"
  type: "Convolution"
  bottom: "inception_4b/5x5_reduce"
  top: "inception_4b/5x5"
  param {
    lr_mult: 1
    decay_mult: 1
  }
  param {
    lr_mult: 2
    decay_mult: 0
  }
  convolution_param {
    num_output: 64
    pad: 2
    kernel_size: 5
    weight_filler {
      type: "xavier"
      std: 0.03
    }
    bias_filler {
      type: "constant"
      value: 0.2
    }
  }
}
layer {
  name: "inception_4b/relu_5x5"
  type: "ReLU"
  bottom: "inception_4b/5x5"
  top: "inception_4b/5x5"
}
layer {
  name: "inception_4b/pool"
  type: "Pooling"
  bottom: "inception_4a/output"
  top: "inception_4b/pool"
  pooling_param {
    pool: MAX
    kernel_size: 3
    stride: 1
    pad: 1
  }
}
layer {
  name: "inception_4b/pool_proj"
  type: "Convolution"
  bottom: "inception_4b/pool"
  top: "inception_4b/pool_proj"
  param {
    lr_mult: 1
    decay_mult: 1
  }
  param {
    lr_mult: 2
    decay_mult: 0
  }
  convolution_param {
    num_output: 64
    kernel_size: 1
    weight_filler {
      type: "xavier"
      std: 0.1
    }
    bias_filler {
      type: "constant"
      value: 0.2
    }
  }
}
layer {
  name: "inception_4b/relu_pool_proj"
  type: "ReLU"
  bottom: "inception_4b/pool_proj"
  top: "inception_4b/pool_proj"
}
layer {
  name: "inception_4b/output"
  type: "Concat"
  bottom: "inception_4b/1x1"
  bottom: "inception_4b/3x3"
  bottom: "inception_4b/5x5"
  bottom: "inception_4b/pool_proj"
  top: "inception_4b/output"
}
layer {
  name: "inception_4c/1x1"
  type: "Convolution"
  bottom: "inception_4b/output"
  top: "inception_4c/1x1"
  param {
    lr_mult: 1
    decay_mult: 1
  }
  param {
    lr_mult: 2
    decay_mult: 0
  }
  convolution_param {
    num_output: 128
    kernel_size: 1
    weight_filler {
      type: "xavier"
      std: 0.03
    }
    bias_filler {
      type: "constant"
      value: 0.2
    }
  }
}
layer {
  name: "inception_4c/relu_1x1"
  type: "ReLU"
  bottom: "inception_4c/1x1"
  top: "inception_4c/1x1"
}
layer {
  name: "inception_4c/3x3_reduce"
  type: "Convolution"
  bottom: "inception_4b/output"
  top: "inception_4c/3x3_reduce"
  param {
    lr_mult: 1
    decay_mult: 1
  }
  param {
    lr_mult: 2
    decay_mult: 0
  }
  convolution_param {
    num_output: 128
    kernel_size: 1
    weight_filler {
      type: "xavier"
      std: 0.09
    }
    bias_filler {
      type: "constant"
      value: 0.2
    }
  }
}
layer {
  name: "inception_4c/relu_3x3_reduce"
  type: "ReLU"
  bottom: "inception_4c/3x3_reduce"
  top: "inception_4c/3x3_reduce"
}
layer {
  name: "inception_4c/3x3"
  type: "Convolution"
  bottom: "inception_4c/3x3_reduce"
  top: "inception_4c/3x3"
  param {
    lr_mult: 1
    decay_mult: 1
  }
  param {
    lr_mult: 2
    decay_mult: 0
  }
  convolution_param {
    num_output: 256
    pad: 1
    kernel_size: 3
    weight_filler {
      type: "xavier"
      std: 0.03
    }
    bias_filler {
      type: "constant"
      value: 0.2
    }
  }
}
layer {
  name: "inception_4c/relu_3x3"
  type: "ReLU"
  bottom: "inception_4c/3x3"
  top: "inception_4c/3x3"
}
layer {
  name: "inception_4c/5x5_reduce"
  type: "Convolution"
  bottom: "inception_4b/output"
  top: "inception_4c/5x5_reduce"
  param {
    lr_mult: 1
    decay_mult: 1
  }
  param {
    lr_mult: 2
    decay_mult: 0
  }
  convolution_param {
    num_output: 24
    kernel_size: 1
    weight_filler {
      type: "xavier"
      std: 0.2
    }
    bias_filler {
      type: "constant"
      value: 0.2
    }
  }
}
layer {
  name: "inception_4c/relu_5x5_reduce"
  type: "ReLU"
  bottom: "inception_4c/5x5_reduce"
  top: "inception_4c/5x5_reduce"
}
layer {
  name: "inception_4c/5x5"
  type: "Convolution"
  bottom: "inception_4c/5x5_reduce"
  top: "inception_4c/5x5"
  param {
    lr_mult: 1
    decay_mult: 1
  }
  param {
    lr_mult: 2
    decay_mult: 0
  }
  convolution_param {
    num_output: 64
    pad: 2
    kernel_size: 5
    weight_filler {
      type: "xavier"
      std: 0.03
    }
    bias_filler {
      type: "constant"
      value: 0.2
    }
  }
}
layer {
  name: "inception_4c/relu_5x5"
  type: "ReLU"
  bottom: "inception_4c/5x5"
  top: "inception_4c/5x5"
}
layer {
  name: "inception_4c/pool"
  type: "Pooling"
  bottom: "inception_4b/output"
  top: "inception_4c/pool"
  pooling_param {
    pool: MAX
    kernel_size: 3
    stride: 1
    pad: 1
  }
}
layer {
  name: "inception_4c/pool_proj"
  type: "Convolution"
  bottom: "inception_4c/pool"
  top: "inception_4c/pool_proj"
  param {
    lr_mult: 1
    decay_mult: 1
  }
  param {
    lr_mult: 2
    decay_mult: 0
  }
  convolution_param {
    num_output: 64
    kernel_size: 1
    weight_filler {
      type: "xavier"
      std: 0.1
    }
    bias_filler {
      type: "constant"
      value: 0.2
    }
  }
}
layer {
  name: "inception_4c/relu_pool_proj"
  type: "ReLU"
  bottom: "inception_4c/pool_proj"
  top: "inception_4c/pool_proj"
}
layer {
  name: "inception_4c/output"
  type: "Concat"
  bottom: "inception_4c/1x1"
  bottom: "inception_4c/3x3"
  bottom: "inception_4c/5x5"
  bottom: "inception_4c/pool_proj"
  top: "inception_4c/output"
}
layer {
  name: "inception_4d/1x1"
  type: "Convolution"
  bottom: "inception_4c/output"
  top: "inception_4d/1x1"
  param {
    lr_mult: 1
    decay_mult: 1
  }
  param {
    lr_mult: 2
    decay_mult: 0
  }
  convolution_param {
    num_output: 112
    kernel_size: 1
    weight_filler {
      type: "xavier"
      std: 0.03
    }
    bias_filler {
      type: "constant"
      value: 0.2
    }
  }
}
layer {
  name: "inception_4d/relu_1x1"
  type: "ReLU"
  bottom: "inception_4d/1x1"
  top: "inception_4d/1x1"
}
layer {
  name: "inception_4d/3x3_reduce"
  type: "Convolution"
  bottom: "inception_4c/output"
  top: "inception_4d/3x3_reduce"
  param {
    lr_mult: 1
    decay_mult: 1
  }
  param {
    lr_mult: 2
    decay_mult: 0
  }
  convolution_param {
    num_output: 144
    kernel_size: 1
    weight_filler {
      type: "xavier"
      std: 0.09
    }
    bias_filler {
      type: "constant"
      value: 0.2
    }
  }
}
layer {
  name: "inception_4d/relu_3x3_reduce"
  type: "ReLU"
  bottom: "inception_4d/3x3_reduce"
  top: "inception_4d/3x3_reduce"
}
layer {
  name: "inception_4d/3x3"
  type: "Convolution"
  bottom: "inception_4d/3x3_reduce"
  top: "inception_4d/3x3"
  param {
    lr_mult: 1
    decay_mult: 1
  }
  param {
    lr_mult: 2
    decay_mult: 0
  }
  convolution_param {
    num_output: 288
    pad: 1
    kernel_size: 3
    weight_filler {
      type: "xavier"
      std: 0.03
    }
    bias_filler {
      type: "constant"
      value: 0.2
    }
  }
}
layer {
  name: "inception_4d/relu_3x3"
  type: "ReLU"
  bottom: "inception_4d/3x3"
  top: "inception_4d/3x3"
}
layer {
  name: "inception_4d/5x5_reduce"
  type: "Convolution"
  bottom: "inception_4c/output"
  top: "inception_4d/5x5_reduce"
  param {
    lr_mult: 1
    decay_mult: 1
  }
  param {
    lr_mult: 2
    decay_mult: 0
  }
  convolution_param {
    num_output: 32
    kernel_size: 1
    weight_filler {
      type: "xavier"
      std: 0.2
    }
    bias_filler {
      type: "constant"
      value: 0.2
    }
  }
}
layer {
  name: "inception_4d/relu_5x5_reduce"
  type: "ReLU"
  bottom: "inception_4d/5x5_reduce"
  top: "inception_4d/5x5_reduce"
}
layer {
  name: "inception_4d/5x5"
  type: "Convolution"
  bottom: "inception_4d/5x5_reduce"
  top: "inception_4d/5x5"
  param {
    lr_mult: 1
    decay_mult: 1
  }
  param {
    lr_mult: 2
    decay_mult: 0
  }
  convolution_param {
    num_output: 64
    pad: 2
    kernel_size: 5
    weight_filler {
      type: "xavier"
      std: 0.03
    }
    bias_filler {
      type: "constant"
      value: 0.2
    }
  }
}
layer {
  name: "inception_4d/relu_5x5"
  type: "ReLU"
  bottom: "inception_4d/5x5"
  top: "inception_4d/5x5"
}
layer {
  name: "inception_4d/pool"
  type: "Pooling"
  bottom: "inception_4c/output"
  top: "inception_4d/pool"
  pooling_param {
    pool: MAX
    kernel_size: 3
    stride: 1
    pad: 1
  }
}
layer {
  name: "inception_4d/pool_proj"
  type: "Convolution"
  bottom: "inception_4d/pool"
  top: "inception_4d/pool_proj"
  param {
    lr_mult: 1
    decay_mult: 1
  }
  param {
    lr_mult: 2
    decay_mult: 0
  }
  convolution_param {
    num_output: 64
    kernel_size: 1
    weight_filler {
      type: "xavier"
      std: 0.1
    }
    bias_filler {
      type: "constant"
      value: 0.2
    }
  }
}
layer {
  name: "inception_4d/relu_pool_proj"
  type: "ReLU"
  bottom: "inception_4d/pool_proj"
  top: "inception_4d/pool_proj"
}
layer {
  name: "inception_4d/output"
  type: "Concat"
  bottom: "inception_4d/1x1"
  bottom: "inception_4d/3x3"
  bottom: "inception_4d/5x5"
  bottom: "inception_4d/pool_proj"
  top: "inception_4d/output"
}
layer {
  name: "loss2/ave_pool"
  type: "Pooling"
  bottom: "inception_4d/output"
  top: "loss2/ave_pool"
  pooling_param {
    pool: AVE
    kernel_size: 5
    stride: 3
  }
}
layer {
  name: "loss2/conv"
  type: "Convolution"
  bottom: "loss2/ave_pool"
  top: "loss2/conv"
  param {
    lr_mult: 1
    decay_mult: 1
  }
  param {
    lr_mult: 2
    decay_mult: 0
  }
  convolution_param {
    num_output: 128
    kernel_size: 1
    weight_filler {
      type: "xavier"
      std: 0.08
    }
    bias_filler {
      type: "constant"
      value: 0.2
    }
  }
}
layer {
  name: "loss2/relu_conv"
  type: "ReLU"
  bottom: "loss2/conv"
  top: "loss2/conv"
}
layer {
  name: "loss2/fc"
  type: "InnerProduct"
  bottom: "loss2/conv"
  top: "loss2/fc"
  param {
…
I0906 12:01:15.776103 88016 net.cpp:433] inception_4b/output_inception_4b/output_0_split -> inception_4b/output_inception_4b/output_0_split_1
I0906 12:01:15.776116 88016 net.cpp:433] inception_4b/output_inception_4b/output_0_split -> inception_4b/output_inception_4b/output_0_split_2
I0906 12:01:15.776129 88016 net.cpp:433] inception_4b/output_inception_4b/output_0_split -> inception_4b/output_inception_4b/output_0_split_3
I0906 12:01:15.776144 88016 net.cpp:155] Setting up inception_4b/output_inception_4b/output_0_split
I0906 12:01:15.776173 88016 net.cpp:163] Top shape: 32 512 14 14 (3211264)
I0906 12:01:15.776181 88016 net.cpp:163] Top shape: 32 512 14 14 (3211264)
I0906 12:01:15.776190 88016 net.cpp:163] Top shape: 32 512 14 14 (3211264)
I0906 12:01:15.776198 88016 net.cpp:163] Top shape: 32 512 14 14 (3211264)
I0906 12:01:15.776206 88016 layer_factory.hpp:76] Creating layer inception_4c/1x1
I0906 12:01:15.776219 88016 net.cpp:110] Creating Layer inception_4c/1x1
I0906 12:01:15.776226 88016 net.cpp:477] inception_4c/1x1 <- inception_4b/output_inception_4b/output_0_split_0
I0906 12:01:15.776238 88016 net.cpp:433] inception_4c/1x1 -> inception_4c/1x1
I0906 12:01:15.777380 88016 net.cpp:155] Setting up inception_4c/1x1
I0906 12:01:15.777398 88016 net.cpp:163] Top shape: 32 128 14 14 (802816)
I0906 12:01:15.777411 88016 layer_factory.hpp:76] Creating layer inception_4c/relu_1x1
I0906 12:01:15.777422 88016 net.cpp:110] Creating Layer inception_4c/relu_1x1
I0906 12:01:15.777431 88016 net.cpp:477] inception_4c/relu_1x1 <- inception_4c/1x1
I0906 12:01:15.777441 88016 net.cpp:419] inception_4c/relu_1x1 -> inception_4c/1x1 (in-place)
I0906 12:01:15.777452 88016 net.cpp:155] Setting up inception_4c/relu_1x1
I0906 12:01:15.777462 88016 net.cpp:163] Top shape: 32 128 14 14 (802816)
I0906 12:01:15.777468 88016 layer_factory.hpp:76] Creating layer inception_4c/3x3_reduce
I0906 12:01:15.777482 88016 net.cpp:110] Creating Layer inception_4c/3x3_reduce
I0906 12:01:15.777487 88016 net.cpp:477] inception_4c/3x3_reduce <- inception_4b/output_inception_4b/output_0_split_1
I0906 12:01:15.777500 88016 net.cpp:433] inception_4c/3x3_reduce -> inception_4c/3x3_reduce
I0906 12:01:15.779649 88016 net.cpp:155] Setting up inception_4c/3x3_reduce
I0906 12:01:15.779688 88016 net.cpp:163] Top shape: 32 128 14 14 (802816)
I0906 12:01:15.779706 88016 layer_factory.hpp:76] Creating layer inception_4c/relu_3x3_reduce
I0906 12:01:15.779718 88016 net.cpp:110] Creating Layer inception_4c/relu_3x3_reduce
I0906 12:01:15.779727 88016 net.cpp:477] inception_4c/relu_3x3_reduce <- inception_4c/3x3_reduce
I0906 12:01:15.779739 88016 net.cpp:419] inception_4c/relu_3x3_reduce -> inception_4c/3x3_reduce (in-place)
I0906 12:01:15.779753 88016 net.cpp:155] Setting up inception_4c/relu_3x3_reduce
I0906 12:01:15.779762 88016 net.cpp:163] Top shape: 32 128 14 14 (802816)
I0906 12:01:15.779768 88016 layer_factory.hpp:76] Creating layer inception_4c/3x3
I0906 12:01:15.779783 88016 net.cpp:110] Creating Layer inception_4c/3x3
I0906 12:01:15.779789 88016 net.cpp:477] inception_4c/3x3 <- inception_4c/3x3_reduce
I0906 12:01:15.779801 88016 net.cpp:433] inception_4c/3x3 -> inception_4c/3x3
I0906 12:01:15.785642 88016 net.cpp:155] Setting up inception_4c/3x3
I0906 12:01:15.785702 88016 net.cpp:163] Top shape: 32 256 14 14 (1605632)
I0906 12:01:15.785742 88016 layer_factory.hpp:76] Creating layer inception_4c/relu_3x3
I0906 12:01:15.785758 88016 net.cpp:110] Creating Layer inception_4c/relu_3x3
I0906 12:01:15.785765 88016 net.cpp:477] inception_4c/relu_3x3 <- inception_4c/3x3
I0906 12:01:15.785778 88016 net.cpp:419] inception_4c/relu_3x3 -> inception_4c/3x3 (in-place)
I0906 12:01:15.785791 88016 net.cpp:155] Setting up inception_4c/relu_3x3
I0906 12:01:15.785800 88016 net.cpp:163] Top shape: 32 256 14 14 (1605632)
I0906 12:01:15.785809 88016 layer_factory.hpp:76] Creating layer inception_4c/5x5_reduce
I0906 12:01:15.785822 88016 net.cpp:110] Creating Layer inception_4c/5x5_reduce
I0906 12:01:15.785830 88016 net.cpp:477] inception_4c/5x5_reduce <- inception_4b/output_inception_4b/output_0_split_2
I0906 12:01:15.785843 88016 net.cpp:433] inception_4c/5x5_reduce -> inception_4c/5x5_reduce
I0906 12:01:15.786159 88016 net.cpp:155] Setting up inception_4c/5x5_reduce
I0906 12:01:15.786178 88016 net.cpp:163] Top shape: 32 24 14 14 (150528)
I0906 12:01:15.786191 88016 layer_factory.hpp:76] Creating layer inception_4c/relu_5x5_reduce
I0906 12:01:15.786202 88016 net.cpp:110] Creating Layer inception_4c/relu_5x5_reduce
I0906 12:01:15.786211 88016 net.cpp:477] inception_4c/relu_5x5_reduce <- inception_4c/5x5_reduce
I0906 12:01:15.786221 88016 net.cpp:419] inception_4c/relu_5x5_reduce -> inception_4c/5x5_reduce (in-place)
I0906 12:01:15.786234 88016 net.cpp:155] Setting up inception_4c/relu_5x5_reduce
I0906 12:01:15.786243 88016 net.cpp:163] Top shape: 32 24 14 14 (150528)
I0906 12:01:15.786249 88016 layer_factory.hpp:76] Creating layer inception_4c/5x5
I0906 12:01:15.786263 88016 net.cpp:110] Creating Layer inception_4c/5x5
I0906 12:01:15.786269 88016 net.cpp:477] inception_4c/5x5 <- inception_4c/5x5_reduce
I0906 12:01:15.786281 88016 net.cpp:433] inception_4c/5x5 -> inception_4c/5x5
I0906 12:01:15.786996 88016 net.cpp:155] Setting up inception_4c/5x5
I0906 12:01:15.787014 88016 net.cpp:163] Top shape: 32 64 14 14 (401408)
I0906 12:01:15.787026 88016 layer_factory.hpp:76] Creating layer inception_4c/relu_5x5
I0906 12:01:15.787037 88016 net.cpp:110] Creating Layer inception_4c/relu_5x5
I0906 12:01:15.787045 88016 net.cpp:477] inception_4c/relu_5x5 <- inception_4c/5x5
I0906 12:01:15.787056 88016 net.cpp:419] inception_4c/relu_5x5 -> inception_4c/5x5 (in-place)
I0906 12:01:15.787067 88016 net.cpp:155] Setting up inception_4c/relu_5x5
I0906 12:01:15.787076 88016 net.cpp:163] Top shape: 32 64 14 14 (401408)
I0906 12:01:15.787083 88016 layer_factory.hpp:76] Creating layer inception_4c/pool
I0906 12:01:15.787096 88016 net.cpp:110] Creating Layer inception_4c/pool
I0906 12:01:15.787103 88016 net.cpp:477] inception_4c/pool <- inception_4b/output_inception_4b/output_0_split_3
I0906 12:01:15.787116 88016 net.cpp:433] inception_4c/pool -> inception_4c/pool
I0906 12:01:15.787132 88016 net.cpp:155] Setting up inception_4c/pool
I0906 12:01:15.787140 88016 net.cpp:163] Top shape: 32 512 14 14 (3211264)
I0906 12:01:15.787147 88016 layer_factory.hpp:76] Creating layer inception_4c/pool_proj
I0906 12:01:15.787160 88016 net.cpp:110] Creating Layer inception_4c/pool_proj
I0906 12:01:15.787168 88016 net.cpp:477] inception_4c/pool_proj <- inception_4c/pool
I0906 12:01:15.787180 88016 net.cpp:433] inception_4c/pool_proj -> inception_4c/pool_proj
I0906 12:01:15.787818 88016 net.cpp:155] Setting up inception_4c/pool_proj
I0906 12:01:15.787838 88016 net.cpp:163] Top shape: 32 64 14 14 (401408)
I0906 12:01:15.787850 88016 layer_factory.hpp:76] Creating layer inception_4c/relu_pool_proj
I0906 12:01:15.787863 88016 net.cpp:110] Creating Layer inception_4c/relu_pool_proj
I0906 12:01:15.787870 88016 net.cpp:477] inception_4c/relu_pool_proj <- inception_4c/pool_proj
I0906 12:01:15.787881 88016 net.cpp:419] inception_4c/relu_pool_proj -> inception_4c/pool_proj (in-place)
I0906 12:01:15.787894 88016 net.cpp:155] Setting up inception_4c/relu_pool_proj
I0906 12:01:15.787901 88016 net.cpp:163] Top shape: 32 64 14 14 (401408)
I0906 12:01:15.787928 88016 layer_factory.hpp:76] Creating layer inception_4c/output
I0906 12:01:15.787942 88016 net.cpp:110] Creating Layer inception_4c/output
I0906 12:01:15.787950 88016 net.cpp:477] inception_4c/output <- inception_4c/1x1
I0906 12:01:15.787961 88016 net.cpp:477] inception_4c/output <- inception_4c/3x3
I0906 12:01:15.787969 88016 net.cpp:477] inception_4c/output <- inception_4c/5x5
I0906 12:01:15.787977 88016 net.cpp:477] inception_4c/output <- inception_4c/pool_proj
I0906 12:01:15.787988 88016 net.cpp:433] inception_4c/output -> inception_4c/output
I0906 12:01:15.788003 88016 net.cpp:155] Setting up inception_4c/output
I0906 12:01:15.788012 88016 net.cpp:163] Top shape: 32 512 14 14 (3211264)
I0906 12:01:15.788019 88016 layer_factory.hpp:76] Creating layer inception_4c/output_inception_4c/output_0_split
I0906 12:01:15.788031 88016 net.cpp:110] Creating Layer inception_4c/output_inception_4c/output_0_split
I0906 12:01:15.788039 88016 net.cpp:477] inception_4c/output_inception_4c/output_0_split <- inception_4c/output
I0906 12:01:15.788051 88016 net.cpp:433] inception_4c/output_inception_4c/output_0_split -> inception_4c/output_inception_4c/output_0_split_0
I0906 12:01:15.788064 88016 net.cpp:433] inception_4c/output_inception_4c/output_0_split -> inception_4c/output_inception_4c/output_0_split_1
I0906 12:01:15.788077 88016 net.cpp:433] inception_4c/output_inception_4c/output_0_split -> inception_4c/output_inception_4c/output_0_split_2
I0906 12:01:15.788090 88016 net.cpp:433] inception_4c/output_inception_4c/output_0_split -> inception_4c/output_inception_4c/output_0_split_3
I0906 12:01:15.788103 88016 net.cpp:155] Setting up inception_4c/output_inception_4c/output_0_split
I0906 12:01:15.788112 88016 net.cpp:163] Top shape: 32 512 14 14 (3211264)
I0906 12:01:15.788120 88016 net.cpp:163] Top shape: 32 512 14 14 (3211264)
I0906 12:01:15.788128 88016 net.cpp:163] Top shape: 32 512 14 14 (3211264)
I0906 12:01:15.788136 88016 net.cpp:163] Top shape: 32 512 14 14 (3211264)
I0906 12:01:15.788142 88016 layer_factory.hpp:76] Creating layer inception_4d/1x1
I0906 12:01:15.788156 88016 net.cpp:110] Creating Layer inception_4d/1x1
I0906 12:01:15.788163 88016 net.cpp:477] inception_4d/1x1 <- inception_4c/output_inception_4c/output_0_split_0
I0906 12:01:15.788177 88016 net.cpp:433] inception_4d/1x1 -> inception_4d/1x1
I0906 12:01:15.789211 88016 net.cpp:155] Setting up inception_4d/1x1
I0906 12:01:15.789229 88016 net.cpp:163] Top shape: 32 112 14 14 (702464)
I0906 12:01:15.789242 88016 layer_factory.hpp:76] Creating layer inception_4d/relu_1x1
I0906 12:01:15.789252 88016 net.cpp:110] Creating Layer inception_4d/relu_1x1
I0906 12:01:15.789260 88016 net.cpp:477] inception_4d/relu_1x1 <- inception_4d/1x1
I0906 12:01:15.789271 88016 net.cpp:419] inception_4d/relu_1x1 -> inception_4d/1x1 (in-place)
I0906 12:01:15.789283 88016 net.cpp:155] Setting up inception_4d/relu_1x1
I0906 12:01:15.789293 88016 net.cpp:163] Top shape: 32 112 14 14 (702464)
I0906 12:01:15.789299 88016 layer_factory.hpp:76] Creating layer inception_4d/3x3_reduce
I0906 12:01:15.789312 88016 net.cpp:110] Creating Layer inception_4d/3x3_reduce
I0906 12:01:15.789319 88016 net.cpp:477] inception_4d/3x3_reduce <- inception_4c/output_inception_4c/output_0_split_1
I0906 12:01:15.789331 88016 net.cpp:433] inception_4d/3x3_reduce -> inception_4d/3x3_reduce
I0906 12:01:15.790617 88016 net.cpp:155] Setting up inception_4d/3x3_reduce
I0906 12:01:15.790635 88016 net.cpp:163] Top shape: 32 144 14 14 (903168)
I0906 12:01:15.790647 88016 layer_factory.hpp:76] Creating layer inception_4d/relu_3x3_reduce
I0906 12:01:15.790658 88016 net.cpp:110] Creating Layer inception_4d/relu_3x3_reduce
I0906 12:01:15.790666 88016 net.cpp:477] inception_4d/relu_3x3_reduce <- inception_4d/3x3_reduce
I0906 12:01:15.790678 88016 net.cpp:419] inception_4d/relu_3x3_reduce -> inception_4d/3x3_reduce (in-place)
I0906 12:01:15.790690 88016 net.cpp:155] Setting up inception_4d/relu_3x3_reduce
I0906 12:01:15.790699 88016 net.cpp:163] Top shape: 32 144 14 14 (903168)
I0906 12:01:15.790705 88016 layer_factory.hpp:76] Creating layer inception_4d/3x3
I0906 12:01:15.790737 88016 net.cpp:110] Creating Layer inception_4d/3x3
I0906 12:01:15.790745 88016 net.cpp:477] inception_4d/3x3 <- inception_4d/3x3_reduce
I0906 12:01:15.790757 88016 net.cpp:433] inception_4d/3x3 -> inception_4d/3x3
I0906 12:01:15.798137 88016 net.cpp:155] Setting up inception_4d/3x3
I0906 12:01:15.798166 88016 net.cpp:163] Top shape: 32 288 14 14 (1806336)
I0906 12:01:15.798182 88016 layer_factory.hpp:76] Creating layer inception_4d/relu_3x3
I0906 12:01:15.798195 88016 net.cpp:110] Creating Layer inception_4d/relu_3x3
I0906 12:01:15.798204 88016 net.cpp:477] inception_4d/relu_3x3 <- inception_4d/3x3
I0906 12:01:15.798216 88016 net.cpp:419] inception_4d/relu_3x3 -> inception_4d/3x3 (in-place)
I0906 12:01:15.798229 88016 net.cpp:155] Setting up inception_4d/relu_3x3
I0906 12:01:15.798238 88016 net.cpp:163] Top shape: 32 288 14 14 (1806336)
I0906 12:01:15.798245 88016 layer_factory.hpp:76] Creating layer inception_4d/5x5_reduce
I0906 12:01:15.798260 88016 net.cpp:110] Creating Layer inception_4d/5x5_reduce
I0906 12:01:15.798267 88016 net.cpp:477] inception_4d/5x5_reduce <- inception_4c/output_inception_4c/output_0_split_2
I0906 12:01:15.798280 88016 net.cpp:433] inception_4d/5x5_reduce -> inception_4d/5x5_reduce
I0906 12:01:15.799717 88016 net.cpp:155] Setting up inception_4d/5x5_reduce
I0906 12:01:15.799746 88016 net.cpp:163] Top shape: 32 32 14 14 (200704)
I0906 12:01:15.799760 88016 layer_factory.hpp:76] Creating layer inception_4d/relu_5x5_reduce
I0906 12:01:15.799773 88016 net.cpp:110] Creating Layer inception_4d/relu_5x5_reduce
I0906 12:01:15.799782 88016 net.cpp:477] inception_4d/relu_5x5_reduce <- inception_4d/5x5_reduce
I0906 12:01:15.799794 88016 net.cpp:419] inception_4d/relu_5x5_reduce -> inception_4d/5x5_reduce (in-place)
I0906 12:01:15.799808 88016 net.cpp:155] Setting up inception_4d/relu_5x5_reduce
I0906 12:01:15.799818 88016 net.cpp:163] Top shape: 32 32 14 14 (200704)
I0906 12:01:15.799825 88016 layer_factory.hpp:76] Creating layer inception_4d/5x5
I0906 12:01:15.799839 88016 net.cpp:110] Creating Layer inception_4d/5x5
I0906 12:01:15.799846 88016 net.cpp:477] inception_4d/5x5 <- inception_4d/5x5_reduce
I0906 12:01:15.799859 88016 net.cpp:433] inception_4d/5x5 -> inception_4d/5x5
I0906 12:01:15.800781 88016 net.cpp:155] Setting up inception_4d/5x5
I0906 12:01:15.800801 88016 net.cpp:163] Top shape: 32 64 14 14 (401408)
I0906 12:01:15.800813 88016 layer_factory.hpp:76] Creating layer inception_4d/relu_5x5
I0906 12:01:15.800824 88016 net.cpp:110] Creating Layer inception_4d/relu_5x5
I0906 12:01:15.800832 88016 net.cpp:477] inception_4d/relu_5x5 <- inception_4d/5x5
I0906 12:01:15.800844 88016 net.cpp:419] inception_4d/relu_5x5 -> inception_4d/5x5 (in-place)
I0906 12:01:15.800855 88016 net.cpp:155] Setting up inception_4d/relu_5x5
I0906 12:01:15.800864 88016 net.cpp:163] Top shape: 32 64 14 14 (401408)
I0906 12:01:15.800871 88016 layer_factory.hpp:76] Creating layer inception_4d/pool
I0906 12:01:15.800884 88016 net.cpp:110] Creating Layer inception_4d/pool
I0906 12:01:15.800891 88016 net.cpp:477] inception_4d/pool <- inception_4c/output_inception_4c/output_0_split_3
I0906 12:01:15.800902 88016 net.cpp:433] inception_4d/pool -> inception_4d/pool
I0906 12:01:15.800920 88016 net.cpp:155] Setting up inception_4d/pool
I0906 12:01:15.800928 88016 net.cpp:163] Top shape: 32 512 14 14 (3211264)
I0906 12:01:15.800935 88016 layer_factory.hpp:76] Creating layer inception_4d/pool_proj
I0906 12:01:15.800951 88016 net.cpp:110] Creating Layer inception_4d/pool_proj
I0906 12:01:15.800957 88016 net.cpp:477] inception_4d/pool_proj <- inception_4d/pool
I0906 12:01:15.800971 88016 net.cpp:433] inception_4d/pool_proj -> inception_4d/pool_proj
I0906 12:01:15.801620 88016 net.cpp:155] Setting up inception_4d/pool_proj
I0906 12:01:15.801638 88016 net.cpp:163] Top shape: 32 64 14 14 (401408)
I0906 12:01:15.801651 88016 layer_factory.hpp:76] Creating layer inception_4d/relu_pool_proj
I0906 12:01:15.801661 88016 net.cpp:110] Creating Layer inception_4d/relu_pool_proj
I0906 12:01:15.801693 88016 net.cpp:477] inception_4d/relu_pool_proj <- inception_4d/pool_proj
I0906 12:01:15.801707 88016 net.cpp:419] inception_4d/relu_pool_proj -> inception_4d/pool_proj (in-place)
I0906 12:01:15.801719 88016 net.cpp:155] Setting up inception_4d/relu_pool_proj
I0906 12:01:15.801728 88016 net.cpp:163] Top shape: 32 64 14 14 (401408)
I0906 12:01:15.801736 88016 layer_factory.hpp:76] Creating layer inception_4d/output
I0906 12:01:15.801748 88016 net.cpp:110] Creating Layer inception_4d/output
I0906 12:01:15.801755 88016 net.cpp:477] inception_4d/output <- inception_4d/1x1
I0906 12:01:15.801764 88016 net.cpp:477] inception_4d/output <- inception_4d/3x3
I0906 12:01:15.801774 88016 net.cpp:477] inception_4d/output <- inception_4d/5x5
I0906 12:01:15.801781 88016 net.cpp:477] inception_4d/output <- inception_4d/pool_proj
I0906 12:01:15.801792 88016 net.cpp:433] inception_4d/output -> inception_4d/output
I0906 12:01:15.801806 88016 net.cpp:155] Setting up inception_4d/output
I0906 12:01:15.801816 88016 net.cpp:163] Top shape: 32 528 14 14 (3311616)
I0906 12:01:15.801823 88016 layer_factory.hpp:76] Creating layer inception_4d/output_inception_4d/output_0_split
I0906 12:01:15.801836 88016 net.cpp:110] Creating Layer inception_4d/output_inception_4d/output_0_split
I0906 12:01:15.801843 88016 net.cpp:477] inception_4d/output_inception_4d/output_0_split <- inception_4d/output
I0906 12:01:15.801856 88016 net.cpp:433] inception_4d/output_inception_4d/output_0_split -> inception_4d/output_inception_4d/output_0_split_0
I0906 12:01:15.801869 88016 net.cpp:433] inception_4d/output_inception_4d/output_0_split -> inception_4d/output_inception_4d/output_0_split_1
I0906 12:01:15.801883 88016 net.cpp:433] inception_4d/output_inception_4d/output_0_split -> inception_4d/output_inception_4d/output_0_split_2
I0906 12:01:15.801895 88016 net.cpp:433] inception_4d/output_inception_4d/output_0_split -> inception_4d/output_inception_4d/output_0_split_3
I0906 12:01:15.801908 88016 net.cpp:433] inception_4d/output_inception_4d/output_0_split -> inception_4d/output_inception_4d/output_0_split_4
I0906 12:01:15.801923 88016 net.cpp:155] Setting up inception_4d/output_inception_4d/output_0_split
I0906 12:01:15.801952 88016 net.cpp:163] Top shape: 32 528 14 14 (3311616)
I0906 12:01:15.801960 88016 net.cpp:163] Top shape: 32 528 14 14 (3311616)
I0906 12:01:15.801969 88016 net.cpp:163] Top shape: 32 528 14 14 (3311616)
I0906 12:01:15.801976 88016 net.cpp:163] Top shape: 32 528 14 14 (3311616)
I0906 12:01:15.801983 88016 net.cpp:163] Top shape: 32 528 14 14 (3311616)
I0906 12:01:15.801990 88016 layer_factory.hpp:76] Creating layer loss2/ave_pool
I0906 12:01:15.802003 88016 net.cpp:110] Creating Layer loss2/ave_pool
I0906 12:01:15.802011 88016 net.cpp:477] loss2/ave_pool <- inception_4d/output_inception_4d/output_0_split_0
I0906 12:01:15.802023 88016 net.cpp:433] loss2/ave_pool -> loss2/ave_pool
I0906 12:01:15.802038 88016 net.cpp:155] Setting up loss2/ave_pool
I0906 12:01:15.802047 88016 net.cpp:163] Top shape: 32 528 4 4 (270336)
I0906 12:01:15.802054 88016 layer_factory.hpp:76] Creating layer loss2/conv
I0906 12:01:15.802069 88016 net.cpp:110] Creating Layer loss2/conv
I0906 12:01:15.802076 88016 net.cpp:477] loss2/conv <- loss2/ave_pool
I0906 12:01:15.802088 88016 net.cpp:433] loss2/conv -> loss2/conv
I0906 12:01:15.804327 88016 net.cpp:155] Setting up loss2/conv
I0906 12:01:15.804355 88016 net.cpp:163] Top shape: 32 128 4 4 (65536)
I0906 12:01:15.804371 88016 layer_factory.hpp:76] Creating layer loss2/relu_conv
I0906 12:01:15.804385 88016 net.cpp:110] Creating Layer loss2/relu_conv
I0906 12:01:15.804394 88016 net.cpp:477] loss2/relu_conv <- loss2/conv
I0906 12:01:15.804406 88016 net.cpp:419] loss2/relu_conv -> loss2/conv (in-place)
I0906 12:01:15.804420 88016 net.cpp:155] Setting up loss2/relu_conv
I0906 12:01:15.804430 88016 net.cpp:163] Top shape: 32 128 4 4 (65536)
I0906 12:01:15.804436 88016 layer_factory.hpp:76] Creating layer loss2/fc
I0906 12:01:15.804452 88016 net.cpp:110] Creating Layer loss2/fc
I0906 12:01:15.804458 88016 net.cpp:477] loss2/fc <- loss2/conv
I0906 12:01:15.804496 88016 net.cpp:433] loss2/fc -> loss2/fc
I0906 12:01:15.844220 88016 net.cpp:155] Setting up loss2/fc
I0906 12:01:15.844255 88016 net.cpp:163] Top shape: 32 1024 (32768)
I0906 12:01:15.844271 88016 layer_factory.hpp:76] Creating layer loss2/relu_fc
I0906 12:01:15.844286 88016 net.cpp:110] Creating Layer loss2/relu_fc
I0906 12:01:15.844296 88016 net.cpp:477] loss2/relu_fc <- loss2/fc
I0906 12:01:15.844308 88016 net.cpp:419] loss2/relu_fc -> loss2/fc (in-place)
I0906 12:01:15.844324 88016 net.cpp:155] Setting up loss2/relu_fc
I0906 12:01:15.844334 88016 net.cpp:163] Top shape: 32 1024 (32768)
I0906 12:01:15.844341 88016 layer_factory.hpp:76] Creating layer loss2/drop_fc
I0906 12:01:15.844355 88016 net.cpp:110] Creating Layer loss2/drop_fc
I0906 12:01:15.844362 88016 net.cpp:477] loss2/drop_fc <- loss2/fc
I0906 12:01:15.844373 88016 net.cpp:419] loss2/drop_fc -> loss2/fc (in-place)
I0906 12:01:15.844390 88016 net.cpp:155] Setting up loss2/drop_fc
I0906 12:01:15.844399 88016 net.cpp:163] Top shape: 32 1024 (32768)
I0906 12:01:15.844405 88016 layer_factory.hpp:76] Creating layer loss2/classifier_cub
I0906 12:01:15.844421 88016 net.cpp:110] Creating Layer loss2/classifier_cub
I0906 12:01:15.844429 88016 net.cpp:477] loss2/classifier_cub <- loss2/fc
I0906 12:01:15.844440 88016 net.cpp:433] loss2/classifier_cub -> loss2/classifier
I0906 12:01:15.860131 88016 net.cpp:155] Setting up loss2/classifier_cub
I0906 12:01:15.860162 88016 net.cpp:163] Top shape: 32 200 (6400)
I0906 12:01:15.860177 88016 layer_factory.hpp:76] Creating layer loss2/classifier_loss2/classifier_cub_0_split
I0906 12:01:15.860191 88016 net.cpp:110] Creating Layer loss2/classifier_loss2/classifier_cub_0_split
I0906 12:01:15.860201 88016 net.cpp:477] loss2/classifier_loss2/classifier_cub_0_split <- loss2/classifier
I0906 12:01:15.860214 88016 net.cpp:433] loss2/classifier_loss2/classifier_cub_0_split -> loss2/classifier_loss2/classifier_cub_0_split_0
I0906 12:01:15.860231 88016 net.cpp:433] loss2/classifier_loss2/classifier_cub_0_split -> loss2/classifier_loss2/classifier_cub_0_split_1
I0906 12:01:15.860245 88016 net.cpp:433] loss2/classifier_loss2/classifier_cub_0_split -> loss2/classifier_loss2/classifier_cub_0_split_2
I0906 12:01:15.860261 88016 net.cpp:155] Setting up loss2/classifier_loss2/classifier_cub_0_split
I0906 12:01:15.860270 88016 net.cpp:163] Top shape: 32 200 (6400)
I0906 12:01:15.860278 88016 net.cpp:163] Top shape: 32 200 (6400)
I0906 12:01:15.860286 88016 net.cpp:163] Top shape: 32 200 (6400)
I0906 12:01:15.860293 88016 layer_factory.hpp:76] Creating layer loss2/loss
I0906 12:01:15.860307 88016 net.cpp:110] Creating Layer loss2/loss
I0906 12:01:15.860314 88016 net.cpp:477] loss2/loss <- loss2/classifier_loss2/classifier_cub_0_split_0
I0906 12:01:15.860324 88016 net.cpp:477] loss2/loss <- label_data_1_split_3
I0906 12:01:15.860337 88016 net.cpp:433] loss2/loss -> loss2/loss1
…
I0906 12:01:15.860687 88016 net.cpp:433] loss2/top-5 -> loss2/top-5
I0906 12:01:15.860738 88016 net.cpp:155] Setting up loss2/top-5
I0906 12:01:15.860760 88016 net.cpp:163] Top shape: (1)
I0906 12:01:15.860769 88016 layer_factory.hpp:76] Creating layer inception_4e/1x1
I0906 12:01:15.860786 88016 net.cpp:110] Creating Layer inception_4e/1x1
I0906 12:01:15.860793 88016 net.cpp:477] inception_4e/1x1 <- inception_4d/output_inception_4d/output_0_split_1
I0906 12:01:15.860808 88016 net.cpp:433] inception_4e/1x1 -> inception_4e/1x1
I0906 12:01:15.863070 88016 net.cpp:155] Setting up inception_4e/1x1
I0906 12:01:15.863090 88016 net.cpp:163] Top shape: 32 256 14 14 (1605632)
I0906 12:01:15.863103 88016 layer_factory.hpp:76] Creating layer inception_4e/relu_1x1
I0906 12:01:15.863117 88016 net.cpp:110] Creating Layer inception_4e/relu_1x1
I0906 12:01:15.863126 88016 net.cpp:477] inception_4e/relu_1x1 <- inception_4e/1x1
I0906 12:01:15.863137 88016 net.cpp:419] inception_4e/relu_1x1 -> inception_4e/1x1 (in-place)
I0906 12:01:15.863149 88016 net.cpp:155] Setting up inception_4e/relu_1x1
I0906 12:01:15.863158 88016 net.cpp:163] Top shape: 32 256 14 14 (1605632)
I0906 12:01:15.863167 88016 layer_factory.hpp:76] Creating layer inception_4e/3x3_reduce
I0906 12:01:15.863211 88016 net.cpp:110] Creating Layer inception_4e/3x3_reduce
I0906 12:01:15.863232 88016 net.cpp:477] inception_4e/3x3_reduce <- inception_4d/output_inception_4d/output_0_split_2
I0906 12:01:15.863246 88016 net.cpp:433] inception_4e/3x3_reduce -> inception_4e/3x3_reduce
I0906 12:01:15.865828 88016 net.cpp:155] Setting up inception_4e/3x3_reduce
I0906 12:01:15.865859 88016 net.cpp:163] Top shape: 32 160 14 14 (1003520)
I0906 12:01:15.865875 88016 layer_factory.hpp:76] Creating layer inception_4e/relu_3x3_reduce
I0906 12:01:15.865891 88016 net.cpp:110] Creating Layer inception_4e/relu_3x3_reduce
I0906 12:01:15.865900 88016 net.cpp:477] inception_4e/relu_3x3_reduce <- inception_4e/3x3_reduce
I0906 12:01:15.865913 88016 net.cpp:419] inception_4e/relu_3x3_reduce -> inception_4e/3x3_reduce (in-place)
I0906 12:01:15.865927 88016 net.cpp:155] Setting up inception_4e/relu_3x3_reduce
I0906 12:01:15.865936 88016 net.cpp:163] Top shape: 32 160 14 14 (1003520)
I0906 12:01:15.865943 88016 layer_factory.hpp:76] Creating layer inception_4e/3x3
I0906 12:01:15.865959 88016 net.cpp:110] Creating Layer inception_4e/3x3
I0906 12:01:15.865967 88016 net.cpp:477] inception_4e/3x3 <- inception_4e/3x3_reduce
I0906 12:01:15.865980 88016 net.cpp:433] inception_4e/3x3 -> inception_4e/3x3
I0906 12:01:15.875063 88016 net.cpp:155] Setting up inception_4e/3x3
I0906 12:01:15.875094 88016 net.cpp:163] Top shape: 32 320 14 14 (2007040)
I0906 12:01:15.875110 88016 layer_factory.hpp:76] Creating layer inception_4e/relu_3x3
I0906 12:01:15.875126 88016 net.cpp:110] Creating Layer inception_4e/relu_3x3
I0906 12:01:15.875134 88016 net.cpp:477] inception_4e/relu_3x3 <- inception_4e/3x3
I0906 12:01:15.875147 88016 net.cpp:419] inception_4e/relu_3x3 -> inception_4e/3x3 (in-place)
I0906 12:01:15.875161 88016 net.cpp:155] Setting up inception_4e/relu_3x3
I0906 12:01:15.875170 88016 net.cpp:163] Top shape: 32 320 14 14 (2007040)
I0906 12:01:15.875177 88016 layer_factory.hpp:76] Creating layer inception_4e/5x5_reduce
I0906 12:01:15.875192 88016 net.cpp:110] Creating Layer inception_4e/5x5_reduce
I0906 12:01:15.875200 88016 net.cpp:477] inception_4e/5x5_reduce <- inception_4d/output_inception_4d/output_0_split_3
I0906 12:01:15.875213 88016 net.cpp:433] inception_4e/5x5_reduce -> inception_4e/5x5_reduce
I0906 12:01:15.875602 88016 net.cpp:155] Setting up inception_4e/5x5_reduce
I0906 12:01:15.875622 88016 net.cpp:163] Top shape: 32 32 14 14 (200704)
I0906 12:01:15.875633 88016 layer_factory.hpp:76] Creating layer inception_4e/relu_5x5_reduce
I0906 12:01:15.875646 88016 net.cpp:110] Creating Layer inception_4e/relu_5x5_reduce
I0906 12:01:15.875654 88016 net.cpp:477] inception_4e/relu_5x5_reduce <- inception_4e/5x5_reduce
I0906 12:01:15.875666 88016 net.cpp:419] inception_4e/relu_5x5_reduce -> inception_4e/5x5_reduce (in-place)
I0906 12:01:15.875690 88016 net.cpp:155] Setting up inception_4e/relu_5x5_reduce
I0906 12:01:15.875726 88016 net.cpp:163] Top shape: 32 32 14 14 (200704)
I0906 12:01:15.875735 88016 layer_factory.hpp:76] Creating layer inception_4e/5x5
I0906 12:01:15.875751 88016 net.cpp:110] Creating Layer inception_4e/5x5
I0906 12:01:15.875758 88016 net.cpp:477] inception_4e/5x5 <- inception_4e/5x5_reduce
I0906 12:01:15.875772 88016 net.cpp:433] inception_4e/5x5 -> inception_4e/5x5
I0906 12:01:15.877507 88016 net.cpp:155] Setting up inception_4e/5x5
I0906 12:01:15.877528 88016 net.cpp:163] Top shape: 32 128 14 14 (802816)
I0906 12:01:15.877542 88016 layer_factory.hpp:76] Creating layer inception_4e/relu_5x5
I0906 12:01:15.877554 88016 net.cpp:110] Creating Layer inception_4e/relu_5x5
I0906 12:01:15.877562 88016 net.cpp:477] inception_4e/relu_5x5 <- inception_4e/5x5
I0906 12:01:15.877573 88016 net.cpp:419] inception_4e/relu_5x5 -> inception_4e/5x5 (in-place)
I0906 12:01:15.877585 88016 net.cpp:155] Setting up inception_4e/relu_5x5
I0906 12:01:15.877593 88016 net.cpp:163] Top shape: 32 128 14 14 (802816)
I0906 12:01:15.877600 88016 layer_factory.hpp:76] Creating layer inception_4e/pool
I0906 12:01:15.877614 88016 net.cpp:110] Creating Layer inception_4e/pool
I0906 12:01:15.877621 88016 net.cpp:477] inception_4e/pool <- inception_4d/output_inception_4d/output_0_split_4
I0906 12:01:15.877635 88016 net.cpp:433] inception_4e/pool -> inception_4e/pool
I0906 12:01:15.877653 88016 net.cpp:155] Setting up inception_4e/pool
I0906 12:01:15.877662 88016 net.cpp:163] Top shape: 32 528 14 14 (3311616)
I0906 12:01:15.877670 88016 layer_factory.hpp:76] Creating layer inception_4e/pool_proj
I0906 12:01:15.877683 88016 net.cpp:110] Creating Layer inception_4e/pool_proj
I0906 12:01:15.877691 88016 net.cpp:477] inception_4e/pool_proj <- inception_4e/pool
I0906 12:01:15.877701 88016 net.cpp:433] inception_4e/pool_proj -> inception_4e/pool_proj
I0906 12:01:15.878872 88016 net.cpp:155] Setting up inception_4e/pool_proj
I0906 12:01:15.878891 88016 net.cpp:163] Top shape: 32 128 14 14 (802816)
I0906 12:01:15.878903 88016 layer_factory.hpp:76] Creating layer inception_4e/relu_pool_proj
I0906 12:01:15.878916 88016 net.cpp:110] Creating Layer inception_4e/relu_pool_proj
I0906 12:01:15.878924 88016 net.cpp:477] inception_4e/relu_pool_proj <- inception_4e/pool_proj
I0906 12:01:15.878936 88016 net.cpp:419] inception_4e/relu_pool_proj -> inception_4e/pool_proj (in-place)
I0906 12:01:15.878947 88016 net.cpp:155] Setting up inception_4e/relu_pool_proj
I0906 12:01:15.878957 88016 net.cpp:163] Top shape: 32 128 14 14 (802816)
I0906 12:01:15.878963 88016 layer_factory.hpp:76] Creating layer inception_4e/output
I0906 12:01:15.878976 88016 net.cpp:110] Creating Layer inception_4e/output
I0906 12:01:15.878984 88016 net.cpp:477] inception_4e/output <- inception_4e/1x1
I0906 12:01:15.878993 88016 net.cpp:477] inception_4e/output <- inception_4e/3x3
I0906 12:01:15.879001 88016 net.cpp:477] inception_4e/output <- inception_4e/5x5
I0906 12:01:15.879009 88016 net.cpp:477] inception_4e/output <- inception_4e/pool_proj
I0906 12:01:15.879021 88016 net.cpp:433] inception_4e/output -> inception_4e/output
I0906 12:01:15.879036 88016 net.cpp:155] Setting up inception_4e/output
I0906 12:01:15.879046 88016 net.cpp:163] Top shape: 32 832 14 14 (5218304)
I0906 12:01:15.879052 88016 layer_factory.hpp:76] Creating layer pool4/3x3_s2
I0906 12:01:15.879065 88016 net.cpp:110] Creating Layer pool4/3x3_s2
I0906 12:01:15.879073 88016 net.cpp:477] pool4/3x3_s2 <- inception_4e/output
I0906 12:01:15.879086 88016 net.cpp:433] pool4/3x3_s2 -> pool4/3x3_s2
I0906 12:01:15.879101 88016 net.cpp:155] Setting up pool4/3x3_s2
I0906 12:01:15.879109 88016 net.cpp:163] Top shape: 32 832 7 7 (1304576)
I0906 12:01:15.879117 88016 layer_factory.hpp:76] Creating layer pool4/3x3_s2_pool4/3x3_s2_0_split
I0906 12:01:15.879129 88016 net.cpp:110] Creating Layer pool4/3x3_s2_pool4/3x3_s2_0_split
I0906 12:01:15.879137 88016 net.cpp:477] pool4/3x3_s2_pool4/3x3_s2_0_split <- pool4/3x3_s2
I0906 12:01:15.879148 88016 net.cpp:433] pool4/3x3_s2_pool4/3x3_s2_0_split -> pool4/3x3_s2_pool4/3x3_s2_0_split_0
I0906 12:01:15.879190 88016 net.cpp:433] pool4/3x3_s2_pool4/3x3_s2_0_split -> pool4/3x3_s2_pool4/3x3_s2_0_split_1
I0906 12:01:15.879205 88016 net.cpp:433] pool4/3x3_s2_pool4/3x3_s2_0_split -> pool4/3x3_s2_pool4/3x3_s2_0_split_2
I0906 12:01:15.879247 88016 net.cpp:433] pool4/3x3_s2_pool4/3x3_s2_0_split -> pool4/3x3_s2_pool4/3x3_s2_0_split_3
I0906 12:01:15.879267 88016 net.cpp:155] Setting up pool4/3x3_s2_pool4/3x3_s2_0_split
I0906 12:01:15.879277 88016 net.cpp:163] Top shape: 32 832 7 7 (1304576)
I0906 12:01:15.879287 88016 net.cpp:163] Top shape: 32 832 7 7 (1304576)
I0906 12:01:15.879297 88016 net.cpp:163] Top shape: 32 832 7 7 (1304576)
I0906 12:01:15.879304 88016 net.cpp:163] Top shape: 32 832 7 7 (1304576)
I0906 12:01:15.879312 88016 layer_factory.hpp:76] Creating layer inception_5a/1x1
I0906 12:01:15.879328 88016 net.cpp:110] Creating Layer inception_5a/1x1
I0906 12:01:15.879335 88016 net.cpp:477] inception_5a/1x1 <- pool4/3x3_s2_pool4/3x3_s2_0_split_0
I0906 12:01:15.879349 88016 net.cpp:433] inception_5a/1x1 -> inception_5a/1x1
I0906 12:01:15.883962 88016 net.cpp:155] Setting up inception_5a/1x1
I0906 12:01:15.883993 88016 net.cpp:163] Top shape: 32 256 7 7 (401408)
I0906 12:01:15.884009 88016 layer_factory.hpp:76] Creating layer inception_5a/relu_1x1
I0906 12:01:15.884022 88016 net.cpp:110] Creating Layer inception_5a/relu_1x1
I0906 12:01:15.884032 88016 net.cpp:477] inception_5a/relu_1x1 <- inception_5a/1x1
I0906 12:01:15.884043 88016 net.cpp:419] inception_5a/relu_1x1 -> inception_5a/1x1 (in-place)
I0906 12:01:15.884057 88016 net.cpp:155] Setting up inception_5a/relu_1x1
I0906 12:01:15.884066 88016 net.cpp:163] Top shape: 32 256 7 7 (401408)
I0906 12:01:15.884073 88016 layer_factory.hpp:76] Creating layer inception_5a/3x3_reduce
I0906 12:01:15.884088 88016 net.cpp:110] Creating Layer inception_5a/3x3_reduce
I0906 12:01:15.884095 88016 net.cpp:477] inception_5a/3x3_reduce <- pool4/3x3_s2_pool4/3x3_s2_0_split_1
I0906 12:01:15.884110 88016 net.cpp:433] inception_5a/3x3_reduce -> inception_5a/3x3_reduce
I0906 12:01:15.887572 88016 net.cpp:155] Setting up inception_5a/3x3_reduce
I0906 12:01:15.887601 88016 net.cpp:163] Top shape: 32 160 7 7 (250880)
I0906 12:01:15.887617 88016 layer_factory.hpp:76] Creating layer inception_5a/relu_3x3_reduce
I0906 12:01:15.887634 88016 net.cpp:110] Creating Layer inception_5a/relu_3x3_reduce
I0906 12:01:15.887642 88016 net.cpp:477] inception_5a/relu_3x3_reduce <- inception_5a/3x3_reduce
I0906 12:01:15.887655 88016 net.cpp:419] inception_5a/relu_3x3_reduce -> inception_5a/3x3_reduce (in-place)
I0906 12:01:15.887682 88016 net.cpp:155] Setting up inception_5a/relu_3x3_reduce
I0906 12:01:15.887693 88016 net.cpp:163] Top shape: 32 160 7 7 (250880)
I0906 12:01:15.887701 88016 layer_factory.hpp:76] Creating layer inception_5a/3x3
I0906 12:01:15.887717 88016 net.cpp:110] Creating Layer inception_5a/3x3
I0906 12:01:15.887724 88016 net.cpp:477] inception_5a/3x3 <- inception_5a/3x3_reduce
I0906 12:01:15.887738 88016 net.cpp:433] inception_5a/3x3 -> inception_5a/3x3
I0906 12:01:15.896858 88016 net.cpp:155] Setting up inception_5a/3x3
I0906 12:01:15.896889 88016 net.cpp:163] Top shape: 32 320 7 7 (501760)
I0906 12:01:15.896905 88016 layer_factory.hpp:76] Creating layer inception_5a/relu_3x3
I0906 12:01:15.896919 88016 net.cpp:110] Creating Layer inception_5a/relu_3x3
I0906 12:01:15.896927 88016 net.cpp:477] inception_5a/relu_3x3 <- inception_5a/3x3
I0906 12:01:15.896940 88016 net.cpp:419] inception_5a/relu_3x3 -> inception_5a/3x3 (in-place)
I0906 12:01:15.896955 88016 net.cpp:155] Setting up inception_5a/relu_3x3
I0906 12:01:15.896963 88016 net.cpp:163] Top shape: 32 320 7 7 (501760)
I0906 12:01:15.896970 88016 layer_factory.hpp:76] Creating layer inception_5a/5x5_reduce
I0906 12:01:15.896986 88016 net.cpp:110] Creating Layer inception_5a/5x5_reduce
I0906 12:01:15.896992 88016 net.cpp:477] inception_5a/5x5_reduce <- pool4/3x3_s2_pool4/3x3_s2_0_split_2
I0906 12:01:15.897006 88016 net.cpp:433] inception_5a/5x5_reduce -> inception_5a/5x5_reduce
I0906 12:01:15.898630 88016 net.cpp:155] Setting up inception_5a/5x5_reduce
I0906 12:01:15.898684 88016 net.cpp:163] Top shape: 32 32 7 7 (50176)
I0906 12:01:15.898700 88016 layer_factory.hpp:76] Creating layer inception_5a/relu_5x5_reduce
I0906 12:01:15.898715 88016 net.cpp:110] Creating Layer inception_5a/relu_5x5_reduce
I0906 12:01:15.898723 88016 net.cpp:477] inception_5a/relu_5x5_reduce <- inception_5a/5x5_reduce
I0906 12:01:15.898736 88016 net.cpp:419] inception_5a/relu_5x5_reduce -> inception_5a/5x5_reduce (in-place)
I0906 12:01:15.898751 88016 net.cpp:155] Setting up inception_5a/relu_5x5_reduce
I0906 12:01:15.898759 88016 net.cpp:163] Top shape: 32 32 7 7 (50176)
I0906 12:01:15.898766 88016 layer_factory.hpp:76] Creating layer inception_5a/5x5
I0906 12:01:15.898782 88016 net.cpp:110] Creating Layer inception_5a/5x5
I0906 12:01:15.898787 88016 net.cpp:477] inception_5a/5x5 <- inception_5a/5x5_reduce
I0906 12:01:15.898802 88016 net.cpp:433] inception_5a/5x5 -> inception_5a/5x5
I0906 12:01:15.900557 88016 net.cpp:155] Setting up inception_5a/5x5
I0906 12:01:15.900580 88016 net.cpp:163] Top shape: 32 128 7 7 (200704)
I0906 12:01:15.900593 88016 layer_factory.hpp:76] Creating layer inception_5a/relu_5x5
I0906 12:01:15.900606 88016 net.cpp:110] Creating Layer inception_5a/relu_5x5
I0906 12:01:15.900614 88016 net.cpp:477] inception_5a/relu_5x5 <- inception_5a/5x5
I0906 12:01:15.900625 88016 net.cpp:419] inception_5a/relu_5x5 -> inception_5a/5x5 (in-place)
I0906 12:01:15.900637 88016 net.cpp:155] Setting up inception_5a/relu_5x5
I0906 12:01:15.900646 88016 net.cpp:163] Top shape: 32 128 7 7 (200704)
I0906 12:01:15.900653 88016 layer_factory.hpp:76] Creating layer inception_5a/pool
I0906 12:01:15.900665 88016 net.cpp:110] Creating Layer inception_5a/pool
I0906 12:01:15.900673 88016 net.cpp:477] inception_5a/pool <- pool4/3x3_s2_pool4/3x3_s2_0_split_3
I0906 12:01:15.900686 88016 net.cpp:433] inception_5a/pool -> inception_5a/pool
I0906 12:01:15.900703 88016 net.cpp:155] Setting up inception_5a/pool
I0906 12:01:15.900712 88016 net.cpp:163] Top shape: 32 832 7 7 (1304576)
I0906 12:01:15.900719 88016 layer_factory.hpp:76] Creating layer inception_5a/pool_proj
I0906 12:01:15.900734 88016 net.cpp:110] Creating Layer inception_5a/pool_proj
I0906 12:01:15.900741 88016 net.cpp:477] inception_5a/pool_proj <- inception_5a/pool
I0906 12:01:15.900754 88016 net.cpp:433] inception_5a/pool_proj -> inception_5a/pool_proj
I0906 12:01:15.903645 88016 net.cpp:155] Setting up inception_5a/pool_proj
I0906 12:01:15.903686 88016 net.cpp:163] Top shape: 32 128 7 7 (200704)
I0906 12:01:15.903702 88016 layer_factory.hpp:76] Creating layer inception_5a/relu_pool_proj
I0906 12:01:15.903715 88016 net.cpp:110] Creating Layer inception_5a/relu_pool_proj
I0906 12:01:15.903725 88016 net.cpp:477] inception_5a/relu_pool_proj <- inception_5a/pool_proj
I0906 12:01:15.903738 88016 net.cpp:419] inception_5a/relu_pool_proj -> inception_5a/pool_proj (in-place)
I0906 12:01:15.903750 88016 net.cpp:155] Setting up inception_5a/relu_pool_proj
I0906 12:01:15.903759 88016 net.cpp:163] Top shape: 32 128 7 7 (200704)
I0906 12:01:15.903766 88016 layer_factory.hpp:76] Creating layer inception_5a/output
I0906 12:01:15.903779 88016 net.cpp:110] Creating Layer inception_5a/output
I0906 12:01:15.903786 88016 net.cpp:477] inception_5a/output <- inception_5a/1x1
I0906 12:01:15.903795 88016 net.cpp:477] inception_5a/output <- inception_5a/3x3
I0906 12:01:15.903805 88016 net.cpp:477] inception_5a/output <- inception_5a/5x5
I0906 12:01:15.903812 88016 net.cpp:477] inception_5a/output <- inception_5a/pool_proj
I0906 12:01:15.903825 88016 net.cpp:433] inception_5a/output -> inception_5a/output
I0906 12:01:15.903839 88016 net.cpp:155] Setting up inception_5a/output
I0906 12:01:15.903848 88016 net.cpp:163] Top shape: 32 832 7 7 (1304576)
I0906 12:01:15.903854 88016 layer_factory.hpp:76] Creating layer inception_5a/output_inception_5a/output_0_split
I0906 12:01:15.903867 88016 net.cpp:110] Creating Layer inception_5a/output_inception_5a/output_0_split
I0906 12:01:15.903874 88016 net.cpp:477] inception_5a/output_inception_5a/output_0_split <- inception_5a/output
I0906 12:01:15.903913 88016 net.cpp:433] inception_5a/output_inception_5a/output_0_split -> inception_5a/output_inception_5a/output_0_split_0
I0906 12:01:15.903929 88016 net.cpp:433] inception_5a/output_inception_5a/output_0_split -> inception_5a/output_inception_5a/output_0_split_1
I0906 12:01:15.903966 88016 net.cpp:433] inception_5a/output_inception_5a/output_0_split -> inception_5a/output_inception_5a/output_0_split_2
I0906 12:01:15.903980 88016 net.cpp:433] inception_5a/output_inception_5a/output_0_split -> inception_5a/output_inception_5a/output_0_split_3
I0906 12:01:15.903995 88016 net.cpp:155] Setting up inception_5a/output_inception_5a/output_0_split
I0906 12:01:15.904005 88016 net.cpp:163] Top shape: 32 832 7 7 (1304576)
I0906 12:01:15.904012 88016 net.cpp:163] Top shape: 32 832 7 7 (1304576)
I0906 12:01:15.904021 88016 net.cpp:163] Top shape: 32 832 7 7 (1304576)
I0906 12:01:15.904028 88016 net.cpp:163] Top shape: 32 832 7 7 (1304576)
I0906 12:01:15.904036 88016 layer_factory.hpp:76] Creating layer inception_5b/1x1
I0906 12:01:15.904052 88016 net.cpp:110] Creating Layer inception_5b/1x1
I0906 12:01:15.904060 88016 net.cpp:477] inception_5b/1x1 <- inception_5a/output_inception_5a/output_0_split_0
I0906 12:01:15.904073 88016 net.cpp:433] inception_5b/1x1 -> inception_5b/1x1
I0906 12:01:15.910506 88016 net.cpp:155] Setting up inception_5b/1x1
I0906 12:01:15.910534 88016 net.cpp:163] Top shape: 32 384 7 7 (602112)
I0906 12:01:15.910550 88016 layer_factory.hpp:76] Creating layer inception_5b/relu_1x1
I0906 12:01:15.910564 88016 net.cpp:110] Creating Layer inception_5b/relu_1x1
I0906 12:01:15.910573 88016 net.cpp:477] inception_5b/relu_1x1 <- inception_5b/1x1
I0906 12:01:15.910585 88016 net.cpp:419] inception_5b/relu_1x1 -> inception_5b/1x1 (in-place)
I0906 12:01:15.910599 88016 net.cpp:155] Setting up inception_5b/relu_1x1
I0906 12:01:15.910609 88016 net.cpp:163] Top shape: 32 384 7 7 (602112)
I0906 12:01:15.910615 88016 layer_factory.hpp:76] Creating layer inception_5b/3x3_reduce
I0906 12:01:15.910631 88016 net.cpp:110] Creating Layer inception_5b/3x3_reduce
I0906 12:01:15.910639 88016 net.cpp:477] inception_5b/3x3_reduce <- inception_5a/output_inception_5a/output_0_split_1
I0906 12:01:15.910651 88016 net.cpp:433] inception_5b/3x3_reduce -> inception_5b/3x3_reduce
I0906 12:01:15.914422 88016 net.cpp:155] Setting up inception_5b/3x3_reduce
I0906 12:01:15.914453 88016 net.cpp:163] Top shape: 32 192 7 7 (301056)
I0906 12:01:15.914468 88016 layer_factory.hpp:76] Creating layer inception_5b/relu_3x3_reduce
I0906 12:01:15.914484 88016 net.cpp:110] Creating Layer inception_5b/relu_3x3_reduce
I0906 12:01:15.914494 88016 net.cpp:477] inception_5b/relu_3x3_reduce <- inception_5b/3x3_reduce
I0906 12:01:15.914505 88016 net.cpp:419] inception_5b/relu_3x3_reduce -> inception_5b/3x3_reduce (in-place)
I0906 12:01:15.914520 88016 net.cpp:155] Setting up inception_5b/relu_3x3_reduce
I0906 12:01:15.914530 88016 net.cpp:163] Top shape: 32 192 7 7 (301056)
I0906 12:01:15.914537 88016 layer_factory.hpp:76] Creating layer inception_5b/3x3
I0906 12:01:15.914553 88016 net.cpp:110] Creating Layer inception_5b/3x3
I0906 12:01:15.914561 88016 net.cpp:477] inception_5b/3x3 <- inception_5b/3x3_reduce
I0906 12:01:15.914573 88016 net.cpp:433] inception_5b/3x3 -> inception_5b/3x3
I0906 12:01:15.927484 88016 net.cpp:155] Setting up inception_5b/3x3
I0906 12:01:15.927515 88016 net.cpp:163] Top shape: 32 384 7 7 (602112)
I0906 12:01:15.927530 88016 layer_factory.hpp:76] Creating layer inception_5b/relu_3x3
I0906 12:01:15.927546 88016 net.cpp:110] Creating Layer inception_5b/relu_3x3
I0906 12:01:15.927554 88016 net.cpp:477] inception_5b/relu_3x3 <- inception_5b/3x3
I0906 12:01:15.927567 88016 net.cpp:419] inception_5b/relu_3x3 -> inception_5b/3x3 (in-place)
I0906 12:01:15.927582 88016 net.cpp:155] Setting up inception_5b/relu_3x3
I0906 12:01:15.927592 88016 net.cpp:163] Top shape: 32 384 7 7 (602112)
I0906 12:01:15.927598 88016 layer_factory.hpp:76] Creating layer inception_5b/5x5_reduce
I0906 12:01:15.927613 88016 net.cpp:110] Creating Layer inception_5b/5x5_reduce
I0906 12:01:15.927646 88016 net.cpp:477] inception_5b/5x5_reduce <- inception_5a/output_inception_5a/output_0_split_2
I0906 12:01:15.927662 88016 net.cpp:433] inception_5b/5x5_reduce -> inception_5b/5x5_reduce
I0906 12:01:15.928441 88016 net.cpp:155] Setting up inception_5b/5x5_reduce
I0906 12:01:15.928463 88016 net.cpp:163] Top shape: 32 48 7 7 (75264)
I0906 12:01:15.928477 88016 layer_factory.hpp:76] Creating layer inception_5b/relu_5x5_reduce
I0906 12:01:15.928488 88016 net.cpp:110] Creating Layer inception_5b/relu_5x5_reduce
I0906 12:01:15.928496 88016 net.cpp:477] inception_5b/relu_5x5_reduce <- inception_5b/5x5_reduce
I0906 12:01:15.928508 88016 net.cpp:419] inception_5b/relu_5x5_reduce -> inception_5b/5x5_reduce (in-place)
I0906 12:01:15.928519 88016 net.cpp:155] Setting up inception_5b/relu_5x5_reduce
I0906 12:01:15.928529 88016 net.cpp:163] Top shape: 32 48 7 7 (75264)
I0906 12:01:15.928534 88016 layer_factory.hpp:76] Creating layer inception_5b/5x5
I0906 12:01:15.928550 88016 net.cpp:110] Creating Layer inception_5b/5x5
I0906 12:01:15.928556 88016 net.cpp:477] inception_5b/5x5 <- inception_5b/5x5_reduce
I0906 12:01:15.928570 88016 net.cpp:433] inception_5b/5x5 -> inception_5b/5x5
I0906 12:01:15.931129 88016 net.cpp:155] Setting up inception_5b/5x5
I0906 12:01:15.931150 88016 net.cpp:163] Top shape: 32 128 7 7 (200704)
I0906 12:01:15.931164 88016 layer_factory.hpp:76] Creating layer inception_5b/relu_5x5
I0906 12:01:15.931175 88016 net.cpp:110] Creating Layer inception_5b/relu_5x5
I0906 12:01:15.931185 88016 net.cpp:477] inception_5b/relu_5x5 <- inception_5b/5x5
I0906 12:01:15.931196 88016 net.cpp:419] inception_5b/relu_5x5 -> inception_5b/5x5 (in-place)
I0906 12:01:15.931208 88016 net.cpp:155] Setting up inception_5b/relu_5x5
I0906 12:01:15.931216 88016 net.cpp:163] Top shape: 32 128 7 7 (200704)
I0906 12:01:15.931223 88016 layer_factory.hpp:76] Creating layer inception_5b/pool
I0906 12:01:15.931236 88016 net.cpp:110] Creating Layer inception_5b/pool
I0906 12:01:15.931243 88016 net.cpp:477] inception_5b/pool <- inception_5a/output_inception_5a/output_0_split_3
I0906 12:01:15.931255 88016 net.cpp:433] inception_5b/pool -> inception_5b/pool
I0906 12:01:15.931272 88016 net.cpp:155] Setting up inception_5b/pool
I0906 12:01:15.931282 88016 net.cpp:163] Top shape: 32 832 7 7 (1304576)
I0906 12:01:15.931288 88016 layer_factory.hpp:76] Creating layer inception_5b/pool_proj
I0906 12:01:15.931303 88016 net.cpp:110] Creating Layer inception_5b/pool_proj
I0906 12:01:15.931309 88016 net.cpp:477] inception_5b/pool_proj <- inception_5b/pool
I0906 12:01:15.931323 88016 net.cpp:433] inception_5b/pool_proj -> inception_5b/pool_proj
I0906 12:01:15.934198 88016 net.cpp:155] Setting up inception_5b/pool_proj
I0906 12:01:15.934227 88016 net.cpp:163] Top shape: 32 128 7 7 (200704)
I0906 12:01:15.934242 88016 layer_factory.hpp:76] Creating layer inception_5b/relu_pool_proj
I0906 12:01:15.934257 88016 net.cpp:110] Creating Layer inception_5b/relu_pool_proj
I0906 12:01:15.934265 88016 net.cpp:477] inception_5b/relu_pool_proj <- inception_5b/pool_proj
I0906 12:01:15.934278 88016 net.cpp:419] inception_5b/relu_pool_proj -> inception_5b/pool_proj (in-place)
I0906 12:01:15.934290 88016 net.cpp:155] Setting up inception_5b/relu_pool_proj
I0906 12:01:15.934299 88016 net.cpp:163] Top shape: 32 128 7 7 (200704)
I0906 12:01:15.934306 88016 layer_factory.hpp:76] Creating layer inception_5b/output
I0906 12:01:15.934319 88016 net.cpp:110] Creating Layer inception_5b/output
I0906 12:01:15.934326 88016 net.cpp:477] inception_5b/output <- inception_5b/1x1
I0906 12:01:15.934336 88016 net.cpp:477] inception_5b/output <- inception_5b/3x3
I0906 12:01:15.934345 88016 net.cpp:477] inception_5b/output <- inception_5b/5x5
I0906 12:01:15.934352 88016 net.cpp:477] inception_5b/output <- inception_5b/pool_proj
I0906 12:01:15.934363 88016 net.cpp:433] inception_5b/output -> inception_5b/output
I0906 12:01:15.934379 88016 net.cpp:155] Setting up inception_5b/output
I0906 12:01:15.934388 88016 net.cpp:163] Top shape: 32 1024 7 7 (1605632)
I0906 12:01:15.934420 88016 layer_factory.hpp:76] Creating layer pool5/7x7_s1
I0906 12:01:15.934434 88016 net.cpp:110] Creating Layer pool5/7x7_s1
I0906 12:01:15.934442 88016 net.cpp:477] pool5/7x7_s1 <- inception_5b/output
I0906 12:01:15.934455 88016 net.cpp:433] pool5/7x7_s1 -> pool5/7x7_s1
I0906 12:01:15.934471 88016 net.cpp:155] Setting up pool5/7x7_s1
I0906 12:01:15.934481 88016 net.cpp:163] Top shape: 32 1024 1 1 (32768)
I0906 12:01:15.934489 88016 layer_factory.hpp:76] Creating layer pool5/drop_7x7_s1
I0906 12:01:15.934502 88016 net.cpp:110] Creating Layer pool5/drop_7x7_s1
I0906 12:01:15.934509 88016 net.cpp:477] pool5/drop_7x7_s1 <- pool5/7x7_s1
I0906 12:01:15.934520 88016 net.cpp:419] pool5/drop_7x7_s1 -> pool5/7x7_s1 (in-place)
I0906 12:01:15.934535 88016 net.cpp:155] Setting up pool5/drop_7x7_s1
I0906 12:01:15.934543 88016 net.cpp:163] Top shape: 32 1024 1 1 (32768)
I0906 12:01:15.934551 88016 layer_factory.hpp:76] Creating layer loss3/classifier_cub
I0906 12:01:15.934567 88016 net.cpp:110] Creating Layer loss3/classifier_cub
I0906 12:01:15.934574 88016 net.cpp:477] loss3/classifier_cub <- pool5/7x7_s1
I0906 12:01:15.934587 88016 net.cpp:433] loss3/classifier_cub -> loss3/classifier
I0906 12:01:15.950512 88016 net.cpp:155] Setting up loss3/classifier_cub
I0906 12:01:15.950541 88016 net.cpp:163] Top shape: 32 200 (6400)
I0906 12:01:15.950556 88016 layer_factory.hpp:76] Creating layer loss3/classifier_loss3/classifier_cub_0_split
I0906 12:01:15.950570 88016 net.cpp:110] Creating Layer loss3/classifier_loss3/classifier_cub_0_split
I0906 12:01:15.950578 88016 net.cpp:477] loss3/classifier_loss3/classifier_cub_0_split <- loss3/classifier
I0906 12:01:15.950592 88016 net.cpp:433] loss3/classifier_loss3/classifier_cub_0_split -> loss3/classifier_loss3/classifier_cub_0_split_0
I0906 12:01:15.950608 88016 net.cpp:433] loss3/classifier_loss3/classifier_cub_0_split -> loss3/classifier_loss3/classifier_cub_0_split_1
I0906 12:01:15.950620 88016 net.cpp:433] loss3/classifier_loss3/classifier_cub_0_split -> loss3/classifier_loss3/classifier_cub_0_split_2
I0906 12:01:15.950635 88016 net.cpp:155] Setting up loss3/classifier_loss3/classifier_cub_0_split
I0906 12:01:15.950644 88016 net.cpp:163] Top shape: 32 200 (6400)
I0906 12:01:15.950652 88016 net.cpp:163] Top shape: 32 200 (6400)
I0906 12:01:15.950659 88016 net.cpp:163] Top shape: 32 200 (6400)
I0906 12:01:15.950666 88016 layer_factory.hpp:76] Creating layer loss3/loss3
I0906 12:01:15.950678 88016 net.cpp:110] Creating Layer loss3/loss3
I0906 12:01:15.950685 88016 net.cpp:477] loss3/loss3 <- loss3/classifier_loss3/classifier_cub_0_split_0
I0906 12:01:15.950695 88016 net.cpp:477] loss3/loss3 <- label_data_1_split_6
I0906 12:01:15.950707 88016 net.cpp:433] loss3/loss3 -> loss3/loss3
…
