…
I0902 16:07:52.006454 53383 net.cpp:339] The NetState phase (0) differed from the phase (1) specified by a rule in layer loss3/top-5
I0902 16:07:52.007724 53383 net.cpp:50] Initializing net from parameters: 
name: "CUBNet"
state {
  phase: TRAIN
}
layer {
  name: "data"
  type: "Data"
  top: "data"
  top: "label"
  include {
    phase: TRAIN
  }
  transform_param {
    mirror: true
    crop_size: 224
    mean_value: 104
    mean_value: 117
    mean_value: 123
  }
  data_param {
    source: "data/cub_train"
    batch_size: 32
    backend: LMDB
  }
}
layer {
  name: "conv1/7x7_s2"
  type: "Convolution"
  bottom: "data"
  top: "conv1/7x7_s2"
  param {
    lr_mult: 1
    decay_mult: 1
  }
  param {
    lr_mult: 2
    decay_mult: 0
  }
  convolution_param {
    num_output: 64
    pad: 3
    kernel_size: 7
    stride: 2
    weight_filler {
      type: "xavier"
      std: 0.1
    }
    bias_filler {
      type: "constant"
      value: 0.2
    }
  }
}
layer {
  name: "conv1/relu_7x7"
  type: "ReLU"
  bottom: "conv1/7x7_s2"
  top: "conv1/7x7_s2"
}
layer {
  name: "pool1/3x3_s2"
  type: "Pooling"
  bottom: "conv1/7x7_s2"
  top: "pool1/3x3_s2"
  pooling_param {
    pool: MAX
    kernel_size: 3
    stride: 2
  }
}
layer {
  name: "pool1/norm1"
  type: "LRN"
  bottom: "pool1/3x3_s2"
  top: "pool1/norm1"
  lrn_param {
    local_size: 5
    alpha: 0.0001
    beta: 0.75
  }
}
layer {
  name: "conv2/3x3_reduce"
  type: "Convolution"
  bottom: "pool1/norm1"
  top: "conv2/3x3_reduce"
  param {
    lr_mult: 1
    decay_mult: 1
  }
  param {
    lr_mult: 2
    decay_mult: 0
  }
  convolution_param {
    num_output: 64
    kernel_size: 1
    weight_filler {
      type: "xavier"
      std: 0.1
    }
    bias_filler {
      type: "constant"
      value: 0.2
    }
  }
}
layer {
  name: "conv2/relu_3x3_reduce"
  type: "ReLU"
  bottom: "conv2/3x3_reduce"
  top: "conv2/3x3_reduce"
}
layer {
  name: "conv2/3x3"
  type: "Convolution"
  bottom: "conv2/3x3_reduce"
  top: "conv2/3x3"
  param {
    lr_mult: 1
    decay_mult: 1
  }
  param {
    lr_mult: 2
    decay_mult: 0
  }
  convolution_param {
    num_output: 192
    pad: 1
    kernel_size: 3
    weight_filler {
      type: "xavier"
      std: 0.03
    }
    bias_filler {
      type: "constant"
      value: 0.2
    }
  }
}
layer {
  name: "conv2/relu_3x3"
  type: "ReLU"
  bottom: "conv2/3x3"
  top: "conv2/3x3"
}
layer {
  name: "conv2/norm2"
  type: "LRN"
  bottom: "conv2/3x3"
  top: "conv2/norm2"
  lrn_param {
    local_size: 5
    alpha: 0.0001
    beta: 0.75
  }
}
layer {
  name: "pool2/3x3_s2"
  type: "Pooling"
  bottom: "conv2/norm2"
  top: "pool2/3x3_s2"
  pooling_param {
    pool: MAX
    kernel_size: 3
    stride: 2
  }
}
layer {
  name: "inception_3a/1x1"
  type: "Convolution"
  bottom: "pool2/3x3_s2"
  top: "inception_3a/1x1"
  param {
    lr_mult: 1
    decay_mult: 1
  }
  param {
    lr_mult: 2
    decay_mult: 0
  }
  convolution_param {
    num_output: 64
    kernel_size: 1
    weight_filler {
      type: "xavier"
      std: 0.03
    }
    bias_filler {
      type: "constant"
      value: 0.2
    }
  }
}
layer {
  name: "inception_3a/relu_1x1"
  type: "ReLU"
  bottom: "inception_3a/1x1"
  top: "inception_3a/1x1"
}
layer {
  name: "inception_3a/3x3_reduce"
  type: "Convolution"
  bottom: "pool2/3x3_s2"
  top: "inception_3a/3x3_reduce"
  param {
    lr_mult: 1
    decay_mult: 1
  }
  param {
    lr_mult: 2
    decay_mult: 0
  }
  convolution_param {
    num_output: 96
    kernel_size: 1
    weight_filler {
      type: "xavier"
      std: 0.09
    }
    bias_filler {
      type: "constant"
      value: 0.2
    }
  }
}
layer {
  name: "inception_3a/relu_3x3_reduce"
  type: "ReLU"
  bottom: "inception_3a/3x3_reduce"
  top: "inception_3a/3x3_reduce"
}
layer {
  name: "inception_3a/3x3"
  type: "Convolution"
  bottom: "inception_3a/3x3_reduce"
  top: "inception_3a/3x3"
  param {
    lr_mult: 1
    decay_mult: 1
  }
  param {
    lr_mult: 2
    decay_mult: 0
  }
  convolution_param {
    num_output: 128
    pad: 1
    kernel_size: 3
    weight_filler {
      type: "xavier"
      std: 0.03
    }
    bias_filler {
      type: "constant"
      value: 0.2
    }
  }
}
layer {
  name: "inception_3a/relu_3x3"
  type: "ReLU"
  bottom: "inception_3a/3x3"
  top: "inception_3a/3x3"
}
layer {
  name: "inception_3a/5x5_reduce"
  type: "Convolution"
  bottom: "pool2/3x3_s2"
  top: "inception_3a/5x5_reduce"
  param {
    lr_mult: 1
    decay_mult: 1
  }
  param {
    lr_mult: 2
    decay_mult: 0
  }
  convolution_param {
    num_output: 16
    kernel_size: 1
    weight_filler {
      type: "xavier"
      std: 0.2
    }
    bias_filler {
      type: "constant"
      value: 0.2
    }
  }
}
layer {
  name: "inception_3a/relu_5x5_reduce"
  type: "ReLU"
  bottom: "inception_3a/5x5_reduce"
  top: "inception_3a/5x5_reduce"
}
layer {
  name: "inception_3a/5x5"
  type: "Convolution"
  bottom: "inception_3a/5x5_reduce"
  top: "inception_3a/5x5"
  param {
    lr_mult: 1
    decay_mult: 1
  }
  param {
    lr_mult: 2
    decay_mult: 0
  }
  convolution_param {
    num_output: 32
    pad: 2
    kernel_size: 5
    weight_filler {
      type: "xavier"
      std: 0.03
    }
    bias_filler {
      type: "constant"
      value: 0.2
    }
  }
}
layer {
  name: "inception_3a/relu_5x5"
  type: "ReLU"
  bottom: "inception_3a/5x5"
  top: "inception_3a/5x5"
}
layer {
  name: "inception_3a/pool"
  type: "Pooling"
  bottom: "pool2/3x3_s2"
  top: "inception_3a/pool"
  pooling_param {
    pool: MAX
    kernel_size: 3
    stride: 1
    pad: 1
  }
}
layer {
  name: "inception_3a/pool_proj"
  type: "Convolution"
  bottom: "inception_3a/pool"
  top: "inception_3a/pool_proj"
  param {
    lr_mult: 1
    decay_mult: 1
  }
  param {
    lr_mult: 2
    decay_mult: 0
  }
  convolution_param {
    num_output: 32
    kernel_size: 1
    weight_filler {
      type: "xavier"
      std: 0.1
    }
    bias_filler {
      type: "constant"
      value: 0.2
    }
  }
}
layer {
  name: "inception_3a/relu_pool_proj"
  type: "ReLU"
  bottom: "inception_3a/pool_proj"
  top: "inception_3a/pool_proj"
}
layer {
  name: "inception_3a/output"
  type: "Concat"
  bottom: "inception_3a/1x1"
  bottom: "inception_3a/3x3"
  bottom: "inception_3a/5x5"
  bottom: "inception_3a/pool_proj"
  top: "inception_3a/output"
}
layer {
  name: "inception_3b/1x1"
  type: "Convolution"
  bottom: "inception_3a/output"
  top: "inception_3b/1x1"
  param {
    lr_mult: 1
    decay_mult: 1
  }
  param {
    lr_mult: 2
    decay_mult: 0
  }
  convolution_param {
    num_output: 128
    kernel_size: 1
    weight_filler {
      type: "xavier"
      std: 0.03
    }
    bias_filler {
      type: "constant"
      value: 0.2
    }
  }
}
layer {
  name: "inception_3b/relu_1x1"
  type: "ReLU"
  bottom: "inception_3b/1x1"
  top: "inception_3b/1x1"
}
layer {
  name: "inception_3b/3x3_reduce"
  type: "Convolution"
  bottom: "inception_3a/output"
  top: "inception_3b/3x3_reduce"
  param {
    lr_mult: 1
    decay_mult: 1
  }
  param {
    lr_mult: 2
    decay_mult: 0
  }
  convolution_param {
    num_output: 128
    kernel_size: 1
    weight_filler {
      type: "xavier"
      std: 0.09
    }
    bias_filler {
      type: "constant"
      value: 0.2
    }
  }
}
layer {
  name: "inception_3b/relu_3x3_reduce"
  type: "ReLU"
  bottom: "inception_3b/3x3_reduce"
  top: "inception_3b/3x3_reduce"
}
layer {
  name: "inception_3b/3x3"
  type: "Convolution"
  bottom: "inception_3b/3x3_reduce"
  top: "inception_3b/3x3"
  param {
    lr_mult: 1
    decay_mult: 1
  }
  param {
    lr_mult: 2
    decay_mult: 0
  }
  convolution_param {
    num_output: 192
    pad: 1
    kernel_size: 3
    weight_filler {
      type: "xavier"
      std: 0.03
    }
    bias_filler {
      type: "constant"
      value: 0.2
    }
  }
}
layer {
  name: "inception_3b/relu_3x3"
  type: "ReLU"
  bottom: "inception_3b/3x3"
  top: "inception_3b/3x3"
}
layer {
  name: "inception_3b/5x5_reduce"
  type: "Convolution"
  bottom: "inception_3a/output"
  top: "inception_3b/5x5_reduce"
  param {
    lr_mult: 1
    decay_mult: 1
  }
  param {
    lr_mult: 2
    decay_mult: 0
  }
  convolution_param {
    num_output: 32
    kernel_size: 1
    weight_filler {
      type: "xavier"
      std: 0.2
    }
    bias_filler {
      type: "constant"
      value: 0.2
    }
  }
}
layer {
  name: "inception_3b/relu_5x5_reduce"
  type: "ReLU"
  bottom: "inception_3b/5x5_reduce"
  top: "inception_3b/5x5_reduce"
}
layer {
  name: "inception_3b/5x5"
  type: "Convolution"
  bottom: "inception_3b/5x5_reduce"
  top: "inception_3b/5x5"
  param {
    lr_mult: 1
    decay_mult: 1
  }
  param {
    lr_mult: 2
    decay_mult: 0
  }
  convolution_param {
    num_output: 96
    pad: 2
    kernel_size: 5
    weight_filler {
      type: "xavier"
      std: 0.03
    }
    bias_filler {
      type: "constant"
      value: 0.2
    }
  }
}
layer {
  name: "inception_3b/relu_5x5"
  type: "ReLU"
  bottom: "inception_3b/5x5"
  top: "inception_3b/5x5"
}
layer {
  name: "inception_3b/pool"
  type: "Pooling"
  bottom: "inception_3a/output"
  top: "inception_3b/pool"
  pooling_param {
    pool: MAX
    kernel_size: 3
    stride: 1
    pad: 1
  }
}
layer {
  name: "inception_3b/pool_proj"
  type: "Convolution"
  bottom: "inception_3b/pool"
  top: "inception_3b/pool_proj"
  param {
    lr_mult: 1
    decay_mult: 1
  }
  param {
    lr_mult: 2
    decay_mult: 0
  }
  convolution_param {
    num_output: 64
    kernel_size: 1
    weight_filler {
      type: "xavier"
      std: 0.1
    }
    bias_filler {
      type: "constant"
      value: 0.2
    }
  }
}
layer {
  name: "inception_3b/relu_pool_proj"
  type: "ReLU"
  bottom: "inception_3b/pool_proj"
  top: "inception_3b/pool_proj"
}
layer {
  name: "inception_3b/output"
  type: "Concat"
  bottom: "inception_3b/1x1"
  bottom: "inception_3b/3x3"
  bottom: "inception_3b/5x5"
  bottom: "inception_3b/pool_proj"
  top: "inception_3b/output"
}
layer {
  name: "pool3/3x3_s2"
  type: "Pooling"
  bottom: "inception_3b/output"
  top: "pool3/3x3_s2"
  pooling_param {
    pool: MAX
    kernel_size: 3
    stride: 2
  }
}
layer {
  name: "inception_4a/1x1"
  type: "Convolution"
  bottom: "pool3/3x3_s2"
  top: "inception_4a/1x1"
  param {
    lr_mult: 1
    decay_mult: 1
  }
  param {
    lr_mult: 2
    decay_mult: 0
  }
  convolution_param {
    num_output: 192
    kernel_size: 1
    weight_filler {
      type: "xavier"
      std: 0.03
    }
    bias_filler {
      type: "constant"
      value: 0.2
    }
  }
}
layer {
  name: "inception_4a/relu_1x1"
  type: "ReLU"
  bottom: "inception_4a/1x1"
  top: "inception_4a/1x1"
}
layer {
  name: "inception_4a/3x3_reduce"
  type: "Convolution"
  bottom: "pool3/3x3_s2"
  top: "inception_4a/3x3_reduce"
  param {
    lr_mult: 1
    decay_mult: 1
  }
  param {
    lr_mult: 2
    decay_mult: 0
  }
  convolution_param {
    num_output: 96
    kernel_size: 1
    weight_filler {
      type: "xavier"
      std: 0.09
    }
    bias_filler {
      type: "constant"
      value: 0.2
    }
  }
}
layer {
  name: "inception_4a/relu_3x3_reduce"
  type: "ReLU"
  bottom: "inception_4a/3x3_reduce"
  top: "inception_4a/3x3_reduce"
}
layer {
  name: "inception_4a/3x3"
  type: "Convolution"
  bottom: "inception_4a/3x3_reduce"
  top: "inception_4a/3x3"
  param {
    lr_mult: 1
    decay_mult: 1
  }
  param {
    lr_mult: 2
    decay_mult: 0
  }
  convolution_param {
    num_output: 208
    pad: 1
    kernel_size: 3
    weight_filler {
      type: "xavier"
      std: 0.03
    }
    bias_filler {
      type: "constant"
      value: 0.2
    }
  }
}
layer {
  name: "inception_4a/relu_3x3"
  type: "ReLU"
  bottom: "inception_4a/3x3"
  top: "inception_4a/3x3"
}
layer {
  name: "inception_4a/5x5_reduce"
  type: "Convolution"
  bottom: "pool3/3x3_s2"
  top: "inception_4a/5x5_reduce"
  param {
    lr_mult: 1
    decay_mult: 1
  }
  param {
    lr_mult: 2
    decay_mult: 0
  }
  convolution_param {
    num_output: 16
    kernel_size: 1
    weight_filler {
      type: "xavier"
      std: 0.2
    }
    bias_filler {
      type: "constant"
      value: 0.2
    }
  }
}
layer {
  name: "inception_4a/relu_5x5_reduce"
  type: "ReLU"
  bottom: "inception_4a/5x5_reduce"
  top: "inception_4a/5x5_reduce"
}
layer {
  name: "inception_4a/5x5"
  type: "Convolution"
  bottom: "inception_4a/5x5_reduce"
  top: "inception_4a/5x5"
  param {
    lr_mult: 1
    decay_mult: 1
  }
  param {
    lr_mult: 2
    decay_mult: 0
  }
  convolution_param {
    num_output: 48
    pad: 2
    kernel_size: 5
    weight_filler {
      type: "xavier"
      std: 0.03
    }
    bias_filler {
      type: "constant"
      value: 0.2
    }
  }
}
layer {
  name: "inception_4a/relu_5x5"
  type: "ReLU"
  bottom: "inception_4a/5x5"
  top: "inception_4a/5x5"
}
layer {
  name: "inception_4a/pool"
  type: "Pooling"
  bottom: "pool3/3x3_s2"
  top: "inception_4a/pool"
  pooling_param {
    pool: MAX
    kernel_size: 3
    stride: 1
    pad: 1
  }
}
layer {
  name: "inception_4a/pool_proj"
  type: "Convolution"
  bottom: "inception_4a/pool"
  top: "inception_4a/pool_proj"
  param {
    lr_mult: 1
    decay_mult: 1
  }
  param {
    lr_mult: 2
    decay_mult: 0
  }
  convolution_param {
    num_output: 64
    kernel_size: 1
    weight_filler {
      type: "xavier"
      std: 0.1
    }
    bias_filler {
      type: "constant"
      value: 0.2
    }
  }
}
layer {
  name: "inception_4a/relu_pool_proj"
  type: "ReLU"
  bottom: "inception_4a/pool_proj"
  top: "inception_4a/pool_proj"
}
layer {
  name: "inception_4a/output"
  type: "Concat"
  bottom: "inception_4a/1x1"
  bottom: "inception_4a/3x3"
  bottom: "inception_4a/5x5"
  bottom: "inception_4a/pool_proj"
  top: "inception_4a/output"
}
layer {
  name: "loss1/ave_pool"
  type: "Pooling"
  bottom: "inception_4a/output"
  top: "loss1/ave_pool"
  pooling_param {
    pool: AVE
    kernel_size: 5
    stride: 3
  }
}
layer {
  name: "loss1/conv"
  type: "Convolution"
  bottom: "loss1/ave_pool"
  top: "loss1/conv"
  param {
    lr_mult: 1
    decay_mult: 1
  }
  param {
    lr_mult: 2
    decay_mult: 0
  }
  convolution_param {
    num_output: 128
    kernel_size: 1
    weight_filler {
      type: "xavier"
      std: 0.08
    }
    bias_filler {
      type: "constant"
      value: 0.2
    }
  }
}
layer {
  name: "loss1/relu_conv"
  type: "ReLU"
  bottom: "loss1/conv"
  top: "loss1/conv"
}
layer {
  name: "loss1/fc"
  type: "InnerProduct"
  bottom: "loss1/conv"
  top: "loss1/fc"
  param {
    lr_mult: 1
    decay_mult: 1
  }
  param {
    lr_mult: 2
    decay_mult: 0
  }
  inner_product_param {
    num_output: 1024
    weight_filler {
      type: "xavier"
      std: 0.02
    }
    bias_filler {
      type: "constant"
      value: 0.2
    }
  }
}
layer {
  name: "loss1/relu_fc"
  type: "ReLU"
  bottom: "loss1/fc"
  top: "loss1/fc"
}
layer {
  name: "loss1/drop_fc"
  type: "Dropout"
  bottom: "loss1/fc"
  top: "loss1/fc"
  dropout_param {
    dropout_ratio: 0.7
  }
}
layer {
  name: "loss1/classifier_cub"
  type: "InnerProduct"
  bottom: "loss1/fc"
  top: "loss1/classifier"
  param {
    lr_mult: 1
    decay_mult: 1
  }
  param {
    lr_mult: 2
    decay_mult: 0
  }
  inner_product_param {
    num_output: 200
    weight_filler {
      type: "gaussian"
      std: 1e-05
    }
    bias_filler {
      type: "constant"
      value: 0
    }
  }
}
layer {
  name: "loss1/loss"
  type: "SoftmaxWithLoss"
  bottom: "loss1/classifier"
  bottom: "label"
  top: "loss1/loss1"
  loss_weight: 0.3
}
layer {
  name: "inception_4b/1x1"
  type: "Convolution"
  bottom: "inception_4a/output"
  top: "inception_4b/1x1"
  param {
    lr_mult: 1
    decay_mult: 1
  }
  param {
    lr_mult: 2
    decay_mult: 0
  }
  convolution_param {
    num_output: 160
    kernel_size: 1
    weight_filler {
      type: "xavier"
      std: 0.03
    }
    bias_filler {
      type: "constant"
      value: 0.2
    }
  }
}
layer {
  name: "inception_4b/relu_1x1"
  type: "ReLU"
  bottom: "inception_4b/1x1"
  top: "inception_4b/1x1"
}
layer {
  name: "inception_4b/3x3_reduce"
  type: "Convolution"
  bottom: "inception_4a/output"
  top: "inception_4b/3x3_reduce"
  param {
    lr_mult: 1
    decay_mult: 1
  }
  param {
    lr_mult: 2
    decay_mult: 0
  }
  convolution_param {
    num_output: 112
    kernel_size: 1
    weight_filler {
      type: "xavier"
      std: 0.09
    }
    bias_filler {
      type: "constant"
      value: 0.2
    }
  }
}
layer {
  name: "inception_4b/relu_3x3_reduce"
  type: "ReLU"
  bottom: "inception_4b/3x3_reduce"
  top: "inception_4b/3x3_reduce"
}
layer {
  name: "inception_4b/3x3"
  type: "Convolution"
  bottom: "inception_4b/3x3_reduce"
  top: "inception_4b/3x3"
  param {
    lr_mult: 1
    decay_mult: 1
  }
  param {
    lr_mult: 2
    decay_mult: 0
  }
  convolution_param {
    num_output: 224
    pad: 1
    kernel_size: 3
    weight_filler {
      type: "xavier"
      std: 0.03
    }
    bias_filler {
      type: "constant"
      value: 0.2
    }
  }
}
layer {
  name: "inception_4b/relu_3x3"
  type: "ReLU"
  bottom: "inception_4b/3x3"
  top: "inception_4b/3x3"
}
layer {
  name: "inception_4b/5x5_reduce"
  type: "Convolution"
  bottom: "inception_4a/output"
  top: "inception_4b/5x5_reduce"
  param {
    lr_mult: 1
    decay_mult: 1
  }
  param {
    lr_mult: 2
    decay_mult: 0
  }
  convolution_param {
    num_output: 24
    kernel_size: 1
    weight_filler {
      type: "xavier"
      std: 0.2
    }
    bias_filler {
      type: "constant"
      value: 0.2
    }
  }
}
layer {
  name: "inception_4b/relu_5x5_reduce"
  type: "ReLU"
  bottom: "inception_4b/5x5_reduce"
  top: "inception_4b/5x5_reduce"
}
layer {
  name: "inception_4b/5x5"
  type: "Convolution"
  bottom: "inception_4b/5x5_reduce"
  top: "inception_4b/5x5"
  param {
    lr_mult: 1
    decay_mult: 1
  }
  param {
    lr_mult: 2
    decay_mult: 0
  }
  convolution_param {
    num_output: 64
    pad: 2
    kernel_size: 5
    weight_filler {
      type: "xavier"
      std: 0.03
    }
    bias_filler {
      type: "constant"
      value: 0.2
    }
  }
}
layer {
  name: "inception_4b/relu_5x5"
  type: "ReLU"
  bottom: "inception_4b/5x5"
  top: "inception_4b/5x5"
}
layer {
  name: "inception_4b/pool"
  type: "Pooling"
  bottom: "inception_4a/output"
  top: "inception_4b/pool"
  pooling_param {
    pool: MAX
    kernel_size: 3
    stride: 1
    pad: 1
  }
}
layer {
  name: "inception_4b/pool_proj"
  type: "Convolution"
  bottom: "inception_4b/pool"
  top: "inception_4b/pool_proj"
  param {
    lr_mult: 1
    decay_mult: 1
  }
  param {
    lr_mult: 2
    decay_mult: 0
  }
  convolution_param {
    num_output: 64
    kernel_size: 1
    weight_filler {
      type: "xavier"
      std: 0.1
    }
    bias_filler {
      type: "constant"
      value: 0.2
    }
  }
}
layer {
  name: "inception_4b/relu_pool_proj"
  type: "ReLU"
  bottom: "inception_4b/pool_proj"
  top: "inception_4b/pool_proj"
}
layer {
  name: "inception_4b/output"
  type: "Concat"
  bottom: "inception_4b/1x1"
  bottom: "inception_4b/3x3"
  bottom: "inception_4b/5x5"
  bottom: "inception_4b/pool_proj"
  top: "inception_4b/output"
}
layer {
  name: "inception_4c/1x1"
  type: "Convolution"
  bottom: "inception_4b/output"
  top: "inception_4c/1x1"
  param {
    lr_mult: 1
    decay_mult: 1
  }
  param {
    lr_mult: 2
    decay_mult: 0
  }
  convolution_param {
    num_output: 128
    kernel_size: 1
    weight_filler {
      type: "xavier"
      std: 0.03
    }
    bias_filler {
      type: "constant"
      value: 0.2
    }
  }
}
layer {
  name: "inception_4c/relu_1x1"
  type: "ReLU"
  bottom: "inception_4c/1x1"
  top: "inception_4c/1x1"
}
layer {
  name: "inception_4c/3x3_reduce"
  type: "Convolution"
  bottom: "inception_4b/output"
  top: "inception_4c/3x3_reduce"
  param {
    lr_mult: 1
    decay_mult: 1
  }
  param {
    lr_mult: 2
    decay_mult: 0
  }
  convolution_param {
    num_output: 128
    kernel_size: 1
    weight_filler {
      type: "xavier"
      std: 0.09
    }
    bias_filler {
      type: "constant"
      value: 0.2
    }
  }
}
layer {
  name: "inception_4c/relu_3x3_reduce"
  type: "ReLU"
  bottom: "inception_4c/3x3_reduce"
  top: "inception_4c/3x3_reduce"
}
layer {
  name: "inception_4c/3x3"
  type: "Convolution"
  bottom: "inception_4c/3x3_reduce"
  top: "inception_4c/3x3"
  param {
    lr_mult: 1
    decay_mult: 1
  }
  param {
    lr_mult: 2
    decay_mult: 0
  }
  convolution_param {
    num_output: 256
    pad: 1
    kernel_size: 3
    weight_filler {
      type: "xavier"
      std: 0.03
    }
    bias_filler {
      type: "constant"
      value: 0.2
    }
  }
}
layer {
  name: "inception_4c/relu_3x3"
  type: "ReLU"
  bottom: "inception_4c/3x3"
  top: "inception_4c/3x3"
}
layer {
  name: "inception_4c/5x5_reduce"
  type: "Convolution"
  bottom: "inception_4b/output"
  top: "inception_4c/5x5_reduce"
  param {
    lr_mult: 1
    decay_mult: 1
  }
  param {
    lr_mult: 2
    decay_mult: 0
  }
  convolution_param {
    num_output: 24
    kernel_size: 1
    weight_filler {
      type: "xavier"
      std: 0.2
    }
    bias_filler {
      type: "constant"
      value: 0.2
    }
  }
}
layer {
  name: "inception_4c/relu_5x5_reduce"
  type: "ReLU"
  bottom: "inception_4c/5x5_reduce"
  top: "inception_4c/5x5_reduce"
}
layer {
  name: "inception_4c/5x5"
  type: "Convolution"
  bottom: "inception_4c/5x5_reduce"
  top: "inception_4c/5x5"
  param {
    lr_mult: 1
    decay_mult: 1
  }
  param {
    lr_mult: 2
    decay_mult: 0
  }
  convolution_param {
    num_output: 64
    pad: 2
    kernel_size: 5
    weight_filler {
      type: "xavier"
      std: 0.03
    }
    bias_filler {
      type: "constant"
      value: 0.2
    }
  }
}
layer {
  name: "inception_4c/relu_5x5"
  type: "ReLU"
  bottom: "inception_4c/5x5"
  top: "inception_4c/5x5"
}
layer {
  name: "inception_4c/pool"
  type: "Pooling"
  bottom: "inception_4b/output"
  top: "inception_4c/pool"
  pooling_param {
    pool: MAX
    kernel_size: 3
    stride: 1
    pad: 1
  }
}
layer {
  name: "inception_4c/pool_proj"
  type: "Convolution"
  bottom: "inception_4c/pool"
  top: "inception_4c/pool_proj"
  param {
    lr_mult: 1
    decay_mult: 1
  }
  param {
    lr_mult: 2
    decay_mult: 0
  }
  convolution_param {
    num_output: 64
    kernel_size: 1
    weight_filler {
      type: "xavier"
      std: 0.1
    }
    bias_filler {
      type: "constant"
      value: 0.2
    }
  }
}
layer {
  name: "inception_4c/relu_pool_proj"
  type: "ReLU"
  bottom: "inception_4c/pool_proj"
  top: "inception_4c/pool_proj"
}
layer {
  name: "inception_4c/output"
  type: "Concat"
  bottom: "inception_4c/1x1"
  bottom: "inception_4c/3x3"
  bottom: "inception_4c/5x5"
  bottom: "inception_4c/pool_proj"
  top: "inception_4c/output"
}
layer {
  name: "inception_4d/1x1"
  type: "Convolution"
  bottom: "inception_4c/output"
  top: "inception_4d/1x1"
  param {
    lr_mult: 1
    decay_mult: 1
  }
  param {
    lr_mult: 2
    decay_mult: 0
  }
  convolution_param {
    num_output: 112
    kernel_size: 1
    weight_filler {
      type: "xavier"
      std: 0.03
    }
    bias_filler {
      type: "constant"
      value: 0.2
    }
  }
}
layer {
  name: "inception_4d/relu_1x1"
  type: "ReLU"
  bottom: "inception_4d/1x1"
  top: "inception_4d/1x1"
}
layer {
  name: "inception_4d/3x3_reduce"
  type: "Convolution"
  bottom: "inception_4c/output"
  top: "inception_4d/3x3_reduce"
  param {
    lr_mult: 1
    decay_mult: 1
  }
  param {
    lr_mult: 2
    decay_mult: 0
  }
  convolution_param {
    num_output: 144
    kernel_size: 1
    weight_filler {
      type: "xavier"
      std: 0.09
    }
    bias_filler {
      type: "constant"
      value: 0.2
    }
  }
}
layer {
  name: "inception_4d/relu_3x3_reduce"
  type: "ReLU"
  bottom: "inception_4d/3x3_reduce"
  top: "inception_4d/3x3_reduce"
}
layer {
  name: "inception_4d/3x3"
  type: "Convolution"
  bottom: "inception_4d/3x3_reduce"
  top: "inception_4d/3x3"
  param {
    lr_mult: 1
    decay_mult: 1
  }
  param {
    lr_mult: 2
    decay_mult: 0
  }
  convolution_param {
    num_output: 288
    pad: 1
    kernel_size: 3
    weight_filler {
      type: "xavier"
      std: 0.03
    }
    bias_filler {
      type: "constant"
      value: 0.2
    }
  }
}
layer {
  name: "inception_4d/relu_3x3"
  type: "ReLU"
  bottom: "inception_4d/3x3"
  top: "inception_4d/3x3"
}
layer {
  name: "inception_4d/5x5_reduce"
  type: "Convolution"
  bottom: "inception_4c/output"
  top: "inception_4d/5x5_reduce"
  param {
    lr_mult: 1
    decay_mult: 1
  }
  param {
    lr_mult: 2
    decay_mult: 0
  }
  convolution_param {
    num_output: 32
    kernel_size: 1
    weight_filler {
      type: "xavier"
      std: 0.2
    }
    bias_filler {
      type: "constant"
      value: 0.2
    }
  }
}
layer {
  name: "inception_4d/relu_5x5_reduce"
  type: "ReLU"
  bottom: "inception_4d/5x5_reduce"
  top: "inception_4d/5x5_reduce"
}
layer {
  name: "inception_4d/5x5"
  type: "Convolution"
  bottom: "inception_4d/5x5_reduce"
  top: "inception_4d/5x5"
  param {
    lr_mult: 1
    decay_mult: 1
  }
  param {
    lr_mult: 2
    decay_mult: 0
  }
  convolution_param {
    num_output: 64
    pad: 2
    kernel_size: 5
    weight_filler {
      type: "xavier"
      std: 0.03
    }
    bias_filler {
      type: "constant"
      value: 0.2
    }
  }
}
layer {
  name: "inception_4d/relu_5x5"
  type: "ReLU"
  bottom: "inception_4d/5x5"
  top: "inception_4d/5x5"
}
layer {
  name: "inception_4d/pool"
  type: "Pooling"
  bottom: "inception_4c/output"
  top: "inception_4d/pool"
  pooling_param {
    pool: MAX
    kernel_size: 3
    stride: 1
    pad: 1
  }
}
layer {
  name: "inception_4d/pool_proj"
  type: "Convolution"
  bottom: "inception_4d/pool"
  top: "inception_4d/pool_proj"
  param {
    lr_mult: 1
    decay_mult: 1
  }
  param {
    lr_mult: 2
    decay_mult: 0
  }
  convolution_param {
    num_output: 64
    kernel_size: 1
    weight_filler {
      type: "xavier"
      std: 0.1
    }
    bias_filler {
      type: "constant"
      value: 0.2
    }
  }
}
layer {
  name: "inception_4d/relu_pool_proj"
  type: "ReLU"
  bottom: "inception_4d/pool_proj"
  top: "inception_4d/pool_proj"
}
layer {
  name: "inception_4d/output"
  type: "Concat"
  bottom: "inception_4d/1x1"
  bottom: "inception_4d/3x3"
  bottom: "inception_4d/5x5"
  bottom: "inception_4d/pool_proj"
  top: "inception_4d/output"
}
layer {
  name: "loss2/ave_pool"
  type: "Pooling"
  bottom: "inception_4d/output"
  top: "loss2/ave_pool"
  pooling_param {
    pool: AVE
    kernel_size: 5
    stride: 3
  }
}
layer {
  name: "loss2/conv"
  type: "Convolution"
  bottom: "loss2/ave_pool"
  top: "loss2/conv"
  param {
    lr_mult: 1
    decay_mult: 1
  }
  param {
    lr_mult: 2
    decay_mult: 0
  }
  convolution_param {
    num_output: 128
    kernel_size: 1
    weight_filler {
      type: "xavier"
      std: 0.08
    }
    bias_filler {
      type: "constant"
      value: 0.2
    }
  }
}
layer {
  name: "loss2/relu_conv"
  type: "ReLU"
  bottom: "loss2/conv"
  top: "loss2/conv"
}
layer {
  name: "loss2/fc"
  type: "InnerProduct"
  bottom: "loss2/conv"
  top: "loss2/fc"
  param {
    lr_mult: 1
    decay_mult: 1
  }
  param {
    lr_mult: 2
    decay_mult: 0
  }
  inner_product_param {
    num_output: 1024
    weight_filler {
      type: "xavier"
      std: 0.02
    }
    bias_filler {
      type: "constant"
      value: 0.2
    }
  }
}
layer {
  name: "loss2/relu_fc"
  type: "ReLU"
  bottom: "loss2/fc"
  top: "loss2/fc"
}
layer {
  name: "loss2/drop_fc"
  type: "Dropout"
  bottom: "loss2/fc"
  top: "loss2/fc"
  dropout_param {
    dropout_ratio: 0.7
  }
}
layer {
  name: "loss2/classifier_cub"
  type: "InnerProduct"
  bottom: "loss2/fc"
  top: "loss2/classifier"
  param {
    lr_mult: 1
    decay_mult: 1
  }
  param {
    lr_mult: 2
    decay_mult: 0
  }
  inner_product_param {
    num_output: 200
    weight_filler {
      type: "gaussian"
      std: 1e-05
    }
    bias_filler {
      type: "constant"
      value: 0
    }
  }
}
layer {
  name: "loss2/loss"
  type: "SoftmaxWithLoss"
  bottom: "loss2/classifier"
  bottom: "label"
  top: "loss2/loss1"
  loss_weight: 0.3
}
layer {
  name: "inception_4e/1x1"
  type: "Convolution"
  bottom: "inception_4d/output"
  top: "inception_4e/1x1"
  param {
    lr_mult: 1
    decay_mult: 1
  }
  param {
    lr_mult: 2
    decay_mult: 0
  }
  convolution_param {
    num_output: 256
    kernel_size: 1
    weight_filler {
      type: "xavier"
      std: 0.03
    }
    bias_filler {
      type: "constant"
      value: 0.2
    }
  }
}
layer {
  name: "inception_4e/relu_1x1"
  type: "ReLU"
  bottom: "inception_4e/1x1"
  top: "inception_4e/1x1"
}
layer {
  name: "inception_4e/3x3_reduce"
  type: "Convolution"
  bottom: "inception_4d/output"
  top: "inception_4e/3x3_reduce"
  param {
    lr_mult: 1
    decay_mult: 1
  }
  param {
    lr_mult: 2
    decay_mult: 0
  }
  convolution_param {
    num_output: 160
    kernel_size: 1
    weight_filler {
      type: "xavier"
      std: 0.09
    }
    bias_filler {
      type: "constant"
      value: 0.2
    }
  }
}
layer {
  name: "inception_4e/relu_3x3_reduce"
  type: "ReLU"
  bottom: "inception_4e/3x3_reduce"
  top: "inception_4e/3x3_reduce"
}
layer {
  name: "inception_4e/3x3"
  type: "Convolution"
  bottom: "inception_4e/3x3_reduce"
  top: "inception_4e/3x3"
  param {
    lr_mult: 1
    decay_mult: 1
  }
  param {
    lr_mult: 2
    decay_mult: 0
  }
  convolution_param {
    num_output: 320
    pad: 1
    kernel_size: 3
    weight_filler {
      type: "xavier"
      std: 0.03
    }
    bias_filler {
      type: "constant"
      value: 0.2
    }
  }
}
layer {
  name: "inception_4e/relu_3x3"
  type: "ReLU"
  bottom: "inception_4e/3x3"
  top: "inception_4e/3x3"
}
layer {
  name: "inception_4e/5x5_reduce"
  type: "Convolution"
  bottom: "inception_4d/output"
  top: "inception_4e/5x5_reduce"
  param {
    lr_mult: 1
    decay_mult: 1
  }
  param {
    lr_mult: 2
    decay_mult: 0
  }
  convolution_param {
    num_output: 32
    kernel_size: 1
    weight_filler {
      type: "xavier"
      std: 0.2
    }
    bias_filler {
      type: "constant"
      value: 0.2
    }
  }
}
layer {
  name: "inception_4e/relu_5x5_reduce"
  type: "ReLU"
  bottom
I0902 16:07:52.008723 53383 layer_factory.hpp:76] Creating layer data
I0902 16:07:52.009358 53383 net.cpp:110] Creating Layer data
I0902 16:07:52.009376 53383 net.cpp:433] data -> data
I0902 16:07:52.009500 53383 net.cpp:433] data -> label
I0902 16:07:52.011046 53386 db_lmdb.cpp:22] Opened lmdb data/cub_train
I0902 16:07:52.011673 53383 data_layer.cpp:44] output data size: 32,3,224,224
I0902 16:07:52.058303 53383 net.cpp:155] Setting up data
I0902 16:07:52.058372 53383 net.cpp:163] Top shape: 32 3 224 224 (4816896)
I0902 16:07:52.058380 53383 net.cpp:163] Top shape: 32 (32)
I0902 16:07:52.058392 53383 layer_factory.hpp:76] Creating layer label_data_1_split
I0902 16:07:52.058527 53383 net.cpp:110] Creating Layer label_data_1_split
I0902 16:07:52.058575 53383 net.cpp:477] label_data_1_split <- label
I0902 16:07:52.058630 53383 net.cpp:433] label_data_1_split -> label_data_1_split_0
I0902 16:07:52.058663 53383 net.cpp:433] label_data_1_split -> label_data_1_split_1
I0902 16:07:52.058717 53383 net.cpp:433] label_data_1_split -> label_data_1_split_2
I0902 16:07:52.058751 53383 net.cpp:155] Setting up label_data_1_split
I0902 16:07:52.058771 53383 net.cpp:163] Top shape: 32 (32)
I0902 16:07:52.058785 53383 net.cpp:163] Top shape: 32 (32)
I0902 16:07:52.058802 53383 net.cpp:163] Top shape: 32 (32)
I0902 16:07:52.058815 53383 layer_factory.hpp:76] Creating layer conv1/7x7_s2
I0902 16:07:52.058845 53383 net.cpp:110] Creating Layer conv1/7x7_s2
I0902 16:07:52.058857 53383 net.cpp:477] conv1/7x7_s2 <- data
I0902 16:07:52.058877 53383 net.cpp:433] conv1/7x7_s2 -> conv1/7x7_s2
I0902 16:07:52.399046 53383 net.cpp:155] Setting up conv1/7x7_s2
I0902 16:07:52.399185 53383 net.cpp:163] Top shape: 32 64 112 112 (25690112)
I0902 16:07:52.399271 53383 layer_factory.hpp:76] Creating layer conv1/relu_7x7
I0902 16:07:52.399350 53383 net.cpp:110] Creating Layer conv1/relu_7x7
I0902 16:07:52.399389 53383 net.cpp:477] conv1/relu_7x7 <- conv1/7x7_s2
I0902 16:07:52.399428 53383 net.cpp:419] conv1/relu_7x7 -> conv1/7x7_s2 (in-place)
I0902 16:07:52.400702 53383 net.cpp:155] Setting up conv1/relu_7x7
I0902 16:07:52.400732 53383 net.cpp:163] Top shape: 32 64 112 112 (25690112)
I0902 16:07:52.400763 53383 layer_factory.hpp:76] Creating layer pool1/3x3_s2
I0902 16:07:52.400805 53383 net.cpp:110] Creating Layer pool1/3x3_s2
I0902 16:07:52.400820 53383 net.cpp:477] pool1/3x3_s2 <- conv1/7x7_s2
I0902 16:07:52.400841 53383 net.cpp:433] pool1/3x3_s2 -> pool1/3x3_s2
I0902 16:07:52.402308 53383 net.cpp:155] Setting up pool1/3x3_s2
I0902 16:07:52.402339 53383 net.cpp:163] Top shape: 32 64 56 56 (6422528)
I0902 16:07:52.402357 53383 layer_factory.hpp:76] Creating layer pool1/norm1
I0902 16:07:52.402389 53383 net.cpp:110] Creating Layer pool1/norm1
I0902 16:07:52.402400 53383 net.cpp:477] pool1/norm1 <- pool1/3x3_s2
I0902 16:07:52.402415 53383 net.cpp:433] pool1/norm1 -> pool1/norm1
I0902 16:07:52.402441 53383 net.cpp:155] Setting up pool1/norm1
I0902 16:07:52.402454 53383 net.cpp:163] Top shape: 32 64 56 56 (6422528)
I0902 16:07:52.402463 53383 layer_factory.hpp:76] Creating layer conv2/3x3_reduce
I0902 16:07:52.402500 53383 net.cpp:110] Creating Layer conv2/3x3_reduce
I0902 16:07:52.402510 53383 net.cpp:477] conv2/3x3_reduce <- pool1/norm1
I0902 16:07:52.402532 53383 net.cpp:433] conv2/3x3_reduce -> conv2/3x3_reduce
I0902 16:07:52.461868 53383 net.cpp:155] Setting up conv2/3x3_reduce
I0902 16:07:52.461900 53383 net.cpp:163] Top shape: 32 64 56 56 (6422528)
I0902 16:07:52.461925 53383 layer_factory.hpp:76] Creating layer conv2/relu_3x3_reduce
I0902 16:07:52.461961 53383 net.cpp:110] Creating Layer conv2/relu_3x3_reduce
I0902 16:07:52.461972 53383 net.cpp:477] conv2/relu_3x3_reduce <- conv2/3x3_reduce
I0902 16:07:52.461987 53383 net.cpp:419] conv2/relu_3x3_reduce -> conv2/3x3_reduce (in-place)
I0902 16:07:52.464699 53383 net.cpp:155] Setting up conv2/relu_3x3_reduce
I0902 16:07:52.464730 53383 net.cpp:163] Top shape: 32 64 56 56 (6422528)
I0902 16:07:52.464754 53383 layer_factory.hpp:76] Creating layer conv2/3x3
I0902 16:07:52.464783 53383 net.cpp:110] Creating Layer conv2/3x3
I0902 16:07:52.464794 53383 net.cpp:477] conv2/3x3 <- conv2/3x3_reduce
I0902 16:07:52.464823 53383 net.cpp:433] conv2/3x3 -> conv2/3x3
I0902 16:07:52.523818 53383 net.cpp:155] Setting up conv2/3x3
I0902 16:07:52.523849 53383 net.cpp:163] Top shape: 32 192 56 56 (19267584)
I0902 16:07:52.523874 53383 layer_factory.hpp:76] Creating layer conv2/relu_3x3
I0902 16:07:52.523890 53383 net.cpp:110] Creating Layer conv2/relu_3x3
I0902 16:07:52.523900 53383 net.cpp:477] conv2/relu_3x3 <- conv2/3x3
I0902 16:07:52.523915 53383 net.cpp:419] conv2/relu_3x3 -> conv2/3x3 (in-place)
I0902 16:07:52.525980 53383 net.cpp:155] Setting up conv2/relu_3x3
I0902 16:07:52.526010 53383 net.cpp:163] Top shape: 32 192 56 56 (19267584)
I0902 16:07:52.526034 53383 layer_factory.hpp:76] Creating layer conv2/norm2
I0902 16:07:52.526051 53383 net.cpp:110] Creating Layer conv2/norm2
I0902 16:07:52.526060 53383 net.cpp:477] conv2/norm2 <- conv2/3x3
I0902 16:07:52.526090 53383 net.cpp:433] conv2/norm2 -> conv2/norm2
I0902 16:07:52.526141 53383 net.cpp:155] Setting up conv2/norm2
I0902 16:07:52.526170 53383 net.cpp:163] Top shape: 32 192 56 56 (19267584)
I0902 16:07:52.526180 53383 layer_factory.hpp:76] Creating layer pool2/3x3_s2
I0902 16:07:52.526219 53383 net.cpp:110] Creating Layer pool2/3x3_s2
I0902 16:07:52.526233 53383 net.cpp:477] pool2/3x3_s2 <- conv2/norm2
I0902 16:07:52.526247 53383 net.cpp:433] pool2/3x3_s2 -> pool2/3x3_s2
I0902 16:07:52.578486 53383 net.cpp:155] Setting up pool2/3x3_s2
I0902 16:07:52.578519 53383 net.cpp:163] Top shape: 32 192 28 28 (4816896)
I0902 16:07:52.578531 53383 layer_factory.hpp:76] Creating layer pool2/3x3_s2_pool2/3x3_s2_0_split
I0902 16:07:52.578547 53383 net.cpp:110] Creating Layer pool2/3x3_s2_pool2/3x3_s2_0_split
I0902 16:07:52.578557 53383 net.cpp:477] pool2/3x3_s2_pool2/3x3_s2_0_split <- pool2/3x3_s2
I0902 16:07:52.578585 53383 net.cpp:433] pool2/3x3_s2_pool2/3x3_s2_0_split -> pool2/3x3_s2_pool2/3x3_s2_0_split_0
I0902 16:07:52.578604 53383 net.cpp:433] pool2/3x3_s2_pool2/3x3_s2_0_split -> pool2/3x3_s2_pool2/3x3_s2_0_split_1
I0902 16:07:52.578619 53383 net.cpp:433] pool2/3x3_s2_pool2/3x3_s2_0_split -> pool2/3x3_s2_pool2/3x3_s2_0_split_2
I0902 16:07:52.578637 53383 net.cpp:433] pool2/3x3_s2_pool2/3x3_s2_0_split -> pool2/3x3_s2_pool2/3x3_s2_0_split_3
I0902 16:07:52.578655 53383 net.cpp:155] Setting up pool2/3x3_s2_pool2/3x3_s2_0_split
I0902 16:07:52.578667 53383 net.cpp:163] Top shape: 32 192 28 28 (4816896)
I0902 16:07:52.578678 53383 net.cpp:163] Top shape: 32 192 28 28 (4816896)
I0902 16:07:52.578688 53383 net.cpp:163] Top shape: 32 192 28 28 (4816896)
I0902 16:07:52.578698 53383 net.cpp:163] Top shape: 32 192 28 28 (4816896)
I0902 16:07:52.578707 53383 layer_factory.hpp:76] Creating layer inception_3a/1x1
I0902 16:07:52.578750 53383 net.cpp:110] Creating Layer inception_3a/1x1
I0902 16:07:52.578760 53383 net.cpp:477] inception_3a/1x1 <- pool2/3x3_s2_pool2/3x3_s2_0_split_0
I0902 16:07:52.578774 53383 net.cpp:433] inception_3a/1x1 -> inception_3a/1x1
I0902 16:07:52.639870 53383 net.cpp:155] Setting up inception_3a/1x1
I0902 16:07:52.639904 53383 net.cpp:163] Top shape: 32 64 28 28 (1605632)
I0902 16:07:52.639922 53383 layer_factory.hpp:76] Creating layer inception_3a/relu_1x1
I0902 16:07:52.639937 53383 net.cpp:110] Creating Layer inception_3a/relu_1x1
I0902 16:07:52.639948 53383 net.cpp:477] inception_3a/relu_1x1 <- inception_3a/1x1
I0902 16:07:52.639966 53383 net.cpp:419] inception_3a/relu_1x1 -> inception_3a/1x1 (in-place)
I0902 16:07:52.641563 53383 net.cpp:155] Setting up inception_3a/relu_1x1
I0902 16:07:52.641598 53383 net.cpp:163] Top shape: 32 64 28 28 (1605632)
I0902 16:07:52.641609 53383 layer_factory.hpp:76] Creating layer inception_3a/3x3_reduce
I0902 16:07:52.641628 53383 net.cpp:110] Creating Layer inception_3a/3x3_reduce
I0902 16:07:52.641639 53383 net.cpp:477] inception_3a/3x3_reduce <- pool2/3x3_s2_pool2/3x3_s2_0_split_1
I0902 16:07:52.641659 53383 net.cpp:433] inception_3a/3x3_reduce -> inception_3a/3x3_reduce
I0902 16:07:52.648483 53383 net.cpp:155] Setting up inception_3a/3x3_reduce
I0902 16:07:52.648514 53383 net.cpp:163] Top shape: 32 96 28 28 (2408448)
I0902 16:07:52.648550 53383 layer_factory.hpp:76] Creating layer inception_3a/relu_3x3_reduce
I0902 16:07:52.648573 53383 net.cpp:110] Creating Layer inception_3a/relu_3x3_reduce
I0902 16:07:52.648588 53383 net.cpp:477] inception_3a/relu_3x3_reduce <- inception_3a/3x3_reduce
I0902 16:07:52.648602 53383 net.cpp:419] inception_3a/relu_3x3_reduce -> inception_3a/3x3_reduce (in-place)
I0902 16:07:52.650857 53383 net.cpp:155] Setting up inception_3a/relu_3x3_reduce
I0902 16:07:52.650887 53383 net.cpp:163] Top shape: 32 96 28 28 (2408448)
I0902 16:07:52.650899 53383 layer_factory.hpp:76] Creating layer inception_3a/3x3
I0902 16:07:52.650930 53383 net.cpp:110] Creating Layer inception_3a/3x3
I0902 16:07:52.650941 53383 net.cpp:477] inception_3a/3x3 <- inception_3a/3x3_reduce
I0902 16:07:52.650956 53383 net.cpp:433] inception_3a/3x3 -> inception_3a/3x3
I0902 16:07:52.657351 53383 net.cpp:155] Setting up inception_3a/3x3
I0902 16:07:52.657407 53383 net.cpp:163] Top shape: 32 128 28 28 (3211264)
I0902 16:07:52.657431 53383 layer_factory.hpp:76] Creating layer inception_3a/relu_3x3
I0902 16:07:52.657448 53383 net.cpp:110] Creating Layer inception_3a/relu_3x3
I0902 16:07:52.657457 53383 net.cpp:477] inception_3a/relu_3x3 <- inception_3a/3x3
I0902 16:07:52.657475 53383 net.cpp:419] inception_3a/relu_3x3 -> inception_3a/3x3 (in-place)
I0902 16:07:52.660686 53383 net.cpp:155] Setting up inception_3a/relu_3x3
I0902 16:07:52.660715 53383 net.cpp:163] Top shape: 32 128 28 28 (3211264)
I0902 16:07:52.660727 53383 layer_factory.hpp:76] Creating layer inception_3a/5x5_reduce
I0902 16:07:52.660751 53383 net.cpp:110] Creating Layer inception_3a/5x5_reduce
I0902 16:07:52.660761 53383 net.cpp:477] inception_3a/5x5_reduce <- pool2/3x3_s2_pool2/3x3_s2_0_split_2
I0902 16:07:52.660780 53383 net.cpp:433] inception_3a/5x5_reduce -> inception_3a/5x5_reduce
I0902 16:07:52.668017 53383 net.cpp:155] Setting up inception_3a/5x5_reduce
I0902 16:07:52.668046 53383 net.cpp:163] Top shape: 32 16 28 28 (401408)
I0902 16:07:52.668071 53383 layer_factory.hpp:76] Creating layer inception_3a/relu_5x5_reduce
I0902 16:07:52.668099 53383 net.cpp:110] Creating Layer inception_3a/relu_5x5_reduce
I0902 16:07:52.668110 53383 net.cpp:477] inception_3a/relu_5x5_reduce <- inception_3a/5x5_reduce
I0902 16:07:52.668128 53383 net.cpp:419] inception_3a/relu_5x5_reduce -> inception_3a/5x5_reduce (in-place)
I0902 16:07:52.671320 53383 net.cpp:155] Setting up inception_3a/relu_5x5_reduce
I0902 16:07:52.671350 53383 net.cpp:163] Top shape: 32 16 28 28 (401408)
I0902 16:07:52.671361 53383 layer_factory.hpp:76] Creating layer inception_3a/5x5
I0902 16:07:52.671383 53383 net.cpp:110] Creating Layer inception_3a/5x5
I0902 16:07:52.671393 53383 net.cpp:477] inception_3a/5x5 <- inception_3a/5x5_reduce
I0902 16:07:52.671409 53383 net.cpp:433] inception_3a/5x5 -> inception_3a/5x5
I0902 16:07:52.678086 53383 net.cpp:155] Setting up inception_3a/5x5
I0902 16:07:52.678117 53383 net.cpp:163] Top shape: 32 32 28 28 (802816)
I0902 16:07:52.678134 53383 layer_factory.hpp:76] Creating layer inception_3a/relu_5x5
I0902 16:07:52.678149 53383 net.cpp:110] Creating Layer inception_3a/relu_5x5
I0902 16:07:52.678160 53383 net.cpp:477] inception_3a/relu_5x5 <- inception_3a/5x5
I0902 16:07:52.678179 53383 net.cpp:419] inception_3a/relu_5x5 -> inception_3a/5x5 (in-place)
I0902 16:07:52.679673 53383 net.cpp:155] Setting up inception_3a/relu_5x5
I0902 16:07:52.679702 53383 net.cpp:163] Top shape: 32 32 28 28 (802816)
I0902 16:07:52.679714 53383 layer_factory.hpp:76] Creating layer inception_3a/pool
I0902 16:07:52.679726 53383 layer_factory.cpp:60] CUDNN does not support padding or multiple tops. Using Caffe's own pooling layer.
I0902 16:07:52.679744 53383 net.cpp:110] Creating Layer inception_3a/pool
I0902 16:07:52.679754 53383 net.cpp:477] inception_3a/pool <- pool2/3x3_s2_pool2/3x3_s2_0_split_3
I0902 16:07:52.679767 53383 net.cpp:433] inception_3a/pool -> inception_3a/pool
I0902 16:07:52.679788 53383 net.cpp:155] Setting up inception_3a/pool
I0902 16:07:52.679801 53383 net.cpp:163] Top shape: 32 192 28 28 (4816896)
I0902 16:07:52.679817 53383 layer_factory.hpp:76] Creating layer inception_3a/pool_proj
I0902 16:07:52.679846 53383 net.cpp:110] Creating Layer inception_3a/pool_proj
I0902 16:07:52.679855 53383 net.cpp:477] inception_3a/pool_proj <- inception_3a/pool
I0902 16:07:52.679874 53383 net.cpp:433] inception_3a/pool_proj -> inception_3a/pool_proj
I0902 16:07:52.689962 53383 net.cpp:155] Setting up inception_3a/pool_proj
I0902 16:07:52.689992 53383 net.cpp:163] Top shape: 32 32 28 28 (802816)
I0902 16:07:52.690017 53383 layer_factory.hpp:76] Creating layer inception_3a/relu_pool_proj
I0902 16:07:52.690037 53383 net.cpp:110] Creating Layer inception_3a/relu_pool_proj
I0902 16:07:52.690048 53383 net.cpp:477] inception_3a/relu_pool_proj <- inception_3a/pool_proj
I0902 16:07:52.690062 53383 net.cpp:419] inception_3a/relu_pool_proj -> inception_3a/pool_proj (in-place)
I0902 16:07:52.691653 53383 net.cpp:155] Setting up inception_3a/relu_pool_proj
I0902 16:07:52.691705 53383 net.cpp:163] Top shape: 32 32 28 28 (802816)
I0902 16:07:52.691717 53383 layer_factory.hpp:76] Creating layer inception_3a/output
I0902 16:07:52.691742 53383 net.cpp:110] Creating Layer inception_3a/output
I0902 16:07:52.691753 53383 net.cpp:477] inception_3a/output <- inception_3a/1x1
I0902 16:07:52.691766 53383 net.cpp:477] inception_3a/output <- inception_3a/3x3
I0902 16:07:52.691776 53383 net.cpp:477] inception_3a/output <- inception_3a/5x5
I0902 16:07:52.691787 53383 net.cpp:477] inception_3a/output <- inception_3a/pool_proj
I0902 16:07:52.691798 53383 net.cpp:433] inception_3a/output -> inception_3a/output
I0902 16:07:52.691824 53383 net.cpp:155] Setting up inception_3a/output
I0902 16:07:52.691836 53383 net.cpp:163] Top shape: 32 256 28 28 (6422528)
I0902 16:07:52.691845 53383 layer_factory.hpp:76] Creating layer inception_3a/output_inception_3a/output_0_split
I0902 16:07:52.691865 53383 net.cpp:110] Creating Layer inception_3a/output_inception_3a/output_0_split
I0902 16:07:52.691875 53383 net.cpp:477] inception_3a/output_inception_3a/output_0_split <- inception_3a/output
I0902 16:07:52.691889 53383 net.cpp:433] inception_3a/output_inception_3a/output_0_split -> inception_3a/output_inception_3a/output_0_split_0
I0902 16:07:52.691903 53383 net.cpp:433] inception_3a/output_inception_3a/output_0_split -> inception_3a/output_inception_3a/output_0_split_1
I0902 16:07:52.691918 53383 net.cpp:433] inception_3a/output_inception_3a/output_0_split -> inception_3a/output_inception_3a/output_0_split_2
I0902 16:07:52.691933 53383 net.cpp:433] inception_3a/output_inception_3a/output_0_split -> inception_3a/output_inception_3a/output_0_split_3
I0902 16:07:52.691949 53383 net.cpp:155] Setting up inception_3a/output_inception_3a/output_0_split
I0902 16:07:52.691961 53383 net.cpp:163] Top shape: 32 256 28 28 (6422528)
I0902 16:07:52.691972 53383 net.cpp:163] Top shape: 32 256 28 28 (6422528)
I0902 16:07:52.691982 53383 net.cpp:163] Top shape: 32 256 28 28 (6422528)
I0902 16:07:52.691992 53383 net.cpp:163] Top shape: 32 256 28 28 (6422528)
I0902 16:07:52.692008 53383 layer_factory.hpp:76] Creating layer inception_3b/1x1
I0902 16:07:52.692028 53383 net.cpp:110] Creating Layer inception_3b/1x1
I0902 16:07:52.692041 53383 net.cpp:477] inception_3b/1x1 <- inception_3a/output_inception_3a/output_0_split_0
I0902 16:07:52.692054 53383 net.cpp:433] inception_3b/1x1 -> inception_3b/1x1
I0902 16:07:52.708824 53383 net.cpp:155] Setting up inception_3b/1x1
I0902 16:07:52.708853 53383 net.cpp:163] Top shape: 32 128 28 28 (3211264)
I0902 16:07:52.708876 53383 layer_factory.hpp:76] Creating layer inception_3b/relu_1x1
I0902 16:07:52.708902 53383 net.cpp:110] Creating Layer inception_3b/relu_1x1
I0902 16:07:52.708912 53383 net.cpp:477] inception_3b/relu_1x1 <- inception_3b/1x1
I0902 16:07:52.708930 53383 net.cpp:419] inception_3b/relu_1x1 -> inception_3b/1x1 (in-place)
I0902 16:07:52.718575 53383 net.cpp:155] Setting up inception_3b/relu_1x1
I0902 16:07:52.718603 53383 net.cpp:163] Top shape: 32 128 28 28 (3211264)
I0902 16:07:52.718616 53383 layer_factory.hpp:76] Creating layer inception_3b/3x3_reduce
I0902 16:07:52.718638 53383 net.cpp:110] Creating Layer inception_3b/3x3_reduce
I0902 16:07:52.718649 53383 net.cpp:477] inception_3b/3x3_reduce <- inception_3a/output_inception_3a/output_0_split_1
I0902 16:07:52.718672 53383 net.cpp:433] inception_3b/3x3_reduce -> inception_3b/3x3_reduce
I0902 16:07:52.724004 53383 net.cpp:155] Setting up inception_3b/3x3_reduce
I0902 16:07:52.724033 53383 net.cpp:163] Top shape: 32 128 28 28 (3211264)
I0902 16:07:52.724056 53383 layer_factory.hpp:76] Creating layer inception_3b/relu_3x3_reduce
I0902 16:07:52.724071 53383 net.cpp:110] Creating Layer inception_3b/relu_3x3_reduce
I0902 16:07:52.724082 53383 net.cpp:477] inception_3b/relu_3x3_reduce <- inception_3b/3x3_reduce
I0902 16:07:52.724100 53383 net.cpp:419] inception_3b/relu_3x3_reduce -> inception_3b/3x3_reduce (in-place)
I0902 16:07:52.725549 53383 net.cpp:155] Setting up inception_3b/relu_3x3_reduce
I0902 16:07:52.725601 53383 net.cpp:163] Top shape: 32 128 28 28 (3211264)
I0902 16:07:52.725621 53383 layer_factory.hpp:76] Creating layer inception_3b/3x3
I0902 16:07:52.725653 53383 net.cpp:110] Creating Layer inception_3b/3x3
I0902 16:07:52.725664 53383 net.cpp:477] inception_3b/3x3 <- inception_3b/3x3_reduce
I0902 16:07:52.725688 53383 net.cpp:433] inception_3b/3x3 -> inception_3b/3x3
I0902 16:07:52.735364 53383 net.cpp:155] Setting up inception_3b/3x3
I0902 16:07:52.735399 53383 net.cpp:163] Top shape: 32 192 28 28 (4816896)
I0902 16:07:52.735419 53383 layer_factory.hpp:76] Creating layer inception_3b/relu_3x3
I0902 16:07:52.735441 53383 net.cpp:110] Creating Layer inception_3b/relu_3x3
I0902 16:07:52.735452 53383 net.cpp:477] inception_3b/relu_3x3 <- inception_3b/3x3
I0902 16:07:52.735466 53383 net.cpp:419] inception_3b/relu_3x3 -> inception_3b/3x3 (in-place)
I0902 16:07:52.736935 53383 net.cpp:155] Setting up inception_3b/relu_3x3
I0902 16:07:52.736964 53383 net.cpp:163] Top shape: 32 192 28 28 (4816896)
I0902 16:07:52.736976 53383 layer_factory.hpp:76] Creating layer inception_3b/5x5_reduce
I0902 16:07:52.736999 53383 net.cpp:110] Creating Layer inception_3b/5x5_reduce
I0902 16:07:52.737009 53383 net.cpp:477] inception_3b/5x5_reduce <- inception_3a/output_inception_3a/output_0_split_2
I0902 16:07:52.737025 53383 net.cpp:433] inception_3b/5x5_reduce -> inception_3b/5x5_reduce
I0902 16:07:52.741662 53383 net.cpp:155] Setting up inception_3b/5x5_reduce
I0902 16:07:52.741693 53383 net.cpp:163] Top shape: 32 32 28 28 (802816)
I0902 16:07:52.741710 53383 layer_factory.hpp:76] Creating layer inception_3b/relu_5x5_reduce
I0902 16:07:52.741737 53383 net.cpp:110] Creating Layer inception_3b/relu_5x5_reduce
I0902 16:07:52.741749 53383 net.cpp:477] inception_3b/relu_5x5_reduce <- inception_3b/5x5_reduce
I0902 16:07:52.741762 53383 net.cpp:419] inception_3b/relu_5x5_reduce -> inception_3b/5x5_reduce (in-place)
I0902 16:07:52.743262 53383 net.cpp:155] Setting up inception_3b/relu_5x5_reduce
I0902 16:07:52.743290 53383 net.cpp:163] Top shape: 32 32 28 28 (802816)
I0902 16:07:52.743301 53383 layer_factory.hpp:76] Creating layer inception_3b/5x5
I0902 16:07:52.743333 53383 net.cpp:110] Creating Layer inception_3b/5x5
I0902 16:07:52.743345 53383 net.cpp:477] inception_3b/5x5 <- inception_3b/5x5_reduce
I0902 16:07:52.743366 53383 net.cpp:433] inception_3b/5x5 -> inception_3b/5x5
I0902 16:07:52.750349 53383 net.cpp:155] Setting up inception_3b/5x5
I0902 16:07:52.750380 53383 net.cpp:163] Top shape: 32 96 28 28 (2408448)
I0902 16:07:52.750398 53383 layer_factory.hpp:76] Creating layer inception_3b/relu_5x5
I0902 16:07:52.750413 53383 net.cpp:110] Creating Layer inception_3b/relu_5x5
I0902 16:07:52.750424 53383 net.cpp:477] inception_3b/relu_5x5 <- inception_3b/5x5
I0902 16:07:52.750442 53383 net.cpp:419] inception_3b/relu_5x5 -> inception_3b/5x5 (in-place)
I0902 16:07:52.751914 53383 net.cpp:155] Setting up inception_3b/relu_5x5
I0902 16:07:52.751942 53383 net.cpp:163] Top shape: 32 96 28 28 (2408448)
I0902 16:07:52.751955 53383 layer_factory.hpp:76] Creating layer inception_3b/pool
I0902 16:07:52.751965 53383 layer_factory.cpp:60] CUDNN does not support padding or multiple tops. Using Caffe's own pooling layer.
I0902 16:07:52.751977 53383 net.cpp:110] Creating Layer inception_3b/pool
I0902 16:07:52.751988 53383 net.cpp:477] inception_3b/pool <- inception_3a/output_inception_3a/output_0_split_3
I0902 16:07:52.752013 53383 net.cpp:433] inception_3b/pool -> inception_3b/pool
I0902 16:07:52.752035 53383 net.cpp:155] Setting up inception_3b/pool
I0902 16:07:52.752049 53383 net.cpp:163] Top shape: 32 256 28 28 (6422528)
I0902 16:07:52.752058 53383 layer_factory.hpp:76] Creating layer inception_3b/pool_proj
I0902 16:07:52.752079 53383 net.cpp:110] Creating Layer inception_3b/pool_proj
I0902 16:07:52.752094 53383 net.cpp:477] inception_3b/pool_proj <- inception_3b/pool
I0902 16:07:52.752109 53383 net.cpp:433] inception_3b/pool_proj -> inception_3b/pool_proj
I0902 16:07:52.757088 53383 net.cpp:155] Setting up inception_3b/pool_proj
I0902 16:07:52.757141 53383 net.cpp:163] Top shape: 32 64 28 28 (1605632)
I0902 16:07:52.757160 53383 layer_factory.hpp:76] Creating layer inception_3b/relu_pool_proj
I0902 16:07:52.757196 53383 net.cpp:110] Creating Layer inception_3b/relu_pool_proj
I0902 16:07:52.757207 53383 net.cpp:477] inception_3b/relu_pool_proj <- inception_3b/pool_proj
I0902 16:07:52.757221 53383 net.cpp:419] inception_3b/relu_pool_proj -> inception_3b/pool_proj (in-place)
I0902 16:07:52.758896 53383 net.cpp:155] Setting up inception_3b/relu_pool_proj
I0902 16:07:52.758929 53383 net.cpp:163] Top shape: 32 64 28 28 (1605632)
I0902 16:07:52.758941 53383 layer_factory.hpp:76] Creating layer inception_3b/output
I0902 16:07:52.758957 53383 net.cpp:110] Creating Layer inception_3b/output
I0902 16:07:52.758967 53383 net.cpp:477] inception_3b/output <- inception_3b/1x1
I0902 16:07:52.758980 53383 net.cpp:477] inception_3b/output <- inception_3b/3x3
I0902 16:07:52.758991 53383 net.cpp:477] inception_3b/output <- inception_3b/5x5
I0902 16:07:52.759001 53383 net.cpp:477] inception_3b/output <- inception_3b/pool_proj
I0902 16:07:52.759013 53383 net.cpp:433] inception_3b/output -> inception_3b/output
I0902 16:07:52.759032 53383 net.cpp:155] Setting up inception_3b/output
I0902 16:07:52.759044 53383 net.cpp:163] Top shape: 32 480 28 28 (12042240)
I0902 16:07:52.759054 53383 layer_factory.hpp:76] Creating layer pool3/3x3_s2
I0902 16:07:52.759078 53383 net.cpp:110] Creating Layer pool3/3x3_s2
I0902 16:07:52.759089 53383 net.cpp:477] pool3/3x3_s2 <- inception_3b/output
I0902 16:07:52.759102 53383 net.cpp:433] pool3/3x3_s2 -> pool3/3x3_s2
I0902 16:07:52.760758 53383 net.cpp:155] Setting up pool3/3x3_s2
I0902 16:07:52.760787 53383 net.cpp:163] Top shape: 32 480 14 14 (3010560)
I0902 16:07:52.760799 53383 layer_factory.hpp:76] Creating layer pool3/3x3_s2_pool3/3x3_s2_0_split
I0902 16:07:52.760814 53383 net.cpp:110] Creating Layer pool3/3x3_s2_pool3/3x3_s2_0_split
I0902 16:07:52.760824 53383 net.cpp:477] pool3/3x3_s2_pool3/3x3_s2_0_split <- pool3/3x3_s2
I0902 16:07:52.760843 53383 net.cpp:433] pool3/3x3_s2_pool3/3x3_s2_0_split -> pool3/3x3_s2_pool3/3x3_s2_0_split_0
I0902 16:07:52.760860 53383 net.cpp:433] pool3/3x3_s2_pool3/3x3_s2_0_split -> pool3/3x3_s2_pool3/3x3_s2_0_split_1
I0902 16:07:52.760875 53383 net.cpp:433] pool3/3x3_s2_pool3/3x3_s2_0_split -> pool3/3x3_s2_pool3/3x3_s2_0_split_2
I0902 16:07:52.760895 53383 net.cpp:433] pool3/3x3_s2_pool3/3x3_s2_0_split -> pool3/3x3_s2_pool3/3x3_s2_0_split_3
I0902 16:07:52.760911 53383 net.cpp:155] Setting up pool3/3x3_s2_pool3/3x3_s2_0_split
I0902 16:07:52.760922 53383 net.cpp:163] Top shape: 32 480 14 14 (3010560)
I0902 16:07:52.760932 53383 net.cpp:163] Top shape: 32 480 14 14 (3010560)
I0902 16:07:52.760943 53383 net.cpp:163] Top shape: 32 480 14 14 (3010560)
I0902 16:07:52.760953 53383 net.cpp:163] Top shape: 32 480 14 14 (3010560)
I0902 16:07:52.760962 53383 layer_factory.hpp:76] Creating layer inception_4a/1x1
I0902 16:07:52.760985 53383 net.cpp:110] Creating Layer inception_4a/1x1
I0902 16:07:52.760994 53383 net.cpp:477] inception_4a/1x1 <- pool3/3x3_s2_pool3/3x3_s2_0_split_0
I0902 16:07:52.761013 53383 net.cpp:433] inception_4a/1x1 -> inception_4a/1x1
I0902 16:07:52.767236 53383 net.cpp:155] Setting up inception_4a/1x1
I0902 16:07:52.767266 53383 net.cpp:163] Top shape: 32 192 14 14 (1204224)
I0902 16:07:52.767285 53383 layer_factory.hpp:76] Creating layer inception_4a/relu_1x1
I0902 16:07:52.767312 53383 net.cpp:110] Creating Layer inception_4a/relu_1x1
I0902 16:07:52.767323 53383 net.cpp:477] inception_4a/relu_1x1 <- inception_4a/1x1
I0902 16:07:52.767336 53383 net.cpp:419] inception_4a/relu_1x1 -> inception_4a/1x1 (in-place)
I0902 16:07:52.768817 53383 net.cpp:155] Setting up inception_4a/relu_1x1
I0902 16:07:52.768846 53383 net.cpp:163] Top shape: 32 192 14 14 (1204224)
I0902 16:07:52.768857 53383 layer_factory.hpp:76] Creating layer inception_4a/3x3_reduce
I0902 16:07:52.768878 53383 net.cpp:110] Creating Layer inception_4a/3x3_reduce
I0902 16:07:52.768889 53383 net.cpp:477] inception_4a/3x3_reduce <- pool3/3x3_s2_pool3/3x3_s2_0_split_1
I0902 16:07:52.768929 53383 net.cpp:433] inception_4a/3x3_reduce -> inception_4a/3x3_reduce
I0902 16:07:52.774282 53383 net.cpp:155] Setting up inception_4a/3x3_reduce
I0902 16:07:52.774317 53383 net.cpp:163] Top shape: 32 96 14 14 (602112)
I0902 16:07:52.774343 53383 layer_factory.hpp:76] Creating layer inception_4a/relu_3x3_reduce
I0902 16:07:52.774370 53383 net.cpp:110] Creating Layer inception_4a/relu_3x3_reduce
I0902 16:07:52.774381 53383 net.cpp:477] inception_4a/relu_3x3_reduce <- inception_4a/3x3_reduce
I0902 16:07:52.774395 53383 net.cpp:419] inception_4a/relu_3x3_reduce -> inception_4a/3x3_reduce (in-place)
I0902 16:07:52.776051 53383 net.cpp:155] Setting up inception_4a/relu_3x3_reduce
I0902 16:07:52.776078 53383 net.cpp:163] Top shape: 32 96 14 14 (602112)
I0902 16:07:52.776090 53383 layer_factory.hpp:76] Creating layer inception_4a/3x3
I0902 16:07:52.776118 53383 net.cpp:110] Creating Layer inception_4a/3x3
I0902 16:07:52.776129 53383 net.cpp:477] inception_4a/3x3 <- inception_4a/3x3_reduce
I0902 16:07:52.776149 53383 net.cpp:433] inception_4a/3x3 -> inception_4a/3x3
I0902 16:07:52.784677 53383 net.cpp:155] Setting up inception_4a/3x3
I0902 16:07:52.784713 53383 net.cpp:163] Top shape: 32 208 14 14 (1304576)
I0902 16:07:52.784731 53383 layer_factory.hpp:76] Creating layer inception_4a/relu_3x3
I0902 16:07:52.784751 53383 net.cpp:110] Creating Layer inception_4a/relu_3x3
I0902 16:07:52.784762 53383 net.cpp:477] inception_4a/relu_3x3 <- inception_4a/3x3
I0902 16:07:52.784775 53383 net.cpp:419] inception_4a/relu_3x3 -> inception_4a/3x3 (in-place)
I0902 16:07:52.786288 53383 net.cpp:155] Setting up inception_4a/relu_3x3
I0902 16:07:52.786317 53383 net.cpp:163] Top shape: 32 208 14 14 (1304576)
I0902 16:07:52.786329 53383 layer_factory.hpp:76] Creating layer inception_4a/5x5_reduce
I0902 16:07:52.786357 53383 net.cpp:110] Creating Layer inception_4a/5x5_reduce
I0902 16:07:52.786368 53383 net.cpp:477] inception_4a/5x5_reduce <- pool3/3x3_s2_pool3/3x3_s2_0_split_2
I0902 16:07:52.786384 53383 net.cpp:433] inception_4a/5x5_reduce -> inception_4a/5x5_reduce
I0902 16:07:52.791357 53383 net.cpp:155] Setting up inception_4a/5x5_reduce
I0902 16:07:52.791386 53383 net.cpp:163] Top shape: 32 16 14 14 (100352)
I0902 16:07:52.791404 53383 layer_factory.hpp:76] Creating layer inception_4a/relu_5x5_reduce
I0902 16:07:52.791420 53383 net.cpp:110] Creating Layer inception_4a/relu_5x5_reduce
I0902 16:07:52.791431 53383 net.cpp:477] inception_4a/relu_5x5_reduce <- inception_4a/5x5_reduce
I0902 16:07:52.791450 53383 net.cpp:419] inception_4a/relu_5x5_reduce -> inception_4a/5x5_reduce (in-place)
I0902 16:07:52.792960 53383 net.cpp:155] Setting up inception_4a/relu_5x5_reduce
I0902 16:07:52.792989 53383 net.cpp:163] Top shape: 32 16 14 14 (100352)
I0902 16:07:52.792999 53383 layer_factory.hpp:76] Creating layer inception_4a/5x5
I0902 16:07:52.793028 53383 net.cpp:110] Creating Layer inception_4a/5x5
I0902 16:07:52.793040 53383 net.cpp:477] inception_4a/5x5 <- inception_4a/5x5_reduce
I0902 16:07:52.793058 53383 net.cpp:433] inception_4a/5x5 -> inception_4a/5x5
I0902 16:07:52.798275 53383 net.cpp:155] Setting up inception_4a/5x5
I0902 16:07:52.798310 53383 net.cpp:163] Top shape: 32 48 14 14 (301056)
I0902 16:07:52.798327 53383 layer_factory.hpp:76] Creating layer inception_4a/relu_5x5
I0902 16:07:52.798351 53383 net.cpp:110] Creating Layer inception_4a/relu_5x5
I0902 16:07:52.798362 53383 net.cpp:477] inception_4a/relu_5x5 <- inception_4a/5x5
I0902 16:07:52.798375 53383 net.cpp:419] inception_4a/relu_5x5 -> inception_4a/5x5 (in-place)
I0902 16:07:52.799892 53383 net.cpp:155] Setting up inception_4a/relu_5x5
I0902 16:07:52.799921 53383 net.cpp:163] Top shape: 32 48 14 14 (301056)
I0902 16:07:52.799932 53383 layer_factory.hpp:76] Creating layer inception_4a/pool
I0902 16:07:52.799949 53383 layer_factory.cpp:60] CUDNN does not support padding or multiple tops. Using Caffe's own pooling layer.
I0902 16:07:52.799967 53383 net.cpp:110] Creating Layer inception_4a/pool
I0902 16:07:52.799978 53383 net.cpp:477] inception_4a/pool <- pool3/3x3_s2_pool3/3x3_s2_0_split_3
I0902 16:07:52.800019 53383 net.cpp:433] inception_4a/pool -> inception_4a/pool
I0902 16:07:52.800041 53383 net.cpp:155] Setting up inception_4a/pool
I0902 16:07:52.800055 53383 net.cpp:163] Top shape: 32 480 14 14 (3010560)
I0902 16:07:52.800065 53383 layer_factory.hpp:76] Creating layer inception_4a/pool_proj
I0902 16:07:52.800087 53383 net.cpp:110] Creating Layer inception_4a/pool_proj
I0902 16:07:52.800097 53383 net.cpp:477] inception_4a/pool_proj <- inception_4a/pool
I0902 16:07:52.800117 53383 net.cpp:433] inception_4a/pool_proj -> inception_4a/pool_proj
I0902 16:07:52.805363 53383 net.cpp:155] Setting up inception_4a/pool_proj
I0902 16:07:52.805393 53383 net.cpp:163] Top shape: 32 64 14 14 (401408)
I0902 16:07:52.805411 53383 layer_factory.hpp:76] Creating layer inception_4a/relu_pool_proj
I0902 16:07:52.805434 53383 net.cpp:110] Creating Layer inception_4a/relu_pool_proj
I0902 16:07:52.805445 53383 net.cpp:477] inception_4a/relu_pool_proj <- inception_4a/pool_proj
I0902 16:07:52.805464 53383 net.cpp:419] inception_4a/relu_pool_proj -> inception_4a/pool_proj (in-place)
I0902 16:07:52.807013 53383 net.cpp:155] Setting up inception_4a/relu_pool_proj
I0902 16:07:52.807042 53383 net.cpp:163] Top shape: 32 64 14 14 (401408)
I0902 16:07:52.807060 53383 layer_factory.hpp:76] Creating layer inception_4a/output
I0902 16:07:52.807076 53383 net.cpp:110] Creating Layer inception_4a/output
I0902 16:07:52.807086 53383 net.cpp:477] inception_4a/output <- inception_4a/1x1
I0902 16:07:52.807099 53383 net.cpp:477] inception_4a/output <- inception_4a/3x3
I0902 16:07:52.807109 53383 net.cpp:477] inception_4a/output <- inception_4a/5x5
I0902 16:07:52.807121 53383 net.cpp:477] inception_4a/output <- inception_4a/pool_proj
I0902 16:07:52.807133 53383 net.cpp:433] inception_4a/output -> inception_4a/output
I0902 16:07:52.807152 53383 net.cpp:155] Setting up inception_4a/output
I0902 16:07:52.807164 53383 net.cpp:163] Top shape: 32 512 14 14 (3211264)
I0902 16:07:52.807174 53383 layer_factory.hpp:76] Creating layer inception_4a/output_inception_4a/output_0_split
I0902 16:07:52.807191 53383 net.cpp:110] Creating Layer inception_4a/output_inception_4a/output_0_split
I0902 16:07:52.807201 53383 net.cpp:477] inception_4a/output_inception_4a/output_0_split <- inception_4a/output
I0902 16:07:52.807215 53383 net.cpp:433] inception_4a/output_inception_4a/output_0_split -> inception_4a/output_inception_4a/output_0_split_0
I0902 16:07:52.807231 53383 net.cpp:433] inception_4a/output_inception_4a/output_0_split -> inception_4a/output_inception_4a/output_0_split_1
I0902 16:07:52.807250 53383 net.cpp:433] inception_4a/output_inception_4a/output_0_split -> inception_4a/output_inception_4a/output_0_split_2
I0902 16:07:52.807265 53383 net.cpp:433] inception_4a/output_inception_4a/output_0_split -> inception_4a/output_inception_4a/output_0_split_3
I0902 16:07:52.807281 53383 net.cpp:433] inception_4a/output_inception_4a/output_0_split -> inception_4a/output_inception_4a/output_0_split_4
I0902 16:07:52.807297 53383 net.cpp:155] Setting up inception_4a/output_inception_4a/output_0_split
I0902 16:07:52.807308 53383 net.cpp:163] Top shape: 32 512 14 14 (3211264)
I0902 16:07:52.807320 53383 net.cpp:163] Top shape: 32 512 14 14 (3211264)
I0902 16:07:52.807330 53383 net.cpp:163] Top shape: 32 512 14 14 (3211264)
I0902 16:07:52.807340 53383 net.cpp:163] Top shape: 32 512 14 14 (3211264)
I0902 16:07:52.807350 53383 net.cpp:163] Top shape: 32 512 14 14 (3211264)
I0902 16:07:52.807360 53383 layer_factory.hpp:76] Creating layer loss1/ave_pool
I0902 16:07:52.807379 53383 net.cpp:110] Creating Layer loss1/ave_pool
I0902 16:07:52.807387 53383 net.cpp:477] loss1/ave_pool <- inception_4a/output_inception_4a/output_0_split_0
I0902 16:07:52.807404 53383 net.cpp:433] loss1/ave_pool -> loss1/ave_pool
I0902 16:07:52.809119 53383 net.cpp:155] Setting up loss1/ave_pool
I0902 16:07:52.809147 53383 net.cpp:163] Top shape: 32 512 4 4 (262144)
I0902 16:07:52.809159 53383 layer_factory.hpp:76] Creating layer loss1/conv
I0902 16:07:52.809204 53383 net.cpp:110] Creating Layer loss1/conv
I0902 16:07:52.809216 53383 net.cpp:477] loss1/conv <- loss1/ave_pool
I0902 16:07:52.809236 53383 net.cpp:433] loss1/conv -> loss1/conv
I0902 16:07:52.815407 53383 net.cpp:155] Setting up loss1/conv
I0902 16:07:52.815460 53383 net.cpp:163] Top shape: 32 128 4 4 (65536)
I0902 16:07:52.815490 53383 layer_factory.hpp:76] Creating layer loss1/relu_conv
I0902 16:07:52.815511 53383 net.cpp:110] Creating Layer loss1/relu_conv
I0902 16:07:52.815524 53383 net.cpp:477] loss1/relu_conv <- loss1/conv
I0902 16:07:52.815544 53383 net.cpp:419] loss1/relu_conv -> loss1/conv (in-place)
I0902 16:07:52.817098 53383 net.cpp:155] Setting up loss1/relu_conv
I0902 16:07:52.817137 53383 net.cpp:163] Top shape: 32 128 4 4 (65536)
I0902 16:07:52.817150 53383 layer_factory.hpp:76] Creating layer loss1/fc
I0902 16:07:52.817180 53383 net.cpp:110] Creating Layer loss1/fc
I0902 16:07:52.817191 53383 net.cpp:477] loss1/fc <- loss1/conv
I0902 16:07:52.817208 53383 net.cpp:433] loss1/fc -> loss1/fc
I0902 16:07:52.855545 53383 net.cpp:155] Setting up loss1/fc
I0902 16:07:52.855577 53383 net.cpp:163] Top shape: 32 1024 (32768)
I0902 16:07:52.855597 53383 layer_factory.hpp:76] Creating layer loss1/relu_fc
I0902 16:07:52.855618 53383 net.cpp:110] Creating Layer loss1/relu_fc
I0902 16:07:52.855628 53383 net.cpp:477] loss1/relu_fc <- loss1/fc
I0902 16:07:52.855641 53383 net.cpp:419] loss1/relu_fc -> loss1/fc (in-place)
I0902 16:07:52.857199 53383 net.cpp:155] Setting up loss1/relu_fc
I0902 16:07:52.857229 53383 net.cpp:163] Top shape: 32 1024 (32768)
I0902 16:07:52.857242 53383 layer_factory.hpp:76] Creating layer loss1/drop_fc
I0902 16:07:52.857285 53383 net.cpp:110] Creating Layer loss1/drop_fc
I0902 16:07:52.857296 53383 net.cpp:477] loss1/drop_fc <- loss1/fc
I0902 16:07:52.857311 53383 net.cpp:419] loss1/drop_fc -> loss1/fc (in-place)
I0902 16:07:52.857341 53383 net.cpp:155] Setting up loss1/drop_fc
I0902 16:07:52.857353 53383 net.cpp:163] Top shape: 32 1024 (32768)
I0902 16:07:52.857367 53383 layer_factory.hpp:76] Creating layer loss1/classifier_cub
I0902 16:07:52.857389 53383 net.cpp:110] Creating Layer loss1/classifier_cub
I0902 16:07:52.857400 53383 net.cpp:477] loss1/classifier_cub <- loss1/fc
I0902 16:07:52.857419 53383 net.cpp:433] loss1/classifier_cub -> loss1/classifier
I0902 16:07:52.873519 53383 net.cpp:155] Setting up loss1/classifier_cub
I0902 16:07:52.873553 53383 net.cpp:163] Top shape: 32 200 (6400)
I0902 16:07:52.873571 53383 layer_factory.hpp:76] Creating layer loss1/loss
I0902 16:07:52.873605 53383 net.cpp:110] Creating Layer loss1/loss
I0902 16:07:52.873617 53383 net.cpp:477] loss1/loss <- loss1/classifier
I0902 16:07:52.873631 53383 net.cpp:477] loss1/loss <- label_data_1_split_0
I0902 16:07:52.873646 53383 net.cpp:433] loss1/loss -> loss1/loss1
I0902 16:07:52.873680 53383 layer_factory.hpp:76] Creating layer loss1/loss
I0902 16:07:52.875849 53383 net.cpp:155] Setting up loss1/loss
I0902 16:07:52.875885 53383 net.cpp:163] Top shape: (1)
I0902 16:07:52.875896 53383 net.cpp:168]     with loss weight 0.3
I0902 16:07:52.875946 53383 layer_factory.hpp:76] Creating layer inception_4b/1x1
I0902 16:07:52.875977 53383 net.cpp:110] Creating Layer inception_4b/1x1
I0902 16:07:52.875988 53383 net.cpp:477] inception_4b/1x1 <- inception_4a/output_inception_4a/output_0_split_1
I0902 16:07:52.876004 53383 net.cpp:433] inception_4b/1x1 -> inception_4b/1x1
I0902 16:07:52.882189 53383 net.cpp:155] Setting up inception_4b/1x1
I0902 16:07:52.882230 53383 net.cpp:163] Top shape: 32 160 14 14 (1003520)
I0902 16:07:52.882253 53383 layer_factory.hpp:76] Creating layer inception_4b/relu_1x1
I0902 16:07:52.882269 53383 net.cpp:110] Creating Layer inception_4b/relu_1x1
I0902 16:07:52.882280 53383 net.cpp:477] inception_4b/relu_1x1 <- inception_4b/1x1
I0902 16:07:52.882298 53383 net.cpp:419] inception_4b/relu_1x1 -> inception_4b/1x1 (in-place)
I0902 16:07:52.883847 53383 net.cpp:155] Setting up inception_4b/relu_1x1
I0902 16:07:52.883877 53383 net.cpp:163] Top shape: 32 160 14 14 (1003520)
I0902 16:07:52.883923 53383 layer_factory.hpp:76] Creating layer inception_4b/3x3_reduce
I0902 16:07:52.883946 53383 net.cpp:110] Creating Layer inception_4b/3x3_reduce
I0902 16:07:52.883957 53383 net.cpp:477] inception_4b/3x3_reduce <- inception_4a/output_inception_4a/output_0_split_2
I0902 16:07:52.883977 53383 net.cpp:433] inception_4b/3x3_reduce -> inception_4b/3x3_reduce
I0902 16:07:52.890856 53383 net.cpp:155] Setting up inception_4b/3x3_reduce
I0902 16:07:52.890897 53383 net.cpp:163] Top shape: 32 112 14 14 (702464)
I0902 16:07:52.890918 53383 layer_factory.hpp:76] Creating layer inception_4b/relu_3x3_reduce
I0902 16:07:52.890934 53383 net.cpp:110] Creating Layer inception_4b/relu_3x3_reduce
I0902 16:07:52.890945 53383 net.cpp:477] inception_4b/relu_3x3_reduce <- inception_4b/3x3_reduce
I0902 16:07:52.890969 53383 net.cpp:419] inception_4b/relu_3x3_reduce -> inception_4b/3x3_reduce (in-place)
I0902 16:07:52.892514 53383 net.cpp:155] Setting up inception_4b/relu_3x3_reduce
I0902 16:07:52.892552 53383 net.cpp:163] Top shape: 32 112 14 14 (702464)
I0902 16:07:52.892565 53383 layer_factory.hpp:76] Creating layer inception_4b/3x3
I0902 16:07:52.892588 53383 net.cpp:110] Creating Layer inception_4b/3x3
I0902 16:07:52.892599 53383 net.cpp:477] inception_4b/3x3 <- inception_4b/3x3_reduce
I0902 16:07:52.892619 53383 net.cpp:433] inception_4b/3x3 -> inception_4b/3x3
I0902 16:07:52.902125 53383 net.cpp:155] Setting up inception_4b/3x3
I0902 16:07:52.902163 53383 net.cpp:163] Top shape: 32 224 14 14 (1404928)
I0902 16:07:52.902187 53383 layer_factory.hpp:76] Creating layer inception_4b/relu_3x3
I0902 16:07:52.902204 53383 net.cpp:110] Creating Layer inception_4b/relu_3x3
I0902 16:07:52.902215 53383 net.cpp:477] inception_4b/relu_3x3 <- inception_4b/3x3
I0902 16:07:52.902233 53383 net.cpp:419] inception_4b/relu_3x3 -> inception_4b/3x3 (in-place)
I0902 16:07:52.903791 53383 net.cpp:155] Setting up inception_4b/relu_3x3
I0902 16:07:52.903830 53383 net.cpp:163] Top shape: 32 224 14 14 (1404928)
I0902 16:07:52.903846 53383 layer_factory.hpp:76] Creating layer inception_4b/5x5_reduce
I0902 16:07:52.903867 53383 net.cpp:110] Creating Layer inception_4b/5x5_reduce
I0902 16:07:52.903878 53383 net.cpp:477] inception_4b/5x5_reduce <- inception_4a/output_inception_4a/output_0_split_3
I0902 16:07:52.903898 53383 net.cpp:433] inception_4b/5x5_reduce -> inception_4b/5x5_reduce
I0902 16:07:52.909054 53383 net.cpp:155] Setting up inception_4b/5x5_reduce
I0902 16:07:52.909090 53383 net.cpp:163] Top shape: 32 24 14 14 (150528)
I0902 16:07:52.909109 53383 layer_factory.hpp:76] Creating layer inception_4b/relu_5x5_reduce
I0902 16:07:52.909132 53383 net.cpp:110] Creating Layer inception_4b/relu_5x5_reduce
I0902 16:07:52.909144 53383 net.cpp:477] inception_4b/relu_5x5_reduce <- inception_4b/5x5_reduce
I0902 16:07:52.909159 53383 net.cpp:419] inception_4b/relu_5x5_reduce -> inception_4b/5x5_reduce (in-place)
I0902 16:07:52.910940 53383 net.cpp:155] Setting up inception_4b/relu_5x5_reduce
I0902 16:07:52.910974 53383 net.cpp:163] Top shape: 32 24 14 14 (150528)
I0902 16:07:52.910985 53383 layer_factory.hpp:76] Creating layer inception_4b/5x5
I0902 16:07:52.911011 53383 net.cpp:110] Creating Layer inception_4b/5x5
I0902 16:07:52.911023 53383 net.cpp:477] inception_4b/5x5 <- inception_4b/5x5_reduce
I0902 16:07:52.911042 53383 net.cpp:433] inception_4b/5x5 -> inception_4b/5x5
I0902 16:07:52.916579 53383 net.cpp:155] Setting up inception_4b/5x5
I0902 16:07:52.916620 53383 net.cpp:163] Top shape: 32 64 14 14 (401408)
I0902 16:07:52.916640 53383 layer_factory.hpp:76] Creating layer inception_4b/relu_5x5
I0902 16:07:52.916658 53383 net.cpp:110] Creating Layer inception_4b/relu_5x5
I0902 16:07:52.916671 53383 net.cpp:477] inception_4b/relu_5x5 <- inception_4b/5x5
I0902 16:07:52.916684 53383 net.cpp:419] inception_4b/relu_5x5 -> inception_4b/5x5 (in-place)
I0902 16:07:52.918294 53383 net.cpp:155] Setting up inception_4b/relu_5x5
I0902 16:07:52.918326 53383 net.cpp:163] Top shape: 32 64 14 14 (401408)
I0902 16:07:52.918341 53383 layer_factory.hpp:76] Creating layer inception_4b/pool
I0902 16:07:52.918378 53383 layer_factory.cpp:60] CUDNN does not support padding or multiple tops. Using Caffe's own pooling layer.
I0902 16:07:52.918392 53383 net.cpp:110] Creating Layer inception_4b/pool
I0902 16:07:52.918404 53383 net.cpp:477] inception_4b/pool <- inception_4a/output_inception_4a/output_0_split_4
I0902 16:07:52.918423 53383 net.cpp:433] inception_4b/pool -> inception_4b/pool
I0902 16:07:52.918463 53383 net.cpp:155] Setting up inception_4b/pool
I0902 16:07:52.918479 53383 net.cpp:163] Top shape: 32 512 14 14 (3211264)
I0902 16:07:52.918489 53383 layer_factory.hpp:76] Creating layer inception_4b/pool_proj
I0902 16:07:52.918515 53383 net.cpp:110] Creating Layer inception_4b/pool_proj
I0902 16:07:52.918545 53383 net.cpp:477] inception_4b/pool_proj <- inception_4b/pool
I0902 16:07:52.918561 53383 net.cpp:433] inception_4b/pool_proj -> inception_4b/pool_proj
I0902 16:07:52.924232 53383 net.cpp:155] Setting up inception_4b/pool_proj
I0902 16:07:52.924273 53383 net.cpp:163] Top shape: 32 64 14 14 (401408)
I0902 16:07:52.924293 53383 layer_factory.hpp:76] Creating layer inception_4b/relu_pool_proj
I0902 16:07:52.924312 53383 net.cpp:110] Creating Layer inception_4b/relu_pool_proj
I0902 16:07:52.924324 53383 net.cpp:477] inception_4b/relu_pool_proj <- inception_4b/pool_proj
I0902 16:07:52.924338 53383 net.cpp:419] inception_4b/relu_pool_proj -> inception_4b/pool_proj (in-place)
I0902 16:07:52.925936 53383 net.cpp:155] Setting up inception_4b/relu_pool_proj
I0902 16:07:52.925968 53383 net.cpp:163] Top shape: 32 64 14 14 (401408)
I0902 16:07:52.925981 53383 layer_factory.hpp:76] Creating layer inception_4b/output
I0902 16:07:52.925997 53383 net.cpp:110] Creating Layer inception_4b/output
I0902 16:07:52.926008 53383 net.cpp:477] inception_4b/output <- inception_4b/1x1
I0902 16:07:52.926022 53383 net.cpp:477] inception_4b/output <- inception_4b/3x3
I0902 16:07:52.926033 53383 net.cpp:477] inception_4b/output <- inception_4b/5x5
I0902 16:07:52.926045 53383 net.cpp:477] inception_4b/output <- inception_4b/pool_proj
I0902 16:07:52.926059 53383 net.cpp:433] inception_4b/output -> inception_4b/output
I0902 16:07:52.926079 53383 net.cpp:155] Setting up inception_4b/output
I0902 16:07:52.926092 53383 net.cpp:163] Top shape: 32 512 14 14 (3211264)
I0902 16:07:52.926105 53383 layer_factory.hpp:76] Creating layer inception_4b/output_inception_4b/output_0_split
I0902 16:07:52.926123 53383 net.cpp:110] Creating Layer inception_4b/output_inception_4b/output_0_split
I0902 16:07:52.926134 53383 net.cpp:477] inception_4b/output_inception_4b/output_0_split <- inception_4b/output
I0902 16:07:52.926148 53383 net.cpp:433] inception_4b/output_inception_4b/output_0_split -> inception_4b/output_inception_4b/output_0_split_0
I0902 16:07:52.926164 53383 net.cpp:433] inception_4b/output_inception_4b/output_0_split -> inception_4b/output_inception_4b/output_0_split_1
I0902 16:07:52.926187 53383 net.cpp:433] inception_4b/output_inception_4b/output_0_split -> inception_4b/output_inception_4b/output_0_split_2
I0902 16:07:52.926203 53383 net.cpp:433] inception_4b/output_inception_4b/output_0_split -> inception_4b/output_inception_4b/output_0_split_3
I0902 16:07:52.926220 53383 net.cpp:155] Setting up inception_4b/output_inception_4b/output_0_split
I0902 16:07:52.926233 53383 net.cpp:163] Top shape: 32 512 14 14 (3211264)
I0902 16:07:52.926244 53383 net.cpp:163] Top shape: 32 512 14 14 (3211264)
I0902 16:07:52.926255 53383 net.cpp:163] Top shape: 32 512 14 14 (3211264)
I0902 16:07:52.926266 53383 net.cpp:163] Top shape: 32 512 14 14 (3211264)
I0902 16:07:52.926276 53383 layer_factory.hpp:76] Creating layer inception_4c/1x1
I0902 16:07:52.926295 53383 net.cpp:110] Creating Layer inception_4c/1x1
I0902 16:07:52.926306 53383 net.cpp:477] inception_4c/1x1 <- inception_4b/output_inception_4b/output_0_split_0
I0902 16:07:52.926321 53383 net.cpp:433] inception_4c/1x1 -> inception_4c/1x1
I0902 16:07:52.932487 53383 net.cpp:155] Setting up inception_4c/1x1
I0902 16:07:52.932519 53383 net.cpp:163] Top shape: 32 128 14 14 (802816)
I0902 16:07:52.932562 53383 layer_factory.hpp:76] Creating layer inception_4c/relu_1x1
I0902 16:07:52.932587 53383 net.cpp:110] Creating Layer inception_4c/relu_1x1
I0902 16:07:52.932600 53383 net.cpp:477] inception_4c/relu_1x1 <- inception_4c/1x1
I0902 16:07:52.932613 53383 net.cpp:419] inception_4c/relu_1x1 -> inception_4c/1x1 (in-place)
I0902 16:07:52.934237 53383 net.cpp:155] Setting up inception_4c/relu_1x1
I0902 16:07:52.934269 53383 net.cpp:163] Top shape: 32 128 14 14 (802816)
I0902 16:07:52.934281 53383 layer_factory.hpp:76] Creating layer inception_4c/3x3_reduce
I0902 16:07:52.934303 53383 net.cpp:110] Creating Layer inception_4c/3x3_reduce
I0902 16:07:52.934314 53383 net.cpp:477] inception_4c/3x3_reduce <- inception_4b/output_inception_4b/output_0_split_1
I0902 16:07:52.934335 53383 net.cpp:433] inception_4c/3x3_reduce -> inception_4c/3x3_reduce
I0902 16:07:52.940639 53383 net.cpp:155] Setting up inception_4c/3x3_reduce
I0902 16:07:52.940672 53383 net.cpp:163] Top shape: 32 128 14 14 (802816)
I0902 16:07:52.940692 53383 layer_factory.hpp:76] Creating layer inception_4c/relu_3x3_reduce
I0902 16:07:52.940709 53383 net.cpp:110] Creating Layer inception_4c/relu_3x3_reduce
I0902 16:07:52.940721 53383 net.cpp:477] inception_4c/relu_3x3_reduce <- inception_4c/3x3_reduce
I0902 16:07:52.940737 53383 net.cpp:419] inception_4c/relu_3x3_reduce -> inception_4c/3x3_reduce (in-place)
I0902 16:07:52.942448 53383 net.cpp:155] Setting up inception_4c/relu_3x3_reduce
I0902 16:07:52.942479 53383 net.cpp:163] Top shape: 32 128 14 14 (802816)
I0902 16:07:52.942492 53383 layer_factory.hpp:76] Creating layer inception_4c/3x3
I0902 16:07:52.942515 53383 net.cpp:110] Creating Layer inception_4c/3x3
I0902 16:07:52.942526 53383 net.cpp:477] inception_4c/3x3 <- inception_4c/3x3_reduce
I0902 16:07:52.942546 53383 net.cpp:433] inception_4c/3x3 -> inception_4c/3x3
I0902 16:07:52.953276 53383 net.cpp:155] Setting up inception_4c/3x3
I0902 16:07:52.953310 53383 net.cpp:163] Top shape: 32 256 14 14 (1605632)
I0902 16:07:52.953356 53383 layer_factory.hpp:76] Creating layer inception_4c/relu_3x3
I0902 16:07:52.953382 53383 net.cpp:110] Creating Layer inception_4c/relu_3x3
I0902 16:07:52.953393 53383 net.cpp:477] inception_4c/relu_3x3 <- inception_4c/3x3
I0902 16:07:52.953408 53383 net.cpp:419] inception_4c/relu_3x3 -> inception_4c/3x3 (in-place)
I0902 16:07:52.955029 53383 net.cpp:155] Setting up inception_4c/relu_3x3
I0902 16:07:52.955060 53383 net.cpp:163] Top shape: 32 256 14 14 (1605632)
I0902 16:07:52.955073 53383 layer_factory.hpp:76] Creating layer inception_4c/5x5_reduce
I0902 16:07:52.955092 53383 net.cpp:110] Creating Layer inception_4c/5x5_reduce
I0902 16:07:52.955103 53383 net.cpp:477] inception_4c/5x5_reduce <- inception_4b/output_inception_4b/output_0_split_2
I0902 16:07:52.955124 53383 net.cpp:433] inception_4c/5x5_reduce -> inception_4c/5x5_reduce
I0902 16:07:52.960562 53383 net.cpp:155] Setting up inception_4c/5x5_reduce
I0902 16:07:52.960595 53383 net.cpp:163] Top shape: 32 24 14 14 (150528)
I0902 16:07:52.960618 53383 layer_factory.hpp:76] Creating layer inception_4c/relu_5x5_reduce
I0902 16:07:52.960638 53383 net.cpp:110] Creating Layer inception_4c/relu_5x5_reduce
I0902 16:07:52.960649 53383 net.cpp:477] inception_4c/relu_5x5_reduce <- inception_4c/5x5_reduce
I0902 16:07:52.960664 53383 net.cpp:419] inception_4c/relu_5x5_reduce -> inception_4c/5x5_reduce (in-place)
I0902 16:07:52.962296 53383 net.cpp:155] Setting up inception_4c/relu_5x5_reduce
I0902 16:07:52.962326 53383 net.cpp:163] Top shape: 32 24 14 14 (150528)
I0902 16:07:52.962338 53383 layer_factory.hpp:76] Creating layer inception_4c/5x5
I0902 16:07:52.962364 53383 net.cpp:110] Creating Layer inception_4c/5x5
I0902 16:07:52.962376 53383 net.cpp:477] inception_4c/5x5 <- inception_4c/5x5_reduce
I0902 16:07:52.962398 53383 net.cpp:433] inception_4c/5x5 -> inception_4c/5x5
I0902 16:07:52.969043 53383 net.cpp:155] Setting up inception_4c/5x5
I0902 16:07:52.969075 53383 net.cpp:163] Top shape: 32 64 14 14 (401408)
I0902 16:07:52.969095 53383 layer_factory.hpp:76] Creating layer inception_4c/relu_5x5
I0902 16:07:52.969137 53383 net.cpp:110] Creating Layer inception_4c/relu_5x5
I0902 16:07:52.969153 53383 net.cpp:477] inception_4c/relu_5x5 <- inception_4c/5x5
I0902 16:07:52.969167 53383 net.cpp:419] inception_4c/relu_5x5 -> inception_4c/5x5 (in-place)
I0902 16:07:52.970790 53383 net.cpp:155] Setting up inception_4c/relu_5x5
I0902 16:07:52.970824 53383 net.cpp:163] Top shape: 32 64 14 14 (401408)
I0902 16:07:52.970835 53383 layer_factory.hpp:76] Creating layer inception_4c/pool
I0902 16:07:52.970847 53383 layer_factory.cpp:60] CUDNN does not support padding or multiple tops. Using Caffe's own pooling layer.
I0902 16:07:52.970865 53383 net.cpp:110] Creating Layer inception_4c/pool
I0902 16:07:52.970876 53383 net.cpp:477] inception_4c/pool <- inception_4b/output_inception_4b/output_0_split_3
I0902 16:07:52.970891 53383 net.cpp:433] inception_4c/pool -> inception_4c/pool
I0902 16:07:52.970913 53383 net.cpp:155] Setting up inception_4c/pool
I0902 16:07:52.970931 53383 net.cpp:163] Top shape: 32 512 14 14 (3211264)
I0902 16:07:52.970943 53383 layer_factory.hpp:76] Creating layer inception_4c/pool_proj
I0902 16:07:52.970960 53383 net.cpp:110] Creating Layer inception_4c/pool_proj
I0902 16:07:52.970970 53383 net.cpp:477] inception_4c/pool_proj <- inception_4c/pool
I0902 16:07:52.970988 53383 net.cpp:433] inception_4c/pool_proj -> inception_4c/pool_proj
I0902 16:07:52.976526 53383 net.cpp:155] Setting up inception_4c/pool_proj
I0902 16:07:52.976562 53383 net.cpp:163] Top shape: 32 64 14 14 (401408)
I0902 16:07:52.976582 53383 layer_factory.hpp:76] Creating layer inception_4c/relu_pool_proj
I0902 16:07:52.976600 53383 net.cpp:110] Creating Layer inception_4c/relu_pool_proj
I0902 16:07:52.976613 53383 net.cpp:477] inception_4c/relu_pool_proj <- inception_4c/pool_proj
I0902 16:07:52.976625 53383 net.cpp:419] inception_4c/relu_pool_proj -> inception_4c/pool_proj (in-place)
I0902 16:07:52.978261 53383 net.cpp:155] Setting up inception_4c/relu_pool_proj
I0902 16:07:52.978296 53383 net.cpp:163] Top shape: 32 64 14 14 (401408)
I0902 16:07:52.978309 53383 layer_factory.hpp:76] Creating layer inception_4c/output
I0902 16:07:52.978328 53383 net.cpp:110] Creating Layer inception_4c/output
I0902 16:07:52.978340 53383 net.cpp:477] inception_4c/output <- inception_4c/1x1
I0902 16:07:52.978353 53383 net.cpp:477] inception_4c/output <- inception_4c/3x3
I0902 16:07:52.978368 53383 net.cpp:477] inception_4c/output <- inception_4c/5x5
I0902 16:07:52.978380 53383 net.cpp:477] inception_4c/output <- inception_4c/pool_proj
I0902 16:07:52.978394 53383 net.cpp:433] inception_4c/output -> inception_4c/output
I0902 16:07:52.978415 53383 net.cpp:155] Setting up inception_4c/output
I0902 16:07:52.978427 53383 net.cpp:163] Top shape: 32 512 14 14 (3211264)
I0902 16:07:52.978437 53383 layer_factory.hpp:76] Creating layer inception_4c/output_inception_4c/output_0_split
I0902 16:07:52.978451 53383 net.cpp:110] Creating Layer inception_4c/output_inception_4c/output_0_split
I0902 16:07:52.978461 53383 net.cpp:477] inception_4c/output_inception_4c/output_0_split <- inception_4c/output
I0902 16:07:52.978477 53383 net.cpp:433] inception_4c/output_inception_4c/output_0_split -> inception_4c/output_inception_4c/output_0_split_0
I0902 16:07:52.978497 53383 net.cpp:433] inception_4c/output_inception_4c/output_0_split -> inception_4c/output_inception_4c/output_0_split_1
I0902 16:07:52.978513 53383 net.cpp:433] inception_4c/output_inception_4c/output_0_split -> inception_4c/output_inception_4c/output_0_split_2
I0902 16:07:52.978528 53383 net.cpp:433] inception_4c/output_inception_4c/output_0_split -> inception_4c/output_inception_4c/output_0_split_3
I0902 16:07:52.978545 53383 net.cpp:155] Setting up inception_4c/output_inception_4c/output_0_split
I0902 16:07:52.978557 53383 net.cpp:163] Top shape: 32 512 14 14 (3211264)
I0902 16:07:52.978569 53383 net.cpp:163] Top shape: 32 512 14 14 (3211264)
I0902 16:07:52.978579 53383 net.cpp:163] Top shape: 32 512 14 14 (3211264)
I0902 16:07:52.978590 53383 net.cpp:163] Top shape: 32 512 14 14 (3211264)
I0902 16:07:52.978641 53383 layer_factory.hpp:76] Creating layer inception_4d/1x1
I0902 16:07:52.978662 53383 net.cpp:110] Creating Layer inception_4d/1x1
I0902 16:07:52.978672 53383 net.cpp:477] inception_4d/1x1 <- inception_4c/output_inception_4c/output_0_split_0
I0902 16:07:52.978687 53383 net.cpp:433] inception_4d/1x1 -> inception_4d/1x1
I0902 16:07:52.984840 53383 net.cpp:155] Setting up inception_4d/1x1
I0902 16:07:52.984874 53383 net.cpp:163] Top shape: 32 112 14 14 (702464)
I0902 16:07:52.984894 53383 layer_factory.hpp:76] Creating layer inception_4d/relu_1x1
I0902 16:07:52.984915 53383 net.cpp:110] Creating Layer inception_4d/relu_1x1
I0902 16:07:52.984925 53383 net.cpp:477] inception_4d/relu_1x1 <- inception_4d/1x1
I0902 16:07:52.984943 53383 net.cpp:419] inception_4d/relu_1x1 -> inception_4d/1x1 (in-place)
I0902 16:07:52.986588 53383 net.cpp:155] Setting up inception_4d/relu_1x1
I0902 16:07:52.986626 53383 net.cpp:163] Top shape: 32 112 14 14 (702464)
I0902 16:07:52.986639 53383 layer_factory.hpp:76] Creating layer inception_4d/3x3_reduce
I0902 16:07:52.986657 53383 net.cpp:110] Creating Layer inception_4d/3x3_reduce
I0902 16:07:52.986668 53383 net.cpp:477] inception_4d/3x3_reduce <- inception_4c/output_inception_4c/output_0_split_1
I0902 16:07:52.986688 53383 net.cpp:433] inception_4d/3x3_reduce -> inception_4d/3x3_reduce
I0902 16:07:52.993180 53383 net.cpp:155] Setting up inception_4d/3x3_reduce
I0902 16:07:52.993212 53383 net.cpp:163] Top shape: 32 144 14 14 (903168)
I0902 16:07:52.993233 53383 layer_factory.hpp:76] Creating layer inception_4d/relu_3x3_reduce
I0902 16:07:52.993252 53383 net.cpp:110] Creating Layer inception_4d/relu_3x3_reduce
I0902 16:07:52.993263 53383 net.cpp:477] inception_4d/relu_3x3_reduce <- inception_4d/3x3_reduce
I0902 16:07:52.993278 53383 net.cpp:419] inception_4d/relu_3x3_reduce -> inception_4d/3x3_reduce (in-place)
I0902 16:07:52.994930 53383 net.cpp:155] Setting up inception_4d/relu_3x3_reduce
I0902 16:07:52.994962 53383 net.cpp:163] Top shape: 32 144 14 14 (903168)
I0902 16:07:52.994978 53383 layer_factory.hpp:76] Creating layer inception_4d/3x3
I0902 16:07:52.995000 53383 net.cpp:110] Creating Layer inception_4d/3x3
I0902 16:07:52.995012 53383 net.cpp:477] inception_4d/3x3 <- inception_4d/3x3_reduce
I0902 16:07:52.995028 53383 net.cpp:433] inception_4d/3x3 -> inception_4d/3x3
I0902 16:07:53.007143 53383 net.cpp:155] Setting up inception_4d/3x3
I0902 16:07:53.007176 53383 net.cpp:163] Top shape: 32 288 14 14 (1806336)
I0902 16:07:53.007196 53383 layer_factory.hpp:76] Creating layer inception_4d/relu_3x3
I0902 16:07:53.007216 53383 net.cpp:110] Creating Layer inception_4d/relu_3x3
I0902 16:07:53.007227 53383 net.cpp:477] inception_4d/relu_3x3 <- inception_4d/3x3
I0902 16:07:53.007244 53383 net.cpp:419] inception_4d/relu_3x3 -> inception_4d/3x3 (in-place)
I0902 16:07:53.009083 53383 net.cpp:155] Setting up inception_4d/relu_3x3
I0902 16:07:53.009114 53383 net.cpp:163] Top shape: 32 288 14 14 (1806336)
I0902 16:07:53.009127 53383 layer_factory.hpp:76] Creating layer inception_4d/5x5_reduce
I0902 16:07:53.009148 53383 net.cpp:110] Creating Layer inception_4d/5x5_reduce
I0902 16:07:53.009161 53383 net.cpp:477] inception_4d/5x5_reduce <- inception_4c/output_inception_4c/output_0_split_2
I0902 16:07:53.009181 53383 net.cpp:433] inception_4d/5x5_reduce -> inception_4d/5x5_reduce
I0902 16:07:53.014660 53383 net.cpp:155] Setting up inception_4d/5x5_reduce
I0902 16:07:53.014693 53383 net.cpp:163] Top shape: 32 32 14 14 (200704)
I0902 16:07:53.014717 53383 layer_factory.hpp:76] Creating layer inception_4d/relu_5x5_reduce
I0902 16:07:53.014736 53383 net.cpp:110] Creating Layer inception_4d/relu_5x5_reduce
I0902 16:07:53.014749 53383 net.cpp:477] inception_4d/relu_5x5_reduce <- inception_4d/5x5_reduce
I0902 16:07:53.014763 53383 net.cpp:419] inception_4d/relu_5x5_reduce -> inception_4d/5x5_reduce (in-place)
I0902 16:07:53.016629 53383 net.cpp:155] Setting up inception_4d/relu_5x5_reduce
I0902 16:07:53.016660 53383 net.cpp:163] Top shape: 32 32 14 14 (200704)
I0902 16:07:53.016672 53383 layer_factory.hpp:76] Creating layer inception_4d/5x5
I0902 16:07:53.016716 53383 net.cpp:110] Creating Layer inception_4d/5x5
I0902 16:07:53.016729 53383 net.cpp:477] inception_4d/5x5 <- inception_4d/5x5_reduce
I0902 16:07:53.016749 53383 net.cpp:433] inception_4d/5x5 -> inception_4d/5x5
I0902 16:07:53.022999 53383 net.cpp:155] Setting up inception_4d/5x5
I0902 16:07:53.023032 53383 net.cpp:163] Top shape: 32 64 14 14 (401408)
I0902 16:07:53.023052 53383 layer_factory.hpp:76] Creating layer inception_4d/relu_5x5
I0902 16:07:53.023088 53383 net.cpp:110] Creating Layer inception_4d/relu_5x5
I0902 16:07:53.023102 53383 net.cpp:477] inception_4d/relu_5x5 <- inception_4d/5x5
I0902 16:07:53.023116 53383 net.cpp:419] inception_4d/relu_5x5 -> inception_4d/5x5 (in-place)
I0902 16:07:53.024780 53383 net.cpp:155] Setting up inception_4d/relu_5x5
I0902 16:07:53.024811 53383 net.cpp:163] Top shape: 32 64 14 14 (401408)
I0902 16:07:53.024824 53383 layer_factory.hpp:76] Creating layer inception_4d/pool
I0902 16:07:53.024839 53383 layer_factory.cpp:60] CUDNN does not support padding or multiple tops. Using Caffe's own pooling layer.
I0902 16:07:53.024853 53383 net.cpp:110] Creating Layer inception_4d/pool
I0902 16:07:53.024864 53383 net.cpp:477] inception_4d/pool <- inception_4c/output_inception_4c/output_0_split_3
I0902 16:07:53.024884 53383 net.cpp:433] inception_4d/pool -> inception_4d/pool
I0902 16:07:53.024907 53383 net.cpp:155] Setting up inception_4d/pool
I0902 16:07:53.024920 53383 net.cpp:163] Top shape: 32 512 14 14 (3211264)
I0902 16:07:53.024930 53383 layer_factory.hpp:76] Creating layer inception_4d/pool_proj
I0902 16:07:53.024950 53383 net.cpp:110] Creating Layer inception_4d/pool_proj
I0902 16:07:53.024961 53383 net.cpp:477] inception_4d/pool_proj <- inception_4d/pool
I0902 16:07:53.024976 53383 net.cpp:433] inception_4d/pool_proj -> inception_4d/pool_proj
I0902 16:07:53.030920 53383 net.cpp:155] Setting up inception_4d/pool_proj
I0902 16:07:53.030957 53383 net.cpp:163] Top shape: 32 64 14 14 (401408)
I0902 16:07:53.030977 53383 layer_factory.hpp:76] Creating layer inception_4d/relu_pool_proj
I0902 16:07:53.030998 53383 net.cpp:110] Creating Layer inception_4d/relu_pool_proj
I0902 16:07:53.031010 53383 net.cpp:477] inception_4d/relu_pool_proj <- inception_4d/pool_proj
I0902 16:07:53.031024 53383 net.cpp:419] inception_4d/relu_pool_proj -> inception_4d/pool_proj (in-place)
I0902 16:07:53.032721 53383 net.cpp:155] Setting up inception_4d/relu_pool_proj
I0902 16:07:53.032758 53383 net.cpp:163] Top shape: 32 64 14 14 (401408)
I0902 16:07:53.032771 53383 layer_factory.hpp:76] Creating layer inception_4d/output
I0902 16:07:53.032791 53383 net.cpp:110] Creating Layer inception_4d/output
I0902 16:07:53.032804 53383 net.cpp:477] inception_4d/output <- inception_4d/1x1
I0902 16:07:53.032816 53383 net.cpp:477] inception_4d/output <- inception_4d/3x3
I0902 16:07:53.032829 53383 net.cpp:477] inception_4d/output <- inception_4d/5x5
I0902 16:07:53.032840 53383 net.cpp:477] inception_4d/output <- inception_4d/pool_proj
I0902 16:07:53.032852 53383 net.cpp:433] inception_4d/output -> inception_4d/output
I0902 16:07:53.032873 53383 net.cpp:155] Setting up inception_4d/output
I0902 16:07:53.032886 53383 net.cpp:163] Top shape: 32 528 14 14 (3311616)
I0902 16:07:53.032896 53383 layer_factory.hpp:76] Creating layer inception_4d/output_inception_4d/output_0_split
I0902 16:07:53.032912 53383 net.cpp:110] Creating Layer inception_4d/output_inception_4d/output_0_split
I0902 16:07:53.032922 53383 net.cpp:477] inception_4d/output_inception_4d/output_0_split <- inception_4d/output
I0902 16:07:53.032940 53383 net.cpp:433] inception_4d/output_inception_4d/output_0_split -> inception_4d/output_inception_4d/output_0_split_0
I0902 16:07:53.032958 53383 net.cpp:433] inception_4d/output_inception_4d/output_0_split -> inception_4d/output_inception_4d/output_0_split_1
I0902 16:07:53.032974 53383 net.cpp:433] inception_4d/output_inception_4d/output_0_split -> inception_4d/output_inception_4d/output_0_split_2
I0902 16:07:53.032990 53383 net.cpp:433] inception_4d/output_inception_4d/output_0_split -> inception_4d/output_inception_4d/output_0_split_3
I0902 16:07:53.033046 53383 net.cpp:433] inception_4d/output_inception_4d/output_0_split -> inception_4d/output_inception_4d/output_0_split_4
I0902 16:07:53.033068 53383 net.cpp:155] Setting up inception_4d/output_inception_4d/output_0_split
I0902 16:07:53.033095 53383 net.cpp:163] Top shape: 32 528 14 14 (3311616)
I0902 16:07:53.033107 53383 net.cpp:163] Top shape: 32 528 14 14 (3311616)
I0902 16:07:53.033118 53383 net.cpp:163] Top shape: 32 528 14 14 (3311616)
I0902 16:07:53.033129 53383 net.cpp:163] Top shape: 32 528 14 14 (3311616)
I0902 16:07:53.033139 53383 net.cpp:163] Top shape: 32 528 14 14 (3311616)
I0902 16:07:53.033149 53383 layer_factory.hpp:76] Creating layer loss2/ave_pool
I0902 16:07:53.033167 53383 net.cpp:110] Creating Layer loss2/ave_pool
I0902 16:07:53.033177 53383 net.cpp:477] loss2/ave_pool <- inception_4d/output_inception_4d/output_0_split_0
I0902 16:07:53.033193 53383 net.cpp:433] loss2/ave_pool -> loss2/ave_pool
I0902 16:07:53.034915 53383 net.cpp:155] Setting up loss2/ave_pool
I0902 16:07:53.034950 53383 net.cpp:163] Top shape: 32 528 4 4 (270336)
I0902 16:07:53.034963 53383 layer_factory.hpp:76] Creating layer loss2/conv
I0902 16:07:53.034984 53383 net.cpp:110] Creating Layer loss2/conv
I0902 16:07:53.034996 53383 net.cpp:477] loss2/conv <- loss2/ave_pool
I0902 16:07:53.035015 53383 net.cpp:433] loss2/conv -> loss2/conv
I0902 16:07:53.042444 53383 net.cpp:155] Setting up loss2/conv
I0902 16:07:53.042485 53383 net.cpp:163] Top shape: 32 128 4 4 (65536)
I0902 16:07:53.042505 53383 layer_factory.hpp:76] Creating layer loss2/relu_conv
I0902 16:07:53.042528 53383 net.cpp:110] Creating Layer loss2/relu_conv
I0902 16:07:53.042541 53383 net.cpp:477] loss2/relu_conv <- loss2/conv
I0902 16:07:53.042556 53383 net.cpp:419] loss2/relu_conv -> loss2/conv (in-place)
I0902 16:07:53.044239 53383 net.cpp:155] Setting up loss2/relu_conv
I0902 16:07:53.044270 53383 net.cpp:163] Top shape: 32 128 4 4 (65536)
I0902 16:07:53.044283 53383 layer_factory.hpp:76] Creating layer loss2/fc
I0902 16:07:53.044303 53383 net.cpp:110] Creating Layer loss2/fc
I0902 16:07:53.044314 53383 net.cpp:477] loss2/fc <- loss2/conv
I0902 16:07:53.044334 53383 net.cpp:433] loss2/fc -> loss2/fc
I0902 16:07:53.082646 53383 net.cpp:155] Setting up loss2/fc
I0902 16:07:53.082679 53383 net.cpp:163] Top shape: 32 1024 (32768)
I0902 16:07:53.082700 53383 layer_factory.hpp:76] Creating layer loss2/relu_fc
I0902 16:07:53.082722 53383 net.cpp:110] Creating Layer loss2/relu_fc
I0902 16:07:53.082733 53383 net.cpp:477] loss2/relu_fc <- loss2/fc
I0902 16:07:53.082747 53383 net.cpp:419] loss2/relu_fc -> loss2/fc (in-place)
I0902 16:07:53.084460 53383 net.cpp:155] Setting up loss2/relu_fc
I0902 16:07:53.084496 53383 net.cpp:163] Top shape: 32 1024 (32768)
I0902 16:07:53.084512 53383 layer_factory.hpp:76] Creating layer loss2/drop_fc
I0902 16:07:53.084529 53383 net.cpp:110] Creating Layer loss2/drop_fc
I0902 16:07:53.084540 53383 net.cpp:477] loss2/drop_fc <- loss2/fc
I0902 16:07:53.084554 53383 net.cpp:419] loss2/drop_fc -> loss2/fc (in-place)
I0902 16:07:53.084573 53383 net.cpp:155] Setting up loss2/drop_fc
I0902 16:07:53.084586 53383 net.cpp:163] Top shape: 32 1024 (32768)
I0902 16:07:53.084596 53383 layer_factory.hpp:76] Creating layer loss2/classifier_cub
I0902 16:07:53.084619 53383 net.cpp:110] Creating Layer loss2/classifier_cub
I0902 16:07:53.084630 53383 net.cpp:477] loss2/classifier_cub <- loss2/fc
I0902 16:07:53.084647 53383 net.cpp:433] loss2/classifier_cub -> loss2/classifier
I0902 16:07:53.100257 53383 net.cpp:155] Setting up loss2/classifier_cub
I0902 16:07:53.100289 53383 net.cpp:163] Top shape: 32 200 (6400)
I0902 16:07:53.100308 53383 layer_factory.hpp:76] Creating layer loss2/loss
I0902 16:07:53.100327 53383 net.cpp:110] Creating Layer loss2/loss
I0902 16:07:53.100337 53383 net.cpp:477] loss2/loss <- loss2/classifier
I0902 16:07:53.100352 53383 net.cpp:477] loss2/loss <- label_data_1_split_1
I0902 16:07:53.100369 53383 net.cpp:433] loss2/loss -> loss2/loss1
I0902 16:07:53.100415 53383 layer_factory.hpp:76] Creating layer loss2/loss
I0902 16:07:53.102380 53383 net.cpp:155] Setting up loss2/loss
I0902 16:07:53.102421 53383 net.cpp:163] Top shape: (1)
I0902 16:07:53.102432 53383 net.cpp:168]     with loss weight 0.3
I0902 16:07:53.102454 53383 layer_factory.hpp:76] Creating layer inception_4e/1x1
I0902 16:07:53.102479 53383 net.cpp:110] Creating Layer inception_4e/1x1
I0902 16:07:53.102490 53383 net.cpp:477] inception_4e/1x1 <- inception_4d/output_inception_4d/output_0_split_1
I0902 16:07:53.102510 53383 net.cpp:433] inception_4e/1x1 -> inception_4e/1x1
I0902 16:07:53.110142 53383 net.cpp:155] Setting up inception_4e/1x1
I0902 16:07:53.110180 53383 net.cpp:163] Top shape: 32 256 14 14 (1605632)
I0902 16:07:53.110203 53383 layer_factory.hpp:76] Creating layer inception_4e/relu_1x1
I0902 16:07:53.110220 53383 net.cpp:110] Creating Layer inception_4e/relu_1x1
I0902 16:07:53.110231 53383 net.cpp:477] inception_4e/relu_1x1 <- inception_4e/1x1
I0902 16:07:53.110249 53383 net.cpp:419] inception_4e/relu_1x1 -> inception_4e/1x1 (in-place)
I0902 16:07:53.111930 53383 net.cpp:155] Setting up inception_4e/relu_1x1
I0902 16:07:53.111961 53383 net.cpp:163] Top shape: 32 256 14 14 (1605632)
I0902 16:07:53.111979 53383 layer_factory.hpp:76] Creating layer inception_4e/3x3_reduce
I0902 16:07:53.111999 53383 net.cpp:110] Creating Layer inception_4e/3x3_reduce
I0902 16:07:53.112010 53383 net.cpp:477] inception_4e/3x3_reduce <- inception_4d/output_inception_4d/output_0_split_2
I0902 16:07:53.112031 53383 net.cpp:433] inception_4e/3x3_reduce -> inception_4e/3x3_reduce
I0902 16:07:53.119534 53383 net.cpp:155] Setting up inception_4e/3x3_reduce
I0902 16:07:53.119572 53383 net.cpp:163] Top shape: 32 160 14 14 (1003520)
I0902 16:07:53.119591 53383 layer_factory.hpp:76] Creating layer inception_4e/relu_3x3_reduce
I0902 16:07:53.119614 53383 net.cpp:110] Creating Layer inception_4e/relu_3x3_reduce
I0902 16:07:53.119626 53383 net.cpp:477] inception_4e/relu_3x3_reduce <- inception_4e/3x3_reduce
I0902 16:07:53.119642 53383 net.cpp:419] inception_4e/relu_3x3_reduce -> inception_4e/3x3_reduce (in-place)
I0902 16:07:53.121330 53383 net.cpp:155] Setting up inception_4e/relu_3x3_reduce
I0902 16:07:53.121367 53383 net.cpp:163] Top shape: 32 160 14 14 (1003520)
I0902 16:07:53.121381 53383 layer_factory.hpp:76] Creating layer inception_4e/3x3
I0902 16:07:53.121403 53383 net.cpp:110] Creating Layer inception_4e/3x3
I0902 16:07:53.121414 53383 net.cpp:477] inception_4e/3x3 <- inception_4e/3x3_reduce
I0902 16:07:53.121431 53383 net.cpp:433] inception_4e/3x3 -> inception_4e/3x3
I0902 16:07:53.135534 53383 net.cpp:155] Setting up inception_4e/3x3
I0902 16:07:53.135571 53383 net.cpp:163] Top shape: 32 320 14 14 (2007040)
I0902 16:07:53.135591 53383 layer_factory.hpp:76] Creating layer inception_4e/relu_3x3
I0902 16:07:53.135612 53383 net.cpp:110] Creating Layer inception_4e/relu_3x3
I0902 16:07:53.135624 53383 net.cpp:477] inception_4e/relu_3x3 <- inception_4e/3x3
I0902 16:07:53.135642 53383 net.cpp:419] inception_4e/relu_3x3 -> inception_4e/3x3 (in-place)
I0902 16:07:53.137334 53383 net.cpp:155] Setting up inception_4e/relu_3x3
I0902 16:07:53.137370 53383 net.cpp:163] Top shape: 32 320 14 14 (2007040)
I0902 16:07:53.137382 53383 layer_factory.hpp:76] Creating layer inception_4e/5x5_reduce
I0902 16:07:53.137408 53383 net.cpp:110] Creating Layer inception_4e/5x5_reduce
I0902 16:07:53.137418 53383 net.cpp:477] inception_4e/5x5_reduce <- inception_4d/output_inception_4d/output_0_split_3
I0902 16:07:53.137439 53383 net.cpp:433] inception_4e/5x5_reduce -> inception_4e/5x5_reduce
I0902 16:07:53.143286 53383 net.cpp:155] Setting up inception_4e/5x5_reduce
I0902 16:07:53.143319 53383 net.cpp:163] Top shape: 32 32 14 14 (200704)
I0902 16:07:53.143339 53383 layer_factory.hpp:76] Creating layer inception_4e/relu_5x5_reduce
I0902 16:07:53.143359 53383 net.cpp:110] Creating Layer inception_4e/relu_5x5_reduce
I0902 16:07:53.143371 53383 net.cpp:477] inception_4e/relu_5x5_reduce <- inception_4e/5x5_reduce
I0902 16:07:53.143388 53383 net.cpp:419] inception_4e/relu_5x5_reduce -> inception_4e/5x5_reduce (in-place)
I0902 16:07:53.145112 53383 net.cpp:155] Setting up inception_4e/relu_5x5_reduce
I0902 16:07:53.145143 53383 net.cpp:163] Top shape: 32 32 14 14 (200704)
I0902 16:07:53.145158 53383 layer_factory.hpp:76] Creating layer inception_4e/5x5
I0902 16:07:53.145210 53383 net.cpp:110] Creating Layer inception_4e/5x5
I0902 16:07:53.145222 53383 net.cpp:477] inception_4e/5x5 <- inception_4e/5x5_reduce
I0902 16:07:53.145238 53383 net.cpp:433] inception_4e/5x5 -> inception_4e/5x5
I0902 16:07:53.152400 53383 net.cpp:155] Setting up inception_4e/5x5
I0902 16:07:53.152433 53383 net.cpp:163] Top shape: 32 128 14 14 (802816)
I0902 16:07:53.152454 53383 layer_factory.hpp:76] Creating layer inception_4e/relu_5x5
I0902 16:07:53.152473 53383 net.cpp:110] Creating Layer inception_4e/relu_5x5
I0902 16:07:53.152484 53383 net.cpp:477] inception_4e/relu_5x5 <- inception_4e/5x5
I0902 16:07:53.152503 53383 net.cpp:419] inception_4e/relu_5x5 -> inception_4e/5x5 (in-place)
I0902 16:07:53.154448 53383 net.cpp:155] Setting up inception_4e/relu_5x5
I0902 16:07:53.154480 53383 net.cpp:163] Top shape: 32 128 14 14 (802816)
I0902 16:07:53.154496 53383 layer_factory.hpp:76] Creating layer inception_4e/pool
I0902 16:07:53.154510 53383 layer_factory.cpp:60] CUDNN does not support padding or multiple tops. Using Caffe's own pooling layer.
I0902 16:07:53.154523 53383 net.cpp:110] Creating Layer inception_4e/pool
I0902 16:07:53.154536 53383 net.cpp:477] inception_4e/pool <- inception_4d/output_inception_4d/output_0_split_4
I0902 16:07:53.154554 53383 net.cpp:433] inception_4e/pool -> inception_4e/pool
I0902 16:07:53.154578 53383 net.cpp:155] Setting up inception_4e/pool
I0902 16:07:53.154592 53383 net.cpp:163] Top shape: 32 528 14 14 (3311616)
I0902 16:07:53.154602 53383 layer_factory.hpp:76] Creating layer inception_4e/pool_proj
I0902 16:07:53.154623 53383 net.cpp:110] Creating Layer inception_4e/pool_proj
I0902 16:07:53.154633 53383 net.cpp:477] inception_4e/pool_proj <- inception_4e/pool
I0902 16:07:53.154649 53383 net.cpp:433] inception_4e/pool_proj -> inception_4e/pool_proj
I0902 16:07:53.161078 53383 net.cpp:155] Setting up inception_4e/pool_proj
I0902 16:07:53.161118 53383 net.cpp:163] Top shape: 32 128 14 14 (802816)
I0902 16:07:53.161139 53383 layer_factory.hpp:76] Creating layer inception_4e/relu_pool_proj
I0902 16:07:53.161159 53383 net.cpp:110] Creating Layer inception_4e/relu_pool_proj
I0902 16:07:53.161171 53383 net.cpp:477] inception_4e/relu_pool_proj <- inception_4e/pool_proj
I0902 16:07:53.161188 53383 net.cpp:419] inception_4e/relu_pool_proj -> inception_4e/pool_proj (in-place)
I0902 16:07:53.162924 53383 net.cpp:155] Setting up inception_4e/relu_pool_proj
I0902 16:07:53.162960 53383 net.cpp:163] Top shape: 32 128 14 14 (802816)
I0902 16:07:53.162972 53383 layer_factory.hpp:76] Creating layer inception_4e/output
I0902 16:07:53.162994 53383 net.cpp:110] Creating Layer inception_4e/output
I0902 16:07:53.163007 53383 net.cpp:477] inception_4e/output <- inception_4e/1x1
I0902 16:07:53.163019 53383 net.cpp:477] inception_4e/output <- inception_4e/3x3
I0902 16:07:53.163030 53383 net.cpp:477] inception_4e/output <- inception_4e/5x5
I0902 16:07:53.163043 53383 net.cpp:477] inception_4e/output <- inception_4e/pool_proj
I0902 16:07:53.163055 53383 net.cpp:433] inception_4e/output -> inception_4e/output
I0902 16:07:53.163075 53383 net.cpp:155] Setting up inception_4e/output
I0902 16:07:53.163089 53383 net.cpp:163] Top shape: 32 832 14 14 (5218304)
I0902 16:07:53.163101 53383 layer_factory.hpp:76] Creating layer pool4/3x3_s2
I0902 16:07:53.163120 53383 net.cpp:110] Creating Layer pool4/3x3_s2
I0902 16:07:53.163131 53383 net.cpp:477] pool4/3x3_s2 <- inception_4e/output
I0902 16:07:53.163146 53383 net.cpp:433] pool4/3x3_s2 -> pool4/3x3_s2
I0902 16:07:53.164875 53383 net.cpp:155] Setting up pool4/3x3_s2
I0902 16:07:53.164906 53383 net.cpp:163] Top shape: 32 832 7 7 (1304576)
I0902 16:07:53.164918 53383 layer_factory.hpp:76] Creating layer pool4/3x3_s2_pool4/3x3_s2_0_split
I0902 16:07:53.164960 53383 net.cpp:110] Creating Layer pool4/3x3_s2_pool4/3x3_s2_0_split
I0902 16:07:53.164973 53383 net.cpp:477] pool4/3x3_s2_pool4/3x3_s2_0_split <- pool4/3x3_s2
I0902 16:07:53.164990 53383 net.cpp:433] pool4/3x3_s2_pool4/3x3_s2_0_split -> pool4/3x3_s2_pool4/3x3_s2_0_split_0
I0902 16:07:53.165009 53383 net.cpp:433] pool4/3x3_s2_pool4/3x3_s2_0_split -> pool4/3x3_s2_pool4/3x3_s2_0_split_1
I0902 16:07:53.165025 53383 net.cpp:433] pool4/3x3_s2_pool4/3x3_s2_0_split -> pool4/3x3_s2_pool4/3x3_s2_0_split_2
I0902 16:07:53.165040 53383 net.cpp:433] pool4/3x3_s2_pool4/3x3_s2_0_split -> pool4/3x3_s2_pool4/3x3_s2_0_split_3
I0902 16:07:53.165058 53383 net.cpp:155] Setting up pool4/3x3_s2_pool4/3x3_s2_0_split
I0902 16:07:53.165071 53383 net.cpp:163] Top shape: 32 832 7 7 (1304576)
I0902 16:07:53.165083 53383 net.cpp:163] Top shape: 32 832 7 7 (1304576)
I0902 16:07:53.165093 53383 net.cpp:163] Top shape: 32 832 7 7 (1304576)
I0902 16:07:53.165103 53383 net.cpp:163] Top shape: 32 832 7 7 (1304576)
I0902 16:07:53.165113 53383 layer_factory.hpp:76] Creating layer inception_5a/1x1
I0902 16:07:53.165132 53383 net.cpp:110] Creating Layer inception_5a/1x1
I0902 16:07:53.165143 53383 net.cpp:477] inception_5a/1x1 <- pool4/3x3_s2_pool4/3x3_s2_0_split_0
I0902 16:07:53.165160 53383 net.cpp:433] inception_5a/1x1 -> inception_5a/1x1
I0902 16:07:53.175106 53383 net.cpp:155] Setting up inception_5a/1x1
I0902 16:07:53.175138 53383 net.cpp:163] Top shape: 32 256 7 7 (401408)
I0902 16:07:53.175159 53383 layer_factory.hpp:76] Creating layer inception_5a/relu_1x1
I0902 16:07:53.175175 53383 net.cpp:110] Creating Layer inception_5a/relu_1x1
I0902 16:07:53.175187 53383 net.cpp:477] inception_5a/relu_1x1 <- inception_5a/1x1
I0902 16:07:53.175201 53383 net.cpp:419] inception_5a/relu_1x1 -> inception_5a/1x1 (in-place)
I0902 16:07:53.176956 53383 net.cpp:155] Setting up inception_5a/relu_1x1
I0902 16:07:53.176987 53383 net.cpp:163] Top shape: 32 256 7 7 (401408)
I0902 16:07:53.177003 53383 layer_factory.hpp:76] Creating layer inception_5a/3x3_reduce
I0902 16:07:53.177029 53383 net.cpp:110] Creating Layer inception_5a/3x3_reduce
I0902 16:07:53.177042 53383 net.cpp:477] inception_5a/3x3_reduce <- pool4/3x3_s2_pool4/3x3_s2_0_split_1
I0902 16:07:53.177062 53383 net.cpp:433] inception_5a/3x3_reduce -> inception_5a/3x3_reduce
I0902 16:07:53.185750 53383 net.cpp:155] Setting up inception_5a/3x3_reduce
I0902 16:07:53.185784 53383 net.cpp:163] Top shape: 32 160 7 7 (250880)
I0902 16:07:53.185814 53383 layer_factory.hpp:76] Creating layer inception_5a/relu_3x3_reduce
I0902 16:07:53.185834 53383 net.cpp:110] Creating Layer inception_5a/relu_3x3_reduce
I0902 16:07:53.185847 53383 net.cpp:477] inception_5a/relu_3x3_reduce <- inception_5a/3x3_reduce
I0902 16:07:53.185861 53383 net.cpp:419] inception_5a/relu_3x3_reduce -> inception_5a/3x3_reduce (in-place)
I0902 16:07:53.187616 53383 net.cpp:155] Setting up inception_5a/relu_3x3_reduce
I0902 16:07:53.187649 53383 net.cpp:163] Top shape: 32 160 7 7 (250880)
I0902 16:07:53.187660 53383 layer_factory.hpp:76] Creating layer inception_5a/3x3
I0902 16:07:53.187682 53383 net.cpp:110] Creating Layer inception_5a/3x3
I0902 16:07:53.187695 53383 net.cpp:477] inception_5a/3x3 <- inception_5a/3x3_reduce
I0902 16:07:53.187711 53383 net.cpp:433] inception_5a/3x3 -> inception_5a/3x3
I0902 16:07:53.202013 53383 net.cpp:155] Setting up inception_5a/3x3
I0902 16:07:53.202050 53383 net.cpp:163] Top shape: 32 320 7 7 (501760)
I0902 16:07:53.202070 53383 layer_factory.hpp:76] Creating layer inception_5a/relu_3x3
I0902 16:07:53.202091 53383 net.cpp:110] Creating Layer inception_5a/relu_3x3
I0902 16:07:53.202103 53383 net.cpp:477] inception_5a/relu_3x3 <- inception_5a/3x3
I0902 16:07:53.202118 53383 net.cpp:419] inception_5a/relu_3x3 -> inception_5a/3x3 (in-place)
I0902 16:07:53.203868 53383 net.cpp:155] Setting up inception_5a/relu_3x3
I0902 16:07:53.203901 53383 net.cpp:163] Top shape: 32 320 7 7 (501760)
I0902 16:07:53.203917 53383 layer_factory.hpp:76] Creating layer inception_5a/5x5_reduce
I0902 16:07:53.203939 53383 net.cpp:110] Creating Layer inception_5a/5x5_reduce
I0902 16:07:53.203974 53383 net.cpp:477] inception_5a/5x5_reduce <- pool4/3x3_s2_pool4/3x3_s2_0_split_2
I0902 16:07:53.203991 53383 net.cpp:433] inception_5a/5x5_reduce -> inception_5a/5x5_reduce
I0902 16:07:53.209916 53383 net.cpp:155] Setting up inception_5a/5x5_reduce
I0902 16:07:53.209949 53383 net.cpp:163] Top shape: 32 32 7 7 (50176)
I0902 16:07:53.209969 53383 layer_factory.hpp:76] Creating layer inception_5a/relu_5x5_reduce
I0902 16:07:53.209987 53383 net.cpp:110] Creating Layer inception_5a/relu_5x5_reduce
I0902 16:07:53.210000 53383 net.cpp:477] inception_5a/relu_5x5_reduce <- inception_5a/5x5_reduce
I0902 16:07:53.210014 53383 net.cpp:419] inception_5a/relu_5x5_reduce -> inception_5a/5x5_reduce (in-place)
I0902 16:07:53.211776 53383 net.cpp:155] Setting up inception_5a/relu_5x5_reduce
I0902 16:07:53.211808 53383 net.cpp:163] Top shape: 32 32 7 7 (50176)
I0902 16:07:53.211822 53383 layer_factory.hpp:76] Creating layer inception_5a/5x5
I0902 16:07:53.211843 53383 net.cpp:110] Creating Layer inception_5a/5x5
I0902 16:07:53.211858 53383 net.cpp:477] inception_5a/5x5 <- inception_5a/5x5_reduce
I0902 16:07:53.211874 53383 net.cpp:433] inception_5a/5x5 -> inception_5a/5x5
I0902 16:07:53.219218 53383 net.cpp:155] Setting up inception_5a/5x5
I0902 16:07:53.219252 53383 net.cpp:163] Top shape: 32 128 7 7 (200704)
I0902 16:07:53.219271 53383 layer_factory.hpp:76] Creating layer inception_5a/relu_5x5
I0902 16:07:53.219296 53383 net.cpp:110] Creating Layer inception_5a/relu_5x5
I0902 16:07:53.219308 53383 net.cpp:477] inception_5a/relu_5x5 <- inception_5a/5x5
I0902 16:07:53.219322 53383 net.cpp:419] inception_5a/relu_5x5 -> inception_5a/5x5 (in-place)
I0902 16:07:53.221082 53383 net.cpp:155] Setting up inception_5a/relu_5x5
I0902 16:07:53.221122 53383 net.cpp:163] Top shape: 32 128 7 7 (200704)
I0902 16:07:53.221137 53383 layer_factory.hpp:76] Creating layer inception_5a/pool
I0902 16:07:53.221148 53383 layer_factory.cpp:60] CUDNN does not support padding or multiple tops. Using Caffe's own pooling layer.
I0902 16:07:53.221161 53383 net.cpp:110] Creating Layer inception_5a/pool
I0902 16:07:53.221174 53383 net.cpp:477] inception_5a/pool <- pool4/3x3_s2_pool4/3x3_s2_0_split_3
I0902 16:07:53.221192 53383 net.cpp:433] inception_5a/pool -> inception_5a/pool
I0902 16:07:53.221215 53383 net.cpp:155] Setting up inception_5a/pool
I0902 16:07:53.221230 53383 net.cpp:163] Top shape: 32 832 7 7 (1304576)
I0902 16:07:53.221240 53383 layer_factory.hpp:76] Creating layer inception_5a/pool_proj
I0902 16:07:53.221258 53383 net.cpp:110] Creating Layer inception_5a/pool_proj
I0902 16:07:53.221269 53383 net.cpp:477] inception_5a/pool_proj <- inception_5a/pool
I0902 16:07:53.221283 53383 net.cpp:433] inception_5a/pool_proj -> inception_5a/pool_proj
I0902 16:07:53.229604 53383 net.cpp:155] Setting up inception_5a/pool_proj
I0902 16:07:53.229636 53383 net.cpp:163] Top shape: 32 128 7 7 (200704)
I0902 16:07:53.229657 53383 layer_factory.hpp:76] Creating layer inception_5a/relu_pool_proj
I0902 16:07:53.229676 53383 net.cpp:110] Creating Layer inception_5a/relu_pool_proj
I0902 16:07:53.229689 53383 net.cpp:477] inception_5a/relu_pool_proj <- inception_5a/pool_proj
I0902 16:07:53.229703 53383 net.cpp:419] inception_5a/relu_pool_proj -> inception_5a/pool_proj (in-place)
I0902 16:07:53.231712 53383 net.cpp:155] Setting up inception_5a/relu_pool_proj
I0902 16:07:53.231745 53383 net.cpp:163] Top shape: 32 128 7 7 (200704)
I0902 16:07:53.231760 53383 layer_factory.hpp:76] Creating layer inception_5a/output
I0902 16:07:53.231784 53383 net.cpp:110] Creating Layer inception_5a/output
I0902 16:07:53.231796 53383 net.cpp:477] inception_5a/output <- inception_5a/1x1
I0902 16:07:53.231809 53383 net.cpp:477] inception_5a/output <- inception_5a/3x3
I0902 16:07:53.231822 53383 net.cpp:477] inception_5a/output <- inception_5a/5x5
I0902 16:07:53.231832 53383 net.cpp:477] inception_5a/output <- inception_5a/pool_proj
I0902 16:07:53.231845 53383 net.cpp:433] inception_5a/output -> inception_5a/output
I0902 16:07:53.231865 53383 net.cpp:155] Setting up inception_5a/output
I0902 16:07:53.231900 53383 net.cpp:163] Top shape: 32 832 7 7 (1304576)
I0902 16:07:53.231917 53383 layer_factory.hpp:76] Creating layer inception_5a/output_inception_5a/output_0_split
I0902 16:07:53.231931 53383 net.cpp:110] Creating Layer inception_5a/output_inception_5a/output_0_split
I0902 16:07:53.231942 53383 net.cpp:477] inception_5a/output_inception_5a/output_0_split <- inception_5a/output
I0902 16:07:53.231957 53383 net.cpp:433] inception_5a/output_inception_5a/output_0_split -> inception_5a/output_inception_5a/output_0_split_0
I0902 16:07:53.231974 53383 net.cpp:433] inception_5a/output_inception_5a/output_0_split -> inception_5a/output_inception_5a/output_0_split_1
I0902 16:07:53.231992 53383 net.cpp:433] inception_5a/output_inception_5a/output_0_split -> inception_5a/output_inception_5a/output_0_split_2
I0902 16:07:53.232007 53383 net.cpp:433] inception_5a/output_inception_5a/output_0_split -> inception_5a/output_inception_5a/output_0_split_3
I0902 16:07:53.232028 53383 net.cpp:155] Setting up inception_5a/output_inception_5a/output_0_split
I0902 16:07:53.232041 53383 net.cpp:163] Top shape: 32 832 7 7 (1304576)
I0902 16:07:53.232053 53383 net.cpp:163] Top shape: 32 832 7 7 (1304576)
I0902 16:07:53.232062 53383 net.cpp:163] Top shape: 32 832 7 7 (1304576)
I0902 16:07:53.232074 53383 net.cpp:163] Top shape: 32 832 7 7 (1304576)
I0902 16:07:53.232084 53383 layer_factory.hpp:76] Creating layer inception_5b/1x1
I0902 16:07:53.232102 53383 net.cpp:110] Creating Layer inception_5b/1x1
I0902 16:07:53.232112 53383 net.cpp:477] inception_5b/1x1 <- inception_5a/output_inception_5a/output_0_split_0
I0902 16:07:53.232126 53383 net.cpp:433] inception_5b/1x1 -> inception_5b/1x1
I0902 16:07:53.243778 53383 net.cpp:155] Setting up inception_5b/1x1
I0902 16:07:53.243814 53383 net.cpp:163] Top shape: 32 384 7 7 (602112)
I0902 16:07:53.243834 53383 layer_factory.hpp:76] Creating layer inception_5b/relu_1x1
I0902 16:07:53.243854 53383 net.cpp:110] Creating Layer inception_5b/relu_1x1
I0902 16:07:53.243866 53383 net.cpp:477] inception_5b/relu_1x1 <- inception_5b/1x1
I0902 16:07:53.243880 53383 net.cpp:419] inception_5b/relu_1x1 -> inception_5b/1x1 (in-place)
I0902 16:07:53.245888 53383 net.cpp:155] Setting up inception_5b/relu_1x1
I0902 16:07:53.245920 53383 net.cpp:163] Top shape: 32 384 7 7 (602112)
I0902 16:07:53.245939 53383 layer_factory.hpp:76] Creating layer inception_5b/3x3_reduce
I0902 16:07:53.245960 53383 net.cpp:110] Creating Layer inception_5b/3x3_reduce
I0902 16:07:53.245972 53383 net.cpp:477] inception_5b/3x3_reduce <- inception_5a/output_inception_5a/output_0_split_1
I0902 16:07:53.245992 53383 net.cpp:433] inception_5b/3x3_reduce -> inception_5b/3x3_reduce
I0902 16:07:53.254937 53383 net.cpp:155] Setting up inception_5b/3x3_reduce
I0902 16:07:53.254976 53383 net.cpp:163] Top shape: 32 192 7 7 (301056)
I0902 16:07:53.254998 53383 layer_factory.hpp:76] Creating layer inception_5b/relu_3x3_reduce
I0902 16:07:53.255020 53383 net.cpp:110] Creating Layer inception_5b/relu_3x3_reduce
I0902 16:07:53.255033 53383 net.cpp:477] inception_5b/relu_3x3_reduce <- inception_5b/3x3_reduce
I0902 16:07:53.255048 53383 net.cpp:419] inception_5b/relu_3x3_reduce -> inception_5b/3x3_reduce (in-place)
I0902 16:07:53.256815 53383 net.cpp:155] Setting up inception_5b/relu_3x3_reduce
I0902 16:07:53.256846 53383 net.cpp:163] Top shape: 32 192 7 7 (301056)
I0902 16:07:53.256860 53383 layer_factory.hpp:76] Creating layer inception_5b/3x3
I0902 16:07:53.256882 53383 net.cpp:110] Creating Layer inception_5b/3x3
I0902 16:07:53.256894 53383 net.cpp:477] inception_5b/3x3 <- inception_5b/3x3_reduce
I0902 16:07:53.256911 53383 net.cpp:433] inception_5b/3x3 -> inception_5b/3x3
I0902 16:07:53.275035 53383 net.cpp:155] Setting up inception_5b/3x3
I0902 16:07:53.275074 53383 net.cpp:163] Top shape: 32 384 7 7 (602112)
I0902 16:07:53.275095 53383 layer_factory.hpp:76] Creating layer inception_5b/relu_3x3
I0902 16:07:53.275111 53383 net.cpp:110] Creating Layer inception_5b/relu_3x3
I0902 16:07:53.275126 53383 net.cpp:477] inception_5b/relu_3x3 <- inception_5b/3x3
I0902 16:07:53.275163 53383 net.cpp:419] inception_5b/relu_3x3 -> inception_5b/3x3 (in-place)
I0902 16:07:53.276955 53383 net.cpp:155] Setting up inception_5b/relu_3x3
I0902 16:07:53.276986 53383 net.cpp:163] Top shape: 32 384 7 7 (602112)
I0902 16:07:53.276999 53383 layer_factory.hpp:76] Creating layer inception_5b/5x5_reduce
I0902 16:07:53.277025 53383 net.cpp:110] Creating Layer inception_5b/5x5_reduce
I0902 16:07:53.277037 53383 net.cpp:477] inception_5b/5x5_reduce <- inception_5a/output_inception_5a/output_0_split_2
I0902 16:07:53.277057 53383 net.cpp:433] inception_5b/5x5_reduce -> inception_5b/5x5_reduce
I0902 16:07:53.284401 53383 net.cpp:155] Setting up inception_5b/5x5_reduce
I0902 16:07:53.284435 53383 net.cpp:163] Top shape: 32 48 7 7 (75264)
I0902 16:07:53.284456 53383 layer_factory.hpp:76] Creating layer inception_5b/relu_5x5_reduce
I0902 16:07:53.284476 53383 net.cpp:110] Creating Layer inception_5b/relu_5x5_reduce
I0902 16:07:53.284488 53383 net.cpp:477] inception_5b/relu_5x5_reduce <- inception_5b/5x5_reduce
I0902 16:07:53.284502 53383 net.cpp:419] inception_5b/relu_5x5_reduce -> inception_5b/5x5_reduce (in-place)
I0902 16:07:53.286406 53383 net.cpp:155] Setting up inception_5b/relu_5x5_reduce
I0902 16:07:53.286447 53383 net.cpp:163] Top shape: 32 48 7 7 (75264)
I0902 16:07:53.286459 53383 layer_factory.hpp:76] Creating layer inception_5b/5x5
I0902 16:07:53.286481 53383 net.cpp:110] Creating Layer inception_5b/5x5
I0902 16:07:53.286494 53383 net.cpp:477] inception_5b/5x5 <- inception_5b/5x5_reduce
I0902 16:07:53.286510 53383 net.cpp:433] inception_5b/5x5 -> inception_5b/5x5
I0902 16:07:53.294519 53383 net.cpp:155] Setting up inception_5b/5x5
I0902 16:07:53.294553 53383 net.cpp:163] Top shape: 32 128 7 7 (200704)
I0902 16:07:53.294572 53383 layer_factory.hpp:76] Creating layer inception_5b/relu_5x5
I0902 16:07:53.294591 53383 net.cpp:110] Creating Layer inception_5b/relu_5x5
I0902 16:07:53.294603 53383 net.cpp:477] inception_5b/relu_5x5 <- inception_5b/5x5
I0902 16:07:53.294621 53383 net.cpp:419] inception_5b/relu_5x5 -> inception_5b/5x5 (in-place)
I0902 16:07:53.296640 53383 net.cpp:155] Setting up inception_5b/relu_5x5
I0902 16:07:53.296676 53383 net.cpp:163] Top shape: 32 128 7 7 (200704)
I0902 16:07:53.296689 53383 layer_factory.hpp:76] Creating layer inception_5b/pool
I0902 16:07:53.296702 53383 layer_factory.cpp:60] CUDNN does not support padding or multiple tops. Using Caffe's own pooling layer.
I0902 16:07:53.296720 53383 net.cpp:110] Creating Layer inception_5b/pool
I0902 16:07:53.296730 53383 net.cpp:477] inception_5b/pool <- inception_5a/output_inception_5a/output_0_split_3
I0902 16:07:53.296746 53383 net.cpp:433] inception_5b/pool -> inception_5b/pool
I0902 16:07:53.296768 53383 net.cpp:155] Setting up inception_5b/pool
I0902 16:07:53.296782 53383 net.cpp:163] Top shape: 32 832 7 7 (1304576)
I0902 16:07:53.296792 53383 layer_factory.hpp:76] Creating layer inception_5b/pool_proj
I0902 16:07:53.296814 53383 net.cpp:110] Creating Layer inception_5b/pool_proj
I0902 16:07:53.296824 53383 net.cpp:477] inception_5b/pool_proj <- inception_5b/pool
I0902 16:07:53.296843 53383 net.cpp:433] inception_5b/pool_proj -> inception_5b/pool_proj
I0902 16:07:53.305063 53383 net.cpp:155] Setting up inception_5b/pool_proj
I0902 16:07:53.305095 53383 net.cpp:163] Top shape: 32 128 7 7 (200704)
I0902 16:07:53.305116 53383 layer_factory.hpp:76] Creating layer inception_5b/relu_pool_proj
I0902 16:07:53.305132 53383 net.cpp:110] Creating Layer inception_5b/relu_pool_proj
I0902 16:07:53.305145 53383 net.cpp:477] inception_5b/relu_pool_proj <- inception_5b/pool_proj
I0902 16:07:53.305162 53383 net.cpp:419] inception_5b/relu_pool_proj -> inception_5b/pool_proj (in-place)
I0902 16:07:53.306984 53383 net.cpp:155] Setting up inception_5b/relu_pool_proj
I0902 16:07:53.307016 53383 net.cpp:163] Top shape: 32 128 7 7 (200704)
I0902 16:07:53.307029 53383 layer_factory.hpp:76] Creating layer inception_5b/output
I0902 16:07:53.307052 53383 net.cpp:110] Creating Layer inception_5b/output
I0902 16:07:53.307087 53383 net.cpp:477] inception_5b/output <- inception_5b/1x1
I0902 16:07:53.307101 53383 net.cpp:477] inception_5b/output <- inception_5b/3x3
I0902 16:07:53.307113 53383 net.cpp:477] inception_5b/output <- inception_5b/5x5
I0902 16:07:53.307124 53383 net.cpp:477] inception_5b/output <- inception_5b/pool_proj
I0902 16:07:53.307137 53383 net.cpp:433] inception_5b/output -> inception_5b/output
I0902 16:07:53.307158 53383 net.cpp:155] Setting up inception_5b/output
I0902 16:07:53.307173 53383 net.cpp:163] Top shape: 32 1024 7 7 (1605632)
I0902 16:07:53.307183 53383 layer_factory.hpp:76] Creating layer pool5/7x7_s1
I0902 16:07:53.307201 53383 net.cpp:110] Creating Layer pool5/7x7_s1
I0902 16:07:53.307212 53383 net.cpp:477] pool5/7x7_s1 <- inception_5b/output
I0902 16:07:53.307226 53383 net.cpp:433] pool5/7x7_s1 -> pool5/7x7_s1
I0902 16:07:53.309033 53383 net.cpp:155] Setting up pool5/7x7_s1
I0902 16:07:53.309072 53383 net.cpp:163] Top shape: 32 1024 1 1 (32768)
I0902 16:07:53.309084 53383 layer_factory.hpp:76] Creating layer pool5/drop_7x7_s1
I0902 16:07:53.309103 53383 net.cpp:110] Creating Layer pool5/drop_7x7_s1
I0902 16:07:53.309114 53383 net.cpp:477] pool5/drop_7x7_s1 <- pool5/7x7_s1
I0902 16:07:53.309131 53383 net.cpp:419] pool5/drop_7x7_s1 -> pool5/7x7_s1 (in-place)
I0902 16:07:53.309152 53383 net.cpp:155] Setting up pool5/drop_7x7_s1
I0902 16:07:53.309166 53383 net.cpp:163] Top shape: 32 1024 1 1 (32768)
I0902 16:07:53.309175 53383 layer_factory.hpp:76] Creating layer loss3/classifier_cub
I0902 16:07:53.309193 53383 net.cpp:110] Creating Layer loss3/classifier_cub
I0902 16:07:53.309203 53383 net.cpp:477] loss3/classifier_cub <- pool5/7x7_s1
I0902 16:07:53.309221 53383 net.cpp:433] loss3/classifier_cub -> loss3/classifier
I0902 16:07:53.324779 53383 net.cpp:155] Setting up loss3/classifier_cub
I0902 16:07:53.324816 53383 net.cpp:163] Top shape: 32 200 (6400)
I0902 16:07:53.324836 53383 layer_factory.hpp:76] Creating layer loss3/loss3
I0902 16:07:53.324856 53383 net.cpp:110] Creating Layer loss3/loss3
I0902 16:07:53.324867 53383 net.cpp:477] loss3/loss3 <- loss3/classifier
I0902 16:07:53.324879 53383 net.cpp:477] loss3/loss3 <- label_data_1_split_2
I0902 16:07:53.324898 53383 net.cpp:433] loss3/loss3 -> loss3/loss3
I0902 16:07:53.324920 53383 layer_factory.hpp:76] Creating layer loss3/loss3
…
I0902 16:07:53.339933 53383 solver.cpp:186] Creating test net (#0) specified by net file: models/CUB_googLeNet_kevin/train_val.prototxt
I0902 16:07:53.340384 53383 net.cpp:339] The NetState phase (1) differed from the phase (0) specified by a rule in layer data
I0902 16:07:53.342810 53383 net.cpp:50] Initializing net from parameters: 
name: "CUBNet"
state {
  phase: TEST
}
layer {
  name: "data"
  type: "Data"
  top: "data"
  top: "label"
  include {
    phase: TEST
  }
  transform_param {
    mirror: false
    crop_size: 224
    mean_value: 104
    mean_value: 117
    mean_value: 123
  }
  data_param {
    source: "data/cub_test"
    batch_size: 64
    backend: LMDB
  }
}
layer {
  name: "conv1/7x7_s2"
  type: "Convolution"
  bottom: "data"
  top: "conv1/7x7_s2"
  param {
    lr_mult: 1
    decay_mult: 1
  }
  param {
    lr_mult: 2
    decay_mult: 0
  }
  convolution_param {
    num_output: 64
    pad: 3
    kernel_size: 7
    stride: 2
    weight_filler {
      type: "xavier"
      std: 0.1
    }
    bias_filler {
      type: "constant"
      value: 0.2
    }
  }
}
layer {
  name: "conv1/relu_7x7"
  type: "ReLU"
  bottom: "conv1/7x7_s2"
  top: "conv1/7x7_s2"
}
layer {
  name: "pool1/3x3_s2"
  type: "Pooling"
  bottom: "conv1/7x7_s2"
  top: "pool1/3x3_s2"
  pooling_param {
    pool: MAX
    kernel_size: 3
    stride: 2
  }
}
layer {
  name: "pool1/norm1"
  type: "LRN"
  bottom: "pool1/3x3_s2"
  top: "pool1/norm1"
  lrn_param {
    local_size: 5
    alpha: 0.0001
    beta: 0.75
  }
}
layer {
  name: "conv2/3x3_reduce"
  type: "Convolution"
  bottom: "pool1/norm1"
  top: "conv2/3x3_reduce"
  param {
    lr_mult: 1
    decay_mult: 1
  }
  param {
    lr_mult: 2
    decay_mult: 0
  }
  convolution_param {
    num_output: 64
    kernel_size: 1
    weight_filler {
      type: "xavier"
      std: 0.1
    }
    bias_filler {
      type: "constant"
      value: 0.2
    }
  }
}
layer {
  name: "conv2/relu_3x3_reduce"
  type: "ReLU"
  bottom: "conv2/3x3_reduce"
  top: "conv2/3x3_reduce"
}
layer {
  name: "conv2/3x3"
  type: "Convolution"
  bottom: "conv2/3x3_reduce"
  top: "conv2/3x3"
  param {
    lr_mult: 1
    decay_mult: 1
  }
  param {
    lr_mult: 2
    decay_mult: 0
  }
  convolution_param {
    num_output: 192
    pad: 1
    kernel_size: 3
    weight_filler {
      type: "xavier"
      std: 0.03
    }
    bias_filler {
      type: "constant"
      value: 0.2
    }
  }
}
layer {
  name: "conv2/relu_3x3"
  type: "ReLU"
  bottom: "conv2/3x3"
  top: "conv2/3x3"
}
layer {
  name: "conv2/norm2"
  type: "LRN"
  bottom: "conv2/3x3"
  top: "conv2/norm2"
  lrn_param {
    local_size: 5
    alpha: 0.0001
    beta: 0.75
  }
}
layer {
  name: "pool2/3x3_s2"
  type: "Pooling"
  bottom: "conv2/norm2"
  top: "pool2/3x3_s2"
  pooling_param {
    pool: MAX
    kernel_size: 3
    stride: 2
  }
}
layer {
  name: "inception_3a/1x1"
  type: "Convolution"
  bottom: "pool2/3x3_s2"
  top: "inception_3a/1x1"
  param {
    lr_mult: 1
    decay_mult: 1
  }
  param {
    lr_mult: 2
    decay_mult: 0
  }
  convolution_param {
    num_output: 64
    kernel_size: 1
    weight_filler {
      type: "xavier"
      std: 0.03
    }
    bias_filler {
      type: "constant"
      value: 0.2
    }
  }
}
layer {
  name: "inception_3a/relu_1x1"
  type: "ReLU"
  bottom: "inception_3a/1x1"
  top: "inception_3a/1x1"
}
layer {
  name: "inception_3a/3x3_reduce"
  type: "Convolution"
  bottom: "pool2/3x3_s2"
  top: "inception_3a/3x3_reduce"
  param {
    lr_mult: 1
    decay_mult: 1
  }
  param {
    lr_mult: 2
    decay_mult: 0
  }
  convolution_param {
    num_output: 96
    kernel_size: 1
    weight_filler {
      type: "xavier"
      std: 0.09
    }
    bias_filler {
      type: "constant"
      value: 0.2
    }
  }
}
layer {
  name: "inception_3a/relu_3x3_reduce"
  type: "ReLU"
  bottom: "inception_3a/3x3_reduce"
  top: "inception_3a/3x3_reduce"
}
layer {
  name: "inception_3a/3x3"
  type: "Convolution"
  bottom: "inception_3a/3x3_reduce"
  top: "inception_3a/3x3"
  param {
    lr_mult: 1
    decay_mult: 1
  }
  param {
    lr_mult: 2
    decay_mult: 0
  }
  convolution_param {
    num_output: 128
    pad: 1
    kernel_size: 3
    weight_filler {
      type: "xavier"
      std: 0.03
    }
    bias_filler {
      type: "constant"
      value: 0.2
    }
  }
}
layer {
  name: "inception_3a/relu_3x3"
  type: "ReLU"
  bottom: "inception_3a/3x3"
  top: "inception_3a/3x3"
}
layer {
  name: "inception_3a/5x5_reduce"
  type: "Convolution"
  bottom: "pool2/3x3_s2"
  top: "inception_3a/5x5_reduce"
  param {
    lr_mult: 1
    decay_mult: 1
  }
  param {
    lr_mult: 2
    decay_mult: 0
  }
  convolution_param {
    num_output: 16
    kernel_size: 1
    weight_filler {
      type: "xavier"
      std: 0.2
    }
    bias_filler {
      type: "constant"
      value: 0.2
    }
  }
}
layer {
  name: "inception_3a/relu_5x5_reduce"
  type: "ReLU"
  bottom: "inception_3a/5x5_reduce"
  top: "inception_3a/5x5_reduce"
}
layer {
  name: "inception_3a/5x5"
  type: "Convolution"
  bottom: "inception_3a/5x5_reduce"
  top: "inception_3a/5x5"
  param {
    lr_mult: 1
    decay_mult: 1
  }
  param {
    lr_mult: 2
    decay_mult: 0
  }
  convolution_param {
    num_output: 32
    pad: 2
    kernel_size: 5
    weight_filler {
      type: "xavier"
      std: 0.03
    }
    bias_filler {
      type: "constant"
      value: 0.2
    }
  }
}
layer {
  name: "inception_3a/relu_5x5"
  type: "ReLU"
  bottom: "inception_3a/5x5"
  top: "inception_3a/5x5"
}
layer {
  name: "inception_3a/pool"
  type: "Pooling"
  bottom: "pool2/3x3_s2"
  top: "inception_3a/pool"
  pooling_param {
    pool: MAX
    kernel_size: 3
    stride: 1
    pad: 1
  }
}
layer {
  name: "inception_3a/pool_proj"
  type: "Convolution"
  bottom: "inception_3a/pool"
  top: "inception_3a/pool_proj"
  param {
    lr_mult: 1
    decay_mult: 1
  }
  param {
    lr_mult: 2
    decay_mult: 0
  }
  convolution_param {
    num_output: 32
    kernel_size: 1
    weight_filler {
      type: "xavier"
      std: 0.1
    }
    bias_filler {
      type: "constant"
      value: 0.2
    }
  }
}
layer {
  name: "inception_3a/relu_pool_proj"
  type: "ReLU"
  bottom: "inception_3a/pool_proj"
  top: "inception_3a/pool_proj"
}
layer {
  name: "inception_3a/output"
  type: "Concat"
  bottom: "inception_3a/1x1"
  bottom: "inception_3a/3x3"
  bottom: "inception_3a/5x5"
  bottom: "inception_3a/pool_proj"
  top: "inception_3a/output"
}
layer {
  name: "inception_3b/1x1"
  type: "Convolution"
  bottom: "inception_3a/output"
  top: "inception_3b/1x1"
  param {
    lr_mult: 1
    decay_mult: 1
  }
  param {
    lr_mult: 2
    decay_mult: 0
  }
  convolution_param {
    num_output: 128
    kernel_size: 1
    weight_filler {
      type: "xavier"
      std: 0.03
    }
    bias_filler {
      type: "constant"
      value: 0.2
    }
  }
}
layer {
  name: "inception_3b/relu_1x1"
  type: "ReLU"
  bottom: "inception_3b/1x1"
  top: "inception_3b/1x1"
}
layer {
  name: "inception_3b/3x3_reduce"
  type: "Convolution"
  bottom: "inception_3a/output"
  top: "inception_3b/3x3_reduce"
  param {
    lr_mult: 1
    decay_mult: 1
  }
  param {
    lr_mult: 2
    decay_mult: 0
  }
  convolution_param {
    num_output: 128
    kernel_size: 1
    weight_filler {
      type: "xavier"
      std: 0.09
    }
    bias_filler {
      type: "constant"
      value: 0.2
    }
  }
}
layer {
  name: "inception_3b/relu_3x3_reduce"
  type: "ReLU"
  bottom: "inception_3b/3x3_reduce"
  top: "inception_3b/3x3_reduce"
}
layer {
  name: "inception_3b/3x3"
  type: "Convolution"
  bottom: "inception_3b/3x3_reduce"
  top: "inception_3b/3x3"
  param {
    lr_mult: 1
    decay_mult: 1
  }
  param {
    lr_mult: 2
    decay_mult: 0
  }
  convolution_param {
    num_output: 192
    pad: 1
    kernel_size: 3
    weight_filler {
      type: "xavier"
      std: 0.03
    }
    bias_filler {
      type: "constant"
      value: 0.2
    }
  }
}
layer {
  name: "inception_3b/relu_3x3"
  type: "ReLU"
  bottom: "inception_3b/3x3"
  top: "inception_3b/3x3"
}
layer {
  name: "inception_3b/5x5_reduce"
  type: "Convolution"
  bottom: "inception_3a/output"
  top: "inception_3b/5x5_reduce"
  param {
    lr_mult: 1
    decay_mult: 1
  }
  param {
    lr_mult: 2
    decay_mult: 0
  }
  convolution_param {
    num_output: 32
    kernel_size: 1
    weight_filler {
      type: "xavier"
      std: 0.2
    }
    bias_filler {
      type: "constant"
      value: 0.2
    }
  }
}
layer {
  name: "inception_3b/relu_5x5_reduce"
  type: "ReLU"
  bottom: "inception_3b/5x5_reduce"
  top: "inception_3b/5x5_reduce"
}
layer {
  name: "inception_3b/5x5"
  type: "Convolution"
  bottom: "inception_3b/5x5_reduce"
  top: "inception_3b/5x5"
  param {
    lr_mult: 1
    decay_mult: 1
  }
  param {
    lr_mult: 2
    decay_mult: 0
  }
  convolution_param {
    num_output: 96
    pad: 2
    kernel_size: 5
    weight_filler {
      type: "xavier"
      std: 0.03
    }
    bias_filler {
      type: "constant"
      value: 0.2
    }
  }
}
layer {
  name: "inception_3b/relu_5x5"
  type: "ReLU"
  bottom: "inception_3b/5x5"
  top: "inception_3b/5x5"
}
layer {
  name: "inception_3b/pool"
  type: "Pooling"
  bottom: "inception_3a/output"
  top: "inception_3b/pool"
  pooling_param {
    pool: MAX
    kernel_size: 3
    stride: 1
    pad: 1
  }
}
layer {
  name: "inception_3b/pool_proj"
  type: "Convolution"
  bottom: "inception_3b/pool"
  top: "inception_3b/pool_proj"
  param {
    lr_mult: 1
    decay_mult: 1
  }
  param {
    lr_mult: 2
    decay_mult: 0
  }
  convolution_param {
    num_output: 64
    kernel_size: 1
    weight_filler {
      type: "xavier"
      std: 0.1
    }
    bias_filler {
      type: "constant"
      value: 0.2
    }
  }
}
layer {
  name: "inception_3b/relu_pool_proj"
  type: "ReLU"
  bottom: "inception_3b/pool_proj"
  top: "inception_3b/pool_proj"
}
layer {
  name: "inception_3b/output"
  type: "Concat"
  bottom: "inception_3b/1x1"
  bottom: "inception_3b/3x3"
  bottom: "inception_3b/5x5"
  bottom: "inception_3b/pool_proj"
  top: "inception_3b/output"
}
layer {
  name: "pool3/3x3_s2"
  type: "Pooling"
  bottom: "inception_3b/output"
  top: "pool3/3x3_s2"
  pooling_param {
    pool: MAX
    kernel_size: 3
    stride: 2
  }
}
layer {
  name: "inception_4a/1x1"
  type: "Convolution"
  bottom: "pool3/3x3_s2"
  top: "inception_4a/1x1"
  param {
    lr_mult: 1
    decay_mult: 1
  }
  param {
    lr_mult: 2
    decay_mult: 0
  }
  convolution_param {
    num_output: 192
    kernel_size: 1
    weight_filler {
      type: "xavier"
      std: 0.03
    }
    bias_filler {
      type: "constant"
      value: 0.2
    }
  }
}
layer {
  name: "inception_4a/relu_1x1"
  type: "ReLU"
  bottom: "inception_4a/1x1"
  top: "inception_4a/1x1"
}
layer {
  name: "inception_4a/3x3_reduce"
  type: "Convolution"
  bottom: "pool3/3x3_s2"
  top: "inception_4a/3x3_reduce"
  param {
    lr_mult: 1
    decay_mult: 1
  }
  param {
    lr_mult: 2
    decay_mult: 0
  }
  convolution_param {
    num_output: 96
    kernel_size: 1
    weight_filler {
      type: "xavier"
      std: 0.09
    }
    bias_filler {
      type: "constant"
      value: 0.2
    }
  }
}
layer {
  name: "inception_4a/relu_3x3_reduce"
  type: "ReLU"
  bottom: "inception_4a/3x3_reduce"
  top: "inception_4a/3x3_reduce"
}
layer {
  name: "inception_4a/3x3"
  type: "Convolution"
  bottom: "inception_4a/3x3_reduce"
  top: "inception_4a/3x3"
  param {
    lr_mult: 1
    decay_mult: 1
  }
  param {
    lr_mult: 2
    decay_mult: 0
  }
  convolution_param {
    num_output: 208
    pad: 1
    kernel_size: 3
    weight_filler {
      type: "xavier"
      std: 0.03
    }
    bias_filler {
      type: "constant"
      value: 0.2
    }
  }
}
layer {
  name: "inception_4a/relu_3x3"
  type: "ReLU"
  bottom: "inception_4a/3x3"
  top: "inception_4a/3x3"
}
layer {
  name: "inception_4a/5x5_reduce"
  type: "Convolution"
  bottom: "pool3/3x3_s2"
  top: "inception_4a/5x5_reduce"
  param {
    lr_mult: 1
    decay_mult: 1
  }
  param {
    lr_mult: 2
    decay_mult: 0
  }
  convolution_param {
    num_output: 16
    kernel_size: 1
    weight_filler {
      type: "xavier"
      std: 0.2
    }
    bias_filler {
      type: "constant"
      value: 0.2
    }
  }
}
layer {
  name: "inception_4a/relu_5x5_reduce"
  type: "ReLU"
  bottom: "inception_4a/5x5_reduce"
  top: "inception_4a/5x5_reduce"
}
layer {
  name: "inception_4a/5x5"
  type: "Convolution"
  bottom: "inception_4a/5x5_reduce"
  top: "inception_4a/5x5"
  param {
    lr_mult: 1
    decay_mult: 1
  }
  param {
    lr_mult: 2
    decay_mult: 0
  }
  convolution_param {
    num_output: 48
    pad: 2
    kernel_size: 5
    weight_filler {
      type: "xavier"
      std: 0.03
    }
    bias_filler {
      type: "constant"
      value: 0.2
    }
  }
}
layer {
  name: "inception_4a/relu_5x5"
  type: "ReLU"
  bottom: "inception_4a/5x5"
  top: "inception_4a/5x5"
}
layer {
  name: "inception_4a/pool"
  type: "Pooling"
  bottom: "pool3/3x3_s2"
  top: "inception_4a/pool"
  pooling_param {
    pool: MAX
    kernel_size: 3
    stride: 1
    pad: 1
  }
}
layer {
  name: "inception_4a/pool_proj"
  type: "Convolution"
  bottom: "inception_4a/pool"
  top: "inception_4a/pool_proj"
  param {
    lr_mult: 1
    decay_mult: 1
  }
  param {
    lr_mult: 2
    decay_mult: 0
  }
  convolution_param {
    num_output: 64
    kernel_size: 1
    weight_filler {
      type: "xavier"
      std: 0.1
    }
    bias_filler {
      type: "constant"
      value: 0.2
    }
  }
}
layer {
  name: "inception_4a/relu_pool_proj"
  type: "ReLU"
  bottom: "inception_4a/pool_proj"
  top: "inception_4a/pool_proj"
}
layer {
  name: "inception_4a/output"
  type: "Concat"
  bottom: "inception_4a/1x1"
  bottom: "inception_4a/3x3"
  bottom: "inception_4a/5x5"
  bottom: "inception_4a/pool_proj"
  top: "inception_4a/output"
}
layer {
  name: "loss1/ave_pool"
  type: "Pooling"
  bottom: "inception_4a/output"
  top: "loss1/ave_pool"
  pooling_param {
    pool: AVE
    kernel_size: 5
    stride: 3
  }
}
layer {
  name: "loss1/conv"
  type: "Convolution"
  bottom: "loss1/ave_pool"
  top: "loss1/conv"
  param {
    lr_mult: 1
    decay_mult: 1
  }
  param {
    lr_mult: 2
    decay_mult: 0
  }
  convolution_param {
    num_output: 128
    kernel_size: 1
    weight_filler {
      type: "xavier"
      std: 0.08
    }
    bias_filler {
      type: "constant"
      value: 0.2
    }
  }
}
layer {
  name: "loss1/relu_conv"
  type: "ReLU"
  bottom: "loss1/conv"
  top: "loss1/conv"
}
layer {
  name: "loss1/fc"
  type: "InnerProduct"
  bottom: "loss1/conv"
  top: "loss1/fc"
  param {
    lr_mult: 1
    decay_mult: 1
  }
  param {
    lr_mult: 2
    decay_mult: 0
  }
  inner_product_param {
    num_output: 1024
    weight_filler {
      type: "xavier"
      std: 0.02
    }
    bias_filler {
      type: "constant"
      value: 0.2
    }
  }
}
layer {
  name: "loss1/relu_fc"
  type: "ReLU"
  bottom: "loss1/fc"
  top: "loss1/fc"
}
layer {
  name: "loss1/drop_fc"
  type: "Dropout"
  bottom: "loss1/fc"
  top: "loss1/fc"
  dropout_param {
    dropout_ratio: 0.7
  }
}
layer {
  name: "loss1/classifier_cub"
  type: "InnerProduct"
  bottom: "loss1/fc"
  top: "loss1/classifier"
  param {
    lr_mult: 1
    decay_mult: 1
  }
  param {
    lr_mult: 2
    decay_mult: 0
  }
  inner_product_param {
    num_output: 200
    weight_filler {
      type: "gaussian"
      std: 1e-05
    }
    bias_filler {
      type: "constant"
      value: 0
    }
  }
}
layer {
  name: "loss1/loss"
  type: "SoftmaxWithLoss"
  bottom: "loss1/classifier"
  bottom: "label"
  top: "loss1/loss1"
  loss_weight: 0.3
}
layer {
  name: "loss1/top-1"
  type: "Accuracy"
  bottom: "loss1/classifier"
  bottom: "label"
  top: "loss1/top-1"
  include {
    phase: TEST
  }
}
layer {
  name: "loss1/top-5"
  type: "Accuracy"
  bottom: "loss1/classifier"
  bottom: "label"
  top: "loss1/top-5"
  include {
    phase: TEST
  }
  accuracy_param {
    top_k: 5
  }
}
layer {
  name: "inception_4b/1x1"
  type: "Convolution"
  bottom: "inception_4a/output"
  top: "inception_4b/1x1"
  param {
    lr_mult: 1
    decay_mult: 1
  }
  param {
    lr_mult: 2
    decay_mult: 0
  }
  convolution_param {
    num_output: 160
    kernel_size: 1
    weight_filler {
      type: "xavier"
      std: 0.03
    }
    bias_filler {
      type: "constant"
      value: 0.2
    }
  }
}
layer {
  name: "inception_4b/relu_1x1"
  type: "ReLU"
  bottom: "inception_4b/1x1"
  top: "inception_4b/1x1"
}
layer {
  name: "inception_4b/3x3_reduce"
  type: "Convolution"
  bottom: "inception_4a/output"
  top: "inception_4b/3x3_reduce"
  param {
    lr_mult: 1
    decay_mult: 1
  }
  param {
    lr_mult: 2
    decay_mult: 0
  }
  convolution_param {
    num_output: 112
    kernel_size: 1
    weight_filler {
      type: "xavier"
      std: 0.09
    }
    bias_filler {
      type: "constant"
      value: 0.2
    }
  }
}
layer {
  name: "inception_4b/relu_3x3_reduce"
  type: "ReLU"
  bottom: "inception_4b/3x3_reduce"
  top: "inception_4b/3x3_reduce"
}
layer {
  name: "inception_4b/3x3"
  type: "Convolution"
  bottom: "inception_4b/3x3_reduce"
  top: "inception_4b/3x3"
  param {
    lr_mult: 1
    decay_mult: 1
  }
  param {
    lr_mult: 2
    decay_mult: 0
  }
  convolution_param {
    num_output: 224
    pad: 1
    kernel_size: 3
    weight_filler {
      type: "xavier"
      std: 0.03
    }
    bias_filler {
      type: "constant"
      value: 0.2
    }
  }
}
layer {
  name: "inception_4b/relu_3x3"
  type: "ReLU"
  bottom: "inception_4b/3x3"
  top: "inception_4b/3x3"
}
layer {
  name: "inception_4b/5x5_reduce"
  type: "Convolution"
  bottom: "inception_4a/output"
  top: "inception_4b/5x5_reduce"
  param {
    lr_mult: 1
    decay_mult: 1
  }
  param {
    lr_mult: 2
    decay_mult: 0
  }
  convolution_param {
    num_output: 24
    kernel_size: 1
    weight_filler {
      type: "xavier"
      std: 0.2
    }
    bias_filler {
      type: "constant"
      value: 0.2
    }
  }
}
layer {
  name: "inception_4b/relu_5x5_reduce"
  type: "ReLU"
  bottom: "inception_4b/5x5_reduce"
  top: "inception_4b/5x5_reduce"
}
layer {
  name: "inception_4b/5x5"
  type: "Convolution"
  bottom: "inception_4b/5x5_reduce"
  top: "inception_4b/5x5"
  param {
    lr_mult: 1
    decay_mult: 1
  }
  param {
    lr_mult: 2
    decay_mult: 0
  }
  convolution_param {
    num_output: 64
    pad: 2
    kernel_size: 5
    weight_filler {
      type: "xavier"
      std: 0.03
    }
    bias_filler {
      type: "constant"
      value: 0.2
    }
  }
}
layer {
  name: "inception_4b/relu_5x5"
  type: "ReLU"
  bottom: "inception_4b/5x5"
  top: "inception_4b/5x5"
}
layer {
  name: "inception_4b/pool"
  type: "Pooling"
  bottom: "inception_4a/output"
  top: "inception_4b/pool"
  pooling_param {
    pool: MAX
    kernel_size: 3
    stride: 1
    pad: 1
  }
}
layer {
  name: "inception_4b/pool_proj"
  type: "Convolution"
  bottom: "inception_4b/pool"
  top: "inception_4b/pool_proj"
  param {
    lr_mult: 1
    decay_mult: 1
  }
  param {
    lr_mult: 2
    decay_mult: 0
  }
  convolution_param {
    num_output: 64
    kernel_size: 1
    weight_filler {
      type: "xavier"
      std: 0.1
    }
    bias_filler {
      type: "constant"
      value: 0.2
    }
  }
}
layer {
  name: "inception_4b/relu_pool_proj"
  type: "ReLU"
  bottom: "inception_4b/pool_proj"
  top: "inception_4b/pool_proj"
}
layer {
  name: "inception_4b/output"
  type: "Concat"
  bottom: "inception_4b/1x1"
  bottom: "inception_4b/3x3"
  bottom: "inception_4b/5x5"
  bottom: "inception_4b/pool_proj"
  top: "inception_4b/output"
}
layer {
  name: "inception_4c/1x1"
  type: "Convolution"
  bottom: "inception_4b/output"
  top: "inception_4c/1x1"
  param {
    lr_mult: 1
    decay_mult: 1
  }
  param {
    lr_mult: 2
    decay_mult: 0
  }
  convolution_param {
    num_output: 128
    kernel_size: 1
    weight_filler {
      type: "xavier"
      std: 0.03
    }
    bias_filler {
      type: "constant"
      value: 0.2
    }
  }
}
layer {
  name: "inception_4c/relu_1x1"
  type: "ReLU"
  bottom: "inception_4c/1x1"
  top: "inception_4c/1x1"
}
layer {
  name: "inception_4c/3x3_reduce"
  type: "Convolution"
  bottom: "inception_4b/output"
  top: "inception_4c/3x3_reduce"
  param {
    lr_mult: 1
    decay_mult: 1
  }
  param {
    lr_mult: 2
    decay_mult: 0
  }
  convolution_param {
    num_output: 128
    kernel_size: 1
    weight_filler {
      type: "xavier"
      std: 0.09
    }
    bias_filler {
      type: "constant"
      value: 0.2
    }
  }
}
layer {
  name: "inception_4c/relu_3x3_reduce"
  type: "ReLU"
  bottom: "inception_4c/3x3_reduce"
  top: "inception_4c/3x3_reduce"
}
layer {
  name: "inception_4c/3x3"
  type: "Convolution"
  bottom: "inception_4c/3x3_reduce"
  top: "inception_4c/3x3"
  param {
    lr_mult: 1
    decay_mult: 1
  }
  param {
    lr_mult: 2
    decay_mult: 0
  }
  convolution_param {
    num_output: 256
    pad: 1
    kernel_size: 3
    weight_filler {
      type: "xavier"
      std: 0.03
    }
    bias_filler {
      type: "constant"
      value: 0.2
    }
  }
}
layer {
  name: "inception_4c/relu_3x3"
  type: "ReLU"
  bottom: "inception_4c/3x3"
  top: "inception_4c/3x3"
}
layer {
  name: "inception_4c/5x5_reduce"
  type: "Convolution"
  bottom: "inception_4b/output"
  top: "inception_4c/5x5_reduce"
  param {
    lr_mult: 1
    decay_mult: 1
  }
  param {
    lr_mult: 2
    decay_mult: 0
  }
  convolution_param {
    num_output: 24
    kernel_size: 1
    weight_filler {
      type: "xavier"
      std: 0.2
    }
    bias_filler {
      type: "constant"
      value: 0.2
    }
  }
}
layer {
  name: "inception_4c/relu_5x5_reduce"
  type: "ReLU"
  bottom: "inception_4c/5x5_reduce"
  top: "inception_4c/5x5_reduce"
}
layer {
  name: "inception_4c/5x5"
  type: "Convolution"
  bottom: "inception_4c/5x5_reduce"
  top: "inception_4c/5x5"
  param {
    lr_mult: 1
    decay_mult: 1
  }
  param {
    lr_mult: 2
    decay_mult: 0
  }
  convolution_param {
    num_output: 64
    pad: 2
    kernel_size: 5
    weight_filler {
      type: "xavier"
      std: 0.03
    }
    bias_filler {
      type: "constant"
      value: 0.2
    }
  }
}
layer {
  name: "inception_4c/relu_5x5"
  type: "ReLU"
  bottom: "inception_4c/5x5"
  top: "inception_4c/5x5"
}
layer {
  name: "inception_4c/pool"
  type: "Pooling"
  bottom: "inception_4b/output"
  top: "inception_4c/pool"
  pooling_param {
    pool: MAX
    kernel_size: 3
    stride: 1
    pad: 1
  }
}
layer {
  name: "inception_4c/pool_proj"
  type: "Convolution"
  bottom: "inception_4c/pool"
  top: "inception_4c/pool_proj"
  param {
    lr_mult: 1
    decay_mult: 1
  }
  param {
    lr_mult: 2
    decay_mult: 0
  }
  convolution_param {
    num_output: 64
    kernel_size: 1
    weight_filler {
      type: "xavier"
      std: 0.1
    }
    bias_filler {
      type: "constant"
      value: 0.2
    }
  }
}
layer {
  name: "inception_4c/relu_pool_proj"
  type: "ReLU"
  bottom: "inception_4c/pool_proj"
  top: "inception_4c/pool_proj"
}
layer {
  name: "inception_4c/output"
  type: "Concat"
  bottom: "inception_4c/1x1"
  bottom: "inception_4c/3x3"
  bottom: "inception_4c/5x5"
  bottom: "inception_4c/pool_proj"
  top: "inception_4c/output"
}
layer {
  name: "inception_4d/1x1"
  type: "Convolution"
  bottom: "inception_4c/output"
  top: "inception_4d/1x1"
  param {
    lr_mult: 1
    decay_mult: 1
  }
  param {
    lr_mult: 2
    decay_mult: 0
  }
  convolution_param {
    num_output: 112
    kernel_size: 1
    weight_filler {
      type: "xavier"
      std: 0.03
    }
    bias_filler {
      type: "constant"
      value: 0.2
    }
  }
}
layer {
  name: "inception_4d/relu_1x1"
  type: "ReLU"
  bottom: "inception_4d/1x1"
  top: "inception_4d/1x1"
}
layer {
  name: "inception_4d/3x3_reduce"
  type: "Convolution"
  bottom: "inception_4c/output"
  top: "inception_4d/3x3_reduce"
  param {
    lr_mult: 1
    decay_mult: 1
  }
  param {
    lr_mult: 2
    decay_mult: 0
  }
  convolution_param {
    num_output: 144
    kernel_size: 1
    weight_filler {
      type: "xavier"
      std: 0.09
    }
    bias_filler {
      type: "constant"
      value: 0.2
    }
  }
}
layer {
  name: "inception_4d/relu_3x3_reduce"
  type: "ReLU"
  bottom: "inception_4d/3x3_reduce"
  top: "inception_4d/3x3_reduce"
}
layer {
  name: "inception_4d/3x3"
  type: "Convolution"
  bottom: "inception_4d/3x3_reduce"
  top: "inception_4d/3x3"
  param {
    lr_mult: 1
    decay_mult: 1
  }
  param {
    lr_mult: 2
    decay_mult: 0
  }
  convolution_param {
    num_output: 288
    pad: 1
    kernel_size: 3
    weight_filler {
      type: "xavier"
      std: 0.03
    }
    bias_filler {
      type: "constant"
      value: 0.2
    }
  }
}
layer {
  name: "inception_4d/relu_3x3"
  type: "ReLU"
  bottom: "inception_4d/3x3"
  top: "inception_4d/3x3"
}
layer {
  name: "inception_4d/5x5_reduce"
  type: "Convolution"
  bottom: "inception_4c/output"
  top: "inception_4d/5x5_reduce"
  param {
    lr_mult: 1
    decay_mult: 1
  }
  param {
    lr_mult: 2
    decay_mult: 0
  }
  convolution_param {
    num_output: 32
    kernel_size: 1
    weight_filler {
      type: "xavier"
      std: 0.2
    }
    bias_filler {
      type: "constant"
      value: 0.2
    }
  }
}
layer {
  name: "inception_4d/relu_5x5_reduce"
  type: "ReLU"
  bottom: "inception_4d/5x5_reduce"
  top: "inception_4d/5x5_reduce"
}
layer {
  name: "inception_4d/5x5"
  type: "Convolution"
  bottom: "inception_4d/5x5_reduce"
  top: "inception_4d/5x5"
  param {
    lr_mult: 1
    decay_mult: 1
  }
  param {
    lr_mult: 2
    decay_mult: 0
  }
  convolution_param {
    num_output: 64
    pad: 2
    kernel_size: 5
    weight_filler {
      type: "xavier"
      std: 0.03
    }
    bias_filler {
      type: "constant"
      value: 0.2
    }
  }
}
layer {
  name: "inception_4d/relu_5x5"
  type: "ReLU"
  bottom: "inception_4d/5x5"
  top: "inception_4d/5x5"
}
layer {
  name: "inception_4d/pool"
  type: "Pooling"
  bottom: "inception_4c/output"
  top: "inception_4d/pool"
  pooling_param {
    pool: MAX
    kernel_size: 3
    stride: 1
    pad: 1
  }
}
layer {
  name: "inception_4d/pool_proj"
  type: "Convolution"
  bottom: "inception_4d/pool"
  top: "inception_4d/pool_proj"
  param {
    lr_mult: 1
    decay_mult: 1
  }
  param {
    lr_mult: 2
    decay_mult: 0
  }
  convolution_param {
    num_output: 64
    kernel_size: 1
    weight_filler {
      type: "xavier"
      std: 0.1
    }
    bias_filler {
      type: "constant"
      value: 0.2
    }
  }
}
layer {
…
I0902 16:07:53.690279 53383 net.cpp:163] Top shape: 64 512 14 14 (6422528)
I0902 16:07:53.690285 53383 net.cpp:163] Top shape: 64 512 14 14 (6422528)
I0902 16:07:53.690290 53383 layer_factory.hpp:76] Creating layer inception_4c/1x1
I0902 16:07:53.690302 53383 net.cpp:110] Creating Layer inception_4c/1x1
I0902 16:07:53.690309 53383 net.cpp:477] inception_4c/1x1 <- inception_4b/output_inception_4b/output_0_split_0
I0902 16:07:53.690320 53383 net.cpp:433] inception_4c/1x1 -> inception_4c/1x1
I0902 16:07:53.696795 53383 net.cpp:155] Setting up inception_4c/1x1
I0902 16:07:53.696816 53383 net.cpp:163] Top shape: 64 128 14 14 (1605632)
I0902 16:07:53.696832 53383 layer_factory.hpp:76] Creating layer inception_4c/relu_1x1
I0902 16:07:53.696843 53383 net.cpp:110] Creating Layer inception_4c/relu_1x1
I0902 16:07:53.696849 53383 net.cpp:477] inception_4c/relu_1x1 <- inception_4c/1x1
I0902 16:07:53.696858 53383 net.cpp:419] inception_4c/relu_1x1 -> inception_4c/1x1 (in-place)
I0902 16:07:53.698915 53383 net.cpp:155] Setting up inception_4c/relu_1x1
I0902 16:07:53.698935 53383 net.cpp:163] Top shape: 64 128 14 14 (1605632)
I0902 16:07:53.698966 53383 layer_factory.hpp:76] Creating layer inception_4c/3x3_reduce
I0902 16:07:53.698983 53383 net.cpp:110] Creating Layer inception_4c/3x3_reduce
I0902 16:07:53.698989 53383 net.cpp:477] inception_4c/3x3_reduce <- inception_4b/output_inception_4b/output_0_split_1
I0902 16:07:53.699005 53383 net.cpp:433] inception_4c/3x3_reduce -> inception_4c/3x3_reduce
I0902 16:07:53.705667 53383 net.cpp:155] Setting up inception_4c/3x3_reduce
I0902 16:07:53.705696 53383 net.cpp:163] Top shape: 64 128 14 14 (1605632)
I0902 16:07:53.705708 53383 layer_factory.hpp:76] Creating layer inception_4c/relu_3x3_reduce
I0902 16:07:53.705719 53383 net.cpp:110] Creating Layer inception_4c/relu_3x3_reduce
I0902 16:07:53.705726 53383 net.cpp:477] inception_4c/relu_3x3_reduce <- inception_4c/3x3_reduce
I0902 16:07:53.705734 53383 net.cpp:419] inception_4c/relu_3x3_reduce -> inception_4c/3x3_reduce (in-place)
I0902 16:07:53.707775 53383 net.cpp:155] Setting up inception_4c/relu_3x3_reduce
I0902 16:07:53.707797 53383 net.cpp:163] Top shape: 64 128 14 14 (1605632)
I0902 16:07:53.707803 53383 layer_factory.hpp:76] Creating layer inception_4c/3x3
I0902 16:07:53.707820 53383 net.cpp:110] Creating Layer inception_4c/3x3
I0902 16:07:53.707828 53383 net.cpp:477] inception_4c/3x3 <- inception_4c/3x3_reduce
I0902 16:07:53.707837 53383 net.cpp:433] inception_4c/3x3 -> inception_4c/3x3
I0902 16:07:53.719794 53383 net.cpp:155] Setting up inception_4c/3x3
I0902 16:07:53.719815 53383 net.cpp:163] Top shape: 64 256 14 14 (3211264)
I0902 16:07:53.719847 53383 layer_factory.hpp:76] Creating layer inception_4c/relu_3x3
I0902 16:07:53.719859 53383 net.cpp:110] Creating Layer inception_4c/relu_3x3
I0902 16:07:53.719866 53383 net.cpp:477] inception_4c/relu_3x3 <- inception_4c/3x3
I0902 16:07:53.719877 53383 net.cpp:419] inception_4c/relu_3x3 -> inception_4c/3x3 (in-place)
I0902 16:07:53.721180 53383 net.cpp:155] Setting up inception_4c/relu_3x3
I0902 16:07:53.721201 53383 net.cpp:163] Top shape: 64 256 14 14 (3211264)
I0902 16:07:53.721215 53383 layer_factory.hpp:76] Creating layer inception_4c/5x5_reduce
I0902 16:07:53.721226 53383 net.cpp:110] Creating Layer inception_4c/5x5_reduce
I0902 16:07:53.721233 53383 net.cpp:477] inception_4c/5x5_reduce <- inception_4b/output_inception_4b/output_0_split_2
I0902 16:07:53.721246 53383 net.cpp:433] inception_4c/5x5_reduce -> inception_4c/5x5_reduce
I0902 16:07:53.781255 53383 net.cpp:155] Setting up inception_4c/5x5_reduce
I0902 16:07:53.781285 53383 net.cpp:163] Top shape: 64 24 14 14 (301056)
I0902 16:07:53.781297 53383 layer_factory.hpp:76] Creating layer inception_4c/relu_5x5_reduce
I0902 16:07:53.781311 53383 net.cpp:110] Creating Layer inception_4c/relu_5x5_reduce
I0902 16:07:53.781318 53383 net.cpp:477] inception_4c/relu_5x5_reduce <- inception_4c/5x5_reduce
I0902 16:07:53.781327 53383 net.cpp:419] inception_4c/relu_5x5_reduce -> inception_4c/5x5_reduce (in-place)
I0902 16:07:53.833490 53383 net.cpp:155] Setting up inception_4c/relu_5x5_reduce
I0902 16:07:53.833510 53383 net.cpp:163] Top shape: 64 24 14 14 (301056)
I0902 16:07:53.833523 53383 layer_factory.hpp:76] Creating layer inception_4c/5x5
I0902 16:07:53.833539 53383 net.cpp:110] Creating Layer inception_4c/5x5
I0902 16:07:53.833545 53383 net.cpp:477] inception_4c/5x5 <- inception_4c/5x5_reduce
I0902 16:07:53.833557 53383 net.cpp:433] inception_4c/5x5 -> inception_4c/5x5
I0902 16:07:53.843104 53383 net.cpp:155] Setting up inception_4c/5x5
I0902 16:07:53.843124 53383 net.cpp:163] Top shape: 64 64 14 14 (802816)
I0902 16:07:53.843139 53383 layer_factory.hpp:76] Creating layer inception_4c/relu_5x5
I0902 16:07:53.843152 53383 net.cpp:110] Creating Layer inception_4c/relu_5x5
I0902 16:07:53.843159 53383 net.cpp:477] inception_4c/relu_5x5 <- inception_4c/5x5
I0902 16:07:53.843168 53383 net.cpp:419] inception_4c/relu_5x5 -> inception_4c/5x5 (in-place)
I0902 16:07:53.897136 53383 net.cpp:155] Setting up inception_4c/relu_5x5
I0902 16:07:53.897156 53383 net.cpp:163] Top shape: 64 64 14 14 (802816)
I0902 16:07:53.897169 53383 layer_factory.hpp:76] Creating layer inception_4c/pool
I0902 16:07:53.897198 53383 layer_factory.cpp:60] CUDNN does not support padding or multiple tops. Using Caffe's own pooling layer.
I0902 16:07:53.897207 53383 net.cpp:110] Creating Layer inception_4c/pool
I0902 16:07:53.897213 53383 net.cpp:477] inception_4c/pool <- inception_4b/output_inception_4b/output_0_split_3
I0902 16:07:53.897227 53383 net.cpp:433] inception_4c/pool -> inception_4c/pool
I0902 16:07:53.897240 53383 net.cpp:155] Setting up inception_4c/pool
I0902 16:07:53.897248 53383 net.cpp:163] Top shape: 64 512 14 14 (6422528)
I0902 16:07:53.897253 53383 layer_factory.hpp:76] Creating layer inception_4c/pool_proj
I0902 16:07:53.897263 53383 net.cpp:110] Creating Layer inception_4c/pool_proj
I0902 16:07:53.897269 53383 net.cpp:477] inception_4c/pool_proj <- inception_4c/pool
I0902 16:07:53.897279 53383 net.cpp:433] inception_4c/pool_proj -> inception_4c/pool_proj
I0902 16:07:53.957590 53383 net.cpp:155] Setting up inception_4c/pool_proj
I0902 16:07:53.957609 53383 net.cpp:163] Top shape: 64 64 14 14 (802816)
I0902 16:07:53.957620 53383 layer_factory.hpp:76] Creating layer inception_4c/relu_pool_proj
I0902 16:07:53.957629 53383 net.cpp:110] Creating Layer inception_4c/relu_pool_proj
I0902 16:07:53.957636 53383 net.cpp:477] inception_4c/relu_pool_proj <- inception_4c/pool_proj
I0902 16:07:53.957646 53383 net.cpp:419] inception_4c/relu_pool_proj -> inception_4c/pool_proj (in-place)
I0902 16:07:53.961513 53383 net.cpp:155] Setting up inception_4c/relu_pool_proj
I0902 16:07:53.961532 53383 net.cpp:163] Top shape: 64 64 14 14 (802816)
I0902 16:07:53.961539 53383 layer_factory.hpp:76] Creating layer inception_4c/output
I0902 16:07:53.961554 53383 net.cpp:110] Creating Layer inception_4c/output
I0902 16:07:53.961560 53383 net.cpp:477] inception_4c/output <- inception_4c/1x1
I0902 16:07:53.961567 53383 net.cpp:477] inception_4c/output <- inception_4c/3x3
I0902 16:07:53.961573 53383 net.cpp:477] inception_4c/output <- inception_4c/5x5
I0902 16:07:53.961580 53383 net.cpp:477] inception_4c/output <- inception_4c/pool_proj
I0902 16:07:53.961587 53383 net.cpp:433] inception_4c/output -> inception_4c/output
I0902 16:07:53.961598 53383 net.cpp:155] Setting up inception_4c/output
I0902 16:07:53.961606 53383 net.cpp:163] Top shape: 64 512 14 14 (6422528)
I0902 16:07:53.961611 53383 layer_factory.hpp:76] Creating layer inception_4c/output_inception_4c/output_0_split
I0902 16:07:53.961619 53383 net.cpp:110] Creating Layer inception_4c/output_inception_4c/output_0_split
I0902 16:07:53.961626 53383 net.cpp:477] inception_4c/output_inception_4c/output_0_split <- inception_4c/output
I0902 16:07:53.961635 53383 net.cpp:433] inception_4c/output_inception_4c/output_0_split -> inception_4c/output_inception_4c/output_0_split_0
I0902 16:07:53.961644 53383 net.cpp:433] inception_4c/output_inception_4c/output_0_split -> inception_4c/output_inception_4c/output_0_split_1
I0902 16:07:53.961653 53383 net.cpp:433] inception_4c/output_inception_4c/output_0_split -> inception_4c/output_inception_4c/output_0_split_2
I0902 16:07:53.961661 53383 net.cpp:433] inception_4c/output_inception_4c/output_0_split -> inception_4c/output_inception_4c/output_0_split_3
I0902 16:07:53.961670 53383 net.cpp:155] Setting up inception_4c/output_inception_4c/output_0_split
I0902 16:07:53.961679 53383 net.cpp:163] Top shape: 64 512 14 14 (6422528)
I0902 16:07:53.961685 53383 net.cpp:163] Top shape: 64 512 14 14 (6422528)
I0902 16:07:53.961690 53383 net.cpp:163] Top shape: 64 512 14 14 (6422528)
I0902 16:07:53.961696 53383 net.cpp:163] Top shape: 64 512 14 14 (6422528)
I0902 16:07:53.961701 53383 layer_factory.hpp:76] Creating layer inception_4d/1x1
I0902 16:07:53.961710 53383 net.cpp:110] Creating Layer inception_4d/1x1
I0902 16:07:53.961715 53383 net.cpp:477] inception_4d/1x1 <- inception_4c/output_inception_4c/output_0_split_0
I0902 16:07:53.961725 53383 net.cpp:433] inception_4d/1x1 -> inception_4d/1x1
I0902 16:07:54.020076 53383 net.cpp:155] Setting up inception_4d/1x1
I0902 16:07:54.020094 53383 net.cpp:163] Top shape: 64 112 14 14 (1404928)
I0902 16:07:54.020122 53383 layer_factory.hpp:76] Creating layer inception_4d/relu_1x1
I0902 16:07:54.020130 53383 net.cpp:110] Creating Layer inception_4d/relu_1x1
I0902 16:07:54.020136 53383 net.cpp:477] inception_4d/relu_1x1 <- inception_4d/1x1
I0902 16:07:54.020144 53383 net.cpp:419] inception_4d/relu_1x1 -> inception_4d/1x1 (in-place)
I0902 16:07:54.022212 53383 net.cpp:155] Setting up inception_4d/relu_1x1
I0902 16:07:54.022230 53383 net.cpp:163] Top shape: 64 112 14 14 (1404928)
I0902 16:07:54.022243 53383 layer_factory.hpp:76] Creating layer inception_4d/3x3_reduce
I0902 16:07:54.022256 53383 net.cpp:110] Creating Layer inception_4d/3x3_reduce
I0902 16:07:54.022264 53383 net.cpp:477] inception_4d/3x3_reduce <- inception_4c/output_inception_4c/output_0_split_1
I0902 16:07:54.022274 53383 net.cpp:433] inception_4d/3x3_reduce -> inception_4d/3x3_reduce
I0902 16:07:54.028951 53383 net.cpp:155] Setting up inception_4d/3x3_reduce
I0902 16:07:54.028971 53383 net.cpp:163] Top shape: 64 144 14 14 (1806336)
I0902 16:07:54.028987 53383 layer_factory.hpp:76] Creating layer inception_4d/relu_3x3_reduce
I0902 16:07:54.028996 53383 net.cpp:110] Creating Layer inception_4d/relu_3x3_reduce
I0902 16:07:54.029003 53383 net.cpp:477] inception_4d/relu_3x3_reduce <- inception_4d/3x3_reduce
I0902 16:07:54.029013 53383 net.cpp:419] inception_4d/relu_3x3_reduce -> inception_4d/3x3_reduce (in-place)
I0902 16:07:54.031085 53383 net.cpp:155] Setting up inception_4d/relu_3x3_reduce
I0902 16:07:54.031113 53383 net.cpp:163] Top shape: 64 144 14 14 (1806336)
I0902 16:07:54.031121 53383 layer_factory.hpp:76] Creating layer inception_4d/3x3
I0902 16:07:54.031131 53383 net.cpp:110] Creating Layer inception_4d/3x3
I0902 16:07:54.031137 53383 net.cpp:477] inception_4d/3x3 <- inception_4d/3x3_reduce
I0902 16:07:54.031148 53383 net.cpp:433] inception_4d/3x3 -> inception_4d/3x3
I0902 16:07:54.039939 53383 net.cpp:155] Setting up inception_4d/3x3
I0902 16:07:54.039958 53383 net.cpp:163] Top shape: 64 288 14 14 (3612672)
I0902 16:07:54.039971 53383 layer_factory.hpp:76] Creating layer inception_4d/relu_3x3
I0902 16:07:54.039983 53383 net.cpp:110] Creating Layer inception_4d/relu_3x3
I0902 16:07:54.039990 53383 net.cpp:477] inception_4d/relu_3x3 <- inception_4d/3x3
I0902 16:07:54.039999 53383 net.cpp:419] inception_4d/relu_3x3 -> inception_4d/3x3 (in-place)
I0902 16:07:54.042065 53383 net.cpp:155] Setting up inception_4d/relu_3x3
I0902 16:07:54.042084 53383 net.cpp:163] Top shape: 64 288 14 14 (3612672)
I0902 16:07:54.042091 53383 layer_factory.hpp:76] Creating layer inception_4d/5x5_reduce
I0902 16:07:54.042104 53383 net.cpp:110] Creating Layer inception_4d/5x5_reduce
I0902 16:07:54.042111 53383 net.cpp:477] inception_4d/5x5_reduce <- inception_4c/output_inception_4c/output_0_split_2
I0902 16:07:54.042122 53383 net.cpp:433] inception_4d/5x5_reduce -> inception_4d/5x5_reduce
I0902 16:07:54.048818 53383 net.cpp:155] Setting up inception_4d/5x5_reduce
I0902 16:07:54.048846 53383 net.cpp:163] Top shape: 64 32 14 14 (401408)
I0902 16:07:54.048856 53383 layer_factory.hpp:76] Creating layer inception_4d/relu_5x5_reduce
I0902 16:07:54.048866 53383 net.cpp:110] Creating Layer inception_4d/relu_5x5_reduce
I0902 16:07:54.048872 53383 net.cpp:477] inception_4d/relu_5x5_reduce <- inception_4d/5x5_reduce
I0902 16:07:54.048882 53383 net.cpp:419] inception_4d/relu_5x5_reduce -> inception_4d/5x5_reduce (in-place)
I0902 16:07:54.050940 53383 net.cpp:155] Setting up inception_4d/relu_5x5_reduce
I0902 16:07:54.050962 53383 net.cpp:163] Top shape: 64 32 14 14 (401408)
I0902 16:07:54.050973 53383 layer_factory.hpp:76] Creating layer inception_4d/5x5
I0902 16:07:54.050984 53383 net.cpp:110] Creating Layer inception_4d/5x5
I0902 16:07:54.050990 53383 net.cpp:477] inception_4d/5x5 <- inception_4d/5x5_reduce
I0902 16:07:54.051002 53383 net.cpp:433] inception_4d/5x5 -> inception_4d/5x5
I0902 16:07:54.057696 53383 net.cpp:155] Setting up inception_4d/5x5
I0902 16:07:54.057715 53383 net.cpp:163] Top shape: 64 64 14 14 (802816)
I0902 16:07:54.057744 53383 layer_factory.hpp:76] Creating layer inception_4d/relu_5x5
I0902 16:07:54.057756 53383 net.cpp:110] Creating Layer inception_4d/relu_5x5
I0902 16:07:54.057764 53383 net.cpp:477] inception_4d/relu_5x5 <- inception_4d/5x5
I0902 16:07:54.057777 53383 net.cpp:419] inception_4d/relu_5x5 -> inception_4d/5x5 (in-place)
I0902 16:07:54.059820 53383 net.cpp:155] Setting up inception_4d/relu_5x5
I0902 16:07:54.059839 53383 net.cpp:163] Top shape: 64 64 14 14 (802816)
I0902 16:07:54.059849 53383 layer_factory.hpp:76] Creating layer inception_4d/pool
I0902 16:07:54.059856 53383 layer_factory.cpp:60] CUDNN does not support padding or multiple tops. Using Caffe's own pooling layer.
I0902 16:07:54.059865 53383 net.cpp:110] Creating Layer inception_4d/pool
I0902 16:07:54.059871 53383 net.cpp:477] inception_4d/pool <- inception_4c/output_inception_4c/output_0_split_3
I0902 16:07:54.059880 53383 net.cpp:433] inception_4d/pool -> inception_4d/pool
I0902 16:07:54.059902 53383 net.cpp:155] Setting up inception_4d/pool
I0902 16:07:54.059909 53383 net.cpp:163] Top shape: 64 512 14 14 (6422528)
I0902 16:07:54.059916 53383 layer_factory.hpp:76] Creating layer inception_4d/pool_proj
I0902 16:07:54.059924 53383 net.cpp:110] Creating Layer inception_4d/pool_proj
I0902 16:07:54.059932 53383 net.cpp:477] inception_4d/pool_proj <- inception_4d/pool
I0902 16:07:54.059941 53383 net.cpp:433] inception_4d/pool_proj -> inception_4d/pool_proj
I0902 16:07:54.066563 53383 net.cpp:155] Setting up inception_4d/pool_proj
I0902 16:07:54.066586 53383 net.cpp:163] Top shape: 64 64 14 14 (802816)
I0902 16:07:54.066598 53383 layer_factory.hpp:76] Creating layer inception_4d/relu_pool_proj
I0902 16:07:54.066607 53383 net.cpp:110] Creating Layer inception_4d/relu_pool_proj
I0902 16:07:54.066614 53383 net.cpp:477] inception_4d/relu_pool_proj <- inception_4d/pool_proj
I0902 16:07:54.066622 53383 net.cpp:419] inception_4d/relu_pool_proj -> inception_4d/pool_proj (in-place)
I0902 16:07:54.068691 53383 net.cpp:155] Setting up inception_4d/relu_pool_proj
I0902 16:07:54.068709 53383 net.cpp:163] Top shape: 64 64 14 14 (802816)
I0902 16:07:54.068719 53383 layer_factory.hpp:76] Creating layer inception_4d/output
I0902 16:07:54.068728 53383 net.cpp:110] Creating Layer inception_4d/output
I0902 16:07:54.068735 53383 net.cpp:477] inception_4d/output <- inception_4d/1x1
I0902 16:07:54.068742 53383 net.cpp:477] inception_4d/output <- inception_4d/3x3
I0902 16:07:54.068753 53383 net.cpp:477] inception_4d/output <- inception_4d/5x5
I0902 16:07:54.068758 53383 net.cpp:477] inception_4d/output <- inception_4d/pool_proj
I0902 16:07:54.068765 53383 net.cpp:433] inception_4d/output -> inception_4d/output
I0902 16:07:54.068779 53383 net.cpp:155] Setting up inception_4d/output
I0902 16:07:54.068786 53383 net.cpp:163] Top shape: 64 528 14 14 (6623232)
I0902 16:07:54.068792 53383 layer_factory.hpp:76] Creating layer inception_4d/output_inception_4d/output_0_split
I0902 16:07:54.068801 53383 net.cpp:110] Creating Layer inception_4d/output_inception_4d/output_0_split
I0902 16:07:54.068806 53383 net.cpp:477] inception_4d/output_inception_4d/output_0_split <- inception_4d/output
I0902 16:07:54.068814 53383 net.cpp:433] inception_4d/output_inception_4d/output_0_split -> inception_4d/output_inception_4d/output_0_split_0
I0902 16:07:54.068825 53383 net.cpp:433] inception_4d/output_inception_4d/output_0_split -> inception_4d/output_inception_4d/output_0_split_1
I0902 16:07:54.068835 53383 net.cpp:433] inception_4d/output_inception_4d/output_0_split -> inception_4d/output_inception_4d/output_0_split_2
I0902 16:07:54.068843 53383 net.cpp:433] inception_4d/output_inception_4d/output_0_split -> inception_4d/output_inception_4d/output_0_split_3
I0902 16:07:54.068851 53383 net.cpp:433] inception_4d/output_inception_4d/output_0_split -> inception_4d/output_inception_4d/output_0_split_4
I0902 16:07:54.068861 53383 net.cpp:155] Setting up inception_4d/output_inception_4d/output_0_split
I0902 16:07:54.068869 53383 net.cpp:163] Top shape: 64 528 14 14 (6623232)
I0902 16:07:54.068876 53383 net.cpp:163] Top shape: 64 528 14 14 (6623232)
I0902 16:07:54.068895 53383 net.cpp:163] Top shape: 64 528 14 14 (6623232)
I0902 16:07:54.068902 53383 net.cpp:163] Top shape: 64 528 14 14 (6623232)
I0902 16:07:54.068907 53383 net.cpp:163] Top shape: 64 528 14 14 (6623232)
I0902 16:07:54.068912 53383 layer_factory.hpp:76] Creating layer loss2/ave_pool
I0902 16:07:54.068920 53383 net.cpp:110] Creating Layer loss2/ave_pool
I0902 16:07:54.068925 53383 net.cpp:477] loss2/ave_pool <- inception_4d/output_inception_4d/output_0_split_0
I0902 16:07:54.068933 53383 net.cpp:433] loss2/ave_pool -> loss2/ave_pool
I0902 16:07:54.070917 53383 net.cpp:155] Setting up loss2/ave_pool
I0902 16:07:54.070945 53383 net.cpp:163] Top shape: 64 528 4 4 (540672)
I0902 16:07:54.070951 53383 layer_factory.hpp:76] Creating layer loss2/conv
I0902 16:07:54.070963 53383 net.cpp:110] Creating Layer loss2/conv
I0902 16:07:54.070971 53383 net.cpp:477] loss2/conv <- loss2/ave_pool
I0902 16:07:54.070981 53383 net.cpp:433] loss2/conv -> loss2/conv
I0902 16:07:54.076884 53383 net.cpp:155] Setting up loss2/conv
I0902 16:07:54.076903 53383 net.cpp:163] Top shape: 64 128 4 4 (131072)
I0902 16:07:54.076915 53383 layer_factory.hpp:76] Creating layer loss2/relu_conv
I0902 16:07:54.076923 53383 net.cpp:110] Creating Layer loss2/relu_conv
I0902 16:07:54.076930 53383 net.cpp:477] loss2/relu_conv <- loss2/conv
I0902 16:07:54.076941 53383 net.cpp:419] loss2/relu_conv -> loss2/conv (in-place)
I0902 16:07:54.078801 53383 net.cpp:155] Setting up loss2/relu_conv
I0902 16:07:54.078820 53383 net.cpp:163] Top shape: 64 128 4 4 (131072)
I0902 16:07:54.078833 53383 layer_factory.hpp:76] Creating layer loss2/fc
I0902 16:07:54.078847 53383 net.cpp:110] Creating Layer loss2/fc
I0902 16:07:54.078855 53383 net.cpp:477] loss2/fc <- loss2/conv
I0902 16:07:54.078863 53383 net.cpp:433] loss2/fc -> loss2/fc
I0902 16:07:54.099810 53383 net.cpp:155] Setting up loss2/fc
I0902 16:07:54.099831 53383 net.cpp:163] Top shape: 64 1024 (65536)
I0902 16:07:54.099843 53383 layer_factory.hpp:76] Creating layer loss2/relu_fc
I0902 16:07:54.099853 53383 net.cpp:110] Creating Layer loss2/relu_fc
I0902 16:07:54.099861 53383 net.cpp:477] loss2/relu_fc <- loss2/fc
I0902 16:07:54.099869 53383 net.cpp:419] loss2/relu_fc -> loss2/fc (in-place)
I0902 16:07:54.101097 53383 net.cpp:155] Setting up loss2/relu_fc
I0902 16:07:54.101115 53383 net.cpp:163] Top shape: 64 1024 (65536)
I0902 16:07:54.101126 53383 layer_factory.hpp:76] Creating layer loss2/drop_fc
I0902 16:07:54.101136 53383 net.cpp:110] Creating Layer loss2/drop_fc
I0902 16:07:54.101143 53383 net.cpp:477] loss2/drop_fc <- loss2/fc
I0902 16:07:54.101153 53383 net.cpp:419] loss2/drop_fc -> loss2/fc (in-place)
I0902 16:07:54.101164 53383 net.cpp:155] Setting up loss2/drop_fc
I0902 16:07:54.101178 53383 net.cpp:163] Top shape: 64 1024 (65536)
I0902 16:07:54.101183 53383 layer_factory.hpp:76] Creating layer loss2/classifier_cub
I0902 16:07:54.101193 53383 net.cpp:110] Creating Layer loss2/classifier_cub
I0902 16:07:54.101198 53383 net.cpp:477] loss2/classifier_cub <- loss2/fc
I0902 16:07:54.101208 53383 net.cpp:433] loss2/classifier_cub -> loss2/classifier
I0902 16:07:54.109587 53383 net.cpp:155] Setting up loss2/classifier_cub
I0902 16:07:54.109606 53383 net.cpp:163] Top shape: 64 200 (12800)
I0902 16:07:54.109618 53383 layer_factory.hpp:76] Creating layer loss2/classifier_loss2/classifier_cub_0_split
I0902 16:07:54.109627 53383 net.cpp:110] Creating Layer loss2/classifier_loss2/classifier_cub_0_split
I0902 16:07:54.109634 53383 net.cpp:477] loss2/classifier_loss2/classifier_cub_0_split <- loss2/classifier
I0902 16:07:54.109645 53383 net.cpp:433] loss2/classifier_loss2/classifier_cub_0_split -> loss2/classifier_loss2/classifier_cub_0_split_0
I0902 16:07:54.109655 53383 net.cpp:433] loss2/classifier_loss2/classifier_cub_0_split -> loss2/classifier_loss2/classifier_cub_0_split_1
I0902 16:07:54.109664 53383 net.cpp:433] loss2/classifier_loss2/classifier_cub_0_split -> loss2/classifier_loss2/classifier_cub_0_split_2
I0902 16:07:54.109678 53383 net.cpp:155] Setting up loss2/classifier_loss2/classifier_cub_0_split
I0902 16:07:54.109700 53383 net.cpp:163] Top shape: 64 200 (12800)
I0902 16:07:54.109706 53383 net.cpp:163] Top shape: 64 200 (12800)
I0902 16:07:54.109712 53383 net.cpp:163] Top shape: 64 200 (12800)
I0902 16:07:54.109717 53383 layer_factory.hpp:76] Creating layer loss2/loss
I0902 16:07:54.109729 53383 net.cpp:110] Creating Layer loss2/loss
I0902 16:07:54.109735 53383 net.cpp:477] loss2/loss <- loss2/classifier_loss2/classifier_cub_0_split_0
I0902 16:07:54.109741 53383 net.cpp:477] loss2/loss <- label_data_1_split_3
I0902 16:07:54.109748 53383 net.cpp:433] loss2/loss -> loss2/loss1
…
I0902 16:07:54.111323 53383 net.cpp:433] loss2/top-5 -> loss2/top-5
I0902 16:07:54.111332 53383 net.cpp:155] Setting up loss2/top-5
I0902 16:07:54.111338 53383 net.cpp:163] Top shape: (1)
I0902 16:07:54.111343 53383 layer_factory.hpp:76] Creating layer inception_4e/1x1
I0902 16:07:54.111353 53383 net.cpp:110] Creating Layer inception_4e/1x1
I0902 16:07:54.111361 53383 net.cpp:477] inception_4e/1x1 <- inception_4d/output_inception_4d/output_0_split_1
I0902 16:07:54.111369 53383 net.cpp:433] inception_4e/1x1 -> inception_4e/1x1
I0902 16:07:54.135362 53383 net.cpp:155] Setting up inception_4e/1x1
I0902 16:07:54.135382 53383 net.cpp:163] Top shape: 64 256 14 14 (3211264)
I0902 16:07:54.135393 53383 layer_factory.hpp:76] Creating layer inception_4e/relu_1x1
I0902 16:07:54.135406 53383 net.cpp:110] Creating Layer inception_4e/relu_1x1
I0902 16:07:54.135412 53383 net.cpp:477] inception_4e/relu_1x1 <- inception_4e/1x1
I0902 16:07:54.135419 53383 net.cpp:419] inception_4e/relu_1x1 -> inception_4e/1x1 (in-place)
I0902 16:07:54.159916 53383 net.cpp:155] Setting up inception_4e/relu_1x1
I0902 16:07:54.159934 53383 net.cpp:163] Top shape: 64 256 14 14 (3211264)
I0902 16:07:54.159941 53383 layer_factory.hpp:76] Creating layer inception_4e/3x3_reduce
I0902 16:07:54.159976 53383 net.cpp:110] Creating Layer inception_4e/3x3_reduce
I0902 16:07:54.159982 53383 net.cpp:477] inception_4e/3x3_reduce <- inception_4d/output_inception_4d/output_0_split_2
I0902 16:07:54.160001 53383 net.cpp:433] inception_4e/3x3_reduce -> inception_4e/3x3_reduce
I0902 16:07:54.185497 53383 net.cpp:155] Setting up inception_4e/3x3_reduce
I0902 16:07:54.185516 53383 net.cpp:163] Top shape: 64 160 14 14 (2007040)
I0902 16:07:54.185536 53383 layer_factory.hpp:76] Creating layer inception_4e/relu_3x3_reduce
I0902 16:07:54.185546 53383 net.cpp:110] Creating Layer inception_4e/relu_3x3_reduce
I0902 16:07:54.185552 53383 net.cpp:477] inception_4e/relu_3x3_reduce <- inception_4e/3x3_reduce
I0902 16:07:54.185560 53383 net.cpp:419] inception_4e/relu_3x3_reduce -> inception_4e/3x3_reduce (in-place)
I0902 16:07:54.187450 53383 net.cpp:155] Setting up inception_4e/relu_3x3_reduce
I0902 16:07:54.187469 53383 net.cpp:163] Top shape: 64 160 14 14 (2007040)
I0902 16:07:54.187482 53383 layer_factory.hpp:76] Creating layer inception_4e/3x3
I0902 16:07:54.187495 53383 net.cpp:110] Creating Layer inception_4e/3x3
I0902 16:07:54.187515 53383 net.cpp:477] inception_4e/3x3 <- inception_4e/3x3_reduce
I0902 16:07:54.187535 53383 net.cpp:433] inception_4e/3x3 -> inception_4e/3x3
I0902 16:07:54.213404 53383 net.cpp:155] Setting up inception_4e/3x3
I0902 16:07:54.213425 53383 net.cpp:163] Top shape: 64 320 14 14 (4014080)
I0902 16:07:54.213441 53383 layer_factory.hpp:76] Creating layer inception_4e/relu_3x3
I0902 16:07:54.213450 53383 net.cpp:110] Creating Layer inception_4e/relu_3x3
I0902 16:07:54.213457 53383 net.cpp:477] inception_4e/relu_3x3 <- inception_4e/3x3
I0902 16:07:54.213464 53383 net.cpp:419] inception_4e/relu_3x3 -> inception_4e/3x3 (in-place)
I0902 16:07:54.214725 53383 net.cpp:155] Setting up inception_4e/relu_3x3
I0902 16:07:54.214743 53383 net.cpp:163] Top shape: 64 320 14 14 (4014080)
I0902 16:07:54.214751 53383 layer_factory.hpp:76] Creating layer inception_4e/5x5_reduce
I0902 16:07:54.214764 53383 net.cpp:110] Creating Layer inception_4e/5x5_reduce
I0902 16:07:54.214771 53383 net.cpp:477] inception_4e/5x5_reduce <- inception_4d/output_inception_4d/output_0_split_3
I0902 16:07:54.214781 53383 net.cpp:433] inception_4e/5x5_reduce -> inception_4e/5x5_reduce
I0902 16:07:54.219535 53383 net.cpp:155] Setting up inception_4e/5x5_reduce
I0902 16:07:54.219555 53383 net.cpp:163] Top shape: 64 32 14 14 (401408)
I0902 16:07:54.219569 53383 layer_factory.hpp:76] Creating layer inception_4e/relu_5x5_reduce
I0902 16:07:54.219579 53383 net.cpp:110] Creating Layer inception_4e/relu_5x5_reduce
I0902 16:07:54.219585 53383 net.cpp:477] inception_4e/relu_5x5_reduce <- inception_4e/5x5_reduce
I0902 16:07:54.219594 53383 net.cpp:419] inception_4e/relu_5x5_reduce -> inception_4e/5x5_reduce (in-place)
I0902 16:07:54.222762 53383 net.cpp:155] Setting up inception_4e/relu_5x5_reduce
I0902 16:07:54.222780 53383 net.cpp:163] Top shape: 64 32 14 14 (401408)
I0902 16:07:54.222787 53383 layer_factory.hpp:76] Creating layer inception_4e/5x5
I0902 16:07:54.222800 53383 net.cpp:110] Creating Layer inception_4e/5x5
I0902 16:07:54.222806 53383 net.cpp:477] inception_4e/5x5 <- inception_4e/5x5_reduce
I0902 16:07:54.222815 53383 net.cpp:433] inception_4e/5x5 -> inception_4e/5x5
I0902 16:07:54.229964 53383 net.cpp:155] Setting up inception_4e/5x5
I0902 16:07:54.229982 53383 net.cpp:163] Top shape: 64 128 14 14 (1605632)
I0902 16:07:54.229995 53383 layer_factory.hpp:76] Creating layer inception_4e/relu_5x5
I0902 16:07:54.230005 53383 net.cpp:110] Creating Layer inception_4e/relu_5x5
I0902 16:07:54.230012 53383 net.cpp:477] inception_4e/relu_5x5 <- inception_4e/5x5
I0902 16:07:54.230021 53383 net.cpp:419] inception_4e/relu_5x5 -> inception_4e/5x5 (in-place)
I0902 16:07:54.231422 53383 net.cpp:155] Setting up inception_4e/relu_5x5
I0902 16:07:54.231441 53383 net.cpp:163] Top shape: 64 128 14 14 (1605632)
I0902 16:07:54.231451 53383 layer_factory.hpp:76] Creating layer inception_4e/pool
I0902 16:07:54.231457 53383 layer_factory.cpp:60] CUDNN does not support padding or multiple tops. Using Caffe's own pooling layer.
I0902 16:07:54.231467 53383 net.cpp:110] Creating Layer inception_4e/pool
I0902 16:07:54.231474 53383 net.cpp:477] inception_4e/pool <- inception_4d/output_inception_4d/output_0_split_4
I0902 16:07:54.231482 53383 net.cpp:433] inception_4e/pool -> inception_4e/pool
I0902 16:07:54.231495 53383 net.cpp:155] Setting up inception_4e/pool
I0902 16:07:54.231510 53383 net.cpp:163] Top shape: 64 528 14 14 (6623232)
I0902 16:07:54.231516 53383 layer_factory.hpp:76] Creating layer inception_4e/pool_proj
I0902 16:07:54.231526 53383 net.cpp:110] Creating Layer inception_4e/pool_proj
I0902 16:07:54.231531 53383 net.cpp:477] inception_4e/pool_proj <- inception_4e/pool
I0902 16:07:54.231541 53383 net.cpp:433] inception_4e/pool_proj -> inception_4e/pool_proj
I0902 16:07:54.243434 53383 net.cpp:155] Setting up inception_4e/pool_proj
I0902 16:07:54.243461 53383 net.cpp:163] Top shape: 64 128 14 14 (1605632)
I0902 16:07:54.243473 53383 layer_factory.hpp:76] Creating layer inception_4e/relu_pool_proj
I0902 16:07:54.243481 53383 net.cpp:110] Creating Layer inception_4e/relu_pool_proj
I0902 16:07:54.243502 53383 net.cpp:477] inception_4e/relu_pool_proj <- inception_4e/pool_proj
I0902 16:07:54.243510 53383 net.cpp:419] inception_4e/relu_pool_proj -> inception_4e/pool_proj (in-place)
I0902 16:07:54.252123 53383 net.cpp:155] Setting up inception_4e/relu_pool_proj
I0902 16:07:54.252142 53383 net.cpp:163] Top shape: 64 128 14 14 (1605632)
I0902 16:07:54.252148 53383 layer_factory.hpp:76] Creating layer inception_4e/output
I0902 16:07:54.252161 53383 net.cpp:110] Creating Layer inception_4e/output
I0902 16:07:54.252167 53383 net.cpp:477] inception_4e/output <- inception_4e/1x1
I0902 16:07:54.252174 53383 net.cpp:477] inception_4e/output <- inception_4e/3x3
I0902 16:07:54.252181 53383 net.cpp:477] inception_4e/output <- inception_4e/5x5
I0902 16:07:54.252187 53383 net.cpp:477] inception_4e/output <- inception_4e/pool_proj
I0902 16:07:54.252193 53383 net.cpp:433] inception_4e/output -> inception_4e/output
I0902 16:07:54.252207 53383 net.cpp:155] Setting up inception_4e/output
I0902 16:07:54.252213 53383 net.cpp:163] Top shape: 64 832 14 14 (10436608)
I0902 16:07:54.252218 53383 layer_factory.hpp:76] Creating layer pool4/3x3_s2
I0902 16:07:54.252228 53383 net.cpp:110] Creating Layer pool4/3x3_s2
I0902 16:07:54.252233 53383 net.cpp:477] pool4/3x3_s2 <- inception_4e/output
I0902 16:07:54.252243 53383 net.cpp:433] pool4/3x3_s2 -> pool4/3x3_s2
I0902 16:07:54.259799 53383 net.cpp:155] Setting up pool4/3x3_s2
I0902 16:07:54.259819 53383 net.cpp:163] Top shape: 64 832 7 7 (2609152)
I0902 16:07:54.259832 53383 layer_factory.hpp:76] Creating layer pool4/3x3_s2_pool4/3x3_s2_0_split
I0902 16:07:54.259842 53383 net.cpp:110] Creating Layer pool4/3x3_s2_pool4/3x3_s2_0_split
I0902 16:07:54.259850 53383 net.cpp:477] pool4/3x3_s2_pool4/3x3_s2_0_split <- pool4/3x3_s2
I0902 16:07:54.259860 53383 net.cpp:433] pool4/3x3_s2_pool4/3x3_s2_0_split -> pool4/3x3_s2_pool4/3x3_s2_0_split_0
I0902 16:07:54.259871 53383 net.cpp:433] pool4/3x3_s2_pool4/3x3_s2_0_split -> pool4/3x3_s2_pool4/3x3_s2_0_split_1
I0902 16:07:54.259886 53383 net.cpp:433] pool4/3x3_s2_pool4/3x3_s2_0_split -> pool4/3x3_s2_pool4/3x3_s2_0_split_2
I0902 16:07:54.259914 53383 net.cpp:433] pool4/3x3_s2_pool4/3x3_s2_0_split -> pool4/3x3_s2_pool4/3x3_s2_0_split_3
I0902 16:07:54.259924 53383 net.cpp:155] Setting up pool4/3x3_s2_pool4/3x3_s2_0_split
I0902 16:07:54.259932 53383 net.cpp:163] Top shape: 64 832 7 7 (2609152)
I0902 16:07:54.259938 53383 net.cpp:163] Top shape: 64 832 7 7 (2609152)
I0902 16:07:54.259944 53383 net.cpp:163] Top shape: 64 832 7 7 (2609152)
I0902 16:07:54.259953 53383 net.cpp:163] Top shape: 64 832 7 7 (2609152)
I0902 16:07:54.259958 53383 layer_factory.hpp:76] Creating layer inception_5a/1x1
I0902 16:07:54.259968 53383 net.cpp:110] Creating Layer inception_5a/1x1
I0902 16:07:54.259973 53383 net.cpp:477] inception_5a/1x1 <- pool4/3x3_s2_pool4/3x3_s2_0_split_0
I0902 16:07:54.259981 53383 net.cpp:433] inception_5a/1x1 -> inception_5a/1x1
I0902 16:07:54.272666 53383 net.cpp:155] Setting up inception_5a/1x1
I0902 16:07:54.272693 53383 net.cpp:163] Top shape: 64 256 7 7 (802816)
I0902 16:07:54.272706 53383 layer_factory.hpp:76] Creating layer inception_5a/relu_1x1
I0902 16:07:54.272714 53383 net.cpp:110] Creating Layer inception_5a/relu_1x1
I0902 16:07:54.272721 53383 net.cpp:477] inception_5a/relu_1x1 <- inception_5a/1x1
I0902 16:07:54.272732 53383 net.cpp:419] inception_5a/relu_1x1 -> inception_5a/1x1 (in-place)
I0902 16:07:54.274042 53383 net.cpp:155] Setting up inception_5a/relu_1x1
I0902 16:07:54.274063 53383 net.cpp:163] Top shape: 64 256 7 7 (802816)
I0902 16:07:54.274071 53383 layer_factory.hpp:76] Creating layer inception_5a/3x3_reduce
I0902 16:07:54.274082 53383 net.cpp:110] Creating Layer inception_5a/3x3_reduce
I0902 16:07:54.274088 53383 net.cpp:477] inception_5a/3x3_reduce <- pool4/3x3_s2_pool4/3x3_s2_0_split_1
I0902 16:07:54.274101 53383 net.cpp:433] inception_5a/3x3_reduce -> inception_5a/3x3_reduce
I0902 16:07:54.305779 53383 net.cpp:155] Setting up inception_5a/3x3_reduce
I0902 16:07:54.305819 53383 net.cpp:163] Top shape: 64 160 7 7 (501760)
I0902 16:07:54.305857 53383 layer_factory.hpp:76] Creating layer inception_5a/relu_3x3_reduce
I0902 16:07:54.305884 53383 net.cpp:110] Creating Layer inception_5a/relu_3x3_reduce
I0902 16:07:54.305902 53383 net.cpp:477] inception_5a/relu_3x3_reduce <- inception_5a/3x3_reduce
I0902 16:07:54.305912 53383 net.cpp:419] inception_5a/relu_3x3_reduce -> inception_5a/3x3_reduce (in-place)
I0902 16:07:54.324350 53383 net.cpp:155] Setting up inception_5a/relu_3x3_reduce
I0902 16:07:54.324370 53383 net.cpp:163] Top shape: 64 160 7 7 (501760)
I0902 16:07:54.324383 53383 layer_factory.hpp:76] Creating layer inception_5a/3x3
I0902 16:07:54.324398 53383 net.cpp:110] Creating Layer inception_5a/3x3
I0902 16:07:54.324409 53383 net.cpp:477] inception_5a/3x3 <- inception_5a/3x3_reduce
I0902 16:07:54.324417 53383 net.cpp:433] inception_5a/3x3 -> inception_5a/3x3
I0902 16:07:54.357195 53383 net.cpp:155] Setting up inception_5a/3x3
I0902 16:07:54.357218 53383 net.cpp:163] Top shape: 64 320 7 7 (1003520)
I0902 16:07:54.357234 53383 layer_factory.hpp:76] Creating layer inception_5a/relu_3x3
I0902 16:07:54.357246 53383 net.cpp:110] Creating Layer inception_5a/relu_3x3
I0902 16:07:54.357254 53383 net.cpp:477] inception_5a/relu_3x3 <- inception_5a/3x3
I0902 16:07:54.357260 53383 net.cpp:419] inception_5a/relu_3x3 -> inception_5a/3x3 (in-place)
I0902 16:07:54.359315 53383 net.cpp:155] Setting up inception_5a/relu_3x3
I0902 16:07:54.359334 53383 net.cpp:163] Top shape: 64 320 7 7 (1003520)
I0902 16:07:54.359344 53383 layer_factory.hpp:76] Creating layer inception_5a/5x5_reduce
I0902 16:07:54.359355 53383 net.cpp:110] Creating Layer inception_5a/5x5_reduce
I0902 16:07:54.359370 53383 net.cpp:477] inception_5a/5x5_reduce <- pool4/3x3_s2_pool4/3x3_s2_0_split_2
I0902 16:07:54.359381 53383 net.cpp:433] inception_5a/5x5_reduce -> inception_5a/5x5_reduce
I0902 16:07:54.364190 53383 net.cpp:155] Setting up inception_5a/5x5_reduce
I0902 16:07:54.364210 53383 net.cpp:163] Top shape: 64 32 7 7 (100352)
I0902 16:07:54.364226 53383 layer_factory.hpp:76] Creating layer inception_5a/relu_5x5_reduce
I0902 16:07:54.364238 53383 net.cpp:110] Creating Layer inception_5a/relu_5x5_reduce
I0902 16:07:54.364245 53383 net.cpp:477] inception_5a/relu_5x5_reduce <- inception_5a/5x5_reduce
I0902 16:07:54.364253 53383 net.cpp:419] inception_5a/relu_5x5_reduce -> inception_5a/5x5_reduce (in-place)
I0902 16:07:54.365490 53383 net.cpp:155] Setting up inception_5a/relu_5x5_reduce
I0902 16:07:54.365507 53383 net.cpp:163] Top shape: 64 32 7 7 (100352)
I0902 16:07:54.365520 53383 layer_factory.hpp:76] Creating layer inception_5a/5x5
I0902 16:07:54.365535 53383 net.cpp:110] Creating Layer inception_5a/5x5
I0902 16:07:54.365541 53383 net.cpp:477] inception_5a/5x5 <- inception_5a/5x5_reduce
I0902 16:07:54.365555 53383 net.cpp:433] inception_5a/5x5 -> inception_5a/5x5
I0902 16:07:54.370501 53383 net.cpp:155] Setting up inception_5a/5x5
I0902 16:07:54.370519 53383 net.cpp:163] Top shape: 64 128 7 7 (401408)
I0902 16:07:54.370534 53383 layer_factory.hpp:76] Creating layer inception_5a/relu_5x5
I0902 16:07:54.370548 53383 net.cpp:110] Creating Layer inception_5a/relu_5x5
I0902 16:07:54.370554 53383 net.cpp:477] inception_5a/relu_5x5 <- inception_5a/5x5
I0902 16:07:54.370563 53383 net.cpp:419] inception_5a/relu_5x5 -> inception_5a/5x5 (in-place)
I0902 16:07:54.371809 53383 net.cpp:155] Setting up inception_5a/relu_5x5
I0902 16:07:54.371827 53383 net.cpp:163] Top shape: 64 128 7 7 (401408)
I0902 16:07:54.371839 53383 layer_factory.hpp:76] Creating layer inception_5a/pool
I0902 16:07:54.371848 53383 layer_factory.cpp:60] CUDNN does not support padding or multiple tops. Using Caffe's own pooling layer.
I0902 16:07:54.371855 53383 net.cpp:110] Creating Layer inception_5a/pool
I0902 16:07:54.371862 53383 net.cpp:477] inception_5a/pool <- pool4/3x3_s2_pool4/3x3_s2_0_split_3
I0902 16:07:54.371873 53383 net.cpp:433] inception_5a/pool -> inception_5a/pool
I0902 16:07:54.371886 53383 net.cpp:155] Setting up inception_5a/pool
I0902 16:07:54.371894 53383 net.cpp:163] Top shape: 64 832 7 7 (2609152)
I0902 16:07:54.371917 53383 layer_factory.hpp:76] Creating layer inception_5a/pool_proj
I0902 16:07:54.371932 53383 net.cpp:110] Creating Layer inception_5a/pool_proj
I0902 16:07:54.371937 53383 net.cpp:477] inception_5a/pool_proj <- inception_5a/pool
I0902 16:07:54.371945 53383 net.cpp:433] inception_5a/pool_proj -> inception_5a/pool_proj
I0902 16:07:54.377584 53383 net.cpp:155] Setting up inception_5a/pool_proj
I0902 16:07:54.377604 53383 net.cpp:163] Top shape: 64 128 7 7 (401408)
I0902 16:07:54.377616 53383 layer_factory.hpp:76] Creating layer inception_5a/relu_pool_proj
I0902 16:07:54.377629 53383 net.cpp:110] Creating Layer inception_5a/relu_pool_proj
I0902 16:07:54.377635 53383 net.cpp:477] inception_5a/relu_pool_proj <- inception_5a/pool_proj
I0902 16:07:54.377645 53383 net.cpp:419] inception_5a/relu_pool_proj -> inception_5a/pool_proj (in-place)
I0902 16:07:54.378924 53383 net.cpp:155] Setting up inception_5a/relu_pool_proj
I0902 16:07:54.378944 53383 net.cpp:163] Top shape: 64 128 7 7 (401408)
I0902 16:07:54.378952 53383 layer_factory.hpp:76] Creating layer inception_5a/output
I0902 16:07:54.378963 53383 net.cpp:110] Creating Layer inception_5a/output
I0902 16:07:54.378970 53383 net.cpp:477] inception_5a/output <- inception_5a/1x1
I0902 16:07:54.378978 53383 net.cpp:477] inception_5a/output <- inception_5a/3x3
I0902 16:07:54.378984 53383 net.cpp:477] inception_5a/output <- inception_5a/5x5
I0902 16:07:54.378990 53383 net.cpp:477] inception_5a/output <- inception_5a/pool_proj
I0902 16:07:54.378998 53383 net.cpp:433] inception_5a/output -> inception_5a/output
I0902 16:07:54.379009 53383 net.cpp:155] Setting up inception_5a/output
I0902 16:07:54.379015 53383 net.cpp:163] Top shape: 64 832 7 7 (2609152)
I0902 16:07:54.379021 53383 layer_factory.hpp:76] Creating layer inception_5a/output_inception_5a/output_0_split
I0902 16:07:54.379032 53383 net.cpp:110] Creating Layer inception_5a/output_inception_5a/output_0_split
I0902 16:07:54.379037 53383 net.cpp:477] inception_5a/output_inception_5a/output_0_split <- inception_5a/output
I0902 16:07:54.379046 53383 net.cpp:433] inception_5a/output_inception_5a/output_0_split -> inception_5a/output_inception_5a/output_0_split_0
I0902 16:07:54.379055 53383 net.cpp:433] inception_5a/output_inception_5a/output_0_split -> inception_5a/output_inception_5a/output_0_split_1
I0902 16:07:54.379066 53383 net.cpp:433] inception_5a/output_inception_5a/output_0_split -> inception_5a/output_inception_5a/output_0_split_2
I0902 16:07:54.379075 53383 net.cpp:433] inception_5a/output_inception_5a/output_0_split -> inception_5a/output_inception_5a/output_0_split_3
I0902 16:07:54.379083 53383 net.cpp:155] Setting up inception_5a/output_inception_5a/output_0_split
I0902 16:07:54.379091 53383 net.cpp:163] Top shape: 64 832 7 7 (2609152)
I0902 16:07:54.379096 53383 net.cpp:163] Top shape: 64 832 7 7 (2609152)
I0902 16:07:54.379101 53383 net.cpp:163] Top shape: 64 832 7 7 (2609152)
I0902 16:07:54.379106 53383 net.cpp:163] Top shape: 64 832 7 7 (2609152)
I0902 16:07:54.379112 53383 layer_factory.hpp:76] Creating layer inception_5b/1x1
I0902 16:07:54.379122 53383 net.cpp:110] Creating Layer inception_5b/1x1
I0902 16:07:54.379127 53383 net.cpp:477] inception_5b/1x1 <- inception_5a/output_inception_5a/output_0_split_0
I0902 16:07:54.379137 53383 net.cpp:433] inception_5b/1x1 -> inception_5b/1x1
I0902 16:07:54.386412 53383 net.cpp:155] Setting up inception_5b/1x1
I0902 16:07:54.386431 53383 net.cpp:163] Top shape: 64 384 7 7 (1204224)
I0902 16:07:54.386442 53383 layer_factory.hpp:76] Creating layer inception_5b/relu_1x1
I0902 16:07:54.386457 53383 net.cpp:110] Creating Layer inception_5b/relu_1x1
I0902 16:07:54.386464 53383 net.cpp:477] inception_5b/relu_1x1 <- inception_5b/1x1
I0902 16:07:54.386472 53383 net.cpp:419] inception_5b/relu_1x1 -> inception_5b/1x1 (in-place)
I0902 16:07:54.387919 53383 net.cpp:155] Setting up inception_5b/relu_1x1
I0902 16:07:54.387938 53383 net.cpp:163] Top shape: 64 384 7 7 (1204224)
I0902 16:07:54.387944 53383 layer_factory.hpp:76] Creating layer inception_5b/3x3_reduce
I0902 16:07:54.387975 53383 net.cpp:110] Creating Layer inception_5b/3x3_reduce
I0902 16:07:54.387984 53383 net.cpp:477] inception_5b/3x3_reduce <- inception_5a/output_inception_5a/output_0_split_1
I0902 16:07:54.388001 53383 net.cpp:433] inception_5b/3x3_reduce -> inception_5b/3x3_reduce
I0902 16:07:54.394270 53383 net.cpp:155] Setting up inception_5b/3x3_reduce
I0902 16:07:54.394290 53383 net.cpp:163] Top shape: 64 192 7 7 (602112)
I0902 16:07:54.394302 53383 layer_factory.hpp:76] Creating layer inception_5b/relu_3x3_reduce
I0902 16:07:54.394312 53383 net.cpp:110] Creating Layer inception_5b/relu_3x3_reduce
I0902 16:07:54.394320 53383 net.cpp:477] inception_5b/relu_3x3_reduce <- inception_5b/3x3_reduce
I0902 16:07:54.394330 53383 net.cpp:419] inception_5b/relu_3x3_reduce -> inception_5b/3x3_reduce (in-place)
I0902 16:07:54.395589 53383 net.cpp:155] Setting up inception_5b/relu_3x3_reduce
I0902 16:07:54.395612 53383 net.cpp:163] Top shape: 64 192 7 7 (602112)
I0902 16:07:54.395617 53383 layer_factory.hpp:76] Creating layer inception_5b/3x3
I0902 16:07:54.395630 53383 net.cpp:110] Creating Layer inception_5b/3x3
I0902 16:07:54.395637 53383 net.cpp:477] inception_5b/3x3 <- inception_5b/3x3_reduce
I0902 16:07:54.395648 53383 net.cpp:433] inception_5b/3x3 -> inception_5b/3x3
I0902 16:07:54.406576 53383 net.cpp:155] Setting up inception_5b/3x3
I0902 16:07:54.406596 53383 net.cpp:163] Top shape: 64 384 7 7 (1204224)
I0902 16:07:54.406610 53383 layer_factory.hpp:76] Creating layer inception_5b/relu_3x3
I0902 16:07:54.406622 53383 net.cpp:110] Creating Layer inception_5b/relu_3x3
I0902 16:07:54.406630 53383 net.cpp:477] inception_5b/relu_3x3 <- inception_5b/3x3
I0902 16:07:54.406636 53383 net.cpp:419] inception_5b/relu_3x3 -> inception_5b/3x3 (in-place)
I0902 16:07:54.407894 53383 net.cpp:155] Setting up inception_5b/relu_3x3
I0902 16:07:54.407912 53383 net.cpp:163] Top shape: 64 384 7 7 (1204224)
I0902 16:07:54.407920 53383 layer_factory.hpp:76] Creating layer inception_5b/5x5_reduce
I0902 16:07:54.407935 53383 net.cpp:110] Creating Layer inception_5b/5x5_reduce
I0902 16:07:54.407943 53383 net.cpp:477] inception_5b/5x5_reduce <- inception_5a/output_inception_5a/output_0_split_2
I0902 16:07:54.407953 53383 net.cpp:433] inception_5b/5x5_reduce -> inception_5b/5x5_reduce
I0902 16:07:54.412533 53383 net.cpp:155] Setting up inception_5b/5x5_reduce
I0902 16:07:54.412552 53383 net.cpp:163] Top shape: 64 48 7 7 (150528)
I0902 16:07:54.412564 53383 layer_factory.hpp:76] Creating layer inception_5b/relu_5x5_reduce
I0902 16:07:54.412576 53383 net.cpp:110] Creating Layer inception_5b/relu_5x5_reduce
I0902 16:07:54.412583 53383 net.cpp:477] inception_5b/relu_5x5_reduce <- inception_5b/5x5_reduce
I0902 16:07:54.412591 53383 net.cpp:419] inception_5b/relu_5x5_reduce -> inception_5b/5x5_reduce (in-place)
I0902 16:07:54.413837 53383 net.cpp:155] Setting up inception_5b/relu_5x5_reduce
I0902 16:07:54.413856 53383 net.cpp:163] Top shape: 64 48 7 7 (150528)
I0902 16:07:54.413864 53383 layer_factory.hpp:76] Creating layer inception_5b/5x5
I0902 16:07:54.413878 53383 net.cpp:110] Creating Layer inception_5b/5x5
I0902 16:07:54.413885 53383 net.cpp:477] inception_5b/5x5 <- inception_5b/5x5_reduce
I0902 16:07:54.413898 53383 net.cpp:433] inception_5b/5x5 -> inception_5b/5x5
I0902 16:07:54.419144 53383 net.cpp:155] Setting up inception_5b/5x5
I0902 16:07:54.419164 53383 net.cpp:163] Top shape: 64 128 7 7 (401408)
I0902 16:07:54.419176 53383 layer_factory.hpp:76] Creating layer inception_5b/relu_5x5
I0902 16:07:54.419188 53383 net.cpp:110] Creating Layer inception_5b/relu_5x5
I0902 16:07:54.419195 53383 net.cpp:477] inception_5b/relu_5x5 <- inception_5b/5x5
I0902 16:07:54.419206 53383 net.cpp:419] inception_5b/relu_5x5 -> inception_5b/5x5 (in-place)
I0902 16:07:54.420459 53383 net.cpp:155] Setting up inception_5b/relu_5x5
I0902 16:07:54.420477 53383 net.cpp:163] Top shape: 64 128 7 7 (401408)
I0902 16:07:54.420485 53383 layer_factory.hpp:76] Creating layer inception_5b/pool
I0902 16:07:54.420493 53383 layer_factory.cpp:60] CUDNN does not support padding or multiple tops. Using Caffe's own pooling layer.
I0902 16:07:54.420516 53383 net.cpp:110] Creating Layer inception_5b/pool
I0902 16:07:54.420522 53383 net.cpp:477] inception_5b/pool <- inception_5a/output_inception_5a/output_0_split_3
I0902 16:07:54.420531 53383 net.cpp:433] inception_5b/pool -> inception_5b/pool
I0902 16:07:54.420543 53383 net.cpp:155] Setting up inception_5b/pool
I0902 16:07:54.420550 53383 net.cpp:163] Top shape: 64 832 7 7 (2609152)
I0902 16:07:54.420555 53383 layer_factory.hpp:76] Creating layer inception_5b/pool_proj
I0902 16:07:54.420569 53383 net.cpp:110] Creating Layer inception_5b/pool_proj
I0902 16:07:54.420574 53383 net.cpp:477] inception_5b/pool_proj <- inception_5b/pool
I0902 16:07:54.420585 53383 net.cpp:433] inception_5b/pool_proj -> inception_5b/pool_proj
I0902 16:07:54.426298 53383 net.cpp:155] Setting up inception_5b/pool_proj
I0902 16:07:54.426318 53383 net.cpp:163] Top shape: 64 128 7 7 (401408)
I0902 16:07:54.426329 53383 layer_factory.hpp:76] Creating layer inception_5b/relu_pool_proj
I0902 16:07:54.426340 53383 net.cpp:110] Creating Layer inception_5b/relu_pool_proj
I0902 16:07:54.426347 53383 net.cpp:477] inception_5b/relu_pool_proj <- inception_5b/pool_proj
I0902 16:07:54.426355 53383 net.cpp:419] inception_5b/relu_pool_proj -> inception_5b/pool_proj (in-place)
I0902 16:07:54.427609 53383 net.cpp:155] Setting up inception_5b/relu_pool_proj
I0902 16:07:54.427628 53383 net.cpp:163] Top shape: 64 128 7 7 (401408)
I0902 16:07:54.427634 53383 layer_factory.hpp:76] Creating layer inception_5b/output
I0902 16:07:54.427645 53383 net.cpp:110] Creating Layer inception_5b/output
I0902 16:07:54.427651 53383 net.cpp:477] inception_5b/output <- inception_5b/1x1
I0902 16:07:54.427660 53383 net.cpp:477] inception_5b/output <- inception_5b/3x3
I0902 16:07:54.427666 53383 net.cpp:477] inception_5b/output <- inception_5b/5x5
I0902 16:07:54.427672 53383 net.cpp:477] inception_5b/output <- inception_5b/pool_proj
I0902 16:07:54.427681 53383 net.cpp:433] inception_5b/output -> inception_5b/output
I0902 16:07:54.427693 53383 net.cpp:155] Setting up inception_5b/output
I0902 16:07:54.427700 53383 net.cpp:163] Top shape: 64 1024 7 7 (3211264)
I0902 16:07:54.427706 53383 layer_factory.hpp:76] Creating layer pool5/7x7_s1
I0902 16:07:54.427714 53383 net.cpp:110] Creating Layer pool5/7x7_s1
I0902 16:07:54.427719 53383 net.cpp:477] pool5/7x7_s1 <- inception_5b/output
I0902 16:07:54.427727 53383 net.cpp:433] pool5/7x7_s1 -> pool5/7x7_s1
I0902 16:07:54.428978 53383 net.cpp:155] Setting up pool5/7x7_s1
I0902 16:07:54.429005 53383 net.cpp:163] Top shape: 64 1024 1 1 (65536)
I0902 16:07:54.429013 53383 layer_factory.hpp:76] Creating layer pool5/drop_7x7_s1
I0902 16:07:54.429024 53383 net.cpp:110] Creating Layer pool5/drop_7x7_s1
I0902 16:07:54.429031 53383 net.cpp:477] pool5/drop_7x7_s1 <- pool5/7x7_s1
I0902 16:07:54.429039 53383 net.cpp:419] pool5/drop_7x7_s1 -> pool5/7x7_s1 (in-place)
I0902 16:07:54.429049 53383 net.cpp:155] Setting up pool5/drop_7x7_s1
I0902 16:07:54.429056 53383 net.cpp:163] Top shape: 64 1024 1 1 (65536)
I0902 16:07:54.429061 53383 layer_factory.hpp:76] Creating layer loss3/classifier_cub
I0902 16:07:54.429076 53383 net.cpp:110] Creating Layer loss3/classifier_cub
I0902 16:07:54.429081 53383 net.cpp:477] loss3/classifier_cub <- pool5/7x7_s1
I0902 16:07:54.429095 53383 net.cpp:433] loss3/classifier_cub -> loss3/classifier
I0902 16:07:54.437538 53383 net.cpp:155] Setting up loss3/classifier_cub
I0902 16:07:54.437556 53383 net.cpp:163] Top shape: 64 200 (12800)
I0902 16:07:54.437567 53383 layer_factory.hpp:76] Creating layer loss3/classifier_loss3/classifier_cub_0_split
I0902 16:07:54.437579 53383 net.cpp:110] Creating Layer loss3/classifier_loss3/classifier_cub_0_split
I0902 16:07:54.437585 53383 net.cpp:477] loss3/classifier_loss3/classifier_cub_0_split <- loss3/classifier
I0902 16:07:54.437593 53383 net.cpp:433] loss3/classifier_loss3/classifier_cub_0_split -> loss3/classifier_loss3/classifier_cub_0_split_0
I0902 16:07:54.437607 53383 net.cpp:433] loss3/classifier_loss3/classifier_cub_0_split -> loss3/classifier_loss3/classifier_cub_0_split_1
I0902 16:07:54.437630 53383 net.cpp:433] loss3/classifier_loss3/classifier_cub_0_split -> loss3/classifier_loss3/classifier_cub_0_split_2
I0902 16:07:54.437643 53383 net.cpp:155] Setting up loss3/classifier_loss3/classifier_cub_0_split
I0902 16:07:54.437649 53383 net.cpp:163] Top shape: 64 200 (12800)
I0902 16:07:54.437654 53383 net.cpp:163] Top shape: 64 200 (12800)
I0902 16:07:54.437660 53383 net.cpp:163] Top shape: 64 200 (12800)
I0902 16:07:54.437665 53383 layer_factory.hpp:76] Creating layer loss3/loss3
I0902 16:07:54.437675 53383 net.cpp:110] Creating Layer loss3/loss3
I0902 16:07:54.437681 53383 net.cpp:477] loss3/loss3 <- loss3/classifier_loss3/classifier_cub_0_split_0
I0902 16:07:54.437688 53383 net.cpp:477] loss3/loss3 <- label_data_1_split_6
I0902 16:07:54.437698 53383 net.cpp:433] loss3/loss3 -> loss3/loss3
…
