…
I0902 19:47:39.741005 54817 net.cpp:339] The NetState phase (0) differed from the phase (1) specified by a rule in layer loss3/top-5
I0902 19:47:39.742983 54817 net.cpp:50] Initializing net from parameters: 
name: "CUBNet"
state {
  phase: TRAIN
}
layer {
  name: "data"
  type: "Data"
  top: "data"
  top: "label"
  include {
    phase: TRAIN
  }
  transform_param {
    mirror: true
    crop_size: 224
    mean_value: 104
    mean_value: 117
    mean_value: 123
  }
  data_param {
    source: "data/cub_train"
    batch_size: 32
    backend: LMDB
  }
}
layer {
  name: "conv1/7x7_s2"
  type: "Convolution"
  bottom: "data"
  top: "conv1/7x7_s2"
  param {
    lr_mult: 1
    decay_mult: 1
  }
  param {
    lr_mult: 2
    decay_mult: 0
  }
  convolution_param {
    num_output: 64
    pad: 3
    kernel_size: 7
    stride: 2
    weight_filler {
      type: "xavier"
      std: 0.1
    }
    bias_filler {
      type: "constant"
      value: 0.2
    }
  }
}
layer {
  name: "conv1/relu_7x7"
  type: "ReLU"
  bottom: "conv1/7x7_s2"
  top: "conv1/7x7_s2"
}
layer {
  name: "pool1/3x3_s2"
  type: "Pooling"
  bottom: "conv1/7x7_s2"
  top: "pool1/3x3_s2"
  pooling_param {
    pool: MAX
    kernel_size: 3
    stride: 2
  }
}
layer {
  name: "pool1/norm1"
  type: "LRN"
  bottom: "pool1/3x3_s2"
  top: "pool1/norm1"
  lrn_param {
    local_size: 5
    alpha: 0.0001
    beta: 0.75
  }
}
layer {
  name: "conv2/3x3_reduce"
  type: "Convolution"
  bottom: "pool1/norm1"
  top: "conv2/3x3_reduce"
  param {
    lr_mult: 1
    decay_mult: 1
  }
  param {
    lr_mult: 2
    decay_mult: 0
  }
  convolution_param {
    num_output: 64
    kernel_size: 1
    weight_filler {
      type: "xavier"
      std: 0.1
    }
    bias_filler {
      type: "constant"
      value: 0.2
    }
  }
}
layer {
  name: "conv2/relu_3x3_reduce"
  type: "ReLU"
  bottom: "conv2/3x3_reduce"
  top: "conv2/3x3_reduce"
}
layer {
  name: "conv2/3x3"
  type: "Convolution"
  bottom: "conv2/3x3_reduce"
  top: "conv2/3x3"
  param {
    lr_mult: 1
    decay_mult: 1
  }
  param {
    lr_mult: 2
    decay_mult: 0
  }
  convolution_param {
    num_output: 192
    pad: 1
    kernel_size: 3
    weight_filler {
      type: "xavier"
      std: 0.03
    }
    bias_filler {
      type: "constant"
      value: 0.2
    }
  }
}
layer {
  name: "conv2/relu_3x3"
  type: "ReLU"
  bottom: "conv2/3x3"
  top: "conv2/3x3"
}
layer {
  name: "conv2/norm2"
  type: "LRN"
  bottom: "conv2/3x3"
  top: "conv2/norm2"
  lrn_param {
    local_size: 5
    alpha: 0.0001
    beta: 0.75
  }
}
layer {
  name: "pool2/3x3_s2"
  type: "Pooling"
  bottom: "conv2/norm2"
  top: "pool2/3x3_s2"
  pooling_param {
    pool: MAX
    kernel_size: 3
    stride: 2
  }
}
layer {
  name: "inception_3a/1x1"
  type: "Convolution"
  bottom: "pool2/3x3_s2"
  top: "inception_3a/1x1"
  param {
    lr_mult: 1
    decay_mult: 1
  }
  param {
    lr_mult: 2
    decay_mult: 0
  }
  convolution_param {
    num_output: 64
    kernel_size: 1
    weight_filler {
      type: "xavier"
      std: 0.03
    }
    bias_filler {
      type: "constant"
      value: 0.2
    }
  }
}
layer {
  name: "inception_3a/relu_1x1"
  type: "ReLU"
  bottom: "inception_3a/1x1"
  top: "inception_3a/1x1"
}
layer {
  name: "inception_3a/3x3_reduce"
  type: "Convolution"
  bottom: "pool2/3x3_s2"
  top: "inception_3a/3x3_reduce"
  param {
    lr_mult: 1
    decay_mult: 1
  }
  param {
    lr_mult: 2
    decay_mult: 0
  }
  convolution_param {
    num_output: 96
    kernel_size: 1
    weight_filler {
      type: "xavier"
      std: 0.09
    }
    bias_filler {
      type: "constant"
      value: 0.2
    }
  }
}
layer {
  name: "inception_3a/relu_3x3_reduce"
  type: "ReLU"
  bottom: "inception_3a/3x3_reduce"
  top: "inception_3a/3x3_reduce"
}
layer {
  name: "inception_3a/3x3"
  type: "Convolution"
  bottom: "inception_3a/3x3_reduce"
  top: "inception_3a/3x3"
  param {
    lr_mult: 1
    decay_mult: 1
  }
  param {
    lr_mult: 2
    decay_mult: 0
  }
  convolution_param {
    num_output: 128
    pad: 1
    kernel_size: 3
    weight_filler {
      type: "xavier"
      std: 0.03
    }
    bias_filler {
      type: "constant"
      value: 0.2
    }
  }
}
layer {
  name: "inception_3a/relu_3x3"
  type: "ReLU"
  bottom: "inception_3a/3x3"
  top: "inception_3a/3x3"
}
layer {
  name: "inception_3a/5x5_reduce"
  type: "Convolution"
  bottom: "pool2/3x3_s2"
  top: "inception_3a/5x5_reduce"
  param {
    lr_mult: 1
    decay_mult: 1
  }
  param {
    lr_mult: 2
    decay_mult: 0
  }
  convolution_param {
    num_output: 16
    kernel_size: 1
    weight_filler {
      type: "xavier"
      std: 0.2
    }
    bias_filler {
      type: "constant"
      value: 0.2
    }
  }
}
layer {
  name: "inception_3a/relu_5x5_reduce"
  type: "ReLU"
  bottom: "inception_3a/5x5_reduce"
  top: "inception_3a/5x5_reduce"
}
layer {
  name: "inception_3a/5x5"
  type: "Convolution"
  bottom: "inception_3a/5x5_reduce"
  top: "inception_3a/5x5"
  param {
    lr_mult: 1
    decay_mult: 1
  }
  param {
    lr_mult: 2
    decay_mult: 0
  }
  convolution_param {
    num_output: 32
    pad: 2
    kernel_size: 5
    weight_filler {
      type: "xavier"
      std: 0.03
    }
    bias_filler {
      type: "constant"
      value: 0.2
    }
  }
}
layer {
  name: "inception_3a/relu_5x5"
  type: "ReLU"
  bottom: "inception_3a/5x5"
  top: "inception_3a/5x5"
}
layer {
  name: "inception_3a/pool"
  type: "Pooling"
  bottom: "pool2/3x3_s2"
  top: "inception_3a/pool"
  pooling_param {
    pool: MAX
    kernel_size: 3
    stride: 1
    pad: 1
  }
}
layer {
  name: "inception_3a/pool_proj"
  type: "Convolution"
  bottom: "inception_3a/pool"
  top: "inception_3a/pool_proj"
  param {
    lr_mult: 1
    decay_mult: 1
  }
  param {
    lr_mult: 2
    decay_mult: 0
  }
  convolution_param {
    num_output: 32
    kernel_size: 1
    weight_filler {
      type: "xavier"
      std: 0.1
    }
    bias_filler {
      type: "constant"
      value: 0.2
    }
  }
}
layer {
  name: "inception_3a/relu_pool_proj"
  type: "ReLU"
  bottom: "inception_3a/pool_proj"
  top: "inception_3a/pool_proj"
}
layer {
  name: "inception_3a/output"
  type: "Concat"
  bottom: "inception_3a/1x1"
  bottom: "inception_3a/3x3"
  bottom: "inception_3a/5x5"
  bottom: "inception_3a/pool_proj"
  top: "inception_3a/output"
}
layer {
  name: "inception_3b/1x1"
  type: "Convolution"
  bottom: "inception_3a/output"
  top: "inception_3b/1x1"
  param {
    lr_mult: 1
    decay_mult: 1
  }
  param {
    lr_mult: 2
    decay_mult: 0
  }
  convolution_param {
    num_output: 128
    kernel_size: 1
    weight_filler {
      type: "xavier"
      std: 0.03
    }
    bias_filler {
      type: "constant"
      value: 0.2
    }
  }
}
layer {
  name: "inception_3b/relu_1x1"
  type: "ReLU"
  bottom: "inception_3b/1x1"
  top: "inception_3b/1x1"
}
layer {
  name: "inception_3b/3x3_reduce"
  type: "Convolution"
  bottom: "inception_3a/output"
  top: "inception_3b/3x3_reduce"
  param {
    lr_mult: 1
    decay_mult: 1
  }
  param {
    lr_mult: 2
    decay_mult: 0
  }
  convolution_param {
    num_output: 128
    kernel_size: 1
    weight_filler {
      type: "xavier"
      std: 0.09
    }
    bias_filler {
      type: "constant"
      value: 0.2
    }
  }
}
layer {
  name: "inception_3b/relu_3x3_reduce"
  type: "ReLU"
  bottom: "inception_3b/3x3_reduce"
  top: "inception_3b/3x3_reduce"
}
layer {
  name: "inception_3b/3x3"
  type: "Convolution"
  bottom: "inception_3b/3x3_reduce"
  top: "inception_3b/3x3"
  param {
    lr_mult: 1
    decay_mult: 1
  }
  param {
    lr_mult: 2
    decay_mult: 0
  }
  convolution_param {
    num_output: 192
    pad: 1
    kernel_size: 3
    weight_filler {
      type: "xavier"
      std: 0.03
    }
    bias_filler {
      type: "constant"
      value: 0.2
    }
  }
}
layer {
  name: "inception_3b/relu_3x3"
  type: "ReLU"
  bottom: "inception_3b/3x3"
  top: "inception_3b/3x3"
}
layer {
  name: "inception_3b/5x5_reduce"
  type: "Convolution"
  bottom: "inception_3a/output"
  top: "inception_3b/5x5_reduce"
  param {
    lr_mult: 1
    decay_mult: 1
  }
  param {
    lr_mult: 2
    decay_mult: 0
  }
  convolution_param {
    num_output: 32
    kernel_size: 1
    weight_filler {
      type: "xavier"
      std: 0.2
    }
    bias_filler {
      type: "constant"
      value: 0.2
    }
  }
}
layer {
  name: "inception_3b/relu_5x5_reduce"
  type: "ReLU"
  bottom: "inception_3b/5x5_reduce"
  top: "inception_3b/5x5_reduce"
}
layer {
  name: "inception_3b/5x5"
  type: "Convolution"
  bottom: "inception_3b/5x5_reduce"
  top: "inception_3b/5x5"
  param {
    lr_mult: 1
    decay_mult: 1
  }
  param {
    lr_mult: 2
    decay_mult: 0
  }
  convolution_param {
    num_output: 96
    pad: 2
    kernel_size: 5
    weight_filler {
      type: "xavier"
      std: 0.03
    }
    bias_filler {
      type: "constant"
      value: 0.2
    }
  }
}
layer {
  name: "inception_3b/relu_5x5"
  type: "ReLU"
  bottom: "inception_3b/5x5"
  top: "inception_3b/5x5"
}
layer {
  name: "inception_3b/pool"
  type: "Pooling"
  bottom: "inception_3a/output"
  top: "inception_3b/pool"
  pooling_param {
    pool: MAX
    kernel_size: 3
    stride: 1
    pad: 1
  }
}
layer {
  name: "inception_3b/pool_proj"
  type: "Convolution"
  bottom: "inception_3b/pool"
  top: "inception_3b/pool_proj"
  param {
    lr_mult: 1
    decay_mult: 1
  }
  param {
    lr_mult: 2
    decay_mult: 0
  }
  convolution_param {
    num_output: 64
    kernel_size: 1
    weight_filler {
      type: "xavier"
      std: 0.1
    }
    bias_filler {
      type: "constant"
      value: 0.2
    }
  }
}
layer {
  name: "inception_3b/relu_pool_proj"
  type: "ReLU"
  bottom: "inception_3b/pool_proj"
  top: "inception_3b/pool_proj"
}
layer {
  name: "inception_3b/output"
  type: "Concat"
  bottom: "inception_3b/1x1"
  bottom: "inception_3b/3x3"
  bottom: "inception_3b/5x5"
  bottom: "inception_3b/pool_proj"
  top: "inception_3b/output"
}
layer {
  name: "pool3/3x3_s2"
  type: "Pooling"
  bottom: "inception_3b/output"
  top: "pool3/3x3_s2"
  pooling_param {
    pool: MAX
    kernel_size: 3
    stride: 2
  }
}
layer {
  name: "inception_4a/1x1"
  type: "Convolution"
  bottom: "pool3/3x3_s2"
  top: "inception_4a/1x1"
  param {
    lr_mult: 1
    decay_mult: 1
  }
  param {
    lr_mult: 2
    decay_mult: 0
  }
  convolution_param {
    num_output: 192
    kernel_size: 1
    weight_filler {
      type: "xavier"
      std: 0.03
    }
    bias_filler {
      type: "constant"
      value: 0.2
    }
  }
}
layer {
  name: "inception_4a/relu_1x1"
  type: "ReLU"
  bottom: "inception_4a/1x1"
  top: "inception_4a/1x1"
}
layer {
  name: "inception_4a/3x3_reduce"
  type: "Convolution"
  bottom: "pool3/3x3_s2"
  top: "inception_4a/3x3_reduce"
  param {
    lr_mult: 1
    decay_mult: 1
  }
  param {
    lr_mult: 2
    decay_mult: 0
  }
  convolution_param {
    num_output: 96
    kernel_size: 1
    weight_filler {
      type: "xavier"
      std: 0.09
    }
    bias_filler {
      type: "constant"
      value: 0.2
    }
  }
}
layer {
  name: "inception_4a/relu_3x3_reduce"
  type: "ReLU"
  bottom: "inception_4a/3x3_reduce"
  top: "inception_4a/3x3_reduce"
}
layer {
  name: "inception_4a/3x3"
  type: "Convolution"
  bottom: "inception_4a/3x3_reduce"
  top: "inception_4a/3x3"
  param {
    lr_mult: 1
    decay_mult: 1
  }
  param {
    lr_mult: 2
    decay_mult: 0
  }
  convolution_param {
    num_output: 208
    pad: 1
    kernel_size: 3
    weight_filler {
      type: "xavier"
      std: 0.03
    }
    bias_filler {
      type: "constant"
      value: 0.2
    }
  }
}
layer {
  name: "inception_4a/relu_3x3"
  type: "ReLU"
  bottom: "inception_4a/3x3"
  top: "inception_4a/3x3"
}
layer {
  name: "inception_4a/5x5_reduce"
  type: "Convolution"
  bottom: "pool3/3x3_s2"
  top: "inception_4a/5x5_reduce"
  param {
    lr_mult: 1
    decay_mult: 1
  }
  param {
    lr_mult: 2
    decay_mult: 0
  }
  convolution_param {
    num_output: 16
    kernel_size: 1
    weight_filler {
      type: "xavier"
      std: 0.2
    }
    bias_filler {
      type: "constant"
      value: 0.2
    }
  }
}
layer {
  name: "inception_4a/relu_5x5_reduce"
  type: "ReLU"
  bottom: "inception_4a/5x5_reduce"
  top: "inception_4a/5x5_reduce"
}
layer {
  name: "inception_4a/5x5"
  type: "Convolution"
  bottom: "inception_4a/5x5_reduce"
  top: "inception_4a/5x5"
  param {
    lr_mult: 1
    decay_mult: 1
  }
  param {
    lr_mult: 2
    decay_mult: 0
  }
  convolution_param {
    num_output: 48
    pad: 2
    kernel_size: 5
    weight_filler {
      type: "xavier"
      std: 0.03
    }
    bias_filler {
      type: "constant"
      value: 0.2
    }
  }
}
layer {
  name: "inception_4a/relu_5x5"
  type: "ReLU"
  bottom: "inception_4a/5x5"
  top: "inception_4a/5x5"
}
layer {
  name: "inception_4a/pool"
  type: "Pooling"
  bottom: "pool3/3x3_s2"
  top: "inception_4a/pool"
  pooling_param {
    pool: MAX
    kernel_size: 3
    stride: 1
    pad: 1
  }
}
layer {
  name: "inception_4a/pool_proj"
  type: "Convolution"
  bottom: "inception_4a/pool"
  top: "inception_4a/pool_proj"
  param {
    lr_mult: 1
    decay_mult: 1
  }
  param {
    lr_mult: 2
    decay_mult: 0
  }
  convolution_param {
    num_output: 64
    kernel_size: 1
    weight_filler {
      type: "xavier"
      std: 0.1
    }
    bias_filler {
      type: "constant"
      value: 0.2
    }
  }
}
layer {
  name: "inception_4a/relu_pool_proj"
  type: "ReLU"
  bottom: "inception_4a/pool_proj"
  top: "inception_4a/pool_proj"
}
layer {
  name: "inception_4a/output"
  type: "Concat"
  bottom: "inception_4a/1x1"
  bottom: "inception_4a/3x3"
  bottom: "inception_4a/5x5"
  bottom: "inception_4a/pool_proj"
  top: "inception_4a/output"
}
layer {
  name: "loss1/ave_pool"
  type: "Pooling"
  bottom: "inception_4a/output"
  top: "loss1/ave_pool"
  pooling_param {
    pool: AVE
    kernel_size: 5
    stride: 3
  }
}
layer {
  name: "loss1/conv"
  type: "Convolution"
  bottom: "loss1/ave_pool"
  top: "loss1/conv"
  param {
    lr_mult: 1
    decay_mult: 1
  }
  param {
    lr_mult: 2
    decay_mult: 0
  }
  convolution_param {
    num_output: 128
    kernel_size: 1
    weight_filler {
      type: "xavier"
      std: 0.08
    }
    bias_filler {
      type: "constant"
      value: 0.2
    }
  }
}
layer {
  name: "loss1/relu_conv"
  type: "ReLU"
  bottom: "loss1/conv"
  top: "loss1/conv"
}
layer {
  name: "loss1/fc"
  type: "InnerProduct"
  bottom: "loss1/conv"
  top: "loss1/fc"
  param {
    lr_mult: 1
    decay_mult: 1
  }
  param {
    lr_mult: 2
    decay_mult: 0
  }
  inner_product_param {
    num_output: 1024
    weight_filler {
      type: "xavier"
      std: 0.02
    }
    bias_filler {
      type: "constant"
      value: 0.2
    }
  }
}
layer {
  name: "loss1/relu_fc"
  type: "ReLU"
  bottom: "loss1/fc"
  top: "loss1/fc"
}
layer {
  name: "loss1/drop_fc"
  type: "Dropout"
  bottom: "loss1/fc"
  top: "loss1/fc"
  dropout_param {
    dropout_ratio: 0.7
  }
}
layer {
  name: "loss1/classifier_cub"
  type: "InnerProduct"
  bottom: "loss1/fc"
  top: "loss1/classifier"
  param {
    lr_mult: 1
    decay_mult: 1
  }
  param {
    lr_mult: 2
    decay_mult: 0
  }
  inner_product_param {
    num_output: 200
    weight_filler {
      type: "gaussian"
      std: 1e-05
    }
    bias_filler {
      type: "constant"
      value: 0
    }
  }
}
layer {
  name: "loss1/loss"
  type: "SoftmaxWithLoss"
  bottom: "loss1/classifier"
  bottom: "label"
  top: "loss1/loss1"
  loss_weight: 0.3
}
layer {
  name: "inception_4b/1x1"
  type: "Convolution"
  bottom: "inception_4a/output"
  top: "inception_4b/1x1"
  param {
    lr_mult: 1
    decay_mult: 1
  }
  param {
    lr_mult: 2
    decay_mult: 0
  }
  convolution_param {
    num_output: 160
    kernel_size: 1
    weight_filler {
      type: "xavier"
      std: 0.03
    }
    bias_filler {
      type: "constant"
      value: 0.2
    }
  }
}
layer {
  name: "inception_4b/relu_1x1"
  type: "ReLU"
  bottom: "inception_4b/1x1"
  top: "inception_4b/1x1"
}
layer {
  name: "inception_4b/3x3_reduce"
  type: "Convolution"
  bottom: "inception_4a/output"
  top: "inception_4b/3x3_reduce"
  param {
    lr_mult: 1
    decay_mult: 1
  }
  param {
    lr_mult: 2
    decay_mult: 0
  }
  convolution_param {
    num_output: 112
    kernel_size: 1
    weight_filler {
      type: "xavier"
      std: 0.09
    }
    bias_filler {
      type: "constant"
      value: 0.2
    }
  }
}
layer {
  name: "inception_4b/relu_3x3_reduce"
  type: "ReLU"
  bottom: "inception_4b/3x3_reduce"
  top: "inception_4b/3x3_reduce"
}
layer {
  name: "inception_4b/3x3"
  type: "Convolution"
  bottom: "inception_4b/3x3_reduce"
  top: "inception_4b/3x3"
  param {
    lr_mult: 1
    decay_mult: 1
  }
  param {
    lr_mult: 2
    decay_mult: 0
  }
  convolution_param {
    num_output: 224
    pad: 1
    kernel_size: 3
    weight_filler {
      type: "xavier"
      std: 0.03
    }
    bias_filler {
      type: "constant"
      value: 0.2
    }
  }
}
layer {
  name: "inception_4b/relu_3x3"
  type: "ReLU"
  bottom: "inception_4b/3x3"
  top: "inception_4b/3x3"
}
layer {
  name: "inception_4b/5x5_reduce"
  type: "Convolution"
  bottom: "inception_4a/output"
  top: "inception_4b/5x5_reduce"
  param {
    lr_mult: 1
    decay_mult: 1
  }
  param {
    lr_mult: 2
    decay_mult: 0
  }
  convolution_param {
    num_output: 24
    kernel_size: 1
    weight_filler {
      type: "xavier"
      std: 0.2
    }
    bias_filler {
      type: "constant"
      value: 0.2
    }
  }
}
layer {
  name: "inception_4b/relu_5x5_reduce"
  type: "ReLU"
  bottom: "inception_4b/5x5_reduce"
  top: "inception_4b/5x5_reduce"
}
layer {
  name: "inception_4b/5x5"
  type: "Convolution"
  bottom: "inception_4b/5x5_reduce"
  top: "inception_4b/5x5"
  param {
    lr_mult: 1
    decay_mult: 1
  }
  param {
    lr_mult: 2
    decay_mult: 0
  }
  convolution_param {
    num_output: 64
    pad: 2
    kernel_size: 5
    weight_filler {
      type: "xavier"
      std: 0.03
    }
    bias_filler {
      type: "constant"
      value: 0.2
    }
  }
}
layer {
  name: "inception_4b/relu_5x5"
  type: "ReLU"
  bottom: "inception_4b/5x5"
  top: "inception_4b/5x5"
}
layer {
  name: "inception_4b/pool"
  type: "Pooling"
  bottom: "inception_4a/output"
  top: "inception_4b/pool"
  pooling_param {
    pool: MAX
    kernel_size: 3
    stride: 1
    pad: 1
  }
}
layer {
  name: "inception_4b/pool_proj"
  type: "Convolution"
  bottom: "inception_4b/pool"
  top: "inception_4b/pool_proj"
  param {
    lr_mult: 1
    decay_mult: 1
  }
  param {
    lr_mult: 2
    decay_mult: 0
  }
  convolution_param {
    num_output: 64
    kernel_size: 1
    weight_filler {
      type: "xavier"
      std: 0.1
    }
    bias_filler {
      type: "constant"
      value: 0.2
    }
  }
}
layer {
  name: "inception_4b/relu_pool_proj"
  type: "ReLU"
  bottom: "inception_4b/pool_proj"
  top: "inception_4b/pool_proj"
}
layer {
  name: "inception_4b/output"
  type: "Concat"
  bottom: "inception_4b/1x1"
  bottom: "inception_4b/3x3"
  bottom: "inception_4b/5x5"
  bottom: "inception_4b/pool_proj"
  top: "inception_4b/output"
}
layer {
  name: "inception_4c/1x1"
  type: "Convolution"
  bottom: "inception_4b/output"
  top: "inception_4c/1x1"
  param {
    lr_mult: 1
    decay_mult: 1
  }
  param {
    lr_mult: 2
    decay_mult: 0
  }
  convolution_param {
    num_output: 128
    kernel_size: 1
    weight_filler {
      type: "xavier"
      std: 0.03
    }
    bias_filler {
      type: "constant"
      value: 0.2
    }
  }
}
layer {
  name: "inception_4c/relu_1x1"
  type: "ReLU"
  bottom: "inception_4c/1x1"
  top: "inception_4c/1x1"
}
layer {
  name: "inception_4c/3x3_reduce"
  type: "Convolution"
  bottom: "inception_4b/output"
  top: "inception_4c/3x3_reduce"
  param {
    lr_mult: 1
    decay_mult: 1
  }
  param {
    lr_mult: 2
    decay_mult: 0
  }
  convolution_param {
    num_output: 128
    kernel_size: 1
    weight_filler {
      type: "xavier"
      std: 0.09
    }
    bias_filler {
      type: "constant"
      value: 0.2
    }
  }
}
layer {
  name: "inception_4c/relu_3x3_reduce"
  type: "ReLU"
  bottom: "inception_4c/3x3_reduce"
  top: "inception_4c/3x3_reduce"
}
layer {
  name: "inception_4c/3x3"
  type: "Convolution"
  bottom: "inception_4c/3x3_reduce"
  top: "inception_4c/3x3"
  param {
    lr_mult: 1
    decay_mult: 1
  }
  param {
    lr_mult: 2
    decay_mult: 0
  }
  convolution_param {
    num_output: 256
    pad: 1
    kernel_size: 3
    weight_filler {
      type: "xavier"
      std: 0.03
    }
    bias_filler {
      type: "constant"
      value: 0.2
    }
  }
}
layer {
  name: "inception_4c/relu_3x3"
  type: "ReLU"
  bottom: "inception_4c/3x3"
  top: "inception_4c/3x3"
}
layer {
  name: "inception_4c/5x5_reduce"
  type: "Convolution"
  bottom: "inception_4b/output"
  top: "inception_4c/5x5_reduce"
  param {
    lr_mult: 1
    decay_mult: 1
  }
  param {
    lr_mult: 2
    decay_mult: 0
  }
  convolution_param {
    num_output: 24
    kernel_size: 1
    weight_filler {
      type: "xavier"
      std: 0.2
    }
    bias_filler {
      type: "constant"
      value: 0.2
    }
  }
}
layer {
  name: "inception_4c/relu_5x5_reduce"
  type: "ReLU"
  bottom: "inception_4c/5x5_reduce"
  top: "inception_4c/5x5_reduce"
}
layer {
  name: "inception_4c/5x5"
  type: "Convolution"
  bottom: "inception_4c/5x5_reduce"
  top: "inception_4c/5x5"
  param {
    lr_mult: 1
    decay_mult: 1
  }
  param {
    lr_mult: 2
    decay_mult: 0
  }
  convolution_param {
    num_output: 64
    pad: 2
    kernel_size: 5
    weight_filler {
      type: "xavier"
      std: 0.03
    }
    bias_filler {
      type: "constant"
      value: 0.2
    }
  }
}
layer {
  name: "inception_4c/relu_5x5"
  type: "ReLU"
  bottom: "inception_4c/5x5"
  top: "inception_4c/5x5"
}
layer {
  name: "inception_4c/pool"
  type: "Pooling"
  bottom: "inception_4b/output"
  top: "inception_4c/pool"
  pooling_param {
    pool: MAX
    kernel_size: 3
    stride: 1
    pad: 1
  }
}
layer {
  name: "inception_4c/pool_proj"
  type: "Convolution"
  bottom: "inception_4c/pool"
  top: "inception_4c/pool_proj"
  param {
    lr_mult: 1
    decay_mult: 1
  }
  param {
    lr_mult: 2
    decay_mult: 0
  }
  convolution_param {
    num_output: 64
    kernel_size: 1
    weight_filler {
      type: "xavier"
      std: 0.1
    }
    bias_filler {
      type: "constant"
      value: 0.2
    }
  }
}
layer {
  name: "inception_4c/relu_pool_proj"
  type: "ReLU"
  bottom: "inception_4c/pool_proj"
  top: "inception_4c/pool_proj"
}
layer {
  name: "inception_4c/output"
  type: "Concat"
  bottom: "inception_4c/1x1"
  bottom: "inception_4c/3x3"
  bottom: "inception_4c/5x5"
  bottom: "inception_4c/pool_proj"
  top: "inception_4c/output"
}
layer {
  name: "inception_4d/1x1"
  type: "Convolution"
  bottom: "inception_4c/output"
  top: "inception_4d/1x1"
  param {
    lr_mult: 1
    decay_mult: 1
  }
  param {
    lr_mult: 2
    decay_mult: 0
  }
  convolution_param {
    num_output: 112
    kernel_size: 1
    weight_filler {
      type: "xavier"
      std: 0.03
    }
    bias_filler {
      type: "constant"
      value: 0.2
    }
  }
}
layer {
  name: "inception_4d/relu_1x1"
  type: "ReLU"
  bottom: "inception_4d/1x1"
  top: "inception_4d/1x1"
}
layer {
  name: "inception_4d/3x3_reduce"
  type: "Convolution"
  bottom: "inception_4c/output"
  top: "inception_4d/3x3_reduce"
  param {
    lr_mult: 1
    decay_mult: 1
  }
  param {
    lr_mult: 2
    decay_mult: 0
  }
  convolution_param {
    num_output: 144
    kernel_size: 1
    weight_filler {
      type: "xavier"
      std: 0.09
    }
    bias_filler {
      type: "constant"
      value: 0.2
    }
  }
}
layer {
  name: "inception_4d/relu_3x3_reduce"
  type: "ReLU"
  bottom: "inception_4d/3x3_reduce"
  top: "inception_4d/3x3_reduce"
}
layer {
  name: "inception_4d/3x3"
  type: "Convolution"
  bottom: "inception_4d/3x3_reduce"
  top: "inception_4d/3x3"
  param {
    lr_mult: 1
    decay_mult: 1
  }
  param {
    lr_mult: 2
    decay_mult: 0
  }
  convolution_param {
    num_output: 288
    pad: 1
    kernel_size: 3
    weight_filler {
      type: "xavier"
      std: 0.03
    }
    bias_filler {
      type: "constant"
      value: 0.2
    }
  }
}
layer {
  name: "inception_4d/relu_3x3"
  type: "ReLU"
  bottom: "inception_4d/3x3"
  top: "inception_4d/3x3"
}
layer {
  name: "inception_4d/5x5_reduce"
  type: "Convolution"
  bottom: "inception_4c/output"
  top: "inception_4d/5x5_reduce"
  param {
    lr_mult: 1
    decay_mult: 1
  }
  param {
    lr_mult: 2
    decay_mult: 0
  }
  convolution_param {
    num_output: 32
    kernel_size: 1
    weight_filler {
      type: "xavier"
      std: 0.2
    }
    bias_filler {
      type: "constant"
      value: 0.2
    }
  }
}
layer {
  name: "inception_4d/relu_5x5_reduce"
  type: "ReLU"
  bottom: "inception_4d/5x5_reduce"
  top: "inception_4d/5x5_reduce"
}
layer {
  name: "inception_4d/5x5"
  type: "Convolution"
  bottom: "inception_4d/5x5_reduce"
  top: "inception_4d/5x5"
  param {
    lr_mult: 1
    decay_mult: 1
  }
  param {
    lr_mult: 2
    decay_mult: 0
  }
  convolution_param {
    num_output: 64
    pad: 2
    kernel_size: 5
    weight_filler {
      type: "xavier"
      std: 0.03
    }
    bias_filler {
      type: "constant"
      value: 0.2
    }
  }
}
layer {
  name: "inception_4d/relu_5x5"
  type: "ReLU"
  bottom: "inception_4d/5x5"
  top: "inception_4d/5x5"
}
layer {
  name: "inception_4d/pool"
  type: "Pooling"
  bottom: "inception_4c/output"
  top: "inception_4d/pool"
  pooling_param {
    pool: MAX
    kernel_size: 3
    stride: 1
    pad: 1
  }
}
layer {
  name: "inception_4d/pool_proj"
  type: "Convolution"
  bottom: "inception_4d/pool"
  top: "inception_4d/pool_proj"
  param {
    lr_mult: 1
    decay_mult: 1
  }
  param {
    lr_mult: 2
    decay_mult: 0
  }
  convolution_param {
    num_output: 64
    kernel_size: 1
    weight_filler {
      type: "xavier"
      std: 0.1
    }
    bias_filler {
      type: "constant"
      value: 0.2
    }
  }
}
layer {
  name: "inception_4d/relu_pool_proj"
  type: "ReLU"
  bottom: "inception_4d/pool_proj"
  top: "inception_4d/pool_proj"
}
layer {
  name: "inception_4d/output"
  type: "Concat"
  bottom: "inception_4d/1x1"
  bottom: "inception_4d/3x3"
  bottom: "inception_4d/5x5"
  bottom: "inception_4d/pool_proj"
  top: "inception_4d/output"
}
layer {
  name: "loss2/ave_pool"
  type: "Pooling"
  bottom: "inception_4d/output"
  top: "loss2/ave_pool"
  pooling_param {
    pool: AVE
    kernel_size: 5
    stride: 3
  }
}
layer {
  name: "loss2/conv"
  type: "Convolution"
  bottom: "loss2/ave_pool"
  top: "loss2/conv"
  param {
    lr_mult: 1
    decay_mult: 1
  }
  param {
    lr_mult: 2
    decay_mult: 0
  }
  convolution_param {
    num_output: 128
    kernel_size: 1
    weight_filler {
      type: "xavier"
      std: 0.08
    }
    bias_filler {
      type: "constant"
      value: 0.2
    }
  }
}
layer {
  name: "loss2/relu_conv"
  type: "ReLU"
  bottom: "loss2/conv"
  top: "loss2/conv"
}
layer {
  name: "loss2/fc"
  type: "InnerProduct"
  bottom: "loss2/conv"
  top: "loss2/fc"
  param {
    lr_mult: 1
    decay_mult: 1
  }
  param {
    lr_mult: 2
    decay_mult: 0
  }
  inner_product_param {
    num_output: 1024
    weight_filler {
      type: "xavier"
      std: 0.02
    }
    bias_filler {
      type: "constant"
      value: 0.2
    }
  }
}
layer {
  name: "loss2/relu_fc"
  type: "ReLU"
  bottom: "loss2/fc"
  top: "loss2/fc"
}
layer {
  name: "loss2/drop_fc"
  type: "Dropout"
  bottom: "loss2/fc"
  top: "loss2/fc"
  dropout_param {
    dropout_ratio: 0.7
  }
}
layer {
  name: "loss2/classifier_cub"
  type: "InnerProduct"
  bottom: "loss2/fc"
  top: "loss2/classifier"
  param {
    lr_mult: 1
    decay_mult: 1
  }
  param {
    lr_mult: 2
    decay_mult: 0
  }
  inner_product_param {
    num_output: 200
    weight_filler {
      type: "gaussian"
      std: 1e-05
    }
    bias_filler {
      type: "constant"
      value: 0
    }
  }
}
layer {
  name: "loss2/loss"
  type: "SoftmaxWithLoss"
  bottom: "loss2/classifier"
  bottom: "label"
  top: "loss2/loss1"
  loss_weight: 0.3
}
layer {
  name: "inception_4e/1x1"
  type: "Convolution"
  bottom: "inception_4d/output"
  top: "inception_4e/1x1"
  param {
    lr_mult: 1
    decay_mult: 1
  }
  param {
    lr_mult: 2
    decay_mult: 0
  }
  convolution_param {
    num_output: 256
    kernel_size: 1
    weight_filler {
      type: "xavier"
      std: 0.03
    }
    bias_filler {
      type: "constant"
      value: 0.2
    }
  }
}
layer {
  name: "inception_4e/relu_1x1"
  type: "ReLU"
  bottom: "inception_4e/1x1"
  top: "inception_4e/1x1"
}
layer {
  name: "inception_4e/3x3_reduce"
  type: "Convolution"
  bottom: "inception_4d/output"
  top: "inception_4e/3x3_reduce"
  param {
    lr_mult: 1
    decay_mult: 1
  }
  param {
    lr_mult: 2
    decay_mult: 0
  }
  convolution_param {
    num_output: 160
    kernel_size: 1
    weight_filler {
      type: "xavier"
      std: 0.09
    }
    bias_filler {
      type: "constant"
      value: 0.2
    }
  }
}
layer {
  name: "inception_4e/relu_3x3_reduce"
  type: "ReLU"
  bottom: "inception_4e/3x3_reduce"
  top: "inception_4e/3x3_reduce"
}
layer {
  name: "inception_4e/3x3"
  type: "Convolution"
  bottom: "inception_4e/3x3_reduce"
  top: "inception_4e/3x3"
  param {
    lr_mult: 1
    decay_mult: 1
  }
  param {
    lr_mult: 2
    decay_mult: 0
  }
  convolution_param {
    num_output: 320
    pad: 1
    kernel_size: 3
    weight_filler {
      type: "xavier"
      std: 0.03
    }
    bias_filler {
      type: "constant"
      value: 0.2
    }
  }
}
layer {
  name: "inception_4e/relu_3x3"
  type: "ReLU"
  bottom: "inception_4e/3x3"
  top: "inception_4e/3x3"
}
layer {
  name: "inception_4e/5x5_reduce"
  type: "Convolution"
  bottom: "inception_4d/output"
  top: "inception_4e/5x5_reduce"
  param {
    lr_mult: 1
    decay_mult: 1
  }
  param {
    lr_mult: 2
    decay_mult: 0
  }
  convolution_param {
    num_output: 32
    kernel_size: 1
    weight_filler {
      type: "xavier"
      std: 0.2
    }
    bias_filler {
      type: "constant"
      value: 0.2
    }
  }
}
layer {
  name: "inception_4e/relu_5x5_reduce"
  type: "ReLU"
  bottom
I0902 19:47:39.744457 54817 layer_factory.hpp:76] Creating layer data
I0902 19:47:39.745862 54817 net.cpp:110] Creating Layer data
I0902 19:47:39.745971 54817 net.cpp:433] data -> data
I0902 19:47:39.746014 54817 net.cpp:433] data -> label
I0902 19:47:39.747464 54820 db_lmdb.cpp:22] Opened lmdb data/cub_train
I0902 19:47:39.748122 54817 data_layer.cpp:44] output data size: 32,3,224,224
I0902 19:47:39.808110 54817 net.cpp:155] Setting up data
I0902 19:47:39.808210 54817 net.cpp:163] Top shape: 32 3 224 224 (4816896)
I0902 19:47:39.808226 54817 net.cpp:163] Top shape: 32 (32)
I0902 19:47:39.808243 54817 layer_factory.hpp:76] Creating layer label_data_1_split
I0902 19:47:39.808267 54817 net.cpp:110] Creating Layer label_data_1_split
I0902 19:47:39.808279 54817 net.cpp:477] label_data_1_split <- label
I0902 19:47:39.808305 54817 net.cpp:433] label_data_1_split -> label_data_1_split_0
I0902 19:47:39.808341 54817 net.cpp:433] label_data_1_split -> label_data_1_split_1
I0902 19:47:39.808389 54817 net.cpp:433] label_data_1_split -> label_data_1_split_2
I0902 19:47:39.808418 54817 net.cpp:155] Setting up label_data_1_split
I0902 19:47:39.808434 54817 net.cpp:163] Top shape: 32 (32)
I0902 19:47:39.808444 54817 net.cpp:163] Top shape: 32 (32)
I0902 19:47:39.808454 54817 net.cpp:163] Top shape: 32 (32)
I0902 19:47:39.808462 54817 layer_factory.hpp:76] Creating layer conv1/7x7_s2
I0902 19:47:39.808485 54817 net.cpp:110] Creating Layer conv1/7x7_s2
I0902 19:47:39.808493 54817 net.cpp:477] conv1/7x7_s2 <- data
I0902 19:47:39.808516 54817 net.cpp:433] conv1/7x7_s2 -> conv1/7x7_s2
I0902 19:47:40.114672 54817 net.cpp:155] Setting up conv1/7x7_s2
I0902 19:47:40.114722 54817 net.cpp:163] Top shape: 32 64 112 112 (25690112)
I0902 19:47:40.114758 54817 layer_factory.hpp:76] Creating layer conv1/relu_7x7
I0902 19:47:40.114781 54817 net.cpp:110] Creating Layer conv1/relu_7x7
I0902 19:47:40.114791 54817 net.cpp:477] conv1/relu_7x7 <- conv1/7x7_s2
I0902 19:47:40.114804 54817 net.cpp:419] conv1/relu_7x7 -> conv1/7x7_s2 (in-place)
I0902 19:47:40.116010 54817 net.cpp:155] Setting up conv1/relu_7x7
I0902 19:47:40.116041 54817 net.cpp:163] Top shape: 32 64 112 112 (25690112)
I0902 19:47:40.116053 54817 layer_factory.hpp:76] Creating layer pool1/3x3_s2
I0902 19:47:40.116073 54817 net.cpp:110] Creating Layer pool1/3x3_s2
I0902 19:47:40.116082 54817 net.cpp:477] pool1/3x3_s2 <- conv1/7x7_s2
I0902 19:47:40.116097 54817 net.cpp:433] pool1/3x3_s2 -> pool1/3x3_s2
I0902 19:47:40.117445 54817 net.cpp:155] Setting up pool1/3x3_s2
I0902 19:47:40.117475 54817 net.cpp:163] Top shape: 32 64 56 56 (6422528)
I0902 19:47:40.117486 54817 layer_factory.hpp:76] Creating layer pool1/norm1
I0902 19:47:40.117506 54817 net.cpp:110] Creating Layer pool1/norm1
I0902 19:47:40.117514 54817 net.cpp:477] pool1/norm1 <- pool1/3x3_s2
I0902 19:47:40.117527 54817 net.cpp:433] pool1/norm1 -> pool1/norm1
I0902 19:47:40.117548 54817 net.cpp:155] Setting up pool1/norm1
I0902 19:47:40.117560 54817 net.cpp:163] Top shape: 32 64 56 56 (6422528)
I0902 19:47:40.117568 54817 layer_factory.hpp:76] Creating layer conv2/3x3_reduce
I0902 19:47:40.117588 54817 net.cpp:110] Creating Layer conv2/3x3_reduce
I0902 19:47:40.117596 54817 net.cpp:477] conv2/3x3_reduce <- pool1/norm1
I0902 19:47:40.117610 54817 net.cpp:433] conv2/3x3_reduce -> conv2/3x3_reduce
I0902 19:47:40.122156 54817 net.cpp:155] Setting up conv2/3x3_reduce
I0902 19:47:40.122191 54817 net.cpp:163] Top shape: 32 64 56 56 (6422528)
I0902 19:47:40.122215 54817 layer_factory.hpp:76] Creating layer conv2/relu_3x3_reduce
I0902 19:47:40.122230 54817 net.cpp:110] Creating Layer conv2/relu_3x3_reduce
I0902 19:47:40.122238 54817 net.cpp:477] conv2/relu_3x3_reduce <- conv2/3x3_reduce
I0902 19:47:40.122249 54817 net.cpp:419] conv2/relu_3x3_reduce -> conv2/3x3_reduce (in-place)
I0902 19:47:40.123445 54817 net.cpp:155] Setting up conv2/relu_3x3_reduce
I0902 19:47:40.123471 54817 net.cpp:163] Top shape: 32 64 56 56 (6422528)
I0902 19:47:40.123482 54817 layer_factory.hpp:76] Creating layer conv2/3x3
I0902 19:47:40.123504 54817 net.cpp:110] Creating Layer conv2/3x3
I0902 19:47:40.123513 54817 net.cpp:477] conv2/3x3 <- conv2/3x3_reduce
I0902 19:47:40.123527 54817 net.cpp:433] conv2/3x3 -> conv2/3x3
I0902 19:47:40.129655 54817 net.cpp:155] Setting up conv2/3x3
I0902 19:47:40.129686 54817 net.cpp:163] Top shape: 32 192 56 56 (19267584)
I0902 19:47:40.129709 54817 layer_factory.hpp:76] Creating layer conv2/relu_3x3
I0902 19:47:40.129724 54817 net.cpp:110] Creating Layer conv2/relu_3x3
I0902 19:47:40.129732 54817 net.cpp:477] conv2/relu_3x3 <- conv2/3x3
I0902 19:47:40.129747 54817 net.cpp:419] conv2/relu_3x3 -> conv2/3x3 (in-place)
I0902 19:47:40.130956 54817 net.cpp:155] Setting up conv2/relu_3x3
I0902 19:47:40.130983 54817 net.cpp:163] Top shape: 32 192 56 56 (19267584)
I0902 19:47:40.130995 54817 layer_factory.hpp:76] Creating layer conv2/norm2
I0902 19:47:40.131011 54817 net.cpp:110] Creating Layer conv2/norm2
I0902 19:47:40.131021 54817 net.cpp:477] conv2/norm2 <- conv2/3x3
I0902 19:47:40.131036 54817 net.cpp:433] conv2/norm2 -> conv2/norm2
I0902 19:47:40.131083 54817 net.cpp:155] Setting up conv2/norm2
I0902 19:47:40.131096 54817 net.cpp:163] Top shape: 32 192 56 56 (19267584)
I0902 19:47:40.131104 54817 layer_factory.hpp:76] Creating layer pool2/3x3_s2
I0902 19:47:40.131117 54817 net.cpp:110] Creating Layer pool2/3x3_s2
I0902 19:47:40.131125 54817 net.cpp:477] pool2/3x3_s2 <- conv2/norm2
I0902 19:47:40.131136 54817 net.cpp:433] pool2/3x3_s2 -> pool2/3x3_s2
I0902 19:47:40.132344 54817 net.cpp:155] Setting up pool2/3x3_s2
I0902 19:47:40.132375 54817 net.cpp:163] Top shape: 32 192 28 28 (4816896)
I0902 19:47:40.132385 54817 layer_factory.hpp:76] Creating layer pool2/3x3_s2_pool2/3x3_s2_0_split
I0902 19:47:40.132400 54817 net.cpp:110] Creating Layer pool2/3x3_s2_pool2/3x3_s2_0_split
I0902 19:47:40.132408 54817 net.cpp:477] pool2/3x3_s2_pool2/3x3_s2_0_split <- pool2/3x3_s2
I0902 19:47:40.132421 54817 net.cpp:433] pool2/3x3_s2_pool2/3x3_s2_0_split -> pool2/3x3_s2_pool2/3x3_s2_0_split_0
I0902 19:47:40.132436 54817 net.cpp:433] pool2/3x3_s2_pool2/3x3_s2_0_split -> pool2/3x3_s2_pool2/3x3_s2_0_split_1
I0902 19:47:40.132453 54817 net.cpp:433] pool2/3x3_s2_pool2/3x3_s2_0_split -> pool2/3x3_s2_pool2/3x3_s2_0_split_2
I0902 19:47:40.132467 54817 net.cpp:433] pool2/3x3_s2_pool2/3x3_s2_0_split -> pool2/3x3_s2_pool2/3x3_s2_0_split_3
I0902 19:47:40.132483 54817 net.cpp:155] Setting up pool2/3x3_s2_pool2/3x3_s2_0_split
I0902 19:47:40.132494 54817 net.cpp:163] Top shape: 32 192 28 28 (4816896)
I0902 19:47:40.132503 54817 net.cpp:163] Top shape: 32 192 28 28 (4816896)
I0902 19:47:40.132511 54817 net.cpp:163] Top shape: 32 192 28 28 (4816896)
I0902 19:47:40.132520 54817 net.cpp:163] Top shape: 32 192 28 28 (4816896)
I0902 19:47:40.132529 54817 layer_factory.hpp:76] Creating layer inception_3a/1x1
I0902 19:47:40.132546 54817 net.cpp:110] Creating Layer inception_3a/1x1
I0902 19:47:40.132555 54817 net.cpp:477] inception_3a/1x1 <- pool2/3x3_s2_pool2/3x3_s2_0_split_0
I0902 19:47:40.132566 54817 net.cpp:433] inception_3a/1x1 -> inception_3a/1x1
I0902 19:47:40.137367 54817 net.cpp:155] Setting up inception_3a/1x1
I0902 19:47:40.137398 54817 net.cpp:163] Top shape: 32 64 28 28 (1605632)
I0902 19:47:40.137415 54817 layer_factory.hpp:76] Creating layer inception_3a/relu_1x1
I0902 19:47:40.137429 54817 net.cpp:110] Creating Layer inception_3a/relu_1x1
I0902 19:47:40.137439 54817 net.cpp:477] inception_3a/relu_1x1 <- inception_3a/1x1
I0902 19:47:40.137454 54817 net.cpp:419] inception_3a/relu_1x1 -> inception_3a/1x1 (in-place)
I0902 19:47:40.138681 54817 net.cpp:155] Setting up inception_3a/relu_1x1
I0902 19:47:40.138710 54817 net.cpp:163] Top shape: 32 64 28 28 (1605632)
I0902 19:47:40.138720 54817 layer_factory.hpp:76] Creating layer inception_3a/3x3_reduce
I0902 19:47:40.138736 54817 net.cpp:110] Creating Layer inception_3a/3x3_reduce
I0902 19:47:40.138746 54817 net.cpp:477] inception_3a/3x3_reduce <- pool2/3x3_s2_pool2/3x3_s2_0_split_1
I0902 19:47:40.138762 54817 net.cpp:433] inception_3a/3x3_reduce -> inception_3a/3x3_reduce
I0902 19:47:40.143565 54817 net.cpp:155] Setting up inception_3a/3x3_reduce
I0902 19:47:40.143594 54817 net.cpp:163] Top shape: 32 96 28 28 (2408448)
I0902 19:47:40.143622 54817 layer_factory.hpp:76] Creating layer inception_3a/relu_3x3_reduce
I0902 19:47:40.143642 54817 net.cpp:110] Creating Layer inception_3a/relu_3x3_reduce
I0902 19:47:40.143651 54817 net.cpp:477] inception_3a/relu_3x3_reduce <- inception_3a/3x3_reduce
I0902 19:47:40.143663 54817 net.cpp:419] inception_3a/relu_3x3_reduce -> inception_3a/3x3_reduce (in-place)
I0902 19:47:40.145020 54817 net.cpp:155] Setting up inception_3a/relu_3x3_reduce
I0902 19:47:40.145047 54817 net.cpp:163] Top shape: 32 96 28 28 (2408448)
I0902 19:47:40.145058 54817 layer_factory.hpp:76] Creating layer inception_3a/3x3
I0902 19:47:40.145077 54817 net.cpp:110] Creating Layer inception_3a/3x3
I0902 19:47:40.145087 54817 net.cpp:477] inception_3a/3x3 <- inception_3a/3x3_reduce
I0902 19:47:40.145102 54817 net.cpp:433] inception_3a/3x3 -> inception_3a/3x3
I0902 19:47:40.150393 54817 net.cpp:155] Setting up inception_3a/3x3
I0902 19:47:40.150444 54817 net.cpp:163] Top shape: 32 128 28 28 (3211264)
I0902 19:47:40.150461 54817 layer_factory.hpp:76] Creating layer inception_3a/relu_3x3
I0902 19:47:40.150475 54817 net.cpp:110] Creating Layer inception_3a/relu_3x3
I0902 19:47:40.150485 54817 net.cpp:477] inception_3a/relu_3x3 <- inception_3a/3x3
I0902 19:47:40.150501 54817 net.cpp:419] inception_3a/relu_3x3 -> inception_3a/3x3 (in-place)
I0902 19:47:40.151734 54817 net.cpp:155] Setting up inception_3a/relu_3x3
I0902 19:47:40.151762 54817 net.cpp:163] Top shape: 32 128 28 28 (3211264)
I0902 19:47:40.151772 54817 layer_factory.hpp:76] Creating layer inception_3a/5x5_reduce
I0902 19:47:40.151790 54817 net.cpp:110] Creating Layer inception_3a/5x5_reduce
I0902 19:47:40.151800 54817 net.cpp:477] inception_3a/5x5_reduce <- pool2/3x3_s2_pool2/3x3_s2_0_split_2
I0902 19:47:40.151818 54817 net.cpp:433] inception_3a/5x5_reduce -> inception_3a/5x5_reduce
I0902 19:47:40.155817 54817 net.cpp:155] Setting up inception_3a/5x5_reduce
I0902 19:47:40.155848 54817 net.cpp:163] Top shape: 32 16 28 28 (401408)
I0902 19:47:40.155865 54817 layer_factory.hpp:76] Creating layer inception_3a/relu_5x5_reduce
I0902 19:47:40.155879 54817 net.cpp:110] Creating Layer inception_3a/relu_5x5_reduce
I0902 19:47:40.155889 54817 net.cpp:477] inception_3a/relu_5x5_reduce <- inception_3a/5x5_reduce
I0902 19:47:40.155905 54817 net.cpp:419] inception_3a/relu_5x5_reduce -> inception_3a/5x5_reduce (in-place)
I0902 19:47:40.157346 54817 net.cpp:155] Setting up inception_3a/relu_5x5_reduce
I0902 19:47:40.157372 54817 net.cpp:163] Top shape: 32 16 28 28 (401408)
I0902 19:47:40.157382 54817 layer_factory.hpp:76] Creating layer inception_3a/5x5
I0902 19:47:40.157403 54817 net.cpp:110] Creating Layer inception_3a/5x5
I0902 19:47:40.157413 54817 net.cpp:477] inception_3a/5x5 <- inception_3a/5x5_reduce
I0902 19:47:40.157426 54817 net.cpp:433] inception_3a/5x5 -> inception_3a/5x5
I0902 19:47:40.161636 54817 net.cpp:155] Setting up inception_3a/5x5
I0902 19:47:40.161664 54817 net.cpp:163] Top shape: 32 32 28 28 (802816)
I0902 19:47:40.161681 54817 layer_factory.hpp:76] Creating layer inception_3a/relu_5x5
I0902 19:47:40.161695 54817 net.cpp:110] Creating Layer inception_3a/relu_5x5
I0902 19:47:40.161705 54817 net.cpp:477] inception_3a/relu_5x5 <- inception_3a/5x5
I0902 19:47:40.161720 54817 net.cpp:419] inception_3a/relu_5x5 -> inception_3a/5x5 (in-place)
I0902 19:47:40.162986 54817 net.cpp:155] Setting up inception_3a/relu_5x5
I0902 19:47:40.163018 54817 net.cpp:163] Top shape: 32 32 28 28 (802816)
I0902 19:47:40.163029 54817 layer_factory.hpp:76] Creating layer inception_3a/pool
I0902 19:47:40.163039 54817 layer_factory.cpp:60] CUDNN does not support padding or multiple tops. Using Caffe's own pooling layer.
I0902 19:47:40.163051 54817 net.cpp:110] Creating Layer inception_3a/pool
I0902 19:47:40.163060 54817 net.cpp:477] inception_3a/pool <- pool2/3x3_s2_pool2/3x3_s2_0_split_3
I0902 19:47:40.163072 54817 net.cpp:433] inception_3a/pool -> inception_3a/pool
I0902 19:47:40.163092 54817 net.cpp:155] Setting up inception_3a/pool
I0902 19:47:40.163105 54817 net.cpp:163] Top shape: 32 192 28 28 (4816896)
I0902 19:47:40.163112 54817 layer_factory.hpp:76] Creating layer inception_3a/pool_proj
I0902 19:47:40.163130 54817 net.cpp:110] Creating Layer inception_3a/pool_proj
I0902 19:47:40.163138 54817 net.cpp:477] inception_3a/pool_proj <- inception_3a/pool
I0902 19:47:40.163153 54817 net.cpp:433] inception_3a/pool_proj -> inception_3a/pool_proj
I0902 19:47:40.167088 54817 net.cpp:155] Setting up inception_3a/pool_proj
I0902 19:47:40.167116 54817 net.cpp:163] Top shape: 32 32 28 28 (802816)
I0902 19:47:40.167140 54817 layer_factory.hpp:76] Creating layer inception_3a/relu_pool_proj
I0902 19:47:40.167157 54817 net.cpp:110] Creating Layer inception_3a/relu_pool_proj
I0902 19:47:40.167166 54817 net.cpp:477] inception_3a/relu_pool_proj <- inception_3a/pool_proj
I0902 19:47:40.167178 54817 net.cpp:419] inception_3a/relu_pool_proj -> inception_3a/pool_proj (in-place)
I0902 19:47:40.168560 54817 net.cpp:155] Setting up inception_3a/relu_pool_proj
I0902 19:47:40.168608 54817 net.cpp:163] Top shape: 32 32 28 28 (802816)
I0902 19:47:40.168620 54817 layer_factory.hpp:76] Creating layer inception_3a/output
I0902 19:47:40.168653 54817 net.cpp:110] Creating Layer inception_3a/output
I0902 19:47:40.168661 54817 net.cpp:477] inception_3a/output <- inception_3a/1x1
I0902 19:47:40.168673 54817 net.cpp:477] inception_3a/output <- inception_3a/3x3
I0902 19:47:40.168684 54817 net.cpp:477] inception_3a/output <- inception_3a/5x5
I0902 19:47:40.168692 54817 net.cpp:477] inception_3a/output <- inception_3a/pool_proj
I0902 19:47:40.168704 54817 net.cpp:433] inception_3a/output -> inception_3a/output
I0902 19:47:40.168726 54817 net.cpp:155] Setting up inception_3a/output
I0902 19:47:40.168738 54817 net.cpp:163] Top shape: 32 256 28 28 (6422528)
I0902 19:47:40.168746 54817 layer_factory.hpp:76] Creating layer inception_3a/output_inception_3a/output_0_split
I0902 19:47:40.168762 54817 net.cpp:110] Creating Layer inception_3a/output_inception_3a/output_0_split
I0902 19:47:40.168771 54817 net.cpp:477] inception_3a/output_inception_3a/output_0_split <- inception_3a/output
I0902 19:47:40.168782 54817 net.cpp:433] inception_3a/output_inception_3a/output_0_split -> inception_3a/output_inception_3a/output_0_split_0
I0902 19:47:40.168797 54817 net.cpp:433] inception_3a/output_inception_3a/output_0_split -> inception_3a/output_inception_3a/output_0_split_1
I0902 19:47:40.168810 54817 net.cpp:433] inception_3a/output_inception_3a/output_0_split -> inception_3a/output_inception_3a/output_0_split_2
I0902 19:47:40.168823 54817 net.cpp:433] inception_3a/output_inception_3a/output_0_split -> inception_3a/output_inception_3a/output_0_split_3
I0902 19:47:40.168838 54817 net.cpp:155] Setting up inception_3a/output_inception_3a/output_0_split
I0902 19:47:40.168848 54817 net.cpp:163] Top shape: 32 256 28 28 (6422528)
I0902 19:47:40.168858 54817 net.cpp:163] Top shape: 32 256 28 28 (6422528)
I0902 19:47:40.168866 54817 net.cpp:163] Top shape: 32 256 28 28 (6422528)
I0902 19:47:40.168875 54817 net.cpp:163] Top shape: 32 256 28 28 (6422528)
I0902 19:47:40.168884 54817 layer_factory.hpp:76] Creating layer inception_3b/1x1
I0902 19:47:40.168905 54817 net.cpp:110] Creating Layer inception_3b/1x1
I0902 19:47:40.168915 54817 net.cpp:477] inception_3b/1x1 <- inception_3a/output_inception_3a/output_0_split_0
I0902 19:47:40.168927 54817 net.cpp:433] inception_3b/1x1 -> inception_3b/1x1
I0902 19:47:40.173296 54817 net.cpp:155] Setting up inception_3b/1x1
I0902 19:47:40.173328 54817 net.cpp:163] Top shape: 32 128 28 28 (3211264)
I0902 19:47:40.173346 54817 layer_factory.hpp:76] Creating layer inception_3b/relu_1x1
I0902 19:47:40.173360 54817 net.cpp:110] Creating Layer inception_3b/relu_1x1
I0902 19:47:40.173370 54817 net.cpp:477] inception_3b/relu_1x1 <- inception_3b/1x1
I0902 19:47:40.173385 54817 net.cpp:419] inception_3b/relu_1x1 -> inception_3b/1x1 (in-place)
I0902 19:47:40.174649 54817 net.cpp:155] Setting up inception_3b/relu_1x1
I0902 19:47:40.174675 54817 net.cpp:163] Top shape: 32 128 28 28 (3211264)
I0902 19:47:40.174685 54817 layer_factory.hpp:76] Creating layer inception_3b/3x3_reduce
I0902 19:47:40.174705 54817 net.cpp:110] Creating Layer inception_3b/3x3_reduce
I0902 19:47:40.174715 54817 net.cpp:477] inception_3b/3x3_reduce <- inception_3a/output_inception_3a/output_0_split_1
I0902 19:47:40.174731 54817 net.cpp:433] inception_3b/3x3_reduce -> inception_3b/3x3_reduce
I0902 19:47:40.179229 54817 net.cpp:155] Setting up inception_3b/3x3_reduce
I0902 19:47:40.179257 54817 net.cpp:163] Top shape: 32 128 28 28 (3211264)
I0902 19:47:40.179278 54817 layer_factory.hpp:76] Creating layer inception_3b/relu_3x3_reduce
I0902 19:47:40.179292 54817 net.cpp:110] Creating Layer inception_3b/relu_3x3_reduce
I0902 19:47:40.179301 54817 net.cpp:477] inception_3b/relu_3x3_reduce <- inception_3b/3x3_reduce
I0902 19:47:40.179316 54817 net.cpp:419] inception_3b/relu_3x3_reduce -> inception_3b/3x3_reduce (in-place)
I0902 19:47:40.180590 54817 net.cpp:155] Setting up inception_3b/relu_3x3_reduce
I0902 19:47:40.180637 54817 net.cpp:163] Top shape: 32 128 28 28 (3211264)
I0902 19:47:40.180649 54817 layer_factory.hpp:76] Creating layer inception_3b/3x3
I0902 19:47:40.180673 54817 net.cpp:110] Creating Layer inception_3b/3x3
I0902 19:47:40.180683 54817 net.cpp:477] inception_3b/3x3 <- inception_3b/3x3_reduce
I0902 19:47:40.180701 54817 net.cpp:433] inception_3b/3x3 -> inception_3b/3x3
I0902 19:47:40.188910 54817 net.cpp:155] Setting up inception_3b/3x3
I0902 19:47:40.188967 54817 net.cpp:163] Top shape: 32 192 28 28 (4816896)
I0902 19:47:40.188990 54817 layer_factory.hpp:76] Creating layer inception_3b/relu_3x3
I0902 19:47:40.189009 54817 net.cpp:110] Creating Layer inception_3b/relu_3x3
I0902 19:47:40.189023 54817 net.cpp:477] inception_3b/relu_3x3 <- inception_3b/3x3
I0902 19:47:40.189045 54817 net.cpp:419] inception_3b/relu_3x3 -> inception_3b/3x3 (in-place)
I0902 19:47:40.190655 54817 net.cpp:155] Setting up inception_3b/relu_3x3
I0902 19:47:40.190692 54817 net.cpp:163] Top shape: 32 192 28 28 (4816896)
I0902 19:47:40.190704 54817 layer_factory.hpp:76] Creating layer inception_3b/5x5_reduce
I0902 19:47:40.190728 54817 net.cpp:110] Creating Layer inception_3b/5x5_reduce
I0902 19:47:40.190738 54817 net.cpp:477] inception_3b/5x5_reduce <- inception_3a/output_inception_3a/output_0_split_2
I0902 19:47:40.190755 54817 net.cpp:433] inception_3b/5x5_reduce -> inception_3b/5x5_reduce
I0902 19:47:40.195509 54817 net.cpp:155] Setting up inception_3b/5x5_reduce
I0902 19:47:40.195546 54817 net.cpp:163] Top shape: 32 32 28 28 (802816)
I0902 19:47:40.195565 54817 layer_factory.hpp:76] Creating layer inception_3b/relu_5x5_reduce
I0902 19:47:40.195585 54817 net.cpp:110] Creating Layer inception_3b/relu_5x5_reduce
I0902 19:47:40.195595 54817 net.cpp:477] inception_3b/relu_5x5_reduce <- inception_3b/5x5_reduce
I0902 19:47:40.195610 54817 net.cpp:419] inception_3b/relu_5x5_reduce -> inception_3b/5x5_reduce (in-place)
I0902 19:47:40.197089 54817 net.cpp:155] Setting up inception_3b/relu_5x5_reduce
I0902 19:47:40.197125 54817 net.cpp:163] Top shape: 32 32 28 28 (802816)
I0902 19:47:40.197136 54817 layer_factory.hpp:76] Creating layer inception_3b/5x5
I0902 19:47:40.197159 54817 net.cpp:110] Creating Layer inception_3b/5x5
I0902 19:47:40.197170 54817 net.cpp:477] inception_3b/5x5 <- inception_3b/5x5_reduce
I0902 19:47:40.197187 54817 net.cpp:433] inception_3b/5x5 -> inception_3b/5x5
I0902 19:47:40.204089 54817 net.cpp:155] Setting up inception_3b/5x5
I0902 19:47:40.204128 54817 net.cpp:163] Top shape: 32 96 28 28 (2408448)
I0902 19:47:40.204146 54817 layer_factory.hpp:76] Creating layer inception_3b/relu_5x5
I0902 19:47:40.204166 54817 net.cpp:110] Creating Layer inception_3b/relu_5x5
I0902 19:47:40.204177 54817 net.cpp:477] inception_3b/relu_5x5 <- inception_3b/5x5
I0902 19:47:40.204191 54817 net.cpp:419] inception_3b/relu_5x5 -> inception_3b/5x5 (in-place)
I0902 19:47:40.205663 54817 net.cpp:155] Setting up inception_3b/relu_5x5
I0902 19:47:40.205693 54817 net.cpp:163] Top shape: 32 96 28 28 (2408448)
I0902 19:47:40.205703 54817 layer_factory.hpp:76] Creating layer inception_3b/pool
I0902 19:47:40.205715 54817 layer_factory.cpp:60] CUDNN does not support padding or multiple tops. Using Caffe's own pooling layer.
I0902 19:47:40.205729 54817 net.cpp:110] Creating Layer inception_3b/pool
I0902 19:47:40.205739 54817 net.cpp:477] inception_3b/pool <- inception_3a/output_inception_3a/output_0_split_3
I0902 19:47:40.205756 54817 net.cpp:433] inception_3b/pool -> inception_3b/pool
I0902 19:47:40.205780 54817 net.cpp:155] Setting up inception_3b/pool
I0902 19:47:40.205792 54817 net.cpp:163] Top shape: 32 256 28 28 (6422528)
I0902 19:47:40.205801 54817 layer_factory.hpp:76] Creating layer inception_3b/pool_proj
I0902 19:47:40.205829 54817 net.cpp:110] Creating Layer inception_3b/pool_proj
I0902 19:47:40.205843 54817 net.cpp:477] inception_3b/pool_proj <- inception_3b/pool
I0902 19:47:40.205858 54817 net.cpp:433] inception_3b/pool_proj -> inception_3b/pool_proj
I0902 19:47:40.210852 54817 net.cpp:155] Setting up inception_3b/pool_proj
I0902 19:47:40.210912 54817 net.cpp:163] Top shape: 32 64 28 28 (1605632)
I0902 19:47:40.210932 54817 layer_factory.hpp:76] Creating layer inception_3b/relu_pool_proj
I0902 19:47:40.210952 54817 net.cpp:110] Creating Layer inception_3b/relu_pool_proj
I0902 19:47:40.210963 54817 net.cpp:477] inception_3b/relu_pool_proj <- inception_3b/pool_proj
I0902 19:47:40.210975 54817 net.cpp:419] inception_3b/relu_pool_proj -> inception_3b/pool_proj (in-place)
I0902 19:47:40.212652 54817 net.cpp:155] Setting up inception_3b/relu_pool_proj
I0902 19:47:40.212685 54817 net.cpp:163] Top shape: 32 64 28 28 (1605632)
I0902 19:47:40.212697 54817 layer_factory.hpp:76] Creating layer inception_3b/output
I0902 19:47:40.212713 54817 net.cpp:110] Creating Layer inception_3b/output
I0902 19:47:40.212724 54817 net.cpp:477] inception_3b/output <- inception_3b/1x1
I0902 19:47:40.212736 54817 net.cpp:477] inception_3b/output <- inception_3b/3x3
I0902 19:47:40.212748 54817 net.cpp:477] inception_3b/output <- inception_3b/5x5
I0902 19:47:40.212759 54817 net.cpp:477] inception_3b/output <- inception_3b/pool_proj
I0902 19:47:40.212770 54817 net.cpp:433] inception_3b/output -> inception_3b/output
I0902 19:47:40.212790 54817 net.cpp:155] Setting up inception_3b/output
I0902 19:47:40.212803 54817 net.cpp:163] Top shape: 32 480 28 28 (12042240)
I0902 19:47:40.212812 54817 layer_factory.hpp:76] Creating layer pool3/3x3_s2
I0902 19:47:40.212831 54817 net.cpp:110] Creating Layer pool3/3x3_s2
I0902 19:47:40.212841 54817 net.cpp:477] pool3/3x3_s2 <- inception_3b/output
I0902 19:47:40.212853 54817 net.cpp:433] pool3/3x3_s2 -> pool3/3x3_s2
I0902 19:47:40.214527 54817 net.cpp:155] Setting up pool3/3x3_s2
I0902 19:47:40.214562 54817 net.cpp:163] Top shape: 32 480 14 14 (3010560)
I0902 19:47:40.214573 54817 layer_factory.hpp:76] Creating layer pool3/3x3_s2_pool3/3x3_s2_0_split
I0902 19:47:40.214591 54817 net.cpp:110] Creating Layer pool3/3x3_s2_pool3/3x3_s2_0_split
I0902 19:47:40.214601 54817 net.cpp:477] pool3/3x3_s2_pool3/3x3_s2_0_split <- pool3/3x3_s2
I0902 19:47:40.214620 54817 net.cpp:433] pool3/3x3_s2_pool3/3x3_s2_0_split -> pool3/3x3_s2_pool3/3x3_s2_0_split_0
I0902 19:47:40.214637 54817 net.cpp:433] pool3/3x3_s2_pool3/3x3_s2_0_split -> pool3/3x3_s2_pool3/3x3_s2_0_split_1
I0902 19:47:40.214653 54817 net.cpp:433] pool3/3x3_s2_pool3/3x3_s2_0_split -> pool3/3x3_s2_pool3/3x3_s2_0_split_2
I0902 19:47:40.214673 54817 net.cpp:433] pool3/3x3_s2_pool3/3x3_s2_0_split -> pool3/3x3_s2_pool3/3x3_s2_0_split_3
I0902 19:47:40.214689 54817 net.cpp:155] Setting up pool3/3x3_s2_pool3/3x3_s2_0_split
I0902 19:47:40.214701 54817 net.cpp:163] Top shape: 32 480 14 14 (3010560)
I0902 19:47:40.214712 54817 net.cpp:163] Top shape: 32 480 14 14 (3010560)
I0902 19:47:40.214721 54817 net.cpp:163] Top shape: 32 480 14 14 (3010560)
I0902 19:47:40.214731 54817 net.cpp:163] Top shape: 32 480 14 14 (3010560)
I0902 19:47:40.214740 54817 layer_factory.hpp:76] Creating layer inception_4a/1x1
I0902 19:47:40.214756 54817 net.cpp:110] Creating Layer inception_4a/1x1
I0902 19:47:40.214766 54817 net.cpp:477] inception_4a/1x1 <- pool3/3x3_s2_pool3/3x3_s2_0_split_0
I0902 19:47:40.214783 54817 net.cpp:433] inception_4a/1x1 -> inception_4a/1x1
I0902 19:47:40.221653 54817 net.cpp:155] Setting up inception_4a/1x1
I0902 19:47:40.221685 54817 net.cpp:163] Top shape: 32 192 14 14 (1204224)
I0902 19:47:40.221704 54817 layer_factory.hpp:76] Creating layer inception_4a/relu_1x1
I0902 19:47:40.221724 54817 net.cpp:110] Creating Layer inception_4a/relu_1x1
I0902 19:47:40.221735 54817 net.cpp:477] inception_4a/relu_1x1 <- inception_4a/1x1
I0902 19:47:40.221747 54817 net.cpp:419] inception_4a/relu_1x1 -> inception_4a/1x1 (in-place)
I0902 19:47:40.223240 54817 net.cpp:155] Setting up inception_4a/relu_1x1
I0902 19:47:40.223270 54817 net.cpp:163] Top shape: 32 192 14 14 (1204224)
I0902 19:47:40.223283 54817 layer_factory.hpp:76] Creating layer inception_4a/3x3_reduce
I0902 19:47:40.223307 54817 net.cpp:110] Creating Layer inception_4a/3x3_reduce
I0902 19:47:40.223319 54817 net.cpp:477] inception_4a/3x3_reduce <- pool3/3x3_s2_pool3/3x3_s2_0_split_1
I0902 19:47:40.223361 54817 net.cpp:433] inception_4a/3x3_reduce -> inception_4a/3x3_reduce
I0902 19:47:40.228765 54817 net.cpp:155] Setting up inception_4a/3x3_reduce
I0902 19:47:40.228806 54817 net.cpp:163] Top shape: 32 96 14 14 (602112)
I0902 19:47:40.228835 54817 layer_factory.hpp:76] Creating layer inception_4a/relu_3x3_reduce
I0902 19:47:40.228854 54817 net.cpp:110] Creating Layer inception_4a/relu_3x3_reduce
I0902 19:47:40.228865 54817 net.cpp:477] inception_4a/relu_3x3_reduce <- inception_4a/3x3_reduce
I0902 19:47:40.228878 54817 net.cpp:419] inception_4a/relu_3x3_reduce -> inception_4a/3x3_reduce (in-place)
I0902 19:47:40.230574 54817 net.cpp:155] Setting up inception_4a/relu_3x3_reduce
I0902 19:47:40.230609 54817 net.cpp:163] Top shape: 32 96 14 14 (602112)
I0902 19:47:40.230622 54817 layer_factory.hpp:76] Creating layer inception_4a/3x3
I0902 19:47:40.230643 54817 net.cpp:110] Creating Layer inception_4a/3x3
I0902 19:47:40.230654 54817 net.cpp:477] inception_4a/3x3 <- inception_4a/3x3_reduce
I0902 19:47:40.230671 54817 net.cpp:433] inception_4a/3x3 -> inception_4a/3x3
I0902 19:47:40.239048 54817 net.cpp:155] Setting up inception_4a/3x3
I0902 19:47:40.239089 54817 net.cpp:163] Top shape: 32 208 14 14 (1304576)
I0902 19:47:40.239107 54817 layer_factory.hpp:76] Creating layer inception_4a/relu_3x3
I0902 19:47:40.239123 54817 net.cpp:110] Creating Layer inception_4a/relu_3x3
I0902 19:47:40.239135 54817 net.cpp:477] inception_4a/relu_3x3 <- inception_4a/3x3
I0902 19:47:40.239147 54817 net.cpp:419] inception_4a/relu_3x3 -> inception_4a/3x3 (in-place)
I0902 19:47:40.240655 54817 net.cpp:155] Setting up inception_4a/relu_3x3
I0902 19:47:40.240691 54817 net.cpp:163] Top shape: 32 208 14 14 (1304576)
I0902 19:47:40.240702 54817 layer_factory.hpp:76] Creating layer inception_4a/5x5_reduce
I0902 19:47:40.240725 54817 net.cpp:110] Creating Layer inception_4a/5x5_reduce
I0902 19:47:40.240736 54817 net.cpp:477] inception_4a/5x5_reduce <- pool3/3x3_s2_pool3/3x3_s2_0_split_2
I0902 19:47:40.240751 54817 net.cpp:433] inception_4a/5x5_reduce -> inception_4a/5x5_reduce
I0902 19:47:40.245749 54817 net.cpp:155] Setting up inception_4a/5x5_reduce
I0902 19:47:40.245787 54817 net.cpp:163] Top shape: 32 16 14 14 (100352)
I0902 19:47:40.245816 54817 layer_factory.hpp:76] Creating layer inception_4a/relu_5x5_reduce
I0902 19:47:40.245833 54817 net.cpp:110] Creating Layer inception_4a/relu_5x5_reduce
I0902 19:47:40.245844 54817 net.cpp:477] inception_4a/relu_5x5_reduce <- inception_4a/5x5_reduce
I0902 19:47:40.245862 54817 net.cpp:419] inception_4a/relu_5x5_reduce -> inception_4a/5x5_reduce (in-place)
I0902 19:47:40.247381 54817 net.cpp:155] Setting up inception_4a/relu_5x5_reduce
I0902 19:47:40.247411 54817 net.cpp:163] Top shape: 32 16 14 14 (100352)
I0902 19:47:40.247422 54817 layer_factory.hpp:76] Creating layer inception_4a/5x5
I0902 19:47:40.247443 54817 net.cpp:110] Creating Layer inception_4a/5x5
I0902 19:47:40.247454 54817 net.cpp:477] inception_4a/5x5 <- inception_4a/5x5_reduce
I0902 19:47:40.247473 54817 net.cpp:433] inception_4a/5x5 -> inception_4a/5x5
I0902 19:47:40.252671 54817 net.cpp:155] Setting up inception_4a/5x5
I0902 19:47:40.252709 54817 net.cpp:163] Top shape: 32 48 14 14 (301056)
I0902 19:47:40.252727 54817 layer_factory.hpp:76] Creating layer inception_4a/relu_5x5
I0902 19:47:40.252743 54817 net.cpp:110] Creating Layer inception_4a/relu_5x5
I0902 19:47:40.252753 54817 net.cpp:477] inception_4a/relu_5x5 <- inception_4a/5x5
I0902 19:47:40.252766 54817 net.cpp:419] inception_4a/relu_5x5 -> inception_4a/5x5 (in-place)
I0902 19:47:40.254298 54817 net.cpp:155] Setting up inception_4a/relu_5x5
I0902 19:47:40.254328 54817 net.cpp:163] Top shape: 32 48 14 14 (301056)
I0902 19:47:40.254339 54817 layer_factory.hpp:76] Creating layer inception_4a/pool
I0902 19:47:40.254350 54817 layer_factory.cpp:60] CUDNN does not support padding or multiple tops. Using Caffe's own pooling layer.
I0902 19:47:40.254366 54817 net.cpp:110] Creating Layer inception_4a/pool
I0902 19:47:40.254377 54817 net.cpp:477] inception_4a/pool <- pool3/3x3_s2_pool3/3x3_s2_0_split_3
I0902 19:47:40.254416 54817 net.cpp:433] inception_4a/pool -> inception_4a/pool
I0902 19:47:40.254441 54817 net.cpp:155] Setting up inception_4a/pool
I0902 19:47:40.254453 54817 net.cpp:163] Top shape: 32 480 14 14 (3010560)
I0902 19:47:40.254462 54817 layer_factory.hpp:76] Creating layer inception_4a/pool_proj
I0902 19:47:40.254485 54817 net.cpp:110] Creating Layer inception_4a/pool_proj
I0902 19:47:40.254495 54817 net.cpp:477] inception_4a/pool_proj <- inception_4a/pool
I0902 19:47:40.254509 54817 net.cpp:433] inception_4a/pool_proj -> inception_4a/pool_proj
I0902 19:47:40.259727 54817 net.cpp:155] Setting up inception_4a/pool_proj
I0902 19:47:40.259760 54817 net.cpp:163] Top shape: 32 64 14 14 (401408)
I0902 19:47:40.259778 54817 layer_factory.hpp:76] Creating layer inception_4a/relu_pool_proj
I0902 19:47:40.259793 54817 net.cpp:110] Creating Layer inception_4a/relu_pool_proj
I0902 19:47:40.259804 54817 net.cpp:477] inception_4a/relu_pool_proj <- inception_4a/pool_proj
I0902 19:47:40.259821 54817 net.cpp:419] inception_4a/relu_pool_proj -> inception_4a/pool_proj (in-place)
I0902 19:47:40.261370 54817 net.cpp:155] Setting up inception_4a/relu_pool_proj
I0902 19:47:40.261399 54817 net.cpp:163] Top shape: 32 64 14 14 (401408)
I0902 19:47:40.261411 54817 layer_factory.hpp:76] Creating layer inception_4a/output
I0902 19:47:40.261427 54817 net.cpp:110] Creating Layer inception_4a/output
I0902 19:47:40.261437 54817 net.cpp:477] inception_4a/output <- inception_4a/1x1
I0902 19:47:40.261450 54817 net.cpp:477] inception_4a/output <- inception_4a/3x3
I0902 19:47:40.261461 54817 net.cpp:477] inception_4a/output <- inception_4a/5x5
I0902 19:47:40.261471 54817 net.cpp:477] inception_4a/output <- inception_4a/pool_proj
I0902 19:47:40.261482 54817 net.cpp:433] inception_4a/output -> inception_4a/output
I0902 19:47:40.261502 54817 net.cpp:155] Setting up inception_4a/output
I0902 19:47:40.261514 54817 net.cpp:163] Top shape: 32 512 14 14 (3211264)
I0902 19:47:40.261523 54817 layer_factory.hpp:76] Creating layer inception_4a/output_inception_4a/output_0_split
I0902 19:47:40.261543 54817 net.cpp:110] Creating Layer inception_4a/output_inception_4a/output_0_split
I0902 19:47:40.261551 54817 net.cpp:477] inception_4a/output_inception_4a/output_0_split <- inception_4a/output
I0902 19:47:40.261565 54817 net.cpp:433] inception_4a/output_inception_4a/output_0_split -> inception_4a/output_inception_4a/output_0_split_0
I0902 19:47:40.261581 54817 net.cpp:433] inception_4a/output_inception_4a/output_0_split -> inception_4a/output_inception_4a/output_0_split_1
I0902 19:47:40.261605 54817 net.cpp:433] inception_4a/output_inception_4a/output_0_split -> inception_4a/output_inception_4a/output_0_split_2
I0902 19:47:40.261620 54817 net.cpp:433] inception_4a/output_inception_4a/output_0_split -> inception_4a/output_inception_4a/output_0_split_3
I0902 19:47:40.261634 54817 net.cpp:433] inception_4a/output_inception_4a/output_0_split -> inception_4a/output_inception_4a/output_0_split_4
I0902 19:47:40.261652 54817 net.cpp:155] Setting up inception_4a/output_inception_4a/output_0_split
I0902 19:47:40.261664 54817 net.cpp:163] Top shape: 32 512 14 14 (3211264)
I0902 19:47:40.261675 54817 net.cpp:163] Top shape: 32 512 14 14 (3211264)
I0902 19:47:40.261684 54817 net.cpp:163] Top shape: 32 512 14 14 (3211264)
I0902 19:47:40.261694 54817 net.cpp:163] Top shape: 32 512 14 14 (3211264)
I0902 19:47:40.261704 54817 net.cpp:163] Top shape: 32 512 14 14 (3211264)
I0902 19:47:40.261713 54817 layer_factory.hpp:76] Creating layer loss1/ave_pool
I0902 19:47:40.261726 54817 net.cpp:110] Creating Layer loss1/ave_pool
I0902 19:47:40.261735 54817 net.cpp:477] loss1/ave_pool <- inception_4a/output_inception_4a/output_0_split_0
I0902 19:47:40.261750 54817 net.cpp:433] loss1/ave_pool -> loss1/ave_pool
I0902 19:47:40.263484 54817 net.cpp:155] Setting up loss1/ave_pool
I0902 19:47:40.263514 54817 net.cpp:163] Top shape: 32 512 4 4 (262144)
I0902 19:47:40.263525 54817 layer_factory.hpp:76] Creating layer loss1/conv
I0902 19:47:40.263569 54817 net.cpp:110] Creating Layer loss1/conv
I0902 19:47:40.263581 54817 net.cpp:477] loss1/conv <- loss1/ave_pool
I0902 19:47:40.263599 54817 net.cpp:433] loss1/conv -> loss1/conv
I0902 19:47:40.269421 54817 net.cpp:155] Setting up loss1/conv
I0902 19:47:40.269454 54817 net.cpp:163] Top shape: 32 128 4 4 (65536)
I0902 19:47:40.269471 54817 layer_factory.hpp:76] Creating layer loss1/relu_conv
I0902 19:47:40.269487 54817 net.cpp:110] Creating Layer loss1/relu_conv
I0902 19:47:40.269497 54817 net.cpp:477] loss1/relu_conv <- loss1/conv
I0902 19:47:40.269513 54817 net.cpp:419] loss1/relu_conv -> loss1/conv (in-place)
I0902 19:47:40.271047 54817 net.cpp:155] Setting up loss1/relu_conv
I0902 19:47:40.271078 54817 net.cpp:163] Top shape: 32 128 4 4 (65536)
I0902 19:47:40.271090 54817 layer_factory.hpp:76] Creating layer loss1/fc
I0902 19:47:40.271118 54817 net.cpp:110] Creating Layer loss1/fc
I0902 19:47:40.271128 54817 net.cpp:477] loss1/fc <- loss1/conv
I0902 19:47:40.271143 54817 net.cpp:433] loss1/fc -> loss1/fc
I0902 19:47:40.309667 54817 net.cpp:155] Setting up loss1/fc
I0902 19:47:40.309711 54817 net.cpp:163] Top shape: 32 1024 (32768)
I0902 19:47:40.309731 54817 layer_factory.hpp:76] Creating layer loss1/relu_fc
I0902 19:47:40.309748 54817 net.cpp:110] Creating Layer loss1/relu_fc
I0902 19:47:40.309759 54817 net.cpp:477] loss1/relu_fc <- loss1/fc
I0902 19:47:40.309773 54817 net.cpp:419] loss1/relu_fc -> loss1/fc (in-place)
I0902 19:47:40.311403 54817 net.cpp:155] Setting up loss1/relu_fc
I0902 19:47:40.311439 54817 net.cpp:163] Top shape: 32 1024 (32768)
I0902 19:47:40.311450 54817 layer_factory.hpp:76] Creating layer loss1/drop_fc
I0902 19:47:40.311491 54817 net.cpp:110] Creating Layer loss1/drop_fc
I0902 19:47:40.311502 54817 net.cpp:477] loss1/drop_fc <- loss1/fc
I0902 19:47:40.311517 54817 net.cpp:419] loss1/drop_fc -> loss1/fc (in-place)
I0902 19:47:40.311545 54817 net.cpp:155] Setting up loss1/drop_fc
I0902 19:47:40.311558 54817 net.cpp:163] Top shape: 32 1024 (32768)
I0902 19:47:40.311568 54817 layer_factory.hpp:76] Creating layer loss1/classifier_cub
I0902 19:47:40.311589 54817 net.cpp:110] Creating Layer loss1/classifier_cub
I0902 19:47:40.311599 54817 net.cpp:477] loss1/classifier_cub <- loss1/fc
I0902 19:47:40.311614 54817 net.cpp:433] loss1/classifier_cub -> loss1/classifier
I0902 19:47:40.327101 54817 net.cpp:155] Setting up loss1/classifier_cub
I0902 19:47:40.327131 54817 net.cpp:163] Top shape: 32 200 (6400)
I0902 19:47:40.327149 54817 layer_factory.hpp:76] Creating layer loss1/loss
I0902 19:47:40.327181 54817 net.cpp:110] Creating Layer loss1/loss
I0902 19:47:40.327191 54817 net.cpp:477] loss1/loss <- loss1/classifier
I0902 19:47:40.327204 54817 net.cpp:477] loss1/loss <- label_data_1_split_0
I0902 19:47:40.327219 54817 net.cpp:433] loss1/loss -> loss1/loss1
I0902 19:47:40.327253 54817 layer_factory.hpp:76] Creating layer loss1/loss
I0902 19:47:40.329357 54817 net.cpp:155] Setting up loss1/loss
I0902 19:47:40.329386 54817 net.cpp:163] Top shape: (1)
I0902 19:47:40.329396 54817 net.cpp:168]     with loss weight 0.3
I0902 19:47:40.329438 54817 layer_factory.hpp:76] Creating layer inception_4b/1x1
I0902 19:47:40.329462 54817 net.cpp:110] Creating Layer inception_4b/1x1
I0902 19:47:40.329473 54817 net.cpp:477] inception_4b/1x1 <- inception_4a/output_inception_4a/output_0_split_1
I0902 19:47:40.329488 54817 net.cpp:433] inception_4b/1x1 -> inception_4b/1x1
I0902 19:47:40.335641 54817 net.cpp:155] Setting up inception_4b/1x1
I0902 19:47:40.335680 54817 net.cpp:163] Top shape: 32 160 14 14 (1003520)
I0902 19:47:40.335698 54817 layer_factory.hpp:76] Creating layer inception_4b/relu_1x1
I0902 19:47:40.335714 54817 net.cpp:110] Creating Layer inception_4b/relu_1x1
I0902 19:47:40.335724 54817 net.cpp:477] inception_4b/relu_1x1 <- inception_4b/1x1
I0902 19:47:40.335741 54817 net.cpp:419] inception_4b/relu_1x1 -> inception_4b/1x1 (in-place)
I0902 19:47:40.337283 54817 net.cpp:155] Setting up inception_4b/relu_1x1
I0902 19:47:40.337319 54817 net.cpp:163] Top shape: 32 160 14 14 (1003520)
I0902 19:47:40.337358 54817 layer_factory.hpp:76] Creating layer inception_4b/3x3_reduce
I0902 19:47:40.337383 54817 net.cpp:110] Creating Layer inception_4b/3x3_reduce
I0902 19:47:40.337393 54817 net.cpp:477] inception_4b/3x3_reduce <- inception_4a/output_inception_4a/output_0_split_2
I0902 19:47:40.337411 54817 net.cpp:433] inception_4b/3x3_reduce -> inception_4b/3x3_reduce
I0902 19:47:40.344195 54817 net.cpp:155] Setting up inception_4b/3x3_reduce
I0902 19:47:40.344228 54817 net.cpp:163] Top shape: 32 112 14 14 (702464)
I0902 19:47:40.344246 54817 layer_factory.hpp:76] Creating layer inception_4b/relu_3x3_reduce
I0902 19:47:40.344261 54817 net.cpp:110] Creating Layer inception_4b/relu_3x3_reduce
I0902 19:47:40.344272 54817 net.cpp:477] inception_4b/relu_3x3_reduce <- inception_4b/3x3_reduce
I0902 19:47:40.344295 54817 net.cpp:419] inception_4b/relu_3x3_reduce -> inception_4b/3x3_reduce (in-place)
I0902 19:47:40.345847 54817 net.cpp:155] Setting up inception_4b/relu_3x3_reduce
I0902 19:47:40.345877 54817 net.cpp:163] Top shape: 32 112 14 14 (702464)
I0902 19:47:40.345890 54817 layer_factory.hpp:76] Creating layer inception_4b/3x3
I0902 19:47:40.345906 54817 net.cpp:110] Creating Layer inception_4b/3x3
I0902 19:47:40.345917 54817 net.cpp:477] inception_4b/3x3 <- inception_4b/3x3_reduce
I0902 19:47:40.345937 54817 net.cpp:433] inception_4b/3x3 -> inception_4b/3x3
I0902 19:47:40.355470 54817 net.cpp:155] Setting up inception_4b/3x3
I0902 19:47:40.355517 54817 net.cpp:163] Top shape: 32 224 14 14 (1404928)
I0902 19:47:40.355537 54817 layer_factory.hpp:76] Creating layer inception_4b/relu_3x3
I0902 19:47:40.355554 54817 net.cpp:110] Creating Layer inception_4b/relu_3x3
I0902 19:47:40.355567 54817 net.cpp:477] inception_4b/relu_3x3 <- inception_4b/3x3
I0902 19:47:40.355586 54817 net.cpp:419] inception_4b/relu_3x3 -> inception_4b/3x3 (in-place)
I0902 19:47:40.357152 54817 net.cpp:155] Setting up inception_4b/relu_3x3
I0902 19:47:40.357182 54817 net.cpp:163] Top shape: 32 224 14 14 (1404928)
I0902 19:47:40.357194 54817 layer_factory.hpp:76] Creating layer inception_4b/5x5_reduce
I0902 19:47:40.357218 54817 net.cpp:110] Creating Layer inception_4b/5x5_reduce
I0902 19:47:40.357228 54817 net.cpp:477] inception_4b/5x5_reduce <- inception_4a/output_inception_4a/output_0_split_3
I0902 19:47:40.357249 54817 net.cpp:433] inception_4b/5x5_reduce -> inception_4b/5x5_reduce
I0902 19:47:40.361649 54817 net.cpp:155] Setting up inception_4b/5x5_reduce
I0902 19:47:40.361682 54817 net.cpp:163] Top shape: 32 24 14 14 (150528)
I0902 19:47:40.361699 54817 layer_factory.hpp:76] Creating layer inception_4b/relu_5x5_reduce
I0902 19:47:40.361716 54817 net.cpp:110] Creating Layer inception_4b/relu_5x5_reduce
I0902 19:47:40.361726 54817 net.cpp:477] inception_4b/relu_5x5_reduce <- inception_4b/5x5_reduce
I0902 19:47:40.361737 54817 net.cpp:419] inception_4b/relu_5x5_reduce -> inception_4b/5x5_reduce (in-place)
I0902 19:47:40.363134 54817 net.cpp:155] Setting up inception_4b/relu_5x5_reduce
I0902 19:47:40.363160 54817 net.cpp:163] Top shape: 32 24 14 14 (150528)
I0902 19:47:40.363170 54817 layer_factory.hpp:76] Creating layer inception_4b/5x5
I0902 19:47:40.363188 54817 net.cpp:110] Creating Layer inception_4b/5x5
I0902 19:47:40.363196 54817 net.cpp:477] inception_4b/5x5 <- inception_4b/5x5_reduce
I0902 19:47:40.363211 54817 net.cpp:433] inception_4b/5x5 -> inception_4b/5x5
I0902 19:47:40.367530 54817 net.cpp:155] Setting up inception_4b/5x5
I0902 19:47:40.367557 54817 net.cpp:163] Top shape: 32 64 14 14 (401408)
I0902 19:47:40.367573 54817 layer_factory.hpp:76] Creating layer inception_4b/relu_5x5
I0902 19:47:40.367588 54817 net.cpp:110] Creating Layer inception_4b/relu_5x5
I0902 19:47:40.367597 54817 net.cpp:477] inception_4b/relu_5x5 <- inception_4b/5x5
I0902 19:47:40.367607 54817 net.cpp:419] inception_4b/relu_5x5 -> inception_4b/5x5 (in-place)
I0902 19:47:40.368851 54817 net.cpp:155] Setting up inception_4b/relu_5x5
I0902 19:47:40.368875 54817 net.cpp:163] Top shape: 32 64 14 14 (401408)
I0902 19:47:40.368885 54817 layer_factory.hpp:76] Creating layer inception_4b/pool
I0902 19:47:40.368914 54817 layer_factory.cpp:60] CUDNN does not support padding or multiple tops. Using Caffe's own pooling layer.
I0902 19:47:40.368927 54817 net.cpp:110] Creating Layer inception_4b/pool
I0902 19:47:40.368934 54817 net.cpp:477] inception_4b/pool <- inception_4a/output_inception_4a/output_0_split_4
I0902 19:47:40.368950 54817 net.cpp:433] inception_4b/pool -> inception_4b/pool
I0902 19:47:40.368985 54817 net.cpp:155] Setting up inception_4b/pool
I0902 19:47:40.369002 54817 net.cpp:163] Top shape: 32 512 14 14 (3211264)
I0902 19:47:40.369009 54817 layer_factory.hpp:76] Creating layer inception_4b/pool_proj
I0902 19:47:40.369026 54817 net.cpp:110] Creating Layer inception_4b/pool_proj
I0902 19:47:40.369038 54817 net.cpp:477] inception_4b/pool_proj <- inception_4b/pool
I0902 19:47:40.369050 54817 net.cpp:433] inception_4b/pool_proj -> inception_4b/pool_proj
I0902 19:47:40.373481 54817 net.cpp:155] Setting up inception_4b/pool_proj
I0902 19:47:40.373507 54817 net.cpp:163] Top shape: 32 64 14 14 (401408)
I0902 19:47:40.373522 54817 layer_factory.hpp:76] Creating layer inception_4b/relu_pool_proj
I0902 19:47:40.373539 54817 net.cpp:110] Creating Layer inception_4b/relu_pool_proj
I0902 19:47:40.373548 54817 net.cpp:477] inception_4b/relu_pool_proj <- inception_4b/pool_proj
I0902 19:47:40.373559 54817 net.cpp:419] inception_4b/relu_pool_proj -> inception_4b/pool_proj (in-place)
I0902 19:47:40.374817 54817 net.cpp:155] Setting up inception_4b/relu_pool_proj
I0902 19:47:40.374841 54817 net.cpp:163] Top shape: 32 64 14 14 (401408)
I0902 19:47:40.374851 54817 layer_factory.hpp:76] Creating layer inception_4b/output
I0902 19:47:40.374863 54817 net.cpp:110] Creating Layer inception_4b/output
I0902 19:47:40.374872 54817 net.cpp:477] inception_4b/output <- inception_4b/1x1
I0902 19:47:40.374882 54817 net.cpp:477] inception_4b/output <- inception_4b/3x3
I0902 19:47:40.374891 54817 net.cpp:477] inception_4b/output <- inception_4b/5x5
I0902 19:47:40.374899 54817 net.cpp:477] inception_4b/output <- inception_4b/pool_proj
I0902 19:47:40.374909 54817 net.cpp:433] inception_4b/output -> inception_4b/output
I0902 19:47:40.374925 54817 net.cpp:155] Setting up inception_4b/output
I0902 19:47:40.374935 54817 net.cpp:163] Top shape: 32 512 14 14 (3211264)
I0902 19:47:40.374943 54817 layer_factory.hpp:76] Creating layer inception_4b/output_inception_4b/output_0_split
I0902 19:47:40.374956 54817 net.cpp:110] Creating Layer inception_4b/output_inception_4b/output_0_split
I0902 19:47:40.374964 54817 net.cpp:477] inception_4b/output_inception_4b/output_0_split <- inception_4b/output
I0902 19:47:40.374974 54817 net.cpp:433] inception_4b/output_inception_4b/output_0_split -> inception_4b/output_inception_4b/output_0_split_0
I0902 19:47:40.374987 54817 net.cpp:433] inception_4b/output_inception_4b/output_0_split -> inception_4b/output_inception_4b/output_0_split_1
I0902 19:47:40.375004 54817 net.cpp:433] inception_4b/output_inception_4b/output_0_split -> inception_4b/output_inception_4b/output_0_split_2
I0902 19:47:40.375015 54817 net.cpp:433] inception_4b/output_inception_4b/output_0_split -> inception_4b/output_inception_4b/output_0_split_3
I0902 19:47:40.375028 54817 net.cpp:155] Setting up inception_4b/output_inception_4b/output_0_split
I0902 19:47:40.375037 54817 net.cpp:163] Top shape: 32 512 14 14 (3211264)
I0902 19:47:40.375046 54817 net.cpp:163] Top shape: 32 512 14 14 (3211264)
I0902 19:47:40.375053 54817 net.cpp:163] Top shape: 32 512 14 14 (3211264)
I0902 19:47:40.375061 54817 net.cpp:163] Top shape: 32 512 14 14 (3211264)
I0902 19:47:40.375067 54817 layer_factory.hpp:76] Creating layer inception_4c/1x1
I0902 19:47:40.375082 54817 net.cpp:110] Creating Layer inception_4c/1x1
I0902 19:47:40.375089 54817 net.cpp:477] inception_4c/1x1 <- inception_4b/output_inception_4b/output_0_split_0
I0902 19:47:40.375100 54817 net.cpp:433] inception_4c/1x1 -> inception_4c/1x1
I0902 19:47:40.381181 54817 net.cpp:155] Setting up inception_4c/1x1
I0902 19:47:40.381206 54817 net.cpp:163] Top shape: 32 128 14 14 (802816)
I0902 19:47:40.381239 54817 layer_factory.hpp:76] Creating layer inception_4c/relu_1x1
I0902 19:47:40.381255 54817 net.cpp:110] Creating Layer inception_4c/relu_1x1
I0902 19:47:40.381264 54817 net.cpp:477] inception_4c/relu_1x1 <- inception_4c/1x1
I0902 19:47:40.381275 54817 net.cpp:419] inception_4c/relu_1x1 -> inception_4c/1x1 (in-place)
I0902 19:47:40.382555 54817 net.cpp:155] Setting up inception_4c/relu_1x1
I0902 19:47:40.382580 54817 net.cpp:163] Top shape: 32 128 14 14 (802816)
I0902 19:47:40.382589 54817 layer_factory.hpp:76] Creating layer inception_4c/3x3_reduce
I0902 19:47:40.382603 54817 net.cpp:110] Creating Layer inception_4c/3x3_reduce
I0902 19:47:40.382611 54817 net.cpp:477] inception_4c/3x3_reduce <- inception_4b/output_inception_4b/output_0_split_1
I0902 19:47:40.382629 54817 net.cpp:433] inception_4c/3x3_reduce -> inception_4c/3x3_reduce
I0902 19:47:40.407430 54817 net.cpp:155] Setting up inception_4c/3x3_reduce
I0902 19:47:40.407457 54817 net.cpp:163] Top shape: 32 128 14 14 (802816)
I0902 19:47:40.407474 54817 layer_factory.hpp:76] Creating layer inception_4c/relu_3x3_reduce
I0902 19:47:40.407486 54817 net.cpp:110] Creating Layer inception_4c/relu_3x3_reduce
I0902 19:47:40.407495 54817 net.cpp:477] inception_4c/relu_3x3_reduce <- inception_4c/3x3_reduce
I0902 19:47:40.407506 54817 net.cpp:419] inception_4c/relu_3x3_reduce -> inception_4c/3x3_reduce (in-place)
I0902 19:47:40.408843 54817 net.cpp:155] Setting up inception_4c/relu_3x3_reduce
I0902 19:47:40.408866 54817 net.cpp:163] Top shape: 32 128 14 14 (802816)
I0902 19:47:40.408876 54817 layer_factory.hpp:76] Creating layer inception_4c/3x3
I0902 19:47:40.408895 54817 net.cpp:110] Creating Layer inception_4c/3x3
I0902 19:47:40.408902 54817 net.cpp:477] inception_4c/3x3 <- inception_4c/3x3_reduce
I0902 19:47:40.408917 54817 net.cpp:433] inception_4c/3x3 -> inception_4c/3x3
I0902 19:47:40.433641 54817 net.cpp:155] Setting up inception_4c/3x3
I0902 19:47:40.433668 54817 net.cpp:163] Top shape: 32 256 14 14 (1605632)
I0902 19:47:40.433707 54817 layer_factory.hpp:76] Creating layer inception_4c/relu_3x3
I0902 19:47:40.433722 54817 net.cpp:110] Creating Layer inception_4c/relu_3x3
I0902 19:47:40.433732 54817 net.cpp:477] inception_4c/relu_3x3 <- inception_4c/3x3
I0902 19:47:40.433743 54817 net.cpp:419] inception_4c/relu_3x3 -> inception_4c/3x3 (in-place)
I0902 19:47:40.435010 54817 net.cpp:155] Setting up inception_4c/relu_3x3
I0902 19:47:40.435035 54817 net.cpp:163] Top shape: 32 256 14 14 (1605632)
I0902 19:47:40.435045 54817 layer_factory.hpp:76] Creating layer inception_4c/5x5_reduce
I0902 19:47:40.435058 54817 net.cpp:110] Creating Layer inception_4c/5x5_reduce
I0902 19:47:40.435067 54817 net.cpp:477] inception_4c/5x5_reduce <- inception_4b/output_inception_4b/output_0_split_2
I0902 19:47:40.435083 54817 net.cpp:433] inception_4c/5x5_reduce -> inception_4c/5x5_reduce
I0902 19:47:40.479899 54817 net.cpp:155] Setting up inception_4c/5x5_reduce
I0902 19:47:40.479925 54817 net.cpp:163] Top shape: 32 24 14 14 (150528)
I0902 19:47:40.479940 54817 layer_factory.hpp:76] Creating layer inception_4c/relu_5x5_reduce
I0902 19:47:40.479956 54817 net.cpp:110] Creating Layer inception_4c/relu_5x5_reduce
I0902 19:47:40.479965 54817 net.cpp:477] inception_4c/relu_5x5_reduce <- inception_4c/5x5_reduce
I0902 19:47:40.479975 54817 net.cpp:419] inception_4c/relu_5x5_reduce -> inception_4c/5x5_reduce (in-place)
I0902 19:47:40.481909 54817 net.cpp:155] Setting up inception_4c/relu_5x5_reduce
I0902 19:47:40.481935 54817 net.cpp:163] Top shape: 32 24 14 14 (150528)
I0902 19:47:40.481945 54817 layer_factory.hpp:76] Creating layer inception_4c/5x5
I0902 19:47:40.481962 54817 net.cpp:110] Creating Layer inception_4c/5x5
I0902 19:47:40.481971 54817 net.cpp:477] inception_4c/5x5 <- inception_4c/5x5_reduce
I0902 19:47:40.481987 54817 net.cpp:433] inception_4c/5x5 -> inception_4c/5x5
I0902 19:47:40.488976 54817 net.cpp:155] Setting up inception_4c/5x5
I0902 19:47:40.489003 54817 net.cpp:163] Top shape: 32 64 14 14 (401408)
I0902 19:47:40.489018 54817 layer_factory.hpp:76] Creating layer inception_4c/relu_5x5
I0902 19:47:40.489049 54817 net.cpp:110] Creating Layer inception_4c/relu_5x5
I0902 19:47:40.489063 54817 net.cpp:477] inception_4c/relu_5x5 <- inception_4c/5x5
I0902 19:47:40.489073 54817 net.cpp:419] inception_4c/relu_5x5 -> inception_4c/5x5 (in-place)
I0902 19:47:40.491246 54817 net.cpp:155] Setting up inception_4c/relu_5x5
I0902 19:47:40.491273 54817 net.cpp:163] Top shape: 32 64 14 14 (401408)
I0902 19:47:40.491283 54817 layer_factory.hpp:76] Creating layer inception_4c/pool
I0902 19:47:40.491292 54817 layer_factory.cpp:60] CUDNN does not support padding or multiple tops. Using Caffe's own pooling layer.
I0902 19:47:40.491305 54817 net.cpp:110] Creating Layer inception_4c/pool
I0902 19:47:40.491314 54817 net.cpp:477] inception_4c/pool <- inception_4b/output_inception_4b/output_0_split_3
I0902 19:47:40.491325 54817 net.cpp:433] inception_4c/pool -> inception_4c/pool
I0902 19:47:40.491343 54817 net.cpp:155] Setting up inception_4c/pool
I0902 19:47:40.491355 54817 net.cpp:163] Top shape: 32 512 14 14 (3211264)
I0902 19:47:40.491364 54817 layer_factory.hpp:76] Creating layer inception_4c/pool_proj
I0902 19:47:40.491376 54817 net.cpp:110] Creating Layer inception_4c/pool_proj
I0902 19:47:40.491384 54817 net.cpp:477] inception_4c/pool_proj <- inception_4c/pool
I0902 19:47:40.491397 54817 net.cpp:433] inception_4c/pool_proj -> inception_4c/pool_proj
I0902 19:47:40.498221 54817 net.cpp:155] Setting up inception_4c/pool_proj
I0902 19:47:40.498251 54817 net.cpp:163] Top shape: 32 64 14 14 (401408)
I0902 19:47:40.498267 54817 layer_factory.hpp:76] Creating layer inception_4c/relu_pool_proj
I0902 19:47:40.498281 54817 net.cpp:110] Creating Layer inception_4c/relu_pool_proj
I0902 19:47:40.498289 54817 net.cpp:477] inception_4c/relu_pool_proj <- inception_4c/pool_proj
I0902 19:47:40.498299 54817 net.cpp:419] inception_4c/relu_pool_proj -> inception_4c/pool_proj (in-place)
I0902 19:47:40.500481 54817 net.cpp:155] Setting up inception_4c/relu_pool_proj
I0902 19:47:40.500505 54817 net.cpp:163] Top shape: 32 64 14 14 (401408)
I0902 19:47:40.500514 54817 layer_factory.hpp:76] Creating layer inception_4c/output
I0902 19:47:40.500526 54817 net.cpp:110] Creating Layer inception_4c/output
I0902 19:47:40.500535 54817 net.cpp:477] inception_4c/output <- inception_4c/1x1
I0902 19:47:40.500545 54817 net.cpp:477] inception_4c/output <- inception_4c/3x3
I0902 19:47:40.500556 54817 net.cpp:477] inception_4c/output <- inception_4c/5x5
I0902 19:47:40.500565 54817 net.cpp:477] inception_4c/output <- inception_4c/pool_proj
I0902 19:47:40.500574 54817 net.cpp:433] inception_4c/output -> inception_4c/output
I0902 19:47:40.500591 54817 net.cpp:155] Setting up inception_4c/output
I0902 19:47:40.500601 54817 net.cpp:163] Top shape: 32 512 14 14 (3211264)
I0902 19:47:40.500607 54817 layer_factory.hpp:76] Creating layer inception_4c/output_inception_4c/output_0_split
I0902 19:47:40.500618 54817 net.cpp:110] Creating Layer inception_4c/output_inception_4c/output_0_split
I0902 19:47:40.500627 54817 net.cpp:477] inception_4c/output_inception_4c/output_0_split <- inception_4c/output
I0902 19:47:40.500636 54817 net.cpp:433] inception_4c/output_inception_4c/output_0_split -> inception_4c/output_inception_4c/output_0_split_0
I0902 19:47:40.500651 54817 net.cpp:433] inception_4c/output_inception_4c/output_0_split -> inception_4c/output_inception_4c/output_0_split_1
I0902 19:47:40.500665 54817 net.cpp:433] inception_4c/output_inception_4c/output_0_split -> inception_4c/output_inception_4c/output_0_split_2
I0902 19:47:40.500677 54817 net.cpp:433] inception_4c/output_inception_4c/output_0_split -> inception_4c/output_inception_4c/output_0_split_3
I0902 19:47:40.500690 54817 net.cpp:155] Setting up inception_4c/output_inception_4c/output_0_split
I0902 19:47:40.500699 54817 net.cpp:163] Top shape: 32 512 14 14 (3211264)
I0902 19:47:40.500707 54817 net.cpp:163] Top shape: 32 512 14 14 (3211264)
I0902 19:47:40.500715 54817 net.cpp:163] Top shape: 32 512 14 14 (3211264)
I0902 19:47:40.500723 54817 net.cpp:163] Top shape: 32 512 14 14 (3211264)
I0902 19:47:40.500748 54817 layer_factory.hpp:76] Creating layer inception_4d/1x1
I0902 19:47:40.500766 54817 net.cpp:110] Creating Layer inception_4d/1x1
I0902 19:47:40.500772 54817 net.cpp:477] inception_4d/1x1 <- inception_4c/output_inception_4c/output_0_split_0
I0902 19:47:40.500783 54817 net.cpp:433] inception_4d/1x1 -> inception_4d/1x1
I0902 19:47:40.507477 54817 net.cpp:155] Setting up inception_4d/1x1
I0902 19:47:40.507503 54817 net.cpp:163] Top shape: 32 112 14 14 (702464)
I0902 19:47:40.507518 54817 layer_factory.hpp:76] Creating layer inception_4d/relu_1x1
I0902 19:47:40.507530 54817 net.cpp:110] Creating Layer inception_4d/relu_1x1
I0902 19:47:40.507539 54817 net.cpp:477] inception_4d/relu_1x1 <- inception_4d/1x1
I0902 19:47:40.507552 54817 net.cpp:419] inception_4d/relu_1x1 -> inception_4d/1x1 (in-place)
I0902 19:47:40.509702 54817 net.cpp:155] Setting up inception_4d/relu_1x1
I0902 19:47:40.509729 54817 net.cpp:163] Top shape: 32 112 14 14 (702464)
I0902 19:47:40.509738 54817 layer_factory.hpp:76] Creating layer inception_4d/3x3_reduce
I0902 19:47:40.509752 54817 net.cpp:110] Creating Layer inception_4d/3x3_reduce
I0902 19:47:40.509762 54817 net.cpp:477] inception_4d/3x3_reduce <- inception_4c/output_inception_4c/output_0_split_1
I0902 19:47:40.509776 54817 net.cpp:433] inception_4d/3x3_reduce -> inception_4d/3x3_reduce
I0902 19:47:40.516285 54817 net.cpp:155] Setting up inception_4d/3x3_reduce
I0902 19:47:40.516311 54817 net.cpp:163] Top shape: 32 144 14 14 (903168)
I0902 19:47:40.516327 54817 layer_factory.hpp:76] Creating layer inception_4d/relu_3x3_reduce
I0902 19:47:40.516340 54817 net.cpp:110] Creating Layer inception_4d/relu_3x3_reduce
I0902 19:47:40.516350 54817 net.cpp:477] inception_4d/relu_3x3_reduce <- inception_4d/3x3_reduce
I0902 19:47:40.516360 54817 net.cpp:419] inception_4d/relu_3x3_reduce -> inception_4d/3x3_reduce (in-place)
I0902 19:47:40.518782 54817 net.cpp:155] Setting up inception_4d/relu_3x3_reduce
I0902 19:47:40.518807 54817 net.cpp:163] Top shape: 32 144 14 14 (903168)
I0902 19:47:40.518817 54817 layer_factory.hpp:76] Creating layer inception_4d/3x3
I0902 19:47:40.518833 54817 net.cpp:110] Creating Layer inception_4d/3x3
I0902 19:47:40.518842 54817 net.cpp:477] inception_4d/3x3 <- inception_4d/3x3_reduce
I0902 19:47:40.518854 54817 net.cpp:433] inception_4d/3x3 -> inception_4d/3x3
I0902 19:47:40.578829 54817 net.cpp:155] Setting up inception_4d/3x3
I0902 19:47:40.578855 54817 net.cpp:163] Top shape: 32 288 14 14 (1806336)
I0902 19:47:40.578871 54817 layer_factory.hpp:76] Creating layer inception_4d/relu_3x3
I0902 19:47:40.578883 54817 net.cpp:110] Creating Layer inception_4d/relu_3x3
I0902 19:47:40.578892 54817 net.cpp:477] inception_4d/relu_3x3 <- inception_4d/3x3
I0902 19:47:40.578907 54817 net.cpp:419] inception_4d/relu_3x3 -> inception_4d/3x3 (in-place)
I0902 19:47:40.580955 54817 net.cpp:155] Setting up inception_4d/relu_3x3
I0902 19:47:40.580979 54817 net.cpp:163] Top shape: 32 288 14 14 (1806336)
I0902 19:47:40.580989 54817 layer_factory.hpp:76] Creating layer inception_4d/5x5_reduce
I0902 19:47:40.581007 54817 net.cpp:110] Creating Layer inception_4d/5x5_reduce
I0902 19:47:40.581014 54817 net.cpp:477] inception_4d/5x5_reduce <- inception_4c/output_inception_4c/output_0_split_2
I0902 19:47:40.581030 54817 net.cpp:433] inception_4d/5x5_reduce -> inception_4d/5x5_reduce
I0902 19:47:40.638860 54817 net.cpp:155] Setting up inception_4d/5x5_reduce
I0902 19:47:40.638887 54817 net.cpp:163] Top shape: 32 32 14 14 (200704)
I0902 19:47:40.638906 54817 layer_factory.hpp:76] Creating layer inception_4d/relu_5x5_reduce
I0902 19:47:40.638918 54817 net.cpp:110] Creating Layer inception_4d/relu_5x5_reduce
I0902 19:47:40.638926 54817 net.cpp:477] inception_4d/relu_5x5_reduce <- inception_4d/5x5_reduce
I0902 19:47:40.638937 54817 net.cpp:419] inception_4d/relu_5x5_reduce -> inception_4d/5x5_reduce (in-place)
I0902 19:47:40.643376 54817 net.cpp:155] Setting up inception_4d/relu_5x5_reduce
I0902 19:47:40.643404 54817 net.cpp:163] Top shape: 32 32 14 14 (200704)
I0902 19:47:40.643414 54817 layer_factory.hpp:76] Creating layer inception_4d/5x5
I0902 19:47:40.643446 54817 net.cpp:110] Creating Layer inception_4d/5x5
I0902 19:47:40.643456 54817 net.cpp:477] inception_4d/5x5 <- inception_4d/5x5_reduce
I0902 19:47:40.643472 54817 net.cpp:433] inception_4d/5x5 -> inception_4d/5x5
I0902 19:47:40.702209 54817 net.cpp:155] Setting up inception_4d/5x5
I0902 19:47:40.702239 54817 net.cpp:163] Top shape: 32 64 14 14 (401408)
I0902 19:47:40.702255 54817 layer_factory.hpp:76] Creating layer inception_4d/relu_5x5
I0902 19:47:40.702272 54817 net.cpp:110] Creating Layer inception_4d/relu_5x5
I0902 19:47:40.702281 54817 net.cpp:477] inception_4d/relu_5x5 <- inception_4d/5x5
I0902 19:47:40.702292 54817 net.cpp:419] inception_4d/relu_5x5 -> inception_4d/5x5 (in-place)
I0902 19:47:40.753664 54817 net.cpp:155] Setting up inception_4d/relu_5x5
I0902 19:47:40.753695 54817 net.cpp:163] Top shape: 32 64 14 14 (401408)
I0902 19:47:40.753706 54817 layer_factory.hpp:76] Creating layer inception_4d/pool
I0902 19:47:40.753716 54817 layer_factory.cpp:60] CUDNN does not support padding or multiple tops. Using Caffe's own pooling layer.
I0902 19:47:40.753728 54817 net.cpp:110] Creating Layer inception_4d/pool
I0902 19:47:40.753738 54817 net.cpp:477] inception_4d/pool <- inception_4c/output_inception_4c/output_0_split_3
I0902 19:47:40.753756 54817 net.cpp:433] inception_4d/pool -> inception_4d/pool
I0902 19:47:40.753777 54817 net.cpp:155] Setting up inception_4d/pool
I0902 19:47:40.753788 54817 net.cpp:163] Top shape: 32 512 14 14 (3211264)
I0902 19:47:40.753798 54817 layer_factory.hpp:76] Creating layer inception_4d/pool_proj
I0902 19:47:40.753832 54817 net.cpp:110] Creating Layer inception_4d/pool_proj
I0902 19:47:40.753842 54817 net.cpp:477] inception_4d/pool_proj <- inception_4d/pool
I0902 19:47:40.753855 54817 net.cpp:433] inception_4d/pool_proj -> inception_4d/pool_proj
I0902 19:47:40.762440 54817 net.cpp:155] Setting up inception_4d/pool_proj
I0902 19:47:40.762471 54817 net.cpp:163] Top shape: 32 64 14 14 (401408)
I0902 19:47:40.762490 54817 layer_factory.hpp:76] Creating layer inception_4d/relu_pool_proj
I0902 19:47:40.762502 54817 net.cpp:110] Creating Layer inception_4d/relu_pool_proj
I0902 19:47:40.762512 54817 net.cpp:477] inception_4d/relu_pool_proj <- inception_4d/pool_proj
I0902 19:47:40.762524 54817 net.cpp:419] inception_4d/relu_pool_proj -> inception_4d/pool_proj (in-place)
I0902 19:47:40.764760 54817 net.cpp:155] Setting up inception_4d/relu_pool_proj
I0902 19:47:40.764788 54817 net.cpp:163] Top shape: 32 64 14 14 (401408)
I0902 19:47:40.764799 54817 layer_factory.hpp:76] Creating layer inception_4d/output
I0902 19:47:40.764816 54817 net.cpp:110] Creating Layer inception_4d/output
I0902 19:47:40.764827 54817 net.cpp:477] inception_4d/output <- inception_4d/1x1
I0902 19:47:40.764837 54817 net.cpp:477] inception_4d/output <- inception_4d/3x3
I0902 19:47:40.764847 54817 net.cpp:477] inception_4d/output <- inception_4d/5x5
I0902 19:47:40.764857 54817 net.cpp:477] inception_4d/output <- inception_4d/pool_proj
I0902 19:47:40.764868 54817 net.cpp:433] inception_4d/output -> inception_4d/output
I0902 19:47:40.764886 54817 net.cpp:155] Setting up inception_4d/output
I0902 19:47:40.764899 54817 net.cpp:163] Top shape: 32 528 14 14 (3311616)
I0902 19:47:40.764906 54817 layer_factory.hpp:76] Creating layer inception_4d/output_inception_4d/output_0_split
I0902 19:47:40.764919 54817 net.cpp:110] Creating Layer inception_4d/output_inception_4d/output_0_split
I0902 19:47:40.764927 54817 net.cpp:477] inception_4d/output_inception_4d/output_0_split <- inception_4d/output
I0902 19:47:40.764943 54817 net.cpp:433] inception_4d/output_inception_4d/output_0_split -> inception_4d/output_inception_4d/output_0_split_0
I0902 19:47:40.764958 54817 net.cpp:433] inception_4d/output_inception_4d/output_0_split -> inception_4d/output_inception_4d/output_0_split_1
I0902 19:47:40.764973 54817 net.cpp:433] inception_4d/output_inception_4d/output_0_split -> inception_4d/output_inception_4d/output_0_split_2
I0902 19:47:40.764986 54817 net.cpp:433] inception_4d/output_inception_4d/output_0_split -> inception_4d/output_inception_4d/output_0_split_3
I0902 19:47:40.765023 54817 net.cpp:433] inception_4d/output_inception_4d/output_0_split -> inception_4d/output_inception_4d/output_0_split_4
I0902 19:47:40.765044 54817 net.cpp:155] Setting up inception_4d/output_inception_4d/output_0_split
I0902 19:47:40.765056 54817 net.cpp:163] Top shape: 32 528 14 14 (3311616)
I0902 19:47:40.765066 54817 net.cpp:163] Top shape: 32 528 14 14 (3311616)
I0902 19:47:40.765075 54817 net.cpp:163] Top shape: 32 528 14 14 (3311616)
I0902 19:47:40.765084 54817 net.cpp:163] Top shape: 32 528 14 14 (3311616)
I0902 19:47:40.765092 54817 net.cpp:163] Top shape: 32 528 14 14 (3311616)
I0902 19:47:40.765100 54817 layer_factory.hpp:76] Creating layer loss2/ave_pool
I0902 19:47:40.765113 54817 net.cpp:110] Creating Layer loss2/ave_pool
I0902 19:47:40.765121 54817 net.cpp:477] loss2/ave_pool <- inception_4d/output_inception_4d/output_0_split_0
I0902 19:47:40.765133 54817 net.cpp:433] loss2/ave_pool -> loss2/ave_pool
I0902 19:47:40.767173 54817 net.cpp:155] Setting up loss2/ave_pool
I0902 19:47:40.767204 54817 net.cpp:163] Top shape: 32 528 4 4 (270336)
I0902 19:47:40.767215 54817 layer_factory.hpp:76] Creating layer loss2/conv
I0902 19:47:40.767232 54817 net.cpp:110] Creating Layer loss2/conv
I0902 19:47:40.767241 54817 net.cpp:477] loss2/conv <- loss2/ave_pool
I0902 19:47:40.767258 54817 net.cpp:433] loss2/conv -> loss2/conv
I0902 19:47:40.774469 54817 net.cpp:155] Setting up loss2/conv
I0902 19:47:40.774499 54817 net.cpp:163] Top shape: 32 128 4 4 (65536)
I0902 19:47:40.774518 54817 layer_factory.hpp:76] Creating layer loss2/relu_conv
I0902 19:47:40.774541 54817 net.cpp:110] Creating Layer loss2/relu_conv
I0902 19:47:40.774551 54817 net.cpp:477] loss2/relu_conv <- loss2/conv
I0902 19:47:40.774564 54817 net.cpp:419] loss2/relu_conv -> loss2/conv (in-place)
I0902 19:47:40.776064 54817 net.cpp:155] Setting up loss2/relu_conv
I0902 19:47:40.776093 54817 net.cpp:163] Top shape: 32 128 4 4 (65536)
I0902 19:47:40.776103 54817 layer_factory.hpp:76] Creating layer loss2/fc
I0902 19:47:40.776119 54817 net.cpp:110] Creating Layer loss2/fc
I0902 19:47:40.776129 54817 net.cpp:477] loss2/fc <- loss2/conv
I0902 19:47:40.776145 54817 net.cpp:433] loss2/fc -> loss2/fc
I0902 19:47:40.809469 54817 net.cpp:155] Setting up loss2/fc
I0902 19:47:40.809497 54817 net.cpp:163] Top shape: 32 1024 (32768)
I0902 19:47:40.809514 54817 layer_factory.hpp:76] Creating layer loss2/relu_fc
I0902 19:47:40.809532 54817 net.cpp:110] Creating Layer loss2/relu_fc
I0902 19:47:40.809541 54817 net.cpp:477] loss2/relu_fc <- loss2/fc
I0902 19:47:40.809553 54817 net.cpp:419] loss2/relu_fc -> loss2/fc (in-place)
I0902 19:47:40.811064 54817 net.cpp:155] Setting up loss2/relu_fc
I0902 19:47:40.811091 54817 net.cpp:163] Top shape: 32 1024 (32768)
I0902 19:47:40.811101 54817 layer_factory.hpp:76] Creating layer loss2/drop_fc
I0902 19:47:40.811115 54817 net.cpp:110] Creating Layer loss2/drop_fc
I0902 19:47:40.811125 54817 net.cpp:477] loss2/drop_fc <- loss2/fc
I0902 19:47:40.811137 54817 net.cpp:419] loss2/drop_fc -> loss2/fc (in-place)
I0902 19:47:40.811154 54817 net.cpp:155] Setting up loss2/drop_fc
I0902 19:47:40.811166 54817 net.cpp:163] Top shape: 32 1024 (32768)
I0902 19:47:40.811173 54817 layer_factory.hpp:76] Creating layer loss2/classifier_cub
I0902 19:47:40.811192 54817 net.cpp:110] Creating Layer loss2/classifier_cub
I0902 19:47:40.811202 54817 net.cpp:477] loss2/classifier_cub <- loss2/fc
I0902 19:47:40.811218 54817 net.cpp:433] loss2/classifier_cub -> loss2/classifier
I0902 19:47:40.824692 54817 net.cpp:155] Setting up loss2/classifier_cub
I0902 19:47:40.824718 54817 net.cpp:163] Top shape: 32 200 (6400)
I0902 19:47:40.824735 54817 layer_factory.hpp:76] Creating layer loss2/loss
I0902 19:47:40.824749 54817 net.cpp:110] Creating Layer loss2/loss
I0902 19:47:40.824759 54817 net.cpp:477] loss2/loss <- loss2/classifier
I0902 19:47:40.824770 54817 net.cpp:477] loss2/loss <- label_data_1_split_1
I0902 19:47:40.824790 54817 net.cpp:433] loss2/loss -> loss2/loss1
I0902 19:47:40.824832 54817 layer_factory.hpp:76] Creating layer loss2/loss
I0902 19:47:40.826596 54817 net.cpp:155] Setting up loss2/loss
I0902 19:47:40.826628 54817 net.cpp:163] Top shape: (1)
I0902 19:47:40.826637 54817 net.cpp:168]     with loss weight 0.3
I0902 19:47:40.826658 54817 layer_factory.hpp:76] Creating layer inception_4e/1x1
I0902 19:47:40.826674 54817 net.cpp:110] Creating Layer inception_4e/1x1
I0902 19:47:40.826684 54817 net.cpp:477] inception_4e/1x1 <- inception_4d/output_inception_4d/output_0_split_1
I0902 19:47:40.826702 54817 net.cpp:433] inception_4e/1x1 -> inception_4e/1x1
I0902 19:47:40.843466 54817 net.cpp:155] Setting up inception_4e/1x1
I0902 19:47:40.843497 54817 net.cpp:163] Top shape: 32 256 14 14 (1605632)
I0902 19:47:40.843514 54817 layer_factory.hpp:76] Creating layer inception_4e/relu_1x1
I0902 19:47:40.843528 54817 net.cpp:110] Creating Layer inception_4e/relu_1x1
I0902 19:47:40.843538 54817 net.cpp:477] inception_4e/relu_1x1 <- inception_4e/1x1
I0902 19:47:40.843554 54817 net.cpp:419] inception_4e/relu_1x1 -> inception_4e/1x1 (in-place)
I0902 19:47:40.845685 54817 net.cpp:155] Setting up inception_4e/relu_1x1
I0902 19:47:40.845713 54817 net.cpp:163] Top shape: 32 256 14 14 (1605632)
I0902 19:47:40.845728 54817 layer_factory.hpp:76] Creating layer inception_4e/3x3_reduce
I0902 19:47:40.845746 54817 net.cpp:110] Creating Layer inception_4e/3x3_reduce
I0902 19:47:40.845754 54817 net.cpp:477] inception_4e/3x3_reduce <- inception_4d/output_inception_4d/output_0_split_2
I0902 19:47:40.845772 54817 net.cpp:433] inception_4e/3x3_reduce -> inception_4e/3x3_reduce
I0902 19:47:40.852604 54817 net.cpp:155] Setting up inception_4e/3x3_reduce
I0902 19:47:40.852634 54817 net.cpp:163] Top shape: 32 160 14 14 (1003520)
I0902 19:47:40.852653 54817 layer_factory.hpp:76] Creating layer inception_4e/relu_3x3_reduce
I0902 19:47:40.852670 54817 net.cpp:110] Creating Layer inception_4e/relu_3x3_reduce
I0902 19:47:40.852680 54817 net.cpp:477] inception_4e/relu_3x3_reduce <- inception_4e/3x3_reduce
I0902 19:47:40.852692 54817 net.cpp:419] inception_4e/relu_3x3_reduce -> inception_4e/3x3_reduce (in-place)
I0902 19:47:40.854207 54817 net.cpp:155] Setting up inception_4e/relu_3x3_reduce
I0902 19:47:40.854236 54817 net.cpp:163] Top shape: 32 160 14 14 (1003520)
I0902 19:47:40.854248 54817 layer_factory.hpp:76] Creating layer inception_4e/3x3
I0902 19:47:40.854267 54817 net.cpp:110] Creating Layer inception_4e/3x3
I0902 19:47:40.854277 54817 net.cpp:477] inception_4e/3x3 <- inception_4e/3x3_reduce
I0902 19:47:40.854291 54817 net.cpp:433] inception_4e/3x3 -> inception_4e/3x3
I0902 19:47:40.866938 54817 net.cpp:155] Setting up inception_4e/3x3
I0902 19:47:40.866968 54817 net.cpp:163] Top shape: 32 320 14 14 (2007040)
I0902 19:47:40.866989 54817 layer_factory.hpp:76] Creating layer inception_4e/relu_3x3
I0902 19:47:40.867004 54817 net.cpp:110] Creating Layer inception_4e/relu_3x3
I0902 19:47:40.867014 54817 net.cpp:477] inception_4e/relu_3x3 <- inception_4e/3x3
I0902 19:47:40.867029 54817 net.cpp:419] inception_4e/relu_3x3 -> inception_4e/3x3 (in-place)
I0902 19:47:40.868546 54817 net.cpp:155] Setting up inception_4e/relu_3x3
I0902 19:47:40.868573 54817 net.cpp:163] Top shape: 32 320 14 14 (2007040)
I0902 19:47:40.868584 54817 layer_factory.hpp:76] Creating layer inception_4e/5x5_reduce
I0902 19:47:40.868604 54817 net.cpp:110] Creating Layer inception_4e/5x5_reduce
I0902 19:47:40.868614 54817 net.cpp:477] inception_4e/5x5_reduce <- inception_4d/output_inception_4d/output_0_split_3
I0902 19:47:40.868633 54817 net.cpp:433] inception_4e/5x5_reduce -> inception_4e/5x5_reduce
I0902 19:47:40.873818 54817 net.cpp:155] Setting up inception_4e/5x5_reduce
I0902 19:47:40.873847 54817 net.cpp:163] Top shape: 32 32 14 14 (200704)
I0902 19:47:40.873864 54817 layer_factory.hpp:76] Creating layer inception_4e/relu_5x5_reduce
I0902 19:47:40.873878 54817 net.cpp:110] Creating Layer inception_4e/relu_5x5_reduce
I0902 19:47:40.873888 54817 net.cpp:477] inception_4e/relu_5x5_reduce <- inception_4e/5x5_reduce
I0902 19:47:40.873906 54817 net.cpp:419] inception_4e/relu_5x5_reduce -> inception_4e/5x5_reduce (in-place)
I0902 19:47:40.875437 54817 net.cpp:155] Setting up inception_4e/relu_5x5_reduce
I0902 19:47:40.875465 54817 net.cpp:163] Top shape: 32 32 14 14 (200704)
I0902 19:47:40.875476 54817 layer_factory.hpp:76] Creating layer inception_4e/5x5
I0902 19:47:40.875522 54817 net.cpp:110] Creating Layer inception_4e/5x5
I0902 19:47:40.875533 54817 net.cpp:477] inception_4e/5x5 <- inception_4e/5x5_reduce
I0902 19:47:40.875547 54817 net.cpp:433] inception_4e/5x5 -> inception_4e/5x5
I0902 19:47:40.881898 54817 net.cpp:155] Setting up inception_4e/5x5
I0902 19:47:40.881930 54817 net.cpp:163] Top shape: 32 128 14 14 (802816)
I0902 19:47:40.881948 54817 layer_factory.hpp:76] Creating layer inception_4e/relu_5x5
I0902 19:47:40.881961 54817 net.cpp:110] Creating Layer inception_4e/relu_5x5
I0902 19:47:40.881971 54817 net.cpp:477] inception_4e/relu_5x5 <- inception_4e/5x5
I0902 19:47:40.881988 54817 net.cpp:419] inception_4e/relu_5x5 -> inception_4e/5x5 (in-place)
I0902 19:47:40.883715 54817 net.cpp:155] Setting up inception_4e/relu_5x5
I0902 19:47:40.883743 54817 net.cpp:163] Top shape: 32 128 14 14 (802816)
I0902 19:47:40.883754 54817 layer_factory.hpp:76] Creating layer inception_4e/pool
I0902 19:47:40.883764 54817 layer_factory.cpp:60] CUDNN does not support padding or multiple tops. Using Caffe's own pooling layer.
I0902 19:47:40.883775 54817 net.cpp:110] Creating Layer inception_4e/pool
I0902 19:47:40.883785 54817 net.cpp:477] inception_4e/pool <- inception_4d/output_inception_4d/output_0_split_4
I0902 19:47:40.883803 54817 net.cpp:433] inception_4e/pool -> inception_4e/pool
I0902 19:47:40.883823 54817 net.cpp:155] Setting up inception_4e/pool
I0902 19:47:40.883836 54817 net.cpp:163] Top shape: 32 528 14 14 (3311616)
I0902 19:47:40.883843 54817 layer_factory.hpp:76] Creating layer inception_4e/pool_proj
I0902 19:47:40.883862 54817 net.cpp:110] Creating Layer inception_4e/pool_proj
I0902 19:47:40.883872 54817 net.cpp:477] inception_4e/pool_proj <- inception_4e/pool
I0902 19:47:40.883883 54817 net.cpp:433] inception_4e/pool_proj -> inception_4e/pool_proj
I0902 19:47:40.889510 54817 net.cpp:155] Setting up inception_4e/pool_proj
I0902 19:47:40.889544 54817 net.cpp:163] Top shape: 32 128 14 14 (802816)
I0902 19:47:40.889560 54817 layer_factory.hpp:76] Creating layer inception_4e/relu_pool_proj
I0902 19:47:40.889575 54817 net.cpp:110] Creating Layer inception_4e/relu_pool_proj
I0902 19:47:40.889585 54817 net.cpp:477] inception_4e/relu_pool_proj <- inception_4e/pool_proj
I0902 19:47:40.889600 54817 net.cpp:419] inception_4e/relu_pool_proj -> inception_4e/pool_proj (in-place)
I0902 19:47:40.891132 54817 net.cpp:155] Setting up inception_4e/relu_pool_proj
I0902 19:47:40.891160 54817 net.cpp:163] Top shape: 32 128 14 14 (802816)
I0902 19:47:40.891171 54817 layer_factory.hpp:76] Creating layer inception_4e/output
I0902 19:47:40.891190 54817 net.cpp:110] Creating Layer inception_4e/output
I0902 19:47:40.891199 54817 net.cpp:477] inception_4e/output <- inception_4e/1x1
I0902 19:47:40.891211 54817 net.cpp:477] inception_4e/output <- inception_4e/3x3
I0902 19:47:40.891221 54817 net.cpp:477] inception_4e/output <- inception_4e/5x5
I0902 19:47:40.891230 54817 net.cpp:477] inception_4e/output <- inception_4e/pool_proj
I0902 19:47:40.891242 54817 net.cpp:433] inception_4e/output -> inception_4e/output
I0902 19:47:40.891259 54817 net.cpp:155] Setting up inception_4e/output
I0902 19:47:40.891271 54817 net.cpp:163] Top shape: 32 832 14 14 (5218304)
I0902 19:47:40.891279 54817 layer_factory.hpp:76] Creating layer pool4/3x3_s2
I0902 19:47:40.891295 54817 net.cpp:110] Creating Layer pool4/3x3_s2
I0902 19:47:40.891304 54817 net.cpp:477] pool4/3x3_s2 <- inception_4e/output
I0902 19:47:40.891316 54817 net.cpp:433] pool4/3x3_s2 -> pool4/3x3_s2
I0902 19:47:40.892825 54817 net.cpp:155] Setting up pool4/3x3_s2
I0902 19:47:40.892851 54817 net.cpp:163] Top shape: 32 832 7 7 (1304576)
I0902 19:47:40.892861 54817 layer_factory.hpp:76] Creating layer pool4/3x3_s2_pool4/3x3_s2_0_split
I0902 19:47:40.892897 54817 net.cpp:110] Creating Layer pool4/3x3_s2_pool4/3x3_s2_0_split
I0902 19:47:40.892907 54817 net.cpp:477] pool4/3x3_s2_pool4/3x3_s2_0_split <- pool4/3x3_s2
I0902 19:47:40.892928 54817 net.cpp:433] pool4/3x3_s2_pool4/3x3_s2_0_split -> pool4/3x3_s2_pool4/3x3_s2_0_split_0
I0902 19:47:40.892945 54817 net.cpp:433] pool4/3x3_s2_pool4/3x3_s2_0_split -> pool4/3x3_s2_pool4/3x3_s2_0_split_1
I0902 19:47:40.892959 54817 net.cpp:433] pool4/3x3_s2_pool4/3x3_s2_0_split -> pool4/3x3_s2_pool4/3x3_s2_0_split_2
I0902 19:47:40.892972 54817 net.cpp:433] pool4/3x3_s2_pool4/3x3_s2_0_split -> pool4/3x3_s2_pool4/3x3_s2_0_split_3
I0902 19:47:40.892988 54817 net.cpp:155] Setting up pool4/3x3_s2_pool4/3x3_s2_0_split
I0902 19:47:40.892999 54817 net.cpp:163] Top shape: 32 832 7 7 (1304576)
I0902 19:47:40.893009 54817 net.cpp:163] Top shape: 32 832 7 7 (1304576)
I0902 19:47:40.893018 54817 net.cpp:163] Top shape: 32 832 7 7 (1304576)
I0902 19:47:40.893028 54817 net.cpp:163] Top shape: 32 832 7 7 (1304576)
I0902 19:47:40.893035 54817 layer_factory.hpp:76] Creating layer inception_5a/1x1
I0902 19:47:40.893054 54817 net.cpp:110] Creating Layer inception_5a/1x1
I0902 19:47:40.893062 54817 net.cpp:477] inception_5a/1x1 <- pool4/3x3_s2_pool4/3x3_s2_0_split_0
I0902 19:47:40.893079 54817 net.cpp:433] inception_5a/1x1 -> inception_5a/1x1
I0902 19:47:40.901901 54817 net.cpp:155] Setting up inception_5a/1x1
I0902 19:47:40.901932 54817 net.cpp:163] Top shape: 32 256 7 7 (401408)
I0902 19:47:40.901948 54817 layer_factory.hpp:76] Creating layer inception_5a/relu_1x1
I0902 19:47:40.901962 54817 net.cpp:110] Creating Layer inception_5a/relu_1x1
I0902 19:47:40.901973 54817 net.cpp:477] inception_5a/relu_1x1 <- inception_5a/1x1
I0902 19:47:40.901984 54817 net.cpp:419] inception_5a/relu_1x1 -> inception_5a/1x1 (in-place)
I0902 19:47:40.903519 54817 net.cpp:155] Setting up inception_5a/relu_1x1
I0902 19:47:40.903548 54817 net.cpp:163] Top shape: 32 256 7 7 (401408)
I0902 19:47:40.903558 54817 layer_factory.hpp:76] Creating layer inception_5a/3x3_reduce
I0902 19:47:40.903581 54817 net.cpp:110] Creating Layer inception_5a/3x3_reduce
I0902 19:47:40.903592 54817 net.cpp:477] inception_5a/3x3_reduce <- pool4/3x3_s2_pool4/3x3_s2_0_split_1
I0902 19:47:40.903609 54817 net.cpp:433] inception_5a/3x3_reduce -> inception_5a/3x3_reduce
I0902 19:47:40.911357 54817 net.cpp:155] Setting up inception_5a/3x3_reduce
I0902 19:47:40.911388 54817 net.cpp:163] Top shape: 32 160 7 7 (250880)
I0902 19:47:40.911406 54817 layer_factory.hpp:76] Creating layer inception_5a/relu_3x3_reduce
I0902 19:47:40.911423 54817 net.cpp:110] Creating Layer inception_5a/relu_3x3_reduce
I0902 19:47:40.911433 54817 net.cpp:477] inception_5a/relu_3x3_reduce <- inception_5a/3x3_reduce
I0902 19:47:40.911445 54817 net.cpp:419] inception_5a/relu_3x3_reduce -> inception_5a/3x3_reduce (in-place)
I0902 19:47:40.913002 54817 net.cpp:155] Setting up inception_5a/relu_3x3_reduce
I0902 19:47:40.913029 54817 net.cpp:163] Top shape: 32 160 7 7 (250880)
I0902 19:47:40.913040 54817 layer_factory.hpp:76] Creating layer inception_5a/3x3
I0902 19:47:40.913059 54817 net.cpp:110] Creating Layer inception_5a/3x3
I0902 19:47:40.913070 54817 net.cpp:477] inception_5a/3x3 <- inception_5a/3x3_reduce
I0902 19:47:40.913084 54817 net.cpp:433] inception_5a/3x3 -> inception_5a/3x3
I0902 19:47:40.925747 54817 net.cpp:155] Setting up inception_5a/3x3
I0902 19:47:40.925781 54817 net.cpp:163] Top shape: 32 320 7 7 (501760)
I0902 19:47:40.925797 54817 layer_factory.hpp:76] Creating layer inception_5a/relu_3x3
I0902 19:47:40.925822 54817 net.cpp:110] Creating Layer inception_5a/relu_3x3
I0902 19:47:40.925832 54817 net.cpp:477] inception_5a/relu_3x3 <- inception_5a/3x3
I0902 19:47:40.925844 54817 net.cpp:419] inception_5a/relu_3x3 -> inception_5a/3x3 (in-place)
I0902 19:47:40.927387 54817 net.cpp:155] Setting up inception_5a/relu_3x3
I0902 19:47:40.927414 54817 net.cpp:163] Top shape: 32 320 7 7 (501760)
I0902 19:47:40.927425 54817 layer_factory.hpp:76] Creating layer inception_5a/5x5_reduce
I0902 19:47:40.927444 54817 net.cpp:110] Creating Layer inception_5a/5x5_reduce
I0902 19:47:40.927475 54817 net.cpp:477] inception_5a/5x5_reduce <- pool4/3x3_s2_pool4/3x3_s2_0_split_2
I0902 19:47:40.927491 54817 net.cpp:433] inception_5a/5x5_reduce -> inception_5a/5x5_reduce
I0902 19:47:40.932687 54817 net.cpp:155] Setting up inception_5a/5x5_reduce
I0902 19:47:40.932714 54817 net.cpp:163] Top shape: 32 32 7 7 (50176)
I0902 19:47:40.932731 54817 layer_factory.hpp:76] Creating layer inception_5a/relu_5x5_reduce
I0902 19:47:40.932749 54817 net.cpp:110] Creating Layer inception_5a/relu_5x5_reduce
I0902 19:47:40.932760 54817 net.cpp:477] inception_5a/relu_5x5_reduce <- inception_5a/5x5_reduce
I0902 19:47:40.932771 54817 net.cpp:419] inception_5a/relu_5x5_reduce -> inception_5a/5x5_reduce (in-place)
I0902 19:47:40.934319 54817 net.cpp:155] Setting up inception_5a/relu_5x5_reduce
I0902 19:47:40.934346 54817 net.cpp:163] Top shape: 32 32 7 7 (50176)
I0902 19:47:40.934357 54817 layer_factory.hpp:76] Creating layer inception_5a/5x5
I0902 19:47:40.934377 54817 net.cpp:110] Creating Layer inception_5a/5x5
I0902 19:47:40.934396 54817 net.cpp:477] inception_5a/5x5 <- inception_5a/5x5_reduce
I0902 19:47:40.934409 54817 net.cpp:433] inception_5a/5x5 -> inception_5a/5x5
I0902 19:47:40.940829 54817 net.cpp:155] Setting up inception_5a/5x5
I0902 19:47:40.940857 54817 net.cpp:163] Top shape: 32 128 7 7 (200704)
I0902 19:47:40.940875 54817 layer_factory.hpp:76] Creating layer inception_5a/relu_5x5
I0902 19:47:40.940892 54817 net.cpp:110] Creating Layer inception_5a/relu_5x5
I0902 19:47:40.940903 54817 net.cpp:477] inception_5a/relu_5x5 <- inception_5a/5x5
I0902 19:47:40.940915 54817 net.cpp:419] inception_5a/relu_5x5 -> inception_5a/5x5 (in-place)
I0902 19:47:40.942484 54817 net.cpp:155] Setting up inception_5a/relu_5x5
I0902 19:47:40.942512 54817 net.cpp:163] Top shape: 32 128 7 7 (200704)
I0902 19:47:40.942523 54817 layer_factory.hpp:76] Creating layer inception_5a/pool
I0902 19:47:40.942533 54817 layer_factory.cpp:60] CUDNN does not support padding or multiple tops. Using Caffe's own pooling layer.
I0902 19:47:40.942544 54817 net.cpp:110] Creating Layer inception_5a/pool
I0902 19:47:40.942554 54817 net.cpp:477] inception_5a/pool <- pool4/3x3_s2_pool4/3x3_s2_0_split_3
I0902 19:47:40.942571 54817 net.cpp:433] inception_5a/pool -> inception_5a/pool
I0902 19:47:40.942592 54817 net.cpp:155] Setting up inception_5a/pool
I0902 19:47:40.942605 54817 net.cpp:163] Top shape: 32 832 7 7 (1304576)
I0902 19:47:40.942612 54817 layer_factory.hpp:76] Creating layer inception_5a/pool_proj
I0902 19:47:40.942631 54817 net.cpp:110] Creating Layer inception_5a/pool_proj
I0902 19:47:40.942639 54817 net.cpp:477] inception_5a/pool_proj <- inception_5a/pool
I0902 19:47:40.942651 54817 net.cpp:433] inception_5a/pool_proj -> inception_5a/pool_proj
I0902 19:47:40.950116 54817 net.cpp:155] Setting up inception_5a/pool_proj
I0902 19:47:40.950146 54817 net.cpp:163] Top shape: 32 128 7 7 (200704)
I0902 19:47:40.950163 54817 layer_factory.hpp:76] Creating layer inception_5a/relu_pool_proj
I0902 19:47:40.950181 54817 net.cpp:110] Creating Layer inception_5a/relu_pool_proj
I0902 19:47:40.950192 54817 net.cpp:477] inception_5a/relu_pool_proj <- inception_5a/pool_proj
I0902 19:47:40.950204 54817 net.cpp:419] inception_5a/relu_pool_proj -> inception_5a/pool_proj (in-place)
I0902 19:47:40.951958 54817 net.cpp:155] Setting up inception_5a/relu_pool_proj
I0902 19:47:40.951985 54817 net.cpp:163] Top shape: 32 128 7 7 (200704)
I0902 19:47:40.951997 54817 layer_factory.hpp:76] Creating layer inception_5a/output
I0902 19:47:40.952014 54817 net.cpp:110] Creating Layer inception_5a/output
I0902 19:47:40.952024 54817 net.cpp:477] inception_5a/output <- inception_5a/1x1
I0902 19:47:40.952035 54817 net.cpp:477] inception_5a/output <- inception_5a/3x3
I0902 19:47:40.952045 54817 net.cpp:477] inception_5a/output <- inception_5a/5x5
I0902 19:47:40.952055 54817 net.cpp:477] inception_5a/output <- inception_5a/pool_proj
I0902 19:47:40.952066 54817 net.cpp:433] inception_5a/output -> inception_5a/output
I0902 19:47:40.952085 54817 net.cpp:155] Setting up inception_5a/output
I0902 19:47:40.952122 54817 net.cpp:163] Top shape: 32 832 7 7 (1304576)
I0902 19:47:40.952132 54817 layer_factory.hpp:76] Creating layer inception_5a/output_inception_5a/output_0_split
I0902 19:47:40.952144 54817 net.cpp:110] Creating Layer inception_5a/output_inception_5a/output_0_split
I0902 19:47:40.952153 54817 net.cpp:477] inception_5a/output_inception_5a/output_0_split <- inception_5a/output
I0902 19:47:40.952167 54817 net.cpp:433] inception_5a/output_inception_5a/output_0_split -> inception_5a/output_inception_5a/output_0_split_0
I0902 19:47:40.952180 54817 net.cpp:433] inception_5a/output_inception_5a/output_0_split -> inception_5a/output_inception_5a/output_0_split_1
I0902 19:47:40.952195 54817 net.cpp:433] inception_5a/output_inception_5a/output_0_split -> inception_5a/output_inception_5a/output_0_split_2
I0902 19:47:40.952210 54817 net.cpp:433] inception_5a/output_inception_5a/output_0_split -> inception_5a/output_inception_5a/output_0_split_3
I0902 19:47:40.952230 54817 net.cpp:155] Setting up inception_5a/output_inception_5a/output_0_split
I0902 19:47:40.952241 54817 net.cpp:163] Top shape: 32 832 7 7 (1304576)
I0902 19:47:40.952250 54817 net.cpp:163] Top shape: 32 832 7 7 (1304576)
I0902 19:47:40.952260 54817 net.cpp:163] Top shape: 32 832 7 7 (1304576)
I0902 19:47:40.952268 54817 net.cpp:163] Top shape: 32 832 7 7 (1304576)
I0902 19:47:40.952277 54817 layer_factory.hpp:76] Creating layer inception_5b/1x1
I0902 19:47:40.952296 54817 net.cpp:110] Creating Layer inception_5b/1x1
I0902 19:47:40.952303 54817 net.cpp:477] inception_5b/1x1 <- inception_5a/output_inception_5a/output_0_split_0
I0902 19:47:40.952316 54817 net.cpp:433] inception_5b/1x1 -> inception_5b/1x1
I0902 19:47:40.962625 54817 net.cpp:155] Setting up inception_5b/1x1
I0902 19:47:40.962656 54817 net.cpp:163] Top shape: 32 384 7 7 (602112)
I0902 19:47:40.962673 54817 layer_factory.hpp:76] Creating layer inception_5b/relu_1x1
I0902 19:47:40.962692 54817 net.cpp:110] Creating Layer inception_5b/relu_1x1
I0902 19:47:40.962702 54817 net.cpp:477] inception_5b/relu_1x1 <- inception_5b/1x1
I0902 19:47:40.962713 54817 net.cpp:419] inception_5b/relu_1x1 -> inception_5b/1x1 (in-place)
I0902 19:47:40.964462 54817 net.cpp:155] Setting up inception_5b/relu_1x1
I0902 19:47:40.964493 54817 net.cpp:163] Top shape: 32 384 7 7 (602112)
I0902 19:47:40.964504 54817 layer_factory.hpp:76] Creating layer inception_5b/3x3_reduce
I0902 19:47:40.964520 54817 net.cpp:110] Creating Layer inception_5b/3x3_reduce
I0902 19:47:40.964530 54817 net.cpp:477] inception_5b/3x3_reduce <- inception_5a/output_inception_5a/output_0_split_1
I0902 19:47:40.964548 54817 net.cpp:433] inception_5b/3x3_reduce -> inception_5b/3x3_reduce
I0902 19:47:40.972601 54817 net.cpp:155] Setting up inception_5b/3x3_reduce
I0902 19:47:40.972631 54817 net.cpp:163] Top shape: 32 192 7 7 (301056)
I0902 19:47:40.972648 54817 layer_factory.hpp:76] Creating layer inception_5b/relu_3x3_reduce
I0902 19:47:40.972666 54817 net.cpp:110] Creating Layer inception_5b/relu_3x3_reduce
I0902 19:47:40.972677 54817 net.cpp:477] inception_5b/relu_3x3_reduce <- inception_5b/3x3_reduce
I0902 19:47:40.972689 54817 net.cpp:419] inception_5b/relu_3x3_reduce -> inception_5b/3x3_reduce (in-place)
I0902 19:47:40.974266 54817 net.cpp:155] Setting up inception_5b/relu_3x3_reduce
I0902 19:47:40.974294 54817 net.cpp:163] Top shape: 32 192 7 7 (301056)
I0902 19:47:40.974305 54817 layer_factory.hpp:76] Creating layer inception_5b/3x3
I0902 19:47:40.974325 54817 net.cpp:110] Creating Layer inception_5b/3x3
I0902 19:47:40.974335 54817 net.cpp:477] inception_5b/3x3 <- inception_5b/3x3_reduce
I0902 19:47:40.974349 54817 net.cpp:433] inception_5b/3x3 -> inception_5b/3x3
I0902 19:47:40.990520 54817 net.cpp:155] Setting up inception_5b/3x3
I0902 19:47:40.990556 54817 net.cpp:163] Top shape: 32 384 7 7 (602112)
I0902 19:47:40.990573 54817 layer_factory.hpp:76] Creating layer inception_5b/relu_3x3
I0902 19:47:40.990587 54817 net.cpp:110] Creating Layer inception_5b/relu_3x3
I0902 19:47:40.990600 54817 net.cpp:477] inception_5b/relu_3x3 <- inception_5b/3x3
I0902 19:47:40.990634 54817 net.cpp:419] inception_5b/relu_3x3 -> inception_5b/3x3 (in-place)
I0902 19:47:40.992188 54817 net.cpp:155] Setting up inception_5b/relu_3x3
I0902 19:47:40.992216 54817 net.cpp:163] Top shape: 32 384 7 7 (602112)
I0902 19:47:40.992226 54817 layer_factory.hpp:76] Creating layer inception_5b/5x5_reduce
I0902 19:47:40.992247 54817 net.cpp:110] Creating Layer inception_5b/5x5_reduce
I0902 19:47:40.992257 54817 net.cpp:477] inception_5b/5x5_reduce <- inception_5a/output_inception_5a/output_0_split_2
I0902 19:47:40.992275 54817 net.cpp:433] inception_5b/5x5_reduce -> inception_5b/5x5_reduce
I0902 19:47:40.998939 54817 net.cpp:155] Setting up inception_5b/5x5_reduce
I0902 19:47:40.998968 54817 net.cpp:163] Top shape: 32 48 7 7 (75264)
I0902 19:47:40.998986 54817 layer_factory.hpp:76] Creating layer inception_5b/relu_5x5_reduce
I0902 19:47:40.999001 54817 net.cpp:110] Creating Layer inception_5b/relu_5x5_reduce
I0902 19:47:40.999011 54817 net.cpp:477] inception_5b/relu_5x5_reduce <- inception_5b/5x5_reduce
I0902 19:47:40.999022 54817 net.cpp:419] inception_5b/relu_5x5_reduce -> inception_5b/5x5_reduce (in-place)
I0902 19:47:41.000627 54817 net.cpp:155] Setting up inception_5b/relu_5x5_reduce
I0902 19:47:41.000654 54817 net.cpp:163] Top shape: 32 48 7 7 (75264)
I0902 19:47:41.000665 54817 layer_factory.hpp:76] Creating layer inception_5b/5x5
I0902 19:47:41.000684 54817 net.cpp:110] Creating Layer inception_5b/5x5
I0902 19:47:41.000695 54817 net.cpp:477] inception_5b/5x5 <- inception_5b/5x5_reduce
I0902 19:47:41.000708 54817 net.cpp:433] inception_5b/5x5 -> inception_5b/5x5
I0902 19:47:41.007740 54817 net.cpp:155] Setting up inception_5b/5x5
I0902 19:47:41.007769 54817 net.cpp:163] Top shape: 32 128 7 7 (200704)
I0902 19:47:41.007786 54817 layer_factory.hpp:76] Creating layer inception_5b/relu_5x5
I0902 19:47:41.007800 54817 net.cpp:110] Creating Layer inception_5b/relu_5x5
I0902 19:47:41.007814 54817 net.cpp:477] inception_5b/relu_5x5 <- inception_5b/5x5
I0902 19:47:41.007827 54817 net.cpp:419] inception_5b/relu_5x5 -> inception_5b/5x5 (in-place)
I0902 19:47:41.009624 54817 net.cpp:155] Setting up inception_5b/relu_5x5
I0902 19:47:41.009651 54817 net.cpp:163] Top shape: 32 128 7 7 (200704)
I0902 19:47:41.009662 54817 layer_factory.hpp:76] Creating layer inception_5b/pool
I0902 19:47:41.009672 54817 layer_factory.cpp:60] CUDNN does not support padding or multiple tops. Using Caffe's own pooling layer.
I0902 19:47:41.009687 54817 net.cpp:110] Creating Layer inception_5b/pool
I0902 19:47:41.009697 54817 net.cpp:477] inception_5b/pool <- inception_5a/output_inception_5a/output_0_split_3
I0902 19:47:41.009711 54817 net.cpp:433] inception_5b/pool -> inception_5b/pool
I0902 19:47:41.009730 54817 net.cpp:155] Setting up inception_5b/pool
I0902 19:47:41.009742 54817 net.cpp:163] Top shape: 32 832 7 7 (1304576)
I0902 19:47:41.009749 54817 layer_factory.hpp:76] Creating layer inception_5b/pool_proj
I0902 19:47:41.009771 54817 net.cpp:110] Creating Layer inception_5b/pool_proj
I0902 19:47:41.009780 54817 net.cpp:477] inception_5b/pool_proj <- inception_5b/pool
I0902 19:47:41.009796 54817 net.cpp:433] inception_5b/pool_proj -> inception_5b/pool_proj
I0902 19:47:41.017206 54817 net.cpp:155] Setting up inception_5b/pool_proj
I0902 19:47:41.017237 54817 net.cpp:163] Top shape: 32 128 7 7 (200704)
I0902 19:47:41.017254 54817 layer_factory.hpp:76] Creating layer inception_5b/relu_pool_proj
I0902 19:47:41.017268 54817 net.cpp:110] Creating Layer inception_5b/relu_pool_proj
I0902 19:47:41.017278 54817 net.cpp:477] inception_5b/relu_pool_proj <- inception_5b/pool_proj
I0902 19:47:41.017294 54817 net.cpp:419] inception_5b/relu_pool_proj -> inception_5b/pool_proj (in-place)
I0902 19:47:41.018908 54817 net.cpp:155] Setting up inception_5b/relu_pool_proj
I0902 19:47:41.018935 54817 net.cpp:163] Top shape: 32 128 7 7 (200704)
I0902 19:47:41.018946 54817 layer_factory.hpp:76] Creating layer inception_5b/output
I0902 19:47:41.018965 54817 net.cpp:110] Creating Layer inception_5b/output
I0902 19:47:41.019001 54817 net.cpp:477] inception_5b/output <- inception_5b/1x1
I0902 19:47:41.019013 54817 net.cpp:477] inception_5b/output <- inception_5b/3x3
I0902 19:47:41.019023 54817 net.cpp:477] inception_5b/output <- inception_5b/5x5
I0902 19:47:41.019032 54817 net.cpp:477] inception_5b/output <- inception_5b/pool_proj
I0902 19:47:41.019044 54817 net.cpp:433] inception_5b/output -> inception_5b/output
I0902 19:47:41.019063 54817 net.cpp:155] Setting up inception_5b/output
I0902 19:47:41.019075 54817 net.cpp:163] Top shape: 32 1024 7 7 (1605632)
I0902 19:47:41.019083 54817 layer_factory.hpp:76] Creating layer pool5/7x7_s1
I0902 19:47:41.019099 54817 net.cpp:110] Creating Layer pool5/7x7_s1
I0902 19:47:41.019109 54817 net.cpp:477] pool5/7x7_s1 <- inception_5b/output
I0902 19:47:41.019120 54817 net.cpp:433] pool5/7x7_s1 -> pool5/7x7_s1
I0902 19:47:41.020711 54817 net.cpp:155] Setting up pool5/7x7_s1
I0902 19:47:41.020738 54817 net.cpp:163] Top shape: 32 1024 1 1 (32768)
I0902 19:47:41.020750 54817 layer_factory.hpp:76] Creating layer pool5/drop_7x7_s1
I0902 19:47:41.020763 54817 net.cpp:110] Creating Layer pool5/drop_7x7_s1
I0902 19:47:41.020773 54817 net.cpp:477] pool5/drop_7x7_s1 <- pool5/7x7_s1
I0902 19:47:41.020789 54817 net.cpp:419] pool5/drop_7x7_s1 -> pool5/7x7_s1 (in-place)
I0902 19:47:41.020807 54817 net.cpp:155] Setting up pool5/drop_7x7_s1
I0902 19:47:41.020818 54817 net.cpp:163] Top shape: 32 1024 1 1 (32768)
I0902 19:47:41.020828 54817 layer_factory.hpp:76] Creating layer loss3/classifier_cub
I0902 19:47:41.020841 54817 net.cpp:110] Creating Layer loss3/classifier_cub
I0902 19:47:41.020849 54817 net.cpp:477] loss3/classifier_cub <- pool5/7x7_s1
I0902 19:47:41.020865 54817 net.cpp:433] loss3/classifier_cub -> loss3/classifier
I0902 19:47:41.034476 54817 net.cpp:155] Setting up loss3/classifier_cub
I0902 19:47:41.034503 54817 net.cpp:163] Top shape: 32 200 (6400)
I0902 19:47:41.034520 54817 layer_factory.hpp:76] Creating layer loss3/loss3
I0902 19:47:41.034535 54817 net.cpp:110] Creating Layer loss3/loss3
I0902 19:47:41.034544 54817 net.cpp:477] loss3/loss3 <- loss3/classifier
I0902 19:47:41.034559 54817 net.cpp:477] loss3/loss3 <- label_data_1_split_2
I0902 19:47:41.034572 54817 net.cpp:433] loss3/loss3 -> loss3/loss3
I0902 19:47:41.034590 54817 layer_factory.hpp:76] Creating layer loss3/loss3
…
I0902 19:47:41.048921 54817 solver.cpp:186] Creating test net (#0) specified by net file: models/CUB_googLeNet_kevin/train_val.prototxt
I0902 19:47:41.049401 54817 net.cpp:339] The NetState phase (1) differed from the phase (0) specified by a rule in layer data
I0902 19:47:41.051872 54817 net.cpp:50] Initializing net from parameters: 
name: "CUBNet"
state {
  phase: TEST
}
layer {
  name: "data"
  type: "Data"
  top: "data"
  top: "label"
  include {
    phase: TEST
  }
  transform_param {
    mirror: false
    crop_size: 224
    mean_value: 104
    mean_value: 117
    mean_value: 123
  }
  data_param {
    source: "data/cub_test"
    batch_size: 64
    backend: LMDB
  }
}
layer {
  name: "conv1/7x7_s2"
  type: "Convolution"
  bottom: "data"
  top: "conv1/7x7_s2"
  param {
    lr_mult: 1
    decay_mult: 1
  }
  param {
    lr_mult: 2
    decay_mult: 0
  }
  convolution_param {
    num_output: 64
    pad: 3
    kernel_size: 7
    stride: 2
    weight_filler {
      type: "xavier"
      std: 0.1
    }
    bias_filler {
      type: "constant"
      value: 0.2
    }
  }
}
layer {
  name: "conv1/relu_7x7"
  type: "ReLU"
  bottom: "conv1/7x7_s2"
  top: "conv1/7x7_s2"
}
layer {
  name: "pool1/3x3_s2"
  type: "Pooling"
  bottom: "conv1/7x7_s2"
  top: "pool1/3x3_s2"
  pooling_param {
    pool: MAX
    kernel_size: 3
    stride: 2
  }
}
layer {
  name: "pool1/norm1"
  type: "LRN"
  bottom: "pool1/3x3_s2"
  top: "pool1/norm1"
  lrn_param {
    local_size: 5
    alpha: 0.0001
    beta: 0.75
  }
}
layer {
  name: "conv2/3x3_reduce"
  type: "Convolution"
  bottom: "pool1/norm1"
  top: "conv2/3x3_reduce"
  param {
    lr_mult: 1
    decay_mult: 1
  }
  param {
    lr_mult: 2
    decay_mult: 0
  }
  convolution_param {
    num_output: 64
    kernel_size: 1
    weight_filler {
      type: "xavier"
      std: 0.1
    }
    bias_filler {
      type: "constant"
      value: 0.2
    }
  }
}
layer {
  name: "conv2/relu_3x3_reduce"
  type: "ReLU"
  bottom: "conv2/3x3_reduce"
  top: "conv2/3x3_reduce"
}
layer {
  name: "conv2/3x3"
  type: "Convolution"
  bottom: "conv2/3x3_reduce"
  top: "conv2/3x3"
  param {
    lr_mult: 1
    decay_mult: 1
  }
  param {
    lr_mult: 2
    decay_mult: 0
  }
  convolution_param {
    num_output: 192
    pad: 1
    kernel_size: 3
    weight_filler {
      type: "xavier"
      std: 0.03
    }
    bias_filler {
      type: "constant"
      value: 0.2
    }
  }
}
layer {
  name: "conv2/relu_3x3"
  type: "ReLU"
  bottom: "conv2/3x3"
  top: "conv2/3x3"
}
layer {
  name: "conv2/norm2"
  type: "LRN"
  bottom: "conv2/3x3"
  top: "conv2/norm2"
  lrn_param {
    local_size: 5
    alpha: 0.0001
    beta: 0.75
  }
}
layer {
  name: "pool2/3x3_s2"
  type: "Pooling"
  bottom: "conv2/norm2"
  top: "pool2/3x3_s2"
  pooling_param {
    pool: MAX
    kernel_size: 3
    stride: 2
  }
}
layer {
  name: "inception_3a/1x1"
  type: "Convolution"
  bottom: "pool2/3x3_s2"
  top: "inception_3a/1x1"
  param {
    lr_mult: 1
    decay_mult: 1
  }
  param {
    lr_mult: 2
    decay_mult: 0
  }
  convolution_param {
    num_output: 64
    kernel_size: 1
    weight_filler {
      type: "xavier"
      std: 0.03
    }
    bias_filler {
      type: "constant"
      value: 0.2
    }
  }
}
layer {
  name: "inception_3a/relu_1x1"
  type: "ReLU"
  bottom: "inception_3a/1x1"
  top: "inception_3a/1x1"
}
layer {
  name: "inception_3a/3x3_reduce"
  type: "Convolution"
  bottom: "pool2/3x3_s2"
  top: "inception_3a/3x3_reduce"
  param {
    lr_mult: 1
    decay_mult: 1
  }
  param {
    lr_mult: 2
    decay_mult: 0
  }
  convolution_param {
    num_output: 96
    kernel_size: 1
    weight_filler {
      type: "xavier"
      std: 0.09
    }
    bias_filler {
      type: "constant"
      value: 0.2
    }
  }
}
layer {
  name: "inception_3a/relu_3x3_reduce"
  type: "ReLU"
  bottom: "inception_3a/3x3_reduce"
  top: "inception_3a/3x3_reduce"
}
layer {
  name: "inception_3a/3x3"
  type: "Convolution"
  bottom: "inception_3a/3x3_reduce"
  top: "inception_3a/3x3"
  param {
    lr_mult: 1
    decay_mult: 1
  }
  param {
    lr_mult: 2
    decay_mult: 0
  }
  convolution_param {
    num_output: 128
    pad: 1
    kernel_size: 3
    weight_filler {
      type: "xavier"
      std: 0.03
    }
    bias_filler {
      type: "constant"
      value: 0.2
    }
  }
}
layer {
  name: "inception_3a/relu_3x3"
  type: "ReLU"
  bottom: "inception_3a/3x3"
  top: "inception_3a/3x3"
}
layer {
  name: "inception_3a/5x5_reduce"
  type: "Convolution"
  bottom: "pool2/3x3_s2"
  top: "inception_3a/5x5_reduce"
  param {
    lr_mult: 1
    decay_mult: 1
  }
  param {
    lr_mult: 2
    decay_mult: 0
  }
  convolution_param {
    num_output: 16
    kernel_size: 1
    weight_filler {
      type: "xavier"
      std: 0.2
    }
    bias_filler {
      type: "constant"
      value: 0.2
    }
  }
}
layer {
  name: "inception_3a/relu_5x5_reduce"
  type: "ReLU"
  bottom: "inception_3a/5x5_reduce"
  top: "inception_3a/5x5_reduce"
}
layer {
  name: "inception_3a/5x5"
  type: "Convolution"
  bottom: "inception_3a/5x5_reduce"
  top: "inception_3a/5x5"
  param {
    lr_mult: 1
    decay_mult: 1
  }
  param {
    lr_mult: 2
    decay_mult: 0
  }
  convolution_param {
    num_output: 32
    pad: 2
    kernel_size: 5
    weight_filler {
      type: "xavier"
      std: 0.03
    }
    bias_filler {
      type: "constant"
      value: 0.2
    }
  }
}
layer {
  name: "inception_3a/relu_5x5"
  type: "ReLU"
  bottom: "inception_3a/5x5"
  top: "inception_3a/5x5"
}
layer {
  name: "inception_3a/pool"
  type: "Pooling"
  bottom: "pool2/3x3_s2"
  top: "inception_3a/pool"
  pooling_param {
    pool: MAX
    kernel_size: 3
    stride: 1
    pad: 1
  }
}
layer {
  name: "inception_3a/pool_proj"
  type: "Convolution"
  bottom: "inception_3a/pool"
  top: "inception_3a/pool_proj"
  param {
    lr_mult: 1
    decay_mult: 1
  }
  param {
    lr_mult: 2
    decay_mult: 0
  }
  convolution_param {
    num_output: 32
    kernel_size: 1
    weight_filler {
      type: "xavier"
      std: 0.1
    }
    bias_filler {
      type: "constant"
      value: 0.2
    }
  }
}
layer {
  name: "inception_3a/relu_pool_proj"
  type: "ReLU"
  bottom: "inception_3a/pool_proj"
  top: "inception_3a/pool_proj"
}
layer {
  name: "inception_3a/output"
  type: "Concat"
  bottom: "inception_3a/1x1"
  bottom: "inception_3a/3x3"
  bottom: "inception_3a/5x5"
  bottom: "inception_3a/pool_proj"
  top: "inception_3a/output"
}
layer {
  name: "inception_3b/1x1"
  type: "Convolution"
  bottom: "inception_3a/output"
  top: "inception_3b/1x1"
  param {
    lr_mult: 1
    decay_mult: 1
  }
  param {
    lr_mult: 2
    decay_mult: 0
  }
  convolution_param {
    num_output: 128
    kernel_size: 1
    weight_filler {
      type: "xavier"
      std: 0.03
    }
    bias_filler {
      type: "constant"
      value: 0.2
    }
  }
}
layer {
  name: "inception_3b/relu_1x1"
  type: "ReLU"
  bottom: "inception_3b/1x1"
  top: "inception_3b/1x1"
}
layer {
  name: "inception_3b/3x3_reduce"
  type: "Convolution"
  bottom: "inception_3a/output"
  top: "inception_3b/3x3_reduce"
  param {
    lr_mult: 1
    decay_mult: 1
  }
  param {
    lr_mult: 2
    decay_mult: 0
  }
  convolution_param {
    num_output: 128
    kernel_size: 1
    weight_filler {
      type: "xavier"
      std: 0.09
    }
    bias_filler {
      type: "constant"
      value: 0.2
    }
  }
}
layer {
  name: "inception_3b/relu_3x3_reduce"
  type: "ReLU"
  bottom: "inception_3b/3x3_reduce"
  top: "inception_3b/3x3_reduce"
}
layer {
  name: "inception_3b/3x3"
  type: "Convolution"
  bottom: "inception_3b/3x3_reduce"
  top: "inception_3b/3x3"
  param {
    lr_mult: 1
    decay_mult: 1
  }
  param {
    lr_mult: 2
    decay_mult: 0
  }
  convolution_param {
    num_output: 192
    pad: 1
    kernel_size: 3
    weight_filler {
      type: "xavier"
      std: 0.03
    }
    bias_filler {
      type: "constant"
      value: 0.2
    }
  }
}
layer {
  name: "inception_3b/relu_3x3"
  type: "ReLU"
  bottom: "inception_3b/3x3"
  top: "inception_3b/3x3"
}
layer {
  name: "inception_3b/5x5_reduce"
  type: "Convolution"
  bottom: "inception_3a/output"
  top: "inception_3b/5x5_reduce"
  param {
    lr_mult: 1
    decay_mult: 1
  }
  param {
    lr_mult: 2
    decay_mult: 0
  }
  convolution_param {
    num_output: 32
    kernel_size: 1
    weight_filler {
      type: "xavier"
      std: 0.2
    }
    bias_filler {
      type: "constant"
      value: 0.2
    }
  }
}
layer {
  name: "inception_3b/relu_5x5_reduce"
  type: "ReLU"
  bottom: "inception_3b/5x5_reduce"
  top: "inception_3b/5x5_reduce"
}
layer {
  name: "inception_3b/5x5"
  type: "Convolution"
  bottom: "inception_3b/5x5_reduce"
  top: "inception_3b/5x5"
  param {
    lr_mult: 1
    decay_mult: 1
  }
  param {
    lr_mult: 2
    decay_mult: 0
  }
  convolution_param {
    num_output: 96
    pad: 2
    kernel_size: 5
    weight_filler {
      type: "xavier"
      std: 0.03
    }
    bias_filler {
      type: "constant"
      value: 0.2
    }
  }
}
layer {
  name: "inception_3b/relu_5x5"
  type: "ReLU"
  bottom: "inception_3b/5x5"
  top: "inception_3b/5x5"
}
layer {
  name: "inception_3b/pool"
  type: "Pooling"
  bottom: "inception_3a/output"
  top: "inception_3b/pool"
  pooling_param {
    pool: MAX
    kernel_size: 3
    stride: 1
    pad: 1
  }
}
layer {
  name: "inception_3b/pool_proj"
  type: "Convolution"
  bottom: "inception_3b/pool"
  top: "inception_3b/pool_proj"
  param {
    lr_mult: 1
    decay_mult: 1
  }
  param {
    lr_mult: 2
    decay_mult: 0
  }
  convolution_param {
    num_output: 64
    kernel_size: 1
    weight_filler {
      type: "xavier"
      std: 0.1
    }
    bias_filler {
      type: "constant"
      value: 0.2
    }
  }
}
layer {
  name: "inception_3b/relu_pool_proj"
  type: "ReLU"
  bottom: "inception_3b/pool_proj"
  top: "inception_3b/pool_proj"
}
layer {
  name: "inception_3b/output"
  type: "Concat"
  bottom: "inception_3b/1x1"
  bottom: "inception_3b/3x3"
  bottom: "inception_3b/5x5"
  bottom: "inception_3b/pool_proj"
  top: "inception_3b/output"
}
layer {
  name: "pool3/3x3_s2"
  type: "Pooling"
  bottom: "inception_3b/output"
  top: "pool3/3x3_s2"
  pooling_param {
    pool: MAX
    kernel_size: 3
    stride: 2
  }
}
layer {
  name: "inception_4a/1x1"
  type: "Convolution"
  bottom: "pool3/3x3_s2"
  top: "inception_4a/1x1"
  param {
    lr_mult: 1
    decay_mult: 1
  }
  param {
    lr_mult: 2
    decay_mult: 0
  }
  convolution_param {
    num_output: 192
    kernel_size: 1
    weight_filler {
      type: "xavier"
      std: 0.03
    }
    bias_filler {
      type: "constant"
      value: 0.2
    }
  }
}
layer {
  name: "inception_4a/relu_1x1"
  type: "ReLU"
  bottom: "inception_4a/1x1"
  top: "inception_4a/1x1"
}
layer {
  name: "inception_4a/3x3_reduce"
  type: "Convolution"
  bottom: "pool3/3x3_s2"
  top: "inception_4a/3x3_reduce"
  param {
    lr_mult: 1
    decay_mult: 1
  }
  param {
    lr_mult: 2
    decay_mult: 0
  }
  convolution_param {
    num_output: 96
    kernel_size: 1
    weight_filler {
      type: "xavier"
      std: 0.09
    }
    bias_filler {
      type: "constant"
      value: 0.2
    }
  }
}
layer {
  name: "inception_4a/relu_3x3_reduce"
  type: "ReLU"
  bottom: "inception_4a/3x3_reduce"
  top: "inception_4a/3x3_reduce"
}
layer {
  name: "inception_4a/3x3"
  type: "Convolution"
  bottom: "inception_4a/3x3_reduce"
  top: "inception_4a/3x3"
  param {
    lr_mult: 1
    decay_mult: 1
  }
  param {
    lr_mult: 2
    decay_mult: 0
  }
  convolution_param {
    num_output: 208
    pad: 1
    kernel_size: 3
    weight_filler {
      type: "xavier"
      std: 0.03
    }
    bias_filler {
      type: "constant"
      value: 0.2
    }
  }
}
layer {
  name: "inception_4a/relu_3x3"
  type: "ReLU"
  bottom: "inception_4a/3x3"
  top: "inception_4a/3x3"
}
layer {
  name: "inception_4a/5x5_reduce"
  type: "Convolution"
  bottom: "pool3/3x3_s2"
  top: "inception_4a/5x5_reduce"
  param {
    lr_mult: 1
    decay_mult: 1
  }
  param {
    lr_mult: 2
    decay_mult: 0
  }
  convolution_param {
    num_output: 16
    kernel_size: 1
    weight_filler {
      type: "xavier"
      std: 0.2
    }
    bias_filler {
      type: "constant"
      value: 0.2
    }
  }
}
layer {
  name: "inception_4a/relu_5x5_reduce"
  type: "ReLU"
  bottom: "inception_4a/5x5_reduce"
  top: "inception_4a/5x5_reduce"
}
layer {
  name: "inception_4a/5x5"
  type: "Convolution"
  bottom: "inception_4a/5x5_reduce"
  top: "inception_4a/5x5"
  param {
    lr_mult: 1
    decay_mult: 1
  }
  param {
    lr_mult: 2
    decay_mult: 0
  }
  convolution_param {
    num_output: 48
    pad: 2
    kernel_size: 5
    weight_filler {
      type: "xavier"
      std: 0.03
    }
    bias_filler {
      type: "constant"
      value: 0.2
    }
  }
}
layer {
  name: "inception_4a/relu_5x5"
  type: "ReLU"
  bottom: "inception_4a/5x5"
  top: "inception_4a/5x5"
}
layer {
  name: "inception_4a/pool"
  type: "Pooling"
  bottom: "pool3/3x3_s2"
  top: "inception_4a/pool"
  pooling_param {
    pool: MAX
    kernel_size: 3
    stride: 1
    pad: 1
  }
}
layer {
  name: "inception_4a/pool_proj"
  type: "Convolution"
  bottom: "inception_4a/pool"
  top: "inception_4a/pool_proj"
  param {
    lr_mult: 1
    decay_mult: 1
  }
  param {
    lr_mult: 2
    decay_mult: 0
  }
  convolution_param {
    num_output: 64
    kernel_size: 1
    weight_filler {
      type: "xavier"
      std: 0.1
    }
    bias_filler {
      type: "constant"
      value: 0.2
    }
  }
}
layer {
  name: "inception_4a/relu_pool_proj"
  type: "ReLU"
  bottom: "inception_4a/pool_proj"
  top: "inception_4a/pool_proj"
}
layer {
  name: "inception_4a/output"
  type: "Concat"
  bottom: "inception_4a/1x1"
  bottom: "inception_4a/3x3"
  bottom: "inception_4a/5x5"
  bottom: "inception_4a/pool_proj"
  top: "inception_4a/output"
}
layer {
  name: "loss1/ave_pool"
  type: "Pooling"
  bottom: "inception_4a/output"
  top: "loss1/ave_pool"
  pooling_param {
    pool: AVE
    kernel_size: 5
    stride: 3
  }
}
layer {
  name: "loss1/conv"
  type: "Convolution"
  bottom: "loss1/ave_pool"
  top: "loss1/conv"
  param {
    lr_mult: 1
    decay_mult: 1
  }
  param {
    lr_mult: 2
    decay_mult: 0
  }
  convolution_param {
    num_output: 128
    kernel_size: 1
    weight_filler {
      type: "xavier"
      std: 0.08
    }
    bias_filler {
      type: "constant"
      value: 0.2
    }
  }
}
layer {
  name: "loss1/relu_conv"
  type: "ReLU"
  bottom: "loss1/conv"
  top: "loss1/conv"
}
layer {
  name: "loss1/fc"
  type: "InnerProduct"
  bottom: "loss1/conv"
  top: "loss1/fc"
  param {
    lr_mult: 1
    decay_mult: 1
  }
  param {
    lr_mult: 2
    decay_mult: 0
  }
  inner_product_param {
    num_output: 1024
    weight_filler {
      type: "xavier"
      std: 0.02
    }
    bias_filler {
      type: "constant"
      value: 0.2
    }
  }
}
layer {
  name: "loss1/relu_fc"
  type: "ReLU"
  bottom: "loss1/fc"
  top: "loss1/fc"
}
layer {
  name: "loss1/drop_fc"
  type: "Dropout"
  bottom: "loss1/fc"
  top: "loss1/fc"
  dropout_param {
    dropout_ratio: 0.7
  }
}
layer {
  name: "loss1/classifier_cub"
  type: "InnerProduct"
  bottom: "loss1/fc"
  top: "loss1/classifier"
  param {
    lr_mult: 1
    decay_mult: 1
  }
  param {
    lr_mult: 2
    decay_mult: 0
  }
  inner_product_param {
    num_output: 200
    weight_filler {
      type: "gaussian"
      std: 1e-05
    }
    bias_filler {
      type: "constant"
      value: 0
    }
  }
}
layer {
  name: "loss1/loss"
  type: "SoftmaxWithLoss"
  bottom: "loss1/classifier"
  bottom: "label"
  top: "loss1/loss1"
  loss_weight: 0.3
}
layer {
  name: "loss1/top-1"
  type: "Accuracy"
  bottom: "loss1/classifier"
  bottom: "label"
  top: "loss1/top-1"
  include {
    phase: TEST
  }
}
layer {
  name: "loss1/top-5"
  type: "Accuracy"
  bottom: "loss1/classifier"
  bottom: "label"
  top: "loss1/top-5"
  include {
    phase: TEST
  }
  accuracy_param {
    top_k: 5
  }
}
layer {
  name: "inception_4b/1x1"
  type: "Convolution"
  bottom: "inception_4a/output"
  top: "inception_4b/1x1"
  param {
    lr_mult: 1
    decay_mult: 1
  }
  param {
    lr_mult: 2
    decay_mult: 0
  }
  convolution_param {
    num_output: 160
    kernel_size: 1
    weight_filler {
      type: "xavier"
      std: 0.03
    }
    bias_filler {
      type: "constant"
      value: 0.2
    }
  }
}
layer {
  name: "inception_4b/relu_1x1"
  type: "ReLU"
  bottom: "inception_4b/1x1"
  top: "inception_4b/1x1"
}
layer {
  name: "inception_4b/3x3_reduce"
  type: "Convolution"
  bottom: "inception_4a/output"
  top: "inception_4b/3x3_reduce"
  param {
    lr_mult: 1
    decay_mult: 1
  }
  param {
    lr_mult: 2
    decay_mult: 0
  }
  convolution_param {
    num_output: 112
    kernel_size: 1
    weight_filler {
      type: "xavier"
      std: 0.09
    }
    bias_filler {
      type: "constant"
      value: 0.2
    }
  }
}
layer {
  name: "inception_4b/relu_3x3_reduce"
  type: "ReLU"
  bottom: "inception_4b/3x3_reduce"
  top: "inception_4b/3x3_reduce"
}
layer {
  name: "inception_4b/3x3"
  type: "Convolution"
  bottom: "inception_4b/3x3_reduce"
  top: "inception_4b/3x3"
  param {
    lr_mult: 1
    decay_mult: 1
  }
  param {
    lr_mult: 2
    decay_mult: 0
  }
  convolution_param {
    num_output: 224
    pad: 1
    kernel_size: 3
    weight_filler {
      type: "xavier"
      std: 0.03
    }
    bias_filler {
      type: "constant"
      value: 0.2
    }
  }
}
layer {
  name: "inception_4b/relu_3x3"
  type: "ReLU"
  bottom: "inception_4b/3x3"
  top: "inception_4b/3x3"
}
layer {
  name: "inception_4b/5x5_reduce"
  type: "Convolution"
  bottom: "inception_4a/output"
  top: "inception_4b/5x5_reduce"
  param {
    lr_mult: 1
    decay_mult: 1
  }
  param {
    lr_mult: 2
    decay_mult: 0
  }
  convolution_param {
    num_output: 24
    kernel_size: 1
    weight_filler {
      type: "xavier"
      std: 0.2
    }
    bias_filler {
      type: "constant"
      value: 0.2
    }
  }
}
layer {
  name: "inception_4b/relu_5x5_reduce"
  type: "ReLU"
  bottom: "inception_4b/5x5_reduce"
  top: "inception_4b/5x5_reduce"
}
layer {
  name: "inception_4b/5x5"
  type: "Convolution"
  bottom: "inception_4b/5x5_reduce"
  top: "inception_4b/5x5"
  param {
    lr_mult: 1
    decay_mult: 1
  }
  param {
    lr_mult: 2
    decay_mult: 0
  }
  convolution_param {
    num_output: 64
    pad: 2
    kernel_size: 5
    weight_filler {
      type: "xavier"
      std: 0.03
    }
    bias_filler {
      type: "constant"
      value: 0.2
    }
  }
}
layer {
  name: "inception_4b/relu_5x5"
  type: "ReLU"
  bottom: "inception_4b/5x5"
  top: "inception_4b/5x5"
}
layer {
  name: "inception_4b/pool"
  type: "Pooling"
  bottom: "inception_4a/output"
  top: "inception_4b/pool"
  pooling_param {
    pool: MAX
    kernel_size: 3
    stride: 1
    pad: 1
  }
}
layer {
  name: "inception_4b/pool_proj"
  type: "Convolution"
  bottom: "inception_4b/pool"
  top: "inception_4b/pool_proj"
  param {
    lr_mult: 1
    decay_mult: 1
  }
  param {
    lr_mult: 2
    decay_mult: 0
  }
  convolution_param {
    num_output: 64
    kernel_size: 1
    weight_filler {
      type: "xavier"
      std: 0.1
    }
    bias_filler {
      type: "constant"
      value: 0.2
    }
  }
}
layer {
  name: "inception_4b/relu_pool_proj"
  type: "ReLU"
  bottom: "inception_4b/pool_proj"
  top: "inception_4b/pool_proj"
}
layer {
  name: "inception_4b/output"
  type: "Concat"
  bottom: "inception_4b/1x1"
  bottom: "inception_4b/3x3"
  bottom: "inception_4b/5x5"
  bottom: "inception_4b/pool_proj"
  top: "inception_4b/output"
}
layer {
  name: "inception_4c/1x1"
  type: "Convolution"
  bottom: "inception_4b/output"
  top: "inception_4c/1x1"
  param {
    lr_mult: 1
    decay_mult: 1
  }
  param {
    lr_mult: 2
    decay_mult: 0
  }
  convolution_param {
    num_output: 128
    kernel_size: 1
    weight_filler {
      type: "xavier"
      std: 0.03
    }
    bias_filler {
      type: "constant"
      value: 0.2
    }
  }
}
layer {
  name: "inception_4c/relu_1x1"
  type: "ReLU"
  bottom: "inception_4c/1x1"
  top: "inception_4c/1x1"
}
layer {
  name: "inception_4c/3x3_reduce"
  type: "Convolution"
  bottom: "inception_4b/output"
  top: "inception_4c/3x3_reduce"
  param {
    lr_mult: 1
    decay_mult: 1
  }
  param {
    lr_mult: 2
    decay_mult: 0
  }
  convolution_param {
    num_output: 128
    kernel_size: 1
    weight_filler {
      type: "xavier"
      std: 0.09
    }
    bias_filler {
      type: "constant"
      value: 0.2
    }
  }
}
layer {
  name: "inception_4c/relu_3x3_reduce"
  type: "ReLU"
  bottom: "inception_4c/3x3_reduce"
  top: "inception_4c/3x3_reduce"
}
layer {
  name: "inception_4c/3x3"
  type: "Convolution"
  bottom: "inception_4c/3x3_reduce"
  top: "inception_4c/3x3"
  param {
    lr_mult: 1
    decay_mult: 1
  }
  param {
    lr_mult: 2
    decay_mult: 0
  }
  convolution_param {
    num_output: 256
    pad: 1
    kernel_size: 3
    weight_filler {
      type: "xavier"
      std: 0.03
    }
    bias_filler {
      type: "constant"
      value: 0.2
    }
  }
}
layer {
  name: "inception_4c/relu_3x3"
  type: "ReLU"
  bottom: "inception_4c/3x3"
  top: "inception_4c/3x3"
}
layer {
  name: "inception_4c/5x5_reduce"
  type: "Convolution"
  bottom: "inception_4b/output"
  top: "inception_4c/5x5_reduce"
  param {
    lr_mult: 1
    decay_mult: 1
  }
  param {
    lr_mult: 2
    decay_mult: 0
  }
  convolution_param {
    num_output: 24
    kernel_size: 1
    weight_filler {
      type: "xavier"
      std: 0.2
    }
    bias_filler {
      type: "constant"
      value: 0.2
    }
  }
}
layer {
  name: "inception_4c/relu_5x5_reduce"
  type: "ReLU"
  bottom: "inception_4c/5x5_reduce"
  top: "inception_4c/5x5_reduce"
}
layer {
  name: "inception_4c/5x5"
  type: "Convolution"
  bottom: "inception_4c/5x5_reduce"
  top: "inception_4c/5x5"
  param {
    lr_mult: 1
    decay_mult: 1
  }
  param {
    lr_mult: 2
    decay_mult: 0
  }
  convolution_param {
    num_output: 64
    pad: 2
    kernel_size: 5
    weight_filler {
      type: "xavier"
      std: 0.03
    }
    bias_filler {
      type: "constant"
      value: 0.2
    }
  }
}
layer {
  name: "inception_4c/relu_5x5"
  type: "ReLU"
  bottom: "inception_4c/5x5"
  top: "inception_4c/5x5"
}
layer {
  name: "inception_4c/pool"
  type: "Pooling"
  bottom: "inception_4b/output"
  top: "inception_4c/pool"
  pooling_param {
    pool: MAX
    kernel_size: 3
    stride: 1
    pad: 1
  }
}
layer {
  name: "inception_4c/pool_proj"
  type: "Convolution"
  bottom: "inception_4c/pool"
  top: "inception_4c/pool_proj"
  param {
    lr_mult: 1
    decay_mult: 1
  }
  param {
    lr_mult: 2
    decay_mult: 0
  }
  convolution_param {
    num_output: 64
    kernel_size: 1
    weight_filler {
      type: "xavier"
      std: 0.1
    }
    bias_filler {
      type: "constant"
      value: 0.2
    }
  }
}
layer {
  name: "inception_4c/relu_pool_proj"
  type: "ReLU"
  bottom: "inception_4c/pool_proj"
  top: "inception_4c/pool_proj"
}
layer {
  name: "inception_4c/output"
  type: "Concat"
  bottom: "inception_4c/1x1"
  bottom: "inception_4c/3x3"
  bottom: "inception_4c/5x5"
  bottom: "inception_4c/pool_proj"
  top: "inception_4c/output"
}
layer {
  name: "inception_4d/1x1"
  type: "Convolution"
  bottom: "inception_4c/output"
  top: "inception_4d/1x1"
  param {
    lr_mult: 1
    decay_mult: 1
  }
  param {
    lr_mult: 2
    decay_mult: 0
  }
  convolution_param {
    num_output: 112
    kernel_size: 1
    weight_filler {
      type: "xavier"
      std: 0.03
    }
    bias_filler {
      type: "constant"
      value: 0.2
    }
  }
}
layer {
  name: "inception_4d/relu_1x1"
  type: "ReLU"
  bottom: "inception_4d/1x1"
  top: "inception_4d/1x1"
}
layer {
  name: "inception_4d/3x3_reduce"
  type: "Convolution"
  bottom: "inception_4c/output"
  top: "inception_4d/3x3_reduce"
  param {
    lr_mult: 1
    decay_mult: 1
  }
  param {
    lr_mult: 2
    decay_mult: 0
  }
  convolution_param {
    num_output: 144
    kernel_size: 1
    weight_filler {
      type: "xavier"
      std: 0.09
    }
    bias_filler {
      type: "constant"
      value: 0.2
    }
  }
}
layer {
  name: "inception_4d/relu_3x3_reduce"
  type: "ReLU"
  bottom: "inception_4d/3x3_reduce"
  top: "inception_4d/3x3_reduce"
}
layer {
  name: "inception_4d/3x3"
  type: "Convolution"
  bottom: "inception_4d/3x3_reduce"
  top: "inception_4d/3x3"
  param {
    lr_mult: 1
    decay_mult: 1
  }
  param {
    lr_mult: 2
    decay_mult: 0
  }
  convolution_param {
    num_output: 288
    pad: 1
    kernel_size: 3
    weight_filler {
      type: "xavier"
      std: 0.03
    }
    bias_filler {
      type: "constant"
      value: 0.2
    }
  }
}
layer {
  name: "inception_4d/relu_3x3"
  type: "ReLU"
  bottom: "inception_4d/3x3"
  top: "inception_4d/3x3"
}
layer {
  name: "inception_4d/5x5_reduce"
  type: "Convolution"
  bottom: "inception_4c/output"
  top: "inception_4d/5x5_reduce"
  param {
    lr_mult: 1
    decay_mult: 1
  }
  param {
    lr_mult: 2
    decay_mult: 0
  }
  convolution_param {
    num_output: 32
    kernel_size: 1
    weight_filler {
      type: "xavier"
      std: 0.2
    }
    bias_filler {
      type: "constant"
      value: 0.2
    }
  }
}
layer {
  name: "inception_4d/relu_5x5_reduce"
  type: "ReLU"
  bottom: "inception_4d/5x5_reduce"
  top: "inception_4d/5x5_reduce"
}
layer {
  name: "inception_4d/5x5"
  type: "Convolution"
  bottom: "inception_4d/5x5_reduce"
  top: "inception_4d/5x5"
  param {
    lr_mult: 1
    decay_mult: 1
  }
  param {
    lr_mult: 2
    decay_mult: 0
  }
  convolution_param {
    num_output: 64
    pad: 2
    kernel_size: 5
    weight_filler {
      type: "xavier"
      std: 0.03
    }
    bias_filler {
      type: "constant"
      value: 0.2
    }
  }
}
layer {
  name: "inception_4d/relu_5x5"
  type: "ReLU"
  bottom: "inception_4d/5x5"
  top: "inception_4d/5x5"
}
layer {
  name: "inception_4d/pool"
  type: "Pooling"
  bottom: "inception_4c/output"
  top: "inception_4d/pool"
  pooling_param {
    pool: MAX
    kernel_size: 3
    stride: 1
    pad: 1
  }
}
layer {
  name: "inception_4d/pool_proj"
  type: "Convolution"
  bottom: "inception_4d/pool"
  top: "inception_4d/pool_proj"
  param {
    lr_mult: 1
    decay_mult: 1
  }
  param {
    lr_mult: 2
    decay_mult: 0
  }
  convolution_param {
    num_output: 64
    kernel_size: 1
    weight_filler {
      type: "xavier"
      std: 0.1
    }
    bias_filler {
      type: "constant"
      value: 0.2
    }
  }
}
layer {
…
I0902 19:47:41.920095 54817 net.cpp:163] Top shape: 64 512 14 14 (6422528)
I0902 19:47:41.920100 54817 net.cpp:163] Top shape: 64 512 14 14 (6422528)
I0902 19:47:41.920105 54817 layer_factory.hpp:76] Creating layer inception_4c/1x1
I0902 19:47:41.920120 54817 net.cpp:110] Creating Layer inception_4c/1x1
I0902 19:47:41.920125 54817 net.cpp:477] inception_4c/1x1 <- inception_4b/output_inception_4b/output_0_split_0
I0902 19:47:41.920132 54817 net.cpp:433] inception_4c/1x1 -> inception_4c/1x1
I0902 19:47:41.949566 54817 net.cpp:155] Setting up inception_4c/1x1
I0902 19:47:41.949585 54817 net.cpp:163] Top shape: 64 128 14 14 (1605632)
I0902 19:47:41.949597 54817 layer_factory.hpp:76] Creating layer inception_4c/relu_1x1
I0902 19:47:41.949606 54817 net.cpp:110] Creating Layer inception_4c/relu_1x1
I0902 19:47:41.949614 54817 net.cpp:477] inception_4c/relu_1x1 <- inception_4c/1x1
I0902 19:47:41.949620 54817 net.cpp:419] inception_4c/relu_1x1 -> inception_4c/1x1 (in-place)
I0902 19:47:41.950762 54817 net.cpp:155] Setting up inception_4c/relu_1x1
I0902 19:47:41.950779 54817 net.cpp:163] Top shape: 64 128 14 14 (1605632)
I0902 19:47:41.950804 54817 layer_factory.hpp:76] Creating layer inception_4c/3x3_reduce
I0902 19:47:41.950819 54817 net.cpp:110] Creating Layer inception_4c/3x3_reduce
I0902 19:47:41.950825 54817 net.cpp:477] inception_4c/3x3_reduce <- inception_4b/output_inception_4b/output_0_split_1
I0902 19:47:41.950834 54817 net.cpp:433] inception_4c/3x3_reduce -> inception_4c/3x3_reduce
I0902 19:47:41.955674 54817 net.cpp:155] Setting up inception_4c/3x3_reduce
I0902 19:47:41.955693 54817 net.cpp:163] Top shape: 64 128 14 14 (1605632)
I0902 19:47:41.955705 54817 layer_factory.hpp:76] Creating layer inception_4c/relu_3x3_reduce
I0902 19:47:41.955715 54817 net.cpp:110] Creating Layer inception_4c/relu_3x3_reduce
I0902 19:47:41.955723 54817 net.cpp:477] inception_4c/relu_3x3_reduce <- inception_4c/3x3_reduce
I0902 19:47:41.955729 54817 net.cpp:419] inception_4c/relu_3x3_reduce -> inception_4c/3x3_reduce (in-place)
I0902 19:47:41.956882 54817 net.cpp:155] Setting up inception_4c/relu_3x3_reduce
I0902 19:47:41.956899 54817 net.cpp:163] Top shape: 64 128 14 14 (1605632)
I0902 19:47:41.956905 54817 layer_factory.hpp:76] Creating layer inception_4c/3x3
I0902 19:47:41.956918 54817 net.cpp:110] Creating Layer inception_4c/3x3
I0902 19:47:41.956924 54817 net.cpp:477] inception_4c/3x3 <- inception_4c/3x3_reduce
I0902 19:47:41.956933 54817 net.cpp:433] inception_4c/3x3 -> inception_4c/3x3
I0902 19:47:41.963943 54817 net.cpp:155] Setting up inception_4c/3x3
I0902 19:47:41.963961 54817 net.cpp:163] Top shape: 64 256 14 14 (3211264)
I0902 19:47:41.963992 54817 layer_factory.hpp:76] Creating layer inception_4c/relu_3x3
I0902 19:47:41.964004 54817 net.cpp:110] Creating Layer inception_4c/relu_3x3
I0902 19:47:41.964009 54817 net.cpp:477] inception_4c/relu_3x3 <- inception_4c/3x3
I0902 19:47:41.964018 54817 net.cpp:419] inception_4c/relu_3x3 -> inception_4c/3x3 (in-place)
I0902 19:47:41.965176 54817 net.cpp:155] Setting up inception_4c/relu_3x3
I0902 19:47:41.965195 54817 net.cpp:163] Top shape: 64 256 14 14 (3211264)
I0902 19:47:41.965201 54817 layer_factory.hpp:76] Creating layer inception_4c/5x5_reduce
I0902 19:47:41.965212 54817 net.cpp:110] Creating Layer inception_4c/5x5_reduce
I0902 19:47:41.965219 54817 net.cpp:477] inception_4c/5x5_reduce <- inception_4b/output_inception_4b/output_0_split_2
I0902 19:47:41.965229 54817 net.cpp:433] inception_4c/5x5_reduce -> inception_4c/5x5_reduce
I0902 19:47:41.970120 54817 net.cpp:155] Setting up inception_4c/5x5_reduce
I0902 19:47:41.970139 54817 net.cpp:163] Top shape: 64 24 14 14 (301056)
I0902 19:47:41.970149 54817 layer_factory.hpp:76] Creating layer inception_4c/relu_5x5_reduce
I0902 19:47:41.970160 54817 net.cpp:110] Creating Layer inception_4c/relu_5x5_reduce
I0902 19:47:41.970168 54817 net.cpp:477] inception_4c/relu_5x5_reduce <- inception_4c/5x5_reduce
I0902 19:47:41.970175 54817 net.cpp:419] inception_4c/relu_5x5_reduce -> inception_4c/5x5_reduce (in-place)
I0902 19:47:41.971348 54817 net.cpp:155] Setting up inception_4c/relu_5x5_reduce
I0902 19:47:41.971364 54817 net.cpp:163] Top shape: 64 24 14 14 (301056)
I0902 19:47:41.971370 54817 layer_factory.hpp:76] Creating layer inception_4c/5x5
I0902 19:47:41.971385 54817 net.cpp:110] Creating Layer inception_4c/5x5
I0902 19:47:41.971392 54817 net.cpp:477] inception_4c/5x5 <- inception_4c/5x5_reduce
I0902 19:47:41.971402 54817 net.cpp:433] inception_4c/5x5 -> inception_4c/5x5
I0902 19:47:41.975388 54817 net.cpp:155] Setting up inception_4c/5x5
I0902 19:47:41.975405 54817 net.cpp:163] Top shape: 64 64 14 14 (802816)
I0902 19:47:41.975415 54817 layer_factory.hpp:76] Creating layer inception_4c/relu_5x5
I0902 19:47:41.975430 54817 net.cpp:110] Creating Layer inception_4c/relu_5x5
I0902 19:47:41.975435 54817 net.cpp:477] inception_4c/relu_5x5 <- inception_4c/5x5
I0902 19:47:41.975442 54817 net.cpp:419] inception_4c/relu_5x5 -> inception_4c/5x5 (in-place)
I0902 19:47:41.976768 54817 net.cpp:155] Setting up inception_4c/relu_5x5
I0902 19:47:41.976783 54817 net.cpp:163] Top shape: 64 64 14 14 (802816)
I0902 19:47:41.976789 54817 layer_factory.hpp:76] Creating layer inception_4c/pool
I0902 19:47:41.976810 54817 layer_factory.cpp:60] CUDNN does not support padding or multiple tops. Using Caffe's own pooling layer.
I0902 19:47:41.976821 54817 net.cpp:110] Creating Layer inception_4c/pool
I0902 19:47:41.976827 54817 net.cpp:477] inception_4c/pool <- inception_4b/output_inception_4b/output_0_split_3
I0902 19:47:41.976838 54817 net.cpp:433] inception_4c/pool -> inception_4c/pool
I0902 19:47:41.976850 54817 net.cpp:155] Setting up inception_4c/pool
I0902 19:47:41.976857 54817 net.cpp:163] Top shape: 64 512 14 14 (6422528)
I0902 19:47:41.976862 54817 layer_factory.hpp:76] Creating layer inception_4c/pool_proj
I0902 19:47:41.976872 54817 net.cpp:110] Creating Layer inception_4c/pool_proj
I0902 19:47:41.976877 54817 net.cpp:477] inception_4c/pool_proj <- inception_4c/pool
I0902 19:47:41.976887 54817 net.cpp:433] inception_4c/pool_proj -> inception_4c/pool_proj
I0902 19:47:41.980826 54817 net.cpp:155] Setting up inception_4c/pool_proj
I0902 19:47:41.980844 54817 net.cpp:163] Top shape: 64 64 14 14 (802816)
I0902 19:47:41.980854 54817 layer_factory.hpp:76] Creating layer inception_4c/relu_pool_proj
I0902 19:47:41.980862 54817 net.cpp:110] Creating Layer inception_4c/relu_pool_proj
I0902 19:47:41.980868 54817 net.cpp:477] inception_4c/relu_pool_proj <- inception_4c/pool_proj
I0902 19:47:41.980875 54817 net.cpp:419] inception_4c/relu_pool_proj -> inception_4c/pool_proj (in-place)
I0902 19:47:41.982045 54817 net.cpp:155] Setting up inception_4c/relu_pool_proj
I0902 19:47:41.982062 54817 net.cpp:163] Top shape: 64 64 14 14 (802816)
I0902 19:47:41.982069 54817 layer_factory.hpp:76] Creating layer inception_4c/output
I0902 19:47:41.982082 54817 net.cpp:110] Creating Layer inception_4c/output
I0902 19:47:41.982090 54817 net.cpp:477] inception_4c/output <- inception_4c/1x1
I0902 19:47:41.982096 54817 net.cpp:477] inception_4c/output <- inception_4c/3x3
I0902 19:47:41.982102 54817 net.cpp:477] inception_4c/output <- inception_4c/5x5
I0902 19:47:41.982108 54817 net.cpp:477] inception_4c/output <- inception_4c/pool_proj
I0902 19:47:41.982115 54817 net.cpp:433] inception_4c/output -> inception_4c/output
I0902 19:47:41.982125 54817 net.cpp:155] Setting up inception_4c/output
I0902 19:47:41.982132 54817 net.cpp:163] Top shape: 64 512 14 14 (6422528)
I0902 19:47:41.982137 54817 layer_factory.hpp:76] Creating layer inception_4c/output_inception_4c/output_0_split
I0902 19:47:41.982146 54817 net.cpp:110] Creating Layer inception_4c/output_inception_4c/output_0_split
I0902 19:47:41.982151 54817 net.cpp:477] inception_4c/output_inception_4c/output_0_split <- inception_4c/output
I0902 19:47:41.982161 54817 net.cpp:433] inception_4c/output_inception_4c/output_0_split -> inception_4c/output_inception_4c/output_0_split_0
I0902 19:47:41.982168 54817 net.cpp:433] inception_4c/output_inception_4c/output_0_split -> inception_4c/output_inception_4c/output_0_split_1
I0902 19:47:41.982177 54817 net.cpp:433] inception_4c/output_inception_4c/output_0_split -> inception_4c/output_inception_4c/output_0_split_2
I0902 19:47:41.982185 54817 net.cpp:433] inception_4c/output_inception_4c/output_0_split -> inception_4c/output_inception_4c/output_0_split_3
I0902 19:47:41.982194 54817 net.cpp:155] Setting up inception_4c/output_inception_4c/output_0_split
I0902 19:47:41.982203 54817 net.cpp:163] Top shape: 64 512 14 14 (6422528)
I0902 19:47:41.982208 54817 net.cpp:163] Top shape: 64 512 14 14 (6422528)
I0902 19:47:41.982213 54817 net.cpp:163] Top shape: 64 512 14 14 (6422528)
I0902 19:47:41.982218 54817 net.cpp:163] Top shape: 64 512 14 14 (6422528)
I0902 19:47:41.982223 54817 layer_factory.hpp:76] Creating layer inception_4d/1x1
I0902 19:47:41.982231 54817 net.cpp:110] Creating Layer inception_4d/1x1
I0902 19:47:41.982236 54817 net.cpp:477] inception_4d/1x1 <- inception_4c/output_inception_4c/output_0_split_0
I0902 19:47:41.982246 54817 net.cpp:433] inception_4d/1x1 -> inception_4d/1x1
I0902 19:47:41.986608 54817 net.cpp:155] Setting up inception_4d/1x1
I0902 19:47:41.986625 54817 net.cpp:163] Top shape: 64 112 14 14 (1404928)
I0902 19:47:41.986649 54817 layer_factory.hpp:76] Creating layer inception_4d/relu_1x1
I0902 19:47:41.986660 54817 net.cpp:110] Creating Layer inception_4d/relu_1x1
I0902 19:47:41.986666 54817 net.cpp:477] inception_4d/relu_1x1 <- inception_4d/1x1
I0902 19:47:41.986673 54817 net.cpp:419] inception_4d/relu_1x1 -> inception_4d/1x1 (in-place)
I0902 19:47:41.987845 54817 net.cpp:155] Setting up inception_4d/relu_1x1
I0902 19:47:41.987862 54817 net.cpp:163] Top shape: 64 112 14 14 (1404928)
I0902 19:47:41.987869 54817 layer_factory.hpp:76] Creating layer inception_4d/3x3_reduce
I0902 19:47:41.987884 54817 net.cpp:110] Creating Layer inception_4d/3x3_reduce
I0902 19:47:41.987890 54817 net.cpp:477] inception_4d/3x3_reduce <- inception_4c/output_inception_4c/output_0_split_1
I0902 19:47:41.987900 54817 net.cpp:433] inception_4d/3x3_reduce -> inception_4d/3x3_reduce
I0902 19:47:41.992420 54817 net.cpp:155] Setting up inception_4d/3x3_reduce
I0902 19:47:41.992439 54817 net.cpp:163] Top shape: 64 144 14 14 (1806336)
I0902 19:47:41.992449 54817 layer_factory.hpp:76] Creating layer inception_4d/relu_3x3_reduce
I0902 19:47:41.992456 54817 net.cpp:110] Creating Layer inception_4d/relu_3x3_reduce
I0902 19:47:41.992462 54817 net.cpp:477] inception_4d/relu_3x3_reduce <- inception_4d/3x3_reduce
I0902 19:47:41.992472 54817 net.cpp:419] inception_4d/relu_3x3_reduce -> inception_4d/3x3_reduce (in-place)
I0902 19:47:41.993640 54817 net.cpp:155] Setting up inception_4d/relu_3x3_reduce
I0902 19:47:41.993659 54817 net.cpp:163] Top shape: 64 144 14 14 (1806336)
I0902 19:47:41.993665 54817 layer_factory.hpp:76] Creating layer inception_4d/3x3
I0902 19:47:41.993675 54817 net.cpp:110] Creating Layer inception_4d/3x3
I0902 19:47:41.993681 54817 net.cpp:477] inception_4d/3x3 <- inception_4d/3x3_reduce
I0902 19:47:41.993692 54817 net.cpp:433] inception_4d/3x3 -> inception_4d/3x3
I0902 19:47:42.001390 54817 net.cpp:155] Setting up inception_4d/3x3
I0902 19:47:42.001409 54817 net.cpp:163] Top shape: 64 288 14 14 (3612672)
I0902 19:47:42.001418 54817 layer_factory.hpp:76] Creating layer inception_4d/relu_3x3
I0902 19:47:42.001430 54817 net.cpp:110] Creating Layer inception_4d/relu_3x3
I0902 19:47:42.001436 54817 net.cpp:477] inception_4d/relu_3x3 <- inception_4d/3x3
I0902 19:47:42.001446 54817 net.cpp:419] inception_4d/relu_3x3 -> inception_4d/3x3 (in-place)
I0902 19:47:42.002796 54817 net.cpp:155] Setting up inception_4d/relu_3x3
I0902 19:47:42.002813 54817 net.cpp:163] Top shape: 64 288 14 14 (3612672)
I0902 19:47:42.002820 54817 layer_factory.hpp:76] Creating layer inception_4d/5x5_reduce
I0902 19:47:42.002832 54817 net.cpp:110] Creating Layer inception_4d/5x5_reduce
I0902 19:47:42.002840 54817 net.cpp:477] inception_4d/5x5_reduce <- inception_4c/output_inception_4c/output_0_split_2
I0902 19:47:42.002852 54817 net.cpp:433] inception_4d/5x5_reduce -> inception_4d/5x5_reduce
I0902 19:47:42.006710 54817 net.cpp:155] Setting up inception_4d/5x5_reduce
I0902 19:47:42.006727 54817 net.cpp:163] Top shape: 64 32 14 14 (401408)
I0902 19:47:42.006738 54817 layer_factory.hpp:76] Creating layer inception_4d/relu_5x5_reduce
I0902 19:47:42.006748 54817 net.cpp:110] Creating Layer inception_4d/relu_5x5_reduce
I0902 19:47:42.006754 54817 net.cpp:477] inception_4d/relu_5x5_reduce <- inception_4d/5x5_reduce
I0902 19:47:42.006764 54817 net.cpp:419] inception_4d/relu_5x5_reduce -> inception_4d/5x5_reduce (in-place)
I0902 19:47:42.007931 54817 net.cpp:155] Setting up inception_4d/relu_5x5_reduce
I0902 19:47:42.007951 54817 net.cpp:163] Top shape: 64 32 14 14 (401408)
I0902 19:47:42.007957 54817 layer_factory.hpp:76] Creating layer inception_4d/5x5
I0902 19:47:42.007969 54817 net.cpp:110] Creating Layer inception_4d/5x5
I0902 19:47:42.007975 54817 net.cpp:477] inception_4d/5x5 <- inception_4d/5x5_reduce
I0902 19:47:42.007987 54817 net.cpp:433] inception_4d/5x5 -> inception_4d/5x5
I0902 19:47:42.012348 54817 net.cpp:155] Setting up inception_4d/5x5
I0902 19:47:42.012365 54817 net.cpp:163] Top shape: 64 64 14 14 (802816)
I0902 19:47:42.012390 54817 layer_factory.hpp:76] Creating layer inception_4d/relu_5x5
I0902 19:47:42.012403 54817 net.cpp:110] Creating Layer inception_4d/relu_5x5
I0902 19:47:42.012408 54817 net.cpp:477] inception_4d/relu_5x5 <- inception_4d/5x5
I0902 19:47:42.012418 54817 net.cpp:419] inception_4d/relu_5x5 -> inception_4d/5x5 (in-place)
I0902 19:47:42.013600 54817 net.cpp:155] Setting up inception_4d/relu_5x5
I0902 19:47:42.013617 54817 net.cpp:163] Top shape: 64 64 14 14 (802816)
I0902 19:47:42.013623 54817 layer_factory.hpp:76] Creating layer inception_4d/pool
I0902 19:47:42.013629 54817 layer_factory.cpp:60] CUDNN does not support padding or multiple tops. Using Caffe's own pooling layer.
I0902 19:47:42.013636 54817 net.cpp:110] Creating Layer inception_4d/pool
I0902 19:47:42.013643 54817 net.cpp:477] inception_4d/pool <- inception_4c/output_inception_4c/output_0_split_3
I0902 19:47:42.013650 54817 net.cpp:433] inception_4d/pool -> inception_4d/pool
I0902 19:47:42.013663 54817 net.cpp:155] Setting up inception_4d/pool
I0902 19:47:42.013669 54817 net.cpp:163] Top shape: 64 512 14 14 (6422528)
I0902 19:47:42.013675 54817 layer_factory.hpp:76] Creating layer inception_4d/pool_proj
I0902 19:47:42.013687 54817 net.cpp:110] Creating Layer inception_4d/pool_proj
I0902 19:47:42.013692 54817 net.cpp:477] inception_4d/pool_proj <- inception_4d/pool
I0902 19:47:42.013702 54817 net.cpp:433] inception_4d/pool_proj -> inception_4d/pool_proj
I0902 19:47:42.018167 54817 net.cpp:155] Setting up inception_4d/pool_proj
I0902 19:47:42.018188 54817 net.cpp:163] Top shape: 64 64 14 14 (802816)
I0902 19:47:42.018198 54817 layer_factory.hpp:76] Creating layer inception_4d/relu_pool_proj
I0902 19:47:42.018209 54817 net.cpp:110] Creating Layer inception_4d/relu_pool_proj
I0902 19:47:42.018215 54817 net.cpp:477] inception_4d/relu_pool_proj <- inception_4d/pool_proj
I0902 19:47:42.018223 54817 net.cpp:419] inception_4d/relu_pool_proj -> inception_4d/pool_proj (in-place)
I0902 19:47:42.019394 54817 net.cpp:155] Setting up inception_4d/relu_pool_proj
I0902 19:47:42.019412 54817 net.cpp:163] Top shape: 64 64 14 14 (802816)
I0902 19:47:42.019418 54817 layer_factory.hpp:76] Creating layer inception_4d/output
I0902 19:47:42.019425 54817 net.cpp:110] Creating Layer inception_4d/output
I0902 19:47:42.019431 54817 net.cpp:477] inception_4d/output <- inception_4d/1x1
I0902 19:47:42.019440 54817 net.cpp:477] inception_4d/output <- inception_4d/3x3
I0902 19:47:42.019446 54817 net.cpp:477] inception_4d/output <- inception_4d/5x5
I0902 19:47:42.019451 54817 net.cpp:477] inception_4d/output <- inception_4d/pool_proj
I0902 19:47:42.019461 54817 net.cpp:433] inception_4d/output -> inception_4d/output
I0902 19:47:42.019472 54817 net.cpp:155] Setting up inception_4d/output
I0902 19:47:42.019479 54817 net.cpp:163] Top shape: 64 528 14 14 (6623232)
I0902 19:47:42.019484 54817 layer_factory.hpp:76] Creating layer inception_4d/output_inception_4d/output_0_split
I0902 19:47:42.019492 54817 net.cpp:110] Creating Layer inception_4d/output_inception_4d/output_0_split
I0902 19:47:42.019496 54817 net.cpp:477] inception_4d/output_inception_4d/output_0_split <- inception_4d/output
I0902 19:47:42.019505 54817 net.cpp:433] inception_4d/output_inception_4d/output_0_split -> inception_4d/output_inception_4d/output_0_split_0
I0902 19:47:42.019515 54817 net.cpp:433] inception_4d/output_inception_4d/output_0_split -> inception_4d/output_inception_4d/output_0_split_1
I0902 19:47:42.019525 54817 net.cpp:433] inception_4d/output_inception_4d/output_0_split -> inception_4d/output_inception_4d/output_0_split_2
I0902 19:47:42.019533 54817 net.cpp:433] inception_4d/output_inception_4d/output_0_split -> inception_4d/output_inception_4d/output_0_split_3
I0902 19:47:42.019541 54817 net.cpp:433] inception_4d/output_inception_4d/output_0_split -> inception_4d/output_inception_4d/output_0_split_4
I0902 19:47:42.019551 54817 net.cpp:155] Setting up inception_4d/output_inception_4d/output_0_split
I0902 19:47:42.019556 54817 net.cpp:163] Top shape: 64 528 14 14 (6623232)
I0902 19:47:42.019562 54817 net.cpp:163] Top shape: 64 528 14 14 (6623232)
I0902 19:47:42.019582 54817 net.cpp:163] Top shape: 64 528 14 14 (6623232)
I0902 19:47:42.019588 54817 net.cpp:163] Top shape: 64 528 14 14 (6623232)
I0902 19:47:42.019593 54817 net.cpp:163] Top shape: 64 528 14 14 (6623232)
I0902 19:47:42.019599 54817 layer_factory.hpp:76] Creating layer loss2/ave_pool
I0902 19:47:42.019610 54817 net.cpp:110] Creating Layer loss2/ave_pool
I0902 19:47:42.019615 54817 net.cpp:477] loss2/ave_pool <- inception_4d/output_inception_4d/output_0_split_0
I0902 19:47:42.019623 54817 net.cpp:433] loss2/ave_pool -> loss2/ave_pool
I0902 19:47:42.020788 54817 net.cpp:155] Setting up loss2/ave_pool
I0902 19:47:42.020804 54817 net.cpp:163] Top shape: 64 528 4 4 (540672)
I0902 19:47:42.020810 54817 layer_factory.hpp:76] Creating layer loss2/conv
I0902 19:47:42.020824 54817 net.cpp:110] Creating Layer loss2/conv
I0902 19:47:42.020830 54817 net.cpp:477] loss2/conv <- loss2/ave_pool
I0902 19:47:42.020838 54817 net.cpp:433] loss2/conv -> loss2/conv
I0902 19:47:42.025852 54817 net.cpp:155] Setting up loss2/conv
I0902 19:47:42.025871 54817 net.cpp:163] Top shape: 64 128 4 4 (131072)
I0902 19:47:42.025881 54817 layer_factory.hpp:76] Creating layer loss2/relu_conv
I0902 19:47:42.025892 54817 net.cpp:110] Creating Layer loss2/relu_conv
I0902 19:47:42.025897 54817 net.cpp:477] loss2/relu_conv <- loss2/conv
I0902 19:47:42.025907 54817 net.cpp:419] loss2/relu_conv -> loss2/conv (in-place)
I0902 19:47:42.027258 54817 net.cpp:155] Setting up loss2/relu_conv
I0902 19:47:42.027276 54817 net.cpp:163] Top shape: 64 128 4 4 (131072)
I0902 19:47:42.027282 54817 layer_factory.hpp:76] Creating layer loss2/fc
I0902 19:47:42.027294 54817 net.cpp:110] Creating Layer loss2/fc
I0902 19:47:42.027300 54817 net.cpp:477] loss2/fc <- loss2/conv
I0902 19:47:42.027308 54817 net.cpp:433] loss2/fc -> loss2/fc
I0902 19:47:42.049100 54817 net.cpp:155] Setting up loss2/fc
I0902 19:47:42.049118 54817 net.cpp:163] Top shape: 64 1024 (65536)
I0902 19:47:42.049129 54817 layer_factory.hpp:76] Creating layer loss2/relu_fc
I0902 19:47:42.049141 54817 net.cpp:110] Creating Layer loss2/relu_fc
I0902 19:47:42.049149 54817 net.cpp:477] loss2/relu_fc <- loss2/fc
I0902 19:47:42.049155 54817 net.cpp:419] loss2/relu_fc -> loss2/fc (in-place)
I0902 19:47:42.050377 54817 net.cpp:155] Setting up loss2/relu_fc
I0902 19:47:42.050395 54817 net.cpp:163] Top shape: 64 1024 (65536)
I0902 19:47:42.050400 54817 layer_factory.hpp:76] Creating layer loss2/drop_fc
I0902 19:47:42.050410 54817 net.cpp:110] Creating Layer loss2/drop_fc
I0902 19:47:42.050416 54817 net.cpp:477] loss2/drop_fc <- loss2/fc
I0902 19:47:42.050431 54817 net.cpp:419] loss2/drop_fc -> loss2/fc (in-place)
I0902 19:47:42.050441 54817 net.cpp:155] Setting up loss2/drop_fc
I0902 19:47:42.050447 54817 net.cpp:163] Top shape: 64 1024 (65536)
I0902 19:47:42.050452 54817 layer_factory.hpp:76] Creating layer loss2/classifier_cub
I0902 19:47:42.050462 54817 net.cpp:110] Creating Layer loss2/classifier_cub
I0902 19:47:42.050465 54817 net.cpp:477] loss2/classifier_cub <- loss2/fc
I0902 19:47:42.050475 54817 net.cpp:433] loss2/classifier_cub -> loss2/classifier
I0902 19:47:42.058904 54817 net.cpp:155] Setting up loss2/classifier_cub
I0902 19:47:42.058920 54817 net.cpp:163] Top shape: 64 200 (12800)
I0902 19:47:42.058930 54817 layer_factory.hpp:76] Creating layer loss2/classifier_loss2/classifier_cub_0_split
I0902 19:47:42.058939 54817 net.cpp:110] Creating Layer loss2/classifier_loss2/classifier_cub_0_split
I0902 19:47:42.058944 54817 net.cpp:477] loss2/classifier_loss2/classifier_cub_0_split <- loss2/classifier
I0902 19:47:42.058955 54817 net.cpp:433] loss2/classifier_loss2/classifier_cub_0_split -> loss2/classifier_loss2/classifier_cub_0_split_0
I0902 19:47:42.058965 54817 net.cpp:433] loss2/classifier_loss2/classifier_cub_0_split -> loss2/classifier_loss2/classifier_cub_0_split_1
I0902 19:47:42.058974 54817 net.cpp:433] loss2/classifier_loss2/classifier_cub_0_split -> loss2/classifier_loss2/classifier_cub_0_split_2
I0902 19:47:42.058984 54817 net.cpp:155] Setting up loss2/classifier_loss2/classifier_cub_0_split
I0902 19:47:42.059005 54817 net.cpp:163] Top shape: 64 200 (12800)
I0902 19:47:42.059010 54817 net.cpp:163] Top shape: 64 200 (12800)
I0902 19:47:42.059015 54817 net.cpp:163] Top shape: 64 200 (12800)
I0902 19:47:42.059021 54817 layer_factory.hpp:76] Creating layer loss2/loss
I0902 19:47:42.059031 54817 net.cpp:110] Creating Layer loss2/loss
I0902 19:47:42.059036 54817 net.cpp:477] loss2/loss <- loss2/classifier_loss2/classifier_cub_0_split_0
I0902 19:47:42.059043 54817 net.cpp:477] loss2/loss <- label_data_1_split_3
I0902 19:47:42.059053 54817 net.cpp:433] loss2/loss -> loss2/loss1
…
I0902 19:47:42.060602 54817 net.cpp:433] loss2/top-5 -> loss2/top-5
I0902 19:47:42.060611 54817 net.cpp:155] Setting up loss2/top-5
I0902 19:47:42.060616 54817 net.cpp:163] Top shape: (1)
I0902 19:47:42.060621 54817 layer_factory.hpp:76] Creating layer inception_4e/1x1
I0902 19:47:42.060632 54817 net.cpp:110] Creating Layer inception_4e/1x1
I0902 19:47:42.060638 54817 net.cpp:477] inception_4e/1x1 <- inception_4d/output_inception_4d/output_0_split_1
I0902 19:47:42.060648 54817 net.cpp:433] inception_4e/1x1 -> inception_4e/1x1
I0902 19:47:42.065492 54817 net.cpp:155] Setting up inception_4e/1x1
I0902 19:47:42.065510 54817 net.cpp:163] Top shape: 64 256 14 14 (3211264)
I0902 19:47:42.065522 54817 layer_factory.hpp:76] Creating layer inception_4e/relu_1x1
I0902 19:47:42.065536 54817 net.cpp:110] Creating Layer inception_4e/relu_1x1
I0902 19:47:42.065541 54817 net.cpp:477] inception_4e/relu_1x1 <- inception_4e/1x1
I0902 19:47:42.065548 54817 net.cpp:419] inception_4e/relu_1x1 -> inception_4e/1x1 (in-place)
I0902 19:47:42.066916 54817 net.cpp:155] Setting up inception_4e/relu_1x1
I0902 19:47:42.066933 54817 net.cpp:163] Top shape: 64 256 14 14 (3211264)
I0902 19:47:42.066939 54817 layer_factory.hpp:76] Creating layer inception_4e/3x3_reduce
I0902 19:47:42.066972 54817 net.cpp:110] Creating Layer inception_4e/3x3_reduce
I0902 19:47:42.066979 54817 net.cpp:477] inception_4e/3x3_reduce <- inception_4d/output_inception_4d/output_0_split_2
I0902 19:47:42.066988 54817 net.cpp:433] inception_4e/3x3_reduce -> inception_4e/3x3_reduce
I0902 19:47:42.072187 54817 net.cpp:155] Setting up inception_4e/3x3_reduce
I0902 19:47:42.072206 54817 net.cpp:163] Top shape: 64 160 14 14 (2007040)
I0902 19:47:42.072218 54817 layer_factory.hpp:76] Creating layer inception_4e/relu_3x3_reduce
I0902 19:47:42.072229 54817 net.cpp:110] Creating Layer inception_4e/relu_3x3_reduce
I0902 19:47:42.072235 54817 net.cpp:477] inception_4e/relu_3x3_reduce <- inception_4e/3x3_reduce
I0902 19:47:42.072242 54817 net.cpp:419] inception_4e/relu_3x3_reduce -> inception_4e/3x3_reduce (in-place)
I0902 19:47:42.073442 54817 net.cpp:155] Setting up inception_4e/relu_3x3_reduce
I0902 19:47:42.073458 54817 net.cpp:163] Top shape: 64 160 14 14 (2007040)
I0902 19:47:42.073464 54817 layer_factory.hpp:76] Creating layer inception_4e/3x3
I0902 19:47:42.073480 54817 net.cpp:110] Creating Layer inception_4e/3x3
I0902 19:47:42.073500 54817 net.cpp:477] inception_4e/3x3 <- inception_4e/3x3_reduce
I0902 19:47:42.073511 54817 net.cpp:433] inception_4e/3x3 -> inception_4e/3x3
I0902 19:47:42.082366 54817 net.cpp:155] Setting up inception_4e/3x3
I0902 19:47:42.082386 54817 net.cpp:163] Top shape: 64 320 14 14 (4014080)
I0902 19:47:42.082398 54817 layer_factory.hpp:76] Creating layer inception_4e/relu_3x3
I0902 19:47:42.082408 54817 net.cpp:110] Creating Layer inception_4e/relu_3x3
I0902 19:47:42.082414 54817 net.cpp:477] inception_4e/relu_3x3 <- inception_4e/3x3
I0902 19:47:42.082422 54817 net.cpp:419] inception_4e/relu_3x3 -> inception_4e/3x3 (in-place)
I0902 19:47:42.083611 54817 net.cpp:155] Setting up inception_4e/relu_3x3
I0902 19:47:42.083626 54817 net.cpp:163] Top shape: 64 320 14 14 (4014080)
I0902 19:47:42.083633 54817 layer_factory.hpp:76] Creating layer inception_4e/5x5_reduce
I0902 19:47:42.083648 54817 net.cpp:110] Creating Layer inception_4e/5x5_reduce
I0902 19:47:42.083654 54817 net.cpp:477] inception_4e/5x5_reduce <- inception_4d/output_inception_4d/output_0_split_3
I0902 19:47:42.083663 54817 net.cpp:433] inception_4e/5x5_reduce -> inception_4e/5x5_reduce
I0902 19:47:42.087779 54817 net.cpp:155] Setting up inception_4e/5x5_reduce
I0902 19:47:42.087797 54817 net.cpp:163] Top shape: 64 32 14 14 (401408)
I0902 19:47:42.087807 54817 layer_factory.hpp:76] Creating layer inception_4e/relu_5x5_reduce
I0902 19:47:42.087821 54817 net.cpp:110] Creating Layer inception_4e/relu_5x5_reduce
I0902 19:47:42.087826 54817 net.cpp:477] inception_4e/relu_5x5_reduce <- inception_4e/5x5_reduce
I0902 19:47:42.087833 54817 net.cpp:419] inception_4e/relu_5x5_reduce -> inception_4e/5x5_reduce (in-place)
I0902 19:47:42.089040 54817 net.cpp:155] Setting up inception_4e/relu_5x5_reduce
I0902 19:47:42.089057 54817 net.cpp:163] Top shape: 64 32 14 14 (401408)
I0902 19:47:42.089063 54817 layer_factory.hpp:76] Creating layer inception_4e/5x5
I0902 19:47:42.089077 54817 net.cpp:110] Creating Layer inception_4e/5x5
I0902 19:47:42.089085 54817 net.cpp:477] inception_4e/5x5 <- inception_4e/5x5_reduce
I0902 19:47:42.089093 54817 net.cpp:433] inception_4e/5x5 -> inception_4e/5x5
I0902 19:47:42.093767 54817 net.cpp:155] Setting up inception_4e/5x5
I0902 19:47:42.093786 54817 net.cpp:163] Top shape: 64 128 14 14 (1605632)
I0902 19:47:42.093796 54817 layer_factory.hpp:76] Creating layer inception_4e/relu_5x5
I0902 19:47:42.093821 54817 net.cpp:110] Creating Layer inception_4e/relu_5x5
I0902 19:47:42.093828 54817 net.cpp:477] inception_4e/relu_5x5 <- inception_4e/5x5
I0902 19:47:42.093838 54817 net.cpp:419] inception_4e/relu_5x5 -> inception_4e/5x5 (in-place)
I0902 19:47:42.095227 54817 net.cpp:155] Setting up inception_4e/relu_5x5
I0902 19:47:42.095243 54817 net.cpp:163] Top shape: 64 128 14 14 (1605632)
I0902 19:47:42.095252 54817 layer_factory.hpp:76] Creating layer inception_4e/pool
I0902 19:47:42.095259 54817 layer_factory.cpp:60] CUDNN does not support padding or multiple tops. Using Caffe's own pooling layer.
I0902 19:47:42.095269 54817 net.cpp:110] Creating Layer inception_4e/pool
I0902 19:47:42.095275 54817 net.cpp:477] inception_4e/pool <- inception_4d/output_inception_4d/output_0_split_4
I0902 19:47:42.095283 54817 net.cpp:433] inception_4e/pool -> inception_4e/pool
I0902 19:47:42.095294 54817 net.cpp:155] Setting up inception_4e/pool
I0902 19:47:42.095304 54817 net.cpp:163] Top shape: 64 528 14 14 (6623232)
I0902 19:47:42.095309 54817 layer_factory.hpp:76] Creating layer inception_4e/pool_proj
I0902 19:47:42.095320 54817 net.cpp:110] Creating Layer inception_4e/pool_proj
I0902 19:47:42.095325 54817 net.cpp:477] inception_4e/pool_proj <- inception_4e/pool
I0902 19:47:42.095335 54817 net.cpp:433] inception_4e/pool_proj -> inception_4e/pool_proj
I0902 19:47:42.099891 54817 net.cpp:155] Setting up inception_4e/pool_proj
I0902 19:47:42.099911 54817 net.cpp:163] Top shape: 64 128 14 14 (1605632)
I0902 19:47:42.099922 54817 layer_factory.hpp:76] Creating layer inception_4e/relu_pool_proj
I0902 19:47:42.099933 54817 net.cpp:110] Creating Layer inception_4e/relu_pool_proj
I0902 19:47:42.099953 54817 net.cpp:477] inception_4e/relu_pool_proj <- inception_4e/pool_proj
I0902 19:47:42.099961 54817 net.cpp:419] inception_4e/relu_pool_proj -> inception_4e/pool_proj (in-place)
I0902 19:47:42.101173 54817 net.cpp:155] Setting up inception_4e/relu_pool_proj
I0902 19:47:42.101191 54817 net.cpp:163] Top shape: 64 128 14 14 (1605632)
I0902 19:47:42.101197 54817 layer_factory.hpp:76] Creating layer inception_4e/output
I0902 19:47:42.101208 54817 net.cpp:110] Creating Layer inception_4e/output
I0902 19:47:42.101213 54817 net.cpp:477] inception_4e/output <- inception_4e/1x1
I0902 19:47:42.101220 54817 net.cpp:477] inception_4e/output <- inception_4e/3x3
I0902 19:47:42.101227 54817 net.cpp:477] inception_4e/output <- inception_4e/5x5
I0902 19:47:42.101233 54817 net.cpp:477] inception_4e/output <- inception_4e/pool_proj
I0902 19:47:42.101239 54817 net.cpp:433] inception_4e/output -> inception_4e/output
I0902 19:47:42.101250 54817 net.cpp:155] Setting up inception_4e/output
I0902 19:47:42.101258 54817 net.cpp:163] Top shape: 64 832 14 14 (10436608)
I0902 19:47:42.101263 54817 layer_factory.hpp:76] Creating layer pool4/3x3_s2
I0902 19:47:42.101274 54817 net.cpp:110] Creating Layer pool4/3x3_s2
I0902 19:47:42.101279 54817 net.cpp:477] pool4/3x3_s2 <- inception_4e/output
I0902 19:47:42.101289 54817 net.cpp:433] pool4/3x3_s2 -> pool4/3x3_s2
I0902 19:47:42.102500 54817 net.cpp:155] Setting up pool4/3x3_s2
I0902 19:47:42.102517 54817 net.cpp:163] Top shape: 64 832 7 7 (2609152)
I0902 19:47:42.102524 54817 layer_factory.hpp:76] Creating layer pool4/3x3_s2_pool4/3x3_s2_0_split
I0902 19:47:42.102533 54817 net.cpp:110] Creating Layer pool4/3x3_s2_pool4/3x3_s2_0_split
I0902 19:47:42.102540 54817 net.cpp:477] pool4/3x3_s2_pool4/3x3_s2_0_split <- pool4/3x3_s2
I0902 19:47:42.102550 54817 net.cpp:433] pool4/3x3_s2_pool4/3x3_s2_0_split -> pool4/3x3_s2_pool4/3x3_s2_0_split_0
I0902 19:47:42.102560 54817 net.cpp:433] pool4/3x3_s2_pool4/3x3_s2_0_split -> pool4/3x3_s2_pool4/3x3_s2_0_split_1
I0902 19:47:42.102568 54817 net.cpp:433] pool4/3x3_s2_pool4/3x3_s2_0_split -> pool4/3x3_s2_pool4/3x3_s2_0_split_2
I0902 19:47:42.102599 54817 net.cpp:433] pool4/3x3_s2_pool4/3x3_s2_0_split -> pool4/3x3_s2_pool4/3x3_s2_0_split_3
I0902 19:47:42.102609 54817 net.cpp:155] Setting up pool4/3x3_s2_pool4/3x3_s2_0_split
I0902 19:47:42.102617 54817 net.cpp:163] Top shape: 64 832 7 7 (2609152)
I0902 19:47:42.102622 54817 net.cpp:163] Top shape: 64 832 7 7 (2609152)
I0902 19:47:42.102628 54817 net.cpp:163] Top shape: 64 832 7 7 (2609152)
I0902 19:47:42.102633 54817 net.cpp:163] Top shape: 64 832 7 7 (2609152)
I0902 19:47:42.102638 54817 layer_factory.hpp:76] Creating layer inception_5a/1x1
I0902 19:47:42.102656 54817 net.cpp:110] Creating Layer inception_5a/1x1
I0902 19:47:42.102663 54817 net.cpp:477] inception_5a/1x1 <- pool4/3x3_s2_pool4/3x3_s2_0_split_0
I0902 19:47:42.102670 54817 net.cpp:433] inception_5a/1x1 -> inception_5a/1x1
I0902 19:47:42.109194 54817 net.cpp:155] Setting up inception_5a/1x1
I0902 19:47:42.109212 54817 net.cpp:163] Top shape: 64 256 7 7 (802816)
I0902 19:47:42.109222 54817 layer_factory.hpp:76] Creating layer inception_5a/relu_1x1
I0902 19:47:42.109232 54817 net.cpp:110] Creating Layer inception_5a/relu_1x1
I0902 19:47:42.109239 54817 net.cpp:477] inception_5a/relu_1x1 <- inception_5a/1x1
I0902 19:47:42.109249 54817 net.cpp:419] inception_5a/relu_1x1 -> inception_5a/1x1 (in-place)
I0902 19:47:42.110453 54817 net.cpp:155] Setting up inception_5a/relu_1x1
I0902 19:47:42.110473 54817 net.cpp:163] Top shape: 64 256 7 7 (802816)
I0902 19:47:42.110481 54817 layer_factory.hpp:76] Creating layer inception_5a/3x3_reduce
I0902 19:47:42.110492 54817 net.cpp:110] Creating Layer inception_5a/3x3_reduce
I0902 19:47:42.110498 54817 net.cpp:477] inception_5a/3x3_reduce <- pool4/3x3_s2_pool4/3x3_s2_0_split_1
I0902 19:47:42.110509 54817 net.cpp:433] inception_5a/3x3_reduce -> inception_5a/3x3_reduce
I0902 19:47:42.116356 54817 net.cpp:155] Setting up inception_5a/3x3_reduce
I0902 19:47:42.116374 54817 net.cpp:163] Top shape: 64 160 7 7 (501760)
I0902 19:47:42.116400 54817 layer_factory.hpp:76] Creating layer inception_5a/relu_3x3_reduce
I0902 19:47:42.116413 54817 net.cpp:110] Creating Layer inception_5a/relu_3x3_reduce
I0902 19:47:42.116420 54817 net.cpp:477] inception_5a/relu_3x3_reduce <- inception_5a/3x3_reduce
I0902 19:47:42.116427 54817 net.cpp:419] inception_5a/relu_3x3_reduce -> inception_5a/3x3_reduce (in-place)
I0902 19:47:42.117626 54817 net.cpp:155] Setting up inception_5a/relu_3x3_reduce
I0902 19:47:42.117642 54817 net.cpp:163] Top shape: 64 160 7 7 (501760)
I0902 19:47:42.117650 54817 layer_factory.hpp:76] Creating layer inception_5a/3x3
I0902 19:47:42.117665 54817 net.cpp:110] Creating Layer inception_5a/3x3
I0902 19:47:42.117671 54817 net.cpp:477] inception_5a/3x3 <- inception_5a/3x3_reduce
I0902 19:47:42.117681 54817 net.cpp:433] inception_5a/3x3 -> inception_5a/3x3
I0902 19:47:42.126433 54817 net.cpp:155] Setting up inception_5a/3x3
I0902 19:47:42.126456 54817 net.cpp:163] Top shape: 64 320 7 7 (1003520)
I0902 19:47:42.126467 54817 layer_factory.hpp:76] Creating layer inception_5a/relu_3x3
I0902 19:47:42.126477 54817 net.cpp:110] Creating Layer inception_5a/relu_3x3
I0902 19:47:42.126483 54817 net.cpp:477] inception_5a/relu_3x3 <- inception_5a/3x3
I0902 19:47:42.126490 54817 net.cpp:419] inception_5a/relu_3x3 -> inception_5a/3x3 (in-place)
I0902 19:47:42.127894 54817 net.cpp:155] Setting up inception_5a/relu_3x3
I0902 19:47:42.127912 54817 net.cpp:163] Top shape: 64 320 7 7 (1003520)
I0902 19:47:42.127918 54817 layer_factory.hpp:76] Creating layer inception_5a/5x5_reduce
I0902 19:47:42.127930 54817 net.cpp:110] Creating Layer inception_5a/5x5_reduce
I0902 19:47:42.127935 54817 net.cpp:477] inception_5a/5x5_reduce <- pool4/3x3_s2_pool4/3x3_s2_0_split_2
I0902 19:47:42.127948 54817 net.cpp:433] inception_5a/5x5_reduce -> inception_5a/5x5_reduce
I0902 19:47:42.132746 54817 net.cpp:155] Setting up inception_5a/5x5_reduce
I0902 19:47:42.132764 54817 net.cpp:163] Top shape: 64 32 7 7 (100352)
I0902 19:47:42.132774 54817 layer_factory.hpp:76] Creating layer inception_5a/relu_5x5_reduce
I0902 19:47:42.132787 54817 net.cpp:110] Creating Layer inception_5a/relu_5x5_reduce
I0902 19:47:42.132794 54817 net.cpp:477] inception_5a/relu_5x5_reduce <- inception_5a/5x5_reduce
I0902 19:47:42.132802 54817 net.cpp:419] inception_5a/relu_5x5_reduce -> inception_5a/5x5_reduce (in-place)
I0902 19:47:42.134022 54817 net.cpp:155] Setting up inception_5a/relu_5x5_reduce
I0902 19:47:42.134039 54817 net.cpp:163] Top shape: 64 32 7 7 (100352)
I0902 19:47:42.134045 54817 layer_factory.hpp:76] Creating layer inception_5a/5x5
I0902 19:47:42.134058 54817 net.cpp:110] Creating Layer inception_5a/5x5
I0902 19:47:42.134064 54817 net.cpp:477] inception_5a/5x5 <- inception_5a/5x5_reduce
I0902 19:47:42.134075 54817 net.cpp:433] inception_5a/5x5 -> inception_5a/5x5
I0902 19:47:42.138955 54817 net.cpp:155] Setting up inception_5a/5x5
I0902 19:47:42.138973 54817 net.cpp:163] Top shape: 64 128 7 7 (401408)
I0902 19:47:42.138983 54817 layer_factory.hpp:76] Creating layer inception_5a/relu_5x5
I0902 19:47:42.138996 54817 net.cpp:110] Creating Layer inception_5a/relu_5x5
I0902 19:47:42.139003 54817 net.cpp:477] inception_5a/relu_5x5 <- inception_5a/5x5
I0902 19:47:42.139010 54817 net.cpp:419] inception_5a/relu_5x5 -> inception_5a/5x5 (in-place)
I0902 19:47:42.140215 54817 net.cpp:155] Setting up inception_5a/relu_5x5
I0902 19:47:42.140231 54817 net.cpp:163] Top shape: 64 128 7 7 (401408)
I0902 19:47:42.140238 54817 layer_factory.hpp:76] Creating layer inception_5a/pool
I0902 19:47:42.140244 54817 layer_factory.cpp:60] CUDNN does not support padding or multiple tops. Using Caffe's own pooling layer.
I0902 19:47:42.140250 54817 net.cpp:110] Creating Layer inception_5a/pool
I0902 19:47:42.140256 54817 net.cpp:477] inception_5a/pool <- pool4/3x3_s2_pool4/3x3_s2_0_split_3
I0902 19:47:42.140264 54817 net.cpp:433] inception_5a/pool -> inception_5a/pool
I0902 19:47:42.140280 54817 net.cpp:155] Setting up inception_5a/pool
I0902 19:47:42.140286 54817 net.cpp:163] Top shape: 64 832 7 7 (2609152)
I0902 19:47:42.140305 54817 layer_factory.hpp:76] Creating layer inception_5a/pool_proj
I0902 19:47:42.140317 54817 net.cpp:110] Creating Layer inception_5a/pool_proj
I0902 19:47:42.140323 54817 net.cpp:477] inception_5a/pool_proj <- inception_5a/pool
I0902 19:47:42.140333 54817 net.cpp:433] inception_5a/pool_proj -> inception_5a/pool_proj
I0902 19:47:42.146020 54817 net.cpp:155] Setting up inception_5a/pool_proj
I0902 19:47:42.146039 54817 net.cpp:163] Top shape: 64 128 7 7 (401408)
I0902 19:47:42.146049 54817 layer_factory.hpp:76] Creating layer inception_5a/relu_pool_proj
I0902 19:47:42.146060 54817 net.cpp:110] Creating Layer inception_5a/relu_pool_proj
I0902 19:47:42.146066 54817 net.cpp:477] inception_5a/relu_pool_proj <- inception_5a/pool_proj
I0902 19:47:42.146076 54817 net.cpp:419] inception_5a/relu_pool_proj -> inception_5a/pool_proj (in-place)
I0902 19:47:42.147310 54817 net.cpp:155] Setting up inception_5a/relu_pool_proj
I0902 19:47:42.147328 54817 net.cpp:163] Top shape: 64 128 7 7 (401408)
I0902 19:47:42.147337 54817 layer_factory.hpp:76] Creating layer inception_5a/output
I0902 19:47:42.147347 54817 net.cpp:110] Creating Layer inception_5a/output
I0902 19:47:42.147353 54817 net.cpp:477] inception_5a/output <- inception_5a/1x1
I0902 19:47:42.147361 54817 net.cpp:477] inception_5a/output <- inception_5a/3x3
I0902 19:47:42.147366 54817 net.cpp:477] inception_5a/output <- inception_5a/5x5
I0902 19:47:42.147372 54817 net.cpp:477] inception_5a/output <- inception_5a/pool_proj
I0902 19:47:42.147378 54817 net.cpp:433] inception_5a/output -> inception_5a/output
I0902 19:47:42.147388 54817 net.cpp:155] Setting up inception_5a/output
I0902 19:47:42.147395 54817 net.cpp:163] Top shape: 64 832 7 7 (2609152)
I0902 19:47:42.147400 54817 layer_factory.hpp:76] Creating layer inception_5a/output_inception_5a/output_0_split
I0902 19:47:42.147411 54817 net.cpp:110] Creating Layer inception_5a/output_inception_5a/output_0_split
I0902 19:47:42.147416 54817 net.cpp:477] inception_5a/output_inception_5a/output_0_split <- inception_5a/output
I0902 19:47:42.147423 54817 net.cpp:433] inception_5a/output_inception_5a/output_0_split -> inception_5a/output_inception_5a/output_0_split_0
I0902 19:47:42.147433 54817 net.cpp:433] inception_5a/output_inception_5a/output_0_split -> inception_5a/output_inception_5a/output_0_split_1
I0902 19:47:42.147441 54817 net.cpp:433] inception_5a/output_inception_5a/output_0_split -> inception_5a/output_inception_5a/output_0_split_2
I0902 19:47:42.147452 54817 net.cpp:433] inception_5a/output_inception_5a/output_0_split -> inception_5a/output_inception_5a/output_0_split_3
I0902 19:47:42.147461 54817 net.cpp:155] Setting up inception_5a/output_inception_5a/output_0_split
I0902 19:47:42.147467 54817 net.cpp:163] Top shape: 64 832 7 7 (2609152)
I0902 19:47:42.147472 54817 net.cpp:163] Top shape: 64 832 7 7 (2609152)
I0902 19:47:42.147477 54817 net.cpp:163] Top shape: 64 832 7 7 (2609152)
I0902 19:47:42.147482 54817 net.cpp:163] Top shape: 64 832 7 7 (2609152)
I0902 19:47:42.147487 54817 layer_factory.hpp:76] Creating layer inception_5b/1x1
I0902 19:47:42.147496 54817 net.cpp:110] Creating Layer inception_5b/1x1
I0902 19:47:42.147501 54817 net.cpp:477] inception_5b/1x1 <- inception_5a/output_inception_5a/output_0_split_0
I0902 19:47:42.147511 54817 net.cpp:433] inception_5b/1x1 -> inception_5b/1x1
I0902 19:47:42.154840 54817 net.cpp:155] Setting up inception_5b/1x1
I0902 19:47:42.154860 54817 net.cpp:163] Top shape: 64 384 7 7 (1204224)
I0902 19:47:42.154870 54817 layer_factory.hpp:76] Creating layer inception_5b/relu_1x1
I0902 19:47:42.154881 54817 net.cpp:110] Creating Layer inception_5b/relu_1x1
I0902 19:47:42.154886 54817 net.cpp:477] inception_5b/relu_1x1 <- inception_5b/1x1
I0902 19:47:42.154896 54817 net.cpp:419] inception_5b/relu_1x1 -> inception_5b/1x1 (in-place)
I0902 19:47:42.156311 54817 net.cpp:155] Setting up inception_5b/relu_1x1
I0902 19:47:42.156327 54817 net.cpp:163] Top shape: 64 384 7 7 (1204224)
I0902 19:47:42.156333 54817 layer_factory.hpp:76] Creating layer inception_5b/3x3_reduce
I0902 19:47:42.156365 54817 net.cpp:110] Creating Layer inception_5b/3x3_reduce
I0902 19:47:42.156373 54817 net.cpp:477] inception_5b/3x3_reduce <- inception_5a/output_inception_5a/output_0_split_1
I0902 19:47:42.156383 54817 net.cpp:433] inception_5b/3x3_reduce -> inception_5b/3x3_reduce
I0902 19:47:42.162551 54817 net.cpp:155] Setting up inception_5b/3x3_reduce
I0902 19:47:42.162569 54817 net.cpp:163] Top shape: 64 192 7 7 (602112)
I0902 19:47:42.162580 54817 layer_factory.hpp:76] Creating layer inception_5b/relu_3x3_reduce
I0902 19:47:42.162588 54817 net.cpp:110] Creating Layer inception_5b/relu_3x3_reduce
I0902 19:47:42.162595 54817 net.cpp:477] inception_5b/relu_3x3_reduce <- inception_5b/3x3_reduce
I0902 19:47:42.162606 54817 net.cpp:419] inception_5b/relu_3x3_reduce -> inception_5b/3x3_reduce (in-place)
I0902 19:47:42.163838 54817 net.cpp:155] Setting up inception_5b/relu_3x3_reduce
I0902 19:47:42.163858 54817 net.cpp:163] Top shape: 64 192 7 7 (602112)
I0902 19:47:42.163864 54817 layer_factory.hpp:76] Creating layer inception_5b/3x3
I0902 19:47:42.163875 54817 net.cpp:110] Creating Layer inception_5b/3x3
I0902 19:47:42.163882 54817 net.cpp:477] inception_5b/3x3 <- inception_5b/3x3_reduce
I0902 19:47:42.163894 54817 net.cpp:433] inception_5b/3x3 -> inception_5b/3x3
I0902 19:47:42.174929 54817 net.cpp:155] Setting up inception_5b/3x3
I0902 19:47:42.174948 54817 net.cpp:163] Top shape: 64 384 7 7 (1204224)
I0902 19:47:42.174959 54817 layer_factory.hpp:76] Creating layer inception_5b/relu_3x3
I0902 19:47:42.174973 54817 net.cpp:110] Creating Layer inception_5b/relu_3x3
I0902 19:47:42.174979 54817 net.cpp:477] inception_5b/relu_3x3 <- inception_5b/3x3
I0902 19:47:42.174986 54817 net.cpp:419] inception_5b/relu_3x3 -> inception_5b/3x3 (in-place)
I0902 19:47:42.176210 54817 net.cpp:155] Setting up inception_5b/relu_3x3
I0902 19:47:42.176228 54817 net.cpp:163] Top shape: 64 384 7 7 (1204224)
I0902 19:47:42.176234 54817 layer_factory.hpp:76] Creating layer inception_5b/5x5_reduce
I0902 19:47:42.176244 54817 net.cpp:110] Creating Layer inception_5b/5x5_reduce
I0902 19:47:42.176249 54817 net.cpp:477] inception_5b/5x5_reduce <- inception_5a/output_inception_5a/output_0_split_2
I0902 19:47:42.176261 54817 net.cpp:433] inception_5b/5x5_reduce -> inception_5b/5x5_reduce
I0902 19:47:42.180749 54817 net.cpp:155] Setting up inception_5b/5x5_reduce
I0902 19:47:42.180768 54817 net.cpp:163] Top shape: 64 48 7 7 (150528)
I0902 19:47:42.180778 54817 layer_factory.hpp:76] Creating layer inception_5b/relu_5x5_reduce
I0902 19:47:42.180790 54817 net.cpp:110] Creating Layer inception_5b/relu_5x5_reduce
I0902 19:47:42.180798 54817 net.cpp:477] inception_5b/relu_5x5_reduce <- inception_5b/5x5_reduce
I0902 19:47:42.180804 54817 net.cpp:419] inception_5b/relu_5x5_reduce -> inception_5b/5x5_reduce (in-place)
I0902 19:47:42.182041 54817 net.cpp:155] Setting up inception_5b/relu_5x5_reduce
I0902 19:47:42.182060 54817 net.cpp:163] Top shape: 64 48 7 7 (150528)
I0902 19:47:42.182065 54817 layer_factory.hpp:76] Creating layer inception_5b/5x5
I0902 19:47:42.182080 54817 net.cpp:110] Creating Layer inception_5b/5x5
I0902 19:47:42.182086 54817 net.cpp:477] inception_5b/5x5 <- inception_5b/5x5_reduce
I0902 19:47:42.182099 54817 net.cpp:433] inception_5b/5x5 -> inception_5b/5x5
I0902 19:47:42.187286 54817 net.cpp:155] Setting up inception_5b/5x5
I0902 19:47:42.187304 54817 net.cpp:163] Top shape: 64 128 7 7 (401408)
I0902 19:47:42.187316 54817 layer_factory.hpp:76] Creating layer inception_5b/relu_5x5
I0902 19:47:42.187327 54817 net.cpp:110] Creating Layer inception_5b/relu_5x5
I0902 19:47:42.187333 54817 net.cpp:477] inception_5b/relu_5x5 <- inception_5b/5x5
I0902 19:47:42.187343 54817 net.cpp:419] inception_5b/relu_5x5 -> inception_5b/5x5 (in-place)
I0902 19:47:42.188571 54817 net.cpp:155] Setting up inception_5b/relu_5x5
I0902 19:47:42.188588 54817 net.cpp:163] Top shape: 64 128 7 7 (401408)
I0902 19:47:42.188596 54817 layer_factory.hpp:76] Creating layer inception_5b/pool
I0902 19:47:42.188603 54817 layer_factory.cpp:60] CUDNN does not support padding or multiple tops. Using Caffe's own pooling layer.
I0902 19:47:42.188627 54817 net.cpp:110] Creating Layer inception_5b/pool
I0902 19:47:42.188634 54817 net.cpp:477] inception_5b/pool <- inception_5a/output_inception_5a/output_0_split_3
I0902 19:47:42.188642 54817 net.cpp:433] inception_5b/pool -> inception_5b/pool
I0902 19:47:42.188654 54817 net.cpp:155] Setting up inception_5b/pool
I0902 19:47:42.188662 54817 net.cpp:163] Top shape: 64 832 7 7 (2609152)
I0902 19:47:42.188666 54817 layer_factory.hpp:76] Creating layer inception_5b/pool_proj
I0902 19:47:42.188678 54817 net.cpp:110] Creating Layer inception_5b/pool_proj
I0902 19:47:42.188683 54817 net.cpp:477] inception_5b/pool_proj <- inception_5b/pool
I0902 19:47:42.188694 54817 net.cpp:433] inception_5b/pool_proj -> inception_5b/pool_proj
I0902 19:47:42.194449 54817 net.cpp:155] Setting up inception_5b/pool_proj
I0902 19:47:42.194468 54817 net.cpp:163] Top shape: 64 128 7 7 (401408)
I0902 19:47:42.194478 54817 layer_factory.hpp:76] Creating layer inception_5b/relu_pool_proj
I0902 19:47:42.194489 54817 net.cpp:110] Creating Layer inception_5b/relu_pool_proj
I0902 19:47:42.194496 54817 net.cpp:477] inception_5b/relu_pool_proj <- inception_5b/pool_proj
I0902 19:47:42.194504 54817 net.cpp:419] inception_5b/relu_pool_proj -> inception_5b/pool_proj (in-place)
I0902 19:47:42.195746 54817 net.cpp:155] Setting up inception_5b/relu_pool_proj
I0902 19:47:42.195762 54817 net.cpp:163] Top shape: 64 128 7 7 (401408)
I0902 19:47:42.195768 54817 layer_factory.hpp:76] Creating layer inception_5b/output
I0902 19:47:42.195783 54817 net.cpp:110] Creating Layer inception_5b/output
I0902 19:47:42.195791 54817 net.cpp:477] inception_5b/output <- inception_5b/1x1
I0902 19:47:42.195797 54817 net.cpp:477] inception_5b/output <- inception_5b/3x3
I0902 19:47:42.195803 54817 net.cpp:477] inception_5b/output <- inception_5b/5x5
I0902 19:47:42.195809 54817 net.cpp:477] inception_5b/output <- inception_5b/pool_proj
I0902 19:47:42.195819 54817 net.cpp:433] inception_5b/output -> inception_5b/output
I0902 19:47:42.195829 54817 net.cpp:155] Setting up inception_5b/output
I0902 19:47:42.195837 54817 net.cpp:163] Top shape: 64 1024 7 7 (3211264)
I0902 19:47:42.195842 54817 layer_factory.hpp:76] Creating layer pool5/7x7_s1
I0902 19:47:42.195849 54817 net.cpp:110] Creating Layer pool5/7x7_s1
I0902 19:47:42.195854 54817 net.cpp:477] pool5/7x7_s1 <- inception_5b/output
I0902 19:47:42.195861 54817 net.cpp:433] pool5/7x7_s1 -> pool5/7x7_s1
I0902 19:47:42.197108 54817 net.cpp:155] Setting up pool5/7x7_s1
I0902 19:47:42.197125 54817 net.cpp:163] Top shape: 64 1024 1 1 (65536)
I0902 19:47:42.197131 54817 layer_factory.hpp:76] Creating layer pool5/drop_7x7_s1
I0902 19:47:42.197144 54817 net.cpp:110] Creating Layer pool5/drop_7x7_s1
I0902 19:47:42.197149 54817 net.cpp:477] pool5/drop_7x7_s1 <- pool5/7x7_s1
I0902 19:47:42.197156 54817 net.cpp:419] pool5/drop_7x7_s1 -> pool5/7x7_s1 (in-place)
I0902 19:47:42.197166 54817 net.cpp:155] Setting up pool5/drop_7x7_s1
I0902 19:47:42.197172 54817 net.cpp:163] Top shape: 64 1024 1 1 (65536)
I0902 19:47:42.197177 54817 layer_factory.hpp:76] Creating layer loss3/classifier_cub
I0902 19:47:42.197187 54817 net.cpp:110] Creating Layer loss3/classifier_cub
I0902 19:47:42.197191 54817 net.cpp:477] loss3/classifier_cub <- pool5/7x7_s1
I0902 19:47:42.197202 54817 net.cpp:433] loss3/classifier_cub -> loss3/classifier
I0902 19:47:42.205687 54817 net.cpp:155] Setting up loss3/classifier_cub
I0902 19:47:42.205703 54817 net.cpp:163] Top shape: 64 200 (12800)
I0902 19:47:42.205713 54817 layer_factory.hpp:76] Creating layer loss3/classifier_loss3/classifier_cub_0_split
I0902 19:47:42.205725 54817 net.cpp:110] Creating Layer loss3/classifier_loss3/classifier_cub_0_split
I0902 19:47:42.205731 54817 net.cpp:477] loss3/classifier_loss3/classifier_cub_0_split <- loss3/classifier
I0902 19:47:42.205739 54817 net.cpp:433] loss3/classifier_loss3/classifier_cub_0_split -> loss3/classifier_loss3/classifier_cub_0_split_0
I0902 19:47:42.205747 54817 net.cpp:433] loss3/classifier_loss3/classifier_cub_0_split -> loss3/classifier_loss3/classifier_cub_0_split_1
I0902 19:47:42.205773 54817 net.cpp:433] loss3/classifier_loss3/classifier_cub_0_split -> loss3/classifier_loss3/classifier_cub_0_split_2
I0902 19:47:42.205783 54817 net.cpp:155] Setting up loss3/classifier_loss3/classifier_cub_0_split
I0902 19:47:42.205790 54817 net.cpp:163] Top shape: 64 200 (12800)
I0902 19:47:42.205796 54817 net.cpp:163] Top shape: 64 200 (12800)
I0902 19:47:42.205801 54817 net.cpp:163] Top shape: 64 200 (12800)
I0902 19:47:42.205813 54817 layer_factory.hpp:76] Creating layer loss3/loss3
I0902 19:47:42.205826 54817 net.cpp:110] Creating Layer loss3/loss3
I0902 19:47:42.205832 54817 net.cpp:477] loss3/loss3 <- loss3/classifier_loss3/classifier_cub_0_split_0
I0902 19:47:42.205838 54817 net.cpp:477] loss3/loss3 <- label_data_1_split_6
I0902 19:47:42.205845 54817 net.cpp:433] loss3/loss3 -> loss3/loss3
…
