…
I0906 00:29:20.095909 84751 net.cpp:339] The NetState phase (0) differed from the phase (1) specified by a rule in layer loss3/top-5
I0906 00:29:20.098130 84751 net.cpp:50] Initializing net from parameters: 
name: "CUBNet"
state {
  phase: TRAIN
}
layer {
  name: "data"
  type: "ImageData"
  top: "data"
  top: "label"
  include {
    phase: TRAIN
  }
  transform_param {
    mirror: true
    crop_size: 224
    mean_value: 104
    mean_value: 117
    mean_value: 123
  }
  image_data_param {
    source: "data/CUB_200_2011/train_files.txt"
    batch_size: 32
    shuffle: true
    new_height: 256
    new_width: 256
  }
}
layer {
  name: "conv1/7x7_s2"
  type: "Convolution"
  bottom: "data"
  top: "conv1/7x7_s2"
  param {
    lr_mult: 1
    decay_mult: 1
  }
  param {
    lr_mult: 2
    decay_mult: 0
  }
  convolution_param {
    num_output: 64
    pad: 3
    kernel_size: 7
    stride: 2
    weight_filler {
      type: "xavier"
      std: 0.1
    }
    bias_filler {
      type: "constant"
      value: 0.2
    }
  }
}
layer {
  name: "conv1/relu_7x7"
  type: "ReLU"
  bottom: "conv1/7x7_s2"
  top: "conv1/7x7_s2"
}
layer {
  name: "pool1/3x3_s2"
  type: "Pooling"
  bottom: "conv1/7x7_s2"
  top: "pool1/3x3_s2"
  pooling_param {
    pool: MAX
    kernel_size: 3
    stride: 2
  }
}
layer {
  name: "pool1/norm1"
  type: "LRN"
  bottom: "pool1/3x3_s2"
  top: "pool1/norm1"
  lrn_param {
    local_size: 5
    alpha: 0.0001
    beta: 0.75
  }
}
layer {
  name: "conv2/3x3_reduce"
  type: "Convolution"
  bottom: "pool1/norm1"
  top: "conv2/3x3_reduce"
  param {
    lr_mult: 1
    decay_mult: 1
  }
  param {
    lr_mult: 2
    decay_mult: 0
  }
  convolution_param {
    num_output: 64
    kernel_size: 1
    weight_filler {
      type: "xavier"
      std: 0.1
    }
    bias_filler {
      type: "constant"
      value: 0.2
    }
  }
}
layer {
  name: "conv2/relu_3x3_reduce"
  type: "ReLU"
  bottom: "conv2/3x3_reduce"
  top: "conv2/3x3_reduce"
}
layer {
  name: "conv2/3x3"
  type: "Convolution"
  bottom: "conv2/3x3_reduce"
  top: "conv2/3x3"
  param {
    lr_mult: 1
    decay_mult: 1
  }
  param {
    lr_mult: 2
    decay_mult: 0
  }
  convolution_param {
    num_output: 192
    pad: 1
    kernel_size: 3
    weight_filler {
      type: "xavier"
      std: 0.03
    }
    bias_filler {
      type: "constant"
      value: 0.2
    }
  }
}
layer {
  name: "conv2/relu_3x3"
  type: "ReLU"
  bottom: "conv2/3x3"
  top: "conv2/3x3"
}
layer {
  name: "conv2/norm2"
  type: "LRN"
  bottom: "conv2/3x3"
  top: "conv2/norm2"
  lrn_param {
    local_size: 5
    alpha: 0.0001
    beta: 0.75
  }
}
layer {
  name: "pool2/3x3_s2"
  type: "Pooling"
  bottom: "conv2/norm2"
  top: "pool2/3x3_s2"
  pooling_param {
    pool: MAX
    kernel_size: 3
    stride: 2
  }
}
layer {
  name: "inception_3a/1x1"
  type: "Convolution"
  bottom: "pool2/3x3_s2"
  top: "inception_3a/1x1"
  param {
    lr_mult: 1
    decay_mult: 1
  }
  param {
    lr_mult: 2
    decay_mult: 0
  }
  convolution_param {
    num_output: 64
    kernel_size: 1
    weight_filler {
      type: "xavier"
      std: 0.03
    }
    bias_filler {
      type: "constant"
      value: 0.2
    }
  }
}
layer {
  name: "inception_3a/relu_1x1"
  type: "ReLU"
  bottom: "inception_3a/1x1"
  top: "inception_3a/1x1"
}
layer {
  name: "inception_3a/3x3_reduce"
  type: "Convolution"
  bottom: "pool2/3x3_s2"
  top: "inception_3a/3x3_reduce"
  param {
    lr_mult: 1
    decay_mult: 1
  }
  param {
    lr_mult: 2
    decay_mult: 0
  }
  convolution_param {
    num_output: 96
    kernel_size: 1
    weight_filler {
      type: "xavier"
      std: 0.09
    }
    bias_filler {
      type: "constant"
      value: 0.2
    }
  }
}
layer {
  name: "inception_3a/relu_3x3_reduce"
  type: "ReLU"
  bottom: "inception_3a/3x3_reduce"
  top: "inception_3a/3x3_reduce"
}
layer {
  name: "inception_3a/3x3"
  type: "Convolution"
  bottom: "inception_3a/3x3_reduce"
  top: "inception_3a/3x3"
  param {
    lr_mult: 1
    decay_mult: 1
  }
  param {
    lr_mult: 2
    decay_mult: 0
  }
  convolution_param {
    num_output: 128
    pad: 1
    kernel_size: 3
    weight_filler {
      type: "xavier"
      std: 0.03
    }
    bias_filler {
      type: "constant"
      value: 0.2
    }
  }
}
layer {
  name: "inception_3a/relu_3x3"
  type: "ReLU"
  bottom: "inception_3a/3x3"
  top: "inception_3a/3x3"
}
layer {
  name: "inception_3a/5x5_reduce"
  type: "Convolution"
  bottom: "pool2/3x3_s2"
  top: "inception_3a/5x5_reduce"
  param {
    lr_mult: 1
    decay_mult: 1
  }
  param {
    lr_mult: 2
    decay_mult: 0
  }
  convolution_param {
    num_output: 16
    kernel_size: 1
    weight_filler {
      type: "xavier"
      std: 0.2
    }
    bias_filler {
      type: "constant"
      value: 0.2
    }
  }
}
layer {
  name: "inception_3a/relu_5x5_reduce"
  type: "ReLU"
  bottom: "inception_3a/5x5_reduce"
  top: "inception_3a/5x5_reduce"
}
layer {
  name: "inception_3a/5x5"
  type: "Convolution"
  bottom: "inception_3a/5x5_reduce"
  top: "inception_3a/5x5"
  param {
    lr_mult: 1
    decay_mult: 1
  }
  param {
    lr_mult: 2
    decay_mult: 0
  }
  convolution_param {
    num_output: 32
    pad: 2
    kernel_size: 5
    weight_filler {
      type: "xavier"
      std: 0.03
    }
    bias_filler {
      type: "constant"
      value: 0.2
    }
  }
}
layer {
  name: "inception_3a/relu_5x5"
  type: "ReLU"
  bottom: "inception_3a/5x5"
  top: "inception_3a/5x5"
}
layer {
  name: "inception_3a/pool"
  type: "Pooling"
  bottom: "pool2/3x3_s2"
  top: "inception_3a/pool"
  pooling_param {
    pool: MAX
    kernel_size: 3
    stride: 1
    pad: 1
  }
}
layer {
  name: "inception_3a/pool_proj"
  type: "Convolution"
  bottom: "inception_3a/pool"
  top: "inception_3a/pool_proj"
  param {
    lr_mult: 1
    decay_mult: 1
  }
  param {
    lr_mult: 2
    decay_mult: 0
  }
  convolution_param {
    num_output: 32
    kernel_size: 1
    weight_filler {
      type: "xavier"
      std: 0.1
    }
    bias_filler {
      type: "constant"
      value: 0.2
    }
  }
}
layer {
  name: "inception_3a/relu_pool_proj"
  type: "ReLU"
  bottom: "inception_3a/pool_proj"
  top: "inception_3a/pool_proj"
}
layer {
  name: "inception_3a/output"
  type: "Concat"
  bottom: "inception_3a/1x1"
  bottom: "inception_3a/3x3"
  bottom: "inception_3a/5x5"
  bottom: "inception_3a/pool_proj"
  top: "inception_3a/output"
}
layer {
  name: "inception_3b/1x1"
  type: "Convolution"
  bottom: "inception_3a/output"
  top: "inception_3b/1x1"
  param {
    lr_mult: 1
    decay_mult: 1
  }
  param {
    lr_mult: 2
    decay_mult: 0
  }
  convolution_param {
    num_output: 128
    kernel_size: 1
    weight_filler {
      type: "xavier"
      std: 0.03
    }
    bias_filler {
      type: "constant"
      value: 0.2
    }
  }
}
layer {
  name: "inception_3b/relu_1x1"
  type: "ReLU"
  bottom: "inception_3b/1x1"
  top: "inception_3b/1x1"
}
layer {
  name: "inception_3b/3x3_reduce"
  type: "Convolution"
  bottom: "inception_3a/output"
  top: "inception_3b/3x3_reduce"
  param {
    lr_mult: 1
    decay_mult: 1
  }
  param {
    lr_mult: 2
    decay_mult: 0
  }
  convolution_param {
    num_output: 128
    kernel_size: 1
    weight_filler {
      type: "xavier"
      std: 0.09
    }
    bias_filler {
      type: "constant"
      value: 0.2
    }
  }
}
layer {
  name: "inception_3b/relu_3x3_reduce"
  type: "ReLU"
  bottom: "inception_3b/3x3_reduce"
  top: "inception_3b/3x3_reduce"
}
layer {
  name: "inception_3b/3x3"
  type: "Convolution"
  bottom: "inception_3b/3x3_reduce"
  top: "inception_3b/3x3"
  param {
    lr_mult: 1
    decay_mult: 1
  }
  param {
    lr_mult: 2
    decay_mult: 0
  }
  convolution_param {
    num_output: 192
    pad: 1
    kernel_size: 3
    weight_filler {
      type: "xavier"
      std: 0.03
    }
    bias_filler {
      type: "constant"
      value: 0.2
    }
  }
}
layer {
  name: "inception_3b/relu_3x3"
  type: "ReLU"
  bottom: "inception_3b/3x3"
  top: "inception_3b/3x3"
}
layer {
  name: "inception_3b/5x5_reduce"
  type: "Convolution"
  bottom: "inception_3a/output"
  top: "inception_3b/5x5_reduce"
  param {
    lr_mult: 1
    decay_mult: 1
  }
  param {
    lr_mult: 2
    decay_mult: 0
  }
  convolution_param {
    num_output: 32
    kernel_size: 1
    weight_filler {
      type: "xavier"
      std: 0.2
    }
    bias_filler {
      type: "constant"
      value: 0.2
    }
  }
}
layer {
  name: "inception_3b/relu_5x5_reduce"
  type: "ReLU"
  bottom: "inception_3b/5x5_reduce"
  top: "inception_3b/5x5_reduce"
}
layer {
  name: "inception_3b/5x5"
  type: "Convolution"
  bottom: "inception_3b/5x5_reduce"
  top: "inception_3b/5x5"
  param {
    lr_mult: 1
    decay_mult: 1
  }
  param {
    lr_mult: 2
    decay_mult: 0
  }
  convolution_param {
    num_output: 96
    pad: 2
    kernel_size: 5
    weight_filler {
      type: "xavier"
      std: 0.03
    }
    bias_filler {
      type: "constant"
      value: 0.2
    }
  }
}
layer {
  name: "inception_3b/relu_5x5"
  type: "ReLU"
  bottom: "inception_3b/5x5"
  top: "inception_3b/5x5"
}
layer {
  name: "inception_3b/pool"
  type: "Pooling"
  bottom: "inception_3a/output"
  top: "inception_3b/pool"
  pooling_param {
    pool: MAX
    kernel_size: 3
    stride: 1
    pad: 1
  }
}
layer {
  name: "inception_3b/pool_proj"
  type: "Convolution"
  bottom: "inception_3b/pool"
  top: "inception_3b/pool_proj"
  param {
    lr_mult: 1
    decay_mult: 1
  }
  param {
    lr_mult: 2
    decay_mult: 0
  }
  convolution_param {
    num_output: 64
    kernel_size: 1
    weight_filler {
      type: "xavier"
      std: 0.1
    }
    bias_filler {
      type: "constant"
      value: 0.2
    }
  }
}
layer {
  name: "inception_3b/relu_pool_proj"
  type: "ReLU"
  bottom: "inception_3b/pool_proj"
  top: "inception_3b/pool_proj"
}
layer {
  name: "inception_3b/output"
  type: "Concat"
  bottom: "inception_3b/1x1"
  bottom: "inception_3b/3x3"
  bottom: "inception_3b/5x5"
  bottom: "inception_3b/pool_proj"
  top: "inception_3b/output"
}
layer {
  name: "pool3/3x3_s2"
  type: "Pooling"
  bottom: "inception_3b/output"
  top: "pool3/3x3_s2"
  pooling_param {
    pool: MAX
    kernel_size: 3
    stride: 2
  }
}
layer {
  name: "inception_4a/1x1"
  type: "Convolution"
  bottom: "pool3/3x3_s2"
  top: "inception_4a/1x1"
  param {
    lr_mult: 1
    decay_mult: 1
  }
  param {
    lr_mult: 2
    decay_mult: 0
  }
  convolution_param {
    num_output: 192
    kernel_size: 1
    weight_filler {
      type: "xavier"
      std: 0.03
    }
    bias_filler {
      type: "constant"
      value: 0.2
    }
  }
}
layer {
  name: "inception_4a/relu_1x1"
  type: "ReLU"
  bottom: "inception_4a/1x1"
  top: "inception_4a/1x1"
}
layer {
  name: "inception_4a/3x3_reduce"
  type: "Convolution"
  bottom: "pool3/3x3_s2"
  top: "inception_4a/3x3_reduce"
  param {
    lr_mult: 1
    decay_mult: 1
  }
  param {
    lr_mult: 2
    decay_mult: 0
  }
  convolution_param {
    num_output: 96
    kernel_size: 1
    weight_filler {
      type: "xavier"
      std: 0.09
    }
    bias_filler {
      type: "constant"
      value: 0.2
    }
  }
}
layer {
  name: "inception_4a/relu_3x3_reduce"
  type: "ReLU"
  bottom: "inception_4a/3x3_reduce"
  top: "inception_4a/3x3_reduce"
}
layer {
  name: "inception_4a/3x3"
  type: "Convolution"
  bottom: "inception_4a/3x3_reduce"
  top: "inception_4a/3x3"
  param {
    lr_mult: 1
    decay_mult: 1
  }
  param {
    lr_mult: 2
    decay_mult: 0
  }
  convolution_param {
    num_output: 208
    pad: 1
    kernel_size: 3
    weight_filler {
      type: "xavier"
      std: 0.03
    }
    bias_filler {
      type: "constant"
      value: 0.2
    }
  }
}
layer {
  name: "inception_4a/relu_3x3"
  type: "ReLU"
  bottom: "inception_4a/3x3"
  top: "inception_4a/3x3"
}
layer {
  name: "inception_4a/5x5_reduce"
  type: "Convolution"
  bottom: "pool3/3x3_s2"
  top: "inception_4a/5x5_reduce"
  param {
    lr_mult: 1
    decay_mult: 1
  }
  param {
    lr_mult: 2
    decay_mult: 0
  }
  convolution_param {
    num_output: 16
    kernel_size: 1
    weight_filler {
      type: "xavier"
      std: 0.2
    }
    bias_filler {
      type: "constant"
      value: 0.2
    }
  }
}
layer {
  name: "inception_4a/relu_5x5_reduce"
  type: "ReLU"
  bottom: "inception_4a/5x5_reduce"
  top: "inception_4a/5x5_reduce"
}
layer {
  name: "inception_4a/5x5"
  type: "Convolution"
  bottom: "inception_4a/5x5_reduce"
  top: "inception_4a/5x5"
  param {
    lr_mult: 1
    decay_mult: 1
  }
  param {
    lr_mult: 2
    decay_mult: 0
  }
  convolution_param {
    num_output: 48
    pad: 2
    kernel_size: 5
    weight_filler {
      type: "xavier"
      std: 0.03
    }
    bias_filler {
      type: "constant"
      value: 0.2
    }
  }
}
layer {
  name: "inception_4a/relu_5x5"
  type: "ReLU"
  bottom: "inception_4a/5x5"
  top: "inception_4a/5x5"
}
layer {
  name: "inception_4a/pool"
  type: "Pooling"
  bottom: "pool3/3x3_s2"
  top: "inception_4a/pool"
  pooling_param {
    pool: MAX
    kernel_size: 3
    stride: 1
    pad: 1
  }
}
layer {
  name: "inception_4a/pool_proj"
  type: "Convolution"
  bottom: "inception_4a/pool"
  top: "inception_4a/pool_proj"
  param {
    lr_mult: 1
    decay_mult: 1
  }
  param {
    lr_mult: 2
    decay_mult: 0
  }
  convolution_param {
    num_output: 64
    kernel_size: 1
    weight_filler {
      type: "xavier"
      std: 0.1
    }
    bias_filler {
      type: "constant"
      value: 0.2
    }
  }
}
layer {
  name: "inception_4a/relu_pool_proj"
  type: "ReLU"
  bottom: "inception_4a/pool_proj"
  top: "inception_4a/pool_proj"
}
layer {
  name: "inception_4a/output"
  type: "Concat"
  bottom: "inception_4a/1x1"
  bottom: "inception_4a/3x3"
  bottom: "inception_4a/5x5"
  bottom: "inception_4a/pool_proj"
  top: "inception_4a/output"
}
layer {
  name: "loss1/ave_pool"
  type: "Pooling"
  bottom: "inception_4a/output"
  top: "loss1/ave_pool"
  pooling_param {
    pool: AVE
    kernel_size: 5
    stride: 3
  }
}
layer {
  name: "loss1/conv"
  type: "Convolution"
  bottom: "loss1/ave_pool"
  top: "loss1/conv"
  param {
    lr_mult: 1
    decay_mult: 1
  }
  param {
    lr_mult: 2
    decay_mult: 0
  }
  convolution_param {
    num_output: 128
    kernel_size: 1
    weight_filler {
      type: "xavier"
      std: 0.08
    }
    bias_filler {
      type: "constant"
      value: 0.2
    }
  }
}
layer {
  name: "loss1/relu_conv"
  type: "ReLU"
  bottom: "loss1/conv"
  top: "loss1/conv"
}
layer {
  name: "loss1/fc"
  type: "InnerProduct"
  bottom: "loss1/conv"
  top: "loss1/fc"
  param {
    lr_mult: 1
    decay_mult: 1
  }
  param {
    lr_mult: 2
    decay_mult: 0
  }
  inner_product_param {
    num_output: 1024
    weight_filler {
      type: "xavier"
      std: 0.02
    }
    bias_filler {
      type: "constant"
      value: 0.2
    }
  }
}
layer {
  name: "loss1/relu_fc"
  type: "ReLU"
  bottom: "loss1/fc"
  top: "loss1/fc"
}
layer {
  name: "loss1/drop_fc"
  type: "Dropout"
  bottom: "loss1/fc"
  top: "loss1/fc"
  dropout_param {
    dropout_ratio: 0.7
  }
}
layer {
  name: "loss1/classifier_cub"
  type: "InnerProduct"
  bottom: "loss1/fc"
  top: "loss1/classifier"
  param {
    lr_mult: 1
    decay_mult: 1
  }
  param {
    lr_mult: 2
    decay_mult: 0
  }
  inner_product_param {
    num_output: 200
    weight_filler {
      type: "gaussian"
      std: 1e-05
    }
    bias_filler {
      type: "constant"
      value: 0
    }
  }
}
layer {
  name: "loss1/loss"
  type: "SoftmaxWithLoss"
  bottom: "loss1/classifier"
  bottom: "label"
  top: "loss1/loss1"
  loss_weight: 0.3
}
layer {
  name: "inception_4b/1x1"
  type: "Convolution"
  bottom: "inception_4a/output"
  top: "inception_4b/1x1"
  param {
    lr_mult: 1
    decay_mult: 1
  }
  param {
    lr_mult: 2
    decay_mult: 0
  }
  convolution_param {
    num_output: 160
    kernel_size: 1
    weight_filler {
      type: "xavier"
      std: 0.03
    }
    bias_filler {
      type: "constant"
      value: 0.2
    }
  }
}
layer {
  name: "inception_4b/relu_1x1"
  type: "ReLU"
  bottom: "inception_4b/1x1"
  top: "inception_4b/1x1"
}
layer {
  name: "inception_4b/3x3_reduce"
  type: "Convolution"
  bottom: "inception_4a/output"
  top: "inception_4b/3x3_reduce"
  param {
    lr_mult: 1
    decay_mult: 1
  }
  param {
    lr_mult: 2
    decay_mult: 0
  }
  convolution_param {
    num_output: 112
    kernel_size: 1
    weight_filler {
      type: "xavier"
      std: 0.09
    }
    bias_filler {
      type: "constant"
      value: 0.2
    }
  }
}
layer {
  name: "inception_4b/relu_3x3_reduce"
  type: "ReLU"
  bottom: "inception_4b/3x3_reduce"
  top: "inception_4b/3x3_reduce"
}
layer {
  name: "inception_4b/3x3"
  type: "Convolution"
  bottom: "inception_4b/3x3_reduce"
  top: "inception_4b/3x3"
  param {
    lr_mult: 1
    decay_mult: 1
  }
  param {
    lr_mult: 2
    decay_mult: 0
  }
  convolution_param {
    num_output: 224
    pad: 1
    kernel_size: 3
    weight_filler {
      type: "xavier"
      std: 0.03
    }
    bias_filler {
      type: "constant"
      value: 0.2
    }
  }
}
layer {
  name: "inception_4b/relu_3x3"
  type: "ReLU"
  bottom: "inception_4b/3x3"
  top: "inception_4b/3x3"
}
layer {
  name: "inception_4b/5x5_reduce"
  type: "Convolution"
  bottom: "inception_4a/output"
  top: "inception_4b/5x5_reduce"
  param {
    lr_mult: 1
    decay_mult: 1
  }
  param {
    lr_mult: 2
    decay_mult: 0
  }
  convolution_param {
    num_output: 24
    kernel_size: 1
    weight_filler {
      type: "xavier"
      std: 0.2
    }
    bias_filler {
      type: "constant"
      value: 0.2
    }
  }
}
layer {
  name: "inception_4b/relu_5x5_reduce"
  type: "ReLU"
  bottom: "inception_4b/5x5_reduce"
  top: "inception_4b/5x5_reduce"
}
layer {
  name: "inception_4b/5x5"
  type: "Convolution"
  bottom: "inception_4b/5x5_reduce"
  top: "inception_4b/5x5"
  param {
    lr_mult: 1
    decay_mult: 1
  }
  param {
    lr_mult: 2
    decay_mult: 0
  }
  convolution_param {
    num_output: 64
    pad: 2
    kernel_size: 5
    weight_filler {
      type: "xavier"
      std: 0.03
    }
    bias_filler {
      type: "constant"
      value: 0.2
    }
  }
}
layer {
  name: "inception_4b/relu_5x5"
  type: "ReLU"
  bottom: "inception_4b/5x5"
  top: "inception_4b/5x5"
}
layer {
  name: "inception_4b/pool"
  type: "Pooling"
  bottom: "inception_4a/output"
  top: "inception_4b/pool"
  pooling_param {
    pool: MAX
    kernel_size: 3
    stride: 1
    pad: 1
  }
}
layer {
  name: "inception_4b/pool_proj"
  type: "Convolution"
  bottom: "inception_4b/pool"
  top: "inception_4b/pool_proj"
  param {
    lr_mult: 1
    decay_mult: 1
  }
  param {
    lr_mult: 2
    decay_mult: 0
  }
  convolution_param {
    num_output: 64
    kernel_size: 1
    weight_filler {
      type: "xavier"
      std: 0.1
    }
    bias_filler {
      type: "constant"
      value: 0.2
    }
  }
}
layer {
  name: "inception_4b/relu_pool_proj"
  type: "ReLU"
  bottom: "inception_4b/pool_proj"
  top: "inception_4b/pool_proj"
}
layer {
  name: "inception_4b/output"
  type: "Concat"
  bottom: "inception_4b/1x1"
  bottom: "inception_4b/3x3"
  bottom: "inception_4b/5x5"
  bottom: "inception_4b/pool_proj"
  top: "inception_4b/output"
}
layer {
  name: "inception_4c/1x1"
  type: "Convolution"
  bottom: "inception_4b/output"
  top: "inception_4c/1x1"
  param {
    lr_mult: 1
    decay_mult: 1
  }
  param {
    lr_mult: 2
    decay_mult: 0
  }
  convolution_param {
    num_output: 128
    kernel_size: 1
    weight_filler {
      type: "xavier"
      std: 0.03
    }
    bias_filler {
      type: "constant"
      value: 0.2
    }
  }
}
layer {
  name: "inception_4c/relu_1x1"
  type: "ReLU"
  bottom: "inception_4c/1x1"
  top: "inception_4c/1x1"
}
layer {
  name: "inception_4c/3x3_reduce"
  type: "Convolution"
  bottom: "inception_4b/output"
  top: "inception_4c/3x3_reduce"
  param {
    lr_mult: 1
    decay_mult: 1
  }
  param {
    lr_mult: 2
    decay_mult: 0
  }
  convolution_param {
    num_output: 128
    kernel_size: 1
    weight_filler {
      type: "xavier"
      std: 0.09
    }
    bias_filler {
      type: "constant"
      value: 0.2
    }
  }
}
layer {
  name: "inception_4c/relu_3x3_reduce"
  type: "ReLU"
  bottom: "inception_4c/3x3_reduce"
  top: "inception_4c/3x3_reduce"
}
layer {
  name: "inception_4c/3x3"
  type: "Convolution"
  bottom: "inception_4c/3x3_reduce"
  top: "inception_4c/3x3"
  param {
    lr_mult: 1
    decay_mult: 1
  }
  param {
    lr_mult: 2
    decay_mult: 0
  }
  convolution_param {
    num_output: 256
    pad: 1
    kernel_size: 3
    weight_filler {
      type: "xavier"
      std: 0.03
    }
    bias_filler {
      type: "constant"
      value: 0.2
    }
  }
}
layer {
  name: "inception_4c/relu_3x3"
  type: "ReLU"
  bottom: "inception_4c/3x3"
  top: "inception_4c/3x3"
}
layer {
  name: "inception_4c/5x5_reduce"
  type: "Convolution"
  bottom: "inception_4b/output"
  top: "inception_4c/5x5_reduce"
  param {
    lr_mult: 1
    decay_mult: 1
  }
  param {
    lr_mult: 2
    decay_mult: 0
  }
  convolution_param {
    num_output: 24
    kernel_size: 1
    weight_filler {
      type: "xavier"
      std: 0.2
    }
    bias_filler {
      type: "constant"
      value: 0.2
    }
  }
}
layer {
  name: "inception_4c/relu_5x5_reduce"
  type: "ReLU"
  bottom: "inception_4c/5x5_reduce"
  top: "inception_4c/5x5_reduce"
}
layer {
  name: "inception_4c/5x5"
  type: "Convolution"
  bottom: "inception_4c/5x5_reduce"
  top: "inception_4c/5x5"
  param {
    lr_mult: 1
    decay_mult: 1
  }
  param {
    lr_mult: 2
    decay_mult: 0
  }
  convolution_param {
    num_output: 64
    pad: 2
    kernel_size: 5
    weight_filler {
      type: "xavier"
      std: 0.03
    }
    bias_filler {
      type: "constant"
      value: 0.2
    }
  }
}
layer {
  name: "inception_4c/relu_5x5"
  type: "ReLU"
  bottom: "inception_4c/5x5"
  top: "inception_4c/5x5"
}
layer {
  name: "inception_4c/pool"
  type: "Pooling"
  bottom: "inception_4b/output"
  top: "inception_4c/pool"
  pooling_param {
    pool: MAX
    kernel_size: 3
    stride: 1
    pad: 1
  }
}
layer {
  name: "inception_4c/pool_proj"
  type: "Convolution"
  bottom: "inception_4c/pool"
  top: "inception_4c/pool_proj"
  param {
    lr_mult: 1
    decay_mult: 1
  }
  param {
    lr_mult: 2
    decay_mult: 0
  }
  convolution_param {
    num_output: 64
    kernel_size: 1
    weight_filler {
      type: "xavier"
      std: 0.1
    }
    bias_filler {
      type: "constant"
      value: 0.2
    }
  }
}
layer {
  name: "inception_4c/relu_pool_proj"
  type: "ReLU"
  bottom: "inception_4c/pool_proj"
  top: "inception_4c/pool_proj"
}
layer {
  name: "inception_4c/output"
  type: "Concat"
  bottom: "inception_4c/1x1"
  bottom: "inception_4c/3x3"
  bottom: "inception_4c/5x5"
  bottom: "inception_4c/pool_proj"
  top: "inception_4c/output"
}
layer {
  name: "inception_4d/1x1"
  type: "Convolution"
  bottom: "inception_4c/output"
  top: "inception_4d/1x1"
  param {
    lr_mult: 1
    decay_mult: 1
  }
  param {
    lr_mult: 2
    decay_mult: 0
  }
  convolution_param {
    num_output: 112
    kernel_size: 1
    weight_filler {
      type: "xavier"
      std: 0.03
    }
    bias_filler {
      type: "constant"
      value: 0.2
    }
  }
}
layer {
  name: "inception_4d/relu_1x1"
  type: "ReLU"
  bottom: "inception_4d/1x1"
  top: "inception_4d/1x1"
}
layer {
  name: "inception_4d/3x3_reduce"
  type: "Convolution"
  bottom: "inception_4c/output"
  top: "inception_4d/3x3_reduce"
  param {
    lr_mult: 1
    decay_mult: 1
  }
  param {
    lr_mult: 2
    decay_mult: 0
  }
  convolution_param {
    num_output: 144
    kernel_size: 1
    weight_filler {
      type: "xavier"
      std: 0.09
    }
    bias_filler {
      type: "constant"
      value: 0.2
    }
  }
}
layer {
  name: "inception_4d/relu_3x3_reduce"
  type: "ReLU"
  bottom: "inception_4d/3x3_reduce"
  top: "inception_4d/3x3_reduce"
}
layer {
  name: "inception_4d/3x3"
  type: "Convolution"
  bottom: "inception_4d/3x3_reduce"
  top: "inception_4d/3x3"
  param {
    lr_mult: 1
    decay_mult: 1
  }
  param {
    lr_mult: 2
    decay_mult: 0
  }
  convolution_param {
    num_output: 288
    pad: 1
    kernel_size: 3
    weight_filler {
      type: "xavier"
      std: 0.03
    }
    bias_filler {
      type: "constant"
      value: 0.2
    }
  }
}
layer {
  name: "inception_4d/relu_3x3"
  type: "ReLU"
  bottom: "inception_4d/3x3"
  top: "inception_4d/3x3"
}
layer {
  name: "inception_4d/5x5_reduce"
  type: "Convolution"
  bottom: "inception_4c/output"
  top: "inception_4d/5x5_reduce"
  param {
    lr_mult: 1
    decay_mult: 1
  }
  param {
    lr_mult: 2
    decay_mult: 0
  }
  convolution_param {
    num_output: 32
    kernel_size: 1
    weight_filler {
      type: "xavier"
      std: 0.2
    }
    bias_filler {
      type: "constant"
      value: 0.2
    }
  }
}
layer {
  name: "inception_4d/relu_5x5_reduce"
  type: "ReLU"
  bottom: "inception_4d/5x5_reduce"
  top: "inception_4d/5x5_reduce"
}
layer {
  name: "inception_4d/5x5"
  type: "Convolution"
  bottom: "inception_4d/5x5_reduce"
  top: "inception_4d/5x5"
  param {
    lr_mult: 1
    decay_mult: 1
  }
  param {
    lr_mult: 2
    decay_mult: 0
  }
  convolution_param {
    num_output: 64
    pad: 2
    kernel_size: 5
    weight_filler {
      type: "xavier"
      std: 0.03
    }
    bias_filler {
      type: "constant"
      value: 0.2
    }
  }
}
layer {
  name: "inception_4d/relu_5x5"
  type: "ReLU"
  bottom: "inception_4d/5x5"
  top: "inception_4d/5x5"
}
layer {
  name: "inception_4d/pool"
  type: "Pooling"
  bottom: "inception_4c/output"
  top: "inception_4d/pool"
  pooling_param {
    pool: MAX
    kernel_size: 3
    stride: 1
    pad: 1
  }
}
layer {
  name: "inception_4d/pool_proj"
  type: "Convolution"
  bottom: "inception_4d/pool"
  top: "inception_4d/pool_proj"
  param {
    lr_mult: 1
    decay_mult: 1
  }
  param {
    lr_mult: 2
    decay_mult: 0
  }
  convolution_param {
    num_output: 64
    kernel_size: 1
    weight_filler {
      type: "xavier"
      std: 0.1
    }
    bias_filler {
      type: "constant"
      value: 0.2
    }
  }
}
layer {
  name: "inception_4d/relu_pool_proj"
  type: "ReLU"
  bottom: "inception_4d/pool_proj"
  top: "inception_4d/pool_proj"
}
layer {
  name: "inception_4d/output"
  type: "Concat"
  bottom: "inception_4d/1x1"
  bottom: "inception_4d/3x3"
  bottom: "inception_4d/5x5"
  bottom: "inception_4d/pool_proj"
  top: "inception_4d/output"
}
layer {
  name: "loss2/ave_pool"
  type: "Pooling"
  bottom: "inception_4d/output"
  top: "loss2/ave_pool"
  pooling_param {
    pool: AVE
    kernel_size: 5
    stride: 3
  }
}
layer {
  name: "loss2/conv"
  type: "Convolution"
  bottom: "loss2/ave_pool"
  top: "loss2/conv"
  param {
    lr_mult: 1
    decay_mult: 1
  }
  param {
    lr_mult: 2
    decay_mult: 0
  }
  convolution_param {
    num_output: 128
    kernel_size: 1
    weight_filler {
      type: "xavier"
      std: 0.08
    }
    bias_filler {
      type: "constant"
      value: 0.2
    }
  }
}
layer {
  name: "loss2/relu_conv"
  type: "ReLU"
  bottom: "loss2/conv"
  top: "loss2/conv"
}
layer {
  name: "loss2/fc"
  type: "InnerProduct"
  bottom: "loss2/conv"
  top: "loss2/fc"
  param {
    lr_mult: 1
    decay_mult: 1
  }
  param {
    lr_mult: 2
    decay_mult: 0
  }
  inner_product_param {
    num_output: 1024
    weight_filler {
      type: "xavier"
      std: 0.02
    }
    bias_filler {
      type: "constant"
      value: 0.2
    }
  }
}
layer {
  name: "loss2/relu_fc"
  type: "ReLU"
  bottom: "loss2/fc"
  top: "loss2/fc"
}
layer {
  name: "loss2/drop_fc"
  type: "Dropout"
  bottom: "loss2/fc"
  top: "loss2/fc"
  dropout_param {
    dropout_ratio: 0.7
  }
}
layer {
  name: "loss2/classifier_cub"
  type: "InnerProduct"
  bottom: "loss2/fc"
  top: "loss2/classifier"
  param {
    lr_mult: 1
    decay_mult: 1
  }
  param {
    lr_mult: 2
    decay_mult: 0
  }
  inner_product_param {
    num_output: 200
    weight_filler {
      type: "gaussian"
      std: 1e-05
    }
    bias_filler {
      type: "constant"
      value: 0
    }
  }
}
layer {
  name: "loss2/loss"
  type: "SoftmaxWithLoss"
  bottom: "loss2/classifier"
  bottom: "label"
  top: "loss2/loss1"
  loss_weight: 0.3
}
layer {
  name: "inception_4e/1x1"
  type: "Convolution"
  bottom: "inception_4d/output"
  top: "inception_4e/1x1"
  param {
    lr_mult: 1
    decay_mult: 1
  }
  param {
    lr_mult: 2
    decay_mult: 0
  }
  convolution_param {
    num_output: 256
    kernel_size: 1
    weight_filler {
      type: "xavier"
      std: 0.03
    }
    bias_filler {
      type: "constant"
      value: 0.2
    }
  }
}
layer {
  name: "inception_4e/relu_1x1"
  type: "ReLU"
  bottom: "inception_4e/1x1"
  top: "inception_4e/1x1"
}
layer {
  name: "inception_4e/3x3_reduce"
  type: "Convolution"
  bottom: "inception_4d/output"
  top: "inception_4e/3x3_reduce"
  param {
    lr_mult: 1
    decay_mult: 1
  }
  param {
    lr_mult: 2
    decay_mult: 0
  }
  convolution_param {
    num_output: 160
    kernel_size: 1
    weight_filler {
      type: "xavier"
      std: 0.09
    }
    bias_filler {
      type: "constant"
      value: 0.2
    }
  }
}
layer {
  name: "inception_4e/relu_3x3_reduce"
  type: "ReLU"
  bottom: "inception_4e/3x3_reduce"
  top: "inception_4e/3x3_reduce"
}
layer {
  name: "inception_4e/3x3"
  type: "Convolution"
  bottom: "inception_4e/3x3_reduce"
  top: "inception_4e/3x3"
  param {
    lr_mult: 1
    decay_mult: 1
  }
  param {
    lr_mult: 2
    decay_mult: 0
  }
  convolution_param {
    num_output: 320
    pad: 1
    kernel_size: 3
    weight_filler {
      type: "xavier"
      std: 0.03
    }
    bias_filler {
      type: "constant"
      value: 0.2
    }
  }
}
layer {
  name: "inception_4e/relu_3x3"
  type: "ReLU"
  bottom: "inception_4e/3x3"
  top: "inception_4e/3x3"
}
layer {
  name: "inception_4e/5x5_reduce"
  type: "Convolution"
  bottom: "inception_4d/output"
  top: "inception_4e/5x5_reduce"
  param {
    lr_mult: 1
    decay_mult: 1
  }
  param {
    lr_mult: 2
    decay_mult: 0
  }
  convolution_param {
    num_output: 32
    kernel_size: 1
    weight_filler {
      type: "xavier"
      std: 0.2
    }
    bias_filler {
      type: "constant"
      value: 0.2
    }
  }
}
l
I0906 00:29:20.099805 84751 layer_factory.hpp:76] Creating layer data
I0906 00:29:20.099884 84751 net.cpp:110] Creating Layer data
I0906 00:29:20.099900 84751 net.cpp:433] data -> data
I0906 00:29:20.099936 84751 net.cpp:433] data -> label
I0906 00:29:20.100774 84751 image_data_layer.cpp:36] Opening file data/CUB_200_2011/train_files.txt
I0906 00:29:20.107489 84751 image_data_layer.cpp:46] Shuffling data
I0906 00:29:20.108408 84751 image_data_layer.cpp:51] A total of 5994 images.
I0906 00:29:20.123471 84751 image_data_layer.cpp:78] output data size: 32,3,224,224
I0906 00:29:20.189256 84751 net.cpp:155] Setting up data
I0906 00:29:20.189327 84751 net.cpp:163] Top shape: 32 3 224 224 (4816896)
I0906 00:29:20.189340 84751 net.cpp:163] Top shape: 32 (32)
I0906 00:29:20.189357 84751 layer_factory.hpp:76] Creating layer label_data_1_split
I0906 00:29:20.189380 84751 net.cpp:110] Creating Layer label_data_1_split
I0906 00:29:20.189390 84751 net.cpp:477] label_data_1_split <- label
I0906 00:29:20.189412 84751 net.cpp:433] label_data_1_split -> label_data_1_split_0
I0906 00:29:20.189465 84751 net.cpp:433] label_data_1_split -> label_data_1_split_1
I0906 00:29:20.189497 84751 net.cpp:433] label_data_1_split -> label_data_1_split_2
I0906 00:29:20.189525 84751 net.cpp:155] Setting up label_data_1_split
I0906 00:29:20.189540 84751 net.cpp:163] Top shape: 32 (32)
I0906 00:29:20.189548 84751 net.cpp:163] Top shape: 32 (32)
I0906 00:29:20.189556 84751 net.cpp:163] Top shape: 32 (32)
I0906 00:29:20.189563 84751 layer_factory.hpp:76] Creating layer conv1/7x7_s2
I0906 00:29:20.189587 84751 net.cpp:110] Creating Layer conv1/7x7_s2
I0906 00:29:20.189602 84751 net.cpp:477] conv1/7x7_s2 <- data
I0906 00:29:20.189615 84751 net.cpp:433] conv1/7x7_s2 -> conv1/7x7_s2
I0906 00:29:20.190842 84751 net.cpp:155] Setting up conv1/7x7_s2
I0906 00:29:20.190870 84751 net.cpp:163] Top shape: 32 64 112 112 (25690112)
I0906 00:29:20.190904 84751 layer_factory.hpp:76] Creating layer conv1/relu_7x7
I0906 00:29:20.190918 84751 net.cpp:110] Creating Layer conv1/relu_7x7
I0906 00:29:20.190925 84751 net.cpp:477] conv1/relu_7x7 <- conv1/7x7_s2
I0906 00:29:20.190935 84751 net.cpp:419] conv1/relu_7x7 -> conv1/7x7_s2 (in-place)
I0906 00:29:20.190950 84751 net.cpp:155] Setting up conv1/relu_7x7
I0906 00:29:20.190960 84751 net.cpp:163] Top shape: 32 64 112 112 (25690112)
I0906 00:29:20.190968 84751 layer_factory.hpp:76] Creating layer pool1/3x3_s2
I0906 00:29:20.190981 84751 net.cpp:110] Creating Layer pool1/3x3_s2
I0906 00:29:20.190987 84751 net.cpp:477] pool1/3x3_s2 <- conv1/7x7_s2
I0906 00:29:20.190999 84751 net.cpp:433] pool1/3x3_s2 -> pool1/3x3_s2
I0906 00:29:20.191048 84751 net.cpp:155] Setting up pool1/3x3_s2
I0906 00:29:20.191066 84751 net.cpp:163] Top shape: 32 64 56 56 (6422528)
I0906 00:29:20.191073 84751 layer_factory.hpp:76] Creating layer pool1/norm1
I0906 00:29:20.191088 84751 net.cpp:110] Creating Layer pool1/norm1
I0906 00:29:20.191095 84751 net.cpp:477] pool1/norm1 <- pool1/3x3_s2
I0906 00:29:20.191108 84751 net.cpp:433] pool1/norm1 -> pool1/norm1
I0906 00:29:20.191129 84751 net.cpp:155] Setting up pool1/norm1
I0906 00:29:20.191149 84751 net.cpp:163] Top shape: 32 64 56 56 (6422528)
I0906 00:29:20.191156 84751 layer_factory.hpp:76] Creating layer conv2/3x3_reduce
I0906 00:29:20.191170 84751 net.cpp:110] Creating Layer conv2/3x3_reduce
I0906 00:29:20.191177 84751 net.cpp:477] conv2/3x3_reduce <- pool1/norm1
I0906 00:29:20.191191 84751 net.cpp:433] conv2/3x3_reduce -> conv2/3x3_reduce
I0906 00:29:20.192302 84751 net.cpp:155] Setting up conv2/3x3_reduce
I0906 00:29:20.192334 84751 net.cpp:163] Top shape: 32 64 56 56 (6422528)
I0906 00:29:20.192358 84751 layer_factory.hpp:76] Creating layer conv2/relu_3x3_reduce
I0906 00:29:20.192373 84751 net.cpp:110] Creating Layer conv2/relu_3x3_reduce
I0906 00:29:20.192379 84751 net.cpp:477] conv2/relu_3x3_reduce <- conv2/3x3_reduce
I0906 00:29:20.192391 84751 net.cpp:419] conv2/relu_3x3_reduce -> conv2/3x3_reduce (in-place)
I0906 00:29:20.192405 84751 net.cpp:155] Setting up conv2/relu_3x3_reduce
I0906 00:29:20.192414 84751 net.cpp:163] Top shape: 32 64 56 56 (6422528)
I0906 00:29:20.192421 84751 layer_factory.hpp:76] Creating layer conv2/3x3
I0906 00:29:20.192440 84751 net.cpp:110] Creating Layer conv2/3x3
I0906 00:29:20.192446 84751 net.cpp:477] conv2/3x3 <- conv2/3x3_reduce
I0906 00:29:20.192458 84751 net.cpp:433] conv2/3x3 -> conv2/3x3
I0906 00:29:20.195230 84751 net.cpp:155] Setting up conv2/3x3
I0906 00:29:20.195257 84751 net.cpp:163] Top shape: 32 192 56 56 (19267584)
I0906 00:29:20.195278 84751 layer_factory.hpp:76] Creating layer conv2/relu_3x3
I0906 00:29:20.195291 84751 net.cpp:110] Creating Layer conv2/relu_3x3
I0906 00:29:20.195298 84751 net.cpp:477] conv2/relu_3x3 <- conv2/3x3
I0906 00:29:20.195309 84751 net.cpp:419] conv2/relu_3x3 -> conv2/3x3 (in-place)
I0906 00:29:20.195322 84751 net.cpp:155] Setting up conv2/relu_3x3
I0906 00:29:20.195332 84751 net.cpp:163] Top shape: 32 192 56 56 (19267584)
I0906 00:29:20.195338 84751 layer_factory.hpp:76] Creating layer conv2/norm2
I0906 00:29:20.195349 84751 net.cpp:110] Creating Layer conv2/norm2
I0906 00:29:20.195379 84751 net.cpp:477] conv2/norm2 <- conv2/3x3
I0906 00:29:20.195391 84751 net.cpp:433] conv2/norm2 -> conv2/norm2
I0906 00:29:20.195406 84751 net.cpp:155] Setting up conv2/norm2
I0906 00:29:20.195415 84751 net.cpp:163] Top shape: 32 192 56 56 (19267584)
I0906 00:29:20.195422 84751 layer_factory.hpp:76] Creating layer pool2/3x3_s2
I0906 00:29:20.195433 84751 net.cpp:110] Creating Layer pool2/3x3_s2
I0906 00:29:20.195440 84751 net.cpp:477] pool2/3x3_s2 <- conv2/norm2
I0906 00:29:20.195449 84751 net.cpp:433] pool2/3x3_s2 -> pool2/3x3_s2
I0906 00:29:20.195464 84751 net.cpp:155] Setting up pool2/3x3_s2
I0906 00:29:20.195472 84751 net.cpp:163] Top shape: 32 192 28 28 (4816896)
I0906 00:29:20.195479 84751 layer_factory.hpp:76] Creating layer pool2/3x3_s2_pool2/3x3_s2_0_split
I0906 00:29:20.195489 84751 net.cpp:110] Creating Layer pool2/3x3_s2_pool2/3x3_s2_0_split
I0906 00:29:20.195497 84751 net.cpp:477] pool2/3x3_s2_pool2/3x3_s2_0_split <- pool2/3x3_s2
I0906 00:29:20.195508 84751 net.cpp:433] pool2/3x3_s2_pool2/3x3_s2_0_split -> pool2/3x3_s2_pool2/3x3_s2_0_split_0
I0906 00:29:20.195518 84751 net.cpp:433] pool2/3x3_s2_pool2/3x3_s2_0_split -> pool2/3x3_s2_pool2/3x3_s2_0_split_1
I0906 00:29:20.195531 84751 net.cpp:433] pool2/3x3_s2_pool2/3x3_s2_0_split -> pool2/3x3_s2_pool2/3x3_s2_0_split_2
I0906 00:29:20.195544 84751 net.cpp:433] pool2/3x3_s2_pool2/3x3_s2_0_split -> pool2/3x3_s2_pool2/3x3_s2_0_split_3
I0906 00:29:20.195555 84751 net.cpp:155] Setting up pool2/3x3_s2_pool2/3x3_s2_0_split
I0906 00:29:20.195564 84751 net.cpp:163] Top shape: 32 192 28 28 (4816896)
I0906 00:29:20.195571 84751 net.cpp:163] Top shape: 32 192 28 28 (4816896)
I0906 00:29:20.195580 84751 net.cpp:163] Top shape: 32 192 28 28 (4816896)
I0906 00:29:20.195587 84751 net.cpp:163] Top shape: 32 192 28 28 (4816896)
I0906 00:29:20.195593 84751 layer_factory.hpp:76] Creating layer inception_3a/1x1
I0906 00:29:20.195605 84751 net.cpp:110] Creating Layer inception_3a/1x1
I0906 00:29:20.195612 84751 net.cpp:477] inception_3a/1x1 <- pool2/3x3_s2_pool2/3x3_s2_0_split_0
I0906 00:29:20.195624 84751 net.cpp:433] inception_3a/1x1 -> inception_3a/1x1
I0906 00:29:20.196790 84751 net.cpp:155] Setting up inception_3a/1x1
I0906 00:29:20.196825 84751 net.cpp:163] Top shape: 32 64 28 28 (1605632)
I0906 00:29:20.196841 84751 layer_factory.hpp:76] Creating layer inception_3a/relu_1x1
I0906 00:29:20.196853 84751 net.cpp:110] Creating Layer inception_3a/relu_1x1
I0906 00:29:20.196861 84751 net.cpp:477] inception_3a/relu_1x1 <- inception_3a/1x1
I0906 00:29:20.196871 84751 net.cpp:419] inception_3a/relu_1x1 -> inception_3a/1x1 (in-place)
I0906 00:29:20.196884 84751 net.cpp:155] Setting up inception_3a/relu_1x1
I0906 00:29:20.196893 84751 net.cpp:163] Top shape: 32 64 28 28 (1605632)
I0906 00:29:20.196899 84751 layer_factory.hpp:76] Creating layer inception_3a/3x3_reduce
I0906 00:29:20.196913 84751 net.cpp:110] Creating Layer inception_3a/3x3_reduce
I0906 00:29:20.196919 84751 net.cpp:477] inception_3a/3x3_reduce <- pool2/3x3_s2_pool2/3x3_s2_0_split_1
I0906 00:29:20.196931 84751 net.cpp:433] inception_3a/3x3_reduce -> inception_3a/3x3_reduce
I0906 00:29:20.198206 84751 net.cpp:155] Setting up inception_3a/3x3_reduce
I0906 00:29:20.198230 84751 net.cpp:163] Top shape: 32 96 28 28 (2408448)
I0906 00:29:20.198251 84751 layer_factory.hpp:76] Creating layer inception_3a/relu_3x3_reduce
I0906 00:29:20.198266 84751 net.cpp:110] Creating Layer inception_3a/relu_3x3_reduce
I0906 00:29:20.198274 84751 net.cpp:477] inception_3a/relu_3x3_reduce <- inception_3a/3x3_reduce
I0906 00:29:20.198285 84751 net.cpp:419] inception_3a/relu_3x3_reduce -> inception_3a/3x3_reduce (in-place)
I0906 00:29:20.198298 84751 net.cpp:155] Setting up inception_3a/relu_3x3_reduce
I0906 00:29:20.198307 84751 net.cpp:163] Top shape: 32 96 28 28 (2408448)
I0906 00:29:20.198313 84751 layer_factory.hpp:76] Creating layer inception_3a/3x3
I0906 00:29:20.198326 84751 net.cpp:110] Creating Layer inception_3a/3x3
I0906 00:29:20.198333 84751 net.cpp:477] inception_3a/3x3 <- inception_3a/3x3_reduce
I0906 00:29:20.198366 84751 net.cpp:433] inception_3a/3x3 -> inception_3a/3x3
I0906 00:29:20.200745 84751 net.cpp:155] Setting up inception_3a/3x3
I0906 00:29:20.200777 84751 net.cpp:163] Top shape: 32 128 28 28 (3211264)
I0906 00:29:20.200790 84751 layer_factory.hpp:76] Creating layer inception_3a/relu_3x3
I0906 00:29:20.200803 84751 net.cpp:110] Creating Layer inception_3a/relu_3x3
I0906 00:29:20.200811 84751 net.cpp:477] inception_3a/relu_3x3 <- inception_3a/3x3
I0906 00:29:20.200822 84751 net.cpp:419] inception_3a/relu_3x3 -> inception_3a/3x3 (in-place)
I0906 00:29:20.200839 84751 net.cpp:155] Setting up inception_3a/relu_3x3
I0906 00:29:20.200847 84751 net.cpp:163] Top shape: 32 128 28 28 (3211264)
I0906 00:29:20.200855 84751 layer_factory.hpp:76] Creating layer inception_3a/5x5_reduce
I0906 00:29:20.200866 84751 net.cpp:110] Creating Layer inception_3a/5x5_reduce
I0906 00:29:20.200873 84751 net.cpp:477] inception_3a/5x5_reduce <- pool2/3x3_s2_pool2/3x3_s2_0_split_2
I0906 00:29:20.200884 84751 net.cpp:433] inception_3a/5x5_reduce -> inception_3a/5x5_reduce
I0906 00:29:20.201035 84751 net.cpp:155] Setting up inception_3a/5x5_reduce
I0906 00:29:20.201050 84751 net.cpp:163] Top shape: 32 16 28 28 (401408)
I0906 00:29:20.201061 84751 layer_factory.hpp:76] Creating layer inception_3a/relu_5x5_reduce
I0906 00:29:20.201072 84751 net.cpp:110] Creating Layer inception_3a/relu_5x5_reduce
I0906 00:29:20.201079 84751 net.cpp:477] inception_3a/relu_5x5_reduce <- inception_3a/5x5_reduce
I0906 00:29:20.201091 84751 net.cpp:419] inception_3a/relu_5x5_reduce -> inception_3a/5x5_reduce (in-place)
I0906 00:29:20.201102 84751 net.cpp:155] Setting up inception_3a/relu_5x5_reduce
I0906 00:29:20.201110 84751 net.cpp:163] Top shape: 32 16 28 28 (401408)
I0906 00:29:20.201117 84751 layer_factory.hpp:76] Creating layer inception_3a/5x5
I0906 00:29:20.201128 84751 net.cpp:110] Creating Layer inception_3a/5x5
I0906 00:29:20.201134 84751 net.cpp:477] inception_3a/5x5 <- inception_3a/5x5_reduce
I0906 00:29:20.201145 84751 net.cpp:433] inception_3a/5x5 -> inception_3a/5x5
I0906 00:29:20.201442 84751 net.cpp:155] Setting up inception_3a/5x5
I0906 00:29:20.201457 84751 net.cpp:163] Top shape: 32 32 28 28 (802816)
I0906 00:29:20.201469 84751 layer_factory.hpp:76] Creating layer inception_3a/relu_5x5
I0906 00:29:20.201479 84751 net.cpp:110] Creating Layer inception_3a/relu_5x5
I0906 00:29:20.201486 84751 net.cpp:477] inception_3a/relu_5x5 <- inception_3a/5x5
I0906 00:29:20.201496 84751 net.cpp:419] inception_3a/relu_5x5 -> inception_3a/5x5 (in-place)
I0906 00:29:20.201508 84751 net.cpp:155] Setting up inception_3a/relu_5x5
I0906 00:29:20.201515 84751 net.cpp:163] Top shape: 32 32 28 28 (802816)
I0906 00:29:20.201522 84751 layer_factory.hpp:76] Creating layer inception_3a/pool
I0906 00:29:20.201534 84751 net.cpp:110] Creating Layer inception_3a/pool
I0906 00:29:20.201540 84751 net.cpp:477] inception_3a/pool <- pool2/3x3_s2_pool2/3x3_s2_0_split_3
I0906 00:29:20.201551 84751 net.cpp:433] inception_3a/pool -> inception_3a/pool
I0906 00:29:20.201567 84751 net.cpp:155] Setting up inception_3a/pool
I0906 00:29:20.201576 84751 net.cpp:163] Top shape: 32 192 28 28 (4816896)
I0906 00:29:20.201582 84751 layer_factory.hpp:76] Creating layer inception_3a/pool_proj
I0906 00:29:20.201596 84751 net.cpp:110] Creating Layer inception_3a/pool_proj
I0906 00:29:20.201601 84751 net.cpp:477] inception_3a/pool_proj <- inception_3a/pool
I0906 00:29:20.201613 84751 net.cpp:433] inception_3a/pool_proj -> inception_3a/pool_proj
I0906 00:29:20.201808 84751 net.cpp:155] Setting up inception_3a/pool_proj
I0906 00:29:20.201822 84751 net.cpp:163] Top shape: 32 32 28 28 (802816)
I0906 00:29:20.201843 84751 layer_factory.hpp:76] Creating layer inception_3a/relu_pool_proj
I0906 00:29:20.201863 84751 net.cpp:110] Creating Layer inception_3a/relu_pool_proj
I0906 00:29:20.201870 84751 net.cpp:477] inception_3a/relu_pool_proj <- inception_3a/pool_proj
I0906 00:29:20.201880 84751 net.cpp:419] inception_3a/relu_pool_proj -> inception_3a/pool_proj (in-place)
I0906 00:29:20.201917 84751 net.cpp:155] Setting up inception_3a/relu_pool_proj
I0906 00:29:20.201927 84751 net.cpp:163] Top shape: 32 32 28 28 (802816)
I0906 00:29:20.201935 84751 layer_factory.hpp:76] Creating layer inception_3a/output
I0906 00:29:20.201951 84751 net.cpp:110] Creating Layer inception_3a/output
I0906 00:29:20.201957 84751 net.cpp:477] inception_3a/output <- inception_3a/1x1
I0906 00:29:20.201967 84751 net.cpp:477] inception_3a/output <- inception_3a/3x3
I0906 00:29:20.201974 84751 net.cpp:477] inception_3a/output <- inception_3a/5x5
I0906 00:29:20.201982 84751 net.cpp:477] inception_3a/output <- inception_3a/pool_proj
I0906 00:29:20.201992 84751 net.cpp:433] inception_3a/output -> inception_3a/output
I0906 00:29:20.202009 84751 net.cpp:155] Setting up inception_3a/output
I0906 00:29:20.202018 84751 net.cpp:163] Top shape: 32 256 28 28 (6422528)
I0906 00:29:20.202024 84751 layer_factory.hpp:76] Creating layer inception_3a/output_inception_3a/output_0_split
I0906 00:29:20.202035 84751 net.cpp:110] Creating Layer inception_3a/output_inception_3a/output_0_split
I0906 00:29:20.202042 84751 net.cpp:477] inception_3a/output_inception_3a/output_0_split <- inception_3a/output
I0906 00:29:20.202055 84751 net.cpp:433] inception_3a/output_inception_3a/output_0_split -> inception_3a/output_inception_3a/output_0_split_0
I0906 00:29:20.202067 84751 net.cpp:433] inception_3a/output_inception_3a/output_0_split -> inception_3a/output_inception_3a/output_0_split_1
I0906 00:29:20.202080 84751 net.cpp:433] inception_3a/output_inception_3a/output_0_split -> inception_3a/output_inception_3a/output_0_split_2
I0906 00:29:20.202092 84751 net.cpp:433] inception_3a/output_inception_3a/output_0_split -> inception_3a/output_inception_3a/output_0_split_3
I0906 00:29:20.202105 84751 net.cpp:155] Setting up inception_3a/output_inception_3a/output_0_split
I0906 00:29:20.202114 84751 net.cpp:163] Top shape: 32 256 28 28 (6422528)
I0906 00:29:20.202122 84751 net.cpp:163] Top shape: 32 256 28 28 (6422528)
I0906 00:29:20.202131 84751 net.cpp:163] Top shape: 32 256 28 28 (6422528)
I0906 00:29:20.202138 84751 net.cpp:163] Top shape: 32 256 28 28 (6422528)
I0906 00:29:20.202144 84751 layer_factory.hpp:76] Creating layer inception_3b/1x1
I0906 00:29:20.202157 84751 net.cpp:110] Creating Layer inception_3b/1x1
I0906 00:29:20.202163 84751 net.cpp:477] inception_3b/1x1 <- inception_3a/output_inception_3a/output_0_split_0
I0906 00:29:20.202174 84751 net.cpp:433] inception_3b/1x1 -> inception_3b/1x1
I0906 00:29:20.202785 84751 net.cpp:155] Setting up inception_3b/1x1
I0906 00:29:20.202808 84751 net.cpp:163] Top shape: 32 128 28 28 (3211264)
I0906 00:29:20.202821 84751 layer_factory.hpp:76] Creating layer inception_3b/relu_1x1
I0906 00:29:20.202831 84751 net.cpp:110] Creating Layer inception_3b/relu_1x1
I0906 00:29:20.202837 84751 net.cpp:477] inception_3b/relu_1x1 <- inception_3b/1x1
I0906 00:29:20.202847 84751 net.cpp:419] inception_3b/relu_1x1 -> inception_3b/1x1 (in-place)
I0906 00:29:20.202858 84751 net.cpp:155] Setting up inception_3b/relu_1x1
I0906 00:29:20.202867 84751 net.cpp:163] Top shape: 32 128 28 28 (3211264)
I0906 00:29:20.202873 84751 layer_factory.hpp:76] Creating layer inception_3b/3x3_reduce
I0906 00:29:20.202884 84751 net.cpp:110] Creating Layer inception_3b/3x3_reduce
I0906 00:29:20.202891 84751 net.cpp:477] inception_3b/3x3_reduce <- inception_3a/output_inception_3a/output_0_split_1
I0906 00:29:20.202903 84751 net.cpp:433] inception_3b/3x3_reduce -> inception_3b/3x3_reduce
I0906 00:29:20.203500 84751 net.cpp:155] Setting up inception_3b/3x3_reduce
I0906 00:29:20.203513 84751 net.cpp:163] Top shape: 32 128 28 28 (3211264)
I0906 00:29:20.203526 84751 layer_factory.hpp:76] Creating layer inception_3b/relu_3x3_reduce
I0906 00:29:20.203536 84751 net.cpp:110] Creating Layer inception_3b/relu_3x3_reduce
I0906 00:29:20.203544 84751 net.cpp:477] inception_3b/relu_3x3_reduce <- inception_3b/3x3_reduce
I0906 00:29:20.203554 84751 net.cpp:419] inception_3b/relu_3x3_reduce -> inception_3b/3x3_reduce (in-place)
I0906 00:29:20.203567 84751 net.cpp:155] Setting up inception_3b/relu_3x3_reduce
I0906 00:29:20.203591 84751 net.cpp:163] Top shape: 32 128 28 28 (3211264)
I0906 00:29:20.203598 84751 layer_factory.hpp:76] Creating layer inception_3b/3x3
I0906 00:29:20.203615 84751 net.cpp:110] Creating Layer inception_3b/3x3
I0906 00:29:20.203622 84751 net.cpp:477] inception_3b/3x3 <- inception_3b/3x3_reduce
I0906 00:29:20.203634 84751 net.cpp:433] inception_3b/3x3 -> inception_3b/3x3
I0906 00:29:20.208106 84751 net.cpp:155] Setting up inception_3b/3x3
I0906 00:29:20.208137 84751 net.cpp:163] Top shape: 32 192 28 28 (4816896)
I0906 00:29:20.208153 84751 layer_factory.hpp:76] Creating layer inception_3b/relu_3x3
I0906 00:29:20.208164 84751 net.cpp:110] Creating Layer inception_3b/relu_3x3
I0906 00:29:20.208173 84751 net.cpp:477] inception_3b/relu_3x3 <- inception_3b/3x3
I0906 00:29:20.208189 84751 net.cpp:419] inception_3b/relu_3x3 -> inception_3b/3x3 (in-place)
I0906 00:29:20.208200 84751 net.cpp:155] Setting up inception_3b/relu_3x3
I0906 00:29:20.208209 84751 net.cpp:163] Top shape: 32 192 28 28 (4816896)
I0906 00:29:20.208216 84751 layer_factory.hpp:76] Creating layer inception_3b/5x5_reduce
I0906 00:29:20.208230 84751 net.cpp:110] Creating Layer inception_3b/5x5_reduce
I0906 00:29:20.208235 84751 net.cpp:477] inception_3b/5x5_reduce <- inception_3a/output_inception_3a/output_0_split_2
I0906 00:29:20.208247 84751 net.cpp:433] inception_3b/5x5_reduce -> inception_3b/5x5_reduce
I0906 00:29:20.208477 84751 net.cpp:155] Setting up inception_3b/5x5_reduce
I0906 00:29:20.208492 84751 net.cpp:163] Top shape: 32 32 28 28 (802816)
I0906 00:29:20.208505 84751 layer_factory.hpp:76] Creating layer inception_3b/relu_5x5_reduce
I0906 00:29:20.208514 84751 net.cpp:110] Creating Layer inception_3b/relu_5x5_reduce
I0906 00:29:20.208523 84751 net.cpp:477] inception_3b/relu_5x5_reduce <- inception_3b/5x5_reduce
I0906 00:29:20.208534 84751 net.cpp:419] inception_3b/relu_5x5_reduce -> inception_3b/5x5_reduce (in-place)
I0906 00:29:20.208545 84751 net.cpp:155] Setting up inception_3b/relu_5x5_reduce
I0906 00:29:20.208554 84751 net.cpp:163] Top shape: 32 32 28 28 (802816)
I0906 00:29:20.208564 84751 layer_factory.hpp:76] Creating layer inception_3b/5x5
I0906 00:29:20.208575 84751 net.cpp:110] Creating Layer inception_3b/5x5
I0906 00:29:20.208582 84751 net.cpp:477] inception_3b/5x5 <- inception_3b/5x5_reduce
I0906 00:29:20.208593 84751 net.cpp:433] inception_3b/5x5 -> inception_3b/5x5
I0906 00:29:20.210760 84751 net.cpp:155] Setting up inception_3b/5x5
I0906 00:29:20.210791 84751 net.cpp:163] Top shape: 32 96 28 28 (2408448)
I0906 00:29:20.210806 84751 layer_factory.hpp:76] Creating layer inception_3b/relu_5x5
I0906 00:29:20.210818 84751 net.cpp:110] Creating Layer inception_3b/relu_5x5
I0906 00:29:20.210825 84751 net.cpp:477] inception_3b/relu_5x5 <- inception_3b/5x5
I0906 00:29:20.210840 84751 net.cpp:419] inception_3b/relu_5x5 -> inception_3b/5x5 (in-place)
I0906 00:29:20.210855 84751 net.cpp:155] Setting up inception_3b/relu_5x5
I0906 00:29:20.210862 84751 net.cpp:163] Top shape: 32 96 28 28 (2408448)
I0906 00:29:20.210870 84751 layer_factory.hpp:76] Creating layer inception_3b/pool
I0906 00:29:20.210880 84751 net.cpp:110] Creating Layer inception_3b/pool
I0906 00:29:20.210887 84751 net.cpp:477] inception_3b/pool <- inception_3a/output_inception_3a/output_0_split_3
I0906 00:29:20.210898 84751 net.cpp:433] inception_3b/pool -> inception_3b/pool
I0906 00:29:20.210916 84751 net.cpp:155] Setting up inception_3b/pool
I0906 00:29:20.210923 84751 net.cpp:163] Top shape: 32 256 28 28 (6422528)
I0906 00:29:20.210930 84751 layer_factory.hpp:76] Creating layer inception_3b/pool_proj
I0906 00:29:20.210943 84751 net.cpp:110] Creating Layer inception_3b/pool_proj
I0906 00:29:20.210950 84751 net.cpp:477] inception_3b/pool_proj <- inception_3b/pool
I0906 00:29:20.210961 84751 net.cpp:433] inception_3b/pool_proj -> inception_3b/pool_proj
I0906 00:29:20.211320 84751 net.cpp:155] Setting up inception_3b/pool_proj
I0906 00:29:20.211336 84751 net.cpp:163] Top shape: 32 64 28 28 (1605632)
I0906 00:29:20.211354 84751 layer_factory.hpp:76] Creating layer inception_3b/relu_pool_proj
I0906 00:29:20.211386 84751 net.cpp:110] Creating Layer inception_3b/relu_pool_proj
I0906 00:29:20.211395 84751 net.cpp:477] inception_3b/relu_pool_proj <- inception_3b/pool_proj
I0906 00:29:20.211405 84751 net.cpp:419] inception_3b/relu_pool_proj -> inception_3b/pool_proj (in-place)
I0906 00:29:20.211416 84751 net.cpp:155] Setting up inception_3b/relu_pool_proj
I0906 00:29:20.211426 84751 net.cpp:163] Top shape: 32 64 28 28 (1605632)
I0906 00:29:20.211432 84751 layer_factory.hpp:76] Creating layer inception_3b/output
I0906 00:29:20.211443 84751 net.cpp:110] Creating Layer inception_3b/output
I0906 00:29:20.211451 84751 net.cpp:477] inception_3b/output <- inception_3b/1x1
I0906 00:29:20.211458 84751 net.cpp:477] inception_3b/output <- inception_3b/3x3
I0906 00:29:20.211467 84751 net.cpp:477] inception_3b/output <- inception_3b/5x5
I0906 00:29:20.211473 84751 net.cpp:477] inception_3b/output <- inception_3b/pool_proj
I0906 00:29:20.211484 84751 net.cpp:433] inception_3b/output -> inception_3b/output
I0906 00:29:20.211498 84751 net.cpp:155] Setting up inception_3b/output
I0906 00:29:20.211506 84751 net.cpp:163] Top shape: 32 480 28 28 (12042240)
I0906 00:29:20.211513 84751 layer_factory.hpp:76] Creating layer pool3/3x3_s2
I0906 00:29:20.211524 84751 net.cpp:110] Creating Layer pool3/3x3_s2
I0906 00:29:20.211530 84751 net.cpp:477] pool3/3x3_s2 <- inception_3b/output
I0906 00:29:20.211541 84751 net.cpp:433] pool3/3x3_s2 -> pool3/3x3_s2
I0906 00:29:20.211555 84751 net.cpp:155] Setting up pool3/3x3_s2
I0906 00:29:20.211563 84751 net.cpp:163] Top shape: 32 480 14 14 (3010560)
I0906 00:29:20.211570 84751 layer_factory.hpp:76] Creating layer pool3/3x3_s2_pool3/3x3_s2_0_split
I0906 00:29:20.211580 84751 net.cpp:110] Creating Layer pool3/3x3_s2_pool3/3x3_s2_0_split
I0906 00:29:20.211587 84751 net.cpp:477] pool3/3x3_s2_pool3/3x3_s2_0_split <- pool3/3x3_s2
I0906 00:29:20.211597 84751 net.cpp:433] pool3/3x3_s2_pool3/3x3_s2_0_split -> pool3/3x3_s2_pool3/3x3_s2_0_split_0
I0906 00:29:20.211609 84751 net.cpp:433] pool3/3x3_s2_pool3/3x3_s2_0_split -> pool3/3x3_s2_pool3/3x3_s2_0_split_1
I0906 00:29:20.211621 84751 net.cpp:433] pool3/3x3_s2_pool3/3x3_s2_0_split -> pool3/3x3_s2_pool3/3x3_s2_0_split_2
I0906 00:29:20.211634 84751 net.cpp:433] pool3/3x3_s2_pool3/3x3_s2_0_split -> pool3/3x3_s2_pool3/3x3_s2_0_split_3
I0906 00:29:20.211647 84751 net.cpp:155] Setting up pool3/3x3_s2_pool3/3x3_s2_0_split
I0906 00:29:20.211655 84751 net.cpp:163] Top shape: 32 480 14 14 (3010560)
I0906 00:29:20.211663 84751 net.cpp:163] Top shape: 32 480 14 14 (3010560)
I0906 00:29:20.211681 84751 net.cpp:163] Top shape: 32 480 14 14 (3010560)
I0906 00:29:20.211690 84751 net.cpp:163] Top shape: 32 480 14 14 (3010560)
I0906 00:29:20.211696 84751 layer_factory.hpp:76] Creating layer inception_4a/1x1
I0906 00:29:20.211709 84751 net.cpp:110] Creating Layer inception_4a/1x1
I0906 00:29:20.211715 84751 net.cpp:477] inception_4a/1x1 <- pool3/3x3_s2_pool3/3x3_s2_0_split_0
I0906 00:29:20.211726 84751 net.cpp:433] inception_4a/1x1 -> inception_4a/1x1
I0906 00:29:20.213263 84751 net.cpp:155] Setting up inception_4a/1x1
I0906 00:29:20.213281 84751 net.cpp:163] Top shape: 32 192 14 14 (1204224)
I0906 00:29:20.213300 84751 layer_factory.hpp:76] Creating layer inception_4a/relu_1x1
I0906 00:29:20.213311 84751 net.cpp:110] Creating Layer inception_4a/relu_1x1
I0906 00:29:20.213318 84751 net.cpp:477] inception_4a/relu_1x1 <- inception_4a/1x1
I0906 00:29:20.213328 84751 net.cpp:419] inception_4a/relu_1x1 -> inception_4a/1x1 (in-place)
I0906 00:29:20.213340 84751 net.cpp:155] Setting up inception_4a/relu_1x1
I0906 00:29:20.213349 84751 net.cpp:163] Top shape: 32 192 14 14 (1204224)
I0906 00:29:20.213356 84751 layer_factory.hpp:76] Creating layer inception_4a/3x3_reduce
I0906 00:29:20.213368 84751 net.cpp:110] Creating Layer inception_4a/3x3_reduce
I0906 00:29:20.213374 84751 net.cpp:477] inception_4a/3x3_reduce <- pool3/3x3_s2_pool3/3x3_s2_0_split_1
I0906 00:29:20.213387 84751 net.cpp:433] inception_4a/3x3_reduce -> inception_4a/3x3_reduce
I0906 00:29:20.214241 84751 net.cpp:155] Setting up inception_4a/3x3_reduce
I0906 00:29:20.214257 84751 net.cpp:163] Top shape: 32 96 14 14 (602112)
I0906 00:29:20.214282 84751 layer_factory.hpp:76] Creating layer inception_4a/relu_3x3_reduce
I0906 00:29:20.214293 84751 net.cpp:110] Creating Layer inception_4a/relu_3x3_reduce
I0906 00:29:20.214301 84751 net.cpp:477] inception_4a/relu_3x3_reduce <- inception_4a/3x3_reduce
I0906 00:29:20.214313 84751 net.cpp:419] inception_4a/relu_3x3_reduce -> inception_4a/3x3_reduce (in-place)
I0906 00:29:20.214324 84751 net.cpp:155] Setting up inception_4a/relu_3x3_reduce
I0906 00:29:20.214334 84751 net.cpp:163] Top shape: 32 96 14 14 (602112)
I0906 00:29:20.214339 84751 layer_factory.hpp:76] Creating layer inception_4a/3x3
I0906 00:29:20.214351 84751 net.cpp:110] Creating Layer inception_4a/3x3
I0906 00:29:20.214359 84751 net.cpp:477] inception_4a/3x3 <- inception_4a/3x3_reduce
I0906 00:29:20.214370 84751 net.cpp:433] inception_4a/3x3 -> inception_4a/3x3
I0906 00:29:20.218224 84751 net.cpp:155] Setting up inception_4a/3x3
I0906 00:29:20.218250 84751 net.cpp:163] Top shape: 32 208 14 14 (1304576)
I0906 00:29:20.218266 84751 layer_factory.hpp:76] Creating layer inception_4a/relu_3x3
I0906 00:29:20.218278 84751 net.cpp:110] Creating Layer inception_4a/relu_3x3
I0906 00:29:20.218286 84751 net.cpp:477] inception_4a/relu_3x3 <- inception_4a/3x3
I0906 00:29:20.218297 84751 net.cpp:419] inception_4a/relu_3x3 -> inception_4a/3x3 (in-place)
I0906 00:29:20.218313 84751 net.cpp:155] Setting up inception_4a/relu_3x3
I0906 00:29:20.218322 84751 net.cpp:163] Top shape: 32 208 14 14 (1304576)
I0906 00:29:20.218328 84751 layer_factory.hpp:76] Creating layer inception_4a/5x5_reduce
I0906 00:29:20.218341 84751 net.cpp:110] Creating Layer inception_4a/5x5_reduce
I0906 00:29:20.218348 84751 net.cpp:477] inception_4a/5x5_reduce <- pool3/3x3_s2_pool3/3x3_s2_0_split_2
I0906 00:29:20.218360 84751 net.cpp:433] inception_4a/5x5_reduce -> inception_4a/5x5_reduce
I0906 00:29:20.218580 84751 net.cpp:155] Setting up inception_4a/5x5_reduce
I0906 00:29:20.218596 84751 net.cpp:163] Top shape: 32 16 14 14 (100352)
I0906 00:29:20.218610 84751 layer_factory.hpp:76] Creating layer inception_4a/relu_5x5_reduce
I0906 00:29:20.218619 84751 net.cpp:110] Creating Layer inception_4a/relu_5x5_reduce
I0906 00:29:20.218626 84751 net.cpp:477] inception_4a/relu_5x5_reduce <- inception_4a/5x5_reduce
I0906 00:29:20.218637 84751 net.cpp:419] inception_4a/relu_5x5_reduce -> inception_4a/5x5_reduce (in-place)
I0906 00:29:20.218648 84751 net.cpp:155] Setting up inception_4a/relu_5x5_reduce
I0906 00:29:20.218657 84751 net.cpp:163] Top shape: 32 16 14 14 (100352)
I0906 00:29:20.218663 84751 layer_factory.hpp:76] Creating layer inception_4a/5x5
I0906 00:29:20.218675 84751 net.cpp:110] Creating Layer inception_4a/5x5
I0906 00:29:20.218682 84751 net.cpp:477] inception_4a/5x5 <- inception_4a/5x5_reduce
I0906 00:29:20.218693 84751 net.cpp:433] inception_4a/5x5 -> inception_4a/5x5
I0906 00:29:20.219090 84751 net.cpp:155] Setting up inception_4a/5x5
I0906 00:29:20.219105 84751 net.cpp:163] Top shape: 32 48 14 14 (301056)
I0906 00:29:20.219125 84751 layer_factory.hpp:76] Creating layer inception_4a/relu_5x5
I0906 00:29:20.219133 84751 net.cpp:110] Creating Layer inception_4a/relu_5x5
I0906 00:29:20.219141 84751 net.cpp:477] inception_4a/relu_5x5 <- inception_4a/5x5
I0906 00:29:20.219164 84751 net.cpp:419] inception_4a/relu_5x5 -> inception_4a/5x5 (in-place)
I0906 00:29:20.219175 84751 net.cpp:155] Setting up inception_4a/relu_5x5
I0906 00:29:20.219184 84751 net.cpp:163] Top shape: 32 48 14 14 (301056)
I0906 00:29:20.219190 84751 layer_factory.hpp:76] Creating layer inception_4a/pool
I0906 00:29:20.219202 84751 net.cpp:110] Creating Layer inception_4a/pool
I0906 00:29:20.219209 84751 net.cpp:477] inception_4a/pool <- pool3/3x3_s2_pool3/3x3_s2_0_split_3
I0906 00:29:20.219220 84751 net.cpp:433] inception_4a/pool -> inception_4a/pool
I0906 00:29:20.219236 84751 net.cpp:155] Setting up inception_4a/pool
I0906 00:29:20.219244 84751 net.cpp:163] Top shape: 32 480 14 14 (3010560)
I0906 00:29:20.219292 84751 layer_factory.hpp:76] Creating layer inception_4a/pool_proj
I0906 00:29:20.219307 84751 net.cpp:110] Creating Layer inception_4a/pool_proj
I0906 00:29:20.219315 84751 net.cpp:477] inception_4a/pool_proj <- inception_4a/pool
I0906 00:29:20.219327 84751 net.cpp:433] inception_4a/pool_proj -> inception_4a/pool_proj
I0906 00:29:20.219920 84751 net.cpp:155] Setting up inception_4a/pool_proj
I0906 00:29:20.219939 84751 net.cpp:163] Top shape: 32 64 14 14 (401408)
I0906 00:29:20.219955 84751 layer_factory.hpp:76] Creating layer inception_4a/relu_pool_proj
I0906 00:29:20.219965 84751 net.cpp:110] Creating Layer inception_4a/relu_pool_proj
I0906 00:29:20.219974 84751 net.cpp:477] inception_4a/relu_pool_proj <- inception_4a/pool_proj
I0906 00:29:20.219982 84751 net.cpp:419] inception_4a/relu_pool_proj -> inception_4a/pool_proj (in-place)
I0906 00:29:20.219995 84751 net.cpp:155] Setting up inception_4a/relu_pool_proj
I0906 00:29:20.220002 84751 net.cpp:163] Top shape: 32 64 14 14 (401408)
I0906 00:29:20.220008 84751 layer_factory.hpp:76] Creating layer inception_4a/output
I0906 00:29:20.220019 84751 net.cpp:110] Creating Layer inception_4a/output
I0906 00:29:20.220026 84751 net.cpp:477] inception_4a/output <- inception_4a/1x1
I0906 00:29:20.220033 84751 net.cpp:477] inception_4a/output <- inception_4a/3x3
I0906 00:29:20.220042 84751 net.cpp:477] inception_4a/output <- inception_4a/5x5
I0906 00:29:20.220049 84751 net.cpp:477] inception_4a/output <- inception_4a/pool_proj
I0906 00:29:20.220059 84751 net.cpp:433] inception_4a/output -> inception_4a/output
I0906 00:29:20.220073 84751 net.cpp:155] Setting up inception_4a/output
I0906 00:29:20.220082 84751 net.cpp:163] Top shape: 32 512 14 14 (3211264)
I0906 00:29:20.220088 84751 layer_factory.hpp:76] Creating layer inception_4a/output_inception_4a/output_0_split
I0906 00:29:20.220099 84751 net.cpp:110] Creating Layer inception_4a/output_inception_4a/output_0_split
I0906 00:29:20.220105 84751 net.cpp:477] inception_4a/output_inception_4a/output_0_split <- inception_4a/output
I0906 00:29:20.220118 84751 net.cpp:433] inception_4a/output_inception_4a/output_0_split -> inception_4a/output_inception_4a/output_0_split_0
I0906 00:29:20.220130 84751 net.cpp:433] inception_4a/output_inception_4a/output_0_split -> inception_4a/output_inception_4a/output_0_split_1
I0906 00:29:20.220144 84751 net.cpp:433] inception_4a/output_inception_4a/output_0_split -> inception_4a/output_inception_4a/output_0_split_2
I0906 00:29:20.220155 84751 net.cpp:433] inception_4a/output_inception_4a/output_0_split -> inception_4a/output_inception_4a/output_0_split_3
I0906 00:29:20.220166 84751 net.cpp:433] inception_4a/output_inception_4a/output_0_split -> inception_4a/output_inception_4a/output_0_split_4
I0906 00:29:20.220181 84751 net.cpp:155] Setting up inception_4a/output_inception_4a/output_0_split
I0906 00:29:20.220190 84751 net.cpp:163] Top shape: 32 512 14 14 (3211264)
I0906 00:29:20.220197 84751 net.cpp:163] Top shape: 32 512 14 14 (3211264)
I0906 00:29:20.220206 84751 net.cpp:163] Top shape: 32 512 14 14 (3211264)
I0906 00:29:20.220212 84751 net.cpp:163] Top shape: 32 512 14 14 (3211264)
I0906 00:29:20.220221 84751 net.cpp:163] Top shape: 32 512 14 14 (3211264)
I0906 00:29:20.220227 84751 layer_factory.hpp:76] Creating layer loss1/ave_pool
I0906 00:29:20.220237 84751 net.cpp:110] Creating Layer loss1/ave_pool
I0906 00:29:20.220244 84751 net.cpp:477] loss1/ave_pool <- inception_4a/output_inception_4a/output_0_split_0
I0906 00:29:20.220254 84751 net.cpp:433] loss1/ave_pool -> loss1/ave_pool
I0906 00:29:20.220268 84751 net.cpp:155] Setting up loss1/ave_pool
I0906 00:29:20.220278 84751 net.cpp:163] Top shape: 32 512 4 4 (262144)
I0906 00:29:20.220284 84751 layer_factory.hpp:76] Creating layer loss1/conv
I0906 00:29:20.220296 84751 net.cpp:110] Creating Layer loss1/conv
I0906 00:29:20.220304 84751 net.cpp:477] loss1/conv <- loss1/ave_pool
I0906 00:29:20.220314 84751 net.cpp:433] loss1/conv -> loss1/conv
I0906 00:29:20.221441 84751 net.cpp:155] Setting up loss1/conv
I0906 00:29:20.221483 84751 net.cpp:163] Top shape: 32 128 4 4 (65536)
I0906 00:29:20.221498 84751 layer_factory.hpp:76] Creating layer loss1/relu_conv
I0906 00:29:20.221508 84751 net.cpp:110] Creating Layer loss1/relu_conv
I0906 00:29:20.221516 84751 net.cpp:477] loss1/relu_conv <- loss1/conv
I0906 00:29:20.221526 84751 net.cpp:419] loss1/relu_conv -> loss1/conv (in-place)
I0906 00:29:20.221537 84751 net.cpp:155] Setting up loss1/relu_conv
I0906 00:29:20.221546 84751 net.cpp:163] Top shape: 32 128 4 4 (65536)
I0906 00:29:20.221554 84751 layer_factory.hpp:76] Creating layer loss1/fc
I0906 00:29:20.221570 84751 net.cpp:110] Creating Layer loss1/fc
I0906 00:29:20.221577 84751 net.cpp:477] loss1/fc <- loss1/conv
I0906 00:29:20.221590 84751 net.cpp:433] loss1/fc -> loss1/fc
I0906 00:29:20.260258 84751 net.cpp:155] Setting up loss1/fc
I0906 00:29:20.260287 84751 net.cpp:163] Top shape: 32 1024 (32768)
I0906 00:29:20.260305 84751 layer_factory.hpp:76] Creating layer loss1/relu_fc
I0906 00:29:20.260318 84751 net.cpp:110] Creating Layer loss1/relu_fc
I0906 00:29:20.260325 84751 net.cpp:477] loss1/relu_fc <- loss1/fc
I0906 00:29:20.260344 84751 net.cpp:419] loss1/relu_fc -> loss1/fc (in-place)
I0906 00:29:20.260356 84751 net.cpp:155] Setting up loss1/relu_fc
I0906 00:29:20.260365 84751 net.cpp:163] Top shape: 32 1024 (32768)
I0906 00:29:20.260371 84751 layer_factory.hpp:76] Creating layer loss1/drop_fc
I0906 00:29:20.260401 84751 net.cpp:110] Creating Layer loss1/drop_fc
I0906 00:29:20.260408 84751 net.cpp:477] loss1/drop_fc <- loss1/fc
I0906 00:29:20.260418 84751 net.cpp:419] loss1/drop_fc -> loss1/fc (in-place)
I0906 00:29:20.260440 84751 net.cpp:155] Setting up loss1/drop_fc
I0906 00:29:20.260449 84751 net.cpp:163] Top shape: 32 1024 (32768)
I0906 00:29:20.260457 84751 layer_factory.hpp:76] Creating layer loss1/classifier_cub
I0906 00:29:20.260470 84751 net.cpp:110] Creating Layer loss1/classifier_cub
I0906 00:29:20.260476 84751 net.cpp:477] loss1/classifier_cub <- loss1/fc
I0906 00:29:20.260488 84751 net.cpp:433] loss1/classifier_cub -> loss1/classifier
I0906 00:29:20.275955 84751 net.cpp:155] Setting up loss1/classifier_cub
I0906 00:29:20.275981 84751 net.cpp:163] Top shape: 32 200 (6400)
I0906 00:29:20.276000 84751 layer_factory.hpp:76] Creating layer loss1/loss
I0906 00:29:20.276020 84751 net.cpp:110] Creating Layer loss1/loss
I0906 00:29:20.276027 84751 net.cpp:477] loss1/loss <- loss1/classifier
I0906 00:29:20.276044 84751 net.cpp:477] loss1/loss <- label_data_1_split_0
I0906 00:29:20.276056 84751 net.cpp:433] loss1/loss -> loss1/loss1
I0906 00:29:20.276078 84751 layer_factory.hpp:76] Creating layer loss1/loss
I0906 00:29:20.276231 84751 net.cpp:155] Setting up loss1/loss
I0906 00:29:20.276248 84751 net.cpp:163] Top shape: (1)
I0906 00:29:20.276255 84751 net.cpp:168]     with loss weight 0.3
I0906 00:29:20.276294 84751 layer_factory.hpp:76] Creating layer inception_4b/1x1
I0906 00:29:20.276310 84751 net.cpp:110] Creating Layer inception_4b/1x1
I0906 00:29:20.276319 84751 net.cpp:477] inception_4b/1x1 <- inception_4a/output_inception_4a/output_0_split_1
I0906 00:29:20.276331 84751 net.cpp:433] inception_4b/1x1 -> inception_4b/1x1
I0906 00:29:20.277717 84751 net.cpp:155] Setting up inception_4b/1x1
I0906 00:29:20.277735 84751 net.cpp:163] Top shape: 32 160 14 14 (1003520)
I0906 00:29:20.277750 84751 layer_factory.hpp:76] Creating layer inception_4b/relu_1x1
I0906 00:29:20.277760 84751 net.cpp:110] Creating Layer inception_4b/relu_1x1
I0906 00:29:20.277768 84751 net.cpp:477] inception_4b/relu_1x1 <- inception_4b/1x1
I0906 00:29:20.277778 84751 net.cpp:419] inception_4b/relu_1x1 -> inception_4b/1x1 (in-place)
I0906 00:29:20.277791 84751 net.cpp:155] Setting up inception_4b/relu_1x1
I0906 00:29:20.277799 84751 net.cpp:163] Top shape: 32 160 14 14 (1003520)
I0906 00:29:20.277806 84751 layer_factory.hpp:76] Creating layer inception_4b/3x3_reduce
I0906 00:29:20.277817 84751 net.cpp:110] Creating Layer inception_4b/3x3_reduce
I0906 00:29:20.277824 84751 net.cpp:477] inception_4b/3x3_reduce <- inception_4a/output_inception_4a/output_0_split_2
I0906 00:29:20.277860 84751 net.cpp:433] inception_4b/3x3_reduce -> inception_4b/3x3_reduce
I0906 00:29:20.279755 84751 net.cpp:155] Setting up inception_4b/3x3_reduce
I0906 00:29:20.279780 84751 net.cpp:163] Top shape: 32 112 14 14 (702464)
I0906 00:29:20.279795 84751 layer_factory.hpp:76] Creating layer inception_4b/relu_3x3_reduce
I0906 00:29:20.279808 84751 net.cpp:110] Creating Layer inception_4b/relu_3x3_reduce
I0906 00:29:20.279815 84751 net.cpp:477] inception_4b/relu_3x3_reduce <- inception_4b/3x3_reduce
I0906 00:29:20.279826 84751 net.cpp:419] inception_4b/relu_3x3_reduce -> inception_4b/3x3_reduce (in-place)
I0906 00:29:20.279839 84751 net.cpp:155] Setting up inception_4b/relu_3x3_reduce
I0906 00:29:20.279849 84751 net.cpp:163] Top shape: 32 112 14 14 (702464)
I0906 00:29:20.279855 84751 layer_factory.hpp:76] Creating layer inception_4b/3x3
I0906 00:29:20.279868 84751 net.cpp:110] Creating Layer inception_4b/3x3
I0906 00:29:20.279875 84751 net.cpp:477] inception_4b/3x3 <- inception_4b/3x3_reduce
I0906 00:29:20.279886 84751 net.cpp:433] inception_4b/3x3 -> inception_4b/3x3
I0906 00:29:20.284505 84751 net.cpp:155] Setting up inception_4b/3x3
I0906 00:29:20.284538 84751 net.cpp:163] Top shape: 32 224 14 14 (1404928)
I0906 00:29:20.284553 84751 layer_factory.hpp:76] Creating layer inception_4b/relu_3x3
I0906 00:29:20.284564 84751 net.cpp:110] Creating Layer inception_4b/relu_3x3
I0906 00:29:20.284572 84751 net.cpp:477] inception_4b/relu_3x3 <- inception_4b/3x3
I0906 00:29:20.284584 84751 net.cpp:419] inception_4b/relu_3x3 -> inception_4b/3x3 (in-place)
I0906 00:29:20.284595 84751 net.cpp:155] Setting up inception_4b/relu_3x3
I0906 00:29:20.284605 84751 net.cpp:163] Top shape: 32 224 14 14 (1404928)
I0906 00:29:20.284611 84751 layer_factory.hpp:76] Creating layer inception_4b/5x5_reduce
I0906 00:29:20.284623 84751 net.cpp:110] Creating Layer inception_4b/5x5_reduce
I0906 00:29:20.284631 84751 net.cpp:477] inception_4b/5x5_reduce <- inception_4a/output_inception_4a/output_0_split_3
I0906 00:29:20.284642 84751 net.cpp:433] inception_4b/5x5_reduce -> inception_4b/5x5_reduce
I0906 00:29:20.284943 84751 net.cpp:155] Setting up inception_4b/5x5_reduce
I0906 00:29:20.284960 84751 net.cpp:163] Top shape: 32 24 14 14 (150528)
I0906 00:29:20.284972 84751 layer_factory.hpp:76] Creating layer inception_4b/relu_5x5_reduce
I0906 00:29:20.284981 84751 net.cpp:110] Creating Layer inception_4b/relu_5x5_reduce
I0906 00:29:20.284988 84751 net.cpp:477] inception_4b/relu_5x5_reduce <- inception_4b/5x5_reduce
I0906 00:29:20.284998 84751 net.cpp:419] inception_4b/relu_5x5_reduce -> inception_4b/5x5_reduce (in-place)
I0906 00:29:20.285011 84751 net.cpp:155] Setting up inception_4b/relu_5x5_reduce
I0906 00:29:20.285018 84751 net.cpp:163] Top shape: 32 24 14 14 (150528)
I0906 00:29:20.285025 84751 layer_factory.hpp:76] Creating layer inception_4b/5x5
I0906 00:29:20.285037 84751 net.cpp:110] Creating Layer inception_4b/5x5
I0906 00:29:20.285043 84751 net.cpp:477] inception_4b/5x5 <- inception_4b/5x5_reduce
I0906 00:29:20.285054 84751 net.cpp:433] inception_4b/5x5 -> inception_4b/5x5
I0906 00:29:20.285753 84751 net.cpp:155] Setting up inception_4b/5x5
I0906 00:29:20.285769 84751 net.cpp:163] Top shape: 32 64 14 14 (401408)
I0906 00:29:20.285780 84751 layer_factory.hpp:76] Creating layer inception_4b/relu_5x5
I0906 00:29:20.285790 84751 net.cpp:110] Creating Layer inception_4b/relu_5x5
I0906 00:29:20.285797 84751 net.cpp:477] inception_4b/relu_5x5 <- inception_4b/5x5
I0906 00:29:20.285809 84751 net.cpp:419] inception_4b/relu_5x5 -> inception_4b/5x5 (in-place)
I0906 00:29:20.285819 84751 net.cpp:155] Setting up inception_4b/relu_5x5
I0906 00:29:20.285827 84751 net.cpp:163] Top shape: 32 64 14 14 (401408)
I0906 00:29:20.285833 84751 layer_factory.hpp:76] Creating layer inception_4b/pool
I0906 00:29:20.285845 84751 net.cpp:110] Creating Layer inception_4b/pool
I0906 00:29:20.285851 84751 net.cpp:477] inception_4b/pool <- inception_4a/output_inception_4a/output_0_split_4
I0906 00:29:20.285862 84751 net.cpp:433] inception_4b/pool -> inception_4b/pool
I0906 00:29:20.285913 84751 net.cpp:155] Setting up inception_4b/pool
I0906 00:29:20.285925 84751 net.cpp:163] Top shape: 32 512 14 14 (3211264)
I0906 00:29:20.285933 84751 layer_factory.hpp:76] Creating layer inception_4b/pool_proj
I0906 00:29:20.285944 84751 net.cpp:110] Creating Layer inception_4b/pool_proj
I0906 00:29:20.285951 84751 net.cpp:477] inception_4b/pool_proj <- inception_4b/pool
I0906 00:29:20.285964 84751 net.cpp:433] inception_4b/pool_proj -> inception_4b/pool_proj
I0906 00:29:20.286577 84751 net.cpp:155] Setting up inception_4b/pool_proj
I0906 00:29:20.286594 84751 net.cpp:163] Top shape: 32 64 14 14 (401408)
I0906 00:29:20.286607 84751 layer_factory.hpp:76] Creating layer inception_4b/relu_pool_proj
I0906 00:29:20.286617 84751 net.cpp:110] Creating Layer inception_4b/relu_pool_proj
I0906 00:29:20.286624 84751 net.cpp:477] inception_4b/relu_pool_proj <- inception_4b/pool_proj
I0906 00:29:20.286634 84751 net.cpp:419] inception_4b/relu_pool_proj -> inception_4b/pool_proj (in-place)
I0906 00:29:20.286645 84751 net.cpp:155] Setting up inception_4b/relu_pool_proj
I0906 00:29:20.286653 84751 net.cpp:163] Top shape: 32 64 14 14 (401408)
I0906 00:29:20.286659 84751 layer_factory.hpp:76] Creating layer inception_4b/output
I0906 00:29:20.286671 84751 net.cpp:110] Creating Layer inception_4b/output
I0906 00:29:20.286677 84751 net.cpp:477] inception_4b/output <- inception_4b/1x1
I0906 00:29:20.286686 84751 net.cpp:477] inception_4b/output <- inception_4b/3x3
I0906 00:29:20.286695 84751 net.cpp:477] inception_4b/output <- inception_4b/5x5
I0906 00:29:20.286702 84751 net.cpp:477] inception_4b/output <- inception_4b/pool_proj
I0906 00:29:20.286712 84751 net.cpp:433] inception_4b/output -> inception_4b/output
I0906 00:29:20.286726 84751 net.cpp:155] Setting up inception_4b/output
I0906 00:29:20.286736 84751 net.cpp:163] Top shape: 32 512 14 14 (3211264)
I0906 00:29:20.286741 84751 layer_factory.hpp:76] Creating layer inception_4b/output_inception_4b/output_0_split
I0906 00:29:20.286752 84751 net.cpp:110] Creating Layer inception_4b/output_inception_4b/output_0_split
I0906 00:29:20.286759 84751 net.cpp:477] inception_4b/output_inception_4b/output_0_split <- inception_4b/output
I0906 00:29:20.286770 84751 net.cpp:433] inception_4b/output_inception_4b/output_0_split -> inception_4b/output_inception_4b/output_0_split_0
I0906 00:29:20.286783 84751 net.cpp:433] inception_4b/output_inception_4b/output_0_split -> inception_4b/output_inception_4b/output_0_split_1
I0906 00:29:20.286797 84751 net.cpp:433] inception_4b/output_inception_4b/output_0_split -> inception_4b/output_inception_4b/output_0_split_2
I0906 00:29:20.286810 84751 net.cpp:433] inception_4b/output_inception_4b/output_0_split -> inception_4b/output_inception_4b/output_0_split_3
I0906 00:29:20.286824 84751 net.cpp:155] Setting up inception_4b/output_inception_4b/output_0_split
I0906 00:29:20.286834 84751 net.cpp:163] Top shape: 32 512 14 14 (3211264)
I0906 00:29:20.286841 84751 net.cpp:163] Top shape: 32 512 14 14 (3211264)
I0906 00:29:20.286849 84751 net.cpp:163] Top shape: 32 512 14 14 (3211264)
I0906 00:29:20.286856 84751 net.cpp:163] Top shape: 32 512 14 14 (3211264)
I0906 00:29:20.286864 84751 layer_factory.hpp:76] Creating layer inception_4c/1x1
I0906 00:29:20.286875 84751 net.cpp:110] Creating Layer inception_4c/1x1
I0906 00:29:20.286882 84751 net.cpp:477] inception_4c/1x1 <- inception_4b/output_inception_4b/output_0_split_0
I0906 00:29:20.286893 84751 net.cpp:433] inception_4c/1x1 -> inception_4c/1x1
I0906 00:29:20.288018 84751 net.cpp:155] Setting up inception_4c/1x1
I0906 00:29:20.288043 84751 net.cpp:163] Top shape: 32 128 14 14 (802816)
I0906 00:29:20.288055 84751 layer_factory.hpp:76] Creating layer inception_4c/relu_1x1
I0906 00:29:20.288066 84751 net.cpp:110] Creating Layer inception_4c/relu_1x1
I0906 00:29:20.288074 84751 net.cpp:477] inception_4c/relu_1x1 <- inception_4c/1x1
I0906 00:29:20.288084 84751 net.cpp:419] inception_4c/relu_1x1 -> inception_4c/1x1 (in-place)
I0906 00:29:20.288094 84751 net.cpp:155] Setting up inception_4c/relu_1x1
I0906 00:29:20.288121 84751 net.cpp:163] Top shape: 32 128 14 14 (802816)
I0906 00:29:20.288130 84751 layer_factory.hpp:76] Creating layer inception_4c/3x3_reduce
I0906 00:29:20.288141 84751 net.cpp:110] Creating Layer inception_4c/3x3_reduce
I0906 00:29:20.288148 84751 net.cpp:477] inception_4c/3x3_reduce <- inception_4b/output_inception_4b/output_0_split_1
I0906 00:29:20.288161 84751 net.cpp:433] inception_4c/3x3_reduce -> inception_4c/3x3_reduce
I0906 00:29:20.289348 84751 net.cpp:155] Setting up inception_4c/3x3_reduce
I0906 00:29:20.289365 84751 net.cpp:163] Top shape: 32 128 14 14 (802816)
I0906 00:29:20.289376 84751 layer_factory.hpp:76] Creating layer inception_4c/relu_3x3_reduce
I0906 00:29:20.289387 84751 net.cpp:110] Creating Layer inception_4c/relu_3x3_reduce
I0906 00:29:20.289397 84751 net.cpp:477] inception_4c/relu_3x3_reduce <- inception_4c/3x3_reduce
I0906 00:29:20.289407 84751 net.cpp:419] inception_4c/relu_3x3_reduce -> inception_4c/3x3_reduce (in-place)
I0906 00:29:20.289417 84751 net.cpp:155] Setting up inception_4c/relu_3x3_reduce
I0906 00:29:20.289425 84751 net.cpp:163] Top shape: 32 128 14 14 (802816)
I0906 00:29:20.289432 84751 layer_factory.hpp:76] Creating layer inception_4c/3x3
I0906 00:29:20.289443 84751 net.cpp:110] Creating Layer inception_4c/3x3
I0906 00:29:20.289449 84751 net.cpp:477] inception_4c/3x3 <- inception_4c/3x3_reduce
I0906 00:29:20.289459 84751 net.cpp:433] inception_4c/3x3 -> inception_4c/3x3
I0906 00:29:20.295186 84751 net.cpp:155] Setting up inception_4c/3x3
I0906 00:29:20.295212 84751 net.cpp:163] Top shape: 32 256 14 14 (1605632)
I0906 00:29:20.295244 84751 layer_factory.hpp:76] Creating layer inception_4c/relu_3x3
I0906 00:29:20.295256 84751 net.cpp:110] Creating Layer inception_4c/relu_3x3
I0906 00:29:20.295269 84751 net.cpp:477] inception_4c/relu_3x3 <- inception_4c/3x3
I0906 00:29:20.295279 84751 net.cpp:419] inception_4c/relu_3x3 -> inception_4c/3x3 (in-place)
I0906 00:29:20.295294 84751 net.cpp:155] Setting up inception_4c/relu_3x3
I0906 00:29:20.295302 84751 net.cpp:163] Top shape: 32 256 14 14 (1605632)
I0906 00:29:20.295310 84751 layer_factory.hpp:76] Creating layer inception_4c/5x5_reduce
I0906 00:29:20.295322 84751 net.cpp:110] Creating Layer inception_4c/5x5_reduce
I0906 00:29:20.295330 84751 net.cpp:477] inception_4c/5x5_reduce <- inception_4b/output_inception_4b/output_0_split_2
I0906 00:29:20.295342 84751 net.cpp:433] inception_4c/5x5_reduce -> inception_4c/5x5_reduce
I0906 00:29:20.295644 84751 net.cpp:155] Setting up inception_4c/5x5_reduce
I0906 00:29:20.295660 84751 net.cpp:163] Top shape: 32 24 14 14 (150528)
I0906 00:29:20.295686 84751 layer_factory.hpp:76] Creating layer inception_4c/relu_5x5_reduce
I0906 00:29:20.295697 84751 net.cpp:110] Creating Layer inception_4c/relu_5x5_reduce
I0906 00:29:20.295706 84751 net.cpp:477] inception_4c/relu_5x5_reduce <- inception_4c/5x5_reduce
I0906 00:29:20.295717 84751 net.cpp:419] inception_4c/relu_5x5_reduce -> inception_4c/5x5_reduce (in-place)
I0906 00:29:20.295727 84751 net.cpp:155] Setting up inception_4c/relu_5x5_reduce
I0906 00:29:20.295737 84751 net.cpp:163] Top shape: 32 24 14 14 (150528)
I0906 00:29:20.295742 84751 layer_factory.hpp:76] Creating layer inception_4c/5x5
I0906 00:29:20.295754 84751 net.cpp:110] Creating Layer inception_4c/5x5
I0906 00:29:20.295760 84751 net.cpp:477] inception_4c/5x5 <- inception_4c/5x5_reduce
I0906 00:29:20.295771 84751 net.cpp:433] inception_4c/5x5 -> inception_4c/5x5
I0906 00:29:20.297335 84751 net.cpp:155] Setting up inception_4c/5x5
I0906 00:29:20.297365 84751 net.cpp:163] Top shape: 32 64 14 14 (401408)
I0906 00:29:20.297379 84751 layer_factory.hpp:76] Creating layer inception_4c/relu_5x5
I0906 00:29:20.297391 84751 net.cpp:110] Creating Layer inception_4c/relu_5x5
I0906 00:29:20.297399 84751 net.cpp:477] inception_4c/relu_5x5 <- inception_4c/5x5
I0906 00:29:20.297417 84751 net.cpp:419] inception_4c/relu_5x5 -> inception_4c/5x5 (in-place)
I0906 00:29:20.297430 84751 net.cpp:155] Setting up inception_4c/relu_5x5
I0906 00:29:20.297438 84751 net.cpp:163] Top shape: 32 64 14 14 (401408)
I0906 00:29:20.297466 84751 layer_factory.hpp:76] Creating layer inception_4c/pool
I0906 00:29:20.297478 84751 net.cpp:110] Creating Layer inception_4c/pool
I0906 00:29:20.297487 84751 net.cpp:477] inception_4c/pool <- inception_4b/output_inception_4b/output_0_split_3
I0906 00:29:20.297498 84751 net.cpp:433] inception_4c/pool -> inception_4c/pool
I0906 00:29:20.297514 84751 net.cpp:155] Setting up inception_4c/pool
I0906 00:29:20.297523 84751 net.cpp:163] Top shape: 32 512 14 14 (3211264)
I0906 00:29:20.297530 84751 layer_factory.hpp:76] Creating layer inception_4c/pool_proj
I0906 00:29:20.297544 84751 net.cpp:110] Creating Layer inception_4c/pool_proj
I0906 00:29:20.297550 84751 net.cpp:477] inception_4c/pool_proj <- inception_4c/pool
I0906 00:29:20.297564 84751 net.cpp:433] inception_4c/pool_proj -> inception_4c/pool_proj
I0906 00:29:20.298177 84751 net.cpp:155] Setting up inception_4c/pool_proj
I0906 00:29:20.298193 84751 net.cpp:163] Top shape: 32 64 14 14 (401408)
I0906 00:29:20.298210 84751 layer_factory.hpp:76] Creating layer inception_4c/relu_pool_proj
I0906 00:29:20.298220 84751 net.cpp:110] Creating Layer inception_4c/relu_pool_proj
I0906 00:29:20.298228 84751 net.cpp:477] inception_4c/relu_pool_proj <- inception_4c/pool_proj
I0906 00:29:20.298238 84751 net.cpp:419] inception_4c/relu_pool_proj -> inception_4c/pool_proj (in-place)
I0906 00:29:20.298250 84751 net.cpp:155] Setting up inception_4c/relu_pool_proj
I0906 00:29:20.298259 84751 net.cpp:163] Top shape: 32 64 14 14 (401408)
I0906 00:29:20.298265 84751 layer_factory.hpp:76] Creating layer inception_4c/output
I0906 00:29:20.298275 84751 net.cpp:110] Creating Layer inception_4c/output
I0906 00:29:20.298284 84751 net.cpp:477] inception_4c/output <- inception_4c/1x1
I0906 00:29:20.298291 84751 net.cpp:477] inception_4c/output <- inception_4c/3x3
I0906 00:29:20.298300 84751 net.cpp:477] inception_4c/output <- inception_4c/5x5
I0906 00:29:20.298307 84751 net.cpp:477] inception_4c/output <- inception_4c/pool_proj
I0906 00:29:20.298317 84751 net.cpp:433] inception_4c/output -> inception_4c/output
I0906 00:29:20.298331 84751 net.cpp:155] Setting up inception_4c/output
I0906 00:29:20.298341 84751 net.cpp:163] Top shape: 32 512 14 14 (3211264)
I0906 00:29:20.298346 84751 layer_factory.hpp:76] Creating layer inception_4c/output_inception_4c/output_0_split
I0906 00:29:20.298357 84751 net.cpp:110] Creating Layer inception_4c/output_inception_4c/output_0_split
I0906 00:29:20.298364 84751 net.cpp:477] inception_4c/output_inception_4c/output_0_split <- inception_4c/output
I0906 00:29:20.298375 84751 net.cpp:433] inception_4c/output_inception_4c/output_0_split -> inception_4c/output_inception_4c/output_0_split_0
I0906 00:29:20.298388 84751 net.cpp:433] inception_4c/output_inception_4c/output_0_split -> inception_4c/output_inception_4c/output_0_split_1
I0906 00:29:20.298401 84751 net.cpp:433] inception_4c/output_inception_4c/output_0_split -> inception_4c/output_inception_4c/output_0_split_2
I0906 00:29:20.298413 84751 net.cpp:433] inception_4c/output_inception_4c/output_0_split -> inception_4c/output_inception_4c/output_0_split_3
I0906 00:29:20.298426 84751 net.cpp:155] Setting up inception_4c/output_inception_4c/output_0_split
I0906 00:29:20.298435 84751 net.cpp:163] Top shape: 32 512 14 14 (3211264)
I0906 00:29:20.298444 84751 net.cpp:163] Top shape: 32 512 14 14 (3211264)
I0906 00:29:20.298450 84751 net.cpp:163] Top shape: 32 512 14 14 (3211264)
I0906 00:29:20.298459 84751 net.cpp:163] Top shape: 32 512 14 14 (3211264)
I0906 00:29:20.298465 84751 layer_factory.hpp:76] Creating layer inception_4d/1x1
I0906 00:29:20.298476 84751 net.cpp:110] Creating Layer inception_4d/1x1
I0906 00:29:20.298483 84751 net.cpp:477] inception_4d/1x1 <- inception_4c/output_inception_4c/output_0_split_0
I0906 00:29:20.298496 84751 net.cpp:433] inception_4d/1x1 -> inception_4d/1x1
I0906 00:29:20.299494 84751 net.cpp:155] Setting up inception_4d/1x1
I0906 00:29:20.299511 84751 net.cpp:163] Top shape: 32 112 14 14 (702464)
I0906 00:29:20.299530 84751 layer_factory.hpp:76] Creating layer inception_4d/relu_1x1
I0906 00:29:20.299556 84751 net.cpp:110] Creating Layer inception_4d/relu_1x1
I0906 00:29:20.299564 84751 net.cpp:477] inception_4d/relu_1x1 <- inception_4d/1x1
I0906 00:29:20.299576 84751 net.cpp:419] inception_4d/relu_1x1 -> inception_4d/1x1 (in-place)
I0906 00:29:20.299587 84751 net.cpp:155] Setting up inception_4d/relu_1x1
I0906 00:29:20.299597 84751 net.cpp:163] Top shape: 32 112 14 14 (702464)
I0906 00:29:20.299603 84751 layer_factory.hpp:76] Creating layer inception_4d/3x3_reduce
I0906 00:29:20.299615 84751 net.cpp:110] Creating Layer inception_4d/3x3_reduce
I0906 00:29:20.299621 84751 net.cpp:477] inception_4d/3x3_reduce <- inception_4c/output_inception_4c/output_0_split_1
I0906 00:29:20.299633 84751 net.cpp:433] inception_4d/3x3_reduce -> inception_4d/3x3_reduce
I0906 00:29:20.300909 84751 net.cpp:155] Setting up inception_4d/3x3_reduce
I0906 00:29:20.300927 84751 net.cpp:163] Top shape: 32 144 14 14 (903168)
I0906 00:29:20.300942 84751 layer_factory.hpp:76] Creating layer inception_4d/relu_3x3_reduce
I0906 00:29:20.300953 84751 net.cpp:110] Creating Layer inception_4d/relu_3x3_reduce
I0906 00:29:20.300961 84751 net.cpp:477] inception_4d/relu_3x3_reduce <- inception_4d/3x3_reduce
I0906 00:29:20.300972 84751 net.cpp:419] inception_4d/relu_3x3_reduce -> inception_4d/3x3_reduce (in-place)
I0906 00:29:20.300983 84751 net.cpp:155] Setting up inception_4d/relu_3x3_reduce
I0906 00:29:20.300992 84751 net.cpp:163] Top shape: 32 144 14 14 (903168)
I0906 00:29:20.300998 84751 layer_factory.hpp:76] Creating layer inception_4d/3x3
I0906 00:29:20.301010 84751 net.cpp:110] Creating Layer inception_4d/3x3
I0906 00:29:20.301017 84751 net.cpp:477] inception_4d/3x3 <- inception_4d/3x3_reduce
I0906 00:29:20.301028 84751 net.cpp:433] inception_4d/3x3 -> inception_4d/3x3
I0906 00:29:20.308145 84751 net.cpp:155] Setting up inception_4d/3x3
I0906 00:29:20.308177 84751 net.cpp:163] Top shape: 32 288 14 14 (1806336)
I0906 00:29:20.308192 84751 layer_factory.hpp:76] Creating layer inception_4d/relu_3x3
I0906 00:29:20.308204 84751 net.cpp:110] Creating Layer inception_4d/relu_3x3
I0906 00:29:20.308212 84751 net.cpp:477] inception_4d/relu_3x3 <- inception_4d/3x3
I0906 00:29:20.308223 84751 net.cpp:419] inception_4d/relu_3x3 -> inception_4d/3x3 (in-place)
I0906 00:29:20.308235 84751 net.cpp:155] Setting up inception_4d/relu_3x3
I0906 00:29:20.308243 84751 net.cpp:163] Top shape: 32 288 14 14 (1806336)
I0906 00:29:20.308250 84751 layer_factory.hpp:76] Creating layer inception_4d/5x5_reduce
I0906 00:29:20.308262 84751 net.cpp:110] Creating Layer inception_4d/5x5_reduce
I0906 00:29:20.308269 84751 net.cpp:477] inception_4d/5x5_reduce <- inception_4c/output_inception_4c/output_0_split_2
I0906 00:29:20.308284 84751 net.cpp:433] inception_4d/5x5_reduce -> inception_4d/5x5_reduce
I0906 00:29:20.308658 84751 net.cpp:155] Setting up inception_4d/5x5_reduce
I0906 00:29:20.308673 84751 net.cpp:163] Top shape: 32 32 14 14 (200704)
I0906 00:29:20.308686 84751 layer_factory.hpp:76] Creating layer inception_4d/relu_5x5_reduce
I0906 00:29:20.308696 84751 net.cpp:110] Creating Layer inception_4d/relu_5x5_reduce
I0906 00:29:20.308703 84751 net.cpp:477] inception_4d/relu_5x5_reduce <- inception_4d/5x5_reduce
I0906 00:29:20.308713 84751 net.cpp:419] inception_4d/relu_5x5_reduce -> inception_4d/5x5_reduce (in-place)
I0906 00:29:20.308724 84751 net.cpp:155] Setting up inception_4d/relu_5x5_reduce
I0906 00:29:20.308732 84751 net.cpp:163] Top shape: 32 32 14 14 (200704)
I0906 00:29:20.308739 84751 layer_factory.hpp:76] Creating layer inception_4d/5x5
I0906 00:29:20.308753 84751 net.cpp:110] Creating Layer inception_4d/5x5
I0906 00:29:20.308760 84751 net.cpp:477] inception_4d/5x5 <- inception_4d/5x5_reduce
I0906 00:29:20.308770 84751 net.cpp:433] inception_4d/5x5 -> inception_4d/5x5
I0906 00:29:20.309674 84751 net.cpp:155] Setting up inception_4d/5x5
I0906 00:29:20.309689 84751 net.cpp:163] Top shape: 32 64 14 14 (401408)
I0906 00:29:20.309703 84751 layer_factory.hpp:76] Creating layer inception_4d/relu_5x5
I0906 00:29:20.309733 84751 net.cpp:110] Creating Layer inception_4d/relu_5x5
I0906 00:29:20.309741 84751 net.cpp:477] inception_4d/relu_5x5 <- inception_4d/5x5
I0906 00:29:20.309752 84751 net.cpp:419] inception_4d/relu_5x5 -> inception_4d/5x5 (in-place)
I0906 00:29:20.309763 84751 net.cpp:155] Setting up inception_4d/relu_5x5
I0906 00:29:20.309772 84751 net.cpp:163] Top shape: 32 64 14 14 (401408)
I0906 00:29:20.309779 84751 layer_factory.hpp:76] Creating layer inception_4d/pool
I0906 00:29:20.309793 84751 net.cpp:110] Creating Layer inception_4d/pool
I0906 00:29:20.309800 84751 net.cpp:477] inception_4d/pool <- inception_4c/output_inception_4c/output_0_split_3
I0906 00:29:20.309811 84751 net.cpp:433] inception_4d/pool -> inception_4d/pool
I0906 00:29:20.309828 84751 net.cpp:155] Setting up inception_4d/pool
I0906 00:29:20.309836 84751 net.cpp:163] Top shape: 32 512 14 14 (3211264)
I0906 00:29:20.309842 84751 layer_factory.hpp:76] Creating layer inception_4d/pool_proj
I0906 00:29:20.309854 84751 net.cpp:110] Creating Layer inception_4d/pool_proj
I0906 00:29:20.309861 84751 net.cpp:477] inception_4d/pool_proj <- inception_4d/pool
I0906 00:29:20.309875 84751 net.cpp:433] inception_4d/pool_proj -> inception_4d/pool_proj
I0906 00:29:20.310503 84751 net.cpp:155] Setting up inception_4d/pool_proj
I0906 00:29:20.310520 84751 net.cpp:163] Top shape: 32 64 14 14 (401408)
I0906 00:29:20.310534 84751 layer_factory.hpp:76] Creating layer inception_4d/relu_pool_proj
I0906 00:29:20.310544 84751 net.cpp:110] Creating Layer inception_4d/relu_pool_proj
I0906 00:29:20.310551 84751 net.cpp:477] inception_4d/relu_pool_proj <- inception_4d/pool_proj
I0906 00:29:20.310560 84751 net.cpp:419] inception_4d/relu_pool_proj -> inception_4d/pool_proj (in-place)
I0906 00:29:20.310571 84751 net.cpp:155] Setting up inception_4d/relu_pool_proj
I0906 00:29:20.310580 84751 net.cpp:163] Top shape: 32 64 14 14 (401408)
I0906 00:29:20.310586 84751 layer_factory.hpp:76] Creating layer inception_4d/output
I0906 00:29:20.310596 84751 net.cpp:110] Creating Layer inception_4d/output
I0906 00:29:20.310603 84751 net.cpp:477] inception_4d/output <- inception_4d/1x1
I0906 00:29:20.310612 84751 net.cpp:477] inception_4d/output <- inception_4d/3x3
I0906 00:29:20.310619 84751 net.cpp:477] inception_4d/output <- inception_4d/5x5
I0906 00:29:20.310627 84751 net.cpp:477] inception_4d/output <- inception_4d/pool_proj
I0906 00:29:20.310636 84751 net.cpp:433] inception_4d/output -> inception_4d/output
I0906 00:29:20.310650 84751 net.cpp:155] Setting up inception_4d/output
I0906 00:29:20.310658 84751 net.cpp:163] Top shape: 32 528 14 14 (3311616)
I0906 00:29:20.310665 84751 layer_factory.hpp:76] Creating layer inception_4d/output_inception_4d/output_0_split
I0906 00:29:20.310678 84751 net.cpp:110] Creating Layer inception_4d/output_inception_4d/output_0_split
I0906 00:29:20.310685 84751 net.cpp:477] inception_4d/output_inception_4d/output_0_split <- inception_4d/output
I0906 00:29:20.310696 84751 net.cpp:433] inception_4d/output_inception_4d/output_0_split -> inception_4d/output_inception_4d/output_0_split_0
I0906 00:29:20.310709 84751 net.cpp:433] inception_4d/output_inception_4d/output_0_split -> inception_4d/output_inception_4d/output_0_split_1
I0906 00:29:20.310722 84751 net.cpp:433] inception_4d/output_inception_4d/output_0_split -> inception_4d/output_inception_4d/output_0_split_2
I0906 00:29:20.310735 84751 net.cpp:433] inception_4d/output_inception_4d/output_0_split -> inception_4d/output_inception_4d/output_0_split_3
I0906 00:29:20.310746 84751 net.cpp:433] inception_4d/output_inception_4d/output_0_split -> inception_4d/output_inception_4d/output_0_split_4
I0906 00:29:20.310761 84751 net.cpp:155] Setting up inception_4d/output_inception_4d/output_0_split
I0906 00:29:20.310770 84751 net.cpp:163] Top shape: 32 528 14 14 (3311616)
I0906 00:29:20.310777 84751 net.cpp:163] Top shape: 32 528 14 14 (3311616)
I0906 00:29:20.310786 84751 net.cpp:163] Top shape: 32 528 14 14 (3311616)
I0906 00:29:20.310793 84751 net.cpp:163] Top shape: 32 528 14 14 (3311616)
I0906 00:29:20.310801 84751 net.cpp:163] Top shape: 32 528 14 14 (3311616)
I0906 00:29:20.310822 84751 layer_factory.hpp:76] Creating layer loss2/ave_pool
I0906 00:29:20.310833 84751 net.cpp:110] Creating Layer loss2/ave_pool
I0906 00:29:20.310840 84751 net.cpp:477] loss2/ave_pool <- inception_4d/output_inception_4d/output_0_split_0
I0906 00:29:20.310854 84751 net.cpp:433] loss2/ave_pool -> loss2/ave_pool
I0906 00:29:20.310868 84751 net.cpp:155] Setting up loss2/ave_pool
I0906 00:29:20.310878 84751 net.cpp:163] Top shape: 32 528 4 4 (270336)
I0906 00:29:20.310884 84751 layer_factory.hpp:76] Creating layer loss2/conv
I0906 00:29:20.310896 84751 net.cpp:110] Creating Layer loss2/conv
I0906 00:29:20.310904 84751 net.cpp:477] loss2/conv <- loss2/ave_pool
I0906 00:29:20.310914 84751 net.cpp:433] loss2/conv -> loss2/conv
I0906 00:29:20.312973 84751 net.cpp:155] Setting up loss2/conv
I0906 00:29:20.312999 84751 net.cpp:163] Top shape: 32 128 4 4 (65536)
I0906 00:29:20.313014 84751 layer_factory.hpp:76] Creating layer loss2/relu_conv
I0906 00:29:20.313024 84751 net.cpp:110] Creating Layer loss2/relu_conv
I0906 00:29:20.313032 84751 net.cpp:477] loss2/relu_conv <- loss2/conv
I0906 00:29:20.313043 84751 net.cpp:419] loss2/relu_conv -> loss2/conv (in-place)
I0906 00:29:20.313055 84751 net.cpp:155] Setting up loss2/relu_conv
I0906 00:29:20.313065 84751 net.cpp:163] Top shape: 32 128 4 4 (65536)
I0906 00:29:20.313071 84751 layer_factory.hpp:76] Creating layer loss2/fc
I0906 00:29:20.313084 84751 net.cpp:110] Creating Layer loss2/fc
I0906 00:29:20.313091 84751 net.cpp:477] loss2/fc <- loss2/conv
I0906 00:29:20.313105 84751 net.cpp:433] loss2/fc -> loss2/fc
I0906 00:29:20.351750 84751 net.cpp:155] Setting up loss2/fc
I0906 00:29:20.351783 84751 net.cpp:163] Top shape: 32 1024 (32768)
I0906 00:29:20.351799 84751 layer_factory.hpp:76] Creating layer loss2/relu_fc
I0906 00:29:20.351814 84751 net.cpp:110] Creating Layer loss2/relu_fc
I0906 00:29:20.351824 84751 net.cpp:477] loss2/relu_fc <- loss2/fc
I0906 00:29:20.351838 84751 net.cpp:419] loss2/relu_fc -> loss2/fc (in-place)
I0906 00:29:20.351851 84751 net.cpp:155] Setting up loss2/relu_fc
I0906 00:29:20.351861 84751 net.cpp:163] Top shape: 32 1024 (32768)
I0906 00:29:20.351867 84751 layer_factory.hpp:76] Creating layer loss2/drop_fc
I0906 00:29:20.351878 84751 net.cpp:110] Creating Layer loss2/drop_fc
I0906 00:29:20.351886 84751 net.cpp:477] loss2/drop_fc <- loss2/fc
I0906 00:29:20.351894 84751 net.cpp:419] loss2/drop_fc -> loss2/fc (in-place)
I0906 00:29:20.351907 84751 net.cpp:155] Setting up loss2/drop_fc
I0906 00:29:20.351915 84751 net.cpp:163] Top shape: 32 1024 (32768)
I0906 00:29:20.351922 84751 layer_factory.hpp:76] Creating layer loss2/classifier_cub
I0906 00:29:20.351934 84751 net.cpp:110] Creating Layer loss2/classifier_cub
I0906 00:29:20.351940 84751 net.cpp:477] loss2/classifier_cub <- loss2/fc
I0906 00:29:20.351954 84751 net.cpp:433] loss2/classifier_cub -> loss2/classifier
I0906 00:29:20.367416 84751 net.cpp:155] Setting up loss2/classifier_cub
I0906 00:29:20.367447 84751 net.cpp:163] Top shape: 32 200 (6400)
I0906 00:29:20.367468 84751 layer_factory.hpp:76] Creating layer loss2/loss
I0906 00:29:20.367481 84751 net.cpp:110] Creating Layer loss2/loss
I0906 00:29:20.367490 84751 net.cpp:477] loss2/loss <- loss2/classifier
I0906 00:29:20.367499 84751 net.cpp:477] loss2/loss <- label_data_1_split_1
I0906 00:29:20.367518 84751 net.cpp:433] loss2/loss -> loss2/loss1
I0906 00:29:20.367535 84751 layer_factory.hpp:76] Creating layer loss2/loss
I0906 00:29:20.367651 84751 net.cpp:155] Setting up loss2/loss
I0906 00:29:20.367666 84751 net.cpp:163] Top shape: (1)
I0906 00:29:20.367682 84751 net.cpp:168]     with loss weight 0.3
I0906 00:29:20.367698 84751 layer_factory.hpp:76] Creating layer inception_4e/1x1
I0906 00:29:20.367712 84751 net.cpp:110] Creating Layer inception_4e/1x1
I0906 00:29:20.367719 84751 net.cpp:477] inception_4e/1x1 <- inception_4d/output_inception_4d/output_0_split_1
I0906 00:29:20.367734 84751 net.cpp:433] inception_4e/1x1 -> inception_4e/1x1
I0906 00:29:20.369956 84751 net.cpp:155] Setting up inception_4e/1x1
I0906 00:29:20.369997 84751 net.cpp:163] Top shape: 32 256 14 14 (1605632)
I0906 00:29:20.370012 84751 layer_factory.hpp:76] Creating layer inception_4e/relu_1x1
I0906 00:29:20.370023 84751 net.cpp:110] Creating Layer inception_4e/relu_1x1
I0906 00:29:20.370030 84751 net.cpp:477] inception_4e/relu_1x1 <- inception_4e/1x1
I0906 00:29:20.370041 84751 net.cpp:419] inception_4e/relu_1x1 -> inception_4e/1x1 (in-place)
I0906 00:29:20.370059 84751 net.cpp:155] Setting up inception_4e/relu_1x1
I0906 00:29:20.370069 84751 net.cpp:163] Top shape: 32 256 14 14 (1605632)
I0906 00:29:20.370075 84751 layer_factory.hpp:76] Creating layer inception_4e/3x3_reduce
I0906 00:29:20.370087 84751 net.cpp:110] Creating Layer inception_4e/3x3_reduce
I0906 00:29:20.370095 84751 net.cpp:477] inception_4e/3x3_reduce <- inception_4d/output_inception_4d/output_0_split_2
I0906 00:29:20.370110 84751 net.cpp:433] inception_4e/3x3_reduce -> inception_4e/3x3_reduce
I0906 00:29:20.372439 84751 net.cpp:155] Setting up inception_4e/3x3_reduce
I0906 00:29:20.372465 84751 net.cpp:163] Top shape: 32 160 14 14 (1003520)
I0906 00:29:20.372479 84751 layer_factory.hpp:76] Creating layer inception_4e/relu_3x3_reduce
I0906 00:29:20.372490 84751 net.cpp:110] Creating Layer inception_4e/relu_3x3_reduce
I0906 00:29:20.372498 84751 net.cpp:477] inception_4e/relu_3x3_reduce <- inception_4e/3x3_reduce
I0906 00:29:20.372514 84751 net.cpp:419] inception_4e/relu_3x3_reduce -> inception_4e/3x3_reduce (in-place)
I0906 00:29:20.372534 84751 net.cpp:155] Setting up inception_4e/relu_3x3_reduce
I0906 00:29:20.372542 84751 net.cpp:163] Top shape: 32 160 14 14 (1003520)
I0906 00:29:20.372550 84751 layer_factory.hpp:76] Creating layer inception_4e/3x3
I0906 00:29:20.372561 84751 net.cpp:110] Creating Layer inception_4e/3x3
I0906 00:29:20.372568 84751 net.cpp:477] inception_4e/3x3 <- inception_4e/3x3_reduce
I0906 00:29:20.372578 84751 net.cpp:433] inception_4e/3x3 -> inception_4e/3x3
I0906 00:29:20.381379 84751 net.cpp:155] Setting up inception_4e/3x3
I0906 00:29:20.381412 84751 net.cpp:163] Top shape: 32 320 14 14 (2007040)
I0906 00:29:20.381428 84751 layer_factory.hpp:76] Creating layer inception_4e/relu_3x3
I0906 00:29:20.381439 84751 net.cpp:110] Creating Layer inception_4e/relu_3x3
I0906 00:29:20.381446 84751 net.cpp:477] inception_4e/relu_3x3 <- inception_4e/3x3
I0906 00:29:20.381458 84751 net.cpp:419] inception_4e/relu_3x3 -> inception_4e/3x3 (in-place)
I0906 00:29:20.381474 84751 net.cpp:155] Setting up inception_4e/relu_3x3
I0906 00:29:20.381484 84751 net.cpp:163] Top shape: 32 320 14 14 (2007040)
I0906 00:29:20.381489 84751 layer_factory.hpp:76] Creating layer inception_4e/5x5_reduce
I0906 00:29:20.381501 84751 net.cpp:110] Creating Layer inception_4e/5x5_reduce
I0906 00:29:20.381508 84751 net.cpp:477] inception_4e/5x5_reduce <- inception_4d/output_inception_4d/output_0_split_3
I0906 00:29:20.381523 84751 net.cpp:433] inception_4e/5x5_reduce -> inception_4e/5x5_reduce
I0906 00:29:20.381901 84751 net.cpp:155] Setting up inception_4e/5x5_reduce
I0906 00:29:20.381916 84751 net.cpp:163] Top shape: 32 32 14 14 (200704)
I0906 00:29:20.381932 84751 layer_factory.hpp:76] Creating layer inception_4e/relu_5x5_reduce
I0906 00:29:20.381942 84751 net.cpp:110] Creating Layer inception_4e/relu_5x5_reduce
I0906 00:29:20.381948 84751 net.cpp:477] inception_4e/relu_5x5_reduce <- inception_4e/5x5_reduce
I0906 00:29:20.381958 84751 net.cpp:419] inception_4e/relu_5x5_reduce -> inception_4e/5x5_reduce (in-place)
I0906 00:29:20.381969 84751 net.cpp:155] Setting up inception_4e/relu_5x5_reduce
I0906 00:29:20.381978 84751 net.cpp:163] Top shape: 32 32 14 14 (200704)
I0906 00:29:20.381983 84751 layer_factory.hpp:76] Creating layer inception_4e/5x5
I0906 00:29:20.382019 84751 net.cpp:110] Creating Layer inception_4e/5x5
I0906 00:29:20.382026 84751 net.cpp:477] inception_4e/5x5 <- inception_4e/5x5_reduce
I0906 00:29:20.382040 84751 net.cpp:433] inception_4e/5x5 -> inception_4e/5x5
I0906 00:29:20.383776 84751 net.cpp:155] Setting up inception_4e/5x5
I0906 00:29:20.383795 84751 net.cpp:163] Top shape: 32 128 14 14 (802816)
I0906 00:29:20.383834 84751 layer_factory.hpp:76] Creating layer inception_4e/relu_5x5
I0906 00:29:20.383846 84751 net.cpp:110] Creating Layer inception_4e/relu_5x5
I0906 00:29:20.383859 84751 net.cpp:477] inception_4e/relu_5x5 <- inception_4e/5x5
I0906 00:29:20.383869 84751 net.cpp:419] inception_4e/relu_5x5 -> inception_4e/5x5 (in-place)
I0906 00:29:20.383882 84751 net.cpp:155] Setting up inception_4e/relu_5x5
I0906 00:29:20.383890 84751 net.cpp:163] Top shape: 32 128 14 14 (802816)
I0906 00:29:20.383898 84751 layer_factory.hpp:76] Creating layer inception_4e/pool
I0906 00:29:20.383908 84751 net.cpp:110] Creating Layer inception_4e/pool
I0906 00:29:20.383914 84751 net.cpp:477] inception_4e/pool <- inception_4d/output_inception_4d/output_0_split_4
I0906 00:29:20.383925 84751 net.cpp:433] inception_4e/pool -> inception_4e/pool
I0906 00:29:20.383941 84751 net.cpp:155] Setting up inception_4e/pool
I0906 00:29:20.383950 84751 net.cpp:163] Top shape: 32 528 14 14 (3311616)
I0906 00:29:20.383956 84751 layer_factory.hpp:76] Creating layer inception_4e/pool_proj
I0906 00:29:20.383972 84751 net.cpp:110] Creating Layer inception_4e/pool_proj
I0906 00:29:20.383980 84751 net.cpp:477] inception_4e/pool_proj <- inception_4e/pool
I0906 00:29:20.383993 84751 net.cpp:433] inception_4e/pool_proj -> inception_4e/pool_proj
I0906 00:29:20.385164 84751 net.cpp:155] Setting up inception_4e/pool_proj
I0906 00:29:20.385182 84751 net.cpp:163] Top shape: 32 128 14 14 (802816)
I0906 00:29:20.385200 84751 layer_factory.hpp:76] Creating layer inception_4e/relu_pool_proj
I0906 00:29:20.385210 84751 net.cpp:110] Creating Layer inception_4e/relu_pool_proj
I0906 00:29:20.385217 84751 net.cpp:477] inception_4e/relu_pool_proj <- inception_4e/pool_proj
I0906 00:29:20.385231 84751 net.cpp:419] inception_4e/relu_pool_proj -> inception_4e/pool_proj (in-place)
I0906 00:29:20.385242 84751 net.cpp:155] Setting up inception_4e/relu_pool_proj
I0906 00:29:20.385251 84751 net.cpp:163] Top shape: 32 128 14 14 (802816)
I0906 00:29:20.385257 84751 layer_factory.hpp:76] Creating layer inception_4e/output
I0906 00:29:20.385267 84751 net.cpp:110] Creating Layer inception_4e/output
I0906 00:29:20.385274 84751 net.cpp:477] inception_4e/output <- inception_4e/1x1
I0906 00:29:20.385282 84751 net.cpp:477] inception_4e/output <- inception_4e/3x3
I0906 00:29:20.385290 84751 net.cpp:477] inception_4e/output <- inception_4e/5x5
I0906 00:29:20.385298 84751 net.cpp:477] inception_4e/output <- inception_4e/pool_proj
I0906 00:29:20.385308 84751 net.cpp:433] inception_4e/output -> inception_4e/output
I0906 00:29:20.385323 84751 net.cpp:155] Setting up inception_4e/output
I0906 00:29:20.385330 84751 net.cpp:163] Top shape: 32 832 14 14 (5218304)
I0906 00:29:20.385337 84751 layer_factory.hpp:76] Creating layer pool4/3x3_s2
I0906 00:29:20.385347 84751 net.cpp:110] Creating Layer pool4/3x3_s2
I0906 00:29:20.385354 84751 net.cpp:477] pool4/3x3_s2 <- inception_4e/output
I0906 00:29:20.385365 84751 net.cpp:433] pool4/3x3_s2 -> pool4/3x3_s2
I0906 00:29:20.385380 84751 net.cpp:155] Setting up pool4/3x3_s2
I0906 00:29:20.385387 84751 net.cpp:163] Top shape: 32 832 7 7 (1304576)
I0906 00:29:20.385395 84751 layer_factory.hpp:76] Creating layer pool4/3x3_s2_pool4/3x3_s2_0_split
I0906 00:29:20.385404 84751 net.cpp:110] Creating Layer pool4/3x3_s2_pool4/3x3_s2_0_split
I0906 00:29:20.385411 84751 net.cpp:477] pool4/3x3_s2_pool4/3x3_s2_0_split <- pool4/3x3_s2
I0906 00:29:20.385428 84751 net.cpp:433] pool4/3x3_s2_pool4/3x3_s2_0_split -> pool4/3x3_s2_pool4/3x3_s2_0_split_0
I0906 00:29:20.385440 84751 net.cpp:433] pool4/3x3_s2_pool4/3x3_s2_0_split -> pool4/3x3_s2_pool4/3x3_s2_0_split_1
I0906 00:29:20.385453 84751 net.cpp:433] pool4/3x3_s2_pool4/3x3_s2_0_split -> pool4/3x3_s2_pool4/3x3_s2_0_split_2
I0906 00:29:20.385465 84751 net.cpp:433] pool4/3x3_s2_pool4/3x3_s2_0_split -> pool4/3x3_s2_pool4/3x3_s2_0_split_3
I0906 00:29:20.385478 84751 net.cpp:155] Setting up pool4/3x3_s2_pool4/3x3_s2_0_split
I0906 00:29:20.385486 84751 net.cpp:163] Top shape: 32 832 7 7 (1304576)
I0906 00:29:20.385530 84751 net.cpp:163] Top shape: 32 832 7 7 (1304576)
I0906 00:29:20.385540 84751 net.cpp:163] Top shape: 32 832 7 7 (1304576)
I0906 00:29:20.385547 84751 net.cpp:163] Top shape: 32 832 7 7 (1304576)
I0906 00:29:20.385555 84751 layer_factory.hpp:76] Creating layer inception_5a/1x1
I0906 00:29:20.385566 84751 net.cpp:110] Creating Layer inception_5a/1x1
I0906 00:29:20.385573 84751 net.cpp:477] inception_5a/1x1 <- pool4/3x3_s2_pool4/3x3_s2_0_split_0
I0906 00:29:20.385588 84751 net.cpp:433] inception_5a/1x1 -> inception_5a/1x1
I0906 00:29:20.389927 84751 net.cpp:155] Setting up inception_5a/1x1
I0906 00:29:20.389958 84751 net.cpp:163] Top shape: 32 256 7 7 (401408)
I0906 00:29:20.389973 84751 layer_factory.hpp:76] Creating layer inception_5a/relu_1x1
I0906 00:29:20.389986 84751 net.cpp:110] Creating Layer inception_5a/relu_1x1
I0906 00:29:20.389993 84751 net.cpp:477] inception_5a/relu_1x1 <- inception_5a/1x1
I0906 00:29:20.390010 84751 net.cpp:419] inception_5a/relu_1x1 -> inception_5a/1x1 (in-place)
I0906 00:29:20.390023 84751 net.cpp:155] Setting up inception_5a/relu_1x1
I0906 00:29:20.390033 84751 net.cpp:163] Top shape: 32 256 7 7 (401408)
I0906 00:29:20.390039 84751 layer_factory.hpp:76] Creating layer inception_5a/3x3_reduce
I0906 00:29:20.390051 84751 net.cpp:110] Creating Layer inception_5a/3x3_reduce
I0906 00:29:20.390058 84751 net.cpp:477] inception_5a/3x3_reduce <- pool4/3x3_s2_pool4/3x3_s2_0_split_1
I0906 00:29:20.390069 84751 net.cpp:433] inception_5a/3x3_reduce -> inception_5a/3x3_reduce
I0906 00:29:20.393147 84751 net.cpp:155] Setting up inception_5a/3x3_reduce
I0906 00:29:20.393178 84751 net.cpp:163] Top shape: 32 160 7 7 (250880)
I0906 00:29:20.393193 84751 layer_factory.hpp:76] Creating layer inception_5a/relu_3x3_reduce
I0906 00:29:20.393203 84751 net.cpp:110] Creating Layer inception_5a/relu_3x3_reduce
I0906 00:29:20.393211 84751 net.cpp:477] inception_5a/relu_3x3_reduce <- inception_5a/3x3_reduce
I0906 00:29:20.393229 84751 net.cpp:419] inception_5a/relu_3x3_reduce -> inception_5a/3x3_reduce (in-place)
I0906 00:29:20.393241 84751 net.cpp:155] Setting up inception_5a/relu_3x3_reduce
I0906 00:29:20.393250 84751 net.cpp:163] Top shape: 32 160 7 7 (250880)
I0906 00:29:20.393256 84751 layer_factory.hpp:76] Creating layer inception_5a/3x3
I0906 00:29:20.393268 84751 net.cpp:110] Creating Layer inception_5a/3x3
I0906 00:29:20.393275 84751 net.cpp:477] inception_5a/3x3 <- inception_5a/3x3_reduce
I0906 00:29:20.393288 84751 net.cpp:433] inception_5a/3x3 -> inception_5a/3x3
I0906 00:29:20.401974 84751 net.cpp:155] Setting up inception_5a/3x3
I0906 00:29:20.402000 84751 net.cpp:163] Top shape: 32 320 7 7 (501760)
I0906 00:29:20.402016 84751 layer_factory.hpp:76] Creating layer inception_5a/relu_3x3
I0906 00:29:20.402031 84751 net.cpp:110] Creating Layer inception_5a/relu_3x3
I0906 00:29:20.402040 84751 net.cpp:477] inception_5a/relu_3x3 <- inception_5a/3x3
I0906 00:29:20.402050 84751 net.cpp:419] inception_5a/relu_3x3 -> inception_5a/3x3 (in-place)
I0906 00:29:20.402067 84751 net.cpp:155] Setting up inception_5a/relu_3x3
I0906 00:29:20.402076 84751 net.cpp:163] Top shape: 32 320 7 7 (501760)
I0906 00:29:20.402082 84751 layer_factory.hpp:76] Creating layer inception_5a/5x5_reduce
I0906 00:29:20.402094 84751 net.cpp:110] Creating Layer inception_5a/5x5_reduce
I0906 00:29:20.402101 84751 net.cpp:477] inception_5a/5x5_reduce <- pool4/3x3_s2_pool4/3x3_s2_0_split_2
I0906 00:29:20.402112 84751 net.cpp:433] inception_5a/5x5_reduce -> inception_5a/5x5_reduce
I0906 00:29:20.402647 84751 net.cpp:155] Setting up inception_5a/5x5_reduce
I0906 00:29:20.402663 84751 net.cpp:163] Top shape: 32 32 7 7 (50176)
I0906 00:29:20.402676 84751 layer_factory.hpp:76] Creating layer inception_5a/relu_5x5_reduce
I0906 00:29:20.402686 84751 net.cpp:110] Creating Layer inception_5a/relu_5x5_reduce
I0906 00:29:20.402693 84751 net.cpp:477] inception_5a/relu_5x5_reduce <- inception_5a/5x5_reduce
I0906 00:29:20.402704 84751 net.cpp:419] inception_5a/relu_5x5_reduce -> inception_5a/5x5_reduce (in-place)
I0906 00:29:20.402737 84751 net.cpp:155] Setting up inception_5a/relu_5x5_reduce
I0906 00:29:20.402747 84751 net.cpp:163] Top shape: 32 32 7 7 (50176)
I0906 00:29:20.402753 84751 layer_factory.hpp:76] Creating layer inception_5a/5x5
I0906 00:29:20.402765 84751 net.cpp:110] Creating Layer inception_5a/5x5
I0906 00:29:20.402771 84751 net.cpp:477] inception_5a/5x5 <- inception_5a/5x5_reduce
I0906 00:29:20.402782 84751 net.cpp:433] inception_5a/5x5 -> inception_5a/5x5
I0906 00:29:20.404505 84751 net.cpp:155] Setting up inception_5a/5x5
I0906 00:29:20.404525 84751 net.cpp:163] Top shape: 32 128 7 7 (200704)
I0906 00:29:20.404537 84751 layer_factory.hpp:76] Creating layer inception_5a/relu_5x5
I0906 00:29:20.404547 84751 net.cpp:110] Creating Layer inception_5a/relu_5x5
I0906 00:29:20.404556 84751 net.cpp:477] inception_5a/relu_5x5 <- inception_5a/5x5
I0906 00:29:20.404566 84751 net.cpp:419] inception_5a/relu_5x5 -> inception_5a/5x5 (in-place)
I0906 00:29:20.404577 84751 net.cpp:155] Setting up inception_5a/relu_5x5
I0906 00:29:20.404584 84751 net.cpp:163] Top shape: 32 128 7 7 (200704)
I0906 00:29:20.404590 84751 layer_factory.hpp:76] Creating layer inception_5a/pool
I0906 00:29:20.404602 84751 net.cpp:110] Creating Layer inception_5a/pool
I0906 00:29:20.404608 84751 net.cpp:477] inception_5a/pool <- pool4/3x3_s2_pool4/3x3_s2_0_split_3
I0906 00:29:20.404619 84751 net.cpp:433] inception_5a/pool -> inception_5a/pool
I0906 00:29:20.404636 84751 net.cpp:155] Setting up inception_5a/pool
I0906 00:29:20.404644 84751 net.cpp:163] Top shape: 32 832 7 7 (1304576)
I0906 00:29:20.404651 84751 layer_factory.hpp:76] Creating layer inception_5a/pool_proj
I0906 00:29:20.404665 84751 net.cpp:110] Creating Layer inception_5a/pool_proj
I0906 00:29:20.404672 84751 net.cpp:477] inception_5a/pool_proj <- inception_5a/pool
I0906 00:29:20.404685 84751 net.cpp:433] inception_5a/pool_proj -> inception_5a/pool_proj
I0906 00:29:20.407315 84751 net.cpp:155] Setting up inception_5a/pool_proj
I0906 00:29:20.407346 84751 net.cpp:163] Top shape: 32 128 7 7 (200704)
I0906 00:29:20.407359 84751 layer_factory.hpp:76] Creating layer inception_5a/relu_pool_proj
I0906 00:29:20.407374 84751 net.cpp:110] Creating Layer inception_5a/relu_pool_proj
I0906 00:29:20.407382 84751 net.cpp:477] inception_5a/relu_pool_proj <- inception_5a/pool_proj
I0906 00:29:20.407398 84751 net.cpp:419] inception_5a/relu_pool_proj -> inception_5a/pool_proj (in-place)
I0906 00:29:20.407412 84751 net.cpp:155] Setting up inception_5a/relu_pool_proj
I0906 00:29:20.407420 84751 net.cpp:163] Top shape: 32 128 7 7 (200704)
I0906 00:29:20.407426 84751 layer_factory.hpp:76] Creating layer inception_5a/output
I0906 00:29:20.407436 84751 net.cpp:110] Creating Layer inception_5a/output
I0906 00:29:20.407444 84751 net.cpp:477] inception_5a/output <- inception_5a/1x1
I0906 00:29:20.407452 84751 net.cpp:477] inception_5a/output <- inception_5a/3x3
I0906 00:29:20.407460 84751 net.cpp:477] inception_5a/output <- inception_5a/5x5
I0906 00:29:20.407467 84751 net.cpp:477] inception_5a/output <- inception_5a/pool_proj
I0906 00:29:20.407477 84751 net.cpp:433] inception_5a/output -> inception_5a/output
I0906 00:29:20.407491 84751 net.cpp:155] Setting up inception_5a/output
I0906 00:29:20.407500 84751 net.cpp:163] Top shape: 32 832 7 7 (1304576)
I0906 00:29:20.407506 84751 layer_factory.hpp:76] Creating layer inception_5a/output_inception_5a/output_0_split
I0906 00:29:20.407517 84751 net.cpp:110] Creating Layer inception_5a/output_inception_5a/output_0_split
I0906 00:29:20.407523 84751 net.cpp:477] inception_5a/output_inception_5a/output_0_split <- inception_5a/output
I0906 00:29:20.407537 84751 net.cpp:433] inception_5a/output_inception_5a/output_0_split -> inception_5a/output_inception_5a/output_0_split_0
I0906 00:29:20.407552 84751 net.cpp:433] inception_5a/output_inception_5a/output_0_split -> inception_5a/output_inception_5a/output_0_split_1
I0906 00:29:20.407564 84751 net.cpp:433] inception_5a/output_inception_5a/output_0_split -> inception_5a/output_inception_5a/output_0_split_2
I0906 00:29:20.407577 84751 net.cpp:433] inception_5a/output_inception_5a/output_0_split -> inception_5a/output_inception_5a/output_0_split_3
I0906 00:29:20.407626 84751 net.cpp:155] Setting up inception_5a/output_inception_5a/output_0_split
I0906 00:29:20.407636 84751 net.cpp:163] Top shape: 32 832 7 7 (1304576)
I0906 00:29:20.407645 84751 net.cpp:163] Top shape: 32 832 7 7 (1304576)
I0906 00:29:20.407652 84751 net.cpp:163] Top shape: 32 832 7 7 (1304576)
I0906 00:29:20.407661 84751 net.cpp:163] Top shape: 32 832 7 7 (1304576)
I0906 00:29:20.407667 84751 layer_factory.hpp:76] Creating layer inception_5b/1x1
I0906 00:29:20.407691 84751 net.cpp:110] Creating Layer inception_5b/1x1
I0906 00:29:20.407698 84751 net.cpp:477] inception_5b/1x1 <- inception_5a/output_inception_5a/output_0_split_0
I0906 00:29:20.407711 84751 net.cpp:433] inception_5b/1x1 -> inception_5b/1x1
I0906 00:29:20.413878 84751 net.cpp:155] Setting up inception_5b/1x1
I0906 00:29:20.413911 84751 net.cpp:163] Top shape: 32 384 7 7 (602112)
I0906 00:29:20.413925 84751 layer_factory.hpp:76] Creating layer inception_5b/relu_1x1
I0906 00:29:20.413938 84751 net.cpp:110] Creating Layer inception_5b/relu_1x1
I0906 00:29:20.413945 84751 net.cpp:477] inception_5b/relu_1x1 <- inception_5b/1x1
I0906 00:29:20.413964 84751 net.cpp:419] inception_5b/relu_1x1 -> inception_5b/1x1 (in-place)
I0906 00:29:20.413976 84751 net.cpp:155] Setting up inception_5b/relu_1x1
I0906 00:29:20.413985 84751 net.cpp:163] Top shape: 32 384 7 7 (602112)
I0906 00:29:20.413991 84751 layer_factory.hpp:76] Creating layer inception_5b/3x3_reduce
I0906 00:29:20.414011 84751 net.cpp:110] Creating Layer inception_5b/3x3_reduce
I0906 00:29:20.414019 84751 net.cpp:477] inception_5b/3x3_reduce <- inception_5a/output_inception_5a/output_0_split_1
I0906 00:29:20.414031 84751 net.cpp:433] inception_5b/3x3_reduce -> inception_5b/3x3_reduce
I0906 00:29:20.417517 84751 net.cpp:155] Setting up inception_5b/3x3_reduce
I0906 00:29:20.417548 84751 net.cpp:163] Top shape: 32 192 7 7 (301056)
I0906 00:29:20.417564 84751 layer_factory.hpp:76] Creating layer inception_5b/relu_3x3_reduce
I0906 00:29:20.417575 84751 net.cpp:110] Creating Layer inception_5b/relu_3x3_reduce
I0906 00:29:20.417583 84751 net.cpp:477] inception_5b/relu_3x3_reduce <- inception_5b/3x3_reduce
I0906 00:29:20.417601 84751 net.cpp:419] inception_5b/relu_3x3_reduce -> inception_5b/3x3_reduce (in-place)
I0906 00:29:20.417614 84751 net.cpp:155] Setting up inception_5b/relu_3x3_reduce
I0906 00:29:20.417624 84751 net.cpp:163] Top shape: 32 192 7 7 (301056)
I0906 00:29:20.417630 84751 layer_factory.hpp:76] Creating layer inception_5b/3x3
I0906 00:29:20.417642 84751 net.cpp:110] Creating Layer inception_5b/3x3
I0906 00:29:20.417649 84751 net.cpp:477] inception_5b/3x3 <- inception_5b/3x3_reduce
I0906 00:29:20.417662 84751 net.cpp:433] inception_5b/3x3 -> inception_5b/3x3
I0906 00:29:20.430186 84751 net.cpp:155] Setting up inception_5b/3x3
I0906 00:29:20.430218 84751 net.cpp:163] Top shape: 32 384 7 7 (602112)
I0906 00:29:20.430233 84751 layer_factory.hpp:76] Creating layer inception_5b/relu_3x3
I0906 00:29:20.430245 84751 net.cpp:110] Creating Layer inception_5b/relu_3x3
I0906 00:29:20.430253 84751 net.cpp:477] inception_5b/relu_3x3 <- inception_5b/3x3
I0906 00:29:20.430270 84751 net.cpp:419] inception_5b/relu_3x3 -> inception_5b/3x3 (in-place)
I0906 00:29:20.430285 84751 net.cpp:155] Setting up inception_5b/relu_3x3
I0906 00:29:20.430294 84751 net.cpp:163] Top shape: 32 384 7 7 (602112)
I0906 00:29:20.430300 84751 layer_factory.hpp:76] Creating layer inception_5b/5x5_reduce
I0906 00:29:20.430316 84751 net.cpp:110] Creating Layer inception_5b/5x5_reduce
I0906 00:29:20.430323 84751 net.cpp:477] inception_5b/5x5_reduce <- inception_5a/output_inception_5a/output_0_split_2
I0906 00:29:20.430335 84751 net.cpp:433] inception_5b/5x5_reduce -> inception_5b/5x5_reduce
I0906 00:29:20.431979 84751 net.cpp:155] Setting up inception_5b/5x5_reduce
I0906 00:29:20.432011 84751 net.cpp:163] Top shape: 32 48 7 7 (75264)
I0906 00:29:20.432025 84751 layer_factory.hpp:76] Creating layer inception_5b/relu_5x5_reduce
I0906 00:29:20.432057 84751 net.cpp:110] Creating Layer inception_5b/relu_5x5_reduce
I0906 00:29:20.432066 84751 net.cpp:477] inception_5b/relu_5x5_reduce <- inception_5b/5x5_reduce
I0906 00:29:20.432080 84751 net.cpp:419] inception_5b/relu_5x5_reduce -> inception_5b/5x5_reduce (in-place)
I0906 00:29:20.432095 84751 net.cpp:155] Setting up inception_5b/relu_5x5_reduce
I0906 00:29:20.432103 84751 net.cpp:163] Top shape: 32 48 7 7 (75264)
I0906 00:29:20.432111 84751 layer_factory.hpp:76] Creating layer inception_5b/5x5
I0906 00:29:20.432122 84751 net.cpp:110] Creating Layer inception_5b/5x5
I0906 00:29:20.432129 84751 net.cpp:477] inception_5b/5x5 <- inception_5b/5x5_reduce
I0906 00:29:20.432143 84751 net.cpp:433] inception_5b/5x5 -> inception_5b/5x5
I0906 00:29:20.434727 84751 net.cpp:155] Setting up inception_5b/5x5
I0906 00:29:20.434746 84751 net.cpp:163] Top shape: 32 128 7 7 (200704)
I0906 00:29:20.434759 84751 layer_factory.hpp:76] Creating layer inception_5b/relu_5x5
I0906 00:29:20.434769 84751 net.cpp:110] Creating Layer inception_5b/relu_5x5
I0906 00:29:20.434777 84751 net.cpp:477] inception_5b/relu_5x5 <- inception_5b/5x5
I0906 00:29:20.434787 84751 net.cpp:419] inception_5b/relu_5x5 -> inception_5b/5x5 (in-place)
I0906 00:29:20.434798 84751 net.cpp:155] Setting up inception_5b/relu_5x5
I0906 00:29:20.434808 84751 net.cpp:163] Top shape: 32 128 7 7 (200704)
I0906 00:29:20.434813 84751 layer_factory.hpp:76] Creating layer inception_5b/pool
I0906 00:29:20.434824 84751 net.cpp:110] Creating Layer inception_5b/pool
I0906 00:29:20.434831 84751 net.cpp:477] inception_5b/pool <- inception_5a/output_inception_5a/output_0_split_3
I0906 00:29:20.434842 84751 net.cpp:433] inception_5b/pool -> inception_5b/pool
I0906 00:29:20.434859 84751 net.cpp:155] Setting up inception_5b/pool
I0906 00:29:20.434867 84751 net.cpp:163] Top shape: 32 832 7 7 (1304576)
I0906 00:29:20.434875 84751 layer_factory.hpp:76] Creating layer inception_5b/pool_proj
I0906 00:29:20.434888 84751 net.cpp:110] Creating Layer inception_5b/pool_proj
I0906 00:29:20.434895 84751 net.cpp:477] inception_5b/pool_proj <- inception_5b/pool
I0906 00:29:20.434909 84751 net.cpp:433] inception_5b/pool_proj -> inception_5b/pool_proj
I0906 00:29:20.437561 84751 net.cpp:155] Setting up inception_5b/pool_proj
I0906 00:29:20.437587 84751 net.cpp:163] Top shape: 32 128 7 7 (200704)
I0906 00:29:20.437600 84751 layer_factory.hpp:76] Creating layer inception_5b/relu_pool_proj
I0906 00:29:20.437611 84751 net.cpp:110] Creating Layer inception_5b/relu_pool_proj
I0906 00:29:20.437619 84751 net.cpp:477] inception_5b/relu_pool_proj <- inception_5b/pool_proj
I0906 00:29:20.437629 84751 net.cpp:419] inception_5b/relu_pool_proj -> inception_5b/pool_proj (in-place)
I0906 00:29:20.437649 84751 net.cpp:155] Setting up inception_5b/relu_pool_proj
I0906 00:29:20.437657 84751 net.cpp:163] Top shape: 32 128 7 7 (200704)
I0906 00:29:20.437664 84751 layer_factory.hpp:76] Creating layer inception_5b/output
I0906 00:29:20.437674 84751 net.cpp:110] Creating Layer inception_5b/output
I0906 00:29:20.437681 84751 net.cpp:477] inception_5b/output <- inception_5b/1x1
I0906 00:29:20.437690 84751 net.cpp:477] inception_5b/output <- inception_5b/3x3
I0906 00:29:20.437698 84751 net.cpp:477] inception_5b/output <- inception_5b/5x5
I0906 00:29:20.437705 84751 net.cpp:477] inception_5b/output <- inception_5b/pool_proj
I0906 00:29:20.437716 84751 net.cpp:433] inception_5b/output -> inception_5b/output
I0906 00:29:20.437729 84751 net.cpp:155] Setting up inception_5b/output
I0906 00:29:20.437738 84751 net.cpp:163] Top shape: 32 1024 7 7 (1605632)
I0906 00:29:20.437746 84751 layer_factory.hpp:76] Creating layer pool5/7x7_s1
I0906 00:29:20.437759 84751 net.cpp:110] Creating Layer pool5/7x7_s1
I0906 00:29:20.437767 84751 net.cpp:477] pool5/7x7_s1 <- inception_5b/output
I0906 00:29:20.437777 84751 net.cpp:433] pool5/7x7_s1 -> pool5/7x7_s1
I0906 00:29:20.437791 84751 net.cpp:155] Setting up pool5/7x7_s1
I0906 00:29:20.437800 84751 net.cpp:163] Top shape: 32 1024 1 1 (32768)
I0906 00:29:20.437808 84751 layer_factory.hpp:76] Creating layer pool5/drop_7x7_s1
I0906 00:29:20.437839 84751 net.cpp:110] Creating Layer pool5/drop_7x7_s1
I0906 00:29:20.437849 84751 net.cpp:477] pool5/drop_7x7_s1 <- pool5/7x7_s1
I0906 00:29:20.437858 84751 net.cpp:419] pool5/drop_7x7_s1 -> pool5/7x7_s1 (in-place)
I0906 00:29:20.437872 84751 net.cpp:155] Setting up pool5/drop_7x7_s1
I0906 00:29:20.437881 84751 net.cpp:163] Top shape: 32 1024 1 1 (32768)
I0906 00:29:20.437888 84751 layer_factory.hpp:76] Creating layer loss3/classifier_cub
I0906 00:29:20.437901 84751 net.cpp:110] Creating Layer loss3/classifier_cub
I0906 00:29:20.437908 84751 net.cpp:477] loss3/classifier_cub <- pool5/7x7_s1
I0906 00:29:20.437922 84751 net.cpp:433] loss3/classifier_cub -> loss3/classifier
I0906 00:29:20.453393 84751 net.cpp:155] Setting up loss3/classifier_cub
I0906 00:29:20.453425 84751 net.cpp:163] Top shape: 32 200 (6400)
I0906 00:29:20.453441 84751 layer_factory.hpp:76] Creating layer loss3/loss3
I0906 00:29:20.453454 84751 net.cpp:110] Creating Layer loss3/loss3
I0906 00:29:20.453462 84751 net.cpp:477] loss3/loss3 <- loss3/classifier
I0906 00:29:20.453479 84751 net.cpp:477] loss3/loss3 <- label_data_1_split_2
I0906 00:29:20.453490 84751 net.cpp:433] loss3/loss3 -> loss3/loss3
I0906 00:29:20.453507 84751 layer_factory.hpp:76] Creating layer loss3/loss3
…
I0906 00:29:20.466269 84751 net.cpp:339] The NetState phase (1) differed from the phase (0) specified by a rule in layer data
I0906 00:29:20.468708 84751 net.cpp:50] Initializing net from parameters: 
name: "CUBNet"
state {
  phase: TEST
}
layer {
  name: "data"
  type: "ImageData"
  top: "data"
  top: "label"
  include {
    phase: TEST
  }
  transform_param {
    mirror: false
    crop_size: 224
    mean_value: 104
    mean_value: 117
    mean_value: 123
  }
  image_data_param {
    source: "data/CUB_200_2011/val_files.txt"
    batch_size: 32
    new_height: 256
    new_width: 256
  }
}
layer {
  name: "conv1/7x7_s2"
  type: "Convolution"
  bottom: "data"
  top: "conv1/7x7_s2"
  param {
    lr_mult: 1
    decay_mult: 1
  }
  param {
    lr_mult: 2
    decay_mult: 0
  }
  convolution_param {
    num_output: 64
    pad: 3
    kernel_size: 7
    stride: 2
    weight_filler {
      type: "xavier"
      std: 0.1
    }
    bias_filler {
      type: "constant"
      value: 0.2
    }
  }
}
layer {
  name: "conv1/relu_7x7"
  type: "ReLU"
  bottom: "conv1/7x7_s2"
  top: "conv1/7x7_s2"
}
layer {
  name: "pool1/3x3_s2"
  type: "Pooling"
  bottom: "conv1/7x7_s2"
  top: "pool1/3x3_s2"
  pooling_param {
    pool: MAX
    kernel_size: 3
    stride: 2
  }
}
layer {
  name: "pool1/norm1"
  type: "LRN"
  bottom: "pool1/3x3_s2"
  top: "pool1/norm1"
  lrn_param {
    local_size: 5
    alpha: 0.0001
    beta: 0.75
  }
}
layer {
  name: "conv2/3x3_reduce"
  type: "Convolution"
  bottom: "pool1/norm1"
  top: "conv2/3x3_reduce"
  param {
    lr_mult: 1
    decay_mult: 1
  }
  param {
    lr_mult: 2
    decay_mult: 0
  }
  convolution_param {
    num_output: 64
    kernel_size: 1
    weight_filler {
      type: "xavier"
      std: 0.1
    }
    bias_filler {
      type: "constant"
      value: 0.2
    }
  }
}
layer {
  name: "conv2/relu_3x3_reduce"
  type: "ReLU"
  bottom: "conv2/3x3_reduce"
  top: "conv2/3x3_reduce"
}
layer {
  name: "conv2/3x3"
  type: "Convolution"
  bottom: "conv2/3x3_reduce"
  top: "conv2/3x3"
  param {
    lr_mult: 1
    decay_mult: 1
  }
  param {
    lr_mult: 2
    decay_mult: 0
  }
  convolution_param {
    num_output: 192
    pad: 1
    kernel_size: 3
    weight_filler {
      type: "xavier"
      std: 0.03
    }
    bias_filler {
      type: "constant"
      value: 0.2
    }
  }
}
layer {
  name: "conv2/relu_3x3"
  type: "ReLU"
  bottom: "conv2/3x3"
  top: "conv2/3x3"
}
layer {
  name: "conv2/norm2"
  type: "LRN"
  bottom: "conv2/3x3"
  top: "conv2/norm2"
  lrn_param {
    local_size: 5
    alpha: 0.0001
    beta: 0.75
  }
}
layer {
  name: "pool2/3x3_s2"
  type: "Pooling"
  bottom: "conv2/norm2"
  top: "pool2/3x3_s2"
  pooling_param {
    pool: MAX
    kernel_size: 3
    stride: 2
  }
}
layer {
  name: "inception_3a/1x1"
  type: "Convolution"
  bottom: "pool2/3x3_s2"
  top: "inception_3a/1x1"
  param {
    lr_mult: 1
    decay_mult: 1
  }
  param {
    lr_mult: 2
    decay_mult: 0
  }
  convolution_param {
    num_output: 64
    kernel_size: 1
    weight_filler {
      type: "xavier"
      std: 0.03
    }
    bias_filler {
      type: "constant"
      value: 0.2
    }
  }
}
layer {
  name: "inception_3a/relu_1x1"
  type: "ReLU"
  bottom: "inception_3a/1x1"
  top: "inception_3a/1x1"
}
layer {
  name: "inception_3a/3x3_reduce"
  type: "Convolution"
  bottom: "pool2/3x3_s2"
  top: "inception_3a/3x3_reduce"
  param {
    lr_mult: 1
    decay_mult: 1
  }
  param {
    lr_mult: 2
    decay_mult: 0
  }
  convolution_param {
    num_output: 96
    kernel_size: 1
    weight_filler {
      type: "xavier"
      std: 0.09
    }
    bias_filler {
      type: "constant"
      value: 0.2
    }
  }
}
layer {
  name: "inception_3a/relu_3x3_reduce"
  type: "ReLU"
  bottom: "inception_3a/3x3_reduce"
  top: "inception_3a/3x3_reduce"
}
layer {
  name: "inception_3a/3x3"
  type: "Convolution"
  bottom: "inception_3a/3x3_reduce"
  top: "inception_3a/3x3"
  param {
    lr_mult: 1
    decay_mult: 1
  }
  param {
    lr_mult: 2
    decay_mult: 0
  }
  convolution_param {
    num_output: 128
    pad: 1
    kernel_size: 3
    weight_filler {
      type: "xavier"
      std: 0.03
    }
    bias_filler {
      type: "constant"
      value: 0.2
    }
  }
}
layer {
  name: "inception_3a/relu_3x3"
  type: "ReLU"
  bottom: "inception_3a/3x3"
  top: "inception_3a/3x3"
}
layer {
  name: "inception_3a/5x5_reduce"
  type: "Convolution"
  bottom: "pool2/3x3_s2"
  top: "inception_3a/5x5_reduce"
  param {
    lr_mult: 1
    decay_mult: 1
  }
  param {
    lr_mult: 2
    decay_mult: 0
  }
  convolution_param {
    num_output: 16
    kernel_size: 1
    weight_filler {
      type: "xavier"
      std: 0.2
    }
    bias_filler {
      type: "constant"
      value: 0.2
    }
  }
}
layer {
  name: "inception_3a/relu_5x5_reduce"
  type: "ReLU"
  bottom: "inception_3a/5x5_reduce"
  top: "inception_3a/5x5_reduce"
}
layer {
  name: "inception_3a/5x5"
  type: "Convolution"
  bottom: "inception_3a/5x5_reduce"
  top: "inception_3a/5x5"
  param {
    lr_mult: 1
    decay_mult: 1
  }
  param {
    lr_mult: 2
    decay_mult: 0
  }
  convolution_param {
    num_output: 32
    pad: 2
    kernel_size: 5
    weight_filler {
      type: "xavier"
      std: 0.03
    }
    bias_filler {
      type: "constant"
      value: 0.2
    }
  }
}
layer {
  name: "inception_3a/relu_5x5"
  type: "ReLU"
  bottom: "inception_3a/5x5"
  top: "inception_3a/5x5"
}
layer {
  name: "inception_3a/pool"
  type: "Pooling"
  bottom: "pool2/3x3_s2"
  top: "inception_3a/pool"
  pooling_param {
    pool: MAX
    kernel_size: 3
    stride: 1
    pad: 1
  }
}
layer {
  name: "inception_3a/pool_proj"
  type: "Convolution"
  bottom: "inception_3a/pool"
  top: "inception_3a/pool_proj"
  param {
    lr_mult: 1
    decay_mult: 1
  }
  param {
    lr_mult: 2
    decay_mult: 0
  }
  convolution_param {
    num_output: 32
    kernel_size: 1
    weight_filler {
      type: "xavier"
      std: 0.1
    }
    bias_filler {
      type: "constant"
      value: 0.2
    }
  }
}
layer {
  name: "inception_3a/relu_pool_proj"
  type: "ReLU"
  bottom: "inception_3a/pool_proj"
  top: "inception_3a/pool_proj"
}
layer {
  name: "inception_3a/output"
  type: "Concat"
  bottom: "inception_3a/1x1"
  bottom: "inception_3a/3x3"
  bottom: "inception_3a/5x5"
  bottom: "inception_3a/pool_proj"
  top: "inception_3a/output"
}
layer {
  name: "inception_3b/1x1"
  type: "Convolution"
  bottom: "inception_3a/output"
  top: "inception_3b/1x1"
  param {
    lr_mult: 1
    decay_mult: 1
  }
  param {
    lr_mult: 2
    decay_mult: 0
  }
  convolution_param {
    num_output: 128
    kernel_size: 1
    weight_filler {
      type: "xavier"
      std: 0.03
    }
    bias_filler {
      type: "constant"
      value: 0.2
    }
  }
}
layer {
  name: "inception_3b/relu_1x1"
  type: "ReLU"
  bottom: "inception_3b/1x1"
  top: "inception_3b/1x1"
}
layer {
  name: "inception_3b/3x3_reduce"
  type: "Convolution"
  bottom: "inception_3a/output"
  top: "inception_3b/3x3_reduce"
  param {
    lr_mult: 1
    decay_mult: 1
  }
  param {
    lr_mult: 2
    decay_mult: 0
  }
  convolution_param {
    num_output: 128
    kernel_size: 1
    weight_filler {
      type: "xavier"
      std: 0.09
    }
    bias_filler {
      type: "constant"
      value: 0.2
    }
  }
}
layer {
  name: "inception_3b/relu_3x3_reduce"
  type: "ReLU"
  bottom: "inception_3b/3x3_reduce"
  top: "inception_3b/3x3_reduce"
}
layer {
  name: "inception_3b/3x3"
  type: "Convolution"
  bottom: "inception_3b/3x3_reduce"
  top: "inception_3b/3x3"
  param {
    lr_mult: 1
    decay_mult: 1
  }
  param {
    lr_mult: 2
    decay_mult: 0
  }
  convolution_param {
    num_output: 192
    pad: 1
    kernel_size: 3
    weight_filler {
      type: "xavier"
      std: 0.03
    }
    bias_filler {
      type: "constant"
      value: 0.2
    }
  }
}
layer {
  name: "inception_3b/relu_3x3"
  type: "ReLU"
  bottom: "inception_3b/3x3"
  top: "inception_3b/3x3"
}
layer {
  name: "inception_3b/5x5_reduce"
  type: "Convolution"
  bottom: "inception_3a/output"
  top: "inception_3b/5x5_reduce"
  param {
    lr_mult: 1
    decay_mult: 1
  }
  param {
    lr_mult: 2
    decay_mult: 0
  }
  convolution_param {
    num_output: 32
    kernel_size: 1
    weight_filler {
      type: "xavier"
      std: 0.2
    }
    bias_filler {
      type: "constant"
      value: 0.2
    }
  }
}
layer {
  name: "inception_3b/relu_5x5_reduce"
  type: "ReLU"
  bottom: "inception_3b/5x5_reduce"
  top: "inception_3b/5x5_reduce"
}
layer {
  name: "inception_3b/5x5"
  type: "Convolution"
  bottom: "inception_3b/5x5_reduce"
  top: "inception_3b/5x5"
  param {
    lr_mult: 1
    decay_mult: 1
  }
  param {
    lr_mult: 2
    decay_mult: 0
  }
  convolution_param {
    num_output: 96
    pad: 2
    kernel_size: 5
    weight_filler {
      type: "xavier"
      std: 0.03
    }
    bias_filler {
      type: "constant"
      value: 0.2
    }
  }
}
layer {
  name: "inception_3b/relu_5x5"
  type: "ReLU"
  bottom: "inception_3b/5x5"
  top: "inception_3b/5x5"
}
layer {
  name: "inception_3b/pool"
  type: "Pooling"
  bottom: "inception_3a/output"
  top: "inception_3b/pool"
  pooling_param {
    pool: MAX
    kernel_size: 3
    stride: 1
    pad: 1
  }
}
layer {
  name: "inception_3b/pool_proj"
  type: "Convolution"
  bottom: "inception_3b/pool"
  top: "inception_3b/pool_proj"
  param {
    lr_mult: 1
    decay_mult: 1
  }
  param {
    lr_mult: 2
    decay_mult: 0
  }
  convolution_param {
    num_output: 64
    kernel_size: 1
    weight_filler {
      type: "xavier"
      std: 0.1
    }
    bias_filler {
      type: "constant"
      value: 0.2
    }
  }
}
layer {
  name: "inception_3b/relu_pool_proj"
  type: "ReLU"
  bottom: "inception_3b/pool_proj"
  top: "inception_3b/pool_proj"
}
layer {
  name: "inception_3b/output"
  type: "Concat"
  bottom: "inception_3b/1x1"
  bottom: "inception_3b/3x3"
  bottom: "inception_3b/5x5"
  bottom: "inception_3b/pool_proj"
  top: "inception_3b/output"
}
layer {
  name: "pool3/3x3_s2"
  type: "Pooling"
  bottom: "inception_3b/output"
  top: "pool3/3x3_s2"
  pooling_param {
    pool: MAX
    kernel_size: 3
    stride: 2
  }
}
layer {
  name: "inception_4a/1x1"
  type: "Convolution"
  bottom: "pool3/3x3_s2"
  top: "inception_4a/1x1"
  param {
    lr_mult: 1
    decay_mult: 1
  }
  param {
    lr_mult: 2
    decay_mult: 0
  }
  convolution_param {
    num_output: 192
    kernel_size: 1
    weight_filler {
      type: "xavier"
      std: 0.03
    }
    bias_filler {
      type: "constant"
      value: 0.2
    }
  }
}
layer {
  name: "inception_4a/relu_1x1"
  type: "ReLU"
  bottom: "inception_4a/1x1"
  top: "inception_4a/1x1"
}
layer {
  name: "inception_4a/3x3_reduce"
  type: "Convolution"
  bottom: "pool3/3x3_s2"
  top: "inception_4a/3x3_reduce"
  param {
    lr_mult: 1
    decay_mult: 1
  }
  param {
    lr_mult: 2
    decay_mult: 0
  }
  convolution_param {
    num_output: 96
    kernel_size: 1
    weight_filler {
      type: "xavier"
      std: 0.09
    }
    bias_filler {
      type: "constant"
      value: 0.2
    }
  }
}
layer {
  name: "inception_4a/relu_3x3_reduce"
  type: "ReLU"
  bottom: "inception_4a/3x3_reduce"
  top: "inception_4a/3x3_reduce"
}
layer {
  name: "inception_4a/3x3"
  type: "Convolution"
  bottom: "inception_4a/3x3_reduce"
  top: "inception_4a/3x3"
  param {
    lr_mult: 1
    decay_mult: 1
  }
  param {
    lr_mult: 2
    decay_mult: 0
  }
  convolution_param {
    num_output: 208
    pad: 1
    kernel_size: 3
    weight_filler {
      type: "xavier"
      std: 0.03
    }
    bias_filler {
      type: "constant"
      value: 0.2
    }
  }
}
layer {
  name: "inception_4a/relu_3x3"
  type: "ReLU"
  bottom: "inception_4a/3x3"
  top: "inception_4a/3x3"
}
layer {
  name: "inception_4a/5x5_reduce"
  type: "Convolution"
  bottom: "pool3/3x3_s2"
  top: "inception_4a/5x5_reduce"
  param {
    lr_mult: 1
    decay_mult: 1
  }
  param {
    lr_mult: 2
    decay_mult: 0
  }
  convolution_param {
    num_output: 16
    kernel_size: 1
    weight_filler {
      type: "xavier"
      std: 0.2
    }
    bias_filler {
      type: "constant"
      value: 0.2
    }
  }
}
layer {
  name: "inception_4a/relu_5x5_reduce"
  type: "ReLU"
  bottom: "inception_4a/5x5_reduce"
  top: "inception_4a/5x5_reduce"
}
layer {
  name: "inception_4a/5x5"
  type: "Convolution"
  bottom: "inception_4a/5x5_reduce"
  top: "inception_4a/5x5"
  param {
    lr_mult: 1
    decay_mult: 1
  }
  param {
    lr_mult: 2
    decay_mult: 0
  }
  convolution_param {
    num_output: 48
    pad: 2
    kernel_size: 5
    weight_filler {
      type: "xavier"
      std: 0.03
    }
    bias_filler {
      type: "constant"
      value: 0.2
    }
  }
}
layer {
  name: "inception_4a/relu_5x5"
  type: "ReLU"
  bottom: "inception_4a/5x5"
  top: "inception_4a/5x5"
}
layer {
  name: "inception_4a/pool"
  type: "Pooling"
  bottom: "pool3/3x3_s2"
  top: "inception_4a/pool"
  pooling_param {
    pool: MAX
    kernel_size: 3
    stride: 1
    pad: 1
  }
}
layer {
  name: "inception_4a/pool_proj"
  type: "Convolution"
  bottom: "inception_4a/pool"
  top: "inception_4a/pool_proj"
  param {
    lr_mult: 1
    decay_mult: 1
  }
  param {
    lr_mult: 2
    decay_mult: 0
  }
  convolution_param {
    num_output: 64
    kernel_size: 1
    weight_filler {
      type: "xavier"
      std: 0.1
    }
    bias_filler {
      type: "constant"
      value: 0.2
    }
  }
}
layer {
  name: "inception_4a/relu_pool_proj"
  type: "ReLU"
  bottom: "inception_4a/pool_proj"
  top: "inception_4a/pool_proj"
}
layer {
  name: "inception_4a/output"
  type: "Concat"
  bottom: "inception_4a/1x1"
  bottom: "inception_4a/3x3"
  bottom: "inception_4a/5x5"
  bottom: "inception_4a/pool_proj"
  top: "inception_4a/output"
}
layer {
  name: "loss1/ave_pool"
  type: "Pooling"
  bottom: "inception_4a/output"
  top: "loss1/ave_pool"
  pooling_param {
    pool: AVE
    kernel_size: 5
    stride: 3
  }
}
layer {
  name: "loss1/conv"
  type: "Convolution"
  bottom: "loss1/ave_pool"
  top: "loss1/conv"
  param {
    lr_mult: 1
    decay_mult: 1
  }
  param {
    lr_mult: 2
    decay_mult: 0
  }
  convolution_param {
    num_output: 128
    kernel_size: 1
    weight_filler {
      type: "xavier"
      std: 0.08
    }
    bias_filler {
      type: "constant"
      value: 0.2
    }
  }
}
layer {
  name: "loss1/relu_conv"
  type: "ReLU"
  bottom: "loss1/conv"
  top: "loss1/conv"
}
layer {
  name: "loss1/fc"
  type: "InnerProduct"
  bottom: "loss1/conv"
  top: "loss1/fc"
  param {
    lr_mult: 1
    decay_mult: 1
  }
  param {
    lr_mult: 2
    decay_mult: 0
  }
  inner_product_param {
    num_output: 1024
    weight_filler {
      type: "xavier"
      std: 0.02
    }
    bias_filler {
      type: "constant"
      value: 0.2
    }
  }
}
layer {
  name: "loss1/relu_fc"
  type: "ReLU"
  bottom: "loss1/fc"
  top: "loss1/fc"
}
layer {
  name: "loss1/drop_fc"
  type: "Dropout"
  bottom: "loss1/fc"
  top: "loss1/fc"
  dropout_param {
    dropout_ratio: 0.7
  }
}
layer {
  name: "loss1/classifier_cub"
  type: "InnerProduct"
  bottom: "loss1/fc"
  top: "loss1/classifier"
  param {
    lr_mult: 1
    decay_mult: 1
  }
  param {
    lr_mult: 2
    decay_mult: 0
  }
  inner_product_param {
    num_output: 200
    weight_filler {
      type: "gaussian"
      std: 1e-05
    }
    bias_filler {
      type: "constant"
      value: 0
    }
  }
}
layer {
  name: "loss1/loss"
  type: "SoftmaxWithLoss"
  bottom: "loss1/classifier"
  bottom: "label"
  top: "loss1/loss1"
  loss_weight: 0.3
}
layer {
  name: "loss1/top-1"
  type: "Accuracy"
  bottom: "loss1/classifier"
  bottom: "label"
  top: "loss1/top-1"
  include {
    phase: TEST
  }
}
layer {
  name: "loss1/top-5"
  type: "Accuracy"
  bottom: "loss1/classifier"
  bottom: "label"
  top: "loss1/top-5"
  include {
    phase: TEST
  }
  accuracy_param {
    top_k: 5
  }
}
layer {
  name: "inception_4b/1x1"
  type: "Convolution"
  bottom: "inception_4a/output"
  top: "inception_4b/1x1"
  param {
    lr_mult: 1
    decay_mult: 1
  }
  param {
    lr_mult: 2
    decay_mult: 0
  }
  convolution_param {
    num_output: 160
    kernel_size: 1
    weight_filler {
      type: "xavier"
      std: 0.03
    }
    bias_filler {
      type: "constant"
      value: 0.2
    }
  }
}
layer {
  name: "inception_4b/relu_1x1"
  type: "ReLU"
  bottom: "inception_4b/1x1"
  top: "inception_4b/1x1"
}
layer {
  name: "inception_4b/3x3_reduce"
  type: "Convolution"
  bottom: "inception_4a/output"
  top: "inception_4b/3x3_reduce"
  param {
    lr_mult: 1
    decay_mult: 1
  }
  param {
    lr_mult: 2
    decay_mult: 0
  }
  convolution_param {
    num_output: 112
    kernel_size: 1
    weight_filler {
      type: "xavier"
      std: 0.09
    }
    bias_filler {
      type: "constant"
      value: 0.2
    }
  }
}
layer {
  name: "inception_4b/relu_3x3_reduce"
  type: "ReLU"
  bottom: "inception_4b/3x3_reduce"
  top: "inception_4b/3x3_reduce"
}
layer {
  name: "inception_4b/3x3"
  type: "Convolution"
  bottom: "inception_4b/3x3_reduce"
  top: "inception_4b/3x3"
  param {
    lr_mult: 1
    decay_mult: 1
  }
  param {
    lr_mult: 2
    decay_mult: 0
  }
  convolution_param {
    num_output: 224
    pad: 1
    kernel_size: 3
    weight_filler {
      type: "xavier"
      std: 0.03
    }
    bias_filler {
      type: "constant"
      value: 0.2
    }
  }
}
layer {
  name: "inception_4b/relu_3x3"
  type: "ReLU"
  bottom: "inception_4b/3x3"
  top: "inception_4b/3x3"
}
layer {
  name: "inception_4b/5x5_reduce"
  type: "Convolution"
  bottom: "inception_4a/output"
  top: "inception_4b/5x5_reduce"
  param {
    lr_mult: 1
    decay_mult: 1
  }
  param {
    lr_mult: 2
    decay_mult: 0
  }
  convolution_param {
    num_output: 24
    kernel_size: 1
    weight_filler {
      type: "xavier"
      std: 0.2
    }
    bias_filler {
      type: "constant"
      value: 0.2
    }
  }
}
layer {
  name: "inception_4b/relu_5x5_reduce"
  type: "ReLU"
  bottom: "inception_4b/5x5_reduce"
  top: "inception_4b/5x5_reduce"
}
layer {
  name: "inception_4b/5x5"
  type: "Convolution"
  bottom: "inception_4b/5x5_reduce"
  top: "inception_4b/5x5"
  param {
    lr_mult: 1
    decay_mult: 1
  }
  param {
    lr_mult: 2
    decay_mult: 0
  }
  convolution_param {
    num_output: 64
    pad: 2
    kernel_size: 5
    weight_filler {
      type: "xavier"
      std: 0.03
    }
    bias_filler {
      type: "constant"
      value: 0.2
    }
  }
}
layer {
  name: "inception_4b/relu_5x5"
  type: "ReLU"
  bottom: "inception_4b/5x5"
  top: "inception_4b/5x5"
}
layer {
  name: "inception_4b/pool"
  type: "Pooling"
  bottom: "inception_4a/output"
  top: "inception_4b/pool"
  pooling_param {
    pool: MAX
    kernel_size: 3
    stride: 1
    pad: 1
  }
}
layer {
  name: "inception_4b/pool_proj"
  type: "Convolution"
  bottom: "inception_4b/pool"
  top: "inception_4b/pool_proj"
  param {
    lr_mult: 1
    decay_mult: 1
  }
  param {
    lr_mult: 2
    decay_mult: 0
  }
  convolution_param {
    num_output: 64
    kernel_size: 1
    weight_filler {
      type: "xavier"
      std: 0.1
    }
    bias_filler {
      type: "constant"
      value: 0.2
    }
  }
}
layer {
  name: "inception_4b/relu_pool_proj"
  type: "ReLU"
  bottom: "inception_4b/pool_proj"
  top: "inception_4b/pool_proj"
}
layer {
  name: "inception_4b/output"
  type: "Concat"
  bottom: "inception_4b/1x1"
  bottom: "inception_4b/3x3"
  bottom: "inception_4b/5x5"
  bottom: "inception_4b/pool_proj"
  top: "inception_4b/output"
}
layer {
  name: "inception_4c/1x1"
  type: "Convolution"
  bottom: "inception_4b/output"
  top: "inception_4c/1x1"
  param {
    lr_mult: 1
    decay_mult: 1
  }
  param {
    lr_mult: 2
    decay_mult: 0
  }
  convolution_param {
    num_output: 128
    kernel_size: 1
    weight_filler {
      type: "xavier"
      std: 0.03
    }
    bias_filler {
      type: "constant"
      value: 0.2
    }
  }
}
layer {
  name: "inception_4c/relu_1x1"
  type: "ReLU"
  bottom: "inception_4c/1x1"
  top: "inception_4c/1x1"
}
layer {
  name: "inception_4c/3x3_reduce"
  type: "Convolution"
  bottom: "inception_4b/output"
  top: "inception_4c/3x3_reduce"
  param {
    lr_mult: 1
    decay_mult: 1
  }
  param {
    lr_mult: 2
    decay_mult: 0
  }
  convolution_param {
    num_output: 128
    kernel_size: 1
    weight_filler {
      type: "xavier"
      std: 0.09
    }
    bias_filler {
      type: "constant"
      value: 0.2
    }
  }
}
layer {
  name: "inception_4c/relu_3x3_reduce"
  type: "ReLU"
  bottom: "inception_4c/3x3_reduce"
  top: "inception_4c/3x3_reduce"
}
layer {
  name: "inception_4c/3x3"
  type: "Convolution"
  bottom: "inception_4c/3x3_reduce"
  top: "inception_4c/3x3"
  param {
    lr_mult: 1
    decay_mult: 1
  }
  param {
    lr_mult: 2
    decay_mult: 0
  }
  convolution_param {
    num_output: 256
    pad: 1
    kernel_size: 3
    weight_filler {
      type: "xavier"
      std: 0.03
    }
    bias_filler {
      type: "constant"
      value: 0.2
    }
  }
}
layer {
  name: "inception_4c/relu_3x3"
  type: "ReLU"
  bottom: "inception_4c/3x3"
  top: "inception_4c/3x3"
}
layer {
  name: "inception_4c/5x5_reduce"
  type: "Convolution"
  bottom: "inception_4b/output"
  top: "inception_4c/5x5_reduce"
  param {
    lr_mult: 1
    decay_mult: 1
  }
  param {
    lr_mult: 2
    decay_mult: 0
  }
  convolution_param {
    num_output: 24
    kernel_size: 1
    weight_filler {
      type: "xavier"
      std: 0.2
    }
    bias_filler {
      type: "constant"
      value: 0.2
    }
  }
}
layer {
  name: "inception_4c/relu_5x5_reduce"
  type: "ReLU"
  bottom: "inception_4c/5x5_reduce"
  top: "inception_4c/5x5_reduce"
}
layer {
  name: "inception_4c/5x5"
  type: "Convolution"
  bottom: "inception_4c/5x5_reduce"
  top: "inception_4c/5x5"
  param {
    lr_mult: 1
    decay_mult: 1
  }
  param {
    lr_mult: 2
    decay_mult: 0
  }
  convolution_param {
    num_output: 64
    pad: 2
    kernel_size: 5
    weight_filler {
      type: "xavier"
      std: 0.03
    }
    bias_filler {
      type: "constant"
      value: 0.2
    }
  }
}
layer {
  name: "inception_4c/relu_5x5"
  type: "ReLU"
  bottom: "inception_4c/5x5"
  top: "inception_4c/5x5"
}
layer {
  name: "inception_4c/pool"
  type: "Pooling"
  bottom: "inception_4b/output"
  top: "inception_4c/pool"
  pooling_param {
    pool: MAX
    kernel_size: 3
    stride: 1
    pad: 1
  }
}
layer {
  name: "inception_4c/pool_proj"
  type: "Convolution"
  bottom: "inception_4c/pool"
  top: "inception_4c/pool_proj"
  param {
    lr_mult: 1
    decay_mult: 1
  }
  param {
    lr_mult: 2
    decay_mult: 0
  }
  convolution_param {
    num_output: 64
    kernel_size: 1
    weight_filler {
      type: "xavier"
      std: 0.1
    }
    bias_filler {
      type: "constant"
      value: 0.2
    }
  }
}
layer {
  name: "inception_4c/relu_pool_proj"
  type: "ReLU"
  bottom: "inception_4c/pool_proj"
  top: "inception_4c/pool_proj"
}
layer {
  name: "inception_4c/output"
  type: "Concat"
  bottom: "inception_4c/1x1"
  bottom: "inception_4c/3x3"
  bottom: "inception_4c/5x5"
  bottom: "inception_4c/pool_proj"
  top: "inception_4c/output"
}
layer {
  name: "inception_4d/1x1"
  type: "Convolution"
  bottom: "inception_4c/output"
  top: "inception_4d/1x1"
  param {
    lr_mult: 1
    decay_mult: 1
  }
  param {
    lr_mult: 2
    decay_mult: 0
  }
  convolution_param {
    num_output: 112
    kernel_size: 1
    weight_filler {
      type: "xavier"
      std: 0.03
    }
    bias_filler {
      type: "constant"
      value: 0.2
    }
  }
}
layer {
  name: "inception_4d/relu_1x1"
  type: "ReLU"
  bottom: "inception_4d/1x1"
  top: "inception_4d/1x1"
}
layer {
  name: "inception_4d/3x3_reduce"
  type: "Convolution"
  bottom: "inception_4c/output"
  top: "inception_4d/3x3_reduce"
  param {
    lr_mult: 1
    decay_mult: 1
  }
  param {
    lr_mult: 2
    decay_mult: 0
  }
  convolution_param {
    num_output: 144
    kernel_size: 1
    weight_filler {
      type: "xavier"
      std: 0.09
    }
    bias_filler {
      type: "constant"
      value: 0.2
    }
  }
}
layer {
  name: "inception_4d/relu_3x3_reduce"
  type: "ReLU"
  bottom: "inception_4d/3x3_reduce"
  top: "inception_4d/3x3_reduce"
}
layer {
  name: "inception_4d/3x3"
  type: "Convolution"
  bottom: "inception_4d/3x3_reduce"
  top: "inception_4d/3x3"
  param {
    lr_mult: 1
    decay_mult: 1
  }
  param {
    lr_mult: 2
    decay_mult: 0
  }
  convolution_param {
    num_output: 288
    pad: 1
    kernel_size: 3
    weight_filler {
      type: "xavier"
      std: 0.03
    }
    bias_filler {
      type: "constant"
      value: 0.2
    }
  }
}
layer {
  name: "inception_4d/relu_3x3"
  type: "ReLU"
  bottom: "inception_4d/3x3"
  top: "inception_4d/3x3"
}
layer {
  name: "inception_4d/5x5_reduce"
  type: "Convolution"
  bottom: "inception_4c/output"
  top: "inception_4d/5x5_reduce"
  param {
    lr_mult: 1
    decay_mult: 1
  }
  param {
    lr_mult: 2
    decay_mult: 0
  }
  convolution_param {
    num_output: 32
    kernel_size: 1
    weight_filler {
      type: "xavier"
      std: 0.2
    }
    bias_filler {
      type: "constant"
      value: 0.2
    }
  }
}
layer {
  name: "inception_4d/relu_5x5_reduce"
  type: "ReLU"
  bottom: "inception_4d/5x5_reduce"
  top: "inception_4d/5x5_reduce"
}
layer {
  name: "inception_4d/5x5"
  type: "Convolution"
  bottom: "inception_4d/5x5_reduce"
  top: "inception_4d/5x5"
  param {
    lr_mult: 1
    decay_mult: 1
  }
  param {
    lr_mult: 2
    decay_mult: 0
  }
  convolution_param {
    num_output: 64
    pad: 2
    kernel_size: 5
    weight_filler {
      type: "xavier"
      std: 0.03
    }
    bias_filler {
      type: "constant"
      value: 0.2
    }
  }
}
layer {
  name: "inception_4d/relu_5x5"
  type: "ReLU"
  bottom: "inception_4d/5x5"
  top: "inception_4d/5x5"
}
layer {
  name: "inception_4d/pool"
  type: "Pooling"
  bottom: "inception_4c/output"
  top: "inception_4d/pool"
  pooling_param {
    pool: MAX
    kernel_size: 3
    stride: 1
    pad: 1
  }
}
layer {
  name: "inception_4d/pool_proj"
  type: "Convolution"
  bottom: "inception_4d/pool"
  top: "inception_4d/pool_proj"
  param {
    lr_mult: 1
    decay_mult: 1
  }
  param {
    lr_mult: 2
    decay_mult: 0
  }
  convolution_param {
    num_output: 64
    kernel_size: 1
    weight_filler {
      type: "xavier"
      std: 0.1
    }
    bias_filler {
      type: "constant"
      value: 0.2
    }
  }
}
layer {
  name: "inception_4d/relu_pool_proj"
  type: "ReLU"
  bottom: "inception_4d/pool_proj"
  top: "inception_4d/pool_proj"
}
layer {
  name: "inception_4d/output"
  type: "Concat"
  bottom: "inception_4d/1x1"
  bottom: "inception_4d/3x3"
  bottom: "inception_4d/5x5"
  bottom: "inception_4d/pool_proj"
  top: "inception_4d/output"
}
layer {
  name: "loss2/ave_pool"
  type: "Pooling"
  bottom: "inception_4d/output"
  top: "loss2/ave_pool"
  pooling_param {
    pool: AVE
    kernel_size: 5
    stride: 3
  }
}
layer {
  name: "loss2/conv"
  type: "Convolution"
  bottom: "loss2/ave_pool"
  top: "loss2/conv"
  param {
    lr_mult: 1
    decay_mult: 1
  }
  param {
    lr_mult: 2
    decay_mult: 0
  }
  convolution_param {
    num_output: 128
    kernel_size: 1
    weight_filler {
      type: "xavier"
      std: 0.08
    }
    bias_filler {
      type: "constant"
      value: 0.2
    }
  }
}
layer {
  name: "loss2/relu_conv"
  type: "ReLU"
  bottom: "loss2/conv"
  top: "loss2/conv"
}
layer {
  name: "loss2/fc"
  type: "InnerProduct"
  bottom: "loss2/conv"
  top: "loss2/fc"
  param {
…
I0906 00:29:20.619786 84751 net.cpp:433] inception_4b/output_inception_4b/output_0_split -> inception_4b/output_inception_4b/output_0_split_1
I0906 00:29:20.619799 84751 net.cpp:433] inception_4b/output_inception_4b/output_0_split -> inception_4b/output_inception_4b/output_0_split_2
I0906 00:29:20.619812 84751 net.cpp:433] inception_4b/output_inception_4b/output_0_split -> inception_4b/output_inception_4b/output_0_split_3
I0906 00:29:20.619827 84751 net.cpp:155] Setting up inception_4b/output_inception_4b/output_0_split
I0906 00:29:20.619853 84751 net.cpp:163] Top shape: 32 512 14 14 (3211264)
I0906 00:29:20.619863 84751 net.cpp:163] Top shape: 32 512 14 14 (3211264)
I0906 00:29:20.619870 84751 net.cpp:163] Top shape: 32 512 14 14 (3211264)
I0906 00:29:20.619878 84751 net.cpp:163] Top shape: 32 512 14 14 (3211264)
I0906 00:29:20.619884 84751 layer_factory.hpp:76] Creating layer inception_4c/1x1
I0906 00:29:20.619899 84751 net.cpp:110] Creating Layer inception_4c/1x1
I0906 00:29:20.619905 84751 net.cpp:477] inception_4c/1x1 <- inception_4b/output_inception_4b/output_0_split_0
I0906 00:29:20.619918 84751 net.cpp:433] inception_4c/1x1 -> inception_4c/1x1
I0906 00:29:20.621058 84751 net.cpp:155] Setting up inception_4c/1x1
I0906 00:29:20.621075 84751 net.cpp:163] Top shape: 32 128 14 14 (802816)
I0906 00:29:20.621088 84751 layer_factory.hpp:76] Creating layer inception_4c/relu_1x1
I0906 00:29:20.621099 84751 net.cpp:110] Creating Layer inception_4c/relu_1x1
I0906 00:29:20.621106 84751 net.cpp:477] inception_4c/relu_1x1 <- inception_4c/1x1
I0906 00:29:20.621117 84751 net.cpp:419] inception_4c/relu_1x1 -> inception_4c/1x1 (in-place)
I0906 00:29:20.621129 84751 net.cpp:155] Setting up inception_4c/relu_1x1
I0906 00:29:20.621137 84751 net.cpp:163] Top shape: 32 128 14 14 (802816)
I0906 00:29:20.621145 84751 layer_factory.hpp:76] Creating layer inception_4c/3x3_reduce
I0906 00:29:20.621158 84751 net.cpp:110] Creating Layer inception_4c/3x3_reduce
I0906 00:29:20.621165 84751 net.cpp:477] inception_4c/3x3_reduce <- inception_4b/output_inception_4b/output_0_split_1
I0906 00:29:20.621177 84751 net.cpp:433] inception_4c/3x3_reduce -> inception_4c/3x3_reduce
I0906 00:29:20.623206 84751 net.cpp:155] Setting up inception_4c/3x3_reduce
I0906 00:29:20.623230 84751 net.cpp:163] Top shape: 32 128 14 14 (802816)
I0906 00:29:20.623245 84751 layer_factory.hpp:76] Creating layer inception_4c/relu_3x3_reduce
I0906 00:29:20.623257 84751 net.cpp:110] Creating Layer inception_4c/relu_3x3_reduce
I0906 00:29:20.623265 84751 net.cpp:477] inception_4c/relu_3x3_reduce <- inception_4c/3x3_reduce
I0906 00:29:20.623277 84751 net.cpp:419] inception_4c/relu_3x3_reduce -> inception_4c/3x3_reduce (in-place)
I0906 00:29:20.623291 84751 net.cpp:155] Setting up inception_4c/relu_3x3_reduce
I0906 00:29:20.623298 84751 net.cpp:163] Top shape: 32 128 14 14 (802816)
I0906 00:29:20.623306 84751 layer_factory.hpp:76] Creating layer inception_4c/3x3
I0906 00:29:20.623319 84751 net.cpp:110] Creating Layer inception_4c/3x3
I0906 00:29:20.623325 84751 net.cpp:477] inception_4c/3x3 <- inception_4c/3x3_reduce
I0906 00:29:20.623338 84751 net.cpp:433] inception_4c/3x3 -> inception_4c/3x3
I0906 00:29:20.629045 84751 net.cpp:155] Setting up inception_4c/3x3
I0906 00:29:20.629091 84751 net.cpp:163] Top shape: 32 256 14 14 (1605632)
I0906 00:29:20.629129 84751 layer_factory.hpp:76] Creating layer inception_4c/relu_3x3
I0906 00:29:20.629143 84751 net.cpp:110] Creating Layer inception_4c/relu_3x3
I0906 00:29:20.629151 84751 net.cpp:477] inception_4c/relu_3x3 <- inception_4c/3x3
I0906 00:29:20.629163 84751 net.cpp:419] inception_4c/relu_3x3 -> inception_4c/3x3 (in-place)
I0906 00:29:20.629176 84751 net.cpp:155] Setting up inception_4c/relu_3x3
I0906 00:29:20.629185 84751 net.cpp:163] Top shape: 32 256 14 14 (1605632)
I0906 00:29:20.629192 84751 layer_factory.hpp:76] Creating layer inception_4c/5x5_reduce
I0906 00:29:20.629206 84751 net.cpp:110] Creating Layer inception_4c/5x5_reduce
I0906 00:29:20.629214 84751 net.cpp:477] inception_4c/5x5_reduce <- inception_4b/output_inception_4b/output_0_split_2
I0906 00:29:20.629227 84751 net.cpp:433] inception_4c/5x5_reduce -> inception_4c/5x5_reduce
I0906 00:29:20.629535 84751 net.cpp:155] Setting up inception_4c/5x5_reduce
I0906 00:29:20.629551 84751 net.cpp:163] Top shape: 32 24 14 14 (150528)
I0906 00:29:20.629565 84751 layer_factory.hpp:76] Creating layer inception_4c/relu_5x5_reduce
I0906 00:29:20.629575 84751 net.cpp:110] Creating Layer inception_4c/relu_5x5_reduce
I0906 00:29:20.629583 84751 net.cpp:477] inception_4c/relu_5x5_reduce <- inception_4c/5x5_reduce
I0906 00:29:20.629593 84751 net.cpp:419] inception_4c/relu_5x5_reduce -> inception_4c/5x5_reduce (in-place)
I0906 00:29:20.629606 84751 net.cpp:155] Setting up inception_4c/relu_5x5_reduce
I0906 00:29:20.629614 84751 net.cpp:163] Top shape: 32 24 14 14 (150528)
I0906 00:29:20.629621 84751 layer_factory.hpp:76] Creating layer inception_4c/5x5
I0906 00:29:20.629634 84751 net.cpp:110] Creating Layer inception_4c/5x5
I0906 00:29:20.629642 84751 net.cpp:477] inception_4c/5x5 <- inception_4c/5x5_reduce
I0906 00:29:20.629653 84751 net.cpp:433] inception_4c/5x5 -> inception_4c/5x5
I0906 00:29:20.630364 84751 net.cpp:155] Setting up inception_4c/5x5
I0906 00:29:20.630380 84751 net.cpp:163] Top shape: 32 64 14 14 (401408)
I0906 00:29:20.630393 84751 layer_factory.hpp:76] Creating layer inception_4c/relu_5x5
I0906 00:29:20.630403 84751 net.cpp:110] Creating Layer inception_4c/relu_5x5
I0906 00:29:20.630411 84751 net.cpp:477] inception_4c/relu_5x5 <- inception_4c/5x5
I0906 00:29:20.630421 84751 net.cpp:419] inception_4c/relu_5x5 -> inception_4c/5x5 (in-place)
I0906 00:29:20.630434 84751 net.cpp:155] Setting up inception_4c/relu_5x5
I0906 00:29:20.630442 84751 net.cpp:163] Top shape: 32 64 14 14 (401408)
I0906 00:29:20.630448 84751 layer_factory.hpp:76] Creating layer inception_4c/pool
I0906 00:29:20.630460 84751 net.cpp:110] Creating Layer inception_4c/pool
I0906 00:29:20.630467 84751 net.cpp:477] inception_4c/pool <- inception_4b/output_inception_4b/output_0_split_3
I0906 00:29:20.630478 84751 net.cpp:433] inception_4c/pool -> inception_4c/pool
I0906 00:29:20.630494 84751 net.cpp:155] Setting up inception_4c/pool
I0906 00:29:20.630503 84751 net.cpp:163] Top shape: 32 512 14 14 (3211264)
I0906 00:29:20.630509 84751 layer_factory.hpp:76] Creating layer inception_4c/pool_proj
I0906 00:29:20.630523 84751 net.cpp:110] Creating Layer inception_4c/pool_proj
I0906 00:29:20.630530 84751 net.cpp:477] inception_4c/pool_proj <- inception_4c/pool
I0906 00:29:20.630543 84751 net.cpp:433] inception_4c/pool_proj -> inception_4c/pool_proj
I0906 00:29:20.631163 84751 net.cpp:155] Setting up inception_4c/pool_proj
I0906 00:29:20.631178 84751 net.cpp:163] Top shape: 32 64 14 14 (401408)
I0906 00:29:20.631191 84751 layer_factory.hpp:76] Creating layer inception_4c/relu_pool_proj
I0906 00:29:20.631201 84751 net.cpp:110] Creating Layer inception_4c/relu_pool_proj
I0906 00:29:20.631208 84751 net.cpp:477] inception_4c/relu_pool_proj <- inception_4c/pool_proj
I0906 00:29:20.631220 84751 net.cpp:419] inception_4c/relu_pool_proj -> inception_4c/pool_proj (in-place)
I0906 00:29:20.631232 84751 net.cpp:155] Setting up inception_4c/relu_pool_proj
I0906 00:29:20.631240 84751 net.cpp:163] Top shape: 32 64 14 14 (401408)
I0906 00:29:20.631263 84751 layer_factory.hpp:76] Creating layer inception_4c/output
I0906 00:29:20.631275 84751 net.cpp:110] Creating Layer inception_4c/output
I0906 00:29:20.631283 84751 net.cpp:477] inception_4c/output <- inception_4c/1x1
I0906 00:29:20.631291 84751 net.cpp:477] inception_4c/output <- inception_4c/3x3
I0906 00:29:20.631300 84751 net.cpp:477] inception_4c/output <- inception_4c/5x5
I0906 00:29:20.631307 84751 net.cpp:477] inception_4c/output <- inception_4c/pool_proj
I0906 00:29:20.631319 84751 net.cpp:433] inception_4c/output -> inception_4c/output
I0906 00:29:20.631333 84751 net.cpp:155] Setting up inception_4c/output
I0906 00:29:20.631342 84751 net.cpp:163] Top shape: 32 512 14 14 (3211264)
I0906 00:29:20.631350 84751 layer_factory.hpp:76] Creating layer inception_4c/output_inception_4c/output_0_split
I0906 00:29:20.631361 84751 net.cpp:110] Creating Layer inception_4c/output_inception_4c/output_0_split
I0906 00:29:20.631368 84751 net.cpp:477] inception_4c/output_inception_4c/output_0_split <- inception_4c/output
I0906 00:29:20.631381 84751 net.cpp:433] inception_4c/output_inception_4c/output_0_split -> inception_4c/output_inception_4c/output_0_split_0
I0906 00:29:20.631393 84751 net.cpp:433] inception_4c/output_inception_4c/output_0_split -> inception_4c/output_inception_4c/output_0_split_1
I0906 00:29:20.631405 84751 net.cpp:433] inception_4c/output_inception_4c/output_0_split -> inception_4c/output_inception_4c/output_0_split_2
I0906 00:29:20.631418 84751 net.cpp:433] inception_4c/output_inception_4c/output_0_split -> inception_4c/output_inception_4c/output_0_split_3
I0906 00:29:20.631431 84751 net.cpp:155] Setting up inception_4c/output_inception_4c/output_0_split
I0906 00:29:20.631439 84751 net.cpp:163] Top shape: 32 512 14 14 (3211264)
I0906 00:29:20.631448 84751 net.cpp:163] Top shape: 32 512 14 14 (3211264)
I0906 00:29:20.631455 84751 net.cpp:163] Top shape: 32 512 14 14 (3211264)
I0906 00:29:20.631464 84751 net.cpp:163] Top shape: 32 512 14 14 (3211264)
I0906 00:29:20.631470 84751 layer_factory.hpp:76] Creating layer inception_4d/1x1
I0906 00:29:20.631484 84751 net.cpp:110] Creating Layer inception_4d/1x1
I0906 00:29:20.631490 84751 net.cpp:477] inception_4d/1x1 <- inception_4c/output_inception_4c/output_0_split_0
I0906 00:29:20.631503 84751 net.cpp:433] inception_4d/1x1 -> inception_4d/1x1
I0906 00:29:20.632524 84751 net.cpp:155] Setting up inception_4d/1x1
I0906 00:29:20.632542 84751 net.cpp:163] Top shape: 32 112 14 14 (702464)
I0906 00:29:20.632555 84751 layer_factory.hpp:76] Creating layer inception_4d/relu_1x1
I0906 00:29:20.632565 84751 net.cpp:110] Creating Layer inception_4d/relu_1x1
I0906 00:29:20.632572 84751 net.cpp:477] inception_4d/relu_1x1 <- inception_4d/1x1
I0906 00:29:20.632583 84751 net.cpp:419] inception_4d/relu_1x1 -> inception_4d/1x1 (in-place)
I0906 00:29:20.632594 84751 net.cpp:155] Setting up inception_4d/relu_1x1
I0906 00:29:20.632603 84751 net.cpp:163] Top shape: 32 112 14 14 (702464)
I0906 00:29:20.632609 84751 layer_factory.hpp:76] Creating layer inception_4d/3x3_reduce
I0906 00:29:20.632623 84751 net.cpp:110] Creating Layer inception_4d/3x3_reduce
I0906 00:29:20.632630 84751 net.cpp:477] inception_4d/3x3_reduce <- inception_4c/output_inception_4c/output_0_split_1
I0906 00:29:20.632642 84751 net.cpp:433] inception_4d/3x3_reduce -> inception_4d/3x3_reduce
I0906 00:29:20.633919 84751 net.cpp:155] Setting up inception_4d/3x3_reduce
I0906 00:29:20.633936 84751 net.cpp:163] Top shape: 32 144 14 14 (903168)
I0906 00:29:20.633949 84751 layer_factory.hpp:76] Creating layer inception_4d/relu_3x3_reduce
I0906 00:29:20.633960 84751 net.cpp:110] Creating Layer inception_4d/relu_3x3_reduce
I0906 00:29:20.633966 84751 net.cpp:477] inception_4d/relu_3x3_reduce <- inception_4d/3x3_reduce
I0906 00:29:20.633976 84751 net.cpp:419] inception_4d/relu_3x3_reduce -> inception_4d/3x3_reduce (in-place)
I0906 00:29:20.633988 84751 net.cpp:155] Setting up inception_4d/relu_3x3_reduce
I0906 00:29:20.633996 84751 net.cpp:163] Top shape: 32 144 14 14 (903168)
I0906 00:29:20.634002 84751 layer_factory.hpp:76] Creating layer inception_4d/3x3
I0906 00:29:20.634038 84751 net.cpp:110] Creating Layer inception_4d/3x3
I0906 00:29:20.634047 84751 net.cpp:477] inception_4d/3x3 <- inception_4d/3x3_reduce
I0906 00:29:20.634062 84751 net.cpp:433] inception_4d/3x3 -> inception_4d/3x3
I0906 00:29:20.641185 84751 net.cpp:155] Setting up inception_4d/3x3
I0906 00:29:20.641209 84751 net.cpp:163] Top shape: 32 288 14 14 (1806336)
I0906 00:29:20.641224 84751 layer_factory.hpp:76] Creating layer inception_4d/relu_3x3
I0906 00:29:20.641237 84751 net.cpp:110] Creating Layer inception_4d/relu_3x3
I0906 00:29:20.641244 84751 net.cpp:477] inception_4d/relu_3x3 <- inception_4d/3x3
I0906 00:29:20.641255 84751 net.cpp:419] inception_4d/relu_3x3 -> inception_4d/3x3 (in-place)
I0906 00:29:20.641269 84751 net.cpp:155] Setting up inception_4d/relu_3x3
I0906 00:29:20.641278 84751 net.cpp:163] Top shape: 32 288 14 14 (1806336)
I0906 00:29:20.641284 84751 layer_factory.hpp:76] Creating layer inception_4d/5x5_reduce
I0906 00:29:20.641297 84751 net.cpp:110] Creating Layer inception_4d/5x5_reduce
I0906 00:29:20.641305 84751 net.cpp:477] inception_4d/5x5_reduce <- inception_4c/output_inception_4c/output_0_split_2
I0906 00:29:20.641317 84751 net.cpp:433] inception_4d/5x5_reduce -> inception_4d/5x5_reduce
I0906 00:29:20.642573 84751 net.cpp:155] Setting up inception_4d/5x5_reduce
I0906 00:29:20.642597 84751 net.cpp:163] Top shape: 32 32 14 14 (200704)
I0906 00:29:20.642611 84751 layer_factory.hpp:76] Creating layer inception_4d/relu_5x5_reduce
I0906 00:29:20.642624 84751 net.cpp:110] Creating Layer inception_4d/relu_5x5_reduce
I0906 00:29:20.642632 84751 net.cpp:477] inception_4d/relu_5x5_reduce <- inception_4d/5x5_reduce
I0906 00:29:20.642643 84751 net.cpp:419] inception_4d/relu_5x5_reduce -> inception_4d/5x5_reduce (in-place)
I0906 00:29:20.642657 84751 net.cpp:155] Setting up inception_4d/relu_5x5_reduce
I0906 00:29:20.642664 84751 net.cpp:163] Top shape: 32 32 14 14 (200704)
I0906 00:29:20.642671 84751 layer_factory.hpp:76] Creating layer inception_4d/5x5
I0906 00:29:20.642684 84751 net.cpp:110] Creating Layer inception_4d/5x5
I0906 00:29:20.642690 84751 net.cpp:477] inception_4d/5x5 <- inception_4d/5x5_reduce
I0906 00:29:20.642702 84751 net.cpp:433] inception_4d/5x5 -> inception_4d/5x5
I0906 00:29:20.643617 84751 net.cpp:155] Setting up inception_4d/5x5
I0906 00:29:20.643635 84751 net.cpp:163] Top shape: 32 64 14 14 (401408)
I0906 00:29:20.643647 84751 layer_factory.hpp:76] Creating layer inception_4d/relu_5x5
I0906 00:29:20.643658 84751 net.cpp:110] Creating Layer inception_4d/relu_5x5
I0906 00:29:20.643666 84751 net.cpp:477] inception_4d/relu_5x5 <- inception_4d/5x5
I0906 00:29:20.643687 84751 net.cpp:419] inception_4d/relu_5x5 -> inception_4d/5x5 (in-place)
I0906 00:29:20.643699 84751 net.cpp:155] Setting up inception_4d/relu_5x5
I0906 00:29:20.643708 84751 net.cpp:163] Top shape: 32 64 14 14 (401408)
I0906 00:29:20.643714 84751 layer_factory.hpp:76] Creating layer inception_4d/pool
I0906 00:29:20.643726 84751 net.cpp:110] Creating Layer inception_4d/pool
I0906 00:29:20.643734 84751 net.cpp:477] inception_4d/pool <- inception_4c/output_inception_4c/output_0_split_3
I0906 00:29:20.643750 84751 net.cpp:433] inception_4d/pool -> inception_4d/pool
I0906 00:29:20.643767 84751 net.cpp:155] Setting up inception_4d/pool
I0906 00:29:20.643775 84751 net.cpp:163] Top shape: 32 512 14 14 (3211264)
I0906 00:29:20.643782 84751 layer_factory.hpp:76] Creating layer inception_4d/pool_proj
I0906 00:29:20.643796 84751 net.cpp:110] Creating Layer inception_4d/pool_proj
I0906 00:29:20.643803 84751 net.cpp:477] inception_4d/pool_proj <- inception_4d/pool
I0906 00:29:20.643815 84751 net.cpp:433] inception_4d/pool_proj -> inception_4d/pool_proj
I0906 00:29:20.644474 84751 net.cpp:155] Setting up inception_4d/pool_proj
I0906 00:29:20.644490 84751 net.cpp:163] Top shape: 32 64 14 14 (401408)
I0906 00:29:20.644503 84751 layer_factory.hpp:76] Creating layer inception_4d/relu_pool_proj
I0906 00:29:20.644515 84751 net.cpp:110] Creating Layer inception_4d/relu_pool_proj
I0906 00:29:20.644543 84751 net.cpp:477] inception_4d/relu_pool_proj <- inception_4d/pool_proj
I0906 00:29:20.644554 84751 net.cpp:419] inception_4d/relu_pool_proj -> inception_4d/pool_proj (in-place)
I0906 00:29:20.644567 84751 net.cpp:155] Setting up inception_4d/relu_pool_proj
I0906 00:29:20.644577 84751 net.cpp:163] Top shape: 32 64 14 14 (401408)
I0906 00:29:20.644583 84751 layer_factory.hpp:76] Creating layer inception_4d/output
I0906 00:29:20.644595 84751 net.cpp:110] Creating Layer inception_4d/output
I0906 00:29:20.644603 84751 net.cpp:477] inception_4d/output <- inception_4d/1x1
I0906 00:29:20.644611 84751 net.cpp:477] inception_4d/output <- inception_4d/3x3
I0906 00:29:20.644620 84751 net.cpp:477] inception_4d/output <- inception_4d/5x5
I0906 00:29:20.644629 84751 net.cpp:477] inception_4d/output <- inception_4d/pool_proj
I0906 00:29:20.644639 84751 net.cpp:433] inception_4d/output -> inception_4d/output
I0906 00:29:20.644654 84751 net.cpp:155] Setting up inception_4d/output
I0906 00:29:20.644661 84751 net.cpp:163] Top shape: 32 528 14 14 (3311616)
I0906 00:29:20.644668 84751 layer_factory.hpp:76] Creating layer inception_4d/output_inception_4d/output_0_split
I0906 00:29:20.644680 84751 net.cpp:110] Creating Layer inception_4d/output_inception_4d/output_0_split
I0906 00:29:20.644687 84751 net.cpp:477] inception_4d/output_inception_4d/output_0_split <- inception_4d/output
I0906 00:29:20.644700 84751 net.cpp:433] inception_4d/output_inception_4d/output_0_split -> inception_4d/output_inception_4d/output_0_split_0
I0906 00:29:20.644712 84751 net.cpp:433] inception_4d/output_inception_4d/output_0_split -> inception_4d/output_inception_4d/output_0_split_1
I0906 00:29:20.644726 84751 net.cpp:433] inception_4d/output_inception_4d/output_0_split -> inception_4d/output_inception_4d/output_0_split_2
I0906 00:29:20.644738 84751 net.cpp:433] inception_4d/output_inception_4d/output_0_split -> inception_4d/output_inception_4d/output_0_split_3
I0906 00:29:20.644749 84751 net.cpp:433] inception_4d/output_inception_4d/output_0_split -> inception_4d/output_inception_4d/output_0_split_4
I0906 00:29:20.644764 84751 net.cpp:155] Setting up inception_4d/output_inception_4d/output_0_split
I0906 00:29:20.644790 84751 net.cpp:163] Top shape: 32 528 14 14 (3311616)
I0906 00:29:20.644799 84751 net.cpp:163] Top shape: 32 528 14 14 (3311616)
I0906 00:29:20.644808 84751 net.cpp:163] Top shape: 32 528 14 14 (3311616)
I0906 00:29:20.644814 84751 net.cpp:163] Top shape: 32 528 14 14 (3311616)
I0906 00:29:20.644822 84751 net.cpp:163] Top shape: 32 528 14 14 (3311616)
I0906 00:29:20.644829 84751 layer_factory.hpp:76] Creating layer loss2/ave_pool
I0906 00:29:20.644840 84751 net.cpp:110] Creating Layer loss2/ave_pool
I0906 00:29:20.644847 84751 net.cpp:477] loss2/ave_pool <- inception_4d/output_inception_4d/output_0_split_0
I0906 00:29:20.644860 84751 net.cpp:433] loss2/ave_pool -> loss2/ave_pool
I0906 00:29:20.644873 84751 net.cpp:155] Setting up loss2/ave_pool
I0906 00:29:20.644882 84751 net.cpp:163] Top shape: 32 528 4 4 (270336)
I0906 00:29:20.644889 84751 layer_factory.hpp:76] Creating layer loss2/conv
I0906 00:29:20.644902 84751 net.cpp:110] Creating Layer loss2/conv
I0906 00:29:20.644909 84751 net.cpp:477] loss2/conv <- loss2/ave_pool
I0906 00:29:20.644922 84751 net.cpp:433] loss2/conv -> loss2/conv
I0906 00:29:20.646983 84751 net.cpp:155] Setting up loss2/conv
I0906 00:29:20.647008 84751 net.cpp:163] Top shape: 32 128 4 4 (65536)
I0906 00:29:20.647022 84751 layer_factory.hpp:76] Creating layer loss2/relu_conv
I0906 00:29:20.647034 84751 net.cpp:110] Creating Layer loss2/relu_conv
I0906 00:29:20.647043 84751 net.cpp:477] loss2/relu_conv <- loss2/conv
I0906 00:29:20.647054 84751 net.cpp:419] loss2/relu_conv -> loss2/conv (in-place)
I0906 00:29:20.647068 84751 net.cpp:155] Setting up loss2/relu_conv
I0906 00:29:20.647076 84751 net.cpp:163] Top shape: 32 128 4 4 (65536)
I0906 00:29:20.647083 84751 layer_factory.hpp:76] Creating layer loss2/fc
I0906 00:29:20.647099 84751 net.cpp:110] Creating Layer loss2/fc
I0906 00:29:20.647105 84751 net.cpp:477] loss2/fc <- loss2/conv
I0906 00:29:20.647137 84751 net.cpp:433] loss2/fc -> loss2/fc
I0906 00:29:20.685582 84751 net.cpp:155] Setting up loss2/fc
I0906 00:29:20.685611 84751 net.cpp:163] Top shape: 32 1024 (32768)
I0906 00:29:20.685627 84751 layer_factory.hpp:76] Creating layer loss2/relu_fc
I0906 00:29:20.685642 84751 net.cpp:110] Creating Layer loss2/relu_fc
I0906 00:29:20.685650 84751 net.cpp:477] loss2/relu_fc <- loss2/fc
I0906 00:29:20.685662 84751 net.cpp:419] loss2/relu_fc -> loss2/fc (in-place)
I0906 00:29:20.685677 84751 net.cpp:155] Setting up loss2/relu_fc
I0906 00:29:20.685685 84751 net.cpp:163] Top shape: 32 1024 (32768)
I0906 00:29:20.685693 84751 layer_factory.hpp:76] Creating layer loss2/drop_fc
I0906 00:29:20.685705 84751 net.cpp:110] Creating Layer loss2/drop_fc
I0906 00:29:20.685713 84751 net.cpp:477] loss2/drop_fc <- loss2/fc
I0906 00:29:20.685722 84751 net.cpp:419] loss2/drop_fc -> loss2/fc (in-place)
I0906 00:29:20.685737 84751 net.cpp:155] Setting up loss2/drop_fc
I0906 00:29:20.685745 84751 net.cpp:163] Top shape: 32 1024 (32768)
I0906 00:29:20.685752 84751 layer_factory.hpp:76] Creating layer loss2/classifier_cub
I0906 00:29:20.685766 84751 net.cpp:110] Creating Layer loss2/classifier_cub
I0906 00:29:20.685773 84751 net.cpp:477] loss2/classifier_cub <- loss2/fc
I0906 00:29:20.685786 84751 net.cpp:433] loss2/classifier_cub -> loss2/classifier
I0906 00:29:20.701247 84751 net.cpp:155] Setting up loss2/classifier_cub
I0906 00:29:20.701273 84751 net.cpp:163] Top shape: 32 200 (6400)
I0906 00:29:20.701288 84751 layer_factory.hpp:76] Creating layer loss2/classifier_loss2/classifier_cub_0_split
I0906 00:29:20.701303 84751 net.cpp:110] Creating Layer loss2/classifier_loss2/classifier_cub_0_split
I0906 00:29:20.701316 84751 net.cpp:477] loss2/classifier_loss2/classifier_cub_0_split <- loss2/classifier
I0906 00:29:20.701330 84751 net.cpp:433] loss2/classifier_loss2/classifier_cub_0_split -> loss2/classifier_loss2/classifier_cub_0_split_0
I0906 00:29:20.701345 84751 net.cpp:433] loss2/classifier_loss2/classifier_cub_0_split -> loss2/classifier_loss2/classifier_cub_0_split_1
I0906 00:29:20.701359 84751 net.cpp:433] loss2/classifier_loss2/classifier_cub_0_split -> loss2/classifier_loss2/classifier_cub_0_split_2
I0906 00:29:20.701375 84751 net.cpp:155] Setting up loss2/classifier_loss2/classifier_cub_0_split
I0906 00:29:20.701383 84751 net.cpp:163] Top shape: 32 200 (6400)
I0906 00:29:20.701391 84751 net.cpp:163] Top shape: 32 200 (6400)
I0906 00:29:20.701398 84751 net.cpp:163] Top shape: 32 200 (6400)
I0906 00:29:20.701406 84751 layer_factory.hpp:76] Creating layer loss2/loss
I0906 00:29:20.701418 84751 net.cpp:110] Creating Layer loss2/loss
I0906 00:29:20.701426 84751 net.cpp:477] loss2/loss <- loss2/classifier_loss2/classifier_cub_0_split_0
I0906 00:29:20.701436 84751 net.cpp:477] loss2/loss <- label_data_1_split_3
I0906 00:29:20.701447 84751 net.cpp:433] loss2/loss -> loss2/loss1
…
I0906 00:29:20.701747 84751 net.cpp:433] loss2/top-5 -> loss2/top-5
I0906 00:29:20.701794 84751 net.cpp:155] Setting up loss2/top-5
I0906 00:29:20.701804 84751 net.cpp:163] Top shape: (1)
I0906 00:29:20.701812 84751 layer_factory.hpp:76] Creating layer inception_4e/1x1
I0906 00:29:20.701828 84751 net.cpp:110] Creating Layer inception_4e/1x1
I0906 00:29:20.701835 84751 net.cpp:477] inception_4e/1x1 <- inception_4d/output_inception_4d/output_0_split_1
I0906 00:29:20.701849 84751 net.cpp:433] inception_4e/1x1 -> inception_4e/1x1
I0906 00:29:20.704108 84751 net.cpp:155] Setting up inception_4e/1x1
I0906 00:29:20.704128 84751 net.cpp:163] Top shape: 32 256 14 14 (1605632)
I0906 00:29:20.704141 84751 layer_factory.hpp:76] Creating layer inception_4e/relu_1x1
I0906 00:29:20.704154 84751 net.cpp:110] Creating Layer inception_4e/relu_1x1
I0906 00:29:20.704160 84751 net.cpp:477] inception_4e/relu_1x1 <- inception_4e/1x1
I0906 00:29:20.704171 84751 net.cpp:419] inception_4e/relu_1x1 -> inception_4e/1x1 (in-place)
I0906 00:29:20.704183 84751 net.cpp:155] Setting up inception_4e/relu_1x1
I0906 00:29:20.704192 84751 net.cpp:163] Top shape: 32 256 14 14 (1605632)
I0906 00:29:20.704200 84751 layer_factory.hpp:76] Creating layer inception_4e/3x3_reduce
I0906 00:29:20.704241 84751 net.cpp:110] Creating Layer inception_4e/3x3_reduce
I0906 00:29:20.704249 84751 net.cpp:477] inception_4e/3x3_reduce <- inception_4d/output_inception_4d/output_0_split_2
I0906 00:29:20.704262 84751 net.cpp:433] inception_4e/3x3_reduce -> inception_4e/3x3_reduce
I0906 00:29:20.706626 84751 net.cpp:155] Setting up inception_4e/3x3_reduce
I0906 00:29:20.706651 84751 net.cpp:163] Top shape: 32 160 14 14 (1003520)
I0906 00:29:20.706667 84751 layer_factory.hpp:76] Creating layer inception_4e/relu_3x3_reduce
I0906 00:29:20.706681 84751 net.cpp:110] Creating Layer inception_4e/relu_3x3_reduce
I0906 00:29:20.706689 84751 net.cpp:477] inception_4e/relu_3x3_reduce <- inception_4e/3x3_reduce
I0906 00:29:20.706701 84751 net.cpp:419] inception_4e/relu_3x3_reduce -> inception_4e/3x3_reduce (in-place)
I0906 00:29:20.706714 84751 net.cpp:155] Setting up inception_4e/relu_3x3_reduce
I0906 00:29:20.706723 84751 net.cpp:163] Top shape: 32 160 14 14 (1003520)
I0906 00:29:20.706730 84751 layer_factory.hpp:76] Creating layer inception_4e/3x3
I0906 00:29:20.706744 84751 net.cpp:110] Creating Layer inception_4e/3x3
I0906 00:29:20.706750 84751 net.cpp:477] inception_4e/3x3 <- inception_4e/3x3_reduce
I0906 00:29:20.706763 84751 net.cpp:433] inception_4e/3x3 -> inception_4e/3x3
I0906 00:29:20.715477 84751 net.cpp:155] Setting up inception_4e/3x3
I0906 00:29:20.715502 84751 net.cpp:163] Top shape: 32 320 14 14 (2007040)
I0906 00:29:20.715517 84751 layer_factory.hpp:76] Creating layer inception_4e/relu_3x3
I0906 00:29:20.715531 84751 net.cpp:110] Creating Layer inception_4e/relu_3x3
I0906 00:29:20.715539 84751 net.cpp:477] inception_4e/relu_3x3 <- inception_4e/3x3
I0906 00:29:20.715551 84751 net.cpp:419] inception_4e/relu_3x3 -> inception_4e/3x3 (in-place)
I0906 00:29:20.715564 84751 net.cpp:155] Setting up inception_4e/relu_3x3
I0906 00:29:20.715574 84751 net.cpp:163] Top shape: 32 320 14 14 (2007040)
I0906 00:29:20.715580 84751 layer_factory.hpp:76] Creating layer inception_4e/5x5_reduce
I0906 00:29:20.715594 84751 net.cpp:110] Creating Layer inception_4e/5x5_reduce
I0906 00:29:20.715600 84751 net.cpp:477] inception_4e/5x5_reduce <- inception_4d/output_inception_4d/output_0_split_3
I0906 00:29:20.715615 84751 net.cpp:433] inception_4e/5x5_reduce -> inception_4e/5x5_reduce
I0906 00:29:20.716001 84751 net.cpp:155] Setting up inception_4e/5x5_reduce
I0906 00:29:20.716019 84751 net.cpp:163] Top shape: 32 32 14 14 (200704)
I0906 00:29:20.716032 84751 layer_factory.hpp:76] Creating layer inception_4e/relu_5x5_reduce
I0906 00:29:20.716042 84751 net.cpp:110] Creating Layer inception_4e/relu_5x5_reduce
I0906 00:29:20.716050 84751 net.cpp:477] inception_4e/relu_5x5_reduce <- inception_4e/5x5_reduce
I0906 00:29:20.716061 84751 net.cpp:419] inception_4e/relu_5x5_reduce -> inception_4e/5x5_reduce (in-place)
I0906 00:29:20.716073 84751 net.cpp:155] Setting up inception_4e/relu_5x5_reduce
I0906 00:29:20.716104 84751 net.cpp:163] Top shape: 32 32 14 14 (200704)
I0906 00:29:20.716111 84751 layer_factory.hpp:76] Creating layer inception_4e/5x5
I0906 00:29:20.716125 84751 net.cpp:110] Creating Layer inception_4e/5x5
I0906 00:29:20.716132 84751 net.cpp:477] inception_4e/5x5 <- inception_4e/5x5_reduce
I0906 00:29:20.716145 84751 net.cpp:433] inception_4e/5x5 -> inception_4e/5x5
I0906 00:29:20.717847 84751 net.cpp:155] Setting up inception_4e/5x5
I0906 00:29:20.717865 84751 net.cpp:163] Top shape: 32 128 14 14 (802816)
I0906 00:29:20.717878 84751 layer_factory.hpp:76] Creating layer inception_4e/relu_5x5
I0906 00:29:20.717890 84751 net.cpp:110] Creating Layer inception_4e/relu_5x5
I0906 00:29:20.717896 84751 net.cpp:477] inception_4e/relu_5x5 <- inception_4e/5x5
I0906 00:29:20.717907 84751 net.cpp:419] inception_4e/relu_5x5 -> inception_4e/5x5 (in-place)
I0906 00:29:20.717918 84751 net.cpp:155] Setting up inception_4e/relu_5x5
I0906 00:29:20.717927 84751 net.cpp:163] Top shape: 32 128 14 14 (802816)
I0906 00:29:20.717933 84751 layer_factory.hpp:76] Creating layer inception_4e/pool
I0906 00:29:20.717946 84751 net.cpp:110] Creating Layer inception_4e/pool
I0906 00:29:20.717953 84751 net.cpp:477] inception_4e/pool <- inception_4d/output_inception_4d/output_0_split_4
I0906 00:29:20.717964 84751 net.cpp:433] inception_4e/pool -> inception_4e/pool
I0906 00:29:20.717982 84751 net.cpp:155] Setting up inception_4e/pool
I0906 00:29:20.717989 84751 net.cpp:163] Top shape: 32 528 14 14 (3311616)
I0906 00:29:20.717996 84751 layer_factory.hpp:76] Creating layer inception_4e/pool_proj
I0906 00:29:20.718009 84751 net.cpp:110] Creating Layer inception_4e/pool_proj
I0906 00:29:20.718016 84751 net.cpp:477] inception_4e/pool_proj <- inception_4e/pool
I0906 00:29:20.718027 84751 net.cpp:433] inception_4e/pool_proj -> inception_4e/pool_proj
I0906 00:29:20.719199 84751 net.cpp:155] Setting up inception_4e/pool_proj
I0906 00:29:20.719215 84751 net.cpp:163] Top shape: 32 128 14 14 (802816)
I0906 00:29:20.719228 84751 layer_factory.hpp:76] Creating layer inception_4e/relu_pool_proj
I0906 00:29:20.719239 84751 net.cpp:110] Creating Layer inception_4e/relu_pool_proj
I0906 00:29:20.719247 84751 net.cpp:477] inception_4e/relu_pool_proj <- inception_4e/pool_proj
I0906 00:29:20.719259 84751 net.cpp:419] inception_4e/relu_pool_proj -> inception_4e/pool_proj (in-place)
I0906 00:29:20.719269 84751 net.cpp:155] Setting up inception_4e/relu_pool_proj
I0906 00:29:20.719279 84751 net.cpp:163] Top shape: 32 128 14 14 (802816)
I0906 00:29:20.719285 84751 layer_factory.hpp:76] Creating layer inception_4e/output
I0906 00:29:20.719296 84751 net.cpp:110] Creating Layer inception_4e/output
I0906 00:29:20.719303 84751 net.cpp:477] inception_4e/output <- inception_4e/1x1
I0906 00:29:20.719312 84751 net.cpp:477] inception_4e/output <- inception_4e/3x3
I0906 00:29:20.719321 84751 net.cpp:477] inception_4e/output <- inception_4e/5x5
I0906 00:29:20.719328 84751 net.cpp:477] inception_4e/output <- inception_4e/pool_proj
I0906 00:29:20.719339 84751 net.cpp:433] inception_4e/output -> inception_4e/output
I0906 00:29:20.719354 84751 net.cpp:155] Setting up inception_4e/output
I0906 00:29:20.719363 84751 net.cpp:163] Top shape: 32 832 14 14 (5218304)
I0906 00:29:20.719370 84751 layer_factory.hpp:76] Creating layer pool4/3x3_s2
I0906 00:29:20.719382 84751 net.cpp:110] Creating Layer pool4/3x3_s2
I0906 00:29:20.719388 84751 net.cpp:477] pool4/3x3_s2 <- inception_4e/output
I0906 00:29:20.719400 84751 net.cpp:433] pool4/3x3_s2 -> pool4/3x3_s2
I0906 00:29:20.719415 84751 net.cpp:155] Setting up pool4/3x3_s2
I0906 00:29:20.719424 84751 net.cpp:163] Top shape: 32 832 7 7 (1304576)
I0906 00:29:20.719430 84751 layer_factory.hpp:76] Creating layer pool4/3x3_s2_pool4/3x3_s2_0_split
I0906 00:29:20.719444 84751 net.cpp:110] Creating Layer pool4/3x3_s2_pool4/3x3_s2_0_split
I0906 00:29:20.719450 84751 net.cpp:477] pool4/3x3_s2_pool4/3x3_s2_0_split <- pool4/3x3_s2
I0906 00:29:20.719461 84751 net.cpp:433] pool4/3x3_s2_pool4/3x3_s2_0_split -> pool4/3x3_s2_pool4/3x3_s2_0_split_0
I0906 00:29:20.719511 84751 net.cpp:433] pool4/3x3_s2_pool4/3x3_s2_0_split -> pool4/3x3_s2_pool4/3x3_s2_0_split_1
I0906 00:29:20.719527 84751 net.cpp:433] pool4/3x3_s2_pool4/3x3_s2_0_split -> pool4/3x3_s2_pool4/3x3_s2_0_split_2
I0906 00:29:20.719569 84751 net.cpp:433] pool4/3x3_s2_pool4/3x3_s2_0_split -> pool4/3x3_s2_pool4/3x3_s2_0_split_3
I0906 00:29:20.719588 84751 net.cpp:155] Setting up pool4/3x3_s2_pool4/3x3_s2_0_split
I0906 00:29:20.719597 84751 net.cpp:163] Top shape: 32 832 7 7 (1304576)
I0906 00:29:20.719606 84751 net.cpp:163] Top shape: 32 832 7 7 (1304576)
I0906 00:29:20.719616 84751 net.cpp:163] Top shape: 32 832 7 7 (1304576)
I0906 00:29:20.719624 84751 net.cpp:163] Top shape: 32 832 7 7 (1304576)
I0906 00:29:20.719631 84751 layer_factory.hpp:76] Creating layer inception_5a/1x1
I0906 00:29:20.719645 84751 net.cpp:110] Creating Layer inception_5a/1x1
I0906 00:29:20.719653 84751 net.cpp:477] inception_5a/1x1 <- pool4/3x3_s2_pool4/3x3_s2_0_split_0
I0906 00:29:20.719666 84751 net.cpp:433] inception_5a/1x1 -> inception_5a/1x1
I0906 00:29:20.724041 84751 net.cpp:155] Setting up inception_5a/1x1
I0906 00:29:20.724067 84751 net.cpp:163] Top shape: 32 256 7 7 (401408)
I0906 00:29:20.724082 84751 layer_factory.hpp:76] Creating layer inception_5a/relu_1x1
I0906 00:29:20.724095 84751 net.cpp:110] Creating Layer inception_5a/relu_1x1
I0906 00:29:20.724103 84751 net.cpp:477] inception_5a/relu_1x1 <- inception_5a/1x1
I0906 00:29:20.724115 84751 net.cpp:419] inception_5a/relu_1x1 -> inception_5a/1x1 (in-place)
I0906 00:29:20.724128 84751 net.cpp:155] Setting up inception_5a/relu_1x1
I0906 00:29:20.724138 84751 net.cpp:163] Top shape: 32 256 7 7 (401408)
I0906 00:29:20.724144 84751 layer_factory.hpp:76] Creating layer inception_5a/3x3_reduce
I0906 00:29:20.724159 84751 net.cpp:110] Creating Layer inception_5a/3x3_reduce
I0906 00:29:20.724166 84751 net.cpp:477] inception_5a/3x3_reduce <- pool4/3x3_s2_pool4/3x3_s2_0_split_1
I0906 00:29:20.724179 84751 net.cpp:433] inception_5a/3x3_reduce -> inception_5a/3x3_reduce
I0906 00:29:20.727262 84751 net.cpp:155] Setting up inception_5a/3x3_reduce
I0906 00:29:20.727288 84751 net.cpp:163] Top shape: 32 160 7 7 (250880)
I0906 00:29:20.727303 84751 layer_factory.hpp:76] Creating layer inception_5a/relu_3x3_reduce
I0906 00:29:20.727313 84751 net.cpp:110] Creating Layer inception_5a/relu_3x3_reduce
I0906 00:29:20.727322 84751 net.cpp:477] inception_5a/relu_3x3_reduce <- inception_5a/3x3_reduce
I0906 00:29:20.727334 84751 net.cpp:419] inception_5a/relu_3x3_reduce -> inception_5a/3x3_reduce (in-place)
I0906 00:29:20.727347 84751 net.cpp:155] Setting up inception_5a/relu_3x3_reduce
I0906 00:29:20.727356 84751 net.cpp:163] Top shape: 32 160 7 7 (250880)
I0906 00:29:20.727362 84751 layer_factory.hpp:76] Creating layer inception_5a/3x3
I0906 00:29:20.727377 84751 net.cpp:110] Creating Layer inception_5a/3x3
I0906 00:29:20.727383 84751 net.cpp:477] inception_5a/3x3 <- inception_5a/3x3_reduce
I0906 00:29:20.727396 84751 net.cpp:433] inception_5a/3x3 -> inception_5a/3x3
I0906 00:29:20.736141 84751 net.cpp:155] Setting up inception_5a/3x3
I0906 00:29:20.736168 84751 net.cpp:163] Top shape: 32 320 7 7 (501760)
I0906 00:29:20.736183 84751 layer_factory.hpp:76] Creating layer inception_5a/relu_3x3
I0906 00:29:20.736196 84751 net.cpp:110] Creating Layer inception_5a/relu_3x3
I0906 00:29:20.736204 84751 net.cpp:477] inception_5a/relu_3x3 <- inception_5a/3x3
I0906 00:29:20.736215 84751 net.cpp:419] inception_5a/relu_3x3 -> inception_5a/3x3 (in-place)
I0906 00:29:20.736228 84751 net.cpp:155] Setting up inception_5a/relu_3x3
I0906 00:29:20.736238 84751 net.cpp:163] Top shape: 32 320 7 7 (501760)
I0906 00:29:20.736245 84751 layer_factory.hpp:76] Creating layer inception_5a/5x5_reduce
I0906 00:29:20.736259 84751 net.cpp:110] Creating Layer inception_5a/5x5_reduce
I0906 00:29:20.736266 84751 net.cpp:477] inception_5a/5x5_reduce <- pool4/3x3_s2_pool4/3x3_s2_0_split_2
I0906 00:29:20.736280 84751 net.cpp:433] inception_5a/5x5_reduce -> inception_5a/5x5_reduce
I0906 00:29:20.737694 84751 net.cpp:155] Setting up inception_5a/5x5_reduce
I0906 00:29:20.737740 84751 net.cpp:163] Top shape: 32 32 7 7 (50176)
I0906 00:29:20.737756 84751 layer_factory.hpp:76] Creating layer inception_5a/relu_5x5_reduce
I0906 00:29:20.737769 84751 net.cpp:110] Creating Layer inception_5a/relu_5x5_reduce
I0906 00:29:20.737777 84751 net.cpp:477] inception_5a/relu_5x5_reduce <- inception_5a/5x5_reduce
I0906 00:29:20.737788 84751 net.cpp:419] inception_5a/relu_5x5_reduce -> inception_5a/5x5_reduce (in-place)
I0906 00:29:20.737802 84751 net.cpp:155] Setting up inception_5a/relu_5x5_reduce
I0906 00:29:20.737812 84751 net.cpp:163] Top shape: 32 32 7 7 (50176)
I0906 00:29:20.737818 84751 layer_factory.hpp:76] Creating layer inception_5a/5x5
I0906 00:29:20.737838 84751 net.cpp:110] Creating Layer inception_5a/5x5
I0906 00:29:20.737844 84751 net.cpp:477] inception_5a/5x5 <- inception_5a/5x5_reduce
I0906 00:29:20.737857 84751 net.cpp:433] inception_5a/5x5 -> inception_5a/5x5
I0906 00:29:20.739567 84751 net.cpp:155] Setting up inception_5a/5x5
I0906 00:29:20.739584 84751 net.cpp:163] Top shape: 32 128 7 7 (200704)
I0906 00:29:20.739596 84751 layer_factory.hpp:76] Creating layer inception_5a/relu_5x5
I0906 00:29:20.739608 84751 net.cpp:110] Creating Layer inception_5a/relu_5x5
I0906 00:29:20.739615 84751 net.cpp:477] inception_5a/relu_5x5 <- inception_5a/5x5
I0906 00:29:20.739625 84751 net.cpp:419] inception_5a/relu_5x5 -> inception_5a/5x5 (in-place)
I0906 00:29:20.739636 84751 net.cpp:155] Setting up inception_5a/relu_5x5
I0906 00:29:20.739645 84751 net.cpp:163] Top shape: 32 128 7 7 (200704)
I0906 00:29:20.739651 84751 layer_factory.hpp:76] Creating layer inception_5a/pool
I0906 00:29:20.739663 84751 net.cpp:110] Creating Layer inception_5a/pool
I0906 00:29:20.739682 84751 net.cpp:477] inception_5a/pool <- pool4/3x3_s2_pool4/3x3_s2_0_split_3
I0906 00:29:20.739696 84751 net.cpp:433] inception_5a/pool -> inception_5a/pool
I0906 00:29:20.739713 84751 net.cpp:155] Setting up inception_5a/pool
I0906 00:29:20.739727 84751 net.cpp:163] Top shape: 32 832 7 7 (1304576)
I0906 00:29:20.739734 84751 layer_factory.hpp:76] Creating layer inception_5a/pool_proj
I0906 00:29:20.739750 84751 net.cpp:110] Creating Layer inception_5a/pool_proj
I0906 00:29:20.739758 84751 net.cpp:477] inception_5a/pool_proj <- inception_5a/pool
I0906 00:29:20.739771 84751 net.cpp:433] inception_5a/pool_proj -> inception_5a/pool_proj
I0906 00:29:20.742439 84751 net.cpp:155] Setting up inception_5a/pool_proj
I0906 00:29:20.742463 84751 net.cpp:163] Top shape: 32 128 7 7 (200704)
I0906 00:29:20.742478 84751 layer_factory.hpp:76] Creating layer inception_5a/relu_pool_proj
I0906 00:29:20.742491 84751 net.cpp:110] Creating Layer inception_5a/relu_pool_proj
I0906 00:29:20.742501 84751 net.cpp:477] inception_5a/relu_pool_proj <- inception_5a/pool_proj
I0906 00:29:20.742511 84751 net.cpp:419] inception_5a/relu_pool_proj -> inception_5a/pool_proj (in-place)
I0906 00:29:20.742524 84751 net.cpp:155] Setting up inception_5a/relu_pool_proj
I0906 00:29:20.742533 84751 net.cpp:163] Top shape: 32 128 7 7 (200704)
I0906 00:29:20.742539 84751 layer_factory.hpp:76] Creating layer inception_5a/output
I0906 00:29:20.742552 84751 net.cpp:110] Creating Layer inception_5a/output
I0906 00:29:20.742559 84751 net.cpp:477] inception_5a/output <- inception_5a/1x1
I0906 00:29:20.742568 84751 net.cpp:477] inception_5a/output <- inception_5a/3x3
I0906 00:29:20.742578 84751 net.cpp:477] inception_5a/output <- inception_5a/5x5
I0906 00:29:20.742585 84751 net.cpp:477] inception_5a/output <- inception_5a/pool_proj
I0906 00:29:20.742596 84751 net.cpp:433] inception_5a/output -> inception_5a/output
I0906 00:29:20.742611 84751 net.cpp:155] Setting up inception_5a/output
I0906 00:29:20.742620 84751 net.cpp:163] Top shape: 32 832 7 7 (1304576)
I0906 00:29:20.742626 84751 layer_factory.hpp:76] Creating layer inception_5a/output_inception_5a/output_0_split
I0906 00:29:20.742638 84751 net.cpp:110] Creating Layer inception_5a/output_inception_5a/output_0_split
I0906 00:29:20.742645 84751 net.cpp:477] inception_5a/output_inception_5a/output_0_split <- inception_5a/output
I0906 00:29:20.742679 84751 net.cpp:433] inception_5a/output_inception_5a/output_0_split -> inception_5a/output_inception_5a/output_0_split_0
I0906 00:29:20.742694 84751 net.cpp:433] inception_5a/output_inception_5a/output_0_split -> inception_5a/output_inception_5a/output_0_split_1
I0906 00:29:20.742707 84751 net.cpp:433] inception_5a/output_inception_5a/output_0_split -> inception_5a/output_inception_5a/output_0_split_2
I0906 00:29:20.742740 84751 net.cpp:433] inception_5a/output_inception_5a/output_0_split -> inception_5a/output_inception_5a/output_0_split_3
I0906 00:29:20.742756 84751 net.cpp:155] Setting up inception_5a/output_inception_5a/output_0_split
I0906 00:29:20.742765 84751 net.cpp:163] Top shape: 32 832 7 7 (1304576)
I0906 00:29:20.742774 84751 net.cpp:163] Top shape: 32 832 7 7 (1304576)
I0906 00:29:20.742781 84751 net.cpp:163] Top shape: 32 832 7 7 (1304576)
I0906 00:29:20.742789 84751 net.cpp:163] Top shape: 32 832 7 7 (1304576)
I0906 00:29:20.742795 84751 layer_factory.hpp:76] Creating layer inception_5b/1x1
I0906 00:29:20.742810 84751 net.cpp:110] Creating Layer inception_5b/1x1
I0906 00:29:20.742816 84751 net.cpp:477] inception_5b/1x1 <- inception_5a/output_inception_5a/output_0_split_0
I0906 00:29:20.742830 84751 net.cpp:433] inception_5b/1x1 -> inception_5b/1x1
I0906 00:29:20.749016 84751 net.cpp:155] Setting up inception_5b/1x1
I0906 00:29:20.749042 84751 net.cpp:163] Top shape: 32 384 7 7 (602112)
I0906 00:29:20.749058 84751 layer_factory.hpp:76] Creating layer inception_5b/relu_1x1
I0906 00:29:20.749070 84751 net.cpp:110] Creating Layer inception_5b/relu_1x1
I0906 00:29:20.749078 84751 net.cpp:477] inception_5b/relu_1x1 <- inception_5b/1x1
I0906 00:29:20.749090 84751 net.cpp:419] inception_5b/relu_1x1 -> inception_5b/1x1 (in-place)
I0906 00:29:20.749106 84751 net.cpp:155] Setting up inception_5b/relu_1x1
I0906 00:29:20.749115 84751 net.cpp:163] Top shape: 32 384 7 7 (602112)
I0906 00:29:20.749122 84751 layer_factory.hpp:76] Creating layer inception_5b/3x3_reduce
I0906 00:29:20.749136 84751 net.cpp:110] Creating Layer inception_5b/3x3_reduce
I0906 00:29:20.749143 84751 net.cpp:477] inception_5b/3x3_reduce <- inception_5a/output_inception_5a/output_0_split_1
I0906 00:29:20.749156 84751 net.cpp:433] inception_5b/3x3_reduce -> inception_5b/3x3_reduce
I0906 00:29:20.752697 84751 net.cpp:155] Setting up inception_5b/3x3_reduce
I0906 00:29:20.752722 84751 net.cpp:163] Top shape: 32 192 7 7 (301056)
I0906 00:29:20.752737 84751 layer_factory.hpp:76] Creating layer inception_5b/relu_3x3_reduce
I0906 00:29:20.752749 84751 net.cpp:110] Creating Layer inception_5b/relu_3x3_reduce
I0906 00:29:20.752758 84751 net.cpp:477] inception_5b/relu_3x3_reduce <- inception_5b/3x3_reduce
I0906 00:29:20.752769 84751 net.cpp:419] inception_5b/relu_3x3_reduce -> inception_5b/3x3_reduce (in-place)
I0906 00:29:20.752784 84751 net.cpp:155] Setting up inception_5b/relu_3x3_reduce
I0906 00:29:20.752791 84751 net.cpp:163] Top shape: 32 192 7 7 (301056)
I0906 00:29:20.752799 84751 layer_factory.hpp:76] Creating layer inception_5b/3x3
I0906 00:29:20.752812 84751 net.cpp:110] Creating Layer inception_5b/3x3
I0906 00:29:20.752818 84751 net.cpp:477] inception_5b/3x3 <- inception_5b/3x3_reduce
I0906 00:29:20.752836 84751 net.cpp:433] inception_5b/3x3 -> inception_5b/3x3
I0906 00:29:20.765200 84751 net.cpp:155] Setting up inception_5b/3x3
I0906 00:29:20.765225 84751 net.cpp:163] Top shape: 32 384 7 7 (602112)
I0906 00:29:20.765240 84751 layer_factory.hpp:76] Creating layer inception_5b/relu_3x3
I0906 00:29:20.765254 84751 net.cpp:110] Creating Layer inception_5b/relu_3x3
I0906 00:29:20.765264 84751 net.cpp:477] inception_5b/relu_3x3 <- inception_5b/3x3
I0906 00:29:20.765275 84751 net.cpp:419] inception_5b/relu_3x3 -> inception_5b/3x3 (in-place)
I0906 00:29:20.765287 84751 net.cpp:155] Setting up inception_5b/relu_3x3
I0906 00:29:20.765296 84751 net.cpp:163] Top shape: 32 384 7 7 (602112)
I0906 00:29:20.765303 84751 layer_factory.hpp:76] Creating layer inception_5b/5x5_reduce
I0906 00:29:20.765339 84751 net.cpp:110] Creating Layer inception_5b/5x5_reduce
I0906 00:29:20.765347 84751 net.cpp:477] inception_5b/5x5_reduce <- inception_5a/output_inception_5a/output_0_split_2
I0906 00:29:20.765362 84751 net.cpp:433] inception_5b/5x5_reduce -> inception_5b/5x5_reduce
I0906 00:29:20.766113 84751 net.cpp:155] Setting up inception_5b/5x5_reduce
I0906 00:29:20.766131 84751 net.cpp:163] Top shape: 32 48 7 7 (75264)
I0906 00:29:20.766144 84751 layer_factory.hpp:76] Creating layer inception_5b/relu_5x5_reduce
I0906 00:29:20.766155 84751 net.cpp:110] Creating Layer inception_5b/relu_5x5_reduce
I0906 00:29:20.766163 84751 net.cpp:477] inception_5b/relu_5x5_reduce <- inception_5b/5x5_reduce
I0906 00:29:20.766173 84751 net.cpp:419] inception_5b/relu_5x5_reduce -> inception_5b/5x5_reduce (in-place)
I0906 00:29:20.766185 84751 net.cpp:155] Setting up inception_5b/relu_5x5_reduce
I0906 00:29:20.766193 84751 net.cpp:163] Top shape: 32 48 7 7 (75264)
I0906 00:29:20.766199 84751 layer_factory.hpp:76] Creating layer inception_5b/5x5
I0906 00:29:20.766212 84751 net.cpp:110] Creating Layer inception_5b/5x5
I0906 00:29:20.766219 84751 net.cpp:477] inception_5b/5x5 <- inception_5b/5x5_reduce
I0906 00:29:20.766232 84751 net.cpp:433] inception_5b/5x5 -> inception_5b/5x5
I0906 00:29:20.768748 84751 net.cpp:155] Setting up inception_5b/5x5
I0906 00:29:20.768766 84751 net.cpp:163] Top shape: 32 128 7 7 (200704)
I0906 00:29:20.768779 84751 layer_factory.hpp:76] Creating layer inception_5b/relu_5x5
I0906 00:29:20.768790 84751 net.cpp:110] Creating Layer inception_5b/relu_5x5
I0906 00:29:20.768797 84751 net.cpp:477] inception_5b/relu_5x5 <- inception_5b/5x5
I0906 00:29:20.768807 84751 net.cpp:419] inception_5b/relu_5x5 -> inception_5b/5x5 (in-place)
I0906 00:29:20.768820 84751 net.cpp:155] Setting up inception_5b/relu_5x5
I0906 00:29:20.768827 84751 net.cpp:163] Top shape: 32 128 7 7 (200704)
I0906 00:29:20.768833 84751 layer_factory.hpp:76] Creating layer inception_5b/pool
I0906 00:29:20.768846 84751 net.cpp:110] Creating Layer inception_5b/pool
I0906 00:29:20.768853 84751 net.cpp:477] inception_5b/pool <- inception_5a/output_inception_5a/output_0_split_3
I0906 00:29:20.768865 84751 net.cpp:433] inception_5b/pool -> inception_5b/pool
I0906 00:29:20.768882 84751 net.cpp:155] Setting up inception_5b/pool
I0906 00:29:20.768889 84751 net.cpp:163] Top shape: 32 832 7 7 (1304576)
I0906 00:29:20.768896 84751 layer_factory.hpp:76] Creating layer inception_5b/pool_proj
I0906 00:29:20.768909 84751 net.cpp:110] Creating Layer inception_5b/pool_proj
I0906 00:29:20.768916 84751 net.cpp:477] inception_5b/pool_proj <- inception_5b/pool
I0906 00:29:20.768929 84751 net.cpp:433] inception_5b/pool_proj -> inception_5b/pool_proj
I0906 00:29:20.771600 84751 net.cpp:155] Setting up inception_5b/pool_proj
I0906 00:29:20.771625 84751 net.cpp:163] Top shape: 32 128 7 7 (200704)
I0906 00:29:20.771639 84751 layer_factory.hpp:76] Creating layer inception_5b/relu_pool_proj
I0906 00:29:20.771651 84751 net.cpp:110] Creating Layer inception_5b/relu_pool_proj
I0906 00:29:20.771661 84751 net.cpp:477] inception_5b/relu_pool_proj <- inception_5b/pool_proj
I0906 00:29:20.771682 84751 net.cpp:419] inception_5b/relu_pool_proj -> inception_5b/pool_proj (in-place)
I0906 00:29:20.771695 84751 net.cpp:155] Setting up inception_5b/relu_pool_proj
I0906 00:29:20.771704 84751 net.cpp:163] Top shape: 32 128 7 7 (200704)
I0906 00:29:20.771711 84751 layer_factory.hpp:76] Creating layer inception_5b/output
I0906 00:29:20.771723 84751 net.cpp:110] Creating Layer inception_5b/output
I0906 00:29:20.771730 84751 net.cpp:477] inception_5b/output <- inception_5b/1x1
I0906 00:29:20.771739 84751 net.cpp:477] inception_5b/output <- inception_5b/3x3
I0906 00:29:20.771747 84751 net.cpp:477] inception_5b/output <- inception_5b/5x5
I0906 00:29:20.771755 84751 net.cpp:477] inception_5b/output <- inception_5b/pool_proj
I0906 00:29:20.771766 84751 net.cpp:433] inception_5b/output -> inception_5b/output
I0906 00:29:20.771781 84751 net.cpp:155] Setting up inception_5b/output
I0906 00:29:20.771790 84751 net.cpp:163] Top shape: 32 1024 7 7 (1605632)
I0906 00:29:20.771818 84751 layer_factory.hpp:76] Creating layer pool5/7x7_s1
I0906 00:29:20.771831 84751 net.cpp:110] Creating Layer pool5/7x7_s1
I0906 00:29:20.771838 84751 net.cpp:477] pool5/7x7_s1 <- inception_5b/output
I0906 00:29:20.771849 84751 net.cpp:433] pool5/7x7_s1 -> pool5/7x7_s1
I0906 00:29:20.771864 84751 net.cpp:155] Setting up pool5/7x7_s1
I0906 00:29:20.771874 84751 net.cpp:163] Top shape: 32 1024 1 1 (32768)
I0906 00:29:20.771880 84751 layer_factory.hpp:76] Creating layer pool5/drop_7x7_s1
I0906 00:29:20.771893 84751 net.cpp:110] Creating Layer pool5/drop_7x7_s1
I0906 00:29:20.771900 84751 net.cpp:477] pool5/drop_7x7_s1 <- pool5/7x7_s1
I0906 00:29:20.771910 84751 net.cpp:419] pool5/drop_7x7_s1 -> pool5/7x7_s1 (in-place)
I0906 00:29:20.771925 84751 net.cpp:155] Setting up pool5/drop_7x7_s1
I0906 00:29:20.771934 84751 net.cpp:163] Top shape: 32 1024 1 1 (32768)
I0906 00:29:20.771940 84751 layer_factory.hpp:76] Creating layer loss3/classifier_cub
I0906 00:29:20.771956 84751 net.cpp:110] Creating Layer loss3/classifier_cub
I0906 00:29:20.771963 84751 net.cpp:477] loss3/classifier_cub <- pool5/7x7_s1
I0906 00:29:20.771975 84751 net.cpp:433] loss3/classifier_cub -> loss3/classifier
I0906 00:29:20.787463 84751 net.cpp:155] Setting up loss3/classifier_cub
I0906 00:29:20.787489 84751 net.cpp:163] Top shape: 32 200 (6400)
I0906 00:29:20.787509 84751 layer_factory.hpp:76] Creating layer loss3/classifier_loss3/classifier_cub_0_split
I0906 00:29:20.787526 84751 net.cpp:110] Creating Layer loss3/classifier_loss3/classifier_cub_0_split
I0906 00:29:20.787534 84751 net.cpp:477] loss3/classifier_loss3/classifier_cub_0_split <- loss3/classifier
I0906 00:29:20.787547 84751 net.cpp:433] loss3/classifier_loss3/classifier_cub_0_split -> loss3/classifier_loss3/classifier_cub_0_split_0
I0906 00:29:20.787564 84751 net.cpp:433] loss3/classifier_loss3/classifier_cub_0_split -> loss3/classifier_loss3/classifier_cub_0_split_1
I0906 00:29:20.787580 84751 net.cpp:433] loss3/classifier_loss3/classifier_cub_0_split -> loss3/classifier_loss3/classifier_cub_0_split_2
I0906 00:29:20.787595 84751 net.cpp:155] Setting up loss3/classifier_loss3/classifier_cub_0_split
I0906 00:29:20.787605 84751 net.cpp:163] Top shape: 32 200 (6400)
I0906 00:29:20.787612 84751 net.cpp:163] Top shape: 32 200 (6400)
I0906 00:29:20.787621 84751 net.cpp:163] Top shape: 32 200 (6400)
I0906 00:29:20.787627 84751 layer_factory.hpp:76] Creating layer loss3/loss3
I0906 00:29:20.787639 84751 net.cpp:110] Creating Layer loss3/loss3
I0906 00:29:20.787647 84751 net.cpp:477] loss3/loss3 <- loss3/classifier_loss3/classifier_cub_0_split_0
I0906 00:29:20.787657 84751 net.cpp:477] loss3/loss3 <- label_data_1_split_6
I0906 00:29:20.787667 84751 net.cpp:433] loss3/loss3 -> loss3/loss3
…
