…
I0907 19:36:24.079047 99249 net.cpp:339] The NetState phase (0) differed from the phase (1) specified by a rule in layer loss3/top-5
I0907 19:36:24.081795 99249 net.cpp:50] Initializing net from parameters: 
name: "Inception_6_bn_final"
state {
  phase: TRAIN
}
layer {
  name: "data"
  type: "Data"
  top: "data"
  top: "label"
  include {
    phase: TRAIN
  }
  transform_param {
    mirror: true
    crop_size: 224
    mean_value: 104
    mean_value: 117
    mean_value: 123
  }
  data_param {
    source: "/ssd/ilsvrc2012/ilsvrc12_train_lmdb"
    batch_size: 32
    backend: LMDB
  }
}
layer {
  name: "conv1/7x7_s2"
  type: "Convolution"
  bottom: "data"
  top: "conv1/7x7_s2"
  param {
    lr_mult: 1
    decay_mult: 1
  }
  param {
    lr_mult: 2
    decay_mult: 0
  }
  convolution_param {
    num_output: 64
    pad: 3
    kernel_size: 7
    stride: 2
    weight_filler {
      type: "msra"
    }
    bias_filler {
      type: "constant"
      value: 0.2
    }
  }
}
layer {
  name: "BN_00000001"
  type: "BN"
  bottom: "conv1/7x7_s2"
  top: "conv1/7x7_s2/bn"
}
layer {
  name: "conv1/relu_7x7"
  type: "ReLU"
  bottom: "conv1/7x7_s2/bn"
  top: "conv1/7x7_s2/bn"
}
layer {
  name: "pool1/3x3_s2"
  type: "Pooling"
  bottom: "conv1/7x7_s2/bn"
  top: "pool1/3x3_s2"
  pooling_param {
    pool: MAX
    kernel_size: 3
    stride: 2
  }
}
layer {
  name: "conv2/3x3_reduce"
  type: "Convolution"
  bottom: "pool1/3x3_s2"
  top: "conv2/3x3_reduce"
  param {
    lr_mult: 1
    decay_mult: 1
  }
  param {
    lr_mult: 2
    decay_mult: 0
  }
  convolution_param {
    num_output: 64
    kernel_size: 1
    weight_filler {
      type: "msra"
    }
    bias_filler {
      type: "constant"
      value: 0.2
    }
  }
}
layer {
  name: "BN_00000002"
  type: "BN"
  bottom: "conv2/3x3_reduce"
  top: "conv2/3x3_reduce/bn"
}
layer {
  name: "conv2/relu_3x3_reduce"
  type: "ReLU"
  bottom: "conv2/3x3_reduce/bn"
  top: "conv2/3x3_reduce/bn"
}
layer {
  name: "conv2/3x3"
  type: "Convolution"
  bottom: "conv2/3x3_reduce/bn"
  top: "conv2/3x3"
  param {
    lr_mult: 1
    decay_mult: 1
  }
  param {
    lr_mult: 2
    decay_mult: 0
  }
  convolution_param {
    num_output: 192
    pad: 1
    kernel_size: 3
    weight_filler {
      type: "msra"
    }
    bias_filler {
      type: "constant"
      value: 0.2
    }
  }
}
layer {
  name: "BN_00000003"
  type: "BN"
  bottom: "conv2/3x3"
  top: "conv2/3x3/bn"
}
layer {
  name: "conv2/relu_3x3"
  type: "ReLU"
  bottom: "conv2/3x3/bn"
  top: "conv2/3x3/bn"
}
layer {
  name: "pool2/3x3_s2"
  type: "Pooling"
  bottom: "conv2/3x3/bn"
  top: "pool2/3x3_s2"
  pooling_param {
    pool: MAX
    kernel_size: 3
    stride: 2
  }
}
layer {
  name: "inception_3a/1x1"
  type: "Convolution"
  bottom: "pool2/3x3_s2"
  top: "inception_3a/1x1"
  param {
    lr_mult: 1
    decay_mult: 1
  }
  param {
    lr_mult: 2
    decay_mult: 0
  }
  convolution_param {
    num_output: 64
    kernel_size: 1
    weight_filler {
      type: "msra"
    }
    bias_filler {
      type: "constant"
      value: 0.2
    }
  }
}
layer {
  name: "BN_00000004"
  type: "BN"
  bottom: "inception_3a/1x1"
  top: "inception_3a/1x1/bn"
}
layer {
  name: "inception_3a/relu_1x1"
  type: "ReLU"
  bottom: "inception_3a/1x1/bn"
  top: "inception_3a/1x1/bn"
}
layer {
  name: "inception_3a/3x3_reduce"
  type: "Convolution"
  bottom: "pool2/3x3_s2"
  top: "inception_3a/3x3_reduce"
  param {
    lr_mult: 1
    decay_mult: 1
  }
  param {
    lr_mult: 2
    decay_mult: 0
  }
  convolution_param {
    num_output: 64
    kernel_size: 1
    weight_filler {
      type: "msra"
    }
    bias_filler {
      type: "constant"
      value: 0.2
    }
  }
}
layer {
  name: "BN_00000005"
  type: "BN"
  bottom: "inception_3a/3x3_reduce"
  top: "inception_3a/3x3_reduce/bn"
}
layer {
  name: "inception_3a/relu_3x3_reduce"
  type: "ReLU"
  bottom: "inception_3a/3x3_reduce/bn"
  top: "inception_3a/3x3_reduce/bn"
}
layer {
  name: "inception_3a/3x3"
  type: "Convolution"
  bottom: "inception_3a/3x3_reduce/bn"
  top: "inception_3a/3x3"
  param {
    lr_mult: 1
    decay_mult: 1
  }
  param {
    lr_mult: 2
    decay_mult: 0
  }
  convolution_param {
    num_output: 64
    pad: 1
    kernel_size: 3
    weight_filler {
      type: "msra"
    }
    bias_filler {
      type: "constant"
      value: 0.2
    }
  }
}
layer {
  name: "BN_00000006"
  type: "BN"
  bottom: "inception_3a/3x3"
  top: "inception_3a/3x3/bn"
}
layer {
  name: "inception_3a/relu_3x3"
  type: "ReLU"
  bottom: "inception_3a/3x3/bn"
  top: "inception_3a/3x3/bn"
}
layer {
  name: "inception_3a/double3x3_reduce"
  type: "Convolution"
  bottom: "pool2/3x3_s2"
  top: "inception_3a/double3x3_reduce"
  param {
    lr_mult: 1
    decay_mult: 1
  }
  param {
    lr_mult: 2
    decay_mult: 0
  }
  convolution_param {
    num_output: 64
    kernel_size: 1
    weight_filler {
      type: "msra"
    }
    bias_filler {
      type: "constant"
      value: 0.2
    }
  }
}
layer {
  name: "BN_00000007"
  type: "BN"
  bottom: "inception_3a/double3x3_reduce"
  top: "inception_3a/double3x3_reduce/bn"
}
layer {
  name: "inception_3a/relu_double3x3_reduce"
  type: "ReLU"
  bottom: "inception_3a/double3x3_reduce/bn"
  top: "inception_3a/double3x3_reduce/bn"
}
layer {
  name: "inception_3a/double3x3_mid"
  type: "Convolution"
  bottom: "inception_3a/double3x3_reduce/bn"
  top: "inception_3a/double3x3_mid"
  param {
    lr_mult: 1
    decay_mult: 1
  }
  param {
    lr_mult: 2
    decay_mult: 0
  }
  convolution_param {
    num_output: 96
    pad: 1
    kernel_size: 3
    weight_filler {
      type: "msra"
    }
    bias_filler {
      type: "constant"
      value: 0.2
    }
  }
}
layer {
  name: "BN_00000008"
  type: "BN"
  bottom: "inception_3a/double3x3_mid"
  top: "inception_3a/double3x3_mid/bn"
}
layer {
  name: "inception_3a/relu_double3x3_mid"
  type: "ReLU"
  bottom: "inception_3a/double3x3_mid/bn"
  top: "inception_3a/double3x3_mid/bn"
}
layer {
  name: "inception_3a/double3x3"
  type: "Convolution"
  bottom: "inception_3a/double3x3_mid/bn"
  top: "inception_3a/double3x3"
  param {
    lr_mult: 1
    decay_mult: 1
  }
  param {
    lr_mult: 2
    decay_mult: 0
  }
  convolution_param {
    num_output: 96
    pad: 1
    kernel_size: 3
    weight_filler {
      type: "msra"
    }
    bias_filler {
      type: "constant"
      value: 0.2
    }
  }
}
layer {
  name: "BN_00000009"
  type: "BN"
  bottom: "inception_3a/double3x3"
  top: "inception_3a/double3x3/bn"
}
layer {
  name: "inception_3a/relu_double3x3"
  type: "ReLU"
  bottom: "inception_3a/double3x3/bn"
  top: "inception_3a/double3x3/bn"
}
layer {
  name: "inception_3a/pool"
  type: "Pooling"
  bottom: "pool2/3x3_s2"
  top: "inception_3a/pool"
  pooling_param {
    pool: AVE
    kernel_size: 3
    stride: 1
    pad: 1
  }
}
layer {
  name: "inception_3a/pool_proj"
  type: "Convolution"
  bottom: "inception_3a/pool"
  top: "inception_3a/pool_proj"
  param {
    lr_mult: 1
    decay_mult: 1
  }
  param {
    lr_mult: 2
    decay_mult: 0
  }
  convolution_param {
    num_output: 32
    kernel_size: 1
    weight_filler {
      type: "msra"
    }
    bias_filler {
      type: "constant"
      value: 0.2
    }
  }
}
layer {
  name: "BN_00000010"
  type: "BN"
  bottom: "inception_3a/pool_proj"
  top: "inception_3a/pool_proj/bn"
}
layer {
  name: "inception_3a/relu_pool_proj"
  type: "ReLU"
  bottom: "inception_3a/pool_proj/bn"
  top: "inception_3a/pool_proj/bn"
}
layer {
  name: "inception_3a/output"
  type: "Concat"
  bottom: "inception_3a/1x1/bn"
  bottom: "inception_3a/3x3/bn"
  bottom: "inception_3a/double3x3/bn"
  bottom: "inception_3a/pool_proj/bn"
  top: "inception_3a/output"
}
layer {
  name: "inception_3b/1x1"
  type: "Convolution"
  bottom: "inception_3a/output"
  top: "inception_3b/1x1"
  param {
    lr_mult: 1
    decay_mult: 1
  }
  param {
    lr_mult: 2
    decay_mult: 0
  }
  convolution_param {
    num_output: 64
    kernel_size: 1
    weight_filler {
      type: "msra"
    }
    bias_filler {
      type: "constant"
      value: 0.2
    }
  }
}
layer {
  name: "BN_00000011"
  type: "BN"
  bottom: "inception_3b/1x1"
  top: "inception_3b/1x1/bn"
}
layer {
  name: "inception_3b/relu_1x1"
  type: "ReLU"
  bottom: "inception_3b/1x1/bn"
  top: "inception_3b/1x1/bn"
}
layer {
  name: "inception_3b/3x3_reduce"
  type: "Convolution"
  bottom: "inception_3a/output"
  top: "inception_3b/3x3_reduce"
  param {
    lr_mult: 1
    decay_mult: 1
  }
  param {
    lr_mult: 2
    decay_mult: 0
  }
  convolution_param {
    num_output: 64
    kernel_size: 1
    weight_filler {
      type: "msra"
    }
    bias_filler {
      type: "constant"
      value: 0.2
    }
  }
}
layer {
  name: "BN_00000012"
  type: "BN"
  bottom: "inception_3b/3x3_reduce"
  top: "inception_3b/3x3_reduce/bn"
}
layer {
  name: "inception_3b/relu_3x3_reduce"
  type: "ReLU"
  bottom: "inception_3b/3x3_reduce/bn"
  top: "inception_3b/3x3_reduce/bn"
}
layer {
  name: "inception_3b/3x3"
  type: "Convolution"
  bottom: "inception_3b/3x3_reduce/bn"
  top: "inception_3b/3x3"
  param {
    lr_mult: 1
    decay_mult: 1
  }
  param {
    lr_mult: 2
    decay_mult: 0
  }
  convolution_param {
    num_output: 96
    pad: 1
    kernel_size: 3
    weight_filler {
      type: "msra"
    }
    bias_filler {
      type: "constant"
      value: 0.2
    }
  }
}
layer {
  name: "BN_00000013"
  type: "BN"
  bottom: "inception_3b/3x3"
  top: "inception_3b/3x3/bn"
}
layer {
  name: "inception_3b/relu_3x3"
  type: "ReLU"
  bottom: "inception_3b/3x3/bn"
  top: "inception_3b/3x3/bn"
}
layer {
  name: "inception_3b/double3x3_reduce"
  type: "Convolution"
  bottom: "inception_3a/output"
  top: "inception_3b/double3x3_reduce"
  param {
    lr_mult: 1
    decay_mult: 1
  }
  param {
    lr_mult: 2
    decay_mult: 0
  }
  convolution_param {
    num_output: 64
    kernel_size: 1
    weight_filler {
      type: "msra"
    }
    bias_filler {
      type: "constant"
      value: 0.2
    }
  }
}
layer {
  name: "BN_00000014"
  type: "BN"
  bottom: "inception_3b/double3x3_reduce"
  top: "inception_3b/double3x3_reduce/bn"
}
layer {
  name: "inception_3b/relu_double3x3_reduce"
  type: "ReLU"
  bottom: "inception_3b/double3x3_reduce/bn"
  top: "inception_3b/double3x3_reduce/bn"
}
layer {
  name: "inception_3b/double3x3_mid"
  type: "Convolution"
  bottom: "inception_3b/double3x3_reduce/bn"
  top: "inception_3b/double3x3_mid"
  param {
    lr_mult: 1
    decay_mult: 1
  }
  param {
    lr_mult: 2
    decay_mult: 0
  }
  convolution_param {
    num_output: 96
    pad: 1
    kernel_size: 3
    weight_filler {
      type: "msra"
    }
    bias_filler {
      type: "constant"
      value: 0.2
    }
  }
}
layer {
  name: "BN_00000015"
  type: "BN"
  bottom: "inception_3b/double3x3_mid"
  top: "inception_3b/double3x3_mid/bn"
}
layer {
  name: "inception_3b/relu_double3x3_mid"
  type: "ReLU"
  bottom: "inception_3b/double3x3_mid/bn"
  top: "inception_3b/double3x3_mid/bn"
}
layer {
  name: "inception_3b/double3x3"
  type: "Convolution"
  bottom: "inception_3b/double3x3_mid/bn"
  top: "inception_3b/double3x3"
  param {
    lr_mult: 1
    decay_mult: 1
  }
  param {
    lr_mult: 2
    decay_mult: 0
  }
  convolution_param {
    num_output: 96
    pad: 1
    kernel_size: 3
    weight_filler {
      type: "msra"
    }
    bias_filler {
      type: "constant"
      value: 0.2
    }
  }
}
layer {
  name: "BN_00000016"
  type: "BN"
  bottom: "inception_3b/double3x3"
  top: "inception_3b/double3x3/bn"
}
layer {
  name: "inception_3b/relu_double3x3"
  type: "ReLU"
  bottom: "inception_3b/double3x3/bn"
  top: "inception_3b/double3x3/bn"
}
layer {
  name: "inception_3b/pool"
  type: "Pooling"
  bottom: "inception_3a/output"
  top: "inception_3b/pool"
  pooling_param {
    pool: AVE
    kernel_size: 3
    stride: 1
    pad: 1
  }
}
layer {
  name: "inception_3b/pool_proj"
  type: "Convolution"
  bottom: "inception_3b/pool"
  top: "inception_3b/pool_proj"
  param {
    lr_mult: 1
    decay_mult: 1
  }
  param {
    lr_mult: 2
    decay_mult: 0
  }
  convolution_param {
    num_output: 64
    kernel_size: 1
    weight_filler {
      type: "msra"
    }
    bias_filler {
      type: "constant"
      value: 0.2
    }
  }
}
layer {
  name: "BN_00000017"
  type: "BN"
  bottom: "inception_3b/pool_proj"
  top: "inception_3b/pool_proj/bn"
}
layer {
  name: "inception_3b/relu_pool_proj"
  type: "ReLU"
  bottom: "inception_3b/pool_proj/bn"
  top: "inception_3b/pool_proj/bn"
}
layer {
  name: "inception_3b/output"
  type: "Concat"
  bottom: "inception_3b/1x1/bn"
  bottom: "inception_3b/3x3/bn"
  bottom: "inception_3b/double3x3/bn"
  bottom: "inception_3b/pool_proj/bn"
  top: "inception_3b/output"
}
layer {
  name: "inception_3c/3x3_reduce"
  type: "Convolution"
  bottom: "inception_3b/output"
  top: "inception_3c/3x3_reduce"
  param {
    lr_mult: 1
    decay_mult: 1
  }
  param {
    lr_mult: 2
    decay_mult: 0
  }
  convolution_param {
    num_output: 128
    kernel_size: 1
    weight_filler {
      type: "msra"
    }
    bias_filler {
      type: "constant"
      value: 0.2
    }
  }
}
layer {
  name: "BN_00000018"
  type: "BN"
  bottom: "inception_3c/3x3_reduce"
  top: "inception_3c/3x3_reduce/bn"
}
layer {
  name: "inception_3c/relu_3x3_reduce"
  type: "ReLU"
  bottom: "inception_3c/3x3_reduce/bn"
  top: "inception_3c/3x3_reduce/bn"
}
layer {
  name: "inception_3c/3x3_s2"
  type: "Convolution"
  bottom: "inception_3c/3x3_reduce/bn"
  top: "inception_3c/3x3_s2"
  param {
    lr_mult: 1
    decay_mult: 1
  }
  param {
    lr_mult: 2
    decay_mult: 0
  }
  convolution_param {
    num_output: 160
    pad: 1
    kernel_size: 3
    stride: 2
    weight_filler {
      type: "msra"
    }
    bias_filler {
      type: "constant"
      value: 0.2
    }
  }
}
layer {
  name: "BN_00000019"
  type: "BN"
  bottom: "inception_3c/3x3_s2"
  top: "inception_3c/3x3_s2/bn"
}
layer {
  name: "inception_3c/relu_3x3"
  type: "ReLU"
  bottom: "inception_3c/3x3_s2/bn"
  top: "inception_3c/3x3_s2/bn"
}
layer {
  name: "inception_3c/double3x3_reduce"
  type: "Convolution"
  bottom: "inception_3b/output"
  top: "inception_3c/double3x3_reduce"
  param {
    lr_mult: 1
    decay_mult: 1
  }
  param {
    lr_mult: 2
    decay_mult: 0
  }
  convolution_param {
    num_output: 64
    kernel_size: 1
    weight_filler {
      type: "msra"
    }
    bias_filler {
      type: "constant"
      value: 0.2
    }
  }
}
layer {
  name: "BN_00000020"
  type: "BN"
  bottom: "inception_3c/double3x3_reduce"
  top: "inception_3c/double3x3_reduce/bn"
}
layer {
  name: "inception_3c/relu_double3x3_reduce"
  type: "ReLU"
  bottom: "inception_3c/double3x3_reduce/bn"
  top: "inception_3c/double3x3_reduce/bn"
}
layer {
  name: "inception_3c/double3x3_mid"
  type: "Convolution"
  bottom: "inception_3c/double3x3_reduce/bn"
  top: "inception_3c/double3x3_mid"
  param {
    lr_mult: 1
    decay_mult: 1
  }
  param {
    lr_mult: 2
    decay_mult: 0
  }
  convolution_param {
    num_output: 96
    pad: 1
    kernel_size: 3
    weight_filler {
      type: "msra"
    }
    bias_filler {
      type: "constant"
      value: 0.2
    }
  }
}
layer {
  name: "BN_00000021"
  type: "BN"
  bottom: "inception_3c/double3x3_mid"
  top: "inception_3c/double3x3_mid/bn"
}
layer {
  name: "inception_3c/relu_double3x3_mid"
  type: "ReLU"
  bottom: "inception_3c/double3x3_mid/bn"
  top: "inception_3c/double3x3_mid/bn"
}
layer {
  name: "inception_3c/double3x3"
  type: "Convolution"
  bottom: "inception_3c/double3x3_mid/bn"
  top: "inception_3c/double3x3_s2"
  param {
    lr_mult: 1
    decay_mult: 1
  }
  param {
    lr_mult: 2
    decay_mult: 0
  }
  convolution_param {
    num_output: 96
    pad: 1
    kernel_size: 3
    stride: 2
    weight_filler {
      type: "msra"
    }
    bias_filler {
      type: "constant"
      value: 0.2
    }
  }
}
layer {
  name: "BN_00000022"
  type: "BN"
  bottom: "inception_3c/double3x3_s2"
  top: "inception_3c/double3x3_s2/bn"
}
layer {
  name: "inception_3c/relu_double3x3"
  type: "ReLU"
  bottom: "inception_3c/double3x3_s2/bn"
  top: "inception_3c/double3x3_s2/bn"
}
layer {
  name: "inception_3c/pool"
  type: "Pooling"
  bottom: "inception_3b/output"
  top: "inception_3c/pool"
  pooling_param {
    pool: MAX
    kernel_size: 3
    stride: 2
  }
}
layer {
  name: "BN_00000023"
  type: "BN"
  bottom: "inception_3c/pool"
  top: "inception_3c/pool/bn"
}
layer {
  name: "inception_3c/relu_pool"
  type: "ReLU"
  bottom: "inception_3c/pool/bn"
  top: "inception_3c/pool/bn"
}
layer {
  name: "inception_3c/output"
  type: "Concat"
  bottom: "inception_3c/3x3_s2/bn"
  bottom: "inception_3c/double3x3_s2/bn"
  bottom: "inception_3c/pool/bn"
  top: "inception_3c/output"
}
layer {
  name: "inception_4a/1x1"
  type: "Convolution"
  bottom: "inception_3c/output"
  top: "inception_4a/1x1"
  param {
    lr_mult: 1
    decay_mult: 1
  }
  param {
    lr_mult: 2
    decay_mult: 0
  }
  convolution_param {
    num_output: 224
    kernel_size: 1
    weight_filler {
      type: "msra"
    }
    bias_filler {
      type: "constant"
      value: 0.2
    }
  }
}
layer {
  name: "BN_00000024"
  type: "BN"
  bottom: "inception_4a/1x1"
  top: "inception_4a/1x1/bn"
}
layer {
  name: "inception_4a/relu_1x1"
  type: "ReLU"
  bottom: "inception_4a/1x1/bn"
  top: "inception_4a/1x1/bn"
}
layer {
  name: "inception_4a/3x3_reduce"
  type: "Convolution"
  bottom: "inception_3c/output"
  top: "inception_4a/3x3_reduce"
  param {
    lr_mult: 1
    decay_mult: 1
  }
  param {
    lr_mult: 2
    decay_mult: 0
  }
  convolution_param {
    num_output: 64
    kernel_size: 1
    weight_filler {
      type: "msra"
    }
    bias_filler {
      type: "constant"
      value: 0.2
    }
  }
}
layer {
  name: "BN_00000025"
  type: "BN"
  bottom: "inception_4a/3x3_reduce"
  top: "inception_4a/3x3_reduce/bn"
}
layer {
  name: "inception_4a/relu_3x3_reduce"
  type: "ReLU"
  bottom: "inception_4a/3x3_reduce/bn"
  top: "inception_4a/3x3_reduce/bn"
}
layer {
  name: "inception_4a/3x3"
  type: "Convolution"
  bottom: "inception_4a/3x3_reduce/bn"
  top: "inception_4a/3x3"
  param {
    lr_mult: 1
    decay_mult: 1
  }
  param {
    lr_mult: 2
    decay_mult: 0
  }
  convolution_param {
    num_output: 96
    pad: 1
    kernel_size: 3
    weight_filler {
      type: "msra"
    }
    bias_filler {
      type: "constant"
      value: 0.2
    }
  }
}
layer {
  name: "BN_00000026"
  type: "BN"
  bottom: "inception_4a/3x3"
  top: "inception_4a/3x3/bn"
}
layer {
  name: "inception_4a/relu_3x3"
  type: "ReLU"
  bottom: "inception_4a/3x3/bn"
  top: "inception_4a/3x3/bn"
}
layer {
  name: "inception_4a/double3x3_reduce"
  type: "Convolution"
  bottom: "inception_3c/output"
  top: "inception_4a/double3x3_reduce"
  param {
    lr_mult: 1
    decay_mult: 1
  }
  param {
    lr_mult: 2
    decay_mult: 0
  }
  convolution_param {
    num_output: 96
    kernel_size: 1
    weight_filler {
      type: "msra"
    }
    bias_filler {
      type: "constant"
      value: 0.2
    }
  }
}
layer {
  name: "BN_00000027"
  type: "BN"
  bottom: "inception_4a/double3x3_reduce"
  top: "inception_4a/double3x3_reduce/bn"
}
layer {
  name: "inception_4a/relu_double3x3_reduce"
  type: "ReLU"
  bottom: "inception_4a/double3x3_reduce/bn"
  top: "inception_4a/double3x3_reduce/bn"
}
layer {
  name: "inception_4a/double3x3_mid"
  type: "Convolution"
  bottom: "inception_4a/double3x3_reduce/bn"
  top: "inception_4a/double3x3_mid"
  param {
    lr_mult: 1
    decay_mult: 1
  }
  param {
    lr_mult: 2
    decay_mult: 0
  }
  convolution_param {
    num_output: 128
    pad: 1
    kernel_size: 3
    weight_filler {
      type: "msra"
    }
    bias_filler {
      type: "constant"
      value: 0.2
    }
  }
}
layer {
  name: "BN_00000028"
  type: "BN"
  bottom: "inception_4a/double3x3_mid"
  top: "inception_4a/double3x3_mid/bn"
}
layer {
  name: "inception_4a/relu_double3x3_mid"
  type: "ReLU"
  bottom: "inception_4a/double3x3_mid/bn"
  top: "inception_4a/double3x3_mid/bn"
}
layer {
  name: "inception_4a/double3x3"
  type: "Convolution"
  bottom: "inception_4a/double3x3_mid/bn"
  top: "inception_4a/double3x3"
  param {
    lr_mult: 1
    decay_mult: 1
  }
  param {
    lr_mult: 2
    decay_mult: 0
  }
  convolution_param {
    num_output: 128
    pad: 1
    kernel_size: 3
    weight_filler {
      type: "msra"
    }
    bias_filler {
      type: "constant"
      value: 0.2
    }
  }
}
layer {
  name: "BN_00000029"
  type: "BN"
  bottom: "inception_4a/double3x3"
  top: "inception_4a/double3x3/bn"
}
layer {
  name: "inception_4a/relu_double3x3"
  type: "ReLU"
  bottom: "inception_4a/double3x3/bn"
  top: "inception_4a/double3x3/bn"
}
layer {
  name: "inception_4a/pool"
  type: "Pooling"
  bottom: "inception_3c/output"
  top: "inception_4a/pool"
  pooling_param {
    pool: AVE
    kernel_size: 3
    stride: 1
    pad: 1
  }
}
layer {
  name: "inception_4a/pool_proj"
  type: "Convolution"
  bottom: "inception_4a/pool"
  top: "inception_4a/pool_proj"
  param {
    lr_mult: 1
    decay_mult: 1
  }
  param {
    lr_mult: 2
    decay_mult: 0
  }
  convolution_param {
    num_output: 128
    kernel_size: 1
    weight_filler {
      type: "msra"
    }
    bias_filler {
      type: "constant"
      value: 0.2
    }
  }
}
layer {
  name: "BN_00000030"
  type: "BN"
  bottom: "inception_4a/pool_proj"
  top: "inception_4a/pool_proj/bn"
}
layer {
  name: "inception_4a/relu_pool_proj"
  type: "ReLU"
  bottom: "inception_4a/pool_proj/bn"
  top: "inception_4a/pool_proj/bn"
}
layer {
  name: "inception_4a/output"
  type: "Concat"
  bottom: "inception_4a/1x1/bn"
  bottom: "inception_4a/3x3/bn"
  bottom: "inception_4a/double3x3/bn"
  bottom: "inception_4a/pool_proj/bn"
  top: "inception_4a/output"
}
layer {
  name: "loss1/ave_pool"
  type: "Pooling"
  bottom: "inception_4a/output"
  top: "loss1/ave_pool"
  pooling_param {
    pool: AVE
    kernel_size: 5
    stride: 3
  }
}
layer {
  name: "loss1/conv"
  type: "Convolution"
  bottom: "loss1/ave_pool"
  top: "loss1/conv"
  param {
    lr_mult: 1
    decay_mult: 1
  }
  param {
    lr_mult: 2
    decay_mult: 0
  }
  convolution_param {
    num_output: 128
    kernel_size: 1
    weight_filler {
      type: "msra"
    }
    bias_filler {
      type: "constant"
      value: 0.2
    }
  }
}
layer {
  name: "BN_00000031"
  type: "BN"
  bottom: "loss1/conv"
  top: "loss1/conv/bn"
}
layer {
  name: "loss1/relu_conv"
  type: "ReLU"
  bottom: "loss1/conv/bn"
  top: "loss1/conv/bn"
}
layer {
  name: "loss1/fc"
  type: "InnerProduct"
  bottom: "loss1/conv/bn"
  top: "loss1/fc"
  param {
    lr_mult: 1
    decay_mult: 1
  }
  param {
    lr_mult: 2
    decay_mult: 0
  }
  inner_product_param {
    num_output: 1024
    weight_filler {
      type: "msra"
    }
    bias_filler {
      type: "constant"
      value: 0.2
    }
  }
}
layer {
  name: "BN_00000032"
  type: "BN"
  bottom: "loss1/fc"
  top: "loss1/fc/bn"
}
layer {
  name: "loss1/relu_fc"
  type: "ReLU"
  bottom: "loss1/fc/bn"
  top: "loss1/fc/bn"
}
layer {
  name: "loss1/classifier"
  type: "InnerProduct"
  bottom: "loss1/fc/bn"
  top: "loss1/classifier"
  param {
    lr_mult: 1
    decay_mult: 1
  }
  param {
    lr_mult: 2
    decay_mult: 0
  }
  inner_product_param {
    num_output: 1000
    weight_filler {
      type: "msra"
    }
    bias_filler {
      type: "constant"
      value: 0
    }
  }
}
layer {
  name: "loss1/loss"
  type: "SoftmaxWithLoss"
  bottom: "loss1/classifier"
  bottom: "label"
  top: "loss1/loss1"
  loss_weight: 0.3
}
layer {
  name: "inception_4b/1x1"
  type: "Convolution"
  bottom: "inception_4a/output"
  top: "inception_4b/1x1"
  param {
    lr_mult: 1
    decay_mult: 1
  }
  param {
    lr_mult: 2
    decay_mult: 0
  }
  convolution_param {
    num_output: 192
    kernel_size: 1
    weight_filler {
      type: "msra"
    }
    bias_filler {
      type: "constant"
      value: 0.2
    }
  }
}
layer {
  name: "BN_00000033"
  type: "BN"
  bottom: "inception_4b/1x1"
  top: "inception_4b/1x1/bn"
}
layer {
  name: "inception_4b/relu_1x1"
  type: "ReLU"
  bottom: "inception_4b/1x1/bn"
  top: "inception_4b/1x1/bn"
}
layer {
  name: "inception_4b/3x3_reduce"
  type: "Convolution"
  bottom: "inception_4a/output"
  top: "inception_4b/3x3_reduce"
  param {
    lr_mult: 1
    decay_mult: 1
  }
  param {
    lr_mult: 2
    decay_mult: 0
  }
  convolution_param {
    num_output: 96
    kernel_size: 1
    weight_filler {
      type: "msra"
    }
    bias_filler {
      type: "constant"
      value: 0.2
    }
  }
}
layer {
  name: "BN_00000034"
  type: "BN"
  bottom: "inception_4b/3x3_reduce"
  top: "inception_4b/3x3_reduce/bn"
}
layer {
  name: "inception_4b/relu_3x3_reduce"
  type: "ReLU"
  bottom: "inception_4b/3x3_reduce/bn"
  top: "inception_4b/3x3_reduce/bn"
}
layer {
  name: "inception_4b/3x3"
  type: "Convolution"
  bottom: "inception_4b/3x3_reduce/bn"
  top: "inception_4b/3x3"
  param {
    lr_mult: 1
    decay_mult: 1
  }
  param {
    lr_mult: 2
    decay_mult: 0
  }
  convolution_param {
    num_output: 128
    pad: 1
    kernel_size: 3
    weight_filler {
      type: "msra"
    }
    bias_filler {
      type: "constant"
      value: 0.2
    }
  }
}
layer {
  name: "BN_00000035"
  type: "BN"
  bottom: "inception_4b/3x3"
  top: "inception_4b/3x3/bn"
}
layer {
  name: "inception_4b/relu_3x3"
  type: "ReLU"
  bottom: "inception_4b/3x3/bn"
  top: "inception_4b/3x3/bn"
}
layer {
  name: "inception_4b/double3x3_reduce"
  type: "Convolution"
  bottom: "inception_4a/output"
  top: "inception_4b/double3x3_reduce"
  param {
    lr_mult: 1
    decay_mult: 1
  }
  param {
    lr_mult: 2
    decay_mult: 0
  }
  convolution_param {
    num_output: 96
    kernel_size: 1
    weight_filler {
      type: "msra"
    }
    bias_filler {
      type: "constant"
      value: 0.2
    }
  }
}
layer {
  name: "BN_00000036"
  type: "BN"
  bottom: "inception_4b/double3x3_reduce"
  top: "inception_4b/double3x3_reduce/bn"
}
layer {
  name: "inception_4b/relu_double3x3_reduce"
  type: "ReLU"
  bottom: "inception_4b/double3x3_reduce/bn"
  top: "inception_4b/double3x3_reduce/bn"
}
layer {
  name: "inception_4b/double3x3_mid"
  type: "Convolution"
  bottom: "inception_4b/double3x3_reduce/bn"
  top: "inception_4b/double3x3_mid"
  param {
    lr_mult: 1
    decay_mult: 1
  }
  param {
    lr_mult: 2
    decay_mult: 0
  }
  convolution_param {
    num_output: 128
    pad: 1
    kernel_size: 3
    weight_filler {
      type: "msra"
    }
    bias_filler {
      type: "constant"
      value: 0.2
    }
  }
}
layer {
  name: "BN_00000037"
  type: "BN"
  bottom: "inception_4b/double3x3_mid"
  top: "inception_4b/double3x3_mid/bn"
}
layer {
  name: "inception_4b/relu_double3x3_mid"
  type: "ReLU"
  bottom: "inception_4b/double3x3_mid/bn"
  top: "inception_4b/double3x3_mid/bn"
}
layer {
  name: "inception_4b/double3x3"
  type: "Convolution"
  bottom: "inception_4b/double3x3_mid/bn"
  top: "inception_4b/double3x3"
  param {
    lr_mult: 1
    decay_mult: 1
  }
  param {
    lr_mult: 2
    decay_mult: 0
  }
  convolution_param {
    num_output: 128
    pad: 1
    kernel_size: 3
    weight_filler {
      type: "msra"
    }
    bias_filler {
      type: "constant"
      value: 0.2
    }
  }
}
layer {
  name: "BN_00000038"
  type: "BN"
  bottom: "inception_4b/double3x3"
  top: "inception_4b/double3x3/bn"
}
layer {
  name: "inception_4b/relu_double3x3"
  type: "ReLU"
  bottom: "inception_4b/double3x3/bn"
  top: "inception_4b/double3x3/bn"
}
layer {
  name: "inception_4b/pool"
  type: "Pooling"
  bottom: "inception_4a/output"
  top: "inception_4b/pool"
  pooling_param {
    pool: AVE
    kernel_size: 3
    stride: 1
    pad: 1
  }
}
layer {
  name: "inception_4b/pool_proj"
  type: "Convolution"
  bottom: "inception_4b/pool"
  top: "inception_4b/pool_proj"
  param {
    lr_mult: 1
    decay_mult: 1
  }
  param {
    lr_mult: 2
    decay_mult: 0
  }
  convolution_param {
    num_output: 128
    kernel_size: 1
    weight_filler {
      type: "msra"
    }
    bias_filler {
      type: "constant"
      value: 0.2
    }
  }
}
layer {
  name: "BN_00000039"
  type: "BN"
  bottom: "inception_4b/pool_proj"
  top: "inception_4b/pool_proj/bn"
}
layer {
  name: "inception_4b/relu_pool_proj"
  type: "ReLU"
  bottom: "inception_4b/pool_proj/bn"
  top: "inception_4b/pool_proj/bn"
}
layer {
  name: "inception_4b/output"
  type: "Concat"
  bottom: "inception_4b/1x1/bn"
  bottom: "inception_4b/3x3/bn"
  bottom: "inception_4b/double3x3/bn"
  bottom: "inception_4b/pool_proj/bn"
  top: "inception_4b/output"
}
layer {
  name: "inception_4c/1x1"
  type: "Convolution"
  bottom: "inception_4b/output"
  top: "inception_4c/1x1"
  param {
    lr_mult: 1
    decay_mult: 1
  }
  param {
    lr_mult: 2
    decay_mult: 0
  }
  convolution_param {
    num_output: 160
    kernel_size: 1
    weight_filler {
      type: "msra"
    }
    bias_filler {
      type: "constant"
      value: 0.2
    }
  }
}
layer {
  name: "BN_00000040"
  type: "BN"
  bottom: "inception_4c/1x1"
  top: "inception_4c/1x1/bn"
}
layer {
  name: "inception_4c/relu_1x1"
  type: "ReLU"
  bottom: "inception_4c/1x1/bn"
  top: "inception_4c/1x1/bn"
}
layer {
  name: "inception_4c/3x3_reduce"
  type: "Convolution"
  bottom: "inception_4b/output"
  top: "inception_4c/3x3_reduce"
  param {
    lr_mult: 1
    decay_mult: 1
  }
  param {
    lr_mult: 2
    decay_mult: 0
  }
  convolution_param {
    num_output: 128
    kernel_size: 1
    weight_filler {
      type: "msra"
    }
    bias_filler {
      type: "constant"
      value: 0.2
    }
  }
}
layer {
  name: "BN_00000041"
  type: "BN"
  bottom: "inception_4c/3x3_reduce"
  top: "inception_4c/3x3_reduce/bn"
}
layer {
  name: "inception_4c/relu_3x3_reduce"
  type: "ReLU"
  bottom: "inception_4c/3x3_reduce/bn"
  top: "inception_4c/3x3_reduce/bn"
}
layer {
  name: "inception_4c/3x3"
  type: "Convolution"
  bottom: "inception_4c/3x3_reduce/bn"
  top: "inception_4c/3x3"
  param {
    lr_mult: 1
    decay_mult: 1
  }
  param {
    lr_mult: 2
    decay_mult: 0
  }
  convolution_param {
    num_output: 160
    pad: 1
    kernel_size: 3
    weight_filler {
      type: "msra"
    }
    bias_filler {
      type: "constant"
      value: 0.2
I0907 19:36:24.084363 99249 layer_factory.hpp:76] Creating layer data
I0907 19:36:24.085418 99249 net.cpp:110] Creating Layer data
I0907 19:36:24.085546 99249 net.cpp:433] data -> data
I0907 19:36:24.085629 99249 net.cpp:433] data -> label
I0907 19:36:24.089253 99252 db_lmdb.cpp:22] Opened lmdb /ssd/ilsvrc2012/ilsvrc12_train_lmdb
I0907 19:36:24.091392 99249 data_layer.cpp:44] output data size: 32,3,224,224
I0907 19:36:24.181108 99249 net.cpp:155] Setting up data
I0907 19:36:24.181289 99249 net.cpp:163] Top shape: 32 3 224 224 (4816896)
I0907 19:36:24.181321 99249 net.cpp:163] Top shape: 32 (32)
I0907 19:36:24.181334 99249 layer_factory.hpp:76] Creating layer label_data_1_split
I0907 19:36:24.181380 99249 net.cpp:110] Creating Layer label_data_1_split
I0907 19:36:24.181397 99249 net.cpp:477] label_data_1_split <- label
I0907 19:36:24.181423 99249 net.cpp:433] label_data_1_split -> label_data_1_split_0
I0907 19:36:24.181442 99249 net.cpp:433] label_data_1_split -> label_data_1_split_1
I0907 19:36:24.181457 99249 net.cpp:433] label_data_1_split -> label_data_1_split_2
I0907 19:36:24.181481 99249 net.cpp:155] Setting up label_data_1_split
I0907 19:36:24.181493 99249 net.cpp:163] Top shape: 32 (32)
I0907 19:36:24.181502 99249 net.cpp:163] Top shape: 32 (32)
I0907 19:36:24.181547 99249 net.cpp:163] Top shape: 32 (32)
I0907 19:36:24.181555 99249 layer_factory.hpp:76] Creating layer conv1/7x7_s2
I0907 19:36:24.181586 99249 net.cpp:110] Creating Layer conv1/7x7_s2
I0907 19:36:24.181604 99249 net.cpp:477] conv1/7x7_s2 <- data
I0907 19:36:24.181622 99249 net.cpp:433] conv1/7x7_s2 -> conv1/7x7_s2
I0907 19:36:24.183771 99249 net.cpp:155] Setting up conv1/7x7_s2
I0907 19:36:24.183799 99249 net.cpp:163] Top shape: 32 64 112 112 (25690112)
I0907 19:36:24.183831 99249 layer_factory.hpp:76] Creating layer BN_00000001
I0907 19:36:24.183852 99249 net.cpp:110] Creating Layer BN_00000001
I0907 19:36:24.183861 99249 net.cpp:477] BN_00000001 <- conv1/7x7_s2
I0907 19:36:24.183872 99249 net.cpp:433] BN_00000001 -> conv1/7x7_s2/bn
I0907 19:36:24.185528 99249 net.cpp:155] Setting up BN_00000001
I0907 19:36:24.185566 99249 net.cpp:163] Top shape: 32 64 112 112 (25690112)
I0907 19:36:24.185591 99249 layer_factory.hpp:76] Creating layer conv1/relu_7x7
I0907 19:36:24.185608 99249 net.cpp:110] Creating Layer conv1/relu_7x7
I0907 19:36:24.185617 99249 net.cpp:477] conv1/relu_7x7 <- conv1/7x7_s2/bn
I0907 19:36:24.185628 99249 net.cpp:419] conv1/relu_7x7 -> conv1/7x7_s2/bn (in-place)
I0907 19:36:24.185647 99249 net.cpp:155] Setting up conv1/relu_7x7
I0907 19:36:24.185658 99249 net.cpp:163] Top shape: 32 64 112 112 (25690112)
I0907 19:36:24.185667 99249 layer_factory.hpp:76] Creating layer pool1/3x3_s2
I0907 19:36:24.185684 99249 net.cpp:110] Creating Layer pool1/3x3_s2
I0907 19:36:24.185693 99249 net.cpp:477] pool1/3x3_s2 <- conv1/7x7_s2/bn
I0907 19:36:24.185703 99249 net.cpp:433] pool1/3x3_s2 -> pool1/3x3_s2
I0907 19:36:24.185741 99249 net.cpp:155] Setting up pool1/3x3_s2
I0907 19:36:24.185761 99249 net.cpp:163] Top shape: 32 64 56 56 (6422528)
I0907 19:36:24.185768 99249 layer_factory.hpp:76] Creating layer conv2/3x3_reduce
I0907 19:36:24.185784 99249 net.cpp:110] Creating Layer conv2/3x3_reduce
I0907 19:36:24.185806 99249 net.cpp:477] conv2/3x3_reduce <- pool1/3x3_s2
I0907 19:36:24.185817 99249 net.cpp:433] conv2/3x3_reduce -> conv2/3x3_reduce
I0907 19:36:24.187366 99249 net.cpp:155] Setting up conv2/3x3_reduce
I0907 19:36:24.187392 99249 net.cpp:163] Top shape: 32 64 56 56 (6422528)
I0907 19:36:24.187413 99249 layer_factory.hpp:76] Creating layer BN_00000002
I0907 19:36:24.187427 99249 net.cpp:110] Creating Layer BN_00000002
I0907 19:36:24.187434 99249 net.cpp:477] BN_00000002 <- conv2/3x3_reduce
I0907 19:36:24.187450 99249 net.cpp:433] BN_00000002 -> conv2/3x3_reduce/bn
I0907 19:36:24.187518 99249 net.cpp:155] Setting up BN_00000002
I0907 19:36:24.187535 99249 net.cpp:163] Top shape: 32 64 56 56 (6422528)
I0907 19:36:24.187549 99249 layer_factory.hpp:76] Creating layer conv2/relu_3x3_reduce
I0907 19:36:24.187567 99249 net.cpp:110] Creating Layer conv2/relu_3x3_reduce
I0907 19:36:24.187582 99249 net.cpp:477] conv2/relu_3x3_reduce <- conv2/3x3_reduce/bn
I0907 19:36:24.187593 99249 net.cpp:419] conv2/relu_3x3_reduce -> conv2/3x3_reduce/bn (in-place)
I0907 19:36:24.187609 99249 net.cpp:155] Setting up conv2/relu_3x3_reduce
I0907 19:36:24.187620 99249 net.cpp:163] Top shape: 32 64 56 56 (6422528)
I0907 19:36:24.187628 99249 layer_factory.hpp:76] Creating layer conv2/3x3
I0907 19:36:24.187641 99249 net.cpp:110] Creating Layer conv2/3x3
I0907 19:36:24.187649 99249 net.cpp:477] conv2/3x3 <- conv2/3x3_reduce/bn
I0907 19:36:24.187659 99249 net.cpp:433] conv2/3x3 -> conv2/3x3
I0907 19:36:24.196920 99249 net.cpp:155] Setting up conv2/3x3
I0907 19:36:24.196950 99249 net.cpp:163] Top shape: 32 192 56 56 (19267584)
I0907 19:36:24.196974 99249 layer_factory.hpp:76] Creating layer BN_00000003
I0907 19:36:24.196986 99249 net.cpp:110] Creating Layer BN_00000003
I0907 19:36:24.196995 99249 net.cpp:477] BN_00000003 <- conv2/3x3
I0907 19:36:24.197034 99249 net.cpp:433] BN_00000003 -> conv2/3x3/bn
I0907 19:36:24.197119 99249 net.cpp:155] Setting up BN_00000003
I0907 19:36:24.197137 99249 net.cpp:163] Top shape: 32 192 56 56 (19267584)
I0907 19:36:24.197152 99249 layer_factory.hpp:76] Creating layer conv2/relu_3x3
I0907 19:36:24.197178 99249 net.cpp:110] Creating Layer conv2/relu_3x3
I0907 19:36:24.197216 99249 net.cpp:477] conv2/relu_3x3 <- conv2/3x3/bn
I0907 19:36:24.197233 99249 net.cpp:419] conv2/relu_3x3 -> conv2/3x3/bn (in-place)
I0907 19:36:24.197247 99249 net.cpp:155] Setting up conv2/relu_3x3
I0907 19:36:24.197257 99249 net.cpp:163] Top shape: 32 192 56 56 (19267584)
I0907 19:36:24.197265 99249 layer_factory.hpp:76] Creating layer pool2/3x3_s2
I0907 19:36:24.197278 99249 net.cpp:110] Creating Layer pool2/3x3_s2
I0907 19:36:24.197284 99249 net.cpp:477] pool2/3x3_s2 <- conv2/3x3/bn
I0907 19:36:24.197296 99249 net.cpp:433] pool2/3x3_s2 -> pool2/3x3_s2
I0907 19:36:24.197312 99249 net.cpp:155] Setting up pool2/3x3_s2
I0907 19:36:24.197322 99249 net.cpp:163] Top shape: 32 192 28 28 (4816896)
I0907 19:36:24.197330 99249 layer_factory.hpp:76] Creating layer pool2/3x3_s2_pool2/3x3_s2_0_split
I0907 19:36:24.197346 99249 net.cpp:110] Creating Layer pool2/3x3_s2_pool2/3x3_s2_0_split
I0907 19:36:24.197355 99249 net.cpp:477] pool2/3x3_s2_pool2/3x3_s2_0_split <- pool2/3x3_s2
I0907 19:36:24.197365 99249 net.cpp:433] pool2/3x3_s2_pool2/3x3_s2_0_split -> pool2/3x3_s2_pool2/3x3_s2_0_split_0
I0907 19:36:24.197377 99249 net.cpp:433] pool2/3x3_s2_pool2/3x3_s2_0_split -> pool2/3x3_s2_pool2/3x3_s2_0_split_1
I0907 19:36:24.197391 99249 net.cpp:433] pool2/3x3_s2_pool2/3x3_s2_0_split -> pool2/3x3_s2_pool2/3x3_s2_0_split_2
I0907 19:36:24.197402 99249 net.cpp:433] pool2/3x3_s2_pool2/3x3_s2_0_split -> pool2/3x3_s2_pool2/3x3_s2_0_split_3
I0907 19:36:24.197420 99249 net.cpp:155] Setting up pool2/3x3_s2_pool2/3x3_s2_0_split
I0907 19:36:24.197435 99249 net.cpp:163] Top shape: 32 192 28 28 (4816896)
I0907 19:36:24.197444 99249 net.cpp:163] Top shape: 32 192 28 28 (4816896)
I0907 19:36:24.197453 99249 net.cpp:163] Top shape: 32 192 28 28 (4816896)
I0907 19:36:24.197463 99249 net.cpp:163] Top shape: 32 192 28 28 (4816896)
I0907 19:36:24.197470 99249 layer_factory.hpp:76] Creating layer inception_3a/1x1
I0907 19:36:24.197489 99249 net.cpp:110] Creating Layer inception_3a/1x1
I0907 19:36:24.197509 99249 net.cpp:477] inception_3a/1x1 <- pool2/3x3_s2_pool2/3x3_s2_0_split_0
I0907 19:36:24.197520 99249 net.cpp:433] inception_3a/1x1 -> inception_3a/1x1
I0907 19:36:24.214522 99249 net.cpp:155] Setting up inception_3a/1x1
I0907 19:36:24.214551 99249 net.cpp:163] Top shape: 32 64 28 28 (1605632)
I0907 19:36:24.214568 99249 layer_factory.hpp:76] Creating layer BN_00000004
I0907 19:36:24.214611 99249 net.cpp:110] Creating Layer BN_00000004
I0907 19:36:24.214627 99249 net.cpp:477] BN_00000004 <- inception_3a/1x1
I0907 19:36:24.214640 99249 net.cpp:433] BN_00000004 -> inception_3a/1x1/bn
I0907 19:36:24.214728 99249 net.cpp:155] Setting up BN_00000004
I0907 19:36:24.214745 99249 net.cpp:163] Top shape: 32 64 28 28 (1605632)
I0907 19:36:24.214761 99249 layer_factory.hpp:76] Creating layer inception_3a/relu_1x1
I0907 19:36:24.214777 99249 net.cpp:110] Creating Layer inception_3a/relu_1x1
I0907 19:36:24.214792 99249 net.cpp:477] inception_3a/relu_1x1 <- inception_3a/1x1/bn
I0907 19:36:24.214803 99249 net.cpp:419] inception_3a/relu_1x1 -> inception_3a/1x1/bn (in-place)
I0907 19:36:24.214817 99249 net.cpp:155] Setting up inception_3a/relu_1x1
I0907 19:36:24.214826 99249 net.cpp:163] Top shape: 32 64 28 28 (1605632)
I0907 19:36:24.214833 99249 layer_factory.hpp:76] Creating layer inception_3a/3x3_reduce
I0907 19:36:24.214848 99249 net.cpp:110] Creating Layer inception_3a/3x3_reduce
I0907 19:36:24.214855 99249 net.cpp:477] inception_3a/3x3_reduce <- pool2/3x3_s2_pool2/3x3_s2_0_split_1
I0907 19:36:24.214874 99249 net.cpp:433] inception_3a/3x3_reduce -> inception_3a/3x3_reduce
I0907 19:36:24.215859 99249 net.cpp:155] Setting up inception_3a/3x3_reduce
I0907 19:36:24.215878 99249 net.cpp:163] Top shape: 32 64 28 28 (1605632)
I0907 19:36:24.215900 99249 layer_factory.hpp:76] Creating layer BN_00000005
I0907 19:36:24.215916 99249 net.cpp:110] Creating Layer BN_00000005
I0907 19:36:24.215924 99249 net.cpp:477] BN_00000005 <- inception_3a/3x3_reduce
I0907 19:36:24.215936 99249 net.cpp:433] BN_00000005 -> inception_3a/3x3_reduce/bn
I0907 19:36:24.216029 99249 net.cpp:155] Setting up BN_00000005
I0907 19:36:24.216053 99249 net.cpp:163] Top shape: 32 64 28 28 (1605632)
I0907 19:36:24.216068 99249 layer_factory.hpp:76] Creating layer inception_3a/relu_3x3_reduce
I0907 19:36:24.216089 99249 net.cpp:110] Creating Layer inception_3a/relu_3x3_reduce
I0907 19:36:24.216096 99249 net.cpp:477] inception_3a/relu_3x3_reduce <- inception_3a/3x3_reduce/bn
I0907 19:36:24.216107 99249 net.cpp:419] inception_3a/relu_3x3_reduce -> inception_3a/3x3_reduce/bn (in-place)
I0907 19:36:24.216120 99249 net.cpp:155] Setting up inception_3a/relu_3x3_reduce
I0907 19:36:24.216130 99249 net.cpp:163] Top shape: 32 64 28 28 (1605632)
I0907 19:36:24.216138 99249 layer_factory.hpp:76] Creating layer inception_3a/3x3
I0907 19:36:24.216151 99249 net.cpp:110] Creating Layer inception_3a/3x3
I0907 19:36:24.216159 99249 net.cpp:477] inception_3a/3x3 <- inception_3a/3x3_reduce/bn
I0907 19:36:24.216176 99249 net.cpp:433] inception_3a/3x3 -> inception_3a/3x3
I0907 19:36:24.220010 99249 net.cpp:155] Setting up inception_3a/3x3
I0907 19:36:24.220039 99249 net.cpp:163] Top shape: 32 64 28 28 (1605632)
I0907 19:36:24.220054 99249 layer_factory.hpp:76] Creating layer BN_00000006
I0907 19:36:24.220067 99249 net.cpp:110] Creating Layer BN_00000006
I0907 19:36:24.220074 99249 net.cpp:477] BN_00000006 <- inception_3a/3x3
I0907 19:36:24.220091 99249 net.cpp:433] BN_00000006 -> inception_3a/3x3/bn
I0907 19:36:24.220160 99249 net.cpp:155] Setting up BN_00000006
I0907 19:36:24.220175 99249 net.cpp:163] Top shape: 32 64 28 28 (1605632)
I0907 19:36:24.220196 99249 layer_factory.hpp:76] Creating layer inception_3a/relu_3x3
I0907 19:36:24.220216 99249 net.cpp:110] Creating Layer inception_3a/relu_3x3
I0907 19:36:24.220226 99249 net.cpp:477] inception_3a/relu_3x3 <- inception_3a/3x3/bn
I0907 19:36:24.220237 99249 net.cpp:419] inception_3a/relu_3x3 -> inception_3a/3x3/bn (in-place)
I0907 19:36:24.220248 99249 net.cpp:155] Setting up inception_3a/relu_3x3
I0907 19:36:24.220258 99249 net.cpp:163] Top shape: 32 64 28 28 (1605632)
I0907 19:36:24.220265 99249 layer_factory.hpp:76] Creating layer inception_3a/double3x3_reduce
I0907 19:36:24.220279 99249 net.cpp:110] Creating Layer inception_3a/double3x3_reduce
I0907 19:36:24.220286 99249 net.cpp:477] inception_3a/double3x3_reduce <- pool2/3x3_s2_pool2/3x3_s2_0_split_2
I0907 19:36:24.220304 99249 net.cpp:433] inception_3a/double3x3_reduce -> inception_3a/double3x3_reduce
I0907 19:36:24.221276 99249 net.cpp:155] Setting up inception_3a/double3x3_reduce
I0907 19:36:24.221293 99249 net.cpp:163] Top shape: 32 64 28 28 (1605632)
I0907 19:36:24.221307 99249 layer_factory.hpp:76] Creating layer BN_00000007
I0907 19:36:24.221318 99249 net.cpp:110] Creating Layer BN_00000007
I0907 19:36:24.221326 99249 net.cpp:477] BN_00000007 <- inception_3a/double3x3_reduce
I0907 19:36:24.221338 99249 net.cpp:433] BN_00000007 -> inception_3a/double3x3_reduce/bn
I0907 19:36:24.221406 99249 net.cpp:155] Setting up BN_00000007
I0907 19:36:24.221421 99249 net.cpp:163] Top shape: 32 64 28 28 (1605632)
I0907 19:36:24.221436 99249 layer_factory.hpp:76] Creating layer inception_3a/relu_double3x3_reduce
I0907 19:36:24.221447 99249 net.cpp:110] Creating Layer inception_3a/relu_double3x3_reduce
I0907 19:36:24.221454 99249 net.cpp:477] inception_3a/relu_double3x3_reduce <- inception_3a/double3x3_reduce/bn
I0907 19:36:24.221465 99249 net.cpp:419] inception_3a/relu_double3x3_reduce -> inception_3a/double3x3_reduce/bn (in-place)
I0907 19:36:24.221477 99249 net.cpp:155] Setting up inception_3a/relu_double3x3_reduce
I0907 19:36:24.221487 99249 net.cpp:163] Top shape: 32 64 28 28 (1605632)
I0907 19:36:24.221494 99249 layer_factory.hpp:76] Creating layer inception_3a/double3x3_mid
I0907 19:36:24.221511 99249 net.cpp:110] Creating Layer inception_3a/double3x3_mid
I0907 19:36:24.221518 99249 net.cpp:477] inception_3a/double3x3_mid <- inception_3a/double3x3_reduce/bn
I0907 19:36:24.221530 99249 net.cpp:433] inception_3a/double3x3_mid -> inception_3a/double3x3_mid
I0907 19:36:24.225548 99249 net.cpp:155] Setting up inception_3a/double3x3_mid
I0907 19:36:24.225590 99249 net.cpp:163] Top shape: 32 96 28 28 (2408448)
I0907 19:36:24.225605 99249 layer_factory.hpp:76] Creating layer BN_00000008
I0907 19:36:24.225618 99249 net.cpp:110] Creating Layer BN_00000008
I0907 19:36:24.225627 99249 net.cpp:477] BN_00000008 <- inception_3a/double3x3_mid
I0907 19:36:24.225647 99249 net.cpp:433] BN_00000008 -> inception_3a/double3x3_mid/bn
I0907 19:36:24.225728 99249 net.cpp:155] Setting up BN_00000008
I0907 19:36:24.225744 99249 net.cpp:163] Top shape: 32 96 28 28 (2408448)
I0907 19:36:24.225759 99249 layer_factory.hpp:76] Creating layer inception_3a/relu_double3x3_mid
I0907 19:36:24.225769 99249 net.cpp:110] Creating Layer inception_3a/relu_double3x3_mid
I0907 19:36:24.225777 99249 net.cpp:477] inception_3a/relu_double3x3_mid <- inception_3a/double3x3_mid/bn
I0907 19:36:24.225788 99249 net.cpp:419] inception_3a/relu_double3x3_mid -> inception_3a/double3x3_mid/bn (in-place)
I0907 19:36:24.225802 99249 net.cpp:155] Setting up inception_3a/relu_double3x3_mid
I0907 19:36:24.225812 99249 net.cpp:163] Top shape: 32 96 28 28 (2408448)
I0907 19:36:24.225821 99249 layer_factory.hpp:76] Creating layer inception_3a/double3x3
I0907 19:36:24.225833 99249 net.cpp:110] Creating Layer inception_3a/double3x3
I0907 19:36:24.225841 99249 net.cpp:477] inception_3a/double3x3 <- inception_3a/double3x3_mid/bn
I0907 19:36:24.225857 99249 net.cpp:433] inception_3a/double3x3 -> inception_3a/double3x3
I0907 19:36:24.231832 99249 net.cpp:155] Setting up inception_3a/double3x3
I0907 19:36:24.231850 99249 net.cpp:163] Top shape: 32 96 28 28 (2408448)
I0907 19:36:24.231874 99249 layer_factory.hpp:76] Creating layer BN_00000009
I0907 19:36:24.231890 99249 net.cpp:110] Creating Layer BN_00000009
I0907 19:36:24.231899 99249 net.cpp:477] BN_00000009 <- inception_3a/double3x3
I0907 19:36:24.231911 99249 net.cpp:433] BN_00000009 -> inception_3a/double3x3/bn
I0907 19:36:24.233559 99249 net.cpp:155] Setting up BN_00000009
I0907 19:36:24.233579 99249 net.cpp:163] Top shape: 32 96 28 28 (2408448)
I0907 19:36:24.233600 99249 layer_factory.hpp:76] Creating layer inception_3a/relu_double3x3
I0907 19:36:24.233613 99249 net.cpp:110] Creating Layer inception_3a/relu_double3x3
I0907 19:36:24.233621 99249 net.cpp:477] inception_3a/relu_double3x3 <- inception_3a/double3x3/bn
I0907 19:36:24.233633 99249 net.cpp:419] inception_3a/relu_double3x3 -> inception_3a/double3x3/bn (in-place)
I0907 19:36:24.233644 99249 net.cpp:155] Setting up inception_3a/relu_double3x3
I0907 19:36:24.233655 99249 net.cpp:163] Top shape: 32 96 28 28 (2408448)
I0907 19:36:24.233662 99249 layer_factory.hpp:76] Creating layer inception_3a/pool
I0907 19:36:24.233680 99249 net.cpp:110] Creating Layer inception_3a/pool
I0907 19:36:24.233688 99249 net.cpp:477] inception_3a/pool <- pool2/3x3_s2_pool2/3x3_s2_0_split_3
I0907 19:36:24.233705 99249 net.cpp:433] inception_3a/pool -> inception_3a/pool
I0907 19:36:24.233722 99249 net.cpp:155] Setting up inception_3a/pool
I0907 19:36:24.233732 99249 net.cpp:163] Top shape: 32 192 28 28 (4816896)
I0907 19:36:24.233739 99249 layer_factory.hpp:76] Creating layer inception_3a/pool_proj
I0907 19:36:24.233753 99249 net.cpp:110] Creating Layer inception_3a/pool_proj
I0907 19:36:24.233760 99249 net.cpp:477] inception_3a/pool_proj <- inception_3a/pool
I0907 19:36:24.233772 99249 net.cpp:433] inception_3a/pool_proj -> inception_3a/pool_proj
I0907 19:36:24.234315 99249 net.cpp:155] Setting up inception_3a/pool_proj
I0907 19:36:24.234333 99249 net.cpp:163] Top shape: 32 32 28 28 (802816)
I0907 19:36:24.234345 99249 layer_factory.hpp:76] Creating layer BN_00000010
I0907 19:36:24.234362 99249 net.cpp:110] Creating Layer BN_00000010
I0907 19:36:24.234370 99249 net.cpp:477] BN_00000010 <- inception_3a/pool_proj
I0907 19:36:24.234382 99249 net.cpp:433] BN_00000010 -> inception_3a/pool_proj/bn
I0907 19:36:24.234452 99249 net.cpp:155] Setting up BN_00000010
I0907 19:36:24.234467 99249 net.cpp:163] Top shape: 32 32 28 28 (802816)
I0907 19:36:24.234482 99249 layer_factory.hpp:76] Creating layer inception_3a/relu_pool_proj
I0907 19:36:24.234527 99249 net.cpp:110] Creating Layer inception_3a/relu_pool_proj
I0907 19:36:24.234536 99249 net.cpp:477] inception_3a/relu_pool_proj <- inception_3a/pool_proj/bn
I0907 19:36:24.234547 99249 net.cpp:419] inception_3a/relu_pool_proj -> inception_3a/pool_proj/bn (in-place)
I0907 19:36:24.234560 99249 net.cpp:155] Setting up inception_3a/relu_pool_proj
I0907 19:36:24.234570 99249 net.cpp:163] Top shape: 32 32 28 28 (802816)
I0907 19:36:24.234578 99249 layer_factory.hpp:76] Creating layer inception_3a/output
I0907 19:36:24.234598 99249 net.cpp:110] Creating Layer inception_3a/output
I0907 19:36:24.234617 99249 net.cpp:477] inception_3a/output <- inception_3a/1x1/bn
I0907 19:36:24.234627 99249 net.cpp:477] inception_3a/output <- inception_3a/3x3/bn
I0907 19:36:24.234637 99249 net.cpp:477] inception_3a/output <- inception_3a/double3x3/bn
I0907 19:36:24.234647 99249 net.cpp:477] inception_3a/output <- inception_3a/pool_proj/bn
I0907 19:36:24.234657 99249 net.cpp:433] inception_3a/output -> inception_3a/output
I0907 19:36:24.234688 99249 net.cpp:155] Setting up inception_3a/output
I0907 19:36:24.234702 99249 net.cpp:163] Top shape: 32 256 28 28 (6422528)
I0907 19:36:24.234710 99249 layer_factory.hpp:76] Creating layer inception_3a/output_inception_3a/output_0_split
I0907 19:36:24.234724 99249 net.cpp:110] Creating Layer inception_3a/output_inception_3a/output_0_split
I0907 19:36:24.234731 99249 net.cpp:477] inception_3a/output_inception_3a/output_0_split <- inception_3a/output
I0907 19:36:24.234742 99249 net.cpp:433] inception_3a/output_inception_3a/output_0_split -> inception_3a/output_inception_3a/output_0_split_0
I0907 19:36:24.234755 99249 net.cpp:433] inception_3a/output_inception_3a/output_0_split -> inception_3a/output_inception_3a/output_0_split_1
I0907 19:36:24.234768 99249 net.cpp:433] inception_3a/output_inception_3a/output_0_split -> inception_3a/output_inception_3a/output_0_split_2
I0907 19:36:24.234781 99249 net.cpp:433] inception_3a/output_inception_3a/output_0_split -> inception_3a/output_inception_3a/output_0_split_3
I0907 19:36:24.234796 99249 net.cpp:155] Setting up inception_3a/output_inception_3a/output_0_split
I0907 19:36:24.234804 99249 net.cpp:163] Top shape: 32 256 28 28 (6422528)
I0907 19:36:24.234813 99249 net.cpp:163] Top shape: 32 256 28 28 (6422528)
I0907 19:36:24.234822 99249 net.cpp:163] Top shape: 32 256 28 28 (6422528)
I0907 19:36:24.234830 99249 net.cpp:163] Top shape: 32 256 28 28 (6422528)
I0907 19:36:24.234838 99249 layer_factory.hpp:76] Creating layer inception_3b/1x1
I0907 19:36:24.234856 99249 net.cpp:110] Creating Layer inception_3b/1x1
I0907 19:36:24.234864 99249 net.cpp:477] inception_3b/1x1 <- inception_3a/output_inception_3a/output_0_split_0
I0907 19:36:24.234875 99249 net.cpp:433] inception_3b/1x1 -> inception_3b/1x1
I0907 19:36:24.236219 99249 net.cpp:155] Setting up inception_3b/1x1
I0907 19:36:24.236239 99249 net.cpp:163] Top shape: 32 64 28 28 (1605632)
I0907 19:36:24.236254 99249 layer_factory.hpp:76] Creating layer BN_00000011
I0907 19:36:24.236265 99249 net.cpp:110] Creating Layer BN_00000011
I0907 19:36:24.236274 99249 net.cpp:477] BN_00000011 <- inception_3b/1x1
I0907 19:36:24.236294 99249 net.cpp:433] BN_00000011 -> inception_3b/1x1/bn
I0907 19:36:24.236361 99249 net.cpp:155] Setting up BN_00000011
I0907 19:36:24.236377 99249 net.cpp:163] Top shape: 32 64 28 28 (1605632)
I0907 19:36:24.236397 99249 layer_factory.hpp:76] Creating layer inception_3b/relu_1x1
I0907 19:36:24.236416 99249 net.cpp:110] Creating Layer inception_3b/relu_1x1
I0907 19:36:24.236425 99249 net.cpp:477] inception_3b/relu_1x1 <- inception_3b/1x1/bn
I0907 19:36:24.236436 99249 net.cpp:419] inception_3b/relu_1x1 -> inception_3b/1x1/bn (in-place)
I0907 19:36:24.236449 99249 net.cpp:155] Setting up inception_3b/relu_1x1
I0907 19:36:24.236459 99249 net.cpp:163] Top shape: 32 64 28 28 (1605632)
I0907 19:36:24.236465 99249 layer_factory.hpp:76] Creating layer inception_3b/3x3_reduce
I0907 19:36:24.236479 99249 net.cpp:110] Creating Layer inception_3b/3x3_reduce
I0907 19:36:24.236506 99249 net.cpp:477] inception_3b/3x3_reduce <- inception_3a/output_inception_3a/output_0_split_1
I0907 19:36:24.236521 99249 net.cpp:433] inception_3b/3x3_reduce -> inception_3b/3x3_reduce
I0907 19:36:24.237787 99249 net.cpp:155] Setting up inception_3b/3x3_reduce
I0907 19:36:24.237804 99249 net.cpp:163] Top shape: 32 64 28 28 (1605632)
I0907 19:36:24.237818 99249 layer_factory.hpp:76] Creating layer BN_00000012
I0907 19:36:24.237829 99249 net.cpp:110] Creating Layer BN_00000012
I0907 19:36:24.237838 99249 net.cpp:477] BN_00000012 <- inception_3b/3x3_reduce
I0907 19:36:24.237849 99249 net.cpp:433] BN_00000012 -> inception_3b/3x3_reduce/bn
I0907 19:36:24.237918 99249 net.cpp:155] Setting up BN_00000012
I0907 19:36:24.237934 99249 net.cpp:163] Top shape: 32 64 28 28 (1605632)
I0907 19:36:24.237948 99249 layer_factory.hpp:76] Creating layer inception_3b/relu_3x3_reduce
I0907 19:36:24.237969 99249 net.cpp:110] Creating Layer inception_3b/relu_3x3_reduce
I0907 19:36:24.237977 99249 net.cpp:477] inception_3b/relu_3x3_reduce <- inception_3b/3x3_reduce/bn
I0907 19:36:24.237988 99249 net.cpp:419] inception_3b/relu_3x3_reduce -> inception_3b/3x3_reduce/bn (in-place)
I0907 19:36:24.238000 99249 net.cpp:155] Setting up inception_3b/relu_3x3_reduce
I0907 19:36:24.238010 99249 net.cpp:163] Top shape: 32 64 28 28 (1605632)
I0907 19:36:24.238018 99249 layer_factory.hpp:76] Creating layer inception_3b/3x3
I0907 19:36:24.238035 99249 net.cpp:110] Creating Layer inception_3b/3x3
I0907 19:36:24.238044 99249 net.cpp:477] inception_3b/3x3 <- inception_3b/3x3_reduce/bn
I0907 19:36:24.238055 99249 net.cpp:433] inception_3b/3x3 -> inception_3b/3x3
I0907 19:36:24.242089 99249 net.cpp:155] Setting up inception_3b/3x3
I0907 19:36:24.242110 99249 net.cpp:163] Top shape: 32 96 28 28 (2408448)
I0907 19:36:24.242123 99249 layer_factory.hpp:76] Creating layer BN_00000013
I0907 19:36:24.242135 99249 net.cpp:110] Creating Layer BN_00000013
I0907 19:36:24.242142 99249 net.cpp:477] BN_00000013 <- inception_3b/3x3
I0907 19:36:24.242159 99249 net.cpp:433] BN_00000013 -> inception_3b/3x3/bn
I0907 19:36:24.242229 99249 net.cpp:155] Setting up BN_00000013
I0907 19:36:24.242245 99249 net.cpp:163] Top shape: 32 96 28 28 (2408448)
I0907 19:36:24.242264 99249 layer_factory.hpp:76] Creating layer inception_3b/relu_3x3
I0907 19:36:24.242281 99249 net.cpp:110] Creating Layer inception_3b/relu_3x3
I0907 19:36:24.242290 99249 net.cpp:477] inception_3b/relu_3x3 <- inception_3b/3x3/bn
I0907 19:36:24.242300 99249 net.cpp:419] inception_3b/relu_3x3 -> inception_3b/3x3/bn (in-place)
I0907 19:36:24.242313 99249 net.cpp:155] Setting up inception_3b/relu_3x3
I0907 19:36:24.242323 99249 net.cpp:163] Top shape: 32 96 28 28 (2408448)
I0907 19:36:24.242331 99249 layer_factory.hpp:76] Creating layer inception_3b/double3x3_reduce
I0907 19:36:24.242342 99249 net.cpp:110] Creating Layer inception_3b/double3x3_reduce
I0907 19:36:24.242350 99249 net.cpp:477] inception_3b/double3x3_reduce <- inception_3a/output_inception_3a/output_0_split_2
I0907 19:36:24.242372 99249 net.cpp:433] inception_3b/double3x3_reduce -> inception_3b/double3x3_reduce
I0907 19:36:24.243644 99249 net.cpp:155] Setting up inception_3b/double3x3_reduce
I0907 19:36:24.243662 99249 net.cpp:163] Top shape: 32 64 28 28 (1605632)
I0907 19:36:24.243685 99249 layer_factory.hpp:76] Creating layer BN_00000014
I0907 19:36:24.243696 99249 net.cpp:110] Creating Layer BN_00000014
I0907 19:36:24.243705 99249 net.cpp:477] BN_00000014 <- inception_3b/double3x3_reduce
I0907 19:36:24.243716 99249 net.cpp:433] BN_00000014 -> inception_3b/double3x3_reduce/bn
I0907 19:36:24.243783 99249 net.cpp:155] Setting up BN_00000014
I0907 19:36:24.243799 99249 net.cpp:163] Top shape: 32 64 28 28 (1605632)
I0907 19:36:24.243814 99249 layer_factory.hpp:76] Creating layer inception_3b/relu_double3x3_reduce
I0907 19:36:24.243825 99249 net.cpp:110] Creating Layer inception_3b/relu_double3x3_reduce
I0907 19:36:24.243834 99249 net.cpp:477] inception_3b/relu_double3x3_reduce <- inception_3b/double3x3_reduce/bn
I0907 19:36:24.243868 99249 net.cpp:419] inception_3b/relu_double3x3_reduce -> inception_3b/double3x3_reduce/bn (in-place)
I0907 19:36:24.243883 99249 net.cpp:155] Setting up inception_3b/relu_double3x3_reduce
I0907 19:36:24.243893 99249 net.cpp:163] Top shape: 32 64 28 28 (1605632)
I0907 19:36:24.243901 99249 layer_factory.hpp:76] Creating layer inception_3b/double3x3_mid
I0907 19:36:24.243921 99249 net.cpp:110] Creating Layer inception_3b/double3x3_mid
I0907 19:36:24.243940 99249 net.cpp:477] inception_3b/double3x3_mid <- inception_3b/double3x3_reduce/bn
I0907 19:36:24.243952 99249 net.cpp:433] inception_3b/double3x3_mid -> inception_3b/double3x3_mid
I0907 19:36:24.247968 99249 net.cpp:155] Setting up inception_3b/double3x3_mid
I0907 19:36:24.247987 99249 net.cpp:163] Top shape: 32 96 28 28 (2408448)
I0907 19:36:24.248000 99249 layer_factory.hpp:76] Creating layer BN_00000015
I0907 19:36:24.248011 99249 net.cpp:110] Creating Layer BN_00000015
I0907 19:36:24.248019 99249 net.cpp:477] BN_00000015 <- inception_3b/double3x3_mid
I0907 19:36:24.248031 99249 net.cpp:433] BN_00000015 -> inception_3b/double3x3_mid/bn
I0907 19:36:24.248102 99249 net.cpp:155] Setting up BN_00000015
I0907 19:36:24.248117 99249 net.cpp:163] Top shape: 32 96 28 28 (2408448)
I0907 19:36:24.248131 99249 layer_factory.hpp:76] Creating layer inception_3b/relu_double3x3_mid
I0907 19:36:24.248147 99249 net.cpp:110] Creating Layer inception_3b/relu_double3x3_mid
I0907 19:36:24.248162 99249 net.cpp:477] inception_3b/relu_double3x3_mid <- inception_3b/double3x3_mid/bn
I0907 19:36:24.248172 99249 net.cpp:419] inception_3b/relu_double3x3_mid -> inception_3b/double3x3_mid/bn (in-place)
I0907 19:36:24.248184 99249 net.cpp:155] Setting up inception_3b/relu_double3x3_mid
I0907 19:36:24.248194 99249 net.cpp:163] Top shape: 32 96 28 28 (2408448)
I0907 19:36:24.248201 99249 layer_factory.hpp:76] Creating layer inception_3b/double3x3
I0907 19:36:24.248214 99249 net.cpp:110] Creating Layer inception_3b/double3x3
I0907 19:36:24.248220 99249 net.cpp:477] inception_3b/double3x3 <- inception_3b/double3x3_mid/bn
I0907 19:36:24.248232 99249 net.cpp:433] inception_3b/double3x3 -> inception_3b/double3x3
I0907 19:36:24.255496 99249 net.cpp:155] Setting up inception_3b/double3x3
I0907 19:36:24.255522 99249 net.cpp:163] Top shape: 32 96 28 28 (2408448)
I0907 19:36:24.255538 99249 layer_factory.hpp:76] Creating layer BN_00000016
I0907 19:36:24.255550 99249 net.cpp:110] Creating Layer BN_00000016
I0907 19:36:24.255559 99249 net.cpp:477] BN_00000016 <- inception_3b/double3x3
I0907 19:36:24.255573 99249 net.cpp:433] BN_00000016 -> inception_3b/double3x3/bn
I0907 19:36:24.255647 99249 net.cpp:155] Setting up BN_00000016
I0907 19:36:24.255663 99249 net.cpp:163] Top shape: 32 96 28 28 (2408448)
I0907 19:36:24.255686 99249 layer_factory.hpp:76] Creating layer inception_3b/relu_double3x3
I0907 19:36:24.255702 99249 net.cpp:110] Creating Layer inception_3b/relu_double3x3
I0907 19:36:24.255724 99249 net.cpp:477] inception_3b/relu_double3x3 <- inception_3b/double3x3/bn
I0907 19:36:24.255735 99249 net.cpp:419] inception_3b/relu_double3x3 -> inception_3b/double3x3/bn (in-place)
I0907 19:36:24.255748 99249 net.cpp:155] Setting up inception_3b/relu_double3x3
I0907 19:36:24.255759 99249 net.cpp:163] Top shape: 32 96 28 28 (2408448)
I0907 19:36:24.255766 99249 layer_factory.hpp:76] Creating layer inception_3b/pool
I0907 19:36:24.255777 99249 net.cpp:110] Creating Layer inception_3b/pool
I0907 19:36:24.255786 99249 net.cpp:477] inception_3b/pool <- inception_3a/output_inception_3a/output_0_split_3
I0907 19:36:24.255798 99249 net.cpp:433] inception_3b/pool -> inception_3b/pool
I0907 19:36:24.255815 99249 net.cpp:155] Setting up inception_3b/pool
I0907 19:36:24.255825 99249 net.cpp:163] Top shape: 32 256 28 28 (6422528)
I0907 19:36:24.255832 99249 layer_factory.hpp:76] Creating layer inception_3b/pool_proj
I0907 19:36:24.255846 99249 net.cpp:110] Creating Layer inception_3b/pool_proj
I0907 19:36:24.255854 99249 net.cpp:477] inception_3b/pool_proj <- inception_3b/pool
I0907 19:36:24.255870 99249 net.cpp:433] inception_3b/pool_proj -> inception_3b/pool_proj
I0907 19:36:24.257166 99249 net.cpp:155] Setting up inception_3b/pool_proj
I0907 19:36:24.257185 99249 net.cpp:163] Top shape: 32 64 28 28 (1605632)
I0907 19:36:24.257223 99249 layer_factory.hpp:76] Creating layer BN_00000017
I0907 19:36:24.257236 99249 net.cpp:110] Creating Layer BN_00000017
I0907 19:36:24.257244 99249 net.cpp:477] BN_00000017 <- inception_3b/pool_proj
I0907 19:36:24.257256 99249 net.cpp:433] BN_00000017 -> inception_3b/pool_proj/bn
I0907 19:36:24.257331 99249 net.cpp:155] Setting up BN_00000017
I0907 19:36:24.257346 99249 net.cpp:163] Top shape: 32 64 28 28 (1605632)
I0907 19:36:24.257361 99249 layer_factory.hpp:76] Creating layer inception_3b/relu_pool_proj
I0907 19:36:24.257372 99249 net.cpp:110] Creating Layer inception_3b/relu_pool_proj
I0907 19:36:24.257380 99249 net.cpp:477] inception_3b/relu_pool_proj <- inception_3b/pool_proj/bn
I0907 19:36:24.257395 99249 net.cpp:419] inception_3b/relu_pool_proj -> inception_3b/pool_proj/bn (in-place)
I0907 19:36:24.257408 99249 net.cpp:155] Setting up inception_3b/relu_pool_proj
I0907 19:36:24.257418 99249 net.cpp:163] Top shape: 32 64 28 28 (1605632)
I0907 19:36:24.257426 99249 layer_factory.hpp:76] Creating layer inception_3b/output
I0907 19:36:24.257437 99249 net.cpp:110] Creating Layer inception_3b/output
I0907 19:36:24.257446 99249 net.cpp:477] inception_3b/output <- inception_3b/1x1/bn
I0907 19:36:24.257455 99249 net.cpp:477] inception_3b/output <- inception_3b/3x3/bn
I0907 19:36:24.257465 99249 net.cpp:477] inception_3b/output <- inception_3b/double3x3/bn
I0907 19:36:24.257473 99249 net.cpp:477] inception_3b/output <- inception_3b/pool_proj/bn
I0907 19:36:24.257483 99249 net.cpp:433] inception_3b/output -> inception_3b/output
I0907 19:36:24.257498 99249 net.cpp:155] Setting up inception_3b/output
I0907 19:36:24.257508 99249 net.cpp:163] Top shape: 32 320 28 28 (8028160)
I0907 19:36:24.257516 99249 layer_factory.hpp:76] Creating layer inception_3b/output_inception_3b/output_0_split
I0907 19:36:24.257529 99249 net.cpp:110] Creating Layer inception_3b/output_inception_3b/output_0_split
I0907 19:36:24.257536 99249 net.cpp:477] inception_3b/output_inception_3b/output_0_split <- inception_3b/output
I0907 19:36:24.257547 99249 net.cpp:433] inception_3b/output_inception_3b/output_0_split -> inception_3b/output_inception_3b/output_0_split_0
I0907 19:36:24.257560 99249 net.cpp:433] inception_3b/output_inception_3b/output_0_split -> inception_3b/output_inception_3b/output_0_split_1
I0907 19:36:24.257573 99249 net.cpp:433] inception_3b/output_inception_3b/output_0_split -> inception_3b/output_inception_3b/output_0_split_2
I0907 19:36:24.257587 99249 net.cpp:155] Setting up inception_3b/output_inception_3b/output_0_split
I0907 19:36:24.257597 99249 net.cpp:163] Top shape: 32 320 28 28 (8028160)
I0907 19:36:24.257606 99249 net.cpp:163] Top shape: 32 320 28 28 (8028160)
I0907 19:36:24.257616 99249 net.cpp:163] Top shape: 32 320 28 28 (8028160)
I0907 19:36:24.257623 99249 layer_factory.hpp:76] Creating layer inception_3c/3x3_reduce
I0907 19:36:24.257642 99249 net.cpp:110] Creating Layer inception_3c/3x3_reduce
I0907 19:36:24.257663 99249 net.cpp:477] inception_3c/3x3_reduce <- inception_3b/output_inception_3b/output_0_split_0
I0907 19:36:24.257675 99249 net.cpp:433] inception_3c/3x3_reduce -> inception_3c/3x3_reduce
I0907 19:36:24.260689 99249 net.cpp:155] Setting up inception_3c/3x3_reduce
I0907 19:36:24.260707 99249 net.cpp:163] Top shape: 32 128 28 28 (3211264)
I0907 19:36:24.260721 99249 layer_factory.hpp:76] Creating layer BN_00000018
I0907 19:36:24.260736 99249 net.cpp:110] Creating Layer BN_00000018
I0907 19:36:24.260745 99249 net.cpp:477] BN_00000018 <- inception_3c/3x3_reduce
I0907 19:36:24.260756 99249 net.cpp:433] BN_00000018 -> inception_3c/3x3_reduce/bn
I0907 19:36:24.260807 99249 net.cpp:155] Setting up BN_00000018
I0907 19:36:24.260823 99249 net.cpp:163] Top shape: 32 128 28 28 (3211264)
I0907 19:36:24.260836 99249 layer_factory.hpp:76] Creating layer inception_3c/relu_3x3_reduce
I0907 19:36:24.260864 99249 net.cpp:110] Creating Layer inception_3c/relu_3x3_reduce
I0907 19:36:24.260900 99249 net.cpp:477] inception_3c/relu_3x3_reduce <- inception_3c/3x3_reduce/bn
I0907 19:36:24.260912 99249 net.cpp:419] inception_3c/relu_3x3_reduce -> inception_3c/3x3_reduce/bn (in-place)
I0907 19:36:24.260926 99249 net.cpp:155] Setting up inception_3c/relu_3x3_reduce
I0907 19:36:24.260936 99249 net.cpp:163] Top shape: 32 128 28 28 (3211264)
I0907 19:36:24.260944 99249 layer_factory.hpp:76] Creating layer inception_3c/3x3_s2
I0907 19:36:24.260957 99249 net.cpp:110] Creating Layer inception_3c/3x3_s2
I0907 19:36:24.260964 99249 net.cpp:477] inception_3c/3x3_s2 <- inception_3c/3x3_reduce/bn
I0907 19:36:24.260979 99249 net.cpp:433] inception_3c/3x3_s2 -> inception_3c/3x3_s2
I0907 19:36:24.275142 99249 net.cpp:155] Setting up inception_3c/3x3_s2
I0907 19:36:24.275171 99249 net.cpp:163] Top shape: 32 160 14 14 (1003520)
I0907 19:36:24.275187 99249 layer_factory.hpp:76] Creating layer BN_00000019
I0907 19:36:24.275199 99249 net.cpp:110] Creating Layer BN_00000019
I0907 19:36:24.275209 99249 net.cpp:477] BN_00000019 <- inception_3c/3x3_s2
I0907 19:36:24.275226 99249 net.cpp:433] BN_00000019 -> inception_3c/3x3_s2/bn
I0907 19:36:24.275316 99249 net.cpp:155] Setting up BN_00000019
I0907 19:36:24.275333 99249 net.cpp:163] Top shape: 32 160 14 14 (1003520)
I0907 19:36:24.275348 99249 layer_factory.hpp:76] Creating layer inception_3c/relu_3x3
I0907 19:36:24.275372 99249 net.cpp:110] Creating Layer inception_3c/relu_3x3
I0907 19:36:24.275380 99249 net.cpp:477] inception_3c/relu_3x3 <- inception_3c/3x3_s2/bn
I0907 19:36:24.275391 99249 net.cpp:419] inception_3c/relu_3x3 -> inception_3c/3x3_s2/bn (in-place)
I0907 19:36:24.275403 99249 net.cpp:155] Setting up inception_3c/relu_3x3
I0907 19:36:24.275413 99249 net.cpp:163] Top shape: 32 160 14 14 (1003520)
I0907 19:36:24.275421 99249 layer_factory.hpp:76] Creating layer inception_3c/double3x3_reduce
I0907 19:36:24.275435 99249 net.cpp:110] Creating Layer inception_3c/double3x3_reduce
I0907 19:36:24.275444 99249 net.cpp:477] inception_3c/double3x3_reduce <- inception_3b/output_inception_3b/output_0_split_1
I0907 19:36:24.275460 99249 net.cpp:433] inception_3c/double3x3_reduce -> inception_3c/double3x3_reduce
I0907 19:36:24.278098 99249 net.cpp:155] Setting up inception_3c/double3x3_reduce
I0907 19:36:24.278123 99249 net.cpp:163] Top shape: 32 64 28 28 (1605632)
I0907 19:36:24.278138 99249 layer_factory.hpp:76] Creating layer BN_00000020
I0907 19:36:24.278151 99249 net.cpp:110] Creating Layer BN_00000020
I0907 19:36:24.278161 99249 net.cpp:477] BN_00000020 <- inception_3c/double3x3_reduce
I0907 19:36:24.278177 99249 net.cpp:433] BN_00000020 -> inception_3c/double3x3_reduce/bn
I0907 19:36:24.278249 99249 net.cpp:155] Setting up BN_00000020
I0907 19:36:24.278264 99249 net.cpp:163] Top shape: 32 64 28 28 (1605632)
I0907 19:36:24.278282 99249 layer_factory.hpp:76] Creating layer inception_3c/relu_double3x3_reduce
I0907 19:36:24.278305 99249 net.cpp:110] Creating Layer inception_3c/relu_double3x3_reduce
I0907 19:36:24.278313 99249 net.cpp:477] inception_3c/relu_double3x3_reduce <- inception_3c/double3x3_reduce/bn
I0907 19:36:24.278324 99249 net.cpp:419] inception_3c/relu_double3x3_reduce -> inception_3c/double3x3_reduce/bn (in-place)
I0907 19:36:24.278337 99249 net.cpp:155] Setting up inception_3c/relu_double3x3_reduce
I0907 19:36:24.278347 99249 net.cpp:163] Top shape: 32 64 28 28 (1605632)
I0907 19:36:24.278354 99249 layer_factory.hpp:76] Creating layer inception_3c/double3x3_mid
I0907 19:36:24.278368 99249 net.cpp:110] Creating Layer inception_3c/double3x3_mid
I0907 19:36:24.278375 99249 net.cpp:477] inception_3c/double3x3_mid <- inception_3c/double3x3_reduce/bn
I0907 19:36:24.278389 99249 net.cpp:433] inception_3c/double3x3_mid -> inception_3c/double3x3_mid
I0907 19:36:24.282404 99249 net.cpp:155] Setting up inception_3c/double3x3_mid
I0907 19:36:24.282428 99249 net.cpp:163] Top shape: 32 96 28 28 (2408448)
I0907 19:36:24.282443 99249 layer_factory.hpp:76] Creating layer BN_00000021
I0907 19:36:24.282454 99249 net.cpp:110] Creating Layer BN_00000021
I0907 19:36:24.282486 99249 net.cpp:477] BN_00000021 <- inception_3c/double3x3_mid
I0907 19:36:24.282500 99249 net.cpp:433] BN_00000021 -> inception_3c/double3x3_mid/bn
I0907 19:36:24.282579 99249 net.cpp:155] Setting up BN_00000021
I0907 19:36:24.282595 99249 net.cpp:163] Top shape: 32 96 28 28 (2408448)
I0907 19:36:24.282611 99249 layer_factory.hpp:76] Creating layer inception_3c/relu_double3x3_mid
I0907 19:36:24.282623 99249 net.cpp:110] Creating Layer inception_3c/relu_double3x3_mid
I0907 19:36:24.282630 99249 net.cpp:477] inception_3c/relu_double3x3_mid <- inception_3c/double3x3_mid/bn
I0907 19:36:24.282641 99249 net.cpp:419] inception_3c/relu_double3x3_mid -> inception_3c/double3x3_mid/bn (in-place)
I0907 19:36:24.282654 99249 net.cpp:155] Setting up inception_3c/relu_double3x3_mid
I0907 19:36:24.282663 99249 net.cpp:163] Top shape: 32 96 28 28 (2408448)
I0907 19:36:24.282670 99249 layer_factory.hpp:76] Creating layer inception_3c/double3x3
I0907 19:36:24.282687 99249 net.cpp:110] Creating Layer inception_3c/double3x3
I0907 19:36:24.282696 99249 net.cpp:477] inception_3c/double3x3 <- inception_3c/double3x3_mid/bn
I0907 19:36:24.282707 99249 net.cpp:433] inception_3c/double3x3 -> inception_3c/double3x3_s2
I0907 19:36:24.288707 99249 net.cpp:155] Setting up inception_3c/double3x3
I0907 19:36:24.288730 99249 net.cpp:163] Top shape: 32 96 14 14 (602112)
I0907 19:36:24.288745 99249 layer_factory.hpp:76] Creating layer BN_00000022
I0907 19:36:24.288758 99249 net.cpp:110] Creating Layer BN_00000022
I0907 19:36:24.288765 99249 net.cpp:477] BN_00000022 <- inception_3c/double3x3_s2
I0907 19:36:24.288777 99249 net.cpp:433] BN_00000022 -> inception_3c/double3x3_s2/bn
I0907 19:36:24.288851 99249 net.cpp:155] Setting up BN_00000022
I0907 19:36:24.288867 99249 net.cpp:163] Top shape: 32 96 14 14 (602112)
I0907 19:36:24.288882 99249 layer_factory.hpp:76] Creating layer inception_3c/relu_double3x3
I0907 19:36:24.288892 99249 net.cpp:110] Creating Layer inception_3c/relu_double3x3
I0907 19:36:24.288902 99249 net.cpp:477] inception_3c/relu_double3x3 <- inception_3c/double3x3_s2/bn
I0907 19:36:24.288911 99249 net.cpp:419] inception_3c/relu_double3x3 -> inception_3c/double3x3_s2/bn (in-place)
I0907 19:36:24.288923 99249 net.cpp:155] Setting up inception_3c/relu_double3x3
I0907 19:36:24.288933 99249 net.cpp:163] Top shape: 32 96 14 14 (602112)
I0907 19:36:24.288940 99249 layer_factory.hpp:76] Creating layer inception_3c/pool
I0907 19:36:24.288952 99249 net.cpp:110] Creating Layer inception_3c/pool
I0907 19:36:24.288960 99249 net.cpp:477] inception_3c/pool <- inception_3b/output_inception_3b/output_0_split_2
I0907 19:36:24.288976 99249 net.cpp:433] inception_3c/pool -> inception_3c/pool
I0907 19:36:24.288993 99249 net.cpp:155] Setting up inception_3c/pool
I0907 19:36:24.289017 99249 net.cpp:163] Top shape: 32 320 14 14 (2007040)
I0907 19:36:24.289026 99249 layer_factory.hpp:76] Creating layer BN_00000023
I0907 19:36:24.289034 99249 net.cpp:110] Creating Layer BN_00000023
I0907 19:36:24.289043 99249 net.cpp:477] BN_00000023 <- inception_3c/pool
I0907 19:36:24.289054 99249 net.cpp:433] BN_00000023 -> inception_3c/pool/bn
I0907 19:36:24.289126 99249 net.cpp:155] Setting up BN_00000023
I0907 19:36:24.289147 99249 net.cpp:163] Top shape: 32 320 14 14 (2007040)
I0907 19:36:24.289162 99249 layer_factory.hpp:76] Creating layer inception_3c/relu_pool
I0907 19:36:24.289173 99249 net.cpp:110] Creating Layer inception_3c/relu_pool
I0907 19:36:24.289181 99249 net.cpp:477] inception_3c/relu_pool <- inception_3c/pool/bn
I0907 19:36:24.289191 99249 net.cpp:419] inception_3c/relu_pool -> inception_3c/pool/bn (in-place)
I0907 19:36:24.289203 99249 net.cpp:155] Setting up inception_3c/relu_pool
I0907 19:36:24.289212 99249 net.cpp:163] Top shape: 32 320 14 14 (2007040)
I0907 19:36:24.289221 99249 layer_factory.hpp:76] Creating layer inception_3c/output
I0907 19:36:24.289234 99249 net.cpp:110] Creating Layer inception_3c/output
I0907 19:36:24.289243 99249 net.cpp:477] inception_3c/output <- inception_3c/3x3_s2/bn
I0907 19:36:24.289274 99249 net.cpp:477] inception_3c/output <- inception_3c/double3x3_s2/bn
I0907 19:36:24.289284 99249 net.cpp:477] inception_3c/output <- inception_3c/pool/bn
I0907 19:36:24.289295 99249 net.cpp:433] inception_3c/output -> inception_3c/output
I0907 19:36:24.289312 99249 net.cpp:155] Setting up inception_3c/output
I0907 19:36:24.289322 99249 net.cpp:163] Top shape: 32 576 14 14 (3612672)
I0907 19:36:24.289330 99249 layer_factory.hpp:76] Creating layer inception_3c/output_inception_3c/output_0_split
I0907 19:36:24.289342 99249 net.cpp:110] Creating Layer inception_3c/output_inception_3c/output_0_split
I0907 19:36:24.289350 99249 net.cpp:477] inception_3c/output_inception_3c/output_0_split <- inception_3c/output
I0907 19:36:24.289361 99249 net.cpp:433] inception_3c/output_inception_3c/output_0_split -> inception_3c/output_inception_3c/output_0_split_0
I0907 19:36:24.289374 99249 net.cpp:433] inception_3c/output_inception_3c/output_0_split -> inception_3c/output_inception_3c/output_0_split_1
I0907 19:36:24.289388 99249 net.cpp:433] inception_3c/output_inception_3c/output_0_split -> inception_3c/output_inception_3c/output_0_split_2
I0907 19:36:24.289400 99249 net.cpp:433] inception_3c/output_inception_3c/output_0_split -> inception_3c/output_inception_3c/output_0_split_3
I0907 19:36:24.289414 99249 net.cpp:155] Setting up inception_3c/output_inception_3c/output_0_split
I0907 19:36:24.289434 99249 net.cpp:163] Top shape: 32 576 14 14 (3612672)
I0907 19:36:24.289443 99249 net.cpp:163] Top shape: 32 576 14 14 (3612672)
I0907 19:36:24.289453 99249 net.cpp:163] Top shape: 32 576 14 14 (3612672)
I0907 19:36:24.289461 99249 net.cpp:163] Top shape: 32 576 14 14 (3612672)
I0907 19:36:24.289469 99249 layer_factory.hpp:76] Creating layer inception_4a/1x1
I0907 19:36:24.289485 99249 net.cpp:110] Creating Layer inception_4a/1x1
I0907 19:36:24.289494 99249 net.cpp:477] inception_4a/1x1 <- inception_3c/output_inception_3c/output_0_split_0
I0907 19:36:24.289505 99249 net.cpp:433] inception_4a/1x1 -> inception_4a/1x1
I0907 19:36:24.299733 99249 net.cpp:155] Setting up inception_4a/1x1
I0907 19:36:24.299759 99249 net.cpp:163] Top shape: 32 224 14 14 (1404928)
I0907 19:36:24.299775 99249 layer_factory.hpp:76] Creating layer BN_00000024
I0907 19:36:24.299787 99249 net.cpp:110] Creating Layer BN_00000024
I0907 19:36:24.299795 99249 net.cpp:477] BN_00000024 <- inception_4a/1x1
I0907 19:36:24.299808 99249 net.cpp:433] BN_00000024 -> inception_4a/1x1/bn
I0907 19:36:24.299885 99249 net.cpp:155] Setting up BN_00000024
I0907 19:36:24.299901 99249 net.cpp:163] Top shape: 32 224 14 14 (1404928)
I0907 19:36:24.299916 99249 layer_factory.hpp:76] Creating layer inception_4a/relu_1x1
I0907 19:36:24.299938 99249 net.cpp:110] Creating Layer inception_4a/relu_1x1
I0907 19:36:24.299947 99249 net.cpp:477] inception_4a/relu_1x1 <- inception_4a/1x1/bn
I0907 19:36:24.299957 99249 net.cpp:419] inception_4a/relu_1x1 -> inception_4a/1x1/bn (in-place)
I0907 19:36:24.299969 99249 net.cpp:155] Setting up inception_4a/relu_1x1
I0907 19:36:24.299979 99249 net.cpp:163] Top shape: 32 224 14 14 (1404928)
I0907 19:36:24.299988 99249 layer_factory.hpp:76] Creating layer inception_4a/3x3_reduce
I0907 19:36:24.300004 99249 net.cpp:110] Creating Layer inception_4a/3x3_reduce
I0907 19:36:24.300012 99249 net.cpp:477] inception_4a/3x3_reduce <- inception_3c/output_inception_3c/output_0_split_1
I0907 19:36:24.300024 99249 net.cpp:433] inception_4a/3x3_reduce -> inception_4a/3x3_reduce
I0907 19:36:24.302728 99249 net.cpp:155] Setting up inception_4a/3x3_reduce
I0907 19:36:24.302747 99249 net.cpp:163] Top shape: 32 64 14 14 (401408)
I0907 19:36:24.302760 99249 layer_factory.hpp:76] Creating layer BN_00000025
I0907 19:36:24.302772 99249 net.cpp:110] Creating Layer BN_00000025
I0907 19:36:24.302779 99249 net.cpp:477] BN_00000025 <- inception_4a/3x3_reduce
I0907 19:36:24.302794 99249 net.cpp:433] BN_00000025 -> inception_4a/3x3_reduce/bn
I0907 19:36:24.302860 99249 net.cpp:155] Setting up BN_00000025
I0907 19:36:24.302875 99249 net.cpp:163] Top shape: 32 64 14 14 (401408)
I0907 19:36:24.302917 99249 layer_factory.hpp:76] Creating layer inception_4a/relu_3x3_reduce
I0907 19:36:24.302929 99249 net.cpp:110] Creating Layer inception_4a/relu_3x3_reduce
I0907 19:36:24.302938 99249 net.cpp:477] inception_4a/relu_3x3_reduce <- inception_4a/3x3_reduce/bn
I0907 19:36:24.302949 99249 net.cpp:419] inception_4a/relu_3x3_reduce -> inception_4a/3x3_reduce/bn (in-place)
I0907 19:36:24.302963 99249 net.cpp:155] Setting up inception_4a/relu_3x3_reduce
I0907 19:36:24.302971 99249 net.cpp:163] Top shape: 32 64 14 14 (401408)
I0907 19:36:24.302980 99249 layer_factory.hpp:76] Creating layer inception_4a/3x3
I0907 19:36:24.302992 99249 net.cpp:110] Creating Layer inception_4a/3x3
I0907 19:36:24.303000 99249 net.cpp:477] inception_4a/3x3 <- inception_4a/3x3_reduce/bn
I0907 19:36:24.303016 99249 net.cpp:433] inception_4a/3x3 -> inception_4a/3x3
I0907 19:36:24.307040 99249 net.cpp:155] Setting up inception_4a/3x3
I0907 19:36:24.307060 99249 net.cpp:163] Top shape: 32 96 14 14 (602112)
I0907 19:36:24.307075 99249 layer_factory.hpp:76] Creating layer BN_00000026
I0907 19:36:24.307090 99249 net.cpp:110] Creating Layer BN_00000026
I0907 19:36:24.307097 99249 net.cpp:477] BN_00000026 <- inception_4a/3x3
I0907 19:36:24.307109 99249 net.cpp:433] BN_00000026 -> inception_4a/3x3/bn
I0907 19:36:24.307181 99249 net.cpp:155] Setting up BN_00000026
I0907 19:36:24.307198 99249 net.cpp:163] Top shape: 32 96 14 14 (602112)
I0907 19:36:24.307211 99249 layer_factory.hpp:76] Creating layer inception_4a/relu_3x3
I0907 19:36:24.307222 99249 net.cpp:110] Creating Layer inception_4a/relu_3x3
I0907 19:36:24.307230 99249 net.cpp:477] inception_4a/relu_3x3 <- inception_4a/3x3/bn
I0907 19:36:24.307240 99249 net.cpp:419] inception_4a/relu_3x3 -> inception_4a/3x3/bn (in-place)
I0907 19:36:24.307253 99249 net.cpp:155] Setting up inception_4a/relu_3x3
I0907 19:36:24.307262 99249 net.cpp:163] Top shape: 32 96 14 14 (602112)
I0907 19:36:24.307271 99249 layer_factory.hpp:76] Creating layer inception_4a/double3x3_reduce
I0907 19:36:24.307286 99249 net.cpp:110] Creating Layer inception_4a/double3x3_reduce
I0907 19:36:24.307294 99249 net.cpp:477] inception_4a/double3x3_reduce <- inception_3c/output_inception_3c/output_0_split_2
I0907 19:36:24.307307 99249 net.cpp:433] inception_4a/double3x3_reduce -> inception_4a/double3x3_reduce
I0907 19:36:24.311321 99249 net.cpp:155] Setting up inception_4a/double3x3_reduce
I0907 19:36:24.311339 99249 net.cpp:163] Top shape: 32 96 14 14 (602112)
I0907 19:36:24.311353 99249 layer_factory.hpp:76] Creating layer BN_00000027
I0907 19:36:24.311363 99249 net.cpp:110] Creating Layer BN_00000027
I0907 19:36:24.311372 99249 net.cpp:477] BN_00000027 <- inception_4a/double3x3_reduce
I0907 19:36:24.311388 99249 net.cpp:433] BN_00000027 -> inception_4a/double3x3_reduce/bn
I0907 19:36:24.311452 99249 net.cpp:155] Setting up BN_00000027
I0907 19:36:24.311470 99249 net.cpp:163] Top shape: 32 96 14 14 (602112)
I0907 19:36:24.311485 99249 layer_factory.hpp:76] Creating layer inception_4a/relu_double3x3_reduce
I0907 19:36:24.311506 99249 net.cpp:110] Creating Layer inception_4a/relu_double3x3_reduce
I0907 19:36:24.311514 99249 net.cpp:477] inception_4a/relu_double3x3_reduce <- inception_4a/double3x3_reduce/bn
I0907 19:36:24.311524 99249 net.cpp:419] inception_4a/relu_double3x3_reduce -> inception_4a/double3x3_reduce/bn (in-place)
I0907 19:36:24.311537 99249 net.cpp:155] Setting up inception_4a/relu_double3x3_reduce
I0907 19:36:24.311545 99249 net.cpp:163] Top shape: 32 96 14 14 (602112)
I0907 19:36:24.311553 99249 layer_factory.hpp:76] Creating layer inception_4a/double3x3_mid
I0907 19:36:24.311565 99249 net.cpp:110] Creating Layer inception_4a/double3x3_mid
I0907 19:36:24.311573 99249 net.cpp:477] inception_4a/double3x3_mid <- inception_4a/double3x3_reduce/bn
I0907 19:36:24.311588 99249 net.cpp:433] inception_4a/double3x3_mid -> inception_4a/double3x3_mid
I0907 19:36:24.319479 99249 net.cpp:155] Setting up inception_4a/double3x3_mid
I0907 19:36:24.319499 99249 net.cpp:163] Top shape: 32 128 14 14 (802816)
I0907 19:36:24.319512 99249 layer_factory.hpp:76] Creating layer BN_00000028
I0907 19:36:24.319541 99249 net.cpp:110] Creating Layer BN_00000028
I0907 19:36:24.319550 99249 net.cpp:477] BN_00000028 <- inception_4a/double3x3_mid
I0907 19:36:24.319562 99249 net.cpp:433] BN_00000028 -> inception_4a/double3x3_mid/bn
I0907 19:36:24.319627 99249 net.cpp:155] Setting up BN_00000028
I0907 19:36:24.319643 99249 net.cpp:163] Top shape: 32 128 14 14 (802816)
I0907 19:36:24.319658 99249 layer_factory.hpp:76] Creating layer inception_4a/relu_double3x3_mid
I0907 19:36:24.319677 99249 net.cpp:110] Creating Layer inception_4a/relu_double3x3_mid
I0907 19:36:24.319685 99249 net.cpp:477] inception_4a/relu_double3x3_mid <- inception_4a/double3x3_mid/bn
I0907 19:36:24.319696 99249 net.cpp:419] inception_4a/relu_double3x3_mid -> inception_4a/double3x3_mid/bn (in-place)
I0907 19:36:24.319708 99249 net.cpp:155] Setting up inception_4a/relu_double3x3_mid
I0907 19:36:24.319718 99249 net.cpp:163] Top shape: 32 128 14 14 (802816)
I0907 19:36:24.319725 99249 layer_factory.hpp:76] Creating layer inception_4a/double3x3
I0907 19:36:24.319738 99249 net.cpp:110] Creating Layer inception_4a/double3x3
I0907 19:36:24.319746 99249 net.cpp:477] inception_4a/double3x3 <- inception_4a/double3x3_mid/bn
I0907 19:36:24.319767 99249 net.cpp:433] inception_4a/double3x3 -> inception_4a/double3x3
I0907 19:36:24.331172 99249 net.cpp:155] Setting up inception_4a/double3x3
I0907 19:36:24.331198 99249 net.cpp:163] Top shape: 32 128 14 14 (802816)
I0907 19:36:24.331214 99249 layer_factory.hpp:76] Creating layer BN_00000029
I0907 19:36:24.331226 99249 net.cpp:110] Creating Layer BN_00000029
I0907 19:36:24.331235 99249 net.cpp:477] BN_00000029 <- inception_4a/double3x3
I0907 19:36:24.331251 99249 net.cpp:433] BN_00000029 -> inception_4a/double3x3/bn
I0907 19:36:24.331315 99249 net.cpp:155] Setting up BN_00000029
I0907 19:36:24.331331 99249 net.cpp:163] Top shape: 32 128 14 14 (802816)
I0907 19:36:24.331346 99249 layer_factory.hpp:76] Creating layer inception_4a/relu_double3x3
I0907 19:36:24.331363 99249 net.cpp:110] Creating Layer inception_4a/relu_double3x3
I0907 19:36:24.331380 99249 net.cpp:477] inception_4a/relu_double3x3 <- inception_4a/double3x3/bn
I0907 19:36:24.331392 99249 net.cpp:419] inception_4a/relu_double3x3 -> inception_4a/double3x3/bn (in-place)
I0907 19:36:24.331404 99249 net.cpp:155] Setting up inception_4a/relu_double3x3
I0907 19:36:24.331414 99249 net.cpp:163] Top shape: 32 128 14 14 (802816)
I0907 19:36:24.331421 99249 layer_factory.hpp:76] Creating layer inception_4a/pool
I0907 19:36:24.331434 99249 net.cpp:110] Creating Layer inception_4a/pool
I0907 19:36:24.331441 99249 net.cpp:477] inception_4a/pool <- inception_3c/output_inception_3c/output_0_split_3
I0907 19:36:24.331452 99249 net.cpp:433] inception_4a/pool -> inception_4a/pool
I0907 19:36:24.331468 99249 net.cpp:155] Setting up inception_4a/pool
I0907 19:36:24.331478 99249 net.cpp:163] Top shape: 32 576 14 14 (3612672)
I0907 19:36:24.331485 99249 layer_factory.hpp:76] Creating layer inception_4a/pool_proj
I0907 19:36:24.331498 99249 net.cpp:110] Creating Layer inception_4a/pool_proj
I0907 19:36:24.331506 99249 net.cpp:477] inception_4a/pool_proj <- inception_4a/pool
I0907 19:36:24.331522 99249 net.cpp:433] inception_4a/pool_proj -> inception_4a/pool_proj
I0907 19:36:24.336804 99249 net.cpp:155] Setting up inception_4a/pool_proj
I0907 19:36:24.336822 99249 net.cpp:163] Top shape: 32 128 14 14 (802816)
I0907 19:36:24.336843 99249 layer_factory.hpp:76] Creating layer BN_00000030
I0907 19:36:24.336853 99249 net.cpp:110] Creating Layer BN_00000030
I0907 19:36:24.336861 99249 net.cpp:477] BN_00000030 <- inception_4a/pool_proj
I0907 19:36:24.336872 99249 net.cpp:433] BN_00000030 -> inception_4a/pool_proj/bn
I0907 19:36:24.336932 99249 net.cpp:155] Setting up BN_00000030
I0907 19:36:24.336953 99249 net.cpp:163] Top shape: 32 128 14 14 (802816)
I0907 19:36:24.336967 99249 layer_factory.hpp:76] Creating layer inception_4a/relu_pool_proj
I0907 19:36:24.336978 99249 net.cpp:110] Creating Layer inception_4a/relu_pool_proj
I0907 19:36:24.336987 99249 net.cpp:477] inception_4a/relu_pool_proj <- inception_4a/pool_proj/bn
I0907 19:36:24.337028 99249 net.cpp:419] inception_4a/relu_pool_proj -> inception_4a/pool_proj/bn (in-place)
I0907 19:36:24.337041 99249 net.cpp:155] Setting up inception_4a/relu_pool_proj
I0907 19:36:24.337051 99249 net.cpp:163] Top shape: 32 128 14 14 (802816)
I0907 19:36:24.337059 99249 layer_factory.hpp:76] Creating layer inception_4a/output
I0907 19:36:24.337070 99249 net.cpp:110] Creating Layer inception_4a/output
I0907 19:36:24.337079 99249 net.cpp:477] inception_4a/output <- inception_4a/1x1/bn
I0907 19:36:24.337088 99249 net.cpp:477] inception_4a/output <- inception_4a/3x3/bn
I0907 19:36:24.337097 99249 net.cpp:477] inception_4a/output <- inception_4a/double3x3/bn
I0907 19:36:24.337105 99249 net.cpp:477] inception_4a/output <- inception_4a/pool_proj/bn
I0907 19:36:24.337119 99249 net.cpp:433] inception_4a/output -> inception_4a/output
I0907 19:36:24.337136 99249 net.cpp:155] Setting up inception_4a/output
I0907 19:36:24.337146 99249 net.cpp:163] Top shape: 32 576 14 14 (3612672)
I0907 19:36:24.337153 99249 layer_factory.hpp:76] Creating layer inception_4a/output_inception_4a/output_0_split
I0907 19:36:24.337165 99249 net.cpp:110] Creating Layer inception_4a/output_inception_4a/output_0_split
I0907 19:36:24.337172 99249 net.cpp:477] inception_4a/output_inception_4a/output_0_split <- inception_4a/output
I0907 19:36:24.337184 99249 net.cpp:433] inception_4a/output_inception_4a/output_0_split -> inception_4a/output_inception_4a/output_0_split_0
I0907 19:36:24.337198 99249 net.cpp:433] inception_4a/output_inception_4a/output_0_split -> inception_4a/output_inception_4a/output_0_split_1
I0907 19:36:24.337213 99249 net.cpp:433] inception_4a/output_inception_4a/output_0_split -> inception_4a/output_inception_4a/output_0_split_2
I0907 19:36:24.337225 99249 net.cpp:433] inception_4a/output_inception_4a/output_0_split -> inception_4a/output_inception_4a/output_0_split_3
I0907 19:36:24.337236 99249 net.cpp:433] inception_4a/output_inception_4a/output_0_split -> inception_4a/output_inception_4a/output_0_split_4
I0907 19:36:24.337252 99249 net.cpp:155] Setting up inception_4a/output_inception_4a/output_0_split
I0907 19:36:24.337273 99249 net.cpp:163] Top shape: 32 576 14 14 (3612672)
I0907 19:36:24.337282 99249 net.cpp:163] Top shape: 32 576 14 14 (3612672)
I0907 19:36:24.337291 99249 net.cpp:163] Top shape: 32 576 14 14 (3612672)
I0907 19:36:24.337299 99249 net.cpp:163] Top shape: 32 576 14 14 (3612672)
I0907 19:36:24.337307 99249 net.cpp:163] Top shape: 32 576 14 14 (3612672)
I0907 19:36:24.337314 99249 layer_factory.hpp:76] Creating layer loss1/ave_pool
I0907 19:36:24.337329 99249 net.cpp:110] Creating Layer loss1/ave_pool
I0907 19:36:24.337337 99249 net.cpp:477] loss1/ave_pool <- inception_4a/output_inception_4a/output_0_split_0
I0907 19:36:24.337348 99249 net.cpp:433] loss1/ave_pool -> loss1/ave_pool
I0907 19:36:24.337363 99249 net.cpp:155] Setting up loss1/ave_pool
I0907 19:36:24.337373 99249 net.cpp:163] Top shape: 32 576 4 4 (294912)
I0907 19:36:24.337380 99249 layer_factory.hpp:76] Creating layer loss1/conv
I0907 19:36:24.337393 99249 net.cpp:110] Creating Layer loss1/conv
I0907 19:36:24.337401 99249 net.cpp:477] loss1/conv <- loss1/ave_pool
I0907 19:36:24.337414 99249 net.cpp:433] loss1/conv -> loss1/conv
I0907 19:36:24.342722 99249 net.cpp:155] Setting up loss1/conv
I0907 19:36:24.342748 99249 net.cpp:163] Top shape: 32 128 4 4 (65536)
I0907 19:36:24.342761 99249 layer_factory.hpp:76] Creating layer BN_00000031
I0907 19:36:24.342779 99249 net.cpp:110] Creating Layer BN_00000031
I0907 19:36:24.342788 99249 net.cpp:477] BN_00000031 <- loss1/conv
I0907 19:36:24.342799 99249 net.cpp:433] BN_00000031 -> loss1/conv/bn
I0907 19:36:24.342862 99249 net.cpp:155] Setting up BN_00000031
I0907 19:36:24.342878 99249 net.cpp:163] Top shape: 32 128 4 4 (65536)
I0907 19:36:24.342892 99249 layer_factory.hpp:76] Creating layer loss1/relu_conv
I0907 19:36:24.342905 99249 net.cpp:110] Creating Layer loss1/relu_conv
I0907 19:36:24.342912 99249 net.cpp:477] loss1/relu_conv <- loss1/conv/bn
I0907 19:36:24.342952 99249 net.cpp:419] loss1/relu_conv -> loss1/conv/bn (in-place)
I0907 19:36:24.342967 99249 net.cpp:155] Setting up loss1/relu_conv
I0907 19:36:24.342977 99249 net.cpp:163] Top shape: 32 128 4 4 (65536)
I0907 19:36:24.342984 99249 layer_factory.hpp:76] Creating layer loss1/fc
I0907 19:36:24.343006 99249 net.cpp:110] Creating Layer loss1/fc
I0907 19:36:24.343019 99249 net.cpp:477] loss1/fc <- loss1/conv/bn
I0907 19:36:24.343035 99249 net.cpp:433] loss1/fc -> loss1/fc
I0907 19:36:24.496903 99249 net.cpp:155] Setting up loss1/fc
I0907 19:36:24.496937 99249 net.cpp:163] Top shape: 32 1024 (32768)
I0907 19:36:24.496953 99249 layer_factory.hpp:76] Creating layer BN_00000032
I0907 19:36:24.496966 99249 net.cpp:110] Creating Layer BN_00000032
I0907 19:36:24.496976 99249 net.cpp:477] BN_00000032 <- loss1/fc
I0907 19:36:24.496989 99249 net.cpp:433] BN_00000032 -> loss1/fc/bn
I0907 19:36:24.497050 99249 net.cpp:155] Setting up BN_00000032
I0907 19:36:24.497066 99249 net.cpp:163] Top shape: 32 1024 (32768)
I0907 19:36:24.497082 99249 layer_factory.hpp:76] Creating layer loss1/relu_fc
I0907 19:36:24.497094 99249 net.cpp:110] Creating Layer loss1/relu_fc
I0907 19:36:24.497102 99249 net.cpp:477] loss1/relu_fc <- loss1/fc/bn
I0907 19:36:24.497112 99249 net.cpp:419] loss1/relu_fc -> loss1/fc/bn (in-place)
I0907 19:36:24.497124 99249 net.cpp:155] Setting up loss1/relu_fc
I0907 19:36:24.497134 99249 net.cpp:163] Top shape: 32 1024 (32768)
I0907 19:36:24.497143 99249 layer_factory.hpp:76] Creating layer loss1/classifier
I0907 19:36:24.497159 99249 net.cpp:110] Creating Layer loss1/classifier
I0907 19:36:24.497167 99249 net.cpp:477] loss1/classifier <- loss1/fc/bn
I0907 19:36:24.497179 99249 net.cpp:433] loss1/classifier -> loss1/classifier
I0907 19:36:24.572232 99249 net.cpp:155] Setting up loss1/classifier
I0907 19:36:24.572257 99249 net.cpp:163] Top shape: 32 1000 (32000)
I0907 19:36:24.572274 99249 layer_factory.hpp:76] Creating layer loss1/loss
I0907 19:36:24.572295 99249 net.cpp:110] Creating Layer loss1/loss
I0907 19:36:24.572304 99249 net.cpp:477] loss1/loss <- loss1/classifier
I0907 19:36:24.572316 99249 net.cpp:477] loss1/loss <- label_data_1_split_0
I0907 19:36:24.572331 99249 net.cpp:433] loss1/loss -> loss1/loss1
I0907 19:36:24.572358 99249 layer_factory.hpp:76] Creating layer loss1/loss
I0907 19:36:24.572540 99249 net.cpp:155] Setting up loss1/loss
I0907 19:36:24.572558 99249 net.cpp:163] Top shape: (1)
I0907 19:36:24.572566 99249 net.cpp:168]     with loss weight 0.3
I0907 19:36:24.572613 99249 layer_factory.hpp:76] Creating layer inception_4b/1x1
I0907 19:36:24.572628 99249 net.cpp:110] Creating Layer inception_4b/1x1
I0907 19:36:24.572636 99249 net.cpp:477] inception_4b/1x1 <- inception_4a/output_inception_4a/output_0_split_1
I0907 19:36:24.572654 99249 net.cpp:433] inception_4b/1x1 -> inception_4b/1x1
I0907 19:36:24.581434 99249 net.cpp:155] Setting up inception_4b/1x1
I0907 19:36:24.581459 99249 net.cpp:163] Top shape: 32 192 14 14 (1204224)
I0907 19:36:24.581514 99249 layer_factory.hpp:76] Creating layer BN_00000033
I0907 19:36:24.581528 99249 net.cpp:110] Creating Layer BN_00000033
I0907 19:36:24.581537 99249 net.cpp:477] BN_00000033 <- inception_4b/1x1
I0907 19:36:24.581549 99249 net.cpp:433] BN_00000033 -> inception_4b/1x1/bn
I0907 19:36:24.581629 99249 net.cpp:155] Setting up BN_00000033
I0907 19:36:24.581647 99249 net.cpp:163] Top shape: 32 192 14 14 (1204224)
I0907 19:36:24.581662 99249 layer_factory.hpp:76] Creating layer inception_4b/relu_1x1
I0907 19:36:24.581675 99249 net.cpp:110] Creating Layer inception_4b/relu_1x1
I0907 19:36:24.581683 99249 net.cpp:477] inception_4b/relu_1x1 <- inception_4b/1x1/bn
I0907 19:36:24.581693 99249 net.cpp:419] inception_4b/relu_1x1 -> inception_4b/1x1/bn (in-place)
I0907 19:36:24.581707 99249 net.cpp:155] Setting up inception_4b/relu_1x1
I0907 19:36:24.581717 99249 net.cpp:163] Top shape: 32 192 14 14 (1204224)
I0907 19:36:24.581724 99249 layer_factory.hpp:76] Creating layer inception_4b/3x3_reduce
I0907 19:36:24.581737 99249 net.cpp:110] Creating Layer inception_4b/3x3_reduce
I0907 19:36:24.581779 99249 net.cpp:477] inception_4b/3x3_reduce <- inception_4a/output_inception_4a/output_0_split_2
I0907 19:36:24.581796 99249 net.cpp:433] inception_4b/3x3_reduce -> inception_4b/3x3_reduce
I0907 19:36:24.586661 99249 net.cpp:155] Setting up inception_4b/3x3_reduce
I0907 19:36:24.586686 99249 net.cpp:163] Top shape: 32 96 14 14 (602112)
I0907 19:36:24.586701 99249 layer_factory.hpp:76] Creating layer BN_00000034
I0907 19:36:24.586714 99249 net.cpp:110] Creating Layer BN_00000034
I0907 19:36:24.586724 99249 net.cpp:477] BN_00000034 <- inception_4b/3x3_reduce
I0907 19:36:24.586740 99249 net.cpp:433] BN_00000034 -> inception_4b/3x3_reduce/bn
I0907 19:36:24.586812 99249 net.cpp:155] Setting up BN_00000034
I0907 19:36:24.586828 99249 net.cpp:163] Top shape: 32 96 14 14 (602112)
I0907 19:36:24.586846 99249 layer_factory.hpp:76] Creating layer inception_4b/relu_3x3_reduce
I0907 19:36:24.586869 99249 net.cpp:110] Creating Layer inception_4b/relu_3x3_reduce
I0907 19:36:24.586879 99249 net.cpp:477] inception_4b/relu_3x3_reduce <- inception_4b/3x3_reduce/bn
I0907 19:36:24.586889 99249 net.cpp:419] inception_4b/relu_3x3_reduce -> inception_4b/3x3_reduce/bn (in-place)
I0907 19:36:24.586901 99249 net.cpp:155] Setting up inception_4b/relu_3x3_reduce
I0907 19:36:24.586911 99249 net.cpp:163] Top shape: 32 96 14 14 (602112)
I0907 19:36:24.586918 99249 layer_factory.hpp:76] Creating layer inception_4b/3x3
I0907 19:36:24.586932 99249 net.cpp:110] Creating Layer inception_4b/3x3
I0907 19:36:24.586940 99249 net.cpp:477] inception_4b/3x3 <- inception_4b/3x3_reduce/bn
I0907 19:36:24.586954 99249 net.cpp:433] inception_4b/3x3 -> inception_4b/3x3
I0907 19:36:24.594851 99249 net.cpp:155] Setting up inception_4b/3x3
I0907 19:36:24.594871 99249 net.cpp:163] Top shape: 32 128 14 14 (802816)
I0907 19:36:24.594885 99249 layer_factory.hpp:76] Creating layer BN_00000035
I0907 19:36:24.594895 99249 net.cpp:110] Creating Layer BN_00000035
I0907 19:36:24.594904 99249 net.cpp:477] BN_00000035 <- inception_4b/3x3
I0907 19:36:24.594916 99249 net.cpp:433] BN_00000035 -> inception_4b/3x3/bn
I0907 19:36:24.594979 99249 net.cpp:155] Setting up BN_00000035
I0907 19:36:24.594995 99249 net.cpp:163] Top shape: 32 128 14 14 (802816)
I0907 19:36:24.595008 99249 layer_factory.hpp:76] Creating layer inception_4b/relu_3x3
I0907 19:36:24.595021 99249 net.cpp:110] Creating Layer inception_4b/relu_3x3
I0907 19:36:24.595028 99249 net.cpp:477] inception_4b/relu_3x3 <- inception_4b/3x3/bn
I0907 19:36:24.595038 99249 net.cpp:419] inception_4b/relu_3x3 -> inception_4b/3x3/bn (in-place)
I0907 19:36:24.595051 99249 net.cpp:155] Setting up inception_4b/relu_3x3
I0907 19:36:24.595060 99249 net.cpp:163] Top shape: 32 128 14 14 (802816)
I0907 19:36:24.595068 99249 layer_factory.hpp:76] Creating layer inception_4b/double3x3_reduce
I0907 19:36:24.595080 99249 net.cpp:110] Creating Layer inception_4b/double3x3_reduce
I0907 19:36:24.595088 99249 net.cpp:477] inception_4b/double3x3_reduce <- inception_4a/output_inception_4a/output_0_split_3
I0907 19:36:24.595104 99249 net.cpp:433] inception_4b/double3x3_reduce -> inception_4b/double3x3_reduce
I0907 19:36:24.599105 99249 net.cpp:155] Setting up inception_4b/double3x3_reduce
I0907 19:36:24.599124 99249 net.cpp:163] Top shape: 32 96 14 14 (602112)
I0907 19:36:24.599138 99249 layer_factory.hpp:76] Creating layer BN_00000036
I0907 19:36:24.599149 99249 net.cpp:110] Creating Layer BN_00000036
I0907 19:36:24.599158 99249 net.cpp:477] BN_00000036 <- inception_4b/double3x3_reduce
I0907 19:36:24.599169 99249 net.cpp:433] BN_00000036 -> inception_4b/double3x3_reduce/bn
I0907 19:36:24.599239 99249 net.cpp:155] Setting up BN_00000036
I0907 19:36:24.599256 99249 net.cpp:163] Top shape: 32 96 14 14 (602112)
I0907 19:36:24.599270 99249 layer_factory.hpp:76] Creating layer inception_4b/relu_double3x3_reduce
I0907 19:36:24.599282 99249 net.cpp:110] Creating Layer inception_4b/relu_double3x3_reduce
I0907 19:36:24.599289 99249 net.cpp:477] inception_4b/relu_double3x3_reduce <- inception_4b/double3x3_reduce/bn
I0907 19:36:24.599334 99249 net.cpp:419] inception_4b/relu_double3x3_reduce -> inception_4b/double3x3_reduce/bn (in-place)
I0907 19:36:24.599347 99249 net.cpp:155] Setting up inception_4b/relu_double3x3_reduce
I0907 19:36:24.599359 99249 net.cpp:163] Top shape: 32 96 14 14 (602112)
I0907 19:36:24.599365 99249 layer_factory.hpp:76] Creating layer inception_4b/double3x3_mid
I0907 19:36:24.599378 99249 net.cpp:110] Creating Layer inception_4b/double3x3_mid
I0907 19:36:24.599386 99249 net.cpp:477] inception_4b/double3x3_mid <- inception_4b/double3x3_reduce/bn
I0907 19:36:24.599398 99249 net.cpp:433] inception_4b/double3x3_mid -> inception_4b/double3x3_mid
I0907 19:36:24.608168 99249 net.cpp:155] Setting up inception_4b/double3x3_mid
I0907 19:36:24.608193 99249 net.cpp:163] Top shape: 32 128 14 14 (802816)
I0907 19:36:24.608208 99249 layer_factory.hpp:76] Creating layer BN_00000037
I0907 19:36:24.608249 99249 net.cpp:110] Creating Layer BN_00000037
I0907 19:36:24.608260 99249 net.cpp:477] BN_00000037 <- inception_4b/double3x3_mid
I0907 19:36:24.608273 99249 net.cpp:433] BN_00000037 -> inception_4b/double3x3_mid/bn
I0907 19:36:24.608341 99249 net.cpp:155] Setting up BN_00000037
I0907 19:36:24.608358 99249 net.cpp:163] Top shape: 32 128 14 14 (802816)
I0907 19:36:24.608373 99249 layer_factory.hpp:76] Creating layer inception_4b/relu_double3x3_mid
I0907 19:36:24.608386 99249 net.cpp:110] Creating Layer inception_4b/relu_double3x3_mid
I0907 19:36:24.608407 99249 net.cpp:477] inception_4b/relu_double3x3_mid <- inception_4b/double3x3_mid/bn
I0907 19:36:24.608417 99249 net.cpp:419] inception_4b/relu_double3x3_mid -> inception_4b/double3x3_mid/bn (in-place)
I0907 19:36:24.608430 99249 net.cpp:155] Setting up inception_4b/relu_double3x3_mid
I0907 19:36:24.608440 99249 net.cpp:163] Top shape: 32 128 14 14 (802816)
I0907 19:36:24.608448 99249 layer_factory.hpp:76] Creating layer inception_4b/double3x3
I0907 19:36:24.608461 99249 net.cpp:110] Creating Layer inception_4b/double3x3
I0907 19:36:24.608469 99249 net.cpp:477] inception_4b/double3x3 <- inception_4b/double3x3_mid/bn
I0907 19:36:24.608484 99249 net.cpp:433] inception_4b/double3x3 -> inception_4b/double3x3
I0907 19:36:24.618947 99249 net.cpp:155] Setting up inception_4b/double3x3
I0907 19:36:24.618966 99249 net.cpp:163] Top shape: 32 128 14 14 (802816)
I0907 19:36:24.618979 99249 layer_factory.hpp:76] Creating layer BN_00000038
I0907 19:36:24.618990 99249 net.cpp:110] Creating Layer BN_00000038
I0907 19:36:24.618999 99249 net.cpp:477] BN_00000038 <- inception_4b/double3x3
I0907 19:36:24.619010 99249 net.cpp:433] BN_00000038 -> inception_4b/double3x3/bn
I0907 19:36:24.619073 99249 net.cpp:155] Setting up BN_00000038
I0907 19:36:24.619092 99249 net.cpp:163] Top shape: 32 128 14 14 (802816)
I0907 19:36:24.619107 99249 layer_factory.hpp:76] Creating layer inception_4b/relu_double3x3
I0907 19:36:24.619117 99249 net.cpp:110] Creating Layer inception_4b/relu_double3x3
I0907 19:36:24.619127 99249 net.cpp:477] inception_4b/relu_double3x3 <- inception_4b/double3x3/bn
I0907 19:36:24.619137 99249 net.cpp:419] inception_4b/relu_double3x3 -> inception_4b/double3x3/bn (in-place)
I0907 19:36:24.619148 99249 net.cpp:155] Setting up inception_4b/relu_double3x3
I0907 19:36:24.619159 99249 net.cpp:163] Top shape: 32 128 14 14 (802816)
I0907 19:36:24.619166 99249 layer_factory.hpp:76] Creating layer inception_4b/pool
I0907 19:36:24.619179 99249 net.cpp:110] Creating Layer inception_4b/pool
I0907 19:36:24.619186 99249 net.cpp:477] inception_4b/pool <- inception_4a/output_inception_4a/output_0_split_4
I0907 19:36:24.619197 99249 net.cpp:433] inception_4b/pool -> inception_4b/pool
I0907 19:36:24.619213 99249 net.cpp:155] Setting up inception_4b/pool
I0907 19:36:24.619223 99249 net.cpp:163] Top shape: 32 576 14 14 (3612672)
I0907 19:36:24.619230 99249 layer_factory.hpp:76] Creating layer inception_4b/pool_proj
I0907 19:36:24.619246 99249 net.cpp:110] Creating Layer inception_4b/pool_proj
I0907 19:36:24.619254 99249 net.cpp:477] inception_4b/pool_proj <- inception_4b/pool
I0907 19:36:24.619268 99249 net.cpp:433] inception_4b/pool_proj -> inception_4b/pool_proj
I0907 19:36:24.624624 99249 net.cpp:155] Setting up inception_4b/pool_proj
I0907 19:36:24.624644 99249 net.cpp:163] Top shape: 32 128 14 14 (802816)
I0907 19:36:24.624657 99249 layer_factory.hpp:76] Creating layer BN_00000039
I0907 19:36:24.624668 99249 net.cpp:110] Creating Layer BN_00000039
I0907 19:36:24.624677 99249 net.cpp:477] BN_00000039 <- inception_4b/pool_proj
I0907 19:36:24.624688 99249 net.cpp:433] BN_00000039 -> inception_4b/pool_proj/bn
I0907 19:36:24.624753 99249 net.cpp:155] Setting up BN_00000039
I0907 19:36:24.624771 99249 net.cpp:163] Top shape: 32 128 14 14 (802816)
I0907 19:36:24.624785 99249 layer_factory.hpp:76] Creating layer inception_4b/relu_pool_proj
I0907 19:36:24.624795 99249 net.cpp:110] Creating Layer inception_4b/relu_pool_proj
I0907 19:36:24.624804 99249 net.cpp:477] inception_4b/relu_pool_proj <- inception_4b/pool_proj/bn
I0907 19:36:24.624817 99249 net.cpp:419] inception_4b/relu_pool_proj -> inception_4b/pool_proj/bn (in-place)
I0907 19:36:24.624830 99249 net.cpp:155] Setting up inception_4b/relu_pool_proj
I0907 19:36:24.624840 99249 net.cpp:163] Top shape: 32 128 14 14 (802816)
I0907 19:36:24.624847 99249 layer_factory.hpp:76] Creating layer inception_4b/output
I0907 19:36:24.624858 99249 net.cpp:110] Creating Layer inception_4b/output
I0907 19:36:24.624866 99249 net.cpp:477] inception_4b/output <- inception_4b/1x1/bn
I0907 19:36:24.624876 99249 net.cpp:477] inception_4b/output <- inception_4b/3x3/bn
I0907 19:36:24.624886 99249 net.cpp:477] inception_4b/output <- inception_4b/double3x3/bn
I0907 19:36:24.624894 99249 net.cpp:477] inception_4b/output <- inception_4b/pool_proj/bn
I0907 19:36:24.624904 99249 net.cpp:433] inception_4b/output -> inception_4b/output
I0907 19:36:24.624920 99249 net.cpp:155] Setting up inception_4b/output
I0907 19:36:24.624930 99249 net.cpp:163] Top shape: 32 576 14 14 (3612672)
I0907 19:36:24.624938 99249 layer_factory.hpp:76] Creating layer inception_4b/output_inception_4b/output_0_split
I0907 19:36:24.624949 99249 net.cpp:110] Creating Layer inception_4b/output_inception_4b/output_0_split
I0907 19:36:24.624958 99249 net.cpp:477] inception_4b/output_inception_4b/output_0_split <- inception_4b/output
I0907 19:36:24.624969 99249 net.cpp:433] inception_4b/output_inception_4b/output_0_split -> inception_4b/output_inception_4b/output_0_split_0
I0907 19:36:24.624981 99249 net.cpp:433] inception_4b/output_inception_4b/output_0_split -> inception_4b/output_inception_4b/output_0_split_1
I0907 19:36:24.624995 99249 net.cpp:433] inception_4b/output_inception_4b/output_0_split -> inception_4b/output_inception_4b/output_0_split_2
I0907 19:36:24.625008 99249 net.cpp:433] inception_4b/output_inception_4b/output_0_split -> inception_4b/output_inception_4b/output_0_split_3
I0907 19:36:24.625025 99249 net.cpp:155] Setting up inception_4b/output_inception_4b/output_0_split
I0907 19:36:24.625046 99249 net.cpp:163] Top shape: 32 576 14 14 (3612672)
I0907 19:36:24.625056 99249 net.cpp:163] Top shape: 32 576 14 14 (3612672)
I0907 19:36:24.625064 99249 net.cpp:163] Top shape: 32 576 14 14 (3612672)
I0907 19:36:24.625073 99249 net.cpp:163] Top shape: 32 576 14 14 (3612672)
I0907 19:36:24.625080 99249 layer_factory.hpp:76] Creating layer inception_4c/1x1
I0907 19:36:24.625093 99249 net.cpp:110] Creating Layer inception_4c/1x1
I0907 19:36:24.625102 99249 net.cpp:477] inception_4c/1x1 <- inception_4b/output_inception_4b/output_0_split_0
I0907 19:36:24.625113 99249 net.cpp:433] inception_4c/1x1 -> inception_4c/1x1
I0907 19:36:24.632575 99249 net.cpp:155] Setting up inception_4c/1x1
I0907 19:36:24.632601 99249 net.cpp:163] Top shape: 32 160 14 14 (1003520)
I0907 19:36:24.632616 99249 layer_factory.hpp:76] Creating layer BN_00000040
I0907 19:36:24.632628 99249 net.cpp:110] Creating Layer BN_00000040
I0907 19:36:24.632637 99249 net.cpp:477] BN_00000040 <- inception_4c/1x1
I0907 19:36:24.632649 99249 net.cpp:433] BN_00000040 -> inception_4c/1x1/bn
I0907 19:36:24.632727 99249 net.cpp:155] Setting up BN_00000040
I0907 19:36:24.632766 99249 net.cpp:163] Top shape: 32 160 14 14 (1003520)
I0907 19:36:24.632781 99249 layer_factory.hpp:76] Creating layer inception_4c/relu_1x1
I0907 19:36:24.632792 99249 net.cpp:110] Creating Layer inception_4c/relu_1x1
I0907 19:36:24.632800 99249 net.cpp:477] inception_4c/relu_1x1 <- inception_4c/1x1/bn
I0907 19:36:24.632814 99249 net.cpp:419] inception_4c/relu_1x1 -> inception_4c/1x1/bn (in-place)
I0907 19:36:24.632827 99249 net.cpp:155] Setting up inception_4c/relu_1x1
I0907 19:36:24.632838 99249 net.cpp:163] Top shape: 32 160 14 14 (1003520)
I0907 19:36:24.632845 99249 layer_factory.hpp:76] Creating layer inception_4c/3x3_reduce
I0907 19:36:24.632858 99249 net.cpp:110] Creating Layer inception_4c/3x3_reduce
I0907 19:36:24.632866 99249 net.cpp:477] inception_4c/3x3_reduce <- inception_4b/output_inception_4b/output_0_split_1
I0907 19:36:24.632879 99249 net.cpp:433] inception_4c/3x3_reduce -> inception_4c/3x3_reduce
I0907 19:36:24.638170 99249 net.cpp:155] Setting up inception_4c/3x3_reduce
I0907 19:36:24.638188 99249 net.cpp:163] Top shape: 32 128 14 14 (802816)
I0907 19:36:24.638202 99249 layer_factory.hpp:76] Creating layer BN_00000041
I0907 19:36:24.638212 99249 net.cpp:110] Creating Layer BN_00000041
I0907 19:36:24.638221 99249 net.cpp:477] BN_00000041 <- inception_4c/3x3_reduce
I0907 19:36:24.638236 99249 net.cpp:433] BN_00000041 -> inception_4c/3x3_reduce/bn
I0907 19:36:24.638296 99249 net.cpp:155] Setting up BN_00000041
I0907 19:36:24.638319 99249 net.cpp:163] Top shape: 32 128 14 14 (802816)
I0907 19:36:24.638332 99249 layer_factory.hpp:76] Creating layer inception_4c/relu_3x3_reduce
I0907 19:36:24.638346 99249 net.cpp:110] Creating Layer inception_4c/relu_3x3_reduce
I0907 19:36:24.638355 99249 net.cpp:477] inception_4c/relu_3x3_reduce <- inception_4c/3x3_reduce/bn
I0907 19:36:24.638366 99249 net.cpp:419] inception_4c/relu_3x3_reduce -> inception_4c/3x3_reduce/bn (in-place)
I0907 19:36:24.638378 99249 net.cpp:155] Setting up inception_4c/relu_3x3_reduce
I0907 19:36:24.638388 99249 net.cpp:163] Top shape: 32 128 14 14 (802816)
I0907 19:36:24.638396 99249 layer_factory.hpp:76] Creating layer inception_4c/3x3
I0907 19:36:24.638408 99249 net.cpp:110] Creating Layer inception_4c/3x3
I0907 19:36:24.638416 99249 net.cpp:477] inception_4c/3x3 <- inception_4c/3x3_reduce/bn
I0907 19:36:24.638427 99249 net.cpp:433] inception_4c/3x3 -> inception_4c/3x3
I0907 19:36:24.652400 99249 net.cpp:155] Setting up inception_4c/3x3
I0907 19:36:24.652432 99249 net.cpp:163] Top shape: 32 160 14 14 (1003520)
I0907 19:36:24.652448 99249 layer_factory.hpp:76] Creating layer BN_00000042
I0907 19:36:24.652461 99249 net.cpp:110] Creating Layer BN_00000042
I0907 19:36:24.652469 99249 net.cpp:477] BN_00000042 <- inception_4c/3x3
I0907 19:36:24.652482 99249 net.cpp:433] BN_00000042 -> inception_4c/3x3/bn
I0907 19:36:24.652556 99249 net.cpp:155] Setting up BN_00000042
I0907 19:36:24.652572 99249 net.cpp:163] Top shape: 32 160 14 14 (1003520)
I0907 19:36:24.652587 99249 layer_factory.hpp:76] Creating layer inception_4c/relu_3x3
I0907 19:36:24.652598 99249 net.cpp:110] Creating Layer inception_4c/relu_3x3
I0907 19:36:24.652607 99249 net.cpp:477] inception_4c/relu_3x3 <- inception_4c/3x3/bn
I0907 19:36:24.652621 99249 net.cpp:419] inception_4c/relu_3x3 -> inception_4c/3x3/bn (in-place)
I0907 19:36:24.652633 99249 net.cpp:155] Setting up inception_4c/relu_3x3
I0907 19:36:24.652657 99249 net.cpp:163] Top shape: 32 160 14 14 (1003520)
I0907 19:36:24.652665 99249 layer_factory.hpp:76] Creating layer inception_4c/double3x3_reduce
I0907 19:36:24.652678 99249 net.cpp:110] Creating Layer inception_4c/double3x3_reduce
I0907 19:36:24.652686 99249 net.cpp:477] inception_4c/double3x3_reduce <- inception_4b/output_inception_4b/output_0_split_2
I0907 19:36:24.652699 99249 net.cpp:433] inception_4c/double3x3_reduce -> inception_4c/double3x3_reduce
I0907 19:36:24.657986 99249 net.cpp:155] Setting up inception_4c/double3x3_reduce
I0907 19:36:24.658005 99249 net.cpp:163] Top shape: 32 128 14 14 (802816)
I0907 19:36:24.658020 99249 layer_factory.hpp:76] Creating layer BN_00000043
I0907 19:36:24.658051 99249 net.cpp:110] Creating Layer BN_00000043
I0907 19:36:24.658061 99249 net.cpp:477] BN_00000043 <- inception_4c/double3x3_reduce
I0907 19:36:24.658077 99249 net.cpp:433] BN_00000043 -> inception_4c/double3x3_reduce/bn
I0907 19:36:24.658167 99249 net.cpp:155] Setting up BN_00000043
I0907 19:36:24.658186 99249 net.cpp:163] Top shape: 32 128 14 14 (802816)
I0907 19:36:24.658200 99249 layer_factory.hpp:76] Creating layer inception_4c/relu_double3x3_reduce
I0907 19:36:24.658215 99249 net.cpp:110] Creating Layer inception_4c/relu_double3x3_reduce
I0907 19:36:24.658234 99249 net.cpp:477] inception_4c/relu_double3x3_reduce <- inception_4c/double3x3_reduce/bn
I0907 19:36:24.658246 99249 net.cpp:419] inception_4c/relu_double3x3_reduce -> inception_4c/double3x3_reduce/bn (in-place)
I0907 19:36:24.658258 99249 net.cpp:155] Setting up inception_4c/relu_double3x3_reduce
I0907 19:36:24.658268 99249 net.cpp:163] Top shape: 32 128 14 14 (802816)
I0907 19:36:24.658275 99249 layer_factory.hpp:76] Creating layer inception_4c/double3x3_mid
I0907 19:36:24.658291 99249 net.cpp:110] Creating Layer inception_4c/double3x3_mid
I0907 19:36:24.658299 99249 net.cpp:477] inception_4c/double3x3_mid <- inception_4c/double3x3_reduce/bn
I0907 19:36:24.658311 99249 net.cpp:433] inception_4c/double3x3_mid -> inception_4c/double3x3_mid
I0907 19:36:24.672267 99249 net.cpp:155] Setting up inception_4c/double3x3_mid
I0907 19:36:24.672291 99249 net.cpp:163] Top shape: 32 160 14 14 (1003520)
I0907 19:36:24.672307 99249 layer_factory.hpp:76] Creating layer BN_00000044
I0907 19:36:24.672318 99249 net.cpp:110] Creating Layer BN_00000044
I0907 19:36:24.672327 99249 net.cpp:477] BN_00000044 <- inception_4c/double3x3_mid
I0907 19:36:24.672339 99249 net.cpp:433] BN_00000044 -> inception_4c/double3x3_mid/bn
I0907 19:36:24.672416 99249 net.cpp:155] Setting up BN_00000044
I0907 19:36:24.672433 99249 net.cpp:163] Top shape: 32 160 14 14 (1003520)
I0907 19:36:24.672448 99249 layer_factory.hpp:76] Creating layer inception_4c/relu_double3x3_mid
I0907 19:36:24.672459 99249 net.cpp:110] Creating Layer inception_4c/relu_double3x3_mid
I0907 19:36:24.672467 99249 net.cpp:477] inception_4c/relu_double3x3_mid <- inception_4c/double3x3_mid/bn
I0907 19:36:24.672485 99249 net.cpp:419] inception_4c/relu_double3x3_mid -> inception_4c/double3x3_mid/bn (in-place)
I0907 19:36:24.672509 99249 net.cpp:155] Setting up inception_4c/relu_double3x3_mid
I0907 19:36:24.672520 99249 net.cpp:163] Top shape: 32 160 14 14 (1003520)
I0907 19:36:24.672528 99249 layer_factory.hpp:76] Creating layer inception_4c/double3x3
I0907 19:36:24.672541 99249 net.cpp:110] Creating Layer inception_4c/double3x3
I0907 19:36:24.672549 99249 net.cpp:477] inception_4c/double3x3 <- inception_4c/double3x3_mid/bn
I0907 19:36:24.672560 99249 net.cpp:433] inception_4c/double3x3 -> inception_4c/double3x3
I0907 19:36:24.689739 99249 net.cpp:155] Setting up inception_4c/double3x3
I0907 19:36:24.689764 99249 net.cpp:163] Top shape: 32 160 14 14 (1003520)
I0907 19:36:24.689779 99249 layer_factory.hpp:76] Creating layer BN_00000045
I0907 19:36:24.689791 99249 net.cpp:110] Creating Layer BN_00000045
I0907 19:36:24.689800 99249 net.cpp:477] BN_00000045 <- inception_4c/double3x3
I0907 19:36:24.689812 99249 net.cpp:433] BN_00000045 -> inception_4c/double3x3/bn
I0907 19:36:24.689887 99249 net.cpp:155] Setting up BN_00000045
I0907 19:36:24.689903 99249 net.cpp:163] Top shape: 32 160 14 14 (1003520)
I0907 19:36:24.689918 99249 layer_factory.hpp:76] Creating layer inception_4c/relu_double3x3
I0907 19:36:24.689929 99249 net.cpp:110] Creating Layer inception_4c/relu_double3x3
I0907 19:36:24.689937 99249 net.cpp:477] inception_4c/relu_double3x3 <- inception_4c/double3x3/bn
I0907 19:36:24.689951 99249 net.cpp:419] inception_4c/relu_double3x3 -> inception_4c/double3x3/bn (in-place)
I0907 19:36:24.689976 99249 net.cpp:155] Setting up inception_4c/relu_double3x3
I0907 19:36:24.689986 99249 net.cpp:163] Top shape: 32 160 14 14 (1003520)
I0907 19:36:24.689995 99249 layer_factory.hpp:76] Creating layer inception_4c/pool
I0907 19:36:24.690035 99249 net.cpp:110] Creating Layer inception_4c/pool
I0907 19:36:24.690044 99249 net.cpp:477] inception_4c/pool <- inception_4b/output_inception_4b/output_0_split_3
I0907 19:36:24.690057 99249 net.cpp:433] inception_4c/pool -> inception_4c/pool
I0907 19:36:24.690073 99249 net.cpp:155] Setting up inception_4c/pool
I0907 19:36:24.690090 99249 net.cpp:163] Top shape: 32 576 14 14 (3612672)
I0907 19:36:24.690099 99249 layer_factory.hpp:76] Creating layer inception_4c/pool_proj
I0907 19:36:24.690111 99249 net.cpp:110] Creating Layer inception_4c/pool_proj
I0907 19:36:24.690119 99249 net.cpp:477] inception_4c/pool_proj <- inception_4c/pool
I0907 19:36:24.690135 99249 net.cpp:433] inception_4c/pool_proj -> inception_4c/pool_proj
I0907 19:36:24.695436 99249 net.cpp:155] Setting up inception_4c/pool_proj
I0907 19:36:24.695456 99249 net.cpp:163] Top shape: 32 128 14 14 (802816)
I0907 19:36:24.695471 99249 layer_factory.hpp:76] Creating layer BN_00000046
I0907 19:36:24.695482 99249 net.cpp:110] Creating Layer BN_00000046
I0907 19:36:24.695489 99249 net.cpp:477] BN_00000046 <- inception_4c/pool_proj
I0907 19:36:24.695502 99249 net.cpp:433] BN_00000046 -> inception_4c/pool_proj/bn
I0907 19:36:24.695564 99249 net.cpp:155] Setting up BN_00000046
I0907 19:36:24.695580 99249 net.cpp:163] Top shape: 32 128 14 14 (802816)
I0907 19:36:24.695595 99249 layer_factory.hpp:76] Creating layer inception_4c/relu_pool_proj
I0907 19:36:24.695616 99249 net.cpp:110] Creating Layer inception_4c/relu_pool_proj
I0907 19:36:24.695624 99249 net.cpp:477] inception_4c/relu_pool_proj <- inception_4c/pool_proj/bn
I0907 19:36:24.695636 99249 net.cpp:419] inception_4c/relu_pool_proj -> inception_4c/pool_proj/bn (in-place)
I0907 19:36:24.695647 99249 net.cpp:155] Setting up inception_4c/relu_pool_proj
I0907 19:36:24.695657 99249 net.cpp:163] Top shape: 32 128 14 14 (802816)
I0907 19:36:24.695664 99249 layer_factory.hpp:76] Creating layer inception_4c/output
I0907 19:36:24.695684 99249 net.cpp:110] Creating Layer inception_4c/output
I0907 19:36:24.695693 99249 net.cpp:477] inception_4c/output <- inception_4c/1x1/bn
I0907 19:36:24.695703 99249 net.cpp:477] inception_4c/output <- inception_4c/3x3/bn
I0907 19:36:24.695713 99249 net.cpp:477] inception_4c/output <- inception_4c/double3x3/bn
I0907 19:36:24.695720 99249 net.cpp:477] inception_4c/output <- inception_4c/pool_proj/bn
I0907 19:36:24.695734 99249 net.cpp:433] inception_4c/output -> inception_4c/output
I0907 19:36:24.695749 99249 net.cpp:155] Setting up inception_4c/output
I0907 19:36:24.695760 99249 net.cpp:163] Top shape: 32 608 14 14 (3813376)
I0907 19:36:24.695767 99249 layer_factory.hpp:76] Creating layer inception_4c/output_inception_4c/output_0_split
I0907 19:36:24.695780 99249 net.cpp:110] Creating Layer inception_4c/output_inception_4c/output_0_split
I0907 19:36:24.695787 99249 net.cpp:477] inception_4c/output_inception_4c/output_0_split <- inception_4c/output
I0907 19:36:24.695798 99249 net.cpp:433] inception_4c/output_inception_4c/output_0_split -> inception_4c/output_inception_4c/output_0_split_0
I0907 19:36:24.695814 99249 net.cpp:433] inception_4c/output_inception_4c/output_0_split -> inception_4c/output_inception_4c/output_0_split_1
I0907 19:36:24.695828 99249 net.cpp:433] inception_4c/output_inception_4c/output_0_split -> inception_4c/output_inception_4c/output_0_split_2
I0907 19:36:24.695840 99249 net.cpp:433] inception_4c/output_inception_4c/output_0_split -> inception_4c/output_inception_4c/output_0_split_3
I0907 19:36:24.695854 99249 net.cpp:155] Setting up inception_4c/output_inception_4c/output_0_split
I0907 19:36:24.695873 99249 net.cpp:163] Top shape: 32 608 14 14 (3813376)
I0907 19:36:24.695883 99249 net.cpp:163] Top shape: 32 608 14 14 (3813376)
I0907 19:36:24.695891 99249 net.cpp:163] Top shape: 32 608 14 14 (3813376)
I0907 19:36:24.695899 99249 net.cpp:163] Top shape: 32 608 14 14 (3813376)
I0907 19:36:24.695907 99249 layer_factory.hpp:76] Creating layer inception_4d/1x1
I0907 19:36:24.695925 99249 net.cpp:110] Creating Layer inception_4d/1x1
I0907 19:36:24.695953 99249 net.cpp:477] inception_4d/1x1 <- inception_4c/output_inception_4c/output_0_split_0
I0907 19:36:24.695967 99249 net.cpp:433] inception_4d/1x1 -> inception_4d/1x1
I0907 19:36:24.700196 99249 net.cpp:155] Setting up inception_4d/1x1
I0907 19:36:24.700214 99249 net.cpp:163] Top shape: 32 96 14 14 (602112)
I0907 19:36:24.700229 99249 layer_factory.hpp:76] Creating layer BN_00000047
I0907 19:36:24.700240 99249 net.cpp:110] Creating Layer BN_00000047
I0907 19:36:24.700248 99249 net.cpp:477] BN_00000047 <- inception_4d/1x1
I0907 19:36:24.700260 99249 net.cpp:433] BN_00000047 -> inception_4d/1x1/bn
I0907 19:36:24.700335 99249 net.cpp:155] Setting up BN_00000047
I0907 19:36:24.700350 99249 net.cpp:163] Top shape: 32 96 14 14 (602112)
I0907 19:36:24.700366 99249 layer_factory.hpp:76] Creating layer inception_4d/relu_1x1
I0907 19:36:24.700387 99249 net.cpp:110] Creating Layer inception_4d/relu_1x1
I0907 19:36:24.700395 99249 net.cpp:477] inception_4d/relu_1x1 <- inception_4d/1x1/bn
I0907 19:36:24.700408 99249 net.cpp:419] inception_4d/relu_1x1 -> inception_4d/1x1/bn (in-place)
I0907 19:36:24.700422 99249 net.cpp:155] Setting up inception_4d/relu_1x1
I0907 19:36:24.700431 99249 net.cpp:163] Top shape: 32 96 14 14 (602112)
I0907 19:36:24.700438 99249 layer_factory.hpp:76] Creating layer inception_4d/3x3_reduce
I0907 19:36:24.700450 99249 net.cpp:110] Creating Layer inception_4d/3x3_reduce
I0907 19:36:24.700459 99249 net.cpp:477] inception_4d/3x3_reduce <- inception_4c/output_inception_4c/output_0_split_1
I0907 19:36:24.700470 99249 net.cpp:433] inception_4d/3x3_reduce -> inception_4d/3x3_reduce
I0907 19:36:24.706043 99249 net.cpp:155] Setting up inception_4d/3x3_reduce
I0907 19:36:24.706061 99249 net.cpp:163] Top shape: 32 128 14 14 (802816)
I0907 19:36:24.706075 99249 layer_factory.hpp:76] Creating layer BN_00000048
I0907 19:36:24.706086 99249 net.cpp:110] Creating Layer BN_00000048
I0907 19:36:24.706094 99249 net.cpp:477] BN_00000048 <- inception_4d/3x3_reduce
I0907 19:36:24.706110 99249 net.cpp:433] BN_00000048 -> inception_4d/3x3_reduce/bn
I0907 19:36:24.706169 99249 net.cpp:155] Setting up BN_00000048
I0907 19:36:24.706185 99249 net.cpp:163] Top shape: 32 128 14 14 (802816)
I0907 19:36:24.706202 99249 layer_factory.hpp:76] Creating layer inception_4d/relu_3x3_reduce
I0907 19:36:24.706220 99249 net.cpp:110] Creating Layer inception_4d/relu_3x3_reduce
I0907 19:36:24.706229 99249 net.cpp:477] inception_4d/relu_3x3_reduce <- inception_4d/3x3_reduce/bn
I0907 19:36:24.706239 99249 net.cpp:419] inception_4d/relu_3x3_reduce -> inception_4d/3x3_reduce/bn (in-place)
I0907 19:36:24.706253 99249 net.cpp:155] Setting up inception_4d/relu_3x3_reduce
I0907 19:36:24.706261 99249 net.cpp:163] Top shape: 32 128 14 14 (802816)
I0907 19:36:24.706269 99249 layer_factory.hpp:76] Creating layer inception_4d/3x3
I0907 19:36:24.706282 99249 net.cpp:110] Creating Layer inception_4d/3x3
I0907 19:36:24.706290 99249 net.cpp:477] inception_4d/3x3 <- inception_4d/3x3_reduce/bn
I0907 19:36:24.706301 99249 net.cpp:433] inception_4d/3x3 -> inception_4d/3x3
I0907 19:36:24.722839 99249 net.cpp:155] Setting up inception_4d/3x3
I0907 19:36:24.722865 99249 net.cpp:163] Top shape: 32 192 14 14 (1204224)
I0907 19:36:24.722880 99249 layer_factory.hpp:76] Creating layer BN_00000049
I0907 19:36:24.722892 99249 net.cpp:110] Creating Layer BN_00000049
I0907 19:36:24.722901 99249 net.cpp:477] BN_00000049 <- inception_4d/3x3
I0907 19:36:24.722913 99249 net.cpp:433] BN_00000049 -> inception_4d/3x3/bn
I0907 19:36:24.722990 99249 net.cpp:155] Setting up BN_00000049
I0907 19:36:24.723006 99249 net.cpp:163] Top shape: 32 192 14 14 (1204224)
I0907 19:36:24.723021 99249 layer_factory.hpp:76] Creating layer inception_4d/relu_3x3
I0907 19:36:24.723036 99249 net.cpp:110] Creating Layer inception_4d/relu_3x3
I0907 19:36:24.723052 99249 net.cpp:477] inception_4d/relu_3x3 <- inception_4d/3x3/bn
I0907 19:36:24.723062 99249 net.cpp:419] inception_4d/relu_3x3 -> inception_4d/3x3/bn (in-place)
I0907 19:36:24.723075 99249 net.cpp:155] Setting up inception_4d/relu_3x3
I0907 19:36:24.723109 99249 net.cpp:163] Top shape: 32 192 14 14 (1204224)
I0907 19:36:24.723117 99249 layer_factory.hpp:76] Creating layer inception_4d/double3x3_reduce
I0907 19:36:24.723130 99249 net.cpp:110] Creating Layer inception_4d/double3x3_reduce
I0907 19:36:24.723139 99249 net.cpp:477] inception_4d/double3x3_reduce <- inception_4c/output_inception_4c/output_0_split_2
I0907 19:36:24.723152 99249 net.cpp:433] inception_4d/double3x3_reduce -> inception_4d/double3x3_reduce
I0907 19:36:24.730968 99249 net.cpp:155] Setting up inception_4d/double3x3_reduce
I0907 19:36:24.730993 99249 net.cpp:163] Top shape: 32 160 14 14 (1003520)
I0907 19:36:24.731009 99249 layer_factory.hpp:76] Creating layer BN_00000050
I0907 19:36:24.731020 99249 net.cpp:110] Creating Layer BN_00000050
I0907 19:36:24.731029 99249 net.cpp:477] BN_00000050 <- inception_4d/double3x3_reduce
I0907 19:36:24.731042 99249 net.cpp:433] BN_00000050 -> inception_4d/double3x3_reduce/bn
I0907 19:36:24.731117 99249 net.cpp:155] Setting up BN_00000050
I0907 19:36:24.731133 99249 net.cpp:163] Top shape: 32 160 14 14 (1003520)
I0907 19:36:24.731148 99249 layer_factory.hpp:76] Creating layer inception_4d/relu_double3x3_reduce
I0907 19:36:24.731163 99249 net.cpp:110] Creating Layer inception_4d/relu_double3x3_reduce
I0907 19:36:24.731183 99249 net.cpp:477] inception_4d/relu_double3x3_reduce <- inception_4d/double3x3_reduce/bn
I0907 19:36:24.731194 99249 net.cpp:419] inception_4d/relu_double3x3_reduce -> inception_4d/double3x3_reduce/bn (in-place)
I0907 19:36:24.731205 99249 net.cpp:155] Setting up inception_4d/relu_double3x3_reduce
I0907 19:36:24.731216 99249 net.cpp:163] Top shape: 32 160 14 14 (1003520)
I0907 19:36:24.731223 99249 layer_factory.hpp:76] Creating layer inception_4d/double3x3_mid
I0907 19:36:24.731240 99249 net.cpp:110] Creating Layer inception_4d/double3x3_mid
I0907 19:36:24.731247 99249 net.cpp:477] inception_4d/double3x3_mid <- inception_4d/double3x3_reduce/bn
I0907 19:36:24.731259 99249 net.cpp:433] inception_4d/double3x3_mid -> inception_4d/double3x3_mid
I0907 19:36:24.751685 99249 net.cpp:155] Setting up inception_4d/double3x3_mid
I0907 19:36:24.751710 99249 net.cpp:163] Top shape: 32 192 14 14 (1204224)
I0907 19:36:24.751725 99249 layer_factory.hpp:76] Creating layer BN_00000051
I0907 19:36:24.751739 99249 net.cpp:110] Creating Layer BN_00000051
I0907 19:36:24.751749 99249 net.cpp:477] BN_00000051 <- inception_4d/double3x3_mid
I0907 19:36:24.751760 99249 net.cpp:433] BN_00000051 -> inception_4d/double3x3_mid/bn
I0907 19:36:24.751837 99249 net.cpp:155] Setting up BN_00000051
I0907 19:36:24.751854 99249 net.cpp:163] Top shape: 32 192 14 14 (1204224)
I0907 19:36:24.751869 99249 layer_factory.hpp:76] Creating layer inception_4d/relu_double3x3_mid
I0907 19:36:24.751879 99249 net.cpp:110] Creating Layer inception_4d/relu_double3x3_mid
I0907 19:36:24.751888 99249 net.cpp:477] inception_4d/relu_double3x3_mid <- inception_4d/double3x3_mid/bn
I0907 19:36:24.751901 99249 net.cpp:419] inception_4d/relu_double3x3_mid -> inception_4d/double3x3_mid/bn (in-place)
I0907 19:36:24.751914 99249 net.cpp:155] Setting up inception_4d/relu_double3x3_mid
I0907 19:36:24.751924 99249 net.cpp:163] Top shape: 32 192 14 14 (1204224)
I0907 19:36:24.751931 99249 layer_factory.hpp:76] Creating layer inception_4d/double3x3
I0907 19:36:24.751945 99249 net.cpp:110] Creating Layer inception_4d/double3x3
I0907 19:36:24.751955 99249 net.cpp:477] inception_4d/double3x3 <- inception_4d/double3x3_mid/bn
I0907 19:36:24.751967 99249 net.cpp:433] inception_4d/double3x3 -> inception_4d/double3x3
I0907 19:36:24.776463 99249 net.cpp:155] Setting up inception_4d/double3x3
I0907 19:36:24.776487 99249 net.cpp:163] Top shape: 32 192 14 14 (1204224)
I0907 19:36:24.776502 99249 layer_factory.hpp:76] Creating layer BN_00000052
I0907 19:36:24.776515 99249 net.cpp:110] Creating Layer BN_00000052
I0907 19:36:24.776523 99249 net.cpp:477] BN_00000052 <- inception_4d/double3x3
I0907 19:36:24.776535 99249 net.cpp:433] BN_00000052 -> inception_4d/double3x3/bn
I0907 19:36:24.776612 99249 net.cpp:155] Setting up BN_00000052
I0907 19:36:24.776649 99249 net.cpp:163] Top shape: 32 192 14 14 (1204224)
I0907 19:36:24.776665 99249 layer_factory.hpp:76] Creating layer inception_4d/relu_double3x3
I0907 19:36:24.776677 99249 net.cpp:110] Creating Layer inception_4d/relu_double3x3
I0907 19:36:24.776685 99249 net.cpp:477] inception_4d/relu_double3x3 <- inception_4d/double3x3/bn
I0907 19:36:24.776700 99249 net.cpp:419] inception_4d/relu_double3x3 -> inception_4d/double3x3/bn (in-place)
I0907 19:36:24.776713 99249 net.cpp:155] Setting up inception_4d/relu_double3x3
I0907 19:36:24.776734 99249 net.cpp:163] Top shape: 32 192 14 14 (1204224)
I0907 19:36:24.776742 99249 layer_factory.hpp:76] Creating layer inception_4d/pool
I0907 19:36:24.776753 99249 net.cpp:110] Creating Layer inception_4d/pool
I0907 19:36:24.776762 99249 net.cpp:477] inception_4d/pool <- inception_4c/output_inception_4c/output_0_split_3
I0907 19:36:24.776777 99249 net.cpp:433] inception_4d/pool -> inception_4d/pool
I0907 19:36:24.776793 99249 net.cpp:155] Setting up inception_4d/pool
I0907 19:36:24.776813 99249 net.cpp:163] Top shape: 32 608 14 14 (3813376)
I0907 19:36:24.776820 99249 layer_factory.hpp:76] Creating layer inception_4d/pool_proj
I0907 19:36:24.776834 99249 net.cpp:110] Creating Layer inception_4d/pool_proj
I0907 19:36:24.776842 99249 net.cpp:477] inception_4d/pool_proj <- inception_4d/pool
I0907 19:36:24.776857 99249 net.cpp:433] inception_4d/pool_proj -> inception_4d/pool_proj
I0907 19:36:24.782445 99249 net.cpp:155] Setting up inception_4d/pool_proj
I0907 19:36:24.782465 99249 net.cpp:163] Top shape: 32 128 14 14 (802816)
I0907 19:36:24.782480 99249 layer_factory.hpp:76] Creating layer BN_00000053
I0907 19:36:24.782490 99249 net.cpp:110] Creating Layer BN_00000053
I0907 19:36:24.782498 99249 net.cpp:477] BN_00000053 <- inception_4d/pool_proj
I0907 19:36:24.782510 99249 net.cpp:433] BN_00000053 -> inception_4d/pool_proj/bn
I0907 19:36:24.782575 99249 net.cpp:155] Setting up BN_00000053
I0907 19:36:24.782590 99249 net.cpp:163] Top shape: 32 128 14 14 (802816)
I0907 19:36:24.782605 99249 layer_factory.hpp:76] Creating layer inception_4d/relu_pool_proj
I0907 19:36:24.782615 99249 net.cpp:110] Creating Layer inception_4d/relu_pool_proj
I0907 19:36:24.782624 99249 net.cpp:477] inception_4d/relu_pool_proj <- inception_4d/pool_proj/bn
I0907 19:36:24.782634 99249 net.cpp:419] inception_4d/relu_pool_proj -> inception_4d/pool_proj/bn (in-place)
I0907 19:36:24.782646 99249 net.cpp:155] Setting up inception_4d/relu_pool_proj
I0907 19:36:24.782656 99249 net.cpp:163] Top shape: 32 128 14 14 (802816)
I0907 19:36:24.782663 99249 layer_factory.hpp:76] Creating layer inception_4d/output
I0907 19:36:24.782675 99249 net.cpp:110] Creating Layer inception_4d/output
I0907 19:36:24.782682 99249 net.cpp:477] inception_4d/output <- inception_4d/1x1/bn
I0907 19:36:24.782692 99249 net.cpp:477] inception_4d/output <- inception_4d/3x3/bn
I0907 19:36:24.782701 99249 net.cpp:477] inception_4d/output <- inception_4d/double3x3/bn
I0907 19:36:24.782711 99249 net.cpp:477] inception_4d/output <- inception_4d/pool_proj/bn
I0907 19:36:24.782723 99249 net.cpp:433] inception_4d/output -> inception_4d/output
I0907 19:36:24.782738 99249 net.cpp:155] Setting up inception_4d/output
I0907 19:36:24.782748 99249 net.cpp:163] Top shape: 32 608 14 14 (3813376)
I0907 19:36:24.782757 99249 layer_factory.hpp:76] Creating layer inception_4d/output_inception_4d/output_0_split
I0907 19:36:24.782768 99249 net.cpp:110] Creating Layer inception_4d/output_inception_4d/output_0_split
I0907 19:36:24.782774 99249 net.cpp:477] inception_4d/output_inception_4d/output_0_split <- inception_4d/output
I0907 19:36:24.782789 99249 net.cpp:433] inception_4d/output_inception_4d/output_0_split -> inception_4d/output_inception_4d/output_0_split_0
I0907 19:36:24.782802 99249 net.cpp:433] inception_4d/output_inception_4d/output_0_split -> inception_4d/output_inception_4d/output_0_split_1
I0907 19:36:24.782816 99249 net.cpp:433] inception_4d/output_inception_4d/output_0_split -> inception_4d/output_inception_4d/output_0_split_2
I0907 19:36:24.782852 99249 net.cpp:433] inception_4d/output_inception_4d/output_0_split -> inception_4d/output_inception_4d/output_0_split_3
I0907 19:36:24.782867 99249 net.cpp:155] Setting up inception_4d/output_inception_4d/output_0_split
I0907 19:36:24.782877 99249 net.cpp:163] Top shape: 32 608 14 14 (3813376)
I0907 19:36:24.782887 99249 net.cpp:163] Top shape: 32 608 14 14 (3813376)
I0907 19:36:24.782896 99249 net.cpp:163] Top shape: 32 608 14 14 (3813376)
I0907 19:36:24.782904 99249 net.cpp:163] Top shape: 32 608 14 14 (3813376)
I0907 19:36:24.782912 99249 layer_factory.hpp:76] Creating layer loss2/ave_pool
I0907 19:36:24.782922 99249 net.cpp:110] Creating Layer loss2/ave_pool
I0907 19:36:24.782930 99249 net.cpp:477] loss2/ave_pool <- inception_4d/output_inception_4d/output_0_split_0
I0907 19:36:24.782945 99249 net.cpp:433] loss2/ave_pool -> loss2/ave_pool
I0907 19:36:24.782960 99249 net.cpp:155] Setting up loss2/ave_pool
I0907 19:36:24.782980 99249 net.cpp:163] Top shape: 32 608 4 4 (311296)
I0907 19:36:24.782989 99249 layer_factory.hpp:76] Creating layer loss2/conv
I0907 19:36:24.783001 99249 net.cpp:110] Creating Layer loss2/conv
I0907 19:36:24.783010 99249 net.cpp:477] loss2/conv <- loss2/ave_pool
I0907 19:36:24.783020 99249 net.cpp:433] loss2/conv -> loss2/conv
I0907 19:36:24.788609 99249 net.cpp:155] Setting up loss2/conv
I0907 19:36:24.788627 99249 net.cpp:163] Top shape: 32 128 4 4 (65536)
I0907 19:36:24.788641 99249 layer_factory.hpp:76] Creating layer BN_00000054
I0907 19:36:24.788652 99249 net.cpp:110] Creating Layer BN_00000054
I0907 19:36:24.788661 99249 net.cpp:477] BN_00000054 <- loss2/conv
I0907 19:36:24.788676 99249 net.cpp:433] BN_00000054 -> loss2/conv/bn
I0907 19:36:24.788738 99249 net.cpp:155] Setting up BN_00000054
I0907 19:36:24.788753 99249 net.cpp:163] Top shape: 32 128 4 4 (65536)
I0907 19:36:24.788770 99249 layer_factory.hpp:76] Creating layer loss2/relu_conv
I0907 19:36:24.788789 99249 net.cpp:110] Creating Layer loss2/relu_conv
I0907 19:36:24.788797 99249 net.cpp:477] loss2/relu_conv <- loss2/conv/bn
I0907 19:36:24.788808 99249 net.cpp:419] loss2/relu_conv -> loss2/conv/bn (in-place)
I0907 19:36:24.788820 99249 net.cpp:155] Setting up loss2/relu_conv
I0907 19:36:24.788830 99249 net.cpp:163] Top shape: 32 128 4 4 (65536)
I0907 19:36:24.788837 99249 layer_factory.hpp:76] Creating layer loss2/fc
I0907 19:36:24.788851 99249 net.cpp:110] Creating Layer loss2/fc
I0907 19:36:24.788859 99249 net.cpp:477] loss2/fc <- loss2/conv/bn
I0907 19:36:24.788871 99249 net.cpp:433] loss2/fc -> loss2/fc
I0907 19:36:24.929695 99249 net.cpp:155] Setting up loss2/fc
I0907 19:36:24.929713 99249 net.cpp:163] Top shape: 32 1024 (32768)
I0907 19:36:24.929728 99249 layer_factory.hpp:76] Creating layer BN_00000055
I0907 19:36:24.929735 99249 net.cpp:110] Creating Layer BN_00000055
I0907 19:36:24.929740 99249 net.cpp:477] BN_00000055 <- loss2/fc
I0907 19:36:24.929747 99249 net.cpp:433] BN_00000055 -> loss2/fc/bn
I0907 19:36:24.929785 99249 net.cpp:155] Setting up BN_00000055
I0907 19:36:24.929792 99249 net.cpp:163] Top shape: 32 1024 (32768)
I0907 19:36:24.929801 99249 layer_factory.hpp:76] Creating layer loss2/relu_fc
I0907 19:36:24.929808 99249 net.cpp:110] Creating Layer loss2/relu_fc
I0907 19:36:24.929813 99249 net.cpp:477] loss2/relu_fc <- loss2/fc/bn
I0907 19:36:24.929819 99249 net.cpp:419] loss2/relu_fc -> loss2/fc/bn (in-place)
I0907 19:36:24.929826 99249 net.cpp:155] Setting up loss2/relu_fc
I0907 19:36:24.929831 99249 net.cpp:163] Top shape: 32 1024 (32768)
I0907 19:36:24.929836 99249 layer_factory.hpp:76] Creating layer loss2/classifier
I0907 19:36:24.929847 99249 net.cpp:110] Creating Layer loss2/classifier
I0907 19:36:24.929850 99249 net.cpp:477] loss2/classifier <- loss2/fc/bn
I0907 19:36:24.929857 99249 net.cpp:433] loss2/classifier -> loss2/classifier
I0907 19:36:24.973052 99249 net.cpp:155] Setting up loss2/classifier
I0907 19:36:24.973068 99249 net.cpp:163] Top shape: 32 1000 (32000)
I0907 19:36:24.973084 99249 layer_factory.hpp:76] Creating layer loss2/loss
I0907 19:36:24.973093 99249 net.cpp:110] Creating Layer loss2/loss
I0907 19:36:24.973117 99249 net.cpp:477] loss2/loss <- loss2/classifier
I0907 19:36:24.973129 99249 net.cpp:477] loss2/loss <- label_data_1_split_1
I0907 19:36:24.973140 99249 net.cpp:433] loss2/loss -> loss2/loss1
I0907 19:36:24.973150 99249 layer_factory.hpp:76] Creating layer loss2/loss
I0907 19:36:24.973258 99249 net.cpp:155] Setting up loss2/loss
I0907 19:36:24.973270 99249 net.cpp:163] Top shape: (1)
I0907 19:36:24.973274 99249 net.cpp:168]     with loss weight 0.3
I0907 19:36:24.973290 99249 layer_factory.hpp:76] Creating layer inception_4e/3x3_reduce
I0907 19:36:24.973301 99249 net.cpp:110] Creating Layer inception_4e/3x3_reduce
I0907 19:36:24.973306 99249 net.cpp:477] inception_4e/3x3_reduce <- inception_4d/output_inception_4d/output_0_split_1
I0907 19:36:24.973317 99249 net.cpp:433] inception_4e/3x3_reduce -> inception_4e/3x3_reduce
I0907 19:36:24.977123 99249 net.cpp:155] Setting up inception_4e/3x3_reduce
I0907 19:36:24.977138 99249 net.cpp:163] Top shape: 32 128 14 14 (802816)
I0907 19:36:24.977146 99249 layer_factory.hpp:76] Creating layer BN_00000056
I0907 19:36:24.977154 99249 net.cpp:110] Creating Layer BN_00000056
I0907 19:36:24.977159 99249 net.cpp:477] BN_00000056 <- inception_4e/3x3_reduce
I0907 19:36:24.977169 99249 net.cpp:433] BN_00000056 -> inception_4e/3x3_reduce/bn
I0907 19:36:24.977210 99249 net.cpp:155] Setting up BN_00000056
I0907 19:36:24.977217 99249 net.cpp:163] Top shape: 32 128 14 14 (802816)
I0907 19:36:24.977226 99249 layer_factory.hpp:76] Creating layer inception_4e/relu_3x3_reduce
I0907 19:36:24.977236 99249 net.cpp:110] Creating Layer inception_4e/relu_3x3_reduce
I0907 19:36:24.977241 99249 net.cpp:477] inception_4e/relu_3x3_reduce <- inception_4e/3x3_reduce/bn
I0907 19:36:24.977246 99249 net.cpp:419] inception_4e/relu_3x3_reduce -> inception_4e/3x3_reduce/bn (in-place)
I0907 19:36:24.977253 99249 net.cpp:155] Setting up inception_4e/relu_3x3_reduce
I0907 19:36:24.977259 99249 net.cpp:163] Top shape: 32 128 14 14 (802816)
I0907 19:36:24.977263 99249 layer_factory.hpp:76] Creating layer inception_4e/3x3_s2
I0907 19:36:24.977272 99249 net.cpp:110] Creating Layer inception_4e/3x3_s2
I0907 19:36:24.977277 99249 net.cpp:477] inception_4e/3x3_s2 <- inception_4e/3x3_reduce/bn
I0907 19:36:24.977283 99249 net.cpp:433] inception_4e/3x3_s2 -> inception_4e/3x3_s2
I0907 19:36:24.986845 99249 net.cpp:155] Setting up inception_4e/3x3_s2
I0907 19:36:24.986860 99249 net.cpp:163] Top shape: 32 192 7 7 (301056)
I0907 19:36:24.986870 99249 layer_factory.hpp:76] Creating layer BN_00000057
I0907 19:36:24.986876 99249 net.cpp:110] Creating Layer BN_00000057
I0907 19:36:24.986881 99249 net.cpp:477] BN_00000057 <- inception_4e/3x3_s2
I0907 19:36:24.986887 99249 net.cpp:433] BN_00000057 -> inception_4e/3x3_s2/bn
I0907 19:36:24.986938 99249 net.cpp:155] Setting up BN_00000057
I0907 19:36:24.986946 99249 net.cpp:163] Top shape: 32 192 7 7 (301056)
I0907 19:36:24.986954 99249 layer_factory.hpp:76] Creating layer inception_4e/relu_3x3
I0907 19:36:24.986961 99249 net.cpp:110] Creating Layer inception_4e/relu_3x3
I0907 19:36:24.986966 99249 net.cpp:477] inception_4e/relu_3x3 <- inception_4e/3x3_s2/bn
I0907 19:36:24.986974 99249 net.cpp:419] inception_4e/relu_3x3 -> inception_4e/3x3_s2/bn (in-place)
I0907 19:36:24.986982 99249 net.cpp:155] Setting up inception_4e/relu_3x3
I0907 19:36:24.986989 99249 net.cpp:163] Top shape: 32 192 7 7 (301056)
I0907 19:36:24.986992 99249 layer_factory.hpp:76] Creating layer inception_4e/double3x3_reduce
I0907 19:36:24.987000 99249 net.cpp:110] Creating Layer inception_4e/double3x3_reduce
I0907 19:36:24.987005 99249 net.cpp:477] inception_4e/double3x3_reduce <- inception_4d/output_inception_4d/output_0_split_2
I0907 19:36:24.987012 99249 net.cpp:433] inception_4e/double3x3_reduce -> inception_4e/double3x3_reduce
I0907 19:36:24.991785 99249 net.cpp:155] Setting up inception_4e/double3x3_reduce
I0907 19:36:24.991796 99249 net.cpp:163] Top shape: 32 192 14 14 (1204224)
I0907 19:36:24.991811 99249 layer_factory.hpp:76] Creating layer BN_00000058
I0907 19:36:24.991818 99249 net.cpp:110] Creating Layer BN_00000058
I0907 19:36:24.991837 99249 net.cpp:477] BN_00000058 <- inception_4e/double3x3_reduce
I0907 19:36:24.991844 99249 net.cpp:433] BN_00000058 -> inception_4e/double3x3_reduce/bn
I0907 19:36:24.991890 99249 net.cpp:155] Setting up BN_00000058
I0907 19:36:24.991899 99249 net.cpp:163] Top shape: 32 192 14 14 (1204224)
I0907 19:36:24.991906 99249 layer_factory.hpp:76] Creating layer inception_4e/relu_double3x3_reduce
I0907 19:36:24.991914 99249 net.cpp:110] Creating Layer inception_4e/relu_double3x3_reduce
I0907 19:36:24.991919 99249 net.cpp:477] inception_4e/relu_double3x3_reduce <- inception_4e/double3x3_reduce/bn
I0907 19:36:24.991925 99249 net.cpp:419] inception_4e/relu_double3x3_reduce -> inception_4e/double3x3_reduce/bn (in-place)
I0907 19:36:24.991931 99249 net.cpp:155] Setting up inception_4e/relu_double3x3_reduce
I0907 19:36:24.991937 99249 net.cpp:163] Top shape: 32 192 14 14 (1204224)
I0907 19:36:24.991941 99249 layer_factory.hpp:76] Creating layer inception_4e/double3x3_mid
I0907 19:36:24.991950 99249 net.cpp:110] Creating Layer inception_4e/double3x3_mid
I0907 19:36:24.991953 99249 net.cpp:477] inception_4e/double3x3_mid <- inception_4e/double3x3_reduce/bn
I0907 19:36:24.991964 99249 net.cpp:433] inception_4e/double3x3_mid -> inception_4e/double3x3_mid
I0907 19:36:25.010707 99249 net.cpp:155] Setting up inception_4e/double3x3_mid
I0907 19:36:25.010725 99249 net.cpp:163] Top shape: 32 256 14 14 (1605632)
I0907 19:36:25.010740 99249 layer_factory.hpp:76] Creating layer BN_00000059
I0907 19:36:25.010746 99249 net.cpp:110] Creating Layer BN_00000059
I0907 19:36:25.010751 99249 net.cpp:477] BN_00000059 <- inception_4e/double3x3_mid
I0907 19:36:25.010761 99249 net.cpp:433] BN_00000059 -> inception_4e/double3x3_mid/bn
I0907 19:36:25.010807 99249 net.cpp:155] Setting up BN_00000059
I0907 19:36:25.010814 99249 net.cpp:163] Top shape: 32 256 14 14 (1605632)
I0907 19:36:25.010823 99249 layer_factory.hpp:76] Creating layer inception_4e/relu_double3x3_mid
I0907 19:36:25.010833 99249 net.cpp:110] Creating Layer inception_4e/relu_double3x3_mid
I0907 19:36:25.010838 99249 net.cpp:477] inception_4e/relu_double3x3_mid <- inception_4e/double3x3_mid/bn
I0907 19:36:25.010844 99249 net.cpp:419] inception_4e/relu_double3x3_mid -> inception_4e/double3x3_mid/bn (in-place)
I0907 19:36:25.010851 99249 net.cpp:155] Setting up inception_4e/relu_double3x3_mid
I0907 19:36:25.010857 99249 net.cpp:163] Top shape: 32 256 14 14 (1605632)
I0907 19:36:25.010861 99249 layer_factory.hpp:76] Creating layer inception_4e/double3x3
I0907 19:36:25.010869 99249 net.cpp:110] Creating Layer inception_4e/double3x3
I0907 19:36:25.010874 99249 net.cpp:477] inception_4e/double3x3 <- inception_4e/double3x3_mid/bn
I0907 19:36:25.010880 99249 net.cpp:433] inception_4e/double3x3 -> inception_4e/double3x3_s2
I0907 19:36:25.035817 99249 net.cpp:155] Setting up inception_4e/double3x3
I0907 19:36:25.035833 99249 net.cpp:163] Top shape: 32 256 7 7 (401408)
I0907 19:36:25.035842 99249 layer_factory.hpp:76] Creating layer BN_00000060
I0907 19:36:25.035850 99249 net.cpp:110] Creating Layer BN_00000060
I0907 19:36:25.035854 99249 net.cpp:477] BN_00000060 <- inception_4e/double3x3_s2
I0907 19:36:25.035862 99249 net.cpp:433] BN_00000060 -> inception_4e/double3x3_s2/bn
I0907 19:36:25.035903 99249 net.cpp:155] Setting up BN_00000060
I0907 19:36:25.035910 99249 net.cpp:163] Top shape: 32 256 7 7 (401408)
I0907 19:36:25.035919 99249 layer_factory.hpp:76] Creating layer inception_4e/relu_double3x3
I0907 19:36:25.035925 99249 net.cpp:110] Creating Layer inception_4e/relu_double3x3
I0907 19:36:25.035930 99249 net.cpp:477] inception_4e/relu_double3x3 <- inception_4e/double3x3_s2/bn
I0907 19:36:25.035936 99249 net.cpp:419] inception_4e/relu_double3x3 -> inception_4e/double3x3_s2/bn (in-place)
I0907 19:36:25.035943 99249 net.cpp:155] Setting up inception_4e/relu_double3x3
I0907 19:36:25.035948 99249 net.cpp:163] Top shape: 32 256 7 7 (401408)
I0907 19:36:25.035953 99249 layer_factory.hpp:76] Creating layer inception_4e/pool
I0907 19:36:25.035962 99249 net.cpp:110] Creating Layer inception_4e/pool
I0907 19:36:25.035979 99249 net.cpp:477] inception_4e/pool <- inception_4d/output_inception_4d/output_0_split_3
I0907 19:36:25.035987 99249 net.cpp:433] inception_4e/pool -> inception_4e/pool
I0907 19:36:25.035997 99249 net.cpp:155] Setting up inception_4e/pool
I0907 19:36:25.036005 99249 net.cpp:163] Top shape: 32 608 7 7 (953344)
I0907 19:36:25.036008 99249 layer_factory.hpp:76] Creating layer BN_00000061
I0907 19:36:25.036015 99249 net.cpp:110] Creating Layer BN_00000061
I0907 19:36:25.036018 99249 net.cpp:477] BN_00000061 <- inception_4e/pool
I0907 19:36:25.036025 99249 net.cpp:433] BN_00000061 -> inception_4e/pool/bn
I0907 19:36:25.036079 99249 net.cpp:155] Setting up BN_00000061
I0907 19:36:25.036095 99249 net.cpp:163] Top shape: 32 608 7 7 (953344)
I0907 19:36:25.036104 99249 layer_factory.hpp:76] Creating layer inception_4e/relu_pool
I0907 19:36:25.036111 99249 net.cpp:110] Creating Layer inception_4e/relu_pool
I0907 19:36:25.036115 99249 net.cpp:477] inception_4e/relu_pool <- inception_4e/pool/bn
I0907 19:36:25.036124 99249 net.cpp:419] inception_4e/relu_pool -> inception_4e/pool/bn (in-place)
I0907 19:36:25.036131 99249 net.cpp:155] Setting up inception_4e/relu_pool
I0907 19:36:25.036136 99249 net.cpp:163] Top shape: 32 608 7 7 (953344)
I0907 19:36:25.036141 99249 layer_factory.hpp:76] Creating layer inception_4e/output
I0907 19:36:25.036149 99249 net.cpp:110] Creating Layer inception_4e/output
I0907 19:36:25.036152 99249 net.cpp:477] inception_4e/output <- inception_4e/3x3_s2/bn
I0907 19:36:25.036159 99249 net.cpp:477] inception_4e/output <- inception_4e/double3x3_s2/bn
I0907 19:36:25.036164 99249 net.cpp:477] inception_4e/output <- inception_4e/pool/bn
I0907 19:36:25.036170 99249 net.cpp:433] inception_4e/output -> inception_4e/output
I0907 19:36:25.036180 99249 net.cpp:155] Setting up inception_4e/output
I0907 19:36:25.036185 99249 net.cpp:163] Top shape: 32 1056 7 7 (1655808)
I0907 19:36:25.036190 99249 layer_factory.hpp:76] Creating layer inception_4e/output_inception_4e/output_0_split
I0907 19:36:25.036196 99249 net.cpp:110] Creating Layer inception_4e/output_inception_4e/output_0_split
I0907 19:36:25.036201 99249 net.cpp:477] inception_4e/output_inception_4e/output_0_split <- inception_4e/output
I0907 19:36:25.036208 99249 net.cpp:433] inception_4e/output_inception_4e/output_0_split -> inception_4e/output_inception_4e/output_0_split_0
I0907 19:36:25.036216 99249 net.cpp:433] inception_4e/output_inception_4e/output_0_split -> inception_4e/output_inception_4e/output_0_split_1
I0907 19:36:25.036223 99249 net.cpp:433] inception_4e/output_inception_4e/output_0_split -> inception_4e/output_inception_4e/output_0_split_2
I0907 19:36:25.036231 99249 net.cpp:433] inception_4e/output_inception_4e/output_0_split -> inception_4e/output_inception_4e/output_0_split_3
I0907 19:36:25.036239 99249 net.cpp:155] Setting up inception_4e/output_inception_4e/output_0_split
I0907 19:36:25.036245 99249 net.cpp:163] Top shape: 32 1056 7 7 (1655808)
I0907 19:36:25.036250 99249 net.cpp:163] Top shape: 32 1056 7 7 (1655808)
I0907 19:36:25.036255 99249 net.cpp:163] Top shape: 32 1056 7 7 (1655808)
I0907 19:36:25.036259 99249 net.cpp:163] Top shape: 32 1056 7 7 (1655808)
I0907 19:36:25.036264 99249 layer_factory.hpp:76] Creating layer inception_5a/1x1
I0907 19:36:25.036274 99249 net.cpp:110] Creating Layer inception_5a/1x1
I0907 19:36:25.036279 99249 net.cpp:477] inception_5a/1x1 <- inception_4e/output_inception_4e/output_0_split_0
I0907 19:36:25.036286 99249 net.cpp:433] inception_5a/1x1 -> inception_5a/1x1
I0907 19:36:25.052103 99249 net.cpp:155] Setting up inception_5a/1x1
I0907 19:36:25.052119 99249 net.cpp:163] Top shape: 32 352 7 7 (551936)
I0907 19:36:25.052129 99249 layer_factory.hpp:76] Creating layer BN_00000062
I0907 19:36:25.052136 99249 net.cpp:110] Creating Layer BN_00000062
I0907 19:36:25.052141 99249 net.cpp:477] BN_00000062 <- inception_5a/1x1
I0907 19:36:25.052150 99249 net.cpp:433] BN_00000062 -> inception_5a/1x1/bn
I0907 19:36:25.052201 99249 net.cpp:155] Setting up BN_00000062
I0907 19:36:25.052220 99249 net.cpp:163] Top shape: 32 352 7 7 (551936)
I0907 19:36:25.052230 99249 layer_factory.hpp:76] Creating layer inception_5a/relu_1x1
I0907 19:36:25.052237 99249 net.cpp:110] Creating Layer inception_5a/relu_1x1
I0907 19:36:25.052242 99249 net.cpp:477] inception_5a/relu_1x1 <- inception_5a/1x1/bn
I0907 19:36:25.052248 99249 net.cpp:419] inception_5a/relu_1x1 -> inception_5a/1x1/bn (in-place)
I0907 19:36:25.052256 99249 net.cpp:155] Setting up inception_5a/relu_1x1
I0907 19:36:25.052261 99249 net.cpp:163] Top shape: 32 352 7 7 (551936)
I0907 19:36:25.052266 99249 layer_factory.hpp:76] Creating layer inception_5a/3x3_reduce
I0907 19:36:25.052276 99249 net.cpp:110] Creating Layer inception_5a/3x3_reduce
I0907 19:36:25.052281 99249 net.cpp:477] inception_5a/3x3_reduce <- inception_4e/output_inception_4e/output_0_split_1
I0907 19:36:25.052289 99249 net.cpp:433] inception_5a/3x3_reduce -> inception_5a/3x3_reduce
I0907 19:36:25.061100 99249 net.cpp:155] Setting up inception_5a/3x3_reduce
I0907 19:36:25.061115 99249 net.cpp:163] Top shape: 32 192 7 7 (301056)
I0907 19:36:25.061130 99249 layer_factory.hpp:76] Creating layer BN_00000063
I0907 19:36:25.061136 99249 net.cpp:110] Creating Layer BN_00000063
I0907 19:36:25.061141 99249 net.cpp:477] BN_00000063 <- inception_5a/3x3_reduce
I0907 19:36:25.061148 99249 net.cpp:433] BN_00000063 -> inception_5a/3x3_reduce/bn
I0907 19:36:25.061194 99249 net.cpp:155] Setting up BN_00000063
I0907 19:36:25.061203 99249 net.cpp:163] Top shape: 32 192 7 7 (301056)
I0907 19:36:25.061210 99249 layer_factory.hpp:76] Creating layer inception_5a/relu_3x3_reduce
I0907 19:36:25.061218 99249 net.cpp:110] Creating Layer inception_5a/relu_3x3_reduce
I0907 19:36:25.061223 99249 net.cpp:477] inception_5a/relu_3x3_reduce <- inception_5a/3x3_reduce/bn
I0907 19:36:25.061229 99249 net.cpp:419] inception_5a/relu_3x3_reduce -> inception_5a/3x3_reduce/bn (in-place)
I0907 19:36:25.061236 99249 net.cpp:155] Setting up inception_5a/relu_3x3_reduce
I0907 19:36:25.061242 99249 net.cpp:163] Top shape: 32 192 7 7 (301056)
I0907 19:36:25.061246 99249 layer_factory.hpp:76] Creating layer inception_5a/3x3
I0907 19:36:25.061256 99249 net.cpp:110] Creating Layer inception_5a/3x3
I0907 19:36:25.061261 99249 net.cpp:477] inception_5a/3x3 <- inception_5a/3x3_reduce/bn
I0907 19:36:25.061269 99249 net.cpp:433] inception_5a/3x3 -> inception_5a/3x3
I0907 19:36:25.084666 99249 net.cpp:155] Setting up inception_5a/3x3
I0907 19:36:25.084682 99249 net.cpp:163] Top shape: 32 320 7 7 (501760)
I0907 19:36:25.084695 99249 layer_factory.hpp:76] Creating layer BN_00000064
I0907 19:36:25.084703 99249 net.cpp:110] Creating Layer BN_00000064
I0907 19:36:25.084708 99249 net.cpp:477] BN_00000064 <- inception_5a/3x3
I0907 19:36:25.084717 99249 net.cpp:433] BN_00000064 -> inception_5a/3x3/bn
I0907 19:36:25.084770 99249 net.cpp:155] Setting up BN_00000064
I0907 19:36:25.084779 99249 net.cpp:163] Top shape: 32 320 7 7 (501760)
I0907 19:36:25.084787 99249 layer_factory.hpp:76] Creating layer inception_5a/relu_3x3
I0907 19:36:25.084794 99249 net.cpp:110] Creating Layer inception_5a/relu_3x3
I0907 19:36:25.084799 99249 net.cpp:477] inception_5a/relu_3x3 <- inception_5a/3x3/bn
I0907 19:36:25.084805 99249 net.cpp:419] inception_5a/relu_3x3 -> inception_5a/3x3/bn (in-place)
I0907 19:36:25.084812 99249 net.cpp:155] Setting up inception_5a/relu_3x3
I0907 19:36:25.084818 99249 net.cpp:163] Top shape: 32 320 7 7 (501760)
I0907 19:36:25.084822 99249 layer_factory.hpp:76] Creating layer inception_5a/double3x3_reduce
I0907 19:36:25.084830 99249 net.cpp:110] Creating Layer inception_5a/double3x3_reduce
I0907 19:36:25.084836 99249 net.cpp:477] inception_5a/double3x3_reduce <- inception_4e/output_inception_4e/output_0_split_2
I0907 19:36:25.084844 99249 net.cpp:433] inception_5a/double3x3_reduce -> inception_5a/double3x3_reduce
…
I0907 19:36:25.981299 99249 net.cpp:155] Setting up inception_4d/relu_double3x3_reduce
I0907 19:36:25.981305 99249 net.cpp:163] Top shape: 50 160 14 14 (1568000)
I0907 19:36:25.981309 99249 layer_factory.hpp:76] Creating layer inception_4d/double3x3_mid
I0907 19:36:25.981320 99249 net.cpp:110] Creating Layer inception_4d/double3x3_mid
I0907 19:36:25.981324 99249 net.cpp:477] inception_4d/double3x3_mid <- inception_4d/double3x3_reduce/bn
I0907 19:36:25.981348 99249 net.cpp:433] inception_4d/double3x3_mid -> inception_4d/double3x3_mid
I0907 19:36:25.995216 99249 net.cpp:155] Setting up inception_4d/double3x3_mid
I0907 19:36:25.995278 99249 net.cpp:163] Top shape: 50 192 14 14 (1881600)
I0907 19:36:25.995306 99249 layer_factory.hpp:76] Creating layer BN_00000051
I0907 19:36:25.995321 99249 net.cpp:110] Creating Layer BN_00000051
I0907 19:36:25.995347 99249 net.cpp:477] BN_00000051 <- inception_4d/double3x3_mid
I0907 19:36:25.995357 99249 net.cpp:433] BN_00000051 -> inception_4d/double3x3_mid/bn
I0907 19:36:25.995463 99249 net.cpp:155] Setting up BN_00000051
I0907 19:36:25.995476 99249 net.cpp:163] Top shape: 50 192 14 14 (1881600)
I0907 19:36:25.995486 99249 layer_factory.hpp:76] Creating layer inception_4d/relu_double3x3_mid
I0907 19:36:25.995512 99249 net.cpp:110] Creating Layer inception_4d/relu_double3x3_mid
I0907 19:36:25.995525 99249 net.cpp:477] inception_4d/relu_double3x3_mid <- inception_4d/double3x3_mid/bn
I0907 19:36:25.995532 99249 net.cpp:419] inception_4d/relu_double3x3_mid -> inception_4d/double3x3_mid/bn (in-place)
I0907 19:36:25.995539 99249 net.cpp:155] Setting up inception_4d/relu_double3x3_mid
I0907 19:36:25.995545 99249 net.cpp:163] Top shape: 50 192 14 14 (1881600)
I0907 19:36:25.995550 99249 layer_factory.hpp:76] Creating layer inception_4d/double3x3
I0907 19:36:25.995563 99249 net.cpp:110] Creating Layer inception_4d/double3x3
I0907 19:36:25.995566 99249 net.cpp:477] inception_4d/double3x3 <- inception_4d/double3x3_mid/bn
I0907 19:36:25.995575 99249 net.cpp:433] inception_4d/double3x3 -> inception_4d/double3x3
I0907 19:36:26.009850 99249 net.cpp:155] Setting up inception_4d/double3x3
I0907 19:36:26.009866 99249 net.cpp:163] Top shape: 50 192 14 14 (1881600)
I0907 19:36:26.009878 99249 layer_factory.hpp:76] Creating layer BN_00000052
I0907 19:36:26.009886 99249 net.cpp:110] Creating Layer BN_00000052
I0907 19:36:26.009892 99249 net.cpp:477] BN_00000052 <- inception_4d/double3x3
I0907 19:36:26.009901 99249 net.cpp:433] BN_00000052 -> inception_4d/double3x3/bn
I0907 19:36:26.009954 99249 net.cpp:155] Setting up BN_00000052
I0907 19:36:26.009963 99249 net.cpp:163] Top shape: 50 192 14 14 (1881600)
I0907 19:36:26.009973 99249 layer_factory.hpp:76] Creating layer inception_4d/relu_double3x3
I0907 19:36:26.009980 99249 net.cpp:110] Creating Layer inception_4d/relu_double3x3
I0907 19:36:26.009985 99249 net.cpp:477] inception_4d/relu_double3x3 <- inception_4d/double3x3/bn
I0907 19:36:26.009991 99249 net.cpp:419] inception_4d/relu_double3x3 -> inception_4d/double3x3/bn (in-place)
I0907 19:36:26.009999 99249 net.cpp:155] Setting up inception_4d/relu_double3x3
I0907 19:36:26.010004 99249 net.cpp:163] Top shape: 50 192 14 14 (1881600)
I0907 19:36:26.010010 99249 layer_factory.hpp:76] Creating layer inception_4d/pool
I0907 19:36:26.010026 99249 net.cpp:110] Creating Layer inception_4d/pool
I0907 19:36:26.010033 99249 net.cpp:477] inception_4d/pool <- inception_4c/output_inception_4c/output_0_split_3
I0907 19:36:26.010045 99249 net.cpp:433] inception_4d/pool -> inception_4d/pool
I0907 19:36:26.010054 99249 net.cpp:155] Setting up inception_4d/pool
I0907 19:36:26.010061 99249 net.cpp:163] Top shape: 50 608 14 14 (5958400)
I0907 19:36:26.010064 99249 layer_factory.hpp:76] Creating layer inception_4d/pool_proj
I0907 19:36:26.010076 99249 net.cpp:110] Creating Layer inception_4d/pool_proj
I0907 19:36:26.010082 99249 net.cpp:477] inception_4d/pool_proj <- inception_4d/pool
I0907 19:36:26.010088 99249 net.cpp:433] inception_4d/pool_proj -> inception_4d/pool_proj
I0907 19:36:26.013298 99249 net.cpp:155] Setting up inception_4d/pool_proj
I0907 19:36:26.013309 99249 net.cpp:163] Top shape: 50 128 14 14 (1254400)
I0907 19:36:26.013319 99249 layer_factory.hpp:76] Creating layer BN_00000053
I0907 19:36:26.013329 99249 net.cpp:110] Creating Layer BN_00000053
I0907 19:36:26.013334 99249 net.cpp:477] BN_00000053 <- inception_4d/pool_proj
I0907 19:36:26.013342 99249 net.cpp:433] BN_00000053 -> inception_4d/pool_proj/bn
I0907 19:36:26.013388 99249 net.cpp:155] Setting up BN_00000053
I0907 19:36:26.013411 99249 net.cpp:163] Top shape: 50 128 14 14 (1254400)
I0907 19:36:26.013420 99249 layer_factory.hpp:76] Creating layer inception_4d/relu_pool_proj
I0907 19:36:26.013428 99249 net.cpp:110] Creating Layer inception_4d/relu_pool_proj
I0907 19:36:26.013433 99249 net.cpp:477] inception_4d/relu_pool_proj <- inception_4d/pool_proj/bn
I0907 19:36:26.013440 99249 net.cpp:419] inception_4d/relu_pool_proj -> inception_4d/pool_proj/bn (in-place)
I0907 19:36:26.013447 99249 net.cpp:155] Setting up inception_4d/relu_pool_proj
I0907 19:36:26.013453 99249 net.cpp:163] Top shape: 50 128 14 14 (1254400)
I0907 19:36:26.013458 99249 layer_factory.hpp:76] Creating layer inception_4d/output
I0907 19:36:26.013468 99249 net.cpp:110] Creating Layer inception_4d/output
I0907 19:36:26.013479 99249 net.cpp:477] inception_4d/output <- inception_4d/1x1/bn
I0907 19:36:26.013489 99249 net.cpp:477] inception_4d/output <- inception_4d/3x3/bn
I0907 19:36:26.013494 99249 net.cpp:477] inception_4d/output <- inception_4d/double3x3/bn
I0907 19:36:26.013499 99249 net.cpp:477] inception_4d/output <- inception_4d/pool_proj/bn
I0907 19:36:26.013505 99249 net.cpp:433] inception_4d/output -> inception_4d/output
I0907 19:36:26.013514 99249 net.cpp:155] Setting up inception_4d/output
I0907 19:36:26.013520 99249 net.cpp:163] Top shape: 50 608 14 14 (5958400)
I0907 19:36:26.013525 99249 layer_factory.hpp:76] Creating layer inception_4d/output_inception_4d/output_0_split
I0907 19:36:26.013531 99249 net.cpp:110] Creating Layer inception_4d/output_inception_4d/output_0_split
I0907 19:36:26.013536 99249 net.cpp:477] inception_4d/output_inception_4d/output_0_split <- inception_4d/output
I0907 19:36:26.013547 99249 net.cpp:433] inception_4d/output_inception_4d/output_0_split -> inception_4d/output_inception_4d/output_0_split_0
I0907 19:36:26.013556 99249 net.cpp:433] inception_4d/output_inception_4d/output_0_split -> inception_4d/output_inception_4d/output_0_split_1
I0907 19:36:26.013563 99249 net.cpp:433] inception_4d/output_inception_4d/output_0_split -> inception_4d/output_inception_4d/output_0_split_2
I0907 19:36:26.013571 99249 net.cpp:433] inception_4d/output_inception_4d/output_0_split -> inception_4d/output_inception_4d/output_0_split_3
I0907 19:36:26.013586 99249 net.cpp:155] Setting up inception_4d/output_inception_4d/output_0_split
I0907 19:36:26.013592 99249 net.cpp:163] Top shape: 50 608 14 14 (5958400)
I0907 19:36:26.013597 99249 net.cpp:163] Top shape: 50 608 14 14 (5958400)
I0907 19:36:26.013603 99249 net.cpp:163] Top shape: 50 608 14 14 (5958400)
I0907 19:36:26.013608 99249 net.cpp:163] Top shape: 50 608 14 14 (5958400)
I0907 19:36:26.013612 99249 layer_factory.hpp:76] Creating layer loss2/ave_pool
I0907 19:36:26.013622 99249 net.cpp:110] Creating Layer loss2/ave_pool
I0907 19:36:26.013625 99249 net.cpp:477] loss2/ave_pool <- inception_4d/output_inception_4d/output_0_split_0
I0907 19:36:26.013643 99249 net.cpp:433] loss2/ave_pool -> loss2/ave_pool
I0907 19:36:26.013658 99249 net.cpp:155] Setting up loss2/ave_pool
I0907 19:36:26.013664 99249 net.cpp:163] Top shape: 50 608 4 4 (486400)
I0907 19:36:26.013667 99249 layer_factory.hpp:76] Creating layer loss2/conv
I0907 19:36:26.013679 99249 net.cpp:110] Creating Layer loss2/conv
I0907 19:36:26.013684 99249 net.cpp:477] loss2/conv <- loss2/ave_pool
I0907 19:36:26.013691 99249 net.cpp:433] loss2/conv -> loss2/conv
I0907 19:36:26.016978 99249 net.cpp:155] Setting up loss2/conv
I0907 19:36:26.016991 99249 net.cpp:163] Top shape: 50 128 4 4 (102400)
I0907 19:36:26.017004 99249 layer_factory.hpp:76] Creating layer BN_00000054
I0907 19:36:26.017010 99249 net.cpp:110] Creating Layer BN_00000054
I0907 19:36:26.017015 99249 net.cpp:477] BN_00000054 <- loss2/conv
I0907 19:36:26.017024 99249 net.cpp:433] BN_00000054 -> loss2/conv/bn
I0907 19:36:26.017104 99249 net.cpp:155] Setting up BN_00000054
I0907 19:36:26.017122 99249 net.cpp:163] Top shape: 50 128 4 4 (102400)
I0907 19:36:26.017130 99249 layer_factory.hpp:76] Creating layer loss2/relu_conv
I0907 19:36:26.017143 99249 net.cpp:110] Creating Layer loss2/relu_conv
I0907 19:36:26.017161 99249 net.cpp:477] loss2/relu_conv <- loss2/conv/bn
I0907 19:36:26.017171 99249 net.cpp:419] loss2/relu_conv -> loss2/conv/bn (in-place)
I0907 19:36:26.017179 99249 net.cpp:155] Setting up loss2/relu_conv
I0907 19:36:26.017186 99249 net.cpp:163] Top shape: 50 128 4 4 (102400)
I0907 19:36:26.017191 99249 layer_factory.hpp:76] Creating layer loss2/fc
I0907 19:36:26.017200 99249 net.cpp:110] Creating Layer loss2/fc
I0907 19:36:26.017205 99249 net.cpp:477] loss2/fc <- loss2/conv/bn
I0907 19:36:26.017212 99249 net.cpp:433] loss2/fc -> loss2/fc
I0907 19:36:26.127779 99249 net.cpp:155] Setting up loss2/fc
I0907 19:36:26.127802 99249 net.cpp:163] Top shape: 50 1024 (51200)
I0907 19:36:26.127815 99249 layer_factory.hpp:76] Creating layer BN_00000055
I0907 19:36:26.127830 99249 net.cpp:110] Creating Layer BN_00000055
I0907 19:36:26.127836 99249 net.cpp:477] BN_00000055 <- loss2/fc
I0907 19:36:26.127845 99249 net.cpp:433] BN_00000055 -> loss2/fc/bn
I0907 19:36:26.127897 99249 net.cpp:155] Setting up BN_00000055
I0907 19:36:26.127907 99249 net.cpp:163] Top shape: 50 1024 (51200)
I0907 19:36:26.127915 99249 layer_factory.hpp:76] Creating layer loss2/relu_fc
I0907 19:36:26.127923 99249 net.cpp:110] Creating Layer loss2/relu_fc
I0907 19:36:26.127928 99249 net.cpp:477] loss2/relu_fc <- loss2/fc/bn
I0907 19:36:26.127934 99249 net.cpp:419] loss2/relu_fc -> loss2/fc/bn (in-place)
I0907 19:36:26.127941 99249 net.cpp:155] Setting up loss2/relu_fc
I0907 19:36:26.127948 99249 net.cpp:163] Top shape: 50 1024 (51200)
I0907 19:36:26.127954 99249 layer_factory.hpp:76] Creating layer loss2/classifier
I0907 19:36:26.127962 99249 net.cpp:110] Creating Layer loss2/classifier
I0907 19:36:26.127966 99249 net.cpp:477] loss2/classifier <- loss2/fc/bn
I0907 19:36:26.127975 99249 net.cpp:433] loss2/classifier -> loss2/classifier
I0907 19:36:26.182013 99249 net.cpp:155] Setting up loss2/classifier
I0907 19:36:26.182029 99249 net.cpp:163] Top shape: 50 1000 (50000)
I0907 19:36:26.182039 99249 layer_factory.hpp:76] Creating layer loss2/classifier_loss2/classifier_0_split
I0907 19:36:26.182049 99249 net.cpp:110] Creating Layer loss2/classifier_loss2/classifier_0_split
I0907 19:36:26.182054 99249 net.cpp:477] loss2/classifier_loss2/classifier_0_split <- loss2/classifier
I0907 19:36:26.182062 99249 net.cpp:433] loss2/classifier_loss2/classifier_0_split -> loss2/classifier_loss2/classifier_0_split_0
I0907 19:36:26.182072 99249 net.cpp:433] loss2/classifier_loss2/classifier_0_split -> loss2/classifier_loss2/classifier_0_split_1
I0907 19:36:26.182080 99249 net.cpp:433] loss2/classifier_loss2/classifier_0_split -> loss2/classifier_loss2/classifier_0_split_2
I0907 19:36:26.182090 99249 net.cpp:155] Setting up loss2/classifier_loss2/classifier_0_split
I0907 19:36:26.182096 99249 net.cpp:163] Top shape: 50 1000 (50000)
I0907 19:36:26.182101 99249 net.cpp:163] Top shape: 50 1000 (50000)
I0907 19:36:26.182106 99249 net.cpp:163] Top shape: 50 1000 (50000)
I0907 19:36:26.182111 99249 layer_factory.hpp:76] Creating layer loss2/loss
I0907 19:36:26.182122 99249 net.cpp:110] Creating Layer loss2/loss
I0907 19:36:26.182127 99249 net.cpp:477] loss2/loss <- loss2/classifier_loss2/classifier_0_split_0
I0907 19:36:26.182133 99249 net.cpp:477] loss2/loss <- label_data_1_split_3
I0907 19:36:26.182140 99249 net.cpp:433] loss2/loss -> loss2/loss1
I0907 19:36:26.182152 99249 layer_factory.hpp:76] Creating layer loss2/loss
…
I0907 19:36:26.182482 99249 net.cpp:155] Setting up loss2/top-5
I0907 19:36:26.182487 99249 net.cpp:163] Top shape: (1)
I0907 19:36:26.182492 99249 layer_factory.hpp:76] Creating layer inception_4e/3x3_reduce
I0907 19:36:26.182503 99249 net.cpp:110] Creating Layer inception_4e/3x3_reduce
I0907 19:36:26.182509 99249 net.cpp:477] inception_4e/3x3_reduce <- inception_4d/output_inception_4d/output_0_split_1
I0907 19:36:26.182518 99249 net.cpp:433] inception_4e/3x3_reduce -> inception_4e/3x3_reduce
I0907 19:36:26.185740 99249 net.cpp:155] Setting up inception_4e/3x3_reduce
I0907 19:36:26.185753 99249 net.cpp:163] Top shape: 50 128 14 14 (1254400)
I0907 19:36:26.185761 99249 layer_factory.hpp:76] Creating layer BN_00000056
I0907 19:36:26.185768 99249 net.cpp:110] Creating Layer BN_00000056
I0907 19:36:26.185773 99249 net.cpp:477] BN_00000056 <- inception_4e/3x3_reduce
I0907 19:36:26.185781 99249 net.cpp:433] BN_00000056 -> inception_4e/3x3_reduce/bn
I0907 19:36:26.185832 99249 net.cpp:155] Setting up BN_00000056
I0907 19:36:26.185839 99249 net.cpp:163] Top shape: 50 128 14 14 (1254400)
I0907 19:36:26.185848 99249 layer_factory.hpp:76] Creating layer inception_4e/relu_3x3_reduce
I0907 19:36:26.185856 99249 net.cpp:110] Creating Layer inception_4e/relu_3x3_reduce
I0907 19:36:26.185861 99249 net.cpp:477] inception_4e/relu_3x3_reduce <- inception_4e/3x3_reduce/bn
I0907 19:36:26.185868 99249 net.cpp:419] inception_4e/relu_3x3_reduce -> inception_4e/3x3_reduce/bn (in-place)
I0907 19:36:26.185875 99249 net.cpp:155] Setting up inception_4e/relu_3x3_reduce
I0907 19:36:26.185880 99249 net.cpp:163] Top shape: 50 128 14 14 (1254400)
I0907 19:36:26.185885 99249 layer_factory.hpp:76] Creating layer inception_4e/3x3_s2
I0907 19:36:26.185905 99249 net.cpp:110] Creating Layer inception_4e/3x3_s2
I0907 19:36:26.185910 99249 net.cpp:477] inception_4e/3x3_s2 <- inception_4e/3x3_reduce/bn
I0907 19:36:26.185917 99249 net.cpp:433] inception_4e/3x3_s2 -> inception_4e/3x3_s2
I0907 19:36:26.195447 99249 net.cpp:155] Setting up inception_4e/3x3_s2
I0907 19:36:26.195463 99249 net.cpp:163] Top shape: 50 192 7 7 (470400)
I0907 19:36:26.195473 99249 layer_factory.hpp:76] Creating layer BN_00000057
I0907 19:36:26.195483 99249 net.cpp:110] Creating Layer BN_00000057
I0907 19:36:26.195488 99249 net.cpp:477] BN_00000057 <- inception_4e/3x3_s2
I0907 19:36:26.195495 99249 net.cpp:433] BN_00000057 -> inception_4e/3x3_s2/bn
I0907 19:36:26.195556 99249 net.cpp:155] Setting up BN_00000057
I0907 19:36:26.195564 99249 net.cpp:163] Top shape: 50 192 7 7 (470400)
I0907 19:36:26.195574 99249 layer_factory.hpp:76] Creating layer inception_4e/relu_3x3
I0907 19:36:26.195580 99249 net.cpp:110] Creating Layer inception_4e/relu_3x3
I0907 19:36:26.195586 99249 net.cpp:477] inception_4e/relu_3x3 <- inception_4e/3x3_s2/bn
I0907 19:36:26.195592 99249 net.cpp:419] inception_4e/relu_3x3 -> inception_4e/3x3_s2/bn (in-place)
I0907 19:36:26.195600 99249 net.cpp:155] Setting up inception_4e/relu_3x3
I0907 19:36:26.195605 99249 net.cpp:163] Top shape: 50 192 7 7 (470400)
I0907 19:36:26.195610 99249 layer_factory.hpp:76] Creating layer inception_4e/double3x3_reduce
I0907 19:36:26.195617 99249 net.cpp:110] Creating Layer inception_4e/double3x3_reduce
I0907 19:36:26.195622 99249 net.cpp:477] inception_4e/double3x3_reduce <- inception_4d/output_inception_4d/output_0_split_2
I0907 19:36:26.195631 99249 net.cpp:433] inception_4e/double3x3_reduce -> inception_4e/double3x3_reduce
I0907 19:36:26.201020 99249 net.cpp:155] Setting up inception_4e/double3x3_reduce
I0907 19:36:26.201035 99249 net.cpp:163] Top shape: 50 192 14 14 (1881600)
I0907 19:36:26.201057 99249 layer_factory.hpp:76] Creating layer BN_00000058
I0907 19:36:26.201068 99249 net.cpp:110] Creating Layer BN_00000058
I0907 19:36:26.201073 99249 net.cpp:477] BN_00000058 <- inception_4e/double3x3_reduce
I0907 19:36:26.201081 99249 net.cpp:433] BN_00000058 -> inception_4e/double3x3_reduce/bn
I0907 19:36:26.201136 99249 net.cpp:155] Setting up BN_00000058
I0907 19:36:26.201144 99249 net.cpp:163] Top shape: 50 192 14 14 (1881600)
I0907 19:36:26.201155 99249 layer_factory.hpp:76] Creating layer inception_4e/relu_double3x3_reduce
I0907 19:36:26.201163 99249 net.cpp:110] Creating Layer inception_4e/relu_double3x3_reduce
I0907 19:36:26.201167 99249 net.cpp:477] inception_4e/relu_double3x3_reduce <- inception_4e/double3x3_reduce/bn
I0907 19:36:26.201174 99249 net.cpp:419] inception_4e/relu_double3x3_reduce -> inception_4e/double3x3_reduce/bn (in-place)
I0907 19:36:26.201180 99249 net.cpp:155] Setting up inception_4e/relu_double3x3_reduce
I0907 19:36:26.201186 99249 net.cpp:163] Top shape: 50 192 14 14 (1881600)
I0907 19:36:26.201191 99249 layer_factory.hpp:76] Creating layer inception_4e/double3x3_mid
I0907 19:36:26.201200 99249 net.cpp:110] Creating Layer inception_4e/double3x3_mid
I0907 19:36:26.201203 99249 net.cpp:477] inception_4e/double3x3_mid <- inception_4e/double3x3_reduce/bn
I0907 19:36:26.201212 99249 net.cpp:433] inception_4e/double3x3_mid -> inception_4e/double3x3_mid
I0907 19:36:26.219995 99249 net.cpp:155] Setting up inception_4e/double3x3_mid
I0907 19:36:26.220012 99249 net.cpp:163] Top shape: 50 256 14 14 (2508800)
I0907 19:36:26.220021 99249 layer_factory.hpp:76] Creating layer BN_00000059
I0907 19:36:26.220029 99249 net.cpp:110] Creating Layer BN_00000059
I0907 19:36:26.220036 99249 net.cpp:477] BN_00000059 <- inception_4e/double3x3_mid
I0907 19:36:26.220044 99249 net.cpp:433] BN_00000059 -> inception_4e/double3x3_mid/bn
I0907 19:36:26.220091 99249 net.cpp:155] Setting up BN_00000059
I0907 19:36:26.220099 99249 net.cpp:163] Top shape: 50 256 14 14 (2508800)
I0907 19:36:26.220108 99249 layer_factory.hpp:76] Creating layer inception_4e/relu_double3x3_mid
I0907 19:36:26.220118 99249 net.cpp:110] Creating Layer inception_4e/relu_double3x3_mid
I0907 19:36:26.220124 99249 net.cpp:477] inception_4e/relu_double3x3_mid <- inception_4e/double3x3_mid/bn
I0907 19:36:26.220129 99249 net.cpp:419] inception_4e/relu_double3x3_mid -> inception_4e/double3x3_mid/bn (in-place)
I0907 19:36:26.220136 99249 net.cpp:155] Setting up inception_4e/relu_double3x3_mid
I0907 19:36:26.220142 99249 net.cpp:163] Top shape: 50 256 14 14 (2508800)
I0907 19:36:26.220147 99249 layer_factory.hpp:76] Creating layer inception_4e/double3x3
I0907 19:36:26.220168 99249 net.cpp:110] Creating Layer inception_4e/double3x3
I0907 19:36:26.220172 99249 net.cpp:477] inception_4e/double3x3 <- inception_4e/double3x3_mid/bn
I0907 19:36:26.220180 99249 net.cpp:433] inception_4e/double3x3 -> inception_4e/double3x3_s2
I0907 19:36:26.245147 99249 net.cpp:155] Setting up inception_4e/double3x3
I0907 19:36:26.245164 99249 net.cpp:163] Top shape: 50 256 7 7 (627200)
I0907 19:36:26.245173 99249 layer_factory.hpp:76] Creating layer BN_00000060
I0907 19:36:26.245182 99249 net.cpp:110] Creating Layer BN_00000060
I0907 19:36:26.245187 99249 net.cpp:477] BN_00000060 <- inception_4e/double3x3_s2
I0907 19:36:26.245194 99249 net.cpp:433] BN_00000060 -> inception_4e/double3x3_s2/bn
I0907 19:36:26.245244 99249 net.cpp:155] Setting up BN_00000060
I0907 19:36:26.245251 99249 net.cpp:163] Top shape: 50 256 7 7 (627200)
I0907 19:36:26.245261 99249 layer_factory.hpp:76] Creating layer inception_4e/relu_double3x3
I0907 19:36:26.245280 99249 net.cpp:110] Creating Layer inception_4e/relu_double3x3
I0907 19:36:26.245286 99249 net.cpp:477] inception_4e/relu_double3x3 <- inception_4e/double3x3_s2/bn
I0907 19:36:26.245292 99249 net.cpp:419] inception_4e/relu_double3x3 -> inception_4e/double3x3_s2/bn (in-place)
I0907 19:36:26.245301 99249 net.cpp:155] Setting up inception_4e/relu_double3x3
I0907 19:36:26.245306 99249 net.cpp:163] Top shape: 50 256 7 7 (627200)
I0907 19:36:26.245324 99249 layer_factory.hpp:76] Creating layer inception_4e/pool
I0907 19:36:26.245338 99249 net.cpp:110] Creating Layer inception_4e/pool
I0907 19:36:26.245344 99249 net.cpp:477] inception_4e/pool <- inception_4d/output_inception_4d/output_0_split_3
I0907 19:36:26.245352 99249 net.cpp:433] inception_4e/pool -> inception_4e/pool
I0907 19:36:26.245362 99249 net.cpp:155] Setting up inception_4e/pool
I0907 19:36:26.245368 99249 net.cpp:163] Top shape: 50 608 7 7 (1489600)
I0907 19:36:26.245373 99249 layer_factory.hpp:76] Creating layer BN_00000061
I0907 19:36:26.245378 99249 net.cpp:110] Creating Layer BN_00000061
I0907 19:36:26.245384 99249 net.cpp:477] BN_00000061 <- inception_4e/pool
I0907 19:36:26.245390 99249 net.cpp:433] BN_00000061 -> inception_4e/pool/bn
I0907 19:36:26.245486 99249 net.cpp:155] Setting up BN_00000061
I0907 19:36:26.245498 99249 net.cpp:163] Top shape: 50 608 7 7 (1489600)
I0907 19:36:26.245508 99249 layer_factory.hpp:76] Creating layer inception_4e/relu_pool
I0907 19:36:26.245517 99249 net.cpp:110] Creating Layer inception_4e/relu_pool
I0907 19:36:26.245522 99249 net.cpp:477] inception_4e/relu_pool <- inception_4e/pool/bn
I0907 19:36:26.245529 99249 net.cpp:419] inception_4e/relu_pool -> inception_4e/pool/bn (in-place)
I0907 19:36:26.245537 99249 net.cpp:155] Setting up inception_4e/relu_pool
I0907 19:36:26.245543 99249 net.cpp:163] Top shape: 50 608 7 7 (1489600)
I0907 19:36:26.245546 99249 layer_factory.hpp:76] Creating layer inception_4e/output
I0907 19:36:26.245555 99249 net.cpp:110] Creating Layer inception_4e/output
I0907 19:36:26.245560 99249 net.cpp:477] inception_4e/output <- inception_4e/3x3_s2/bn
I0907 19:36:26.245565 99249 net.cpp:477] inception_4e/output <- inception_4e/double3x3_s2/bn
I0907 19:36:26.245570 99249 net.cpp:477] inception_4e/output <- inception_4e/pool/bn
I0907 19:36:26.245578 99249 net.cpp:433] inception_4e/output -> inception_4e/output
I0907 19:36:26.245586 99249 net.cpp:155] Setting up inception_4e/output
I0907 19:36:26.245592 99249 net.cpp:163] Top shape: 50 1056 7 7 (2587200)
I0907 19:36:26.245597 99249 layer_factory.hpp:76] Creating layer inception_4e/output_inception_4e/output_0_split
I0907 19:36:26.245606 99249 net.cpp:110] Creating Layer inception_4e/output_inception_4e/output_0_split
I0907 19:36:26.245610 99249 net.cpp:477] inception_4e/output_inception_4e/output_0_split <- inception_4e/output
I0907 19:36:26.245617 99249 net.cpp:433] inception_4e/output_inception_4e/output_0_split -> inception_4e/output_inception_4e/output_0_split_0
I0907 19:36:26.245625 99249 net.cpp:433] inception_4e/output_inception_4e/output_0_split -> inception_4e/output_inception_4e/output_0_split_1
I0907 19:36:26.245632 99249 net.cpp:433] inception_4e/output_inception_4e/output_0_split -> inception_4e/output_inception_4e/output_0_split_2
I0907 19:36:26.245640 99249 net.cpp:433] inception_4e/output_inception_4e/output_0_split -> inception_4e/output_inception_4e/output_0_split_3
I0907 19:36:26.245648 99249 net.cpp:155] Setting up inception_4e/output_inception_4e/output_0_split
I0907 19:36:26.245654 99249 net.cpp:163] Top shape: 50 1056 7 7 (2587200)
I0907 19:36:26.245659 99249 net.cpp:163] Top shape: 50 1056 7 7 (2587200)
I0907 19:36:26.245664 99249 net.cpp:163] Top shape: 50 1056 7 7 (2587200)
I0907 19:36:26.245669 99249 net.cpp:163] Top shape: 50 1056 7 7 (2587200)
I0907 19:36:26.245673 99249 layer_factory.hpp:76] Creating layer inception_5a/1x1
I0907 19:36:26.245697 99249 net.cpp:110] Creating Layer inception_5a/1x1
I0907 19:36:26.245702 99249 net.cpp:477] inception_5a/1x1 <- inception_4e/output_inception_4e/output_0_split_0
I0907 19:36:26.245708 99249 net.cpp:433] inception_5a/1x1 -> inception_5a/1x1
I0907 19:36:26.261550 99249 net.cpp:155] Setting up inception_5a/1x1
I0907 19:36:26.261566 99249 net.cpp:163] Top shape: 50 352 7 7 (862400)
I0907 19:36:26.261575 99249 layer_factory.hpp:76] Creating layer BN_00000062
I0907 19:36:26.261584 99249 net.cpp:110] Creating Layer BN_00000062
I0907 19:36:26.261590 99249 net.cpp:477] BN_00000062 <- inception_5a/1x1
I0907 19:36:26.261597 99249 net.cpp:433] BN_00000062 -> inception_5a/1x1/bn
I0907 19:36:26.261667 99249 net.cpp:155] Setting up BN_00000062
I0907 19:36:26.261674 99249 net.cpp:163] Top shape: 50 352 7 7 (862400)
I0907 19:36:26.261684 99249 layer_factory.hpp:76] Creating layer inception_5a/relu_1x1
I0907 19:36:26.261693 99249 net.cpp:110] Creating Layer inception_5a/relu_1x1
I0907 19:36:26.261698 99249 net.cpp:477] inception_5a/relu_1x1 <- inception_5a/1x1/bn
I0907 19:36:26.261704 99249 net.cpp:419] inception_5a/relu_1x1 -> inception_5a/1x1/bn (in-place)
I0907 19:36:26.261711 99249 net.cpp:155] Setting up inception_5a/relu_1x1
I0907 19:36:26.261718 99249 net.cpp:163] Top shape: 50 352 7 7 (862400)
I0907 19:36:26.261721 99249 layer_factory.hpp:76] Creating layer inception_5a/3x3_reduce
I0907 19:36:26.261734 99249 net.cpp:110] Creating Layer inception_5a/3x3_reduce
I0907 19:36:26.261739 99249 net.cpp:477] inception_5a/3x3_reduce <- inception_4e/output_inception_4e/output_0_split_1
I0907 19:36:26.261747 99249 net.cpp:433] inception_5a/3x3_reduce -> inception_5a/3x3_reduce
I0907 19:36:26.270584 99249 net.cpp:155] Setting up inception_5a/3x3_reduce
I0907 19:36:26.270601 99249 net.cpp:163] Top shape: 50 192 7 7 (470400)
I0907 19:36:26.270611 99249 layer_factory.hpp:76] Creating layer BN_00000063
I0907 19:36:26.270618 99249 net.cpp:110] Creating Layer BN_00000063
I0907 19:36:26.270624 99249 net.cpp:477] BN_00000063 <- inception_5a/3x3_reduce
I0907 19:36:26.270632 99249 net.cpp:433] BN_00000063 -> inception_5a/3x3_reduce/bn
I0907 19:36:26.270685 99249 net.cpp:155] Setting up BN_00000063
I0907 19:36:26.270694 99249 net.cpp:163] Top shape: 50 192 7 7 (470400)
I0907 19:36:26.270702 99249 layer_factory.hpp:76] Creating layer inception_5a/relu_3x3_reduce
I0907 19:36:26.270709 99249 net.cpp:110] Creating Layer inception_5a/relu_3x3_reduce
I0907 19:36:26.270714 99249 net.cpp:477] inception_5a/relu_3x3_reduce <- inception_5a/3x3_reduce/bn
I0907 19:36:26.270721 99249 net.cpp:419] inception_5a/relu_3x3_reduce -> inception_5a/3x3_reduce/bn (in-place)
I0907 19:36:26.270728 99249 net.cpp:155] Setting up inception_5a/relu_3x3_reduce
I0907 19:36:26.270735 99249 net.cpp:163] Top shape: 50 192 7 7 (470400)
I0907 19:36:26.270740 99249 layer_factory.hpp:76] Creating layer inception_5a/3x3
I0907 19:36:26.270750 99249 net.cpp:110] Creating Layer inception_5a/3x3
I0907 19:36:26.270755 99249 net.cpp:477] inception_5a/3x3 <- inception_5a/3x3_reduce/bn
I0907 19:36:26.270761 99249 net.cpp:433] inception_5a/3x3 -> inception_5a/3x3
I0907 19:36:26.294181 99249 net.cpp:155] Setting up inception_5a/3x3
I0907 19:36:26.294198 99249 net.cpp:163] Top shape: 50 320 7 7 (784000)
I0907 19:36:26.294208 99249 layer_factory.hpp:76] Creating layer BN_00000064
I0907 19:36:26.294215 99249 net.cpp:110] Creating Layer BN_00000064
I0907 19:36:26.294221 99249 net.cpp:477] BN_00000064 <- inception_5a/3x3
I0907 19:36:26.294229 99249 net.cpp:433] BN_00000064 -> inception_5a/3x3/bn
I0907 19:36:26.294286 99249 net.cpp:155] Setting up BN_00000064
I0907 19:36:26.294294 99249 net.cpp:163] Top shape: 50 320 7 7 (784000)
I0907 19:36:26.294303 99249 layer_factory.hpp:76] Creating layer inception_5a/relu_3x3
I0907 19:36:26.294311 99249 net.cpp:110] Creating Layer inception_5a/relu_3x3
I0907 19:36:26.294316 99249 net.cpp:477] inception_5a/relu_3x3 <- inception_5a/3x3/bn
I0907 19:36:26.294322 99249 net.cpp:419] inception_5a/relu_3x3 -> inception_5a/3x3/bn (in-place)
I0907 19:36:26.294329 99249 net.cpp:155] Setting up inception_5a/relu_3x3
I0907 19:36:26.294334 99249 net.cpp:163] Top shape: 50 320 7 7 (784000)
I0907 19:36:26.294339 99249 layer_factory.hpp:76] Creating layer inception_5a/double3x3_reduce
I0907 19:36:26.294348 99249 net.cpp:110] Creating Layer inception_5a/double3x3_reduce
I0907 19:36:26.294353 99249 net.cpp:477] inception_5a/double3x3_reduce <- inception_4e/output_inception_4e/output_0_split_2
I0907 19:36:26.294363 99249 net.cpp:433] inception_5a/double3x3_reduce -> inception_5a/double3x3_reduce
I0907 19:36:26.301841 99249 net.cpp:155] Setting up inception_5a/double3x3_reduce
I0907 19:36:26.301857 99249 net.cpp:163] Top shape: 50 160 7 7 (392000)
I0907 19:36:26.301973 99249 layer_factory.hpp:76] Creating layer BN_00000065
I0907 19:36:26.301987 99249 net.cpp:110] Creating Layer BN_00000065
I0907 19:36:26.301992 99249 net.cpp:477] BN_00000065 <- inception_5a/double3x3_reduce
I0907 19:36:26.302000 99249 net.cpp:433] BN_00000065 -> inception_5a/double3x3_reduce/bn
I0907 19:36:26.302057 99249 net.cpp:155] Setting up BN_00000065
I0907 19:36:26.302067 99249 net.cpp:163] Top shape: 50 160 7 7 (392000)
I0907 19:36:26.302078 99249 layer_factory.hpp:76] Creating layer inception_5a/relu_double3x3_reduce
I0907 19:36:26.302088 99249 net.cpp:110] Creating Layer inception_5a/relu_double3x3_reduce
I0907 19:36:26.302093 99249 net.cpp:477] inception_5a/relu_double3x3_reduce <- inception_5a/double3x3_reduce/bn
I0907 19:36:26.302100 99249 net.cpp:419] inception_5a/relu_double3x3_reduce -> inception_5a/double3x3_reduce/bn (in-place)
I0907 19:36:26.302108 99249 net.cpp:155] Setting up inception_5a/relu_double3x3_reduce
I0907 19:36:26.302114 99249 net.cpp:163] Top shape: 50 160 7 7 (392000)
I0907 19:36:26.302119 99249 layer_factory.hpp:76] Creating layer inception_5a/double3x3_mid
I0907 19:36:26.302129 99249 net.cpp:110] Creating Layer inception_5a/double3x3_mid
I0907 19:36:26.302132 99249 net.cpp:477] inception_5a/double3x3_mid <- inception_5a/double3x3_reduce/bn
I0907 19:36:26.302139 99249 net.cpp:433] inception_5a/double3x3_mid -> inception_5a/double3x3_mid
I0907 19:36:26.315904 99249 net.cpp:155] Setting up inception_5a/double3x3_mid
I0907 19:36:26.315920 99249 net.cpp:163] Top shape: 50 224 7 7 (548800)
I0907 19:36:26.315930 99249 layer_factory.hpp:76] Creating layer BN_00000066
I0907 19:36:26.315938 99249 net.cpp:110] Creating Layer BN_00000066
I0907 19:36:26.315943 99249 net.cpp:477] BN_00000066 <- inception_5a/double3x3_mid
I0907 19:36:26.315951 99249 net.cpp:433] BN_00000066 -> inception_5a/double3x3_mid/bn
I0907 19:36:26.316009 99249 net.cpp:155] Setting up BN_00000066
I0907 19:36:26.316017 99249 net.cpp:163] Top shape: 50 224 7 7 (548800)
I0907 19:36:26.316025 99249 layer_factory.hpp:76] Creating layer inception_5a/relu_double3x3_mid
I0907 19:36:26.316033 99249 net.cpp:110] Creating Layer inception_5a/relu_double3x3_mid
I0907 19:36:26.316038 99249 net.cpp:477] inception_5a/relu_double3x3_mid <- inception_5a/double3x3_mid/bn
I0907 19:36:26.316046 99249 net.cpp:419] inception_5a/relu_double3x3_mid -> inception_5a/double3x3_mid/bn (in-place)
I0907 19:36:26.316054 99249 net.cpp:155] Setting up inception_5a/relu_double3x3_mid
I0907 19:36:26.316061 99249 net.cpp:163] Top shape: 50 224 7 7 (548800)
I0907 19:36:26.316064 99249 layer_factory.hpp:76] Creating layer inception_5a/double3x3
I0907 19:36:26.316074 99249 net.cpp:110] Creating Layer inception_5a/double3x3
I0907 19:36:26.316081 99249 net.cpp:477] inception_5a/double3x3 <- inception_5a/double3x3_mid/bn
I0907 19:36:26.316087 99249 net.cpp:433] inception_5a/double3x3 -> inception_5a/double3x3
I0907 19:36:26.335261 99249 net.cpp:155] Setting up inception_5a/double3x3
I0907 19:36:26.335278 99249 net.cpp:163] Top shape: 50 224 7 7 (548800)
I0907 19:36:26.335291 99249 layer_factory.hpp:76] Creating layer BN_00000067
I0907 19:36:26.335299 99249 net.cpp:110] Creating Layer BN_00000067
I0907 19:36:26.335304 99249 net.cpp:477] BN_00000067 <- inception_5a/double3x3
I0907 19:36:26.335314 99249 net.cpp:433] BN_00000067 -> inception_5a/double3x3/bn
I0907 19:36:26.335369 99249 net.cpp:155] Setting up BN_00000067
I0907 19:36:26.335377 99249 net.cpp:163] Top shape: 50 224 7 7 (548800)
I0907 19:36:26.335386 99249 layer_factory.hpp:76] Creating layer inception_5a/relu_double3x3
I0907 19:36:26.335394 99249 net.cpp:110] Creating Layer inception_5a/relu_double3x3
I0907 19:36:26.335400 99249 net.cpp:477] inception_5a/relu_double3x3 <- inception_5a/double3x3/bn
I0907 19:36:26.335408 99249 net.cpp:419] inception_5a/relu_double3x3 -> inception_5a/double3x3/bn (in-place)
I0907 19:36:26.335415 99249 net.cpp:155] Setting up inception_5a/relu_double3x3
I0907 19:36:26.335422 99249 net.cpp:163] Top shape: 50 224 7 7 (548800)
I0907 19:36:26.335439 99249 layer_factory.hpp:76] Creating layer inception_5a/pool
I0907 19:36:26.335448 99249 net.cpp:110] Creating Layer inception_5a/pool
I0907 19:36:26.335453 99249 net.cpp:477] inception_5a/pool <- inception_4e/output_inception_4e/output_0_split_3
I0907 19:36:26.335463 99249 net.cpp:433] inception_5a/pool -> inception_5a/pool
I0907 19:36:26.335471 99249 net.cpp:155] Setting up inception_5a/pool
I0907 19:36:26.335477 99249 net.cpp:163] Top shape: 50 1056 7 7 (2587200)
I0907 19:36:26.335482 99249 layer_factory.hpp:76] Creating layer inception_5a/pool_proj
I0907 19:36:26.335491 99249 net.cpp:110] Creating Layer inception_5a/pool_proj
I0907 19:36:26.335496 99249 net.cpp:477] inception_5a/pool_proj <- inception_5a/pool
I0907 19:36:26.335508 99249 net.cpp:433] inception_5a/pool_proj -> inception_5a/pool_proj
I0907 19:36:26.341058 99249 net.cpp:155] Setting up inception_5a/pool_proj
I0907 19:36:26.341071 99249 net.cpp:163] Top shape: 50 128 7 7 (313600)
I0907 19:36:26.341087 99249 layer_factory.hpp:76] Creating layer BN_00000068
I0907 19:36:26.341095 99249 net.cpp:110] Creating Layer BN_00000068
I0907 19:36:26.341102 99249 net.cpp:477] BN_00000068 <- inception_5a/pool_proj
I0907 19:36:26.341109 99249 net.cpp:433] BN_00000068 -> inception_5a/pool_proj/bn
I0907 19:36:26.341157 99249 net.cpp:155] Setting up BN_00000068
I0907 19:36:26.341166 99249 net.cpp:163] Top shape: 50 128 7 7 (313600)
I0907 19:36:26.341174 99249 layer_factory.hpp:76] Creating layer inception_5a/relu_pool_proj
I0907 19:36:26.341181 99249 net.cpp:110] Creating Layer inception_5a/relu_pool_proj
I0907 19:36:26.341187 99249 net.cpp:477] inception_5a/relu_pool_proj <- inception_5a/pool_proj/bn
I0907 19:36:26.341192 99249 net.cpp:419] inception_5a/relu_pool_proj -> inception_5a/pool_proj/bn (in-place)
I0907 19:36:26.341199 99249 net.cpp:155] Setting up inception_5a/relu_pool_proj
I0907 19:36:26.341205 99249 net.cpp:163] Top shape: 50 128 7 7 (313600)
I0907 19:36:26.341210 99249 layer_factory.hpp:76] Creating layer inception_5a/output
I0907 19:36:26.341217 99249 net.cpp:110] Creating Layer inception_5a/output
I0907 19:36:26.341223 99249 net.cpp:477] inception_5a/output <- inception_5a/1x1/bn
I0907 19:36:26.341228 99249 net.cpp:477] inception_5a/output <- inception_5a/3x3/bn
I0907 19:36:26.341233 99249 net.cpp:477] inception_5a/output <- inception_5a/double3x3/bn
I0907 19:36:26.341238 99249 net.cpp:477] inception_5a/output <- inception_5a/pool_proj/bn
I0907 19:36:26.341246 99249 net.cpp:433] inception_5a/output -> inception_5a/output
I0907 19:36:26.341255 99249 net.cpp:155] Setting up inception_5a/output
I0907 19:36:26.341261 99249 net.cpp:163] Top shape: 50 1024 7 7 (2508800)
I0907 19:36:26.341265 99249 layer_factory.hpp:76] Creating layer inception_5a/output_inception_5a/output_0_split
I0907 19:36:26.341274 99249 net.cpp:110] Creating Layer inception_5a/output_inception_5a/output_0_split
I0907 19:36:26.341277 99249 net.cpp:477] inception_5a/output_inception_5a/output_0_split <- inception_5a/output
I0907 19:36:26.341286 99249 net.cpp:433] inception_5a/output_inception_5a/output_0_split -> inception_5a/output_inception_5a/output_0_split_0
I0907 19:36:26.341295 99249 net.cpp:433] inception_5a/output_inception_5a/output_0_split -> inception_5a/output_inception_5a/output_0_split_1
I0907 19:36:26.341301 99249 net.cpp:433] inception_5a/output_inception_5a/output_0_split -> inception_5a/output_inception_5a/output_0_split_2
I0907 19:36:26.341310 99249 net.cpp:433] inception_5a/output_inception_5a/output_0_split -> inception_5a/output_inception_5a/output_0_split_3
I0907 19:36:26.341317 99249 net.cpp:155] Setting up inception_5a/output_inception_5a/output_0_split
I0907 19:36:26.341323 99249 net.cpp:163] Top shape: 50 1024 7 7 (2508800)
I0907 19:36:26.341328 99249 net.cpp:163] Top shape: 50 1024 7 7 (2508800)
I0907 19:36:26.341333 99249 net.cpp:163] Top shape: 50 1024 7 7 (2508800)
I0907 19:36:26.341338 99249 net.cpp:163] Top shape: 50 1024 7 7 (2508800)
I0907 19:36:26.341342 99249 layer_factory.hpp:76] Creating layer inception_5b/1x1
I0907 19:36:26.341364 99249 net.cpp:110] Creating Layer inception_5b/1x1
I0907 19:36:26.341370 99249 net.cpp:477] inception_5b/1x1 <- inception_5a/output_inception_5a/output_0_split_0
I0907 19:36:26.341377 99249 net.cpp:433] inception_5b/1x1 -> inception_5b/1x1
I0907 19:36:26.356732 99249 net.cpp:155] Setting up inception_5b/1x1
I0907 19:36:26.356750 99249 net.cpp:163] Top shape: 50 352 7 7 (862400)
I0907 19:36:26.356758 99249 layer_factory.hpp:76] Creating layer BN_00000069
I0907 19:36:26.356770 99249 net.cpp:110] Creating Layer BN_00000069
I0907 19:36:26.356775 99249 net.cpp:477] BN_00000069 <- inception_5b/1x1
I0907 19:36:26.356782 99249 net.cpp:433] BN_00000069 -> inception_5b/1x1/bn
I0907 19:36:26.356838 99249 net.cpp:155] Setting up BN_00000069
I0907 19:36:26.356847 99249 net.cpp:163] Top shape: 50 352 7 7 (862400)
I0907 19:36:26.356855 99249 layer_factory.hpp:76] Creating layer inception_5b/relu_1x1
I0907 19:36:26.356863 99249 net.cpp:110] Creating Layer inception_5b/relu_1x1
I0907 19:36:26.356868 99249 net.cpp:477] inception_5b/relu_1x1 <- inception_5b/1x1/bn
I0907 19:36:26.356874 99249 net.cpp:419] inception_5b/relu_1x1 -> inception_5b/1x1/bn (in-place)
I0907 19:36:26.356883 99249 net.cpp:155] Setting up inception_5b/relu_1x1
I0907 19:36:26.356889 99249 net.cpp:163] Top shape: 50 352 7 7 (862400)
I0907 19:36:26.356892 99249 layer_factory.hpp:76] Creating layer inception_5b/3x3_reduce
I0907 19:36:26.356901 99249 net.cpp:110] Creating Layer inception_5b/3x3_reduce
I0907 19:36:26.356906 99249 net.cpp:477] inception_5b/3x3_reduce <- inception_5a/output_inception_5a/output_0_split_1
I0907 19:36:26.356915 99249 net.cpp:433] inception_5b/3x3_reduce -> inception_5b/3x3_reduce
I0907 19:36:26.365515 99249 net.cpp:155] Setting up inception_5b/3x3_reduce
I0907 19:36:26.365531 99249 net.cpp:163] Top shape: 50 192 7 7 (470400)
I0907 19:36:26.365542 99249 layer_factory.hpp:76] Creating layer BN_00000070
I0907 19:36:26.365550 99249 net.cpp:110] Creating Layer BN_00000070
I0907 19:36:26.365555 99249 net.cpp:477] BN_00000070 <- inception_5b/3x3_reduce
I0907 19:36:26.365564 99249 net.cpp:433] BN_00000070 -> inception_5b/3x3_reduce/bn
I0907 19:36:26.365618 99249 net.cpp:155] Setting up BN_00000070
I0907 19:36:26.365627 99249 net.cpp:163] Top shape: 50 192 7 7 (470400)
I0907 19:36:26.365635 99249 layer_factory.hpp:76] Creating layer inception_5b/relu_3x3_reduce
I0907 19:36:26.365643 99249 net.cpp:110] Creating Layer inception_5b/relu_3x3_reduce
I0907 19:36:26.365648 99249 net.cpp:477] inception_5b/relu_3x3_reduce <- inception_5b/3x3_reduce/bn
I0907 19:36:26.365654 99249 net.cpp:419] inception_5b/relu_3x3_reduce -> inception_5b/3x3_reduce/bn (in-place)
I0907 19:36:26.365661 99249 net.cpp:155] Setting up inception_5b/relu_3x3_reduce
I0907 19:36:26.365667 99249 net.cpp:163] Top shape: 50 192 7 7 (470400)
I0907 19:36:26.365671 99249 layer_factory.hpp:76] Creating layer inception_5b/3x3
I0907 19:36:26.365681 99249 net.cpp:110] Creating Layer inception_5b/3x3
I0907 19:36:26.365685 99249 net.cpp:477] inception_5b/3x3 <- inception_5b/3x3_reduce/bn
I0907 19:36:26.365694 99249 net.cpp:433] inception_5b/3x3 -> inception_5b/3x3
I0907 19:36:26.389309 99249 net.cpp:155] Setting up inception_5b/3x3
I0907 19:36:26.389327 99249 net.cpp:163] Top shape: 50 320 7 7 (784000)
I0907 19:36:26.389339 99249 layer_factory.hpp:76] Creating layer BN_00000071
I0907 19:36:26.389348 99249 net.cpp:110] Creating Layer BN_00000071
I0907 19:36:26.389353 99249 net.cpp:477] BN_00000071 <- inception_5b/3x3
I0907 19:36:26.389364 99249 net.cpp:433] BN_00000071 -> inception_5b/3x3/bn
I0907 19:36:26.389417 99249 net.cpp:155] Setting up BN_00000071
I0907 19:36:26.389425 99249 net.cpp:163] Top shape: 50 320 7 7 (784000)
I0907 19:36:26.389436 99249 layer_factory.hpp:76] Creating layer inception_5b/relu_3x3
I0907 19:36:26.389443 99249 net.cpp:110] Creating Layer inception_5b/relu_3x3
I0907 19:36:26.389448 99249 net.cpp:477] inception_5b/relu_3x3 <- inception_5b/3x3/bn
I0907 19:36:26.389454 99249 net.cpp:419] inception_5b/relu_3x3 -> inception_5b/3x3/bn (in-place)
I0907 19:36:26.389462 99249 net.cpp:155] Setting up inception_5b/relu_3x3
I0907 19:36:26.389482 99249 net.cpp:163] Top shape: 50 320 7 7 (784000)
I0907 19:36:26.389487 99249 layer_factory.hpp:76] Creating layer inception_5b/double3x3_reduce
I0907 19:36:26.389495 99249 net.cpp:110] Creating Layer inception_5b/double3x3_reduce
I0907 19:36:26.389500 99249 net.cpp:477] inception_5b/double3x3_reduce <- inception_5a/output_inception_5a/output_0_split_2
I0907 19:36:26.389511 99249 net.cpp:433] inception_5b/double3x3_reduce -> inception_5b/double3x3_reduce
I0907 19:36:26.398147 99249 net.cpp:155] Setting up inception_5b/double3x3_reduce
I0907 19:36:26.398164 99249 net.cpp:163] Top shape: 50 192 7 7 (470400)
I0907 19:36:26.398180 99249 layer_factory.hpp:76] Creating layer BN_00000072
I0907 19:36:26.398304 99249 net.cpp:110] Creating Layer BN_00000072
I0907 19:36:26.398315 99249 net.cpp:477] BN_00000072 <- inception_5b/double3x3_reduce
I0907 19:36:26.398324 99249 net.cpp:433] BN_00000072 -> inception_5b/double3x3_reduce/bn
I0907 19:36:26.398385 99249 net.cpp:155] Setting up BN_00000072
I0907 19:36:26.398396 99249 net.cpp:163] Top shape: 50 192 7 7 (470400)
I0907 19:36:26.398406 99249 layer_factory.hpp:76] Creating layer inception_5b/relu_double3x3_reduce
I0907 19:36:26.398414 99249 net.cpp:110] Creating Layer inception_5b/relu_double3x3_reduce
I0907 19:36:26.398419 99249 net.cpp:477] inception_5b/relu_double3x3_reduce <- inception_5b/double3x3_reduce/bn
I0907 19:36:26.398427 99249 net.cpp:419] inception_5b/relu_double3x3_reduce -> inception_5b/double3x3_reduce/bn (in-place)
I0907 19:36:26.398433 99249 net.cpp:155] Setting up inception_5b/relu_double3x3_reduce
I0907 19:36:26.398438 99249 net.cpp:163] Top shape: 50 192 7 7 (470400)
I0907 19:36:26.398443 99249 layer_factory.hpp:76] Creating layer inception_5b/double3x3_mid
I0907 19:36:26.398454 99249 net.cpp:110] Creating Layer inception_5b/double3x3_mid
I0907 19:36:26.398459 99249 net.cpp:477] inception_5b/double3x3_mid <- inception_5b/double3x3_reduce/bn
I0907 19:36:26.398466 99249 net.cpp:433] inception_5b/double3x3_mid -> inception_5b/double3x3_mid
I0907 19:36:26.415248 99249 net.cpp:155] Setting up inception_5b/double3x3_mid
I0907 19:36:26.415263 99249 net.cpp:163] Top shape: 50 224 7 7 (548800)
I0907 19:36:26.415272 99249 layer_factory.hpp:76] Creating layer BN_00000073
I0907 19:36:26.415279 99249 net.cpp:110] Creating Layer BN_00000073
I0907 19:36:26.415285 99249 net.cpp:477] BN_00000073 <- inception_5b/double3x3_mid
I0907 19:36:26.415292 99249 net.cpp:433] BN_00000073 -> inception_5b/double3x3_mid/bn
I0907 19:36:26.415344 99249 net.cpp:155] Setting up BN_00000073
I0907 19:36:26.415352 99249 net.cpp:163] Top shape: 50 224 7 7 (548800)
I0907 19:36:26.415360 99249 layer_factory.hpp:76] Creating layer inception_5b/relu_double3x3_mid
I0907 19:36:26.415367 99249 net.cpp:110] Creating Layer inception_5b/relu_double3x3_mid
I0907 19:36:26.415371 99249 net.cpp:477] inception_5b/relu_double3x3_mid <- inception_5b/double3x3_mid/bn
I0907 19:36:26.415377 99249 net.cpp:419] inception_5b/relu_double3x3_mid -> inception_5b/double3x3_mid/bn (in-place)
I0907 19:36:26.415383 99249 net.cpp:155] Setting up inception_5b/relu_double3x3_mid
I0907 19:36:26.415390 99249 net.cpp:163] Top shape: 50 224 7 7 (548800)
I0907 19:36:26.415393 99249 layer_factory.hpp:76] Creating layer inception_5b/double3x3
I0907 19:36:26.415405 99249 net.cpp:110] Creating Layer inception_5b/double3x3
I0907 19:36:26.415408 99249 net.cpp:477] inception_5b/double3x3 <- inception_5b/double3x3_mid/bn
I0907 19:36:26.415417 99249 net.cpp:433] inception_5b/double3x3 -> inception_5b/double3x3
I0907 19:36:26.433019 99249 net.cpp:155] Setting up inception_5b/double3x3
I0907 19:36:26.433034 99249 net.cpp:163] Top shape: 50 224 7 7 (548800)
I0907 19:36:26.433050 99249 layer_factory.hpp:76] Creating layer BN_00000074
I0907 19:36:26.433058 99249 net.cpp:110] Creating Layer BN_00000074
I0907 19:36:26.433063 99249 net.cpp:477] BN_00000074 <- inception_5b/double3x3
I0907 19:36:26.433069 99249 net.cpp:433] BN_00000074 -> inception_5b/double3x3/bn
I0907 19:36:26.433122 99249 net.cpp:155] Setting up BN_00000074
I0907 19:36:26.433142 99249 net.cpp:163] Top shape: 50 224 7 7 (548800)
I0907 19:36:26.433151 99249 layer_factory.hpp:76] Creating layer inception_5b/relu_double3x3
I0907 19:36:26.433159 99249 net.cpp:110] Creating Layer inception_5b/relu_double3x3
I0907 19:36:26.433164 99249 net.cpp:477] inception_5b/relu_double3x3 <- inception_5b/double3x3/bn
I0907 19:36:26.433169 99249 net.cpp:419] inception_5b/relu_double3x3 -> inception_5b/double3x3/bn (in-place)
I0907 19:36:26.433177 99249 net.cpp:155] Setting up inception_5b/relu_double3x3
I0907 19:36:26.433183 99249 net.cpp:163] Top shape: 50 224 7 7 (548800)
I0907 19:36:26.433187 99249 layer_factory.hpp:76] Creating layer inception_5b/pool
I0907 19:36:26.433197 99249 net.cpp:110] Creating Layer inception_5b/pool
I0907 19:36:26.433200 99249 net.cpp:477] inception_5b/pool <- inception_5a/output_inception_5a/output_0_split_3
I0907 19:36:26.433207 99249 net.cpp:433] inception_5b/pool -> inception_5b/pool
I0907 19:36:26.433217 99249 net.cpp:155] Setting up inception_5b/pool
I0907 19:36:26.433223 99249 net.cpp:163] Top shape: 50 1024 7 7 (2508800)
I0907 19:36:26.433226 99249 layer_factory.hpp:76] Creating layer inception_5b/pool_proj
I0907 19:36:26.433236 99249 net.cpp:110] Creating Layer inception_5b/pool_proj
I0907 19:36:26.433240 99249 net.cpp:477] inception_5b/pool_proj <- inception_5b/pool
I0907 19:36:26.433246 99249 net.cpp:433] inception_5b/pool_proj -> inception_5b/pool_proj
I0907 19:36:26.438726 99249 net.cpp:155] Setting up inception_5b/pool_proj
I0907 19:36:26.438741 99249 net.cpp:163] Top shape: 50 128 7 7 (313600)
I0907 19:36:26.438751 99249 layer_factory.hpp:76] Creating layer BN_00000075
I0907 19:36:26.438760 99249 net.cpp:110] Creating Layer BN_00000075
I0907 19:36:26.438765 99249 net.cpp:477] BN_00000075 <- inception_5b/pool_proj
I0907 19:36:26.438771 99249 net.cpp:433] BN_00000075 -> inception_5b/pool_proj/bn
I0907 19:36:26.438817 99249 net.cpp:155] Setting up BN_00000075
I0907 19:36:26.438824 99249 net.cpp:163] Top shape: 50 128 7 7 (313600)
I0907 19:36:26.438832 99249 layer_factory.hpp:76] Creating layer inception_5b/relu_pool_proj
I0907 19:36:26.438840 99249 net.cpp:110] Creating Layer inception_5b/relu_pool_proj
I0907 19:36:26.438844 99249 net.cpp:477] inception_5b/relu_pool_proj <- inception_5b/pool_proj/bn
I0907 19:36:26.438866 99249 net.cpp:419] inception_5b/relu_pool_proj -> inception_5b/pool_proj/bn (in-place)
I0907 19:36:26.438874 99249 net.cpp:155] Setting up inception_5b/relu_pool_proj
I0907 19:36:26.438879 99249 net.cpp:163] Top shape: 50 128 7 7 (313600)
I0907 19:36:26.438884 99249 layer_factory.hpp:76] Creating layer inception_5b/output
I0907 19:36:26.438889 99249 net.cpp:110] Creating Layer inception_5b/output
I0907 19:36:26.438894 99249 net.cpp:477] inception_5b/output <- inception_5b/1x1/bn
I0907 19:36:26.438900 99249 net.cpp:477] inception_5b/output <- inception_5b/3x3/bn
I0907 19:36:26.438905 99249 net.cpp:477] inception_5b/output <- inception_5b/double3x3/bn
I0907 19:36:26.438910 99249 net.cpp:477] inception_5b/output <- inception_5b/pool_proj/bn
I0907 19:36:26.438915 99249 net.cpp:433] inception_5b/output -> inception_5b/output
I0907 19:36:26.438923 99249 net.cpp:155] Setting up inception_5b/output
I0907 19:36:26.438930 99249 net.cpp:163] Top shape: 50 1024 7 7 (2508800)
I0907 19:36:26.438935 99249 layer_factory.hpp:76] Creating layer pool5/7x7_s1
I0907 19:36:26.438942 99249 net.cpp:110] Creating Layer pool5/7x7_s1
I0907 19:36:26.438947 99249 net.cpp:477] pool5/7x7_s1 <- inception_5b/output
I0907 19:36:26.438954 99249 net.cpp:433] pool5/7x7_s1 -> pool5/7x7_s1
I0907 19:36:26.438962 99249 net.cpp:155] Setting up pool5/7x7_s1
I0907 19:36:26.438967 99249 net.cpp:163] Top shape: 50 1024 1 1 (51200)
I0907 19:36:26.438971 99249 layer_factory.hpp:76] Creating layer loss3/classifier
I0907 19:36:26.438990 99249 net.cpp:110] Creating Layer loss3/classifier
I0907 19:36:26.438994 99249 net.cpp:477] loss3/classifier <- pool5/7x7_s1
I0907 19:36:26.439002 99249 net.cpp:433] loss3/classifier -> loss3/classifier
I0907 19:36:26.488451 99249 net.cpp:155] Setting up loss3/classifier
I0907 19:36:26.488466 99249 net.cpp:163] Top shape: 50 1000 (50000)
I0907 19:36:26.488481 99249 layer_factory.hpp:76] Creating layer loss3/classifier_loss3/classifier_0_split
I0907 19:36:26.488489 99249 net.cpp:110] Creating Layer loss3/classifier_loss3/classifier_0_split
I0907 19:36:26.488494 99249 net.cpp:477] loss3/classifier_loss3/classifier_0_split <- loss3/classifier
I0907 19:36:26.488505 99249 net.cpp:433] loss3/classifier_loss3/classifier_0_split -> loss3/classifier_loss3/classifier_0_split_0
I0907 19:36:26.488514 99249 net.cpp:433] loss3/classifier_loss3/classifier_0_split -> loss3/classifier_loss3/classifier_0_split_1
I0907 19:36:26.488522 99249 net.cpp:433] loss3/classifier_loss3/classifier_0_split -> loss3/classifier_loss3/classifier_0_split_2
I0907 19:36:26.488529 99249 net.cpp:155] Setting up loss3/classifier_loss3/classifier_0_split
I0907 19:36:26.488535 99249 net.cpp:163] Top shape: 50 1000 (50000)
I0907 19:36:26.488539 99249 net.cpp:163] Top shape: 50 1000 (50000)
I0907 19:36:26.488544 99249 net.cpp:163] Top shape: 50 1000 (50000)
I0907 19:36:26.488548 99249 layer_factory.hpp:76] Creating layer loss3/loss3
I0907 19:36:26.488555 99249 net.cpp:110] Creating Layer loss3/loss3
I0907 19:36:26.488559 99249 net.cpp:477] loss3/loss3 <- loss3/classifier_loss3/classifier_0_split_0
I0907 19:36:26.488570 99249 net.cpp:477] loss3/loss3 <- label_data_1_split_6
I0907 19:36:26.488576 99249 net.cpp:433] loss3/loss3 -> loss3/loss3
…
