…
I0906 12:04:22.765411 88038 net.cpp:339] The NetState phase (0) differed from the phase (1) specified by a rule in layer loss3/top-5
I0906 12:04:22.768017 88038 net.cpp:50] Initializing net from parameters: 
name: "Inception_6"
state {
  phase: TRAIN
}
layer {
  name: "data"
  type: "Data"
  top: "data"
  top: "label"
  include {
    phase: TRAIN
  }
  transform_param {
    mirror: true
    crop_size: 224
    mean_value: 104
    mean_value: 117
    mean_value: 123
  }
  data_param {
    source: "/ssd/ilsvrc2012/ilsvrc12_train_lmdb"
    batch_size: 32
    backend: LMDB
  }
}
layer {
  name: "conv1/7x7_s2"
  type: "Convolution"
  bottom: "data"
  top: "conv1/7x7_s2"
  param {
    lr_mult: 1
    decay_mult: 1
  }
  param {
    lr_mult: 2
    decay_mult: 0
  }
  convolution_param {
    num_output: 64
    pad: 3
    kernel_size: 7
    stride: 2
    weight_filler {
      type: "xavier"
    }
    bias_filler {
      type: "constant"
      value: 0.2
    }
  }
}
layer {
  name: "conv1/relu_7x7"
  type: "ReLU"
  bottom: "conv1/7x7_s2"
  top: "conv1/7x7_s2"
}
layer {
  name: "pool1/3x3_s2"
  type: "Pooling"
  bottom: "conv1/7x7_s2"
  top: "pool1/3x3_s2"
  pooling_param {
    pool: MAX
    kernel_size: 3
    stride: 2
  }
}
layer {
  name: "pool1/norm1"
  type: "LRN"
  bottom: "pool1/3x3_s2"
  top: "pool1/norm1"
  lrn_param {
    local_size: 5
    alpha: 0.0001
    beta: 0.75
  }
}
layer {
  name: "conv2/3x3_reduce"
  type: "Convolution"
  bottom: "pool1/norm1"
  top: "conv2/3x3_reduce"
  param {
    lr_mult: 1
    decay_mult: 1
  }
  param {
    lr_mult: 2
    decay_mult: 0
  }
  convolution_param {
    num_output: 64
    kernel_size: 1
    weight_filler {
      type: "xavier"
    }
    bias_filler {
      type: "constant"
      value: 0.2
    }
  }
}
layer {
  name: "conv2/relu_3x3_reduce"
  type: "ReLU"
  bottom: "conv2/3x3_reduce"
  top: "conv2/3x3_reduce"
}
layer {
  name: "conv2/3x3"
  type: "Convolution"
  bottom: "conv2/3x3_reduce"
  top: "conv2/3x3"
  param {
    lr_mult: 1
    decay_mult: 1
  }
  param {
    lr_mult: 2
    decay_mult: 0
  }
  convolution_param {
    num_output: 192
    pad: 1
    kernel_size: 3
    weight_filler {
      type: "xavier"
    }
    bias_filler {
      type: "constant"
      value: 0.2
    }
  }
}
layer {
  name: "conv2/relu_3x3"
  type: "ReLU"
  bottom: "conv2/3x3"
  top: "conv2/3x3"
}
layer {
  name: "conv2/norm2"
  type: "LRN"
  bottom: "conv2/3x3"
  top: "conv2/norm2"
  lrn_param {
    local_size: 5
    alpha: 0.0001
    beta: 0.75
  }
}
layer {
  name: "pool2/3x3_s2"
  type: "Pooling"
  bottom: "conv2/norm2"
  top: "pool2/3x3_s2"
  pooling_param {
    pool: MAX
    kernel_size: 3
    stride: 2
  }
}
layer {
  name: "inception_3a/1x1"
  type: "Convolution"
  bottom: "pool2/3x3_s2"
  top: "inception_3a/1x1"
  param {
    lr_mult: 1
    decay_mult: 1
  }
  param {
    lr_mult: 2
    decay_mult: 0
  }
  convolution_param {
    num_output: 64
    kernel_size: 1
    weight_filler {
      type: "xavier"
    }
    bias_filler {
      type: "constant"
      value: 0.2
    }
  }
}
layer {
  name: "inception_3a/relu_1x1"
  type: "ReLU"
  bottom: "inception_3a/1x1"
  top: "inception_3a/1x1"
}
layer {
  name: "inception_3a/3x3_reduce"
  type: "Convolution"
  bottom: "pool2/3x3_s2"
  top: "inception_3a/3x3_reduce"
  param {
    lr_mult: 1
    decay_mult: 1
  }
  param {
    lr_mult: 2
    decay_mult: 0
  }
  convolution_param {
    num_output: 64
    kernel_size: 1
    weight_filler {
      type: "xavier"
    }
    bias_filler {
      type: "constant"
      value: 0.2
    }
  }
}
layer {
  name: "inception_3a/relu_3x3_reduce"
  type: "ReLU"
  bottom: "inception_3a/3x3_reduce"
  top: "inception_3a/3x3_reduce"
}
layer {
  name: "inception_3a/3x3"
  type: "Convolution"
  bottom: "inception_3a/3x3_reduce"
  top: "inception_3a/3x3"
  param {
    lr_mult: 1
    decay_mult: 1
  }
  param {
    lr_mult: 2
    decay_mult: 0
  }
  convolution_param {
    num_output: 64
    pad: 1
    kernel_size: 3
    weight_filler {
      type: "xavier"
    }
    bias_filler {
      type: "constant"
      value: 0.2
    }
  }
}
layer {
  name: "inception_3a/relu_3x3"
  type: "ReLU"
  bottom: "inception_3a/3x3"
  top: "inception_3a/3x3"
}
layer {
  name: "inception_3a/double3x3_reduce"
  type: "Convolution"
  bottom: "pool2/3x3_s2"
  top: "inception_3a/double3x3_reduce"
  param {
    lr_mult: 1
    decay_mult: 1
  }
  param {
    lr_mult: 2
    decay_mult: 0
  }
  convolution_param {
    num_output: 64
    kernel_size: 1
    weight_filler {
      type: "xavier"
    }
    bias_filler {
      type: "constant"
      value: 0.2
    }
  }
}
layer {
  name: "inception_3a/relu_double3x3_reduce"
  type: "ReLU"
  bottom: "inception_3a/double3x3_reduce"
  top: "inception_3a/double3x3_reduce"
}
layer {
  name: "inception_3a/double3x3_mid"
  type: "Convolution"
  bottom: "inception_3a/double3x3_reduce"
  top: "inception_3a/double3x3_mid"
  param {
    lr_mult: 1
    decay_mult: 1
  }
  param {
    lr_mult: 2
    decay_mult: 0
  }
  convolution_param {
    num_output: 96
    pad: 1
    kernel_size: 3
    weight_filler {
      type: "xavier"
    }
    bias_filler {
      type: "constant"
      value: 0.2
    }
  }
}
layer {
  name: "inception_3a/relu_double3x3_mid"
  type: "ReLU"
  bottom: "inception_3a/double3x3_mid"
  top: "inception_3a/double3x3_mid"
}
layer {
  name: "inception_3a/double3x3"
  type: "Convolution"
  bottom: "inception_3a/double3x3_mid"
  top: "inception_3a/double3x3"
  param {
    lr_mult: 1
    decay_mult: 1
  }
  param {
    lr_mult: 2
    decay_mult: 0
  }
  convolution_param {
    num_output: 96
    pad: 1
    kernel_size: 3
    weight_filler {
      type: "xavier"
    }
    bias_filler {
      type: "constant"
      value: 0.2
    }
  }
}
layer {
  name: "inception_3a/relu_double3x3"
  type: "ReLU"
  bottom: "inception_3a/double3x3"
  top: "inception_3a/double3x3"
}
layer {
  name: "inception_3a/pool"
  type: "Pooling"
  bottom: "pool2/3x3_s2"
  top: "inception_3a/pool"
  pooling_param {
    pool: AVE
    kernel_size: 3
    stride: 1
    pad: 1
  }
}
layer {
  name: "inception_3a/pool_proj"
  type: "Convolution"
  bottom: "inception_3a/pool"
  top: "inception_3a/pool_proj"
  param {
    lr_mult: 1
    decay_mult: 1
  }
  param {
    lr_mult: 2
    decay_mult: 0
  }
  convolution_param {
    num_output: 32
    kernel_size: 1
    weight_filler {
      type: "xavier"
    }
    bias_filler {
      type: "constant"
      value: 0.2
    }
  }
}
layer {
  name: "inception_3a/relu_pool_proj"
  type: "ReLU"
  bottom: "inception_3a/pool_proj"
  top: "inception_3a/pool_proj"
}
layer {
  name: "inception_3a/output"
  type: "Concat"
  bottom: "inception_3a/1x1"
  bottom: "inception_3a/3x3"
  bottom: "inception_3a/double3x3"
  bottom: "inception_3a/pool_proj"
  top: "inception_3a/output"
}
layer {
  name: "inception_3b/1x1"
  type: "Convolution"
  bottom: "inception_3a/output"
  top: "inception_3b/1x1"
  param {
    lr_mult: 1
    decay_mult: 1
  }
  param {
    lr_mult: 2
    decay_mult: 0
  }
  convolution_param {
    num_output: 64
    kernel_size: 1
    weight_filler {
      type: "xavier"
    }
    bias_filler {
      type: "constant"
      value: 0.2
    }
  }
}
layer {
  name: "inception_3b/relu_1x1"
  type: "ReLU"
  bottom: "inception_3b/1x1"
  top: "inception_3b/1x1"
}
layer {
  name: "inception_3b/3x3_reduce"
  type: "Convolution"
  bottom: "inception_3a/output"
  top: "inception_3b/3x3_reduce"
  param {
    lr_mult: 1
    decay_mult: 1
  }
  param {
    lr_mult: 2
    decay_mult: 0
  }
  convolution_param {
    num_output: 64
    kernel_size: 1
    weight_filler {
      type: "xavier"
    }
    bias_filler {
      type: "constant"
      value: 0.2
    }
  }
}
layer {
  name: "inception_3b/relu_3x3_reduce"
  type: "ReLU"
  bottom: "inception_3b/3x3_reduce"
  top: "inception_3b/3x3_reduce"
}
layer {
  name: "inception_3b/3x3"
  type: "Convolution"
  bottom: "inception_3b/3x3_reduce"
  top: "inception_3b/3x3"
  param {
    lr_mult: 1
    decay_mult: 1
  }
  param {
    lr_mult: 2
    decay_mult: 0
  }
  convolution_param {
    num_output: 96
    pad: 1
    kernel_size: 3
    weight_filler {
      type: "xavier"
    }
    bias_filler {
      type: "constant"
      value: 0.2
    }
  }
}
layer {
  name: "inception_3b/relu_3x3"
  type: "ReLU"
  bottom: "inception_3b/3x3"
  top: "inception_3b/3x3"
}
layer {
  name: "inception_3b/double3x3_reduce"
  type: "Convolution"
  bottom: "inception_3a/output"
  top: "inception_3b/double3x3_reduce"
  param {
    lr_mult: 1
    decay_mult: 1
  }
  param {
    lr_mult: 2
    decay_mult: 0
  }
  convolution_param {
    num_output: 64
    kernel_size: 1
    weight_filler {
      type: "xavier"
    }
    bias_filler {
      type: "constant"
      value: 0.2
    }
  }
}
layer {
  name: "inception_3b/relu_double3x3_reduce"
  type: "ReLU"
  bottom: "inception_3b/double3x3_reduce"
  top: "inception_3b/double3x3_reduce"
}
layer {
  name: "inception_3b/double3x3_mid"
  type: "Convolution"
  bottom: "inception_3b/double3x3_reduce"
  top: "inception_3b/double3x3_mid"
  param {
    lr_mult: 1
    decay_mult: 1
  }
  param {
    lr_mult: 2
    decay_mult: 0
  }
  convolution_param {
    num_output: 96
    pad: 1
    kernel_size: 3
    weight_filler {
      type: "xavier"
    }
    bias_filler {
      type: "constant"
      value: 0.2
    }
  }
}
layer {
  name: "inception_3b/relu_double3x3_mid"
  type: "ReLU"
  bottom: "inception_3b/double3x3_mid"
  top: "inception_3b/double3x3_mid"
}
layer {
  name: "inception_3b/double3x3"
  type: "Convolution"
  bottom: "inception_3b/double3x3_mid"
  top: "inception_3b/double3x3"
  param {
    lr_mult: 1
    decay_mult: 1
  }
  param {
    lr_mult: 2
    decay_mult: 0
  }
  convolution_param {
    num_output: 96
    pad: 1
    kernel_size: 3
    weight_filler {
      type: "xavier"
    }
    bias_filler {
      type: "constant"
      value: 0.2
    }
  }
}
layer {
  name: "inception_3b/relu_double3x3"
  type: "ReLU"
  bottom: "inception_3b/double3x3"
  top: "inception_3b/double3x3"
}
layer {
  name: "inception_3b/pool"
  type: "Pooling"
  bottom: "inception_3a/output"
  top: "inception_3b/pool"
  pooling_param {
    pool: AVE
    kernel_size: 3
    stride: 1
    pad: 1
  }
}
layer {
  name: "inception_3b/pool_proj"
  type: "Convolution"
  bottom: "inception_3b/pool"
  top: "inception_3b/pool_proj"
  param {
    lr_mult: 1
    decay_mult: 1
  }
  param {
    lr_mult: 2
    decay_mult: 0
  }
  convolution_param {
    num_output: 64
    kernel_size: 1
    weight_filler {
      type: "xavier"
    }
    bias_filler {
      type: "constant"
      value: 0.2
    }
  }
}
layer {
  name: "inception_3b/relu_pool_proj"
  type: "ReLU"
  bottom: "inception_3b/pool_proj"
  top: "inception_3b/pool_proj"
}
layer {
  name: "inception_3b/output"
  type: "Concat"
  bottom: "inception_3b/1x1"
  bottom: "inception_3b/3x3"
  bottom: "inception_3b/double3x3"
  bottom: "inception_3b/pool_proj"
  top: "inception_3b/output"
}
layer {
  name: "inception_3c/3x3_reduce"
  type: "Convolution"
  bottom: "inception_3b/output"
  top: "inception_3c/3x3_reduce"
  param {
    lr_mult: 1
    decay_mult: 1
  }
  param {
    lr_mult: 2
    decay_mult: 0
  }
  convolution_param {
    num_output: 128
    kernel_size: 1
    weight_filler {
      type: "xavier"
    }
    bias_filler {
      type: "constant"
      value: 0.2
    }
  }
}
layer {
  name: "inception_3c/relu_3x3_reduce"
  type: "ReLU"
  bottom: "inception_3c/3x3_reduce"
  top: "inception_3c/3x3_reduce"
}
layer {
  name: "inception_3c/3x3_s2"
  type: "Convolution"
  bottom: "inception_3c/3x3_reduce"
  top: "inception_3c/3x3_s2"
  param {
    lr_mult: 1
    decay_mult: 1
  }
  param {
    lr_mult: 2
    decay_mult: 0
  }
  convolution_param {
    num_output: 160
    pad: 1
    kernel_size: 3
    stride: 2
    weight_filler {
      type: "xavier"
    }
    bias_filler {
      type: "constant"
      value: 0.2
    }
  }
}
layer {
  name: "inception_3c/relu_3x3"
  type: "ReLU"
  bottom: "inception_3c/3x3_s2"
  top: "inception_3c/3x3_s2"
}
layer {
  name: "inception_3c/double3x3_reduce"
  type: "Convolution"
  bottom: "inception_3b/output"
  top: "inception_3c/double3x3_reduce"
  param {
    lr_mult: 1
    decay_mult: 1
  }
  param {
    lr_mult: 2
    decay_mult: 0
  }
  convolution_param {
    num_output: 64
    kernel_size: 1
    weight_filler {
      type: "xavier"
    }
    bias_filler {
      type: "constant"
      value: 0.2
    }
  }
}
layer {
  name: "inception_3c/relu_double3x3_reduce"
  type: "ReLU"
  bottom: "inception_3c/double3x3_reduce"
  top: "inception_3c/double3x3_reduce"
}
layer {
  name: "inception_3c/double3x3_mid"
  type: "Convolution"
  bottom: "inception_3c/double3x3_reduce"
  top: "inception_3c/double3x3_mid"
  param {
    lr_mult: 1
    decay_mult: 1
  }
  param {
    lr_mult: 2
    decay_mult: 0
  }
  convolution_param {
    num_output: 96
    pad: 1
    kernel_size: 3
    weight_filler {
      type: "xavier"
    }
    bias_filler {
      type: "constant"
      value: 0.2
    }
  }
}
layer {
  name: "inception_3c/relu_double3x3_mid"
  type: "ReLU"
  bottom: "inception_3c/double3x3_mid"
  top: "inception_3c/double3x3_mid"
}
layer {
  name: "inception_3c/double3x3"
  type: "Convolution"
  bottom: "inception_3c/double3x3_mid"
  top: "inception_3c/double3x3_s2"
  param {
    lr_mult: 1
    decay_mult: 1
  }
  param {
    lr_mult: 2
    decay_mult: 0
  }
  convolution_param {
    num_output: 96
    pad: 1
    kernel_size: 3
    stride: 2
    weight_filler {
      type: "xavier"
    }
    bias_filler {
      type: "constant"
      value: 0.2
    }
  }
}
layer {
  name: "inception_3c/relu_double3x3"
  type: "ReLU"
  bottom: "inception_3c/double3x3_s2"
  top: "inception_3c/double3x3_s2"
}
layer {
  name: "inception_3c/pool"
  type: "Pooling"
  bottom: "inception_3b/output"
  top: "inception_3c/pool"
  pooling_param {
    pool: MAX
    kernel_size: 3
    stride: 2
  }
}
layer {
  name: "inception_3c/relu_pool"
  type: "ReLU"
  bottom: "inception_3c/pool"
  top: "inception_3c/pool"
}
layer {
  name: "inception_3c/output"
  type: "Concat"
  bottom: "inception_3c/3x3_s2"
  bottom: "inception_3c/double3x3_s2"
  bottom: "inception_3c/pool"
  top: "inception_3c/output"
}
layer {
  name: "inception_4a/1x1"
  type: "Convolution"
  bottom: "inception_3c/output"
  top: "inception_4a/1x1"
  param {
    lr_mult: 1
    decay_mult: 1
  }
  param {
    lr_mult: 2
    decay_mult: 0
  }
  convolution_param {
    num_output: 224
    kernel_size: 1
    weight_filler {
      type: "xavier"
    }
    bias_filler {
      type: "constant"
      value: 0.2
    }
  }
}
layer {
  name: "inception_4a/relu_1x1"
  type: "ReLU"
  bottom: "inception_4a/1x1"
  top: "inception_4a/1x1"
}
layer {
  name: "inception_4a/3x3_reduce"
  type: "Convolution"
  bottom: "inception_3c/output"
  top: "inception_4a/3x3_reduce"
  param {
    lr_mult: 1
    decay_mult: 1
  }
  param {
    lr_mult: 2
    decay_mult: 0
  }
  convolution_param {
    num_output: 64
    kernel_size: 1
    weight_filler {
      type: "xavier"
    }
    bias_filler {
      type: "constant"
      value: 0.2
    }
  }
}
layer {
  name: "inception_4a/relu_3x3_reduce"
  type: "ReLU"
  bottom: "inception_4a/3x3_reduce"
  top: "inception_4a/3x3_reduce"
}
layer {
  name: "inception_4a/3x3"
  type: "Convolution"
  bottom: "inception_4a/3x3_reduce"
  top: "inception_4a/3x3"
  param {
    lr_mult: 1
    decay_mult: 1
  }
  param {
    lr_mult: 2
    decay_mult: 0
  }
  convolution_param {
    num_output: 96
    pad: 1
    kernel_size: 3
    weight_filler {
      type: "xavier"
    }
    bias_filler {
      type: "constant"
      value: 0.2
    }
  }
}
layer {
  name: "inception_4a/relu_3x3"
  type: "ReLU"
  bottom: "inception_4a/3x3"
  top: "inception_4a/3x3"
}
layer {
  name: "inception_4a/double3x3_reduce"
  type: "Convolution"
  bottom: "inception_3c/output"
  top: "inception_4a/double3x3_reduce"
  param {
    lr_mult: 1
    decay_mult: 1
  }
  param {
    lr_mult: 2
    decay_mult: 0
  }
  convolution_param {
    num_output: 96
    kernel_size: 1
    weight_filler {
      type: "xavier"
    }
    bias_filler {
      type: "constant"
      value: 0.2
    }
  }
}
layer {
  name: "inception_4a/relu_double3x3_reduce"
  type: "ReLU"
  bottom: "inception_4a/double3x3_reduce"
  top: "inception_4a/double3x3_reduce"
}
layer {
  name: "inception_4a/double3x3_mid"
  type: "Convolution"
  bottom: "inception_4a/double3x3_reduce"
  top: "inception_4a/double3x3_mid"
  param {
    lr_mult: 1
    decay_mult: 1
  }
  param {
    lr_mult: 2
    decay_mult: 0
  }
  convolution_param {
    num_output: 128
    pad: 1
    kernel_size: 3
    weight_filler {
      type: "xavier"
    }
    bias_filler {
      type: "constant"
      value: 0.2
    }
  }
}
layer {
  name: "inception_4a/relu_double3x3_mid"
  type: "ReLU"
  bottom: "inception_4a/double3x3_mid"
  top: "inception_4a/double3x3_mid"
}
layer {
  name: "inception_4a/double3x3"
  type: "Convolution"
  bottom: "inception_4a/double3x3_mid"
  top: "inception_4a/double3x3"
  param {
    lr_mult: 1
    decay_mult: 1
  }
  param {
    lr_mult: 2
    decay_mult: 0
  }
  convolution_param {
    num_output: 128
    pad: 1
    kernel_size: 3
    weight_filler {
      type: "xavier"
    }
    bias_filler {
      type: "constant"
      value: 0.2
    }
  }
}
layer {
  name: "inception_4a/relu_double3x3"
  type: "ReLU"
  bottom: "inception_4a/double3x3"
  top: "inception_4a/double3x3"
}
layer {
  name: "inception_4a/pool"
  type: "Pooling"
  bottom: "inception_3c/output"
  top: "inception_4a/pool"
  pooling_param {
    pool: AVE
    kernel_size: 3
    stride: 1
    pad: 1
  }
}
layer {
  name: "inception_4a/pool_proj"
  type: "Convolution"
  bottom: "inception_4a/pool"
  top: "inception_4a/pool_proj"
  param {
    lr_mult: 1
    decay_mult: 1
  }
  param {
    lr_mult: 2
    decay_mult: 0
  }
  convolution_param {
    num_output: 128
    kernel_size: 1
    weight_filler {
      type: "xavier"
    }
    bias_filler {
      type: "constant"
      value: 0.2
    }
  }
}
layer {
  name: "inception_4a/relu_pool_proj"
  type: "ReLU"
  bottom: "inception_4a/pool_proj"
  top: "inception_4a/pool_proj"
}
layer {
  name: "inception_4a/output"
  type: "Concat"
  bottom: "inception_4a/1x1"
  bottom: "inception_4a/3x3"
  bottom: "inception_4a/double3x3"
  bottom: "inception_4a/pool_proj"
  top: "inception_4a/output"
}
layer {
  name: "loss1/ave_pool"
  type: "Pooling"
  bottom: "inception_4a/output"
  top: "loss1/ave_pool"
  pooling_param {
    pool: AVE
    kernel_size: 5
    stride: 3
  }
}
layer {
  name: "loss1/conv"
  type: "Convolution"
  bottom: "loss1/ave_pool"
  top: "loss1/conv"
  param {
    lr_mult: 1
    decay_mult: 1
  }
  param {
    lr_mult: 2
    decay_mult: 0
  }
  convolution_param {
    num_output: 128
    kernel_size: 1
    weight_filler {
      type: "xavier"
    }
    bias_filler {
      type: "constant"
      value: 0.2
    }
  }
}
layer {
  name: "loss1/relu_conv"
  type: "ReLU"
  bottom: "loss1/conv"
  top: "loss1/conv"
}
layer {
  name: "loss1/fc"
  type: "InnerProduct"
  bottom: "loss1/conv"
  top: "loss1/fc"
  param {
    lr_mult: 1
    decay_mult: 1
  }
  param {
    lr_mult: 2
    decay_mult: 0
  }
  inner_product_param {
    num_output: 1024
    weight_filler {
      type: "xavier"
    }
    bias_filler {
      type: "constant"
      value: 0.2
    }
  }
}
layer {
  name: "loss1/relu_fc"
  type: "ReLU"
  bottom: "loss1/fc"
  top: "loss1/fc"
}
layer {
  name: "loss1/drop_fc"
  type: "Dropout"
  bottom: "loss1/fc"
  top: "loss1/fc"
  dropout_param {
    dropout_ratio: 0.7
  }
}
layer {
  name: "loss1/classifier"
  type: "InnerProduct"
  bottom: "loss1/fc"
  top: "loss1/classifier"
  param {
    lr_mult: 1
    decay_mult: 1
  }
  param {
    lr_mult: 2
    decay_mult: 0
  }
  inner_product_param {
    num_output: 1000
    weight_filler {
      type: "xavier"
    }
    bias_filler {
      type: "constant"
      value: 0
    }
  }
}
layer {
  name: "loss1/loss"
  type: "SoftmaxWithLoss"
  bottom: "loss1/classifier"
  bottom: "label"
  top: "loss1/loss1"
  loss_weight: 0.3
}
layer {
  name: "inception_4b/1x1"
  type: "Convolution"
  bottom: "inception_4a/output"
  top: "inception_4b/1x1"
  param {
    lr_mult: 1
    decay_mult: 1
  }
  param {
    lr_mult: 2
    decay_mult: 0
  }
  convolution_param {
    num_output: 192
    kernel_size: 1
    weight_filler {
      type: "xavier"
    }
    bias_filler {
      type: "constant"
      value: 0.2
    }
  }
}
layer {
  name: "inception_4b/relu_1x1"
  type: "ReLU"
  bottom: "inception_4b/1x1"
  top: "inception_4b/1x1"
}
layer {
  name: "inception_4b/3x3_reduce"
  type: "Convolution"
  bottom: "inception_4a/output"
  top: "inception_4b/3x3_reduce"
  param {
    lr_mult: 1
    decay_mult: 1
  }
  param {
    lr_mult: 2
    decay_mult: 0
  }
  convolution_param {
    num_output: 96
    kernel_size: 1
    weight_filler {
      type: "xavier"
    }
    bias_filler {
      type: "constant"
      value: 0.2
    }
  }
}
layer {
  name: "inception_4b/relu_3x3_reduce"
  type: "ReLU"
  bottom: "inception_4b/3x3_reduce"
  top: "inception_4b/3x3_reduce"
}
layer {
  name: "inception_4b/3x3"
  type: "Convolution"
  bottom: "inception_4b/3x3_reduce"
  top: "inception_4b/3x3"
  param {
    lr_mult: 1
    decay_mult: 1
  }
  param {
    lr_mult: 2
    decay_mult: 0
  }
  convolution_param {
    num_output: 128
    pad: 1
    kernel_size: 3
    weight_filler {
      type: "xavier"
    }
    bias_filler {
      type: "constant"
      value: 0.2
    }
  }
}
layer {
  name: "inception_4b/relu_3x3"
  type: "ReLU"
  bottom: "inception_4b/3x3"
  top: "inception_4b/3x3"
}
layer {
  name: "inception_4b/double3x3_reduce"
  type: "Convolution"
  bottom: "inception_4a/output"
  top: "inception_4b/double3x3_reduce"
  param {
    lr_mult: 1
    decay_mult: 1
  }
  param {
    lr_mult: 2
    decay_mult: 0
  }
  convolution_param {
    num_output: 96
    kernel_size: 1
    weight_filler {
      type: "xavier"
    }
    bias_filler {
      type: "constant"
      value: 0.2
    }
  }
}
layer {
  name: "inception_4b/relu_double3x3_reduce"
  type: "ReLU"
  bottom: "inception_4b/double3x3_reduce"
  top: "inception_4b/double3x3_reduce"
}
layer {
  name: "inception_4b/double3x3_mid"
  type: "Convolution"
  bottom: "inception_4b/double3x3_reduce"
  top: "inception_4b/double3x3_mid"
  param {
    lr_mult: 1
    decay_mult: 1
  }
  param {
    lr_mult: 2
    decay_mult: 0
  }
  convolution_param {
    num_output: 128
    pad: 1
    kernel_size: 3
    weight_filler {
      type: "xavier"
    }
    bias_filler {
      type: "constant"
      value: 0.2
    }
  }
}
layer {
  name: "inception_4b/relu_double3x3_mid"
  type: "ReLU"
  bottom: "inception_4b/double3x3_mid"
  top: "inception_4b/double3x3_mid"
}
layer {
  name: "inception_4b/double3x3"
  type: "Convolution"
  bottom: "inception_4b/double3x3_mid"
  top: "inception_4b/double3x3"
  param {
    lr_mult: 1
    decay_mult: 1
  }
  param {
    lr_mult: 2
    decay_mult: 0
  }
  convolution_param {
    num_output: 128
    pad: 1
    kernel_size: 3
    weight_filler {
      type: "xavier"
    }
    bias_filler {
      type: "constant"
      value: 0.2
    }
  }
}
layer {
  name: "inception_4b/relu_double3x3"
  type: "ReLU"
  bottom: "inception_4b/double3x3"
  top: "inception_4b/double3x3"
}
layer {
  name: "inception_4b/pool"
  type: "Pooling"
  bottom: "inception_4a/output"
  top: "inception_4b/pool"
  pooling_param {
    pool: AVE
    kernel_size: 3
    stride: 1
    pad: 1
  }
}
layer {
  name: "inception_4b/pool_proj"
  type: "Convolution"
  bottom: "inception_4b/pool"
  top: "inception_4b/pool_proj"
  param {
    lr_mult: 1
    decay_mult: 1
  }
  param {
    lr_mult: 2
    decay_mult: 0
  }
  convolution_param {
    num_output: 128
    kernel_size: 1
    weight_filler {
      type: "xavier"
    }
    bias_filler {
      type: "constant"
      value: 0.2
    }
  }
}
layer {
  name: "inception_4b/relu_pool_proj"
  type: "ReLU"
  bottom: "inception_4b/pool_proj"
  top: "inception_4b/pool_proj"
}
layer {
  name: "inception_4b/output"
  type: "Concat"
  bottom: "inception_4b/1x1"
  bottom: "inception_4b/3x3"
  bottom: "inception_4b/double3x3"
  bottom: "inception_4b/pool_proj"
  top: "inception_4b/output"
}
layer {
  name: "inception_4c/1x1"
  type: "Convolution"
  bottom: "inception_4b/output"
  top: "inception_4c/1x1"
  param {
    lr_mult: 1
    decay_mult: 1
  }
  param {
    lr_mult: 2
    decay_mult: 0
  }
  convolution_param {
    num_output: 160
    kernel_size: 1
    weight_filler {
      type: "xavier"
    }
    bias_filler {
      type: "constant"
      value: 0.2
    }
  }
}
layer {
  name: "inception_4c/relu_1x1"
  type: "ReLU"
  bottom: "inception_4c/1x1"
  top: "inception_4c/1x1"
}
layer {
  name: "inception_4c/3x3_reduce"
  type: "Convolution"
  bottom: "inception_4b/output"
  top: "inception_4c/3x3_reduce"
  param {
    lr_mult: 1
    decay_mult: 1
  }
  param {
    lr_mult: 2
    decay_mult: 0
  }
  convolution_param {
    num_output: 128
    kernel_size: 1
    weight_filler {
      type: "xavier"
    }
    bias_filler {
      type: "constant"
      value: 0.2
    }
  }
}
layer {
  name: "inception_4c/relu_3x3_reduce"
  type: "ReLU"
  bottom: "inception_4c/3x3_reduce"
  top: "inception_4c/3x3_reduce"
}
layer {
  name: "inception_4c/3x3"
  type: "Convolution"
  bottom: "inception_4c/3x3_reduce"
  top: "inception_4c/3x3"
  param {
    lr_mult: 1
    decay_mult: 1
  }
  param {
    lr_mult: 2
    decay_mult: 0
  }
  convolution_param {
    num_output: 160
    pad: 1
    kernel_size: 3
    weight_filler {
      type: "xavier"
    }
    bias_filler {
      type: "constant"
      value: 0.2
    }
  }
}
layer {
  name: "inception_4c/relu_3x3"
  type: "ReLU"
  bottom: "inception_4c/3x3"
  top: "inception_4c/3x3"
}
layer {
  name: "inception_4c/double3x3_reduce"
  type: "Convolution"
  bottom: "inception_4b/output"
  top: "inception_4c/double3x3_reduce"
  param {
    lr_mult: 1
    decay_mult: 1
  }
  param {
    lr_mult: 2
    decay_mult: 0
  }
  convolution_param {
    num_output: 128
    kernel_size: 1
    weight_filler {
      type: "xavier"
    }
    bias_filler {
      type: "constant"
      value: 0.2
    }
  }
}
layer {
  name: "inception_4c/relu_double3x3_reduce"
  type: "ReLU"
  bottom: "inception_4c/double3x3_reduce"
  top: "inception_4c/double3x3_reduce"
}
layer {
  name: "inception_4c/double3x3_mid"
  type: "Convolution"
  bottom: "inception_4c/double3x3_reduce"
  top: "inception_4c/double3x3_mid"
  param {
    lr_mult: 1
    decay_mult: 1
  }
  param {
    lr_mult: 2
    decay_mult: 0
  }
  convolution_param {
    num_output: 160
    pad: 1
    kernel_size: 3
    weight_filler {
      type: "xavier"
    }
    bias_filler {
      type: "constant"
      value: 0.2
    }
  }
}
layer {
  name: "inception_4c/relu_double3x3_mid"
  type: "ReLU"
  bottom: "inception_4c/double3x3_mid"
  top: "inception_4c/double3x3_mid"
}
layer {
  name: "inception_4c/double3x3"
  type: "Convolution"
  bottom: "inception_4c/double3x3_mid"
  top: "inception_4c/double3x3"
  param {
    lr_mult: 1
    decay_mult: 1
  }
  param {
    lr_mult: 2
    decay_mult: 0
  }
  convolution_param {
    num_output: 160
    pad: 1
    kernel_size: 3
    weight_filler {
      type: "xavier"
    }
    bias_filler {
      type: "constant"
      value: 0.2
    }
  }
}
layer {
  name: "inception_4c/relu_double3x3"
  type: "ReLU"
  bottom: "inception_4c/double3x3"
  top: "inception_4c/double3x3"
}
layer {
  name: "inception_4c/pool"
  type: "Pooling"
  bottom: "inception_4b/output"
  top: "inception_4c/pool"
  pooling_param {
    pool: AVE
    kernel_size: 3
    stride: 1
    pad: 1
  }
}
layer {
  name: "inception_4c/pool_proj"
  type: "Convolution"
  bottom: "inception_4c/pool"
  top: "inception_4c/pool_proj"
  param {
    lr_mult: 1
    decay_mult: 1
  }
  param {
    lr_mult: 2
    decay_mult: 0
  }
  convolution_param {
    num_output: 128
    kernel_size: 1
    weight_filler {
      type: "xavier"
    }
    bias_filler {
      type: "constant"
      value: 0.2
    }
  }
}
layer {
  name: "inception_4c/relu_pool_proj"
  type: "ReLU"
  bottom: "inception_4c/pool_proj"
  top: "inception_4c/pool_proj"
}
layer {
  name: "inception_4c/output"
  type: "Concat"
  bottom: "inception_4c/1x1"
  bottom: "inception_4c/3x3"
  bottom: "inception_4c/double3x3"
  bottom: "inception_4c/pool_proj"
  top: "inception_4c/output"
}
layer {
  name: "inception_4d/1x1"
  type: "Convolution"
  bottom: "inception_4c/output"
  top: "inception_4d/1x1"
  param {
    lr_mult: 1
    decay_mult: 1
  }
  param {
    lr_mult: 2
    decay_mult: 0
  }
  convolution_param {
    num_output: 96
    kernel_size: 1
    weight_filler {
      type: "xavier"
    }
    bias_filler {
      type: "constant"
      value: 0.2
    }
  }
}
layer {
  name: "inception_4d/relu_1x1"
  type: "ReLU"
  bottom: "inception_4d/1x1"
  top: "inception_4d/1x1"
}
layer {
  name: "inception_4d/3x3_reduce"
  type: "Convolution"
  bottom: "inception_4c/output"
  top: "inception_4d/3x3_reduce"
  param {
    lr_mult: 1
    decay_mult: 1
  }
  param {
    lr_mult: 2
    decay_mult: 0
  }
  convolution_param {
    num_output: 128
    kernel_size: 1
    weight_filler {
      type: "xavier"
    }
    bias_filler {
      type: "constant"
      value: 0.2
    }
  }
}
layer {
  name: "inception_4d/relu_3x3_reduce"
  type: "ReLU"
  bottom: "inception_4d/3x3_reduce"
  top: "inception_4d/3x3_reduce"
}
layer {
  name: "inception_4d/3x3"
  type: "Convolution"
  bottom: "inception_4d/3x3_reduce"
  top: "inception_4d/3x3"
  param {
    lr_mult: 1
    decay_mult: 1
  }
  param {
    lr_mult: 2
    decay_mult: 0
  }
  convolution_param {
    num_output: 192
    pad: 1
    kernel_size: 3
    weight_filler {
      type: "xavier"
    }
    bias_filler {
      type: "constant"
      value: 0.2
    }
  }
}
layer {
  name: "inception_4d/relu_3x3"
  type: "ReLU"
  bottom: "inception_4d/3x3"
  top: "inception_4d/3x3"
}
layer {
  name: "inception_4d/double3x3_reduce"
  type: "Convolution"
  bottom: "inception_4c/output"
  top: "inception_4d/double3x3_reduce"
  param {
    l
I0906 12:04:22.770051 88038 layer_factory.hpp:76] Creating layer data
I0906 12:04:22.771106 88038 net.cpp:110] Creating Layer data
I0906 12:04:22.771178 88038 net.cpp:433] data -> data
I0906 12:04:22.771250 88038 net.cpp:433] data -> label
I0906 12:04:22.774703 88042 db_lmdb.cpp:22] Opened lmdb /ssd/ilsvrc2012/ilsvrc12_train_lmdb
I0906 12:04:22.776340 88038 data_layer.cpp:44] output data size: 32,3,224,224
I0906 12:04:22.859733 88038 net.cpp:155] Setting up data
I0906 12:04:22.859977 88038 net.cpp:163] Top shape: 32 3 224 224 (4816896)
I0906 12:04:22.860019 88038 net.cpp:163] Top shape: 32 (32)
I0906 12:04:22.860038 88038 layer_factory.hpp:76] Creating layer label_data_1_split
I0906 12:04:22.860064 88038 net.cpp:110] Creating Layer label_data_1_split
I0906 12:04:22.860076 88038 net.cpp:477] label_data_1_split <- label
I0906 12:04:22.860113 88038 net.cpp:433] label_data_1_split -> label_data_1_split_0
I0906 12:04:22.860136 88038 net.cpp:433] label_data_1_split -> label_data_1_split_1
I0906 12:04:22.860154 88038 net.cpp:433] label_data_1_split -> label_data_1_split_2
I0906 12:04:22.860183 88038 net.cpp:155] Setting up label_data_1_split
I0906 12:04:22.860200 88038 net.cpp:163] Top shape: 32 (32)
I0906 12:04:22.860209 88038 net.cpp:163] Top shape: 32 (32)
I0906 12:04:22.860219 88038 net.cpp:163] Top shape: 32 (32)
I0906 12:04:22.860265 88038 layer_factory.hpp:76] Creating layer conv1/7x7_s2
I0906 12:04:22.860299 88038 net.cpp:110] Creating Layer conv1/7x7_s2
I0906 12:04:22.860311 88038 net.cpp:477] conv1/7x7_s2 <- data
I0906 12:04:22.860324 88038 net.cpp:433] conv1/7x7_s2 -> conv1/7x7_s2
I0906 12:04:22.861805 88038 net.cpp:155] Setting up conv1/7x7_s2
I0906 12:04:22.861835 88038 net.cpp:163] Top shape: 32 64 112 112 (25690112)
I0906 12:04:22.861871 88038 layer_factory.hpp:76] Creating layer conv1/relu_7x7
I0906 12:04:22.861888 88038 net.cpp:110] Creating Layer conv1/relu_7x7
I0906 12:04:22.861896 88038 net.cpp:477] conv1/relu_7x7 <- conv1/7x7_s2
I0906 12:04:22.861907 88038 net.cpp:419] conv1/relu_7x7 -> conv1/7x7_s2 (in-place)
I0906 12:04:22.861923 88038 net.cpp:155] Setting up conv1/relu_7x7
I0906 12:04:22.861933 88038 net.cpp:163] Top shape: 32 64 112 112 (25690112)
I0906 12:04:22.861942 88038 layer_factory.hpp:76] Creating layer pool1/3x3_s2
I0906 12:04:22.861959 88038 net.cpp:110] Creating Layer pool1/3x3_s2
I0906 12:04:22.861986 88038 net.cpp:477] pool1/3x3_s2 <- conv1/7x7_s2
I0906 12:04:22.861999 88038 net.cpp:433] pool1/3x3_s2 -> pool1/3x3_s2
I0906 12:04:22.862040 88038 net.cpp:155] Setting up pool1/3x3_s2
I0906 12:04:22.862054 88038 net.cpp:163] Top shape: 32 64 56 56 (6422528)
I0906 12:04:22.862062 88038 layer_factory.hpp:76] Creating layer pool1/norm1
I0906 12:04:22.862082 88038 net.cpp:110] Creating Layer pool1/norm1
I0906 12:04:22.862089 88038 net.cpp:477] pool1/norm1 <- pool1/3x3_s2
I0906 12:04:22.862100 88038 net.cpp:433] pool1/norm1 -> pool1/norm1
I0906 12:04:22.862123 88038 net.cpp:155] Setting up pool1/norm1
I0906 12:04:22.862141 88038 net.cpp:163] Top shape: 32 64 56 56 (6422528)
I0906 12:04:22.862149 88038 layer_factory.hpp:76] Creating layer conv2/3x3_reduce
I0906 12:04:22.862164 88038 net.cpp:110] Creating Layer conv2/3x3_reduce
I0906 12:04:22.862170 88038 net.cpp:477] conv2/3x3_reduce <- pool1/norm1
I0906 12:04:22.862185 88038 net.cpp:433] conv2/3x3_reduce -> conv2/3x3_reduce
I0906 12:04:22.864610 88038 net.cpp:155] Setting up conv2/3x3_reduce
I0906 12:04:22.864645 88038 net.cpp:163] Top shape: 32 64 56 56 (6422528)
I0906 12:04:22.864667 88038 layer_factory.hpp:76] Creating layer conv2/relu_3x3_reduce
I0906 12:04:22.864686 88038 net.cpp:110] Creating Layer conv2/relu_3x3_reduce
I0906 12:04:22.864694 88038 net.cpp:477] conv2/relu_3x3_reduce <- conv2/3x3_reduce
I0906 12:04:22.864709 88038 net.cpp:419] conv2/relu_3x3_reduce -> conv2/3x3_reduce (in-place)
I0906 12:04:22.864725 88038 net.cpp:155] Setting up conv2/relu_3x3_reduce
I0906 12:04:22.864743 88038 net.cpp:163] Top shape: 32 64 56 56 (6422528)
I0906 12:04:22.864751 88038 layer_factory.hpp:76] Creating layer conv2/3x3
I0906 12:04:22.864768 88038 net.cpp:110] Creating Layer conv2/3x3
I0906 12:04:22.864775 88038 net.cpp:477] conv2/3x3 <- conv2/3x3_reduce
I0906 12:04:22.864787 88038 net.cpp:433] conv2/3x3 -> conv2/3x3
I0906 12:04:22.867596 88038 net.cpp:155] Setting up conv2/3x3
I0906 12:04:22.867624 88038 net.cpp:163] Top shape: 32 192 56 56 (19267584)
I0906 12:04:22.867645 88038 layer_factory.hpp:76] Creating layer conv2/relu_3x3
I0906 12:04:22.867666 88038 net.cpp:110] Creating Layer conv2/relu_3x3
I0906 12:04:22.867686 88038 net.cpp:477] conv2/relu_3x3 <- conv2/3x3
I0906 12:04:22.867697 88038 net.cpp:419] conv2/relu_3x3 -> conv2/3x3 (in-place)
I0906 12:04:22.867712 88038 net.cpp:155] Setting up conv2/relu_3x3
I0906 12:04:22.867722 88038 net.cpp:163] Top shape: 32 192 56 56 (19267584)
I0906 12:04:22.867728 88038 layer_factory.hpp:76] Creating layer conv2/norm2
I0906 12:04:22.867743 88038 net.cpp:110] Creating Layer conv2/norm2
I0906 12:04:22.867750 88038 net.cpp:477] conv2/norm2 <- conv2/3x3
I0906 12:04:22.867760 88038 net.cpp:433] conv2/norm2 -> conv2/norm2
I0906 12:04:22.867776 88038 net.cpp:155] Setting up conv2/norm2
I0906 12:04:22.867784 88038 net.cpp:163] Top shape: 32 192 56 56 (19267584)
I0906 12:04:22.867791 88038 layer_factory.hpp:76] Creating layer pool2/3x3_s2
I0906 12:04:22.867802 88038 net.cpp:110] Creating Layer pool2/3x3_s2
I0906 12:04:22.867844 88038 net.cpp:477] pool2/3x3_s2 <- conv2/norm2
I0906 12:04:22.867856 88038 net.cpp:433] pool2/3x3_s2 -> pool2/3x3_s2
I0906 12:04:22.867873 88038 net.cpp:155] Setting up pool2/3x3_s2
I0906 12:04:22.867894 88038 net.cpp:163] Top shape: 32 192 28 28 (4816896)
I0906 12:04:22.867902 88038 layer_factory.hpp:76] Creating layer pool2/3x3_s2_pool2/3x3_s2_0_split
I0906 12:04:22.867913 88038 net.cpp:110] Creating Layer pool2/3x3_s2_pool2/3x3_s2_0_split
I0906 12:04:22.867919 88038 net.cpp:477] pool2/3x3_s2_pool2/3x3_s2_0_split <- pool2/3x3_s2
I0906 12:04:22.867933 88038 net.cpp:433] pool2/3x3_s2_pool2/3x3_s2_0_split -> pool2/3x3_s2_pool2/3x3_s2_0_split_0
I0906 12:04:22.867945 88038 net.cpp:433] pool2/3x3_s2_pool2/3x3_s2_0_split -> pool2/3x3_s2_pool2/3x3_s2_0_split_1
I0906 12:04:22.867959 88038 net.cpp:433] pool2/3x3_s2_pool2/3x3_s2_0_split -> pool2/3x3_s2_pool2/3x3_s2_0_split_2
I0906 12:04:22.867969 88038 net.cpp:433] pool2/3x3_s2_pool2/3x3_s2_0_split -> pool2/3x3_s2_pool2/3x3_s2_0_split_3
I0906 12:04:22.867983 88038 net.cpp:155] Setting up pool2/3x3_s2_pool2/3x3_s2_0_split
I0906 12:04:22.867992 88038 net.cpp:163] Top shape: 32 192 28 28 (4816896)
I0906 12:04:22.868000 88038 net.cpp:163] Top shape: 32 192 28 28 (4816896)
I0906 12:04:22.868008 88038 net.cpp:163] Top shape: 32 192 28 28 (4816896)
I0906 12:04:22.868016 88038 net.cpp:163] Top shape: 32 192 28 28 (4816896)
I0906 12:04:22.868023 88038 layer_factory.hpp:76] Creating layer inception_3a/1x1
I0906 12:04:22.868037 88038 net.cpp:110] Creating Layer inception_3a/1x1
I0906 12:04:22.868044 88038 net.cpp:477] inception_3a/1x1 <- pool2/3x3_s2_pool2/3x3_s2_0_split_0
I0906 12:04:22.868058 88038 net.cpp:433] inception_3a/1x1 -> inception_3a/1x1
I0906 12:04:22.869313 88038 net.cpp:155] Setting up inception_3a/1x1
I0906 12:04:22.869340 88038 net.cpp:163] Top shape: 32 64 28 28 (1605632)
I0906 12:04:22.869355 88038 layer_factory.hpp:76] Creating layer inception_3a/relu_1x1
I0906 12:04:22.869376 88038 net.cpp:110] Creating Layer inception_3a/relu_1x1
I0906 12:04:22.869385 88038 net.cpp:477] inception_3a/relu_1x1 <- inception_3a/1x1
I0906 12:04:22.869395 88038 net.cpp:419] inception_3a/relu_1x1 -> inception_3a/1x1 (in-place)
I0906 12:04:22.869407 88038 net.cpp:155] Setting up inception_3a/relu_1x1
I0906 12:04:22.869417 88038 net.cpp:163] Top shape: 32 64 28 28 (1605632)
I0906 12:04:22.869423 88038 layer_factory.hpp:76] Creating layer inception_3a/3x3_reduce
I0906 12:04:22.869441 88038 net.cpp:110] Creating Layer inception_3a/3x3_reduce
I0906 12:04:22.869448 88038 net.cpp:477] inception_3a/3x3_reduce <- pool2/3x3_s2_pool2/3x3_s2_0_split_1
I0906 12:04:22.869459 88038 net.cpp:433] inception_3a/3x3_reduce -> inception_3a/3x3_reduce
I0906 12:04:22.869763 88038 net.cpp:155] Setting up inception_3a/3x3_reduce
I0906 12:04:22.869781 88038 net.cpp:163] Top shape: 32 64 28 28 (1605632)
I0906 12:04:22.869801 88038 layer_factory.hpp:76] Creating layer inception_3a/relu_3x3_reduce
I0906 12:04:22.869825 88038 net.cpp:110] Creating Layer inception_3a/relu_3x3_reduce
I0906 12:04:22.869837 88038 net.cpp:477] inception_3a/relu_3x3_reduce <- inception_3a/3x3_reduce
I0906 12:04:22.869848 88038 net.cpp:419] inception_3a/relu_3x3_reduce -> inception_3a/3x3_reduce (in-place)
I0906 12:04:22.869859 88038 net.cpp:155] Setting up inception_3a/relu_3x3_reduce
I0906 12:04:22.869868 88038 net.cpp:163] Top shape: 32 64 28 28 (1605632)
I0906 12:04:22.869875 88038 layer_factory.hpp:76] Creating layer inception_3a/3x3
I0906 12:04:22.869889 88038 net.cpp:110] Creating Layer inception_3a/3x3
I0906 12:04:22.869895 88038 net.cpp:477] inception_3a/3x3 <- inception_3a/3x3_reduce
I0906 12:04:22.869906 88038 net.cpp:433] inception_3a/3x3 -> inception_3a/3x3
I0906 12:04:22.871472 88038 net.cpp:155] Setting up inception_3a/3x3
I0906 12:04:22.871498 88038 net.cpp:163] Top shape: 32 64 28 28 (1605632)
I0906 12:04:22.871513 88038 layer_factory.hpp:76] Creating layer inception_3a/relu_3x3
I0906 12:04:22.871526 88038 net.cpp:110] Creating Layer inception_3a/relu_3x3
I0906 12:04:22.871532 88038 net.cpp:477] inception_3a/relu_3x3 <- inception_3a/3x3
I0906 12:04:22.871568 88038 net.cpp:419] inception_3a/relu_3x3 -> inception_3a/3x3 (in-place)
I0906 12:04:22.871583 88038 net.cpp:155] Setting up inception_3a/relu_3x3
I0906 12:04:22.871598 88038 net.cpp:163] Top shape: 32 64 28 28 (1605632)
I0906 12:04:22.871604 88038 layer_factory.hpp:76] Creating layer inception_3a/double3x3_reduce
I0906 12:04:22.871621 88038 net.cpp:110] Creating Layer inception_3a/double3x3_reduce
I0906 12:04:22.871629 88038 net.cpp:477] inception_3a/double3x3_reduce <- pool2/3x3_s2_pool2/3x3_s2_0_split_2
I0906 12:04:22.871641 88038 net.cpp:433] inception_3a/double3x3_reduce -> inception_3a/double3x3_reduce
I0906 12:04:22.871951 88038 net.cpp:155] Setting up inception_3a/double3x3_reduce
I0906 12:04:22.871970 88038 net.cpp:163] Top shape: 32 64 28 28 (1605632)
I0906 12:04:22.871984 88038 layer_factory.hpp:76] Creating layer inception_3a/relu_double3x3_reduce
I0906 12:04:22.871994 88038 net.cpp:110] Creating Layer inception_3a/relu_double3x3_reduce
I0906 12:04:22.872001 88038 net.cpp:477] inception_3a/relu_double3x3_reduce <- inception_3a/double3x3_reduce
I0906 12:04:22.872015 88038 net.cpp:419] inception_3a/relu_double3x3_reduce -> inception_3a/double3x3_reduce (in-place)
I0906 12:04:22.872027 88038 net.cpp:155] Setting up inception_3a/relu_double3x3_reduce
I0906 12:04:22.872036 88038 net.cpp:163] Top shape: 32 64 28 28 (1605632)
I0906 12:04:22.872042 88038 layer_factory.hpp:76] Creating layer inception_3a/double3x3_mid
I0906 12:04:22.872055 88038 net.cpp:110] Creating Layer inception_3a/double3x3_mid
I0906 12:04:22.872061 88038 net.cpp:477] inception_3a/double3x3_mid <- inception_3a/double3x3_reduce
I0906 12:04:22.872071 88038 net.cpp:433] inception_3a/double3x3_mid -> inception_3a/double3x3_mid
I0906 12:04:22.873026 88038 net.cpp:155] Setting up inception_3a/double3x3_mid
I0906 12:04:22.873044 88038 net.cpp:163] Top shape: 32 96 28 28 (2408448)
I0906 12:04:22.873055 88038 layer_factory.hpp:76] Creating layer inception_3a/relu_double3x3_mid
I0906 12:04:22.873070 88038 net.cpp:110] Creating Layer inception_3a/relu_double3x3_mid
I0906 12:04:22.873077 88038 net.cpp:477] inception_3a/relu_double3x3_mid <- inception_3a/double3x3_mid
I0906 12:04:22.873086 88038 net.cpp:419] inception_3a/relu_double3x3_mid -> inception_3a/double3x3_mid (in-place)
I0906 12:04:22.873097 88038 net.cpp:155] Setting up inception_3a/relu_double3x3_mid
I0906 12:04:22.873106 88038 net.cpp:163] Top shape: 32 96 28 28 (2408448)
I0906 12:04:22.873113 88038 layer_factory.hpp:76] Creating layer inception_3a/double3x3
I0906 12:04:22.873124 88038 net.cpp:110] Creating Layer inception_3a/double3x3
I0906 12:04:22.873131 88038 net.cpp:477] inception_3a/double3x3 <- inception_3a/double3x3_mid
I0906 12:04:22.873142 88038 net.cpp:433] inception_3a/double3x3 -> inception_3a/double3x3
I0906 12:04:22.874572 88038 net.cpp:155] Setting up inception_3a/double3x3
I0906 12:04:22.874588 88038 net.cpp:163] Top shape: 32 96 28 28 (2408448)
I0906 12:04:22.874608 88038 layer_factory.hpp:76] Creating layer inception_3a/relu_double3x3
I0906 12:04:22.874619 88038 net.cpp:110] Creating Layer inception_3a/relu_double3x3
I0906 12:04:22.874626 88038 net.cpp:477] inception_3a/relu_double3x3 <- inception_3a/double3x3
I0906 12:04:22.874636 88038 net.cpp:419] inception_3a/relu_double3x3 -> inception_3a/double3x3 (in-place)
I0906 12:04:22.874647 88038 net.cpp:155] Setting up inception_3a/relu_double3x3
I0906 12:04:22.874656 88038 net.cpp:163] Top shape: 32 96 28 28 (2408448)
I0906 12:04:22.874663 88038 layer_factory.hpp:76] Creating layer inception_3a/pool
I0906 12:04:22.874673 88038 net.cpp:110] Creating Layer inception_3a/pool
I0906 12:04:22.874680 88038 net.cpp:477] inception_3a/pool <- pool2/3x3_s2_pool2/3x3_s2_0_split_3
I0906 12:04:22.874691 88038 net.cpp:433] inception_3a/pool -> inception_3a/pool
I0906 12:04:22.874704 88038 net.cpp:155] Setting up inception_3a/pool
I0906 12:04:22.874714 88038 net.cpp:163] Top shape: 32 192 28 28 (4816896)
I0906 12:04:22.874721 88038 layer_factory.hpp:76] Creating layer inception_3a/pool_proj
I0906 12:04:22.874758 88038 net.cpp:110] Creating Layer inception_3a/pool_proj
I0906 12:04:22.874765 88038 net.cpp:477] inception_3a/pool_proj <- inception_3a/pool
I0906 12:04:22.874778 88038 net.cpp:433] inception_3a/pool_proj -> inception_3a/pool_proj
I0906 12:04:22.874977 88038 net.cpp:155] Setting up inception_3a/pool_proj
I0906 12:04:22.874994 88038 net.cpp:163] Top shape: 32 32 28 28 (802816)
I0906 12:04:22.875007 88038 layer_factory.hpp:76] Creating layer inception_3a/relu_pool_proj
I0906 12:04:22.875018 88038 net.cpp:110] Creating Layer inception_3a/relu_pool_proj
I0906 12:04:22.875025 88038 net.cpp:477] inception_3a/relu_pool_proj <- inception_3a/pool_proj
I0906 12:04:22.875038 88038 net.cpp:419] inception_3a/relu_pool_proj -> inception_3a/pool_proj (in-place)
I0906 12:04:22.875049 88038 net.cpp:155] Setting up inception_3a/relu_pool_proj
I0906 12:04:22.875058 88038 net.cpp:163] Top shape: 32 32 28 28 (802816)
I0906 12:04:22.875066 88038 layer_factory.hpp:76] Creating layer inception_3a/output
I0906 12:04:22.875082 88038 net.cpp:110] Creating Layer inception_3a/output
I0906 12:04:22.875088 88038 net.cpp:477] inception_3a/output <- inception_3a/1x1
I0906 12:04:22.875098 88038 net.cpp:477] inception_3a/output <- inception_3a/3x3
I0906 12:04:22.875108 88038 net.cpp:477] inception_3a/output <- inception_3a/double3x3
I0906 12:04:22.875115 88038 net.cpp:477] inception_3a/output <- inception_3a/pool_proj
I0906 12:04:22.875125 88038 net.cpp:433] inception_3a/output -> inception_3a/output
I0906 12:04:22.875144 88038 net.cpp:155] Setting up inception_3a/output
I0906 12:04:22.875154 88038 net.cpp:163] Top shape: 32 256 28 28 (6422528)
I0906 12:04:22.875161 88038 layer_factory.hpp:76] Creating layer inception_3a/output_inception_3a/output_0_split
I0906 12:04:22.875172 88038 net.cpp:110] Creating Layer inception_3a/output_inception_3a/output_0_split
I0906 12:04:22.875180 88038 net.cpp:477] inception_3a/output_inception_3a/output_0_split <- inception_3a/output
I0906 12:04:22.875190 88038 net.cpp:433] inception_3a/output_inception_3a/output_0_split -> inception_3a/output_inception_3a/output_0_split_0
I0906 12:04:22.875202 88038 net.cpp:433] inception_3a/output_inception_3a/output_0_split -> inception_3a/output_inception_3a/output_0_split_1
I0906 12:04:22.875219 88038 net.cpp:433] inception_3a/output_inception_3a/output_0_split -> inception_3a/output_inception_3a/output_0_split_2
I0906 12:04:22.875231 88038 net.cpp:433] inception_3a/output_inception_3a/output_0_split -> inception_3a/output_inception_3a/output_0_split_3
I0906 12:04:22.875246 88038 net.cpp:155] Setting up inception_3a/output_inception_3a/output_0_split
I0906 12:04:22.875267 88038 net.cpp:163] Top shape: 32 256 28 28 (6422528)
I0906 12:04:22.875275 88038 net.cpp:163] Top shape: 32 256 28 28 (6422528)
I0906 12:04:22.875283 88038 net.cpp:163] Top shape: 32 256 28 28 (6422528)
I0906 12:04:22.875291 88038 net.cpp:163] Top shape: 32 256 28 28 (6422528)
I0906 12:04:22.875298 88038 layer_factory.hpp:76] Creating layer inception_3b/1x1
I0906 12:04:22.875310 88038 net.cpp:110] Creating Layer inception_3b/1x1
I0906 12:04:22.875318 88038 net.cpp:477] inception_3b/1x1 <- inception_3a/output_inception_3a/output_0_split_0
I0906 12:04:22.875329 88038 net.cpp:433] inception_3b/1x1 -> inception_3b/1x1
I0906 12:04:22.875699 88038 net.cpp:155] Setting up inception_3b/1x1
I0906 12:04:22.875716 88038 net.cpp:163] Top shape: 32 64 28 28 (1605632)
I0906 12:04:22.875730 88038 layer_factory.hpp:76] Creating layer inception_3b/relu_1x1
I0906 12:04:22.875740 88038 net.cpp:110] Creating Layer inception_3b/relu_1x1
I0906 12:04:22.875747 88038 net.cpp:477] inception_3b/relu_1x1 <- inception_3b/1x1
I0906 12:04:22.875757 88038 net.cpp:419] inception_3b/relu_1x1 -> inception_3b/1x1 (in-place)
I0906 12:04:22.875768 88038 net.cpp:155] Setting up inception_3b/relu_1x1
I0906 12:04:22.875787 88038 net.cpp:163] Top shape: 32 64 28 28 (1605632)
I0906 12:04:22.875794 88038 layer_factory.hpp:76] Creating layer inception_3b/3x3_reduce
I0906 12:04:22.875813 88038 net.cpp:110] Creating Layer inception_3b/3x3_reduce
I0906 12:04:22.875840 88038 net.cpp:477] inception_3b/3x3_reduce <- inception_3a/output_inception_3a/output_0_split_1
I0906 12:04:22.875857 88038 net.cpp:433] inception_3b/3x3_reduce -> inception_3b/3x3_reduce
I0906 12:04:22.876220 88038 net.cpp:155] Setting up inception_3b/3x3_reduce
I0906 12:04:22.876237 88038 net.cpp:163] Top shape: 32 64 28 28 (1605632)
I0906 12:04:22.876250 88038 layer_factory.hpp:76] Creating layer inception_3b/relu_3x3_reduce
I0906 12:04:22.876265 88038 net.cpp:110] Creating Layer inception_3b/relu_3x3_reduce
I0906 12:04:22.876272 88038 net.cpp:477] inception_3b/relu_3x3_reduce <- inception_3b/3x3_reduce
I0906 12:04:22.876281 88038 net.cpp:419] inception_3b/relu_3x3_reduce -> inception_3b/3x3_reduce (in-place)
I0906 12:04:22.876293 88038 net.cpp:155] Setting up inception_3b/relu_3x3_reduce
I0906 12:04:22.876302 88038 net.cpp:163] Top shape: 32 64 28 28 (1605632)
I0906 12:04:22.876309 88038 layer_factory.hpp:76] Creating layer inception_3b/3x3
I0906 12:04:22.876320 88038 net.cpp:110] Creating Layer inception_3b/3x3
I0906 12:04:22.876327 88038 net.cpp:477] inception_3b/3x3 <- inception_3b/3x3_reduce
I0906 12:04:22.876341 88038 net.cpp:433] inception_3b/3x3 -> inception_3b/3x3
I0906 12:04:22.877310 88038 net.cpp:155] Setting up inception_3b/3x3
I0906 12:04:22.877327 88038 net.cpp:163] Top shape: 32 96 28 28 (2408448)
I0906 12:04:22.877339 88038 layer_factory.hpp:76] Creating layer inception_3b/relu_3x3
I0906 12:04:22.877351 88038 net.cpp:110] Creating Layer inception_3b/relu_3x3
I0906 12:04:22.877357 88038 net.cpp:477] inception_3b/relu_3x3 <- inception_3b/3x3
I0906 12:04:22.877367 88038 net.cpp:419] inception_3b/relu_3x3 -> inception_3b/3x3 (in-place)
I0906 12:04:22.877378 88038 net.cpp:155] Setting up inception_3b/relu_3x3
I0906 12:04:22.877388 88038 net.cpp:163] Top shape: 32 96 28 28 (2408448)
I0906 12:04:22.877393 88038 layer_factory.hpp:76] Creating layer inception_3b/double3x3_reduce
I0906 12:04:22.877409 88038 net.cpp:110] Creating Layer inception_3b/double3x3_reduce
I0906 12:04:22.877415 88038 net.cpp:477] inception_3b/double3x3_reduce <- inception_3a/output_inception_3a/output_0_split_2
I0906 12:04:22.877427 88038 net.cpp:433] inception_3b/double3x3_reduce -> inception_3b/double3x3_reduce
I0906 12:04:22.877800 88038 net.cpp:155] Setting up inception_3b/double3x3_reduce
I0906 12:04:22.877817 88038 net.cpp:163] Top shape: 32 64 28 28 (1605632)
I0906 12:04:22.877830 88038 layer_factory.hpp:76] Creating layer inception_3b/relu_double3x3_reduce
I0906 12:04:22.877843 88038 net.cpp:110] Creating Layer inception_3b/relu_double3x3_reduce
I0906 12:04:22.877851 88038 net.cpp:477] inception_3b/relu_double3x3_reduce <- inception_3b/double3x3_reduce
I0906 12:04:22.877861 88038 net.cpp:419] inception_3b/relu_double3x3_reduce -> inception_3b/double3x3_reduce (in-place)
I0906 12:04:22.877873 88038 net.cpp:155] Setting up inception_3b/relu_double3x3_reduce
I0906 12:04:22.877882 88038 net.cpp:163] Top shape: 32 64 28 28 (1605632)
I0906 12:04:22.877889 88038 layer_factory.hpp:76] Creating layer inception_3b/double3x3_mid
I0906 12:04:22.877902 88038 net.cpp:110] Creating Layer inception_3b/double3x3_mid
I0906 12:04:22.877907 88038 net.cpp:477] inception_3b/double3x3_mid <- inception_3b/double3x3_reduce
I0906 12:04:22.877918 88038 net.cpp:433] inception_3b/double3x3_mid -> inception_3b/double3x3_mid
I0906 12:04:22.878880 88038 net.cpp:155] Setting up inception_3b/double3x3_mid
I0906 12:04:22.878895 88038 net.cpp:163] Top shape: 32 96 28 28 (2408448)
I0906 12:04:22.878908 88038 layer_factory.hpp:76] Creating layer inception_3b/relu_double3x3_mid
I0906 12:04:22.878917 88038 net.cpp:110] Creating Layer inception_3b/relu_double3x3_mid
I0906 12:04:22.878926 88038 net.cpp:477] inception_3b/relu_double3x3_mid <- inception_3b/double3x3_mid
I0906 12:04:22.878934 88038 net.cpp:419] inception_3b/relu_double3x3_mid -> inception_3b/double3x3_mid (in-place)
I0906 12:04:22.878945 88038 net.cpp:155] Setting up inception_3b/relu_double3x3_mid
I0906 12:04:22.878954 88038 net.cpp:163] Top shape: 32 96 28 28 (2408448)
I0906 12:04:22.878978 88038 layer_factory.hpp:76] Creating layer inception_3b/double3x3
I0906 12:04:22.878991 88038 net.cpp:110] Creating Layer inception_3b/double3x3
I0906 12:04:22.878998 88038 net.cpp:477] inception_3b/double3x3 <- inception_3b/double3x3_mid
I0906 12:04:22.879010 88038 net.cpp:433] inception_3b/double3x3 -> inception_3b/double3x3
I0906 12:04:22.881345 88038 net.cpp:155] Setting up inception_3b/double3x3
I0906 12:04:22.881371 88038 net.cpp:163] Top shape: 32 96 28 28 (2408448)
I0906 12:04:22.881387 88038 layer_factory.hpp:76] Creating layer inception_3b/relu_double3x3
I0906 12:04:22.881400 88038 net.cpp:110] Creating Layer inception_3b/relu_double3x3
I0906 12:04:22.881408 88038 net.cpp:477] inception_3b/relu_double3x3 <- inception_3b/double3x3
I0906 12:04:22.881422 88038 net.cpp:419] inception_3b/relu_double3x3 -> inception_3b/double3x3 (in-place)
I0906 12:04:22.881436 88038 net.cpp:155] Setting up inception_3b/relu_double3x3
I0906 12:04:22.881445 88038 net.cpp:163] Top shape: 32 96 28 28 (2408448)
I0906 12:04:22.881453 88038 layer_factory.hpp:76] Creating layer inception_3b/pool
I0906 12:04:22.881464 88038 net.cpp:110] Creating Layer inception_3b/pool
I0906 12:04:22.881470 88038 net.cpp:477] inception_3b/pool <- inception_3a/output_inception_3a/output_0_split_3
I0906 12:04:22.881481 88038 net.cpp:433] inception_3b/pool -> inception_3b/pool
I0906 12:04:22.881496 88038 net.cpp:155] Setting up inception_3b/pool
I0906 12:04:22.881506 88038 net.cpp:163] Top shape: 32 256 28 28 (6422528)
I0906 12:04:22.881512 88038 layer_factory.hpp:76] Creating layer inception_3b/pool_proj
I0906 12:04:22.881525 88038 net.cpp:110] Creating Layer inception_3b/pool_proj
I0906 12:04:22.881532 88038 net.cpp:477] inception_3b/pool_proj <- inception_3b/pool
I0906 12:04:22.881546 88038 net.cpp:433] inception_3b/pool_proj -> inception_3b/pool_proj
I0906 12:04:22.881908 88038 net.cpp:155] Setting up inception_3b/pool_proj
I0906 12:04:22.881924 88038 net.cpp:163] Top shape: 32 64 28 28 (1605632)
I0906 12:04:22.881947 88038 layer_factory.hpp:76] Creating layer inception_3b/relu_pool_proj
I0906 12:04:22.881958 88038 net.cpp:110] Creating Layer inception_3b/relu_pool_proj
I0906 12:04:22.881965 88038 net.cpp:477] inception_3b/relu_pool_proj <- inception_3b/pool_proj
I0906 12:04:22.881978 88038 net.cpp:419] inception_3b/relu_pool_proj -> inception_3b/pool_proj (in-place)
I0906 12:04:22.881991 88038 net.cpp:155] Setting up inception_3b/relu_pool_proj
I0906 12:04:22.882000 88038 net.cpp:163] Top shape: 32 64 28 28 (1605632)
I0906 12:04:22.882006 88038 layer_factory.hpp:76] Creating layer inception_3b/output
I0906 12:04:22.882017 88038 net.cpp:110] Creating Layer inception_3b/output
I0906 12:04:22.882025 88038 net.cpp:477] inception_3b/output <- inception_3b/1x1
I0906 12:04:22.882033 88038 net.cpp:477] inception_3b/output <- inception_3b/3x3
I0906 12:04:22.882041 88038 net.cpp:477] inception_3b/output <- inception_3b/double3x3
I0906 12:04:22.882050 88038 net.cpp:477] inception_3b/output <- inception_3b/pool_proj
I0906 12:04:22.882060 88038 net.cpp:433] inception_3b/output -> inception_3b/output
I0906 12:04:22.882073 88038 net.cpp:155] Setting up inception_3b/output
I0906 12:04:22.882082 88038 net.cpp:163] Top shape: 32 320 28 28 (8028160)
I0906 12:04:22.882088 88038 layer_factory.hpp:76] Creating layer inception_3b/output_inception_3b/output_0_split
I0906 12:04:22.882099 88038 net.cpp:110] Creating Layer inception_3b/output_inception_3b/output_0_split
I0906 12:04:22.882107 88038 net.cpp:477] inception_3b/output_inception_3b/output_0_split <- inception_3b/output
I0906 12:04:22.882117 88038 net.cpp:433] inception_3b/output_inception_3b/output_0_split -> inception_3b/output_inception_3b/output_0_split_0
I0906 12:04:22.882129 88038 net.cpp:433] inception_3b/output_inception_3b/output_0_split -> inception_3b/output_inception_3b/output_0_split_1
I0906 12:04:22.882141 88038 net.cpp:433] inception_3b/output_inception_3b/output_0_split -> inception_3b/output_inception_3b/output_0_split_2
I0906 12:04:22.882155 88038 net.cpp:155] Setting up inception_3b/output_inception_3b/output_0_split
I0906 12:04:22.882190 88038 net.cpp:163] Top shape: 32 320 28 28 (8028160)
I0906 12:04:22.882200 88038 net.cpp:163] Top shape: 32 320 28 28 (8028160)
I0906 12:04:22.882208 88038 net.cpp:163] Top shape: 32 320 28 28 (8028160)
I0906 12:04:22.882215 88038 layer_factory.hpp:76] Creating layer inception_3c/3x3_reduce
I0906 12:04:22.882232 88038 net.cpp:110] Creating Layer inception_3c/3x3_reduce
I0906 12:04:22.882239 88038 net.cpp:477] inception_3c/3x3_reduce <- inception_3b/output_inception_3b/output_0_split_0
I0906 12:04:22.882251 88038 net.cpp:433] inception_3c/3x3_reduce -> inception_3c/3x3_reduce
I0906 12:04:22.883013 88038 net.cpp:155] Setting up inception_3c/3x3_reduce
I0906 12:04:22.883029 88038 net.cpp:163] Top shape: 32 128 28 28 (3211264)
I0906 12:04:22.883043 88038 layer_factory.hpp:76] Creating layer inception_3c/relu_3x3_reduce
I0906 12:04:22.883052 88038 net.cpp:110] Creating Layer inception_3c/relu_3x3_reduce
I0906 12:04:22.883060 88038 net.cpp:477] inception_3c/relu_3x3_reduce <- inception_3c/3x3_reduce
I0906 12:04:22.883074 88038 net.cpp:419] inception_3c/relu_3x3_reduce -> inception_3c/3x3_reduce (in-place)
I0906 12:04:22.883086 88038 net.cpp:155] Setting up inception_3c/relu_3x3_reduce
I0906 12:04:22.883095 88038 net.cpp:163] Top shape: 32 128 28 28 (3211264)
I0906 12:04:22.883102 88038 layer_factory.hpp:76] Creating layer inception_3c/3x3_s2
I0906 12:04:22.883115 88038 net.cpp:110] Creating Layer inception_3c/3x3_s2
I0906 12:04:22.883121 88038 net.cpp:477] inception_3c/3x3_s2 <- inception_3c/3x3_reduce
I0906 12:04:22.883131 88038 net.cpp:433] inception_3c/3x3_s2 -> inception_3c/3x3_s2
I0906 12:04:22.887060 88038 net.cpp:155] Setting up inception_3c/3x3_s2
I0906 12:04:22.887086 88038 net.cpp:163] Top shape: 32 160 14 14 (1003520)
I0906 12:04:22.887101 88038 layer_factory.hpp:76] Creating layer inception_3c/relu_3x3
I0906 12:04:22.887115 88038 net.cpp:110] Creating Layer inception_3c/relu_3x3
I0906 12:04:22.887122 88038 net.cpp:477] inception_3c/relu_3x3 <- inception_3c/3x3_s2
I0906 12:04:22.887133 88038 net.cpp:419] inception_3c/relu_3x3 -> inception_3c/3x3_s2 (in-place)
I0906 12:04:22.887147 88038 net.cpp:155] Setting up inception_3c/relu_3x3
I0906 12:04:22.887156 88038 net.cpp:163] Top shape: 32 160 14 14 (1003520)
I0906 12:04:22.887163 88038 layer_factory.hpp:76] Creating layer inception_3c/double3x3_reduce
I0906 12:04:22.887176 88038 net.cpp:110] Creating Layer inception_3c/double3x3_reduce
I0906 12:04:22.887183 88038 net.cpp:477] inception_3c/double3x3_reduce <- inception_3b/output_inception_3b/output_0_split_1
I0906 12:04:22.887198 88038 net.cpp:433] inception_3c/double3x3_reduce -> inception_3c/double3x3_reduce
I0906 12:04:22.888545 88038 net.cpp:155] Setting up inception_3c/double3x3_reduce
I0906 12:04:22.888571 88038 net.cpp:163] Top shape: 32 64 28 28 (1605632)
I0906 12:04:22.888586 88038 layer_factory.hpp:76] Creating layer inception_3c/relu_double3x3_reduce
I0906 12:04:22.888602 88038 net.cpp:110] Creating Layer inception_3c/relu_double3x3_reduce
I0906 12:04:22.888612 88038 net.cpp:477] inception_3c/relu_double3x3_reduce <- inception_3c/double3x3_reduce
I0906 12:04:22.888622 88038 net.cpp:419] inception_3c/relu_double3x3_reduce -> inception_3c/double3x3_reduce (in-place)
I0906 12:04:22.888635 88038 net.cpp:155] Setting up inception_3c/relu_double3x3_reduce
I0906 12:04:22.888645 88038 net.cpp:163] Top shape: 32 64 28 28 (1605632)
I0906 12:04:22.888653 88038 layer_factory.hpp:76] Creating layer inception_3c/double3x3_mid
I0906 12:04:22.888664 88038 net.cpp:110] Creating Layer inception_3c/double3x3_mid
I0906 12:04:22.888670 88038 net.cpp:477] inception_3c/double3x3_mid <- inception_3c/double3x3_reduce
I0906 12:04:22.888682 88038 net.cpp:433] inception_3c/double3x3_mid -> inception_3c/double3x3_mid
I0906 12:04:22.889650 88038 net.cpp:155] Setting up inception_3c/double3x3_mid
I0906 12:04:22.889667 88038 net.cpp:163] Top shape: 32 96 28 28 (2408448)
I0906 12:04:22.889680 88038 layer_factory.hpp:76] Creating layer inception_3c/relu_double3x3_mid
I0906 12:04:22.889691 88038 net.cpp:110] Creating Layer inception_3c/relu_double3x3_mid
I0906 12:04:22.889719 88038 net.cpp:477] inception_3c/relu_double3x3_mid <- inception_3c/double3x3_mid
I0906 12:04:22.889731 88038 net.cpp:419] inception_3c/relu_double3x3_mid -> inception_3c/double3x3_mid (in-place)
I0906 12:04:22.889744 88038 net.cpp:155] Setting up inception_3c/relu_double3x3_mid
I0906 12:04:22.889753 88038 net.cpp:163] Top shape: 32 96 28 28 (2408448)
I0906 12:04:22.889760 88038 layer_factory.hpp:76] Creating layer inception_3c/double3x3
I0906 12:04:22.889772 88038 net.cpp:110] Creating Layer inception_3c/double3x3
I0906 12:04:22.889778 88038 net.cpp:477] inception_3c/double3x3 <- inception_3c/double3x3_mid
I0906 12:04:22.889789 88038 net.cpp:433] inception_3c/double3x3 -> inception_3c/double3x3_s2
I0906 12:04:22.891196 88038 net.cpp:155] Setting up inception_3c/double3x3
I0906 12:04:22.891213 88038 net.cpp:163] Top shape: 32 96 14 14 (602112)
I0906 12:04:22.891227 88038 layer_factory.hpp:76] Creating layer inception_3c/relu_double3x3
I0906 12:04:22.891237 88038 net.cpp:110] Creating Layer inception_3c/relu_double3x3
I0906 12:04:22.891244 88038 net.cpp:477] inception_3c/relu_double3x3 <- inception_3c/double3x3_s2
I0906 12:04:22.891254 88038 net.cpp:419] inception_3c/relu_double3x3 -> inception_3c/double3x3_s2 (in-place)
I0906 12:04:22.891265 88038 net.cpp:155] Setting up inception_3c/relu_double3x3
I0906 12:04:22.891274 88038 net.cpp:163] Top shape: 32 96 14 14 (602112)
I0906 12:04:22.891281 88038 layer_factory.hpp:76] Creating layer inception_3c/pool
I0906 12:04:22.891293 88038 net.cpp:110] Creating Layer inception_3c/pool
I0906 12:04:22.891299 88038 net.cpp:477] inception_3c/pool <- inception_3b/output_inception_3b/output_0_split_2
I0906 12:04:22.891310 88038 net.cpp:433] inception_3c/pool -> inception_3c/pool
I0906 12:04:22.891326 88038 net.cpp:155] Setting up inception_3c/pool
I0906 12:04:22.891335 88038 net.cpp:163] Top shape: 32 320 14 14 (2007040)
I0906 12:04:22.891341 88038 layer_factory.hpp:76] Creating layer inception_3c/relu_pool
I0906 12:04:22.891355 88038 net.cpp:110] Creating Layer inception_3c/relu_pool
I0906 12:04:22.891361 88038 net.cpp:477] inception_3c/relu_pool <- inception_3c/pool
I0906 12:04:22.891371 88038 net.cpp:419] inception_3c/relu_pool -> inception_3c/pool (in-place)
I0906 12:04:22.891381 88038 net.cpp:155] Setting up inception_3c/relu_pool
I0906 12:04:22.891391 88038 net.cpp:163] Top shape: 32 320 14 14 (2007040)
I0906 12:04:22.891397 88038 layer_factory.hpp:76] Creating layer inception_3c/output
I0906 12:04:22.891408 88038 net.cpp:110] Creating Layer inception_3c/output
I0906 12:04:22.891415 88038 net.cpp:477] inception_3c/output <- inception_3c/3x3_s2
I0906 12:04:22.891424 88038 net.cpp:477] inception_3c/output <- inception_3c/double3x3_s2
I0906 12:04:22.891433 88038 net.cpp:477] inception_3c/output <- inception_3c/pool
I0906 12:04:22.891443 88038 net.cpp:433] inception_3c/output -> inception_3c/output
I0906 12:04:22.891456 88038 net.cpp:155] Setting up inception_3c/output
I0906 12:04:22.891465 88038 net.cpp:163] Top shape: 32 576 14 14 (3612672)
I0906 12:04:22.891472 88038 layer_factory.hpp:76] Creating layer inception_3c/output_inception_3c/output_0_split
I0906 12:04:22.891484 88038 net.cpp:110] Creating Layer inception_3c/output_inception_3c/output_0_split
I0906 12:04:22.891490 88038 net.cpp:477] inception_3c/output_inception_3c/output_0_split <- inception_3c/output
I0906 12:04:22.891501 88038 net.cpp:433] inception_3c/output_inception_3c/output_0_split -> inception_3c/output_inception_3c/output_0_split_0
I0906 12:04:22.891517 88038 net.cpp:433] inception_3c/output_inception_3c/output_0_split -> inception_3c/output_inception_3c/output_0_split_1
I0906 12:04:22.891531 88038 net.cpp:433] inception_3c/output_inception_3c/output_0_split -> inception_3c/output_inception_3c/output_0_split_2
I0906 12:04:22.891562 88038 net.cpp:433] inception_3c/output_inception_3c/output_0_split -> inception_3c/output_inception_3c/output_0_split_3
I0906 12:04:22.891577 88038 net.cpp:155] Setting up inception_3c/output_inception_3c/output_0_split
I0906 12:04:22.891605 88038 net.cpp:163] Top shape: 32 576 14 14 (3612672)
I0906 12:04:22.891615 88038 net.cpp:163] Top shape: 32 576 14 14 (3612672)
I0906 12:04:22.891623 88038 net.cpp:163] Top shape: 32 576 14 14 (3612672)
I0906 12:04:22.891631 88038 net.cpp:163] Top shape: 32 576 14 14 (3612672)
I0906 12:04:22.891638 88038 layer_factory.hpp:76] Creating layer inception_4a/1x1
I0906 12:04:22.891650 88038 net.cpp:110] Creating Layer inception_4a/1x1
I0906 12:04:22.891657 88038 net.cpp:477] inception_4a/1x1 <- inception_3c/output_inception_3c/output_0_split_0
I0906 12:04:22.891680 88038 net.cpp:433] inception_4a/1x1 -> inception_4a/1x1
I0906 12:04:22.894750 88038 net.cpp:155] Setting up inception_4a/1x1
I0906 12:04:22.894775 88038 net.cpp:163] Top shape: 32 224 14 14 (1404928)
I0906 12:04:22.894789 88038 layer_factory.hpp:76] Creating layer inception_4a/relu_1x1
I0906 12:04:22.894801 88038 net.cpp:110] Creating Layer inception_4a/relu_1x1
I0906 12:04:22.894809 88038 net.cpp:477] inception_4a/relu_1x1 <- inception_4a/1x1
I0906 12:04:22.894820 88038 net.cpp:419] inception_4a/relu_1x1 -> inception_4a/1x1 (in-place)
I0906 12:04:22.894834 88038 net.cpp:155] Setting up inception_4a/relu_1x1
I0906 12:04:22.894842 88038 net.cpp:163] Top shape: 32 224 14 14 (1404928)
I0906 12:04:22.894850 88038 layer_factory.hpp:76] Creating layer inception_4a/3x3_reduce
I0906 12:04:22.894865 88038 net.cpp:110] Creating Layer inception_4a/3x3_reduce
I0906 12:04:22.894872 88038 net.cpp:477] inception_4a/3x3_reduce <- inception_3c/output_inception_3c/output_0_split_1
I0906 12:04:22.894884 88038 net.cpp:433] inception_4a/3x3_reduce -> inception_4a/3x3_reduce
I0906 12:04:22.895567 88038 net.cpp:155] Setting up inception_4a/3x3_reduce
I0906 12:04:22.895584 88038 net.cpp:163] Top shape: 32 64 14 14 (401408)
I0906 12:04:22.895597 88038 layer_factory.hpp:76] Creating layer inception_4a/relu_3x3_reduce
I0906 12:04:22.895622 88038 net.cpp:110] Creating Layer inception_4a/relu_3x3_reduce
I0906 12:04:22.895630 88038 net.cpp:477] inception_4a/relu_3x3_reduce <- inception_4a/3x3_reduce
I0906 12:04:22.895640 88038 net.cpp:419] inception_4a/relu_3x3_reduce -> inception_4a/3x3_reduce (in-place)
I0906 12:04:22.895653 88038 net.cpp:155] Setting up inception_4a/relu_3x3_reduce
I0906 12:04:22.895663 88038 net.cpp:163] Top shape: 32 64 14 14 (401408)
I0906 12:04:22.895681 88038 layer_factory.hpp:76] Creating layer inception_4a/3x3
I0906 12:04:22.895694 88038 net.cpp:110] Creating Layer inception_4a/3x3
I0906 12:04:22.895701 88038 net.cpp:477] inception_4a/3x3 <- inception_4a/3x3_reduce
I0906 12:04:22.895715 88038 net.cpp:433] inception_4a/3x3 -> inception_4a/3x3
I0906 12:04:22.896683 88038 net.cpp:155] Setting up inception_4a/3x3
I0906 12:04:22.896700 88038 net.cpp:163] Top shape: 32 96 14 14 (602112)
I0906 12:04:22.896713 88038 layer_factory.hpp:76] Creating layer inception_4a/relu_3x3
I0906 12:04:22.896723 88038 net.cpp:110] Creating Layer inception_4a/relu_3x3
I0906 12:04:22.896730 88038 net.cpp:477] inception_4a/relu_3x3 <- inception_4a/3x3
I0906 12:04:22.896740 88038 net.cpp:419] inception_4a/relu_3x3 -> inception_4a/3x3 (in-place)
I0906 12:04:22.896751 88038 net.cpp:155] Setting up inception_4a/relu_3x3
I0906 12:04:22.896760 88038 net.cpp:163] Top shape: 32 96 14 14 (602112)
I0906 12:04:22.896766 88038 layer_factory.hpp:76] Creating layer inception_4a/double3x3_reduce
I0906 12:04:22.896778 88038 net.cpp:110] Creating Layer inception_4a/double3x3_reduce
I0906 12:04:22.896785 88038 net.cpp:477] inception_4a/double3x3_reduce <- inception_3c/output_inception_3c/output_0_split_2
I0906 12:04:22.896805 88038 net.cpp:433] inception_4a/double3x3_reduce -> inception_4a/double3x3_reduce
I0906 12:04:22.897773 88038 net.cpp:155] Setting up inception_4a/double3x3_reduce
I0906 12:04:22.897790 88038 net.cpp:163] Top shape: 32 96 14 14 (602112)
I0906 12:04:22.897804 88038 layer_factory.hpp:76] Creating layer inception_4a/relu_double3x3_reduce
I0906 12:04:22.897814 88038 net.cpp:110] Creating Layer inception_4a/relu_double3x3_reduce
I0906 12:04:22.897822 88038 net.cpp:477] inception_4a/relu_double3x3_reduce <- inception_4a/double3x3_reduce
I0906 12:04:22.897855 88038 net.cpp:419] inception_4a/relu_double3x3_reduce -> inception_4a/double3x3_reduce (in-place)
I0906 12:04:22.897869 88038 net.cpp:155] Setting up inception_4a/relu_double3x3_reduce
I0906 12:04:22.897879 88038 net.cpp:163] Top shape: 32 96 14 14 (602112)
I0906 12:04:22.897886 88038 layer_factory.hpp:76] Creating layer inception_4a/double3x3_mid
I0906 12:04:22.897897 88038 net.cpp:110] Creating Layer inception_4a/double3x3_mid
I0906 12:04:22.897905 88038 net.cpp:477] inception_4a/double3x3_mid <- inception_4a/double3x3_reduce
I0906 12:04:22.897919 88038 net.cpp:433] inception_4a/double3x3_mid -> inception_4a/double3x3_mid
I0906 12:04:22.899755 88038 net.cpp:155] Setting up inception_4a/double3x3_mid
I0906 12:04:22.899772 88038 net.cpp:163] Top shape: 32 128 14 14 (802816)
I0906 12:04:22.899785 88038 layer_factory.hpp:76] Creating layer inception_4a/relu_double3x3_mid
I0906 12:04:22.899796 88038 net.cpp:110] Creating Layer inception_4a/relu_double3x3_mid
I0906 12:04:22.899803 88038 net.cpp:477] inception_4a/relu_double3x3_mid <- inception_4a/double3x3_mid
I0906 12:04:22.899812 88038 net.cpp:419] inception_4a/relu_double3x3_mid -> inception_4a/double3x3_mid (in-place)
I0906 12:04:22.899824 88038 net.cpp:155] Setting up inception_4a/relu_double3x3_mid
I0906 12:04:22.899832 88038 net.cpp:163] Top shape: 32 128 14 14 (802816)
I0906 12:04:22.899839 88038 layer_factory.hpp:76] Creating layer inception_4a/double3x3
I0906 12:04:22.899850 88038 net.cpp:110] Creating Layer inception_4a/double3x3
I0906 12:04:22.899857 88038 net.cpp:477] inception_4a/double3x3 <- inception_4a/double3x3_mid
I0906 12:04:22.899870 88038 net.cpp:433] inception_4a/double3x3 -> inception_4a/double3x3
I0906 12:04:22.903154 88038 net.cpp:155] Setting up inception_4a/double3x3
I0906 12:04:22.903179 88038 net.cpp:163] Top shape: 32 128 14 14 (802816)
I0906 12:04:22.903193 88038 layer_factory.hpp:76] Creating layer inception_4a/relu_double3x3
I0906 12:04:22.903208 88038 net.cpp:110] Creating Layer inception_4a/relu_double3x3
I0906 12:04:22.903216 88038 net.cpp:477] inception_4a/relu_double3x3 <- inception_4a/double3x3
I0906 12:04:22.903228 88038 net.cpp:419] inception_4a/relu_double3x3 -> inception_4a/double3x3 (in-place)
I0906 12:04:22.903240 88038 net.cpp:155] Setting up inception_4a/relu_double3x3
I0906 12:04:22.903249 88038 net.cpp:163] Top shape: 32 128 14 14 (802816)
I0906 12:04:22.903256 88038 layer_factory.hpp:76] Creating layer inception_4a/pool
I0906 12:04:22.903266 88038 net.cpp:110] Creating Layer inception_4a/pool
I0906 12:04:22.903273 88038 net.cpp:477] inception_4a/pool <- inception_3c/output_inception_3c/output_0_split_3
I0906 12:04:22.903285 88038 net.cpp:433] inception_4a/pool -> inception_4a/pool
I0906 12:04:22.903301 88038 net.cpp:155] Setting up inception_4a/pool
I0906 12:04:22.903309 88038 net.cpp:163] Top shape: 32 576 14 14 (3612672)
I0906 12:04:22.903316 88038 layer_factory.hpp:76] Creating layer inception_4a/pool_proj
I0906 12:04:22.903329 88038 net.cpp:110] Creating Layer inception_4a/pool_proj
I0906 12:04:22.903337 88038 net.cpp:477] inception_4a/pool_proj <- inception_4a/pool
I0906 12:04:22.903350 88038 net.cpp:433] inception_4a/pool_proj -> inception_4a/pool_proj
I0906 12:04:22.904603 88038 net.cpp:155] Setting up inception_4a/pool_proj
I0906 12:04:22.904623 88038 net.cpp:163] Top shape: 32 128 14 14 (802816)
I0906 12:04:22.904635 88038 layer_factory.hpp:76] Creating layer inception_4a/relu_pool_proj
I0906 12:04:22.904646 88038 net.cpp:110] Creating Layer inception_4a/relu_pool_proj
I0906 12:04:22.904654 88038 net.cpp:477] inception_4a/relu_pool_proj <- inception_4a/pool_proj
I0906 12:04:22.904664 88038 net.cpp:419] inception_4a/relu_pool_proj -> inception_4a/pool_proj (in-place)
I0906 12:04:22.904675 88038 net.cpp:155] Setting up inception_4a/relu_pool_proj
I0906 12:04:22.904683 88038 net.cpp:163] Top shape: 32 128 14 14 (802816)
I0906 12:04:22.904690 88038 layer_factory.hpp:76] Creating layer inception_4a/output
I0906 12:04:22.904718 88038 net.cpp:110] Creating Layer inception_4a/output
I0906 12:04:22.904747 88038 net.cpp:477] inception_4a/output <- inception_4a/1x1
I0906 12:04:22.904757 88038 net.cpp:477] inception_4a/output <- inception_4a/3x3
I0906 12:04:22.904765 88038 net.cpp:477] inception_4a/output <- inception_4a/double3x3
I0906 12:04:22.904773 88038 net.cpp:477] inception_4a/output <- inception_4a/pool_proj
I0906 12:04:22.904783 88038 net.cpp:433] inception_4a/output -> inception_4a/output
I0906 12:04:22.904799 88038 net.cpp:155] Setting up inception_4a/output
I0906 12:04:22.904809 88038 net.cpp:163] Top shape: 32 576 14 14 (3612672)
I0906 12:04:22.904816 88038 layer_factory.hpp:76] Creating layer inception_4a/output_inception_4a/output_0_split
I0906 12:04:22.904834 88038 net.cpp:110] Creating Layer inception_4a/output_inception_4a/output_0_split
I0906 12:04:22.904841 88038 net.cpp:477] inception_4a/output_inception_4a/output_0_split <- inception_4a/output
I0906 12:04:22.904853 88038 net.cpp:433] inception_4a/output_inception_4a/output_0_split -> inception_4a/output_inception_4a/output_0_split_0
I0906 12:04:22.904866 88038 net.cpp:433] inception_4a/output_inception_4a/output_0_split -> inception_4a/output_inception_4a/output_0_split_1
I0906 12:04:22.904881 88038 net.cpp:433] inception_4a/output_inception_4a/output_0_split -> inception_4a/output_inception_4a/output_0_split_2
I0906 12:04:22.904892 88038 net.cpp:433] inception_4a/output_inception_4a/output_0_split -> inception_4a/output_inception_4a/output_0_split_3
I0906 12:04:22.904920 88038 net.cpp:433] inception_4a/output_inception_4a/output_0_split -> inception_4a/output_inception_4a/output_0_split_4
I0906 12:04:22.904942 88038 net.cpp:155] Setting up inception_4a/output_inception_4a/output_0_split
I0906 12:04:22.904953 88038 net.cpp:163] Top shape: 32 576 14 14 (3612672)
I0906 12:04:22.904961 88038 net.cpp:163] Top shape: 32 576 14 14 (3612672)
I0906 12:04:22.904970 88038 net.cpp:163] Top shape: 32 576 14 14 (3612672)
I0906 12:04:22.904979 88038 net.cpp:163] Top shape: 32 576 14 14 (3612672)
I0906 12:04:22.904989 88038 net.cpp:163] Top shape: 32 576 14 14 (3612672)
I0906 12:04:22.904994 88038 layer_factory.hpp:76] Creating layer loss1/ave_pool
I0906 12:04:22.905005 88038 net.cpp:110] Creating Layer loss1/ave_pool
I0906 12:04:22.905012 88038 net.cpp:477] loss1/ave_pool <- inception_4a/output_inception_4a/output_0_split_0
I0906 12:04:22.905024 88038 net.cpp:433] loss1/ave_pool -> loss1/ave_pool
I0906 12:04:22.905037 88038 net.cpp:155] Setting up loss1/ave_pool
I0906 12:04:22.905046 88038 net.cpp:163] Top shape: 32 576 4 4 (294912)
I0906 12:04:22.905052 88038 layer_factory.hpp:76] Creating layer loss1/conv
I0906 12:04:22.905066 88038 net.cpp:110] Creating Layer loss1/conv
I0906 12:04:22.905072 88038 net.cpp:477] loss1/conv <- loss1/ave_pool
I0906 12:04:22.905086 88038 net.cpp:433] loss1/conv -> loss1/conv
I0906 12:04:22.906357 88038 net.cpp:155] Setting up loss1/conv
I0906 12:04:22.906374 88038 net.cpp:163] Top shape: 32 128 4 4 (65536)
I0906 12:04:22.906388 88038 layer_factory.hpp:76] Creating layer loss1/relu_conv
I0906 12:04:22.906397 88038 net.cpp:110] Creating Layer loss1/relu_conv
I0906 12:04:22.906405 88038 net.cpp:477] loss1/relu_conv <- loss1/conv
I0906 12:04:22.906414 88038 net.cpp:419] loss1/relu_conv -> loss1/conv (in-place)
I0906 12:04:22.906426 88038 net.cpp:155] Setting up loss1/relu_conv
I0906 12:04:22.906435 88038 net.cpp:163] Top shape: 32 128 4 4 (65536)
I0906 12:04:22.906441 88038 layer_factory.hpp:76] Creating layer loss1/fc
I0906 12:04:22.906461 88038 net.cpp:110] Creating Layer loss1/fc
I0906 12:04:22.906468 88038 net.cpp:477] loss1/fc <- loss1/conv
I0906 12:04:22.906482 88038 net.cpp:433] loss1/fc -> loss1/fc
I0906 12:04:22.945194 88038 net.cpp:155] Setting up loss1/fc
I0906 12:04:22.945236 88038 net.cpp:163] Top shape: 32 1024 (32768)
I0906 12:04:22.945255 88038 layer_factory.hpp:76] Creating layer loss1/relu_fc
I0906 12:04:22.945272 88038 net.cpp:110] Creating Layer loss1/relu_fc
I0906 12:04:22.945283 88038 net.cpp:477] loss1/relu_fc <- loss1/fc
I0906 12:04:22.945297 88038 net.cpp:419] loss1/relu_fc -> loss1/fc (in-place)
I0906 12:04:22.945345 88038 net.cpp:155] Setting up loss1/relu_fc
I0906 12:04:22.945356 88038 net.cpp:163] Top shape: 32 1024 (32768)
I0906 12:04:22.945364 88038 layer_factory.hpp:76] Creating layer loss1/drop_fc
I0906 12:04:22.945389 88038 net.cpp:110] Creating Layer loss1/drop_fc
I0906 12:04:22.945411 88038 net.cpp:477] loss1/drop_fc <- loss1/fc
I0906 12:04:22.945422 88038 net.cpp:419] loss1/drop_fc -> loss1/fc (in-place)
I0906 12:04:22.945451 88038 net.cpp:155] Setting up loss1/drop_fc
I0906 12:04:22.945464 88038 net.cpp:163] Top shape: 32 1024 (32768)
I0906 12:04:22.945472 88038 layer_factory.hpp:76] Creating layer loss1/classifier
I0906 12:04:22.945487 88038 net.cpp:110] Creating Layer loss1/classifier
I0906 12:04:22.945494 88038 net.cpp:477] loss1/classifier <- loss1/fc
I0906 12:04:22.945508 88038 net.cpp:433] loss1/classifier -> loss1/classifier
I0906 12:04:22.964714 88038 net.cpp:155] Setting up loss1/classifier
I0906 12:04:22.964741 88038 net.cpp:163] Top shape: 32 1000 (32000)
I0906 12:04:22.964756 88038 layer_factory.hpp:76] Creating layer loss1/loss
I0906 12:04:22.964776 88038 net.cpp:110] Creating Layer loss1/loss
I0906 12:04:22.964784 88038 net.cpp:477] loss1/loss <- loss1/classifier
I0906 12:04:22.964794 88038 net.cpp:477] loss1/loss <- label_data_1_split_0
I0906 12:04:22.964807 88038 net.cpp:433] loss1/loss -> loss1/loss1
I0906 12:04:22.964833 88038 layer_factory.hpp:76] Creating layer loss1/loss
I0906 12:04:22.965016 88038 net.cpp:155] Setting up loss1/loss
I0906 12:04:22.965034 88038 net.cpp:163] Top shape: (1)
I0906 12:04:22.965041 88038 net.cpp:168]     with loss weight 0.3
I0906 12:04:22.965085 88038 layer_factory.hpp:76] Creating layer inception_4b/1x1
I0906 12:04:22.965104 88038 net.cpp:110] Creating Layer inception_4b/1x1
I0906 12:04:22.965113 88038 net.cpp:477] inception_4b/1x1 <- inception_4a/output_inception_4a/output_0_split_1
I0906 12:04:22.965126 88038 net.cpp:433] inception_4b/1x1 -> inception_4b/1x1
I0906 12:04:22.967944 88038 net.cpp:155] Setting up inception_4b/1x1
I0906 12:04:22.967972 88038 net.cpp:163] Top shape: 32 192 14 14 (1204224)
I0906 12:04:22.968014 88038 layer_factory.hpp:76] Creating layer inception_4b/relu_1x1
I0906 12:04:22.968027 88038 net.cpp:110] Creating Layer inception_4b/relu_1x1
I0906 12:04:22.968035 88038 net.cpp:477] inception_4b/relu_1x1 <- inception_4b/1x1
I0906 12:04:22.968047 88038 net.cpp:419] inception_4b/relu_1x1 -> inception_4b/1x1 (in-place)
I0906 12:04:22.968061 88038 net.cpp:155] Setting up inception_4b/relu_1x1
I0906 12:04:22.968071 88038 net.cpp:163] Top shape: 32 192 14 14 (1204224)
I0906 12:04:22.968078 88038 layer_factory.hpp:76] Creating layer inception_4b/3x3_reduce
I0906 12:04:22.968091 88038 net.cpp:110] Creating Layer inception_4b/3x3_reduce
I0906 12:04:22.968099 88038 net.cpp:477] inception_4b/3x3_reduce <- inception_4a/output_inception_4a/output_0_split_2
I0906 12:04:22.968116 88038 net.cpp:433] inception_4b/3x3_reduce -> inception_4b/3x3_reduce
I0906 12:04:22.970039 88038 net.cpp:155] Setting up inception_4b/3x3_reduce
I0906 12:04:22.970067 88038 net.cpp:163] Top shape: 32 96 14 14 (602112)
I0906 12:04:22.970082 88038 layer_factory.hpp:76] Creating layer inception_4b/relu_3x3_reduce
I0906 12:04:22.970095 88038 net.cpp:110] Creating Layer inception_4b/relu_3x3_reduce
I0906 12:04:22.970104 88038 net.cpp:477] inception_4b/relu_3x3_reduce <- inception_4b/3x3_reduce
I0906 12:04:22.970118 88038 net.cpp:419] inception_4b/relu_3x3_reduce -> inception_4b/3x3_reduce (in-place)
I0906 12:04:22.970134 88038 net.cpp:155] Setting up inception_4b/relu_3x3_reduce
I0906 12:04:22.970144 88038 net.cpp:163] Top shape: 32 96 14 14 (602112)
I0906 12:04:22.970149 88038 layer_factory.hpp:76] Creating layer inception_4b/3x3
I0906 12:04:22.970162 88038 net.cpp:110] Creating Layer inception_4b/3x3
I0906 12:04:22.970170 88038 net.cpp:477] inception_4b/3x3 <- inception_4b/3x3_reduce
I0906 12:04:22.970180 88038 net.cpp:433] inception_4b/3x3 -> inception_4b/3x3
I0906 12:04:22.972025 88038 net.cpp:155] Setting up inception_4b/3x3
I0906 12:04:22.972069 88038 net.cpp:163] Top shape: 32 128 14 14 (802816)
I0906 12:04:22.972084 88038 layer_factory.hpp:76] Creating layer inception_4b/relu_3x3
I0906 12:04:22.972097 88038 net.cpp:110] Creating Layer inception_4b/relu_3x3
I0906 12:04:22.972105 88038 net.cpp:477] inception_4b/relu_3x3 <- inception_4b/3x3
I0906 12:04:22.972116 88038 net.cpp:419] inception_4b/relu_3x3 -> inception_4b/3x3 (in-place)
I0906 12:04:22.972129 88038 net.cpp:155] Setting up inception_4b/relu_3x3
I0906 12:04:22.972138 88038 net.cpp:163] Top shape: 32 128 14 14 (802816)
I0906 12:04:22.972146 88038 layer_factory.hpp:76] Creating layer inception_4b/double3x3_reduce
I0906 12:04:22.972160 88038 net.cpp:110] Creating Layer inception_4b/double3x3_reduce
I0906 12:04:22.972167 88038 net.cpp:477] inception_4b/double3x3_reduce <- inception_4a/output_inception_4a/output_0_split_3
I0906 12:04:22.972179 88038 net.cpp:433] inception_4b/double3x3_reduce -> inception_4b/double3x3_reduce
I0906 12:04:22.973160 88038 net.cpp:155] Setting up inception_4b/double3x3_reduce
I0906 12:04:22.973178 88038 net.cpp:163] Top shape: 32 96 14 14 (602112)
I0906 12:04:22.973191 88038 layer_factory.hpp:76] Creating layer inception_4b/relu_double3x3_reduce
I0906 12:04:22.973201 88038 net.cpp:110] Creating Layer inception_4b/relu_double3x3_reduce
I0906 12:04:22.973209 88038 net.cpp:477] inception_4b/relu_double3x3_reduce <- inception_4b/double3x3_reduce
I0906 12:04:22.973219 88038 net.cpp:419] inception_4b/relu_double3x3_reduce -> inception_4b/double3x3_reduce (in-place)
I0906 12:04:22.973232 88038 net.cpp:155] Setting up inception_4b/relu_double3x3_reduce
I0906 12:04:22.973240 88038 net.cpp:163] Top shape: 32 96 14 14 (602112)
I0906 12:04:22.973248 88038 layer_factory.hpp:76] Creating layer inception_4b/double3x3_mid
I0906 12:04:22.973260 88038 net.cpp:110] Creating Layer inception_4b/double3x3_mid
I0906 12:04:22.973266 88038 net.cpp:477] inception_4b/double3x3_mid <- inception_4b/double3x3_reduce
I0906 12:04:22.973278 88038 net.cpp:433] inception_4b/double3x3_mid -> inception_4b/double3x3_mid
I0906 12:04:22.976042 88038 net.cpp:155] Setting up inception_4b/double3x3_mid
I0906 12:04:22.976069 88038 net.cpp:163] Top shape: 32 128 14 14 (802816)
I0906 12:04:22.976083 88038 layer_factory.hpp:76] Creating layer inception_4b/relu_double3x3_mid
I0906 12:04:22.976097 88038 net.cpp:110] Creating Layer inception_4b/relu_double3x3_mid
I0906 12:04:22.976105 88038 net.cpp:477] inception_4b/relu_double3x3_mid <- inception_4b/double3x3_mid
I0906 12:04:22.976116 88038 net.cpp:419] inception_4b/relu_double3x3_mid -> inception_4b/double3x3_mid (in-place)
I0906 12:04:22.976130 88038 net.cpp:155] Setting up inception_4b/relu_double3x3_mid
I0906 12:04:22.976138 88038 net.cpp:163] Top shape: 32 128 14 14 (802816)
I0906 12:04:22.976145 88038 layer_factory.hpp:76] Creating layer inception_4b/double3x3
I0906 12:04:22.976162 88038 net.cpp:110] Creating Layer inception_4b/double3x3
I0906 12:04:22.976169 88038 net.cpp:477] inception_4b/double3x3 <- inception_4b/double3x3_mid
I0906 12:04:22.976181 88038 net.cpp:433] inception_4b/double3x3 -> inception_4b/double3x3
I0906 12:04:22.978590 88038 net.cpp:155] Setting up inception_4b/double3x3
I0906 12:04:22.978610 88038 net.cpp:163] Top shape: 32 128 14 14 (802816)
I0906 12:04:22.978622 88038 layer_factory.hpp:76] Creating layer inception_4b/relu_double3x3
I0906 12:04:22.978633 88038 net.cpp:110] Creating Layer inception_4b/relu_double3x3
I0906 12:04:22.978641 88038 net.cpp:477] inception_4b/relu_double3x3 <- inception_4b/double3x3
I0906 12:04:22.978651 88038 net.cpp:419] inception_4b/relu_double3x3 -> inception_4b/double3x3 (in-place)
I0906 12:04:22.978662 88038 net.cpp:155] Setting up inception_4b/relu_double3x3
I0906 12:04:22.978672 88038 net.cpp:163] Top shape: 32 128 14 14 (802816)
I0906 12:04:22.978677 88038 layer_factory.hpp:76] Creating layer inception_4b/pool
I0906 12:04:22.978693 88038 net.cpp:110] Creating Layer inception_4b/pool
I0906 12:04:22.978701 88038 net.cpp:477] inception_4b/pool <- inception_4a/output_inception_4a/output_0_split_4
I0906 12:04:22.978735 88038 net.cpp:433] inception_4b/pool -> inception_4b/pool
I0906 12:04:22.978754 88038 net.cpp:155] Setting up inception_4b/pool
I0906 12:04:22.978763 88038 net.cpp:163] Top shape: 32 576 14 14 (3612672)
I0906 12:04:22.978771 88038 layer_factory.hpp:76] Creating layer inception_4b/pool_proj
I0906 12:04:22.978783 88038 net.cpp:110] Creating Layer inception_4b/pool_proj
I0906 12:04:22.978791 88038 net.cpp:477] inception_4b/pool_proj <- inception_4b/pool
I0906 12:04:22.978801 88038 net.cpp:433] inception_4b/pool_proj -> inception_4b/pool_proj
I0906 12:04:22.980109 88038 net.cpp:155] Setting up inception_4b/pool_proj
I0906 12:04:22.980129 88038 net.cpp:163] Top shape: 32 128 14 14 (802816)
I0906 12:04:22.980142 88038 layer_factory.hpp:76] Creating layer inception_4b/relu_pool_proj
I0906 12:04:22.980156 88038 net.cpp:110] Creating Layer inception_4b/relu_pool_proj
I0906 12:04:22.980165 88038 net.cpp:477] inception_4b/relu_pool_proj <- inception_4b/pool_proj
I0906 12:04:22.980175 88038 net.cpp:419] inception_4b/relu_pool_proj -> inception_4b/pool_proj (in-place)
I0906 12:04:22.980186 88038 net.cpp:155] Setting up inception_4b/relu_pool_proj
I0906 12:04:22.980195 88038 net.cpp:163] Top shape: 32 128 14 14 (802816)
I0906 12:04:22.980201 88038 layer_factory.hpp:76] Creating layer inception_4b/output
I0906 12:04:22.980212 88038 net.cpp:110] Creating Layer inception_4b/output
I0906 12:04:22.980221 88038 net.cpp:477] inception_4b/output <- inception_4b/1x1
I0906 12:04:22.980229 88038 net.cpp:477] inception_4b/output <- inception_4b/3x3
I0906 12:04:22.980237 88038 net.cpp:477] inception_4b/output <- inception_4b/double3x3
I0906 12:04:22.980245 88038 net.cpp:477] inception_4b/output <- inception_4b/pool_proj
I0906 12:04:22.980255 88038 net.cpp:433] inception_4b/output -> inception_4b/output
I0906 12:04:22.980271 88038 net.cpp:155] Setting up inception_4b/output
I0906 12:04:22.980281 88038 net.cpp:163] Top shape: 32 576 14 14 (3612672)
I0906 12:04:22.980288 88038 layer_factory.hpp:76] Creating layer inception_4b/output_inception_4b/output_0_split
I0906 12:04:22.980299 88038 net.cpp:110] Creating Layer inception_4b/output_inception_4b/output_0_split
I0906 12:04:22.980306 88038 net.cpp:477] inception_4b/output_inception_4b/output_0_split <- inception_4b/output
I0906 12:04:22.980317 88038 net.cpp:433] inception_4b/output_inception_4b/output_0_split -> inception_4b/output_inception_4b/output_0_split_0
I0906 12:04:22.980334 88038 net.cpp:433] inception_4b/output_inception_4b/output_0_split -> inception_4b/output_inception_4b/output_0_split_1
I0906 12:04:22.980348 88038 net.cpp:433] inception_4b/output_inception_4b/output_0_split -> inception_4b/output_inception_4b/output_0_split_2
I0906 12:04:22.980360 88038 net.cpp:433] inception_4b/output_inception_4b/output_0_split -> inception_4b/output_inception_4b/output_0_split_3
I0906 12:04:22.980375 88038 net.cpp:155] Setting up inception_4b/output_inception_4b/output_0_split
I0906 12:04:22.980383 88038 net.cpp:163] Top shape: 32 576 14 14 (3612672)
I0906 12:04:22.980391 88038 net.cpp:163] Top shape: 32 576 14 14 (3612672)
I0906 12:04:22.980399 88038 net.cpp:163] Top shape: 32 576 14 14 (3612672)
I0906 12:04:22.980407 88038 net.cpp:163] Top shape: 32 576 14 14 (3612672)
I0906 12:04:22.980414 88038 layer_factory.hpp:76] Creating layer inception_4c/1x1
I0906 12:04:22.980434 88038 net.cpp:110] Creating Layer inception_4c/1x1
I0906 12:04:22.980443 88038 net.cpp:477] inception_4c/1x1 <- inception_4b/output_inception_4b/output_0_split_0
I0906 12:04:22.980453 88038 net.cpp:433] inception_4c/1x1 -> inception_4c/1x1
I0906 12:04:22.982941 88038 net.cpp:155] Setting up inception_4c/1x1
I0906 12:04:22.982967 88038 net.cpp:163] Top shape: 32 160 14 14 (1003520)
I0906 12:04:22.982982 88038 layer_factory.hpp:76] Creating layer inception_4c/relu_1x1
I0906 12:04:22.982995 88038 net.cpp:110] Creating Layer inception_4c/relu_1x1
I0906 12:04:22.983002 88038 net.cpp:477] inception_4c/relu_1x1 <- inception_4c/1x1
I0906 12:04:22.983012 88038 net.cpp:419] inception_4c/relu_1x1 -> inception_4c/1x1 (in-place)
I0906 12:04:22.983049 88038 net.cpp:155] Setting up inception_4c/relu_1x1
I0906 12:04:22.983060 88038 net.cpp:163] Top shape: 32 160 14 14 (1003520)
I0906 12:04:22.983067 88038 layer_factory.hpp:76] Creating layer inception_4c/3x3_reduce
I0906 12:04:22.983083 88038 net.cpp:110] Creating Layer inception_4c/3x3_reduce
I0906 12:04:22.983091 88038 net.cpp:477] inception_4c/3x3_reduce <- inception_4b/output_inception_4b/output_0_split_1
I0906 12:04:22.983103 88038 net.cpp:433] inception_4c/3x3_reduce -> inception_4c/3x3_reduce
I0906 12:04:22.984365 88038 net.cpp:155] Setting up inception_4c/3x3_reduce
I0906 12:04:22.984385 88038 net.cpp:163] Top shape: 32 128 14 14 (802816)
I0906 12:04:22.984397 88038 layer_factory.hpp:76] Creating layer inception_4c/relu_3x3_reduce
I0906 12:04:22.984408 88038 net.cpp:110] Creating Layer inception_4c/relu_3x3_reduce
I0906 12:04:22.984416 88038 net.cpp:477] inception_4c/relu_3x3_reduce <- inception_4c/3x3_reduce
I0906 12:04:22.984426 88038 net.cpp:419] inception_4c/relu_3x3_reduce -> inception_4c/3x3_reduce (in-place)
I0906 12:04:22.984438 88038 net.cpp:155] Setting up inception_4c/relu_3x3_reduce
I0906 12:04:22.984447 88038 net.cpp:163] Top shape: 32 128 14 14 (802816)
I0906 12:04:22.984454 88038 layer_factory.hpp:76] Creating layer inception_4c/3x3
I0906 12:04:22.984469 88038 net.cpp:110] Creating Layer inception_4c/3x3
I0906 12:04:22.984477 88038 net.cpp:477] inception_4c/3x3 <- inception_4c/3x3_reduce
I0906 12:04:22.984488 88038 net.cpp:433] inception_4c/3x3 -> inception_4c/3x3
I0906 12:04:22.988441 88038 net.cpp:155] Setting up inception_4c/3x3
I0906 12:04:22.988469 88038 net.cpp:163] Top shape: 32 160 14 14 (1003520)
I0906 12:04:22.988484 88038 layer_factory.hpp:76] Creating layer inception_4c/relu_3x3
I0906 12:04:22.988497 88038 net.cpp:110] Creating Layer inception_4c/relu_3x3
I0906 12:04:22.988504 88038 net.cpp:477] inception_4c/relu_3x3 <- inception_4c/3x3
I0906 12:04:22.988515 88038 net.cpp:419] inception_4c/relu_3x3 -> inception_4c/3x3 (in-place)
I0906 12:04:22.988529 88038 net.cpp:155] Setting up inception_4c/relu_3x3
I0906 12:04:22.988538 88038 net.cpp:163] Top shape: 32 160 14 14 (1003520)
I0906 12:04:22.988545 88038 layer_factory.hpp:76] Creating layer inception_4c/double3x3_reduce
I0906 12:04:22.988559 88038 net.cpp:110] Creating Layer inception_4c/double3x3_reduce
I0906 12:04:22.988565 88038 net.cpp:477] inception_4c/double3x3_reduce <- inception_4b/output_inception_4b/output_0_split_2
I0906 12:04:22.988581 88038 net.cpp:433] inception_4c/double3x3_reduce -> inception_4c/double3x3_reduce
I0906 12:04:22.989858 88038 net.cpp:155] Setting up inception_4c/double3x3_reduce
I0906 12:04:22.989877 88038 net.cpp:163] Top shape: 32 128 14 14 (802816)
I0906 12:04:22.989889 88038 layer_factory.hpp:76] Creating layer inception_4c/relu_double3x3_reduce
I0906 12:04:22.989900 88038 net.cpp:110] Creating Layer inception_4c/relu_double3x3_reduce
I0906 12:04:22.989908 88038 net.cpp:477] inception_4c/relu_double3x3_reduce <- inception_4c/double3x3_reduce
I0906 12:04:22.989918 88038 net.cpp:419] inception_4c/relu_double3x3_reduce -> inception_4c/double3x3_reduce (in-place)
I0906 12:04:22.989930 88038 net.cpp:155] Setting up inception_4c/relu_double3x3_reduce
I0906 12:04:22.989939 88038 net.cpp:163] Top shape: 32 128 14 14 (802816)
I0906 12:04:22.989945 88038 layer_factory.hpp:76] Creating layer inception_4c/double3x3_mid
I0906 12:04:22.989959 88038 net.cpp:110] Creating Layer inception_4c/double3x3_mid
I0906 12:04:22.989964 88038 net.cpp:477] inception_4c/double3x3_mid <- inception_4c/double3x3_reduce
I0906 12:04:22.989979 88038 net.cpp:433] inception_4c/double3x3_mid -> inception_4c/double3x3_mid
I0906 12:04:22.993940 88038 net.cpp:155] Setting up inception_4c/double3x3_mid
I0906 12:04:22.993968 88038 net.cpp:163] Top shape: 32 160 14 14 (1003520)
I0906 12:04:22.993983 88038 layer_factory.hpp:76] Creating layer inception_4c/relu_double3x3_mid
I0906 12:04:22.993994 88038 net.cpp:110] Creating Layer inception_4c/relu_double3x3_mid
I0906 12:04:22.994002 88038 net.cpp:477] inception_4c/relu_double3x3_mid <- inception_4c/double3x3_mid
I0906 12:04:22.994040 88038 net.cpp:419] inception_4c/relu_double3x3_mid -> inception_4c/double3x3_mid (in-place)
I0906 12:04:22.994056 88038 net.cpp:155] Setting up inception_4c/relu_double3x3_mid
I0906 12:04:22.994066 88038 net.cpp:163] Top shape: 32 160 14 14 (1003520)
I0906 12:04:22.994074 88038 layer_factory.hpp:76] Creating layer inception_4c/double3x3
I0906 12:04:22.994087 88038 net.cpp:110] Creating Layer inception_4c/double3x3
I0906 12:04:22.994094 88038 net.cpp:477] inception_4c/double3x3 <- inception_4c/double3x3_mid
I0906 12:04:22.994105 88038 net.cpp:433] inception_4c/double3x3 -> inception_4c/double3x3
I0906 12:04:22.998778 88038 net.cpp:155] Setting up inception_4c/double3x3
I0906 12:04:22.998805 88038 net.cpp:163] Top shape: 32 160 14 14 (1003520)
I0906 12:04:22.998821 88038 layer_factory.hpp:76] Creating layer inception_4c/relu_double3x3
I0906 12:04:22.998834 88038 net.cpp:110] Creating Layer inception_4c/relu_double3x3
I0906 12:04:22.998842 88038 net.cpp:477] inception_4c/relu_double3x3 <- inception_4c/double3x3
I0906 12:04:22.998853 88038 net.cpp:419] inception_4c/relu_double3x3 -> inception_4c/double3x3 (in-place)
I0906 12:04:22.998867 88038 net.cpp:155] Setting up inception_4c/relu_double3x3
I0906 12:04:22.998875 88038 net.cpp:163] Top shape: 32 160 14 14 (1003520)
I0906 12:04:22.998883 88038 layer_factory.hpp:76] Creating layer inception_4c/pool
I0906 12:04:22.998893 88038 net.cpp:110] Creating Layer inception_4c/pool
I0906 12:04:22.998901 88038 net.cpp:477] inception_4c/pool <- inception_4b/output_inception_4b/output_0_split_3
I0906 12:04:22.998916 88038 net.cpp:433] inception_4c/pool -> inception_4c/pool
I0906 12:04:22.998932 88038 net.cpp:155] Setting up inception_4c/pool
I0906 12:04:22.998942 88038 net.cpp:163] Top shape: 32 576 14 14 (3612672)
I0906 12:04:22.998950 88038 layer_factory.hpp:76] Creating layer inception_4c/pool_proj
I0906 12:04:22.998963 88038 net.cpp:110] Creating Layer inception_4c/pool_proj
I0906 12:04:22.998970 88038 net.cpp:477] inception_4c/pool_proj <- inception_4c/pool
I0906 12:04:22.998981 88038 net.cpp:433] inception_4c/pool_proj -> inception_4c/pool_proj
I0906 12:04:23.000272 88038 net.cpp:155] Setting up inception_4c/pool_proj
I0906 12:04:23.000293 88038 net.cpp:163] Top shape: 32 128 14 14 (802816)
I0906 12:04:23.000308 88038 layer_factory.hpp:76] Creating layer inception_4c/relu_pool_proj
I0906 12:04:23.000321 88038 net.cpp:110] Creating Layer inception_4c/relu_pool_proj
I0906 12:04:23.000329 88038 net.cpp:477] inception_4c/relu_pool_proj <- inception_4c/pool_proj
I0906 12:04:23.000339 88038 net.cpp:419] inception_4c/relu_pool_proj -> inception_4c/pool_proj (in-place)
I0906 12:04:23.000351 88038 net.cpp:155] Setting up inception_4c/relu_pool_proj
I0906 12:04:23.000360 88038 net.cpp:163] Top shape: 32 128 14 14 (802816)
I0906 12:04:23.000367 88038 layer_factory.hpp:76] Creating layer inception_4c/output
I0906 12:04:23.000378 88038 net.cpp:110] Creating Layer inception_4c/output
I0906 12:04:23.000385 88038 net.cpp:477] inception_4c/output <- inception_4c/1x1
I0906 12:04:23.000394 88038 net.cpp:477] inception_4c/output <- inception_4c/3x3
I0906 12:04:23.000403 88038 net.cpp:477] inception_4c/output <- inception_4c/double3x3
I0906 12:04:23.000411 88038 net.cpp:477] inception_4c/output <- inception_4c/pool_proj
I0906 12:04:23.000422 88038 net.cpp:433] inception_4c/output -> inception_4c/output
I0906 12:04:23.000437 88038 net.cpp:155] Setting up inception_4c/output
I0906 12:04:23.000445 88038 net.cpp:163] Top shape: 32 608 14 14 (3813376)
I0906 12:04:23.000453 88038 layer_factory.hpp:76] Creating layer inception_4c/output_inception_4c/output_0_split
I0906 12:04:23.000464 88038 net.cpp:110] Creating Layer inception_4c/output_inception_4c/output_0_split
I0906 12:04:23.000471 88038 net.cpp:477] inception_4c/output_inception_4c/output_0_split <- inception_4c/output
I0906 12:04:23.000483 88038 net.cpp:433] inception_4c/output_inception_4c/output_0_split -> inception_4c/output_inception_4c/output_0_split_0
I0906 12:04:23.000538 88038 net.cpp:433] inception_4c/output_inception_4c/output_0_split -> inception_4c/output_inception_4c/output_0_split_1
I0906 12:04:23.000557 88038 net.cpp:433] inception_4c/output_inception_4c/output_0_split -> inception_4c/output_inception_4c/output_0_split_2
I0906 12:04:23.000571 88038 net.cpp:433] inception_4c/output_inception_4c/output_0_split -> inception_4c/output_inception_4c/output_0_split_3
I0906 12:04:23.000586 88038 net.cpp:155] Setting up inception_4c/output_inception_4c/output_0_split
I0906 12:04:23.000596 88038 net.cpp:163] Top shape: 32 608 14 14 (3813376)
I0906 12:04:23.000603 88038 net.cpp:163] Top shape: 32 608 14 14 (3813376)
I0906 12:04:23.000612 88038 net.cpp:163] Top shape: 32 608 14 14 (3813376)
I0906 12:04:23.000620 88038 net.cpp:163] Top shape: 32 608 14 14 (3813376)
I0906 12:04:23.000627 88038 layer_factory.hpp:76] Creating layer inception_4d/1x1
I0906 12:04:23.000640 88038 net.cpp:110] Creating Layer inception_4d/1x1
I0906 12:04:23.000648 88038 net.cpp:477] inception_4d/1x1 <- inception_4c/output_inception_4c/output_0_split_0
I0906 12:04:23.000659 88038 net.cpp:433] inception_4d/1x1 -> inception_4d/1x1
I0906 12:04:23.001688 88038 net.cpp:155] Setting up inception_4d/1x1
I0906 12:04:23.001710 88038 net.cpp:163] Top shape: 32 96 14 14 (602112)
I0906 12:04:23.001724 88038 layer_factory.hpp:76] Creating layer inception_4d/relu_1x1
I0906 12:04:23.001734 88038 net.cpp:110] Creating Layer inception_4d/relu_1x1
I0906 12:04:23.001742 88038 net.cpp:477] inception_4d/relu_1x1 <- inception_4d/1x1
I0906 12:04:23.001752 88038 net.cpp:419] inception_4d/relu_1x1 -> inception_4d/1x1 (in-place)
I0906 12:04:23.001767 88038 net.cpp:155] Setting up inception_4d/relu_1x1
I0906 12:04:23.001777 88038 net.cpp:163] Top shape: 32 96 14 14 (602112)
I0906 12:04:23.001783 88038 layer_factory.hpp:76] Creating layer inception_4d/3x3_reduce
I0906 12:04:23.001796 88038 net.cpp:110] Creating Layer inception_4d/3x3_reduce
I0906 12:04:23.001803 88038 net.cpp:477] inception_4d/3x3_reduce <- inception_4c/output_inception_4c/output_0_split_1
I0906 12:04:23.001821 88038 net.cpp:433] inception_4d/3x3_reduce -> inception_4d/3x3_reduce
I0906 12:04:23.003147 88038 net.cpp:155] Setting up inception_4d/3x3_reduce
I0906 12:04:23.003165 88038 net.cpp:163] Top shape: 32 128 14 14 (802816)
I0906 12:04:23.003178 88038 layer_factory.hpp:76] Creating layer inception_4d/relu_3x3_reduce
I0906 12:04:23.003195 88038 net.cpp:110] Creating Layer inception_4d/relu_3x3_reduce
I0906 12:04:23.003202 88038 net.cpp:477] inception_4d/relu_3x3_reduce <- inception_4d/3x3_reduce
I0906 12:04:23.003212 88038 net.cpp:419] inception_4d/relu_3x3_reduce -> inception_4d/3x3_reduce (in-place)
I0906 12:04:23.003224 88038 net.cpp:155] Setting up inception_4d/relu_3x3_reduce
I0906 12:04:23.003233 88038 net.cpp:163] Top shape: 32 128 14 14 (802816)
I0906 12:04:23.003240 88038 layer_factory.hpp:76] Creating layer inception_4d/3x3
I0906 12:04:23.003254 88038 net.cpp:110] Creating Layer inception_4d/3x3
I0906 12:04:23.003260 88038 net.cpp:477] inception_4d/3x3 <- inception_4d/3x3_reduce
I0906 12:04:23.003274 88038 net.cpp:433] inception_4d/3x3 -> inception_4d/3x3
I0906 12:04:23.007853 88038 net.cpp:155] Setting up inception_4d/3x3
I0906 12:04:23.007881 88038 net.cpp:163] Top shape: 32 192 14 14 (1204224)
I0906 12:04:23.007896 88038 layer_factory.hpp:76] Creating layer inception_4d/relu_3x3
I0906 12:04:23.007911 88038 net.cpp:110] Creating Layer inception_4d/relu_3x3
I0906 12:04:23.007920 88038 net.cpp:477] inception_4d/relu_3x3 <- inception_4d/3x3
I0906 12:04:23.007933 88038 net.cpp:419] inception_4d/relu_3x3 -> inception_4d/3x3 (in-place)
I0906 12:04:23.007948 88038 net.cpp:155] Setting up inception_4d/relu_3x3
I0906 12:04:23.007958 88038 net.cpp:163] Top shape: 32 192 14 14 (1204224)
I0906 12:04:23.007964 88038 layer_factory.hpp:76] Creating layer inception_4d/double3x3_reduce
I0906 12:04:23.007977 88038 net.cpp:110] Creating Layer inception_4d/double3x3_reduce
I0906 12:04:23.007985 88038 net.cpp:477] inception_4d/double3x3_reduce <- inception_4c/output_inception_4c/output_0_split_2
I0906 12:04:23.008021 88038 net.cpp:433] inception_4d/double3x3_reduce -> inception_4d/double3x3_reduce
I0906 12:04:23.010663 88038 net.cpp:155] Setting up inception_4d/double3x3_reduce
I0906 12:04:23.010690 88038 net.cpp:163] Top shape: 32 160 14 14 (1003520)
I0906 12:04:23.010705 88038 layer_factory.hpp:76] Creating layer inception_4d/relu_double3x3_reduce
I0906 12:04:23.010718 88038 net.cpp:110] Creating Layer inception_4d/relu_double3x3_reduce
I0906 12:04:23.010726 88038 net.cpp:477] inception_4d/relu_double3x3_reduce <- inception_4d/double3x3_reduce
I0906 12:04:23.010737 88038 net.cpp:419] inception_4d/relu_double3x3_reduce -> inception_4d/double3x3_reduce (in-place)
I0906 12:04:23.010751 88038 net.cpp:155] Setting up inception_4d/relu_double3x3_reduce
I0906 12:04:23.010761 88038 net.cpp:163] Top shape: 32 160 14 14 (1003520)
I0906 12:04:23.010768 88038 layer_factory.hpp:76] Creating layer inception_4d/double3x3_mid
I0906 12:04:23.010812 88038 net.cpp:110] Creating Layer inception_4d/double3x3_mid
I0906 12:04:23.010833 88038 net.cpp:477] inception_4d/double3x3_mid <- inception_4d/double3x3_reduce
I0906 12:04:23.010848 88038 net.cpp:433] inception_4d/double3x3_mid -> inception_4d/double3x3_mid
I0906 12:04:23.016330 88038 net.cpp:155] Setting up inception_4d/double3x3_mid
I0906 12:04:23.016357 88038 net.cpp:163] Top shape: 32 192 14 14 (1204224)
I0906 12:04:23.016374 88038 layer_factory.hpp:76] Creating layer inception_4d/relu_double3x3_mid
I0906 12:04:23.016388 88038 net.cpp:110] Creating Layer inception_4d/relu_double3x3_mid
I0906 12:04:23.016396 88038 net.cpp:477] inception_4d/relu_double3x3_mid <- inception_4d/double3x3_mid
I0906 12:04:23.016407 88038 net.cpp:419] inception_4d/relu_double3x3_mid -> inception_4d/double3x3_mid (in-place)
I0906 12:04:23.016422 88038 net.cpp:155] Setting up inception_4d/relu_double3x3_mid
I0906 12:04:23.016432 88038 net.cpp:163] Top shape: 32 192 14 14 (1204224)
I0906 12:04:23.016438 88038 layer_factory.hpp:76] Creating layer inception_4d/double3x3
I0906 12:04:23.016455 88038 net.cpp:110] Creating Layer inception_4d/double3x3
I0906 12:04:23.016463 88038 net.cpp:477] inception_4d/double3x3 <- inception_4d/double3x3_mid
I0906 12:04:23.016474 88038 net.cpp:433] inception_4d/double3x3 -> inception_4d/double3x3
I0906 12:04:23.022981 88038 net.cpp:155] Setting up inception_4d/double3x3
I0906 12:04:23.023010 88038 net.cpp:163] Top shape: 32 192 14 14 (1204224)
I0906 12:04:23.023025 88038 layer_factory.hpp:76] Creating layer inception_4d/relu_double3x3
I0906 12:04:23.023037 88038 net.cpp:110] Creating Layer inception_4d/relu_double3x3
I0906 12:04:23.023046 88038 net.cpp:477] inception_4d/relu_double3x3 <- inception_4d/double3x3
I0906 12:04:23.023061 88038 net.cpp:419] inception_4d/relu_double3x3 -> inception_4d/double3x3 (in-place)
I0906 12:04:23.023075 88038 net.cpp:155] Setting up inception_4d/relu_double3x3
I0906 12:04:23.023084 88038 net.cpp:163] Top shape: 32 192 14 14 (1204224)
I0906 12:04:23.023092 88038 layer_factory.hpp:76] Creating layer inception_4d/pool
I0906 12:04:23.023104 88038 net.cpp:110] Creating Layer inception_4d/pool
I0906 12:04:23.023113 88038 net.cpp:477] inception_4d/pool <- inception_4c/output_inception_4c/output_0_split_3
I0906 12:04:23.023123 88038 net.cpp:433] inception_4d/pool -> inception_4d/pool
I0906 12:04:23.023139 88038 net.cpp:155] Setting up inception_4d/pool
I0906 12:04:23.023149 88038 net.cpp:163] Top shape: 32 608 14 14 (3813376)
I0906 12:04:23.023156 88038 layer_factory.hpp:76] Creating layer inception_4d/pool_proj
I0906 12:04:23.023172 88038 net.cpp:110] Creating Layer inception_4d/pool_proj
I0906 12:04:23.023180 88038 net.cpp:477] inception_4d/pool_proj <- inception_4d/pool
I0906 12:04:23.023192 88038 net.cpp:433] inception_4d/pool_proj -> inception_4d/pool_proj
I0906 12:04:23.024535 88038 net.cpp:155] Setting up inception_4d/pool_proj
I0906 12:04:23.024557 88038 net.cpp:163] Top shape: 32 128 14 14 (802816)
I0906 12:04:23.024570 88038 layer_factory.hpp:76] Creating layer inception_4d/relu_pool_proj
I0906 12:04:23.024581 88038 net.cpp:110] Creating Layer inception_4d/relu_pool_proj
I0906 12:04:23.024613 88038 net.cpp:477] inception_4d/relu_pool_proj <- inception_4d/pool_proj
I0906 12:04:23.024626 88038 net.cpp:419] inception_4d/relu_pool_proj -> inception_4d/pool_proj (in-place)
I0906 12:04:23.024639 88038 net.cpp:155] Setting up inception_4d/relu_pool_proj
I0906 12:04:23.024649 88038 net.cpp:163] Top shape: 32 128 14 14 (802816)
I0906 12:04:23.024657 88038 layer_factory.hpp:76] Creating layer inception_4d/output
I0906 12:04:23.024672 88038 net.cpp:110] Creating Layer inception_4d/output
I0906 12:04:23.024679 88038 net.cpp:477] inception_4d/output <- inception_4d/1x1
I0906 12:04:23.024688 88038 net.cpp:477] inception_4d/output <- inception_4d/3x3
I0906 12:04:23.024698 88038 net.cpp:477] inception_4d/output <- inception_4d/double3x3
I0906 12:04:23.024705 88038 net.cpp:477] inception_4d/output <- inception_4d/pool_proj
I0906 12:04:23.024715 88038 net.cpp:433] inception_4d/output -> inception_4d/output
I0906 12:04:23.024730 88038 net.cpp:155] Setting up inception_4d/output
I0906 12:04:23.024739 88038 net.cpp:163] Top shape: 32 608 14 14 (3813376)
I0906 12:04:23.024746 88038 layer_factory.hpp:76] Creating layer inception_4d/output_inception_4d/output_0_split
I0906 12:04:23.024761 88038 net.cpp:110] Creating Layer inception_4d/output_inception_4d/output_0_split
I0906 12:04:23.024770 88038 net.cpp:477] inception_4d/output_inception_4d/output_0_split <- inception_4d/output
I0906 12:04:23.024781 88038 net.cpp:433] inception_4d/output_inception_4d/output_0_split -> inception_4d/output_inception_4d/output_0_split_0
I0906 12:04:23.024796 88038 net.cpp:433] inception_4d/output_inception_4d/output_0_split -> inception_4d/output_inception_4d/output_0_split_1
I0906 12:04:23.024808 88038 net.cpp:433] inception_4d/output_inception_4d/output_0_split -> inception_4d/output_inception_4d/output_0_split_2
I0906 12:04:23.024821 88038 net.cpp:433] inception_4d/output_inception_4d/output_0_split -> inception_4d/output_inception_4d/output_0_split_3
I0906 12:04:23.024835 88038 net.cpp:155] Setting up inception_4d/output_inception_4d/output_0_split
I0906 12:04:23.024844 88038 net.cpp:163] Top shape: 32 608 14 14 (3813376)
I0906 12:04:23.024852 88038 net.cpp:163] Top shape: 32 608 14 14 (3813376)
I0906 12:04:23.024860 88038 net.cpp:163] Top shape: 32 608 14 14 (3813376)
I0906 12:04:23.024868 88038 net.cpp:163] Top shape: 32 608 14 14 (3813376)
I0906 12:04:23.024875 88038 layer_factory.hpp:76] Creating layer loss2/ave_pool
I0906 12:04:23.024890 88038 net.cpp:110] Creating Layer loss2/ave_pool
I0906 12:04:23.024898 88038 net.cpp:477] loss2/ave_pool <- inception_4d/output_inception_4d/output_0_split_0
I0906 12:04:23.024909 88038 net.cpp:433] loss2/ave_pool -> loss2/ave_pool
I0906 12:04:23.024924 88038 net.cpp:155] Setting up loss2/ave_pool
I0906 12:04:23.024932 88038 net.cpp:163] Top shape: 32 608 4 4 (311296)
I0906 12:04:23.024940 88038 layer_factory.hpp:76] Creating layer loss2/conv
I0906 12:04:23.024952 88038 net.cpp:110] Creating Layer loss2/conv
I0906 12:04:23.024960 88038 net.cpp:477] loss2/conv <- loss2/ave_pool
I0906 12:04:23.024973 88038 net.cpp:433] loss2/conv -> loss2/conv
I0906 12:04:23.026310 88038 net.cpp:155] Setting up loss2/conv
I0906 12:04:23.026331 88038 net.cpp:163] Top shape: 32 128 4 4 (65536)
I0906 12:04:23.026345 88038 layer_factory.hpp:76] Creating layer loss2/relu_conv
I0906 12:04:23.026355 88038 net.cpp:110] Creating Layer loss2/relu_conv
I0906 12:04:23.026363 88038 net.cpp:477] loss2/relu_conv <- loss2/conv
I0906 12:04:23.026381 88038 net.cpp:419] loss2/relu_conv -> loss2/conv (in-place)
I0906 12:04:23.026393 88038 net.cpp:155] Setting up loss2/relu_conv
I0906 12:04:23.026403 88038 net.cpp:163] Top shape: 32 128 4 4 (65536)
I0906 12:04:23.026410 88038 layer_factory.hpp:76] Creating layer loss2/fc
I0906 12:04:23.026427 88038 net.cpp:110] Creating Layer loss2/fc
I0906 12:04:23.026432 88038 net.cpp:477] loss2/fc <- loss2/conv
I0906 12:04:23.026448 88038 net.cpp:433] loss2/fc -> loss2/fc
I0906 12:04:23.065767 88038 net.cpp:155] Setting up loss2/fc
I0906 12:04:23.065822 88038 net.cpp:163] Top shape: 32 1024 (32768)
I0906 12:04:23.065840 88038 layer_factory.hpp:76] Creating layer loss2/relu_fc
I0906 12:04:23.065855 88038 net.cpp:110] Creating Layer loss2/relu_fc
I0906 12:04:23.065862 88038 net.cpp:477] loss2/relu_fc <- loss2/fc
I0906 12:04:23.065873 88038 net.cpp:419] loss2/relu_fc -> loss2/fc (in-place)
I0906 12:04:23.065887 88038 net.cpp:155] Setting up loss2/relu_fc
I0906 12:04:23.065897 88038 net.cpp:163] Top shape: 32 1024 (32768)
I0906 12:04:23.065904 88038 layer_factory.hpp:76] Creating layer loss2/drop_fc
I0906 12:04:23.065922 88038 net.cpp:110] Creating Layer loss2/drop_fc
I0906 12:04:23.065928 88038 net.cpp:477] loss2/drop_fc <- loss2/fc
I0906 12:04:23.065938 88038 net.cpp:419] loss2/drop_fc -> loss2/fc (in-place)
I0906 12:04:23.065954 88038 net.cpp:155] Setting up loss2/drop_fc
I0906 12:04:23.065963 88038 net.cpp:163] Top shape: 32 1024 (32768)
I0906 12:04:23.065970 88038 layer_factory.hpp:76] Creating layer loss2/classifier
I0906 12:04:23.065984 88038 net.cpp:110] Creating Layer loss2/classifier
I0906 12:04:23.065990 88038 net.cpp:477] loss2/classifier <- loss2/fc
I0906 12:04:23.066002 88038 net.cpp:433] loss2/classifier -> loss2/classifier
I0906 12:04:23.086098 88038 net.cpp:155] Setting up loss2/classifier
I0906 12:04:23.086127 88038 net.cpp:163] Top shape: 32 1000 (32000)
I0906 12:04:23.086143 88038 layer_factory.hpp:76] Creating layer loss2/loss
I0906 12:04:23.086158 88038 net.cpp:110] Creating Layer loss2/loss
I0906 12:04:23.086168 88038 net.cpp:477] loss2/loss <- loss2/classifier
I0906 12:04:23.086179 88038 net.cpp:477] loss2/loss <- label_data_1_split_1
I0906 12:04:23.086189 88038 net.cpp:433] loss2/loss -> loss2/loss1
I0906 12:04:23.086207 88038 layer_factory.hpp:76] Creating layer loss2/loss
I0906 12:04:23.086381 88038 net.cpp:155] Setting up loss2/loss
I0906 12:04:23.086400 88038 net.cpp:163] Top shape: (1)
I0906 12:04:23.086407 88038 net.cpp:168]     with loss weight 0.3
I0906 12:04:23.086438 88038 layer_factory.hpp:76] Creating layer inception_4e/3x3_reduce
I0906 12:04:23.086453 88038 net.cpp:110] Creating Layer inception_4e/3x3_reduce
I0906 12:04:23.086462 88038 net.cpp:477] inception_4e/3x3_reduce <- inception_4d/output_inception_4d/output_0_split_1
I0906 12:04:23.086475 88038 net.cpp:433] inception_4e/3x3_reduce -> inception_4e/3x3_reduce
I0906 12:04:23.088770 88038 net.cpp:155] Setting up inception_4e/3x3_reduce
I0906 12:04:23.088798 88038 net.cpp:163] Top shape: 32 128 14 14 (802816)
I0906 12:04:23.088814 88038 layer_factory.hpp:76] Creating layer inception_4e/relu_3x3_reduce
I0906 12:04:23.088826 88038 net.cpp:110] Creating Layer inception_4e/relu_3x3_reduce
I0906 12:04:23.088835 88038 net.cpp:477] inception_4e/relu_3x3_reduce <- inception_4e/3x3_reduce
I0906 12:04:23.088845 88038 net.cpp:419] inception_4e/relu_3x3_reduce -> inception_4e/3x3_reduce (in-place)
I0906 12:04:23.088860 88038 net.cpp:155] Setting up inception_4e/relu_3x3_reduce
I0906 12:04:23.088868 88038 net.cpp:163] Top shape: 32 128 14 14 (802816)
I0906 12:04:23.088876 88038 layer_factory.hpp:76] Creating layer inception_4e/3x3_s2
I0906 12:04:23.088889 88038 net.cpp:110] Creating Layer inception_4e/3x3_s2
I0906 12:04:23.088896 88038 net.cpp:477] inception_4e/3x3_s2 <- inception_4e/3x3_reduce
I0906 12:04:23.088910 88038 net.cpp:433] inception_4e/3x3_s2 -> inception_4e/3x3_s2
I0906 12:04:23.093479 88038 net.cpp:155] Setting up inception_4e/3x3_s2
I0906 12:04:23.093508 88038 net.cpp:163] Top shape: 32 192 7 7 (301056)
I0906 12:04:23.093523 88038 layer_factory.hpp:76] Creating layer inception_4e/relu_3x3
I0906 12:04:23.093538 88038 net.cpp:110] Creating Layer inception_4e/relu_3x3
I0906 12:04:23.093547 88038 net.cpp:477] inception_4e/relu_3x3 <- inception_4e/3x3_s2
I0906 12:04:23.093559 88038 net.cpp:419] inception_4e/relu_3x3 -> inception_4e/3x3_s2 (in-place)
I0906 12:04:23.093571 88038 net.cpp:155] Setting up inception_4e/relu_3x3
I0906 12:04:23.093581 88038 net.cpp:163] Top shape: 32 192 7 7 (301056)
I0906 12:04:23.093588 88038 layer_factory.hpp:76] Creating layer inception_4e/double3x3_reduce
I0906 12:04:23.093626 88038 net.cpp:110] Creating Layer inception_4e/double3x3_reduce
I0906 12:04:23.093634 88038 net.cpp:477] inception_4e/double3x3_reduce <- inception_4d/output_inception_4d/output_0_split_2
I0906 12:04:23.093647 88038 net.cpp:433] inception_4e/double3x3_reduce -> inception_4e/double3x3_reduce
I0906 12:04:23.095595 88038 net.cpp:155] Setting up inception_4e/double3x3_reduce
I0906 12:04:23.095614 88038 net.cpp:163] Top shape: 32 192 14 14 (1204224)
I0906 12:04:23.095628 88038 layer_factory.hpp:76] Creating layer inception_4e/relu_double3x3_reduce
I0906 12:04:23.095639 88038 net.cpp:110] Creating Layer inception_4e/relu_double3x3_reduce
I0906 12:04:23.095648 88038 net.cpp:477] inception_4e/relu_double3x3_reduce <- inception_4e/double3x3_reduce
I0906 12:04:23.095657 88038 net.cpp:419] inception_4e/relu_double3x3_reduce -> inception_4e/double3x3_reduce (in-place)
I0906 12:04:23.095679 88038 net.cpp:155] Setting up inception_4e/relu_double3x3_reduce
I0906 12:04:23.095690 88038 net.cpp:163] Top shape: 32 192 14 14 (1204224)
I0906 12:04:23.095696 88038 layer_factory.hpp:76] Creating layer inception_4e/double3x3_mid
I0906 12:04:23.095710 88038 net.cpp:110] Creating Layer inception_4e/double3x3_mid
I0906 12:04:23.095716 88038 net.cpp:477] inception_4e/double3x3_mid <- inception_4e/double3x3_reduce
I0906 12:04:23.095727 88038 net.cpp:433] inception_4e/double3x3_mid -> inception_4e/double3x3_mid
I0906 12:04:23.104233 88038 net.cpp:155] Setting up inception_4e/double3x3_mid
I0906 12:04:23.104260 88038 net.cpp:163] Top shape: 32 256 14 14 (1605632)
I0906 12:04:23.104275 88038 layer_factory.hpp:76] Creating layer inception_4e/relu_double3x3_mid
I0906 12:04:23.104290 88038 net.cpp:110] Creating Layer inception_4e/relu_double3x3_mid
I0906 12:04:23.104297 88038 net.cpp:477] inception_4e/relu_double3x3_mid <- inception_4e/double3x3_mid
I0906 12:04:23.104308 88038 net.cpp:419] inception_4e/relu_double3x3_mid -> inception_4e/double3x3_mid (in-place)
I0906 12:04:23.104321 88038 net.cpp:155] Setting up inception_4e/relu_double3x3_mid
I0906 12:04:23.104331 88038 net.cpp:163] Top shape: 32 256 14 14 (1605632)
I0906 12:04:23.104337 88038 layer_factory.hpp:76] Creating layer inception_4e/double3x3
I0906 12:04:23.104357 88038 net.cpp:110] Creating Layer inception_4e/double3x3
I0906 12:04:23.104364 88038 net.cpp:477] inception_4e/double3x3 <- inception_4e/double3x3_mid
I0906 12:04:23.104375 88038 net.cpp:433] inception_4e/double3x3 -> inception_4e/double3x3_s2
I0906 12:04:23.115633 88038 net.cpp:155] Setting up inception_4e/double3x3
I0906 12:04:23.115660 88038 net.cpp:163] Top shape: 32 256 7 7 (401408)
I0906 12:04:23.115687 88038 layer_factory.hpp:76] Creating layer inception_4e/relu_double3x3
I0906 12:04:23.115707 88038 net.cpp:110] Creating Layer inception_4e/relu_double3x3
I0906 12:04:23.115716 88038 net.cpp:477] inception_4e/relu_double3x3 <- inception_4e/double3x3_s2
I0906 12:04:23.115727 88038 net.cpp:419] inception_4e/relu_double3x3 -> inception_4e/double3x3_s2 (in-place)
I0906 12:04:23.115741 88038 net.cpp:155] Setting up inception_4e/relu_double3x3
I0906 12:04:23.115751 88038 net.cpp:163] Top shape: 32 256 7 7 (401408)
I0906 12:04:23.115758 88038 layer_factory.hpp:76] Creating layer inception_4e/pool
I0906 12:04:23.115770 88038 net.cpp:110] Creating Layer inception_4e/pool
I0906 12:04:23.115778 88038 net.cpp:477] inception_4e/pool <- inception_4d/output_inception_4d/output_0_split_3
I0906 12:04:23.115789 88038 net.cpp:433] inception_4e/pool -> inception_4e/pool
I0906 12:04:23.115808 88038 net.cpp:155] Setting up inception_4e/pool
I0906 12:04:23.115816 88038 net.cpp:163] Top shape: 32 608 7 7 (953344)
I0906 12:04:23.115823 88038 layer_factory.hpp:76] Creating layer inception_4e/relu_pool
I0906 12:04:23.115835 88038 net.cpp:110] Creating Layer inception_4e/relu_pool
I0906 12:04:23.115841 88038 net.cpp:477] inception_4e/relu_pool <- inception_4e/pool
I0906 12:04:23.115854 88038 net.cpp:419] inception_4e/relu_pool -> inception_4e/pool (in-place)
I0906 12:04:23.115865 88038 net.cpp:155] Setting up inception_4e/relu_pool
I0906 12:04:23.115919 88038 net.cpp:163] Top shape: 32 608 7 7 (953344)
I0906 12:04:23.115928 88038 layer_factory.hpp:76] Creating layer inception_4e/output
I0906 12:04:23.115941 88038 net.cpp:110] Creating Layer inception_4e/output
I0906 12:04:23.115948 88038 net.cpp:477] inception_4e/output <- inception_4e/3x3_s2
I0906 12:04:23.115957 88038 net.cpp:477] inception_4e/output <- inception_4e/double3x3_s2
I0906 12:04:23.115967 88038 net.cpp:477] inception_4e/output <- inception_4e/pool
I0906 12:04:23.115978 88038 net.cpp:433] inception_4e/output -> inception_4e/output
I0906 12:04:23.115994 88038 net.cpp:155] Setting up inception_4e/output
I0906 12:04:23.116003 88038 net.cpp:163] Top shape: 32 1056 7 7 (1655808)
I0906 12:04:23.116010 88038 layer_factory.hpp:76] Creating layer inception_4e/output_inception_4e/output_0_split
I0906 12:04:23.116022 88038 net.cpp:110] Creating Layer inception_4e/output_inception_4e/output_0_split
I0906 12:04:23.116029 88038 net.cpp:477] inception_4e/output_inception_4e/output_0_split <- inception_4e/output
I0906 12:04:23.116042 88038 net.cpp:433] inception_4e/output_inception_4e/output_0_split -> inception_4e/output_inception_4e/output_0_split_0
I0906 12:04:23.116056 88038 net.cpp:433] inception_4e/output_inception_4e/output_0_split -> inception_4e/output_inception_4e/output_0_split_1
I0906 12:04:23.116070 88038 net.cpp:433] inception_4e/output_inception_4e/output_0_split -> inception_4e/output_inception_4e/output_0_split_2
I0906 12:04:23.116082 88038 net.cpp:433] inception_4e/output_inception_4e/output_0_split -> inception_4e/output_inception_4e/output_0_split_3
I0906 12:04:23.116096 88038 net.cpp:155] Setting up inception_4e/output_inception_4e/output_0_split
I0906 12:04:23.116106 88038 net.cpp:163] Top shape: 32 1056 7 7 (1655808)
I0906 12:04:23.116113 88038 net.cpp:163] Top shape: 32 1056 7 7 (1655808)
I0906 12:04:23.116122 88038 net.cpp:163] Top shape: 32 1056 7 7 (1655808)
I0906 12:04:23.116130 88038 net.cpp:163] Top shape: 32 1056 7 7 (1655808)
I0906 12:04:23.116137 88038 layer_factory.hpp:76] Creating layer inception_5a/1x1
I0906 12:04:23.116164 88038 net.cpp:110] Creating Layer inception_5a/1x1
I0906 12:04:23.116178 88038 net.cpp:477] inception_5a/1x1 <- inception_4e/output_inception_4e/output_0_split_0
I0906 12:04:23.116190 88038 net.cpp:433] inception_5a/1x1 -> inception_5a/1x1
I0906 12:04:23.123486 88038 net.cpp:155] Setting up inception_5a/1x1
I0906 12:04:23.123515 88038 net.cpp:163] Top shape: 32 352 7 7 (551936)
I0906 12:04:23.123531 88038 layer_factory.hpp:76] Creating layer inception_5a/relu_1x1
I0906 12:04:23.123545 88038 net.cpp:110] Creating Layer inception_5a/relu_1x1
I0906 12:04:23.123553 88038 net.cpp:477] inception_5a/relu_1x1 <- inception_5a/1x1
I0906 12:04:23.123565 88038 net.cpp:419] inception_5a/relu_1x1 -> inception_5a/1x1 (in-place)
I0906 12:04:23.123579 88038 net.cpp:155] Setting up inception_5a/relu_1x1
I0906 12:04:23.123589 88038 net.cpp:163] Top shape: 32 352 7 7 (551936)
I0906 12:04:23.123596 88038 layer_factory.hpp:76] Creating layer inception_5a/3x3_reduce
I0906 12:04:23.123610 88038 net.cpp:110] Creating Layer inception_5a/3x3_reduce
I0906 12:04:23.123616 88038 net.cpp:477] inception_5a/3x3_reduce <- inception_4e/output_inception_4e/output_0_split_1
I0906 12:04:23.123639 88038 net.cpp:433] inception_5a/3x3_reduce -> inception_5a/3x3_reduce
I0906 12:04:23.127972 88038 net.cpp:155] Setting up inception_5a/3x3_reduce
I0906 12:04:23.128001 88038 net.cpp:163] Top shape: 32 192 7 7 (301056)
I0906 12:04:23.128016 88038 layer_factory.hpp:76] Creating layer inception_5a/relu_3x3_reduce
I0906 12:04:23.128029 88038 net.cpp:110] Creating Layer inception_5a/relu_3x3_reduce
I0906 12:04:23.128038 88038 net.cpp:477] inception_5a/relu_3x3_reduce <- inception_5a/3x3_reduce
I0906 12:04:23.128053 88038 net.cpp:419] inception_5a/relu_3x3_reduce -> inception_5a/3x3_reduce (in-place)
I0906 12:04:23.128068 88038 net.cpp:155] Setting up inception_5a/relu_3x3_reduce
I0906 12:04:23.128078 88038 net.cpp:163] Top shape: 32 192 7 7 (301056)
I0906 12:04:23.128085 88038 layer_factory.hpp:76] Creating layer inception_5a/3x3
I0906 12:04:23.128123 88038 net.cpp:110] Creating Layer inception_5a/3x3
I0906 12:04:23.128131 88038 net.cpp:477] inception_5a/3x3 <- inception_5a/3x3_reduce
I0906 12:04:23.128144 88038 net.cpp:433] inception_5a/3x3 -> inception_5a/3x3
I0906 12:04:23.138851 88038 net.cpp:155] Setting up inception_5a/3x3
I0906 12:04:23.138886 88038 net.cpp:163] Top shape: 32 320 7 7 (501760)
I0906 12:04:23.138903 88038 layer_factory.hpp:76] Creating layer inception_5a/relu_3x3
I0906 12:04:23.138916 88038 net.cpp:110] Creating Layer inception_5a/relu_3x3
I0906 12:04:23.138924 88038 net.cpp:477] inception_5a/relu_3x3 <- inception_5a/3x3
I0906 12:04:23.138936 88038 net.cpp:419] inception_5a/relu_3x3 -> inception_5a/3x3 (in-place)
I0906 12:04:23.138950 88038 net.cpp:155] Setting up inception_5a/relu_3x3
I0906 12:04:23.138960 88038 net.cpp:163] Top shape: 32 320 7 7 (501760)
I0906 12:04:23.138967 88038 layer_factory.hpp:76] Creating layer inception_5a/double3x3_reduce
I0906 12:04:23.138980 88038 net.cpp:110] Creating Layer inception_5a/double3x3_reduce
I0906 12:04:23.138988 88038 net.cpp:477] inception_5a/double3x3_reduce <- inception_4e/output_inception_4e/output_0_split_2
I0906 12:04:23.139003 88038 net.cpp:433] inception_5a/double3x3_reduce -> inception_5a/double3x3_reduce
I0906 12:04:23.142814 88038 net.cpp:155] Setting up inception_5a/double3x3_reduce
I0906 12:04:23.142843 88038 net.cpp:163] Top shape: 32 160 7 7 (250880)
I0906 12:04:23.142901 88038 layer_factory.hpp:76] Creating layer inception_5a/relu_double3x3_reduce
I0906 12:04:23.142916 88038 net.cpp:110] Creating Layer inception_5a/relu_double3x3_reduce
I0906 12:04:23.142930 88038 net.cpp:477] inception_5a/relu_double3x3_reduce <- inception_5a/double3x3_reduce
I0906 12:04:23.142940 88038 net.cpp:419] inception_5a/relu_double3x3_reduce -> inception_5a/double3x3_reduce (in-place)
I0906 12:04:23.142956 88038 net.cpp:155] Setting up inception_5a/relu_double3x3_reduce
I0906 12:04:23.142966 88038 net.cpp:163] Top shape: 32 160 7 7 (250880)
I0906 12:04:23.142972 88038 layer_factory.hpp:76] Creating layer inception_5a/double3x3_mid
I0906 12:04:23.142987 88038 net.cpp:110] Creating Layer inception_5a/double3x3_mid
I0906 12:04:23.142994 88038 net.cpp:477] inception_5a/double3x3_mid <- inception_5a/double3x3_reduce
I0906 12:04:23.143007 88038 net.cpp:433] inception_5a/double3x3_mid -> inception_5a/double3x3_mid
I0906 12:04:23.149405 88038 net.cpp:155] Setting up inception_5a/double3x3_mid
I0906 12:04:23.149433 88038 net.cpp:163] Top shape: 32 224 7 7 (351232)
I0906 12:04:23.149448 88038 layer_factory.hpp:76] Creating layer inception_5a/relu_double3x3_mid
I0906 12:04:23.149461 88038 net.cpp:110] Creating Layer inception_5a/relu_double3x3_mid
I0906 12:04:23.149471 88038 net.cpp:477] inception_5a/relu_double3x3_mid <- inception_5a/double3x3_mid
I0906 12:04:23.149480 88038 net.cpp:419] inception_5a/relu_double3x3_mid -> inception_5a/double3x3_mid (in-place)
I0906 12:04:23.149495 88038 net.cpp:155] Setting up inception_5a/relu_double3x3_mid
I0906 12:04:23.149505 88038 net.cpp:163] Top shape: 32 224 7 7 (351232)
I0906 12:04:23.149513 88038 layer_factory.hpp:76] Creating layer inception_5a/double3x3
I0906 12:04:23.149526 88038 net.cpp:110] Creating Layer inception_5a/double3x3
I0906 12:04:23.149533 88038 net.cpp:477] inception_5a/double3x3 <- inception_5a/double3x3_mid
I0906 12:04:23.149549 88038 net.cpp:433] inception_5a/double3x3 -> inception_5a/double3x3
I0906 12:04:23.158321 88038 net.cpp:155] Setting up inception_5a/double3x3
I0906 12:04:23.158350 88038 net.cpp:163] Top shape: 32 224 7 7 (351232)
I0906 12:04:23.158365 88038 layer_factory.hpp:76] Creating layer inception_5a/relu_double3x3
I0906 12:04:23.158380 88038 net.cpp:110] Creating Layer inception_5a/relu_double3x3
I0906 12:04:23.158390 88038 net.cpp:477] inception_5a/relu_double3x3 <- inception_5a/double3x3
I0906 12:04:23.158404 88038 net.cpp:419] inception_5a/relu_double3x3 -> inception_5a/double3x3 (in-place)
I0906 12:04:23.158419 88038 net.cpp:155] Setting up inception_5a/relu_double3x3
I0906 12:04:23.158454 88038 net.cpp:163] Top shape: 32 224 7 7 (351232)
I0906 12:04:23.158464 88038 layer_factory.hpp:76] Creating layer inception_5a/pool
I0906 12:04:23.158478 88038 net.cpp:110] Creating Layer inception_5a/pool
I0906 12:04:23.158485 88038 net.cpp:477] inception_5a/pool <- inception_4e/output_inception_4e/output_0_split_3
I0906 12:04:23.158501 88038 net.cpp:433] inception_5a/pool -> inception_5a/pool
I0906 12:04:23.158519 88038 net.cpp:155] Setting up inception_5a/pool
I0906 12:04:23.158529 88038 net.cpp:163] Top shape: 32 1056 7 7 (1655808)
I0906 12:04:23.158536 88038 layer_factory.hpp:76] Creating layer inception_5a/pool_proj
I0906 12:04:23.158550 88038 net.cpp:110] Creating Layer inception_5a/pool_proj
I0906 12:04:23.158557 88038 net.cpp:477] inception_5a/pool_proj <- inception_5a/pool
I0906 12:04:23.158573 88038 net.cpp:433] inception_5a/pool_proj -> inception_5a/pool_proj
I0906 12:04:23.161883 88038 net.cpp:155] Setting up inception_5a/pool_proj
I0906 12:04:23.161913 88038 net.cpp:163] Top shape: 32 128 7 7 (200704)
I0906 12:04:23.161929 88038 layer_factory.hpp:76] Creating layer inception_5a/relu_pool_proj
I0906 12:04:23.161943 88038 net.cpp:110] Creating Layer inception_5a/relu_pool_proj
I0906 12:04:23.161952 88038 net.cpp:477] inception_5a/relu_pool_proj <- inception_5a/pool_proj
I0906 12:04:23.161967 88038 net.cpp:419] inception_5a/relu_pool_proj -> inception_5a/pool_proj (in-place)
I0906 12:04:23.161981 88038 net.cpp:155] Setting up inception_5a/relu_pool_proj
I0906 12:04:23.161990 88038 net.cpp:163] Top shape: 32 128 7 7 (200704)
I0906 12:04:23.161998 88038 layer_factory.hpp:76] Creating layer inception_5a/output
I0906 12:04:23.162009 88038 net.cpp:110] Creating Layer inception_5a/output
I0906 12:04:23.162017 88038 net.cpp:477] inception_5a/output <- inception_5a/1x1
I0906 12:04:23.162026 88038 net.cpp:477] inception_5a/output <- inception_5a/3x3
I0906 12:04:23.162035 88038 net.cpp:477] inception_5a/output <- inception_5a/double3x3
I0906 12:04:23.162044 88038 net.cpp:477] inception_5a/output <- inception_5a/pool_proj
I0906 12:04:23.162053 88038 net.cpp:433] inception_5a/output -> inception_5a/output
I0906 12:04:23.162070 88038 net.cpp:155] Setting up inception_5a/output
I0906 12:04:23.162080 88038 net.cpp:163] Top shape: 32 1024 7 7 (1605632)
I0906 12:04:23.162086 88038 layer_factory.hpp:76] Creating layer inception_5a/output_inception_5a/output_0_split
I0906 12:04:23.162101 88038 net.cpp:110] Creating Layer inception_5a/output_inception_5a/output_0_split
I0906 12:04:23.162109 88038 net.cpp:477] inception_5a/output_inception_5a/output_0_split <- inception_5a/output
I0906 12:04:23.162120 88038 net.cpp:433] inception_5a/output_inception_5a/output_0_split -> inception_5a/output_inception_5a/output_0_split_0
I0906 12:04:23.162134 88038 net.cpp:433] inception_5a/output_inception_5a/output_0_split -> inception_5a/output_inception_5a/output_0_split_1
I0906 12:04:23.162147 88038 net.cpp:433] inception_5a/output_inception_5a/output_0_split -> inception_5a/output_inception_5a/output_0_split_2
I0906 12:04:23.162161 88038 net.cpp:433] inception_5a/output_inception_5a/output_0_split -> inception_5a/output_inception_5a/output_0_split_3
I0906 12:04:23.162174 88038 net.cpp:155] Setting up inception_5a/output_inception_5a/output_0_split
I0906 12:04:23.162204 88038 net.cpp:163] Top shape: 32 1024 7 7 (1605632)
I0906 12:04:23.162214 88038 net.cpp:163] Top shape: 32 1024 7 7 (1605632)
I0906 12:04:23.162221 88038 net.cpp:163] Top shape: 32 1024 7 7 (1605632)
I0906 12:04:23.162230 88038 net.cpp:163] Top shape: 32 1024 7 7 (1605632)
I0906 12:04:23.162236 88038 layer_factory.hpp:76] Creating layer inception_5b/1x1
I0906 12:04:23.162253 88038 net.cpp:110] Creating Layer inception_5b/1x1
I0906 12:04:23.162261 88038 net.cpp:477] inception_5b/1x1 <- inception_5a/output_inception_5a/output_0_split_0
I0906 12:04:23.162272 88038 net.cpp:433] inception_5b/1x1 -> inception_5b/1x1
I0906 12:04:23.169369 88038 net.cpp:155] Setting up inception_5b/1x1
I0906 12:04:23.169399 88038 net.cpp:163] Top shape: 32 352 7 7 (551936)
I0906 12:04:23.169440 88038 layer_factory.hpp:76] Creating layer inception_5b/relu_1x1
I0906 12:04:23.169453 88038 net.cpp:110] Creating Layer inception_5b/relu_1x1
I0906 12:04:23.169461 88038 net.cpp:477] inception_5b/relu_1x1 <- inception_5b/1x1
I0906 12:04:23.169472 88038 net.cpp:419] inception_5b/relu_1x1 -> inception_5b/1x1 (in-place)
I0906 12:04:23.169487 88038 net.cpp:155] Setting up inception_5b/relu_1x1
I0906 12:04:23.169497 88038 net.cpp:163] Top shape: 32 352 7 7 (551936)
I0906 12:04:23.169503 88038 layer_factory.hpp:76] Creating layer inception_5b/3x3_reduce
I0906 12:04:23.169517 88038 net.cpp:110] Creating Layer inception_5b/3x3_reduce
I0906 12:04:23.169523 88038 net.cpp:477] inception_5b/3x3_reduce <- inception_5a/output_inception_5a/output_0_split_1
I0906 12:04:23.169540 88038 net.cpp:433] inception_5b/3x3_reduce -> inception_5b/3x3_reduce
I0906 12:04:23.173790 88038 net.cpp:155] Setting up inception_5b/3x3_reduce
I0906 12:04:23.173820 88038 net.cpp:163] Top shape: 32 192 7 7 (301056)
I0906 12:04:23.173835 88038 layer_factory.hpp:76] Creating layer inception_5b/relu_3x3_reduce
I0906 12:04:23.173851 88038 net.cpp:110] Creating Layer inception_5b/relu_3x3_reduce
I0906 12:04:23.173858 88038 net.cpp:477] inception_5b/relu_3x3_reduce <- inception_5b/3x3_reduce
I0906 12:04:23.173873 88038 net.cpp:419] inception_5b/relu_3x3_reduce -> inception_5b/3x3_reduce (in-place)
I0906 12:04:23.173888 88038 net.cpp:155] Setting up inception_5b/relu_3x3_reduce
I0906 12:04:23.173898 88038 net.cpp:163] Top shape: 32 192 7 7 (301056)
I0906 12:04:23.173905 88038 layer_factory.hpp:76] Creating layer inception_5b/3x3
I0906 12:04:23.173918 88038 net.cpp:110] Creating Layer inception_5b/3x3
I0906 12:04:23.173925 88038 net.cpp:477] inception_5b/3x3 <- inception_5b/3x3_reduce
I0906 12:04:23.173938 88038 net.cpp:433] inception_5b/3x3 -> inception_5b/3x3
I0906 12:04:23.184613 88038 net.cpp:155] Setting up inception_5b/3x3
I0906 12:04:23.184643 88038 net.cpp:163] Top shape: 32 320 7 7 (501760)
I0906 12:04:23.184659 88038 layer_factory.hpp:76] Creating layer inception_5b/relu_3x3
I0906 12:04:23.184674 88038 net.cpp:110] Creating Layer inception_5b/relu_3x3
I0906 12:04:23.184682 88038 net.cpp:477] inception_5b/relu_3x3 <- inception_5b/3x3
I0906 12:04:23.184694 88038 net.cpp:419] inception_5b/relu_3x3 -> inception_5b/3x3 (in-place)
I0906 12:04:23.184707 88038 net.cpp:155] Setting up inception_5b/relu_3x3
I0906 12:04:23.184716 88038 net.cpp:163] Top shape: 32 320 7 7 (501760)
I0906 12:04:23.184723 88038 layer_factory.hpp:76] Creating layer inception_5b/double3x3_reduce
I0906 12:04:23.184736 88038 net.cpp:110] Creating Layer inception_5b/double3x3_reduce
I0906 12:04:23.184744 88038 net.cpp:477] inception_5b/double3x3_reduce <- inception_5a/output_inception_5a/output_0_split_2
I0906 12:04:23.184761 88038 net.cpp:433] inception_5b/double3x3_reduce -> inception_5b/double3x3_reduce
I0906 12:04:23.189010 88038 net.cpp:155] Setting up inception_5b/double3x3_reduce
I0906 12:04:23.189039 88038 net.cpp:163] Top shape: 32 192 7 7 (301056)
I0906 12:04:23.189054 88038 layer_factory.hpp:76] Creating layer inception_5b/relu_double3x3_reduce
I0906 12:04:23.189067 88038 net.cpp:110] Creating Layer inception_5b/relu_double3x3_reduce
I0906 12:04:23.189077 88038 net.cpp:477] inception_5b/relu_double3x3_reduce <- inception_5b/double3x3_reduce
I0906 12:04:23.189087 88038 net.cpp:419] inception_5b/relu_double3x3_reduce -> inception_5b/double3x3_reduce (in-place)
I0906 12:04:23.189101 88038 net.cpp:155] Setting up inception_5b/relu_double3x3_reduce
I0906 12:04:23.189111 88038 net.cpp:163] Top shape: 32 192 7 7 (301056)
I0906 12:04:23.189118 88038 layer_factory.hpp:76] Creating layer inception_5b/double3x3_mid
I0906 12:04:23.189133 88038 net.cpp:110] Creating Layer inception_5b/double3x3_mid
I0906 12:04:23.189139 88038 net.cpp:477] inception_5b/double3x3_mid <- inception_5b/double3x3_reduce
I0906 12:04:23.189152 88038 net.cpp:433] inception_5b/double3x3_mid -> inception_5b/double3x3_mid
I0906 12:04:23.196779 88038 net.cpp:155] Setting up inception_5b/double3x3_mid
I0906 12:04:23.196831 88038 net.cpp:163] Top shape: 32 224 7 7 (351232)
I0906 12:04:23.196847 88038 layer_factory.hpp:76] Creating layer inception_5b/relu_double3x3_mid
I0906 12:04:23.196861 88038 net.cpp:110] Creating Layer inception_5b/relu_double3x3_mid
I0906 12:04:23.196871 88038 net.cpp:477] inception_5b/relu_double3x3_mid <- inception_5b/double3x3_mid
I0906 12:04:23.196882 88038 net.cpp:419] inception_5b/relu_double3x3_mid -> inception_5b/double3x3_mid (in-place)
I0906 12:04:23.196895 88038 net.cpp:155] Setting up inception_5b/relu_double3x3_mid
I0906 12:04:23.196904 88038 net.cpp:163] Top shape: 32 224 7 7 (351232)
I0906 12:04:23.196912 88038 layer_factory.hpp:76] Creating layer inception_5b/double3x3
I0906 12:04:23.196929 88038 net.cpp:110] Creating Layer inception_5b/double3x3
I0906 12:04:23.196936 88038 net.cpp:477] inception_5b/double3x3 <- inception_5b/double3x3_mid
I0906 12:04:23.196951 88038 net.cpp:433] inception_5b/double3x3 -> inception_5b/double3x3
I0906 12:04:23.205739 88038 net.cpp:155] Setting up inception_5b/double3x3
I0906 12:04:23.205770 88038 net.cpp:163] Top shape: 32 224 7 7 (351232)
I0906 12:04:23.205785 88038 layer_factory.hpp:76] Creating layer inception_5b/relu_double3x3
I0906 12:04:23.205798 88038 net.cpp:110] Creating Layer inception_5b/relu_double3x3
I0906 12:04:23.205807 88038 net.cpp:477] inception_5b/relu_double3x3 <- inception_5b/double3x3
I0906 12:04:23.205818 88038 net.cpp:419] inception_5b/relu_double3x3 -> inception_5b/double3x3 (in-place)
I0906 12:04:23.205833 88038 net.cpp:155] Setting up inception_5b/relu_double3x3
I0906 12:04:23.205842 88038 net.cpp:163] Top shape: 32 224 7 7 (351232)
I0906 12:04:23.205849 88038 layer_factory.hpp:76] Creating layer inception_5b/pool
I0906 12:04:23.205862 88038 net.cpp:110] Creating Layer inception_5b/pool
I0906 12:04:23.205869 88038 net.cpp:477] inception_5b/pool <- inception_5a/output_inception_5a/output_0_split_3
I0906 12:04:23.205880 88038 net.cpp:433] inception_5b/pool -> inception_5b/pool
I0906 12:04:23.205899 88038 net.cpp:155] Setting up inception_5b/pool
I0906 12:04:23.205907 88038 net.cpp:163] Top shape: 32 1024 7 7 (1605632)
I0906 12:04:23.205914 88038 layer_factory.hpp:76] Creating layer inception_5b/pool_proj
I0906 12:04:23.205934 88038 net.cpp:110] Creating Layer inception_5b/pool_proj
I0906 12:04:23.205941 88038 net.cpp:477] inception_5b/pool_proj <- inception_5b/pool
I0906 12:04:23.205953 88038 net.cpp:433] inception_5b/pool_proj -> inception_5b/pool_proj
I0906 12:04:23.209156 88038 net.cpp:155] Setting up inception_5b/pool_proj
I0906 12:04:23.209188 88038 net.cpp:163] Top shape: 32 128 7 7 (200704)
I0906 12:04:23.209204 88038 layer_factory.hpp:76] Creating layer inception_5b/relu_pool_proj
I0906 12:04:23.209218 88038 net.cpp:110] Creating Layer inception_5b/relu_pool_proj
I0906 12:04:23.209225 88038 net.cpp:477] inception_5b/relu_pool_proj <- inception_5b/pool_proj
I0906 12:04:23.209240 88038 net.cpp:419] inception_5b/relu_pool_proj -> inception_5b/pool_proj (in-place)
I0906 12:04:23.209255 88038 net.cpp:155] Setting up inception_5b/relu_pool_proj
I0906 12:04:23.209265 88038 net.cpp:163] Top shape: 32 128 7 7 (200704)
I0906 12:04:23.209271 88038 layer_factory.hpp:76] Creating layer inception_5b/output
I0906 12:04:23.209283 88038 net.cpp:110] Creating Layer inception_5b/output
I0906 12:04:23.209290 88038 net.cpp:477] inception_5b/output <- inception_5b/1x1
I0906 12:04:23.209300 88038 net.cpp:477] inception_5b/output <- inception_5b/3x3
I0906 12:04:23.209308 88038 net.cpp:477] inception_5b/output <- inception_5b/double3x3
I0906 12:04:23.209316 88038 net.cpp:477] inception_5b/output <- inception_5b/pool_proj
I0906 12:04:23.209326 88038 net.cpp:433] inception_5b/output -> inception_5b/output
I0906 12:04:23.209342 88038 net.cpp:155] Setting up inception_5b/output
I0906 12:04:23.209352 88038 net.cpp:163] Top shape: 32 1024 7 7 (1605632)
I0906 12:04:23.209359 88038 layer_factory.hpp:76] Creating layer pool5/7x7_s1
I0906 12:04:23.209372 88038 net.cpp:110] Creating Layer pool5/7x7_s1
I0906 12:04:23.209378 88038 net.cpp:477] pool5/7x7_s1 <- inception_5b/output
I0906 12:04:23.209419 88038 net.cpp:433] pool5/7x7_s1 -> pool5/7x7_s1
I0906 12:04:23.209455 88038 net.cpp:155] Setting up pool5/7x7_s1
I0906 12:04:23.209465 88038 net.cpp:163] Top shape: 32 1024 1 1 (32768)
I0906 12:04:23.209473 88038 layer_factory.hpp:76] Creating layer pool5/drop_7x7_s1
I0906 12:04:23.209486 88038 net.cpp:110] Creating Layer pool5/drop_7x7_s1
I0906 12:04:23.209493 88038 net.cpp:477] pool5/drop_7x7_s1 <- pool5/7x7_s1
I0906 12:04:23.209503 88038 net.cpp:419] pool5/drop_7x7_s1 -> pool5/7x7_s1 (in-place)
I0906 12:04:23.209519 88038 net.cpp:155] Setting up pool5/drop_7x7_s1
I0906 12:04:23.209528 88038 net.cpp:163] Top shape: 32 1024 1 1 (32768)
I0906 12:04:23.209535 88038 layer_factory.hpp:76] Creating layer loss3/classifier
I0906 12:04:23.209550 88038 net.cpp:110] Creating Layer loss3/classifier
I0906 12:04:23.209558 88038 net.cpp:477] loss3/classifier <- pool5/7x7_s1
I0906 12:04:23.209573 88038 net.cpp:433] loss3/classifier -> loss3/classifier
I0906 12:04:23.229027 88038 net.cpp:155] Setting up loss3/classifier
I0906 12:04:23.229058 88038 net.cpp:163] Top shape: 32 1000 (32000)
I0906 12:04:23.229074 88038 layer_factory.hpp:76] Creating layer loss3/loss3
I0906 12:04:23.229089 88038 net.cpp:110] Creating Layer loss3/loss3
I0906 12:04:23.229097 88038 net.cpp:477] loss3/loss3 <- loss3/classifier
I0906 12:04:23.229107 88038 net.cpp:477] loss3/loss3 <- label_data_1_split_2
I0906 12:04:23.229122 88038 net.cpp:433] loss3/loss3 -> loss3/loss3
I0906 12:04:23.229142 88038 layer_factory.hpp:76] Creating layer loss3/loss3
…
I0906 12:04:23.242864 88038 net.cpp:339] The NetState phase (1) differed from the phase (0) specified by a rule in layer data
I0906 12:04:23.245740 88038 net.cpp:50] Initializing net from parameters: 
name: "Inception_6"
state {
  phase: TEST
}
layer {
  name: "data"
  type: "Data"
  top: "data"
  top: "label"
  include {
    phase: TEST
  }
  transform_param {
    mirror: false
    crop_size: 224
    mean_value: 104
    mean_value: 117
    mean_value: 123
  }
  data_param {
    source: "/ssd/ilsvrc2012/ilsvrc12_val_lmdb"
    batch_size: 50
    backend: LMDB
  }
}
layer {
  name: "conv1/7x7_s2"
  type: "Convolution"
  bottom: "data"
  top: "conv1/7x7_s2"
  param {
    lr_mult: 1
    decay_mult: 1
  }
  param {
    lr_mult: 2
    decay_mult: 0
  }
  convolution_param {
    num_output: 64
    pad: 3
    kernel_size: 7
    stride: 2
    weight_filler {
      type: "xavier"
    }
    bias_filler {
      type: "constant"
      value: 0.2
    }
  }
}
layer {
  name: "conv1/relu_7x7"
  type: "ReLU"
  bottom: "conv1/7x7_s2"
  top: "conv1/7x7_s2"
}
layer {
  name: "pool1/3x3_s2"
  type: "Pooling"
  bottom: "conv1/7x7_s2"
  top: "pool1/3x3_s2"
  pooling_param {
    pool: MAX
    kernel_size: 3
    stride: 2
  }
}
layer {
  name: "pool1/norm1"
  type: "LRN"
  bottom: "pool1/3x3_s2"
  top: "pool1/norm1"
  lrn_param {
    local_size: 5
    alpha: 0.0001
    beta: 0.75
  }
}
layer {
  name: "conv2/3x3_reduce"
  type: "Convolution"
  bottom: "pool1/norm1"
  top: "conv2/3x3_reduce"
  param {
    lr_mult: 1
    decay_mult: 1
  }
  param {
    lr_mult: 2
    decay_mult: 0
  }
  convolution_param {
    num_output: 64
    kernel_size: 1
    weight_filler {
      type: "xavier"
    }
    bias_filler {
      type: "constant"
      value: 0.2
    }
  }
}
layer {
  name: "conv2/relu_3x3_reduce"
  type: "ReLU"
  bottom: "conv2/3x3_reduce"
  top: "conv2/3x3_reduce"
}
layer {
  name: "conv2/3x3"
  type: "Convolution"
  bottom: "conv2/3x3_reduce"
  top: "conv2/3x3"
  param {
    lr_mult: 1
    decay_mult: 1
  }
  param {
    lr_mult: 2
    decay_mult: 0
  }
  convolution_param {
    num_output: 192
    pad: 1
    kernel_size: 3
    weight_filler {
      type: "xavier"
    }
    bias_filler {
      type: "constant"
      value: 0.2
    }
  }
}
layer {
  name: "conv2/relu_3x3"
  type: "ReLU"
  bottom: "conv2/3x3"
  top: "conv2/3x3"
}
layer {
  name: "conv2/norm2"
  type: "LRN"
  bottom: "conv2/3x3"
  top: "conv2/norm2"
  lrn_param {
    local_size: 5
    alpha: 0.0001
    beta: 0.75
  }
}
layer {
  name: "pool2/3x3_s2"
  type: "Pooling"
  bottom: "conv2/norm2"
  top: "pool2/3x3_s2"
  pooling_param {
    pool: MAX
    kernel_size: 3
    stride: 2
  }
}
layer {
  name: "inception_3a/1x1"
  type: "Convolution"
  bottom: "pool2/3x3_s2"
  top: "inception_3a/1x1"
  param {
    lr_mult: 1
    decay_mult: 1
  }
  param {
    lr_mult: 2
    decay_mult: 0
  }
  convolution_param {
    num_output: 64
    kernel_size: 1
    weight_filler {
      type: "xavier"
    }
    bias_filler {
      type: "constant"
      value: 0.2
    }
  }
}
layer {
  name: "inception_3a/relu_1x1"
  type: "ReLU"
  bottom: "inception_3a/1x1"
  top: "inception_3a/1x1"
}
layer {
  name: "inception_3a/3x3_reduce"
  type: "Convolution"
  bottom: "pool2/3x3_s2"
  top: "inception_3a/3x3_reduce"
  param {
    lr_mult: 1
    decay_mult: 1
  }
  param {
    lr_mult: 2
    decay_mult: 0
  }
  convolution_param {
    num_output: 64
    kernel_size: 1
    weight_filler {
      type: "xavier"
    }
    bias_filler {
      type: "constant"
      value: 0.2
    }
  }
}
layer {
  name: "inception_3a/relu_3x3_reduce"
  type: "ReLU"
  bottom: "inception_3a/3x3_reduce"
  top: "inception_3a/3x3_reduce"
}
layer {
  name: "inception_3a/3x3"
  type: "Convolution"
  bottom: "inception_3a/3x3_reduce"
  top: "inception_3a/3x3"
  param {
    lr_mult: 1
    decay_mult: 1
  }
  param {
    lr_mult: 2
    decay_mult: 0
  }
  convolution_param {
    num_output: 64
    pad: 1
    kernel_size: 3
    weight_filler {
      type: "xavier"
    }
    bias_filler {
      type: "constant"
      value: 0.2
    }
  }
}
layer {
  name: "inception_3a/relu_3x3"
  type: "ReLU"
  bottom: "inception_3a/3x3"
  top: "inception_3a/3x3"
}
layer {
  name: "inception_3a/double3x3_reduce"
  type: "Convolution"
  bottom: "pool2/3x3_s2"
  top: "inception_3a/double3x3_reduce"
  param {
    lr_mult: 1
    decay_mult: 1
  }
  param {
    lr_mult: 2
    decay_mult: 0
  }
  convolution_param {
    num_output: 64
    kernel_size: 1
    weight_filler {
      type: "xavier"
    }
    bias_filler {
      type: "constant"
      value: 0.2
    }
  }
}
layer {
  name: "inception_3a/relu_double3x3_reduce"
  type: "ReLU"
  bottom: "inception_3a/double3x3_reduce"
  top: "inception_3a/double3x3_reduce"
}
layer {
  name: "inception_3a/double3x3_mid"
  type: "Convolution"
  bottom: "inception_3a/double3x3_reduce"
  top: "inception_3a/double3x3_mid"
  param {
    lr_mult: 1
    decay_mult: 1
  }
  param {
    lr_mult: 2
    decay_mult: 0
  }
  convolution_param {
    num_output: 96
    pad: 1
    kernel_size: 3
    weight_filler {
      type: "xavier"
    }
    bias_filler {
      type: "constant"
      value: 0.2
    }
  }
}
layer {
  name: "inception_3a/relu_double3x3_mid"
  type: "ReLU"
  bottom: "inception_3a/double3x3_mid"
  top: "inception_3a/double3x3_mid"
}
layer {
  name: "inception_3a/double3x3"
  type: "Convolution"
  bottom: "inception_3a/double3x3_mid"
  top: "inception_3a/double3x3"
  param {
    lr_mult: 1
    decay_mult: 1
  }
  param {
    lr_mult: 2
    decay_mult: 0
  }
  convolution_param {
    num_output: 96
    pad: 1
    kernel_size: 3
    weight_filler {
      type: "xavier"
    }
    bias_filler {
      type: "constant"
      value: 0.2
    }
  }
}
layer {
  name: "inception_3a/relu_double3x3"
  type: "ReLU"
  bottom: "inception_3a/double3x3"
  top: "inception_3a/double3x3"
}
layer {
  name: "inception_3a/pool"
  type: "Pooling"
  bottom: "pool2/3x3_s2"
  top: "inception_3a/pool"
  pooling_param {
    pool: AVE
    kernel_size: 3
    stride: 1
    pad: 1
  }
}
layer {
  name: "inception_3a/pool_proj"
  type: "Convolution"
  bottom: "inception_3a/pool"
  top: "inception_3a/pool_proj"
  param {
    lr_mult: 1
    decay_mult: 1
  }
  param {
    lr_mult: 2
    decay_mult: 0
  }
  convolution_param {
    num_output: 32
    kernel_size: 1
    weight_filler {
      type: "xavier"
    }
    bias_filler {
      type: "constant"
      value: 0.2
    }
  }
}
layer {
  name: "inception_3a/relu_pool_proj"
  type: "ReLU"
  bottom: "inception_3a/pool_proj"
  top: "inception_3a/pool_proj"
}
layer {
  name: "inception_3a/output"
  type: "Concat"
  bottom: "inception_3a/1x1"
  bottom: "inception_3a/3x3"
  bottom: "inception_3a/double3x3"
  bottom: "inception_3a/pool_proj"
  top: "inception_3a/output"
}
layer {
  name: "inception_3b/1x1"
  type: "Convolution"
  bottom: "inception_3a/output"
  top: "inception_3b/1x1"
  param {
    lr_mult: 1
    decay_mult: 1
  }
  param {
    lr_mult: 2
    decay_mult: 0
  }
  convolution_param {
    num_output: 64
    kernel_size: 1
    weight_filler {
      type: "xavier"
    }
    bias_filler {
      type: "constant"
      value: 0.2
    }
  }
}
layer {
  name: "inception_3b/relu_1x1"
  type: "ReLU"
  bottom: "inception_3b/1x1"
  top: "inception_3b/1x1"
}
layer {
  name: "inception_3b/3x3_reduce"
  type: "Convolution"
  bottom: "inception_3a/output"
  top: "inception_3b/3x3_reduce"
  param {
    lr_mult: 1
    decay_mult: 1
  }
  param {
    lr_mult: 2
    decay_mult: 0
  }
  convolution_param {
    num_output: 64
    kernel_size: 1
    weight_filler {
      type: "xavier"
    }
    bias_filler {
      type: "constant"
      value: 0.2
    }
  }
}
layer {
  name: "inception_3b/relu_3x3_reduce"
  type: "ReLU"
  bottom: "inception_3b/3x3_reduce"
  top: "inception_3b/3x3_reduce"
}
layer {
  name: "inception_3b/3x3"
  type: "Convolution"
  bottom: "inception_3b/3x3_reduce"
  top: "inception_3b/3x3"
  param {
    lr_mult: 1
    decay_mult: 1
  }
  param {
    lr_mult: 2
    decay_mult: 0
  }
  convolution_param {
    num_output: 96
    pad: 1
    kernel_size: 3
    weight_filler {
      type: "xavier"
    }
    bias_filler {
      type: "constant"
      value: 0.2
    }
  }
}
layer {
  name: "inception_3b/relu_3x3"
  type: "ReLU"
  bottom: "inception_3b/3x3"
  top: "inception_3b/3x3"
}
layer {
  name: "inception_3b/double3x3_reduce"
  type: "Convolution"
  bottom: "inception_3a/output"
  top: "inception_3b/double3x3_reduce"
  param {
    lr_mult: 1
    decay_mult: 1
  }
  param {
    lr_mult: 2
    decay_mult: 0
  }
  convolution_param {
    num_output: 64
    kernel_size: 1
    weight_filler {
      type: "xavier"
    }
    bias_filler {
      type: "constant"
      value: 0.2
    }
  }
}
layer {
  name: "inception_3b/relu_double3x3_reduce"
  type: "ReLU"
  bottom: "inception_3b/double3x3_reduce"
  top: "inception_3b/double3x3_reduce"
}
layer {
  name: "inception_3b/double3x3_mid"
  type: "Convolution"
  bottom: "inception_3b/double3x3_reduce"
  top: "inception_3b/double3x3_mid"
  param {
    lr_mult: 1
    decay_mult: 1
  }
  param {
    lr_mult: 2
    decay_mult: 0
  }
  convolution_param {
    num_output: 96
    pad: 1
    kernel_size: 3
    weight_filler {
      type: "xavier"
    }
    bias_filler {
      type: "constant"
      value: 0.2
    }
  }
}
layer {
  name: "inception_3b/relu_double3x3_mid"
  type: "ReLU"
  bottom: "inception_3b/double3x3_mid"
  top: "inception_3b/double3x3_mid"
}
layer {
  name: "inception_3b/double3x3"
  type: "Convolution"
  bottom: "inception_3b/double3x3_mid"
  top: "inception_3b/double3x3"
  param {
    lr_mult: 1
    decay_mult: 1
  }
  param {
    lr_mult: 2
    decay_mult: 0
  }
  convolution_param {
    num_output: 96
    pad: 1
    kernel_size: 3
    weight_filler {
      type: "xavier"
    }
    bias_filler {
      type: "constant"
      value: 0.2
    }
  }
}
layer {
  name: "inception_3b/relu_double3x3"
  type: "ReLU"
  bottom: "inception_3b/double3x3"
  top: "inception_3b/double3x3"
}
layer {
  name: "inception_3b/pool"
  type: "Pooling"
  bottom: "inception_3a/output"
  top: "inception_3b/pool"
  pooling_param {
    pool: AVE
    kernel_size: 3
    stride: 1
    pad: 1
  }
}
layer {
  name: "inception_3b/pool_proj"
  type: "Convolution"
  bottom: "inception_3b/pool"
  top: "inception_3b/pool_proj"
  param {
    lr_mult: 1
    decay_mult: 1
  }
  param {
    lr_mult: 2
    decay_mult: 0
  }
  convolution_param {
    num_output: 64
…
I0906 12:04:23.498200 88038 net.cpp:155] Setting up inception_4c/double3x3_reduce
I0906 12:04:23.498219 88038 net.cpp:163] Top shape: 50 128 14 14 (1254400)
I0906 12:04:23.498234 88038 layer_factory.hpp:76] Creating layer inception_4c/relu_double3x3_reduce
I0906 12:04:23.498245 88038 net.cpp:110] Creating Layer inception_4c/relu_double3x3_reduce
I0906 12:04:23.498252 88038 net.cpp:477] inception_4c/relu_double3x3_reduce <- inception_4c/double3x3_reduce
I0906 12:04:23.498261 88038 net.cpp:419] inception_4c/relu_double3x3_reduce -> inception_4c/double3x3_reduce (in-place)
I0906 12:04:23.498273 88038 net.cpp:155] Setting up inception_4c/relu_double3x3_reduce
I0906 12:04:23.498282 88038 net.cpp:163] Top shape: 50 128 14 14 (1254400)
I0906 12:04:23.498289 88038 layer_factory.hpp:76] Creating layer inception_4c/double3x3_mid
I0906 12:04:23.498306 88038 net.cpp:110] Creating Layer inception_4c/double3x3_mid
I0906 12:04:23.498312 88038 net.cpp:477] inception_4c/double3x3_mid <- inception_4c/double3x3_reduce
I0906 12:04:23.498323 88038 net.cpp:433] inception_4c/double3x3_mid -> inception_4c/double3x3_mid
I0906 12:04:23.502449 88038 net.cpp:155] Setting up inception_4c/double3x3_mid
I0906 12:04:23.502476 88038 net.cpp:163] Top shape: 50 160 14 14 (1568000)
I0906 12:04:23.502490 88038 layer_factory.hpp:76] Creating layer inception_4c/relu_double3x3_mid
I0906 12:04:23.502504 88038 net.cpp:110] Creating Layer inception_4c/relu_double3x3_mid
I0906 12:04:23.502513 88038 net.cpp:477] inception_4c/relu_double3x3_mid <- inception_4c/double3x3_mid
I0906 12:04:23.502523 88038 net.cpp:419] inception_4c/relu_double3x3_mid -> inception_4c/double3x3_mid (in-place)
I0906 12:04:23.502537 88038 net.cpp:155] Setting up inception_4c/relu_double3x3_mid
I0906 12:04:23.502547 88038 net.cpp:163] Top shape: 50 160 14 14 (1568000)
I0906 12:04:23.502553 88038 layer_factory.hpp:76] Creating layer inception_4c/double3x3
I0906 12:04:23.502568 88038 net.cpp:110] Creating Layer inception_4c/double3x3
I0906 12:04:23.502573 88038 net.cpp:477] inception_4c/double3x3 <- inception_4c/double3x3_mid
I0906 12:04:23.502584 88038 net.cpp:433] inception_4c/double3x3 -> inception_4c/double3x3
I0906 12:04:23.507446 88038 net.cpp:155] Setting up inception_4c/double3x3
I0906 12:04:23.507473 88038 net.cpp:163] Top shape: 50 160 14 14 (1568000)
I0906 12:04:23.507488 88038 layer_factory.hpp:76] Creating layer inception_4c/relu_double3x3
I0906 12:04:23.507500 88038 net.cpp:110] Creating Layer inception_4c/relu_double3x3
I0906 12:04:23.507508 88038 net.cpp:477] inception_4c/relu_double3x3 <- inception_4c/double3x3
I0906 12:04:23.507529 88038 net.cpp:419] inception_4c/relu_double3x3 -> inception_4c/double3x3 (in-place)
I0906 12:04:23.507544 88038 net.cpp:155] Setting up inception_4c/relu_double3x3
I0906 12:04:23.507555 88038 net.cpp:163] Top shape: 50 160 14 14 (1568000)
I0906 12:04:23.507560 88038 layer_factory.hpp:76] Creating layer inception_4c/pool
I0906 12:04:23.507572 88038 net.cpp:110] Creating Layer inception_4c/pool
I0906 12:04:23.507580 88038 net.cpp:477] inception_4c/pool <- inception_4b/output_inception_4b/output_0_split_3
I0906 12:04:23.507592 88038 net.cpp:433] inception_4c/pool -> inception_4c/pool
I0906 12:04:23.507608 88038 net.cpp:155] Setting up inception_4c/pool
I0906 12:04:23.507618 88038 net.cpp:163] Top shape: 50 576 14 14 (5644800)
I0906 12:04:23.507624 88038 layer_factory.hpp:76] Creating layer inception_4c/pool_proj
I0906 12:04:23.507638 88038 net.cpp:110] Creating Layer inception_4c/pool_proj
I0906 12:04:23.507647 88038 net.cpp:477] inception_4c/pool_proj <- inception_4c/pool
I0906 12:04:23.507663 88038 net.cpp:433] inception_4c/pool_proj -> inception_4c/pool_proj
I0906 12:04:23.508942 88038 net.cpp:155] Setting up inception_4c/pool_proj
I0906 12:04:23.508963 88038 net.cpp:163] Top shape: 50 128 14 14 (1254400)
I0906 12:04:23.508977 88038 layer_factory.hpp:76] Creating layer inception_4c/relu_pool_proj
I0906 12:04:23.509014 88038 net.cpp:110] Creating Layer inception_4c/relu_pool_proj
I0906 12:04:23.509023 88038 net.cpp:477] inception_4c/relu_pool_proj <- inception_4c/pool_proj
I0906 12:04:23.509034 88038 net.cpp:419] inception_4c/relu_pool_proj -> inception_4c/pool_proj (in-place)
I0906 12:04:23.509047 88038 net.cpp:155] Setting up inception_4c/relu_pool_proj
I0906 12:04:23.509057 88038 net.cpp:163] Top shape: 50 128 14 14 (1254400)
I0906 12:04:23.509064 88038 layer_factory.hpp:76] Creating layer inception_4c/output
I0906 12:04:23.509075 88038 net.cpp:110] Creating Layer inception_4c/output
I0906 12:04:23.509083 88038 net.cpp:477] inception_4c/output <- inception_4c/1x1
I0906 12:04:23.509093 88038 net.cpp:477] inception_4c/output <- inception_4c/3x3
I0906 12:04:23.509101 88038 net.cpp:477] inception_4c/output <- inception_4c/double3x3
I0906 12:04:23.509109 88038 net.cpp:477] inception_4c/output <- inception_4c/pool_proj
I0906 12:04:23.509120 88038 net.cpp:433] inception_4c/output -> inception_4c/output
I0906 12:04:23.509135 88038 net.cpp:155] Setting up inception_4c/output
I0906 12:04:23.509145 88038 net.cpp:163] Top shape: 50 608 14 14 (5958400)
I0906 12:04:23.509152 88038 layer_factory.hpp:76] Creating layer inception_4c/output_inception_4c/output_0_split
I0906 12:04:23.509165 88038 net.cpp:110] Creating Layer inception_4c/output_inception_4c/output_0_split
I0906 12:04:23.509171 88038 net.cpp:477] inception_4c/output_inception_4c/output_0_split <- inception_4c/output
I0906 12:04:23.509187 88038 net.cpp:433] inception_4c/output_inception_4c/output_0_split -> inception_4c/output_inception_4c/output_0_split_0
I0906 12:04:23.509202 88038 net.cpp:433] inception_4c/output_inception_4c/output_0_split -> inception_4c/output_inception_4c/output_0_split_1
I0906 12:04:23.509215 88038 net.cpp:433] inception_4c/output_inception_4c/output_0_split -> inception_4c/output_inception_4c/output_0_split_2
I0906 12:04:23.509248 88038 net.cpp:433] inception_4c/output_inception_4c/output_0_split -> inception_4c/output_inception_4c/output_0_split_3
I0906 12:04:23.509261 88038 net.cpp:155] Setting up inception_4c/output_inception_4c/output_0_split
I0906 12:04:23.509271 88038 net.cpp:163] Top shape: 50 608 14 14 (5958400)
I0906 12:04:23.509279 88038 net.cpp:163] Top shape: 50 608 14 14 (5958400)
I0906 12:04:23.509289 88038 net.cpp:163] Top shape: 50 608 14 14 (5958400)
I0906 12:04:23.509296 88038 net.cpp:163] Top shape: 50 608 14 14 (5958400)
I0906 12:04:23.509304 88038 layer_factory.hpp:76] Creating layer inception_4d/1x1
I0906 12:04:23.509316 88038 net.cpp:110] Creating Layer inception_4d/1x1
I0906 12:04:23.509323 88038 net.cpp:477] inception_4d/1x1 <- inception_4c/output_inception_4c/output_0_split_0
I0906 12:04:23.509340 88038 net.cpp:433] inception_4d/1x1 -> inception_4d/1x1
I0906 12:04:23.510416 88038 net.cpp:155] Setting up inception_4d/1x1
I0906 12:04:23.510439 88038 net.cpp:163] Top shape: 50 96 14 14 (940800)
I0906 12:04:23.510453 88038 layer_factory.hpp:76] Creating layer inception_4d/relu_1x1
I0906 12:04:23.510467 88038 net.cpp:110] Creating Layer inception_4d/relu_1x1
I0906 12:04:23.510474 88038 net.cpp:477] inception_4d/relu_1x1 <- inception_4d/1x1
I0906 12:04:23.510484 88038 net.cpp:419] inception_4d/relu_1x1 -> inception_4d/1x1 (in-place)
I0906 12:04:23.510495 88038 net.cpp:155] Setting up inception_4d/relu_1x1
I0906 12:04:23.510505 88038 net.cpp:163] Top shape: 50 96 14 14 (940800)
I0906 12:04:23.510511 88038 layer_factory.hpp:76] Creating layer inception_4d/3x3_reduce
I0906 12:04:23.510525 88038 net.cpp:110] Creating Layer inception_4d/3x3_reduce
I0906 12:04:23.510531 88038 net.cpp:477] inception_4d/3x3_reduce <- inception_4c/output_inception_4c/output_0_split_1
I0906 12:04:23.510548 88038 net.cpp:433] inception_4d/3x3_reduce -> inception_4d/3x3_reduce
I0906 12:04:23.511909 88038 net.cpp:155] Setting up inception_4d/3x3_reduce
I0906 12:04:23.511929 88038 net.cpp:163] Top shape: 50 128 14 14 (1254400)
I0906 12:04:23.511943 88038 layer_factory.hpp:76] Creating layer inception_4d/relu_3x3_reduce
I0906 12:04:23.511976 88038 net.cpp:110] Creating Layer inception_4d/relu_3x3_reduce
I0906 12:04:23.511984 88038 net.cpp:477] inception_4d/relu_3x3_reduce <- inception_4d/3x3_reduce
I0906 12:04:23.511994 88038 net.cpp:419] inception_4d/relu_3x3_reduce -> inception_4d/3x3_reduce (in-place)
I0906 12:04:23.512007 88038 net.cpp:155] Setting up inception_4d/relu_3x3_reduce
I0906 12:04:23.512017 88038 net.cpp:163] Top shape: 50 128 14 14 (1254400)
I0906 12:04:23.512024 88038 layer_factory.hpp:76] Creating layer inception_4d/3x3
I0906 12:04:23.512037 88038 net.cpp:110] Creating Layer inception_4d/3x3
I0906 12:04:23.512043 88038 net.cpp:477] inception_4d/3x3 <- inception_4d/3x3_reduce
I0906 12:04:23.512059 88038 net.cpp:433] inception_4d/3x3 -> inception_4d/3x3
I0906 12:04:23.516816 88038 net.cpp:155] Setting up inception_4d/3x3
I0906 12:04:23.516844 88038 net.cpp:163] Top shape: 50 192 14 14 (1881600)
I0906 12:04:23.516860 88038 layer_factory.hpp:76] Creating layer inception_4d/relu_3x3
I0906 12:04:23.516919 88038 net.cpp:110] Creating Layer inception_4d/relu_3x3
I0906 12:04:23.516929 88038 net.cpp:477] inception_4d/relu_3x3 <- inception_4d/3x3
I0906 12:04:23.516942 88038 net.cpp:419] inception_4d/relu_3x3 -> inception_4d/3x3 (in-place)
I0906 12:04:23.516955 88038 net.cpp:155] Setting up inception_4d/relu_3x3
I0906 12:04:23.516965 88038 net.cpp:163] Top shape: 50 192 14 14 (1881600)
I0906 12:04:23.516974 88038 layer_factory.hpp:76] Creating layer inception_4d/double3x3_reduce
I0906 12:04:23.516988 88038 net.cpp:110] Creating Layer inception_4d/double3x3_reduce
I0906 12:04:23.516996 88038 net.cpp:477] inception_4d/double3x3_reduce <- inception_4c/output_inception_4c/output_0_split_2
I0906 12:04:23.517009 88038 net.cpp:433] inception_4d/double3x3_reduce -> inception_4d/double3x3_reduce
I0906 12:04:23.520692 88038 net.cpp:155] Setting up inception_4d/double3x3_reduce
I0906 12:04:23.520727 88038 net.cpp:163] Top shape: 50 160 14 14 (1568000)
I0906 12:04:23.520746 88038 layer_factory.hpp:76] Creating layer inception_4d/relu_double3x3_reduce
I0906 12:04:23.520761 88038 net.cpp:110] Creating Layer inception_4d/relu_double3x3_reduce
I0906 12:04:23.520769 88038 net.cpp:477] inception_4d/relu_double3x3_reduce <- inception_4d/double3x3_reduce
I0906 12:04:23.520782 88038 net.cpp:419] inception_4d/relu_double3x3_reduce -> inception_4d/double3x3_reduce (in-place)
I0906 12:04:23.520798 88038 net.cpp:155] Setting up inception_4d/relu_double3x3_reduce
I0906 12:04:23.520808 88038 net.cpp:163] Top shape: 50 160 14 14 (1568000)
I0906 12:04:23.520815 88038 layer_factory.hpp:76] Creating layer inception_4d/double3x3_mid
I0906 12:04:23.520829 88038 net.cpp:110] Creating Layer inception_4d/double3x3_mid
I0906 12:04:23.520836 88038 net.cpp:477] inception_4d/double3x3_mid <- inception_4d/double3x3_reduce
I0906 12:04:23.520859 88038 net.cpp:433] inception_4d/double3x3_mid -> inception_4d/double3x3_mid
I0906 12:04:23.526476 88038 net.cpp:155] Setting up inception_4d/double3x3_mid
I0906 12:04:23.526505 88038 net.cpp:163] Top shape: 50 192 14 14 (1881600)
I0906 12:04:23.526522 88038 layer_factory.hpp:76] Creating layer inception_4d/relu_double3x3_mid
I0906 12:04:23.526538 88038 net.cpp:110] Creating Layer inception_4d/relu_double3x3_mid
I0906 12:04:23.526547 88038 net.cpp:477] inception_4d/relu_double3x3_mid <- inception_4d/double3x3_mid
I0906 12:04:23.526559 88038 net.cpp:419] inception_4d/relu_double3x3_mid -> inception_4d/double3x3_mid (in-place)
I0906 12:04:23.526574 88038 net.cpp:155] Setting up inception_4d/relu_double3x3_mid
I0906 12:04:23.526584 88038 net.cpp:163] Top shape: 50 192 14 14 (1881600)
I0906 12:04:23.526592 88038 layer_factory.hpp:76] Creating layer inception_4d/double3x3
I0906 12:04:23.526603 88038 net.cpp:110] Creating Layer inception_4d/double3x3
I0906 12:04:23.526610 88038 net.cpp:477] inception_4d/double3x3 <- inception_4d/double3x3_mid
I0906 12:04:23.526623 88038 net.cpp:433] inception_4d/double3x3 -> inception_4d/double3x3
I0906 12:04:23.533246 88038 net.cpp:155] Setting up inception_4d/double3x3
I0906 12:04:23.533273 88038 net.cpp:163] Top shape: 50 192 14 14 (1881600)
I0906 12:04:23.533315 88038 layer_factory.hpp:76] Creating layer inception_4d/relu_double3x3
I0906 12:04:23.533330 88038 net.cpp:110] Creating Layer inception_4d/relu_double3x3
I0906 12:04:23.533339 88038 net.cpp:477] inception_4d/relu_double3x3 <- inception_4d/double3x3
I0906 12:04:23.533349 88038 net.cpp:419] inception_4d/relu_double3x3 -> inception_4d/double3x3 (in-place)
I0906 12:04:23.533365 88038 net.cpp:155] Setting up inception_4d/relu_double3x3
I0906 12:04:23.533375 88038 net.cpp:163] Top shape: 50 192 14 14 (1881600)
I0906 12:04:23.533381 88038 layer_factory.hpp:76] Creating layer inception_4d/pool
I0906 12:04:23.533397 88038 net.cpp:110] Creating Layer inception_4d/pool
I0906 12:04:23.533406 88038 net.cpp:477] inception_4d/pool <- inception_4c/output_inception_4c/output_0_split_3
I0906 12:04:23.533417 88038 net.cpp:433] inception_4d/pool -> inception_4d/pool
I0906 12:04:23.533435 88038 net.cpp:155] Setting up inception_4d/pool
I0906 12:04:23.533444 88038 net.cpp:163] Top shape: 50 608 14 14 (5958400)
I0906 12:04:23.533452 88038 layer_factory.hpp:76] Creating layer inception_4d/pool_proj
I0906 12:04:23.533469 88038 net.cpp:110] Creating Layer inception_4d/pool_proj
I0906 12:04:23.533498 88038 net.cpp:477] inception_4d/pool_proj <- inception_4d/pool
I0906 12:04:23.533510 88038 net.cpp:433] inception_4d/pool_proj -> inception_4d/pool_proj
I0906 12:04:23.534849 88038 net.cpp:155] Setting up inception_4d/pool_proj
I0906 12:04:23.534868 88038 net.cpp:163] Top shape: 50 128 14 14 (1254400)
I0906 12:04:23.534881 88038 layer_factory.hpp:76] Creating layer inception_4d/relu_pool_proj
I0906 12:04:23.534898 88038 net.cpp:110] Creating Layer inception_4d/relu_pool_proj
I0906 12:04:23.534905 88038 net.cpp:477] inception_4d/relu_pool_proj <- inception_4d/pool_proj
I0906 12:04:23.534915 88038 net.cpp:419] inception_4d/relu_pool_proj -> inception_4d/pool_proj (in-place)
I0906 12:04:23.534929 88038 net.cpp:155] Setting up inception_4d/relu_pool_proj
I0906 12:04:23.534937 88038 net.cpp:163] Top shape: 50 128 14 14 (1254400)
I0906 12:04:23.534943 88038 layer_factory.hpp:76] Creating layer inception_4d/output
I0906 12:04:23.534955 88038 net.cpp:110] Creating Layer inception_4d/output
I0906 12:04:23.534962 88038 net.cpp:477] inception_4d/output <- inception_4d/1x1
I0906 12:04:23.534971 88038 net.cpp:477] inception_4d/output <- inception_4d/3x3
I0906 12:04:23.534981 88038 net.cpp:477] inception_4d/output <- inception_4d/double3x3
I0906 12:04:23.534989 88038 net.cpp:477] inception_4d/output <- inception_4d/pool_proj
I0906 12:04:23.535001 88038 net.cpp:433] inception_4d/output -> inception_4d/output
I0906 12:04:23.535015 88038 net.cpp:155] Setting up inception_4d/output
I0906 12:04:23.535024 88038 net.cpp:163] Top shape: 50 608 14 14 (5958400)
I0906 12:04:23.535032 88038 layer_factory.hpp:76] Creating layer inception_4d/output_inception_4d/output_0_split
I0906 12:04:23.535043 88038 net.cpp:110] Creating Layer inception_4d/output_inception_4d/output_0_split
I0906 12:04:23.535050 88038 net.cpp:477] inception_4d/output_inception_4d/output_0_split <- inception_4d/output
I0906 12:04:23.535063 88038 net.cpp:433] inception_4d/output_inception_4d/output_0_split -> inception_4d/output_inception_4d/output_0_split_0
I0906 12:04:23.535079 88038 net.cpp:433] inception_4d/output_inception_4d/output_0_split -> inception_4d/output_inception_4d/output_0_split_1
I0906 12:04:23.535092 88038 net.cpp:433] inception_4d/output_inception_4d/output_0_split -> inception_4d/output_inception_4d/output_0_split_2
I0906 12:04:23.535105 88038 net.cpp:433] inception_4d/output_inception_4d/output_0_split -> inception_4d/output_inception_4d/output_0_split_3
I0906 12:04:23.535120 88038 net.cpp:155] Setting up inception_4d/output_inception_4d/output_0_split
I0906 12:04:23.535128 88038 net.cpp:163] Top shape: 50 608 14 14 (5958400)
I0906 12:04:23.535136 88038 net.cpp:163] Top shape: 50 608 14 14 (5958400)
I0906 12:04:23.535145 88038 net.cpp:163] Top shape: 50 608 14 14 (5958400)
I0906 12:04:23.535152 88038 net.cpp:163] Top shape: 50 608 14 14 (5958400)
I0906 12:04:23.535178 88038 layer_factory.hpp:76] Creating layer loss2/ave_pool
I0906 12:04:23.535192 88038 net.cpp:110] Creating Layer loss2/ave_pool
I0906 12:04:23.535198 88038 net.cpp:477] loss2/ave_pool <- inception_4d/output_inception_4d/output_0_split_0
I0906 12:04:23.535212 88038 net.cpp:433] loss2/ave_pool -> loss2/ave_pool
I0906 12:04:23.535226 88038 net.cpp:155] Setting up loss2/ave_pool
I0906 12:04:23.535236 88038 net.cpp:163] Top shape: 50 608 4 4 (486400)
I0906 12:04:23.535243 88038 layer_factory.hpp:76] Creating layer loss2/conv
I0906 12:04:23.535261 88038 net.cpp:110] Creating Layer loss2/conv
I0906 12:04:23.535269 88038 net.cpp:477] loss2/conv <- loss2/ave_pool
I0906 12:04:23.535280 88038 net.cpp:433] loss2/conv -> loss2/conv
I0906 12:04:23.536644 88038 net.cpp:155] Setting up loss2/conv
I0906 12:04:23.536666 88038 net.cpp:163] Top shape: 50 128 4 4 (102400)
I0906 12:04:23.536680 88038 layer_factory.hpp:76] Creating layer loss2/relu_conv
I0906 12:04:23.536691 88038 net.cpp:110] Creating Layer loss2/relu_conv
I0906 12:04:23.536700 88038 net.cpp:477] loss2/relu_conv <- loss2/conv
I0906 12:04:23.536710 88038 net.cpp:419] loss2/relu_conv -> loss2/conv (in-place)
I0906 12:04:23.536721 88038 net.cpp:155] Setting up loss2/relu_conv
I0906 12:04:23.536731 88038 net.cpp:163] Top shape: 50 128 4 4 (102400)
I0906 12:04:23.536737 88038 layer_factory.hpp:76] Creating layer loss2/fc
I0906 12:04:23.536751 88038 net.cpp:110] Creating Layer loss2/fc
I0906 12:04:23.536757 88038 net.cpp:477] loss2/fc <- loss2/conv
I0906 12:04:23.536782 88038 net.cpp:433] loss2/fc -> loss2/fc
I0906 12:04:23.577581 88038 net.cpp:155] Setting up loss2/fc
I0906 12:04:23.577632 88038 net.cpp:163] Top shape: 50 1024 (51200)
I0906 12:04:23.577653 88038 layer_factory.hpp:76] Creating layer loss2/relu_fc
I0906 12:04:23.577674 88038 net.cpp:110] Creating Layer loss2/relu_fc
I0906 12:04:23.577687 88038 net.cpp:477] loss2/relu_fc <- loss2/fc
I0906 12:04:23.577700 88038 net.cpp:419] loss2/relu_fc -> loss2/fc (in-place)
I0906 12:04:23.577718 88038 net.cpp:155] Setting up loss2/relu_fc
I0906 12:04:23.577728 88038 net.cpp:163] Top shape: 50 1024 (51200)
I0906 12:04:23.577734 88038 layer_factory.hpp:76] Creating layer loss2/drop_fc
I0906 12:04:23.577749 88038 net.cpp:110] Creating Layer loss2/drop_fc
I0906 12:04:23.577755 88038 net.cpp:477] loss2/drop_fc <- loss2/fc
I0906 12:04:23.577766 88038 net.cpp:419] loss2/drop_fc -> loss2/fc (in-place)
I0906 12:04:23.577782 88038 net.cpp:155] Setting up loss2/drop_fc
I0906 12:04:23.577791 88038 net.cpp:163] Top shape: 50 1024 (51200)
I0906 12:04:23.577798 88038 layer_factory.hpp:76] Creating layer loss2/classifier
I0906 12:04:23.577816 88038 net.cpp:110] Creating Layer loss2/classifier
I0906 12:04:23.577822 88038 net.cpp:477] loss2/classifier <- loss2/fc
I0906 12:04:23.577838 88038 net.cpp:433] loss2/classifier -> loss2/classifier
I0906 12:04:23.597748 88038 net.cpp:155] Setting up loss2/classifier
I0906 12:04:23.597780 88038 net.cpp:163] Top shape: 50 1000 (50000)
I0906 12:04:23.597797 88038 layer_factory.hpp:76] Creating layer loss2/classifier_loss2/classifier_0_split
I0906 12:04:23.597813 88038 net.cpp:110] Creating Layer loss2/classifier_loss2/classifier_0_split
I0906 12:04:23.597823 88038 net.cpp:477] loss2/classifier_loss2/classifier_0_split <- loss2/classifier
I0906 12:04:23.597836 88038 net.cpp:433] loss2/classifier_loss2/classifier_0_split -> loss2/classifier_loss2/classifier_0_split_0
I0906 12:04:23.597853 88038 net.cpp:433] loss2/classifier_loss2/classifier_0_split -> loss2/classifier_loss2/classifier_0_split_1
I0906 12:04:23.597867 88038 net.cpp:433] loss2/classifier_loss2/classifier_0_split -> loss2/classifier_loss2/classifier_0_split_2
I0906 12:04:23.597883 88038 net.cpp:155] Setting up loss2/classifier_loss2/classifier_0_split
I0906 12:04:23.597893 88038 net.cpp:163] Top shape: 50 1000 (50000)
I0906 12:04:23.597901 88038 net.cpp:163] Top shape: 50 1000 (50000)
I0906 12:04:23.597909 88038 net.cpp:163] Top shape: 50 1000 (50000)
I0906 12:04:23.597916 88038 layer_factory.hpp:76] Creating layer loss2/loss
I0906 12:04:23.597970 88038 net.cpp:110] Creating Layer loss2/loss
I0906 12:04:23.597993 88038 net.cpp:477] loss2/loss <- loss2/classifier_loss2/classifier_0_split_0
I0906 12:04:23.598006 88038 net.cpp:477] loss2/loss <- label_data_1_split_3
I0906 12:04:23.598019 88038 net.cpp:433] loss2/loss -> loss2/loss1
I0906 12:04:23.598075 88038 layer_factory.hpp:76] Creating layer loss2/loss
…
I0906 12:04:23.598521 88038 net.cpp:155] Setting up loss2/top-5
I0906 12:04:23.598531 88038 net.cpp:163] Top shape: (1)
I0906 12:04:23.598537 88038 layer_factory.hpp:76] Creating layer inception_4e/3x3_reduce
I0906 12:04:23.598552 88038 net.cpp:110] Creating Layer inception_4e/3x3_reduce
I0906 12:04:23.598561 88038 net.cpp:477] inception_4e/3x3_reduce <- inception_4d/output_inception_4d/output_0_split_1
I0906 12:04:23.598577 88038 net.cpp:433] inception_4e/3x3_reduce -> inception_4e/3x3_reduce
I0906 12:04:23.599966 88038 net.cpp:155] Setting up inception_4e/3x3_reduce
I0906 12:04:23.599987 88038 net.cpp:163] Top shape: 50 128 14 14 (1254400)
I0906 12:04:23.600003 88038 layer_factory.hpp:76] Creating layer inception_4e/relu_3x3_reduce
I0906 12:04:23.600014 88038 net.cpp:110] Creating Layer inception_4e/relu_3x3_reduce
I0906 12:04:23.600023 88038 net.cpp:477] inception_4e/relu_3x3_reduce <- inception_4e/3x3_reduce
I0906 12:04:23.600033 88038 net.cpp:419] inception_4e/relu_3x3_reduce -> inception_4e/3x3_reduce (in-place)
I0906 12:04:23.600046 88038 net.cpp:155] Setting up inception_4e/relu_3x3_reduce
I0906 12:04:23.600056 88038 net.cpp:163] Top shape: 50 128 14 14 (1254400)
I0906 12:04:23.600064 88038 layer_factory.hpp:76] Creating layer inception_4e/3x3_s2
I0906 12:04:23.600076 88038 net.cpp:110] Creating Layer inception_4e/3x3_s2
I0906 12:04:23.600083 88038 net.cpp:477] inception_4e/3x3_s2 <- inception_4e/3x3_reduce
I0906 12:04:23.600100 88038 net.cpp:433] inception_4e/3x3_s2 -> inception_4e/3x3_s2
I0906 12:04:23.604840 88038 net.cpp:155] Setting up inception_4e/3x3_s2
I0906 12:04:23.604869 88038 net.cpp:163] Top shape: 50 192 7 7 (470400)
I0906 12:04:23.604884 88038 layer_factory.hpp:76] Creating layer inception_4e/relu_3x3
I0906 12:04:23.604898 88038 net.cpp:110] Creating Layer inception_4e/relu_3x3
I0906 12:04:23.604907 88038 net.cpp:477] inception_4e/relu_3x3 <- inception_4e/3x3_s2
I0906 12:04:23.604923 88038 net.cpp:419] inception_4e/relu_3x3 -> inception_4e/3x3_s2 (in-place)
I0906 12:04:23.604936 88038 net.cpp:155] Setting up inception_4e/relu_3x3
I0906 12:04:23.604946 88038 net.cpp:163] Top shape: 50 192 7 7 (470400)
I0906 12:04:23.604954 88038 layer_factory.hpp:76] Creating layer inception_4e/double3x3_reduce
I0906 12:04:23.604967 88038 net.cpp:110] Creating Layer inception_4e/double3x3_reduce
I0906 12:04:23.604974 88038 net.cpp:477] inception_4e/double3x3_reduce <- inception_4d/output_inception_4d/output_0_split_2
I0906 12:04:23.604986 88038 net.cpp:433] inception_4e/double3x3_reduce -> inception_4e/double3x3_reduce
I0906 12:04:23.608052 88038 net.cpp:155] Setting up inception_4e/double3x3_reduce
I0906 12:04:23.608108 88038 net.cpp:163] Top shape: 50 192 14 14 (1881600)
I0906 12:04:23.608126 88038 layer_factory.hpp:76] Creating layer inception_4e/relu_double3x3_reduce
I0906 12:04:23.608139 88038 net.cpp:110] Creating Layer inception_4e/relu_double3x3_reduce
I0906 12:04:23.608147 88038 net.cpp:477] inception_4e/relu_double3x3_reduce <- inception_4e/double3x3_reduce
I0906 12:04:23.608158 88038 net.cpp:419] inception_4e/relu_double3x3_reduce -> inception_4e/double3x3_reduce (in-place)
I0906 12:04:23.608172 88038 net.cpp:155] Setting up inception_4e/relu_double3x3_reduce
I0906 12:04:23.608181 88038 net.cpp:163] Top shape: 50 192 14 14 (1881600)
I0906 12:04:23.608188 88038 layer_factory.hpp:76] Creating layer inception_4e/double3x3_mid
I0906 12:04:23.608207 88038 net.cpp:110] Creating Layer inception_4e/double3x3_mid
I0906 12:04:23.608216 88038 net.cpp:477] inception_4e/double3x3_mid <- inception_4e/double3x3_reduce
I0906 12:04:23.608227 88038 net.cpp:433] inception_4e/double3x3_mid -> inception_4e/double3x3_mid
I0906 12:04:23.616974 88038 net.cpp:155] Setting up inception_4e/double3x3_mid
I0906 12:04:23.617003 88038 net.cpp:163] Top shape: 50 256 14 14 (2508800)
I0906 12:04:23.617018 88038 layer_factory.hpp:76] Creating layer inception_4e/relu_double3x3_mid
I0906 12:04:23.617038 88038 net.cpp:110] Creating Layer inception_4e/relu_double3x3_mid
I0906 12:04:23.617046 88038 net.cpp:477] inception_4e/relu_double3x3_mid <- inception_4e/double3x3_mid
I0906 12:04:23.617058 88038 net.cpp:419] inception_4e/relu_double3x3_mid -> inception_4e/double3x3_mid (in-place)
I0906 12:04:23.617071 88038 net.cpp:155] Setting up inception_4e/relu_double3x3_mid
I0906 12:04:23.617080 88038 net.cpp:163] Top shape: 50 256 14 14 (2508800)
I0906 12:04:23.617087 88038 layer_factory.hpp:76] Creating layer inception_4e/double3x3
I0906 12:04:23.617102 88038 net.cpp:110] Creating Layer inception_4e/double3x3
I0906 12:04:23.617108 88038 net.cpp:477] inception_4e/double3x3 <- inception_4e/double3x3_mid
I0906 12:04:23.617120 88038 net.cpp:433] inception_4e/double3x3 -> inception_4e/double3x3_s2
I0906 12:04:23.628698 88038 net.cpp:155] Setting up inception_4e/double3x3
I0906 12:04:23.628727 88038 net.cpp:163] Top shape: 50 256 7 7 (627200)
I0906 12:04:23.628743 88038 layer_factory.hpp:76] Creating layer inception_4e/relu_double3x3
I0906 12:04:23.628756 88038 net.cpp:110] Creating Layer inception_4e/relu_double3x3
I0906 12:04:23.628765 88038 net.cpp:477] inception_4e/relu_double3x3 <- inception_4e/double3x3_s2
I0906 12:04:23.628775 88038 net.cpp:419] inception_4e/relu_double3x3 -> inception_4e/double3x3_s2 (in-place)
I0906 12:04:23.628789 88038 net.cpp:155] Setting up inception_4e/relu_double3x3
I0906 12:04:23.628799 88038 net.cpp:163] Top shape: 50 256 7 7 (627200)
I0906 12:04:23.628805 88038 layer_factory.hpp:76] Creating layer inception_4e/pool
I0906 12:04:23.628818 88038 net.cpp:110] Creating Layer inception_4e/pool
I0906 12:04:23.628826 88038 net.cpp:477] inception_4e/pool <- inception_4d/output_inception_4d/output_0_split_3
I0906 12:04:23.628842 88038 net.cpp:433] inception_4e/pool -> inception_4e/pool
I0906 12:04:23.628862 88038 net.cpp:155] Setting up inception_4e/pool
I0906 12:04:23.628871 88038 net.cpp:163] Top shape: 50 608 7 7 (1489600)
I0906 12:04:23.628878 88038 layer_factory.hpp:76] Creating layer inception_4e/relu_pool
I0906 12:04:23.628890 88038 net.cpp:110] Creating Layer inception_4e/relu_pool
I0906 12:04:23.628896 88038 net.cpp:477] inception_4e/relu_pool <- inception_4e/pool
I0906 12:04:23.628906 88038 net.cpp:419] inception_4e/relu_pool -> inception_4e/pool (in-place)
I0906 12:04:23.628921 88038 net.cpp:155] Setting up inception_4e/relu_pool
I0906 12:04:23.628931 88038 net.cpp:163] Top shape: 50 608 7 7 (1489600)
I0906 12:04:23.628937 88038 layer_factory.hpp:76] Creating layer inception_4e/output
I0906 12:04:23.628950 88038 net.cpp:110] Creating Layer inception_4e/output
I0906 12:04:23.628957 88038 net.cpp:477] inception_4e/output <- inception_4e/3x3_s2
I0906 12:04:23.628967 88038 net.cpp:477] inception_4e/output <- inception_4e/double3x3_s2
I0906 12:04:23.629019 88038 net.cpp:477] inception_4e/output <- inception_4e/pool
I0906 12:04:23.629032 88038 net.cpp:433] inception_4e/output -> inception_4e/output
I0906 12:04:23.629050 88038 net.cpp:155] Setting up inception_4e/output
I0906 12:04:23.629073 88038 net.cpp:163] Top shape: 50 1056 7 7 (2587200)
I0906 12:04:23.629081 88038 layer_factory.hpp:76] Creating layer inception_4e/output_inception_4e/output_0_split
I0906 12:04:23.629093 88038 net.cpp:110] Creating Layer inception_4e/output_inception_4e/output_0_split
I0906 12:04:23.629101 88038 net.cpp:477] inception_4e/output_inception_4e/output_0_split <- inception_4e/output
I0906 12:04:23.629117 88038 net.cpp:433] inception_4e/output_inception_4e/output_0_split -> inception_4e/output_inception_4e/output_0_split_0
I0906 12:04:23.629130 88038 net.cpp:433] inception_4e/output_inception_4e/output_0_split -> inception_4e/output_inception_4e/output_0_split_1
I0906 12:04:23.629144 88038 net.cpp:433] inception_4e/output_inception_4e/output_0_split -> inception_4e/output_inception_4e/output_0_split_2
I0906 12:04:23.629156 88038 net.cpp:433] inception_4e/output_inception_4e/output_0_split -> inception_4e/output_inception_4e/output_0_split_3
I0906 12:04:23.629170 88038 net.cpp:155] Setting up inception_4e/output_inception_4e/output_0_split
I0906 12:04:23.629191 88038 net.cpp:163] Top shape: 50 1056 7 7 (2587200)
I0906 12:04:23.629200 88038 net.cpp:163] Top shape: 50 1056 7 7 (2587200)
I0906 12:04:23.629209 88038 net.cpp:163] Top shape: 50 1056 7 7 (2587200)
I0906 12:04:23.629216 88038 net.cpp:163] Top shape: 50 1056 7 7 (2587200)
I0906 12:04:23.629223 88038 layer_factory.hpp:76] Creating layer inception_5a/1x1
I0906 12:04:23.629238 88038 net.cpp:110] Creating Layer inception_5a/1x1
I0906 12:04:23.629245 88038 net.cpp:477] inception_5a/1x1 <- inception_4e/output_inception_4e/output_0_split_0
I0906 12:04:23.629261 88038 net.cpp:433] inception_5a/1x1 -> inception_5a/1x1
I0906 12:04:23.636754 88038 net.cpp:155] Setting up inception_5a/1x1
I0906 12:04:23.636785 88038 net.cpp:163] Top shape: 50 352 7 7 (862400)
I0906 12:04:23.636801 88038 layer_factory.hpp:76] Creating layer inception_5a/relu_1x1
I0906 12:04:23.636816 88038 net.cpp:110] Creating Layer inception_5a/relu_1x1
I0906 12:04:23.636826 88038 net.cpp:477] inception_5a/relu_1x1 <- inception_5a/1x1
I0906 12:04:23.636837 88038 net.cpp:419] inception_5a/relu_1x1 -> inception_5a/1x1 (in-place)
I0906 12:04:23.636850 88038 net.cpp:155] Setting up inception_5a/relu_1x1
I0906 12:04:23.636859 88038 net.cpp:163] Top shape: 50 352 7 7 (862400)
I0906 12:04:23.636867 88038 layer_factory.hpp:76] Creating layer inception_5a/3x3_reduce
I0906 12:04:23.636888 88038 net.cpp:110] Creating Layer inception_5a/3x3_reduce
I0906 12:04:23.636895 88038 net.cpp:477] inception_5a/3x3_reduce <- inception_4e/output_inception_4e/output_0_split_1
I0906 12:04:23.636909 88038 net.cpp:433] inception_5a/3x3_reduce -> inception_5a/3x3_reduce
I0906 12:04:23.641404 88038 net.cpp:155] Setting up inception_5a/3x3_reduce
I0906 12:04:23.641434 88038 net.cpp:163] Top shape: 50 192 7 7 (470400)
I0906 12:04:23.641449 88038 layer_factory.hpp:76] Creating layer inception_5a/relu_3x3_reduce
I0906 12:04:23.641463 88038 net.cpp:110] Creating Layer inception_5a/relu_3x3_reduce
I0906 12:04:23.641472 88038 net.cpp:477] inception_5a/relu_3x3_reduce <- inception_5a/3x3_reduce
I0906 12:04:23.641484 88038 net.cpp:419] inception_5a/relu_3x3_reduce -> inception_5a/3x3_reduce (in-place)
I0906 12:04:23.641497 88038 net.cpp:155] Setting up inception_5a/relu_3x3_reduce
I0906 12:04:23.641506 88038 net.cpp:163] Top shape: 50 192 7 7 (470400)
I0906 12:04:23.641513 88038 layer_factory.hpp:76] Creating layer inception_5a/3x3
I0906 12:04:23.641528 88038 net.cpp:110] Creating Layer inception_5a/3x3
I0906 12:04:23.641535 88038 net.cpp:477] inception_5a/3x3 <- inception_5a/3x3_reduce
I0906 12:04:23.641551 88038 net.cpp:433] inception_5a/3x3 -> inception_5a/3x3
I0906 12:04:23.652568 88038 net.cpp:155] Setting up inception_5a/3x3
I0906 12:04:23.652600 88038 net.cpp:163] Top shape: 50 320 7 7 (784000)
I0906 12:04:23.652665 88038 layer_factory.hpp:76] Creating layer inception_5a/relu_3x3
I0906 12:04:23.652681 88038 net.cpp:110] Creating Layer inception_5a/relu_3x3
I0906 12:04:23.652690 88038 net.cpp:477] inception_5a/relu_3x3 <- inception_5a/3x3
I0906 12:04:23.652708 88038 net.cpp:419] inception_5a/relu_3x3 -> inception_5a/3x3 (in-place)
I0906 12:04:23.652722 88038 net.cpp:155] Setting up inception_5a/relu_3x3
I0906 12:04:23.652732 88038 net.cpp:163] Top shape: 50 320 7 7 (784000)
I0906 12:04:23.652740 88038 layer_factory.hpp:76] Creating layer inception_5a/double3x3_reduce
I0906 12:04:23.652755 88038 net.cpp:110] Creating Layer inception_5a/double3x3_reduce
I0906 12:04:23.652762 88038 net.cpp:477] inception_5a/double3x3_reduce <- inception_4e/output_inception_4e/output_0_split_2
I0906 12:04:23.652775 88038 net.cpp:433] inception_5a/double3x3_reduce -> inception_5a/double3x3_reduce
I0906 12:04:23.656790 88038 net.cpp:155] Setting up inception_5a/double3x3_reduce
I0906 12:04:23.656821 88038 net.cpp:163] Top shape: 50 160 7 7 (392000)
I0906 12:04:23.656896 88038 layer_factory.hpp:76] Creating layer inception_5a/relu_double3x3_reduce
I0906 12:04:23.656924 88038 net.cpp:110] Creating Layer inception_5a/relu_double3x3_reduce
I0906 12:04:23.656934 88038 net.cpp:477] inception_5a/relu_double3x3_reduce <- inception_5a/double3x3_reduce
I0906 12:04:23.656946 88038 net.cpp:419] inception_5a/relu_double3x3_reduce -> inception_5a/double3x3_reduce (in-place)
I0906 12:04:23.656961 88038 net.cpp:155] Setting up inception_5a/relu_double3x3_reduce
I0906 12:04:23.656971 88038 net.cpp:163] Top shape: 50 160 7 7 (392000)
I0906 12:04:23.656978 88038 layer_factory.hpp:76] Creating layer inception_5a/double3x3_mid
I0906 12:04:23.656997 88038 net.cpp:110] Creating Layer inception_5a/double3x3_mid
I0906 12:04:23.657006 88038 net.cpp:477] inception_5a/double3x3_mid <- inception_5a/double3x3_reduce
I0906 12:04:23.657018 88038 net.cpp:433] inception_5a/double3x3_mid -> inception_5a/double3x3_mid
I0906 12:04:23.663642 88038 net.cpp:155] Setting up inception_5a/double3x3_mid
I0906 12:04:23.663683 88038 net.cpp:163] Top shape: 50 224 7 7 (548800)
I0906 12:04:23.663700 88038 layer_factory.hpp:76] Creating layer inception_5a/relu_double3x3_mid
I0906 12:04:23.663714 88038 net.cpp:110] Creating Layer inception_5a/relu_double3x3_mid
I0906 12:04:23.663724 88038 net.cpp:477] inception_5a/relu_double3x3_mid <- inception_5a/double3x3_mid
I0906 12:04:23.663740 88038 net.cpp:419] inception_5a/relu_double3x3_mid -> inception_5a/double3x3_mid (in-place)
I0906 12:04:23.663755 88038 net.cpp:155] Setting up inception_5a/relu_double3x3_mid
I0906 12:04:23.663765 88038 net.cpp:163] Top shape: 50 224 7 7 (548800)
I0906 12:04:23.663772 88038 layer_factory.hpp:76] Creating layer inception_5a/double3x3
I0906 12:04:23.663786 88038 net.cpp:110] Creating Layer inception_5a/double3x3
I0906 12:04:23.663794 88038 net.cpp:477] inception_5a/double3x3 <- inception_5a/double3x3_mid
I0906 12:04:23.663805 88038 net.cpp:433] inception_5a/double3x3 -> inception_5a/double3x3
I0906 12:04:23.672897 88038 net.cpp:155] Setting up inception_5a/double3x3
I0906 12:04:23.672927 88038 net.cpp:163] Top shape: 50 224 7 7 (548800)
I0906 12:04:23.672943 88038 layer_factory.hpp:76] Creating layer inception_5a/relu_double3x3
I0906 12:04:23.672960 88038 net.cpp:110] Creating Layer inception_5a/relu_double3x3
I0906 12:04:23.672967 88038 net.cpp:477] inception_5a/relu_double3x3 <- inception_5a/double3x3
I0906 12:04:23.672978 88038 net.cpp:419] inception_5a/relu_double3x3 -> inception_5a/double3x3 (in-place)
I0906 12:04:23.672993 88038 net.cpp:155] Setting up inception_5a/relu_double3x3
I0906 12:04:23.673002 88038 net.cpp:163] Top shape: 50 224 7 7 (548800)
I0906 12:04:23.673009 88038 layer_factory.hpp:76] Creating layer inception_5a/pool
I0906 12:04:23.673022 88038 net.cpp:110] Creating Layer inception_5a/pool
I0906 12:04:23.673029 88038 net.cpp:477] inception_5a/pool <- inception_4e/output_inception_4e/output_0_split_3
I0906 12:04:23.673045 88038 net.cpp:433] inception_5a/pool -> inception_5a/pool
I0906 12:04:23.673091 88038 net.cpp:155] Setting up inception_5a/pool
I0906 12:04:23.673104 88038 net.cpp:163] Top shape: 50 1056 7 7 (2587200)
I0906 12:04:23.673111 88038 layer_factory.hpp:76] Creating layer inception_5a/pool_proj
I0906 12:04:23.673125 88038 net.cpp:110] Creating Layer inception_5a/pool_proj
I0906 12:04:23.673133 88038 net.cpp:477] inception_5a/pool_proj <- inception_5a/pool
I0906 12:04:23.673149 88038 net.cpp:433] inception_5a/pool_proj -> inception_5a/pool_proj
I0906 12:04:23.675411 88038 net.cpp:155] Setting up inception_5a/pool_proj
I0906 12:04:23.675433 88038 net.cpp:163] Top shape: 50 128 7 7 (313600)
I0906 12:04:23.675447 88038 layer_factory.hpp:76] Creating layer inception_5a/relu_pool_proj
I0906 12:04:23.675459 88038 net.cpp:110] Creating Layer inception_5a/relu_pool_proj
I0906 12:04:23.675468 88038 net.cpp:477] inception_5a/relu_pool_proj <- inception_5a/pool_proj
I0906 12:04:23.675482 88038 net.cpp:419] inception_5a/relu_pool_proj -> inception_5a/pool_proj (in-place)
I0906 12:04:23.675495 88038 net.cpp:155] Setting up inception_5a/relu_pool_proj
I0906 12:04:23.675505 88038 net.cpp:163] Top shape: 50 128 7 7 (313600)
I0906 12:04:23.675513 88038 layer_factory.hpp:76] Creating layer inception_5a/output
I0906 12:04:23.675524 88038 net.cpp:110] Creating Layer inception_5a/output
I0906 12:04:23.675532 88038 net.cpp:477] inception_5a/output <- inception_5a/1x1
I0906 12:04:23.675541 88038 net.cpp:477] inception_5a/output <- inception_5a/3x3
I0906 12:04:23.675549 88038 net.cpp:477] inception_5a/output <- inception_5a/double3x3
I0906 12:04:23.675559 88038 net.cpp:477] inception_5a/output <- inception_5a/pool_proj
I0906 12:04:23.675568 88038 net.cpp:433] inception_5a/output -> inception_5a/output
I0906 12:04:23.675583 88038 net.cpp:155] Setting up inception_5a/output
I0906 12:04:23.675592 88038 net.cpp:163] Top shape: 50 1024 7 7 (2508800)
I0906 12:04:23.675600 88038 layer_factory.hpp:76] Creating layer inception_5a/output_inception_5a/output_0_split
I0906 12:04:23.675611 88038 net.cpp:110] Creating Layer inception_5a/output_inception_5a/output_0_split
I0906 12:04:23.675619 88038 net.cpp:477] inception_5a/output_inception_5a/output_0_split <- inception_5a/output
I0906 12:04:23.675631 88038 net.cpp:433] inception_5a/output_inception_5a/output_0_split -> inception_5a/output_inception_5a/output_0_split_0
I0906 12:04:23.675644 88038 net.cpp:433] inception_5a/output_inception_5a/output_0_split -> inception_5a/output_inception_5a/output_0_split_1
I0906 12:04:23.675658 88038 net.cpp:433] inception_5a/output_inception_5a/output_0_split -> inception_5a/output_inception_5a/output_0_split_2
I0906 12:04:23.675684 88038 net.cpp:433] inception_5a/output_inception_5a/output_0_split -> inception_5a/output_inception_5a/output_0_split_3
I0906 12:04:23.675707 88038 net.cpp:155] Setting up inception_5a/output_inception_5a/output_0_split
I0906 12:04:23.675740 88038 net.cpp:163] Top shape: 50 1024 7 7 (2508800)
I0906 12:04:23.675750 88038 net.cpp:163] Top shape: 50 1024 7 7 (2508800)
I0906 12:04:23.675758 88038 net.cpp:163] Top shape: 50 1024 7 7 (2508800)
I0906 12:04:23.675767 88038 net.cpp:163] Top shape: 50 1024 7 7 (2508800)
I0906 12:04:23.675775 88038 layer_factory.hpp:76] Creating layer inception_5b/1x1
I0906 12:04:23.675789 88038 net.cpp:110] Creating Layer inception_5b/1x1
I0906 12:04:23.675797 88038 net.cpp:477] inception_5b/1x1 <- inception_5a/output_inception_5a/output_0_split_0
I0906 12:04:23.675809 88038 net.cpp:433] inception_5b/1x1 -> inception_5b/1x1
I0906 12:04:23.683178 88038 net.cpp:155] Setting up inception_5b/1x1
I0906 12:04:23.683218 88038 net.cpp:163] Top shape: 50 352 7 7 (862400)
I0906 12:04:23.683235 88038 layer_factory.hpp:76] Creating layer inception_5b/relu_1x1
I0906 12:04:23.683249 88038 net.cpp:110] Creating Layer inception_5b/relu_1x1
I0906 12:04:23.683259 88038 net.cpp:477] inception_5b/relu_1x1 <- inception_5b/1x1
I0906 12:04:23.683269 88038 net.cpp:419] inception_5b/relu_1x1 -> inception_5b/1x1 (in-place)
I0906 12:04:23.683284 88038 net.cpp:155] Setting up inception_5b/relu_1x1
I0906 12:04:23.683321 88038 net.cpp:163] Top shape: 50 352 7 7 (862400)
I0906 12:04:23.683331 88038 layer_factory.hpp:76] Creating layer inception_5b/3x3_reduce
I0906 12:04:23.683346 88038 net.cpp:110] Creating Layer inception_5b/3x3_reduce
I0906 12:04:23.683353 88038 net.cpp:477] inception_5b/3x3_reduce <- inception_5a/output_inception_5a/output_0_split_1
I0906 12:04:23.683372 88038 net.cpp:433] inception_5b/3x3_reduce -> inception_5b/3x3_reduce
I0906 12:04:23.687805 88038 net.cpp:155] Setting up inception_5b/3x3_reduce
I0906 12:04:23.687837 88038 net.cpp:163] Top shape: 50 192 7 7 (470400)
I0906 12:04:23.687854 88038 layer_factory.hpp:76] Creating layer inception_5b/relu_3x3_reduce
I0906 12:04:23.687867 88038 net.cpp:110] Creating Layer inception_5b/relu_3x3_reduce
I0906 12:04:23.687876 88038 net.cpp:477] inception_5b/relu_3x3_reduce <- inception_5b/3x3_reduce
I0906 12:04:23.687893 88038 net.cpp:419] inception_5b/relu_3x3_reduce -> inception_5b/3x3_reduce (in-place)
I0906 12:04:23.687907 88038 net.cpp:155] Setting up inception_5b/relu_3x3_reduce
I0906 12:04:23.687917 88038 net.cpp:163] Top shape: 50 192 7 7 (470400)
I0906 12:04:23.687924 88038 layer_factory.hpp:76] Creating layer inception_5b/3x3
I0906 12:04:23.687939 88038 net.cpp:110] Creating Layer inception_5b/3x3
I0906 12:04:23.687945 88038 net.cpp:477] inception_5b/3x3 <- inception_5b/3x3_reduce
I0906 12:04:23.687958 88038 net.cpp:433] inception_5b/3x3 -> inception_5b/3x3
I0906 12:04:23.698995 88038 net.cpp:155] Setting up inception_5b/3x3
I0906 12:04:23.699028 88038 net.cpp:163] Top shape: 50 320 7 7 (784000)
I0906 12:04:23.699043 88038 layer_factory.hpp:76] Creating layer inception_5b/relu_3x3
I0906 12:04:23.699057 88038 net.cpp:110] Creating Layer inception_5b/relu_3x3
I0906 12:04:23.699067 88038 net.cpp:477] inception_5b/relu_3x3 <- inception_5b/3x3
I0906 12:04:23.699079 88038 net.cpp:419] inception_5b/relu_3x3 -> inception_5b/3x3 (in-place)
I0906 12:04:23.699092 88038 net.cpp:155] Setting up inception_5b/relu_3x3
I0906 12:04:23.699101 88038 net.cpp:163] Top shape: 50 320 7 7 (784000)
I0906 12:04:23.699108 88038 layer_factory.hpp:76] Creating layer inception_5b/double3x3_reduce
I0906 12:04:23.699128 88038 net.cpp:110] Creating Layer inception_5b/double3x3_reduce
I0906 12:04:23.699136 88038 net.cpp:477] inception_5b/double3x3_reduce <- inception_5a/output_inception_5a/output_0_split_2
I0906 12:04:23.699148 88038 net.cpp:433] inception_5b/double3x3_reduce -> inception_5b/double3x3_reduce
I0906 12:04:23.703582 88038 net.cpp:155] Setting up inception_5b/double3x3_reduce
I0906 12:04:23.703613 88038 net.cpp:163] Top shape: 50 192 7 7 (470400)
I0906 12:04:23.703629 88038 layer_factory.hpp:76] Creating layer inception_5b/relu_double3x3_reduce
I0906 12:04:23.703644 88038 net.cpp:110] Creating Layer inception_5b/relu_double3x3_reduce
I0906 12:04:23.703654 88038 net.cpp:477] inception_5b/relu_double3x3_reduce <- inception_5b/double3x3_reduce
I0906 12:04:23.703665 88038 net.cpp:419] inception_5b/relu_double3x3_reduce -> inception_5b/double3x3_reduce (in-place)
I0906 12:04:23.703692 88038 net.cpp:155] Setting up inception_5b/relu_double3x3_reduce
I0906 12:04:23.703703 88038 net.cpp:163] Top shape: 50 192 7 7 (470400)
I0906 12:04:23.703711 88038 layer_factory.hpp:76] Creating layer inception_5b/double3x3_mid
I0906 12:04:23.703723 88038 net.cpp:110] Creating Layer inception_5b/double3x3_mid
I0906 12:04:23.703730 88038 net.cpp:477] inception_5b/double3x3_mid <- inception_5b/double3x3_reduce
I0906 12:04:23.703742 88038 net.cpp:433] inception_5b/double3x3_mid -> inception_5b/double3x3_mid
I0906 12:04:23.711612 88038 net.cpp:155] Setting up inception_5b/double3x3_mid
I0906 12:04:23.711642 88038 net.cpp:163] Top shape: 50 224 7 7 (548800)
I0906 12:04:23.711658 88038 layer_factory.hpp:76] Creating layer inception_5b/relu_double3x3_mid
I0906 12:04:23.711683 88038 net.cpp:110] Creating Layer inception_5b/relu_double3x3_mid
I0906 12:04:23.711694 88038 net.cpp:477] inception_5b/relu_double3x3_mid <- inception_5b/double3x3_mid
I0906 12:04:23.711705 88038 net.cpp:419] inception_5b/relu_double3x3_mid -> inception_5b/double3x3_mid (in-place)
I0906 12:04:23.711747 88038 net.cpp:155] Setting up inception_5b/relu_double3x3_mid
I0906 12:04:23.711760 88038 net.cpp:163] Top shape: 50 224 7 7 (548800)
I0906 12:04:23.711767 88038 layer_factory.hpp:76] Creating layer inception_5b/double3x3
I0906 12:04:23.711787 88038 net.cpp:110] Creating Layer inception_5b/double3x3
I0906 12:04:23.711796 88038 net.cpp:477] inception_5b/double3x3 <- inception_5b/double3x3_mid
I0906 12:04:23.711812 88038 net.cpp:433] inception_5b/double3x3 -> inception_5b/double3x3
I0906 12:04:23.720904 88038 net.cpp:155] Setting up inception_5b/double3x3
I0906 12:04:23.720937 88038 net.cpp:163] Top shape: 50 224 7 7 (548800)
I0906 12:04:23.720952 88038 layer_factory.hpp:76] Creating layer inception_5b/relu_double3x3
I0906 12:04:23.720966 88038 net.cpp:110] Creating Layer inception_5b/relu_double3x3
I0906 12:04:23.720975 88038 net.cpp:477] inception_5b/relu_double3x3 <- inception_5b/double3x3
I0906 12:04:23.720988 88038 net.cpp:419] inception_5b/relu_double3x3 -> inception_5b/double3x3 (in-place)
I0906 12:04:23.721001 88038 net.cpp:155] Setting up inception_5b/relu_double3x3
I0906 12:04:23.721010 88038 net.cpp:163] Top shape: 50 224 7 7 (548800)
I0906 12:04:23.721019 88038 layer_factory.hpp:76] Creating layer inception_5b/pool
I0906 12:04:23.721030 88038 net.cpp:110] Creating Layer inception_5b/pool
I0906 12:04:23.721038 88038 net.cpp:477] inception_5b/pool <- inception_5a/output_inception_5a/output_0_split_3
I0906 12:04:23.721050 88038 net.cpp:433] inception_5b/pool -> inception_5b/pool
I0906 12:04:23.721068 88038 net.cpp:155] Setting up inception_5b/pool
I0906 12:04:23.721077 88038 net.cpp:163] Top shape: 50 1024 7 7 (2508800)
I0906 12:04:23.721086 88038 layer_factory.hpp:76] Creating layer inception_5b/pool_proj
I0906 12:04:23.721106 88038 net.cpp:110] Creating Layer inception_5b/pool_proj
I0906 12:04:23.721113 88038 net.cpp:477] inception_5b/pool_proj <- inception_5b/pool
I0906 12:04:23.721125 88038 net.cpp:433] inception_5b/pool_proj -> inception_5b/pool_proj
I0906 12:04:23.724521 88038 net.cpp:155] Setting up inception_5b/pool_proj
I0906 12:04:23.724553 88038 net.cpp:163] Top shape: 50 128 7 7 (313600)
I0906 12:04:23.724570 88038 layer_factory.hpp:76] Creating layer inception_5b/relu_pool_proj
I0906 12:04:23.724582 88038 net.cpp:110] Creating Layer inception_5b/relu_pool_proj
I0906 12:04:23.724591 88038 net.cpp:477] inception_5b/relu_pool_proj <- inception_5b/pool_proj
I0906 12:04:23.724607 88038 net.cpp:419] inception_5b/relu_pool_proj -> inception_5b/pool_proj (in-place)
I0906 12:04:23.724622 88038 net.cpp:155] Setting up inception_5b/relu_pool_proj
I0906 12:04:23.724632 88038 net.cpp:163] Top shape: 50 128 7 7 (313600)
I0906 12:04:23.724639 88038 layer_factory.hpp:76] Creating layer inception_5b/output
I0906 12:04:23.724652 88038 net.cpp:110] Creating Layer inception_5b/output
I0906 12:04:23.724659 88038 net.cpp:477] inception_5b/output <- inception_5b/1x1
I0906 12:04:23.724668 88038 net.cpp:477] inception_5b/output <- inception_5b/3x3
I0906 12:04:23.724676 88038 net.cpp:477] inception_5b/output <- inception_5b/double3x3
I0906 12:04:23.724684 88038 net.cpp:477] inception_5b/output <- inception_5b/pool_proj
I0906 12:04:23.724695 88038 net.cpp:433] inception_5b/output -> inception_5b/output
I0906 12:04:23.724711 88038 net.cpp:155] Setting up inception_5b/output
I0906 12:04:23.724721 88038 net.cpp:163] Top shape: 50 1024 7 7 (2508800)
I0906 12:04:23.724728 88038 layer_factory.hpp:76] Creating layer pool5/7x7_s1
I0906 12:04:23.724745 88038 net.cpp:110] Creating Layer pool5/7x7_s1
I0906 12:04:23.724753 88038 net.cpp:477] pool5/7x7_s1 <- inception_5b/output
I0906 12:04:23.724766 88038 net.cpp:433] pool5/7x7_s1 -> pool5/7x7_s1
I0906 12:04:23.724781 88038 net.cpp:155] Setting up pool5/7x7_s1
I0906 12:04:23.724792 88038 net.cpp:163] Top shape: 50 1024 1 1 (51200)
I0906 12:04:23.724798 88038 layer_factory.hpp:76] Creating layer pool5/drop_7x7_s1
I0906 12:04:23.724810 88038 net.cpp:110] Creating Layer pool5/drop_7x7_s1
I0906 12:04:23.724864 88038 net.cpp:477] pool5/drop_7x7_s1 <- pool5/7x7_s1
I0906 12:04:23.724877 88038 net.cpp:419] pool5/drop_7x7_s1 -> pool5/7x7_s1 (in-place)
I0906 12:04:23.724895 88038 net.cpp:155] Setting up pool5/drop_7x7_s1
I0906 12:04:23.724905 88038 net.cpp:163] Top shape: 50 1024 1 1 (51200)
I0906 12:04:23.724912 88038 layer_factory.hpp:76] Creating layer loss3/classifier
I0906 12:04:23.724928 88038 net.cpp:110] Creating Layer loss3/classifier
I0906 12:04:23.724936 88038 net.cpp:477] loss3/classifier <- pool5/7x7_s1
I0906 12:04:23.724953 88038 net.cpp:433] loss3/classifier -> loss3/classifier
I0906 12:04:23.745081 88038 net.cpp:155] Setting up loss3/classifier
I0906 12:04:23.745112 88038 net.cpp:163] Top shape: 50 1000 (50000)
I0906 12:04:23.745129 88038 layer_factory.hpp:76] Creating layer loss3/classifier_loss3/classifier_0_split
I0906 12:04:23.745143 88038 net.cpp:110] Creating Layer loss3/classifier_loss3/classifier_0_split
I0906 12:04:23.745152 88038 net.cpp:477] loss3/classifier_loss3/classifier_0_split <- loss3/classifier
I0906 12:04:23.745168 88038 net.cpp:433] loss3/classifier_loss3/classifier_0_split -> loss3/classifier_loss3/classifier_0_split_0
I0906 12:04:23.745185 88038 net.cpp:433] loss3/classifier_loss3/classifier_0_split -> loss3/classifier_loss3/classifier_0_split_1
I0906 12:04:23.745199 88038 net.cpp:433] loss3/classifier_loss3/classifier_0_split -> loss3/classifier_loss3/classifier_0_split_2
I0906 12:04:23.745213 88038 net.cpp:155] Setting up loss3/classifier_loss3/classifier_0_split
I0906 12:04:23.745223 88038 net.cpp:163] Top shape: 50 1000 (50000)
I0906 12:04:23.745231 88038 net.cpp:163] Top shape: 50 1000 (50000)
I0906 12:04:23.745239 88038 net.cpp:163] Top shape: 50 1000 (50000)
I0906 12:04:23.745246 88038 layer_factory.hpp:76] Creating layer loss3/loss3
I0906 12:04:23.745260 88038 net.cpp:110] Creating Layer loss3/loss3
I0906 12:04:23.745266 88038 net.cpp:477] loss3/loss3 <- loss3/classifier_loss3/classifier_0_split_0
I0906 12:04:23.745276 88038 net.cpp:477] loss3/loss3 <- label_data_1_split_6
I0906 12:04:23.745287 88038 net.cpp:433] loss3/loss3 -> loss3/loss3
…
