…
I0905 21:57:31.061525 58545 net.cpp:339] The NetState phase (0) differed from the phase (1) specified by a rule in layer loss3/top-5
I0905 21:57:31.063916 58545 net.cpp:50] Initializing net from parameters: 
name: "Inception_6"
state {
  phase: TRAIN
}
layer {
  name: "data"
  type: "Data"
  top: "data"
  top: "label"
  include {
    phase: TRAIN
  }
  transform_param {
    mirror: true
    crop_size: 224
    mean_value: 104
    mean_value: 117
    mean_value: 123
  }
  data_param {
    source: "/ssd/ilsvrc2012/ilsvrc12_train_lmdb"
    batch_size: 32
    backend: LMDB
  }
}
layer {
  name: "layer"
  type: "Power"
  bottom: "data"
  top: "data_scaled"
  power_param {
    power: 1
    scale: 0.01
    shift: 0
  }
}
layer {
  name: "conv1/7x7_s2"
  type: "Convolution"
  bottom: "data_scaled"
  top: "conv1/7x7_s2"
  param {
    lr_mult: 1
    decay_mult: 1
  }
  param {
    lr_mult: 2
    decay_mult: 0
  }
  convolution_param {
    num_output: 64
    pad: 3
    kernel_size: 7
    stride: 2
    weight_filler {
      type: "msra"
    }
    bias_filler {
      type: "constant"
      value: 0.2
    }
  }
}
layer {
  name: "conv1/relu_7x7"
  type: "ReLU"
  bottom: "conv1/7x7_s2"
  top: "conv1/7x7_s2"
}
layer {
  name: "pool1/3x3_s2"
  type: "Pooling"
  bottom: "conv1/7x7_s2"
  top: "pool1/3x3_s2"
  pooling_param {
    pool: MAX
    kernel_size: 3
    stride: 2
  }
}
layer {
  name: "pool1/norm1"
  type: "LRN"
  bottom: "pool1/3x3_s2"
  top: "pool1/norm1"
  lrn_param {
    local_size: 5
    alpha: 0.0001
    beta: 0.75
  }
}
layer {
  name: "conv2/3x3_reduce"
  type: "Convolution"
  bottom: "pool1/norm1"
  top: "conv2/3x3_reduce"
  param {
    lr_mult: 1
    decay_mult: 1
  }
  param {
    lr_mult: 2
    decay_mult: 0
  }
  convolution_param {
    num_output: 64
    kernel_size: 1
    weight_filler {
      type: "msra"
    }
    bias_filler {
      type: "constant"
      value: 0.2
    }
  }
}
layer {
  name: "conv2/relu_3x3_reduce"
  type: "ReLU"
  bottom: "conv2/3x3_reduce"
  top: "conv2/3x3_reduce"
}
layer {
  name: "conv2/3x3"
  type: "Convolution"
  bottom: "conv2/3x3_reduce"
  top: "conv2/3x3"
  param {
    lr_mult: 1
    decay_mult: 1
  }
  param {
    lr_mult: 2
    decay_mult: 0
  }
  convolution_param {
    num_output: 192
    pad: 1
    kernel_size: 3
    weight_filler {
      type: "msra"
    }
    bias_filler {
      type: "constant"
      value: 0.2
    }
  }
}
layer {
  name: "conv2/relu_3x3"
  type: "ReLU"
  bottom: "conv2/3x3"
  top: "conv2/3x3"
}
layer {
  name: "conv2/norm2"
  type: "LRN"
  bottom: "conv2/3x3"
  top: "conv2/norm2"
  lrn_param {
    local_size: 5
    alpha: 0.0001
    beta: 0.75
  }
}
layer {
  name: "pool2/3x3_s2"
  type: "Pooling"
  bottom: "conv2/norm2"
  top: "pool2/3x3_s2"
  pooling_param {
    pool: MAX
    kernel_size: 3
    stride: 2
  }
}
layer {
  name: "inception_3a/1x1"
  type: "Convolution"
  bottom: "pool2/3x3_s2"
  top: "inception_3a/1x1"
  param {
    lr_mult: 1
    decay_mult: 1
  }
  param {
    lr_mult: 2
    decay_mult: 0
  }
  convolution_param {
    num_output: 64
    kernel_size: 1
    weight_filler {
      type: "msra"
    }
    bias_filler {
      type: "constant"
      value: 0.2
    }
  }
}
layer {
  name: "inception_3a/relu_1x1"
  type: "ReLU"
  bottom: "inception_3a/1x1"
  top: "inception_3a/1x1"
}
layer {
  name: "inception_3a/3x3_reduce"
  type: "Convolution"
  bottom: "pool2/3x3_s2"
  top: "inception_3a/3x3_reduce"
  param {
    lr_mult: 1
    decay_mult: 1
  }
  param {
    lr_mult: 2
    decay_mult: 0
  }
  convolution_param {
    num_output: 64
    kernel_size: 1
    weight_filler {
      type: "msra"
    }
    bias_filler {
      type: "constant"
      value: 0.2
    }
  }
}
layer {
  name: "inception_3a/relu_3x3_reduce"
  type: "ReLU"
  bottom: "inception_3a/3x3_reduce"
  top: "inception_3a/3x3_reduce"
}
layer {
  name: "inception_3a/3x3"
  type: "Convolution"
  bottom: "inception_3a/3x3_reduce"
  top: "inception_3a/3x3"
  param {
    lr_mult: 1
    decay_mult: 1
  }
  param {
    lr_mult: 2
    decay_mult: 0
  }
  convolution_param {
    num_output: 64
    pad: 1
    kernel_size: 3
    weight_filler {
      type: "msra"
    }
    bias_filler {
      type: "constant"
      value: 0.2
    }
  }
}
layer {
  name: "inception_3a/relu_3x3"
  type: "ReLU"
  bottom: "inception_3a/3x3"
  top: "inception_3a/3x3"
}
layer {
  name: "inception_3a/double3x3_reduce"
  type: "Convolution"
  bottom: "pool2/3x3_s2"
  top: "inception_3a/double3x3_reduce"
  param {
    lr_mult: 1
    decay_mult: 1
  }
  param {
    lr_mult: 2
    decay_mult: 0
  }
  convolution_param {
    num_output: 64
    kernel_size: 1
    weight_filler {
      type: "msra"
    }
    bias_filler {
      type: "constant"
      value: 0.2
    }
  }
}
layer {
  name: "inception_3a/relu_double3x3_reduce"
  type: "ReLU"
  bottom: "inception_3a/double3x3_reduce"
  top: "inception_3a/double3x3_reduce"
}
layer {
  name: "inception_3a/double3x3_mid"
  type: "Convolution"
  bottom: "inception_3a/double3x3_reduce"
  top: "inception_3a/double3x3_mid"
  param {
    lr_mult: 1
    decay_mult: 1
  }
  param {
    lr_mult: 2
    decay_mult: 0
  }
  convolution_param {
    num_output: 96
    pad: 1
    kernel_size: 3
    weight_filler {
      type: "msra"
    }
    bias_filler {
      type: "constant"
      value: 0.2
    }
  }
}
layer {
  name: "inception_3a/relu_double3x3_mid"
  type: "ReLU"
  bottom: "inception_3a/double3x3_mid"
  top: "inception_3a/double3x3_mid"
}
layer {
  name: "inception_3a/double3x3"
  type: "Convolution"
  bottom: "inception_3a/double3x3_mid"
  top: "inception_3a/double3x3"
  param {
    lr_mult: 1
    decay_mult: 1
  }
  param {
    lr_mult: 2
    decay_mult: 0
  }
  convolution_param {
    num_output: 96
    pad: 1
    kernel_size: 3
    weight_filler {
      type: "msra"
    }
    bias_filler {
      type: "constant"
      value: 0.2
    }
  }
}
layer {
  name: "inception_3a/relu_double3x3"
  type: "ReLU"
  bottom: "inception_3a/double3x3"
  top: "inception_3a/double3x3"
}
layer {
  name: "inception_3a/pool"
  type: "Pooling"
  bottom: "pool2/3x3_s2"
  top: "inception_3a/pool"
  pooling_param {
    pool: AVE
    kernel_size: 3
    stride: 1
    pad: 1
  }
}
layer {
  name: "inception_3a/pool_proj"
  type: "Convolution"
  bottom: "inception_3a/pool"
  top: "inception_3a/pool_proj"
  param {
    lr_mult: 1
    decay_mult: 1
  }
  param {
    lr_mult: 2
    decay_mult: 0
  }
  convolution_param {
    num_output: 32
    kernel_size: 1
    weight_filler {
      type: "msra"
    }
    bias_filler {
      type: "constant"
      value: 0.2
    }
  }
}
layer {
  name: "inception_3a/relu_pool_proj"
  type: "ReLU"
  bottom: "inception_3a/pool_proj"
  top: "inception_3a/pool_proj"
}
layer {
  name: "inception_3a/output"
  type: "Concat"
  bottom: "inception_3a/1x1"
  bottom: "inception_3a/3x3"
  bottom: "inception_3a/double3x3"
  bottom: "inception_3a/pool_proj"
  top: "inception_3a/output"
}
layer {
  name: "inception_3b/1x1"
  type: "Convolution"
  bottom: "inception_3a/output"
  top: "inception_3b/1x1"
  param {
    lr_mult: 1
    decay_mult: 1
  }
  param {
    lr_mult: 2
    decay_mult: 0
  }
  convolution_param {
    num_output: 64
    kernel_size: 1
    weight_filler {
      type: "msra"
    }
    bias_filler {
      type: "constant"
      value: 0.2
    }
  }
}
layer {
  name: "inception_3b/relu_1x1"
  type: "ReLU"
  bottom: "inception_3b/1x1"
  top: "inception_3b/1x1"
}
layer {
  name: "inception_3b/3x3_reduce"
  type: "Convolution"
  bottom: "inception_3a/output"
  top: "inception_3b/3x3_reduce"
  param {
    lr_mult: 1
    decay_mult: 1
  }
  param {
    lr_mult: 2
    decay_mult: 0
  }
  convolution_param {
    num_output: 64
    kernel_size: 1
    weight_filler {
      type: "msra"
    }
    bias_filler {
      type: "constant"
      value: 0.2
    }
  }
}
layer {
  name: "inception_3b/relu_3x3_reduce"
  type: "ReLU"
  bottom: "inception_3b/3x3_reduce"
  top: "inception_3b/3x3_reduce"
}
layer {
  name: "inception_3b/3x3"
  type: "Convolution"
  bottom: "inception_3b/3x3_reduce"
  top: "inception_3b/3x3"
  param {
    lr_mult: 1
    decay_mult: 1
  }
  param {
    lr_mult: 2
    decay_mult: 0
  }
  convolution_param {
    num_output: 96
    pad: 1
    kernel_size: 3
    weight_filler {
      type: "msra"
    }
    bias_filler {
      type: "constant"
      value: 0.2
    }
  }
}
layer {
  name: "inception_3b/relu_3x3"
  type: "ReLU"
  bottom: "inception_3b/3x3"
  top: "inception_3b/3x3"
}
layer {
  name: "inception_3b/double3x3_reduce"
  type: "Convolution"
  bottom: "inception_3a/output"
  top: "inception_3b/double3x3_reduce"
  param {
    lr_mult: 1
    decay_mult: 1
  }
  param {
    lr_mult: 2
    decay_mult: 0
  }
  convolution_param {
    num_output: 64
    kernel_size: 1
    weight_filler {
      type: "msra"
    }
    bias_filler {
      type: "constant"
      value: 0.2
    }
  }
}
layer {
  name: "inception_3b/relu_double3x3_reduce"
  type: "ReLU"
  bottom: "inception_3b/double3x3_reduce"
  top: "inception_3b/double3x3_reduce"
}
layer {
  name: "inception_3b/double3x3_mid"
  type: "Convolution"
  bottom: "inception_3b/double3x3_reduce"
  top: "inception_3b/double3x3_mid"
  param {
    lr_mult: 1
    decay_mult: 1
  }
  param {
    lr_mult: 2
    decay_mult: 0
  }
  convolution_param {
    num_output: 96
    pad: 1
    kernel_size: 3
    weight_filler {
      type: "msra"
    }
    bias_filler {
      type: "constant"
      value: 0.2
    }
  }
}
layer {
  name: "inception_3b/relu_double3x3_mid"
  type: "ReLU"
  bottom: "inception_3b/double3x3_mid"
  top: "inception_3b/double3x3_mid"
}
layer {
  name: "inception_3b/double3x3"
  type: "Convolution"
  bottom: "inception_3b/double3x3_mid"
  top: "inception_3b/double3x3"
  param {
    lr_mult: 1
    decay_mult: 1
  }
  param {
    lr_mult: 2
    decay_mult: 0
  }
  convolution_param {
    num_output: 96
    pad: 1
    kernel_size: 3
    weight_filler {
      type: "msra"
    }
    bias_filler {
      type: "constant"
      value: 0.2
    }
  }
}
layer {
  name: "inception_3b/relu_double3x3"
  type: "ReLU"
  bottom: "inception_3b/double3x3"
  top: "inception_3b/double3x3"
}
layer {
  name: "inception_3b/pool"
  type: "Pooling"
  bottom: "inception_3a/output"
  top: "inception_3b/pool"
  pooling_param {
    pool: AVE
    kernel_size: 3
    stride: 1
    pad: 1
  }
}
layer {
  name: "inception_3b/pool_proj"
  type: "Convolution"
  bottom: "inception_3b/pool"
  top: "inception_3b/pool_proj"
  param {
    lr_mult: 1
    decay_mult: 1
  }
  param {
    lr_mult: 2
    decay_mult: 0
  }
  convolution_param {
    num_output: 64
    kernel_size: 1
    weight_filler {
      type: "msra"
    }
    bias_filler {
      type: "constant"
      value: 0.2
    }
  }
}
layer {
  name: "inception_3b/relu_pool_proj"
  type: "ReLU"
  bottom: "inception_3b/pool_proj"
  top: "inception_3b/pool_proj"
}
layer {
  name: "inception_3b/output"
  type: "Concat"
  bottom: "inception_3b/1x1"
  bottom: "inception_3b/3x3"
  bottom: "inception_3b/double3x3"
  bottom: "inception_3b/pool_proj"
  top: "inception_3b/output"
}
layer {
  name: "inception_3c/3x3_reduce"
  type: "Convolution"
  bottom: "inception_3b/output"
  top: "inception_3c/3x3_reduce"
  param {
    lr_mult: 1
    decay_mult: 1
  }
  param {
    lr_mult: 2
    decay_mult: 0
  }
  convolution_param {
    num_output: 128
    kernel_size: 1
    weight_filler {
      type: "msra"
    }
    bias_filler {
      type: "constant"
      value: 0.2
    }
  }
}
layer {
  name: "inception_3c/relu_3x3_reduce"
  type: "ReLU"
  bottom: "inception_3c/3x3_reduce"
  top: "inception_3c/3x3_reduce"
}
layer {
  name: "inception_3c/3x3_s2"
  type: "Convolution"
  bottom: "inception_3c/3x3_reduce"
  top: "inception_3c/3x3_s2"
  param {
    lr_mult: 1
    decay_mult: 1
  }
  param {
    lr_mult: 2
    decay_mult: 0
  }
  convolution_param {
    num_output: 160
    pad: 1
    kernel_size: 3
    stride: 2
    weight_filler {
      type: "msra"
    }
    bias_filler {
      type: "constant"
      value: 0.2
    }
  }
}
layer {
  name: "inception_3c/relu_3x3"
  type: "ReLU"
  bottom: "inception_3c/3x3_s2"
  top: "inception_3c/3x3_s2"
}
layer {
  name: "inception_3c/double3x3_reduce"
  type: "Convolution"
  bottom: "inception_3b/output"
  top: "inception_3c/double3x3_reduce"
  param {
    lr_mult: 1
    decay_mult: 1
  }
  param {
    lr_mult: 2
    decay_mult: 0
  }
  convolution_param {
    num_output: 64
    kernel_size: 1
    weight_filler {
      type: "msra"
    }
    bias_filler {
      type: "constant"
      value: 0.2
    }
  }
}
layer {
  name: "inception_3c/relu_double3x3_reduce"
  type: "ReLU"
  bottom: "inception_3c/double3x3_reduce"
  top: "inception_3c/double3x3_reduce"
}
layer {
  name: "inception_3c/double3x3_mid"
  type: "Convolution"
  bottom: "inception_3c/double3x3_reduce"
  top: "inception_3c/double3x3_mid"
  param {
    lr_mult: 1
    decay_mult: 1
  }
  param {
    lr_mult: 2
    decay_mult: 0
  }
  convolution_param {
    num_output: 96
    pad: 1
    kernel_size: 3
    weight_filler {
      type: "msra"
    }
    bias_filler {
      type: "constant"
      value: 0.2
    }
  }
}
layer {
  name: "inception_3c/relu_double3x3_mid"
  type: "ReLU"
  bottom: "inception_3c/double3x3_mid"
  top: "inception_3c/double3x3_mid"
}
layer {
  name: "inception_3c/double3x3"
  type: "Convolution"
  bottom: "inception_3c/double3x3_mid"
  top: "inception_3c/double3x3_s2"
  param {
    lr_mult: 1
    decay_mult: 1
  }
  param {
    lr_mult: 2
    decay_mult: 0
  }
  convolution_param {
    num_output: 96
    pad: 1
    kernel_size: 3
    stride: 2
    weight_filler {
      type: "msra"
    }
    bias_filler {
      type: "constant"
      value: 0.2
    }
  }
}
layer {
  name: "inception_3c/relu_double3x3"
  type: "ReLU"
  bottom: "inception_3c/double3x3_s2"
  top: "inception_3c/double3x3_s2"
}
layer {
  name: "inception_3c/pool"
  type: "Pooling"
  bottom: "inception_3b/output"
  top: "inception_3c/pool"
  pooling_param {
    pool: MAX
    kernel_size: 3
    stride: 2
  }
}
layer {
  name: "inception_3c/relu_pool"
  type: "ReLU"
  bottom: "inception_3c/pool"
  top: "inception_3c/pool"
}
layer {
  name: "inception_3c/output"
  type: "Concat"
  bottom: "inception_3c/3x3_s2"
  bottom: "inception_3c/double3x3_s2"
  bottom: "inception_3c/pool"
  top: "inception_3c/output"
}
layer {
  name: "inception_4a/1x1"
  type: "Convolution"
  bottom: "inception_3c/output"
  top: "inception_4a/1x1"
  param {
    lr_mult: 1
    decay_mult: 1
  }
  param {
    lr_mult: 2
    decay_mult: 0
  }
  convolution_param {
    num_output: 224
    kernel_size: 1
    weight_filler {
      type: "msra"
    }
    bias_filler {
      type: "constant"
      value: 0.2
    }
  }
}
layer {
  name: "inception_4a/relu_1x1"
  type: "ReLU"
  bottom: "inception_4a/1x1"
  top: "inception_4a/1x1"
}
layer {
  name: "inception_4a/3x3_reduce"
  type: "Convolution"
  bottom: "inception_3c/output"
  top: "inception_4a/3x3_reduce"
  param {
    lr_mult: 1
    decay_mult: 1
  }
  param {
    lr_mult: 2
    decay_mult: 0
  }
  convolution_param {
    num_output: 64
    kernel_size: 1
    weight_filler {
      type: "msra"
    }
    bias_filler {
      type: "constant"
      value: 0.2
    }
  }
}
layer {
  name: "inception_4a/relu_3x3_reduce"
  type: "ReLU"
  bottom: "inception_4a/3x3_reduce"
  top: "inception_4a/3x3_reduce"
}
layer {
  name: "inception_4a/3x3"
  type: "Convolution"
  bottom: "inception_4a/3x3_reduce"
  top: "inception_4a/3x3"
  param {
    lr_mult: 1
    decay_mult: 1
  }
  param {
    lr_mult: 2
    decay_mult: 0
  }
  convolution_param {
    num_output: 96
    pad: 1
    kernel_size: 3
    weight_filler {
      type: "msra"
    }
    bias_filler {
      type: "constant"
      value: 0.2
    }
  }
}
layer {
  name: "inception_4a/relu_3x3"
  type: "ReLU"
  bottom: "inception_4a/3x3"
  top: "inception_4a/3x3"
}
layer {
  name: "inception_4a/double3x3_reduce"
  type: "Convolution"
  bottom: "inception_3c/output"
  top: "inception_4a/double3x3_reduce"
  param {
    lr_mult: 1
    decay_mult: 1
  }
  param {
    lr_mult: 2
    decay_mult: 0
  }
  convolution_param {
    num_output: 96
    kernel_size: 1
    weight_filler {
      type: "msra"
    }
    bias_filler {
      type: "constant"
      value: 0.2
    }
  }
}
layer {
  name: "inception_4a/relu_double3x3_reduce"
  type: "ReLU"
  bottom: "inception_4a/double3x3_reduce"
  top: "inception_4a/double3x3_reduce"
}
layer {
  name: "inception_4a/double3x3_mid"
  type: "Convolution"
  bottom: "inception_4a/double3x3_reduce"
  top: "inception_4a/double3x3_mid"
  param {
    lr_mult: 1
    decay_mult: 1
  }
  param {
    lr_mult: 2
    decay_mult: 0
  }
  convolution_param {
    num_output: 128
    pad: 1
    kernel_size: 3
    weight_filler {
      type: "msra"
    }
    bias_filler {
      type: "constant"
      value: 0.2
    }
  }
}
layer {
  name: "inception_4a/relu_double3x3_mid"
  type: "ReLU"
  bottom: "inception_4a/double3x3_mid"
  top: "inception_4a/double3x3_mid"
}
layer {
  name: "inception_4a/double3x3"
  type: "Convolution"
  bottom: "inception_4a/double3x3_mid"
  top: "inception_4a/double3x3"
  param {
    lr_mult: 1
    decay_mult: 1
  }
  param {
    lr_mult: 2
    decay_mult: 0
  }
  convolution_param {
    num_output: 128
    pad: 1
    kernel_size: 3
    weight_filler {
      type: "msra"
    }
    bias_filler {
      type: "constant"
      value: 0.2
    }
  }
}
layer {
  name: "inception_4a/relu_double3x3"
  type: "ReLU"
  bottom: "inception_4a/double3x3"
  top: "inception_4a/double3x3"
}
layer {
  name: "inception_4a/pool"
  type: "Pooling"
  bottom: "inception_3c/output"
  top: "inception_4a/pool"
  pooling_param {
    pool: AVE
    kernel_size: 3
    stride: 1
    pad: 1
  }
}
layer {
  name: "inception_4a/pool_proj"
  type: "Convolution"
  bottom: "inception_4a/pool"
  top: "inception_4a/pool_proj"
  param {
    lr_mult: 1
    decay_mult: 1
  }
  param {
    lr_mult: 2
    decay_mult: 0
  }
  convolution_param {
    num_output: 128
    kernel_size: 1
    weight_filler {
      type: "msra"
    }
    bias_filler {
      type: "constant"
      value: 0.2
    }
  }
}
layer {
  name: "inception_4a/relu_pool_proj"
  type: "ReLU"
  bottom: "inception_4a/pool_proj"
  top: "inception_4a/pool_proj"
}
layer {
  name: "inception_4a/output"
  type: "Concat"
  bottom: "inception_4a/1x1"
  bottom: "inception_4a/3x3"
  bottom: "inception_4a/double3x3"
  bottom: "inception_4a/pool_proj"
  top: "inception_4a/output"
}
layer {
  name: "loss1/ave_pool"
  type: "Pooling"
  bottom: "inception_4a/output"
  top: "loss1/ave_pool"
  pooling_param {
    pool: AVE
    kernel_size: 5
    stride: 3
  }
}
layer {
  name: "loss1/conv"
  type: "Convolution"
  bottom: "loss1/ave_pool"
  top: "loss1/conv"
  param {
    lr_mult: 1
    decay_mult: 1
  }
  param {
    lr_mult: 2
    decay_mult: 0
  }
  convolution_param {
    num_output: 128
    kernel_size: 1
    weight_filler {
      type: "msra"
    }
    bias_filler {
      type: "constant"
      value: 0.2
    }
  }
}
layer {
  name: "loss1/relu_conv"
  type: "ReLU"
  bottom: "loss1/conv"
  top: "loss1/conv"
}
layer {
  name: "loss1/fc"
  type: "InnerProduct"
  bottom: "loss1/conv"
  top: "loss1/fc"
  param {
    lr_mult: 1
    decay_mult: 1
  }
  param {
    lr_mult: 2
    decay_mult: 0
  }
  inner_product_param {
    num_output: 1024
    weight_filler {
      type: "msra"
    }
    bias_filler {
      type: "constant"
      value: 0.2
    }
  }
}
layer {
  name: "loss1/relu_fc"
  type: "ReLU"
  bottom: "loss1/fc"
  top: "loss1/fc"
}
layer {
  name: "loss1/drop_fc"
  type: "Dropout"
  bottom: "loss1/fc"
  top: "loss1/fc"
  dropout_param {
    dropout_ratio: 0.7
  }
}
layer {
  name: "loss1/classifier"
  type: "InnerProduct"
  bottom: "loss1/fc"
  top: "loss1/classifier"
  param {
    lr_mult: 1
    decay_mult: 1
  }
  param {
    lr_mult: 2
    decay_mult: 0
  }
  inner_product_param {
    num_output: 1000
    weight_filler {
      type: "msra"
    }
    bias_filler {
      type: "constant"
      value: 0
    }
  }
}
layer {
  name: "loss1/loss"
  type: "SoftmaxWithLoss"
  bottom: "loss1/classifier"
  bottom: "label"
  top: "loss1/loss1"
  loss_weight: 0.3
}
layer {
  name: "inception_4b/1x1"
  type: "Convolution"
  bottom: "inception_4a/output"
  top: "inception_4b/1x1"
  param {
    lr_mult: 1
    decay_mult: 1
  }
  param {
    lr_mult: 2
    decay_mult: 0
  }
  convolution_param {
    num_output: 192
    kernel_size: 1
    weight_filler {
      type: "msra"
    }
    bias_filler {
      type: "constant"
      value: 0.2
    }
  }
}
layer {
  name: "inception_4b/relu_1x1"
  type: "ReLU"
  bottom: "inception_4b/1x1"
  top: "inception_4b/1x1"
}
layer {
  name: "inception_4b/3x3_reduce"
  type: "Convolution"
  bottom: "inception_4a/output"
  top: "inception_4b/3x3_reduce"
  param {
    lr_mult: 1
    decay_mult: 1
  }
  param {
    lr_mult: 2
    decay_mult: 0
  }
  convolution_param {
    num_output: 96
    kernel_size: 1
    weight_filler {
      type: "msra"
    }
    bias_filler {
      type: "constant"
      value: 0.2
    }
  }
}
layer {
  name: "inception_4b/relu_3x3_reduce"
  type: "ReLU"
  bottom: "inception_4b/3x3_reduce"
  top: "inception_4b/3x3_reduce"
}
layer {
  name: "inception_4b/3x3"
  type: "Convolution"
  bottom: "inception_4b/3x3_reduce"
  top: "inception_4b/3x3"
  param {
    lr_mult: 1
    decay_mult: 1
  }
  param {
    lr_mult: 2
    decay_mult: 0
  }
  convolution_param {
    num_output: 128
    pad: 1
    kernel_size: 3
    weight_filler {
      type: "msra"
    }
    bias_filler {
      type: "constant"
      value: 0.2
    }
  }
}
layer {
  name: "inception_4b/relu_3x3"
  type: "ReLU"
  bottom: "inception_4b/3x3"
  top: "inception_4b/3x3"
}
layer {
  name: "inception_4b/double3x3_reduce"
  type: "Convolution"
  bottom: "inception_4a/output"
  top: "inception_4b/double3x3_reduce"
  param {
    lr_mult: 1
    decay_mult: 1
  }
  param {
    lr_mult: 2
    decay_mult: 0
  }
  convolution_param {
    num_output: 96
    kernel_size: 1
    weight_filler {
      type: "msra"
    }
    bias_filler {
      type: "constant"
      value: 0.2
    }
  }
}
layer {
  name: "inception_4b/relu_double3x3_reduce"
  type: "ReLU"
  bottom: "inception_4b/double3x3_reduce"
  top: "inception_4b/double3x3_reduce"
}
layer {
  name: "inception_4b/double3x3_mid"
  type: "Convolution"
  bottom: "inception_4b/double3x3_reduce"
  top: "inception_4b/double3x3_mid"
  param {
    lr_mult: 1
    decay_mult: 1
  }
  param {
    lr_mult: 2
    decay_mult: 0
  }
  convolution_param {
    num_output: 128
    pad: 1
    kernel_size: 3
    weight_filler {
      type: "msra"
    }
    bias_filler {
      type: "constant"
      value: 0.2
    }
  }
}
layer {
  name: "inception_4b/relu_double3x3_mid"
  type: "ReLU"
  bottom: "inception_4b/double3x3_mid"
  top: "inception_4b/double3x3_mid"
}
layer {
  name: "inception_4b/double3x3"
  type: "Convolution"
  bottom: "inception_4b/double3x3_mid"
  top: "inception_4b/double3x3"
  param {
    lr_mult: 1
    decay_mult: 1
  }
  param {
    lr_mult: 2
    decay_mult: 0
  }
  convolution_param {
    num_output: 128
    pad: 1
    kernel_size: 3
    weight_filler {
      type: "msra"
    }
    bias_filler {
      type: "constant"
      value: 0.2
    }
  }
}
layer {
  name: "inception_4b/relu_double3x3"
  type: "ReLU"
  bottom: "inception_4b/double3x3"
  top: "inception_4b/double3x3"
}
layer {
  name: "inception_4b/pool"
  type: "Pooling"
  bottom: "inception_4a/output"
  top: "inception_4b/pool"
  pooling_param {
    pool: AVE
    kernel_size: 3
    stride: 1
    pad: 1
  }
}
layer {
  name: "inception_4b/pool_proj"
  type: "Convolution"
  bottom: "inception_4b/pool"
  top: "inception_4b/pool_proj"
  param {
    lr_mult: 1
    decay_mult: 1
  }
  param {
    lr_mult: 2
    decay_mult: 0
  }
  convolution_param {
    num_output: 128
    kernel_size: 1
    weight_filler {
      type: "msra"
    }
    bias_filler {
      type: "constant"
      value: 0.2
    }
  }
}
layer {
  name: "inception_4b/relu_pool_proj"
  type: "ReLU"
  bottom: "inception_4b/pool_proj"
  top: "inception_4b/pool_proj"
}
layer {
  name: "inception_4b/output"
  type: "Concat"
  bottom: "inception_4b/1x1"
  bottom: "inception_4b/3x3"
  bottom: "inception_4b/double3x3"
  bottom: "inception_4b/pool_proj"
  top: "inception_4b/output"
}
layer {
  name: "inception_4c/1x1"
  type: "Convolution"
  bottom: "inception_4b/output"
  top: "inception_4c/1x1"
  param {
    lr_mult: 1
    decay_mult: 1
  }
  param {
    lr_mult: 2
    decay_mult: 0
  }
  convolution_param {
    num_output: 160
    kernel_size: 1
    weight_filler {
      type: "msra"
    }
    bias_filler {
      type: "constant"
      value: 0.2
    }
  }
}
layer {
  name: "inception_4c/relu_1x1"
  type: "ReLU"
  bottom: "inception_4c/1x1"
  top: "inception_4c/1x1"
}
layer {
  name: "inception_4c/3x3_reduce"
  type: "Convolution"
  bottom: "inception_4b/output"
  top: "inception_4c/3x3_reduce"
  param {
    lr_mult: 1
    decay_mult: 1
  }
  param {
    lr_mult: 2
    decay_mult: 0
  }
  convolution_param {
    num_output: 128
    kernel_size: 1
    weight_filler {
      type: "msra"
    }
    bias_filler {
      type: "constant"
      value: 0.2
    }
  }
}
layer {
  name: "inception_4c/relu_3x3_reduce"
  type: "ReLU"
  bottom: "inception_4c/3x3_reduce"
  top: "inception_4c/3x3_reduce"
}
layer {
  name: "inception_4c/3x3"
  type: "Convolution"
  bottom: "inception_4c/3x3_reduce"
  top: "inception_4c/3x3"
  param {
    lr_mult: 1
    decay_mult: 1
  }
  param {
    lr_mult: 2
    decay_mult: 0
  }
  convolution_param {
    num_output: 160
    pad: 1
    kernel_size: 3
    weight_filler {
      type: "msra"
    }
    bias_filler {
      type: "constant"
      value: 0.2
    }
  }
}
layer {
  name: "inception_4c/relu_3x3"
  type: "ReLU"
  bottom: "inception_4c/3x3"
  top: "inception_4c/3x3"
}
layer {
  name: "inception_4c/double3x3_reduce"
  type: "Convolution"
  bottom: "inception_4b/output"
  top: "inception_4c/double3x3_reduce"
  param {
    lr_mult: 1
    decay_mult: 1
  }
  param {
    lr_mult: 2
    decay_mult: 0
  }
  convolution_param {
    num_output: 128
    kernel_size: 1
    weight_filler {
      type: "msra"
    }
    bias_filler {
      type: "constant"
      value: 0.2
    }
  }
}
layer {
  name: "inception_4c/relu_double3x3_reduce"
  type: "ReLU"
  bottom: "inception_4c/double3x3_reduce"
  top: "inception_4c/double3x3_reduce"
}
layer {
  name: "inception_4c/double3x3_mid"
  type: "Convolution"
  bottom: "inception_4c/double3x3_reduce"
  top: "inception_4c/double3x3_mid"
  param {
    lr_mult: 1
    decay_mult: 1
  }
  param {
    lr_mult: 2
    decay_mult: 0
  }
  convolution_param {
    num_output: 160
    pad: 1
    kernel_size: 3
    weight_filler {
      type: "msra"
    }
    bias_filler {
      type: "constant"
      value: 0.2
    }
  }
}
layer {
  name: "inception_4c/relu_double3x3_mid"
  type: "ReLU"
  bottom: "inception_4c/double3x3_mid"
  top: "inception_4c/double3x3_mid"
}
layer {
  name: "inception_4c/double3x3"
  type: "Convolution"
  bottom: "inception_4c/double3x3_mid"
  top: "inception_4c/double3x3"
  param {
    lr_mult: 1
    decay_mult: 1
  }
  param {
    lr_mult: 2
    decay_mult: 0
  }
  convolution_param {
    num_output: 160
    pad: 1
    kernel_size: 3
    weight_filler {
      type: "msra"
    }
    bias_filler {
      type: "constant"
      value: 0.2
    }
  }
}
layer {
  name: "inception_4c/relu_double3x3"
  type: "ReLU"
  bottom: "inception_4c/double3x3"
  top: "inception_4c/double3x3"
}
layer {
  name: "inception_4c/pool"
  type: "Pooling"
  bottom: "inception_4b/output"
  top: "inception_4c/pool"
  pooling_param {
    pool: AVE
    kernel_size: 3
    stride: 1
    pad: 1
  }
}
layer {
  name: "inception_4c/pool_proj"
  type: "Convolution"
  bottom: "inception_4c/pool"
  top: "inception_4c/pool_proj"
  param {
    lr_mult: 1
    decay_mult: 1
  }
  param {
    lr_mult: 2
    decay_mult: 0
  }
  convolution_param {
    num_output: 128
    kernel_size: 1
    weight_filler {
      type: "msra"
    }
    bias_filler {
      type: "constant"
      value: 0.2
    }
  }
}
layer {
  name: "inception_4c/relu_pool_proj"
  type: "ReLU"
  bottom: "inception_4c/pool_proj"
  top: "inception_4c/pool_proj"
}
layer {
  name: "inception_4c/output"
  type: "Concat"
  bottom: "inception_4c/1x1"
  bottom: "inception_4c/3x3"
  bottom: "inception_4c/double3x3"
  bottom: "inception_4c/pool_proj"
  top: "inception_4c/output"
}
layer {
  name: "inception_4d/1x1"
  type: "Convolution"
  bottom: "inception_4c/output"
  top: "inception_4d/1x1"
  param {
    lr_mult: 1
    decay_mult: 1
  }
  param {
    lr_mult: 2
    decay_mult: 0
  }
  convolution_param {
    num_output: 96
    kernel_size: 1
    weight_filler {
      type: "msra"
    }
    bias_filler {
      type: "constant"
      value: 0.2
    }
  }
}
layer {
  name: "inception_4d/relu_1x1"
  type: "ReLU"
  bottom: "inception_4d/1x1"
  top: "inception_4d/1x1"
}
layer {
  name: "inception_4d/3x3_reduce"
  type: "Convolution"
  bottom: "inception_4c/output"
  top: "inception_4d/3x3_reduce"
  param {
    lr_mult: 1
    decay_mult: 1
  }
  param {
    lr_mult: 2
    decay_mult: 0
  }
  convolution_param {
    num_output: 128
    kernel_size: 1
    weight_filler {
      type: "msra"
    }
    bias_filler {
      type: "constant"
      value: 0.2
    }
  }
}
layer {
  name: "inception_4d/relu_3x3_reduce"
  type: "ReLU"
  bottom: "inception_4d/3x3_reduce"
  top: "inception_4d/3x3_reduce"
}
layer {
  name: "inception_4d/3x3"
  type: "Convolution"
  bottom: "inception_4d/3x3_reduce"
  top: "inception_4d/3x3"
  param {
    lr_mult: 1
    decay_mult: 1
  }
  param {
    lr_mult: 2
    decay_mult: 0
  }
  convolution_param {
    num_output: 192
    pad: 1
    kernel_size: 3
    weight_filler {
      type: "msra"
    }
    bias_filler {
      type: "constant"
      value: 0.2
    }
  }
}
layer {
  name: "inception_4d/relu_3x3"
  type: "ReLU"
  bottom: "inception_4d/3x3"
  top: "inception_4d/3x3"
}
layer {
  name: "inception_4d/double3x3_reduce"
  type: "Convolution"
  bottom: "inception_4c/output"
  t
I0905 21:57:31.065886 58545 layer_factory.hpp:76] Creating layer data
I0905 21:57:31.066887 58545 net.cpp:110] Creating Layer data
I0905 21:57:31.066987 58545 net.cpp:433] data -> data
I0905 21:57:31.067039 58545 net.cpp:433] data -> label
I0905 21:57:31.068748 58548 db_lmdb.cpp:22] Opened lmdb /ssd/ilsvrc2012/ilsvrc12_train_lmdb
I0905 21:57:31.069335 58545 data_layer.cpp:44] output data size: 32,3,224,224
I0905 21:57:31.144958 58545 net.cpp:155] Setting up data
I0905 21:57:31.145114 58545 net.cpp:163] Top shape: 32 3 224 224 (4816896)
I0905 21:57:31.145145 58545 net.cpp:163] Top shape: 32 (32)
I0905 21:57:31.145203 58545 layer_factory.hpp:76] Creating layer label_data_1_split
I0905 21:57:31.145313 58545 net.cpp:110] Creating Layer label_data_1_split
I0905 21:57:31.145330 58545 net.cpp:477] label_data_1_split <- label
I0905 21:57:31.145391 58545 net.cpp:433] label_data_1_split -> label_data_1_split_0
I0905 21:57:31.145419 58545 net.cpp:433] label_data_1_split -> label_data_1_split_1
I0905 21:57:31.145437 58545 net.cpp:433] label_data_1_split -> label_data_1_split_2
I0905 21:57:31.145467 58545 net.cpp:155] Setting up label_data_1_split
I0905 21:57:31.145481 58545 net.cpp:163] Top shape: 32 (32)
I0905 21:57:31.145489 58545 net.cpp:163] Top shape: 32 (32)
I0905 21:57:31.145498 58545 net.cpp:163] Top shape: 32 (32)
I0905 21:57:31.145541 58545 layer_factory.hpp:76] Creating layer layer
I0905 21:57:31.145586 58545 net.cpp:110] Creating Layer layer
I0905 21:57:31.145597 58545 net.cpp:477] layer <- data
I0905 21:57:31.145622 58545 net.cpp:433] layer -> data_scaled
I0905 21:57:31.145653 58545 net.cpp:155] Setting up layer
I0905 21:57:31.145668 58545 net.cpp:163] Top shape: 32 3 224 224 (4816896)
I0905 21:57:31.145685 58545 layer_factory.hpp:76] Creating layer conv1/7x7_s2
I0905 21:57:31.145720 58545 net.cpp:110] Creating Layer conv1/7x7_s2
I0905 21:57:31.145730 58545 net.cpp:477] conv1/7x7_s2 <- data_scaled
I0905 21:57:31.145742 58545 net.cpp:433] conv1/7x7_s2 -> conv1/7x7_s2
I0905 21:57:31.150442 58545 net.cpp:155] Setting up conv1/7x7_s2
I0905 21:57:31.150480 58545 net.cpp:163] Top shape: 32 64 112 112 (25690112)
I0905 21:57:31.150544 58545 layer_factory.hpp:76] Creating layer conv1/relu_7x7
I0905 21:57:31.150568 58545 net.cpp:110] Creating Layer conv1/relu_7x7
I0905 21:57:31.150585 58545 net.cpp:477] conv1/relu_7x7 <- conv1/7x7_s2
I0905 21:57:31.150607 58545 net.cpp:419] conv1/relu_7x7 -> conv1/7x7_s2 (in-place)
I0905 21:57:31.150630 58545 net.cpp:155] Setting up conv1/relu_7x7
I0905 21:57:31.150648 58545 net.cpp:163] Top shape: 32 64 112 112 (25690112)
I0905 21:57:31.150671 58545 layer_factory.hpp:76] Creating layer pool1/3x3_s2
I0905 21:57:31.150692 58545 net.cpp:110] Creating Layer pool1/3x3_s2
I0905 21:57:31.150703 58545 net.cpp:477] pool1/3x3_s2 <- conv1/7x7_s2
I0905 21:57:31.150717 58545 net.cpp:433] pool1/3x3_s2 -> pool1/3x3_s2
I0905 21:57:31.150758 58545 net.cpp:155] Setting up pool1/3x3_s2
I0905 21:57:31.150776 58545 net.cpp:163] Top shape: 32 64 56 56 (6422528)
I0905 21:57:31.150784 58545 layer_factory.hpp:76] Creating layer pool1/norm1
I0905 21:57:31.150815 58545 net.cpp:110] Creating Layer pool1/norm1
I0905 21:57:31.150826 58545 net.cpp:477] pool1/norm1 <- pool1/3x3_s2
I0905 21:57:31.150840 58545 net.cpp:433] pool1/norm1 -> pool1/norm1
I0905 21:57:31.150864 58545 net.cpp:155] Setting up pool1/norm1
I0905 21:57:31.150879 58545 net.cpp:163] Top shape: 32 64 56 56 (6422528)
I0905 21:57:31.150887 58545 layer_factory.hpp:76] Creating layer conv2/3x3_reduce
I0905 21:57:31.150919 58545 net.cpp:110] Creating Layer conv2/3x3_reduce
I0905 21:57:31.150931 58545 net.cpp:477] conv2/3x3_reduce <- pool1/norm1
I0905 21:57:31.150948 58545 net.cpp:433] conv2/3x3_reduce -> conv2/3x3_reduce
I0905 21:57:31.152417 58545 net.cpp:155] Setting up conv2/3x3_reduce
I0905 21:57:31.152446 58545 net.cpp:163] Top shape: 32 64 56 56 (6422528)
I0905 21:57:31.152483 58545 layer_factory.hpp:76] Creating layer conv2/relu_3x3_reduce
I0905 21:57:31.152504 58545 net.cpp:110] Creating Layer conv2/relu_3x3_reduce
I0905 21:57:31.152515 58545 net.cpp:477] conv2/relu_3x3_reduce <- conv2/3x3_reduce
I0905 21:57:31.152539 58545 net.cpp:419] conv2/relu_3x3_reduce -> conv2/3x3_reduce (in-place)
I0905 21:57:31.152557 58545 net.cpp:155] Setting up conv2/relu_3x3_reduce
I0905 21:57:31.152571 58545 net.cpp:163] Top shape: 32 64 56 56 (6422528)
I0905 21:57:31.152580 58545 layer_factory.hpp:76] Creating layer conv2/3x3
I0905 21:57:31.152606 58545 net.cpp:110] Creating Layer conv2/3x3
I0905 21:57:31.152616 58545 net.cpp:477] conv2/3x3 <- conv2/3x3_reduce
I0905 21:57:31.152636 58545 net.cpp:433] conv2/3x3 -> conv2/3x3
I0905 21:57:31.162019 58545 net.cpp:155] Setting up conv2/3x3
I0905 21:57:31.162050 58545 net.cpp:163] Top shape: 32 192 56 56 (19267584)
I0905 21:57:31.162071 58545 layer_factory.hpp:76] Creating layer conv2/relu_3x3
I0905 21:57:31.162096 58545 net.cpp:110] Creating Layer conv2/relu_3x3
I0905 21:57:31.162111 58545 net.cpp:477] conv2/relu_3x3 <- conv2/3x3
I0905 21:57:31.162139 58545 net.cpp:419] conv2/relu_3x3 -> conv2/3x3 (in-place)
I0905 21:57:31.162159 58545 net.cpp:155] Setting up conv2/relu_3x3
I0905 21:57:31.162180 58545 net.cpp:163] Top shape: 32 192 56 56 (19267584)
I0905 21:57:31.162188 58545 layer_factory.hpp:76] Creating layer conv2/norm2
I0905 21:57:31.162199 58545 net.cpp:110] Creating Layer conv2/norm2
I0905 21:57:31.162205 58545 net.cpp:477] conv2/norm2 <- conv2/3x3
I0905 21:57:31.162248 58545 net.cpp:433] conv2/norm2 -> conv2/norm2
I0905 21:57:31.162268 58545 net.cpp:155] Setting up conv2/norm2
I0905 21:57:31.162281 58545 net.cpp:163] Top shape: 32 192 56 56 (19267584)
I0905 21:57:31.162288 58545 layer_factory.hpp:76] Creating layer pool2/3x3_s2
I0905 21:57:31.162305 58545 net.cpp:110] Creating Layer pool2/3x3_s2
I0905 21:57:31.162313 58545 net.cpp:477] pool2/3x3_s2 <- conv2/norm2
I0905 21:57:31.162336 58545 net.cpp:433] pool2/3x3_s2 -> pool2/3x3_s2
I0905 21:57:31.162359 58545 net.cpp:155] Setting up pool2/3x3_s2
I0905 21:57:31.162372 58545 net.cpp:163] Top shape: 32 192 28 28 (4816896)
I0905 21:57:31.162379 58545 layer_factory.hpp:76] Creating layer pool2/3x3_s2_pool2/3x3_s2_0_split
I0905 21:57:31.162391 58545 net.cpp:110] Creating Layer pool2/3x3_s2_pool2/3x3_s2_0_split
I0905 21:57:31.162399 58545 net.cpp:477] pool2/3x3_s2_pool2/3x3_s2_0_split <- pool2/3x3_s2
I0905 21:57:31.162408 58545 net.cpp:433] pool2/3x3_s2_pool2/3x3_s2_0_split -> pool2/3x3_s2_pool2/3x3_s2_0_split_0
I0905 21:57:31.162423 58545 net.cpp:433] pool2/3x3_s2_pool2/3x3_s2_0_split -> pool2/3x3_s2_pool2/3x3_s2_0_split_1
I0905 21:57:31.162437 58545 net.cpp:433] pool2/3x3_s2_pool2/3x3_s2_0_split -> pool2/3x3_s2_pool2/3x3_s2_0_split_2
I0905 21:57:31.162448 58545 net.cpp:433] pool2/3x3_s2_pool2/3x3_s2_0_split -> pool2/3x3_s2_pool2/3x3_s2_0_split_3
I0905 21:57:31.162470 58545 net.cpp:155] Setting up pool2/3x3_s2_pool2/3x3_s2_0_split
I0905 21:57:31.162484 58545 net.cpp:163] Top shape: 32 192 28 28 (4816896)
I0905 21:57:31.162493 58545 net.cpp:163] Top shape: 32 192 28 28 (4816896)
I0905 21:57:31.162500 58545 net.cpp:163] Top shape: 32 192 28 28 (4816896)
I0905 21:57:31.162509 58545 net.cpp:163] Top shape: 32 192 28 28 (4816896)
I0905 21:57:31.162533 58545 layer_factory.hpp:76] Creating layer inception_3a/1x1
I0905 21:57:31.162562 58545 net.cpp:110] Creating Layer inception_3a/1x1
I0905 21:57:31.162574 58545 net.cpp:477] inception_3a/1x1 <- pool2/3x3_s2_pool2/3x3_s2_0_split_0
I0905 21:57:31.162585 58545 net.cpp:433] inception_3a/1x1 -> inception_3a/1x1
I0905 21:57:31.164650 58545 net.cpp:155] Setting up inception_3a/1x1
I0905 21:57:31.164679 58545 net.cpp:163] Top shape: 32 64 28 28 (1605632)
I0905 21:57:31.164695 58545 layer_factory.hpp:76] Creating layer inception_3a/relu_1x1
I0905 21:57:31.164711 58545 net.cpp:110] Creating Layer inception_3a/relu_1x1
I0905 21:57:31.164718 58545 net.cpp:477] inception_3a/relu_1x1 <- inception_3a/1x1
I0905 21:57:31.164731 58545 net.cpp:419] inception_3a/relu_1x1 -> inception_3a/1x1 (in-place)
I0905 21:57:31.164744 58545 net.cpp:155] Setting up inception_3a/relu_1x1
I0905 21:57:31.164754 58545 net.cpp:163] Top shape: 32 64 28 28 (1605632)
I0905 21:57:31.164760 58545 layer_factory.hpp:76] Creating layer inception_3a/3x3_reduce
I0905 21:57:31.164784 58545 net.cpp:110] Creating Layer inception_3a/3x3_reduce
I0905 21:57:31.164795 58545 net.cpp:477] inception_3a/3x3_reduce <- pool2/3x3_s2_pool2/3x3_s2_0_split_1
I0905 21:57:31.164809 58545 net.cpp:433] inception_3a/3x3_reduce -> inception_3a/3x3_reduce
I0905 21:57:31.165830 58545 net.cpp:155] Setting up inception_3a/3x3_reduce
I0905 21:57:31.165849 58545 net.cpp:163] Top shape: 32 64 28 28 (1605632)
I0905 21:57:31.165871 58545 layer_factory.hpp:76] Creating layer inception_3a/relu_3x3_reduce
I0905 21:57:31.165900 58545 net.cpp:110] Creating Layer inception_3a/relu_3x3_reduce
I0905 21:57:31.165913 58545 net.cpp:477] inception_3a/relu_3x3_reduce <- inception_3a/3x3_reduce
I0905 21:57:31.165925 58545 net.cpp:419] inception_3a/relu_3x3_reduce -> inception_3a/3x3_reduce (in-place)
I0905 21:57:31.165937 58545 net.cpp:155] Setting up inception_3a/relu_3x3_reduce
I0905 21:57:31.165947 58545 net.cpp:163] Top shape: 32 64 28 28 (1605632)
I0905 21:57:31.165956 58545 layer_factory.hpp:76] Creating layer inception_3a/3x3
I0905 21:57:31.165971 58545 net.cpp:110] Creating Layer inception_3a/3x3
I0905 21:57:31.165978 58545 net.cpp:477] inception_3a/3x3 <- inception_3a/3x3_reduce
I0905 21:57:31.166007 58545 net.cpp:433] inception_3a/3x3 -> inception_3a/3x3
I0905 21:57:31.169893 58545 net.cpp:155] Setting up inception_3a/3x3
I0905 21:57:31.169924 58545 net.cpp:163] Top shape: 32 64 28 28 (1605632)
I0905 21:57:31.169939 58545 layer_factory.hpp:76] Creating layer inception_3a/relu_3x3
I0905 21:57:31.169962 58545 net.cpp:110] Creating Layer inception_3a/relu_3x3
I0905 21:57:31.169970 58545 net.cpp:477] inception_3a/relu_3x3 <- inception_3a/3x3
I0905 21:57:31.169982 58545 net.cpp:419] inception_3a/relu_3x3 -> inception_3a/3x3 (in-place)
I0905 21:57:31.169998 58545 net.cpp:155] Setting up inception_3a/relu_3x3
I0905 21:57:31.170008 58545 net.cpp:163] Top shape: 32 64 28 28 (1605632)
I0905 21:57:31.170016 58545 layer_factory.hpp:76] Creating layer inception_3a/double3x3_reduce
I0905 21:57:31.170059 58545 net.cpp:110] Creating Layer inception_3a/double3x3_reduce
I0905 21:57:31.170071 58545 net.cpp:477] inception_3a/double3x3_reduce <- pool2/3x3_s2_pool2/3x3_s2_0_split_2
I0905 21:57:31.170089 58545 net.cpp:433] inception_3a/double3x3_reduce -> inception_3a/double3x3_reduce
I0905 21:57:31.171110 58545 net.cpp:155] Setting up inception_3a/double3x3_reduce
I0905 21:57:31.171130 58545 net.cpp:163] Top shape: 32 64 28 28 (1605632)
I0905 21:57:31.171144 58545 layer_factory.hpp:76] Creating layer inception_3a/relu_double3x3_reduce
I0905 21:57:31.171155 58545 net.cpp:110] Creating Layer inception_3a/relu_double3x3_reduce
I0905 21:57:31.171162 58545 net.cpp:477] inception_3a/relu_double3x3_reduce <- inception_3a/double3x3_reduce
I0905 21:57:31.171172 58545 net.cpp:419] inception_3a/relu_double3x3_reduce -> inception_3a/double3x3_reduce (in-place)
I0905 21:57:31.171186 58545 net.cpp:155] Setting up inception_3a/relu_double3x3_reduce
I0905 21:57:31.171195 58545 net.cpp:163] Top shape: 32 64 28 28 (1605632)
I0905 21:57:31.171216 58545 layer_factory.hpp:76] Creating layer inception_3a/double3x3_mid
I0905 21:57:31.171247 58545 net.cpp:110] Creating Layer inception_3a/double3x3_mid
I0905 21:57:31.171257 58545 net.cpp:477] inception_3a/double3x3_mid <- inception_3a/double3x3_reduce
I0905 21:57:31.171269 58545 net.cpp:433] inception_3a/double3x3_mid -> inception_3a/double3x3_mid
I0905 21:57:31.175459 58545 net.cpp:155] Setting up inception_3a/double3x3_mid
I0905 21:57:31.175480 58545 net.cpp:163] Top shape: 32 96 28 28 (2408448)
I0905 21:57:31.175496 58545 layer_factory.hpp:76] Creating layer inception_3a/relu_double3x3_mid
I0905 21:57:31.175525 58545 net.cpp:110] Creating Layer inception_3a/relu_double3x3_mid
I0905 21:57:31.175534 58545 net.cpp:477] inception_3a/relu_double3x3_mid <- inception_3a/double3x3_mid
I0905 21:57:31.175545 58545 net.cpp:419] inception_3a/relu_double3x3_mid -> inception_3a/double3x3_mid (in-place)
I0905 21:57:31.175559 58545 net.cpp:155] Setting up inception_3a/relu_double3x3_mid
I0905 21:57:31.175568 58545 net.cpp:163] Top shape: 32 96 28 28 (2408448)
I0905 21:57:31.175576 58545 layer_factory.hpp:76] Creating layer inception_3a/double3x3
I0905 21:57:31.175592 58545 net.cpp:110] Creating Layer inception_3a/double3x3
I0905 21:57:31.175600 58545 net.cpp:477] inception_3a/double3x3 <- inception_3a/double3x3_mid
I0905 21:57:31.175611 58545 net.cpp:433] inception_3a/double3x3 -> inception_3a/double3x3
I0905 21:57:31.181857 58545 net.cpp:155] Setting up inception_3a/double3x3
I0905 21:57:31.181881 58545 net.cpp:163] Top shape: 32 96 28 28 (2408448)
I0905 21:57:31.181905 58545 layer_factory.hpp:76] Creating layer inception_3a/relu_double3x3
I0905 21:57:31.181926 58545 net.cpp:110] Creating Layer inception_3a/relu_double3x3
I0905 21:57:31.181946 58545 net.cpp:477] inception_3a/relu_double3x3 <- inception_3a/double3x3
I0905 21:57:31.181957 58545 net.cpp:419] inception_3a/relu_double3x3 -> inception_3a/double3x3 (in-place)
I0905 21:57:31.181973 58545 net.cpp:155] Setting up inception_3a/relu_double3x3
I0905 21:57:31.181982 58545 net.cpp:163] Top shape: 32 96 28 28 (2408448)
I0905 21:57:31.182003 58545 layer_factory.hpp:76] Creating layer inception_3a/pool
I0905 21:57:31.182030 58545 net.cpp:110] Creating Layer inception_3a/pool
I0905 21:57:31.182039 58545 net.cpp:477] inception_3a/pool <- pool2/3x3_s2_pool2/3x3_s2_0_split_3
I0905 21:57:31.182077 58545 net.cpp:433] inception_3a/pool -> inception_3a/pool
I0905 21:57:31.182098 58545 net.cpp:155] Setting up inception_3a/pool
I0905 21:57:31.182112 58545 net.cpp:163] Top shape: 32 192 28 28 (4816896)
I0905 21:57:31.182119 58545 layer_factory.hpp:76] Creating layer inception_3a/pool_proj
I0905 21:57:31.182132 58545 net.cpp:110] Creating Layer inception_3a/pool_proj
I0905 21:57:31.182139 58545 net.cpp:477] inception_3a/pool_proj <- inception_3a/pool
I0905 21:57:31.182157 58545 net.cpp:433] inception_3a/pool_proj -> inception_3a/pool_proj
I0905 21:57:31.182729 58545 net.cpp:155] Setting up inception_3a/pool_proj
I0905 21:57:31.182750 58545 net.cpp:163] Top shape: 32 32 28 28 (802816)
I0905 21:57:31.182764 58545 layer_factory.hpp:76] Creating layer inception_3a/relu_pool_proj
I0905 21:57:31.182773 58545 net.cpp:110] Creating Layer inception_3a/relu_pool_proj
I0905 21:57:31.182782 58545 net.cpp:477] inception_3a/relu_pool_proj <- inception_3a/pool_proj
I0905 21:57:31.182792 58545 net.cpp:419] inception_3a/relu_pool_proj -> inception_3a/pool_proj (in-place)
I0905 21:57:31.182806 58545 net.cpp:155] Setting up inception_3a/relu_pool_proj
I0905 21:57:31.182814 58545 net.cpp:163] Top shape: 32 32 28 28 (802816)
I0905 21:57:31.182822 58545 layer_factory.hpp:76] Creating layer inception_3a/output
I0905 21:57:31.182848 58545 net.cpp:110] Creating Layer inception_3a/output
I0905 21:57:31.182863 58545 net.cpp:477] inception_3a/output <- inception_3a/1x1
I0905 21:57:31.182873 58545 net.cpp:477] inception_3a/output <- inception_3a/3x3
I0905 21:57:31.182881 58545 net.cpp:477] inception_3a/output <- inception_3a/double3x3
I0905 21:57:31.182890 58545 net.cpp:477] inception_3a/output <- inception_3a/pool_proj
I0905 21:57:31.182905 58545 net.cpp:433] inception_3a/output -> inception_3a/output
I0905 21:57:31.182931 58545 net.cpp:155] Setting up inception_3a/output
I0905 21:57:31.182945 58545 net.cpp:163] Top shape: 32 256 28 28 (6422528)
I0905 21:57:31.182968 58545 layer_factory.hpp:76] Creating layer inception_3a/output_inception_3a/output_0_split
I0905 21:57:31.183003 58545 net.cpp:110] Creating Layer inception_3a/output_inception_3a/output_0_split
I0905 21:57:31.183012 58545 net.cpp:477] inception_3a/output_inception_3a/output_0_split <- inception_3a/output
I0905 21:57:31.183023 58545 net.cpp:433] inception_3a/output_inception_3a/output_0_split -> inception_3a/output_inception_3a/output_0_split_0
I0905 21:57:31.183038 58545 net.cpp:433] inception_3a/output_inception_3a/output_0_split -> inception_3a/output_inception_3a/output_0_split_1
I0905 21:57:31.183054 58545 net.cpp:433] inception_3a/output_inception_3a/output_0_split -> inception_3a/output_inception_3a/output_0_split_2
I0905 21:57:31.183070 58545 net.cpp:433] inception_3a/output_inception_3a/output_0_split -> inception_3a/output_inception_3a/output_0_split_3
I0905 21:57:31.183084 58545 net.cpp:155] Setting up inception_3a/output_inception_3a/output_0_split
I0905 21:57:31.183096 58545 net.cpp:163] Top shape: 32 256 28 28 (6422528)
I0905 21:57:31.183104 58545 net.cpp:163] Top shape: 32 256 28 28 (6422528)
I0905 21:57:31.183112 58545 net.cpp:163] Top shape: 32 256 28 28 (6422528)
I0905 21:57:31.183120 58545 net.cpp:163] Top shape: 32 256 28 28 (6422528)
I0905 21:57:31.183126 58545 layer_factory.hpp:76] Creating layer inception_3b/1x1
I0905 21:57:31.183145 58545 net.cpp:110] Creating Layer inception_3b/1x1
I0905 21:57:31.183152 58545 net.cpp:477] inception_3b/1x1 <- inception_3a/output_inception_3a/output_0_split_0
I0905 21:57:31.183164 58545 net.cpp:433] inception_3b/1x1 -> inception_3b/1x1
I0905 21:57:31.184496 58545 net.cpp:155] Setting up inception_3b/1x1
I0905 21:57:31.184517 58545 net.cpp:163] Top shape: 32 64 28 28 (1605632)
I0905 21:57:31.184530 58545 layer_factory.hpp:76] Creating layer inception_3b/relu_1x1
I0905 21:57:31.184552 58545 net.cpp:110] Creating Layer inception_3b/relu_1x1
I0905 21:57:31.184564 58545 net.cpp:477] inception_3b/relu_1x1 <- inception_3b/1x1
I0905 21:57:31.184576 58545 net.cpp:419] inception_3b/relu_1x1 -> inception_3b/1x1 (in-place)
I0905 21:57:31.184614 58545 net.cpp:155] Setting up inception_3b/relu_1x1
I0905 21:57:31.184630 58545 net.cpp:163] Top shape: 32 64 28 28 (1605632)
I0905 21:57:31.184638 58545 layer_factory.hpp:76] Creating layer inception_3b/3x3_reduce
I0905 21:57:31.184664 58545 net.cpp:110] Creating Layer inception_3b/3x3_reduce
I0905 21:57:31.184676 58545 net.cpp:477] inception_3b/3x3_reduce <- inception_3a/output_inception_3a/output_0_split_1
I0905 21:57:31.184689 58545 net.cpp:433] inception_3b/3x3_reduce -> inception_3b/3x3_reduce
I0905 21:57:31.186012 58545 net.cpp:155] Setting up inception_3b/3x3_reduce
I0905 21:57:31.186033 58545 net.cpp:163] Top shape: 32 64 28 28 (1605632)
I0905 21:57:31.186064 58545 layer_factory.hpp:76] Creating layer inception_3b/relu_3x3_reduce
I0905 21:57:31.186079 58545 net.cpp:110] Creating Layer inception_3b/relu_3x3_reduce
I0905 21:57:31.186089 58545 net.cpp:477] inception_3b/relu_3x3_reduce <- inception_3b/3x3_reduce
I0905 21:57:31.186100 58545 net.cpp:419] inception_3b/relu_3x3_reduce -> inception_3b/3x3_reduce (in-place)
I0905 21:57:31.186113 58545 net.cpp:155] Setting up inception_3b/relu_3x3_reduce
I0905 21:57:31.186123 58545 net.cpp:163] Top shape: 32 64 28 28 (1605632)
I0905 21:57:31.186130 58545 layer_factory.hpp:76] Creating layer inception_3b/3x3
I0905 21:57:31.186141 58545 net.cpp:110] Creating Layer inception_3b/3x3
I0905 21:57:31.186149 58545 net.cpp:477] inception_3b/3x3 <- inception_3b/3x3_reduce
I0905 21:57:31.186161 58545 net.cpp:433] inception_3b/3x3 -> inception_3b/3x3
I0905 21:57:31.190377 58545 net.cpp:155] Setting up inception_3b/3x3
I0905 21:57:31.190403 58545 net.cpp:163] Top shape: 32 96 28 28 (2408448)
I0905 21:57:31.190417 58545 layer_factory.hpp:76] Creating layer inception_3b/relu_3x3
I0905 21:57:31.190449 58545 net.cpp:110] Creating Layer inception_3b/relu_3x3
I0905 21:57:31.190459 58545 net.cpp:477] inception_3b/relu_3x3 <- inception_3b/3x3
I0905 21:57:31.190471 58545 net.cpp:419] inception_3b/relu_3x3 -> inception_3b/3x3 (in-place)
I0905 21:57:31.190486 58545 net.cpp:155] Setting up inception_3b/relu_3x3
I0905 21:57:31.190496 58545 net.cpp:163] Top shape: 32 96 28 28 (2408448)
I0905 21:57:31.190505 58545 layer_factory.hpp:76] Creating layer inception_3b/double3x3_reduce
I0905 21:57:31.190521 58545 net.cpp:110] Creating Layer inception_3b/double3x3_reduce
I0905 21:57:31.190539 58545 net.cpp:477] inception_3b/double3x3_reduce <- inception_3a/output_inception_3a/output_0_split_2
I0905 21:57:31.190551 58545 net.cpp:433] inception_3b/double3x3_reduce -> inception_3b/double3x3_reduce
I0905 21:57:31.191880 58545 net.cpp:155] Setting up inception_3b/double3x3_reduce
I0905 21:57:31.191902 58545 net.cpp:163] Top shape: 32 64 28 28 (1605632)
I0905 21:57:31.191928 58545 layer_factory.hpp:76] Creating layer inception_3b/relu_double3x3_reduce
I0905 21:57:31.191946 58545 net.cpp:110] Creating Layer inception_3b/relu_double3x3_reduce
I0905 21:57:31.191953 58545 net.cpp:477] inception_3b/relu_double3x3_reduce <- inception_3b/double3x3_reduce
I0905 21:57:31.191974 58545 net.cpp:419] inception_3b/relu_double3x3_reduce -> inception_3b/double3x3_reduce (in-place)
I0905 21:57:31.191998 58545 net.cpp:155] Setting up inception_3b/relu_double3x3_reduce
I0905 21:57:31.192008 58545 net.cpp:163] Top shape: 32 64 28 28 (1605632)
I0905 21:57:31.192015 58545 layer_factory.hpp:76] Creating layer inception_3b/double3x3_mid
I0905 21:57:31.192042 58545 net.cpp:110] Creating Layer inception_3b/double3x3_mid
I0905 21:57:31.192054 58545 net.cpp:477] inception_3b/double3x3_mid <- inception_3b/double3x3_reduce
I0905 21:57:31.192066 58545 net.cpp:433] inception_3b/double3x3_mid -> inception_3b/double3x3_mid
I0905 21:57:31.196281 58545 net.cpp:155] Setting up inception_3b/double3x3_mid
I0905 21:57:31.196305 58545 net.cpp:163] Top shape: 32 96 28 28 (2408448)
I0905 21:57:31.196318 58545 layer_factory.hpp:76] Creating layer inception_3b/relu_double3x3_mid
I0905 21:57:31.196329 58545 net.cpp:110] Creating Layer inception_3b/relu_double3x3_mid
I0905 21:57:31.196365 58545 net.cpp:477] inception_3b/relu_double3x3_mid <- inception_3b/double3x3_mid
I0905 21:57:31.196382 58545 net.cpp:419] inception_3b/relu_double3x3_mid -> inception_3b/double3x3_mid (in-place)
I0905 21:57:31.196396 58545 net.cpp:155] Setting up inception_3b/relu_double3x3_mid
I0905 21:57:31.196406 58545 net.cpp:163] Top shape: 32 96 28 28 (2408448)
I0905 21:57:31.196413 58545 layer_factory.hpp:76] Creating layer inception_3b/double3x3
I0905 21:57:31.196442 58545 net.cpp:110] Creating Layer inception_3b/double3x3
I0905 21:57:31.196455 58545 net.cpp:477] inception_3b/double3x3 <- inception_3b/double3x3_mid
I0905 21:57:31.196470 58545 net.cpp:433] inception_3b/double3x3 -> inception_3b/double3x3
I0905 21:57:31.203948 58545 net.cpp:155] Setting up inception_3b/double3x3
I0905 21:57:31.203984 58545 net.cpp:163] Top shape: 32 96 28 28 (2408448)
I0905 21:57:31.204000 58545 layer_factory.hpp:76] Creating layer inception_3b/relu_double3x3
I0905 21:57:31.204035 58545 net.cpp:110] Creating Layer inception_3b/relu_double3x3
I0905 21:57:31.204080 58545 net.cpp:477] inception_3b/relu_double3x3 <- inception_3b/double3x3
I0905 21:57:31.204102 58545 net.cpp:419] inception_3b/relu_double3x3 -> inception_3b/double3x3 (in-place)
I0905 21:57:31.204130 58545 net.cpp:155] Setting up inception_3b/relu_double3x3
I0905 21:57:31.204150 58545 net.cpp:163] Top shape: 32 96 28 28 (2408448)
I0905 21:57:31.204159 58545 layer_factory.hpp:76] Creating layer inception_3b/pool
I0905 21:57:31.204170 58545 net.cpp:110] Creating Layer inception_3b/pool
I0905 21:57:31.204177 58545 net.cpp:477] inception_3b/pool <- inception_3a/output_inception_3a/output_0_split_3
I0905 21:57:31.204197 58545 net.cpp:433] inception_3b/pool -> inception_3b/pool
I0905 21:57:31.204224 58545 net.cpp:155] Setting up inception_3b/pool
I0905 21:57:31.204242 58545 net.cpp:163] Top shape: 32 256 28 28 (6422528)
I0905 21:57:31.204249 58545 layer_factory.hpp:76] Creating layer inception_3b/pool_proj
I0905 21:57:31.204264 58545 net.cpp:110] Creating Layer inception_3b/pool_proj
I0905 21:57:31.204272 58545 net.cpp:477] inception_3b/pool_proj <- inception_3b/pool
I0905 21:57:31.204284 58545 net.cpp:433] inception_3b/pool_proj -> inception_3b/pool_proj
I0905 21:57:31.205621 58545 net.cpp:155] Setting up inception_3b/pool_proj
I0905 21:57:31.205642 58545 net.cpp:163] Top shape: 32 64 28 28 (1605632)
I0905 21:57:31.205678 58545 layer_factory.hpp:76] Creating layer inception_3b/relu_pool_proj
I0905 21:57:31.205693 58545 net.cpp:110] Creating Layer inception_3b/relu_pool_proj
I0905 21:57:31.205703 58545 net.cpp:477] inception_3b/relu_pool_proj <- inception_3b/pool_proj
I0905 21:57:31.205729 58545 net.cpp:419] inception_3b/relu_pool_proj -> inception_3b/pool_proj (in-place)
I0905 21:57:31.205747 58545 net.cpp:155] Setting up inception_3b/relu_pool_proj
I0905 21:57:31.205757 58545 net.cpp:163] Top shape: 32 64 28 28 (1605632)
I0905 21:57:31.205780 58545 layer_factory.hpp:76] Creating layer inception_3b/output
I0905 21:57:31.205797 58545 net.cpp:110] Creating Layer inception_3b/output
I0905 21:57:31.205806 58545 net.cpp:477] inception_3b/output <- inception_3b/1x1
I0905 21:57:31.205816 58545 net.cpp:477] inception_3b/output <- inception_3b/3x3
I0905 21:57:31.205826 58545 net.cpp:477] inception_3b/output <- inception_3b/double3x3
I0905 21:57:31.205833 58545 net.cpp:477] inception_3b/output <- inception_3b/pool_proj
I0905 21:57:31.205845 58545 net.cpp:433] inception_3b/output -> inception_3b/output
I0905 21:57:31.205869 58545 net.cpp:155] Setting up inception_3b/output
I0905 21:57:31.205883 58545 net.cpp:163] Top shape: 32 320 28 28 (8028160)
I0905 21:57:31.205890 58545 layer_factory.hpp:76] Creating layer inception_3b/output_inception_3b/output_0_split
I0905 21:57:31.205904 58545 net.cpp:110] Creating Layer inception_3b/output_inception_3b/output_0_split
I0905 21:57:31.205911 58545 net.cpp:477] inception_3b/output_inception_3b/output_0_split <- inception_3b/output
I0905 21:57:31.205922 58545 net.cpp:433] inception_3b/output_inception_3b/output_0_split -> inception_3b/output_inception_3b/output_0_split_0
I0905 21:57:31.205972 58545 net.cpp:433] inception_3b/output_inception_3b/output_0_split -> inception_3b/output_inception_3b/output_0_split_1
I0905 21:57:31.205988 58545 net.cpp:433] inception_3b/output_inception_3b/output_0_split -> inception_3b/output_inception_3b/output_0_split_2
I0905 21:57:31.206003 58545 net.cpp:155] Setting up inception_3b/output_inception_3b/output_0_split
I0905 21:57:31.206012 58545 net.cpp:163] Top shape: 32 320 28 28 (8028160)
I0905 21:57:31.206020 58545 net.cpp:163] Top shape: 32 320 28 28 (8028160)
I0905 21:57:31.206030 58545 net.cpp:163] Top shape: 32 320 28 28 (8028160)
I0905 21:57:31.206037 58545 layer_factory.hpp:76] Creating layer inception_3c/3x3_reduce
I0905 21:57:31.206049 58545 net.cpp:110] Creating Layer inception_3c/3x3_reduce
I0905 21:57:31.206056 58545 net.cpp:477] inception_3c/3x3_reduce <- inception_3b/output_inception_3b/output_0_split_0
I0905 21:57:31.206074 58545 net.cpp:433] inception_3c/3x3_reduce -> inception_3c/3x3_reduce
I0905 21:57:31.209266 58545 net.cpp:155] Setting up inception_3c/3x3_reduce
I0905 21:57:31.209291 58545 net.cpp:163] Top shape: 32 128 28 28 (3211264)
I0905 21:57:31.209306 58545 layer_factory.hpp:76] Creating layer inception_3c/relu_3x3_reduce
I0905 21:57:31.209317 58545 net.cpp:110] Creating Layer inception_3c/relu_3x3_reduce
I0905 21:57:31.209326 58545 net.cpp:477] inception_3c/relu_3x3_reduce <- inception_3c/3x3_reduce
I0905 21:57:31.209336 58545 net.cpp:419] inception_3c/relu_3x3_reduce -> inception_3c/3x3_reduce (in-place)
I0905 21:57:31.209350 58545 net.cpp:155] Setting up inception_3c/relu_3x3_reduce
I0905 21:57:31.209360 58545 net.cpp:163] Top shape: 32 128 28 28 (3211264)
I0905 21:57:31.209383 58545 layer_factory.hpp:76] Creating layer inception_3c/3x3_s2
I0905 21:57:31.209415 58545 net.cpp:110] Creating Layer inception_3c/3x3_s2
I0905 21:57:31.209431 58545 net.cpp:477] inception_3c/3x3_s2 <- inception_3c/3x3_reduce
I0905 21:57:31.209444 58545 net.cpp:433] inception_3c/3x3_s2 -> inception_3c/3x3_s2
I0905 21:57:31.224099 58545 net.cpp:155] Setting up inception_3c/3x3_s2
I0905 21:57:31.224135 58545 net.cpp:163] Top shape: 32 160 14 14 (1003520)
I0905 21:57:31.224153 58545 layer_factory.hpp:76] Creating layer inception_3c/relu_3x3
I0905 21:57:31.224181 58545 net.cpp:110] Creating Layer inception_3c/relu_3x3
I0905 21:57:31.224200 58545 net.cpp:477] inception_3c/relu_3x3 <- inception_3c/3x3_s2
I0905 21:57:31.224215 58545 net.cpp:419] inception_3c/relu_3x3 -> inception_3c/3x3_s2 (in-place)
I0905 21:57:31.224233 58545 net.cpp:155] Setting up inception_3c/relu_3x3
I0905 21:57:31.224251 58545 net.cpp:163] Top shape: 32 160 14 14 (1003520)
I0905 21:57:31.224258 58545 layer_factory.hpp:76] Creating layer inception_3c/double3x3_reduce
I0905 21:57:31.224272 58545 net.cpp:110] Creating Layer inception_3c/double3x3_reduce
I0905 21:57:31.224279 58545 net.cpp:477] inception_3c/double3x3_reduce <- inception_3b/output_inception_3b/output_0_split_1
I0905 21:57:31.224292 58545 net.cpp:433] inception_3c/double3x3_reduce -> inception_3c/double3x3_reduce
I0905 21:57:31.227283 58545 net.cpp:155] Setting up inception_3c/double3x3_reduce
I0905 21:57:31.227313 58545 net.cpp:163] Top shape: 32 64 28 28 (1605632)
I0905 21:57:31.227329 58545 layer_factory.hpp:76] Creating layer inception_3c/relu_double3x3_reduce
I0905 21:57:31.227358 58545 net.cpp:110] Creating Layer inception_3c/relu_double3x3_reduce
I0905 21:57:31.227367 58545 net.cpp:477] inception_3c/relu_double3x3_reduce <- inception_3c/double3x3_reduce
I0905 21:57:31.227380 58545 net.cpp:419] inception_3c/relu_double3x3_reduce -> inception_3c/double3x3_reduce (in-place)
I0905 21:57:31.227396 58545 net.cpp:155] Setting up inception_3c/relu_double3x3_reduce
I0905 21:57:31.227406 58545 net.cpp:163] Top shape: 32 64 28 28 (1605632)
I0905 21:57:31.227423 58545 layer_factory.hpp:76] Creating layer inception_3c/double3x3_mid
I0905 21:57:31.227449 58545 net.cpp:110] Creating Layer inception_3c/double3x3_mid
I0905 21:57:31.227463 58545 net.cpp:477] inception_3c/double3x3_mid <- inception_3c/double3x3_reduce
I0905 21:57:31.227506 58545 net.cpp:433] inception_3c/double3x3_mid -> inception_3c/double3x3_mid
I0905 21:57:31.231698 58545 net.cpp:155] Setting up inception_3c/double3x3_mid
I0905 21:57:31.231722 58545 net.cpp:163] Top shape: 32 96 28 28 (2408448)
I0905 21:57:31.231736 58545 layer_factory.hpp:76] Creating layer inception_3c/relu_double3x3_mid
I0905 21:57:31.231747 58545 net.cpp:110] Creating Layer inception_3c/relu_double3x3_mid
I0905 21:57:31.231757 58545 net.cpp:477] inception_3c/relu_double3x3_mid <- inception_3c/double3x3_mid
I0905 21:57:31.231776 58545 net.cpp:419] inception_3c/relu_double3x3_mid -> inception_3c/double3x3_mid (in-place)
I0905 21:57:31.231791 58545 net.cpp:155] Setting up inception_3c/relu_double3x3_mid
I0905 21:57:31.231802 58545 net.cpp:163] Top shape: 32 96 28 28 (2408448)
I0905 21:57:31.231808 58545 layer_factory.hpp:76] Creating layer inception_3c/double3x3
I0905 21:57:31.231844 58545 net.cpp:110] Creating Layer inception_3c/double3x3
I0905 21:57:31.231861 58545 net.cpp:477] inception_3c/double3x3 <- inception_3c/double3x3_mid
I0905 21:57:31.231873 58545 net.cpp:433] inception_3c/double3x3 -> inception_3c/double3x3_s2
I0905 21:57:31.238174 58545 net.cpp:155] Setting up inception_3c/double3x3
I0905 21:57:31.238200 58545 net.cpp:163] Top shape: 32 96 14 14 (602112)
I0905 21:57:31.238216 58545 layer_factory.hpp:76] Creating layer inception_3c/relu_double3x3
I0905 21:57:31.238227 58545 net.cpp:110] Creating Layer inception_3c/relu_double3x3
I0905 21:57:31.238236 58545 net.cpp:477] inception_3c/relu_double3x3 <- inception_3c/double3x3_s2
I0905 21:57:31.238252 58545 net.cpp:419] inception_3c/relu_double3x3 -> inception_3c/double3x3_s2 (in-place)
I0905 21:57:31.238267 58545 net.cpp:155] Setting up inception_3c/relu_double3x3
I0905 21:57:31.238277 58545 net.cpp:163] Top shape: 32 96 14 14 (602112)
I0905 21:57:31.238301 58545 layer_factory.hpp:76] Creating layer inception_3c/pool
I0905 21:57:31.238317 58545 net.cpp:110] Creating Layer inception_3c/pool
I0905 21:57:31.238325 58545 net.cpp:477] inception_3c/pool <- inception_3b/output_inception_3b/output_0_split_2
I0905 21:57:31.238339 58545 net.cpp:433] inception_3c/pool -> inception_3c/pool
I0905 21:57:31.238358 58545 net.cpp:155] Setting up inception_3c/pool
I0905 21:57:31.238374 58545 net.cpp:163] Top shape: 32 320 14 14 (2007040)
I0905 21:57:31.238382 58545 layer_factory.hpp:76] Creating layer inception_3c/relu_pool
I0905 21:57:31.238414 58545 net.cpp:110] Creating Layer inception_3c/relu_pool
I0905 21:57:31.238422 58545 net.cpp:477] inception_3c/relu_pool <- inception_3c/pool
I0905 21:57:31.238432 58545 net.cpp:419] inception_3c/relu_pool -> inception_3c/pool (in-place)
I0905 21:57:31.238445 58545 net.cpp:155] Setting up inception_3c/relu_pool
I0905 21:57:31.238454 58545 net.cpp:163] Top shape: 32 320 14 14 (2007040)
I0905 21:57:31.238461 58545 layer_factory.hpp:76] Creating layer inception_3c/output
I0905 21:57:31.238477 58545 net.cpp:110] Creating Layer inception_3c/output
I0905 21:57:31.238486 58545 net.cpp:477] inception_3c/output <- inception_3c/3x3_s2
I0905 21:57:31.238494 58545 net.cpp:477] inception_3c/output <- inception_3c/double3x3_s2
I0905 21:57:31.238503 58545 net.cpp:477] inception_3c/output <- inception_3c/pool
I0905 21:57:31.238514 58545 net.cpp:433] inception_3c/output -> inception_3c/output
I0905 21:57:31.238531 58545 net.cpp:155] Setting up inception_3c/output
I0905 21:57:31.238540 58545 net.cpp:163] Top shape: 32 576 14 14 (3612672)
I0905 21:57:31.238548 58545 layer_factory.hpp:76] Creating layer inception_3c/output_inception_3c/output_0_split
I0905 21:57:31.238561 58545 net.cpp:110] Creating Layer inception_3c/output_inception_3c/output_0_split
I0905 21:57:31.238572 58545 net.cpp:477] inception_3c/output_inception_3c/output_0_split <- inception_3c/output
I0905 21:57:31.238584 58545 net.cpp:433] inception_3c/output_inception_3c/output_0_split -> inception_3c/output_inception_3c/output_0_split_0
I0905 21:57:31.238597 58545 net.cpp:433] inception_3c/output_inception_3c/output_0_split -> inception_3c/output_inception_3c/output_0_split_1
I0905 21:57:31.238642 58545 net.cpp:433] inception_3c/output_inception_3c/output_0_split -> inception_3c/output_inception_3c/output_0_split_2
I0905 21:57:31.238657 58545 net.cpp:433] inception_3c/output_inception_3c/output_0_split -> inception_3c/output_inception_3c/output_0_split_3
I0905 21:57:31.238672 58545 net.cpp:155] Setting up inception_3c/output_inception_3c/output_0_split
I0905 21:57:31.238692 58545 net.cpp:163] Top shape: 32 576 14 14 (3612672)
I0905 21:57:31.238700 58545 net.cpp:163] Top shape: 32 576 14 14 (3612672)
I0905 21:57:31.238708 58545 net.cpp:163] Top shape: 32 576 14 14 (3612672)
I0905 21:57:31.238716 58545 net.cpp:163] Top shape: 32 576 14 14 (3612672)
I0905 21:57:31.238737 58545 layer_factory.hpp:76] Creating layer inception_4a/1x1
I0905 21:57:31.238770 58545 net.cpp:110] Creating Layer inception_4a/1x1
I0905 21:57:31.238782 58545 net.cpp:477] inception_4a/1x1 <- inception_3c/output_inception_3c/output_0_split_0
I0905 21:57:31.238795 58545 net.cpp:433] inception_4a/1x1 -> inception_4a/1x1
I0905 21:57:31.249305 58545 net.cpp:155] Setting up inception_4a/1x1
I0905 21:57:31.249342 58545 net.cpp:163] Top shape: 32 224 14 14 (1404928)
I0905 21:57:31.249361 58545 layer_factory.hpp:76] Creating layer inception_4a/relu_1x1
I0905 21:57:31.249402 58545 net.cpp:110] Creating Layer inception_4a/relu_1x1
I0905 21:57:31.249416 58545 net.cpp:477] inception_4a/relu_1x1 <- inception_4a/1x1
I0905 21:57:31.249430 58545 net.cpp:419] inception_4a/relu_1x1 -> inception_4a/1x1 (in-place)
I0905 21:57:31.249449 58545 net.cpp:155] Setting up inception_4a/relu_1x1
I0905 21:57:31.249465 58545 net.cpp:163] Top shape: 32 224 14 14 (1404928)
I0905 21:57:31.249472 58545 layer_factory.hpp:76] Creating layer inception_4a/3x3_reduce
I0905 21:57:31.249503 58545 net.cpp:110] Creating Layer inception_4a/3x3_reduce
I0905 21:57:31.249516 58545 net.cpp:477] inception_4a/3x3_reduce <- inception_3c/output_inception_3c/output_0_split_1
I0905 21:57:31.249529 58545 net.cpp:433] inception_4a/3x3_reduce -> inception_4a/3x3_reduce
I0905 21:57:31.252308 58545 net.cpp:155] Setting up inception_4a/3x3_reduce
I0905 21:57:31.252331 58545 net.cpp:163] Top shape: 32 64 14 14 (401408)
I0905 21:57:31.252347 58545 layer_factory.hpp:76] Creating layer inception_4a/relu_3x3_reduce
I0905 21:57:31.252359 58545 net.cpp:110] Creating Layer inception_4a/relu_3x3_reduce
I0905 21:57:31.252367 58545 net.cpp:477] inception_4a/relu_3x3_reduce <- inception_4a/3x3_reduce
I0905 21:57:31.252384 58545 net.cpp:419] inception_4a/relu_3x3_reduce -> inception_4a/3x3_reduce (in-place)
I0905 21:57:31.252400 58545 net.cpp:155] Setting up inception_4a/relu_3x3_reduce
I0905 21:57:31.252409 58545 net.cpp:163] Top shape: 32 64 14 14 (401408)
I0905 21:57:31.252431 58545 layer_factory.hpp:76] Creating layer inception_4a/3x3
I0905 21:57:31.252449 58545 net.cpp:110] Creating Layer inception_4a/3x3
I0905 21:57:31.252456 58545 net.cpp:477] inception_4a/3x3 <- inception_4a/3x3_reduce
I0905 21:57:31.252468 58545 net.cpp:433] inception_4a/3x3 -> inception_4a/3x3
I0905 21:57:31.256579 58545 net.cpp:155] Setting up inception_4a/3x3
I0905 21:57:31.256609 58545 net.cpp:163] Top shape: 32 96 14 14 (602112)
I0905 21:57:31.256625 58545 layer_factory.hpp:76] Creating layer inception_4a/relu_3x3
I0905 21:57:31.256666 58545 net.cpp:110] Creating Layer inception_4a/relu_3x3
I0905 21:57:31.256686 58545 net.cpp:477] inception_4a/relu_3x3 <- inception_4a/3x3
I0905 21:57:31.256700 58545 net.cpp:419] inception_4a/relu_3x3 -> inception_4a/3x3 (in-place)
I0905 21:57:31.256716 58545 net.cpp:155] Setting up inception_4a/relu_3x3
I0905 21:57:31.256737 58545 net.cpp:163] Top shape: 32 96 14 14 (602112)
I0905 21:57:31.256744 58545 layer_factory.hpp:76] Creating layer inception_4a/double3x3_reduce
I0905 21:57:31.256757 58545 net.cpp:110] Creating Layer inception_4a/double3x3_reduce
I0905 21:57:31.256764 58545 net.cpp:477] inception_4a/double3x3_reduce <- inception_3c/output_inception_3c/output_0_split_2
I0905 21:57:31.256778 58545 net.cpp:433] inception_4a/double3x3_reduce -> inception_4a/double3x3_reduce
I0905 21:57:31.260874 58545 net.cpp:155] Setting up inception_4a/double3x3_reduce
I0905 21:57:31.260900 58545 net.cpp:163] Top shape: 32 96 14 14 (602112)
I0905 21:57:31.260916 58545 layer_factory.hpp:76] Creating layer inception_4a/relu_double3x3_reduce
I0905 21:57:31.260951 58545 net.cpp:110] Creating Layer inception_4a/relu_double3x3_reduce
I0905 21:57:31.260959 58545 net.cpp:477] inception_4a/relu_double3x3_reduce <- inception_4a/double3x3_reduce
I0905 21:57:31.260972 58545 net.cpp:419] inception_4a/relu_double3x3_reduce -> inception_4a/double3x3_reduce (in-place)
I0905 21:57:31.260987 58545 net.cpp:155] Setting up inception_4a/relu_double3x3_reduce
I0905 21:57:31.260996 58545 net.cpp:163] Top shape: 32 96 14 14 (602112)
I0905 21:57:31.261003 58545 layer_factory.hpp:76] Creating layer inception_4a/double3x3_mid
I0905 21:57:31.261036 58545 net.cpp:110] Creating Layer inception_4a/double3x3_mid
I0905 21:57:31.261044 58545 net.cpp:477] inception_4a/double3x3_mid <- inception_4a/double3x3_reduce
I0905 21:57:31.261056 58545 net.cpp:433] inception_4a/double3x3_mid -> inception_4a/double3x3_mid
I0905 21:57:31.271306 58545 net.cpp:155] Setting up inception_4a/double3x3_mid
I0905 21:57:31.271347 58545 net.cpp:163] Top shape: 32 128 14 14 (802816)
I0905 21:57:31.271366 58545 layer_factory.hpp:76] Creating layer inception_4a/relu_double3x3_mid
I0905 21:57:31.271391 58545 net.cpp:110] Creating Layer inception_4a/relu_double3x3_mid
I0905 21:57:31.271402 58545 net.cpp:477] inception_4a/relu_double3x3_mid <- inception_4a/double3x3_mid
I0905 21:57:31.271420 58545 net.cpp:419] inception_4a/relu_double3x3_mid -> inception_4a/double3x3_mid (in-place)
I0905 21:57:31.271445 58545 net.cpp:155] Setting up inception_4a/relu_double3x3_mid
I0905 21:57:31.271462 58545 net.cpp:163] Top shape: 32 128 14 14 (802816)
I0905 21:57:31.271469 58545 layer_factory.hpp:76] Creating layer inception_4a/double3x3
I0905 21:57:31.271508 58545 net.cpp:110] Creating Layer inception_4a/double3x3
I0905 21:57:31.271522 58545 net.cpp:477] inception_4a/double3x3 <- inception_4a/double3x3_mid
I0905 21:57:31.271535 58545 net.cpp:433] inception_4a/double3x3 -> inception_4a/double3x3
I0905 21:57:31.283136 58545 net.cpp:155] Setting up inception_4a/double3x3
I0905 21:57:31.283171 58545 net.cpp:163] Top shape: 32 128 14 14 (802816)
I0905 21:57:31.283190 58545 layer_factory.hpp:76] Creating layer inception_4a/relu_double3x3
I0905 21:57:31.283215 58545 net.cpp:110] Creating Layer inception_4a/relu_double3x3
I0905 21:57:31.283226 58545 net.cpp:477] inception_4a/relu_double3x3 <- inception_4a/double3x3
I0905 21:57:31.283241 58545 net.cpp:419] inception_4a/relu_double3x3 -> inception_4a/double3x3 (in-place)
I0905 21:57:31.283268 58545 net.cpp:155] Setting up inception_4a/relu_double3x3
I0905 21:57:31.283288 58545 net.cpp:163] Top shape: 32 128 14 14 (802816)
I0905 21:57:31.283294 58545 layer_factory.hpp:76] Creating layer inception_4a/pool
I0905 21:57:31.283305 58545 net.cpp:110] Creating Layer inception_4a/pool
I0905 21:57:31.283313 58545 net.cpp:477] inception_4a/pool <- inception_3c/output_inception_3c/output_0_split_3
I0905 21:57:31.283344 58545 net.cpp:433] inception_4a/pool -> inception_4a/pool
I0905 21:57:31.283370 58545 net.cpp:155] Setting up inception_4a/pool
I0905 21:57:31.283385 58545 net.cpp:163] Top shape: 32 576 14 14 (3612672)
I0905 21:57:31.283403 58545 layer_factory.hpp:76] Creating layer inception_4a/pool_proj
I0905 21:57:31.283431 58545 net.cpp:110] Creating Layer inception_4a/pool_proj
I0905 21:57:31.283442 58545 net.cpp:477] inception_4a/pool_proj <- inception_4a/pool
I0905 21:57:31.283454 58545 net.cpp:433] inception_4a/pool_proj -> inception_4a/pool_proj
I0905 21:57:31.288813 58545 net.cpp:155] Setting up inception_4a/pool_proj
I0905 21:57:31.288836 58545 net.cpp:163] Top shape: 32 128 14 14 (802816)
I0905 21:57:31.288852 58545 layer_factory.hpp:76] Creating layer inception_4a/relu_pool_proj
I0905 21:57:31.288882 58545 net.cpp:110] Creating Layer inception_4a/relu_pool_proj
I0905 21:57:31.288892 58545 net.cpp:477] inception_4a/relu_pool_proj <- inception_4a/pool_proj
I0905 21:57:31.288940 58545 net.cpp:419] inception_4a/relu_pool_proj -> inception_4a/pool_proj (in-place)
I0905 21:57:31.288962 58545 net.cpp:155] Setting up inception_4a/relu_pool_proj
I0905 21:57:31.288982 58545 net.cpp:163] Top shape: 32 128 14 14 (802816)
I0905 21:57:31.288990 58545 layer_factory.hpp:76] Creating layer inception_4a/output
I0905 21:57:31.289000 58545 net.cpp:110] Creating Layer inception_4a/output
I0905 21:57:31.289007 58545 net.cpp:477] inception_4a/output <- inception_4a/1x1
I0905 21:57:31.289017 58545 net.cpp:477] inception_4a/output <- inception_4a/3x3
I0905 21:57:31.289026 58545 net.cpp:477] inception_4a/output <- inception_4a/double3x3
I0905 21:57:31.289034 58545 net.cpp:477] inception_4a/output <- inception_4a/pool_proj
I0905 21:57:31.289044 58545 net.cpp:433] inception_4a/output -> inception_4a/output
I0905 21:57:31.289062 58545 net.cpp:155] Setting up inception_4a/output
I0905 21:57:31.289070 58545 net.cpp:163] Top shape: 32 576 14 14 (3612672)
I0905 21:57:31.289077 58545 layer_factory.hpp:76] Creating layer inception_4a/output_inception_4a/output_0_split
I0905 21:57:31.289088 58545 net.cpp:110] Creating Layer inception_4a/output_inception_4a/output_0_split
I0905 21:57:31.289095 58545 net.cpp:477] inception_4a/output_inception_4a/output_0_split <- inception_4a/output
I0905 21:57:31.289108 58545 net.cpp:433] inception_4a/output_inception_4a/output_0_split -> inception_4a/output_inception_4a/output_0_split_0
I0905 21:57:31.289121 58545 net.cpp:433] inception_4a/output_inception_4a/output_0_split -> inception_4a/output_inception_4a/output_0_split_1
I0905 21:57:31.289134 58545 net.cpp:433] inception_4a/output_inception_4a/output_0_split -> inception_4a/output_inception_4a/output_0_split_2
I0905 21:57:31.289167 58545 net.cpp:433] inception_4a/output_inception_4a/output_0_split -> inception_4a/output_inception_4a/output_0_split_3
I0905 21:57:31.289186 58545 net.cpp:433] inception_4a/output_inception_4a/output_0_split -> inception_4a/output_inception_4a/output_0_split_4
I0905 21:57:31.289202 58545 net.cpp:155] Setting up inception_4a/output_inception_4a/output_0_split
I0905 21:57:31.289218 58545 net.cpp:163] Top shape: 32 576 14 14 (3612672)
I0905 21:57:31.289227 58545 net.cpp:163] Top shape: 32 576 14 14 (3612672)
I0905 21:57:31.289237 58545 net.cpp:163] Top shape: 32 576 14 14 (3612672)
I0905 21:57:31.289244 58545 net.cpp:163] Top shape: 32 576 14 14 (3612672)
I0905 21:57:31.289252 58545 net.cpp:163] Top shape: 32 576 14 14 (3612672)
I0905 21:57:31.289273 58545 layer_factory.hpp:76] Creating layer loss1/ave_pool
I0905 21:57:31.289288 58545 net.cpp:110] Creating Layer loss1/ave_pool
I0905 21:57:31.289295 58545 net.cpp:477] loss1/ave_pool <- inception_4a/output_inception_4a/output_0_split_0
I0905 21:57:31.289310 58545 net.cpp:433] loss1/ave_pool -> loss1/ave_pool
I0905 21:57:31.289327 58545 net.cpp:155] Setting up loss1/ave_pool
I0905 21:57:31.289340 58545 net.cpp:163] Top shape: 32 576 4 4 (294912)
I0905 21:57:31.289347 58545 layer_factory.hpp:76] Creating layer loss1/conv
I0905 21:57:31.289371 58545 net.cpp:110] Creating Layer loss1/conv
I0905 21:57:31.289383 58545 net.cpp:477] loss1/conv <- loss1/ave_pool
I0905 21:57:31.289396 58545 net.cpp:433] loss1/conv -> loss1/conv
I0905 21:57:31.294821 58545 net.cpp:155] Setting up loss1/conv
I0905 21:57:31.294845 58545 net.cpp:163] Top shape: 32 128 4 4 (65536)
I0905 21:57:31.294862 58545 layer_factory.hpp:76] Creating layer loss1/relu_conv
I0905 21:57:31.294873 58545 net.cpp:110] Creating Layer loss1/relu_conv
I0905 21:57:31.294883 58545 net.cpp:477] loss1/relu_conv <- loss1/conv
I0905 21:57:31.294898 58545 net.cpp:419] loss1/relu_conv -> loss1/conv (in-place)
I0905 21:57:31.294914 58545 net.cpp:155] Setting up loss1/relu_conv
I0905 21:57:31.294934 58545 net.cpp:163] Top shape: 32 128 4 4 (65536)
I0905 21:57:31.294941 58545 layer_factory.hpp:76] Creating layer loss1/fc
I0905 21:57:31.294963 58545 net.cpp:110] Creating Layer loss1/fc
I0905 21:57:31.294981 58545 net.cpp:477] loss1/fc <- loss1/conv
I0905 21:57:31.294992 58545 net.cpp:433] loss1/fc -> loss1/fc
I0905 21:57:31.450122 58545 net.cpp:155] Setting up loss1/fc
I0905 21:57:31.450181 58545 net.cpp:163] Top shape: 32 1024 (32768)
I0905 21:57:31.450208 58545 layer_factory.hpp:76] Creating layer loss1/relu_fc
I0905 21:57:31.450229 58545 net.cpp:110] Creating Layer loss1/relu_fc
I0905 21:57:31.450242 58545 net.cpp:477] loss1/relu_fc <- loss1/fc
I0905 21:57:31.450256 58545 net.cpp:419] loss1/relu_fc -> loss1/fc (in-place)
I0905 21:57:31.450278 58545 net.cpp:155] Setting up loss1/relu_fc
I0905 21:57:31.450294 58545 net.cpp:163] Top shape: 32 1024 (32768)
I0905 21:57:31.450301 58545 layer_factory.hpp:76] Creating layer loss1/drop_fc
I0905 21:57:31.450336 58545 net.cpp:110] Creating Layer loss1/drop_fc
I0905 21:57:31.450350 58545 net.cpp:477] loss1/drop_fc <- loss1/fc
I0905 21:57:31.450361 58545 net.cpp:419] loss1/drop_fc -> loss1/fc (in-place)
I0905 21:57:31.450397 58545 net.cpp:155] Setting up loss1/drop_fc
I0905 21:57:31.450412 58545 net.cpp:163] Top shape: 32 1024 (32768)
I0905 21:57:31.450420 58545 layer_factory.hpp:76] Creating layer loss1/classifier
I0905 21:57:31.450449 58545 net.cpp:110] Creating Layer loss1/classifier
I0905 21:57:31.450461 58545 net.cpp:477] loss1/classifier <- loss1/fc
I0905 21:57:31.450477 58545 net.cpp:433] loss1/classifier -> loss1/classifier
I0905 21:57:31.527045 58545 net.cpp:155] Setting up loss1/classifier
I0905 21:57:31.527079 58545 net.cpp:163] Top shape: 32 1000 (32000)
I0905 21:57:31.527107 58545 layer_factory.hpp:76] Creating layer loss1/loss
I0905 21:57:31.527134 58545 net.cpp:110] Creating Layer loss1/loss
I0905 21:57:31.527148 58545 net.cpp:477] loss1/loss <- loss1/classifier
I0905 21:57:31.527171 58545 net.cpp:477] loss1/loss <- label_data_1_split_0
I0905 21:57:31.527189 58545 net.cpp:433] loss1/loss -> loss1/loss1
I0905 21:57:31.527223 58545 layer_factory.hpp:76] Creating layer loss1/loss
I0905 21:57:31.527431 58545 net.cpp:155] Setting up loss1/loss
I0905 21:57:31.527451 58545 net.cpp:163] Top shape: (1)
I0905 21:57:31.527461 58545 net.cpp:168]     with loss weight 0.3
I0905 21:57:31.527532 58545 layer_factory.hpp:76] Creating layer inception_4b/1x1
I0905 21:57:31.527559 58545 net.cpp:110] Creating Layer inception_4b/1x1
I0905 21:57:31.527571 58545 net.cpp:477] inception_4b/1x1 <- inception_4a/output_inception_4a/output_0_split_1
I0905 21:57:31.527590 58545 net.cpp:433] inception_4b/1x1 -> inception_4b/1x1
I0905 21:57:31.536550 58545 net.cpp:155] Setting up inception_4b/1x1
I0905 21:57:31.536579 58545 net.cpp:163] Top shape: 32 192 14 14 (1204224)
I0905 21:57:31.536641 58545 layer_factory.hpp:76] Creating layer inception_4b/relu_1x1
I0905 21:57:31.536662 58545 net.cpp:110] Creating Layer inception_4b/relu_1x1
I0905 21:57:31.536674 58545 net.cpp:477] inception_4b/relu_1x1 <- inception_4b/1x1
I0905 21:57:31.536686 58545 net.cpp:419] inception_4b/relu_1x1 -> inception_4b/1x1 (in-place)
I0905 21:57:31.536705 58545 net.cpp:155] Setting up inception_4b/relu_1x1
I0905 21:57:31.536720 58545 net.cpp:163] Top shape: 32 192 14 14 (1204224)
I0905 21:57:31.536733 58545 layer_factory.hpp:76] Creating layer inception_4b/3x3_reduce
I0905 21:57:31.536747 58545 net.cpp:110] Creating Layer inception_4b/3x3_reduce
I0905 21:57:31.536758 58545 net.cpp:477] inception_4b/3x3_reduce <- inception_4a/output_inception_4a/output_0_split_2
I0905 21:57:31.536772 58545 net.cpp:433] inception_4b/3x3_reduce -> inception_4b/3x3_reduce
I0905 21:57:31.541750 58545 net.cpp:155] Setting up inception_4b/3x3_reduce
I0905 21:57:31.541780 58545 net.cpp:163] Top shape: 32 96 14 14 (602112)
I0905 21:57:31.541813 58545 layer_factory.hpp:76] Creating layer inception_4b/relu_3x3_reduce
I0905 21:57:31.541833 58545 net.cpp:110] Creating Layer inception_4b/relu_3x3_reduce
I0905 21:57:31.541846 58545 net.cpp:477] inception_4b/relu_3x3_reduce <- inception_4b/3x3_reduce
I0905 21:57:31.541863 58545 net.cpp:419] inception_4b/relu_3x3_reduce -> inception_4b/3x3_reduce (in-place)
I0905 21:57:31.541882 58545 net.cpp:155] Setting up inception_4b/relu_3x3_reduce
I0905 21:57:31.541894 58545 net.cpp:163] Top shape: 32 96 14 14 (602112)
I0905 21:57:31.541935 58545 layer_factory.hpp:76] Creating layer inception_4b/3x3
I0905 21:57:31.541960 58545 net.cpp:110] Creating Layer inception_4b/3x3
I0905 21:57:31.541971 58545 net.cpp:477] inception_4b/3x3 <- inception_4b/3x3_reduce
I0905 21:57:31.541988 58545 net.cpp:433] inception_4b/3x3 -> inception_4b/3x3
I0905 21:57:31.549974 58545 net.cpp:155] Setting up inception_4b/3x3
I0905 21:57:31.549998 58545 net.cpp:163] Top shape: 32 128 14 14 (802816)
I0905 21:57:31.550030 58545 layer_factory.hpp:76] Creating layer inception_4b/relu_3x3
I0905 21:57:31.550045 58545 net.cpp:110] Creating Layer inception_4b/relu_3x3
I0905 21:57:31.550060 58545 net.cpp:477] inception_4b/relu_3x3 <- inception_4b/3x3
I0905 21:57:31.550078 58545 net.cpp:419] inception_4b/relu_3x3 -> inception_4b/3x3 (in-place)
I0905 21:57:31.550096 58545 net.cpp:155] Setting up inception_4b/relu_3x3
I0905 21:57:31.550108 58545 net.cpp:163] Top shape: 32 128 14 14 (802816)
I0905 21:57:31.550118 58545 layer_factory.hpp:76] Creating layer inception_4b/double3x3_reduce
I0905 21:57:31.550139 58545 net.cpp:110] Creating Layer inception_4b/double3x3_reduce
I0905 21:57:31.550150 58545 net.cpp:477] inception_4b/double3x3_reduce <- inception_4a/output_inception_4a/output_0_split_3
I0905 21:57:31.550168 58545 net.cpp:433] inception_4b/double3x3_reduce -> inception_4b/double3x3_reduce
I0905 21:57:31.554241 58545 net.cpp:155] Setting up inception_4b/double3x3_reduce
I0905 21:57:31.554263 58545 net.cpp:163] Top shape: 32 96 14 14 (602112)
I0905 21:57:31.554286 58545 layer_factory.hpp:76] Creating layer inception_4b/relu_double3x3_reduce
I0905 21:57:31.554302 58545 net.cpp:110] Creating Layer inception_4b/relu_double3x3_reduce
I0905 21:57:31.554314 58545 net.cpp:477] inception_4b/relu_double3x3_reduce <- inception_4b/double3x3_reduce
I0905 21:57:31.554329 58545 net.cpp:419] inception_4b/relu_double3x3_reduce -> inception_4b/double3x3_reduce (in-place)
I0905 21:57:31.554347 58545 net.cpp:155] Setting up inception_4b/relu_double3x3_reduce
I0905 21:57:31.554360 58545 net.cpp:163] Top shape: 32 96 14 14 (602112)
I0905 21:57:31.554371 58545 layer_factory.hpp:76] Creating layer inception_4b/double3x3_mid
I0905 21:57:31.554388 58545 net.cpp:110] Creating Layer inception_4b/double3x3_mid
I0905 21:57:31.554397 58545 net.cpp:477] inception_4b/double3x3_mid <- inception_4b/double3x3_reduce
I0905 21:57:31.554412 58545 net.cpp:433] inception_4b/double3x3_mid -> inception_4b/double3x3_mid
I0905 21:57:31.563295 58545 net.cpp:155] Setting up inception_4b/double3x3_mid
I0905 21:57:31.563323 58545 net.cpp:163] Top shape: 32 128 14 14 (802816)
I0905 21:57:31.563344 58545 layer_factory.hpp:76] Creating layer inception_4b/relu_double3x3_mid
I0905 21:57:31.563360 58545 net.cpp:110] Creating Layer inception_4b/relu_double3x3_mid
I0905 21:57:31.563372 58545 net.cpp:477] inception_4b/relu_double3x3_mid <- inception_4b/double3x3_mid
I0905 21:57:31.563385 58545 net.cpp:419] inception_4b/relu_double3x3_mid -> inception_4b/double3x3_mid (in-place)
I0905 21:57:31.563402 58545 net.cpp:155] Setting up inception_4b/relu_double3x3_mid
I0905 21:57:31.563416 58545 net.cpp:163] Top shape: 32 128 14 14 (802816)
I0905 21:57:31.563428 58545 layer_factory.hpp:76] Creating layer inception_4b/double3x3
I0905 21:57:31.563447 58545 net.cpp:110] Creating Layer inception_4b/double3x3
I0905 21:57:31.563454 58545 net.cpp:477] inception_4b/double3x3 <- inception_4b/double3x3_mid
I0905 21:57:31.563470 58545 net.cpp:433] inception_4b/double3x3 -> inception_4b/double3x3
I0905 21:57:31.574025 58545 net.cpp:155] Setting up inception_4b/double3x3
I0905 21:57:31.574048 58545 net.cpp:163] Top shape: 32 128 14 14 (802816)
I0905 21:57:31.574070 58545 layer_factory.hpp:76] Creating layer inception_4b/relu_double3x3
I0905 21:57:31.574085 58545 net.cpp:110] Creating Layer inception_4b/relu_double3x3
I0905 21:57:31.574098 58545 net.cpp:477] inception_4b/relu_double3x3 <- inception_4b/double3x3
I0905 21:57:31.574110 58545 net.cpp:419] inception_4b/relu_double3x3 -> inception_4b/double3x3 (in-place)
I0905 21:57:31.574149 58545 net.cpp:155] Setting up inception_4b/relu_double3x3
I0905 21:57:31.574163 58545 net.cpp:163] Top shape: 32 128 14 14 (802816)
I0905 21:57:31.574179 58545 layer_factory.hpp:76] Creating layer inception_4b/pool
I0905 21:57:31.574194 58545 net.cpp:110] Creating Layer inception_4b/pool
I0905 21:57:31.574205 58545 net.cpp:477] inception_4b/pool <- inception_4a/output_inception_4a/output_0_split_4
I0905 21:57:31.574218 58545 net.cpp:433] inception_4b/pool -> inception_4b/pool
I0905 21:57:31.574239 58545 net.cpp:155] Setting up inception_4b/pool
I0905 21:57:31.574252 58545 net.cpp:163] Top shape: 32 576 14 14 (3612672)
I0905 21:57:31.574261 58545 layer_factory.hpp:76] Creating layer inception_4b/pool_proj
I0905 21:57:31.574286 58545 net.cpp:110] Creating Layer inception_4b/pool_proj
I0905 21:57:31.574298 58545 net.cpp:477] inception_4b/pool_proj <- inception_4b/pool
I0905 21:57:31.574311 58545 net.cpp:433] inception_4b/pool_proj -> inception_4b/pool_proj
I0905 21:57:31.579661 58545 net.cpp:155] Setting up inception_4b/pool_proj
I0905 21:57:31.579700 58545 net.cpp:163] Top shape: 32 128 14 14 (802816)
I0905 21:57:31.579742 58545 layer_factory.hpp:76] Creating layer inception_4b/relu_pool_proj
I0905 21:57:31.579759 58545 net.cpp:110] Creating Layer inception_4b/relu_pool_proj
I0905 21:57:31.579772 58545 net.cpp:477] inception_4b/relu_pool_proj <- inception_4b/pool_proj
I0905 21:57:31.579783 58545 net.cpp:419] inception_4b/relu_pool_proj -> inception_4b/pool_proj (in-place)
I0905 21:57:31.579800 58545 net.cpp:155] Setting up inception_4b/relu_pool_proj
I0905 21:57:31.579813 58545 net.cpp:163] Top shape: 32 128 14 14 (802816)
I0905 21:57:31.579823 58545 layer_factory.hpp:76] Creating layer inception_4b/output
I0905 21:57:31.579839 58545 net.cpp:110] Creating Layer inception_4b/output
I0905 21:57:31.579851 58545 net.cpp:477] inception_4b/output <- inception_4b/1x1
I0905 21:57:31.579864 58545 net.cpp:477] inception_4b/output <- inception_4b/3x3
I0905 21:57:31.579875 58545 net.cpp:477] inception_4b/output <- inception_4b/double3x3
I0905 21:57:31.579887 58545 net.cpp:477] inception_4b/output <- inception_4b/pool_proj
I0905 21:57:31.579900 58545 net.cpp:433] inception_4b/output -> inception_4b/output
I0905 21:57:31.579921 58545 net.cpp:155] Setting up inception_4b/output
I0905 21:57:31.579933 58545 net.cpp:163] Top shape: 32 576 14 14 (3612672)
I0905 21:57:31.579946 58545 layer_factory.hpp:76] Creating layer inception_4b/output_inception_4b/output_0_split
I0905 21:57:31.579960 58545 net.cpp:110] Creating Layer inception_4b/output_inception_4b/output_0_split
I0905 21:57:31.579970 58545 net.cpp:477] inception_4b/output_inception_4b/output_0_split <- inception_4b/output
I0905 21:57:31.579985 58545 net.cpp:433] inception_4b/output_inception_4b/output_0_split -> inception_4b/output_inception_4b/output_0_split_0
I0905 21:57:31.580003 58545 net.cpp:433] inception_4b/output_inception_4b/output_0_split -> inception_4b/output_inception_4b/output_0_split_1
I0905 21:57:31.580019 58545 net.cpp:433] inception_4b/output_inception_4b/output_0_split -> inception_4b/output_inception_4b/output_0_split_2
I0905 21:57:31.580034 58545 net.cpp:433] inception_4b/output_inception_4b/output_0_split -> inception_4b/output_inception_4b/output_0_split_3
I0905 21:57:31.580051 58545 net.cpp:155] Setting up inception_4b/output_inception_4b/output_0_split
I0905 21:57:31.580063 58545 net.cpp:163] Top shape: 32 576 14 14 (3612672)
I0905 21:57:31.580075 58545 net.cpp:163] Top shape: 32 576 14 14 (3612672)
I0905 21:57:31.580085 58545 net.cpp:163] Top shape: 32 576 14 14 (3612672)
I0905 21:57:31.580095 58545 net.cpp:163] Top shape: 32 576 14 14 (3612672)
I0905 21:57:31.580103 58545 layer_factory.hpp:76] Creating layer inception_4c/1x1
I0905 21:57:31.580124 58545 net.cpp:110] Creating Layer inception_4c/1x1
I0905 21:57:31.580137 58545 net.cpp:477] inception_4c/1x1 <- inception_4b/output_inception_4b/output_0_split_0
I0905 21:57:31.580153 58545 net.cpp:433] inception_4c/1x1 -> inception_4c/1x1
I0905 21:57:31.587752 58545 net.cpp:155] Setting up inception_4c/1x1
I0905 21:57:31.587802 58545 net.cpp:163] Top shape: 32 160 14 14 (1003520)
I0905 21:57:31.587826 58545 layer_factory.hpp:76] Creating layer inception_4c/relu_1x1
I0905 21:57:31.587842 58545 net.cpp:110] Creating Layer inception_4c/relu_1x1
I0905 21:57:31.587854 58545 net.cpp:477] inception_4c/relu_1x1 <- inception_4c/1x1
I0905 21:57:31.587872 58545 net.cpp:419] inception_4c/relu_1x1 -> inception_4c/1x1 (in-place)
I0905 21:57:31.587890 58545 net.cpp:155] Setting up inception_4c/relu_1x1
I0905 21:57:31.587903 58545 net.cpp:163] Top shape: 32 160 14 14 (1003520)
I0905 21:57:31.587913 58545 layer_factory.hpp:76] Creating layer inception_4c/3x3_reduce
I0905 21:57:31.587929 58545 net.cpp:110] Creating Layer inception_4c/3x3_reduce
I0905 21:57:31.587940 58545 net.cpp:477] inception_4c/3x3_reduce <- inception_4b/output_inception_4b/output_0_split_1
I0905 21:57:31.587960 58545 net.cpp:433] inception_4c/3x3_reduce -> inception_4c/3x3_reduce
I0905 21:57:31.593309 58545 net.cpp:155] Setting up inception_4c/3x3_reduce
I0905 21:57:31.593332 58545 net.cpp:163] Top shape: 32 128 14 14 (802816)
I0905 21:57:31.593364 58545 layer_factory.hpp:76] Creating layer inception_4c/relu_3x3_reduce
I0905 21:57:31.593380 58545 net.cpp:110] Creating Layer inception_4c/relu_3x3_reduce
I0905 21:57:31.593392 58545 net.cpp:477] inception_4c/relu_3x3_reduce <- inception_4c/3x3_reduce
I0905 21:57:31.593408 58545 net.cpp:419] inception_4c/relu_3x3_reduce -> inception_4c/3x3_reduce (in-place)
I0905 21:57:31.593425 58545 net.cpp:155] Setting up inception_4c/relu_3x3_reduce
I0905 21:57:31.593438 58545 net.cpp:163] Top shape: 32 128 14 14 (802816)
I0905 21:57:31.593447 58545 layer_factory.hpp:76] Creating layer inception_4c/3x3
I0905 21:57:31.593462 58545 net.cpp:110] Creating Layer inception_4c/3x3
I0905 21:57:31.593472 58545 net.cpp:477] inception_4c/3x3 <- inception_4c/3x3_reduce
I0905 21:57:31.593487 58545 net.cpp:433] inception_4c/3x3 -> inception_4c/3x3
I0905 21:57:31.608191 58545 net.cpp:155] Setting up inception_4c/3x3
I0905 21:57:31.608218 58545 net.cpp:163] Top shape: 32 160 14 14 (1003520)
I0905 21:57:31.608234 58545 layer_factory.hpp:76] Creating layer inception_4c/relu_3x3
I0905 21:57:31.608250 58545 net.cpp:110] Creating Layer inception_4c/relu_3x3
I0905 21:57:31.608260 58545 net.cpp:477] inception_4c/relu_3x3 <- inception_4c/3x3
I0905 21:57:31.608271 58545 net.cpp:419] inception_4c/relu_3x3 -> inception_4c/3x3 (in-place)
I0905 21:57:31.608286 58545 net.cpp:155] Setting up inception_4c/relu_3x3
I0905 21:57:31.608307 58545 net.cpp:163] Top shape: 32 160 14 14 (1003520)
I0905 21:57:31.608315 58545 layer_factory.hpp:76] Creating layer inception_4c/double3x3_reduce
I0905 21:57:31.608333 58545 net.cpp:110] Creating Layer inception_4c/double3x3_reduce
I0905 21:57:31.608341 58545 net.cpp:477] inception_4c/double3x3_reduce <- inception_4b/output_inception_4b/output_0_split_2
I0905 21:57:31.608355 58545 net.cpp:433] inception_4c/double3x3_reduce -> inception_4c/double3x3_reduce
I0905 21:57:31.613698 58545 net.cpp:155] Setting up inception_4c/double3x3_reduce
I0905 21:57:31.613718 58545 net.cpp:163] Top shape: 32 128 14 14 (802816)
I0905 21:57:31.613734 58545 layer_factory.hpp:76] Creating layer inception_4c/relu_double3x3_reduce
I0905 21:57:31.613749 58545 net.cpp:110] Creating Layer inception_4c/relu_double3x3_reduce
I0905 21:57:31.613756 58545 net.cpp:477] inception_4c/relu_double3x3_reduce <- inception_4c/double3x3_reduce
I0905 21:57:31.613767 58545 net.cpp:419] inception_4c/relu_double3x3_reduce -> inception_4c/double3x3_reduce (in-place)
I0905 21:57:31.613781 58545 net.cpp:155] Setting up inception_4c/relu_double3x3_reduce
I0905 21:57:31.613791 58545 net.cpp:163] Top shape: 32 128 14 14 (802816)
I0905 21:57:31.613798 58545 layer_factory.hpp:76] Creating layer inception_4c/double3x3_mid
I0905 21:57:31.613811 58545 net.cpp:110] Creating Layer inception_4c/double3x3_mid
I0905 21:57:31.613818 58545 net.cpp:477] inception_4c/double3x3_mid <- inception_4c/double3x3_reduce
I0905 21:57:31.613831 58545 net.cpp:433] inception_4c/double3x3_mid -> inception_4c/double3x3_mid
I0905 21:57:31.627915 58545 net.cpp:155] Setting up inception_4c/double3x3_mid
I0905 21:57:31.627943 58545 net.cpp:163] Top shape: 32 160 14 14 (1003520)
I0905 21:57:31.627959 58545 layer_factory.hpp:76] Creating layer inception_4c/relu_double3x3_mid
I0905 21:57:31.627974 58545 net.cpp:110] Creating Layer inception_4c/relu_double3x3_mid
I0905 21:57:31.627982 58545 net.cpp:477] inception_4c/relu_double3x3_mid <- inception_4c/double3x3_mid
I0905 21:57:31.627993 58545 net.cpp:419] inception_4c/relu_double3x3_mid -> inception_4c/double3x3_mid (in-place)
I0905 21:57:31.628008 58545 net.cpp:155] Setting up inception_4c/relu_double3x3_mid
I0905 21:57:31.628018 58545 net.cpp:163] Top shape: 32 160 14 14 (1003520)
I0905 21:57:31.628026 58545 layer_factory.hpp:76] Creating layer inception_4c/double3x3
I0905 21:57:31.628043 58545 net.cpp:110] Creating Layer inception_4c/double3x3
I0905 21:57:31.628051 58545 net.cpp:477] inception_4c/double3x3 <- inception_4c/double3x3_mid
I0905 21:57:31.628064 58545 net.cpp:433] inception_4c/double3x3 -> inception_4c/double3x3
I0905 21:57:31.645361 58545 net.cpp:155] Setting up inception_4c/double3x3
I0905 21:57:31.645390 58545 net.cpp:163] Top shape: 32 160 14 14 (1003520)
I0905 21:57:31.645407 58545 layer_factory.hpp:76] Creating layer inception_4c/relu_double3x3
I0905 21:57:31.645421 58545 net.cpp:110] Creating Layer inception_4c/relu_double3x3
I0905 21:57:31.645429 58545 net.cpp:477] inception_4c/relu_double3x3 <- inception_4c/double3x3
I0905 21:57:31.645440 58545 net.cpp:419] inception_4c/relu_double3x3 -> inception_4c/double3x3 (in-place)
I0905 21:57:31.645455 58545 net.cpp:155] Setting up inception_4c/relu_double3x3
I0905 21:57:31.645465 58545 net.cpp:163] Top shape: 32 160 14 14 (1003520)
I0905 21:57:31.645473 58545 layer_factory.hpp:76] Creating layer inception_4c/pool
I0905 21:57:31.645484 58545 net.cpp:110] Creating Layer inception_4c/pool
I0905 21:57:31.645491 58545 net.cpp:477] inception_4c/pool <- inception_4b/output_inception_4b/output_0_split_3
I0905 21:57:31.645503 58545 net.cpp:433] inception_4c/pool -> inception_4c/pool
I0905 21:57:31.645520 58545 net.cpp:155] Setting up inception_4c/pool
I0905 21:57:31.645530 58545 net.cpp:163] Top shape: 32 576 14 14 (3612672)
I0905 21:57:31.645537 58545 layer_factory.hpp:76] Creating layer inception_4c/pool_proj
I0905 21:57:31.645556 58545 net.cpp:110] Creating Layer inception_4c/pool_proj
I0905 21:57:31.645565 58545 net.cpp:477] inception_4c/pool_proj <- inception_4c/pool
I0905 21:57:31.645577 58545 net.cpp:433] inception_4c/pool_proj -> inception_4c/pool_proj
I0905 21:57:31.650887 58545 net.cpp:155] Setting up inception_4c/pool_proj
I0905 21:57:31.650910 58545 net.cpp:163] Top shape: 32 128 14 14 (802816)
I0905 21:57:31.650924 58545 layer_factory.hpp:76] Creating layer inception_4c/relu_pool_proj
I0905 21:57:31.650935 58545 net.cpp:110] Creating Layer inception_4c/relu_pool_proj
I0905 21:57:31.650944 58545 net.cpp:477] inception_4c/relu_pool_proj <- inception_4c/pool_proj
I0905 21:57:31.650954 58545 net.cpp:419] inception_4c/relu_pool_proj -> inception_4c/pool_proj (in-place)
I0905 21:57:31.650969 58545 net.cpp:155] Setting up inception_4c/relu_pool_proj
I0905 21:57:31.650979 58545 net.cpp:163] Top shape: 32 128 14 14 (802816)
I0905 21:57:31.650987 58545 layer_factory.hpp:76] Creating layer inception_4c/output
I0905 21:57:31.651001 58545 net.cpp:110] Creating Layer inception_4c/output
I0905 21:57:31.651010 58545 net.cpp:477] inception_4c/output <- inception_4c/1x1
I0905 21:57:31.651021 58545 net.cpp:477] inception_4c/output <- inception_4c/3x3
I0905 21:57:31.651029 58545 net.cpp:477] inception_4c/output <- inception_4c/double3x3
I0905 21:57:31.651037 58545 net.cpp:477] inception_4c/output <- inception_4c/pool_proj
I0905 21:57:31.651048 58545 net.cpp:433] inception_4c/output -> inception_4c/output
I0905 21:57:31.651064 58545 net.cpp:155] Setting up inception_4c/output
I0905 21:57:31.651074 58545 net.cpp:163] Top shape: 32 608 14 14 (3813376)
I0905 21:57:31.651082 58545 layer_factory.hpp:76] Creating layer inception_4c/output_inception_4c/output_0_split
I0905 21:57:31.651126 58545 net.cpp:110] Creating Layer inception_4c/output_inception_4c/output_0_split
I0905 21:57:31.651139 58545 net.cpp:477] inception_4c/output_inception_4c/output_0_split <- inception_4c/output
I0905 21:57:31.651151 58545 net.cpp:433] inception_4c/output_inception_4c/output_0_split -> inception_4c/output_inception_4c/output_0_split_0
I0905 21:57:31.651167 58545 net.cpp:433] inception_4c/output_inception_4c/output_0_split -> inception_4c/output_inception_4c/output_0_split_1
I0905 21:57:31.651181 58545 net.cpp:433] inception_4c/output_inception_4c/output_0_split -> inception_4c/output_inception_4c/output_0_split_2
I0905 21:57:31.651196 58545 net.cpp:433] inception_4c/output_inception_4c/output_0_split -> inception_4c/output_inception_4c/output_0_split_3
I0905 21:57:31.651211 58545 net.cpp:155] Setting up inception_4c/output_inception_4c/output_0_split
I0905 21:57:31.651231 58545 net.cpp:163] Top shape: 32 608 14 14 (3813376)
I0905 21:57:31.651238 58545 net.cpp:163] Top shape: 32 608 14 14 (3813376)
I0905 21:57:31.651247 58545 net.cpp:163] Top shape: 32 608 14 14 (3813376)
I0905 21:57:31.651254 58545 net.cpp:163] Top shape: 32 608 14 14 (3813376)
I0905 21:57:31.651262 58545 layer_factory.hpp:76] Creating layer inception_4d/1x1
I0905 21:57:31.651280 58545 net.cpp:110] Creating Layer inception_4d/1x1
I0905 21:57:31.651288 58545 net.cpp:477] inception_4d/1x1 <- inception_4c/output_inception_4c/output_0_split_0
I0905 21:57:31.651300 58545 net.cpp:433] inception_4d/1x1 -> inception_4d/1x1
I0905 21:57:31.655580 58545 net.cpp:155] Setting up inception_4d/1x1
I0905 21:57:31.655601 58545 net.cpp:163] Top shape: 32 96 14 14 (602112)
I0905 21:57:31.655614 58545 layer_factory.hpp:76] Creating layer inception_4d/relu_1x1
I0905 21:57:31.655627 58545 net.cpp:110] Creating Layer inception_4d/relu_1x1
I0905 21:57:31.655635 58545 net.cpp:477] inception_4d/relu_1x1 <- inception_4d/1x1
I0905 21:57:31.655649 58545 net.cpp:419] inception_4d/relu_1x1 -> inception_4d/1x1 (in-place)
I0905 21:57:31.655663 58545 net.cpp:155] Setting up inception_4d/relu_1x1
I0905 21:57:31.655681 58545 net.cpp:163] Top shape: 32 96 14 14 (602112)
I0905 21:57:31.655691 58545 layer_factory.hpp:76] Creating layer inception_4d/3x3_reduce
I0905 21:57:31.655704 58545 net.cpp:110] Creating Layer inception_4d/3x3_reduce
I0905 21:57:31.655712 58545 net.cpp:477] inception_4d/3x3_reduce <- inception_4c/output_inception_4c/output_0_split_1
I0905 21:57:31.655727 58545 net.cpp:433] inception_4d/3x3_reduce -> inception_4d/3x3_reduce
I0905 21:57:31.661342 58545 net.cpp:155] Setting up inception_4d/3x3_reduce
I0905 21:57:31.661363 58545 net.cpp:163] Top shape: 32 128 14 14 (802816)
I0905 21:57:31.661377 58545 layer_factory.hpp:76] Creating layer inception_4d/relu_3x3_reduce
I0905 21:57:31.661392 58545 net.cpp:110] Creating Layer inception_4d/relu_3x3_reduce
I0905 21:57:31.661401 58545 net.cpp:477] inception_4d/relu_3x3_reduce <- inception_4d/3x3_reduce
I0905 21:57:31.661414 58545 net.cpp:419] inception_4d/relu_3x3_reduce -> inception_4d/3x3_reduce (in-place)
I0905 21:57:31.661428 58545 net.cpp:155] Setting up inception_4d/relu_3x3_reduce
I0905 21:57:31.661437 58545 net.cpp:163] Top shape: 32 128 14 14 (802816)
I0905 21:57:31.661444 58545 layer_factory.hpp:76] Creating layer inception_4d/3x3
I0905 21:57:31.661456 58545 net.cpp:110] Creating Layer inception_4d/3x3
I0905 21:57:31.661463 58545 net.cpp:477] inception_4d/3x3 <- inception_4d/3x3_reduce
I0905 21:57:31.661474 58545 net.cpp:433] inception_4d/3x3 -> inception_4d/3x3
I0905 21:57:31.678174 58545 net.cpp:155] Setting up inception_4d/3x3
I0905 21:57:31.678203 58545 net.cpp:163] Top shape: 32 192 14 14 (1204224)
I0905 21:57:31.678220 58545 layer_factory.hpp:76] Creating layer inception_4d/relu_3x3
I0905 21:57:31.678232 58545 net.cpp:110] Creating Layer inception_4d/relu_3x3
I0905 21:57:31.678241 58545 net.cpp:477] inception_4d/relu_3x3 <- inception_4d/3x3
I0905 21:57:31.678252 58545 net.cpp:419] inception_4d/relu_3x3 -> inception_4d/3x3 (in-place)
I0905 21:57:31.678267 58545 net.cpp:155] Setting up inception_4d/relu_3x3
I0905 21:57:31.678300 58545 net.cpp:163] Top shape: 32 192 14 14 (1204224)
I0905 21:57:31.678311 58545 layer_factory.hpp:76] Creating layer inception_4d/double3x3_reduce
I0905 21:57:31.678326 58545 net.cpp:110] Creating Layer inception_4d/double3x3_reduce
I0905 21:57:31.678334 58545 net.cpp:477] inception_4d/double3x3_reduce <- inception_4c/output_inception_4c/output_0_split_2
I0905 21:57:31.678351 58545 net.cpp:433] inception_4d/double3x3_reduce -> inception_4d/double3x3_reduce
I0905 21:57:31.686278 58545 net.cpp:155] Setting up inception_4d/double3x3_reduce
I0905 21:57:31.686307 58545 net.cpp:163] Top shape: 32 160 14 14 (1003520)
I0905 21:57:31.686322 58545 layer_factory.hpp:76] Creating layer inception_4d/relu_double3x3_reduce
I0905 21:57:31.686377 58545 net.cpp:110] Creating Layer inception_4d/relu_double3x3_reduce
I0905 21:57:31.686386 58545 net.cpp:477] inception_4d/relu_double3x3_reduce <- inception_4d/double3x3_reduce
I0905 21:57:31.686398 58545 net.cpp:419] inception_4d/relu_double3x3_reduce -> inception_4d/double3x3_reduce (in-place)
I0905 21:57:31.686414 58545 net.cpp:155] Setting up inception_4d/relu_double3x3_reduce
I0905 21:57:31.686442 58545 net.cpp:163] Top shape: 32 160 14 14 (1003520)
I0905 21:57:31.686450 58545 layer_factory.hpp:76] Creating layer inception_4d/double3x3_mid
I0905 21:57:31.686465 58545 net.cpp:110] Creating Layer inception_4d/double3x3_mid
I0905 21:57:31.686473 58545 net.cpp:477] inception_4d/double3x3_mid <- inception_4d/double3x3_reduce
I0905 21:57:31.686486 58545 net.cpp:433] inception_4d/double3x3_mid -> inception_4d/double3x3_mid
I0905 21:57:31.707065 58545 net.cpp:155] Setting up inception_4d/double3x3_mid
I0905 21:57:31.707098 58545 net.cpp:163] Top shape: 32 192 14 14 (1204224)
I0905 21:57:31.707114 58545 layer_factory.hpp:76] Creating layer inception_4d/relu_double3x3_mid
I0905 21:57:31.707129 58545 net.cpp:110] Creating Layer inception_4d/relu_double3x3_mid
I0905 21:57:31.707139 58545 net.cpp:477] inception_4d/relu_double3x3_mid <- inception_4d/double3x3_mid
I0905 21:57:31.707150 58545 net.cpp:419] inception_4d/relu_double3x3_mid -> inception_4d/double3x3_mid (in-place)
I0905 21:57:31.707165 58545 net.cpp:155] Setting up inception_4d/relu_double3x3_mid
I0905 21:57:31.707175 58545 net.cpp:163] Top shape: 32 192 14 14 (1204224)
I0905 21:57:31.707183 58545 layer_factory.hpp:76] Creating layer inception_4d/double3x3
I0905 21:57:31.707197 58545 net.cpp:110] Creating Layer inception_4d/double3x3
I0905 21:57:31.707204 58545 net.cpp:477] inception_4d/double3x3 <- inception_4d/double3x3_mid
I0905 21:57:31.707221 58545 net.cpp:433] inception_4d/double3x3 -> inception_4d/double3x3
I0905 21:57:31.732045 58545 net.cpp:155] Setting up inception_4d/double3x3
I0905 21:57:31.732075 58545 net.cpp:163] Top shape: 32 192 14 14 (1204224)
I0905 21:57:31.732092 58545 layer_factory.hpp:76] Creating layer inception_4d/relu_double3x3
I0905 21:57:31.732110 58545 net.cpp:110] Creating Layer inception_4d/relu_double3x3
I0905 21:57:31.732120 58545 net.cpp:477] inception_4d/relu_double3x3 <- inception_4d/double3x3
I0905 21:57:31.732131 58545 net.cpp:419] inception_4d/relu_double3x3 -> inception_4d/double3x3 (in-place)
I0905 21:57:31.732146 58545 net.cpp:155] Setting up inception_4d/relu_double3x3
I0905 21:57:31.732156 58545 net.cpp:163] Top shape: 32 192 14 14 (1204224)
I0905 21:57:31.732163 58545 layer_factory.hpp:76] Creating layer inception_4d/pool
I0905 21:57:31.732177 58545 net.cpp:110] Creating Layer inception_4d/pool
I0905 21:57:31.732184 58545 net.cpp:477] inception_4d/pool <- inception_4c/output_inception_4c/output_0_split_3
I0905 21:57:31.732195 58545 net.cpp:433] inception_4d/pool -> inception_4d/pool
I0905 21:57:31.732213 58545 net.cpp:155] Setting up inception_4d/pool
I0905 21:57:31.732223 58545 net.cpp:163] Top shape: 32 608 14 14 (3813376)
I0905 21:57:31.732229 58545 layer_factory.hpp:76] Creating layer inception_4d/pool_proj
I0905 21:57:31.732246 58545 net.cpp:110] Creating Layer inception_4d/pool_proj
I0905 21:57:31.732254 58545 net.cpp:477] inception_4d/pool_proj <- inception_4d/pool
I0905 21:57:31.732312 58545 net.cpp:433] inception_4d/pool_proj -> inception_4d/pool_proj
I0905 21:57:31.737936 58545 net.cpp:155] Setting up inception_4d/pool_proj
I0905 21:57:31.737959 58545 net.cpp:163] Top shape: 32 128 14 14 (802816)
I0905 21:57:31.737973 58545 layer_factory.hpp:76] Creating layer inception_4d/relu_pool_proj
I0905 21:57:31.737990 58545 net.cpp:110] Creating Layer inception_4d/relu_pool_proj
I0905 21:57:31.737999 58545 net.cpp:477] inception_4d/relu_pool_proj <- inception_4d/pool_proj
I0905 21:57:31.738010 58545 net.cpp:419] inception_4d/relu_pool_proj -> inception_4d/pool_proj (in-place)
I0905 21:57:31.738024 58545 net.cpp:155] Setting up inception_4d/relu_pool_proj
I0905 21:57:31.738034 58545 net.cpp:163] Top shape: 32 128 14 14 (802816)
I0905 21:57:31.738041 58545 layer_factory.hpp:76] Creating layer inception_4d/output
I0905 21:57:31.738051 58545 net.cpp:110] Creating Layer inception_4d/output
I0905 21:57:31.738059 58545 net.cpp:477] inception_4d/output <- inception_4d/1x1
I0905 21:57:31.738070 58545 net.cpp:477] inception_4d/output <- inception_4d/3x3
I0905 21:57:31.738078 58545 net.cpp:477] inception_4d/output <- inception_4d/double3x3
I0905 21:57:31.738086 58545 net.cpp:477] inception_4d/output <- inception_4d/pool_proj
I0905 21:57:31.738101 58545 net.cpp:433] inception_4d/output -> inception_4d/output
I0905 21:57:31.738118 58545 net.cpp:155] Setting up inception_4d/output
I0905 21:57:31.738128 58545 net.cpp:163] Top shape: 32 608 14 14 (3813376)
I0905 21:57:31.738137 58545 layer_factory.hpp:76] Creating layer inception_4d/output_inception_4d/output_0_split
I0905 21:57:31.738147 58545 net.cpp:110] Creating Layer inception_4d/output_inception_4d/output_0_split
I0905 21:57:31.738154 58545 net.cpp:477] inception_4d/output_inception_4d/output_0_split <- inception_4d/output
I0905 21:57:31.738167 58545 net.cpp:433] inception_4d/output_inception_4d/output_0_split -> inception_4d/output_inception_4d/output_0_split_0
I0905 21:57:31.738183 58545 net.cpp:433] inception_4d/output_inception_4d/output_0_split -> inception_4d/output_inception_4d/output_0_split_1
I0905 21:57:31.738199 58545 net.cpp:433] inception_4d/output_inception_4d/output_0_split -> inception_4d/output_inception_4d/output_0_split_2
I0905 21:57:31.738229 58545 net.cpp:433] inception_4d/output_inception_4d/output_0_split -> inception_4d/output_inception_4d/output_0_split_3
I0905 21:57:31.738243 58545 net.cpp:155] Setting up inception_4d/output_inception_4d/output_0_split
I0905 21:57:31.738252 58545 net.cpp:163] Top shape: 32 608 14 14 (3813376)
I0905 21:57:31.738261 58545 net.cpp:163] Top shape: 32 608 14 14 (3813376)
I0905 21:57:31.738270 58545 net.cpp:163] Top shape: 32 608 14 14 (3813376)
I0905 21:57:31.738277 58545 net.cpp:163] Top shape: 32 608 14 14 (3813376)
I0905 21:57:31.738283 58545 layer_factory.hpp:76] Creating layer loss2/ave_pool
I0905 21:57:31.738296 58545 net.cpp:110] Creating Layer loss2/ave_pool
I0905 21:57:31.738302 58545 net.cpp:477] loss2/ave_pool <- inception_4d/output_inception_4d/output_0_split_0
I0905 21:57:31.738317 58545 net.cpp:433] loss2/ave_pool -> loss2/ave_pool
I0905 21:57:31.738333 58545 net.cpp:155] Setting up loss2/ave_pool
I0905 21:57:31.738343 58545 net.cpp:163] Top shape: 32 608 4 4 (311296)
I0905 21:57:31.738350 58545 layer_factory.hpp:76] Creating layer loss2/conv
I0905 21:57:31.738365 58545 net.cpp:110] Creating Layer loss2/conv
I0905 21:57:31.738373 58545 net.cpp:477] loss2/conv <- loss2/ave_pool
I0905 21:57:31.738384 58545 net.cpp:433] loss2/conv -> loss2/conv
I0905 21:57:31.743998 58545 net.cpp:155] Setting up loss2/conv
I0905 21:57:31.744021 58545 net.cpp:163] Top shape: 32 128 4 4 (65536)
I0905 21:57:31.744036 58545 layer_factory.hpp:76] Creating layer loss2/relu_conv
I0905 21:57:31.744052 58545 net.cpp:110] Creating Layer loss2/relu_conv
I0905 21:57:31.744060 58545 net.cpp:477] loss2/relu_conv <- loss2/conv
I0905 21:57:31.744074 58545 net.cpp:419] loss2/relu_conv -> loss2/conv (in-place)
I0905 21:57:31.744088 58545 net.cpp:155] Setting up loss2/relu_conv
I0905 21:57:31.744118 58545 net.cpp:163] Top shape: 32 128 4 4 (65536)
I0905 21:57:31.744125 58545 layer_factory.hpp:76] Creating layer loss2/fc
I0905 21:57:31.744140 58545 net.cpp:110] Creating Layer loss2/fc
I0905 21:57:31.744148 58545 net.cpp:477] loss2/fc <- loss2/conv
I0905 21:57:31.744160 58545 net.cpp:433] loss2/fc -> loss2/fc
I0905 21:57:31.897915 58545 net.cpp:155] Setting up loss2/fc
I0905 21:57:31.897946 58545 net.cpp:163] Top shape: 32 1024 (32768)
I0905 21:57:31.897964 58545 layer_factory.hpp:76] Creating layer loss2/relu_fc
I0905 21:57:31.897979 58545 net.cpp:110] Creating Layer loss2/relu_fc
I0905 21:57:31.897987 58545 net.cpp:477] loss2/relu_fc <- loss2/fc
I0905 21:57:31.897999 58545 net.cpp:419] loss2/relu_fc -> loss2/fc (in-place)
I0905 21:57:31.898015 58545 net.cpp:155] Setting up loss2/relu_fc
I0905 21:57:31.898025 58545 net.cpp:163] Top shape: 32 1024 (32768)
I0905 21:57:31.898035 58545 layer_factory.hpp:76] Creating layer loss2/drop_fc
I0905 21:57:31.898048 58545 net.cpp:110] Creating Layer loss2/drop_fc
I0905 21:57:31.898056 58545 net.cpp:477] loss2/drop_fc <- loss2/fc
I0905 21:57:31.898069 58545 net.cpp:419] loss2/drop_fc -> loss2/fc (in-place)
I0905 21:57:31.898087 58545 net.cpp:155] Setting up loss2/drop_fc
I0905 21:57:31.898097 58545 net.cpp:163] Top shape: 32 1024 (32768)
I0905 21:57:31.898104 58545 layer_factory.hpp:76] Creating layer loss2/classifier
I0905 21:57:31.898118 58545 net.cpp:110] Creating Layer loss2/classifier
I0905 21:57:31.898125 58545 net.cpp:477] loss2/classifier <- loss2/fc
I0905 21:57:31.898136 58545 net.cpp:433] loss2/classifier -> loss2/classifier
I0905 21:57:31.973737 58545 net.cpp:155] Setting up loss2/classifier
I0905 21:57:31.973767 58545 net.cpp:163] Top shape: 32 1000 (32000)
I0905 21:57:31.973783 58545 layer_factory.hpp:76] Creating layer loss2/loss
I0905 21:57:31.973803 58545 net.cpp:110] Creating Layer loss2/loss
I0905 21:57:31.973811 58545 net.cpp:477] loss2/loss <- loss2/classifier
I0905 21:57:31.973821 58545 net.cpp:477] loss2/loss <- label_data_1_split_1
I0905 21:57:31.973834 58545 net.cpp:433] loss2/loss -> loss2/loss1
I0905 21:57:31.973853 58545 layer_factory.hpp:76] Creating layer loss2/loss
I0905 21:57:31.974033 58545 net.cpp:155] Setting up loss2/loss
I0905 21:57:31.974053 58545 net.cpp:163] Top shape: (1)
I0905 21:57:31.974061 58545 net.cpp:168]     with loss weight 0.3
I0905 21:57:31.974092 58545 layer_factory.hpp:76] Creating layer inception_4e/3x3_reduce
I0905 21:57:31.974114 58545 net.cpp:110] Creating Layer inception_4e/3x3_reduce
I0905 21:57:31.974133 58545 net.cpp:477] inception_4e/3x3_reduce <- inception_4d/output_inception_4d/output_0_split_1
I0905 21:57:31.974146 58545 net.cpp:433] inception_4e/3x3_reduce -> inception_4e/3x3_reduce
I0905 21:57:31.980726 58545 net.cpp:155] Setting up inception_4e/3x3_reduce
I0905 21:57:31.980756 58545 net.cpp:163] Top shape: 32 128 14 14 (802816)
I0905 21:57:31.980774 58545 layer_factory.hpp:76] Creating layer inception_4e/relu_3x3_reduce
I0905 21:57:31.980793 58545 net.cpp:110] Creating Layer inception_4e/relu_3x3_reduce
I0905 21:57:31.980803 58545 net.cpp:477] inception_4e/relu_3x3_reduce <- inception_4e/3x3_reduce
I0905 21:57:31.980814 58545 net.cpp:419] inception_4e/relu_3x3_reduce -> inception_4e/3x3_reduce (in-place)
I0905 21:57:31.980829 58545 net.cpp:155] Setting up inception_4e/relu_3x3_reduce
I0905 21:57:31.980840 58545 net.cpp:163] Top shape: 32 128 14 14 (802816)
I0905 21:57:31.980847 58545 layer_factory.hpp:76] Creating layer inception_4e/3x3_s2
I0905 21:57:31.980860 58545 net.cpp:110] Creating Layer inception_4e/3x3_s2
I0905 21:57:31.980867 58545 net.cpp:477] inception_4e/3x3_s2 <- inception_4e/3x3_reduce
I0905 21:57:31.980880 58545 net.cpp:433] inception_4e/3x3_s2 -> inception_4e/3x3_s2
I0905 21:57:31.997622 58545 net.cpp:155] Setting up inception_4e/3x3_s2
I0905 21:57:31.997652 58545 net.cpp:163] Top shape: 32 192 7 7 (301056)
I0905 21:57:31.997668 58545 layer_factory.hpp:76] Creating layer inception_4e/relu_3x3
I0905 21:57:31.997680 58545 net.cpp:110] Creating Layer inception_4e/relu_3x3
I0905 21:57:31.997689 58545 net.cpp:477] inception_4e/relu_3x3 <- inception_4e/3x3_s2
I0905 21:57:31.997725 58545 net.cpp:419] inception_4e/relu_3x3 -> inception_4e/3x3_s2 (in-place)
I0905 21:57:31.997740 58545 net.cpp:155] Setting up inception_4e/relu_3x3
I0905 21:57:31.997751 58545 net.cpp:163] Top shape: 32 192 7 7 (301056)
I0905 21:57:31.997758 58545 layer_factory.hpp:76] Creating layer inception_4e/double3x3_reduce
I0905 21:57:31.997776 58545 net.cpp:110] Creating Layer inception_4e/double3x3_reduce
I0905 21:57:31.997786 58545 net.cpp:477] inception_4e/double3x3_reduce <- inception_4d/output_inception_4d/output_0_split_2
I0905 21:57:31.997798 58545 net.cpp:433] inception_4e/double3x3_reduce -> inception_4e/double3x3_reduce
I0905 21:57:32.006173 58545 net.cpp:155] Setting up inception_4e/double3x3_reduce
I0905 21:57:32.006198 58545 net.cpp:163] Top shape: 32 192 14 14 (1204224)
I0905 21:57:32.006212 58545 layer_factory.hpp:76] Creating layer inception_4e/relu_double3x3_reduce
I0905 21:57:32.006227 58545 net.cpp:110] Creating Layer inception_4e/relu_double3x3_reduce
I0905 21:57:32.006237 58545 net.cpp:477] inception_4e/relu_double3x3_reduce <- inception_4e/double3x3_reduce
I0905 21:57:32.006250 58545 net.cpp:419] inception_4e/relu_double3x3_reduce -> inception_4e/double3x3_reduce (in-place)
I0905 21:57:32.006264 58545 net.cpp:155] Setting up inception_4e/relu_double3x3_reduce
I0905 21:57:32.006274 58545 net.cpp:163] Top shape: 32 192 14 14 (1204224)
I0905 21:57:32.006283 58545 layer_factory.hpp:76] Creating layer inception_4e/double3x3_mid
I0905 21:57:32.006295 58545 net.cpp:110] Creating Layer inception_4e/double3x3_mid
I0905 21:57:32.006302 58545 net.cpp:477] inception_4e/double3x3_mid <- inception_4e/double3x3_reduce
I0905 21:57:32.006314 58545 net.cpp:433] inception_4e/double3x3_mid -> inception_4e/double3x3_mid
I0905 21:57:32.039109 58545 net.cpp:155] Setting up inception_4e/double3x3_mid
I0905 21:57:32.039139 58545 net.cpp:163] Top shape: 32 256 14 14 (1605632)
I0905 21:57:32.039155 58545 layer_factory.hpp:76] Creating layer inception_4e/relu_double3x3_mid
I0905 21:57:32.039170 58545 net.cpp:110] Creating Layer inception_4e/relu_double3x3_mid
I0905 21:57:32.039178 58545 net.cpp:477] inception_4e/relu_double3x3_mid <- inception_4e/double3x3_mid
I0905 21:57:32.039190 58545 net.cpp:419] inception_4e/relu_double3x3_mid -> inception_4e/double3x3_mid (in-place)
I0905 21:57:32.039203 58545 net.cpp:155] Setting up inception_4e/relu_double3x3_mid
I0905 21:57:32.039214 58545 net.cpp:163] Top shape: 32 256 14 14 (1605632)
I0905 21:57:32.039222 58545 layer_factory.hpp:76] Creating layer inception_4e/double3x3
I0905 21:57:32.039237 58545 net.cpp:110] Creating Layer inception_4e/double3x3
I0905 21:57:32.039244 58545 net.cpp:477] inception_4e/double3x3 <- inception_4e/double3x3_mid
I0905 21:57:32.039261 58545 net.cpp:433] inception_4e/double3x3 -> inception_4e/double3x3_s2
I0905 21:57:32.082906 58545 net.cpp:155] Setting up inception_4e/double3x3
I0905 21:57:32.082936 58545 net.cpp:163] Top shape: 32 256 7 7 (401408)
I0905 21:57:32.082952 58545 layer_factory.hpp:76] Creating layer inception_4e/relu_double3x3
I0905 21:57:32.082968 58545 net.cpp:110] Creating Layer inception_4e/relu_double3x3
I0905 21:57:32.082978 58545 net.cpp:477] inception_4e/relu_double3x3 <- inception_4e/double3x3_s2
I0905 21:57:32.082988 58545 net.cpp:419] inception_4e/relu_double3x3 -> inception_4e/double3x3_s2 (in-place)
I0905 21:57:32.083004 58545 net.cpp:155] Setting up inception_4e/relu_double3x3
I0905 21:57:32.083014 58545 net.cpp:163] Top shape: 32 256 7 7 (401408)
I0905 21:57:32.083021 58545 layer_factory.hpp:76] Creating layer inception_4e/pool
I0905 21:57:32.083037 58545 net.cpp:110] Creating Layer inception_4e/pool
I0905 21:57:32.083046 58545 net.cpp:477] inception_4e/pool <- inception_4d/output_inception_4d/output_0_split_3
I0905 21:57:32.083058 58545 net.cpp:433] inception_4e/pool -> inception_4e/pool
I0905 21:57:32.083078 58545 net.cpp:155] Setting up inception_4e/pool
I0905 21:57:32.083088 58545 net.cpp:163] Top shape: 32 608 7 7 (953344)
I0905 21:57:32.083096 58545 layer_factory.hpp:76] Creating layer inception_4e/relu_pool
I0905 21:57:32.083153 58545 net.cpp:110] Creating Layer inception_4e/relu_pool
I0905 21:57:32.083161 58545 net.cpp:477] inception_4e/relu_pool <- inception_4e/pool
I0905 21:57:32.083173 58545 net.cpp:419] inception_4e/relu_pool -> inception_4e/pool (in-place)
I0905 21:57:32.083185 58545 net.cpp:155] Setting up inception_4e/relu_pool
I0905 21:57:32.083194 58545 net.cpp:163] Top shape: 32 608 7 7 (953344)
I0905 21:57:32.083201 58545 layer_factory.hpp:76] Creating layer inception_4e/output
I0905 21:57:32.083212 58545 net.cpp:110] Creating Layer inception_4e/output
I0905 21:57:32.083220 58545 net.cpp:477] inception_4e/output <- inception_4e/3x3_s2
I0905 21:57:32.083230 58545 net.cpp:477] inception_4e/output <- inception_4e/double3x3_s2
I0905 21:57:32.083238 58545 net.cpp:477] inception_4e/output <- inception_4e/pool
I0905 21:57:32.083253 58545 net.cpp:433] inception_4e/output -> inception_4e/output
I0905 21:57:32.083271 58545 net.cpp:155] Setting up inception_4e/output
I0905 21:57:32.083294 58545 net.cpp:163] Top shape: 32 1056 7 7 (1655808)
I0905 21:57:32.083302 58545 layer_factory.hpp:76] Creating layer inception_4e/output_inception_4e/output_0_split
I0905 21:57:32.083314 58545 net.cpp:110] Creating Layer inception_4e/output_inception_4e/output_0_split
I0905 21:57:32.083322 58545 net.cpp:477] inception_4e/output_inception_4e/output_0_split <- inception_4e/output
I0905 21:57:32.083333 58545 net.cpp:433] inception_4e/output_inception_4e/output_0_split -> inception_4e/output_inception_4e/output_0_split_0
I0905 21:57:32.083348 58545 net.cpp:433] inception_4e/output_inception_4e/output_0_split -> inception_4e/output_inception_4e/output_0_split_1
I0905 21:57:32.083361 58545 net.cpp:433] inception_4e/output_inception_4e/output_0_split -> inception_4e/output_inception_4e/output_0_split_2
I0905 21:57:32.083375 58545 net.cpp:433] inception_4e/output_inception_4e/output_0_split -> inception_4e/output_inception_4e/output_0_split_3
I0905 21:57:32.083389 58545 net.cpp:155] Setting up inception_4e/output_inception_4e/output_0_split
I0905 21:57:32.083410 58545 net.cpp:163] Top shape: 32 1056 7 7 (1655808)
I0905 21:57:32.083417 58545 net.cpp:163] Top shape: 32 1056 7 7 (1655808)
I0905 21:57:32.083425 58545 net.cpp:163] Top shape: 32 1056 7 7 (1655808)
I0905 21:57:32.083433 58545 net.cpp:163] Top shape: 32 1056 7 7 (1655808)
I0905 21:57:32.083439 58545 layer_factory.hpp:76] Creating layer inception_5a/1x1
I0905 21:57:32.083457 58545 net.cpp:110] Creating Layer inception_5a/1x1
I0905 21:57:32.083466 58545 net.cpp:477] inception_5a/1x1 <- inception_4e/output_inception_4e/output_0_split_0
I0905 21:57:32.083477 58545 net.cpp:433] inception_5a/1x1 -> inception_5a/1x1
I0905 21:57:32.106003 58545 net.cpp:155] Setting up inception_5a/1x1
I0905 21:57:32.106024 58545 net.cpp:163] Top shape: 32 352 7 7 (551936)
I0905 21:57:32.106034 58545 layer_factory.hpp:76] Creating layer inception_5a/relu_1x1
I0905 21:57:32.106047 58545 net.cpp:110] Creating Layer inception_5a/relu_1x1
I0905 21:57:32.106055 58545 net.cpp:477] inception_5a/relu_1x1 <- inception_5a/1x1
I0905 21:57:32.106060 58545 net.cpp:419] inception_5a/relu_1x1 -> inception_5a/1x1 (in-place)
I0905 21:57:32.106070 58545 net.cpp:155] Setting up inception_5a/relu_1x1
I0905 21:57:32.106076 58545 net.cpp:163] Top shape: 32 352 7 7 (551936)
I0905 21:57:32.106081 58545 layer_factory.hpp:76] Creating layer inception_5a/3x3_reduce
I0905 21:57:32.106091 58545 net.cpp:110] Creating Layer inception_5a/3x3_reduce
I0905 21:57:32.106094 58545 net.cpp:477] inception_5a/3x3_reduce <- inception_4e/output_inception_4e/output_0_split_1
I0905 21:57:32.106102 58545 net.cpp:433] inception_5a/3x3_reduce -> inception_5a/3x3_reduce
I0905 21:57:32.115061 58545 net.cpp:155] Setting up inception_5a/3x3_reduce
I0905 21:57:32.115082 58545 net.cpp:163] Top shape: 32 192 7 7 (301056)
I0905 21:57:32.115092 58545 layer_factory.hpp:76] Creating layer inception_5a/relu_3x3_reduce
I0905 21:57:32.115099 58545 net.cpp:110] Creating Layer inception_5a/relu_3x3_reduce
I0905 21:57:32.115120 58545 net.cpp:477] inception_5a/relu_3x3_reduce <- inception_5a/3x3_reduce
I0905 21:57:32.115128 58545 net.cpp:419] inception_5a/relu_3x3_reduce -> inception_5a/3x3_reduce (in-place)
I0905 21:57:32.115138 58545 net.cpp:155] Setting up inception_5a/relu_3x3_reduce
I0905 21:57:32.115144 58545 net.cpp:163] Top shape: 32 192 7 7 (301056)
I0905 21:57:32.115149 58545 layer_factory.hpp:76] Creating layer inception_5a/3x3
I0905 21:57:32.115159 58545 net.cpp:110] Creating Layer inception_5a/3x3
I0905 21:57:32.115164 58545 net.cpp:477] inception_5a/3x3 <- inception_5a/3x3_reduce
I0905 21:57:32.115173 58545 net.cpp:433] inception_5a/3x3 -> inception_5a/3x3
I0905 21:57:32.138948 58545 net.cpp:155] Setting up inception_5a/3x3
I0905 21:57:32.138967 58545 net.cpp:163] Top shape: 32 320 7 7 (501760)
I0905 21:57:32.138978 58545 layer_factory.hpp:76] Creating layer inception_5a/relu_3x3
I0905 21:57:32.138993 58545 net.cpp:110] Creating Layer inception_5a/relu_3x3
I0905 21:57:32.138999 58545 net.cpp:477] inception_5a/relu_3x3 <- inception_5a/3x3
I0905 21:57:32.139006 58545 net.cpp:419] inception_5a/relu_3x3 -> inception_5a/3x3 (in-place)
I0905 21:57:32.139016 58545 net.cpp:155] Setting up inception_5a/relu_3x3
I0905 21:57:32.139022 58545 net.cpp:163] Top shape: 32 320 7 7 (501760)
I0905 21:57:32.139026 58545 layer_factory.hpp:76] Creating layer inception_5a/double3x3_reduce
I0905 21:57:32.139035 58545 net.cpp:110] Creating Layer inception_5a/double3x3_reduce
I0905 21:57:32.139040 58545 net.cpp:477] inception_5a/double3x3_reduce <- inception_4e/output_inception_4e/output_0_split_2
I0905 21:57:32.139047 58545 net.cpp:433] inception_5a/double3x3_reduce -> inception_5a/double3x3_reduce
I0905 21:57:32.146605 58545 net.cpp:155] Setting up inception_5a/double3x3_reduce
I0905 21:57:32.146625 58545 net.cpp:163] Top shape: 32 160 7 7 (250880)
I0905 21:57:32.146666 58545 layer_factory.hpp:76] Creating layer inception_5a/relu_double3x3_reduce
I0905 21:57:32.146679 58545 net.cpp:110] Creating Layer inception_5a/relu_double3x3_reduce
I0905 21:57:32.146685 58545 net.cpp:477] inception_5a/relu_double3x3_reduce <- inception_5a/double3x3_reduce
I0905 21:57:32.146692 58545 net.cpp:419] inception_5a/relu_double3x3_reduce -> inception_5a/double3x3_reduce (in-place)
I0905 21:57:32.146702 58545 net.cpp:155] Setting up inception_5a/relu_double3x3_reduce
I0905 21:57:32.146708 58545 net.cpp:163] Top shape: 32 160 7 7 (250880)
I0905 21:57:32.146713 58545 layer_factory.hpp:76] Creating layer inception_5a/double3x3_mid
I0905 21:57:32.146721 58545 net.cpp:110] Creating Layer inception_5a/double3x3_mid
I0905 21:57:32.146725 58545 net.cpp:477] inception_5a/double3x3_mid <- inception_5a/double3x3_reduce
I0905 21:57:32.146733 58545 net.cpp:433] inception_5a/double3x3_mid -> inception_5a/double3x3_mid
I0905 21:57:32.160598 58545 net.cpp:155] Setting up inception_5a/double3x3_mid
I0905 21:57:32.160617 58545 net.cpp:163] Top shape: 32 224 7 7 (351232)
I0905 21:57:32.160627 58545 layer_factory.hpp:76] Creating layer inception_5a/relu_double3x3_mid
I0905 21:57:32.160637 58545 net.cpp:110] Creating Layer inception_5a/relu_double3x3_mid
I0905 21:57:32.160645 58545 net.cpp:477] inception_5a/relu_double3x3_mid <- inception_5a/double3x3_mid
I0905 21:57:32.160652 58545 net.cpp:419] inception_5a/relu_double3x3_mid -> inception_5a/double3x3_mid (in-place)
I0905 21:57:32.160661 58545 net.cpp:155] Setting up inception_5a/relu_double3x3_mid
I0905 21:57:32.160667 58545 net.cpp:163] Top shape: 32 224 7 7 (351232)
I0905 21:57:32.160671 58545 layer_factory.hpp:76] Creating layer inception_5a/double3x3
I0905 21:57:32.160681 58545 net.cpp:110] Creating Layer inception_5a/double3x3
I0905 21:57:32.160684 58545 net.cpp:477] inception_5a/double3x3 <- inception_5a/double3x3_mid
I0905 21:57:32.160691 58545 net.cpp:433] inception_5a/double3x3 -> inception_5a/double3x3
I0905 21:57:32.180009 58545 net.cpp:155] Setting up inception_5a/double3x3
I0905 21:57:32.180027 58545 net.cpp:163] Top shape: 32 224 7 7 (351232)
I0905 21:57:32.180037 58545 layer_factory.hpp:76] Creating layer inception_5a/relu_double3x3
I0905 21:57:32.180065 58545 net.cpp:110] Creating Layer inception_5a/relu_double3x3
I0905 21:57:32.180071 58545 net.cpp:477] inception_5a/relu_double3x3 <- inception_5a/double3x3
I0905 21:57:32.180078 58545 net.cpp:419] inception_5a/relu_double3x3 -> inception_5a/double3x3 (in-place)
I0905 21:57:32.180088 58545 net.cpp:155] Setting up inception_5a/relu_double3x3
I0905 21:57:32.180094 58545 net.cpp:163] Top shape: 32 224 7 7 (351232)
I0905 21:57:32.180099 58545 layer_factory.hpp:76] Creating layer inception_5a/pool
I0905 21:57:32.180106 58545 net.cpp:110] Creating Layer inception_5a/pool
I0905 21:57:32.180110 58545 net.cpp:477] inception_5a/pool <- inception_4e/output_inception_4e/output_0_split_3
I0905 21:57:32.180120 58545 net.cpp:433] inception_5a/pool -> inception_5a/pool
I0905 21:57:32.180131 58545 net.cpp:155] Setting up inception_5a/pool
I0905 21:57:32.180137 58545 net.cpp:163] Top shape: 32 1056 7 7 (1655808)
I0905 21:57:32.180141 58545 layer_factory.hpp:76] Creating layer inception_5a/pool_proj
I0905 21:57:32.180153 58545 net.cpp:110] Creating Layer inception_5a/pool_proj
I0905 21:57:32.180158 58545 net.cpp:477] inception_5a/pool_proj <- inception_5a/pool
I0905 21:57:32.180166 58545 net.cpp:433] inception_5a/pool_proj -> inception_5a/pool_proj
I0905 21:57:32.186342 58545 net.cpp:155] Setting up inception_5a/pool_proj
I0905 21:57:32.186362 58545 net.cpp:163] Top shape: 32 128 7 7 (200704)
I0905 21:57:32.186372 58545 layer_factory.hpp:76] Creating layer inception_5a/relu_pool_proj
I0905 21:57:32.186381 58545 net.cpp:110] Creating Layer inception_5a/relu_pool_proj
I0905 21:57:32.186388 58545 net.cpp:477] inception_5a/relu_pool_proj <- inception_5a/pool_proj
I0905 21:57:32.186394 58545 net.cpp:419] inception_5a/relu_pool_proj -> inception_5a/pool_proj (in-place)
I0905 21:57:32.186403 58545 net.cpp:155] Setting up inception_5a/relu_pool_proj
I0905 21:57:32.186409 58545 net.cpp:163] Top shape: 32 128 7 7 (200704)
I0905 21:57:32.186414 58545 layer_factory.hpp:76] Creating layer inception_5a/output
I0905 21:57:32.186421 58545 net.cpp:110] Creating Layer inception_5a/output
I0905 21:57:32.186426 58545 net.cpp:477] inception_5a/output <- inception_5a/1x1
I0905 21:57:32.186431 58545 net.cpp:477] inception_5a/output <- inception_5a/3x3
I0905 21:57:32.186437 58545 net.cpp:477] inception_5a/output <- inception_5a/double3x3
I0905 21:57:32.186442 58545 net.cpp:477] inception_5a/output <- inception_5a/pool_proj
I0905 21:57:32.186451 58545 net.cpp:433] inception_5a/output -> inception_5a/output
I0905 21:57:32.186461 58545 net.cpp:155] Setting up inception_5a/output
I0905 21:57:32.186467 58545 net.cpp:163] Top shape: 32 1024 7 7 (1605632)
I0905 21:57:32.186471 58545 layer_factory.hpp:76] Creating layer inception_5a/output_inception_5a/output_0_split
I0905 21:57:32.186478 58545 net.cpp:110] Creating Layer inception_5a/output_inception_5a/output_0_split
I0905 21:57:32.186483 58545 net.cpp:477] inception_5a/output_inception_5a/output_0_split <- inception_5a/output
I0905 21:57:32.186491 58545 net.cpp:433] inception_5a/output_inception_5a/output_0_split -> inception_5a/output_inception_5a/output_0_split_0
I0905 21:57:32.186498 58545 net.cpp:433] inception_5a/output_inception_5a/output_0_split -> inception_5a/output_inception_5a/output_0_split_1
I0905 21:57:32.186507 58545 net.cpp:433] inception_5a/output_inception_5a/output_0_split -> inception_5a/output_inception_5a/output_0_split_2
I0905 21:57:32.186516 58545 net.cpp:433] inception_5a/output_inception_5a/output_0_split -> inception_5a/output_inception_5a/output_0_split_3
I0905 21:57:32.186523 58545 net.cpp:155] Setting up inception_5a/output_inception_5a/output_0_split
I0905 21:57:32.186528 58545 net.cpp:163] Top shape: 32 1024 7 7 (1605632)
I0905 21:57:32.186533 58545 net.cpp:163] Top shape: 32 1024 7 7 (1605632)
I0905 21:57:32.186537 58545 net.cpp:163] Top shape: 32 1024 7 7 (1605632)
I0905 21:57:32.186542 58545 net.cpp:163] Top shape: 32 1024 7 7 (1605632)
I0905 21:57:32.186545 58545 layer_factory.hpp:76] Creating layer inception_5b/1x1
I0905 21:57:32.186558 58545 net.cpp:110] Creating Layer inception_5b/1x1
I0905 21:57:32.186575 58545 net.cpp:477] inception_5b/1x1 <- inception_5a/output_inception_5a/output_0_split_0
I0905 21:57:32.186584 58545 net.cpp:433] inception_5b/1x1 -> inception_5b/1x1
I0905 21:57:32.202066 58545 net.cpp:155] Setting up inception_5b/1x1
I0905 21:57:32.202085 58545 net.cpp:163] Top shape: 32 352 7 7 (551936)
I0905 21:57:32.202096 58545 layer_factory.hpp:76] Creating layer inception_5b/relu_1x1
I0905 21:57:32.202106 58545 net.cpp:110] Creating Layer inception_5b/relu_1x1
I0905 21:57:32.202112 58545 net.cpp:477] inception_5b/relu_1x1 <- inception_5b/1x1
I0905 21:57:32.202118 58545 net.cpp:419] inception_5b/relu_1x1 -> inception_5b/1x1 (in-place)
I0905 21:57:32.202128 58545 net.cpp:155] Setting up inception_5b/relu_1x1
I0905 21:57:32.202134 58545 net.cpp:163] Top shape: 32 352 7 7 (551936)
I0905 21:57:32.202138 58545 layer_factory.hpp:76] Creating layer inception_5b/3x3_reduce
I0905 21:57:32.202147 58545 net.cpp:110] Creating Layer inception_5b/3x3_reduce
I0905 21:57:32.202152 58545 net.cpp:477] inception_5b/3x3_reduce <- inception_5a/output_inception_5a/output_0_split_1
I0905 21:57:32.202159 58545 net.cpp:433] inception_5b/3x3_reduce -> inception_5b/3x3_reduce
I0905 21:57:32.210814 58545 net.cpp:155] Setting up inception_5b/3x3_reduce
I0905 21:57:32.210834 58545 net.cpp:163] Top shape: 32 192 7 7 (301056)
I0905 21:57:32.210844 58545 layer_factory.hpp:76] Creating layer inception_5b/relu_3x3_reduce
I0905 21:57:32.210851 58545 net.cpp:110] Creating Layer inception_5b/relu_3x3_reduce
I0905 21:57:32.210856 58545 net.cpp:477] inception_5b/relu_3x3_reduce <- inception_5b/3x3_reduce
I0905 21:57:32.210863 58545 net.cpp:419] inception_5b/relu_3x3_reduce -> inception_5b/3x3_reduce (in-place)
I0905 21:57:32.210872 58545 net.cpp:155] Setting up inception_5b/relu_3x3_reduce
I0905 21:57:32.210878 58545 net.cpp:163] Top shape: 32 192 7 7 (301056)
I0905 21:57:32.210882 58545 layer_factory.hpp:76] Creating layer inception_5b/3x3
I0905 21:57:32.210896 58545 net.cpp:110] Creating Layer inception_5b/3x3
I0905 21:57:32.210901 58545 net.cpp:477] inception_5b/3x3 <- inception_5b/3x3_reduce
I0905 21:57:32.210908 58545 net.cpp:433] inception_5b/3x3 -> inception_5b/3x3
I0905 21:57:32.234452 58545 net.cpp:155] Setting up inception_5b/3x3
I0905 21:57:32.234470 58545 net.cpp:163] Top shape: 32 320 7 7 (501760)
I0905 21:57:32.234480 58545 layer_factory.hpp:76] Creating layer inception_5b/relu_3x3
I0905 21:57:32.234488 58545 net.cpp:110] Creating Layer inception_5b/relu_3x3
I0905 21:57:32.234494 58545 net.cpp:477] inception_5b/relu_3x3 <- inception_5b/3x3
I0905 21:57:32.234501 58545 net.cpp:419] inception_5b/relu_3x3 -> inception_5b/3x3 (in-place)
I0905 21:57:32.234509 58545 net.cpp:155] Setting up inception_5b/relu_3x3
I0905 21:57:32.234515 58545 net.cpp:163] Top shape: 32 320 7 7 (501760)
I0905 21:57:32.234519 58545 layer_factory.hpp:76] Creating layer inception_5b/double3x3_reduce
I0905 21:57:32.234529 58545 net.cpp:110] Creating Layer inception_5b/double3x3_reduce
I0905 21:57:32.234534 58545 net.cpp:477] inception_5b/double3x3_reduce <- inception_5a/output_inception_5a/output_0_split_2
I0905 21:57:32.234540 58545 net.cpp:433] inception_5b/double3x3_reduce -> inception_5b/double3x3_reduce
I0905 21:57:32.243191 58545 net.cpp:155] Setting up inception_5b/double3x3_reduce
I0905 21:57:32.243209 58545 net.cpp:163] Top shape: 32 192 7 7 (301056)
I0905 21:57:32.243219 58545 layer_factory.hpp:76] Creating layer inception_5b/relu_double3x3_reduce
I0905 21:57:32.243230 58545 net.cpp:110] Creating Layer inception_5b/relu_double3x3_reduce
I0905 21:57:32.243237 58545 net.cpp:477] inception_5b/relu_double3x3_reduce <- inception_5b/double3x3_reduce
I0905 21:57:32.243247 58545 net.cpp:419] inception_5b/relu_double3x3_reduce -> inception_5b/double3x3_reduce (in-place)
I0905 21:57:32.243257 58545 net.cpp:155] Setting up inception_5b/relu_double3x3_reduce
I0905 21:57:32.243263 58545 net.cpp:163] Top shape: 32 192 7 7 (301056)
I0905 21:57:32.243266 58545 layer_factory.hpp:76] Creating layer inception_5b/double3x3_mid
I0905 21:57:32.243290 58545 net.cpp:110] Creating Layer inception_5b/double3x3_mid
I0905 21:57:32.243296 58545 net.cpp:477] inception_5b/double3x3_mid <- inception_5b/double3x3_reduce
I0905 21:57:32.243305 58545 net.cpp:433] inception_5b/double3x3_mid -> inception_5b/double3x3_mid
I0905 21:57:32.259893 58545 net.cpp:155] Setting up inception_5b/double3x3_mid
I0905 21:57:32.259912 58545 net.cpp:163] Top shape: 32 224 7 7 (351232)
I0905 21:57:32.259922 58545 layer_factory.hpp:76] Creating layer inception_5b/relu_double3x3_mid
I0905 21:57:32.259932 58545 net.cpp:110] Creating Layer inception_5b/relu_double3x3_mid
I0905 21:57:32.259937 58545 net.cpp:477] inception_5b/relu_double3x3_mid <- inception_5b/double3x3_mid
I0905 21:57:32.259943 58545 net.cpp:419] inception_5b/relu_double3x3_mid -> inception_5b/double3x3_mid (in-place)
I0905 21:57:32.259953 58545 net.cpp:155] Setting up inception_5b/relu_double3x3_mid
I0905 21:57:32.259959 58545 net.cpp:163] Top shape: 32 224 7 7 (351232)
I0905 21:57:32.259963 58545 layer_factory.hpp:76] Creating layer inception_5b/double3x3
I0905 21:57:32.259974 58545 net.cpp:110] Creating Layer inception_5b/double3x3
I0905 21:57:32.259979 58545 net.cpp:477] inception_5b/double3x3 <- inception_5b/double3x3_mid
I0905 21:57:32.259989 58545 net.cpp:433] inception_5b/double3x3 -> inception_5b/double3x3
I0905 21:57:32.279253 58545 net.cpp:155] Setting up inception_5b/double3x3
I0905 21:57:32.279273 58545 net.cpp:163] Top shape: 32 224 7 7 (351232)
I0905 21:57:32.279281 58545 layer_factory.hpp:76] Creating layer inception_5b/relu_double3x3
I0905 21:57:32.279289 58545 net.cpp:110] Creating Layer inception_5b/relu_double3x3
I0905 21:57:32.279295 58545 net.cpp:477] inception_5b/relu_double3x3 <- inception_5b/double3x3
I0905 21:57:32.279304 58545 net.cpp:419] inception_5b/relu_double3x3 -> inception_5b/double3x3 (in-place)
I0905 21:57:32.279314 58545 net.cpp:155] Setting up inception_5b/relu_double3x3
I0905 21:57:32.279320 58545 net.cpp:163] Top shape: 32 224 7 7 (351232)
I0905 21:57:32.279325 58545 layer_factory.hpp:76] Creating layer inception_5b/pool
I0905 21:57:32.279331 58545 net.cpp:110] Creating Layer inception_5b/pool
I0905 21:57:32.279336 58545 net.cpp:477] inception_5b/pool <- inception_5a/output_inception_5a/output_0_split_3
I0905 21:57:32.279345 58545 net.cpp:433] inception_5b/pool -> inception_5b/pool
I0905 21:57:32.279357 58545 net.cpp:155] Setting up inception_5b/pool
I0905 21:57:32.279363 58545 net.cpp:163] Top shape: 32 1024 7 7 (1605632)
I0905 21:57:32.279367 58545 layer_factory.hpp:76] Creating layer inception_5b/pool_proj
I0905 21:57:32.279378 58545 net.cpp:110] Creating Layer inception_5b/pool_proj
I0905 21:57:32.279382 58545 net.cpp:477] inception_5b/pool_proj <- inception_5b/pool
I0905 21:57:32.279392 58545 net.cpp:433] inception_5b/pool_proj -> inception_5b/pool_proj
I0905 21:57:32.285408 58545 net.cpp:155] Setting up inception_5b/pool_proj
I0905 21:57:32.285429 58545 net.cpp:163] Top shape: 32 128 7 7 (200704)
I0905 21:57:32.285439 58545 layer_factory.hpp:76] Creating layer inception_5b/relu_pool_proj
I0905 21:57:32.285446 58545 net.cpp:110] Creating Layer inception_5b/relu_pool_proj
I0905 21:57:32.285451 58545 net.cpp:477] inception_5b/relu_pool_proj <- inception_5b/pool_proj
I0905 21:57:32.285461 58545 net.cpp:419] inception_5b/relu_pool_proj -> inception_5b/pool_proj (in-place)
I0905 21:57:32.285471 58545 net.cpp:155] Setting up inception_5b/relu_pool_proj
I0905 21:57:32.285477 58545 net.cpp:163] Top shape: 32 128 7 7 (200704)
I0905 21:57:32.285481 58545 layer_factory.hpp:76] Creating layer inception_5b/output
I0905 21:57:32.285490 58545 net.cpp:110] Creating Layer inception_5b/output
I0905 21:57:32.285493 58545 net.cpp:477] inception_5b/output <- inception_5b/1x1
I0905 21:57:32.285500 58545 net.cpp:477] inception_5b/output <- inception_5b/3x3
I0905 21:57:32.285504 58545 net.cpp:477] inception_5b/output <- inception_5b/double3x3
I0905 21:57:32.285509 58545 net.cpp:477] inception_5b/output <- inception_5b/pool_proj
I0905 21:57:32.285518 58545 net.cpp:433] inception_5b/output -> inception_5b/output
I0905 21:57:32.285543 58545 net.cpp:155] Setting up inception_5b/output
I0905 21:57:32.285550 58545 net.cpp:163] Top shape: 32 1024 7 7 (1605632)
I0905 21:57:32.285554 58545 layer_factory.hpp:76] Creating layer pool5/7x7_s1
I0905 21:57:32.285562 58545 net.cpp:110] Creating Layer pool5/7x7_s1
I0905 21:57:32.285567 58545 net.cpp:477] pool5/7x7_s1 <- inception_5b/output
I0905 21:57:32.285573 58545 net.cpp:433] pool5/7x7_s1 -> pool5/7x7_s1
I0905 21:57:32.285583 58545 net.cpp:155] Setting up pool5/7x7_s1
I0905 21:57:32.285588 58545 net.cpp:163] Top shape: 32 1024 1 1 (32768)
I0905 21:57:32.285593 58545 layer_factory.hpp:76] Creating layer pool5/drop_7x7_s1
I0905 21:57:32.285609 58545 net.cpp:110] Creating Layer pool5/drop_7x7_s1
I0905 21:57:32.285614 58545 net.cpp:477] pool5/drop_7x7_s1 <- pool5/7x7_s1
I0905 21:57:32.285620 58545 net.cpp:419] pool5/drop_7x7_s1 -> pool5/7x7_s1 (in-place)
I0905 21:57:32.285630 58545 net.cpp:155] Setting up pool5/drop_7x7_s1
I0905 21:57:32.285636 58545 net.cpp:163] Top shape: 32 1024 1 1 (32768)
I0905 21:57:32.285640 58545 layer_factory.hpp:76] Creating layer loss3/classifier
I0905 21:57:32.285650 58545 net.cpp:110] Creating Layer loss3/classifier
I0905 21:57:32.285655 58545 net.cpp:477] loss3/classifier <- pool5/7x7_s1
I0905 21:57:32.285661 58545 net.cpp:433] loss3/classifier -> loss3/classifier
I0905 21:57:32.329149 58545 net.cpp:155] Setting up loss3/classifier
I0905 21:57:32.329169 58545 net.cpp:163] Top shape: 32 1000 (32000)
I0905 21:57:32.329180 58545 layer_factory.hpp:76] Creating layer loss3/loss3
I0905 21:57:32.329188 58545 net.cpp:110] Creating Layer loss3/loss3
I0905 21:57:32.329193 58545 net.cpp:477] loss3/loss3 <- loss3/classifier
I0905 21:57:32.329200 58545 net.cpp:477] loss3/loss3 <- label_data_1_split_2
I0905 21:57:32.329207 58545 net.cpp:433] loss3/loss3 -> loss3/loss3
I0905 21:57:32.329219 58545 layer_factory.hpp:76] Creating layer loss3/loss3
…
I0905 21:57:32.337697 58545 net.cpp:339] The NetState phase (1) differed from the phase (0) specified by a rule in layer data
I0905 21:57:32.339259 58545 net.cpp:50] Initializing net from parameters: 
name: "Inception_6"
state {
  phase: TEST
}
layer {
  name: "data"
  type: "Data"
  top: "data"
  top: "label"
  include {
    phase: TEST
  }
  transform_param {
    mirror: false
    crop_size: 224
    mean_value: 104
    mean_value: 117
    mean_value: 123
  }
  data_param {
    source: "/ssd/ilsvrc2012/ilsvrc12_val_lmdb"
    batch_size: 50
    backend: LMDB
  }
}
layer {
  name: "layer"
  type: "Power"
  bottom: "data"
  top: "data_scaled"
  power_param {
    power: 1
    scale: 0.01
    shift: 0
  }
}
layer {
  name: "conv1/7x7_s2"
  type: "Convolution"
  bottom: "data_scaled"
  top: "conv1/7x7_s2"
  param {
    lr_mult: 1
    decay_mult: 1
  }
  param {
    lr_mult: 2
    decay_mult: 0
  }
  convolution_param {
    num_output: 64
    pad: 3
    kernel_size: 7
    stride: 2
    weight_filler {
      type: "msra"
    }
    bias_filler {
      type: "constant"
      value: 0.2
    }
  }
}
layer {
  name: "conv1/relu_7x7"
  type: "ReLU"
  bottom: "conv1/7x7_s2"
  top: "conv1/7x7_s2"
}
layer {
  name: "pool1/3x3_s2"
  type: "Pooling"
  bottom: "conv1/7x7_s2"
  top: "pool1/3x3_s2"
  pooling_param {
    pool: MAX
    kernel_size: 3
    stride: 2
  }
}
layer {
  name: "pool1/norm1"
  type: "LRN"
  bottom: "pool1/3x3_s2"
  top: "pool1/norm1"
  lrn_param {
    local_size: 5
    alpha: 0.0001
    beta: 0.75
  }
}
layer {
  name: "conv2/3x3_reduce"
  type: "Convolution"
  bottom: "pool1/norm1"
  top: "conv2/3x3_reduce"
  param {
    lr_mult: 1
    decay_mult: 1
  }
  param {
    lr_mult: 2
    decay_mult: 0
  }
  convolution_param {
    num_output: 64
    kernel_size: 1
    weight_filler {
      type: "msra"
    }
    bias_filler {
      type: "constant"
      value: 0.2
    }
  }
}
layer {
  name: "conv2/relu_3x3_reduce"
  type: "ReLU"
  bottom: "conv2/3x3_reduce"
  top: "conv2/3x3_reduce"
}
layer {
  name: "conv2/3x3"
  type: "Convolution"
  bottom: "conv2/3x3_reduce"
  top: "conv2/3x3"
  param {
    lr_mult: 1
    decay_mult: 1
  }
  param {
    lr_mult: 2
    decay_mult: 0
  }
  convolution_param {
    num_output: 192
    pad: 1
    kernel_size: 3
    weight_filler {
      type: "msra"
    }
    bias_filler {
      type: "constant"
      value: 0.2
    }
  }
}
layer {
  name: "conv2/relu_3x3"
  type: "ReLU"
  bottom: "conv2/3x3"
  top: "conv2/3x3"
}
layer {
  name: "conv2/norm2"
  type: "LRN"
  bottom: "conv2/3x3"
  top: "conv2/norm2"
  lrn_param {
    local_size: 5
    alpha: 0.0001
    beta: 0.75
  }
}
layer {
  name: "pool2/3x3_s2"
  type: "Pooling"
  bottom: "conv2/norm2"
  top: "pool2/3x3_s2"
  pooling_param {
    pool: MAX
    kernel_size: 3
    stride: 2
  }
}
layer {
  name: "inception_3a/1x1"
  type: "Convolution"
  bottom: "pool2/3x3_s2"
  top: "inception_3a/1x1"
  param {
    lr_mult: 1
    decay_mult: 1
  }
  param {
    lr_mult: 2
    decay_mult: 0
  }
  convolution_param {
    num_output: 64
    kernel_size: 1
    weight_filler {
      type: "msra"
    }
    bias_filler {
      type: "constant"
      value: 0.2
    }
  }
}
layer {
  name: "inception_3a/relu_1x1"
  type: "ReLU"
  bottom: "inception_3a/1x1"
  top: "inception_3a/1x1"
}
layer {
  name: "inception_3a/3x3_reduce"
  type: "Convolution"
  bottom: "pool2/3x3_s2"
  top: "inception_3a/3x3_reduce"
  param {
    lr_mult: 1
    decay_mult: 1
  }
  param {
    lr_mult: 2
    decay_mult: 0
  }
  convolution_param {
    num_output: 64
    kernel_size: 1
    weight_filler {
      type: "msra"
    }
    bias_filler {
      type: "constant"
      value: 0.2
    }
  }
}
layer {
  name: "inception_3a/relu_3x3_reduce"
  type: "ReLU"
  bottom: "inception_3a/3x3_reduce"
  top: "inception_3a/3x3_reduce"
}
layer {
  name: "inception_3a/3x3"
  type: "Convolution"
  bottom: "inception_3a/3x3_reduce"
  top: "inception_3a/3x3"
  param {
    lr_mult: 1
    decay_mult: 1
  }
  param {
    lr_mult: 2
    decay_mult: 0
  }
  convolution_param {
    num_output: 64
    pad: 1
    kernel_size: 3
    weight_filler {
      type: "msra"
    }
    bias_filler {
      type: "constant"
      value: 0.2
    }
  }
}
layer {
  name: "inception_3a/relu_3x3"
  type: "ReLU"
  bottom: "inception_3a/3x3"
  top: "inception_3a/3x3"
}
layer {
  name: "inception_3a/double3x3_reduce"
  type: "Convolution"
  bottom: "pool2/3x3_s2"
  top: "inception_3a/double3x3_reduce"
  param {
    lr_mult: 1
    decay_mult: 1
  }
  param {
    lr_mult: 2
    decay_mult: 0
  }
  convolution_param {
    num_output: 64
    kernel_size: 1
    weight_filler {
      type: "msra"
    }
    bias_filler {
      type: "constant"
      value: 0.2
    }
  }
}
layer {
  name: "inception_3a/relu_double3x3_reduce"
  type: "ReLU"
  bottom: "inception_3a/double3x3_reduce"
  top: "inception_3a/double3x3_reduce"
}
layer {
  name: "inception_3a/double3x3_mid"
  type: "Convolution"
  bottom: "inception_3a/double3x3_reduce"
  top: "inception_3a/double3x3_mid"
  param {
    lr_mult: 1
    decay_mult: 1
  }
  param {
    lr_mult: 2
    decay_mult: 0
  }
  convolution_param {
    num_output: 96
    pad: 1
    kernel_size: 3
    weight_filler {
      type: "msra"
    }
    bias_filler {
      type: "constant"
      value: 0.2
    }
  }
}
layer {
  name: "inception_3a/relu_double3x3_mid"
  type: "ReLU"
  bottom: "inception_3a/double3x3_mid"
  top: "inception_3a/double3x3_mid"
}
layer {
  name: "inception_3a/double3x3"
  type: "Convolution"
  bottom: "inception_3a/double3x3_mid"
  top: "inception_3a/double3x3"
  param {
    lr_mult: 1
    decay_mult: 1
  }
  param {
    lr_mult: 2
    decay_mult: 0
  }
  convolution_param {
    num_output: 96
    pad: 1
    kernel_size: 3
    weight_filler {
      type: "msra"
    }
    bias_filler {
      type: "constant"
      value: 0.2
    }
  }
}
layer {
  name: "inception_3a/relu_double3x3"
  type: "ReLU"
  bottom: "inception_3a/double3x3"
  top: "inception_3a/double3x3"
}
layer {
  name: "inception_3a/pool"
  type: "Pooling"
  bottom: "pool2/3x3_s2"
  top: "inception_3a/pool"
  pooling_param {
    pool: AVE
    kernel_size: 3
    stride: 1
    pad: 1
  }
}
layer {
  name: "inception_3a/pool_proj"
  type: "Convolution"
  bottom: "inception_3a/pool"
  top: "inception_3a/pool_proj"
  param {
    lr_mult: 1
    decay_mult: 1
  }
  param {
    lr_mult: 2
    decay_mult: 0
  }
  convolution_param {
    num_output: 32
    kernel_size: 1
    weight_filler {
      type: "msra"
    }
    bias_filler {
      type: "constant"
      value: 0.2
    }
  }
}
layer {
  name: "inception_3a/relu_pool_proj"
  type: "ReLU"
  bottom: "inception_3a/pool_proj"
  top: "inception_3a/pool_proj"
}
layer {
  name: "inception_3a/output"
  type: "Concat"
  bottom: "inception_3a/1x1"
  bottom: "inception_3a/3x3"
  bottom: "inception_3a/double3x3"
  bottom: "inception_3a/pool_proj"
  top: "inception_3a/output"
}
layer {
  name: "inception_3b/1x1"
  type: "Convolution"
  bottom: "inception_3a/output"
  top: "inception_3b/1x1"
  param {
    lr_mult: 1
    decay_mult: 1
  }
  param {
    lr_mult: 2
    decay_mult: 0
  }
  convolution_param {
    num_output: 64
    kernel_size: 1
    weight_filler {
      type: "msra"
    }
    bias_filler {
      type: "constant"
      value: 0.2
    }
  }
}
layer {
  name: "inception_3b/relu_1x1"
  type: "ReLU"
  bottom: "inception_3b/1x1"
  top: "inception_3b/1x1"
}
layer {
  name: "inception_3b/3x3_reduce"
  type: "Convolution"
  bottom: "inception_3a/output"
  top: "inception_3b/3x3_reduce"
  param {
    lr_mult: 1
    decay_mult: 1
  }
  param {
    lr_mult: 2
    decay_mult: 0
  }
  convolution_param {
    num_output: 64
    kernel_size: 1
    weight_filler {
      type: "msra"
    }
    bias_filler {
      type: "constant"
      value: 0.2
    }
  }
}
layer {
  name: "inception_3b/relu_3x3_reduce"
  type: "ReLU"
  bottom: "inception_3b/3x3_reduce"
  top: "inception_3b/3x3_reduce"
}
layer {
  name: "inception_3b/3x3"
  type: "Convolution"
  bottom: "inception_3b/3x3_reduce"
  top: "inception_3b/3x3"
  param {
    lr_mult: 1
    decay_mult: 1
  }
  param {
    lr_mult: 2
    decay_mult: 0
  }
  convolution_param {
    num_output: 96
    pad: 1
    kernel_size: 3
    weight_filler {
      type: "msra"
    }
    bias_filler {
      type: "constant"
      value: 0.2
    }
  }
}
layer {
  name: "inception_3b/relu_3x3"
  type: "ReLU"
  bottom: "inception_3b/3x3"
  top: "inception_3b/3x3"
}
layer {
  name: "inception_3b/double3x3_reduce"
  type: "Convolution"
  bottom: "inception_3a/output"
  top: "inception_3b/double3x3_reduce"
  param {
    lr_mult: 1
    decay_mult: 1
  }
  param {
    lr_mult: 2
    decay_mult: 0
  }
  convolution_param {
    num_output: 64
    kernel_size: 1
    weight_filler {
      type: "msra"
    }
    bias_filler {
      type: "constant"
      value: 0.2
    }
  }
}
layer {
  name: "inception_3b/relu_double3x3_reduce"
  type: "ReLU"
  bottom: "inception_3b/double3x3_reduce"
  top: "inception_3b/double3x3_reduce"
}
layer {
  name: "inception_3b/double3x3_mid"
  type: "Convolution"
  bottom: "inception_3b/double3x3_reduce"
  top: "inception_3b/double3x3_mid"
  param {
    lr_mult: 1
    decay_mult: 1
  }
  param {
    lr_mult: 2
    decay_mult: 0
  }
  convolution_param {
    num_output: 96
    pad: 1
    kernel_size: 3
    weight_filler {
      type: "msra"
    }
    bias_filler {
      type: "constant"
      value: 0.2
    }
  }
}
layer {
  name: "inception_3b/relu_double3x3_mid"
  type: "ReLU"
  bottom: "inception_3b/double3x3_mid"
  top: "inception_3b/double3x3_mid"
}
layer {
  name: "inception_3b/double3x3"
  type: "Convolution"
  bottom: "inception_3b/double3x3_mid"
  top: "inception_3b/double3x3"
  param {
    lr_mult: 1
    decay_mult: 1
  }
  param {
    lr_mult: 2
    decay_mult: 0
  }
  convolution_param {
    num_output: 96
    pad: 1
    kernel_size: 3
    weight_filler {
      type: "msra"
    }
    bias_filler {
      type: "constant"
      value: 0.2
    }
  }
}
layer {
  name: "inception_3b/relu_double3x3"
  type: "ReLU"
…
I0905 21:57:32.881963 58545 net.cpp:155] Setting up inception_4c/double3x3_reduce
I0905 21:57:32.881983 58545 net.cpp:163] Top shape: 50 128 14 14 (1254400)
I0905 21:57:32.881995 58545 layer_factory.hpp:76] Creating layer inception_4c/relu_double3x3_reduce
I0905 21:57:32.882006 58545 net.cpp:110] Creating Layer inception_4c/relu_double3x3_reduce
I0905 21:57:32.882014 58545 net.cpp:477] inception_4c/relu_double3x3_reduce <- inception_4c/double3x3_reduce
I0905 21:57:32.882025 58545 net.cpp:419] inception_4c/relu_double3x3_reduce -> inception_4c/double3x3_reduce (in-place)
I0905 21:57:32.882036 58545 net.cpp:155] Setting up inception_4c/relu_double3x3_reduce
I0905 21:57:32.882045 58545 net.cpp:163] Top shape: 50 128 14 14 (1254400)
I0905 21:57:32.882052 58545 layer_factory.hpp:76] Creating layer inception_4c/double3x3_mid
I0905 21:57:32.882068 58545 net.cpp:110] Creating Layer inception_4c/double3x3_mid
I0905 21:57:32.882076 58545 net.cpp:477] inception_4c/double3x3_mid <- inception_4c/double3x3_reduce
I0905 21:57:32.882086 58545 net.cpp:433] inception_4c/double3x3_mid -> inception_4c/double3x3_mid
I0905 21:57:32.896128 58545 net.cpp:155] Setting up inception_4c/double3x3_mid
I0905 21:57:32.896158 58545 net.cpp:163] Top shape: 50 160 14 14 (1568000)
I0905 21:57:32.896173 58545 layer_factory.hpp:76] Creating layer inception_4c/relu_double3x3_mid
I0905 21:57:32.896185 58545 net.cpp:110] Creating Layer inception_4c/relu_double3x3_mid
I0905 21:57:32.896193 58545 net.cpp:477] inception_4c/relu_double3x3_mid <- inception_4c/double3x3_mid
I0905 21:57:32.896204 58545 net.cpp:419] inception_4c/relu_double3x3_mid -> inception_4c/double3x3_mid (in-place)
I0905 21:57:32.896219 58545 net.cpp:155] Setting up inception_4c/relu_double3x3_mid
I0905 21:57:32.896229 58545 net.cpp:163] Top shape: 50 160 14 14 (1568000)
I0905 21:57:32.896235 58545 layer_factory.hpp:76] Creating layer inception_4c/double3x3
I0905 21:57:32.896248 58545 net.cpp:110] Creating Layer inception_4c/double3x3
I0905 21:57:32.896255 58545 net.cpp:477] inception_4c/double3x3 <- inception_4c/double3x3_mid
I0905 21:57:32.896270 58545 net.cpp:433] inception_4c/double3x3 -> inception_4c/double3x3
I0905 21:57:32.913529 58545 net.cpp:155] Setting up inception_4c/double3x3
I0905 21:57:32.913557 58545 net.cpp:163] Top shape: 50 160 14 14 (1568000)
I0905 21:57:32.913571 58545 layer_factory.hpp:76] Creating layer inception_4c/relu_double3x3
I0905 21:57:32.913584 58545 net.cpp:110] Creating Layer inception_4c/relu_double3x3
I0905 21:57:32.913593 58545 net.cpp:477] inception_4c/relu_double3x3 <- inception_4c/double3x3
I0905 21:57:32.913607 58545 net.cpp:419] inception_4c/relu_double3x3 -> inception_4c/double3x3 (in-place)
I0905 21:57:32.913622 58545 net.cpp:155] Setting up inception_4c/relu_double3x3
I0905 21:57:32.913631 58545 net.cpp:163] Top shape: 50 160 14 14 (1568000)
I0905 21:57:32.913638 58545 layer_factory.hpp:76] Creating layer inception_4c/pool
I0905 21:57:32.913650 58545 net.cpp:110] Creating Layer inception_4c/pool
I0905 21:57:32.913656 58545 net.cpp:477] inception_4c/pool <- inception_4b/output_inception_4b/output_0_split_3
I0905 21:57:32.913691 58545 net.cpp:433] inception_4c/pool -> inception_4c/pool
I0905 21:57:32.913709 58545 net.cpp:155] Setting up inception_4c/pool
I0905 21:57:32.913719 58545 net.cpp:163] Top shape: 50 576 14 14 (5644800)
I0905 21:57:32.913727 58545 layer_factory.hpp:76] Creating layer inception_4c/pool_proj
I0905 21:57:32.913739 58545 net.cpp:110] Creating Layer inception_4c/pool_proj
I0905 21:57:32.913746 58545 net.cpp:477] inception_4c/pool_proj <- inception_4c/pool
I0905 21:57:32.913763 58545 net.cpp:433] inception_4c/pool_proj -> inception_4c/pool_proj
I0905 21:57:32.919082 58545 net.cpp:155] Setting up inception_4c/pool_proj
I0905 21:57:32.919105 58545 net.cpp:163] Top shape: 50 128 14 14 (1254400)
I0905 21:57:32.919118 58545 layer_factory.hpp:76] Creating layer inception_4c/relu_pool_proj
I0905 21:57:32.919129 58545 net.cpp:110] Creating Layer inception_4c/relu_pool_proj
I0905 21:57:32.919137 58545 net.cpp:477] inception_4c/relu_pool_proj <- inception_4c/pool_proj
I0905 21:57:32.919147 58545 net.cpp:419] inception_4c/relu_pool_proj -> inception_4c/pool_proj (in-place)
I0905 21:57:32.919160 58545 net.cpp:155] Setting up inception_4c/relu_pool_proj
I0905 21:57:32.919169 58545 net.cpp:163] Top shape: 50 128 14 14 (1254400)
I0905 21:57:32.919175 58545 layer_factory.hpp:76] Creating layer inception_4c/output
I0905 21:57:32.919186 58545 net.cpp:110] Creating Layer inception_4c/output
I0905 21:57:32.919193 58545 net.cpp:477] inception_4c/output <- inception_4c/1x1
I0905 21:57:32.919203 58545 net.cpp:477] inception_4c/output <- inception_4c/3x3
I0905 21:57:32.919212 58545 net.cpp:477] inception_4c/output <- inception_4c/double3x3
I0905 21:57:32.919220 58545 net.cpp:477] inception_4c/output <- inception_4c/pool_proj
I0905 21:57:32.919230 58545 net.cpp:433] inception_4c/output -> inception_4c/output
I0905 21:57:32.919245 58545 net.cpp:155] Setting up inception_4c/output
I0905 21:57:32.919253 58545 net.cpp:163] Top shape: 50 608 14 14 (5958400)
I0905 21:57:32.919260 58545 layer_factory.hpp:76] Creating layer inception_4c/output_inception_4c/output_0_split
I0905 21:57:32.919270 58545 net.cpp:110] Creating Layer inception_4c/output_inception_4c/output_0_split
I0905 21:57:32.919277 58545 net.cpp:477] inception_4c/output_inception_4c/output_0_split <- inception_4c/output
I0905 21:57:32.919292 58545 net.cpp:433] inception_4c/output_inception_4c/output_0_split -> inception_4c/output_inception_4c/output_0_split_0
I0905 21:57:32.919307 58545 net.cpp:433] inception_4c/output_inception_4c/output_0_split -> inception_4c/output_inception_4c/output_0_split_1
I0905 21:57:32.919320 58545 net.cpp:433] inception_4c/output_inception_4c/output_0_split -> inception_4c/output_inception_4c/output_0_split_2
I0905 21:57:32.919333 58545 net.cpp:433] inception_4c/output_inception_4c/output_0_split -> inception_4c/output_inception_4c/output_0_split_3
I0905 21:57:32.919348 58545 net.cpp:155] Setting up inception_4c/output_inception_4c/output_0_split
I0905 21:57:32.919355 58545 net.cpp:163] Top shape: 50 608 14 14 (5958400)
I0905 21:57:32.919363 58545 net.cpp:163] Top shape: 50 608 14 14 (5958400)
I0905 21:57:32.919371 58545 net.cpp:163] Top shape: 50 608 14 14 (5958400)
I0905 21:57:32.919379 58545 net.cpp:163] Top shape: 50 608 14 14 (5958400)
I0905 21:57:32.919386 58545 layer_factory.hpp:76] Creating layer inception_4d/1x1
I0905 21:57:32.919399 58545 net.cpp:110] Creating Layer inception_4d/1x1
I0905 21:57:32.919405 58545 net.cpp:477] inception_4d/1x1 <- inception_4c/output_inception_4c/output_0_split_0
I0905 21:57:32.919421 58545 net.cpp:433] inception_4d/1x1 -> inception_4d/1x1
I0905 21:57:32.923665 58545 net.cpp:155] Setting up inception_4d/1x1
I0905 21:57:32.923693 58545 net.cpp:163] Top shape: 50 96 14 14 (940800)
I0905 21:57:32.923707 58545 layer_factory.hpp:76] Creating layer inception_4d/relu_1x1
I0905 21:57:32.923717 58545 net.cpp:110] Creating Layer inception_4d/relu_1x1
I0905 21:57:32.923725 58545 net.cpp:477] inception_4d/relu_1x1 <- inception_4d/1x1
I0905 21:57:32.923765 58545 net.cpp:419] inception_4d/relu_1x1 -> inception_4d/1x1 (in-place)
I0905 21:57:32.923787 58545 net.cpp:155] Setting up inception_4d/relu_1x1
I0905 21:57:32.923797 58545 net.cpp:163] Top shape: 50 96 14 14 (940800)
I0905 21:57:32.923804 58545 layer_factory.hpp:76] Creating layer inception_4d/3x3_reduce
I0905 21:57:32.923817 58545 net.cpp:110] Creating Layer inception_4d/3x3_reduce
I0905 21:57:32.923825 58545 net.cpp:477] inception_4d/3x3_reduce <- inception_4c/output_inception_4c/output_0_split_1
I0905 21:57:32.923843 58545 net.cpp:433] inception_4d/3x3_reduce -> inception_4d/3x3_reduce
I0905 21:57:32.929451 58545 net.cpp:155] Setting up inception_4d/3x3_reduce
I0905 21:57:32.929472 58545 net.cpp:163] Top shape: 50 128 14 14 (1254400)
I0905 21:57:32.929486 58545 layer_factory.hpp:76] Creating layer inception_4d/relu_3x3_reduce
I0905 21:57:32.929497 58545 net.cpp:110] Creating Layer inception_4d/relu_3x3_reduce
I0905 21:57:32.929504 58545 net.cpp:477] inception_4d/relu_3x3_reduce <- inception_4d/3x3_reduce
I0905 21:57:32.929514 58545 net.cpp:419] inception_4d/relu_3x3_reduce -> inception_4d/3x3_reduce (in-place)
I0905 21:57:32.929527 58545 net.cpp:155] Setting up inception_4d/relu_3x3_reduce
I0905 21:57:32.929536 58545 net.cpp:163] Top shape: 50 128 14 14 (1254400)
I0905 21:57:32.929543 58545 layer_factory.hpp:76] Creating layer inception_4d/3x3
I0905 21:57:32.929584 58545 net.cpp:110] Creating Layer inception_4d/3x3
I0905 21:57:32.929591 58545 net.cpp:477] inception_4d/3x3 <- inception_4d/3x3_reduce
I0905 21:57:32.929607 58545 net.cpp:433] inception_4d/3x3 -> inception_4d/3x3
I0905 21:57:32.946235 58545 net.cpp:155] Setting up inception_4d/3x3
I0905 21:57:32.946264 58545 net.cpp:163] Top shape: 50 192 14 14 (1881600)
I0905 21:57:32.946280 58545 layer_factory.hpp:76] Creating layer inception_4d/relu_3x3
I0905 21:57:32.946292 58545 net.cpp:110] Creating Layer inception_4d/relu_3x3
I0905 21:57:32.946300 58545 net.cpp:477] inception_4d/relu_3x3 <- inception_4d/3x3
I0905 21:57:32.946316 58545 net.cpp:419] inception_4d/relu_3x3 -> inception_4d/3x3 (in-place)
I0905 21:57:32.946329 58545 net.cpp:155] Setting up inception_4d/relu_3x3
I0905 21:57:32.946339 58545 net.cpp:163] Top shape: 50 192 14 14 (1881600)
I0905 21:57:32.946346 58545 layer_factory.hpp:76] Creating layer inception_4d/double3x3_reduce
I0905 21:57:32.946358 58545 net.cpp:110] Creating Layer inception_4d/double3x3_reduce
I0905 21:57:32.946365 58545 net.cpp:477] inception_4d/double3x3_reduce <- inception_4c/output_inception_4c/output_0_split_2
I0905 21:57:32.946377 58545 net.cpp:433] inception_4d/double3x3_reduce -> inception_4d/double3x3_reduce
I0905 21:57:32.954273 58545 net.cpp:155] Setting up inception_4d/double3x3_reduce
I0905 21:57:32.954300 58545 net.cpp:163] Top shape: 50 160 14 14 (1568000)
I0905 21:57:32.954315 58545 layer_factory.hpp:76] Creating layer inception_4d/relu_double3x3_reduce
I0905 21:57:32.954329 58545 net.cpp:110] Creating Layer inception_4d/relu_double3x3_reduce
I0905 21:57:32.954337 58545 net.cpp:477] inception_4d/relu_double3x3_reduce <- inception_4d/double3x3_reduce
I0905 21:57:32.954349 58545 net.cpp:419] inception_4d/relu_double3x3_reduce -> inception_4d/double3x3_reduce (in-place)
I0905 21:57:32.954362 58545 net.cpp:155] Setting up inception_4d/relu_double3x3_reduce
I0905 21:57:32.954371 58545 net.cpp:163] Top shape: 50 160 14 14 (1568000)
I0905 21:57:32.954378 58545 layer_factory.hpp:76] Creating layer inception_4d/double3x3_mid
I0905 21:57:32.954391 58545 net.cpp:110] Creating Layer inception_4d/double3x3_mid
I0905 21:57:32.954396 58545 net.cpp:477] inception_4d/double3x3_mid <- inception_4d/double3x3_reduce
I0905 21:57:32.954412 58545 net.cpp:433] inception_4d/double3x3_mid -> inception_4d/double3x3_mid
I0905 21:57:32.974964 58545 net.cpp:155] Setting up inception_4d/double3x3_mid
I0905 21:57:32.974990 58545 net.cpp:163] Top shape: 50 192 14 14 (1881600)
I0905 21:57:32.975004 58545 layer_factory.hpp:76] Creating layer inception_4d/relu_double3x3_mid
I0905 21:57:32.975023 58545 net.cpp:110] Creating Layer inception_4d/relu_double3x3_mid
I0905 21:57:32.975052 58545 net.cpp:477] inception_4d/relu_double3x3_mid <- inception_4d/double3x3_mid
I0905 21:57:32.975064 58545 net.cpp:419] inception_4d/relu_double3x3_mid -> inception_4d/double3x3_mid (in-place)
I0905 21:57:32.975080 58545 net.cpp:155] Setting up inception_4d/relu_double3x3_mid
I0905 21:57:32.975090 58545 net.cpp:163] Top shape: 50 192 14 14 (1881600)
I0905 21:57:32.975096 58545 layer_factory.hpp:76] Creating layer inception_4d/double3x3
I0905 21:57:32.975109 58545 net.cpp:110] Creating Layer inception_4d/double3x3
I0905 21:57:32.975116 58545 net.cpp:477] inception_4d/double3x3 <- inception_4d/double3x3_mid
I0905 21:57:32.975127 58545 net.cpp:433] inception_4d/double3x3 -> inception_4d/double3x3
I0905 21:57:32.999722 58545 net.cpp:155] Setting up inception_4d/double3x3
I0905 21:57:32.999748 58545 net.cpp:163] Top shape: 50 192 14 14 (1881600)
I0905 21:57:32.999763 58545 layer_factory.hpp:76] Creating layer inception_4d/relu_double3x3
I0905 21:57:32.999774 58545 net.cpp:110] Creating Layer inception_4d/relu_double3x3
I0905 21:57:32.999783 58545 net.cpp:477] inception_4d/relu_double3x3 <- inception_4d/double3x3
I0905 21:57:32.999794 58545 net.cpp:419] inception_4d/relu_double3x3 -> inception_4d/double3x3 (in-place)
I0905 21:57:32.999809 58545 net.cpp:155] Setting up inception_4d/relu_double3x3
I0905 21:57:32.999817 58545 net.cpp:163] Top shape: 50 192 14 14 (1881600)
I0905 21:57:32.999825 58545 layer_factory.hpp:76] Creating layer inception_4d/pool
I0905 21:57:32.999840 58545 net.cpp:110] Creating Layer inception_4d/pool
I0905 21:57:32.999848 58545 net.cpp:477] inception_4d/pool <- inception_4c/output_inception_4c/output_0_split_3
I0905 21:57:32.999861 58545 net.cpp:433] inception_4d/pool -> inception_4d/pool
I0905 21:57:32.999877 58545 net.cpp:155] Setting up inception_4d/pool
I0905 21:57:32.999886 58545 net.cpp:163] Top shape: 50 608 14 14 (5958400)
I0905 21:57:32.999893 58545 layer_factory.hpp:76] Creating layer inception_4d/pool_proj
I0905 21:57:32.999910 58545 net.cpp:110] Creating Layer inception_4d/pool_proj
I0905 21:57:32.999918 58545 net.cpp:477] inception_4d/pool_proj <- inception_4d/pool
I0905 21:57:32.999929 58545 net.cpp:433] inception_4d/pool_proj -> inception_4d/pool_proj
I0905 21:57:33.005529 58545 net.cpp:155] Setting up inception_4d/pool_proj
I0905 21:57:33.005549 58545 net.cpp:163] Top shape: 50 128 14 14 (1254400)
I0905 21:57:33.005563 58545 layer_factory.hpp:76] Creating layer inception_4d/relu_pool_proj
I0905 21:57:33.005578 58545 net.cpp:110] Creating Layer inception_4d/relu_pool_proj
I0905 21:57:33.005585 58545 net.cpp:477] inception_4d/relu_pool_proj <- inception_4d/pool_proj
I0905 21:57:33.005596 58545 net.cpp:419] inception_4d/relu_pool_proj -> inception_4d/pool_proj (in-place)
I0905 21:57:33.005609 58545 net.cpp:155] Setting up inception_4d/relu_pool_proj
I0905 21:57:33.005619 58545 net.cpp:163] Top shape: 50 128 14 14 (1254400)
I0905 21:57:33.005625 58545 layer_factory.hpp:76] Creating layer inception_4d/output
I0905 21:57:33.005636 58545 net.cpp:110] Creating Layer inception_4d/output
I0905 21:57:33.005643 58545 net.cpp:477] inception_4d/output <- inception_4d/1x1
I0905 21:57:33.005652 58545 net.cpp:477] inception_4d/output <- inception_4d/3x3
I0905 21:57:33.005661 58545 net.cpp:477] inception_4d/output <- inception_4d/double3x3
I0905 21:57:33.005668 58545 net.cpp:477] inception_4d/output <- inception_4d/pool_proj
I0905 21:57:33.005679 58545 net.cpp:433] inception_4d/output -> inception_4d/output
I0905 21:57:33.005693 58545 net.cpp:155] Setting up inception_4d/output
I0905 21:57:33.005702 58545 net.cpp:163] Top shape: 50 608 14 14 (5958400)
I0905 21:57:33.005709 58545 layer_factory.hpp:76] Creating layer inception_4d/output_inception_4d/output_0_split
I0905 21:57:33.005719 58545 net.cpp:110] Creating Layer inception_4d/output_inception_4d/output_0_split
I0905 21:57:33.005727 58545 net.cpp:477] inception_4d/output_inception_4d/output_0_split <- inception_4d/output
I0905 21:57:33.005738 58545 net.cpp:433] inception_4d/output_inception_4d/output_0_split -> inception_4d/output_inception_4d/output_0_split_0
I0905 21:57:33.005779 58545 net.cpp:433] inception_4d/output_inception_4d/output_0_split -> inception_4d/output_inception_4d/output_0_split_1
I0905 21:57:33.005797 58545 net.cpp:433] inception_4d/output_inception_4d/output_0_split -> inception_4d/output_inception_4d/output_0_split_2
I0905 21:57:33.005831 58545 net.cpp:433] inception_4d/output_inception_4d/output_0_split -> inception_4d/output_inception_4d/output_0_split_3
I0905 21:57:33.005844 58545 net.cpp:155] Setting up inception_4d/output_inception_4d/output_0_split
I0905 21:57:33.005853 58545 net.cpp:163] Top shape: 50 608 14 14 (5958400)
I0905 21:57:33.005861 58545 net.cpp:163] Top shape: 50 608 14 14 (5958400)
I0905 21:57:33.005869 58545 net.cpp:163] Top shape: 50 608 14 14 (5958400)
I0905 21:57:33.005877 58545 net.cpp:163] Top shape: 50 608 14 14 (5958400)
I0905 21:57:33.005884 58545 layer_factory.hpp:76] Creating layer loss2/ave_pool
I0905 21:57:33.005895 58545 net.cpp:110] Creating Layer loss2/ave_pool
I0905 21:57:33.005903 58545 net.cpp:477] loss2/ave_pool <- inception_4d/output_inception_4d/output_0_split_0
I0905 21:57:33.005913 58545 net.cpp:433] loss2/ave_pool -> loss2/ave_pool
I0905 21:57:33.005928 58545 net.cpp:155] Setting up loss2/ave_pool
I0905 21:57:33.005938 58545 net.cpp:163] Top shape: 50 608 4 4 (486400)
I0905 21:57:33.005944 58545 layer_factory.hpp:76] Creating layer loss2/conv
I0905 21:57:33.005960 58545 net.cpp:110] Creating Layer loss2/conv
I0905 21:57:33.005969 58545 net.cpp:477] loss2/conv <- loss2/ave_pool
I0905 21:57:33.005980 58545 net.cpp:433] loss2/conv -> loss2/conv
I0905 21:57:33.011595 58545 net.cpp:155] Setting up loss2/conv
I0905 21:57:33.011616 58545 net.cpp:163] Top shape: 50 128 4 4 (102400)
I0905 21:57:33.011629 58545 layer_factory.hpp:76] Creating layer loss2/relu_conv
I0905 21:57:33.011641 58545 net.cpp:110] Creating Layer loss2/relu_conv
I0905 21:57:33.011648 58545 net.cpp:477] loss2/relu_conv <- loss2/conv
I0905 21:57:33.011659 58545 net.cpp:419] loss2/relu_conv -> loss2/conv (in-place)
I0905 21:57:33.011680 58545 net.cpp:155] Setting up loss2/relu_conv
I0905 21:57:33.011690 58545 net.cpp:163] Top shape: 50 128 4 4 (102400)
I0905 21:57:33.011698 58545 layer_factory.hpp:76] Creating layer loss2/fc
I0905 21:57:33.011714 58545 net.cpp:110] Creating Layer loss2/fc
I0905 21:57:33.011723 58545 net.cpp:477] loss2/fc <- loss2/conv
I0905 21:57:33.011734 58545 net.cpp:433] loss2/fc -> loss2/fc
I0905 21:57:33.138839 58545 net.cpp:155] Setting up loss2/fc
I0905 21:57:33.138870 58545 net.cpp:163] Top shape: 50 1024 (51200)
I0905 21:57:33.138890 58545 layer_factory.hpp:76] Creating layer loss2/relu_fc
I0905 21:57:33.138905 58545 net.cpp:110] Creating Layer loss2/relu_fc
I0905 21:57:33.138921 58545 net.cpp:477] loss2/relu_fc <- loss2/fc
I0905 21:57:33.138929 58545 net.cpp:419] loss2/relu_fc -> loss2/fc (in-place)
I0905 21:57:33.138939 58545 net.cpp:155] Setting up loss2/relu_fc
I0905 21:57:33.138944 58545 net.cpp:163] Top shape: 50 1024 (51200)
I0905 21:57:33.138949 58545 layer_factory.hpp:76] Creating layer loss2/drop_fc
I0905 21:57:33.138960 58545 net.cpp:110] Creating Layer loss2/drop_fc
I0905 21:57:33.138964 58545 net.cpp:477] loss2/drop_fc <- loss2/fc
I0905 21:57:33.138970 58545 net.cpp:419] loss2/drop_fc -> loss2/fc (in-place)
I0905 21:57:33.138979 58545 net.cpp:155] Setting up loss2/drop_fc
I0905 21:57:33.138984 58545 net.cpp:163] Top shape: 50 1024 (51200)
I0905 21:57:33.138988 58545 layer_factory.hpp:76] Creating layer loss2/classifier
I0905 21:57:33.139000 58545 net.cpp:110] Creating Layer loss2/classifier
I0905 21:57:33.139004 58545 net.cpp:477] loss2/classifier <- loss2/fc
I0905 21:57:33.139017 58545 net.cpp:433] loss2/classifier -> loss2/classifier
I0905 21:57:33.182474 58545 net.cpp:155] Setting up loss2/classifier
I0905 21:57:33.182492 58545 net.cpp:163] Top shape: 50 1000 (50000)
I0905 21:57:33.182500 58545 layer_factory.hpp:76] Creating layer loss2/classifier_loss2/classifier_0_split
I0905 21:57:33.182510 58545 net.cpp:110] Creating Layer loss2/classifier_loss2/classifier_0_split
I0905 21:57:33.182529 58545 net.cpp:477] loss2/classifier_loss2/classifier_0_split <- loss2/classifier
I0905 21:57:33.182538 58545 net.cpp:433] loss2/classifier_loss2/classifier_0_split -> loss2/classifier_loss2/classifier_0_split_0
I0905 21:57:33.182546 58545 net.cpp:433] loss2/classifier_loss2/classifier_0_split -> loss2/classifier_loss2/classifier_0_split_1
I0905 21:57:33.182559 58545 net.cpp:433] loss2/classifier_loss2/classifier_0_split -> loss2/classifier_loss2/classifier_0_split_2
I0905 21:57:33.182685 58545 net.cpp:155] Setting up loss2/classifier_loss2/classifier_0_split
I0905 21:57:33.182696 58545 net.cpp:163] Top shape: 50 1000 (50000)
I0905 21:57:33.182701 58545 net.cpp:163] Top shape: 50 1000 (50000)
I0905 21:57:33.182709 58545 net.cpp:163] Top shape: 50 1000 (50000)
I0905 21:57:33.182713 58545 layer_factory.hpp:76] Creating layer loss2/loss
I0905 21:57:33.182724 58545 net.cpp:110] Creating Layer loss2/loss
I0905 21:57:33.182729 58545 net.cpp:477] loss2/loss <- loss2/classifier_loss2/classifier_0_split_0
I0905 21:57:33.182735 58545 net.cpp:477] loss2/loss <- label_data_1_split_3
I0905 21:57:33.182741 58545 net.cpp:433] loss2/loss -> loss2/loss1
I0905 21:57:33.182751 58545 layer_factory.hpp:76] Creating layer loss2/loss
…
I0905 21:57:33.183028 58545 net.cpp:155] Setting up loss2/top-5
I0905 21:57:33.183033 58545 net.cpp:163] Top shape: (1)
I0905 21:57:33.183038 58545 layer_factory.hpp:76] Creating layer inception_4e/3x3_reduce
I0905 21:57:33.183053 58545 net.cpp:110] Creating Layer inception_4e/3x3_reduce
I0905 21:57:33.183056 58545 net.cpp:477] inception_4e/3x3_reduce <- inception_4d/output_inception_4d/output_0_split_1
I0905 21:57:33.183065 58545 net.cpp:433] inception_4e/3x3_reduce -> inception_4e/3x3_reduce
I0905 21:57:33.186306 58545 net.cpp:155] Setting up inception_4e/3x3_reduce
I0905 21:57:33.186321 58545 net.cpp:163] Top shape: 50 128 14 14 (1254400)
I0905 21:57:33.186329 58545 layer_factory.hpp:76] Creating layer inception_4e/relu_3x3_reduce
I0905 21:57:33.186337 58545 net.cpp:110] Creating Layer inception_4e/relu_3x3_reduce
I0905 21:57:33.186342 58545 net.cpp:477] inception_4e/relu_3x3_reduce <- inception_4e/3x3_reduce
I0905 21:57:33.186350 58545 net.cpp:419] inception_4e/relu_3x3_reduce -> inception_4e/3x3_reduce (in-place)
I0905 21:57:33.186358 58545 net.cpp:155] Setting up inception_4e/relu_3x3_reduce
I0905 21:57:33.186363 58545 net.cpp:163] Top shape: 50 128 14 14 (1254400)
I0905 21:57:33.186367 58545 layer_factory.hpp:76] Creating layer inception_4e/3x3_s2
I0905 21:57:33.186377 58545 net.cpp:110] Creating Layer inception_4e/3x3_s2
I0905 21:57:33.186379 58545 net.cpp:477] inception_4e/3x3_s2 <- inception_4e/3x3_reduce
I0905 21:57:33.186389 58545 net.cpp:433] inception_4e/3x3_s2 -> inception_4e/3x3_s2
I0905 21:57:33.196048 58545 net.cpp:155] Setting up inception_4e/3x3_s2
I0905 21:57:33.196065 58545 net.cpp:163] Top shape: 50 192 7 7 (470400)
I0905 21:57:33.196074 58545 layer_factory.hpp:76] Creating layer inception_4e/relu_3x3
I0905 21:57:33.196097 58545 net.cpp:110] Creating Layer inception_4e/relu_3x3
I0905 21:57:33.196104 58545 net.cpp:477] inception_4e/relu_3x3 <- inception_4e/3x3_s2
I0905 21:57:33.196110 58545 net.cpp:419] inception_4e/relu_3x3 -> inception_4e/3x3_s2 (in-place)
I0905 21:57:33.196118 58545 net.cpp:155] Setting up inception_4e/relu_3x3
I0905 21:57:33.196125 58545 net.cpp:163] Top shape: 50 192 7 7 (470400)
I0905 21:57:33.196130 58545 layer_factory.hpp:76] Creating layer inception_4e/double3x3_reduce
I0905 21:57:33.196138 58545 net.cpp:110] Creating Layer inception_4e/double3x3_reduce
I0905 21:57:33.196143 58545 net.cpp:477] inception_4e/double3x3_reduce <- inception_4d/output_inception_4d/output_0_split_2
I0905 21:57:33.196151 58545 net.cpp:433] inception_4e/double3x3_reduce -> inception_4e/double3x3_reduce
I0905 21:57:33.201578 58545 net.cpp:155] Setting up inception_4e/double3x3_reduce
I0905 21:57:33.201596 58545 net.cpp:163] Top shape: 50 192 14 14 (1881600)
I0905 21:57:33.201603 58545 layer_factory.hpp:76] Creating layer inception_4e/relu_double3x3_reduce
I0905 21:57:33.201613 58545 net.cpp:110] Creating Layer inception_4e/relu_double3x3_reduce
I0905 21:57:33.201618 58545 net.cpp:477] inception_4e/relu_double3x3_reduce <- inception_4e/double3x3_reduce
I0905 21:57:33.201624 58545 net.cpp:419] inception_4e/relu_double3x3_reduce -> inception_4e/double3x3_reduce (in-place)
I0905 21:57:33.201632 58545 net.cpp:155] Setting up inception_4e/relu_double3x3_reduce
I0905 21:57:33.201638 58545 net.cpp:163] Top shape: 50 192 14 14 (1881600)
I0905 21:57:33.201642 58545 layer_factory.hpp:76] Creating layer inception_4e/double3x3_mid
I0905 21:57:33.201654 58545 net.cpp:110] Creating Layer inception_4e/double3x3_mid
I0905 21:57:33.201658 58545 net.cpp:477] inception_4e/double3x3_mid <- inception_4e/double3x3_reduce
I0905 21:57:33.201665 58545 net.cpp:433] inception_4e/double3x3_mid -> inception_4e/double3x3_mid
I0905 21:57:33.220500 58545 net.cpp:155] Setting up inception_4e/double3x3_mid
I0905 21:57:33.220515 58545 net.cpp:163] Top shape: 50 256 14 14 (2508800)
I0905 21:57:33.220525 58545 layer_factory.hpp:76] Creating layer inception_4e/relu_double3x3_mid
I0905 21:57:33.220535 58545 net.cpp:110] Creating Layer inception_4e/relu_double3x3_mid
I0905 21:57:33.220540 58545 net.cpp:477] inception_4e/relu_double3x3_mid <- inception_4e/double3x3_mid
I0905 21:57:33.220546 58545 net.cpp:419] inception_4e/relu_double3x3_mid -> inception_4e/double3x3_mid (in-place)
I0905 21:57:33.220554 58545 net.cpp:155] Setting up inception_4e/relu_double3x3_mid
I0905 21:57:33.220559 58545 net.cpp:163] Top shape: 50 256 14 14 (2508800)
I0905 21:57:33.220563 58545 layer_factory.hpp:76] Creating layer inception_4e/double3x3
I0905 21:57:33.220571 58545 net.cpp:110] Creating Layer inception_4e/double3x3
I0905 21:57:33.220576 58545 net.cpp:477] inception_4e/double3x3 <- inception_4e/double3x3_mid
I0905 21:57:33.220582 58545 net.cpp:433] inception_4e/double3x3 -> inception_4e/double3x3_s2
I0905 21:57:33.245533 58545 net.cpp:155] Setting up inception_4e/double3x3
I0905 21:57:33.245549 58545 net.cpp:163] Top shape: 50 256 7 7 (627200)
I0905 21:57:33.245558 58545 layer_factory.hpp:76] Creating layer inception_4e/relu_double3x3
I0905 21:57:33.245564 58545 net.cpp:110] Creating Layer inception_4e/relu_double3x3
I0905 21:57:33.245569 58545 net.cpp:477] inception_4e/relu_double3x3 <- inception_4e/double3x3_s2
I0905 21:57:33.245575 58545 net.cpp:419] inception_4e/relu_double3x3 -> inception_4e/double3x3_s2 (in-place)
I0905 21:57:33.245584 58545 net.cpp:155] Setting up inception_4e/relu_double3x3
I0905 21:57:33.245589 58545 net.cpp:163] Top shape: 50 256 7 7 (627200)
I0905 21:57:33.245592 58545 layer_factory.hpp:76] Creating layer inception_4e/pool
I0905 21:57:33.245599 58545 net.cpp:110] Creating Layer inception_4e/pool
I0905 21:57:33.245604 58545 net.cpp:477] inception_4e/pool <- inception_4d/output_inception_4d/output_0_split_3
I0905 21:57:33.245614 58545 net.cpp:433] inception_4e/pool -> inception_4e/pool
I0905 21:57:33.245625 58545 net.cpp:155] Setting up inception_4e/pool
I0905 21:57:33.245643 58545 net.cpp:163] Top shape: 50 608 7 7 (1489600)
I0905 21:57:33.245648 58545 layer_factory.hpp:76] Creating layer inception_4e/relu_pool
I0905 21:57:33.245656 58545 net.cpp:110] Creating Layer inception_4e/relu_pool
I0905 21:57:33.245659 58545 net.cpp:477] inception_4e/relu_pool <- inception_4e/pool
I0905 21:57:33.245667 58545 net.cpp:419] inception_4e/relu_pool -> inception_4e/pool (in-place)
I0905 21:57:33.245673 58545 net.cpp:155] Setting up inception_4e/relu_pool
I0905 21:57:33.245678 58545 net.cpp:163] Top shape: 50 608 7 7 (1489600)
I0905 21:57:33.245683 58545 layer_factory.hpp:76] Creating layer inception_4e/output
I0905 21:57:33.245690 58545 net.cpp:110] Creating Layer inception_4e/output
I0905 21:57:33.245694 58545 net.cpp:477] inception_4e/output <- inception_4e/3x3_s2
I0905 21:57:33.245700 58545 net.cpp:477] inception_4e/output <- inception_4e/double3x3_s2
I0905 21:57:33.245705 58545 net.cpp:477] inception_4e/output <- inception_4e/pool
I0905 21:57:33.245712 58545 net.cpp:433] inception_4e/output -> inception_4e/output
I0905 21:57:33.245720 58545 net.cpp:155] Setting up inception_4e/output
I0905 21:57:33.245725 58545 net.cpp:163] Top shape: 50 1056 7 7 (2587200)
I0905 21:57:33.245729 58545 layer_factory.hpp:76] Creating layer inception_4e/output_inception_4e/output_0_split
I0905 21:57:33.245736 58545 net.cpp:110] Creating Layer inception_4e/output_inception_4e/output_0_split
I0905 21:57:33.245740 58545 net.cpp:477] inception_4e/output_inception_4e/output_0_split <- inception_4e/output
I0905 21:57:33.245749 58545 net.cpp:433] inception_4e/output_inception_4e/output_0_split -> inception_4e/output_inception_4e/output_0_split_0
I0905 21:57:33.245757 58545 net.cpp:433] inception_4e/output_inception_4e/output_0_split -> inception_4e/output_inception_4e/output_0_split_1
I0905 21:57:33.245764 58545 net.cpp:433] inception_4e/output_inception_4e/output_0_split -> inception_4e/output_inception_4e/output_0_split_2
I0905 21:57:33.245771 58545 net.cpp:433] inception_4e/output_inception_4e/output_0_split -> inception_4e/output_inception_4e/output_0_split_3
I0905 21:57:33.245779 58545 net.cpp:155] Setting up inception_4e/output_inception_4e/output_0_split
I0905 21:57:33.245785 58545 net.cpp:163] Top shape: 50 1056 7 7 (2587200)
I0905 21:57:33.245790 58545 net.cpp:163] Top shape: 50 1056 7 7 (2587200)
I0905 21:57:33.245795 58545 net.cpp:163] Top shape: 50 1056 7 7 (2587200)
I0905 21:57:33.245800 58545 net.cpp:163] Top shape: 50 1056 7 7 (2587200)
I0905 21:57:33.245802 58545 layer_factory.hpp:76] Creating layer inception_5a/1x1
I0905 21:57:33.245811 58545 net.cpp:110] Creating Layer inception_5a/1x1
I0905 21:57:33.245815 58545 net.cpp:477] inception_5a/1x1 <- inception_4e/output_inception_4e/output_0_split_0
I0905 21:57:33.245825 58545 net.cpp:433] inception_5a/1x1 -> inception_5a/1x1
I0905 21:57:33.261638 58545 net.cpp:155] Setting up inception_5a/1x1
I0905 21:57:33.261656 58545 net.cpp:163] Top shape: 50 352 7 7 (862400)
I0905 21:57:33.261664 58545 layer_factory.hpp:76] Creating layer inception_5a/relu_1x1
I0905 21:57:33.261672 58545 net.cpp:110] Creating Layer inception_5a/relu_1x1
I0905 21:57:33.261677 58545 net.cpp:477] inception_5a/relu_1x1 <- inception_5a/1x1
I0905 21:57:33.261683 58545 net.cpp:419] inception_5a/relu_1x1 -> inception_5a/1x1 (in-place)
I0905 21:57:33.261692 58545 net.cpp:155] Setting up inception_5a/relu_1x1
I0905 21:57:33.261697 58545 net.cpp:163] Top shape: 50 352 7 7 (862400)
I0905 21:57:33.261700 58545 layer_factory.hpp:76] Creating layer inception_5a/3x3_reduce
I0905 21:57:33.261714 58545 net.cpp:110] Creating Layer inception_5a/3x3_reduce
I0905 21:57:33.261718 58545 net.cpp:477] inception_5a/3x3_reduce <- inception_4e/output_inception_4e/output_0_split_1
I0905 21:57:33.261726 58545 net.cpp:433] inception_5a/3x3_reduce -> inception_5a/3x3_reduce
I0905 21:57:33.270561 58545 net.cpp:155] Setting up inception_5a/3x3_reduce
I0905 21:57:33.270577 58545 net.cpp:163] Top shape: 50 192 7 7 (470400)
I0905 21:57:33.270586 58545 layer_factory.hpp:76] Creating layer inception_5a/relu_3x3_reduce
I0905 21:57:33.270607 58545 net.cpp:110] Creating Layer inception_5a/relu_3x3_reduce
I0905 21:57:33.270612 58545 net.cpp:477] inception_5a/relu_3x3_reduce <- inception_5a/3x3_reduce
I0905 21:57:33.270619 58545 net.cpp:419] inception_5a/relu_3x3_reduce -> inception_5a/3x3_reduce (in-place)
I0905 21:57:33.270627 58545 net.cpp:155] Setting up inception_5a/relu_3x3_reduce
I0905 21:57:33.270633 58545 net.cpp:163] Top shape: 50 192 7 7 (470400)
I0905 21:57:33.270637 58545 layer_factory.hpp:76] Creating layer inception_5a/3x3
I0905 21:57:33.270645 58545 net.cpp:110] Creating Layer inception_5a/3x3
I0905 21:57:33.270649 58545 net.cpp:477] inception_5a/3x3 <- inception_5a/3x3_reduce
I0905 21:57:33.270658 58545 net.cpp:433] inception_5a/3x3 -> inception_5a/3x3
I0905 21:57:33.294091 58545 net.cpp:155] Setting up inception_5a/3x3
I0905 21:57:33.294107 58545 net.cpp:163] Top shape: 50 320 7 7 (784000)
I0905 21:57:33.294116 58545 layer_factory.hpp:76] Creating layer inception_5a/relu_3x3
I0905 21:57:33.294122 58545 net.cpp:110] Creating Layer inception_5a/relu_3x3
I0905 21:57:33.294127 58545 net.cpp:477] inception_5a/relu_3x3 <- inception_5a/3x3
I0905 21:57:33.294137 58545 net.cpp:419] inception_5a/relu_3x3 -> inception_5a/3x3 (in-place)
I0905 21:57:33.294145 58545 net.cpp:155] Setting up inception_5a/relu_3x3
I0905 21:57:33.294150 58545 net.cpp:163] Top shape: 50 320 7 7 (784000)
I0905 21:57:33.294155 58545 layer_factory.hpp:76] Creating layer inception_5a/double3x3_reduce
I0905 21:57:33.294164 58545 net.cpp:110] Creating Layer inception_5a/double3x3_reduce
I0905 21:57:33.294168 58545 net.cpp:477] inception_5a/double3x3_reduce <- inception_4e/output_inception_4e/output_0_split_2
I0905 21:57:33.294175 58545 net.cpp:433] inception_5a/double3x3_reduce -> inception_5a/double3x3_reduce
I0905 21:57:33.301661 58545 net.cpp:155] Setting up inception_5a/double3x3_reduce
I0905 21:57:33.301676 58545 net.cpp:163] Top shape: 50 160 7 7 (392000)
I0905 21:57:33.301715 58545 layer_factory.hpp:76] Creating layer inception_5a/relu_double3x3_reduce
I0905 21:57:33.301723 58545 net.cpp:110] Creating Layer inception_5a/relu_double3x3_reduce
I0905 21:57:33.301729 58545 net.cpp:477] inception_5a/relu_double3x3_reduce <- inception_5a/double3x3_reduce
I0905 21:57:33.301736 58545 net.cpp:419] inception_5a/relu_double3x3_reduce -> inception_5a/double3x3_reduce (in-place)
I0905 21:57:33.301745 58545 net.cpp:155] Setting up inception_5a/relu_double3x3_reduce
I0905 21:57:33.301750 58545 net.cpp:163] Top shape: 50 160 7 7 (392000)
I0905 21:57:33.301754 58545 layer_factory.hpp:76] Creating layer inception_5a/double3x3_mid
I0905 21:57:33.301765 58545 net.cpp:110] Creating Layer inception_5a/double3x3_mid
I0905 21:57:33.301770 58545 net.cpp:477] inception_5a/double3x3_mid <- inception_5a/double3x3_reduce
I0905 21:57:33.301777 58545 net.cpp:433] inception_5a/double3x3_mid -> inception_5a/double3x3_mid
I0905 21:57:33.315532 58545 net.cpp:155] Setting up inception_5a/double3x3_mid
I0905 21:57:33.315548 58545 net.cpp:163] Top shape: 50 224 7 7 (548800)
I0905 21:57:33.315557 58545 layer_factory.hpp:76] Creating layer inception_5a/relu_double3x3_mid
I0905 21:57:33.315567 58545 net.cpp:110] Creating Layer inception_5a/relu_double3x3_mid
I0905 21:57:33.315572 58545 net.cpp:477] inception_5a/relu_double3x3_mid <- inception_5a/double3x3_mid
I0905 21:57:33.315579 58545 net.cpp:419] inception_5a/relu_double3x3_mid -> inception_5a/double3x3_mid (in-place)
I0905 21:57:33.315588 58545 net.cpp:155] Setting up inception_5a/relu_double3x3_mid
I0905 21:57:33.315593 58545 net.cpp:163] Top shape: 50 224 7 7 (548800)
I0905 21:57:33.315598 58545 layer_factory.hpp:76] Creating layer inception_5a/double3x3
I0905 21:57:33.315606 58545 net.cpp:110] Creating Layer inception_5a/double3x3
I0905 21:57:33.315610 58545 net.cpp:477] inception_5a/double3x3 <- inception_5a/double3x3_mid
I0905 21:57:33.315616 58545 net.cpp:433] inception_5a/double3x3 -> inception_5a/double3x3
I0905 21:57:33.334780 58545 net.cpp:155] Setting up inception_5a/double3x3
I0905 21:57:33.334797 58545 net.cpp:163] Top shape: 50 224 7 7 (548800)
I0905 21:57:33.334820 58545 layer_factory.hpp:76] Creating layer inception_5a/relu_double3x3
I0905 21:57:33.334828 58545 net.cpp:110] Creating Layer inception_5a/relu_double3x3
I0905 21:57:33.334835 58545 net.cpp:477] inception_5a/relu_double3x3 <- inception_5a/double3x3
I0905 21:57:33.334841 58545 net.cpp:419] inception_5a/relu_double3x3 -> inception_5a/double3x3 (in-place)
I0905 21:57:33.334848 58545 net.cpp:155] Setting up inception_5a/relu_double3x3
I0905 21:57:33.334854 58545 net.cpp:163] Top shape: 50 224 7 7 (548800)
I0905 21:57:33.334858 58545 layer_factory.hpp:76] Creating layer inception_5a/pool
I0905 21:57:33.334864 58545 net.cpp:110] Creating Layer inception_5a/pool
I0905 21:57:33.334868 58545 net.cpp:477] inception_5a/pool <- inception_4e/output_inception_4e/output_0_split_3
I0905 21:57:33.334878 58545 net.cpp:433] inception_5a/pool -> inception_5a/pool
I0905 21:57:33.334888 58545 net.cpp:155] Setting up inception_5a/pool
I0905 21:57:33.334893 58545 net.cpp:163] Top shape: 50 1056 7 7 (2587200)
I0905 21:57:33.334898 58545 layer_factory.hpp:76] Creating layer inception_5a/pool_proj
I0905 21:57:33.334908 58545 net.cpp:110] Creating Layer inception_5a/pool_proj
I0905 21:57:33.334911 58545 net.cpp:477] inception_5a/pool_proj <- inception_5a/pool
I0905 21:57:33.334920 58545 net.cpp:433] inception_5a/pool_proj -> inception_5a/pool_proj
I0905 21:57:33.340437 58545 net.cpp:155] Setting up inception_5a/pool_proj
I0905 21:57:33.340451 58545 net.cpp:163] Top shape: 50 128 7 7 (313600)
I0905 21:57:33.340458 58545 layer_factory.hpp:76] Creating layer inception_5a/relu_pool_proj
I0905 21:57:33.340464 58545 net.cpp:110] Creating Layer inception_5a/relu_pool_proj
I0905 21:57:33.340469 58545 net.cpp:477] inception_5a/relu_pool_proj <- inception_5a/pool_proj
I0905 21:57:33.340477 58545 net.cpp:419] inception_5a/relu_pool_proj -> inception_5a/pool_proj (in-place)
I0905 21:57:33.340486 58545 net.cpp:155] Setting up inception_5a/relu_pool_proj
I0905 21:57:33.340490 58545 net.cpp:163] Top shape: 50 128 7 7 (313600)
I0905 21:57:33.340494 58545 layer_factory.hpp:76] Creating layer inception_5a/output
I0905 21:57:33.340502 58545 net.cpp:110] Creating Layer inception_5a/output
I0905 21:57:33.340505 58545 net.cpp:477] inception_5a/output <- inception_5a/1x1
I0905 21:57:33.340512 58545 net.cpp:477] inception_5a/output <- inception_5a/3x3
I0905 21:57:33.340517 58545 net.cpp:477] inception_5a/output <- inception_5a/double3x3
I0905 21:57:33.340523 58545 net.cpp:477] inception_5a/output <- inception_5a/pool_proj
I0905 21:57:33.340528 58545 net.cpp:433] inception_5a/output -> inception_5a/output
I0905 21:57:33.340536 58545 net.cpp:155] Setting up inception_5a/output
I0905 21:57:33.340541 58545 net.cpp:163] Top shape: 50 1024 7 7 (2508800)
I0905 21:57:33.340545 58545 layer_factory.hpp:76] Creating layer inception_5a/output_inception_5a/output_0_split
I0905 21:57:33.340553 58545 net.cpp:110] Creating Layer inception_5a/output_inception_5a/output_0_split
I0905 21:57:33.340556 58545 net.cpp:477] inception_5a/output_inception_5a/output_0_split <- inception_5a/output
I0905 21:57:33.340562 58545 net.cpp:433] inception_5a/output_inception_5a/output_0_split -> inception_5a/output_inception_5a/output_0_split_0
I0905 21:57:33.340569 58545 net.cpp:433] inception_5a/output_inception_5a/output_0_split -> inception_5a/output_inception_5a/output_0_split_1
I0905 21:57:33.340577 58545 net.cpp:433] inception_5a/output_inception_5a/output_0_split -> inception_5a/output_inception_5a/output_0_split_2
I0905 21:57:33.340587 58545 net.cpp:433] inception_5a/output_inception_5a/output_0_split -> inception_5a/output_inception_5a/output_0_split_3
I0905 21:57:33.340596 58545 net.cpp:155] Setting up inception_5a/output_inception_5a/output_0_split
I0905 21:57:33.340601 58545 net.cpp:163] Top shape: 50 1024 7 7 (2508800)
I0905 21:57:33.340606 58545 net.cpp:163] Top shape: 50 1024 7 7 (2508800)
I0905 21:57:33.340610 58545 net.cpp:163] Top shape: 50 1024 7 7 (2508800)
I0905 21:57:33.340615 58545 net.cpp:163] Top shape: 50 1024 7 7 (2508800)
I0905 21:57:33.340631 58545 layer_factory.hpp:76] Creating layer inception_5b/1x1
I0905 21:57:33.340638 58545 net.cpp:110] Creating Layer inception_5b/1x1
I0905 21:57:33.340643 58545 net.cpp:477] inception_5b/1x1 <- inception_5a/output_inception_5a/output_0_split_0
I0905 21:57:33.340651 58545 net.cpp:433] inception_5b/1x1 -> inception_5b/1x1
I0905 21:57:33.356009 58545 net.cpp:155] Setting up inception_5b/1x1
I0905 21:57:33.356025 58545 net.cpp:163] Top shape: 50 352 7 7 (862400)
I0905 21:57:33.356034 58545 layer_factory.hpp:76] Creating layer inception_5b/relu_1x1
I0905 21:57:33.356043 58545 net.cpp:110] Creating Layer inception_5b/relu_1x1
I0905 21:57:33.356048 58545 net.cpp:477] inception_5b/relu_1x1 <- inception_5b/1x1
I0905 21:57:33.356055 58545 net.cpp:419] inception_5b/relu_1x1 -> inception_5b/1x1 (in-place)
I0905 21:57:33.356063 58545 net.cpp:155] Setting up inception_5b/relu_1x1
I0905 21:57:33.356068 58545 net.cpp:163] Top shape: 50 352 7 7 (862400)
I0905 21:57:33.356072 58545 layer_factory.hpp:76] Creating layer inception_5b/3x3_reduce
I0905 21:57:33.356086 58545 net.cpp:110] Creating Layer inception_5b/3x3_reduce
I0905 21:57:33.356091 58545 net.cpp:477] inception_5b/3x3_reduce <- inception_5a/output_inception_5a/output_0_split_1
I0905 21:57:33.356097 58545 net.cpp:433] inception_5b/3x3_reduce -> inception_5b/3x3_reduce
I0905 21:57:33.364677 58545 net.cpp:155] Setting up inception_5b/3x3_reduce
I0905 21:57:33.364693 58545 net.cpp:163] Top shape: 50 192 7 7 (470400)
I0905 21:57:33.364701 58545 layer_factory.hpp:76] Creating layer inception_5b/relu_3x3_reduce
I0905 21:57:33.364711 58545 net.cpp:110] Creating Layer inception_5b/relu_3x3_reduce
I0905 21:57:33.364717 58545 net.cpp:477] inception_5b/relu_3x3_reduce <- inception_5b/3x3_reduce
I0905 21:57:33.364723 58545 net.cpp:419] inception_5b/relu_3x3_reduce -> inception_5b/3x3_reduce (in-place)
I0905 21:57:33.364732 58545 net.cpp:155] Setting up inception_5b/relu_3x3_reduce
I0905 21:57:33.364737 58545 net.cpp:163] Top shape: 50 192 7 7 (470400)
I0905 21:57:33.364740 58545 layer_factory.hpp:76] Creating layer inception_5b/3x3
I0905 21:57:33.364748 58545 net.cpp:110] Creating Layer inception_5b/3x3
I0905 21:57:33.364753 58545 net.cpp:477] inception_5b/3x3 <- inception_5b/3x3_reduce
I0905 21:57:33.364758 58545 net.cpp:433] inception_5b/3x3 -> inception_5b/3x3
I0905 21:57:33.388171 58545 net.cpp:155] Setting up inception_5b/3x3
I0905 21:57:33.388188 58545 net.cpp:163] Top shape: 50 320 7 7 (784000)
I0905 21:57:33.388196 58545 layer_factory.hpp:76] Creating layer inception_5b/relu_3x3
I0905 21:57:33.388203 58545 net.cpp:110] Creating Layer inception_5b/relu_3x3
I0905 21:57:33.388208 58545 net.cpp:477] inception_5b/relu_3x3 <- inception_5b/3x3
I0905 21:57:33.388216 58545 net.cpp:419] inception_5b/relu_3x3 -> inception_5b/3x3 (in-place)
I0905 21:57:33.388224 58545 net.cpp:155] Setting up inception_5b/relu_3x3
I0905 21:57:33.388229 58545 net.cpp:163] Top shape: 50 320 7 7 (784000)
I0905 21:57:33.388233 58545 layer_factory.hpp:76] Creating layer inception_5b/double3x3_reduce
I0905 21:57:33.388243 58545 net.cpp:110] Creating Layer inception_5b/double3x3_reduce
I0905 21:57:33.388248 58545 net.cpp:477] inception_5b/double3x3_reduce <- inception_5a/output_inception_5a/output_0_split_2
I0905 21:57:33.388257 58545 net.cpp:433] inception_5b/double3x3_reduce -> inception_5b/double3x3_reduce
I0905 21:57:33.396837 58545 net.cpp:155] Setting up inception_5b/double3x3_reduce
I0905 21:57:33.396852 58545 net.cpp:163] Top shape: 50 192 7 7 (470400)
I0905 21:57:33.396862 58545 layer_factory.hpp:76] Creating layer inception_5b/relu_double3x3_reduce
I0905 21:57:33.396868 58545 net.cpp:110] Creating Layer inception_5b/relu_double3x3_reduce
I0905 21:57:33.396873 58545 net.cpp:477] inception_5b/relu_double3x3_reduce <- inception_5b/double3x3_reduce
I0905 21:57:33.396880 58545 net.cpp:419] inception_5b/relu_double3x3_reduce -> inception_5b/double3x3_reduce (in-place)
I0905 21:57:33.396888 58545 net.cpp:155] Setting up inception_5b/relu_double3x3_reduce
I0905 21:57:33.396894 58545 net.cpp:163] Top shape: 50 192 7 7 (470400)
I0905 21:57:33.396913 58545 layer_factory.hpp:76] Creating layer inception_5b/double3x3_mid
I0905 21:57:33.396920 58545 net.cpp:110] Creating Layer inception_5b/double3x3_mid
I0905 21:57:33.396925 58545 net.cpp:477] inception_5b/double3x3_mid <- inception_5b/double3x3_reduce
I0905 21:57:33.396934 58545 net.cpp:433] inception_5b/double3x3_mid -> inception_5b/double3x3_mid
I0905 21:57:33.413390 58545 net.cpp:155] Setting up inception_5b/double3x3_mid
I0905 21:57:33.413406 58545 net.cpp:163] Top shape: 50 224 7 7 (548800)
I0905 21:57:33.413415 58545 layer_factory.hpp:76] Creating layer inception_5b/relu_double3x3_mid
I0905 21:57:33.413422 58545 net.cpp:110] Creating Layer inception_5b/relu_double3x3_mid
I0905 21:57:33.413427 58545 net.cpp:477] inception_5b/relu_double3x3_mid <- inception_5b/double3x3_mid
I0905 21:57:33.413439 58545 net.cpp:419] inception_5b/relu_double3x3_mid -> inception_5b/double3x3_mid (in-place)
I0905 21:57:33.413446 58545 net.cpp:155] Setting up inception_5b/relu_double3x3_mid
I0905 21:57:33.413452 58545 net.cpp:163] Top shape: 50 224 7 7 (548800)
I0905 21:57:33.413456 58545 layer_factory.hpp:76] Creating layer inception_5b/double3x3
I0905 21:57:33.413465 58545 net.cpp:110] Creating Layer inception_5b/double3x3
I0905 21:57:33.413467 58545 net.cpp:477] inception_5b/double3x3 <- inception_5b/double3x3_mid
I0905 21:57:33.413476 58545 net.cpp:433] inception_5b/double3x3 -> inception_5b/double3x3
I0905 21:57:33.432620 58545 net.cpp:155] Setting up inception_5b/double3x3
I0905 21:57:33.432636 58545 net.cpp:163] Top shape: 50 224 7 7 (548800)
I0905 21:57:33.432644 58545 layer_factory.hpp:76] Creating layer inception_5b/relu_double3x3
I0905 21:57:33.432653 58545 net.cpp:110] Creating Layer inception_5b/relu_double3x3
I0905 21:57:33.432658 58545 net.cpp:477] inception_5b/relu_double3x3 <- inception_5b/double3x3
I0905 21:57:33.432665 58545 net.cpp:419] inception_5b/relu_double3x3 -> inception_5b/double3x3 (in-place)
I0905 21:57:33.432673 58545 net.cpp:155] Setting up inception_5b/relu_double3x3
I0905 21:57:33.432678 58545 net.cpp:163] Top shape: 50 224 7 7 (548800)
I0905 21:57:33.432682 58545 layer_factory.hpp:76] Creating layer inception_5b/pool
I0905 21:57:33.432689 58545 net.cpp:110] Creating Layer inception_5b/pool
I0905 21:57:33.432693 58545 net.cpp:477] inception_5b/pool <- inception_5a/output_inception_5a/output_0_split_3
I0905 21:57:33.432700 58545 net.cpp:433] inception_5b/pool -> inception_5b/pool
I0905 21:57:33.432713 58545 net.cpp:155] Setting up inception_5b/pool
I0905 21:57:33.432718 58545 net.cpp:163] Top shape: 50 1024 7 7 (2508800)
I0905 21:57:33.432723 58545 layer_factory.hpp:76] Creating layer inception_5b/pool_proj
I0905 21:57:33.432730 58545 net.cpp:110] Creating Layer inception_5b/pool_proj
I0905 21:57:33.432735 58545 net.cpp:477] inception_5b/pool_proj <- inception_5b/pool
I0905 21:57:33.432744 58545 net.cpp:433] inception_5b/pool_proj -> inception_5b/pool_proj
I0905 21:57:33.438700 58545 net.cpp:155] Setting up inception_5b/pool_proj
I0905 21:57:33.438715 58545 net.cpp:163] Top shape: 50 128 7 7 (313600)
I0905 21:57:33.438724 58545 layer_factory.hpp:76] Creating layer inception_5b/relu_pool_proj
I0905 21:57:33.438732 58545 net.cpp:110] Creating Layer inception_5b/relu_pool_proj
I0905 21:57:33.438737 58545 net.cpp:477] inception_5b/relu_pool_proj <- inception_5b/pool_proj
I0905 21:57:33.438745 58545 net.cpp:419] inception_5b/relu_pool_proj -> inception_5b/pool_proj (in-place)
I0905 21:57:33.438752 58545 net.cpp:155] Setting up inception_5b/relu_pool_proj
I0905 21:57:33.438757 58545 net.cpp:163] Top shape: 50 128 7 7 (313600)
I0905 21:57:33.438761 58545 layer_factory.hpp:76] Creating layer inception_5b/output
I0905 21:57:33.438768 58545 net.cpp:110] Creating Layer inception_5b/output
I0905 21:57:33.438772 58545 net.cpp:477] inception_5b/output <- inception_5b/1x1
I0905 21:57:33.438777 58545 net.cpp:477] inception_5b/output <- inception_5b/3x3
I0905 21:57:33.438782 58545 net.cpp:477] inception_5b/output <- inception_5b/double3x3
I0905 21:57:33.438787 58545 net.cpp:477] inception_5b/output <- inception_5b/pool_proj
I0905 21:57:33.438807 58545 net.cpp:433] inception_5b/output -> inception_5b/output
I0905 21:57:33.438817 58545 net.cpp:155] Setting up inception_5b/output
I0905 21:57:33.438822 58545 net.cpp:163] Top shape: 50 1024 7 7 (2508800)
I0905 21:57:33.438827 58545 layer_factory.hpp:76] Creating layer pool5/7x7_s1
I0905 21:57:33.438838 58545 net.cpp:110] Creating Layer pool5/7x7_s1
I0905 21:57:33.438841 58545 net.cpp:477] pool5/7x7_s1 <- inception_5b/output
I0905 21:57:33.438848 58545 net.cpp:433] pool5/7x7_s1 -> pool5/7x7_s1
I0905 21:57:33.438858 58545 net.cpp:155] Setting up pool5/7x7_s1
I0905 21:57:33.438863 58545 net.cpp:163] Top shape: 50 1024 1 1 (51200)
I0905 21:57:33.438868 58545 layer_factory.hpp:76] Creating layer pool5/drop_7x7_s1
I0905 21:57:33.438874 58545 net.cpp:110] Creating Layer pool5/drop_7x7_s1
I0905 21:57:33.438877 58545 net.cpp:477] pool5/drop_7x7_s1 <- pool5/7x7_s1
I0905 21:57:33.438884 58545 net.cpp:419] pool5/drop_7x7_s1 -> pool5/7x7_s1 (in-place)
I0905 21:57:33.438894 58545 net.cpp:155] Setting up pool5/drop_7x7_s1
I0905 21:57:33.438899 58545 net.cpp:163] Top shape: 50 1024 1 1 (51200)
I0905 21:57:33.438904 58545 layer_factory.hpp:76] Creating layer loss3/classifier
I0905 21:57:33.438912 58545 net.cpp:110] Creating Layer loss3/classifier
I0905 21:57:33.438916 58545 net.cpp:477] loss3/classifier <- pool5/7x7_s1
I0905 21:57:33.438925 58545 net.cpp:433] loss3/classifier -> loss3/classifier
I0905 21:57:33.482082 58545 net.cpp:155] Setting up loss3/classifier
I0905 21:57:33.482100 58545 net.cpp:163] Top shape: 50 1000 (50000)
I0905 21:57:33.482108 58545 layer_factory.hpp:76] Creating layer loss3/classifier_loss3/classifier_0_split
I0905 21:57:33.482118 58545 net.cpp:110] Creating Layer loss3/classifier_loss3/classifier_0_split
I0905 21:57:33.482123 58545 net.cpp:477] loss3/classifier_loss3/classifier_0_split <- loss3/classifier
I0905 21:57:33.482131 58545 net.cpp:433] loss3/classifier_loss3/classifier_0_split -> loss3/classifier_loss3/classifier_0_split_0
I0905 21:57:33.482139 58545 net.cpp:433] loss3/classifier_loss3/classifier_0_split -> loss3/classifier_loss3/classifier_0_split_1
I0905 21:57:33.482147 58545 net.cpp:433] loss3/classifier_loss3/classifier_0_split -> loss3/classifier_loss3/classifier_0_split_2
I0905 21:57:33.482156 58545 net.cpp:155] Setting up loss3/classifier_loss3/classifier_0_split
I0905 21:57:33.482161 58545 net.cpp:163] Top shape: 50 1000 (50000)
I0905 21:57:33.482166 58545 net.cpp:163] Top shape: 50 1000 (50000)
I0905 21:57:33.482169 58545 net.cpp:163] Top shape: 50 1000 (50000)
I0905 21:57:33.482173 58545 layer_factory.hpp:76] Creating layer loss3/loss3
I0905 21:57:33.482179 58545 net.cpp:110] Creating Layer loss3/loss3
I0905 21:57:33.482183 58545 net.cpp:477] loss3/loss3 <- loss3/classifier_loss3/classifier_0_split_0
I0905 21:57:33.482189 58545 net.cpp:477] loss3/loss3 <- label_data_1_split_6
I0905 21:57:33.482195 58545 net.cpp:433] loss3/loss3 -> loss3/loss3
…
