…
I0905 23:47:57.294875 84240 net.cpp:339] The NetState phase (0) differed from the phase (1) specified by a rule in layer loss3/top-5
I0905 23:47:57.295989 84240 net.cpp:50] Initializing net from parameters: 
name: "Inception_6"
state {
  phase: TRAIN
}
layer {
  name: "data"
  type: "Data"
  top: "data"
  top: "label"
  include {
    phase: TRAIN
  }
  transform_param {
    mirror: true
    crop_size: 224
    mean_value: 104
    mean_value: 117
    mean_value: 123
  }
  data_param {
    source: "/ssd/ilsvrc2012/ilsvrc12_train_lmdb"
    batch_size: 32
    backend: LMDB
  }
}
layer {
  name: "conv1/7x7_s2"
  type: "Convolution"
  bottom: "data"
  top: "conv1/7x7_s2"
  param {
    lr_mult: 1
    decay_mult: 1
  }
  param {
    lr_mult: 2
    decay_mult: 0
  }
  convolution_param {
    num_output: 64
    pad: 3
    kernel_size: 7
    stride: 2
    weight_filler {
      type: "xavier"
    }
    bias_filler {
      type: "constant"
      value: 0.2
    }
  }
}
layer {
  name: "conv1/relu_7x7"
  type: "ReLU"
  bottom: "conv1/7x7_s2"
  top: "conv1/7x7_s2"
}
layer {
  name: "pool1/3x3_s2"
  type: "Pooling"
  bottom: "conv1/7x7_s2"
  top: "pool1/3x3_s2"
  pooling_param {
    pool: MAX
    kernel_size: 3
    stride: 2
  }
}
layer {
  name: "pool1/norm1"
  type: "LRN"
  bottom: "pool1/3x3_s2"
  top: "pool1/norm1"
  lrn_param {
    local_size: 5
    alpha: 0.0001
    beta: 0.75
  }
}
layer {
  name: "conv2/3x3_reduce"
  type: "Convolution"
  bottom: "pool1/norm1"
  top: "conv2/3x3_reduce"
  param {
    lr_mult: 1
    decay_mult: 1
  }
  param {
    lr_mult: 2
    decay_mult: 0
  }
  convolution_param {
    num_output: 64
    kernel_size: 1
    weight_filler {
      type: "xavier"
    }
    bias_filler {
      type: "constant"
      value: 0.2
    }
  }
}
layer {
  name: "conv2/relu_3x3_reduce"
  type: "ReLU"
  bottom: "conv2/3x3_reduce"
  top: "conv2/3x3_reduce"
}
layer {
  name: "conv2/3x3"
  type: "Convolution"
  bottom: "conv2/3x3_reduce"
  top: "conv2/3x3"
  param {
    lr_mult: 1
    decay_mult: 1
  }
  param {
    lr_mult: 2
    decay_mult: 0
  }
  convolution_param {
    num_output: 192
    pad: 1
    kernel_size: 3
    weight_filler {
      type: "xavier"
    }
    bias_filler {
      type: "constant"
      value: 0.2
    }
  }
}
layer {
  name: "conv2/relu_3x3"
  type: "ReLU"
  bottom: "conv2/3x3"
  top: "conv2/3x3"
}
layer {
  name: "conv2/norm2"
  type: "LRN"
  bottom: "conv2/3x3"
  top: "conv2/norm2"
  lrn_param {
    local_size: 5
    alpha: 0.0001
    beta: 0.75
  }
}
layer {
  name: "pool2/3x3_s2"
  type: "Pooling"
  bottom: "conv2/norm2"
  top: "pool2/3x3_s2"
  pooling_param {
    pool: MAX
    kernel_size: 3
    stride: 2
  }
}
layer {
  name: "inception_3a/1x1"
  type: "Convolution"
  bottom: "pool2/3x3_s2"
  top: "inception_3a/1x1"
  param {
    lr_mult: 1
    decay_mult: 1
  }
  param {
    lr_mult: 2
    decay_mult: 0
  }
  convolution_param {
    num_output: 64
    kernel_size: 1
    weight_filler {
      type: "xavier"
    }
    bias_filler {
      type: "constant"
      value: 0.2
    }
  }
}
layer {
  name: "inception_3a/relu_1x1"
  type: "ReLU"
  bottom: "inception_3a/1x1"
  top: "inception_3a/1x1"
}
layer {
  name: "inception_3a/3x3_reduce"
  type: "Convolution"
  bottom: "pool2/3x3_s2"
  top: "inception_3a/3x3_reduce"
  param {
    lr_mult: 1
    decay_mult: 1
  }
  param {
    lr_mult: 2
    decay_mult: 0
  }
  convolution_param {
    num_output: 64
    kernel_size: 1
    weight_filler {
      type: "xavier"
    }
    bias_filler {
      type: "constant"
      value: 0.2
    }
  }
}
layer {
  name: "inception_3a/relu_3x3_reduce"
  type: "ReLU"
  bottom: "inception_3a/3x3_reduce"
  top: "inception_3a/3x3_reduce"
}
layer {
  name: "inception_3a/3x3"
  type: "Convolution"
  bottom: "inception_3a/3x3_reduce"
  top: "inception_3a/3x3"
  param {
    lr_mult: 1
    decay_mult: 1
  }
  param {
    lr_mult: 2
    decay_mult: 0
  }
  convolution_param {
    num_output: 64
    pad: 1
    kernel_size: 3
    weight_filler {
      type: "xavier"
    }
    bias_filler {
      type: "constant"
      value: 0.2
    }
  }
}
layer {
  name: "inception_3a/relu_3x3"
  type: "ReLU"
  bottom: "inception_3a/3x3"
  top: "inception_3a/3x3"
}
layer {
  name: "inception_3a/double3x3_reduce"
  type: "Convolution"
  bottom: "pool2/3x3_s2"
  top: "inception_3a/double3x3_reduce"
  param {
    lr_mult: 1
    decay_mult: 1
  }
  param {
    lr_mult: 2
    decay_mult: 0
  }
  convolution_param {
    num_output: 64
    kernel_size: 1
    weight_filler {
      type: "xavier"
    }
    bias_filler {
      type: "constant"
      value: 0.2
    }
  }
}
layer {
  name: "inception_3a/relu_double3x3_reduce"
  type: "ReLU"
  bottom: "inception_3a/double3x3_reduce"
  top: "inception_3a/double3x3_reduce"
}
layer {
  name: "inception_3a/double3x3_mid"
  type: "Convolution"
  bottom: "inception_3a/double3x3_reduce"
  top: "inception_3a/double3x3_mid"
  param {
    lr_mult: 1
    decay_mult: 1
  }
  param {
    lr_mult: 2
    decay_mult: 0
  }
  convolution_param {
    num_output: 96
    pad: 1
    kernel_size: 3
    weight_filler {
      type: "xavier"
    }
    bias_filler {
      type: "constant"
      value: 0.2
    }
  }
}
layer {
  name: "inception_3a/relu_double3x3_mid"
  type: "ReLU"
  bottom: "inception_3a/double3x3_mid"
  top: "inception_3a/double3x3_mid"
}
layer {
  name: "inception_3a/double3x3"
  type: "Convolution"
  bottom: "inception_3a/double3x3_mid"
  top: "inception_3a/double3x3"
  param {
    lr_mult: 1
    decay_mult: 1
  }
  param {
    lr_mult: 2
    decay_mult: 0
  }
  convolution_param {
    num_output: 96
    pad: 1
    kernel_size: 3
    weight_filler {
      type: "xavier"
    }
    bias_filler {
      type: "constant"
      value: 0.2
    }
  }
}
layer {
  name: "inception_3a/relu_double3x3"
  type: "ReLU"
  bottom: "inception_3a/double3x3"
  top: "inception_3a/double3x3"
}
layer {
  name: "inception_3a/pool"
  type: "Pooling"
  bottom: "pool2/3x3_s2"
  top: "inception_3a/pool"
  pooling_param {
    pool: AVE
    kernel_size: 3
    stride: 1
    pad: 1
  }
}
layer {
  name: "inception_3a/pool_proj"
  type: "Convolution"
  bottom: "inception_3a/pool"
  top: "inception_3a/pool_proj"
  param {
    lr_mult: 1
    decay_mult: 1
  }
  param {
    lr_mult: 2
    decay_mult: 0
  }
  convolution_param {
    num_output: 32
    kernel_size: 1
    weight_filler {
      type: "xavier"
    }
    bias_filler {
      type: "constant"
      value: 0.2
    }
  }
}
layer {
  name: "inception_3a/relu_pool_proj"
  type: "ReLU"
  bottom: "inception_3a/pool_proj"
  top: "inception_3a/pool_proj"
}
layer {
  name: "inception_3a/output"
  type: "Concat"
  bottom: "inception_3a/1x1"
  bottom: "inception_3a/3x3"
  bottom: "inception_3a/double3x3"
  bottom: "inception_3a/pool_proj"
  top: "inception_3a/output"
}
layer {
  name: "inception_3b/1x1"
  type: "Convolution"
  bottom: "inception_3a/output"
  top: "inception_3b/1x1"
  param {
    lr_mult: 1
    decay_mult: 1
  }
  param {
    lr_mult: 2
    decay_mult: 0
  }
  convolution_param {
    num_output: 64
    kernel_size: 1
    weight_filler {
      type: "xavier"
    }
    bias_filler {
      type: "constant"
      value: 0.2
    }
  }
}
layer {
  name: "inception_3b/relu_1x1"
  type: "ReLU"
  bottom: "inception_3b/1x1"
  top: "inception_3b/1x1"
}
layer {
  name: "inception_3b/3x3_reduce"
  type: "Convolution"
  bottom: "inception_3a/output"
  top: "inception_3b/3x3_reduce"
  param {
    lr_mult: 1
    decay_mult: 1
  }
  param {
    lr_mult: 2
    decay_mult: 0
  }
  convolution_param {
    num_output: 64
    kernel_size: 1
    weight_filler {
      type: "xavier"
    }
    bias_filler {
      type: "constant"
      value: 0.2
    }
  }
}
layer {
  name: "inception_3b/relu_3x3_reduce"
  type: "ReLU"
  bottom: "inception_3b/3x3_reduce"
  top: "inception_3b/3x3_reduce"
}
layer {
  name: "inception_3b/3x3"
  type: "Convolution"
  bottom: "inception_3b/3x3_reduce"
  top: "inception_3b/3x3"
  param {
    lr_mult: 1
    decay_mult: 1
  }
  param {
    lr_mult: 2
    decay_mult: 0
  }
  convolution_param {
    num_output: 96
    pad: 1
    kernel_size: 3
    weight_filler {
      type: "xavier"
    }
    bias_filler {
      type: "constant"
      value: 0.2
    }
  }
}
layer {
  name: "inception_3b/relu_3x3"
  type: "ReLU"
  bottom: "inception_3b/3x3"
  top: "inception_3b/3x3"
}
layer {
  name: "inception_3b/double3x3_reduce"
  type: "Convolution"
  bottom: "inception_3a/output"
  top: "inception_3b/double3x3_reduce"
  param {
    lr_mult: 1
    decay_mult: 1
  }
  param {
    lr_mult: 2
    decay_mult: 0
  }
  convolution_param {
    num_output: 64
    kernel_size: 1
    weight_filler {
      type: "xavier"
    }
    bias_filler {
      type: "constant"
      value: 0.2
    }
  }
}
layer {
  name: "inception_3b/relu_double3x3_reduce"
  type: "ReLU"
  bottom: "inception_3b/double3x3_reduce"
  top: "inception_3b/double3x3_reduce"
}
layer {
  name: "inception_3b/double3x3_mid"
  type: "Convolution"
  bottom: "inception_3b/double3x3_reduce"
  top: "inception_3b/double3x3_mid"
  param {
    lr_mult: 1
    decay_mult: 1
  }
  param {
    lr_mult: 2
    decay_mult: 0
  }
  convolution_param {
    num_output: 96
    pad: 1
    kernel_size: 3
    weight_filler {
      type: "xavier"
    }
    bias_filler {
      type: "constant"
      value: 0.2
    }
  }
}
layer {
  name: "inception_3b/relu_double3x3_mid"
  type: "ReLU"
  bottom: "inception_3b/double3x3_mid"
  top: "inception_3b/double3x3_mid"
}
layer {
  name: "inception_3b/double3x3"
  type: "Convolution"
  bottom: "inception_3b/double3x3_mid"
  top: "inception_3b/double3x3"
  param {
    lr_mult: 1
    decay_mult: 1
  }
  param {
    lr_mult: 2
    decay_mult: 0
  }
  convolution_param {
    num_output: 96
    pad: 1
    kernel_size: 3
    weight_filler {
      type: "xavier"
    }
    bias_filler {
      type: "constant"
      value: 0.2
    }
  }
}
layer {
  name: "inception_3b/relu_double3x3"
  type: "ReLU"
  bottom: "inception_3b/double3x3"
  top: "inception_3b/double3x3"
}
layer {
  name: "inception_3b/pool"
  type: "Pooling"
  bottom: "inception_3a/output"
  top: "inception_3b/pool"
  pooling_param {
    pool: AVE
    kernel_size: 3
    stride: 1
    pad: 1
  }
}
layer {
  name: "inception_3b/pool_proj"
  type: "Convolution"
  bottom: "inception_3b/pool"
  top: "inception_3b/pool_proj"
  param {
    lr_mult: 1
    decay_mult: 1
  }
  param {
    lr_mult: 2
    decay_mult: 0
  }
  convolution_param {
    num_output: 64
    kernel_size: 1
    weight_filler {
      type: "xavier"
    }
    bias_filler {
      type: "constant"
      value: 0.2
    }
  }
}
layer {
  name: "inception_3b/relu_pool_proj"
  type: "ReLU"
  bottom: "inception_3b/pool_proj"
  top: "inception_3b/pool_proj"
}
layer {
  name: "inception_3b/output"
  type: "Concat"
  bottom: "inception_3b/1x1"
  bottom: "inception_3b/3x3"
  bottom: "inception_3b/double3x3"
  bottom: "inception_3b/pool_proj"
  top: "inception_3b/output"
}
layer {
  name: "inception_3c/3x3_reduce"
  type: "Convolution"
  bottom: "inception_3b/output"
  top: "inception_3c/3x3_reduce"
  param {
    lr_mult: 1
    decay_mult: 1
  }
  param {
    lr_mult: 2
    decay_mult: 0
  }
  convolution_param {
    num_output: 128
    kernel_size: 1
    weight_filler {
      type: "xavier"
    }
    bias_filler {
      type: "constant"
      value: 0.2
    }
  }
}
layer {
  name: "inception_3c/relu_3x3_reduce"
  type: "ReLU"
  bottom: "inception_3c/3x3_reduce"
  top: "inception_3c/3x3_reduce"
}
layer {
  name: "inception_3c/3x3_s2"
  type: "Convolution"
  bottom: "inception_3c/3x3_reduce"
  top: "inception_3c/3x3_s2"
  param {
    lr_mult: 1
    decay_mult: 1
  }
  param {
    lr_mult: 2
    decay_mult: 0
  }
  convolution_param {
    num_output: 160
    pad: 1
    kernel_size: 3
    stride: 2
    weight_filler {
      type: "xavier"
    }
    bias_filler {
      type: "constant"
      value: 0.2
    }
  }
}
layer {
  name: "inception_3c/relu_3x3"
  type: "ReLU"
  bottom: "inception_3c/3x3_s2"
  top: "inception_3c/3x3_s2"
}
layer {
  name: "inception_3c/double3x3_reduce"
  type: "Convolution"
  bottom: "inception_3b/output"
  top: "inception_3c/double3x3_reduce"
  param {
    lr_mult: 1
    decay_mult: 1
  }
  param {
    lr_mult: 2
    decay_mult: 0
  }
  convolution_param {
    num_output: 64
    kernel_size: 1
    weight_filler {
      type: "xavier"
    }
    bias_filler {
      type: "constant"
      value: 0.2
    }
  }
}
layer {
  name: "inception_3c/relu_double3x3_reduce"
  type: "ReLU"
  bottom: "inception_3c/double3x3_reduce"
  top: "inception_3c/double3x3_reduce"
}
layer {
  name: "inception_3c/double3x3_mid"
  type: "Convolution"
  bottom: "inception_3c/double3x3_reduce"
  top: "inception_3c/double3x3_mid"
  param {
    lr_mult: 1
    decay_mult: 1
  }
  param {
    lr_mult: 2
    decay_mult: 0
  }
  convolution_param {
    num_output: 96
    pad: 1
    kernel_size: 3
    weight_filler {
      type: "xavier"
    }
    bias_filler {
      type: "constant"
      value: 0.2
    }
  }
}
layer {
  name: "inception_3c/relu_double3x3_mid"
  type: "ReLU"
  bottom: "inception_3c/double3x3_mid"
  top: "inception_3c/double3x3_mid"
}
layer {
  name: "inception_3c/double3x3"
  type: "Convolution"
  bottom: "inception_3c/double3x3_mid"
  top: "inception_3c/double3x3_s2"
  param {
    lr_mult: 1
    decay_mult: 1
  }
  param {
    lr_mult: 2
    decay_mult: 0
  }
  convolution_param {
    num_output: 96
    pad: 1
    kernel_size: 3
    stride: 2
    weight_filler {
      type: "xavier"
    }
    bias_filler {
      type: "constant"
      value: 0.2
    }
  }
}
layer {
  name: "inception_3c/relu_double3x3"
  type: "ReLU"
  bottom: "inception_3c/double3x3_s2"
  top: "inception_3c/double3x3_s2"
}
layer {
  name: "inception_3c/pool"
  type: "Pooling"
  bottom: "inception_3b/output"
  top: "inception_3c/pool"
  pooling_param {
    pool: MAX
    kernel_size: 3
    stride: 2
  }
}
layer {
  name: "inception_3c/relu_pool"
  type: "ReLU"
  bottom: "inception_3c/pool"
  top: "inception_3c/pool"
}
layer {
  name: "inception_3c/output"
  type: "Concat"
  bottom: "inception_3c/3x3_s2"
  bottom: "inception_3c/double3x3_s2"
  bottom: "inception_3c/pool"
  top: "inception_3c/output"
}
layer {
  name: "inception_4a/1x1"
  type: "Convolution"
  bottom: "inception_3c/output"
  top: "inception_4a/1x1"
  param {
    lr_mult: 1
    decay_mult: 1
  }
  param {
    lr_mult: 2
    decay_mult: 0
  }
  convolution_param {
    num_output: 224
    kernel_size: 1
    weight_filler {
      type: "xavier"
    }
    bias_filler {
      type: "constant"
      value: 0.2
    }
  }
}
layer {
  name: "inception_4a/relu_1x1"
  type: "ReLU"
  bottom: "inception_4a/1x1"
  top: "inception_4a/1x1"
}
layer {
  name: "inception_4a/3x3_reduce"
  type: "Convolution"
  bottom: "inception_3c/output"
  top: "inception_4a/3x3_reduce"
  param {
    lr_mult: 1
    decay_mult: 1
  }
  param {
    lr_mult: 2
    decay_mult: 0
  }
  convolution_param {
    num_output: 64
    kernel_size: 1
    weight_filler {
      type: "xavier"
    }
    bias_filler {
      type: "constant"
      value: 0.2
    }
  }
}
layer {
  name: "inception_4a/relu_3x3_reduce"
  type: "ReLU"
  bottom: "inception_4a/3x3_reduce"
  top: "inception_4a/3x3_reduce"
}
layer {
  name: "inception_4a/3x3"
  type: "Convolution"
  bottom: "inception_4a/3x3_reduce"
  top: "inception_4a/3x3"
  param {
    lr_mult: 1
    decay_mult: 1
  }
  param {
    lr_mult: 2
    decay_mult: 0
  }
  convolution_param {
    num_output: 96
    pad: 1
    kernel_size: 3
    weight_filler {
      type: "xavier"
    }
    bias_filler {
      type: "constant"
      value: 0.2
    }
  }
}
layer {
  name: "inception_4a/relu_3x3"
  type: "ReLU"
  bottom: "inception_4a/3x3"
  top: "inception_4a/3x3"
}
layer {
  name: "inception_4a/double3x3_reduce"
  type: "Convolution"
  bottom: "inception_3c/output"
  top: "inception_4a/double3x3_reduce"
  param {
    lr_mult: 1
    decay_mult: 1
  }
  param {
    lr_mult: 2
    decay_mult: 0
  }
  convolution_param {
    num_output: 96
    kernel_size: 1
    weight_filler {
      type: "xavier"
    }
    bias_filler {
      type: "constant"
      value: 0.2
    }
  }
}
layer {
  name: "inception_4a/relu_double3x3_reduce"
  type: "ReLU"
  bottom: "inception_4a/double3x3_reduce"
  top: "inception_4a/double3x3_reduce"
}
layer {
  name: "inception_4a/double3x3_mid"
  type: "Convolution"
  bottom: "inception_4a/double3x3_reduce"
  top: "inception_4a/double3x3_mid"
  param {
    lr_mult: 1
    decay_mult: 1
  }
  param {
    lr_mult: 2
    decay_mult: 0
  }
  convolution_param {
    num_output: 128
    pad: 1
    kernel_size: 3
    weight_filler {
      type: "xavier"
    }
    bias_filler {
      type: "constant"
      value: 0.2
    }
  }
}
layer {
  name: "inception_4a/relu_double3x3_mid"
  type: "ReLU"
  bottom: "inception_4a/double3x3_mid"
  top: "inception_4a/double3x3_mid"
}
layer {
  name: "inception_4a/double3x3"
  type: "Convolution"
  bottom: "inception_4a/double3x3_mid"
  top: "inception_4a/double3x3"
  param {
    lr_mult: 1
    decay_mult: 1
  }
  param {
    lr_mult: 2
    decay_mult: 0
  }
  convolution_param {
    num_output: 128
    pad: 1
    kernel_size: 3
    weight_filler {
      type: "xavier"
    }
    bias_filler {
      type: "constant"
      value: 0.2
    }
  }
}
layer {
  name: "inception_4a/relu_double3x3"
  type: "ReLU"
  bottom: "inception_4a/double3x3"
  top: "inception_4a/double3x3"
}
layer {
  name: "inception_4a/pool"
  type: "Pooling"
  bottom: "inception_3c/output"
  top: "inception_4a/pool"
  pooling_param {
    pool: AVE
    kernel_size: 3
    stride: 1
    pad: 1
  }
}
layer {
  name: "inception_4a/pool_proj"
  type: "Convolution"
  bottom: "inception_4a/pool"
  top: "inception_4a/pool_proj"
  param {
    lr_mult: 1
    decay_mult: 1
  }
  param {
    lr_mult: 2
    decay_mult: 0
  }
  convolution_param {
    num_output: 128
    kernel_size: 1
    weight_filler {
      type: "xavier"
    }
    bias_filler {
      type: "constant"
      value: 0.2
    }
  }
}
layer {
  name: "inception_4a/relu_pool_proj"
  type: "ReLU"
  bottom: "inception_4a/pool_proj"
  top: "inception_4a/pool_proj"
}
layer {
  name: "inception_4a/output"
  type: "Concat"
  bottom: "inception_4a/1x1"
  bottom: "inception_4a/3x3"
  bottom: "inception_4a/double3x3"
  bottom: "inception_4a/pool_proj"
  top: "inception_4a/output"
}
layer {
  name: "loss1/ave_pool"
  type: "Pooling"
  bottom: "inception_4a/output"
  top: "loss1/ave_pool"
  pooling_param {
    pool: AVE
    kernel_size: 5
    stride: 3
  }
}
layer {
  name: "loss1/conv"
  type: "Convolution"
  bottom: "loss1/ave_pool"
  top: "loss1/conv"
  param {
    lr_mult: 1
    decay_mult: 1
  }
  param {
    lr_mult: 2
    decay_mult: 0
  }
  convolution_param {
    num_output: 128
    kernel_size: 1
    weight_filler {
      type: "xavier"
    }
    bias_filler {
      type: "constant"
      value: 0.2
    }
  }
}
layer {
  name: "loss1/relu_conv"
  type: "ReLU"
  bottom: "loss1/conv"
  top: "loss1/conv"
}
layer {
  name: "loss1/fc"
  type: "InnerProduct"
  bottom: "loss1/conv"
  top: "loss1/fc"
  param {
    lr_mult: 1
    decay_mult: 1
  }
  param {
    lr_mult: 2
    decay_mult: 0
  }
  inner_product_param {
    num_output: 1024
    weight_filler {
      type: "xavier"
    }
    bias_filler {
      type: "constant"
      value: 0.2
    }
  }
}
layer {
  name: "loss1/relu_fc"
  type: "ReLU"
  bottom: "loss1/fc"
  top: "loss1/fc"
}
layer {
  name: "loss1/drop_fc"
  type: "Dropout"
  bottom: "loss1/fc"
  top: "loss1/fc"
  dropout_param {
    dropout_ratio: 0.7
  }
}
layer {
  name: "loss1/classifier"
  type: "InnerProduct"
  bottom: "loss1/fc"
  top: "loss1/classifier"
  param {
    lr_mult: 1
    decay_mult: 1
  }
  param {
    lr_mult: 2
    decay_mult: 0
  }
  inner_product_param {
    num_output: 1000
    weight_filler {
      type: "xavier"
    }
    bias_filler {
      type: "constant"
      value: 0
    }
  }
}
layer {
  name: "loss1/loss"
  type: "SoftmaxWithLoss"
  bottom: "loss1/classifier"
  bottom: "label"
  top: "loss1/loss1"
  loss_weight: 0.3
}
layer {
  name: "inception_4b/1x1"
  type: "Convolution"
  bottom: "inception_4a/output"
  top: "inception_4b/1x1"
  param {
    lr_mult: 1
    decay_mult: 1
  }
  param {
    lr_mult: 2
    decay_mult: 0
  }
  convolution_param {
    num_output: 192
    kernel_size: 1
    weight_filler {
      type: "xavier"
    }
    bias_filler {
      type: "constant"
      value: 0.2
    }
  }
}
layer {
  name: "inception_4b/relu_1x1"
  type: "ReLU"
  bottom: "inception_4b/1x1"
  top: "inception_4b/1x1"
}
layer {
  name: "inception_4b/3x3_reduce"
  type: "Convolution"
  bottom: "inception_4a/output"
  top: "inception_4b/3x3_reduce"
  param {
    lr_mult: 1
    decay_mult: 1
  }
  param {
    lr_mult: 2
    decay_mult: 0
  }
  convolution_param {
    num_output: 96
    kernel_size: 1
    weight_filler {
      type: "xavier"
    }
    bias_filler {
      type: "constant"
      value: 0.2
    }
  }
}
layer {
  name: "inception_4b/relu_3x3_reduce"
  type: "ReLU"
  bottom: "inception_4b/3x3_reduce"
  top: "inception_4b/3x3_reduce"
}
layer {
  name: "inception_4b/3x3"
  type: "Convolution"
  bottom: "inception_4b/3x3_reduce"
  top: "inception_4b/3x3"
  param {
    lr_mult: 1
    decay_mult: 1
  }
  param {
    lr_mult: 2
    decay_mult: 0
  }
  convolution_param {
    num_output: 128
    pad: 1
    kernel_size: 3
    weight_filler {
      type: "xavier"
    }
    bias_filler {
      type: "constant"
      value: 0.2
    }
  }
}
layer {
  name: "inception_4b/relu_3x3"
  type: "ReLU"
  bottom: "inception_4b/3x3"
  top: "inception_4b/3x3"
}
layer {
  name: "inception_4b/double3x3_reduce"
  type: "Convolution"
  bottom: "inception_4a/output"
  top: "inception_4b/double3x3_reduce"
  param {
    lr_mult: 1
    decay_mult: 1
  }
  param {
    lr_mult: 2
    decay_mult: 0
  }
  convolution_param {
    num_output: 96
    kernel_size: 1
    weight_filler {
      type: "xavier"
    }
    bias_filler {
      type: "constant"
      value: 0.2
    }
  }
}
layer {
  name: "inception_4b/relu_double3x3_reduce"
  type: "ReLU"
  bottom: "inception_4b/double3x3_reduce"
  top: "inception_4b/double3x3_reduce"
}
layer {
  name: "inception_4b/double3x3_mid"
  type: "Convolution"
  bottom: "inception_4b/double3x3_reduce"
  top: "inception_4b/double3x3_mid"
  param {
    lr_mult: 1
    decay_mult: 1
  }
  param {
    lr_mult: 2
    decay_mult: 0
  }
  convolution_param {
    num_output: 128
    pad: 1
    kernel_size: 3
    weight_filler {
      type: "xavier"
    }
    bias_filler {
      type: "constant"
      value: 0.2
    }
  }
}
layer {
  name: "inception_4b/relu_double3x3_mid"
  type: "ReLU"
  bottom: "inception_4b/double3x3_mid"
  top: "inception_4b/double3x3_mid"
}
layer {
  name: "inception_4b/double3x3"
  type: "Convolution"
  bottom: "inception_4b/double3x3_mid"
  top: "inception_4b/double3x3"
  param {
    lr_mult: 1
    decay_mult: 1
  }
  param {
    lr_mult: 2
    decay_mult: 0
  }
  convolution_param {
    num_output: 128
    pad: 1
    kernel_size: 3
    weight_filler {
      type: "xavier"
    }
    bias_filler {
      type: "constant"
      value: 0.2
    }
  }
}
layer {
  name: "inception_4b/relu_double3x3"
  type: "ReLU"
  bottom: "inception_4b/double3x3"
  top: "inception_4b/double3x3"
}
layer {
  name: "inception_4b/pool"
  type: "Pooling"
  bottom: "inception_4a/output"
  top: "inception_4b/pool"
  pooling_param {
    pool: AVE
    kernel_size: 3
    stride: 1
    pad: 1
  }
}
layer {
  name: "inception_4b/pool_proj"
  type: "Convolution"
  bottom: "inception_4b/pool"
  top: "inception_4b/pool_proj"
  param {
    lr_mult: 1
    decay_mult: 1
  }
  param {
    lr_mult: 2
    decay_mult: 0
  }
  convolution_param {
    num_output: 128
    kernel_size: 1
    weight_filler {
      type: "xavier"
    }
    bias_filler {
      type: "constant"
      value: 0.2
    }
  }
}
layer {
  name: "inception_4b/relu_pool_proj"
  type: "ReLU"
  bottom: "inception_4b/pool_proj"
  top: "inception_4b/pool_proj"
}
layer {
  name: "inception_4b/output"
  type: "Concat"
  bottom: "inception_4b/1x1"
  bottom: "inception_4b/3x3"
  bottom: "inception_4b/double3x3"
  bottom: "inception_4b/pool_proj"
  top: "inception_4b/output"
}
layer {
  name: "inception_4c/1x1"
  type: "Convolution"
  bottom: "inception_4b/output"
  top: "inception_4c/1x1"
  param {
    lr_mult: 1
    decay_mult: 1
  }
  param {
    lr_mult: 2
    decay_mult: 0
  }
  convolution_param {
    num_output: 160
    kernel_size: 1
    weight_filler {
      type: "xavier"
    }
    bias_filler {
      type: "constant"
      value: 0.2
    }
  }
}
layer {
  name: "inception_4c/relu_1x1"
  type: "ReLU"
  bottom: "inception_4c/1x1"
  top: "inception_4c/1x1"
}
layer {
  name: "inception_4c/3x3_reduce"
  type: "Convolution"
  bottom: "inception_4b/output"
  top: "inception_4c/3x3_reduce"
  param {
    lr_mult: 1
    decay_mult: 1
  }
  param {
    lr_mult: 2
    decay_mult: 0
  }
  convolution_param {
    num_output: 128
    kernel_size: 1
    weight_filler {
      type: "xavier"
    }
    bias_filler {
      type: "constant"
      value: 0.2
    }
  }
}
layer {
  name: "inception_4c/relu_3x3_reduce"
  type: "ReLU"
  bottom: "inception_4c/3x3_reduce"
  top: "inception_4c/3x3_reduce"
}
layer {
  name: "inception_4c/3x3"
  type: "Convolution"
  bottom: "inception_4c/3x3_reduce"
  top: "inception_4c/3x3"
  param {
    lr_mult: 1
    decay_mult: 1
  }
  param {
    lr_mult: 2
    decay_mult: 0
  }
  convolution_param {
    num_output: 160
    pad: 1
    kernel_size: 3
    weight_filler {
      type: "xavier"
    }
    bias_filler {
      type: "constant"
      value: 0.2
    }
  }
}
layer {
  name: "inception_4c/relu_3x3"
  type: "ReLU"
  bottom: "inception_4c/3x3"
  top: "inception_4c/3x3"
}
layer {
  name: "inception_4c/double3x3_reduce"
  type: "Convolution"
  bottom: "inception_4b/output"
  top: "inception_4c/double3x3_reduce"
  param {
    lr_mult: 1
    decay_mult: 1
  }
  param {
    lr_mult: 2
    decay_mult: 0
  }
  convolution_param {
    num_output: 128
    kernel_size: 1
    weight_filler {
      type: "xavier"
    }
    bias_filler {
      type: "constant"
      value: 0.2
    }
  }
}
layer {
  name: "inception_4c/relu_double3x3_reduce"
  type: "ReLU"
  bottom: "inception_4c/double3x3_reduce"
  top: "inception_4c/double3x3_reduce"
}
layer {
  name: "inception_4c/double3x3_mid"
  type: "Convolution"
  bottom: "inception_4c/double3x3_reduce"
  top: "inception_4c/double3x3_mid"
  param {
    lr_mult: 1
    decay_mult: 1
  }
  param {
    lr_mult: 2
    decay_mult: 0
  }
  convolution_param {
    num_output: 160
    pad: 1
    kernel_size: 3
    weight_filler {
      type: "xavier"
    }
    bias_filler {
      type: "constant"
      value: 0.2
    }
  }
}
layer {
  name: "inception_4c/relu_double3x3_mid"
  type: "ReLU"
  bottom: "inception_4c/double3x3_mid"
  top: "inception_4c/double3x3_mid"
}
layer {
  name: "inception_4c/double3x3"
  type: "Convolution"
  bottom: "inception_4c/double3x3_mid"
  top: "inception_4c/double3x3"
  param {
    lr_mult: 1
    decay_mult: 1
  }
  param {
    lr_mult: 2
    decay_mult: 0
  }
  convolution_param {
    num_output: 160
    pad: 1
    kernel_size: 3
    weight_filler {
      type: "xavier"
    }
    bias_filler {
      type: "constant"
      value: 0.2
    }
  }
}
layer {
  name: "inception_4c/relu_double3x3"
  type: "ReLU"
  bottom: "inception_4c/double3x3"
  top: "inception_4c/double3x3"
}
layer {
  name: "inception_4c/pool"
  type: "Pooling"
  bottom: "inception_4b/output"
  top: "inception_4c/pool"
  pooling_param {
    pool: AVE
    kernel_size: 3
    stride: 1
    pad: 1
  }
}
layer {
  name: "inception_4c/pool_proj"
  type: "Convolution"
  bottom: "inception_4c/pool"
  top: "inception_4c/pool_proj"
  param {
    lr_mult: 1
    decay_mult: 1
  }
  param {
    lr_mult: 2
    decay_mult: 0
  }
  convolution_param {
    num_output: 128
    kernel_size: 1
    weight_filler {
      type: "xavier"
    }
    bias_filler {
      type: "constant"
      value: 0.2
    }
  }
}
layer {
  name: "inception_4c/relu_pool_proj"
  type: "ReLU"
  bottom: "inception_4c/pool_proj"
  top: "inception_4c/pool_proj"
}
layer {
  name: "inception_4c/output"
  type: "Concat"
  bottom: "inception_4c/1x1"
  bottom: "inception_4c/3x3"
  bottom: "inception_4c/double3x3"
  bottom: "inception_4c/pool_proj"
  top: "inception_4c/output"
}
layer {
  name: "inception_4d/1x1"
  type: "Convolution"
  bottom: "inception_4c/output"
  top: "inception_4d/1x1"
  param {
    lr_mult: 1
    decay_mult: 1
  }
  param {
    lr_mult: 2
    decay_mult: 0
  }
  convolution_param {
    num_output: 96
    kernel_size: 1
    weight_filler {
      type: "xavier"
    }
    bias_filler {
      type: "constant"
      value: 0.2
    }
  }
}
layer {
  name: "inception_4d/relu_1x1"
  type: "ReLU"
  bottom: "inception_4d/1x1"
  top: "inception_4d/1x1"
}
layer {
  name: "inception_4d/3x3_reduce"
  type: "Convolution"
  bottom: "inception_4c/output"
  top: "inception_4d/3x3_reduce"
  param {
    lr_mult: 1
    decay_mult: 1
  }
  param {
    lr_mult: 2
    decay_mult: 0
  }
  convolution_param {
    num_output: 128
    kernel_size: 1
    weight_filler {
      type: "xavier"
    }
    bias_filler {
      type: "constant"
      value: 0.2
    }
  }
}
layer {
  name: "inception_4d/relu_3x3_reduce"
  type: "ReLU"
  bottom: "inception_4d/3x3_reduce"
  top: "inception_4d/3x3_reduce"
}
layer {
  name: "inception_4d/3x3"
  type: "Convolution"
  bottom: "inception_4d/3x3_reduce"
  top: "inception_4d/3x3"
  param {
    lr_mult: 1
    decay_mult: 1
  }
  param {
    lr_mult: 2
    decay_mult: 0
  }
  convolution_param {
    num_output: 192
    pad: 1
    kernel_size: 3
    weight_filler {
      type: "xavier"
    }
    bias_filler {
      type: "constant"
      value: 0.2
    }
  }
}
layer {
  name: "inception_4d/relu_3x3"
  type: "ReLU"
  bottom: "inception_4d/3x3"
  top: "inception_4d/3x3"
}
layer {
  name: "inception_4d/double3x3_reduce"
  type: "Convolution"
  bottom: "inception_4c/output"
  top: "inception_4d/double3x3_reduce"
  param {
    l
I0905 23:47:57.296890 84240 layer_factory.hpp:76] Creating layer data
I0905 23:47:57.297397 84240 net.cpp:110] Creating Layer data
I0905 23:47:57.297410 84240 net.cpp:433] data -> data
I0905 23:47:57.297435 84240 net.cpp:433] data -> label
I0905 23:47:57.299206 84243 db_lmdb.cpp:22] Opened lmdb /ssd/ilsvrc2012/ilsvrc12_train_lmdb
I0905 23:47:57.299865 84240 data_layer.cpp:44] output data size: 32,3,224,224
I0905 23:47:57.342200 84240 net.cpp:155] Setting up data
I0905 23:47:57.342371 84240 net.cpp:163] Top shape: 32 3 224 224 (4816896)
I0905 23:47:57.342407 84240 net.cpp:163] Top shape: 32 (32)
I0905 23:47:57.342423 84240 layer_factory.hpp:76] Creating layer label_data_1_split
I0905 23:47:57.342449 84240 net.cpp:110] Creating Layer label_data_1_split
I0905 23:47:57.342460 84240 net.cpp:477] label_data_1_split <- label
I0905 23:47:57.342488 84240 net.cpp:433] label_data_1_split -> label_data_1_split_0
I0905 23:47:57.342509 84240 net.cpp:433] label_data_1_split -> label_data_1_split_1
I0905 23:47:57.342540 84240 net.cpp:433] label_data_1_split -> label_data_1_split_2
I0905 23:47:57.342582 84240 net.cpp:155] Setting up label_data_1_split
I0905 23:47:57.342597 84240 net.cpp:163] Top shape: 32 (32)
I0905 23:47:57.342605 84240 net.cpp:163] Top shape: 32 (32)
I0905 23:47:57.342613 84240 net.cpp:163] Top shape: 32 (32)
I0905 23:47:57.342656 84240 layer_factory.hpp:76] Creating layer conv1/7x7_s2
I0905 23:47:57.342687 84240 net.cpp:110] Creating Layer conv1/7x7_s2
I0905 23:47:57.342697 84240 net.cpp:477] conv1/7x7_s2 <- data
I0905 23:47:57.342710 84240 net.cpp:433] conv1/7x7_s2 -> conv1/7x7_s2
I0905 23:47:57.344056 84240 net.cpp:155] Setting up conv1/7x7_s2
I0905 23:47:57.344086 84240 net.cpp:163] Top shape: 32 64 112 112 (25690112)
I0905 23:47:57.344118 84240 layer_factory.hpp:76] Creating layer conv1/relu_7x7
I0905 23:47:57.344138 84240 net.cpp:110] Creating Layer conv1/relu_7x7
I0905 23:47:57.344146 84240 net.cpp:477] conv1/relu_7x7 <- conv1/7x7_s2
I0905 23:47:57.344156 84240 net.cpp:419] conv1/relu_7x7 -> conv1/7x7_s2 (in-place)
I0905 23:47:57.344173 84240 net.cpp:155] Setting up conv1/relu_7x7
I0905 23:47:57.344183 84240 net.cpp:163] Top shape: 32 64 112 112 (25690112)
I0905 23:47:57.344190 84240 layer_factory.hpp:76] Creating layer pool1/3x3_s2
I0905 23:47:57.344205 84240 net.cpp:110] Creating Layer pool1/3x3_s2
I0905 23:47:57.344213 84240 net.cpp:477] pool1/3x3_s2 <- conv1/7x7_s2
I0905 23:47:57.344226 84240 net.cpp:433] pool1/3x3_s2 -> pool1/3x3_s2
I0905 23:47:57.344262 84240 net.cpp:155] Setting up pool1/3x3_s2
I0905 23:47:57.344276 84240 net.cpp:163] Top shape: 32 64 56 56 (6422528)
I0905 23:47:57.344283 84240 layer_factory.hpp:76] Creating layer pool1/norm1
I0905 23:47:57.344357 84240 net.cpp:110] Creating Layer pool1/norm1
I0905 23:47:57.344372 84240 net.cpp:477] pool1/norm1 <- pool1/3x3_s2
I0905 23:47:57.344383 84240 net.cpp:433] pool1/norm1 -> pool1/norm1
I0905 23:47:57.344405 84240 net.cpp:155] Setting up pool1/norm1
I0905 23:47:57.344422 84240 net.cpp:163] Top shape: 32 64 56 56 (6422528)
I0905 23:47:57.344429 84240 layer_factory.hpp:76] Creating layer conv2/3x3_reduce
I0905 23:47:57.344454 84240 net.cpp:110] Creating Layer conv2/3x3_reduce
I0905 23:47:57.344460 84240 net.cpp:477] conv2/3x3_reduce <- pool1/norm1
I0905 23:47:57.344475 84240 net.cpp:433] conv2/3x3_reduce -> conv2/3x3_reduce
I0905 23:47:57.347399 84240 net.cpp:155] Setting up conv2/3x3_reduce
I0905 23:47:57.347435 84240 net.cpp:163] Top shape: 32 64 56 56 (6422528)
I0905 23:47:57.347460 84240 layer_factory.hpp:76] Creating layer conv2/relu_3x3_reduce
I0905 23:47:57.347481 84240 net.cpp:110] Creating Layer conv2/relu_3x3_reduce
I0905 23:47:57.347489 84240 net.cpp:477] conv2/relu_3x3_reduce <- conv2/3x3_reduce
I0905 23:47:57.347501 84240 net.cpp:419] conv2/relu_3x3_reduce -> conv2/3x3_reduce (in-place)
I0905 23:47:57.347517 84240 net.cpp:155] Setting up conv2/relu_3x3_reduce
I0905 23:47:57.347525 84240 net.cpp:163] Top shape: 32 64 56 56 (6422528)
I0905 23:47:57.347533 84240 layer_factory.hpp:76] Creating layer conv2/3x3
I0905 23:47:57.347550 84240 net.cpp:110] Creating Layer conv2/3x3
I0905 23:47:57.347568 84240 net.cpp:477] conv2/3x3 <- conv2/3x3_reduce
I0905 23:47:57.347584 84240 net.cpp:433] conv2/3x3 -> conv2/3x3
I0905 23:47:57.350404 84240 net.cpp:155] Setting up conv2/3x3
I0905 23:47:57.350431 84240 net.cpp:163] Top shape: 32 192 56 56 (19267584)
I0905 23:47:57.350452 84240 layer_factory.hpp:76] Creating layer conv2/relu_3x3
I0905 23:47:57.350474 84240 net.cpp:110] Creating Layer conv2/relu_3x3
I0905 23:47:57.350481 84240 net.cpp:477] conv2/relu_3x3 <- conv2/3x3
I0905 23:47:57.350496 84240 net.cpp:419] conv2/relu_3x3 -> conv2/3x3 (in-place)
I0905 23:47:57.350508 84240 net.cpp:155] Setting up conv2/relu_3x3
I0905 23:47:57.350518 84240 net.cpp:163] Top shape: 32 192 56 56 (19267584)
I0905 23:47:57.350524 84240 layer_factory.hpp:76] Creating layer conv2/norm2
I0905 23:47:57.350536 84240 net.cpp:110] Creating Layer conv2/norm2
I0905 23:47:57.350543 84240 net.cpp:477] conv2/norm2 <- conv2/3x3
I0905 23:47:57.350553 84240 net.cpp:433] conv2/norm2 -> conv2/norm2
I0905 23:47:57.350569 84240 net.cpp:155] Setting up conv2/norm2
I0905 23:47:57.350577 84240 net.cpp:163] Top shape: 32 192 56 56 (19267584)
I0905 23:47:57.350584 84240 layer_factory.hpp:76] Creating layer pool2/3x3_s2
I0905 23:47:57.350594 84240 net.cpp:110] Creating Layer pool2/3x3_s2
I0905 23:47:57.350633 84240 net.cpp:477] pool2/3x3_s2 <- conv2/norm2
I0905 23:47:57.350649 84240 net.cpp:433] pool2/3x3_s2 -> pool2/3x3_s2
I0905 23:47:57.350666 84240 net.cpp:155] Setting up pool2/3x3_s2
I0905 23:47:57.350683 84240 net.cpp:163] Top shape: 32 192 28 28 (4816896)
I0905 23:47:57.350690 84240 layer_factory.hpp:76] Creating layer pool2/3x3_s2_pool2/3x3_s2_0_split
I0905 23:47:57.350702 84240 net.cpp:110] Creating Layer pool2/3x3_s2_pool2/3x3_s2_0_split
I0905 23:47:57.350709 84240 net.cpp:477] pool2/3x3_s2_pool2/3x3_s2_0_split <- pool2/3x3_s2
I0905 23:47:57.350719 84240 net.cpp:433] pool2/3x3_s2_pool2/3x3_s2_0_split -> pool2/3x3_s2_pool2/3x3_s2_0_split_0
I0905 23:47:57.350731 84240 net.cpp:433] pool2/3x3_s2_pool2/3x3_s2_0_split -> pool2/3x3_s2_pool2/3x3_s2_0_split_1
I0905 23:47:57.350744 84240 net.cpp:433] pool2/3x3_s2_pool2/3x3_s2_0_split -> pool2/3x3_s2_pool2/3x3_s2_0_split_2
I0905 23:47:57.350755 84240 net.cpp:433] pool2/3x3_s2_pool2/3x3_s2_0_split -> pool2/3x3_s2_pool2/3x3_s2_0_split_3
I0905 23:47:57.350769 84240 net.cpp:155] Setting up pool2/3x3_s2_pool2/3x3_s2_0_split
I0905 23:47:57.350777 84240 net.cpp:163] Top shape: 32 192 28 28 (4816896)
I0905 23:47:57.350785 84240 net.cpp:163] Top shape: 32 192 28 28 (4816896)
I0905 23:47:57.350793 84240 net.cpp:163] Top shape: 32 192 28 28 (4816896)
I0905 23:47:57.350801 84240 net.cpp:163] Top shape: 32 192 28 28 (4816896)
I0905 23:47:57.350808 84240 layer_factory.hpp:76] Creating layer inception_3a/1x1
I0905 23:47:57.350826 84240 net.cpp:110] Creating Layer inception_3a/1x1
I0905 23:47:57.350832 84240 net.cpp:477] inception_3a/1x1 <- pool2/3x3_s2_pool2/3x3_s2_0_split_0
I0905 23:47:57.350843 84240 net.cpp:433] inception_3a/1x1 -> inception_3a/1x1
I0905 23:47:57.352017 84240 net.cpp:155] Setting up inception_3a/1x1
I0905 23:47:57.352043 84240 net.cpp:163] Top shape: 32 64 28 28 (1605632)
I0905 23:47:57.352057 84240 layer_factory.hpp:76] Creating layer inception_3a/relu_1x1
I0905 23:47:57.352082 84240 net.cpp:110] Creating Layer inception_3a/relu_1x1
I0905 23:47:57.352090 84240 net.cpp:477] inception_3a/relu_1x1 <- inception_3a/1x1
I0905 23:47:57.352100 84240 net.cpp:419] inception_3a/relu_1x1 -> inception_3a/1x1 (in-place)
I0905 23:47:57.352114 84240 net.cpp:155] Setting up inception_3a/relu_1x1
I0905 23:47:57.352123 84240 net.cpp:163] Top shape: 32 64 28 28 (1605632)
I0905 23:47:57.352129 84240 layer_factory.hpp:76] Creating layer inception_3a/3x3_reduce
I0905 23:47:57.352144 84240 net.cpp:110] Creating Layer inception_3a/3x3_reduce
I0905 23:47:57.352149 84240 net.cpp:477] inception_3a/3x3_reduce <- pool2/3x3_s2_pool2/3x3_s2_0_split_1
I0905 23:47:57.352174 84240 net.cpp:433] inception_3a/3x3_reduce -> inception_3a/3x3_reduce
I0905 23:47:57.352478 84240 net.cpp:155] Setting up inception_3a/3x3_reduce
I0905 23:47:57.352494 84240 net.cpp:163] Top shape: 32 64 28 28 (1605632)
I0905 23:47:57.352512 84240 layer_factory.hpp:76] Creating layer inception_3a/relu_3x3_reduce
I0905 23:47:57.352530 84240 net.cpp:110] Creating Layer inception_3a/relu_3x3_reduce
I0905 23:47:57.352536 84240 net.cpp:477] inception_3a/relu_3x3_reduce <- inception_3a/3x3_reduce
I0905 23:47:57.352547 84240 net.cpp:419] inception_3a/relu_3x3_reduce -> inception_3a/3x3_reduce (in-place)
I0905 23:47:57.352560 84240 net.cpp:155] Setting up inception_3a/relu_3x3_reduce
I0905 23:47:57.352567 84240 net.cpp:163] Top shape: 32 64 28 28 (1605632)
I0905 23:47:57.352574 84240 layer_factory.hpp:76] Creating layer inception_3a/3x3
I0905 23:47:57.352602 84240 net.cpp:110] Creating Layer inception_3a/3x3
I0905 23:47:57.352612 84240 net.cpp:477] inception_3a/3x3 <- inception_3a/3x3_reduce
I0905 23:47:57.352622 84240 net.cpp:433] inception_3a/3x3 -> inception_3a/3x3
I0905 23:47:57.354153 84240 net.cpp:155] Setting up inception_3a/3x3
I0905 23:47:57.354182 84240 net.cpp:163] Top shape: 32 64 28 28 (1605632)
I0905 23:47:57.354207 84240 layer_factory.hpp:76] Creating layer inception_3a/relu_3x3
I0905 23:47:57.354223 84240 net.cpp:110] Creating Layer inception_3a/relu_3x3
I0905 23:47:57.354231 84240 net.cpp:477] inception_3a/relu_3x3 <- inception_3a/3x3
I0905 23:47:57.354269 84240 net.cpp:419] inception_3a/relu_3x3 -> inception_3a/3x3 (in-place)
I0905 23:47:57.354284 84240 net.cpp:155] Setting up inception_3a/relu_3x3
I0905 23:47:57.354296 84240 net.cpp:163] Top shape: 32 64 28 28 (1605632)
I0905 23:47:57.354303 84240 layer_factory.hpp:76] Creating layer inception_3a/double3x3_reduce
I0905 23:47:57.354316 84240 net.cpp:110] Creating Layer inception_3a/double3x3_reduce
I0905 23:47:57.354323 84240 net.cpp:477] inception_3a/double3x3_reduce <- pool2/3x3_s2_pool2/3x3_s2_0_split_2
I0905 23:47:57.354338 84240 net.cpp:433] inception_3a/double3x3_reduce -> inception_3a/double3x3_reduce
I0905 23:47:57.354640 84240 net.cpp:155] Setting up inception_3a/double3x3_reduce
I0905 23:47:57.354655 84240 net.cpp:163] Top shape: 32 64 28 28 (1605632)
I0905 23:47:57.354667 84240 layer_factory.hpp:76] Creating layer inception_3a/relu_double3x3_reduce
I0905 23:47:57.354677 84240 net.cpp:110] Creating Layer inception_3a/relu_double3x3_reduce
I0905 23:47:57.354684 84240 net.cpp:477] inception_3a/relu_double3x3_reduce <- inception_3a/double3x3_reduce
I0905 23:47:57.354696 84240 net.cpp:419] inception_3a/relu_double3x3_reduce -> inception_3a/double3x3_reduce (in-place)
I0905 23:47:57.354707 84240 net.cpp:155] Setting up inception_3a/relu_double3x3_reduce
I0905 23:47:57.354715 84240 net.cpp:163] Top shape: 32 64 28 28 (1605632)
I0905 23:47:57.354722 84240 layer_factory.hpp:76] Creating layer inception_3a/double3x3_mid
I0905 23:47:57.354734 84240 net.cpp:110] Creating Layer inception_3a/double3x3_mid
I0905 23:47:57.354740 84240 net.cpp:477] inception_3a/double3x3_mid <- inception_3a/double3x3_reduce
I0905 23:47:57.354754 84240 net.cpp:433] inception_3a/double3x3_mid -> inception_3a/double3x3_mid
I0905 23:47:57.355726 84240 net.cpp:155] Setting up inception_3a/double3x3_mid
I0905 23:47:57.355743 84240 net.cpp:163] Top shape: 32 96 28 28 (2408448)
I0905 23:47:57.355759 84240 layer_factory.hpp:76] Creating layer inception_3a/relu_double3x3_mid
I0905 23:47:57.355769 84240 net.cpp:110] Creating Layer inception_3a/relu_double3x3_mid
I0905 23:47:57.355777 84240 net.cpp:477] inception_3a/relu_double3x3_mid <- inception_3a/double3x3_mid
I0905 23:47:57.355787 84240 net.cpp:419] inception_3a/relu_double3x3_mid -> inception_3a/double3x3_mid (in-place)
I0905 23:47:57.355798 84240 net.cpp:155] Setting up inception_3a/relu_double3x3_mid
I0905 23:47:57.355806 84240 net.cpp:163] Top shape: 32 96 28 28 (2408448)
I0905 23:47:57.355813 84240 layer_factory.hpp:76] Creating layer inception_3a/double3x3
I0905 23:47:57.355825 84240 net.cpp:110] Creating Layer inception_3a/double3x3
I0905 23:47:57.355831 84240 net.cpp:477] inception_3a/double3x3 <- inception_3a/double3x3_mid
I0905 23:47:57.355845 84240 net.cpp:433] inception_3a/double3x3 -> inception_3a/double3x3
I0905 23:47:57.357260 84240 net.cpp:155] Setting up inception_3a/double3x3
I0905 23:47:57.357277 84240 net.cpp:163] Top shape: 32 96 28 28 (2408448)
I0905 23:47:57.357296 84240 layer_factory.hpp:76] Creating layer inception_3a/relu_double3x3
I0905 23:47:57.357307 84240 net.cpp:110] Creating Layer inception_3a/relu_double3x3
I0905 23:47:57.357316 84240 net.cpp:477] inception_3a/relu_double3x3 <- inception_3a/double3x3
I0905 23:47:57.357331 84240 net.cpp:419] inception_3a/relu_double3x3 -> inception_3a/double3x3 (in-place)
I0905 23:47:57.357343 84240 net.cpp:155] Setting up inception_3a/relu_double3x3
I0905 23:47:57.357352 84240 net.cpp:163] Top shape: 32 96 28 28 (2408448)
I0905 23:47:57.357358 84240 layer_factory.hpp:76] Creating layer inception_3a/pool
I0905 23:47:57.357370 84240 net.cpp:110] Creating Layer inception_3a/pool
I0905 23:47:57.357377 84240 net.cpp:477] inception_3a/pool <- pool2/3x3_s2_pool2/3x3_s2_0_split_3
I0905 23:47:57.357386 84240 net.cpp:433] inception_3a/pool -> inception_3a/pool
I0905 23:47:57.357401 84240 net.cpp:155] Setting up inception_3a/pool
I0905 23:47:57.357411 84240 net.cpp:163] Top shape: 32 192 28 28 (4816896)
I0905 23:47:57.357419 84240 layer_factory.hpp:76] Creating layer inception_3a/pool_proj
I0905 23:47:57.357450 84240 net.cpp:110] Creating Layer inception_3a/pool_proj
I0905 23:47:57.357456 84240 net.cpp:477] inception_3a/pool_proj <- inception_3a/pool
I0905 23:47:57.357475 84240 net.cpp:433] inception_3a/pool_proj -> inception_3a/pool_proj
I0905 23:47:57.357682 84240 net.cpp:155] Setting up inception_3a/pool_proj
I0905 23:47:57.357698 84240 net.cpp:163] Top shape: 32 32 28 28 (802816)
I0905 23:47:57.357712 84240 layer_factory.hpp:76] Creating layer inception_3a/relu_pool_proj
I0905 23:47:57.357722 84240 net.cpp:110] Creating Layer inception_3a/relu_pool_proj
I0905 23:47:57.357728 84240 net.cpp:477] inception_3a/relu_pool_proj <- inception_3a/pool_proj
I0905 23:47:57.357738 84240 net.cpp:419] inception_3a/relu_pool_proj -> inception_3a/pool_proj (in-place)
I0905 23:47:57.357750 84240 net.cpp:155] Setting up inception_3a/relu_pool_proj
I0905 23:47:57.357760 84240 net.cpp:163] Top shape: 32 32 28 28 (802816)
I0905 23:47:57.357766 84240 layer_factory.hpp:76] Creating layer inception_3a/output
I0905 23:47:57.357784 84240 net.cpp:110] Creating Layer inception_3a/output
I0905 23:47:57.357790 84240 net.cpp:477] inception_3a/output <- inception_3a/1x1
I0905 23:47:57.357800 84240 net.cpp:477] inception_3a/output <- inception_3a/3x3
I0905 23:47:57.357808 84240 net.cpp:477] inception_3a/output <- inception_3a/double3x3
I0905 23:47:57.357816 84240 net.cpp:477] inception_3a/output <- inception_3a/pool_proj
I0905 23:47:57.357831 84240 net.cpp:433] inception_3a/output -> inception_3a/output
I0905 23:47:57.357851 84240 net.cpp:155] Setting up inception_3a/output
I0905 23:47:57.357863 84240 net.cpp:163] Top shape: 32 256 28 28 (6422528)
I0905 23:47:57.357869 84240 layer_factory.hpp:76] Creating layer inception_3a/output_inception_3a/output_0_split
I0905 23:47:57.357882 84240 net.cpp:110] Creating Layer inception_3a/output_inception_3a/output_0_split
I0905 23:47:57.357888 84240 net.cpp:477] inception_3a/output_inception_3a/output_0_split <- inception_3a/output
I0905 23:47:57.357899 84240 net.cpp:433] inception_3a/output_inception_3a/output_0_split -> inception_3a/output_inception_3a/output_0_split_0
I0905 23:47:57.357913 84240 net.cpp:433] inception_3a/output_inception_3a/output_0_split -> inception_3a/output_inception_3a/output_0_split_1
I0905 23:47:57.357925 84240 net.cpp:433] inception_3a/output_inception_3a/output_0_split -> inception_3a/output_inception_3a/output_0_split_2
I0905 23:47:57.357938 84240 net.cpp:433] inception_3a/output_inception_3a/output_0_split -> inception_3a/output_inception_3a/output_0_split_3
I0905 23:47:57.357950 84240 net.cpp:155] Setting up inception_3a/output_inception_3a/output_0_split
I0905 23:47:57.357959 84240 net.cpp:163] Top shape: 32 256 28 28 (6422528)
I0905 23:47:57.357967 84240 net.cpp:163] Top shape: 32 256 28 28 (6422528)
I0905 23:47:57.357975 84240 net.cpp:163] Top shape: 32 256 28 28 (6422528)
I0905 23:47:57.357983 84240 net.cpp:163] Top shape: 32 256 28 28 (6422528)
I0905 23:47:57.357993 84240 layer_factory.hpp:76] Creating layer inception_3b/1x1
I0905 23:47:57.358008 84240 net.cpp:110] Creating Layer inception_3b/1x1
I0905 23:47:57.358016 84240 net.cpp:477] inception_3b/1x1 <- inception_3a/output_inception_3a/output_0_split_0
I0905 23:47:57.358026 84240 net.cpp:433] inception_3b/1x1 -> inception_3b/1x1
I0905 23:47:57.358386 84240 net.cpp:155] Setting up inception_3b/1x1
I0905 23:47:57.358400 84240 net.cpp:163] Top shape: 32 64 28 28 (1605632)
I0905 23:47:57.358412 84240 layer_factory.hpp:76] Creating layer inception_3b/relu_1x1
I0905 23:47:57.358422 84240 net.cpp:110] Creating Layer inception_3b/relu_1x1
I0905 23:47:57.358429 84240 net.cpp:477] inception_3b/relu_1x1 <- inception_3b/1x1
I0905 23:47:57.358439 84240 net.cpp:419] inception_3b/relu_1x1 -> inception_3b/1x1 (in-place)
I0905 23:47:57.358450 84240 net.cpp:155] Setting up inception_3b/relu_1x1
I0905 23:47:57.358459 84240 net.cpp:163] Top shape: 32 64 28 28 (1605632)
I0905 23:47:57.358466 84240 layer_factory.hpp:76] Creating layer inception_3b/3x3_reduce
I0905 23:47:57.358486 84240 net.cpp:110] Creating Layer inception_3b/3x3_reduce
I0905 23:47:57.358510 84240 net.cpp:477] inception_3b/3x3_reduce <- inception_3a/output_inception_3a/output_0_split_1
I0905 23:47:57.358522 84240 net.cpp:433] inception_3b/3x3_reduce -> inception_3b/3x3_reduce
I0905 23:47:57.358878 84240 net.cpp:155] Setting up inception_3b/3x3_reduce
I0905 23:47:57.358893 84240 net.cpp:163] Top shape: 32 64 28 28 (1605632)
I0905 23:47:57.358906 84240 layer_factory.hpp:76] Creating layer inception_3b/relu_3x3_reduce
I0905 23:47:57.358919 84240 net.cpp:110] Creating Layer inception_3b/relu_3x3_reduce
I0905 23:47:57.358927 84240 net.cpp:477] inception_3b/relu_3x3_reduce <- inception_3b/3x3_reduce
I0905 23:47:57.358937 84240 net.cpp:419] inception_3b/relu_3x3_reduce -> inception_3b/3x3_reduce (in-place)
I0905 23:47:57.358948 84240 net.cpp:155] Setting up inception_3b/relu_3x3_reduce
I0905 23:47:57.358958 84240 net.cpp:163] Top shape: 32 64 28 28 (1605632)
I0905 23:47:57.358963 84240 layer_factory.hpp:76] Creating layer inception_3b/3x3
I0905 23:47:57.358975 84240 net.cpp:110] Creating Layer inception_3b/3x3
I0905 23:47:57.358981 84240 net.cpp:477] inception_3b/3x3 <- inception_3b/3x3_reduce
I0905 23:47:57.358993 84240 net.cpp:433] inception_3b/3x3 -> inception_3b/3x3
I0905 23:47:57.359969 84240 net.cpp:155] Setting up inception_3b/3x3
I0905 23:47:57.359987 84240 net.cpp:163] Top shape: 32 96 28 28 (2408448)
I0905 23:47:57.359998 84240 layer_factory.hpp:76] Creating layer inception_3b/relu_3x3
I0905 23:47:57.360008 84240 net.cpp:110] Creating Layer inception_3b/relu_3x3
I0905 23:47:57.360016 84240 net.cpp:477] inception_3b/relu_3x3 <- inception_3b/3x3
I0905 23:47:57.360028 84240 net.cpp:419] inception_3b/relu_3x3 -> inception_3b/3x3 (in-place)
I0905 23:47:57.360038 84240 net.cpp:155] Setting up inception_3b/relu_3x3
I0905 23:47:57.360047 84240 net.cpp:163] Top shape: 32 96 28 28 (2408448)
I0905 23:47:57.360054 84240 layer_factory.hpp:76] Creating layer inception_3b/double3x3_reduce
I0905 23:47:57.360066 84240 net.cpp:110] Creating Layer inception_3b/double3x3_reduce
I0905 23:47:57.360072 84240 net.cpp:477] inception_3b/double3x3_reduce <- inception_3a/output_inception_3a/output_0_split_2
I0905 23:47:57.360083 84240 net.cpp:433] inception_3b/double3x3_reduce -> inception_3b/double3x3_reduce
I0905 23:47:57.360445 84240 net.cpp:155] Setting up inception_3b/double3x3_reduce
I0905 23:47:57.360460 84240 net.cpp:163] Top shape: 32 64 28 28 (1605632)
I0905 23:47:57.360472 84240 layer_factory.hpp:76] Creating layer inception_3b/relu_double3x3_reduce
I0905 23:47:57.360482 84240 net.cpp:110] Creating Layer inception_3b/relu_double3x3_reduce
I0905 23:47:57.360489 84240 net.cpp:477] inception_3b/relu_double3x3_reduce <- inception_3b/double3x3_reduce
I0905 23:47:57.360499 84240 net.cpp:419] inception_3b/relu_double3x3_reduce -> inception_3b/double3x3_reduce (in-place)
I0905 23:47:57.360512 84240 net.cpp:155] Setting up inception_3b/relu_double3x3_reduce
I0905 23:47:57.360519 84240 net.cpp:163] Top shape: 32 64 28 28 (1605632)
I0905 23:47:57.360527 84240 layer_factory.hpp:76] Creating layer inception_3b/double3x3_mid
I0905 23:47:57.360538 84240 net.cpp:110] Creating Layer inception_3b/double3x3_mid
I0905 23:47:57.360544 84240 net.cpp:477] inception_3b/double3x3_mid <- inception_3b/double3x3_reduce
I0905 23:47:57.360560 84240 net.cpp:433] inception_3b/double3x3_mid -> inception_3b/double3x3_mid
I0905 23:47:57.361534 84240 net.cpp:155] Setting up inception_3b/double3x3_mid
I0905 23:47:57.361549 84240 net.cpp:163] Top shape: 32 96 28 28 (2408448)
I0905 23:47:57.361562 84240 layer_factory.hpp:76] Creating layer inception_3b/relu_double3x3_mid
I0905 23:47:57.361572 84240 net.cpp:110] Creating Layer inception_3b/relu_double3x3_mid
I0905 23:47:57.361578 84240 net.cpp:477] inception_3b/relu_double3x3_mid <- inception_3b/double3x3_mid
I0905 23:47:57.361588 84240 net.cpp:419] inception_3b/relu_double3x3_mid -> inception_3b/double3x3_mid (in-place)
I0905 23:47:57.361599 84240 net.cpp:155] Setting up inception_3b/relu_double3x3_mid
I0905 23:47:57.361608 84240 net.cpp:163] Top shape: 32 96 28 28 (2408448)
I0905 23:47:57.361635 84240 layer_factory.hpp:76] Creating layer inception_3b/double3x3
I0905 23:47:57.361652 84240 net.cpp:110] Creating Layer inception_3b/double3x3
I0905 23:47:57.361660 84240 net.cpp:477] inception_3b/double3x3 <- inception_3b/double3x3_mid
I0905 23:47:57.361670 84240 net.cpp:433] inception_3b/double3x3 -> inception_3b/double3x3
I0905 23:47:57.363968 84240 net.cpp:155] Setting up inception_3b/double3x3
I0905 23:47:57.363992 84240 net.cpp:163] Top shape: 32 96 28 28 (2408448)
I0905 23:47:57.364007 84240 layer_factory.hpp:76] Creating layer inception_3b/relu_double3x3
I0905 23:47:57.364020 84240 net.cpp:110] Creating Layer inception_3b/relu_double3x3
I0905 23:47:57.364028 84240 net.cpp:477] inception_3b/relu_double3x3 <- inception_3b/double3x3
I0905 23:47:57.364038 84240 net.cpp:419] inception_3b/relu_double3x3 -> inception_3b/double3x3 (in-place)
I0905 23:47:57.364053 84240 net.cpp:155] Setting up inception_3b/relu_double3x3
I0905 23:47:57.364060 84240 net.cpp:163] Top shape: 32 96 28 28 (2408448)
I0905 23:47:57.364068 84240 layer_factory.hpp:76] Creating layer inception_3b/pool
I0905 23:47:57.364078 84240 net.cpp:110] Creating Layer inception_3b/pool
I0905 23:47:57.364085 84240 net.cpp:477] inception_3b/pool <- inception_3a/output_inception_3a/output_0_split_3
I0905 23:47:57.364096 84240 net.cpp:433] inception_3b/pool -> inception_3b/pool
I0905 23:47:57.364112 84240 net.cpp:155] Setting up inception_3b/pool
I0905 23:47:57.364121 84240 net.cpp:163] Top shape: 32 256 28 28 (6422528)
I0905 23:47:57.364127 84240 layer_factory.hpp:76] Creating layer inception_3b/pool_proj
I0905 23:47:57.364143 84240 net.cpp:110] Creating Layer inception_3b/pool_proj
I0905 23:47:57.364151 84240 net.cpp:477] inception_3b/pool_proj <- inception_3b/pool
I0905 23:47:57.364161 84240 net.cpp:433] inception_3b/pool_proj -> inception_3b/pool_proj
I0905 23:47:57.364527 84240 net.cpp:155] Setting up inception_3b/pool_proj
I0905 23:47:57.364542 84240 net.cpp:163] Top shape: 32 64 28 28 (1605632)
I0905 23:47:57.364567 84240 layer_factory.hpp:76] Creating layer inception_3b/relu_pool_proj
I0905 23:47:57.364578 84240 net.cpp:110] Creating Layer inception_3b/relu_pool_proj
I0905 23:47:57.364585 84240 net.cpp:477] inception_3b/relu_pool_proj <- inception_3b/pool_proj
I0905 23:47:57.364596 84240 net.cpp:419] inception_3b/relu_pool_proj -> inception_3b/pool_proj (in-place)
I0905 23:47:57.364608 84240 net.cpp:155] Setting up inception_3b/relu_pool_proj
I0905 23:47:57.364616 84240 net.cpp:163] Top shape: 32 64 28 28 (1605632)
I0905 23:47:57.364622 84240 layer_factory.hpp:76] Creating layer inception_3b/output
I0905 23:47:57.364634 84240 net.cpp:110] Creating Layer inception_3b/output
I0905 23:47:57.364640 84240 net.cpp:477] inception_3b/output <- inception_3b/1x1
I0905 23:47:57.364650 84240 net.cpp:477] inception_3b/output <- inception_3b/3x3
I0905 23:47:57.364657 84240 net.cpp:477] inception_3b/output <- inception_3b/double3x3
I0905 23:47:57.364665 84240 net.cpp:477] inception_3b/output <- inception_3b/pool_proj
I0905 23:47:57.364675 84240 net.cpp:433] inception_3b/output -> inception_3b/output
I0905 23:47:57.364691 84240 net.cpp:155] Setting up inception_3b/output
I0905 23:47:57.364699 84240 net.cpp:163] Top shape: 32 320 28 28 (8028160)
I0905 23:47:57.364706 84240 layer_factory.hpp:76] Creating layer inception_3b/output_inception_3b/output_0_split
I0905 23:47:57.364717 84240 net.cpp:110] Creating Layer inception_3b/output_inception_3b/output_0_split
I0905 23:47:57.364723 84240 net.cpp:477] inception_3b/output_inception_3b/output_0_split <- inception_3b/output
I0905 23:47:57.364737 84240 net.cpp:433] inception_3b/output_inception_3b/output_0_split -> inception_3b/output_inception_3b/output_0_split_0
I0905 23:47:57.364751 84240 net.cpp:433] inception_3b/output_inception_3b/output_0_split -> inception_3b/output_inception_3b/output_0_split_1
I0905 23:47:57.364764 84240 net.cpp:433] inception_3b/output_inception_3b/output_0_split -> inception_3b/output_inception_3b/output_0_split_2
I0905 23:47:57.364778 84240 net.cpp:155] Setting up inception_3b/output_inception_3b/output_0_split
I0905 23:47:57.364820 84240 net.cpp:163] Top shape: 32 320 28 28 (8028160)
I0905 23:47:57.364830 84240 net.cpp:163] Top shape: 32 320 28 28 (8028160)
I0905 23:47:57.364837 84240 net.cpp:163] Top shape: 32 320 28 28 (8028160)
I0905 23:47:57.364845 84240 layer_factory.hpp:76] Creating layer inception_3c/3x3_reduce
I0905 23:47:57.364858 84240 net.cpp:110] Creating Layer inception_3c/3x3_reduce
I0905 23:47:57.364866 84240 net.cpp:477] inception_3c/3x3_reduce <- inception_3b/output_inception_3b/output_0_split_0
I0905 23:47:57.364877 84240 net.cpp:433] inception_3c/3x3_reduce -> inception_3c/3x3_reduce
I0905 23:47:57.365625 84240 net.cpp:155] Setting up inception_3c/3x3_reduce
I0905 23:47:57.365640 84240 net.cpp:163] Top shape: 32 128 28 28 (3211264)
I0905 23:47:57.365653 84240 layer_factory.hpp:76] Creating layer inception_3c/relu_3x3_reduce
I0905 23:47:57.365664 84240 net.cpp:110] Creating Layer inception_3c/relu_3x3_reduce
I0905 23:47:57.365670 84240 net.cpp:477] inception_3c/relu_3x3_reduce <- inception_3c/3x3_reduce
I0905 23:47:57.365680 84240 net.cpp:419] inception_3c/relu_3x3_reduce -> inception_3c/3x3_reduce (in-place)
I0905 23:47:57.365692 84240 net.cpp:155] Setting up inception_3c/relu_3x3_reduce
I0905 23:47:57.365701 84240 net.cpp:163] Top shape: 32 128 28 28 (3211264)
I0905 23:47:57.365707 84240 layer_factory.hpp:76] Creating layer inception_3c/3x3_s2
I0905 23:47:57.365720 84240 net.cpp:110] Creating Layer inception_3c/3x3_s2
I0905 23:47:57.365727 84240 net.cpp:477] inception_3c/3x3_s2 <- inception_3c/3x3_reduce
I0905 23:47:57.365783 84240 net.cpp:433] inception_3c/3x3_s2 -> inception_3c/3x3_s2
I0905 23:47:57.369643 84240 net.cpp:155] Setting up inception_3c/3x3_s2
I0905 23:47:57.369669 84240 net.cpp:163] Top shape: 32 160 14 14 (1003520)
I0905 23:47:57.369683 84240 layer_factory.hpp:76] Creating layer inception_3c/relu_3x3
I0905 23:47:57.369696 84240 net.cpp:110] Creating Layer inception_3c/relu_3x3
I0905 23:47:57.369705 84240 net.cpp:477] inception_3c/relu_3x3 <- inception_3c/3x3_s2
I0905 23:47:57.369716 84240 net.cpp:419] inception_3c/relu_3x3 -> inception_3c/3x3_s2 (in-place)
I0905 23:47:57.369730 84240 net.cpp:155] Setting up inception_3c/relu_3x3
I0905 23:47:57.369740 84240 net.cpp:163] Top shape: 32 160 14 14 (1003520)
I0905 23:47:57.369746 84240 layer_factory.hpp:76] Creating layer inception_3c/double3x3_reduce
I0905 23:47:57.369762 84240 net.cpp:110] Creating Layer inception_3c/double3x3_reduce
I0905 23:47:57.369771 84240 net.cpp:477] inception_3c/double3x3_reduce <- inception_3b/output_inception_3b/output_0_split_1
I0905 23:47:57.369782 84240 net.cpp:433] inception_3c/double3x3_reduce -> inception_3c/double3x3_reduce
I0905 23:47:57.371073 84240 net.cpp:155] Setting up inception_3c/double3x3_reduce
I0905 23:47:57.371098 84240 net.cpp:163] Top shape: 32 64 28 28 (1605632)
I0905 23:47:57.371112 84240 layer_factory.hpp:76] Creating layer inception_3c/relu_double3x3_reduce
I0905 23:47:57.371124 84240 net.cpp:110] Creating Layer inception_3c/relu_double3x3_reduce
I0905 23:47:57.371131 84240 net.cpp:477] inception_3c/relu_double3x3_reduce <- inception_3c/double3x3_reduce
I0905 23:47:57.371142 84240 net.cpp:419] inception_3c/relu_double3x3_reduce -> inception_3c/double3x3_reduce (in-place)
I0905 23:47:57.371155 84240 net.cpp:155] Setting up inception_3c/relu_double3x3_reduce
I0905 23:47:57.371165 84240 net.cpp:163] Top shape: 32 64 28 28 (1605632)
I0905 23:47:57.371171 84240 layer_factory.hpp:76] Creating layer inception_3c/double3x3_mid
I0905 23:47:57.371184 84240 net.cpp:110] Creating Layer inception_3c/double3x3_mid
I0905 23:47:57.371191 84240 net.cpp:477] inception_3c/double3x3_mid <- inception_3c/double3x3_reduce
I0905 23:47:57.371206 84240 net.cpp:433] inception_3c/double3x3_mid -> inception_3c/double3x3_mid
I0905 23:47:57.372184 84240 net.cpp:155] Setting up inception_3c/double3x3_mid
I0905 23:47:57.372200 84240 net.cpp:163] Top shape: 32 96 28 28 (2408448)
I0905 23:47:57.372213 84240 layer_factory.hpp:76] Creating layer inception_3c/relu_double3x3_mid
I0905 23:47:57.372244 84240 net.cpp:110] Creating Layer inception_3c/relu_double3x3_mid
I0905 23:47:57.372257 84240 net.cpp:477] inception_3c/relu_double3x3_mid <- inception_3c/double3x3_mid
I0905 23:47:57.372267 84240 net.cpp:419] inception_3c/relu_double3x3_mid -> inception_3c/double3x3_mid (in-place)
I0905 23:47:57.372279 84240 net.cpp:155] Setting up inception_3c/relu_double3x3_mid
I0905 23:47:57.372288 84240 net.cpp:163] Top shape: 32 96 28 28 (2408448)
I0905 23:47:57.372295 84240 layer_factory.hpp:76] Creating layer inception_3c/double3x3
I0905 23:47:57.372308 84240 net.cpp:110] Creating Layer inception_3c/double3x3
I0905 23:47:57.372313 84240 net.cpp:477] inception_3c/double3x3 <- inception_3c/double3x3_mid
I0905 23:47:57.372328 84240 net.cpp:433] inception_3c/double3x3 -> inception_3c/double3x3_s2
I0905 23:47:57.373730 84240 net.cpp:155] Setting up inception_3c/double3x3
I0905 23:47:57.373747 84240 net.cpp:163] Top shape: 32 96 14 14 (602112)
I0905 23:47:57.373759 84240 layer_factory.hpp:76] Creating layer inception_3c/relu_double3x3
I0905 23:47:57.373769 84240 net.cpp:110] Creating Layer inception_3c/relu_double3x3
I0905 23:47:57.373776 84240 net.cpp:477] inception_3c/relu_double3x3 <- inception_3c/double3x3_s2
I0905 23:47:57.373786 84240 net.cpp:419] inception_3c/relu_double3x3 -> inception_3c/double3x3_s2 (in-place)
I0905 23:47:57.373798 84240 net.cpp:155] Setting up inception_3c/relu_double3x3
I0905 23:47:57.373806 84240 net.cpp:163] Top shape: 32 96 14 14 (602112)
I0905 23:47:57.373813 84240 layer_factory.hpp:76] Creating layer inception_3c/pool
I0905 23:47:57.373827 84240 net.cpp:110] Creating Layer inception_3c/pool
I0905 23:47:57.373834 84240 net.cpp:477] inception_3c/pool <- inception_3b/output_inception_3b/output_0_split_2
I0905 23:47:57.373845 84240 net.cpp:433] inception_3c/pool -> inception_3c/pool
I0905 23:47:57.373862 84240 net.cpp:155] Setting up inception_3c/pool
I0905 23:47:57.373870 84240 net.cpp:163] Top shape: 32 320 14 14 (2007040)
I0905 23:47:57.373878 84240 layer_factory.hpp:76] Creating layer inception_3c/relu_pool
I0905 23:47:57.373886 84240 net.cpp:110] Creating Layer inception_3c/relu_pool
I0905 23:47:57.373893 84240 net.cpp:477] inception_3c/relu_pool <- inception_3c/pool
I0905 23:47:57.373903 84240 net.cpp:419] inception_3c/relu_pool -> inception_3c/pool (in-place)
I0905 23:47:57.373914 84240 net.cpp:155] Setting up inception_3c/relu_pool
I0905 23:47:57.373922 84240 net.cpp:163] Top shape: 32 320 14 14 (2007040)
I0905 23:47:57.373929 84240 layer_factory.hpp:76] Creating layer inception_3c/output
I0905 23:47:57.373939 84240 net.cpp:110] Creating Layer inception_3c/output
I0905 23:47:57.373945 84240 net.cpp:477] inception_3c/output <- inception_3c/3x3_s2
I0905 23:47:57.373955 84240 net.cpp:477] inception_3c/output <- inception_3c/double3x3_s2
I0905 23:47:57.373962 84240 net.cpp:477] inception_3c/output <- inception_3c/pool
I0905 23:47:57.373972 84240 net.cpp:433] inception_3c/output -> inception_3c/output
I0905 23:47:57.373986 84240 net.cpp:155] Setting up inception_3c/output
I0905 23:47:57.373994 84240 net.cpp:163] Top shape: 32 576 14 14 (3612672)
I0905 23:47:57.374001 84240 layer_factory.hpp:76] Creating layer inception_3c/output_inception_3c/output_0_split
I0905 23:47:57.374016 84240 net.cpp:110] Creating Layer inception_3c/output_inception_3c/output_0_split
I0905 23:47:57.374023 84240 net.cpp:477] inception_3c/output_inception_3c/output_0_split <- inception_3c/output
I0905 23:47:57.374033 84240 net.cpp:433] inception_3c/output_inception_3c/output_0_split -> inception_3c/output_inception_3c/output_0_split_0
I0905 23:47:57.374047 84240 net.cpp:433] inception_3c/output_inception_3c/output_0_split -> inception_3c/output_inception_3c/output_0_split_1
I0905 23:47:57.374063 84240 net.cpp:433] inception_3c/output_inception_3c/output_0_split -> inception_3c/output_inception_3c/output_0_split_2
I0905 23:47:57.374075 84240 net.cpp:433] inception_3c/output_inception_3c/output_0_split -> inception_3c/output_inception_3c/output_0_split_3
I0905 23:47:57.374089 84240 net.cpp:155] Setting up inception_3c/output_inception_3c/output_0_split
I0905 23:47:57.374126 84240 net.cpp:163] Top shape: 32 576 14 14 (3612672)
I0905 23:47:57.374135 84240 net.cpp:163] Top shape: 32 576 14 14 (3612672)
I0905 23:47:57.374143 84240 net.cpp:163] Top shape: 32 576 14 14 (3612672)
I0905 23:47:57.374151 84240 net.cpp:163] Top shape: 32 576 14 14 (3612672)
I0905 23:47:57.374157 84240 layer_factory.hpp:76] Creating layer inception_4a/1x1
I0905 23:47:57.374171 84240 net.cpp:110] Creating Layer inception_4a/1x1
I0905 23:47:57.374178 84240 net.cpp:477] inception_4a/1x1 <- inception_3c/output_inception_3c/output_0_split_0
I0905 23:47:57.374194 84240 net.cpp:433] inception_4a/1x1 -> inception_4a/1x1
I0905 23:47:57.377179 84240 net.cpp:155] Setting up inception_4a/1x1
I0905 23:47:57.377204 84240 net.cpp:163] Top shape: 32 224 14 14 (1404928)
I0905 23:47:57.377218 84240 layer_factory.hpp:76] Creating layer inception_4a/relu_1x1
I0905 23:47:57.377235 84240 net.cpp:110] Creating Layer inception_4a/relu_1x1
I0905 23:47:57.377243 84240 net.cpp:477] inception_4a/relu_1x1 <- inception_4a/1x1
I0905 23:47:57.377254 84240 net.cpp:419] inception_4a/relu_1x1 -> inception_4a/1x1 (in-place)
I0905 23:47:57.377267 84240 net.cpp:155] Setting up inception_4a/relu_1x1
I0905 23:47:57.377276 84240 net.cpp:163] Top shape: 32 224 14 14 (1404928)
I0905 23:47:57.377284 84240 layer_factory.hpp:76] Creating layer inception_4a/3x3_reduce
I0905 23:47:57.377296 84240 net.cpp:110] Creating Layer inception_4a/3x3_reduce
I0905 23:47:57.377302 84240 net.cpp:477] inception_4a/3x3_reduce <- inception_3c/output_inception_3c/output_0_split_1
I0905 23:47:57.377315 84240 net.cpp:433] inception_4a/3x3_reduce -> inception_4a/3x3_reduce
I0905 23:47:57.377991 84240 net.cpp:155] Setting up inception_4a/3x3_reduce
I0905 23:47:57.378011 84240 net.cpp:163] Top shape: 32 64 14 14 (401408)
I0905 23:47:57.378023 84240 layer_factory.hpp:76] Creating layer inception_4a/relu_3x3_reduce
I0905 23:47:57.378046 84240 net.cpp:110] Creating Layer inception_4a/relu_3x3_reduce
I0905 23:47:57.378052 84240 net.cpp:477] inception_4a/relu_3x3_reduce <- inception_4a/3x3_reduce
I0905 23:47:57.378063 84240 net.cpp:419] inception_4a/relu_3x3_reduce -> inception_4a/3x3_reduce (in-place)
I0905 23:47:57.378075 84240 net.cpp:155] Setting up inception_4a/relu_3x3_reduce
I0905 23:47:57.378084 84240 net.cpp:163] Top shape: 32 64 14 14 (401408)
I0905 23:47:57.378093 84240 layer_factory.hpp:76] Creating layer inception_4a/3x3
I0905 23:47:57.378108 84240 net.cpp:110] Creating Layer inception_4a/3x3
I0905 23:47:57.378114 84240 net.cpp:477] inception_4a/3x3 <- inception_4a/3x3_reduce
I0905 23:47:57.378124 84240 net.cpp:433] inception_4a/3x3 -> inception_4a/3x3
I0905 23:47:57.379087 84240 net.cpp:155] Setting up inception_4a/3x3
I0905 23:47:57.379104 84240 net.cpp:163] Top shape: 32 96 14 14 (602112)
I0905 23:47:57.379115 84240 layer_factory.hpp:76] Creating layer inception_4a/relu_3x3
I0905 23:47:57.379125 84240 net.cpp:110] Creating Layer inception_4a/relu_3x3
I0905 23:47:57.379132 84240 net.cpp:477] inception_4a/relu_3x3 <- inception_4a/3x3
I0905 23:47:57.379142 84240 net.cpp:419] inception_4a/relu_3x3 -> inception_4a/3x3 (in-place)
I0905 23:47:57.379154 84240 net.cpp:155] Setting up inception_4a/relu_3x3
I0905 23:47:57.379163 84240 net.cpp:163] Top shape: 32 96 14 14 (602112)
I0905 23:47:57.379169 84240 layer_factory.hpp:76] Creating layer inception_4a/double3x3_reduce
I0905 23:47:57.379184 84240 net.cpp:110] Creating Layer inception_4a/double3x3_reduce
I0905 23:47:57.379191 84240 net.cpp:477] inception_4a/double3x3_reduce <- inception_3c/output_inception_3c/output_0_split_2
I0905 23:47:57.379202 84240 net.cpp:433] inception_4a/double3x3_reduce -> inception_4a/double3x3_reduce
I0905 23:47:57.380174 84240 net.cpp:155] Setting up inception_4a/double3x3_reduce
I0905 23:47:57.380192 84240 net.cpp:163] Top shape: 32 96 14 14 (602112)
I0905 23:47:57.380204 84240 layer_factory.hpp:76] Creating layer inception_4a/relu_double3x3_reduce
I0905 23:47:57.380214 84240 net.cpp:110] Creating Layer inception_4a/relu_double3x3_reduce
I0905 23:47:57.380223 84240 net.cpp:477] inception_4a/relu_double3x3_reduce <- inception_4a/double3x3_reduce
I0905 23:47:57.380256 84240 net.cpp:419] inception_4a/relu_double3x3_reduce -> inception_4a/double3x3_reduce (in-place)
I0905 23:47:57.380270 84240 net.cpp:155] Setting up inception_4a/relu_double3x3_reduce
I0905 23:47:57.380280 84240 net.cpp:163] Top shape: 32 96 14 14 (602112)
I0905 23:47:57.380286 84240 layer_factory.hpp:76] Creating layer inception_4a/double3x3_mid
I0905 23:47:57.380298 84240 net.cpp:110] Creating Layer inception_4a/double3x3_mid
I0905 23:47:57.380305 84240 net.cpp:477] inception_4a/double3x3_mid <- inception_4a/double3x3_reduce
I0905 23:47:57.380316 84240 net.cpp:433] inception_4a/double3x3_mid -> inception_4a/double3x3_mid
I0905 23:47:57.382134 84240 net.cpp:155] Setting up inception_4a/double3x3_mid
I0905 23:47:57.382150 84240 net.cpp:163] Top shape: 32 128 14 14 (802816)
I0905 23:47:57.382161 84240 layer_factory.hpp:76] Creating layer inception_4a/relu_double3x3_mid
I0905 23:47:57.382171 84240 net.cpp:110] Creating Layer inception_4a/relu_double3x3_mid
I0905 23:47:57.382179 84240 net.cpp:477] inception_4a/relu_double3x3_mid <- inception_4a/double3x3_mid
I0905 23:47:57.382191 84240 net.cpp:419] inception_4a/relu_double3x3_mid -> inception_4a/double3x3_mid (in-place)
I0905 23:47:57.382203 84240 net.cpp:155] Setting up inception_4a/relu_double3x3_mid
I0905 23:47:57.382211 84240 net.cpp:163] Top shape: 32 128 14 14 (802816)
I0905 23:47:57.382217 84240 layer_factory.hpp:76] Creating layer inception_4a/double3x3
I0905 23:47:57.382230 84240 net.cpp:110] Creating Layer inception_4a/double3x3
I0905 23:47:57.382236 84240 net.cpp:477] inception_4a/double3x3 <- inception_4a/double3x3_mid
I0905 23:47:57.382246 84240 net.cpp:433] inception_4a/double3x3 -> inception_4a/double3x3
I0905 23:47:57.385498 84240 net.cpp:155] Setting up inception_4a/double3x3
I0905 23:47:57.385521 84240 net.cpp:163] Top shape: 32 128 14 14 (802816)
I0905 23:47:57.385535 84240 layer_factory.hpp:76] Creating layer inception_4a/relu_double3x3
I0905 23:47:57.385546 84240 net.cpp:110] Creating Layer inception_4a/relu_double3x3
I0905 23:47:57.385555 84240 net.cpp:477] inception_4a/relu_double3x3 <- inception_4a/double3x3
I0905 23:47:57.385565 84240 net.cpp:419] inception_4a/relu_double3x3 -> inception_4a/double3x3 (in-place)
I0905 23:47:57.385577 84240 net.cpp:155] Setting up inception_4a/relu_double3x3
I0905 23:47:57.385586 84240 net.cpp:163] Top shape: 32 128 14 14 (802816)
I0905 23:47:57.385593 84240 layer_factory.hpp:76] Creating layer inception_4a/pool
I0905 23:47:57.385603 84240 net.cpp:110] Creating Layer inception_4a/pool
I0905 23:47:57.385610 84240 net.cpp:477] inception_4a/pool <- inception_3c/output_inception_3c/output_0_split_3
I0905 23:47:57.385622 84240 net.cpp:433] inception_4a/pool -> inception_4a/pool
I0905 23:47:57.385637 84240 net.cpp:155] Setting up inception_4a/pool
I0905 23:47:57.385645 84240 net.cpp:163] Top shape: 32 576 14 14 (3612672)
I0905 23:47:57.385651 84240 layer_factory.hpp:76] Creating layer inception_4a/pool_proj
I0905 23:47:57.385670 84240 net.cpp:110] Creating Layer inception_4a/pool_proj
I0905 23:47:57.385678 84240 net.cpp:477] inception_4a/pool_proj <- inception_4a/pool
I0905 23:47:57.385689 84240 net.cpp:433] inception_4a/pool_proj -> inception_4a/pool_proj
I0905 23:47:57.386929 84240 net.cpp:155] Setting up inception_4a/pool_proj
I0905 23:47:57.386945 84240 net.cpp:163] Top shape: 32 128 14 14 (802816)
I0905 23:47:57.386956 84240 layer_factory.hpp:76] Creating layer inception_4a/relu_pool_proj
I0905 23:47:57.386967 84240 net.cpp:110] Creating Layer inception_4a/relu_pool_proj
I0905 23:47:57.386975 84240 net.cpp:477] inception_4a/relu_pool_proj <- inception_4a/pool_proj
I0905 23:47:57.386984 84240 net.cpp:419] inception_4a/relu_pool_proj -> inception_4a/pool_proj (in-place)
I0905 23:47:57.386996 84240 net.cpp:155] Setting up inception_4a/relu_pool_proj
I0905 23:47:57.387004 84240 net.cpp:163] Top shape: 32 128 14 14 (802816)
I0905 23:47:57.387011 84240 layer_factory.hpp:76] Creating layer inception_4a/output
I0905 23:47:57.387047 84240 net.cpp:110] Creating Layer inception_4a/output
I0905 23:47:57.387054 84240 net.cpp:477] inception_4a/output <- inception_4a/1x1
I0905 23:47:57.387064 84240 net.cpp:477] inception_4a/output <- inception_4a/3x3
I0905 23:47:57.387073 84240 net.cpp:477] inception_4a/output <- inception_4a/double3x3
I0905 23:47:57.387080 84240 net.cpp:477] inception_4a/output <- inception_4a/pool_proj
I0905 23:47:57.387090 84240 net.cpp:433] inception_4a/output -> inception_4a/output
I0905 23:47:57.387105 84240 net.cpp:155] Setting up inception_4a/output
I0905 23:47:57.387115 84240 net.cpp:163] Top shape: 32 576 14 14 (3612672)
I0905 23:47:57.387121 84240 layer_factory.hpp:76] Creating layer inception_4a/output_inception_4a/output_0_split
I0905 23:47:57.387133 84240 net.cpp:110] Creating Layer inception_4a/output_inception_4a/output_0_split
I0905 23:47:57.387140 84240 net.cpp:477] inception_4a/output_inception_4a/output_0_split <- inception_4a/output
I0905 23:47:57.387151 84240 net.cpp:433] inception_4a/output_inception_4a/output_0_split -> inception_4a/output_inception_4a/output_0_split_0
I0905 23:47:57.387166 84240 net.cpp:433] inception_4a/output_inception_4a/output_0_split -> inception_4a/output_inception_4a/output_0_split_1
I0905 23:47:57.387178 84240 net.cpp:433] inception_4a/output_inception_4a/output_0_split -> inception_4a/output_inception_4a/output_0_split_2
I0905 23:47:57.387192 84240 net.cpp:433] inception_4a/output_inception_4a/output_0_split -> inception_4a/output_inception_4a/output_0_split_3
I0905 23:47:57.387217 84240 net.cpp:433] inception_4a/output_inception_4a/output_0_split -> inception_4a/output_inception_4a/output_0_split_4
I0905 23:47:57.387243 84240 net.cpp:155] Setting up inception_4a/output_inception_4a/output_0_split
I0905 23:47:57.387253 84240 net.cpp:163] Top shape: 32 576 14 14 (3612672)
I0905 23:47:57.387261 84240 net.cpp:163] Top shape: 32 576 14 14 (3612672)
I0905 23:47:57.387269 84240 net.cpp:163] Top shape: 32 576 14 14 (3612672)
I0905 23:47:57.387279 84240 net.cpp:163] Top shape: 32 576 14 14 (3612672)
I0905 23:47:57.387287 84240 net.cpp:163] Top shape: 32 576 14 14 (3612672)
I0905 23:47:57.387293 84240 layer_factory.hpp:76] Creating layer loss1/ave_pool
I0905 23:47:57.387305 84240 net.cpp:110] Creating Layer loss1/ave_pool
I0905 23:47:57.387311 84240 net.cpp:477] loss1/ave_pool <- inception_4a/output_inception_4a/output_0_split_0
I0905 23:47:57.387322 84240 net.cpp:433] loss1/ave_pool -> loss1/ave_pool
I0905 23:47:57.387339 84240 net.cpp:155] Setting up loss1/ave_pool
I0905 23:47:57.387348 84240 net.cpp:163] Top shape: 32 576 4 4 (294912)
I0905 23:47:57.387356 84240 layer_factory.hpp:76] Creating layer loss1/conv
I0905 23:47:57.387368 84240 net.cpp:110] Creating Layer loss1/conv
I0905 23:47:57.387375 84240 net.cpp:477] loss1/conv <- loss1/ave_pool
I0905 23:47:57.387387 84240 net.cpp:433] loss1/conv -> loss1/conv
I0905 23:47:57.388653 84240 net.cpp:155] Setting up loss1/conv
I0905 23:47:57.388670 84240 net.cpp:163] Top shape: 32 128 4 4 (65536)
I0905 23:47:57.388682 84240 layer_factory.hpp:76] Creating layer loss1/relu_conv
I0905 23:47:57.388694 84240 net.cpp:110] Creating Layer loss1/relu_conv
I0905 23:47:57.388700 84240 net.cpp:477] loss1/relu_conv <- loss1/conv
I0905 23:47:57.388713 84240 net.cpp:419] loss1/relu_conv -> loss1/conv (in-place)
I0905 23:47:57.388725 84240 net.cpp:155] Setting up loss1/relu_conv
I0905 23:47:57.388734 84240 net.cpp:163] Top shape: 32 128 4 4 (65536)
I0905 23:47:57.388741 84240 layer_factory.hpp:76] Creating layer loss1/fc
I0905 23:47:57.388761 84240 net.cpp:110] Creating Layer loss1/fc
I0905 23:47:57.388767 84240 net.cpp:477] loss1/fc <- loss1/conv
I0905 23:47:57.388778 84240 net.cpp:433] loss1/fc -> loss1/fc
I0905 23:47:57.427150 84240 net.cpp:155] Setting up loss1/fc
I0905 23:47:57.427193 84240 net.cpp:163] Top shape: 32 1024 (32768)
I0905 23:47:57.427212 84240 layer_factory.hpp:76] Creating layer loss1/relu_fc
I0905 23:47:57.427230 84240 net.cpp:110] Creating Layer loss1/relu_fc
I0905 23:47:57.427240 84240 net.cpp:477] loss1/relu_fc <- loss1/fc
I0905 23:47:57.427290 84240 net.cpp:419] loss1/relu_fc -> loss1/fc (in-place)
I0905 23:47:57.427309 84240 net.cpp:155] Setting up loss1/relu_fc
I0905 23:47:57.427319 84240 net.cpp:163] Top shape: 32 1024 (32768)
I0905 23:47:57.427325 84240 layer_factory.hpp:76] Creating layer loss1/drop_fc
I0905 23:47:57.427346 84240 net.cpp:110] Creating Layer loss1/drop_fc
I0905 23:47:57.427373 84240 net.cpp:477] loss1/drop_fc <- loss1/fc
I0905 23:47:57.427383 84240 net.cpp:419] loss1/drop_fc -> loss1/fc (in-place)
I0905 23:47:57.427410 84240 net.cpp:155] Setting up loss1/drop_fc
I0905 23:47:57.427425 84240 net.cpp:163] Top shape: 32 1024 (32768)
I0905 23:47:57.427433 84240 layer_factory.hpp:76] Creating layer loss1/classifier
I0905 23:47:57.427451 84240 net.cpp:110] Creating Layer loss1/classifier
I0905 23:47:57.427469 84240 net.cpp:477] loss1/classifier <- loss1/fc
I0905 23:47:57.427480 84240 net.cpp:433] loss1/classifier -> loss1/classifier
I0905 23:47:57.446681 84240 net.cpp:155] Setting up loss1/classifier
I0905 23:47:57.446719 84240 net.cpp:163] Top shape: 32 1000 (32000)
I0905 23:47:57.446738 84240 layer_factory.hpp:76] Creating layer loss1/loss
I0905 23:47:57.446761 84240 net.cpp:110] Creating Layer loss1/loss
I0905 23:47:57.446773 84240 net.cpp:477] loss1/loss <- loss1/classifier
I0905 23:47:57.446784 84240 net.cpp:477] loss1/loss <- label_data_1_split_0
I0905 23:47:57.446797 84240 net.cpp:433] loss1/loss -> loss1/loss1
I0905 23:47:57.446825 84240 layer_factory.hpp:76] Creating layer loss1/loss
I0905 23:47:57.447008 84240 net.cpp:155] Setting up loss1/loss
I0905 23:47:57.447026 84240 net.cpp:163] Top shape: (1)
I0905 23:47:57.447031 84240 net.cpp:168]     with loss weight 0.3
I0905 23:47:57.447075 84240 layer_factory.hpp:76] Creating layer inception_4b/1x1
I0905 23:47:57.447091 84240 net.cpp:110] Creating Layer inception_4b/1x1
I0905 23:47:57.447100 84240 net.cpp:477] inception_4b/1x1 <- inception_4a/output_inception_4a/output_0_split_1
I0905 23:47:57.447116 84240 net.cpp:433] inception_4b/1x1 -> inception_4b/1x1
I0905 23:47:57.449913 84240 net.cpp:155] Setting up inception_4b/1x1
I0905 23:47:57.449937 84240 net.cpp:163] Top shape: 32 192 14 14 (1204224)
I0905 23:47:57.449977 84240 layer_factory.hpp:76] Creating layer inception_4b/relu_1x1
I0905 23:47:57.449991 84240 net.cpp:110] Creating Layer inception_4b/relu_1x1
I0905 23:47:57.450001 84240 net.cpp:477] inception_4b/relu_1x1 <- inception_4b/1x1
I0905 23:47:57.450014 84240 net.cpp:419] inception_4b/relu_1x1 -> inception_4b/1x1 (in-place)
I0905 23:47:57.450029 84240 net.cpp:155] Setting up inception_4b/relu_1x1
I0905 23:47:57.450038 84240 net.cpp:163] Top shape: 32 192 14 14 (1204224)
I0905 23:47:57.450045 84240 layer_factory.hpp:76] Creating layer inception_4b/3x3_reduce
I0905 23:47:57.450059 84240 net.cpp:110] Creating Layer inception_4b/3x3_reduce
I0905 23:47:57.450067 84240 net.cpp:477] inception_4b/3x3_reduce <- inception_4a/output_inception_4a/output_0_split_2
I0905 23:47:57.450080 84240 net.cpp:433] inception_4b/3x3_reduce -> inception_4b/3x3_reduce
I0905 23:47:57.451918 84240 net.cpp:155] Setting up inception_4b/3x3_reduce
I0905 23:47:57.451942 84240 net.cpp:163] Top shape: 32 96 14 14 (602112)
I0905 23:47:57.451957 84240 layer_factory.hpp:76] Creating layer inception_4b/relu_3x3_reduce
I0905 23:47:57.451969 84240 net.cpp:110] Creating Layer inception_4b/relu_3x3_reduce
I0905 23:47:57.451977 84240 net.cpp:477] inception_4b/relu_3x3_reduce <- inception_4b/3x3_reduce
I0905 23:47:57.451992 84240 net.cpp:419] inception_4b/relu_3x3_reduce -> inception_4b/3x3_reduce (in-place)
I0905 23:47:57.452005 84240 net.cpp:155] Setting up inception_4b/relu_3x3_reduce
I0905 23:47:57.452015 84240 net.cpp:163] Top shape: 32 96 14 14 (602112)
I0905 23:47:57.452021 84240 layer_factory.hpp:76] Creating layer inception_4b/3x3
I0905 23:47:57.452034 84240 net.cpp:110] Creating Layer inception_4b/3x3
I0905 23:47:57.452041 84240 net.cpp:477] inception_4b/3x3 <- inception_4b/3x3_reduce
I0905 23:47:57.452055 84240 net.cpp:433] inception_4b/3x3 -> inception_4b/3x3
I0905 23:47:57.453879 84240 net.cpp:155] Setting up inception_4b/3x3
I0905 23:47:57.453923 84240 net.cpp:163] Top shape: 32 128 14 14 (802816)
I0905 23:47:57.453937 84240 layer_factory.hpp:76] Creating layer inception_4b/relu_3x3
I0905 23:47:57.453948 84240 net.cpp:110] Creating Layer inception_4b/relu_3x3
I0905 23:47:57.453954 84240 net.cpp:477] inception_4b/relu_3x3 <- inception_4b/3x3
I0905 23:47:57.453965 84240 net.cpp:419] inception_4b/relu_3x3 -> inception_4b/3x3 (in-place)
I0905 23:47:57.453976 84240 net.cpp:155] Setting up inception_4b/relu_3x3
I0905 23:47:57.453985 84240 net.cpp:163] Top shape: 32 128 14 14 (802816)
I0905 23:47:57.453992 84240 layer_factory.hpp:76] Creating layer inception_4b/double3x3_reduce
I0905 23:47:57.454005 84240 net.cpp:110] Creating Layer inception_4b/double3x3_reduce
I0905 23:47:57.454012 84240 net.cpp:477] inception_4b/double3x3_reduce <- inception_4a/output_inception_4a/output_0_split_3
I0905 23:47:57.454027 84240 net.cpp:433] inception_4b/double3x3_reduce -> inception_4b/double3x3_reduce
I0905 23:47:57.454995 84240 net.cpp:155] Setting up inception_4b/double3x3_reduce
I0905 23:47:57.455011 84240 net.cpp:163] Top shape: 32 96 14 14 (602112)
I0905 23:47:57.455024 84240 layer_factory.hpp:76] Creating layer inception_4b/relu_double3x3_reduce
I0905 23:47:57.455034 84240 net.cpp:110] Creating Layer inception_4b/relu_double3x3_reduce
I0905 23:47:57.455042 84240 net.cpp:477] inception_4b/relu_double3x3_reduce <- inception_4b/double3x3_reduce
I0905 23:47:57.455052 84240 net.cpp:419] inception_4b/relu_double3x3_reduce -> inception_4b/double3x3_reduce (in-place)
I0905 23:47:57.455065 84240 net.cpp:155] Setting up inception_4b/relu_double3x3_reduce
I0905 23:47:57.455072 84240 net.cpp:163] Top shape: 32 96 14 14 (602112)
I0905 23:47:57.455080 84240 layer_factory.hpp:76] Creating layer inception_4b/double3x3_mid
I0905 23:47:57.455091 84240 net.cpp:110] Creating Layer inception_4b/double3x3_mid
I0905 23:47:57.455097 84240 net.cpp:477] inception_4b/double3x3_mid <- inception_4b/double3x3_reduce
I0905 23:47:57.455111 84240 net.cpp:433] inception_4b/double3x3_mid -> inception_4b/double3x3_mid
I0905 23:47:57.457811 84240 net.cpp:155] Setting up inception_4b/double3x3_mid
I0905 23:47:57.457836 84240 net.cpp:163] Top shape: 32 128 14 14 (802816)
I0905 23:47:57.457851 84240 layer_factory.hpp:76] Creating layer inception_4b/relu_double3x3_mid
I0905 23:47:57.457864 84240 net.cpp:110] Creating Layer inception_4b/relu_double3x3_mid
I0905 23:47:57.457872 84240 net.cpp:477] inception_4b/relu_double3x3_mid <- inception_4b/double3x3_mid
I0905 23:47:57.457886 84240 net.cpp:419] inception_4b/relu_double3x3_mid -> inception_4b/double3x3_mid (in-place)
I0905 23:47:57.457900 84240 net.cpp:155] Setting up inception_4b/relu_double3x3_mid
I0905 23:47:57.457909 84240 net.cpp:163] Top shape: 32 128 14 14 (802816)
I0905 23:47:57.457916 84240 layer_factory.hpp:76] Creating layer inception_4b/double3x3
I0905 23:47:57.457928 84240 net.cpp:110] Creating Layer inception_4b/double3x3
I0905 23:47:57.457934 84240 net.cpp:477] inception_4b/double3x3 <- inception_4b/double3x3_mid
I0905 23:47:57.457945 84240 net.cpp:433] inception_4b/double3x3 -> inception_4b/double3x3
I0905 23:47:57.460350 84240 net.cpp:155] Setting up inception_4b/double3x3
I0905 23:47:57.460367 84240 net.cpp:163] Top shape: 32 128 14 14 (802816)
I0905 23:47:57.460379 84240 layer_factory.hpp:76] Creating layer inception_4b/relu_double3x3
I0905 23:47:57.460389 84240 net.cpp:110] Creating Layer inception_4b/relu_double3x3
I0905 23:47:57.460397 84240 net.cpp:477] inception_4b/relu_double3x3 <- inception_4b/double3x3
I0905 23:47:57.460408 84240 net.cpp:419] inception_4b/relu_double3x3 -> inception_4b/double3x3 (in-place)
I0905 23:47:57.460420 84240 net.cpp:155] Setting up inception_4b/relu_double3x3
I0905 23:47:57.460429 84240 net.cpp:163] Top shape: 32 128 14 14 (802816)
I0905 23:47:57.460435 84240 layer_factory.hpp:76] Creating layer inception_4b/pool
I0905 23:47:57.460448 84240 net.cpp:110] Creating Layer inception_4b/pool
I0905 23:47:57.460455 84240 net.cpp:477] inception_4b/pool <- inception_4a/output_inception_4a/output_0_split_4
I0905 23:47:57.460489 84240 net.cpp:433] inception_4b/pool -> inception_4b/pool
I0905 23:47:57.460506 84240 net.cpp:155] Setting up inception_4b/pool
I0905 23:47:57.460516 84240 net.cpp:163] Top shape: 32 576 14 14 (3612672)
I0905 23:47:57.460523 84240 layer_factory.hpp:76] Creating layer inception_4b/pool_proj
I0905 23:47:57.460536 84240 net.cpp:110] Creating Layer inception_4b/pool_proj
I0905 23:47:57.460543 84240 net.cpp:477] inception_4b/pool_proj <- inception_4b/pool
I0905 23:47:57.460558 84240 net.cpp:433] inception_4b/pool_proj -> inception_4b/pool_proj
I0905 23:47:57.461822 84240 net.cpp:155] Setting up inception_4b/pool_proj
I0905 23:47:57.461839 84240 net.cpp:163] Top shape: 32 128 14 14 (802816)
I0905 23:47:57.461851 84240 layer_factory.hpp:76] Creating layer inception_4b/relu_pool_proj
I0905 23:47:57.461861 84240 net.cpp:110] Creating Layer inception_4b/relu_pool_proj
I0905 23:47:57.461869 84240 net.cpp:477] inception_4b/relu_pool_proj <- inception_4b/pool_proj
I0905 23:47:57.461877 84240 net.cpp:419] inception_4b/relu_pool_proj -> inception_4b/pool_proj (in-place)
I0905 23:47:57.461889 84240 net.cpp:155] Setting up inception_4b/relu_pool_proj
I0905 23:47:57.461897 84240 net.cpp:163] Top shape: 32 128 14 14 (802816)
I0905 23:47:57.461905 84240 layer_factory.hpp:76] Creating layer inception_4b/output
I0905 23:47:57.461915 84240 net.cpp:110] Creating Layer inception_4b/output
I0905 23:47:57.461921 84240 net.cpp:477] inception_4b/output <- inception_4b/1x1
I0905 23:47:57.461931 84240 net.cpp:477] inception_4b/output <- inception_4b/3x3
I0905 23:47:57.461940 84240 net.cpp:477] inception_4b/output <- inception_4b/double3x3
I0905 23:47:57.461947 84240 net.cpp:477] inception_4b/output <- inception_4b/pool_proj
I0905 23:47:57.461957 84240 net.cpp:433] inception_4b/output -> inception_4b/output
I0905 23:47:57.461973 84240 net.cpp:155] Setting up inception_4b/output
I0905 23:47:57.461982 84240 net.cpp:163] Top shape: 32 576 14 14 (3612672)
I0905 23:47:57.461988 84240 layer_factory.hpp:76] Creating layer inception_4b/output_inception_4b/output_0_split
I0905 23:47:57.462003 84240 net.cpp:110] Creating Layer inception_4b/output_inception_4b/output_0_split
I0905 23:47:57.462010 84240 net.cpp:477] inception_4b/output_inception_4b/output_0_split <- inception_4b/output
I0905 23:47:57.462021 84240 net.cpp:433] inception_4b/output_inception_4b/output_0_split -> inception_4b/output_inception_4b/output_0_split_0
I0905 23:47:57.462034 84240 net.cpp:433] inception_4b/output_inception_4b/output_0_split -> inception_4b/output_inception_4b/output_0_split_1
I0905 23:47:57.462048 84240 net.cpp:433] inception_4b/output_inception_4b/output_0_split -> inception_4b/output_inception_4b/output_0_split_2
I0905 23:47:57.462067 84240 net.cpp:433] inception_4b/output_inception_4b/output_0_split -> inception_4b/output_inception_4b/output_0_split_3
I0905 23:47:57.462081 84240 net.cpp:155] Setting up inception_4b/output_inception_4b/output_0_split
I0905 23:47:57.462090 84240 net.cpp:163] Top shape: 32 576 14 14 (3612672)
I0905 23:47:57.462098 84240 net.cpp:163] Top shape: 32 576 14 14 (3612672)
I0905 23:47:57.462106 84240 net.cpp:163] Top shape: 32 576 14 14 (3612672)
I0905 23:47:57.462115 84240 net.cpp:163] Top shape: 32 576 14 14 (3612672)
I0905 23:47:57.462121 84240 layer_factory.hpp:76] Creating layer inception_4c/1x1
I0905 23:47:57.462133 84240 net.cpp:110] Creating Layer inception_4c/1x1
I0905 23:47:57.462141 84240 net.cpp:477] inception_4c/1x1 <- inception_4b/output_inception_4b/output_0_split_0
I0905 23:47:57.462154 84240 net.cpp:433] inception_4c/1x1 -> inception_4c/1x1
I0905 23:47:57.464584 84240 net.cpp:155] Setting up inception_4c/1x1
I0905 23:47:57.464609 84240 net.cpp:163] Top shape: 32 160 14 14 (1003520)
I0905 23:47:57.464623 84240 layer_factory.hpp:76] Creating layer inception_4c/relu_1x1
I0905 23:47:57.464639 84240 net.cpp:110] Creating Layer inception_4c/relu_1x1
I0905 23:47:57.464648 84240 net.cpp:477] inception_4c/relu_1x1 <- inception_4c/1x1
I0905 23:47:57.464658 84240 net.cpp:419] inception_4c/relu_1x1 -> inception_4c/1x1 (in-place)
I0905 23:47:57.464700 84240 net.cpp:155] Setting up inception_4c/relu_1x1
I0905 23:47:57.464715 84240 net.cpp:163] Top shape: 32 160 14 14 (1003520)
I0905 23:47:57.464721 84240 layer_factory.hpp:76] Creating layer inception_4c/3x3_reduce
I0905 23:47:57.464735 84240 net.cpp:110] Creating Layer inception_4c/3x3_reduce
I0905 23:47:57.464745 84240 net.cpp:477] inception_4c/3x3_reduce <- inception_4b/output_inception_4b/output_0_split_1
I0905 23:47:57.464756 84240 net.cpp:433] inception_4c/3x3_reduce -> inception_4c/3x3_reduce
I0905 23:47:57.466006 84240 net.cpp:155] Setting up inception_4c/3x3_reduce
I0905 23:47:57.466022 84240 net.cpp:163] Top shape: 32 128 14 14 (802816)
I0905 23:47:57.466034 84240 layer_factory.hpp:76] Creating layer inception_4c/relu_3x3_reduce
I0905 23:47:57.466048 84240 net.cpp:110] Creating Layer inception_4c/relu_3x3_reduce
I0905 23:47:57.466055 84240 net.cpp:477] inception_4c/relu_3x3_reduce <- inception_4c/3x3_reduce
I0905 23:47:57.466065 84240 net.cpp:419] inception_4c/relu_3x3_reduce -> inception_4c/3x3_reduce (in-place)
I0905 23:47:57.466078 84240 net.cpp:155] Setting up inception_4c/relu_3x3_reduce
I0905 23:47:57.466086 84240 net.cpp:163] Top shape: 32 128 14 14 (802816)
I0905 23:47:57.466094 84240 layer_factory.hpp:76] Creating layer inception_4c/3x3
I0905 23:47:57.466105 84240 net.cpp:110] Creating Layer inception_4c/3x3
I0905 23:47:57.466120 84240 net.cpp:477] inception_4c/3x3 <- inception_4c/3x3_reduce
I0905 23:47:57.466130 84240 net.cpp:433] inception_4c/3x3 -> inception_4c/3x3
I0905 23:47:57.469986 84240 net.cpp:155] Setting up inception_4c/3x3
I0905 23:47:57.470011 84240 net.cpp:163] Top shape: 32 160 14 14 (1003520)
I0905 23:47:57.470026 84240 layer_factory.hpp:76] Creating layer inception_4c/relu_3x3
I0905 23:47:57.470037 84240 net.cpp:110] Creating Layer inception_4c/relu_3x3
I0905 23:47:57.470046 84240 net.cpp:477] inception_4c/relu_3x3 <- inception_4c/3x3
I0905 23:47:57.470055 84240 net.cpp:419] inception_4c/relu_3x3 -> inception_4c/3x3 (in-place)
I0905 23:47:57.470069 84240 net.cpp:155] Setting up inception_4c/relu_3x3
I0905 23:47:57.470083 84240 net.cpp:163] Top shape: 32 160 14 14 (1003520)
I0905 23:47:57.470089 84240 layer_factory.hpp:76] Creating layer inception_4c/double3x3_reduce
I0905 23:47:57.470109 84240 net.cpp:110] Creating Layer inception_4c/double3x3_reduce
I0905 23:47:57.470125 84240 net.cpp:477] inception_4c/double3x3_reduce <- inception_4b/output_inception_4b/output_0_split_2
I0905 23:47:57.470137 84240 net.cpp:433] inception_4c/double3x3_reduce -> inception_4c/double3x3_reduce
I0905 23:47:57.471391 84240 net.cpp:155] Setting up inception_4c/double3x3_reduce
I0905 23:47:57.471408 84240 net.cpp:163] Top shape: 32 128 14 14 (802816)
I0905 23:47:57.471421 84240 layer_factory.hpp:76] Creating layer inception_4c/relu_double3x3_reduce
I0905 23:47:57.471431 84240 net.cpp:110] Creating Layer inception_4c/relu_double3x3_reduce
I0905 23:47:57.471438 84240 net.cpp:477] inception_4c/relu_double3x3_reduce <- inception_4c/double3x3_reduce
I0905 23:47:57.471447 84240 net.cpp:419] inception_4c/relu_double3x3_reduce -> inception_4c/double3x3_reduce (in-place)
I0905 23:47:57.471459 84240 net.cpp:155] Setting up inception_4c/relu_double3x3_reduce
I0905 23:47:57.471468 84240 net.cpp:163] Top shape: 32 128 14 14 (802816)
I0905 23:47:57.471475 84240 layer_factory.hpp:76] Creating layer inception_4c/double3x3_mid
I0905 23:47:57.471490 84240 net.cpp:110] Creating Layer inception_4c/double3x3_mid
I0905 23:47:57.471509 84240 net.cpp:477] inception_4c/double3x3_mid <- inception_4c/double3x3_reduce
I0905 23:47:57.471520 84240 net.cpp:433] inception_4c/double3x3_mid -> inception_4c/double3x3_mid
I0905 23:47:57.475389 84240 net.cpp:155] Setting up inception_4c/double3x3_mid
I0905 23:47:57.475412 84240 net.cpp:163] Top shape: 32 160 14 14 (1003520)
I0905 23:47:57.475433 84240 layer_factory.hpp:76] Creating layer inception_4c/relu_double3x3_mid
I0905 23:47:57.475448 84240 net.cpp:110] Creating Layer inception_4c/relu_double3x3_mid
I0905 23:47:57.475461 84240 net.cpp:477] inception_4c/relu_double3x3_mid <- inception_4c/double3x3_mid
I0905 23:47:57.475497 84240 net.cpp:419] inception_4c/relu_double3x3_mid -> inception_4c/double3x3_mid (in-place)
I0905 23:47:57.475514 84240 net.cpp:155] Setting up inception_4c/relu_double3x3_mid
I0905 23:47:57.475528 84240 net.cpp:163] Top shape: 32 160 14 14 (1003520)
I0905 23:47:57.475536 84240 layer_factory.hpp:76] Creating layer inception_4c/double3x3
I0905 23:47:57.475549 84240 net.cpp:110] Creating Layer inception_4c/double3x3
I0905 23:47:57.475558 84240 net.cpp:477] inception_4c/double3x3 <- inception_4c/double3x3_mid
I0905 23:47:57.475574 84240 net.cpp:433] inception_4c/double3x3 -> inception_4c/double3x3
I0905 23:47:57.480159 84240 net.cpp:155] Setting up inception_4c/double3x3
I0905 23:47:57.480182 84240 net.cpp:163] Top shape: 32 160 14 14 (1003520)
I0905 23:47:57.480211 84240 layer_factory.hpp:76] Creating layer inception_4c/relu_double3x3
I0905 23:47:57.480226 84240 net.cpp:110] Creating Layer inception_4c/relu_double3x3
I0905 23:47:57.480239 84240 net.cpp:477] inception_4c/relu_double3x3 <- inception_4c/double3x3
I0905 23:47:57.480253 84240 net.cpp:419] inception_4c/relu_double3x3 -> inception_4c/double3x3 (in-place)
I0905 23:47:57.480270 84240 net.cpp:155] Setting up inception_4c/relu_double3x3
I0905 23:47:57.480283 84240 net.cpp:163] Top shape: 32 160 14 14 (1003520)
I0905 23:47:57.480291 84240 layer_factory.hpp:76] Creating layer inception_4c/pool
I0905 23:47:57.480304 84240 net.cpp:110] Creating Layer inception_4c/pool
I0905 23:47:57.480314 84240 net.cpp:477] inception_4c/pool <- inception_4b/output_inception_4b/output_0_split_3
I0905 23:47:57.480324 84240 net.cpp:433] inception_4c/pool -> inception_4c/pool
I0905 23:47:57.480343 84240 net.cpp:155] Setting up inception_4c/pool
I0905 23:47:57.480355 84240 net.cpp:163] Top shape: 32 576 14 14 (3612672)
I0905 23:47:57.480365 84240 layer_factory.hpp:76] Creating layer inception_4c/pool_proj
I0905 23:47:57.480378 84240 net.cpp:110] Creating Layer inception_4c/pool_proj
I0905 23:47:57.480387 84240 net.cpp:477] inception_4c/pool_proj <- inception_4c/pool
I0905 23:47:57.480402 84240 net.cpp:433] inception_4c/pool_proj -> inception_4c/pool_proj
I0905 23:47:57.481654 84240 net.cpp:155] Setting up inception_4c/pool_proj
I0905 23:47:57.481672 84240 net.cpp:163] Top shape: 32 128 14 14 (802816)
I0905 23:47:57.481683 84240 layer_factory.hpp:76] Creating layer inception_4c/relu_pool_proj
I0905 23:47:57.481696 84240 net.cpp:110] Creating Layer inception_4c/relu_pool_proj
I0905 23:47:57.481706 84240 net.cpp:477] inception_4c/relu_pool_proj <- inception_4c/pool_proj
I0905 23:47:57.481716 84240 net.cpp:419] inception_4c/relu_pool_proj -> inception_4c/pool_proj (in-place)
I0905 23:47:57.481730 84240 net.cpp:155] Setting up inception_4c/relu_pool_proj
I0905 23:47:57.481742 84240 net.cpp:163] Top shape: 32 128 14 14 (802816)
I0905 23:47:57.481751 84240 layer_factory.hpp:76] Creating layer inception_4c/output
I0905 23:47:57.481762 84240 net.cpp:110] Creating Layer inception_4c/output
I0905 23:47:57.481771 84240 net.cpp:477] inception_4c/output <- inception_4c/1x1
I0905 23:47:57.481781 84240 net.cpp:477] inception_4c/output <- inception_4c/3x3
I0905 23:47:57.481792 84240 net.cpp:477] inception_4c/output <- inception_4c/double3x3
I0905 23:47:57.481802 84240 net.cpp:477] inception_4c/output <- inception_4c/pool_proj
I0905 23:47:57.481813 84240 net.cpp:433] inception_4c/output -> inception_4c/output
I0905 23:47:57.481832 84240 net.cpp:155] Setting up inception_4c/output
I0905 23:47:57.481842 84240 net.cpp:163] Top shape: 32 608 14 14 (3813376)
I0905 23:47:57.481849 84240 layer_factory.hpp:76] Creating layer inception_4c/output_inception_4c/output_0_split
I0905 23:47:57.481865 84240 net.cpp:110] Creating Layer inception_4c/output_inception_4c/output_0_split
I0905 23:47:57.481876 84240 net.cpp:477] inception_4c/output_inception_4c/output_0_split <- inception_4c/output
I0905 23:47:57.481887 84240 net.cpp:433] inception_4c/output_inception_4c/output_0_split -> inception_4c/output_inception_4c/output_0_split_0
I0905 23:47:57.481925 84240 net.cpp:433] inception_4c/output_inception_4c/output_0_split -> inception_4c/output_inception_4c/output_0_split_1
I0905 23:47:57.481941 84240 net.cpp:433] inception_4c/output_inception_4c/output_0_split -> inception_4c/output_inception_4c/output_0_split_2
I0905 23:47:57.481961 84240 net.cpp:433] inception_4c/output_inception_4c/output_0_split -> inception_4c/output_inception_4c/output_0_split_3
I0905 23:47:57.481977 84240 net.cpp:155] Setting up inception_4c/output_inception_4c/output_0_split
I0905 23:47:57.481989 84240 net.cpp:163] Top shape: 32 608 14 14 (3813376)
I0905 23:47:57.481999 84240 net.cpp:163] Top shape: 32 608 14 14 (3813376)
I0905 23:47:57.482007 84240 net.cpp:163] Top shape: 32 608 14 14 (3813376)
I0905 23:47:57.482017 84240 net.cpp:163] Top shape: 32 608 14 14 (3813376)
I0905 23:47:57.482024 84240 layer_factory.hpp:76] Creating layer inception_4d/1x1
I0905 23:47:57.482039 84240 net.cpp:110] Creating Layer inception_4d/1x1
I0905 23:47:57.482048 84240 net.cpp:477] inception_4d/1x1 <- inception_4c/output_inception_4c/output_0_split_0
I0905 23:47:57.482064 84240 net.cpp:433] inception_4d/1x1 -> inception_4d/1x1
I0905 23:47:57.483109 84240 net.cpp:155] Setting up inception_4d/1x1
I0905 23:47:57.483125 84240 net.cpp:163] Top shape: 32 96 14 14 (602112)
I0905 23:47:57.483140 84240 layer_factory.hpp:76] Creating layer inception_4d/relu_1x1
I0905 23:47:57.483153 84240 net.cpp:110] Creating Layer inception_4d/relu_1x1
I0905 23:47:57.483163 84240 net.cpp:477] inception_4d/relu_1x1 <- inception_4d/1x1
I0905 23:47:57.483173 84240 net.cpp:419] inception_4d/relu_1x1 -> inception_4d/1x1 (in-place)
I0905 23:47:57.483188 84240 net.cpp:155] Setting up inception_4d/relu_1x1
I0905 23:47:57.483199 84240 net.cpp:163] Top shape: 32 96 14 14 (602112)
I0905 23:47:57.483209 84240 layer_factory.hpp:76] Creating layer inception_4d/3x3_reduce
I0905 23:47:57.483225 84240 net.cpp:110] Creating Layer inception_4d/3x3_reduce
I0905 23:47:57.483235 84240 net.cpp:477] inception_4d/3x3_reduce <- inception_4c/output_inception_4c/output_0_split_1
I0905 23:47:57.483247 84240 net.cpp:433] inception_4d/3x3_reduce -> inception_4d/3x3_reduce
I0905 23:47:57.484585 84240 net.cpp:155] Setting up inception_4d/3x3_reduce
I0905 23:47:57.484601 84240 net.cpp:163] Top shape: 32 128 14 14 (802816)
I0905 23:47:57.484612 84240 layer_factory.hpp:76] Creating layer inception_4d/relu_3x3_reduce
I0905 23:47:57.484622 84240 net.cpp:110] Creating Layer inception_4d/relu_3x3_reduce
I0905 23:47:57.484632 84240 net.cpp:477] inception_4d/relu_3x3_reduce <- inception_4d/3x3_reduce
I0905 23:47:57.484642 84240 net.cpp:419] inception_4d/relu_3x3_reduce -> inception_4d/3x3_reduce (in-place)
I0905 23:47:57.484658 84240 net.cpp:155] Setting up inception_4d/relu_3x3_reduce
I0905 23:47:57.484668 84240 net.cpp:163] Top shape: 32 128 14 14 (802816)
I0905 23:47:57.484678 84240 layer_factory.hpp:76] Creating layer inception_4d/3x3
I0905 23:47:57.484694 84240 net.cpp:110] Creating Layer inception_4d/3x3
I0905 23:47:57.484704 84240 net.cpp:477] inception_4d/3x3 <- inception_4d/3x3_reduce
I0905 23:47:57.484714 84240 net.cpp:433] inception_4d/3x3 -> inception_4d/3x3
I0905 23:47:57.489154 84240 net.cpp:155] Setting up inception_4d/3x3
I0905 23:47:57.489178 84240 net.cpp:163] Top shape: 32 192 14 14 (1204224)
I0905 23:47:57.489199 84240 layer_factory.hpp:76] Creating layer inception_4d/relu_3x3
I0905 23:47:57.489214 84240 net.cpp:110] Creating Layer inception_4d/relu_3x3
I0905 23:47:57.489225 84240 net.cpp:477] inception_4d/relu_3x3 <- inception_4d/3x3
I0905 23:47:57.489236 84240 net.cpp:419] inception_4d/relu_3x3 -> inception_4d/3x3 (in-place)
I0905 23:47:57.489253 84240 net.cpp:155] Setting up inception_4d/relu_3x3
I0905 23:47:57.489264 84240 net.cpp:163] Top shape: 32 192 14 14 (1204224)
I0905 23:47:57.489274 84240 layer_factory.hpp:76] Creating layer inception_4d/double3x3_reduce
I0905 23:47:57.489286 84240 net.cpp:110] Creating Layer inception_4d/double3x3_reduce
I0905 23:47:57.489295 84240 net.cpp:477] inception_4d/double3x3_reduce <- inception_4c/output_inception_4c/output_0_split_2
I0905 23:47:57.489331 84240 net.cpp:433] inception_4d/double3x3_reduce -> inception_4d/double3x3_reduce
I0905 23:47:57.491827 84240 net.cpp:155] Setting up inception_4d/double3x3_reduce
I0905 23:47:57.491850 84240 net.cpp:163] Top shape: 32 160 14 14 (1003520)
I0905 23:47:57.491866 84240 layer_factory.hpp:76] Creating layer inception_4d/relu_double3x3_reduce
I0905 23:47:57.491881 84240 net.cpp:110] Creating Layer inception_4d/relu_double3x3_reduce
I0905 23:47:57.491893 84240 net.cpp:477] inception_4d/relu_double3x3_reduce <- inception_4d/double3x3_reduce
I0905 23:47:57.491906 84240 net.cpp:419] inception_4d/relu_double3x3_reduce -> inception_4d/double3x3_reduce (in-place)
I0905 23:47:57.491924 84240 net.cpp:155] Setting up inception_4d/relu_double3x3_reduce
I0905 23:47:57.491935 84240 net.cpp:163] Top shape: 32 160 14 14 (1003520)
I0905 23:47:57.491943 84240 layer_factory.hpp:76] Creating layer inception_4d/double3x3_mid
I0905 23:47:57.491986 84240 net.cpp:110] Creating Layer inception_4d/double3x3_mid
I0905 23:47:57.491997 84240 net.cpp:477] inception_4d/double3x3_mid <- inception_4d/double3x3_reduce
I0905 23:47:57.492010 84240 net.cpp:433] inception_4d/double3x3_mid -> inception_4d/double3x3_mid
I0905 23:47:57.497406 84240 net.cpp:155] Setting up inception_4d/double3x3_mid
I0905 23:47:57.497445 84240 net.cpp:163] Top shape: 32 192 14 14 (1204224)
I0905 23:47:57.497464 84240 layer_factory.hpp:76] Creating layer inception_4d/relu_double3x3_mid
I0905 23:47:57.497485 84240 net.cpp:110] Creating Layer inception_4d/relu_double3x3_mid
I0905 23:47:57.497499 84240 net.cpp:477] inception_4d/relu_double3x3_mid <- inception_4d/double3x3_mid
I0905 23:47:57.497517 84240 net.cpp:419] inception_4d/relu_double3x3_mid -> inception_4d/double3x3_mid (in-place)
I0905 23:47:57.497536 84240 net.cpp:155] Setting up inception_4d/relu_double3x3_mid
I0905 23:47:57.497545 84240 net.cpp:163] Top shape: 32 192 14 14 (1204224)
I0905 23:47:57.497553 84240 layer_factory.hpp:76] Creating layer inception_4d/double3x3
I0905 23:47:57.497568 84240 net.cpp:110] Creating Layer inception_4d/double3x3
I0905 23:47:57.497575 84240 net.cpp:477] inception_4d/double3x3 <- inception_4d/double3x3_mid
I0905 23:47:57.497586 84240 net.cpp:433] inception_4d/double3x3 -> inception_4d/double3x3
I0905 23:47:57.503968 84240 net.cpp:155] Setting up inception_4d/double3x3
I0905 23:47:57.503993 84240 net.cpp:163] Top shape: 32 192 14 14 (1204224)
I0905 23:47:57.504006 84240 layer_factory.hpp:76] Creating layer inception_4d/relu_double3x3
I0905 23:47:57.504019 84240 net.cpp:110] Creating Layer inception_4d/relu_double3x3
I0905 23:47:57.504026 84240 net.cpp:477] inception_4d/relu_double3x3 <- inception_4d/double3x3
I0905 23:47:57.504036 84240 net.cpp:419] inception_4d/relu_double3x3 -> inception_4d/double3x3 (in-place)
I0905 23:47:57.504050 84240 net.cpp:155] Setting up inception_4d/relu_double3x3
I0905 23:47:57.504060 84240 net.cpp:163] Top shape: 32 192 14 14 (1204224)
I0905 23:47:57.504067 84240 layer_factory.hpp:76] Creating layer inception_4d/pool
I0905 23:47:57.504083 84240 net.cpp:110] Creating Layer inception_4d/pool
I0905 23:47:57.504097 84240 net.cpp:477] inception_4d/pool <- inception_4c/output_inception_4c/output_0_split_3
I0905 23:47:57.504109 84240 net.cpp:433] inception_4d/pool -> inception_4d/pool
I0905 23:47:57.504129 84240 net.cpp:155] Setting up inception_4d/pool
I0905 23:47:57.504142 84240 net.cpp:163] Top shape: 32 608 14 14 (3813376)
I0905 23:47:57.504149 84240 layer_factory.hpp:76] Creating layer inception_4d/pool_proj
I0905 23:47:57.504169 84240 net.cpp:110] Creating Layer inception_4d/pool_proj
I0905 23:47:57.504179 84240 net.cpp:477] inception_4d/pool_proj <- inception_4d/pool
I0905 23:47:57.504191 84240 net.cpp:433] inception_4d/pool_proj -> inception_4d/pool_proj
I0905 23:47:57.505529 84240 net.cpp:155] Setting up inception_4d/pool_proj
I0905 23:47:57.505548 84240 net.cpp:163] Top shape: 32 128 14 14 (802816)
I0905 23:47:57.505559 84240 layer_factory.hpp:76] Creating layer inception_4d/relu_pool_proj
I0905 23:47:57.505573 84240 net.cpp:110] Creating Layer inception_4d/relu_pool_proj
I0905 23:47:57.505607 84240 net.cpp:477] inception_4d/relu_pool_proj <- inception_4d/pool_proj
I0905 23:47:57.505622 84240 net.cpp:419] inception_4d/relu_pool_proj -> inception_4d/pool_proj (in-place)
I0905 23:47:57.505637 84240 net.cpp:155] Setting up inception_4d/relu_pool_proj
I0905 23:47:57.505650 84240 net.cpp:163] Top shape: 32 128 14 14 (802816)
I0905 23:47:57.505659 84240 layer_factory.hpp:76] Creating layer inception_4d/output
I0905 23:47:57.505671 84240 net.cpp:110] Creating Layer inception_4d/output
I0905 23:47:57.505679 84240 net.cpp:477] inception_4d/output <- inception_4d/1x1
I0905 23:47:57.505689 84240 net.cpp:477] inception_4d/output <- inception_4d/3x3
I0905 23:47:57.505700 84240 net.cpp:477] inception_4d/output <- inception_4d/double3x3
I0905 23:47:57.505709 84240 net.cpp:477] inception_4d/output <- inception_4d/pool_proj
I0905 23:47:57.505722 84240 net.cpp:433] inception_4d/output -> inception_4d/output
I0905 23:47:57.505740 84240 net.cpp:155] Setting up inception_4d/output
I0905 23:47:57.505753 84240 net.cpp:163] Top shape: 32 608 14 14 (3813376)
I0905 23:47:57.505761 84240 layer_factory.hpp:76] Creating layer inception_4d/output_inception_4d/output_0_split
I0905 23:47:57.505774 84240 net.cpp:110] Creating Layer inception_4d/output_inception_4d/output_0_split
I0905 23:47:57.505782 84240 net.cpp:477] inception_4d/output_inception_4d/output_0_split <- inception_4d/output
I0905 23:47:57.505798 84240 net.cpp:433] inception_4d/output_inception_4d/output_0_split -> inception_4d/output_inception_4d/output_0_split_0
I0905 23:47:57.505815 84240 net.cpp:433] inception_4d/output_inception_4d/output_0_split -> inception_4d/output_inception_4d/output_0_split_1
I0905 23:47:57.505831 84240 net.cpp:433] inception_4d/output_inception_4d/output_0_split -> inception_4d/output_inception_4d/output_0_split_2
I0905 23:47:57.505847 84240 net.cpp:433] inception_4d/output_inception_4d/output_0_split -> inception_4d/output_inception_4d/output_0_split_3
I0905 23:47:57.505863 84240 net.cpp:155] Setting up inception_4d/output_inception_4d/output_0_split
I0905 23:47:57.505875 84240 net.cpp:163] Top shape: 32 608 14 14 (3813376)
I0905 23:47:57.505887 84240 net.cpp:163] Top shape: 32 608 14 14 (3813376)
I0905 23:47:57.505893 84240 net.cpp:163] Top shape: 32 608 14 14 (3813376)
I0905 23:47:57.505903 84240 net.cpp:163] Top shape: 32 608 14 14 (3813376)
I0905 23:47:57.505910 84240 layer_factory.hpp:76] Creating layer loss2/ave_pool
I0905 23:47:57.505923 84240 net.cpp:110] Creating Layer loss2/ave_pool
I0905 23:47:57.505934 84240 net.cpp:477] loss2/ave_pool <- inception_4d/output_inception_4d/output_0_split_0
I0905 23:47:57.505944 84240 net.cpp:433] loss2/ave_pool -> loss2/ave_pool
I0905 23:47:57.505961 84240 net.cpp:155] Setting up loss2/ave_pool
I0905 23:47:57.505973 84240 net.cpp:163] Top shape: 32 608 4 4 (311296)
I0905 23:47:57.505982 84240 layer_factory.hpp:76] Creating layer loss2/conv
I0905 23:47:57.506007 84240 net.cpp:110] Creating Layer loss2/conv
I0905 23:47:57.506018 84240 net.cpp:477] loss2/conv <- loss2/ave_pool
I0905 23:47:57.506029 84240 net.cpp:433] loss2/conv -> loss2/conv
I0905 23:47:57.507375 84240 net.cpp:155] Setting up loss2/conv
I0905 23:47:57.507391 84240 net.cpp:163] Top shape: 32 128 4 4 (65536)
I0905 23:47:57.507406 84240 layer_factory.hpp:76] Creating layer loss2/relu_conv
I0905 23:47:57.507419 84240 net.cpp:110] Creating Layer loss2/relu_conv
I0905 23:47:57.507429 84240 net.cpp:477] loss2/relu_conv <- loss2/conv
I0905 23:47:57.507438 84240 net.cpp:419] loss2/relu_conv -> loss2/conv (in-place)
I0905 23:47:57.507453 84240 net.cpp:155] Setting up loss2/relu_conv
I0905 23:47:57.507464 84240 net.cpp:163] Top shape: 32 128 4 4 (65536)
I0905 23:47:57.507473 84240 layer_factory.hpp:76] Creating layer loss2/fc
I0905 23:47:57.507491 84240 net.cpp:110] Creating Layer loss2/fc
I0905 23:47:57.507501 84240 net.cpp:477] loss2/fc <- loss2/conv
I0905 23:47:57.507513 84240 net.cpp:433] loss2/fc -> loss2/fc
I0905 23:47:57.546464 84240 net.cpp:155] Setting up loss2/fc
I0905 23:47:57.546546 84240 net.cpp:163] Top shape: 32 1024 (32768)
I0905 23:47:57.546566 84240 layer_factory.hpp:76] Creating layer loss2/relu_fc
I0905 23:47:57.546589 84240 net.cpp:110] Creating Layer loss2/relu_fc
I0905 23:47:57.546599 84240 net.cpp:477] loss2/relu_fc <- loss2/fc
I0905 23:47:57.546612 84240 net.cpp:419] loss2/relu_fc -> loss2/fc (in-place)
I0905 23:47:57.546633 84240 net.cpp:155] Setting up loss2/relu_fc
I0905 23:47:57.546643 84240 net.cpp:163] Top shape: 32 1024 (32768)
I0905 23:47:57.546649 84240 layer_factory.hpp:76] Creating layer loss2/drop_fc
I0905 23:47:57.546663 84240 net.cpp:110] Creating Layer loss2/drop_fc
I0905 23:47:57.546669 84240 net.cpp:477] loss2/drop_fc <- loss2/fc
I0905 23:47:57.546679 84240 net.cpp:419] loss2/drop_fc -> loss2/fc (in-place)
I0905 23:47:57.546694 84240 net.cpp:155] Setting up loss2/drop_fc
I0905 23:47:57.546701 84240 net.cpp:163] Top shape: 32 1024 (32768)
I0905 23:47:57.546708 84240 layer_factory.hpp:76] Creating layer loss2/classifier
I0905 23:47:57.546723 84240 net.cpp:110] Creating Layer loss2/classifier
I0905 23:47:57.546730 84240 net.cpp:477] loss2/classifier <- loss2/fc
I0905 23:47:57.546743 84240 net.cpp:433] loss2/classifier -> loss2/classifier
I0905 23:47:57.569155 84240 net.cpp:155] Setting up loss2/classifier
I0905 23:47:57.569272 84240 net.cpp:163] Top shape: 32 1000 (32000)
I0905 23:47:57.569355 84240 layer_factory.hpp:76] Creating layer loss2/loss
I0905 23:47:57.569406 84240 net.cpp:110] Creating Layer loss2/loss
I0905 23:47:57.569492 84240 net.cpp:477] loss2/loss <- loss2/classifier
I0905 23:47:57.569524 84240 net.cpp:477] loss2/loss <- label_data_1_split_1
I0905 23:47:57.569547 84240 net.cpp:433] loss2/loss -> loss2/loss1
I0905 23:47:57.569597 84240 layer_factory.hpp:76] Creating layer loss2/loss
I0905 23:47:57.569990 84240 net.cpp:155] Setting up loss2/loss
I0905 23:47:57.570008 84240 net.cpp:163] Top shape: (1)
I0905 23:47:57.570014 84240 net.cpp:168]     with loss weight 0.3
I0905 23:47:57.570075 84240 layer_factory.hpp:76] Creating layer inception_4e/3x3_reduce
I0905 23:47:57.570114 84240 net.cpp:110] Creating Layer inception_4e/3x3_reduce
I0905 23:47:57.570142 84240 net.cpp:477] inception_4e/3x3_reduce <- inception_4d/output_inception_4d/output_0_split_1
I0905 23:47:57.570169 84240 net.cpp:433] inception_4e/3x3_reduce -> inception_4e/3x3_reduce
I0905 23:47:57.572746 84240 net.cpp:155] Setting up inception_4e/3x3_reduce
I0905 23:47:57.572772 84240 net.cpp:163] Top shape: 32 128 14 14 (802816)
I0905 23:47:57.572788 84240 layer_factory.hpp:76] Creating layer inception_4e/relu_3x3_reduce
I0905 23:47:57.572806 84240 net.cpp:110] Creating Layer inception_4e/relu_3x3_reduce
I0905 23:47:57.572824 84240 net.cpp:477] inception_4e/relu_3x3_reduce <- inception_4e/3x3_reduce
I0905 23:47:57.572839 84240 net.cpp:419] inception_4e/relu_3x3_reduce -> inception_4e/3x3_reduce (in-place)
I0905 23:47:57.572854 84240 net.cpp:155] Setting up inception_4e/relu_3x3_reduce
I0905 23:47:57.572863 84240 net.cpp:163] Top shape: 32 128 14 14 (802816)
I0905 23:47:57.572870 84240 layer_factory.hpp:76] Creating layer inception_4e/3x3_s2
I0905 23:47:57.572882 84240 net.cpp:110] Creating Layer inception_4e/3x3_s2
I0905 23:47:57.572890 84240 net.cpp:477] inception_4e/3x3_s2 <- inception_4e/3x3_reduce
I0905 23:47:57.572902 84240 net.cpp:433] inception_4e/3x3_s2 -> inception_4e/3x3_s2
I0905 23:47:57.577602 84240 net.cpp:155] Setting up inception_4e/3x3_s2
I0905 23:47:57.577627 84240 net.cpp:163] Top shape: 32 192 7 7 (301056)
I0905 23:47:57.577642 84240 layer_factory.hpp:76] Creating layer inception_4e/relu_3x3
I0905 23:47:57.577661 84240 net.cpp:110] Creating Layer inception_4e/relu_3x3
I0905 23:47:57.577669 84240 net.cpp:477] inception_4e/relu_3x3 <- inception_4e/3x3_s2
I0905 23:47:57.577679 84240 net.cpp:419] inception_4e/relu_3x3 -> inception_4e/3x3_s2 (in-place)
I0905 23:47:57.577692 84240 net.cpp:155] Setting up inception_4e/relu_3x3
I0905 23:47:57.577702 84240 net.cpp:163] Top shape: 32 192 7 7 (301056)
I0905 23:47:57.577708 84240 layer_factory.hpp:76] Creating layer inception_4e/double3x3_reduce
I0905 23:47:57.577749 84240 net.cpp:110] Creating Layer inception_4e/double3x3_reduce
I0905 23:47:57.577756 84240 net.cpp:477] inception_4e/double3x3_reduce <- inception_4d/output_inception_4d/output_0_split_2
I0905 23:47:57.577775 84240 net.cpp:433] inception_4e/double3x3_reduce -> inception_4e/double3x3_reduce
I0905 23:47:57.579730 84240 net.cpp:155] Setting up inception_4e/double3x3_reduce
I0905 23:47:57.579749 84240 net.cpp:163] Top shape: 32 192 14 14 (1204224)
I0905 23:47:57.579772 84240 layer_factory.hpp:76] Creating layer inception_4e/relu_double3x3_reduce
I0905 23:47:57.579783 84240 net.cpp:110] Creating Layer inception_4e/relu_double3x3_reduce
I0905 23:47:57.579792 84240 net.cpp:477] inception_4e/relu_double3x3_reduce <- inception_4e/double3x3_reduce
I0905 23:47:57.579802 84240 net.cpp:419] inception_4e/relu_double3x3_reduce -> inception_4e/double3x3_reduce (in-place)
I0905 23:47:57.579813 84240 net.cpp:155] Setting up inception_4e/relu_double3x3_reduce
I0905 23:47:57.579823 84240 net.cpp:163] Top shape: 32 192 14 14 (1204224)
I0905 23:47:57.579828 84240 layer_factory.hpp:76] Creating layer inception_4e/double3x3_mid
I0905 23:47:57.579852 84240 net.cpp:110] Creating Layer inception_4e/double3x3_mid
I0905 23:47:57.579859 84240 net.cpp:477] inception_4e/double3x3_mid <- inception_4e/double3x3_reduce
I0905 23:47:57.579870 84240 net.cpp:433] inception_4e/double3x3_mid -> inception_4e/double3x3_mid
I0905 23:47:57.588174 84240 net.cpp:155] Setting up inception_4e/double3x3_mid
I0905 23:47:57.588199 84240 net.cpp:163] Top shape: 32 256 14 14 (1605632)
I0905 23:47:57.588213 84240 layer_factory.hpp:76] Creating layer inception_4e/relu_double3x3_mid
I0905 23:47:57.588230 84240 net.cpp:110] Creating Layer inception_4e/relu_double3x3_mid
I0905 23:47:57.588239 84240 net.cpp:477] inception_4e/relu_double3x3_mid <- inception_4e/double3x3_mid
I0905 23:47:57.588249 84240 net.cpp:419] inception_4e/relu_double3x3_mid -> inception_4e/double3x3_mid (in-place)
I0905 23:47:57.588263 84240 net.cpp:155] Setting up inception_4e/relu_double3x3_mid
I0905 23:47:57.588271 84240 net.cpp:163] Top shape: 32 256 14 14 (1605632)
I0905 23:47:57.588279 84240 layer_factory.hpp:76] Creating layer inception_4e/double3x3
I0905 23:47:57.588302 84240 net.cpp:110] Creating Layer inception_4e/double3x3
I0905 23:47:57.588310 84240 net.cpp:477] inception_4e/double3x3 <- inception_4e/double3x3_mid
I0905 23:47:57.588320 84240 net.cpp:433] inception_4e/double3x3 -> inception_4e/double3x3_s2
I0905 23:47:57.599403 84240 net.cpp:155] Setting up inception_4e/double3x3
I0905 23:47:57.599453 84240 net.cpp:163] Top shape: 32 256 7 7 (401408)
I0905 23:47:57.599477 84240 layer_factory.hpp:76] Creating layer inception_4e/relu_double3x3
I0905 23:47:57.599495 84240 net.cpp:110] Creating Layer inception_4e/relu_double3x3
I0905 23:47:57.599506 84240 net.cpp:477] inception_4e/relu_double3x3 <- inception_4e/double3x3_s2
I0905 23:47:57.599519 84240 net.cpp:419] inception_4e/relu_double3x3 -> inception_4e/double3x3_s2 (in-place)
I0905 23:47:57.599537 84240 net.cpp:155] Setting up inception_4e/relu_double3x3
I0905 23:47:57.599548 84240 net.cpp:163] Top shape: 32 256 7 7 (401408)
I0905 23:47:57.599555 84240 layer_factory.hpp:76] Creating layer inception_4e/pool
I0905 23:47:57.599571 84240 net.cpp:110] Creating Layer inception_4e/pool
I0905 23:47:57.599581 84240 net.cpp:477] inception_4e/pool <- inception_4d/output_inception_4d/output_0_split_3
I0905 23:47:57.599596 84240 net.cpp:433] inception_4e/pool -> inception_4e/pool
I0905 23:47:57.599617 84240 net.cpp:155] Setting up inception_4e/pool
I0905 23:47:57.599637 84240 net.cpp:163] Top shape: 32 608 7 7 (953344)
I0905 23:47:57.599644 84240 layer_factory.hpp:76] Creating layer inception_4e/relu_pool
I0905 23:47:57.599654 84240 net.cpp:110] Creating Layer inception_4e/relu_pool
I0905 23:47:57.599663 84240 net.cpp:477] inception_4e/relu_pool <- inception_4e/pool
I0905 23:47:57.599683 84240 net.cpp:419] inception_4e/relu_pool -> inception_4e/pool (in-place)
I0905 23:47:57.599694 84240 net.cpp:155] Setting up inception_4e/relu_pool
I0905 23:47:57.599735 84240 net.cpp:163] Top shape: 32 608 7 7 (953344)
I0905 23:47:57.599743 84240 layer_factory.hpp:76] Creating layer inception_4e/output
I0905 23:47:57.599757 84240 net.cpp:110] Creating Layer inception_4e/output
I0905 23:47:57.599766 84240 net.cpp:477] inception_4e/output <- inception_4e/3x3_s2
I0905 23:47:57.599776 84240 net.cpp:477] inception_4e/output <- inception_4e/double3x3_s2
I0905 23:47:57.599784 84240 net.cpp:477] inception_4e/output <- inception_4e/pool
I0905 23:47:57.599795 84240 net.cpp:433] inception_4e/output -> inception_4e/output
I0905 23:47:57.599824 84240 net.cpp:155] Setting up inception_4e/output
I0905 23:47:57.599843 84240 net.cpp:163] Top shape: 32 1056 7 7 (1655808)
I0905 23:47:57.599853 84240 layer_factory.hpp:76] Creating layer inception_4e/output_inception_4e/output_0_split
I0905 23:47:57.599865 84240 net.cpp:110] Creating Layer inception_4e/output_inception_4e/output_0_split
I0905 23:47:57.599872 84240 net.cpp:477] inception_4e/output_inception_4e/output_0_split <- inception_4e/output
I0905 23:47:57.599889 84240 net.cpp:433] inception_4e/output_inception_4e/output_0_split -> inception_4e/output_inception_4e/output_0_split_0
I0905 23:47:57.599903 84240 net.cpp:433] inception_4e/output_inception_4e/output_0_split -> inception_4e/output_inception_4e/output_0_split_1
I0905 23:47:57.599927 84240 net.cpp:433] inception_4e/output_inception_4e/output_0_split -> inception_4e/output_inception_4e/output_0_split_2
I0905 23:47:57.599941 84240 net.cpp:433] inception_4e/output_inception_4e/output_0_split -> inception_4e/output_inception_4e/output_0_split_3
I0905 23:47:57.599967 84240 net.cpp:155] Setting up inception_4e/output_inception_4e/output_0_split
I0905 23:47:57.599977 84240 net.cpp:163] Top shape: 32 1056 7 7 (1655808)
I0905 23:47:57.599985 84240 net.cpp:163] Top shape: 32 1056 7 7 (1655808)
I0905 23:47:57.599993 84240 net.cpp:163] Top shape: 32 1056 7 7 (1655808)
I0905 23:47:57.600000 84240 net.cpp:163] Top shape: 32 1056 7 7 (1655808)
I0905 23:47:57.600008 84240 layer_factory.hpp:76] Creating layer inception_5a/1x1
I0905 23:47:57.600023 84240 net.cpp:110] Creating Layer inception_5a/1x1
I0905 23:47:57.600029 84240 net.cpp:477] inception_5a/1x1 <- inception_4e/output_inception_4e/output_0_split_0
I0905 23:47:57.600044 84240 net.cpp:433] inception_5a/1x1 -> inception_5a/1x1
I0905 23:47:57.607208 84240 net.cpp:155] Setting up inception_5a/1x1
I0905 23:47:57.607236 84240 net.cpp:163] Top shape: 32 352 7 7 (551936)
I0905 23:47:57.607254 84240 layer_factory.hpp:76] Creating layer inception_5a/relu_1x1
I0905 23:47:57.607267 84240 net.cpp:110] Creating Layer inception_5a/relu_1x1
I0905 23:47:57.607275 84240 net.cpp:477] inception_5a/relu_1x1 <- inception_5a/1x1
I0905 23:47:57.607287 84240 net.cpp:419] inception_5a/relu_1x1 -> inception_5a/1x1 (in-place)
I0905 23:47:57.607301 84240 net.cpp:155] Setting up inception_5a/relu_1x1
I0905 23:47:57.607311 84240 net.cpp:163] Top shape: 32 352 7 7 (551936)
I0905 23:47:57.607318 84240 layer_factory.hpp:76] Creating layer inception_5a/3x3_reduce
I0905 23:47:57.607338 84240 net.cpp:110] Creating Layer inception_5a/3x3_reduce
I0905 23:47:57.607347 84240 net.cpp:477] inception_5a/3x3_reduce <- inception_4e/output_inception_4e/output_0_split_1
I0905 23:47:57.607359 84240 net.cpp:433] inception_5a/3x3_reduce -> inception_5a/3x3_reduce
I0905 23:47:57.611562 84240 net.cpp:155] Setting up inception_5a/3x3_reduce
I0905 23:47:57.611591 84240 net.cpp:163] Top shape: 32 192 7 7 (301056)
I0905 23:47:57.611609 84240 layer_factory.hpp:76] Creating layer inception_5a/relu_3x3_reduce
I0905 23:47:57.611621 84240 net.cpp:110] Creating Layer inception_5a/relu_3x3_reduce
I0905 23:47:57.611630 84240 net.cpp:477] inception_5a/relu_3x3_reduce <- inception_5a/3x3_reduce
I0905 23:47:57.611644 84240 net.cpp:419] inception_5a/relu_3x3_reduce -> inception_5a/3x3_reduce (in-place)
I0905 23:47:57.611659 84240 net.cpp:155] Setting up inception_5a/relu_3x3_reduce
I0905 23:47:57.611680 84240 net.cpp:163] Top shape: 32 192 7 7 (301056)
I0905 23:47:57.611686 84240 layer_factory.hpp:76] Creating layer inception_5a/3x3
I0905 23:47:57.611723 84240 net.cpp:110] Creating Layer inception_5a/3x3
I0905 23:47:57.611731 84240 net.cpp:477] inception_5a/3x3 <- inception_5a/3x3_reduce
I0905 23:47:57.611747 84240 net.cpp:433] inception_5a/3x3 -> inception_5a/3x3
I0905 23:47:57.622378 84240 net.cpp:155] Setting up inception_5a/3x3
I0905 23:47:57.622412 84240 net.cpp:163] Top shape: 32 320 7 7 (501760)
I0905 23:47:57.622428 84240 layer_factory.hpp:76] Creating layer inception_5a/relu_3x3
I0905 23:47:57.622443 84240 net.cpp:110] Creating Layer inception_5a/relu_3x3
I0905 23:47:57.622452 84240 net.cpp:477] inception_5a/relu_3x3 <- inception_5a/3x3
I0905 23:47:57.622468 84240 net.cpp:419] inception_5a/relu_3x3 -> inception_5a/3x3 (in-place)
I0905 23:47:57.622484 84240 net.cpp:155] Setting up inception_5a/relu_3x3
I0905 23:47:57.622494 84240 net.cpp:163] Top shape: 32 320 7 7 (501760)
I0905 23:47:57.622501 84240 layer_factory.hpp:76] Creating layer inception_5a/double3x3_reduce
I0905 23:47:57.622514 84240 net.cpp:110] Creating Layer inception_5a/double3x3_reduce
I0905 23:47:57.622522 84240 net.cpp:477] inception_5a/double3x3_reduce <- inception_4e/output_inception_4e/output_0_split_2
I0905 23:47:57.622535 84240 net.cpp:433] inception_5a/double3x3_reduce -> inception_5a/double3x3_reduce
I0905 23:47:57.626198 84240 net.cpp:155] Setting up inception_5a/double3x3_reduce
I0905 23:47:57.626224 84240 net.cpp:163] Top shape: 32 160 7 7 (250880)
I0905 23:47:57.626312 84240 layer_factory.hpp:76] Creating layer inception_5a/relu_double3x3_reduce
I0905 23:47:57.626329 84240 net.cpp:110] Creating Layer inception_5a/relu_double3x3_reduce
I0905 23:47:57.626338 84240 net.cpp:477] inception_5a/relu_double3x3_reduce <- inception_5a/double3x3_reduce
I0905 23:47:57.626349 84240 net.cpp:419] inception_5a/relu_double3x3_reduce -> inception_5a/double3x3_reduce (in-place)
I0905 23:47:57.626364 84240 net.cpp:155] Setting up inception_5a/relu_double3x3_reduce
I0905 23:47:57.626374 84240 net.cpp:163] Top shape: 32 160 7 7 (250880)
I0905 23:47:57.626381 84240 layer_factory.hpp:76] Creating layer inception_5a/double3x3_mid
I0905 23:47:57.626394 84240 net.cpp:110] Creating Layer inception_5a/double3x3_mid
I0905 23:47:57.626401 84240 net.cpp:477] inception_5a/double3x3_mid <- inception_5a/double3x3_reduce
I0905 23:47:57.626417 84240 net.cpp:433] inception_5a/double3x3_mid -> inception_5a/double3x3_mid
I0905 23:47:57.632796 84240 net.cpp:155] Setting up inception_5a/double3x3_mid
I0905 23:47:57.632829 84240 net.cpp:163] Top shape: 32 224 7 7 (351232)
I0905 23:47:57.632845 84240 layer_factory.hpp:76] Creating layer inception_5a/relu_double3x3_mid
I0905 23:47:57.632861 84240 net.cpp:110] Creating Layer inception_5a/relu_double3x3_mid
I0905 23:47:57.632870 84240 net.cpp:477] inception_5a/relu_double3x3_mid <- inception_5a/double3x3_mid
I0905 23:47:57.632881 84240 net.cpp:419] inception_5a/relu_double3x3_mid -> inception_5a/double3x3_mid (in-place)
I0905 23:47:57.632896 84240 net.cpp:155] Setting up inception_5a/relu_double3x3_mid
I0905 23:47:57.632907 84240 net.cpp:163] Top shape: 32 224 7 7 (351232)
I0905 23:47:57.632915 84240 layer_factory.hpp:76] Creating layer inception_5a/double3x3
I0905 23:47:57.632931 84240 net.cpp:110] Creating Layer inception_5a/double3x3
I0905 23:47:57.632938 84240 net.cpp:477] inception_5a/double3x3 <- inception_5a/double3x3_mid
I0905 23:47:57.632951 84240 net.cpp:433] inception_5a/double3x3 -> inception_5a/double3x3
I0905 23:47:57.641485 84240 net.cpp:155] Setting up inception_5a/double3x3
I0905 23:47:57.641520 84240 net.cpp:163] Top shape: 32 224 7 7 (351232)
I0905 23:47:57.641537 84240 layer_factory.hpp:76] Creating layer inception_5a/relu_double3x3
I0905 23:47:57.641551 84240 net.cpp:110] Creating Layer inception_5a/relu_double3x3
I0905 23:47:57.641559 84240 net.cpp:477] inception_5a/relu_double3x3 <- inception_5a/double3x3
I0905 23:47:57.641571 84240 net.cpp:419] inception_5a/relu_double3x3 -> inception_5a/double3x3 (in-place)
I0905 23:47:57.641584 84240 net.cpp:155] Setting up inception_5a/relu_double3x3
I0905 23:47:57.641618 84240 net.cpp:163] Top shape: 32 224 7 7 (351232)
I0905 23:47:57.641625 84240 layer_factory.hpp:76] Creating layer inception_5a/pool
I0905 23:47:57.641641 84240 net.cpp:110] Creating Layer inception_5a/pool
I0905 23:47:57.641649 84240 net.cpp:477] inception_5a/pool <- inception_4e/output_inception_4e/output_0_split_3
I0905 23:47:57.641661 84240 net.cpp:433] inception_5a/pool -> inception_5a/pool
I0905 23:47:57.641680 84240 net.cpp:155] Setting up inception_5a/pool
I0905 23:47:57.641690 84240 net.cpp:163] Top shape: 32 1056 7 7 (1655808)
I0905 23:47:57.641696 84240 layer_factory.hpp:76] Creating layer inception_5a/pool_proj
I0905 23:47:57.641715 84240 net.cpp:110] Creating Layer inception_5a/pool_proj
I0905 23:47:57.641721 84240 net.cpp:477] inception_5a/pool_proj <- inception_5a/pool
I0905 23:47:57.641738 84240 net.cpp:433] inception_5a/pool_proj -> inception_5a/pool_proj
I0905 23:47:57.644901 84240 net.cpp:155] Setting up inception_5a/pool_proj
I0905 23:47:57.644929 84240 net.cpp:163] Top shape: 32 128 7 7 (200704)
I0905 23:47:57.644948 84240 layer_factory.hpp:76] Creating layer inception_5a/relu_pool_proj
I0905 23:47:57.644961 84240 net.cpp:110] Creating Layer inception_5a/relu_pool_proj
I0905 23:47:57.644970 84240 net.cpp:477] inception_5a/relu_pool_proj <- inception_5a/pool_proj
I0905 23:47:57.644981 84240 net.cpp:419] inception_5a/relu_pool_proj -> inception_5a/pool_proj (in-place)
I0905 23:47:57.644996 84240 net.cpp:155] Setting up inception_5a/relu_pool_proj
I0905 23:47:57.645006 84240 net.cpp:163] Top shape: 32 128 7 7 (200704)
I0905 23:47:57.645015 84240 layer_factory.hpp:76] Creating layer inception_5a/output
I0905 23:47:57.645028 84240 net.cpp:110] Creating Layer inception_5a/output
I0905 23:47:57.645036 84240 net.cpp:477] inception_5a/output <- inception_5a/1x1
I0905 23:47:57.645046 84240 net.cpp:477] inception_5a/output <- inception_5a/3x3
I0905 23:47:57.645056 84240 net.cpp:477] inception_5a/output <- inception_5a/double3x3
I0905 23:47:57.645063 84240 net.cpp:477] inception_5a/output <- inception_5a/pool_proj
I0905 23:47:57.645074 84240 net.cpp:433] inception_5a/output -> inception_5a/output
I0905 23:47:57.645090 84240 net.cpp:155] Setting up inception_5a/output
I0905 23:47:57.645100 84240 net.cpp:163] Top shape: 32 1024 7 7 (1605632)
I0905 23:47:57.645107 84240 layer_factory.hpp:76] Creating layer inception_5a/output_inception_5a/output_0_split
I0905 23:47:57.645118 84240 net.cpp:110] Creating Layer inception_5a/output_inception_5a/output_0_split
I0905 23:47:57.645128 84240 net.cpp:477] inception_5a/output_inception_5a/output_0_split <- inception_5a/output
I0905 23:47:57.645141 84240 net.cpp:433] inception_5a/output_inception_5a/output_0_split -> inception_5a/output_inception_5a/output_0_split_0
I0905 23:47:57.645158 84240 net.cpp:433] inception_5a/output_inception_5a/output_0_split -> inception_5a/output_inception_5a/output_0_split_1
I0905 23:47:57.645171 84240 net.cpp:433] inception_5a/output_inception_5a/output_0_split -> inception_5a/output_inception_5a/output_0_split_2
I0905 23:47:57.645185 84240 net.cpp:433] inception_5a/output_inception_5a/output_0_split -> inception_5a/output_inception_5a/output_0_split_3
I0905 23:47:57.645217 84240 net.cpp:155] Setting up inception_5a/output_inception_5a/output_0_split
I0905 23:47:57.645227 84240 net.cpp:163] Top shape: 32 1024 7 7 (1605632)
I0905 23:47:57.645236 84240 net.cpp:163] Top shape: 32 1024 7 7 (1605632)
I0905 23:47:57.645243 84240 net.cpp:163] Top shape: 32 1024 7 7 (1605632)
I0905 23:47:57.645251 84240 net.cpp:163] Top shape: 32 1024 7 7 (1605632)
I0905 23:47:57.645258 84240 layer_factory.hpp:76] Creating layer inception_5b/1x1
I0905 23:47:57.645272 84240 net.cpp:110] Creating Layer inception_5b/1x1
I0905 23:47:57.645279 84240 net.cpp:477] inception_5b/1x1 <- inception_5a/output_inception_5a/output_0_split_0
I0905 23:47:57.645293 84240 net.cpp:433] inception_5b/1x1 -> inception_5b/1x1
I0905 23:47:57.652186 84240 net.cpp:155] Setting up inception_5b/1x1
I0905 23:47:57.652220 84240 net.cpp:163] Top shape: 32 352 7 7 (551936)
I0905 23:47:57.652256 84240 layer_factory.hpp:76] Creating layer inception_5b/relu_1x1
I0905 23:47:57.652271 84240 net.cpp:110] Creating Layer inception_5b/relu_1x1
I0905 23:47:57.652278 84240 net.cpp:477] inception_5b/relu_1x1 <- inception_5b/1x1
I0905 23:47:57.652293 84240 net.cpp:419] inception_5b/relu_1x1 -> inception_5b/1x1 (in-place)
I0905 23:47:57.652307 84240 net.cpp:155] Setting up inception_5b/relu_1x1
I0905 23:47:57.652318 84240 net.cpp:163] Top shape: 32 352 7 7 (551936)
I0905 23:47:57.652326 84240 layer_factory.hpp:76] Creating layer inception_5b/3x3_reduce
I0905 23:47:57.652341 84240 net.cpp:110] Creating Layer inception_5b/3x3_reduce
I0905 23:47:57.652348 84240 net.cpp:477] inception_5b/3x3_reduce <- inception_5a/output_inception_5a/output_0_split_1
I0905 23:47:57.652361 84240 net.cpp:433] inception_5b/3x3_reduce -> inception_5b/3x3_reduce
I0905 23:47:57.656456 84240 net.cpp:155] Setting up inception_5b/3x3_reduce
I0905 23:47:57.656484 84240 net.cpp:163] Top shape: 32 192 7 7 (301056)
I0905 23:47:57.656499 84240 layer_factory.hpp:76] Creating layer inception_5b/relu_3x3_reduce
I0905 23:47:57.656512 84240 net.cpp:110] Creating Layer inception_5b/relu_3x3_reduce
I0905 23:47:57.656522 84240 net.cpp:477] inception_5b/relu_3x3_reduce <- inception_5b/3x3_reduce
I0905 23:47:57.656533 84240 net.cpp:419] inception_5b/relu_3x3_reduce -> inception_5b/3x3_reduce (in-place)
I0905 23:47:57.656548 84240 net.cpp:155] Setting up inception_5b/relu_3x3_reduce
I0905 23:47:57.656558 84240 net.cpp:163] Top shape: 32 192 7 7 (301056)
I0905 23:47:57.656565 84240 layer_factory.hpp:76] Creating layer inception_5b/3x3
I0905 23:47:57.656577 84240 net.cpp:110] Creating Layer inception_5b/3x3
I0905 23:47:57.656584 84240 net.cpp:477] inception_5b/3x3 <- inception_5b/3x3_reduce
I0905 23:47:57.656599 84240 net.cpp:433] inception_5b/3x3 -> inception_5b/3x3
I0905 23:47:57.666960 84240 net.cpp:155] Setting up inception_5b/3x3
I0905 23:47:57.666987 84240 net.cpp:163] Top shape: 32 320 7 7 (501760)
I0905 23:47:57.667002 84240 layer_factory.hpp:76] Creating layer inception_5b/relu_3x3
I0905 23:47:57.667017 84240 net.cpp:110] Creating Layer inception_5b/relu_3x3
I0905 23:47:57.667026 84240 net.cpp:477] inception_5b/relu_3x3 <- inception_5b/3x3
I0905 23:47:57.667040 84240 net.cpp:419] inception_5b/relu_3x3 -> inception_5b/3x3 (in-place)
I0905 23:47:57.667055 84240 net.cpp:155] Setting up inception_5b/relu_3x3
I0905 23:47:57.667064 84240 net.cpp:163] Top shape: 32 320 7 7 (501760)
I0905 23:47:57.667071 84240 layer_factory.hpp:76] Creating layer inception_5b/double3x3_reduce
I0905 23:47:57.667086 84240 net.cpp:110] Creating Layer inception_5b/double3x3_reduce
I0905 23:47:57.667093 84240 net.cpp:477] inception_5b/double3x3_reduce <- inception_5a/output_inception_5a/output_0_split_2
I0905 23:47:57.667105 84240 net.cpp:433] inception_5b/double3x3_reduce -> inception_5b/double3x3_reduce
I0905 23:47:57.671186 84240 net.cpp:155] Setting up inception_5b/double3x3_reduce
I0905 23:47:57.671213 84240 net.cpp:163] Top shape: 32 192 7 7 (301056)
I0905 23:47:57.671232 84240 layer_factory.hpp:76] Creating layer inception_5b/relu_double3x3_reduce
I0905 23:47:57.671246 84240 net.cpp:110] Creating Layer inception_5b/relu_double3x3_reduce
I0905 23:47:57.671253 84240 net.cpp:477] inception_5b/relu_double3x3_reduce <- inception_5b/double3x3_reduce
I0905 23:47:57.671265 84240 net.cpp:419] inception_5b/relu_double3x3_reduce -> inception_5b/double3x3_reduce (in-place)
I0905 23:47:57.671279 84240 net.cpp:155] Setting up inception_5b/relu_double3x3_reduce
I0905 23:47:57.671290 84240 net.cpp:163] Top shape: 32 192 7 7 (301056)
I0905 23:47:57.671298 84240 layer_factory.hpp:76] Creating layer inception_5b/double3x3_mid
I0905 23:47:57.671313 84240 net.cpp:110] Creating Layer inception_5b/double3x3_mid
I0905 23:47:57.671320 84240 net.cpp:477] inception_5b/double3x3_mid <- inception_5b/double3x3_reduce
I0905 23:47:57.671335 84240 net.cpp:433] inception_5b/double3x3_mid -> inception_5b/double3x3_mid
I0905 23:47:57.678752 84240 net.cpp:155] Setting up inception_5b/double3x3_mid
I0905 23:47:57.678799 84240 net.cpp:163] Top shape: 32 224 7 7 (351232)
I0905 23:47:57.678815 84240 layer_factory.hpp:76] Creating layer inception_5b/relu_double3x3_mid
I0905 23:47:57.678835 84240 net.cpp:110] Creating Layer inception_5b/relu_double3x3_mid
I0905 23:47:57.678844 84240 net.cpp:477] inception_5b/relu_double3x3_mid <- inception_5b/double3x3_mid
I0905 23:47:57.678855 84240 net.cpp:419] inception_5b/relu_double3x3_mid -> inception_5b/double3x3_mid (in-place)
I0905 23:47:57.678869 84240 net.cpp:155] Setting up inception_5b/relu_double3x3_mid
I0905 23:47:57.678879 84240 net.cpp:163] Top shape: 32 224 7 7 (351232)
I0905 23:47:57.678887 84240 layer_factory.hpp:76] Creating layer inception_5b/double3x3
I0905 23:47:57.678903 84240 net.cpp:110] Creating Layer inception_5b/double3x3
I0905 23:47:57.678910 84240 net.cpp:477] inception_5b/double3x3 <- inception_5b/double3x3_mid
I0905 23:47:57.678921 84240 net.cpp:433] inception_5b/double3x3 -> inception_5b/double3x3
I0905 23:47:57.687485 84240 net.cpp:155] Setting up inception_5b/double3x3
I0905 23:47:57.687521 84240 net.cpp:163] Top shape: 32 224 7 7 (351232)
I0905 23:47:57.687536 84240 layer_factory.hpp:76] Creating layer inception_5b/relu_double3x3
I0905 23:47:57.687551 84240 net.cpp:110] Creating Layer inception_5b/relu_double3x3
I0905 23:47:57.687561 84240 net.cpp:477] inception_5b/relu_double3x3 <- inception_5b/double3x3
I0905 23:47:57.687572 84240 net.cpp:419] inception_5b/relu_double3x3 -> inception_5b/double3x3 (in-place)
I0905 23:47:57.687585 84240 net.cpp:155] Setting up inception_5b/relu_double3x3
I0905 23:47:57.687595 84240 net.cpp:163] Top shape: 32 224 7 7 (351232)
I0905 23:47:57.687602 84240 layer_factory.hpp:76] Creating layer inception_5b/pool
I0905 23:47:57.687616 84240 net.cpp:110] Creating Layer inception_5b/pool
I0905 23:47:57.687625 84240 net.cpp:477] inception_5b/pool <- inception_5a/output_inception_5a/output_0_split_3
I0905 23:47:57.687638 84240 net.cpp:433] inception_5b/pool -> inception_5b/pool
I0905 23:47:57.687655 84240 net.cpp:155] Setting up inception_5b/pool
I0905 23:47:57.687665 84240 net.cpp:163] Top shape: 32 1024 7 7 (1605632)
I0905 23:47:57.687681 84240 layer_factory.hpp:76] Creating layer inception_5b/pool_proj
I0905 23:47:57.687698 84240 net.cpp:110] Creating Layer inception_5b/pool_proj
I0905 23:47:57.687706 84240 net.cpp:477] inception_5b/pool_proj <- inception_5b/pool
I0905 23:47:57.687717 84240 net.cpp:433] inception_5b/pool_proj -> inception_5b/pool_proj
I0905 23:47:57.690758 84240 net.cpp:155] Setting up inception_5b/pool_proj
I0905 23:47:57.690793 84240 net.cpp:163] Top shape: 32 128 7 7 (200704)
I0905 23:47:57.690806 84240 layer_factory.hpp:76] Creating layer inception_5b/relu_pool_proj
I0905 23:47:57.690821 84240 net.cpp:110] Creating Layer inception_5b/relu_pool_proj
I0905 23:47:57.690829 84240 net.cpp:477] inception_5b/relu_pool_proj <- inception_5b/pool_proj
I0905 23:47:57.690840 84240 net.cpp:419] inception_5b/relu_pool_proj -> inception_5b/pool_proj (in-place)
I0905 23:47:57.690855 84240 net.cpp:155] Setting up inception_5b/relu_pool_proj
I0905 23:47:57.690863 84240 net.cpp:163] Top shape: 32 128 7 7 (200704)
I0905 23:47:57.690871 84240 layer_factory.hpp:76] Creating layer inception_5b/output
I0905 23:47:57.690881 84240 net.cpp:110] Creating Layer inception_5b/output
I0905 23:47:57.690889 84240 net.cpp:477] inception_5b/output <- inception_5b/1x1
I0905 23:47:57.690898 84240 net.cpp:477] inception_5b/output <- inception_5b/3x3
I0905 23:47:57.690907 84240 net.cpp:477] inception_5b/output <- inception_5b/double3x3
I0905 23:47:57.690917 84240 net.cpp:477] inception_5b/output <- inception_5b/pool_proj
I0905 23:47:57.690930 84240 net.cpp:433] inception_5b/output -> inception_5b/output
I0905 23:47:57.690946 84240 net.cpp:155] Setting up inception_5b/output
I0905 23:47:57.690956 84240 net.cpp:163] Top shape: 32 1024 7 7 (1605632)
I0905 23:47:57.690963 84240 layer_factory.hpp:76] Creating layer pool5/7x7_s1
I0905 23:47:57.690975 84240 net.cpp:110] Creating Layer pool5/7x7_s1
I0905 23:47:57.690981 84240 net.cpp:477] pool5/7x7_s1 <- inception_5b/output
I0905 23:47:57.691015 84240 net.cpp:433] pool5/7x7_s1 -> pool5/7x7_s1
I0905 23:47:57.691051 84240 net.cpp:155] Setting up pool5/7x7_s1
I0905 23:47:57.691061 84240 net.cpp:163] Top shape: 32 1024 1 1 (32768)
I0905 23:47:57.691068 84240 layer_factory.hpp:76] Creating layer pool5/drop_7x7_s1
I0905 23:47:57.691081 84240 net.cpp:110] Creating Layer pool5/drop_7x7_s1
I0905 23:47:57.691087 84240 net.cpp:477] pool5/drop_7x7_s1 <- pool5/7x7_s1
I0905 23:47:57.691097 84240 net.cpp:419] pool5/drop_7x7_s1 -> pool5/7x7_s1 (in-place)
I0905 23:47:57.691112 84240 net.cpp:155] Setting up pool5/drop_7x7_s1
I0905 23:47:57.691120 84240 net.cpp:163] Top shape: 32 1024 1 1 (32768)
I0905 23:47:57.691128 84240 layer_factory.hpp:76] Creating layer loss3/classifier
I0905 23:47:57.691151 84240 net.cpp:110] Creating Layer loss3/classifier
I0905 23:47:57.691167 84240 net.cpp:477] loss3/classifier <- pool5/7x7_s1
I0905 23:47:57.691180 84240 net.cpp:433] loss3/classifier -> loss3/classifier
I0905 23:47:57.710096 84240 net.cpp:155] Setting up loss3/classifier
I0905 23:47:57.710130 84240 net.cpp:163] Top shape: 32 1000 (32000)
I0905 23:47:57.710146 84240 layer_factory.hpp:76] Creating layer loss3/loss3
I0905 23:47:57.710160 84240 net.cpp:110] Creating Layer loss3/loss3
I0905 23:47:57.710170 84240 net.cpp:477] loss3/loss3 <- loss3/classifier
I0905 23:47:57.710180 84240 net.cpp:477] loss3/loss3 <- label_data_1_split_2
I0905 23:47:57.710191 84240 net.cpp:433] loss3/loss3 -> loss3/loss3
I0905 23:47:57.710211 84240 layer_factory.hpp:76] Creating layer loss3/loss3
…
I0905 23:47:57.724056 84240 net.cpp:339] The NetState phase (1) differed from the phase (0) specified by a rule in layer data
I0905 23:47:57.726842 84240 net.cpp:50] Initializing net from parameters: 
name: "Inception_6"
state {
  phase: TEST
}
layer {
  name: "data"
  type: "Data"
  top: "data"
  top: "label"
  include {
    phase: TEST
  }
  transform_param {
    mirror: false
    crop_size: 224
    mean_value: 104
    mean_value: 117
    mean_value: 123
  }
  data_param {
    source: "/ssd/ilsvrc2012/ilsvrc12_val_lmdb"
    batch_size: 50
    backend: LMDB
  }
}
layer {
  name: "conv1/7x7_s2"
  type: "Convolution"
  bottom: "data"
  top: "conv1/7x7_s2"
  param {
    lr_mult: 1
    decay_mult: 1
  }
  param {
    lr_mult: 2
    decay_mult: 0
  }
  convolution_param {
    num_output: 64
    pad: 3
    kernel_size: 7
    stride: 2
    weight_filler {
      type: "xavier"
    }
    bias_filler {
      type: "constant"
      value: 0.2
    }
  }
}
layer {
  name: "conv1/relu_7x7"
  type: "ReLU"
  bottom: "conv1/7x7_s2"
  top: "conv1/7x7_s2"
}
layer {
  name: "pool1/3x3_s2"
  type: "Pooling"
  bottom: "conv1/7x7_s2"
  top: "pool1/3x3_s2"
  pooling_param {
    pool: MAX
    kernel_size: 3
    stride: 2
  }
}
layer {
  name: "pool1/norm1"
  type: "LRN"
  bottom: "pool1/3x3_s2"
  top: "pool1/norm1"
  lrn_param {
    local_size: 5
    alpha: 0.0001
    beta: 0.75
  }
}
layer {
  name: "conv2/3x3_reduce"
  type: "Convolution"
  bottom: "pool1/norm1"
  top: "conv2/3x3_reduce"
  param {
    lr_mult: 1
    decay_mult: 1
  }
  param {
    lr_mult: 2
    decay_mult: 0
  }
  convolution_param {
    num_output: 64
    kernel_size: 1
    weight_filler {
      type: "xavier"
    }
    bias_filler {
      type: "constant"
      value: 0.2
    }
  }
}
layer {
  name: "conv2/relu_3x3_reduce"
  type: "ReLU"
  bottom: "conv2/3x3_reduce"
  top: "conv2/3x3_reduce"
}
layer {
  name: "conv2/3x3"
  type: "Convolution"
  bottom: "conv2/3x3_reduce"
  top: "conv2/3x3"
  param {
    lr_mult: 1
    decay_mult: 1
  }
  param {
    lr_mult: 2
    decay_mult: 0
  }
  convolution_param {
    num_output: 192
    pad: 1
    kernel_size: 3
    weight_filler {
      type: "xavier"
    }
    bias_filler {
      type: "constant"
      value: 0.2
    }
  }
}
layer {
  name: "conv2/relu_3x3"
  type: "ReLU"
  bottom: "conv2/3x3"
  top: "conv2/3x3"
}
layer {
  name: "conv2/norm2"
  type: "LRN"
  bottom: "conv2/3x3"
  top: "conv2/norm2"
  lrn_param {
    local_size: 5
    alpha: 0.0001
    beta: 0.75
  }
}
layer {
  name: "pool2/3x3_s2"
  type: "Pooling"
  bottom: "conv2/norm2"
  top: "pool2/3x3_s2"
  pooling_param {
    pool: MAX
    kernel_size: 3
    stride: 2
  }
}
layer {
  name: "inception_3a/1x1"
  type: "Convolution"
  bottom: "pool2/3x3_s2"
  top: "inception_3a/1x1"
  param {
    lr_mult: 1
    decay_mult: 1
  }
  param {
    lr_mult: 2
    decay_mult: 0
  }
  convolution_param {
    num_output: 64
    kernel_size: 1
    weight_filler {
      type: "xavier"
    }
    bias_filler {
      type: "constant"
      value: 0.2
    }
  }
}
layer {
  name: "inception_3a/relu_1x1"
  type: "ReLU"
  bottom: "inception_3a/1x1"
  top: "inception_3a/1x1"
}
layer {
  name: "inception_3a/3x3_reduce"
  type: "Convolution"
  bottom: "pool2/3x3_s2"
  top: "inception_3a/3x3_reduce"
  param {
    lr_mult: 1
    decay_mult: 1
  }
  param {
    lr_mult: 2
    decay_mult: 0
  }
  convolution_param {
    num_output: 64
    kernel_size: 1
    weight_filler {
      type: "xavier"
    }
    bias_filler {
      type: "constant"
      value: 0.2
    }
  }
}
layer {
  name: "inception_3a/relu_3x3_reduce"
  type: "ReLU"
  bottom: "inception_3a/3x3_reduce"
  top: "inception_3a/3x3_reduce"
}
layer {
  name: "inception_3a/3x3"
  type: "Convolution"
  bottom: "inception_3a/3x3_reduce"
  top: "inception_3a/3x3"
  param {
    lr_mult: 1
    decay_mult: 1
  }
  param {
    lr_mult: 2
    decay_mult: 0
  }
  convolution_param {
    num_output: 64
    pad: 1
    kernel_size: 3
    weight_filler {
      type: "xavier"
    }
    bias_filler {
      type: "constant"
      value: 0.2
    }
  }
}
layer {
  name: "inception_3a/relu_3x3"
  type: "ReLU"
  bottom: "inception_3a/3x3"
  top: "inception_3a/3x3"
}
layer {
  name: "inception_3a/double3x3_reduce"
  type: "Convolution"
  bottom: "pool2/3x3_s2"
  top: "inception_3a/double3x3_reduce"
  param {
    lr_mult: 1
    decay_mult: 1
  }
  param {
    lr_mult: 2
    decay_mult: 0
  }
  convolution_param {
    num_output: 64
    kernel_size: 1
    weight_filler {
      type: "xavier"
    }
    bias_filler {
      type: "constant"
      value: 0.2
    }
  }
}
layer {
  name: "inception_3a/relu_double3x3_reduce"
  type: "ReLU"
  bottom: "inception_3a/double3x3_reduce"
  top: "inception_3a/double3x3_reduce"
}
layer {
  name: "inception_3a/double3x3_mid"
  type: "Convolution"
  bottom: "inception_3a/double3x3_reduce"
  top: "inception_3a/double3x3_mid"
  param {
    lr_mult: 1
    decay_mult: 1
  }
  param {
    lr_mult: 2
    decay_mult: 0
  }
  convolution_param {
    num_output: 96
    pad: 1
    kernel_size: 3
    weight_filler {
      type: "xavier"
    }
    bias_filler {
      type: "constant"
      value: 0.2
    }
  }
}
layer {
  name: "inception_3a/relu_double3x3_mid"
  type: "ReLU"
  bottom: "inception_3a/double3x3_mid"
  top: "inception_3a/double3x3_mid"
}
layer {
  name: "inception_3a/double3x3"
  type: "Convolution"
  bottom: "inception_3a/double3x3_mid"
  top: "inception_3a/double3x3"
  param {
    lr_mult: 1
    decay_mult: 1
  }
  param {
    lr_mult: 2
    decay_mult: 0
  }
  convolution_param {
    num_output: 96
    pad: 1
    kernel_size: 3
    weight_filler {
      type: "xavier"
    }
    bias_filler {
      type: "constant"
      value: 0.2
    }
  }
}
layer {
  name: "inception_3a/relu_double3x3"
  type: "ReLU"
  bottom: "inception_3a/double3x3"
  top: "inception_3a/double3x3"
}
layer {
  name: "inception_3a/pool"
  type: "Pooling"
  bottom: "pool2/3x3_s2"
  top: "inception_3a/pool"
  pooling_param {
    pool: AVE
    kernel_size: 3
    stride: 1
    pad: 1
  }
}
layer {
  name: "inception_3a/pool_proj"
  type: "Convolution"
  bottom: "inception_3a/pool"
  top: "inception_3a/pool_proj"
  param {
    lr_mult: 1
    decay_mult: 1
  }
  param {
    lr_mult: 2
    decay_mult: 0
  }
  convolution_param {
    num_output: 32
    kernel_size: 1
    weight_filler {
      type: "xavier"
    }
    bias_filler {
      type: "constant"
      value: 0.2
    }
  }
}
layer {
  name: "inception_3a/relu_pool_proj"
  type: "ReLU"
  bottom: "inception_3a/pool_proj"
  top: "inception_3a/pool_proj"
}
layer {
  name: "inception_3a/output"
  type: "Concat"
  bottom: "inception_3a/1x1"
  bottom: "inception_3a/3x3"
  bottom: "inception_3a/double3x3"
  bottom: "inception_3a/pool_proj"
  top: "inception_3a/output"
}
layer {
  name: "inception_3b/1x1"
  type: "Convolution"
  bottom: "inception_3a/output"
  top: "inception_3b/1x1"
  param {
    lr_mult: 1
    decay_mult: 1
  }
  param {
    lr_mult: 2
    decay_mult: 0
  }
  convolution_param {
    num_output: 64
    kernel_size: 1
    weight_filler {
      type: "xavier"
    }
    bias_filler {
      type: "constant"
      value: 0.2
    }
  }
}
layer {
  name: "inception_3b/relu_1x1"
  type: "ReLU"
  bottom: "inception_3b/1x1"
  top: "inception_3b/1x1"
}
layer {
  name: "inception_3b/3x3_reduce"
  type: "Convolution"
  bottom: "inception_3a/output"
  top: "inception_3b/3x3_reduce"
  param {
    lr_mult: 1
    decay_mult: 1
  }
  param {
    lr_mult: 2
    decay_mult: 0
  }
  convolution_param {
    num_output: 64
    kernel_size: 1
    weight_filler {
      type: "xavier"
    }
    bias_filler {
      type: "constant"
      value: 0.2
    }
  }
}
layer {
  name: "inception_3b/relu_3x3_reduce"
  type: "ReLU"
  bottom: "inception_3b/3x3_reduce"
  top: "inception_3b/3x3_reduce"
}
layer {
  name: "inception_3b/3x3"
  type: "Convolution"
  bottom: "inception_3b/3x3_reduce"
  top: "inception_3b/3x3"
  param {
    lr_mult: 1
    decay_mult: 1
  }
  param {
    lr_mult: 2
    decay_mult: 0
  }
  convolution_param {
    num_output: 96
    pad: 1
    kernel_size: 3
    weight_filler {
      type: "xavier"
    }
    bias_filler {
      type: "constant"
      value: 0.2
    }
  }
}
layer {
  name: "inception_3b/relu_3x3"
  type: "ReLU"
  bottom: "inception_3b/3x3"
  top: "inception_3b/3x3"
}
layer {
  name: "inception_3b/double3x3_reduce"
  type: "Convolution"
  bottom: "inception_3a/output"
  top: "inception_3b/double3x3_reduce"
  param {
    lr_mult: 1
    decay_mult: 1
  }
  param {
    lr_mult: 2
    decay_mult: 0
  }
  convolution_param {
    num_output: 64
    kernel_size: 1
    weight_filler {
      type: "xavier"
    }
    bias_filler {
      type: "constant"
      value: 0.2
    }
  }
}
layer {
  name: "inception_3b/relu_double3x3_reduce"
  type: "ReLU"
  bottom: "inception_3b/double3x3_reduce"
  top: "inception_3b/double3x3_reduce"
}
layer {
  name: "inception_3b/double3x3_mid"
  type: "Convolution"
  bottom: "inception_3b/double3x3_reduce"
  top: "inception_3b/double3x3_mid"
  param {
    lr_mult: 1
    decay_mult: 1
  }
  param {
    lr_mult: 2
    decay_mult: 0
  }
  convolution_param {
    num_output: 96
    pad: 1
    kernel_size: 3
    weight_filler {
      type: "xavier"
    }
    bias_filler {
      type: "constant"
      value: 0.2
    }
  }
}
layer {
  name: "inception_3b/relu_double3x3_mid"
  type: "ReLU"
  bottom: "inception_3b/double3x3_mid"
  top: "inception_3b/double3x3_mid"
}
layer {
  name: "inception_3b/double3x3"
  type: "Convolution"
  bottom: "inception_3b/double3x3_mid"
  top: "inception_3b/double3x3"
  param {
    lr_mult: 1
    decay_mult: 1
  }
  param {
    lr_mult: 2
    decay_mult: 0
  }
  convolution_param {
    num_output: 96
    pad: 1
    kernel_size: 3
    weight_filler {
      type: "xavier"
    }
    bias_filler {
      type: "constant"
      value: 0.2
    }
  }
}
layer {
  name: "inception_3b/relu_double3x3"
  type: "ReLU"
  bottom: "inception_3b/double3x3"
  top: "inception_3b/double3x3"
}
layer {
  name: "inception_3b/pool"
  type: "Pooling"
  bottom: "inception_3a/output"
  top: "inception_3b/pool"
  pooling_param {
    pool: AVE
    kernel_size: 3
    stride: 1
    pad: 1
  }
}
layer {
  name: "inception_3b/pool_proj"
  type: "Convolution"
  bottom: "inception_3b/pool"
  top: "inception_3b/pool_proj"
  param {
    lr_mult: 1
    decay_mult: 1
  }
  param {
    lr_mult: 2
    decay_mult: 0
  }
  convolution_param {
    num_output: 64
…
I0905 23:47:57.939445 84240 net.cpp:155] Setting up inception_4c/double3x3_reduce
I0905 23:47:57.939465 84240 net.cpp:163] Top shape: 50 128 14 14 (1254400)
I0905 23:47:57.939476 84240 layer_factory.hpp:76] Creating layer inception_4c/relu_double3x3_reduce
I0905 23:47:57.939491 84240 net.cpp:110] Creating Layer inception_4c/relu_double3x3_reduce
I0905 23:47:57.939499 84240 net.cpp:477] inception_4c/relu_double3x3_reduce <- inception_4c/double3x3_reduce
I0905 23:47:57.939509 84240 net.cpp:419] inception_4c/relu_double3x3_reduce -> inception_4c/double3x3_reduce (in-place)
I0905 23:47:57.939522 84240 net.cpp:155] Setting up inception_4c/relu_double3x3_reduce
I0905 23:47:57.939532 84240 net.cpp:163] Top shape: 50 128 14 14 (1254400)
I0905 23:47:57.939538 84240 layer_factory.hpp:76] Creating layer inception_4c/double3x3_mid
I0905 23:47:57.939550 84240 net.cpp:110] Creating Layer inception_4c/double3x3_mid
I0905 23:47:57.939556 84240 net.cpp:477] inception_4c/double3x3_mid <- inception_4c/double3x3_reduce
I0905 23:47:57.939568 84240 net.cpp:433] inception_4c/double3x3_mid -> inception_4c/double3x3_mid
I0905 23:47:57.943459 84240 net.cpp:155] Setting up inception_4c/double3x3_mid
I0905 23:47:57.943485 84240 net.cpp:163] Top shape: 50 160 14 14 (1568000)
I0905 23:47:57.943500 84240 layer_factory.hpp:76] Creating layer inception_4c/relu_double3x3_mid
I0905 23:47:57.943512 84240 net.cpp:110] Creating Layer inception_4c/relu_double3x3_mid
I0905 23:47:57.943521 84240 net.cpp:477] inception_4c/relu_double3x3_mid <- inception_4c/double3x3_mid
I0905 23:47:57.943531 84240 net.cpp:419] inception_4c/relu_double3x3_mid -> inception_4c/double3x3_mid (in-place)
I0905 23:47:57.943545 84240 net.cpp:155] Setting up inception_4c/relu_double3x3_mid
I0905 23:47:57.943562 84240 net.cpp:163] Top shape: 50 160 14 14 (1568000)
I0905 23:47:57.943568 84240 layer_factory.hpp:76] Creating layer inception_4c/double3x3
I0905 23:47:57.943584 84240 net.cpp:110] Creating Layer inception_4c/double3x3
I0905 23:47:57.943591 84240 net.cpp:477] inception_4c/double3x3 <- inception_4c/double3x3_mid
I0905 23:47:57.943603 84240 net.cpp:433] inception_4c/double3x3 -> inception_4c/double3x3
I0905 23:47:57.948218 84240 net.cpp:155] Setting up inception_4c/double3x3
I0905 23:47:57.948246 84240 net.cpp:163] Top shape: 50 160 14 14 (1568000)
I0905 23:47:57.948261 84240 layer_factory.hpp:76] Creating layer inception_4c/relu_double3x3
I0905 23:47:57.948278 84240 net.cpp:110] Creating Layer inception_4c/relu_double3x3
I0905 23:47:57.948293 84240 net.cpp:477] inception_4c/relu_double3x3 <- inception_4c/double3x3
I0905 23:47:57.948304 84240 net.cpp:419] inception_4c/relu_double3x3 -> inception_4c/double3x3 (in-place)
I0905 23:47:57.948318 84240 net.cpp:155] Setting up inception_4c/relu_double3x3
I0905 23:47:57.948331 84240 net.cpp:163] Top shape: 50 160 14 14 (1568000)
I0905 23:47:57.948338 84240 layer_factory.hpp:76] Creating layer inception_4c/pool
I0905 23:47:57.948348 84240 net.cpp:110] Creating Layer inception_4c/pool
I0905 23:47:57.948360 84240 net.cpp:477] inception_4c/pool <- inception_4b/output_inception_4b/output_0_split_3
I0905 23:47:57.948372 84240 net.cpp:433] inception_4c/pool -> inception_4c/pool
I0905 23:47:57.948392 84240 net.cpp:155] Setting up inception_4c/pool
I0905 23:47:57.948405 84240 net.cpp:163] Top shape: 50 576 14 14 (5644800)
I0905 23:47:57.948412 84240 layer_factory.hpp:76] Creating layer inception_4c/pool_proj
I0905 23:47:57.948431 84240 net.cpp:110] Creating Layer inception_4c/pool_proj
I0905 23:47:57.948441 84240 net.cpp:477] inception_4c/pool_proj <- inception_4c/pool
I0905 23:47:57.948453 84240 net.cpp:433] inception_4c/pool_proj -> inception_4c/pool_proj
I0905 23:47:57.949723 84240 net.cpp:155] Setting up inception_4c/pool_proj
I0905 23:47:57.949740 84240 net.cpp:163] Top shape: 50 128 14 14 (1254400)
I0905 23:47:57.949753 84240 layer_factory.hpp:76] Creating layer inception_4c/relu_pool_proj
I0905 23:47:57.949789 84240 net.cpp:110] Creating Layer inception_4c/relu_pool_proj
I0905 23:47:57.949800 84240 net.cpp:477] inception_4c/relu_pool_proj <- inception_4c/pool_proj
I0905 23:47:57.949811 84240 net.cpp:419] inception_4c/relu_pool_proj -> inception_4c/pool_proj (in-place)
I0905 23:47:57.949827 84240 net.cpp:155] Setting up inception_4c/relu_pool_proj
I0905 23:47:57.949839 84240 net.cpp:163] Top shape: 50 128 14 14 (1254400)
I0905 23:47:57.949846 84240 layer_factory.hpp:76] Creating layer inception_4c/output
I0905 23:47:57.949864 84240 net.cpp:110] Creating Layer inception_4c/output
I0905 23:47:57.949875 84240 net.cpp:477] inception_4c/output <- inception_4c/1x1
I0905 23:47:57.949885 84240 net.cpp:477] inception_4c/output <- inception_4c/3x3
I0905 23:47:57.949898 84240 net.cpp:477] inception_4c/output <- inception_4c/double3x3
I0905 23:47:57.949905 84240 net.cpp:477] inception_4c/output <- inception_4c/pool_proj
I0905 23:47:57.949918 84240 net.cpp:433] inception_4c/output -> inception_4c/output
I0905 23:47:57.949937 84240 net.cpp:155] Setting up inception_4c/output
I0905 23:47:57.949949 84240 net.cpp:163] Top shape: 50 608 14 14 (5958400)
I0905 23:47:57.949959 84240 layer_factory.hpp:76] Creating layer inception_4c/output_inception_4c/output_0_split
I0905 23:47:57.949971 84240 net.cpp:110] Creating Layer inception_4c/output_inception_4c/output_0_split
I0905 23:47:57.949985 84240 net.cpp:477] inception_4c/output_inception_4c/output_0_split <- inception_4c/output
I0905 23:47:57.949995 84240 net.cpp:433] inception_4c/output_inception_4c/output_0_split -> inception_4c/output_inception_4c/output_0_split_0
I0905 23:47:57.950012 84240 net.cpp:433] inception_4c/output_inception_4c/output_0_split -> inception_4c/output_inception_4c/output_0_split_1
I0905 23:47:57.950029 84240 net.cpp:433] inception_4c/output_inception_4c/output_0_split -> inception_4c/output_inception_4c/output_0_split_2
I0905 23:47:57.950045 84240 net.cpp:433] inception_4c/output_inception_4c/output_0_split -> inception_4c/output_inception_4c/output_0_split_3
I0905 23:47:57.950062 84240 net.cpp:155] Setting up inception_4c/output_inception_4c/output_0_split
I0905 23:47:57.950073 84240 net.cpp:163] Top shape: 50 608 14 14 (5958400)
I0905 23:47:57.950081 84240 net.cpp:163] Top shape: 50 608 14 14 (5958400)
I0905 23:47:57.950093 84240 net.cpp:163] Top shape: 50 608 14 14 (5958400)
I0905 23:47:57.950100 84240 net.cpp:163] Top shape: 50 608 14 14 (5958400)
I0905 23:47:57.950109 84240 layer_factory.hpp:76] Creating layer inception_4d/1x1
I0905 23:47:57.950125 84240 net.cpp:110] Creating Layer inception_4d/1x1
I0905 23:47:57.950135 84240 net.cpp:477] inception_4d/1x1 <- inception_4c/output_inception_4c/output_0_split_0
I0905 23:47:57.950147 84240 net.cpp:433] inception_4d/1x1 -> inception_4d/1x1
I0905 23:47:57.951202 84240 net.cpp:155] Setting up inception_4d/1x1
I0905 23:47:57.951221 84240 net.cpp:163] Top shape: 50 96 14 14 (940800)
I0905 23:47:57.951236 84240 layer_factory.hpp:76] Creating layer inception_4d/relu_1x1
I0905 23:47:57.951251 84240 net.cpp:110] Creating Layer inception_4d/relu_1x1
I0905 23:47:57.951261 84240 net.cpp:477] inception_4d/relu_1x1 <- inception_4d/1x1
I0905 23:47:57.951279 84240 net.cpp:419] inception_4d/relu_1x1 -> inception_4d/1x1 (in-place)
I0905 23:47:57.951295 84240 net.cpp:155] Setting up inception_4d/relu_1x1
I0905 23:47:57.951308 84240 net.cpp:163] Top shape: 50 96 14 14 (940800)
I0905 23:47:57.951314 84240 layer_factory.hpp:76] Creating layer inception_4d/3x3_reduce
I0905 23:47:57.951329 84240 net.cpp:110] Creating Layer inception_4d/3x3_reduce
I0905 23:47:57.951339 84240 net.cpp:477] inception_4d/3x3_reduce <- inception_4c/output_inception_4c/output_0_split_1
I0905 23:47:57.951354 84240 net.cpp:433] inception_4d/3x3_reduce -> inception_4d/3x3_reduce
I0905 23:47:57.952707 84240 net.cpp:155] Setting up inception_4d/3x3_reduce
I0905 23:47:57.952724 84240 net.cpp:163] Top shape: 50 128 14 14 (1254400)
I0905 23:47:57.952739 84240 layer_factory.hpp:76] Creating layer inception_4d/relu_3x3_reduce
I0905 23:47:57.952770 84240 net.cpp:110] Creating Layer inception_4d/relu_3x3_reduce
I0905 23:47:57.952780 84240 net.cpp:477] inception_4d/relu_3x3_reduce <- inception_4d/3x3_reduce
I0905 23:47:57.952795 84240 net.cpp:419] inception_4d/relu_3x3_reduce -> inception_4d/3x3_reduce (in-place)
I0905 23:47:57.952812 84240 net.cpp:155] Setting up inception_4d/relu_3x3_reduce
I0905 23:47:57.952824 84240 net.cpp:163] Top shape: 50 128 14 14 (1254400)
I0905 23:47:57.952832 84240 layer_factory.hpp:76] Creating layer inception_4d/3x3
I0905 23:47:57.952847 84240 net.cpp:110] Creating Layer inception_4d/3x3
I0905 23:47:57.952857 84240 net.cpp:477] inception_4d/3x3 <- inception_4d/3x3_reduce
I0905 23:47:57.952867 84240 net.cpp:433] inception_4d/3x3 -> inception_4d/3x3
I0905 23:47:57.957365 84240 net.cpp:155] Setting up inception_4d/3x3
I0905 23:47:57.957392 84240 net.cpp:163] Top shape: 50 192 14 14 (1881600)
I0905 23:47:57.957415 84240 layer_factory.hpp:76] Creating layer inception_4d/relu_3x3
I0905 23:47:57.957460 84240 net.cpp:110] Creating Layer inception_4d/relu_3x3
I0905 23:47:57.957473 84240 net.cpp:477] inception_4d/relu_3x3 <- inception_4d/3x3
I0905 23:47:57.957484 84240 net.cpp:419] inception_4d/relu_3x3 -> inception_4d/3x3 (in-place)
I0905 23:47:57.957502 84240 net.cpp:155] Setting up inception_4d/relu_3x3
I0905 23:47:57.957515 84240 net.cpp:163] Top shape: 50 192 14 14 (1881600)
I0905 23:47:57.957525 84240 layer_factory.hpp:76] Creating layer inception_4d/double3x3_reduce
I0905 23:47:57.957540 84240 net.cpp:110] Creating Layer inception_4d/double3x3_reduce
I0905 23:47:57.957550 84240 net.cpp:477] inception_4d/double3x3_reduce <- inception_4c/output_inception_4c/output_0_split_2
I0905 23:47:57.957571 84240 net.cpp:433] inception_4d/double3x3_reduce -> inception_4d/double3x3_reduce
I0905 23:47:57.960101 84240 net.cpp:155] Setting up inception_4d/double3x3_reduce
I0905 23:47:57.960129 84240 net.cpp:163] Top shape: 50 160 14 14 (1568000)
I0905 23:47:57.960150 84240 layer_factory.hpp:76] Creating layer inception_4d/relu_double3x3_reduce
I0905 23:47:57.960165 84240 net.cpp:110] Creating Layer inception_4d/relu_double3x3_reduce
I0905 23:47:57.960177 84240 net.cpp:477] inception_4d/relu_double3x3_reduce <- inception_4d/double3x3_reduce
I0905 23:47:57.960191 84240 net.cpp:419] inception_4d/relu_double3x3_reduce -> inception_4d/double3x3_reduce (in-place)
I0905 23:47:57.960208 84240 net.cpp:155] Setting up inception_4d/relu_double3x3_reduce
I0905 23:47:57.960222 84240 net.cpp:163] Top shape: 50 160 14 14 (1568000)
I0905 23:47:57.960232 84240 layer_factory.hpp:76] Creating layer inception_4d/double3x3_mid
I0905 23:47:57.960244 84240 net.cpp:110] Creating Layer inception_4d/double3x3_mid
I0905 23:47:57.960254 84240 net.cpp:477] inception_4d/double3x3_mid <- inception_4d/double3x3_reduce
I0905 23:47:57.960266 84240 net.cpp:433] inception_4d/double3x3_mid -> inception_4d/double3x3_mid
I0905 23:47:57.966380 84240 net.cpp:155] Setting up inception_4d/double3x3_mid
I0905 23:47:57.966418 84240 net.cpp:163] Top shape: 50 192 14 14 (1881600)
I0905 23:47:57.966439 84240 layer_factory.hpp:76] Creating layer inception_4d/relu_double3x3_mid
I0905 23:47:57.966456 84240 net.cpp:110] Creating Layer inception_4d/relu_double3x3_mid
I0905 23:47:57.966471 84240 net.cpp:477] inception_4d/relu_double3x3_mid <- inception_4d/double3x3_mid
I0905 23:47:57.966485 84240 net.cpp:419] inception_4d/relu_double3x3_mid -> inception_4d/double3x3_mid (in-place)
I0905 23:47:57.966509 84240 net.cpp:155] Setting up inception_4d/relu_double3x3_mid
I0905 23:47:57.966522 84240 net.cpp:163] Top shape: 50 192 14 14 (1881600)
I0905 23:47:57.966531 84240 layer_factory.hpp:76] Creating layer inception_4d/double3x3
I0905 23:47:57.966547 84240 net.cpp:110] Creating Layer inception_4d/double3x3
I0905 23:47:57.966557 84240 net.cpp:477] inception_4d/double3x3 <- inception_4d/double3x3_mid
I0905 23:47:57.966572 84240 net.cpp:433] inception_4d/double3x3 -> inception_4d/double3x3
I0905 23:47:57.972975 84240 net.cpp:155] Setting up inception_4d/double3x3
I0905 23:47:57.973003 84240 net.cpp:163] Top shape: 50 192 14 14 (1881600)
I0905 23:47:57.973047 84240 layer_factory.hpp:76] Creating layer inception_4d/relu_double3x3
I0905 23:47:57.973068 84240 net.cpp:110] Creating Layer inception_4d/relu_double3x3
I0905 23:47:57.973080 84240 net.cpp:477] inception_4d/relu_double3x3 <- inception_4d/double3x3
I0905 23:47:57.973093 84240 net.cpp:419] inception_4d/relu_double3x3 -> inception_4d/double3x3 (in-place)
I0905 23:47:57.973110 84240 net.cpp:155] Setting up inception_4d/relu_double3x3
I0905 23:47:57.973124 84240 net.cpp:163] Top shape: 50 192 14 14 (1881600)
I0905 23:47:57.973137 84240 layer_factory.hpp:76] Creating layer inception_4d/pool
I0905 23:47:57.973150 84240 net.cpp:110] Creating Layer inception_4d/pool
I0905 23:47:57.973160 84240 net.cpp:477] inception_4d/pool <- inception_4c/output_inception_4c/output_0_split_3
I0905 23:47:57.973172 84240 net.cpp:433] inception_4d/pool -> inception_4d/pool
I0905 23:47:57.973194 84240 net.cpp:155] Setting up inception_4d/pool
I0905 23:47:57.973207 84240 net.cpp:163] Top shape: 50 608 14 14 (5958400)
I0905 23:47:57.973217 84240 layer_factory.hpp:76] Creating layer inception_4d/pool_proj
I0905 23:47:57.973232 84240 net.cpp:110] Creating Layer inception_4d/pool_proj
I0905 23:47:57.973242 84240 net.cpp:477] inception_4d/pool_proj <- inception_4d/pool
I0905 23:47:57.973258 84240 net.cpp:433] inception_4d/pool_proj -> inception_4d/pool_proj
I0905 23:47:57.974594 84240 net.cpp:155] Setting up inception_4d/pool_proj
I0905 23:47:57.974613 84240 net.cpp:163] Top shape: 50 128 14 14 (1254400)
I0905 23:47:57.974627 84240 layer_factory.hpp:76] Creating layer inception_4d/relu_pool_proj
I0905 23:47:57.974642 84240 net.cpp:110] Creating Layer inception_4d/relu_pool_proj
I0905 23:47:57.974652 84240 net.cpp:477] inception_4d/relu_pool_proj <- inception_4d/pool_proj
I0905 23:47:57.974663 84240 net.cpp:419] inception_4d/relu_pool_proj -> inception_4d/pool_proj (in-place)
I0905 23:47:57.974678 84240 net.cpp:155] Setting up inception_4d/relu_pool_proj
I0905 23:47:57.974690 84240 net.cpp:163] Top shape: 50 128 14 14 (1254400)
I0905 23:47:57.974700 84240 layer_factory.hpp:76] Creating layer inception_4d/output
I0905 23:47:57.974711 84240 net.cpp:110] Creating Layer inception_4d/output
I0905 23:47:57.974721 84240 net.cpp:477] inception_4d/output <- inception_4d/1x1
I0905 23:47:57.974731 84240 net.cpp:477] inception_4d/output <- inception_4d/3x3
I0905 23:47:57.974743 84240 net.cpp:477] inception_4d/output <- inception_4d/double3x3
I0905 23:47:57.974755 84240 net.cpp:477] inception_4d/output <- inception_4d/pool_proj
I0905 23:47:57.974769 84240 net.cpp:433] inception_4d/output -> inception_4d/output
I0905 23:47:57.974787 84240 net.cpp:155] Setting up inception_4d/output
I0905 23:47:57.974800 84240 net.cpp:163] Top shape: 50 608 14 14 (5958400)
I0905 23:47:57.974807 84240 layer_factory.hpp:76] Creating layer inception_4d/output_inception_4d/output_0_split
I0905 23:47:57.974820 84240 net.cpp:110] Creating Layer inception_4d/output_inception_4d/output_0_split
I0905 23:47:57.974830 84240 net.cpp:477] inception_4d/output_inception_4d/output_0_split <- inception_4d/output
I0905 23:47:57.974843 84240 net.cpp:433] inception_4d/output_inception_4d/output_0_split -> inception_4d/output_inception_4d/output_0_split_0
I0905 23:47:57.974863 84240 net.cpp:433] inception_4d/output_inception_4d/output_0_split -> inception_4d/output_inception_4d/output_0_split_1
I0905 23:47:57.974879 84240 net.cpp:433] inception_4d/output_inception_4d/output_0_split -> inception_4d/output_inception_4d/output_0_split_2
I0905 23:47:57.974895 84240 net.cpp:433] inception_4d/output_inception_4d/output_0_split -> inception_4d/output_inception_4d/output_0_split_3
I0905 23:47:57.974913 84240 net.cpp:155] Setting up inception_4d/output_inception_4d/output_0_split
I0905 23:47:57.974925 84240 net.cpp:163] Top shape: 50 608 14 14 (5958400)
I0905 23:47:57.974933 84240 net.cpp:163] Top shape: 50 608 14 14 (5958400)
I0905 23:47:57.974943 84240 net.cpp:163] Top shape: 50 608 14 14 (5958400)
I0905 23:47:57.974951 84240 net.cpp:163] Top shape: 50 608 14 14 (5958400)
I0905 23:47:57.974977 84240 layer_factory.hpp:76] Creating layer loss2/ave_pool
I0905 23:47:57.974988 84240 net.cpp:110] Creating Layer loss2/ave_pool
I0905 23:47:57.974999 84240 net.cpp:477] loss2/ave_pool <- inception_4d/output_inception_4d/output_0_split_0
I0905 23:47:57.975028 84240 net.cpp:433] loss2/ave_pool -> loss2/ave_pool
I0905 23:47:57.975047 84240 net.cpp:155] Setting up loss2/ave_pool
I0905 23:47:57.975060 84240 net.cpp:163] Top shape: 50 608 4 4 (486400)
I0905 23:47:57.975070 84240 layer_factory.hpp:76] Creating layer loss2/conv
I0905 23:47:57.975083 84240 net.cpp:110] Creating Layer loss2/conv
I0905 23:47:57.975093 84240 net.cpp:477] loss2/conv <- loss2/ave_pool
I0905 23:47:57.975105 84240 net.cpp:433] loss2/conv -> loss2/conv
I0905 23:47:57.976476 84240 net.cpp:155] Setting up loss2/conv
I0905 23:47:57.976497 84240 net.cpp:163] Top shape: 50 128 4 4 (102400)
I0905 23:47:57.976514 84240 layer_factory.hpp:76] Creating layer loss2/relu_conv
I0905 23:47:57.976528 84240 net.cpp:110] Creating Layer loss2/relu_conv
I0905 23:47:57.976539 84240 net.cpp:477] loss2/relu_conv <- loss2/conv
I0905 23:47:57.976554 84240 net.cpp:419] loss2/relu_conv -> loss2/conv (in-place)
I0905 23:47:57.976572 84240 net.cpp:155] Setting up loss2/relu_conv
I0905 23:47:57.976583 84240 net.cpp:163] Top shape: 50 128 4 4 (102400)
I0905 23:47:57.976591 84240 layer_factory.hpp:76] Creating layer loss2/fc
I0905 23:47:57.976608 84240 net.cpp:110] Creating Layer loss2/fc
I0905 23:47:57.976618 84240 net.cpp:477] loss2/fc <- loss2/conv
I0905 23:47:57.976629 84240 net.cpp:433] loss2/fc -> loss2/fc
I0905 23:47:58.015040 84240 net.cpp:155] Setting up loss2/fc
I0905 23:47:58.015089 84240 net.cpp:163] Top shape: 50 1024 (51200)
I0905 23:47:58.015107 84240 layer_factory.hpp:76] Creating layer loss2/relu_fc
I0905 23:47:58.015132 84240 net.cpp:110] Creating Layer loss2/relu_fc
I0905 23:47:58.015146 84240 net.cpp:477] loss2/relu_fc <- loss2/fc
I0905 23:47:58.015159 84240 net.cpp:419] loss2/relu_fc -> loss2/fc (in-place)
I0905 23:47:58.015180 84240 net.cpp:155] Setting up loss2/relu_fc
I0905 23:47:58.015192 84240 net.cpp:163] Top shape: 50 1024 (51200)
I0905 23:47:58.015199 84240 layer_factory.hpp:76] Creating layer loss2/drop_fc
I0905 23:47:58.015218 84240 net.cpp:110] Creating Layer loss2/drop_fc
I0905 23:47:58.015229 84240 net.cpp:477] loss2/drop_fc <- loss2/fc
I0905 23:47:58.015244 84240 net.cpp:419] loss2/drop_fc -> loss2/fc (in-place)
I0905 23:47:58.015262 84240 net.cpp:155] Setting up loss2/drop_fc
I0905 23:47:58.015275 84240 net.cpp:163] Top shape: 50 1024 (51200)
I0905 23:47:58.015281 84240 layer_factory.hpp:76] Creating layer loss2/classifier
I0905 23:47:58.015300 84240 net.cpp:110] Creating Layer loss2/classifier
I0905 23:47:58.015308 84240 net.cpp:477] loss2/classifier <- loss2/fc
I0905 23:47:58.015321 84240 net.cpp:433] loss2/classifier -> loss2/classifier
I0905 23:47:58.034791 84240 net.cpp:155] Setting up loss2/classifier
I0905 23:47:58.034826 84240 net.cpp:163] Top shape: 50 1000 (50000)
I0905 23:47:58.034843 84240 layer_factory.hpp:76] Creating layer loss2/classifier_loss2/classifier_0_split
I0905 23:47:58.034862 84240 net.cpp:110] Creating Layer loss2/classifier_loss2/classifier_0_split
I0905 23:47:58.034871 84240 net.cpp:477] loss2/classifier_loss2/classifier_0_split <- loss2/classifier
I0905 23:47:58.034884 84240 net.cpp:433] loss2/classifier_loss2/classifier_0_split -> loss2/classifier_loss2/classifier_0_split_0
I0905 23:47:58.034900 84240 net.cpp:433] loss2/classifier_loss2/classifier_0_split -> loss2/classifier_loss2/classifier_0_split_1
I0905 23:47:58.034914 84240 net.cpp:433] loss2/classifier_loss2/classifier_0_split -> loss2/classifier_loss2/classifier_0_split_2
I0905 23:47:58.034929 84240 net.cpp:155] Setting up loss2/classifier_loss2/classifier_0_split
I0905 23:47:58.034939 84240 net.cpp:163] Top shape: 50 1000 (50000)
I0905 23:47:58.034946 84240 net.cpp:163] Top shape: 50 1000 (50000)
I0905 23:47:58.034953 84240 net.cpp:163] Top shape: 50 1000 (50000)
I0905 23:47:58.034960 84240 layer_factory.hpp:76] Creating layer loss2/loss
I0905 23:47:58.035011 84240 net.cpp:110] Creating Layer loss2/loss
I0905 23:47:58.035018 84240 net.cpp:477] loss2/loss <- loss2/classifier_loss2/classifier_0_split_0
I0905 23:47:58.035028 84240 net.cpp:477] loss2/loss <- label_data_1_split_3
I0905 23:47:58.035040 84240 net.cpp:433] loss2/loss -> loss2/loss1
I0905 23:47:58.035084 84240 layer_factory.hpp:76] Creating layer loss2/loss
…
I0905 23:47:58.035485 84240 net.cpp:155] Setting up loss2/top-5
I0905 23:47:58.035493 84240 net.cpp:163] Top shape: (1)
I0905 23:47:58.035500 84240 layer_factory.hpp:76] Creating layer inception_4e/3x3_reduce
I0905 23:47:58.035513 84240 net.cpp:110] Creating Layer inception_4e/3x3_reduce
I0905 23:47:58.035521 84240 net.cpp:477] inception_4e/3x3_reduce <- inception_4d/output_inception_4d/output_0_split_1
I0905 23:47:58.035534 84240 net.cpp:433] inception_4e/3x3_reduce -> inception_4e/3x3_reduce
I0905 23:47:58.036798 84240 net.cpp:155] Setting up inception_4e/3x3_reduce
I0905 23:47:58.036816 84240 net.cpp:163] Top shape: 50 128 14 14 (1254400)
I0905 23:47:58.036830 84240 layer_factory.hpp:76] Creating layer inception_4e/relu_3x3_reduce
I0905 23:47:58.036842 84240 net.cpp:110] Creating Layer inception_4e/relu_3x3_reduce
I0905 23:47:58.036850 84240 net.cpp:477] inception_4e/relu_3x3_reduce <- inception_4e/3x3_reduce
I0905 23:47:58.036860 84240 net.cpp:419] inception_4e/relu_3x3_reduce -> inception_4e/3x3_reduce (in-place)
I0905 23:47:58.036872 84240 net.cpp:155] Setting up inception_4e/relu_3x3_reduce
I0905 23:47:58.036881 84240 net.cpp:163] Top shape: 50 128 14 14 (1254400)
I0905 23:47:58.036887 84240 layer_factory.hpp:76] Creating layer inception_4e/3x3_s2
I0905 23:47:58.036902 84240 net.cpp:110] Creating Layer inception_4e/3x3_s2
I0905 23:47:58.036909 84240 net.cpp:477] inception_4e/3x3_s2 <- inception_4e/3x3_reduce
I0905 23:47:58.036921 84240 net.cpp:433] inception_4e/3x3_s2 -> inception_4e/3x3_s2
I0905 23:47:58.041126 84240 net.cpp:155] Setting up inception_4e/3x3_s2
I0905 23:47:58.041157 84240 net.cpp:163] Top shape: 50 192 7 7 (470400)
I0905 23:47:58.041170 84240 layer_factory.hpp:76] Creating layer inception_4e/relu_3x3
I0905 23:47:58.041182 84240 net.cpp:110] Creating Layer inception_4e/relu_3x3
I0905 23:47:58.041190 84240 net.cpp:477] inception_4e/relu_3x3 <- inception_4e/3x3_s2
I0905 23:47:58.041201 84240 net.cpp:419] inception_4e/relu_3x3 -> inception_4e/3x3_s2 (in-place)
I0905 23:47:58.041214 84240 net.cpp:155] Setting up inception_4e/relu_3x3
I0905 23:47:58.041224 84240 net.cpp:163] Top shape: 50 192 7 7 (470400)
I0905 23:47:58.041230 84240 layer_factory.hpp:76] Creating layer inception_4e/double3x3_reduce
I0905 23:47:58.041241 84240 net.cpp:110] Creating Layer inception_4e/double3x3_reduce
I0905 23:47:58.041249 84240 net.cpp:477] inception_4e/double3x3_reduce <- inception_4d/output_inception_4d/output_0_split_2
I0905 23:47:58.041263 84240 net.cpp:433] inception_4e/double3x3_reduce -> inception_4e/double3x3_reduce
I0905 23:47:58.043898 84240 net.cpp:155] Setting up inception_4e/double3x3_reduce
I0905 23:47:58.043943 84240 net.cpp:163] Top shape: 50 192 14 14 (1881600)
I0905 23:47:58.043962 84240 layer_factory.hpp:76] Creating layer inception_4e/relu_double3x3_reduce
I0905 23:47:58.043977 84240 net.cpp:110] Creating Layer inception_4e/relu_double3x3_reduce
I0905 23:47:58.043985 84240 net.cpp:477] inception_4e/relu_double3x3_reduce <- inception_4e/double3x3_reduce
I0905 23:47:58.043995 84240 net.cpp:419] inception_4e/relu_double3x3_reduce -> inception_4e/double3x3_reduce (in-place)
I0905 23:47:58.044008 84240 net.cpp:155] Setting up inception_4e/relu_double3x3_reduce
I0905 23:47:58.044018 84240 net.cpp:163] Top shape: 50 192 14 14 (1881600)
I0905 23:47:58.044024 84240 layer_factory.hpp:76] Creating layer inception_4e/double3x3_mid
I0905 23:47:58.044036 84240 net.cpp:110] Creating Layer inception_4e/double3x3_mid
I0905 23:47:58.044042 84240 net.cpp:477] inception_4e/double3x3_mid <- inception_4e/double3x3_reduce
I0905 23:47:58.044054 84240 net.cpp:433] inception_4e/double3x3_mid -> inception_4e/double3x3_mid
I0905 23:47:58.051817 84240 net.cpp:155] Setting up inception_4e/double3x3_mid
I0905 23:47:58.051849 84240 net.cpp:163] Top shape: 50 256 14 14 (2508800)
I0905 23:47:58.051863 84240 layer_factory.hpp:76] Creating layer inception_4e/relu_double3x3_mid
I0905 23:47:58.051875 84240 net.cpp:110] Creating Layer inception_4e/relu_double3x3_mid
I0905 23:47:58.051884 84240 net.cpp:477] inception_4e/relu_double3x3_mid <- inception_4e/double3x3_mid
I0905 23:47:58.051894 84240 net.cpp:419] inception_4e/relu_double3x3_mid -> inception_4e/double3x3_mid (in-place)
I0905 23:47:58.051908 84240 net.cpp:155] Setting up inception_4e/relu_double3x3_mid
I0905 23:47:58.051916 84240 net.cpp:163] Top shape: 50 256 14 14 (2508800)
I0905 23:47:58.051923 84240 layer_factory.hpp:76] Creating layer inception_4e/double3x3
I0905 23:47:58.051935 84240 net.cpp:110] Creating Layer inception_4e/double3x3
I0905 23:47:58.051942 84240 net.cpp:477] inception_4e/double3x3 <- inception_4e/double3x3_mid
I0905 23:47:58.051956 84240 net.cpp:433] inception_4e/double3x3 -> inception_4e/double3x3_s2
I0905 23:47:58.062194 84240 net.cpp:155] Setting up inception_4e/double3x3
I0905 23:47:58.062230 84240 net.cpp:163] Top shape: 50 256 7 7 (627200)
I0905 23:47:58.062244 84240 layer_factory.hpp:76] Creating layer inception_4e/relu_double3x3
I0905 23:47:58.062257 84240 net.cpp:110] Creating Layer inception_4e/relu_double3x3
I0905 23:47:58.062265 84240 net.cpp:477] inception_4e/relu_double3x3 <- inception_4e/double3x3_s2
I0905 23:47:58.062278 84240 net.cpp:419] inception_4e/relu_double3x3 -> inception_4e/double3x3_s2 (in-place)
I0905 23:47:58.062293 84240 net.cpp:155] Setting up inception_4e/relu_double3x3
I0905 23:47:58.062302 84240 net.cpp:163] Top shape: 50 256 7 7 (627200)
I0905 23:47:58.062309 84240 layer_factory.hpp:76] Creating layer inception_4e/pool
I0905 23:47:58.062320 84240 net.cpp:110] Creating Layer inception_4e/pool
I0905 23:47:58.062327 84240 net.cpp:477] inception_4e/pool <- inception_4d/output_inception_4d/output_0_split_3
I0905 23:47:58.062338 84240 net.cpp:433] inception_4e/pool -> inception_4e/pool
I0905 23:47:58.062356 84240 net.cpp:155] Setting up inception_4e/pool
I0905 23:47:58.062364 84240 net.cpp:163] Top shape: 50 608 7 7 (1489600)
I0905 23:47:58.062371 84240 layer_factory.hpp:76] Creating layer inception_4e/relu_pool
I0905 23:47:58.062381 84240 net.cpp:110] Creating Layer inception_4e/relu_pool
I0905 23:47:58.062388 84240 net.cpp:477] inception_4e/relu_pool <- inception_4e/pool
I0905 23:47:58.062397 84240 net.cpp:419] inception_4e/relu_pool -> inception_4e/pool (in-place)
I0905 23:47:58.062407 84240 net.cpp:155] Setting up inception_4e/relu_pool
I0905 23:47:58.062415 84240 net.cpp:163] Top shape: 50 608 7 7 (1489600)
I0905 23:47:58.062422 84240 layer_factory.hpp:76] Creating layer inception_4e/output
I0905 23:47:58.062433 84240 net.cpp:110] Creating Layer inception_4e/output
I0905 23:47:58.062439 84240 net.cpp:477] inception_4e/output <- inception_4e/3x3_s2
I0905 23:47:58.062448 84240 net.cpp:477] inception_4e/output <- inception_4e/double3x3_s2
I0905 23:47:58.062477 84240 net.cpp:477] inception_4e/output <- inception_4e/pool
I0905 23:47:58.062492 84240 net.cpp:433] inception_4e/output -> inception_4e/output
I0905 23:47:58.062507 84240 net.cpp:155] Setting up inception_4e/output
I0905 23:47:58.062516 84240 net.cpp:163] Top shape: 50 1056 7 7 (2587200)
I0905 23:47:58.062523 84240 layer_factory.hpp:76] Creating layer inception_4e/output_inception_4e/output_0_split
I0905 23:47:58.062535 84240 net.cpp:110] Creating Layer inception_4e/output_inception_4e/output_0_split
I0905 23:47:58.062541 84240 net.cpp:477] inception_4e/output_inception_4e/output_0_split <- inception_4e/output
I0905 23:47:58.062551 84240 net.cpp:433] inception_4e/output_inception_4e/output_0_split -> inception_4e/output_inception_4e/output_0_split_0
I0905 23:47:58.062564 84240 net.cpp:433] inception_4e/output_inception_4e/output_0_split -> inception_4e/output_inception_4e/output_0_split_1
I0905 23:47:58.062577 84240 net.cpp:433] inception_4e/output_inception_4e/output_0_split -> inception_4e/output_inception_4e/output_0_split_2
I0905 23:47:58.062588 84240 net.cpp:433] inception_4e/output_inception_4e/output_0_split -> inception_4e/output_inception_4e/output_0_split_3
I0905 23:47:58.062602 84240 net.cpp:155] Setting up inception_4e/output_inception_4e/output_0_split
I0905 23:47:58.062610 84240 net.cpp:163] Top shape: 50 1056 7 7 (2587200)
I0905 23:47:58.062618 84240 net.cpp:163] Top shape: 50 1056 7 7 (2587200)
I0905 23:47:58.062626 84240 net.cpp:163] Top shape: 50 1056 7 7 (2587200)
I0905 23:47:58.062633 84240 net.cpp:163] Top shape: 50 1056 7 7 (2587200)
I0905 23:47:58.062639 84240 layer_factory.hpp:76] Creating layer inception_5a/1x1
I0905 23:47:58.062655 84240 net.cpp:110] Creating Layer inception_5a/1x1
I0905 23:47:58.062662 84240 net.cpp:477] inception_5a/1x1 <- inception_4e/output_inception_4e/output_0_split_0
I0905 23:47:58.062674 84240 net.cpp:433] inception_5a/1x1 -> inception_5a/1x1
I0905 23:47:58.069322 84240 net.cpp:155] Setting up inception_5a/1x1
I0905 23:47:58.069355 84240 net.cpp:163] Top shape: 50 352 7 7 (862400)
I0905 23:47:58.069370 84240 layer_factory.hpp:76] Creating layer inception_5a/relu_1x1
I0905 23:47:58.069381 84240 net.cpp:110] Creating Layer inception_5a/relu_1x1
I0905 23:47:58.069389 84240 net.cpp:477] inception_5a/relu_1x1 <- inception_5a/1x1
I0905 23:47:58.069401 84240 net.cpp:419] inception_5a/relu_1x1 -> inception_5a/1x1 (in-place)
I0905 23:47:58.069413 84240 net.cpp:155] Setting up inception_5a/relu_1x1
I0905 23:47:58.069423 84240 net.cpp:163] Top shape: 50 352 7 7 (862400)
I0905 23:47:58.069429 84240 layer_factory.hpp:76] Creating layer inception_5a/3x3_reduce
I0905 23:47:58.069442 84240 net.cpp:110] Creating Layer inception_5a/3x3_reduce
I0905 23:47:58.069447 84240 net.cpp:477] inception_5a/3x3_reduce <- inception_4e/output_inception_4e/output_0_split_1
I0905 23:47:58.069459 84240 net.cpp:433] inception_5a/3x3_reduce -> inception_5a/3x3_reduce
I0905 23:47:58.073354 84240 net.cpp:155] Setting up inception_5a/3x3_reduce
I0905 23:47:58.073387 84240 net.cpp:163] Top shape: 50 192 7 7 (470400)
I0905 23:47:58.073401 84240 layer_factory.hpp:76] Creating layer inception_5a/relu_3x3_reduce
I0905 23:47:58.073413 84240 net.cpp:110] Creating Layer inception_5a/relu_3x3_reduce
I0905 23:47:58.073422 84240 net.cpp:477] inception_5a/relu_3x3_reduce <- inception_5a/3x3_reduce
I0905 23:47:58.073432 84240 net.cpp:419] inception_5a/relu_3x3_reduce -> inception_5a/3x3_reduce (in-place)
I0905 23:47:58.073446 84240 net.cpp:155] Setting up inception_5a/relu_3x3_reduce
I0905 23:47:58.073454 84240 net.cpp:163] Top shape: 50 192 7 7 (470400)
I0905 23:47:58.073462 84240 layer_factory.hpp:76] Creating layer inception_5a/3x3
I0905 23:47:58.073477 84240 net.cpp:110] Creating Layer inception_5a/3x3
I0905 23:47:58.073483 84240 net.cpp:477] inception_5a/3x3 <- inception_5a/3x3_reduce
I0905 23:47:58.073495 84240 net.cpp:433] inception_5a/3x3 -> inception_5a/3x3
I0905 23:47:58.083092 84240 net.cpp:155] Setting up inception_5a/3x3
I0905 23:47:58.083144 84240 net.cpp:163] Top shape: 50 320 7 7 (784000)
I0905 23:47:58.083159 84240 layer_factory.hpp:76] Creating layer inception_5a/relu_3x3
I0905 23:47:58.083171 84240 net.cpp:110] Creating Layer inception_5a/relu_3x3
I0905 23:47:58.083179 84240 net.cpp:477] inception_5a/relu_3x3 <- inception_5a/3x3
I0905 23:47:58.083189 84240 net.cpp:419] inception_5a/relu_3x3 -> inception_5a/3x3 (in-place)
I0905 23:47:58.083202 84240 net.cpp:155] Setting up inception_5a/relu_3x3
I0905 23:47:58.083211 84240 net.cpp:163] Top shape: 50 320 7 7 (784000)
I0905 23:47:58.083219 84240 layer_factory.hpp:76] Creating layer inception_5a/double3x3_reduce
I0905 23:47:58.083230 84240 net.cpp:110] Creating Layer inception_5a/double3x3_reduce
I0905 23:47:58.083236 84240 net.cpp:477] inception_5a/double3x3_reduce <- inception_4e/output_inception_4e/output_0_split_2
I0905 23:47:58.083252 84240 net.cpp:433] inception_5a/double3x3_reduce -> inception_5a/double3x3_reduce
I0905 23:47:58.086652 84240 net.cpp:155] Setting up inception_5a/double3x3_reduce
I0905 23:47:58.086683 84240 net.cpp:163] Top shape: 50 160 7 7 (392000)
I0905 23:47:58.086733 84240 layer_factory.hpp:76] Creating layer inception_5a/relu_double3x3_reduce
I0905 23:47:58.086746 84240 net.cpp:110] Creating Layer inception_5a/relu_double3x3_reduce
I0905 23:47:58.086755 84240 net.cpp:477] inception_5a/relu_double3x3_reduce <- inception_5a/double3x3_reduce
I0905 23:47:58.086766 84240 net.cpp:419] inception_5a/relu_double3x3_reduce -> inception_5a/double3x3_reduce (in-place)
I0905 23:47:58.086781 84240 net.cpp:155] Setting up inception_5a/relu_double3x3_reduce
I0905 23:47:58.086789 84240 net.cpp:163] Top shape: 50 160 7 7 (392000)
I0905 23:47:58.086796 84240 layer_factory.hpp:76] Creating layer inception_5a/double3x3_mid
I0905 23:47:58.086809 84240 net.cpp:110] Creating Layer inception_5a/double3x3_mid
I0905 23:47:58.086817 84240 net.cpp:477] inception_5a/double3x3_mid <- inception_5a/double3x3_reduce
I0905 23:47:58.086827 84240 net.cpp:433] inception_5a/double3x3_mid -> inception_5a/double3x3_mid
I0905 23:47:58.092628 84240 net.cpp:155] Setting up inception_5a/double3x3_mid
I0905 23:47:58.092655 84240 net.cpp:163] Top shape: 50 224 7 7 (548800)
I0905 23:47:58.092669 84240 layer_factory.hpp:76] Creating layer inception_5a/relu_double3x3_mid
I0905 23:47:58.092681 84240 net.cpp:110] Creating Layer inception_5a/relu_double3x3_mid
I0905 23:47:58.092690 84240 net.cpp:477] inception_5a/relu_double3x3_mid <- inception_5a/double3x3_mid
I0905 23:47:58.092700 84240 net.cpp:419] inception_5a/relu_double3x3_mid -> inception_5a/double3x3_mid (in-place)
I0905 23:47:58.092713 84240 net.cpp:155] Setting up inception_5a/relu_double3x3_mid
I0905 23:47:58.092722 84240 net.cpp:163] Top shape: 50 224 7 7 (548800)
I0905 23:47:58.092730 84240 layer_factory.hpp:76] Creating layer inception_5a/double3x3
I0905 23:47:58.092741 84240 net.cpp:110] Creating Layer inception_5a/double3x3
I0905 23:47:58.092748 84240 net.cpp:477] inception_5a/double3x3 <- inception_5a/double3x3_mid
I0905 23:47:58.092762 84240 net.cpp:433] inception_5a/double3x3 -> inception_5a/double3x3
I0905 23:47:58.100745 84240 net.cpp:155] Setting up inception_5a/double3x3
I0905 23:47:58.100770 84240 net.cpp:163] Top shape: 50 224 7 7 (548800)
I0905 23:47:58.100785 84240 layer_factory.hpp:76] Creating layer inception_5a/relu_double3x3
I0905 23:47:58.100795 84240 net.cpp:110] Creating Layer inception_5a/relu_double3x3
I0905 23:47:58.100805 84240 net.cpp:477] inception_5a/relu_double3x3 <- inception_5a/double3x3
I0905 23:47:58.100817 84240 net.cpp:419] inception_5a/relu_double3x3 -> inception_5a/double3x3 (in-place)
I0905 23:47:58.100831 84240 net.cpp:155] Setting up inception_5a/relu_double3x3
I0905 23:47:58.100841 84240 net.cpp:163] Top shape: 50 224 7 7 (548800)
I0905 23:47:58.100847 84240 layer_factory.hpp:76] Creating layer inception_5a/pool
I0905 23:47:58.100857 84240 net.cpp:110] Creating Layer inception_5a/pool
I0905 23:47:58.100865 84240 net.cpp:477] inception_5a/pool <- inception_4e/output_inception_4e/output_0_split_3
I0905 23:47:58.100878 84240 net.cpp:433] inception_5a/pool -> inception_5a/pool
I0905 23:47:58.100915 84240 net.cpp:155] Setting up inception_5a/pool
I0905 23:47:58.100926 84240 net.cpp:163] Top shape: 50 1056 7 7 (2587200)
I0905 23:47:58.100932 84240 layer_factory.hpp:76] Creating layer inception_5a/pool_proj
I0905 23:47:58.100945 84240 net.cpp:110] Creating Layer inception_5a/pool_proj
I0905 23:47:58.100952 84240 net.cpp:477] inception_5a/pool_proj <- inception_5a/pool
I0905 23:47:58.100966 84240 net.cpp:433] inception_5a/pool_proj -> inception_5a/pool_proj
I0905 23:47:58.103052 84240 net.cpp:155] Setting up inception_5a/pool_proj
I0905 23:47:58.103070 84240 net.cpp:163] Top shape: 50 128 7 7 (313600)
I0905 23:47:58.103083 84240 layer_factory.hpp:76] Creating layer inception_5a/relu_pool_proj
I0905 23:47:58.103093 84240 net.cpp:110] Creating Layer inception_5a/relu_pool_proj
I0905 23:47:58.103101 84240 net.cpp:477] inception_5a/relu_pool_proj <- inception_5a/pool_proj
I0905 23:47:58.103111 84240 net.cpp:419] inception_5a/relu_pool_proj -> inception_5a/pool_proj (in-place)
I0905 23:47:58.103122 84240 net.cpp:155] Setting up inception_5a/relu_pool_proj
I0905 23:47:58.103130 84240 net.cpp:163] Top shape: 50 128 7 7 (313600)
I0905 23:47:58.103137 84240 layer_factory.hpp:76] Creating layer inception_5a/output
I0905 23:47:58.103148 84240 net.cpp:110] Creating Layer inception_5a/output
I0905 23:47:58.103155 84240 net.cpp:477] inception_5a/output <- inception_5a/1x1
I0905 23:47:58.103163 84240 net.cpp:477] inception_5a/output <- inception_5a/3x3
I0905 23:47:58.103173 84240 net.cpp:477] inception_5a/output <- inception_5a/double3x3
I0905 23:47:58.103179 84240 net.cpp:477] inception_5a/output <- inception_5a/pool_proj
I0905 23:47:58.103189 84240 net.cpp:433] inception_5a/output -> inception_5a/output
I0905 23:47:58.103204 84240 net.cpp:155] Setting up inception_5a/output
I0905 23:47:58.103212 84240 net.cpp:163] Top shape: 50 1024 7 7 (2508800)
I0905 23:47:58.103219 84240 layer_factory.hpp:76] Creating layer inception_5a/output_inception_5a/output_0_split
I0905 23:47:58.103234 84240 net.cpp:110] Creating Layer inception_5a/output_inception_5a/output_0_split
I0905 23:47:58.103241 84240 net.cpp:477] inception_5a/output_inception_5a/output_0_split <- inception_5a/output
I0905 23:47:58.103251 84240 net.cpp:433] inception_5a/output_inception_5a/output_0_split -> inception_5a/output_inception_5a/output_0_split_0
I0905 23:47:58.103265 84240 net.cpp:433] inception_5a/output_inception_5a/output_0_split -> inception_5a/output_inception_5a/output_0_split_1
I0905 23:47:58.103277 84240 net.cpp:433] inception_5a/output_inception_5a/output_0_split -> inception_5a/output_inception_5a/output_0_split_2
I0905 23:47:58.103289 84240 net.cpp:433] inception_5a/output_inception_5a/output_0_split -> inception_5a/output_inception_5a/output_0_split_3
I0905 23:47:58.103305 84240 net.cpp:155] Setting up inception_5a/output_inception_5a/output_0_split
I0905 23:47:58.103314 84240 net.cpp:163] Top shape: 50 1024 7 7 (2508800)
I0905 23:47:58.103322 84240 net.cpp:163] Top shape: 50 1024 7 7 (2508800)
I0905 23:47:58.103330 84240 net.cpp:163] Top shape: 50 1024 7 7 (2508800)
I0905 23:47:58.103338 84240 net.cpp:163] Top shape: 50 1024 7 7 (2508800)
I0905 23:47:58.103343 84240 layer_factory.hpp:76] Creating layer inception_5b/1x1
I0905 23:47:58.103355 84240 net.cpp:110] Creating Layer inception_5b/1x1
I0905 23:47:58.103363 84240 net.cpp:477] inception_5b/1x1 <- inception_5a/output_inception_5a/output_0_split_0
I0905 23:47:58.103375 84240 net.cpp:433] inception_5b/1x1 -> inception_5b/1x1
I0905 23:47:58.109784 84240 net.cpp:155] Setting up inception_5b/1x1
I0905 23:47:58.109815 84240 net.cpp:163] Top shape: 50 352 7 7 (862400)
I0905 23:47:58.109829 84240 layer_factory.hpp:76] Creating layer inception_5b/relu_1x1
I0905 23:47:58.109841 84240 net.cpp:110] Creating Layer inception_5b/relu_1x1
I0905 23:47:58.109849 84240 net.cpp:477] inception_5b/relu_1x1 <- inception_5b/1x1
I0905 23:47:58.109863 84240 net.cpp:419] inception_5b/relu_1x1 -> inception_5b/1x1 (in-place)
I0905 23:47:58.109876 84240 net.cpp:155] Setting up inception_5b/relu_1x1
I0905 23:47:58.109905 84240 net.cpp:163] Top shape: 50 352 7 7 (862400)
I0905 23:47:58.109913 84240 layer_factory.hpp:76] Creating layer inception_5b/3x3_reduce
I0905 23:47:58.109926 84240 net.cpp:110] Creating Layer inception_5b/3x3_reduce
I0905 23:47:58.109933 84240 net.cpp:477] inception_5b/3x3_reduce <- inception_5a/output_inception_5a/output_0_split_1
I0905 23:47:58.109946 84240 net.cpp:433] inception_5b/3x3_reduce -> inception_5b/3x3_reduce
I0905 23:47:58.113734 84240 net.cpp:155] Setting up inception_5b/3x3_reduce
I0905 23:47:58.113759 84240 net.cpp:163] Top shape: 50 192 7 7 (470400)
I0905 23:47:58.113773 84240 layer_factory.hpp:76] Creating layer inception_5b/relu_3x3_reduce
I0905 23:47:58.113785 84240 net.cpp:110] Creating Layer inception_5b/relu_3x3_reduce
I0905 23:47:58.113793 84240 net.cpp:477] inception_5b/relu_3x3_reduce <- inception_5b/3x3_reduce
I0905 23:47:58.113803 84240 net.cpp:419] inception_5b/relu_3x3_reduce -> inception_5b/3x3_reduce (in-place)
I0905 23:47:58.113816 84240 net.cpp:155] Setting up inception_5b/relu_3x3_reduce
I0905 23:47:58.113826 84240 net.cpp:163] Top shape: 50 192 7 7 (470400)
I0905 23:47:58.113831 84240 layer_factory.hpp:76] Creating layer inception_5b/3x3
I0905 23:47:58.113843 84240 net.cpp:110] Creating Layer inception_5b/3x3
I0905 23:47:58.113849 84240 net.cpp:477] inception_5b/3x3 <- inception_5b/3x3_reduce
I0905 23:47:58.113863 84240 net.cpp:433] inception_5b/3x3 -> inception_5b/3x3
I0905 23:47:58.123466 84240 net.cpp:155] Setting up inception_5b/3x3
I0905 23:47:58.123493 84240 net.cpp:163] Top shape: 50 320 7 7 (784000)
I0905 23:47:58.123507 84240 layer_factory.hpp:76] Creating layer inception_5b/relu_3x3
I0905 23:47:58.123522 84240 net.cpp:110] Creating Layer inception_5b/relu_3x3
I0905 23:47:58.123530 84240 net.cpp:477] inception_5b/relu_3x3 <- inception_5b/3x3
I0905 23:47:58.123540 84240 net.cpp:419] inception_5b/relu_3x3 -> inception_5b/3x3 (in-place)
I0905 23:47:58.123554 84240 net.cpp:155] Setting up inception_5b/relu_3x3
I0905 23:47:58.123563 84240 net.cpp:163] Top shape: 50 320 7 7 (784000)
I0905 23:47:58.123569 84240 layer_factory.hpp:76] Creating layer inception_5b/double3x3_reduce
I0905 23:47:58.123581 84240 net.cpp:110] Creating Layer inception_5b/double3x3_reduce
I0905 23:47:58.123587 84240 net.cpp:477] inception_5b/double3x3_reduce <- inception_5a/output_inception_5a/output_0_split_2
I0905 23:47:58.123600 84240 net.cpp:433] inception_5b/double3x3_reduce -> inception_5b/double3x3_reduce
I0905 23:47:58.127387 84240 net.cpp:155] Setting up inception_5b/double3x3_reduce
I0905 23:47:58.127411 84240 net.cpp:163] Top shape: 50 192 7 7 (470400)
I0905 23:47:58.127426 84240 layer_factory.hpp:76] Creating layer inception_5b/relu_double3x3_reduce
I0905 23:47:58.127439 84240 net.cpp:110] Creating Layer inception_5b/relu_double3x3_reduce
I0905 23:47:58.127446 84240 net.cpp:477] inception_5b/relu_double3x3_reduce <- inception_5b/double3x3_reduce
I0905 23:47:58.127456 84240 net.cpp:419] inception_5b/relu_double3x3_reduce -> inception_5b/double3x3_reduce (in-place)
I0905 23:47:58.127470 84240 net.cpp:155] Setting up inception_5b/relu_double3x3_reduce
I0905 23:47:58.127478 84240 net.cpp:163] Top shape: 50 192 7 7 (470400)
I0905 23:47:58.127485 84240 layer_factory.hpp:76] Creating layer inception_5b/double3x3_mid
I0905 23:47:58.127503 84240 net.cpp:110] Creating Layer inception_5b/double3x3_mid
I0905 23:47:58.127509 84240 net.cpp:477] inception_5b/double3x3_mid <- inception_5b/double3x3_reduce
I0905 23:47:58.127521 84240 net.cpp:433] inception_5b/double3x3_mid -> inception_5b/double3x3_mid
I0905 23:47:58.134346 84240 net.cpp:155] Setting up inception_5b/double3x3_mid
I0905 23:47:58.134371 84240 net.cpp:163] Top shape: 50 224 7 7 (548800)
I0905 23:47:58.134385 84240 layer_factory.hpp:76] Creating layer inception_5b/relu_double3x3_mid
I0905 23:47:58.134397 84240 net.cpp:110] Creating Layer inception_5b/relu_double3x3_mid
I0905 23:47:58.134405 84240 net.cpp:477] inception_5b/relu_double3x3_mid <- inception_5b/double3x3_mid
I0905 23:47:58.134435 84240 net.cpp:419] inception_5b/relu_double3x3_mid -> inception_5b/double3x3_mid (in-place)
I0905 23:47:58.134450 84240 net.cpp:155] Setting up inception_5b/relu_double3x3_mid
I0905 23:47:58.134459 84240 net.cpp:163] Top shape: 50 224 7 7 (548800)
I0905 23:47:58.134465 84240 layer_factory.hpp:76] Creating layer inception_5b/double3x3
I0905 23:47:58.134477 84240 net.cpp:110] Creating Layer inception_5b/double3x3
I0905 23:47:58.134485 84240 net.cpp:477] inception_5b/double3x3 <- inception_5b/double3x3_mid
I0905 23:47:58.134495 84240 net.cpp:433] inception_5b/double3x3 -> inception_5b/double3x3
I0905 23:47:58.142416 84240 net.cpp:155] Setting up inception_5b/double3x3
I0905 23:47:58.142448 84240 net.cpp:163] Top shape: 50 224 7 7 (548800)
I0905 23:47:58.142462 84240 layer_factory.hpp:76] Creating layer inception_5b/relu_double3x3
I0905 23:47:58.142474 84240 net.cpp:110] Creating Layer inception_5b/relu_double3x3
I0905 23:47:58.142482 84240 net.cpp:477] inception_5b/relu_double3x3 <- inception_5b/double3x3
I0905 23:47:58.142491 84240 net.cpp:419] inception_5b/relu_double3x3 -> inception_5b/double3x3 (in-place)
I0905 23:47:58.142504 84240 net.cpp:155] Setting up inception_5b/relu_double3x3
I0905 23:47:58.142513 84240 net.cpp:163] Top shape: 50 224 7 7 (548800)
I0905 23:47:58.142519 84240 layer_factory.hpp:76] Creating layer inception_5b/pool
I0905 23:47:58.142534 84240 net.cpp:110] Creating Layer inception_5b/pool
I0905 23:47:58.142541 84240 net.cpp:477] inception_5b/pool <- inception_5a/output_inception_5a/output_0_split_3
I0905 23:47:58.142552 84240 net.cpp:433] inception_5b/pool -> inception_5b/pool
I0905 23:47:58.142570 84240 net.cpp:155] Setting up inception_5b/pool
I0905 23:47:58.142581 84240 net.cpp:163] Top shape: 50 1024 7 7 (2508800)
I0905 23:47:58.142587 84240 layer_factory.hpp:76] Creating layer inception_5b/pool_proj
I0905 23:47:58.142599 84240 net.cpp:110] Creating Layer inception_5b/pool_proj
I0905 23:47:58.142606 84240 net.cpp:477] inception_5b/pool_proj <- inception_5b/pool
I0905 23:47:58.142621 84240 net.cpp:433] inception_5b/pool_proj -> inception_5b/pool_proj
I0905 23:47:58.145457 84240 net.cpp:155] Setting up inception_5b/pool_proj
I0905 23:47:58.145488 84240 net.cpp:163] Top shape: 50 128 7 7 (313600)
I0905 23:47:58.145503 84240 layer_factory.hpp:76] Creating layer inception_5b/relu_pool_proj
I0905 23:47:58.145514 84240 net.cpp:110] Creating Layer inception_5b/relu_pool_proj
I0905 23:47:58.145522 84240 net.cpp:477] inception_5b/relu_pool_proj <- inception_5b/pool_proj
I0905 23:47:58.145532 84240 net.cpp:419] inception_5b/relu_pool_proj -> inception_5b/pool_proj (in-place)
I0905 23:47:58.145545 84240 net.cpp:155] Setting up inception_5b/relu_pool_proj
I0905 23:47:58.145553 84240 net.cpp:163] Top shape: 50 128 7 7 (313600)
I0905 23:47:58.145560 84240 layer_factory.hpp:76] Creating layer inception_5b/output
I0905 23:47:58.145577 84240 net.cpp:110] Creating Layer inception_5b/output
I0905 23:47:58.145584 84240 net.cpp:477] inception_5b/output <- inception_5b/1x1
I0905 23:47:58.145593 84240 net.cpp:477] inception_5b/output <- inception_5b/3x3
I0905 23:47:58.145602 84240 net.cpp:477] inception_5b/output <- inception_5b/double3x3
I0905 23:47:58.145609 84240 net.cpp:477] inception_5b/output <- inception_5b/pool_proj
I0905 23:47:58.145619 84240 net.cpp:433] inception_5b/output -> inception_5b/output
I0905 23:47:58.145633 84240 net.cpp:155] Setting up inception_5b/output
I0905 23:47:58.145642 84240 net.cpp:163] Top shape: 50 1024 7 7 (2508800)
I0905 23:47:58.145649 84240 layer_factory.hpp:76] Creating layer pool5/7x7_s1
I0905 23:47:58.145660 84240 net.cpp:110] Creating Layer pool5/7x7_s1
I0905 23:47:58.145668 84240 net.cpp:477] pool5/7x7_s1 <- inception_5b/output
I0905 23:47:58.145678 84240 net.cpp:433] pool5/7x7_s1 -> pool5/7x7_s1
I0905 23:47:58.145691 84240 net.cpp:155] Setting up pool5/7x7_s1
I0905 23:47:58.145700 84240 net.cpp:163] Top shape: 50 1024 1 1 (51200)
I0905 23:47:58.145707 84240 layer_factory.hpp:76] Creating layer pool5/drop_7x7_s1
I0905 23:47:58.145717 84240 net.cpp:110] Creating Layer pool5/drop_7x7_s1
I0905 23:47:58.145763 84240 net.cpp:477] pool5/drop_7x7_s1 <- pool5/7x7_s1
I0905 23:47:58.145777 84240 net.cpp:419] pool5/drop_7x7_s1 -> pool5/7x7_s1 (in-place)
I0905 23:47:58.145792 84240 net.cpp:155] Setting up pool5/drop_7x7_s1
I0905 23:47:58.145802 84240 net.cpp:163] Top shape: 50 1024 1 1 (51200)
I0905 23:47:58.145807 84240 layer_factory.hpp:76] Creating layer loss3/classifier
I0905 23:47:58.145822 84240 net.cpp:110] Creating Layer loss3/classifier
I0905 23:47:58.145828 84240 net.cpp:477] loss3/classifier <- pool5/7x7_s1
I0905 23:47:58.145839 84240 net.cpp:433] loss3/classifier -> loss3/classifier
I0905 23:47:58.163516 84240 net.cpp:155] Setting up loss3/classifier
I0905 23:47:58.163549 84240 net.cpp:163] Top shape: 50 1000 (50000)
I0905 23:47:58.163564 84240 layer_factory.hpp:76] Creating layer loss3/classifier_loss3/classifier_0_split
I0905 23:47:58.163578 84240 net.cpp:110] Creating Layer loss3/classifier_loss3/classifier_0_split
I0905 23:47:58.163586 84240 net.cpp:477] loss3/classifier_loss3/classifier_0_split <- loss3/classifier
I0905 23:47:58.163597 84240 net.cpp:433] loss3/classifier_loss3/classifier_0_split -> loss3/classifier_loss3/classifier_0_split_0
I0905 23:47:58.163612 84240 net.cpp:433] loss3/classifier_loss3/classifier_0_split -> loss3/classifier_loss3/classifier_0_split_1
I0905 23:47:58.163625 84240 net.cpp:433] loss3/classifier_loss3/classifier_0_split -> loss3/classifier_loss3/classifier_0_split_2
I0905 23:47:58.163640 84240 net.cpp:155] Setting up loss3/classifier_loss3/classifier_0_split
I0905 23:47:58.163648 84240 net.cpp:163] Top shape: 50 1000 (50000)
I0905 23:47:58.163655 84240 net.cpp:163] Top shape: 50 1000 (50000)
I0905 23:47:58.163662 84240 net.cpp:163] Top shape: 50 1000 (50000)
I0905 23:47:58.163676 84240 layer_factory.hpp:76] Creating layer loss3/loss3
I0905 23:47:58.163691 84240 net.cpp:110] Creating Layer loss3/loss3
I0905 23:47:58.163697 84240 net.cpp:477] loss3/loss3 <- loss3/classifier_loss3/classifier_0_split_0
I0905 23:47:58.163707 84240 net.cpp:477] loss3/loss3 <- label_data_1_split_6
I0905 23:47:58.163717 84240 net.cpp:433] loss3/loss3 -> loss3/loss3
…
