…
I0906 15:28:32.692770 89648 net.cpp:339] The NetState phase (0) differed from the phase (1) specified by a rule in layer loss3/top-5
I0906 15:28:32.695550 89648 net.cpp:50] Initializing net from parameters: 
name: "Inception_6_bn"
state {
  phase: TRAIN
}
layer {
  name: "data"
  type: "Data"
  top: "data"
  top: "label"
  include {
    phase: TRAIN
  }
  transform_param {
    mirror: true
    crop_size: 224
    mean_value: 104
    mean_value: 117
    mean_value: 123
  }
  data_param {
    source: "/ssd/ilsvrc2012/ilsvrc12_train_lmdb"
    batch_size: 32
    backend: LMDB
  }
}
layer {
  name: "conv1/7x7_s2"
  type: "Convolution"
  bottom: "data"
  top: "conv1/7x7_s2"
  param {
    lr_mult: 1
    decay_mult: 1
  }
  param {
    lr_mult: 2
    decay_mult: 0
  }
  convolution_param {
    num_output: 64
    pad: 3
    kernel_size: 7
    stride: 2
    weight_filler {
      type: "xavier"
    }
    bias_filler {
      type: "constant"
      value: 0.2
    }
  }
}
layer {
  name: "BN_00000001"
  type: "BN"
  bottom: "conv1/7x7_s2"
  top: "conv1/7x7_s2/bn"
}
layer {
  name: "conv1/relu_7x7"
  type: "ReLU"
  bottom: "conv1/7x7_s2/bn"
  top: "conv1/7x7_s2/bn"
}
layer {
  name: "pool1/3x3_s2"
  type: "Pooling"
  bottom: "conv1/7x7_s2/bn"
  top: "pool1/3x3_s2"
  pooling_param {
    pool: MAX
    kernel_size: 3
    stride: 2
  }
}
layer {
  name: "pool1/norm1"
  type: "LRN"
  bottom: "pool1/3x3_s2"
  top: "pool1/norm1"
  lrn_param {
    local_size: 5
    alpha: 0.0001
    beta: 0.75
  }
}
layer {
  name: "conv2/3x3_reduce"
  type: "Convolution"
  bottom: "pool1/norm1"
  top: "conv2/3x3_reduce"
  param {
    lr_mult: 1
    decay_mult: 1
  }
  param {
    lr_mult: 2
    decay_mult: 0
  }
  convolution_param {
    num_output: 64
    kernel_size: 1
    weight_filler {
      type: "xavier"
    }
    bias_filler {
      type: "constant"
      value: 0.2
    }
  }
}
layer {
  name: "BN_00000002"
  type: "BN"
  bottom: "conv2/3x3_reduce"
  top: "conv2/3x3_reduce/bn"
}
layer {
  name: "conv2/relu_3x3_reduce"
  type: "ReLU"
  bottom: "conv2/3x3_reduce/bn"
  top: "conv2/3x3_reduce/bn"
}
layer {
  name: "conv2/3x3"
  type: "Convolution"
  bottom: "conv2/3x3_reduce/bn"
  top: "conv2/3x3"
  param {
    lr_mult: 1
    decay_mult: 1
  }
  param {
    lr_mult: 2
    decay_mult: 0
  }
  convolution_param {
    num_output: 192
    pad: 1
    kernel_size: 3
    weight_filler {
      type: "xavier"
    }
    bias_filler {
      type: "constant"
      value: 0.2
    }
  }
}
layer {
  name: "BN_00000003"
  type: "BN"
  bottom: "conv2/3x3"
  top: "conv2/3x3/bn"
}
layer {
  name: "conv2/relu_3x3"
  type: "ReLU"
  bottom: "conv2/3x3/bn"
  top: "conv2/3x3/bn"
}
layer {
  name: "conv2/norm2"
  type: "LRN"
  bottom: "conv2/3x3/bn"
  top: "conv2/norm2"
  lrn_param {
    local_size: 5
    alpha: 0.0001
    beta: 0.75
  }
}
layer {
  name: "pool2/3x3_s2"
  type: "Pooling"
  bottom: "conv2/norm2"
  top: "pool2/3x3_s2"
  pooling_param {
    pool: MAX
    kernel_size: 3
    stride: 2
  }
}
layer {
  name: "inception_3a/1x1"
  type: "Convolution"
  bottom: "pool2/3x3_s2"
  top: "inception_3a/1x1"
  param {
    lr_mult: 1
    decay_mult: 1
  }
  param {
    lr_mult: 2
    decay_mult: 0
  }
  convolution_param {
    num_output: 64
    kernel_size: 1
    weight_filler {
      type: "xavier"
    }
    bias_filler {
      type: "constant"
      value: 0.2
    }
  }
}
layer {
  name: "BN_00000004"
  type: "BN"
  bottom: "inception_3a/1x1"
  top: "inception_3a/1x1/bn"
}
layer {
  name: "inception_3a/relu_1x1"
  type: "ReLU"
  bottom: "inception_3a/1x1/bn"
  top: "inception_3a/1x1/bn"
}
layer {
  name: "inception_3a/3x3_reduce"
  type: "Convolution"
  bottom: "pool2/3x3_s2"
  top: "inception_3a/3x3_reduce"
  param {
    lr_mult: 1
    decay_mult: 1
  }
  param {
    lr_mult: 2
    decay_mult: 0
  }
  convolution_param {
    num_output: 64
    kernel_size: 1
    weight_filler {
      type: "xavier"
    }
    bias_filler {
      type: "constant"
      value: 0.2
    }
  }
}
layer {
  name: "BN_00000005"
  type: "BN"
  bottom: "inception_3a/3x3_reduce"
  top: "inception_3a/3x3_reduce/bn"
}
layer {
  name: "inception_3a/relu_3x3_reduce"
  type: "ReLU"
  bottom: "inception_3a/3x3_reduce/bn"
  top: "inception_3a/3x3_reduce/bn"
}
layer {
  name: "inception_3a/3x3"
  type: "Convolution"
  bottom: "inception_3a/3x3_reduce/bn"
  top: "inception_3a/3x3"
  param {
    lr_mult: 1
    decay_mult: 1
  }
  param {
    lr_mult: 2
    decay_mult: 0
  }
  convolution_param {
    num_output: 64
    pad: 1
    kernel_size: 3
    weight_filler {
      type: "xavier"
    }
    bias_filler {
      type: "constant"
      value: 0.2
    }
  }
}
layer {
  name: "BN_00000006"
  type: "BN"
  bottom: "inception_3a/3x3"
  top: "inception_3a/3x3/bn"
}
layer {
  name: "inception_3a/relu_3x3"
  type: "ReLU"
  bottom: "inception_3a/3x3/bn"
  top: "inception_3a/3x3/bn"
}
layer {
  name: "inception_3a/double3x3_reduce"
  type: "Convolution"
  bottom: "pool2/3x3_s2"
  top: "inception_3a/double3x3_reduce"
  param {
    lr_mult: 1
    decay_mult: 1
  }
  param {
    lr_mult: 2
    decay_mult: 0
  }
  convolution_param {
    num_output: 64
    kernel_size: 1
    weight_filler {
      type: "xavier"
    }
    bias_filler {
      type: "constant"
      value: 0.2
    }
  }
}
layer {
  name: "BN_00000007"
  type: "BN"
  bottom: "inception_3a/double3x3_reduce"
  top: "inception_3a/double3x3_reduce/bn"
}
layer {
  name: "inception_3a/relu_double3x3_reduce"
  type: "ReLU"
  bottom: "inception_3a/double3x3_reduce/bn"
  top: "inception_3a/double3x3_reduce/bn"
}
layer {
  name: "inception_3a/double3x3_mid"
  type: "Convolution"
  bottom: "inception_3a/double3x3_reduce/bn"
  top: "inception_3a/double3x3_mid"
  param {
    lr_mult: 1
    decay_mult: 1
  }
  param {
    lr_mult: 2
    decay_mult: 0
  }
  convolution_param {
    num_output: 96
    pad: 1
    kernel_size: 3
    weight_filler {
      type: "xavier"
    }
    bias_filler {
      type: "constant"
      value: 0.2
    }
  }
}
layer {
  name: "BN_00000008"
  type: "BN"
  bottom: "inception_3a/double3x3_mid"
  top: "inception_3a/double3x3_mid/bn"
}
layer {
  name: "inception_3a/relu_double3x3_mid"
  type: "ReLU"
  bottom: "inception_3a/double3x3_mid/bn"
  top: "inception_3a/double3x3_mid/bn"
}
layer {
  name: "inception_3a/double3x3"
  type: "Convolution"
  bottom: "inception_3a/double3x3_mid/bn"
  top: "inception_3a/double3x3"
  param {
    lr_mult: 1
    decay_mult: 1
  }
  param {
    lr_mult: 2
    decay_mult: 0
  }
  convolution_param {
    num_output: 96
    pad: 1
    kernel_size: 3
    weight_filler {
      type: "xavier"
    }
    bias_filler {
      type: "constant"
      value: 0.2
    }
  }
}
layer {
  name: "BN_00000009"
  type: "BN"
  bottom: "inception_3a/double3x3"
  top: "inception_3a/double3x3/bn"
}
layer {
  name: "inception_3a/relu_double3x3"
  type: "ReLU"
  bottom: "inception_3a/double3x3/bn"
  top: "inception_3a/double3x3/bn"
}
layer {
  name: "inception_3a/pool"
  type: "Pooling"
  bottom: "pool2/3x3_s2"
  top: "inception_3a/pool"
  pooling_param {
    pool: AVE
    kernel_size: 3
    stride: 1
    pad: 1
  }
}
layer {
  name: "inception_3a/pool_proj"
  type: "Convolution"
  bottom: "inception_3a/pool"
  top: "inception_3a/pool_proj"
  param {
    lr_mult: 1
    decay_mult: 1
  }
  param {
    lr_mult: 2
    decay_mult: 0
  }
  convolution_param {
    num_output: 32
    kernel_size: 1
    weight_filler {
      type: "xavier"
    }
    bias_filler {
      type: "constant"
      value: 0.2
    }
  }
}
layer {
  name: "BN_00000010"
  type: "BN"
  bottom: "inception_3a/pool_proj"
  top: "inception_3a/pool_proj/bn"
}
layer {
  name: "inception_3a/relu_pool_proj"
  type: "ReLU"
  bottom: "inception_3a/pool_proj/bn"
  top: "inception_3a/pool_proj/bn"
}
layer {
  name: "inception_3a/output"
  type: "Concat"
  bottom: "inception_3a/1x1/bn"
  bottom: "inception_3a/3x3/bn"
  bottom: "inception_3a/double3x3/bn"
  bottom: "inception_3a/pool_proj/bn"
  top: "inception_3a/output"
}
layer {
  name: "inception_3b/1x1"
  type: "Convolution"
  bottom: "inception_3a/output"
  top: "inception_3b/1x1"
  param {
    lr_mult: 1
    decay_mult: 1
  }
  param {
    lr_mult: 2
    decay_mult: 0
  }
  convolution_param {
    num_output: 64
    kernel_size: 1
    weight_filler {
      type: "xavier"
    }
    bias_filler {
      type: "constant"
      value: 0.2
    }
  }
}
layer {
  name: "BN_00000011"
  type: "BN"
  bottom: "inception_3b/1x1"
  top: "inception_3b/1x1/bn"
}
layer {
  name: "inception_3b/relu_1x1"
  type: "ReLU"
  bottom: "inception_3b/1x1/bn"
  top: "inception_3b/1x1/bn"
}
layer {
  name: "inception_3b/3x3_reduce"
  type: "Convolution"
  bottom: "inception_3a/output"
  top: "inception_3b/3x3_reduce"
  param {
    lr_mult: 1
    decay_mult: 1
  }
  param {
    lr_mult: 2
    decay_mult: 0
  }
  convolution_param {
    num_output: 64
    kernel_size: 1
    weight_filler {
      type: "xavier"
    }
    bias_filler {
      type: "constant"
      value: 0.2
    }
  }
}
layer {
  name: "BN_00000012"
  type: "BN"
  bottom: "inception_3b/3x3_reduce"
  top: "inception_3b/3x3_reduce/bn"
}
layer {
  name: "inception_3b/relu_3x3_reduce"
  type: "ReLU"
  bottom: "inception_3b/3x3_reduce/bn"
  top: "inception_3b/3x3_reduce/bn"
}
layer {
  name: "inception_3b/3x3"
  type: "Convolution"
  bottom: "inception_3b/3x3_reduce/bn"
  top: "inception_3b/3x3"
  param {
    lr_mult: 1
    decay_mult: 1
  }
  param {
    lr_mult: 2
    decay_mult: 0
  }
  convolution_param {
    num_output: 96
    pad: 1
    kernel_size: 3
    weight_filler {
      type: "xavier"
    }
    bias_filler {
      type: "constant"
      value: 0.2
    }
  }
}
layer {
  name: "BN_00000013"
  type: "BN"
  bottom: "inception_3b/3x3"
  top: "inception_3b/3x3/bn"
}
layer {
  name: "inception_3b/relu_3x3"
  type: "ReLU"
  bottom: "inception_3b/3x3/bn"
  top: "inception_3b/3x3/bn"
}
layer {
  name: "inception_3b/double3x3_reduce"
  type: "Convolution"
  bottom: "inception_3a/output"
  top: "inception_3b/double3x3_reduce"
  param {
    lr_mult: 1
    decay_mult: 1
  }
  param {
    lr_mult: 2
    decay_mult: 0
  }
  convolution_param {
    num_output: 64
    kernel_size: 1
    weight_filler {
      type: "xavier"
    }
    bias_filler {
      type: "constant"
      value: 0.2
    }
  }
}
layer {
  name: "BN_00000014"
  type: "BN"
  bottom: "inception_3b/double3x3_reduce"
  top: "inception_3b/double3x3_reduce/bn"
}
layer {
  name: "inception_3b/relu_double3x3_reduce"
  type: "ReLU"
  bottom: "inception_3b/double3x3_reduce/bn"
  top: "inception_3b/double3x3_reduce/bn"
}
layer {
  name: "inception_3b/double3x3_mid"
  type: "Convolution"
  bottom: "inception_3b/double3x3_reduce/bn"
  top: "inception_3b/double3x3_mid"
  param {
    lr_mult: 1
    decay_mult: 1
  }
  param {
    lr_mult: 2
    decay_mult: 0
  }
  convolution_param {
    num_output: 96
    pad: 1
    kernel_size: 3
    weight_filler {
      type: "xavier"
    }
    bias_filler {
      type: "constant"
      value: 0.2
    }
  }
}
layer {
  name: "BN_00000015"
  type: "BN"
  bottom: "inception_3b/double3x3_mid"
  top: "inception_3b/double3x3_mid/bn"
}
layer {
  name: "inception_3b/relu_double3x3_mid"
  type: "ReLU"
  bottom: "inception_3b/double3x3_mid/bn"
  top: "inception_3b/double3x3_mid/bn"
}
layer {
  name: "inception_3b/double3x3"
  type: "Convolution"
  bottom: "inception_3b/double3x3_mid/bn"
  top: "inception_3b/double3x3"
  param {
    lr_mult: 1
    decay_mult: 1
  }
  param {
    lr_mult: 2
    decay_mult: 0
  }
  convolution_param {
    num_output: 96
    pad: 1
    kernel_size: 3
    weight_filler {
      type: "xavier"
    }
    bias_filler {
      type: "constant"
      value: 0.2
    }
  }
}
layer {
  name: "BN_00000016"
  type: "BN"
  bottom: "inception_3b/double3x3"
  top: "inception_3b/double3x3/bn"
}
layer {
  name: "inception_3b/relu_double3x3"
  type: "ReLU"
  bottom: "inception_3b/double3x3/bn"
  top: "inception_3b/double3x3/bn"
}
layer {
  name: "inception_3b/pool"
  type: "Pooling"
  bottom: "inception_3a/output"
  top: "inception_3b/pool"
  pooling_param {
    pool: AVE
    kernel_size: 3
    stride: 1
    pad: 1
  }
}
layer {
  name: "inception_3b/pool_proj"
  type: "Convolution"
  bottom: "inception_3b/pool"
  top: "inception_3b/pool_proj"
  param {
    lr_mult: 1
    decay_mult: 1
  }
  param {
    lr_mult: 2
    decay_mult: 0
  }
  convolution_param {
    num_output: 64
    kernel_size: 1
    weight_filler {
      type: "xavier"
    }
    bias_filler {
      type: "constant"
      value: 0.2
    }
  }
}
layer {
  name: "BN_00000017"
  type: "BN"
  bottom: "inception_3b/pool_proj"
  top: "inception_3b/pool_proj/bn"
}
layer {
  name: "inception_3b/relu_pool_proj"
  type: "ReLU"
  bottom: "inception_3b/pool_proj/bn"
  top: "inception_3b/pool_proj/bn"
}
layer {
  name: "inception_3b/output"
  type: "Concat"
  bottom: "inception_3b/1x1/bn"
  bottom: "inception_3b/3x3/bn"
  bottom: "inception_3b/double3x3/bn"
  bottom: "inception_3b/pool_proj/bn"
  top: "inception_3b/output"
}
layer {
  name: "inception_3c/3x3_reduce"
  type: "Convolution"
  bottom: "inception_3b/output"
  top: "inception_3c/3x3_reduce"
  param {
    lr_mult: 1
    decay_mult: 1
  }
  param {
    lr_mult: 2
    decay_mult: 0
  }
  convolution_param {
    num_output: 128
    kernel_size: 1
    weight_filler {
      type: "xavier"
    }
    bias_filler {
      type: "constant"
      value: 0.2
    }
  }
}
layer {
  name: "BN_00000018"
  type: "BN"
  bottom: "inception_3c/3x3_reduce"
  top: "inception_3c/3x3_reduce/bn"
}
layer {
  name: "inception_3c/relu_3x3_reduce"
  type: "ReLU"
  bottom: "inception_3c/3x3_reduce/bn"
  top: "inception_3c/3x3_reduce/bn"
}
layer {
  name: "inception_3c/3x3_s2"
  type: "Convolution"
  bottom: "inception_3c/3x3_reduce/bn"
  top: "inception_3c/3x3_s2"
  param {
    lr_mult: 1
    decay_mult: 1
  }
  param {
    lr_mult: 2
    decay_mult: 0
  }
  convolution_param {
    num_output: 160
    pad: 1
    kernel_size: 3
    stride: 2
    weight_filler {
      type: "xavier"
    }
    bias_filler {
      type: "constant"
      value: 0.2
    }
  }
}
layer {
  name: "BN_00000019"
  type: "BN"
  bottom: "inception_3c/3x3_s2"
  top: "inception_3c/3x3_s2/bn"
}
layer {
  name: "inception_3c/relu_3x3"
  type: "ReLU"
  bottom: "inception_3c/3x3_s2/bn"
  top: "inception_3c/3x3_s2/bn"
}
layer {
  name: "inception_3c/double3x3_reduce"
  type: "Convolution"
  bottom: "inception_3b/output"
  top: "inception_3c/double3x3_reduce"
  param {
    lr_mult: 1
    decay_mult: 1
  }
  param {
    lr_mult: 2
    decay_mult: 0
  }
  convolution_param {
    num_output: 64
    kernel_size: 1
    weight_filler {
      type: "xavier"
    }
    bias_filler {
      type: "constant"
      value: 0.2
    }
  }
}
layer {
  name: "BN_00000020"
  type: "BN"
  bottom: "inception_3c/double3x3_reduce"
  top: "inception_3c/double3x3_reduce/bn"
}
layer {
  name: "inception_3c/relu_double3x3_reduce"
  type: "ReLU"
  bottom: "inception_3c/double3x3_reduce/bn"
  top: "inception_3c/double3x3_reduce/bn"
}
layer {
  name: "inception_3c/double3x3_mid"
  type: "Convolution"
  bottom: "inception_3c/double3x3_reduce/bn"
  top: "inception_3c/double3x3_mid"
  param {
    lr_mult: 1
    decay_mult: 1
  }
  param {
    lr_mult: 2
    decay_mult: 0
  }
  convolution_param {
    num_output: 96
    pad: 1
    kernel_size: 3
    weight_filler {
      type: "xavier"
    }
    bias_filler {
      type: "constant"
      value: 0.2
    }
  }
}
layer {
  name: "BN_00000021"
  type: "BN"
  bottom: "inception_3c/double3x3_mid"
  top: "inception_3c/double3x3_mid/bn"
}
layer {
  name: "inception_3c/relu_double3x3_mid"
  type: "ReLU"
  bottom: "inception_3c/double3x3_mid/bn"
  top: "inception_3c/double3x3_mid/bn"
}
layer {
  name: "inception_3c/double3x3"
  type: "Convolution"
  bottom: "inception_3c/double3x3_mid/bn"
  top: "inception_3c/double3x3_s2"
  param {
    lr_mult: 1
    decay_mult: 1
  }
  param {
    lr_mult: 2
    decay_mult: 0
  }
  convolution_param {
    num_output: 96
    pad: 1
    kernel_size: 3
    stride: 2
    weight_filler {
      type: "xavier"
    }
    bias_filler {
      type: "constant"
      value: 0.2
    }
  }
}
layer {
  name: "BN_00000022"
  type: "BN"
  bottom: "inception_3c/double3x3_s2"
  top: "inception_3c/double3x3_s2/bn"
}
layer {
  name: "inception_3c/relu_double3x3"
  type: "ReLU"
  bottom: "inception_3c/double3x3_s2/bn"
  top: "inception_3c/double3x3_s2/bn"
}
layer {
  name: "inception_3c/pool"
  type: "Pooling"
  bottom: "inception_3b/output"
  top: "inception_3c/pool"
  pooling_param {
    pool: MAX
    kernel_size: 3
    stride: 2
  }
}
layer {
  name: "BN_00000023"
  type: "BN"
  bottom: "inception_3c/pool"
  top: "inception_3c/pool/bn"
}
layer {
  name: "inception_3c/relu_pool"
  type: "ReLU"
  bottom: "inception_3c/pool/bn"
  top: "inception_3c/pool/bn"
}
layer {
  name: "inception_3c/output"
  type: "Concat"
  bottom: "inception_3c/3x3_s2/bn"
  bottom: "inception_3c/double3x3_s2/bn"
  bottom: "inception_3c/pool/bn"
  top: "inception_3c/output"
}
layer {
  name: "inception_4a/1x1"
  type: "Convolution"
  bottom: "inception_3c/output"
  top: "inception_4a/1x1"
  param {
    lr_mult: 1
    decay_mult: 1
  }
  param {
    lr_mult: 2
    decay_mult: 0
  }
  convolution_param {
    num_output: 224
    kernel_size: 1
    weight_filler {
      type: "xavier"
    }
    bias_filler {
      type: "constant"
      value: 0.2
    }
  }
}
layer {
  name: "BN_00000024"
  type: "BN"
  bottom: "inception_4a/1x1"
  top: "inception_4a/1x1/bn"
}
layer {
  name: "inception_4a/relu_1x1"
  type: "ReLU"
  bottom: "inception_4a/1x1/bn"
  top: "inception_4a/1x1/bn"
}
layer {
  name: "inception_4a/3x3_reduce"
  type: "Convolution"
  bottom: "inception_3c/output"
  top: "inception_4a/3x3_reduce"
  param {
    lr_mult: 1
    decay_mult: 1
  }
  param {
    lr_mult: 2
    decay_mult: 0
  }
  convolution_param {
    num_output: 64
    kernel_size: 1
    weight_filler {
      type: "xavier"
    }
    bias_filler {
      type: "constant"
      value: 0.2
    }
  }
}
layer {
  name: "BN_00000025"
  type: "BN"
  bottom: "inception_4a/3x3_reduce"
  top: "inception_4a/3x3_reduce/bn"
}
layer {
  name: "inception_4a/relu_3x3_reduce"
  type: "ReLU"
  bottom: "inception_4a/3x3_reduce/bn"
  top: "inception_4a/3x3_reduce/bn"
}
layer {
  name: "inception_4a/3x3"
  type: "Convolution"
  bottom: "inception_4a/3x3_reduce/bn"
  top: "inception_4a/3x3"
  param {
    lr_mult: 1
    decay_mult: 1
  }
  param {
    lr_mult: 2
    decay_mult: 0
  }
  convolution_param {
    num_output: 96
    pad: 1
    kernel_size: 3
    weight_filler {
      type: "xavier"
    }
    bias_filler {
      type: "constant"
      value: 0.2
    }
  }
}
layer {
  name: "BN_00000026"
  type: "BN"
  bottom: "inception_4a/3x3"
  top: "inception_4a/3x3/bn"
}
layer {
  name: "inception_4a/relu_3x3"
  type: "ReLU"
  bottom: "inception_4a/3x3/bn"
  top: "inception_4a/3x3/bn"
}
layer {
  name: "inception_4a/double3x3_reduce"
  type: "Convolution"
  bottom: "inception_3c/output"
  top: "inception_4a/double3x3_reduce"
  param {
    lr_mult: 1
    decay_mult: 1
  }
  param {
    lr_mult: 2
    decay_mult: 0
  }
  convolution_param {
    num_output: 96
    kernel_size: 1
    weight_filler {
      type: "xavier"
    }
    bias_filler {
      type: "constant"
      value: 0.2
    }
  }
}
layer {
  name: "BN_00000027"
  type: "BN"
  bottom: "inception_4a/double3x3_reduce"
  top: "inception_4a/double3x3_reduce/bn"
}
layer {
  name: "inception_4a/relu_double3x3_reduce"
  type: "ReLU"
  bottom: "inception_4a/double3x3_reduce/bn"
  top: "inception_4a/double3x3_reduce/bn"
}
layer {
  name: "inception_4a/double3x3_mid"
  type: "Convolution"
  bottom: "inception_4a/double3x3_reduce/bn"
  top: "inception_4a/double3x3_mid"
  param {
    lr_mult: 1
    decay_mult: 1
  }
  param {
    lr_mult: 2
    decay_mult: 0
  }
  convolution_param {
    num_output: 128
    pad: 1
    kernel_size: 3
    weight_filler {
      type: "xavier"
    }
    bias_filler {
      type: "constant"
      value: 0.2
    }
  }
}
layer {
  name: "BN_00000028"
  type: "BN"
  bottom: "inception_4a/double3x3_mid"
  top: "inception_4a/double3x3_mid/bn"
}
layer {
  name: "inception_4a/relu_double3x3_mid"
  type: "ReLU"
  bottom: "inception_4a/double3x3_mid/bn"
  top: "inception_4a/double3x3_mid/bn"
}
layer {
  name: "inception_4a/double3x3"
  type: "Convolution"
  bottom: "inception_4a/double3x3_mid/bn"
  top: "inception_4a/double3x3"
  param {
    lr_mult: 1
    decay_mult: 1
  }
  param {
    lr_mult: 2
    decay_mult: 0
  }
  convolution_param {
    num_output: 128
    pad: 1
    kernel_size: 3
    weight_filler {
      type: "xavier"
    }
    bias_filler {
      type: "constant"
      value: 0.2
    }
  }
}
layer {
  name: "BN_00000029"
  type: "BN"
  bottom: "inception_4a/double3x3"
  top: "inception_4a/double3x3/bn"
}
layer {
  name: "inception_4a/relu_double3x3"
  type: "ReLU"
  bottom: "inception_4a/double3x3/bn"
  top: "inception_4a/double3x3/bn"
}
layer {
  name: "inception_4a/pool"
  type: "Pooling"
  bottom: "inception_3c/output"
  top: "inception_4a/pool"
  pooling_param {
    pool: AVE
    kernel_size: 3
    stride: 1
    pad: 1
  }
}
layer {
  name: "inception_4a/pool_proj"
  type: "Convolution"
  bottom: "inception_4a/pool"
  top: "inception_4a/pool_proj"
  param {
    lr_mult: 1
    decay_mult: 1
  }
  param {
    lr_mult: 2
    decay_mult: 0
  }
  convolution_param {
    num_output: 128
    kernel_size: 1
    weight_filler {
      type: "xavier"
    }
    bias_filler {
      type: "constant"
      value: 0.2
    }
  }
}
layer {
  name: "BN_00000030"
  type: "BN"
  bottom: "inception_4a/pool_proj"
  top: "inception_4a/pool_proj/bn"
}
layer {
  name: "inception_4a/relu_pool_proj"
  type: "ReLU"
  bottom: "inception_4a/pool_proj/bn"
  top: "inception_4a/pool_proj/bn"
}
layer {
  name: "inception_4a/output"
  type: "Concat"
  bottom: "inception_4a/1x1/bn"
  bottom: "inception_4a/3x3/bn"
  bottom: "inception_4a/double3x3/bn"
  bottom: "inception_4a/pool_proj/bn"
  top: "inception_4a/output"
}
layer {
  name: "loss1/ave_pool"
  type: "Pooling"
  bottom: "inception_4a/output"
  top: "loss1/ave_pool"
  pooling_param {
    pool: AVE
    kernel_size: 5
    stride: 3
  }
}
layer {
  name: "loss1/conv"
  type: "Convolution"
  bottom: "loss1/ave_pool"
  top: "loss1/conv"
  param {
    lr_mult: 1
    decay_mult: 1
  }
  param {
    lr_mult: 2
    decay_mult: 0
  }
  convolution_param {
    num_output: 128
    kernel_size: 1
    weight_filler {
      type: "xavier"
    }
    bias_filler {
      type: "constant"
      value: 0.2
    }
  }
}
layer {
  name: "BN_00000031"
  type: "BN"
  bottom: "loss1/conv"
  top: "loss1/conv/bn"
}
layer {
  name: "loss1/relu_conv"
  type: "ReLU"
  bottom: "loss1/conv/bn"
  top: "loss1/conv/bn"
}
layer {
  name: "loss1/fc"
  type: "InnerProduct"
  bottom: "loss1/conv/bn"
  top: "loss1/fc"
  param {
    lr_mult: 1
    decay_mult: 1
  }
  param {
    lr_mult: 2
    decay_mult: 0
  }
  inner_product_param {
    num_output: 1024
    weight_filler {
      type: "xavier"
    }
    bias_filler {
      type: "constant"
      value: 0.2
    }
  }
}
layer {
  name: "BN_00000032"
  type: "BN"
  bottom: "loss1/fc"
  top: "loss1/fc/bn"
}
layer {
  name: "loss1/relu_fc"
  type: "ReLU"
  bottom: "loss1/fc/bn"
  top: "loss1/fc/bn"
}
layer {
  name: "loss1/drop_fc"
  type: "Dropout"
  bottom: "loss1/fc/bn"
  top: "loss1/fc/bn"
  dropout_param {
    dropout_ratio: 0.7
  }
}
layer {
  name: "loss1/classifier"
  type: "InnerProduct"
  bottom: "loss1/fc/bn"
  top: "loss1/classifier"
  param {
    lr_mult: 1
    decay_mult: 1
  }
  param {
    lr_mult: 2
    decay_mult: 0
  }
  inner_product_param {
    num_output: 1000
    weight_filler {
      type: "xavier"
    }
    bias_filler {
      type: "constant"
      value: 0
    }
  }
}
layer {
  name: "loss1/loss"
  type: "SoftmaxWithLoss"
  bottom: "loss1/classifier"
  bottom: "label"
  top: "loss1/loss1"
  loss_weight: 0.3
}
layer {
  name: "inception_4b/1x1"
  type: "Convolution"
  bottom: "inception_4a/output"
  top: "inception_4b/1x1"
  param {
    lr_mult: 1
    decay_mult: 1
  }
  param {
    lr_mult: 2
    decay_mult: 0
  }
  convolution_param {
    num_output: 192
    kernel_size: 1
    weight_filler {
      type: "xavier"
    }
    bias_filler {
      type: "constant"
      value: 0.2
    }
  }
}
layer {
  name: "BN_00000033"
  type: "BN"
  bottom: "inception_4b/1x1"
  top: "inception_4b/1x1/bn"
}
layer {
  name: "inception_4b/relu_1x1"
  type: "ReLU"
  bottom: "inception_4b/1x1/bn"
  top: "inception_4b/1x1/bn"
}
layer {
  name: "inception_4b/3x3_reduce"
  type: "Convolution"
  bottom: "inception_4a/output"
  top: "inception_4b/3x3_reduce"
  param {
    lr_mult: 1
    decay_mult: 1
  }
  param {
    lr_mult: 2
    decay_mult: 0
  }
  convolution_param {
    num_output: 96
    kernel_size: 1
    weight_filler {
      type: "xavier"
    }
    bias_filler {
      type: "constant"
      value: 0.2
    }
  }
}
layer {
  name: "BN_00000034"
  type: "BN"
  bottom: "inception_4b/3x3_reduce"
  top: "inception_4b/3x3_reduce/bn"
}
layer {
  name: "inception_4b/relu_3x3_reduce"
  type: "ReLU"
  bottom: "inception_4b/3x3_reduce/bn"
  top: "inception_4b/3x3_reduce/bn"
}
layer {
  name: "inception_4b/3x3"
  type: "Convolution"
  bottom: "inception_4b/3x3_reduce/bn"
  top: "inception_4b/3x3"
  param {
    lr_mult: 1
    decay_mult: 1
  }
  param {
    lr_mult: 2
    decay_mult: 0
  }
  convolution_param {
    num_output: 128
    pad: 1
    kernel_size: 3
    weight_filler {
      type: "xavier"
    }
    bias_filler {
      type: "constant"
      value: 0.2
    }
  }
}
layer {
  name: "BN_00000035"
  type: "BN"
  bottom: "inception_4b/3x3"
  top: "inception_4b/3x3/bn"
}
layer {
  name: "inception_4b/relu_3x3"
  type: "ReLU"
  bottom: "inception_4b/3x3/bn"
  top: "inception_4b/3x3/bn"
}
layer {
  name: "inception_4b/double3x3_reduce"
  type: "Convolution"
  bottom: "inception_4a/output"
  top: "inception_4b/double3x3_reduce"
  param {
    lr_mult: 1
    decay_mult: 1
  }
  param {
    lr_mult: 2
    decay_mult: 0
  }
  convolution_param {
    num_output: 96
    kernel_size: 1
    weight_filler {
      type: "xavier"
    }
    bias_filler {
      type: "constant"
      value: 0.2
    }
  }
}
layer {
  name: "BN_00000036"
  type: "BN"
  bottom: "inception_4b/double3x3_reduce"
  top: "inception_4b/double3x3_reduce/bn"
}
layer {
  name: "inception_4b/relu_double3x3_reduce"
  type: "ReLU"
  bottom: "inception_4b/double3x3_reduce/bn"
  top: "inception_4b/double3x3_reduce/bn"
}
layer {
  name: "inception_4b/double3x3_mid"
  type: "Convolution"
  bottom: "inception_4b/double3x3_reduce/bn"
  top: "inception_4b/double3x3_mid"
  param {
    lr_mult: 1
    decay_mult: 1
  }
  param {
    lr_mult: 2
    decay_mult: 0
  }
  convolution_param {
    num_output: 128
    pad: 1
    kernel_size: 3
    weight_filler {
      type: "xavier"
    }
    bias_filler {
      type: "constant"
      value: 0.2
    }
  }
}
layer {
  name: "BN_00000037"
  type: "BN"
  bottom: "inception_4b/double3x3_mid"
  top: "inception_4b/double3x3_mid/bn"
}
layer {
  name: "inception_4b/relu_double3x3_mid"
  type: "ReLU"
  bottom: "inception_4b/double3x3_mid/bn"
  top: "inception_4b/double3x3_mid/bn"
}
layer {
  name: "inception_4b/double3x3"
  type: "Convolution"
  bottom: "inception_4b/double3x3_mid/bn"
  top: "inception_4b/double3x3"
  param {
    lr_mult: 1
    decay_mult: 1
  }
  param {
    lr_mult: 2
    decay_mult: 0
  }
  convolution_param {
    num_output: 128
    pad: 1
    kernel_size: 3
    weight_filler {
      type: "xavier"
    }
    bias_filler {
      type: "constant"
      value: 0.2
    }
  }
}
layer {
  name: "BN_00000038"
  type: "BN"
  bottom: "inception_4b/double3x3"
  top: "inception_4b/double3x3/bn"
}
layer {
  name: "inception_4b/relu_double3x3"
  type: "ReLU"
  bottom: "inception_4b/double3x3/bn"
  top: "inception_4b/double3x3/bn"
}
layer {
  name: "inception_4b/pool"
  type: "Pooling"
  bottom: "inception_4a/output"
  top: "inception_4b/pool"
  pooling_param {
    pool: AVE
    kernel_size: 3
    stride: 1
    pad: 1
  }
}
layer {
  name: "inception_4b/pool_proj"
  type: "Convolution"
  bottom: "inception_4b/pool"
  top: "inception_4b/pool_proj"
  param {
    lr_mult: 1
    decay_mult: 1
  }
  param {
    lr_mult: 2
    decay_mult: 0
  }
  convolution_param {
    num_output: 128
    kernel_size: 1
    weight_filler {
      type: "xavier"
    }
    bias_filler {
      type: "constant"
      value: 0.2
    }
  }
}
layer {
  name: "BN_00000039"
  type: "BN"
  bottom: "inception_4b/pool_proj"
  top: "inception_4b/pool_proj/bn"
}
layer {
  name: "inception_4b/relu_pool_proj"
  type: "ReLU"
  bottom: "inception_4b/pool_proj/bn"
  top: "inception_4b/pool_proj/bn"
}
layer {
  name: "inception_4b/output"
  type: "Concat"
  bottom: "inception_4b/1x1/bn"
  bottom: "inception_4b/3x3/bn"
  bottom: "inception_4b/double3x3/bn"
  bottom: "inception_4b/pool_proj/bn"
  top: "inception_4b/output"
}
layer {
  name: "inception_4c/1x1"
  type: "Convolution"
  bottom: "inception_4b/output"
  top: "inception_4c/1x1"
  param {
    lr_mult: 1
    decay_mult: 1
  }
  param {
    lr_mult: 2
    decay_mult: 0
  }
  convolution_param {
    num_output: 160
    kernel_size: 1
    weight_filler {
      type: "xavier"
    }
    bias_filler {
      type: "constant"
      value: 0.2
    }
  }
}
layer {
  name: "BN_00000040"
  type: "BN"
  bottom: "inception_4c/1x1"
  top: "inception_4c/1x1/bn"
}
layer {
  name: "inception_4c/relu_1x1"
  type: "ReLU"
  bottom: "inception_4c/1x1/bn"
  top: "inception_4c/1x1/bn"
}
layer {
  name: "inception_4c/3x3_reduce"
  type: "Convolution"
  bottom: "inception_4b/output"
  top: "inception_4c/3x3_reduce"
  param {
    lr_mult: 1
    decay_mult: 1
  }
  param {
    lr_mult: 2
    decay_mult: 0
  }
  convolution_param {
    num_output: 128
    kernel_size: 1
    weight_filler {
      type: "xavier"
    }
    bias_filler {
      type: "constant"
      value: 0.2
    }
  }
}
layer {
  name: "BN_00000041"
  type: "BN"
  bottom: "inception_4c/3x3_reduce"
  top: "inception_4c/3x3_redu
I0906 15:28:32.698146 89648 layer_factory.hpp:76] Creating layer data
I0906 15:28:32.699627 89648 net.cpp:110] Creating Layer data
I0906 15:28:32.699758 89648 net.cpp:433] data -> data
I0906 15:28:32.699838 89648 net.cpp:433] data -> label
I0906 15:28:32.702026 89651 db_lmdb.cpp:22] Opened lmdb /ssd/ilsvrc2012/ilsvrc12_train_lmdb
I0906 15:28:32.702687 89648 data_layer.cpp:44] output data size: 32,3,224,224
I0906 15:28:32.779006 89648 net.cpp:155] Setting up data
I0906 15:28:32.779186 89648 net.cpp:163] Top shape: 32 3 224 224 (4816896)
I0906 15:28:32.779203 89648 net.cpp:163] Top shape: 32 (32)
I0906 15:28:32.779211 89648 layer_factory.hpp:76] Creating layer label_data_1_split
I0906 15:28:32.779225 89648 net.cpp:110] Creating Layer label_data_1_split
I0906 15:28:32.779232 89648 net.cpp:477] label_data_1_split <- label
I0906 15:28:32.779247 89648 net.cpp:433] label_data_1_split -> label_data_1_split_0
I0906 15:28:32.779261 89648 net.cpp:433] label_data_1_split -> label_data_1_split_1
I0906 15:28:32.779276 89648 net.cpp:433] label_data_1_split -> label_data_1_split_2
I0906 15:28:32.779289 89648 net.cpp:155] Setting up label_data_1_split
I0906 15:28:32.779294 89648 net.cpp:163] Top shape: 32 (32)
I0906 15:28:32.779297 89648 net.cpp:163] Top shape: 32 (32)
I0906 15:28:32.779301 89648 net.cpp:163] Top shape: 32 (32)
I0906 15:28:32.779319 89648 layer_factory.hpp:76] Creating layer conv1/7x7_s2
I0906 15:28:32.779330 89648 net.cpp:110] Creating Layer conv1/7x7_s2
I0906 15:28:32.779335 89648 net.cpp:477] conv1/7x7_s2 <- data
I0906 15:28:32.779342 89648 net.cpp:433] conv1/7x7_s2 -> conv1/7x7_s2
I0906 15:28:32.780210 89648 net.cpp:155] Setting up conv1/7x7_s2
I0906 15:28:32.780226 89648 net.cpp:163] Top shape: 32 64 112 112 (25690112)
I0906 15:28:32.780242 89648 layer_factory.hpp:76] Creating layer BN_00000001
I0906 15:28:32.780252 89648 net.cpp:110] Creating Layer BN_00000001
I0906 15:28:32.780256 89648 net.cpp:477] BN_00000001 <- conv1/7x7_s2
I0906 15:28:32.780261 89648 net.cpp:433] BN_00000001 -> conv1/7x7_s2/bn
I0906 15:28:32.780302 89648 net.cpp:155] Setting up BN_00000001
I0906 15:28:32.780306 89648 net.cpp:163] Top shape: 32 64 112 112 (25690112)
I0906 15:28:32.780315 89648 layer_factory.hpp:76] Creating layer conv1/relu_7x7
I0906 15:28:32.780325 89648 net.cpp:110] Creating Layer conv1/relu_7x7
I0906 15:28:32.780328 89648 net.cpp:477] conv1/relu_7x7 <- conv1/7x7_s2/bn
I0906 15:28:32.780333 89648 net.cpp:419] conv1/relu_7x7 -> conv1/7x7_s2/bn (in-place)
I0906 15:28:32.780340 89648 net.cpp:155] Setting up conv1/relu_7x7
I0906 15:28:32.780344 89648 net.cpp:163] Top shape: 32 64 112 112 (25690112)
I0906 15:28:32.780349 89648 layer_factory.hpp:76] Creating layer pool1/3x3_s2
I0906 15:28:32.780354 89648 net.cpp:110] Creating Layer pool1/3x3_s2
I0906 15:28:32.780356 89648 net.cpp:477] pool1/3x3_s2 <- conv1/7x7_s2/bn
I0906 15:28:32.780364 89648 net.cpp:433] pool1/3x3_s2 -> pool1/3x3_s2
I0906 15:28:32.780385 89648 net.cpp:155] Setting up pool1/3x3_s2
I0906 15:28:32.780390 89648 net.cpp:163] Top shape: 32 64 56 56 (6422528)
I0906 15:28:32.780392 89648 layer_factory.hpp:76] Creating layer pool1/norm1
I0906 15:28:32.780398 89648 net.cpp:110] Creating Layer pool1/norm1
I0906 15:28:32.780401 89648 net.cpp:477] pool1/norm1 <- pool1/3x3_s2
I0906 15:28:32.780408 89648 net.cpp:433] pool1/norm1 -> pool1/norm1
I0906 15:28:32.780419 89648 net.cpp:155] Setting up pool1/norm1
I0906 15:28:32.780424 89648 net.cpp:163] Top shape: 32 64 56 56 (6422528)
I0906 15:28:32.780427 89648 layer_factory.hpp:76] Creating layer conv2/3x3_reduce
I0906 15:28:32.780436 89648 net.cpp:110] Creating Layer conv2/3x3_reduce
I0906 15:28:32.780438 89648 net.cpp:477] conv2/3x3_reduce <- pool1/norm1
I0906 15:28:32.780443 89648 net.cpp:433] conv2/3x3_reduce -> conv2/3x3_reduce
I0906 15:28:32.781069 89648 net.cpp:155] Setting up conv2/3x3_reduce
I0906 15:28:32.781081 89648 net.cpp:163] Top shape: 32 64 56 56 (6422528)
I0906 15:28:32.781091 89648 layer_factory.hpp:76] Creating layer BN_00000002
I0906 15:28:32.781100 89648 net.cpp:110] Creating Layer BN_00000002
I0906 15:28:32.781105 89648 net.cpp:477] BN_00000002 <- conv2/3x3_reduce
I0906 15:28:32.781111 89648 net.cpp:433] BN_00000002 -> conv2/3x3_reduce/bn
I0906 15:28:32.781142 89648 net.cpp:155] Setting up BN_00000002
I0906 15:28:32.781147 89648 net.cpp:163] Top shape: 32 64 56 56 (6422528)
I0906 15:28:32.781154 89648 layer_factory.hpp:76] Creating layer conv2/relu_3x3_reduce
I0906 15:28:32.781159 89648 net.cpp:110] Creating Layer conv2/relu_3x3_reduce
I0906 15:28:32.781162 89648 net.cpp:477] conv2/relu_3x3_reduce <- conv2/3x3_reduce/bn
I0906 15:28:32.781167 89648 net.cpp:419] conv2/relu_3x3_reduce -> conv2/3x3_reduce/bn (in-place)
I0906 15:28:32.781172 89648 net.cpp:155] Setting up conv2/relu_3x3_reduce
I0906 15:28:32.781177 89648 net.cpp:163] Top shape: 32 64 56 56 (6422528)
I0906 15:28:32.781180 89648 layer_factory.hpp:76] Creating layer conv2/3x3
I0906 15:28:32.781185 89648 net.cpp:110] Creating Layer conv2/3x3
I0906 15:28:32.781188 89648 net.cpp:477] conv2/3x3 <- conv2/3x3_reduce/bn
I0906 15:28:32.781195 89648 net.cpp:433] conv2/3x3 -> conv2/3x3
I0906 15:28:32.783607 89648 net.cpp:155] Setting up conv2/3x3
I0906 15:28:32.783623 89648 net.cpp:163] Top shape: 32 192 56 56 (19267584)
I0906 15:28:32.783635 89648 layer_factory.hpp:76] Creating layer BN_00000003
I0906 15:28:32.783642 89648 net.cpp:110] Creating Layer BN_00000003
I0906 15:28:32.783658 89648 net.cpp:477] BN_00000003 <- conv2/3x3
I0906 15:28:32.783664 89648 net.cpp:433] BN_00000003 -> conv2/3x3/bn
I0906 15:28:32.783711 89648 net.cpp:155] Setting up BN_00000003
I0906 15:28:32.783718 89648 net.cpp:163] Top shape: 32 192 56 56 (19267584)
I0906 15:28:32.783725 89648 layer_factory.hpp:76] Creating layer conv2/relu_3x3
I0906 15:28:32.783730 89648 net.cpp:110] Creating Layer conv2/relu_3x3
I0906 15:28:32.783735 89648 net.cpp:477] conv2/relu_3x3 <- conv2/3x3/bn
I0906 15:28:32.783740 89648 net.cpp:419] conv2/relu_3x3 -> conv2/3x3/bn (in-place)
I0906 15:28:32.783745 89648 net.cpp:155] Setting up conv2/relu_3x3
I0906 15:28:32.783748 89648 net.cpp:163] Top shape: 32 192 56 56 (19267584)
I0906 15:28:32.783752 89648 layer_factory.hpp:76] Creating layer conv2/norm2
I0906 15:28:32.783759 89648 net.cpp:110] Creating Layer conv2/norm2
I0906 15:28:32.783762 89648 net.cpp:477] conv2/norm2 <- conv2/3x3/bn
I0906 15:28:32.783767 89648 net.cpp:433] conv2/norm2 -> conv2/norm2
I0906 15:28:32.783774 89648 net.cpp:155] Setting up conv2/norm2
I0906 15:28:32.783778 89648 net.cpp:163] Top shape: 32 192 56 56 (19267584)
I0906 15:28:32.783782 89648 layer_factory.hpp:76] Creating layer pool2/3x3_s2
I0906 15:28:32.783787 89648 net.cpp:110] Creating Layer pool2/3x3_s2
I0906 15:28:32.783789 89648 net.cpp:477] pool2/3x3_s2 <- conv2/norm2
I0906 15:28:32.783793 89648 net.cpp:433] pool2/3x3_s2 -> pool2/3x3_s2
I0906 15:28:32.783802 89648 net.cpp:155] Setting up pool2/3x3_s2
I0906 15:28:32.783805 89648 net.cpp:163] Top shape: 32 192 28 28 (4816896)
I0906 15:28:32.783808 89648 layer_factory.hpp:76] Creating layer pool2/3x3_s2_pool2/3x3_s2_0_split
I0906 15:28:32.783815 89648 net.cpp:110] Creating Layer pool2/3x3_s2_pool2/3x3_s2_0_split
I0906 15:28:32.783818 89648 net.cpp:477] pool2/3x3_s2_pool2/3x3_s2_0_split <- pool2/3x3_s2
I0906 15:28:32.783823 89648 net.cpp:433] pool2/3x3_s2_pool2/3x3_s2_0_split -> pool2/3x3_s2_pool2/3x3_s2_0_split_0
I0906 15:28:32.783829 89648 net.cpp:433] pool2/3x3_s2_pool2/3x3_s2_0_split -> pool2/3x3_s2_pool2/3x3_s2_0_split_1
I0906 15:28:32.783836 89648 net.cpp:433] pool2/3x3_s2_pool2/3x3_s2_0_split -> pool2/3x3_s2_pool2/3x3_s2_0_split_2
I0906 15:28:32.783843 89648 net.cpp:433] pool2/3x3_s2_pool2/3x3_s2_0_split -> pool2/3x3_s2_pool2/3x3_s2_0_split_3
I0906 15:28:32.783849 89648 net.cpp:155] Setting up pool2/3x3_s2_pool2/3x3_s2_0_split
I0906 15:28:32.783852 89648 net.cpp:163] Top shape: 32 192 28 28 (4816896)
I0906 15:28:32.783856 89648 net.cpp:163] Top shape: 32 192 28 28 (4816896)
I0906 15:28:32.783860 89648 net.cpp:163] Top shape: 32 192 28 28 (4816896)
I0906 15:28:32.783864 89648 net.cpp:163] Top shape: 32 192 28 28 (4816896)
I0906 15:28:32.783866 89648 layer_factory.hpp:76] Creating layer inception_3a/1x1
I0906 15:28:32.783876 89648 net.cpp:110] Creating Layer inception_3a/1x1
I0906 15:28:32.783879 89648 net.cpp:477] inception_3a/1x1 <- pool2/3x3_s2_pool2/3x3_s2_0_split_0
I0906 15:28:32.783885 89648 net.cpp:433] inception_3a/1x1 -> inception_3a/1x1
I0906 15:28:32.784572 89648 net.cpp:155] Setting up inception_3a/1x1
I0906 15:28:32.784585 89648 net.cpp:163] Top shape: 32 64 28 28 (1605632)
I0906 15:28:32.784593 89648 layer_factory.hpp:76] Creating layer BN_00000004
I0906 15:28:32.784601 89648 net.cpp:110] Creating Layer BN_00000004
I0906 15:28:32.784605 89648 net.cpp:477] BN_00000004 <- inception_3a/1x1
I0906 15:28:32.784610 89648 net.cpp:433] BN_00000004 -> inception_3a/1x1/bn
I0906 15:28:32.784646 89648 net.cpp:155] Setting up BN_00000004
I0906 15:28:32.784651 89648 net.cpp:163] Top shape: 32 64 28 28 (1605632)
I0906 15:28:32.784658 89648 layer_factory.hpp:76] Creating layer inception_3a/relu_1x1
I0906 15:28:32.784662 89648 net.cpp:110] Creating Layer inception_3a/relu_1x1
I0906 15:28:32.784667 89648 net.cpp:477] inception_3a/relu_1x1 <- inception_3a/1x1/bn
I0906 15:28:32.784670 89648 net.cpp:419] inception_3a/relu_1x1 -> inception_3a/1x1/bn (in-place)
I0906 15:28:32.784677 89648 net.cpp:155] Setting up inception_3a/relu_1x1
I0906 15:28:32.784680 89648 net.cpp:163] Top shape: 32 64 28 28 (1605632)
I0906 15:28:32.784694 89648 layer_factory.hpp:76] Creating layer inception_3a/3x3_reduce
I0906 15:28:32.784701 89648 net.cpp:110] Creating Layer inception_3a/3x3_reduce
I0906 15:28:32.784705 89648 net.cpp:477] inception_3a/3x3_reduce <- pool2/3x3_s2_pool2/3x3_s2_0_split_1
I0906 15:28:32.784718 89648 net.cpp:433] inception_3a/3x3_reduce -> inception_3a/3x3_reduce
I0906 15:28:32.784864 89648 net.cpp:155] Setting up inception_3a/3x3_reduce
I0906 15:28:32.784873 89648 net.cpp:163] Top shape: 32 64 28 28 (1605632)
I0906 15:28:32.784883 89648 layer_factory.hpp:76] Creating layer BN_00000005
I0906 15:28:32.784888 89648 net.cpp:110] Creating Layer BN_00000005
I0906 15:28:32.784893 89648 net.cpp:477] BN_00000005 <- inception_3a/3x3_reduce
I0906 15:28:32.784899 89648 net.cpp:433] BN_00000005 -> inception_3a/3x3_reduce/bn
I0906 15:28:32.784929 89648 net.cpp:155] Setting up BN_00000005
I0906 15:28:32.784942 89648 net.cpp:163] Top shape: 32 64 28 28 (1605632)
I0906 15:28:32.784950 89648 layer_factory.hpp:76] Creating layer inception_3a/relu_3x3_reduce
I0906 15:28:32.784955 89648 net.cpp:110] Creating Layer inception_3a/relu_3x3_reduce
I0906 15:28:32.784960 89648 net.cpp:477] inception_3a/relu_3x3_reduce <- inception_3a/3x3_reduce/bn
I0906 15:28:32.784963 89648 net.cpp:419] inception_3a/relu_3x3_reduce -> inception_3a/3x3_reduce/bn (in-place)
I0906 15:28:32.784970 89648 net.cpp:155] Setting up inception_3a/relu_3x3_reduce
I0906 15:28:32.784973 89648 net.cpp:163] Top shape: 32 64 28 28 (1605632)
I0906 15:28:32.784976 89648 layer_factory.hpp:76] Creating layer inception_3a/3x3
I0906 15:28:32.784982 89648 net.cpp:110] Creating Layer inception_3a/3x3
I0906 15:28:32.784986 89648 net.cpp:477] inception_3a/3x3 <- inception_3a/3x3_reduce/bn
I0906 15:28:32.784991 89648 net.cpp:433] inception_3a/3x3 -> inception_3a/3x3
I0906 15:28:32.785830 89648 net.cpp:155] Setting up inception_3a/3x3
I0906 15:28:32.785841 89648 net.cpp:163] Top shape: 32 64 28 28 (1605632)
I0906 15:28:32.785848 89648 layer_factory.hpp:76] Creating layer BN_00000006
I0906 15:28:32.785854 89648 net.cpp:110] Creating Layer BN_00000006
I0906 15:28:32.785857 89648 net.cpp:477] BN_00000006 <- inception_3a/3x3
I0906 15:28:32.785866 89648 net.cpp:433] BN_00000006 -> inception_3a/3x3/bn
I0906 15:28:32.785897 89648 net.cpp:155] Setting up BN_00000006
I0906 15:28:32.785902 89648 net.cpp:163] Top shape: 32 64 28 28 (1605632)
I0906 15:28:32.785910 89648 layer_factory.hpp:76] Creating layer inception_3a/relu_3x3
I0906 15:28:32.785915 89648 net.cpp:110] Creating Layer inception_3a/relu_3x3
I0906 15:28:32.785918 89648 net.cpp:477] inception_3a/relu_3x3 <- inception_3a/3x3/bn
I0906 15:28:32.785923 89648 net.cpp:419] inception_3a/relu_3x3 -> inception_3a/3x3/bn (in-place)
I0906 15:28:32.785928 89648 net.cpp:155] Setting up inception_3a/relu_3x3
I0906 15:28:32.785933 89648 net.cpp:163] Top shape: 32 64 28 28 (1605632)
I0906 15:28:32.785936 89648 layer_factory.hpp:76] Creating layer inception_3a/double3x3_reduce
I0906 15:28:32.785943 89648 net.cpp:110] Creating Layer inception_3a/double3x3_reduce
I0906 15:28:32.785945 89648 net.cpp:477] inception_3a/double3x3_reduce <- pool2/3x3_s2_pool2/3x3_s2_0_split_2
I0906 15:28:32.785950 89648 net.cpp:433] inception_3a/double3x3_reduce -> inception_3a/double3x3_reduce
I0906 15:28:32.786087 89648 net.cpp:155] Setting up inception_3a/double3x3_reduce
I0906 15:28:32.786095 89648 net.cpp:163] Top shape: 32 64 28 28 (1605632)
I0906 15:28:32.786101 89648 layer_factory.hpp:76] Creating layer BN_00000007
I0906 15:28:32.786106 89648 net.cpp:110] Creating Layer BN_00000007
I0906 15:28:32.786109 89648 net.cpp:477] BN_00000007 <- inception_3a/double3x3_reduce
I0906 15:28:32.786114 89648 net.cpp:433] BN_00000007 -> inception_3a/double3x3_reduce/bn
I0906 15:28:32.786146 89648 net.cpp:155] Setting up BN_00000007
I0906 15:28:32.786164 89648 net.cpp:163] Top shape: 32 64 28 28 (1605632)
I0906 15:28:32.786170 89648 layer_factory.hpp:76] Creating layer inception_3a/relu_double3x3_reduce
I0906 15:28:32.786175 89648 net.cpp:110] Creating Layer inception_3a/relu_double3x3_reduce
I0906 15:28:32.786188 89648 net.cpp:477] inception_3a/relu_double3x3_reduce <- inception_3a/double3x3_reduce/bn
I0906 15:28:32.786193 89648 net.cpp:419] inception_3a/relu_double3x3_reduce -> inception_3a/double3x3_reduce/bn (in-place)
I0906 15:28:32.786200 89648 net.cpp:155] Setting up inception_3a/relu_double3x3_reduce
I0906 15:28:32.786205 89648 net.cpp:163] Top shape: 32 64 28 28 (1605632)
I0906 15:28:32.786207 89648 layer_factory.hpp:76] Creating layer inception_3a/double3x3_mid
I0906 15:28:32.786216 89648 net.cpp:110] Creating Layer inception_3a/double3x3_mid
I0906 15:28:32.786218 89648 net.cpp:477] inception_3a/double3x3_mid <- inception_3a/double3x3_reduce/bn
I0906 15:28:32.786226 89648 net.cpp:433] inception_3a/double3x3_mid -> inception_3a/double3x3_mid
I0906 15:28:32.786674 89648 net.cpp:155] Setting up inception_3a/double3x3_mid
I0906 15:28:32.786682 89648 net.cpp:163] Top shape: 32 96 28 28 (2408448)
I0906 15:28:32.786689 89648 layer_factory.hpp:76] Creating layer BN_00000008
I0906 15:28:32.786694 89648 net.cpp:110] Creating Layer BN_00000008
I0906 15:28:32.786697 89648 net.cpp:477] BN_00000008 <- inception_3a/double3x3_mid
I0906 15:28:32.786705 89648 net.cpp:433] BN_00000008 -> inception_3a/double3x3_mid/bn
I0906 15:28:32.786737 89648 net.cpp:155] Setting up BN_00000008
I0906 15:28:32.786742 89648 net.cpp:163] Top shape: 32 96 28 28 (2408448)
I0906 15:28:32.786751 89648 layer_factory.hpp:76] Creating layer inception_3a/relu_double3x3_mid
I0906 15:28:32.786756 89648 net.cpp:110] Creating Layer inception_3a/relu_double3x3_mid
I0906 15:28:32.786761 89648 net.cpp:477] inception_3a/relu_double3x3_mid <- inception_3a/double3x3_mid/bn
I0906 15:28:32.786764 89648 net.cpp:419] inception_3a/relu_double3x3_mid -> inception_3a/double3x3_mid/bn (in-place)
I0906 15:28:32.786769 89648 net.cpp:155] Setting up inception_3a/relu_double3x3_mid
I0906 15:28:32.786773 89648 net.cpp:163] Top shape: 32 96 28 28 (2408448)
I0906 15:28:32.786777 89648 layer_factory.hpp:76] Creating layer inception_3a/double3x3
I0906 15:28:32.786782 89648 net.cpp:110] Creating Layer inception_3a/double3x3
I0906 15:28:32.786785 89648 net.cpp:477] inception_3a/double3x3 <- inception_3a/double3x3_mid/bn
I0906 15:28:32.786790 89648 net.cpp:433] inception_3a/double3x3 -> inception_3a/double3x3
I0906 15:28:32.787441 89648 net.cpp:155] Setting up inception_3a/double3x3
I0906 15:28:32.787451 89648 net.cpp:163] Top shape: 32 96 28 28 (2408448)
I0906 15:28:32.787461 89648 layer_factory.hpp:76] Creating layer BN_00000009
I0906 15:28:32.787469 89648 net.cpp:110] Creating Layer BN_00000009
I0906 15:28:32.787473 89648 net.cpp:477] BN_00000009 <- inception_3a/double3x3
I0906 15:28:32.787478 89648 net.cpp:433] BN_00000009 -> inception_3a/double3x3/bn
I0906 15:28:32.787509 89648 net.cpp:155] Setting up BN_00000009
I0906 15:28:32.787515 89648 net.cpp:163] Top shape: 32 96 28 28 (2408448)
I0906 15:28:32.787523 89648 layer_factory.hpp:76] Creating layer inception_3a/relu_double3x3
I0906 15:28:32.787528 89648 net.cpp:110] Creating Layer inception_3a/relu_double3x3
I0906 15:28:32.787531 89648 net.cpp:477] inception_3a/relu_double3x3 <- inception_3a/double3x3/bn
I0906 15:28:32.787536 89648 net.cpp:419] inception_3a/relu_double3x3 -> inception_3a/double3x3/bn (in-place)
I0906 15:28:32.787541 89648 net.cpp:155] Setting up inception_3a/relu_double3x3
I0906 15:28:32.787545 89648 net.cpp:163] Top shape: 32 96 28 28 (2408448)
I0906 15:28:32.787549 89648 layer_factory.hpp:76] Creating layer inception_3a/pool
I0906 15:28:32.787554 89648 net.cpp:110] Creating Layer inception_3a/pool
I0906 15:28:32.787557 89648 net.cpp:477] inception_3a/pool <- pool2/3x3_s2_pool2/3x3_s2_0_split_3
I0906 15:28:32.787562 89648 net.cpp:433] inception_3a/pool -> inception_3a/pool
I0906 15:28:32.787569 89648 net.cpp:155] Setting up inception_3a/pool
I0906 15:28:32.787574 89648 net.cpp:163] Top shape: 32 192 28 28 (4816896)
I0906 15:28:32.787576 89648 layer_factory.hpp:76] Creating layer inception_3a/pool_proj
I0906 15:28:32.787585 89648 net.cpp:110] Creating Layer inception_3a/pool_proj
I0906 15:28:32.787596 89648 net.cpp:477] inception_3a/pool_proj <- inception_3a/pool
I0906 15:28:32.787602 89648 net.cpp:433] inception_3a/pool_proj -> inception_3a/pool_proj
I0906 15:28:32.787709 89648 net.cpp:155] Setting up inception_3a/pool_proj
I0906 15:28:32.787720 89648 net.cpp:163] Top shape: 32 32 28 28 (802816)
I0906 15:28:32.787726 89648 layer_factory.hpp:76] Creating layer BN_00000010
I0906 15:28:32.787734 89648 net.cpp:110] Creating Layer BN_00000010
I0906 15:28:32.787737 89648 net.cpp:477] BN_00000010 <- inception_3a/pool_proj
I0906 15:28:32.787742 89648 net.cpp:433] BN_00000010 -> inception_3a/pool_proj/bn
I0906 15:28:32.787775 89648 net.cpp:155] Setting up BN_00000010
I0906 15:28:32.787780 89648 net.cpp:163] Top shape: 32 32 28 28 (802816)
I0906 15:28:32.787786 89648 layer_factory.hpp:76] Creating layer inception_3a/relu_pool_proj
I0906 15:28:32.787791 89648 net.cpp:110] Creating Layer inception_3a/relu_pool_proj
I0906 15:28:32.787794 89648 net.cpp:477] inception_3a/relu_pool_proj <- inception_3a/pool_proj/bn
I0906 15:28:32.787799 89648 net.cpp:419] inception_3a/relu_pool_proj -> inception_3a/pool_proj/bn (in-place)
I0906 15:28:32.787804 89648 net.cpp:155] Setting up inception_3a/relu_pool_proj
I0906 15:28:32.787808 89648 net.cpp:163] Top shape: 32 32 28 28 (802816)
I0906 15:28:32.787812 89648 layer_factory.hpp:76] Creating layer inception_3a/output
I0906 15:28:32.787820 89648 net.cpp:110] Creating Layer inception_3a/output
I0906 15:28:32.787823 89648 net.cpp:477] inception_3a/output <- inception_3a/1x1/bn
I0906 15:28:32.787827 89648 net.cpp:477] inception_3a/output <- inception_3a/3x3/bn
I0906 15:28:32.787832 89648 net.cpp:477] inception_3a/output <- inception_3a/double3x3/bn
I0906 15:28:32.787835 89648 net.cpp:477] inception_3a/output <- inception_3a/pool_proj/bn
I0906 15:28:32.787840 89648 net.cpp:433] inception_3a/output -> inception_3a/output
I0906 15:28:32.787849 89648 net.cpp:155] Setting up inception_3a/output
I0906 15:28:32.787854 89648 net.cpp:163] Top shape: 32 256 28 28 (6422528)
I0906 15:28:32.787858 89648 layer_factory.hpp:76] Creating layer inception_3a/output_inception_3a/output_0_split
I0906 15:28:32.787863 89648 net.cpp:110] Creating Layer inception_3a/output_inception_3a/output_0_split
I0906 15:28:32.787866 89648 net.cpp:477] inception_3a/output_inception_3a/output_0_split <- inception_3a/output
I0906 15:28:32.787871 89648 net.cpp:433] inception_3a/output_inception_3a/output_0_split -> inception_3a/output_inception_3a/output_0_split_0
I0906 15:28:32.787878 89648 net.cpp:433] inception_3a/output_inception_3a/output_0_split -> inception_3a/output_inception_3a/output_0_split_1
I0906 15:28:32.787884 89648 net.cpp:433] inception_3a/output_inception_3a/output_0_split -> inception_3a/output_inception_3a/output_0_split_2
I0906 15:28:32.787889 89648 net.cpp:433] inception_3a/output_inception_3a/output_0_split -> inception_3a/output_inception_3a/output_0_split_3
I0906 15:28:32.787896 89648 net.cpp:155] Setting up inception_3a/output_inception_3a/output_0_split
I0906 15:28:32.787900 89648 net.cpp:163] Top shape: 32 256 28 28 (6422528)
I0906 15:28:32.787904 89648 net.cpp:163] Top shape: 32 256 28 28 (6422528)
I0906 15:28:32.787907 89648 net.cpp:163] Top shape: 32 256 28 28 (6422528)
I0906 15:28:32.787911 89648 net.cpp:163] Top shape: 32 256 28 28 (6422528)
I0906 15:28:32.787914 89648 layer_factory.hpp:76] Creating layer inception_3b/1x1
I0906 15:28:32.787919 89648 net.cpp:110] Creating Layer inception_3b/1x1
I0906 15:28:32.787922 89648 net.cpp:477] inception_3b/1x1 <- inception_3a/output_inception_3a/output_0_split_0
I0906 15:28:32.787930 89648 net.cpp:433] inception_3b/1x1 -> inception_3b/1x1
I0906 15:28:32.788097 89648 net.cpp:155] Setting up inception_3b/1x1
I0906 15:28:32.788106 89648 net.cpp:163] Top shape: 32 64 28 28 (1605632)
I0906 15:28:32.788112 89648 layer_factory.hpp:76] Creating layer BN_00000011
I0906 15:28:32.788117 89648 net.cpp:110] Creating Layer BN_00000011
I0906 15:28:32.788120 89648 net.cpp:477] BN_00000011 <- inception_3b/1x1
I0906 15:28:32.788125 89648 net.cpp:433] BN_00000011 -> inception_3b/1x1/bn
I0906 15:28:32.788172 89648 net.cpp:155] Setting up BN_00000011
I0906 15:28:32.788180 89648 net.cpp:163] Top shape: 32 64 28 28 (1605632)
I0906 15:28:32.788187 89648 layer_factory.hpp:76] Creating layer inception_3b/relu_1x1
I0906 15:28:32.788192 89648 net.cpp:110] Creating Layer inception_3b/relu_1x1
I0906 15:28:32.788195 89648 net.cpp:477] inception_3b/relu_1x1 <- inception_3b/1x1/bn
I0906 15:28:32.788202 89648 net.cpp:419] inception_3b/relu_1x1 -> inception_3b/1x1/bn (in-place)
I0906 15:28:32.788208 89648 net.cpp:155] Setting up inception_3b/relu_1x1
I0906 15:28:32.788211 89648 net.cpp:163] Top shape: 32 64 28 28 (1605632)
I0906 15:28:32.788214 89648 layer_factory.hpp:76] Creating layer inception_3b/3x3_reduce
I0906 15:28:32.788221 89648 net.cpp:110] Creating Layer inception_3b/3x3_reduce
I0906 15:28:32.788224 89648 net.cpp:477] inception_3b/3x3_reduce <- inception_3a/output_inception_3a/output_0_split_1
I0906 15:28:32.788229 89648 net.cpp:433] inception_3b/3x3_reduce -> inception_3b/3x3_reduce
I0906 15:28:32.788395 89648 net.cpp:155] Setting up inception_3b/3x3_reduce
I0906 15:28:32.788403 89648 net.cpp:163] Top shape: 32 64 28 28 (1605632)
I0906 15:28:32.788409 89648 layer_factory.hpp:76] Creating layer BN_00000012
I0906 15:28:32.788415 89648 net.cpp:110] Creating Layer BN_00000012
I0906 15:28:32.788419 89648 net.cpp:477] BN_00000012 <- inception_3b/3x3_reduce
I0906 15:28:32.788424 89648 net.cpp:433] BN_00000012 -> inception_3b/3x3_reduce/bn
I0906 15:28:32.788455 89648 net.cpp:155] Setting up BN_00000012
I0906 15:28:32.788460 89648 net.cpp:163] Top shape: 32 64 28 28 (1605632)
I0906 15:28:32.788465 89648 layer_factory.hpp:76] Creating layer inception_3b/relu_3x3_reduce
I0906 15:28:32.788470 89648 net.cpp:110] Creating Layer inception_3b/relu_3x3_reduce
I0906 15:28:32.788473 89648 net.cpp:477] inception_3b/relu_3x3_reduce <- inception_3b/3x3_reduce/bn
I0906 15:28:32.788477 89648 net.cpp:419] inception_3b/relu_3x3_reduce -> inception_3b/3x3_reduce/bn (in-place)
I0906 15:28:32.788483 89648 net.cpp:155] Setting up inception_3b/relu_3x3_reduce
I0906 15:28:32.788486 89648 net.cpp:163] Top shape: 32 64 28 28 (1605632)
I0906 15:28:32.788491 89648 layer_factory.hpp:76] Creating layer inception_3b/3x3
I0906 15:28:32.788496 89648 net.cpp:110] Creating Layer inception_3b/3x3
I0906 15:28:32.788498 89648 net.cpp:477] inception_3b/3x3 <- inception_3b/3x3_reduce/bn
I0906 15:28:32.788506 89648 net.cpp:433] inception_3b/3x3 -> inception_3b/3x3
I0906 15:28:32.788959 89648 net.cpp:155] Setting up inception_3b/3x3
I0906 15:28:32.788967 89648 net.cpp:163] Top shape: 32 96 28 28 (2408448)
I0906 15:28:32.788985 89648 layer_factory.hpp:76] Creating layer BN_00000013
I0906 15:28:32.788988 89648 net.cpp:110] Creating Layer BN_00000013
I0906 15:28:32.788992 89648 net.cpp:477] BN_00000013 <- inception_3b/3x3
I0906 15:28:32.788997 89648 net.cpp:433] BN_00000013 -> inception_3b/3x3/bn
I0906 15:28:32.789029 89648 net.cpp:155] Setting up BN_00000013
I0906 15:28:32.789034 89648 net.cpp:163] Top shape: 32 96 28 28 (2408448)
I0906 15:28:32.789041 89648 layer_factory.hpp:76] Creating layer inception_3b/relu_3x3
I0906 15:28:32.789046 89648 net.cpp:110] Creating Layer inception_3b/relu_3x3
I0906 15:28:32.789048 89648 net.cpp:477] inception_3b/relu_3x3 <- inception_3b/3x3/bn
I0906 15:28:32.789062 89648 net.cpp:419] inception_3b/relu_3x3 -> inception_3b/3x3/bn (in-place)
I0906 15:28:32.789068 89648 net.cpp:155] Setting up inception_3b/relu_3x3
I0906 15:28:32.789072 89648 net.cpp:163] Top shape: 32 96 28 28 (2408448)
I0906 15:28:32.789075 89648 layer_factory.hpp:76] Creating layer inception_3b/double3x3_reduce
I0906 15:28:32.789082 89648 net.cpp:110] Creating Layer inception_3b/double3x3_reduce
I0906 15:28:32.789084 89648 net.cpp:477] inception_3b/double3x3_reduce <- inception_3a/output_inception_3a/output_0_split_2
I0906 15:28:32.789090 89648 net.cpp:433] inception_3b/double3x3_reduce -> inception_3b/double3x3_reduce
I0906 15:28:32.789259 89648 net.cpp:155] Setting up inception_3b/double3x3_reduce
I0906 15:28:32.789268 89648 net.cpp:163] Top shape: 32 64 28 28 (1605632)
I0906 15:28:32.789283 89648 layer_factory.hpp:76] Creating layer BN_00000014
I0906 15:28:32.789288 89648 net.cpp:110] Creating Layer BN_00000014
I0906 15:28:32.789291 89648 net.cpp:477] BN_00000014 <- inception_3b/double3x3_reduce
I0906 15:28:32.789296 89648 net.cpp:433] BN_00000014 -> inception_3b/double3x3_reduce/bn
I0906 15:28:32.789330 89648 net.cpp:155] Setting up BN_00000014
I0906 15:28:32.789337 89648 net.cpp:163] Top shape: 32 64 28 28 (1605632)
I0906 15:28:32.789345 89648 layer_factory.hpp:76] Creating layer inception_3b/relu_double3x3_reduce
I0906 15:28:32.789350 89648 net.cpp:110] Creating Layer inception_3b/relu_double3x3_reduce
I0906 15:28:32.789352 89648 net.cpp:477] inception_3b/relu_double3x3_reduce <- inception_3b/double3x3_reduce/bn
I0906 15:28:32.789357 89648 net.cpp:419] inception_3b/relu_double3x3_reduce -> inception_3b/double3x3_reduce/bn (in-place)
I0906 15:28:32.789362 89648 net.cpp:155] Setting up inception_3b/relu_double3x3_reduce
I0906 15:28:32.789366 89648 net.cpp:163] Top shape: 32 64 28 28 (1605632)
I0906 15:28:32.789369 89648 layer_factory.hpp:76] Creating layer inception_3b/double3x3_mid
I0906 15:28:32.789376 89648 net.cpp:110] Creating Layer inception_3b/double3x3_mid
I0906 15:28:32.789378 89648 net.cpp:477] inception_3b/double3x3_mid <- inception_3b/double3x3_reduce/bn
I0906 15:28:32.789386 89648 net.cpp:433] inception_3b/double3x3_mid -> inception_3b/double3x3_mid
I0906 15:28:32.789832 89648 net.cpp:155] Setting up inception_3b/double3x3_mid
I0906 15:28:32.789840 89648 net.cpp:163] Top shape: 32 96 28 28 (2408448)
I0906 15:28:32.789846 89648 layer_factory.hpp:76] Creating layer BN_00000015
I0906 15:28:32.789851 89648 net.cpp:110] Creating Layer BN_00000015
I0906 15:28:32.789855 89648 net.cpp:477] BN_00000015 <- inception_3b/double3x3_mid
I0906 15:28:32.789860 89648 net.cpp:433] BN_00000015 -> inception_3b/double3x3_mid/bn
I0906 15:28:32.789891 89648 net.cpp:155] Setting up BN_00000015
I0906 15:28:32.789896 89648 net.cpp:163] Top shape: 32 96 28 28 (2408448)
I0906 15:28:32.789902 89648 layer_factory.hpp:76] Creating layer inception_3b/relu_double3x3_mid
I0906 15:28:32.789909 89648 net.cpp:110] Creating Layer inception_3b/relu_double3x3_mid
I0906 15:28:32.789912 89648 net.cpp:477] inception_3b/relu_double3x3_mid <- inception_3b/double3x3_mid/bn
I0906 15:28:32.789917 89648 net.cpp:419] inception_3b/relu_double3x3_mid -> inception_3b/double3x3_mid/bn (in-place)
I0906 15:28:32.789922 89648 net.cpp:155] Setting up inception_3b/relu_double3x3_mid
I0906 15:28:32.789927 89648 net.cpp:163] Top shape: 32 96 28 28 (2408448)
I0906 15:28:32.789929 89648 layer_factory.hpp:76] Creating layer inception_3b/double3x3
I0906 15:28:32.789935 89648 net.cpp:110] Creating Layer inception_3b/double3x3
I0906 15:28:32.789938 89648 net.cpp:477] inception_3b/double3x3 <- inception_3b/double3x3_mid/bn
I0906 15:28:32.789943 89648 net.cpp:433] inception_3b/double3x3 -> inception_3b/double3x3
I0906 15:28:32.791127 89648 net.cpp:155] Setting up inception_3b/double3x3
I0906 15:28:32.791141 89648 net.cpp:163] Top shape: 32 96 28 28 (2408448)
I0906 15:28:32.791146 89648 layer_factory.hpp:76] Creating layer BN_00000016
I0906 15:28:32.791152 89648 net.cpp:110] Creating Layer BN_00000016
I0906 15:28:32.791157 89648 net.cpp:477] BN_00000016 <- inception_3b/double3x3
I0906 15:28:32.791162 89648 net.cpp:433] BN_00000016 -> inception_3b/double3x3/bn
I0906 15:28:32.791196 89648 net.cpp:155] Setting up BN_00000016
I0906 15:28:32.791201 89648 net.cpp:163] Top shape: 32 96 28 28 (2408448)
I0906 15:28:32.791208 89648 layer_factory.hpp:76] Creating layer inception_3b/relu_double3x3
I0906 15:28:32.791214 89648 net.cpp:110] Creating Layer inception_3b/relu_double3x3
I0906 15:28:32.791218 89648 net.cpp:477] inception_3b/relu_double3x3 <- inception_3b/double3x3/bn
I0906 15:28:32.791223 89648 net.cpp:419] inception_3b/relu_double3x3 -> inception_3b/double3x3/bn (in-place)
I0906 15:28:32.791229 89648 net.cpp:155] Setting up inception_3b/relu_double3x3
I0906 15:28:32.791232 89648 net.cpp:163] Top shape: 32 96 28 28 (2408448)
I0906 15:28:32.791245 89648 layer_factory.hpp:76] Creating layer inception_3b/pool
I0906 15:28:32.791251 89648 net.cpp:110] Creating Layer inception_3b/pool
I0906 15:28:32.791255 89648 net.cpp:477] inception_3b/pool <- inception_3a/output_inception_3a/output_0_split_3
I0906 15:28:32.791260 89648 net.cpp:433] inception_3b/pool -> inception_3b/pool
I0906 15:28:32.791267 89648 net.cpp:155] Setting up inception_3b/pool
I0906 15:28:32.791272 89648 net.cpp:163] Top shape: 32 256 28 28 (6422528)
I0906 15:28:32.791276 89648 layer_factory.hpp:76] Creating layer inception_3b/pool_proj
I0906 15:28:32.791282 89648 net.cpp:110] Creating Layer inception_3b/pool_proj
I0906 15:28:32.791285 89648 net.cpp:477] inception_3b/pool_proj <- inception_3b/pool
I0906 15:28:32.791295 89648 net.cpp:433] inception_3b/pool_proj -> inception_3b/pool_proj
I0906 15:28:32.791468 89648 net.cpp:155] Setting up inception_3b/pool_proj
I0906 15:28:32.791477 89648 net.cpp:163] Top shape: 32 64 28 28 (1605632)
I0906 15:28:32.791493 89648 layer_factory.hpp:76] Creating layer BN_00000017
I0906 15:28:32.791498 89648 net.cpp:110] Creating Layer BN_00000017
I0906 15:28:32.791502 89648 net.cpp:477] BN_00000017 <- inception_3b/pool_proj
I0906 15:28:32.791507 89648 net.cpp:433] BN_00000017 -> inception_3b/pool_proj/bn
I0906 15:28:32.791543 89648 net.cpp:155] Setting up BN_00000017
I0906 15:28:32.791549 89648 net.cpp:163] Top shape: 32 64 28 28 (1605632)
I0906 15:28:32.791555 89648 layer_factory.hpp:76] Creating layer inception_3b/relu_pool_proj
I0906 15:28:32.791560 89648 net.cpp:110] Creating Layer inception_3b/relu_pool_proj
I0906 15:28:32.791563 89648 net.cpp:477] inception_3b/relu_pool_proj <- inception_3b/pool_proj/bn
I0906 15:28:32.791570 89648 net.cpp:419] inception_3b/relu_pool_proj -> inception_3b/pool_proj/bn (in-place)
I0906 15:28:32.791575 89648 net.cpp:155] Setting up inception_3b/relu_pool_proj
I0906 15:28:32.791579 89648 net.cpp:163] Top shape: 32 64 28 28 (1605632)
I0906 15:28:32.791582 89648 layer_factory.hpp:76] Creating layer inception_3b/output
I0906 15:28:32.791587 89648 net.cpp:110] Creating Layer inception_3b/output
I0906 15:28:32.791590 89648 net.cpp:477] inception_3b/output <- inception_3b/1x1/bn
I0906 15:28:32.791595 89648 net.cpp:477] inception_3b/output <- inception_3b/3x3/bn
I0906 15:28:32.791599 89648 net.cpp:477] inception_3b/output <- inception_3b/double3x3/bn
I0906 15:28:32.791602 89648 net.cpp:477] inception_3b/output <- inception_3b/pool_proj/bn
I0906 15:28:32.791607 89648 net.cpp:433] inception_3b/output -> inception_3b/output
I0906 15:28:32.791613 89648 net.cpp:155] Setting up inception_3b/output
I0906 15:28:32.791618 89648 net.cpp:163] Top shape: 32 320 28 28 (8028160)
I0906 15:28:32.791620 89648 layer_factory.hpp:76] Creating layer inception_3b/output_inception_3b/output_0_split
I0906 15:28:32.791626 89648 net.cpp:110] Creating Layer inception_3b/output_inception_3b/output_0_split
I0906 15:28:32.791630 89648 net.cpp:477] inception_3b/output_inception_3b/output_0_split <- inception_3b/output
I0906 15:28:32.791633 89648 net.cpp:433] inception_3b/output_inception_3b/output_0_split -> inception_3b/output_inception_3b/output_0_split_0
I0906 15:28:32.791640 89648 net.cpp:433] inception_3b/output_inception_3b/output_0_split -> inception_3b/output_inception_3b/output_0_split_1
I0906 15:28:32.791646 89648 net.cpp:433] inception_3b/output_inception_3b/output_0_split -> inception_3b/output_inception_3b/output_0_split_2
I0906 15:28:32.791651 89648 net.cpp:155] Setting up inception_3b/output_inception_3b/output_0_split
I0906 15:28:32.791656 89648 net.cpp:163] Top shape: 32 320 28 28 (8028160)
I0906 15:28:32.791659 89648 net.cpp:163] Top shape: 32 320 28 28 (8028160)
I0906 15:28:32.791663 89648 net.cpp:163] Top shape: 32 320 28 28 (8028160)
I0906 15:28:32.791666 89648 layer_factory.hpp:76] Creating layer inception_3c/3x3_reduce
I0906 15:28:32.791687 89648 net.cpp:110] Creating Layer inception_3c/3x3_reduce
I0906 15:28:32.791692 89648 net.cpp:477] inception_3c/3x3_reduce <- inception_3b/output_inception_3b/output_0_split_0
I0906 15:28:32.791707 89648 net.cpp:433] inception_3c/3x3_reduce -> inception_3c/3x3_reduce
I0906 15:28:32.792057 89648 net.cpp:155] Setting up inception_3c/3x3_reduce
I0906 15:28:32.792065 89648 net.cpp:163] Top shape: 32 128 28 28 (3211264)
I0906 15:28:32.792073 89648 layer_factory.hpp:76] Creating layer BN_00000018
I0906 15:28:32.792078 89648 net.cpp:110] Creating Layer BN_00000018
I0906 15:28:32.792083 89648 net.cpp:477] BN_00000018 <- inception_3c/3x3_reduce
I0906 15:28:32.792088 89648 net.cpp:433] BN_00000018 -> inception_3c/3x3_reduce/bn
I0906 15:28:32.792114 89648 net.cpp:155] Setting up BN_00000018
I0906 15:28:32.792119 89648 net.cpp:163] Top shape: 32 128 28 28 (3211264)
I0906 15:28:32.792125 89648 layer_factory.hpp:76] Creating layer inception_3c/relu_3x3_reduce
I0906 15:28:32.792130 89648 net.cpp:110] Creating Layer inception_3c/relu_3x3_reduce
I0906 15:28:32.792134 89648 net.cpp:477] inception_3c/relu_3x3_reduce <- inception_3c/3x3_reduce/bn
I0906 15:28:32.792139 89648 net.cpp:419] inception_3c/relu_3x3_reduce -> inception_3c/3x3_reduce/bn (in-place)
I0906 15:28:32.792143 89648 net.cpp:155] Setting up inception_3c/relu_3x3_reduce
I0906 15:28:32.792147 89648 net.cpp:163] Top shape: 32 128 28 28 (3211264)
I0906 15:28:32.792150 89648 layer_factory.hpp:76] Creating layer inception_3c/3x3_s2
I0906 15:28:32.792156 89648 net.cpp:110] Creating Layer inception_3c/3x3_s2
I0906 15:28:32.792160 89648 net.cpp:477] inception_3c/3x3_s2 <- inception_3c/3x3_reduce/bn
I0906 15:28:32.792168 89648 net.cpp:433] inception_3c/3x3_s2 -> inception_3c/3x3_s2
I0906 15:28:32.794076 89648 net.cpp:155] Setting up inception_3c/3x3_s2
I0906 15:28:32.794088 89648 net.cpp:163] Top shape: 32 160 14 14 (1003520)
I0906 15:28:32.794106 89648 layer_factory.hpp:76] Creating layer BN_00000019
I0906 15:28:32.794112 89648 net.cpp:110] Creating Layer BN_00000019
I0906 15:28:32.794116 89648 net.cpp:477] BN_00000019 <- inception_3c/3x3_s2
I0906 15:28:32.794123 89648 net.cpp:433] BN_00000019 -> inception_3c/3x3_s2/bn
I0906 15:28:32.794162 89648 net.cpp:155] Setting up BN_00000019
I0906 15:28:32.794167 89648 net.cpp:163] Top shape: 32 160 14 14 (1003520)
I0906 15:28:32.794175 89648 layer_factory.hpp:76] Creating layer inception_3c/relu_3x3
I0906 15:28:32.794180 89648 net.cpp:110] Creating Layer inception_3c/relu_3x3
I0906 15:28:32.794184 89648 net.cpp:477] inception_3c/relu_3x3 <- inception_3c/3x3_s2/bn
I0906 15:28:32.794188 89648 net.cpp:419] inception_3c/relu_3x3 -> inception_3c/3x3_s2/bn (in-place)
I0906 15:28:32.794194 89648 net.cpp:155] Setting up inception_3c/relu_3x3
I0906 15:28:32.794198 89648 net.cpp:163] Top shape: 32 160 14 14 (1003520)
I0906 15:28:32.794201 89648 layer_factory.hpp:76] Creating layer inception_3c/double3x3_reduce
I0906 15:28:32.794208 89648 net.cpp:110] Creating Layer inception_3c/double3x3_reduce
I0906 15:28:32.794210 89648 net.cpp:477] inception_3c/double3x3_reduce <- inception_3b/output_inception_3b/output_0_split_1
I0906 15:28:32.794219 89648 net.cpp:433] inception_3c/double3x3_reduce -> inception_3c/double3x3_reduce
I0906 15:28:32.794961 89648 net.cpp:155] Setting up inception_3c/double3x3_reduce
I0906 15:28:32.794973 89648 net.cpp:163] Top shape: 32 64 28 28 (1605632)
I0906 15:28:32.794981 89648 layer_factory.hpp:76] Creating layer BN_00000020
I0906 15:28:32.794986 89648 net.cpp:110] Creating Layer BN_00000020
I0906 15:28:32.794991 89648 net.cpp:477] BN_00000020 <- inception_3c/double3x3_reduce
I0906 15:28:32.794997 89648 net.cpp:433] BN_00000020 -> inception_3c/double3x3_reduce/bn
I0906 15:28:32.795029 89648 net.cpp:155] Setting up BN_00000020
I0906 15:28:32.795034 89648 net.cpp:163] Top shape: 32 64 28 28 (1605632)
I0906 15:28:32.795043 89648 layer_factory.hpp:76] Creating layer inception_3c/relu_double3x3_reduce
I0906 15:28:32.795048 89648 net.cpp:110] Creating Layer inception_3c/relu_double3x3_reduce
I0906 15:28:32.795053 89648 net.cpp:477] inception_3c/relu_double3x3_reduce <- inception_3c/double3x3_reduce/bn
I0906 15:28:32.795056 89648 net.cpp:419] inception_3c/relu_double3x3_reduce -> inception_3c/double3x3_reduce/bn (in-place)
I0906 15:28:32.795073 89648 net.cpp:155] Setting up inception_3c/relu_double3x3_reduce
I0906 15:28:32.795078 89648 net.cpp:163] Top shape: 32 64 28 28 (1605632)
I0906 15:28:32.795081 89648 layer_factory.hpp:76] Creating layer inception_3c/double3x3_mid
I0906 15:28:32.795088 89648 net.cpp:110] Creating Layer inception_3c/double3x3_mid
I0906 15:28:32.795090 89648 net.cpp:477] inception_3c/double3x3_mid <- inception_3c/double3x3_reduce/bn
I0906 15:28:32.795099 89648 net.cpp:433] inception_3c/double3x3_mid -> inception_3c/double3x3_mid
I0906 15:28:32.795560 89648 net.cpp:155] Setting up inception_3c/double3x3_mid
I0906 15:28:32.795569 89648 net.cpp:163] Top shape: 32 96 28 28 (2408448)
I0906 15:28:32.795586 89648 layer_factory.hpp:76] Creating layer BN_00000021
I0906 15:28:32.795591 89648 net.cpp:110] Creating Layer BN_00000021
I0906 15:28:32.795594 89648 net.cpp:477] BN_00000021 <- inception_3c/double3x3_mid
I0906 15:28:32.795601 89648 net.cpp:433] BN_00000021 -> inception_3c/double3x3_mid/bn
I0906 15:28:32.795634 89648 net.cpp:155] Setting up BN_00000021
I0906 15:28:32.795639 89648 net.cpp:163] Top shape: 32 96 28 28 (2408448)
I0906 15:28:32.795645 89648 layer_factory.hpp:76] Creating layer inception_3c/relu_double3x3_mid
I0906 15:28:32.795652 89648 net.cpp:110] Creating Layer inception_3c/relu_double3x3_mid
I0906 15:28:32.795655 89648 net.cpp:477] inception_3c/relu_double3x3_mid <- inception_3c/double3x3_mid/bn
I0906 15:28:32.795660 89648 net.cpp:419] inception_3c/relu_double3x3_mid -> inception_3c/double3x3_mid/bn (in-place)
I0906 15:28:32.795665 89648 net.cpp:155] Setting up inception_3c/relu_double3x3_mid
I0906 15:28:32.795678 89648 net.cpp:163] Top shape: 32 96 28 28 (2408448)
I0906 15:28:32.795681 89648 layer_factory.hpp:76] Creating layer inception_3c/double3x3
I0906 15:28:32.795687 89648 net.cpp:110] Creating Layer inception_3c/double3x3
I0906 15:28:32.795691 89648 net.cpp:477] inception_3c/double3x3 <- inception_3c/double3x3_mid/bn
I0906 15:28:32.795696 89648 net.cpp:433] inception_3c/double3x3 -> inception_3c/double3x3_s2
I0906 15:28:32.796363 89648 net.cpp:155] Setting up inception_3c/double3x3
I0906 15:28:32.796372 89648 net.cpp:163] Top shape: 32 96 14 14 (602112)
I0906 15:28:32.796378 89648 layer_factory.hpp:76] Creating layer BN_00000022
I0906 15:28:32.796383 89648 net.cpp:110] Creating Layer BN_00000022
I0906 15:28:32.796386 89648 net.cpp:477] BN_00000022 <- inception_3c/double3x3_s2
I0906 15:28:32.796391 89648 net.cpp:433] BN_00000022 -> inception_3c/double3x3_s2/bn
I0906 15:28:32.796425 89648 net.cpp:155] Setting up BN_00000022
I0906 15:28:32.796432 89648 net.cpp:163] Top shape: 32 96 14 14 (602112)
I0906 15:28:32.796437 89648 layer_factory.hpp:76] Creating layer inception_3c/relu_double3x3
I0906 15:28:32.796442 89648 net.cpp:110] Creating Layer inception_3c/relu_double3x3
I0906 15:28:32.796445 89648 net.cpp:477] inception_3c/relu_double3x3 <- inception_3c/double3x3_s2/bn
I0906 15:28:32.796450 89648 net.cpp:419] inception_3c/relu_double3x3 -> inception_3c/double3x3_s2/bn (in-place)
I0906 15:28:32.796455 89648 net.cpp:155] Setting up inception_3c/relu_double3x3
I0906 15:28:32.796459 89648 net.cpp:163] Top shape: 32 96 14 14 (602112)
I0906 15:28:32.796463 89648 layer_factory.hpp:76] Creating layer inception_3c/pool
I0906 15:28:32.796470 89648 net.cpp:110] Creating Layer inception_3c/pool
I0906 15:28:32.796473 89648 net.cpp:477] inception_3c/pool <- inception_3b/output_inception_3b/output_0_split_2
I0906 15:28:32.796478 89648 net.cpp:433] inception_3c/pool -> inception_3c/pool
I0906 15:28:32.796486 89648 net.cpp:155] Setting up inception_3c/pool
I0906 15:28:32.796490 89648 net.cpp:163] Top shape: 32 320 14 14 (2007040)
I0906 15:28:32.796494 89648 layer_factory.hpp:76] Creating layer BN_00000023
I0906 15:28:32.796499 89648 net.cpp:110] Creating Layer BN_00000023
I0906 15:28:32.796502 89648 net.cpp:477] BN_00000023 <- inception_3c/pool
I0906 15:28:32.796506 89648 net.cpp:433] BN_00000023 -> inception_3c/pool/bn
I0906 15:28:32.796540 89648 net.cpp:155] Setting up BN_00000023
I0906 15:28:32.796545 89648 net.cpp:163] Top shape: 32 320 14 14 (2007040)
I0906 15:28:32.796561 89648 layer_factory.hpp:76] Creating layer inception_3c/relu_pool
I0906 15:28:32.796566 89648 net.cpp:110] Creating Layer inception_3c/relu_pool
I0906 15:28:32.796571 89648 net.cpp:477] inception_3c/relu_pool <- inception_3c/pool/bn
I0906 15:28:32.796576 89648 net.cpp:419] inception_3c/relu_pool -> inception_3c/pool/bn (in-place)
I0906 15:28:32.796582 89648 net.cpp:155] Setting up inception_3c/relu_pool
I0906 15:28:32.796586 89648 net.cpp:163] Top shape: 32 320 14 14 (2007040)
I0906 15:28:32.796589 89648 layer_factory.hpp:76] Creating layer inception_3c/output
I0906 15:28:32.796594 89648 net.cpp:110] Creating Layer inception_3c/output
I0906 15:28:32.796598 89648 net.cpp:477] inception_3c/output <- inception_3c/3x3_s2/bn
I0906 15:28:32.796602 89648 net.cpp:477] inception_3c/output <- inception_3c/double3x3_s2/bn
I0906 15:28:32.796607 89648 net.cpp:477] inception_3c/output <- inception_3c/pool/bn
I0906 15:28:32.796610 89648 net.cpp:433] inception_3c/output -> inception_3c/output
I0906 15:28:32.796617 89648 net.cpp:155] Setting up inception_3c/output
I0906 15:28:32.796622 89648 net.cpp:163] Top shape: 32 576 14 14 (3612672)
I0906 15:28:32.796624 89648 layer_factory.hpp:76] Creating layer inception_3c/output_inception_3c/output_0_split
I0906 15:28:32.796630 89648 net.cpp:110] Creating Layer inception_3c/output_inception_3c/output_0_split
I0906 15:28:32.796633 89648 net.cpp:477] inception_3c/output_inception_3c/output_0_split <- inception_3c/output
I0906 15:28:32.796638 89648 net.cpp:433] inception_3c/output_inception_3c/output_0_split -> inception_3c/output_inception_3c/output_0_split_0
I0906 15:28:32.796644 89648 net.cpp:433] inception_3c/output_inception_3c/output_0_split -> inception_3c/output_inception_3c/output_0_split_1
I0906 15:28:32.796650 89648 net.cpp:433] inception_3c/output_inception_3c/output_0_split -> inception_3c/output_inception_3c/output_0_split_2
I0906 15:28:32.796656 89648 net.cpp:433] inception_3c/output_inception_3c/output_0_split -> inception_3c/output_inception_3c/output_0_split_3
I0906 15:28:32.796663 89648 net.cpp:155] Setting up inception_3c/output_inception_3c/output_0_split
I0906 15:28:32.796666 89648 net.cpp:163] Top shape: 32 576 14 14 (3612672)
I0906 15:28:32.796670 89648 net.cpp:163] Top shape: 32 576 14 14 (3612672)
I0906 15:28:32.796674 89648 net.cpp:163] Top shape: 32 576 14 14 (3612672)
I0906 15:28:32.796677 89648 net.cpp:163] Top shape: 32 576 14 14 (3612672)
I0906 15:28:32.796680 89648 layer_factory.hpp:76] Creating layer inception_4a/1x1
I0906 15:28:32.796689 89648 net.cpp:110] Creating Layer inception_4a/1x1
I0906 15:28:32.796691 89648 net.cpp:477] inception_4a/1x1 <- inception_3c/output_inception_3c/output_0_split_0
I0906 15:28:32.796696 89648 net.cpp:433] inception_4a/1x1 -> inception_4a/1x1
I0906 15:28:32.798207 89648 net.cpp:155] Setting up inception_4a/1x1
I0906 15:28:32.798220 89648 net.cpp:163] Top shape: 32 224 14 14 (1404928)
I0906 15:28:32.798228 89648 layer_factory.hpp:76] Creating layer BN_00000024
I0906 15:28:32.798233 89648 net.cpp:110] Creating Layer BN_00000024
I0906 15:28:32.798238 89648 net.cpp:477] BN_00000024 <- inception_4a/1x1
I0906 15:28:32.798243 89648 net.cpp:433] BN_00000024 -> inception_4a/1x1/bn
I0906 15:28:32.798279 89648 net.cpp:155] Setting up BN_00000024
I0906 15:28:32.798285 89648 net.cpp:163] Top shape: 32 224 14 14 (1404928)
I0906 15:28:32.798290 89648 layer_factory.hpp:76] Creating layer inception_4a/relu_1x1
I0906 15:28:32.798295 89648 net.cpp:110] Creating Layer inception_4a/relu_1x1
I0906 15:28:32.798298 89648 net.cpp:477] inception_4a/relu_1x1 <- inception_4a/1x1/bn
I0906 15:28:32.798305 89648 net.cpp:419] inception_4a/relu_1x1 -> inception_4a/1x1/bn (in-place)
I0906 15:28:32.798311 89648 net.cpp:155] Setting up inception_4a/relu_1x1
I0906 15:28:32.798316 89648 net.cpp:163] Top shape: 32 224 14 14 (1404928)
I0906 15:28:32.798318 89648 layer_factory.hpp:76] Creating layer inception_4a/3x3_reduce
I0906 15:28:32.798324 89648 net.cpp:110] Creating Layer inception_4a/3x3_reduce
I0906 15:28:32.798338 89648 net.cpp:477] inception_4a/3x3_reduce <- inception_3c/output_inception_3c/output_0_split_1
I0906 15:28:32.798344 89648 net.cpp:433] inception_4a/3x3_reduce -> inception_4a/3x3_reduce
I0906 15:28:32.798660 89648 net.cpp:155] Setting up inception_4a/3x3_reduce
I0906 15:28:32.798670 89648 net.cpp:163] Top shape: 32 64 14 14 (401408)
I0906 15:28:32.798676 89648 layer_factory.hpp:76] Creating layer BN_00000025
I0906 15:28:32.798681 89648 net.cpp:110] Creating Layer BN_00000025
I0906 15:28:32.798686 89648 net.cpp:477] BN_00000025 <- inception_4a/3x3_reduce
I0906 15:28:32.798691 89648 net.cpp:433] BN_00000025 -> inception_4a/3x3_reduce/bn
I0906 15:28:32.798725 89648 net.cpp:155] Setting up BN_00000025
I0906 15:28:32.798743 89648 net.cpp:163] Top shape: 32 64 14 14 (401408)
I0906 15:28:32.798748 89648 layer_factory.hpp:76] Creating layer inception_4a/relu_3x3_reduce
I0906 15:28:32.798753 89648 net.cpp:110] Creating Layer inception_4a/relu_3x3_reduce
I0906 15:28:32.798758 89648 net.cpp:477] inception_4a/relu_3x3_reduce <- inception_4a/3x3_reduce/bn
I0906 15:28:32.798761 89648 net.cpp:419] inception_4a/relu_3x3_reduce -> inception_4a/3x3_reduce/bn (in-place)
I0906 15:28:32.798768 89648 net.cpp:155] Setting up inception_4a/relu_3x3_reduce
I0906 15:28:32.798771 89648 net.cpp:163] Top shape: 32 64 14 14 (401408)
I0906 15:28:32.798774 89648 layer_factory.hpp:76] Creating layer inception_4a/3x3
I0906 15:28:32.798780 89648 net.cpp:110] Creating Layer inception_4a/3x3
I0906 15:28:32.798784 89648 net.cpp:477] inception_4a/3x3 <- inception_4a/3x3_reduce/bn
I0906 15:28:32.798790 89648 net.cpp:433] inception_4a/3x3 -> inception_4a/3x3
I0906 15:28:32.799242 89648 net.cpp:155] Setting up inception_4a/3x3
I0906 15:28:32.799250 89648 net.cpp:163] Top shape: 32 96 14 14 (602112)
I0906 15:28:32.799257 89648 layer_factory.hpp:76] Creating layer BN_00000026
I0906 15:28:32.799262 89648 net.cpp:110] Creating Layer BN_00000026
I0906 15:28:32.799265 89648 net.cpp:477] BN_00000026 <- inception_4a/3x3
I0906 15:28:32.799270 89648 net.cpp:433] BN_00000026 -> inception_4a/3x3/bn
I0906 15:28:32.799302 89648 net.cpp:155] Setting up BN_00000026
I0906 15:28:32.799309 89648 net.cpp:163] Top shape: 32 96 14 14 (602112)
I0906 15:28:32.799314 89648 layer_factory.hpp:76] Creating layer inception_4a/relu_3x3
I0906 15:28:32.799319 89648 net.cpp:110] Creating Layer inception_4a/relu_3x3
I0906 15:28:32.799322 89648 net.cpp:477] inception_4a/relu_3x3 <- inception_4a/3x3/bn
I0906 15:28:32.799329 89648 net.cpp:419] inception_4a/relu_3x3 -> inception_4a/3x3/bn (in-place)
I0906 15:28:32.799335 89648 net.cpp:155] Setting up inception_4a/relu_3x3
I0906 15:28:32.799338 89648 net.cpp:163] Top shape: 32 96 14 14 (602112)
I0906 15:28:32.799341 89648 layer_factory.hpp:76] Creating layer inception_4a/double3x3_reduce
I0906 15:28:32.799347 89648 net.cpp:110] Creating Layer inception_4a/double3x3_reduce
I0906 15:28:32.799351 89648 net.cpp:477] inception_4a/double3x3_reduce <- inception_3c/output_inception_3c/output_0_split_2
I0906 15:28:32.799356 89648 net.cpp:433] inception_4a/double3x3_reduce -> inception_4a/double3x3_reduce
I0906 15:28:32.799816 89648 net.cpp:155] Setting up inception_4a/double3x3_reduce
I0906 15:28:32.799826 89648 net.cpp:163] Top shape: 32 96 14 14 (602112)
I0906 15:28:32.799844 89648 layer_factory.hpp:76] Creating layer BN_00000027
I0906 15:28:32.799850 89648 net.cpp:110] Creating Layer BN_00000027
I0906 15:28:32.799854 89648 net.cpp:477] BN_00000027 <- inception_4a/double3x3_reduce
I0906 15:28:32.799860 89648 net.cpp:433] BN_00000027 -> inception_4a/double3x3_reduce/bn
I0906 15:28:32.799891 89648 net.cpp:155] Setting up BN_00000027
I0906 15:28:32.799896 89648 net.cpp:163] Top shape: 32 96 14 14 (602112)
I0906 15:28:32.799902 89648 layer_factory.hpp:76] Creating layer inception_4a/relu_double3x3_reduce
I0906 15:28:32.799907 89648 net.cpp:110] Creating Layer inception_4a/relu_double3x3_reduce
I0906 15:28:32.799911 89648 net.cpp:477] inception_4a/relu_double3x3_reduce <- inception_4a/double3x3_reduce/bn
I0906 15:28:32.799916 89648 net.cpp:419] inception_4a/relu_double3x3_reduce -> inception_4a/double3x3_reduce/bn (in-place)
I0906 15:28:32.799931 89648 net.cpp:155] Setting up inception_4a/relu_double3x3_reduce
I0906 15:28:32.799935 89648 net.cpp:163] Top shape: 32 96 14 14 (602112)
I0906 15:28:32.799938 89648 layer_factory.hpp:76] Creating layer inception_4a/double3x3_mid
I0906 15:28:32.799944 89648 net.cpp:110] Creating Layer inception_4a/double3x3_mid
I0906 15:28:32.799947 89648 net.cpp:477] inception_4a/double3x3_mid <- inception_4a/double3x3_reduce/bn
I0906 15:28:32.799955 89648 net.cpp:433] inception_4a/double3x3_mid -> inception_4a/double3x3_mid
I0906 15:28:32.800817 89648 net.cpp:155] Setting up inception_4a/double3x3_mid
I0906 15:28:32.800825 89648 net.cpp:163] Top shape: 32 128 14 14 (802816)
I0906 15:28:32.800832 89648 layer_factory.hpp:76] Creating layer BN_00000028
I0906 15:28:32.800837 89648 net.cpp:110] Creating Layer BN_00000028
I0906 15:28:32.800840 89648 net.cpp:477] BN_00000028 <- inception_4a/double3x3_mid
I0906 15:28:32.800845 89648 net.cpp:433] BN_00000028 -> inception_4a/double3x3_mid/bn
I0906 15:28:32.800874 89648 net.cpp:155] Setting up BN_00000028
I0906 15:28:32.800879 89648 net.cpp:163] Top shape: 32 128 14 14 (802816)
I0906 15:28:32.800885 89648 layer_factory.hpp:76] Creating layer inception_4a/relu_double3x3_mid
I0906 15:28:32.800891 89648 net.cpp:110] Creating Layer inception_4a/relu_double3x3_mid
I0906 15:28:32.800894 89648 net.cpp:477] inception_4a/relu_double3x3_mid <- inception_4a/double3x3_mid/bn
I0906 15:28:32.800899 89648 net.cpp:419] inception_4a/relu_double3x3_mid -> inception_4a/double3x3_mid/bn (in-place)
I0906 15:28:32.800904 89648 net.cpp:155] Setting up inception_4a/relu_double3x3_mid
I0906 15:28:32.800909 89648 net.cpp:163] Top shape: 32 128 14 14 (802816)
I0906 15:28:32.800912 89648 layer_factory.hpp:76] Creating layer inception_4a/double3x3
I0906 15:28:32.800920 89648 net.cpp:110] Creating Layer inception_4a/double3x3
I0906 15:28:32.800930 89648 net.cpp:477] inception_4a/double3x3 <- inception_4a/double3x3_mid/bn
I0906 15:28:32.800935 89648 net.cpp:433] inception_4a/double3x3 -> inception_4a/double3x3
I0906 15:28:32.802564 89648 net.cpp:155] Setting up inception_4a/double3x3
I0906 15:28:32.802577 89648 net.cpp:163] Top shape: 32 128 14 14 (802816)
I0906 15:28:32.802594 89648 layer_factory.hpp:76] Creating layer BN_00000029
I0906 15:28:32.802603 89648 net.cpp:110] Creating Layer BN_00000029
I0906 15:28:32.802606 89648 net.cpp:477] BN_00000029 <- inception_4a/double3x3
I0906 15:28:32.802613 89648 net.cpp:433] BN_00000029 -> inception_4a/double3x3/bn
I0906 15:28:32.802642 89648 net.cpp:155] Setting up BN_00000029
I0906 15:28:32.802647 89648 net.cpp:163] Top shape: 32 128 14 14 (802816)
I0906 15:28:32.802655 89648 layer_factory.hpp:76] Creating layer inception_4a/relu_double3x3
I0906 15:28:32.802661 89648 net.cpp:110] Creating Layer inception_4a/relu_double3x3
I0906 15:28:32.802664 89648 net.cpp:477] inception_4a/relu_double3x3 <- inception_4a/double3x3/bn
I0906 15:28:32.802670 89648 net.cpp:419] inception_4a/relu_double3x3 -> inception_4a/double3x3/bn (in-place)
I0906 15:28:32.802676 89648 net.cpp:155] Setting up inception_4a/relu_double3x3
I0906 15:28:32.802680 89648 net.cpp:163] Top shape: 32 128 14 14 (802816)
I0906 15:28:32.802683 89648 layer_factory.hpp:76] Creating layer inception_4a/pool
I0906 15:28:32.802688 89648 net.cpp:110] Creating Layer inception_4a/pool
I0906 15:28:32.802692 89648 net.cpp:477] inception_4a/pool <- inception_3c/output_inception_3c/output_0_split_3
I0906 15:28:32.802697 89648 net.cpp:433] inception_4a/pool -> inception_4a/pool
I0906 15:28:32.802705 89648 net.cpp:155] Setting up inception_4a/pool
I0906 15:28:32.802708 89648 net.cpp:163] Top shape: 32 576 14 14 (3612672)
I0906 15:28:32.802711 89648 layer_factory.hpp:76] Creating layer inception_4a/pool_proj
I0906 15:28:32.802721 89648 net.cpp:110] Creating Layer inception_4a/pool_proj
I0906 15:28:32.802723 89648 net.cpp:477] inception_4a/pool_proj <- inception_4a/pool
I0906 15:28:32.802729 89648 net.cpp:433] inception_4a/pool_proj -> inception_4a/pool_proj
I0906 15:28:32.803333 89648 net.cpp:155] Setting up inception_4a/pool_proj
I0906 15:28:32.803344 89648 net.cpp:163] Top shape: 32 128 14 14 (802816)
I0906 15:28:32.803349 89648 layer_factory.hpp:76] Creating layer BN_00000030
I0906 15:28:32.803354 89648 net.cpp:110] Creating Layer BN_00000030
I0906 15:28:32.803359 89648 net.cpp:477] BN_00000030 <- inception_4a/pool_proj
I0906 15:28:32.803364 89648 net.cpp:433] BN_00000030 -> inception_4a/pool_proj/bn
I0906 15:28:32.803392 89648 net.cpp:155] Setting up BN_00000030
I0906 15:28:32.803398 89648 net.cpp:163] Top shape: 32 128 14 14 (802816)
I0906 15:28:32.803405 89648 layer_factory.hpp:76] Creating layer inception_4a/relu_pool_proj
I0906 15:28:32.803410 89648 net.cpp:110] Creating Layer inception_4a/relu_pool_proj
I0906 15:28:32.803413 89648 net.cpp:477] inception_4a/relu_pool_proj <- inception_4a/pool_proj/bn
I0906 15:28:32.803417 89648 net.cpp:419] inception_4a/relu_pool_proj -> inception_4a/pool_proj/bn (in-place)
I0906 15:28:32.803422 89648 net.cpp:155] Setting up inception_4a/relu_pool_proj
I0906 15:28:32.803426 89648 net.cpp:163] Top shape: 32 128 14 14 (802816)
I0906 15:28:32.803429 89648 layer_factory.hpp:76] Creating layer inception_4a/output
I0906 15:28:32.803437 89648 net.cpp:110] Creating Layer inception_4a/output
I0906 15:28:32.803441 89648 net.cpp:477] inception_4a/output <- inception_4a/1x1/bn
I0906 15:28:32.803444 89648 net.cpp:477] inception_4a/output <- inception_4a/3x3/bn
I0906 15:28:32.803448 89648 net.cpp:477] inception_4a/output <- inception_4a/double3x3/bn
I0906 15:28:32.803452 89648 net.cpp:477] inception_4a/output <- inception_4a/pool_proj/bn
I0906 15:28:32.803457 89648 net.cpp:433] inception_4a/output -> inception_4a/output
I0906 15:28:32.803463 89648 net.cpp:155] Setting up inception_4a/output
I0906 15:28:32.803468 89648 net.cpp:163] Top shape: 32 576 14 14 (3612672)
I0906 15:28:32.803472 89648 layer_factory.hpp:76] Creating layer inception_4a/output_inception_4a/output_0_split
I0906 15:28:32.803478 89648 net.cpp:110] Creating Layer inception_4a/output_inception_4a/output_0_split
I0906 15:28:32.803480 89648 net.cpp:477] inception_4a/output_inception_4a/output_0_split <- inception_4a/output
I0906 15:28:32.803485 89648 net.cpp:433] inception_4a/output_inception_4a/output_0_split -> inception_4a/output_inception_4a/output_0_split_0
I0906 15:28:32.803491 89648 net.cpp:433] inception_4a/output_inception_4a/output_0_split -> inception_4a/output_inception_4a/output_0_split_1
I0906 15:28:32.803498 89648 net.cpp:433] inception_4a/output_inception_4a/output_0_split -> inception_4a/output_inception_4a/output_0_split_2
I0906 15:28:32.803503 89648 net.cpp:433] inception_4a/output_inception_4a/output_0_split -> inception_4a/output_inception_4a/output_0_split_3
I0906 15:28:32.803508 89648 net.cpp:433] inception_4a/output_inception_4a/output_0_split -> inception_4a/output_inception_4a/output_0_split_4
I0906 15:28:32.803517 89648 net.cpp:155] Setting up inception_4a/output_inception_4a/output_0_split
I0906 15:28:32.803522 89648 net.cpp:163] Top shape: 32 576 14 14 (3612672)
I0906 15:28:32.803526 89648 net.cpp:163] Top shape: 32 576 14 14 (3612672)
I0906 15:28:32.803530 89648 net.cpp:163] Top shape: 32 576 14 14 (3612672)
I0906 15:28:32.803534 89648 net.cpp:163] Top shape: 32 576 14 14 (3612672)
I0906 15:28:32.803537 89648 net.cpp:163] Top shape: 32 576 14 14 (3612672)
I0906 15:28:32.803541 89648 layer_factory.hpp:76] Creating layer loss1/ave_pool
I0906 15:28:32.803546 89648 net.cpp:110] Creating Layer loss1/ave_pool
I0906 15:28:32.803550 89648 net.cpp:477] loss1/ave_pool <- inception_4a/output_inception_4a/output_0_split_0
I0906 15:28:32.803555 89648 net.cpp:433] loss1/ave_pool -> loss1/ave_pool
I0906 15:28:32.803560 89648 net.cpp:155] Setting up loss1/ave_pool
I0906 15:28:32.803565 89648 net.cpp:163] Top shape: 32 576 4 4 (294912)
I0906 15:28:32.803568 89648 layer_factory.hpp:76] Creating layer loss1/conv
I0906 15:28:32.803575 89648 net.cpp:110] Creating Layer loss1/conv
I0906 15:28:32.803577 89648 net.cpp:477] loss1/conv <- loss1/ave_pool
I0906 15:28:32.803596 89648 net.cpp:433] loss1/conv -> loss1/conv
I0906 15:28:32.804191 89648 net.cpp:155] Setting up loss1/conv
I0906 15:28:32.804201 89648 net.cpp:163] Top shape: 32 128 4 4 (65536)
I0906 15:28:32.804219 89648 layer_factory.hpp:76] Creating layer BN_00000031
I0906 15:28:32.804224 89648 net.cpp:110] Creating Layer BN_00000031
I0906 15:28:32.804227 89648 net.cpp:477] BN_00000031 <- loss1/conv
I0906 15:28:32.804234 89648 net.cpp:433] BN_00000031 -> loss1/conv/bn
I0906 15:28:32.804262 89648 net.cpp:155] Setting up BN_00000031
I0906 15:28:32.804267 89648 net.cpp:163] Top shape: 32 128 4 4 (65536)
I0906 15:28:32.804275 89648 layer_factory.hpp:76] Creating layer loss1/relu_conv
I0906 15:28:32.804280 89648 net.cpp:110] Creating Layer loss1/relu_conv
I0906 15:28:32.804283 89648 net.cpp:477] loss1/relu_conv <- loss1/conv/bn
I0906 15:28:32.804287 89648 net.cpp:419] loss1/relu_conv -> loss1/conv/bn (in-place)
I0906 15:28:32.804293 89648 net.cpp:155] Setting up loss1/relu_conv
I0906 15:28:32.804297 89648 net.cpp:163] Top shape: 32 128 4 4 (65536)
I0906 15:28:32.804301 89648 layer_factory.hpp:76] Creating layer loss1/fc
I0906 15:28:32.804309 89648 net.cpp:110] Creating Layer loss1/fc
I0906 15:28:32.804313 89648 net.cpp:477] loss1/fc <- loss1/conv/bn
I0906 15:28:32.804319 89648 net.cpp:433] loss1/fc -> loss1/fc
I0906 15:28:32.822679 89648 net.cpp:155] Setting up loss1/fc
I0906 15:28:32.822710 89648 net.cpp:163] Top shape: 32 1024 (32768)
I0906 15:28:32.822718 89648 layer_factory.hpp:76] Creating layer BN_00000032
I0906 15:28:32.822726 89648 net.cpp:110] Creating Layer BN_00000032
I0906 15:28:32.822731 89648 net.cpp:477] BN_00000032 <- loss1/fc
I0906 15:28:32.822738 89648 net.cpp:433] BN_00000032 -> loss1/fc/bn
I0906 15:28:32.822770 89648 net.cpp:155] Setting up BN_00000032
I0906 15:28:32.822775 89648 net.cpp:163] Top shape: 32 1024 (32768)
I0906 15:28:32.822782 89648 layer_factory.hpp:76] Creating layer loss1/relu_fc
I0906 15:28:32.822788 89648 net.cpp:110] Creating Layer loss1/relu_fc
I0906 15:28:32.822793 89648 net.cpp:477] loss1/relu_fc <- loss1/fc/bn
I0906 15:28:32.822799 89648 net.cpp:419] loss1/relu_fc -> loss1/fc/bn (in-place)
I0906 15:28:32.822806 89648 net.cpp:155] Setting up loss1/relu_fc
I0906 15:28:32.822810 89648 net.cpp:163] Top shape: 32 1024 (32768)
I0906 15:28:32.822813 89648 layer_factory.hpp:76] Creating layer loss1/drop_fc
I0906 15:28:32.822824 89648 net.cpp:110] Creating Layer loss1/drop_fc
I0906 15:28:32.822826 89648 net.cpp:477] loss1/drop_fc <- loss1/fc/bn
I0906 15:28:32.822832 89648 net.cpp:419] loss1/drop_fc -> loss1/fc/bn (in-place)
I0906 15:28:32.822846 89648 net.cpp:155] Setting up loss1/drop_fc
I0906 15:28:32.822850 89648 net.cpp:163] Top shape: 32 1024 (32768)
I0906 15:28:32.822854 89648 layer_factory.hpp:76] Creating layer loss1/classifier
I0906 15:28:32.822861 89648 net.cpp:110] Creating Layer loss1/classifier
I0906 15:28:32.822865 89648 net.cpp:477] loss1/classifier <- loss1/fc/bn
I0906 15:28:32.822870 89648 net.cpp:433] loss1/classifier -> loss1/classifier
I0906 15:28:32.832070 89648 net.cpp:155] Setting up loss1/classifier
I0906 15:28:32.832094 89648 net.cpp:163] Top shape: 32 1000 (32000)
I0906 15:28:32.832103 89648 layer_factory.hpp:76] Creating layer loss1/loss
I0906 15:28:32.832113 89648 net.cpp:110] Creating Layer loss1/loss
I0906 15:28:32.832116 89648 net.cpp:477] loss1/loss <- loss1/classifier
I0906 15:28:32.832121 89648 net.cpp:477] loss1/loss <- label_data_1_split_0
I0906 15:28:32.832128 89648 net.cpp:433] loss1/loss -> loss1/loss1
I0906 15:28:32.832140 89648 layer_factory.hpp:76] Creating layer loss1/loss
I0906 15:28:32.832238 89648 net.cpp:155] Setting up loss1/loss
I0906 15:28:32.832247 89648 net.cpp:163] Top shape: (1)
I0906 15:28:32.832250 89648 net.cpp:168]     with loss weight 0.3
I0906 15:28:32.832286 89648 layer_factory.hpp:76] Creating layer inception_4b/1x1
I0906 15:28:32.832295 89648 net.cpp:110] Creating Layer inception_4b/1x1
I0906 15:28:32.832300 89648 net.cpp:477] inception_4b/1x1 <- inception_4a/output_inception_4a/output_0_split_1
I0906 15:28:32.832308 89648 net.cpp:433] inception_4b/1x1 -> inception_4b/1x1
I0906 15:28:32.833717 89648 net.cpp:155] Setting up inception_4b/1x1
I0906 15:28:32.833730 89648 net.cpp:163] Top shape: 32 192 14 14 (1204224)
I0906 15:28:32.833765 89648 layer_factory.hpp:76] Creating layer BN_00000033
I0906 15:28:32.833773 89648 net.cpp:110] Creating Layer BN_00000033
I0906 15:28:32.833777 89648 net.cpp:477] BN_00000033 <- inception_4b/1x1
I0906 15:28:32.833783 89648 net.cpp:433] BN_00000033 -> inception_4b/1x1/bn
I0906 15:28:32.833822 89648 net.cpp:155] Setting up BN_00000033
I0906 15:28:32.833828 89648 net.cpp:163] Top shape: 32 192 14 14 (1204224)
I0906 15:28:32.833834 89648 layer_factory.hpp:76] Creating layer inception_4b/relu_1x1
I0906 15:28:32.833840 89648 net.cpp:110] Creating Layer inception_4b/relu_1x1
I0906 15:28:32.833843 89648 net.cpp:477] inception_4b/relu_1x1 <- inception_4b/1x1/bn
I0906 15:28:32.833850 89648 net.cpp:419] inception_4b/relu_1x1 -> inception_4b/1x1/bn (in-place)
I0906 15:28:32.833856 89648 net.cpp:155] Setting up inception_4b/relu_1x1
I0906 15:28:32.833860 89648 net.cpp:163] Top shape: 32 192 14 14 (1204224)
I0906 15:28:32.833864 89648 layer_factory.hpp:76] Creating layer inception_4b/3x3_reduce
I0906 15:28:32.833870 89648 net.cpp:110] Creating Layer inception_4b/3x3_reduce
I0906 15:28:32.833874 89648 net.cpp:477] inception_4b/3x3_reduce <- inception_4a/output_inception_4a/output_0_split_2
I0906 15:28:32.833883 89648 net.cpp:433] inception_4b/3x3_reduce -> inception_4b/3x3_reduce
I0906 15:28:32.834872 89648 net.cpp:155] Setting up inception_4b/3x3_reduce
I0906 15:28:32.834883 89648 net.cpp:163] Top shape: 32 96 14 14 (602112)
I0906 15:28:32.834890 89648 layer_factory.hpp:76] Creating layer BN_00000034
I0906 15:28:32.834897 89648 net.cpp:110] Creating Layer BN_00000034
I0906 15:28:32.834902 89648 net.cpp:477] BN_00000034 <- inception_4b/3x3_reduce
I0906 15:28:32.834906 89648 net.cpp:433] BN_00000034 -> inception_4b/3x3_reduce/bn
I0906 15:28:32.834944 89648 net.cpp:155] Setting up BN_00000034
I0906 15:28:32.834949 89648 net.cpp:163] Top shape: 32 96 14 14 (602112)
I0906 15:28:32.834955 89648 layer_factory.hpp:76] Creating layer inception_4b/relu_3x3_reduce
I0906 15:28:32.834961 89648 net.cpp:110] Creating Layer inception_4b/relu_3x3_reduce
I0906 15:28:32.834964 89648 net.cpp:477] inception_4b/relu_3x3_reduce <- inception_4b/3x3_reduce/bn
I0906 15:28:32.834970 89648 net.cpp:419] inception_4b/relu_3x3_reduce -> inception_4b/3x3_reduce/bn (in-place)
I0906 15:28:32.834976 89648 net.cpp:155] Setting up inception_4b/relu_3x3_reduce
I0906 15:28:32.834980 89648 net.cpp:163] Top shape: 32 96 14 14 (602112)
I0906 15:28:32.834983 89648 layer_factory.hpp:76] Creating layer inception_4b/3x3
I0906 15:28:32.834992 89648 net.cpp:110] Creating Layer inception_4b/3x3
I0906 15:28:32.834995 89648 net.cpp:477] inception_4b/3x3 <- inception_4b/3x3_reduce/bn
I0906 15:28:32.835002 89648 net.cpp:433] inception_4b/3x3 -> inception_4b/3x3
I0906 15:28:32.835847 89648 net.cpp:155] Setting up inception_4b/3x3
I0906 15:28:32.835858 89648 net.cpp:163] Top shape: 32 128 14 14 (802816)
I0906 15:28:32.835875 89648 layer_factory.hpp:76] Creating layer BN_00000035
I0906 15:28:32.835880 89648 net.cpp:110] Creating Layer BN_00000035
I0906 15:28:32.835885 89648 net.cpp:477] BN_00000035 <- inception_4b/3x3
I0906 15:28:32.835891 89648 net.cpp:433] BN_00000035 -> inception_4b/3x3/bn
I0906 15:28:32.835921 89648 net.cpp:155] Setting up BN_00000035
I0906 15:28:32.835925 89648 net.cpp:163] Top shape: 32 128 14 14 (802816)
I0906 15:28:32.835932 89648 layer_factory.hpp:76] Creating layer inception_4b/relu_3x3
I0906 15:28:32.835938 89648 net.cpp:110] Creating Layer inception_4b/relu_3x3
I0906 15:28:32.835942 89648 net.cpp:477] inception_4b/relu_3x3 <- inception_4b/3x3/bn
I0906 15:28:32.835947 89648 net.cpp:419] inception_4b/relu_3x3 -> inception_4b/3x3/bn (in-place)
I0906 15:28:32.835952 89648 net.cpp:155] Setting up inception_4b/relu_3x3
I0906 15:28:32.835957 89648 net.cpp:163] Top shape: 32 128 14 14 (802816)
I0906 15:28:32.835959 89648 layer_factory.hpp:76] Creating layer inception_4b/double3x3_reduce
I0906 15:28:32.835978 89648 net.cpp:110] Creating Layer inception_4b/double3x3_reduce
I0906 15:28:32.835980 89648 net.cpp:477] inception_4b/double3x3_reduce <- inception_4a/output_inception_4a/output_0_split_3
I0906 15:28:32.835986 89648 net.cpp:433] inception_4b/double3x3_reduce -> inception_4b/double3x3_reduce
I0906 15:28:32.836436 89648 net.cpp:155] Setting up inception_4b/double3x3_reduce
I0906 15:28:32.836444 89648 net.cpp:163] Top shape: 32 96 14 14 (602112)
I0906 15:28:32.836451 89648 layer_factory.hpp:76] Creating layer BN_00000036
I0906 15:28:32.836473 89648 net.cpp:110] Creating Layer BN_00000036
I0906 15:28:32.836478 89648 net.cpp:477] BN_00000036 <- inception_4b/double3x3_reduce
I0906 15:28:32.836485 89648 net.cpp:433] BN_00000036 -> inception_4b/double3x3_reduce/bn
I0906 15:28:32.836518 89648 net.cpp:155] Setting up BN_00000036
I0906 15:28:32.836524 89648 net.cpp:163] Top shape: 32 96 14 14 (602112)
I0906 15:28:32.836529 89648 layer_factory.hpp:76] Creating layer inception_4b/relu_double3x3_reduce
I0906 15:28:32.836536 89648 net.cpp:110] Creating Layer inception_4b/relu_double3x3_reduce
I0906 15:28:32.836540 89648 net.cpp:477] inception_4b/relu_double3x3_reduce <- inception_4b/double3x3_reduce/bn
I0906 15:28:32.836545 89648 net.cpp:419] inception_4b/relu_double3x3_reduce -> inception_4b/double3x3_reduce/bn (in-place)
I0906 15:28:32.836550 89648 net.cpp:155] Setting up inception_4b/relu_double3x3_reduce
I0906 15:28:32.836555 89648 net.cpp:163] Top shape: 32 96 14 14 (602112)
I0906 15:28:32.836557 89648 layer_factory.hpp:76] Creating layer inception_4b/double3x3_mid
I0906 15:28:32.836565 89648 net.cpp:110] Creating Layer inception_4b/double3x3_mid
I0906 15:28:32.836567 89648 net.cpp:477] inception_4b/double3x3_mid <- inception_4b/double3x3_reduce/bn
I0906 15:28:32.836572 89648 net.cpp:433] inception_4b/double3x3_mid -> inception_4b/double3x3_mid
I0906 15:28:32.837944 89648 net.cpp:155] Setting up inception_4b/double3x3_mid
I0906 15:28:32.837955 89648 net.cpp:163] Top shape: 32 128 14 14 (802816)
I0906 15:28:32.837962 89648 layer_factory.hpp:76] Creating layer BN_00000037
I0906 15:28:32.837968 89648 net.cpp:110] Creating Layer BN_00000037
I0906 15:28:32.837972 89648 net.cpp:477] BN_00000037 <- inception_4b/double3x3_mid
I0906 15:28:32.837978 89648 net.cpp:433] BN_00000037 -> inception_4b/double3x3_mid/bn
I0906 15:28:32.838012 89648 net.cpp:155] Setting up BN_00000037
I0906 15:28:32.838017 89648 net.cpp:163] Top shape: 32 128 14 14 (802816)
I0906 15:28:32.838024 89648 layer_factory.hpp:76] Creating layer inception_4b/relu_double3x3_mid
I0906 15:28:32.838029 89648 net.cpp:110] Creating Layer inception_4b/relu_double3x3_mid
I0906 15:28:32.838032 89648 net.cpp:477] inception_4b/relu_double3x3_mid <- inception_4b/double3x3_mid/bn
I0906 15:28:32.838038 89648 net.cpp:419] inception_4b/relu_double3x3_mid -> inception_4b/double3x3_mid/bn (in-place)
I0906 15:28:32.838044 89648 net.cpp:155] Setting up inception_4b/relu_double3x3_mid
I0906 15:28:32.838048 89648 net.cpp:163] Top shape: 32 128 14 14 (802816)
I0906 15:28:32.838052 89648 layer_factory.hpp:76] Creating layer inception_4b/double3x3
I0906 15:28:32.838058 89648 net.cpp:110] Creating Layer inception_4b/double3x3
I0906 15:28:32.838062 89648 net.cpp:477] inception_4b/double3x3 <- inception_4b/double3x3_mid/bn
I0906 15:28:32.838066 89648 net.cpp:433] inception_4b/double3x3 -> inception_4b/double3x3
I0906 15:28:32.839174 89648 net.cpp:155] Setting up inception_4b/double3x3
I0906 15:28:32.839184 89648 net.cpp:163] Top shape: 32 128 14 14 (802816)
I0906 15:28:32.839190 89648 layer_factory.hpp:76] Creating layer BN_00000038
I0906 15:28:32.839193 89648 net.cpp:110] Creating Layer BN_00000038
I0906 15:28:32.839197 89648 net.cpp:477] BN_00000038 <- inception_4b/double3x3
I0906 15:28:32.839202 89648 net.cpp:433] BN_00000038 -> inception_4b/double3x3/bn
I0906 15:28:32.839232 89648 net.cpp:155] Setting up BN_00000038
I0906 15:28:32.839237 89648 net.cpp:163] Top shape: 32 128 14 14 (802816)
I0906 15:28:32.839243 89648 layer_factory.hpp:76] Creating layer inception_4b/relu_double3x3
I0906 15:28:32.839258 89648 net.cpp:110] Creating Layer inception_4b/relu_double3x3
I0906 15:28:32.839262 89648 net.cpp:477] inception_4b/relu_double3x3 <- inception_4b/double3x3/bn
I0906 15:28:32.839272 89648 net.cpp:419] inception_4b/relu_double3x3 -> inception_4b/double3x3/bn (in-place)
I0906 15:28:32.839278 89648 net.cpp:155] Setting up inception_4b/relu_double3x3
I0906 15:28:32.839283 89648 net.cpp:163] Top shape: 32 128 14 14 (802816)
I0906 15:28:32.839287 89648 layer_factory.hpp:76] Creating layer inception_4b/pool
I0906 15:28:32.839293 89648 net.cpp:110] Creating Layer inception_4b/pool
I0906 15:28:32.839295 89648 net.cpp:477] inception_4b/pool <- inception_4a/output_inception_4a/output_0_split_4
I0906 15:28:32.839301 89648 net.cpp:433] inception_4b/pool -> inception_4b/pool
I0906 15:28:32.839309 89648 net.cpp:155] Setting up inception_4b/pool
I0906 15:28:32.839313 89648 net.cpp:163] Top shape: 32 576 14 14 (3612672)
I0906 15:28:32.839316 89648 layer_factory.hpp:76] Creating layer inception_4b/pool_proj
I0906 15:28:32.839323 89648 net.cpp:110] Creating Layer inception_4b/pool_proj
I0906 15:28:32.839326 89648 net.cpp:477] inception_4b/pool_proj <- inception_4b/pool
I0906 15:28:32.839334 89648 net.cpp:433] inception_4b/pool_proj -> inception_4b/pool_proj
I0906 15:28:32.839937 89648 net.cpp:155] Setting up inception_4b/pool_proj
I0906 15:28:32.839947 89648 net.cpp:163] Top shape: 32 128 14 14 (802816)
I0906 15:28:32.839953 89648 layer_factory.hpp:76] Creating layer BN_00000039
I0906 15:28:32.839958 89648 net.cpp:110] Creating Layer BN_00000039
I0906 15:28:32.839962 89648 net.cpp:477] BN_00000039 <- inception_4b/pool_proj
I0906 15:28:32.839967 89648 net.cpp:433] BN_00000039 -> inception_4b/pool_proj/bn
I0906 15:28:32.839999 89648 net.cpp:155] Setting up BN_00000039
I0906 15:28:32.840004 89648 net.cpp:163] Top shape: 32 128 14 14 (802816)
I0906 15:28:32.840011 89648 layer_factory.hpp:76] Creating layer inception_4b/relu_pool_proj
I0906 15:28:32.840016 89648 net.cpp:110] Creating Layer inception_4b/relu_pool_proj
I0906 15:28:32.840019 89648 net.cpp:477] inception_4b/relu_pool_proj <- inception_4b/pool_proj/bn
I0906 15:28:32.840024 89648 net.cpp:419] inception_4b/relu_pool_proj -> inception_4b/pool_proj/bn (in-place)
I0906 15:28:32.840030 89648 net.cpp:155] Setting up inception_4b/relu_pool_proj
I0906 15:28:32.840034 89648 net.cpp:163] Top shape: 32 128 14 14 (802816)
I0906 15:28:32.840037 89648 layer_factory.hpp:76] Creating layer inception_4b/output
I0906 15:28:32.840042 89648 net.cpp:110] Creating Layer inception_4b/output
I0906 15:28:32.840046 89648 net.cpp:477] inception_4b/output <- inception_4b/1x1/bn
I0906 15:28:32.840050 89648 net.cpp:477] inception_4b/output <- inception_4b/3x3/bn
I0906 15:28:32.840054 89648 net.cpp:477] inception_4b/output <- inception_4b/double3x3/bn
I0906 15:28:32.840059 89648 net.cpp:477] inception_4b/output <- inception_4b/pool_proj/bn
I0906 15:28:32.840064 89648 net.cpp:433] inception_4b/output -> inception_4b/output
I0906 15:28:32.840070 89648 net.cpp:155] Setting up inception_4b/output
I0906 15:28:32.840075 89648 net.cpp:163] Top shape: 32 576 14 14 (3612672)
I0906 15:28:32.840077 89648 layer_factory.hpp:76] Creating layer inception_4b/output_inception_4b/output_0_split
I0906 15:28:32.840085 89648 net.cpp:110] Creating Layer inception_4b/output_inception_4b/output_0_split
I0906 15:28:32.840088 89648 net.cpp:477] inception_4b/output_inception_4b/output_0_split <- inception_4b/output
I0906 15:28:32.840095 89648 net.cpp:433] inception_4b/output_inception_4b/output_0_split -> inception_4b/output_inception_4b/output_0_split_0
I0906 15:28:32.840101 89648 net.cpp:433] inception_4b/output_inception_4b/output_0_split -> inception_4b/output_inception_4b/output_0_split_1
I0906 15:28:32.840106 89648 net.cpp:433] inception_4b/output_inception_4b/output_0_split -> inception_4b/output_inception_4b/output_0_split_2
I0906 15:28:32.840112 89648 net.cpp:433] inception_4b/output_inception_4b/output_0_split -> inception_4b/output_inception_4b/output_0_split_3
I0906 15:28:32.840128 89648 net.cpp:155] Setting up inception_4b/output_inception_4b/output_0_split
I0906 15:28:32.840133 89648 net.cpp:163] Top shape: 32 576 14 14 (3612672)
I0906 15:28:32.840137 89648 net.cpp:163] Top shape: 32 576 14 14 (3612672)
I0906 15:28:32.840142 89648 net.cpp:163] Top shape: 32 576 14 14 (3612672)
I0906 15:28:32.840144 89648 net.cpp:163] Top shape: 32 576 14 14 (3612672)
I0906 15:28:32.840147 89648 layer_factory.hpp:76] Creating layer inception_4c/1x1
I0906 15:28:32.840154 89648 net.cpp:110] Creating Layer inception_4c/1x1
I0906 15:28:32.840157 89648 net.cpp:477] inception_4c/1x1 <- inception_4b/output_inception_4b/output_0_split_0
I0906 15:28:32.840165 89648 net.cpp:433] inception_4c/1x1 -> inception_4c/1x1
I0906 15:28:32.841414 89648 net.cpp:155] Setting up inception_4c/1x1
I0906 15:28:32.841428 89648 net.cpp:163] Top shape: 32 160 14 14 (1003520)
I0906 15:28:32.841434 89648 layer_factory.hpp:76] Creating layer BN_00000040
I0906 15:28:32.841442 89648 net.cpp:110] Creating Layer BN_00000040
I0906 15:28:32.841446 89648 net.cpp:477] BN_00000040 <- inception_4c/1x1
I0906 15:28:32.841452 89648 net.cpp:433] BN_00000040 -> inception_4c/1x1/bn
I0906 15:28:32.841490 89648 net.cpp:155] Setting up BN_00000040
I0906 15:28:32.841495 89648 net.cpp:163] Top shape: 32 160 14 14 (1003520)
I0906 15:28:32.841501 89648 layer_factory.hpp:76] Creating layer inception_4c/relu_1x1
I0906 15:28:32.841506 89648 net.cpp:110] Creating Layer inception_4c/relu_1x1
I0906 15:28:32.841511 89648 net.cpp:477] inception_4c/relu_1x1 <- inception_4c/1x1/bn
I0906 15:28:32.841514 89648 net.cpp:419] inception_4c/relu_1x1 -> inception_4c/1x1/bn (in-place)
I0906 15:28:32.841521 89648 net.cpp:155] Setting up inception_4c/relu_1x1
I0906 15:28:32.841524 89648 net.cpp:163] Top shape: 32 160 14 14 (1003520)
I0906 15:28:32.841528 89648 layer_factory.hpp:76] Creating layer inception_4c/3x3_reduce
I0906 15:28:32.841534 89648 net.cpp:110] Creating Layer inception_4c/3x3_reduce
I0906 15:28:32.841537 89648 net.cpp:477] inception_4c/3x3_reduce <- inception_4b/output_inception_4b/output_0_split_1
I0906 15:28:32.841544 89648 net.cpp:433] inception_4c/3x3_reduce -> inception_4c/3x3_reduce
I0906 15:28:32.842144 89648 net.cpp:155] Setting up inception_4c/3x3_reduce
I0906 15:28:32.842151 89648 net.cpp:163] Top shape: 32 128 14 14 (802816)
I0906 15:28:32.842157 89648 layer_factory.hpp:76] Creating layer BN_00000041
I0906 15:28:32.842162 89648 net.cpp:110] Creating Layer BN_00000041
I0906 15:28:32.842166 89648 net.cpp:477] BN_00000041 <- inception_4c/3x3_reduce
I0906 15:28:32.842171 89648 net.cpp:433] BN_00000041 -> inception_4c/3x3_reduce/bn
I0906 15:28:32.842202 89648 net.cpp:155] Setting up BN_00000041
I0906 15:28:32.842207 89648 net.cpp:163] Top shape: 32 128 14 14 (802816)
I0906 15:28:32.842213 89648 layer_factory.hpp:76] Creating layer inception_4c/relu_3x3_reduce
I0906 15:28:32.842218 89648 net.cpp:110] Creating Layer inception_4c/relu_3x3_reduce
I0906 15:28:32.842222 89648 net.cpp:477] inception_4c/relu_3x3_reduce <- inception_4c/3x3_reduce/bn
I0906 15:28:32.842227 89648 net.cpp:419] inception_4c/relu_3x3_reduce -> inception_4c/3x3_reduce/bn (in-place)
I0906 15:28:32.842232 89648 net.cpp:155] Setting up inception_4c/relu_3x3_reduce
I0906 15:28:32.842236 89648 net.cpp:163] Top shape: 32 128 14 14 (802816)
I0906 15:28:32.842239 89648 layer_factory.hpp:76] Creating layer inception_4c/3x3
I0906 15:28:32.842248 89648 net.cpp:110] Creating Layer inception_4c/3x3
I0906 15:28:32.842252 89648 net.cpp:477] inception_4c/3x3 <- inception_4c/3x3_reduce/bn
I0906 15:28:32.842257 89648 net.cpp:433] inception_4c/3x3 -> inception_4c/3x3
I0906 15:28:32.844167 89648 net.cpp:155] Setting up inception_4c/3x3
I0906 15:28:32.844179 89648 net.cpp:163] Top shape: 32 160 14 14 (1003520)
I0906 15:28:32.844197 89648 layer_factory.hpp:76] Creating layer BN_00000042
I0906 15:28:32.844204 89648 net.cpp:110] Creating Layer BN_00000042
I0906 15:28:32.844208 89648 net.cpp:477] BN_00000042 <- inception_4c/3x3
I0906 15:28:32.844214 89648 net.cpp:433] BN_00000042 -> inception_4c/3x3/bn
I0906 15:28:32.844280 89648 net.cpp:155] Setting up BN_00000042
I0906 15:28:32.844288 89648 net.cpp:163] Top shape: 32 160 14 14 (1003520)
I0906 15:28:32.844295 89648 layer_factory.hpp:76] Creating layer inception_4c/relu_3x3
I0906 15:28:32.844301 89648 net.cpp:110] Creating Layer inception_4c/relu_3x3
I0906 15:28:32.844305 89648 net.cpp:477] inception_4c/relu_3x3 <- inception_4c/3x3/bn
I0906 15:28:32.844310 89648 net.cpp:419] inception_4c/relu_3x3 -> inception_4c/3x3/bn (in-place)
I0906 15:28:32.844316 89648 net.cpp:155] Setting up inception_4c/relu_3x3
I0906 15:28:32.844321 89648 net.cpp:163] Top shape: 32 160 14 14 (1003520)
I0906 15:28:32.844323 89648 layer_factory.hpp:76] Creating layer inception_4c/double3x3_reduce
I0906 15:28:32.844331 89648 net.cpp:110] Creating Layer inception_4c/double3x3_reduce
I0906 15:28:32.844333 89648 net.cpp:477] inception_4c/double3x3_reduce <- inception_4b/output_inception_4b/output_0_split_2
I0906 15:28:32.844341 89648 net.cpp:433] inception_4c/double3x3_reduce -> inception_4c/double3x3_reduce
I0906 15:28:32.844941 89648 net.cpp:155] Setting up inception_4c/double3x3_reduce
I0906 15:28:32.844950 89648 net.cpp:163] Top shape: 32 128 14 14 (802816)
I0906 15:28:32.844956 89648 layer_factory.hpp:76] Creating layer BN_00000043
I0906 15:28:32.844961 89648 net.cpp:110] Creating Layer BN_00000043
I0906 15:28:32.844965 89648 net.cpp:477] BN_00000043 <- inception_4c/double3x3_reduce
I0906 15:28:32.844970 89648 net.cpp:433] BN_00000043 -> inception_4c/double3x3_reduce/bn
I0906 15:28:32.845000 89648 net.cpp:155] Setting up BN_00000043
I0906 15:28:32.845006 89648 net.cpp:163] Top shape: 32 128 14 14 (802816)
I0906 15:28:32.845012 89648 layer_factory.hpp:76] Creating layer inception_4c/relu_double3x3_reduce
I0906 15:28:32.845017 89648 net.cpp:110] Creating Layer inception_4c/relu_double3x3_reduce
I0906 15:28:32.845021 89648 net.cpp:477] inception_4c/relu_double3x3_reduce <- inception_4c/double3x3_reduce/bn
I0906 15:28:32.845026 89648 net.cpp:419] inception_4c/relu_double3x3_reduce -> inception_4c/double3x3_reduce/bn (in-place)
I0906 15:28:32.845031 89648 net.cpp:155] Setting up inception_4c/relu_double3x3_reduce
I0906 15:28:32.845034 89648 net.cpp:163] Top shape: 32 128 14 14 (802816)
I0906 15:28:32.845037 89648 layer_factory.hpp:76] Creating layer inception_4c/double3x3_mid
I0906 15:28:32.845046 89648 net.cpp:110] Creating Layer inception_4c/double3x3_mid
I0906 15:28:32.845048 89648 net.cpp:477] inception_4c/double3x3_mid <- inception_4c/double3x3_reduce/bn
I0906 15:28:32.845054 89648 net.cpp:433] inception_4c/double3x3_mid -> inception_4c/double3x3_mid
I0906 15:28:32.846997 89648 net.cpp:155] Setting up inception_4c/double3x3_mid
I0906 15:28:32.847009 89648 net.cpp:163] Top shape: 32 160 14 14 (1003520)
I0906 15:28:32.847017 89648 layer_factory.hpp:76] Creating layer BN_00000044
I0906 15:28:32.847023 89648 net.cpp:110] Creating Layer BN_00000044
I0906 15:28:32.847028 89648 net.cpp:477] BN_00000044 <- inception_4c/double3x3_mid
I0906 15:28:32.847033 89648 net.cpp:433] BN_00000044 -> inception_4c/double3x3_mid/bn
I0906 15:28:32.847071 89648 net.cpp:155] Setting up BN_00000044
I0906 15:28:32.847076 89648 net.cpp:163] Top shape: 32 160 14 14 (1003520)
I0906 15:28:32.847084 89648 layer_factory.hpp:76] Creating layer inception_4c/relu_double3x3_mid
I0906 15:28:32.847089 89648 net.cpp:110] Creating Layer inception_4c/relu_double3x3_mid
I0906 15:28:32.847092 89648 net.cpp:477] inception_4c/relu_double3x3_mid <- inception_4c/double3x3_mid/bn
I0906 15:28:32.847096 89648 net.cpp:419] inception_4c/relu_double3x3_mid -> inception_4c/double3x3_mid/bn (in-place)
I0906 15:28:32.847102 89648 net.cpp:155] Setting up inception_4c/relu_double3x3_mid
I0906 15:28:32.847106 89648 net.cpp:163] Top shape: 32 160 14 14 (1003520)
I0906 15:28:32.847110 89648 layer_factory.hpp:76] Creating layer inception_4c/double3x3
I0906 15:28:32.847115 89648 net.cpp:110] Creating Layer inception_4c/double3x3
I0906 15:28:32.847118 89648 net.cpp:477] inception_4c/double3x3 <- inception_4c/double3x3_mid/bn
I0906 15:28:32.847126 89648 net.cpp:433] inception_4c/double3x3 -> inception_4c/double3x3
I0906 15:28:32.849426 89648 net.cpp:155] Setting up inception_4c/double3x3
I0906 15:28:32.849441 89648 net.cpp:163] Top shape: 32 160 14 14 (1003520)
I0906 15:28:32.849447 89648 layer_factory.hpp:76] Creating layer BN_00000045
I0906 15:28:32.849454 89648 net.cpp:110] Creating Layer BN_00000045
I0906 15:28:32.849458 89648 net.cpp:477] BN_00000045 <- inception_4c/double3x3
I0906 15:28:32.849464 89648 net.cpp:433] BN_00000045 -> inception_4c/double3x3/bn
I0906 15:28:32.849501 89648 net.cpp:155] Setting up BN_00000045
I0906 15:28:32.849506 89648 net.cpp:163] Top shape: 32 160 14 14 (1003520)
I0906 15:28:32.849513 89648 layer_factory.hpp:76] Creating layer inception_4c/relu_double3x3
I0906 15:28:32.849519 89648 net.cpp:110] Creating Layer inception_4c/relu_double3x3
I0906 15:28:32.849521 89648 net.cpp:477] inception_4c/relu_double3x3 <- inception_4c/double3x3/bn
I0906 15:28:32.849526 89648 net.cpp:419] inception_4c/relu_double3x3 -> inception_4c/double3x3/bn (in-place)
I0906 15:28:32.849532 89648 net.cpp:155] Setting up inception_4c/relu_double3x3
I0906 15:28:32.849536 89648 net.cpp:163] Top shape: 32 160 14 14 (1003520)
I0906 15:28:32.849539 89648 layer_factory.hpp:76] Creating layer inception_4c/pool
I0906 15:28:32.849545 89648 net.cpp:110] Creating Layer inception_4c/pool
I0906 15:28:32.849548 89648 net.cpp:477] inception_4c/pool <- inception_4b/output_inception_4b/output_0_split_3
I0906 15:28:32.849555 89648 net.cpp:433] inception_4c/pool -> inception_4c/pool
I0906 15:28:32.849561 89648 net.cpp:155] Setting up inception_4c/pool
I0906 15:28:32.849565 89648 net.cpp:163] Top shape: 32 576 14 14 (3612672)
I0906 15:28:32.849568 89648 layer_factory.hpp:76] Creating layer inception_4c/pool_proj
I0906 15:28:32.849586 89648 net.cpp:110] Creating Layer inception_4c/pool_proj
I0906 15:28:32.849588 89648 net.cpp:477] inception_4c/pool_proj <- inception_4c/pool
I0906 15:28:32.849594 89648 net.cpp:433] inception_4c/pool_proj -> inception_4c/pool_proj
I0906 15:28:32.850177 89648 net.cpp:155] Setting up inception_4c/pool_proj
I0906 15:28:32.850185 89648 net.cpp:163] Top shape: 32 128 14 14 (802816)
I0906 15:28:32.850203 89648 layer_factory.hpp:76] Creating layer BN_00000046
I0906 15:28:32.850208 89648 net.cpp:110] Creating Layer BN_00000046
I0906 15:28:32.850210 89648 net.cpp:477] BN_00000046 <- inception_4c/pool_proj
I0906 15:28:32.850217 89648 net.cpp:433] BN_00000046 -> inception_4c/pool_proj/bn
I0906 15:28:32.850246 89648 net.cpp:155] Setting up BN_00000046
I0906 15:28:32.850252 89648 net.cpp:163] Top shape: 32 128 14 14 (802816)
I0906 15:28:32.850257 89648 layer_factory.hpp:76] Creating layer inception_4c/relu_pool_proj
I0906 15:28:32.850265 89648 net.cpp:110] Creating Layer inception_4c/relu_pool_proj
I0906 15:28:32.850268 89648 net.cpp:477] inception_4c/relu_pool_proj <- inception_4c/pool_proj/bn
I0906 15:28:32.850272 89648 net.cpp:419] inception_4c/relu_pool_proj -> inception_4c/pool_proj/bn (in-place)
I0906 15:28:32.850278 89648 net.cpp:155] Setting up inception_4c/relu_pool_proj
I0906 15:28:32.850282 89648 net.cpp:163] Top shape: 32 128 14 14 (802816)
I0906 15:28:32.850286 89648 layer_factory.hpp:76] Creating layer inception_4c/output
I0906 15:28:32.850291 89648 net.cpp:110] Creating Layer inception_4c/output
I0906 15:28:32.850294 89648 net.cpp:477] inception_4c/output <- inception_4c/1x1/bn
I0906 15:28:32.850298 89648 net.cpp:477] inception_4c/output <- inception_4c/3x3/bn
I0906 15:28:32.850302 89648 net.cpp:477] inception_4c/output <- inception_4c/double3x3/bn
I0906 15:28:32.850306 89648 net.cpp:477] inception_4c/output <- inception_4c/pool_proj/bn
I0906 15:28:32.850311 89648 net.cpp:433] inception_4c/output -> inception_4c/output
I0906 15:28:32.850317 89648 net.cpp:155] Setting up inception_4c/output
I0906 15:28:32.850322 89648 net.cpp:163] Top shape: 32 608 14 14 (3813376)
I0906 15:28:32.850325 89648 layer_factory.hpp:76] Creating layer inception_4c/output_inception_4c/output_0_split
I0906 15:28:32.850332 89648 net.cpp:110] Creating Layer inception_4c/output_inception_4c/output_0_split
I0906 15:28:32.850345 89648 net.cpp:477] inception_4c/output_inception_4c/output_0_split <- inception_4c/output
I0906 15:28:32.850352 89648 net.cpp:433] inception_4c/output_inception_4c/output_0_split -> inception_4c/output_inception_4c/output_0_split_0
I0906 15:28:32.850359 89648 net.cpp:433] inception_4c/output_inception_4c/output_0_split -> inception_4c/output_inception_4c/output_0_split_1
I0906 15:28:32.850366 89648 net.cpp:433] inception_4c/output_inception_4c/output_0_split -> inception_4c/output_inception_4c/output_0_split_2
I0906 15:28:32.850373 89648 net.cpp:433] inception_4c/output_inception_4c/output_0_split -> inception_4c/output_inception_4c/output_0_split_3
I0906 15:28:32.850378 89648 net.cpp:155] Setting up inception_4c/output_inception_4c/output_0_split
I0906 15:28:32.850383 89648 net.cpp:163] Top shape: 32 608 14 14 (3813376)
I0906 15:28:32.850386 89648 net.cpp:163] Top shape: 32 608 14 14 (3813376)
I0906 15:28:32.850390 89648 net.cpp:163] Top shape: 32 608 14 14 (3813376)
I0906 15:28:32.850394 89648 net.cpp:163] Top shape: 32 608 14 14 (3813376)
I0906 15:28:32.850396 89648 layer_factory.hpp:76] Creating layer inception_4d/1x1
I0906 15:28:32.850404 89648 net.cpp:110] Creating Layer inception_4d/1x1
I0906 15:28:32.850406 89648 net.cpp:477] inception_4d/1x1 <- inception_4c/output_inception_4c/output_0_split_0
I0906 15:28:32.850412 89648 net.cpp:433] inception_4d/1x1 -> inception_4d/1x1
I0906 15:28:32.850910 89648 net.cpp:155] Setting up inception_4d/1x1
I0906 15:28:32.850919 89648 net.cpp:163] Top shape: 32 96 14 14 (602112)
I0906 15:28:32.850936 89648 layer_factory.hpp:76] Creating layer BN_00000047
I0906 15:28:32.850942 89648 net.cpp:110] Creating Layer BN_00000047
I0906 15:28:32.850945 89648 net.cpp:477] BN_00000047 <- inception_4d/1x1
I0906 15:28:32.850951 89648 net.cpp:433] BN_00000047 -> inception_4d/1x1/bn
I0906 15:28:32.850987 89648 net.cpp:155] Setting up BN_00000047
I0906 15:28:32.850992 89648 net.cpp:163] Top shape: 32 96 14 14 (602112)
I0906 15:28:32.850999 89648 layer_factory.hpp:76] Creating layer inception_4d/relu_1x1
I0906 15:28:32.851004 89648 net.cpp:110] Creating Layer inception_4d/relu_1x1
I0906 15:28:32.851007 89648 net.cpp:477] inception_4d/relu_1x1 <- inception_4d/1x1/bn
I0906 15:28:32.851012 89648 net.cpp:419] inception_4d/relu_1x1 -> inception_4d/1x1/bn (in-place)
I0906 15:28:32.851018 89648 net.cpp:155] Setting up inception_4d/relu_1x1
I0906 15:28:32.851022 89648 net.cpp:163] Top shape: 32 96 14 14 (602112)
I0906 15:28:32.851025 89648 layer_factory.hpp:76] Creating layer inception_4d/3x3_reduce
I0906 15:28:32.851032 89648 net.cpp:110] Creating Layer inception_4d/3x3_reduce
I0906 15:28:32.851034 89648 net.cpp:477] inception_4d/3x3_reduce <- inception_4c/output_inception_4c/output_0_split_1
I0906 15:28:32.851042 89648 net.cpp:433] inception_4d/3x3_reduce -> inception_4d/3x3_reduce
I0906 15:28:32.851660 89648 net.cpp:155] Setting up inception_4d/3x3_reduce
I0906 15:28:32.851692 89648 net.cpp:163] Top shape: 32 128 14 14 (802816)
I0906 15:28:32.851699 89648 layer_factory.hpp:76] Creating layer BN_00000048
I0906 15:28:32.851711 89648 net.cpp:110] Creating Layer BN_00000048
I0906 15:28:32.851716 89648 net.cpp:477] BN_00000048 <- inception_4d/3x3_reduce
I0906 15:28:32.851721 89648 net.cpp:433] BN_00000048 -> inception_4d/3x3_reduce/bn
I0906 15:28:32.851752 89648 net.cpp:155] Setting up BN_00000048
I0906 15:28:32.851758 89648 net.cpp:163] Top shape: 32 128 14 14 (802816)
I0906 15:28:32.851764 89648 layer_factory.hpp:76] Creating layer inception_4d/relu_3x3_reduce
I0906 15:28:32.851769 89648 net.cpp:110] Creating Layer inception_4d/relu_3x3_reduce
I0906 15:28:32.851773 89648 net.cpp:477] inception_4d/relu_3x3_reduce <- inception_4d/3x3_reduce/bn
I0906 15:28:32.851778 89648 net.cpp:419] inception_4d/relu_3x3_reduce -> inception_4d/3x3_reduce/bn (in-place)
I0906 15:28:32.851784 89648 net.cpp:155] Setting up inception_4d/relu_3x3_reduce
I0906 15:28:32.851788 89648 net.cpp:163] Top shape: 32 128 14 14 (802816)
I0906 15:28:32.851791 89648 layer_factory.hpp:76] Creating layer inception_4d/3x3
I0906 15:28:32.851809 89648 net.cpp:110] Creating Layer inception_4d/3x3
I0906 15:28:32.851812 89648 net.cpp:477] inception_4d/3x3 <- inception_4d/3x3_reduce/bn
I0906 15:28:32.851819 89648 net.cpp:433] inception_4d/3x3 -> inception_4d/3x3
I0906 15:28:32.853989 89648 net.cpp:155] Setting up inception_4d/3x3
I0906 15:28:32.854014 89648 net.cpp:163] Top shape: 32 192 14 14 (1204224)
I0906 15:28:32.854022 89648 layer_factory.hpp:76] Creating layer BN_00000049
I0906 15:28:32.854027 89648 net.cpp:110] Creating Layer BN_00000049
I0906 15:28:32.854032 89648 net.cpp:477] BN_00000049 <- inception_4d/3x3
I0906 15:28:32.854038 89648 net.cpp:433] BN_00000049 -> inception_4d/3x3/bn
I0906 15:28:32.854074 89648 net.cpp:155] Setting up BN_00000049
I0906 15:28:32.854080 89648 net.cpp:163] Top shape: 32 192 14 14 (1204224)
I0906 15:28:32.854087 89648 layer_factory.hpp:76] Creating layer inception_4d/relu_3x3
I0906 15:28:32.854092 89648 net.cpp:110] Creating Layer inception_4d/relu_3x3
I0906 15:28:32.854095 89648 net.cpp:477] inception_4d/relu_3x3 <- inception_4d/3x3/bn
I0906 15:28:32.854100 89648 net.cpp:419] inception_4d/relu_3x3 -> inception_4d/3x3/bn (in-place)
I0906 15:28:32.854106 89648 net.cpp:155] Setting up inception_4d/relu_3x3
I0906 15:28:32.854110 89648 net.cpp:163] Top shape: 32 192 14 14 (1204224)
I0906 15:28:32.854113 89648 layer_factory.hpp:76] Creating layer inception_4d/double3x3_reduce
I0906 15:28:32.854122 89648 net.cpp:110] Creating Layer inception_4d/double3x3_reduce
I0906 15:28:32.854125 89648 net.cpp:477] inception_4d/double3x3_reduce <- inception_4c/output_inception_4c/output_0_split_2
I0906 15:28:32.854131 89648 net.cpp:433] inception_4d/double3x3_reduce -> inception_4d/double3x3_reduce
I0906 15:28:32.855424 89648 net.cpp:155] Setting up inception_4d/double3x3_reduce
I0906 15:28:32.855437 89648 net.cpp:163] Top shape: 32 160 14 14 (1003520)
I0906 15:28:32.855454 89648 layer_factory.hpp:76] Creating layer BN_00000050
I0906 15:28:32.855460 89648 net.cpp:110] Creating Layer BN_00000050
I0906 15:28:32.855464 89648 net.cpp:477] BN_00000050 <- inception_4d/double3x3_reduce
I0906 15:28:32.855470 89648 net.cpp:433] BN_00000050 -> inception_4d/double3x3_reduce/bn
I0906 15:28:32.855507 89648 net.cpp:155] Setting up BN_00000050
I0906 15:28:32.855512 89648 net.cpp:163] Top shape: 32 160 14 14 (1003520)
I0906 15:28:32.855520 89648 layer_factory.hpp:76] Creating layer inception_4d/relu_double3x3_reduce
I0906 15:28:32.855525 89648 net.cpp:110] Creating Layer inception_4d/relu_double3x3_reduce
I0906 15:28:32.855528 89648 net.cpp:477] inception_4d/relu_double3x3_reduce <- inception_4d/double3x3_reduce/bn
I0906 15:28:32.855532 89648 net.cpp:419] inception_4d/relu_double3x3_reduce -> inception_4d/double3x3_reduce/bn (in-place)
I0906 15:28:32.855538 89648 net.cpp:155] Setting up inception_4d/relu_double3x3_reduce
I0906 15:28:32.855542 89648 net.cpp:163] Top shape: 32 160 14 14 (1003520)
I0906 15:28:32.855545 89648 layer_factory.hpp:76] Creating layer inception_4d/double3x3_mid
I0906 15:28:32.855553 89648 net.cpp:110] Creating Layer inception_4d/double3x3_mid
I0906 15:28:32.855557 89648 net.cpp:477] inception_4d/double3x3_mid <- inception_4d/double3x3_reduce/bn
I0906 15:28:32.855562 89648 net.cpp:433] inception_4d/double3x3_mid -> inception_4d/double3x3_mid
I0906 15:28:32.858209 89648 net.cpp:155] Setting up inception_4d/double3x3_mid
I0906 15:28:32.858222 89648 net.cpp:163] Top shape: 32 192 14 14 (1204224)
I0906 15:28:32.858240 89648 layer_factory.hpp:76] Creating layer BN_00000051
I0906 15:28:32.858247 89648 net.cpp:110] Creating Layer BN_00000051
I0906 15:28:32.858249 89648 net.cpp:477] BN_00000051 <- inception_4d/double3x3_mid
I0906 15:28:32.858255 89648 net.cpp:433] BN_00000051 -> inception_4d/double3x3_mid/bn
I0906 15:28:32.858292 89648 net.cpp:155] Setting up BN_00000051
I0906 15:28:32.858299 89648 net.cpp:163] Top shape: 32 192 14 14 (1204224)
I0906 15:28:32.858304 89648 layer_factory.hpp:76] Creating layer inception_4d/relu_double3x3_mid
I0906 15:28:32.858310 89648 net.cpp:110] Creating Layer inception_4d/relu_double3x3_mid
I0906 15:28:32.858325 89648 net.cpp:477] inception_4d/relu_double3x3_mid <- inception_4d/double3x3_mid/bn
I0906 15:28:32.858330 89648 net.cpp:419] inception_4d/relu_double3x3_mid -> inception_4d/double3x3_mid/bn (in-place)
I0906 15:28:32.858336 89648 net.cpp:155] Setting up inception_4d/relu_double3x3_mid
I0906 15:28:32.858340 89648 net.cpp:163] Top shape: 32 192 14 14 (1204224)
I0906 15:28:32.858343 89648 layer_factory.hpp:76] Creating layer inception_4d/double3x3
I0906 15:28:32.858350 89648 net.cpp:110] Creating Layer inception_4d/double3x3
I0906 15:28:32.858353 89648 net.cpp:477] inception_4d/double3x3 <- inception_4d/double3x3_mid/bn
I0906 15:28:32.858361 89648 net.cpp:433] inception_4d/double3x3 -> inception_4d/double3x3
I0906 15:28:32.861433 89648 net.cpp:155] Setting up inception_4d/double3x3
I0906 15:28:32.861446 89648 net.cpp:163] Top shape: 32 192 14 14 (1204224)
I0906 15:28:32.861464 89648 layer_factory.hpp:76] Creating layer BN_00000052
I0906 15:28:32.861472 89648 net.cpp:110] Creating Layer BN_00000052
I0906 15:28:32.861476 89648 net.cpp:477] BN_00000052 <- inception_4d/double3x3
I0906 15:28:32.861482 89648 net.cpp:433] BN_00000052 -> inception_4d/double3x3/bn
I0906 15:28:32.861523 89648 net.cpp:155] Setting up BN_00000052
I0906 15:28:32.861528 89648 net.cpp:163] Top shape: 32 192 14 14 (1204224)
I0906 15:28:32.861534 89648 layer_factory.hpp:76] Creating layer inception_4d/relu_double3x3
I0906 15:28:32.861541 89648 net.cpp:110] Creating Layer inception_4d/relu_double3x3
I0906 15:28:32.861543 89648 net.cpp:477] inception_4d/relu_double3x3 <- inception_4d/double3x3/bn
I0906 15:28:32.861548 89648 net.cpp:419] inception_4d/relu_double3x3 -> inception_4d/double3x3/bn (in-place)
I0906 15:28:32.861553 89648 net.cpp:155] Setting up inception_4d/relu_double3x3
I0906 15:28:32.861558 89648 net.cpp:163] Top shape: 32 192 14 14 (1204224)
I0906 15:28:32.861562 89648 layer_factory.hpp:76] Creating layer inception_4d/pool
I0906 15:28:32.861567 89648 net.cpp:110] Creating Layer inception_4d/pool
I0906 15:28:32.861569 89648 net.cpp:477] inception_4d/pool <- inception_4c/output_inception_4c/output_0_split_3
I0906 15:28:32.861577 89648 net.cpp:433] inception_4d/pool -> inception_4d/pool
I0906 15:28:32.861584 89648 net.cpp:155] Setting up inception_4d/pool
I0906 15:28:32.861588 89648 net.cpp:163] Top shape: 32 608 14 14 (3813376)
I0906 15:28:32.861591 89648 layer_factory.hpp:76] Creating layer inception_4d/pool_proj
I0906 15:28:32.861598 89648 net.cpp:110] Creating Layer inception_4d/pool_proj
I0906 15:28:32.861601 89648 net.cpp:477] inception_4d/pool_proj <- inception_4d/pool
I0906 15:28:32.861608 89648 net.cpp:433] inception_4d/pool_proj -> inception_4d/pool_proj
I0906 15:28:32.862227 89648 net.cpp:155] Setting up inception_4d/pool_proj
I0906 15:28:32.862236 89648 net.cpp:163] Top shape: 32 128 14 14 (802816)
I0906 15:28:32.862253 89648 layer_factory.hpp:76] Creating layer BN_00000053
I0906 15:28:32.862258 89648 net.cpp:110] Creating Layer BN_00000053
I0906 15:28:32.862262 89648 net.cpp:477] BN_00000053 <- inception_4d/pool_proj
I0906 15:28:32.862269 89648 net.cpp:433] BN_00000053 -> inception_4d/pool_proj/bn
I0906 15:28:32.862298 89648 net.cpp:155] Setting up BN_00000053
I0906 15:28:32.862303 89648 net.cpp:163] Top shape: 32 128 14 14 (802816)
I0906 15:28:32.862309 89648 layer_factory.hpp:76] Creating layer inception_4d/relu_pool_proj
I0906 15:28:32.862316 89648 net.cpp:110] Creating Layer inception_4d/relu_pool_proj
I0906 15:28:32.862320 89648 net.cpp:477] inception_4d/relu_pool_proj <- inception_4d/pool_proj/bn
I0906 15:28:32.862324 89648 net.cpp:419] inception_4d/relu_pool_proj -> inception_4d/pool_proj/bn (in-place)
I0906 15:28:32.862330 89648 net.cpp:155] Setting up inception_4d/relu_pool_proj
I0906 15:28:32.862334 89648 net.cpp:163] Top shape: 32 128 14 14 (802816)
I0906 15:28:32.862337 89648 layer_factory.hpp:76] Creating layer inception_4d/output
I0906 15:28:32.862344 89648 net.cpp:110] Creating Layer inception_4d/output
I0906 15:28:32.862346 89648 net.cpp:477] inception_4d/output <- inception_4d/1x1/bn
I0906 15:28:32.862361 89648 net.cpp:477] inception_4d/output <- inception_4d/3x3/bn
I0906 15:28:32.862366 89648 net.cpp:477] inception_4d/output <- inception_4d/double3x3/bn
I0906 15:28:32.862370 89648 net.cpp:477] inception_4d/output <- inception_4d/pool_proj/bn
I0906 15:28:32.862375 89648 net.cpp:433] inception_4d/output -> inception_4d/output
I0906 15:28:32.862381 89648 net.cpp:155] Setting up inception_4d/output
I0906 15:28:32.862386 89648 net.cpp:163] Top shape: 32 608 14 14 (3813376)
I0906 15:28:32.862390 89648 layer_factory.hpp:76] Creating layer inception_4d/output_inception_4d/output_0_split
I0906 15:28:32.862396 89648 net.cpp:110] Creating Layer inception_4d/output_inception_4d/output_0_split
I0906 15:28:32.862398 89648 net.cpp:477] inception_4d/output_inception_4d/output_0_split <- inception_4d/output
I0906 15:28:32.862406 89648 net.cpp:433] inception_4d/output_inception_4d/output_0_split -> inception_4d/output_inception_4d/output_0_split_0
I0906 15:28:32.862411 89648 net.cpp:433] inception_4d/output_inception_4d/output_0_split -> inception_4d/output_inception_4d/output_0_split_1
I0906 15:28:32.862418 89648 net.cpp:433] inception_4d/output_inception_4d/output_0_split -> inception_4d/output_inception_4d/output_0_split_2
I0906 15:28:32.862423 89648 net.cpp:433] inception_4d/output_inception_4d/output_0_split -> inception_4d/output_inception_4d/output_0_split_3
I0906 15:28:32.862431 89648 net.cpp:155] Setting up inception_4d/output_inception_4d/output_0_split
I0906 15:28:32.862434 89648 net.cpp:163] Top shape: 32 608 14 14 (3813376)
I0906 15:28:32.862438 89648 net.cpp:163] Top shape: 32 608 14 14 (3813376)
I0906 15:28:32.862442 89648 net.cpp:163] Top shape: 32 608 14 14 (3813376)
I0906 15:28:32.862445 89648 net.cpp:163] Top shape: 32 608 14 14 (3813376)
I0906 15:28:32.862448 89648 layer_factory.hpp:76] Creating layer loss2/ave_pool
I0906 15:28:32.862454 89648 net.cpp:110] Creating Layer loss2/ave_pool
I0906 15:28:32.862457 89648 net.cpp:477] loss2/ave_pool <- inception_4d/output_inception_4d/output_0_split_0
I0906 15:28:32.862462 89648 net.cpp:433] loss2/ave_pool -> loss2/ave_pool
I0906 15:28:32.862469 89648 net.cpp:155] Setting up loss2/ave_pool
I0906 15:28:32.862474 89648 net.cpp:163] Top shape: 32 608 4 4 (311296)
I0906 15:28:32.862478 89648 layer_factory.hpp:76] Creating layer loss2/conv
I0906 15:28:32.862485 89648 net.cpp:110] Creating Layer loss2/conv
I0906 15:28:32.862489 89648 net.cpp:477] loss2/conv <- loss2/ave_pool
I0906 15:28:32.862494 89648 net.cpp:433] loss2/conv -> loss2/conv
I0906 15:28:32.863108 89648 net.cpp:155] Setting up loss2/conv
I0906 15:28:32.863116 89648 net.cpp:163] Top shape: 32 128 4 4 (65536)
I0906 15:28:32.863134 89648 layer_factory.hpp:76] Creating layer BN_00000054
I0906 15:28:32.863139 89648 net.cpp:110] Creating Layer BN_00000054
I0906 15:28:32.863143 89648 net.cpp:477] BN_00000054 <- loss2/conv
I0906 15:28:32.863148 89648 net.cpp:433] BN_00000054 -> loss2/conv/bn
I0906 15:28:32.863180 89648 net.cpp:155] Setting up BN_00000054
I0906 15:28:32.863186 89648 net.cpp:163] Top shape: 32 128 4 4 (65536)
I0906 15:28:32.863193 89648 layer_factory.hpp:76] Creating layer loss2/relu_conv
I0906 15:28:32.863199 89648 net.cpp:110] Creating Layer loss2/relu_conv
I0906 15:28:32.863204 89648 net.cpp:477] loss2/relu_conv <- loss2/conv/bn
I0906 15:28:32.863207 89648 net.cpp:419] loss2/relu_conv -> loss2/conv/bn (in-place)
I0906 15:28:32.863214 89648 net.cpp:155] Setting up loss2/relu_conv
I0906 15:28:32.863217 89648 net.cpp:163] Top shape: 32 128 4 4 (65536)
I0906 15:28:32.863220 89648 layer_factory.hpp:76] Creating layer loss2/fc
I0906 15:28:32.863231 89648 net.cpp:110] Creating Layer loss2/fc
I0906 15:28:32.863234 89648 net.cpp:477] loss2/fc <- loss2/conv/bn
I0906 15:28:32.863240 89648 net.cpp:433] loss2/fc -> loss2/fc
I0906 15:28:32.881552 89648 net.cpp:155] Setting up loss2/fc
I0906 15:28:32.881584 89648 net.cpp:163] Top shape: 32 1024 (32768)
I0906 15:28:32.881592 89648 layer_factory.hpp:76] Creating layer BN_00000055
I0906 15:28:32.881600 89648 net.cpp:110] Creating Layer BN_00000055
I0906 15:28:32.881621 89648 net.cpp:477] BN_00000055 <- loss2/fc
I0906 15:28:32.881631 89648 net.cpp:433] BN_00000055 -> loss2/fc/bn
I0906 15:28:32.881662 89648 net.cpp:155] Setting up BN_00000055
I0906 15:28:32.881669 89648 net.cpp:163] Top shape: 32 1024 (32768)
I0906 15:28:32.881675 89648 layer_factory.hpp:76] Creating layer loss2/relu_fc
I0906 15:28:32.881680 89648 net.cpp:110] Creating Layer loss2/relu_fc
I0906 15:28:32.881685 89648 net.cpp:477] loss2/relu_fc <- loss2/fc/bn
I0906 15:28:32.881695 89648 net.cpp:419] loss2/relu_fc -> loss2/fc/bn (in-place)
I0906 15:28:32.881701 89648 net.cpp:155] Setting up loss2/relu_fc
I0906 15:28:32.881705 89648 net.cpp:163] Top shape: 32 1024 (32768)
I0906 15:28:32.881710 89648 layer_factory.hpp:76] Creating layer loss2/drop_fc
I0906 15:28:32.881716 89648 net.cpp:110] Creating Layer loss2/drop_fc
I0906 15:28:32.881718 89648 net.cpp:477] loss2/drop_fc <- loss2/fc/bn
I0906 15:28:32.881723 89648 net.cpp:419] loss2/drop_fc -> loss2/fc/bn (in-place)
I0906 15:28:32.881731 89648 net.cpp:155] Setting up loss2/drop_fc
I0906 15:28:32.881736 89648 net.cpp:163] Top shape: 32 1024 (32768)
I0906 15:28:32.881738 89648 layer_factory.hpp:76] Creating layer loss2/classifier
I0906 15:28:32.881746 89648 net.cpp:110] Creating Layer loss2/classifier
I0906 15:28:32.881748 89648 net.cpp:477] loss2/classifier <- loss2/fc/bn
I0906 15:28:32.881755 89648 net.cpp:433] loss2/classifier -> loss2/classifier
I0906 15:28:32.890799 89648 net.cpp:155] Setting up loss2/classifier
I0906 15:28:32.890825 89648 net.cpp:163] Top shape: 32 1000 (32000)
I0906 15:28:32.890831 89648 layer_factory.hpp:76] Creating layer loss2/loss
I0906 15:28:32.890840 89648 net.cpp:110] Creating Layer loss2/loss
I0906 15:28:32.890844 89648 net.cpp:477] loss2/loss <- loss2/classifier
I0906 15:28:32.890849 89648 net.cpp:477] loss2/loss <- label_data_1_split_1
I0906 15:28:32.890856 89648 net.cpp:433] loss2/loss -> loss2/loss1
I0906 15:28:32.890864 89648 layer_factory.hpp:76] Creating layer loss2/loss
I0906 15:28:32.890964 89648 net.cpp:155] Setting up loss2/loss
I0906 15:28:32.890974 89648 net.cpp:163] Top shape: (1)
I0906 15:28:32.890976 89648 net.cpp:168]     with loss weight 0.3
I0906 15:28:32.890991 89648 layer_factory.hpp:76] Creating layer inception_4e/3x3_reduce
I0906 15:28:32.891000 89648 net.cpp:110] Creating Layer inception_4e/3x3_reduce
I0906 15:28:32.891005 89648 net.cpp:477] inception_4e/3x3_reduce <- inception_4d/output_inception_4d/output_0_split_1
I0906 15:28:32.891011 89648 net.cpp:433] inception_4e/3x3_reduce -> inception_4e/3x3_reduce
I0906 15:28:32.892166 89648 net.cpp:155] Setting up inception_4e/3x3_reduce
I0906 15:28:32.892179 89648 net.cpp:163] Top shape: 32 128 14 14 (802816)
I0906 15:28:32.892186 89648 layer_factory.hpp:76] Creating layer BN_00000056
I0906 15:28:32.892192 89648 net.cpp:110] Creating Layer BN_00000056
I0906 15:28:32.892196 89648 net.cpp:477] BN_00000056 <- inception_4e/3x3_reduce
I0906 15:28:32.892202 89648 net.cpp:433] BN_00000056 -> inception_4e/3x3_reduce/bn
I0906 15:28:32.892249 89648 net.cpp:155] Setting up BN_00000056
I0906 15:28:32.892256 89648 net.cpp:163] Top shape: 32 128 14 14 (802816)
I0906 15:28:32.892262 89648 layer_factory.hpp:76] Creating layer inception_4e/relu_3x3_reduce
I0906 15:28:32.892267 89648 net.cpp:110] Creating Layer inception_4e/relu_3x3_reduce
I0906 15:28:32.892272 89648 net.cpp:477] inception_4e/relu_3x3_reduce <- inception_4e/3x3_reduce/bn
I0906 15:28:32.892278 89648 net.cpp:419] inception_4e/relu_3x3_reduce -> inception_4e/3x3_reduce/bn (in-place)
I0906 15:28:32.892284 89648 net.cpp:155] Setting up inception_4e/relu_3x3_reduce
I0906 15:28:32.892289 89648 net.cpp:163] Top shape: 32 128 14 14 (802816)
I0906 15:28:32.892292 89648 layer_factory.hpp:76] Creating layer inception_4e/3x3_s2
I0906 15:28:32.892300 89648 net.cpp:110] Creating Layer inception_4e/3x3_s2
I0906 15:28:32.892303 89648 net.cpp:477] inception_4e/3x3_s2 <- inception_4e/3x3_reduce/bn
I0906 15:28:32.892308 89648 net.cpp:433] inception_4e/3x3_s2 -> inception_4e/3x3_s2
I0906 15:28:32.894481 89648 net.cpp:155] Setting up inception_4e/3x3_s2
I0906 15:28:32.894505 89648 net.cpp:163] Top shape: 32 192 7 7 (301056)
I0906 15:28:32.894513 89648 layer_factory.hpp:76] Creating layer BN_00000057
I0906 15:28:32.894520 89648 net.cpp:110] Creating Layer BN_00000057
I0906 15:28:32.894523 89648 net.cpp:477] BN_00000057 <- inception_4e/3x3_s2
I0906 15:28:32.894531 89648 net.cpp:433] BN_00000057 -> inception_4e/3x3_s2/bn
I0906 15:28:32.894575 89648 net.cpp:155] Setting up BN_00000057
I0906 15:28:32.894582 89648 net.cpp:163] Top shape: 32 192 7 7 (301056)
I0906 15:28:32.894587 89648 layer_factory.hpp:76] Creating layer inception_4e/relu_3x3
I0906 15:28:32.894593 89648 net.cpp:110] Creating Layer inception_4e/relu_3x3
I0906 15:28:32.894597 89648 net.cpp:477] inception_4e/relu_3x3 <- inception_4e/3x3_s2/bn
I0906 15:28:32.894601 89648 net.cpp:419] inception_4e/relu_3x3 -> inception_4e/3x3_s2/bn (in-place)
I0906 15:28:32.894608 89648 net.cpp:155] Setting up inception_4e/relu_3x3
I0906 15:28:32.894611 89648 net.cpp:163] Top shape: 32 192 7 7 (301056)
I0906 15:28:32.894614 89648 layer_factory.hpp:76] Creating layer inception_4e/double3x3_reduce
I0906 15:28:32.894623 89648 net.cpp:110] Creating Layer inception_4e/double3x3_reduce
I0906 15:28:32.894626 89648 net.cpp:477] inception_4e/double3x3_reduce <- inception_4d/output_inception_4d/output_0_split_2
I0906 15:28:32.894634 89648 net.cpp:433] inception_4e/double3x3_reduce -> inception_4e/double3x3_reduce
I0906 15:28:32.895519 89648 net.cpp:155] Setting up inception_4e/double3x3_reduce
I0906 15:28:32.895526 89648 net.cpp:163] Top shape: 32 192 14 14 (1204224)
I0906 15:28:32.895544 89648 layer_factory.hpp:76] Creating layer BN_00000058
I0906 15:28:32.895548 89648 net.cpp:110] Creating Layer BN_00000058
I0906 15:28:32.895552 89648 net.cpp:477] BN_00000058 <- inception_4e/double3x3_reduce
I0906 15:28:32.895560 89648 net.cpp:433] BN_00000058 -> inception_4e/double3x3_reduce/bn
I0906 15:28:32.895592 89648 net.cpp:155] Setting up BN_00000058
I0906 15:28:32.895597 89648 net.cpp:163] Top shape: 32 192 14 14 (1204224)
I0906 15:28:32.895606 89648 layer_factory.hpp:76] Creating layer inception_4e/relu_double3x3_reduce
I0906 15:28:32.895611 89648 net.cpp:110] Creating Layer inception_4e/relu_double3x3_reduce
I0906 15:28:32.895614 89648 net.cpp:477] inception_4e/relu_double3x3_reduce <- inception_4e/double3x3_reduce/bn
I0906 15:28:32.895618 89648 net.cpp:419] inception_4e/relu_double3x3_reduce -> inception_4e/double3x3_reduce/bn (in-place)
I0906 15:28:32.895624 89648 net.cpp:155] Setting up inception_4e/relu_double3x3_reduce
I0906 15:28:32.895628 89648 net.cpp:163] Top shape: 32 192 14 14 (1204224)
I0906 15:28:32.895632 89648 layer_factory.hpp:76] Creating layer inception_4e/double3x3_mid
I0906 15:28:32.895637 89648 net.cpp:110] Creating Layer inception_4e/double3x3_mid
I0906 15:28:32.895640 89648 net.cpp:477] inception_4e/double3x3_mid <- inception_4e/double3x3_reduce/bn
I0906 15:28:32.895645 89648 net.cpp:433] inception_4e/double3x3_mid -> inception_4e/double3x3_mid
I0906 15:28:32.899693 89648 net.cpp:155] Setting up inception_4e/double3x3_mid
I0906 15:28:32.899706 89648 net.cpp:163] Top shape: 32 256 14 14 (1605632)
I0906 15:28:32.899724 89648 layer_factory.hpp:76] Creating layer BN_00000059
I0906 15:28:32.899730 89648 net.cpp:110] Creating Layer BN_00000059
I0906 15:28:32.899734 89648 net.cpp:477] BN_00000059 <- inception_4e/double3x3_mid
I0906 15:28:32.899740 89648 net.cpp:433] BN_00000059 -> inception_4e/double3x3_mid/bn
I0906 15:28:32.899780 89648 net.cpp:155] Setting up BN_00000059
I0906 15:28:32.899785 89648 net.cpp:163] Top shape: 32 256 14 14 (1605632)
I0906 15:28:32.899791 89648 layer_factory.hpp:76] Creating layer inception_4e/relu_double3x3_mid
I0906 15:28:32.899796 89648 net.cpp:110] Creating Layer inception_4e/relu_double3x3_mid
I0906 15:28:32.899801 89648 net.cpp:477] inception_4e/relu_double3x3_mid <- inception_4e/double3x3_mid/bn
I0906 15:28:32.899806 89648 net.cpp:419] inception_4e/relu_double3x3_mid -> inception_4e/double3x3_mid/bn (in-place)
I0906 15:28:32.899812 89648 net.cpp:155] Setting up inception_4e/relu_double3x3_mid
I0906 15:28:32.899827 89648 net.cpp:163] Top shape: 32 256 14 14 (1605632)
I0906 15:28:32.899832 89648 layer_factory.hpp:76] Creating layer inception_4e/double3x3
I0906 15:28:32.899837 89648 net.cpp:110] Creating Layer inception_4e/double3x3
I0906 15:28:32.899842 89648 net.cpp:477] inception_4e/double3x3 <- inception_4e/double3x3_mid/bn
I0906 15:28:32.899847 89648 net.cpp:433] inception_4e/double3x3 -> inception_4e/double3x3_s2
I0906 15:28:32.905190 89648 net.cpp:155] Setting up inception_4e/double3x3
I0906 15:28:32.905203 89648 net.cpp:163] Top shape: 32 256 7 7 (401408)
I0906 15:28:32.905222 89648 layer_factory.hpp:76] Creating layer BN_00000060
I0906 15:28:32.905228 89648 net.cpp:110] Creating Layer BN_00000060
I0906 15:28:32.905232 89648 net.cpp:477] BN_00000060 <- inception_4e/double3x3_s2
I0906 15:28:32.905237 89648 net.cpp:433] BN_00000060 -> inception_4e/double3x3_s2/bn
I0906 15:28:32.905274 89648 net.cpp:155] Setting up BN_00000060
I0906 15:28:32.905280 89648 net.cpp:163] Top shape: 32 256 7 7 (401408)
I0906 15:28:32.905287 89648 layer_factory.hpp:76] Creating layer inception_4e/relu_double3x3
I0906 15:28:32.905292 89648 net.cpp:110] Creating Layer inception_4e/relu_double3x3
I0906 15:28:32.905295 89648 net.cpp:477] inception_4e/relu_double3x3 <- inception_4e/double3x3_s2/bn
I0906 15:28:32.905300 89648 net.cpp:419] inception_4e/relu_double3x3 -> inception_4e/double3x3_s2/bn (in-place)
I0906 15:28:32.905306 89648 net.cpp:155] Setting up inception_4e/relu_double3x3
I0906 15:28:32.905310 89648 net.cpp:163] Top shape: 32 256 7 7 (401408)
I0906 15:28:32.905313 89648 layer_factory.hpp:76] Creating layer inception_4e/pool
I0906 15:28:32.905319 89648 net.cpp:110] Creating Layer inception_4e/pool
I0906 15:28:32.905323 89648 net.cpp:477] inception_4e/pool <- inception_4d/output_inception_4d/output_0_split_3
I0906 15:28:32.905328 89648 net.cpp:433] inception_4e/pool -> inception_4e/pool
I0906 15:28:32.905336 89648 net.cpp:155] Setting up inception_4e/pool
I0906 15:28:32.905340 89648 net.cpp:163] Top shape: 32 608 7 7 (953344)
I0906 15:28:32.905344 89648 layer_factory.hpp:76] Creating layer BN_00000061
I0906 15:28:32.905351 89648 net.cpp:110] Creating Layer BN_00000061
I0906 15:28:32.905355 89648 net.cpp:477] BN_00000061 <- inception_4e/pool
I0906 15:28:32.905359 89648 net.cpp:433] BN_00000061 -> inception_4e/pool/bn
I0906 15:28:32.905407 89648 net.cpp:155] Setting up BN_00000061
I0906 15:28:32.905413 89648 net.cpp:163] Top shape: 32 608 7 7 (953344)
I0906 15:28:32.905419 89648 layer_factory.hpp:76] Creating layer inception_4e/relu_pool
I0906 15:28:32.905424 89648 net.cpp:110] Creating Layer inception_4e/relu_pool
I0906 15:28:32.905427 89648 net.cpp:477] inception_4e/relu_pool <- inception_4e/pool/bn
I0906 15:28:32.905432 89648 net.cpp:419] inception_4e/relu_pool -> inception_4e/pool/bn (in-place)
I0906 15:28:32.905437 89648 net.cpp:155] Setting up inception_4e/relu_pool
I0906 15:28:32.905441 89648 net.cpp:163] Top shape: 32 608 7 7 (953344)
I0906 15:28:32.905444 89648 layer_factory.hpp:76] Creating layer inception_4e/output
I0906 15:28:32.905450 89648 net.cpp:110] Creating Layer inception_4e/output
I0906 15:28:32.905453 89648 net.cpp:477] inception_4e/output <- inception_4e/3x3_s2/bn
I0906 15:28:32.905457 89648 net.cpp:477] inception_4e/output <- inception_4e/double3x3_s2/bn
I0906 15:28:32.905462 89648 net.cpp:477] inception_4e/output <- inception_4e/pool/bn
I0906 15:28:32.905468 89648 net.cpp:433] inception_4e/output -> inception_4e/output
I0906 15:28:32.905477 89648 net.cpp:155] Setting up inception_4e/output
I0906 15:28:32.905480 89648 net.cpp:163] Top shape: 32 1056 7 7 (1655808)
I0906 15:28:32.905483 89648 layer_factory.hpp:76] Creating layer inception_4e/output_inception_4e/output_0_split
I0906 15:28:32.905489 89648 net.cpp:110] Creating Layer inception_4e/output_inception_4e/output_0_split
I0906 15:28:32.905493 89648 net.cpp:477] inception_4e/output_inception_4e/output_0_split <- inception_4e/output
I0906 15:28:32.905498 89648 net.cpp:433] inception_4e/output_inception_4e/output_0_split -> inception_4e/output_inception_4e/output_0_split_0
I0906 15:28:32.905519 89648 net.cpp:433] inception_4e/output_inception_4e/output_0_split -> inception_4e/output_inception_4e/output_0_split_1
I0906 15:28:32.905527 89648 net.cpp:433] inception_4e/output_inception_4e/output_0_split -> inception_4e/output_inception_4e/output_0_split_2
I0906 15:28:32.905534 89648 net.cpp:433] inception_4e/output_inception_4e/output_0_split -> inception_4e/output_inception_4e/output_0_split_3
I0906 15:28:32.905540 89648 net.cpp:155] Setting up inception_4e/output_inception_4e/output_0_split
I0906 15:28:32.905544 89648 net.cpp:163] Top shape: 32 1056 7 7 (1655808)
I0906 15:28:32.905549 89648 net.cpp:163] Top shape: 32 1056 7 7 (1655808)
I0906 15:28:32.905551 89648 net.cpp:163] Top shape: 32 1056 7 7 (1655808)
I0906 15:28:32.905555 89648 net.cpp:163] Top shape: 32 1056 7 7 (1655808)
I0906 15:28:32.905558 89648 layer_factory.hpp:76] Creating layer inception_5a/1x1
I0906 15:28:32.905567 89648 net.cpp:110] Creating Layer inception_5a/1x1
I0906 15:28:32.905571 89648 net.cpp:477] inception_5a/1x1 <- inception_4e/output_inception_4e/output_0_split_0
I0906 15:28:32.905576 89648 net.cpp:433] inception_5a/1x1 -> inception_5a/1x1
I0906 15:28:32.908977 89648 net.cpp:155] Setting up inception_5a/1x1
I0906 15:28:32.908992 89648 net.cpp:163] Top shape: 32 352 7 7 (551936)
I0906 15:28:32.908998 89648 layer_factory.hpp:76] Creating layer BN_00000062
I0906 15:28:32.909004 89648 net.cpp:110] Creating Layer BN_00000062
I0906 15:28:32.909008 89648 net.cpp:477] BN_00000062 <- inception_5a/1x1
I0906 15:28:32.909016 89648 net.cpp:433] BN_00000062 -> inception_5a/1x1/bn
I0906 15:28:32.909052 89648 net.cpp:155] Setting up BN_00000062
I0906 15:28:32.909057 89648 net.cpp:163] Top shape: 32 352 7 7 (551936)
I0906 15:28:32.909066 89648 layer_factory.hpp:76] Creating layer inception_5a/relu_1x1
I0906 15:28:32.909072 89648 net.cpp:110] Creating Layer inception_5a/relu_1x1
I0906 15:28:32.909075 89648 net.cpp:477] inception_5a/relu_1x1 <- inception_5a/1x1/bn
I0906 15:28:32.909080 89648 net.cpp:419] inception_5a/relu_1x1 -> inception_5a/1x1/bn (in-place)
I0906 15:28:32.909085 89648 net.cpp:155] Setting up inception_5a/relu_1x1
I0906 15:28:32.909090 89648 net.cpp:163] Top shape: 32 352 7 7 (551936)
I0906 15:28:32.909093 89648 layer_factory.hpp:76] Creating layer inception_5a/3x3_reduce
I0906 15:28:32.909099 89648 net.cpp:110] Creating Layer inception_5a/3x3_reduce
I0906 15:28:32.909104 89648 net.cpp:477] inception_5a/3x3_reduce <- inception_4e/output_inception_4e/output_0_split_1
I0906 15:28:32.909111 89648 net.cpp:433] inception_5a/3x3_reduce -> inception_5a/3x3_reduce
I0906 15:28:32.911152 89648 net.cpp:155] Setting up inception_5a/3x3_reduce
I0906 15:28:32.911164 89648 net.cpp:163] Top shape: 32 192 7 7 (301056)
I0906 15:28:32.911183 89648 layer_factory.hpp:76] Creating layer BN_00000063
I0906 15:28:32.911188 89648 net.cpp:110] Creating Layer BN_00000063
I0906 15:28:32.911192 89648 net.cpp:477] BN_00000063 <- inception_5a/3x3_reduce
I0906 15:28:32.911201 89648 net.cpp:433] BN_00000063 -> inception_5a/3x3_reduce/bn
I0906 15:28:32.911237 89648 net.cpp:155] Setting up BN_00000063
I0906 15:28:32.911242 89648 net.cpp:163] Top shape: 32 192 7 7 (301056)
I0906 15:28:32.911253 89648 layer_factory.hpp:76] Creating layer inception_5a/relu_3x3_reduce
I0906 15:28:32.911259 89648 net.cpp:110] Creating Layer inception_5a/relu_3x3_reduce
I0906 15:28:32.911263 89648 net.cpp:477] inception_5a/relu_3x3_reduce <- inception_5a/3x3_reduce/bn
I0906 15:28:32.911267 89648 net.cpp:419] inception_5a/relu_3x3_reduce -> inception_5a/3x3_reduce/bn (in-place)
I0906 15:28:32.911273 89648 net.cpp:155] Setting up inception_5a/relu_3x3_reduce
I0906 15:28:32.911278 89648 net.cpp:163] Top shape: 32 192 7 7 (301056)
I0906 15:28:32.911280 89648 layer_factory.hpp:76] Creating layer inception_5a/3x3
…
I0906 15:28:33.245966 89648 net.cpp:477] BN_00000051 <- inception_4d/double3x3_mid
I0906 15:28:33.245981 89648 net.cpp:433] BN_00000051 -> inception_4d/double3x3_mid/bn
I0906 15:28:33.246068 89648 net.cpp:155] Setting up BN_00000051
I0906 15:28:33.246083 89648 net.cpp:163] Top shape: 50 192 14 14 (1881600)
I0906 15:28:33.246100 89648 layer_factory.hpp:76] Creating layer inception_4d/relu_double3x3_mid
I0906 15:28:33.246124 89648 net.cpp:110] Creating Layer inception_4d/relu_double3x3_mid
I0906 15:28:33.246132 89648 net.cpp:477] inception_4d/relu_double3x3_mid <- inception_4d/double3x3_mid/bn
I0906 15:28:33.246142 89648 net.cpp:419] inception_4d/relu_double3x3_mid -> inception_4d/double3x3_mid/bn (in-place)
I0906 15:28:33.246155 89648 net.cpp:155] Setting up inception_4d/relu_double3x3_mid
I0906 15:28:33.246163 89648 net.cpp:163] Top shape: 50 192 14 14 (1881600)
I0906 15:28:33.246170 89648 layer_factory.hpp:76] Creating layer inception_4d/double3x3
I0906 15:28:33.246183 89648 net.cpp:110] Creating Layer inception_4d/double3x3
I0906 15:28:33.246189 89648 net.cpp:477] inception_4d/double3x3 <- inception_4d/double3x3_mid/bn
I0906 15:28:33.246203 89648 net.cpp:433] inception_4d/double3x3 -> inception_4d/double3x3
I0906 15:28:33.252574 89648 net.cpp:155] Setting up inception_4d/double3x3
I0906 15:28:33.252602 89648 net.cpp:163] Top shape: 50 192 14 14 (1881600)
I0906 15:28:33.252616 89648 layer_factory.hpp:76] Creating layer BN_00000052
I0906 15:28:33.252627 89648 net.cpp:110] Creating Layer BN_00000052
I0906 15:28:33.252636 89648 net.cpp:477] BN_00000052 <- inception_4d/double3x3
I0906 15:28:33.252658 89648 net.cpp:433] BN_00000052 -> inception_4d/double3x3/bn
I0906 15:28:33.252740 89648 net.cpp:155] Setting up BN_00000052
I0906 15:28:33.252761 89648 net.cpp:163] Top shape: 50 192 14 14 (1881600)
I0906 15:28:33.252779 89648 layer_factory.hpp:76] Creating layer inception_4d/relu_double3x3
I0906 15:28:33.252789 89648 net.cpp:110] Creating Layer inception_4d/relu_double3x3
I0906 15:28:33.252797 89648 net.cpp:477] inception_4d/relu_double3x3 <- inception_4d/double3x3/bn
I0906 15:28:33.252807 89648 net.cpp:419] inception_4d/relu_double3x3 -> inception_4d/double3x3/bn (in-place)
I0906 15:28:33.252820 89648 net.cpp:155] Setting up inception_4d/relu_double3x3
I0906 15:28:33.252828 89648 net.cpp:163] Top shape: 50 192 14 14 (1881600)
I0906 15:28:33.252835 89648 layer_factory.hpp:76] Creating layer inception_4d/pool
I0906 15:28:33.252846 89648 net.cpp:110] Creating Layer inception_4d/pool
I0906 15:28:33.252854 89648 net.cpp:477] inception_4d/pool <- inception_4c/output_inception_4c/output_0_split_3
I0906 15:28:33.252866 89648 net.cpp:433] inception_4d/pool -> inception_4d/pool
I0906 15:28:33.252882 89648 net.cpp:155] Setting up inception_4d/pool
I0906 15:28:33.252890 89648 net.cpp:163] Top shape: 50 608 14 14 (5958400)
I0906 15:28:33.252897 89648 layer_factory.hpp:76] Creating layer inception_4d/pool_proj
I0906 15:28:33.252912 89648 net.cpp:110] Creating Layer inception_4d/pool_proj
I0906 15:28:33.252920 89648 net.cpp:477] inception_4d/pool_proj <- inception_4d/pool
I0906 15:28:33.252933 89648 net.cpp:433] inception_4d/pool_proj -> inception_4d/pool_proj
I0906 15:28:33.254254 89648 net.cpp:155] Setting up inception_4d/pool_proj
I0906 15:28:33.254271 89648 net.cpp:163] Top shape: 50 128 14 14 (1254400)
I0906 15:28:33.254284 89648 layer_factory.hpp:76] Creating layer BN_00000053
I0906 15:28:33.254294 89648 net.cpp:110] Creating Layer BN_00000053
I0906 15:28:33.254302 89648 net.cpp:477] BN_00000053 <- inception_4d/pool_proj
I0906 15:28:33.254313 89648 net.cpp:433] BN_00000053 -> inception_4d/pool_proj/bn
I0906 15:28:33.254390 89648 net.cpp:155] Setting up BN_00000053
I0906 15:28:33.254403 89648 net.cpp:163] Top shape: 50 128 14 14 (1254400)
I0906 15:28:33.254417 89648 layer_factory.hpp:76] Creating layer inception_4d/relu_pool_proj
I0906 15:28:33.254426 89648 net.cpp:110] Creating Layer inception_4d/relu_pool_proj
I0906 15:28:33.254454 89648 net.cpp:477] inception_4d/relu_pool_proj <- inception_4d/pool_proj/bn
I0906 15:28:33.254468 89648 net.cpp:419] inception_4d/relu_pool_proj -> inception_4d/pool_proj/bn (in-place)
I0906 15:28:33.254482 89648 net.cpp:155] Setting up inception_4d/relu_pool_proj
I0906 15:28:33.254490 89648 net.cpp:163] Top shape: 50 128 14 14 (1254400)
I0906 15:28:33.254498 89648 layer_factory.hpp:76] Creating layer inception_4d/output
I0906 15:28:33.254508 89648 net.cpp:110] Creating Layer inception_4d/output
I0906 15:28:33.254515 89648 net.cpp:477] inception_4d/output <- inception_4d/1x1/bn
I0906 15:28:33.254524 89648 net.cpp:477] inception_4d/output <- inception_4d/3x3/bn
I0906 15:28:33.254534 89648 net.cpp:477] inception_4d/output <- inception_4d/double3x3/bn
I0906 15:28:33.254541 89648 net.cpp:477] inception_4d/output <- inception_4d/pool_proj/bn
I0906 15:28:33.254552 89648 net.cpp:433] inception_4d/output -> inception_4d/output
I0906 15:28:33.254567 89648 net.cpp:155] Setting up inception_4d/output
I0906 15:28:33.254577 89648 net.cpp:163] Top shape: 50 608 14 14 (5958400)
I0906 15:28:33.254585 89648 layer_factory.hpp:76] Creating layer inception_4d/output_inception_4d/output_0_split
I0906 15:28:33.254600 89648 net.cpp:110] Creating Layer inception_4d/output_inception_4d/output_0_split
I0906 15:28:33.254606 89648 net.cpp:477] inception_4d/output_inception_4d/output_0_split <- inception_4d/output
I0906 15:28:33.254617 89648 net.cpp:433] inception_4d/output_inception_4d/output_0_split -> inception_4d/output_inception_4d/output_0_split_0
I0906 15:28:33.254631 89648 net.cpp:433] inception_4d/output_inception_4d/output_0_split -> inception_4d/output_inception_4d/output_0_split_1
I0906 15:28:33.254643 89648 net.cpp:433] inception_4d/output_inception_4d/output_0_split -> inception_4d/output_inception_4d/output_0_split_2
I0906 15:28:33.254657 89648 net.cpp:433] inception_4d/output_inception_4d/output_0_split -> inception_4d/output_inception_4d/output_0_split_3
I0906 15:28:33.254669 89648 net.cpp:155] Setting up inception_4d/output_inception_4d/output_0_split
I0906 15:28:33.254678 89648 net.cpp:163] Top shape: 50 608 14 14 (5958400)
I0906 15:28:33.254686 89648 net.cpp:163] Top shape: 50 608 14 14 (5958400)
I0906 15:28:33.254694 89648 net.cpp:163] Top shape: 50 608 14 14 (5958400)
I0906 15:28:33.254703 89648 net.cpp:163] Top shape: 50 608 14 14 (5958400)
I0906 15:28:33.254709 89648 layer_factory.hpp:76] Creating layer loss2/ave_pool
I0906 15:28:33.254722 89648 net.cpp:110] Creating Layer loss2/ave_pool
I0906 15:28:33.254729 89648 net.cpp:477] loss2/ave_pool <- inception_4d/output_inception_4d/output_0_split_0
I0906 15:28:33.254740 89648 net.cpp:433] loss2/ave_pool -> loss2/ave_pool
I0906 15:28:33.254755 89648 net.cpp:155] Setting up loss2/ave_pool
I0906 15:28:33.254765 89648 net.cpp:163] Top shape: 50 608 4 4 (486400)
I0906 15:28:33.254771 89648 layer_factory.hpp:76] Creating layer loss2/conv
I0906 15:28:33.254783 89648 net.cpp:110] Creating Layer loss2/conv
I0906 15:28:33.254791 89648 net.cpp:477] loss2/conv <- loss2/ave_pool
I0906 15:28:33.254804 89648 net.cpp:433] loss2/conv -> loss2/conv
I0906 15:28:33.256141 89648 net.cpp:155] Setting up loss2/conv
I0906 15:28:33.256160 89648 net.cpp:163] Top shape: 50 128 4 4 (102400)
I0906 15:28:33.256180 89648 layer_factory.hpp:76] Creating layer BN_00000054
I0906 15:28:33.256191 89648 net.cpp:110] Creating Layer BN_00000054
I0906 15:28:33.256198 89648 net.cpp:477] BN_00000054 <- loss2/conv
I0906 15:28:33.256208 89648 net.cpp:433] BN_00000054 -> loss2/conv/bn
I0906 15:28:33.256285 89648 net.cpp:155] Setting up BN_00000054
I0906 15:28:33.256300 89648 net.cpp:163] Top shape: 50 128 4 4 (102400)
I0906 15:28:33.256314 89648 layer_factory.hpp:76] Creating layer loss2/relu_conv
I0906 15:28:33.256324 89648 net.cpp:110] Creating Layer loss2/relu_conv
I0906 15:28:33.256330 89648 net.cpp:477] loss2/relu_conv <- loss2/conv/bn
I0906 15:28:33.256340 89648 net.cpp:419] loss2/relu_conv -> loss2/conv/bn (in-place)
I0906 15:28:33.256353 89648 net.cpp:155] Setting up loss2/relu_conv
I0906 15:28:33.256383 89648 net.cpp:163] Top shape: 50 128 4 4 (102400)
I0906 15:28:33.256392 89648 layer_factory.hpp:76] Creating layer loss2/fc
I0906 15:28:33.256405 89648 net.cpp:110] Creating Layer loss2/fc
I0906 15:28:33.256412 89648 net.cpp:477] loss2/fc <- loss2/conv/bn
I0906 15:28:33.256427 89648 net.cpp:433] loss2/fc -> loss2/fc
I0906 15:28:33.294945 89648 net.cpp:155] Setting up loss2/fc
I0906 15:28:33.294986 89648 net.cpp:163] Top shape: 50 1024 (51200)
I0906 15:28:33.295002 89648 layer_factory.hpp:76] Creating layer BN_00000055
I0906 15:28:33.295017 89648 net.cpp:110] Creating Layer BN_00000055
I0906 15:28:33.295032 89648 net.cpp:477] BN_00000055 <- loss2/fc
I0906 15:28:33.295045 89648 net.cpp:433] BN_00000055 -> loss2/fc/bn
I0906 15:28:33.295124 89648 net.cpp:155] Setting up BN_00000055
I0906 15:28:33.295138 89648 net.cpp:163] Top shape: 50 1024 (51200)
I0906 15:28:33.295153 89648 layer_factory.hpp:76] Creating layer loss2/relu_fc
I0906 15:28:33.295166 89648 net.cpp:110] Creating Layer loss2/relu_fc
I0906 15:28:33.295172 89648 net.cpp:477] loss2/relu_fc <- loss2/fc/bn
I0906 15:28:33.295186 89648 net.cpp:419] loss2/relu_fc -> loss2/fc/bn (in-place)
I0906 15:28:33.295198 89648 net.cpp:155] Setting up loss2/relu_fc
I0906 15:28:33.295207 89648 net.cpp:163] Top shape: 50 1024 (51200)
I0906 15:28:33.295214 89648 layer_factory.hpp:76] Creating layer loss2/drop_fc
I0906 15:28:33.295225 89648 net.cpp:110] Creating Layer loss2/drop_fc
I0906 15:28:33.295233 89648 net.cpp:477] loss2/drop_fc <- loss2/fc/bn
I0906 15:28:33.295243 89648 net.cpp:419] loss2/drop_fc -> loss2/fc/bn (in-place)
I0906 15:28:33.295258 89648 net.cpp:155] Setting up loss2/drop_fc
I0906 15:28:33.295266 89648 net.cpp:163] Top shape: 50 1024 (51200)
I0906 15:28:33.295274 89648 layer_factory.hpp:76] Creating layer loss2/classifier
I0906 15:28:33.295287 89648 net.cpp:110] Creating Layer loss2/classifier
I0906 15:28:33.295294 89648 net.cpp:477] loss2/classifier <- loss2/fc/bn
I0906 15:28:33.295305 89648 net.cpp:433] loss2/classifier -> loss2/classifier
I0906 15:28:33.314296 89648 net.cpp:155] Setting up loss2/classifier
I0906 15:28:33.314333 89648 net.cpp:163] Top shape: 50 1000 (50000)
I0906 15:28:33.314348 89648 layer_factory.hpp:76] Creating layer loss2/classifier_loss2/classifier_0_split
I0906 15:28:33.314363 89648 net.cpp:110] Creating Layer loss2/classifier_loss2/classifier_0_split
I0906 15:28:33.314371 89648 net.cpp:477] loss2/classifier_loss2/classifier_0_split <- loss2/classifier
I0906 15:28:33.314384 89648 net.cpp:433] loss2/classifier_loss2/classifier_0_split -> loss2/classifier_loss2/classifier_0_split_0
I0906 15:28:33.314401 89648 net.cpp:433] loss2/classifier_loss2/classifier_0_split -> loss2/classifier_loss2/classifier_0_split_1
I0906 15:28:33.314415 89648 net.cpp:433] loss2/classifier_loss2/classifier_0_split -> loss2/classifier_loss2/classifier_0_split_2
I0906 15:28:33.314430 89648 net.cpp:155] Setting up loss2/classifier_loss2/classifier_0_split
I0906 15:28:33.314440 89648 net.cpp:163] Top shape: 50 1000 (50000)
I0906 15:28:33.314447 89648 net.cpp:163] Top shape: 50 1000 (50000)
I0906 15:28:33.314455 89648 net.cpp:163] Top shape: 50 1000 (50000)
I0906 15:28:33.314462 89648 layer_factory.hpp:76] Creating layer loss2/loss
I0906 15:28:33.314477 89648 net.cpp:110] Creating Layer loss2/loss
I0906 15:28:33.314484 89648 net.cpp:477] loss2/loss <- loss2/classifier_loss2/classifier_0_split_0
I0906 15:28:33.314494 89648 net.cpp:477] loss2/loss <- label_data_1_split_3
I0906 15:28:33.314507 89648 net.cpp:433] loss2/loss -> loss2/loss1
I0906 15:28:33.314522 89648 layer_factory.hpp:76] Creating layer loss2/loss
…
I0906 15:28:33.314993 89648 net.cpp:155] Setting up loss2/top-5
I0906 15:28:33.315001 89648 net.cpp:163] Top shape: (1)
I0906 15:28:33.315008 89648 layer_factory.hpp:76] Creating layer inception_4e/3x3_reduce
I0906 15:28:33.315022 89648 net.cpp:110] Creating Layer inception_4e/3x3_reduce
I0906 15:28:33.315032 89648 net.cpp:477] inception_4e/3x3_reduce <- inception_4d/output_inception_4d/output_0_split_1
I0906 15:28:33.315047 89648 net.cpp:433] inception_4e/3x3_reduce -> inception_4e/3x3_reduce
I0906 15:28:33.316403 89648 net.cpp:155] Setting up inception_4e/3x3_reduce
I0906 15:28:33.316422 89648 net.cpp:163] Top shape: 50 128 14 14 (1254400)
I0906 15:28:33.316437 89648 layer_factory.hpp:76] Creating layer BN_00000056
I0906 15:28:33.316447 89648 net.cpp:110] Creating Layer BN_00000056
I0906 15:28:33.316454 89648 net.cpp:477] BN_00000056 <- inception_4e/3x3_reduce
I0906 15:28:33.316465 89648 net.cpp:433] BN_00000056 -> inception_4e/3x3_reduce/bn
I0906 15:28:33.316552 89648 net.cpp:155] Setting up BN_00000056
I0906 15:28:33.316567 89648 net.cpp:163] Top shape: 50 128 14 14 (1254400)
I0906 15:28:33.316586 89648 layer_factory.hpp:76] Creating layer inception_4e/relu_3x3_reduce
I0906 15:28:33.316608 89648 net.cpp:110] Creating Layer inception_4e/relu_3x3_reduce
I0906 15:28:33.316617 89648 net.cpp:477] inception_4e/relu_3x3_reduce <- inception_4e/3x3_reduce/bn
I0906 15:28:33.316627 89648 net.cpp:419] inception_4e/relu_3x3_reduce -> inception_4e/3x3_reduce/bn (in-place)
I0906 15:28:33.316638 89648 net.cpp:155] Setting up inception_4e/relu_3x3_reduce
I0906 15:28:33.316648 89648 net.cpp:163] Top shape: 50 128 14 14 (1254400)
I0906 15:28:33.316654 89648 layer_factory.hpp:76] Creating layer inception_4e/3x3_s2
I0906 15:28:33.316666 89648 net.cpp:110] Creating Layer inception_4e/3x3_s2
I0906 15:28:33.316673 89648 net.cpp:477] inception_4e/3x3_s2 <- inception_4e/3x3_reduce/bn
I0906 15:28:33.316689 89648 net.cpp:433] inception_4e/3x3_s2 -> inception_4e/3x3_s2
I0906 15:28:33.321162 89648 net.cpp:155] Setting up inception_4e/3x3_s2
I0906 15:28:33.321188 89648 net.cpp:163] Top shape: 50 192 7 7 (470400)
I0906 15:28:33.321208 89648 layer_factory.hpp:76] Creating layer BN_00000057
I0906 15:28:33.321235 89648 net.cpp:110] Creating Layer BN_00000057
I0906 15:28:33.321244 89648 net.cpp:477] BN_00000057 <- inception_4e/3x3_s2
I0906 15:28:33.321256 89648 net.cpp:433] BN_00000057 -> inception_4e/3x3_s2/bn
I0906 15:28:33.321346 89648 net.cpp:155] Setting up BN_00000057
I0906 15:28:33.321360 89648 net.cpp:163] Top shape: 50 192 7 7 (470400)
I0906 15:28:33.321374 89648 layer_factory.hpp:76] Creating layer inception_4e/relu_3x3
I0906 15:28:33.321384 89648 net.cpp:110] Creating Layer inception_4e/relu_3x3
I0906 15:28:33.321393 89648 net.cpp:477] inception_4e/relu_3x3 <- inception_4e/3x3_s2/bn
I0906 15:28:33.321403 89648 net.cpp:419] inception_4e/relu_3x3 -> inception_4e/3x3_s2/bn (in-place)
I0906 15:28:33.321415 89648 net.cpp:155] Setting up inception_4e/relu_3x3
I0906 15:28:33.321424 89648 net.cpp:163] Top shape: 50 192 7 7 (470400)
I0906 15:28:33.321431 89648 layer_factory.hpp:76] Creating layer inception_4e/double3x3_reduce
I0906 15:28:33.321444 89648 net.cpp:110] Creating Layer inception_4e/double3x3_reduce
I0906 15:28:33.321452 89648 net.cpp:477] inception_4e/double3x3_reduce <- inception_4d/output_inception_4d/output_0_split_2
I0906 15:28:33.321466 89648 net.cpp:433] inception_4e/double3x3_reduce -> inception_4e/double3x3_reduce
I0906 15:28:33.324286 89648 net.cpp:155] Setting up inception_4e/double3x3_reduce
I0906 15:28:33.324311 89648 net.cpp:163] Top shape: 50 192 14 14 (1881600)
I0906 15:28:33.324326 89648 layer_factory.hpp:76] Creating layer BN_00000058
I0906 15:28:33.324339 89648 net.cpp:110] Creating Layer BN_00000058
I0906 15:28:33.324348 89648 net.cpp:477] BN_00000058 <- inception_4e/double3x3_reduce
I0906 15:28:33.324359 89648 net.cpp:433] BN_00000058 -> inception_4e/double3x3_reduce/bn
I0906 15:28:33.324446 89648 net.cpp:155] Setting up BN_00000058
I0906 15:28:33.324461 89648 net.cpp:163] Top shape: 50 192 14 14 (1881600)
I0906 15:28:33.324475 89648 layer_factory.hpp:76] Creating layer inception_4e/relu_double3x3_reduce
I0906 15:28:33.324484 89648 net.cpp:110] Creating Layer inception_4e/relu_double3x3_reduce
I0906 15:28:33.324492 89648 net.cpp:477] inception_4e/relu_double3x3_reduce <- inception_4e/double3x3_reduce/bn
I0906 15:28:33.324502 89648 net.cpp:419] inception_4e/relu_double3x3_reduce -> inception_4e/double3x3_reduce/bn (in-place)
I0906 15:28:33.324514 89648 net.cpp:155] Setting up inception_4e/relu_double3x3_reduce
I0906 15:28:33.324523 89648 net.cpp:163] Top shape: 50 192 14 14 (1881600)
I0906 15:28:33.324532 89648 layer_factory.hpp:76] Creating layer inception_4e/double3x3_mid
I0906 15:28:33.324543 89648 net.cpp:110] Creating Layer inception_4e/double3x3_mid
I0906 15:28:33.324550 89648 net.cpp:477] inception_4e/double3x3_mid <- inception_4e/double3x3_reduce/bn
I0906 15:28:33.324564 89648 net.cpp:433] inception_4e/double3x3_mid -> inception_4e/double3x3_mid
I0906 15:28:33.332860 89648 net.cpp:155] Setting up inception_4e/double3x3_mid
I0906 15:28:33.332885 89648 net.cpp:163] Top shape: 50 256 14 14 (2508800)
I0906 15:28:33.332900 89648 layer_factory.hpp:76] Creating layer BN_00000059
I0906 15:28:33.332911 89648 net.cpp:110] Creating Layer BN_00000059
I0906 15:28:33.332919 89648 net.cpp:477] BN_00000059 <- inception_4e/double3x3_mid
I0906 15:28:33.332934 89648 net.cpp:433] BN_00000059 -> inception_4e/double3x3_mid/bn
I0906 15:28:33.333010 89648 net.cpp:155] Setting up BN_00000059
I0906 15:28:33.333024 89648 net.cpp:163] Top shape: 50 256 14 14 (2508800)
I0906 15:28:33.333039 89648 layer_factory.hpp:76] Creating layer inception_4e/relu_double3x3_mid
I0906 15:28:33.333053 89648 net.cpp:110] Creating Layer inception_4e/relu_double3x3_mid
I0906 15:28:33.333061 89648 net.cpp:477] inception_4e/relu_double3x3_mid <- inception_4e/double3x3_mid/bn
I0906 15:28:33.333071 89648 net.cpp:419] inception_4e/relu_double3x3_mid -> inception_4e/double3x3_mid/bn (in-place)
I0906 15:28:33.333083 89648 net.cpp:155] Setting up inception_4e/relu_double3x3_mid
I0906 15:28:33.333092 89648 net.cpp:163] Top shape: 50 256 14 14 (2508800)
I0906 15:28:33.333099 89648 layer_factory.hpp:76] Creating layer inception_4e/double3x3
I0906 15:28:33.333112 89648 net.cpp:110] Creating Layer inception_4e/double3x3
I0906 15:28:33.333118 89648 net.cpp:477] inception_4e/double3x3 <- inception_4e/double3x3_mid/bn
I0906 15:28:33.333130 89648 net.cpp:433] inception_4e/double3x3 -> inception_4e/double3x3_s2
I0906 15:28:33.344089 89648 net.cpp:155] Setting up inception_4e/double3x3
I0906 15:28:33.344120 89648 net.cpp:163] Top shape: 50 256 7 7 (627200)
I0906 15:28:33.344133 89648 layer_factory.hpp:76] Creating layer BN_00000060
I0906 15:28:33.344146 89648 net.cpp:110] Creating Layer BN_00000060
I0906 15:28:33.344153 89648 net.cpp:477] BN_00000060 <- inception_4e/double3x3_s2
I0906 15:28:33.344166 89648 net.cpp:433] BN_00000060 -> inception_4e/double3x3_s2/bn
I0906 15:28:33.344244 89648 net.cpp:155] Setting up BN_00000060
I0906 15:28:33.344259 89648 net.cpp:163] Top shape: 50 256 7 7 (627200)
I0906 15:28:33.344271 89648 layer_factory.hpp:76] Creating layer inception_4e/relu_double3x3
I0906 15:28:33.344282 89648 net.cpp:110] Creating Layer inception_4e/relu_double3x3
I0906 15:28:33.344290 89648 net.cpp:477] inception_4e/relu_double3x3 <- inception_4e/double3x3_s2/bn
I0906 15:28:33.344298 89648 net.cpp:419] inception_4e/relu_double3x3 -> inception_4e/double3x3_s2/bn (in-place)
I0906 15:28:33.344336 89648 net.cpp:155] Setting up inception_4e/relu_double3x3
I0906 15:28:33.344346 89648 net.cpp:163] Top shape: 50 256 7 7 (627200)
I0906 15:28:33.344352 89648 layer_factory.hpp:76] Creating layer inception_4e/pool
I0906 15:28:33.344364 89648 net.cpp:110] Creating Layer inception_4e/pool
I0906 15:28:33.344372 89648 net.cpp:477] inception_4e/pool <- inception_4d/output_inception_4d/output_0_split_3
I0906 15:28:33.344386 89648 net.cpp:433] inception_4e/pool -> inception_4e/pool
I0906 15:28:33.344405 89648 net.cpp:155] Setting up inception_4e/pool
I0906 15:28:33.344425 89648 net.cpp:163] Top shape: 50 608 7 7 (1489600)
I0906 15:28:33.344432 89648 layer_factory.hpp:76] Creating layer BN_00000061
I0906 15:28:33.344441 89648 net.cpp:110] Creating Layer BN_00000061
I0906 15:28:33.344449 89648 net.cpp:477] BN_00000061 <- inception_4e/pool
I0906 15:28:33.344460 89648 net.cpp:433] BN_00000061 -> inception_4e/pool/bn
I0906 15:28:33.344554 89648 net.cpp:155] Setting up BN_00000061
I0906 15:28:33.344568 89648 net.cpp:163] Top shape: 50 608 7 7 (1489600)
I0906 15:28:33.344583 89648 layer_factory.hpp:76] Creating layer inception_4e/relu_pool
I0906 15:28:33.344591 89648 net.cpp:110] Creating Layer inception_4e/relu_pool
I0906 15:28:33.344599 89648 net.cpp:477] inception_4e/relu_pool <- inception_4e/pool/bn
I0906 15:28:33.344609 89648 net.cpp:419] inception_4e/relu_pool -> inception_4e/pool/bn (in-place)
I0906 15:28:33.344620 89648 net.cpp:155] Setting up inception_4e/relu_pool
I0906 15:28:33.344629 89648 net.cpp:163] Top shape: 50 608 7 7 (1489600)
I0906 15:28:33.344635 89648 layer_factory.hpp:76] Creating layer inception_4e/output
I0906 15:28:33.344646 89648 net.cpp:110] Creating Layer inception_4e/output
I0906 15:28:33.344653 89648 net.cpp:477] inception_4e/output <- inception_4e/3x3_s2/bn
I0906 15:28:33.344666 89648 net.cpp:477] inception_4e/output <- inception_4e/double3x3_s2/bn
I0906 15:28:33.344676 89648 net.cpp:477] inception_4e/output <- inception_4e/pool/bn
I0906 15:28:33.344686 89648 net.cpp:433] inception_4e/output -> inception_4e/output
I0906 15:28:33.344701 89648 net.cpp:155] Setting up inception_4e/output
I0906 15:28:33.344709 89648 net.cpp:163] Top shape: 50 1056 7 7 (2587200)
I0906 15:28:33.344717 89648 layer_factory.hpp:76] Creating layer inception_4e/output_inception_4e/output_0_split
I0906 15:28:33.344727 89648 net.cpp:110] Creating Layer inception_4e/output_inception_4e/output_0_split
I0906 15:28:33.344734 89648 net.cpp:477] inception_4e/output_inception_4e/output_0_split <- inception_4e/output
I0906 15:28:33.344745 89648 net.cpp:433] inception_4e/output_inception_4e/output_0_split -> inception_4e/output_inception_4e/output_0_split_0
I0906 15:28:33.344758 89648 net.cpp:433] inception_4e/output_inception_4e/output_0_split -> inception_4e/output_inception_4e/output_0_split_1
I0906 15:28:33.344771 89648 net.cpp:433] inception_4e/output_inception_4e/output_0_split -> inception_4e/output_inception_4e/output_0_split_2
I0906 15:28:33.344784 89648 net.cpp:433] inception_4e/output_inception_4e/output_0_split -> inception_4e/output_inception_4e/output_0_split_3
I0906 15:28:33.344797 89648 net.cpp:155] Setting up inception_4e/output_inception_4e/output_0_split
I0906 15:28:33.344806 89648 net.cpp:163] Top shape: 50 1056 7 7 (2587200)
I0906 15:28:33.344815 89648 net.cpp:163] Top shape: 50 1056 7 7 (2587200)
I0906 15:28:33.344822 89648 net.cpp:163] Top shape: 50 1056 7 7 (2587200)
I0906 15:28:33.344830 89648 net.cpp:163] Top shape: 50 1056 7 7 (2587200)
I0906 15:28:33.344836 89648 layer_factory.hpp:76] Creating layer inception_5a/1x1
I0906 15:28:33.344852 89648 net.cpp:110] Creating Layer inception_5a/1x1
I0906 15:28:33.344859 89648 net.cpp:477] inception_5a/1x1 <- inception_4e/output_inception_4e/output_0_split_0
I0906 15:28:33.344871 89648 net.cpp:433] inception_5a/1x1 -> inception_5a/1x1
I0906 15:28:33.351950 89648 net.cpp:155] Setting up inception_5a/1x1
I0906 15:28:33.351976 89648 net.cpp:163] Top shape: 50 352 7 7 (862400)
I0906 15:28:33.351994 89648 layer_factory.hpp:76] Creating layer BN_00000062
I0906 15:28:33.352035 89648 net.cpp:110] Creating Layer BN_00000062
I0906 15:28:33.352046 89648 net.cpp:477] BN_00000062 <- inception_5a/1x1
I0906 15:28:33.352057 89648 net.cpp:433] BN_00000062 -> inception_5a/1x1/bn
I0906 15:28:33.352145 89648 net.cpp:155] Setting up BN_00000062
I0906 15:28:33.352160 89648 net.cpp:163] Top shape: 50 352 7 7 (862400)
I0906 15:28:33.352174 89648 layer_factory.hpp:76] Creating layer inception_5a/relu_1x1
I0906 15:28:33.352185 89648 net.cpp:110] Creating Layer inception_5a/relu_1x1
I0906 15:28:33.352193 89648 net.cpp:477] inception_5a/relu_1x1 <- inception_5a/1x1/bn
I0906 15:28:33.352202 89648 net.cpp:419] inception_5a/relu_1x1 -> inception_5a/1x1/bn (in-place)
I0906 15:28:33.352215 89648 net.cpp:155] Setting up inception_5a/relu_1x1
I0906 15:28:33.352223 89648 net.cpp:163] Top shape: 50 352 7 7 (862400)
I0906 15:28:33.352231 89648 layer_factory.hpp:76] Creating layer inception_5a/3x3_reduce
I0906 15:28:33.352243 89648 net.cpp:110] Creating Layer inception_5a/3x3_reduce
I0906 15:28:33.352252 89648 net.cpp:477] inception_5a/3x3_reduce <- inception_4e/output_inception_4e/output_0_split_1
I0906 15:28:33.352272 89648 net.cpp:433] inception_5a/3x3_reduce -> inception_5a/3x3_reduce
I0906 15:28:33.356447 89648 net.cpp:155] Setting up inception_5a/3x3_reduce
I0906 15:28:33.356472 89648 net.cpp:163] Top shape: 50 192 7 7 (470400)
I0906 15:28:33.356487 89648 layer_factory.hpp:76] Creating layer BN_00000063
I0906 15:28:33.356503 89648 net.cpp:110] Creating Layer BN_00000063
I0906 15:28:33.356511 89648 net.cpp:477] BN_00000063 <- inception_5a/3x3_reduce
I0906 15:28:33.356523 89648 net.cpp:433] BN_00000063 -> inception_5a/3x3_reduce/bn
I0906 15:28:33.356611 89648 net.cpp:155] Setting up BN_00000063
I0906 15:28:33.356626 89648 net.cpp:163] Top shape: 50 192 7 7 (470400)
I0906 15:28:33.356638 89648 layer_factory.hpp:76] Creating layer inception_5a/relu_3x3_reduce
I0906 15:28:33.356649 89648 net.cpp:110] Creating Layer inception_5a/relu_3x3_reduce
I0906 15:28:33.356657 89648 net.cpp:477] inception_5a/relu_3x3_reduce <- inception_5a/3x3_reduce/bn
I0906 15:28:33.356667 89648 net.cpp:419] inception_5a/relu_3x3_reduce -> inception_5a/3x3_reduce/bn (in-place)
I0906 15:28:33.356679 89648 net.cpp:155] Setting up inception_5a/relu_3x3_reduce
I0906 15:28:33.356688 89648 net.cpp:163] Top shape: 50 192 7 7 (470400)
I0906 15:28:33.356695 89648 layer_factory.hpp:76] Creating layer inception_5a/3x3
I0906 15:28:33.356708 89648 net.cpp:110] Creating Layer inception_5a/3x3
I0906 15:28:33.356714 89648 net.cpp:477] inception_5a/3x3 <- inception_5a/3x3_reduce/bn
I0906 15:28:33.356729 89648 net.cpp:433] inception_5a/3x3 -> inception_5a/3x3
I0906 15:28:33.367079 89648 net.cpp:155] Setting up inception_5a/3x3
I0906 15:28:33.367104 89648 net.cpp:163] Top shape: 50 320 7 7 (784000)
I0906 15:28:33.367120 89648 layer_factory.hpp:76] Creating layer BN_00000064
I0906 15:28:33.367135 89648 net.cpp:110] Creating Layer BN_00000064
I0906 15:28:33.367143 89648 net.cpp:477] BN_00000064 <- inception_5a/3x3
I0906 15:28:33.367156 89648 net.cpp:433] BN_00000064 -> inception_5a/3x3/bn
I0906 15:28:33.367245 89648 net.cpp:155] Setting up BN_00000064
I0906 15:28:33.367260 89648 net.cpp:163] Top shape: 50 320 7 7 (784000)
I0906 15:28:33.367274 89648 layer_factory.hpp:76] Creating layer inception_5a/relu_3x3
I0906 15:28:33.367285 89648 net.cpp:110] Creating Layer inception_5a/relu_3x3
I0906 15:28:33.367292 89648 net.cpp:477] inception_5a/relu_3x3 <- inception_5a/3x3/bn
I0906 15:28:33.367302 89648 net.cpp:419] inception_5a/relu_3x3 -> inception_5a/3x3/bn (in-place)
I0906 15:28:33.367315 89648 net.cpp:155] Setting up inception_5a/relu_3x3
I0906 15:28:33.367323 89648 net.cpp:163] Top shape: 50 320 7 7 (784000)
I0906 15:28:33.367331 89648 layer_factory.hpp:76] Creating layer inception_5a/double3x3_reduce
I0906 15:28:33.367343 89648 net.cpp:110] Creating Layer inception_5a/double3x3_reduce
I0906 15:28:33.367350 89648 net.cpp:477] inception_5a/double3x3_reduce <- inception_4e/output_inception_4e/output_0_split_2
I0906 15:28:33.367365 89648 net.cpp:433] inception_5a/double3x3_reduce -> inception_5a/double3x3_reduce
I0906 15:28:33.371127 89648 net.cpp:155] Setting up inception_5a/double3x3_reduce
I0906 15:28:33.371153 89648 net.cpp:163] Top shape: 50 160 7 7 (392000)
I0906 15:28:33.371229 89648 layer_factory.hpp:76] Creating layer BN_00000065
I0906 15:28:33.371248 89648 net.cpp:110] Creating Layer BN_00000065
I0906 15:28:33.371258 89648 net.cpp:477] BN_00000065 <- inception_5a/double3x3_reduce
I0906 15:28:33.371269 89648 net.cpp:433] BN_00000065 -> inception_5a/double3x3_reduce/bn
I0906 15:28:33.371361 89648 net.cpp:155] Setting up BN_00000065
I0906 15:28:33.371376 89648 net.cpp:163] Top shape: 50 160 7 7 (392000)
I0906 15:28:33.371389 89648 layer_factory.hpp:76] Creating layer inception_5a/relu_double3x3_reduce
I0906 15:28:33.371399 89648 net.cpp:110] Creating Layer inception_5a/relu_double3x3_reduce
I0906 15:28:33.371407 89648 net.cpp:477] inception_5a/relu_double3x3_reduce <- inception_5a/double3x3_reduce/bn
I0906 15:28:33.371422 89648 net.cpp:419] inception_5a/relu_double3x3_reduce -> inception_5a/double3x3_reduce/bn (in-place)
I0906 15:28:33.371434 89648 net.cpp:155] Setting up inception_5a/relu_double3x3_reduce
I0906 15:28:33.371443 89648 net.cpp:163] Top shape: 50 160 7 7 (392000)
I0906 15:28:33.371449 89648 layer_factory.hpp:76] Creating layer inception_5a/double3x3_mid
I0906 15:28:33.371464 89648 net.cpp:110] Creating Layer inception_5a/double3x3_mid
I0906 15:28:33.371469 89648 net.cpp:477] inception_5a/double3x3_mid <- inception_5a/double3x3_reduce/bn
I0906 15:28:33.371481 89648 net.cpp:433] inception_5a/double3x3_mid -> inception_5a/double3x3_mid
I0906 15:28:33.377915 89648 net.cpp:155] Setting up inception_5a/double3x3_mid
I0906 15:28:33.377950 89648 net.cpp:163] Top shape: 50 224 7 7 (548800)
I0906 15:28:33.377964 89648 layer_factory.hpp:76] Creating layer BN_00000066
I0906 15:28:33.377976 89648 net.cpp:110] Creating Layer BN_00000066
I0906 15:28:33.377985 89648 net.cpp:477] BN_00000066 <- inception_5a/double3x3_mid
I0906 15:28:33.377996 89648 net.cpp:433] BN_00000066 -> inception_5a/double3x3_mid/bn
I0906 15:28:33.378093 89648 net.cpp:155] Setting up BN_00000066
I0906 15:28:33.378108 89648 net.cpp:163] Top shape: 50 224 7 7 (548800)
I0906 15:28:33.378123 89648 layer_factory.hpp:76] Creating layer inception_5a/relu_double3x3_mid
I0906 15:28:33.378132 89648 net.cpp:110] Creating Layer inception_5a/relu_double3x3_mid
I0906 15:28:33.378140 89648 net.cpp:477] inception_5a/relu_double3x3_mid <- inception_5a/double3x3_mid/bn
I0906 15:28:33.378154 89648 net.cpp:419] inception_5a/relu_double3x3_mid -> inception_5a/double3x3_mid/bn (in-place)
I0906 15:28:33.378166 89648 net.cpp:155] Setting up inception_5a/relu_double3x3_mid
I0906 15:28:33.378175 89648 net.cpp:163] Top shape: 50 224 7 7 (548800)
I0906 15:28:33.378182 89648 layer_factory.hpp:76] Creating layer inception_5a/double3x3
I0906 15:28:33.378195 89648 net.cpp:110] Creating Layer inception_5a/double3x3
I0906 15:28:33.378201 89648 net.cpp:477] inception_5a/double3x3 <- inception_5a/double3x3_mid/bn
I0906 15:28:33.378217 89648 net.cpp:433] inception_5a/double3x3 -> inception_5a/double3x3
I0906 15:28:33.387008 89648 net.cpp:155] Setting up inception_5a/double3x3
I0906 15:28:33.387039 89648 net.cpp:163] Top shape: 50 224 7 7 (548800)
I0906 15:28:33.387054 89648 layer_factory.hpp:76] Creating layer BN_00000067
I0906 15:28:33.387065 89648 net.cpp:110] Creating Layer BN_00000067
I0906 15:28:33.387073 89648 net.cpp:477] BN_00000067 <- inception_5a/double3x3
I0906 15:28:33.387085 89648 net.cpp:433] BN_00000067 -> inception_5a/double3x3/bn
I0906 15:28:33.387172 89648 net.cpp:155] Setting up BN_00000067
I0906 15:28:33.387188 89648 net.cpp:163] Top shape: 50 224 7 7 (548800)
I0906 15:28:33.387202 89648 layer_factory.hpp:76] Creating layer inception_5a/relu_double3x3
I0906 15:28:33.387212 89648 net.cpp:110] Creating Layer inception_5a/relu_double3x3
I0906 15:28:33.387219 89648 net.cpp:477] inception_5a/relu_double3x3 <- inception_5a/double3x3/bn
I0906 15:28:33.387229 89648 net.cpp:419] inception_5a/relu_double3x3 -> inception_5a/double3x3/bn (in-place)
I0906 15:28:33.387267 89648 net.cpp:155] Setting up inception_5a/relu_double3x3
I0906 15:28:33.387279 89648 net.cpp:163] Top shape: 50 224 7 7 (548800)
I0906 15:28:33.387285 89648 layer_factory.hpp:76] Creating layer inception_5a/pool
I0906 15:28:33.387301 89648 net.cpp:110] Creating Layer inception_5a/pool
I0906 15:28:33.387310 89648 net.cpp:477] inception_5a/pool <- inception_4e/output_inception_4e/output_0_split_3
I0906 15:28:33.387320 89648 net.cpp:433] inception_5a/pool -> inception_5a/pool
I0906 15:28:33.387336 89648 net.cpp:155] Setting up inception_5a/pool
I0906 15:28:33.387348 89648 net.cpp:163] Top shape: 50 1056 7 7 (2587200)
I0906 15:28:33.387356 89648 layer_factory.hpp:76] Creating layer inception_5a/pool_proj
I0906 15:28:33.387368 89648 net.cpp:110] Creating Layer inception_5a/pool_proj
I0906 15:28:33.387377 89648 net.cpp:477] inception_5a/pool_proj <- inception_5a/pool
I0906 15:28:33.387392 89648 net.cpp:433] inception_5a/pool_proj -> inception_5a/pool_proj
I0906 15:28:33.389658 89648 net.cpp:155] Setting up inception_5a/pool_proj
I0906 15:28:33.389677 89648 net.cpp:163] Top shape: 50 128 7 7 (313600)
I0906 15:28:33.389693 89648 layer_factory.hpp:76] Creating layer BN_00000068
I0906 15:28:33.389703 89648 net.cpp:110] Creating Layer BN_00000068
I0906 15:28:33.389711 89648 net.cpp:477] BN_00000068 <- inception_5a/pool_proj
I0906 15:28:33.389722 89648 net.cpp:433] BN_00000068 -> inception_5a/pool_proj/bn
I0906 15:28:33.389801 89648 net.cpp:155] Setting up BN_00000068
I0906 15:28:33.389816 89648 net.cpp:163] Top shape: 50 128 7 7 (313600)
I0906 15:28:33.389828 89648 layer_factory.hpp:76] Creating layer inception_5a/relu_pool_proj
I0906 15:28:33.389838 89648 net.cpp:110] Creating Layer inception_5a/relu_pool_proj
I0906 15:28:33.389847 89648 net.cpp:477] inception_5a/relu_pool_proj <- inception_5a/pool_proj/bn
I0906 15:28:33.389857 89648 net.cpp:419] inception_5a/relu_pool_proj -> inception_5a/pool_proj/bn (in-place)
I0906 15:28:33.389868 89648 net.cpp:155] Setting up inception_5a/relu_pool_proj
I0906 15:28:33.389876 89648 net.cpp:163] Top shape: 50 128 7 7 (313600)
I0906 15:28:33.389883 89648 layer_factory.hpp:76] Creating layer inception_5a/output
I0906 15:28:33.389894 89648 net.cpp:110] Creating Layer inception_5a/output
I0906 15:28:33.389901 89648 net.cpp:477] inception_5a/output <- inception_5a/1x1/bn
I0906 15:28:33.389910 89648 net.cpp:477] inception_5a/output <- inception_5a/3x3/bn
I0906 15:28:33.389919 89648 net.cpp:477] inception_5a/output <- inception_5a/double3x3/bn
I0906 15:28:33.389927 89648 net.cpp:477] inception_5a/output <- inception_5a/pool_proj/bn
I0906 15:28:33.389937 89648 net.cpp:433] inception_5a/output -> inception_5a/output
I0906 15:28:33.389952 89648 net.cpp:155] Setting up inception_5a/output
I0906 15:28:33.389961 89648 net.cpp:163] Top shape: 50 1024 7 7 (2508800)
I0906 15:28:33.389967 89648 layer_factory.hpp:76] Creating layer inception_5a/output_inception_5a/output_0_split
I0906 15:28:33.389982 89648 net.cpp:110] Creating Layer inception_5a/output_inception_5a/output_0_split
I0906 15:28:33.389989 89648 net.cpp:477] inception_5a/output_inception_5a/output_0_split <- inception_5a/output
I0906 15:28:33.390002 89648 net.cpp:433] inception_5a/output_inception_5a/output_0_split -> inception_5a/output_inception_5a/output_0_split_0
I0906 15:28:33.390014 89648 net.cpp:433] inception_5a/output_inception_5a/output_0_split -> inception_5a/output_inception_5a/output_0_split_1
I0906 15:28:33.390032 89648 net.cpp:433] inception_5a/output_inception_5a/output_0_split -> inception_5a/output_inception_5a/output_0_split_2
I0906 15:28:33.390058 89648 net.cpp:433] inception_5a/output_inception_5a/output_0_split -> inception_5a/output_inception_5a/output_0_split_3
I0906 15:28:33.390071 89648 net.cpp:155] Setting up inception_5a/output_inception_5a/output_0_split
I0906 15:28:33.390080 89648 net.cpp:163] Top shape: 50 1024 7 7 (2508800)
I0906 15:28:33.390089 89648 net.cpp:163] Top shape: 50 1024 7 7 (2508800)
I0906 15:28:33.390096 89648 net.cpp:163] Top shape: 50 1024 7 7 (2508800)
I0906 15:28:33.390122 89648 net.cpp:163] Top shape: 50 1024 7 7 (2508800)
I0906 15:28:33.390130 89648 layer_factory.hpp:76] Creating layer inception_5b/1x1
I0906 15:28:33.390142 89648 net.cpp:110] Creating Layer inception_5b/1x1
I0906 15:28:33.390151 89648 net.cpp:477] inception_5b/1x1 <- inception_5a/output_inception_5a/output_0_split_0
I0906 15:28:33.390166 89648 net.cpp:433] inception_5b/1x1 -> inception_5b/1x1
I0906 15:28:33.397271 89648 net.cpp:155] Setting up inception_5b/1x1
I0906 15:28:33.397297 89648 net.cpp:163] Top shape: 50 352 7 7 (862400)
I0906 15:28:33.397312 89648 layer_factory.hpp:76] Creating layer BN_00000069
I0906 15:28:33.397325 89648 net.cpp:110] Creating Layer BN_00000069
I0906 15:28:33.397332 89648 net.cpp:477] BN_00000069 <- inception_5b/1x1
I0906 15:28:33.397348 89648 net.cpp:433] BN_00000069 -> inception_5b/1x1/bn
I0906 15:28:33.397439 89648 net.cpp:155] Setting up BN_00000069
I0906 15:28:33.397454 89648 net.cpp:163] Top shape: 50 352 7 7 (862400)
I0906 15:28:33.397467 89648 layer_factory.hpp:76] Creating layer inception_5b/relu_1x1
I0906 15:28:33.397477 89648 net.cpp:110] Creating Layer inception_5b/relu_1x1
I0906 15:28:33.397485 89648 net.cpp:477] inception_5b/relu_1x1 <- inception_5b/1x1/bn
I0906 15:28:33.397495 89648 net.cpp:419] inception_5b/relu_1x1 -> inception_5b/1x1/bn (in-place)
I0906 15:28:33.397507 89648 net.cpp:155] Setting up inception_5b/relu_1x1
I0906 15:28:33.397516 89648 net.cpp:163] Top shape: 50 352 7 7 (862400)
I0906 15:28:33.397523 89648 layer_factory.hpp:76] Creating layer inception_5b/3x3_reduce
I0906 15:28:33.397536 89648 net.cpp:110] Creating Layer inception_5b/3x3_reduce
I0906 15:28:33.397543 89648 net.cpp:477] inception_5b/3x3_reduce <- inception_5a/output_inception_5a/output_0_split_1
I0906 15:28:33.397559 89648 net.cpp:433] inception_5b/3x3_reduce -> inception_5b/3x3_reduce
I0906 15:28:33.401789 89648 net.cpp:155] Setting up inception_5b/3x3_reduce
I0906 15:28:33.401814 89648 net.cpp:163] Top shape: 50 192 7 7 (470400)
I0906 15:28:33.401829 89648 layer_factory.hpp:76] Creating layer BN_00000070
I0906 15:28:33.401840 89648 net.cpp:110] Creating Layer BN_00000070
I0906 15:28:33.401849 89648 net.cpp:477] BN_00000070 <- inception_5b/3x3_reduce
I0906 15:28:33.401865 89648 net.cpp:433] BN_00000070 -> inception_5b/3x3_reduce/bn
I0906 15:28:33.401950 89648 net.cpp:155] Setting up BN_00000070
I0906 15:28:33.401965 89648 net.cpp:163] Top shape: 50 192 7 7 (470400)
I0906 15:28:33.401983 89648 layer_factory.hpp:76] Creating layer inception_5b/relu_3x3_reduce
I0906 15:28:33.402007 89648 net.cpp:110] Creating Layer inception_5b/relu_3x3_reduce
I0906 15:28:33.402015 89648 net.cpp:477] inception_5b/relu_3x3_reduce <- inception_5b/3x3_reduce/bn
I0906 15:28:33.402026 89648 net.cpp:419] inception_5b/relu_3x3_reduce -> inception_5b/3x3_reduce/bn (in-place)
I0906 15:28:33.402039 89648 net.cpp:155] Setting up inception_5b/relu_3x3_reduce
I0906 15:28:33.402046 89648 net.cpp:163] Top shape: 50 192 7 7 (470400)
I0906 15:28:33.402055 89648 layer_factory.hpp:76] Creating layer inception_5b/3x3
I0906 15:28:33.402119 89648 net.cpp:110] Creating Layer inception_5b/3x3
I0906 15:28:33.402130 89648 net.cpp:477] inception_5b/3x3 <- inception_5b/3x3_reduce/bn
I0906 15:28:33.402143 89648 net.cpp:433] inception_5b/3x3 -> inception_5b/3x3
I0906 15:28:33.412856 89648 net.cpp:155] Setting up inception_5b/3x3
I0906 15:28:33.412885 89648 net.cpp:163] Top shape: 50 320 7 7 (784000)
I0906 15:28:33.412901 89648 layer_factory.hpp:76] Creating layer BN_00000071
I0906 15:28:33.412925 89648 net.cpp:110] Creating Layer BN_00000071
I0906 15:28:33.412935 89648 net.cpp:477] BN_00000071 <- inception_5b/3x3
I0906 15:28:33.412946 89648 net.cpp:433] BN_00000071 -> inception_5b/3x3/bn
I0906 15:28:33.413035 89648 net.cpp:155] Setting up BN_00000071
I0906 15:28:33.413050 89648 net.cpp:163] Top shape: 50 320 7 7 (784000)
I0906 15:28:33.413065 89648 layer_factory.hpp:76] Creating layer inception_5b/relu_3x3
I0906 15:28:33.413075 89648 net.cpp:110] Creating Layer inception_5b/relu_3x3
I0906 15:28:33.413084 89648 net.cpp:477] inception_5b/relu_3x3 <- inception_5b/3x3/bn
I0906 15:28:33.413121 89648 net.cpp:419] inception_5b/relu_3x3 -> inception_5b/3x3/bn (in-place)
I0906 15:28:33.413136 89648 net.cpp:155] Setting up inception_5b/relu_3x3
I0906 15:28:33.413146 89648 net.cpp:163] Top shape: 50 320 7 7 (784000)
I0906 15:28:33.413152 89648 layer_factory.hpp:76] Creating layer inception_5b/double3x3_reduce
I0906 15:28:33.413168 89648 net.cpp:110] Creating Layer inception_5b/double3x3_reduce
I0906 15:28:33.413177 89648 net.cpp:477] inception_5b/double3x3_reduce <- inception_5a/output_inception_5a/output_0_split_2
I0906 15:28:33.413189 89648 net.cpp:433] inception_5b/double3x3_reduce -> inception_5b/double3x3_reduce
I0906 15:28:33.417263 89648 net.cpp:155] Setting up inception_5b/double3x3_reduce
I0906 15:28:33.417297 89648 net.cpp:163] Top shape: 50 192 7 7 (470400)
I0906 15:28:33.417311 89648 layer_factory.hpp:76] Creating layer BN_00000072
I0906 15:28:33.417323 89648 net.cpp:110] Creating Layer BN_00000072
I0906 15:28:33.417331 89648 net.cpp:477] BN_00000072 <- inception_5b/double3x3_reduce
I0906 15:28:33.417346 89648 net.cpp:433] BN_00000072 -> inception_5b/double3x3_reduce/bn
I0906 15:28:33.417433 89648 net.cpp:155] Setting up BN_00000072
I0906 15:28:33.417448 89648 net.cpp:163] Top shape: 50 192 7 7 (470400)
I0906 15:28:33.417462 89648 layer_factory.hpp:76] Creating layer inception_5b/relu_double3x3_reduce
I0906 15:28:33.417472 89648 net.cpp:110] Creating Layer inception_5b/relu_double3x3_reduce
I0906 15:28:33.417480 89648 net.cpp:477] inception_5b/relu_double3x3_reduce <- inception_5b/double3x3_reduce/bn
I0906 15:28:33.417490 89648 net.cpp:419] inception_5b/relu_double3x3_reduce -> inception_5b/double3x3_reduce/bn (in-place)
I0906 15:28:33.417502 89648 net.cpp:155] Setting up inception_5b/relu_double3x3_reduce
I0906 15:28:33.417511 89648 net.cpp:163] Top shape: 50 192 7 7 (470400)
I0906 15:28:33.417518 89648 layer_factory.hpp:76] Creating layer inception_5b/double3x3_mid
I0906 15:28:33.417534 89648 net.cpp:110] Creating Layer inception_5b/double3x3_mid
I0906 15:28:33.417541 89648 net.cpp:477] inception_5b/double3x3_mid <- inception_5b/double3x3_reduce/bn
I0906 15:28:33.417552 89648 net.cpp:433] inception_5b/double3x3_mid -> inception_5b/double3x3_mid
I0906 15:28:33.424887 89648 net.cpp:155] Setting up inception_5b/double3x3_mid
I0906 15:28:33.424917 89648 net.cpp:163] Top shape: 50 224 7 7 (548800)
I0906 15:28:33.424932 89648 layer_factory.hpp:76] Creating layer BN_00000073
I0906 15:28:33.424943 89648 net.cpp:110] Creating Layer BN_00000073
I0906 15:28:33.424952 89648 net.cpp:477] BN_00000073 <- inception_5b/double3x3_mid
I0906 15:28:33.424963 89648 net.cpp:433] BN_00000073 -> inception_5b/double3x3_mid/bn
I0906 15:28:33.425051 89648 net.cpp:155] Setting up BN_00000073
I0906 15:28:33.425066 89648 net.cpp:163] Top shape: 50 224 7 7 (548800)
I0906 15:28:33.425081 89648 layer_factory.hpp:76] Creating layer inception_5b/relu_double3x3_mid
I0906 15:28:33.425091 89648 net.cpp:110] Creating Layer inception_5b/relu_double3x3_mid
I0906 15:28:33.425098 89648 net.cpp:477] inception_5b/relu_double3x3_mid <- inception_5b/double3x3_mid/bn
I0906 15:28:33.425107 89648 net.cpp:419] inception_5b/relu_double3x3_mid -> inception_5b/double3x3_mid/bn (in-place)
I0906 15:28:33.425119 89648 net.cpp:155] Setting up inception_5b/relu_double3x3_mid
I0906 15:28:33.425128 89648 net.cpp:163] Top shape: 50 224 7 7 (548800)
I0906 15:28:33.425134 89648 layer_factory.hpp:76] Creating layer inception_5b/double3x3
I0906 15:28:33.425150 89648 net.cpp:110] Creating Layer inception_5b/double3x3
I0906 15:28:33.425158 89648 net.cpp:477] inception_5b/double3x3 <- inception_5b/double3x3_mid/bn
I0906 15:28:33.425169 89648 net.cpp:433] inception_5b/double3x3 -> inception_5b/double3x3
I0906 15:28:33.433665 89648 net.cpp:155] Setting up inception_5b/double3x3
I0906 15:28:33.433696 89648 net.cpp:163] Top shape: 50 224 7 7 (548800)
I0906 15:28:33.433711 89648 layer_factory.hpp:76] Creating layer BN_00000074
I0906 15:28:33.433722 89648 net.cpp:110] Creating Layer BN_00000074
I0906 15:28:33.433750 89648 net.cpp:477] BN_00000074 <- inception_5b/double3x3
I0906 15:28:33.433763 89648 net.cpp:433] BN_00000074 -> inception_5b/double3x3/bn
I0906 15:28:33.433854 89648 net.cpp:155] Setting up BN_00000074
I0906 15:28:33.433871 89648 net.cpp:163] Top shape: 50 224 7 7 (548800)
I0906 15:28:33.433884 89648 layer_factory.hpp:76] Creating layer inception_5b/relu_double3x3
I0906 15:28:33.433895 89648 net.cpp:110] Creating Layer inception_5b/relu_double3x3
I0906 15:28:33.433903 89648 net.cpp:477] inception_5b/relu_double3x3 <- inception_5b/double3x3/bn
I0906 15:28:33.433913 89648 net.cpp:419] inception_5b/relu_double3x3 -> inception_5b/double3x3/bn (in-place)
I0906 15:28:33.433925 89648 net.cpp:155] Setting up inception_5b/relu_double3x3
I0906 15:28:33.433934 89648 net.cpp:163] Top shape: 50 224 7 7 (548800)
I0906 15:28:33.433940 89648 layer_factory.hpp:76] Creating layer inception_5b/pool
I0906 15:28:33.433951 89648 net.cpp:110] Creating Layer inception_5b/pool
I0906 15:28:33.433959 89648 net.cpp:477] inception_5b/pool <- inception_5a/output_inception_5a/output_0_split_3
I0906 15:28:33.433972 89648 net.cpp:433] inception_5b/pool -> inception_5b/pool
I0906 15:28:33.433990 89648 net.cpp:155] Setting up inception_5b/pool
I0906 15:28:33.434011 89648 net.cpp:163] Top shape: 50 1024 7 7 (2508800)
I0906 15:28:33.434017 89648 layer_factory.hpp:76] Creating layer inception_5b/pool_proj
I0906 15:28:33.434031 89648 net.cpp:110] Creating Layer inception_5b/pool_proj
I0906 15:28:33.434038 89648 net.cpp:477] inception_5b/pool_proj <- inception_5b/pool
I0906 15:28:33.434049 89648 net.cpp:433] inception_5b/pool_proj -> inception_5b/pool_proj
I0906 15:28:33.437085 89648 net.cpp:155] Setting up inception_5b/pool_proj
I0906 15:28:33.437109 89648 net.cpp:163] Top shape: 50 128 7 7 (313600)
I0906 15:28:33.437124 89648 layer_factory.hpp:76] Creating layer BN_00000075
I0906 15:28:33.437135 89648 net.cpp:110] Creating Layer BN_00000075
I0906 15:28:33.437144 89648 net.cpp:477] BN_00000075 <- inception_5b/pool_proj
I0906 15:28:33.437155 89648 net.cpp:433] BN_00000075 -> inception_5b/pool_proj/bn
I0906 15:28:33.437237 89648 net.cpp:155] Setting up BN_00000075
I0906 15:28:33.437252 89648 net.cpp:163] Top shape: 50 128 7 7 (313600)
I0906 15:28:33.437265 89648 layer_factory.hpp:76] Creating layer inception_5b/relu_pool_proj
I0906 15:28:33.437275 89648 net.cpp:110] Creating Layer inception_5b/relu_pool_proj
I0906 15:28:33.437283 89648 net.cpp:477] inception_5b/relu_pool_proj <- inception_5b/pool_proj/bn
I0906 15:28:33.437293 89648 net.cpp:419] inception_5b/relu_pool_proj -> inception_5b/pool_proj/bn (in-place)
I0906 15:28:33.437304 89648 net.cpp:155] Setting up inception_5b/relu_pool_proj
I0906 15:28:33.437314 89648 net.cpp:163] Top shape: 50 128 7 7 (313600)
I0906 15:28:33.437320 89648 layer_factory.hpp:76] Creating layer inception_5b/output
I0906 15:28:33.437333 89648 net.cpp:110] Creating Layer inception_5b/output
I0906 15:28:33.437341 89648 net.cpp:477] inception_5b/output <- inception_5b/1x1/bn
I0906 15:28:33.437351 89648 net.cpp:477] inception_5b/output <- inception_5b/3x3/bn
I0906 15:28:33.437361 89648 net.cpp:477] inception_5b/output <- inception_5b/double3x3/bn
I0906 15:28:33.437369 89648 net.cpp:477] inception_5b/output <- inception_5b/pool_proj/bn
I0906 15:28:33.437379 89648 net.cpp:433] inception_5b/output -> inception_5b/output
I0906 15:28:33.437393 89648 net.cpp:155] Setting up inception_5b/output
I0906 15:28:33.437403 89648 net.cpp:163] Top shape: 50 1024 7 7 (2508800)
I0906 15:28:33.437409 89648 layer_factory.hpp:76] Creating layer pool5/7x7_s1
I0906 15:28:33.437420 89648 net.cpp:110] Creating Layer pool5/7x7_s1
I0906 15:28:33.437427 89648 net.cpp:477] pool5/7x7_s1 <- inception_5b/output
I0906 15:28:33.437438 89648 net.cpp:433] pool5/7x7_s1 -> pool5/7x7_s1
I0906 15:28:33.437453 89648 net.cpp:155] Setting up pool5/7x7_s1
I0906 15:28:33.437463 89648 net.cpp:163] Top shape: 50 1024 1 1 (51200)
I0906 15:28:33.437469 89648 layer_factory.hpp:76] Creating layer pool5/drop_7x7_s1
I0906 15:28:33.437479 89648 net.cpp:110] Creating Layer pool5/drop_7x7_s1
I0906 15:28:33.437506 89648 net.cpp:477] pool5/drop_7x7_s1 <- pool5/7x7_s1
I0906 15:28:33.437521 89648 net.cpp:419] pool5/drop_7x7_s1 -> pool5/7x7_s1 (in-place)
I0906 15:28:33.437551 89648 net.cpp:155] Setting up pool5/drop_7x7_s1
I0906 15:28:33.437561 89648 net.cpp:163] Top shape: 50 1024 1 1 (51200)
I0906 15:28:33.437567 89648 layer_factory.hpp:76] Creating layer loss3/classifier
I0906 15:28:33.437582 89648 net.cpp:110] Creating Layer loss3/classifier
I0906 15:28:33.437588 89648 net.cpp:477] loss3/classifier <- pool5/7x7_s1
I0906 15:28:33.437600 89648 net.cpp:433] loss3/classifier -> loss3/classifier
I0906 15:28:33.457037 89648 net.cpp:155] Setting up loss3/classifier
I0906 15:28:33.457068 89648 net.cpp:163] Top shape: 50 1000 (50000)
I0906 15:28:33.457083 89648 layer_factory.hpp:76] Creating layer loss3/classifier_loss3/classifier_0_split
I0906 15:28:33.457098 89648 net.cpp:110] Creating Layer loss3/classifier_loss3/classifier_0_split
I0906 15:28:33.457105 89648 net.cpp:477] loss3/classifier_loss3/classifier_0_split <- loss3/classifier
I0906 15:28:33.457118 89648 net.cpp:433] loss3/classifier_loss3/classifier_0_split -> loss3/classifier_loss3/classifier_0_split_0
I0906 15:28:33.457132 89648 net.cpp:433] loss3/classifier_loss3/classifier_0_split -> loss3/classifier_loss3/classifier_0_split_1
I0906 15:28:33.457145 89648 net.cpp:433] loss3/classifier_loss3/classifier_0_split -> loss3/classifier_loss3/classifier_0_split_2
I0906 15:28:33.457160 89648 net.cpp:155] Setting up loss3/classifier_loss3/classifier_0_split
I0906 15:28:33.457170 89648 net.cpp:163] Top shape: 50 1000 (50000)
I0906 15:28:33.457177 89648 net.cpp:163] Top shape: 50 1000 (50000)
I0906 15:28:33.457185 89648 net.cpp:163] Top shape: 50 1000 (50000)
I0906 15:28:33.457191 89648 layer_factory.hpp:76] Creating layer loss3/loss3
I0906 15:28:33.457202 89648 net.cpp:110] Creating Layer loss3/loss3
I0906 15:28:33.457209 89648 net.cpp:477] loss3/loss3 <- loss3/classifier_loss3/classifier_0_split_0
I0906 15:28:33.457218 89648 net.cpp:477] loss3/loss3 <- label_data_1_split_6
I0906 15:28:33.457232 89648 net.cpp:433] loss3/loss3 -> loss3/loss3
…
