…
I0905 23:20:49.543063 83600 net.cpp:339] The NetState phase (0) differed from the phase (1) specified by a rule in layer mnist
I0905 23:20:49.543102 83600 net.cpp:339] The NetState phase (0) differed from the phase (1) specified by a rule in layer accuracy
I0905 23:20:49.543289 83600 net.cpp:50] Initializing net from parameters: 
name: "FCN_MNIST_BN"
state {
  phase: TRAIN
}
layer {
  name: "mnist"
  type: "Data"
  top: "data"
  top: "label"
  include {
    phase: TRAIN
  }
  transform_param {
    scale: 0.00390625
  }
  data_param {
    source: "examples/mnist/mnist_train_lmdb"
    batch_size: 64
    backend: LMDB
  }
}
layer {
  name: "ip1"
  type: "InnerProduct"
  bottom: "data"
  top: "ip1"
  param {
    lr_mult: 1
  }
  param {
    lr_mult: 2
  }
  inner_product_param {
    num_output: 100
    weight_filler {
      type: "xavier"
    }
    bias_filler {
      type: "constant"
    }
  }
}
layer {
  name: "bn1"
  type: "BN"
  bottom: "ip1"
  top: "ip1_bn"
}
layer {
  name: "sigmoid1"
  type: "Sigmoid"
  bottom: "ip1_bn"
  top: "ip1_bn"
}
layer {
  name: "ip2"
  type: "InnerProduct"
  bottom: "ip1_bn"
  top: "ip2"
  param {
    lr_mult: 1
  }
  param {
    lr_mult: 2
  }
  inner_product_param {
    num_output: 100
    weight_filler {
      type: "xavier"
    }
    bias_filler {
      type: "constant"
    }
  }
}
layer {
  name: "bn2"
  type: "BN"
  bottom: "ip2"
  top: "ip2_bn"
}
layer {
  name: "sigmoid2"
  type: "Sigmoid"
  bottom: "ip2_bn"
  top: "ip2_bn"
}
layer {
  name: "ip3"
  type: "InnerProduct"
  bottom: "ip2_bn"
  top: "ip3"
  param {
    lr_mult: 1
  }
  param {
    lr_mult: 2
  }
  inner_product_param {
    num_output: 100
    weight_filler {
      type: "xavier"
    }
    bias_filler {
      type: "constant"
    }
  }
}
layer {
  name: "bn3"
  type: "BN"
  bottom: "ip3"
  top: "ip3_bn"
}
layer {
  name: "sigmoid3"
  type: "Sigmoid"
  bottom: "ip3_bn"
  top: "ip3_bn"
}
layer {
  name: "ip4"
  type: "InnerProduct"
  bottom: "ip3_bn"
  top: "ip4"
  param {
    lr_mult: 1
  }
  param {
    lr_mult: 2
  }
  inner_product_param {
    num_output: 10
    weight_filler {
      type: "xavier"
    }
    bias_filler {
      type: "constant"
    }
  }
}
layer {
  name: "loss"
  type: "SoftmaxWithLoss"
  bottom: "ip4"
  bottom: "label"
  top: "loss"
}
I0905 23:20:49.543452 83600 layer_factory.hpp:76] Creating layer mnist
I0905 23:20:49.544512 83600 net.cpp:110] Creating Layer mnist
I0905 23:20:49.544538 83600 net.cpp:433] mnist -> data
I0905 23:20:49.544687 83600 net.cpp:433] mnist -> label
I0905 23:20:49.547344 83603 db_lmdb.cpp:22] Opened lmdb examples/mnist/mnist_train_lmdb
I0905 23:20:49.547500 83600 data_layer.cpp:44] output data size: 64,1,28,28
I0905 23:20:49.558671 83600 net.cpp:155] Setting up mnist
I0905 23:20:49.558837 83600 net.cpp:163] Top shape: 64 1 28 28 (50176)
I0905 23:20:49.558868 83600 net.cpp:163] Top shape: 64 (64)
I0905 23:20:49.558881 83600 layer_factory.hpp:76] Creating layer ip1
I0905 23:20:49.558908 83600 net.cpp:110] Creating Layer ip1
I0905 23:20:49.558918 83600 net.cpp:477] ip1 <- data
I0905 23:20:49.558950 83600 net.cpp:433] ip1 -> ip1
I0905 23:20:49.561252 83600 net.cpp:155] Setting up ip1
I0905 23:20:49.561286 83600 net.cpp:163] Top shape: 64 100 (6400)
I0905 23:20:49.561321 83600 layer_factory.hpp:76] Creating layer bn1
I0905 23:20:49.561342 83600 net.cpp:110] Creating Layer bn1
I0905 23:20:49.561349 83600 net.cpp:477] bn1 <- ip1
I0905 23:20:49.561362 83600 net.cpp:433] bn1 -> ip1_bn
I0905 23:20:49.561455 83600 net.cpp:155] Setting up bn1
I0905 23:20:49.561472 83600 net.cpp:163] Top shape: 64 100 (6400)
I0905 23:20:49.561528 83600 layer_factory.hpp:76] Creating layer sigmoid1
I0905 23:20:49.561554 83600 net.cpp:110] Creating Layer sigmoid1
I0905 23:20:49.561569 83600 net.cpp:477] sigmoid1 <- ip1_bn
I0905 23:20:49.561580 83600 net.cpp:419] sigmoid1 -> ip1_bn (in-place)
I0905 23:20:49.561596 83600 net.cpp:155] Setting up sigmoid1
I0905 23:20:49.561607 83600 net.cpp:163] Top shape: 64 100 (6400)
I0905 23:20:49.561614 83600 layer_factory.hpp:76] Creating layer ip2
I0905 23:20:49.561628 83600 net.cpp:110] Creating Layer ip2
I0905 23:20:49.561635 83600 net.cpp:477] ip2 <- ip1_bn
I0905 23:20:49.561650 83600 net.cpp:433] ip2 -> ip2
I0905 23:20:49.562773 83600 net.cpp:155] Setting up ip2
I0905 23:20:49.562798 83600 net.cpp:163] Top shape: 64 100 (6400)
I0905 23:20:49.562818 83600 layer_factory.hpp:76] Creating layer bn2
I0905 23:20:49.562834 83600 net.cpp:110] Creating Layer bn2
I0905 23:20:49.562840 83600 net.cpp:477] bn2 <- ip2
I0905 23:20:49.562852 83600 net.cpp:433] bn2 -> ip2_bn
I0905 23:20:49.562923 83600 net.cpp:155] Setting up bn2
I0905 23:20:49.562939 83600 net.cpp:163] Top shape: 64 100 (6400)
I0905 23:20:49.562954 83600 layer_factory.hpp:76] Creating layer sigmoid2
I0905 23:20:49.562966 83600 net.cpp:110] Creating Layer sigmoid2
I0905 23:20:49.562974 83600 net.cpp:477] sigmoid2 <- ip2_bn
I0905 23:20:49.562984 83600 net.cpp:419] sigmoid2 -> ip2_bn (in-place)
I0905 23:20:49.562996 83600 net.cpp:155] Setting up sigmoid2
I0905 23:20:49.563006 83600 net.cpp:163] Top shape: 64 100 (6400)
I0905 23:20:49.563014 83600 layer_factory.hpp:76] Creating layer ip3
I0905 23:20:49.563026 83600 net.cpp:110] Creating Layer ip3
I0905 23:20:49.563032 83600 net.cpp:477] ip3 <- ip2_bn
I0905 23:20:49.563047 83600 net.cpp:433] ip3 -> ip3
I0905 23:20:49.563305 83600 net.cpp:155] Setting up ip3
I0905 23:20:49.563321 83600 net.cpp:163] Top shape: 64 100 (6400)
I0905 23:20:49.563340 83600 layer_factory.hpp:76] Creating layer bn3
I0905 23:20:49.563362 83600 net.cpp:110] Creating Layer bn3
I0905 23:20:49.563369 83600 net.cpp:477] bn3 <- ip3
I0905 23:20:49.563383 83600 net.cpp:433] bn3 -> ip3_bn
I0905 23:20:49.563478 83600 net.cpp:155] Setting up bn3
I0905 23:20:49.563494 83600 net.cpp:163] Top shape: 64 100 (6400)
I0905 23:20:49.563519 83600 layer_factory.hpp:76] Creating layer sigmoid3
I0905 23:20:49.563534 83600 net.cpp:110] Creating Layer sigmoid3
I0905 23:20:49.563541 83600 net.cpp:477] sigmoid3 <- ip3_bn
I0905 23:20:49.563551 83600 net.cpp:419] sigmoid3 -> ip3_bn (in-place)
I0905 23:20:49.563562 83600 net.cpp:155] Setting up sigmoid3
I0905 23:20:49.563571 83600 net.cpp:163] Top shape: 64 100 (6400)
I0905 23:20:49.563578 83600 layer_factory.hpp:76] Creating layer ip4
I0905 23:20:49.563591 83600 net.cpp:110] Creating Layer ip4
I0905 23:20:49.563597 83600 net.cpp:477] ip4 <- ip3_bn
I0905 23:20:49.563608 83600 net.cpp:433] ip4 -> ip4
I0905 23:20:49.564584 83600 net.cpp:155] Setting up ip4
I0905 23:20:49.564611 83600 net.cpp:163] Top shape: 64 10 (640)
I0905 23:20:49.564626 83600 layer_factory.hpp:76] Creating layer loss
I0905 23:20:49.564643 83600 net.cpp:110] Creating Layer loss
I0905 23:20:49.564651 83600 net.cpp:477] loss <- ip4
I0905 23:20:49.564661 83600 net.cpp:477] loss <- label
I0905 23:20:49.564677 83600 net.cpp:433] loss -> loss
I0905 23:20:49.564700 83600 layer_factory.hpp:76] Creating layer loss
I0905 23:20:49.564810 83600 net.cpp:155] Setting up loss
…
I0905 23:20:49.565735 83600 solver.cpp:186] Creating test net (#0) specified by net file: examples/mnist_bn/fcn_train_test.prototxt
I0905 23:20:49.565793 83600 net.cpp:339] The NetState phase (1) differed from the phase (0) specified by a rule in layer mnist
I0905 23:20:49.565979 83600 net.cpp:50] Initializing net from parameters: 
name: "FCN_MNIST_BN"
state {
  phase: TEST
}
layer {
  name: "mnist"
  type: "Data"
  top: "data"
  top: "label"
  include {
    phase: TEST
  }
  transform_param {
    scale: 0.00390625
  }
  data_param {
    source: "examples/mnist/mnist_test_lmdb"
    batch_size: 100
    backend: LMDB
  }
}
layer {
  name: "ip1"
  type: "InnerProduct"
  bottom: "data"
  top: "ip1"
  param {
    lr_mult: 1
  }
  param {
    lr_mult: 2
  }
  inner_product_param {
    num_output: 100
    weight_filler {
      type: "xavier"
    }
    bias_filler {
      type: "constant"
    }
  }
}
layer {
  name: "bn1"
  type: "BN"
  bottom: "ip1"
  top: "ip1_bn"
}
layer {
  name: "sigmoid1"
  type: "Sigmoid"
  bottom: "ip1_bn"
  top: "ip1_bn"
}
layer {
  name: "ip2"
  type: "InnerProduct"
  bottom: "ip1_bn"
  top: "ip2"
  param {
    lr_mult: 1
  }
  param {
    lr_mult: 2
  }
  inner_product_param {
    num_output: 100
    weight_filler {
      type: "xavier"
    }
    bias_filler {
      type: "constant"
    }
  }
}
layer {
  name: "bn2"
  type: "BN"
  bottom: "ip2"
  top: "ip2_bn"
}
layer {
  name: "sigmoid2"
  type: "Sigmoid"
  bottom: "ip2_bn"
  top: "ip2_bn"
}
layer {
  name: "ip3"
  type: "InnerProduct"
  bottom: "ip2_bn"
  top: "ip3"
  param {
    lr_mult: 1
  }
  param {
    lr_mult: 2
  }
  inner_product_param {
    num_output: 100
    weight_filler {
      type: "xavier"
    }
    bias_filler {
      type: "constant"
    }
  }
}
layer {
  name: "bn3"
  type: "BN"
  bottom: "ip3"
  top: "ip3_bn"
}
layer {
  name: "sigmoid3"
  type: "Sigmoid"
  bottom: "ip3_bn"
  top: "ip3_bn"
}
layer {
  name: "ip4"
  type: "InnerProduct"
  bottom: "ip3_bn"
  top: "ip4"
  param {
    lr_mult: 1
  }
  param {
    lr_mult: 2
  }
  inner_product_param {
    num_output: 10
    weight_filler {
      type: "xavier"
    }
    bias_filler {
      type: "constant"
    }
  }
}
layer {
  name: "accuracy"
  type: "Accuracy"
  bottom: "ip4"
  bottom: "label"
  top: "accuracy"
  include {
    phase: TEST
  }
}
layer {
  name: "loss"
  type: "SoftmaxWithLoss"
  bottom: "ip4"
  bottom: "label"
  top: "loss"
}
I0905 23:20:49.566148 83600 layer_factory.hpp:76] Creating layer mnist
I0905 23:20:49.566361 83600 net.cpp:110] Creating Layer mnist
I0905 23:20:49.566376 83600 net.cpp:433] mnist -> data
I0905 23:20:49.566395 83600 net.cpp:433] mnist -> label
I0905 23:20:49.567991 83605 db_lmdb.cpp:22] Opened lmdb examples/mnist/mnist_test_lmdb
I0905 23:20:49.568099 83600 data_layer.cpp:44] output data size: 100,1,28,28
I0905 23:20:49.569799 83600 net.cpp:155] Setting up mnist
I0905 23:20:49.569828 83600 net.cpp:163] Top shape: 100 1 28 28 (78400)
I0905 23:20:49.569843 83600 net.cpp:163] Top shape: 100 (100)
I0905 23:20:49.569851 83600 layer_factory.hpp:76] Creating layer label_mnist_1_split
I0905 23:20:49.569871 83600 net.cpp:110] Creating Layer label_mnist_1_split
I0905 23:20:49.569880 83600 net.cpp:477] label_mnist_1_split <- label
I0905 23:20:49.569890 83600 net.cpp:433] label_mnist_1_split -> label_mnist_1_split_0
I0905 23:20:49.569907 83600 net.cpp:433] label_mnist_1_split -> label_mnist_1_split_1
I0905 23:20:49.569927 83600 net.cpp:155] Setting up label_mnist_1_split
I0905 23:20:49.569938 83600 net.cpp:163] Top shape: 100 (100)
I0905 23:20:49.569986 83600 net.cpp:163] Top shape: 100 (100)
I0905 23:20:49.569994 83600 layer_factory.hpp:76] Creating layer ip1
I0905 23:20:49.570014 83600 net.cpp:110] Creating Layer ip1
I0905 23:20:49.570022 83600 net.cpp:477] ip1 <- data
I0905 23:20:49.570037 83600 net.cpp:433] ip1 -> ip1
I0905 23:20:49.571475 83600 net.cpp:155] Setting up ip1
I0905 23:20:49.571496 83600 net.cpp:163] Top shape: 100 100 (10000)
I0905 23:20:49.571523 83600 layer_factory.hpp:76] Creating layer bn1
I0905 23:20:49.571537 83600 net.cpp:110] Creating Layer bn1
I0905 23:20:49.571545 83600 net.cpp:477] bn1 <- ip1
I0905 23:20:49.571557 83600 net.cpp:433] bn1 -> ip1_bn
I0905 23:20:49.571624 83600 net.cpp:155] Setting up bn1
I0905 23:20:49.571638 83600 net.cpp:163] Top shape: 100 100 (10000)
I0905 23:20:49.571661 83600 layer_factory.hpp:76] Creating layer sigmoid1
I0905 23:20:49.571692 83600 net.cpp:110] Creating Layer sigmoid1
I0905 23:20:49.571703 83600 net.cpp:477] sigmoid1 <- ip1_bn
I0905 23:20:49.571714 83600 net.cpp:419] sigmoid1 -> ip1_bn (in-place)
I0905 23:20:49.571727 83600 net.cpp:155] Setting up sigmoid1
I0905 23:20:49.571737 83600 net.cpp:163] Top shape: 100 100 (10000)
I0905 23:20:49.571744 83600 layer_factory.hpp:76] Creating layer ip2
I0905 23:20:49.571760 83600 net.cpp:110] Creating Layer ip2
I0905 23:20:49.571768 83600 net.cpp:477] ip2 <- ip1_bn
I0905 23:20:49.571779 83600 net.cpp:433] ip2 -> ip2
I0905 23:20:49.572047 83600 net.cpp:155] Setting up ip2
I0905 23:20:49.572064 83600 net.cpp:163] Top shape: 100 100 (10000)
I0905 23:20:49.572082 83600 layer_factory.hpp:76] Creating layer bn2
I0905 23:20:49.572093 83600 net.cpp:110] Creating Layer bn2
I0905 23:20:49.572100 83600 net.cpp:477] bn2 <- ip2
I0905 23:20:49.572110 83600 net.cpp:433] bn2 -> ip2_bn
I0905 23:20:49.572176 83600 net.cpp:155] Setting up bn2
I0905 23:20:49.572192 83600 net.cpp:163] Top shape: 100 100 (10000)
I0905 23:20:49.572207 83600 layer_factory.hpp:76] Creating layer sigmoid2
I0905 23:20:49.572217 83600 net.cpp:110] Creating Layer sigmoid2
I0905 23:20:49.572224 83600 net.cpp:477] sigmoid2 <- ip2_bn
I0905 23:20:49.572238 83600 net.cpp:419] sigmoid2 -> ip2_bn (in-place)
I0905 23:20:49.572252 83600 net.cpp:155] Setting up sigmoid2
I0905 23:20:49.572260 83600 net.cpp:163] Top shape: 100 100 (10000)
I0905 23:20:49.572268 83600 layer_factory.hpp:76] Creating layer ip3
I0905 23:20:49.572281 83600 net.cpp:110] Creating Layer ip3
I0905 23:20:49.572288 83600 net.cpp:477] ip3 <- ip2_bn
I0905 23:20:49.572299 83600 net.cpp:433] ip3 -> ip3
I0905 23:20:49.572562 83600 net.cpp:155] Setting up ip3
I0905 23:20:49.572579 83600 net.cpp:163] Top shape: 100 100 (10000)
I0905 23:20:49.572598 83600 layer_factory.hpp:76] Creating layer bn3
I0905 23:20:49.572609 83600 net.cpp:110] Creating Layer bn3
I0905 23:20:49.572616 83600 net.cpp:477] bn3 <- ip3
I0905 23:20:49.572626 83600 net.cpp:433] bn3 -> ip3_bn
I0905 23:20:49.572702 83600 net.cpp:155] Setting up bn3
I0905 23:20:49.572717 83600 net.cpp:163] Top shape: 100 100 (10000)
I0905 23:20:49.572731 83600 layer_factory.hpp:76] Creating layer sigmoid3
I0905 23:20:49.572741 83600 net.cpp:110] Creating Layer sigmoid3
I0905 23:20:49.572748 83600 net.cpp:477] sigmoid3 <- ip3_bn
I0905 23:20:49.572757 83600 net.cpp:419] sigmoid3 -> ip3_bn (in-place)
I0905 23:20:49.572768 83600 net.cpp:155] Setting up sigmoid3
I0905 23:20:49.572777 83600 net.cpp:163] Top shape: 100 100 (10000)
I0905 23:20:49.572784 83600 layer_factory.hpp:76] Creating layer ip4
I0905 23:20:49.572799 83600 net.cpp:110] Creating Layer ip4
I0905 23:20:49.572805 83600 net.cpp:477] ip4 <- ip3_bn
I0905 23:20:49.572818 83600 net.cpp:433] ip4 -> ip4
I0905 23:20:49.572928 83600 net.cpp:155] Setting up ip4
I0905 23:20:49.572943 83600 net.cpp:163] Top shape: 100 10 (1000)
I0905 23:20:49.572957 83600 layer_factory.hpp:76] Creating layer ip4_ip4_0_split
I0905 23:20:49.572968 83600 net.cpp:110] Creating Layer ip4_ip4_0_split
I0905 23:20:49.572974 83600 net.cpp:477] ip4_ip4_0_split <- ip4
I0905 23:20:49.572988 83600 net.cpp:433] ip4_ip4_0_split -> ip4_ip4_0_split_0
I0905 23:20:49.573001 83600 net.cpp:433] ip4_ip4_0_split -> ip4_ip4_0_split_1
I0905 23:20:49.573040 83600 net.cpp:155] Setting up ip4_ip4_0_split
I0905 23:20:49.573056 83600 net.cpp:163] Top shape: 100 10 (1000)
I0905 23:20:49.573065 83600 net.cpp:163] Top shape: 100 10 (1000)
I0905 23:20:49.573071 83600 layer_factory.hpp:76] Creating layer accuracy
I0905 23:20:49.573087 83600 net.cpp:110] Creating Layer accuracy
I0905 23:20:49.573094 83600 net.cpp:477] accuracy <- ip4_ip4_0_split_0
I0905 23:20:49.573103 83600 net.cpp:477] accuracy <- label_mnist_1_split_0
I0905 23:20:49.573114 83600 net.cpp:433] accuracy -> accuracy
I0905 23:20:49.573132 83600 net.cpp:155] Setting up accuracy
…
