…
I0905 23:20:26.549643 83590 net.cpp:339] The NetState phase (0) differed from the phase (1) specified by a rule in layer mnist
I0905 23:20:26.549664 83590 net.cpp:339] The NetState phase (0) differed from the phase (1) specified by a rule in layer accuracy
I0905 23:20:26.549739 83590 net.cpp:50] Initializing net from parameters: 
name: "FCN_MNIST"
state {
  phase: TRAIN
}
layer {
  name: "mnist"
  type: "Data"
  top: "data"
  top: "label"
  include {
    phase: TRAIN
  }
  transform_param {
    scale: 0.00390625
  }
  data_param {
    source: "examples/mnist/mnist_train_lmdb"
    batch_size: 64
    backend: LMDB
  }
}
layer {
  name: "ip1"
  type: "InnerProduct"
  bottom: "data"
  top: "ip1"
  param {
    lr_mult: 1
  }
  param {
    lr_mult: 2
  }
  inner_product_param {
    num_output: 100
    weight_filler {
      type: "xavier"
    }
    bias_filler {
      type: "constant"
    }
  }
}
layer {
  name: "sigmoid1"
  type: "Sigmoid"
  bottom: "ip1"
  top: "ip1"
}
layer {
  name: "ip2"
  type: "InnerProduct"
  bottom: "ip1"
  top: "ip2"
  param {
    lr_mult: 1
  }
  param {
    lr_mult: 2
  }
  inner_product_param {
    num_output: 100
    weight_filler {
      type: "xavier"
    }
    bias_filler {
      type: "constant"
    }
  }
}
layer {
  name: "sigmoid2"
  type: "Sigmoid"
  bottom: "ip2"
  top: "ip2"
}
layer {
  name: "ip3"
  type: "InnerProduct"
  bottom: "ip2"
  top: "ip3"
  param {
    lr_mult: 1
  }
  param {
    lr_mult: 2
  }
  inner_product_param {
    num_output: 100
    weight_filler {
      type: "xavier"
    }
    bias_filler {
      type: "constant"
    }
  }
}
layer {
  name: "sigmoid3"
  type: "Sigmoid"
  bottom: "ip3"
  top: "ip3"
}
layer {
  name: "ip4"
  type: "InnerProduct"
  bottom: "ip3"
  top: "ip4"
  param {
    lr_mult: 1
  }
  param {
    lr_mult: 2
  }
  inner_product_param {
    num_output: 10
    weight_filler {
      type: "xavier"
    }
    bias_filler {
      type: "constant"
    }
  }
}
layer {
  name: "loss"
  type: "SoftmaxWithLoss"
  bottom: "ip4"
  bottom: "label"
  top: "loss"
}
I0905 23:20:26.549814 83590 layer_factory.hpp:76] Creating layer mnist
I0905 23:20:26.550362 83590 net.cpp:110] Creating Layer mnist
I0905 23:20:26.550375 83590 net.cpp:433] mnist -> data
I0905 23:20:26.550474 83590 net.cpp:433] mnist -> label
I0905 23:20:26.552172 83593 db_lmdb.cpp:22] Opened lmdb examples/mnist/mnist_train_lmdb
I0905 23:20:26.552270 83590 data_layer.cpp:44] output data size: 64,1,28,28
I0905 23:20:26.560835 83590 net.cpp:155] Setting up mnist
I0905 23:20:26.560874 83590 net.cpp:163] Top shape: 64 1 28 28 (50176)
I0905 23:20:26.560883 83590 net.cpp:163] Top shape: 64 (64)
I0905 23:20:26.560889 83590 layer_factory.hpp:76] Creating layer ip1
I0905 23:20:26.560899 83590 net.cpp:110] Creating Layer ip1
I0905 23:20:26.560909 83590 net.cpp:477] ip1 <- data
I0905 23:20:26.560925 83590 net.cpp:433] ip1 -> ip1
I0905 23:20:26.562153 83590 net.cpp:155] Setting up ip1
I0905 23:20:26.562177 83590 net.cpp:163] Top shape: 64 100 (6400)
I0905 23:20:26.562193 83590 layer_factory.hpp:76] Creating layer sigmoid1
I0905 23:20:26.562204 83590 net.cpp:110] Creating Layer sigmoid1
I0905 23:20:26.562207 83590 net.cpp:477] sigmoid1 <- ip1
I0905 23:20:26.562212 83590 net.cpp:419] sigmoid1 -> ip1 (in-place)
I0905 23:20:26.562227 83590 net.cpp:155] Setting up sigmoid1
I0905 23:20:26.562232 83590 net.cpp:163] Top shape: 64 100 (6400)
I0905 23:20:26.562234 83590 layer_factory.hpp:76] Creating layer ip2
I0905 23:20:26.562242 83590 net.cpp:110] Creating Layer ip2
I0905 23:20:26.562244 83590 net.cpp:477] ip2 <- ip1
I0905 23:20:26.562252 83590 net.cpp:433] ip2 -> ip2
I0905 23:20:26.562928 83590 net.cpp:155] Setting up ip2
I0905 23:20:26.562940 83590 net.cpp:163] Top shape: 64 100 (6400)
I0905 23:20:26.562961 83590 layer_factory.hpp:76] Creating layer sigmoid2
I0905 23:20:26.562970 83590 net.cpp:110] Creating Layer sigmoid2
I0905 23:20:26.562974 83590 net.cpp:477] sigmoid2 <- ip2
I0905 23:20:26.562979 83590 net.cpp:419] sigmoid2 -> ip2 (in-place)
I0905 23:20:26.562985 83590 net.cpp:155] Setting up sigmoid2
I0905 23:20:26.562989 83590 net.cpp:163] Top shape: 64 100 (6400)
I0905 23:20:26.562993 83590 layer_factory.hpp:76] Creating layer ip3
I0905 23:20:26.562999 83590 net.cpp:110] Creating Layer ip3
I0905 23:20:26.563002 83590 net.cpp:477] ip3 <- ip2
I0905 23:20:26.563007 83590 net.cpp:433] ip3 -> ip3
I0905 23:20:26.563138 83590 net.cpp:155] Setting up ip3
I0905 23:20:26.563148 83590 net.cpp:163] Top shape: 64 100 (6400)
I0905 23:20:26.563155 83590 layer_factory.hpp:76] Creating layer sigmoid3
I0905 23:20:26.563160 83590 net.cpp:110] Creating Layer sigmoid3
I0905 23:20:26.563163 83590 net.cpp:477] sigmoid3 <- ip3
I0905 23:20:26.563168 83590 net.cpp:419] sigmoid3 -> ip3 (in-place)
I0905 23:20:26.563172 83590 net.cpp:155] Setting up sigmoid3
I0905 23:20:26.563177 83590 net.cpp:163] Top shape: 64 100 (6400)
I0905 23:20:26.563180 83590 layer_factory.hpp:76] Creating layer ip4
I0905 23:20:26.563186 83590 net.cpp:110] Creating Layer ip4
I0905 23:20:26.563189 83590 net.cpp:477] ip4 <- ip3
I0905 23:20:26.563196 83590 net.cpp:433] ip4 -> ip4
I0905 23:20:26.563771 83590 net.cpp:155] Setting up ip4
I0905 23:20:26.563782 83590 net.cpp:163] Top shape: 64 10 (640)
I0905 23:20:26.563789 83590 layer_factory.hpp:76] Creating layer loss
I0905 23:20:26.563801 83590 net.cpp:110] Creating Layer loss
I0905 23:20:26.563804 83590 net.cpp:477] loss <- ip4
I0905 23:20:26.563808 83590 net.cpp:477] loss <- label
I0905 23:20:26.563817 83590 net.cpp:433] loss -> loss
I0905 23:20:26.563828 83590 layer_factory.hpp:76] Creating layer loss
I0905 23:20:26.563910 83590 net.cpp:155] Setting up loss
…
I0905 23:20:26.564291 83590 solver.cpp:186] Creating test net (#0) specified by net file: examples/mnist/fcn_train_test.prototxt
I0905 23:20:26.564316 83590 net.cpp:339] The NetState phase (1) differed from the phase (0) specified by a rule in layer mnist
I0905 23:20:26.564407 83590 net.cpp:50] Initializing net from parameters: 
name: "FCN_MNIST"
state {
  phase: TEST
}
layer {
  name: "mnist"
  type: "Data"
  top: "data"
  top: "label"
  include {
    phase: TEST
  }
  transform_param {
    scale: 0.00390625
  }
  data_param {
    source: "examples/mnist/mnist_test_lmdb"
    batch_size: 100
    backend: LMDB
  }
}
layer {
  name: "ip1"
  type: "InnerProduct"
  bottom: "data"
  top: "ip1"
  param {
    lr_mult: 1
  }
  param {
    lr_mult: 2
  }
  inner_product_param {
    num_output: 100
    weight_filler {
      type: "xavier"
    }
    bias_filler {
      type: "constant"
    }
  }
}
layer {
  name: "sigmoid1"
  type: "Sigmoid"
  bottom: "ip1"
  top: "ip1"
}
layer {
  name: "ip2"
  type: "InnerProduct"
  bottom: "ip1"
  top: "ip2"
  param {
    lr_mult: 1
  }
  param {
    lr_mult: 2
  }
  inner_product_param {
    num_output: 100
    weight_filler {
      type: "xavier"
    }
    bias_filler {
      type: "constant"
    }
  }
}
layer {
  name: "sigmoid2"
  type: "Sigmoid"
  bottom: "ip2"
  top: "ip2"
}
layer {
  name: "ip3"
  type: "InnerProduct"
  bottom: "ip2"
  top: "ip3"
  param {
    lr_mult: 1
  }
  param {
    lr_mult: 2
  }
  inner_product_param {
    num_output: 100
    weight_filler {
      type: "xavier"
    }
    bias_filler {
      type: "constant"
    }
  }
}
layer {
  name: "sigmoid3"
  type: "Sigmoid"
  bottom: "ip3"
  top: "ip3"
}
layer {
  name: "ip4"
  type: "InnerProduct"
  bottom: "ip3"
  top: "ip4"
  param {
    lr_mult: 1
  }
  param {
    lr_mult: 2
  }
  inner_product_param {
    num_output: 10
    weight_filler {
      type: "xavier"
    }
    bias_filler {
      type: "constant"
    }
  }
}
layer {
  name: "accuracy"
  type: "Accuracy"
  bottom: "ip4"
  bottom: "label"
  top: "accuracy"
  include {
    phase: TEST
  }
}
layer {
  name: "loss"
  type: "SoftmaxWithLoss"
  bottom: "ip4"
  bottom: "label"
  top: "loss"
}
I0905 23:20:26.564496 83590 layer_factory.hpp:76] Creating layer mnist
I0905 23:20:26.564610 83590 net.cpp:110] Creating Layer mnist
I0905 23:20:26.564617 83590 net.cpp:433] mnist -> data
I0905 23:20:26.564641 83590 net.cpp:433] mnist -> label
I0905 23:20:26.566483 83595 db_lmdb.cpp:22] Opened lmdb examples/mnist/mnist_test_lmdb
I0905 23:20:26.566540 83590 data_layer.cpp:44] output data size: 100,1,28,28
I0905 23:20:26.567543 83590 net.cpp:155] Setting up mnist
I0905 23:20:26.567556 83590 net.cpp:163] Top shape: 100 1 28 28 (78400)
I0905 23:20:26.567561 83590 net.cpp:163] Top shape: 100 (100)
I0905 23:20:26.567565 83590 layer_factory.hpp:76] Creating layer label_mnist_1_split
I0905 23:20:26.567615 83590 net.cpp:110] Creating Layer label_mnist_1_split
I0905 23:20:26.567618 83590 net.cpp:477] label_mnist_1_split <- label
I0905 23:20:26.567623 83590 net.cpp:433] label_mnist_1_split -> label_mnist_1_split_0
I0905 23:20:26.567631 83590 net.cpp:433] label_mnist_1_split -> label_mnist_1_split_1
I0905 23:20:26.567653 83590 net.cpp:155] Setting up label_mnist_1_split
I0905 23:20:26.567661 83590 net.cpp:163] Top shape: 100 (100)
I0905 23:20:26.567663 83590 net.cpp:163] Top shape: 100 (100)
I0905 23:20:26.567667 83590 layer_factory.hpp:76] Creating layer ip1
I0905 23:20:26.567694 83590 net.cpp:110] Creating Layer ip1
I0905 23:20:26.567698 83590 net.cpp:477] ip1 <- data
I0905 23:20:26.567704 83590 net.cpp:433] ip1 -> ip1
I0905 23:20:26.568344 83590 net.cpp:155] Setting up ip1
I0905 23:20:26.568356 83590 net.cpp:163] Top shape: 100 100 (10000)
I0905 23:20:26.568366 83590 layer_factory.hpp:76] Creating layer sigmoid1
I0905 23:20:26.568372 83590 net.cpp:110] Creating Layer sigmoid1
I0905 23:20:26.568374 83590 net.cpp:477] sigmoid1 <- ip1
I0905 23:20:26.568379 83590 net.cpp:419] sigmoid1 -> ip1 (in-place)
I0905 23:20:26.568384 83590 net.cpp:155] Setting up sigmoid1
I0905 23:20:26.568388 83590 net.cpp:163] Top shape: 100 100 (10000)
I0905 23:20:26.568392 83590 layer_factory.hpp:76] Creating layer ip2
I0905 23:20:26.568400 83590 net.cpp:110] Creating Layer ip2
I0905 23:20:26.568404 83590 net.cpp:477] ip2 <- ip1
I0905 23:20:26.568411 83590 net.cpp:433] ip2 -> ip2
I0905 23:20:26.568536 83590 net.cpp:155] Setting up ip2
I0905 23:20:26.568543 83590 net.cpp:163] Top shape: 100 100 (10000)
I0905 23:20:26.568552 83590 layer_factory.hpp:76] Creating layer sigmoid2
I0905 23:20:26.568557 83590 net.cpp:110] Creating Layer sigmoid2
I0905 23:20:26.568559 83590 net.cpp:477] sigmoid2 <- ip2
I0905 23:20:26.568567 83590 net.cpp:419] sigmoid2 -> ip2 (in-place)
I0905 23:20:26.568572 83590 net.cpp:155] Setting up sigmoid2
I0905 23:20:26.568575 83590 net.cpp:163] Top shape: 100 100 (10000)
I0905 23:20:26.568578 83590 layer_factory.hpp:76] Creating layer ip3
I0905 23:20:26.568583 83590 net.cpp:110] Creating Layer ip3
I0905 23:20:26.568585 83590 net.cpp:477] ip3 <- ip2
I0905 23:20:26.568593 83590 net.cpp:433] ip3 -> ip3
I0905 23:20:26.568727 83590 net.cpp:155] Setting up ip3
I0905 23:20:26.568735 83590 net.cpp:163] Top shape: 100 100 (10000)
I0905 23:20:26.568743 83590 layer_factory.hpp:76] Creating layer sigmoid3
I0905 23:20:26.568750 83590 net.cpp:110] Creating Layer sigmoid3
I0905 23:20:26.568753 83590 net.cpp:477] sigmoid3 <- ip3
I0905 23:20:26.568758 83590 net.cpp:419] sigmoid3 -> ip3 (in-place)
I0905 23:20:26.568763 83590 net.cpp:155] Setting up sigmoid3
I0905 23:20:26.568768 83590 net.cpp:163] Top shape: 100 100 (10000)
I0905 23:20:26.568770 83590 layer_factory.hpp:76] Creating layer ip4
I0905 23:20:26.568776 83590 net.cpp:110] Creating Layer ip4
I0905 23:20:26.568779 83590 net.cpp:477] ip4 <- ip3
I0905 23:20:26.568783 83590 net.cpp:433] ip4 -> ip4
I0905 23:20:26.568835 83590 net.cpp:155] Setting up ip4
I0905 23:20:26.568843 83590 net.cpp:163] Top shape: 100 10 (1000)
I0905 23:20:26.568848 83590 layer_factory.hpp:76] Creating layer ip4_ip4_0_split
I0905 23:20:26.568853 83590 net.cpp:110] Creating Layer ip4_ip4_0_split
I0905 23:20:26.568856 83590 net.cpp:477] ip4_ip4_0_split <- ip4
I0905 23:20:26.568861 83590 net.cpp:433] ip4_ip4_0_split -> ip4_ip4_0_split_0
I0905 23:20:26.568867 83590 net.cpp:433] ip4_ip4_0_split -> ip4_ip4_0_split_1
I0905 23:20:26.568873 83590 net.cpp:155] Setting up ip4_ip4_0_split
I0905 23:20:26.568878 83590 net.cpp:163] Top shape: 100 10 (1000)
I0905 23:20:26.568881 83590 net.cpp:163] Top shape: 100 10 (1000)
I0905 23:20:26.568884 83590 layer_factory.hpp:76] Creating layer accuracy
I0905 23:20:26.568892 83590 net.cpp:110] Creating Layer accuracy
I0905 23:20:26.568894 83590 net.cpp:477] accuracy <- ip4_ip4_0_split_0
I0905 23:20:26.568898 83590 net.cpp:477] accuracy <- label_mnist_1_split_0
I0905 23:20:26.568908 83590 net.cpp:433] accuracy -> accuracy
I0905 23:20:26.568917 83590 net.cpp:155] Setting up accuracy
…
